HloModule jit__full_run, entry_computation_layout={(c128[64,4,2,480]{3,2,1,0}, c128[64,4,2,480]{3,2,1,0}, c128[64,4,2,480]{3,2,1,0}, c128[64,4,2,480]{3,2,1,0}, f64[64,4]{1,0}, /*index=5*/f64[64,4]{1,0}, c128[480,480,4,4,4]{4,3,2,1,0}, c128[480,480]{1,0})->(f64[5]{0}, c128[5,1024]{1,0}, s32[])}, allow_spmd_sharding_propagation_to_parameters={false,false,false,false,false,false,false,false}, allow_spmd_sharding_propagation_to_output={false,false,false}, num_partitions=4

%region_0.1149 (Arg_0.1150: f64[], Arg_1.1151: f64[]) -> f64[] {
  %Arg_0.1150 = f64[] parameter(0), metadata={op_name="jit(_full_run)/jit(main)/jit(norm)/reduce_sum"}
  %Arg_1.1151 = f64[] parameter(1), metadata={op_name="jit(_full_run)/jit(main)/jit(norm)/reduce_sum"}
  ROOT %add.1152 = f64[] add(%Arg_0.1150, %Arg_1.1151), metadata={op_name="jit(_full_run)/jit(main)/jit(norm)/reduce_sum" source_file="/global/homes/j/jackm/software/lorrax_C/src/solvers/lanczos.py" source_line=249}
}

%region_10.1583 (Arg_0.1584: f64[], Arg_1.1585: f64[], Arg_2.1586: s64[], Arg_3.1587: s64[]) -> pred[] {
  %Arg_2.1586 = s64[] parameter(2), metadata={op_name="jit(_full_run)/jit(main)/jit(argsort)/sort"}
  %Arg_3.1587 = s64[] parameter(3), metadata={op_name="jit(_full_run)/jit(main)/jit(argsort)/sort"}
  %constant.1588 = f64[] constant(nan)
  %constant.1589 = f64[] constant(0)
  %Arg_0.1584 = f64[] parameter(0), metadata={op_name="jit(_full_run)/jit(main)/jit(argsort)/sort"}
  %compare.1592 = pred[] compare(%Arg_0.1584, %Arg_0.1584), direction=NE, metadata={op_name="jit(_full_run)/jit(main)/jit(argsort)/ne" source_file="/global/homes/j/jackm/software/lorrax_C/src/solvers/lanczos.py" source_line=293}
  %constant.888 = f64[] constant(nan)
  %constant.890 = f64[] constant(0)
  %compare.1590 = pred[] compare(%Arg_0.1584, %constant.890), direction=EQ, metadata={op_name="jit(_full_run)/jit(main)/jit(argsort)/eq" source_file="/global/homes/j/jackm/software/lorrax_C/src/solvers/lanczos.py" source_line=293}
  %constant.891 = f64[] constant(0)
  %select.1591 = f64[] select(%compare.1590, %constant.891, %Arg_0.1584), metadata={op_name="jit(_full_run)/jit(main)/jit(argsort)/select_n" source_file="/global/homes/j/jackm/software/lorrax_C/src/solvers/lanczos.py" source_line=293}
  %select.1593 = f64[] select(%compare.1592, %constant.888, %select.1591), metadata={op_name="jit(_full_run)/jit(main)/jit(argsort)/select_n" source_file="/global/homes/j/jackm/software/lorrax_C/src/solvers/lanczos.py" source_line=293}
  %Arg_1.1585 = f64[] parameter(1), metadata={op_name="jit(_full_run)/jit(main)/jit(argsort)/sort"}
  %compare.1596 = pred[] compare(%Arg_1.1585, %Arg_1.1585), direction=NE, metadata={op_name="jit(_full_run)/jit(main)/jit(argsort)/ne" source_file="/global/homes/j/jackm/software/lorrax_C/src/solvers/lanczos.py" source_line=293}
  %constant.889 = f64[] constant(nan)
  %constant.892 = f64[] constant(0)
  %compare.1594 = pred[] compare(%Arg_1.1585, %constant.892), direction=EQ, metadata={op_name="jit(_full_run)/jit(main)/jit(argsort)/eq" source_file="/global/homes/j/jackm/software/lorrax_C/src/solvers/lanczos.py" source_line=293}
  %constant.893 = f64[] constant(0)
  %select.1595 = f64[] select(%compare.1594, %constant.893, %Arg_1.1585), metadata={op_name="jit(_full_run)/jit(main)/jit(argsort)/select_n" source_file="/global/homes/j/jackm/software/lorrax_C/src/solvers/lanczos.py" source_line=293}
  %select.1597 = f64[] select(%compare.1596, %constant.889, %select.1595), metadata={op_name="jit(_full_run)/jit(main)/jit(argsort)/select_n" source_file="/global/homes/j/jackm/software/lorrax_C/src/solvers/lanczos.py" source_line=293}
  ROOT %compare.1598 = pred[] compare(%select.1593, %select.1597), direction=LT, type=TOTALORDER, metadata={op_name="jit(_full_run)/jit(main)/jit(argsort)/lt_to" source_file="/global/homes/j/jackm/software/lorrax_C/src/solvers/lanczos.py" source_line=293}
}

%region_11.1622 (Arg_0.1623: f64[], Arg_1.1624: f64[]) -> f64[] {
  %Arg_0.1623 = f64[] parameter(0), metadata={op_name="jit(_full_run)/jit(main)/jit(norm)/reduce_sum"}
  %Arg_1.1624 = f64[] parameter(1), metadata={op_name="jit(_full_run)/jit(main)/jit(norm)/reduce_sum"}
  ROOT %add.1625 = f64[] add(%Arg_0.1623, %Arg_1.1624), metadata={op_name="jit(_full_run)/jit(main)/jit(norm)/reduce_sum" source_file="/global/homes/j/jackm/software/lorrax_C/src/solvers/lanczos.py" source_line=297}
}

%and.reduce_sub_computation.3 (lhs.3: pred[], rhs.3: pred[]) -> pred[] {
  %lhs.3 = pred[] parameter(0)
  %rhs.3 = pred[] parameter(1)
  ROOT %and.6 = pred[] and(%lhs.3, %rhs.3)
}

%scalar_add_computation (scalar_lhs: c128[], scalar_rhs: c128[]) -> c128[] {
  %scalar_lhs = c128[] parameter(0)
  %scalar_rhs = c128[] parameter(1)
  ROOT %add.552 = c128[] add(%scalar_lhs, %scalar_rhs)
}

%region_4.1290 (arg_tuple.1291: (s64[], c128[1024], s64[], s64[], c128[1024,200])) -> (s64[], c128[1024], s64[], s64[], c128[1024,200]) {
  %constant.1299 = s64[] constant(0)
  %arg_tuple.1291 = (s64[], c128[1024]{0}, s64[], s64[], c128[1024,200]{1,0}) parameter(0)
  %get-tuple-element.1292 = s64[] get-tuple-element(%arg_tuple.1291), index=0
  %constant.1300 = s64[] constant(1)
  %add.1301 = s64[] add(%get-tuple-element.1292, %constant.1300), metadata={op_name="jit(_full_run)/jit(main)/while/body/while/body/add" source_file="/global/homes/j/jackm/software/lorrax_C/src/solvers/lanczos.py" source_line=275}
  %get-tuple-element.1293 = c128[1024]{0} get-tuple-element(%arg_tuple.1291), index=1
  %get-tuple-element.1295 = s64[] get-tuple-element(%arg_tuple.1291), index=3
  %compare.1302 = pred[] compare(%get-tuple-element.1292, %get-tuple-element.1295), direction=LT, metadata={op_name="jit(_full_run)/jit(main)/while/body/while/body/lt" source_file="/global/homes/j/jackm/software/lorrax_C/src/solvers/lanczos.py" source_line=269}
  %get-tuple-element.1296 = c128[1024,200]{1,0} get-tuple-element(%arg_tuple.1291), index=4
  %constant.887 = s64[] constant(0)
  %constant.886 = s64[] constant(0)
  %compare.1303 = pred[] compare(%get-tuple-element.1292, %constant.886), direction=LT, metadata={op_name="jit(_full_run)/jit(main)/while/body/while/body/lt" source_file="/global/homes/j/jackm/software/lorrax_C/src/solvers/lanczos.py" source_line=270}
  %constant.1298 = s64[] constant(200)
  %add.1304 = s64[] add(%get-tuple-element.1292, %constant.1298), metadata={op_name="jit(_full_run)/jit(main)/while/body/while/body/add" source_file="/global/homes/j/jackm/software/lorrax_C/src/solvers/lanczos.py" source_line=270}
  %select.1305 = s64[] select(%compare.1303, %add.1304, %get-tuple-element.1292), metadata={op_name="jit(_full_run)/jit(main)/while/body/while/body/select_n" source_file="/global/homes/j/jackm/software/lorrax_C/src/solvers/lanczos.py" source_line=270}
  %dynamic-slice.1306 = c128[1024,1]{1,0} dynamic-slice(%get-tuple-element.1296, %constant.887, %select.1305), dynamic_slice_sizes={1024,1}, metadata={op_name="jit(_full_run)/jit(main)/while/body/while/body/dynamic_slice" source_file="/global/homes/j/jackm/software/lorrax_C/src/solvers/lanczos.py" source_line=270}
  %real.38 = f64[1024,1]{1,0} real(%dynamic-slice.1306), metadata={op_name="jit(_full_run)/jit(main)/while/body/while/body/real" source_file="/global/homes/j/jackm/software/lorrax_C/src/solvers/lanczos.py" source_line=271}
  %imag.29 = f64[1024,1]{1,0} imag(%dynamic-slice.1306), metadata={op_name="jit(_full_run)/jit(main)/while/body/while/body/imag" source_file="/global/homes/j/jackm/software/lorrax_C/src/solvers/lanczos.py" source_line=271}
  %negate.50 = f64[1024,1]{1,0} negate(%imag.29), metadata={op_name="jit(_full_run)/jit(main)/while/body/while/body/neg" source_file="/global/homes/j/jackm/software/lorrax_C/src/solvers/lanczos.py" source_line=271}
  %complex.36 = c128[1024,1]{1,0} complex(%real.38, %negate.50), metadata={op_name="jit(_full_run)/jit(main)/while/body/while/body/complex" source_file="/global/homes/j/jackm/software/lorrax_C/src/solvers/lanczos.py" source_line=271}
  %reshape.453 = c128[1024]{0} reshape(%complex.36), metadata={op_name="jit(_full_run)/jit(main)/while/body/while/body/complex" source_file="/global/homes/j/jackm/software/lorrax_C/src/solvers/lanczos.py" source_line=271}
  %multiply.120 = c128[1024]{0} multiply(%reshape.453, %get-tuple-element.1293)
  %constant.603 = c128[] constant((0, 0))
  %reduce.4 = c128[] reduce(%multiply.120, %constant.603), dimensions={0}, to_apply=%scalar_add_computation, metadata={op_name="jit(_full_run)/jit(main)/while/body/while/body/dot_general" source_file="/global/homes/j/jackm/software/lorrax_C/src/solvers/lanczos.py" source_line=271}
  %constant.1297 = c128[] constant((0, 0))
  %select.90 = c128[] select(%compare.1302, %reduce.4, %constant.1297), metadata={op_name="jit(_full_run)/jit(main)/while/body/while/body/jit(_where)/select_n" source_file="/global/homes/j/jackm/software/lorrax_C/src/solvers/lanczos.py" source_line=271}
  %broadcast.1021 = c128[1024,1]{1,0} broadcast(%select.90), dimensions={}, metadata={op_name="jit(_full_run)/jit(main)/while/body/while/body/mul" source_file="/global/homes/j/jackm/software/lorrax_C/src/solvers/lanczos.py" source_line=272}
  %multiply.139 = c128[1024,1]{1,0} multiply(%broadcast.1021, %dynamic-slice.1306), metadata={op_name="jit(_full_run)/jit(main)/while/body/while/body/mul" source_file="/global/homes/j/jackm/software/lorrax_C/src/solvers/lanczos.py" source_line=272}
  %reshape.329 = c128[1024]{0} reshape(%multiply.139), metadata={op_name="jit(_full_run)/jit(main)/while/body/while/body/mul" source_file="/global/homes/j/jackm/software/lorrax_C/src/solvers/lanczos.py" source_line=272}
  %subtract.1316 = c128[1024]{0} subtract(%get-tuple-element.1293, %reshape.329), metadata={op_name="jit(_full_run)/jit(main)/while/body/while/body/sub" source_file="/global/homes/j/jackm/software/lorrax_C/src/solvers/lanczos.py" source_line=272}
  %get-tuple-element.1294 = s64[] get-tuple-element(%arg_tuple.1291), index=2
  ROOT %tuple.1317 = (s64[], c128[1024]{0}, s64[], s64[], c128[1024,200]{1,0}) tuple(%add.1301, %subtract.1316, %get-tuple-element.1294, %get-tuple-element.1295, %get-tuple-element.1296)
}

%region_5.1318 (arg_tuple.1319: (s64[], c128[1024], s64[], s64[], c128[1024,200])) -> pred[] {
  %arg_tuple.1319 = (s64[], c128[1024]{0}, s64[], s64[], c128[1024,200]{1,0}) parameter(0)
  %get-tuple-element.1320 = s64[] get-tuple-element(%arg_tuple.1319), index=0
  %get-tuple-element.1322 = s64[] get-tuple-element(%arg_tuple.1319), index=2
  ROOT %compare.1325 = pred[] compare(%get-tuple-element.1320, %get-tuple-element.1322), direction=LT, metadata={op_name="jit(_full_run)/jit(main)/while/body/while/cond/lt" source_file="/global/homes/j/jackm/software/lorrax_C/src/solvers/lanczos.py" source_line=275}
}

%region_6.1326 (Arg_0.1327: f64[], Arg_1.1328: f64[]) -> f64[] {
  %Arg_0.1327 = f64[] parameter(0), metadata={op_name="jit(_full_run)/jit(main)/while/body/jit(norm)/reduce_sum"}
  %Arg_1.1328 = f64[] parameter(1), metadata={op_name="jit(_full_run)/jit(main)/while/body/jit(norm)/reduce_sum"}
  ROOT %add.1329 = f64[] add(%Arg_0.1327, %Arg_1.1328), metadata={op_name="jit(_full_run)/jit(main)/while/body/jit(norm)/reduce_sum" source_file="/global/homes/j/jackm/software/lorrax_C/src/solvers/lanczos.py" source_line=277}
}

%and.reduce_sub_computation (lhs: pred[], rhs: pred[]) -> pred[] {
  %lhs = pred[] parameter(0)
  %rhs = pred[] parameter(1)
  ROOT %and = pred[] and(%lhs, %rhs)
}

%scalar_add_computation.1 (scalar_lhs.1: c128[], scalar_rhs.1: c128[]) -> c128[] {
  %scalar_lhs.1 = c128[] parameter(0)
  %scalar_rhs.1 = c128[] parameter(1)
  ROOT %add.608 = c128[] add(%scalar_lhs.1, %scalar_rhs.1)
}

%region_2.1435.clone.clone.clone (arg_tuple.4: (s64[], c128[1024,200], f64[200], f64[200], c128[1024], /*index=5*/c128[64,4,2,480], c128[64,4,2,480], c128[64,4,2,480], c128[64,4,2,480], f64[64,4], /*index=10*/f64[64,4], c128[480,480,4,4,4], c128[480,480])) -> (s64[], c128[1024,200], f64[200], f64[200], c128[1024], /*index=5*/c128[64,4,2,480], c128[64,4,2,480], c128[64,4,2,480], c128[64,4,2,480], f64[64,4], /*index=10*/f64[64,4], c128[480,480,4,4,4], c128[480,480]) {
  %arg_tuple.4 = (s64[], c128[1024,200]{1,0}, f64[200]{0}, f64[200]{0}, c128[1024]{0}, /*index=5*/c128[64,4,2,480]{3,2,1,0}, c128[64,4,2,480]{3,2,1,0}, c128[64,4,2,480]{3,2,1,0}, c128[64,4,2,480]{3,2,1,0}, f64[64,4]{1,0}, /*index=10*/f64[64,4]{1,0}, c128[480,480,4,4,4]{4,3,2,1,0}, c128[480,480]{1,0}) parameter(0)
  %get-tuple-element.246 = s64[] get-tuple-element(%arg_tuple.4), index=0
  %constant.854 = s64[] constant(1)
  %add.620 = s64[] add(%get-tuple-element.246, %constant.854), metadata={op_name="jit(_full_run)/jit(main)/while/body/add" source_file="/global/homes/j/jackm/software/lorrax_C/src/solvers/lanczos.py" source_line=286}
  %get-tuple-element.244 = c128[1024,200]{1,0} get-tuple-element(%arg_tuple.4), index=1
  %constant.867 = s32[] constant(0)
  %broadcast.1067 = s32[2]{0} broadcast(%constant.867), dimensions={}
  %constant.868 = s32[1]{0} constant({0})
  %get-tuple-element.245 = s64[] get-tuple-element(%arg_tuple.4), index=0
  %constant.910 = s64[] constant(1)
  %add.624 = s64[] add(%get-tuple-element.245, %constant.910), metadata={op_name="jit(_full_run)/jit(main)/while/body/add" source_file="/global/homes/j/jackm/software/lorrax_C/src/solvers/lanczos.py" source_line=281}
  %constant.862 = s64[] constant(199)
  %minimum.3 = s64[] minimum(%add.624, %constant.862), metadata={op_name="jit(_full_run)/jit(main)/while/body/min" source_file="/global/homes/j/jackm/software/lorrax_C/src/solvers/lanczos.py" source_line=281}
  %constant.926 = s64[] constant(0)
  %compare.72 = pred[] compare(%minimum.3, %constant.926), direction=LT, metadata={op_name="jit(_full_run)/jit(main)/while/body/lt" source_file="/global/homes/j/jackm/software/lorrax_C/src/solvers/lanczos.py" source_line=281}
  %constant.934 = s64[] constant(200)
  %add.625 = s64[] add(%minimum.3, %constant.934), metadata={op_name="jit(_full_run)/jit(main)/while/body/add" source_file="/global/homes/j/jackm/software/lorrax_C/src/solvers/lanczos.py" source_line=281}
  %select.223 = s64[] select(%compare.72, %add.625, %minimum.3), metadata={op_name="jit(_full_run)/jit(main)/while/body/select_n" source_file="/global/homes/j/jackm/software/lorrax_C/src/solvers/lanczos.py" source_line=281}
  %convert.64 = s32[] convert(%select.223), metadata={op_name="jit(_full_run)/jit(main)/while/body/convert_element_type" source_file="/global/homes/j/jackm/software/lorrax_C/src/solvers/lanczos.py" source_line=281}
  %reshape.425 = s32[1]{0} reshape(%convert.64), metadata={op_name="jit(_full_run)/jit(main)/while/body/broadcast_in_dim" source_file="/global/homes/j/jackm/software/lorrax_C/src/solvers/lanczos.py" source_line=281}
  %concatenate.15 = s32[2]{0} concatenate(%constant.868, %reshape.425), dimensions={0}
  %compare.75 = pred[2]{0} compare(%broadcast.1067, %concatenate.15), direction=LE
  %iota.20 = s32[2]{0} iota(), iota_dimension=0
  %constant.872 = s32[] constant(199)
  %broadcast.1075 = s32[2]{0} broadcast(%constant.872), dimensions={}
  %multiply.156 = s32[2]{0} multiply(%iota.20, %broadcast.1075)
  %compare.76 = pred[2]{0} compare(%multiply.156, %concatenate.15), direction=GE
  %and.18 = pred[2]{0} and(%compare.75, %compare.76)
  %constant.869 = pred[] constant(true)
  %reduce.28 = pred[] reduce(%and.18, %constant.869), dimensions={0}, to_apply=%and.reduce_sub_computation
  %broadcast.1068 = pred[1024,1]{1,0} broadcast(%reduce.28), dimensions={}
  %constant.875 = s64[] constant(-10)
  %add.629 = s64[] add(%get-tuple-element.245, %constant.875), metadata={op_name="jit(_full_run)/jit(main)/while/body/sub" source_file="/global/homes/j/jackm/software/lorrax_C/src/solvers/lanczos.py" source_line=274}
  %constant.914 = s64[] constant(0)
  %maximum.16 = s64[] maximum(%add.629, %constant.914), metadata={op_name="jit(_full_run)/jit(main)/while/body/max" source_file="/global/homes/j/jackm/software/lorrax_C/src/solvers/lanczos.py" source_line=274}
  %get-tuple-element.236 = f64[64,4]{1,0} get-tuple-element(%arg_tuple.4), index=9
  %custom-call.103 = f64[64,4]{1,0} custom-call(%get-tuple-element.236), custom_call_target="Sharding", sharding={replicated}, metadata={op_name="jit(_full_run)/jit(main)/while/body/pjit" source_file="/global/homes/j/jackm/software/lorrax_C/src/bse/bse_lanczos.py" source_line=199}
  %transpose.68 = f64[4,64]{0,1} transpose(%custom-call.103), dimensions={1,0}, metadata={op_name="jit(_full_run)/jit(main)/while/body/jit(_matvec)/transpose" source_file="/global/homes/j/jackm/software/lorrax_C/src/bse/bse_simple.py" source_line=87}
  %broadcast.1069 = f64[1,4,4,64]{3,2,1,0} broadcast(%transpose.68), dimensions={1,3}, metadata={op_name="jit(_full_run)/jit(main)/while/body/jit(_matvec)/sub" source_file="/global/homes/j/jackm/software/lorrax_C/src/bse/bse_simple.py" source_line=87}
  %get-tuple-element.235 = f64[64,4]{1,0} get-tuple-element(%arg_tuple.4), index=10
  %custom-call.104 = f64[64,4]{1,0} custom-call(%get-tuple-element.235), custom_call_target="Sharding", sharding={replicated}, metadata={op_name="jit(_full_run)/jit(main)/while/body/pjit" source_file="/global/homes/j/jackm/software/lorrax_C/src/bse/bse_lanczos.py" source_line=199}
  %transpose.69 = f64[4,64]{0,1} transpose(%custom-call.104), dimensions={1,0}, metadata={op_name="jit(_full_run)/jit(main)/while/body/jit(_matvec)/transpose" source_file="/global/homes/j/jackm/software/lorrax_C/src/bse/bse_simple.py" source_line=87}
  %broadcast.1070 = f64[1,4,4,64]{3,2,1,0} broadcast(%transpose.69), dimensions={2,3}, metadata={op_name="jit(_full_run)/jit(main)/while/body/jit(_matvec)/sub" source_file="/global/homes/j/jackm/software/lorrax_C/src/bse/bse_simple.py" source_line=87}
  %subtract.37 = f64[1,4,4,64]{3,2,1,0} subtract(%broadcast.1069, %broadcast.1070), metadata={op_name="jit(_full_run)/jit(main)/while/body/jit(_matvec)/sub" source_file="/global/homes/j/jackm/software/lorrax_C/src/bse/bse_simple.py" source_line=87}
  %convert.61 = c128[1,4,4,64]{3,2,1,0} convert(%subtract.37), metadata={op_name="jit(_full_run)/jit(main)/while/body/jit(_matvec)/convert_element_type" source_file="/global/homes/j/jackm/software/lorrax_C/src/bse/bse_simple.py" source_line=88}
  %get-tuple-element.241 = c128[1024]{0} get-tuple-element(%arg_tuple.4), index=4
  %reshape.420 = c128[1,4,4,64]{3,2,1,0} reshape(%get-tuple-element.241), metadata={op_name="jit(_full_run)/jit(main)/while/body/reshape" source_file="/global/homes/j/jackm/software/lorrax_C/src/bse/bse_lanczos.py" source_line=197}
  %custom-call.105 = c128[1,4,4,64]{3,2,1,0} custom-call(%reshape.420), custom_call_target="Sharding", sharding={devices=[1,2,2,1]<=[4]}, metadata={op_name="jit(_full_run)/jit(main)/while/body/sharding_constraint" source_file="/global/homes/j/jackm/software/lorrax_C/src/bse/bse_lanczos.py" source_line=198}
  %custom-call.106 = c128[1,4,4,64]{3,2,1,0} custom-call(%custom-call.105), custom_call_target="Sharding", sharding={devices=[1,2,2,1]<=[4]}, metadata={op_name="jit(_full_run)/jit(main)/while/body/pjit" source_file="/global/homes/j/jackm/software/lorrax_C/src/bse/bse_lanczos.py" source_line=199}
  %multiply.148 = c128[1,4,4,64]{3,2,1,0} multiply(%convert.61, %custom-call.106), metadata={op_name="jit(_full_run)/jit(main)/while/body/jit(_matvec)/mul" source_file="/global/homes/j/jackm/software/lorrax_C/src/bse/bse_simple.py" source_line=88}
  %custom-call.107 = c128[1,4,4,64]{3,2,1,0} custom-call(%multiply.148), custom_call_target="Sharding", sharding={devices=[1,2,2,1]<=[4]}, metadata={op_name="jit(_full_run)/jit(main)/while/body/jit(_matvec)/sharding_constraint" source_file="/global/homes/j/jackm/software/lorrax_C/src/bse/bse_simple.py" source_line=89}
  %reshape.426 = c128[4,4,64]{2,1,0} reshape(%custom-call.106)
  %transpose.78 = c128[64,4,4]{0,2,1} transpose(%reshape.426), dimensions={2,0,1}
  %broadcast.1071 = c128[64,480,4,4]{2,3,1,0} broadcast(%transpose.78), dimensions={0,2,3}, metadata={op_name="jit(_full_run)/jit(main)/while/body/jit(_matvec)/kcvN,bcvk->bNk/dot_general" source_file="/global/homes/j/jackm/software/lorrax_C/src/bse/bse_simple.py" source_line=106}
  %get-tuple-element.237 = c128[64,4,2,480]{3,2,1,0} get-tuple-element(%arg_tuple.4), index=8
  %custom-call.108 = c128[64,4,2,480]{3,2,1,0} custom-call(%get-tuple-element.237), custom_call_target="Sharding", sharding={devices=[1,1,1,2,2]<=[2,2]T(1,0) last_tile_dim_replicate}, metadata={op_name="jit(_full_run)/jit(main)/while/body/pjit" source_file="/global/homes/j/jackm/software/lorrax_C/src/bse/bse_lanczos.py" source_line=199}
  %get-tuple-element.239 = c128[64,4,2,480]{3,2,1,0} get-tuple-element(%arg_tuple.4), index=6
  %custom-call.109 = c128[64,4,2,480]{3,2,1,0} custom-call(%get-tuple-element.239), custom_call_target="Sharding", sharding={devices=[1,1,1,2,2]<=[2,2]T(1,0) last_tile_dim_replicate}, metadata={op_name="jit(_full_run)/jit(main)/while/body/pjit" source_file="/global/homes/j/jackm/software/lorrax_C/src/bse/bse_lanczos.py" source_line=199}
  %real.40 = f64[64,4,2,480]{3,2,1,0} real(%custom-call.109), metadata={op_name="jit(_full_run)/jit(main)/while/body/jit(_matvec)/real" source_file="/global/homes/j/jackm/software/lorrax_C/src/bse/bse_simple.py" source_line=96}
  %imag.31 = f64[64,4,2,480]{3,2,1,0} imag(%custom-call.109), metadata={op_name="jit(_full_run)/jit(main)/while/body/jit(_matvec)/imag" source_file="/global/homes/j/jackm/software/lorrax_C/src/bse/bse_simple.py" source_line=96}
  %negate.52 = f64[64,4,2,480]{3,2,1,0} negate(%imag.31), metadata={op_name="jit(_full_run)/jit(main)/while/body/jit(_matvec)/neg" source_file="/global/homes/j/jackm/software/lorrax_C/src/bse/bse_simple.py" source_line=96}
  %complex.29 = c128[64,4,2,480]{3,2,1,0} complex(%real.40, %negate.52), metadata={op_name="jit(_full_run)/jit(main)/while/body/jit(_matvec)/complex" source_file="/global/homes/j/jackm/software/lorrax_C/src/bse/bse_simple.py" source_line=96}
  %dot.45 = c128[64,480,4,4]{3,2,1,0} dot(%custom-call.108, %complex.29), lhs_batch_dims={0,3}, lhs_contracting_dims={2}, rhs_batch_dims={0,3}, rhs_contracting_dims={2}, metadata={op_name="jit(_full_run)/jit(main)/while/body/jit(_matvec)/kcsN,kvsN->kcvN/dot_general" source_file="/global/homes/j/jackm/software/lorrax_C/src/bse/bse_simple.py" source_line=94}
  %transpose.80 = c128[64,480,4,4]{2,3,1,0} transpose(%dot.45), dimensions={0,1,3,2}, metadata={op_name="jit(_full_run)/jit(main)/while/body/jit(_matvec)/kcsN,kvsN->kcvN/transpose" source_file="/global/homes/j/jackm/software/lorrax_C/src/bse/bse_simple.py" source_line=94}
  %multiply.154 = c128[64,480,4,4]{2,3,1,0} multiply(%broadcast.1071, %transpose.80)
  %constant.870 = c128[] constant((0, 0))
  %reduce.29 = c128[64,480]{1,0} reduce(%multiply.154, %constant.870), dimensions={2,3}, to_apply=%scalar_add_computation.1, metadata={op_name="jit(_full_run)/jit(main)/while/body/jit(_matvec)/kcvN,bcvk->bNk/dot_general" source_file="/global/homes/j/jackm/software/lorrax_C/src/bse/bse_simple.py" source_line=106}
  %reshape.427 = c128[64,1,480]{2,1,0} reshape(%reduce.29), metadata={op_name="jit(_full_run)/jit(main)/while/body/jit(_matvec)/kcvN,bcvk->bNk/dot_general" source_file="/global/homes/j/jackm/software/lorrax_C/src/bse/bse_simple.py" source_line=106}
  %transpose.70 = c128[1,480,64]{1,0,2} transpose(%reshape.427), dimensions={1,2,0}, metadata={op_name="jit(_full_run)/jit(main)/while/body/jit(_matvec)/kcvN,bcvk->bNk/transpose" source_file="/global/homes/j/jackm/software/lorrax_C/src/bse/bse_simple.py" source_line=106}
  %custom-call.110 = c128[1,480,64]{2,1,0} custom-call(%transpose.70), custom_call_target="Sharding", sharding={devices=[1,2,1,2]<=[2,2]T(1,0) last_tile_dim_replicate}, metadata={op_name="jit(_full_run)/jit(main)/while/body/jit(_matvec)/sharding_constraint" source_file="/global/homes/j/jackm/software/lorrax_C/src/bse/bse_simple.py" source_line=110}
  %constant.878 = c128[] constant((0.125, 0)), metadata={op_name="jit(_full_run)/jit(main)/while/body/jit(_matvec)/convert_element_type" source_file="/global/homes/j/jackm/software/lorrax_C/src/bse/bse_simple.py" source_line=111}
  %broadcast.1076 = c128[1,480,64]{2,1,0} broadcast(%constant.878), dimensions={}, metadata={op_name="jit(_full_run)/jit(main)/while/body/jit(_matvec)/div" source_file="/global/homes/j/jackm/software/lorrax_C/src/bse/bse_simple.py" source_line=111}
  %multiply.157 = c128[1,480,64]{2,1,0} multiply(%custom-call.110, %broadcast.1076), metadata={op_name="jit(_full_run)/jit(main)/while/body/jit(_matvec)/div" source_file="/global/homes/j/jackm/software/lorrax_C/src/bse/bse_simple.py" source_line=111}
  %reshape.429 = c128[480,64]{1,0} reshape(%multiply.157)
  %get-tuple-element.233 = c128[480,480]{1,0} get-tuple-element(%arg_tuple.4), index=12
  %custom-call.111 = c128[480,480]{1,0} custom-call(%get-tuple-element.233), custom_call_target="Sharding", sharding={devices=[2,2]<=[4]}, metadata={op_name="jit(_full_run)/jit(main)/while/body/pjit" source_file="/global/homes/j/jackm/software/lorrax_C/src/bse/bse_lanczos.py" source_line=199}
  %dot.47 = c128[64,480]{1,0} dot(%reshape.429, %custom-call.111), lhs_contracting_dims={0}, rhs_contracting_dims={1}, metadata={op_name="jit(_full_run)/jit(main)/while/body/jit(_matvec)/MN,bNk->bMk/dot_general" source_file="/global/homes/j/jackm/software/lorrax_C/src/bse/bse_simple.py" source_line=116}
  %reshape.430 = c128[1,64,480]{2,1,0} reshape(%dot.47), metadata={op_name="jit(_full_run)/jit(main)/while/body/jit(_matvec)/MN,bNk->bMk/dot_general" source_file="/global/homes/j/jackm/software/lorrax_C/src/bse/bse_simple.py" source_line=116}
  %transpose.71 = c128[1,480,64]{1,2,0} transpose(%reshape.430), dimensions={0,2,1}, metadata={op_name="jit(_full_run)/jit(main)/while/body/jit(_matvec)/MN,bNk->bMk/transpose" source_file="/global/homes/j/jackm/software/lorrax_C/src/bse/bse_simple.py" source_line=116}
  %custom-call.112 = c128[1,480,64]{2,1,0} custom-call(%transpose.71), custom_call_target="Sharding", sharding={devices=[1,2,1,2]<=[4] last_tile_dim_replicate}, metadata={op_name="jit(_full_run)/jit(main)/while/body/jit(_matvec)/sharding_constraint" source_file="/global/homes/j/jackm/software/lorrax_C/src/bse/bse_simple.py" source_line=120}
  %reshape.431 = c128[480,64]{1,0} reshape(%custom-call.112)
  %transpose.79 = c128[64,480]{0,1} transpose(%reshape.431), dimensions={1,0}
  %broadcast.1080 = c128[64,480,4,4]{3,2,1,0} broadcast(%transpose.79), dimensions={0,1}, metadata={op_name="jit(_full_run)/jit(main)/while/body/jit(_matvec)/kcvM,bMk->bcvk/dot_general" source_file="/global/homes/j/jackm/software/lorrax_C/src/bse/bse_simple.py" source_line=131}
  %get-tuple-element.238 = c128[64,4,2,480]{3,2,1,0} get-tuple-element(%arg_tuple.4), index=7
  %custom-call.113 = c128[64,4,2,480]{3,2,1,0} custom-call(%get-tuple-element.238), custom_call_target="Sharding", sharding={devices=[1,1,1,2,2]<=[4] last_tile_dim_replicate}, metadata={op_name="jit(_full_run)/jit(main)/while/body/pjit" source_file="/global/homes/j/jackm/software/lorrax_C/src/bse/bse_lanczos.py" source_line=199}
  %get-tuple-element.240 = c128[64,4,2,480]{3,2,1,0} get-tuple-element(%arg_tuple.4), index=5
  %custom-call.114 = c128[64,4,2,480]{3,2,1,0} custom-call(%get-tuple-element.240), custom_call_target="Sharding", sharding={devices=[1,1,1,2,2]<=[4] last_tile_dim_replicate}, metadata={op_name="jit(_full_run)/jit(main)/while/body/pjit" source_file="/global/homes/j/jackm/software/lorrax_C/src/bse/bse_lanczos.py" source_line=199}
  %real.41 = f64[64,4,2,480]{3,2,1,0} real(%custom-call.114), metadata={op_name="jit(_full_run)/jit(main)/while/body/jit(_matvec)/real" source_file="/global/homes/j/jackm/software/lorrax_C/src/bse/bse_simple.py" source_line=125}
  %imag.32 = f64[64,4,2,480]{3,2,1,0} imag(%custom-call.114), metadata={op_name="jit(_full_run)/jit(main)/while/body/jit(_matvec)/imag" source_file="/global/homes/j/jackm/software/lorrax_C/src/bse/bse_simple.py" source_line=125}
  %negate.53 = f64[64,4,2,480]{3,2,1,0} negate(%imag.32), metadata={op_name="jit(_full_run)/jit(main)/while/body/jit(_matvec)/neg" source_file="/global/homes/j/jackm/software/lorrax_C/src/bse/bse_simple.py" source_line=125}
  %complex.30 = c128[64,4,2,480]{3,2,1,0} complex(%real.41, %negate.53), metadata={op_name="jit(_full_run)/jit(main)/while/body/jit(_matvec)/complex" source_file="/global/homes/j/jackm/software/lorrax_C/src/bse/bse_simple.py" source_line=125}
  %dot.46 = c128[64,480,4,4]{3,2,1,0} dot(%custom-call.113, %complex.30), lhs_batch_dims={0,3}, lhs_contracting_dims={2}, rhs_batch_dims={0,3}, rhs_contracting_dims={2}, metadata={op_name="jit(_full_run)/jit(main)/while/body/jit(_matvec)/kcsM,kvsM->kcvM/dot_general" source_file="/global/homes/j/jackm/software/lorrax_C/src/bse/bse_simple.py" source_line=123}
  %real.48 = f64[64,480,4,4]{3,2,1,0} real(%dot.46), metadata={op_name="jit(_full_run)/jit(main)/while/body/jit(_matvec)/real" source_file="/global/homes/j/jackm/software/lorrax_C/src/bse/bse_simple.py" source_line=133}
  %imag.37 = f64[64,480,4,4]{3,2,1,0} imag(%dot.46), metadata={op_name="jit(_full_run)/jit(main)/while/body/jit(_matvec)/imag" source_file="/global/homes/j/jackm/software/lorrax_C/src/bse/bse_simple.py" source_line=133}
  %negate.58 = f64[64,480,4,4]{3,2,1,0} negate(%imag.37), metadata={op_name="jit(_full_run)/jit(main)/while/body/jit(_matvec)/neg" source_file="/global/homes/j/jackm/software/lorrax_C/src/bse/bse_simple.py" source_line=133}
  %complex.37 = c128[64,480,4,4]{3,2,1,0} complex(%real.48, %negate.58), metadata={op_name="jit(_full_run)/jit(main)/while/body/jit(_matvec)/complex" source_file="/global/homes/j/jackm/software/lorrax_C/src/bse/bse_simple.py" source_line=133}
  %multiply.160 = c128[64,480,4,4]{3,2,1,0} multiply(%broadcast.1080, %complex.37)
  %constant.871 = c128[] constant((0, 0))
  %reduce.31 = c128[64,4,4]{2,1,0} reduce(%multiply.160, %constant.871), dimensions={1}, to_apply=%scalar_add_computation.1, metadata={op_name="jit(_full_run)/jit(main)/while/body/jit(_matvec)/kcvM,bMk->bcvk/dot_general" source_file="/global/homes/j/jackm/software/lorrax_C/src/bse/bse_simple.py" source_line=131}
  %transpose.91 = c128[64,4,4]{1,2,0} transpose(%reduce.31), dimensions={0,2,1}, metadata={op_name="jit(_full_run)/jit(main)/while/body/jit(_matvec)/kcvM,bMk->bcvk/dot_general" source_file="/global/homes/j/jackm/software/lorrax_C/src/bse/bse_simple.py" source_line=131}
  %reshape.433 = c128[64,1,4,4]{3,2,1,0} reshape(%transpose.91), metadata={op_name="jit(_full_run)/jit(main)/while/body/jit(_matvec)/kcvM,bMk->bcvk/dot_general" source_file="/global/homes/j/jackm/software/lorrax_C/src/bse/bse_simple.py" source_line=131}
  %transpose.72 = c128[1,4,4,64]{2,1,0,3} transpose(%reshape.433), dimensions={1,2,3,0}, metadata={op_name="jit(_full_run)/jit(main)/while/body/jit(_matvec)/kcvM,bMk->bcvk/transpose" source_file="/global/homes/j/jackm/software/lorrax_C/src/bse/bse_simple.py" source_line=131}
  %custom-call.115 = c128[1,4,4,64]{3,2,1,0} custom-call(%transpose.72), custom_call_target="Sharding", sharding={devices=[1,2,2,1]<=[4]}, metadata={op_name="jit(_full_run)/jit(main)/while/body/jit(_matvec)/sharding_constraint" source_file="/global/homes/j/jackm/software/lorrax_C/src/bse/bse_simple.py" source_line=135}
  %constant.879 = c128[] constant((0.125, 0)), metadata={op_name="jit(_full_run)/jit(main)/while/body/jit(_matvec)/convert_element_type" source_file="/global/homes/j/jackm/software/lorrax_C/src/bse/bse_simple.py" source_line=136}
  %broadcast.1077 = c128[1,4,4,64]{3,2,1,0} broadcast(%constant.879), dimensions={}, metadata={op_name="jit(_full_run)/jit(main)/while/body/jit(_matvec)/div" source_file="/global/homes/j/jackm/software/lorrax_C/src/bse/bse_simple.py" source_line=136}
  %multiply.158 = c128[1,4,4,64]{3,2,1,0} multiply(%custom-call.115, %broadcast.1077), metadata={op_name="jit(_full_run)/jit(main)/while/body/jit(_matvec)/div" source_file="/global/homes/j/jackm/software/lorrax_C/src/bse/bse_simple.py" source_line=136}
  %add.621 = c128[1,4,4,64]{3,2,1,0} add(%custom-call.107, %multiply.158), metadata={op_name="jit(_full_run)/jit(main)/while/body/jit(_matvec)/add" source_file="/global/homes/j/jackm/software/lorrax_C/src/bse/bse_simple.py" source_line=181}
  %get-tuple-element.234 = c128[480,480,4,4,4]{4,3,2,1,0} get-tuple-element(%arg_tuple.4), index=11
  %custom-call.116 = c128[480,480,4,4,4]{4,3,2,1,0} custom-call(%get-tuple-element.234), custom_call_target="Sharding", sharding={devices=[2,2,1,1,1]<=[4]}, metadata={op_name="jit(_full_run)/jit(main)/while/body/pjit" source_file="/global/homes/j/jackm/software/lorrax_C/src/bse/bse_lanczos.py" source_line=199}
  %broadcast.1073 = c128[1,480,480,2,2,4,4,4]{7,6,5,4,3,2,1,0} broadcast(%custom-call.116), dimensions={1,2,5,6,7}, metadata={op_name="jit(_full_run)/jit(main)/while/body/jit(_matvec)/mul" source_file="/global/homes/j/jackm/software/lorrax_C/src/bse/bse_simple.py" source_line=160}
  %reshape.434 = c128[4,4,64]{2,1,0} reshape(%custom-call.106)
  %dot.48 = c128[64,4,2,480]{3,2,1,0} dot(%reshape.434, %custom-call.114), lhs_batch_dims={2}, lhs_contracting_dims={0}, rhs_batch_dims={0}, rhs_contracting_dims={1}, metadata={op_name="jit(_full_run)/jit(main)/while/body/jit(_matvec)/kctM,kvsN,bcvk->bMNtsk/dot_general" source_file="/global/homes/j/jackm/software/lorrax_C/src/bse/bse_simple.py" source_line=146}
  %reshape.435 = c128[64,1,4,2,480]{4,3,2,1,0} reshape(%dot.48), metadata={op_name="jit(_full_run)/jit(main)/while/body/jit(_matvec)/kctM,kvsN,bcvk->bMNtsk/dot_general" source_file="/global/homes/j/jackm/software/lorrax_C/src/bse/bse_simple.py" source_line=146}
  %transpose.73 = c128[1,4,64,2,480]{4,3,1,0,2} transpose(%reshape.435), dimensions={1,2,0,3,4}, metadata={op_name="jit(_full_run)/jit(main)/while/body/jit(_matvec)/kctM,kvsN,bcvk->bMNtsk/transpose" source_file="/global/homes/j/jackm/software/lorrax_C/src/bse/bse_simple.py" source_line=146}
  %reshape.437 = c128[4,64,2,480]{3,2,0,1} reshape(%transpose.73)
  %real.42 = f64[64,4,2,480]{3,2,1,0} real(%custom-call.108), metadata={op_name="jit(_full_run)/jit(main)/while/body/jit(_matvec)/real" source_file="/global/homes/j/jackm/software/lorrax_C/src/bse/bse_simple.py" source_line=148}
  %imag.33 = f64[64,4,2,480]{3,2,1,0} imag(%custom-call.108), metadata={op_name="jit(_full_run)/jit(main)/while/body/jit(_matvec)/imag" source_file="/global/homes/j/jackm/software/lorrax_C/src/bse/bse_simple.py" source_line=148}
  %negate.54 = f64[64,4,2,480]{3,2,1,0} negate(%imag.33), metadata={op_name="jit(_full_run)/jit(main)/while/body/jit(_matvec)/neg" source_file="/global/homes/j/jackm/software/lorrax_C/src/bse/bse_simple.py" source_line=148}
  %complex.32 = c128[64,4,2,480]{3,2,1,0} complex(%real.42, %negate.54), metadata={op_name="jit(_full_run)/jit(main)/while/body/jit(_matvec)/complex" source_file="/global/homes/j/jackm/software/lorrax_C/src/bse/bse_simple.py" source_line=148}
  %dot.49 = c128[64,2,480,2,480]{4,3,2,1,0} dot(%reshape.437, %complex.32), lhs_batch_dims={1}, lhs_contracting_dims={0}, rhs_batch_dims={0}, rhs_contracting_dims={1}, metadata={op_name="jit(_full_run)/jit(main)/while/body/jit(_matvec)/kctM,kvsN,bcvk->bMNtsk/dot_general" source_file="/global/homes/j/jackm/software/lorrax_C/src/bse/bse_simple.py" source_line=146}
  %reshape.438 = c128[64,1,2,480,2,480]{5,4,3,2,1,0} reshape(%dot.49), metadata={op_name="jit(_full_run)/jit(main)/while/body/jit(_matvec)/kctM,kvsN,bcvk->bMNtsk/dot_general" source_file="/global/homes/j/jackm/software/lorrax_C/src/bse/bse_simple.py" source_line=146}
  %transpose.74 = c128[1,480,480,2,2,64]{2,4,1,3,0,5} transpose(%reshape.438), dimensions={1,3,5,2,4,0}, metadata={op_name="jit(_full_run)/jit(main)/while/body/jit(_matvec)/kctM,kvsN,bcvk->bMNtsk/transpose" source_file="/global/homes/j/jackm/software/lorrax_C/src/bse/bse_simple.py" source_line=146}
  %custom-call.117 = c128[1,480,480,2,2,64]{5,4,3,2,1,0} custom-call(%transpose.74), custom_call_target="Sharding", sharding={devices=[1,2,2,1,1,1]<=[4]}, metadata={op_name="jit(_full_run)/jit(main)/while/body/jit(_matvec)/sharding_constraint" source_file="/global/homes/j/jackm/software/lorrax_C/src/bse/bse_simple.py" source_line=150}
  %reshape.421 = c128[1,480,480,2,2,4,4,4]{7,6,5,4,3,2,1,0} reshape(%custom-call.117), metadata={op_name="jit(_full_run)/jit(main)/while/body/jit(_matvec)/reshape" source_file="/global/homes/j/jackm/software/lorrax_C/src/bse/bse_simple.py" source_line=153}
  %custom-call.118 = c128[1,480,480,2,2,4,4,4]{7,6,5,4,3,2,1,0} custom-call(%reshape.421), custom_call_target="CustomSPMDPartitioning", api_version=API_VERSION_STATUS_RETURNING, metadata={op_name="jit(_full_run)/jit(main)/while/body/jit(_matvec)/custom_partitioning" source_file="/global/homes/j/jackm/software/lorrax_C/src/common/fft_helpers.py" source_line=259}, backend_config="140520727990000"
  %custom-call.119 = c128[1,480,480,2,2,4,4,4]{7,6,5,4,3,2,1,0} custom-call(%custom-call.118), custom_call_target="CustomSPMDPartitioning", api_version=API_VERSION_STATUS_RETURNING, metadata={op_name="jit(_full_run)/jit(main)/while/body/jit(_matvec)/custom_partitioning" source_file="/global/homes/j/jackm/software/lorrax_C/src/common/fft_helpers.py" source_line=259}, backend_config="140520727838992"
  %custom-call.120 = c128[1,480,480,2,2,4,4,4]{7,6,5,4,3,2,1,0} custom-call(%custom-call.119), custom_call_target="CustomSPMDPartitioning", api_version=API_VERSION_STATUS_RETURNING, metadata={op_name="jit(_full_run)/jit(main)/while/body/jit(_matvec)/custom_partitioning" source_file="/global/homes/j/jackm/software/lorrax_C/src/common/fft_helpers.py" source_line=259}, backend_config="140520727839520"
  %multiply.149 = c128[1,480,480,2,2,4,4,4]{7,6,5,4,3,2,1,0} multiply(%broadcast.1073, %custom-call.120), metadata={op_name="jit(_full_run)/jit(main)/while/body/jit(_matvec)/mul" source_file="/global/homes/j/jackm/software/lorrax_C/src/bse/bse_simple.py" source_line=160}
  %custom-call.121 = c128[1,480,480,2,2,4,4,4]{7,6,5,4,3,2,1,0} custom-call(%multiply.149), custom_call_target="CustomSPMDPartitioning", api_version=API_VERSION_STATUS_RETURNING, metadata={op_name="jit(_full_run)/jit(main)/while/body/jit(_matvec)/custom_partitioning" source_file="/global/homes/j/jackm/software/lorrax_C/src/common/fft_helpers.py" source_line=259}, backend_config="140520727840048"
  %custom-call.122 = c128[1,480,480,2,2,4,4,4]{7,6,5,4,3,2,1,0} custom-call(%custom-call.121), custom_call_target="CustomSPMDPartitioning", api_version=API_VERSION_STATUS_RETURNING, metadata={op_name="jit(_full_run)/jit(main)/while/body/jit(_matvec)/custom_partitioning" source_file="/global/homes/j/jackm/software/lorrax_C/src/common/fft_helpers.py" source_line=259}, backend_config="140520727840336"
  %custom-call.123 = c128[1,480,480,2,2,4,4,4]{7,6,5,4,3,2,1,0} custom-call(%custom-call.122), custom_call_target="CustomSPMDPartitioning", api_version=API_VERSION_STATUS_RETURNING, metadata={op_name="jit(_full_run)/jit(main)/while/body/jit(_matvec)/custom_partitioning" source_file="/global/homes/j/jackm/software/lorrax_C/src/common/fft_helpers.py" source_line=259}, backend_config="140520727840576"
  %reshape.422 = c128[1,480,480,2,2,64]{5,4,3,2,1,0} reshape(%custom-call.123), metadata={op_name="jit(_full_run)/jit(main)/while/body/jit(_matvec)/reshape" source_file="/global/homes/j/jackm/software/lorrax_C/src/bse/bse_simple.py" source_line=162}
  %custom-call.124 = c128[1,480,480,2,2,64]{5,4,3,2,1,0} custom-call(%reshape.422), custom_call_target="Sharding", sharding={devices=[1,2,2,1,1,1]<=[4]}, metadata={op_name="jit(_full_run)/jit(main)/while/body/jit(_matvec)/sharding_constraint" source_file="/global/homes/j/jackm/software/lorrax_C/src/bse/bse_simple.py" source_line=164}
  %reshape.439 = c128[480,480,2,2,64]{4,3,2,1,0} reshape(%custom-call.124)
  %real.43 = f64[64,4,2,480]{3,2,1,0} real(%custom-call.114), metadata={op_name="jit(_full_run)/jit(main)/while/body/jit(_matvec)/real" source_file="/global/homes/j/jackm/software/lorrax_C/src/bse/bse_simple.py" source_line=169}
  %imag.34 = f64[64,4,2,480]{3,2,1,0} imag(%custom-call.114), metadata={op_name="jit(_full_run)/jit(main)/while/body/jit(_matvec)/imag" source_file="/global/homes/j/jackm/software/lorrax_C/src/bse/bse_simple.py" source_line=169}
  %negate.55 = f64[64,4,2,480]{3,2,1,0} negate(%imag.34), metadata={op_name="jit(_full_run)/jit(main)/while/body/jit(_matvec)/neg" source_file="/global/homes/j/jackm/software/lorrax_C/src/bse/bse_simple.py" source_line=169}
  %complex.33 = c128[64,4,2,480]{3,2,1,0} complex(%real.43, %negate.55), metadata={op_name="jit(_full_run)/jit(main)/while/body/jit(_matvec)/complex" source_file="/global/homes/j/jackm/software/lorrax_C/src/bse/bse_simple.py" source_line=169}
  %dot.50 = c128[64,480,2,4]{3,2,1,0} dot(%reshape.439, %complex.33), lhs_batch_dims={4}, lhs_contracting_dims={0,2}, rhs_batch_dims={0}, rhs_contracting_dims={3,2}, metadata={op_name="jit(_full_run)/jit(main)/while/body/jit(_matvec)/kctM,bMNtsk->bcNsk/dot_general" source_file="/global/homes/j/jackm/software/lorrax_C/src/bse/bse_simple.py" source_line=167}
  %reshape.440 = c128[64,1,480,2,4]{4,3,2,1,0} reshape(%dot.50), metadata={op_name="jit(_full_run)/jit(main)/while/body/jit(_matvec)/kctM,bMNtsk->bcNsk/dot_general" source_file="/global/homes/j/jackm/software/lorrax_C/src/bse/bse_simple.py" source_line=167}
  %transpose.75 = c128[1,4,480,2,64]{1,3,2,0,4} transpose(%reshape.440), dimensions={1,4,2,3,0}, metadata={op_name="jit(_full_run)/jit(main)/while/body/jit(_matvec)/kctM,bMNtsk->bcNsk/transpose" source_file="/global/homes/j/jackm/software/lorrax_C/src/bse/bse_simple.py" source_line=167}
  %custom-call.125 = c128[1,4,480,2,64]{4,3,2,1,0} custom-call(%transpose.75), custom_call_target="Sharding", sharding={devices=[1,2,2,1,1]<=[4]}, metadata={op_name="jit(_full_run)/jit(main)/while/body/jit(_matvec)/sharding_constraint" source_file="/global/homes/j/jackm/software/lorrax_C/src/bse/bse_simple.py" source_line=171}
  %reshape.441 = c128[4,480,2,64]{3,2,1,0} reshape(%custom-call.125)
  %dot.51 = c128[64,4,4]{2,1,0} dot(%reshape.441, %custom-call.108), lhs_batch_dims={3}, lhs_contracting_dims={1,2}, rhs_batch_dims={0}, rhs_contracting_dims={3,2}, metadata={op_name="jit(_full_run)/jit(main)/while/body/jit(_matvec)/kvsN,bcNsk->bcvk/dot_general" source_file="/global/homes/j/jackm/software/lorrax_C/src/bse/bse_simple.py" source_line=174}
  %reshape.442 = c128[64,1,4,4]{3,2,1,0} reshape(%dot.51), metadata={op_name="jit(_full_run)/jit(main)/while/body/jit(_matvec)/kvsN,bcNsk->bcvk/dot_general" source_file="/global/homes/j/jackm/software/lorrax_C/src/bse/bse_simple.py" source_line=174}
  %transpose.76 = c128[1,4,4,64]{2,1,0,3} transpose(%reshape.442), dimensions={1,2,3,0}, metadata={op_name="jit(_full_run)/jit(main)/while/body/jit(_matvec)/kvsN,bcNsk->bcvk/transpose" source_file="/global/homes/j/jackm/software/lorrax_C/src/bse/bse_simple.py" source_line=174}
  %custom-call.126 = c128[1,4,4,64]{3,2,1,0} custom-call(%transpose.76), custom_call_target="Sharding", sharding={devices=[1,2,2,1]<=[4]}, metadata={op_name="jit(_full_run)/jit(main)/while/body/jit(_matvec)/sharding_constraint" source_file="/global/homes/j/jackm/software/lorrax_C/src/bse/bse_simple.py" source_line=178}
  %constant.880 = c128[] constant((0.125, 0)), metadata={op_name="jit(_full_run)/jit(main)/while/body/jit(_matvec)/convert_element_type" source_file="/global/homes/j/jackm/software/lorrax_C/src/bse/bse_simple.py" source_line=179}
  %broadcast.1078 = c128[1,4,4,64]{3,2,1,0} broadcast(%constant.880), dimensions={}, metadata={op_name="jit(_full_run)/jit(main)/while/body/jit(_matvec)/div" source_file="/global/homes/j/jackm/software/lorrax_C/src/bse/bse_simple.py" source_line=179}
  %multiply.159 = c128[1,4,4,64]{3,2,1,0} multiply(%custom-call.126, %broadcast.1078), metadata={op_name="jit(_full_run)/jit(main)/while/body/jit(_matvec)/div" source_file="/global/homes/j/jackm/software/lorrax_C/src/bse/bse_simple.py" source_line=179}
  %subtract.38 = c128[1,4,4,64]{3,2,1,0} subtract(%add.621, %multiply.159), metadata={op_name="jit(_full_run)/jit(main)/while/body/jit(_matvec)/sub" source_file="/global/homes/j/jackm/software/lorrax_C/src/bse/bse_simple.py" source_line=181}
  %custom-call.127 = c128[1,4,4,64]{3,2,1,0} custom-call(%subtract.38), custom_call_target="Sharding", sharding={devices=[1,2,2,1]<=[4]}, metadata={op_name="jit(_full_run)/jit(main)/while/body/pjit" source_file="/global/homes/j/jackm/software/lorrax_C/src/bse/bse_lanczos.py" source_line=199}
  %reshape.423 = c128[1024]{0} reshape(%custom-call.127), metadata={op_name="jit(_full_run)/jit(main)/while/body/reshape" source_file="/global/homes/j/jackm/software/lorrax_C/src/bse/bse_lanczos.py" source_line=203}
  %real.44 = f64[1024]{0} real(%get-tuple-element.241), metadata={op_name="jit(_full_run)/jit(main)/while/body/real" source_file="/global/homes/j/jackm/software/lorrax_C/src/solvers/lanczos.py" source_line=260}
  %imag.35 = f64[1024]{0} imag(%get-tuple-element.241), metadata={op_name="jit(_full_run)/jit(main)/while/body/imag" source_file="/global/homes/j/jackm/software/lorrax_C/src/solvers/lanczos.py" source_line=260}
  %negate.56 = f64[1024]{0} negate(%imag.35), metadata={op_name="jit(_full_run)/jit(main)/while/body/neg" source_file="/global/homes/j/jackm/software/lorrax_C/src/solvers/lanczos.py" source_line=260}
  %complex.34 = c128[1024]{0} complex(%real.44, %negate.56), metadata={op_name="jit(_full_run)/jit(main)/while/body/complex" source_file="/global/homes/j/jackm/software/lorrax_C/src/solvers/lanczos.py" source_line=260}
  %multiply.152 = c128[1024]{0} multiply(%complex.34, %reshape.423)
  %constant.866 = c128[] constant((0, 0))
  %reduce.27 = c128[] reduce(%multiply.152, %constant.866), dimensions={0}, to_apply=%scalar_add_computation, metadata={op_name="jit(_full_run)/jit(main)/while/body/dot_general" source_file="/global/homes/j/jackm/software/lorrax_C/src/solvers/lanczos.py" source_line=260}
  %real.45 = f64[] real(%reduce.27), metadata={op_name="jit(_full_run)/jit(main)/while/body/real" source_file="/global/homes/j/jackm/software/lorrax_C/src/solvers/lanczos.py" source_line=260}
  %convert.62 = c128[] convert(%real.45), metadata={op_name="jit(_full_run)/jit(main)/while/body/convert_element_type" source_file="/global/homes/j/jackm/software/lorrax_C/src/solvers/lanczos.py" source_line=263}
  %broadcast.1065 = c128[1024]{0} broadcast(%convert.62), dimensions={}, metadata={op_name="jit(_full_run)/jit(main)/while/body/mul" source_file="/global/homes/j/jackm/software/lorrax_C/src/solvers/lanczos.py" source_line=263}
  %multiply.150 = c128[1024]{0} multiply(%broadcast.1065, %get-tuple-element.241), metadata={op_name="jit(_full_run)/jit(main)/while/body/mul" source_file="/global/homes/j/jackm/software/lorrax_C/src/solvers/lanczos.py" source_line=263}
  %subtract.39 = c128[1024]{0} subtract(%reshape.423, %multiply.150), metadata={op_name="jit(_full_run)/jit(main)/while/body/sub" source_file="/global/homes/j/jackm/software/lorrax_C/src/solvers/lanczos.py" source_line=263}
  %constant.916 = s64[] constant(0)
  %compare.70 = pred[] compare(%get-tuple-element.245, %constant.916), direction=GT, metadata={op_name="jit(_full_run)/jit(main)/while/body/gt" source_file="/global/homes/j/jackm/software/lorrax_C/src/solvers/lanczos.py" source_line=265}
  %get-tuple-element.242 = f64[200]{0} get-tuple-element(%arg_tuple.4), index=3
  %constant.876 = s64[] constant(-1)
  %add.631 = s64[] add(%get-tuple-element.245, %constant.876), metadata={op_name="jit(_full_run)/jit(main)/while/body/sub" source_file="/global/homes/j/jackm/software/lorrax_C/src/solvers/lanczos.py" source_line=265}
  %constant.918 = s64[] constant(0)
  %compare.71 = pred[] compare(%add.631, %constant.918), direction=LT, metadata={op_name="jit(_full_run)/jit(main)/while/body/lt" source_file="/global/homes/j/jackm/software/lorrax_C/src/solvers/lanczos.py" source_line=265}
  %constant.881 = s64[] constant(199)
  %add.633 = s64[] add(%get-tuple-element.245, %constant.881), metadata={op_name="jit(_full_run)/jit(main)/while/body/add" source_file="/global/homes/j/jackm/software/lorrax_C/src/solvers/lanczos.py" source_line=265}
  %select.221 = s64[] select(%compare.71, %add.633, %add.631), metadata={op_name="jit(_full_run)/jit(main)/while/body/select_n" source_file="/global/homes/j/jackm/software/lorrax_C/src/solvers/lanczos.py" source_line=265}
  %dynamic-slice.50 = f64[1]{0} dynamic-slice(%get-tuple-element.242, %select.221), dynamic_slice_sizes={1}, metadata={op_name="jit(_full_run)/jit(main)/while/body/dynamic_slice" source_file="/global/homes/j/jackm/software/lorrax_C/src/solvers/lanczos.py" source_line=265}
  %reshape.424 = f64[] reshape(%dynamic-slice.50), metadata={op_name="jit(_full_run)/jit(main)/while/body/squeeze" source_file="/global/homes/j/jackm/software/lorrax_C/src/solvers/lanczos.py" source_line=265}
  %constant.860 = f64[] constant(0)
  %select.222 = f64[] select(%compare.70, %reshape.424, %constant.860), metadata={op_name="jit(_full_run)/jit(main)/while/body/jit(_where)/select_n" source_file="/global/homes/j/jackm/software/lorrax_C/src/solvers/lanczos.py" source_line=265}
  %convert.63 = c128[] convert(%select.222), metadata={op_name="jit(_full_run)/jit(main)/while/body/convert_element_type" source_file="/global/homes/j/jackm/software/lorrax_C/src/solvers/lanczos.py" source_line=266}
  %broadcast.1074 = c128[1024,1]{1,0} broadcast(%convert.63), dimensions={}, metadata={op_name="jit(_full_run)/jit(main)/while/body/mul" source_file="/global/homes/j/jackm/software/lorrax_C/src/solvers/lanczos.py" source_line=266}
  %constant.924 = s64[] constant(0)
  %constant.877 = s64[] constant(-1)
  %add.632 = s64[] add(%get-tuple-element.245, %constant.877), metadata={op_name="jit(_full_run)/jit(main)/while/body/sub" source_file="/global/homes/j/jackm/software/lorrax_C/src/solvers/lanczos.py" source_line=264}
  %constant.920 = s64[] constant(0)
  %maximum.17 = s64[] maximum(%add.632, %constant.920), metadata={op_name="jit(_full_run)/jit(main)/while/body/max" source_file="/global/homes/j/jackm/software/lorrax_C/src/solvers/lanczos.py" source_line=264}
  %dynamic-slice.51 = c128[1024,1]{1,0} dynamic-slice(%get-tuple-element.244, %constant.924, %maximum.17), dynamic_slice_sizes={1024,1}, metadata={op_name="jit(_full_run)/jit(main)/while/body/dynamic_slice" source_file="/global/homes/j/jackm/software/lorrax_C/src/solvers/lanczos.py" source_line=264}
  %multiply.153 = c128[1024,1]{1,0} multiply(%broadcast.1074, %dynamic-slice.51), metadata={op_name="jit(_full_run)/jit(main)/while/body/mul" source_file="/global/homes/j/jackm/software/lorrax_C/src/solvers/lanczos.py" source_line=266}
  %reshape.443 = c128[1024]{0} reshape(%multiply.153), metadata={op_name="jit(_full_run)/jit(main)/while/body/mul" source_file="/global/homes/j/jackm/software/lorrax_C/src/solvers/lanczos.py" source_line=266}
  %subtract.40 = c128[1024]{0} subtract(%subtract.39, %reshape.443), metadata={op_name="jit(_full_run)/jit(main)/while/body/sub" source_file="/global/homes/j/jackm/software/lorrax_C/src/solvers/lanczos.py" source_line=266}
  %constant.912 = s64[] constant(1)
  %add.623 = s64[] add(%get-tuple-element.245, %constant.912), metadata={op_name="jit(_full_run)/jit(main)/while/body/add" source_file="/global/homes/j/jackm/software/lorrax_C/src/solvers/lanczos.py" source_line=275}
  %tuple.61 = (s64[], c128[1024]{0}, s64[], s64[], c128[1024,200]{1,0}) tuple(%maximum.16, %subtract.40, %add.623, %get-tuple-element.245, %get-tuple-element.244), metadata={op_name="jit(_full_run)/jit(main)/while/body/while" source_file="/global/homes/j/jackm/software/lorrax_C/src/solvers/lanczos.py" source_line=275}
  %while.8 = (s64[], c128[1024]{0}, s64[], s64[], c128[1024,200]{1,0}) while(%tuple.61), condition=%region_5.1318, body=%region_4.1290, metadata={op_name="jit(_full_run)/jit(main)/while/body/while" source_file="/global/homes/j/jackm/software/lorrax_C/src/solvers/lanczos.py" source_line=275}
  %get-tuple-element.232 = c128[1024]{0} get-tuple-element(%while.8), index=1, metadata={op_name="jit(_full_run)/jit(main)/while/body/while" source_file="/global/homes/j/jackm/software/lorrax_C/src/solvers/lanczos.py" source_line=275}
  %real.46 = f64[1024]{0} real(%get-tuple-element.232), metadata={op_name="jit(_full_run)/jit(main)/while/body/jit(norm)/real" source_file="/global/homes/j/jackm/software/lorrax_C/src/solvers/lanczos.py" source_line=277}
  %imag.36 = f64[1024]{0} imag(%get-tuple-element.232), metadata={op_name="jit(_full_run)/jit(main)/while/body/jit(norm)/imag" source_file="/global/homes/j/jackm/software/lorrax_C/src/solvers/lanczos.py" source_line=277}
  %negate.57 = f64[1024]{0} negate(%imag.36), metadata={op_name="jit(_full_run)/jit(main)/while/body/jit(norm)/neg" source_file="/global/homes/j/jackm/software/lorrax_C/src/solvers/lanczos.py" source_line=277}
  %complex.35 = c128[1024]{0} complex(%real.46, %negate.57), metadata={op_name="jit(_full_run)/jit(main)/while/body/jit(norm)/complex" source_file="/global/homes/j/jackm/software/lorrax_C/src/solvers/lanczos.py" source_line=277}
  %multiply.151 = c128[1024]{0} multiply(%get-tuple-element.232, %complex.35), metadata={op_name="jit(_full_run)/jit(main)/while/body/jit(norm)/mul" source_file="/global/homes/j/jackm/software/lorrax_C/src/solvers/lanczos.py" source_line=277}
  %real.47 = f64[1024]{0} real(%multiply.151), metadata={op_name="jit(_full_run)/jit(main)/while/body/jit(norm)/real" source_file="/global/homes/j/jackm/software/lorrax_C/src/solvers/lanczos.py" source_line=277}
  %constant.864 = f64[] constant(0)
  %reduce.26 = f64[] reduce(%real.47, %constant.864), dimensions={0}, to_apply=%region_6.1326, metadata={op_name="jit(_full_run)/jit(main)/while/body/jit(norm)/reduce_sum" source_file="/global/homes/j/jackm/software/lorrax_C/src/solvers/lanczos.py" source_line=277}
  %sqrt.11 = f64[] sqrt(%reduce.26), metadata={op_name="jit(_full_run)/jit(main)/while/body/jit(norm)/sqrt" source_file="/global/homes/j/jackm/software/lorrax_C/src/solvers/lanczos.py" source_line=277}
  %constant.865 = f64[] constant(1e-15)
  %maximum.18 = f64[] maximum(%sqrt.11, %constant.865), metadata={op_name="jit(_full_run)/jit(main)/while/body/max" source_file="/global/homes/j/jackm/software/lorrax_C/src/solvers/lanczos.py" source_line=280}
  %convert.65 = c128[] convert(%maximum.18), metadata={op_name="jit(_full_run)/jit(main)/while/body/convert_element_type" source_file="/global/homes/j/jackm/software/lorrax_C/src/solvers/lanczos.py" source_line=280}
  %broadcast.1066 = c128[1024]{0} broadcast(%convert.65), dimensions={}, metadata={op_name="jit(_full_run)/jit(main)/while/body/div" source_file="/global/homes/j/jackm/software/lorrax_C/src/solvers/lanczos.py" source_line=280}
  %divide.16 = c128[1024]{0} divide(%get-tuple-element.232, %broadcast.1066), metadata={op_name="jit(_full_run)/jit(main)/while/body/div" source_file="/global/homes/j/jackm/software/lorrax_C/src/solvers/lanczos.py" source_line=280}
  %reshape.444 = c128[1024,1]{1,0} reshape(%divide.16)
  %constant.873 = s32[] constant(0)
  %dynamic-slice.54 = c128[1024,1]{1,0} dynamic-slice(%get-tuple-element.244, %constant.873, %convert.64), dynamic_slice_sizes={1024,1}
  %select.226 = c128[1024,1]{1,0} select(%broadcast.1068, %reshape.444, %dynamic-slice.54)
  %constant.874 = s32[] constant(0)
  %dynamic-update-slice.18 = c128[1024,200]{1,0} dynamic-update-slice(%get-tuple-element.244, %select.226, %constant.874, %convert.64), metadata={op_name="jit(_full_run)/jit(main)/while/body/scatter" source_file="/global/homes/j/jackm/software/lorrax_C/src/solvers/lanczos.py" source_line=281}
  %get-tuple-element.243 = f64[200]{0} get-tuple-element(%arg_tuple.4), index=2
  %constant.882 = s32[] constant(0)
  %constant.928 = s64[] constant(0)
  %compare.73 = pred[] compare(%get-tuple-element.245, %constant.928), direction=LT, metadata={op_name="jit(_full_run)/jit(main)/while/body/lt" source_file="/global/homes/j/jackm/software/lorrax_C/src/solvers/lanczos.py" source_line=261}
  %constant.930 = s64[] constant(200)
  %add.627 = s64[] add(%get-tuple-element.245, %constant.930), metadata={op_name="jit(_full_run)/jit(main)/while/body/add" source_file="/global/homes/j/jackm/software/lorrax_C/src/solvers/lanczos.py" source_line=261}
  %select.224 = s64[] select(%compare.73, %add.627, %get-tuple-element.245), metadata={op_name="jit(_full_run)/jit(main)/while/body/select_n" source_file="/global/homes/j/jackm/software/lorrax_C/src/solvers/lanczos.py" source_line=261}
  %convert.66 = s32[] convert(%select.224), metadata={op_name="jit(_full_run)/jit(main)/while/body/convert_element_type" source_file="/global/homes/j/jackm/software/lorrax_C/src/solvers/lanczos.py" source_line=261}
  %compare.77 = pred[] compare(%constant.882, %convert.66), direction=LE
  %constant.883 = s32[] constant(199)
  %compare.78 = pred[] compare(%constant.883, %convert.66), direction=GE
  %and.21 = pred[] and(%compare.77, %compare.78)
  %reshape.456 = pred[1]{0} reshape(%and.21)
  %reshape.445 = f64[1]{0} reshape(%real.45)
  %dynamic-slice.52 = f64[1]{0} dynamic-slice(%get-tuple-element.243, %convert.66), dynamic_slice_sizes={1}
  %select.227 = f64[1]{0} select(%reshape.456, %reshape.445, %dynamic-slice.52)
  %dynamic-update-slice.16 = f64[200]{0} dynamic-update-slice(%get-tuple-element.243, %select.227, %convert.66), metadata={op_name="jit(_full_run)/jit(main)/while/body/scatter" source_file="/global/homes/j/jackm/software/lorrax_C/src/solvers/lanczos.py" source_line=261}
  %constant.884 = s32[] constant(0)
  %constant.922 = s64[] constant(0)
  %compare.74 = pred[] compare(%get-tuple-element.245, %constant.922), direction=LT, metadata={op_name="jit(_full_run)/jit(main)/while/body/lt" source_file="/global/homes/j/jackm/software/lorrax_C/src/solvers/lanczos.py" source_line=278}
  %constant.932 = s64[] constant(200)
  %add.628 = s64[] add(%get-tuple-element.245, %constant.932), metadata={op_name="jit(_full_run)/jit(main)/while/body/add" source_file="/global/homes/j/jackm/software/lorrax_C/src/solvers/lanczos.py" source_line=278}
  %select.225 = s64[] select(%compare.74, %add.628, %get-tuple-element.245), metadata={op_name="jit(_full_run)/jit(main)/while/body/select_n" source_file="/global/homes/j/jackm/software/lorrax_C/src/solvers/lanczos.py" source_line=278}
  %convert.67 = s32[] convert(%select.225), metadata={op_name="jit(_full_run)/jit(main)/while/body/convert_element_type" source_file="/global/homes/j/jackm/software/lorrax_C/src/solvers/lanczos.py" source_line=278}
  %compare.79 = pred[] compare(%constant.884, %convert.67), direction=LE
  %constant.885 = s32[] constant(199)
  %compare.80 = pred[] compare(%constant.885, %convert.67), direction=GE
  %and.22 = pred[] and(%compare.79, %compare.80)
  %reshape.459 = pred[1]{0} reshape(%and.22)
  %reshape.446 = f64[1]{0} reshape(%sqrt.11)
  %dynamic-slice.53 = f64[1]{0} dynamic-slice(%get-tuple-element.242, %convert.67), dynamic_slice_sizes={1}
  %select.228 = f64[1]{0} select(%reshape.459, %reshape.446, %dynamic-slice.53)
  %dynamic-update-slice.17 = f64[200]{0} dynamic-update-slice(%get-tuple-element.242, %select.228, %convert.67), metadata={op_name="jit(_full_run)/jit(main)/while/body/scatter" source_file="/global/homes/j/jackm/software/lorrax_C/src/solvers/lanczos.py" source_line=278}
  ROOT %tuple.60 = (s64[], c128[1024,200]{1,0}, f64[200]{0}, f64[200]{0}, c128[1024]{0}, /*index=5*/c128[64,4,2,480]{3,2,1,0}, c128[64,4,2,480]{3,2,1,0}, c128[64,4,2,480]{3,2,1,0}, c128[64,4,2,480]{3,2,1,0}, f64[64,4]{1,0}, /*index=10*/f64[64,4]{1,0}, c128[480,480,4,4,4]{4,3,2,1,0}, c128[480,480]{1,0}) tuple(%add.620, %dynamic-update-slice.18, %dynamic-update-slice.16, %dynamic-update-slice.17, %divide.16, /*index=5*/%get-tuple-element.240, %get-tuple-element.239, %get-tuple-element.238, %get-tuple-element.237, %get-tuple-element.236, /*index=10*/%get-tuple-element.235, %get-tuple-element.234, %get-tuple-element.233)
  %constant.855 = s64[] constant(0)
  %constant.856 = s64[] constant(1)
  %constant.858 = s64[] constant(200)
}

%region_9.1460.clone.clone (arg_tuple.3: (s64[], c128[1024,200], f64[200], f64[200], c128[1024], /*index=5*/c128[64,4,2,480], c128[64,4,2,480], c128[64,4,2,480], c128[64,4,2,480], f64[64,4], /*index=10*/f64[64,4], c128[480,480,4,4,4], c128[480,480])) -> pred[] {
  %arg_tuple.3 = (s64[], c128[1024,200]{1,0}, f64[200]{0}, f64[200]{0}, c128[1024]{0}, /*index=5*/c128[64,4,2,480]{3,2,1,0}, c128[64,4,2,480]{3,2,1,0}, c128[64,4,2,480]{3,2,1,0}, c128[64,4,2,480]{3,2,1,0}, f64[64,4]{1,0}, /*index=10*/f64[64,4]{1,0}, c128[480,480,4,4,4]{4,3,2,1,0}, c128[480,480]{1,0}) parameter(0)
  %get-tuple-element.231 = s64[] get-tuple-element(%arg_tuple.3), index=0
  %constant.853 = s64[] constant(200)
  ROOT %compare.69 = pred[] compare(%get-tuple-element.231, %constant.853), direction=LT, metadata={op_name="jit(_full_run)/jit(main)/while/cond/lt" source_file="/global/homes/j/jackm/software/lorrax_C/src/solvers/lanczos.py" source_line=286}
}

ENTRY %main.1649 (Arg_0.1: c128[64,4,2,480], Arg_1.2: c128[64,4,2,480], Arg_2.3: c128[64,4,2,480], Arg_3.4: c128[64,4,2,480], Arg_4.5: f64[64,4], Arg_5.6: f64[64,4], Arg_6.7: c128[480,480,4,4,4], Arg_7.8: c128[480,480]) -> (f64[5], c128[5,1024], s32[]) {
  %constant.18 = c128[] constant((0, 0))
  %iota.14 = s64[200,200]{1,0} iota(), iota_dimension=0, metadata={op_name="jit(_full_run)/jit(main)/jit(_diag)/iota" source_file="/global/homes/j/jackm/software/lorrax_C/src/solvers/lanczos.py" source_line=288}
  %iota.15 = s64[200,200]{1,0} iota(), iota_dimension=1, metadata={op_name="jit(_full_run)/jit(main)/jit(_diag)/iota" source_file="/global/homes/j/jackm/software/lorrax_C/src/solvers/lanczos.py" source_line=288}
  %compare.18 = pred[200,200]{1,0} compare(%iota.14, %iota.15), direction=EQ, metadata={op_name="jit(_full_run)/jit(main)/jit(_diag)/eq" source_file="/global/homes/j/jackm/software/lorrax_C/src/solvers/lanczos.py" source_line=288}
  %constant.24 = s64[] constant(0)
  %iota.19 = s32[2]{0} iota(), iota_dimension=0
  %constant.809 = s32[] constant(199)
  %broadcast.1044 = s32[2]{0} broadcast(%constant.809), dimensions={}
  %multiply.144 = s32[2]{0} multiply(%iota.19, %broadcast.1044)
  %constant.844 = s32[] constant(0)
  %broadcast.1055 = s32[2]{0} broadcast(%constant.844), dimensions={}
  %compare.64 = pred[2]{0} compare(%multiply.144, %broadcast.1055), direction=GE
  %constant.802 = pred[] constant(true)
  %reduce.23 = pred[] reduce(%compare.64, %constant.802), dimensions={0}, to_apply=%and.reduce_sub_computation.3
  %broadcast.1059 = pred[1024]{0} broadcast(%reduce.23), dimensions={}
  %constant.895 = f64[] constant(-0.99999999999999989)
  %broadcast.539 = f64[1024]{0} broadcast(%constant.895), dimensions={}, metadata={op_name="jit(_full_run)/jit(main)/jit(_normal)/jit(_normal_real)/jit(_uniform)/max" source_file="/global/homes/j/jackm/software/lorrax_C/src/solvers/lanczos.py" source_line=247}
  %iota.5 = u64[1024]{0} iota(), iota_dimension=0, metadata={op_name="jit(_full_run)/jit(main)/jit(_normal)/jit(_normal_real)/jit(_uniform)/iota_2x32_shape" source_file="/global/homes/j/jackm/software/lorrax_C/src/solvers/lanczos.py" source_line=247}
  %constant.340 = u64[] constant(32)
  %broadcast.541 = u64[1024]{0} broadcast(%constant.340), dimensions={}
  %shift-right-logical.189 = u64[1024]{0} shift-right-logical(%iota.5, %broadcast.541), metadata={op_name="jit(_full_run)/jit(main)/jit(_normal)/jit(_normal_real)/jit(_uniform)/iota_2x32_shape" source_file="/global/homes/j/jackm/software/lorrax_C/src/solvers/lanczos.py" source_line=247}
  %convert.33 = u32[1024]{0} convert(%shift-right-logical.189), metadata={op_name="jit(_full_run)/jit(main)/jit(_normal)/jit(_normal_real)/jit(_uniform)/iota_2x32_shape" source_file="/global/homes/j/jackm/software/lorrax_C/src/solvers/lanczos.py" source_line=247}
  %iota.4 = u64[2]{0} iota(), iota_dimension=0, metadata={op_name="jit(_full_run)/jit(main)/jit(_threefry_split)/iota_2x32_shape" source_file="/global/homes/j/jackm/software/lorrax_C/src/solvers/lanczos.py" source_line=245}
  %constant.322 = u64[] constant(32)
  %broadcast.481 = u64[2]{0} broadcast(%constant.322), dimensions={}
  %shift-right-logical.164 = u64[2]{0} shift-right-logical(%iota.4, %broadcast.481), metadata={op_name="jit(_full_run)/jit(main)/jit(_threefry_split)/iota_2x32_shape" source_file="/global/homes/j/jackm/software/lorrax_C/src/solvers/lanczos.py" source_line=245}
  %convert.30 = u32[2]{0} convert(%shift-right-logical.164), metadata={op_name="jit(_full_run)/jit(main)/jit(_threefry_split)/iota_2x32_shape" source_file="/global/homes/j/jackm/software/lorrax_C/src/solvers/lanczos.py" source_line=245}
  %convert.32 = u32[2]{0} convert(%iota.4), metadata={op_name="jit(_full_run)/jit(main)/jit(_threefry_split)/iota_2x32_shape" source_file="/global/homes/j/jackm/software/lorrax_C/src/solvers/lanczos.py" source_line=245}
  %constant.896 = u32[] constant(42), metadata={op_name="jit(_full_run)/jit(main)/jit(_threefry_split)/squeeze" source_file="/global/homes/j/jackm/software/lorrax_C/src/solvers/lanczos.py" source_line=245}
  %broadcast.485 = u32[2]{0} broadcast(%constant.896), dimensions={}, metadata={op_name="jit(_full_run)/jit(main)/jit(_threefry_split)/add" source_file="/global/homes/j/jackm/software/lorrax_C/src/solvers/lanczos.py" source_line=245}
  %add.392 = u32[2]{0} add(%convert.32, %broadcast.485), metadata={op_name="jit(_full_run)/jit(main)/jit(_threefry_split)/add" source_file="/global/homes/j/jackm/software/lorrax_C/src/solvers/lanczos.py" source_line=245}
  %add.393 = u32[2]{0} add(%convert.30, %add.392), metadata={op_name="jit(_full_run)/jit(main)/jit(_threefry_split)/add" source_file="/global/homes/j/jackm/software/lorrax_C/src/solvers/lanczos.py" source_line=245}
  %constant.323 = u32[] constant(13)
  %broadcast.487 = u32[2]{0} broadcast(%constant.323), dimensions={}
  %shift-left.158 = u32[2]{0} shift-left(%add.392, %broadcast.487), metadata={op_name="jit(_full_run)/jit(main)/jit(_threefry_split)/shift_left" source_file="/global/homes/j/jackm/software/lorrax_C/src/solvers/lanczos.py" source_line=245}
  %constant.324 = u32[] constant(19)
  %broadcast.489 = u32[2]{0} broadcast(%constant.324), dimensions={}
  %shift-right-logical.165 = u32[2]{0} shift-right-logical(%add.392, %broadcast.489), metadata={op_name="jit(_full_run)/jit(main)/jit(_threefry_split)/shift_right_logical" source_file="/global/homes/j/jackm/software/lorrax_C/src/solvers/lanczos.py" source_line=245}
  %or.162 = u32[2]{0} or(%shift-left.158, %shift-right-logical.165), metadata={op_name="jit(_full_run)/jit(main)/jit(_threefry_split)/or" source_file="/global/homes/j/jackm/software/lorrax_C/src/solvers/lanczos.py" source_line=245}
  %xor.172 = u32[2]{0} xor(%add.393, %or.162), metadata={op_name="jit(_full_run)/jit(main)/jit(_threefry_split)/xor" source_file="/global/homes/j/jackm/software/lorrax_C/src/solvers/lanczos.py" source_line=245}
  %add.394 = u32[2]{0} add(%add.393, %xor.172), metadata={op_name="jit(_full_run)/jit(main)/jit(_threefry_split)/add" source_file="/global/homes/j/jackm/software/lorrax_C/src/solvers/lanczos.py" source_line=245}
  %constant.325 = u32[] constant(15)
  %broadcast.491 = u32[2]{0} broadcast(%constant.325), dimensions={}
  %shift-left.159 = u32[2]{0} shift-left(%xor.172, %broadcast.491), metadata={op_name="jit(_full_run)/jit(main)/jit(_threefry_split)/shift_left" source_file="/global/homes/j/jackm/software/lorrax_C/src/solvers/lanczos.py" source_line=245}
  %constant.326 = u32[] constant(17)
  %broadcast.493 = u32[2]{0} broadcast(%constant.326), dimensions={}
  %shift-right-logical.166 = u32[2]{0} shift-right-logical(%xor.172, %broadcast.493), metadata={op_name="jit(_full_run)/jit(main)/jit(_threefry_split)/shift_right_logical" source_file="/global/homes/j/jackm/software/lorrax_C/src/solvers/lanczos.py" source_line=245}
  %or.163 = u32[2]{0} or(%shift-left.159, %shift-right-logical.166), metadata={op_name="jit(_full_run)/jit(main)/jit(_threefry_split)/or" source_file="/global/homes/j/jackm/software/lorrax_C/src/solvers/lanczos.py" source_line=245}
  %xor.173 = u32[2]{0} xor(%add.394, %or.163), metadata={op_name="jit(_full_run)/jit(main)/jit(_threefry_split)/xor" source_file="/global/homes/j/jackm/software/lorrax_C/src/solvers/lanczos.py" source_line=245}
  %add.395 = u32[2]{0} add(%add.394, %xor.173), metadata={op_name="jit(_full_run)/jit(main)/jit(_threefry_split)/add" source_file="/global/homes/j/jackm/software/lorrax_C/src/solvers/lanczos.py" source_line=245}
  %constant.327 = u32[] constant(26)
  %broadcast.495 = u32[2]{0} broadcast(%constant.327), dimensions={}
  %shift-left.160 = u32[2]{0} shift-left(%xor.173, %broadcast.495), metadata={op_name="jit(_full_run)/jit(main)/jit(_threefry_split)/shift_left" source_file="/global/homes/j/jackm/software/lorrax_C/src/solvers/lanczos.py" source_line=245}
  %constant.328 = u32[] constant(6)
  %broadcast.497 = u32[2]{0} broadcast(%constant.328), dimensions={}
  %shift-right-logical.167 = u32[2]{0} shift-right-logical(%xor.173, %broadcast.497), metadata={op_name="jit(_full_run)/jit(main)/jit(_threefry_split)/shift_right_logical" source_file="/global/homes/j/jackm/software/lorrax_C/src/solvers/lanczos.py" source_line=245}
  %or.165 = u32[2]{0} or(%shift-left.160, %shift-right-logical.167), metadata={op_name="jit(_full_run)/jit(main)/jit(_threefry_split)/or" source_file="/global/homes/j/jackm/software/lorrax_C/src/solvers/lanczos.py" source_line=245}
  %xor.174 = u32[2]{0} xor(%add.395, %or.165), metadata={op_name="jit(_full_run)/jit(main)/jit(_threefry_split)/xor" source_file="/global/homes/j/jackm/software/lorrax_C/src/solvers/lanczos.py" source_line=245}
  %add.396 = u32[2]{0} add(%add.395, %xor.174), metadata={op_name="jit(_full_run)/jit(main)/jit(_threefry_split)/add" source_file="/global/homes/j/jackm/software/lorrax_C/src/solvers/lanczos.py" source_line=245}
  %constant.897 = u32[] constant(42), metadata={op_name="jit(_full_run)/jit(main)/jit(_threefry_split)/squeeze" source_file="/global/homes/j/jackm/software/lorrax_C/src/solvers/lanczos.py" source_line=245}
  %broadcast.499 = u32[2]{0} broadcast(%constant.897), dimensions={}, metadata={op_name="jit(_full_run)/jit(main)/jit(_threefry_split)/add" source_file="/global/homes/j/jackm/software/lorrax_C/src/solvers/lanczos.py" source_line=245}
  %add.397 = u32[2]{0} add(%add.396, %broadcast.499), metadata={op_name="jit(_full_run)/jit(main)/jit(_threefry_split)/add" source_file="/global/homes/j/jackm/software/lorrax_C/src/solvers/lanczos.py" source_line=245}
  %shift-left.161 = u32[2]{0} shift-left(%xor.174, %broadcast.497), metadata={op_name="jit(_full_run)/jit(main)/jit(_threefry_split)/shift_left" source_file="/global/homes/j/jackm/software/lorrax_C/src/solvers/lanczos.py" source_line=245}
  %shift-right-logical.169 = u32[2]{0} shift-right-logical(%xor.174, %broadcast.495), metadata={op_name="jit(_full_run)/jit(main)/jit(_threefry_split)/shift_right_logical" source_file="/global/homes/j/jackm/software/lorrax_C/src/solvers/lanczos.py" source_line=245}
  %or.166 = u32[2]{0} or(%shift-left.161, %shift-right-logical.169), metadata={op_name="jit(_full_run)/jit(main)/jit(_threefry_split)/or" source_file="/global/homes/j/jackm/software/lorrax_C/src/solvers/lanczos.py" source_line=245}
  %xor.175 = u32[2]{0} xor(%add.396, %or.166), metadata={op_name="jit(_full_run)/jit(main)/jit(_threefry_split)/xor" source_file="/global/homes/j/jackm/software/lorrax_C/src/solvers/lanczos.py" source_line=245}
  %constant.850 = u32[] constant(466689009)
  %broadcast.1056 = u32[2]{0} broadcast(%constant.850), dimensions={}, metadata={op_name="jit(_full_run)/jit(main)/jit(_threefry_split)/add" source_file="/global/homes/j/jackm/software/lorrax_C/src/solvers/lanczos.py" source_line=245}
  %add.399 = u32[2]{0} add(%xor.175, %broadcast.1056), metadata={op_name="jit(_full_run)/jit(main)/jit(_threefry_split)/add" source_file="/global/homes/j/jackm/software/lorrax_C/src/solvers/lanczos.py" source_line=245}
  %add.400 = u32[2]{0} add(%add.397, %add.399), metadata={op_name="jit(_full_run)/jit(main)/jit(_threefry_split)/add" source_file="/global/homes/j/jackm/software/lorrax_C/src/solvers/lanczos.py" source_line=245}
  %shift-left.163 = u32[2]{0} shift-left(%add.399, %broadcast.493), metadata={op_name="jit(_full_run)/jit(main)/jit(_threefry_split)/shift_left" source_file="/global/homes/j/jackm/software/lorrax_C/src/solvers/lanczos.py" source_line=245}
  %shift-right-logical.170 = u32[2]{0} shift-right-logical(%add.399, %broadcast.491), metadata={op_name="jit(_full_run)/jit(main)/jit(_threefry_split)/shift_right_logical" source_file="/global/homes/j/jackm/software/lorrax_C/src/solvers/lanczos.py" source_line=245}
  %or.167 = u32[2]{0} or(%shift-left.163, %shift-right-logical.170), metadata={op_name="jit(_full_run)/jit(main)/jit(_threefry_split)/or" source_file="/global/homes/j/jackm/software/lorrax_C/src/solvers/lanczos.py" source_line=245}
  %xor.178 = u32[2]{0} xor(%add.400, %or.167), metadata={op_name="jit(_full_run)/jit(main)/jit(_threefry_split)/xor" source_file="/global/homes/j/jackm/software/lorrax_C/src/solvers/lanczos.py" source_line=245}
  %add.401 = u32[2]{0} add(%add.400, %xor.178), metadata={op_name="jit(_full_run)/jit(main)/jit(_threefry_split)/add" source_file="/global/homes/j/jackm/software/lorrax_C/src/solvers/lanczos.py" source_line=245}
  %constant.331 = u32[] constant(29)
  %broadcast.505 = u32[2]{0} broadcast(%constant.331), dimensions={}
  %shift-left.164 = u32[2]{0} shift-left(%xor.178, %broadcast.505), metadata={op_name="jit(_full_run)/jit(main)/jit(_threefry_split)/shift_left" source_file="/global/homes/j/jackm/software/lorrax_C/src/solvers/lanczos.py" source_line=245}
  %constant.332 = u32[] constant(3)
  %broadcast.507 = u32[2]{0} broadcast(%constant.332), dimensions={}
  %shift-right-logical.171 = u32[2]{0} shift-right-logical(%xor.178, %broadcast.507), metadata={op_name="jit(_full_run)/jit(main)/jit(_threefry_split)/shift_right_logical" source_file="/global/homes/j/jackm/software/lorrax_C/src/solvers/lanczos.py" source_line=245}
  %or.168 = u32[2]{0} or(%shift-left.164, %shift-right-logical.171), metadata={op_name="jit(_full_run)/jit(main)/jit(_threefry_split)/or" source_file="/global/homes/j/jackm/software/lorrax_C/src/solvers/lanczos.py" source_line=245}
  %xor.179 = u32[2]{0} xor(%add.401, %or.168), metadata={op_name="jit(_full_run)/jit(main)/jit(_threefry_split)/xor" source_file="/global/homes/j/jackm/software/lorrax_C/src/solvers/lanczos.py" source_line=245}
  %add.402 = u32[2]{0} add(%add.401, %xor.179), metadata={op_name="jit(_full_run)/jit(main)/jit(_threefry_split)/add" source_file="/global/homes/j/jackm/software/lorrax_C/src/solvers/lanczos.py" source_line=245}
  %constant.333 = u32[] constant(16)
  %broadcast.509 = u32[2]{0} broadcast(%constant.333), dimensions={}
  %shift-left.165 = u32[2]{0} shift-left(%xor.179, %broadcast.509), metadata={op_name="jit(_full_run)/jit(main)/jit(_threefry_split)/shift_left" source_file="/global/homes/j/jackm/software/lorrax_C/src/solvers/lanczos.py" source_line=245}
  %shift-right-logical.172 = u32[2]{0} shift-right-logical(%xor.179, %broadcast.509), metadata={op_name="jit(_full_run)/jit(main)/jit(_threefry_split)/shift_right_logical" source_file="/global/homes/j/jackm/software/lorrax_C/src/solvers/lanczos.py" source_line=245}
  %or.170 = u32[2]{0} or(%shift-left.165, %shift-right-logical.172), metadata={op_name="jit(_full_run)/jit(main)/jit(_threefry_split)/or" source_file="/global/homes/j/jackm/software/lorrax_C/src/solvers/lanczos.py" source_line=245}
  %xor.181 = u32[2]{0} xor(%add.402, %or.170), metadata={op_name="jit(_full_run)/jit(main)/jit(_threefry_split)/xor" source_file="/global/homes/j/jackm/software/lorrax_C/src/solvers/lanczos.py" source_line=245}
  %add.403 = u32[2]{0} add(%add.402, %xor.181), metadata={op_name="jit(_full_run)/jit(main)/jit(_threefry_split)/add" source_file="/global/homes/j/jackm/software/lorrax_C/src/solvers/lanczos.py" source_line=245}
  %constant.900 = u32[] constant(466689008), metadata={op_name="jit(_full_run)/jit(main)/jit(_threefry_split)/xor" source_file="/global/homes/j/jackm/software/lorrax_C/src/solvers/lanczos.py" source_line=245}
  %broadcast.511 = u32[2]{0} broadcast(%constant.900), dimensions={}, metadata={op_name="jit(_full_run)/jit(main)/jit(_threefry_split)/add" source_file="/global/homes/j/jackm/software/lorrax_C/src/solvers/lanczos.py" source_line=245}
  %add.404 = u32[2]{0} add(%add.403, %broadcast.511), metadata={op_name="jit(_full_run)/jit(main)/jit(_threefry_split)/add" source_file="/global/homes/j/jackm/software/lorrax_C/src/solvers/lanczos.py" source_line=245}
  %constant.334 = u32[] constant(24)
  %broadcast.513 = u32[2]{0} broadcast(%constant.334), dimensions={}
  %shift-left.166 = u32[2]{0} shift-left(%xor.181, %broadcast.513), metadata={op_name="jit(_full_run)/jit(main)/jit(_threefry_split)/shift_left" source_file="/global/homes/j/jackm/software/lorrax_C/src/solvers/lanczos.py" source_line=245}
  %constant.335 = u32[] constant(8)
  %broadcast.515 = u32[2]{0} broadcast(%constant.335), dimensions={}
  %shift-right-logical.173 = u32[2]{0} shift-right-logical(%xor.181, %broadcast.515), metadata={op_name="jit(_full_run)/jit(main)/jit(_threefry_split)/shift_right_logical" source_file="/global/homes/j/jackm/software/lorrax_C/src/solvers/lanczos.py" source_line=245}
  %or.171 = u32[2]{0} or(%shift-left.166, %shift-right-logical.173), metadata={op_name="jit(_full_run)/jit(main)/jit(_threefry_split)/or" source_file="/global/homes/j/jackm/software/lorrax_C/src/solvers/lanczos.py" source_line=245}
  %xor.182 = u32[2]{0} xor(%add.403, %or.171), metadata={op_name="jit(_full_run)/jit(main)/jit(_threefry_split)/xor" source_file="/global/homes/j/jackm/software/lorrax_C/src/solvers/lanczos.py" source_line=245}
  %constant.336 = u32[] constant(2)
  %broadcast.519 = u32[2]{0} broadcast(%constant.336), dimensions={}
  %add.406 = u32[2]{0} add(%xor.182, %broadcast.519), metadata={op_name="jit(_full_run)/jit(main)/jit(_threefry_split)/add" source_file="/global/homes/j/jackm/software/lorrax_C/src/solvers/lanczos.py" source_line=245}
  %add.407 = u32[2]{0} add(%add.404, %add.406), metadata={op_name="jit(_full_run)/jit(main)/jit(_threefry_split)/add" source_file="/global/homes/j/jackm/software/lorrax_C/src/solvers/lanczos.py" source_line=245}
  %shift-left.168 = u32[2]{0} shift-left(%add.406, %broadcast.487), metadata={op_name="jit(_full_run)/jit(main)/jit(_threefry_split)/shift_left" source_file="/global/homes/j/jackm/software/lorrax_C/src/solvers/lanczos.py" source_line=245}
  %shift-right-logical.174 = u32[2]{0} shift-right-logical(%add.406, %broadcast.489), metadata={op_name="jit(_full_run)/jit(main)/jit(_threefry_split)/shift_right_logical" source_file="/global/homes/j/jackm/software/lorrax_C/src/solvers/lanczos.py" source_line=245}
  %or.172 = u32[2]{0} or(%shift-left.168, %shift-right-logical.174), metadata={op_name="jit(_full_run)/jit(main)/jit(_threefry_split)/or" source_file="/global/homes/j/jackm/software/lorrax_C/src/solvers/lanczos.py" source_line=245}
  %xor.183 = u32[2]{0} xor(%add.407, %or.172), metadata={op_name="jit(_full_run)/jit(main)/jit(_threefry_split)/xor" source_file="/global/homes/j/jackm/software/lorrax_C/src/solvers/lanczos.py" source_line=245}
  %add.408 = u32[2]{0} add(%add.407, %xor.183), metadata={op_name="jit(_full_run)/jit(main)/jit(_threefry_split)/add" source_file="/global/homes/j/jackm/software/lorrax_C/src/solvers/lanczos.py" source_line=245}
  %shift-left.169 = u32[2]{0} shift-left(%xor.183, %broadcast.491), metadata={op_name="jit(_full_run)/jit(main)/jit(_threefry_split)/shift_left" source_file="/global/homes/j/jackm/software/lorrax_C/src/solvers/lanczos.py" source_line=245}
  %shift-right-logical.175 = u32[2]{0} shift-right-logical(%xor.183, %broadcast.493), metadata={op_name="jit(_full_run)/jit(main)/jit(_threefry_split)/shift_right_logical" source_file="/global/homes/j/jackm/software/lorrax_C/src/solvers/lanczos.py" source_line=245}
  %or.173 = u32[2]{0} or(%shift-left.169, %shift-right-logical.175), metadata={op_name="jit(_full_run)/jit(main)/jit(_threefry_split)/or" source_file="/global/homes/j/jackm/software/lorrax_C/src/solvers/lanczos.py" source_line=245}
  %xor.184 = u32[2]{0} xor(%add.408, %or.173), metadata={op_name="jit(_full_run)/jit(main)/jit(_threefry_split)/xor" source_file="/global/homes/j/jackm/software/lorrax_C/src/solvers/lanczos.py" source_line=245}
  %add.409 = u32[2]{0} add(%add.408, %xor.184), metadata={op_name="jit(_full_run)/jit(main)/jit(_threefry_split)/add" source_file="/global/homes/j/jackm/software/lorrax_C/src/solvers/lanczos.py" source_line=245}
  %shift-left.170 = u32[2]{0} shift-left(%xor.184, %broadcast.495), metadata={op_name="jit(_full_run)/jit(main)/jit(_threefry_split)/shift_left" source_file="/global/homes/j/jackm/software/lorrax_C/src/solvers/lanczos.py" source_line=245}
  %shift-right-logical.176 = u32[2]{0} shift-right-logical(%xor.184, %broadcast.497), metadata={op_name="jit(_full_run)/jit(main)/jit(_threefry_split)/shift_right_logical" source_file="/global/homes/j/jackm/software/lorrax_C/src/solvers/lanczos.py" source_line=245}
  %or.174 = u32[2]{0} or(%shift-left.170, %shift-right-logical.176), metadata={op_name="jit(_full_run)/jit(main)/jit(_threefry_split)/or" source_file="/global/homes/j/jackm/software/lorrax_C/src/solvers/lanczos.py" source_line=245}
  %xor.186 = u32[2]{0} xor(%add.409, %or.174), metadata={op_name="jit(_full_run)/jit(main)/jit(_threefry_split)/xor" source_file="/global/homes/j/jackm/software/lorrax_C/src/solvers/lanczos.py" source_line=245}
  %add.411 = u32[2]{0} add(%add.409, %xor.186), metadata={op_name="jit(_full_run)/jit(main)/jit(_threefry_split)/add" source_file="/global/homes/j/jackm/software/lorrax_C/src/solvers/lanczos.py" source_line=245}
  %shift-left.171 = u32[2]{0} shift-left(%xor.186, %broadcast.497), metadata={op_name="jit(_full_run)/jit(main)/jit(_threefry_split)/shift_left" source_file="/global/homes/j/jackm/software/lorrax_C/src/solvers/lanczos.py" source_line=245}
  %shift-right-logical.177 = u32[2]{0} shift-right-logical(%xor.186, %broadcast.495), metadata={op_name="jit(_full_run)/jit(main)/jit(_threefry_split)/shift_right_logical" source_file="/global/homes/j/jackm/software/lorrax_C/src/solvers/lanczos.py" source_line=245}
  %or.175 = u32[2]{0} or(%shift-left.171, %shift-right-logical.177), metadata={op_name="jit(_full_run)/jit(main)/jit(_threefry_split)/or" source_file="/global/homes/j/jackm/software/lorrax_C/src/solvers/lanczos.py" source_line=245}
  %xor.187 = u32[2]{0} xor(%add.411, %or.175), metadata={op_name="jit(_full_run)/jit(main)/jit(_threefry_split)/xor" source_file="/global/homes/j/jackm/software/lorrax_C/src/solvers/lanczos.py" source_line=245}
  %constant.851 = u32[] constant(45)
  %broadcast.1057 = u32[2]{0} broadcast(%constant.851), dimensions={}, metadata={op_name="jit(_full_run)/jit(main)/jit(_threefry_split)/add" source_file="/global/homes/j/jackm/software/lorrax_C/src/solvers/lanczos.py" source_line=245}
  %add.413 = u32[2]{0} add(%xor.187, %broadcast.1057), metadata={op_name="jit(_full_run)/jit(main)/jit(_threefry_split)/add" source_file="/global/homes/j/jackm/software/lorrax_C/src/solvers/lanczos.py" source_line=245}
  %add.414 = u32[2]{0} add(%add.411, %add.413), metadata={op_name="jit(_full_run)/jit(main)/jit(_threefry_split)/add" source_file="/global/homes/j/jackm/software/lorrax_C/src/solvers/lanczos.py" source_line=245}
  %shift-left.172 = u32[2]{0} shift-left(%add.413, %broadcast.493), metadata={op_name="jit(_full_run)/jit(main)/jit(_threefry_split)/shift_left" source_file="/global/homes/j/jackm/software/lorrax_C/src/solvers/lanczos.py" source_line=245}
  %shift-right-logical.179 = u32[2]{0} shift-right-logical(%add.413, %broadcast.491), metadata={op_name="jit(_full_run)/jit(main)/jit(_threefry_split)/shift_right_logical" source_file="/global/homes/j/jackm/software/lorrax_C/src/solvers/lanczos.py" source_line=245}
  %or.176 = u32[2]{0} or(%shift-left.172, %shift-right-logical.179), metadata={op_name="jit(_full_run)/jit(main)/jit(_threefry_split)/or" source_file="/global/homes/j/jackm/software/lorrax_C/src/solvers/lanczos.py" source_line=245}
  %xor.188 = u32[2]{0} xor(%add.414, %or.176), metadata={op_name="jit(_full_run)/jit(main)/jit(_threefry_split)/xor" source_file="/global/homes/j/jackm/software/lorrax_C/src/solvers/lanczos.py" source_line=245}
  %add.415 = u32[2]{0} add(%add.414, %xor.188), metadata={op_name="jit(_full_run)/jit(main)/jit(_threefry_split)/add" source_file="/global/homes/j/jackm/software/lorrax_C/src/solvers/lanczos.py" source_line=245}
  %shift-left.173 = u32[2]{0} shift-left(%xor.188, %broadcast.505), metadata={op_name="jit(_full_run)/jit(main)/jit(_threefry_split)/shift_left" source_file="/global/homes/j/jackm/software/lorrax_C/src/solvers/lanczos.py" source_line=245}
  %shift-right-logical.180 = u32[2]{0} shift-right-logical(%xor.188, %broadcast.507), metadata={op_name="jit(_full_run)/jit(main)/jit(_threefry_split)/shift_right_logical" source_file="/global/homes/j/jackm/software/lorrax_C/src/solvers/lanczos.py" source_line=245}
  %or.177 = u32[2]{0} or(%shift-left.173, %shift-right-logical.180), metadata={op_name="jit(_full_run)/jit(main)/jit(_threefry_split)/or" source_file="/global/homes/j/jackm/software/lorrax_C/src/solvers/lanczos.py" source_line=245}
  %xor.189 = u32[2]{0} xor(%add.415, %or.177), metadata={op_name="jit(_full_run)/jit(main)/jit(_threefry_split)/xor" source_file="/global/homes/j/jackm/software/lorrax_C/src/solvers/lanczos.py" source_line=245}
  %add.416 = u32[2]{0} add(%add.415, %xor.189), metadata={op_name="jit(_full_run)/jit(main)/jit(_threefry_split)/add" source_file="/global/homes/j/jackm/software/lorrax_C/src/solvers/lanczos.py" source_line=245}
  %shift-left.174 = u32[2]{0} shift-left(%xor.189, %broadcast.509), metadata={op_name="jit(_full_run)/jit(main)/jit(_threefry_split)/shift_left" source_file="/global/homes/j/jackm/software/lorrax_C/src/solvers/lanczos.py" source_line=245}
  %shift-right-logical.181 = u32[2]{0} shift-right-logical(%xor.189, %broadcast.509), metadata={op_name="jit(_full_run)/jit(main)/jit(_threefry_split)/shift_right_logical" source_file="/global/homes/j/jackm/software/lorrax_C/src/solvers/lanczos.py" source_line=245}
  %or.178 = u32[2]{0} or(%shift-left.174, %shift-right-logical.181), metadata={op_name="jit(_full_run)/jit(main)/jit(_threefry_split)/or" source_file="/global/homes/j/jackm/software/lorrax_C/src/solvers/lanczos.py" source_line=245}
  %xor.191 = u32[2]{0} xor(%add.416, %or.178), metadata={op_name="jit(_full_run)/jit(main)/jit(_threefry_split)/xor" source_file="/global/homes/j/jackm/software/lorrax_C/src/solvers/lanczos.py" source_line=245}
  %add.417 = u32[2]{0} add(%add.416, %xor.191), metadata={op_name="jit(_full_run)/jit(main)/jit(_threefry_split)/add" source_file="/global/homes/j/jackm/software/lorrax_C/src/solvers/lanczos.py" source_line=245}
  %constant.898 = u32[] constant(42), metadata={op_name="jit(_full_run)/jit(main)/jit(_threefry_split)/squeeze" source_file="/global/homes/j/jackm/software/lorrax_C/src/solvers/lanczos.py" source_line=245}
  %broadcast.525 = u32[2]{0} broadcast(%constant.898), dimensions={}, metadata={op_name="jit(_full_run)/jit(main)/jit(_threefry_split)/add" source_file="/global/homes/j/jackm/software/lorrax_C/src/solvers/lanczos.py" source_line=245}
  %add.418 = u32[2]{0} add(%add.417, %broadcast.525), metadata={op_name="jit(_full_run)/jit(main)/jit(_threefry_split)/add" source_file="/global/homes/j/jackm/software/lorrax_C/src/solvers/lanczos.py" source_line=245}
  %shift-left.175 = u32[2]{0} shift-left(%xor.191, %broadcast.513), metadata={op_name="jit(_full_run)/jit(main)/jit(_threefry_split)/shift_left" source_file="/global/homes/j/jackm/software/lorrax_C/src/solvers/lanczos.py" source_line=245}
  %shift-right-logical.182 = u32[2]{0} shift-right-logical(%xor.191, %broadcast.515), metadata={op_name="jit(_full_run)/jit(main)/jit(_threefry_split)/shift_right_logical" source_file="/global/homes/j/jackm/software/lorrax_C/src/solvers/lanczos.py" source_line=245}
  %or.180 = u32[2]{0} or(%shift-left.175, %shift-right-logical.182), metadata={op_name="jit(_full_run)/jit(main)/jit(_threefry_split)/or" source_file="/global/homes/j/jackm/software/lorrax_C/src/solvers/lanczos.py" source_line=245}
  %xor.192 = u32[2]{0} xor(%add.417, %or.180), metadata={op_name="jit(_full_run)/jit(main)/jit(_threefry_split)/xor" source_file="/global/homes/j/jackm/software/lorrax_C/src/solvers/lanczos.py" source_line=245}
  %constant.852 = u32[] constant(466689012)
  %broadcast.1058 = u32[2]{0} broadcast(%constant.852), dimensions={}, metadata={op_name="jit(_full_run)/jit(main)/jit(_threefry_split)/add" source_file="/global/homes/j/jackm/software/lorrax_C/src/solvers/lanczos.py" source_line=245}
  %add.420 = u32[2]{0} add(%xor.192, %broadcast.1058), metadata={op_name="jit(_full_run)/jit(main)/jit(_threefry_split)/add" source_file="/global/homes/j/jackm/software/lorrax_C/src/solvers/lanczos.py" source_line=245}
  %add.421 = u32[2]{0} add(%add.418, %add.420), metadata={op_name="jit(_full_run)/jit(main)/jit(_threefry_split)/add" source_file="/global/homes/j/jackm/software/lorrax_C/src/solvers/lanczos.py" source_line=245}
  %shift-left.176 = u32[2]{0} shift-left(%add.420, %broadcast.487), metadata={op_name="jit(_full_run)/jit(main)/jit(_threefry_split)/shift_left" source_file="/global/homes/j/jackm/software/lorrax_C/src/solvers/lanczos.py" source_line=245}
  %shift-right-logical.184 = u32[2]{0} shift-right-logical(%add.420, %broadcast.489), metadata={op_name="jit(_full_run)/jit(main)/jit(_threefry_split)/shift_right_logical" source_file="/global/homes/j/jackm/software/lorrax_C/src/solvers/lanczos.py" source_line=245}
  %or.181 = u32[2]{0} or(%shift-left.176, %shift-right-logical.184), metadata={op_name="jit(_full_run)/jit(main)/jit(_threefry_split)/or" source_file="/global/homes/j/jackm/software/lorrax_C/src/solvers/lanczos.py" source_line=245}
  %xor.193 = u32[2]{0} xor(%add.421, %or.181), metadata={op_name="jit(_full_run)/jit(main)/jit(_threefry_split)/xor" source_file="/global/homes/j/jackm/software/lorrax_C/src/solvers/lanczos.py" source_line=245}
  %add.422 = u32[2]{0} add(%add.421, %xor.193), metadata={op_name="jit(_full_run)/jit(main)/jit(_threefry_split)/add" source_file="/global/homes/j/jackm/software/lorrax_C/src/solvers/lanczos.py" source_line=245}
  %shift-left.178 = u32[2]{0} shift-left(%xor.193, %broadcast.491), metadata={op_name="jit(_full_run)/jit(main)/jit(_threefry_split)/shift_left" source_file="/global/homes/j/jackm/software/lorrax_C/src/solvers/lanczos.py" source_line=245}
  %shift-right-logical.185 = u32[2]{0} shift-right-logical(%xor.193, %broadcast.493), metadata={op_name="jit(_full_run)/jit(main)/jit(_threefry_split)/shift_right_logical" source_file="/global/homes/j/jackm/software/lorrax_C/src/solvers/lanczos.py" source_line=245}
  %or.182 = u32[2]{0} or(%shift-left.178, %shift-right-logical.185), metadata={op_name="jit(_full_run)/jit(main)/jit(_threefry_split)/or" source_file="/global/homes/j/jackm/software/lorrax_C/src/solvers/lanczos.py" source_line=245}
  %xor.194 = u32[2]{0} xor(%add.422, %or.182), metadata={op_name="jit(_full_run)/jit(main)/jit(_threefry_split)/xor" source_file="/global/homes/j/jackm/software/lorrax_C/src/solvers/lanczos.py" source_line=245}
  %add.423 = u32[2]{0} add(%add.422, %xor.194), metadata={op_name="jit(_full_run)/jit(main)/jit(_threefry_split)/add" source_file="/global/homes/j/jackm/software/lorrax_C/src/solvers/lanczos.py" source_line=245}
  %shift-left.179 = u32[2]{0} shift-left(%xor.194, %broadcast.495), metadata={op_name="jit(_full_run)/jit(main)/jit(_threefry_split)/shift_left" source_file="/global/homes/j/jackm/software/lorrax_C/src/solvers/lanczos.py" source_line=245}
  %shift-right-logical.186 = u32[2]{0} shift-right-logical(%xor.194, %broadcast.497), metadata={op_name="jit(_full_run)/jit(main)/jit(_threefry_split)/shift_right_logical" source_file="/global/homes/j/jackm/software/lorrax_C/src/solvers/lanczos.py" source_line=245}
  %or.183 = u32[2]{0} or(%shift-left.179, %shift-right-logical.186), metadata={op_name="jit(_full_run)/jit(main)/jit(_threefry_split)/or" source_file="/global/homes/j/jackm/software/lorrax_C/src/solvers/lanczos.py" source_line=245}
  %xor.196 = u32[2]{0} xor(%add.423, %or.183), metadata={op_name="jit(_full_run)/jit(main)/jit(_threefry_split)/xor" source_file="/global/homes/j/jackm/software/lorrax_C/src/solvers/lanczos.py" source_line=245}
  %add.424 = u32[2]{0} add(%add.423, %xor.196), metadata={op_name="jit(_full_run)/jit(main)/jit(_threefry_split)/add" source_file="/global/homes/j/jackm/software/lorrax_C/src/solvers/lanczos.py" source_line=245}
  %constant.899 = u32[] constant(466689008), metadata={op_name="jit(_full_run)/jit(main)/jit(_threefry_split)/xor" source_file="/global/homes/j/jackm/software/lorrax_C/src/solvers/lanczos.py" source_line=245}
  %broadcast.531 = u32[2]{0} broadcast(%constant.899), dimensions={}, metadata={op_name="jit(_full_run)/jit(main)/jit(_threefry_split)/add" source_file="/global/homes/j/jackm/software/lorrax_C/src/solvers/lanczos.py" source_line=245}
  %add.425 = u32[2]{0} add(%add.424, %broadcast.531), metadata={op_name="jit(_full_run)/jit(main)/jit(_threefry_split)/add" source_file="/global/homes/j/jackm/software/lorrax_C/src/solvers/lanczos.py" source_line=245}
  %slice.108 = u32[1]{0} slice(%add.425), slice={[0:1]}, metadata={op_name="jit(_full_run)/jit(main)/jit(_normal)/jit(_normal_real)/jit(_uniform)/slice" source_file="/global/homes/j/jackm/software/lorrax_C/src/solvers/lanczos.py" source_line=247}
  %reshape.58 = u32[] reshape(%slice.108), metadata={op_name="jit(_full_run)/jit(main)/jit(_normal)/jit(_normal_real)/jit(_uniform)/squeeze" source_file="/global/homes/j/jackm/software/lorrax_C/src/solvers/lanczos.py" source_line=247}
  %broadcast.543 = u32[1024]{0} broadcast(%reshape.58), dimensions={}, metadata={op_name="jit(_full_run)/jit(main)/jit(_normal)/jit(_normal_real)/jit(_uniform)/add" source_file="/global/homes/j/jackm/software/lorrax_C/src/solvers/lanczos.py" source_line=247}
  %add.428 = u32[1024]{0} add(%convert.33, %broadcast.543), metadata={op_name="jit(_full_run)/jit(main)/jit(_normal)/jit(_normal_real)/jit(_uniform)/add" source_file="/global/homes/j/jackm/software/lorrax_C/src/solvers/lanczos.py" source_line=247}
  %convert.34 = u32[1024]{0} convert(%iota.5), metadata={op_name="jit(_full_run)/jit(main)/jit(_normal)/jit(_normal_real)/jit(_uniform)/iota_2x32_shape" source_file="/global/homes/j/jackm/software/lorrax_C/src/solvers/lanczos.py" source_line=247}
  %reshape.54 = u32[2,1]{1,0} reshape(%add.425), metadata={op_name="jit(_full_run)/jit(main)/jit(_threefry_split)/broadcast_in_dim" source_file="/global/homes/j/jackm/software/lorrax_C/src/solvers/lanczos.py" source_line=245}
  %shift-left.180 = u32[2]{0} shift-left(%xor.196, %broadcast.497), metadata={op_name="jit(_full_run)/jit(main)/jit(_threefry_split)/shift_left" source_file="/global/homes/j/jackm/software/lorrax_C/src/solvers/lanczos.py" source_line=245}
  %shift-right-logical.187 = u32[2]{0} shift-right-logical(%xor.196, %broadcast.495), metadata={op_name="jit(_full_run)/jit(main)/jit(_threefry_split)/shift_right_logical" source_file="/global/homes/j/jackm/software/lorrax_C/src/solvers/lanczos.py" source_line=245}
  %or.185 = u32[2]{0} or(%shift-left.180, %shift-right-logical.187), metadata={op_name="jit(_full_run)/jit(main)/jit(_threefry_split)/or" source_file="/global/homes/j/jackm/software/lorrax_C/src/solvers/lanczos.py" source_line=245}
  %xor.197 = u32[2]{0} xor(%add.424, %or.185), metadata={op_name="jit(_full_run)/jit(main)/jit(_threefry_split)/xor" source_file="/global/homes/j/jackm/software/lorrax_C/src/solvers/lanczos.py" source_line=245}
  %constant.338 = u32[] constant(5)
  %broadcast.535 = u32[2]{0} broadcast(%constant.338), dimensions={}
  %add.427 = u32[2]{0} add(%xor.197, %broadcast.535), metadata={op_name="jit(_full_run)/jit(main)/jit(_threefry_split)/add" source_file="/global/homes/j/jackm/software/lorrax_C/src/solvers/lanczos.py" source_line=245}
  %reshape.55 = u32[2,1]{1,0} reshape(%add.427), metadata={op_name="jit(_full_run)/jit(main)/jit(_threefry_split)/broadcast_in_dim" source_file="/global/homes/j/jackm/software/lorrax_C/src/solvers/lanczos.py" source_line=245}
  %concatenate.0 = u32[2,2]{1,0} concatenate(%reshape.54, %reshape.55), dimensions={1}, metadata={op_name="jit(_full_run)/jit(main)/jit(_threefry_split)/concatenate" source_file="/global/homes/j/jackm/software/lorrax_C/src/solvers/lanczos.py" source_line=245}
  %slice.221 = u32[1,2]{1,0} slice(%concatenate.0), slice={[0:1], [0:2]}, metadata={op_name="jit(_full_run)/jit(main)/slice" source_file="/global/homes/j/jackm/software/lorrax_C/src/solvers/lanczos.py" source_line=245}
  %reshape.222 = u32[2]{0} reshape(%slice.221), metadata={op_name="jit(_full_run)/jit(main)/squeeze" source_file="/global/homes/j/jackm/software/lorrax_C/src/solvers/lanczos.py" source_line=245}
  %slice.11 = u32[1]{0} slice(%reshape.222), slice={[1:2]}, metadata={op_name="jit(_full_run)/jit(main)/jit(_normal)/jit(_normal_real)/jit(_uniform)/slice" source_file="/global/homes/j/jackm/software/lorrax_C/src/solvers/lanczos.py" source_line=247}
  %reshape.59 = u32[] reshape(%slice.11), metadata={op_name="jit(_full_run)/jit(main)/jit(_normal)/jit(_normal_real)/jit(_uniform)/squeeze" source_file="/global/homes/j/jackm/software/lorrax_C/src/solvers/lanczos.py" source_line=247}
  %broadcast.545 = u32[1024]{0} broadcast(%reshape.59), dimensions={}, metadata={op_name="jit(_full_run)/jit(main)/jit(_normal)/jit(_normal_real)/jit(_uniform)/add" source_file="/global/homes/j/jackm/software/lorrax_C/src/solvers/lanczos.py" source_line=247}
  %add.429 = u32[1024]{0} add(%convert.34, %broadcast.545), metadata={op_name="jit(_full_run)/jit(main)/jit(_normal)/jit(_normal_real)/jit(_uniform)/add" source_file="/global/homes/j/jackm/software/lorrax_C/src/solvers/lanczos.py" source_line=247}
  %add.430 = u32[1024]{0} add(%add.428, %add.429), metadata={op_name="jit(_full_run)/jit(main)/jit(_normal)/jit(_normal_real)/jit(_uniform)/add" source_file="/global/homes/j/jackm/software/lorrax_C/src/solvers/lanczos.py" source_line=247}
  %constant.341 = u32[] constant(13)
  %broadcast.547 = u32[1024]{0} broadcast(%constant.341), dimensions={}
  %shift-left.181 = u32[1024]{0} shift-left(%add.429, %broadcast.547), metadata={op_name="jit(_full_run)/jit(main)/jit(_normal)/jit(_normal_real)/jit(_uniform)/shift_left" source_file="/global/homes/j/jackm/software/lorrax_C/src/solvers/lanczos.py" source_line=247}
  %constant.342 = u32[] constant(19)
  %broadcast.549 = u32[1024]{0} broadcast(%constant.342), dimensions={}
  %shift-right-logical.190 = u32[1024]{0} shift-right-logical(%add.429, %broadcast.549), metadata={op_name="jit(_full_run)/jit(main)/jit(_normal)/jit(_normal_real)/jit(_uniform)/shift_right_logical" source_file="/global/homes/j/jackm/software/lorrax_C/src/solvers/lanczos.py" source_line=247}
  %or.186 = u32[1024]{0} or(%shift-left.181, %shift-right-logical.190), metadata={op_name="jit(_full_run)/jit(main)/jit(_normal)/jit(_normal_real)/jit(_uniform)/or" source_file="/global/homes/j/jackm/software/lorrax_C/src/solvers/lanczos.py" source_line=247}
  %xor.198 = u32[1024]{0} xor(%add.430, %or.186), metadata={op_name="jit(_full_run)/jit(main)/jit(_normal)/jit(_normal_real)/jit(_uniform)/xor" source_file="/global/homes/j/jackm/software/lorrax_C/src/solvers/lanczos.py" source_line=247}
  %add.431 = u32[1024]{0} add(%add.430, %xor.198), metadata={op_name="jit(_full_run)/jit(main)/jit(_normal)/jit(_normal_real)/jit(_uniform)/add" source_file="/global/homes/j/jackm/software/lorrax_C/src/solvers/lanczos.py" source_line=247}
  %constant.343 = u32[] constant(15)
  %broadcast.551 = u32[1024]{0} broadcast(%constant.343), dimensions={}
  %shift-left.183 = u32[1024]{0} shift-left(%xor.198, %broadcast.551), metadata={op_name="jit(_full_run)/jit(main)/jit(_normal)/jit(_normal_real)/jit(_uniform)/shift_left" source_file="/global/homes/j/jackm/software/lorrax_C/src/solvers/lanczos.py" source_line=247}
  %constant.344 = u32[] constant(17)
  %broadcast.553 = u32[1024]{0} broadcast(%constant.344), dimensions={}
  %shift-right-logical.191 = u32[1024]{0} shift-right-logical(%xor.198, %broadcast.553), metadata={op_name="jit(_full_run)/jit(main)/jit(_normal)/jit(_normal_real)/jit(_uniform)/shift_right_logical" source_file="/global/homes/j/jackm/software/lorrax_C/src/solvers/lanczos.py" source_line=247}
  %or.187 = u32[1024]{0} or(%shift-left.183, %shift-right-logical.191), metadata={op_name="jit(_full_run)/jit(main)/jit(_normal)/jit(_normal_real)/jit(_uniform)/or" source_file="/global/homes/j/jackm/software/lorrax_C/src/solvers/lanczos.py" source_line=247}
  %xor.199 = u32[1024]{0} xor(%add.431, %or.187), metadata={op_name="jit(_full_run)/jit(main)/jit(_normal)/jit(_normal_real)/jit(_uniform)/xor" source_file="/global/homes/j/jackm/software/lorrax_C/src/solvers/lanczos.py" source_line=247}
  %add.432 = u32[1024]{0} add(%add.431, %xor.199), metadata={op_name="jit(_full_run)/jit(main)/jit(_normal)/jit(_normal_real)/jit(_uniform)/add" source_file="/global/homes/j/jackm/software/lorrax_C/src/solvers/lanczos.py" source_line=247}
  %constant.345 = u32[] constant(26)
  %broadcast.555 = u32[1024]{0} broadcast(%constant.345), dimensions={}
  %shift-left.184 = u32[1024]{0} shift-left(%xor.199, %broadcast.555), metadata={op_name="jit(_full_run)/jit(main)/jit(_normal)/jit(_normal_real)/jit(_uniform)/shift_left" source_file="/global/homes/j/jackm/software/lorrax_C/src/solvers/lanczos.py" source_line=247}
  %constant.346 = u32[] constant(6)
  %broadcast.557 = u32[1024]{0} broadcast(%constant.346), dimensions={}
  %shift-right-logical.192 = u32[1024]{0} shift-right-logical(%xor.199, %broadcast.557), metadata={op_name="jit(_full_run)/jit(main)/jit(_normal)/jit(_normal_real)/jit(_uniform)/shift_right_logical" source_file="/global/homes/j/jackm/software/lorrax_C/src/solvers/lanczos.py" source_line=247}
  %or.188 = u32[1024]{0} or(%shift-left.184, %shift-right-logical.192), metadata={op_name="jit(_full_run)/jit(main)/jit(_normal)/jit(_normal_real)/jit(_uniform)/or" source_file="/global/homes/j/jackm/software/lorrax_C/src/solvers/lanczos.py" source_line=247}
  %xor.200 = u32[1024]{0} xor(%add.432, %or.188), metadata={op_name="jit(_full_run)/jit(main)/jit(_normal)/jit(_normal_real)/jit(_uniform)/xor" source_file="/global/homes/j/jackm/software/lorrax_C/src/solvers/lanczos.py" source_line=247}
  %add.433 = u32[1024]{0} add(%add.432, %xor.200), metadata={op_name="jit(_full_run)/jit(main)/jit(_normal)/jit(_normal_real)/jit(_uniform)/add" source_file="/global/homes/j/jackm/software/lorrax_C/src/solvers/lanczos.py" source_line=247}
  %broadcast.559 = u32[1024]{0} broadcast(%reshape.59), dimensions={}, metadata={op_name="jit(_full_run)/jit(main)/jit(_normal)/jit(_normal_real)/jit(_uniform)/add" source_file="/global/homes/j/jackm/software/lorrax_C/src/solvers/lanczos.py" source_line=247}
  %add.435 = u32[1024]{0} add(%add.433, %broadcast.559), metadata={op_name="jit(_full_run)/jit(main)/jit(_normal)/jit(_normal_real)/jit(_uniform)/add" source_file="/global/homes/j/jackm/software/lorrax_C/src/solvers/lanczos.py" source_line=247}
  %shift-left.185 = u32[1024]{0} shift-left(%xor.200, %broadcast.557), metadata={op_name="jit(_full_run)/jit(main)/jit(_normal)/jit(_normal_real)/jit(_uniform)/shift_left" source_file="/global/homes/j/jackm/software/lorrax_C/src/solvers/lanczos.py" source_line=247}
  %shift-right-logical.194 = u32[1024]{0} shift-right-logical(%xor.200, %broadcast.555), metadata={op_name="jit(_full_run)/jit(main)/jit(_normal)/jit(_normal_real)/jit(_uniform)/shift_right_logical" source_file="/global/homes/j/jackm/software/lorrax_C/src/solvers/lanczos.py" source_line=247}
  %or.190 = u32[1024]{0} or(%shift-left.185, %shift-right-logical.194), metadata={op_name="jit(_full_run)/jit(main)/jit(_normal)/jit(_normal_real)/jit(_uniform)/or" source_file="/global/homes/j/jackm/software/lorrax_C/src/solvers/lanczos.py" source_line=247}
  %xor.201 = u32[1024]{0} xor(%add.433, %or.190), metadata={op_name="jit(_full_run)/jit(main)/jit(_normal)/jit(_normal_real)/jit(_uniform)/xor" source_file="/global/homes/j/jackm/software/lorrax_C/src/solvers/lanczos.py" source_line=247}
  %xor.202 = u32[] xor(%reshape.58, %reshape.59), metadata={op_name="jit(_full_run)/jit(main)/jit(_normal)/jit(_normal_real)/jit(_uniform)/xor" source_file="/global/homes/j/jackm/software/lorrax_C/src/solvers/lanczos.py" source_line=247}
  %constant.347 = u32[] constant(466688986)
  %xor.203 = u32[] xor(%xor.202, %constant.347), metadata={op_name="jit(_full_run)/jit(main)/jit(_normal)/jit(_normal_real)/jit(_uniform)/xor" source_file="/global/homes/j/jackm/software/lorrax_C/src/solvers/lanczos.py" source_line=247}
  %broadcast.561 = u32[1024]{0} broadcast(%xor.203), dimensions={}, metadata={op_name="jit(_full_run)/jit(main)/jit(_normal)/jit(_normal_real)/jit(_uniform)/add" source_file="/global/homes/j/jackm/software/lorrax_C/src/solvers/lanczos.py" source_line=247}
  %add.436 = u32[1024]{0} add(%xor.201, %broadcast.561), metadata={op_name="jit(_full_run)/jit(main)/jit(_normal)/jit(_normal_real)/jit(_uniform)/add" source_file="/global/homes/j/jackm/software/lorrax_C/src/solvers/lanczos.py" source_line=247}
  %constant.348 = u32[] constant(1)
  %broadcast.563 = u32[1024]{0} broadcast(%constant.348), dimensions={}
  %add.437 = u32[1024]{0} add(%add.436, %broadcast.563), metadata={op_name="jit(_full_run)/jit(main)/jit(_normal)/jit(_normal_real)/jit(_uniform)/add" source_file="/global/homes/j/jackm/software/lorrax_C/src/solvers/lanczos.py" source_line=247}
  %add.438 = u32[1024]{0} add(%add.435, %add.437), metadata={op_name="jit(_full_run)/jit(main)/jit(_normal)/jit(_normal_real)/jit(_uniform)/add" source_file="/global/homes/j/jackm/software/lorrax_C/src/solvers/lanczos.py" source_line=247}
  %shift-left.186 = u32[1024]{0} shift-left(%add.437, %broadcast.553), metadata={op_name="jit(_full_run)/jit(main)/jit(_normal)/jit(_normal_real)/jit(_uniform)/shift_left" source_file="/global/homes/j/jackm/software/lorrax_C/src/solvers/lanczos.py" source_line=247}
  %shift-right-logical.195 = u32[1024]{0} shift-right-logical(%add.437, %broadcast.551), metadata={op_name="jit(_full_run)/jit(main)/jit(_normal)/jit(_normal_real)/jit(_uniform)/shift_right_logical" source_file="/global/homes/j/jackm/software/lorrax_C/src/solvers/lanczos.py" source_line=247}
  %or.191 = u32[1024]{0} or(%shift-left.186, %shift-right-logical.195), metadata={op_name="jit(_full_run)/jit(main)/jit(_normal)/jit(_normal_real)/jit(_uniform)/or" source_file="/global/homes/j/jackm/software/lorrax_C/src/solvers/lanczos.py" source_line=247}
  %xor.204 = u32[1024]{0} xor(%add.438, %or.191), metadata={op_name="jit(_full_run)/jit(main)/jit(_normal)/jit(_normal_real)/jit(_uniform)/xor" source_file="/global/homes/j/jackm/software/lorrax_C/src/solvers/lanczos.py" source_line=247}
  %add.439 = u32[1024]{0} add(%add.438, %xor.204), metadata={op_name="jit(_full_run)/jit(main)/jit(_normal)/jit(_normal_real)/jit(_uniform)/add" source_file="/global/homes/j/jackm/software/lorrax_C/src/solvers/lanczos.py" source_line=247}
  %constant.349 = u32[] constant(29)
  %broadcast.565 = u32[1024]{0} broadcast(%constant.349), dimensions={}
  %shift-left.188 = u32[1024]{0} shift-left(%xor.204, %broadcast.565), metadata={op_name="jit(_full_run)/jit(main)/jit(_normal)/jit(_normal_real)/jit(_uniform)/shift_left" source_file="/global/homes/j/jackm/software/lorrax_C/src/solvers/lanczos.py" source_line=247}
  %constant.350 = u32[] constant(3)
  %broadcast.567 = u32[1024]{0} broadcast(%constant.350), dimensions={}
  %shift-right-logical.196 = u32[1024]{0} shift-right-logical(%xor.204, %broadcast.567), metadata={op_name="jit(_full_run)/jit(main)/jit(_normal)/jit(_normal_real)/jit(_uniform)/shift_right_logical" source_file="/global/homes/j/jackm/software/lorrax_C/src/solvers/lanczos.py" source_line=247}
  %or.192 = u32[1024]{0} or(%shift-left.188, %shift-right-logical.196), metadata={op_name="jit(_full_run)/jit(main)/jit(_normal)/jit(_normal_real)/jit(_uniform)/or" source_file="/global/homes/j/jackm/software/lorrax_C/src/solvers/lanczos.py" source_line=247}
  %xor.205 = u32[1024]{0} xor(%add.439, %or.192), metadata={op_name="jit(_full_run)/jit(main)/jit(_normal)/jit(_normal_real)/jit(_uniform)/xor" source_file="/global/homes/j/jackm/software/lorrax_C/src/solvers/lanczos.py" source_line=247}
  %add.440 = u32[1024]{0} add(%add.439, %xor.205), metadata={op_name="jit(_full_run)/jit(main)/jit(_normal)/jit(_normal_real)/jit(_uniform)/add" source_file="/global/homes/j/jackm/software/lorrax_C/src/solvers/lanczos.py" source_line=247}
  %constant.351 = u32[] constant(16)
  %broadcast.569 = u32[1024]{0} broadcast(%constant.351), dimensions={}
  %shift-left.189 = u32[1024]{0} shift-left(%xor.205, %broadcast.569), metadata={op_name="jit(_full_run)/jit(main)/jit(_normal)/jit(_normal_real)/jit(_uniform)/shift_left" source_file="/global/homes/j/jackm/software/lorrax_C/src/solvers/lanczos.py" source_line=247}
  %shift-right-logical.197 = u32[1024]{0} shift-right-logical(%xor.205, %broadcast.569), metadata={op_name="jit(_full_run)/jit(main)/jit(_normal)/jit(_normal_real)/jit(_uniform)/shift_right_logical" source_file="/global/homes/j/jackm/software/lorrax_C/src/solvers/lanczos.py" source_line=247}
  %or.193 = u32[1024]{0} or(%shift-left.189, %shift-right-logical.197), metadata={op_name="jit(_full_run)/jit(main)/jit(_normal)/jit(_normal_real)/jit(_uniform)/or" source_file="/global/homes/j/jackm/software/lorrax_C/src/solvers/lanczos.py" source_line=247}
  %xor.206 = u32[1024]{0} xor(%add.440, %or.193), metadata={op_name="jit(_full_run)/jit(main)/jit(_normal)/jit(_normal_real)/jit(_uniform)/xor" source_file="/global/homes/j/jackm/software/lorrax_C/src/solvers/lanczos.py" source_line=247}
  %add.441 = u32[1024]{0} add(%add.440, %xor.206), metadata={op_name="jit(_full_run)/jit(main)/jit(_normal)/jit(_normal_real)/jit(_uniform)/add" source_file="/global/homes/j/jackm/software/lorrax_C/src/solvers/lanczos.py" source_line=247}
  %broadcast.571 = u32[1024]{0} broadcast(%xor.203), dimensions={}, metadata={op_name="jit(_full_run)/jit(main)/jit(_normal)/jit(_normal_real)/jit(_uniform)/add" source_file="/global/homes/j/jackm/software/lorrax_C/src/solvers/lanczos.py" source_line=247}
  %add.442 = u32[1024]{0} add(%add.441, %broadcast.571), metadata={op_name="jit(_full_run)/jit(main)/jit(_normal)/jit(_normal_real)/jit(_uniform)/add" source_file="/global/homes/j/jackm/software/lorrax_C/src/solvers/lanczos.py" source_line=247}
  %constant.352 = u32[] constant(24)
  %broadcast.573 = u32[1024]{0} broadcast(%constant.352), dimensions={}
  %shift-left.190 = u32[1024]{0} shift-left(%xor.206, %broadcast.573), metadata={op_name="jit(_full_run)/jit(main)/jit(_normal)/jit(_normal_real)/jit(_uniform)/shift_left" source_file="/global/homes/j/jackm/software/lorrax_C/src/solvers/lanczos.py" source_line=247}
  %constant.353 = u32[] constant(8)
  %broadcast.575 = u32[1024]{0} broadcast(%constant.353), dimensions={}
  %shift-right-logical.198 = u32[1024]{0} shift-right-logical(%xor.206, %broadcast.575), metadata={op_name="jit(_full_run)/jit(main)/jit(_normal)/jit(_normal_real)/jit(_uniform)/shift_right_logical" source_file="/global/homes/j/jackm/software/lorrax_C/src/solvers/lanczos.py" source_line=247}
  %or.195 = u32[1024]{0} or(%shift-left.190, %shift-right-logical.198), metadata={op_name="jit(_full_run)/jit(main)/jit(_normal)/jit(_normal_real)/jit(_uniform)/or" source_file="/global/homes/j/jackm/software/lorrax_C/src/solvers/lanczos.py" source_line=247}
  %xor.207 = u32[1024]{0} xor(%add.441, %or.195), metadata={op_name="jit(_full_run)/jit(main)/jit(_normal)/jit(_normal_real)/jit(_uniform)/xor" source_file="/global/homes/j/jackm/software/lorrax_C/src/solvers/lanczos.py" source_line=247}
  %broadcast.576 = u32[1024]{0} broadcast(%reshape.58), dimensions={}, metadata={op_name="jit(_full_run)/jit(main)/jit(_normal)/jit(_normal_real)/jit(_uniform)/add" source_file="/global/homes/j/jackm/software/lorrax_C/src/solvers/lanczos.py" source_line=247}
  %add.443 = u32[1024]{0} add(%xor.207, %broadcast.576), metadata={op_name="jit(_full_run)/jit(main)/jit(_normal)/jit(_normal_real)/jit(_uniform)/add" source_file="/global/homes/j/jackm/software/lorrax_C/src/solvers/lanczos.py" source_line=247}
  %constant.354 = u32[] constant(2)
  %broadcast.577 = u32[1024]{0} broadcast(%constant.354), dimensions={}
  %add.444 = u32[1024]{0} add(%add.443, %broadcast.577), metadata={op_name="jit(_full_run)/jit(main)/jit(_normal)/jit(_normal_real)/jit(_uniform)/add" source_file="/global/homes/j/jackm/software/lorrax_C/src/solvers/lanczos.py" source_line=247}
  %add.445 = u32[1024]{0} add(%add.442, %add.444), metadata={op_name="jit(_full_run)/jit(main)/jit(_normal)/jit(_normal_real)/jit(_uniform)/add" source_file="/global/homes/j/jackm/software/lorrax_C/src/solvers/lanczos.py" source_line=247}
  %shift-left.191 = u32[1024]{0} shift-left(%add.444, %broadcast.547), metadata={op_name="jit(_full_run)/jit(main)/jit(_normal)/jit(_normal_real)/jit(_uniform)/shift_left" source_file="/global/homes/j/jackm/software/lorrax_C/src/solvers/lanczos.py" source_line=247}
  %shift-right-logical.199 = u32[1024]{0} shift-right-logical(%add.444, %broadcast.549), metadata={op_name="jit(_full_run)/jit(main)/jit(_normal)/jit(_normal_real)/jit(_uniform)/shift_right_logical" source_file="/global/homes/j/jackm/software/lorrax_C/src/solvers/lanczos.py" source_line=247}
  %or.196 = u32[1024]{0} or(%shift-left.191, %shift-right-logical.199), metadata={op_name="jit(_full_run)/jit(main)/jit(_normal)/jit(_normal_real)/jit(_uniform)/or" source_file="/global/homes/j/jackm/software/lorrax_C/src/solvers/lanczos.py" source_line=247}
  %xor.208 = u32[1024]{0} xor(%add.445, %or.196), metadata={op_name="jit(_full_run)/jit(main)/jit(_normal)/jit(_normal_real)/jit(_uniform)/xor" source_file="/global/homes/j/jackm/software/lorrax_C/src/solvers/lanczos.py" source_line=247}
  %add.446 = u32[1024]{0} add(%add.445, %xor.208), metadata={op_name="jit(_full_run)/jit(main)/jit(_normal)/jit(_normal_real)/jit(_uniform)/add" source_file="/global/homes/j/jackm/software/lorrax_C/src/solvers/lanczos.py" source_line=247}
  %shift-left.193 = u32[1024]{0} shift-left(%xor.208, %broadcast.551), metadata={op_name="jit(_full_run)/jit(main)/jit(_normal)/jit(_normal_real)/jit(_uniform)/shift_left" source_file="/global/homes/j/jackm/software/lorrax_C/src/solvers/lanczos.py" source_line=247}
  %shift-right-logical.200 = u32[1024]{0} shift-right-logical(%xor.208, %broadcast.553), metadata={op_name="jit(_full_run)/jit(main)/jit(_normal)/jit(_normal_real)/jit(_uniform)/shift_right_logical" source_file="/global/homes/j/jackm/software/lorrax_C/src/solvers/lanczos.py" source_line=247}
  %or.197 = u32[1024]{0} or(%shift-left.193, %shift-right-logical.200), metadata={op_name="jit(_full_run)/jit(main)/jit(_normal)/jit(_normal_real)/jit(_uniform)/or" source_file="/global/homes/j/jackm/software/lorrax_C/src/solvers/lanczos.py" source_line=247}
  %xor.209 = u32[1024]{0} xor(%add.446, %or.197), metadata={op_name="jit(_full_run)/jit(main)/jit(_normal)/jit(_normal_real)/jit(_uniform)/xor" source_file="/global/homes/j/jackm/software/lorrax_C/src/solvers/lanczos.py" source_line=247}
  %add.447 = u32[1024]{0} add(%add.446, %xor.209), metadata={op_name="jit(_full_run)/jit(main)/jit(_normal)/jit(_normal_real)/jit(_uniform)/add" source_file="/global/homes/j/jackm/software/lorrax_C/src/solvers/lanczos.py" source_line=247}
  %shift-left.194 = u32[1024]{0} shift-left(%xor.209, %broadcast.555), metadata={op_name="jit(_full_run)/jit(main)/jit(_normal)/jit(_normal_real)/jit(_uniform)/shift_left" source_file="/global/homes/j/jackm/software/lorrax_C/src/solvers/lanczos.py" source_line=247}
  %shift-right-logical.201 = u32[1024]{0} shift-right-logical(%xor.209, %broadcast.557), metadata={op_name="jit(_full_run)/jit(main)/jit(_normal)/jit(_normal_real)/jit(_uniform)/shift_right_logical" source_file="/global/homes/j/jackm/software/lorrax_C/src/solvers/lanczos.py" source_line=247}
  %or.198 = u32[1024]{0} or(%shift-left.194, %shift-right-logical.201), metadata={op_name="jit(_full_run)/jit(main)/jit(_normal)/jit(_normal_real)/jit(_uniform)/or" source_file="/global/homes/j/jackm/software/lorrax_C/src/solvers/lanczos.py" source_line=247}
  %xor.210 = u32[1024]{0} xor(%add.447, %or.198), metadata={op_name="jit(_full_run)/jit(main)/jit(_normal)/jit(_normal_real)/jit(_uniform)/xor" source_file="/global/homes/j/jackm/software/lorrax_C/src/solvers/lanczos.py" source_line=247}
  %add.448 = u32[1024]{0} add(%add.447, %xor.210), metadata={op_name="jit(_full_run)/jit(main)/jit(_normal)/jit(_normal_real)/jit(_uniform)/add" source_file="/global/homes/j/jackm/software/lorrax_C/src/solvers/lanczos.py" source_line=247}
  %broadcast.578 = u32[1024]{0} broadcast(%reshape.58), dimensions={}, metadata={op_name="jit(_full_run)/jit(main)/jit(_normal)/jit(_normal_real)/jit(_uniform)/add" source_file="/global/homes/j/jackm/software/lorrax_C/src/solvers/lanczos.py" source_line=247}
  %add.449 = u32[1024]{0} add(%add.448, %broadcast.578), metadata={op_name="jit(_full_run)/jit(main)/jit(_normal)/jit(_normal_real)/jit(_uniform)/add" source_file="/global/homes/j/jackm/software/lorrax_C/src/solvers/lanczos.py" source_line=247}
  %shift-left.195 = u32[1024]{0} shift-left(%xor.210, %broadcast.557), metadata={op_name="jit(_full_run)/jit(main)/jit(_normal)/jit(_normal_real)/jit(_uniform)/shift_left" source_file="/global/homes/j/jackm/software/lorrax_C/src/solvers/lanczos.py" source_line=247}
  %shift-right-logical.202 = u32[1024]{0} shift-right-logical(%xor.210, %broadcast.555), metadata={op_name="jit(_full_run)/jit(main)/jit(_normal)/jit(_normal_real)/jit(_uniform)/shift_right_logical" source_file="/global/homes/j/jackm/software/lorrax_C/src/solvers/lanczos.py" source_line=247}
  %or.199 = u32[1024]{0} or(%shift-left.195, %shift-right-logical.202), metadata={op_name="jit(_full_run)/jit(main)/jit(_normal)/jit(_normal_real)/jit(_uniform)/or" source_file="/global/homes/j/jackm/software/lorrax_C/src/solvers/lanczos.py" source_line=247}
  %xor.211 = u32[1024]{0} xor(%add.448, %or.199), metadata={op_name="jit(_full_run)/jit(main)/jit(_normal)/jit(_normal_real)/jit(_uniform)/xor" source_file="/global/homes/j/jackm/software/lorrax_C/src/solvers/lanczos.py" source_line=247}
  %broadcast.579 = u32[1024]{0} broadcast(%reshape.59), dimensions={}, metadata={op_name="jit(_full_run)/jit(main)/jit(_normal)/jit(_normal_real)/jit(_uniform)/add" source_file="/global/homes/j/jackm/software/lorrax_C/src/solvers/lanczos.py" source_line=247}
  %add.450 = u32[1024]{0} add(%xor.211, %broadcast.579), metadata={op_name="jit(_full_run)/jit(main)/jit(_normal)/jit(_normal_real)/jit(_uniform)/add" source_file="/global/homes/j/jackm/software/lorrax_C/src/solvers/lanczos.py" source_line=247}
  %add.451 = u32[1024]{0} add(%add.450, %broadcast.567), metadata={op_name="jit(_full_run)/jit(main)/jit(_normal)/jit(_normal_real)/jit(_uniform)/add" source_file="/global/homes/j/jackm/software/lorrax_C/src/solvers/lanczos.py" source_line=247}
  %add.452 = u32[1024]{0} add(%add.449, %add.451), metadata={op_name="jit(_full_run)/jit(main)/jit(_normal)/jit(_normal_real)/jit(_uniform)/add" source_file="/global/homes/j/jackm/software/lorrax_C/src/solvers/lanczos.py" source_line=247}
  %shift-left.196 = u32[1024]{0} shift-left(%add.451, %broadcast.553), metadata={op_name="jit(_full_run)/jit(main)/jit(_normal)/jit(_normal_real)/jit(_uniform)/shift_left" source_file="/global/homes/j/jackm/software/lorrax_C/src/solvers/lanczos.py" source_line=247}
  %shift-right-logical.203 = u32[1024]{0} shift-right-logical(%add.451, %broadcast.551), metadata={op_name="jit(_full_run)/jit(main)/jit(_normal)/jit(_normal_real)/jit(_uniform)/shift_right_logical" source_file="/global/homes/j/jackm/software/lorrax_C/src/solvers/lanczos.py" source_line=247}
  %or.200 = u32[1024]{0} or(%shift-left.196, %shift-right-logical.203), metadata={op_name="jit(_full_run)/jit(main)/jit(_normal)/jit(_normal_real)/jit(_uniform)/or" source_file="/global/homes/j/jackm/software/lorrax_C/src/solvers/lanczos.py" source_line=247}
  %xor.212 = u32[1024]{0} xor(%add.452, %or.200), metadata={op_name="jit(_full_run)/jit(main)/jit(_normal)/jit(_normal_real)/jit(_uniform)/xor" source_file="/global/homes/j/jackm/software/lorrax_C/src/solvers/lanczos.py" source_line=247}
  %add.453 = u32[1024]{0} add(%add.452, %xor.212), metadata={op_name="jit(_full_run)/jit(main)/jit(_normal)/jit(_normal_real)/jit(_uniform)/add" source_file="/global/homes/j/jackm/software/lorrax_C/src/solvers/lanczos.py" source_line=247}
  %shift-left.197 = u32[1024]{0} shift-left(%xor.212, %broadcast.565), metadata={op_name="jit(_full_run)/jit(main)/jit(_normal)/jit(_normal_real)/jit(_uniform)/shift_left" source_file="/global/homes/j/jackm/software/lorrax_C/src/solvers/lanczos.py" source_line=247}
  %shift-right-logical.204 = u32[1024]{0} shift-right-logical(%xor.212, %broadcast.567), metadata={op_name="jit(_full_run)/jit(main)/jit(_normal)/jit(_normal_real)/jit(_uniform)/shift_right_logical" source_file="/global/homes/j/jackm/software/lorrax_C/src/solvers/lanczos.py" source_line=247}
  %or.201 = u32[1024]{0} or(%shift-left.197, %shift-right-logical.204), metadata={op_name="jit(_full_run)/jit(main)/jit(_normal)/jit(_normal_real)/jit(_uniform)/or" source_file="/global/homes/j/jackm/software/lorrax_C/src/solvers/lanczos.py" source_line=247}
  %xor.213 = u32[1024]{0} xor(%add.453, %or.201), metadata={op_name="jit(_full_run)/jit(main)/jit(_normal)/jit(_normal_real)/jit(_uniform)/xor" source_file="/global/homes/j/jackm/software/lorrax_C/src/solvers/lanczos.py" source_line=247}
  %add.454 = u32[1024]{0} add(%add.453, %xor.213), metadata={op_name="jit(_full_run)/jit(main)/jit(_normal)/jit(_normal_real)/jit(_uniform)/add" source_file="/global/homes/j/jackm/software/lorrax_C/src/solvers/lanczos.py" source_line=247}
  %shift-left.198 = u32[1024]{0} shift-left(%xor.213, %broadcast.569), metadata={op_name="jit(_full_run)/jit(main)/jit(_normal)/jit(_normal_real)/jit(_uniform)/shift_left" source_file="/global/homes/j/jackm/software/lorrax_C/src/solvers/lanczos.py" source_line=247}
  %shift-right-logical.205 = u32[1024]{0} shift-right-logical(%xor.213, %broadcast.569), metadata={op_name="jit(_full_run)/jit(main)/jit(_normal)/jit(_normal_real)/jit(_uniform)/shift_right_logical" source_file="/global/homes/j/jackm/software/lorrax_C/src/solvers/lanczos.py" source_line=247}
  %or.202 = u32[1024]{0} or(%shift-left.198, %shift-right-logical.205), metadata={op_name="jit(_full_run)/jit(main)/jit(_normal)/jit(_normal_real)/jit(_uniform)/or" source_file="/global/homes/j/jackm/software/lorrax_C/src/solvers/lanczos.py" source_line=247}
  %xor.214 = u32[1024]{0} xor(%add.454, %or.202), metadata={op_name="jit(_full_run)/jit(main)/jit(_normal)/jit(_normal_real)/jit(_uniform)/xor" source_file="/global/homes/j/jackm/software/lorrax_C/src/solvers/lanczos.py" source_line=247}
  %add.455 = u32[1024]{0} add(%add.454, %xor.214), metadata={op_name="jit(_full_run)/jit(main)/jit(_normal)/jit(_normal_real)/jit(_uniform)/add" source_file="/global/homes/j/jackm/software/lorrax_C/src/solvers/lanczos.py" source_line=247}
  %broadcast.580 = u32[1024]{0} broadcast(%reshape.59), dimensions={}, metadata={op_name="jit(_full_run)/jit(main)/jit(_normal)/jit(_normal_real)/jit(_uniform)/add" source_file="/global/homes/j/jackm/software/lorrax_C/src/solvers/lanczos.py" source_line=247}
  %add.456 = u32[1024]{0} add(%add.455, %broadcast.580), metadata={op_name="jit(_full_run)/jit(main)/jit(_normal)/jit(_normal_real)/jit(_uniform)/add" source_file="/global/homes/j/jackm/software/lorrax_C/src/solvers/lanczos.py" source_line=247}
  %shift-left.199 = u32[1024]{0} shift-left(%xor.214, %broadcast.573), metadata={op_name="jit(_full_run)/jit(main)/jit(_normal)/jit(_normal_real)/jit(_uniform)/shift_left" source_file="/global/homes/j/jackm/software/lorrax_C/src/solvers/lanczos.py" source_line=247}
  %shift-right-logical.206 = u32[1024]{0} shift-right-logical(%xor.214, %broadcast.575), metadata={op_name="jit(_full_run)/jit(main)/jit(_normal)/jit(_normal_real)/jit(_uniform)/shift_right_logical" source_file="/global/homes/j/jackm/software/lorrax_C/src/solvers/lanczos.py" source_line=247}
  %or.203 = u32[1024]{0} or(%shift-left.199, %shift-right-logical.206), metadata={op_name="jit(_full_run)/jit(main)/jit(_normal)/jit(_normal_real)/jit(_uniform)/or" source_file="/global/homes/j/jackm/software/lorrax_C/src/solvers/lanczos.py" source_line=247}
  %xor.215 = u32[1024]{0} xor(%add.455, %or.203), metadata={op_name="jit(_full_run)/jit(main)/jit(_normal)/jit(_normal_real)/jit(_uniform)/xor" source_file="/global/homes/j/jackm/software/lorrax_C/src/solvers/lanczos.py" source_line=247}
  %broadcast.581 = u32[1024]{0} broadcast(%xor.203), dimensions={}, metadata={op_name="jit(_full_run)/jit(main)/jit(_normal)/jit(_normal_real)/jit(_uniform)/add" source_file="/global/homes/j/jackm/software/lorrax_C/src/solvers/lanczos.py" source_line=247}
  %add.457 = u32[1024]{0} add(%xor.215, %broadcast.581), metadata={op_name="jit(_full_run)/jit(main)/jit(_normal)/jit(_normal_real)/jit(_uniform)/add" source_file="/global/homes/j/jackm/software/lorrax_C/src/solvers/lanczos.py" source_line=247}
  %constant.355 = u32[] constant(4)
  %broadcast.582 = u32[1024]{0} broadcast(%constant.355), dimensions={}
  %add.458 = u32[1024]{0} add(%add.457, %broadcast.582), metadata={op_name="jit(_full_run)/jit(main)/jit(_normal)/jit(_normal_real)/jit(_uniform)/add" source_file="/global/homes/j/jackm/software/lorrax_C/src/solvers/lanczos.py" source_line=247}
  %add.459 = u32[1024]{0} add(%add.456, %add.458), metadata={op_name="jit(_full_run)/jit(main)/jit(_normal)/jit(_normal_real)/jit(_uniform)/add" source_file="/global/homes/j/jackm/software/lorrax_C/src/solvers/lanczos.py" source_line=247}
  %shift-left.200 = u32[1024]{0} shift-left(%add.458, %broadcast.547), metadata={op_name="jit(_full_run)/jit(main)/jit(_normal)/jit(_normal_real)/jit(_uniform)/shift_left" source_file="/global/homes/j/jackm/software/lorrax_C/src/solvers/lanczos.py" source_line=247}
  %shift-right-logical.207 = u32[1024]{0} shift-right-logical(%add.458, %broadcast.549), metadata={op_name="jit(_full_run)/jit(main)/jit(_normal)/jit(_normal_real)/jit(_uniform)/shift_right_logical" source_file="/global/homes/j/jackm/software/lorrax_C/src/solvers/lanczos.py" source_line=247}
  %or.204 = u32[1024]{0} or(%shift-left.200, %shift-right-logical.207), metadata={op_name="jit(_full_run)/jit(main)/jit(_normal)/jit(_normal_real)/jit(_uniform)/or" source_file="/global/homes/j/jackm/software/lorrax_C/src/solvers/lanczos.py" source_line=247}
  %xor.216 = u32[1024]{0} xor(%add.459, %or.204), metadata={op_name="jit(_full_run)/jit(main)/jit(_normal)/jit(_normal_real)/jit(_uniform)/xor" source_file="/global/homes/j/jackm/software/lorrax_C/src/solvers/lanczos.py" source_line=247}
  %add.460 = u32[1024]{0} add(%add.459, %xor.216), metadata={op_name="jit(_full_run)/jit(main)/jit(_normal)/jit(_normal_real)/jit(_uniform)/add" source_file="/global/homes/j/jackm/software/lorrax_C/src/solvers/lanczos.py" source_line=247}
  %shift-left.201 = u32[1024]{0} shift-left(%xor.216, %broadcast.551), metadata={op_name="jit(_full_run)/jit(main)/jit(_normal)/jit(_normal_real)/jit(_uniform)/shift_left" source_file="/global/homes/j/jackm/software/lorrax_C/src/solvers/lanczos.py" source_line=247}
  %shift-right-logical.208 = u32[1024]{0} shift-right-logical(%xor.216, %broadcast.553), metadata={op_name="jit(_full_run)/jit(main)/jit(_normal)/jit(_normal_real)/jit(_uniform)/shift_right_logical" source_file="/global/homes/j/jackm/software/lorrax_C/src/solvers/lanczos.py" source_line=247}
  %or.205 = u32[1024]{0} or(%shift-left.201, %shift-right-logical.208), metadata={op_name="jit(_full_run)/jit(main)/jit(_normal)/jit(_normal_real)/jit(_uniform)/or" source_file="/global/homes/j/jackm/software/lorrax_C/src/solvers/lanczos.py" source_line=247}
  %xor.217 = u32[1024]{0} xor(%add.460, %or.205), metadata={op_name="jit(_full_run)/jit(main)/jit(_normal)/jit(_normal_real)/jit(_uniform)/xor" source_file="/global/homes/j/jackm/software/lorrax_C/src/solvers/lanczos.py" source_line=247}
  %add.461 = u32[1024]{0} add(%add.460, %xor.217), metadata={op_name="jit(_full_run)/jit(main)/jit(_normal)/jit(_normal_real)/jit(_uniform)/add" source_file="/global/homes/j/jackm/software/lorrax_C/src/solvers/lanczos.py" source_line=247}
  %shift-left.202 = u32[1024]{0} shift-left(%xor.217, %broadcast.555), metadata={op_name="jit(_full_run)/jit(main)/jit(_normal)/jit(_normal_real)/jit(_uniform)/shift_left" source_file="/global/homes/j/jackm/software/lorrax_C/src/solvers/lanczos.py" source_line=247}
  %shift-right-logical.209 = u32[1024]{0} shift-right-logical(%xor.217, %broadcast.557), metadata={op_name="jit(_full_run)/jit(main)/jit(_normal)/jit(_normal_real)/jit(_uniform)/shift_right_logical" source_file="/global/homes/j/jackm/software/lorrax_C/src/solvers/lanczos.py" source_line=247}
  %or.206 = u32[1024]{0} or(%shift-left.202, %shift-right-logical.209), metadata={op_name="jit(_full_run)/jit(main)/jit(_normal)/jit(_normal_real)/jit(_uniform)/or" source_file="/global/homes/j/jackm/software/lorrax_C/src/solvers/lanczos.py" source_line=247}
  %xor.218 = u32[1024]{0} xor(%add.461, %or.206), metadata={op_name="jit(_full_run)/jit(main)/jit(_normal)/jit(_normal_real)/jit(_uniform)/xor" source_file="/global/homes/j/jackm/software/lorrax_C/src/solvers/lanczos.py" source_line=247}
  %add.462 = u32[1024]{0} add(%add.461, %xor.218), metadata={op_name="jit(_full_run)/jit(main)/jit(_normal)/jit(_normal_real)/jit(_uniform)/add" source_file="/global/homes/j/jackm/software/lorrax_C/src/solvers/lanczos.py" source_line=247}
  %broadcast.583 = u32[1024]{0} broadcast(%xor.203), dimensions={}, metadata={op_name="jit(_full_run)/jit(main)/jit(_normal)/jit(_normal_real)/jit(_uniform)/add" source_file="/global/homes/j/jackm/software/lorrax_C/src/solvers/lanczos.py" source_line=247}
  %add.463 = u32[1024]{0} add(%add.462, %broadcast.583), metadata={op_name="jit(_full_run)/jit(main)/jit(_normal)/jit(_normal_real)/jit(_uniform)/add" source_file="/global/homes/j/jackm/software/lorrax_C/src/solvers/lanczos.py" source_line=247}
  %convert.35 = u64[1024]{0} convert(%add.463), metadata={op_name="jit(_full_run)/jit(main)/jit(_normal)/jit(_normal_real)/jit(_uniform)/convert_element_type" source_file="/global/homes/j/jackm/software/lorrax_C/src/solvers/lanczos.py" source_line=247}
  %shift-left.204 = u64[1024]{0} shift-left(%convert.35, %broadcast.541), metadata={op_name="jit(_full_run)/jit(main)/jit(_normal)/jit(_normal_real)/jit(_uniform)/shift_left" source_file="/global/homes/j/jackm/software/lorrax_C/src/solvers/lanczos.py" source_line=247}
  %shift-left.203 = u32[1024]{0} shift-left(%xor.218, %broadcast.557), metadata={op_name="jit(_full_run)/jit(main)/jit(_normal)/jit(_normal_real)/jit(_uniform)/shift_left" source_file="/global/homes/j/jackm/software/lorrax_C/src/solvers/lanczos.py" source_line=247}
  %shift-right-logical.210 = u32[1024]{0} shift-right-logical(%xor.218, %broadcast.555), metadata={op_name="jit(_full_run)/jit(main)/jit(_normal)/jit(_normal_real)/jit(_uniform)/shift_right_logical" source_file="/global/homes/j/jackm/software/lorrax_C/src/solvers/lanczos.py" source_line=247}
  %or.207 = u32[1024]{0} or(%shift-left.203, %shift-right-logical.210), metadata={op_name="jit(_full_run)/jit(main)/jit(_normal)/jit(_normal_real)/jit(_uniform)/or" source_file="/global/homes/j/jackm/software/lorrax_C/src/solvers/lanczos.py" source_line=247}
  %xor.219 = u32[1024]{0} xor(%add.462, %or.207), metadata={op_name="jit(_full_run)/jit(main)/jit(_normal)/jit(_normal_real)/jit(_uniform)/xor" source_file="/global/homes/j/jackm/software/lorrax_C/src/solvers/lanczos.py" source_line=247}
  %broadcast.584 = u32[1024]{0} broadcast(%reshape.58), dimensions={}, metadata={op_name="jit(_full_run)/jit(main)/jit(_normal)/jit(_normal_real)/jit(_uniform)/add" source_file="/global/homes/j/jackm/software/lorrax_C/src/solvers/lanczos.py" source_line=247}
  %add.464 = u32[1024]{0} add(%xor.219, %broadcast.584), metadata={op_name="jit(_full_run)/jit(main)/jit(_normal)/jit(_normal_real)/jit(_uniform)/add" source_file="/global/homes/j/jackm/software/lorrax_C/src/solvers/lanczos.py" source_line=247}
  %constant.356 = u32[] constant(5)
  %broadcast.585 = u32[1024]{0} broadcast(%constant.356), dimensions={}
  %add.465 = u32[1024]{0} add(%add.464, %broadcast.585), metadata={op_name="jit(_full_run)/jit(main)/jit(_normal)/jit(_normal_real)/jit(_uniform)/add" source_file="/global/homes/j/jackm/software/lorrax_C/src/solvers/lanczos.py" source_line=247}
  %convert.36 = u64[1024]{0} convert(%add.465), metadata={op_name="jit(_full_run)/jit(main)/jit(_normal)/jit(_normal_real)/jit(_uniform)/convert_element_type" source_file="/global/homes/j/jackm/software/lorrax_C/src/solvers/lanczos.py" source_line=247}
  %or.208 = u64[1024]{0} or(%shift-left.204, %convert.36), metadata={op_name="jit(_full_run)/jit(main)/jit(_normal)/jit(_normal_real)/jit(_uniform)/or" source_file="/global/homes/j/jackm/software/lorrax_C/src/solvers/lanczos.py" source_line=247}
  %constant.357 = u64[] constant(12)
  %broadcast.586 = u64[1024]{0} broadcast(%constant.357), dimensions={}
  %shift-right-logical.212 = u64[1024]{0} shift-right-logical(%or.208, %broadcast.586), metadata={op_name="jit(_full_run)/jit(main)/jit(_normal)/jit(_normal_real)/jit(_uniform)/shift_right_logical" source_file="/global/homes/j/jackm/software/lorrax_C/src/solvers/lanczos.py" source_line=247}
  %constant.358 = u64[] constant(4607182418800017408)
  %broadcast.587 = u64[1024]{0} broadcast(%constant.358), dimensions={}
  %or.209 = u64[1024]{0} or(%shift-right-logical.212, %broadcast.587), metadata={op_name="jit(_full_run)/jit(main)/jit(_normal)/jit(_normal_real)/jit(_uniform)/or" source_file="/global/homes/j/jackm/software/lorrax_C/src/solvers/lanczos.py" source_line=247}
  %bitcast-convert.4 = f64[1024]{0} bitcast-convert(%or.209), metadata={op_name="jit(_full_run)/jit(main)/jit(_normal)/jit(_normal_real)/jit(_uniform)/bitcast_convert_type" source_file="/global/homes/j/jackm/software/lorrax_C/src/solvers/lanczos.py" source_line=247}
  %constant.827 = f64[] constant(-1)
  %broadcast.815 = f64[1024]{0} broadcast(%constant.827), dimensions={}
  %add.556 = f64[1024]{0} add(%bitcast-convert.4, %broadcast.815), metadata={op_name="jit(_full_run)/jit(main)/jit(_normal)/jit(_normal_real)/jit(_uniform)/sub" source_file="/global/homes/j/jackm/software/lorrax_C/src/solvers/lanczos.py" source_line=247}
  %constant.831 = f64[] constant(2), metadata={op_name="jit(_full_run)/jit(main)/jit(_normal)/jit(_normal_real)/jit(_uniform)/mul" source_file="/global/homes/j/jackm/software/lorrax_C/src/solvers/lanczos.py" source_line=247}
  %broadcast.590 = f64[1024]{0} broadcast(%constant.831), dimensions={}, metadata={op_name="jit(_full_run)/jit(main)/jit(_normal)/jit(_normal_real)/jit(_uniform)/mul" source_file="/global/homes/j/jackm/software/lorrax_C/src/solvers/lanczos.py" source_line=247}
  %multiply.64 = f64[1024]{0} multiply(%add.556, %broadcast.590), metadata={op_name="jit(_full_run)/jit(main)/jit(_normal)/jit(_normal_real)/jit(_uniform)/mul" source_file="/global/homes/j/jackm/software/lorrax_C/src/solvers/lanczos.py" source_line=247}
  %constant.894 = f64[] constant(-0.99999999999999989)
  %broadcast.592 = f64[1024]{0} broadcast(%constant.894), dimensions={}, metadata={op_name="jit(_full_run)/jit(main)/jit(_normal)/jit(_normal_real)/jit(_uniform)/add" source_file="/global/homes/j/jackm/software/lorrax_C/src/solvers/lanczos.py" source_line=247}
  %add.466 = f64[1024]{0} add(%multiply.64, %broadcast.592), metadata={op_name="jit(_full_run)/jit(main)/jit(_normal)/jit(_normal_real)/jit(_uniform)/add" source_file="/global/homes/j/jackm/software/lorrax_C/src/solvers/lanczos.py" source_line=247}
  %maximum.7 = f64[1024]{0} maximum(%broadcast.539, %add.466), metadata={op_name="jit(_full_run)/jit(main)/jit(_normal)/jit(_normal_real)/jit(_uniform)/max" source_file="/global/homes/j/jackm/software/lorrax_C/src/solvers/lanczos.py" source_line=247}
  %abs.2 = f64[1024]{0} abs(%maximum.7), metadata={op_name="jit(_full_run)/jit(main)/jit(_normal)/jit(_normal_real)/erf_inv" source_file="/global/homes/j/jackm/software/lorrax_C/src/solvers/lanczos.py" source_line=247}
  %constant.361 = f64[] constant(1)
  %broadcast.593 = f64[1024]{0} broadcast(%constant.361), dimensions={}
  %compare.12 = pred[1024]{0} compare(%abs.2, %broadcast.593), direction=EQ, metadata={op_name="jit(_full_run)/jit(main)/jit(_normal)/jit(_normal_real)/erf_inv" source_file="/global/homes/j/jackm/software/lorrax_C/src/solvers/lanczos.py" source_line=247}
  %constant.362 = f64[] constant(inf)
  %broadcast.594 = f64[1024]{0} broadcast(%constant.362), dimensions={}
  %multiply.65 = f64[1024]{0} multiply(%maximum.7, %broadcast.594), metadata={op_name="jit(_full_run)/jit(main)/jit(_normal)/jit(_normal_real)/erf_inv" source_file="/global/homes/j/jackm/software/lorrax_C/src/solvers/lanczos.py" source_line=247}
  %negate.17 = f64[1024]{0} negate(%maximum.7), metadata={op_name="jit(_full_run)/jit(main)/jit(_normal)/jit(_normal_real)/erf_inv" source_file="/global/homes/j/jackm/software/lorrax_C/src/solvers/lanczos.py" source_line=247}
  %multiply.66 = f64[1024]{0} multiply(%maximum.7, %negate.17), metadata={op_name="jit(_full_run)/jit(main)/jit(_normal)/jit(_normal_real)/erf_inv" source_file="/global/homes/j/jackm/software/lorrax_C/src/solvers/lanczos.py" source_line=247}
  %log-plus-one.2 = f64[1024]{0} log-plus-one(%multiply.66), metadata={op_name="jit(_full_run)/jit(main)/jit(_normal)/jit(_normal_real)/erf_inv" source_file="/global/homes/j/jackm/software/lorrax_C/src/solvers/lanczos.py" source_line=247}
  %negate.18 = f64[1024]{0} negate(%log-plus-one.2), metadata={op_name="jit(_full_run)/jit(main)/jit(_normal)/jit(_normal_real)/erf_inv" source_file="/global/homes/j/jackm/software/lorrax_C/src/solvers/lanczos.py" source_line=247}
  %constant.363 = f64[] constant(6.25)
  %broadcast.595 = f64[1024]{0} broadcast(%constant.363), dimensions={}
  %compare.13 = pred[1024]{0} compare(%negate.18, %broadcast.595), direction=LT, metadata={op_name="jit(_full_run)/jit(main)/jit(_normal)/jit(_normal_real)/erf_inv" source_file="/global/homes/j/jackm/software/lorrax_C/src/solvers/lanczos.py" source_line=247}
  %constant.364 = f64[] constant(16)
  %broadcast.596 = f64[1024]{0} broadcast(%constant.364), dimensions={}
  %compare.14 = pred[1024]{0} compare(%negate.18, %broadcast.596), direction=LT, metadata={op_name="jit(_full_run)/jit(main)/jit(_normal)/jit(_normal_real)/erf_inv" source_file="/global/homes/j/jackm/software/lorrax_C/src/solvers/lanczos.py" source_line=247}
  %constant.365 = f64[] constant(0.00018673420803405714)
  %broadcast.597 = f64[1024]{0} broadcast(%constant.365), dimensions={}
  %constant.366 = f64[] constant(3.0838856104922208)
  %broadcast.598 = f64[1024]{0} broadcast(%constant.366), dimensions={}
  %select.101 = f64[1024]{0} select(%compare.13, %broadcast.597, %broadcast.598), metadata={op_name="jit(_full_run)/jit(main)/jit(_normal)/jit(_normal_real)/erf_inv" source_file="/global/homes/j/jackm/software/lorrax_C/src/solvers/lanczos.py" source_line=247}
  %constant.367 = f64[] constant(-1.3882523362786469e-05)
  %broadcast.599 = f64[1024]{0} broadcast(%constant.367), dimensions={}
  %constant.368 = f64[] constant(1.0052589676941592)
  %broadcast.600 = f64[1024]{0} broadcast(%constant.368), dimensions={}
  %select.102 = f64[1024]{0} select(%compare.13, %broadcast.599, %broadcast.600), metadata={op_name="jit(_full_run)/jit(main)/jit(_normal)/jit(_normal_real)/erf_inv" source_file="/global/homes/j/jackm/software/lorrax_C/src/solvers/lanczos.py" source_line=247}
  %constant.369 = f64[] constant(-1.3654692000834679e-06)
  %broadcast.601 = f64[1024]{0} broadcast(%constant.369), dimensions={}
  %constant.370 = f64[] constant(0.0053709145535900636)
  %broadcast.602 = f64[1024]{0} broadcast(%constant.370), dimensions={}
  %select.103 = f64[1024]{0} select(%compare.13, %broadcast.601, %broadcast.602), metadata={op_name="jit(_full_run)/jit(main)/jit(_normal)/jit(_normal_real)/erf_inv" source_file="/global/homes/j/jackm/software/lorrax_C/src/solvers/lanczos.py" source_line=247}
  %constant.371 = f64[] constant(4.8499064014085844)
  %broadcast.603 = f64[1024]{0} broadcast(%constant.371), dimensions={}
  %select.104 = f64[1024]{0} select(%compare.14, %select.103, %broadcast.603), metadata={op_name="jit(_full_run)/jit(main)/jit(_normal)/jit(_normal_real)/erf_inv" source_file="/global/homes/j/jackm/software/lorrax_C/src/solvers/lanczos.py" source_line=247}
  %constant.372 = f64[] constant(4.2347877827932404e-07)
  %broadcast.604 = f64[1024]{0} broadcast(%constant.372), dimensions={}
  %constant.373 = f64[] constant(-0.0037512085075692412)
  %broadcast.605 = f64[1024]{0} broadcast(%constant.373), dimensions={}
  %select.105 = f64[1024]{0} select(%compare.13, %broadcast.604, %broadcast.605), metadata={op_name="jit(_full_run)/jit(main)/jit(_normal)/jit(_normal_real)/erf_inv" source_file="/global/homes/j/jackm/software/lorrax_C/src/solvers/lanczos.py" source_line=247}
  %constant.374 = f64[] constant(1.0103004648645344)
  %broadcast.606 = f64[1024]{0} broadcast(%constant.374), dimensions={}
  %select.106 = f64[1024]{0} select(%compare.14, %select.105, %broadcast.606), metadata={op_name="jit(_full_run)/jit(main)/jit(_normal)/jit(_normal_real)/erf_inv" source_file="/global/homes/j/jackm/software/lorrax_C/src/solvers/lanczos.py" source_line=247}
  %constant.375 = f64[] constant(-2.9070369957882005e-08)
  %broadcast.607 = f64[1024]{0} broadcast(%constant.375), dimensions={}
  %constant.376 = f64[] constant(0.0024914420961078508)
  %broadcast.608 = f64[1024]{0} broadcast(%constant.376), dimensions={}
  %select.107 = f64[1024]{0} select(%compare.13, %broadcast.607, %broadcast.608), metadata={op_name="jit(_full_run)/jit(main)/jit(_normal)/jit(_normal_real)/erf_inv" source_file="/global/homes/j/jackm/software/lorrax_C/src/solvers/lanczos.py" source_line=247}
  %constant.377 = f64[] constant(-0.00013871931833623122)
  %broadcast.609 = f64[1024]{0} broadcast(%constant.377), dimensions={}
  %select.108 = f64[1024]{0} select(%compare.14, %select.107, %broadcast.609), metadata={op_name="jit(_full_run)/jit(main)/jit(_normal)/jit(_normal_real)/erf_inv" source_file="/global/homes/j/jackm/software/lorrax_C/src/solvers/lanczos.py" source_line=247}
  %constant.378 = f64[] constant(-4.1126339803469837e-09)
  %broadcast.610 = f64[1024]{0} broadcast(%constant.378), dimensions={}
  %constant.379 = f64[] constant(-0.0016882755560235047)
  %broadcast.611 = f64[1024]{0} broadcast(%constant.379), dimensions={}
  %select.109 = f64[1024]{0} select(%compare.13, %broadcast.610, %broadcast.611), metadata={op_name="jit(_full_run)/jit(main)/jit(_normal)/jit(_normal_real)/erf_inv" source_file="/global/homes/j/jackm/software/lorrax_C/src/solvers/lanczos.py" source_line=247}
  %constant.380 = f64[] constant(-0.00021503011930044477)
  %broadcast.612 = f64[1024]{0} broadcast(%constant.380), dimensions={}
  %select.110 = f64[1024]{0} select(%compare.14, %select.109, %broadcast.612), metadata={op_name="jit(_full_run)/jit(main)/jit(_normal)/jit(_normal_real)/erf_inv" source_file="/global/homes/j/jackm/software/lorrax_C/src/solvers/lanczos.py" source_line=247}
  %constant.381 = f64[] constant(1.0512122733215323e-09)
  %broadcast.613 = f64[1024]{0} broadcast(%constant.381), dimensions={}
  %constant.382 = f64[] constant(0.0009532893797373805)
  %broadcast.614 = f64[1024]{0} broadcast(%constant.382), dimensions={}
  %select.111 = f64[1024]{0} select(%compare.13, %broadcast.613, %broadcast.614), metadata={op_name="jit(_full_run)/jit(main)/jit(_normal)/jit(_normal_real)/erf_inv" source_file="/global/homes/j/jackm/software/lorrax_C/src/solvers/lanczos.py" source_line=247}
  %constant.383 = f64[] constant(7.5995277030017761e-05)
  %broadcast.615 = f64[1024]{0} broadcast(%constant.383), dimensions={}
  %select.112 = f64[1024]{0} select(%compare.14, %select.111, %broadcast.615), metadata={op_name="jit(_full_run)/jit(main)/jit(_normal)/jit(_normal_real)/erf_inv" source_file="/global/homes/j/jackm/software/lorrax_C/src/solvers/lanczos.py" source_line=247}
  %constant.384 = f64[] constant(-5.4154120542946279e-11)
  %broadcast.616 = f64[1024]{0} broadcast(%constant.384), dimensions={}
  %constant.385 = f64[] constant(-0.00035503752036284748)
  %broadcast.617 = f64[1024]{0} broadcast(%constant.385), dimensions={}
  %select.113 = f64[1024]{0} select(%compare.13, %broadcast.616, %broadcast.617), metadata={op_name="jit(_full_run)/jit(main)/jit(_normal)/jit(_normal_real)/erf_inv" source_file="/global/homes/j/jackm/software/lorrax_C/src/solvers/lanczos.py" source_line=247}
  %constant.386 = f64[] constant(-1.9681778105531671e-05)
  %broadcast.618 = f64[1024]{0} broadcast(%constant.386), dimensions={}
  %select.114 = f64[1024]{0} select(%compare.14, %select.113, %broadcast.618), metadata={op_name="jit(_full_run)/jit(main)/jit(_normal)/jit(_normal_real)/erf_inv" source_file="/global/homes/j/jackm/software/lorrax_C/src/solvers/lanczos.py" source_line=247}
  %constant.387 = f64[] constant(-1.2975133253453532e-11)
  %broadcast.619 = f64[1024]{0} broadcast(%constant.387), dimensions={}
  %constant.388 = f64[] constant(2.4031110387097894e-05)
  %broadcast.620 = f64[1024]{0} broadcast(%constant.388), dimensions={}
  %select.115 = f64[1024]{0} select(%compare.13, %broadcast.619, %broadcast.620), metadata={op_name="jit(_full_run)/jit(main)/jit(_normal)/jit(_normal_real)/erf_inv" source_file="/global/homes/j/jackm/software/lorrax_C/src/solvers/lanczos.py" source_line=247}
  %constant.389 = f64[] constant(4.5260625972231537e-06)
  %broadcast.621 = f64[1024]{0} broadcast(%constant.389), dimensions={}
  %select.116 = f64[1024]{0} select(%compare.14, %select.115, %broadcast.621), metadata={op_name="jit(_full_run)/jit(main)/jit(_normal)/jit(_normal_real)/erf_inv" source_file="/global/homes/j/jackm/software/lorrax_C/src/solvers/lanczos.py" source_line=247}
  %constant.390 = f64[] constant(2.6335093153082323e-12)
  %broadcast.622 = f64[1024]{0} broadcast(%constant.390), dimensions={}
  %constant.391 = f64[] constant(6.8284851459573175e-05)
  %broadcast.623 = f64[1024]{0} broadcast(%constant.391), dimensions={}
  %select.117 = f64[1024]{0} select(%compare.13, %broadcast.622, %broadcast.623), metadata={op_name="jit(_full_run)/jit(main)/jit(_normal)/jit(_normal_real)/erf_inv" source_file="/global/homes/j/jackm/software/lorrax_C/src/solvers/lanczos.py" source_line=247}
  %constant.392 = f64[] constant(-9.9298272942317e-07)
  %broadcast.624 = f64[1024]{0} broadcast(%constant.392), dimensions={}
  %select.118 = f64[1024]{0} select(%compare.14, %select.117, %broadcast.624), metadata={op_name="jit(_full_run)/jit(main)/jit(_normal)/jit(_normal_real)/erf_inv" source_file="/global/homes/j/jackm/software/lorrax_C/src/solvers/lanczos.py" source_line=247}
  %constant.393 = f64[] constant(-8.1519341976054722e-14)
  %broadcast.625 = f64[1024]{0} broadcast(%constant.393), dimensions={}
  %constant.394 = f64[] constant(-4.7318229009055734e-05)
  %broadcast.626 = f64[1024]{0} broadcast(%constant.394), dimensions={}
  %select.119 = f64[1024]{0} select(%compare.13, %broadcast.625, %broadcast.626), metadata={op_name="jit(_full_run)/jit(main)/jit(_normal)/jit(_normal_real)/erf_inv" source_file="/global/homes/j/jackm/software/lorrax_C/src/solvers/lanczos.py" source_line=247}
  %constant.395 = f64[] constant(2.2900482228026655e-07)
  %broadcast.627 = f64[1024]{0} broadcast(%constant.395), dimensions={}
  %select.120 = f64[1024]{0} select(%compare.14, %select.119, %broadcast.627), metadata={op_name="jit(_full_run)/jit(main)/jit(_normal)/jit(_normal_real)/erf_inv" source_file="/global/homes/j/jackm/software/lorrax_C/src/solvers/lanczos.py" source_line=247}
  %constant.396 = f64[] constant(-4.0545662729752069e-14)
  %broadcast.628 = f64[1024]{0} broadcast(%constant.396), dimensions={}
  %constant.398 = f64[] constant(1.2475304481671779e-05)
  %broadcast.629 = f64[1024]{0} broadcast(%constant.398), dimensions={}
  %select.121 = f64[1024]{0} select(%compare.13, %broadcast.628, %broadcast.629), metadata={op_name="jit(_full_run)/jit(main)/jit(_normal)/jit(_normal_real)/erf_inv" source_file="/global/homes/j/jackm/software/lorrax_C/src/solvers/lanczos.py" source_line=247}
  %constant.400 = f64[] constant(-6.7711997758452339e-08)
  %broadcast.630 = f64[1024]{0} broadcast(%constant.400), dimensions={}
  %select.122 = f64[1024]{0} select(%compare.14, %select.121, %broadcast.630), metadata={op_name="jit(_full_run)/jit(main)/jit(_normal)/jit(_normal_real)/erf_inv" source_file="/global/homes/j/jackm/software/lorrax_C/src/solvers/lanczos.py" source_line=247}
  %constant.402 = f64[] constant(6.6376381343583238e-15)
  %broadcast.631 = f64[1024]{0} broadcast(%constant.402), dimensions={}
  %constant.404 = f64[] constant(2.9234449089955446e-06)
  %broadcast.632 = f64[1024]{0} broadcast(%constant.404), dimensions={}
  %select.123 = f64[1024]{0} select(%compare.13, %broadcast.631, %broadcast.632), metadata={op_name="jit(_full_run)/jit(main)/jit(_normal)/jit(_normal_real)/erf_inv" source_file="/global/homes/j/jackm/software/lorrax_C/src/solvers/lanczos.py" source_line=247}
  %constant.405 = f64[] constant(2.9147953450901081e-08)
  %broadcast.633 = f64[1024]{0} broadcast(%constant.405), dimensions={}
  %select.124 = f64[1024]{0} select(%compare.14, %select.123, %broadcast.633), metadata={op_name="jit(_full_run)/jit(main)/jit(_normal)/jit(_normal_real)/erf_inv" source_file="/global/homes/j/jackm/software/lorrax_C/src/solvers/lanczos.py" source_line=247}
  %constant.406 = f64[] constant(2.0972767875968562e-17)
  %broadcast.634 = f64[1024]{0} broadcast(%constant.406), dimensions={}
  %constant.407 = f64[] constant(-4.013867526981546e-06)
…
  %select.159 = f64[1024]{0} select(%compare.17, %select.158, %broadcast.739), metadata={op_name="jit(_full_run)/jit(main)/jit(_normal)/jit(_normal_real)/erf_inv" source_file="/global/homes/j/jackm/software/lorrax_C/src/solvers/lanczos.py" source_line=247}
  %constant.520 = f64[] constant(-1.2975133253453532e-11)
  %broadcast.740 = f64[1024]{0} broadcast(%constant.520), dimensions={}
  %constant.522 = f64[] constant(2.4031110387097894e-05)
  %broadcast.741 = f64[1024]{0} broadcast(%constant.522), dimensions={}
  %select.160 = f64[1024]{0} select(%compare.16, %broadcast.740, %broadcast.741), metadata={op_name="jit(_full_run)/jit(main)/jit(_normal)/jit(_normal_real)/erf_inv" source_file="/global/homes/j/jackm/software/lorrax_C/src/solvers/lanczos.py" source_line=247}
  %constant.524 = f64[] constant(4.5260625972231537e-06)
  %broadcast.742 = f64[1024]{0} broadcast(%constant.524), dimensions={}
  %select.161 = f64[1024]{0} select(%compare.17, %select.160, %broadcast.742), metadata={op_name="jit(_full_run)/jit(main)/jit(_normal)/jit(_normal_real)/erf_inv" source_file="/global/homes/j/jackm/software/lorrax_C/src/solvers/lanczos.py" source_line=247}
  %constant.526 = f64[] constant(2.6335093153082323e-12)
  %broadcast.743 = f64[1024]{0} broadcast(%constant.526), dimensions={}
  %constant.528 = f64[] constant(6.8284851459573175e-05)
  %broadcast.744 = f64[1024]{0} broadcast(%constant.528), dimensions={}
  %select.162 = f64[1024]{0} select(%compare.16, %broadcast.743, %broadcast.744), metadata={op_name="jit(_full_run)/jit(main)/jit(_normal)/jit(_normal_real)/erf_inv" source_file="/global/homes/j/jackm/software/lorrax_C/src/solvers/lanczos.py" source_line=247}
  %constant.530 = f64[] constant(-9.9298272942317e-07)
  %broadcast.745 = f64[1024]{0} broadcast(%constant.530), dimensions={}
  %select.163 = f64[1024]{0} select(%compare.17, %select.162, %broadcast.745), metadata={op_name="jit(_full_run)/jit(main)/jit(_normal)/jit(_normal_real)/erf_inv" source_file="/global/homes/j/jackm/software/lorrax_C/src/solvers/lanczos.py" source_line=247}
  %constant.532 = f64[] constant(-8.1519341976054722e-14)
  %broadcast.746 = f64[1024]{0} broadcast(%constant.532), dimensions={}
  %constant.534 = f64[] constant(-4.7318229009055734e-05)
  %broadcast.748 = f64[1024]{0} broadcast(%constant.534), dimensions={}
  %select.164 = f64[1024]{0} select(%compare.16, %broadcast.746, %broadcast.748), metadata={op_name="jit(_full_run)/jit(main)/jit(_normal)/jit(_normal_real)/erf_inv" source_file="/global/homes/j/jackm/software/lorrax_C/src/solvers/lanczos.py" source_line=247}
  %constant.536 = f64[] constant(2.2900482228026655e-07)
  %broadcast.750 = f64[1024]{0} broadcast(%constant.536), dimensions={}
  %select.165 = f64[1024]{0} select(%compare.17, %select.164, %broadcast.750), metadata={op_name="jit(_full_run)/jit(main)/jit(_normal)/jit(_normal_real)/erf_inv" source_file="/global/homes/j/jackm/software/lorrax_C/src/solvers/lanczos.py" source_line=247}
  %constant.538 = f64[] constant(-4.0545662729752069e-14)
  %broadcast.751 = f64[1024]{0} broadcast(%constant.538), dimensions={}
  %constant.540 = f64[] constant(1.2475304481671779e-05)
  %broadcast.752 = f64[1024]{0} broadcast(%constant.540), dimensions={}
  %select.166 = f64[1024]{0} select(%compare.16, %broadcast.751, %broadcast.752), metadata={op_name="jit(_full_run)/jit(main)/jit(_normal)/jit(_normal_real)/erf_inv" source_file="/global/homes/j/jackm/software/lorrax_C/src/solvers/lanczos.py" source_line=247}
  %constant.542 = f64[] constant(-6.7711997758452339e-08)
  %broadcast.753 = f64[1024]{0} broadcast(%constant.542), dimensions={}
  %select.167 = f64[1024]{0} select(%compare.17, %select.166, %broadcast.753), metadata={op_name="jit(_full_run)/jit(main)/jit(_normal)/jit(_normal_real)/erf_inv" source_file="/global/homes/j/jackm/software/lorrax_C/src/solvers/lanczos.py" source_line=247}
  %constant.544 = f64[] constant(6.6376381343583238e-15)
  %broadcast.754 = f64[1024]{0} broadcast(%constant.544), dimensions={}
  %constant.546 = f64[] constant(2.9234449089955446e-06)
  %broadcast.755 = f64[1024]{0} broadcast(%constant.546), dimensions={}
  %select.168 = f64[1024]{0} select(%compare.16, %broadcast.754, %broadcast.755), metadata={op_name="jit(_full_run)/jit(main)/jit(_normal)/jit(_normal_real)/erf_inv" source_file="/global/homes/j/jackm/software/lorrax_C/src/solvers/lanczos.py" source_line=247}
  %constant.548 = f64[] constant(2.9147953450901081e-08)
  %broadcast.756 = f64[1024]{0} broadcast(%constant.548), dimensions={}
  %select.169 = f64[1024]{0} select(%compare.17, %select.168, %broadcast.756), metadata={op_name="jit(_full_run)/jit(main)/jit(_normal)/jit(_normal_real)/erf_inv" source_file="/global/homes/j/jackm/software/lorrax_C/src/solvers/lanczos.py" source_line=247}
  %constant.550 = f64[] constant(2.0972767875968562e-17)
  %broadcast.757 = f64[1024]{0} broadcast(%constant.550), dimensions={}
  %constant.552 = f64[] constant(-4.013867526981546e-06)
  %broadcast.758 = f64[1024]{0} broadcast(%constant.552), dimensions={}
  %select.170 = f64[1024]{0} select(%compare.16, %broadcast.757, %broadcast.758), metadata={op_name="jit(_full_run)/jit(main)/jit(_normal)/jit(_normal_real)/erf_inv" source_file="/global/homes/j/jackm/software/lorrax_C/src/solvers/lanczos.py" source_line=247}
  %constant.554 = f64[] constant(-1.496002662714924e-08)
  %broadcast.759 = f64[1024]{0} broadcast(%constant.554), dimensions={}
  %select.171 = f64[1024]{0} select(%compare.17, %select.170, %broadcast.759), metadata={op_name="jit(_full_run)/jit(main)/jit(_normal)/jit(_normal_real)/erf_inv" source_file="/global/homes/j/jackm/software/lorrax_C/src/solvers/lanczos.py" source_line=247}
  %constant.556 = f64[] constant(-1.3331716628546209e-16)
  %broadcast.760 = f64[1024]{0} broadcast(%constant.556), dimensions={}
  %constant.558 = f64[] constant(1.5027403968909828e-06)
  %broadcast.761 = f64[1024]{0} broadcast(%constant.558), dimensions={}
  %select.172 = f64[1024]{0} select(%compare.16, %broadcast.760, %broadcast.761), metadata={op_name="jit(_full_run)/jit(main)/jit(_normal)/jit(_normal_real)/erf_inv" source_file="/global/homes/j/jackm/software/lorrax_C/src/solvers/lanczos.py" source_line=247}
  %constant.560 = f64[] constant(7.61570120807834e-09)
  %broadcast.762 = f64[1024]{0} broadcast(%constant.560), dimensions={}
  %select.173 = f64[1024]{0} select(%compare.17, %select.172, %broadcast.762), metadata={op_name="jit(_full_run)/jit(main)/jit(_normal)/jit(_normal_real)/erf_inv" source_file="/global/homes/j/jackm/software/lorrax_C/src/solvers/lanczos.py" source_line=247}
  %constant.562 = f64[] constant(1.1157877678025181e-17)
  %broadcast.763 = f64[1024]{0} broadcast(%constant.562), dimensions={}
  %constant.564 = f64[] constant(1.8239629214389228e-08)
  %broadcast.764 = f64[1024]{0} broadcast(%constant.564), dimensions={}
  %select.174 = f64[1024]{0} select(%compare.16, %broadcast.763, %broadcast.764), metadata={op_name="jit(_full_run)/jit(main)/jit(_normal)/jit(_normal_real)/erf_inv" source_file="/global/homes/j/jackm/software/lorrax_C/src/solvers/lanczos.py" source_line=247}
  %constant.566 = f64[] constant(-3.789465440126737e-09)
  %broadcast.765 = f64[1024]{0} broadcast(%constant.566), dimensions={}
  %select.175 = f64[1024]{0} select(%compare.17, %select.174, %broadcast.765), metadata={op_name="jit(_full_run)/jit(main)/jit(_normal)/jit(_normal_real)/erf_inv" source_file="/global/homes/j/jackm/software/lorrax_C/src/solvers/lanczos.py" source_line=247}
  %constant.568 = f64[] constant(1.28584807152564e-18)
  %broadcast.766 = f64[1024]{0} broadcast(%constant.568), dimensions={}
  %constant.570 = f64[] constant(-2.7517406297064545e-07)
  %broadcast.767 = f64[1024]{0} broadcast(%constant.570), dimensions={}
  %select.176 = f64[1024]{0} select(%compare.16, %broadcast.766, %broadcast.767), metadata={op_name="jit(_full_run)/jit(main)/jit(_normal)/jit(_normal_real)/erf_inv" source_file="/global/homes/j/jackm/software/lorrax_C/src/solvers/lanczos.py" source_line=247}
  %constant.572 = f64[] constant(1.5076572693500548e-09)
  %broadcast.768 = f64[1024]{0} broadcast(%constant.572), dimensions={}
  %select.177 = f64[1024]{0} select(%compare.17, %select.176, %broadcast.768), metadata={op_name="jit(_full_run)/jit(main)/jit(_normal)/jit(_normal_real)/erf_inv" source_file="/global/homes/j/jackm/software/lorrax_C/src/solvers/lanczos.py" source_line=247}
  %constant.574 = f64[] constant(-1.6850591381820166e-19)
  %broadcast.769 = f64[1024]{0} broadcast(%constant.574), dimensions={}
  %constant.577 = f64[] constant(9.0756561938885391e-08)
  %broadcast.770 = f64[1024]{0} broadcast(%constant.577), dimensions={}
  %select.178 = f64[1024]{0} select(%compare.16, %broadcast.769, %broadcast.770), metadata={op_name="jit(_full_run)/jit(main)/jit(_normal)/jit(_normal_real)/erf_inv" source_file="/global/homes/j/jackm/software/lorrax_C/src/solvers/lanczos.py" source_line=247}
  %constant.578 = f64[] constant(-2.5556418169965252e-10)
  %broadcast.771 = f64[1024]{0} broadcast(%constant.578), dimensions={}
  %select.179 = f64[1024]{0} select(%compare.17, %select.178, %broadcast.771), metadata={op_name="jit(_full_run)/jit(main)/jit(_normal)/jit(_normal_real)/erf_inv" source_file="/global/homes/j/jackm/software/lorrax_C/src/solvers/lanczos.py" source_line=247}
  %constant.579 = f64[] constant(-3.64441206401782e-21)
  %broadcast.773 = f64[1024]{0} broadcast(%constant.579), dimensions={}
  %constant.580 = f64[] constant(2.2137376921775787e-09)
  %broadcast.775 = f64[1024]{0} broadcast(%constant.580), dimensions={}
  %select.180 = f64[1024]{0} select(%compare.16, %broadcast.773, %broadcast.775), metadata={op_name="jit(_full_run)/jit(main)/jit(_normal)/jit(_normal_real)/erf_inv" source_file="/global/homes/j/jackm/software/lorrax_C/src/solvers/lanczos.py" source_line=247}
  %constant.581 = f64[] constant(-2.7109920616438573e-11)
  %broadcast.776 = f64[1024]{0} broadcast(%constant.581), dimensions={}
  %select.181 = f64[1024]{0} select(%compare.17, %select.180, %broadcast.776), metadata={op_name="jit(_full_run)/jit(main)/jit(_normal)/jit(_normal_real)/erf_inv" source_file="/global/homes/j/jackm/software/lorrax_C/src/solvers/lanczos.py" source_line=247}
  %constant.838 = f64[] constant(-3.125)
  %broadcast.818 = f64[1024]{0} broadcast(%constant.838), dimensions={}
  %add.559 = f64[1024]{0} add(%negate.20, %broadcast.818), metadata={op_name="jit(_full_run)/jit(main)/jit(_normal)/jit(_normal_real)/erf_inv" source_file="/global/homes/j/jackm/software/lorrax_C/src/solvers/lanczos.py" source_line=247}
  %sqrt.5 = f64[1024]{0} sqrt(%negate.20), metadata={op_name="jit(_full_run)/jit(main)/jit(_normal)/jit(_normal_real)/erf_inv" source_file="/global/homes/j/jackm/software/lorrax_C/src/solvers/lanczos.py" source_line=247}
  %constant.583 = f64[] constant(3.25)
  %broadcast.778 = f64[1024]{0} broadcast(%constant.583), dimensions={}
  %constant.584 = f64[] constant(5)
  %broadcast.779 = f64[1024]{0} broadcast(%constant.584), dimensions={}
  %select.182 = f64[1024]{0} select(%compare.17, %broadcast.778, %broadcast.779), metadata={op_name="jit(_full_run)/jit(main)/jit(_normal)/jit(_normal_real)/erf_inv" source_file="/global/homes/j/jackm/software/lorrax_C/src/solvers/lanczos.py" source_line=247}
  %subtract.28 = f64[1024]{0} subtract(%sqrt.5, %select.182), metadata={op_name="jit(_full_run)/jit(main)/jit(_normal)/jit(_normal_real)/erf_inv" source_file="/global/homes/j/jackm/software/lorrax_C/src/solvers/lanczos.py" source_line=247}
  %select.183 = f64[1024]{0} select(%compare.16, %add.559, %subtract.28), metadata={op_name="jit(_full_run)/jit(main)/jit(_normal)/jit(_normal_real)/erf_inv" source_file="/global/homes/j/jackm/software/lorrax_C/src/solvers/lanczos.py" source_line=247}
  %multiply.94 = f64[1024]{0} multiply(%select.181, %select.183), metadata={op_name="jit(_full_run)/jit(main)/jit(_normal)/jit(_normal_real)/erf_inv" source_file="/global/homes/j/jackm/software/lorrax_C/src/solvers/lanczos.py" source_line=247}
  %add.527 = f64[1024]{0} add(%select.179, %multiply.94), metadata={op_name="jit(_full_run)/jit(main)/jit(_normal)/jit(_normal_real)/erf_inv" source_file="/global/homes/j/jackm/software/lorrax_C/src/solvers/lanczos.py" source_line=247}
  %multiply.95 = f64[1024]{0} multiply(%add.527, %select.183), metadata={op_name="jit(_full_run)/jit(main)/jit(_normal)/jit(_normal_real)/erf_inv" source_file="/global/homes/j/jackm/software/lorrax_C/src/solvers/lanczos.py" source_line=247}
  %add.528 = f64[1024]{0} add(%select.177, %multiply.95), metadata={op_name="jit(_full_run)/jit(main)/jit(_normal)/jit(_normal_real)/erf_inv" source_file="/global/homes/j/jackm/software/lorrax_C/src/solvers/lanczos.py" source_line=247}
  %multiply.96 = f64[1024]{0} multiply(%add.528, %select.183), metadata={op_name="jit(_full_run)/jit(main)/jit(_normal)/jit(_normal_real)/erf_inv" source_file="/global/homes/j/jackm/software/lorrax_C/src/solvers/lanczos.py" source_line=247}
  %add.529 = f64[1024]{0} add(%select.175, %multiply.96), metadata={op_name="jit(_full_run)/jit(main)/jit(_normal)/jit(_normal_real)/erf_inv" source_file="/global/homes/j/jackm/software/lorrax_C/src/solvers/lanczos.py" source_line=247}
  %multiply.97 = f64[1024]{0} multiply(%add.529, %select.183), metadata={op_name="jit(_full_run)/jit(main)/jit(_normal)/jit(_normal_real)/erf_inv" source_file="/global/homes/j/jackm/software/lorrax_C/src/solvers/lanczos.py" source_line=247}
  %add.530 = f64[1024]{0} add(%select.173, %multiply.97), metadata={op_name="jit(_full_run)/jit(main)/jit(_normal)/jit(_normal_real)/erf_inv" source_file="/global/homes/j/jackm/software/lorrax_C/src/solvers/lanczos.py" source_line=247}
  %multiply.98 = f64[1024]{0} multiply(%add.530, %select.183), metadata={op_name="jit(_full_run)/jit(main)/jit(_normal)/jit(_normal_real)/erf_inv" source_file="/global/homes/j/jackm/software/lorrax_C/src/solvers/lanczos.py" source_line=247}
  %add.531 = f64[1024]{0} add(%select.171, %multiply.98), metadata={op_name="jit(_full_run)/jit(main)/jit(_normal)/jit(_normal_real)/erf_inv" source_file="/global/homes/j/jackm/software/lorrax_C/src/solvers/lanczos.py" source_line=247}
  %multiply.99 = f64[1024]{0} multiply(%add.531, %select.183), metadata={op_name="jit(_full_run)/jit(main)/jit(_normal)/jit(_normal_real)/erf_inv" source_file="/global/homes/j/jackm/software/lorrax_C/src/solvers/lanczos.py" source_line=247}
  %add.532 = f64[1024]{0} add(%select.169, %multiply.99), metadata={op_name="jit(_full_run)/jit(main)/jit(_normal)/jit(_normal_real)/erf_inv" source_file="/global/homes/j/jackm/software/lorrax_C/src/solvers/lanczos.py" source_line=247}
  %multiply.100 = f64[1024]{0} multiply(%add.532, %select.183), metadata={op_name="jit(_full_run)/jit(main)/jit(_normal)/jit(_normal_real)/erf_inv" source_file="/global/homes/j/jackm/software/lorrax_C/src/solvers/lanczos.py" source_line=247}
  %add.533 = f64[1024]{0} add(%select.167, %multiply.100), metadata={op_name="jit(_full_run)/jit(main)/jit(_normal)/jit(_normal_real)/erf_inv" source_file="/global/homes/j/jackm/software/lorrax_C/src/solvers/lanczos.py" source_line=247}
  %multiply.101 = f64[1024]{0} multiply(%add.533, %select.183), metadata={op_name="jit(_full_run)/jit(main)/jit(_normal)/jit(_normal_real)/erf_inv" source_file="/global/homes/j/jackm/software/lorrax_C/src/solvers/lanczos.py" source_line=247}
  %add.534 = f64[1024]{0} add(%select.165, %multiply.101), metadata={op_name="jit(_full_run)/jit(main)/jit(_normal)/jit(_normal_real)/erf_inv" source_file="/global/homes/j/jackm/software/lorrax_C/src/solvers/lanczos.py" source_line=247}
  %multiply.102 = f64[1024]{0} multiply(%add.534, %select.183), metadata={op_name="jit(_full_run)/jit(main)/jit(_normal)/jit(_normal_real)/erf_inv" source_file="/global/homes/j/jackm/software/lorrax_C/src/solvers/lanczos.py" source_line=247}
  %add.535 = f64[1024]{0} add(%select.163, %multiply.102), metadata={op_name="jit(_full_run)/jit(main)/jit(_normal)/jit(_normal_real)/erf_inv" source_file="/global/homes/j/jackm/software/lorrax_C/src/solvers/lanczos.py" source_line=247}
  %multiply.103 = f64[1024]{0} multiply(%add.535, %select.183), metadata={op_name="jit(_full_run)/jit(main)/jit(_normal)/jit(_normal_real)/erf_inv" source_file="/global/homes/j/jackm/software/lorrax_C/src/solvers/lanczos.py" source_line=247}
  %add.536 = f64[1024]{0} add(%select.161, %multiply.103), metadata={op_name="jit(_full_run)/jit(main)/jit(_normal)/jit(_normal_real)/erf_inv" source_file="/global/homes/j/jackm/software/lorrax_C/src/solvers/lanczos.py" source_line=247}
  %multiply.104 = f64[1024]{0} multiply(%add.536, %select.183), metadata={op_name="jit(_full_run)/jit(main)/jit(_normal)/jit(_normal_real)/erf_inv" source_file="/global/homes/j/jackm/software/lorrax_C/src/solvers/lanczos.py" source_line=247}
  %add.537 = f64[1024]{0} add(%select.159, %multiply.104), metadata={op_name="jit(_full_run)/jit(main)/jit(_normal)/jit(_normal_real)/erf_inv" source_file="/global/homes/j/jackm/software/lorrax_C/src/solvers/lanczos.py" source_line=247}
  %multiply.105 = f64[1024]{0} multiply(%add.537, %select.183), metadata={op_name="jit(_full_run)/jit(main)/jit(_normal)/jit(_normal_real)/erf_inv" source_file="/global/homes/j/jackm/software/lorrax_C/src/solvers/lanczos.py" source_line=247}
  %add.538 = f64[1024]{0} add(%select.157, %multiply.105), metadata={op_name="jit(_full_run)/jit(main)/jit(_normal)/jit(_normal_real)/erf_inv" source_file="/global/homes/j/jackm/software/lorrax_C/src/solvers/lanczos.py" source_line=247}
  %multiply.106 = f64[1024]{0} multiply(%add.538, %select.183), metadata={op_name="jit(_full_run)/jit(main)/jit(_normal)/jit(_normal_real)/erf_inv" source_file="/global/homes/j/jackm/software/lorrax_C/src/solvers/lanczos.py" source_line=247}
  %add.539 = f64[1024]{0} add(%select.155, %multiply.106), metadata={op_name="jit(_full_run)/jit(main)/jit(_normal)/jit(_normal_real)/erf_inv" source_file="/global/homes/j/jackm/software/lorrax_C/src/solvers/lanczos.py" source_line=247}
  %multiply.107 = f64[1024]{0} multiply(%add.539, %select.183), metadata={op_name="jit(_full_run)/jit(main)/jit(_normal)/jit(_normal_real)/erf_inv" source_file="/global/homes/j/jackm/software/lorrax_C/src/solvers/lanczos.py" source_line=247}
  %add.540 = f64[1024]{0} add(%select.153, %multiply.107), metadata={op_name="jit(_full_run)/jit(main)/jit(_normal)/jit(_normal_real)/erf_inv" source_file="/global/homes/j/jackm/software/lorrax_C/src/solvers/lanczos.py" source_line=247}
  %multiply.108 = f64[1024]{0} multiply(%add.540, %select.183), metadata={op_name="jit(_full_run)/jit(main)/jit(_normal)/jit(_normal_real)/erf_inv" source_file="/global/homes/j/jackm/software/lorrax_C/src/solvers/lanczos.py" source_line=247}
  %add.541 = f64[1024]{0} add(%select.151, %multiply.108), metadata={op_name="jit(_full_run)/jit(main)/jit(_normal)/jit(_normal_real)/erf_inv" source_file="/global/homes/j/jackm/software/lorrax_C/src/solvers/lanczos.py" source_line=247}
  %multiply.109 = f64[1024]{0} multiply(%add.541, %select.183), metadata={op_name="jit(_full_run)/jit(main)/jit(_normal)/jit(_normal_real)/erf_inv" source_file="/global/homes/j/jackm/software/lorrax_C/src/solvers/lanczos.py" source_line=247}
  %add.542 = f64[1024]{0} add(%select.149, %multiply.109), metadata={op_name="jit(_full_run)/jit(main)/jit(_normal)/jit(_normal_real)/erf_inv" source_file="/global/homes/j/jackm/software/lorrax_C/src/solvers/lanczos.py" source_line=247}
  %multiply.110 = f64[1024]{0} multiply(%add.542, %select.183), metadata={op_name="jit(_full_run)/jit(main)/jit(_normal)/jit(_normal_real)/erf_inv" source_file="/global/homes/j/jackm/software/lorrax_C/src/solvers/lanczos.py" source_line=247}
  %add.543 = f64[1024]{0} add(%select.147, %multiply.110), metadata={op_name="jit(_full_run)/jit(main)/jit(_normal)/jit(_normal_real)/erf_inv" source_file="/global/homes/j/jackm/software/lorrax_C/src/solvers/lanczos.py" source_line=247}
  %select.184 = f64[1024]{0} select(%compare.17, %add.543, %add.542), metadata={op_name="jit(_full_run)/jit(main)/jit(_normal)/jit(_normal_real)/erf_inv" source_file="/global/homes/j/jackm/software/lorrax_C/src/solvers/lanczos.py" source_line=247}
  %multiply.111 = f64[1024]{0} multiply(%select.184, %select.183), metadata={op_name="jit(_full_run)/jit(main)/jit(_normal)/jit(_normal_real)/erf_inv" source_file="/global/homes/j/jackm/software/lorrax_C/src/solvers/lanczos.py" source_line=247}
  %add.544 = f64[1024]{0} add(%select.146, %multiply.111), metadata={op_name="jit(_full_run)/jit(main)/jit(_normal)/jit(_normal_real)/erf_inv" source_file="/global/homes/j/jackm/software/lorrax_C/src/solvers/lanczos.py" source_line=247}
  %select.185 = f64[1024]{0} select(%compare.17, %add.544, %select.184), metadata={op_name="jit(_full_run)/jit(main)/jit(_normal)/jit(_normal_real)/erf_inv" source_file="/global/homes/j/jackm/software/lorrax_C/src/solvers/lanczos.py" source_line=247}
  %multiply.112 = f64[1024]{0} multiply(%select.185, %select.183), metadata={op_name="jit(_full_run)/jit(main)/jit(_normal)/jit(_normal_real)/erf_inv" source_file="/global/homes/j/jackm/software/lorrax_C/src/solvers/lanczos.py" source_line=247}
  %constant.585 = f64[] constant(-0.000740702534166267)
  %broadcast.780 = f64[1024]{0} broadcast(%constant.585), dimensions={}
  %add.545 = f64[1024]{0} add(%multiply.112, %broadcast.780), metadata={op_name="jit(_full_run)/jit(main)/jit(_normal)/jit(_normal_real)/erf_inv" source_file="/global/homes/j/jackm/software/lorrax_C/src/solvers/lanczos.py" source_line=247}
  %select.186 = f64[1024]{0} select(%compare.16, %add.545, %select.185), metadata={op_name="jit(_full_run)/jit(main)/jit(_normal)/jit(_normal_real)/erf_inv" source_file="/global/homes/j/jackm/software/lorrax_C/src/solvers/lanczos.py" source_line=247}
  %multiply.113 = f64[1024]{0} multiply(%select.186, %select.183), metadata={op_name="jit(_full_run)/jit(main)/jit(_normal)/jit(_normal_real)/erf_inv" source_file="/global/homes/j/jackm/software/lorrax_C/src/solvers/lanczos.py" source_line=247}
  %constant.586 = f64[] constant(-0.0060336708714301491)
  %broadcast.781 = f64[1024]{0} broadcast(%constant.586), dimensions={}
  %add.546 = f64[1024]{0} add(%multiply.113, %broadcast.781), metadata={op_name="jit(_full_run)/jit(main)/jit(_normal)/jit(_normal_real)/erf_inv" source_file="/global/homes/j/jackm/software/lorrax_C/src/solvers/lanczos.py" source_line=247}
  %select.187 = f64[1024]{0} select(%compare.16, %add.546, %select.186), metadata={op_name="jit(_full_run)/jit(main)/jit(_normal)/jit(_normal_real)/erf_inv" source_file="/global/homes/j/jackm/software/lorrax_C/src/solvers/lanczos.py" source_line=247}
  %multiply.114 = f64[1024]{0} multiply(%select.187, %select.183), metadata={op_name="jit(_full_run)/jit(main)/jit(_normal)/jit(_normal_real)/erf_inv" source_file="/global/homes/j/jackm/software/lorrax_C/src/solvers/lanczos.py" source_line=247}
  %constant.587 = f64[] constant(0.24015818242558962)
  %broadcast.782 = f64[1024]{0} broadcast(%constant.587), dimensions={}
  %add.547 = f64[1024]{0} add(%multiply.114, %broadcast.782), metadata={op_name="jit(_full_run)/jit(main)/jit(_normal)/jit(_normal_real)/erf_inv" source_file="/global/homes/j/jackm/software/lorrax_C/src/solvers/lanczos.py" source_line=247}
  %select.188 = f64[1024]{0} select(%compare.16, %add.547, %select.187), metadata={op_name="jit(_full_run)/jit(main)/jit(_normal)/jit(_normal_real)/erf_inv" source_file="/global/homes/j/jackm/software/lorrax_C/src/solvers/lanczos.py" source_line=247}
  %multiply.115 = f64[1024]{0} multiply(%select.188, %select.183), metadata={op_name="jit(_full_run)/jit(main)/jit(_normal)/jit(_normal_real)/erf_inv" source_file="/global/homes/j/jackm/software/lorrax_C/src/solvers/lanczos.py" source_line=247}
  %constant.588 = f64[] constant(1.6536545626831027)
  %broadcast.783 = f64[1024]{0} broadcast(%constant.588), dimensions={}
  %add.548 = f64[1024]{0} add(%multiply.115, %broadcast.783), metadata={op_name="jit(_full_run)/jit(main)/jit(_normal)/jit(_normal_real)/erf_inv" source_file="/global/homes/j/jackm/software/lorrax_C/src/solvers/lanczos.py" source_line=247}
  %select.189 = f64[1024]{0} select(%compare.16, %add.548, %select.188), metadata={op_name="jit(_full_run)/jit(main)/jit(_normal)/jit(_normal_real)/erf_inv" source_file="/global/homes/j/jackm/software/lorrax_C/src/solvers/lanczos.py" source_line=247}
  %multiply.116 = f64[1024]{0} multiply(%select.189, %maximum.8), metadata={op_name="jit(_full_run)/jit(main)/jit(_normal)/jit(_normal_real)/erf_inv" source_file="/global/homes/j/jackm/software/lorrax_C/src/solvers/lanczos.py" source_line=247}
  %select.190 = f64[1024]{0} select(%compare.15, %multiply.92, %multiply.116), metadata={op_name="jit(_full_run)/jit(main)/jit(_normal)/jit(_normal_real)/erf_inv" source_file="/global/homes/j/jackm/software/lorrax_C/src/solvers/lanczos.py" source_line=247}
  %constant.589 = f64[] constant(1.4142135623730951)
  %broadcast.784 = f64[1024]{0} broadcast(%constant.589), dimensions={}
  %multiply.117 = f64[1024]{0} multiply(%select.190, %broadcast.784), metadata={op_name="jit(_full_run)/jit(main)/jit(_normal)/jit(_normal_real)/mul" source_file="/global/homes/j/jackm/software/lorrax_C/src/solvers/lanczos.py" source_line=247}
  %convert.1145 = c128[1024]{0} convert(%multiply.117), metadata={op_name="jit(_full_run)/jit(main)/convert_element_type" source_file="/global/homes/j/jackm/software/lorrax_C/src/solvers/lanczos.py" source_line=248}
  %constant.20 = c128[] constant((0, 1))
  %broadcast.21 = c128[1024]{0} broadcast(%constant.20), dimensions={}
  %multiply.1146 = c128[1024]{0} multiply(%convert.1145, %broadcast.21), metadata={op_name="jit(_full_run)/jit(main)/mul" source_file="/global/homes/j/jackm/software/lorrax_C/src/solvers/lanczos.py" source_line=248}
  %add.1148 = c128[1024]{0} add(%convert.1147, %multiply.1146), metadata={op_name="jit(_full_run)/jit(main)/add" source_file="/global/homes/j/jackm/software/lorrax_C/src/solvers/lanczos.py" source_line=248}
  %real.16 = f64[1024]{0} real(%add.1148), metadata={op_name="jit(_full_run)/jit(main)/jit(norm)/real" source_file="/global/homes/j/jackm/software/lorrax_C/src/solvers/lanczos.py" source_line=249}
  %imag.13 = f64[1024]{0} imag(%add.1148), metadata={op_name="jit(_full_run)/jit(main)/jit(norm)/imag" source_file="/global/homes/j/jackm/software/lorrax_C/src/solvers/lanczos.py" source_line=249}
  %negate.21 = f64[1024]{0} negate(%imag.13), metadata={op_name="jit(_full_run)/jit(main)/jit(norm)/neg" source_file="/global/homes/j/jackm/software/lorrax_C/src/solvers/lanczos.py" source_line=249}
  %complex.13 = c128[1024]{0} complex(%real.16, %negate.21), metadata={op_name="jit(_full_run)/jit(main)/jit(norm)/complex" source_file="/global/homes/j/jackm/software/lorrax_C/src/solvers/lanczos.py" source_line=249}
  %multiply.118 = c128[1024]{0} multiply(%add.1148, %complex.13), metadata={op_name="jit(_full_run)/jit(main)/jit(norm)/mul" source_file="/global/homes/j/jackm/software/lorrax_C/src/solvers/lanczos.py" source_line=249}
  %real.17 = f64[1024]{0} real(%multiply.118), metadata={op_name="jit(_full_run)/jit(main)/jit(norm)/real" source_file="/global/homes/j/jackm/software/lorrax_C/src/solvers/lanczos.py" source_line=249}
  %constant.590 = f64[] constant(0)
  %reduce.2 = f64[] reduce(%real.17, %constant.590), dimensions={0}, to_apply=%region_0.1149, metadata={op_name="jit(_full_run)/jit(main)/jit(norm)/reduce_sum" source_file="/global/homes/j/jackm/software/lorrax_C/src/solvers/lanczos.py" source_line=249}
  %sqrt.6 = f64[] sqrt(%reduce.2), metadata={op_name="jit(_full_run)/jit(main)/jit(norm)/sqrt" source_file="/global/homes/j/jackm/software/lorrax_C/src/solvers/lanczos.py" source_line=249}
  %convert.1165 = c128[] convert(%sqrt.6), metadata={op_name="jit(_full_run)/jit(main)/convert_element_type" source_file="/global/homes/j/jackm/software/lorrax_C/src/solvers/lanczos.py" source_line=249}
  %broadcast.1166 = c128[1024]{0} broadcast(%convert.1165), dimensions={}, metadata={op_name="jit(_full_run)/jit(main)/div" source_file="/global/homes/j/jackm/software/lorrax_C/src/solvers/lanczos.py" source_line=249}
  %divide.1167 = c128[1024]{0} divide(%add.1148, %broadcast.1166), metadata={op_name="jit(_full_run)/jit(main)/div" source_file="/global/homes/j/jackm/software/lorrax_C/src/solvers/lanczos.py" source_line=249}
  %constant.908 = c128[] constant((0, 0))
  %broadcast.1061 = c128[1024]{0} broadcast(%constant.908), dimensions={}
  %select.220 = c128[1024]{0} select(%broadcast.1059, %divide.1167, %broadcast.1061)
  %reshape.412 = c128[1024,1]{1,0} reshape(%select.220)
  %constant.906 = c128[] constant((0, 0))
  %pad.16 = c128[1024,200]{1,0} pad(%reshape.412, %constant.906), padding=0_0x0_199, metadata={op_name="jit(_full_run)/jit(main)/scatter" source_file="/global/homes/j/jackm/software/lorrax_C/src/solvers/lanczos.py" source_line=252}
  %constant.15 = f64[] constant(0)
  %broadcast.16 = f64[200]{0} broadcast(%constant.15), dimensions={}
  %Arg_0.1 = c128[64,4,2,480]{3,2,1,0} parameter(0), sharding={devices=[1,1,1,2,2]<=[4] last_tile_dim_replicate}, metadata={op_name="psi_c_X"}
  %Arg_1.2 = c128[64,4,2,480]{3,2,1,0} parameter(1), sharding={devices=[1,1,1,2,2]<=[2,2]T(1,0) last_tile_dim_replicate}, metadata={op_name="psi_c_Y"}
  %Arg_2.3 = c128[64,4,2,480]{3,2,1,0} parameter(2), sharding={devices=[1,1,1,2,2]<=[4] last_tile_dim_replicate}, metadata={op_name="psi_v_X"}
  %Arg_3.4 = c128[64,4,2,480]{3,2,1,0} parameter(3), sharding={devices=[1,1,1,2,2]<=[2,2]T(1,0) last_tile_dim_replicate}, metadata={op_name="psi_v_Y"}
  %Arg_4.5 = f64[64,4]{1,0} parameter(4), sharding={replicated}, metadata={op_name="eps_c"}
  %Arg_5.6 = f64[64,4]{1,0} parameter(5), sharding={replicated}, metadata={op_name="eps_v"}
  %Arg_6.7 = c128[480,480,4,4,4]{4,3,2,1,0} parameter(6), sharding={devices=[2,2,1,1,1]<=[4]}, metadata={op_name="W_q"}
  %custom-call.27 = c128[480,480,4,4,4]{4,3,2,1,0} custom-call(%Arg_6.7), custom_call_target="CustomSPMDPartitioning", api_version=API_VERSION_STATUS_RETURNING, metadata={op_name="jit(_full_run)/jit(main)/custom_partitioning" source_file="/global/homes/j/jackm/software/lorrax_C/src/common/fft_helpers.py" source_line=259}, backend_config="140520330544768"
  %custom-call.28 = c128[480,480,4,4,4]{4,3,2,1,0} custom-call(%custom-call.27), custom_call_target="CustomSPMDPartitioning", api_version=API_VERSION_STATUS_RETURNING, metadata={op_name="jit(_full_run)/jit(main)/custom_partitioning" source_file="/global/homes/j/jackm/software/lorrax_C/src/common/fft_helpers.py" source_line=259}, backend_config="140520727387920"
  %custom-call.29 = c128[480,480,4,4,4]{4,3,2,1,0} custom-call(%custom-call.28), custom_call_target="CustomSPMDPartitioning", api_version=API_VERSION_STATUS_RETURNING, metadata={op_name="jit(_full_run)/jit(main)/custom_partitioning" source_file="/global/homes/j/jackm/software/lorrax_C/src/common/fft_helpers.py" source_line=259}, backend_config="140520727388448"
  %Arg_7.8 = c128[480,480]{1,0} parameter(7), sharding={devices=[2,2]<=[4]}, metadata={op_name="V_q0"}
  %tuple.59 = (s64[], c128[1024,200]{1,0}, f64[200]{0}, f64[200]{0}, c128[1024]{0}, /*index=5*/c128[64,4,2,480]{3,2,1,0}, c128[64,4,2,480]{3,2,1,0}, c128[64,4,2,480]{3,2,1,0}, c128[64,4,2,480]{3,2,1,0}, f64[64,4]{1,0}, /*index=10*/f64[64,4]{1,0}, c128[480,480,4,4,4]{4,3,2,1,0}, c128[480,480]{1,0}) tuple(%constant.24, %pad.16, %broadcast.16, %broadcast.16, %divide.1167, /*index=5*/%Arg_0.1, %Arg_1.2, %Arg_2.3, %Arg_3.4, %Arg_4.5, /*index=10*/%Arg_5.6, %custom-call.29, %Arg_7.8)
  %while.9 = (s64[], c128[1024,200]{1,0}, f64[200]{0}, f64[200]{0}, c128[1024]{0}, /*index=5*/c128[64,4,2,480]{3,2,1,0}, c128[64,4,2,480]{3,2,1,0}, c128[64,4,2,480]{3,2,1,0}, c128[64,4,2,480]{3,2,1,0}, f64[64,4]{1,0}, /*index=10*/f64[64,4]{1,0}, c128[480,480,4,4,4]{4,3,2,1,0}, c128[480,480]{1,0}) while(%tuple.59), condition=%region_9.1460.clone.clone, body=%region_2.1435.clone.clone.clone, metadata={op_name="jit(_full_run)/jit(main)/while" source_file="/global/homes/j/jackm/software/lorrax_C/src/solvers/lanczos.py" source_line=286}
  %get-tuple-element.1482 = f64[200]{0} get-tuple-element(%while.9), index=2, metadata={op_name="jit(_full_run)/jit(main)/while" source_file="/global/homes/j/jackm/software/lorrax_C/src/solvers/lanczos.py" source_line=286}
  %broadcast.787 = f64[200,200]{1,0} broadcast(%get-tuple-element.1482), dimensions={1}, metadata={op_name="jit(_full_run)/jit(main)/jit(_diag)/jit(_where)/broadcast_in_dim" source_file="/global/homes/j/jackm/software/lorrax_C/src/solvers/lanczos.py" source_line=288}
  %constant.591 = f64[] constant(0)
  %broadcast.789 = f64[200,200]{1,0} broadcast(%constant.591), dimensions={}, metadata={op_name="jit(_full_run)/jit(main)/jit(_diag)/jit(_where)/broadcast_in_dim" source_file="/global/homes/j/jackm/software/lorrax_C/src/solvers/lanczos.py" source_line=288}
  %select.191 = f64[200,200]{1,0} select(%compare.18, %broadcast.787, %broadcast.789), metadata={op_name="jit(_full_run)/jit(main)/jit(_diag)/jit(_where)/select_n" source_file="/global/homes/j/jackm/software/lorrax_C/src/solvers/lanczos.py" source_line=288}
  %iota.9 = s64[200]{0} iota(), iota_dimension=0, metadata={op_name="jit(_full_run)/jit(main)/jit(_diag)/iota" source_file="/global/homes/j/jackm/software/lorrax_C/src/solvers/lanczos.py" source_line=290}
  %constant.592 = s64[] constant(1)
  %broadcast.820 = s64[200]{0} broadcast(%constant.592), dimensions={}
  %add.560 = s64[200]{0} add(%iota.9, %broadcast.820), metadata={op_name="jit(_full_run)/jit(main)/jit(_diag)/add" source_file="/global/homes/j/jackm/software/lorrax_C/src/solvers/lanczos.py" source_line=290}
  %broadcast.821 = s64[200,200]{1,0} broadcast(%add.560), dimensions={0}, metadata={op_name="jit(_full_run)/jit(main)/jit(_diag)/iota" source_file="/global/homes/j/jackm/software/lorrax_C/src/solvers/lanczos.py" source_line=290}
  %iota.16 = s64[200,200]{1,0} iota(), iota_dimension=1, metadata={op_name="jit(_full_run)/jit(main)/jit(_diag)/iota" source_file="/global/homes/j/jackm/software/lorrax_C/src/solvers/lanczos.py" source_line=290}
  %compare.19 = pred[200,200]{1,0} compare(%broadcast.821, %iota.16), direction=EQ, metadata={op_name="jit(_full_run)/jit(main)/jit(_diag)/eq" source_file="/global/homes/j/jackm/software/lorrax_C/src/solvers/lanczos.py" source_line=290}
  %get-tuple-element.1483 = f64[200]{0} get-tuple-element(%while.9), index=3, metadata={op_name="jit(_full_run)/jit(main)/while" source_file="/global/homes/j/jackm/software/lorrax_C/src/solvers/lanczos.py" source_line=286}
  %slice.1503 = f64[199]{0} slice(%get-tuple-element.1483), slice={[0:199]}, metadata={op_name="jit(_full_run)/jit(main)/slice" source_file="/global/homes/j/jackm/software/lorrax_C/src/solvers/lanczos.py" source_line=289}
  %constant.593 = f64[] constant(0)
  %pad.0 = f64[200]{0} pad(%slice.1503, %constant.593), padding=1_0, metadata={op_name="jit(_full_run)/jit(main)/jit(_diag)/pad" source_file="/global/homes/j/jackm/software/lorrax_C/src/solvers/lanczos.py" source_line=290}
  %broadcast.793 = f64[200,200]{1,0} broadcast(%pad.0), dimensions={1}, metadata={op_name="jit(_full_run)/jit(main)/jit(_diag)/jit(_where)/broadcast_in_dim" source_file="/global/homes/j/jackm/software/lorrax_C/src/solvers/lanczos.py" source_line=288}
  %constant.594 = f64[] constant(0)
  %broadcast.795 = f64[200,200]{1,0} broadcast(%constant.594), dimensions={}, metadata={op_name="jit(_full_run)/jit(main)/jit(_diag)/jit(_where)/broadcast_in_dim" source_file="/global/homes/j/jackm/software/lorrax_C/src/solvers/lanczos.py" source_line=288}
  %select.192 = f64[200,200]{1,0} select(%compare.19, %broadcast.793, %broadcast.795), metadata={op_name="jit(_full_run)/jit(main)/jit(_diag)/jit(_where)/select_n" source_file="/global/homes/j/jackm/software/lorrax_C/src/solvers/lanczos.py" source_line=288}
  %add.1527 = f64[200,200]{1,0} add(%select.191, %select.192), metadata={op_name="jit(_full_run)/jit(main)/add" source_file="/global/homes/j/jackm/software/lorrax_C/src/solvers/lanczos.py" source_line=290}
  %iota.11 = s64[200]{0} iota(), iota_dimension=0, metadata={op_name="jit(_full_run)/jit(main)/jit(_diag)/iota" source_file="/global/homes/j/jackm/software/lorrax_C/src/solvers/lanczos.py" source_line=290}
  %constant.595 = s64[] constant(-1)
  %broadcast.825 = s64[200]{0} broadcast(%constant.595), dimensions={}
  %add.561 = s64[200]{0} add(%iota.11, %broadcast.825), metadata={op_name="jit(_full_run)/jit(main)/jit(_diag)/add" source_file="/global/homes/j/jackm/software/lorrax_C/src/solvers/lanczos.py" source_line=290}
  %broadcast.826 = s64[200,200]{1,0} broadcast(%add.561), dimensions={0}, metadata={op_name="jit(_full_run)/jit(main)/jit(_diag)/iota" source_file="/global/homes/j/jackm/software/lorrax_C/src/solvers/lanczos.py" source_line=290}
  %iota.17 = s64[200,200]{1,0} iota(), iota_dimension=1, metadata={op_name="jit(_full_run)/jit(main)/jit(_diag)/iota" source_file="/global/homes/j/jackm/software/lorrax_C/src/solvers/lanczos.py" source_line=290}
  %compare.20 = pred[200,200]{1,0} compare(%broadcast.826, %iota.17), direction=EQ, metadata={op_name="jit(_full_run)/jit(main)/jit(_diag)/eq" source_file="/global/homes/j/jackm/software/lorrax_C/src/solvers/lanczos.py" source_line=290}
  %constant.596 = f64[] constant(0)
  %pad.1 = f64[200]{0} pad(%slice.1503, %constant.596), padding=0_1, metadata={op_name="jit(_full_run)/jit(main)/jit(_diag)/pad" source_file="/global/homes/j/jackm/software/lorrax_C/src/solvers/lanczos.py" source_line=290}
  %broadcast.801 = f64[200,200]{1,0} broadcast(%pad.1), dimensions={1}, metadata={op_name="jit(_full_run)/jit(main)/jit(_diag)/jit(_where)/broadcast_in_dim" source_file="/global/homes/j/jackm/software/lorrax_C/src/solvers/lanczos.py" source_line=288}
  %constant.597 = f64[] constant(0)
  %broadcast.803 = f64[200,200]{1,0} broadcast(%constant.597), dimensions={}, metadata={op_name="jit(_full_run)/jit(main)/jit(_diag)/jit(_where)/broadcast_in_dim" source_file="/global/homes/j/jackm/software/lorrax_C/src/solvers/lanczos.py" source_line=288}
  %select.193 = f64[200,200]{1,0} select(%compare.20, %broadcast.801, %broadcast.803), metadata={op_name="jit(_full_run)/jit(main)/jit(_diag)/jit(_where)/select_n" source_file="/global/homes/j/jackm/software/lorrax_C/src/solvers/lanczos.py" source_line=288}
  %add.1551 = f64[200,200]{1,0} add(%add.1527, %select.193), metadata={op_name="jit(_full_run)/jit(main)/add" source_file="/global/homes/j/jackm/software/lorrax_C/src/solvers/lanczos.py" source_line=290}
  %transpose.22 = f64[200,200]{0,1} transpose(%add.1551), dimensions={1,0}, metadata={op_name="jit(_full_run)/jit(main)/jit(eigh)/transpose" source_file="/global/homes/j/jackm/software/lorrax_C/src/solvers/lanczos.py" source_line=292}
  %add.551 = f64[200,200]{1,0} add(%add.1551, %transpose.22), metadata={op_name="jit(_full_run)/jit(main)/jit(eigh)/add" source_file="/global/homes/j/jackm/software/lorrax_C/src/solvers/lanczos.py" source_line=292}
  %constant.606 = f64[] constant(0.5)
  %broadcast.828 = f64[200,200]{1,0} broadcast(%constant.606), dimensions={}
  %multiply.122 = f64[200,200]{1,0} multiply(%add.551, %broadcast.828), metadata={op_name="jit(_full_run)/jit(main)/jit(eigh)/div" source_file="/global/homes/j/jackm/software/lorrax_C/src/solvers/lanczos.py" source_line=292}
  %custom-call.52 = (f64[200,200]{0,1}, f64[200]{0}, s32[]) custom-call(%multiply.122), custom_call_target="cusolver_syevd_ffi", operand_layout_constraints={f64[200,200]{0,1}}, output_to_operand_aliasing={{0}: (0, {})}, api_version=API_VERSION_TYPED_FFI, frontend_attributes={num_batch_dims="0"}, metadata={op_name="jit(_full_run)/jit(main)/jit(eigh)/eigh" source_file="/global/homes/j/jackm/software/lorrax_C/src/solvers/lanczos.py" source_line=292}, backend_config={algorithm = 0 : ui8, lower = true}
  %get-tuple-element.16 = s32[] get-tuple-element(%custom-call.52), index=2, frontend_attributes={num_batch_dims="0"}, metadata={op_name="jit(_full_run)/jit(main)/jit(eigh)/eigh" source_file="/global/homes/j/jackm/software/lorrax_C/src/solvers/lanczos.py" source_line=292}
  %constant.599 = s32[] constant(0)
  %compare.21 = pred[] compare(%get-tuple-element.16, %constant.599), direction=EQ, metadata={op_name="jit(_full_run)/jit(main)/jit(eigh)/eigh" source_file="/global/homes/j/jackm/software/lorrax_C/src/solvers/lanczos.py" source_line=292}
  %broadcast.806 = pred[200]{0} broadcast(%compare.21), dimensions={}, metadata={op_name="jit(_full_run)/jit(main)/jit(eigh)/eigh" source_file="/global/homes/j/jackm/software/lorrax_C/src/solvers/lanczos.py" source_line=292}
  %get-tuple-element.17 = f64[200]{0} get-tuple-element(%custom-call.52), index=1, frontend_attributes={num_batch_dims="0"}, metadata={op_name="jit(_full_run)/jit(main)/jit(eigh)/eigh" source_file="/global/homes/j/jackm/software/lorrax_C/src/solvers/lanczos.py" source_line=292}
  %constant.600 = f64[] constant(nan)
  %broadcast.807 = f64[200]{0} broadcast(%constant.600), dimensions={}
  %select.194 = f64[200]{0} select(%broadcast.806, %get-tuple-element.17, %broadcast.807), metadata={op_name="jit(_full_run)/jit(main)/jit(eigh)/eigh" source_file="/global/homes/j/jackm/software/lorrax_C/src/solvers/lanczos.py" source_line=292}
  %iota.13 = s64[200]{0} iota(), iota_dimension=0, metadata={op_name="jit(_full_run)/jit(main)/jit(argsort)/iota" source_file="/global/homes/j/jackm/software/lorrax_C/src/solvers/lanczos.py" source_line=293}
  %sort.0 = (f64[200]{0}, s64[200]{0}) sort(%select.194, %iota.13), dimensions={0}, is_stable=true, to_apply=%region_10.1583, metadata={op_name="jit(_full_run)/jit(main)/jit(argsort)/sort" source_file="/global/homes/j/jackm/software/lorrax_C/src/solvers/lanczos.py" source_line=293}
  %get-tuple-element.20 = s64[200]{0} get-tuple-element(%sort.0), index=1, metadata={op_name="jit(_full_run)/jit(main)/jit(argsort)/sort" source_file="/global/homes/j/jackm/software/lorrax_C/src/solvers/lanczos.py" source_line=293}
  %slice.1606 = s64[5]{0} slice(%get-tuple-element.20), slice={[0:5]}, metadata={op_name="jit(_full_run)/jit(main)/slice" source_file="/global/homes/j/jackm/software/lorrax_C/src/solvers/lanczos.py" source_line=293}
  %constant.13 = s64[] constant(0)
  %broadcast.14 = s64[5]{0} broadcast(%constant.13), dimensions={}
  %compare.1607 = pred[5]{0} compare(%slice.1606, %broadcast.14), direction=LT, metadata={op_name="jit(_full_run)/jit(main)/lt" source_file="/global/homes/j/jackm/software/lorrax_C/src/solvers/lanczos.py" source_line=294}
  %constant.11 = s64[] constant(200)
  %broadcast.12 = s64[5]{0} broadcast(%constant.11), dimensions={}
  %add.1608 = s64[5]{0} add(%slice.1606, %broadcast.12), metadata={op_name="jit(_full_run)/jit(main)/add" source_file="/global/homes/j/jackm/software/lorrax_C/src/solvers/lanczos.py" source_line=294}
  %select.1609 = s64[5]{0} select(%compare.1607, %add.1608, %slice.1606), metadata={op_name="jit(_full_run)/jit(main)/select_n" source_file="/global/homes/j/jackm/software/lorrax_C/src/solvers/lanczos.py" source_line=294}
  %convert.1610 = s32[5]{0} convert(%select.1609), metadata={op_name="jit(_full_run)/jit(main)/convert_element_type" source_file="/global/homes/j/jackm/software/lorrax_C/src/solvers/lanczos.py" source_line=294}
  %reshape.1611 = s32[5,1]{1,0} reshape(%convert.1610), metadata={op_name="jit(_full_run)/jit(main)/broadcast_in_dim" source_file="/global/homes/j/jackm/software/lorrax_C/src/solvers/lanczos.py" source_line=294}
  %gather.1612 = f64[5]{0} gather(%select.194, %reshape.1611), offset_dims={}, collapsed_slice_dims={0}, start_index_map={0}, index_vector_dim=1, slice_sizes={1}, sharding={replicated}, metadata={op_name="jit(_full_run)/jit(main)/gather" source_file="/global/homes/j/jackm/software/lorrax_C/src/solvers/lanczos.py" source_line=294}
  %broadcast.809 = pred[200,200]{1,0} broadcast(%compare.21), dimensions={}, metadata={op_name="jit(_full_run)/jit(main)/jit(eigh)/eigh" source_file="/global/homes/j/jackm/software/lorrax_C/src/solvers/lanczos.py" source_line=292}
  %get-tuple-element.18 = f64[200,200]{0,1} get-tuple-element(%custom-call.52), index=0, frontend_attributes={num_batch_dims="0"}, metadata={op_name="jit(_full_run)/jit(main)/jit(eigh)/eigh" source_file="/global/homes/j/jackm/software/lorrax_C/src/solvers/lanczos.py" source_line=292}
  %constant.601 = f64[] constant(nan)
  %broadcast.810 = f64[200,200]{1,0} broadcast(%constant.601), dimensions={}
  %select.195 = f64[200,200]{1,0} select(%broadcast.809, %get-tuple-element.18, %broadcast.810), metadata={op_name="jit(_full_run)/jit(main)/jit(eigh)/eigh" source_file="/global/homes/j/jackm/software/lorrax_C/src/solvers/lanczos.py" source_line=292}
  %compare.1613 = pred[5]{0} compare(%slice.1606, %broadcast.14), direction=LT, metadata={op_name="jit(_full_run)/jit(main)/lt" source_file="/global/homes/j/jackm/software/lorrax_C/src/solvers/lanczos.py" source_line=296}
  %add.1614 = s64[5]{0} add(%slice.1606, %broadcast.12), metadata={op_name="jit(_full_run)/jit(main)/add" source_file="/global/homes/j/jackm/software/lorrax_C/src/solvers/lanczos.py" source_line=296}
  %select.1615 = s64[5]{0} select(%compare.1613, %add.1614, %slice.1606), metadata={op_name="jit(_full_run)/jit(main)/select_n" source_file="/global/homes/j/jackm/software/lorrax_C/src/solvers/lanczos.py" source_line=296}
  %convert.1616 = s32[5]{0} convert(%select.1615), metadata={op_name="jit(_full_run)/jit(main)/convert_element_type" source_file="/global/homes/j/jackm/software/lorrax_C/src/solvers/lanczos.py" source_line=296}
  %reshape.1617 = s32[5,1]{1,0} reshape(%convert.1616), metadata={op_name="jit(_full_run)/jit(main)/broadcast_in_dim" source_file="/global/homes/j/jackm/software/lorrax_C/src/solvers/lanczos.py" source_line=296}
  %gather.1618 = f64[200,5]{1,0} gather(%select.195, %reshape.1617), offset_dims={0}, collapsed_slice_dims={1}, start_index_map={1}, index_vector_dim=1, slice_sizes={200,1}, metadata={op_name="jit(_full_run)/jit(main)/gather" source_file="/global/homes/j/jackm/software/lorrax_C/src/solvers/lanczos.py" source_line=296}
  %convert.1619 = c128[200,5]{1,0} convert(%gather.1618), metadata={op_name="jit(_full_run)/jit(main)/dot_general" source_file="/global/homes/j/jackm/software/lorrax_C/src/solvers/lanczos.py" source_line=296}
  %get-tuple-element.1481 = c128[1024,200]{1,0} get-tuple-element(%while.9), index=1, metadata={op_name="jit(_full_run)/jit(main)/while" source_file="/global/homes/j/jackm/software/lorrax_C/src/solvers/lanczos.py" source_line=286}
  %dot.26 = c128[5,1024]{0,1} dot(%convert.1619, %get-tuple-element.1481), lhs_contracting_dims={0}, rhs_contracting_dims={1}, metadata={op_name="jit(_full_run)/jit(main)/transpose" source_file="/global/homes/j/jackm/software/lorrax_C/src/solvers/lanczos.py" source_line=296}
  %real.18 = f64[5,1024]{1,0} real(%dot.26), metadata={op_name="jit(_full_run)/jit(main)/jit(norm)/real" source_file="/global/homes/j/jackm/software/lorrax_C/src/solvers/lanczos.py" source_line=297}
  %imag.14 = f64[5,1024]{1,0} imag(%dot.26), metadata={op_name="jit(_full_run)/jit(main)/jit(norm)/imag" source_file="/global/homes/j/jackm/software/lorrax_C/src/solvers/lanczos.py" source_line=297}
  %negate.22 = f64[5,1024]{1,0} negate(%imag.14), metadata={op_name="jit(_full_run)/jit(main)/jit(norm)/neg" source_file="/global/homes/j/jackm/software/lorrax_C/src/solvers/lanczos.py" source_line=297}
  %complex.14 = c128[5,1024]{1,0} complex(%real.18, %negate.22), metadata={op_name="jit(_full_run)/jit(main)/jit(norm)/complex" source_file="/global/homes/j/jackm/software/lorrax_C/src/solvers/lanczos.py" source_line=297}
  %multiply.119 = c128[5,1024]{1,0} multiply(%dot.26, %complex.14), metadata={op_name="jit(_full_run)/jit(main)/jit(norm)/mul" source_file="/global/homes/j/jackm/software/lorrax_C/src/solvers/lanczos.py" source_line=297}
  %real.19 = f64[5,1024]{1,0} real(%multiply.119), metadata={op_name="jit(_full_run)/jit(main)/jit(norm)/real" source_file="/global/homes/j/jackm/software/lorrax_C/src/solvers/lanczos.py" source_line=297}
  %constant.602 = f64[] constant(0)
  %reduce.3 = f64[5]{0} reduce(%real.19, %constant.602), dimensions={1}, to_apply=%region_11.1622, metadata={op_name="jit(_full_run)/jit(main)/jit(norm)/reduce_sum" source_file="/global/homes/j/jackm/software/lorrax_C/src/solvers/lanczos.py" source_line=297}
  %sqrt.10 = f64[5]{0} sqrt(%reduce.3), metadata={op_name="jit(_full_run)/jit(main)/jit(norm)/sqrt" source_file="/global/homes/j/jackm/software/lorrax_C/src/solvers/lanczos.py" source_line=297}
  %constant.9 = f64[] constant(1e-15)
  %broadcast.1063 = f64[5]{0} broadcast(%constant.9), dimensions={}
  %maximum.15 = f64[5]{0} maximum(%sqrt.10, %broadcast.1063), metadata={op_name="jit(_full_run)/jit(main)/max" source_file="/global/homes/j/jackm/software/lorrax_C/src/solvers/lanczos.py" source_line=298}
  %convert.68 = c128[5]{0} convert(%maximum.15), metadata={op_name="jit(_full_run)/jit(main)/convert_element_type" source_file="/global/homes/j/jackm/software/lorrax_C/src/solvers/lanczos.py" source_line=298}
  %broadcast.1643 = c128[5,1024]{1,0} broadcast(%convert.68), dimensions={0}, metadata={op_name="jit(_full_run)/jit(main)/div" source_file="/global/homes/j/jackm/software/lorrax_C/src/solvers/lanczos.py" source_line=298}
  %divide.1644 = c128[5,1024]{0,1} divide(%dot.26, %broadcast.1643), sharding={replicated}, metadata={op_name="jit(_full_run)/jit(main)/div" source_file="/global/homes/j/jackm/software/lorrax_C/src/solvers/lanczos.py" source_line=298}
  %constant.23 = s32[] constant(200)
  ROOT %tuple.1648 = (f64[5]{0}, c128[5,1024]{1,0}, s32[]) tuple(%gather.1612, %divide.1644, %constant.23), sharding={{replicated}, {replicated}, {replicated}}
  %constant.339 = f64[] constant(-0.99999999999999989)
  %constant.432 = f64[] constant(-0.99999999999999989)
  %constant.824 = u32[] constant(42), metadata={op_name="jit(_full_run)/jit(main)/jit(_threefry_split)/squeeze" source_file="/global/homes/j/jackm/software/lorrax_C/src/solvers/lanczos.py" source_line=245}
  %constant.826 = u32[] constant(466689008), metadata={op_name="jit(_full_run)/jit(main)/jit(_threefry_split)/xor" source_file="/global/homes/j/jackm/software/lorrax_C/src/solvers/lanczos.py" source_line=245}
}

