HloModule jit__post_kpath, is_scheduled=true, entry_computation_layout={(f64[8,960]{1,0}, f64[8,960]{1,0}, f64[8,960]{1,0}, f64[8,960]{1,0}, f64[8,960]{1,0}, /*index=5*/f64[8,960]{1,0})->(f64[181,960]{1,0}, f64[181,60]{1,0})}, allow_spmd_sharding_propagation_to_parameters={false,false,false,false,false,false}, allow_spmd_sharding_propagation_to_output={true,true}, num_partitions=4, frontend_attributes={fingerprint_before_lhs="d462cbb248edd8a0ff0050c2f591c865"}

%fused_add (param_0.17: f64[46,960], param_1.98: f64[46,960]) -> f64[46,960] {
  %param_0.17 = f64[46,960]{1,0} parameter(0), metadata={scheduling_name="param_0.17"}
  %constant_91_1 = f64[] constant(-0.32823802595442442)
  %broadcast.217.1 = f64[46,960]{1,0} broadcast(%constant_91_1), dimensions={}, metadata={op_name="jit(_post_kpath)/jit(main)/vmap(while)/body/jit(clip)/max" source_file="/global/homes/j/jackm/software/lorrax_C/src/bandstructure/htransform.py" source_line=333 scheduling_name="broadcast.217.1"}
  %constant_92_1 = f64[] constant(-0.98024169093943125)
  %broadcast.218.21 = f64[46,960]{1,0} broadcast(%constant_92_1), dimensions={}, metadata={scheduling_name="broadcast.218.21"}
  %add.49.21 = f64[46,960]{1,0} add(%param_0.17, %broadcast.218.21), metadata={op_name="jit(_post_kpath)/jit(main)/vmap(while)/body/jit(_dfun_jit)/sub" source_file="/global/homes/j/jackm/software/lorrax_C/src/bandstructure/htransform.py" source_line=298 scheduling_name="add.49.21"}
  %constant_93_1 = f64[] constant(0)
  %broadcast.219.43 = f64[46,960]{1,0} broadcast(%constant_93_1), dimensions={}, metadata={scheduling_name="broadcast.219.43"}
  %compare.49.3 = pred[46,960]{1,0} compare(%add.49.21, %broadcast.219.43), direction=GE, metadata={op_name="jit(_post_kpath)/jit(main)/vmap(while)/body/jit(_dfun_jit)/ge" source_file="/global/homes/j/jackm/software/lorrax_C/src/bandstructure/htransform.py" source_line=305 scheduling_name="compare.49.3"}
  %compare.50.3 = pred[46,960]{1,0} compare(%add.49.21, %broadcast.219.43), direction=LT, metadata={op_name="jit(_post_kpath)/jit(main)/vmap(while)/body/jit(_dfun_jit)/lt" source_file="/global/homes/j/jackm/software/lorrax_C/src/bandstructure/htransform.py" source_line=300 scheduling_name="compare.50.3"}
  %constant_95_1 = f64[] constant(-0.65647605190884883)
  %broadcast.222.7 = f64[46,960]{1,0} broadcast(%constant_95_1), dimensions={}, metadata={scheduling_name="broadcast.222.7"}
  %compare.51.7 = pred[46,960]{1,0} compare(%add.49.21, %broadcast.222.7), direction=LE, metadata={op_name="jit(_post_kpath)/jit(main)/vmap(while)/body/jit(_dfun_jit)/le" source_file="/global/homes/j/jackm/software/lorrax_C/src/bandstructure/htransform.py" source_line=299 scheduling_name="compare.51.7"}
  %not.11.3 = pred[46,960]{1,0} not(%compare.51.7), metadata={op_name="jit(_post_kpath)/jit(main)/vmap(while)/body/jit(_dfun_jit)/not" source_file="/global/homes/j/jackm/software/lorrax_C/src/bandstructure/htransform.py" source_line=300 scheduling_name="not.11.3"}
  %and.8.1 = pred[46,960]{1,0} and(%compare.50.3, %not.11.3), metadata={op_name="jit(_post_kpath)/jit(main)/vmap(while)/body/jit(_dfun_jit)/and" source_file="/global/homes/j/jackm/software/lorrax_C/src/bandstructure/htransform.py" source_line=300 scheduling_name="and.8.1"}
  %constant_96_1 = f64[] constant(0.5)
  %broadcast.223.26 = f64[46,960]{1,0} broadcast(%constant_96_1), dimensions={}, metadata={scheduling_name="broadcast.223.26"}
  %constant_97_1 = f64[] constant(1.5232848130442529)
  %broadcast.224.11 = f64[46,960]{1,0} broadcast(%constant_97_1), dimensions={}, metadata={scheduling_name="broadcast.224.11"}
  %multiply.78.11 = f64[46,960]{1,0} multiply(%add.49.21, %broadcast.224.11), metadata={op_name="jit(_post_kpath)/jit(main)/vmap(while)/body/jit(_dfun_jit)/div" source_file="/global/homes/j/jackm/software/lorrax_C/src/bandstructure/htransform.py" source_line=303 scheduling_name="multiply.78.11"}
  %add.50.15 = f64[46,960]{1,0} add(%multiply.78.11, %broadcast.223.26), metadata={op_name="jit(_post_kpath)/jit(main)/vmap(while)/body/jit(_dfun_jit)/add" source_file="/global/homes/j/jackm/software/lorrax_C/src/bandstructure/htransform.py" source_line=303 scheduling_name="add.50.15"}
  %constant_98_1 = f64[] constant(3)
  %broadcast.226.11 = f64[46,960]{1,0} broadcast(%constant_98_1), dimensions={}, metadata={scheduling_name="broadcast.226.11"}
  %multiply.80.13 = f64[46,960]{1,0} multiply(%add.50.15, %broadcast.226.11), metadata={op_name="jit(_post_kpath)/jit(main)/vmap(while)/body/jit(_dfun_jit)/mul" source_file="/global/homes/j/jackm/software/lorrax_C/src/bandstructure/htransform.py" source_line=303 scheduling_name="multiply.80.13"}
  %erf.8.11 = f64[46,960]{1,0} erf(%multiply.80.13), metadata={op_name="jit(_post_kpath)/jit(main)/vmap(while)/body/jit(_dfun_jit)/erf" source_file="/global/homes/j/jackm/software/lorrax_C/src/bandstructure/htransform.py" source_line=304 scheduling_name="erf.8.11"}
  %constant_99_1 = f64[] constant(0.51754201064363936)
  %broadcast.227.7 = f64[46,960]{1,0} broadcast(%constant_99_1), dimensions={}, metadata={scheduling_name="broadcast.227.7"}
  %multiply.81.7 = f64[46,960]{1,0} multiply(%erf.8.11, %broadcast.227.7), metadata={op_name="jit(_post_kpath)/jit(main)/vmap(while)/body/jit(_dfun_jit)/div" source_file="/global/homes/j/jackm/software/lorrax_C/src/bandstructure/htransform.py" source_line=304 scheduling_name="multiply.81.7"}
  %subtract.23.11 = f64[46,960]{1,0} subtract(%broadcast.223.26, %multiply.81.7), metadata={op_name="jit(_post_kpath)/jit(main)/vmap(while)/body/jit(_dfun_jit)/sub" source_file="/global/homes/j/jackm/software/lorrax_C/src/bandstructure/htransform.py" source_line=304 scheduling_name="subtract.23.11"}
  %constant_100_1 = f64[] constant(1)
  %broadcast.228.7 = f64[46,960]{1,0} broadcast(%constant_100_1), dimensions={}, metadata={op_name="jit(_post_kpath)/jit(main)/vmap(while)/body/jit(_dfun_jit)/jit(_where)/broadcast_in_dim" source_file="/global/homes/j/jackm/software/lorrax_C/src/bandstructure/htransform.py" source_line=286 scheduling_name="broadcast.228.7"}
  %select.62.9 = f64[46,960]{1,0} select(%compare.51.7, %broadcast.228.7, %broadcast.219.43), metadata={op_name="jit(_post_kpath)/jit(main)/vmap(while)/body/jit(_dfun_jit)/jit(_where)/select_n" source_file="/global/homes/j/jackm/software/lorrax_C/src/bandstructure/htransform.py" source_line=286 scheduling_name="select.62.9"}
  %select.63.9 = f64[46,960]{1,0} select(%and.8.1, %subtract.23.11, %select.62.9), metadata={op_name="jit(_post_kpath)/jit(main)/vmap(while)/body/jit(_fun_jit)/jit(_where)/select_n" source_file="/global/homes/j/jackm/software/lorrax_C/src/bandstructure/htransform.py" source_line=285 scheduling_name="select.63.9"}
  %select.64.7 = f64[46,960]{1,0} select(%compare.49.3, %broadcast.219.43, %select.63.9), metadata={op_name="jit(_post_kpath)/jit(main)/vmap(while)/body/jit(_fun_jit)/jit(_where)/select_n" source_file="/global/homes/j/jackm/software/lorrax_C/src/bandstructure/htransform.py" source_line=286 scheduling_name="select.64.7"}
  %abs.4.3 = f64[46,960]{1,0} abs(%select.64.7), metadata={op_name="jit(_post_kpath)/jit(main)/vmap(while)/body/abs" source_file="/global/homes/j/jackm/software/lorrax_C/src/bandstructure/htransform.py" source_line=332 scheduling_name="abs.4.3"}
  %constant_102_1 = f64[] constant(1e-14)
  %broadcast.230.3 = f64[46,960]{1,0} broadcast(%constant_102_1), dimensions={}, metadata={scheduling_name="broadcast.230.3"}
  %compare.52.3 = pred[46,960]{1,0} compare(%abs.4.3, %broadcast.230.3), direction=GT, metadata={op_name="jit(_post_kpath)/jit(main)/vmap(while)/body/gt" source_file="/global/homes/j/jackm/software/lorrax_C/src/bandstructure/htransform.py" source_line=332 scheduling_name="compare.52.3"}
  %constant_107_1 = f64[] constant(0.10539922456186433)
  %broadcast.232.3 = f64[46,960]{1,0} broadcast(%constant_107_1), dimensions={}, metadata={scheduling_name="broadcast.232.3"}
  %constant_108_1 = f64[] constant(2)
  %broadcast.233.3 = f64[46,960]{1,0} broadcast(%constant_108_1), dimensions={}, metadata={scheduling_name="broadcast.233.3"}
  %multiply.82.3 = f64[46,960]{1,0} multiply(%add.49.21, %broadcast.233.3), metadata={op_name="jit(_post_kpath)/jit(main)/vmap(while)/body/jit(_fun_jit)/mul" source_file="/global/homes/j/jackm/software/lorrax_C/src/bandstructure/htransform.py" source_line=281 scheduling_name="multiply.82.3"}
  %constant_109_1 = f64[] constant(0.65647605190884883)
  %broadcast.234.3 = f64[46,960]{1,0} broadcast(%constant_109_1), dimensions={}, metadata={scheduling_name="broadcast.234.3"}
  %add.51.3 = f64[46,960]{1,0} add(%multiply.82.3, %broadcast.234.3), metadata={op_name="jit(_post_kpath)/jit(main)/vmap(while)/body/jit(_fun_jit)/add" source_file="/global/homes/j/jackm/software/lorrax_C/src/bandstructure/htransform.py" source_line=281 scheduling_name="add.51.3"}
  %constant_110_1 = f64[] constant(2.2849272195663795)
  %broadcast.235.3 = f64[46,960]{1,0} broadcast(%constant_110_1), dimensions={}, metadata={op_name="jit(_post_kpath)/jit(main)/vmap(while)/body/jit(_fun_jit)/div" source_file="/global/homes/j/jackm/software/lorrax_C/src/bandstructure/htransform.py" source_line=281 scheduling_name="broadcast.235.3"}
  %multiply.84.3 = f64[46,960]{1,0} multiply(%add.51.3, %broadcast.235.3), metadata={op_name="jit(_post_kpath)/jit(main)/vmap(while)/body/jit(_fun_jit)/div" source_file="/global/homes/j/jackm/software/lorrax_C/src/bandstructure/htransform.py" source_line=281 scheduling_name="multiply.84.3"}
  %multiply.86.15 = f64[46,960]{1,0} multiply(%multiply.84.3, %multiply.84.3), metadata={op_name="jit(_post_kpath)/jit(main)/vmap(while)/body/jit(_fun_jit)/integer_pow" source_file="/global/homes/j/jackm/software/lorrax_C/src/bandstructure/htransform.py" source_line=281 scheduling_name="multiply.86.15"}
  %negate.11.15 = f64[46,960]{1,0} negate(%multiply.86.15), metadata={op_name="jit(_post_kpath)/jit(main)/vmap(while)/body/jit(_fun_jit)/neg" source_file="/global/homes/j/jackm/software/lorrax_C/src/bandstructure/htransform.py" source_line=281 scheduling_name="negate.11.15"}
  %exponential.5.13 = f64[46,960]{1,0} exponential(%negate.11.15), metadata={op_name="jit(_post_kpath)/jit(main)/vmap(while)/body/jit(_fun_jit)/exp" source_file="/global/homes/j/jackm/software/lorrax_C/src/bandstructure/htransform.py" source_line=281 scheduling_name="exponential.5.13"}
  %subtract.24.11 = f64[46,960]{1,0} subtract(%broadcast.232.3, %exponential.5.13), metadata={op_name="jit(_post_kpath)/jit(main)/vmap(while)/body/jit(_fun_jit)/sub" source_file="/global/homes/j/jackm/software/lorrax_C/src/bandstructure/htransform.py" source_line=281 scheduling_name="subtract.24.11"}
  %constant_111_1 = f64[] constant(0.063895210524236287)
  %broadcast.236.3 = f64[46,960]{1,0} broadcast(%constant_111_1), dimensions={}, metadata={op_name="jit(_post_kpath)/jit(main)/vmap(while)/body/jit(_fun_jit)/div" source_file="/global/homes/j/jackm/software/lorrax_C/src/bandstructure/htransform.py" source_line=281 scheduling_name="broadcast.236.3"}
  %multiply.87.9 = f64[46,960]{1,0} multiply(%subtract.24.11, %broadcast.236.3), metadata={op_name="jit(_post_kpath)/jit(main)/vmap(while)/body/jit(_fun_jit)/div" source_file="/global/homes/j/jackm/software/lorrax_C/src/bandstructure/htransform.py" source_line=281 scheduling_name="multiply.87.9"}
  %constant_112_1 = f64[] constant(0.96610514647531076)
  %broadcast.237.3 = f64[46,960]{1,0} broadcast(%constant_112_1), dimensions={}, metadata={scheduling_name="broadcast.237.3"}
  %subtract.25.3 = f64[46,960]{1,0} subtract(%broadcast.237.3, %erf.8.11), metadata={op_name="jit(_post_kpath)/jit(main)/vmap(while)/body/jit(_fun_jit)/sub" source_file="/global/homes/j/jackm/software/lorrax_C/src/bandstructure/htransform.py" source_line=282 scheduling_name="subtract.25.3"}
  %multiply.88.3 = f64[46,960]{1,0} multiply(%add.51.3, %subtract.25.3), metadata={op_name="jit(_post_kpath)/jit(main)/vmap(while)/body/jit(_fun_jit)/mul" source_file="/global/homes/j/jackm/software/lorrax_C/src/bandstructure/htransform.py" source_line=282 scheduling_name="multiply.88.3"}
  %constant_116_1 = f64[] constant(0.25877100532181968)
  %broadcast.238.3 = f64[46,960]{1,0} broadcast(%constant_116_1), dimensions={}, metadata={scheduling_name="broadcast.238.3"}
  %multiply.90.3 = f64[46,960]{1,0} multiply(%multiply.88.3, %broadcast.238.3), metadata={op_name="jit(_post_kpath)/jit(main)/vmap(while)/body/jit(_fun_jit)/div" source_file="/global/homes/j/jackm/software/lorrax_C/src/bandstructure/htransform.py" source_line=282 scheduling_name="multiply.90.3"}
  %add.52.7 = f64[46,960]{1,0} add(%multiply.87.9, %multiply.90.3), metadata={op_name="jit(_post_kpath)/jit(main)/vmap(while)/body/jit(_fun_jit)/add" source_file="/global/homes/j/jackm/software/lorrax_C/src/bandstructure/htransform.py" source_line=283 scheduling_name="add.52.7"}
  %constant_117_1 = f64[] constant(-0.65200366498500684)
  %broadcast.239.3 = f64[46,960]{1,0} broadcast(%constant_117_1), dimensions={}, metadata={op_name="jit(_post_kpath)/jit(main)/vmap(while)/body/jit(_fun_jit)/add" source_file="/global/homes/j/jackm/software/lorrax_C/src/bandstructure/htransform.py" source_line=279 scheduling_name="broadcast.239.3"}
  %add.53.3 = f64[46,960]{1,0} add(%param_0.17, %broadcast.239.3), metadata={op_name="jit(_post_kpath)/jit(main)/vmap(while)/body/jit(_fun_jit)/add" source_file="/global/homes/j/jackm/software/lorrax_C/src/bandstructure/htransform.py" source_line=279 scheduling_name="add.53.3"}
  %select.65.5 = f64[46,960]{1,0} select(%compare.51.7, %add.53.3, %broadcast.219.43), metadata={op_name="jit(_post_kpath)/jit(main)/vmap(while)/body/jit(_fun_jit)/jit(_where)/select_n" source_file="/global/homes/j/jackm/software/lorrax_C/src/bandstructure/htransform.py" source_line=284 scheduling_name="select.65.5"}
  %select.66.5 = f64[46,960]{1,0} select(%and.8.1, %add.52.7, %select.65.5), metadata={op_name="jit(_post_kpath)/jit(main)/vmap(while)/body/jit(_fun_jit)/jit(_where)/select_n" source_file="/global/homes/j/jackm/software/lorrax_C/src/bandstructure/htransform.py" source_line=285 scheduling_name="select.66.5"}
  %select.67.3 = f64[46,960]{1,0} select(%compare.49.3, %broadcast.219.43, %select.66.5), metadata={op_name="jit(_post_kpath)/jit(main)/vmap(while)/body/jit(_fun_jit)/jit(_where)/select_n" source_file="/global/homes/j/jackm/software/lorrax_C/src/bandstructure/htransform.py" source_line=286 scheduling_name="select.67.3"}
  %compare.53.3 = pred[46,960]{1,0} compare(%select.67.3, %broadcast.219.43), direction=GT, metadata={op_name="jit(_post_kpath)/jit(main)/vmap(while)/body/jit(_fun_jit)/gt" source_file="/global/homes/j/jackm/software/lorrax_C/src/bandstructure/htransform.py" source_line=287 scheduling_name="compare.53.3"}
  %select.68.7 = f64[46,960]{1,0} select(%compare.53.3, %broadcast.219.43, %select.67.3), metadata={op_name="jit(_post_kpath)/jit(main)/vmap(while)/body/jit(_fun_jit)/jit(_where)/select_n" source_file="/global/homes/j/jackm/software/lorrax_C/src/bandstructure/htransform.py" source_line=286 scheduling_name="select.68.7"}
  %param_1.98 = f64[46,960]{1,0} parameter(1), metadata={scheduling_name="param_1.98"}
  %subtract.26.5 = f64[46,960]{1,0} subtract(%select.68.7, %param_1.98), metadata={op_name="jit(_post_kpath)/jit(main)/vmap(while)/body/sub" source_file="/global/homes/j/jackm/software/lorrax_C/src/bandstructure/htransform.py" source_line=330 scheduling_name="subtract.26.5"}
  %negate.12.3 = f64[46,960]{1,0} negate(%subtract.26.5), metadata={op_name="jit(_post_kpath)/jit(main)/vmap(while)/body/neg" source_file="/global/homes/j/jackm/software/lorrax_C/src/bandstructure/htransform.py" source_line=332 scheduling_name="negate.12.3"}
  %divide.16.5 = f64[46,960]{1,0} divide(%negate.12.3, %select.64.7), metadata={op_name="jit(_post_kpath)/jit(main)/vmap(while)/body/div" source_file="/global/homes/j/jackm/software/lorrax_C/src/bandstructure/htransform.py" source_line=332 scheduling_name="divide.16.5"}
  %select.69.5 = f64[46,960]{1,0} select(%compare.52.3, %divide.16.5, %broadcast.219.43), metadata={op_name="jit(_post_kpath)/jit(main)/vmap(while)/body/jit(_fun_jit)/jit(_where)/select_n" source_file="/global/homes/j/jackm/software/lorrax_C/src/bandstructure/htransform.py" source_line=284 scheduling_name="select.69.5"}
  %constant_125_1 = f64[] constant(0.32823802595442442)
  %broadcast.244.1 = f64[46,960]{1,0} broadcast(%constant_125_1), dimensions={}, metadata={op_name="jit(_post_kpath)/jit(main)/vmap(while)/body/jit(clip)/min" source_file="/global/homes/j/jackm/software/lorrax_C/src/bandstructure/htransform.py" source_line=333 scheduling_name="broadcast.244.1"}
  %clamp.5.3 = f64[46,960]{1,0} clamp(%broadcast.217.1, %select.69.5, %broadcast.244.1), metadata={op_name="jit(_post_kpath)/jit(main)/vmap(while)/body/jit(clip)/min" source_file="/global/homes/j/jackm/software/lorrax_C/src/bandstructure/htransform.py" source_line=333 scheduling_name="clamp.5.3"}
  ROOT %add.54.1 = f64[46,960]{1,0} add(%param_0.17, %clamp.5.3), metadata={op_name="jit(_post_kpath)/jit(main)/vmap(while)/body/add" source_file="/global/homes/j/jackm/software/lorrax_C/src/bandstructure/htransform.py" source_line=334 scheduling_name="add.54.1"}
}

%fused_add.1 (param_0.83: s64[]) -> s64[] {
  %param_0.83 = s64[] parameter(0), metadata={scheduling_name="param_0.83"}
  %constant_90_1 = s64[] constant(1)
  ROOT %add.48.1 = s64[] add(%param_0.83, %constant_90_1), metadata={op_name="jit(_post_kpath)/jit(main)/vmap(while)/body/add" source_file="/global/homes/j/jackm/software/lorrax_C/src/bandstructure/htransform.py" source_line=336 scheduling_name="add.48.1"}
}

%region_0.183_spmd (param.1.0: (s64[], f64[46,960], f64[46,960])) -> (s64[], f64[46,960], f64[46,960]) {
  %param.1.0 = (s64[], f64[46,960]{1,0}, f64[46,960]{1,0}) parameter(0), metadata={scheduling_name="param.1.0"}
  %get-tuple-element.12 = s64[] get-tuple-element(%param.1.0), index=0, metadata={scheduling_name="get-tuple-element.12"}
  %loop_add_fusion.1 = s64[] fusion(%get-tuple-element.12), kind=kLoop, calls=%fused_add.1, metadata={op_name="jit(_post_kpath)/jit(main)/vmap(while)/body/add" source_file="/global/homes/j/jackm/software/lorrax_C/src/bandstructure/htransform.py" source_line=336 scheduling_name="loop_add_fusion.1"}
  %get-tuple-element.17 = f64[46,960]{1,0} get-tuple-element(%param.1.0), index=2, metadata={scheduling_name="get-tuple-element.17"}
  %get-tuple-element.13 = f64[46,960]{1,0} get-tuple-element(%param.1.0), index=1, metadata={scheduling_name="get-tuple-element.13"}
  %loop_add_fusion = f64[46,960]{1,0} fusion(%get-tuple-element.13, %get-tuple-element.17), kind=kLoop, calls=%fused_add, metadata={op_name="jit(_post_kpath)/jit(main)/vmap(while)/body/add" source_file="/global/homes/j/jackm/software/lorrax_C/src/bandstructure/htransform.py" source_line=334 scheduling_name="loop_add_fusion"}
  ROOT %tuple.6 = (s64[], f64[46,960]{1,0}, f64[46,960]{1,0}) tuple(%loop_add_fusion.1, %loop_add_fusion, %get-tuple-element.17), metadata={scheduling_name="tuple.6"}
}

%fused_compare (param_0: s64[]) -> pred[] {
  %param_0 = s64[] parameter(0), metadata={scheduling_name="param_0"}
  %constant_88_1 = s64[] constant(50)
  ROOT %compare.48.1 = pred[] compare(%param_0, %constant_88_1), direction=LT, metadata={op_name="jit(_post_kpath)/jit(main)/vmap(while)/cond/lt" source_file="/global/homes/j/jackm/software/lorrax_C/src/bandstructure/htransform.py" source_line=336 scheduling_name="compare.48.1"}
}

%region_1.192_spmd (param.8: (s64[], f64[46,960], f64[46,960])) -> pred[] {
  %param.8 = (s64[], f64[46,960]{1,0}, f64[46,960]{1,0}) parameter(0), metadata={scheduling_name="param.8"}
  %get-tuple-element.6 = s64[] get-tuple-element(%param.8), index=0, metadata={scheduling_name="get-tuple-element.6"}
  ROOT %loop_compare_fusion = pred[] fusion(%get-tuple-element.6), kind=kLoop, calls=%fused_compare, metadata={op_name="jit(_post_kpath)/jit(main)/vmap(while)/cond/lt" source_file="/global/homes/j/jackm/software/lorrax_C/src/bandstructure/htransform.py" source_line=336 scheduling_name="loop_compare_fusion"}
}

%fused_slice (param_0.107: f64[4,48,240]) -> f64[6,960] {
  %param_0.107 = f64[4,48,240]{2,1,0} parameter(0), metadata={scheduling_name="param_0.107"}
  %transpose.29.1 = f64[48,4,240]{2,1,0} transpose(%param_0.107), dimensions={1,0,2}, metadata={op_name="jit(_post_kpath)/jit(main)/concatenate" source_file="/global/homes/j/jackm/software/lorrax_C/src/bandstructure/htransform.py" source_line=710 scheduling_name="transpose.29.1"}
  %bitcast.846.1 = f64[48,960]{1,0} bitcast(%transpose.29.1), metadata={scheduling_name="bitcast.846.1"}
  ROOT %slice.17.1 = f64[6,960]{1,0} slice(%bitcast.846.1), slice={[42:48], [0:960]}, metadata={op_name="jit(_post_kpath)/jit(main)/slice" source_file="/global/homes/j/jackm/software/lorrax_C/src/bandstructure/htransform.py" source_line=710 scheduling_name="slice.17.1"}
}

%fused_concatenate (param_0.98: f64[8,4,240], param_1.103: f64[8,4,240], param_2.83: f64[8,4,240], param_3.60: f64[8,4,240], param_4.44: f64[8,4,240], param_5.54: f64[8,4,240]) -> f64[192,240] {
  %param_5.54 = f64[8,4,240]{2,0,1} parameter(5), metadata={scheduling_name="param_5.54"}
  %bitcast.783.1 = f64[32,240]{1,0} bitcast(%param_5.54), metadata={scheduling_name="bitcast.783.1"}
  %param_4.44 = f64[8,4,240]{2,0,1} parameter(4), metadata={scheduling_name="param_4.44"}
  %bitcast.794.1 = f64[32,240]{1,0} bitcast(%param_4.44), metadata={scheduling_name="bitcast.794.1"}
  %param_3.60 = f64[8,4,240]{2,0,1} parameter(3), metadata={scheduling_name="param_3.60"}
  %bitcast.805.1 = f64[32,240]{1,0} bitcast(%param_3.60), metadata={scheduling_name="bitcast.805.1"}
  %param_2.83 = f64[8,4,240]{2,0,1} parameter(2), metadata={scheduling_name="param_2.83"}
  %bitcast.816.1 = f64[32,240]{1,0} bitcast(%param_2.83), metadata={scheduling_name="bitcast.816.1"}
  %param_1.103 = f64[8,4,240]{2,0,1} parameter(1), metadata={scheduling_name="param_1.103"}
  %bitcast.827.1 = f64[32,240]{1,0} bitcast(%param_1.103), metadata={scheduling_name="bitcast.827.1"}
  %param_0.98 = f64[8,4,240]{2,0,1} parameter(0), metadata={scheduling_name="param_0.98"}
  %bitcast.838.1 = f64[32,240]{1,0} bitcast(%param_0.98), metadata={scheduling_name="bitcast.838.1"}
  ROOT %concatenate.6.1 = f64[192,240]{1,0} concatenate(%bitcast.783.1, %bitcast.794.1, %bitcast.805.1, %bitcast.816.1, %bitcast.827.1, /*index=5*/%bitcast.838.1), dimensions={0}, metadata={op_name="jit(_post_kpath)/jit(main)/concatenate" source_file="/global/homes/j/jackm/software/lorrax_C/src/bandstructure/htransform.py" source_line=710 scheduling_name="concatenate.6.1"}
}

%fused_transpose (param_0.89: f64[8,960]) -> f64[4,8,240] {
  %param_0.89 = f64[8,960]{1,0} parameter(0), metadata={scheduling_name="param_0.89"}
  %bitcast.831.1 = f64[8,4,240]{2,1,0} bitcast(%param_0.89), metadata={scheduling_name="bitcast.831.1"}
  ROOT %transpose.28.1 = f64[4,8,240]{2,1,0} transpose(%bitcast.831.1), dimensions={1,0,2}, metadata={op_name="batches[5]" scheduling_name="transpose.28.1"}
}

%fused_transpose.1 (param_0.91: f64[8,960]) -> f64[4,8,240] {
  %param_0.91 = f64[8,960]{1,0} parameter(0), metadata={scheduling_name="param_0.91"}
  %bitcast.820.1 = f64[8,4,240]{2,1,0} bitcast(%param_0.91), metadata={scheduling_name="bitcast.820.1"}
  ROOT %transpose.27.1 = f64[4,8,240]{2,1,0} transpose(%bitcast.820.1), dimensions={1,0,2}, metadata={op_name="batches[4]" scheduling_name="transpose.27.1"}
}

%fused_transpose.2 (param_0.93: f64[8,960]) -> f64[4,8,240] {
  %param_0.93 = f64[8,960]{1,0} parameter(0), metadata={scheduling_name="param_0.93"}
  %bitcast.809.1 = f64[8,4,240]{2,1,0} bitcast(%param_0.93), metadata={scheduling_name="bitcast.809.1"}
  ROOT %transpose.26.1 = f64[4,8,240]{2,1,0} transpose(%bitcast.809.1), dimensions={1,0,2}, metadata={op_name="batches[3]" scheduling_name="transpose.26.1"}
}

%fused_transpose.3 (param_0.95: f64[8,960]) -> f64[4,8,240] {
  %param_0.95 = f64[8,960]{1,0} parameter(0), metadata={scheduling_name="param_0.95"}
  %bitcast.798.1 = f64[8,4,240]{2,1,0} bitcast(%param_0.95), metadata={scheduling_name="bitcast.798.1"}
  ROOT %transpose.25.1 = f64[4,8,240]{2,1,0} transpose(%bitcast.798.1), dimensions={1,0,2}, metadata={op_name="batches[2]" scheduling_name="transpose.25.1"}
}

%fused_transpose.4 (param_0.97: f64[8,960]) -> f64[4,8,240] {
  %param_0.97 = f64[8,960]{1,0} parameter(0), metadata={scheduling_name="param_0.97"}
  %bitcast.787.1 = f64[8,4,240]{2,1,0} bitcast(%param_0.97), metadata={scheduling_name="bitcast.787.1"}
  ROOT %transpose.24.1 = f64[4,8,240]{2,1,0} transpose(%bitcast.787.1), dimensions={1,0,2}, metadata={op_name="batches[1]" scheduling_name="transpose.24.1"}
}

%fused_transpose.5 (param_0.100: f64[8,960]) -> f64[4,8,240] {
  %param_0.100 = f64[8,960]{1,0} parameter(0), metadata={scheduling_name="param_0.100"}
  %bitcast.776.1 = f64[8,4,240]{2,1,0} bitcast(%param_0.100), metadata={scheduling_name="bitcast.776.1"}
  ROOT %transpose.23.1 = f64[4,8,240]{2,1,0} transpose(%bitcast.776.1), dimensions={1,0,2}, metadata={op_name="batches[0]" scheduling_name="transpose.23.1"}
}

%fused_dynamic_slice (param_0.121: f64[6,960], param_1.132: f64[4,48,240], param_2.110: u32[]) -> f64[46,960] {
  %param_0.121 = f64[6,960]{1,0} parameter(0), metadata={scheduling_name="param_0.121"}
  %param_1.132 = f64[4,48,240]{2,1,0} parameter(1), metadata={scheduling_name="param_1.132"}
  %slice.18.1 = f64[4,46,240]{2,1,0} slice(%param_1.132), slice={[0:4], [0:46], [0:240]}, metadata={op_name="jit(_post_kpath)/jit(main)/slice" source_file="/global/homes/j/jackm/software/lorrax_C/src/bandstructure/htransform.py" source_line=710 scheduling_name="slice.18.1"}
  %transpose.30.1 = f64[46,4,240]{2,1,0} transpose(%slice.18.1), dimensions={1,0,2}, metadata={op_name="jit(_post_kpath)/jit(main)/slice" source_file="/global/homes/j/jackm/software/lorrax_C/src/bandstructure/htransform.py" source_line=710 scheduling_name="transpose.30.1"}
  %bitcast.855.3 = f64[46,960]{1,0} bitcast(%transpose.30.1), metadata={scheduling_name="bitcast.855.3"}
  %concatenate.7.3 = f64[52,960]{1,0} concatenate(%param_0.121, %bitcast.855.3), dimensions={0}, metadata={op_name="jit(_post_kpath)/jit(main)/slice" source_file="/global/homes/j/jackm/software/lorrax_C/src/bandstructure/htransform.py" source_line=710 scheduling_name="concatenate.7.3"}
  %param_2.110 = u32[] parameter(2), metadata={scheduling_name="param_2.110"}
  %convert.3.1 = s32[] convert(%param_2.110), metadata={op_name="jit(_post_kpath)/jit(main)/slice" source_file="/global/homes/j/jackm/software/lorrax_C/src/bandstructure/htransform.py" source_line=710 scheduling_name="convert.3.1"}
  %constant_217_1 = s32[] constant(-2), metadata={op_name="jit(_post_kpath)/jit(main)/slice" source_file="/global/homes/j/jackm/software/lorrax_C/src/bandstructure/htransform.py" source_line=710}
  %multiply.91.1 = s32[] multiply(%convert.3.1, %constant_217_1), metadata={op_name="jit(_post_kpath)/jit(main)/slice" source_file="/global/homes/j/jackm/software/lorrax_C/src/bandstructure/htransform.py" source_line=710 scheduling_name="multiply.91.1"}
  %constant_218_1 = s32[] constant(6), metadata={op_name="jit(_post_kpath)/jit(main)/slice" source_file="/global/homes/j/jackm/software/lorrax_C/src/bandstructure/htransform.py" source_line=710}
  %add.55.1 = s32[] add(%multiply.91.1, %constant_218_1), metadata={op_name="jit(_post_kpath)/jit(main)/slice" source_file="/global/homes/j/jackm/software/lorrax_C/src/bandstructure/htransform.py" source_line=710 scheduling_name="add.55.1"}
  %constant_216_1 = s32[] constant(0), metadata={op_name="jit(_post_kpath)/jit(main)/slice" source_file="/global/homes/j/jackm/software/lorrax_C/src/bandstructure/htransform.py" source_line=710}
  ROOT %dynamic-slice.19.1 = f64[46,960]{1,0} dynamic-slice(%concatenate.7.3, %add.55.1, %constant_216_1), dynamic_slice_sizes={46,960}, metadata={op_name="jit(_post_kpath)/jit(main)/slice" source_file="/global/homes/j/jackm/software/lorrax_C/src/bandstructure/htransform.py" source_line=710 scheduling_name="dynamic-slice.19.1"}
}

%fused_select (param_0.122: f64[46,960]) -> u64[46,960] {
  %param_0.122 = f64[46,960]{1,0} parameter(0), metadata={scheduling_name="param_0.122"}
  %compare.54.7 = pred[46,960]{1,0} compare(%param_0.122, %param_0.122), direction=NE, metadata={op_name="jit(_post_kpath)/jit(main)/while" source_file="/global/homes/j/jackm/software/lorrax_C/src/bandstructure/htransform.py" source_line=336 scheduling_name="compare.54.7"}
  %constant_226_1 = f64[] constant(nan), metadata={op_name="jit(_post_kpath)/jit(main)/while" source_file="/global/homes/j/jackm/software/lorrax_C/src/bandstructure/htransform.py" source_line=336}
  %broadcast.246.7 = f64[46,960]{1,0} broadcast(%constant_226_1), dimensions={}, metadata={op_name="jit(_post_kpath)/jit(main)/while" source_file="/global/homes/j/jackm/software/lorrax_C/src/bandstructure/htransform.py" source_line=336 scheduling_name="broadcast.246.7"}
  %constant_225_1 = f64[] constant(0), metadata={op_name="jit(_post_kpath)/jit(main)/while" source_file="/global/homes/j/jackm/software/lorrax_C/src/bandstructure/htransform.py" source_line=336}
  %broadcast.247.15 = f64[46,960]{1,0} broadcast(%constant_225_1), dimensions={}, metadata={op_name="jit(_post_kpath)/jit(main)/while" source_file="/global/homes/j/jackm/software/lorrax_C/src/bandstructure/htransform.py" source_line=336 scheduling_name="broadcast.247.15"}
  %compare.55.3 = pred[46,960]{1,0} compare(%param_0.122, %broadcast.247.15), direction=EQ, metadata={op_name="jit(_post_kpath)/jit(main)/while" source_file="/global/homes/j/jackm/software/lorrax_C/src/bandstructure/htransform.py" source_line=336 scheduling_name="compare.55.3"}
  %select.70.9 = f64[46,960]{1,0} select(%compare.55.3, %broadcast.247.15, %param_0.122), metadata={op_name="jit(_post_kpath)/jit(main)/while" source_file="/global/homes/j/jackm/software/lorrax_C/src/bandstructure/htransform.py" source_line=336 scheduling_name="select.70.9"}
  %select.71.7 = f64[46,960]{1,0} select(%compare.54.7, %broadcast.246.7, %select.70.9), metadata={op_name="jit(_post_kpath)/jit(main)/while" source_file="/global/homes/j/jackm/software/lorrax_C/src/bandstructure/htransform.py" source_line=336 scheduling_name="select.71.7"}
  %compare.56.3 = pred[46,960]{1,0} compare(%select.71.7, %broadcast.247.15), direction=LT, metadata={op_name="jit(_post_kpath)/jit(main)/while" source_file="/global/homes/j/jackm/software/lorrax_C/src/bandstructure/htransform.py" source_line=336 scheduling_name="compare.56.3"}
  %bitcast-convert.5.1 = u64[46,960]{1,0} bitcast-convert(%select.71.7), metadata={op_name="jit(_post_kpath)/jit(main)/while" source_file="/global/homes/j/jackm/software/lorrax_C/src/bandstructure/htransform.py" source_line=336 scheduling_name="bitcast-convert.5.1"}
  %not.12.1 = u64[46,960]{1,0} not(%bitcast-convert.5.1), metadata={op_name="jit(_post_kpath)/jit(main)/while" source_file="/global/homes/j/jackm/software/lorrax_C/src/bandstructure/htransform.py" source_line=336 scheduling_name="not.12.1"}
  %constant_227_1 = u64[] constant(9223372036854775808), metadata={op_name="jit(_post_kpath)/jit(main)/while" source_file="/global/homes/j/jackm/software/lorrax_C/src/bandstructure/htransform.py" source_line=336}
  %broadcast.250.1 = u64[46,960]{1,0} broadcast(%constant_227_1), dimensions={}, metadata={op_name="jit(_post_kpath)/jit(main)/while" source_file="/global/homes/j/jackm/software/lorrax_C/src/bandstructure/htransform.py" source_line=336 scheduling_name="broadcast.250.1"}
  %xor.5.1 = u64[46,960]{1,0} xor(%broadcast.250.1, %bitcast-convert.5.1), metadata={op_name="jit(_post_kpath)/jit(main)/while" source_file="/global/homes/j/jackm/software/lorrax_C/src/bandstructure/htransform.py" source_line=336 scheduling_name="xor.5.1"}
  ROOT %select.72.1 = u64[46,960]{1,0} select(%compare.56.3, %not.12.1, %xor.5.1), metadata={op_name="jit(_post_kpath)/jit(main)/while" source_file="/global/homes/j/jackm/software/lorrax_C/src/bandstructure/htransform.py" source_line=336 scheduling_name="select.72.1"}
}

%fused_add.2 (param_0.113: f64[46,960]) -> f64[46,960] {
  %param_0.113 = f64[46,960]{1,0} parameter(0), metadata={scheduling_name="param_0.113"}
  %constant_219_1 = f64[] constant(0.98024169093943125)
  %broadcast.245.1 = f64[46,960]{1,0} broadcast(%constant_219_1), dimensions={}, metadata={scheduling_name="broadcast.245.1"}
  ROOT %add.56.1 = f64[46,960]{1,0} add(%param_0.113, %broadcast.245.1), metadata={op_name="jit(_post_kpath)/jit(main)/add" source_file="/global/homes/j/jackm/software/lorrax_C/src/bandstructure/htransform.py" source_line=327 scheduling_name="add.56.1"}
}

%async_computation (param_0.123: f64[8,4,240]) -> f64[8,4,240] {
  %param_0.123 = f64[8,4,240]{2,0,1} parameter(0), metadata={scheduling_name="param_0.123"}
  ROOT %all-to-all.8 = f64[8,4,240]{2,0,1} all-to-all(%param_0.123), channel_id=1, replica_groups={{0,1,2,3}}, dimensions={1}, metadata={op_name="jit(_post_kpath)/jit(main)/concatenate" source_file="/global/homes/j/jackm/software/lorrax_C/src/bandstructure/htransform.py" source_line=710 scheduling_name="all-to-all.8"}
}

%async_computation.1 (param_0.124: f64[8,4,240]) -> f64[8,4,240] {
  %param_0.124 = f64[8,4,240]{2,0,1} parameter(0), metadata={scheduling_name="param_0.124"}
  ROOT %all-to-all.1.1 = f64[8,4,240]{2,0,1} all-to-all(%param_0.124), channel_id=2, replica_groups={{0,1,2,3}}, dimensions={1}, metadata={op_name="jit(_post_kpath)/jit(main)/concatenate" source_file="/global/homes/j/jackm/software/lorrax_C/src/bandstructure/htransform.py" source_line=710 scheduling_name="all-to-all.1.1"}
}

%async_computation.2 (param_0.125: f64[8,4,240]) -> f64[8,4,240] {
  %param_0.125 = f64[8,4,240]{2,0,1} parameter(0), metadata={scheduling_name="param_0.125"}
  ROOT %all-to-all.2.1 = f64[8,4,240]{2,0,1} all-to-all(%param_0.125), channel_id=3, replica_groups={{0,1,2,3}}, dimensions={1}, metadata={op_name="jit(_post_kpath)/jit(main)/concatenate" source_file="/global/homes/j/jackm/software/lorrax_C/src/bandstructure/htransform.py" source_line=710 scheduling_name="all-to-all.2.1"}
}

%async_computation.3 (param_0.126: f64[8,4,240]) -> f64[8,4,240] {
  %param_0.126 = f64[8,4,240]{2,0,1} parameter(0), metadata={scheduling_name="param_0.126"}
  ROOT %all-to-all.3.1 = f64[8,4,240]{2,0,1} all-to-all(%param_0.126), channel_id=4, replica_groups={{0,1,2,3}}, dimensions={1}, metadata={op_name="jit(_post_kpath)/jit(main)/concatenate" source_file="/global/homes/j/jackm/software/lorrax_C/src/bandstructure/htransform.py" source_line=710 scheduling_name="all-to-all.3.1"}
}

%async_computation.4 (param_0.127: f64[8,4,240]) -> f64[8,4,240] {
  %param_0.127 = f64[8,4,240]{2,0,1} parameter(0), metadata={scheduling_name="param_0.127"}
  ROOT %all-to-all.4.1 = f64[8,4,240]{2,0,1} all-to-all(%param_0.127), channel_id=5, replica_groups={{0,1,2,3}}, dimensions={1}, metadata={op_name="jit(_post_kpath)/jit(main)/concatenate" source_file="/global/homes/j/jackm/software/lorrax_C/src/bandstructure/htransform.py" source_line=710 scheduling_name="all-to-all.4.1"}
}

%async_computation.5 (param_0.128: f64[8,4,240]) -> f64[8,4,240] {
  %param_0.128 = f64[8,4,240]{2,0,1} parameter(0), metadata={scheduling_name="param_0.128"}
  ROOT %all-to-all.5.1 = f64[8,4,240]{2,0,1} all-to-all(%param_0.128), channel_id=6, replica_groups={{0,1,2,3}}, dimensions={1}, metadata={op_name="jit(_post_kpath)/jit(main)/concatenate" source_file="/global/homes/j/jackm/software/lorrax_C/src/bandstructure/htransform.py" source_line=710 scheduling_name="all-to-all.5.1"}
}

%async_computation.6 (param_0.129: f64[4,48,240]) -> f64[4,48,240] {
  %param_0.129 = f64[4,48,240]{2,1,0} parameter(0), metadata={scheduling_name="param_0.129"}
  ROOT %all-to-all.6.1 = f64[4,48,240]{2,1,0} all-to-all(%param_0.129), channel_id=7, replica_groups={{0,1,2,3}}, dimensions={0}, metadata={op_name="jit(_post_kpath)/jit(main)/concatenate" source_file="/global/homes/j/jackm/software/lorrax_C/src/bandstructure/htransform.py" source_line=710 scheduling_name="all-to-all.6.1"}
}

%wrapped_slice_computation (param_0.130: f64[46,960]) -> f64[46,60] {
  %param_0.130 = f64[46,960]{1,0} parameter(0), metadata={scheduling_name="param_0.130"}
  ROOT %slice.20.1 = f64[46,60]{1,0} slice(%param_0.130), slice={[0:46], [0:60]}, metadata={op_name="jit(_post_kpath)/jit(main)/slice" source_file="/global/homes/j/jackm/software/lorrax_C/src/bandstructure/htransform.py" source_line=712 scheduling_name="slice.20.1"}
}

%wrapped_slice_computation.1 (param_0.131: f64[184,960]) -> f64[181,960] {
  %param_0.131 = f64[184,960]{1,0} parameter(0), metadata={scheduling_name="param_0.131"}
  ROOT %slice.19.1 = f64[181,960]{1,0} slice(%param_0.131), slice={[0:181], [0:960]}, metadata={scheduling_name="slice.19.1"}
}

%wrapped_slice_computation.2 (param_0.132: f64[184,60]) -> f64[181,60] {
  %param_0.132 = f64[184,60]{1,0} parameter(0), metadata={scheduling_name="param_0.132"}
  ROOT %slice.21.1 = f64[181,60]{1,0} slice(%param_0.132), slice={[0:181], [0:60]}, metadata={scheduling_name="slice.21.1"}
}

ENTRY %main.222_spmd (param.2.0: f64[8,960], param.3.0: f64[8,960], param.4.0: f64[8,960], param.5.0: f64[8,960], param.6.0: f64[8,960], param.7.0: f64[8,960]) -> (f64[181,960], f64[181,60]) {
  %param.2.0 = f64[8,960]{1,0} parameter(0), sharding={devices=[4,1]<=[4]}, metadata={op_name="batches[0]" scheduling_name="param.2.0"}
  %param.3.0 = f64[8,960]{1,0} parameter(1), sharding={devices=[4,1]<=[4]}, metadata={op_name="batches[1]" scheduling_name="param.3.0"}
  %param.4.0 = f64[8,960]{1,0} parameter(2), sharding={devices=[4,1]<=[4]}, metadata={op_name="batches[2]" scheduling_name="param.4.0"}
  %param.5.0 = f64[8,960]{1,0} parameter(3), sharding={devices=[4,1]<=[4]}, metadata={op_name="batches[3]" scheduling_name="param.5.0"}
  %param.6.0 = f64[8,960]{1,0} parameter(4), sharding={devices=[4,1]<=[4]}, metadata={op_name="batches[4]" scheduling_name="param.6.0"}
  %param.7.0 = f64[8,960]{1,0} parameter(5), sharding={devices=[4,1]<=[4]}, metadata={op_name="batches[5]" scheduling_name="param.7.0"}
  %constant_127_0 = s64[] constant(0)
  %loop_transpose_fusion.5 = f64[4,8,240]{2,1,0} fusion(%param.2.0), kind=kLoop, calls=%fused_transpose.5, metadata={op_name="batches[0]" deduplicated_name="loop_transpose_fusion" scheduling_name="loop_transpose_fusion.5"}
  %bitcast.780.0 = f64[8,4,240]{2,0,1} bitcast(%loop_transpose_fusion.5), metadata={scheduling_name="bitcast.780.0"}
  %all-to-all-start = ((f64[8,4,240]{2,0,1}), f64[8,4,240]{2,0,1}) async-start(%bitcast.780.0), calls=%async_computation, metadata={op_name="jit(_post_kpath)/jit(main)/concatenate" source_file="/global/homes/j/jackm/software/lorrax_C/src/bandstructure/htransform.py" source_line=710 scheduling_name="all-to-all-start"}, backend_config={"operation_queue_id":"0","wait_on_operation_queues":[],"collective_backend_config":{"is_sync":false,"no_parallel_custom_call":true,"is_pipelined":false,"reification_cost":[]},"force_earliest_schedule":false}
  %loop_transpose_fusion.4 = f64[4,8,240]{2,1,0} fusion(%param.3.0), kind=kLoop, calls=%fused_transpose.4, metadata={op_name="batches[1]" deduplicated_name="loop_transpose_fusion" scheduling_name="loop_transpose_fusion.4"}
  %all-to-all-done = f64[8,4,240]{2,0,1} async-done(%all-to-all-start), metadata={op_name="jit(_post_kpath)/jit(main)/concatenate" source_file="/global/homes/j/jackm/software/lorrax_C/src/bandstructure/htransform.py" source_line=710 scheduling_name="all-to-all-done"}
  %bitcast.791.0 = f64[8,4,240]{2,0,1} bitcast(%loop_transpose_fusion.4), metadata={scheduling_name="bitcast.791.0"}
  %all-to-all-start.1 = ((f64[8,4,240]{2,0,1}), f64[8,4,240]{2,0,1}) async-start(%bitcast.791.0), calls=%async_computation.1, metadata={op_name="jit(_post_kpath)/jit(main)/concatenate" source_file="/global/homes/j/jackm/software/lorrax_C/src/bandstructure/htransform.py" source_line=710 scheduling_name="all-to-all-start.1"}, backend_config={"operation_queue_id":"0","wait_on_operation_queues":[],"collective_backend_config":{"is_sync":false,"no_parallel_custom_call":true,"is_pipelined":false,"reification_cost":[]},"force_earliest_schedule":false}
  %loop_transpose_fusion.3 = f64[4,8,240]{2,1,0} fusion(%param.4.0), kind=kLoop, calls=%fused_transpose.3, metadata={op_name="batches[2]" deduplicated_name="loop_transpose_fusion" scheduling_name="loop_transpose_fusion.3"}
  %all-to-all-done.1 = f64[8,4,240]{2,0,1} async-done(%all-to-all-start.1), metadata={op_name="jit(_post_kpath)/jit(main)/concatenate" source_file="/global/homes/j/jackm/software/lorrax_C/src/bandstructure/htransform.py" source_line=710 scheduling_name="all-to-all-done.1"}
  %bitcast.802.0 = f64[8,4,240]{2,0,1} bitcast(%loop_transpose_fusion.3), metadata={scheduling_name="bitcast.802.0"}
  %all-to-all-start.2 = ((f64[8,4,240]{2,0,1}), f64[8,4,240]{2,0,1}) async-start(%bitcast.802.0), calls=%async_computation.2, metadata={op_name="jit(_post_kpath)/jit(main)/concatenate" source_file="/global/homes/j/jackm/software/lorrax_C/src/bandstructure/htransform.py" source_line=710 scheduling_name="all-to-all-start.2"}, backend_config={"operation_queue_id":"0","wait_on_operation_queues":[],"collective_backend_config":{"is_sync":false,"no_parallel_custom_call":true,"is_pipelined":false,"reification_cost":[]},"force_earliest_schedule":false}
  %loop_transpose_fusion.2 = f64[4,8,240]{2,1,0} fusion(%param.5.0), kind=kLoop, calls=%fused_transpose.2, metadata={op_name="batches[3]" deduplicated_name="loop_transpose_fusion" scheduling_name="loop_transpose_fusion.2"}
  %all-to-all-done.2 = f64[8,4,240]{2,0,1} async-done(%all-to-all-start.2), metadata={op_name="jit(_post_kpath)/jit(main)/concatenate" source_file="/global/homes/j/jackm/software/lorrax_C/src/bandstructure/htransform.py" source_line=710 scheduling_name="all-to-all-done.2"}
  %bitcast.813.0 = f64[8,4,240]{2,0,1} bitcast(%loop_transpose_fusion.2), metadata={scheduling_name="bitcast.813.0"}
  %all-to-all-start.3 = ((f64[8,4,240]{2,0,1}), f64[8,4,240]{2,0,1}) async-start(%bitcast.813.0), calls=%async_computation.3, metadata={op_name="jit(_post_kpath)/jit(main)/concatenate" source_file="/global/homes/j/jackm/software/lorrax_C/src/bandstructure/htransform.py" source_line=710 scheduling_name="all-to-all-start.3"}, backend_config={"operation_queue_id":"0","wait_on_operation_queues":[],"collective_backend_config":{"is_sync":false,"no_parallel_custom_call":true,"is_pipelined":false,"reification_cost":[]},"force_earliest_schedule":false}
  %loop_transpose_fusion.1 = f64[4,8,240]{2,1,0} fusion(%param.6.0), kind=kLoop, calls=%fused_transpose.1, metadata={op_name="batches[4]" deduplicated_name="loop_transpose_fusion" scheduling_name="loop_transpose_fusion.1"}
  %all-to-all-done.3 = f64[8,4,240]{2,0,1} async-done(%all-to-all-start.3), metadata={op_name="jit(_post_kpath)/jit(main)/concatenate" source_file="/global/homes/j/jackm/software/lorrax_C/src/bandstructure/htransform.py" source_line=710 scheduling_name="all-to-all-done.3"}
  %bitcast.824.0 = f64[8,4,240]{2,0,1} bitcast(%loop_transpose_fusion.1), metadata={scheduling_name="bitcast.824.0"}
  %all-to-all-start.4 = ((f64[8,4,240]{2,0,1}), f64[8,4,240]{2,0,1}) async-start(%bitcast.824.0), calls=%async_computation.4, metadata={op_name="jit(_post_kpath)/jit(main)/concatenate" source_file="/global/homes/j/jackm/software/lorrax_C/src/bandstructure/htransform.py" source_line=710 scheduling_name="all-to-all-start.4"}, backend_config={"operation_queue_id":"0","wait_on_operation_queues":[],"collective_backend_config":{"is_sync":false,"no_parallel_custom_call":true,"is_pipelined":false,"reification_cost":[]},"force_earliest_schedule":false}
  %loop_transpose_fusion = f64[4,8,240]{2,1,0} fusion(%param.7.0), kind=kLoop, calls=%fused_transpose, metadata={op_name="batches[5]" deduplicated_name="loop_transpose_fusion" scheduling_name="loop_transpose_fusion"}
  %all-to-all-done.4 = f64[8,4,240]{2,0,1} async-done(%all-to-all-start.4), metadata={op_name="jit(_post_kpath)/jit(main)/concatenate" source_file="/global/homes/j/jackm/software/lorrax_C/src/bandstructure/htransform.py" source_line=710 scheduling_name="all-to-all-done.4"}
  %bitcast.835.0 = f64[8,4,240]{2,0,1} bitcast(%loop_transpose_fusion), metadata={scheduling_name="bitcast.835.0"}
  %all-to-all-start.5 = ((f64[8,4,240]{2,0,1}), f64[8,4,240]{2,0,1}) async-start(%bitcast.835.0), calls=%async_computation.5, metadata={op_name="jit(_post_kpath)/jit(main)/concatenate" source_file="/global/homes/j/jackm/software/lorrax_C/src/bandstructure/htransform.py" source_line=710 scheduling_name="all-to-all-start.5"}, backend_config={"operation_queue_id":"0","wait_on_operation_queues":[],"collective_backend_config":{"is_sync":true,"no_parallel_custom_call":false,"is_pipelined":false,"reification_cost":[]},"force_earliest_schedule":false}
  %all-to-all-done.5 = f64[8,4,240]{2,0,1} async-done(%all-to-all-start.5), metadata={op_name="jit(_post_kpath)/jit(main)/concatenate" source_file="/global/homes/j/jackm/software/lorrax_C/src/bandstructure/htransform.py" source_line=710 scheduling_name="all-to-all-done.5"}
  %loop_concatenate_fusion = f64[192,240]{1,0} fusion(%all-to-all-done.5, %all-to-all-done.4, %all-to-all-done.3, %all-to-all-done.2, %all-to-all-done.1, /*index=5*/%all-to-all-done), kind=kLoop, calls=%fused_concatenate, metadata={op_name="jit(_post_kpath)/jit(main)/concatenate" source_file="/global/homes/j/jackm/software/lorrax_C/src/bandstructure/htransform.py" source_line=710 scheduling_name="loop_concatenate_fusion"}
  %bitcast.842.0 = f64[4,48,240]{2,1,0} bitcast(%loop_concatenate_fusion), metadata={scheduling_name="bitcast.842.0"}
  %all-to-all-start.6 = ((f64[4,48,240]{2,1,0}), f64[4,48,240]{2,1,0}) async-start(%bitcast.842.0), calls=%async_computation.6, metadata={op_name="jit(_post_kpath)/jit(main)/concatenate" source_file="/global/homes/j/jackm/software/lorrax_C/src/bandstructure/htransform.py" source_line=710 scheduling_name="all-to-all-start.6"}, backend_config={"operation_queue_id":"0","wait_on_operation_queues":[],"collective_backend_config":{"is_sync":true,"no_parallel_custom_call":false,"is_pipelined":false,"reification_cost":[]},"force_earliest_schedule":false}
  %all-to-all-done.6 = f64[4,48,240]{2,1,0} async-done(%all-to-all-start.6), metadata={op_name="jit(_post_kpath)/jit(main)/concatenate" source_file="/global/homes/j/jackm/software/lorrax_C/src/bandstructure/htransform.py" source_line=710 scheduling_name="all-to-all-done.6"}
  %loop_slice_fusion = f64[6,960]{1,0} fusion(%all-to-all-done.6), kind=kLoop, calls=%fused_slice, metadata={op_name="jit(_post_kpath)/jit(main)/slice" source_file="/global/homes/j/jackm/software/lorrax_C/src/bandstructure/htransform.py" source_line=710 scheduling_name="loop_slice_fusion"}
  %collective-permute-start = (f64[6,960]{1,0}, f64[6,960]{1,0}) collective-permute-start(%loop_slice_fusion), channel_id=8, source_target_pairs={{0,1},{1,2},{2,3}}, metadata={op_name="jit(_post_kpath)/jit(main)/slice" source_file="/global/homes/j/jackm/software/lorrax_C/src/bandstructure/htransform.py" source_line=710 scheduling_name="collective-permute-start"}, backend_config={"operation_queue_id":"0","wait_on_operation_queues":[],"collective_backend_config":{"is_sync":false,"no_parallel_custom_call":true,"is_pipelined":false,"reification_cost":[]},"force_earliest_schedule":false}
  %partition-id.2.0 = u32[] partition-id(), metadata={op_name="jit(_post_kpath)/jit(main)/slice" source_file="/global/homes/j/jackm/software/lorrax_C/src/bandstructure/htransform.py" source_line=710 scheduling_name="partition-id.2.0"}
  %copy.16 = s64[] copy(%constant_127_0)
  %collective-permute-done = f64[6,960]{1,0} collective-permute-done(%collective-permute-start), metadata={op_name="jit(_post_kpath)/jit(main)/slice" source_file="/global/homes/j/jackm/software/lorrax_C/src/bandstructure/htransform.py" source_line=710 scheduling_name="collective-permute-done"}
  %loop_dynamic_slice_fusion = f64[46,960]{1,0} fusion(%collective-permute-done, %all-to-all-done.6, %partition-id.2.0), kind=kLoop, calls=%fused_dynamic_slice, metadata={op_name="jit(_post_kpath)/jit(main)/slice" source_file="/global/homes/j/jackm/software/lorrax_C/src/bandstructure/htransform.py" source_line=710 scheduling_name="loop_dynamic_slice_fusion"}
  %loop_add_fusion.2 = f64[46,960]{1,0} fusion(%loop_dynamic_slice_fusion), kind=kLoop, calls=%fused_add.2, metadata={op_name="jit(_post_kpath)/jit(main)/add" source_file="/global/homes/j/jackm/software/lorrax_C/src/bandstructure/htransform.py" source_line=327 scheduling_name="loop_add_fusion.2"}
  %tuple.4 = (s64[], f64[46,960]{1,0}, f64[46,960]{1,0}) tuple(%copy.16, %loop_add_fusion.2, %loop_dynamic_slice_fusion), metadata={scheduling_name="tuple.4"}
  %while.1 = (s64[], f64[46,960]{1,0}, f64[46,960]{1,0}) while(%tuple.4), condition=%region_1.192_spmd, body=%region_0.183_spmd, metadata={op_name="jit(_post_kpath)/jit(main)/while" source_file="/global/homes/j/jackm/software/lorrax_C/src/bandstructure/htransform.py" source_line=336 scheduling_name="while.1"}, backend_config={"known_trip_count":{"n":"50"},"known_init_step":{"init":"0","step":"1"},"known_induction_variable":{"tuple_index":"0"}}
  %get-tuple-element.4.0 = f64[46,960]{1,0} get-tuple-element(%while.1), index=1, metadata={op_name="jit(_post_kpath)/jit(main)/while" source_file="/global/homes/j/jackm/software/lorrax_C/src/bandstructure/htransform.py" source_line=336 scheduling_name="get-tuple-element.4.0"}
  %loop_select_fusion = u64[46,960]{1,0} fusion(%get-tuple-element.4.0), kind=kLoop, calls=%fused_select, metadata={op_name="jit(_post_kpath)/jit(main)/while" source_file="/global/homes/j/jackm/software/lorrax_C/src/bandstructure/htransform.py" source_line=336 scheduling_name="loop_select_fusion"}
  %custom-call.1 = (u64[46,960]{1,0}, f64[46,960]{1,0}, u8[707004]{0}) custom-call(%loop_select_fusion, %get-tuple-element.4.0), custom_call_target="__cub$DeviceRadixSort", metadata={op_name="jit(_post_kpath)/jit(main)/jit(sort)/sort" source_file="/global/homes/j/jackm/software/lorrax_C/src/bandstructure/htransform.py" source_line=712 scheduling_name="custom-call.1"}, backend_config={"descending":false}
  %get-tuple-element.5.0 = f64[46,960]{1,0} get-tuple-element(%custom-call.1), index=1, metadata={op_name="jit(_post_kpath)/jit(main)/jit(sort)/sort" source_file="/global/homes/j/jackm/software/lorrax_C/src/bandstructure/htransform.py" source_line=712 scheduling_name="get-tuple-element.5.0"}
  %wrapped_slice = f64[46,60]{1,0} fusion(%get-tuple-element.5.0), kind=kLoop, calls=%wrapped_slice_computation, metadata={op_name="jit(_post_kpath)/jit(main)/slice" source_file="/global/homes/j/jackm/software/lorrax_C/src/bandstructure/htransform.py" source_line=712 scheduling_name="wrapped_slice"}
  %all-gather-start = ((f64[46,960]{1,0}, f64[46,60]{1,0}), (f64[184,960]{1,0}, f64[184,60]{1,0})) all-gather-start(%get-tuple-element.4.0, %wrapped_slice), channel_id=9, replica_groups=[1,4]<=[4], dimensions={0}, use_global_device_ids=true, metadata={scheduling_name="all-gather-start"}, backend_config={"operation_queue_id":"0","wait_on_operation_queues":[],"collective_backend_config":{"is_sync":true,"no_parallel_custom_call":false,"is_pipelined":false,"reification_cost":[]},"force_earliest_schedule":false}
  %all-gather-done = (f64[184,960]{1,0}, f64[184,60]{1,0}) all-gather-done(%all-gather-start), metadata={scheduling_name="all-gather-done"}
  %get-tuple-element.7 = f64[184,960]{1,0} get-tuple-element(%all-gather-done), index=0, metadata={scheduling_name="get-tuple-element.7"}
  %wrapped_slice.1 = f64[181,960]{1,0} fusion(%get-tuple-element.7), kind=kLoop, calls=%wrapped_slice_computation.1, metadata={scheduling_name="wrapped_slice.1"}
  %get-tuple-element.8 = f64[184,60]{1,0} get-tuple-element(%all-gather-done), index=1, metadata={scheduling_name="get-tuple-element.8"}
  %wrapped_slice.2 = f64[181,60]{1,0} fusion(%get-tuple-element.8), kind=kLoop, calls=%wrapped_slice_computation.2, metadata={scheduling_name="wrapped_slice.2"}
  ROOT %tuple.2.0 = (f64[181,960]{1,0}, f64[181,60]{1,0}) tuple(%wrapped_slice.1, %wrapped_slice.2), metadata={scheduling_name="tuple.2.0"}
}

