HloModule jit__full_run, entry_computation_layout={(c128[64,4,2,480]{3,2,1,0}, c128[64,4,2,480]{3,2,1,0}, c128[64,4,2,480]{3,2,1,0}, c128[64,4,2,480]{3,2,1,0}, f64[64,4]{1,0}, /*index=5*/f64[64,4]{1,0}, c128[480,480,4,4,4]{4,3,2,1,0}, c128[480,480]{1,0})->(f64[5]{0}, c128[5,1024]{1,0}, s32[])}, allow_spmd_sharding_propagation_to_parameters={false,false,false,false,false,false,false,false}, allow_spmd_sharding_propagation_to_output={false,false,false}, num_partitions=4

%region_1.1270 (Arg_0.1271: f64[], Arg_1.1272: f64[]) -> f64[] {
  %Arg_0.1271 = f64[] parameter(0), metadata={op_name="jit(_full_run)/jit(main)/jit(norm)/reduce_sum"}
  %Arg_1.1272 = f64[] parameter(1), metadata={op_name="jit(_full_run)/jit(main)/jit(norm)/reduce_sum"}
  ROOT %add.1273 = f64[] add(%Arg_0.1271, %Arg_1.1272), metadata={op_name="jit(_full_run)/jit(main)/jit(norm)/reduce_sum" source_file="/global/homes/j/jackm/software/lorrax_C/src/solvers/lanczos.py" source_line=249}
}

%region_0.36 (Arg_0.37: c128[], Arg_1.38: c128[]) -> c128[] {
  %Arg_0.37 = c128[] parameter(0), metadata={op_name="jit(_full_run)/jit(main)/jit(shmap_body)/reduce_prod"}
  %Arg_1.38 = c128[] parameter(1), metadata={op_name="jit(_full_run)/jit(main)/jit(shmap_body)/reduce_prod"}
  ROOT %multiply.39 = c128[] multiply(%Arg_0.37, %Arg_1.38), metadata={op_name="jit(_full_run)/jit(main)/jit(shmap_body)/reduce_prod" source_file="/global/homes/j/jackm/software/lorrax_C/src/common/fft_helpers.py" source_line=412}
}

%region_11.1700 (Arg_0.1701: f64[], Arg_1.1702: f64[], Arg_2.1703: s64[], Arg_3.1704: s64[]) -> pred[] {
  %Arg_2.1703 = s64[] parameter(2), metadata={op_name="jit(_full_run)/jit(main)/jit(argsort)/sort"}
  %Arg_3.1704 = s64[] parameter(3), metadata={op_name="jit(_full_run)/jit(main)/jit(argsort)/sort"}
  %constant.1705 = f64[] constant(nan)
  %constant.1706 = f64[] constant(0)
  %Arg_0.1701 = f64[] parameter(0), metadata={op_name="jit(_full_run)/jit(main)/jit(argsort)/sort"}
  %compare.1709 = pred[] compare(%Arg_0.1701, %Arg_0.1701), direction=NE, metadata={op_name="jit(_full_run)/jit(main)/jit(argsort)/ne" source_file="/global/homes/j/jackm/software/lorrax_C/src/solvers/lanczos.py" source_line=293}
  %constant.910 = f64[] constant(nan)
  %constant.912 = f64[] constant(0)
  %compare.1707 = pred[] compare(%Arg_0.1701, %constant.912), direction=EQ, metadata={op_name="jit(_full_run)/jit(main)/jit(argsort)/eq" source_file="/global/homes/j/jackm/software/lorrax_C/src/solvers/lanczos.py" source_line=293}
  %constant.913 = f64[] constant(0)
  %select.1708 = f64[] select(%compare.1707, %constant.913, %Arg_0.1701), metadata={op_name="jit(_full_run)/jit(main)/jit(argsort)/select_n" source_file="/global/homes/j/jackm/software/lorrax_C/src/solvers/lanczos.py" source_line=293}
  %select.1710 = f64[] select(%compare.1709, %constant.910, %select.1708), metadata={op_name="jit(_full_run)/jit(main)/jit(argsort)/select_n" source_file="/global/homes/j/jackm/software/lorrax_C/src/solvers/lanczos.py" source_line=293}
  %Arg_1.1702 = f64[] parameter(1), metadata={op_name="jit(_full_run)/jit(main)/jit(argsort)/sort"}
  %compare.1713 = pred[] compare(%Arg_1.1702, %Arg_1.1702), direction=NE, metadata={op_name="jit(_full_run)/jit(main)/jit(argsort)/ne" source_file="/global/homes/j/jackm/software/lorrax_C/src/solvers/lanczos.py" source_line=293}
  %constant.911 = f64[] constant(nan)
  %constant.914 = f64[] constant(0)
  %compare.1711 = pred[] compare(%Arg_1.1702, %constant.914), direction=EQ, metadata={op_name="jit(_full_run)/jit(main)/jit(argsort)/eq" source_file="/global/homes/j/jackm/software/lorrax_C/src/solvers/lanczos.py" source_line=293}
  %constant.915 = f64[] constant(0)
  %select.1712 = f64[] select(%compare.1711, %constant.915, %Arg_1.1702), metadata={op_name="jit(_full_run)/jit(main)/jit(argsort)/select_n" source_file="/global/homes/j/jackm/software/lorrax_C/src/solvers/lanczos.py" source_line=293}
  %select.1714 = f64[] select(%compare.1713, %constant.911, %select.1712), metadata={op_name="jit(_full_run)/jit(main)/jit(argsort)/select_n" source_file="/global/homes/j/jackm/software/lorrax_C/src/solvers/lanczos.py" source_line=293}
  ROOT %compare.1715 = pred[] compare(%select.1710, %select.1714), direction=LT, type=TOTALORDER, metadata={op_name="jit(_full_run)/jit(main)/jit(argsort)/lt_to" source_file="/global/homes/j/jackm/software/lorrax_C/src/solvers/lanczos.py" source_line=293}
}

%region_12.1739 (Arg_0.1740: f64[], Arg_1.1741: f64[]) -> f64[] {
  %Arg_0.1740 = f64[] parameter(0), metadata={op_name="jit(_full_run)/jit(main)/jit(norm)/reduce_sum"}
  %Arg_1.1741 = f64[] parameter(1), metadata={op_name="jit(_full_run)/jit(main)/jit(norm)/reduce_sum"}
  ROOT %add.1742 = f64[] add(%Arg_0.1740, %Arg_1.1741), metadata={op_name="jit(_full_run)/jit(main)/jit(norm)/reduce_sum" source_file="/global/homes/j/jackm/software/lorrax_C/src/solvers/lanczos.py" source_line=297}
}

%and.reduce_sub_computation.3 (lhs.3: pred[], rhs.3: pred[]) -> pred[] {
  %lhs.3 = pred[] parameter(0)
  %rhs.3 = pred[] parameter(1)
  ROOT %and.8 = pred[] and(%lhs.3, %rhs.3)
}

%scalar_add_computation (scalar_lhs: c128[], scalar_rhs: c128[]) -> c128[] {
  %scalar_lhs = c128[] parameter(0)
  %scalar_rhs = c128[] parameter(1)
  ROOT %add.566 = c128[] add(%scalar_lhs, %scalar_rhs)
}

%region_5.1407 (arg_tuple.1408: (s64[], c128[1024], s64[], s64[], c128[1024,200])) -> (s64[], c128[1024], s64[], s64[], c128[1024,200]) {
  %constant.1416 = s64[] constant(0)
  %arg_tuple.1408 = (s64[], c128[1024]{0}, s64[], s64[], c128[1024,200]{1,0}) parameter(0), sharding={{replicated}, {devices=[2,2]<=[4] last_tile_dim_replicate}, {replicated}, {replicated}, {devices=[2,1,2]<=[4] last_tile_dim_replicate}}
  %get-tuple-element.1409 = s64[] get-tuple-element(%arg_tuple.1408), index=0, sharding={replicated}
  %constant.1417 = s64[] constant(1), sharding={replicated}
  %add.1418 = s64[] add(%get-tuple-element.1409, %constant.1417), sharding={replicated}, metadata={op_name="jit(_full_run)/jit(main)/while/body/while/body/add" source_file="/global/homes/j/jackm/software/lorrax_C/src/solvers/lanczos.py" source_line=275}
  %get-tuple-element.1410 = c128[1024]{0} get-tuple-element(%arg_tuple.1408), index=1, sharding={devices=[2,2]<=[4] last_tile_dim_replicate}
  %get-tuple-element.1412 = s64[] get-tuple-element(%arg_tuple.1408), index=3, sharding={replicated}
  %compare.1419 = pred[] compare(%get-tuple-element.1409, %get-tuple-element.1412), direction=LT, sharding={replicated}, metadata={op_name="jit(_full_run)/jit(main)/while/body/while/body/lt" source_file="/global/homes/j/jackm/software/lorrax_C/src/solvers/lanczos.py" source_line=269}
  %get-tuple-element.1413 = c128[1024,200]{1,0} get-tuple-element(%arg_tuple.1408), index=4, sharding={devices=[2,1,2]<=[4] last_tile_dim_replicate}
  %constant.909 = s64[] constant(0)
  %constant.908 = s64[] constant(0), sharding={replicated}
  %compare.1420 = pred[] compare(%get-tuple-element.1409, %constant.908), direction=LT, sharding={replicated}, metadata={op_name="jit(_full_run)/jit(main)/while/body/while/body/lt" source_file="/global/homes/j/jackm/software/lorrax_C/src/solvers/lanczos.py" source_line=270}
  %constant.1415 = s64[] constant(200), sharding={replicated}
  %add.1421 = s64[] add(%get-tuple-element.1409, %constant.1415), sharding={replicated}, metadata={op_name="jit(_full_run)/jit(main)/while/body/while/body/add" source_file="/global/homes/j/jackm/software/lorrax_C/src/solvers/lanczos.py" source_line=270}
  %select.1422 = s64[] select(%compare.1420, %add.1421, %get-tuple-element.1409), sharding={replicated}, metadata={op_name="jit(_full_run)/jit(main)/while/body/while/body/select_n" source_file="/global/homes/j/jackm/software/lorrax_C/src/solvers/lanczos.py" source_line=270}
  %dynamic-slice.1423 = c128[1024,1]{1,0} dynamic-slice(%get-tuple-element.1413, %constant.909, %select.1422), dynamic_slice_sizes={1024,1}, sharding={devices=[2,1,2]<=[4] last_tile_dim_replicate}, metadata={op_name="jit(_full_run)/jit(main)/while/body/while/body/dynamic_slice" source_file="/global/homes/j/jackm/software/lorrax_C/src/solvers/lanczos.py" source_line=270}
  %real.39 = f64[1024,1]{1,0} real(%dynamic-slice.1423), sharding={devices=[2,1,2]<=[4] last_tile_dim_replicate}, metadata={op_name="jit(_full_run)/jit(main)/while/body/while/body/real" source_file="/global/homes/j/jackm/software/lorrax_C/src/solvers/lanczos.py" source_line=271}
  %imag.30 = f64[1024,1]{1,0} imag(%dynamic-slice.1423), sharding={devices=[2,1,2]<=[4] last_tile_dim_replicate}, metadata={op_name="jit(_full_run)/jit(main)/while/body/while/body/imag" source_file="/global/homes/j/jackm/software/lorrax_C/src/solvers/lanczos.py" source_line=271}
  %negate.52 = f64[1024,1]{1,0} negate(%imag.30), sharding={devices=[2,1,2]<=[4] last_tile_dim_replicate}, metadata={op_name="jit(_full_run)/jit(main)/while/body/while/body/neg" source_file="/global/homes/j/jackm/software/lorrax_C/src/solvers/lanczos.py" source_line=271}
  %complex.37 = c128[1024,1]{1,0} complex(%real.39, %negate.52), sharding={devices=[2,1,2]<=[4] last_tile_dim_replicate}, metadata={op_name="jit(_full_run)/jit(main)/while/body/while/body/complex" source_file="/global/homes/j/jackm/software/lorrax_C/src/solvers/lanczos.py" source_line=271}
  %reshape.446 = c128[1024]{0} reshape(%complex.37), sharding={devices=[2,2]<=[4] last_tile_dim_replicate}, metadata={op_name="jit(_full_run)/jit(main)/while/body/while/body/complex" source_file="/global/homes/j/jackm/software/lorrax_C/src/solvers/lanczos.py" source_line=271}
  %multiply.153 = c128[1024]{0} multiply(%reshape.446, %get-tuple-element.1410), sharding={devices=[2,2]<=[4] last_tile_dim_replicate}
  %constant.551 = c128[] constant((0, 0))
  %reduce.5 = c128[] reduce(%multiply.153, %constant.551), dimensions={0}, to_apply=%scalar_add_computation, sharding={replicated}, metadata={op_name="jit(_full_run)/jit(main)/while/body/while/body/dot_general" source_file="/global/homes/j/jackm/software/lorrax_C/src/solvers/lanczos.py" source_line=271}
  %constant.1414 = c128[] constant((0, 0)), sharding={replicated}
  %select.94 = c128[] select(%compare.1419, %reduce.5, %constant.1414), sharding={replicated}, metadata={op_name="jit(_full_run)/jit(main)/while/body/while/body/jit(_where)/select_n" source_file="/global/homes/j/jackm/software/lorrax_C/src/solvers/lanczos.py" source_line=271}
  %broadcast.952 = c128[1024,1]{1,0} broadcast(%select.94), dimensions={}, sharding={devices=[2,1,2]<=[4] last_tile_dim_replicate}, metadata={op_name="jit(_full_run)/jit(main)/while/body/while/body/mul" source_file="/global/homes/j/jackm/software/lorrax_C/src/solvers/lanczos.py" source_line=272}
  %multiply.180 = c128[1024,1]{1,0} multiply(%broadcast.952, %dynamic-slice.1423), sharding={devices=[2,1,2]<=[4] last_tile_dim_replicate}, metadata={op_name="jit(_full_run)/jit(main)/while/body/while/body/mul" source_file="/global/homes/j/jackm/software/lorrax_C/src/solvers/lanczos.py" source_line=272}
  %reshape.323 = c128[1024]{0} reshape(%multiply.180), sharding={devices=[2,2]<=[4] last_tile_dim_replicate}, metadata={op_name="jit(_full_run)/jit(main)/while/body/while/body/mul" source_file="/global/homes/j/jackm/software/lorrax_C/src/solvers/lanczos.py" source_line=272}
  %subtract.1433 = c128[1024]{0} subtract(%get-tuple-element.1410, %reshape.323), sharding={devices=[2,2]<=[4] last_tile_dim_replicate}, metadata={op_name="jit(_full_run)/jit(main)/while/body/while/body/sub" source_file="/global/homes/j/jackm/software/lorrax_C/src/solvers/lanczos.py" source_line=272}
  %get-tuple-element.1411 = s64[] get-tuple-element(%arg_tuple.1408), index=2, sharding={replicated}
  ROOT %tuple.1434 = (s64[], c128[1024]{0}, s64[], s64[], c128[1024,200]{1,0}) tuple(%add.1418, %subtract.1433, %get-tuple-element.1411, %get-tuple-element.1412, %get-tuple-element.1413), sharding={{replicated}, {devices=[2,2]<=[4] last_tile_dim_replicate}, {replicated}, {replicated}, {devices=[2,1,2]<=[4] last_tile_dim_replicate}}
}

%region_6.1435 (arg_tuple.1436: (s64[], c128[1024], s64[], s64[], c128[1024,200])) -> pred[] {
  %arg_tuple.1436 = (s64[], c128[1024]{0}, s64[], s64[], c128[1024,200]{1,0}) parameter(0), sharding={{replicated}, {devices=[2,2]<=[4] last_tile_dim_replicate}, {replicated}, {replicated}, {devices=[2,1,2]<=[4] last_tile_dim_replicate}}
  %get-tuple-element.1437 = s64[] get-tuple-element(%arg_tuple.1436), index=0, sharding={replicated}
  %get-tuple-element.1439 = s64[] get-tuple-element(%arg_tuple.1436), index=2, sharding={replicated}
  ROOT %compare.1442 = pred[] compare(%get-tuple-element.1437, %get-tuple-element.1439), direction=LT, sharding={replicated}, metadata={op_name="jit(_full_run)/jit(main)/while/body/while/cond/lt" source_file="/global/homes/j/jackm/software/lorrax_C/src/solvers/lanczos.py" source_line=275}
}

%region_7.1443 (Arg_0.1444: f64[], Arg_1.1445: f64[]) -> f64[] {
  %Arg_0.1444 = f64[] parameter(0), metadata={op_name="jit(_full_run)/jit(main)/while/body/jit(norm)/reduce_sum"}
  %Arg_1.1445 = f64[] parameter(1), metadata={op_name="jit(_full_run)/jit(main)/while/body/jit(norm)/reduce_sum"}
  ROOT %add.1446 = f64[] add(%Arg_0.1444, %Arg_1.1445), metadata={op_name="jit(_full_run)/jit(main)/while/body/jit(norm)/reduce_sum" source_file="/global/homes/j/jackm/software/lorrax_C/src/solvers/lanczos.py" source_line=277}
}

%and.reduce_sub_computation (lhs: pred[], rhs: pred[]) -> pred[] {
  %lhs = pred[] parameter(0)
  %rhs = pred[] parameter(1)
  ROOT %and.2 = pred[] and(%lhs, %rhs)
}

%scalar_add_computation.1 (scalar_lhs.1: c128[], scalar_rhs.1: c128[]) -> c128[] {
  %scalar_lhs.1 = c128[] parameter(0)
  %scalar_rhs.1 = c128[] parameter(1)
  ROOT %add.618 = c128[] add(%scalar_lhs.1, %scalar_rhs.1)
}

%region_3.1552.clone.clone.clone (arg_tuple.4: (s64[], c128[1024,200], f64[200], f64[200], c128[1024], /*index=5*/c128[64,4,2,480], c128[64,4,2,480], c128[64,4,2,480], c128[64,4,2,480], f64[64,4], /*index=10*/f64[64,4], c128[480,480,4,4,4], c128[480,480])) -> (s64[], c128[1024,200], f64[200], f64[200], c128[1024], /*index=5*/c128[64,4,2,480], c128[64,4,2,480], c128[64,4,2,480], c128[64,4,2,480], f64[64,4], /*index=10*/f64[64,4], c128[480,480,4,4,4], c128[480,480]) {
  %arg_tuple.4 = (s64[], c128[1024,200]{1,0}, f64[200]{0}, f64[200]{0}, c128[1024]{0}, /*index=5*/c128[64,4,2,480]{3,2,1,0}, c128[64,4,2,480]{3,2,1,0}, c128[64,4,2,480]{3,2,1,0}, c128[64,4,2,480]{3,2,1,0}, f64[64,4]{1,0}, /*index=10*/f64[64,4]{1,0}, c128[480,480,4,4,4]{4,3,2,1,0}, c128[480,480]{1,0}) parameter(0), sharding={{replicated}, {devices=[2,1,2]<=[4] last_tile_dim_replicate}, {replicated}, {replicated}, {devices=[2,2]<=[4] last_tile_dim_replicate}, /*index=5*/{devices=[1,1,1,2,2]<=[4] last_tile_dim_replicate}, {devices=[1,1,1,2,2]<=[2,2]T(1,0) last_tile_dim_replicate}, {devices=[1,1,1,2,2]<=[4] last_tile_dim_replicate}, {devices=[1,1,1,2,2]<=[2,2]T(1,0) last_tile_dim_replicate}, {replicated}, /*index=10*/{replicated}, {devices=[2,2,1,1,1]<=[4]}, {devices=[2,2]<=[4]}}
  %get-tuple-element.244 = s64[] get-tuple-element(%arg_tuple.4), index=0, sharding={replicated}
  %constant.880 = s64[] constant(1), sharding={replicated}
  %add.627 = s64[] add(%get-tuple-element.244, %constant.880), sharding={replicated}, metadata={op_name="jit(_full_run)/jit(main)/while/body/add" source_file="/global/homes/j/jackm/software/lorrax_C/src/solvers/lanczos.py" source_line=286}
  %get-tuple-element.242 = c128[1024,200]{1,0} get-tuple-element(%arg_tuple.4), index=1, sharding={devices=[2,1,2]<=[4] last_tile_dim_replicate}
  %constant.889 = s32[] constant(0), sharding={replicated}
  %broadcast.997 = s32[2]{0} broadcast(%constant.889), dimensions={}, sharding={replicated}
  %constant.890 = s32[1]{0} constant({0}), sharding={replicated}
  %get-tuple-element.243 = s64[] get-tuple-element(%arg_tuple.4), index=0, sharding={replicated}
  %constant.946 = s64[] constant(1), sharding={replicated}
  %add.630 = s64[] add(%get-tuple-element.243, %constant.946), sharding={replicated}, metadata={op_name="jit(_full_run)/jit(main)/while/body/add" source_file="/global/homes/j/jackm/software/lorrax_C/src/solvers/lanczos.py" source_line=281}
  %constant.885 = s64[] constant(199), sharding={replicated}
  %minimum.5 = s64[] minimum(%add.630, %constant.885), sharding={replicated}, metadata={op_name="jit(_full_run)/jit(main)/while/body/min" source_file="/global/homes/j/jackm/software/lorrax_C/src/solvers/lanczos.py" source_line=281}
  %constant.954 = s64[] constant(0), sharding={replicated}
  %compare.96 = pred[] compare(%minimum.5, %constant.954), direction=LT, sharding={replicated}, metadata={op_name="jit(_full_run)/jit(main)/while/body/lt" source_file="/global/homes/j/jackm/software/lorrax_C/src/solvers/lanczos.py" source_line=281}
  %constant.958 = s64[] constant(200), sharding={replicated}
  %add.631 = s64[] add(%minimum.5, %constant.958), sharding={replicated}, metadata={op_name="jit(_full_run)/jit(main)/while/body/add" source_file="/global/homes/j/jackm/software/lorrax_C/src/solvers/lanczos.py" source_line=281}
  %select.259 = s64[] select(%compare.96, %add.631, %minimum.5), sharding={replicated}, metadata={op_name="jit(_full_run)/jit(main)/while/body/select_n" source_file="/global/homes/j/jackm/software/lorrax_C/src/solvers/lanczos.py" source_line=281}
  %convert.63 = s32[] convert(%select.259), sharding={replicated}, metadata={op_name="jit(_full_run)/jit(main)/while/body/convert_element_type" source_file="/global/homes/j/jackm/software/lorrax_C/src/solvers/lanczos.py" source_line=281}
  %reshape.421 = s32[1]{0} reshape(%convert.63), sharding={replicated}, metadata={op_name="jit(_full_run)/jit(main)/while/body/broadcast_in_dim" source_file="/global/homes/j/jackm/software/lorrax_C/src/solvers/lanczos.py" source_line=281}
  %concatenate.15 = s32[2]{0} concatenate(%constant.890, %reshape.421), dimensions={0}, sharding={replicated}
  %compare.99 = pred[2]{0} compare(%broadcast.997, %concatenate.15), direction=LE, sharding={replicated}
  %iota.20 = s32[2]{0} iota(), iota_dimension=0, sharding={replicated}
  %constant.894 = s32[] constant(199), sharding={replicated}
  %broadcast.1005 = s32[2]{0} broadcast(%constant.894), dimensions={}, sharding={replicated}
  %multiply.199 = s32[2]{0} multiply(%iota.20, %broadcast.1005), sharding={replicated}
  %compare.100 = pred[2]{0} compare(%multiply.199, %concatenate.15), direction=GE, sharding={replicated}
  %and.20 = pred[2]{0} and(%compare.99, %compare.100), sharding={replicated}
  %constant.891 = pred[] constant(true)
  %reduce.29 = pred[] reduce(%and.20, %constant.891), dimensions={0}, to_apply=%and.reduce_sub_computation, sharding={replicated}
  %broadcast.998 = pred[1024,1]{1,0} broadcast(%reduce.29), dimensions={}, sharding={devices=[2,1,2]<=[4] last_tile_dim_replicate}
  %constant.897 = s64[] constant(-10), sharding={replicated}
  %add.634 = s64[] add(%get-tuple-element.243, %constant.897), sharding={replicated}, metadata={op_name="jit(_full_run)/jit(main)/while/body/sub" source_file="/global/homes/j/jackm/software/lorrax_C/src/solvers/lanczos.py" source_line=274}
  %constant.948 = s64[] constant(0), sharding={replicated}
  %maximum.18 = s64[] maximum(%add.634, %constant.948), sharding={replicated}, metadata={op_name="jit(_full_run)/jit(main)/while/body/max" source_file="/global/homes/j/jackm/software/lorrax_C/src/solvers/lanczos.py" source_line=274}
  %get-tuple-element.234 = f64[64,4]{1,0} get-tuple-element(%arg_tuple.4), index=9, sharding={replicated}
  %copy.21 = f64[64,4]{1,0} copy(%get-tuple-element.234), sharding={replicated}, metadata={op_name="jit(_full_run)/jit(main)/while/body/pjit" source_file="/global/homes/j/jackm/software/lorrax_C/src/bse/bse_lanczos.py" source_line=204}
  %transpose.68 = f64[4,64]{0,1} transpose(%copy.21), dimensions={1,0}, sharding={devices=[2,1,2]<=[4] last_tile_dim_replicate}, metadata={op_name="jit(_full_run)/jit(main)/while/body/jit(_matvec)/transpose" source_file="/global/homes/j/jackm/software/lorrax_C/src/bse/bse_simple.py" source_line=105}
  %broadcast.999 = f64[1,4,4,64]{3,2,1,0} broadcast(%transpose.68), dimensions={1,3}, sharding={devices=[1,2,2,1]<=[4]}, metadata={op_name="jit(_full_run)/jit(main)/while/body/jit(_matvec)/sub" source_file="/global/homes/j/jackm/software/lorrax_C/src/bse/bse_simple.py" source_line=105}
  %get-tuple-element.233 = f64[64,4]{1,0} get-tuple-element(%arg_tuple.4), index=10, sharding={replicated}
  %copy.20 = f64[64,4]{1,0} copy(%get-tuple-element.233), sharding={replicated}, metadata={op_name="jit(_full_run)/jit(main)/while/body/pjit" source_file="/global/homes/j/jackm/software/lorrax_C/src/bse/bse_lanczos.py" source_line=204}
  %transpose.69 = f64[4,64]{0,1} transpose(%copy.20), dimensions={1,0}, sharding={devices=[2,1,2]<=[2,2]T(1,0) last_tile_dim_replicate}, metadata={op_name="jit(_full_run)/jit(main)/while/body/jit(_matvec)/transpose" source_file="/global/homes/j/jackm/software/lorrax_C/src/bse/bse_simple.py" source_line=105}
  %broadcast.1000 = f64[1,4,4,64]{3,2,1,0} broadcast(%transpose.69), dimensions={2,3}, sharding={devices=[1,2,2,1]<=[4]}, metadata={op_name="jit(_full_run)/jit(main)/while/body/jit(_matvec)/sub" source_file="/global/homes/j/jackm/software/lorrax_C/src/bse/bse_simple.py" source_line=105}
  %subtract.37 = f64[1,4,4,64]{3,2,1,0} subtract(%broadcast.999, %broadcast.1000), sharding={devices=[1,2,2,1]<=[4]}, metadata={op_name="jit(_full_run)/jit(main)/while/body/jit(_matvec)/sub" source_file="/global/homes/j/jackm/software/lorrax_C/src/bse/bse_simple.py" source_line=105}
  %convert.60 = c128[1,4,4,64]{3,2,1,0} convert(%subtract.37), sharding={devices=[1,2,2,1]<=[4]}, metadata={op_name="jit(_full_run)/jit(main)/while/body/jit(_matvec)/convert_element_type" source_file="/global/homes/j/jackm/software/lorrax_C/src/bse/bse_simple.py" source_line=106}
  %get-tuple-element.239 = c128[1024]{0} get-tuple-element(%arg_tuple.4), index=4, sharding={devices=[2,2]<=[4] last_tile_dim_replicate}
  %reshape.416 = c128[1,4,4,64]{3,2,1,0} reshape(%get-tuple-element.239), sharding={devices=[1,2,2,1]<=[4]}, metadata={op_name="jit(_full_run)/jit(main)/while/body/reshape" source_file="/global/homes/j/jackm/software/lorrax_C/src/bse/bse_lanczos.py" source_line=202}
  %copy.19 = c128[1,4,4,64]{3,2,1,0} copy(%reshape.416), sharding={devices=[1,2,2,1]<=[4]}, metadata={op_name="jit(_full_run)/jit(main)/while/body/sharding_constraint" source_file="/global/homes/j/jackm/software/lorrax_C/src/bse/bse_lanczos.py" source_line=203}
  %copy.18 = c128[1,4,4,64]{3,2,1,0} copy(%copy.19), sharding={devices=[1,2,2,1]<=[4]}, metadata={op_name="jit(_full_run)/jit(main)/while/body/pjit" source_file="/global/homes/j/jackm/software/lorrax_C/src/bse/bse_lanczos.py" source_line=204}
  %multiply.191 = c128[1,4,4,64]{3,2,1,0} multiply(%convert.60, %copy.18), sharding={devices=[1,2,2,1]<=[4]}, metadata={op_name="jit(_full_run)/jit(main)/while/body/jit(_matvec)/mul" source_file="/global/homes/j/jackm/software/lorrax_C/src/bse/bse_simple.py" source_line=106}
  %copy.17 = c128[1,4,4,64]{3,2,1,0} copy(%multiply.191), sharding={devices=[1,2,2,1]<=[4]}, metadata={op_name="jit(_full_run)/jit(main)/while/body/jit(_matvec)/sharding_constraint" source_file="/global/homes/j/jackm/software/lorrax_C/src/bse/bse_simple.py" source_line=107}
  %reshape.422 = c128[4,4,64]{2,1,0} reshape(%copy.18), sharding={devices=[2,2,1]<=[4]}
  %transpose.78 = c128[64,4,4]{0,2,1} transpose(%reshape.422), dimensions={2,0,1}, sharding={devices=[1,2,2]<=[4]}
  %broadcast.1001 = c128[64,480,4,4]{2,3,1,0} broadcast(%transpose.78), dimensions={0,2,3}, sharding={devices=[1,1,2,2]<=[4]}, metadata={op_name="jit(_full_run)/jit(main)/while/body/jit(_matvec)/kcvN,bcvk->bNk/dot_general" source_file="/global/homes/j/jackm/software/lorrax_C/src/bse/bse_simple.py" source_line=124}
  %get-tuple-element.235 = c128[64,4,2,480]{3,2,1,0} get-tuple-element(%arg_tuple.4), index=8, sharding={devices=[1,1,1,2,2]<=[2,2]T(1,0) last_tile_dim_replicate}
  %copy.16 = c128[64,4,2,480]{3,2,1,0} copy(%get-tuple-element.235), sharding={devices=[1,1,1,2,2]<=[2,2]T(1,0) last_tile_dim_replicate}, metadata={op_name="jit(_full_run)/jit(main)/while/body/pjit" source_file="/global/homes/j/jackm/software/lorrax_C/src/bse/bse_lanczos.py" source_line=204}
  %get-tuple-element.237 = c128[64,4,2,480]{3,2,1,0} get-tuple-element(%arg_tuple.4), index=6, sharding={devices=[1,1,1,2,2]<=[2,2]T(1,0) last_tile_dim_replicate}
  %copy.15 = c128[64,4,2,480]{3,2,1,0} copy(%get-tuple-element.237), sharding={devices=[1,1,1,2,2]<=[2,2]T(1,0) last_tile_dim_replicate}, metadata={op_name="jit(_full_run)/jit(main)/while/body/pjit" source_file="/global/homes/j/jackm/software/lorrax_C/src/bse/bse_lanczos.py" source_line=204}
  %real.41 = f64[64,4,2,480]{3,2,1,0} real(%copy.15), sharding={devices=[1,1,1,2,2]<=[2,2]T(1,0) last_tile_dim_replicate}, metadata={op_name="jit(_full_run)/jit(main)/while/body/jit(_matvec)/real" source_file="/global/homes/j/jackm/software/lorrax_C/src/bse/bse_simple.py" source_line=114}
  %imag.32 = f64[64,4,2,480]{3,2,1,0} imag(%copy.15), sharding={devices=[1,1,1,2,2]<=[2,2]T(1,0) last_tile_dim_replicate}, metadata={op_name="jit(_full_run)/jit(main)/while/body/jit(_matvec)/imag" source_file="/global/homes/j/jackm/software/lorrax_C/src/bse/bse_simple.py" source_line=114}
  %negate.54 = f64[64,4,2,480]{3,2,1,0} negate(%imag.32), sharding={devices=[1,1,1,2,2]<=[2,2]T(1,0) last_tile_dim_replicate}, metadata={op_name="jit(_full_run)/jit(main)/while/body/jit(_matvec)/neg" source_file="/global/homes/j/jackm/software/lorrax_C/src/bse/bse_simple.py" source_line=114}
  %complex.30 = c128[64,4,2,480]{3,2,1,0} complex(%real.41, %negate.54), sharding={devices=[1,1,1,2,2]<=[2,2]T(1,0) last_tile_dim_replicate}, metadata={op_name="jit(_full_run)/jit(main)/while/body/jit(_matvec)/complex" source_file="/global/homes/j/jackm/software/lorrax_C/src/bse/bse_simple.py" source_line=114}
  %dot.45 = c128[64,480,4,4]{3,2,1,0} dot(%copy.16, %complex.30), lhs_batch_dims={0,3}, lhs_contracting_dims={2}, rhs_batch_dims={0,3}, rhs_contracting_dims={2}, sharding={devices=[1,2,1,1,2]<=[2,2]T(1,0) last_tile_dim_replicate}, metadata={op_name="jit(_full_run)/jit(main)/while/body/jit(_matvec)/kcsN,kvsN->kcvN/dot_general" source_file="/global/homes/j/jackm/software/lorrax_C/src/bse/bse_simple.py" source_line=112}
  %transpose.80 = c128[64,480,4,4]{2,3,1,0} transpose(%dot.45), dimensions={0,1,3,2}, sharding={devices=[1,2,1,1,2]<=[2,2]T(1,0) last_tile_dim_replicate}, metadata={op_name="jit(_full_run)/jit(main)/while/body/jit(_matvec)/kcsN,kvsN->kcvN/transpose" source_file="/global/homes/j/jackm/software/lorrax_C/src/bse/bse_simple.py" source_line=112}
  %multiply.197 = c128[64,480,4,4]{2,3,1,0} multiply(%broadcast.1001, %transpose.80), sharding={devices=[1,2,1,1,2]<=[2,2]T(1,0) last_tile_dim_replicate}
  %constant.892 = c128[] constant((0, 0))
  %reduce.30 = c128[64,480]{1,0} reduce(%multiply.197, %constant.892), dimensions={2,3}, to_apply=%scalar_add_computation.1, sharding={devices=[1,2,2]<=[2,2]T(1,0) last_tile_dim_replicate}, metadata={op_name="jit(_full_run)/jit(main)/while/body/jit(_matvec)/kcvN,bcvk->bNk/dot_general" source_file="/global/homes/j/jackm/software/lorrax_C/src/bse/bse_simple.py" source_line=124}
  %reshape.423 = c128[64,1,480]{2,1,0} reshape(%reduce.30), sharding={devices=[1,1,2,2]<=[2,2]T(1,0) last_tile_dim_replicate}, metadata={op_name="jit(_full_run)/jit(main)/while/body/jit(_matvec)/kcvN,bcvk->bNk/dot_general" source_file="/global/homes/j/jackm/software/lorrax_C/src/bse/bse_simple.py" source_line=124}
  %transpose.70 = c128[1,480,64]{1,0,2} transpose(%reshape.423), dimensions={1,2,0}, sharding={devices=[1,2,1,2]<=[2,2]T(1,0) last_tile_dim_replicate}, metadata={op_name="jit(_full_run)/jit(main)/while/body/jit(_matvec)/kcvN,bcvk->bNk/transpose" source_file="/global/homes/j/jackm/software/lorrax_C/src/bse/bse_simple.py" source_line=124}
  %copy.14 = c128[1,480,64]{2,1,0} copy(%transpose.70), sharding={devices=[1,2,1,2]<=[2,2]T(1,0) last_tile_dim_replicate}, metadata={op_name="jit(_full_run)/jit(main)/while/body/jit(_matvec)/sharding_constraint" source_file="/global/homes/j/jackm/software/lorrax_C/src/bse/bse_simple.py" source_line=128}
  %constant.900 = c128[] constant((0.125, 0)), sharding={replicated}, metadata={op_name="jit(_full_run)/jit(main)/while/body/jit(_matvec)/convert_element_type" source_file="/global/homes/j/jackm/software/lorrax_C/src/bse/bse_simple.py" source_line=129}
  %broadcast.1006 = c128[1,480,64]{2,1,0} broadcast(%constant.900), dimensions={}, sharding={devices=[1,2,1,2]<=[2,2]T(1,0) last_tile_dim_replicate}, metadata={op_name="jit(_full_run)/jit(main)/while/body/jit(_matvec)/div" source_file="/global/homes/j/jackm/software/lorrax_C/src/bse/bse_simple.py" source_line=129}
  %multiply.200 = c128[1,480,64]{2,1,0} multiply(%copy.14, %broadcast.1006), sharding={devices=[1,2,1,2]<=[2,2]T(1,0) last_tile_dim_replicate}, metadata={op_name="jit(_full_run)/jit(main)/while/body/jit(_matvec)/div" source_file="/global/homes/j/jackm/software/lorrax_C/src/bse/bse_simple.py" source_line=129}
  %reshape.424 = c128[480,64]{1,0} reshape(%multiply.200), sharding={devices=[2,1,2]<=[2,2]T(1,0) last_tile_dim_replicate}
  %get-tuple-element.231 = c128[480,480]{1,0} get-tuple-element(%arg_tuple.4), index=12, sharding={devices=[2,2]<=[4]}
  %copy.13 = c128[480,480]{1,0} copy(%get-tuple-element.231), sharding={devices=[2,2]<=[4]}, metadata={op_name="jit(_full_run)/jit(main)/while/body/pjit" source_file="/global/homes/j/jackm/software/lorrax_C/src/bse/bse_lanczos.py" source_line=204}
  %dot.47 = c128[64,480]{1,0} dot(%reshape.424, %copy.13), lhs_contracting_dims={0}, rhs_contracting_dims={1}, sharding={devices=[1,2,2]<=[4] last_tile_dim_replicate}, metadata={op_name="jit(_full_run)/jit(main)/while/body/jit(_matvec)/MN,bNk->bMk/dot_general" source_file="/global/homes/j/jackm/software/lorrax_C/src/bse/bse_simple.py" source_line=134}
  %reshape.425 = c128[1,64,480]{2,1,0} reshape(%dot.47), sharding={devices=[1,1,2,2]<=[4] last_tile_dim_replicate}, metadata={op_name="jit(_full_run)/jit(main)/while/body/jit(_matvec)/MN,bNk->bMk/dot_general" source_file="/global/homes/j/jackm/software/lorrax_C/src/bse/bse_simple.py" source_line=134}
  %transpose.71 = c128[1,480,64]{1,2,0} transpose(%reshape.425), dimensions={0,2,1}, sharding={devices=[1,2,1,2]<=[4] last_tile_dim_replicate}, metadata={op_name="jit(_full_run)/jit(main)/while/body/jit(_matvec)/MN,bNk->bMk/transpose" source_file="/global/homes/j/jackm/software/lorrax_C/src/bse/bse_simple.py" source_line=134}
  %copy.12 = c128[1,480,64]{2,1,0} copy(%transpose.71), sharding={devices=[1,2,1,2]<=[4] last_tile_dim_replicate}, metadata={op_name="jit(_full_run)/jit(main)/while/body/jit(_matvec)/sharding_constraint" source_file="/global/homes/j/jackm/software/lorrax_C/src/bse/bse_simple.py" source_line=138}
  %reshape.426 = c128[480,64]{1,0} reshape(%copy.12), sharding={devices=[2,1,2]<=[4] last_tile_dim_replicate}
  %transpose.79 = c128[64,480]{0,1} transpose(%reshape.426), dimensions={1,0}, sharding={devices=[1,2,2]<=[4] last_tile_dim_replicate}
  %broadcast.1013 = c128[64,480,4,4]{3,2,1,0} broadcast(%transpose.79), dimensions={0,1}, sharding={devices=[1,2,1,1,2]<=[4] last_tile_dim_replicate}, metadata={op_name="jit(_full_run)/jit(main)/while/body/jit(_matvec)/kcvM,bMk->bcvk/dot_general" source_file="/global/homes/j/jackm/software/lorrax_C/src/bse/bse_simple.py" source_line=149}
  %get-tuple-element.236 = c128[64,4,2,480]{3,2,1,0} get-tuple-element(%arg_tuple.4), index=7, sharding={devices=[1,1,1,2,2]<=[4] last_tile_dim_replicate}
  %copy.11 = c128[64,4,2,480]{3,2,1,0} copy(%get-tuple-element.236), sharding={devices=[1,1,1,2,2]<=[4] last_tile_dim_replicate}, metadata={op_name="jit(_full_run)/jit(main)/while/body/pjit" source_file="/global/homes/j/jackm/software/lorrax_C/src/bse/bse_lanczos.py" source_line=204}
  %get-tuple-element.238 = c128[64,4,2,480]{3,2,1,0} get-tuple-element(%arg_tuple.4), index=5, sharding={devices=[1,1,1,2,2]<=[4] last_tile_dim_replicate}
  %copy.10 = c128[64,4,2,480]{3,2,1,0} copy(%get-tuple-element.238), sharding={devices=[1,1,1,2,2]<=[4] last_tile_dim_replicate}, metadata={op_name="jit(_full_run)/jit(main)/while/body/pjit" source_file="/global/homes/j/jackm/software/lorrax_C/src/bse/bse_lanczos.py" source_line=204}
  %real.42 = f64[64,4,2,480]{3,2,1,0} real(%copy.10), sharding={devices=[1,1,1,2,2]<=[4] last_tile_dim_replicate}, metadata={op_name="jit(_full_run)/jit(main)/while/body/jit(_matvec)/real" source_file="/global/homes/j/jackm/software/lorrax_C/src/bse/bse_simple.py" source_line=143}
  %imag.33 = f64[64,4,2,480]{3,2,1,0} imag(%copy.10), sharding={devices=[1,1,1,2,2]<=[4] last_tile_dim_replicate}, metadata={op_name="jit(_full_run)/jit(main)/while/body/jit(_matvec)/imag" source_file="/global/homes/j/jackm/software/lorrax_C/src/bse/bse_simple.py" source_line=143}
  %negate.55 = f64[64,4,2,480]{3,2,1,0} negate(%imag.33), sharding={devices=[1,1,1,2,2]<=[4] last_tile_dim_replicate}, metadata={op_name="jit(_full_run)/jit(main)/while/body/jit(_matvec)/neg" source_file="/global/homes/j/jackm/software/lorrax_C/src/bse/bse_simple.py" source_line=143}
  %complex.31 = c128[64,4,2,480]{3,2,1,0} complex(%real.42, %negate.55), sharding={devices=[1,1,1,2,2]<=[4] last_tile_dim_replicate}, metadata={op_name="jit(_full_run)/jit(main)/while/body/jit(_matvec)/complex" source_file="/global/homes/j/jackm/software/lorrax_C/src/bse/bse_simple.py" source_line=143}
  %dot.46 = c128[64,480,4,4]{3,2,1,0} dot(%copy.11, %complex.31), lhs_batch_dims={0,3}, lhs_contracting_dims={2}, rhs_batch_dims={0,3}, rhs_contracting_dims={2}, sharding={devices=[1,2,1,1,2]<=[4] last_tile_dim_replicate}, metadata={op_name="jit(_full_run)/jit(main)/while/body/jit(_matvec)/kcsM,kvsM->kcvM/dot_general" source_file="/global/homes/j/jackm/software/lorrax_C/src/bse/bse_simple.py" source_line=141}
  %real.49 = f64[64,480,4,4]{3,2,1,0} real(%dot.46), sharding={devices=[1,2,1,1,2]<=[4] last_tile_dim_replicate}, metadata={op_name="jit(_full_run)/jit(main)/while/body/jit(_matvec)/real" source_file="/global/homes/j/jackm/software/lorrax_C/src/bse/bse_simple.py" source_line=151}
  %imag.38 = f64[64,480,4,4]{3,2,1,0} imag(%dot.46), sharding={devices=[1,2,1,1,2]<=[4] last_tile_dim_replicate}, metadata={op_name="jit(_full_run)/jit(main)/while/body/jit(_matvec)/imag" source_file="/global/homes/j/jackm/software/lorrax_C/src/bse/bse_simple.py" source_line=151}
  %negate.60 = f64[64,480,4,4]{3,2,1,0} negate(%imag.38), sharding={devices=[1,2,1,1,2]<=[4] last_tile_dim_replicate}, metadata={op_name="jit(_full_run)/jit(main)/while/body/jit(_matvec)/neg" source_file="/global/homes/j/jackm/software/lorrax_C/src/bse/bse_simple.py" source_line=151}
  %complex.38 = c128[64,480,4,4]{3,2,1,0} complex(%real.49, %negate.60), sharding={devices=[1,2,1,1,2]<=[4] last_tile_dim_replicate}, metadata={op_name="jit(_full_run)/jit(main)/while/body/jit(_matvec)/complex" source_file="/global/homes/j/jackm/software/lorrax_C/src/bse/bse_simple.py" source_line=151}
  %multiply.203 = c128[64,480,4,4]{3,2,1,0} multiply(%broadcast.1013, %complex.38), sharding={devices=[1,2,1,1,2]<=[4] last_tile_dim_replicate}
  %constant.893 = c128[] constant((0, 0))
  %reduce.32 = c128[64,4,4]{2,1,0} reduce(%multiply.203, %constant.893), dimensions={1}, to_apply=%scalar_add_computation.1, sharding={devices=[1,2,2]<=[2,2]T(1,0)}, metadata={op_name="jit(_full_run)/jit(main)/while/body/jit(_matvec)/kcvM,bMk->bcvk/dot_general" source_file="/global/homes/j/jackm/software/lorrax_C/src/bse/bse_simple.py" source_line=149}
  %transpose.91 = c128[64,4,4]{1,2,0} transpose(%reduce.32), dimensions={0,2,1}, sharding={devices=[1,2,2]<=[4]}, metadata={op_name="jit(_full_run)/jit(main)/while/body/jit(_matvec)/kcvM,bMk->bcvk/dot_general" source_file="/global/homes/j/jackm/software/lorrax_C/src/bse/bse_simple.py" source_line=149}
  %reshape.427 = c128[64,1,4,4]{3,2,1,0} reshape(%transpose.91), sharding={devices=[1,1,2,2]<=[4]}, metadata={op_name="jit(_full_run)/jit(main)/while/body/jit(_matvec)/kcvM,bMk->bcvk/dot_general" source_file="/global/homes/j/jackm/software/lorrax_C/src/bse/bse_simple.py" source_line=149}
  %transpose.72 = c128[1,4,4,64]{2,1,0,3} transpose(%reshape.427), dimensions={1,2,3,0}, sharding={devices=[1,2,2,1]<=[4]}, metadata={op_name="jit(_full_run)/jit(main)/while/body/jit(_matvec)/kcvM,bMk->bcvk/transpose" source_file="/global/homes/j/jackm/software/lorrax_C/src/bse/bse_simple.py" source_line=149}
  %copy.9 = c128[1,4,4,64]{3,2,1,0} copy(%transpose.72), sharding={devices=[1,2,2,1]<=[4]}, metadata={op_name="jit(_full_run)/jit(main)/while/body/jit(_matvec)/sharding_constraint" source_file="/global/homes/j/jackm/software/lorrax_C/src/bse/bse_simple.py" source_line=153}
  %constant.901 = c128[] constant((0.125, 0)), sharding={replicated}, metadata={op_name="jit(_full_run)/jit(main)/while/body/jit(_matvec)/convert_element_type" source_file="/global/homes/j/jackm/software/lorrax_C/src/bse/bse_simple.py" source_line=154}
  %broadcast.1007 = c128[1,4,4,64]{3,2,1,0} broadcast(%constant.901), dimensions={}, sharding={devices=[1,2,2,1]<=[4]}, metadata={op_name="jit(_full_run)/jit(main)/while/body/jit(_matvec)/div" source_file="/global/homes/j/jackm/software/lorrax_C/src/bse/bse_simple.py" source_line=154}
  %multiply.201 = c128[1,4,4,64]{3,2,1,0} multiply(%copy.9, %broadcast.1007), sharding={devices=[1,2,2,1]<=[4]}, metadata={op_name="jit(_full_run)/jit(main)/while/body/jit(_matvec)/div" source_file="/global/homes/j/jackm/software/lorrax_C/src/bse/bse_simple.py" source_line=154}
  %add.628 = c128[1,4,4,64]{3,2,1,0} add(%copy.17, %multiply.201), sharding={devices=[1,2,2,1]<=[4]}, metadata={op_name="jit(_full_run)/jit(main)/while/body/jit(_matvec)/add" source_file="/global/homes/j/jackm/software/lorrax_C/src/bse/bse_simple.py" source_line=198}
  %get-tuple-element.232 = c128[480,480,4,4,4]{4,3,2,1,0} get-tuple-element(%arg_tuple.4), index=11, sharding={devices=[2,2,1,1,1]<=[4]}
  %copy.8 = c128[480,480,4,4,4]{4,3,2,1,0} copy(%get-tuple-element.232), sharding={devices=[2,2,1,1,1]<=[4]}, metadata={op_name="jit(_full_run)/jit(main)/while/body/pjit" source_file="/global/homes/j/jackm/software/lorrax_C/src/bse/bse_lanczos.py" source_line=204}
  %broadcast.1003 = c128[1,480,480,2,2,4,4,4]{7,6,5,4,3,2,1,0} broadcast(%copy.8), dimensions={1,2,5,6,7}, sharding={devices=[1,2,2,1,1,1,1,1]<=[4]}, metadata={op_name="jit(_full_run)/jit(main)/while/body/jit(_matvec)/mul" source_file="/global/homes/j/jackm/software/lorrax_C/src/bse/bse_simple.py" source_line=177}
  %reshape.428 = c128[4,4,64]{2,1,0} reshape(%copy.18), sharding={devices=[2,2,1]<=[4]}
  %dot.48 = c128[64,4,2,480]{3,2,1,0} dot(%reshape.428, %copy.10), lhs_batch_dims={2}, lhs_contracting_dims={0}, rhs_batch_dims={0}, rhs_contracting_dims={1}, sharding={devices=[1,2,1,2]<=[2,2]T(1,0)}, metadata={op_name="jit(_full_run)/jit(main)/while/body/jit(_matvec)/kctM,kvsN,bcvk->bMNtsk/dot_general" source_file="/global/homes/j/jackm/software/lorrax_C/src/bse/bse_simple.py" source_line=164}
  %reshape.429 = c128[64,1,4,2,480]{4,3,2,1,0} reshape(%dot.48), sharding={devices=[1,1,2,1,2]<=[2,2]T(1,0)}, metadata={op_name="jit(_full_run)/jit(main)/while/body/jit(_matvec)/kctM,kvsN,bcvk->bMNtsk/dot_general" source_file="/global/homes/j/jackm/software/lorrax_C/src/bse/bse_simple.py" source_line=164}
  %transpose.73 = c128[1,4,64,2,480]{4,3,1,0,2} transpose(%reshape.429), dimensions={1,2,0,3,4}, sharding={devices=[1,2,1,1,2]<=[2,2]T(1,0)}, metadata={op_name="jit(_full_run)/jit(main)/while/body/jit(_matvec)/kctM,kvsN,bcvk->bMNtsk/transpose" source_file="/global/homes/j/jackm/software/lorrax_C/src/bse/bse_simple.py" source_line=164}
  %reshape.430 = c128[4,64,2,480]{3,2,0,1} reshape(%transpose.73), sharding={devices=[2,1,1,2]<=[2,2]T(1,0)}
  %real.43 = f64[64,4,2,480]{3,2,1,0} real(%copy.16), sharding={devices=[1,1,1,2,2]<=[2,2]T(1,0) last_tile_dim_replicate}, metadata={op_name="jit(_full_run)/jit(main)/while/body/jit(_matvec)/real" source_file="/global/homes/j/jackm/software/lorrax_C/src/bse/bse_simple.py" source_line=166}
  %imag.34 = f64[64,4,2,480]{3,2,1,0} imag(%copy.16), sharding={devices=[1,1,1,2,2]<=[2,2]T(1,0) last_tile_dim_replicate}, metadata={op_name="jit(_full_run)/jit(main)/while/body/jit(_matvec)/imag" source_file="/global/homes/j/jackm/software/lorrax_C/src/bse/bse_simple.py" source_line=166}
  %negate.56 = f64[64,4,2,480]{3,2,1,0} negate(%imag.34), sharding={devices=[1,1,1,2,2]<=[2,2]T(1,0) last_tile_dim_replicate}, metadata={op_name="jit(_full_run)/jit(main)/while/body/jit(_matvec)/neg" source_file="/global/homes/j/jackm/software/lorrax_C/src/bse/bse_simple.py" source_line=166}
  %complex.33 = c128[64,4,2,480]{3,2,1,0} complex(%real.43, %negate.56), sharding={devices=[1,1,1,2,2]<=[2,2]T(1,0) last_tile_dim_replicate}, metadata={op_name="jit(_full_run)/jit(main)/while/body/jit(_matvec)/complex" source_file="/global/homes/j/jackm/software/lorrax_C/src/bse/bse_simple.py" source_line=166}
  %dot.49 = c128[64,2,480,2,480]{4,3,2,1,0} dot(%reshape.430, %complex.33), lhs_batch_dims={1}, lhs_contracting_dims={0}, rhs_batch_dims={0}, rhs_contracting_dims={1}, sharding={devices=[1,1,2,1,2]<=[4]}, metadata={op_name="jit(_full_run)/jit(main)/while/body/jit(_matvec)/kctM,kvsN,bcvk->bMNtsk/dot_general" source_file="/global/homes/j/jackm/software/lorrax_C/src/bse/bse_simple.py" source_line=164}
  %reshape.431 = c128[64,1,2,480,2,480]{5,4,3,2,1,0} reshape(%dot.49), sharding={devices=[1,1,1,2,1,2]<=[4]}, metadata={op_name="jit(_full_run)/jit(main)/while/body/jit(_matvec)/kctM,kvsN,bcvk->bMNtsk/dot_general" source_file="/global/homes/j/jackm/software/lorrax_C/src/bse/bse_simple.py" source_line=164}
  %transpose.74 = c128[1,480,480,2,2,64]{2,4,1,3,0,5} transpose(%reshape.431), dimensions={1,3,5,2,4,0}, sharding={devices=[1,2,2,1,1,1]<=[4]}, metadata={op_name="jit(_full_run)/jit(main)/while/body/jit(_matvec)/kctM,kvsN,bcvk->bMNtsk/transpose" source_file="/global/homes/j/jackm/software/lorrax_C/src/bse/bse_simple.py" source_line=164}
  %copy.7 = c128[1,480,480,2,2,64]{5,4,3,2,1,0} copy(%transpose.74), sharding={devices=[1,2,2,1,1,1]<=[4]}, metadata={op_name="jit(_full_run)/jit(main)/while/body/jit(_matvec)/sharding_constraint" source_file="/global/homes/j/jackm/software/lorrax_C/src/bse/bse_simple.py" source_line=168}
  %reshape.417 = c128[1,480,480,2,2,4,4,4]{7,6,5,4,3,2,1,0} reshape(%copy.7), sharding={devices=[1,2,2,1,1,1,1,1]<=[4]}, metadata={op_name="jit(_full_run)/jit(main)/while/body/jit(_matvec)/reshape" source_file="/global/homes/j/jackm/software/lorrax_C/src/bse/bse_simple.py" source_line=171}
  %custom-call.103 = c128[1,480,480,2,2,4,4,4]{7,6,5,4,3,2,1,0} custom-call(%reshape.417), custom_call_target="CustomSPMDPartitioning", api_version=API_VERSION_STATUS_RETURNING, sharding={devices=[1,2,2,1,1,1,1,1]<=[4]}, metadata={op_name="jit(_full_run)/jit(main)/while/body/jit(_matvec)/custom_partitioning" source_file="/global/homes/j/jackm/software/lorrax_C/src/bse/bse_simple.py" source_line=173}, backend_config="140369429198032"
  %multiply.192 = c128[1,480,480,2,2,4,4,4]{7,6,5,4,3,2,1,0} multiply(%broadcast.1003, %custom-call.103), sharding={devices=[1,2,2,1,1,1,1,1]<=[4]}, metadata={op_name="jit(_full_run)/jit(main)/while/body/jit(_matvec)/mul" source_file="/global/homes/j/jackm/software/lorrax_C/src/bse/bse_simple.py" source_line=177}
  %custom-call.104 = c128[1,480,480,2,2,4,4,4]{7,6,5,4,3,2,1,0} custom-call(%multiply.192), custom_call_target="CustomSPMDPartitioning", api_version=API_VERSION_STATUS_RETURNING, sharding={devices=[1,2,2,1,1,1,1,1]<=[4]}, metadata={op_name="jit(_full_run)/jit(main)/while/body/jit(_matvec)/custom_partitioning" source_file="/global/homes/j/jackm/software/lorrax_C/src/bse/bse_simple.py" source_line=178}, backend_config="140367988345888"
  %reshape.418 = c128[1,480,480,2,2,64]{5,4,3,2,1,0} reshape(%custom-call.104), sharding={devices=[1,2,2,1,1,1]<=[4]}, metadata={op_name="jit(_full_run)/jit(main)/while/body/jit(_matvec)/reshape" source_file="/global/homes/j/jackm/software/lorrax_C/src/bse/bse_simple.py" source_line=179}
  %copy.6 = c128[1,480,480,2,2,64]{5,4,3,2,1,0} copy(%reshape.418), sharding={devices=[1,2,2,1,1,1]<=[4]}, metadata={op_name="jit(_full_run)/jit(main)/while/body/jit(_matvec)/sharding_constraint" source_file="/global/homes/j/jackm/software/lorrax_C/src/bse/bse_simple.py" source_line=181}
  %reshape.432 = c128[480,480,2,2,64]{4,3,2,1,0} reshape(%copy.6), sharding={devices=[2,2,1,1,1]<=[4]}
  %real.44 = f64[64,4,2,480]{3,2,1,0} real(%copy.10), sharding={devices=[1,1,1,2,2]<=[4] last_tile_dim_replicate}, metadata={op_name="jit(_full_run)/jit(main)/while/body/jit(_matvec)/real" source_file="/global/homes/j/jackm/software/lorrax_C/src/bse/bse_simple.py" source_line=186}
  %imag.35 = f64[64,4,2,480]{3,2,1,0} imag(%copy.10), sharding={devices=[1,1,1,2,2]<=[4] last_tile_dim_replicate}, metadata={op_name="jit(_full_run)/jit(main)/while/body/jit(_matvec)/imag" source_file="/global/homes/j/jackm/software/lorrax_C/src/bse/bse_simple.py" source_line=186}
  %negate.57 = f64[64,4,2,480]{3,2,1,0} negate(%imag.35), sharding={devices=[1,1,1,2,2]<=[4] last_tile_dim_replicate}, metadata={op_name="jit(_full_run)/jit(main)/while/body/jit(_matvec)/neg" source_file="/global/homes/j/jackm/software/lorrax_C/src/bse/bse_simple.py" source_line=186}
  %complex.34 = c128[64,4,2,480]{3,2,1,0} complex(%real.44, %negate.57), sharding={devices=[1,1,1,2,2]<=[4] last_tile_dim_replicate}, metadata={op_name="jit(_full_run)/jit(main)/while/body/jit(_matvec)/complex" source_file="/global/homes/j/jackm/software/lorrax_C/src/bse/bse_simple.py" source_line=186}
  %dot.50 = c128[64,480,2,4]{3,2,1,0} dot(%reshape.432, %complex.34), lhs_batch_dims={4}, lhs_contracting_dims={0,2}, rhs_batch_dims={0}, rhs_contracting_dims={3,2}, sharding={devices=[1,2,1,2]<=[2,2]T(1,0)}, metadata={op_name="jit(_full_run)/jit(main)/while/body/jit(_matvec)/kctM,bMNtsk->bcNsk/dot_general" source_file="/global/homes/j/jackm/software/lorrax_C/src/bse/bse_simple.py" source_line=184}
  %reshape.433 = c128[64,1,480,2,4]{4,3,2,1,0} reshape(%dot.50), sharding={devices=[1,1,2,1,2]<=[2,2]T(1,0)}, metadata={op_name="jit(_full_run)/jit(main)/while/body/jit(_matvec)/kctM,bMNtsk->bcNsk/dot_general" source_file="/global/homes/j/jackm/software/lorrax_C/src/bse/bse_simple.py" source_line=184}
  %transpose.75 = c128[1,4,480,2,64]{1,3,2,0,4} transpose(%reshape.433), dimensions={1,4,2,3,0}, sharding={devices=[1,2,2,1,1]<=[4]}, metadata={op_name="jit(_full_run)/jit(main)/while/body/jit(_matvec)/kctM,bMNtsk->bcNsk/transpose" source_file="/global/homes/j/jackm/software/lorrax_C/src/bse/bse_simple.py" source_line=184}
  %copy.5 = c128[1,4,480,2,64]{4,3,2,1,0} copy(%transpose.75), sharding={devices=[1,2,2,1,1]<=[4]}, metadata={op_name="jit(_full_run)/jit(main)/while/body/jit(_matvec)/sharding_constraint" source_file="/global/homes/j/jackm/software/lorrax_C/src/bse/bse_simple.py" source_line=188}
  %reshape.434 = c128[4,480,2,64]{3,2,1,0} reshape(%copy.5), sharding={devices=[2,2,1,1]<=[4]}
  %dot.51 = c128[64,4,4]{2,1,0} dot(%reshape.434, %copy.16), lhs_batch_dims={3}, lhs_contracting_dims={1,2}, rhs_batch_dims={0}, rhs_contracting_dims={3,2}, sharding={devices=[1,2,2]<=[4]}, metadata={op_name="jit(_full_run)/jit(main)/while/body/jit(_matvec)/kvsN,bcNsk->bcvk/dot_general" source_file="/global/homes/j/jackm/software/lorrax_C/src/bse/bse_simple.py" source_line=191}
  %reshape.435 = c128[64,1,4,4]{3,2,1,0} reshape(%dot.51), sharding={devices=[1,1,2,2]<=[4]}, metadata={op_name="jit(_full_run)/jit(main)/while/body/jit(_matvec)/kvsN,bcNsk->bcvk/dot_general" source_file="/global/homes/j/jackm/software/lorrax_C/src/bse/bse_simple.py" source_line=191}
  %transpose.76 = c128[1,4,4,64]{2,1,0,3} transpose(%reshape.435), dimensions={1,2,3,0}, sharding={devices=[1,2,2,1]<=[4]}, metadata={op_name="jit(_full_run)/jit(main)/while/body/jit(_matvec)/kvsN,bcNsk->bcvk/transpose" source_file="/global/homes/j/jackm/software/lorrax_C/src/bse/bse_simple.py" source_line=191}
  %copy.4 = c128[1,4,4,64]{3,2,1,0} copy(%transpose.76), sharding={devices=[1,2,2,1]<=[4]}, metadata={op_name="jit(_full_run)/jit(main)/while/body/jit(_matvec)/sharding_constraint" source_file="/global/homes/j/jackm/software/lorrax_C/src/bse/bse_simple.py" source_line=195}
  %constant.902 = c128[] constant((0.125, 0)), sharding={replicated}, metadata={op_name="jit(_full_run)/jit(main)/while/body/jit(_matvec)/convert_element_type" source_file="/global/homes/j/jackm/software/lorrax_C/src/bse/bse_simple.py" source_line=196}
  %broadcast.1009 = c128[1,4,4,64]{3,2,1,0} broadcast(%constant.902), dimensions={}, sharding={devices=[1,2,2,1]<=[4]}, metadata={op_name="jit(_full_run)/jit(main)/while/body/jit(_matvec)/div" source_file="/global/homes/j/jackm/software/lorrax_C/src/bse/bse_simple.py" source_line=196}
  %multiply.202 = c128[1,4,4,64]{3,2,1,0} multiply(%copy.4, %broadcast.1009), sharding={devices=[1,2,2,1]<=[4]}, metadata={op_name="jit(_full_run)/jit(main)/while/body/jit(_matvec)/div" source_file="/global/homes/j/jackm/software/lorrax_C/src/bse/bse_simple.py" source_line=196}
  %subtract.38 = c128[1,4,4,64]{3,2,1,0} subtract(%add.628, %multiply.202), sharding={devices=[1,2,2,1]<=[4]}, metadata={op_name="jit(_full_run)/jit(main)/while/body/jit(_matvec)/sub" source_file="/global/homes/j/jackm/software/lorrax_C/src/bse/bse_simple.py" source_line=198}
  %copy.3 = c128[1,4,4,64]{3,2,1,0} copy(%subtract.38), sharding={devices=[1,2,2,1]<=[4]}, metadata={op_name="jit(_full_run)/jit(main)/while/body/pjit" source_file="/global/homes/j/jackm/software/lorrax_C/src/bse/bse_lanczos.py" source_line=204}
  %reshape.419 = c128[1024]{0} reshape(%copy.3), sharding={devices=[2,2]<=[4] last_tile_dim_replicate}, metadata={op_name="jit(_full_run)/jit(main)/while/body/reshape" source_file="/global/homes/j/jackm/software/lorrax_C/src/bse/bse_lanczos.py" source_line=208}
  %real.45 = f64[1024]{0} real(%get-tuple-element.239), sharding={devices=[2,2]<=[4] last_tile_dim_replicate}, metadata={op_name="jit(_full_run)/jit(main)/while/body/real" source_file="/global/homes/j/jackm/software/lorrax_C/src/solvers/lanczos.py" source_line=260}
  %imag.36 = f64[1024]{0} imag(%get-tuple-element.239), sharding={devices=[2,2]<=[4] last_tile_dim_replicate}, metadata={op_name="jit(_full_run)/jit(main)/while/body/imag" source_file="/global/homes/j/jackm/software/lorrax_C/src/solvers/lanczos.py" source_line=260}
  %negate.58 = f64[1024]{0} negate(%imag.36), sharding={devices=[2,2]<=[4] last_tile_dim_replicate}, metadata={op_name="jit(_full_run)/jit(main)/while/body/neg" source_file="/global/homes/j/jackm/software/lorrax_C/src/solvers/lanczos.py" source_line=260}
  %complex.35 = c128[1024]{0} complex(%real.45, %negate.58), sharding={devices=[2,2]<=[4] last_tile_dim_replicate}, metadata={op_name="jit(_full_run)/jit(main)/while/body/complex" source_file="/global/homes/j/jackm/software/lorrax_C/src/solvers/lanczos.py" source_line=260}
  %multiply.195 = c128[1024]{0} multiply(%complex.35, %reshape.419), sharding={devices=[2,2]<=[4] last_tile_dim_replicate}
  %constant.888 = c128[] constant((0, 0))
  %reduce.28 = c128[] reduce(%multiply.195, %constant.888), dimensions={0}, to_apply=%scalar_add_computation, sharding={replicated}, metadata={op_name="jit(_full_run)/jit(main)/while/body/dot_general" source_file="/global/homes/j/jackm/software/lorrax_C/src/solvers/lanczos.py" source_line=260}
  %real.46 = f64[] real(%reduce.28), sharding={replicated}, metadata={op_name="jit(_full_run)/jit(main)/while/body/real" source_file="/global/homes/j/jackm/software/lorrax_C/src/solvers/lanczos.py" source_line=260}
  %convert.61 = c128[] convert(%real.46), sharding={replicated}, metadata={op_name="jit(_full_run)/jit(main)/while/body/convert_element_type" source_file="/global/homes/j/jackm/software/lorrax_C/src/solvers/lanczos.py" source_line=263}
  %broadcast.995 = c128[1024]{0} broadcast(%convert.61), dimensions={}, sharding={devices=[2,2]<=[4] last_tile_dim_replicate}, metadata={op_name="jit(_full_run)/jit(main)/while/body/mul" source_file="/global/homes/j/jackm/software/lorrax_C/src/solvers/lanczos.py" source_line=263}
  %multiply.193 = c128[1024]{0} multiply(%broadcast.995, %get-tuple-element.239), sharding={devices=[2,2]<=[4] last_tile_dim_replicate}, metadata={op_name="jit(_full_run)/jit(main)/while/body/mul" source_file="/global/homes/j/jackm/software/lorrax_C/src/solvers/lanczos.py" source_line=263}
  %subtract.39 = c128[1024]{0} subtract(%reshape.419, %multiply.193), sharding={devices=[2,2]<=[4] last_tile_dim_replicate}, metadata={op_name="jit(_full_run)/jit(main)/while/body/sub" source_file="/global/homes/j/jackm/software/lorrax_C/src/solvers/lanczos.py" source_line=263}
  %constant.949 = s64[] constant(0), sharding={replicated}
  %compare.93 = pred[] compare(%get-tuple-element.243, %constant.949), direction=GT, sharding={replicated}, metadata={op_name="jit(_full_run)/jit(main)/while/body/gt" source_file="/global/homes/j/jackm/software/lorrax_C/src/solvers/lanczos.py" source_line=265}
  %get-tuple-element.240 = f64[200]{0} get-tuple-element(%arg_tuple.4), index=3, sharding={replicated}
  %constant.898 = s64[] constant(-1), sharding={replicated}
  %add.635 = s64[] add(%get-tuple-element.243, %constant.898), sharding={replicated}, metadata={op_name="jit(_full_run)/jit(main)/while/body/sub" source_file="/global/homes/j/jackm/software/lorrax_C/src/solvers/lanczos.py" source_line=265}
  %constant.950 = s64[] constant(0), sharding={replicated}
  %compare.94 = pred[] compare(%add.635, %constant.950), direction=LT, sharding={replicated}, metadata={op_name="jit(_full_run)/jit(main)/while/body/lt" source_file="/global/homes/j/jackm/software/lorrax_C/src/solvers/lanczos.py" source_line=265}
  %constant.903 = s64[] constant(199), sharding={replicated}
  %add.637 = s64[] add(%get-tuple-element.243, %constant.903), sharding={replicated}, metadata={op_name="jit(_full_run)/jit(main)/while/body/add" source_file="/global/homes/j/jackm/software/lorrax_C/src/solvers/lanczos.py" source_line=265}
  %select.257 = s64[] select(%compare.94, %add.637, %add.635), sharding={replicated}, metadata={op_name="jit(_full_run)/jit(main)/while/body/select_n" source_file="/global/homes/j/jackm/software/lorrax_C/src/solvers/lanczos.py" source_line=265}
  %dynamic-slice.50 = f64[1]{0} dynamic-slice(%get-tuple-element.240, %select.257), dynamic_slice_sizes={1}, sharding={replicated}, metadata={op_name="jit(_full_run)/jit(main)/while/body/dynamic_slice" source_file="/global/homes/j/jackm/software/lorrax_C/src/solvers/lanczos.py" source_line=265}
  %reshape.420 = f64[] reshape(%dynamic-slice.50), sharding={replicated}, metadata={op_name="jit(_full_run)/jit(main)/while/body/squeeze" source_file="/global/homes/j/jackm/software/lorrax_C/src/solvers/lanczos.py" source_line=265}
  %constant.884 = f64[] constant(0), sharding={replicated}
  %select.258 = f64[] select(%compare.93, %reshape.420, %constant.884), sharding={replicated}, metadata={op_name="jit(_full_run)/jit(main)/while/body/jit(_where)/select_n" source_file="/global/homes/j/jackm/software/lorrax_C/src/solvers/lanczos.py" source_line=265}
  %convert.62 = c128[] convert(%select.258), sharding={replicated}, metadata={op_name="jit(_full_run)/jit(main)/while/body/convert_element_type" source_file="/global/homes/j/jackm/software/lorrax_C/src/solvers/lanczos.py" source_line=266}
  %broadcast.1004 = c128[1024,1]{1,0} broadcast(%convert.62), dimensions={}, sharding={devices=[2,1,2]<=[4] last_tile_dim_replicate}, metadata={op_name="jit(_full_run)/jit(main)/while/body/mul" source_file="/global/homes/j/jackm/software/lorrax_C/src/solvers/lanczos.py" source_line=266}
  %constant.953 = s64[] constant(0)
  %constant.899 = s64[] constant(-1), sharding={replicated}
  %add.636 = s64[] add(%get-tuple-element.243, %constant.899), sharding={replicated}, metadata={op_name="jit(_full_run)/jit(main)/while/body/sub" source_file="/global/homes/j/jackm/software/lorrax_C/src/solvers/lanczos.py" source_line=264}
  %constant.951 = s64[] constant(0), sharding={replicated}
  %maximum.19 = s64[] maximum(%add.636, %constant.951), sharding={replicated}, metadata={op_name="jit(_full_run)/jit(main)/while/body/max" source_file="/global/homes/j/jackm/software/lorrax_C/src/solvers/lanczos.py" source_line=264}
  %dynamic-slice.51 = c128[1024,1]{1,0} dynamic-slice(%get-tuple-element.242, %constant.953, %maximum.19), dynamic_slice_sizes={1024,1}, sharding={devices=[2,1,2]<=[4] last_tile_dim_replicate}, metadata={op_name="jit(_full_run)/jit(main)/while/body/dynamic_slice" source_file="/global/homes/j/jackm/software/lorrax_C/src/solvers/lanczos.py" source_line=264}
  %multiply.196 = c128[1024,1]{1,0} multiply(%broadcast.1004, %dynamic-slice.51), sharding={devices=[2,1,2]<=[4] last_tile_dim_replicate}, metadata={op_name="jit(_full_run)/jit(main)/while/body/mul" source_file="/global/homes/j/jackm/software/lorrax_C/src/solvers/lanczos.py" source_line=266}
  %reshape.436 = c128[1024]{0} reshape(%multiply.196), sharding={devices=[2,2]<=[4] last_tile_dim_replicate}, metadata={op_name="jit(_full_run)/jit(main)/while/body/mul" source_file="/global/homes/j/jackm/software/lorrax_C/src/solvers/lanczos.py" source_line=266}
  %subtract.40 = c128[1024]{0} subtract(%subtract.39, %reshape.436), sharding={devices=[2,2]<=[4] last_tile_dim_replicate}, metadata={op_name="jit(_full_run)/jit(main)/while/body/sub" source_file="/global/homes/j/jackm/software/lorrax_C/src/solvers/lanczos.py" source_line=266}
  %constant.947 = s64[] constant(1), sharding={replicated}
  %add.629 = s64[] add(%get-tuple-element.243, %constant.947), sharding={replicated}, metadata={op_name="jit(_full_run)/jit(main)/while/body/add" source_file="/global/homes/j/jackm/software/lorrax_C/src/solvers/lanczos.py" source_line=275}
  %tuple.61 = (s64[], c128[1024]{0}, s64[], s64[], c128[1024,200]{1,0}) tuple(%maximum.18, %subtract.40, %add.629, %get-tuple-element.243, %get-tuple-element.242), sharding={{replicated}, {devices=[2,2]<=[4] last_tile_dim_replicate}, {replicated}, {replicated}, {devices=[2,1,2]<=[4] last_tile_dim_replicate}}, metadata={op_name="jit(_full_run)/jit(main)/while/body/while" source_file="/global/homes/j/jackm/software/lorrax_C/src/solvers/lanczos.py" source_line=275}
  %while.8 = (s64[], c128[1024]{0}, s64[], s64[], c128[1024,200]{1,0}) while(%tuple.61), condition=%region_6.1435, body=%region_5.1407, sharding={{replicated}, {devices=[2,2]<=[4] last_tile_dim_replicate}, {replicated}, {replicated}, {devices=[2,1,2]<=[4] last_tile_dim_replicate}}, metadata={op_name="jit(_full_run)/jit(main)/while/body/while" source_file="/global/homes/j/jackm/software/lorrax_C/src/solvers/lanczos.py" source_line=275}
  %get-tuple-element.230 = c128[1024]{0} get-tuple-element(%while.8), index=1, sharding={devices=[2,2]<=[4] last_tile_dim_replicate}, metadata={op_name="jit(_full_run)/jit(main)/while/body/while" source_file="/global/homes/j/jackm/software/lorrax_C/src/solvers/lanczos.py" source_line=275}
  %real.47 = f64[1024]{0} real(%get-tuple-element.230), sharding={devices=[2,2]<=[4] last_tile_dim_replicate}, metadata={op_name="jit(_full_run)/jit(main)/while/body/jit(norm)/real" source_file="/global/homes/j/jackm/software/lorrax_C/src/solvers/lanczos.py" source_line=277}
  %imag.37 = f64[1024]{0} imag(%get-tuple-element.230), sharding={devices=[2,2]<=[4] last_tile_dim_replicate}, metadata={op_name="jit(_full_run)/jit(main)/while/body/jit(norm)/imag" source_file="/global/homes/j/jackm/software/lorrax_C/src/solvers/lanczos.py" source_line=277}
  %negate.59 = f64[1024]{0} negate(%imag.37), sharding={devices=[2,2]<=[4] last_tile_dim_replicate}, metadata={op_name="jit(_full_run)/jit(main)/while/body/jit(norm)/neg" source_file="/global/homes/j/jackm/software/lorrax_C/src/solvers/lanczos.py" source_line=277}
  %complex.36 = c128[1024]{0} complex(%real.47, %negate.59), sharding={devices=[2,2]<=[4] last_tile_dim_replicate}, metadata={op_name="jit(_full_run)/jit(main)/while/body/jit(norm)/complex" source_file="/global/homes/j/jackm/software/lorrax_C/src/solvers/lanczos.py" source_line=277}
  %multiply.194 = c128[1024]{0} multiply(%get-tuple-element.230, %complex.36), sharding={devices=[2,2]<=[4] last_tile_dim_replicate}, metadata={op_name="jit(_full_run)/jit(main)/while/body/jit(norm)/mul" source_file="/global/homes/j/jackm/software/lorrax_C/src/solvers/lanczos.py" source_line=277}
  %real.48 = f64[1024]{0} real(%multiply.194), sharding={devices=[2,2]<=[4] last_tile_dim_replicate}, metadata={op_name="jit(_full_run)/jit(main)/while/body/jit(norm)/real" source_file="/global/homes/j/jackm/software/lorrax_C/src/solvers/lanczos.py" source_line=277}
  %constant.886 = f64[] constant(0)
  %reduce.27 = f64[] reduce(%real.48, %constant.886), dimensions={0}, to_apply=%region_7.1443, sharding={replicated}, metadata={op_name="jit(_full_run)/jit(main)/while/body/jit(norm)/reduce_sum" source_file="/global/homes/j/jackm/software/lorrax_C/src/solvers/lanczos.py" source_line=277}
  %sqrt.18 = f64[] sqrt(%reduce.27), sharding={replicated}, metadata={op_name="jit(_full_run)/jit(main)/while/body/jit(norm)/sqrt" source_file="/global/homes/j/jackm/software/lorrax_C/src/solvers/lanczos.py" source_line=277}
  %constant.887 = f64[] constant(1e-15), sharding={replicated}
  %maximum.20 = f64[] maximum(%sqrt.18, %constant.887), sharding={replicated}, metadata={op_name="jit(_full_run)/jit(main)/while/body/max" source_file="/global/homes/j/jackm/software/lorrax_C/src/solvers/lanczos.py" source_line=280}
  %convert.64 = c128[] convert(%maximum.20), sharding={replicated}, metadata={op_name="jit(_full_run)/jit(main)/while/body/convert_element_type" source_file="/global/homes/j/jackm/software/lorrax_C/src/solvers/lanczos.py" source_line=280}
  %broadcast.996 = c128[1024]{0} broadcast(%convert.64), dimensions={}, sharding={devices=[2,2]<=[4] last_tile_dim_replicate}, metadata={op_name="jit(_full_run)/jit(main)/while/body/div" source_file="/global/homes/j/jackm/software/lorrax_C/src/solvers/lanczos.py" source_line=280}
  %divide.33 = c128[1024]{0} divide(%get-tuple-element.230, %broadcast.996), sharding={devices=[2,2]<=[4] last_tile_dim_replicate}, metadata={op_name="jit(_full_run)/jit(main)/while/body/div" source_file="/global/homes/j/jackm/software/lorrax_C/src/solvers/lanczos.py" source_line=280}
  %reshape.437 = c128[1024,1]{1,0} reshape(%divide.33), sharding={devices=[2,1,2]<=[4] last_tile_dim_replicate}
  %constant.895 = s32[] constant(0)
  %dynamic-slice.54 = c128[1024,1]{1,0} dynamic-slice(%get-tuple-element.242, %constant.895, %convert.63), dynamic_slice_sizes={1024,1}, sharding={devices=[2,1,2]<=[4] last_tile_dim_replicate}
  %select.262 = c128[1024,1]{1,0} select(%broadcast.998, %reshape.437, %dynamic-slice.54), sharding={devices=[2,1,2]<=[4] last_tile_dim_replicate}
  %constant.896 = s32[] constant(0)
  %dynamic-update-slice.18 = c128[1024,200]{1,0} dynamic-update-slice(%get-tuple-element.242, %select.262, %constant.896, %convert.63), sharding={devices=[2,1,2]<=[4] last_tile_dim_replicate}, metadata={op_name="jit(_full_run)/jit(main)/while/body/scatter" source_file="/global/homes/j/jackm/software/lorrax_C/src/solvers/lanczos.py" source_line=281}
  %get-tuple-element.241 = f64[200]{0} get-tuple-element(%arg_tuple.4), index=2, sharding={replicated}
  %constant.904 = s32[] constant(0), sharding={replicated}
  %constant.955 = s64[] constant(0), sharding={replicated}
  %compare.97 = pred[] compare(%get-tuple-element.243, %constant.955), direction=LT, sharding={replicated}, metadata={op_name="jit(_full_run)/jit(main)/while/body/lt" source_file="/global/homes/j/jackm/software/lorrax_C/src/solvers/lanczos.py" source_line=261}
  %constant.956 = s64[] constant(200), sharding={replicated}
  %add.632 = s64[] add(%get-tuple-element.243, %constant.956), sharding={replicated}, metadata={op_name="jit(_full_run)/jit(main)/while/body/add" source_file="/global/homes/j/jackm/software/lorrax_C/src/solvers/lanczos.py" source_line=261}
  %select.260 = s64[] select(%compare.97, %add.632, %get-tuple-element.243), sharding={replicated}, metadata={op_name="jit(_full_run)/jit(main)/while/body/select_n" source_file="/global/homes/j/jackm/software/lorrax_C/src/solvers/lanczos.py" source_line=261}
  %convert.65 = s32[] convert(%select.260), sharding={replicated}, metadata={op_name="jit(_full_run)/jit(main)/while/body/convert_element_type" source_file="/global/homes/j/jackm/software/lorrax_C/src/solvers/lanczos.py" source_line=261}
  %compare.103 = pred[] compare(%constant.904, %convert.65), direction=LE, sharding={replicated}
  %constant.905 = s32[] constant(199), sharding={replicated}
  %compare.104 = pred[] compare(%constant.905, %convert.65), direction=GE, sharding={replicated}
  %and.23 = pred[] and(%compare.103, %compare.104), sharding={replicated}
  %reshape.449 = pred[1]{0} reshape(%and.23), sharding={replicated}
  %reshape.438 = f64[1]{0} reshape(%real.46), sharding={replicated}
  %dynamic-slice.52 = f64[1]{0} dynamic-slice(%get-tuple-element.241, %convert.65), dynamic_slice_sizes={1}, sharding={replicated}
  %select.263 = f64[1]{0} select(%reshape.449, %reshape.438, %dynamic-slice.52), sharding={replicated}
  %dynamic-update-slice.16 = f64[200]{0} dynamic-update-slice(%get-tuple-element.241, %select.263, %convert.65), sharding={replicated}, metadata={op_name="jit(_full_run)/jit(main)/while/body/scatter" source_file="/global/homes/j/jackm/software/lorrax_C/src/solvers/lanczos.py" source_line=261}
  %constant.906 = s32[] constant(0), sharding={replicated}
  %constant.952 = s64[] constant(0), sharding={replicated}
  %compare.98 = pred[] compare(%get-tuple-element.243, %constant.952), direction=LT, sharding={replicated}, metadata={op_name="jit(_full_run)/jit(main)/while/body/lt" source_file="/global/homes/j/jackm/software/lorrax_C/src/solvers/lanczos.py" source_line=278}
  %constant.957 = s64[] constant(200), sharding={replicated}
  %add.633 = s64[] add(%get-tuple-element.243, %constant.957), sharding={replicated}, metadata={op_name="jit(_full_run)/jit(main)/while/body/add" source_file="/global/homes/j/jackm/software/lorrax_C/src/solvers/lanczos.py" source_line=278}
  %select.261 = s64[] select(%compare.98, %add.633, %get-tuple-element.243), sharding={replicated}, metadata={op_name="jit(_full_run)/jit(main)/while/body/select_n" source_file="/global/homes/j/jackm/software/lorrax_C/src/solvers/lanczos.py" source_line=278}
  %convert.66 = s32[] convert(%select.261), sharding={replicated}, metadata={op_name="jit(_full_run)/jit(main)/while/body/convert_element_type" source_file="/global/homes/j/jackm/software/lorrax_C/src/solvers/lanczos.py" source_line=278}
  %compare.105 = pred[] compare(%constant.906, %convert.66), direction=LE, sharding={replicated}
  %constant.907 = s32[] constant(199), sharding={replicated}
  %compare.106 = pred[] compare(%constant.907, %convert.66), direction=GE, sharding={replicated}
  %and.24 = pred[] and(%compare.105, %compare.106), sharding={replicated}
  %reshape.452 = pred[1]{0} reshape(%and.24), sharding={replicated}
  %reshape.439 = f64[1]{0} reshape(%sqrt.18), sharding={replicated}
  %dynamic-slice.53 = f64[1]{0} dynamic-slice(%get-tuple-element.240, %convert.66), dynamic_slice_sizes={1}, sharding={replicated}
  %select.264 = f64[1]{0} select(%reshape.452, %reshape.439, %dynamic-slice.53), sharding={replicated}
  %dynamic-update-slice.17 = f64[200]{0} dynamic-update-slice(%get-tuple-element.240, %select.264, %convert.66), sharding={replicated}, metadata={op_name="jit(_full_run)/jit(main)/while/body/scatter" source_file="/global/homes/j/jackm/software/lorrax_C/src/solvers/lanczos.py" source_line=278}
  ROOT %tuple.60 = (s64[], c128[1024,200]{1,0}, f64[200]{0}, f64[200]{0}, c128[1024]{0}, /*index=5*/c128[64,4,2,480]{3,2,1,0}, c128[64,4,2,480]{3,2,1,0}, c128[64,4,2,480]{3,2,1,0}, c128[64,4,2,480]{3,2,1,0}, f64[64,4]{1,0}, /*index=10*/f64[64,4]{1,0}, c128[480,480,4,4,4]{4,3,2,1,0}, c128[480,480]{1,0}) tuple(%add.627, %dynamic-update-slice.18, %dynamic-update-slice.16, %dynamic-update-slice.17, %divide.33, /*index=5*/%get-tuple-element.238, %get-tuple-element.237, %get-tuple-element.236, %get-tuple-element.235, %get-tuple-element.234, /*index=10*/%get-tuple-element.233, %get-tuple-element.232, %get-tuple-element.231), sharding={{replicated}, {devices=[2,1,2]<=[4] last_tile_dim_replicate}, {replicated}, {replicated}, {devices=[2,2]<=[4] last_tile_dim_replicate}, /*index=5*/{devices=[1,1,1,2,2]<=[4] last_tile_dim_replicate}, {devices=[1,1,1,2,2]<=[2,2]T(1,0) last_tile_dim_replicate}, {devices=[1,1,1,2,2]<=[4] last_tile_dim_replicate}, {devices=[1,1,1,2,2]<=[2,2]T(1,0) last_tile_dim_replicate}, {replicated}, /*index=10*/{replicated}, {devices=[2,2,1,1,1]<=[4]}, {devices=[2,2]<=[4]}}
  %constant.881 = s64[] constant(0)
  %constant.882 = s64[] constant(1)
  %constant.883 = s64[] constant(200)
}

%region_10.1577.clone.clone (arg_tuple.3: (s64[], c128[1024,200], f64[200], f64[200], c128[1024], /*index=5*/c128[64,4,2,480], c128[64,4,2,480], c128[64,4,2,480], c128[64,4,2,480], f64[64,4], /*index=10*/f64[64,4], c128[480,480,4,4,4], c128[480,480])) -> pred[] {
  %arg_tuple.3 = (s64[], c128[1024,200]{1,0}, f64[200]{0}, f64[200]{0}, c128[1024]{0}, /*index=5*/c128[64,4,2,480]{3,2,1,0}, c128[64,4,2,480]{3,2,1,0}, c128[64,4,2,480]{3,2,1,0}, c128[64,4,2,480]{3,2,1,0}, f64[64,4]{1,0}, /*index=10*/f64[64,4]{1,0}, c128[480,480,4,4,4]{4,3,2,1,0}, c128[480,480]{1,0}) parameter(0), sharding={{replicated}, {devices=[2,1,2]<=[4] last_tile_dim_replicate}, {replicated}, {replicated}, {devices=[2,2]<=[4] last_tile_dim_replicate}, /*index=5*/{devices=[1,1,1,2,2]<=[4] last_tile_dim_replicate}, {devices=[1,1,1,2,2]<=[2,2]T(1,0) last_tile_dim_replicate}, {devices=[1,1,1,2,2]<=[4] last_tile_dim_replicate}, {devices=[1,1,1,2,2]<=[2,2]T(1,0) last_tile_dim_replicate}, {replicated}, /*index=10*/{replicated}, {devices=[2,2,1,1,1]<=[4]}, {devices=[2,2]<=[4]}}
  %get-tuple-element.229 = s64[] get-tuple-element(%arg_tuple.3), index=0, sharding={replicated}
  %constant.879 = s64[] constant(200), sharding={replicated}
  ROOT %compare.92 = pred[] compare(%get-tuple-element.229, %constant.879), direction=LT, sharding={replicated}, metadata={op_name="jit(_full_run)/jit(main)/while/cond/lt" source_file="/global/homes/j/jackm/software/lorrax_C/src/solvers/lanczos.py" source_line=286}
}

ENTRY %main.1766 (Arg_0.1: c128[64,4,2,480], Arg_1.2: c128[64,4,2,480], Arg_2.3: c128[64,4,2,480], Arg_3.4: c128[64,4,2,480], Arg_4.5: f64[64,4], Arg_5.6: f64[64,4], Arg_6.7: c128[480,480,4,4,4], Arg_7.8: c128[480,480]) -> (f64[5], c128[5,1024], s32[]) {
  %constant.18 = c128[] constant((0, 0))
  %iota.14 = s64[200,200]{1,0} iota(), iota_dimension=0, metadata={op_name="jit(_full_run)/jit(main)/jit(_diag)/iota" source_file="/global/homes/j/jackm/software/lorrax_C/src/solvers/lanczos.py" source_line=288}
  %iota.15 = s64[200,200]{1,0} iota(), iota_dimension=1, metadata={op_name="jit(_full_run)/jit(main)/jit(_diag)/iota" source_file="/global/homes/j/jackm/software/lorrax_C/src/solvers/lanczos.py" source_line=288}
  %compare.32 = pred[200,200]{1,0} compare(%iota.14, %iota.15), direction=EQ, metadata={op_name="jit(_full_run)/jit(main)/jit(_diag)/eq" source_file="/global/homes/j/jackm/software/lorrax_C/src/solvers/lanczos.py" source_line=288}
  %constant.24 = s64[] constant(0), sharding={replicated}
  %iota.19 = s32[2]{0} iota(), iota_dimension=0, sharding={replicated}
  %constant.826 = s32[] constant(199), sharding={replicated}
  %broadcast.969 = s32[2]{0} broadcast(%constant.826), dimensions={}, sharding={replicated}
  %multiply.185 = s32[2]{0} multiply(%iota.19, %broadcast.969), sharding={replicated}
  %constant.870 = s32[] constant(0), sharding={replicated}
  %broadcast.984 = s32[2]{0} broadcast(%constant.870), dimensions={}, sharding={replicated}
  %compare.85 = pred[2]{0} compare(%multiply.185, %broadcast.984), direction=GE, sharding={replicated}
  %constant.812 = pred[] constant(true)
  %reduce.24 = pred[] reduce(%compare.85, %constant.812), dimensions={0}, to_apply=%and.reduce_sub_computation.3, sharding={replicated}
  %broadcast.989 = pred[1024]{0} broadcast(%reduce.24), dimensions={}, sharding={devices=[2,2]<=[4] last_tile_dim_replicate}
  %constant.917 = f64[] constant(-0.99999999999999989), sharding={replicated}
  %broadcast.478 = f64[1024]{0} broadcast(%constant.917), dimensions={}, sharding={devices=[2,2]<=[4] last_tile_dim_replicate}, metadata={op_name="jit(_full_run)/jit(main)/jit(_normal)/jit(_normal_real)/jit(_uniform)/max" source_file="/global/homes/j/jackm/software/lorrax_C/src/solvers/lanczos.py" source_line=247}
  %iota.5 = u64[1024]{0} iota(), iota_dimension=0, sharding={devices=[2,2]<=[4] last_tile_dim_replicate}, metadata={op_name="jit(_full_run)/jit(main)/jit(_normal)/jit(_normal_real)/jit(_uniform)/iota_2x32_shape" source_file="/global/homes/j/jackm/software/lorrax_C/src/solvers/lanczos.py" source_line=247}
  %constant.333 = u64[] constant(32), sharding={replicated}
  %broadcast.479 = u64[1024]{0} broadcast(%constant.333), dimensions={}, sharding={devices=[2,2]<=[4] last_tile_dim_replicate}
  %shift-right-logical.170 = u64[1024]{0} shift-right-logical(%iota.5, %broadcast.479), sharding={devices=[2,2]<=[4] last_tile_dim_replicate}, metadata={op_name="jit(_full_run)/jit(main)/jit(_normal)/jit(_normal_real)/jit(_uniform)/iota_2x32_shape" source_file="/global/homes/j/jackm/software/lorrax_C/src/solvers/lanczos.py" source_line=247}
  %convert.32 = u32[1024]{0} convert(%shift-right-logical.170), sharding={devices=[2,2]<=[4] last_tile_dim_replicate}, metadata={op_name="jit(_full_run)/jit(main)/jit(_normal)/jit(_normal_real)/jit(_uniform)/iota_2x32_shape" source_file="/global/homes/j/jackm/software/lorrax_C/src/solvers/lanczos.py" source_line=247}
  %iota.4 = u64[2]{0} iota(), iota_dimension=0, sharding={replicated}, metadata={op_name="jit(_full_run)/jit(main)/jit(_threefry_split)/iota_2x32_shape" source_file="/global/homes/j/jackm/software/lorrax_C/src/solvers/lanczos.py" source_line=245}
  %constant.314 = u64[] constant(32), sharding={replicated}
  %broadcast.447 = u64[2]{0} broadcast(%constant.314), dimensions={}, sharding={replicated}
  %shift-right-logical.148 = u64[2]{0} shift-right-logical(%iota.4, %broadcast.447), sharding={replicated}, metadata={op_name="jit(_full_run)/jit(main)/jit(_threefry_split)/iota_2x32_shape" source_file="/global/homes/j/jackm/software/lorrax_C/src/solvers/lanczos.py" source_line=245}
  %convert.30 = u32[2]{0} convert(%shift-right-logical.148), sharding={replicated}, metadata={op_name="jit(_full_run)/jit(main)/jit(_threefry_split)/iota_2x32_shape" source_file="/global/homes/j/jackm/software/lorrax_C/src/solvers/lanczos.py" source_line=245}
  %convert.31 = u32[2]{0} convert(%iota.4), sharding={replicated}, metadata={op_name="jit(_full_run)/jit(main)/jit(_threefry_split)/iota_2x32_shape" source_file="/global/homes/j/jackm/software/lorrax_C/src/solvers/lanczos.py" source_line=245}
  %constant.918 = u32[] constant(42), sharding={replicated}, metadata={op_name="jit(_full_run)/jit(main)/jit(_threefry_split)/squeeze" source_file="/global/homes/j/jackm/software/lorrax_C/src/solvers/lanczos.py" source_line=245}
  %broadcast.449 = u32[2]{0} broadcast(%constant.918), dimensions={}, sharding={replicated}, metadata={op_name="jit(_full_run)/jit(main)/jit(_threefry_split)/add" source_file="/global/homes/j/jackm/software/lorrax_C/src/solvers/lanczos.py" source_line=245}
  %add.362 = u32[2]{0} add(%convert.31, %broadcast.449), sharding={replicated}, metadata={op_name="jit(_full_run)/jit(main)/jit(_threefry_split)/add" source_file="/global/homes/j/jackm/software/lorrax_C/src/solvers/lanczos.py" source_line=245}
  %add.363 = u32[2]{0} add(%convert.30, %add.362), sharding={replicated}, metadata={op_name="jit(_full_run)/jit(main)/jit(_threefry_split)/add" source_file="/global/homes/j/jackm/software/lorrax_C/src/solvers/lanczos.py" source_line=245}
  %constant.315 = u32[] constant(13), sharding={replicated}
  %broadcast.450 = u32[2]{0} broadcast(%constant.315), dimensions={}, sharding={replicated}
  %shift-left.144 = u32[2]{0} shift-left(%add.362, %broadcast.450), sharding={replicated}, metadata={op_name="jit(_full_run)/jit(main)/jit(_threefry_split)/shift_left" source_file="/global/homes/j/jackm/software/lorrax_C/src/solvers/lanczos.py" source_line=245}
  %constant.316 = u32[] constant(19), sharding={replicated}
  %broadcast.451 = u32[2]{0} broadcast(%constant.316), dimensions={}, sharding={replicated}
  %shift-right-logical.149 = u32[2]{0} shift-right-logical(%add.362, %broadcast.451), sharding={replicated}, metadata={op_name="jit(_full_run)/jit(main)/jit(_threefry_split)/shift_right_logical" source_file="/global/homes/j/jackm/software/lorrax_C/src/solvers/lanczos.py" source_line=245}
  %or.149 = u32[2]{0} or(%shift-left.144, %shift-right-logical.149), sharding={replicated}, metadata={op_name="jit(_full_run)/jit(main)/jit(_threefry_split)/or" source_file="/global/homes/j/jackm/software/lorrax_C/src/solvers/lanczos.py" source_line=245}
  %xor.154 = u32[2]{0} xor(%add.363, %or.149), sharding={replicated}, metadata={op_name="jit(_full_run)/jit(main)/jit(_threefry_split)/xor" source_file="/global/homes/j/jackm/software/lorrax_C/src/solvers/lanczos.py" source_line=245}
  %add.364 = u32[2]{0} add(%add.363, %xor.154), sharding={replicated}, metadata={op_name="jit(_full_run)/jit(main)/jit(_threefry_split)/add" source_file="/global/homes/j/jackm/software/lorrax_C/src/solvers/lanczos.py" source_line=245}
  %constant.317 = u32[] constant(15), sharding={replicated}
  %broadcast.452 = u32[2]{0} broadcast(%constant.317), dimensions={}, sharding={replicated}
  %shift-left.145 = u32[2]{0} shift-left(%xor.154, %broadcast.452), sharding={replicated}, metadata={op_name="jit(_full_run)/jit(main)/jit(_threefry_split)/shift_left" source_file="/global/homes/j/jackm/software/lorrax_C/src/solvers/lanczos.py" source_line=245}
  %constant.318 = u32[] constant(17), sharding={replicated}
  %broadcast.453 = u32[2]{0} broadcast(%constant.318), dimensions={}, sharding={replicated}
  %shift-right-logical.150 = u32[2]{0} shift-right-logical(%xor.154, %broadcast.453), sharding={replicated}, metadata={op_name="jit(_full_run)/jit(main)/jit(_threefry_split)/shift_right_logical" source_file="/global/homes/j/jackm/software/lorrax_C/src/solvers/lanczos.py" source_line=245}
  %or.150 = u32[2]{0} or(%shift-left.145, %shift-right-logical.150), sharding={replicated}, metadata={op_name="jit(_full_run)/jit(main)/jit(_threefry_split)/or" source_file="/global/homes/j/jackm/software/lorrax_C/src/solvers/lanczos.py" source_line=245}
  %xor.155 = u32[2]{0} xor(%add.364, %or.150), sharding={replicated}, metadata={op_name="jit(_full_run)/jit(main)/jit(_threefry_split)/xor" source_file="/global/homes/j/jackm/software/lorrax_C/src/solvers/lanczos.py" source_line=245}
  %add.365 = u32[2]{0} add(%add.364, %xor.155), sharding={replicated}, metadata={op_name="jit(_full_run)/jit(main)/jit(_threefry_split)/add" source_file="/global/homes/j/jackm/software/lorrax_C/src/solvers/lanczos.py" source_line=245}
  %constant.319 = u32[] constant(26), sharding={replicated}
  %broadcast.454 = u32[2]{0} broadcast(%constant.319), dimensions={}, sharding={replicated}
  %shift-left.146 = u32[2]{0} shift-left(%xor.155, %broadcast.454), sharding={replicated}, metadata={op_name="jit(_full_run)/jit(main)/jit(_threefry_split)/shift_left" source_file="/global/homes/j/jackm/software/lorrax_C/src/solvers/lanczos.py" source_line=245}
  %constant.320 = u32[] constant(6), sharding={replicated}
  %broadcast.455 = u32[2]{0} broadcast(%constant.320), dimensions={}, sharding={replicated}
  %shift-right-logical.152 = u32[2]{0} shift-right-logical(%xor.155, %broadcast.455), sharding={replicated}, metadata={op_name="jit(_full_run)/jit(main)/jit(_threefry_split)/shift_right_logical" source_file="/global/homes/j/jackm/software/lorrax_C/src/solvers/lanczos.py" source_line=245}
  %or.151 = u32[2]{0} or(%shift-left.146, %shift-right-logical.152), sharding={replicated}, metadata={op_name="jit(_full_run)/jit(main)/jit(_threefry_split)/or" source_file="/global/homes/j/jackm/software/lorrax_C/src/solvers/lanczos.py" source_line=245}
  %xor.156 = u32[2]{0} xor(%add.365, %or.151), sharding={replicated}, metadata={op_name="jit(_full_run)/jit(main)/jit(_threefry_split)/xor" source_file="/global/homes/j/jackm/software/lorrax_C/src/solvers/lanczos.py" source_line=245}
  %add.366 = u32[2]{0} add(%add.365, %xor.156), sharding={replicated}, metadata={op_name="jit(_full_run)/jit(main)/jit(_threefry_split)/add" source_file="/global/homes/j/jackm/software/lorrax_C/src/solvers/lanczos.py" source_line=245}
  %constant.919 = u32[] constant(42), sharding={replicated}, metadata={op_name="jit(_full_run)/jit(main)/jit(_threefry_split)/squeeze" source_file="/global/homes/j/jackm/software/lorrax_C/src/solvers/lanczos.py" source_line=245}
  %broadcast.456 = u32[2]{0} broadcast(%constant.919), dimensions={}, sharding={replicated}, metadata={op_name="jit(_full_run)/jit(main)/jit(_threefry_split)/add" source_file="/global/homes/j/jackm/software/lorrax_C/src/solvers/lanczos.py" source_line=245}
  %add.367 = u32[2]{0} add(%add.366, %broadcast.456), sharding={replicated}, metadata={op_name="jit(_full_run)/jit(main)/jit(_threefry_split)/add" source_file="/global/homes/j/jackm/software/lorrax_C/src/solvers/lanczos.py" source_line=245}
  %shift-left.147 = u32[2]{0} shift-left(%xor.156, %broadcast.455), sharding={replicated}, metadata={op_name="jit(_full_run)/jit(main)/jit(_threefry_split)/shift_left" source_file="/global/homes/j/jackm/software/lorrax_C/src/solvers/lanczos.py" source_line=245}
  %shift-right-logical.153 = u32[2]{0} shift-right-logical(%xor.156, %broadcast.454), sharding={replicated}, metadata={op_name="jit(_full_run)/jit(main)/jit(_threefry_split)/shift_right_logical" source_file="/global/homes/j/jackm/software/lorrax_C/src/solvers/lanczos.py" source_line=245}
  %or.152 = u32[2]{0} or(%shift-left.147, %shift-right-logical.153), sharding={replicated}, metadata={op_name="jit(_full_run)/jit(main)/jit(_threefry_split)/or" source_file="/global/homes/j/jackm/software/lorrax_C/src/solvers/lanczos.py" source_line=245}
  %xor.157 = u32[2]{0} xor(%add.366, %or.152), sharding={replicated}, metadata={op_name="jit(_full_run)/jit(main)/jit(_threefry_split)/xor" source_file="/global/homes/j/jackm/software/lorrax_C/src/solvers/lanczos.py" source_line=245}
  %constant.876 = u32[] constant(466689009), sharding={replicated}
  %broadcast.986 = u32[2]{0} broadcast(%constant.876), dimensions={}, sharding={replicated}, metadata={op_name="jit(_full_run)/jit(main)/jit(_threefry_split)/add" source_file="/global/homes/j/jackm/software/lorrax_C/src/solvers/lanczos.py" source_line=245}
  %add.369 = u32[2]{0} add(%xor.157, %broadcast.986), sharding={replicated}, metadata={op_name="jit(_full_run)/jit(main)/jit(_threefry_split)/add" source_file="/global/homes/j/jackm/software/lorrax_C/src/solvers/lanczos.py" source_line=245}
  %add.370 = u32[2]{0} add(%add.367, %add.369), sharding={replicated}, metadata={op_name="jit(_full_run)/jit(main)/jit(_threefry_split)/add" source_file="/global/homes/j/jackm/software/lorrax_C/src/solvers/lanczos.py" source_line=245}
  %shift-left.148 = u32[2]{0} shift-left(%add.369, %broadcast.453), sharding={replicated}, metadata={op_name="jit(_full_run)/jit(main)/jit(_threefry_split)/shift_left" source_file="/global/homes/j/jackm/software/lorrax_C/src/solvers/lanczos.py" source_line=245}
  %shift-right-logical.154 = u32[2]{0} shift-right-logical(%add.369, %broadcast.452), sharding={replicated}, metadata={op_name="jit(_full_run)/jit(main)/jit(_threefry_split)/shift_right_logical" source_file="/global/homes/j/jackm/software/lorrax_C/src/solvers/lanczos.py" source_line=245}
  %or.153 = u32[2]{0} or(%shift-left.148, %shift-right-logical.154), sharding={replicated}, metadata={op_name="jit(_full_run)/jit(main)/jit(_threefry_split)/or" source_file="/global/homes/j/jackm/software/lorrax_C/src/solvers/lanczos.py" source_line=245}
  %xor.160 = u32[2]{0} xor(%add.370, %or.153), sharding={replicated}, metadata={op_name="jit(_full_run)/jit(main)/jit(_threefry_split)/xor" source_file="/global/homes/j/jackm/software/lorrax_C/src/solvers/lanczos.py" source_line=245}
  %add.371 = u32[2]{0} add(%add.370, %xor.160), sharding={replicated}, metadata={op_name="jit(_full_run)/jit(main)/jit(_threefry_split)/add" source_file="/global/homes/j/jackm/software/lorrax_C/src/solvers/lanczos.py" source_line=245}
  %constant.323 = u32[] constant(29), sharding={replicated}
  %broadcast.461 = u32[2]{0} broadcast(%constant.323), dimensions={}, sharding={replicated}
  %shift-left.149 = u32[2]{0} shift-left(%xor.160, %broadcast.461), sharding={replicated}, metadata={op_name="jit(_full_run)/jit(main)/jit(_threefry_split)/shift_left" source_file="/global/homes/j/jackm/software/lorrax_C/src/solvers/lanczos.py" source_line=245}
  %constant.324 = u32[] constant(3), sharding={replicated}
  %broadcast.462 = u32[2]{0} broadcast(%constant.324), dimensions={}, sharding={replicated}
  %shift-right-logical.155 = u32[2]{0} shift-right-logical(%xor.160, %broadcast.462), sharding={replicated}, metadata={op_name="jit(_full_run)/jit(main)/jit(_threefry_split)/shift_right_logical" source_file="/global/homes/j/jackm/software/lorrax_C/src/solvers/lanczos.py" source_line=245}
  %or.154 = u32[2]{0} or(%shift-left.149, %shift-right-logical.155), sharding={replicated}, metadata={op_name="jit(_full_run)/jit(main)/jit(_threefry_split)/or" source_file="/global/homes/j/jackm/software/lorrax_C/src/solvers/lanczos.py" source_line=245}
  %xor.161 = u32[2]{0} xor(%add.371, %or.154), sharding={replicated}, metadata={op_name="jit(_full_run)/jit(main)/jit(_threefry_split)/xor" source_file="/global/homes/j/jackm/software/lorrax_C/src/solvers/lanczos.py" source_line=245}
  %add.372 = u32[2]{0} add(%add.371, %xor.161), sharding={replicated}, metadata={op_name="jit(_full_run)/jit(main)/jit(_threefry_split)/add" source_file="/global/homes/j/jackm/software/lorrax_C/src/solvers/lanczos.py" source_line=245}
  %constant.326 = u32[] constant(16), sharding={replicated}
  %broadcast.463 = u32[2]{0} broadcast(%constant.326), dimensions={}, sharding={replicated}
  %shift-left.150 = u32[2]{0} shift-left(%xor.161, %broadcast.463), sharding={replicated}, metadata={op_name="jit(_full_run)/jit(main)/jit(_threefry_split)/shift_left" source_file="/global/homes/j/jackm/software/lorrax_C/src/solvers/lanczos.py" source_line=245}
  %shift-right-logical.156 = u32[2]{0} shift-right-logical(%xor.161, %broadcast.463), sharding={replicated}, metadata={op_name="jit(_full_run)/jit(main)/jit(_threefry_split)/shift_right_logical" source_file="/global/homes/j/jackm/software/lorrax_C/src/solvers/lanczos.py" source_line=245}
  %or.155 = u32[2]{0} or(%shift-left.150, %shift-right-logical.156), sharding={replicated}, metadata={op_name="jit(_full_run)/jit(main)/jit(_threefry_split)/or" source_file="/global/homes/j/jackm/software/lorrax_C/src/solvers/lanczos.py" source_line=245}
  %xor.162 = u32[2]{0} xor(%add.372, %or.155), sharding={replicated}, metadata={op_name="jit(_full_run)/jit(main)/jit(_threefry_split)/xor" source_file="/global/homes/j/jackm/software/lorrax_C/src/solvers/lanczos.py" source_line=245}
  %add.373 = u32[2]{0} add(%add.372, %xor.162), sharding={replicated}, metadata={op_name="jit(_full_run)/jit(main)/jit(_threefry_split)/add" source_file="/global/homes/j/jackm/software/lorrax_C/src/solvers/lanczos.py" source_line=245}
  %constant.922 = u32[] constant(466689008), sharding={replicated}, metadata={op_name="jit(_full_run)/jit(main)/jit(_threefry_split)/xor" source_file="/global/homes/j/jackm/software/lorrax_C/src/solvers/lanczos.py" source_line=245}
  %broadcast.464 = u32[2]{0} broadcast(%constant.922), dimensions={}, sharding={replicated}, metadata={op_name="jit(_full_run)/jit(main)/jit(_threefry_split)/add" source_file="/global/homes/j/jackm/software/lorrax_C/src/solvers/lanczos.py" source_line=245}
  %add.374 = u32[2]{0} add(%add.373, %broadcast.464), sharding={replicated}, metadata={op_name="jit(_full_run)/jit(main)/jit(_threefry_split)/add" source_file="/global/homes/j/jackm/software/lorrax_C/src/solvers/lanczos.py" source_line=245}
  %constant.327 = u32[] constant(24), sharding={replicated}
  %broadcast.465 = u32[2]{0} broadcast(%constant.327), dimensions={}, sharding={replicated}
  %shift-left.151 = u32[2]{0} shift-left(%xor.162, %broadcast.465), sharding={replicated}, metadata={op_name="jit(_full_run)/jit(main)/jit(_threefry_split)/shift_left" source_file="/global/homes/j/jackm/software/lorrax_C/src/solvers/lanczos.py" source_line=245}
  %constant.328 = u32[] constant(8), sharding={replicated}
  %broadcast.466 = u32[2]{0} broadcast(%constant.328), dimensions={}, sharding={replicated}
  %shift-right-logical.157 = u32[2]{0} shift-right-logical(%xor.162, %broadcast.466), sharding={replicated}, metadata={op_name="jit(_full_run)/jit(main)/jit(_threefry_split)/shift_right_logical" source_file="/global/homes/j/jackm/software/lorrax_C/src/solvers/lanczos.py" source_line=245}
  %or.156 = u32[2]{0} or(%shift-left.151, %shift-right-logical.157), sharding={replicated}, metadata={op_name="jit(_full_run)/jit(main)/jit(_threefry_split)/or" source_file="/global/homes/j/jackm/software/lorrax_C/src/solvers/lanczos.py" source_line=245}
  %xor.163 = u32[2]{0} xor(%add.373, %or.156), sharding={replicated}, metadata={op_name="jit(_full_run)/jit(main)/jit(_threefry_split)/xor" source_file="/global/homes/j/jackm/software/lorrax_C/src/solvers/lanczos.py" source_line=245}
  %constant.329 = u32[] constant(2), sharding={replicated}
  %broadcast.468 = u32[2]{0} broadcast(%constant.329), dimensions={}, sharding={replicated}
  %add.376 = u32[2]{0} add(%xor.163, %broadcast.468), sharding={replicated}, metadata={op_name="jit(_full_run)/jit(main)/jit(_threefry_split)/add" source_file="/global/homes/j/jackm/software/lorrax_C/src/solvers/lanczos.py" source_line=245}
  %add.377 = u32[2]{0} add(%add.374, %add.376), sharding={replicated}, metadata={op_name="jit(_full_run)/jit(main)/jit(_threefry_split)/add" source_file="/global/homes/j/jackm/software/lorrax_C/src/solvers/lanczos.py" source_line=245}
  %shift-left.152 = u32[2]{0} shift-left(%add.376, %broadcast.450), sharding={replicated}, metadata={op_name="jit(_full_run)/jit(main)/jit(_threefry_split)/shift_left" source_file="/global/homes/j/jackm/software/lorrax_C/src/solvers/lanczos.py" source_line=245}
  %shift-right-logical.158 = u32[2]{0} shift-right-logical(%add.376, %broadcast.451), sharding={replicated}, metadata={op_name="jit(_full_run)/jit(main)/jit(_threefry_split)/shift_right_logical" source_file="/global/homes/j/jackm/software/lorrax_C/src/solvers/lanczos.py" source_line=245}
  %or.157 = u32[2]{0} or(%shift-left.152, %shift-right-logical.158), sharding={replicated}, metadata={op_name="jit(_full_run)/jit(main)/jit(_threefry_split)/or" source_file="/global/homes/j/jackm/software/lorrax_C/src/solvers/lanczos.py" source_line=245}
  %xor.164 = u32[2]{0} xor(%add.377, %or.157), sharding={replicated}, metadata={op_name="jit(_full_run)/jit(main)/jit(_threefry_split)/xor" source_file="/global/homes/j/jackm/software/lorrax_C/src/solvers/lanczos.py" source_line=245}
  %add.378 = u32[2]{0} add(%add.377, %xor.164), sharding={replicated}, metadata={op_name="jit(_full_run)/jit(main)/jit(_threefry_split)/add" source_file="/global/homes/j/jackm/software/lorrax_C/src/solvers/lanczos.py" source_line=245}
  %shift-left.153 = u32[2]{0} shift-left(%xor.164, %broadcast.452), sharding={replicated}, metadata={op_name="jit(_full_run)/jit(main)/jit(_threefry_split)/shift_left" source_file="/global/homes/j/jackm/software/lorrax_C/src/solvers/lanczos.py" source_line=245}
  %shift-right-logical.159 = u32[2]{0} shift-right-logical(%xor.164, %broadcast.453), sharding={replicated}, metadata={op_name="jit(_full_run)/jit(main)/jit(_threefry_split)/shift_right_logical" source_file="/global/homes/j/jackm/software/lorrax_C/src/solvers/lanczos.py" source_line=245}
  %or.158 = u32[2]{0} or(%shift-left.153, %shift-right-logical.159), sharding={replicated}, metadata={op_name="jit(_full_run)/jit(main)/jit(_threefry_split)/or" source_file="/global/homes/j/jackm/software/lorrax_C/src/solvers/lanczos.py" source_line=245}
  %xor.165 = u32[2]{0} xor(%add.378, %or.158), sharding={replicated}, metadata={op_name="jit(_full_run)/jit(main)/jit(_threefry_split)/xor" source_file="/global/homes/j/jackm/software/lorrax_C/src/solvers/lanczos.py" source_line=245}
  %add.379 = u32[2]{0} add(%add.378, %xor.165), sharding={replicated}, metadata={op_name="jit(_full_run)/jit(main)/jit(_threefry_split)/add" source_file="/global/homes/j/jackm/software/lorrax_C/src/solvers/lanczos.py" source_line=245}
  %shift-left.154 = u32[2]{0} shift-left(%xor.165, %broadcast.454), sharding={replicated}, metadata={op_name="jit(_full_run)/jit(main)/jit(_threefry_split)/shift_left" source_file="/global/homes/j/jackm/software/lorrax_C/src/solvers/lanczos.py" source_line=245}
  %shift-right-logical.160 = u32[2]{0} shift-right-logical(%xor.165, %broadcast.455), sharding={replicated}, metadata={op_name="jit(_full_run)/jit(main)/jit(_threefry_split)/shift_right_logical" source_file="/global/homes/j/jackm/software/lorrax_C/src/solvers/lanczos.py" source_line=245}
  %or.159 = u32[2]{0} or(%shift-left.154, %shift-right-logical.160), sharding={replicated}, metadata={op_name="jit(_full_run)/jit(main)/jit(_threefry_split)/or" source_file="/global/homes/j/jackm/software/lorrax_C/src/solvers/lanczos.py" source_line=245}
  %xor.166 = u32[2]{0} xor(%add.379, %or.159), sharding={replicated}, metadata={op_name="jit(_full_run)/jit(main)/jit(_threefry_split)/xor" source_file="/global/homes/j/jackm/software/lorrax_C/src/solvers/lanczos.py" source_line=245}
  %add.381 = u32[2]{0} add(%add.379, %xor.166), sharding={replicated}, metadata={op_name="jit(_full_run)/jit(main)/jit(_threefry_split)/add" source_file="/global/homes/j/jackm/software/lorrax_C/src/solvers/lanczos.py" source_line=245}
  %shift-left.155 = u32[2]{0} shift-left(%xor.166, %broadcast.455), sharding={replicated}, metadata={op_name="jit(_full_run)/jit(main)/jit(_threefry_split)/shift_left" source_file="/global/homes/j/jackm/software/lorrax_C/src/solvers/lanczos.py" source_line=245}
  %shift-right-logical.161 = u32[2]{0} shift-right-logical(%xor.166, %broadcast.454), sharding={replicated}, metadata={op_name="jit(_full_run)/jit(main)/jit(_threefry_split)/shift_right_logical" source_file="/global/homes/j/jackm/software/lorrax_C/src/solvers/lanczos.py" source_line=245}
  %or.160 = u32[2]{0} or(%shift-left.155, %shift-right-logical.161), sharding={replicated}, metadata={op_name="jit(_full_run)/jit(main)/jit(_threefry_split)/or" source_file="/global/homes/j/jackm/software/lorrax_C/src/solvers/lanczos.py" source_line=245}
  %xor.167 = u32[2]{0} xor(%add.381, %or.160), sharding={replicated}, metadata={op_name="jit(_full_run)/jit(main)/jit(_threefry_split)/xor" source_file="/global/homes/j/jackm/software/lorrax_C/src/solvers/lanczos.py" source_line=245}
  %constant.877 = u32[] constant(45), sharding={replicated}
  %broadcast.987 = u32[2]{0} broadcast(%constant.877), dimensions={}, sharding={replicated}, metadata={op_name="jit(_full_run)/jit(main)/jit(_threefry_split)/add" source_file="/global/homes/j/jackm/software/lorrax_C/src/solvers/lanczos.py" source_line=245}
  %add.383 = u32[2]{0} add(%xor.167, %broadcast.987), sharding={replicated}, metadata={op_name="jit(_full_run)/jit(main)/jit(_threefry_split)/add" source_file="/global/homes/j/jackm/software/lorrax_C/src/solvers/lanczos.py" source_line=245}
  %add.384 = u32[2]{0} add(%add.381, %add.383), sharding={replicated}, metadata={op_name="jit(_full_run)/jit(main)/jit(_threefry_split)/add" source_file="/global/homes/j/jackm/software/lorrax_C/src/solvers/lanczos.py" source_line=245}
  %shift-left.156 = u32[2]{0} shift-left(%add.383, %broadcast.453), sharding={replicated}, metadata={op_name="jit(_full_run)/jit(main)/jit(_threefry_split)/shift_left" source_file="/global/homes/j/jackm/software/lorrax_C/src/solvers/lanczos.py" source_line=245}
  %shift-right-logical.162 = u32[2]{0} shift-right-logical(%add.383, %broadcast.452), sharding={replicated}, metadata={op_name="jit(_full_run)/jit(main)/jit(_threefry_split)/shift_right_logical" source_file="/global/homes/j/jackm/software/lorrax_C/src/solvers/lanczos.py" source_line=245}
  %or.161 = u32[2]{0} or(%shift-left.156, %shift-right-logical.162), sharding={replicated}, metadata={op_name="jit(_full_run)/jit(main)/jit(_threefry_split)/or" source_file="/global/homes/j/jackm/software/lorrax_C/src/solvers/lanczos.py" source_line=245}
  %xor.168 = u32[2]{0} xor(%add.384, %or.161), sharding={replicated}, metadata={op_name="jit(_full_run)/jit(main)/jit(_threefry_split)/xor" source_file="/global/homes/j/jackm/software/lorrax_C/src/solvers/lanczos.py" source_line=245}
  %add.386 = u32[2]{0} add(%add.384, %xor.168), sharding={replicated}, metadata={op_name="jit(_full_run)/jit(main)/jit(_threefry_split)/add" source_file="/global/homes/j/jackm/software/lorrax_C/src/solvers/lanczos.py" source_line=245}
  %shift-left.157 = u32[2]{0} shift-left(%xor.168, %broadcast.461), sharding={replicated}, metadata={op_name="jit(_full_run)/jit(main)/jit(_threefry_split)/shift_left" source_file="/global/homes/j/jackm/software/lorrax_C/src/solvers/lanczos.py" source_line=245}
  %shift-right-logical.163 = u32[2]{0} shift-right-logical(%xor.168, %broadcast.462), sharding={replicated}, metadata={op_name="jit(_full_run)/jit(main)/jit(_threefry_split)/shift_right_logical" source_file="/global/homes/j/jackm/software/lorrax_C/src/solvers/lanczos.py" source_line=245}
  %or.162 = u32[2]{0} or(%shift-left.157, %shift-right-logical.163), sharding={replicated}, metadata={op_name="jit(_full_run)/jit(main)/jit(_threefry_split)/or" source_file="/global/homes/j/jackm/software/lorrax_C/src/solvers/lanczos.py" source_line=245}
  %xor.169 = u32[2]{0} xor(%add.386, %or.162), sharding={replicated}, metadata={op_name="jit(_full_run)/jit(main)/jit(_threefry_split)/xor" source_file="/global/homes/j/jackm/software/lorrax_C/src/solvers/lanczos.py" source_line=245}
  %add.389 = u32[2]{0} add(%add.386, %xor.169), sharding={replicated}, metadata={op_name="jit(_full_run)/jit(main)/jit(_threefry_split)/add" source_file="/global/homes/j/jackm/software/lorrax_C/src/solvers/lanczos.py" source_line=245}
  %shift-left.158 = u32[2]{0} shift-left(%xor.169, %broadcast.463), sharding={replicated}, metadata={op_name="jit(_full_run)/jit(main)/jit(_threefry_split)/shift_left" source_file="/global/homes/j/jackm/software/lorrax_C/src/solvers/lanczos.py" source_line=245}
  %shift-right-logical.164 = u32[2]{0} shift-right-logical(%xor.169, %broadcast.463), sharding={replicated}, metadata={op_name="jit(_full_run)/jit(main)/jit(_threefry_split)/shift_right_logical" source_file="/global/homes/j/jackm/software/lorrax_C/src/solvers/lanczos.py" source_line=245}
  %or.163 = u32[2]{0} or(%shift-left.158, %shift-right-logical.164), sharding={replicated}, metadata={op_name="jit(_full_run)/jit(main)/jit(_threefry_split)/or" source_file="/global/homes/j/jackm/software/lorrax_C/src/solvers/lanczos.py" source_line=245}
  %xor.170 = u32[2]{0} xor(%add.389, %or.163), sharding={replicated}, metadata={op_name="jit(_full_run)/jit(main)/jit(_threefry_split)/xor" source_file="/global/homes/j/jackm/software/lorrax_C/src/solvers/lanczos.py" source_line=245}
  %add.390 = u32[2]{0} add(%add.389, %xor.170), sharding={replicated}, metadata={op_name="jit(_full_run)/jit(main)/jit(_threefry_split)/add" source_file="/global/homes/j/jackm/software/lorrax_C/src/solvers/lanczos.py" source_line=245}
  %constant.920 = u32[] constant(42), sharding={replicated}, metadata={op_name="jit(_full_run)/jit(main)/jit(_threefry_split)/squeeze" source_file="/global/homes/j/jackm/software/lorrax_C/src/solvers/lanczos.py" source_line=245}
  %broadcast.471 = u32[2]{0} broadcast(%constant.920), dimensions={}, sharding={replicated}, metadata={op_name="jit(_full_run)/jit(main)/jit(_threefry_split)/add" source_file="/global/homes/j/jackm/software/lorrax_C/src/solvers/lanczos.py" source_line=245}
  %add.391 = u32[2]{0} add(%add.390, %broadcast.471), sharding={replicated}, metadata={op_name="jit(_full_run)/jit(main)/jit(_threefry_split)/add" source_file="/global/homes/j/jackm/software/lorrax_C/src/solvers/lanczos.py" source_line=245}
  %shift-left.159 = u32[2]{0} shift-left(%xor.170, %broadcast.465), sharding={replicated}, metadata={op_name="jit(_full_run)/jit(main)/jit(_threefry_split)/shift_left" source_file="/global/homes/j/jackm/software/lorrax_C/src/solvers/lanczos.py" source_line=245}
  %shift-right-logical.165 = u32[2]{0} shift-right-logical(%xor.170, %broadcast.466), sharding={replicated}, metadata={op_name="jit(_full_run)/jit(main)/jit(_threefry_split)/shift_right_logical" source_file="/global/homes/j/jackm/software/lorrax_C/src/solvers/lanczos.py" source_line=245}
  %or.164 = u32[2]{0} or(%shift-left.159, %shift-right-logical.165), sharding={replicated}, metadata={op_name="jit(_full_run)/jit(main)/jit(_threefry_split)/or" source_file="/global/homes/j/jackm/software/lorrax_C/src/solvers/lanczos.py" source_line=245}
  %xor.171 = u32[2]{0} xor(%add.390, %or.164), sharding={replicated}, metadata={op_name="jit(_full_run)/jit(main)/jit(_threefry_split)/xor" source_file="/global/homes/j/jackm/software/lorrax_C/src/solvers/lanczos.py" source_line=245}
  %constant.878 = u32[] constant(466689012), sharding={replicated}
  %broadcast.988 = u32[2]{0} broadcast(%constant.878), dimensions={}, sharding={replicated}, metadata={op_name="jit(_full_run)/jit(main)/jit(_threefry_split)/add" source_file="/global/homes/j/jackm/software/lorrax_C/src/solvers/lanczos.py" source_line=245}
  %add.394 = u32[2]{0} add(%xor.171, %broadcast.988), sharding={replicated}, metadata={op_name="jit(_full_run)/jit(main)/jit(_threefry_split)/add" source_file="/global/homes/j/jackm/software/lorrax_C/src/solvers/lanczos.py" source_line=245}
  %add.395 = u32[2]{0} add(%add.391, %add.394), sharding={replicated}, metadata={op_name="jit(_full_run)/jit(main)/jit(_threefry_split)/add" source_file="/global/homes/j/jackm/software/lorrax_C/src/solvers/lanczos.py" source_line=245}
  %shift-left.160 = u32[2]{0} shift-left(%add.394, %broadcast.450), sharding={replicated}, metadata={op_name="jit(_full_run)/jit(main)/jit(_threefry_split)/shift_left" source_file="/global/homes/j/jackm/software/lorrax_C/src/solvers/lanczos.py" source_line=245}
  %shift-right-logical.166 = u32[2]{0} shift-right-logical(%add.394, %broadcast.451), sharding={replicated}, metadata={op_name="jit(_full_run)/jit(main)/jit(_threefry_split)/shift_right_logical" source_file="/global/homes/j/jackm/software/lorrax_C/src/solvers/lanczos.py" source_line=245}
  %or.165 = u32[2]{0} or(%shift-left.160, %shift-right-logical.166), sharding={replicated}, metadata={op_name="jit(_full_run)/jit(main)/jit(_threefry_split)/or" source_file="/global/homes/j/jackm/software/lorrax_C/src/solvers/lanczos.py" source_line=245}
  %xor.172 = u32[2]{0} xor(%add.395, %or.165), sharding={replicated}, metadata={op_name="jit(_full_run)/jit(main)/jit(_threefry_split)/xor" source_file="/global/homes/j/jackm/software/lorrax_C/src/solvers/lanczos.py" source_line=245}
  %add.396 = u32[2]{0} add(%add.395, %xor.172), sharding={replicated}, metadata={op_name="jit(_full_run)/jit(main)/jit(_threefry_split)/add" source_file="/global/homes/j/jackm/software/lorrax_C/src/solvers/lanczos.py" source_line=245}
  %shift-left.161 = u32[2]{0} shift-left(%xor.172, %broadcast.452), sharding={replicated}, metadata={op_name="jit(_full_run)/jit(main)/jit(_threefry_split)/shift_left" source_file="/global/homes/j/jackm/software/lorrax_C/src/solvers/lanczos.py" source_line=245}
  %shift-right-logical.167 = u32[2]{0} shift-right-logical(%xor.172, %broadcast.453), sharding={replicated}, metadata={op_name="jit(_full_run)/jit(main)/jit(_threefry_split)/shift_right_logical" source_file="/global/homes/j/jackm/software/lorrax_C/src/solvers/lanczos.py" source_line=245}
  %or.166 = u32[2]{0} or(%shift-left.161, %shift-right-logical.167), sharding={replicated}, metadata={op_name="jit(_full_run)/jit(main)/jit(_threefry_split)/or" source_file="/global/homes/j/jackm/software/lorrax_C/src/solvers/lanczos.py" source_line=245}
  %xor.173 = u32[2]{0} xor(%add.396, %or.166), sharding={replicated}, metadata={op_name="jit(_full_run)/jit(main)/jit(_threefry_split)/xor" source_file="/global/homes/j/jackm/software/lorrax_C/src/solvers/lanczos.py" source_line=245}
  %add.397 = u32[2]{0} add(%add.396, %xor.173), sharding={replicated}, metadata={op_name="jit(_full_run)/jit(main)/jit(_threefry_split)/add" source_file="/global/homes/j/jackm/software/lorrax_C/src/solvers/lanczos.py" source_line=245}
  %shift-left.162 = u32[2]{0} shift-left(%xor.173, %broadcast.454), sharding={replicated}, metadata={op_name="jit(_full_run)/jit(main)/jit(_threefry_split)/shift_left" source_file="/global/homes/j/jackm/software/lorrax_C/src/solvers/lanczos.py" source_line=245}
  %shift-right-logical.168 = u32[2]{0} shift-right-logical(%xor.173, %broadcast.455), sharding={replicated}, metadata={op_name="jit(_full_run)/jit(main)/jit(_threefry_split)/shift_right_logical" source_file="/global/homes/j/jackm/software/lorrax_C/src/solvers/lanczos.py" source_line=245}
  %or.167 = u32[2]{0} or(%shift-left.162, %shift-right-logical.168), sharding={replicated}, metadata={op_name="jit(_full_run)/jit(main)/jit(_threefry_split)/or" source_file="/global/homes/j/jackm/software/lorrax_C/src/solvers/lanczos.py" source_line=245}
  %xor.174 = u32[2]{0} xor(%add.397, %or.167), sharding={replicated}, metadata={op_name="jit(_full_run)/jit(main)/jit(_threefry_split)/xor" source_file="/global/homes/j/jackm/software/lorrax_C/src/solvers/lanczos.py" source_line=245}
  %add.399 = u32[2]{0} add(%add.397, %xor.174), sharding={replicated}, metadata={op_name="jit(_full_run)/jit(main)/jit(_threefry_split)/add" source_file="/global/homes/j/jackm/software/lorrax_C/src/solvers/lanczos.py" source_line=245}
  %constant.921 = u32[] constant(466689008), sharding={replicated}, metadata={op_name="jit(_full_run)/jit(main)/jit(_threefry_split)/xor" source_file="/global/homes/j/jackm/software/lorrax_C/src/solvers/lanczos.py" source_line=245}
  %broadcast.474 = u32[2]{0} broadcast(%constant.921), dimensions={}, sharding={replicated}, metadata={op_name="jit(_full_run)/jit(main)/jit(_threefry_split)/add" source_file="/global/homes/j/jackm/software/lorrax_C/src/solvers/lanczos.py" source_line=245}
  %add.400 = u32[2]{0} add(%add.399, %broadcast.474), sharding={replicated}, metadata={op_name="jit(_full_run)/jit(main)/jit(_threefry_split)/add" source_file="/global/homes/j/jackm/software/lorrax_C/src/solvers/lanczos.py" source_line=245}
  %slice.108 = u32[1]{0} slice(%add.400), slice={[0:1]}, sharding={replicated}, metadata={op_name="jit(_full_run)/jit(main)/jit(_normal)/jit(_normal_real)/jit(_uniform)/slice" source_file="/global/homes/j/jackm/software/lorrax_C/src/solvers/lanczos.py" source_line=247}
  %reshape.57 = u32[] reshape(%slice.108), sharding={replicated}, metadata={op_name="jit(_full_run)/jit(main)/jit(_normal)/jit(_normal_real)/jit(_uniform)/squeeze" source_file="/global/homes/j/jackm/software/lorrax_C/src/solvers/lanczos.py" source_line=247}
  %broadcast.480 = u32[1024]{0} broadcast(%reshape.57), dimensions={}, sharding={devices=[2,2]<=[4] last_tile_dim_replicate}, metadata={op_name="jit(_full_run)/jit(main)/jit(_normal)/jit(_normal_real)/jit(_uniform)/add" source_file="/global/homes/j/jackm/software/lorrax_C/src/solvers/lanczos.py" source_line=247}
  %add.404 = u32[1024]{0} add(%convert.32, %broadcast.480), sharding={devices=[2,2]<=[4] last_tile_dim_replicate}, metadata={op_name="jit(_full_run)/jit(main)/jit(_normal)/jit(_normal_real)/jit(_uniform)/add" source_file="/global/homes/j/jackm/software/lorrax_C/src/solvers/lanczos.py" source_line=247}
  %convert.33 = u32[1024]{0} convert(%iota.5), sharding={devices=[2,2]<=[4] last_tile_dim_replicate}, metadata={op_name="jit(_full_run)/jit(main)/jit(_normal)/jit(_normal_real)/jit(_uniform)/iota_2x32_shape" source_file="/global/homes/j/jackm/software/lorrax_C/src/solvers/lanczos.py" source_line=247}
  %reshape.53 = u32[2,1]{1,0} reshape(%add.400), sharding={replicated}, metadata={op_name="jit(_full_run)/jit(main)/jit(_threefry_split)/broadcast_in_dim" source_file="/global/homes/j/jackm/software/lorrax_C/src/solvers/lanczos.py" source_line=245}
  %shift-left.163 = u32[2]{0} shift-left(%xor.174, %broadcast.455), sharding={replicated}, metadata={op_name="jit(_full_run)/jit(main)/jit(_threefry_split)/shift_left" source_file="/global/homes/j/jackm/software/lorrax_C/src/solvers/lanczos.py" source_line=245}
  %shift-right-logical.169 = u32[2]{0} shift-right-logical(%xor.174, %broadcast.454), sharding={replicated}, metadata={op_name="jit(_full_run)/jit(main)/jit(_threefry_split)/shift_right_logical" source_file="/global/homes/j/jackm/software/lorrax_C/src/solvers/lanczos.py" source_line=245}
  %or.168 = u32[2]{0} or(%shift-left.163, %shift-right-logical.169), sharding={replicated}, metadata={op_name="jit(_full_run)/jit(main)/jit(_threefry_split)/or" source_file="/global/homes/j/jackm/software/lorrax_C/src/solvers/lanczos.py" source_line=245}
  %xor.175 = u32[2]{0} xor(%add.399, %or.168), sharding={replicated}, metadata={op_name="jit(_full_run)/jit(main)/jit(_threefry_split)/xor" source_file="/global/homes/j/jackm/software/lorrax_C/src/solvers/lanczos.py" source_line=245}
  %constant.331 = u32[] constant(5), sharding={replicated}
  %broadcast.476 = u32[2]{0} broadcast(%constant.331), dimensions={}, sharding={replicated}
  %add.402 = u32[2]{0} add(%xor.175, %broadcast.476), sharding={replicated}, metadata={op_name="jit(_full_run)/jit(main)/jit(_threefry_split)/add" source_file="/global/homes/j/jackm/software/lorrax_C/src/solvers/lanczos.py" source_line=245}
  %reshape.54 = u32[2,1]{1,0} reshape(%add.402), sharding={replicated}, metadata={op_name="jit(_full_run)/jit(main)/jit(_threefry_split)/broadcast_in_dim" source_file="/global/homes/j/jackm/software/lorrax_C/src/solvers/lanczos.py" source_line=245}
  %concatenate.0 = u32[2,2]{1,0} concatenate(%reshape.53, %reshape.54), dimensions={1}, sharding={replicated}, metadata={op_name="jit(_full_run)/jit(main)/jit(_threefry_split)/concatenate" source_file="/global/homes/j/jackm/software/lorrax_C/src/solvers/lanczos.py" source_line=245}
  %slice.342 = u32[1,2]{1,0} slice(%concatenate.0), slice={[0:1], [0:2]}, sharding={replicated}, metadata={op_name="jit(_full_run)/jit(main)/slice" source_file="/global/homes/j/jackm/software/lorrax_C/src/solvers/lanczos.py" source_line=245}
  %reshape.343 = u32[2]{0} reshape(%slice.342), sharding={replicated}, metadata={op_name="jit(_full_run)/jit(main)/squeeze" source_file="/global/homes/j/jackm/software/lorrax_C/src/solvers/lanczos.py" source_line=245}
  %slice.11 = u32[1]{0} slice(%reshape.343), slice={[1:2]}, sharding={replicated}, metadata={op_name="jit(_full_run)/jit(main)/jit(_normal)/jit(_normal_real)/jit(_uniform)/slice" source_file="/global/homes/j/jackm/software/lorrax_C/src/solvers/lanczos.py" source_line=247}
  %reshape.58 = u32[] reshape(%slice.11), sharding={replicated}, metadata={op_name="jit(_full_run)/jit(main)/jit(_normal)/jit(_normal_real)/jit(_uniform)/squeeze" source_file="/global/homes/j/jackm/software/lorrax_C/src/solvers/lanczos.py" source_line=247}
  %broadcast.481 = u32[1024]{0} broadcast(%reshape.58), dimensions={}, sharding={devices=[2,2]<=[4] last_tile_dim_replicate}, metadata={op_name="jit(_full_run)/jit(main)/jit(_normal)/jit(_normal_real)/jit(_uniform)/add" source_file="/global/homes/j/jackm/software/lorrax_C/src/solvers/lanczos.py" source_line=247}
  %add.405 = u32[1024]{0} add(%convert.33, %broadcast.481), sharding={devices=[2,2]<=[4] last_tile_dim_replicate}, metadata={op_name="jit(_full_run)/jit(main)/jit(_normal)/jit(_normal_real)/jit(_uniform)/add" source_file="/global/homes/j/jackm/software/lorrax_C/src/solvers/lanczos.py" source_line=247}
  %add.406 = u32[1024]{0} add(%add.404, %add.405), sharding={devices=[2,2]<=[4] last_tile_dim_replicate}, metadata={op_name="jit(_full_run)/jit(main)/jit(_normal)/jit(_normal_real)/jit(_uniform)/add" source_file="/global/homes/j/jackm/software/lorrax_C/src/solvers/lanczos.py" source_line=247}
  %constant.334 = u32[] constant(13), sharding={replicated}
  %broadcast.482 = u32[1024]{0} broadcast(%constant.334), dimensions={}, sharding={devices=[2,2]<=[4] last_tile_dim_replicate}
  %shift-left.164 = u32[1024]{0} shift-left(%add.405, %broadcast.482), sharding={devices=[2,2]<=[4] last_tile_dim_replicate}, metadata={op_name="jit(_full_run)/jit(main)/jit(_normal)/jit(_normal_real)/jit(_uniform)/shift_left" source_file="/global/homes/j/jackm/software/lorrax_C/src/solvers/lanczos.py" source_line=247}
  %constant.335 = u32[] constant(19), sharding={replicated}
  %broadcast.484 = u32[1024]{0} broadcast(%constant.335), dimensions={}, sharding={devices=[2,2]<=[4] last_tile_dim_replicate}
  %shift-right-logical.171 = u32[1024]{0} shift-right-logical(%add.405, %broadcast.484), sharding={devices=[2,2]<=[4] last_tile_dim_replicate}, metadata={op_name="jit(_full_run)/jit(main)/jit(_normal)/jit(_normal_real)/jit(_uniform)/shift_right_logical" source_file="/global/homes/j/jackm/software/lorrax_C/src/solvers/lanczos.py" source_line=247}
  %or.169 = u32[1024]{0} or(%shift-left.164, %shift-right-logical.171), sharding={devices=[2,2]<=[4] last_tile_dim_replicate}, metadata={op_name="jit(_full_run)/jit(main)/jit(_normal)/jit(_normal_real)/jit(_uniform)/or" source_file="/global/homes/j/jackm/software/lorrax_C/src/solvers/lanczos.py" source_line=247}
  %xor.176 = u32[1024]{0} xor(%add.406, %or.169), sharding={devices=[2,2]<=[4] last_tile_dim_replicate}, metadata={op_name="jit(_full_run)/jit(main)/jit(_normal)/jit(_normal_real)/jit(_uniform)/xor" source_file="/global/homes/j/jackm/software/lorrax_C/src/solvers/lanczos.py" source_line=247}
  %add.407 = u32[1024]{0} add(%add.406, %xor.176), sharding={devices=[2,2]<=[4] last_tile_dim_replicate}, metadata={op_name="jit(_full_run)/jit(main)/jit(_normal)/jit(_normal_real)/jit(_uniform)/add" source_file="/global/homes/j/jackm/software/lorrax_C/src/solvers/lanczos.py" source_line=247}
  %constant.336 = u32[] constant(15), sharding={replicated}
  %broadcast.486 = u32[1024]{0} broadcast(%constant.336), dimensions={}, sharding={devices=[2,2]<=[4] last_tile_dim_replicate}
  %shift-left.165 = u32[1024]{0} shift-left(%xor.176, %broadcast.486), sharding={devices=[2,2]<=[4] last_tile_dim_replicate}, metadata={op_name="jit(_full_run)/jit(main)/jit(_normal)/jit(_normal_real)/jit(_uniform)/shift_left" source_file="/global/homes/j/jackm/software/lorrax_C/src/solvers/lanczos.py" source_line=247}
  %constant.337 = u32[] constant(17), sharding={replicated}
  %broadcast.487 = u32[1024]{0} broadcast(%constant.337), dimensions={}, sharding={devices=[2,2]<=[4] last_tile_dim_replicate}
  %shift-right-logical.172 = u32[1024]{0} shift-right-logical(%xor.176, %broadcast.487), sharding={devices=[2,2]<=[4] last_tile_dim_replicate}, metadata={op_name="jit(_full_run)/jit(main)/jit(_normal)/jit(_normal_real)/jit(_uniform)/shift_right_logical" source_file="/global/homes/j/jackm/software/lorrax_C/src/solvers/lanczos.py" source_line=247}
  %or.170 = u32[1024]{0} or(%shift-left.165, %shift-right-logical.172), sharding={devices=[2,2]<=[4] last_tile_dim_replicate}, metadata={op_name="jit(_full_run)/jit(main)/jit(_normal)/jit(_normal_real)/jit(_uniform)/or" source_file="/global/homes/j/jackm/software/lorrax_C/src/solvers/lanczos.py" source_line=247}
  %xor.177 = u32[1024]{0} xor(%add.407, %or.170), sharding={devices=[2,2]<=[4] last_tile_dim_replicate}, metadata={op_name="jit(_full_run)/jit(main)/jit(_normal)/jit(_normal_real)/jit(_uniform)/xor" source_file="/global/homes/j/jackm/software/lorrax_C/src/solvers/lanczos.py" source_line=247}
  %add.408 = u32[1024]{0} add(%add.407, %xor.177), sharding={devices=[2,2]<=[4] last_tile_dim_replicate}, metadata={op_name="jit(_full_run)/jit(main)/jit(_normal)/jit(_normal_real)/jit(_uniform)/add" source_file="/global/homes/j/jackm/software/lorrax_C/src/solvers/lanczos.py" source_line=247}
  %constant.338 = u32[] constant(26), sharding={replicated}
  %broadcast.488 = u32[1024]{0} broadcast(%constant.338), dimensions={}, sharding={devices=[2,2]<=[4] last_tile_dim_replicate}
  %shift-left.166 = u32[1024]{0} shift-left(%xor.177, %broadcast.488), sharding={devices=[2,2]<=[4] last_tile_dim_replicate}, metadata={op_name="jit(_full_run)/jit(main)/jit(_normal)/jit(_normal_real)/jit(_uniform)/shift_left" source_file="/global/homes/j/jackm/software/lorrax_C/src/solvers/lanczos.py" source_line=247}
  %constant.339 = u32[] constant(6), sharding={replicated}
  %broadcast.489 = u32[1024]{0} broadcast(%constant.339), dimensions={}, sharding={devices=[2,2]<=[4] last_tile_dim_replicate}
  %shift-right-logical.173 = u32[1024]{0} shift-right-logical(%xor.177, %broadcast.489), sharding={devices=[2,2]<=[4] last_tile_dim_replicate}, metadata={op_name="jit(_full_run)/jit(main)/jit(_normal)/jit(_normal_real)/jit(_uniform)/shift_right_logical" source_file="/global/homes/j/jackm/software/lorrax_C/src/solvers/lanczos.py" source_line=247}
  %or.171 = u32[1024]{0} or(%shift-left.166, %shift-right-logical.173), sharding={devices=[2,2]<=[4] last_tile_dim_replicate}, metadata={op_name="jit(_full_run)/jit(main)/jit(_normal)/jit(_normal_real)/jit(_uniform)/or" source_file="/global/homes/j/jackm/software/lorrax_C/src/solvers/lanczos.py" source_line=247}
  %xor.178 = u32[1024]{0} xor(%add.408, %or.171), sharding={devices=[2,2]<=[4] last_tile_dim_replicate}, metadata={op_name="jit(_full_run)/jit(main)/jit(_normal)/jit(_normal_real)/jit(_uniform)/xor" source_file="/global/homes/j/jackm/software/lorrax_C/src/solvers/lanczos.py" source_line=247}
  %add.410 = u32[1024]{0} add(%add.408, %xor.178), sharding={devices=[2,2]<=[4] last_tile_dim_replicate}, metadata={op_name="jit(_full_run)/jit(main)/jit(_normal)/jit(_normal_real)/jit(_uniform)/add" source_file="/global/homes/j/jackm/software/lorrax_C/src/solvers/lanczos.py" source_line=247}
  %broadcast.490 = u32[1024]{0} broadcast(%reshape.58), dimensions={}, sharding={devices=[2,2]<=[4] last_tile_dim_replicate}, metadata={op_name="jit(_full_run)/jit(main)/jit(_normal)/jit(_normal_real)/jit(_uniform)/add" source_file="/global/homes/j/jackm/software/lorrax_C/src/solvers/lanczos.py" source_line=247}
  %add.414 = u32[1024]{0} add(%add.410, %broadcast.490), sharding={devices=[2,2]<=[4] last_tile_dim_replicate}, metadata={op_name="jit(_full_run)/jit(main)/jit(_normal)/jit(_normal_real)/jit(_uniform)/add" source_file="/global/homes/j/jackm/software/lorrax_C/src/solvers/lanczos.py" source_line=247}
  %shift-left.167 = u32[1024]{0} shift-left(%xor.178, %broadcast.489), sharding={devices=[2,2]<=[4] last_tile_dim_replicate}, metadata={op_name="jit(_full_run)/jit(main)/jit(_normal)/jit(_normal_real)/jit(_uniform)/shift_left" source_file="/global/homes/j/jackm/software/lorrax_C/src/solvers/lanczos.py" source_line=247}
  %shift-right-logical.174 = u32[1024]{0} shift-right-logical(%xor.178, %broadcast.488), sharding={devices=[2,2]<=[4] last_tile_dim_replicate}, metadata={op_name="jit(_full_run)/jit(main)/jit(_normal)/jit(_normal_real)/jit(_uniform)/shift_right_logical" source_file="/global/homes/j/jackm/software/lorrax_C/src/solvers/lanczos.py" source_line=247}
  %or.172 = u32[1024]{0} or(%shift-left.167, %shift-right-logical.174), sharding={devices=[2,2]<=[4] last_tile_dim_replicate}, metadata={op_name="jit(_full_run)/jit(main)/jit(_normal)/jit(_normal_real)/jit(_uniform)/or" source_file="/global/homes/j/jackm/software/lorrax_C/src/solvers/lanczos.py" source_line=247}
  %xor.179 = u32[1024]{0} xor(%add.410, %or.172), sharding={devices=[2,2]<=[4] last_tile_dim_replicate}, metadata={op_name="jit(_full_run)/jit(main)/jit(_normal)/jit(_normal_real)/jit(_uniform)/xor" source_file="/global/homes/j/jackm/software/lorrax_C/src/solvers/lanczos.py" source_line=247}
  %xor.180 = u32[] xor(%reshape.57, %reshape.58), sharding={replicated}, metadata={op_name="jit(_full_run)/jit(main)/jit(_normal)/jit(_normal_real)/jit(_uniform)/xor" source_file="/global/homes/j/jackm/software/lorrax_C/src/solvers/lanczos.py" source_line=247}
  %constant.340 = u32[] constant(466688986), sharding={replicated}
  %xor.181 = u32[] xor(%xor.180, %constant.340), sharding={replicated}, metadata={op_name="jit(_full_run)/jit(main)/jit(_normal)/jit(_normal_real)/jit(_uniform)/xor" source_file="/global/homes/j/jackm/software/lorrax_C/src/solvers/lanczos.py" source_line=247}
  %broadcast.491 = u32[1024]{0} broadcast(%xor.181), dimensions={}, sharding={devices=[2,2]<=[4] last_tile_dim_replicate}, metadata={op_name="jit(_full_run)/jit(main)/jit(_normal)/jit(_normal_real)/jit(_uniform)/add" source_file="/global/homes/j/jackm/software/lorrax_C/src/solvers/lanczos.py" source_line=247}
  %add.415 = u32[1024]{0} add(%xor.179, %broadcast.491), sharding={devices=[2,2]<=[4] last_tile_dim_replicate}, metadata={op_name="jit(_full_run)/jit(main)/jit(_normal)/jit(_normal_real)/jit(_uniform)/add" source_file="/global/homes/j/jackm/software/lorrax_C/src/solvers/lanczos.py" source_line=247}
  %constant.341 = u32[] constant(1), sharding={replicated}
  %broadcast.492 = u32[1024]{0} broadcast(%constant.341), dimensions={}, sharding={devices=[2,2]<=[4] last_tile_dim_replicate}
  %add.416 = u32[1024]{0} add(%add.415, %broadcast.492), sharding={devices=[2,2]<=[4] last_tile_dim_replicate}, metadata={op_name="jit(_full_run)/jit(main)/jit(_normal)/jit(_normal_real)/jit(_uniform)/add" source_file="/global/homes/j/jackm/software/lorrax_C/src/solvers/lanczos.py" source_line=247}
  %add.417 = u32[1024]{0} add(%add.414, %add.416), sharding={devices=[2,2]<=[4] last_tile_dim_replicate}, metadata={op_name="jit(_full_run)/jit(main)/jit(_normal)/jit(_normal_real)/jit(_uniform)/add" source_file="/global/homes/j/jackm/software/lorrax_C/src/solvers/lanczos.py" source_line=247}
  %shift-left.168 = u32[1024]{0} shift-left(%add.416, %broadcast.487), sharding={devices=[2,2]<=[4] last_tile_dim_replicate}, metadata={op_name="jit(_full_run)/jit(main)/jit(_normal)/jit(_normal_real)/jit(_uniform)/shift_left" source_file="/global/homes/j/jackm/software/lorrax_C/src/solvers/lanczos.py" source_line=247}
  %shift-right-logical.175 = u32[1024]{0} shift-right-logical(%add.416, %broadcast.486), sharding={devices=[2,2]<=[4] last_tile_dim_replicate}, metadata={op_name="jit(_full_run)/jit(main)/jit(_normal)/jit(_normal_real)/jit(_uniform)/shift_right_logical" source_file="/global/homes/j/jackm/software/lorrax_C/src/solvers/lanczos.py" source_line=247}
  %or.173 = u32[1024]{0} or(%shift-left.168, %shift-right-logical.175), sharding={devices=[2,2]<=[4] last_tile_dim_replicate}, metadata={op_name="jit(_full_run)/jit(main)/jit(_normal)/jit(_normal_real)/jit(_uniform)/or" source_file="/global/homes/j/jackm/software/lorrax_C/src/solvers/lanczos.py" source_line=247}
  %xor.182 = u32[1024]{0} xor(%add.417, %or.173), sharding={devices=[2,2]<=[4] last_tile_dim_replicate}, metadata={op_name="jit(_full_run)/jit(main)/jit(_normal)/jit(_normal_real)/jit(_uniform)/xor" source_file="/global/homes/j/jackm/software/lorrax_C/src/solvers/lanczos.py" source_line=247}
  %add.419 = u32[1024]{0} add(%add.417, %xor.182), sharding={devices=[2,2]<=[4] last_tile_dim_replicate}, metadata={op_name="jit(_full_run)/jit(main)/jit(_normal)/jit(_normal_real)/jit(_uniform)/add" source_file="/global/homes/j/jackm/software/lorrax_C/src/solvers/lanczos.py" source_line=247}
  %constant.342 = u32[] constant(29), sharding={replicated}
  %broadcast.493 = u32[1024]{0} broadcast(%constant.342), dimensions={}, sharding={devices=[2,2]<=[4] last_tile_dim_replicate}
  %shift-left.169 = u32[1024]{0} shift-left(%xor.182, %broadcast.493), sharding={devices=[2,2]<=[4] last_tile_dim_replicate}, metadata={op_name="jit(_full_run)/jit(main)/jit(_normal)/jit(_normal_real)/jit(_uniform)/shift_left" source_file="/global/homes/j/jackm/software/lorrax_C/src/solvers/lanczos.py" source_line=247}
  %constant.343 = u32[] constant(3), sharding={replicated}
  %broadcast.494 = u32[1024]{0} broadcast(%constant.343), dimensions={}, sharding={devices=[2,2]<=[4] last_tile_dim_replicate}
  %shift-right-logical.176 = u32[1024]{0} shift-right-logical(%xor.182, %broadcast.494), sharding={devices=[2,2]<=[4] last_tile_dim_replicate}, metadata={op_name="jit(_full_run)/jit(main)/jit(_normal)/jit(_normal_real)/jit(_uniform)/shift_right_logical" source_file="/global/homes/j/jackm/software/lorrax_C/src/solvers/lanczos.py" source_line=247}
  %or.174 = u32[1024]{0} or(%shift-left.169, %shift-right-logical.176), sharding={devices=[2,2]<=[4] last_tile_dim_replicate}, metadata={op_name="jit(_full_run)/jit(main)/jit(_normal)/jit(_normal_real)/jit(_uniform)/or" source_file="/global/homes/j/jackm/software/lorrax_C/src/solvers/lanczos.py" source_line=247}
  %xor.183 = u32[1024]{0} xor(%add.419, %or.174), sharding={devices=[2,2]<=[4] last_tile_dim_replicate}, metadata={op_name="jit(_full_run)/jit(main)/jit(_normal)/jit(_normal_real)/jit(_uniform)/xor" source_file="/global/homes/j/jackm/software/lorrax_C/src/solvers/lanczos.py" source_line=247}
  %add.420 = u32[1024]{0} add(%add.419, %xor.183), sharding={devices=[2,2]<=[4] last_tile_dim_replicate}, metadata={op_name="jit(_full_run)/jit(main)/jit(_normal)/jit(_normal_real)/jit(_uniform)/add" source_file="/global/homes/j/jackm/software/lorrax_C/src/solvers/lanczos.py" source_line=247}
  %constant.344 = u32[] constant(16), sharding={replicated}
  %broadcast.495 = u32[1024]{0} broadcast(%constant.344), dimensions={}, sharding={devices=[2,2]<=[4] last_tile_dim_replicate}
  %shift-left.170 = u32[1024]{0} shift-left(%xor.183, %broadcast.495), sharding={devices=[2,2]<=[4] last_tile_dim_replicate}, metadata={op_name="jit(_full_run)/jit(main)/jit(_normal)/jit(_normal_real)/jit(_uniform)/shift_left" source_file="/global/homes/j/jackm/software/lorrax_C/src/solvers/lanczos.py" source_line=247}
  %shift-right-logical.177 = u32[1024]{0} shift-right-logical(%xor.183, %broadcast.495), sharding={devices=[2,2]<=[4] last_tile_dim_replicate}, metadata={op_name="jit(_full_run)/jit(main)/jit(_normal)/jit(_normal_real)/jit(_uniform)/shift_right_logical" source_file="/global/homes/j/jackm/software/lorrax_C/src/solvers/lanczos.py" source_line=247}
  %or.175 = u32[1024]{0} or(%shift-left.170, %shift-right-logical.177), sharding={devices=[2,2]<=[4] last_tile_dim_replicate}, metadata={op_name="jit(_full_run)/jit(main)/jit(_normal)/jit(_normal_real)/jit(_uniform)/or" source_file="/global/homes/j/jackm/software/lorrax_C/src/solvers/lanczos.py" source_line=247}
  %xor.184 = u32[1024]{0} xor(%add.420, %or.175), sharding={devices=[2,2]<=[4] last_tile_dim_replicate}, metadata={op_name="jit(_full_run)/jit(main)/jit(_normal)/jit(_normal_real)/jit(_uniform)/xor" source_file="/global/homes/j/jackm/software/lorrax_C/src/solvers/lanczos.py" source_line=247}
  %add.421 = u32[1024]{0} add(%add.420, %xor.184), sharding={devices=[2,2]<=[4] last_tile_dim_replicate}, metadata={op_name="jit(_full_run)/jit(main)/jit(_normal)/jit(_normal_real)/jit(_uniform)/add" source_file="/global/homes/j/jackm/software/lorrax_C/src/solvers/lanczos.py" source_line=247}
  %broadcast.496 = u32[1024]{0} broadcast(%xor.181), dimensions={}, sharding={devices=[2,2]<=[4] last_tile_dim_replicate}, metadata={op_name="jit(_full_run)/jit(main)/jit(_normal)/jit(_normal_real)/jit(_uniform)/add" source_file="/global/homes/j/jackm/software/lorrax_C/src/solvers/lanczos.py" source_line=247}
  %add.422 = u32[1024]{0} add(%add.421, %broadcast.496), sharding={devices=[2,2]<=[4] last_tile_dim_replicate}, metadata={op_name="jit(_full_run)/jit(main)/jit(_normal)/jit(_normal_real)/jit(_uniform)/add" source_file="/global/homes/j/jackm/software/lorrax_C/src/solvers/lanczos.py" source_line=247}
  %constant.345 = u32[] constant(24), sharding={replicated}
  %broadcast.497 = u32[1024]{0} broadcast(%constant.345), dimensions={}, sharding={devices=[2,2]<=[4] last_tile_dim_replicate}
  %shift-left.171 = u32[1024]{0} shift-left(%xor.184, %broadcast.497), sharding={devices=[2,2]<=[4] last_tile_dim_replicate}, metadata={op_name="jit(_full_run)/jit(main)/jit(_normal)/jit(_normal_real)/jit(_uniform)/shift_left" source_file="/global/homes/j/jackm/software/lorrax_C/src/solvers/lanczos.py" source_line=247}
  %constant.346 = u32[] constant(8), sharding={replicated}
  %broadcast.498 = u32[1024]{0} broadcast(%constant.346), dimensions={}, sharding={devices=[2,2]<=[4] last_tile_dim_replicate}
  %shift-right-logical.178 = u32[1024]{0} shift-right-logical(%xor.184, %broadcast.498), sharding={devices=[2,2]<=[4] last_tile_dim_replicate}, metadata={op_name="jit(_full_run)/jit(main)/jit(_normal)/jit(_normal_real)/jit(_uniform)/shift_right_logical" source_file="/global/homes/j/jackm/software/lorrax_C/src/solvers/lanczos.py" source_line=247}
  %or.176 = u32[1024]{0} or(%shift-left.171, %shift-right-logical.178), sharding={devices=[2,2]<=[4] last_tile_dim_replicate}, metadata={op_name="jit(_full_run)/jit(main)/jit(_normal)/jit(_normal_real)/jit(_uniform)/or" source_file="/global/homes/j/jackm/software/lorrax_C/src/solvers/lanczos.py" source_line=247}
  %xor.185 = u32[1024]{0} xor(%add.421, %or.176), sharding={devices=[2,2]<=[4] last_tile_dim_replicate}, metadata={op_name="jit(_full_run)/jit(main)/jit(_normal)/jit(_normal_real)/jit(_uniform)/xor" source_file="/global/homes/j/jackm/software/lorrax_C/src/solvers/lanczos.py" source_line=247}
  %broadcast.499 = u32[1024]{0} broadcast(%reshape.57), dimensions={}, sharding={devices=[2,2]<=[4] last_tile_dim_replicate}, metadata={op_name="jit(_full_run)/jit(main)/jit(_normal)/jit(_normal_real)/jit(_uniform)/add" source_file="/global/homes/j/jackm/software/lorrax_C/src/solvers/lanczos.py" source_line=247}
  %add.424 = u32[1024]{0} add(%xor.185, %broadcast.499), sharding={devices=[2,2]<=[4] last_tile_dim_replicate}, metadata={op_name="jit(_full_run)/jit(main)/jit(_normal)/jit(_normal_real)/jit(_uniform)/add" source_file="/global/homes/j/jackm/software/lorrax_C/src/solvers/lanczos.py" source_line=247}
  %constant.347 = u32[] constant(2), sharding={replicated}
  %broadcast.500 = u32[1024]{0} broadcast(%constant.347), dimensions={}, sharding={devices=[2,2]<=[4] last_tile_dim_replicate}
  %add.425 = u32[1024]{0} add(%add.424, %broadcast.500), sharding={devices=[2,2]<=[4] last_tile_dim_replicate}, metadata={op_name="jit(_full_run)/jit(main)/jit(_normal)/jit(_normal_real)/jit(_uniform)/add" source_file="/global/homes/j/jackm/software/lorrax_C/src/solvers/lanczos.py" source_line=247}
  %add.426 = u32[1024]{0} add(%add.422, %add.425), sharding={devices=[2,2]<=[4] last_tile_dim_replicate}, metadata={op_name="jit(_full_run)/jit(main)/jit(_normal)/jit(_normal_real)/jit(_uniform)/add" source_file="/global/homes/j/jackm/software/lorrax_C/src/solvers/lanczos.py" source_line=247}
  %shift-left.172 = u32[1024]{0} shift-left(%add.425, %broadcast.482), sharding={devices=[2,2]<=[4] last_tile_dim_replicate}, metadata={op_name="jit(_full_run)/jit(main)/jit(_normal)/jit(_normal_real)/jit(_uniform)/shift_left" source_file="/global/homes/j/jackm/software/lorrax_C/src/solvers/lanczos.py" source_line=247}
  %shift-right-logical.179 = u32[1024]{0} shift-right-logical(%add.425, %broadcast.484), sharding={devices=[2,2]<=[4] last_tile_dim_replicate}, metadata={op_name="jit(_full_run)/jit(main)/jit(_normal)/jit(_normal_real)/jit(_uniform)/shift_right_logical" source_file="/global/homes/j/jackm/software/lorrax_C/src/solvers/lanczos.py" source_line=247}
  %or.177 = u32[1024]{0} or(%shift-left.172, %shift-right-logical.179), sharding={devices=[2,2]<=[4] last_tile_dim_replicate}, metadata={op_name="jit(_full_run)/jit(main)/jit(_normal)/jit(_normal_real)/jit(_uniform)/or" source_file="/global/homes/j/jackm/software/lorrax_C/src/solvers/lanczos.py" source_line=247}
  %xor.186 = u32[1024]{0} xor(%add.426, %or.177), sharding={devices=[2,2]<=[4] last_tile_dim_replicate}, metadata={op_name="jit(_full_run)/jit(main)/jit(_normal)/jit(_normal_real)/jit(_uniform)/xor" source_file="/global/homes/j/jackm/software/lorrax_C/src/solvers/lanczos.py" source_line=247}
  %add.427 = u32[1024]{0} add(%add.426, %xor.186), sharding={devices=[2,2]<=[4] last_tile_dim_replicate}, metadata={op_name="jit(_full_run)/jit(main)/jit(_normal)/jit(_normal_real)/jit(_uniform)/add" source_file="/global/homes/j/jackm/software/lorrax_C/src/solvers/lanczos.py" source_line=247}
  %shift-left.173 = u32[1024]{0} shift-left(%xor.186, %broadcast.486), sharding={devices=[2,2]<=[4] last_tile_dim_replicate}, metadata={op_name="jit(_full_run)/jit(main)/jit(_normal)/jit(_normal_real)/jit(_uniform)/shift_left" source_file="/global/homes/j/jackm/software/lorrax_C/src/solvers/lanczos.py" source_line=247}
  %shift-right-logical.180 = u32[1024]{0} shift-right-logical(%xor.186, %broadcast.487), sharding={devices=[2,2]<=[4] last_tile_dim_replicate}, metadata={op_name="jit(_full_run)/jit(main)/jit(_normal)/jit(_normal_real)/jit(_uniform)/shift_right_logical" source_file="/global/homes/j/jackm/software/lorrax_C/src/solvers/lanczos.py" source_line=247}
  %or.178 = u32[1024]{0} or(%shift-left.173, %shift-right-logical.180), sharding={devices=[2,2]<=[4] last_tile_dim_replicate}, metadata={op_name="jit(_full_run)/jit(main)/jit(_normal)/jit(_normal_real)/jit(_uniform)/or" source_file="/global/homes/j/jackm/software/lorrax_C/src/solvers/lanczos.py" source_line=247}
  %xor.187 = u32[1024]{0} xor(%add.427, %or.178), sharding={devices=[2,2]<=[4] last_tile_dim_replicate}, metadata={op_name="jit(_full_run)/jit(main)/jit(_normal)/jit(_normal_real)/jit(_uniform)/xor" source_file="/global/homes/j/jackm/software/lorrax_C/src/solvers/lanczos.py" source_line=247}
  %add.429 = u32[1024]{0} add(%add.427, %xor.187), sharding={devices=[2,2]<=[4] last_tile_dim_replicate}, metadata={op_name="jit(_full_run)/jit(main)/jit(_normal)/jit(_normal_real)/jit(_uniform)/add" source_file="/global/homes/j/jackm/software/lorrax_C/src/solvers/lanczos.py" source_line=247}
  %shift-left.174 = u32[1024]{0} shift-left(%xor.187, %broadcast.488), sharding={devices=[2,2]<=[4] last_tile_dim_replicate}, metadata={op_name="jit(_full_run)/jit(main)/jit(_normal)/jit(_normal_real)/jit(_uniform)/shift_left" source_file="/global/homes/j/jackm/software/lorrax_C/src/solvers/lanczos.py" source_line=247}
  %shift-right-logical.181 = u32[1024]{0} shift-right-logical(%xor.187, %broadcast.489), sharding={devices=[2,2]<=[4] last_tile_dim_replicate}, metadata={op_name="jit(_full_run)/jit(main)/jit(_normal)/jit(_normal_real)/jit(_uniform)/shift_right_logical" source_file="/global/homes/j/jackm/software/lorrax_C/src/solvers/lanczos.py" source_line=247}
  %or.179 = u32[1024]{0} or(%shift-left.174, %shift-right-logical.181), sharding={devices=[2,2]<=[4] last_tile_dim_replicate}, metadata={op_name="jit(_full_run)/jit(main)/jit(_normal)/jit(_normal_real)/jit(_uniform)/or" source_file="/global/homes/j/jackm/software/lorrax_C/src/solvers/lanczos.py" source_line=247}
  %xor.188 = u32[1024]{0} xor(%add.429, %or.179), sharding={devices=[2,2]<=[4] last_tile_dim_replicate}, metadata={op_name="jit(_full_run)/jit(main)/jit(_normal)/jit(_normal_real)/jit(_uniform)/xor" source_file="/global/homes/j/jackm/software/lorrax_C/src/solvers/lanczos.py" source_line=247}
  %add.430 = u32[1024]{0} add(%add.429, %xor.188), sharding={devices=[2,2]<=[4] last_tile_dim_replicate}, metadata={op_name="jit(_full_run)/jit(main)/jit(_normal)/jit(_normal_real)/jit(_uniform)/add" source_file="/global/homes/j/jackm/software/lorrax_C/src/solvers/lanczos.py" source_line=247}
  %broadcast.501 = u32[1024]{0} broadcast(%reshape.57), dimensions={}, sharding={devices=[2,2]<=[4] last_tile_dim_replicate}, metadata={op_name="jit(_full_run)/jit(main)/jit(_normal)/jit(_normal_real)/jit(_uniform)/add" source_file="/global/homes/j/jackm/software/lorrax_C/src/solvers/lanczos.py" source_line=247}
  %add.431 = u32[1024]{0} add(%add.430, %broadcast.501), sharding={devices=[2,2]<=[4] last_tile_dim_replicate}, metadata={op_name="jit(_full_run)/jit(main)/jit(_normal)/jit(_normal_real)/jit(_uniform)/add" source_file="/global/homes/j/jackm/software/lorrax_C/src/solvers/lanczos.py" source_line=247}
  %shift-left.175 = u32[1024]{0} shift-left(%xor.188, %broadcast.489), sharding={devices=[2,2]<=[4] last_tile_dim_replicate}, metadata={op_name="jit(_full_run)/jit(main)/jit(_normal)/jit(_normal_real)/jit(_uniform)/shift_left" source_file="/global/homes/j/jackm/software/lorrax_C/src/solvers/lanczos.py" source_line=247}
  %shift-right-logical.182 = u32[1024]{0} shift-right-logical(%xor.188, %broadcast.488), sharding={devices=[2,2]<=[4] last_tile_dim_replicate}, metadata={op_name="jit(_full_run)/jit(main)/jit(_normal)/jit(_normal_real)/jit(_uniform)/shift_right_logical" source_file="/global/homes/j/jackm/software/lorrax_C/src/solvers/lanczos.py" source_line=247}
  %or.180 = u32[1024]{0} or(%shift-left.175, %shift-right-logical.182), sharding={devices=[2,2]<=[4] last_tile_dim_replicate}, metadata={op_name="jit(_full_run)/jit(main)/jit(_normal)/jit(_normal_real)/jit(_uniform)/or" source_file="/global/homes/j/jackm/software/lorrax_C/src/solvers/lanczos.py" source_line=247}
  %xor.189 = u32[1024]{0} xor(%add.430, %or.180), sharding={devices=[2,2]<=[4] last_tile_dim_replicate}, metadata={op_name="jit(_full_run)/jit(main)/jit(_normal)/jit(_normal_real)/jit(_uniform)/xor" source_file="/global/homes/j/jackm/software/lorrax_C/src/solvers/lanczos.py" source_line=247}
  %broadcast.502 = u32[1024]{0} broadcast(%reshape.58), dimensions={}, sharding={devices=[2,2]<=[4] last_tile_dim_replicate}, metadata={op_name="jit(_full_run)/jit(main)/jit(_normal)/jit(_normal_real)/jit(_uniform)/add" source_file="/global/homes/j/jackm/software/lorrax_C/src/solvers/lanczos.py" source_line=247}
  %add.432 = u32[1024]{0} add(%xor.189, %broadcast.502), sharding={devices=[2,2]<=[4] last_tile_dim_replicate}, metadata={op_name="jit(_full_run)/jit(main)/jit(_normal)/jit(_normal_real)/jit(_uniform)/add" source_file="/global/homes/j/jackm/software/lorrax_C/src/solvers/lanczos.py" source_line=247}
  %add.433 = u32[1024]{0} add(%add.432, %broadcast.494), sharding={devices=[2,2]<=[4] last_tile_dim_replicate}, metadata={op_name="jit(_full_run)/jit(main)/jit(_normal)/jit(_normal_real)/jit(_uniform)/add" source_file="/global/homes/j/jackm/software/lorrax_C/src/solvers/lanczos.py" source_line=247}
  %add.435 = u32[1024]{0} add(%add.431, %add.433), sharding={devices=[2,2]<=[4] last_tile_dim_replicate}, metadata={op_name="jit(_full_run)/jit(main)/jit(_normal)/jit(_normal_real)/jit(_uniform)/add" source_file="/global/homes/j/jackm/software/lorrax_C/src/solvers/lanczos.py" source_line=247}
  %shift-left.176 = u32[1024]{0} shift-left(%add.433, %broadcast.487), sharding={devices=[2,2]<=[4] last_tile_dim_replicate}, metadata={op_name="jit(_full_run)/jit(main)/jit(_normal)/jit(_normal_real)/jit(_uniform)/shift_left" source_file="/global/homes/j/jackm/software/lorrax_C/src/solvers/lanczos.py" source_line=247}
  %shift-right-logical.183 = u32[1024]{0} shift-right-logical(%add.433, %broadcast.486), sharding={devices=[2,2]<=[4] last_tile_dim_replicate}, metadata={op_name="jit(_full_run)/jit(main)/jit(_normal)/jit(_normal_real)/jit(_uniform)/shift_right_logical" source_file="/global/homes/j/jackm/software/lorrax_C/src/solvers/lanczos.py" source_line=247}
  %or.181 = u32[1024]{0} or(%shift-left.176, %shift-right-logical.183), sharding={devices=[2,2]<=[4] last_tile_dim_replicate}, metadata={op_name="jit(_full_run)/jit(main)/jit(_normal)/jit(_normal_real)/jit(_uniform)/or" source_file="/global/homes/j/jackm/software/lorrax_C/src/solvers/lanczos.py" source_line=247}
  %xor.190 = u32[1024]{0} xor(%add.435, %or.181), sharding={devices=[2,2]<=[4] last_tile_dim_replicate}, metadata={op_name="jit(_full_run)/jit(main)/jit(_normal)/jit(_normal_real)/jit(_uniform)/xor" source_file="/global/homes/j/jackm/software/lorrax_C/src/solvers/lanczos.py" source_line=247}
  %add.439 = u32[1024]{0} add(%add.435, %xor.190), sharding={devices=[2,2]<=[4] last_tile_dim_replicate}, metadata={op_name="jit(_full_run)/jit(main)/jit(_normal)/jit(_normal_real)/jit(_uniform)/add" source_file="/global/homes/j/jackm/software/lorrax_C/src/solvers/lanczos.py" source_line=247}
  %shift-left.177 = u32[1024]{0} shift-left(%xor.190, %broadcast.493), sharding={devices=[2,2]<=[4] last_tile_dim_replicate}, metadata={op_name="jit(_full_run)/jit(main)/jit(_normal)/jit(_normal_real)/jit(_uniform)/shift_left" source_file="/global/homes/j/jackm/software/lorrax_C/src/solvers/lanczos.py" source_line=247}
  %shift-right-logical.184 = u32[1024]{0} shift-right-logical(%xor.190, %broadcast.494), sharding={devices=[2,2]<=[4] last_tile_dim_replicate}, metadata={op_name="jit(_full_run)/jit(main)/jit(_normal)/jit(_normal_real)/jit(_uniform)/shift_right_logical" source_file="/global/homes/j/jackm/software/lorrax_C/src/solvers/lanczos.py" source_line=247}
  %or.182 = u32[1024]{0} or(%shift-left.177, %shift-right-logical.184), sharding={devices=[2,2]<=[4] last_tile_dim_replicate}, metadata={op_name="jit(_full_run)/jit(main)/jit(_normal)/jit(_normal_real)/jit(_uniform)/or" source_file="/global/homes/j/jackm/software/lorrax_C/src/solvers/lanczos.py" source_line=247}
  %xor.193 = u32[1024]{0} xor(%add.439, %or.182), sharding={devices=[2,2]<=[4] last_tile_dim_replicate}, metadata={op_name="jit(_full_run)/jit(main)/jit(_normal)/jit(_normal_real)/jit(_uniform)/xor" source_file="/global/homes/j/jackm/software/lorrax_C/src/solvers/lanczos.py" source_line=247}
  %add.440 = u32[1024]{0} add(%add.439, %xor.193), sharding={devices=[2,2]<=[4] last_tile_dim_replicate}, metadata={op_name="jit(_full_run)/jit(main)/jit(_normal)/jit(_normal_real)/jit(_uniform)/add" source_file="/global/homes/j/jackm/software/lorrax_C/src/solvers/lanczos.py" source_line=247}
  %shift-left.178 = u32[1024]{0} shift-left(%xor.193, %broadcast.495), sharding={devices=[2,2]<=[4] last_tile_dim_replicate}, metadata={op_name="jit(_full_run)/jit(main)/jit(_normal)/jit(_normal_real)/jit(_uniform)/shift_left" source_file="/global/homes/j/jackm/software/lorrax_C/src/solvers/lanczos.py" source_line=247}
  %shift-right-logical.185 = u32[1024]{0} shift-right-logical(%xor.193, %broadcast.495), sharding={devices=[2,2]<=[4] last_tile_dim_replicate}, metadata={op_name="jit(_full_run)/jit(main)/jit(_normal)/jit(_normal_real)/jit(_uniform)/shift_right_logical" source_file="/global/homes/j/jackm/software/lorrax_C/src/solvers/lanczos.py" source_line=247}
  %or.183 = u32[1024]{0} or(%shift-left.178, %shift-right-logical.185), sharding={devices=[2,2]<=[4] last_tile_dim_replicate}, metadata={op_name="jit(_full_run)/jit(main)/jit(_normal)/jit(_normal_real)/jit(_uniform)/or" source_file="/global/homes/j/jackm/software/lorrax_C/src/solvers/lanczos.py" source_line=247}
  %xor.194 = u32[1024]{0} xor(%add.440, %or.183), sharding={devices=[2,2]<=[4] last_tile_dim_replicate}, metadata={op_name="jit(_full_run)/jit(main)/jit(_normal)/jit(_normal_real)/jit(_uniform)/xor" source_file="/global/homes/j/jackm/software/lorrax_C/src/solvers/lanczos.py" source_line=247}
  %add.441 = u32[1024]{0} add(%add.440, %xor.194), sharding={devices=[2,2]<=[4] last_tile_dim_replicate}, metadata={op_name="jit(_full_run)/jit(main)/jit(_normal)/jit(_normal_real)/jit(_uniform)/add" source_file="/global/homes/j/jackm/software/lorrax_C/src/solvers/lanczos.py" source_line=247}
  %broadcast.503 = u32[1024]{0} broadcast(%reshape.58), dimensions={}, sharding={devices=[2,2]<=[4] last_tile_dim_replicate}, metadata={op_name="jit(_full_run)/jit(main)/jit(_normal)/jit(_normal_real)/jit(_uniform)/add" source_file="/global/homes/j/jackm/software/lorrax_C/src/solvers/lanczos.py" source_line=247}
  %add.442 = u32[1024]{0} add(%add.441, %broadcast.503), sharding={devices=[2,2]<=[4] last_tile_dim_replicate}, metadata={op_name="jit(_full_run)/jit(main)/jit(_normal)/jit(_normal_real)/jit(_uniform)/add" source_file="/global/homes/j/jackm/software/lorrax_C/src/solvers/lanczos.py" source_line=247}
  %shift-left.179 = u32[1024]{0} shift-left(%xor.194, %broadcast.497), sharding={devices=[2,2]<=[4] last_tile_dim_replicate}, metadata={op_name="jit(_full_run)/jit(main)/jit(_normal)/jit(_normal_real)/jit(_uniform)/shift_left" source_file="/global/homes/j/jackm/software/lorrax_C/src/solvers/lanczos.py" source_line=247}
  %shift-right-logical.186 = u32[1024]{0} shift-right-logical(%xor.194, %broadcast.498), sharding={devices=[2,2]<=[4] last_tile_dim_replicate}, metadata={op_name="jit(_full_run)/jit(main)/jit(_normal)/jit(_normal_real)/jit(_uniform)/shift_right_logical" source_file="/global/homes/j/jackm/software/lorrax_C/src/solvers/lanczos.py" source_line=247}
  %or.184 = u32[1024]{0} or(%shift-left.179, %shift-right-logical.186), sharding={devices=[2,2]<=[4] last_tile_dim_replicate}, metadata={op_name="jit(_full_run)/jit(main)/jit(_normal)/jit(_normal_real)/jit(_uniform)/or" source_file="/global/homes/j/jackm/software/lorrax_C/src/solvers/lanczos.py" source_line=247}
  %xor.195 = u32[1024]{0} xor(%add.441, %or.184), sharding={devices=[2,2]<=[4] last_tile_dim_replicate}, metadata={op_name="jit(_full_run)/jit(main)/jit(_normal)/jit(_normal_real)/jit(_uniform)/xor" source_file="/global/homes/j/jackm/software/lorrax_C/src/solvers/lanczos.py" source_line=247}
  %broadcast.504 = u32[1024]{0} broadcast(%xor.181), dimensions={}, sharding={devices=[2,2]<=[4] last_tile_dim_replicate}, metadata={op_name="jit(_full_run)/jit(main)/jit(_normal)/jit(_normal_real)/jit(_uniform)/add" source_file="/global/homes/j/jackm/software/lorrax_C/src/solvers/lanczos.py" source_line=247}
  %add.444 = u32[1024]{0} add(%xor.195, %broadcast.504), sharding={devices=[2,2]<=[4] last_tile_dim_replicate}, metadata={op_name="jit(_full_run)/jit(main)/jit(_normal)/jit(_normal_real)/jit(_uniform)/add" source_file="/global/homes/j/jackm/software/lorrax_C/src/solvers/lanczos.py" source_line=247}
  %constant.348 = u32[] constant(4), sharding={replicated}
  %broadcast.505 = u32[1024]{0} broadcast(%constant.348), dimensions={}, sharding={devices=[2,2]<=[4] last_tile_dim_replicate}
  %add.445 = u32[1024]{0} add(%add.444, %broadcast.505), sharding={devices=[2,2]<=[4] last_tile_dim_replicate}, metadata={op_name="jit(_full_run)/jit(main)/jit(_normal)/jit(_normal_real)/jit(_uniform)/add" source_file="/global/homes/j/jackm/software/lorrax_C/src/solvers/lanczos.py" source_line=247}
  %add.446 = u32[1024]{0} add(%add.442, %add.445), sharding={devices=[2,2]<=[4] last_tile_dim_replicate}, metadata={op_name="jit(_full_run)/jit(main)/jit(_normal)/jit(_normal_real)/jit(_uniform)/add" source_file="/global/homes/j/jackm/software/lorrax_C/src/solvers/lanczos.py" source_line=247}
  %shift-left.180 = u32[1024]{0} shift-left(%add.445, %broadcast.482), sharding={devices=[2,2]<=[4] last_tile_dim_replicate}, metadata={op_name="jit(_full_run)/jit(main)/jit(_normal)/jit(_normal_real)/jit(_uniform)/shift_left" source_file="/global/homes/j/jackm/software/lorrax_C/src/solvers/lanczos.py" source_line=247}
  %shift-right-logical.187 = u32[1024]{0} shift-right-logical(%add.445, %broadcast.484), sharding={devices=[2,2]<=[4] last_tile_dim_replicate}, metadata={op_name="jit(_full_run)/jit(main)/jit(_normal)/jit(_normal_real)/jit(_uniform)/shift_right_logical" source_file="/global/homes/j/jackm/software/lorrax_C/src/solvers/lanczos.py" source_line=247}
  %or.185 = u32[1024]{0} or(%shift-left.180, %shift-right-logical.187), sharding={devices=[2,2]<=[4] last_tile_dim_replicate}, metadata={op_name="jit(_full_run)/jit(main)/jit(_normal)/jit(_normal_real)/jit(_uniform)/or" source_file="/global/homes/j/jackm/software/lorrax_C/src/solvers/lanczos.py" source_line=247}
  %xor.196 = u32[1024]{0} xor(%add.446, %or.185), sharding={devices=[2,2]<=[4] last_tile_dim_replicate}, metadata={op_name="jit(_full_run)/jit(main)/jit(_normal)/jit(_normal_real)/jit(_uniform)/xor" source_file="/global/homes/j/jackm/software/lorrax_C/src/solvers/lanczos.py" source_line=247}
  %add.447 = u32[1024]{0} add(%add.446, %xor.196), sharding={devices=[2,2]<=[4] last_tile_dim_replicate}, metadata={op_name="jit(_full_run)/jit(main)/jit(_normal)/jit(_normal_real)/jit(_uniform)/add" source_file="/global/homes/j/jackm/software/lorrax_C/src/solvers/lanczos.py" source_line=247}
  %shift-left.181 = u32[1024]{0} shift-left(%xor.196, %broadcast.486), sharding={devices=[2,2]<=[4] last_tile_dim_replicate}, metadata={op_name="jit(_full_run)/jit(main)/jit(_normal)/jit(_normal_real)/jit(_uniform)/shift_left" source_file="/global/homes/j/jackm/software/lorrax_C/src/solvers/lanczos.py" source_line=247}
  %shift-right-logical.188 = u32[1024]{0} shift-right-logical(%xor.196, %broadcast.487), sharding={devices=[2,2]<=[4] last_tile_dim_replicate}, metadata={op_name="jit(_full_run)/jit(main)/jit(_normal)/jit(_normal_real)/jit(_uniform)/shift_right_logical" source_file="/global/homes/j/jackm/software/lorrax_C/src/solvers/lanczos.py" source_line=247}
  %or.186 = u32[1024]{0} or(%shift-left.181, %shift-right-logical.188), sharding={devices=[2,2]<=[4] last_tile_dim_replicate}, metadata={op_name="jit(_full_run)/jit(main)/jit(_normal)/jit(_normal_real)/jit(_uniform)/or" source_file="/global/homes/j/jackm/software/lorrax_C/src/solvers/lanczos.py" source_line=247}
  %xor.197 = u32[1024]{0} xor(%add.447, %or.186), sharding={devices=[2,2]<=[4] last_tile_dim_replicate}, metadata={op_name="jit(_full_run)/jit(main)/jit(_normal)/jit(_normal_real)/jit(_uniform)/xor" source_file="/global/homes/j/jackm/software/lorrax_C/src/solvers/lanczos.py" source_line=247}
  %add.449 = u32[1024]{0} add(%add.447, %xor.197), sharding={devices=[2,2]<=[4] last_tile_dim_replicate}, metadata={op_name="jit(_full_run)/jit(main)/jit(_normal)/jit(_normal_real)/jit(_uniform)/add" source_file="/global/homes/j/jackm/software/lorrax_C/src/solvers/lanczos.py" source_line=247}
…
  %select.256 = c128[1024]{0} select(%broadcast.989, %divide.1288, %broadcast.991), sharding={devices=[2,2]<=[4] last_tile_dim_replicate}
  %reshape.408 = c128[1024,1]{1,0} reshape(%select.256), sharding={devices=[2,1,2]<=[4] last_tile_dim_replicate}
  %constant.925 = c128[] constant((0, 0))
  %pad.16 = c128[1024,200]{1,0} pad(%reshape.408, %constant.925), padding=0_0x0_199, sharding={devices=[2,1,2]<=[4] last_tile_dim_replicate}, metadata={op_name="jit(_full_run)/jit(main)/scatter" source_file="/global/homes/j/jackm/software/lorrax_C/src/solvers/lanczos.py" source_line=252}
  %constant.15 = f64[] constant(0), sharding={replicated}
  %broadcast.16 = f64[200]{0} broadcast(%constant.15), dimensions={}, sharding={replicated}
  %Arg_0.1 = c128[64,4,2,480]{3,2,1,0} parameter(0), sharding={devices=[1,1,1,2,2]<=[4] last_tile_dim_replicate}, metadata={op_name="psi_c_X"}
  %Arg_1.2 = c128[64,4,2,480]{3,2,1,0} parameter(1), sharding={devices=[1,1,1,2,2]<=[2,2]T(1,0) last_tile_dim_replicate}, metadata={op_name="psi_c_Y"}
  %Arg_2.3 = c128[64,4,2,480]{3,2,1,0} parameter(2), sharding={devices=[1,1,1,2,2]<=[4] last_tile_dim_replicate}, metadata={op_name="psi_v_X"}
  %Arg_3.4 = c128[64,4,2,480]{3,2,1,0} parameter(3), sharding={devices=[1,1,1,2,2]<=[2,2]T(1,0) last_tile_dim_replicate}, metadata={op_name="psi_v_Y"}
  %Arg_4.5 = f64[64,4]{1,0} parameter(4), sharding={replicated}, metadata={op_name="eps_c"}
  %Arg_5.6 = f64[64,4]{1,0} parameter(5), sharding={replicated}, metadata={op_name="eps_v"}
  %Arg_6.7 = c128[480,480,4,4,4]{4,3,2,1,0} parameter(6), sharding={devices=[2,2,1,1,1]<=[4]}, metadata={op_name="W_q"}
  %copy.2 = c128[480,480,4,4,4]{4,3,2,1,0} copy(%Arg_6.7), sharding={devices=[2,2,1,1,1]<=[4]}, metadata={op_name="jit(_full_run)/jit(main)/shard_map" source_file="/global/homes/j/jackm/software/lorrax_C/src/bse/bse_lanczos.py" source_line=196}
  %custom-call.32 = c128[240,240,4,4,4]{4,3,2,1,0} custom-call(%copy.2), custom_call_target="SPMDFullToShardShape", sharding={manual}, metadata={op_name="jit(_full_run)/jit(main)/shard_map" source_file="/global/homes/j/jackm/software/lorrax_C/src/bse/bse_lanczos.py" source_line=196}
  %fft.1 = c128[240,240,4,4,4]{4,3,2,1,0} fft(%custom-call.32), fft_type=IFFT, fft_length={4,4,4}, sharding={manual}, metadata={op_name="jit(_full_run)/jit(main)/jit(shmap_body)/jit(fft)/fft" source_file="/global/homes/j/jackm/software/lorrax_C/src/common/fft_helpers.py" source_line=412}
  %constant.27 = c128[] constant((4, 0)), sharding={replicated}
  %broadcast.28 = c128[3]{0} broadcast(%constant.27), dimensions={}, sharding={replicated}
  %copy.1 = c128[3]{0} copy(%broadcast.28), sharding={replicated}, metadata={op_name="jit(_full_run)/jit(main)/shard_map" source_file="/global/homes/j/jackm/software/lorrax_C/src/bse/bse_lanczos.py" source_line=196}
  %custom-call.30 = c128[3]{0} custom-call(%copy.1), custom_call_target="SPMDFullToShardShape", sharding={manual}, metadata={op_name="jit(_full_run)/jit(main)/shard_map" source_file="/global/homes/j/jackm/software/lorrax_C/src/bse/bse_lanczos.py" source_line=196}
  %constant.531 = c128[] constant((1, 0)), sharding={manual}
  %reduce.3 = c128[] reduce(%custom-call.30, %constant.531), dimensions={0}, to_apply=%region_0.36, sharding={manual}, metadata={op_name="jit(_full_run)/jit(main)/jit(shmap_body)/reduce_prod" source_file="/global/homes/j/jackm/software/lorrax_C/src/common/fft_helpers.py" source_line=412}
  %real.18 = f64[] real(%reduce.3), sharding={manual}, metadata={op_name="jit(_full_run)/jit(main)/jit(shmap_body)/sqrt" source_file="/global/homes/j/jackm/software/lorrax_C/src/common/fft_helpers.py" source_line=412}
  %constant.927 = f64[] constant(0), sharding={manual}
  %compare.18 = pred[] compare(%real.18, %constant.927), direction=GE, sharding={manual}, metadata={op_name="jit(_full_run)/jit(main)/jit(shmap_body)/sqrt" source_file="/global/homes/j/jackm/software/lorrax_C/src/common/fft_helpers.py" source_line=412}
  %abs.4 = f64[] abs(%real.18), sharding={manual}, metadata={op_name="jit(_full_run)/jit(main)/jit(shmap_body)/sqrt" source_file="/global/homes/j/jackm/software/lorrax_C/src/common/fft_helpers.py" source_line=412}
  %imag.14 = f64[] imag(%reduce.3), sharding={manual}, metadata={op_name="jit(_full_run)/jit(main)/jit(shmap_body)/sqrt" source_file="/global/homes/j/jackm/software/lorrax_C/src/common/fft_helpers.py" source_line=412}
  %abs.5 = f64[] abs(%imag.14), sharding={manual}, metadata={op_name="jit(_full_run)/jit(main)/jit(shmap_body)/sqrt" source_file="/global/homes/j/jackm/software/lorrax_C/src/common/fft_helpers.py" source_line=412}
  %compare.19 = pred[] compare(%abs.4, %abs.5), direction=EQ, sharding={manual}, metadata={op_name="jit(_full_run)/jit(main)/jit(shmap_body)/sqrt" source_file="/global/homes/j/jackm/software/lorrax_C/src/common/fft_helpers.py" source_line=412}
  %sqrt.7 = f64[] sqrt(%abs.4), sharding={manual}, metadata={op_name="jit(_full_run)/jit(main)/jit(shmap_body)/sqrt" source_file="/global/homes/j/jackm/software/lorrax_C/src/common/fft_helpers.py" source_line=412}
  %constant.865 = f64[] constant(1.0986841134678098), sharding={manual}
  %multiply.155 = f64[] multiply(%sqrt.7, %constant.865), sharding={manual}, metadata={op_name="jit(_full_run)/jit(main)/jit(shmap_body)/sqrt" source_file="/global/homes/j/jackm/software/lorrax_C/src/common/fft_helpers.py" source_line=412}
  %maximum.9 = f64[] maximum(%abs.4, %abs.5), sharding={manual}, metadata={op_name="jit(_full_run)/jit(main)/jit(shmap_body)/sqrt" source_file="/global/homes/j/jackm/software/lorrax_C/src/common/fft_helpers.py" source_line=412}
  %minimum.1 = f64[] minimum(%abs.4, %abs.5), sharding={manual}, metadata={op_name="jit(_full_run)/jit(main)/jit(shmap_body)/sqrt" source_file="/global/homes/j/jackm/software/lorrax_C/src/common/fft_helpers.py" source_line=412}
  %compare.20 = pred[] compare(%maximum.9, %minimum.1), direction=EQ, sharding={manual}, metadata={op_name="jit(_full_run)/jit(main)/jit(shmap_body)/sqrt" source_file="/global/homes/j/jackm/software/lorrax_C/src/common/fft_helpers.py" source_line=412}
  %constant.934 = f64[] constant(1.4142135623730951), sharding={manual}
  %multiply.136 = f64[] multiply(%maximum.9, %constant.934), sharding={manual}, metadata={op_name="jit(_full_run)/jit(main)/jit(shmap_body)/sqrt" source_file="/global/homes/j/jackm/software/lorrax_C/src/common/fft_helpers.py" source_line=412}
  %divide.8 = f64[] divide(%minimum.1, %maximum.9), sharding={manual}, metadata={op_name="jit(_full_run)/jit(main)/jit(shmap_body)/sqrt" source_file="/global/homes/j/jackm/software/lorrax_C/src/common/fft_helpers.py" source_line=412}
  %multiply.137 = f64[] multiply(%divide.8, %divide.8), sharding={manual}, metadata={op_name="jit(_full_run)/jit(main)/jit(shmap_body)/sqrt" source_file="/global/homes/j/jackm/software/lorrax_C/src/common/fft_helpers.py" source_line=412}
  %constant.937 = f64[] constant(1), sharding={manual}
  %add.556 = f64[] add(%multiply.137, %constant.937), sharding={manual}, metadata={op_name="jit(_full_run)/jit(main)/jit(shmap_body)/sqrt" source_file="/global/homes/j/jackm/software/lorrax_C/src/common/fft_helpers.py" source_line=412}
  %sqrt.8 = f64[] sqrt(%add.556), sharding={manual}, metadata={op_name="jit(_full_run)/jit(main)/jit(shmap_body)/sqrt" source_file="/global/homes/j/jackm/software/lorrax_C/src/common/fft_helpers.py" source_line=412}
  %constant.938 = f64[] constant(1), sharding={manual}
  %compare.21 = pred[] compare(%sqrt.8, %constant.938), direction=EQ, sharding={manual}, metadata={op_name="jit(_full_run)/jit(main)/jit(shmap_body)/sqrt" source_file="/global/homes/j/jackm/software/lorrax_C/src/common/fft_helpers.py" source_line=412}
  %constant.928 = f64[] constant(0), sharding={manual}
  %compare.22 = pred[] compare(%multiply.137, %constant.928), direction=GT, sharding={manual}, metadata={op_name="jit(_full_run)/jit(main)/jit(shmap_body)/sqrt" source_file="/global/homes/j/jackm/software/lorrax_C/src/common/fft_helpers.py" source_line=412}
  %and.0 = pred[] and(%compare.21, %compare.22), sharding={manual}, metadata={op_name="jit(_full_run)/jit(main)/jit(shmap_body)/sqrt" source_file="/global/homes/j/jackm/software/lorrax_C/src/common/fft_helpers.py" source_line=412}
  %multiply.138 = f64[] multiply(%maximum.9, %multiply.137), sharding={manual}, metadata={op_name="jit(_full_run)/jit(main)/jit(shmap_body)/sqrt" source_file="/global/homes/j/jackm/software/lorrax_C/src/common/fft_helpers.py" source_line=412}
  %constant.555 = f64[] constant(0.5), sharding={manual}
  %multiply.156 = f64[] multiply(%multiply.138, %constant.555), sharding={manual}, metadata={op_name="jit(_full_run)/jit(main)/jit(shmap_body)/sqrt" source_file="/global/homes/j/jackm/software/lorrax_C/src/common/fft_helpers.py" source_line=412}
  %add.557 = f64[] add(%maximum.9, %multiply.156), sharding={manual}, metadata={op_name="jit(_full_run)/jit(main)/jit(shmap_body)/sqrt" source_file="/global/homes/j/jackm/software/lorrax_C/src/common/fft_helpers.py" source_line=412}
  %multiply.139 = f64[] multiply(%maximum.9, %sqrt.8), sharding={manual}, metadata={op_name="jit(_full_run)/jit(main)/jit(shmap_body)/sqrt" source_file="/global/homes/j/jackm/software/lorrax_C/src/common/fft_helpers.py" source_line=412}
  %select.209 = f64[] select(%and.0, %add.557, %multiply.139), sharding={manual}, metadata={op_name="jit(_full_run)/jit(main)/jit(shmap_body)/sqrt" source_file="/global/homes/j/jackm/software/lorrax_C/src/common/fft_helpers.py" source_line=412}
  %select.210 = f64[] select(%compare.20, %multiply.136, %select.209), sharding={manual}, metadata={op_name="jit(_full_run)/jit(main)/jit(shmap_body)/sqrt" source_file="/global/homes/j/jackm/software/lorrax_C/src/common/fft_helpers.py" source_line=412}
  %constant.556 = f64[] constant(0.5), sharding={manual}
  %multiply.157 = f64[] multiply(%select.210, %constant.556), sharding={manual}, metadata={op_name="jit(_full_run)/jit(main)/jit(shmap_body)/sqrt" source_file="/global/homes/j/jackm/software/lorrax_C/src/common/fft_helpers.py" source_line=412}
  %constant.557 = f64[] constant(0.5), sharding={manual}
  %multiply.158 = f64[] multiply(%abs.4, %constant.557), sharding={manual}, metadata={op_name="jit(_full_run)/jit(main)/jit(shmap_body)/sqrt" source_file="/global/homes/j/jackm/software/lorrax_C/src/common/fft_helpers.py" source_line=412}
  %add.558 = f64[] add(%multiply.157, %multiply.158), sharding={manual}, metadata={op_name="jit(_full_run)/jit(main)/jit(shmap_body)/sqrt" source_file="/global/homes/j/jackm/software/lorrax_C/src/common/fft_helpers.py" source_line=412}
  %sqrt.9 = f64[] sqrt(%add.558), sharding={manual}, metadata={op_name="jit(_full_run)/jit(main)/jit(shmap_body)/sqrt" source_file="/global/homes/j/jackm/software/lorrax_C/src/common/fft_helpers.py" source_line=412}
  %constant.929 = f64[] constant(0), sharding={manual}
  %compare.23 = pred[] compare(%sqrt.9, %constant.929), direction=EQ, sharding={manual}, metadata={op_name="jit(_full_run)/jit(main)/jit(shmap_body)/sqrt" source_file="/global/homes/j/jackm/software/lorrax_C/src/common/fft_helpers.py" source_line=412}
  %constant.537 = f64[] constant(inf), sharding={manual}
  %compare.24 = pred[] compare(%sqrt.9, %constant.537), direction=EQ, sharding={manual}, metadata={op_name="jit(_full_run)/jit(main)/jit(shmap_body)/sqrt" source_file="/global/homes/j/jackm/software/lorrax_C/src/common/fft_helpers.py" source_line=412}
  %or.217 = pred[] or(%compare.23, %compare.24), sharding={manual}, metadata={op_name="jit(_full_run)/jit(main)/jit(shmap_body)/sqrt" source_file="/global/homes/j/jackm/software/lorrax_C/src/common/fft_helpers.py" source_line=412}
  %compare.25 = pred[] compare(%abs.4, %abs.5), direction=GT, sharding={manual}, metadata={op_name="jit(_full_run)/jit(main)/jit(shmap_body)/sqrt" source_file="/global/homes/j/jackm/software/lorrax_C/src/common/fft_helpers.py" source_line=412}
  %constant.939 = f64[] constant(1), sharding={manual}
  %compare.26 = pred[] compare(%abs.4, %abs.5), direction=LT, sharding={manual}, metadata={op_name="jit(_full_run)/jit(main)/jit(shmap_body)/sqrt" source_file="/global/homes/j/jackm/software/lorrax_C/src/common/fft_helpers.py" source_line=412}
  %divide.12 = f64[] divide(%abs.4, %abs.5), sharding={manual}, metadata={op_name="jit(_full_run)/jit(main)/jit(shmap_body)/sqrt" source_file="/global/homes/j/jackm/software/lorrax_C/src/common/fft_helpers.py" source_line=412}
  %divide.13 = f64[] divide(%abs.5, %abs.4), sharding={manual}, metadata={op_name="jit(_full_run)/jit(main)/jit(shmap_body)/sqrt" source_file="/global/homes/j/jackm/software/lorrax_C/src/common/fft_helpers.py" source_line=412}
  %select.211 = f64[] select(%compare.26, %divide.12, %divide.13), sharding={manual}, metadata={op_name="jit(_full_run)/jit(main)/jit(shmap_body)/sqrt" source_file="/global/homes/j/jackm/software/lorrax_C/src/common/fft_helpers.py" source_line=412}
  %select.212 = f64[] select(%compare.19, %constant.939, %select.211), sharding={manual}, metadata={op_name="jit(_full_run)/jit(main)/jit(shmap_body)/sqrt" source_file="/global/homes/j/jackm/software/lorrax_C/src/common/fft_helpers.py" source_line=412}
  %abs.6 = f64[] abs(%select.212), sharding={manual}, metadata={op_name="jit(_full_run)/jit(main)/jit(shmap_body)/sqrt" source_file="/global/homes/j/jackm/software/lorrax_C/src/common/fft_helpers.py" source_line=412}
  %constant.940 = f64[] constant(1), sharding={manual}
  %maximum.10 = f64[] maximum(%abs.6, %constant.940), sharding={manual}, metadata={op_name="jit(_full_run)/jit(main)/jit(shmap_body)/sqrt" source_file="/global/homes/j/jackm/software/lorrax_C/src/common/fft_helpers.py" source_line=412}
  %constant.941 = f64[] constant(1), sharding={manual}
  %minimum.2 = f64[] minimum(%abs.6, %constant.941), sharding={manual}, metadata={op_name="jit(_full_run)/jit(main)/jit(shmap_body)/sqrt" source_file="/global/homes/j/jackm/software/lorrax_C/src/common/fft_helpers.py" source_line=412}
  %compare.27 = pred[] compare(%maximum.10, %minimum.2), direction=EQ, sharding={manual}, metadata={op_name="jit(_full_run)/jit(main)/jit(shmap_body)/sqrt" source_file="/global/homes/j/jackm/software/lorrax_C/src/common/fft_helpers.py" source_line=412}
  %constant.935 = f64[] constant(1.4142135623730951), sharding={manual}
  %multiply.140 = f64[] multiply(%maximum.10, %constant.935), sharding={manual}, metadata={op_name="jit(_full_run)/jit(main)/jit(shmap_body)/sqrt" source_file="/global/homes/j/jackm/software/lorrax_C/src/common/fft_helpers.py" source_line=412}
  %divide.14 = f64[] divide(%minimum.2, %maximum.10), sharding={manual}, metadata={op_name="jit(_full_run)/jit(main)/jit(shmap_body)/sqrt" source_file="/global/homes/j/jackm/software/lorrax_C/src/common/fft_helpers.py" source_line=412}
  %multiply.141 = f64[] multiply(%divide.14, %divide.14), sharding={manual}, metadata={op_name="jit(_full_run)/jit(main)/jit(shmap_body)/sqrt" source_file="/global/homes/j/jackm/software/lorrax_C/src/common/fft_helpers.py" source_line=412}
  %constant.942 = f64[] constant(1), sharding={manual}
  %add.559 = f64[] add(%multiply.141, %constant.942), sharding={manual}, metadata={op_name="jit(_full_run)/jit(main)/jit(shmap_body)/sqrt" source_file="/global/homes/j/jackm/software/lorrax_C/src/common/fft_helpers.py" source_line=412}
  %sqrt.10 = f64[] sqrt(%add.559), sharding={manual}, metadata={op_name="jit(_full_run)/jit(main)/jit(shmap_body)/sqrt" source_file="/global/homes/j/jackm/software/lorrax_C/src/common/fft_helpers.py" source_line=412}
  %constant.943 = f64[] constant(1), sharding={manual}
  %compare.28 = pred[] compare(%sqrt.10, %constant.943), direction=EQ, sharding={manual}, metadata={op_name="jit(_full_run)/jit(main)/jit(shmap_body)/sqrt" source_file="/global/homes/j/jackm/software/lorrax_C/src/common/fft_helpers.py" source_line=412}
  %constant.930 = f64[] constant(0), sharding={manual}
  %compare.29 = pred[] compare(%multiply.141, %constant.930), direction=GT, sharding={manual}, metadata={op_name="jit(_full_run)/jit(main)/jit(shmap_body)/sqrt" source_file="/global/homes/j/jackm/software/lorrax_C/src/common/fft_helpers.py" source_line=412}
  %and.1 = pred[] and(%compare.28, %compare.29), sharding={manual}, metadata={op_name="jit(_full_run)/jit(main)/jit(shmap_body)/sqrt" source_file="/global/homes/j/jackm/software/lorrax_C/src/common/fft_helpers.py" source_line=412}
  %multiply.142 = f64[] multiply(%maximum.10, %multiply.141), sharding={manual}, metadata={op_name="jit(_full_run)/jit(main)/jit(shmap_body)/sqrt" source_file="/global/homes/j/jackm/software/lorrax_C/src/common/fft_helpers.py" source_line=412}
  %constant.558 = f64[] constant(0.5), sharding={manual}
  %multiply.159 = f64[] multiply(%multiply.142, %constant.558), sharding={manual}, metadata={op_name="jit(_full_run)/jit(main)/jit(shmap_body)/sqrt" source_file="/global/homes/j/jackm/software/lorrax_C/src/common/fft_helpers.py" source_line=412}
  %add.560 = f64[] add(%maximum.10, %multiply.159), sharding={manual}, metadata={op_name="jit(_full_run)/jit(main)/jit(shmap_body)/sqrt" source_file="/global/homes/j/jackm/software/lorrax_C/src/common/fft_helpers.py" source_line=412}
  %multiply.143 = f64[] multiply(%maximum.10, %sqrt.10), sharding={manual}, metadata={op_name="jit(_full_run)/jit(main)/jit(shmap_body)/sqrt" source_file="/global/homes/j/jackm/software/lorrax_C/src/common/fft_helpers.py" source_line=412}
  %select.213 = f64[] select(%and.1, %add.560, %multiply.143), sharding={manual}, metadata={op_name="jit(_full_run)/jit(main)/jit(shmap_body)/sqrt" source_file="/global/homes/j/jackm/software/lorrax_C/src/common/fft_helpers.py" source_line=412}
  %select.214 = f64[] select(%compare.27, %multiply.140, %select.213), sharding={manual}, metadata={op_name="jit(_full_run)/jit(main)/jit(shmap_body)/sqrt" source_file="/global/homes/j/jackm/software/lorrax_C/src/common/fft_helpers.py" source_line=412}
  %constant.944 = f64[] constant(1), sharding={manual}
  %add.561 = f64[] add(%select.214, %constant.944), sharding={manual}, metadata={op_name="jit(_full_run)/jit(main)/jit(shmap_body)/sqrt" source_file="/global/homes/j/jackm/software/lorrax_C/src/common/fft_helpers.py" source_line=412}
  %sqrt.11 = f64[] sqrt(%add.561), sharding={manual}, metadata={op_name="jit(_full_run)/jit(main)/jit(shmap_body)/sqrt" source_file="/global/homes/j/jackm/software/lorrax_C/src/common/fft_helpers.py" source_line=412}
  %constant.559 = f64[] constant(0.70710678118654746), sharding={manual}
  %multiply.160 = f64[] multiply(%sqrt.11, %constant.559), sharding={manual}, metadata={op_name="jit(_full_run)/jit(main)/jit(shmap_body)/sqrt" source_file="/global/homes/j/jackm/software/lorrax_C/src/common/fft_helpers.py" source_line=412}
  %multiply.144 = f64[] multiply(%sqrt.7, %multiply.160), sharding={manual}, metadata={op_name="jit(_full_run)/jit(main)/jit(shmap_body)/sqrt" source_file="/global/homes/j/jackm/software/lorrax_C/src/common/fft_helpers.py" source_line=412}
  %sqrt.12 = f64[] sqrt(%abs.5), sharding={manual}, metadata={op_name="jit(_full_run)/jit(main)/jit(shmap_body)/sqrt" source_file="/global/homes/j/jackm/software/lorrax_C/src/common/fft_helpers.py" source_line=412}
  %add.562 = f64[] add(%select.212, %select.214), sharding={manual}, metadata={op_name="jit(_full_run)/jit(main)/jit(shmap_body)/sqrt" source_file="/global/homes/j/jackm/software/lorrax_C/src/common/fft_helpers.py" source_line=412}
  %sqrt.13 = f64[] sqrt(%add.562), sharding={manual}, metadata={op_name="jit(_full_run)/jit(main)/jit(shmap_body)/sqrt" source_file="/global/homes/j/jackm/software/lorrax_C/src/common/fft_helpers.py" source_line=412}
  %constant.560 = f64[] constant(0.70710678118654746), sharding={manual}
  %multiply.161 = f64[] multiply(%sqrt.13, %constant.560), sharding={manual}, metadata={op_name="jit(_full_run)/jit(main)/jit(shmap_body)/sqrt" source_file="/global/homes/j/jackm/software/lorrax_C/src/common/fft_helpers.py" source_line=412}
  %multiply.145 = f64[] multiply(%sqrt.12, %multiply.161), sharding={manual}, metadata={op_name="jit(_full_run)/jit(main)/jit(shmap_body)/sqrt" source_file="/global/homes/j/jackm/software/lorrax_C/src/common/fft_helpers.py" source_line=412}
  %select.215 = f64[] select(%compare.25, %multiply.144, %multiply.145), sharding={manual}, metadata={op_name="jit(_full_run)/jit(main)/jit(shmap_body)/sqrt" source_file="/global/homes/j/jackm/software/lorrax_C/src/common/fft_helpers.py" source_line=412}
  %select.216 = f64[] select(%or.217, %select.215, %sqrt.9), sharding={manual}, metadata={op_name="jit(_full_run)/jit(main)/jit(shmap_body)/sqrt" source_file="/global/homes/j/jackm/software/lorrax_C/src/common/fft_helpers.py" source_line=412}
  %select.217 = f64[] select(%compare.19, %multiply.155, %select.216), sharding={manual}, metadata={op_name="jit(_full_run)/jit(main)/jit(shmap_body)/sqrt" source_file="/global/homes/j/jackm/software/lorrax_C/src/common/fft_helpers.py" source_line=412}
  %constant.561 = f64[] constant(0.45508986056222733), sharding={manual}
  %multiply.162 = f64[] multiply(%sqrt.12, %constant.561), sharding={manual}, metadata={op_name="jit(_full_run)/jit(main)/jit(shmap_body)/sqrt" source_file="/global/homes/j/jackm/software/lorrax_C/src/common/fft_helpers.py" source_line=412}
  %constant.945 = f64[] constant(1), sharding={manual}
  %divide.19 = f64[] divide(%sqrt.7, %sqrt.12), sharding={manual}, metadata={op_name="jit(_full_run)/jit(main)/jit(shmap_body)/sqrt" source_file="/global/homes/j/jackm/software/lorrax_C/src/common/fft_helpers.py" source_line=412}
  %divide.20 = f64[] divide(%sqrt.12, %sqrt.7), sharding={manual}, metadata={op_name="jit(_full_run)/jit(main)/jit(shmap_body)/sqrt" source_file="/global/homes/j/jackm/software/lorrax_C/src/common/fft_helpers.py" source_line=412}
  %select.218 = f64[] select(%compare.26, %divide.19, %divide.20), sharding={manual}, metadata={op_name="jit(_full_run)/jit(main)/jit(shmap_body)/sqrt" source_file="/global/homes/j/jackm/software/lorrax_C/src/common/fft_helpers.py" source_line=412}
  %select.219 = f64[] select(%compare.19, %constant.945, %select.218), sharding={manual}, metadata={op_name="jit(_full_run)/jit(main)/jit(shmap_body)/sqrt" source_file="/global/homes/j/jackm/software/lorrax_C/src/common/fft_helpers.py" source_line=412}
  %multiply.146 = f64[] multiply(%sqrt.12, %select.219), sharding={manual}, metadata={op_name="jit(_full_run)/jit(main)/jit(shmap_body)/sqrt" source_file="/global/homes/j/jackm/software/lorrax_C/src/common/fft_helpers.py" source_line=412}
  %constant.936 = f64[] constant(1.4142135623730951), sharding={manual}
  %multiply.148 = f64[] multiply(%sqrt.11, %constant.936), sharding={manual}, metadata={op_name="jit(_full_run)/jit(main)/jit(shmap_body)/sqrt" source_file="/global/homes/j/jackm/software/lorrax_C/src/common/fft_helpers.py" source_line=412}
  %divide.21 = f64[] divide(%multiply.146, %multiply.148), sharding={manual}, metadata={op_name="jit(_full_run)/jit(main)/jit(shmap_body)/sqrt" source_file="/global/homes/j/jackm/software/lorrax_C/src/common/fft_helpers.py" source_line=412}
  %constant.933 = f64[] constant(1.4142135623730951), sharding={manual}
  %multiply.149 = f64[] multiply(%sqrt.13, %constant.933), sharding={manual}, metadata={op_name="jit(_full_run)/jit(main)/jit(shmap_body)/sqrt" source_file="/global/homes/j/jackm/software/lorrax_C/src/common/fft_helpers.py" source_line=412}
  %divide.22 = f64[] divide(%sqrt.12, %multiply.149), sharding={manual}, metadata={op_name="jit(_full_run)/jit(main)/jit(shmap_body)/sqrt" source_file="/global/homes/j/jackm/software/lorrax_C/src/common/fft_helpers.py" source_line=412}
  %select.220 = f64[] select(%compare.25, %divide.21, %divide.22), sharding={manual}, metadata={op_name="jit(_full_run)/jit(main)/jit(shmap_body)/sqrt" source_file="/global/homes/j/jackm/software/lorrax_C/src/common/fft_helpers.py" source_line=412}
  %constant.536 = f64[] constant(2), sharding={manual}
  %multiply.150 = f64[] multiply(%sqrt.9, %constant.536), sharding={manual}, metadata={op_name="jit(_full_run)/jit(main)/jit(shmap_body)/sqrt" source_file="/global/homes/j/jackm/software/lorrax_C/src/common/fft_helpers.py" source_line=412}
  %divide.23 = f64[] divide(%abs.5, %multiply.150), sharding={manual}, metadata={op_name="jit(_full_run)/jit(main)/jit(shmap_body)/sqrt" source_file="/global/homes/j/jackm/software/lorrax_C/src/common/fft_helpers.py" source_line=412}
  %select.221 = f64[] select(%or.217, %select.220, %divide.23), sharding={manual}, metadata={op_name="jit(_full_run)/jit(main)/jit(shmap_body)/sqrt" source_file="/global/homes/j/jackm/software/lorrax_C/src/common/fft_helpers.py" source_line=412}
  %select.222 = f64[] select(%compare.19, %multiply.162, %select.221), sharding={manual}, metadata={op_name="jit(_full_run)/jit(main)/jit(shmap_body)/sqrt" source_file="/global/homes/j/jackm/software/lorrax_C/src/common/fft_helpers.py" source_line=412}
  %select.223 = f64[] select(%compare.18, %select.217, %select.222), sharding={manual}, metadata={op_name="jit(_full_run)/jit(main)/jit(shmap_body)/sqrt" source_file="/global/homes/j/jackm/software/lorrax_C/src/common/fft_helpers.py" source_line=412}
  %constant.931 = f64[] constant(0), sharding={manual}
  %compare.30 = pred[] compare(%real.18, %constant.931), direction=LT, sharding={manual}, metadata={op_name="jit(_full_run)/jit(main)/jit(shmap_body)/sqrt" source_file="/global/homes/j/jackm/software/lorrax_C/src/common/fft_helpers.py" source_line=412}
  %constant.932 = f64[] constant(0), sharding={manual}
  %compare.31 = pred[] compare(%imag.14, %constant.932), direction=LT, sharding={manual}, metadata={op_name="jit(_full_run)/jit(main)/jit(shmap_body)/sqrt" source_file="/global/homes/j/jackm/software/lorrax_C/src/common/fft_helpers.py" source_line=412}
  %negate.22 = f64[] negate(%select.217), sharding={manual}, metadata={op_name="jit(_full_run)/jit(main)/jit(shmap_body)/sqrt" source_file="/global/homes/j/jackm/software/lorrax_C/src/common/fft_helpers.py" source_line=412}
  %select.224 = f64[] select(%compare.31, %negate.22, %select.217), sharding={manual}, metadata={op_name="jit(_full_run)/jit(main)/jit(shmap_body)/sqrt" source_file="/global/homes/j/jackm/software/lorrax_C/src/common/fft_helpers.py" source_line=412}
  %negate.23 = f64[] negate(%select.222), sharding={manual}, metadata={op_name="jit(_full_run)/jit(main)/jit(shmap_body)/sqrt" source_file="/global/homes/j/jackm/software/lorrax_C/src/common/fft_helpers.py" source_line=412}
  %select.225 = f64[] select(%compare.31, %negate.23, %select.222), sharding={manual}, metadata={op_name="jit(_full_run)/jit(main)/jit(shmap_body)/sqrt" source_file="/global/homes/j/jackm/software/lorrax_C/src/common/fft_helpers.py" source_line=412}
  %select.226 = f64[] select(%compare.30, %select.224, %select.225), sharding={manual}, metadata={op_name="jit(_full_run)/jit(main)/jit(shmap_body)/sqrt" source_file="/global/homes/j/jackm/software/lorrax_C/src/common/fft_helpers.py" source_line=412}
  %complex.14 = c128[] complex(%select.223, %select.226), sharding={manual}, metadata={op_name="jit(_full_run)/jit(main)/jit(shmap_body)/sqrt" source_file="/global/homes/j/jackm/software/lorrax_C/src/common/fft_helpers.py" source_line=412}
  %broadcast.766 = c128[240,240,4,4,4]{4,3,2,1,0} broadcast(%complex.14), dimensions={}, sharding={manual}, metadata={op_name="jit(_full_run)/jit(main)/jit(shmap_body)/mul" source_file="/global/homes/j/jackm/software/lorrax_C/src/common/fft_helpers.py" source_line=412}
  %multiply.151 = c128[240,240,4,4,4]{4,3,2,1,0} multiply(%fft.1, %broadcast.766), sharding={manual}, metadata={op_name="jit(_full_run)/jit(main)/jit(shmap_body)/mul" source_file="/global/homes/j/jackm/software/lorrax_C/src/common/fft_helpers.py" source_line=412}
  %copy = c128[240,240,4,4,4]{4,3,2,1,0} copy(%multiply.151), sharding={manual}, metadata={op_name="jit(_full_run)/jit(main)/shard_map" source_file="/global/homes/j/jackm/software/lorrax_C/src/bse/bse_lanczos.py" source_line=196}
  %custom-call.150 = c128[480,480,4,4,4]{4,3,2,1,0} custom-call(%copy), custom_call_target="SPMDShardToFullShape", sharding={devices=[2,2,1,1,1]<=[4]}, metadata={op_name="jit(_full_run)/jit(main)/shard_map" source_file="/global/homes/j/jackm/software/lorrax_C/src/bse/bse_lanczos.py" source_line=196}
  %Arg_7.8 = c128[480,480]{1,0} parameter(7), sharding={devices=[2,2]<=[4]}, metadata={op_name="V_q0"}
  %tuple.59 = (s64[], c128[1024,200]{1,0}, f64[200]{0}, f64[200]{0}, c128[1024]{0}, /*index=5*/c128[64,4,2,480]{3,2,1,0}, c128[64,4,2,480]{3,2,1,0}, c128[64,4,2,480]{3,2,1,0}, c128[64,4,2,480]{3,2,1,0}, f64[64,4]{1,0}, /*index=10*/f64[64,4]{1,0}, c128[480,480,4,4,4]{4,3,2,1,0}, c128[480,480]{1,0}) tuple(%constant.24, %pad.16, %broadcast.16, %broadcast.16, %divide.1288, /*index=5*/%Arg_0.1, %Arg_1.2, %Arg_2.3, %Arg_3.4, %Arg_4.5, /*index=10*/%Arg_5.6, %custom-call.150, %Arg_7.8), sharding={{replicated}, {devices=[2,1,2]<=[4] last_tile_dim_replicate}, {replicated}, {replicated}, {devices=[2,2]<=[4] last_tile_dim_replicate}, /*index=5*/{devices=[1,1,1,2,2]<=[4] last_tile_dim_replicate}, {devices=[1,1,1,2,2]<=[2,2]T(1,0) last_tile_dim_replicate}, {devices=[1,1,1,2,2]<=[4] last_tile_dim_replicate}, {devices=[1,1,1,2,2]<=[2,2]T(1,0) last_tile_dim_replicate}, {replicated}, /*index=10*/{replicated}, {devices=[2,2,1,1,1]<=[4]}, {devices=[2,2]<=[4]}}
  %while.9 = (s64[], c128[1024,200]{1,0}, f64[200]{0}, f64[200]{0}, c128[1024]{0}, /*index=5*/c128[64,4,2,480]{3,2,1,0}, c128[64,4,2,480]{3,2,1,0}, c128[64,4,2,480]{3,2,1,0}, c128[64,4,2,480]{3,2,1,0}, f64[64,4]{1,0}, /*index=10*/f64[64,4]{1,0}, c128[480,480,4,4,4]{4,3,2,1,0}, c128[480,480]{1,0}) while(%tuple.59), condition=%region_10.1577.clone.clone, body=%region_3.1552.clone.clone.clone, sharding={{replicated}, {devices=[2,1,2]<=[4] last_tile_dim_replicate}, {replicated}, {replicated}, {devices=[2,2]<=[4] last_tile_dim_replicate}, /*index=5*/{devices=[1,1,1,2,2]<=[4] last_tile_dim_replicate}, {devices=[1,1,1,2,2]<=[2,2]T(1,0) last_tile_dim_replicate}, {devices=[1,1,1,2,2]<=[4] last_tile_dim_replicate}, {devices=[1,1,1,2,2]<=[2,2]T(1,0) last_tile_dim_replicate}, {replicated}, /*index=10*/{replicated}, {devices=[2,2,1,1,1]<=[4]}, {devices=[2,2]<=[4]}}, metadata={op_name="jit(_full_run)/jit(main)/while" source_file="/global/homes/j/jackm/software/lorrax_C/src/solvers/lanczos.py" source_line=286}
  %get-tuple-element.1599 = f64[200]{0} get-tuple-element(%while.9), index=2, sharding={replicated}, metadata={op_name="jit(_full_run)/jit(main)/while" source_file="/global/homes/j/jackm/software/lorrax_C/src/solvers/lanczos.py" source_line=286}
  %broadcast.769 = f64[200,200]{1,0} broadcast(%get-tuple-element.1599), dimensions={1}, metadata={op_name="jit(_full_run)/jit(main)/jit(_diag)/jit(_where)/broadcast_in_dim" source_file="/global/homes/j/jackm/software/lorrax_C/src/solvers/lanczos.py" source_line=288}
  %constant.539 = f64[] constant(0)
  %broadcast.771 = f64[200,200]{1,0} broadcast(%constant.539), dimensions={}, metadata={op_name="jit(_full_run)/jit(main)/jit(_diag)/jit(_where)/broadcast_in_dim" source_file="/global/homes/j/jackm/software/lorrax_C/src/solvers/lanczos.py" source_line=288}
  %select.227 = f64[200,200]{1,0} select(%compare.32, %broadcast.769, %broadcast.771), metadata={op_name="jit(_full_run)/jit(main)/jit(_diag)/jit(_where)/select_n" source_file="/global/homes/j/jackm/software/lorrax_C/src/solvers/lanczos.py" source_line=288}
  %iota.9 = s64[200]{0} iota(), iota_dimension=0, metadata={op_name="jit(_full_run)/jit(main)/jit(_diag)/iota" source_file="/global/homes/j/jackm/software/lorrax_C/src/solvers/lanczos.py" source_line=290}
  %constant.540 = s64[] constant(1)
  %broadcast.800 = s64[200]{0} broadcast(%constant.540), dimensions={}
  %add.574 = s64[200]{0} add(%iota.9, %broadcast.800), metadata={op_name="jit(_full_run)/jit(main)/jit(_diag)/add" source_file="/global/homes/j/jackm/software/lorrax_C/src/solvers/lanczos.py" source_line=290}
  %broadcast.801 = s64[200,200]{1,0} broadcast(%add.574), dimensions={0}, metadata={op_name="jit(_full_run)/jit(main)/jit(_diag)/iota" source_file="/global/homes/j/jackm/software/lorrax_C/src/solvers/lanczos.py" source_line=290}
  %iota.16 = s64[200,200]{1,0} iota(), iota_dimension=1, metadata={op_name="jit(_full_run)/jit(main)/jit(_diag)/iota" source_file="/global/homes/j/jackm/software/lorrax_C/src/solvers/lanczos.py" source_line=290}
  %compare.33 = pred[200,200]{1,0} compare(%broadcast.801, %iota.16), direction=EQ, metadata={op_name="jit(_full_run)/jit(main)/jit(_diag)/eq" source_file="/global/homes/j/jackm/software/lorrax_C/src/solvers/lanczos.py" source_line=290}
  %get-tuple-element.1600 = f64[200]{0} get-tuple-element(%while.9), index=3, sharding={replicated}, metadata={op_name="jit(_full_run)/jit(main)/while" source_file="/global/homes/j/jackm/software/lorrax_C/src/solvers/lanczos.py" source_line=286}
  %slice.1620 = f64[199]{0} slice(%get-tuple-element.1600), slice={[0:199]}, sharding={replicated}, metadata={op_name="jit(_full_run)/jit(main)/slice" source_file="/global/homes/j/jackm/software/lorrax_C/src/solvers/lanczos.py" source_line=289}
  %constant.541 = f64[] constant(0)
  %pad.0 = f64[200]{0} pad(%slice.1620, %constant.541), padding=1_0, sharding={replicated}, metadata={op_name="jit(_full_run)/jit(main)/jit(_diag)/pad" source_file="/global/homes/j/jackm/software/lorrax_C/src/solvers/lanczos.py" source_line=290}
  %broadcast.775 = f64[200,200]{1,0} broadcast(%pad.0), dimensions={1}, metadata={op_name="jit(_full_run)/jit(main)/jit(_diag)/jit(_where)/broadcast_in_dim" source_file="/global/homes/j/jackm/software/lorrax_C/src/solvers/lanczos.py" source_line=288}
  %constant.542 = f64[] constant(0)
  %broadcast.777 = f64[200,200]{1,0} broadcast(%constant.542), dimensions={}, metadata={op_name="jit(_full_run)/jit(main)/jit(_diag)/jit(_where)/broadcast_in_dim" source_file="/global/homes/j/jackm/software/lorrax_C/src/solvers/lanczos.py" source_line=288}
  %select.228 = f64[200,200]{1,0} select(%compare.33, %broadcast.775, %broadcast.777), metadata={op_name="jit(_full_run)/jit(main)/jit(_diag)/jit(_where)/select_n" source_file="/global/homes/j/jackm/software/lorrax_C/src/solvers/lanczos.py" source_line=288}
  %add.1644 = f64[200,200]{1,0} add(%select.227, %select.228), metadata={op_name="jit(_full_run)/jit(main)/add" source_file="/global/homes/j/jackm/software/lorrax_C/src/solvers/lanczos.py" source_line=290}
  %iota.11 = s64[200]{0} iota(), iota_dimension=0, metadata={op_name="jit(_full_run)/jit(main)/jit(_diag)/iota" source_file="/global/homes/j/jackm/software/lorrax_C/src/solvers/lanczos.py" source_line=290}
  %constant.543 = s64[] constant(-1)
  %broadcast.803 = s64[200]{0} broadcast(%constant.543), dimensions={}
  %add.575 = s64[200]{0} add(%iota.11, %broadcast.803), metadata={op_name="jit(_full_run)/jit(main)/jit(_diag)/add" source_file="/global/homes/j/jackm/software/lorrax_C/src/solvers/lanczos.py" source_line=290}
  %broadcast.804 = s64[200,200]{1,0} broadcast(%add.575), dimensions={0}, metadata={op_name="jit(_full_run)/jit(main)/jit(_diag)/iota" source_file="/global/homes/j/jackm/software/lorrax_C/src/solvers/lanczos.py" source_line=290}
  %iota.17 = s64[200,200]{1,0} iota(), iota_dimension=1, metadata={op_name="jit(_full_run)/jit(main)/jit(_diag)/iota" source_file="/global/homes/j/jackm/software/lorrax_C/src/solvers/lanczos.py" source_line=290}
  %compare.34 = pred[200,200]{1,0} compare(%broadcast.804, %iota.17), direction=EQ, metadata={op_name="jit(_full_run)/jit(main)/jit(_diag)/eq" source_file="/global/homes/j/jackm/software/lorrax_C/src/solvers/lanczos.py" source_line=290}
  %constant.544 = f64[] constant(0)
  %pad.1 = f64[200]{0} pad(%slice.1620, %constant.544), padding=0_1, sharding={replicated}, metadata={op_name="jit(_full_run)/jit(main)/jit(_diag)/pad" source_file="/global/homes/j/jackm/software/lorrax_C/src/solvers/lanczos.py" source_line=290}
  %broadcast.781 = f64[200,200]{1,0} broadcast(%pad.1), dimensions={1}, metadata={op_name="jit(_full_run)/jit(main)/jit(_diag)/jit(_where)/broadcast_in_dim" source_file="/global/homes/j/jackm/software/lorrax_C/src/solvers/lanczos.py" source_line=288}
  %constant.545 = f64[] constant(0)
  %broadcast.783 = f64[200,200]{1,0} broadcast(%constant.545), dimensions={}, metadata={op_name="jit(_full_run)/jit(main)/jit(_diag)/jit(_where)/broadcast_in_dim" source_file="/global/homes/j/jackm/software/lorrax_C/src/solvers/lanczos.py" source_line=288}
  %select.229 = f64[200,200]{1,0} select(%compare.34, %broadcast.781, %broadcast.783), metadata={op_name="jit(_full_run)/jit(main)/jit(_diag)/jit(_where)/select_n" source_file="/global/homes/j/jackm/software/lorrax_C/src/solvers/lanczos.py" source_line=288}
  %add.1668 = f64[200,200]{1,0} add(%add.1644, %select.229), metadata={op_name="jit(_full_run)/jit(main)/add" source_file="/global/homes/j/jackm/software/lorrax_C/src/solvers/lanczos.py" source_line=290}
  %transpose.22 = f64[200,200]{0,1} transpose(%add.1668), dimensions={1,0}, metadata={op_name="jit(_full_run)/jit(main)/jit(eigh)/transpose" source_file="/global/homes/j/jackm/software/lorrax_C/src/solvers/lanczos.py" source_line=292}
  %add.565 = f64[200,200]{1,0} add(%add.1668, %transpose.22), metadata={op_name="jit(_full_run)/jit(main)/jit(eigh)/add" source_file="/global/homes/j/jackm/software/lorrax_C/src/solvers/lanczos.py" source_line=292}
  %constant.563 = f64[] constant(0.5)
  %broadcast.806 = f64[200,200]{1,0} broadcast(%constant.563), dimensions={}
  %multiply.163 = f64[200,200]{1,0} multiply(%add.565, %broadcast.806), metadata={op_name="jit(_full_run)/jit(main)/jit(eigh)/div" source_file="/global/homes/j/jackm/software/lorrax_C/src/solvers/lanczos.py" source_line=292}
  %custom-call.45 = (f64[200,200]{0,1}, f64[200]{0}, s32[]) custom-call(%multiply.163), custom_call_target="cusolver_syevd_ffi", operand_layout_constraints={f64[200,200]{0,1}}, output_to_operand_aliasing={{0}: (0, {})}, api_version=API_VERSION_TYPED_FFI, sharding={{replicated}, {replicated}, {replicated}}, frontend_attributes={num_batch_dims="0"}, metadata={op_name="jit(_full_run)/jit(main)/jit(eigh)/eigh" source_file="/global/homes/j/jackm/software/lorrax_C/src/solvers/lanczos.py" source_line=292}, backend_config={algorithm = 0 : ui8, lower = true}
  %get-tuple-element.16 = s32[] get-tuple-element(%custom-call.45), index=2, sharding={replicated}, frontend_attributes={num_batch_dims="0"}, metadata={op_name="jit(_full_run)/jit(main)/jit(eigh)/eigh" source_file="/global/homes/j/jackm/software/lorrax_C/src/solvers/lanczos.py" source_line=292}
  %constant.547 = s32[] constant(0), sharding={replicated}
  %compare.35 = pred[] compare(%get-tuple-element.16, %constant.547), direction=EQ, sharding={replicated}, metadata={op_name="jit(_full_run)/jit(main)/jit(eigh)/eigh" source_file="/global/homes/j/jackm/software/lorrax_C/src/solvers/lanczos.py" source_line=292}
  %broadcast.786 = pred[200]{0} broadcast(%compare.35), dimensions={}, sharding={replicated}, metadata={op_name="jit(_full_run)/jit(main)/jit(eigh)/eigh" source_file="/global/homes/j/jackm/software/lorrax_C/src/solvers/lanczos.py" source_line=292}
  %get-tuple-element.17 = f64[200]{0} get-tuple-element(%custom-call.45), index=1, sharding={replicated}, frontend_attributes={num_batch_dims="0"}, metadata={op_name="jit(_full_run)/jit(main)/jit(eigh)/eigh" source_file="/global/homes/j/jackm/software/lorrax_C/src/solvers/lanczos.py" source_line=292}
  %constant.548 = f64[] constant(nan), sharding={replicated}
  %broadcast.787 = f64[200]{0} broadcast(%constant.548), dimensions={}, sharding={replicated}
  %select.230 = f64[200]{0} select(%broadcast.786, %get-tuple-element.17, %broadcast.787), sharding={replicated}, metadata={op_name="jit(_full_run)/jit(main)/jit(eigh)/eigh" source_file="/global/homes/j/jackm/software/lorrax_C/src/solvers/lanczos.py" source_line=292}
  %iota.13 = s64[200]{0} iota(), iota_dimension=0, sharding={replicated}, metadata={op_name="jit(_full_run)/jit(main)/jit(argsort)/iota" source_file="/global/homes/j/jackm/software/lorrax_C/src/solvers/lanczos.py" source_line=293}
  %sort.0 = (f64[200]{0}, s64[200]{0}) sort(%select.230, %iota.13), dimensions={0}, is_stable=true, to_apply=%region_11.1700, sharding={{replicated}, {replicated}}, metadata={op_name="jit(_full_run)/jit(main)/jit(argsort)/sort" source_file="/global/homes/j/jackm/software/lorrax_C/src/solvers/lanczos.py" source_line=293}
  %get-tuple-element.20 = s64[200]{0} get-tuple-element(%sort.0), index=1, sharding={replicated}, metadata={op_name="jit(_full_run)/jit(main)/jit(argsort)/sort" source_file="/global/homes/j/jackm/software/lorrax_C/src/solvers/lanczos.py" source_line=293}
  %slice.1723 = s64[5]{0} slice(%get-tuple-element.20), slice={[0:5]}, sharding={replicated}, metadata={op_name="jit(_full_run)/jit(main)/slice" source_file="/global/homes/j/jackm/software/lorrax_C/src/solvers/lanczos.py" source_line=293}
  %constant.13 = s64[] constant(0), sharding={replicated}
  %broadcast.14 = s64[5]{0} broadcast(%constant.13), dimensions={}, sharding={replicated}
  %compare.1724 = pred[5]{0} compare(%slice.1723, %broadcast.14), direction=LT, sharding={replicated}, metadata={op_name="jit(_full_run)/jit(main)/lt" source_file="/global/homes/j/jackm/software/lorrax_C/src/solvers/lanczos.py" source_line=294}
  %constant.11 = s64[] constant(200), sharding={replicated}
  %broadcast.12 = s64[5]{0} broadcast(%constant.11), dimensions={}, sharding={replicated}
  %add.1725 = s64[5]{0} add(%slice.1723, %broadcast.12), sharding={replicated}, metadata={op_name="jit(_full_run)/jit(main)/add" source_file="/global/homes/j/jackm/software/lorrax_C/src/solvers/lanczos.py" source_line=294}
  %select.1726 = s64[5]{0} select(%compare.1724, %add.1725, %slice.1723), sharding={replicated}, metadata={op_name="jit(_full_run)/jit(main)/select_n" source_file="/global/homes/j/jackm/software/lorrax_C/src/solvers/lanczos.py" source_line=294}
  %convert.1727 = s32[5]{0} convert(%select.1726), sharding={replicated}, metadata={op_name="jit(_full_run)/jit(main)/convert_element_type" source_file="/global/homes/j/jackm/software/lorrax_C/src/solvers/lanczos.py" source_line=294}
  %reshape.1728 = s32[5,1]{1,0} reshape(%convert.1727), sharding={replicated}, metadata={op_name="jit(_full_run)/jit(main)/broadcast_in_dim" source_file="/global/homes/j/jackm/software/lorrax_C/src/solvers/lanczos.py" source_line=294}
  %gather.1729 = f64[5]{0} gather(%select.230, %reshape.1728), offset_dims={}, collapsed_slice_dims={0}, start_index_map={0}, index_vector_dim=1, slice_sizes={1}, sharding={replicated}, metadata={op_name="jit(_full_run)/jit(main)/gather" source_file="/global/homes/j/jackm/software/lorrax_C/src/solvers/lanczos.py" source_line=294}
  %broadcast.789 = pred[200,200]{1,0} broadcast(%compare.35), dimensions={}, sharding={replicated}, metadata={op_name="jit(_full_run)/jit(main)/jit(eigh)/eigh" source_file="/global/homes/j/jackm/software/lorrax_C/src/solvers/lanczos.py" source_line=292}
  %get-tuple-element.18 = f64[200,200]{0,1} get-tuple-element(%custom-call.45), index=0, sharding={replicated}, frontend_attributes={num_batch_dims="0"}, metadata={op_name="jit(_full_run)/jit(main)/jit(eigh)/eigh" source_file="/global/homes/j/jackm/software/lorrax_C/src/solvers/lanczos.py" source_line=292}
  %constant.549 = f64[] constant(nan), sharding={replicated}
  %broadcast.790 = f64[200,200]{1,0} broadcast(%constant.549), dimensions={}, sharding={replicated}
  %select.231 = f64[200,200]{1,0} select(%broadcast.789, %get-tuple-element.18, %broadcast.790), sharding={replicated}, metadata={op_name="jit(_full_run)/jit(main)/jit(eigh)/eigh" source_file="/global/homes/j/jackm/software/lorrax_C/src/solvers/lanczos.py" source_line=292}
  %compare.1730 = pred[5]{0} compare(%slice.1723, %broadcast.14), direction=LT, sharding={replicated}, metadata={op_name="jit(_full_run)/jit(main)/lt" source_file="/global/homes/j/jackm/software/lorrax_C/src/solvers/lanczos.py" source_line=296}
  %add.1731 = s64[5]{0} add(%slice.1723, %broadcast.12), sharding={replicated}, metadata={op_name="jit(_full_run)/jit(main)/add" source_file="/global/homes/j/jackm/software/lorrax_C/src/solvers/lanczos.py" source_line=296}
  %select.1732 = s64[5]{0} select(%compare.1730, %add.1731, %slice.1723), sharding={replicated}, metadata={op_name="jit(_full_run)/jit(main)/select_n" source_file="/global/homes/j/jackm/software/lorrax_C/src/solvers/lanczos.py" source_line=296}
  %convert.1733 = s32[5]{0} convert(%select.1732), sharding={replicated}, metadata={op_name="jit(_full_run)/jit(main)/convert_element_type" source_file="/global/homes/j/jackm/software/lorrax_C/src/solvers/lanczos.py" source_line=296}
  %reshape.1734 = s32[5,1]{1,0} reshape(%convert.1733), sharding={replicated}, metadata={op_name="jit(_full_run)/jit(main)/broadcast_in_dim" source_file="/global/homes/j/jackm/software/lorrax_C/src/solvers/lanczos.py" source_line=296}
  %gather.1735 = f64[200,5]{1,0} gather(%select.231, %reshape.1734), offset_dims={0}, collapsed_slice_dims={1}, start_index_map={1}, index_vector_dim=1, slice_sizes={200,1}, sharding={replicated}, metadata={op_name="jit(_full_run)/jit(main)/gather" source_file="/global/homes/j/jackm/software/lorrax_C/src/solvers/lanczos.py" source_line=296}
  %convert.1736 = c128[200,5]{1,0} convert(%gather.1735), sharding={replicated}, metadata={op_name="jit(_full_run)/jit(main)/dot_general" source_file="/global/homes/j/jackm/software/lorrax_C/src/solvers/lanczos.py" source_line=296}
  %get-tuple-element.1598 = c128[1024,200]{1,0} get-tuple-element(%while.9), index=1, sharding={devices=[2,1,2]<=[4] last_tile_dim_replicate}, metadata={op_name="jit(_full_run)/jit(main)/while" source_file="/global/homes/j/jackm/software/lorrax_C/src/solvers/lanczos.py" source_line=286}
  %dot.26 = c128[5,1024]{0,1} dot(%convert.1736, %get-tuple-element.1598), lhs_contracting_dims={0}, rhs_contracting_dims={1}, sharding={devices=[1,2,2]<=[4] last_tile_dim_replicate}, metadata={op_name="jit(_full_run)/jit(main)/transpose" source_file="/global/homes/j/jackm/software/lorrax_C/src/solvers/lanczos.py" source_line=296}
  %real.19 = f64[5,1024]{1,0} real(%dot.26), sharding={devices=[1,2,2]<=[4] last_tile_dim_replicate}, metadata={op_name="jit(_full_run)/jit(main)/jit(norm)/real" source_file="/global/homes/j/jackm/software/lorrax_C/src/solvers/lanczos.py" source_line=297}
  %imag.15 = f64[5,1024]{1,0} imag(%dot.26), sharding={devices=[1,2,2]<=[4] last_tile_dim_replicate}, metadata={op_name="jit(_full_run)/jit(main)/jit(norm)/imag" source_file="/global/homes/j/jackm/software/lorrax_C/src/solvers/lanczos.py" source_line=297}
  %negate.24 = f64[5,1024]{1,0} negate(%imag.15), sharding={devices=[1,2,2]<=[4] last_tile_dim_replicate}, metadata={op_name="jit(_full_run)/jit(main)/jit(norm)/neg" source_file="/global/homes/j/jackm/software/lorrax_C/src/solvers/lanczos.py" source_line=297}
  %complex.15 = c128[5,1024]{1,0} complex(%real.19, %negate.24), sharding={devices=[1,2,2]<=[4] last_tile_dim_replicate}, metadata={op_name="jit(_full_run)/jit(main)/jit(norm)/complex" source_file="/global/homes/j/jackm/software/lorrax_C/src/solvers/lanczos.py" source_line=297}
  %multiply.152 = c128[5,1024]{1,0} multiply(%dot.26, %complex.15), sharding={devices=[1,2,2]<=[4] last_tile_dim_replicate}, metadata={op_name="jit(_full_run)/jit(main)/jit(norm)/mul" source_file="/global/homes/j/jackm/software/lorrax_C/src/solvers/lanczos.py" source_line=297}
  %real.20 = f64[5,1024]{1,0} real(%multiply.152), sharding={devices=[1,2,2]<=[4] last_tile_dim_replicate}, metadata={op_name="jit(_full_run)/jit(main)/jit(norm)/real" source_file="/global/homes/j/jackm/software/lorrax_C/src/solvers/lanczos.py" source_line=297}
  %constant.550 = f64[] constant(0)
  %reduce.4 = f64[5]{0} reduce(%real.20, %constant.550), dimensions={1}, to_apply=%region_12.1739, sharding={replicated}, metadata={op_name="jit(_full_run)/jit(main)/jit(norm)/reduce_sum" source_file="/global/homes/j/jackm/software/lorrax_C/src/solvers/lanczos.py" source_line=297}
  %sqrt.17 = f64[5]{0} sqrt(%reduce.4), sharding={replicated}, metadata={op_name="jit(_full_run)/jit(main)/jit(norm)/sqrt" source_file="/global/homes/j/jackm/software/lorrax_C/src/solvers/lanczos.py" source_line=297}
  %constant.9 = f64[] constant(1e-15), sharding={replicated}
  %broadcast.993 = f64[5]{0} broadcast(%constant.9), dimensions={}, sharding={replicated}
  %maximum.17 = f64[5]{0} maximum(%sqrt.17, %broadcast.993), sharding={replicated}, metadata={op_name="jit(_full_run)/jit(main)/max" source_file="/global/homes/j/jackm/software/lorrax_C/src/solvers/lanczos.py" source_line=298}
  %convert.67 = c128[5]{0} convert(%maximum.17), sharding={replicated}, metadata={op_name="jit(_full_run)/jit(main)/convert_element_type" source_file="/global/homes/j/jackm/software/lorrax_C/src/solvers/lanczos.py" source_line=298}
  %broadcast.1760 = c128[5,1024]{1,0} broadcast(%convert.67), dimensions={0}, sharding={replicated}, metadata={op_name="jit(_full_run)/jit(main)/div" source_file="/global/homes/j/jackm/software/lorrax_C/src/solvers/lanczos.py" source_line=298}
  %divide.1761 = c128[5,1024]{0,1} divide(%dot.26, %broadcast.1760), sharding={replicated}, metadata={op_name="jit(_full_run)/jit(main)/div" source_file="/global/homes/j/jackm/software/lorrax_C/src/solvers/lanczos.py" source_line=298}
  %constant.23 = s32[] constant(200), sharding={replicated}
  ROOT %tuple.1765 = (f64[5]{0}, c128[5,1024]{1,0}, s32[]) tuple(%gather.1729, %divide.1761, %constant.23), sharding={{replicated}, {replicated}, {replicated}}
  %constant.332 = f64[] constant(-0.99999999999999989)
  %constant.437 = f64[] constant(-0.99999999999999989)
  %constant.532 = f64[] constant(0)
  %constant.534 = f64[] constant(1.4142135623730951)
  %constant.535 = f64[] constant(1)
  %constant.849 = u32[] constant(42), metadata={op_name="jit(_full_run)/jit(main)/jit(_threefry_split)/squeeze" source_file="/global/homes/j/jackm/software/lorrax_C/src/solvers/lanczos.py" source_line=245}
  %constant.851 = u32[] constant(466689008), metadata={op_name="jit(_full_run)/jit(main)/jit(_threefry_split)/xor" source_file="/global/homes/j/jackm/software/lorrax_C/src/solvers/lanczos.py" source_line=245}
}

