HloModule jit__chi_at_q_jit, entry_computation_layout={(f64[3]{0}, s32[9]{0}, s32[1,3]{1,0})->c128[1]{0}}, allow_spmd_sharding_propagation_to_parameters={true,true,true}, allow_spmd_sharding_propagation_to_output={true}

%round.71 (Arg_0.72: f64[9,3]) -> f64[9,3] {
  %Arg_0.72 = f64[9,3]{1,0} parameter(0), metadata={op_name="jit(_chi_at_q_jit)/jit(main)/jit(_build_stk_at_q)/pjit"}
  ROOT %round-nearest-even.73 = f64[9,3]{1,0} round-nearest-even(%Arg_0.72), metadata={op_name="jit(_chi_at_q_jit)/jit(main)/jit(_build_stk_at_q)/jit(round)/round" source_file="/global/homes/j/jackm/software/lorrax_B/src/psp/run_sternheimer.py" source_line=936}
}

%fft_0.74 (Arg_0.75: c128[9,26,2,24,24,80]) -> c128[9,26,2,24,24,80] {
  %Arg_0.75 = c128[9,26,2,24,24,80]{5,4,3,2,1,0} parameter(0), metadata={op_name="jit(_chi_at_q_jit)/jit(main)/jit(_build_stk_at_q)/vmap(jit(fft))/pjit"}
  ROOT %fft.76 = c128[9,26,2,24,24,80]{5,4,3,2,1,0} fft(%Arg_0.75), fft_type=IFFT, fft_length={24,24,80}, metadata={op_name="jit(_chi_at_q_jit)/jit(main)/jit(_build_stk_at_q)/vmap(jit(fft))/jit(fft)/fft" source_file="/global/homes/j/jackm/software/lorrax_B/src/psp/scf_potential.py" source_line=153}
}

%fft.77 (Arg_0.78: c128[9,26,2,24,24,80]) -> c128[9,26,2,24,24,80] {
  %Arg_0.78 = c128[9,26,2,24,24,80]{5,4,3,2,1,0} parameter(0), metadata={op_name="jit(_chi_at_q_jit)/jit(main)/jit(_build_stk_at_q)/pjit"}
  ROOT %call.79 = c128[9,26,2,24,24,80]{5,4,3,2,1,0} call(%Arg_0.78), to_apply=%fft_0.74
}

%region_0.80 (Arg_0.81: c128[], Arg_1.82: c128[]) -> c128[] {
  %Arg_0.81 = c128[] parameter(0), metadata={op_name="jit(_chi_at_q_jit)/jit(main)/jit(_build_stk_at_q)/reduce_prod"}
  %Arg_1.82 = c128[] parameter(1), metadata={op_name="jit(_chi_at_q_jit)/jit(main)/jit(_build_stk_at_q)/reduce_prod"}
  ROOT %multiply.83 = c128[] multiply(%Arg_0.81, %Arg_1.82), metadata={op_name="jit(_chi_at_q_jit)/jit(main)/jit(_build_stk_at_q)/reduce_prod" source_file="/global/homes/j/jackm/software/lorrax_B/src/psp/run_sternheimer.py" source_line=113}
}

%fft_2.84 (Arg_0.85: c128[9,26,2,24,24,80]) -> c128[9,26,2,24,24,80] {
  %Arg_0.85 = c128[9,26,2,24,24,80]{5,4,3,2,1,0} parameter(0), metadata={op_name="jit(_chi_at_q_jit)/jit(main)/jit(_build_stk_at_q)/vmap(jit(fft))/pjit"}
  ROOT %fft.86 = c128[9,26,2,24,24,80]{5,4,3,2,1,0} fft(%Arg_0.85), fft_type=FFT, fft_length={24,24,80}, metadata={op_name="jit(_chi_at_q_jit)/jit(main)/jit(_build_stk_at_q)/vmap(jit(fft))/jit(fft)/fft" source_file="/global/homes/j/jackm/software/lorrax_B/src/psp/run_sternheimer.py" source_line=115}
}

%fft_1.87 (Arg_0.88: c128[9,26,2,24,24,80]) -> c128[9,26,2,24,24,80] {
  %Arg_0.88 = c128[9,26,2,24,24,80]{5,4,3,2,1,0} parameter(0), metadata={op_name="jit(_chi_at_q_jit)/jit(main)/jit(_build_stk_at_q)/pjit"}
  ROOT %call.89 = c128[9,26,2,24,24,80]{5,4,3,2,1,0} call(%Arg_0.88), to_apply=%fft_2.84
}

%region_1.90 (Arg_0.91: c128[], Arg_1.92: c128[]) -> c128[] {
  %Arg_0.91 = c128[] parameter(0), metadata={op_name="jit(_chi_at_q_jit)/jit(main)/jit(_build_stk_at_q)/reduce_prod"}
  %Arg_1.92 = c128[] parameter(1), metadata={op_name="jit(_chi_at_q_jit)/jit(main)/jit(_build_stk_at_q)/reduce_prod"}
  ROOT %multiply.93 = c128[] multiply(%Arg_0.91, %Arg_1.92), metadata={op_name="jit(_chi_at_q_jit)/jit(main)/jit(_build_stk_at_q)/reduce_prod" source_file="/global/homes/j/jackm/software/lorrax_B/src/psp/run_sternheimer.py" source_line=115}
}

%_where.94 (Arg_0.95: pred[], Arg_1.96: s32[], Arg_2.97: s32[]) -> s32[] {
  %Arg_0.95 = pred[] parameter(0), metadata={op_name="jit(_chi_at_q_jit)/jit(main)/jit(_build_stk_at_q)/vmap(jit(remainder))/pjit"}
  %Arg_1.96 = s32[] parameter(1), metadata={op_name="jit(_chi_at_q_jit)/jit(main)/jit(_build_stk_at_q)/vmap(jit(remainder))/pjit"}
  %Arg_2.97 = s32[] parameter(2), metadata={op_name="jit(_chi_at_q_jit)/jit(main)/jit(_build_stk_at_q)/vmap(jit(remainder))/pjit"}
  ROOT %select.98 = s32[] select(%Arg_0.95, %Arg_1.96, %Arg_2.97), metadata={op_name="jit(_chi_at_q_jit)/jit(main)/jit(_build_stk_at_q)/vmap(jit(remainder))/jit(_where)/select_n" source_file="/global/homes/j/jackm/software/lorrax_B/src/psp/run_sternheimer.py" source_line=821}
}

%remainder.99 (Arg_0.100: s32[9,1963], Arg_1.101: s64[]) -> s32[9,1963] {
  %Arg_0.100 = s32[9,1963]{1,0} parameter(0), metadata={op_name="jit(_chi_at_q_jit)/jit(main)/jit(_build_stk_at_q)/pjit"}
  %Arg_1.101 = s64[] parameter(1), metadata={op_name="jit(_chi_at_q_jit)/jit(main)/jit(_build_stk_at_q)/pjit"}
  %convert.106 = s32[] convert(%Arg_1.101), metadata={op_name="jit(_chi_at_q_jit)/jit(main)/jit(_build_stk_at_q)/vmap(jit(remainder))/convert_element_type" source_file="/global/homes/j/jackm/software/lorrax_B/src/psp/run_sternheimer.py" source_line=821}
  %constant.105 = s32[] constant(0)
  %compare.107 = pred[] compare(%convert.106, %constant.105), direction=EQ, metadata={op_name="jit(_chi_at_q_jit)/jit(main)/jit(_build_stk_at_q)/vmap(jit(remainder))/eq" source_file="/global/homes/j/jackm/software/lorrax_B/src/psp/run_sternheimer.py" source_line=821}
  %constant.104 = s32[] constant(1)
  %call.108 = s32[] call(%compare.107, %constant.104, %convert.106), to_apply=%_where.94
  %broadcast.109 = s32[9,1963]{1,0} broadcast(%call.108), dimensions={}, metadata={op_name="jit(_chi_at_q_jit)/jit(main)/jit(_build_stk_at_q)/vmap(jit(remainder))/rem" source_file="/global/homes/j/jackm/software/lorrax_B/src/psp/run_sternheimer.py" source_line=821}
  %remainder.110 = s32[9,1963]{1,0} remainder(%Arg_0.100, %broadcast.109), metadata={op_name="jit(_chi_at_q_jit)/jit(main)/jit(_build_stk_at_q)/vmap(jit(remainder))/rem" source_file="/global/homes/j/jackm/software/lorrax_B/src/psp/run_sternheimer.py" source_line=821}
  %constant.102 = s32[] constant(0)
  %broadcast.103 = s32[9,1963]{1,0} broadcast(%constant.102), dimensions={}
  %compare.112 = pred[9,1963]{1,0} compare(%remainder.110, %broadcast.103), direction=LT, metadata={op_name="jit(_chi_at_q_jit)/jit(main)/jit(_build_stk_at_q)/vmap(jit(remainder))/lt" source_file="/global/homes/j/jackm/software/lorrax_B/src/psp/run_sternheimer.py" source_line=821}
  %compare.113 = pred[] compare(%call.108, %constant.105), direction=LT, metadata={op_name="jit(_chi_at_q_jit)/jit(main)/jit(_build_stk_at_q)/vmap(jit(remainder))/lt" source_file="/global/homes/j/jackm/software/lorrax_B/src/psp/run_sternheimer.py" source_line=821}
  %broadcast.114 = pred[9,1963]{1,0} broadcast(%compare.113), dimensions={}, metadata={op_name="jit(_chi_at_q_jit)/jit(main)/jit(_build_stk_at_q)/vmap(jit(remainder))/ne" source_file="/global/homes/j/jackm/software/lorrax_B/src/psp/run_sternheimer.py" source_line=821}
  %compare.115 = pred[9,1963]{1,0} compare(%compare.112, %broadcast.114), direction=NE, metadata={op_name="jit(_chi_at_q_jit)/jit(main)/jit(_build_stk_at_q)/vmap(jit(remainder))/ne" source_file="/global/homes/j/jackm/software/lorrax_B/src/psp/run_sternheimer.py" source_line=821}
  %compare.111 = pred[9,1963]{1,0} compare(%remainder.110, %broadcast.103), direction=NE, metadata={op_name="jit(_chi_at_q_jit)/jit(main)/jit(_build_stk_at_q)/vmap(jit(remainder))/ne" source_file="/global/homes/j/jackm/software/lorrax_B/src/psp/run_sternheimer.py" source_line=821}
  %and.116 = pred[9,1963]{1,0} and(%compare.115, %compare.111), metadata={op_name="jit(_chi_at_q_jit)/jit(main)/jit(_build_stk_at_q)/vmap(jit(remainder))/and" source_file="/global/homes/j/jackm/software/lorrax_B/src/psp/run_sternheimer.py" source_line=821}
  %broadcast.117 = s32[9,1963]{1,0} broadcast(%call.108), dimensions={}, metadata={op_name="jit(_chi_at_q_jit)/jit(main)/jit(_build_stk_at_q)/vmap(jit(remainder))/add" source_file="/global/homes/j/jackm/software/lorrax_B/src/psp/run_sternheimer.py" source_line=821}
  %add.118 = s32[9,1963]{1,0} add(%remainder.110, %broadcast.117), metadata={op_name="jit(_chi_at_q_jit)/jit(main)/jit(_build_stk_at_q)/vmap(jit(remainder))/add" source_file="/global/homes/j/jackm/software/lorrax_B/src/psp/run_sternheimer.py" source_line=821}
  ROOT %select.119 = s32[9,1963]{1,0} select(%and.116, %add.118, %remainder.110), metadata={op_name="jit(_chi_at_q_jit)/jit(main)/jit(_build_stk_at_q)/vmap(jit(remainder))/select_n" source_file="/global/homes/j/jackm/software/lorrax_B/src/psp/run_sternheimer.py" source_line=821}
}

%_where.120 (Arg_0.121: pred[], Arg_1.122: s32[], Arg_2.123: s32[]) -> s32[] {
  %Arg_0.121 = pred[] parameter(0), metadata={op_name="jit(_chi_at_q_jit)/jit(main)/jit(_build_stk_at_q)/vmap(jit(remainder))/pjit"}
  %Arg_1.122 = s32[] parameter(1), metadata={op_name="jit(_chi_at_q_jit)/jit(main)/jit(_build_stk_at_q)/vmap(jit(remainder))/pjit"}
  %Arg_2.123 = s32[] parameter(2), metadata={op_name="jit(_chi_at_q_jit)/jit(main)/jit(_build_stk_at_q)/vmap(jit(remainder))/pjit"}
  ROOT %select.124 = s32[] select(%Arg_0.121, %Arg_1.122, %Arg_2.123), metadata={op_name="jit(_chi_at_q_jit)/jit(main)/jit(_build_stk_at_q)/vmap(jit(remainder))/jit(_where)/select_n" source_file="/global/homes/j/jackm/software/lorrax_B/src/psp/run_sternheimer.py" source_line=821}
}

%remainder.125 (Arg_0.126: s32[9,1963], Arg_1.127: s64[]) -> s32[9,1963] {
  %Arg_0.126 = s32[9,1963]{1,0} parameter(0), metadata={op_name="jit(_chi_at_q_jit)/jit(main)/jit(_build_stk_at_q)/pjit"}
  %Arg_1.127 = s64[] parameter(1), metadata={op_name="jit(_chi_at_q_jit)/jit(main)/jit(_build_stk_at_q)/pjit"}
  %convert.132 = s32[] convert(%Arg_1.127), metadata={op_name="jit(_chi_at_q_jit)/jit(main)/jit(_build_stk_at_q)/vmap(jit(remainder))/convert_element_type" source_file="/global/homes/j/jackm/software/lorrax_B/src/psp/run_sternheimer.py" source_line=821}
  %constant.131 = s32[] constant(0)
  %compare.133 = pred[] compare(%convert.132, %constant.131), direction=EQ, metadata={op_name="jit(_chi_at_q_jit)/jit(main)/jit(_build_stk_at_q)/vmap(jit(remainder))/eq" source_file="/global/homes/j/jackm/software/lorrax_B/src/psp/run_sternheimer.py" source_line=821}
  %constant.130 = s32[] constant(1)
  %call.134 = s32[] call(%compare.133, %constant.130, %convert.132), to_apply=%_where.120
  %broadcast.135 = s32[9,1963]{1,0} broadcast(%call.134), dimensions={}, metadata={op_name="jit(_chi_at_q_jit)/jit(main)/jit(_build_stk_at_q)/vmap(jit(remainder))/rem" source_file="/global/homes/j/jackm/software/lorrax_B/src/psp/run_sternheimer.py" source_line=821}
  %remainder.136 = s32[9,1963]{1,0} remainder(%Arg_0.126, %broadcast.135), metadata={op_name="jit(_chi_at_q_jit)/jit(main)/jit(_build_stk_at_q)/vmap(jit(remainder))/rem" source_file="/global/homes/j/jackm/software/lorrax_B/src/psp/run_sternheimer.py" source_line=821}
  %constant.128 = s32[] constant(0)
  %broadcast.129 = s32[9,1963]{1,0} broadcast(%constant.128), dimensions={}
  %compare.138 = pred[9,1963]{1,0} compare(%remainder.136, %broadcast.129), direction=LT, metadata={op_name="jit(_chi_at_q_jit)/jit(main)/jit(_build_stk_at_q)/vmap(jit(remainder))/lt" source_file="/global/homes/j/jackm/software/lorrax_B/src/psp/run_sternheimer.py" source_line=821}
  %compare.139 = pred[] compare(%call.134, %constant.131), direction=LT, metadata={op_name="jit(_chi_at_q_jit)/jit(main)/jit(_build_stk_at_q)/vmap(jit(remainder))/lt" source_file="/global/homes/j/jackm/software/lorrax_B/src/psp/run_sternheimer.py" source_line=821}
  %broadcast.140 = pred[9,1963]{1,0} broadcast(%compare.139), dimensions={}, metadata={op_name="jit(_chi_at_q_jit)/jit(main)/jit(_build_stk_at_q)/vmap(jit(remainder))/ne" source_file="/global/homes/j/jackm/software/lorrax_B/src/psp/run_sternheimer.py" source_line=821}
  %compare.141 = pred[9,1963]{1,0} compare(%compare.138, %broadcast.140), direction=NE, metadata={op_name="jit(_chi_at_q_jit)/jit(main)/jit(_build_stk_at_q)/vmap(jit(remainder))/ne" source_file="/global/homes/j/jackm/software/lorrax_B/src/psp/run_sternheimer.py" source_line=821}
  %compare.137 = pred[9,1963]{1,0} compare(%remainder.136, %broadcast.129), direction=NE, metadata={op_name="jit(_chi_at_q_jit)/jit(main)/jit(_build_stk_at_q)/vmap(jit(remainder))/ne" source_file="/global/homes/j/jackm/software/lorrax_B/src/psp/run_sternheimer.py" source_line=821}
  %and.142 = pred[9,1963]{1,0} and(%compare.141, %compare.137), metadata={op_name="jit(_chi_at_q_jit)/jit(main)/jit(_build_stk_at_q)/vmap(jit(remainder))/and" source_file="/global/homes/j/jackm/software/lorrax_B/src/psp/run_sternheimer.py" source_line=821}
  %broadcast.143 = s32[9,1963]{1,0} broadcast(%call.134), dimensions={}, metadata={op_name="jit(_chi_at_q_jit)/jit(main)/jit(_build_stk_at_q)/vmap(jit(remainder))/add" source_file="/global/homes/j/jackm/software/lorrax_B/src/psp/run_sternheimer.py" source_line=821}
  %add.144 = s32[9,1963]{1,0} add(%remainder.136, %broadcast.143), metadata={op_name="jit(_chi_at_q_jit)/jit(main)/jit(_build_stk_at_q)/vmap(jit(remainder))/add" source_file="/global/homes/j/jackm/software/lorrax_B/src/psp/run_sternheimer.py" source_line=821}
  ROOT %select.145 = s32[9,1963]{1,0} select(%and.142, %add.144, %remainder.136), metadata={op_name="jit(_chi_at_q_jit)/jit(main)/jit(_build_stk_at_q)/vmap(jit(remainder))/select_n" source_file="/global/homes/j/jackm/software/lorrax_B/src/psp/run_sternheimer.py" source_line=821}
}

%_where.146 (Arg_0.147: pred[], Arg_1.148: s32[], Arg_2.149: s32[]) -> s32[] {
  %Arg_0.147 = pred[] parameter(0), metadata={op_name="jit(_chi_at_q_jit)/jit(main)/jit(_build_stk_at_q)/vmap(jit(remainder))/pjit"}
  %Arg_1.148 = s32[] parameter(1), metadata={op_name="jit(_chi_at_q_jit)/jit(main)/jit(_build_stk_at_q)/vmap(jit(remainder))/pjit"}
  %Arg_2.149 = s32[] parameter(2), metadata={op_name="jit(_chi_at_q_jit)/jit(main)/jit(_build_stk_at_q)/vmap(jit(remainder))/pjit"}
  ROOT %select.150 = s32[] select(%Arg_0.147, %Arg_1.148, %Arg_2.149), metadata={op_name="jit(_chi_at_q_jit)/jit(main)/jit(_build_stk_at_q)/vmap(jit(remainder))/jit(_where)/select_n" source_file="/global/homes/j/jackm/software/lorrax_B/src/psp/run_sternheimer.py" source_line=821}
}

%remainder.151 (Arg_0.152: s32[9,1963], Arg_1.153: s64[]) -> s32[9,1963] {
  %Arg_0.152 = s32[9,1963]{1,0} parameter(0), metadata={op_name="jit(_chi_at_q_jit)/jit(main)/jit(_build_stk_at_q)/pjit"}
  %Arg_1.153 = s64[] parameter(1), metadata={op_name="jit(_chi_at_q_jit)/jit(main)/jit(_build_stk_at_q)/pjit"}
  %convert.158 = s32[] convert(%Arg_1.153), metadata={op_name="jit(_chi_at_q_jit)/jit(main)/jit(_build_stk_at_q)/vmap(jit(remainder))/convert_element_type" source_file="/global/homes/j/jackm/software/lorrax_B/src/psp/run_sternheimer.py" source_line=821}
  %constant.157 = s32[] constant(0)
  %compare.159 = pred[] compare(%convert.158, %constant.157), direction=EQ, metadata={op_name="jit(_chi_at_q_jit)/jit(main)/jit(_build_stk_at_q)/vmap(jit(remainder))/eq" source_file="/global/homes/j/jackm/software/lorrax_B/src/psp/run_sternheimer.py" source_line=821}
  %constant.156 = s32[] constant(1)
  %call.160 = s32[] call(%compare.159, %constant.156, %convert.158), to_apply=%_where.146
  %broadcast.161 = s32[9,1963]{1,0} broadcast(%call.160), dimensions={}, metadata={op_name="jit(_chi_at_q_jit)/jit(main)/jit(_build_stk_at_q)/vmap(jit(remainder))/rem" source_file="/global/homes/j/jackm/software/lorrax_B/src/psp/run_sternheimer.py" source_line=821}
  %remainder.162 = s32[9,1963]{1,0} remainder(%Arg_0.152, %broadcast.161), metadata={op_name="jit(_chi_at_q_jit)/jit(main)/jit(_build_stk_at_q)/vmap(jit(remainder))/rem" source_file="/global/homes/j/jackm/software/lorrax_B/src/psp/run_sternheimer.py" source_line=821}
  %constant.154 = s32[] constant(0)
  %broadcast.155 = s32[9,1963]{1,0} broadcast(%constant.154), dimensions={}
  %compare.164 = pred[9,1963]{1,0} compare(%remainder.162, %broadcast.155), direction=LT, metadata={op_name="jit(_chi_at_q_jit)/jit(main)/jit(_build_stk_at_q)/vmap(jit(remainder))/lt" source_file="/global/homes/j/jackm/software/lorrax_B/src/psp/run_sternheimer.py" source_line=821}
  %compare.165 = pred[] compare(%call.160, %constant.157), direction=LT, metadata={op_name="jit(_chi_at_q_jit)/jit(main)/jit(_build_stk_at_q)/vmap(jit(remainder))/lt" source_file="/global/homes/j/jackm/software/lorrax_B/src/psp/run_sternheimer.py" source_line=821}
  %broadcast.166 = pred[9,1963]{1,0} broadcast(%compare.165), dimensions={}, metadata={op_name="jit(_chi_at_q_jit)/jit(main)/jit(_build_stk_at_q)/vmap(jit(remainder))/ne" source_file="/global/homes/j/jackm/software/lorrax_B/src/psp/run_sternheimer.py" source_line=821}
  %compare.167 = pred[9,1963]{1,0} compare(%compare.164, %broadcast.166), direction=NE, metadata={op_name="jit(_chi_at_q_jit)/jit(main)/jit(_build_stk_at_q)/vmap(jit(remainder))/ne" source_file="/global/homes/j/jackm/software/lorrax_B/src/psp/run_sternheimer.py" source_line=821}
  %compare.163 = pred[9,1963]{1,0} compare(%remainder.162, %broadcast.155), direction=NE, metadata={op_name="jit(_chi_at_q_jit)/jit(main)/jit(_build_stk_at_q)/vmap(jit(remainder))/ne" source_file="/global/homes/j/jackm/software/lorrax_B/src/psp/run_sternheimer.py" source_line=821}
  %and.168 = pred[9,1963]{1,0} and(%compare.167, %compare.163), metadata={op_name="jit(_chi_at_q_jit)/jit(main)/jit(_build_stk_at_q)/vmap(jit(remainder))/and" source_file="/global/homes/j/jackm/software/lorrax_B/src/psp/run_sternheimer.py" source_line=821}
  %broadcast.169 = s32[9,1963]{1,0} broadcast(%call.160), dimensions={}, metadata={op_name="jit(_chi_at_q_jit)/jit(main)/jit(_build_stk_at_q)/vmap(jit(remainder))/add" source_file="/global/homes/j/jackm/software/lorrax_B/src/psp/run_sternheimer.py" source_line=821}
  %add.170 = s32[9,1963]{1,0} add(%remainder.162, %broadcast.169), metadata={op_name="jit(_chi_at_q_jit)/jit(main)/jit(_build_stk_at_q)/vmap(jit(remainder))/add" source_file="/global/homes/j/jackm/software/lorrax_B/src/psp/run_sternheimer.py" source_line=821}
  ROOT %select.171 = s32[9,1963]{1,0} select(%and.168, %add.170, %remainder.162), metadata={op_name="jit(_chi_at_q_jit)/jit(main)/jit(_build_stk_at_q)/vmap(jit(remainder))/select_n" source_file="/global/homes/j/jackm/software/lorrax_B/src/psp/run_sternheimer.py" source_line=821}
}

%_where_3.172 (Arg_0.173: pred[9,26], Arg_1.174: f64[9,26], Arg_2.175: f64[]) -> f64[9,26] {
  %Arg_0.173 = pred[9,26]{1,0} parameter(0), metadata={op_name="jit(_chi_at_q_jit)/jit(main)/jit(_build_stk_at_q)/pjit"}
  %Arg_1.174 = f64[9,26]{1,0} parameter(1), metadata={op_name="jit(_chi_at_q_jit)/jit(main)/jit(_build_stk_at_q)/pjit"}
  %Arg_2.175 = f64[] parameter(2), metadata={op_name="jit(_chi_at_q_jit)/jit(main)/jit(_build_stk_at_q)/pjit"}
  %broadcast.176 = f64[9,26]{1,0} broadcast(%Arg_2.175), dimensions={}, metadata={op_name="jit(_chi_at_q_jit)/jit(main)/jit(_build_stk_at_q)/vmap(jit(_where))/broadcast_in_dim" source_file="/global/homes/j/jackm/software/lorrax_B/src/solvers/sternheimer_precond.py" source_line=93}
  ROOT %select.177 = f64[9,26]{1,0} select(%Arg_0.173, %Arg_1.174, %broadcast.176), metadata={op_name="jit(_chi_at_q_jit)/jit(main)/jit(_build_stk_at_q)/vmap(jit(_where))/select_n" source_file="/global/homes/j/jackm/software/lorrax_B/src/solvers/sternheimer_precond.py" source_line=93}
}

%integer_pow.178 (Arg_0.179: f64[9,26,1963]) -> f64[9,26,1963] {
  %Arg_0.179 = f64[9,26,1963]{2,1,0} parameter(0), metadata={op_name="jit(_chi_at_q_jit)/jit(main)/jit(_build_stk_at_q)/vmap(jit(_tpa))/integer_pow"}
  %multiply.180 = f64[9,26,1963]{2,1,0} multiply(%Arg_0.179, %Arg_0.179), metadata={op_name="jit(_chi_at_q_jit)/jit(main)/jit(_build_stk_at_q)/vmap(jit(_tpa))/mul" source_file="/global/homes/j/jackm/software/lorrax_B/src/solvers/sternheimer_precond.py" source_line=52}
  ROOT %multiply.181 = f64[9,26,1963]{2,1,0} multiply(%multiply.180, %multiply.180), metadata={op_name="jit(_chi_at_q_jit)/jit(main)/jit(_build_stk_at_q)/vmap(jit(_tpa))/mul" source_file="/global/homes/j/jackm/software/lorrax_B/src/solvers/sternheimer_precond.py" source_line=52}
}

%_tpa.182 (Arg_0.183: f64[9,26,1963]) -> f64[9,26,1963] {
  %Arg_0.183 = f64[9,26,1963]{2,1,0} parameter(0), metadata={op_name="jit(_chi_at_q_jit)/jit(main)/jit(_build_stk_at_q)/pjit"}
  %constant.192 = f64[] constant(8)
  %broadcast.193 = f64[9,26,1963]{2,1,0} broadcast(%constant.192), dimensions={}, metadata={op_name="jit(_chi_at_q_jit)/jit(main)/jit(_build_stk_at_q)/vmap(jit(_tpa))/mul" source_file="/global/homes/j/jackm/software/lorrax_B/src/solvers/sternheimer_precond.py" source_line=51}
  %multiply.194 = f64[9,26,1963]{2,1,0} multiply(%Arg_0.183, %broadcast.193), metadata={op_name="jit(_chi_at_q_jit)/jit(main)/jit(_build_stk_at_q)/vmap(jit(_tpa))/mul" source_file="/global/homes/j/jackm/software/lorrax_B/src/solvers/sternheimer_precond.py" source_line=51}
  %constant.190 = f64[] constant(12)
  %broadcast.191 = f64[9,26,1963]{2,1,0} broadcast(%constant.190), dimensions={}
  %add.195 = f64[9,26,1963]{2,1,0} add(%multiply.194, %broadcast.191), metadata={op_name="jit(_chi_at_q_jit)/jit(main)/jit(_build_stk_at_q)/vmap(jit(_tpa))/add" source_file="/global/homes/j/jackm/software/lorrax_B/src/solvers/sternheimer_precond.py" source_line=51}
  %multiply.196 = f64[9,26,1963]{2,1,0} multiply(%Arg_0.183, %add.195), metadata={op_name="jit(_chi_at_q_jit)/jit(main)/jit(_build_stk_at_q)/vmap(jit(_tpa))/mul" source_file="/global/homes/j/jackm/software/lorrax_B/src/solvers/sternheimer_precond.py" source_line=51}
  %constant.188 = f64[] constant(18)
  %broadcast.189 = f64[9,26,1963]{2,1,0} broadcast(%constant.188), dimensions={}
  %add.197 = f64[9,26,1963]{2,1,0} add(%multiply.196, %broadcast.189), metadata={op_name="jit(_chi_at_q_jit)/jit(main)/jit(_build_stk_at_q)/vmap(jit(_tpa))/add" source_file="/global/homes/j/jackm/software/lorrax_B/src/solvers/sternheimer_precond.py" source_line=51}
  %multiply.198 = f64[9,26,1963]{2,1,0} multiply(%Arg_0.183, %add.197), metadata={op_name="jit(_chi_at_q_jit)/jit(main)/jit(_build_stk_at_q)/vmap(jit(_tpa))/mul" source_file="/global/homes/j/jackm/software/lorrax_B/src/solvers/sternheimer_precond.py" source_line=51}
  %constant.186 = f64[] constant(27)
  %broadcast.187 = f64[9,26,1963]{2,1,0} broadcast(%constant.186), dimensions={}
  %add.199 = f64[9,26,1963]{2,1,0} add(%multiply.198, %broadcast.187), metadata={op_name="jit(_chi_at_q_jit)/jit(main)/jit(_build_stk_at_q)/vmap(jit(_tpa))/add" source_file="/global/homes/j/jackm/software/lorrax_B/src/solvers/sternheimer_precond.py" source_line=51}
  %call.200 = f64[9,26,1963]{2,1,0} call(%Arg_0.183), to_apply=%integer_pow.178
  %constant.184 = f64[] constant(16)
  %broadcast.185 = f64[9,26,1963]{2,1,0} broadcast(%constant.184), dimensions={}
  %multiply.201 = f64[9,26,1963]{2,1,0} multiply(%call.200, %broadcast.185), metadata={op_name="jit(_chi_at_q_jit)/jit(main)/jit(_build_stk_at_q)/vmap(jit(_tpa))/mul" source_file="/global/homes/j/jackm/software/lorrax_B/src/solvers/sternheimer_precond.py" source_line=52}
  %add.202 = f64[9,26,1963]{2,1,0} add(%add.199, %multiply.201), metadata={op_name="jit(_chi_at_q_jit)/jit(main)/jit(_build_stk_at_q)/vmap(jit(_tpa))/add" source_file="/global/homes/j/jackm/software/lorrax_B/src/solvers/sternheimer_precond.py" source_line=52}
  ROOT %divide.203 = f64[9,26,1963]{2,1,0} divide(%add.199, %add.202), metadata={op_name="jit(_chi_at_q_jit)/jit(main)/jit(_build_stk_at_q)/vmap(jit(_tpa))/div" source_file="/global/homes/j/jackm/software/lorrax_B/src/solvers/sternheimer_precond.py" source_line=53}
}

%_build_stk_at_q.204 (Arg_0.205: f64[3], Arg_1.206: s32[9], Arg_2.207: c128[24,24,80], Arg_3.208: f64[9,1963], Arg_4.209: pred[9,1963], Arg_5.210: s32[9,1963], Arg_6.211: s32[9,1963], Arg_7.212: s32[9,1963], Arg_8.213: s32[9,1963,3], Arg_9.214: f64[9,3], Arg_10.215: c128[9,26,2,1963], Arg_11.216: f64[9,26], Arg_12.217: c128[9,26,2,24,24,80]) -> (s32[9,1963,3], s32[9,1963], s32[9,1963], s32[9,1963], c128[9,26,2,1963], /*index=5*/c128[9,26,2,1963], f64[9,3], pred[9,1963], c128[9,24,24,80], f64[9,26,1,1963]) {
  %Arg_8.213 = s32[9,1963,3]{2,1,0} parameter(8), metadata={op_name="jit(_chi_at_q_jit)/jit(main)/pjit"}
  %Arg_1.206 = s32[9]{0} parameter(1), metadata={op_name="jit(_chi_at_q_jit)/jit(main)/pjit"}
  %constant.255 = s32[] constant(0)
  %broadcast.256 = s32[9]{0} broadcast(%constant.255), dimensions={}
  %compare.282 = pred[9]{0} compare(%Arg_1.206, %broadcast.256), direction=LT, metadata={op_name="jit(_chi_at_q_jit)/jit(main)/jit(_build_stk_at_q)/lt" source_file="/global/homes/j/jackm/software/lorrax_B/src/psp/run_sternheimer.py" source_line=931}
  %constant.236 = s32[] constant(9)
  %broadcast.237 = s32[9]{0} broadcast(%constant.236), dimensions={}
  %add.283 = s32[9]{0} add(%Arg_1.206, %broadcast.237), metadata={op_name="jit(_chi_at_q_jit)/jit(main)/jit(_build_stk_at_q)/add" source_file="/global/homes/j/jackm/software/lorrax_B/src/psp/run_sternheimer.py" source_line=931}
  %select.284 = s32[9]{0} select(%compare.282, %add.283, %Arg_1.206), metadata={op_name="jit(_chi_at_q_jit)/jit(main)/jit(_build_stk_at_q)/select_n" source_file="/global/homes/j/jackm/software/lorrax_B/src/psp/run_sternheimer.py" source_line=931}
  %reshape.285 = s32[9,1]{1,0} reshape(%select.284), metadata={op_name="jit(_chi_at_q_jit)/jit(main)/jit(_build_stk_at_q)/broadcast_in_dim" source_file="/global/homes/j/jackm/software/lorrax_B/src/psp/run_sternheimer.py" source_line=931}
  %gather.286 = s32[9,1963,3]{2,1,0} gather(%Arg_8.213, %reshape.285), offset_dims={1,2}, collapsed_slice_dims={0}, start_index_map={0}, index_vector_dim=1, slice_sizes={1,1963,3}, metadata={op_name="jit(_chi_at_q_jit)/jit(main)/jit(_build_stk_at_q)/gather" source_file="/global/homes/j/jackm/software/lorrax_B/src/psp/run_sternheimer.py" source_line=931}
  %Arg_5.210 = s32[9,1963]{1,0} parameter(5), metadata={op_name="jit(_chi_at_q_jit)/jit(main)/pjit"}
  %compare.267 = pred[9]{0} compare(%Arg_1.206, %broadcast.256), direction=LT, metadata={op_name="jit(_chi_at_q_jit)/jit(main)/jit(_build_stk_at_q)/lt" source_file="/global/homes/j/jackm/software/lorrax_B/src/psp/run_sternheimer.py" source_line=928}
  %add.268 = s32[9]{0} add(%Arg_1.206, %broadcast.237), metadata={op_name="jit(_chi_at_q_jit)/jit(main)/jit(_build_stk_at_q)/add" source_file="/global/homes/j/jackm/software/lorrax_B/src/psp/run_sternheimer.py" source_line=928}
  %select.269 = s32[9]{0} select(%compare.267, %add.268, %Arg_1.206), metadata={op_name="jit(_chi_at_q_jit)/jit(main)/jit(_build_stk_at_q)/select_n" source_file="/global/homes/j/jackm/software/lorrax_B/src/psp/run_sternheimer.py" source_line=928}
  %reshape.270 = s32[9,1]{1,0} reshape(%select.269), metadata={op_name="jit(_chi_at_q_jit)/jit(main)/jit(_build_stk_at_q)/broadcast_in_dim" source_file="/global/homes/j/jackm/software/lorrax_B/src/psp/run_sternheimer.py" source_line=928}
  %gather.271 = s32[9,1963]{1,0} gather(%Arg_5.210, %reshape.270), offset_dims={1}, collapsed_slice_dims={0}, start_index_map={0}, index_vector_dim=1, slice_sizes={1,1963}, metadata={op_name="jit(_chi_at_q_jit)/jit(main)/jit(_build_stk_at_q)/gather" source_file="/global/homes/j/jackm/software/lorrax_B/src/psp/run_sternheimer.py" source_line=928}
  %Arg_6.211 = s32[9,1963]{1,0} parameter(6), metadata={op_name="jit(_chi_at_q_jit)/jit(main)/pjit"}
  %compare.272 = pred[9]{0} compare(%Arg_1.206, %broadcast.256), direction=LT, metadata={op_name="jit(_chi_at_q_jit)/jit(main)/jit(_build_stk_at_q)/lt" source_file="/global/homes/j/jackm/software/lorrax_B/src/psp/run_sternheimer.py" source_line=929}
  %add.273 = s32[9]{0} add(%Arg_1.206, %broadcast.237), metadata={op_name="jit(_chi_at_q_jit)/jit(main)/jit(_build_stk_at_q)/add" source_file="/global/homes/j/jackm/software/lorrax_B/src/psp/run_sternheimer.py" source_line=929}
  %select.274 = s32[9]{0} select(%compare.272, %add.273, %Arg_1.206), metadata={op_name="jit(_chi_at_q_jit)/jit(main)/jit(_build_stk_at_q)/select_n" source_file="/global/homes/j/jackm/software/lorrax_B/src/psp/run_sternheimer.py" source_line=929}
  %reshape.275 = s32[9,1]{1,0} reshape(%select.274), metadata={op_name="jit(_chi_at_q_jit)/jit(main)/jit(_build_stk_at_q)/broadcast_in_dim" source_file="/global/homes/j/jackm/software/lorrax_B/src/psp/run_sternheimer.py" source_line=929}
  %gather.276 = s32[9,1963]{1,0} gather(%Arg_6.211, %reshape.275), offset_dims={1}, collapsed_slice_dims={0}, start_index_map={0}, index_vector_dim=1, slice_sizes={1,1963}, metadata={op_name="jit(_chi_at_q_jit)/jit(main)/jit(_build_stk_at_q)/gather" source_file="/global/homes/j/jackm/software/lorrax_B/src/psp/run_sternheimer.py" source_line=929}
  %Arg_7.212 = s32[9,1963]{1,0} parameter(7), metadata={op_name="jit(_chi_at_q_jit)/jit(main)/pjit"}
  %compare.277 = pred[9]{0} compare(%Arg_1.206, %broadcast.256), direction=LT, metadata={op_name="jit(_chi_at_q_jit)/jit(main)/jit(_build_stk_at_q)/lt" source_file="/global/homes/j/jackm/software/lorrax_B/src/psp/run_sternheimer.py" source_line=930}
  %add.278 = s32[9]{0} add(%Arg_1.206, %broadcast.237), metadata={op_name="jit(_chi_at_q_jit)/jit(main)/jit(_build_stk_at_q)/add" source_file="/global/homes/j/jackm/software/lorrax_B/src/psp/run_sternheimer.py" source_line=930}
  %select.279 = s32[9]{0} select(%compare.277, %add.278, %Arg_1.206), metadata={op_name="jit(_chi_at_q_jit)/jit(main)/jit(_build_stk_at_q)/select_n" source_file="/global/homes/j/jackm/software/lorrax_B/src/psp/run_sternheimer.py" source_line=930}
  %reshape.280 = s32[9,1]{1,0} reshape(%select.279), metadata={op_name="jit(_chi_at_q_jit)/jit(main)/jit(_build_stk_at_q)/broadcast_in_dim" source_file="/global/homes/j/jackm/software/lorrax_B/src/psp/run_sternheimer.py" source_line=930}
  %gather.281 = s32[9,1963]{1,0} gather(%Arg_7.212, %reshape.280), offset_dims={1}, collapsed_slice_dims={0}, start_index_map={0}, index_vector_dim=1, slice_sizes={1,1963}, metadata={op_name="jit(_chi_at_q_jit)/jit(main)/jit(_build_stk_at_q)/gather" source_file="/global/homes/j/jackm/software/lorrax_B/src/psp/run_sternheimer.py" source_line=930}
  %Arg_10.215 = c128[9,26,2,1963]{3,2,1,0} parameter(10), metadata={op_name="jit(_chi_at_q_jit)/jit(main)/pjit"}
  %compare.287 = pred[9]{0} compare(%Arg_1.206, %broadcast.256), direction=LT, metadata={op_name="jit(_chi_at_q_jit)/jit(main)/jit(_build_stk_at_q)/lt" source_file="/global/homes/j/jackm/software/lorrax_B/src/psp/run_sternheimer.py" source_line=932}
  %add.288 = s32[9]{0} add(%Arg_1.206, %broadcast.237), metadata={op_name="jit(_chi_at_q_jit)/jit(main)/jit(_build_stk_at_q)/add" source_file="/global/homes/j/jackm/software/lorrax_B/src/psp/run_sternheimer.py" source_line=932}
  %select.289 = s32[9]{0} select(%compare.287, %add.288, %Arg_1.206), metadata={op_name="jit(_chi_at_q_jit)/jit(main)/jit(_build_stk_at_q)/select_n" source_file="/global/homes/j/jackm/software/lorrax_B/src/psp/run_sternheimer.py" source_line=932}
  %reshape.290 = s32[9,1]{1,0} reshape(%select.289), metadata={op_name="jit(_chi_at_q_jit)/jit(main)/jit(_build_stk_at_q)/broadcast_in_dim" source_file="/global/homes/j/jackm/software/lorrax_B/src/psp/run_sternheimer.py" source_line=932}
  %gather.291 = c128[9,26,2,1963]{3,2,1,0} gather(%Arg_10.215, %reshape.290), offset_dims={1,2,3}, collapsed_slice_dims={0}, start_index_map={0}, index_vector_dim=1, slice_sizes={1,26,2,1963}, metadata={op_name="jit(_chi_at_q_jit)/jit(main)/jit(_build_stk_at_q)/gather" source_file="/global/homes/j/jackm/software/lorrax_B/src/psp/run_sternheimer.py" source_line=932}
  %Arg_2.207 = c128[24,24,80]{2,1,0} parameter(2), metadata={op_name="jit(_chi_at_q_jit)/jit(main)/pjit"}
  %reshape.455 = c128[1,24,24,80]{3,2,1,0} reshape(%Arg_2.207), metadata={op_name="jit(_chi_at_q_jit)/jit(main)/jit(_build_stk_at_q)/broadcast_in_dim" source_file="/global/homes/j/jackm/software/lorrax_B/src/psp/run_sternheimer.py" source_line=953}
  %broadcast.456 = c128[1,24,24,80]{3,2,1,0} broadcast(%reshape.455), dimensions={0,1,2,3}, metadata={op_name="jit(_chi_at_q_jit)/jit(main)/jit(_build_stk_at_q)/mul" source_file="/global/homes/j/jackm/software/lorrax_B/src/psp/run_sternheimer.py" source_line=953}
  %reshape.457 = c128[24,24,80]{2,1,0} reshape(%broadcast.456), metadata={op_name="jit(_chi_at_q_jit)/jit(main)/jit(_build_stk_at_q)/mul" source_file="/global/homes/j/jackm/software/lorrax_B/src/psp/run_sternheimer.py" source_line=953}
  %broadcast.458 = c128[9,24,24,80]{3,2,1,0} broadcast(%reshape.457), dimensions={1,2,3}, metadata={op_name="jit(_chi_at_q_jit)/jit(main)/jit(_build_stk_at_q)/mul" source_file="/global/homes/j/jackm/software/lorrax_B/src/psp/run_sternheimer.py" source_line=953}
  %Arg_9.214 = f64[9,3]{1,0} parameter(9), metadata={op_name="jit(_chi_at_q_jit)/jit(main)/pjit"}
  %Arg_0.205 = f64[3]{0} parameter(0), metadata={op_name="jit(_chi_at_q_jit)/jit(main)/pjit"}
  %reshape.297 = f64[1,3]{1,0} reshape(%Arg_0.205), metadata={op_name="jit(_chi_at_q_jit)/jit(main)/jit(_build_stk_at_q)/broadcast_in_dim" source_file="/global/homes/j/jackm/software/lorrax_B/src/psp/run_sternheimer.py" source_line=937}
  %broadcast.298 = f64[1,3]{1,0} broadcast(%reshape.297), dimensions={0,1}, metadata={op_name="jit(_chi_at_q_jit)/jit(main)/jit(_build_stk_at_q)/sub" source_file="/global/homes/j/jackm/software/lorrax_B/src/psp/run_sternheimer.py" source_line=937}
  %reshape.299 = f64[3]{0} reshape(%broadcast.298), metadata={op_name="jit(_chi_at_q_jit)/jit(main)/jit(_build_stk_at_q)/sub" source_file="/global/homes/j/jackm/software/lorrax_B/src/psp/run_sternheimer.py" source_line=937}
  %broadcast.300 = f64[9,3]{1,0} broadcast(%reshape.299), dimensions={1}, metadata={op_name="jit(_chi_at_q_jit)/jit(main)/jit(_build_stk_at_q)/sub" source_file="/global/homes/j/jackm/software/lorrax_B/src/psp/run_sternheimer.py" source_line=937}
  %subtract.301 = f64[9,3]{1,0} subtract(%Arg_9.214, %broadcast.300), metadata={op_name="jit(_chi_at_q_jit)/jit(main)/jit(_build_stk_at_q)/sub" source_file="/global/homes/j/jackm/software/lorrax_B/src/psp/run_sternheimer.py" source_line=937}
  %compare.292 = pred[9]{0} compare(%Arg_1.206, %broadcast.256), direction=LT, metadata={op_name="jit(_chi_at_q_jit)/jit(main)/jit(_build_stk_at_q)/lt" source_file="/global/homes/j/jackm/software/lorrax_B/src/psp/run_sternheimer.py" source_line=933}
  %add.293 = s32[9]{0} add(%Arg_1.206, %broadcast.237), metadata={op_name="jit(_chi_at_q_jit)/jit(main)/jit(_build_stk_at_q)/add" source_file="/global/homes/j/jackm/software/lorrax_B/src/psp/run_sternheimer.py" source_line=933}
  %select.294 = s32[9]{0} select(%compare.292, %add.293, %Arg_1.206), metadata={op_name="jit(_chi_at_q_jit)/jit(main)/jit(_build_stk_at_q)/select_n" source_file="/global/homes/j/jackm/software/lorrax_B/src/psp/run_sternheimer.py" source_line=933}
  %reshape.295 = s32[9,1]{1,0} reshape(%select.294), metadata={op_name="jit(_chi_at_q_jit)/jit(main)/jit(_build_stk_at_q)/broadcast_in_dim" source_file="/global/homes/j/jackm/software/lorrax_B/src/psp/run_sternheimer.py" source_line=933}
  %gather.296 = f64[9,3]{1,0} gather(%Arg_9.214, %reshape.295), offset_dims={1}, collapsed_slice_dims={0}, start_index_map={0}, index_vector_dim=1, slice_sizes={1,3}, metadata={op_name="jit(_chi_at_q_jit)/jit(main)/jit(_build_stk_at_q)/gather" source_file="/global/homes/j/jackm/software/lorrax_B/src/psp/run_sternheimer.py" source_line=933}
  %subtract.302 = f64[9,3]{1,0} subtract(%subtract.301, %gather.296), metadata={op_name="jit(_chi_at_q_jit)/jit(main)/jit(_build_stk_at_q)/sub" source_file="/global/homes/j/jackm/software/lorrax_B/src/psp/run_sternheimer.py" source_line=937}
  %call.303 = f64[9,3]{1,0} call(%subtract.302), to_apply=%round.71
  %convert.304 = s32[9,3]{1,0} convert(%call.303), metadata={op_name="jit(_chi_at_q_jit)/jit(main)/jit(_build_stk_at_q)/convert_element_type" source_file="/global/homes/j/jackm/software/lorrax_B/src/psp/run_sternheimer.py" source_line=937}
  %slice.311 = s32[9,1]{1,0} slice(%convert.304), slice={[0:9], [0:1]}, metadata={op_name="jit(_chi_at_q_jit)/jit(main)/jit(_build_stk_at_q)/slice" source_file="/global/homes/j/jackm/software/lorrax_B/src/psp/run_sternheimer.py" source_line=946}
  %reshape.312 = s32[9]{0} reshape(%slice.311), metadata={op_name="jit(_chi_at_q_jit)/jit(main)/jit(_build_stk_at_q)/squeeze" source_file="/global/homes/j/jackm/software/lorrax_B/src/psp/run_sternheimer.py" source_line=946}
  %convert.313 = f64[9]{0} convert(%reshape.312), metadata={op_name="jit(_chi_at_q_jit)/jit(main)/jit(_build_stk_at_q)/convert_element_type" source_file="/global/homes/j/jackm/software/lorrax_B/src/psp/run_sternheimer.py" source_line=946}
  %reshape.315 = f64[9,1,1,1]{3,2,1,0} reshape(%convert.313), metadata={op_name="jit(_chi_at_q_jit)/jit(main)/jit(_build_stk_at_q)/broadcast_in_dim" source_file="/global/homes/j/jackm/software/lorrax_B/src/psp/run_sternheimer.py" source_line=946}
  %broadcast.316 = f64[9,1,1,1]{3,2,1,0} broadcast(%reshape.315), dimensions={0,1,2,3}, metadata={op_name="jit(_chi_at_q_jit)/jit(main)/jit(_build_stk_at_q)/mul" source_file="/global/homes/j/jackm/software/lorrax_B/src/psp/run_sternheimer.py" source_line=946}
  %reshape.317 = f64[9,1,1]{2,1,0} reshape(%broadcast.316), metadata={op_name="jit(_chi_at_q_jit)/jit(main)/jit(_build_stk_at_q)/mul" source_file="/global/homes/j/jackm/software/lorrax_B/src/psp/run_sternheimer.py" source_line=946}
  %broadcast.318 = f64[9,24,1,1]{3,2,1,0} broadcast(%reshape.317), dimensions={0,2,3}, metadata={op_name="jit(_chi_at_q_jit)/jit(main)/jit(_build_stk_at_q)/mul" source_file="/global/homes/j/jackm/software/lorrax_B/src/psp/run_sternheimer.py" source_line=946}
  %iota.305 = f64[24]{0} iota(), iota_dimension=0, metadata={op_name="jit(_chi_at_q_jit)/jit(main)/jit(_build_stk_at_q)/iota" source_file="/global/homes/j/jackm/software/lorrax_B/src/psp/run_sternheimer.py" source_line=940}
  %constant.234 = f64[] constant(24)
  %broadcast.235 = f64[24]{0} broadcast(%constant.234), dimensions={}
  %divide.306 = f64[24]{0} divide(%iota.305, %broadcast.235), metadata={op_name="jit(_chi_at_q_jit)/jit(main)/jit(_build_stk_at_q)/div" source_file="/global/homes/j/jackm/software/lorrax_B/src/psp/run_sternheimer.py" source_line=940}
  %reshape.314 = f64[1,24,1,1]{3,2,1,0} reshape(%divide.306), metadata={op_name="jit(_chi_at_q_jit)/jit(main)/jit(_build_stk_at_q)/broadcast_in_dim" source_file="/global/homes/j/jackm/software/lorrax_B/src/psp/run_sternheimer.py" source_line=946}
  %broadcast.319 = f64[1,24,1,1]{3,2,1,0} broadcast(%reshape.314), dimensions={0,1,2,3}, metadata={op_name="jit(_chi_at_q_jit)/jit(main)/jit(_build_stk_at_q)/mul" source_file="/global/homes/j/jackm/software/lorrax_B/src/psp/run_sternheimer.py" source_line=946}
  %reshape.320 = f64[24,1,1]{2,1,0} reshape(%broadcast.319), metadata={op_name="jit(_chi_at_q_jit)/jit(main)/jit(_build_stk_at_q)/mul" source_file="/global/homes/j/jackm/software/lorrax_B/src/psp/run_sternheimer.py" source_line=946}
  %broadcast.321 = f64[9,24,1,1]{3,2,1,0} broadcast(%reshape.320), dimensions={1,2,3}, metadata={op_name="jit(_chi_at_q_jit)/jit(main)/jit(_build_stk_at_q)/mul" source_file="/global/homes/j/jackm/software/lorrax_B/src/psp/run_sternheimer.py" source_line=946}
  %multiply.322 = f64[9,24,1,1]{3,2,1,0} multiply(%broadcast.318, %broadcast.321), metadata={op_name="jit(_chi_at_q_jit)/jit(main)/jit(_build_stk_at_q)/mul" source_file="/global/homes/j/jackm/software/lorrax_B/src/psp/run_sternheimer.py" source_line=946}
  %broadcast.335 = f64[9,24,1,1]{3,2,1,0} broadcast(%multiply.322), dimensions={0,1,2,3}, metadata={op_name="jit(_chi_at_q_jit)/jit(main)/jit(_build_stk_at_q)/add" source_file="/global/homes/j/jackm/software/lorrax_B/src/psp/run_sternheimer.py" source_line=946}
  %reshape.336 = f64[9,24,1]{2,1,0} reshape(%broadcast.335), metadata={op_name="jit(_chi_at_q_jit)/jit(main)/jit(_build_stk_at_q)/add" source_file="/global/homes/j/jackm/software/lorrax_B/src/psp/run_sternheimer.py" source_line=946}
  %broadcast.337 = f64[9,24,24,1]{3,2,1,0} broadcast(%reshape.336), dimensions={0,1,3}, metadata={op_name="jit(_chi_at_q_jit)/jit(main)/jit(_build_stk_at_q)/add" source_file="/global/homes/j/jackm/software/lorrax_B/src/psp/run_sternheimer.py" source_line=946}
  %slice.323 = s32[9,1]{1,0} slice(%convert.304), slice={[0:9], [1:2]}, metadata={op_name="jit(_chi_at_q_jit)/jit(main)/jit(_build_stk_at_q)/slice" source_file="/global/homes/j/jackm/software/lorrax_B/src/psp/run_sternheimer.py" source_line=947}
  %reshape.324 = s32[9]{0} reshape(%slice.323), metadata={op_name="jit(_chi_at_q_jit)/jit(main)/jit(_build_stk_at_q)/squeeze" source_file="/global/homes/j/jackm/software/lorrax_B/src/psp/run_sternheimer.py" source_line=947}
  %convert.325 = f64[9]{0} convert(%reshape.324), metadata={op_name="jit(_chi_at_q_jit)/jit(main)/jit(_build_stk_at_q)/convert_element_type" source_file="/global/homes/j/jackm/software/lorrax_B/src/psp/run_sternheimer.py" source_line=947}
  %reshape.327 = f64[9,1,1,1]{3,2,1,0} reshape(%convert.325), metadata={op_name="jit(_chi_at_q_jit)/jit(main)/jit(_build_stk_at_q)/broadcast_in_dim" source_file="/global/homes/j/jackm/software/lorrax_B/src/psp/run_sternheimer.py" source_line=947}
  %broadcast.328 = f64[9,1,1,1]{3,2,1,0} broadcast(%reshape.327), dimensions={0,1,2,3}, metadata={op_name="jit(_chi_at_q_jit)/jit(main)/jit(_build_stk_at_q)/mul" source_file="/global/homes/j/jackm/software/lorrax_B/src/psp/run_sternheimer.py" source_line=947}
  %reshape.329 = f64[9,1,1]{2,1,0} reshape(%broadcast.328), metadata={op_name="jit(_chi_at_q_jit)/jit(main)/jit(_build_stk_at_q)/mul" source_file="/global/homes/j/jackm/software/lorrax_B/src/psp/run_sternheimer.py" source_line=947}
  %broadcast.330 = f64[9,1,24,1]{3,2,1,0} broadcast(%reshape.329), dimensions={0,1,3}, metadata={op_name="jit(_chi_at_q_jit)/jit(main)/jit(_build_stk_at_q)/mul" source_file="/global/homes/j/jackm/software/lorrax_B/src/psp/run_sternheimer.py" source_line=947}
  %iota.307 = f64[24]{0} iota(), iota_dimension=0, metadata={op_name="jit(_chi_at_q_jit)/jit(main)/jit(_build_stk_at_q)/iota" source_file="/global/homes/j/jackm/software/lorrax_B/src/psp/run_sternheimer.py" source_line=941}
  %divide.308 = f64[24]{0} divide(%iota.307, %broadcast.235), metadata={op_name="jit(_chi_at_q_jit)/jit(main)/jit(_build_stk_at_q)/div" source_file="/global/homes/j/jackm/software/lorrax_B/src/psp/run_sternheimer.py" source_line=941}
  %reshape.326 = f64[1,1,24,1]{3,2,1,0} reshape(%divide.308), metadata={op_name="jit(_chi_at_q_jit)/jit(main)/jit(_build_stk_at_q)/broadcast_in_dim" source_file="/global/homes/j/jackm/software/lorrax_B/src/psp/run_sternheimer.py" source_line=947}
  %broadcast.331 = f64[1,1,24,1]{3,2,1,0} broadcast(%reshape.326), dimensions={0,1,2,3}, metadata={op_name="jit(_chi_at_q_jit)/jit(main)/jit(_build_stk_at_q)/mul" source_file="/global/homes/j/jackm/software/lorrax_B/src/psp/run_sternheimer.py" source_line=947}
  %reshape.332 = f64[1,24,1]{2,1,0} reshape(%broadcast.331), metadata={op_name="jit(_chi_at_q_jit)/jit(main)/jit(_build_stk_at_q)/mul" source_file="/global/homes/j/jackm/software/lorrax_B/src/psp/run_sternheimer.py" source_line=947}
  %broadcast.333 = f64[9,1,24,1]{3,2,1,0} broadcast(%reshape.332), dimensions={1,2,3}, metadata={op_name="jit(_chi_at_q_jit)/jit(main)/jit(_build_stk_at_q)/mul" source_file="/global/homes/j/jackm/software/lorrax_B/src/psp/run_sternheimer.py" source_line=947}
  %multiply.334 = f64[9,1,24,1]{3,2,1,0} multiply(%broadcast.330, %broadcast.333), metadata={op_name="jit(_chi_at_q_jit)/jit(main)/jit(_build_stk_at_q)/mul" source_file="/global/homes/j/jackm/software/lorrax_B/src/psp/run_sternheimer.py" source_line=947}
  %broadcast.338 = f64[9,1,24,1]{3,2,1,0} broadcast(%multiply.334), dimensions={0,1,2,3}, metadata={op_name="jit(_chi_at_q_jit)/jit(main)/jit(_build_stk_at_q)/add" source_file="/global/homes/j/jackm/software/lorrax_B/src/psp/run_sternheimer.py" source_line=946}
  %reshape.339 = f64[9,24,1]{2,1,0} reshape(%broadcast.338), metadata={op_name="jit(_chi_at_q_jit)/jit(main)/jit(_build_stk_at_q)/add" source_file="/global/homes/j/jackm/software/lorrax_B/src/psp/run_sternheimer.py" source_line=946}
  %broadcast.340 = f64[9,24,24,1]{3,2,1,0} broadcast(%reshape.339), dimensions={0,2,3}, metadata={op_name="jit(_chi_at_q_jit)/jit(main)/jit(_build_stk_at_q)/add" source_file="/global/homes/j/jackm/software/lorrax_B/src/psp/run_sternheimer.py" source_line=946}
  %add.341 = f64[9,24,24,1]{3,2,1,0} add(%broadcast.337, %broadcast.340), metadata={op_name="jit(_chi_at_q_jit)/jit(main)/jit(_build_stk_at_q)/add" source_file="/global/homes/j/jackm/software/lorrax_B/src/psp/run_sternheimer.py" source_line=946}
  %broadcast.354 = f64[9,24,24,1]{3,2,1,0} broadcast(%add.341), dimensions={0,1,2,3}, metadata={op_name="jit(_chi_at_q_jit)/jit(main)/jit(_build_stk_at_q)/add" source_file="/global/homes/j/jackm/software/lorrax_B/src/psp/run_sternheimer.py" source_line=946}
  %reshape.355 = f64[9,24,24]{2,1,0} reshape(%broadcast.354), metadata={op_name="jit(_chi_at_q_jit)/jit(main)/jit(_build_stk_at_q)/add" source_file="/global/homes/j/jackm/software/lorrax_B/src/psp/run_sternheimer.py" source_line=946}
  %broadcast.356 = f64[9,24,24,80]{3,2,1,0} broadcast(%reshape.355), dimensions={0,1,2}, metadata={op_name="jit(_chi_at_q_jit)/jit(main)/jit(_build_stk_at_q)/add" source_file="/global/homes/j/jackm/software/lorrax_B/src/psp/run_sternheimer.py" source_line=946}
  %slice.342 = s32[9,1]{1,0} slice(%convert.304), slice={[0:9], [2:3]}, metadata={op_name="jit(_chi_at_q_jit)/jit(main)/jit(_build_stk_at_q)/slice" source_file="/global/homes/j/jackm/software/lorrax_B/src/psp/run_sternheimer.py" source_line=948}
  %reshape.343 = s32[9]{0} reshape(%slice.342), metadata={op_name="jit(_chi_at_q_jit)/jit(main)/jit(_build_stk_at_q)/squeeze" source_file="/global/homes/j/jackm/software/lorrax_B/src/psp/run_sternheimer.py" source_line=948}
  %convert.344 = f64[9]{0} convert(%reshape.343), metadata={op_name="jit(_chi_at_q_jit)/jit(main)/jit(_build_stk_at_q)/convert_element_type" source_file="/global/homes/j/jackm/software/lorrax_B/src/psp/run_sternheimer.py" source_line=948}
  %reshape.346 = f64[9,1,1,1]{3,2,1,0} reshape(%convert.344), metadata={op_name="jit(_chi_at_q_jit)/jit(main)/jit(_build_stk_at_q)/broadcast_in_dim" source_file="/global/homes/j/jackm/software/lorrax_B/src/psp/run_sternheimer.py" source_line=948}
  %broadcast.347 = f64[9,1,1,1]{3,2,1,0} broadcast(%reshape.346), dimensions={0,1,2,3}, metadata={op_name="jit(_chi_at_q_jit)/jit(main)/jit(_build_stk_at_q)/mul" source_file="/global/homes/j/jackm/software/lorrax_B/src/psp/run_sternheimer.py" source_line=948}
  %reshape.348 = f64[9,1,1]{2,1,0} reshape(%broadcast.347), metadata={op_name="jit(_chi_at_q_jit)/jit(main)/jit(_build_stk_at_q)/mul" source_file="/global/homes/j/jackm/software/lorrax_B/src/psp/run_sternheimer.py" source_line=948}
  %broadcast.349 = f64[9,1,1,80]{3,2,1,0} broadcast(%reshape.348), dimensions={0,1,2}, metadata={op_name="jit(_chi_at_q_jit)/jit(main)/jit(_build_stk_at_q)/mul" source_file="/global/homes/j/jackm/software/lorrax_B/src/psp/run_sternheimer.py" source_line=948}
  %iota.309 = f64[80]{0} iota(), iota_dimension=0, metadata={op_name="jit(_chi_at_q_jit)/jit(main)/jit(_build_stk_at_q)/iota" source_file="/global/homes/j/jackm/software/lorrax_B/src/psp/run_sternheimer.py" source_line=942}
  %constant.232 = f64[] constant(80)
  %broadcast.233 = f64[80]{0} broadcast(%constant.232), dimensions={}
  %divide.310 = f64[80]{0} divide(%iota.309, %broadcast.233), metadata={op_name="jit(_chi_at_q_jit)/jit(main)/jit(_build_stk_at_q)/div" source_file="/global/homes/j/jackm/software/lorrax_B/src/psp/run_sternheimer.py" source_line=942}
  %reshape.345 = f64[1,1,1,80]{3,2,1,0} reshape(%divide.310), metadata={op_name="jit(_chi_at_q_jit)/jit(main)/jit(_build_stk_at_q)/broadcast_in_dim" source_file="/global/homes/j/jackm/software/lorrax_B/src/psp/run_sternheimer.py" source_line=948}
  %broadcast.350 = f64[1,1,1,80]{3,2,1,0} broadcast(%reshape.345), dimensions={0,1,2,3}, metadata={op_name="jit(_chi_at_q_jit)/jit(main)/jit(_build_stk_at_q)/mul" source_file="/global/homes/j/jackm/software/lorrax_B/src/psp/run_sternheimer.py" source_line=948}
  %reshape.351 = f64[1,1,80]{2,1,0} reshape(%broadcast.350), metadata={op_name="jit(_chi_at_q_jit)/jit(main)/jit(_build_stk_at_q)/mul" source_file="/global/homes/j/jackm/software/lorrax_B/src/psp/run_sternheimer.py" source_line=948}
  %broadcast.352 = f64[9,1,1,80]{3,2,1,0} broadcast(%reshape.351), dimensions={1,2,3}, metadata={op_name="jit(_chi_at_q_jit)/jit(main)/jit(_build_stk_at_q)/mul" source_file="/global/homes/j/jackm/software/lorrax_B/src/psp/run_sternheimer.py" source_line=948}
  %multiply.353 = f64[9,1,1,80]{3,2,1,0} multiply(%broadcast.349, %broadcast.352), metadata={op_name="jit(_chi_at_q_jit)/jit(main)/jit(_build_stk_at_q)/mul" source_file="/global/homes/j/jackm/software/lorrax_B/src/psp/run_sternheimer.py" source_line=948}
  %broadcast.357 = f64[9,1,1,80]{3,2,1,0} broadcast(%multiply.353), dimensions={0,1,2,3}, metadata={op_name="jit(_chi_at_q_jit)/jit(main)/jit(_build_stk_at_q)/add" source_file="/global/homes/j/jackm/software/lorrax_B/src/psp/run_sternheimer.py" source_line=946}
  %reshape.358 = f64[9,80]{1,0} reshape(%broadcast.357), metadata={op_name="jit(_chi_at_q_jit)/jit(main)/jit(_build_stk_at_q)/add" source_file="/global/homes/j/jackm/software/lorrax_B/src/psp/run_sternheimer.py" source_line=946}
  %broadcast.359 = f64[9,24,24,80]{3,2,1,0} broadcast(%reshape.358), dimensions={0,3}, metadata={op_name="jit(_chi_at_q_jit)/jit(main)/jit(_build_stk_at_q)/add" source_file="/global/homes/j/jackm/software/lorrax_B/src/psp/run_sternheimer.py" source_line=946}
  %add.360 = f64[9,24,24,80]{3,2,1,0} add(%broadcast.356, %broadcast.359), metadata={op_name="jit(_chi_at_q_jit)/jit(main)/jit(_build_stk_at_q)/add" source_file="/global/homes/j/jackm/software/lorrax_B/src/psp/run_sternheimer.py" source_line=946}
  %constant.230 = f64[] constant(6.2831853071795862)
  %broadcast.231 = f64[9,24,24,80]{3,2,1,0} broadcast(%constant.230), dimensions={}
  %multiply.361 = f64[9,24,24,80]{3,2,1,0} multiply(%add.360, %broadcast.231), metadata={op_name="jit(_chi_at_q_jit)/jit(main)/jit(_build_stk_at_q)/mul" source_file="/global/homes/j/jackm/software/lorrax_B/src/psp/run_sternheimer.py" source_line=945}
  %convert.362 = c128[9,24,24,80]{3,2,1,0} convert(%multiply.361), metadata={op_name="jit(_chi_at_q_jit)/jit(main)/jit(_build_stk_at_q)/convert_element_type" source_file="/global/homes/j/jackm/software/lorrax_B/src/psp/run_sternheimer.py" source_line=949}
  %constant.228 = c128[] constant((0, 1))
  %broadcast.229 = c128[9,24,24,80]{3,2,1,0} broadcast(%constant.228), dimensions={}
  %multiply.363 = c128[9,24,24,80]{3,2,1,0} multiply(%convert.362, %broadcast.229), metadata={op_name="jit(_chi_at_q_jit)/jit(main)/jit(_build_stk_at_q)/mul" source_file="/global/homes/j/jackm/software/lorrax_B/src/psp/run_sternheimer.py" source_line=949}
  %real.364 = f64[9,24,24,80]{3,2,1,0} real(%multiply.363), metadata={op_name="jit(_chi_at_q_jit)/jit(main)/jit(_build_stk_at_q)/exp" source_file="/global/homes/j/jackm/software/lorrax_B/src/psp/run_sternheimer.py" source_line=949}
  %exponential.365 = f64[9,24,24,80]{3,2,1,0} exponential(%real.364), metadata={op_name="jit(_chi_at_q_jit)/jit(main)/jit(_build_stk_at_q)/exp" source_file="/global/homes/j/jackm/software/lorrax_B/src/psp/run_sternheimer.py" source_line=949}
  %constant.247 = f64[] constant(inf)
  %broadcast.248 = f64[9,24,24,80]{3,2,1,0} broadcast(%constant.247), dimensions={}
  %compare.366 = pred[9,24,24,80]{3,2,1,0} compare(%exponential.365, %broadcast.248), direction=EQ, metadata={op_name="jit(_chi_at_q_jit)/jit(main)/jit(_build_stk_at_q)/exp" source_file="/global/homes/j/jackm/software/lorrax_B/src/psp/run_sternheimer.py" source_line=949}
  %constant.245 = f64[] constant(0.5)
  %broadcast.246 = f64[9,24,24,80]{3,2,1,0} broadcast(%constant.245), dimensions={}
  %multiply.367 = f64[9,24,24,80]{3,2,1,0} multiply(%real.364, %broadcast.246), metadata={op_name="jit(_chi_at_q_jit)/jit(main)/jit(_build_stk_at_q)/exp" source_file="/global/homes/j/jackm/software/lorrax_B/src/psp/run_sternheimer.py" source_line=949}
  %exponential.368 = f64[9,24,24,80]{3,2,1,0} exponential(%multiply.367), metadata={op_name="jit(_chi_at_q_jit)/jit(main)/jit(_build_stk_at_q)/exp" source_file="/global/homes/j/jackm/software/lorrax_B/src/psp/run_sternheimer.py" source_line=949}
  %imag.369 = f64[9,24,24,80]{3,2,1,0} imag(%multiply.363), metadata={op_name="jit(_chi_at_q_jit)/jit(main)/jit(_build_stk_at_q)/exp" source_file="/global/homes/j/jackm/software/lorrax_B/src/psp/run_sternheimer.py" source_line=949}
  %cosine.370 = f64[9,24,24,80]{3,2,1,0} cosine(%imag.369), metadata={op_name="jit(_chi_at_q_jit)/jit(main)/jit(_build_stk_at_q)/exp" source_file="/global/homes/j/jackm/software/lorrax_B/src/psp/run_sternheimer.py" source_line=949}
  %multiply.371 = f64[9,24,24,80]{3,2,1,0} multiply(%exponential.368, %cosine.370), metadata={op_name="jit(_chi_at_q_jit)/jit(main)/jit(_build_stk_at_q)/exp" source_file="/global/homes/j/jackm/software/lorrax_B/src/psp/run_sternheimer.py" source_line=949}
  %multiply.372 = f64[9,24,24,80]{3,2,1,0} multiply(%multiply.371, %exponential.368), metadata={op_name="jit(_chi_at_q_jit)/jit(main)/jit(_build_stk_at_q)/exp" source_file="/global/homes/j/jackm/software/lorrax_B/src/psp/run_sternheimer.py" source_line=949}
  %multiply.373 = f64[9,24,24,80]{3,2,1,0} multiply(%exponential.365, %cosine.370), metadata={op_name="jit(_chi_at_q_jit)/jit(main)/jit(_build_stk_at_q)/exp" source_file="/global/homes/j/jackm/software/lorrax_B/src/psp/run_sternheimer.py" source_line=949}
  %select.374 = f64[9,24,24,80]{3,2,1,0} select(%compare.366, %multiply.372, %multiply.373), metadata={op_name="jit(_chi_at_q_jit)/jit(main)/jit(_build_stk_at_q)/exp" source_file="/global/homes/j/jackm/software/lorrax_B/src/psp/run_sternheimer.py" source_line=949}
  %constant.243 = f64[] constant(0)
  %broadcast.244 = f64[9,24,24,80]{3,2,1,0} broadcast(%constant.243), dimensions={}
  %compare.375 = pred[9,24,24,80]{3,2,1,0} compare(%imag.369, %broadcast.244), direction=EQ, metadata={op_name="jit(_chi_at_q_jit)/jit(main)/jit(_build_stk_at_q)/exp" source_file="/global/homes/j/jackm/software/lorrax_B/src/psp/run_sternheimer.py" source_line=949}
  %sine.376 = f64[9,24,24,80]{3,2,1,0} sine(%imag.369), metadata={op_name="jit(_chi_at_q_jit)/jit(main)/jit(_build_stk_at_q)/exp" source_file="/global/homes/j/jackm/software/lorrax_B/src/psp/run_sternheimer.py" source_line=949}
  %multiply.377 = f64[9,24,24,80]{3,2,1,0} multiply(%exponential.368, %sine.376), metadata={op_name="jit(_chi_at_q_jit)/jit(main)/jit(_build_stk_at_q)/exp" source_file="/global/homes/j/jackm/software/lorrax_B/src/psp/run_sternheimer.py" source_line=949}
  %multiply.378 = f64[9,24,24,80]{3,2,1,0} multiply(%multiply.377, %exponential.368), metadata={op_name="jit(_chi_at_q_jit)/jit(main)/jit(_build_stk_at_q)/exp" source_file="/global/homes/j/jackm/software/lorrax_B/src/psp/run_sternheimer.py" source_line=949}
  %multiply.379 = f64[9,24,24,80]{3,2,1,0} multiply(%exponential.365, %sine.376), metadata={op_name="jit(_chi_at_q_jit)/jit(main)/jit(_build_stk_at_q)/exp" source_file="/global/homes/j/jackm/software/lorrax_B/src/psp/run_sternheimer.py" source_line=949}
  %select.380 = f64[9,24,24,80]{3,2,1,0} select(%compare.366, %multiply.378, %multiply.379), metadata={op_name="jit(_chi_at_q_jit)/jit(main)/jit(_build_stk_at_q)/exp" source_file="/global/homes/j/jackm/software/lorrax_B/src/psp/run_sternheimer.py" source_line=949}
  %select.381 = f64[9,24,24,80]{3,2,1,0} select(%compare.375, %broadcast.244, %select.380), metadata={op_name="jit(_chi_at_q_jit)/jit(main)/jit(_build_stk_at_q)/exp" source_file="/global/homes/j/jackm/software/lorrax_B/src/psp/run_sternheimer.py" source_line=949}
  %complex.382 = c128[9,24,24,80]{3,2,1,0} complex(%select.374, %select.381), metadata={op_name="jit(_chi_at_q_jit)/jit(main)/jit(_build_stk_at_q)/exp" source_file="/global/homes/j/jackm/software/lorrax_B/src/psp/run_sternheimer.py" source_line=949}
  %multiply.459 = c128[9,24,24,80]{3,2,1,0} multiply(%broadcast.458, %complex.382), metadata={op_name="jit(_chi_at_q_jit)/jit(main)/jit(_build_stk_at_q)/mul" source_file="/global/homes/j/jackm/software/lorrax_B/src/psp/run_sternheimer.py" source_line=953}
  %reshape.557 = c128[9,1,1,24,24,80]{5,4,3,2,1,0} reshape(%multiply.459), metadata={op_name="jit(_chi_at_q_jit)/jit(main)/jit(_build_stk_at_q)/broadcast_in_dim" source_file="/global/homes/j/jackm/software/lorrax_B/src/psp/run_sternheimer.py" source_line=114}
  %broadcast.558 = c128[9,1,1,24,24,80]{5,4,3,2,1,0} broadcast(%reshape.557), dimensions={0,1,2,3,4,5}, metadata={op_name="jit(_chi_at_q_jit)/jit(main)/jit(_build_stk_at_q)/mul" source_file="/global/homes/j/jackm/software/lorrax_B/src/psp/run_sternheimer.py" source_line=114}
  %reshape.559 = c128[9,24,24,80]{3,2,1,0} reshape(%broadcast.558), metadata={op_name="jit(_chi_at_q_jit)/jit(main)/jit(_build_stk_at_q)/mul" source_file="/global/homes/j/jackm/software/lorrax_B/src/psp/run_sternheimer.py" source_line=114}
  %broadcast.560 = c128[9,26,2,24,24,80]{5,4,3,2,1,0} broadcast(%reshape.559), dimensions={0,3,4,5}, metadata={op_name="jit(_chi_at_q_jit)/jit(main)/jit(_build_stk_at_q)/mul" source_file="/global/homes/j/jackm/software/lorrax_B/src/psp/run_sternheimer.py" source_line=114}
  %Arg_12.217 = c128[9,26,2,24,24,80]{5,4,3,2,1,0} parameter(12), metadata={op_name="jit(_chi_at_q_jit)/jit(main)/pjit"}
  %call.460 = c128[9,26,2,24,24,80]{5,4,3,2,1,0} call(%Arg_12.217), to_apply=%fft.77
  %constant.254 = c128[3]{0} constant({(24, 0), (24, 0), (80, 0)})
  %constant.253 = c128[] constant((1, 0))
  %reduce.461 = c128[] reduce(%constant.254, %constant.253), dimensions={0}, to_apply=%region_0.80, metadata={op_name="jit(_chi_at_q_jit)/jit(main)/jit(_build_stk_at_q)/reduce_prod" source_file="/global/homes/j/jackm/software/lorrax_B/src/psp/run_sternheimer.py" source_line=113}
  %real.462 = f64[] real(%reduce.461), metadata={op_name="jit(_chi_at_q_jit)/jit(main)/jit(_build_stk_at_q)/sqrt" source_file="/global/homes/j/jackm/software/lorrax_B/src/psp/run_sternheimer.py" source_line=113}
  %constant.250 = f64[] constant(0)
  %compare.463 = pred[] compare(%real.462, %constant.250), direction=GE, metadata={op_name="jit(_chi_at_q_jit)/jit(main)/jit(_build_stk_at_q)/sqrt" source_file="/global/homes/j/jackm/software/lorrax_B/src/psp/run_sternheimer.py" source_line=113}
  %abs.464 = f64[] abs(%real.462), metadata={op_name="jit(_chi_at_q_jit)/jit(main)/jit(_build_stk_at_q)/sqrt" source_file="/global/homes/j/jackm/software/lorrax_B/src/psp/run_sternheimer.py" source_line=113}
  %imag.465 = f64[] imag(%reduce.461), metadata={op_name="jit(_chi_at_q_jit)/jit(main)/jit(_build_stk_at_q)/sqrt" source_file="/global/homes/j/jackm/software/lorrax_B/src/psp/run_sternheimer.py" source_line=113}
  %abs.466 = f64[] abs(%imag.465), metadata={op_name="jit(_chi_at_q_jit)/jit(main)/jit(_build_stk_at_q)/sqrt" source_file="/global/homes/j/jackm/software/lorrax_B/src/psp/run_sternheimer.py" source_line=113}
  %compare.467 = pred[] compare(%abs.464, %abs.466), direction=EQ, metadata={op_name="jit(_chi_at_q_jit)/jit(main)/jit(_build_stk_at_q)/sqrt" source_file="/global/homes/j/jackm/software/lorrax_B/src/psp/run_sternheimer.py" source_line=113}
  %sqrt.468 = f64[] sqrt(%abs.464), metadata={op_name="jit(_chi_at_q_jit)/jit(main)/jit(_build_stk_at_q)/sqrt" source_file="/global/homes/j/jackm/software/lorrax_B/src/psp/run_sternheimer.py" source_line=113}
  %constant.242 = f64[] constant(1.5537739740300374)
  %multiply.469 = f64[] multiply(%sqrt.468, %constant.242), metadata={op_name="jit(_chi_at_q_jit)/jit(main)/jit(_build_stk_at_q)/sqrt" source_file="/global/homes/j/jackm/software/lorrax_B/src/psp/run_sternheimer.py" source_line=113}
  %constant.241 = f64[] constant(1.4142135623730951)
  %divide.470 = f64[] divide(%multiply.469, %constant.241), metadata={op_name="jit(_chi_at_q_jit)/jit(main)/jit(_build_stk_at_q)/sqrt" source_file="/global/homes/j/jackm/software/lorrax_B/src/psp/run_sternheimer.py" source_line=113}
  %maximum.471 = f64[] maximum(%abs.464, %abs.466), metadata={op_name="jit(_chi_at_q_jit)/jit(main)/jit(_build_stk_at_q)/sqrt" source_file="/global/homes/j/jackm/software/lorrax_B/src/psp/run_sternheimer.py" source_line=113}
  %minimum.472 = f64[] minimum(%abs.464, %abs.466), metadata={op_name="jit(_chi_at_q_jit)/jit(main)/jit(_build_stk_at_q)/sqrt" source_file="/global/homes/j/jackm/software/lorrax_B/src/psp/run_sternheimer.py" source_line=113}
  %compare.473 = pred[] compare(%maximum.471, %minimum.472), direction=EQ, metadata={op_name="jit(_chi_at_q_jit)/jit(main)/jit(_build_stk_at_q)/sqrt" source_file="/global/homes/j/jackm/software/lorrax_B/src/psp/run_sternheimer.py" source_line=113}
  %multiply.474 = f64[] multiply(%maximum.471, %constant.241), metadata={op_name="jit(_chi_at_q_jit)/jit(main)/jit(_build_stk_at_q)/sqrt" source_file="/global/homes/j/jackm/software/lorrax_B/src/psp/run_sternheimer.py" source_line=113}
  %divide.475 = f64[] divide(%minimum.472, %maximum.471), metadata={op_name="jit(_chi_at_q_jit)/jit(main)/jit(_build_stk_at_q)/sqrt" source_file="/global/homes/j/jackm/software/lorrax_B/src/psp/run_sternheimer.py" source_line=113}
  %multiply.476 = f64[] multiply(%divide.475, %divide.475), metadata={op_name="jit(_chi_at_q_jit)/jit(main)/jit(_build_stk_at_q)/sqrt" source_file="/global/homes/j/jackm/software/lorrax_B/src/psp/run_sternheimer.py" source_line=113}
  %constant.249 = f64[] constant(1)
  %add.477 = f64[] add(%multiply.476, %constant.249), metadata={op_name="jit(_chi_at_q_jit)/jit(main)/jit(_build_stk_at_q)/sqrt" source_file="/global/homes/j/jackm/software/lorrax_B/src/psp/run_sternheimer.py" source_line=113}
  %sqrt.478 = f64[] sqrt(%add.477), metadata={op_name="jit(_chi_at_q_jit)/jit(main)/jit(_build_stk_at_q)/sqrt" source_file="/global/homes/j/jackm/software/lorrax_B/src/psp/run_sternheimer.py" source_line=113}
  %compare.479 = pred[] compare(%sqrt.478, %constant.249), direction=EQ, metadata={op_name="jit(_chi_at_q_jit)/jit(main)/jit(_build_stk_at_q)/sqrt" source_file="/global/homes/j/jackm/software/lorrax_B/src/psp/run_sternheimer.py" source_line=113}
  %compare.480 = pred[] compare(%multiply.476, %constant.250), direction=GT, metadata={op_name="jit(_chi_at_q_jit)/jit(main)/jit(_build_stk_at_q)/sqrt" source_file="/global/homes/j/jackm/software/lorrax_B/src/psp/run_sternheimer.py" source_line=113}
  %and.481 = pred[] and(%compare.479, %compare.480), metadata={op_name="jit(_chi_at_q_jit)/jit(main)/jit(_build_stk_at_q)/sqrt" source_file="/global/homes/j/jackm/software/lorrax_B/src/psp/run_sternheimer.py" source_line=113}
  %multiply.482 = f64[] multiply(%maximum.471, %multiply.476), metadata={op_name="jit(_chi_at_q_jit)/jit(main)/jit(_build_stk_at_q)/sqrt" source_file="/global/homes/j/jackm/software/lorrax_B/src/psp/run_sternheimer.py" source_line=113}
  %constant.240 = f64[] constant(2)
  %divide.483 = f64[] divide(%multiply.482, %constant.240), metadata={op_name="jit(_chi_at_q_jit)/jit(main)/jit(_build_stk_at_q)/sqrt" source_file="/global/homes/j/jackm/software/lorrax_B/src/psp/run_sternheimer.py" source_line=113}
  %add.484 = f64[] add(%maximum.471, %divide.483), metadata={op_name="jit(_chi_at_q_jit)/jit(main)/jit(_build_stk_at_q)/sqrt" source_file="/global/homes/j/jackm/software/lorrax_B/src/psp/run_sternheimer.py" source_line=113}
  %multiply.485 = f64[] multiply(%maximum.471, %sqrt.478), metadata={op_name="jit(_chi_at_q_jit)/jit(main)/jit(_build_stk_at_q)/sqrt" source_file="/global/homes/j/jackm/software/lorrax_B/src/psp/run_sternheimer.py" source_line=113}
  %select.486 = f64[] select(%and.481, %add.484, %multiply.485), metadata={op_name="jit(_chi_at_q_jit)/jit(main)/jit(_build_stk_at_q)/sqrt" source_file="/global/homes/j/jackm/software/lorrax_B/src/psp/run_sternheimer.py" source_line=113}
  %select.487 = f64[] select(%compare.473, %multiply.474, %select.486), metadata={op_name="jit(_chi_at_q_jit)/jit(main)/jit(_build_stk_at_q)/sqrt" source_file="/global/homes/j/jackm/software/lorrax_B/src/psp/run_sternheimer.py" source_line=113}
  %divide.488 = f64[] divide(%select.487, %constant.240), metadata={op_name="jit(_chi_at_q_jit)/jit(main)/jit(_build_stk_at_q)/sqrt" source_file="/global/homes/j/jackm/software/lorrax_B/src/psp/run_sternheimer.py" source_line=113}
  %divide.489 = f64[] divide(%abs.464, %constant.240), metadata={op_name="jit(_chi_at_q_jit)/jit(main)/jit(_build_stk_at_q)/sqrt" source_file="/global/homes/j/jackm/software/lorrax_B/src/psp/run_sternheimer.py" source_line=113}
  %add.490 = f64[] add(%divide.488, %divide.489), metadata={op_name="jit(_chi_at_q_jit)/jit(main)/jit(_build_stk_at_q)/sqrt" source_file="/global/homes/j/jackm/software/lorrax_B/src/psp/run_sternheimer.py" source_line=113}
  %sqrt.491 = f64[] sqrt(%add.490), metadata={op_name="jit(_chi_at_q_jit)/jit(main)/jit(_build_stk_at_q)/sqrt" source_file="/global/homes/j/jackm/software/lorrax_B/src/psp/run_sternheimer.py" source_line=113}
  %compare.492 = pred[] compare(%sqrt.491, %constant.250), direction=EQ, metadata={op_name="jit(_chi_at_q_jit)/jit(main)/jit(_build_stk_at_q)/sqrt" source_file="/global/homes/j/jackm/software/lorrax_B/src/psp/run_sternheimer.py" source_line=113}
  %constant.239 = f64[] constant(inf)
  %compare.493 = pred[] compare(%sqrt.491, %constant.239), direction=EQ, metadata={op_name="jit(_chi_at_q_jit)/jit(main)/jit(_build_stk_at_q)/sqrt" source_file="/global/homes/j/jackm/software/lorrax_B/src/psp/run_sternheimer.py" source_line=113}
  %or.494 = pred[] or(%compare.492, %compare.493), metadata={op_name="jit(_chi_at_q_jit)/jit(main)/jit(_build_stk_at_q)/sqrt" source_file="/global/homes/j/jackm/software/lorrax_B/src/psp/run_sternheimer.py" source_line=113}
  %compare.495 = pred[] compare(%abs.464, %abs.466), direction=GT, metadata={op_name="jit(_chi_at_q_jit)/jit(main)/jit(_build_stk_at_q)/sqrt" source_file="/global/homes/j/jackm/software/lorrax_B/src/psp/run_sternheimer.py" source_line=113}
  %compare.496 = pred[] compare(%abs.464, %abs.466), direction=LT, metadata={op_name="jit(_chi_at_q_jit)/jit(main)/jit(_build_stk_at_q)/sqrt" source_file="/global/homes/j/jackm/software/lorrax_B/src/psp/run_sternheimer.py" source_line=113}
  %divide.497 = f64[] divide(%abs.464, %abs.466), metadata={op_name="jit(_chi_at_q_jit)/jit(main)/jit(_build_stk_at_q)/sqrt" source_file="/global/homes/j/jackm/software/lorrax_B/src/psp/run_sternheimer.py" source_line=113}
  %divide.498 = f64[] divide(%abs.466, %abs.464), metadata={op_name="jit(_chi_at_q_jit)/jit(main)/jit(_build_stk_at_q)/sqrt" source_file="/global/homes/j/jackm/software/lorrax_B/src/psp/run_sternheimer.py" source_line=113}
  %select.499 = f64[] select(%compare.496, %divide.497, %divide.498), metadata={op_name="jit(_chi_at_q_jit)/jit(main)/jit(_build_stk_at_q)/sqrt" source_file="/global/homes/j/jackm/software/lorrax_B/src/psp/run_sternheimer.py" source_line=113}
  %select.500 = f64[] select(%compare.467, %constant.249, %select.499), metadata={op_name="jit(_chi_at_q_jit)/jit(main)/jit(_build_stk_at_q)/sqrt" source_file="/global/homes/j/jackm/software/lorrax_B/src/psp/run_sternheimer.py" source_line=113}
  %abs.501 = f64[] abs(%select.500), metadata={op_name="jit(_chi_at_q_jit)/jit(main)/jit(_build_stk_at_q)/sqrt" source_file="/global/homes/j/jackm/software/lorrax_B/src/psp/run_sternheimer.py" source_line=113}
  %maximum.502 = f64[] maximum(%abs.501, %constant.249), metadata={op_name="jit(_chi_at_q_jit)/jit(main)/jit(_build_stk_at_q)/sqrt" source_file="/global/homes/j/jackm/software/lorrax_B/src/psp/run_sternheimer.py" source_line=113}
  %minimum.503 = f64[] minimum(%abs.501, %constant.249), metadata={op_name="jit(_chi_at_q_jit)/jit(main)/jit(_build_stk_at_q)/sqrt" source_file="/global/homes/j/jackm/software/lorrax_B/src/psp/run_sternheimer.py" source_line=113}
  %compare.504 = pred[] compare(%maximum.502, %minimum.503), direction=EQ, metadata={op_name="jit(_chi_at_q_jit)/jit(main)/jit(_build_stk_at_q)/sqrt" source_file="/global/homes/j/jackm/software/lorrax_B/src/psp/run_sternheimer.py" source_line=113}
  %multiply.505 = f64[] multiply(%maximum.502, %constant.241), metadata={op_name="jit(_chi_at_q_jit)/jit(main)/jit(_build_stk_at_q)/sqrt" source_file="/global/homes/j/jackm/software/lorrax_B/src/psp/run_sternheimer.py" source_line=113}
  %divide.506 = f64[] divide(%minimum.503, %maximum.502), metadata={op_name="jit(_chi_at_q_jit)/jit(main)/jit(_build_stk_at_q)/sqrt" source_file="/global/homes/j/jackm/software/lorrax_B/src/psp/run_sternheimer.py" source_line=113}
  %multiply.507 = f64[] multiply(%divide.506, %divide.506), metadata={op_name="jit(_chi_at_q_jit)/jit(main)/jit(_build_stk_at_q)/sqrt" source_file="/global/homes/j/jackm/software/lorrax_B/src/psp/run_sternheimer.py" source_line=113}
  %add.508 = f64[] add(%multiply.507, %constant.249), metadata={op_name="jit(_chi_at_q_jit)/jit(main)/jit(_build_stk_at_q)/sqrt" source_file="/global/homes/j/jackm/software/lorrax_B/src/psp/run_sternheimer.py" source_line=113}
  %sqrt.509 = f64[] sqrt(%add.508), metadata={op_name="jit(_chi_at_q_jit)/jit(main)/jit(_build_stk_at_q)/sqrt" source_file="/global/homes/j/jackm/software/lorrax_B/src/psp/run_sternheimer.py" source_line=113}
  %compare.510 = pred[] compare(%sqrt.509, %constant.249), direction=EQ, metadata={op_name="jit(_chi_at_q_jit)/jit(main)/jit(_build_stk_at_q)/sqrt" source_file="/global/homes/j/jackm/software/lorrax_B/src/psp/run_sternheimer.py" source_line=113}
  %compare.511 = pred[] compare(%multiply.507, %constant.250), direction=GT, metadata={op_name="jit(_chi_at_q_jit)/jit(main)/jit(_build_stk_at_q)/sqrt" source_file="/global/homes/j/jackm/software/lorrax_B/src/psp/run_sternheimer.py" source_line=113}
  %and.512 = pred[] and(%compare.510, %compare.511), metadata={op_name="jit(_chi_at_q_jit)/jit(main)/jit(_build_stk_at_q)/sqrt" source_file="/global/homes/j/jackm/software/lorrax_B/src/psp/run_sternheimer.py" source_line=113}
  %multiply.513 = f64[] multiply(%maximum.502, %multiply.507), metadata={op_name="jit(_chi_at_q_jit)/jit(main)/jit(_build_stk_at_q)/sqrt" source_file="/global/homes/j/jackm/software/lorrax_B/src/psp/run_sternheimer.py" source_line=113}
  %divide.514 = f64[] divide(%multiply.513, %constant.240), metadata={op_name="jit(_chi_at_q_jit)/jit(main)/jit(_build_stk_at_q)/sqrt" source_file="/global/homes/j/jackm/software/lorrax_B/src/psp/run_sternheimer.py" source_line=113}
  %add.515 = f64[] add(%maximum.502, %divide.514), metadata={op_name="jit(_chi_at_q_jit)/jit(main)/jit(_build_stk_at_q)/sqrt" source_file="/global/homes/j/jackm/software/lorrax_B/src/psp/run_sternheimer.py" source_line=113}
  %multiply.516 = f64[] multiply(%maximum.502, %sqrt.509), metadata={op_name="jit(_chi_at_q_jit)/jit(main)/jit(_build_stk_at_q)/sqrt" source_file="/global/homes/j/jackm/software/lorrax_B/src/psp/run_sternheimer.py" source_line=113}
  %select.517 = f64[] select(%and.512, %add.515, %multiply.516), metadata={op_name="jit(_chi_at_q_jit)/jit(main)/jit(_build_stk_at_q)/sqrt" source_file="/global/homes/j/jackm/software/lorrax_B/src/psp/run_sternheimer.py" source_line=113}
  %select.518 = f64[] select(%compare.504, %multiply.505, %select.517), metadata={op_name="jit(_chi_at_q_jit)/jit(main)/jit(_build_stk_at_q)/sqrt" source_file="/global/homes/j/jackm/software/lorrax_B/src/psp/run_sternheimer.py" source_line=113}
  %add.519 = f64[] add(%select.518, %constant.249), metadata={op_name="jit(_chi_at_q_jit)/jit(main)/jit(_build_stk_at_q)/sqrt" source_file="/global/homes/j/jackm/software/lorrax_B/src/psp/run_sternheimer.py" source_line=113}
  %sqrt.520 = f64[] sqrt(%add.519), metadata={op_name="jit(_chi_at_q_jit)/jit(main)/jit(_build_stk_at_q)/sqrt" source_file="/global/homes/j/jackm/software/lorrax_B/src/psp/run_sternheimer.py" source_line=113}
  %divide.521 = f64[] divide(%sqrt.520, %constant.241), metadata={op_name="jit(_chi_at_q_jit)/jit(main)/jit(_build_stk_at_q)/sqrt" source_file="/global/homes/j/jackm/software/lorrax_B/src/psp/run_sternheimer.py" source_line=113}
  %multiply.522 = f64[] multiply(%sqrt.468, %divide.521), metadata={op_name="jit(_chi_at_q_jit)/jit(main)/jit(_build_stk_at_q)/sqrt" source_file="/global/homes/j/jackm/software/lorrax_B/src/psp/run_sternheimer.py" source_line=113}
  %sqrt.523 = f64[] sqrt(%abs.466), metadata={op_name="jit(_chi_at_q_jit)/jit(main)/jit(_build_stk_at_q)/sqrt" source_file="/global/homes/j/jackm/software/lorrax_B/src/psp/run_sternheimer.py" source_line=113}
  %add.524 = f64[] add(%select.500, %select.518), metadata={op_name="jit(_chi_at_q_jit)/jit(main)/jit(_build_stk_at_q)/sqrt" source_file="/global/homes/j/jackm/software/lorrax_B/src/psp/run_sternheimer.py" source_line=113}
  %sqrt.525 = f64[] sqrt(%add.524), metadata={op_name="jit(_chi_at_q_jit)/jit(main)/jit(_build_stk_at_q)/sqrt" source_file="/global/homes/j/jackm/software/lorrax_B/src/psp/run_sternheimer.py" source_line=113}
  %divide.526 = f64[] divide(%sqrt.525, %constant.241), metadata={op_name="jit(_chi_at_q_jit)/jit(main)/jit(_build_stk_at_q)/sqrt" source_file="/global/homes/j/jackm/software/lorrax_B/src/psp/run_sternheimer.py" source_line=113}
  %multiply.527 = f64[] multiply(%sqrt.523, %divide.526), metadata={op_name="jit(_chi_at_q_jit)/jit(main)/jit(_build_stk_at_q)/sqrt" source_file="/global/homes/j/jackm/software/lorrax_B/src/psp/run_sternheimer.py" source_line=113}
  %select.528 = f64[] select(%compare.495, %multiply.522, %multiply.527), metadata={op_name="jit(_chi_at_q_jit)/jit(main)/jit(_build_stk_at_q)/sqrt" source_file="/global/homes/j/jackm/software/lorrax_B/src/psp/run_sternheimer.py" source_line=113}
  %select.529 = f64[] select(%or.494, %select.528, %sqrt.491), metadata={op_name="jit(_chi_at_q_jit)/jit(main)/jit(_build_stk_at_q)/sqrt" source_file="/global/homes/j/jackm/software/lorrax_B/src/psp/run_sternheimer.py" source_line=113}
  %select.530 = f64[] select(%compare.467, %divide.470, %select.529), metadata={op_name="jit(_chi_at_q_jit)/jit(main)/jit(_build_stk_at_q)/sqrt" source_file="/global/homes/j/jackm/software/lorrax_B/src/psp/run_sternheimer.py" source_line=113}
  %constant.238 = f64[] constant(2.19736822693562)
  %divide.531 = f64[] divide(%sqrt.523, %constant.238), metadata={op_name="jit(_chi_at_q_jit)/jit(main)/jit(_build_stk_at_q)/sqrt" source_file="/global/homes/j/jackm/software/lorrax_B/src/psp/run_sternheimer.py" source_line=113}
  %divide.532 = f64[] divide(%sqrt.468, %sqrt.523), metadata={op_name="jit(_chi_at_q_jit)/jit(main)/jit(_build_stk_at_q)/sqrt" source_file="/global/homes/j/jackm/software/lorrax_B/src/psp/run_sternheimer.py" source_line=113}
  %divide.533 = f64[] divide(%sqrt.523, %sqrt.468), metadata={op_name="jit(_chi_at_q_jit)/jit(main)/jit(_build_stk_at_q)/sqrt" source_file="/global/homes/j/jackm/software/lorrax_B/src/psp/run_sternheimer.py" source_line=113}
  %select.534 = f64[] select(%compare.496, %divide.532, %divide.533), metadata={op_name="jit(_chi_at_q_jit)/jit(main)/jit(_build_stk_at_q)/sqrt" source_file="/global/homes/j/jackm/software/lorrax_B/src/psp/run_sternheimer.py" source_line=113}
  %select.535 = f64[] select(%compare.467, %constant.249, %select.534), metadata={op_name="jit(_chi_at_q_jit)/jit(main)/jit(_build_stk_at_q)/sqrt" source_file="/global/homes/j/jackm/software/lorrax_B/src/psp/run_sternheimer.py" source_line=113}
  %multiply.536 = f64[] multiply(%sqrt.523, %select.535), metadata={op_name="jit(_chi_at_q_jit)/jit(main)/jit(_build_stk_at_q)/sqrt" source_file="/global/homes/j/jackm/software/lorrax_B/src/psp/run_sternheimer.py" source_line=113}
  %multiply.537 = f64[] multiply(%sqrt.520, %constant.241), metadata={op_name="jit(_chi_at_q_jit)/jit(main)/jit(_build_stk_at_q)/sqrt" source_file="/global/homes/j/jackm/software/lorrax_B/src/psp/run_sternheimer.py" source_line=113}
  %divide.538 = f64[] divide(%multiply.536, %multiply.537), metadata={op_name="jit(_chi_at_q_jit)/jit(main)/jit(_build_stk_at_q)/sqrt" source_file="/global/homes/j/jackm/software/lorrax_B/src/psp/run_sternheimer.py" source_line=113}
  %multiply.539 = f64[] multiply(%sqrt.525, %constant.241), metadata={op_name="jit(_chi_at_q_jit)/jit(main)/jit(_build_stk_at_q)/sqrt" source_file="/global/homes/j/jackm/software/lorrax_B/src/psp/run_sternheimer.py" source_line=113}
  %divide.540 = f64[] divide(%sqrt.523, %multiply.539), metadata={op_name="jit(_chi_at_q_jit)/jit(main)/jit(_build_stk_at_q)/sqrt" source_file="/global/homes/j/jackm/software/lorrax_B/src/psp/run_sternheimer.py" source_line=113}
  %select.541 = f64[] select(%compare.495, %divide.538, %divide.540), metadata={op_name="jit(_chi_at_q_jit)/jit(main)/jit(_build_stk_at_q)/sqrt" source_file="/global/homes/j/jackm/software/lorrax_B/src/psp/run_sternheimer.py" source_line=113}
  %multiply.542 = f64[] multiply(%sqrt.491, %constant.240), metadata={op_name="jit(_chi_at_q_jit)/jit(main)/jit(_build_stk_at_q)/sqrt" source_file="/global/homes/j/jackm/software/lorrax_B/src/psp/run_sternheimer.py" source_line=113}
  %divide.543 = f64[] divide(%abs.466, %multiply.542), metadata={op_name="jit(_chi_at_q_jit)/jit(main)/jit(_build_stk_at_q)/sqrt" source_file="/global/homes/j/jackm/software/lorrax_B/src/psp/run_sternheimer.py" source_line=113}
  %select.544 = f64[] select(%or.494, %select.541, %divide.543), metadata={op_name="jit(_chi_at_q_jit)/jit(main)/jit(_build_stk_at_q)/sqrt" source_file="/global/homes/j/jackm/software/lorrax_B/src/psp/run_sternheimer.py" source_line=113}
  %select.545 = f64[] select(%compare.467, %divide.531, %select.544), metadata={op_name="jit(_chi_at_q_jit)/jit(main)/jit(_build_stk_at_q)/sqrt" source_file="/global/homes/j/jackm/software/lorrax_B/src/psp/run_sternheimer.py" source_line=113}
  %select.546 = f64[] select(%compare.463, %select.530, %select.545), metadata={op_name="jit(_chi_at_q_jit)/jit(main)/jit(_build_stk_at_q)/sqrt" source_file="/global/homes/j/jackm/software/lorrax_B/src/psp/run_sternheimer.py" source_line=113}
  %compare.547 = pred[] compare(%real.462, %constant.250), direction=LT, metadata={op_name="jit(_chi_at_q_jit)/jit(main)/jit(_build_stk_at_q)/sqrt" source_file="/global/homes/j/jackm/software/lorrax_B/src/psp/run_sternheimer.py" source_line=113}
  %compare.548 = pred[] compare(%imag.465, %constant.250), direction=LT, metadata={op_name="jit(_chi_at_q_jit)/jit(main)/jit(_build_stk_at_q)/sqrt" source_file="/global/homes/j/jackm/software/lorrax_B/src/psp/run_sternheimer.py" source_line=113}
  %negate.549 = f64[] negate(%select.530), metadata={op_name="jit(_chi_at_q_jit)/jit(main)/jit(_build_stk_at_q)/sqrt" source_file="/global/homes/j/jackm/software/lorrax_B/src/psp/run_sternheimer.py" source_line=113}
  %select.550 = f64[] select(%compare.548, %negate.549, %select.530), metadata={op_name="jit(_chi_at_q_jit)/jit(main)/jit(_build_stk_at_q)/sqrt" source_file="/global/homes/j/jackm/software/lorrax_B/src/psp/run_sternheimer.py" source_line=113}
  %negate.551 = f64[] negate(%select.545), metadata={op_name="jit(_chi_at_q_jit)/jit(main)/jit(_build_stk_at_q)/sqrt" source_file="/global/homes/j/jackm/software/lorrax_B/src/psp/run_sternheimer.py" source_line=113}
  %select.552 = f64[] select(%compare.548, %negate.551, %select.545), metadata={op_name="jit(_chi_at_q_jit)/jit(main)/jit(_build_stk_at_q)/sqrt" source_file="/global/homes/j/jackm/software/lorrax_B/src/psp/run_sternheimer.py" source_line=113}
  %select.553 = f64[] select(%compare.547, %select.550, %select.552), metadata={op_name="jit(_chi_at_q_jit)/jit(main)/jit(_build_stk_at_q)/sqrt" source_file="/global/homes/j/jackm/software/lorrax_B/src/psp/run_sternheimer.py" source_line=113}
  %complex.554 = c128[] complex(%select.546, %select.553), metadata={op_name="jit(_chi_at_q_jit)/jit(main)/jit(_build_stk_at_q)/sqrt" source_file="/global/homes/j/jackm/software/lorrax_B/src/psp/run_sternheimer.py" source_line=113}
  %broadcast.555 = c128[9,26,2,24,24,80]{5,4,3,2,1,0} broadcast(%complex.554), dimensions={}, metadata={op_name="jit(_chi_at_q_jit)/jit(main)/jit(_build_stk_at_q)/mul" source_file="/global/homes/j/jackm/software/lorrax_B/src/psp/run_sternheimer.py" source_line=113}
  %multiply.556 = c128[9,26,2,24,24,80]{5,4,3,2,1,0} multiply(%call.460, %broadcast.555), metadata={op_name="jit(_chi_at_q_jit)/jit(main)/jit(_build_stk_at_q)/mul" source_file="/global/homes/j/jackm/software/lorrax_B/src/psp/run_sternheimer.py" source_line=113}
  %multiply.561 = c128[9,26,2,24,24,80]{5,4,3,2,1,0} multiply(%broadcast.560, %multiply.556), metadata={op_name="jit(_chi_at_q_jit)/jit(main)/jit(_build_stk_at_q)/mul" source_file="/global/homes/j/jackm/software/lorrax_B/src/psp/run_sternheimer.py" source_line=114}
  %call.562 = c128[9,26,2,24,24,80]{5,4,3,2,1,0} call(%multiply.561), to_apply=%fft_1.87
  %reduce.563 = c128[] reduce(%constant.254, %constant.253), dimensions={0}, to_apply=%region_1.90, metadata={op_name="jit(_chi_at_q_jit)/jit(main)/jit(_build_stk_at_q)/reduce_prod" source_file="/global/homes/j/jackm/software/lorrax_B/src/psp/run_sternheimer.py" source_line=115}
  %real.564 = f64[] real(%reduce.563), metadata={op_name="jit(_chi_at_q_jit)/jit(main)/jit(_build_stk_at_q)/sqrt" source_file="/global/homes/j/jackm/software/lorrax_B/src/psp/run_sternheimer.py" source_line=115}
  %compare.565 = pred[] compare(%real.564, %constant.250), direction=GE, metadata={op_name="jit(_chi_at_q_jit)/jit(main)/jit(_build_stk_at_q)/sqrt" source_file="/global/homes/j/jackm/software/lorrax_B/src/psp/run_sternheimer.py" source_line=115}
  %abs.566 = f64[] abs(%real.564), metadata={op_name="jit(_chi_at_q_jit)/jit(main)/jit(_build_stk_at_q)/sqrt" source_file="/global/homes/j/jackm/software/lorrax_B/src/psp/run_sternheimer.py" source_line=115}
  %imag.567 = f64[] imag(%reduce.563), metadata={op_name="jit(_chi_at_q_jit)/jit(main)/jit(_build_stk_at_q)/sqrt" source_file="/global/homes/j/jackm/software/lorrax_B/src/psp/run_sternheimer.py" source_line=115}
  %abs.568 = f64[] abs(%imag.567), metadata={op_name="jit(_chi_at_q_jit)/jit(main)/jit(_build_stk_at_q)/sqrt" source_file="/global/homes/j/jackm/software/lorrax_B/src/psp/run_sternheimer.py" source_line=115}
  %compare.569 = pred[] compare(%abs.566, %abs.568), direction=EQ, metadata={op_name="jit(_chi_at_q_jit)/jit(main)/jit(_build_stk_at_q)/sqrt" source_file="/global/homes/j/jackm/software/lorrax_B/src/psp/run_sternheimer.py" source_line=115}
  %sqrt.570 = f64[] sqrt(%abs.566), metadata={op_name="jit(_chi_at_q_jit)/jit(main)/jit(_build_stk_at_q)/sqrt" source_file="/global/homes/j/jackm/software/lorrax_B/src/psp/run_sternheimer.py" source_line=115}
  %multiply.571 = f64[] multiply(%sqrt.570, %constant.242), metadata={op_name="jit(_chi_at_q_jit)/jit(main)/jit(_build_stk_at_q)/sqrt" source_file="/global/homes/j/jackm/software/lorrax_B/src/psp/run_sternheimer.py" source_line=115}
  %divide.572 = f64[] divide(%multiply.571, %constant.241), metadata={op_name="jit(_chi_at_q_jit)/jit(main)/jit(_build_stk_at_q)/sqrt" source_file="/global/homes/j/jackm/software/lorrax_B/src/psp/run_sternheimer.py" source_line=115}
  %maximum.573 = f64[] maximum(%abs.566, %abs.568), metadata={op_name="jit(_chi_at_q_jit)/jit(main)/jit(_build_stk_at_q)/sqrt" source_file="/global/homes/j/jackm/software/lorrax_B/src/psp/run_sternheimer.py" source_line=115}
  %minimum.574 = f64[] minimum(%abs.566, %abs.568), metadata={op_name="jit(_chi_at_q_jit)/jit(main)/jit(_build_stk_at_q)/sqrt" source_file="/global/homes/j/jackm/software/lorrax_B/src/psp/run_sternheimer.py" source_line=115}
  %compare.575 = pred[] compare(%maximum.573, %minimum.574), direction=EQ, metadata={op_name="jit(_chi_at_q_jit)/jit(main)/jit(_build_stk_at_q)/sqrt" source_file="/global/homes/j/jackm/software/lorrax_B/src/psp/run_sternheimer.py" source_line=115}
  %multiply.576 = f64[] multiply(%maximum.573, %constant.241), metadata={op_name="jit(_chi_at_q_jit)/jit(main)/jit(_build_stk_at_q)/sqrt" source_file="/global/homes/j/jackm/software/lorrax_B/src/psp/run_sternheimer.py" source_line=115}
  %divide.577 = f64[] divide(%minimum.574, %maximum.573), metadata={op_name="jit(_chi_at_q_jit)/jit(main)/jit(_build_stk_at_q)/sqrt" source_file="/global/homes/j/jackm/software/lorrax_B/src/psp/run_sternheimer.py" source_line=115}
  %multiply.578 = f64[] multiply(%divide.577, %divide.577), metadata={op_name="jit(_chi_at_q_jit)/jit(main)/jit(_build_stk_at_q)/sqrt" source_file="/global/homes/j/jackm/software/lorrax_B/src/psp/run_sternheimer.py" source_line=115}
  %add.579 = f64[] add(%multiply.578, %constant.249), metadata={op_name="jit(_chi_at_q_jit)/jit(main)/jit(_build_stk_at_q)/sqrt" source_file="/global/homes/j/jackm/software/lorrax_B/src/psp/run_sternheimer.py" source_line=115}
  %sqrt.580 = f64[] sqrt(%add.579), metadata={op_name="jit(_chi_at_q_jit)/jit(main)/jit(_build_stk_at_q)/sqrt" source_file="/global/homes/j/jackm/software/lorrax_B/src/psp/run_sternheimer.py" source_line=115}
  %compare.581 = pred[] compare(%sqrt.580, %constant.249), direction=EQ, metadata={op_name="jit(_chi_at_q_jit)/jit(main)/jit(_build_stk_at_q)/sqrt" source_file="/global/homes/j/jackm/software/lorrax_B/src/psp/run_sternheimer.py" source_line=115}
  %compare.582 = pred[] compare(%multiply.578, %constant.250), direction=GT, metadata={op_name="jit(_chi_at_q_jit)/jit(main)/jit(_build_stk_at_q)/sqrt" source_file="/global/homes/j/jackm/software/lorrax_B/src/psp/run_sternheimer.py" source_line=115}
  %and.583 = pred[] and(%compare.581, %compare.582), metadata={op_name="jit(_chi_at_q_jit)/jit(main)/jit(_build_stk_at_q)/sqrt" source_file="/global/homes/j/jackm/software/lorrax_B/src/psp/run_sternheimer.py" source_line=115}
  %multiply.584 = f64[] multiply(%maximum.573, %multiply.578), metadata={op_name="jit(_chi_at_q_jit)/jit(main)/jit(_build_stk_at_q)/sqrt" source_file="/global/homes/j/jackm/software/lorrax_B/src/psp/run_sternheimer.py" source_line=115}
  %divide.585 = f64[] divide(%multiply.584, %constant.240), metadata={op_name="jit(_chi_at_q_jit)/jit(main)/jit(_build_stk_at_q)/sqrt" source_file="/global/homes/j/jackm/software/lorrax_B/src/psp/run_sternheimer.py" source_line=115}
  %add.586 = f64[] add(%maximum.573, %divide.585), metadata={op_name="jit(_chi_at_q_jit)/jit(main)/jit(_build_stk_at_q)/sqrt" source_file="/global/homes/j/jackm/software/lorrax_B/src/psp/run_sternheimer.py" source_line=115}
  %multiply.587 = f64[] multiply(%maximum.573, %sqrt.580), metadata={op_name="jit(_chi_at_q_jit)/jit(main)/jit(_build_stk_at_q)/sqrt" source_file="/global/homes/j/jackm/software/lorrax_B/src/psp/run_sternheimer.py" source_line=115}
  %select.588 = f64[] select(%and.583, %add.586, %multiply.587), metadata={op_name="jit(_chi_at_q_jit)/jit(main)/jit(_build_stk_at_q)/sqrt" source_file="/global/homes/j/jackm/software/lorrax_B/src/psp/run_sternheimer.py" source_line=115}
  %select.589 = f64[] select(%compare.575, %multiply.576, %select.588), metadata={op_name="jit(_chi_at_q_jit)/jit(main)/jit(_build_stk_at_q)/sqrt" source_file="/global/homes/j/jackm/software/lorrax_B/src/psp/run_sternheimer.py" source_line=115}
  %divide.590 = f64[] divide(%select.589, %constant.240), metadata={op_name="jit(_chi_at_q_jit)/jit(main)/jit(_build_stk_at_q)/sqrt" source_file="/global/homes/j/jackm/software/lorrax_B/src/psp/run_sternheimer.py" source_line=115}
  %divide.591 = f64[] divide(%abs.566, %constant.240), metadata={op_name="jit(_chi_at_q_jit)/jit(main)/jit(_build_stk_at_q)/sqrt" source_file="/global/homes/j/jackm/software/lorrax_B/src/psp/run_sternheimer.py" source_line=115}
  %add.592 = f64[] add(%divide.590, %divide.591), metadata={op_name="jit(_chi_at_q_jit)/jit(main)/jit(_build_stk_at_q)/sqrt" source_file="/global/homes/j/jackm/software/lorrax_B/src/psp/run_sternheimer.py" source_line=115}
  %sqrt.593 = f64[] sqrt(%add.592), metadata={op_name="jit(_chi_at_q_jit)/jit(main)/jit(_build_stk_at_q)/sqrt" source_file="/global/homes/j/jackm/software/lorrax_B/src/psp/run_sternheimer.py" source_line=115}
  %compare.594 = pred[] compare(%sqrt.593, %constant.250), direction=EQ, metadata={op_name="jit(_chi_at_q_jit)/jit(main)/jit(_build_stk_at_q)/sqrt" source_file="/global/homes/j/jackm/software/lorrax_B/src/psp/run_sternheimer.py" source_line=115}
  %compare.595 = pred[] compare(%sqrt.593, %constant.239), direction=EQ, metadata={op_name="jit(_chi_at_q_jit)/jit(main)/jit(_build_stk_at_q)/sqrt" source_file="/global/homes/j/jackm/software/lorrax_B/src/psp/run_sternheimer.py" source_line=115}
  %or.596 = pred[] or(%compare.594, %compare.595), metadata={op_name="jit(_chi_at_q_jit)/jit(main)/jit(_build_stk_at_q)/sqrt" source_file="/global/homes/j/jackm/software/lorrax_B/src/psp/run_sternheimer.py" source_line=115}
  %compare.597 = pred[] compare(%abs.566, %abs.568), direction=GT, metadata={op_name="jit(_chi_at_q_jit)/jit(main)/jit(_build_stk_at_q)/sqrt" source_file="/global/homes/j/jackm/software/lorrax_B/src/psp/run_sternheimer.py" source_line=115}
  %compare.598 = pred[] compare(%abs.566, %abs.568), direction=LT, metadata={op_name="jit(_chi_at_q_jit)/jit(main)/jit(_build_stk_at_q)/sqrt" source_file="/global/homes/j/jackm/software/lorrax_B/src/psp/run_sternheimer.py" source_line=115}
  %divide.599 = f64[] divide(%abs.566, %abs.568), metadata={op_name="jit(_chi_at_q_jit)/jit(main)/jit(_build_stk_at_q)/sqrt" source_file="/global/homes/j/jackm/software/lorrax_B/src/psp/run_sternheimer.py" source_line=115}
  %divide.600 = f64[] divide(%abs.568, %abs.566), metadata={op_name="jit(_chi_at_q_jit)/jit(main)/jit(_build_stk_at_q)/sqrt" source_file="/global/homes/j/jackm/software/lorrax_B/src/psp/run_sternheimer.py" source_line=115}
  %select.601 = f64[] select(%compare.598, %divide.599, %divide.600), metadata={op_name="jit(_chi_at_q_jit)/jit(main)/jit(_build_stk_at_q)/sqrt" source_file="/global/homes/j/jackm/software/lorrax_B/src/psp/run_sternheimer.py" source_line=115}
  %select.602 = f64[] select(%compare.569, %constant.249, %select.601), metadata={op_name="jit(_chi_at_q_jit)/jit(main)/jit(_build_stk_at_q)/sqrt" source_file="/global/homes/j/jackm/software/lorrax_B/src/psp/run_sternheimer.py" source_line=115}
  %abs.603 = f64[] abs(%select.602), metadata={op_name="jit(_chi_at_q_jit)/jit(main)/jit(_build_stk_at_q)/sqrt" source_file="/global/homes/j/jackm/software/lorrax_B/src/psp/run_sternheimer.py" source_line=115}
  %maximum.604 = f64[] maximum(%abs.603, %constant.249), metadata={op_name="jit(_chi_at_q_jit)/jit(main)/jit(_build_stk_at_q)/sqrt" source_file="/global/homes/j/jackm/software/lorrax_B/src/psp/run_sternheimer.py" source_line=115}
  %minimum.605 = f64[] minimum(%abs.603, %constant.249), metadata={op_name="jit(_chi_at_q_jit)/jit(main)/jit(_build_stk_at_q)/sqrt" source_file="/global/homes/j/jackm/software/lorrax_B/src/psp/run_sternheimer.py" source_line=115}
  %compare.606 = pred[] compare(%maximum.604, %minimum.605), direction=EQ, metadata={op_name="jit(_chi_at_q_jit)/jit(main)/jit(_build_stk_at_q)/sqrt" source_file="/global/homes/j/jackm/software/lorrax_B/src/psp/run_sternheimer.py" source_line=115}
  %multiply.607 = f64[] multiply(%maximum.604, %constant.241), metadata={op_name="jit(_chi_at_q_jit)/jit(main)/jit(_build_stk_at_q)/sqrt" source_file="/global/homes/j/jackm/software/lorrax_B/src/psp/run_sternheimer.py" source_line=115}
  %divide.608 = f64[] divide(%minimum.605, %maximum.604), metadata={op_name="jit(_chi_at_q_jit)/jit(main)/jit(_build_stk_at_q)/sqrt" source_file="/global/homes/j/jackm/software/lorrax_B/src/psp/run_sternheimer.py" source_line=115}
  %multiply.609 = f64[] multiply(%divide.608, %divide.608), metadata={op_name="jit(_chi_at_q_jit)/jit(main)/jit(_build_stk_at_q)/sqrt" source_file="/global/homes/j/jackm/software/lorrax_B/src/psp/run_sternheimer.py" source_line=115}
  %add.610 = f64[] add(%multiply.609, %constant.249), metadata={op_name="jit(_chi_at_q_jit)/jit(main)/jit(_build_stk_at_q)/sqrt" source_file="/global/homes/j/jackm/software/lorrax_B/src/psp/run_sternheimer.py" source_line=115}
  %sqrt.611 = f64[] sqrt(%add.610), metadata={op_name="jit(_chi_at_q_jit)/jit(main)/jit(_build_stk_at_q)/sqrt" source_file="/global/homes/j/jackm/software/lorrax_B/src/psp/run_sternheimer.py" source_line=115}
  %compare.612 = pred[] compare(%sqrt.611, %constant.249), direction=EQ, metadata={op_name="jit(_chi_at_q_jit)/jit(main)/jit(_build_stk_at_q)/sqrt" source_file="/global/homes/j/jackm/software/lorrax_B/src/psp/run_sternheimer.py" source_line=115}
  %compare.613 = pred[] compare(%multiply.609, %constant.250), direction=GT, metadata={op_name="jit(_chi_at_q_jit)/jit(main)/jit(_build_stk_at_q)/sqrt" source_file="/global/homes/j/jackm/software/lorrax_B/src/psp/run_sternheimer.py" source_line=115}
  %and.614 = pred[] and(%compare.612, %compare.613), metadata={op_name="jit(_chi_at_q_jit)/jit(main)/jit(_build_stk_at_q)/sqrt" source_file="/global/homes/j/jackm/software/lorrax_B/src/psp/run_sternheimer.py" source_line=115}
  %multiply.615 = f64[] multiply(%maximum.604, %multiply.609), metadata={op_name="jit(_chi_at_q_jit)/jit(main)/jit(_build_stk_at_q)/sqrt" source_file="/global/homes/j/jackm/software/lorrax_B/src/psp/run_sternheimer.py" source_line=115}
  %divide.616 = f64[] divide(%multiply.615, %constant.240), metadata={op_name="jit(_chi_at_q_jit)/jit(main)/jit(_build_stk_at_q)/sqrt" source_file="/global/homes/j/jackm/software/lorrax_B/src/psp/run_sternheimer.py" source_line=115}
  %add.617 = f64[] add(%maximum.604, %divide.616), metadata={op_name="jit(_chi_at_q_jit)/jit(main)/jit(_build_stk_at_q)/sqrt" source_file="/global/homes/j/jackm/software/lorrax_B/src/psp/run_sternheimer.py" source_line=115}
  %multiply.618 = f64[] multiply(%maximum.604, %sqrt.611), metadata={op_name="jit(_chi_at_q_jit)/jit(main)/jit(_build_stk_at_q)/sqrt" source_file="/global/homes/j/jackm/software/lorrax_B/src/psp/run_sternheimer.py" source_line=115}
  %select.619 = f64[] select(%and.614, %add.617, %multiply.618), metadata={op_name="jit(_chi_at_q_jit)/jit(main)/jit(_build_stk_at_q)/sqrt" source_file="/global/homes/j/jackm/software/lorrax_B/src/psp/run_sternheimer.py" source_line=115}
  %select.620 = f64[] select(%compare.606, %multiply.607, %select.619), metadata={op_name="jit(_chi_at_q_jit)/jit(main)/jit(_build_stk_at_q)/sqrt" source_file="/global/homes/j/jackm/software/lorrax_B/src/psp/run_sternheimer.py" source_line=115}
  %add.621 = f64[] add(%select.620, %constant.249), metadata={op_name="jit(_chi_at_q_jit)/jit(main)/jit(_build_stk_at_q)/sqrt" source_file="/global/homes/j/jackm/software/lorrax_B/src/psp/run_sternheimer.py" source_line=115}
  %sqrt.622 = f64[] sqrt(%add.621), metadata={op_name="jit(_chi_at_q_jit)/jit(main)/jit(_build_stk_at_q)/sqrt" source_file="/global/homes/j/jackm/software/lorrax_B/src/psp/run_sternheimer.py" source_line=115}
  %divide.623 = f64[] divide(%sqrt.622, %constant.241), metadata={op_name="jit(_chi_at_q_jit)/jit(main)/jit(_build_stk_at_q)/sqrt" source_file="/global/homes/j/jackm/software/lorrax_B/src/psp/run_sternheimer.py" source_line=115}
  %multiply.624 = f64[] multiply(%sqrt.570, %divide.623), metadata={op_name="jit(_chi_at_q_jit)/jit(main)/jit(_build_stk_at_q)/sqrt" source_file="/global/homes/j/jackm/software/lorrax_B/src/psp/run_sternheimer.py" source_line=115}
  %sqrt.625 = f64[] sqrt(%abs.568), metadata={op_name="jit(_chi_at_q_jit)/jit(main)/jit(_build_stk_at_q)/sqrt" source_file="/global/homes/j/jackm/software/lorrax_B/src/psp/run_sternheimer.py" source_line=115}
  %add.626 = f64[] add(%select.602, %select.620), metadata={op_name="jit(_chi_at_q_jit)/jit(main)/jit(_build_stk_at_q)/sqrt" source_file="/global/homes/j/jackm/software/lorrax_B/src/psp/run_sternheimer.py" source_line=115}
  %sqrt.627 = f64[] sqrt(%add.626), metadata={op_name="jit(_chi_at_q_jit)/jit(main)/jit(_build_stk_at_q)/sqrt" source_file="/global/homes/j/jackm/software/lorrax_B/src/psp/run_sternheimer.py" source_line=115}
  %divide.628 = f64[] divide(%sqrt.627, %constant.241), metadata={op_name="jit(_chi_at_q_jit)/jit(main)/jit(_build_stk_at_q)/sqrt" source_file="/global/homes/j/jackm/software/lorrax_B/src/psp/run_sternheimer.py" source_line=115}
  %multiply.629 = f64[] multiply(%sqrt.625, %divide.628), metadata={op_name="jit(_chi_at_q_jit)/jit(main)/jit(_build_stk_at_q)/sqrt" source_file="/global/homes/j/jackm/software/lorrax_B/src/psp/run_sternheimer.py" source_line=115}
  %select.630 = f64[] select(%compare.597, %multiply.624, %multiply.629), metadata={op_name="jit(_chi_at_q_jit)/jit(main)/jit(_build_stk_at_q)/sqrt" source_file="/global/homes/j/jackm/software/lorrax_B/src/psp/run_sternheimer.py" source_line=115}
  %select.631 = f64[] select(%or.596, %select.630, %sqrt.593), metadata={op_name="jit(_chi_at_q_jit)/jit(main)/jit(_build_stk_at_q)/sqrt" source_file="/global/homes/j/jackm/software/lorrax_B/src/psp/run_sternheimer.py" source_line=115}
  %select.632 = f64[] select(%compare.569, %divide.572, %select.631), metadata={op_name="jit(_chi_at_q_jit)/jit(main)/jit(_build_stk_at_q)/sqrt" source_file="/global/homes/j/jackm/software/lorrax_B/src/psp/run_sternheimer.py" source_line=115}
  %divide.633 = f64[] divide(%sqrt.625, %constant.238), metadata={op_name="jit(_chi_at_q_jit)/jit(main)/jit(_build_stk_at_q)/sqrt" source_file="/global/homes/j/jackm/software/lorrax_B/src/psp/run_sternheimer.py" source_line=115}
  %divide.634 = f64[] divide(%sqrt.570, %sqrt.625), metadata={op_name="jit(_chi_at_q_jit)/jit(main)/jit(_build_stk_at_q)/sqrt" source_file="/global/homes/j/jackm/software/lorrax_B/src/psp/run_sternheimer.py" source_line=115}
  %divide.635 = f64[] divide(%sqrt.625, %sqrt.570), metadata={op_name="jit(_chi_at_q_jit)/jit(main)/jit(_build_stk_at_q)/sqrt" source_file="/global/homes/j/jackm/software/lorrax_B/src/psp/run_sternheimer.py" source_line=115}
  %select.636 = f64[] select(%compare.598, %divide.634, %divide.635), metadata={op_name="jit(_chi_at_q_jit)/jit(main)/jit(_build_stk_at_q)/sqrt" source_file="/global/homes/j/jackm/software/lorrax_B/src/psp/run_sternheimer.py" source_line=115}
  %select.637 = f64[] select(%compare.569, %constant.249, %select.636), metadata={op_name="jit(_chi_at_q_jit)/jit(main)/jit(_build_stk_at_q)/sqrt" source_file="/global/homes/j/jackm/software/lorrax_B/src/psp/run_sternheimer.py" source_line=115}
  %multiply.638 = f64[] multiply(%sqrt.625, %select.637), metadata={op_name="jit(_chi_at_q_jit)/jit(main)/jit(_build_stk_at_q)/sqrt" source_file="/global/homes/j/jackm/software/lorrax_B/src/psp/run_sternheimer.py" source_line=115}
  %multiply.639 = f64[] multiply(%sqrt.622, %constant.241), metadata={op_name="jit(_chi_at_q_jit)/jit(main)/jit(_build_stk_at_q)/sqrt" source_file="/global/homes/j/jackm/software/lorrax_B/src/psp/run_sternheimer.py" source_line=115}
  %divide.640 = f64[] divide(%multiply.638, %multiply.639), metadata={op_name="jit(_chi_at_q_jit)/jit(main)/jit(_build_stk_at_q)/sqrt" source_file="/global/homes/j/jackm/software/lorrax_B/src/psp/run_sternheimer.py" source_line=115}
  %multiply.641 = f64[] multiply(%sqrt.627, %constant.241), metadata={op_name="jit(_chi_at_q_jit)/jit(main)/jit(_build_stk_at_q)/sqrt" source_file="/global/homes/j/jackm/software/lorrax_B/src/psp/run_sternheimer.py" source_line=115}
  %divide.642 = f64[] divide(%sqrt.625, %multiply.641), metadata={op_name="jit(_chi_at_q_jit)/jit(main)/jit(_build_stk_at_q)/sqrt" source_file="/global/homes/j/jackm/software/lorrax_B/src/psp/run_sternheimer.py" source_line=115}
  %select.643 = f64[] select(%compare.597, %divide.640, %divide.642), metadata={op_name="jit(_chi_at_q_jit)/jit(main)/jit(_build_stk_at_q)/sqrt" source_file="/global/homes/j/jackm/software/lorrax_B/src/psp/run_sternheimer.py" source_line=115}
  %multiply.644 = f64[] multiply(%sqrt.593, %constant.240), metadata={op_name="jit(_chi_at_q_jit)/jit(main)/jit(_build_stk_at_q)/sqrt" source_file="/global/homes/j/jackm/software/lorrax_B/src/psp/run_sternheimer.py" source_line=115}
  %divide.645 = f64[] divide(%abs.568, %multiply.644), metadata={op_name="jit(_chi_at_q_jit)/jit(main)/jit(_build_stk_at_q)/sqrt" source_file="/global/homes/j/jackm/software/lorrax_B/src/psp/run_sternheimer.py" source_line=115}
  %select.646 = f64[] select(%or.596, %select.643, %divide.645), metadata={op_name="jit(_chi_at_q_jit)/jit(main)/jit(_build_stk_at_q)/sqrt" source_file="/global/homes/j/jackm/software/lorrax_B/src/psp/run_sternheimer.py" source_line=115}
  %select.647 = f64[] select(%compare.569, %divide.633, %select.646), metadata={op_name="jit(_chi_at_q_jit)/jit(main)/jit(_build_stk_at_q)/sqrt" source_file="/global/homes/j/jackm/software/lorrax_B/src/psp/run_sternheimer.py" source_line=115}
  %select.648 = f64[] select(%compare.565, %select.632, %select.647), metadata={op_name="jit(_chi_at_q_jit)/jit(main)/jit(_build_stk_at_q)/sqrt" source_file="/global/homes/j/jackm/software/lorrax_B/src/psp/run_sternheimer.py" source_line=115}
  %compare.649 = pred[] compare(%real.564, %constant.250), direction=LT, metadata={op_name="jit(_chi_at_q_jit)/jit(main)/jit(_build_stk_at_q)/sqrt" source_file="/global/homes/j/jackm/software/lorrax_B/src/psp/run_sternheimer.py" source_line=115}
  %compare.650 = pred[] compare(%imag.567, %constant.250), direction=LT, metadata={op_name="jit(_chi_at_q_jit)/jit(main)/jit(_build_stk_at_q)/sqrt" source_file="/global/homes/j/jackm/software/lorrax_B/src/psp/run_sternheimer.py" source_line=115}
  %negate.651 = f64[] negate(%select.632), metadata={op_name="jit(_chi_at_q_jit)/jit(main)/jit(_build_stk_at_q)/sqrt" source_file="/global/homes/j/jackm/software/lorrax_B/src/psp/run_sternheimer.py" source_line=115}
  %select.652 = f64[] select(%compare.650, %negate.651, %select.632), metadata={op_name="jit(_chi_at_q_jit)/jit(main)/jit(_build_stk_at_q)/sqrt" source_file="/global/homes/j/jackm/software/lorrax_B/src/psp/run_sternheimer.py" source_line=115}
  %negate.653 = f64[] negate(%select.647), metadata={op_name="jit(_chi_at_q_jit)/jit(main)/jit(_build_stk_at_q)/sqrt" source_file="/global/homes/j/jackm/software/lorrax_B/src/psp/run_sternheimer.py" source_line=115}
  %select.654 = f64[] select(%compare.650, %negate.653, %select.647), metadata={op_name="jit(_chi_at_q_jit)/jit(main)/jit(_build_stk_at_q)/sqrt" source_file="/global/homes/j/jackm/software/lorrax_B/src/psp/run_sternheimer.py" source_line=115}
  %select.655 = f64[] select(%compare.649, %select.652, %select.654), metadata={op_name="jit(_chi_at_q_jit)/jit(main)/jit(_build_stk_at_q)/sqrt" source_file="/global/homes/j/jackm/software/lorrax_B/src/psp/run_sternheimer.py" source_line=115}
  %complex.656 = c128[] complex(%select.648, %select.655), metadata={op_name="jit(_chi_at_q_jit)/jit(main)/jit(_build_stk_at_q)/sqrt" source_file="/global/homes/j/jackm/software/lorrax_B/src/psp/run_sternheimer.py" source_line=115}
  %divide.657 = c128[] divide(%constant.253, %complex.656), metadata={op_name="jit(_chi_at_q_jit)/jit(main)/jit(_build_stk_at_q)/div" source_file="/global/homes/j/jackm/software/lorrax_B/src/psp/run_sternheimer.py" source_line=115}
  %broadcast.658 = c128[9,26,2,24,24,80]{5,4,3,2,1,0} broadcast(%divide.657), dimensions={}, metadata={op_name="jit(_chi_at_q_jit)/jit(main)/jit(_build_stk_at_q)/mul" source_file="/global/homes/j/jackm/software/lorrax_B/src/psp/run_sternheimer.py" source_line=115}
  %multiply.659 = c128[9,26,2,24,24,80]{5,4,3,2,1,0} multiply(%call.562, %broadcast.658), metadata={op_name="jit(_chi_at_q_jit)/jit(main)/jit(_build_stk_at_q)/mul" source_file="/global/homes/j/jackm/software/lorrax_B/src/psp/run_sternheimer.py" source_line=115}
  %slice.660 = s32[9,1963,1]{2,1,0} slice(%gather.286), slice={[0:9], [0:1963], [0:1]}, metadata={op_name="jit(_chi_at_q_jit)/jit(main)/jit(_build_stk_at_q)/slice" source_file="/global/homes/j/jackm/software/lorrax_B/src/psp/run_sternheimer.py" source_line=96}
  %reshape.661 = s32[9,1963]{1,0} reshape(%slice.660), metadata={op_name="jit(_chi_at_q_jit)/jit(main)/jit(_build_stk_at_q)/squeeze" source_file="/global/homes/j/jackm/software/lorrax_B/src/psp/run_sternheimer.py" source_line=96}
  %constant.252 = s64[] constant(24)
  %call.662 = s32[9,1963]{1,0} call(%reshape.661, %constant.252), to_apply=%remainder.99
  %constant.224 = s32[] constant(0)
  %broadcast.225 = s32[9,1963]{1,0} broadcast(%constant.224), dimensions={}
  %compare.669 = pred[9,1963]{1,0} compare(%call.662, %broadcast.225), direction=LT, metadata={op_name="jit(_chi_at_q_jit)/jit(main)/jit(_build_stk_at_q)/lt" source_file="/global/homes/j/jackm/software/lorrax_B/src/psp/run_sternheimer.py" source_line=99}
  %constant.222 = s32[] constant(24)
  %broadcast.223 = s32[9,1963]{1,0} broadcast(%constant.222), dimensions={}
  %add.670 = s32[9,1963]{1,0} add(%call.662, %broadcast.223), metadata={op_name="jit(_chi_at_q_jit)/jit(main)/jit(_build_stk_at_q)/add" source_file="/global/homes/j/jackm/software/lorrax_B/src/psp/run_sternheimer.py" source_line=99}
  %select.671 = s32[9,1963]{1,0} select(%compare.669, %add.670, %call.662), metadata={op_name="jit(_chi_at_q_jit)/jit(main)/jit(_build_stk_at_q)/select_n" source_file="/global/homes/j/jackm/software/lorrax_B/src/psp/run_sternheimer.py" source_line=99}
  %reshape.678 = s32[9,1963,1]{2,1,0} reshape(%select.671), metadata={op_name="jit(_chi_at_q_jit)/jit(main)/jit(_build_stk_at_q)/broadcast_in_dim" source_file="/global/homes/j/jackm/software/lorrax_B/src/psp/run_sternheimer.py" source_line=99}
  %slice.663 = s32[9,1963,1]{2,1,0} slice(%gather.286), slice={[0:9], [0:1963], [1:2]}, metadata={op_name="jit(_chi_at_q_jit)/jit(main)/jit(_build_stk_at_q)/slice" source_file="/global/homes/j/jackm/software/lorrax_B/src/psp/run_sternheimer.py" source_line=97}
  %reshape.664 = s32[9,1963]{1,0} reshape(%slice.663), metadata={op_name="jit(_chi_at_q_jit)/jit(main)/jit(_build_stk_at_q)/squeeze" source_file="/global/homes/j/jackm/software/lorrax_B/src/psp/run_sternheimer.py" source_line=97}
  %call.665 = s32[9,1963]{1,0} call(%reshape.664, %constant.252), to_apply=%remainder.125
  %compare.672 = pred[9,1963]{1,0} compare(%call.665, %broadcast.225), direction=LT, metadata={op_name="jit(_chi_at_q_jit)/jit(main)/jit(_build_stk_at_q)/lt" source_file="/global/homes/j/jackm/software/lorrax_B/src/psp/run_sternheimer.py" source_line=99}
  %add.673 = s32[9,1963]{1,0} add(%call.665, %broadcast.223), metadata={op_name="jit(_chi_at_q_jit)/jit(main)/jit(_build_stk_at_q)/add" source_file="/global/homes/j/jackm/software/lorrax_B/src/psp/run_sternheimer.py" source_line=99}
  %select.674 = s32[9,1963]{1,0} select(%compare.672, %add.673, %call.665), metadata={op_name="jit(_chi_at_q_jit)/jit(main)/jit(_build_stk_at_q)/select_n" source_file="/global/homes/j/jackm/software/lorrax_B/src/psp/run_sternheimer.py" source_line=99}
  %reshape.679 = s32[9,1963,1]{2,1,0} reshape(%select.674), metadata={op_name="jit(_chi_at_q_jit)/jit(main)/jit(_build_stk_at_q)/broadcast_in_dim" source_file="/global/homes/j/jackm/software/lorrax_B/src/psp/run_sternheimer.py" source_line=99}
  %slice.666 = s32[9,1963,1]{2,1,0} slice(%gather.286), slice={[0:9], [0:1963], [2:3]}, metadata={op_name="jit(_chi_at_q_jit)/jit(main)/jit(_build_stk_at_q)/slice" source_file="/global/homes/j/jackm/software/lorrax_B/src/psp/run_sternheimer.py" source_line=98}
  %reshape.667 = s32[9,1963]{1,0} reshape(%slice.666), metadata={op_name="jit(_chi_at_q_jit)/jit(main)/jit(_build_stk_at_q)/squeeze" source_file="/global/homes/j/jackm/software/lorrax_B/src/psp/run_sternheimer.py" source_line=98}
  %constant.251 = s64[] constant(80)
  %call.668 = s32[9,1963]{1,0} call(%reshape.667, %constant.251), to_apply=%remainder.151
  %compare.675 = pred[9,1963]{1,0} compare(%call.668, %broadcast.225), direction=LT, metadata={op_name="jit(_chi_at_q_jit)/jit(main)/jit(_build_stk_at_q)/lt" source_file="/global/homes/j/jackm/software/lorrax_B/src/psp/run_sternheimer.py" source_line=99}
  %constant.220 = s32[] constant(80)
  %broadcast.221 = s32[9,1963]{1,0} broadcast(%constant.220), dimensions={}
  %add.676 = s32[9,1963]{1,0} add(%call.668, %broadcast.221), metadata={op_name="jit(_chi_at_q_jit)/jit(main)/jit(_build_stk_at_q)/add" source_file="/global/homes/j/jackm/software/lorrax_B/src/psp/run_sternheimer.py" source_line=99}
  %select.677 = s32[9,1963]{1,0} select(%compare.675, %add.676, %call.668), metadata={op_name="jit(_chi_at_q_jit)/jit(main)/jit(_build_stk_at_q)/select_n" source_file="/global/homes/j/jackm/software/lorrax_B/src/psp/run_sternheimer.py" source_line=99}
  %reshape.680 = s32[9,1963,1]{2,1,0} reshape(%select.677), metadata={op_name="jit(_chi_at_q_jit)/jit(main)/jit(_build_stk_at_q)/broadcast_in_dim" source_file="/global/homes/j/jackm/software/lorrax_B/src/psp/run_sternheimer.py" source_line=99}
  %concatenate.681 = s32[9,1963,3]{2,1,0} concatenate(%reshape.678, %reshape.679, %reshape.680), dimensions={2}, metadata={op_name="jit(_chi_at_q_jit)/jit(main)/jit(_build_stk_at_q)/concatenate" source_file="/global/homes/j/jackm/software/lorrax_B/src/psp/run_sternheimer.py" source_line=99}
  %gather.682 = c128[9,26,2,1963]{3,2,1,0} gather(%multiply.659, %concatenate.681), offset_dims={1,2}, collapsed_slice_dims={3,4,5}, start_index_map={3,4,5}, operand_batching_dims={0}, start_indices_batching_dims={0}, index_vector_dim=2, slice_sizes={1,26,2,1,1,1}, metadata={op_name="jit(_chi_at_q_jit)/jit(main)/jit(_build_stk_at_q)/gather" source_file="/global/homes/j/jackm/software/lorrax_B/src/psp/run_sternheimer.py" source_line=99}
  %Arg_4.209 = pred[9,1963]{1,0} parameter(4), metadata={op_name="jit(_chi_at_q_jit)/jit(main)/pjit"}
  %compare.262 = pred[9]{0} compare(%Arg_1.206, %broadcast.256), direction=LT, metadata={op_name="jit(_chi_at_q_jit)/jit(main)/jit(_build_stk_at_q)/lt" source_file="/global/homes/j/jackm/software/lorrax_B/src/psp/run_sternheimer.py" source_line=927}
  %add.263 = s32[9]{0} add(%Arg_1.206, %broadcast.237), metadata={op_name="jit(_chi_at_q_jit)/jit(main)/jit(_build_stk_at_q)/add" source_file="/global/homes/j/jackm/software/lorrax_B/src/psp/run_sternheimer.py" source_line=927}
  %select.264 = s32[9]{0} select(%compare.262, %add.263, %Arg_1.206), metadata={op_name="jit(_chi_at_q_jit)/jit(main)/jit(_build_stk_at_q)/select_n" source_file="/global/homes/j/jackm/software/lorrax_B/src/psp/run_sternheimer.py" source_line=927}
  %reshape.265 = s32[9,1]{1,0} reshape(%select.264), metadata={op_name="jit(_chi_at_q_jit)/jit(main)/jit(_build_stk_at_q)/broadcast_in_dim" source_file="/global/homes/j/jackm/software/lorrax_B/src/psp/run_sternheimer.py" source_line=927}
  %gather.266 = pred[9,1963]{1,0} gather(%Arg_4.209, %reshape.265), offset_dims={1}, collapsed_slice_dims={0}, start_index_map={0}, index_vector_dim=1, slice_sizes={1,1963}, metadata={op_name="jit(_chi_at_q_jit)/jit(main)/jit(_build_stk_at_q)/gather" source_file="/global/homes/j/jackm/software/lorrax_B/src/psp/run_sternheimer.py" source_line=927}
  %reshape.683 = pred[9,1,1,1963]{3,2,1,0} reshape(%gather.266), metadata={op_name="jit(_chi_at_q_jit)/jit(main)/jit(_build_stk_at_q)/broadcast_in_dim" source_file="/global/homes/j/jackm/software/lorrax_B/src/psp/run_sternheimer.py" source_line=958}
  %convert.684 = c128[9,1,1,1963]{3,2,1,0} convert(%reshape.683), metadata={op_name="jit(_chi_at_q_jit)/jit(main)/jit(_build_stk_at_q)/convert_element_type" source_file="/global/homes/j/jackm/software/lorrax_B/src/psp/run_sternheimer.py" source_line=958}
  %broadcast.685 = c128[9,1,1,1963]{3,2,1,0} broadcast(%convert.684), dimensions={0,1,2,3}, metadata={op_name="jit(_chi_at_q_jit)/jit(main)/jit(_build_stk_at_q)/mul" source_file="/global/homes/j/jackm/software/lorrax_B/src/psp/run_sternheimer.py" source_line=958}
  %reshape.686 = c128[9,1963]{1,0} reshape(%broadcast.685), metadata={op_name="jit(_chi_at_q_jit)/jit(main)/jit(_build_stk_at_q)/mul" source_file="/global/homes/j/jackm/software/lorrax_B/src/psp/run_sternheimer.py" source_line=958}
  %broadcast.687 = c128[9,26,2,1963]{3,2,1,0} broadcast(%reshape.686), dimensions={0,3}, metadata={op_name="jit(_chi_at_q_jit)/jit(main)/jit(_build_stk_at_q)/mul" source_file="/global/homes/j/jackm/software/lorrax_B/src/psp/run_sternheimer.py" source_line=958}
  %multiply.688 = c128[9,26,2,1963]{3,2,1,0} multiply(%gather.682, %broadcast.687), metadata={op_name="jit(_chi_at_q_jit)/jit(main)/jit(_build_stk_at_q)/mul" source_file="/global/homes/j/jackm/software/lorrax_B/src/psp/run_sternheimer.py" source_line=958}
  %real.689 = f64[9,26,2,1963]{3,2,1,0} real(%gather.291), metadata={op_name="jit(_chi_at_q_jit)/jit(main)/jit(_build_stk_at_q)/real" source_file="/global/homes/j/jackm/software/lorrax_B/src/psp/run_sternheimer.py" source_line=965}
  %imag.690 = f64[9,26,2,1963]{3,2,1,0} imag(%gather.291), metadata={op_name="jit(_chi_at_q_jit)/jit(main)/jit(_build_stk_at_q)/imag" source_file="/global/homes/j/jackm/software/lorrax_B/src/psp/run_sternheimer.py" source_line=965}
  %negate.691 = f64[9,26,2,1963]{3,2,1,0} negate(%imag.690), metadata={op_name="jit(_chi_at_q_jit)/jit(main)/jit(_build_stk_at_q)/neg" source_file="/global/homes/j/jackm/software/lorrax_B/src/psp/run_sternheimer.py" source_line=965}
  %complex.692 = c128[9,26,2,1963]{3,2,1,0} complex(%real.689, %negate.691), metadata={op_name="jit(_chi_at_q_jit)/jit(main)/jit(_build_stk_at_q)/complex" source_file="/global/homes/j/jackm/software/lorrax_B/src/psp/run_sternheimer.py" source_line=965}
  %dot.693 = c128[9,26,26]{2,1,0} dot(%multiply.688, %complex.692), lhs_batch_dims={0}, lhs_contracting_dims={3,2}, rhs_batch_dims={0}, rhs_contracting_dims={3,2}, metadata={op_name="jit(_chi_at_q_jit)/jit(main)/jit(_build_stk_at_q)/vmap(msG,vsG->vm)/dot_general" source_file="/global/homes/j/jackm/software/lorrax_B/src/psp/run_sternheimer.py" source_line=964}
  %dot.694 = c128[9,26,2,1963]{3,2,1,0} dot(%dot.693, %gather.291), lhs_batch_dims={0}, lhs_contracting_dims={2}, rhs_batch_dims={0}, rhs_contracting_dims={1}, metadata={op_name="jit(_chi_at_q_jit)/jit(main)/jit(_build_stk_at_q)/vmap(vm,msG->vsG)/dot_general" source_file="/global/homes/j/jackm/software/lorrax_B/src/psp/run_sternheimer.py" source_line=966}
  %subtract.695 = c128[9,26,2,1963]{3,2,1,0} subtract(%multiply.688, %dot.694), metadata={op_name="jit(_chi_at_q_jit)/jit(main)/jit(_build_stk_at_q)/sub" source_file="/global/homes/j/jackm/software/lorrax_B/src/psp/run_sternheimer.py" source_line=966}
  %slice.383 = s32[9,1]{1,0} slice(%convert.304), slice={[0:9], [0:1]}, metadata={op_name="jit(_chi_at_q_jit)/jit(main)/jit(_build_stk_at_q)/slice" source_file="/global/homes/j/jackm/software/lorrax_B/src/psp/run_sternheimer.py" source_line=946}
  %reshape.384 = s32[9]{0} reshape(%slice.383), metadata={op_name="jit(_chi_at_q_jit)/jit(main)/jit(_build_stk_at_q)/squeeze" source_file="/global/homes/j/jackm/software/lorrax_B/src/psp/run_sternheimer.py" source_line=946}
  %convert.385 = f64[9]{0} convert(%reshape.384), metadata={op_name="jit(_chi_at_q_jit)/jit(main)/jit(_build_stk_at_q)/convert_element_type" source_file="/global/homes/j/jackm/software/lorrax_B/src/psp/run_sternheimer.py" source_line=946}
  %reshape.387 = f64[9,1,1,1]{3,2,1,0} reshape(%convert.385), metadata={op_name="jit(_chi_at_q_jit)/jit(main)/jit(_build_stk_at_q)/broadcast_in_dim" source_file="/global/homes/j/jackm/software/lorrax_B/src/psp/run_sternheimer.py" source_line=946}
  %broadcast.388 = f64[9,1,1,1]{3,2,1,0} broadcast(%reshape.387), dimensions={0,1,2,3}, metadata={op_name="jit(_chi_at_q_jit)/jit(main)/jit(_build_stk_at_q)/mul" source_file="/global/homes/j/jackm/software/lorrax_B/src/psp/run_sternheimer.py" source_line=946}
  %reshape.389 = f64[9,1,1]{2,1,0} reshape(%broadcast.388), metadata={op_name="jit(_chi_at_q_jit)/jit(main)/jit(_build_stk_at_q)/mul" source_file="/global/homes/j/jackm/software/lorrax_B/src/psp/run_sternheimer.py" source_line=946}
  %broadcast.390 = f64[9,24,1,1]{3,2,1,0} broadcast(%reshape.389), dimensions={0,2,3}, metadata={op_name="jit(_chi_at_q_jit)/jit(main)/jit(_build_stk_at_q)/mul" source_file="/global/homes/j/jackm/software/lorrax_B/src/psp/run_sternheimer.py" source_line=946}
  %reshape.386 = f64[1,24,1,1]{3,2,1,0} reshape(%divide.306), metadata={op_name="jit(_chi_at_q_jit)/jit(main)/jit(_build_stk_at_q)/broadcast_in_dim" source_file="/global/homes/j/jackm/software/lorrax_B/src/psp/run_sternheimer.py" source_line=946}
  %broadcast.391 = f64[1,24,1,1]{3,2,1,0} broadcast(%reshape.386), dimensions={0,1,2,3}, metadata={op_name="jit(_chi_at_q_jit)/jit(main)/jit(_build_stk_at_q)/mul" source_file="/global/homes/j/jackm/software/lorrax_B/src/psp/run_sternheimer.py" source_line=946}
  %reshape.392 = f64[24,1,1]{2,1,0} reshape(%broadcast.391), metadata={op_name="jit(_chi_at_q_jit)/jit(main)/jit(_build_stk_at_q)/mul" source_file="/global/homes/j/jackm/software/lorrax_B/src/psp/run_sternheimer.py" source_line=946}
  %broadcast.393 = f64[9,24,1,1]{3,2,1,0} broadcast(%reshape.392), dimensions={1,2,3}, metadata={op_name="jit(_chi_at_q_jit)/jit(main)/jit(_build_stk_at_q)/mul" source_file="/global/homes/j/jackm/software/lorrax_B/src/psp/run_sternheimer.py" source_line=946}
  %multiply.394 = f64[9,24,1,1]{3,2,1,0} multiply(%broadcast.390, %broadcast.393), metadata={op_name="jit(_chi_at_q_jit)/jit(main)/jit(_build_stk_at_q)/mul" source_file="/global/homes/j/jackm/software/lorrax_B/src/psp/run_sternheimer.py" source_line=946}
  %broadcast.407 = f64[9,24,1,1]{3,2,1,0} broadcast(%multiply.394), dimensions={0,1,2,3}, metadata={op_name="jit(_chi_at_q_jit)/jit(main)/jit(_build_stk_at_q)/add" source_file="/global/homes/j/jackm/software/lorrax_B/src/psp/run_sternheimer.py" source_line=946}
  %reshape.408 = f64[9,24,1]{2,1,0} reshape(%broadcast.407), metadata={op_name="jit(_chi_at_q_jit)/jit(main)/jit(_build_stk_at_q)/add" source_file="/global/homes/j/jackm/software/lorrax_B/src/psp/run_sternheimer.py" source_line=946}
  %broadcast.409 = f64[9,24,24,1]{3,2,1,0} broadcast(%reshape.408), dimensions={0,1,3}, metadata={op_name="jit(_chi_at_q_jit)/jit(main)/jit(_build_stk_at_q)/add" source_file="/global/homes/j/jackm/software/lorrax_B/src/psp/run_sternheimer.py" source_line=946}
  %slice.395 = s32[9,1]{1,0} slice(%convert.304), slice={[0:9], [1:2]}, metadata={op_name="jit(_chi_at_q_jit)/jit(main)/jit(_build_stk_at_q)/slice" source_file="/global/homes/j/jackm/software/lorrax_B/src/psp/run_sternheimer.py" source_line=947}
  %reshape.396 = s32[9]{0} reshape(%slice.395), metadata={op_name="jit(_chi_at_q_jit)/jit(main)/jit(_build_stk_at_q)/squeeze" source_file="/global/homes/j/jackm/software/lorrax_B/src/psp/run_sternheimer.py" source_line=947}
  %convert.397 = f64[9]{0} convert(%reshape.396), metadata={op_name="jit(_chi_at_q_jit)/jit(main)/jit(_build_stk_at_q)/convert_element_type" source_file="/global/homes/j/jackm/software/lorrax_B/src/psp/run_sternheimer.py" source_line=947}
  %reshape.399 = f64[9,1,1,1]{3,2,1,0} reshape(%convert.397), metadata={op_name="jit(_chi_at_q_jit)/jit(main)/jit(_build_stk_at_q)/broadcast_in_dim" source_file="/global/homes/j/jackm/software/lorrax_B/src/psp/run_sternheimer.py" source_line=947}
  %broadcast.400 = f64[9,1,1,1]{3,2,1,0} broadcast(%reshape.399), dimensions={0,1,2,3}, metadata={op_name="jit(_chi_at_q_jit)/jit(main)/jit(_build_stk_at_q)/mul" source_file="/global/homes/j/jackm/software/lorrax_B/src/psp/run_sternheimer.py" source_line=947}
  %reshape.401 = f64[9,1,1]{2,1,0} reshape(%broadcast.400), metadata={op_name="jit(_chi_at_q_jit)/jit(main)/jit(_build_stk_at_q)/mul" source_file="/global/homes/j/jackm/software/lorrax_B/src/psp/run_sternheimer.py" source_line=947}
  %broadcast.402 = f64[9,1,24,1]{3,2,1,0} broadcast(%reshape.401), dimensions={0,1,3}, metadata={op_name="jit(_chi_at_q_jit)/jit(main)/jit(_build_stk_at_q)/mul" source_file="/global/homes/j/jackm/software/lorrax_B/src/psp/run_sternheimer.py" source_line=947}
  %reshape.398 = f64[1,1,24,1]{3,2,1,0} reshape(%divide.308), metadata={op_name="jit(_chi_at_q_jit)/jit(main)/jit(_build_stk_at_q)/broadcast_in_dim" source_file="/global/homes/j/jackm/software/lorrax_B/src/psp/run_sternheimer.py" source_line=947}
  %broadcast.403 = f64[1,1,24,1]{3,2,1,0} broadcast(%reshape.398), dimensions={0,1,2,3}, metadata={op_name="jit(_chi_at_q_jit)/jit(main)/jit(_build_stk_at_q)/mul" source_file="/global/homes/j/jackm/software/lorrax_B/src/psp/run_sternheimer.py" source_line=947}
  %reshape.404 = f64[1,24,1]{2,1,0} reshape(%broadcast.403), metadata={op_name="jit(_chi_at_q_jit)/jit(main)/jit(_build_stk_at_q)/mul" source_file="/global/homes/j/jackm/software/lorrax_B/src/psp/run_sternheimer.py" source_line=947}
  %broadcast.405 = f64[9,1,24,1]{3,2,1,0} broadcast(%reshape.404), dimensions={1,2,3}, metadata={op_name="jit(_chi_at_q_jit)/jit(main)/jit(_build_stk_at_q)/mul" source_file="/global/homes/j/jackm/software/lorrax_B/src/psp/run_sternheimer.py" source_line=947}
  %multiply.406 = f64[9,1,24,1]{3,2,1,0} multiply(%broadcast.402, %broadcast.405), metadata={op_name="jit(_chi_at_q_jit)/jit(main)/jit(_build_stk_at_q)/mul" source_file="/global/homes/j/jackm/software/lorrax_B/src/psp/run_sternheimer.py" source_line=947}
  %broadcast.410 = f64[9,1,24,1]{3,2,1,0} broadcast(%multiply.406), dimensions={0,1,2,3}, metadata={op_name="jit(_chi_at_q_jit)/jit(main)/jit(_build_stk_at_q)/add" source_file="/global/homes/j/jackm/software/lorrax_B/src/psp/run_sternheimer.py" source_line=946}
  %reshape.411 = f64[9,24,1]{2,1,0} reshape(%broadcast.410), metadata={op_name="jit(_chi_at_q_jit)/jit(main)/jit(_build_stk_at_q)/add" source_file="/global/homes/j/jackm/software/lorrax_B/src/psp/run_sternheimer.py" source_line=946}
  %broadcast.412 = f64[9,24,24,1]{3,2,1,0} broadcast(%reshape.411), dimensions={0,2,3}, metadata={op_name="jit(_chi_at_q_jit)/jit(main)/jit(_build_stk_at_q)/add" source_file="/global/homes/j/jackm/software/lorrax_B/src/psp/run_sternheimer.py" source_line=946}
  %add.413 = f64[9,24,24,1]{3,2,1,0} add(%broadcast.409, %broadcast.412), metadata={op_name="jit(_chi_at_q_jit)/jit(main)/jit(_build_stk_at_q)/add" source_file="/global/homes/j/jackm/software/lorrax_B/src/psp/run_sternheimer.py" source_line=946}
  %broadcast.426 = f64[9,24,24,1]{3,2,1,0} broadcast(%add.413), dimensions={0,1,2,3}, metadata={op_name="jit(_chi_at_q_jit)/jit(main)/jit(_build_stk_at_q)/add" source_file="/global/homes/j/jackm/software/lorrax_B/src/psp/run_sternheimer.py" source_line=946}
  %reshape.427 = f64[9,24,24]{2,1,0} reshape(%broadcast.426), metadata={op_name="jit(_chi_at_q_jit)/jit(main)/jit(_build_stk_at_q)/add" source_file="/global/homes/j/jackm/software/lorrax_B/src/psp/run_sternheimer.py" source_line=946}
  %broadcast.428 = f64[9,24,24,80]{3,2,1,0} broadcast(%reshape.427), dimensions={0,1,2}, metadata={op_name="jit(_chi_at_q_jit)/jit(main)/jit(_build_stk_at_q)/add" source_file="/global/homes/j/jackm/software/lorrax_B/src/psp/run_sternheimer.py" source_line=946}
  %slice.414 = s32[9,1]{1,0} slice(%convert.304), slice={[0:9], [2:3]}, metadata={op_name="jit(_chi_at_q_jit)/jit(main)/jit(_build_stk_at_q)/slice" source_file="/global/homes/j/jackm/software/lorrax_B/src/psp/run_sternheimer.py" source_line=948}
  %reshape.415 = s32[9]{0} reshape(%slice.414), metadata={op_name="jit(_chi_at_q_jit)/jit(main)/jit(_build_stk_at_q)/squeeze" source_file="/global/homes/j/jackm/software/lorrax_B/src/psp/run_sternheimer.py" source_line=948}
  %convert.416 = f64[9]{0} convert(%reshape.415), metadata={op_name="jit(_chi_at_q_jit)/jit(main)/jit(_build_stk_at_q)/convert_element_type" source_file="/global/homes/j/jackm/software/lorrax_B/src/psp/run_sternheimer.py" source_line=948}
  %reshape.418 = f64[9,1,1,1]{3,2,1,0} reshape(%convert.416), metadata={op_name="jit(_chi_at_q_jit)/jit(main)/jit(_build_stk_at_q)/broadcast_in_dim" source_file="/global/homes/j/jackm/software/lorrax_B/src/psp/run_sternheimer.py" source_line=948}
  %broadcast.419 = f64[9,1,1,1]{3,2,1,0} broadcast(%reshape.418), dimensions={0,1,2,3}, metadata={op_name="jit(_chi_at_q_jit)/jit(main)/jit(_build_stk_at_q)/mul" source_file="/global/homes/j/jackm/software/lorrax_B/src/psp/run_sternheimer.py" source_line=948}
  %reshape.420 = f64[9,1,1]{2,1,0} reshape(%broadcast.419), metadata={op_name="jit(_chi_at_q_jit)/jit(main)/jit(_build_stk_at_q)/mul" source_file="/global/homes/j/jackm/software/lorrax_B/src/psp/run_sternheimer.py" source_line=948}
  %broadcast.421 = f64[9,1,1,80]{3,2,1,0} broadcast(%reshape.420), dimensions={0,1,2}, metadata={op_name="jit(_chi_at_q_jit)/jit(main)/jit(_build_stk_at_q)/mul" source_file="/global/homes/j/jackm/software/lorrax_B/src/psp/run_sternheimer.py" source_line=948}
  %reshape.417 = f64[1,1,1,80]{3,2,1,0} reshape(%divide.310), metadata={op_name="jit(_chi_at_q_jit)/jit(main)/jit(_build_stk_at_q)/broadcast_in_dim" source_file="/global/homes/j/jackm/software/lorrax_B/src/psp/run_sternheimer.py" source_line=948}
  %broadcast.422 = f64[1,1,1,80]{3,2,1,0} broadcast(%reshape.417), dimensions={0,1,2,3}, metadata={op_name="jit(_chi_at_q_jit)/jit(main)/jit(_build_stk_at_q)/mul" source_file="/global/homes/j/jackm/software/lorrax_B/src/psp/run_sternheimer.py" source_line=948}
  %reshape.423 = f64[1,1,80]{2,1,0} reshape(%broadcast.422), metadata={op_name="jit(_chi_at_q_jit)/jit(main)/jit(_build_stk_at_q)/mul" source_file="/global/homes/j/jackm/software/lorrax_B/src/psp/run_sternheimer.py" source_line=948}
  %broadcast.424 = f64[9,1,1,80]{3,2,1,0} broadcast(%reshape.423), dimensions={1,2,3}, metadata={op_name="jit(_chi_at_q_jit)/jit(main)/jit(_build_stk_at_q)/mul" source_file="/global/homes/j/jackm/software/lorrax_B/src/psp/run_sternheimer.py" source_line=948}
  %multiply.425 = f64[9,1,1,80]{3,2,1,0} multiply(%broadcast.421, %broadcast.424), metadata={op_name="jit(_chi_at_q_jit)/jit(main)/jit(_build_stk_at_q)/mul" source_file="/global/homes/j/jackm/software/lorrax_B/src/psp/run_sternheimer.py" source_line=948}
  %broadcast.429 = f64[9,1,1,80]{3,2,1,0} broadcast(%multiply.425), dimensions={0,1,2,3}, metadata={op_name="jit(_chi_at_q_jit)/jit(main)/jit(_build_stk_at_q)/add" source_file="/global/homes/j/jackm/software/lorrax_B/src/psp/run_sternheimer.py" source_line=946}
  %reshape.430 = f64[9,80]{1,0} reshape(%broadcast.429), metadata={op_name="jit(_chi_at_q_jit)/jit(main)/jit(_build_stk_at_q)/add" source_file="/global/homes/j/jackm/software/lorrax_B/src/psp/run_sternheimer.py" source_line=946}
  %broadcast.431 = f64[9,24,24,80]{3,2,1,0} broadcast(%reshape.430), dimensions={0,3}, metadata={op_name="jit(_chi_at_q_jit)/jit(main)/jit(_build_stk_at_q)/add" source_file="/global/homes/j/jackm/software/lorrax_B/src/psp/run_sternheimer.py" source_line=946}
  %add.432 = f64[9,24,24,80]{3,2,1,0} add(%broadcast.428, %broadcast.431), metadata={op_name="jit(_chi_at_q_jit)/jit(main)/jit(_build_stk_at_q)/add" source_file="/global/homes/j/jackm/software/lorrax_B/src/psp/run_sternheimer.py" source_line=946}
  %constant.226 = f64[] constant(-6.2831853071795862)
  %broadcast.227 = f64[9,24,24,80]{3,2,1,0} broadcast(%constant.226), dimensions={}
  %multiply.433 = f64[9,24,24,80]{3,2,1,0} multiply(%add.432, %broadcast.227), metadata={op_name="jit(_chi_at_q_jit)/jit(main)/jit(_build_stk_at_q)/mul" source_file="/global/homes/j/jackm/software/lorrax_B/src/psp/run_sternheimer.py" source_line=945}
  %convert.434 = c128[9,24,24,80]{3,2,1,0} convert(%multiply.433), metadata={op_name="jit(_chi_at_q_jit)/jit(main)/jit(_build_stk_at_q)/convert_element_type" source_file="/global/homes/j/jackm/software/lorrax_B/src/psp/run_sternheimer.py" source_line=949}
  %multiply.435 = c128[9,24,24,80]{3,2,1,0} multiply(%convert.434, %broadcast.229), metadata={op_name="jit(_chi_at_q_jit)/jit(main)/jit(_build_stk_at_q)/mul" source_file="/global/homes/j/jackm/software/lorrax_B/src/psp/run_sternheimer.py" source_line=949}
  %real.436 = f64[9,24,24,80]{3,2,1,0} real(%multiply.435), metadata={op_name="jit(_chi_at_q_jit)/jit(main)/jit(_build_stk_at_q)/exp" source_file="/global/homes/j/jackm/software/lorrax_B/src/psp/run_sternheimer.py" source_line=949}
  %exponential.437 = f64[9,24,24,80]{3,2,1,0} exponential(%real.436), metadata={op_name="jit(_chi_at_q_jit)/jit(main)/jit(_build_stk_at_q)/exp" source_file="/global/homes/j/jackm/software/lorrax_B/src/psp/run_sternheimer.py" source_line=949}
  %compare.438 = pred[9,24,24,80]{3,2,1,0} compare(%exponential.437, %broadcast.248), direction=EQ, metadata={op_name="jit(_chi_at_q_jit)/jit(main)/jit(_build_stk_at_q)/exp" source_file="/global/homes/j/jackm/software/lorrax_B/src/psp/run_sternheimer.py" source_line=949}
  %multiply.439 = f64[9,24,24,80]{3,2,1,0} multiply(%real.436, %broadcast.246), metadata={op_name="jit(_chi_at_q_jit)/jit(main)/jit(_build_stk_at_q)/exp" source_file="/global/homes/j/jackm/software/lorrax_B/src/psp/run_sternheimer.py" source_line=949}
  %exponential.440 = f64[9,24,24,80]{3,2,1,0} exponential(%multiply.439), metadata={op_name="jit(_chi_at_q_jit)/jit(main)/jit(_build_stk_at_q)/exp" source_file="/global/homes/j/jackm/software/lorrax_B/src/psp/run_sternheimer.py" source_line=949}
  %imag.441 = f64[9,24,24,80]{3,2,1,0} imag(%multiply.435), metadata={op_name="jit(_chi_at_q_jit)/jit(main)/jit(_build_stk_at_q)/exp" source_file="/global/homes/j/jackm/software/lorrax_B/src/psp/run_sternheimer.py" source_line=949}
  %cosine.442 = f64[9,24,24,80]{3,2,1,0} cosine(%imag.441), metadata={op_name="jit(_chi_at_q_jit)/jit(main)/jit(_build_stk_at_q)/exp" source_file="/global/homes/j/jackm/software/lorrax_B/src/psp/run_sternheimer.py" source_line=949}
  %multiply.443 = f64[9,24,24,80]{3,2,1,0} multiply(%exponential.440, %cosine.442), metadata={op_name="jit(_chi_at_q_jit)/jit(main)/jit(_build_stk_at_q)/exp" source_file="/global/homes/j/jackm/software/lorrax_B/src/psp/run_sternheimer.py" source_line=949}
  %multiply.444 = f64[9,24,24,80]{3,2,1,0} multiply(%multiply.443, %exponential.440), metadata={op_name="jit(_chi_at_q_jit)/jit(main)/jit(_build_stk_at_q)/exp" source_file="/global/homes/j/jackm/software/lorrax_B/src/psp/run_sternheimer.py" source_line=949}
  %multiply.445 = f64[9,24,24,80]{3,2,1,0} multiply(%exponential.437, %cosine.442), metadata={op_name="jit(_chi_at_q_jit)/jit(main)/jit(_build_stk_at_q)/exp" source_file="/global/homes/j/jackm/software/lorrax_B/src/psp/run_sternheimer.py" source_line=949}
  %select.446 = f64[9,24,24,80]{3,2,1,0} select(%compare.438, %multiply.444, %multiply.445), metadata={op_name="jit(_chi_at_q_jit)/jit(main)/jit(_build_stk_at_q)/exp" source_file="/global/homes/j/jackm/software/lorrax_B/src/psp/run_sternheimer.py" source_line=949}
  %compare.447 = pred[9,24,24,80]{3,2,1,0} compare(%imag.441, %broadcast.244), direction=EQ, metadata={op_name="jit(_chi_at_q_jit)/jit(main)/jit(_build_stk_at_q)/exp" source_file="/global/homes/j/jackm/software/lorrax_B/src/psp/run_sternheimer.py" source_line=949}
  %sine.448 = f64[9,24,24,80]{3,2,1,0} sine(%imag.441), metadata={op_name="jit(_chi_at_q_jit)/jit(main)/jit(_build_stk_at_q)/exp" source_file="/global/homes/j/jackm/software/lorrax_B/src/psp/run_sternheimer.py" source_line=949}
  %multiply.449 = f64[9,24,24,80]{3,2,1,0} multiply(%exponential.440, %sine.448), metadata={op_name="jit(_chi_at_q_jit)/jit(main)/jit(_build_stk_at_q)/exp" source_file="/global/homes/j/jackm/software/lorrax_B/src/psp/run_sternheimer.py" source_line=949}
  %multiply.450 = f64[9,24,24,80]{3,2,1,0} multiply(%multiply.449, %exponential.440), metadata={op_name="jit(_chi_at_q_jit)/jit(main)/jit(_build_stk_at_q)/exp" source_file="/global/homes/j/jackm/software/lorrax_B/src/psp/run_sternheimer.py" source_line=949}
  %multiply.451 = f64[9,24,24,80]{3,2,1,0} multiply(%exponential.437, %sine.448), metadata={op_name="jit(_chi_at_q_jit)/jit(main)/jit(_build_stk_at_q)/exp" source_file="/global/homes/j/jackm/software/lorrax_B/src/psp/run_sternheimer.py" source_line=949}
  %select.452 = f64[9,24,24,80]{3,2,1,0} select(%compare.438, %multiply.450, %multiply.451), metadata={op_name="jit(_chi_at_q_jit)/jit(main)/jit(_build_stk_at_q)/exp" source_file="/global/homes/j/jackm/software/lorrax_B/src/psp/run_sternheimer.py" source_line=949}
  %select.453 = f64[9,24,24,80]{3,2,1,0} select(%compare.447, %broadcast.244, %select.452), metadata={op_name="jit(_chi_at_q_jit)/jit(main)/jit(_build_stk_at_q)/exp" source_file="/global/homes/j/jackm/software/lorrax_B/src/psp/run_sternheimer.py" source_line=949}
  %complex.454 = c128[9,24,24,80]{3,2,1,0} complex(%select.446, %select.453), metadata={op_name="jit(_chi_at_q_jit)/jit(main)/jit(_build_stk_at_q)/exp" source_file="/global/homes/j/jackm/software/lorrax_B/src/psp/run_sternheimer.py" source_line=949}
  %Arg_3.208 = f64[9,1963]{1,0} parameter(3), metadata={op_name="jit(_chi_at_q_jit)/jit(main)/pjit"}
  %compare.257 = pred[9]{0} compare(%Arg_1.206, %broadcast.256), direction=LT, metadata={op_name="jit(_chi_at_q_jit)/jit(main)/jit(_build_stk_at_q)/lt" source_file="/global/homes/j/jackm/software/lorrax_B/src/psp/run_sternheimer.py" source_line=926}
  %add.258 = s32[9]{0} add(%Arg_1.206, %broadcast.237), metadata={op_name="jit(_chi_at_q_jit)/jit(main)/jit(_build_stk_at_q)/add" source_file="/global/homes/j/jackm/software/lorrax_B/src/psp/run_sternheimer.py" source_line=926}
  %select.259 = s32[9]{0} select(%compare.257, %add.258, %Arg_1.206), metadata={op_name="jit(_chi_at_q_jit)/jit(main)/jit(_build_stk_at_q)/select_n" source_file="/global/homes/j/jackm/software/lorrax_B/src/psp/run_sternheimer.py" source_line=926}
  %reshape.260 = s32[9,1]{1,0} reshape(%select.259), metadata={op_name="jit(_chi_at_q_jit)/jit(main)/jit(_build_stk_at_q)/broadcast_in_dim" source_file="/global/homes/j/jackm/software/lorrax_B/src/psp/run_sternheimer.py" source_line=926}
  %gather.261 = f64[9,1963]{1,0} gather(%Arg_3.208, %reshape.260), offset_dims={1}, collapsed_slice_dims={0}, start_index_map={0}, index_vector_dim=1, slice_sizes={1,1963}, metadata={op_name="jit(_chi_at_q_jit)/jit(main)/jit(_build_stk_at_q)/gather" source_file="/global/homes/j/jackm/software/lorrax_B/src/psp/run_sternheimer.py" source_line=926}
  %reshape.698 = f64[9,1,1963]{2,1,0} reshape(%gather.261), metadata={op_name="jit(_chi_at_q_jit)/jit(main)/jit(_build_stk_at_q)/broadcast_in_dim" source_file="/global/homes/j/jackm/software/lorrax_B/src/solvers/sternheimer_precond.py" source_line=94}
  %broadcast.700 = f64[9,1,1963]{2,1,0} broadcast(%reshape.698), dimensions={0,1,2}, metadata={op_name="jit(_chi_at_q_jit)/jit(main)/jit(_build_stk_at_q)/div" source_file="/global/homes/j/jackm/software/lorrax_B/src/solvers/sternheimer_precond.py" source_line=94}
  %reshape.701 = f64[9,1963]{1,0} reshape(%broadcast.700), metadata={op_name="jit(_chi_at_q_jit)/jit(main)/jit(_build_stk_at_q)/div" source_file="/global/homes/j/jackm/software/lorrax_B/src/solvers/sternheimer_precond.py" source_line=94}
  %broadcast.702 = f64[9,26,1963]{2,1,0} broadcast(%reshape.701), dimensions={0,2}, metadata={op_name="jit(_chi_at_q_jit)/jit(main)/jit(_build_stk_at_q)/div" source_file="/global/homes/j/jackm/software/lorrax_B/src/solvers/sternheimer_precond.py" source_line=94}
  %Arg_11.216 = f64[9,26]{1,0} parameter(11), metadata={op_name="jit(_chi_at_q_jit)/jit(main)/pjit"}
  %constant.218 = f64[] constant(0)
  %broadcast.219 = f64[9,26]{1,0} broadcast(%constant.218), dimensions={}
  %compare.696 = pred[9,26]{1,0} compare(%Arg_11.216, %broadcast.219), direction=GT, metadata={op_name="jit(_chi_at_q_jit)/jit(main)/jit(_build_stk_at_q)/gt" source_file="/global/homes/j/jackm/software/lorrax_B/src/solvers/sternheimer_precond.py" source_line=93}
  %call.697 = f64[9,26]{1,0} call(%compare.696, %Arg_11.216, %constant.249), to_apply=%_where_3.172
  %reshape.699 = f64[9,26,1]{2,1,0} reshape(%call.697), metadata={op_name="jit(_chi_at_q_jit)/jit(main)/jit(_build_stk_at_q)/broadcast_in_dim" source_file="/global/homes/j/jackm/software/lorrax_B/src/solvers/sternheimer_precond.py" source_line=94}
  %broadcast.703 = f64[9,26,1]{2,1,0} broadcast(%reshape.699), dimensions={0,1,2}, metadata={op_name="jit(_chi_at_q_jit)/jit(main)/jit(_build_stk_at_q)/div" source_file="/global/homes/j/jackm/software/lorrax_B/src/solvers/sternheimer_precond.py" source_line=94}
  %reshape.704 = f64[9,26]{1,0} reshape(%broadcast.703), metadata={op_name="jit(_chi_at_q_jit)/jit(main)/jit(_build_stk_at_q)/div" source_file="/global/homes/j/jackm/software/lorrax_B/src/solvers/sternheimer_precond.py" source_line=94}
  %broadcast.705 = f64[9,26,1963]{2,1,0} broadcast(%reshape.704), dimensions={0,1}, metadata={op_name="jit(_chi_at_q_jit)/jit(main)/jit(_build_stk_at_q)/div" source_file="/global/homes/j/jackm/software/lorrax_B/src/solvers/sternheimer_precond.py" source_line=94}
  %divide.706 = f64[9,26,1963]{2,1,0} divide(%broadcast.702, %broadcast.705), metadata={op_name="jit(_chi_at_q_jit)/jit(main)/jit(_build_stk_at_q)/div" source_file="/global/homes/j/jackm/software/lorrax_B/src/solvers/sternheimer_precond.py" source_line=94}
  %call.707 = f64[9,26,1963]{2,1,0} call(%divide.706), to_apply=%_tpa.182
  %reshape.708 = f64[9,26,1,1963]{3,2,1,0} reshape(%call.707), metadata={op_name="jit(_chi_at_q_jit)/jit(main)/jit(_build_stk_at_q)/broadcast_in_dim" source_file="/global/homes/j/jackm/software/lorrax_B/src/solvers/sternheimer_precond.py" source_line=95}
  ROOT %tuple.709 = (s32[9,1963,3]{2,1,0}, s32[9,1963]{1,0}, s32[9,1963]{1,0}, s32[9,1963]{1,0}, c128[9,26,2,1963]{3,2,1,0}, /*index=5*/c128[9,26,2,1963]{3,2,1,0}, f64[9,3]{1,0}, pred[9,1963]{1,0}, c128[9,24,24,80]{3,2,1,0}, f64[9,26,1,1963]{3,2,1,0}) tuple(%gather.286, %gather.271, %gather.276, %gather.281, %gather.291, /*index=5*/%subtract.695, %gather.296, %gather.266, %complex.454, %reshape.708)
}

%region_2.729 (Arg_0.730: f64[], Arg_1.731: f64[]) -> f64[] {
  %Arg_0.730 = f64[] parameter(0), metadata={op_name="jit(_chi_at_q_jit)/jit(main)/vmap(jit(_assemble_Z_jit))/reduce_sum"}
  %Arg_1.731 = f64[] parameter(1), metadata={op_name="jit(_chi_at_q_jit)/jit(main)/vmap(jit(_assemble_Z_jit))/reduce_sum"}
  ROOT %add.732 = f64[] add(%Arg_0.730, %Arg_1.731), metadata={op_name="jit(_chi_at_q_jit)/jit(main)/vmap(jit(_assemble_Z_jit))/reduce_sum" source_file="/global/homes/j/jackm/software/lorrax_B/src/psp/vnl_ops.py" source_line=363}
}

%clip.733 (Arg_0.734: s32[9,1963], Arg_1.735: s64[], Arg_2.736: s64[]) -> s32[9,1963] {
  %Arg_2.736 = s64[] parameter(2), metadata={op_name="jit(_chi_at_q_jit)/jit(main)/vmap(jit(_assemble_Z_jit))/jit(_table_interp)/pjit"}
  %convert.740 = s32[] convert(%Arg_2.736), metadata={op_name="jit(_chi_at_q_jit)/jit(main)/vmap(jit(_assemble_Z_jit))/jit(_table_interp)/jit(clip)/convert_element_type" source_file="/global/homes/j/jackm/software/lorrax_B/src/psp/vnl_ops.py" source_line=269}
  %broadcast.741 = s32[9,1963]{1,0} broadcast(%convert.740), dimensions={}, metadata={op_name="jit(_chi_at_q_jit)/jit(main)/vmap(jit(_assemble_Z_jit))/jit(_table_interp)/jit(clip)/min" source_file="/global/homes/j/jackm/software/lorrax_B/src/psp/vnl_ops.py" source_line=269}
  %Arg_1.735 = s64[] parameter(1), metadata={op_name="jit(_chi_at_q_jit)/jit(main)/vmap(jit(_assemble_Z_jit))/jit(_table_interp)/pjit"}
  %convert.737 = s32[] convert(%Arg_1.735), metadata={op_name="jit(_chi_at_q_jit)/jit(main)/vmap(jit(_assemble_Z_jit))/jit(_table_interp)/jit(clip)/convert_element_type" source_file="/global/homes/j/jackm/software/lorrax_B/src/psp/vnl_ops.py" source_line=269}
  %broadcast.738 = s32[9,1963]{1,0} broadcast(%convert.737), dimensions={}, metadata={op_name="jit(_chi_at_q_jit)/jit(main)/vmap(jit(_assemble_Z_jit))/jit(_table_interp)/jit(clip)/max" source_file="/global/homes/j/jackm/software/lorrax_B/src/psp/vnl_ops.py" source_line=269}
  %Arg_0.734 = s32[9,1963]{1,0} parameter(0), metadata={op_name="jit(_chi_at_q_jit)/jit(main)/vmap(jit(_assemble_Z_jit))/jit(_table_interp)/pjit"}
  %maximum.739 = s32[9,1963]{1,0} maximum(%broadcast.738, %Arg_0.734), metadata={op_name="jit(_chi_at_q_jit)/jit(main)/vmap(jit(_assemble_Z_jit))/jit(_table_interp)/jit(clip)/max" source_file="/global/homes/j/jackm/software/lorrax_B/src/psp/vnl_ops.py" source_line=269}
  ROOT %minimum.742 = s32[9,1963]{1,0} minimum(%broadcast.741, %maximum.739), metadata={op_name="jit(_chi_at_q_jit)/jit(main)/vmap(jit(_assemble_Z_jit))/jit(_table_interp)/jit(clip)/min" source_file="/global/homes/j/jackm/software/lorrax_B/src/psp/vnl_ops.py" source_line=269}
}

%clip_4.743 (Arg_0.744: f64[9,1963], Arg_1.745: f64[], Arg_2.746: f64[]) -> f64[9,1963] {
  %Arg_2.746 = f64[] parameter(2), metadata={op_name="jit(_chi_at_q_jit)/jit(main)/vmap(jit(_assemble_Z_jit))/jit(_table_interp)/pjit"}
  %broadcast.749 = f64[9,1963]{1,0} broadcast(%Arg_2.746), dimensions={}, metadata={op_name="jit(_chi_at_q_jit)/jit(main)/vmap(jit(_assemble_Z_jit))/jit(_table_interp)/jit(clip)/min" source_file="/global/homes/j/jackm/software/lorrax_B/src/psp/vnl_ops.py" source_line=271}
  %Arg_1.745 = f64[] parameter(1), metadata={op_name="jit(_chi_at_q_jit)/jit(main)/vmap(jit(_assemble_Z_jit))/jit(_table_interp)/pjit"}
  %broadcast.747 = f64[9,1963]{1,0} broadcast(%Arg_1.745), dimensions={}, metadata={op_name="jit(_chi_at_q_jit)/jit(main)/vmap(jit(_assemble_Z_jit))/jit(_table_interp)/jit(clip)/max" source_file="/global/homes/j/jackm/software/lorrax_B/src/psp/vnl_ops.py" source_line=271}
  %Arg_0.744 = f64[9,1963]{1,0} parameter(0), metadata={op_name="jit(_chi_at_q_jit)/jit(main)/vmap(jit(_assemble_Z_jit))/jit(_table_interp)/pjit"}
  %maximum.748 = f64[9,1963]{1,0} maximum(%broadcast.747, %Arg_0.744), metadata={op_name="jit(_chi_at_q_jit)/jit(main)/vmap(jit(_assemble_Z_jit))/jit(_table_interp)/jit(clip)/max" source_file="/global/homes/j/jackm/software/lorrax_B/src/psp/vnl_ops.py" source_line=271}
  ROOT %minimum.750 = f64[9,1963]{1,0} minimum(%broadcast.749, %maximum.748), metadata={op_name="jit(_chi_at_q_jit)/jit(main)/vmap(jit(_assemble_Z_jit))/jit(_table_interp)/jit(clip)/min" source_file="/global/homes/j/jackm/software/lorrax_B/src/psp/vnl_ops.py" source_line=271}
}

%_table_interp.751 (Arg_0.752: f64[9,1963], Arg_1.753: f64[], Arg_2.754: f64[20,4000]) -> f64[9,20,1963] {
  %constant.761 = f64[] constant(1)
  %broadcast.762 = f64[9,1963]{1,0} broadcast(%constant.761), dimensions={}
  %Arg_0.752 = f64[9,1963]{1,0} parameter(0), metadata={op_name="jit(_chi_at_q_jit)/jit(main)/vmap(jit(_assemble_Z_jit))/pjit"}
  %Arg_1.753 = f64[] parameter(1), metadata={op_name="jit(_chi_at_q_jit)/jit(main)/vmap(jit(_assemble_Z_jit))/pjit"}
  %broadcast.767 = f64[9,1963]{1,0} broadcast(%Arg_1.753), dimensions={}, metadata={op_name="jit(_chi_at_q_jit)/jit(main)/vmap(jit(_assemble_Z_jit))/jit(_table_interp)/div" source_file="/global/homes/j/jackm/software/lorrax_B/src/psp/vnl_ops.py" source_line=268}
  %divide.768 = f64[9,1963]{1,0} divide(%Arg_0.752, %broadcast.767), metadata={op_name="jit(_chi_at_q_jit)/jit(main)/vmap(jit(_assemble_Z_jit))/jit(_table_interp)/div" source_file="/global/homes/j/jackm/software/lorrax_B/src/psp/vnl_ops.py" source_line=268}
  %floor.769 = f64[9,1963]{1,0} floor(%divide.768), metadata={op_name="jit(_chi_at_q_jit)/jit(main)/vmap(jit(_assemble_Z_jit))/jit(_table_interp)/floor" source_file="/global/homes/j/jackm/software/lorrax_B/src/psp/vnl_ops.py" source_line=268}
  %convert.770 = s32[9,1963]{1,0} convert(%floor.769), metadata={op_name="jit(_chi_at_q_jit)/jit(main)/vmap(jit(_assemble_Z_jit))/jit(_table_interp)/convert_element_type" source_file="/global/homes/j/jackm/software/lorrax_B/src/psp/vnl_ops.py" source_line=268}
  %constant.766 = s64[] constant(0)
  %constant.765 = s64[] constant(3998)
  %call.771 = s32[9,1963]{1,0} call(%convert.770, %constant.766, %constant.765), to_apply=%clip.733
  %convert.772 = f64[9,1963]{1,0} convert(%call.771), metadata={op_name="jit(_chi_at_q_jit)/jit(main)/vmap(jit(_assemble_Z_jit))/jit(_table_interp)/convert_element_type" source_file="/global/homes/j/jackm/software/lorrax_B/src/psp/vnl_ops.py" source_line=270}
  %broadcast.773 = f64[9,1963]{1,0} broadcast(%Arg_1.753), dimensions={}, metadata={op_name="jit(_chi_at_q_jit)/jit(main)/vmap(jit(_assemble_Z_jit))/jit(_table_interp)/mul" source_file="/global/homes/j/jackm/software/lorrax_B/src/psp/vnl_ops.py" source_line=270}
  %multiply.774 = f64[9,1963]{1,0} multiply(%convert.772, %broadcast.773), metadata={op_name="jit(_chi_at_q_jit)/jit(main)/vmap(jit(_assemble_Z_jit))/jit(_table_interp)/mul" source_file="/global/homes/j/jackm/software/lorrax_B/src/psp/vnl_ops.py" source_line=270}
  %subtract.775 = f64[9,1963]{1,0} subtract(%Arg_0.752, %multiply.774), metadata={op_name="jit(_chi_at_q_jit)/jit(main)/vmap(jit(_assemble_Z_jit))/jit(_table_interp)/sub" source_file="/global/homes/j/jackm/software/lorrax_B/src/psp/vnl_ops.py" source_line=270}
  %broadcast.776 = f64[9,1963]{1,0} broadcast(%Arg_1.753), dimensions={}, metadata={op_name="jit(_chi_at_q_jit)/jit(main)/vmap(jit(_assemble_Z_jit))/jit(_table_interp)/div" source_file="/global/homes/j/jackm/software/lorrax_B/src/psp/vnl_ops.py" source_line=270}
  %divide.777 = f64[9,1963]{1,0} divide(%subtract.775, %broadcast.776), metadata={op_name="jit(_chi_at_q_jit)/jit(main)/vmap(jit(_assemble_Z_jit))/jit(_table_interp)/div" source_file="/global/homes/j/jackm/software/lorrax_B/src/psp/vnl_ops.py" source_line=270}
  %constant.764 = f64[] constant(0)
  %constant.763 = f64[] constant(1)
  %call.778 = f64[9,1963]{1,0} call(%divide.777, %constant.764, %constant.763), to_apply=%clip_4.743
  %subtract.779 = f64[9,1963]{1,0} subtract(%broadcast.762, %call.778), metadata={op_name="jit(_chi_at_q_jit)/jit(main)/vmap(jit(_assemble_Z_jit))/jit(_table_interp)/sub" source_file="/global/homes/j/jackm/software/lorrax_B/src/psp/vnl_ops.py" source_line=272}
  %reshape.780 = f64[9,1,1963]{2,1,0} reshape(%subtract.779), metadata={op_name="jit(_chi_at_q_jit)/jit(main)/vmap(jit(_assemble_Z_jit))/jit(_table_interp)/broadcast_in_dim" source_file="/global/homes/j/jackm/software/lorrax_B/src/psp/vnl_ops.py" source_line=272}
  %broadcast.786 = f64[9,1,1963]{2,1,0} broadcast(%reshape.780), dimensions={0,1,2}, metadata={op_name="jit(_chi_at_q_jit)/jit(main)/vmap(jit(_assemble_Z_jit))/jit(_table_interp)/mul" source_file="/global/homes/j/jackm/software/lorrax_B/src/psp/vnl_ops.py" source_line=272}
  %reshape.787 = f64[9,1963]{1,0} reshape(%broadcast.786), metadata={op_name="jit(_chi_at_q_jit)/jit(main)/vmap(jit(_assemble_Z_jit))/jit(_table_interp)/mul" source_file="/global/homes/j/jackm/software/lorrax_B/src/psp/vnl_ops.py" source_line=272}
  %broadcast.788 = f64[9,20,1963]{2,1,0} broadcast(%reshape.787), dimensions={0,2}, metadata={op_name="jit(_chi_at_q_jit)/jit(main)/vmap(jit(_assemble_Z_jit))/jit(_table_interp)/mul" source_file="/global/homes/j/jackm/software/lorrax_B/src/psp/vnl_ops.py" source_line=272}
  %Arg_2.754 = f64[20,4000]{1,0} parameter(2), metadata={op_name="jit(_chi_at_q_jit)/jit(main)/vmap(jit(_assemble_Z_jit))/pjit"}
  %constant.759 = s32[] constant(0)
  %broadcast.760 = s32[9,1963]{1,0} broadcast(%constant.759), dimensions={}
  %compare.781 = pred[9,1963]{1,0} compare(%call.771, %broadcast.760), direction=LT, metadata={op_name="jit(_chi_at_q_jit)/jit(main)/vmap(jit(_assemble_Z_jit))/jit(_table_interp)/lt" source_file="/global/homes/j/jackm/software/lorrax_B/src/psp/vnl_ops.py" source_line=272}
  %constant.757 = s32[] constant(4000)
  %broadcast.758 = s32[9,1963]{1,0} broadcast(%constant.757), dimensions={}
  %add.782 = s32[9,1963]{1,0} add(%call.771, %broadcast.758), metadata={op_name="jit(_chi_at_q_jit)/jit(main)/vmap(jit(_assemble_Z_jit))/jit(_table_interp)/add" source_file="/global/homes/j/jackm/software/lorrax_B/src/psp/vnl_ops.py" source_line=272}
  %select.783 = s32[9,1963]{1,0} select(%compare.781, %add.782, %call.771), metadata={op_name="jit(_chi_at_q_jit)/jit(main)/vmap(jit(_assemble_Z_jit))/jit(_table_interp)/select_n" source_file="/global/homes/j/jackm/software/lorrax_B/src/psp/vnl_ops.py" source_line=272}
  %reshape.784 = s32[9,1963,1]{2,1,0} reshape(%select.783), metadata={op_name="jit(_chi_at_q_jit)/jit(main)/vmap(jit(_assemble_Z_jit))/jit(_table_interp)/broadcast_in_dim" source_file="/global/homes/j/jackm/software/lorrax_B/src/psp/vnl_ops.py" source_line=272}
  %gather.785 = f64[9,20,1963]{2,1,0} gather(%Arg_2.754, %reshape.784), offset_dims={1}, collapsed_slice_dims={1}, start_index_map={1}, index_vector_dim=2, slice_sizes={20,1}, metadata={op_name="jit(_chi_at_q_jit)/jit(main)/vmap(jit(_assemble_Z_jit))/jit(_table_interp)/gather" source_file="/global/homes/j/jackm/software/lorrax_B/src/psp/vnl_ops.py" source_line=272}
  %multiply.789 = f64[9,20,1963]{2,1,0} multiply(%broadcast.788, %gather.785), metadata={op_name="jit(_chi_at_q_jit)/jit(main)/vmap(jit(_assemble_Z_jit))/jit(_table_interp)/mul" source_file="/global/homes/j/jackm/software/lorrax_B/src/psp/vnl_ops.py" source_line=272}
  %reshape.790 = f64[9,1,1963]{2,1,0} reshape(%call.778), metadata={op_name="jit(_chi_at_q_jit)/jit(main)/vmap(jit(_assemble_Z_jit))/jit(_table_interp)/broadcast_in_dim" source_file="/global/homes/j/jackm/software/lorrax_B/src/psp/vnl_ops.py" source_line=272}
  %broadcast.797 = f64[9,1,1963]{2,1,0} broadcast(%reshape.790), dimensions={0,1,2}, metadata={op_name="jit(_chi_at_q_jit)/jit(main)/vmap(jit(_assemble_Z_jit))/jit(_table_interp)/mul" source_file="/global/homes/j/jackm/software/lorrax_B/src/psp/vnl_ops.py" source_line=272}
  %reshape.798 = f64[9,1963]{1,0} reshape(%broadcast.797), metadata={op_name="jit(_chi_at_q_jit)/jit(main)/vmap(jit(_assemble_Z_jit))/jit(_table_interp)/mul" source_file="/global/homes/j/jackm/software/lorrax_B/src/psp/vnl_ops.py" source_line=272}
  %broadcast.799 = f64[9,20,1963]{2,1,0} broadcast(%reshape.798), dimensions={0,2}, metadata={op_name="jit(_chi_at_q_jit)/jit(main)/vmap(jit(_assemble_Z_jit))/jit(_table_interp)/mul" source_file="/global/homes/j/jackm/software/lorrax_B/src/psp/vnl_ops.py" source_line=272}
  %constant.755 = s32[] constant(1)
  %broadcast.756 = s32[9,1963]{1,0} broadcast(%constant.755), dimensions={}
  %add.791 = s32[9,1963]{1,0} add(%call.771, %broadcast.756), metadata={op_name="jit(_chi_at_q_jit)/jit(main)/vmap(jit(_assemble_Z_jit))/jit(_table_interp)/add" source_file="/global/homes/j/jackm/software/lorrax_B/src/psp/vnl_ops.py" source_line=272}
  %compare.792 = pred[9,1963]{1,0} compare(%add.791, %broadcast.760), direction=LT, metadata={op_name="jit(_chi_at_q_jit)/jit(main)/vmap(jit(_assemble_Z_jit))/jit(_table_interp)/lt" source_file="/global/homes/j/jackm/software/lorrax_B/src/psp/vnl_ops.py" source_line=272}
  %add.793 = s32[9,1963]{1,0} add(%add.791, %broadcast.758), metadata={op_name="jit(_chi_at_q_jit)/jit(main)/vmap(jit(_assemble_Z_jit))/jit(_table_interp)/add" source_file="/global/homes/j/jackm/software/lorrax_B/src/psp/vnl_ops.py" source_line=272}
  %select.794 = s32[9,1963]{1,0} select(%compare.792, %add.793, %add.791), metadata={op_name="jit(_chi_at_q_jit)/jit(main)/vmap(jit(_assemble_Z_jit))/jit(_table_interp)/select_n" source_file="/global/homes/j/jackm/software/lorrax_B/src/psp/vnl_ops.py" source_line=272}
…
  %constant.28 = f64[] constant(1e-06)
  %call.1938 = c128[9,26,2,1963]{3,2,1,0} call(%dot.728, %constant.54, %get-tuple-element.712, %get-tuple-element.713, %get-tuple-element.714, /*index=5*/%call.984, %constant.55, %get-tuple-element.718, %get-tuple-element.715, %constant.44, /*index=10*/%constant.56, %get-tuple-element.720, %gather.65, %gather.70, %get-tuple-element.716, /*index=15*/%constant.28), to_apply=%_sternheimer_core.1837
  %scatter.2149 = c128[9,26,2,24,24,80]{5,4,3,2,1,0} scatter(%broadcast.8, %concatenate.2145, %call.1938), update_window_dims={1,2}, inserted_window_dims={3,4,5}, scatter_dims_to_operand_dims={3,4,5}, input_batching_dims={0}, scatter_indices_batching_dims={0}, index_vector_dim=2, to_apply=%region_25.2146, metadata={op_name="jit(_chi_at_q_jit)/jit(main)/scatter" source_file="/global/homes/j/jackm/software/lorrax_B/src/psp/run_sternheimer.py" source_line=182}
  %call.2156 = c128[9,26,2,24,24,80]{5,4,3,2,1,0} call(%scatter.2149), to_apply=%fft.2153
  %reduce.2161 = c128[] reduce(%constant.57, %constant.27), dimensions={0}, to_apply=%region_26.2157, metadata={op_name="jit(_chi_at_q_jit)/jit(main)/reduce_prod" source_file="/global/homes/j/jackm/software/lorrax_B/src/psp/run_sternheimer.py" source_line=183}
  %real.2162 = f64[] real(%reduce.2161), metadata={op_name="jit(_chi_at_q_jit)/jit(main)/sqrt" source_file="/global/homes/j/jackm/software/lorrax_B/src/psp/run_sternheimer.py" source_line=183}
  %compare.2163 = pred[] compare(%real.2162, %constant.23), direction=GE, metadata={op_name="jit(_chi_at_q_jit)/jit(main)/sqrt" source_file="/global/homes/j/jackm/software/lorrax_B/src/psp/run_sternheimer.py" source_line=183}
  %abs.2164 = f64[] abs(%real.2162), metadata={op_name="jit(_chi_at_q_jit)/jit(main)/sqrt" source_file="/global/homes/j/jackm/software/lorrax_B/src/psp/run_sternheimer.py" source_line=183}
  %imag.2165 = f64[] imag(%reduce.2161), metadata={op_name="jit(_chi_at_q_jit)/jit(main)/sqrt" source_file="/global/homes/j/jackm/software/lorrax_B/src/psp/run_sternheimer.py" source_line=183}
  %abs.2166 = f64[] abs(%imag.2165), metadata={op_name="jit(_chi_at_q_jit)/jit(main)/sqrt" source_file="/global/homes/j/jackm/software/lorrax_B/src/psp/run_sternheimer.py" source_line=183}
  %compare.2167 = pred[] compare(%abs.2164, %abs.2166), direction=EQ, metadata={op_name="jit(_chi_at_q_jit)/jit(main)/sqrt" source_file="/global/homes/j/jackm/software/lorrax_B/src/psp/run_sternheimer.py" source_line=183}
  %sqrt.2168 = f64[] sqrt(%abs.2164), metadata={op_name="jit(_chi_at_q_jit)/jit(main)/sqrt" source_file="/global/homes/j/jackm/software/lorrax_B/src/psp/run_sternheimer.py" source_line=183}
  %multiply.2169 = f64[] multiply(%sqrt.2168, %constant.22), metadata={op_name="jit(_chi_at_q_jit)/jit(main)/sqrt" source_file="/global/homes/j/jackm/software/lorrax_B/src/psp/run_sternheimer.py" source_line=183}
  %divide.2170 = f64[] divide(%multiply.2169, %constant.21), metadata={op_name="jit(_chi_at_q_jit)/jit(main)/sqrt" source_file="/global/homes/j/jackm/software/lorrax_B/src/psp/run_sternheimer.py" source_line=183}
  %maximum.2171 = f64[] maximum(%abs.2164, %abs.2166), metadata={op_name="jit(_chi_at_q_jit)/jit(main)/sqrt" source_file="/global/homes/j/jackm/software/lorrax_B/src/psp/run_sternheimer.py" source_line=183}
  %minimum.2172 = f64[] minimum(%abs.2164, %abs.2166), metadata={op_name="jit(_chi_at_q_jit)/jit(main)/sqrt" source_file="/global/homes/j/jackm/software/lorrax_B/src/psp/run_sternheimer.py" source_line=183}
  %compare.2173 = pred[] compare(%maximum.2171, %minimum.2172), direction=EQ, metadata={op_name="jit(_chi_at_q_jit)/jit(main)/sqrt" source_file="/global/homes/j/jackm/software/lorrax_B/src/psp/run_sternheimer.py" source_line=183}
  %multiply.2174 = f64[] multiply(%maximum.2171, %constant.21), metadata={op_name="jit(_chi_at_q_jit)/jit(main)/sqrt" source_file="/global/homes/j/jackm/software/lorrax_B/src/psp/run_sternheimer.py" source_line=183}
  %divide.2175 = f64[] divide(%minimum.2172, %maximum.2171), metadata={op_name="jit(_chi_at_q_jit)/jit(main)/sqrt" source_file="/global/homes/j/jackm/software/lorrax_B/src/psp/run_sternheimer.py" source_line=183}
  %multiply.2176 = f64[] multiply(%divide.2175, %divide.2175), metadata={op_name="jit(_chi_at_q_jit)/jit(main)/sqrt" source_file="/global/homes/j/jackm/software/lorrax_B/src/psp/run_sternheimer.py" source_line=183}
  %add.2177 = f64[] add(%multiply.2176, %constant.20), metadata={op_name="jit(_chi_at_q_jit)/jit(main)/sqrt" source_file="/global/homes/j/jackm/software/lorrax_B/src/psp/run_sternheimer.py" source_line=183}
  %sqrt.2178 = f64[] sqrt(%add.2177), metadata={op_name="jit(_chi_at_q_jit)/jit(main)/sqrt" source_file="/global/homes/j/jackm/software/lorrax_B/src/psp/run_sternheimer.py" source_line=183}
  %compare.2179 = pred[] compare(%sqrt.2178, %constant.20), direction=EQ, metadata={op_name="jit(_chi_at_q_jit)/jit(main)/sqrt" source_file="/global/homes/j/jackm/software/lorrax_B/src/psp/run_sternheimer.py" source_line=183}
  %compare.2180 = pred[] compare(%multiply.2176, %constant.23), direction=GT, metadata={op_name="jit(_chi_at_q_jit)/jit(main)/sqrt" source_file="/global/homes/j/jackm/software/lorrax_B/src/psp/run_sternheimer.py" source_line=183}
  %and.2181 = pred[] and(%compare.2179, %compare.2180), metadata={op_name="jit(_chi_at_q_jit)/jit(main)/sqrt" source_file="/global/homes/j/jackm/software/lorrax_B/src/psp/run_sternheimer.py" source_line=183}
  %multiply.2182 = f64[] multiply(%maximum.2171, %multiply.2176), metadata={op_name="jit(_chi_at_q_jit)/jit(main)/sqrt" source_file="/global/homes/j/jackm/software/lorrax_B/src/psp/run_sternheimer.py" source_line=183}
  %divide.2183 = f64[] divide(%multiply.2182, %constant.19), metadata={op_name="jit(_chi_at_q_jit)/jit(main)/sqrt" source_file="/global/homes/j/jackm/software/lorrax_B/src/psp/run_sternheimer.py" source_line=183}
  %add.2184 = f64[] add(%maximum.2171, %divide.2183), metadata={op_name="jit(_chi_at_q_jit)/jit(main)/sqrt" source_file="/global/homes/j/jackm/software/lorrax_B/src/psp/run_sternheimer.py" source_line=183}
  %multiply.2185 = f64[] multiply(%maximum.2171, %sqrt.2178), metadata={op_name="jit(_chi_at_q_jit)/jit(main)/sqrt" source_file="/global/homes/j/jackm/software/lorrax_B/src/psp/run_sternheimer.py" source_line=183}
  %select.2186 = f64[] select(%and.2181, %add.2184, %multiply.2185), metadata={op_name="jit(_chi_at_q_jit)/jit(main)/sqrt" source_file="/global/homes/j/jackm/software/lorrax_B/src/psp/run_sternheimer.py" source_line=183}
  %select.2187 = f64[] select(%compare.2173, %multiply.2174, %select.2186), metadata={op_name="jit(_chi_at_q_jit)/jit(main)/sqrt" source_file="/global/homes/j/jackm/software/lorrax_B/src/psp/run_sternheimer.py" source_line=183}
  %divide.2188 = f64[] divide(%select.2187, %constant.19), metadata={op_name="jit(_chi_at_q_jit)/jit(main)/sqrt" source_file="/global/homes/j/jackm/software/lorrax_B/src/psp/run_sternheimer.py" source_line=183}
  %divide.2189 = f64[] divide(%abs.2164, %constant.19), metadata={op_name="jit(_chi_at_q_jit)/jit(main)/sqrt" source_file="/global/homes/j/jackm/software/lorrax_B/src/psp/run_sternheimer.py" source_line=183}
  %add.2190 = f64[] add(%divide.2188, %divide.2189), metadata={op_name="jit(_chi_at_q_jit)/jit(main)/sqrt" source_file="/global/homes/j/jackm/software/lorrax_B/src/psp/run_sternheimer.py" source_line=183}
  %sqrt.2191 = f64[] sqrt(%add.2190), metadata={op_name="jit(_chi_at_q_jit)/jit(main)/sqrt" source_file="/global/homes/j/jackm/software/lorrax_B/src/psp/run_sternheimer.py" source_line=183}
  %compare.2192 = pred[] compare(%sqrt.2191, %constant.23), direction=EQ, metadata={op_name="jit(_chi_at_q_jit)/jit(main)/sqrt" source_file="/global/homes/j/jackm/software/lorrax_B/src/psp/run_sternheimer.py" source_line=183}
  %compare.2193 = pred[] compare(%sqrt.2191, %constant.18), direction=EQ, metadata={op_name="jit(_chi_at_q_jit)/jit(main)/sqrt" source_file="/global/homes/j/jackm/software/lorrax_B/src/psp/run_sternheimer.py" source_line=183}
  %or.2194 = pred[] or(%compare.2192, %compare.2193), metadata={op_name="jit(_chi_at_q_jit)/jit(main)/sqrt" source_file="/global/homes/j/jackm/software/lorrax_B/src/psp/run_sternheimer.py" source_line=183}
  %compare.2195 = pred[] compare(%abs.2164, %abs.2166), direction=GT, metadata={op_name="jit(_chi_at_q_jit)/jit(main)/sqrt" source_file="/global/homes/j/jackm/software/lorrax_B/src/psp/run_sternheimer.py" source_line=183}
  %compare.2196 = pred[] compare(%abs.2164, %abs.2166), direction=LT, metadata={op_name="jit(_chi_at_q_jit)/jit(main)/sqrt" source_file="/global/homes/j/jackm/software/lorrax_B/src/psp/run_sternheimer.py" source_line=183}
  %divide.2197 = f64[] divide(%abs.2164, %abs.2166), metadata={op_name="jit(_chi_at_q_jit)/jit(main)/sqrt" source_file="/global/homes/j/jackm/software/lorrax_B/src/psp/run_sternheimer.py" source_line=183}
  %divide.2198 = f64[] divide(%abs.2166, %abs.2164), metadata={op_name="jit(_chi_at_q_jit)/jit(main)/sqrt" source_file="/global/homes/j/jackm/software/lorrax_B/src/psp/run_sternheimer.py" source_line=183}
  %select.2199 = f64[] select(%compare.2196, %divide.2197, %divide.2198), metadata={op_name="jit(_chi_at_q_jit)/jit(main)/sqrt" source_file="/global/homes/j/jackm/software/lorrax_B/src/psp/run_sternheimer.py" source_line=183}
  %select.2200 = f64[] select(%compare.2167, %constant.20, %select.2199), metadata={op_name="jit(_chi_at_q_jit)/jit(main)/sqrt" source_file="/global/homes/j/jackm/software/lorrax_B/src/psp/run_sternheimer.py" source_line=183}
  %abs.2201 = f64[] abs(%select.2200), metadata={op_name="jit(_chi_at_q_jit)/jit(main)/sqrt" source_file="/global/homes/j/jackm/software/lorrax_B/src/psp/run_sternheimer.py" source_line=183}
  %maximum.2202 = f64[] maximum(%abs.2201, %constant.20), metadata={op_name="jit(_chi_at_q_jit)/jit(main)/sqrt" source_file="/global/homes/j/jackm/software/lorrax_B/src/psp/run_sternheimer.py" source_line=183}
  %minimum.2203 = f64[] minimum(%abs.2201, %constant.20), metadata={op_name="jit(_chi_at_q_jit)/jit(main)/sqrt" source_file="/global/homes/j/jackm/software/lorrax_B/src/psp/run_sternheimer.py" source_line=183}
  %compare.2204 = pred[] compare(%maximum.2202, %minimum.2203), direction=EQ, metadata={op_name="jit(_chi_at_q_jit)/jit(main)/sqrt" source_file="/global/homes/j/jackm/software/lorrax_B/src/psp/run_sternheimer.py" source_line=183}
  %multiply.2205 = f64[] multiply(%maximum.2202, %constant.21), metadata={op_name="jit(_chi_at_q_jit)/jit(main)/sqrt" source_file="/global/homes/j/jackm/software/lorrax_B/src/psp/run_sternheimer.py" source_line=183}
  %divide.2206 = f64[] divide(%minimum.2203, %maximum.2202), metadata={op_name="jit(_chi_at_q_jit)/jit(main)/sqrt" source_file="/global/homes/j/jackm/software/lorrax_B/src/psp/run_sternheimer.py" source_line=183}
  %multiply.2207 = f64[] multiply(%divide.2206, %divide.2206), metadata={op_name="jit(_chi_at_q_jit)/jit(main)/sqrt" source_file="/global/homes/j/jackm/software/lorrax_B/src/psp/run_sternheimer.py" source_line=183}
  %add.2208 = f64[] add(%multiply.2207, %constant.20), metadata={op_name="jit(_chi_at_q_jit)/jit(main)/sqrt" source_file="/global/homes/j/jackm/software/lorrax_B/src/psp/run_sternheimer.py" source_line=183}
  %sqrt.2209 = f64[] sqrt(%add.2208), metadata={op_name="jit(_chi_at_q_jit)/jit(main)/sqrt" source_file="/global/homes/j/jackm/software/lorrax_B/src/psp/run_sternheimer.py" source_line=183}
  %compare.2210 = pred[] compare(%sqrt.2209, %constant.20), direction=EQ, metadata={op_name="jit(_chi_at_q_jit)/jit(main)/sqrt" source_file="/global/homes/j/jackm/software/lorrax_B/src/psp/run_sternheimer.py" source_line=183}
  %compare.2211 = pred[] compare(%multiply.2207, %constant.23), direction=GT, metadata={op_name="jit(_chi_at_q_jit)/jit(main)/sqrt" source_file="/global/homes/j/jackm/software/lorrax_B/src/psp/run_sternheimer.py" source_line=183}
  %and.2212 = pred[] and(%compare.2210, %compare.2211), metadata={op_name="jit(_chi_at_q_jit)/jit(main)/sqrt" source_file="/global/homes/j/jackm/software/lorrax_B/src/psp/run_sternheimer.py" source_line=183}
  %multiply.2213 = f64[] multiply(%maximum.2202, %multiply.2207), metadata={op_name="jit(_chi_at_q_jit)/jit(main)/sqrt" source_file="/global/homes/j/jackm/software/lorrax_B/src/psp/run_sternheimer.py" source_line=183}
  %divide.2214 = f64[] divide(%multiply.2213, %constant.19), metadata={op_name="jit(_chi_at_q_jit)/jit(main)/sqrt" source_file="/global/homes/j/jackm/software/lorrax_B/src/psp/run_sternheimer.py" source_line=183}
  %add.2215 = f64[] add(%maximum.2202, %divide.2214), metadata={op_name="jit(_chi_at_q_jit)/jit(main)/sqrt" source_file="/global/homes/j/jackm/software/lorrax_B/src/psp/run_sternheimer.py" source_line=183}
  %multiply.2216 = f64[] multiply(%maximum.2202, %sqrt.2209), metadata={op_name="jit(_chi_at_q_jit)/jit(main)/sqrt" source_file="/global/homes/j/jackm/software/lorrax_B/src/psp/run_sternheimer.py" source_line=183}
  %select.2217 = f64[] select(%and.2212, %add.2215, %multiply.2216), metadata={op_name="jit(_chi_at_q_jit)/jit(main)/sqrt" source_file="/global/homes/j/jackm/software/lorrax_B/src/psp/run_sternheimer.py" source_line=183}
  %select.2218 = f64[] select(%compare.2204, %multiply.2205, %select.2217), metadata={op_name="jit(_chi_at_q_jit)/jit(main)/sqrt" source_file="/global/homes/j/jackm/software/lorrax_B/src/psp/run_sternheimer.py" source_line=183}
  %add.2219 = f64[] add(%select.2218, %constant.20), metadata={op_name="jit(_chi_at_q_jit)/jit(main)/sqrt" source_file="/global/homes/j/jackm/software/lorrax_B/src/psp/run_sternheimer.py" source_line=183}
  %sqrt.2220 = f64[] sqrt(%add.2219), metadata={op_name="jit(_chi_at_q_jit)/jit(main)/sqrt" source_file="/global/homes/j/jackm/software/lorrax_B/src/psp/run_sternheimer.py" source_line=183}
  %divide.2221 = f64[] divide(%sqrt.2220, %constant.21), metadata={op_name="jit(_chi_at_q_jit)/jit(main)/sqrt" source_file="/global/homes/j/jackm/software/lorrax_B/src/psp/run_sternheimer.py" source_line=183}
  %multiply.2222 = f64[] multiply(%sqrt.2168, %divide.2221), metadata={op_name="jit(_chi_at_q_jit)/jit(main)/sqrt" source_file="/global/homes/j/jackm/software/lorrax_B/src/psp/run_sternheimer.py" source_line=183}
  %sqrt.2223 = f64[] sqrt(%abs.2166), metadata={op_name="jit(_chi_at_q_jit)/jit(main)/sqrt" source_file="/global/homes/j/jackm/software/lorrax_B/src/psp/run_sternheimer.py" source_line=183}
  %add.2224 = f64[] add(%select.2200, %select.2218), metadata={op_name="jit(_chi_at_q_jit)/jit(main)/sqrt" source_file="/global/homes/j/jackm/software/lorrax_B/src/psp/run_sternheimer.py" source_line=183}
  %sqrt.2225 = f64[] sqrt(%add.2224), metadata={op_name="jit(_chi_at_q_jit)/jit(main)/sqrt" source_file="/global/homes/j/jackm/software/lorrax_B/src/psp/run_sternheimer.py" source_line=183}
  %divide.2226 = f64[] divide(%sqrt.2225, %constant.21), metadata={op_name="jit(_chi_at_q_jit)/jit(main)/sqrt" source_file="/global/homes/j/jackm/software/lorrax_B/src/psp/run_sternheimer.py" source_line=183}
  %multiply.2227 = f64[] multiply(%sqrt.2223, %divide.2226), metadata={op_name="jit(_chi_at_q_jit)/jit(main)/sqrt" source_file="/global/homes/j/jackm/software/lorrax_B/src/psp/run_sternheimer.py" source_line=183}
  %select.2228 = f64[] select(%compare.2195, %multiply.2222, %multiply.2227), metadata={op_name="jit(_chi_at_q_jit)/jit(main)/sqrt" source_file="/global/homes/j/jackm/software/lorrax_B/src/psp/run_sternheimer.py" source_line=183}
  %select.2229 = f64[] select(%or.2194, %select.2228, %sqrt.2191), metadata={op_name="jit(_chi_at_q_jit)/jit(main)/sqrt" source_file="/global/homes/j/jackm/software/lorrax_B/src/psp/run_sternheimer.py" source_line=183}
  %select.2230 = f64[] select(%compare.2167, %divide.2170, %select.2229), metadata={op_name="jit(_chi_at_q_jit)/jit(main)/sqrt" source_file="/global/homes/j/jackm/software/lorrax_B/src/psp/run_sternheimer.py" source_line=183}
  %divide.2231 = f64[] divide(%sqrt.2223, %constant.17), metadata={op_name="jit(_chi_at_q_jit)/jit(main)/sqrt" source_file="/global/homes/j/jackm/software/lorrax_B/src/psp/run_sternheimer.py" source_line=183}
  %divide.2232 = f64[] divide(%sqrt.2168, %sqrt.2223), metadata={op_name="jit(_chi_at_q_jit)/jit(main)/sqrt" source_file="/global/homes/j/jackm/software/lorrax_B/src/psp/run_sternheimer.py" source_line=183}
  %divide.2233 = f64[] divide(%sqrt.2223, %sqrt.2168), metadata={op_name="jit(_chi_at_q_jit)/jit(main)/sqrt" source_file="/global/homes/j/jackm/software/lorrax_B/src/psp/run_sternheimer.py" source_line=183}
  %select.2234 = f64[] select(%compare.2196, %divide.2232, %divide.2233), metadata={op_name="jit(_chi_at_q_jit)/jit(main)/sqrt" source_file="/global/homes/j/jackm/software/lorrax_B/src/psp/run_sternheimer.py" source_line=183}
  %select.2235 = f64[] select(%compare.2167, %constant.20, %select.2234), metadata={op_name="jit(_chi_at_q_jit)/jit(main)/sqrt" source_file="/global/homes/j/jackm/software/lorrax_B/src/psp/run_sternheimer.py" source_line=183}
  %multiply.2236 = f64[] multiply(%sqrt.2223, %select.2235), metadata={op_name="jit(_chi_at_q_jit)/jit(main)/sqrt" source_file="/global/homes/j/jackm/software/lorrax_B/src/psp/run_sternheimer.py" source_line=183}
  %multiply.2237 = f64[] multiply(%sqrt.2220, %constant.21), metadata={op_name="jit(_chi_at_q_jit)/jit(main)/sqrt" source_file="/global/homes/j/jackm/software/lorrax_B/src/psp/run_sternheimer.py" source_line=183}
  %divide.2238 = f64[] divide(%multiply.2236, %multiply.2237), metadata={op_name="jit(_chi_at_q_jit)/jit(main)/sqrt" source_file="/global/homes/j/jackm/software/lorrax_B/src/psp/run_sternheimer.py" source_line=183}
  %multiply.2239 = f64[] multiply(%sqrt.2225, %constant.21), metadata={op_name="jit(_chi_at_q_jit)/jit(main)/sqrt" source_file="/global/homes/j/jackm/software/lorrax_B/src/psp/run_sternheimer.py" source_line=183}
  %divide.2240 = f64[] divide(%sqrt.2223, %multiply.2239), metadata={op_name="jit(_chi_at_q_jit)/jit(main)/sqrt" source_file="/global/homes/j/jackm/software/lorrax_B/src/psp/run_sternheimer.py" source_line=183}
  %select.2241 = f64[] select(%compare.2195, %divide.2238, %divide.2240), metadata={op_name="jit(_chi_at_q_jit)/jit(main)/sqrt" source_file="/global/homes/j/jackm/software/lorrax_B/src/psp/run_sternheimer.py" source_line=183}
  %multiply.2242 = f64[] multiply(%sqrt.2191, %constant.19), metadata={op_name="jit(_chi_at_q_jit)/jit(main)/sqrt" source_file="/global/homes/j/jackm/software/lorrax_B/src/psp/run_sternheimer.py" source_line=183}
  %divide.2243 = f64[] divide(%abs.2166, %multiply.2242), metadata={op_name="jit(_chi_at_q_jit)/jit(main)/sqrt" source_file="/global/homes/j/jackm/software/lorrax_B/src/psp/run_sternheimer.py" source_line=183}
  %select.2244 = f64[] select(%or.2194, %select.2241, %divide.2243), metadata={op_name="jit(_chi_at_q_jit)/jit(main)/sqrt" source_file="/global/homes/j/jackm/software/lorrax_B/src/psp/run_sternheimer.py" source_line=183}
  %select.2245 = f64[] select(%compare.2167, %divide.2231, %select.2244), metadata={op_name="jit(_chi_at_q_jit)/jit(main)/sqrt" source_file="/global/homes/j/jackm/software/lorrax_B/src/psp/run_sternheimer.py" source_line=183}
  %select.2246 = f64[] select(%compare.2163, %select.2230, %select.2245), metadata={op_name="jit(_chi_at_q_jit)/jit(main)/sqrt" source_file="/global/homes/j/jackm/software/lorrax_B/src/psp/run_sternheimer.py" source_line=183}
  %compare.2247 = pred[] compare(%real.2162, %constant.23), direction=LT, metadata={op_name="jit(_chi_at_q_jit)/jit(main)/sqrt" source_file="/global/homes/j/jackm/software/lorrax_B/src/psp/run_sternheimer.py" source_line=183}
  %compare.2248 = pred[] compare(%imag.2165, %constant.23), direction=LT, metadata={op_name="jit(_chi_at_q_jit)/jit(main)/sqrt" source_file="/global/homes/j/jackm/software/lorrax_B/src/psp/run_sternheimer.py" source_line=183}
  %negate.2249 = f64[] negate(%select.2230), metadata={op_name="jit(_chi_at_q_jit)/jit(main)/sqrt" source_file="/global/homes/j/jackm/software/lorrax_B/src/psp/run_sternheimer.py" source_line=183}
  %select.2250 = f64[] select(%compare.2248, %negate.2249, %select.2230), metadata={op_name="jit(_chi_at_q_jit)/jit(main)/sqrt" source_file="/global/homes/j/jackm/software/lorrax_B/src/psp/run_sternheimer.py" source_line=183}
  %negate.2251 = f64[] negate(%select.2245), metadata={op_name="jit(_chi_at_q_jit)/jit(main)/sqrt" source_file="/global/homes/j/jackm/software/lorrax_B/src/psp/run_sternheimer.py" source_line=183}
  %select.2252 = f64[] select(%compare.2248, %negate.2251, %select.2245), metadata={op_name="jit(_chi_at_q_jit)/jit(main)/sqrt" source_file="/global/homes/j/jackm/software/lorrax_B/src/psp/run_sternheimer.py" source_line=183}
  %select.2253 = f64[] select(%compare.2247, %select.2250, %select.2252), metadata={op_name="jit(_chi_at_q_jit)/jit(main)/sqrt" source_file="/global/homes/j/jackm/software/lorrax_B/src/psp/run_sternheimer.py" source_line=183}
  %complex.2254 = c128[] complex(%select.2246, %select.2253), metadata={op_name="jit(_chi_at_q_jit)/jit(main)/sqrt" source_file="/global/homes/j/jackm/software/lorrax_B/src/psp/run_sternheimer.py" source_line=183}
  %broadcast.2255 = c128[9,26,2,24,24,80]{5,4,3,2,1,0} broadcast(%complex.2254), dimensions={}, metadata={op_name="jit(_chi_at_q_jit)/jit(main)/mul" source_file="/global/homes/j/jackm/software/lorrax_B/src/psp/run_sternheimer.py" source_line=183}
  %multiply.2256 = c128[9,26,2,24,24,80]{5,4,3,2,1,0} multiply(%call.2156, %broadcast.2255), metadata={op_name="jit(_chi_at_q_jit)/jit(main)/mul" source_file="/global/homes/j/jackm/software/lorrax_B/src/psp/run_sternheimer.py" source_line=183}
  %multiply.2261 = c128[9,26,2,24,24,80]{5,4,3,2,1,0} multiply(%broadcast.2260, %multiply.2256), metadata={op_name="jit(_chi_at_q_jit)/jit(main)/mul" source_file="/global/homes/j/jackm/software/lorrax_B/src/psp/run_sternheimer.py" source_line=186}
  %real.2262 = f64[9,26,2,24,24,80]{5,4,3,2,1,0} real(%multiply.2261), metadata={op_name="jit(_chi_at_q_jit)/jit(main)/real" source_file="/global/homes/j/jackm/software/lorrax_B/src/psp/run_sternheimer.py" source_line=189}
  %imag.2263 = f64[9,26,2,24,24,80]{5,4,3,2,1,0} imag(%multiply.2261), metadata={op_name="jit(_chi_at_q_jit)/jit(main)/imag" source_file="/global/homes/j/jackm/software/lorrax_B/src/psp/run_sternheimer.py" source_line=189}
  %negate.2264 = f64[9,26,2,24,24,80]{5,4,3,2,1,0} negate(%imag.2263), metadata={op_name="jit(_chi_at_q_jit)/jit(main)/neg" source_file="/global/homes/j/jackm/software/lorrax_B/src/psp/run_sternheimer.py" source_line=189}
  %complex.2265 = c128[9,26,2,24,24,80]{5,4,3,2,1,0} complex(%real.2262, %negate.2264), metadata={op_name="jit(_chi_at_q_jit)/jit(main)/complex" source_file="/global/homes/j/jackm/software/lorrax_B/src/psp/run_sternheimer.py" source_line=189}
  %multiply.2266 = c128[9,26,2,24,24,80]{5,4,3,2,1,0} multiply(%multiply.2045, %complex.2265), metadata={op_name="jit(_chi_at_q_jit)/jit(main)/mul" source_file="/global/homes/j/jackm/software/lorrax_B/src/psp/run_sternheimer.py" source_line=189}
  %constant.24 = c128[] constant((0, 0))
  %reduce.2271 = c128[9,24,24,80]{3,2,1,0} reduce(%multiply.2266, %constant.24), dimensions={1,2}, to_apply=%region_27.2267, metadata={op_name="jit(_chi_at_q_jit)/jit(main)/reduce_sum" source_file="/global/homes/j/jackm/software/lorrax_B/src/psp/run_sternheimer.py" source_line=189}
  %call.2278 = c128[9,24,24,80]{3,2,1,0} call(%reduce.2271), to_apply=%fft_16.2275
  %reduce.2283 = c128[] reduce(%constant.57, %constant.27), dimensions={0}, to_apply=%region_28.2279, metadata={op_name="jit(_chi_at_q_jit)/jit(main)/reduce_prod" source_file="/global/homes/j/jackm/software/lorrax_B/src/psp/run_sternheimer.py" source_line=197}
  %real.2284 = f64[] real(%reduce.2283), metadata={op_name="jit(_chi_at_q_jit)/jit(main)/sqrt" source_file="/global/homes/j/jackm/software/lorrax_B/src/psp/run_sternheimer.py" source_line=197}
  %compare.2285 = pred[] compare(%real.2284, %constant.23), direction=GE, metadata={op_name="jit(_chi_at_q_jit)/jit(main)/sqrt" source_file="/global/homes/j/jackm/software/lorrax_B/src/psp/run_sternheimer.py" source_line=197}
  %abs.2286 = f64[] abs(%real.2284), metadata={op_name="jit(_chi_at_q_jit)/jit(main)/sqrt" source_file="/global/homes/j/jackm/software/lorrax_B/src/psp/run_sternheimer.py" source_line=197}
  %imag.2287 = f64[] imag(%reduce.2283), metadata={op_name="jit(_chi_at_q_jit)/jit(main)/sqrt" source_file="/global/homes/j/jackm/software/lorrax_B/src/psp/run_sternheimer.py" source_line=197}
  %abs.2288 = f64[] abs(%imag.2287), metadata={op_name="jit(_chi_at_q_jit)/jit(main)/sqrt" source_file="/global/homes/j/jackm/software/lorrax_B/src/psp/run_sternheimer.py" source_line=197}
  %compare.2289 = pred[] compare(%abs.2286, %abs.2288), direction=EQ, metadata={op_name="jit(_chi_at_q_jit)/jit(main)/sqrt" source_file="/global/homes/j/jackm/software/lorrax_B/src/psp/run_sternheimer.py" source_line=197}
  %sqrt.2290 = f64[] sqrt(%abs.2286), metadata={op_name="jit(_chi_at_q_jit)/jit(main)/sqrt" source_file="/global/homes/j/jackm/software/lorrax_B/src/psp/run_sternheimer.py" source_line=197}
  %multiply.2291 = f64[] multiply(%sqrt.2290, %constant.22), metadata={op_name="jit(_chi_at_q_jit)/jit(main)/sqrt" source_file="/global/homes/j/jackm/software/lorrax_B/src/psp/run_sternheimer.py" source_line=197}
  %divide.2292 = f64[] divide(%multiply.2291, %constant.21), metadata={op_name="jit(_chi_at_q_jit)/jit(main)/sqrt" source_file="/global/homes/j/jackm/software/lorrax_B/src/psp/run_sternheimer.py" source_line=197}
  %maximum.2293 = f64[] maximum(%abs.2286, %abs.2288), metadata={op_name="jit(_chi_at_q_jit)/jit(main)/sqrt" source_file="/global/homes/j/jackm/software/lorrax_B/src/psp/run_sternheimer.py" source_line=197}
  %minimum.2294 = f64[] minimum(%abs.2286, %abs.2288), metadata={op_name="jit(_chi_at_q_jit)/jit(main)/sqrt" source_file="/global/homes/j/jackm/software/lorrax_B/src/psp/run_sternheimer.py" source_line=197}
  %compare.2295 = pred[] compare(%maximum.2293, %minimum.2294), direction=EQ, metadata={op_name="jit(_chi_at_q_jit)/jit(main)/sqrt" source_file="/global/homes/j/jackm/software/lorrax_B/src/psp/run_sternheimer.py" source_line=197}
  %multiply.2296 = f64[] multiply(%maximum.2293, %constant.21), metadata={op_name="jit(_chi_at_q_jit)/jit(main)/sqrt" source_file="/global/homes/j/jackm/software/lorrax_B/src/psp/run_sternheimer.py" source_line=197}
  %divide.2297 = f64[] divide(%minimum.2294, %maximum.2293), metadata={op_name="jit(_chi_at_q_jit)/jit(main)/sqrt" source_file="/global/homes/j/jackm/software/lorrax_B/src/psp/run_sternheimer.py" source_line=197}
  %multiply.2298 = f64[] multiply(%divide.2297, %divide.2297), metadata={op_name="jit(_chi_at_q_jit)/jit(main)/sqrt" source_file="/global/homes/j/jackm/software/lorrax_B/src/psp/run_sternheimer.py" source_line=197}
  %add.2299 = f64[] add(%multiply.2298, %constant.20), metadata={op_name="jit(_chi_at_q_jit)/jit(main)/sqrt" source_file="/global/homes/j/jackm/software/lorrax_B/src/psp/run_sternheimer.py" source_line=197}
  %sqrt.2300 = f64[] sqrt(%add.2299), metadata={op_name="jit(_chi_at_q_jit)/jit(main)/sqrt" source_file="/global/homes/j/jackm/software/lorrax_B/src/psp/run_sternheimer.py" source_line=197}
  %compare.2301 = pred[] compare(%sqrt.2300, %constant.20), direction=EQ, metadata={op_name="jit(_chi_at_q_jit)/jit(main)/sqrt" source_file="/global/homes/j/jackm/software/lorrax_B/src/psp/run_sternheimer.py" source_line=197}
  %compare.2302 = pred[] compare(%multiply.2298, %constant.23), direction=GT, metadata={op_name="jit(_chi_at_q_jit)/jit(main)/sqrt" source_file="/global/homes/j/jackm/software/lorrax_B/src/psp/run_sternheimer.py" source_line=197}
  %and.2303 = pred[] and(%compare.2301, %compare.2302), metadata={op_name="jit(_chi_at_q_jit)/jit(main)/sqrt" source_file="/global/homes/j/jackm/software/lorrax_B/src/psp/run_sternheimer.py" source_line=197}
  %multiply.2304 = f64[] multiply(%maximum.2293, %multiply.2298), metadata={op_name="jit(_chi_at_q_jit)/jit(main)/sqrt" source_file="/global/homes/j/jackm/software/lorrax_B/src/psp/run_sternheimer.py" source_line=197}
  %divide.2305 = f64[] divide(%multiply.2304, %constant.19), metadata={op_name="jit(_chi_at_q_jit)/jit(main)/sqrt" source_file="/global/homes/j/jackm/software/lorrax_B/src/psp/run_sternheimer.py" source_line=197}
  %add.2306 = f64[] add(%maximum.2293, %divide.2305), metadata={op_name="jit(_chi_at_q_jit)/jit(main)/sqrt" source_file="/global/homes/j/jackm/software/lorrax_B/src/psp/run_sternheimer.py" source_line=197}
  %multiply.2307 = f64[] multiply(%maximum.2293, %sqrt.2300), metadata={op_name="jit(_chi_at_q_jit)/jit(main)/sqrt" source_file="/global/homes/j/jackm/software/lorrax_B/src/psp/run_sternheimer.py" source_line=197}
  %select.2308 = f64[] select(%and.2303, %add.2306, %multiply.2307), metadata={op_name="jit(_chi_at_q_jit)/jit(main)/sqrt" source_file="/global/homes/j/jackm/software/lorrax_B/src/psp/run_sternheimer.py" source_line=197}
  %select.2309 = f64[] select(%compare.2295, %multiply.2296, %select.2308), metadata={op_name="jit(_chi_at_q_jit)/jit(main)/sqrt" source_file="/global/homes/j/jackm/software/lorrax_B/src/psp/run_sternheimer.py" source_line=197}
  %divide.2310 = f64[] divide(%select.2309, %constant.19), metadata={op_name="jit(_chi_at_q_jit)/jit(main)/sqrt" source_file="/global/homes/j/jackm/software/lorrax_B/src/psp/run_sternheimer.py" source_line=197}
  %divide.2311 = f64[] divide(%abs.2286, %constant.19), metadata={op_name="jit(_chi_at_q_jit)/jit(main)/sqrt" source_file="/global/homes/j/jackm/software/lorrax_B/src/psp/run_sternheimer.py" source_line=197}
  %add.2312 = f64[] add(%divide.2310, %divide.2311), metadata={op_name="jit(_chi_at_q_jit)/jit(main)/sqrt" source_file="/global/homes/j/jackm/software/lorrax_B/src/psp/run_sternheimer.py" source_line=197}
  %sqrt.2313 = f64[] sqrt(%add.2312), metadata={op_name="jit(_chi_at_q_jit)/jit(main)/sqrt" source_file="/global/homes/j/jackm/software/lorrax_B/src/psp/run_sternheimer.py" source_line=197}
  %compare.2314 = pred[] compare(%sqrt.2313, %constant.23), direction=EQ, metadata={op_name="jit(_chi_at_q_jit)/jit(main)/sqrt" source_file="/global/homes/j/jackm/software/lorrax_B/src/psp/run_sternheimer.py" source_line=197}
  %compare.2315 = pred[] compare(%sqrt.2313, %constant.18), direction=EQ, metadata={op_name="jit(_chi_at_q_jit)/jit(main)/sqrt" source_file="/global/homes/j/jackm/software/lorrax_B/src/psp/run_sternheimer.py" source_line=197}
  %or.2316 = pred[] or(%compare.2314, %compare.2315), metadata={op_name="jit(_chi_at_q_jit)/jit(main)/sqrt" source_file="/global/homes/j/jackm/software/lorrax_B/src/psp/run_sternheimer.py" source_line=197}
  %compare.2317 = pred[] compare(%abs.2286, %abs.2288), direction=GT, metadata={op_name="jit(_chi_at_q_jit)/jit(main)/sqrt" source_file="/global/homes/j/jackm/software/lorrax_B/src/psp/run_sternheimer.py" source_line=197}
  %compare.2318 = pred[] compare(%abs.2286, %abs.2288), direction=LT, metadata={op_name="jit(_chi_at_q_jit)/jit(main)/sqrt" source_file="/global/homes/j/jackm/software/lorrax_B/src/psp/run_sternheimer.py" source_line=197}
  %divide.2319 = f64[] divide(%abs.2286, %abs.2288), metadata={op_name="jit(_chi_at_q_jit)/jit(main)/sqrt" source_file="/global/homes/j/jackm/software/lorrax_B/src/psp/run_sternheimer.py" source_line=197}
  %divide.2320 = f64[] divide(%abs.2288, %abs.2286), metadata={op_name="jit(_chi_at_q_jit)/jit(main)/sqrt" source_file="/global/homes/j/jackm/software/lorrax_B/src/psp/run_sternheimer.py" source_line=197}
  %select.2321 = f64[] select(%compare.2318, %divide.2319, %divide.2320), metadata={op_name="jit(_chi_at_q_jit)/jit(main)/sqrt" source_file="/global/homes/j/jackm/software/lorrax_B/src/psp/run_sternheimer.py" source_line=197}
  %select.2322 = f64[] select(%compare.2289, %constant.20, %select.2321), metadata={op_name="jit(_chi_at_q_jit)/jit(main)/sqrt" source_file="/global/homes/j/jackm/software/lorrax_B/src/psp/run_sternheimer.py" source_line=197}
  %abs.2323 = f64[] abs(%select.2322), metadata={op_name="jit(_chi_at_q_jit)/jit(main)/sqrt" source_file="/global/homes/j/jackm/software/lorrax_B/src/psp/run_sternheimer.py" source_line=197}
  %maximum.2324 = f64[] maximum(%abs.2323, %constant.20), metadata={op_name="jit(_chi_at_q_jit)/jit(main)/sqrt" source_file="/global/homes/j/jackm/software/lorrax_B/src/psp/run_sternheimer.py" source_line=197}
  %minimum.2325 = f64[] minimum(%abs.2323, %constant.20), metadata={op_name="jit(_chi_at_q_jit)/jit(main)/sqrt" source_file="/global/homes/j/jackm/software/lorrax_B/src/psp/run_sternheimer.py" source_line=197}
  %compare.2326 = pred[] compare(%maximum.2324, %minimum.2325), direction=EQ, metadata={op_name="jit(_chi_at_q_jit)/jit(main)/sqrt" source_file="/global/homes/j/jackm/software/lorrax_B/src/psp/run_sternheimer.py" source_line=197}
  %multiply.2327 = f64[] multiply(%maximum.2324, %constant.21), metadata={op_name="jit(_chi_at_q_jit)/jit(main)/sqrt" source_file="/global/homes/j/jackm/software/lorrax_B/src/psp/run_sternheimer.py" source_line=197}
  %divide.2328 = f64[] divide(%minimum.2325, %maximum.2324), metadata={op_name="jit(_chi_at_q_jit)/jit(main)/sqrt" source_file="/global/homes/j/jackm/software/lorrax_B/src/psp/run_sternheimer.py" source_line=197}
  %multiply.2329 = f64[] multiply(%divide.2328, %divide.2328), metadata={op_name="jit(_chi_at_q_jit)/jit(main)/sqrt" source_file="/global/homes/j/jackm/software/lorrax_B/src/psp/run_sternheimer.py" source_line=197}
  %add.2330 = f64[] add(%multiply.2329, %constant.20), metadata={op_name="jit(_chi_at_q_jit)/jit(main)/sqrt" source_file="/global/homes/j/jackm/software/lorrax_B/src/psp/run_sternheimer.py" source_line=197}
  %sqrt.2331 = f64[] sqrt(%add.2330), metadata={op_name="jit(_chi_at_q_jit)/jit(main)/sqrt" source_file="/global/homes/j/jackm/software/lorrax_B/src/psp/run_sternheimer.py" source_line=197}
  %compare.2332 = pred[] compare(%sqrt.2331, %constant.20), direction=EQ, metadata={op_name="jit(_chi_at_q_jit)/jit(main)/sqrt" source_file="/global/homes/j/jackm/software/lorrax_B/src/psp/run_sternheimer.py" source_line=197}
  %compare.2333 = pred[] compare(%multiply.2329, %constant.23), direction=GT, metadata={op_name="jit(_chi_at_q_jit)/jit(main)/sqrt" source_file="/global/homes/j/jackm/software/lorrax_B/src/psp/run_sternheimer.py" source_line=197}
  %and.2334 = pred[] and(%compare.2332, %compare.2333), metadata={op_name="jit(_chi_at_q_jit)/jit(main)/sqrt" source_file="/global/homes/j/jackm/software/lorrax_B/src/psp/run_sternheimer.py" source_line=197}
  %multiply.2335 = f64[] multiply(%maximum.2324, %multiply.2329), metadata={op_name="jit(_chi_at_q_jit)/jit(main)/sqrt" source_file="/global/homes/j/jackm/software/lorrax_B/src/psp/run_sternheimer.py" source_line=197}
  %divide.2336 = f64[] divide(%multiply.2335, %constant.19), metadata={op_name="jit(_chi_at_q_jit)/jit(main)/sqrt" source_file="/global/homes/j/jackm/software/lorrax_B/src/psp/run_sternheimer.py" source_line=197}
  %add.2337 = f64[] add(%maximum.2324, %divide.2336), metadata={op_name="jit(_chi_at_q_jit)/jit(main)/sqrt" source_file="/global/homes/j/jackm/software/lorrax_B/src/psp/run_sternheimer.py" source_line=197}
  %multiply.2338 = f64[] multiply(%maximum.2324, %sqrt.2331), metadata={op_name="jit(_chi_at_q_jit)/jit(main)/sqrt" source_file="/global/homes/j/jackm/software/lorrax_B/src/psp/run_sternheimer.py" source_line=197}
  %select.2339 = f64[] select(%and.2334, %add.2337, %multiply.2338), metadata={op_name="jit(_chi_at_q_jit)/jit(main)/sqrt" source_file="/global/homes/j/jackm/software/lorrax_B/src/psp/run_sternheimer.py" source_line=197}
  %select.2340 = f64[] select(%compare.2326, %multiply.2327, %select.2339), metadata={op_name="jit(_chi_at_q_jit)/jit(main)/sqrt" source_file="/global/homes/j/jackm/software/lorrax_B/src/psp/run_sternheimer.py" source_line=197}
  %add.2341 = f64[] add(%select.2340, %constant.20), metadata={op_name="jit(_chi_at_q_jit)/jit(main)/sqrt" source_file="/global/homes/j/jackm/software/lorrax_B/src/psp/run_sternheimer.py" source_line=197}
  %sqrt.2342 = f64[] sqrt(%add.2341), metadata={op_name="jit(_chi_at_q_jit)/jit(main)/sqrt" source_file="/global/homes/j/jackm/software/lorrax_B/src/psp/run_sternheimer.py" source_line=197}
  %divide.2343 = f64[] divide(%sqrt.2342, %constant.21), metadata={op_name="jit(_chi_at_q_jit)/jit(main)/sqrt" source_file="/global/homes/j/jackm/software/lorrax_B/src/psp/run_sternheimer.py" source_line=197}
  %multiply.2344 = f64[] multiply(%sqrt.2290, %divide.2343), metadata={op_name="jit(_chi_at_q_jit)/jit(main)/sqrt" source_file="/global/homes/j/jackm/software/lorrax_B/src/psp/run_sternheimer.py" source_line=197}
  %sqrt.2345 = f64[] sqrt(%abs.2288), metadata={op_name="jit(_chi_at_q_jit)/jit(main)/sqrt" source_file="/global/homes/j/jackm/software/lorrax_B/src/psp/run_sternheimer.py" source_line=197}
  %add.2346 = f64[] add(%select.2322, %select.2340), metadata={op_name="jit(_chi_at_q_jit)/jit(main)/sqrt" source_file="/global/homes/j/jackm/software/lorrax_B/src/psp/run_sternheimer.py" source_line=197}
  %sqrt.2347 = f64[] sqrt(%add.2346), metadata={op_name="jit(_chi_at_q_jit)/jit(main)/sqrt" source_file="/global/homes/j/jackm/software/lorrax_B/src/psp/run_sternheimer.py" source_line=197}
  %divide.2348 = f64[] divide(%sqrt.2347, %constant.21), metadata={op_name="jit(_chi_at_q_jit)/jit(main)/sqrt" source_file="/global/homes/j/jackm/software/lorrax_B/src/psp/run_sternheimer.py" source_line=197}
  %multiply.2349 = f64[] multiply(%sqrt.2345, %divide.2348), metadata={op_name="jit(_chi_at_q_jit)/jit(main)/sqrt" source_file="/global/homes/j/jackm/software/lorrax_B/src/psp/run_sternheimer.py" source_line=197}
  %select.2350 = f64[] select(%compare.2317, %multiply.2344, %multiply.2349), metadata={op_name="jit(_chi_at_q_jit)/jit(main)/sqrt" source_file="/global/homes/j/jackm/software/lorrax_B/src/psp/run_sternheimer.py" source_line=197}
  %select.2351 = f64[] select(%or.2316, %select.2350, %sqrt.2313), metadata={op_name="jit(_chi_at_q_jit)/jit(main)/sqrt" source_file="/global/homes/j/jackm/software/lorrax_B/src/psp/run_sternheimer.py" source_line=197}
  %select.2352 = f64[] select(%compare.2289, %divide.2292, %select.2351), metadata={op_name="jit(_chi_at_q_jit)/jit(main)/sqrt" source_file="/global/homes/j/jackm/software/lorrax_B/src/psp/run_sternheimer.py" source_line=197}
  %divide.2353 = f64[] divide(%sqrt.2345, %constant.17), metadata={op_name="jit(_chi_at_q_jit)/jit(main)/sqrt" source_file="/global/homes/j/jackm/software/lorrax_B/src/psp/run_sternheimer.py" source_line=197}
  %divide.2354 = f64[] divide(%sqrt.2290, %sqrt.2345), metadata={op_name="jit(_chi_at_q_jit)/jit(main)/sqrt" source_file="/global/homes/j/jackm/software/lorrax_B/src/psp/run_sternheimer.py" source_line=197}
  %divide.2355 = f64[] divide(%sqrt.2345, %sqrt.2290), metadata={op_name="jit(_chi_at_q_jit)/jit(main)/sqrt" source_file="/global/homes/j/jackm/software/lorrax_B/src/psp/run_sternheimer.py" source_line=197}
  %select.2356 = f64[] select(%compare.2318, %divide.2354, %divide.2355), metadata={op_name="jit(_chi_at_q_jit)/jit(main)/sqrt" source_file="/global/homes/j/jackm/software/lorrax_B/src/psp/run_sternheimer.py" source_line=197}
  %select.2357 = f64[] select(%compare.2289, %constant.20, %select.2356), metadata={op_name="jit(_chi_at_q_jit)/jit(main)/sqrt" source_file="/global/homes/j/jackm/software/lorrax_B/src/psp/run_sternheimer.py" source_line=197}
  %multiply.2358 = f64[] multiply(%sqrt.2345, %select.2357), metadata={op_name="jit(_chi_at_q_jit)/jit(main)/sqrt" source_file="/global/homes/j/jackm/software/lorrax_B/src/psp/run_sternheimer.py" source_line=197}
  %multiply.2359 = f64[] multiply(%sqrt.2342, %constant.21), metadata={op_name="jit(_chi_at_q_jit)/jit(main)/sqrt" source_file="/global/homes/j/jackm/software/lorrax_B/src/psp/run_sternheimer.py" source_line=197}
  %divide.2360 = f64[] divide(%multiply.2358, %multiply.2359), metadata={op_name="jit(_chi_at_q_jit)/jit(main)/sqrt" source_file="/global/homes/j/jackm/software/lorrax_B/src/psp/run_sternheimer.py" source_line=197}
  %multiply.2361 = f64[] multiply(%sqrt.2347, %constant.21), metadata={op_name="jit(_chi_at_q_jit)/jit(main)/sqrt" source_file="/global/homes/j/jackm/software/lorrax_B/src/psp/run_sternheimer.py" source_line=197}
  %divide.2362 = f64[] divide(%sqrt.2345, %multiply.2361), metadata={op_name="jit(_chi_at_q_jit)/jit(main)/sqrt" source_file="/global/homes/j/jackm/software/lorrax_B/src/psp/run_sternheimer.py" source_line=197}
  %select.2363 = f64[] select(%compare.2317, %divide.2360, %divide.2362), metadata={op_name="jit(_chi_at_q_jit)/jit(main)/sqrt" source_file="/global/homes/j/jackm/software/lorrax_B/src/psp/run_sternheimer.py" source_line=197}
  %multiply.2364 = f64[] multiply(%sqrt.2313, %constant.19), metadata={op_name="jit(_chi_at_q_jit)/jit(main)/sqrt" source_file="/global/homes/j/jackm/software/lorrax_B/src/psp/run_sternheimer.py" source_line=197}
  %divide.2365 = f64[] divide(%abs.2288, %multiply.2364), metadata={op_name="jit(_chi_at_q_jit)/jit(main)/sqrt" source_file="/global/homes/j/jackm/software/lorrax_B/src/psp/run_sternheimer.py" source_line=197}
  %select.2366 = f64[] select(%or.2316, %select.2363, %divide.2365), metadata={op_name="jit(_chi_at_q_jit)/jit(main)/sqrt" source_file="/global/homes/j/jackm/software/lorrax_B/src/psp/run_sternheimer.py" source_line=197}
  %select.2367 = f64[] select(%compare.2289, %divide.2353, %select.2366), metadata={op_name="jit(_chi_at_q_jit)/jit(main)/sqrt" source_file="/global/homes/j/jackm/software/lorrax_B/src/psp/run_sternheimer.py" source_line=197}
  %select.2368 = f64[] select(%compare.2285, %select.2352, %select.2367), metadata={op_name="jit(_chi_at_q_jit)/jit(main)/sqrt" source_file="/global/homes/j/jackm/software/lorrax_B/src/psp/run_sternheimer.py" source_line=197}
  %compare.2369 = pred[] compare(%real.2284, %constant.23), direction=LT, metadata={op_name="jit(_chi_at_q_jit)/jit(main)/sqrt" source_file="/global/homes/j/jackm/software/lorrax_B/src/psp/run_sternheimer.py" source_line=197}
  %compare.2370 = pred[] compare(%imag.2287, %constant.23), direction=LT, metadata={op_name="jit(_chi_at_q_jit)/jit(main)/sqrt" source_file="/global/homes/j/jackm/software/lorrax_B/src/psp/run_sternheimer.py" source_line=197}
  %negate.2371 = f64[] negate(%select.2352), metadata={op_name="jit(_chi_at_q_jit)/jit(main)/sqrt" source_file="/global/homes/j/jackm/software/lorrax_B/src/psp/run_sternheimer.py" source_line=197}
  %select.2372 = f64[] select(%compare.2370, %negate.2371, %select.2352), metadata={op_name="jit(_chi_at_q_jit)/jit(main)/sqrt" source_file="/global/homes/j/jackm/software/lorrax_B/src/psp/run_sternheimer.py" source_line=197}
  %negate.2373 = f64[] negate(%select.2367), metadata={op_name="jit(_chi_at_q_jit)/jit(main)/sqrt" source_file="/global/homes/j/jackm/software/lorrax_B/src/psp/run_sternheimer.py" source_line=197}
  %select.2374 = f64[] select(%compare.2370, %negate.2373, %select.2367), metadata={op_name="jit(_chi_at_q_jit)/jit(main)/sqrt" source_file="/global/homes/j/jackm/software/lorrax_B/src/psp/run_sternheimer.py" source_line=197}
  %select.2375 = f64[] select(%compare.2369, %select.2372, %select.2374), metadata={op_name="jit(_chi_at_q_jit)/jit(main)/sqrt" source_file="/global/homes/j/jackm/software/lorrax_B/src/psp/run_sternheimer.py" source_line=197}
  %complex.2376 = c128[] complex(%select.2368, %select.2375), metadata={op_name="jit(_chi_at_q_jit)/jit(main)/sqrt" source_file="/global/homes/j/jackm/software/lorrax_B/src/psp/run_sternheimer.py" source_line=197}
  %divide.2377 = c128[] divide(%constant.27, %complex.2376), metadata={op_name="jit(_chi_at_q_jit)/jit(main)/div" source_file="/global/homes/j/jackm/software/lorrax_B/src/psp/run_sternheimer.py" source_line=197}
  %broadcast.2378 = c128[9,24,24,80]{3,2,1,0} broadcast(%divide.2377), dimensions={}, metadata={op_name="jit(_chi_at_q_jit)/jit(main)/mul" source_file="/global/homes/j/jackm/software/lorrax_B/src/psp/run_sternheimer.py" source_line=197}
  %multiply.2379 = c128[9,24,24,80]{3,2,1,0} multiply(%call.2278, %broadcast.2378), metadata={op_name="jit(_chi_at_q_jit)/jit(main)/mul" source_file="/global/homes/j/jackm/software/lorrax_B/src/psp/run_sternheimer.py" source_line=197}
  %reshape.2380 = c128[9,1,24,24,80]{4,3,2,1,0} reshape(%multiply.2379), metadata={op_name="jit(_chi_at_q_jit)/jit(main)/broadcast_in_dim" source_file="/global/homes/j/jackm/software/lorrax_B/src/psp/run_sternheimer.py" source_line=198}
  %Arg_2.3 = s32[1,3]{1,0} parameter(2), metadata={op_name="Gprime_int_j"}
  %slice.2381 = s32[1,1]{1,0} slice(%Arg_2.3), slice={[0:1], [0:1]}, metadata={op_name="jit(_chi_at_q_jit)/jit(main)/slice" source_file="/global/homes/j/jackm/software/lorrax_B/src/psp/run_sternheimer.py" source_line=96}
  %reshape.2382 = s32[1]{0} reshape(%slice.2381), metadata={op_name="jit(_chi_at_q_jit)/jit(main)/squeeze" source_file="/global/homes/j/jackm/software/lorrax_B/src/psp/run_sternheimer.py" source_line=96}
  %call.2408 = s32[1]{0} call(%reshape.2382, %constant.26), to_apply=%remainder_18.2388
  %constant.6 = s32[1]{0} constant({0})
  %compare.2465 = pred[1]{0} compare(%call.2408, %constant.6), direction=LT, metadata={op_name="jit(_chi_at_q_jit)/jit(main)/lt" source_file="/global/homes/j/jackm/software/lorrax_B/src/psp/run_sternheimer.py" source_line=99}
  %constant.5 = s32[1]{0} constant({24})
  %add.2466 = s32[1]{0} add(%call.2408, %constant.5), metadata={op_name="jit(_chi_at_q_jit)/jit(main)/add" source_file="/global/homes/j/jackm/software/lorrax_B/src/psp/run_sternheimer.py" source_line=99}
  %select.2467 = s32[1]{0} select(%compare.2465, %add.2466, %call.2408), metadata={op_name="jit(_chi_at_q_jit)/jit(main)/select_n" source_file="/global/homes/j/jackm/software/lorrax_B/src/psp/run_sternheimer.py" source_line=99}
  %reshape.2474 = s32[1,1]{1,0} reshape(%select.2467), metadata={op_name="jit(_chi_at_q_jit)/jit(main)/broadcast_in_dim" source_file="/global/homes/j/jackm/software/lorrax_B/src/psp/run_sternheimer.py" source_line=99}
  %slice.2409 = s32[1,1]{1,0} slice(%Arg_2.3), slice={[0:1], [1:2]}, metadata={op_name="jit(_chi_at_q_jit)/jit(main)/slice" source_file="/global/homes/j/jackm/software/lorrax_B/src/psp/run_sternheimer.py" source_line=97}
  %reshape.2410 = s32[1]{0} reshape(%slice.2409), metadata={op_name="jit(_chi_at_q_jit)/jit(main)/squeeze" source_file="/global/homes/j/jackm/software/lorrax_B/src/psp/run_sternheimer.py" source_line=97}
  %call.2436 = s32[1]{0} call(%reshape.2410, %constant.26), to_apply=%remainder_18.2416
  %compare.2468 = pred[1]{0} compare(%call.2436, %constant.6), direction=LT, metadata={op_name="jit(_chi_at_q_jit)/jit(main)/lt" source_file="/global/homes/j/jackm/software/lorrax_B/src/psp/run_sternheimer.py" source_line=99}
  %add.2469 = s32[1]{0} add(%call.2436, %constant.5), metadata={op_name="jit(_chi_at_q_jit)/jit(main)/add" source_file="/global/homes/j/jackm/software/lorrax_B/src/psp/run_sternheimer.py" source_line=99}
  %select.2470 = s32[1]{0} select(%compare.2468, %add.2469, %call.2436), metadata={op_name="jit(_chi_at_q_jit)/jit(main)/select_n" source_file="/global/homes/j/jackm/software/lorrax_B/src/psp/run_sternheimer.py" source_line=99}
  %reshape.2475 = s32[1,1]{1,0} reshape(%select.2470), metadata={op_name="jit(_chi_at_q_jit)/jit(main)/broadcast_in_dim" source_file="/global/homes/j/jackm/software/lorrax_B/src/psp/run_sternheimer.py" source_line=99}
  %slice.2437 = s32[1,1]{1,0} slice(%Arg_2.3), slice={[0:1], [2:3]}, metadata={op_name="jit(_chi_at_q_jit)/jit(main)/slice" source_file="/global/homes/j/jackm/software/lorrax_B/src/psp/run_sternheimer.py" source_line=98}
  %reshape.2438 = s32[1]{0} reshape(%slice.2437), metadata={op_name="jit(_chi_at_q_jit)/jit(main)/squeeze" source_file="/global/homes/j/jackm/software/lorrax_B/src/psp/run_sternheimer.py" source_line=98}
  %call.2464 = s32[1]{0} call(%reshape.2438, %constant.25), to_apply=%remainder_18.2444
  %compare.2471 = pred[1]{0} compare(%call.2464, %constant.6), direction=LT, metadata={op_name="jit(_chi_at_q_jit)/jit(main)/lt" source_file="/global/homes/j/jackm/software/lorrax_B/src/psp/run_sternheimer.py" source_line=99}
  %constant.4 = s32[1]{0} constant({80})
  %add.2472 = s32[1]{0} add(%call.2464, %constant.4), metadata={op_name="jit(_chi_at_q_jit)/jit(main)/add" source_file="/global/homes/j/jackm/software/lorrax_B/src/psp/run_sternheimer.py" source_line=99}
  %select.2473 = s32[1]{0} select(%compare.2471, %add.2472, %call.2464), metadata={op_name="jit(_chi_at_q_jit)/jit(main)/select_n" source_file="/global/homes/j/jackm/software/lorrax_B/src/psp/run_sternheimer.py" source_line=99}
  %reshape.2476 = s32[1,1]{1,0} reshape(%select.2473), metadata={op_name="jit(_chi_at_q_jit)/jit(main)/broadcast_in_dim" source_file="/global/homes/j/jackm/software/lorrax_B/src/psp/run_sternheimer.py" source_line=99}
  %concatenate.2477 = s32[1,3]{1,0} concatenate(%reshape.2474, %reshape.2475, %reshape.2476), dimensions={1}, metadata={op_name="jit(_chi_at_q_jit)/jit(main)/concatenate" source_file="/global/homes/j/jackm/software/lorrax_B/src/psp/run_sternheimer.py" source_line=99}
  %gather.2478 = c128[9,1,1]{2,1,0} gather(%reshape.2380, %concatenate.2477), offset_dims={0,1}, collapsed_slice_dims={2,3,4}, start_index_map={2,3,4}, index_vector_dim=1, slice_sizes={9,1,1,1,1}, metadata={op_name="jit(_chi_at_q_jit)/jit(main)/gather" source_file="/global/homes/j/jackm/software/lorrax_B/src/psp/run_sternheimer.py" source_line=99}
  %reshape.2479 = c128[9,1]{1,0} reshape(%gather.2478), metadata={op_name="jit(_chi_at_q_jit)/jit(main)/squeeze" source_file="/global/homes/j/jackm/software/lorrax_B/src/psp/run_sternheimer.py" source_line=198}
  %multiply.2482 = c128[9,1]{1,0} multiply(%broadcast.2481, %reshape.2479), metadata={op_name="jit(_chi_at_q_jit)/jit(main)/mul" source_file="/global/homes/j/jackm/software/lorrax_B/src/psp/run_sternheimer.py" source_line=777}
  ROOT %reduce.2487 = c128[1]{0} reduce(%multiply.2482, %constant.24), dimensions={0}, to_apply=%region_29.2483, metadata={op_name="jit(_chi_at_q_jit)/jit(main)/reduce_sum" source_file="/global/homes/j/jackm/software/lorrax_B/src/psp/run_sternheimer.py" source_line=1289}
}

