HloModule jit__fft_gather_reshard, entry_computation_layout={(c128[9,80,2,24,24,80]{5,4,3,2,1,0})->(c128[9,80,2,640]{3,2,1,0}, c128[9,640,80,2]{3,2,1,0})}, allow_spmd_sharding_propagation_to_output={true,true}, num_partitions=4

%region_0.89 (Arg_0.90: pred[], Arg_1.91: pred[]) -> pred[] {
  %Arg_0.90 = pred[] parameter(0), metadata={op_name="jit(_fft_gather_reshard)/jit(main)/jit(_take)/reduce_and"}
  %Arg_1.91 = pred[] parameter(1), metadata={op_name="jit(_fft_gather_reshard)/jit(main)/jit(_take)/reduce_and"}
  ROOT %and.92 = pred[] and(%Arg_0.90, %Arg_1.91), metadata={op_name="jit(_fft_gather_reshard)/jit(main)/jit(_take)/reduce_and" source_file="/global/homes/j/jackm/software/lorrax_A/src/common/load_wfns.py" source_line=717}
}

ENTRY %main.128 (Arg_0.1: c128[9,80,2,24,24,80]) -> (c128[9,80,2,640], c128[9,640,80,2]) {
  %constant.18 = s64[640]{0} constant({...}), sharding={replicated}
  %constant.0 = s64[] constant(0), sharding={replicated}
  %broadcast.0 = s64[640]{0} broadcast(%constant.0), dimensions={}, sharding={replicated}, metadata={op_name="jit(_fft_gather_reshard)/jit(main)/jit(_take)/lt" source_file="/global/homes/j/jackm/software/lorrax_A/src/common/load_wfns.py" source_line=717}
  %compare.0 = pred[640]{0} compare(%constant.18, %broadcast.0), direction=LT, sharding={replicated}, metadata={op_name="jit(_fft_gather_reshard)/jit(main)/jit(_take)/lt" source_file="/global/homes/j/jackm/software/lorrax_A/src/common/load_wfns.py" source_line=717}
  %constant.1 = s64[] constant(46080), sharding={replicated}
  %broadcast.1 = s64[640]{0} broadcast(%constant.1), dimensions={}, sharding={replicated}
  %add.0 = s64[640]{0} add(%constant.18, %broadcast.1), sharding={replicated}, metadata={op_name="jit(_fft_gather_reshard)/jit(main)/jit(_take)/add" source_file="/global/homes/j/jackm/software/lorrax_A/src/common/load_wfns.py" source_line=717}
  %select.1 = s64[640]{0} select(%compare.0, %add.0, %constant.18), sharding={replicated}, metadata={op_name="jit(_fft_gather_reshard)/jit(main)/jit(_take)/jit(_where)/select_n" source_file="/global/homes/j/jackm/software/lorrax_A/src/common/load_wfns.py" source_line=717}
  %reshape.0 = s64[640,1]{1,0} reshape(%select.1), sharding={replicated}, metadata={op_name="jit(_fft_gather_reshard)/jit(main)/jit(_take)/broadcast_in_dim" source_file="/global/homes/j/jackm/software/lorrax_A/src/common/load_wfns.py" source_line=717}
  %constant.4 = s64[] constant(0), sharding={replicated}
  %broadcast.2 = s64[640,1]{1,0} broadcast(%constant.4), dimensions={}, sharding={replicated}
  %compare.1 = pred[640,1]{1,0} compare(%reshape.0, %broadcast.2), direction=GE, sharding={replicated}, metadata={op_name="jit(_fft_gather_reshard)/jit(main)/jit(_take)/ge" source_file="/global/homes/j/jackm/software/lorrax_A/src/common/load_wfns.py" source_line=717}
  %constant.6 = s64[] constant(46079), sharding={replicated}
  %broadcast.3 = s64[640,1]{1,0} broadcast(%constant.6), dimensions={}, sharding={replicated}
  %compare.2 = pred[640,1]{1,0} compare(%reshape.0, %broadcast.3), direction=LE, sharding={replicated}, metadata={op_name="jit(_fft_gather_reshard)/jit(main)/jit(_take)/le" source_file="/global/homes/j/jackm/software/lorrax_A/src/common/load_wfns.py" source_line=717}
  %and.0 = pred[640,1]{1,0} and(%compare.1, %compare.2), sharding={replicated}, metadata={op_name="jit(_fft_gather_reshard)/jit(main)/jit(_take)/and" source_file="/global/homes/j/jackm/software/lorrax_A/src/common/load_wfns.py" source_line=717}
  %constant.10 = pred[] constant(true)
  %reduce.0 = pred[640]{0} reduce(%and.0, %constant.10), dimensions={1}, to_apply=%region_0.89, sharding={replicated}, metadata={op_name="jit(_fft_gather_reshard)/jit(main)/jit(_take)/reduce_and" source_file="/global/homes/j/jackm/software/lorrax_A/src/common/load_wfns.py" source_line=717}
  %broadcast.5 = pred[9,80,2,640]{3,2,1,0} broadcast(%reduce.0), dimensions={3}, sharding={devices=[1,2,1,1,2]<=[2,2]T(1,0) last_tile_dim_replicate}, metadata={op_name="jit(_fft_gather_reshard)/jit(main)/jit(_take)/broadcast_in_dim" source_file="/global/homes/j/jackm/software/lorrax_A/src/common/load_wfns.py" source_line=717}
  %Arg_0.1 = c128[9,80,2,24,24,80]{5,4,3,2,1,0} parameter(0), sharding={devices=[1,4,1,1,1,1]<=[4]}, metadata={op_name="psi_G"}
  %custom-call.19 = c128[9,80,2,24,24,80]{5,4,3,2,1,0} custom-call(%Arg_0.1), custom_call_target="CustomSPMDPartitioning", api_version=API_VERSION_STATUS_RETURNING, sharding={devices=[1,4,1,1,1,1]<=[4]}, metadata={op_name="jit(_fft_gather_reshard)/jit(main)/custom_partitioning" source_file="/global/homes/j/jackm/software/lorrax_A/src/common/fft_helpers.py" source_line=159}, backend_config="139669123314656"
  %custom-call.20 = c128[9,80,2,24,24,80]{5,4,3,2,1,0} custom-call(%custom-call.19), custom_call_target="CustomSPMDPartitioning", api_version=API_VERSION_STATUS_RETURNING, sharding={devices=[1,4,1,1,1,1]<=[4]}, metadata={op_name="jit(_fft_gather_reshard)/jit(main)/custom_partitioning" source_file="/global/homes/j/jackm/software/lorrax_A/src/common/fft_helpers.py" source_line=159}, backend_config="139669123316144"
  %custom-call.21 = c128[9,80,2,24,24,80]{5,4,3,2,1,0} custom-call(%custom-call.20), custom_call_target="CustomSPMDPartitioning", api_version=API_VERSION_STATUS_RETURNING, sharding={devices=[1,4,1,1,1,1]<=[4]}, metadata={op_name="jit(_fft_gather_reshard)/jit(main)/custom_partitioning" source_file="/global/homes/j/jackm/software/lorrax_A/src/common/fft_helpers.py" source_line=159}, backend_config="139669123316384"
  %constant.8 = f64[9,1,1,1]{3,2,1,0} constant({ { /*i0=0*/ { /*i1=0*/ {0} } }, { /*i0=1*/ { /*i1=0*/ {0} } }, { /*i0=2*/ { /*i1=0*/ {0} } }, { /*i0=3*/ { /*i1=0*/ {0.33333333333333331} } }, { /*i0=4*/ { /*i1=0*/ {0.33333333333333331} } }, { /*i0=5*/ { /*i1=0*/ {0.33333333333333331} } }, { /*i0=6*/ { /*i1=0*/ {0.66666666666666663} } }, { /*i0=7*/ { /*i1=0*/ {0.66666666666666663} } }, { /*i0=8*/ { /*i1=0*/ {0.66666666666666663} } } }), sharding={replicated}
  %broadcast.22 = f64[9,1,1,1]{3,2,1,0} broadcast(%constant.8), dimensions={0,1,2,3}, sharding={replicated}, metadata={op_name="jit(_fft_gather_reshard)/jit(main)/mul" source_file="/global/homes/j/jackm/software/lorrax_A/src/common/load_wfns.py" source_line=705}
  %reshape.23 = f64[9,1,1]{2,1,0} reshape(%broadcast.22), sharding={replicated}, metadata={op_name="jit(_fft_gather_reshard)/jit(main)/mul" source_file="/global/homes/j/jackm/software/lorrax_A/src/common/load_wfns.py" source_line=705}
  %broadcast.24 = f64[9,24,1,1]{3,2,1,0} broadcast(%reshape.23), dimensions={0,2,3}, sharding={replicated}, metadata={op_name="jit(_fft_gather_reshard)/jit(main)/mul" source_file="/global/homes/j/jackm/software/lorrax_A/src/common/load_wfns.py" source_line=705}
  %constant.15 = f64[1,24,1,1]{3,2,1,0} constant({...}), sharding={replicated}
  %broadcast.25 = f64[1,24,1,1]{3,2,1,0} broadcast(%constant.15), dimensions={0,1,2,3}, sharding={replicated}, metadata={op_name="jit(_fft_gather_reshard)/jit(main)/mul" source_file="/global/homes/j/jackm/software/lorrax_A/src/common/load_wfns.py" source_line=705}
  %reshape.26 = f64[24,1,1]{2,1,0} reshape(%broadcast.25), sharding={replicated}, metadata={op_name="jit(_fft_gather_reshard)/jit(main)/mul" source_file="/global/homes/j/jackm/software/lorrax_A/src/common/load_wfns.py" source_line=705}
  %broadcast.27 = f64[9,24,1,1]{3,2,1,0} broadcast(%reshape.26), dimensions={1,2,3}, sharding={replicated}, metadata={op_name="jit(_fft_gather_reshard)/jit(main)/mul" source_file="/global/homes/j/jackm/software/lorrax_A/src/common/load_wfns.py" source_line=705}
  %multiply.28 = f64[9,24,1,1]{3,2,1,0} multiply(%broadcast.24, %broadcast.27), sharding={replicated}, metadata={op_name="jit(_fft_gather_reshard)/jit(main)/mul" source_file="/global/homes/j/jackm/software/lorrax_A/src/common/load_wfns.py" source_line=705}
  %broadcast.36 = f64[9,24,1,1]{3,2,1,0} broadcast(%multiply.28), dimensions={0,1,2,3}, sharding={replicated}, metadata={op_name="jit(_fft_gather_reshard)/jit(main)/add" source_file="/global/homes/j/jackm/software/lorrax_A/src/common/load_wfns.py" source_line=705}
  %reshape.37 = f64[9,24,1]{2,1,0} reshape(%broadcast.36), sharding={replicated}, metadata={op_name="jit(_fft_gather_reshard)/jit(main)/add" source_file="/global/homes/j/jackm/software/lorrax_A/src/common/load_wfns.py" source_line=705}
  %broadcast.38 = f64[9,24,24,1]{3,2,1,0} broadcast(%reshape.37), dimensions={0,1,3}, sharding={replicated}, metadata={op_name="jit(_fft_gather_reshard)/jit(main)/add" source_file="/global/homes/j/jackm/software/lorrax_A/src/common/load_wfns.py" source_line=705}
  %constant.7 = f64[9,1,1,1]{3,2,1,0} constant({ { /*i0=0*/ { /*i1=0*/ {0} } }, { /*i0=1*/ { /*i1=0*/ {0.33333333333333331} } }, { /*i0=2*/ { /*i1=0*/ {0.66666666666666663} } }, { /*i0=3*/ { /*i1=0*/ {0} } }, { /*i0=4*/ { /*i1=0*/ {0.33333333333333331} } }, { /*i0=5*/ { /*i1=0*/ {0.66666666666666663} } }, { /*i0=6*/ { /*i1=0*/ {0} } }, { /*i0=7*/ { /*i1=0*/ {0.33333333333333331} } }, { /*i0=8*/ { /*i1=0*/ {0.66666666666666663} } } }), sharding={replicated}
  %broadcast.29 = f64[9,1,1,1]{3,2,1,0} broadcast(%constant.7), dimensions={0,1,2,3}, sharding={replicated}, metadata={op_name="jit(_fft_gather_reshard)/jit(main)/mul" source_file="/global/homes/j/jackm/software/lorrax_A/src/common/load_wfns.py" source_line=706}
  %reshape.30 = f64[9,1,1]{2,1,0} reshape(%broadcast.29), sharding={replicated}, metadata={op_name="jit(_fft_gather_reshard)/jit(main)/mul" source_file="/global/homes/j/jackm/software/lorrax_A/src/common/load_wfns.py" source_line=706}
  %broadcast.31 = f64[9,1,24,1]{3,2,1,0} broadcast(%reshape.30), dimensions={0,1,3}, sharding={replicated}, metadata={op_name="jit(_fft_gather_reshard)/jit(main)/mul" source_file="/global/homes/j/jackm/software/lorrax_A/src/common/load_wfns.py" source_line=706}
  %constant.16 = f64[1,1,24,1]{3,2,1,0} constant({...}), sharding={replicated}
  %broadcast.32 = f64[1,1,24,1]{3,2,1,0} broadcast(%constant.16), dimensions={0,1,2,3}, sharding={replicated}, metadata={op_name="jit(_fft_gather_reshard)/jit(main)/mul" source_file="/global/homes/j/jackm/software/lorrax_A/src/common/load_wfns.py" source_line=706}
  %reshape.33 = f64[1,24,1]{2,1,0} reshape(%broadcast.32), sharding={replicated}, metadata={op_name="jit(_fft_gather_reshard)/jit(main)/mul" source_file="/global/homes/j/jackm/software/lorrax_A/src/common/load_wfns.py" source_line=706}
  %broadcast.34 = f64[9,1,24,1]{3,2,1,0} broadcast(%reshape.33), dimensions={1,2,3}, sharding={replicated}, metadata={op_name="jit(_fft_gather_reshard)/jit(main)/mul" source_file="/global/homes/j/jackm/software/lorrax_A/src/common/load_wfns.py" source_line=706}
  %multiply.35 = f64[9,1,24,1]{3,2,1,0} multiply(%broadcast.31, %broadcast.34), sharding={replicated}, metadata={op_name="jit(_fft_gather_reshard)/jit(main)/mul" source_file="/global/homes/j/jackm/software/lorrax_A/src/common/load_wfns.py" source_line=706}
  %broadcast.39 = f64[9,1,24,1]{3,2,1,0} broadcast(%multiply.35), dimensions={0,1,2,3}, sharding={replicated}, metadata={op_name="jit(_fft_gather_reshard)/jit(main)/add" source_file="/global/homes/j/jackm/software/lorrax_A/src/common/load_wfns.py" source_line=705}
  %reshape.40 = f64[9,24,1]{2,1,0} reshape(%broadcast.39), sharding={replicated}, metadata={op_name="jit(_fft_gather_reshard)/jit(main)/add" source_file="/global/homes/j/jackm/software/lorrax_A/src/common/load_wfns.py" source_line=705}
  %broadcast.41 = f64[9,24,24,1]{3,2,1,0} broadcast(%reshape.40), dimensions={0,2,3}, sharding={replicated}, metadata={op_name="jit(_fft_gather_reshard)/jit(main)/add" source_file="/global/homes/j/jackm/software/lorrax_A/src/common/load_wfns.py" source_line=705}
  %add.42 = f64[9,24,24,1]{3,2,1,0} add(%broadcast.38, %broadcast.41), sharding={replicated}, metadata={op_name="jit(_fft_gather_reshard)/jit(main)/add" source_file="/global/homes/j/jackm/software/lorrax_A/src/common/load_wfns.py" source_line=705}
  %broadcast.47 = f64[9,24,24,1]{3,2,1,0} broadcast(%add.42), dimensions={0,1,2,3}, sharding={replicated}, metadata={op_name="jit(_fft_gather_reshard)/jit(main)/add" source_file="/global/homes/j/jackm/software/lorrax_A/src/common/load_wfns.py" source_line=705}
  %reshape.48 = f64[9,24,24]{2,1,0} reshape(%broadcast.47), sharding={replicated}, metadata={op_name="jit(_fft_gather_reshard)/jit(main)/add" source_file="/global/homes/j/jackm/software/lorrax_A/src/common/load_wfns.py" source_line=705}
  %broadcast.49 = f64[9,24,24,80]{3,2,1,0} broadcast(%reshape.48), dimensions={0,1,2}, sharding={replicated}, metadata={op_name="jit(_fft_gather_reshard)/jit(main)/add" source_file="/global/homes/j/jackm/software/lorrax_A/src/common/load_wfns.py" source_line=705}
  %constant.17 = f64[1,1,1,80]{3,2,1,0} constant({...}), sharding={replicated}
  %broadcast.43 = f64[1,1,1,80]{3,2,1,0} broadcast(%constant.17), dimensions={0,1,2,3}, sharding={replicated}, metadata={op_name="jit(_fft_gather_reshard)/jit(main)/mul" source_file="/global/homes/j/jackm/software/lorrax_A/src/common/load_wfns.py" source_line=707}
  %reshape.44 = f64[1,1,80]{2,1,0} reshape(%broadcast.43), sharding={replicated}, metadata={op_name="jit(_fft_gather_reshard)/jit(main)/mul" source_file="/global/homes/j/jackm/software/lorrax_A/src/common/load_wfns.py" source_line=707}
  %broadcast.45 = f64[9,1,1,80]{3,2,1,0} broadcast(%reshape.44), dimensions={1,2,3}, sharding={replicated}, metadata={op_name="jit(_fft_gather_reshard)/jit(main)/mul" source_file="/global/homes/j/jackm/software/lorrax_A/src/common/load_wfns.py" source_line=707}
  %constant.5 = f64[] constant(0), sharding={replicated}
  %broadcast.6 = f64[9,1,1,80]{3,2,1,0} broadcast(%constant.5), dimensions={}, sharding={replicated}
  %multiply.46 = f64[9,1,1,80]{3,2,1,0} multiply(%broadcast.45, %broadcast.6), sharding={replicated}, metadata={op_name="jit(_fft_gather_reshard)/jit(main)/mul" source_file="/global/homes/j/jackm/software/lorrax_A/src/common/load_wfns.py" source_line=707}
  %broadcast.50 = f64[9,1,1,80]{3,2,1,0} broadcast(%multiply.46), dimensions={0,1,2,3}, sharding={replicated}, metadata={op_name="jit(_fft_gather_reshard)/jit(main)/add" source_file="/global/homes/j/jackm/software/lorrax_A/src/common/load_wfns.py" source_line=705}
  %reshape.51 = f64[9,80]{1,0} reshape(%broadcast.50), sharding={replicated}, metadata={op_name="jit(_fft_gather_reshard)/jit(main)/add" source_file="/global/homes/j/jackm/software/lorrax_A/src/common/load_wfns.py" source_line=705}
  %broadcast.52 = f64[9,24,24,80]{3,2,1,0} broadcast(%reshape.51), dimensions={0,3}, sharding={replicated}, metadata={op_name="jit(_fft_gather_reshard)/jit(main)/add" source_file="/global/homes/j/jackm/software/lorrax_A/src/common/load_wfns.py" source_line=705}
  %add.53 = f64[9,24,24,80]{3,2,1,0} add(%broadcast.49, %broadcast.52), sharding={replicated}, metadata={op_name="jit(_fft_gather_reshard)/jit(main)/add" source_file="/global/homes/j/jackm/software/lorrax_A/src/common/load_wfns.py" source_line=705}
  %convert.54 = c128[9,24,24,80]{3,2,1,0} convert(%add.53), sharding={replicated}, metadata={op_name="jit(_fft_gather_reshard)/jit(main)/convert_element_type" source_file="/global/homes/j/jackm/software/lorrax_A/src/common/load_wfns.py" source_line=704}
  %constant.3 = c128[] constant((0, 6.2831853071795862)), sharding={replicated}
  %broadcast.4 = c128[9,24,24,80]{3,2,1,0} broadcast(%constant.3), dimensions={}, sharding={replicated}
  %multiply.55 = c128[9,24,24,80]{3,2,1,0} multiply(%convert.54, %broadcast.4), sharding={replicated}, metadata={op_name="jit(_fft_gather_reshard)/jit(main)/mul" source_file="/global/homes/j/jackm/software/lorrax_A/src/common/load_wfns.py" source_line=704}
  %real.56 = f64[9,24,24,80]{3,2,1,0} real(%multiply.55), sharding={replicated}, metadata={op_name="jit(_fft_gather_reshard)/jit(main)/exp" source_file="/global/homes/j/jackm/software/lorrax_A/src/common/load_wfns.py" source_line=703}
  %exponential.57 = f64[9,24,24,80]{3,2,1,0} exponential(%real.56), sharding={replicated}, metadata={op_name="jit(_fft_gather_reshard)/jit(main)/exp" source_file="/global/homes/j/jackm/software/lorrax_A/src/common/load_wfns.py" source_line=703}
  %constant.13 = f64[] constant(inf), sharding={replicated}
  %broadcast.14 = f64[9,24,24,80]{3,2,1,0} broadcast(%constant.13), dimensions={}, sharding={replicated}
  %compare.58 = pred[9,24,24,80]{3,2,1,0} compare(%exponential.57, %broadcast.14), direction=EQ, sharding={replicated}, metadata={op_name="jit(_fft_gather_reshard)/jit(main)/exp" source_file="/global/homes/j/jackm/software/lorrax_A/src/common/load_wfns.py" source_line=703}
  %constant.11 = f64[] constant(0.5), sharding={replicated}
  %broadcast.12 = f64[9,24,24,80]{3,2,1,0} broadcast(%constant.11), dimensions={}, sharding={replicated}
  %multiply.59 = f64[9,24,24,80]{3,2,1,0} multiply(%real.56, %broadcast.12), sharding={replicated}, metadata={op_name="jit(_fft_gather_reshard)/jit(main)/exp" source_file="/global/homes/j/jackm/software/lorrax_A/src/common/load_wfns.py" source_line=703}
  %exponential.60 = f64[9,24,24,80]{3,2,1,0} exponential(%multiply.59), sharding={replicated}, metadata={op_name="jit(_fft_gather_reshard)/jit(main)/exp" source_file="/global/homes/j/jackm/software/lorrax_A/src/common/load_wfns.py" source_line=703}
  %imag.61 = f64[9,24,24,80]{3,2,1,0} imag(%multiply.55), sharding={replicated}, metadata={op_name="jit(_fft_gather_reshard)/jit(main)/exp" source_file="/global/homes/j/jackm/software/lorrax_A/src/common/load_wfns.py" source_line=703}
  %cosine.62 = f64[9,24,24,80]{3,2,1,0} cosine(%imag.61), sharding={replicated}, metadata={op_name="jit(_fft_gather_reshard)/jit(main)/exp" source_file="/global/homes/j/jackm/software/lorrax_A/src/common/load_wfns.py" source_line=703}
  %multiply.63 = f64[9,24,24,80]{3,2,1,0} multiply(%exponential.60, %cosine.62), sharding={replicated}, metadata={op_name="jit(_fft_gather_reshard)/jit(main)/exp" source_file="/global/homes/j/jackm/software/lorrax_A/src/common/load_wfns.py" source_line=703}
  %multiply.64 = f64[9,24,24,80]{3,2,1,0} multiply(%multiply.63, %exponential.60), sharding={replicated}, metadata={op_name="jit(_fft_gather_reshard)/jit(main)/exp" source_file="/global/homes/j/jackm/software/lorrax_A/src/common/load_wfns.py" source_line=703}
  %multiply.65 = f64[9,24,24,80]{3,2,1,0} multiply(%exponential.57, %cosine.62), sharding={replicated}, metadata={op_name="jit(_fft_gather_reshard)/jit(main)/exp" source_file="/global/homes/j/jackm/software/lorrax_A/src/common/load_wfns.py" source_line=703}
  %select.66 = f64[9,24,24,80]{3,2,1,0} select(%compare.58, %multiply.64, %multiply.65), sharding={replicated}, metadata={op_name="jit(_fft_gather_reshard)/jit(main)/exp" source_file="/global/homes/j/jackm/software/lorrax_A/src/common/load_wfns.py" source_line=703}
  %constant.9 = f64[] constant(0), sharding={replicated}
  %broadcast.10 = f64[9,24,24,80]{3,2,1,0} broadcast(%constant.9), dimensions={}, sharding={replicated}
  %compare.67 = pred[9,24,24,80]{3,2,1,0} compare(%imag.61, %broadcast.10), direction=EQ, sharding={replicated}, metadata={op_name="jit(_fft_gather_reshard)/jit(main)/exp" source_file="/global/homes/j/jackm/software/lorrax_A/src/common/load_wfns.py" source_line=703}
  %sine.68 = f64[9,24,24,80]{3,2,1,0} sine(%imag.61), sharding={replicated}, metadata={op_name="jit(_fft_gather_reshard)/jit(main)/exp" source_file="/global/homes/j/jackm/software/lorrax_A/src/common/load_wfns.py" source_line=703}
  %multiply.69 = f64[9,24,24,80]{3,2,1,0} multiply(%exponential.60, %sine.68), sharding={replicated}, metadata={op_name="jit(_fft_gather_reshard)/jit(main)/exp" source_file="/global/homes/j/jackm/software/lorrax_A/src/common/load_wfns.py" source_line=703}
  %multiply.70 = f64[9,24,24,80]{3,2,1,0} multiply(%multiply.69, %exponential.60), sharding={replicated}, metadata={op_name="jit(_fft_gather_reshard)/jit(main)/exp" source_file="/global/homes/j/jackm/software/lorrax_A/src/common/load_wfns.py" source_line=703}
  %multiply.71 = f64[9,24,24,80]{3,2,1,0} multiply(%exponential.57, %sine.68), sharding={replicated}, metadata={op_name="jit(_fft_gather_reshard)/jit(main)/exp" source_file="/global/homes/j/jackm/software/lorrax_A/src/common/load_wfns.py" source_line=703}
  %select.72 = f64[9,24,24,80]{3,2,1,0} select(%compare.58, %multiply.70, %multiply.71), sharding={replicated}, metadata={op_name="jit(_fft_gather_reshard)/jit(main)/exp" source_file="/global/homes/j/jackm/software/lorrax_A/src/common/load_wfns.py" source_line=703}
  %select.73 = f64[9,24,24,80]{3,2,1,0} select(%compare.67, %broadcast.10, %select.72), sharding={replicated}, metadata={op_name="jit(_fft_gather_reshard)/jit(main)/exp" source_file="/global/homes/j/jackm/software/lorrax_A/src/common/load_wfns.py" source_line=703}
  %complex.74 = c128[9,24,24,80]{3,2,1,0} complex(%select.66, %select.73), sharding={replicated}, metadata={op_name="jit(_fft_gather_reshard)/jit(main)/exp" source_file="/global/homes/j/jackm/software/lorrax_A/src/common/load_wfns.py" source_line=703}
  %reshape.75 = c128[9,1,1,24,24,80]{5,4,3,2,1,0} reshape(%complex.74), sharding={replicated}, metadata={op_name="jit(_fft_gather_reshard)/jit(main)/broadcast_in_dim" source_file="/global/homes/j/jackm/software/lorrax_A/src/common/load_wfns.py" source_line=710}
  %broadcast.76 = c128[9,1,1,24,24,80]{5,4,3,2,1,0} broadcast(%reshape.75), dimensions={0,1,2,3,4,5}, sharding={replicated}, metadata={op_name="jit(_fft_gather_reshard)/jit(main)/mul" source_file="/global/homes/j/jackm/software/lorrax_A/src/common/load_wfns.py" source_line=710}
  %reshape.77 = c128[9,24,24,80]{3,2,1,0} reshape(%broadcast.76), sharding={replicated}, metadata={op_name="jit(_fft_gather_reshard)/jit(main)/mul" source_file="/global/homes/j/jackm/software/lorrax_A/src/common/load_wfns.py" source_line=710}
  %broadcast.78 = c128[9,80,2,24,24,80]{5,4,3,2,1,0} broadcast(%reshape.77), dimensions={0,3,4,5}, sharding={devices=[1,4,1,1,1,1]<=[4]}, metadata={op_name="jit(_fft_gather_reshard)/jit(main)/mul" source_file="/global/homes/j/jackm/software/lorrax_A/src/common/load_wfns.py" source_line=710}
  %multiply.79 = c128[9,80,2,24,24,80]{5,4,3,2,1,0} multiply(%custom-call.21, %broadcast.78), sharding={devices=[1,4,1,1,1,1]<=[4]}, metadata={op_name="jit(_fft_gather_reshard)/jit(main)/mul" source_file="/global/homes/j/jackm/software/lorrax_A/src/common/load_wfns.py" source_line=710}
  %constant.2 = f64[] constant(214.66252583997982), sharding={replicated}
  %convert.80 = c128[] convert(%constant.2), sharding={replicated}, metadata={op_name="jit(_fft_gather_reshard)/jit(main)/convert_element_type" source_file="/global/homes/j/jackm/software/lorrax_A/src/common/load_wfns.py" source_line=711}
  %broadcast.81 = c128[9,80,2,24,24,80]{5,4,3,2,1,0} broadcast(%convert.80), dimensions={}, sharding={devices=[1,4,1,1,1,1]<=[4]}, metadata={op_name="jit(_fft_gather_reshard)/jit(main)/mul" source_file="/global/homes/j/jackm/software/lorrax_A/src/common/load_wfns.py" source_line=711}
  %multiply.82 = c128[9,80,2,24,24,80]{5,4,3,2,1,0} multiply(%multiply.79, %broadcast.81), sharding={devices=[1,4,1,1,1,1]<=[4]}, metadata={op_name="jit(_fft_gather_reshard)/jit(main)/mul" source_file="/global/homes/j/jackm/software/lorrax_A/src/common/load_wfns.py" source_line=711}
  %reshape.83 = c128[9,80,2,46080]{3,2,1,0} reshape(%multiply.82), sharding={devices=[1,4,1,1]<=[4]}, metadata={op_name="jit(_fft_gather_reshard)/jit(main)/reshape" source_file="/global/homes/j/jackm/software/lorrax_A/src/common/load_wfns.py" source_line=716}
  %gather.0 = c128[9,80,2,640]{3,2,1,0} gather(%reshape.83, %reshape.0), offset_dims={0,1,2}, collapsed_slice_dims={3}, start_index_map={3}, index_vector_dim=1, slice_sizes={9,80,2,1}, sharding={devices=[1,2,1,1,2]<=[2,2]T(1,0) last_tile_dim_replicate}, metadata={op_name="jit(_fft_gather_reshard)/jit(main)/jit(_take)/gather" source_file="/global/homes/j/jackm/software/lorrax_A/src/common/load_wfns.py" source_line=717}
  %constant.12 = c128[] constant((nan, 0)), sharding={replicated}
  %broadcast.7 = c128[9,80,2,640]{3,2,1,0} broadcast(%constant.12), dimensions={}, sharding={devices=[1,2,1,1,2]<=[2,2]T(1,0) last_tile_dim_replicate}
  %select.2 = c128[9,80,2,640]{3,2,1,0} select(%broadcast.5, %gather.0, %broadcast.7), sharding={devices=[1,2,1,1,2]<=[2,2]T(1,0) last_tile_dim_replicate}, metadata={op_name="jit(_fft_gather_reshard)/jit(main)/jit(_take)/select_n" source_file="/global/homes/j/jackm/software/lorrax_A/src/common/load_wfns.py" source_line=717}
  %copy.2 = c128[9,80,2,640]{3,2,1,0} copy(%select.2), sharding={devices=[1,2,1,1,2]<=[2,2]T(1,0) last_tile_dim_replicate}, metadata={op_name="jit(_fft_gather_reshard)/jit(main)/sharding_constraint" source_file="/global/homes/j/jackm/software/lorrax_A/src/common/load_wfns.py" source_line=722}
  %copy.1 = c128[9,80,2,640]{3,2,1,0} copy(%copy.2), sharding={devices=[1,1,1,2,2]<=[2,2]T(1,0) last_tile_dim_replicate}, metadata={op_name="jit(_fft_gather_reshard)/jit(main)/sharding_constraint" source_file="/global/homes/j/jackm/software/lorrax_A/src/common/load_wfns.py" source_line=724}
  %transpose.121 = c128[9,640,80,2]{1,3,2,0} transpose(%copy.1), dimensions={0,3,1,2}, sharding={devices=[1,2,1,1,2]<=[2,2]T(1,0) last_tile_dim_replicate}, metadata={op_name="jit(_fft_gather_reshard)/jit(main)/transpose" source_file="/global/homes/j/jackm/software/lorrax_A/src/common/load_wfns.py" source_line=727}
  %real.122 = f64[9,640,80,2]{1,3,2,0} real(%transpose.121), sharding={devices=[1,2,1,1,2]<=[2,2]T(1,0) last_tile_dim_replicate}, metadata={op_name="jit(_fft_gather_reshard)/jit(main)/real" source_file="/global/homes/j/jackm/software/lorrax_A/src/common/load_wfns.py" source_line=727}
  %imag.123 = f64[9,640,80,2]{1,3,2,0} imag(%transpose.121), sharding={devices=[1,2,1,1,2]<=[2,2]T(1,0) last_tile_dim_replicate}, metadata={op_name="jit(_fft_gather_reshard)/jit(main)/imag" source_file="/global/homes/j/jackm/software/lorrax_A/src/common/load_wfns.py" source_line=727}
  %negate.124 = f64[9,640,80,2]{1,3,2,0} negate(%imag.123), sharding={devices=[1,2,1,1,2]<=[2,2]T(1,0) last_tile_dim_replicate}, metadata={op_name="jit(_fft_gather_reshard)/jit(main)/neg" source_file="/global/homes/j/jackm/software/lorrax_A/src/common/load_wfns.py" source_line=727}
  %complex.125 = c128[9,640,80,2]{1,3,2,0} complex(%real.122, %negate.124), sharding={devices=[1,2,1,1,2]<=[4] last_tile_dim_replicate}, metadata={op_name="jit(_fft_gather_reshard)/jit(main)/complex" source_file="/global/homes/j/jackm/software/lorrax_A/src/common/load_wfns.py" source_line=727}
  %copy = c128[9,640,80,2]{3,2,1,0} copy(%complex.125), sharding={devices=[1,2,1,1,2]<=[4] last_tile_dim_replicate}, metadata={op_name="jit(_fft_gather_reshard)/jit(main)/sharding_constraint" source_file="/global/homes/j/jackm/software/lorrax_A/src/common/load_wfns.py" source_line=728}
  ROOT %tuple.127 = (c128[9,80,2,640]{3,2,1,0}, c128[9,640,80,2]{3,2,1,0}) tuple(%copy.1, %copy), sharding={{devices=[1,1,1,2,2]<=[2,2]T(1,0) last_tile_dim_replicate}, {devices=[1,2,1,1,2]<=[4] last_tile_dim_replicate}}
}

