HloModule jit__ionic_gspace_jit, entry_computation_layout={(f64[46080,3]{1,0}, f64[46080]{0}, f64[2,2,3]{2,1,0}, s32[2]{0}, f64[2,4000]{1,0}, /*index=5*/f64[2,4000]{1,0}, f64[2]{0}, f64[2]{0}, f64[2]{0}, f64[3,3]{1,0}, /*index=10*/f64[], f64[], f64[], f64[], f64[])->(f64[24,24,80]{2,1,0}, f64[24,24,80]{2,1,0}, c128[24,24,80]{2,1,0})}, allow_spmd_sharding_propagation_to_parameters={true,true,true,true,true,true,true,true,true,true,true,true,true,true,true}, allow_spmd_sharding_propagation_to_output={true,true,true}

%None_0.35 (Arg_0.36: f64[2,3], Arg_1.37: f64[46080,3], Arg_2.38: s32[], Arg_3.39: c128[46080], Arg_4.40: s64[]) -> c128[46080] {
  %Arg_3.39 = c128[46080]{0} parameter(3), metadata={op_name="jit(_ionic_gspace_jit)/jit(main)/jit(species_structure_factors)/while/body/while/body/closed_call"}
  %Arg_1.37 = f64[46080,3]{1,0} parameter(1), metadata={op_name="jit(_ionic_gspace_jit)/jit(main)/jit(species_structure_factors)/while/body/while/body/closed_call"}
  %Arg_0.36 = f64[2,3]{1,0} parameter(0), metadata={op_name="jit(_ionic_gspace_jit)/jit(main)/jit(species_structure_factors)/while/body/while/body/closed_call"}
  %Arg_4.40 = s64[] parameter(4), metadata={op_name="jit(_ionic_gspace_jit)/jit(main)/jit(species_structure_factors)/while/body/while/body/closed_call"}
  %constant.50 = s64[] constant(0)
  %compare.51 = pred[] compare(%Arg_4.40, %constant.50), direction=LT, metadata={op_name="jit(_ionic_gspace_jit)/jit(main)/jit(species_structure_factors)/while/body/while/body/lt" source_file="/global/homes/j/jackm/software/lorrax_B/src/psp/ionic_gspace.py" source_line=60}
  %constant.49 = s64[] constant(2)
  %add.52 = s64[] add(%Arg_4.40, %constant.49), metadata={op_name="jit(_ionic_gspace_jit)/jit(main)/jit(species_structure_factors)/while/body/while/body/add" source_file="/global/homes/j/jackm/software/lorrax_B/src/psp/ionic_gspace.py" source_line=60}
  %select.53 = s64[] select(%compare.51, %add.52, %Arg_4.40), metadata={op_name="jit(_ionic_gspace_jit)/jit(main)/jit(species_structure_factors)/while/body/while/body/select_n" source_file="/global/homes/j/jackm/software/lorrax_B/src/psp/ionic_gspace.py" source_line=60}
  %dynamic-slice.54 = f64[1,3]{1,0} dynamic-slice(%Arg_0.36, %select.53, %constant.50), dynamic_slice_sizes={1,3}, metadata={op_name="jit(_ionic_gspace_jit)/jit(main)/jit(species_structure_factors)/while/body/while/body/dynamic_slice" source_file="/global/homes/j/jackm/software/lorrax_B/src/psp/ionic_gspace.py" source_line=60}
  %reshape.55 = f64[3]{0} reshape(%dynamic-slice.54), metadata={op_name="jit(_ionic_gspace_jit)/jit(main)/jit(species_structure_factors)/while/body/while/body/squeeze" source_file="/global/homes/j/jackm/software/lorrax_B/src/psp/ionic_gspace.py" source_line=60}
  %dot.56 = f64[46080]{0} dot(%Arg_1.37, %reshape.55), lhs_contracting_dims={1}, rhs_contracting_dims={0}, metadata={op_name="jit(_ionic_gspace_jit)/jit(main)/jit(species_structure_factors)/while/body/while/body/dot_general" source_file="/global/homes/j/jackm/software/lorrax_B/src/psp/ionic_gspace.py" source_line=60}
  %convert.57 = c128[46080]{0} convert(%dot.56), metadata={op_name="jit(_ionic_gspace_jit)/jit(main)/jit(species_structure_factors)/while/body/while/body/convert_element_type" source_file="/global/homes/j/jackm/software/lorrax_B/src/psp/ionic_gspace.py" source_line=60}
  %constant.41 = c128[] constant((0, -6.2831853071795862))
  %broadcast.42 = c128[46080]{0} broadcast(%constant.41), dimensions={}
  %multiply.58 = c128[46080]{0} multiply(%convert.57, %broadcast.42), metadata={op_name="jit(_ionic_gspace_jit)/jit(main)/jit(species_structure_factors)/while/body/while/body/mul" source_file="/global/homes/j/jackm/software/lorrax_B/src/psp/ionic_gspace.py" source_line=60}
  %real.59 = f64[46080]{0} real(%multiply.58), metadata={op_name="jit(_ionic_gspace_jit)/jit(main)/jit(species_structure_factors)/while/body/while/body/exp" source_file="/global/homes/j/jackm/software/lorrax_B/src/psp/ionic_gspace.py" source_line=60}
  %exponential.60 = f64[46080]{0} exponential(%real.59), metadata={op_name="jit(_ionic_gspace_jit)/jit(main)/jit(species_structure_factors)/while/body/while/body/exp" source_file="/global/homes/j/jackm/software/lorrax_B/src/psp/ionic_gspace.py" source_line=60}
  %constant.47 = f64[] constant(inf)
  %broadcast.48 = f64[46080]{0} broadcast(%constant.47), dimensions={}
  %compare.61 = pred[46080]{0} compare(%exponential.60, %broadcast.48), direction=EQ, metadata={op_name="jit(_ionic_gspace_jit)/jit(main)/jit(species_structure_factors)/while/body/while/body/exp" source_file="/global/homes/j/jackm/software/lorrax_B/src/psp/ionic_gspace.py" source_line=60}
  %constant.45 = f64[] constant(0.5)
  %broadcast.46 = f64[46080]{0} broadcast(%constant.45), dimensions={}
  %multiply.62 = f64[46080]{0} multiply(%real.59, %broadcast.46), metadata={op_name="jit(_ionic_gspace_jit)/jit(main)/jit(species_structure_factors)/while/body/while/body/exp" source_file="/global/homes/j/jackm/software/lorrax_B/src/psp/ionic_gspace.py" source_line=60}
  %exponential.63 = f64[46080]{0} exponential(%multiply.62), metadata={op_name="jit(_ionic_gspace_jit)/jit(main)/jit(species_structure_factors)/while/body/while/body/exp" source_file="/global/homes/j/jackm/software/lorrax_B/src/psp/ionic_gspace.py" source_line=60}
  %imag.64 = f64[46080]{0} imag(%multiply.58), metadata={op_name="jit(_ionic_gspace_jit)/jit(main)/jit(species_structure_factors)/while/body/while/body/exp" source_file="/global/homes/j/jackm/software/lorrax_B/src/psp/ionic_gspace.py" source_line=60}
  %cosine.65 = f64[46080]{0} cosine(%imag.64), metadata={op_name="jit(_ionic_gspace_jit)/jit(main)/jit(species_structure_factors)/while/body/while/body/exp" source_file="/global/homes/j/jackm/software/lorrax_B/src/psp/ionic_gspace.py" source_line=60}
  %multiply.66 = f64[46080]{0} multiply(%exponential.63, %cosine.65), metadata={op_name="jit(_ionic_gspace_jit)/jit(main)/jit(species_structure_factors)/while/body/while/body/exp" source_file="/global/homes/j/jackm/software/lorrax_B/src/psp/ionic_gspace.py" source_line=60}
  %multiply.67 = f64[46080]{0} multiply(%multiply.66, %exponential.63), metadata={op_name="jit(_ionic_gspace_jit)/jit(main)/jit(species_structure_factors)/while/body/while/body/exp" source_file="/global/homes/j/jackm/software/lorrax_B/src/psp/ionic_gspace.py" source_line=60}
  %multiply.68 = f64[46080]{0} multiply(%exponential.60, %cosine.65), metadata={op_name="jit(_ionic_gspace_jit)/jit(main)/jit(species_structure_factors)/while/body/while/body/exp" source_file="/global/homes/j/jackm/software/lorrax_B/src/psp/ionic_gspace.py" source_line=60}
  %select.69 = f64[46080]{0} select(%compare.61, %multiply.67, %multiply.68), metadata={op_name="jit(_ionic_gspace_jit)/jit(main)/jit(species_structure_factors)/while/body/while/body/exp" source_file="/global/homes/j/jackm/software/lorrax_B/src/psp/ionic_gspace.py" source_line=60}
  %constant.43 = f64[] constant(0)
  %broadcast.44 = f64[46080]{0} broadcast(%constant.43), dimensions={}
  %compare.70 = pred[46080]{0} compare(%imag.64, %broadcast.44), direction=EQ, metadata={op_name="jit(_ionic_gspace_jit)/jit(main)/jit(species_structure_factors)/while/body/while/body/exp" source_file="/global/homes/j/jackm/software/lorrax_B/src/psp/ionic_gspace.py" source_line=60}
  %sine.71 = f64[46080]{0} sine(%imag.64), metadata={op_name="jit(_ionic_gspace_jit)/jit(main)/jit(species_structure_factors)/while/body/while/body/exp" source_file="/global/homes/j/jackm/software/lorrax_B/src/psp/ionic_gspace.py" source_line=60}
  %multiply.72 = f64[46080]{0} multiply(%exponential.63, %sine.71), metadata={op_name="jit(_ionic_gspace_jit)/jit(main)/jit(species_structure_factors)/while/body/while/body/exp" source_file="/global/homes/j/jackm/software/lorrax_B/src/psp/ionic_gspace.py" source_line=60}
  %multiply.73 = f64[46080]{0} multiply(%multiply.72, %exponential.63), metadata={op_name="jit(_ionic_gspace_jit)/jit(main)/jit(species_structure_factors)/while/body/while/body/exp" source_file="/global/homes/j/jackm/software/lorrax_B/src/psp/ionic_gspace.py" source_line=60}
  %multiply.74 = f64[46080]{0} multiply(%exponential.60, %sine.71), metadata={op_name="jit(_ionic_gspace_jit)/jit(main)/jit(species_structure_factors)/while/body/while/body/exp" source_file="/global/homes/j/jackm/software/lorrax_B/src/psp/ionic_gspace.py" source_line=60}
  %select.75 = f64[46080]{0} select(%compare.61, %multiply.73, %multiply.74), metadata={op_name="jit(_ionic_gspace_jit)/jit(main)/jit(species_structure_factors)/while/body/while/body/exp" source_file="/global/homes/j/jackm/software/lorrax_B/src/psp/ionic_gspace.py" source_line=60}
  %select.76 = f64[46080]{0} select(%compare.70, %broadcast.44, %select.75), metadata={op_name="jit(_ionic_gspace_jit)/jit(main)/jit(species_structure_factors)/while/body/while/body/exp" source_file="/global/homes/j/jackm/software/lorrax_B/src/psp/ionic_gspace.py" source_line=60}
  %complex.77 = c128[46080]{0} complex(%select.69, %select.76), metadata={op_name="jit(_ionic_gspace_jit)/jit(main)/jit(species_structure_factors)/while/body/while/body/exp" source_file="/global/homes/j/jackm/software/lorrax_B/src/psp/ionic_gspace.py" source_line=60}
  %Arg_2.38 = s32[] parameter(2), metadata={op_name="jit(_ionic_gspace_jit)/jit(main)/jit(species_structure_factors)/while/body/while/body/closed_call"}
  %convert.78 = s64[] convert(%Arg_2.38), metadata={op_name="jit(_ionic_gspace_jit)/jit(main)/jit(species_structure_factors)/while/body/while/body/convert_element_type" source_file="/global/homes/j/jackm/software/lorrax_B/src/psp/ionic_gspace.py" source_line=61}
  %compare.79 = pred[] compare(%Arg_4.40, %convert.78), direction=LT, metadata={op_name="jit(_ionic_gspace_jit)/jit(main)/jit(species_structure_factors)/while/body/while/body/lt" source_file="/global/homes/j/jackm/software/lorrax_B/src/psp/ionic_gspace.py" source_line=61}
  %convert.80 = c128[] convert(%compare.79), metadata={op_name="jit(_ionic_gspace_jit)/jit(main)/jit(species_structure_factors)/while/body/while/body/convert_element_type" source_file="/global/homes/j/jackm/software/lorrax_B/src/psp/ionic_gspace.py" source_line=61}
  %broadcast.81 = c128[46080]{0} broadcast(%convert.80), dimensions={}, metadata={op_name="jit(_ionic_gspace_jit)/jit(main)/jit(species_structure_factors)/while/body/while/body/mul" source_file="/global/homes/j/jackm/software/lorrax_B/src/psp/ionic_gspace.py" source_line=61}
  %multiply.82 = c128[46080]{0} multiply(%complex.77, %broadcast.81), metadata={op_name="jit(_ionic_gspace_jit)/jit(main)/jit(species_structure_factors)/while/body/while/body/mul" source_file="/global/homes/j/jackm/software/lorrax_B/src/psp/ionic_gspace.py" source_line=61}
  ROOT %add.83 = c128[46080]{0} add(%Arg_3.39, %multiply.82), metadata={op_name="jit(_ionic_gspace_jit)/jit(main)/jit(species_structure_factors)/while/body/while/body/add" source_file="/global/homes/j/jackm/software/lorrax_B/src/psp/ionic_gspace.py" source_line=61}
}

%region_1.84 (arg_tuple.85: (s64[], c128[46080], s64[2], f64[2,3], f64[46080,3], /*index=5*/s32[])) -> (s64[], c128[46080], s64[2], f64[2,3], f64[46080,3], /*index=5*/s32[]) {
  %arg_tuple.85 = (s64[], c128[46080]{0}, s64[2]{0}, f64[2,3]{1,0}, f64[46080,3]{1,0}, /*index=5*/s32[]) parameter(0)
  %get-tuple-element.86 = s64[] get-tuple-element(%arg_tuple.85), index=0
  %constant.92 = s64[] constant(1)
  %add.96 = s64[] add(%get-tuple-element.86, %constant.92), metadata={op_name="jit(_ionic_gspace_jit)/jit(main)/jit(species_structure_factors)/while/body/while/body/add" source_file="/global/homes/j/jackm/software/lorrax_B/src/psp/ionic_gspace.py" source_line=63}
  %get-tuple-element.89 = f64[2,3]{1,0} get-tuple-element(%arg_tuple.85), index=3
  %get-tuple-element.90 = f64[46080,3]{1,0} get-tuple-element(%arg_tuple.85), index=4
  %get-tuple-element.91 = s32[] get-tuple-element(%arg_tuple.85), index=5
  %get-tuple-element.87 = c128[46080]{0} get-tuple-element(%arg_tuple.85), index=1
  %get-tuple-element.88 = s64[2]{0} get-tuple-element(%arg_tuple.85), index=2
  %dynamic-slice.93 = s64[1]{0} dynamic-slice(%get-tuple-element.88, %get-tuple-element.86), dynamic_slice_sizes={1}, metadata={op_name="jit(_ionic_gspace_jit)/jit(main)/jit(species_structure_factors)/while/body/while/body/dynamic_slice" source_file="/global/homes/j/jackm/software/lorrax_B/src/psp/ionic_gspace.py" source_line=63}
  %reshape.94 = s64[] reshape(%dynamic-slice.93), metadata={op_name="jit(_ionic_gspace_jit)/jit(main)/jit(species_structure_factors)/while/body/while/body/squeeze" source_file="/global/homes/j/jackm/software/lorrax_B/src/psp/ionic_gspace.py" source_line=63}
  %call.95 = c128[46080]{0} call(%get-tuple-element.89, %get-tuple-element.90, %get-tuple-element.91, %get-tuple-element.87, %reshape.94), to_apply=%None_0.35
  ROOT %tuple.97 = (s64[], c128[46080]{0}, s64[2]{0}, f64[2,3]{1,0}, f64[46080,3]{1,0}, /*index=5*/s32[]) tuple(%add.96, %call.95, %get-tuple-element.88, %get-tuple-element.89, %get-tuple-element.90, /*index=5*/%get-tuple-element.91)
}

%region_2.98 (arg_tuple.99: (s64[], c128[46080], s64[2], f64[2,3], f64[46080,3], /*index=5*/s32[])) -> pred[] {
  %arg_tuple.99 = (s64[], c128[46080]{0}, s64[2]{0}, f64[2,3]{1,0}, f64[46080,3]{1,0}, /*index=5*/s32[]) parameter(0)
  %get-tuple-element.101 = c128[46080]{0} get-tuple-element(%arg_tuple.99), index=1
  %get-tuple-element.102 = s64[2]{0} get-tuple-element(%arg_tuple.99), index=2
  %get-tuple-element.103 = f64[2,3]{1,0} get-tuple-element(%arg_tuple.99), index=3
  %get-tuple-element.104 = f64[46080,3]{1,0} get-tuple-element(%arg_tuple.99), index=4
  %get-tuple-element.105 = s32[] get-tuple-element(%arg_tuple.99), index=5
  %get-tuple-element.100 = s64[] get-tuple-element(%arg_tuple.99), index=0
  %constant.106 = s64[] constant(2)
  ROOT %compare.107 = pred[] compare(%get-tuple-element.100, %constant.106), direction=LT, metadata={op_name="jit(_ionic_gspace_jit)/jit(main)/jit(species_structure_factors)/while/body/while/cond/lt" source_file="/global/homes/j/jackm/software/lorrax_B/src/psp/ionic_gspace.py" source_line=63}
}

%None.108 (Arg_0.109: f64[46080,3], Arg_1.110: f64[2,3], Arg_2.111: s32[]) -> c128[46080] {
  %constant.112 = s64[] constant(0)
  %constant.113 = c128[] constant((0, 0))
  %broadcast.114 = c128[46080]{0} broadcast(%constant.113), dimensions={}, metadata={op_name="jit(_ionic_gspace_jit)/jit(main)/jit(species_structure_factors)/while/body/broadcast_in_dim" source_file="/global/homes/j/jackm/software/lorrax_B/src/psp/ionic_gspace.py" source_line=63}
  %iota.115 = s64[2]{0} iota(), iota_dimension=0, metadata={op_name="jit(_ionic_gspace_jit)/jit(main)/jit(species_structure_factors)/while/body/iota" source_file="/global/homes/j/jackm/software/lorrax_B/src/psp/ionic_gspace.py" source_line=64}
  %Arg_1.110 = f64[2,3]{1,0} parameter(1), metadata={op_name="jit(_ionic_gspace_jit)/jit(main)/jit(species_structure_factors)/while/body/closed_call"}
  %Arg_0.109 = f64[46080,3]{1,0} parameter(0), metadata={op_name="jit(_ionic_gspace_jit)/jit(main)/jit(species_structure_factors)/while/body/closed_call"}
  %Arg_2.111 = s32[] parameter(2), metadata={op_name="jit(_ionic_gspace_jit)/jit(main)/jit(species_structure_factors)/while/body/closed_call"}
  %tuple.116 = (s64[], c128[46080]{0}, s64[2]{0}, f64[2,3]{1,0}, f64[46080,3]{1,0}, /*index=5*/s32[]) tuple(%constant.112, %broadcast.114, %iota.115, %Arg_1.110, %Arg_0.109, /*index=5*/%Arg_2.111), metadata={op_name="jit(_ionic_gspace_jit)/jit(main)/jit(species_structure_factors)/while/body/while" source_file="/global/homes/j/jackm/software/lorrax_B/src/psp/ionic_gspace.py" source_line=63}
  %while.117 = (s64[], c128[46080]{0}, s64[2]{0}, f64[2,3]{1,0}, f64[46080,3]{1,0}, /*index=5*/s32[]) while(%tuple.116), condition=%region_2.98, body=%region_1.84, metadata={op_name="jit(_ionic_gspace_jit)/jit(main)/jit(species_structure_factors)/while/body/while" source_file="/global/homes/j/jackm/software/lorrax_B/src/psp/ionic_gspace.py" source_line=63}
  %get-tuple-element.118 = s64[] get-tuple-element(%while.117), index=0, metadata={op_name="jit(_ionic_gspace_jit)/jit(main)/jit(species_structure_factors)/while/body/while" source_file="/global/homes/j/jackm/software/lorrax_B/src/psp/ionic_gspace.py" source_line=63}
  ROOT %get-tuple-element.119 = c128[46080]{0} get-tuple-element(%while.117), index=1, metadata={op_name="jit(_ionic_gspace_jit)/jit(main)/jit(species_structure_factors)/while/body/while" source_file="/global/homes/j/jackm/software/lorrax_B/src/psp/ionic_gspace.py" source_line=63}
}

%region_0.120 (arg_tuple.121: (s64[], c128[2,46080], f64[2,2,3], s32[2], f64[46080,3])) -> (s64[], c128[2,46080], f64[2,2,3], s32[2], f64[46080,3]) {
  %arg_tuple.121 = (s64[], c128[2,46080]{1,0}, f64[2,2,3]{2,1,0}, s32[2]{0}, f64[46080,3]{1,0}) parameter(0)
  %get-tuple-element.122 = s64[] get-tuple-element(%arg_tuple.121), index=0
  %constant.127 = s64[] constant(1)
  %add.136 = s64[] add(%get-tuple-element.122, %constant.127), metadata={op_name="jit(_ionic_gspace_jit)/jit(main)/jit(species_structure_factors)/while/body/add" source_file="/global/homes/j/jackm/software/lorrax_B/src/psp/ionic_gspace.py" source_line=67}
  %get-tuple-element.123 = c128[2,46080]{1,0} get-tuple-element(%arg_tuple.121), index=1
  %get-tuple-element.126 = f64[46080,3]{1,0} get-tuple-element(%arg_tuple.121), index=4
  %get-tuple-element.124 = f64[2,2,3]{2,1,0} get-tuple-element(%arg_tuple.121), index=2
  %constant.128 = s64[] constant(0)
  %dynamic-slice.129 = f64[1,2,3]{2,1,0} dynamic-slice(%get-tuple-element.124, %get-tuple-element.122, %constant.128, %constant.128), dynamic_slice_sizes={1,2,3}, metadata={op_name="jit(_ionic_gspace_jit)/jit(main)/jit(species_structure_factors)/while/body/dynamic_slice" source_file="/global/homes/j/jackm/software/lorrax_B/src/psp/ionic_gspace.py" source_line=67}
  %reshape.130 = f64[2,3]{1,0} reshape(%dynamic-slice.129), metadata={op_name="jit(_ionic_gspace_jit)/jit(main)/jit(species_structure_factors)/while/body/squeeze" source_file="/global/homes/j/jackm/software/lorrax_B/src/psp/ionic_gspace.py" source_line=67}
  %get-tuple-element.125 = s32[2]{0} get-tuple-element(%arg_tuple.121), index=3
  %dynamic-slice.131 = s32[1]{0} dynamic-slice(%get-tuple-element.125, %get-tuple-element.122), dynamic_slice_sizes={1}, metadata={op_name="jit(_ionic_gspace_jit)/jit(main)/jit(species_structure_factors)/while/body/dynamic_slice" source_file="/global/homes/j/jackm/software/lorrax_B/src/psp/ionic_gspace.py" source_line=67}
  %reshape.132 = s32[] reshape(%dynamic-slice.131), metadata={op_name="jit(_ionic_gspace_jit)/jit(main)/jit(species_structure_factors)/while/body/squeeze" source_file="/global/homes/j/jackm/software/lorrax_B/src/psp/ionic_gspace.py" source_line=67}
  %call.133 = c128[46080]{0} call(%get-tuple-element.126, %reshape.130, %reshape.132), to_apply=%None.108
  %reshape.134 = c128[1,46080]{1,0} reshape(%call.133), metadata={op_name="jit(_ionic_gspace_jit)/jit(main)/jit(species_structure_factors)/while/body/broadcast_in_dim" source_file="/global/homes/j/jackm/software/lorrax_B/src/psp/ionic_gspace.py" source_line=67}
  %dynamic-update-slice.135 = c128[2,46080]{1,0} dynamic-update-slice(%get-tuple-element.123, %reshape.134, %get-tuple-element.122, %constant.128), metadata={op_name="jit(_ionic_gspace_jit)/jit(main)/jit(species_structure_factors)/while/body/dynamic_update_slice" source_file="/global/homes/j/jackm/software/lorrax_B/src/psp/ionic_gspace.py" source_line=67}
  ROOT %tuple.137 = (s64[], c128[2,46080]{1,0}, f64[2,2,3]{2,1,0}, s32[2]{0}, f64[46080,3]{1,0}) tuple(%add.136, %dynamic-update-slice.135, %get-tuple-element.124, %get-tuple-element.125, %get-tuple-element.126)
}

%region_3.138 (arg_tuple.139: (s64[], c128[2,46080], f64[2,2,3], s32[2], f64[46080,3])) -> pred[] {
  %arg_tuple.139 = (s64[], c128[2,46080]{1,0}, f64[2,2,3]{2,1,0}, s32[2]{0}, f64[46080,3]{1,0}) parameter(0)
  %get-tuple-element.141 = c128[2,46080]{1,0} get-tuple-element(%arg_tuple.139), index=1
  %get-tuple-element.142 = f64[2,2,3]{2,1,0} get-tuple-element(%arg_tuple.139), index=2
  %get-tuple-element.143 = s32[2]{0} get-tuple-element(%arg_tuple.139), index=3
  %get-tuple-element.144 = f64[46080,3]{1,0} get-tuple-element(%arg_tuple.139), index=4
  %get-tuple-element.140 = s64[] get-tuple-element(%arg_tuple.139), index=0
  %constant.145 = s64[] constant(2)
  ROOT %compare.146 = pred[] compare(%get-tuple-element.140, %constant.145), direction=LT, metadata={op_name="jit(_ionic_gspace_jit)/jit(main)/jit(species_structure_factors)/while/cond/lt" source_file="/global/homes/j/jackm/software/lorrax_B/src/psp/ionic_gspace.py" source_line=67}
}

%species_structure_factors.147 (Arg_0.148: f64[2,2,3], Arg_1.149: s32[2], Arg_2.150: f64[46080,3]) -> c128[2,46080] {
  %constant.151 = s64[] constant(0)
  %constant.152 = c128[] constant((0, 0))
  %broadcast.153 = c128[2,46080]{1,0} broadcast(%constant.152), dimensions={}, metadata={op_name="jit(_ionic_gspace_jit)/jit(main)/jit(species_structure_factors)/broadcast_in_dim" source_file="/global/homes/j/jackm/software/lorrax_B/src/psp/ionic_gspace.py" source_line=67}
  %Arg_0.148 = f64[2,2,3]{2,1,0} parameter(0), metadata={op_name="jit(_ionic_gspace_jit)/jit(main)/pjit"}
  %Arg_1.149 = s32[2]{0} parameter(1), metadata={op_name="jit(_ionic_gspace_jit)/jit(main)/pjit"}
  %Arg_2.150 = f64[46080,3]{1,0} parameter(2), metadata={op_name="jit(_ionic_gspace_jit)/jit(main)/pjit"}
  %tuple.154 = (s64[], c128[2,46080]{1,0}, f64[2,2,3]{2,1,0}, s32[2]{0}, f64[46080,3]{1,0}) tuple(%constant.151, %broadcast.153, %Arg_0.148, %Arg_1.149, %Arg_2.150), metadata={op_name="jit(_ionic_gspace_jit)/jit(main)/jit(species_structure_factors)/while" source_file="/global/homes/j/jackm/software/lorrax_B/src/psp/ionic_gspace.py" source_line=67}
  %while.155 = (s64[], c128[2,46080]{1,0}, f64[2,2,3]{2,1,0}, s32[2]{0}, f64[46080,3]{1,0}) while(%tuple.154), condition=%region_3.138, body=%region_0.120, metadata={op_name="jit(_ionic_gspace_jit)/jit(main)/jit(species_structure_factors)/while" source_file="/global/homes/j/jackm/software/lorrax_B/src/psp/ionic_gspace.py" source_line=67}
  %get-tuple-element.156 = s64[] get-tuple-element(%while.155), index=0, metadata={op_name="jit(_ionic_gspace_jit)/jit(main)/jit(species_structure_factors)/while" source_file="/global/homes/j/jackm/software/lorrax_B/src/psp/ionic_gspace.py" source_line=67}
  ROOT %get-tuple-element.157 = c128[2,46080]{1,0} get-tuple-element(%while.155), index=1, metadata={op_name="jit(_ionic_gspace_jit)/jit(main)/jit(species_structure_factors)/while" source_file="/global/homes/j/jackm/software/lorrax_B/src/psp/ionic_gspace.py" source_line=67}
}

%clip.159 (Arg_0.160: s32[46080], Arg_1.161: s64[], Arg_2.162: s64[]) -> s32[46080] {
  %Arg_2.162 = s64[] parameter(2), metadata={op_name="jit(_ionic_gspace_jit)/jit(main)/jit(accumulate_species_on_G)/while/body/jit(interp_uniform_jax)/pjit"}
  %convert.166 = s32[] convert(%Arg_2.162), metadata={op_name="jit(_ionic_gspace_jit)/jit(main)/jit(accumulate_species_on_G)/while/body/jit(interp_uniform_jax)/jit(clip)/convert_element_type" source_file="/global/homes/j/jackm/software/lorrax_B/src/psp/radial/radial_jax.py" source_line=152}
  %broadcast.167 = s32[46080]{0} broadcast(%convert.166), dimensions={}, metadata={op_name="jit(_ionic_gspace_jit)/jit(main)/jit(accumulate_species_on_G)/while/body/jit(interp_uniform_jax)/jit(clip)/min" source_file="/global/homes/j/jackm/software/lorrax_B/src/psp/radial/radial_jax.py" source_line=152}
  %Arg_1.161 = s64[] parameter(1), metadata={op_name="jit(_ionic_gspace_jit)/jit(main)/jit(accumulate_species_on_G)/while/body/jit(interp_uniform_jax)/pjit"}
  %convert.163 = s32[] convert(%Arg_1.161), metadata={op_name="jit(_ionic_gspace_jit)/jit(main)/jit(accumulate_species_on_G)/while/body/jit(interp_uniform_jax)/jit(clip)/convert_element_type" source_file="/global/homes/j/jackm/software/lorrax_B/src/psp/radial/radial_jax.py" source_line=152}
  %broadcast.164 = s32[46080]{0} broadcast(%convert.163), dimensions={}, metadata={op_name="jit(_ionic_gspace_jit)/jit(main)/jit(accumulate_species_on_G)/while/body/jit(interp_uniform_jax)/jit(clip)/max" source_file="/global/homes/j/jackm/software/lorrax_B/src/psp/radial/radial_jax.py" source_line=152}
  %Arg_0.160 = s32[46080]{0} parameter(0), metadata={op_name="jit(_ionic_gspace_jit)/jit(main)/jit(accumulate_species_on_G)/while/body/jit(interp_uniform_jax)/pjit"}
  %maximum.165 = s32[46080]{0} maximum(%broadcast.164, %Arg_0.160), metadata={op_name="jit(_ionic_gspace_jit)/jit(main)/jit(accumulate_species_on_G)/while/body/jit(interp_uniform_jax)/jit(clip)/max" source_file="/global/homes/j/jackm/software/lorrax_B/src/psp/radial/radial_jax.py" source_line=152}
  ROOT %minimum.168 = s32[46080]{0} minimum(%broadcast.167, %maximum.165), metadata={op_name="jit(_ionic_gspace_jit)/jit(main)/jit(accumulate_species_on_G)/while/body/jit(interp_uniform_jax)/jit(clip)/min" source_file="/global/homes/j/jackm/software/lorrax_B/src/psp/radial/radial_jax.py" source_line=152}
}

%clip_2.169 (Arg_0.170: f64[46080], Arg_1.171: f64[], Arg_2.172: f64[]) -> f64[46080] {
  %Arg_2.172 = f64[] parameter(2), metadata={op_name="jit(_ionic_gspace_jit)/jit(main)/jit(accumulate_species_on_G)/while/body/jit(interp_uniform_jax)/pjit"}
  %broadcast.175 = f64[46080]{0} broadcast(%Arg_2.172), dimensions={}, metadata={op_name="jit(_ionic_gspace_jit)/jit(main)/jit(accumulate_species_on_G)/while/body/jit(interp_uniform_jax)/jit(clip)/min" source_file="/global/homes/j/jackm/software/lorrax_B/src/psp/radial/radial_jax.py" source_line=153}
  %Arg_1.171 = f64[] parameter(1), metadata={op_name="jit(_ionic_gspace_jit)/jit(main)/jit(accumulate_species_on_G)/while/body/jit(interp_uniform_jax)/pjit"}
  %broadcast.173 = f64[46080]{0} broadcast(%Arg_1.171), dimensions={}, metadata={op_name="jit(_ionic_gspace_jit)/jit(main)/jit(accumulate_species_on_G)/while/body/jit(interp_uniform_jax)/jit(clip)/max" source_file="/global/homes/j/jackm/software/lorrax_B/src/psp/radial/radial_jax.py" source_line=153}
  %Arg_0.170 = f64[46080]{0} parameter(0), metadata={op_name="jit(_ionic_gspace_jit)/jit(main)/jit(accumulate_species_on_G)/while/body/jit(interp_uniform_jax)/pjit"}
  %maximum.174 = f64[46080]{0} maximum(%broadcast.173, %Arg_0.170), metadata={op_name="jit(_ionic_gspace_jit)/jit(main)/jit(accumulate_species_on_G)/while/body/jit(interp_uniform_jax)/jit(clip)/max" source_file="/global/homes/j/jackm/software/lorrax_B/src/psp/radial/radial_jax.py" source_line=153}
  ROOT %minimum.176 = f64[46080]{0} minimum(%broadcast.175, %maximum.174), metadata={op_name="jit(_ionic_gspace_jit)/jit(main)/jit(accumulate_species_on_G)/while/body/jit(interp_uniform_jax)/jit(clip)/min" source_file="/global/homes/j/jackm/software/lorrax_B/src/psp/radial/radial_jax.py" source_line=153}
}

%_where.177 (Arg_0.178: pred[46080], Arg_1.179: s32[46080], Arg_2.180: s32[46080]) -> s32[46080] {
  %Arg_0.178 = pred[46080]{0} parameter(0), metadata={op_name="jit(_ionic_gspace_jit)/jit(main)/jit(accumulate_species_on_G)/while/body/jit(interp_uniform_jax)/jit(_take)/pjit"}
  %Arg_1.179 = s32[46080]{0} parameter(1), metadata={op_name="jit(_ionic_gspace_jit)/jit(main)/jit(accumulate_species_on_G)/while/body/jit(interp_uniform_jax)/jit(_take)/pjit"}
  %Arg_2.180 = s32[46080]{0} parameter(2), metadata={op_name="jit(_ionic_gspace_jit)/jit(main)/jit(accumulate_species_on_G)/while/body/jit(interp_uniform_jax)/jit(_take)/pjit"}
  ROOT %select.181 = s32[46080]{0} select(%Arg_0.178, %Arg_1.179, %Arg_2.180), metadata={op_name="jit(_ionic_gspace_jit)/jit(main)/jit(accumulate_species_on_G)/while/body/jit(interp_uniform_jax)/jit(_take)/jit(_where)/select_n" source_file="/global/homes/j/jackm/software/lorrax_B/src/psp/radial/radial_jax.py" source_line=155}
}

%region_5.182 (Arg_0.183: pred[], Arg_1.184: pred[]) -> pred[] {
  %Arg_0.183 = pred[] parameter(0), metadata={op_name="jit(_ionic_gspace_jit)/jit(main)/jit(accumulate_species_on_G)/while/body/jit(interp_uniform_jax)/jit(_take)/reduce_and"}
  %Arg_1.184 = pred[] parameter(1), metadata={op_name="jit(_ionic_gspace_jit)/jit(main)/jit(accumulate_species_on_G)/while/body/jit(interp_uniform_jax)/jit(_take)/reduce_and"}
  ROOT %and.185 = pred[] and(%Arg_0.183, %Arg_1.184), metadata={op_name="jit(_ionic_gspace_jit)/jit(main)/jit(accumulate_species_on_G)/while/body/jit(interp_uniform_jax)/jit(_take)/reduce_and" source_file="/global/homes/j/jackm/software/lorrax_B/src/psp/radial/radial_jax.py" source_line=155}
}

%_take.186 (Arg_0.187: f64[4000], Arg_1.188: s32[46080]) -> f64[46080] {
  %Arg_1.188 = s32[46080]{0} parameter(1), metadata={op_name="jit(_ionic_gspace_jit)/jit(main)/jit(accumulate_species_on_G)/while/body/jit(interp_uniform_jax)/pjit"}
  %constant.198 = s32[] constant(0)
  %broadcast.199 = s32[46080]{0} broadcast(%constant.198), dimensions={}, metadata={op_name="jit(_ionic_gspace_jit)/jit(main)/jit(accumulate_species_on_G)/while/body/jit(interp_uniform_jax)/jit(_take)/lt" source_file="/global/homes/j/jackm/software/lorrax_B/src/psp/radial/radial_jax.py" source_line=155}
  %compare.200 = pred[46080]{0} compare(%Arg_1.188, %broadcast.199), direction=LT, metadata={op_name="jit(_ionic_gspace_jit)/jit(main)/jit(accumulate_species_on_G)/while/body/jit(interp_uniform_jax)/jit(_take)/lt" source_file="/global/homes/j/jackm/software/lorrax_B/src/psp/radial/radial_jax.py" source_line=155}
  %constant.195 = s32[] constant(4000)
  %broadcast.196 = s32[46080]{0} broadcast(%constant.195), dimensions={}
  %add.201 = s32[46080]{0} add(%Arg_1.188, %broadcast.196), metadata={op_name="jit(_ionic_gspace_jit)/jit(main)/jit(accumulate_species_on_G)/while/body/jit(interp_uniform_jax)/jit(_take)/add" source_file="/global/homes/j/jackm/software/lorrax_B/src/psp/radial/radial_jax.py" source_line=155}
  %call.202 = s32[46080]{0} call(%compare.200, %add.201, %Arg_1.188), to_apply=%_where.177
  %reshape.203 = s32[46080,1]{1,0} reshape(%call.202), metadata={op_name="jit(_ionic_gspace_jit)/jit(main)/jit(accumulate_species_on_G)/while/body/jit(interp_uniform_jax)/jit(_take)/broadcast_in_dim" source_file="/global/homes/j/jackm/software/lorrax_B/src/psp/radial/radial_jax.py" source_line=155}
  %convert.204 = s64[46080,1]{1,0} convert(%reshape.203), metadata={op_name="jit(_ionic_gspace_jit)/jit(main)/jit(accumulate_species_on_G)/while/body/jit(interp_uniform_jax)/jit(_take)/convert_element_type" source_file="/global/homes/j/jackm/software/lorrax_B/src/psp/radial/radial_jax.py" source_line=155}
  %constant.193 = s64[] constant(0)
  %broadcast.194 = s64[46080,1]{1,0} broadcast(%constant.193), dimensions={}
  %compare.205 = pred[46080,1]{1,0} compare(%convert.204, %broadcast.194), direction=GE, metadata={op_name="jit(_ionic_gspace_jit)/jit(main)/jit(accumulate_species_on_G)/while/body/jit(interp_uniform_jax)/jit(_take)/ge" source_file="/global/homes/j/jackm/software/lorrax_B/src/psp/radial/radial_jax.py" source_line=155}
  %constant.191 = s64[] constant(3999)
  %broadcast.192 = s64[46080,1]{1,0} broadcast(%constant.191), dimensions={}
  %compare.206 = pred[46080,1]{1,0} compare(%convert.204, %broadcast.192), direction=LE, metadata={op_name="jit(_ionic_gspace_jit)/jit(main)/jit(accumulate_species_on_G)/while/body/jit(interp_uniform_jax)/jit(_take)/le" source_file="/global/homes/j/jackm/software/lorrax_B/src/psp/radial/radial_jax.py" source_line=155}
  %and.207 = pred[46080,1]{1,0} and(%compare.205, %compare.206), metadata={op_name="jit(_ionic_gspace_jit)/jit(main)/jit(accumulate_species_on_G)/while/body/jit(interp_uniform_jax)/jit(_take)/and" source_file="/global/homes/j/jackm/software/lorrax_B/src/psp/radial/radial_jax.py" source_line=155}
  %constant.197 = pred[] constant(true)
  %reduce.208 = pred[46080]{0} reduce(%and.207, %constant.197), dimensions={1}, to_apply=%region_5.182, metadata={op_name="jit(_ionic_gspace_jit)/jit(main)/jit(accumulate_species_on_G)/while/body/jit(interp_uniform_jax)/jit(_take)/reduce_and" source_file="/global/homes/j/jackm/software/lorrax_B/src/psp/radial/radial_jax.py" source_line=155}
  %Arg_0.187 = f64[4000]{0} parameter(0), metadata={op_name="jit(_ionic_gspace_jit)/jit(main)/jit(accumulate_species_on_G)/while/body/jit(interp_uniform_jax)/pjit"}
  %gather.209 = f64[46080]{0} gather(%Arg_0.187, %convert.204), offset_dims={}, collapsed_slice_dims={0}, start_index_map={0}, index_vector_dim=1, slice_sizes={1}, metadata={op_name="jit(_ionic_gspace_jit)/jit(main)/jit(accumulate_species_on_G)/while/body/jit(interp_uniform_jax)/jit(_take)/gather" source_file="/global/homes/j/jackm/software/lorrax_B/src/psp/radial/radial_jax.py" source_line=155}
  %constant.189 = f64[] constant(nan)
  %broadcast.190 = f64[46080]{0} broadcast(%constant.189), dimensions={}
  ROOT %select.210 = f64[46080]{0} select(%reduce.208, %gather.209, %broadcast.190), metadata={op_name="jit(_ionic_gspace_jit)/jit(main)/jit(accumulate_species_on_G)/while/body/jit(interp_uniform_jax)/jit(_take)/select_n" source_file="/global/homes/j/jackm/software/lorrax_B/src/psp/radial/radial_jax.py" source_line=155}
}

%_where.211 (Arg_0.212: pred[46080], Arg_1.213: s32[46080], Arg_2.214: s32[46080]) -> s32[46080] {
  %Arg_0.212 = pred[46080]{0} parameter(0), metadata={op_name="jit(_ionic_gspace_jit)/jit(main)/jit(accumulate_species_on_G)/while/body/jit(interp_uniform_jax)/jit(_take)/pjit"}
  %Arg_1.213 = s32[46080]{0} parameter(1), metadata={op_name="jit(_ionic_gspace_jit)/jit(main)/jit(accumulate_species_on_G)/while/body/jit(interp_uniform_jax)/jit(_take)/pjit"}
  %Arg_2.214 = s32[46080]{0} parameter(2), metadata={op_name="jit(_ionic_gspace_jit)/jit(main)/jit(accumulate_species_on_G)/while/body/jit(interp_uniform_jax)/jit(_take)/pjit"}
  ROOT %select.215 = s32[46080]{0} select(%Arg_0.212, %Arg_1.213, %Arg_2.214), metadata={op_name="jit(_ionic_gspace_jit)/jit(main)/jit(accumulate_species_on_G)/while/body/jit(interp_uniform_jax)/jit(_take)/jit(_where)/select_n" source_file="/global/homes/j/jackm/software/lorrax_B/src/psp/radial/radial_jax.py" source_line=155}
}

%region_5.216 (Arg_0.217: pred[], Arg_1.218: pred[]) -> pred[] {
  %Arg_0.217 = pred[] parameter(0), metadata={op_name="jit(_ionic_gspace_jit)/jit(main)/jit(accumulate_species_on_G)/while/body/jit(interp_uniform_jax)/jit(_take)/reduce_and"}
  %Arg_1.218 = pred[] parameter(1), metadata={op_name="jit(_ionic_gspace_jit)/jit(main)/jit(accumulate_species_on_G)/while/body/jit(interp_uniform_jax)/jit(_take)/reduce_and"}
  ROOT %and.219 = pred[] and(%Arg_0.217, %Arg_1.218), metadata={op_name="jit(_ionic_gspace_jit)/jit(main)/jit(accumulate_species_on_G)/while/body/jit(interp_uniform_jax)/jit(_take)/reduce_and" source_file="/global/homes/j/jackm/software/lorrax_B/src/psp/radial/radial_jax.py" source_line=155}
}

%_take.220 (Arg_0.221: f64[4000], Arg_1.222: s32[46080]) -> f64[46080] {
  %Arg_1.222 = s32[46080]{0} parameter(1), metadata={op_name="jit(_ionic_gspace_jit)/jit(main)/jit(accumulate_species_on_G)/while/body/jit(interp_uniform_jax)/pjit"}
  %constant.232 = s32[] constant(0)
  %broadcast.233 = s32[46080]{0} broadcast(%constant.232), dimensions={}, metadata={op_name="jit(_ionic_gspace_jit)/jit(main)/jit(accumulate_species_on_G)/while/body/jit(interp_uniform_jax)/jit(_take)/lt" source_file="/global/homes/j/jackm/software/lorrax_B/src/psp/radial/radial_jax.py" source_line=155}
  %compare.234 = pred[46080]{0} compare(%Arg_1.222, %broadcast.233), direction=LT, metadata={op_name="jit(_ionic_gspace_jit)/jit(main)/jit(accumulate_species_on_G)/while/body/jit(interp_uniform_jax)/jit(_take)/lt" source_file="/global/homes/j/jackm/software/lorrax_B/src/psp/radial/radial_jax.py" source_line=155}
  %constant.229 = s32[] constant(4000)
  %broadcast.230 = s32[46080]{0} broadcast(%constant.229), dimensions={}
  %add.235 = s32[46080]{0} add(%Arg_1.222, %broadcast.230), metadata={op_name="jit(_ionic_gspace_jit)/jit(main)/jit(accumulate_species_on_G)/while/body/jit(interp_uniform_jax)/jit(_take)/add" source_file="/global/homes/j/jackm/software/lorrax_B/src/psp/radial/radial_jax.py" source_line=155}
  %call.236 = s32[46080]{0} call(%compare.234, %add.235, %Arg_1.222), to_apply=%_where.211
  %reshape.237 = s32[46080,1]{1,0} reshape(%call.236), metadata={op_name="jit(_ionic_gspace_jit)/jit(main)/jit(accumulate_species_on_G)/while/body/jit(interp_uniform_jax)/jit(_take)/broadcast_in_dim" source_file="/global/homes/j/jackm/software/lorrax_B/src/psp/radial/radial_jax.py" source_line=155}
  %convert.238 = s64[46080,1]{1,0} convert(%reshape.237), metadata={op_name="jit(_ionic_gspace_jit)/jit(main)/jit(accumulate_species_on_G)/while/body/jit(interp_uniform_jax)/jit(_take)/convert_element_type" source_file="/global/homes/j/jackm/software/lorrax_B/src/psp/radial/radial_jax.py" source_line=155}
  %constant.227 = s64[] constant(0)
  %broadcast.228 = s64[46080,1]{1,0} broadcast(%constant.227), dimensions={}
  %compare.239 = pred[46080,1]{1,0} compare(%convert.238, %broadcast.228), direction=GE, metadata={op_name="jit(_ionic_gspace_jit)/jit(main)/jit(accumulate_species_on_G)/while/body/jit(interp_uniform_jax)/jit(_take)/ge" source_file="/global/homes/j/jackm/software/lorrax_B/src/psp/radial/radial_jax.py" source_line=155}
  %constant.225 = s64[] constant(3999)
  %broadcast.226 = s64[46080,1]{1,0} broadcast(%constant.225), dimensions={}
  %compare.240 = pred[46080,1]{1,0} compare(%convert.238, %broadcast.226), direction=LE, metadata={op_name="jit(_ionic_gspace_jit)/jit(main)/jit(accumulate_species_on_G)/while/body/jit(interp_uniform_jax)/jit(_take)/le" source_file="/global/homes/j/jackm/software/lorrax_B/src/psp/radial/radial_jax.py" source_line=155}
  %and.241 = pred[46080,1]{1,0} and(%compare.239, %compare.240), metadata={op_name="jit(_ionic_gspace_jit)/jit(main)/jit(accumulate_species_on_G)/while/body/jit(interp_uniform_jax)/jit(_take)/and" source_file="/global/homes/j/jackm/software/lorrax_B/src/psp/radial/radial_jax.py" source_line=155}
  %constant.231 = pred[] constant(true)
  %reduce.242 = pred[46080]{0} reduce(%and.241, %constant.231), dimensions={1}, to_apply=%region_5.216, metadata={op_name="jit(_ionic_gspace_jit)/jit(main)/jit(accumulate_species_on_G)/while/body/jit(interp_uniform_jax)/jit(_take)/reduce_and" source_file="/global/homes/j/jackm/software/lorrax_B/src/psp/radial/radial_jax.py" source_line=155}
  %Arg_0.221 = f64[4000]{0} parameter(0), metadata={op_name="jit(_ionic_gspace_jit)/jit(main)/jit(accumulate_species_on_G)/while/body/jit(interp_uniform_jax)/pjit"}
  %gather.243 = f64[46080]{0} gather(%Arg_0.221, %convert.238), offset_dims={}, collapsed_slice_dims={0}, start_index_map={0}, index_vector_dim=1, slice_sizes={1}, metadata={op_name="jit(_ionic_gspace_jit)/jit(main)/jit(accumulate_species_on_G)/while/body/jit(interp_uniform_jax)/jit(_take)/gather" source_file="/global/homes/j/jackm/software/lorrax_B/src/psp/radial/radial_jax.py" source_line=155}
  %constant.223 = f64[] constant(nan)
  %broadcast.224 = f64[46080]{0} broadcast(%constant.223), dimensions={}
  ROOT %select.244 = f64[46080]{0} select(%reduce.242, %gather.243, %broadcast.224), metadata={op_name="jit(_ionic_gspace_jit)/jit(main)/jit(accumulate_species_on_G)/while/body/jit(interp_uniform_jax)/jit(_take)/select_n" source_file="/global/homes/j/jackm/software/lorrax_B/src/psp/radial/radial_jax.py" source_line=155}
}

%_where_3.245 (Arg_0.246: pred[46080], Arg_1.247: f64[46080], Arg_2.248: f64[]) -> f64[46080] {
  %Arg_0.246 = pred[46080]{0} parameter(0), metadata={op_name="jit(_ionic_gspace_jit)/jit(main)/jit(accumulate_species_on_G)/while/body/jit(interp_uniform_jax)/pjit"}
  %Arg_1.247 = f64[46080]{0} parameter(1), metadata={op_name="jit(_ionic_gspace_jit)/jit(main)/jit(accumulate_species_on_G)/while/body/jit(interp_uniform_jax)/pjit"}
  %Arg_2.248 = f64[] parameter(2), metadata={op_name="jit(_ionic_gspace_jit)/jit(main)/jit(accumulate_species_on_G)/while/body/jit(interp_uniform_jax)/pjit"}
  %broadcast.249 = f64[46080]{0} broadcast(%Arg_2.248), dimensions={}, metadata={op_name="jit(_ionic_gspace_jit)/jit(main)/jit(accumulate_species_on_G)/while/body/jit(interp_uniform_jax)/jit(_where)/broadcast_in_dim" source_file="/global/homes/j/jackm/software/lorrax_B/src/psp/radial/radial_jax.py" source_line=159}
  ROOT %select.250 = f64[46080]{0} select(%Arg_0.246, %Arg_1.247, %broadcast.249), metadata={op_name="jit(_ionic_gspace_jit)/jit(main)/jit(accumulate_species_on_G)/while/body/jit(interp_uniform_jax)/jit(_where)/select_n" source_file="/global/homes/j/jackm/software/lorrax_B/src/psp/radial/radial_jax.py" source_line=159}
}

%interp_uniform_jax.251 (Arg_0.252: f64[46080], Arg_1.253: f64[], Arg_2.254: f64[], Arg_3.255: f64[4000]) -> f64[46080] {
  %Arg_0.252 = f64[46080]{0} parameter(0), metadata={op_name="jit(_ionic_gspace_jit)/jit(main)/jit(accumulate_species_on_G)/while/body/pjit"}
  %Arg_1.253 = f64[] parameter(1), metadata={op_name="jit(_ionic_gspace_jit)/jit(main)/jit(accumulate_species_on_G)/while/body/pjit"}
  %broadcast.284 = f64[46080]{0} broadcast(%Arg_1.253), dimensions={}, metadata={op_name="jit(_ionic_gspace_jit)/jit(main)/jit(accumulate_species_on_G)/while/body/jit(interp_uniform_jax)/ge" source_file="/global/homes/j/jackm/software/lorrax_B/src/psp/radial/radial_jax.py" source_line=158}
  %compare.285 = pred[46080]{0} compare(%Arg_0.252, %broadcast.284), direction=GE, metadata={op_name="jit(_ionic_gspace_jit)/jit(main)/jit(accumulate_species_on_G)/while/body/jit(interp_uniform_jax)/ge" source_file="/global/homes/j/jackm/software/lorrax_B/src/psp/radial/radial_jax.py" source_line=158}
  %Arg_2.254 = f64[] parameter(2), metadata={op_name="jit(_ionic_gspace_jit)/jit(main)/jit(accumulate_species_on_G)/while/body/pjit"}
  %constant.264 = f64[] constant(3999)
  %multiply.265 = f64[] multiply(%Arg_2.254, %constant.264), metadata={op_name="jit(_ionic_gspace_jit)/jit(main)/jit(accumulate_species_on_G)/while/body/jit(interp_uniform_jax)/mul" source_file="/global/homes/j/jackm/software/lorrax_B/src/psp/radial/radial_jax.py" source_line=149}
  %add.266 = f64[] add(%Arg_1.253, %multiply.265), metadata={op_name="jit(_ionic_gspace_jit)/jit(main)/jit(accumulate_species_on_G)/while/body/jit(interp_uniform_jax)/add" source_file="/global/homes/j/jackm/software/lorrax_B/src/psp/radial/radial_jax.py" source_line=149}
  %broadcast.286 = f64[46080]{0} broadcast(%add.266), dimensions={}, metadata={op_name="jit(_ionic_gspace_jit)/jit(main)/jit(accumulate_species_on_G)/while/body/jit(interp_uniform_jax)/le" source_file="/global/homes/j/jackm/software/lorrax_B/src/psp/radial/radial_jax.py" source_line=158}
  %compare.287 = pred[46080]{0} compare(%Arg_0.252, %broadcast.286), direction=LE, metadata={op_name="jit(_ionic_gspace_jit)/jit(main)/jit(accumulate_species_on_G)/while/body/jit(interp_uniform_jax)/le" source_file="/global/homes/j/jackm/software/lorrax_B/src/psp/radial/radial_jax.py" source_line=158}
  %and.288 = pred[46080]{0} and(%compare.285, %compare.287), metadata={op_name="jit(_ionic_gspace_jit)/jit(main)/jit(accumulate_species_on_G)/while/body/jit(interp_uniform_jax)/and" source_file="/global/homes/j/jackm/software/lorrax_B/src/psp/radial/radial_jax.py" source_line=158}
  %constant.256 = f64[] constant(1)
  %broadcast.257 = f64[46080]{0} broadcast(%constant.256), dimensions={}
  %broadcast.267 = f64[46080]{0} broadcast(%Arg_1.253), dimensions={}, metadata={op_name="jit(_ionic_gspace_jit)/jit(main)/jit(accumulate_species_on_G)/while/body/jit(interp_uniform_jax)/sub" source_file="/global/homes/j/jackm/software/lorrax_B/src/psp/radial/radial_jax.py" source_line=150}
  %subtract.268 = f64[46080]{0} subtract(%Arg_0.252, %broadcast.267), metadata={op_name="jit(_ionic_gspace_jit)/jit(main)/jit(accumulate_species_on_G)/while/body/jit(interp_uniform_jax)/sub" source_file="/global/homes/j/jackm/software/lorrax_B/src/psp/radial/radial_jax.py" source_line=150}
  %broadcast.269 = f64[46080]{0} broadcast(%Arg_2.254), dimensions={}, metadata={op_name="jit(_ionic_gspace_jit)/jit(main)/jit(accumulate_species_on_G)/while/body/jit(interp_uniform_jax)/div" source_file="/global/homes/j/jackm/software/lorrax_B/src/psp/radial/radial_jax.py" source_line=150}
  %divide.270 = f64[46080]{0} divide(%subtract.268, %broadcast.269), metadata={op_name="jit(_ionic_gspace_jit)/jit(main)/jit(accumulate_species_on_G)/while/body/jit(interp_uniform_jax)/div" source_file="/global/homes/j/jackm/software/lorrax_B/src/psp/radial/radial_jax.py" source_line=150}
  %floor.271 = f64[46080]{0} floor(%divide.270), metadata={op_name="jit(_ionic_gspace_jit)/jit(main)/jit(accumulate_species_on_G)/while/body/jit(interp_uniform_jax)/floor" source_file="/global/homes/j/jackm/software/lorrax_B/src/psp/radial/radial_jax.py" source_line=151}
  %convert.272 = s32[46080]{0} convert(%floor.271), metadata={op_name="jit(_ionic_gspace_jit)/jit(main)/jit(accumulate_species_on_G)/while/body/jit(interp_uniform_jax)/convert_element_type" source_file="/global/homes/j/jackm/software/lorrax_B/src/psp/radial/radial_jax.py" source_line=151}
  %constant.263 = s64[] constant(0)
  %constant.262 = s64[] constant(3998)
  %call.273 = s32[46080]{0} call(%convert.272, %constant.263, %constant.262), to_apply=%clip.159
  %convert.274 = f64[46080]{0} convert(%call.273), metadata={op_name="jit(_ionic_gspace_jit)/jit(main)/jit(accumulate_species_on_G)/while/body/jit(interp_uniform_jax)/convert_element_type" source_file="/global/homes/j/jackm/software/lorrax_B/src/psp/radial/radial_jax.py" source_line=153}
  %subtract.275 = f64[46080]{0} subtract(%divide.270, %convert.274), metadata={op_name="jit(_ionic_gspace_jit)/jit(main)/jit(accumulate_species_on_G)/while/body/jit(interp_uniform_jax)/sub" source_file="/global/homes/j/jackm/software/lorrax_B/src/psp/radial/radial_jax.py" source_line=153}
  %constant.261 = f64[] constant(0)
  %constant.260 = f64[] constant(1)
  %call.276 = f64[46080]{0} call(%subtract.275, %constant.261, %constant.260), to_apply=%clip_2.169
  %subtract.280 = f64[46080]{0} subtract(%broadcast.257, %call.276), metadata={op_name="jit(_ionic_gspace_jit)/jit(main)/jit(accumulate_species_on_G)/while/body/jit(interp_uniform_jax)/sub" source_file="/global/homes/j/jackm/software/lorrax_B/src/psp/radial/radial_jax.py" source_line=157}
  %Arg_3.255 = f64[4000]{0} parameter(3), metadata={op_name="jit(_ionic_gspace_jit)/jit(main)/jit(accumulate_species_on_G)/while/body/pjit"}
  %call.277 = f64[46080]{0} call(%Arg_3.255, %call.273), to_apply=%_take.186
  %multiply.281 = f64[46080]{0} multiply(%subtract.280, %call.277), metadata={op_name="jit(_ionic_gspace_jit)/jit(main)/jit(accumulate_species_on_G)/while/body/jit(interp_uniform_jax)/mul" source_file="/global/homes/j/jackm/software/lorrax_B/src/psp/radial/radial_jax.py" source_line=157}
  %constant.258 = s32[] constant(1)
  %broadcast.259 = s32[46080]{0} broadcast(%constant.258), dimensions={}
  %add.278 = s32[46080]{0} add(%call.273, %broadcast.259), metadata={op_name="jit(_ionic_gspace_jit)/jit(main)/jit(accumulate_species_on_G)/while/body/jit(interp_uniform_jax)/add" source_file="/global/homes/j/jackm/software/lorrax_B/src/psp/radial/radial_jax.py" source_line=156}
  %call.279 = f64[46080]{0} call(%Arg_3.255, %add.278), to_apply=%_take.220
  %multiply.282 = f64[46080]{0} multiply(%call.276, %call.279), metadata={op_name="jit(_ionic_gspace_jit)/jit(main)/jit(accumulate_species_on_G)/while/body/jit(interp_uniform_jax)/mul" source_file="/global/homes/j/jackm/software/lorrax_B/src/psp/radial/radial_jax.py" source_line=157}
  %add.283 = f64[46080]{0} add(%multiply.281, %multiply.282), metadata={op_name="jit(_ionic_gspace_jit)/jit(main)/jit(accumulate_species_on_G)/while/body/jit(interp_uniform_jax)/add" source_file="/global/homes/j/jackm/software/lorrax_B/src/psp/radial/radial_jax.py" source_line=157}
  ROOT %call.289 = f64[46080]{0} call(%and.288, %add.283, %constant.261), to_apply=%_where_3.245
}

%None_1.290 (Arg_0.291: f64[46080], Arg_1.292: f64[], Arg_2.293: f64[], Arg_3.294: c128[46080], Arg_4.295: f64[4000], Arg_5.296: f64[], Arg_6.297: c128[46080]) -> c128[46080] {
  %Arg_3.294 = c128[46080]{0} parameter(3), metadata={op_name="jit(_ionic_gspace_jit)/jit(main)/jit(accumulate_species_on_G)/while/body/closed_call"}
  %Arg_5.296 = f64[] parameter(5), metadata={op_name="jit(_ionic_gspace_jit)/jit(main)/jit(accumulate_species_on_G)/while/body/closed_call"}
  %broadcast.299 = f64[46080]{0} broadcast(%Arg_5.296), dimensions={}, metadata={op_name="jit(_ionic_gspace_jit)/jit(main)/jit(accumulate_species_on_G)/while/body/mul" source_file="/global/homes/j/jackm/software/lorrax_B/src/psp/ionic_gspace.py" source_line=102}
  %Arg_0.291 = f64[46080]{0} parameter(0), metadata={op_name="jit(_ionic_gspace_jit)/jit(main)/jit(accumulate_species_on_G)/while/body/closed_call"}
  %Arg_1.292 = f64[] parameter(1), metadata={op_name="jit(_ionic_gspace_jit)/jit(main)/jit(accumulate_species_on_G)/while/body/closed_call"}
  %Arg_2.293 = f64[] parameter(2), metadata={op_name="jit(_ionic_gspace_jit)/jit(main)/jit(accumulate_species_on_G)/while/body/closed_call"}
  %Arg_4.295 = f64[4000]{0} parameter(4), metadata={op_name="jit(_ionic_gspace_jit)/jit(main)/jit(accumulate_species_on_G)/while/body/closed_call"}
  %call.298 = f64[46080]{0} call(%Arg_0.291, %Arg_1.292, %Arg_2.293, %Arg_4.295), to_apply=%interp_uniform_jax.251
  %multiply.300 = f64[46080]{0} multiply(%broadcast.299, %call.298), metadata={op_name="jit(_ionic_gspace_jit)/jit(main)/jit(accumulate_species_on_G)/while/body/mul" source_file="/global/homes/j/jackm/software/lorrax_B/src/psp/ionic_gspace.py" source_line=102}
  %convert.301 = c128[46080]{0} convert(%multiply.300), metadata={op_name="jit(_ionic_gspace_jit)/jit(main)/jit(accumulate_species_on_G)/while/body/convert_element_type" source_file="/global/homes/j/jackm/software/lorrax_B/src/psp/ionic_gspace.py" source_line=102}
  %Arg_6.297 = c128[46080]{0} parameter(6), metadata={op_name="jit(_ionic_gspace_jit)/jit(main)/jit(accumulate_species_on_G)/while/body/closed_call"}
  %multiply.302 = c128[46080]{0} multiply(%convert.301, %Arg_6.297), metadata={op_name="jit(_ionic_gspace_jit)/jit(main)/jit(accumulate_species_on_G)/while/body/mul" source_file="/global/homes/j/jackm/software/lorrax_B/src/psp/ionic_gspace.py" source_line=102}
  ROOT %add.303 = c128[46080]{0} add(%Arg_3.294, %multiply.302), metadata={op_name="jit(_ionic_gspace_jit)/jit(main)/jit(accumulate_species_on_G)/while/body/add" source_file="/global/homes/j/jackm/software/lorrax_B/src/psp/ionic_gspace.py" source_line=102}
}

%region_4.304 (arg_tuple.305: (s64[], c128[46080], f64[2,4000], f64[2], c128[2,46080], /*index=5*/f64[46080], f64[], f64[])) -> (s64[], c128[46080], f64[2,4000], f64[2], c128[2,46080], /*index=5*/f64[46080], f64[], f64[]) {
  %arg_tuple.305 = (s64[], c128[46080]{0}, f64[2,4000]{1,0}, f64[2]{0}, c128[2,46080]{1,0}, /*index=5*/f64[46080]{0}, f64[], f64[]) parameter(0)
  %get-tuple-element.306 = s64[] get-tuple-element(%arg_tuple.305), index=0
  %constant.314 = s64[] constant(1)
  %add.323 = s64[] add(%get-tuple-element.306, %constant.314), metadata={op_name="jit(_ionic_gspace_jit)/jit(main)/jit(accumulate_species_on_G)/while/body/add" source_file="/global/homes/j/jackm/software/lorrax_B/src/psp/ionic_gspace.py" source_line=104}
  %get-tuple-element.311 = f64[46080]{0} get-tuple-element(%arg_tuple.305), index=5
  %get-tuple-element.312 = f64[] get-tuple-element(%arg_tuple.305), index=6
  %get-tuple-element.313 = f64[] get-tuple-element(%arg_tuple.305), index=7
  %get-tuple-element.307 = c128[46080]{0} get-tuple-element(%arg_tuple.305), index=1
  %get-tuple-element.308 = f64[2,4000]{1,0} get-tuple-element(%arg_tuple.305), index=2
  %constant.315 = s64[] constant(0)
  %dynamic-slice.316 = f64[1,4000]{1,0} dynamic-slice(%get-tuple-element.308, %get-tuple-element.306, %constant.315), dynamic_slice_sizes={1,4000}, metadata={op_name="jit(_ionic_gspace_jit)/jit(main)/jit(accumulate_species_on_G)/while/body/dynamic_slice" source_file="/global/homes/j/jackm/software/lorrax_B/src/psp/ionic_gspace.py" source_line=104}
  %reshape.317 = f64[4000]{0} reshape(%dynamic-slice.316), metadata={op_name="jit(_ionic_gspace_jit)/jit(main)/jit(accumulate_species_on_G)/while/body/squeeze" source_file="/global/homes/j/jackm/software/lorrax_B/src/psp/ionic_gspace.py" source_line=104}
  %get-tuple-element.309 = f64[2]{0} get-tuple-element(%arg_tuple.305), index=3
  %dynamic-slice.318 = f64[1]{0} dynamic-slice(%get-tuple-element.309, %get-tuple-element.306), dynamic_slice_sizes={1}, metadata={op_name="jit(_ionic_gspace_jit)/jit(main)/jit(accumulate_species_on_G)/while/body/dynamic_slice" source_file="/global/homes/j/jackm/software/lorrax_B/src/psp/ionic_gspace.py" source_line=104}
  %reshape.319 = f64[] reshape(%dynamic-slice.318), metadata={op_name="jit(_ionic_gspace_jit)/jit(main)/jit(accumulate_species_on_G)/while/body/squeeze" source_file="/global/homes/j/jackm/software/lorrax_B/src/psp/ionic_gspace.py" source_line=104}
  %get-tuple-element.310 = c128[2,46080]{1,0} get-tuple-element(%arg_tuple.305), index=4
  %dynamic-slice.320 = c128[1,46080]{1,0} dynamic-slice(%get-tuple-element.310, %get-tuple-element.306, %constant.315), dynamic_slice_sizes={1,46080}, metadata={op_name="jit(_ionic_gspace_jit)/jit(main)/jit(accumulate_species_on_G)/while/body/dynamic_slice" source_file="/global/homes/j/jackm/software/lorrax_B/src/psp/ionic_gspace.py" source_line=104}
  %reshape.321 = c128[46080]{0} reshape(%dynamic-slice.320), metadata={op_name="jit(_ionic_gspace_jit)/jit(main)/jit(accumulate_species_on_G)/while/body/squeeze" source_file="/global/homes/j/jackm/software/lorrax_B/src/psp/ionic_gspace.py" source_line=104}
  %call.322 = c128[46080]{0} call(%get-tuple-element.311, %get-tuple-element.312, %get-tuple-element.313, %get-tuple-element.307, %reshape.317, /*index=5*/%reshape.319, %reshape.321), to_apply=%None_1.290
  ROOT %tuple.324 = (s64[], c128[46080]{0}, f64[2,4000]{1,0}, f64[2]{0}, c128[2,46080]{1,0}, /*index=5*/f64[46080]{0}, f64[], f64[]) tuple(%add.323, %call.322, %get-tuple-element.308, %get-tuple-element.309, %get-tuple-element.310, /*index=5*/%get-tuple-element.311, %get-tuple-element.312, %get-tuple-element.313)
}

%region_6.325 (arg_tuple.326: (s64[], c128[46080], f64[2,4000], f64[2], c128[2,46080], /*index=5*/f64[46080], f64[], f64[])) -> pred[] {
  %arg_tuple.326 = (s64[], c128[46080]{0}, f64[2,4000]{1,0}, f64[2]{0}, c128[2,46080]{1,0}, /*index=5*/f64[46080]{0}, f64[], f64[]) parameter(0)
  %get-tuple-element.328 = c128[46080]{0} get-tuple-element(%arg_tuple.326), index=1
  %get-tuple-element.329 = f64[2,4000]{1,0} get-tuple-element(%arg_tuple.326), index=2
  %get-tuple-element.330 = f64[2]{0} get-tuple-element(%arg_tuple.326), index=3
  %get-tuple-element.331 = c128[2,46080]{1,0} get-tuple-element(%arg_tuple.326), index=4
  %get-tuple-element.332 = f64[46080]{0} get-tuple-element(%arg_tuple.326), index=5
  %get-tuple-element.333 = f64[] get-tuple-element(%arg_tuple.326), index=6
  %get-tuple-element.334 = f64[] get-tuple-element(%arg_tuple.326), index=7
  %get-tuple-element.327 = s64[] get-tuple-element(%arg_tuple.326), index=0
  %constant.335 = s64[] constant(2)
  ROOT %compare.336 = pred[] compare(%get-tuple-element.327, %constant.335), direction=LT, metadata={op_name="jit(_ionic_gspace_jit)/jit(main)/jit(accumulate_species_on_G)/while/cond/lt" source_file="/global/homes/j/jackm/software/lorrax_B/src/psp/ionic_gspace.py" source_line=104}
}

%accumulate_species_on_G.337 (Arg_0.338: f64[2,4000], Arg_1.339: f64[2], Arg_2.340: c128[2,46080], Arg_3.341: f64[46080], Arg_4.342: f64[], Arg_5.343: f64[]) -> c128[46080] {
  %constant.344 = s64[] constant(0)
  %constant.345 = c128[] constant((0, 0))
  %broadcast.346 = c128[46080]{0} broadcast(%constant.345), dimensions={}, metadata={op_name="jit(_ionic_gspace_jit)/jit(main)/jit(accumulate_species_on_G)/broadcast_in_dim" source_file="/global/homes/j/jackm/software/lorrax_B/src/psp/ionic_gspace.py" source_line=106}
  %Arg_0.338 = f64[2,4000]{1,0} parameter(0), metadata={op_name="jit(_ionic_gspace_jit)/jit(main)/pjit"}
  %Arg_1.339 = f64[2]{0} parameter(1), metadata={op_name="jit(_ionic_gspace_jit)/jit(main)/pjit"}
  %Arg_2.340 = c128[2,46080]{1,0} parameter(2), metadata={op_name="jit(_ionic_gspace_jit)/jit(main)/pjit"}
  %Arg_3.341 = f64[46080]{0} parameter(3), metadata={op_name="jit(_ionic_gspace_jit)/jit(main)/pjit"}
  %Arg_4.342 = f64[] parameter(4), metadata={op_name="jit(_ionic_gspace_jit)/jit(main)/pjit"}
  %Arg_5.343 = f64[] parameter(5), metadata={op_name="jit(_ionic_gspace_jit)/jit(main)/pjit"}
  %tuple.347 = (s64[], c128[46080]{0}, f64[2,4000]{1,0}, f64[2]{0}, c128[2,46080]{1,0}, /*index=5*/f64[46080]{0}, f64[], f64[]) tuple(%constant.344, %broadcast.346, %Arg_0.338, %Arg_1.339, %Arg_2.340, /*index=5*/%Arg_3.341, %Arg_4.342, %Arg_5.343), metadata={op_name="jit(_ionic_gspace_jit)/jit(main)/jit(accumulate_species_on_G)/while" source_file="/global/homes/j/jackm/software/lorrax_B/src/psp/ionic_gspace.py" source_line=104}
  %while.348 = (s64[], c128[46080]{0}, f64[2,4000]{1,0}, f64[2]{0}, c128[2,46080]{1,0}, /*index=5*/f64[46080]{0}, f64[], f64[]) while(%tuple.347), condition=%region_6.325, body=%region_4.304, metadata={op_name="jit(_ionic_gspace_jit)/jit(main)/jit(accumulate_species_on_G)/while" source_file="/global/homes/j/jackm/software/lorrax_B/src/psp/ionic_gspace.py" source_line=104}
  %get-tuple-element.349 = s64[] get-tuple-element(%while.348), index=0, metadata={op_name="jit(_ionic_gspace_jit)/jit(main)/jit(accumulate_species_on_G)/while" source_file="/global/homes/j/jackm/software/lorrax_B/src/psp/ionic_gspace.py" source_line=104}
  ROOT %get-tuple-element.350 = c128[46080]{0} get-tuple-element(%while.348), index=1, metadata={op_name="jit(_ionic_gspace_jit)/jit(main)/jit(accumulate_species_on_G)/while" source_file="/global/homes/j/jackm/software/lorrax_B/src/psp/ionic_gspace.py" source_line=104}
}

%fft.353 (Arg_0.354: c128[24,24,80]) -> c128[24,24,80] {
  %Arg_0.354 = c128[24,24,80]{2,1,0} parameter(0), metadata={op_name="jit(_ionic_gspace_jit)/jit(main)/pjit"}
  ROOT %fft.355 = c128[24,24,80]{2,1,0} fft(%Arg_0.354), fft_type=IFFT, fft_length={24,24,80}, metadata={op_name="jit(_ionic_gspace_jit)/jit(main)/jit(fft)/fft" source_file="/global/homes/j/jackm/software/lorrax_B/src/psp/ionic_gspace.py" source_line=240}
}

%clip.363 (Arg_0.364: s32[46080], Arg_1.365: s64[], Arg_2.366: s64[]) -> s32[46080] {
  %Arg_2.366 = s64[] parameter(2), metadata={op_name="jit(_ionic_gspace_jit)/jit(main)/jit(accumulate_species_on_G)/while/body/jit(interp_uniform_jax)/pjit"}
  %convert.370 = s32[] convert(%Arg_2.366), metadata={op_name="jit(_ionic_gspace_jit)/jit(main)/jit(accumulate_species_on_G)/while/body/jit(interp_uniform_jax)/jit(clip)/convert_element_type" source_file="/global/homes/j/jackm/software/lorrax_B/src/psp/radial/radial_jax.py" source_line=152}
  %broadcast.371 = s32[46080]{0} broadcast(%convert.370), dimensions={}, metadata={op_name="jit(_ionic_gspace_jit)/jit(main)/jit(accumulate_species_on_G)/while/body/jit(interp_uniform_jax)/jit(clip)/min" source_file="/global/homes/j/jackm/software/lorrax_B/src/psp/radial/radial_jax.py" source_line=152}
  %Arg_1.365 = s64[] parameter(1), metadata={op_name="jit(_ionic_gspace_jit)/jit(main)/jit(accumulate_species_on_G)/while/body/jit(interp_uniform_jax)/pjit"}
  %convert.367 = s32[] convert(%Arg_1.365), metadata={op_name="jit(_ionic_gspace_jit)/jit(main)/jit(accumulate_species_on_G)/while/body/jit(interp_uniform_jax)/jit(clip)/convert_element_type" source_file="/global/homes/j/jackm/software/lorrax_B/src/psp/radial/radial_jax.py" source_line=152}
  %broadcast.368 = s32[46080]{0} broadcast(%convert.367), dimensions={}, metadata={op_name="jit(_ionic_gspace_jit)/jit(main)/jit(accumulate_species_on_G)/while/body/jit(interp_uniform_jax)/jit(clip)/max" source_file="/global/homes/j/jackm/software/lorrax_B/src/psp/radial/radial_jax.py" source_line=152}
  %Arg_0.364 = s32[46080]{0} parameter(0), metadata={op_name="jit(_ionic_gspace_jit)/jit(main)/jit(accumulate_species_on_G)/while/body/jit(interp_uniform_jax)/pjit"}
  %maximum.369 = s32[46080]{0} maximum(%broadcast.368, %Arg_0.364), metadata={op_name="jit(_ionic_gspace_jit)/jit(main)/jit(accumulate_species_on_G)/while/body/jit(interp_uniform_jax)/jit(clip)/max" source_file="/global/homes/j/jackm/software/lorrax_B/src/psp/radial/radial_jax.py" source_line=152}
  ROOT %minimum.372 = s32[46080]{0} minimum(%broadcast.371, %maximum.369), metadata={op_name="jit(_ionic_gspace_jit)/jit(main)/jit(accumulate_species_on_G)/while/body/jit(interp_uniform_jax)/jit(clip)/min" source_file="/global/homes/j/jackm/software/lorrax_B/src/psp/radial/radial_jax.py" source_line=152}
}

%clip_2.373 (Arg_0.374: f64[46080], Arg_1.375: f64[], Arg_2.376: f64[]) -> f64[46080] {
  %Arg_2.376 = f64[] parameter(2), metadata={op_name="jit(_ionic_gspace_jit)/jit(main)/jit(accumulate_species_on_G)/while/body/jit(interp_uniform_jax)/pjit"}
  %broadcast.379 = f64[46080]{0} broadcast(%Arg_2.376), dimensions={}, metadata={op_name="jit(_ionic_gspace_jit)/jit(main)/jit(accumulate_species_on_G)/while/body/jit(interp_uniform_jax)/jit(clip)/min" source_file="/global/homes/j/jackm/software/lorrax_B/src/psp/radial/radial_jax.py" source_line=153}
  %Arg_1.375 = f64[] parameter(1), metadata={op_name="jit(_ionic_gspace_jit)/jit(main)/jit(accumulate_species_on_G)/while/body/jit(interp_uniform_jax)/pjit"}
  %broadcast.377 = f64[46080]{0} broadcast(%Arg_1.375), dimensions={}, metadata={op_name="jit(_ionic_gspace_jit)/jit(main)/jit(accumulate_species_on_G)/while/body/jit(interp_uniform_jax)/jit(clip)/max" source_file="/global/homes/j/jackm/software/lorrax_B/src/psp/radial/radial_jax.py" source_line=153}
  %Arg_0.374 = f64[46080]{0} parameter(0), metadata={op_name="jit(_ionic_gspace_jit)/jit(main)/jit(accumulate_species_on_G)/while/body/jit(interp_uniform_jax)/pjit"}
  %maximum.378 = f64[46080]{0} maximum(%broadcast.377, %Arg_0.374), metadata={op_name="jit(_ionic_gspace_jit)/jit(main)/jit(accumulate_species_on_G)/while/body/jit(interp_uniform_jax)/jit(clip)/max" source_file="/global/homes/j/jackm/software/lorrax_B/src/psp/radial/radial_jax.py" source_line=153}
  ROOT %minimum.380 = f64[46080]{0} minimum(%broadcast.379, %maximum.378), metadata={op_name="jit(_ionic_gspace_jit)/jit(main)/jit(accumulate_species_on_G)/while/body/jit(interp_uniform_jax)/jit(clip)/min" source_file="/global/homes/j/jackm/software/lorrax_B/src/psp/radial/radial_jax.py" source_line=153}
}

%_where.381 (Arg_0.382: pred[46080], Arg_1.383: s32[46080], Arg_2.384: s32[46080]) -> s32[46080] {
  %Arg_0.382 = pred[46080]{0} parameter(0), metadata={op_name="jit(_ionic_gspace_jit)/jit(main)/jit(accumulate_species_on_G)/while/body/jit(interp_uniform_jax)/jit(_take)/pjit"}
  %Arg_1.383 = s32[46080]{0} parameter(1), metadata={op_name="jit(_ionic_gspace_jit)/jit(main)/jit(accumulate_species_on_G)/while/body/jit(interp_uniform_jax)/jit(_take)/pjit"}
  %Arg_2.384 = s32[46080]{0} parameter(2), metadata={op_name="jit(_ionic_gspace_jit)/jit(main)/jit(accumulate_species_on_G)/while/body/jit(interp_uniform_jax)/jit(_take)/pjit"}
  ROOT %select.385 = s32[46080]{0} select(%Arg_0.382, %Arg_1.383, %Arg_2.384), metadata={op_name="jit(_ionic_gspace_jit)/jit(main)/jit(accumulate_species_on_G)/while/body/jit(interp_uniform_jax)/jit(_take)/jit(_where)/select_n" source_file="/global/homes/j/jackm/software/lorrax_B/src/psp/radial/radial_jax.py" source_line=155}
}

%region_5.386 (Arg_0.387: pred[], Arg_1.388: pred[]) -> pred[] {
  %Arg_0.387 = pred[] parameter(0), metadata={op_name="jit(_ionic_gspace_jit)/jit(main)/jit(accumulate_species_on_G)/while/body/jit(interp_uniform_jax)/jit(_take)/reduce_and"}
  %Arg_1.388 = pred[] parameter(1), metadata={op_name="jit(_ionic_gspace_jit)/jit(main)/jit(accumulate_species_on_G)/while/body/jit(interp_uniform_jax)/jit(_take)/reduce_and"}
  ROOT %and.389 = pred[] and(%Arg_0.387, %Arg_1.388), metadata={op_name="jit(_ionic_gspace_jit)/jit(main)/jit(accumulate_species_on_G)/while/body/jit(interp_uniform_jax)/jit(_take)/reduce_and" source_file="/global/homes/j/jackm/software/lorrax_B/src/psp/radial/radial_jax.py" source_line=155}
}

%_take.390 (Arg_0.391: f64[4000], Arg_1.392: s32[46080]) -> f64[46080] {
  %Arg_1.392 = s32[46080]{0} parameter(1), metadata={op_name="jit(_ionic_gspace_jit)/jit(main)/jit(accumulate_species_on_G)/while/body/jit(interp_uniform_jax)/pjit"}
  %constant.402 = s32[] constant(0)
  %broadcast.403 = s32[46080]{0} broadcast(%constant.402), dimensions={}, metadata={op_name="jit(_ionic_gspace_jit)/jit(main)/jit(accumulate_species_on_G)/while/body/jit(interp_uniform_jax)/jit(_take)/lt" source_file="/global/homes/j/jackm/software/lorrax_B/src/psp/radial/radial_jax.py" source_line=155}
  %compare.404 = pred[46080]{0} compare(%Arg_1.392, %broadcast.403), direction=LT, metadata={op_name="jit(_ionic_gspace_jit)/jit(main)/jit(accumulate_species_on_G)/while/body/jit(interp_uniform_jax)/jit(_take)/lt" source_file="/global/homes/j/jackm/software/lorrax_B/src/psp/radial/radial_jax.py" source_line=155}
  %constant.399 = s32[] constant(4000)
  %broadcast.400 = s32[46080]{0} broadcast(%constant.399), dimensions={}
  %add.405 = s32[46080]{0} add(%Arg_1.392, %broadcast.400), metadata={op_name="jit(_ionic_gspace_jit)/jit(main)/jit(accumulate_species_on_G)/while/body/jit(interp_uniform_jax)/jit(_take)/add" source_file="/global/homes/j/jackm/software/lorrax_B/src/psp/radial/radial_jax.py" source_line=155}
  %call.406 = s32[46080]{0} call(%compare.404, %add.405, %Arg_1.392), to_apply=%_where.381
  %reshape.407 = s32[46080,1]{1,0} reshape(%call.406), metadata={op_name="jit(_ionic_gspace_jit)/jit(main)/jit(accumulate_species_on_G)/while/body/jit(interp_uniform_jax)/jit(_take)/broadcast_in_dim" source_file="/global/homes/j/jackm/software/lorrax_B/src/psp/radial/radial_jax.py" source_line=155}
  %convert.408 = s64[46080,1]{1,0} convert(%reshape.407), metadata={op_name="jit(_ionic_gspace_jit)/jit(main)/jit(accumulate_species_on_G)/while/body/jit(interp_uniform_jax)/jit(_take)/convert_element_type" source_file="/global/homes/j/jackm/software/lorrax_B/src/psp/radial/radial_jax.py" source_line=155}
  %constant.397 = s64[] constant(0)
  %broadcast.398 = s64[46080,1]{1,0} broadcast(%constant.397), dimensions={}
  %compare.409 = pred[46080,1]{1,0} compare(%convert.408, %broadcast.398), direction=GE, metadata={op_name="jit(_ionic_gspace_jit)/jit(main)/jit(accumulate_species_on_G)/while/body/jit(interp_uniform_jax)/jit(_take)/ge" source_file="/global/homes/j/jackm/software/lorrax_B/src/psp/radial/radial_jax.py" source_line=155}
  %constant.395 = s64[] constant(3999)
  %broadcast.396 = s64[46080,1]{1,0} broadcast(%constant.395), dimensions={}
  %compare.410 = pred[46080,1]{1,0} compare(%convert.408, %broadcast.396), direction=LE, metadata={op_name="jit(_ionic_gspace_jit)/jit(main)/jit(accumulate_species_on_G)/while/body/jit(interp_uniform_jax)/jit(_take)/le" source_file="/global/homes/j/jackm/software/lorrax_B/src/psp/radial/radial_jax.py" source_line=155}
  %and.411 = pred[46080,1]{1,0} and(%compare.409, %compare.410), metadata={op_name="jit(_ionic_gspace_jit)/jit(main)/jit(accumulate_species_on_G)/while/body/jit(interp_uniform_jax)/jit(_take)/and" source_file="/global/homes/j/jackm/software/lorrax_B/src/psp/radial/radial_jax.py" source_line=155}
  %constant.401 = pred[] constant(true)
  %reduce.412 = pred[46080]{0} reduce(%and.411, %constant.401), dimensions={1}, to_apply=%region_5.386, metadata={op_name="jit(_ionic_gspace_jit)/jit(main)/jit(accumulate_species_on_G)/while/body/jit(interp_uniform_jax)/jit(_take)/reduce_and" source_file="/global/homes/j/jackm/software/lorrax_B/src/psp/radial/radial_jax.py" source_line=155}
  %Arg_0.391 = f64[4000]{0} parameter(0), metadata={op_name="jit(_ionic_gspace_jit)/jit(main)/jit(accumulate_species_on_G)/while/body/jit(interp_uniform_jax)/pjit"}
  %gather.413 = f64[46080]{0} gather(%Arg_0.391, %convert.408), offset_dims={}, collapsed_slice_dims={0}, start_index_map={0}, index_vector_dim=1, slice_sizes={1}, metadata={op_name="jit(_ionic_gspace_jit)/jit(main)/jit(accumulate_species_on_G)/while/body/jit(interp_uniform_jax)/jit(_take)/gather" source_file="/global/homes/j/jackm/software/lorrax_B/src/psp/radial/radial_jax.py" source_line=155}
  %constant.393 = f64[] constant(nan)
  %broadcast.394 = f64[46080]{0} broadcast(%constant.393), dimensions={}
  ROOT %select.414 = f64[46080]{0} select(%reduce.412, %gather.413, %broadcast.394), metadata={op_name="jit(_ionic_gspace_jit)/jit(main)/jit(accumulate_species_on_G)/while/body/jit(interp_uniform_jax)/jit(_take)/select_n" source_file="/global/homes/j/jackm/software/lorrax_B/src/psp/radial/radial_jax.py" source_line=155}
}

%_where.415 (Arg_0.416: pred[46080], Arg_1.417: s32[46080], Arg_2.418: s32[46080]) -> s32[46080] {
  %Arg_0.416 = pred[46080]{0} parameter(0), metadata={op_name="jit(_ionic_gspace_jit)/jit(main)/jit(accumulate_species_on_G)/while/body/jit(interp_uniform_jax)/jit(_take)/pjit"}
  %Arg_1.417 = s32[46080]{0} parameter(1), metadata={op_name="jit(_ionic_gspace_jit)/jit(main)/jit(accumulate_species_on_G)/while/body/jit(interp_uniform_jax)/jit(_take)/pjit"}
  %Arg_2.418 = s32[46080]{0} parameter(2), metadata={op_name="jit(_ionic_gspace_jit)/jit(main)/jit(accumulate_species_on_G)/while/body/jit(interp_uniform_jax)/jit(_take)/pjit"}
  ROOT %select.419 = s32[46080]{0} select(%Arg_0.416, %Arg_1.417, %Arg_2.418), metadata={op_name="jit(_ionic_gspace_jit)/jit(main)/jit(accumulate_species_on_G)/while/body/jit(interp_uniform_jax)/jit(_take)/jit(_where)/select_n" source_file="/global/homes/j/jackm/software/lorrax_B/src/psp/radial/radial_jax.py" source_line=155}
}

%region_5.420 (Arg_0.421: pred[], Arg_1.422: pred[]) -> pred[] {
  %Arg_0.421 = pred[] parameter(0), metadata={op_name="jit(_ionic_gspace_jit)/jit(main)/jit(accumulate_species_on_G)/while/body/jit(interp_uniform_jax)/jit(_take)/reduce_and"}
  %Arg_1.422 = pred[] parameter(1), metadata={op_name="jit(_ionic_gspace_jit)/jit(main)/jit(accumulate_species_on_G)/while/body/jit(interp_uniform_jax)/jit(_take)/reduce_and"}
  ROOT %and.423 = pred[] and(%Arg_0.421, %Arg_1.422), metadata={op_name="jit(_ionic_gspace_jit)/jit(main)/jit(accumulate_species_on_G)/while/body/jit(interp_uniform_jax)/jit(_take)/reduce_and" source_file="/global/homes/j/jackm/software/lorrax_B/src/psp/radial/radial_jax.py" source_line=155}
}

%_take.424 (Arg_0.425: f64[4000], Arg_1.426: s32[46080]) -> f64[46080] {
  %Arg_1.426 = s32[46080]{0} parameter(1), metadata={op_name="jit(_ionic_gspace_jit)/jit(main)/jit(accumulate_species_on_G)/while/body/jit(interp_uniform_jax)/pjit"}
  %constant.436 = s32[] constant(0)
  %broadcast.437 = s32[46080]{0} broadcast(%constant.436), dimensions={}, metadata={op_name="jit(_ionic_gspace_jit)/jit(main)/jit(accumulate_species_on_G)/while/body/jit(interp_uniform_jax)/jit(_take)/lt" source_file="/global/homes/j/jackm/software/lorrax_B/src/psp/radial/radial_jax.py" source_line=155}
  %compare.438 = pred[46080]{0} compare(%Arg_1.426, %broadcast.437), direction=LT, metadata={op_name="jit(_ionic_gspace_jit)/jit(main)/jit(accumulate_species_on_G)/while/body/jit(interp_uniform_jax)/jit(_take)/lt" source_file="/global/homes/j/jackm/software/lorrax_B/src/psp/radial/radial_jax.py" source_line=155}
  %constant.433 = s32[] constant(4000)
  %broadcast.434 = s32[46080]{0} broadcast(%constant.433), dimensions={}
  %add.439 = s32[46080]{0} add(%Arg_1.426, %broadcast.434), metadata={op_name="jit(_ionic_gspace_jit)/jit(main)/jit(accumulate_species_on_G)/while/body/jit(interp_uniform_jax)/jit(_take)/add" source_file="/global/homes/j/jackm/software/lorrax_B/src/psp/radial/radial_jax.py" source_line=155}
  %call.440 = s32[46080]{0} call(%compare.438, %add.439, %Arg_1.426), to_apply=%_where.415
  %reshape.441 = s32[46080,1]{1,0} reshape(%call.440), metadata={op_name="jit(_ionic_gspace_jit)/jit(main)/jit(accumulate_species_on_G)/while/body/jit(interp_uniform_jax)/jit(_take)/broadcast_in_dim" source_file="/global/homes/j/jackm/software/lorrax_B/src/psp/radial/radial_jax.py" source_line=155}
  %convert.442 = s64[46080,1]{1,0} convert(%reshape.441), metadata={op_name="jit(_ionic_gspace_jit)/jit(main)/jit(accumulate_species_on_G)/while/body/jit(interp_uniform_jax)/jit(_take)/convert_element_type" source_file="/global/homes/j/jackm/software/lorrax_B/src/psp/radial/radial_jax.py" source_line=155}
  %constant.431 = s64[] constant(0)
  %broadcast.432 = s64[46080,1]{1,0} broadcast(%constant.431), dimensions={}
  %compare.443 = pred[46080,1]{1,0} compare(%convert.442, %broadcast.432), direction=GE, metadata={op_name="jit(_ionic_gspace_jit)/jit(main)/jit(accumulate_species_on_G)/while/body/jit(interp_uniform_jax)/jit(_take)/ge" source_file="/global/homes/j/jackm/software/lorrax_B/src/psp/radial/radial_jax.py" source_line=155}
  %constant.429 = s64[] constant(3999)
  %broadcast.430 = s64[46080,1]{1,0} broadcast(%constant.429), dimensions={}
  %compare.444 = pred[46080,1]{1,0} compare(%convert.442, %broadcast.430), direction=LE, metadata={op_name="jit(_ionic_gspace_jit)/jit(main)/jit(accumulate_species_on_G)/while/body/jit(interp_uniform_jax)/jit(_take)/le" source_file="/global/homes/j/jackm/software/lorrax_B/src/psp/radial/radial_jax.py" source_line=155}
  %and.445 = pred[46080,1]{1,0} and(%compare.443, %compare.444), metadata={op_name="jit(_ionic_gspace_jit)/jit(main)/jit(accumulate_species_on_G)/while/body/jit(interp_uniform_jax)/jit(_take)/and" source_file="/global/homes/j/jackm/software/lorrax_B/src/psp/radial/radial_jax.py" source_line=155}
  %constant.435 = pred[] constant(true)
  %reduce.446 = pred[46080]{0} reduce(%and.445, %constant.435), dimensions={1}, to_apply=%region_5.420, metadata={op_name="jit(_ionic_gspace_jit)/jit(main)/jit(accumulate_species_on_G)/while/body/jit(interp_uniform_jax)/jit(_take)/reduce_and" source_file="/global/homes/j/jackm/software/lorrax_B/src/psp/radial/radial_jax.py" source_line=155}
  %Arg_0.425 = f64[4000]{0} parameter(0), metadata={op_name="jit(_ionic_gspace_jit)/jit(main)/jit(accumulate_species_on_G)/while/body/jit(interp_uniform_jax)/pjit"}
  %gather.447 = f64[46080]{0} gather(%Arg_0.425, %convert.442), offset_dims={}, collapsed_slice_dims={0}, start_index_map={0}, index_vector_dim=1, slice_sizes={1}, metadata={op_name="jit(_ionic_gspace_jit)/jit(main)/jit(accumulate_species_on_G)/while/body/jit(interp_uniform_jax)/jit(_take)/gather" source_file="/global/homes/j/jackm/software/lorrax_B/src/psp/radial/radial_jax.py" source_line=155}
  %constant.427 = f64[] constant(nan)
  %broadcast.428 = f64[46080]{0} broadcast(%constant.427), dimensions={}
  ROOT %select.448 = f64[46080]{0} select(%reduce.446, %gather.447, %broadcast.428), metadata={op_name="jit(_ionic_gspace_jit)/jit(main)/jit(accumulate_species_on_G)/while/body/jit(interp_uniform_jax)/jit(_take)/select_n" source_file="/global/homes/j/jackm/software/lorrax_B/src/psp/radial/radial_jax.py" source_line=155}
}

%_where_3.449 (Arg_0.450: pred[46080], Arg_1.451: f64[46080], Arg_2.452: f64[]) -> f64[46080] {
  %Arg_0.450 = pred[46080]{0} parameter(0), metadata={op_name="jit(_ionic_gspace_jit)/jit(main)/jit(accumulate_species_on_G)/while/body/jit(interp_uniform_jax)/pjit"}
  %Arg_1.451 = f64[46080]{0} parameter(1), metadata={op_name="jit(_ionic_gspace_jit)/jit(main)/jit(accumulate_species_on_G)/while/body/jit(interp_uniform_jax)/pjit"}
  %Arg_2.452 = f64[] parameter(2), metadata={op_name="jit(_ionic_gspace_jit)/jit(main)/jit(accumulate_species_on_G)/while/body/jit(interp_uniform_jax)/pjit"}
  %broadcast.453 = f64[46080]{0} broadcast(%Arg_2.452), dimensions={}, metadata={op_name="jit(_ionic_gspace_jit)/jit(main)/jit(accumulate_species_on_G)/while/body/jit(interp_uniform_jax)/jit(_where)/broadcast_in_dim" source_file="/global/homes/j/jackm/software/lorrax_B/src/psp/radial/radial_jax.py" source_line=159}
  ROOT %select.454 = f64[46080]{0} select(%Arg_0.450, %Arg_1.451, %broadcast.453), metadata={op_name="jit(_ionic_gspace_jit)/jit(main)/jit(accumulate_species_on_G)/while/body/jit(interp_uniform_jax)/jit(_where)/select_n" source_file="/global/homes/j/jackm/software/lorrax_B/src/psp/radial/radial_jax.py" source_line=159}
}

%interp_uniform_jax.455 (Arg_0.456: f64[46080], Arg_1.457: f64[], Arg_2.458: f64[], Arg_3.459: f64[4000]) -> f64[46080] {
  %Arg_0.456 = f64[46080]{0} parameter(0), metadata={op_name="jit(_ionic_gspace_jit)/jit(main)/jit(accumulate_species_on_G)/while/body/pjit"}
  %Arg_1.457 = f64[] parameter(1), metadata={op_name="jit(_ionic_gspace_jit)/jit(main)/jit(accumulate_species_on_G)/while/body/pjit"}
  %broadcast.488 = f64[46080]{0} broadcast(%Arg_1.457), dimensions={}, metadata={op_name="jit(_ionic_gspace_jit)/jit(main)/jit(accumulate_species_on_G)/while/body/jit(interp_uniform_jax)/ge" source_file="/global/homes/j/jackm/software/lorrax_B/src/psp/radial/radial_jax.py" source_line=158}
  %compare.489 = pred[46080]{0} compare(%Arg_0.456, %broadcast.488), direction=GE, metadata={op_name="jit(_ionic_gspace_jit)/jit(main)/jit(accumulate_species_on_G)/while/body/jit(interp_uniform_jax)/ge" source_file="/global/homes/j/jackm/software/lorrax_B/src/psp/radial/radial_jax.py" source_line=158}
  %Arg_2.458 = f64[] parameter(2), metadata={op_name="jit(_ionic_gspace_jit)/jit(main)/jit(accumulate_species_on_G)/while/body/pjit"}
  %constant.468 = f64[] constant(3999)
  %multiply.469 = f64[] multiply(%Arg_2.458, %constant.468), metadata={op_name="jit(_ionic_gspace_jit)/jit(main)/jit(accumulate_species_on_G)/while/body/jit(interp_uniform_jax)/mul" source_file="/global/homes/j/jackm/software/lorrax_B/src/psp/radial/radial_jax.py" source_line=149}
  %add.470 = f64[] add(%Arg_1.457, %multiply.469), metadata={op_name="jit(_ionic_gspace_jit)/jit(main)/jit(accumulate_species_on_G)/while/body/jit(interp_uniform_jax)/add" source_file="/global/homes/j/jackm/software/lorrax_B/src/psp/radial/radial_jax.py" source_line=149}
  %broadcast.490 = f64[46080]{0} broadcast(%add.470), dimensions={}, metadata={op_name="jit(_ionic_gspace_jit)/jit(main)/jit(accumulate_species_on_G)/while/body/jit(interp_uniform_jax)/le" source_file="/global/homes/j/jackm/software/lorrax_B/src/psp/radial/radial_jax.py" source_line=158}
  %compare.491 = pred[46080]{0} compare(%Arg_0.456, %broadcast.490), direction=LE, metadata={op_name="jit(_ionic_gspace_jit)/jit(main)/jit(accumulate_species_on_G)/while/body/jit(interp_uniform_jax)/le" source_file="/global/homes/j/jackm/software/lorrax_B/src/psp/radial/radial_jax.py" source_line=158}
  %and.492 = pred[46080]{0} and(%compare.489, %compare.491), metadata={op_name="jit(_ionic_gspace_jit)/jit(main)/jit(accumulate_species_on_G)/while/body/jit(interp_uniform_jax)/and" source_file="/global/homes/j/jackm/software/lorrax_B/src/psp/radial/radial_jax.py" source_line=158}
  %constant.460 = f64[] constant(1)
  %broadcast.461 = f64[46080]{0} broadcast(%constant.460), dimensions={}
  %broadcast.471 = f64[46080]{0} broadcast(%Arg_1.457), dimensions={}, metadata={op_name="jit(_ionic_gspace_jit)/jit(main)/jit(accumulate_species_on_G)/while/body/jit(interp_uniform_jax)/sub" source_file="/global/homes/j/jackm/software/lorrax_B/src/psp/radial/radial_jax.py" source_line=150}
  %subtract.472 = f64[46080]{0} subtract(%Arg_0.456, %broadcast.471), metadata={op_name="jit(_ionic_gspace_jit)/jit(main)/jit(accumulate_species_on_G)/while/body/jit(interp_uniform_jax)/sub" source_file="/global/homes/j/jackm/software/lorrax_B/src/psp/radial/radial_jax.py" source_line=150}
  %broadcast.473 = f64[46080]{0} broadcast(%Arg_2.458), dimensions={}, metadata={op_name="jit(_ionic_gspace_jit)/jit(main)/jit(accumulate_species_on_G)/while/body/jit(interp_uniform_jax)/div" source_file="/global/homes/j/jackm/software/lorrax_B/src/psp/radial/radial_jax.py" source_line=150}
  %divide.474 = f64[46080]{0} divide(%subtract.472, %broadcast.473), metadata={op_name="jit(_ionic_gspace_jit)/jit(main)/jit(accumulate_species_on_G)/while/body/jit(interp_uniform_jax)/div" source_file="/global/homes/j/jackm/software/lorrax_B/src/psp/radial/radial_jax.py" source_line=150}
  %floor.475 = f64[46080]{0} floor(%divide.474), metadata={op_name="jit(_ionic_gspace_jit)/jit(main)/jit(accumulate_species_on_G)/while/body/jit(interp_uniform_jax)/floor" source_file="/global/homes/j/jackm/software/lorrax_B/src/psp/radial/radial_jax.py" source_line=151}
  %convert.476 = s32[46080]{0} convert(%floor.475), metadata={op_name="jit(_ionic_gspace_jit)/jit(main)/jit(accumulate_species_on_G)/while/body/jit(interp_uniform_jax)/convert_element_type" source_file="/global/homes/j/jackm/software/lorrax_B/src/psp/radial/radial_jax.py" source_line=151}
  %constant.467 = s64[] constant(0)
  %constant.466 = s64[] constant(3998)
  %call.477 = s32[46080]{0} call(%convert.476, %constant.467, %constant.466), to_apply=%clip.363
  %convert.478 = f64[46080]{0} convert(%call.477), metadata={op_name="jit(_ionic_gspace_jit)/jit(main)/jit(accumulate_species_on_G)/while/body/jit(interp_uniform_jax)/convert_element_type" source_file="/global/homes/j/jackm/software/lorrax_B/src/psp/radial/radial_jax.py" source_line=153}
  %subtract.479 = f64[46080]{0} subtract(%divide.474, %convert.478), metadata={op_name="jit(_ionic_gspace_jit)/jit(main)/jit(accumulate_species_on_G)/while/body/jit(interp_uniform_jax)/sub" source_file="/global/homes/j/jackm/software/lorrax_B/src/psp/radial/radial_jax.py" source_line=153}
  %constant.465 = f64[] constant(0)
  %constant.464 = f64[] constant(1)
  %call.480 = f64[46080]{0} call(%subtract.479, %constant.465, %constant.464), to_apply=%clip_2.373
  %subtract.484 = f64[46080]{0} subtract(%broadcast.461, %call.480), metadata={op_name="jit(_ionic_gspace_jit)/jit(main)/jit(accumulate_species_on_G)/while/body/jit(interp_uniform_jax)/sub" source_file="/global/homes/j/jackm/software/lorrax_B/src/psp/radial/radial_jax.py" source_line=157}
  %Arg_3.459 = f64[4000]{0} parameter(3), metadata={op_name="jit(_ionic_gspace_jit)/jit(main)/jit(accumulate_species_on_G)/while/body/pjit"}
  %call.481 = f64[46080]{0} call(%Arg_3.459, %call.477), to_apply=%_take.390
  %multiply.485 = f64[46080]{0} multiply(%subtract.484, %call.481), metadata={op_name="jit(_ionic_gspace_jit)/jit(main)/jit(accumulate_species_on_G)/while/body/jit(interp_uniform_jax)/mul" source_file="/global/homes/j/jackm/software/lorrax_B/src/psp/radial/radial_jax.py" source_line=157}
  %constant.462 = s32[] constant(1)
  %broadcast.463 = s32[46080]{0} broadcast(%constant.462), dimensions={}
  %add.482 = s32[46080]{0} add(%call.477, %broadcast.463), metadata={op_name="jit(_ionic_gspace_jit)/jit(main)/jit(accumulate_species_on_G)/while/body/jit(interp_uniform_jax)/add" source_file="/global/homes/j/jackm/software/lorrax_B/src/psp/radial/radial_jax.py" source_line=156}
  %call.483 = f64[46080]{0} call(%Arg_3.459, %add.482), to_apply=%_take.424
  %multiply.486 = f64[46080]{0} multiply(%call.480, %call.483), metadata={op_name="jit(_ionic_gspace_jit)/jit(main)/jit(accumulate_species_on_G)/while/body/jit(interp_uniform_jax)/mul" source_file="/global/homes/j/jackm/software/lorrax_B/src/psp/radial/radial_jax.py" source_line=157}
  %add.487 = f64[46080]{0} add(%multiply.485, %multiply.486), metadata={op_name="jit(_ionic_gspace_jit)/jit(main)/jit(accumulate_species_on_G)/while/body/jit(interp_uniform_jax)/add" source_file="/global/homes/j/jackm/software/lorrax_B/src/psp/radial/radial_jax.py" source_line=157}
  ROOT %call.493 = f64[46080]{0} call(%and.492, %add.487, %constant.465), to_apply=%_where_3.449
}

%None_1.494 (Arg_0.495: f64[46080], Arg_1.496: f64[], Arg_2.497: f64[], Arg_3.498: c128[46080], Arg_4.499: f64[4000], Arg_5.500: f64[], Arg_6.501: c128[46080]) -> c128[46080] {
  %Arg_3.498 = c128[46080]{0} parameter(3), metadata={op_name="jit(_ionic_gspace_jit)/jit(main)/jit(accumulate_species_on_G)/while/body/closed_call"}
  %Arg_5.500 = f64[] parameter(5), metadata={op_name="jit(_ionic_gspace_jit)/jit(main)/jit(accumulate_species_on_G)/while/body/closed_call"}
  %broadcast.503 = f64[46080]{0} broadcast(%Arg_5.500), dimensions={}, metadata={op_name="jit(_ionic_gspace_jit)/jit(main)/jit(accumulate_species_on_G)/while/body/mul" source_file="/global/homes/j/jackm/software/lorrax_B/src/psp/ionic_gspace.py" source_line=102}
  %Arg_0.495 = f64[46080]{0} parameter(0), metadata={op_name="jit(_ionic_gspace_jit)/jit(main)/jit(accumulate_species_on_G)/while/body/closed_call"}
  %Arg_1.496 = f64[] parameter(1), metadata={op_name="jit(_ionic_gspace_jit)/jit(main)/jit(accumulate_species_on_G)/while/body/closed_call"}
  %Arg_2.497 = f64[] parameter(2), metadata={op_name="jit(_ionic_gspace_jit)/jit(main)/jit(accumulate_species_on_G)/while/body/closed_call"}
  %Arg_4.499 = f64[4000]{0} parameter(4), metadata={op_name="jit(_ionic_gspace_jit)/jit(main)/jit(accumulate_species_on_G)/while/body/closed_call"}
  %call.502 = f64[46080]{0} call(%Arg_0.495, %Arg_1.496, %Arg_2.497, %Arg_4.499), to_apply=%interp_uniform_jax.455
  %multiply.504 = f64[46080]{0} multiply(%broadcast.503, %call.502), metadata={op_name="jit(_ionic_gspace_jit)/jit(main)/jit(accumulate_species_on_G)/while/body/mul" source_file="/global/homes/j/jackm/software/lorrax_B/src/psp/ionic_gspace.py" source_line=102}
  %convert.505 = c128[46080]{0} convert(%multiply.504), metadata={op_name="jit(_ionic_gspace_jit)/jit(main)/jit(accumulate_species_on_G)/while/body/convert_element_type" source_file="/global/homes/j/jackm/software/lorrax_B/src/psp/ionic_gspace.py" source_line=102}
  %Arg_6.501 = c128[46080]{0} parameter(6), metadata={op_name="jit(_ionic_gspace_jit)/jit(main)/jit(accumulate_species_on_G)/while/body/closed_call"}
  %multiply.506 = c128[46080]{0} multiply(%convert.505, %Arg_6.501), metadata={op_name="jit(_ionic_gspace_jit)/jit(main)/jit(accumulate_species_on_G)/while/body/mul" source_file="/global/homes/j/jackm/software/lorrax_B/src/psp/ionic_gspace.py" source_line=102}
  ROOT %add.507 = c128[46080]{0} add(%Arg_3.498, %multiply.506), metadata={op_name="jit(_ionic_gspace_jit)/jit(main)/jit(accumulate_species_on_G)/while/body/add" source_file="/global/homes/j/jackm/software/lorrax_B/src/psp/ionic_gspace.py" source_line=102}
}

%region_4.508 (arg_tuple.509: (s64[], c128[46080], f64[2,4000], f64[2], c128[2,46080], /*index=5*/f64[46080], f64[], f64[])) -> (s64[], c128[46080], f64[2,4000], f64[2], c128[2,46080], /*index=5*/f64[46080], f64[], f64[]) {
  %arg_tuple.509 = (s64[], c128[46080]{0}, f64[2,4000]{1,0}, f64[2]{0}, c128[2,46080]{1,0}, /*index=5*/f64[46080]{0}, f64[], f64[]) parameter(0)
  %get-tuple-element.510 = s64[] get-tuple-element(%arg_tuple.509), index=0
  %constant.518 = s64[] constant(1)
  %add.527 = s64[] add(%get-tuple-element.510, %constant.518), metadata={op_name="jit(_ionic_gspace_jit)/jit(main)/jit(accumulate_species_on_G)/while/body/add" source_file="/global/homes/j/jackm/software/lorrax_B/src/psp/ionic_gspace.py" source_line=104}
  %get-tuple-element.515 = f64[46080]{0} get-tuple-element(%arg_tuple.509), index=5
  %get-tuple-element.516 = f64[] get-tuple-element(%arg_tuple.509), index=6
  %get-tuple-element.517 = f64[] get-tuple-element(%arg_tuple.509), index=7
  %get-tuple-element.511 = c128[46080]{0} get-tuple-element(%arg_tuple.509), index=1
  %get-tuple-element.512 = f64[2,4000]{1,0} get-tuple-element(%arg_tuple.509), index=2
  %constant.519 = s64[] constant(0)
  %dynamic-slice.520 = f64[1,4000]{1,0} dynamic-slice(%get-tuple-element.512, %get-tuple-element.510, %constant.519), dynamic_slice_sizes={1,4000}, metadata={op_name="jit(_ionic_gspace_jit)/jit(main)/jit(accumulate_species_on_G)/while/body/dynamic_slice" source_file="/global/homes/j/jackm/software/lorrax_B/src/psp/ionic_gspace.py" source_line=104}
  %reshape.521 = f64[4000]{0} reshape(%dynamic-slice.520), metadata={op_name="jit(_ionic_gspace_jit)/jit(main)/jit(accumulate_species_on_G)/while/body/squeeze" source_file="/global/homes/j/jackm/software/lorrax_B/src/psp/ionic_gspace.py" source_line=104}
  %get-tuple-element.513 = f64[2]{0} get-tuple-element(%arg_tuple.509), index=3
  %dynamic-slice.522 = f64[1]{0} dynamic-slice(%get-tuple-element.513, %get-tuple-element.510), dynamic_slice_sizes={1}, metadata={op_name="jit(_ionic_gspace_jit)/jit(main)/jit(accumulate_species_on_G)/while/body/dynamic_slice" source_file="/global/homes/j/jackm/software/lorrax_B/src/psp/ionic_gspace.py" source_line=104}
  %reshape.523 = f64[] reshape(%dynamic-slice.522), metadata={op_name="jit(_ionic_gspace_jit)/jit(main)/jit(accumulate_species_on_G)/while/body/squeeze" source_file="/global/homes/j/jackm/software/lorrax_B/src/psp/ionic_gspace.py" source_line=104}
  %get-tuple-element.514 = c128[2,46080]{1,0} get-tuple-element(%arg_tuple.509), index=4
  %dynamic-slice.524 = c128[1,46080]{1,0} dynamic-slice(%get-tuple-element.514, %get-tuple-element.510, %constant.519), dynamic_slice_sizes={1,46080}, metadata={op_name="jit(_ionic_gspace_jit)/jit(main)/jit(accumulate_species_on_G)/while/body/dynamic_slice" source_file="/global/homes/j/jackm/software/lorrax_B/src/psp/ionic_gspace.py" source_line=104}
  %reshape.525 = c128[46080]{0} reshape(%dynamic-slice.524), metadata={op_name="jit(_ionic_gspace_jit)/jit(main)/jit(accumulate_species_on_G)/while/body/squeeze" source_file="/global/homes/j/jackm/software/lorrax_B/src/psp/ionic_gspace.py" source_line=104}
  %call.526 = c128[46080]{0} call(%get-tuple-element.515, %get-tuple-element.516, %get-tuple-element.517, %get-tuple-element.511, %reshape.521, /*index=5*/%reshape.523, %reshape.525), to_apply=%None_1.494
  ROOT %tuple.528 = (s64[], c128[46080]{0}, f64[2,4000]{1,0}, f64[2]{0}, c128[2,46080]{1,0}, /*index=5*/f64[46080]{0}, f64[], f64[]) tuple(%add.527, %call.526, %get-tuple-element.512, %get-tuple-element.513, %get-tuple-element.514, /*index=5*/%get-tuple-element.515, %get-tuple-element.516, %get-tuple-element.517)
}

%region_6.529 (arg_tuple.530: (s64[], c128[46080], f64[2,4000], f64[2], c128[2,46080], /*index=5*/f64[46080], f64[], f64[])) -> pred[] {
  %arg_tuple.530 = (s64[], c128[46080]{0}, f64[2,4000]{1,0}, f64[2]{0}, c128[2,46080]{1,0}, /*index=5*/f64[46080]{0}, f64[], f64[]) parameter(0)
  %get-tuple-element.532 = c128[46080]{0} get-tuple-element(%arg_tuple.530), index=1
  %get-tuple-element.533 = f64[2,4000]{1,0} get-tuple-element(%arg_tuple.530), index=2
  %get-tuple-element.534 = f64[2]{0} get-tuple-element(%arg_tuple.530), index=3
  %get-tuple-element.535 = c128[2,46080]{1,0} get-tuple-element(%arg_tuple.530), index=4
  %get-tuple-element.536 = f64[46080]{0} get-tuple-element(%arg_tuple.530), index=5
  %get-tuple-element.537 = f64[] get-tuple-element(%arg_tuple.530), index=6
  %get-tuple-element.538 = f64[] get-tuple-element(%arg_tuple.530), index=7
  %get-tuple-element.531 = s64[] get-tuple-element(%arg_tuple.530), index=0
  %constant.539 = s64[] constant(2)
  ROOT %compare.540 = pred[] compare(%get-tuple-element.531, %constant.539), direction=LT, metadata={op_name="jit(_ionic_gspace_jit)/jit(main)/jit(accumulate_species_on_G)/while/cond/lt" source_file="/global/homes/j/jackm/software/lorrax_B/src/psp/ionic_gspace.py" source_line=104}
}

%accumulate_species_on_G.541 (Arg_0.542: f64[2,4000], Arg_1.543: f64[2], Arg_2.544: c128[2,46080], Arg_3.545: f64[46080], Arg_4.546: f64[], Arg_5.547: f64[]) -> c128[46080] {
  %constant.548 = s64[] constant(0)
  %constant.549 = c128[] constant((0, 0))
  %broadcast.550 = c128[46080]{0} broadcast(%constant.549), dimensions={}, metadata={op_name="jit(_ionic_gspace_jit)/jit(main)/jit(accumulate_species_on_G)/broadcast_in_dim" source_file="/global/homes/j/jackm/software/lorrax_B/src/psp/ionic_gspace.py" source_line=106}
  %Arg_0.542 = f64[2,4000]{1,0} parameter(0), metadata={op_name="jit(_ionic_gspace_jit)/jit(main)/pjit"}
  %Arg_1.543 = f64[2]{0} parameter(1), metadata={op_name="jit(_ionic_gspace_jit)/jit(main)/pjit"}
  %Arg_2.544 = c128[2,46080]{1,0} parameter(2), metadata={op_name="jit(_ionic_gspace_jit)/jit(main)/pjit"}
  %Arg_3.545 = f64[46080]{0} parameter(3), metadata={op_name="jit(_ionic_gspace_jit)/jit(main)/pjit"}
  %Arg_4.546 = f64[] parameter(4), metadata={op_name="jit(_ionic_gspace_jit)/jit(main)/pjit"}
  %Arg_5.547 = f64[] parameter(5), metadata={op_name="jit(_ionic_gspace_jit)/jit(main)/pjit"}
  %tuple.551 = (s64[], c128[46080]{0}, f64[2,4000]{1,0}, f64[2]{0}, c128[2,46080]{1,0}, /*index=5*/f64[46080]{0}, f64[], f64[]) tuple(%constant.548, %broadcast.550, %Arg_0.542, %Arg_1.543, %Arg_2.544, /*index=5*/%Arg_3.545, %Arg_4.546, %Arg_5.547), metadata={op_name="jit(_ionic_gspace_jit)/jit(main)/jit(accumulate_species_on_G)/while" source_file="/global/homes/j/jackm/software/lorrax_B/src/psp/ionic_gspace.py" source_line=104}
  %while.552 = (s64[], c128[46080]{0}, f64[2,4000]{1,0}, f64[2]{0}, c128[2,46080]{1,0}, /*index=5*/f64[46080]{0}, f64[], f64[]) while(%tuple.551), condition=%region_6.529, body=%region_4.508, metadata={op_name="jit(_ionic_gspace_jit)/jit(main)/jit(accumulate_species_on_G)/while" source_file="/global/homes/j/jackm/software/lorrax_B/src/psp/ionic_gspace.py" source_line=104}
  %get-tuple-element.553 = s64[] get-tuple-element(%while.552), index=0, metadata={op_name="jit(_ionic_gspace_jit)/jit(main)/jit(accumulate_species_on_G)/while" source_file="/global/homes/j/jackm/software/lorrax_B/src/psp/ionic_gspace.py" source_line=104}
  ROOT %get-tuple-element.554 = c128[46080]{0} get-tuple-element(%while.552), index=1, metadata={op_name="jit(_ionic_gspace_jit)/jit(main)/jit(accumulate_species_on_G)/while" source_file="/global/homes/j/jackm/software/lorrax_B/src/psp/ionic_gspace.py" source_line=104}
}

%_where_4.558 (Arg_0.559: pred[46080], Arg_1.560: f64[], Arg_2.561: f64[46080]) -> f64[46080] {
  %Arg_0.559 = pred[46080]{0} parameter(0), metadata={op_name="jit(_ionic_gspace_jit)/jit(main)/pjit"}
  %Arg_1.560 = f64[] parameter(1), metadata={op_name="jit(_ionic_gspace_jit)/jit(main)/pjit"}
  %broadcast.562 = f64[46080]{0} broadcast(%Arg_1.560), dimensions={}, metadata={op_name="jit(_ionic_gspace_jit)/jit(main)/jit(_where)/broadcast_in_dim" source_file="/global/homes/j/jackm/software/lorrax_B/src/psp/ionic_gspace.py" source_line=249}
  %Arg_2.561 = f64[46080]{0} parameter(2), metadata={op_name="jit(_ionic_gspace_jit)/jit(main)/pjit"}
  ROOT %select.563 = f64[46080]{0} select(%Arg_0.559, %broadcast.562, %Arg_2.561), metadata={op_name="jit(_ionic_gspace_jit)/jit(main)/jit(_where)/select_n" source_file="/global/homes/j/jackm/software/lorrax_B/src/psp/ionic_gspace.py" source_line=249}
}

%region_7.571 (Arg_0.572: c128[], Arg_1.573: c128[]) -> c128[] {
  %Arg_0.572 = c128[] parameter(0), metadata={op_name="jit(_ionic_gspace_jit)/jit(main)/reduce_sum"}
  %Arg_1.573 = c128[] parameter(1), metadata={op_name="jit(_ionic_gspace_jit)/jit(main)/reduce_sum"}
  ROOT %add.574 = c128[] add(%Arg_0.572, %Arg_1.573), metadata={op_name="jit(_ionic_gspace_jit)/jit(main)/reduce_sum" source_file="/global/homes/j/jackm/software/lorrax_B/src/psp/ionic_gspace.py" source_line=250}
}

%_where_4.614 (Arg_0.615: pred[46080], Arg_1.616: f64[], Arg_2.617: f64[46080]) -> f64[46080] {
  %Arg_0.615 = pred[46080]{0} parameter(0), metadata={op_name="jit(_ionic_gspace_jit)/jit(main)/pjit"}
  %Arg_1.616 = f64[] parameter(1), metadata={op_name="jit(_ionic_gspace_jit)/jit(main)/pjit"}
  %broadcast.618 = f64[46080]{0} broadcast(%Arg_1.616), dimensions={}, metadata={op_name="jit(_ionic_gspace_jit)/jit(main)/jit(_where)/broadcast_in_dim" source_file="/global/homes/j/jackm/software/lorrax_B/src/psp/ionic_gspace.py" source_line=249}
  %Arg_2.617 = f64[46080]{0} parameter(2), metadata={op_name="jit(_ionic_gspace_jit)/jit(main)/pjit"}
  ROOT %select.619 = f64[46080]{0} select(%Arg_0.615, %broadcast.618, %Arg_2.617), metadata={op_name="jit(_ionic_gspace_jit)/jit(main)/jit(_where)/select_n" source_file="/global/homes/j/jackm/software/lorrax_B/src/psp/ionic_gspace.py" source_line=249}
}

%region_8.623 (Arg_0.624: c128[], Arg_1.625: c128[]) -> c128[] {
  %Arg_0.624 = c128[] parameter(0), metadata={op_name="jit(_ionic_gspace_jit)/jit(main)/scatter"}
  ROOT %Arg_1.625 = c128[] parameter(1), metadata={op_name="jit(_ionic_gspace_jit)/jit(main)/scatter"}
}

%fft.629 (Arg_0.630: c128[24,24,80]) -> c128[24,24,80] {
  %Arg_0.630 = c128[24,24,80]{2,1,0} parameter(0), metadata={op_name="jit(_ionic_gspace_jit)/jit(main)/pjit"}
  ROOT %fft.631 = c128[24,24,80]{2,1,0} fft(%Arg_0.630), fft_type=IFFT, fft_length={24,24,80}, metadata={op_name="jit(_ionic_gspace_jit)/jit(main)/jit(fft)/fft" source_file="/global/homes/j/jackm/software/lorrax_B/src/psp/ionic_gspace.py" source_line=240}
}

%region_9.633 (Arg_0.634: c128[], Arg_1.635: c128[]) -> c128[] {
  %Arg_0.634 = c128[] parameter(0), metadata={op_name="jit(_ionic_gspace_jit)/jit(main)/reduce_prod"}
  %Arg_1.635 = c128[] parameter(1), metadata={op_name="jit(_ionic_gspace_jit)/jit(main)/reduce_prod"}
  ROOT %multiply.636 = c128[] multiply(%Arg_0.634, %Arg_1.635), metadata={op_name="jit(_ionic_gspace_jit)/jit(main)/reduce_prod" source_file="/global/homes/j/jackm/software/lorrax_B/src/psp/ionic_gspace.py" source_line=263}
}

ENTRY %main.735 (Arg_0.1: f64[46080,3], Arg_1.2: f64[46080], Arg_2.3: f64[2,2,3], Arg_3.4: s32[2], Arg_4.5: f64[2,4000], Arg_5.6: f64[2,4000], Arg_6.7: f64[2], Arg_7.8: f64[2], Arg_8.9: f64[2], Arg_9.10: f64[3,3], Arg_10.11: f64[], Arg_11.12: f64[], Arg_12.13: f64[], Arg_13.14: f64[], Arg_14.15: f64[]) -> (f64[24,24,80], f64[24,24,80], c128[24,24,80]) {
  %Arg_5.6 = f64[2,4000]{1,0} parameter(5), metadata={op_name="tables_vloc"}
  %Arg_7.8 = f64[2]{0} parameter(7), metadata={op_name="vloc_pf"}
  %Arg_2.3 = f64[2,2,3]{2,1,0} parameter(2), metadata={op_name="species_tau"}
  %Arg_3.4 = s32[2]{0} parameter(3), metadata={op_name="species_natoms"}
  %Arg_0.1 = f64[46080,3]{1,0} parameter(0), metadata={op_name="G_crys"}
  %call.158 = c128[2,46080]{1,0} call(%Arg_2.3, %Arg_3.4, %Arg_0.1), to_apply=%species_structure_factors.147
  %Arg_1.2 = f64[46080]{0} parameter(1), metadata={op_name="G_norm"}
  %Arg_10.11 = f64[] parameter(10), metadata={op_name="q0"}
  %Arg_11.12 = f64[] parameter(11), metadata={op_name="dq"}
  %call.555 = c128[46080]{0} call(%Arg_5.6, %Arg_7.8, %call.158, %Arg_1.2, %Arg_10.11, /*index=5*/%Arg_11.12), to_apply=%accumulate_species_on_G.541
  %Arg_13.14 = f64[] parameter(13), metadata={op_name="sqrtN"}
  %constant.30 = f64[] constant(4)
  %multiply.577 = f64[] multiply(%Arg_13.14, %constant.30), metadata={op_name="jit(_ionic_gspace_jit)/jit(main)/mul" source_file="/global/homes/j/jackm/software/lorrax_B/src/psp/ionic_gspace.py" source_line=251}
  %constant.29 = f64[] constant(3.1415926535897931)
  %multiply.578 = f64[] multiply(%multiply.577, %constant.29), metadata={op_name="jit(_ionic_gspace_jit)/jit(main)/mul" source_file="/global/homes/j/jackm/software/lorrax_B/src/psp/ionic_gspace.py" source_line=251}
  %constant.28 = f64[] constant(2)
  %multiply.579 = f64[] multiply(%multiply.578, %constant.28), metadata={op_name="jit(_ionic_gspace_jit)/jit(main)/mul" source_file="/global/homes/j/jackm/software/lorrax_B/src/psp/ionic_gspace.py" source_line=251}
  %Arg_12.13 = f64[] parameter(12), metadata={op_name="vol"}
  %divide.580 = f64[] divide(%multiply.579, %Arg_12.13), metadata={op_name="jit(_ionic_gspace_jit)/jit(main)/div" source_file="/global/homes/j/jackm/software/lorrax_B/src/psp/ionic_gspace.py" source_line=251}
  %convert.587 = c128[] convert(%divide.580), metadata={op_name="jit(_ionic_gspace_jit)/jit(main)/convert_element_type" source_file="/global/homes/j/jackm/software/lorrax_B/src/psp/ionic_gspace.py" source_line=251}
  %broadcast.588 = c128[46080]{0} broadcast(%convert.587), dimensions={}, metadata={op_name="jit(_ionic_gspace_jit)/jit(main)/mul" source_file="/global/homes/j/jackm/software/lorrax_B/src/psp/ionic_gspace.py" source_line=251}
  %Arg_8.9 = f64[2]{0} parameter(8), metadata={op_name="z_vals"}
  %reshape.565 = f64[2,1]{1,0} reshape(%Arg_8.9), metadata={op_name="jit(_ionic_gspace_jit)/jit(main)/broadcast_in_dim" source_file="/global/homes/j/jackm/software/lorrax_B/src/psp/ionic_gspace.py" source_line=250}
  %convert.566 = c128[2,1]{1,0} convert(%reshape.565), metadata={op_name="jit(_ionic_gspace_jit)/jit(main)/convert_element_type" source_file="/global/homes/j/jackm/software/lorrax_B/src/psp/ionic_gspace.py" source_line=250}
  %broadcast.567 = c128[2,1]{1,0} broadcast(%convert.566), dimensions={0,1}, metadata={op_name="jit(_ionic_gspace_jit)/jit(main)/mul" source_file="/global/homes/j/jackm/software/lorrax_B/src/psp/ionic_gspace.py" source_line=250}
  %reshape.568 = c128[2]{0} reshape(%broadcast.567), metadata={op_name="jit(_ionic_gspace_jit)/jit(main)/mul" source_file="/global/homes/j/jackm/software/lorrax_B/src/psp/ionic_gspace.py" source_line=250}
  %broadcast.569 = c128[2,46080]{1,0} broadcast(%reshape.568), dimensions={0}, metadata={op_name="jit(_ionic_gspace_jit)/jit(main)/mul" source_file="/global/homes/j/jackm/software/lorrax_B/src/psp/ionic_gspace.py" source_line=250}
  %multiply.570 = c128[2,46080]{1,0} multiply(%broadcast.569, %call.158), metadata={op_name="jit(_ionic_gspace_jit)/jit(main)/mul" source_file="/global/homes/j/jackm/software/lorrax_B/src/psp/ionic_gspace.py" source_line=250}
  %constant.31 = c128[] constant((0, 0))
  %reduce.575 = c128[46080]{0} reduce(%multiply.570, %constant.31), dimensions={0}, to_apply=%region_7.571, metadata={op_name="jit(_ionic_gspace_jit)/jit(main)/reduce_sum" source_file="/global/homes/j/jackm/software/lorrax_B/src/psp/ionic_gspace.py" source_line=250}
  %negate.576 = c128[46080]{0} negate(%reduce.575), metadata={op_name="jit(_ionic_gspace_jit)/jit(main)/neg" source_file="/global/homes/j/jackm/software/lorrax_B/src/psp/ionic_gspace.py" source_line=250}
  %multiply.556 = f64[46080]{0} multiply(%Arg_1.2, %Arg_1.2), metadata={op_name="jit(_ionic_gspace_jit)/jit(main)/integer_pow" source_file="/global/homes/j/jackm/software/lorrax_B/src/psp/ionic_gspace.py" source_line=248}
  %constant.21 = f64[] constant(0)
  %broadcast.22 = f64[46080]{0} broadcast(%constant.21), dimensions={}
  %compare.557 = pred[46080]{0} compare(%multiply.556, %broadcast.22), direction=EQ, metadata={op_name="jit(_ionic_gspace_jit)/jit(main)/eq" source_file="/global/homes/j/jackm/software/lorrax_B/src/psp/ionic_gspace.py" source_line=249}
  %constant.32 = f64[] constant(1)
  %call.564 = f64[46080]{0} call(%compare.557, %constant.32, %multiply.556), to_apply=%_where_4.558
  %convert.581 = c128[46080]{0} convert(%call.564), metadata={op_name="jit(_ionic_gspace_jit)/jit(main)/convert_element_type" source_file="/global/homes/j/jackm/software/lorrax_B/src/psp/ionic_gspace.py" source_line=252}
  %divide.582 = c128[46080]{0} divide(%negate.576, %convert.581), metadata={op_name="jit(_ionic_gspace_jit)/jit(main)/div" source_file="/global/homes/j/jackm/software/lorrax_B/src/psp/ionic_gspace.py" source_line=252}
  %constant.19 = f64[] constant(-0.25)
  %broadcast.20 = f64[46080]{0} broadcast(%constant.19), dimensions={}
  %multiply.583 = f64[46080]{0} multiply(%multiply.556, %broadcast.20), metadata={op_name="jit(_ionic_gspace_jit)/jit(main)/mul" source_file="/global/homes/j/jackm/software/lorrax_B/src/psp/ionic_gspace.py" source_line=252}
  %exponential.584 = f64[46080]{0} exponential(%multiply.583), metadata={op_name="jit(_ionic_gspace_jit)/jit(main)/exp" source_file="/global/homes/j/jackm/software/lorrax_B/src/psp/ionic_gspace.py" source_line=252}
  %convert.585 = c128[46080]{0} convert(%exponential.584), metadata={op_name="jit(_ionic_gspace_jit)/jit(main)/convert_element_type" source_file="/global/homes/j/jackm/software/lorrax_B/src/psp/ionic_gspace.py" source_line=252}
  %multiply.586 = c128[46080]{0} multiply(%divide.582, %convert.585), metadata={op_name="jit(_ionic_gspace_jit)/jit(main)/mul" source_file="/global/homes/j/jackm/software/lorrax_B/src/psp/ionic_gspace.py" source_line=252}
  %multiply.589 = c128[46080]{0} multiply(%broadcast.588, %multiply.586), metadata={op_name="jit(_ionic_gspace_jit)/jit(main)/mul" source_file="/global/homes/j/jackm/software/lorrax_B/src/psp/ionic_gspace.py" source_line=251}
  %compare.613 = pred[46080]{0} compare(%multiply.556, %broadcast.22), direction=EQ, metadata={op_name="jit(_ionic_gspace_jit)/jit(main)/eq" source_file="/global/homes/j/jackm/software/lorrax_B/src/psp/ionic_gspace.py" source_line=259}
  %constant.33 = f64[] constant(0)
  %constant.17 = f64[] constant(1)
  %broadcast.18 = f64[46080]{0} broadcast(%constant.17), dimensions={}
  %Arg_9.10 = f64[3,3]{1,0} parameter(9), metadata={op_name="B_cart"}
  %dot.590 = f64[46080,3]{1,0} dot(%Arg_0.1, %Arg_9.10), lhs_contracting_dims={1}, rhs_contracting_dims={0}, metadata={op_name="jit(_ionic_gspace_jit)/jit(main)/dot_general" source_file="/global/homes/j/jackm/software/lorrax_B/src/psp/ionic_gspace.py" source_line=255}
  %slice.591 = f64[46080,1]{1,0} slice(%dot.590), slice={[0:46080], [0:1]}, metadata={op_name="jit(_ionic_gspace_jit)/jit(main)/slice" source_file="/global/homes/j/jackm/software/lorrax_B/src/psp/ionic_gspace.py" source_line=256}
  %reshape.592 = f64[46080]{0} reshape(%slice.591), metadata={op_name="jit(_ionic_gspace_jit)/jit(main)/squeeze" source_file="/global/homes/j/jackm/software/lorrax_B/src/psp/ionic_gspace.py" source_line=256}
  %multiply.593 = f64[46080]{0} multiply(%reshape.592, %reshape.592), metadata={op_name="jit(_ionic_gspace_jit)/jit(main)/integer_pow" source_file="/global/homes/j/jackm/software/lorrax_B/src/psp/ionic_gspace.py" source_line=256}
  %slice.594 = f64[46080,1]{1,0} slice(%dot.590), slice={[0:46080], [1:2]}, metadata={op_name="jit(_ionic_gspace_jit)/jit(main)/slice" source_file="/global/homes/j/jackm/software/lorrax_B/src/psp/ionic_gspace.py" source_line=256}
  %reshape.595 = f64[46080]{0} reshape(%slice.594), metadata={op_name="jit(_ionic_gspace_jit)/jit(main)/squeeze" source_file="/global/homes/j/jackm/software/lorrax_B/src/psp/ionic_gspace.py" source_line=256}
  %multiply.596 = f64[46080]{0} multiply(%reshape.595, %reshape.595), metadata={op_name="jit(_ionic_gspace_jit)/jit(main)/integer_pow" source_file="/global/homes/j/jackm/software/lorrax_B/src/psp/ionic_gspace.py" source_line=256}
  %add.597 = f64[46080]{0} add(%multiply.593, %multiply.596), metadata={op_name="jit(_ionic_gspace_jit)/jit(main)/add" source_file="/global/homes/j/jackm/software/lorrax_B/src/psp/ionic_gspace.py" source_line=256}
  %sqrt.598 = f64[46080]{0} sqrt(%add.597), metadata={op_name="jit(_ionic_gspace_jit)/jit(main)/sqrt" source_file="/global/homes/j/jackm/software/lorrax_B/src/psp/ionic_gspace.py" source_line=256}
  %negate.602 = f64[46080]{0} negate(%sqrt.598), metadata={op_name="jit(_ionic_gspace_jit)/jit(main)/neg" source_file="/global/homes/j/jackm/software/lorrax_B/src/psp/ionic_gspace.py" source_line=258}
  %slice.599 = f64[1,1]{1,0} slice(%Arg_9.10), slice={[2:3], [2:3]}, metadata={op_name="jit(_ionic_gspace_jit)/jit(main)/slice" source_file="/global/homes/j/jackm/software/lorrax_B/src/psp/ionic_gspace.py" source_line=257}
  %reshape.600 = f64[] reshape(%slice.599), metadata={op_name="jit(_ionic_gspace_jit)/jit(main)/squeeze" source_file="/global/homes/j/jackm/software/lorrax_B/src/psp/ionic_gspace.py" source_line=257}
  %divide.601 = f64[] divide(%constant.29, %reshape.600), metadata={op_name="jit(_ionic_gspace_jit)/jit(main)/div" source_file="/global/homes/j/jackm/software/lorrax_B/src/psp/ionic_gspace.py" source_line=257}
  %broadcast.603 = f64[46080]{0} broadcast(%divide.601), dimensions={}, metadata={op_name="jit(_ionic_gspace_jit)/jit(main)/mul" source_file="/global/homes/j/jackm/software/lorrax_B/src/psp/ionic_gspace.py" source_line=258}
  %multiply.604 = f64[46080]{0} multiply(%negate.602, %broadcast.603), metadata={op_name="jit(_ionic_gspace_jit)/jit(main)/mul" source_file="/global/homes/j/jackm/software/lorrax_B/src/psp/ionic_gspace.py" source_line=258}
  %exponential.605 = f64[46080]{0} exponential(%multiply.604), metadata={op_name="jit(_ionic_gspace_jit)/jit(main)/exp" source_file="/global/homes/j/jackm/software/lorrax_B/src/psp/ionic_gspace.py" source_line=258}
  %slice.606 = f64[46080,1]{1,0} slice(%dot.590), slice={[0:46080], [2:3]}, metadata={op_name="jit(_ionic_gspace_jit)/jit(main)/slice" source_file="/global/homes/j/jackm/software/lorrax_B/src/psp/ionic_gspace.py" source_line=258}
  %reshape.607 = f64[46080]{0} reshape(%slice.606), metadata={op_name="jit(_ionic_gspace_jit)/jit(main)/squeeze" source_file="/global/homes/j/jackm/software/lorrax_B/src/psp/ionic_gspace.py" source_line=258}
  %broadcast.608 = f64[46080]{0} broadcast(%divide.601), dimensions={}, metadata={op_name="jit(_ionic_gspace_jit)/jit(main)/mul" source_file="/global/homes/j/jackm/software/lorrax_B/src/psp/ionic_gspace.py" source_line=258}
  %multiply.609 = f64[46080]{0} multiply(%reshape.607, %broadcast.608), metadata={op_name="jit(_ionic_gspace_jit)/jit(main)/mul" source_file="/global/homes/j/jackm/software/lorrax_B/src/psp/ionic_gspace.py" source_line=258}
  %cosine.610 = f64[46080]{0} cosine(%multiply.609), metadata={op_name="jit(_ionic_gspace_jit)/jit(main)/cos" source_file="/global/homes/j/jackm/software/lorrax_B/src/psp/ionic_gspace.py" source_line=258}
  %multiply.611 = f64[46080]{0} multiply(%exponential.605, %cosine.610), metadata={op_name="jit(_ionic_gspace_jit)/jit(main)/mul" source_file="/global/homes/j/jackm/software/lorrax_B/src/psp/ionic_gspace.py" source_line=258}
  %subtract.612 = f64[46080]{0} subtract(%broadcast.18, %multiply.611), metadata={op_name="jit(_ionic_gspace_jit)/jit(main)/sub" source_file="/global/homes/j/jackm/software/lorrax_B/src/psp/ionic_gspace.py" source_line=258}
  %call.620 = f64[46080]{0} call(%compare.613, %constant.33, %subtract.612), to_apply=%_where_4.614
  %convert.621 = c128[46080]{0} convert(%call.620), metadata={op_name="jit(_ionic_gspace_jit)/jit(main)/convert_element_type" source_file="/global/homes/j/jackm/software/lorrax_B/src/psp/ionic_gspace.py" source_line=259}
  %multiply.622 = c128[46080]{0} multiply(%multiply.589, %convert.621), metadata={op_name="jit(_ionic_gspace_jit)/jit(main)/mul" source_file="/global/homes/j/jackm/software/lorrax_B/src/psp/ionic_gspace.py" source_line=259}
  %constant.16 = s32[1]{0} constant({0})
  %scatter.626 = c128[46080]{0} scatter(%multiply.622, %constant.16, %constant.31), update_window_dims={}, inserted_window_dims={0}, scatter_dims_to_operand_dims={0}, index_vector_dim=0, indices_are_sorted=true, unique_indices=true, to_apply=%region_8.623, metadata={op_name="jit(_ionic_gspace_jit)/jit(main)/scatter" source_file="/global/homes/j/jackm/software/lorrax_B/src/psp/ionic_gspace.py" source_line=261}
  %add.627 = c128[46080]{0} add(%call.555, %scatter.626), metadata={op_name="jit(_ionic_gspace_jit)/jit(main)/add" source_file="/global/homes/j/jackm/software/lorrax_B/src/psp/ionic_gspace.py" source_line=262}
  %reshape.628 = c128[24,24,80]{2,1,0} reshape(%add.627), metadata={op_name="jit(_ionic_gspace_jit)/jit(main)/reshape" source_file="/global/homes/j/jackm/software/lorrax_B/src/psp/ionic_gspace.py" source_line=262}
  %call.632 = c128[24,24,80]{2,1,0} call(%reshape.628), to_apply=%fft.629
  %constant.34 = c128[3]{0} constant({(24, 0), (24, 0), (80, 0)})
  %constant.27 = c128[] constant((1, 0))
  %reduce.637 = c128[] reduce(%constant.34, %constant.27), dimensions={0}, to_apply=%region_9.633, metadata={op_name="jit(_ionic_gspace_jit)/jit(main)/reduce_prod" source_file="/global/homes/j/jackm/software/lorrax_B/src/psp/ionic_gspace.py" source_line=263}
  %real.638 = f64[] real(%reduce.637), metadata={op_name="jit(_ionic_gspace_jit)/jit(main)/sqrt" source_file="/global/homes/j/jackm/software/lorrax_B/src/psp/ionic_gspace.py" source_line=263}
  %compare.639 = pred[] compare(%real.638, %constant.33), direction=GE, metadata={op_name="jit(_ionic_gspace_jit)/jit(main)/sqrt" source_file="/global/homes/j/jackm/software/lorrax_B/src/psp/ionic_gspace.py" source_line=263}
  %abs.640 = f64[] abs(%real.638), metadata={op_name="jit(_ionic_gspace_jit)/jit(main)/sqrt" source_file="/global/homes/j/jackm/software/lorrax_B/src/psp/ionic_gspace.py" source_line=263}
  %imag.641 = f64[] imag(%reduce.637), metadata={op_name="jit(_ionic_gspace_jit)/jit(main)/sqrt" source_file="/global/homes/j/jackm/software/lorrax_B/src/psp/ionic_gspace.py" source_line=263}
  %abs.642 = f64[] abs(%imag.641), metadata={op_name="jit(_ionic_gspace_jit)/jit(main)/sqrt" source_file="/global/homes/j/jackm/software/lorrax_B/src/psp/ionic_gspace.py" source_line=263}
  %compare.643 = pred[] compare(%abs.640, %abs.642), direction=EQ, metadata={op_name="jit(_ionic_gspace_jit)/jit(main)/sqrt" source_file="/global/homes/j/jackm/software/lorrax_B/src/psp/ionic_gspace.py" source_line=263}
  %sqrt.644 = f64[] sqrt(%abs.640), metadata={op_name="jit(_ionic_gspace_jit)/jit(main)/sqrt" source_file="/global/homes/j/jackm/software/lorrax_B/src/psp/ionic_gspace.py" source_line=263}
  %constant.26 = f64[] constant(1.5537739740300374)
  %multiply.645 = f64[] multiply(%sqrt.644, %constant.26), metadata={op_name="jit(_ionic_gspace_jit)/jit(main)/sqrt" source_file="/global/homes/j/jackm/software/lorrax_B/src/psp/ionic_gspace.py" source_line=263}
  %constant.25 = f64[] constant(1.4142135623730951)
  %divide.646 = f64[] divide(%multiply.645, %constant.25), metadata={op_name="jit(_ionic_gspace_jit)/jit(main)/sqrt" source_file="/global/homes/j/jackm/software/lorrax_B/src/psp/ionic_gspace.py" source_line=263}
  %maximum.647 = f64[] maximum(%abs.640, %abs.642), metadata={op_name="jit(_ionic_gspace_jit)/jit(main)/sqrt" source_file="/global/homes/j/jackm/software/lorrax_B/src/psp/ionic_gspace.py" source_line=263}
  %minimum.648 = f64[] minimum(%abs.640, %abs.642), metadata={op_name="jit(_ionic_gspace_jit)/jit(main)/sqrt" source_file="/global/homes/j/jackm/software/lorrax_B/src/psp/ionic_gspace.py" source_line=263}
  %compare.649 = pred[] compare(%maximum.647, %minimum.648), direction=EQ, metadata={op_name="jit(_ionic_gspace_jit)/jit(main)/sqrt" source_file="/global/homes/j/jackm/software/lorrax_B/src/psp/ionic_gspace.py" source_line=263}
  %multiply.650 = f64[] multiply(%maximum.647, %constant.25), metadata={op_name="jit(_ionic_gspace_jit)/jit(main)/sqrt" source_file="/global/homes/j/jackm/software/lorrax_B/src/psp/ionic_gspace.py" source_line=263}
  %divide.651 = f64[] divide(%minimum.648, %maximum.647), metadata={op_name="jit(_ionic_gspace_jit)/jit(main)/sqrt" source_file="/global/homes/j/jackm/software/lorrax_B/src/psp/ionic_gspace.py" source_line=263}
  %multiply.652 = f64[] multiply(%divide.651, %divide.651), metadata={op_name="jit(_ionic_gspace_jit)/jit(main)/sqrt" source_file="/global/homes/j/jackm/software/lorrax_B/src/psp/ionic_gspace.py" source_line=263}
  %add.653 = f64[] add(%multiply.652, %constant.32), metadata={op_name="jit(_ionic_gspace_jit)/jit(main)/sqrt" source_file="/global/homes/j/jackm/software/lorrax_B/src/psp/ionic_gspace.py" source_line=263}
  %sqrt.654 = f64[] sqrt(%add.653), metadata={op_name="jit(_ionic_gspace_jit)/jit(main)/sqrt" source_file="/global/homes/j/jackm/software/lorrax_B/src/psp/ionic_gspace.py" source_line=263}
  %compare.655 = pred[] compare(%sqrt.654, %constant.32), direction=EQ, metadata={op_name="jit(_ionic_gspace_jit)/jit(main)/sqrt" source_file="/global/homes/j/jackm/software/lorrax_B/src/psp/ionic_gspace.py" source_line=263}
  %compare.656 = pred[] compare(%multiply.652, %constant.33), direction=GT, metadata={op_name="jit(_ionic_gspace_jit)/jit(main)/sqrt" source_file="/global/homes/j/jackm/software/lorrax_B/src/psp/ionic_gspace.py" source_line=263}
  %and.657 = pred[] and(%compare.655, %compare.656), metadata={op_name="jit(_ionic_gspace_jit)/jit(main)/sqrt" source_file="/global/homes/j/jackm/software/lorrax_B/src/psp/ionic_gspace.py" source_line=263}
  %multiply.658 = f64[] multiply(%maximum.647, %multiply.652), metadata={op_name="jit(_ionic_gspace_jit)/jit(main)/sqrt" source_file="/global/homes/j/jackm/software/lorrax_B/src/psp/ionic_gspace.py" source_line=263}
  %divide.659 = f64[] divide(%multiply.658, %constant.28), metadata={op_name="jit(_ionic_gspace_jit)/jit(main)/sqrt" source_file="/global/homes/j/jackm/software/lorrax_B/src/psp/ionic_gspace.py" source_line=263}
  %add.660 = f64[] add(%maximum.647, %divide.659), metadata={op_name="jit(_ionic_gspace_jit)/jit(main)/sqrt" source_file="/global/homes/j/jackm/software/lorrax_B/src/psp/ionic_gspace.py" source_line=263}
  %multiply.661 = f64[] multiply(%maximum.647, %sqrt.654), metadata={op_name="jit(_ionic_gspace_jit)/jit(main)/sqrt" source_file="/global/homes/j/jackm/software/lorrax_B/src/psp/ionic_gspace.py" source_line=263}
  %select.662 = f64[] select(%and.657, %add.660, %multiply.661), metadata={op_name="jit(_ionic_gspace_jit)/jit(main)/sqrt" source_file="/global/homes/j/jackm/software/lorrax_B/src/psp/ionic_gspace.py" source_line=263}
  %select.663 = f64[] select(%compare.649, %multiply.650, %select.662), metadata={op_name="jit(_ionic_gspace_jit)/jit(main)/sqrt" source_file="/global/homes/j/jackm/software/lorrax_B/src/psp/ionic_gspace.py" source_line=263}
  %divide.664 = f64[] divide(%select.663, %constant.28), metadata={op_name="jit(_ionic_gspace_jit)/jit(main)/sqrt" source_file="/global/homes/j/jackm/software/lorrax_B/src/psp/ionic_gspace.py" source_line=263}
  %divide.665 = f64[] divide(%abs.640, %constant.28), metadata={op_name="jit(_ionic_gspace_jit)/jit(main)/sqrt" source_file="/global/homes/j/jackm/software/lorrax_B/src/psp/ionic_gspace.py" source_line=263}
  %add.666 = f64[] add(%divide.664, %divide.665), metadata={op_name="jit(_ionic_gspace_jit)/jit(main)/sqrt" source_file="/global/homes/j/jackm/software/lorrax_B/src/psp/ionic_gspace.py" source_line=263}
  %sqrt.667 = f64[] sqrt(%add.666), metadata={op_name="jit(_ionic_gspace_jit)/jit(main)/sqrt" source_file="/global/homes/j/jackm/software/lorrax_B/src/psp/ionic_gspace.py" source_line=263}
  %compare.668 = pred[] compare(%sqrt.667, %constant.33), direction=EQ, metadata={op_name="jit(_ionic_gspace_jit)/jit(main)/sqrt" source_file="/global/homes/j/jackm/software/lorrax_B/src/psp/ionic_gspace.py" source_line=263}
  %constant.24 = f64[] constant(inf)
  %compare.669 = pred[] compare(%sqrt.667, %constant.24), direction=EQ, metadata={op_name="jit(_ionic_gspace_jit)/jit(main)/sqrt" source_file="/global/homes/j/jackm/software/lorrax_B/src/psp/ionic_gspace.py" source_line=263}
  %or.670 = pred[] or(%compare.668, %compare.669), metadata={op_name="jit(_ionic_gspace_jit)/jit(main)/sqrt" source_file="/global/homes/j/jackm/software/lorrax_B/src/psp/ionic_gspace.py" source_line=263}
  %compare.671 = pred[] compare(%abs.640, %abs.642), direction=GT, metadata={op_name="jit(_ionic_gspace_jit)/jit(main)/sqrt" source_file="/global/homes/j/jackm/software/lorrax_B/src/psp/ionic_gspace.py" source_line=263}
  %compare.672 = pred[] compare(%abs.640, %abs.642), direction=LT, metadata={op_name="jit(_ionic_gspace_jit)/jit(main)/sqrt" source_file="/global/homes/j/jackm/software/lorrax_B/src/psp/ionic_gspace.py" source_line=263}
  %divide.673 = f64[] divide(%abs.640, %abs.642), metadata={op_name="jit(_ionic_gspace_jit)/jit(main)/sqrt" source_file="/global/homes/j/jackm/software/lorrax_B/src/psp/ionic_gspace.py" source_line=263}
  %divide.674 = f64[] divide(%abs.642, %abs.640), metadata={op_name="jit(_ionic_gspace_jit)/jit(main)/sqrt" source_file="/global/homes/j/jackm/software/lorrax_B/src/psp/ionic_gspace.py" source_line=263}
  %select.675 = f64[] select(%compare.672, %divide.673, %divide.674), metadata={op_name="jit(_ionic_gspace_jit)/jit(main)/sqrt" source_file="/global/homes/j/jackm/software/lorrax_B/src/psp/ionic_gspace.py" source_line=263}
  %select.676 = f64[] select(%compare.643, %constant.32, %select.675), metadata={op_name="jit(_ionic_gspace_jit)/jit(main)/sqrt" source_file="/global/homes/j/jackm/software/lorrax_B/src/psp/ionic_gspace.py" source_line=263}
  %abs.677 = f64[] abs(%select.676), metadata={op_name="jit(_ionic_gspace_jit)/jit(main)/sqrt" source_file="/global/homes/j/jackm/software/lorrax_B/src/psp/ionic_gspace.py" source_line=263}
  %maximum.678 = f64[] maximum(%abs.677, %constant.32), metadata={op_name="jit(_ionic_gspace_jit)/jit(main)/sqrt" source_file="/global/homes/j/jackm/software/lorrax_B/src/psp/ionic_gspace.py" source_line=263}
  %minimum.679 = f64[] minimum(%abs.677, %constant.32), metadata={op_name="jit(_ionic_gspace_jit)/jit(main)/sqrt" source_file="/global/homes/j/jackm/software/lorrax_B/src/psp/ionic_gspace.py" source_line=263}
  %compare.680 = pred[] compare(%maximum.678, %minimum.679), direction=EQ, metadata={op_name="jit(_ionic_gspace_jit)/jit(main)/sqrt" source_file="/global/homes/j/jackm/software/lorrax_B/src/psp/ionic_gspace.py" source_line=263}
  %multiply.681 = f64[] multiply(%maximum.678, %constant.25), metadata={op_name="jit(_ionic_gspace_jit)/jit(main)/sqrt" source_file="/global/homes/j/jackm/software/lorrax_B/src/psp/ionic_gspace.py" source_line=263}
  %divide.682 = f64[] divide(%minimum.679, %maximum.678), metadata={op_name="jit(_ionic_gspace_jit)/jit(main)/sqrt" source_file="/global/homes/j/jackm/software/lorrax_B/src/psp/ionic_gspace.py" source_line=263}
  %multiply.683 = f64[] multiply(%divide.682, %divide.682), metadata={op_name="jit(_ionic_gspace_jit)/jit(main)/sqrt" source_file="/global/homes/j/jackm/software/lorrax_B/src/psp/ionic_gspace.py" source_line=263}
  %add.684 = f64[] add(%multiply.683, %constant.32), metadata={op_name="jit(_ionic_gspace_jit)/jit(main)/sqrt" source_file="/global/homes/j/jackm/software/lorrax_B/src/psp/ionic_gspace.py" source_line=263}
  %sqrt.685 = f64[] sqrt(%add.684), metadata={op_name="jit(_ionic_gspace_jit)/jit(main)/sqrt" source_file="/global/homes/j/jackm/software/lorrax_B/src/psp/ionic_gspace.py" source_line=263}
  %compare.686 = pred[] compare(%sqrt.685, %constant.32), direction=EQ, metadata={op_name="jit(_ionic_gspace_jit)/jit(main)/sqrt" source_file="/global/homes/j/jackm/software/lorrax_B/src/psp/ionic_gspace.py" source_line=263}
  %compare.687 = pred[] compare(%multiply.683, %constant.33), direction=GT, metadata={op_name="jit(_ionic_gspace_jit)/jit(main)/sqrt" source_file="/global/homes/j/jackm/software/lorrax_B/src/psp/ionic_gspace.py" source_line=263}
  %and.688 = pred[] and(%compare.686, %compare.687), metadata={op_name="jit(_ionic_gspace_jit)/jit(main)/sqrt" source_file="/global/homes/j/jackm/software/lorrax_B/src/psp/ionic_gspace.py" source_line=263}
  %multiply.689 = f64[] multiply(%maximum.678, %multiply.683), metadata={op_name="jit(_ionic_gspace_jit)/jit(main)/sqrt" source_file="/global/homes/j/jackm/software/lorrax_B/src/psp/ionic_gspace.py" source_line=263}
  %divide.690 = f64[] divide(%multiply.689, %constant.28), metadata={op_name="jit(_ionic_gspace_jit)/jit(main)/sqrt" source_file="/global/homes/j/jackm/software/lorrax_B/src/psp/ionic_gspace.py" source_line=263}
  %add.691 = f64[] add(%maximum.678, %divide.690), metadata={op_name="jit(_ionic_gspace_jit)/jit(main)/sqrt" source_file="/global/homes/j/jackm/software/lorrax_B/src/psp/ionic_gspace.py" source_line=263}
  %multiply.692 = f64[] multiply(%maximum.678, %sqrt.685), metadata={op_name="jit(_ionic_gspace_jit)/jit(main)/sqrt" source_file="/global/homes/j/jackm/software/lorrax_B/src/psp/ionic_gspace.py" source_line=263}
  %select.693 = f64[] select(%and.688, %add.691, %multiply.692), metadata={op_name="jit(_ionic_gspace_jit)/jit(main)/sqrt" source_file="/global/homes/j/jackm/software/lorrax_B/src/psp/ionic_gspace.py" source_line=263}
  %select.694 = f64[] select(%compare.680, %multiply.681, %select.693), metadata={op_name="jit(_ionic_gspace_jit)/jit(main)/sqrt" source_file="/global/homes/j/jackm/software/lorrax_B/src/psp/ionic_gspace.py" source_line=263}
  %add.695 = f64[] add(%select.694, %constant.32), metadata={op_name="jit(_ionic_gspace_jit)/jit(main)/sqrt" source_file="/global/homes/j/jackm/software/lorrax_B/src/psp/ionic_gspace.py" source_line=263}
  %sqrt.696 = f64[] sqrt(%add.695), metadata={op_name="jit(_ionic_gspace_jit)/jit(main)/sqrt" source_file="/global/homes/j/jackm/software/lorrax_B/src/psp/ionic_gspace.py" source_line=263}
  %divide.697 = f64[] divide(%sqrt.696, %constant.25), metadata={op_name="jit(_ionic_gspace_jit)/jit(main)/sqrt" source_file="/global/homes/j/jackm/software/lorrax_B/src/psp/ionic_gspace.py" source_line=263}
  %multiply.698 = f64[] multiply(%sqrt.644, %divide.697), metadata={op_name="jit(_ionic_gspace_jit)/jit(main)/sqrt" source_file="/global/homes/j/jackm/software/lorrax_B/src/psp/ionic_gspace.py" source_line=263}
  %sqrt.699 = f64[] sqrt(%abs.642), metadata={op_name="jit(_ionic_gspace_jit)/jit(main)/sqrt" source_file="/global/homes/j/jackm/software/lorrax_B/src/psp/ionic_gspace.py" source_line=263}
  %add.700 = f64[] add(%select.676, %select.694), metadata={op_name="jit(_ionic_gspace_jit)/jit(main)/sqrt" source_file="/global/homes/j/jackm/software/lorrax_B/src/psp/ionic_gspace.py" source_line=263}
  %sqrt.701 = f64[] sqrt(%add.700), metadata={op_name="jit(_ionic_gspace_jit)/jit(main)/sqrt" source_file="/global/homes/j/jackm/software/lorrax_B/src/psp/ionic_gspace.py" source_line=263}
  %divide.702 = f64[] divide(%sqrt.701, %constant.25), metadata={op_name="jit(_ionic_gspace_jit)/jit(main)/sqrt" source_file="/global/homes/j/jackm/software/lorrax_B/src/psp/ionic_gspace.py" source_line=263}
  %multiply.703 = f64[] multiply(%sqrt.699, %divide.702), metadata={op_name="jit(_ionic_gspace_jit)/jit(main)/sqrt" source_file="/global/homes/j/jackm/software/lorrax_B/src/psp/ionic_gspace.py" source_line=263}
  %select.704 = f64[] select(%compare.671, %multiply.698, %multiply.703), metadata={op_name="jit(_ionic_gspace_jit)/jit(main)/sqrt" source_file="/global/homes/j/jackm/software/lorrax_B/src/psp/ionic_gspace.py" source_line=263}
  %select.705 = f64[] select(%or.670, %select.704, %sqrt.667), metadata={op_name="jit(_ionic_gspace_jit)/jit(main)/sqrt" source_file="/global/homes/j/jackm/software/lorrax_B/src/psp/ionic_gspace.py" source_line=263}
  %select.706 = f64[] select(%compare.643, %divide.646, %select.705), metadata={op_name="jit(_ionic_gspace_jit)/jit(main)/sqrt" source_file="/global/homes/j/jackm/software/lorrax_B/src/psp/ionic_gspace.py" source_line=263}
  %constant.23 = f64[] constant(2.19736822693562)
  %divide.707 = f64[] divide(%sqrt.699, %constant.23), metadata={op_name="jit(_ionic_gspace_jit)/jit(main)/sqrt" source_file="/global/homes/j/jackm/software/lorrax_B/src/psp/ionic_gspace.py" source_line=263}
  %divide.708 = f64[] divide(%sqrt.644, %sqrt.699), metadata={op_name="jit(_ionic_gspace_jit)/jit(main)/sqrt" source_file="/global/homes/j/jackm/software/lorrax_B/src/psp/ionic_gspace.py" source_line=263}
  %divide.709 = f64[] divide(%sqrt.699, %sqrt.644), metadata={op_name="jit(_ionic_gspace_jit)/jit(main)/sqrt" source_file="/global/homes/j/jackm/software/lorrax_B/src/psp/ionic_gspace.py" source_line=263}
  %select.710 = f64[] select(%compare.672, %divide.708, %divide.709), metadata={op_name="jit(_ionic_gspace_jit)/jit(main)/sqrt" source_file="/global/homes/j/jackm/software/lorrax_B/src/psp/ionic_gspace.py" source_line=263}
  %select.711 = f64[] select(%compare.643, %constant.32, %select.710), metadata={op_name="jit(_ionic_gspace_jit)/jit(main)/sqrt" source_file="/global/homes/j/jackm/software/lorrax_B/src/psp/ionic_gspace.py" source_line=263}
  %multiply.712 = f64[] multiply(%sqrt.699, %select.711), metadata={op_name="jit(_ionic_gspace_jit)/jit(main)/sqrt" source_file="/global/homes/j/jackm/software/lorrax_B/src/psp/ionic_gspace.py" source_line=263}
  %multiply.713 = f64[] multiply(%sqrt.696, %constant.25), metadata={op_name="jit(_ionic_gspace_jit)/jit(main)/sqrt" source_file="/global/homes/j/jackm/software/lorrax_B/src/psp/ionic_gspace.py" source_line=263}
  %divide.714 = f64[] divide(%multiply.712, %multiply.713), metadata={op_name="jit(_ionic_gspace_jit)/jit(main)/sqrt" source_file="/global/homes/j/jackm/software/lorrax_B/src/psp/ionic_gspace.py" source_line=263}
  %multiply.715 = f64[] multiply(%sqrt.701, %constant.25), metadata={op_name="jit(_ionic_gspace_jit)/jit(main)/sqrt" source_file="/global/homes/j/jackm/software/lorrax_B/src/psp/ionic_gspace.py" source_line=263}
  %divide.716 = f64[] divide(%sqrt.699, %multiply.715), metadata={op_name="jit(_ionic_gspace_jit)/jit(main)/sqrt" source_file="/global/homes/j/jackm/software/lorrax_B/src/psp/ionic_gspace.py" source_line=263}
  %select.717 = f64[] select(%compare.671, %divide.714, %divide.716), metadata={op_name="jit(_ionic_gspace_jit)/jit(main)/sqrt" source_file="/global/homes/j/jackm/software/lorrax_B/src/psp/ionic_gspace.py" source_line=263}
  %multiply.718 = f64[] multiply(%sqrt.667, %constant.28), metadata={op_name="jit(_ionic_gspace_jit)/jit(main)/sqrt" source_file="/global/homes/j/jackm/software/lorrax_B/src/psp/ionic_gspace.py" source_line=263}
  %divide.719 = f64[] divide(%abs.642, %multiply.718), metadata={op_name="jit(_ionic_gspace_jit)/jit(main)/sqrt" source_file="/global/homes/j/jackm/software/lorrax_B/src/psp/ionic_gspace.py" source_line=263}
  %select.720 = f64[] select(%or.670, %select.717, %divide.719), metadata={op_name="jit(_ionic_gspace_jit)/jit(main)/sqrt" source_file="/global/homes/j/jackm/software/lorrax_B/src/psp/ionic_gspace.py" source_line=263}
  %select.721 = f64[] select(%compare.643, %divide.707, %select.720), metadata={op_name="jit(_ionic_gspace_jit)/jit(main)/sqrt" source_file="/global/homes/j/jackm/software/lorrax_B/src/psp/ionic_gspace.py" source_line=263}
  %select.722 = f64[] select(%compare.639, %select.706, %select.721), metadata={op_name="jit(_ionic_gspace_jit)/jit(main)/sqrt" source_file="/global/homes/j/jackm/software/lorrax_B/src/psp/ionic_gspace.py" source_line=263}
  %compare.723 = pred[] compare(%real.638, %constant.33), direction=LT, metadata={op_name="jit(_ionic_gspace_jit)/jit(main)/sqrt" source_file="/global/homes/j/jackm/software/lorrax_B/src/psp/ionic_gspace.py" source_line=263}
  %compare.724 = pred[] compare(%imag.641, %constant.33), direction=LT, metadata={op_name="jit(_ionic_gspace_jit)/jit(main)/sqrt" source_file="/global/homes/j/jackm/software/lorrax_B/src/psp/ionic_gspace.py" source_line=263}
  %negate.725 = f64[] negate(%select.706), metadata={op_name="jit(_ionic_gspace_jit)/jit(main)/sqrt" source_file="/global/homes/j/jackm/software/lorrax_B/src/psp/ionic_gspace.py" source_line=263}
  %select.726 = f64[] select(%compare.724, %negate.725, %select.706), metadata={op_name="jit(_ionic_gspace_jit)/jit(main)/sqrt" source_file="/global/homes/j/jackm/software/lorrax_B/src/psp/ionic_gspace.py" source_line=263}
  %negate.727 = f64[] negate(%select.721), metadata={op_name="jit(_ionic_gspace_jit)/jit(main)/sqrt" source_file="/global/homes/j/jackm/software/lorrax_B/src/psp/ionic_gspace.py" source_line=263}
  %select.728 = f64[] select(%compare.724, %negate.727, %select.721), metadata={op_name="jit(_ionic_gspace_jit)/jit(main)/sqrt" source_file="/global/homes/j/jackm/software/lorrax_B/src/psp/ionic_gspace.py" source_line=263}
  %select.729 = f64[] select(%compare.723, %select.726, %select.728), metadata={op_name="jit(_ionic_gspace_jit)/jit(main)/sqrt" source_file="/global/homes/j/jackm/software/lorrax_B/src/psp/ionic_gspace.py" source_line=263}
  %complex.730 = c128[] complex(%select.722, %select.729), metadata={op_name="jit(_ionic_gspace_jit)/jit(main)/sqrt" source_file="/global/homes/j/jackm/software/lorrax_B/src/psp/ionic_gspace.py" source_line=263}
  %broadcast.731 = c128[24,24,80]{2,1,0} broadcast(%complex.730), dimensions={}, metadata={op_name="jit(_ionic_gspace_jit)/jit(main)/mul" source_file="/global/homes/j/jackm/software/lorrax_B/src/psp/ionic_gspace.py" source_line=263}
  %multiply.732 = c128[24,24,80]{2,1,0} multiply(%call.632, %broadcast.731), metadata={op_name="jit(_ionic_gspace_jit)/jit(main)/mul" source_file="/global/homes/j/jackm/software/lorrax_B/src/psp/ionic_gspace.py" source_line=263}
  %real.733 = f64[24,24,80]{2,1,0} real(%multiply.732), metadata={op_name="jit(_ionic_gspace_jit)/jit(main)/real" source_file="/global/homes/j/jackm/software/lorrax_B/src/psp/ionic_gspace.py" source_line=263}
  %Arg_4.5 = f64[2,4000]{1,0} parameter(4), metadata={op_name="tables_nlcc"}
  %Arg_6.7 = f64[2]{0} parameter(6), metadata={op_name="nlcc_pf"}
  %call.351 = c128[46080]{0} call(%Arg_4.5, %Arg_6.7, %call.158, %Arg_1.2, %Arg_10.11, /*index=5*/%Arg_11.12), to_apply=%accumulate_species_on_G.337
  %reshape.352 = c128[24,24,80]{2,1,0} reshape(%call.351), metadata={op_name="jit(_ionic_gspace_jit)/jit(main)/reshape" source_file="/global/homes/j/jackm/software/lorrax_B/src/psp/ionic_gspace.py" source_line=239}
  %call.356 = c128[24,24,80]{2,1,0} call(%reshape.352), to_apply=%fft.353
  %real.357 = f64[24,24,80]{2,1,0} real(%call.356), metadata={op_name="jit(_ionic_gspace_jit)/jit(main)/real" source_file="/global/homes/j/jackm/software/lorrax_B/src/psp/ionic_gspace.py" source_line=240}
  %Arg_14.15 = f64[] parameter(14), metadata={op_name="N"}
  %broadcast.358 = f64[24,24,80]{2,1,0} broadcast(%Arg_14.15), dimensions={}, metadata={op_name="jit(_ionic_gspace_jit)/jit(main)/mul" source_file="/global/homes/j/jackm/software/lorrax_B/src/psp/ionic_gspace.py" source_line=240}
  %multiply.359 = f64[24,24,80]{2,1,0} multiply(%real.357, %broadcast.358), metadata={op_name="jit(_ionic_gspace_jit)/jit(main)/mul" source_file="/global/homes/j/jackm/software/lorrax_B/src/psp/ionic_gspace.py" source_line=240}
  %convert.360 = c128[] convert(%Arg_14.15), metadata={op_name="jit(_ionic_gspace_jit)/jit(main)/convert_element_type" source_file="/global/homes/j/jackm/software/lorrax_B/src/psp/ionic_gspace.py" source_line=241}
  %broadcast.361 = c128[24,24,80]{2,1,0} broadcast(%convert.360), dimensions={}, metadata={op_name="jit(_ionic_gspace_jit)/jit(main)/mul" source_file="/global/homes/j/jackm/software/lorrax_B/src/psp/ionic_gspace.py" source_line=241}
  %multiply.362 = c128[24,24,80]{2,1,0} multiply(%reshape.352, %broadcast.361), metadata={op_name="jit(_ionic_gspace_jit)/jit(main)/mul" source_file="/global/homes/j/jackm/software/lorrax_B/src/psp/ionic_gspace.py" source_line=241}
  ROOT %tuple.734 = (f64[24,24,80]{2,1,0}, f64[24,24,80]{2,1,0}, c128[24,24,80]{2,1,0}) tuple(%real.733, %multiply.359, %multiply.362)
}

