HloModule jit_gather, is_scheduled=true, entry_computation_layout={(u32[9,26,2,24,24,80]{5,4,3,2,1,0}, s32[9,1963,3]{2,1,0})->u32[9,26,2,1963]{3,2,1,0}}, allow_spmd_sharding_propagation_to_parameters={true,true}, allow_spmd_sharding_propagation_to_output={true}, frontend_attributes={fingerprint_before_lhs="7a144214ac2e935673f9b64ce7c2ab94"}

%fused_transpose (param_0.7: u32[9,26,2,24,24,80], param_1.8: s32[9,1963,3]) -> u32[9,52,1963] {
  %param_0.7 = u32[9,26,2,24,24,80]{5,4,3,2,1,0} parameter(0), metadata={scheduling_name="param_0.7"}
  %bitcast.45.3 = u32[9,24,24,80,26,2]{3,2,1,5,4,0} bitcast(%param_0.7), metadata={scheduling_name="bitcast.45.3"}
  %iota.3.1 = s32[9,1963,1]{2,1,0} iota(), iota_dimension=0, metadata={scheduling_name="iota.3.1"}
  %param_1.8 = s32[9,1963,3]{2,1,0} parameter(1), metadata={scheduling_name="param_1.8"}
  %concatenate.3.1 = s32[9,1963,4]{2,1,0} concatenate(%iota.3.1, %param_1.8), dimensions={2}, metadata={op_name="jit(gather)/jit(main)/gather" source_file="/global/homes/j/jackm/software/lorrax_B/src/psp/run_sternheimer.py" source_line=181 scheduling_name="concatenate.3.1"}
  %bitcast.51.3 = s32[17667,4]{1,0} bitcast(%concatenate.3.1), metadata={scheduling_name="bitcast.51.3"}
  %gather.1.3 = u32[17667,1,1,1,1,26,2]{6,5,4,3,2,1,0} gather(%bitcast.45.3, %bitcast.51.3), offset_dims={1,2,3,4,5,6}, collapsed_slice_dims={}, start_index_map={0,1,2,3}, index_vector_dim=1, slice_sizes={1,1,1,1,26,2}, metadata={op_name="jit(gather)/jit(main)/gather" source_file="/global/homes/j/jackm/software/lorrax_B/src/psp/run_sternheimer.py" source_line=181 scheduling_name="gather.1.3"}
  %bitcast.54.1 = u32[9,1963,52]{2,1,0} bitcast(%gather.1.3), metadata={scheduling_name="bitcast.54.1"}
  ROOT %transpose.6.1 = u32[9,52,1963]{2,1,0} transpose(%bitcast.54.1), dimensions={0,2,1}, metadata={op_name="jit(gather)/jit(main)/gather" source_file="/global/homes/j/jackm/software/lorrax_B/src/psp/run_sternheimer.py" source_line=181 scheduling_name="transpose.6.1"}
}

ENTRY %main.4 (Arg_0.1.0: u32[9,26,2,24,24,80], Arg_1.2.0: s32[9,1963,3]) -> u32[9,26,2,1963] {
  %Arg_1.2.0 = s32[9,1963,3]{2,1,0} parameter(1), metadata={op_name="args[1]" scheduling_name="Arg_1.2.0"}
  %Arg_0.1.0 = u32[9,26,2,24,24,80]{5,4,3,2,1,0} parameter(0), metadata={op_name="args[0]" scheduling_name="Arg_0.1.0"}
  %input_transpose_fusion = u32[9,52,1963]{2,1,0} fusion(%Arg_0.1.0, %Arg_1.2.0), kind=kInput, calls=%fused_transpose, metadata={op_name="jit(gather)/jit(main)/gather" source_file="/global/homes/j/jackm/software/lorrax_B/src/psp/run_sternheimer.py" source_line=181 scheduling_name="input_transpose_fusion"}
  ROOT %bitcast.40.0 = u32[9,26,2,1963]{3,2,1,0} bitcast(%input_transpose_fusion), metadata={op_name="jit(gather)/jit(main)/gather" source_file="/global/homes/j/jackm/software/lorrax_B/src/psp/run_sternheimer.py" source_line=181 scheduling_name="bitcast.40.0"}
}

