HloModule jit_apply_H_k, is_scheduled=true, entry_computation_layout={(c128[9,26,2,24,24,80]{5,4,3,2,1,0}, f64[9,1963]{1,0}, f64[24,24,80]{2,1,0}, s32[9,1963]{1,0}, s32[9,1963]{1,0}, /*index=5*/s32[9,1963]{1,0}, c128[9,102,1963]{2,1,0}, c128[2,2,102,102]{3,2,1,0}, pred[9,1963]{1,0}, f64[9,1963,3]{2,1,0}, /*index=10*/f64[24,24,80]{2,1,0}, c128[3,9,102,1963]{3,2,1,0}, c128[2,2,102,102]{3,2,1,0})->(c128[9,26,2,1963]{3,2,1,0}, c128[3,9,26,2,1963]{4,3,2,1,0})}, allow_spmd_sharding_propagation_to_parameters={true,true,true,true,true,true,true,true,true,true,true,true,true}, allow_spmd_sharding_propagation_to_output={true,true}, frontend_attributes={fingerprint_before_lhs="0cdcee472955a252b6b4ca56e24339f2"}

%fused_multiply (param_0.44: c128[9,26,2,24,24,80], param_1.154: f64[24,24,80], param_2.89: f64[24,24,80]) -> (c128[9,26,2,24,24,80], c128[9,26,2,24,24,80]) {
  %param_0.44 = c128[9,26,2,24,24,80]{5,4,3,2,1,0} parameter(0), metadata={scheduling_name="param_0.44"}
  %param_1.154 = f64[24,24,80]{2,1,0} parameter(1), metadata={scheduling_name="param_1.154"}
  %convert.19.3 = c128[24,24,80]{2,1,0} convert(%param_1.154), metadata={op_name="jit(apply_H_k)/jit(main)/convert_element_type" source_file="/global/homes/j/jackm/software/lorrax_B/src/psp/dft_operators.py" source_line=619 scheduling_name="convert.19.3"}
  %constant_121_2 = c128[] constant((214.66252583997982, 0)), metadata={op_name="jit(apply_H_k)/jit(main)/sqrt" source_file="/global/homes/j/jackm/software/lorrax_B/src/psp/dft_operators.py" source_line=617}
  %broadcast.81.6 = c128[24,24,80]{2,1,0} broadcast(%constant_121_2), dimensions={}, metadata={op_name="jit(apply_H_k)/jit(main)/mul" source_file="/global/homes/j/jackm/software/lorrax_B/src/psp/dft_operators.py" source_line=619 scheduling_name="broadcast.81.6"}
  %multiply.55.3 = c128[24,24,80]{2,1,0} multiply(%convert.19.3, %broadcast.81.6), metadata={op_name="jit(apply_H_k)/jit(main)/mul" source_file="/global/homes/j/jackm/software/lorrax_B/src/psp/dft_operators.py" source_line=619 scheduling_name="multiply.55.3"}
  %broadcast.82.1 = c128[9,26,2,24,24,80]{5,4,3,2,1,0} broadcast(%multiply.55.3), dimensions={3,4,5}, metadata={op_name="jit(apply_H_k)/jit(main)/mul" source_file="/global/homes/j/jackm/software/lorrax_B/src/psp/dft_operators.py" source_line=619 scheduling_name="broadcast.82.1"}
  %multiply.56.1 = c128[9,26,2,24,24,80]{5,4,3,2,1,0} multiply(%param_0.44, %broadcast.82.1), metadata={op_name="jit(apply_H_k)/jit(main)/mul" source_file="/global/homes/j/jackm/software/lorrax_B/src/psp/dft_operators.py" source_line=619 scheduling_name="multiply.56.1"}
  %param_2.89 = f64[24,24,80]{2,1,0} parameter(2), metadata={scheduling_name="param_2.89"}
  %convert.21.3.clone.1 = c128[24,24,80]{2,1,0} convert(%param_2.89), metadata={op_name="jit(apply_H_k)/jit(main)/convert_element_type" source_file="/global/homes/j/jackm/software/lorrax_B/src/psp/dft_operators.py" source_line=619 scheduling_name="convert.21.3.clone.1"}
  %multiply.62.3.clone.1 = c128[24,24,80]{2,1,0} multiply(%convert.21.3.clone.1, %broadcast.81.6), metadata={op_name="jit(apply_H_k)/jit(main)/mul" source_file="/global/homes/j/jackm/software/lorrax_B/src/psp/dft_operators.py" source_line=619 scheduling_name="multiply.62.3.clone.1"}
  %broadcast.88.1.clone.1 = c128[9,26,2,24,24,80]{5,4,3,2,1,0} broadcast(%multiply.62.3.clone.1), dimensions={3,4,5}, metadata={op_name="jit(apply_H_k)/jit(main)/mul" source_file="/global/homes/j/jackm/software/lorrax_B/src/psp/dft_operators.py" source_line=619 scheduling_name="broadcast.88.1.clone.1"}
  %multiply.63.1.clone.1 = c128[9,26,2,24,24,80]{5,4,3,2,1,0} multiply(%param_0.44, %broadcast.88.1.clone.1), metadata={op_name="jit(apply_H_k)/jit(main)/mul" source_file="/global/homes/j/jackm/software/lorrax_B/src/psp/dft_operators.py" source_line=619 scheduling_name="multiply.63.1.clone.1"}
  ROOT %tuple.3 = (c128[9,26,2,24,24,80]{5,4,3,2,1,0}, c128[9,26,2,24,24,80]{5,4,3,2,1,0}) tuple(%multiply.56.1, %multiply.63.1.clone.1), metadata={scheduling_name="tuple.3"}
}

%fused_transpose.5 (param_0.94: pred[9,1963], param_1.122: c128[9,26,2,24,24,80], param_2.83: c128[9,52,1963], param_3.47: c128[9,26,2,1963], param_4.38: f64[9,1963], param_5.37: s32[9,1963], param_6.27: s32[9,1963], param_7.22: s32[9,1963]) -> c128[9,26,2,1963] {
  %param_4.38 = f64[9,1963]{1,0} parameter(4), metadata={scheduling_name="param_4.38"}
  %convert.17.1 = c128[9,1963]{1,0} convert(%param_4.38), metadata={op_name="jit(apply_H_k)/jit(main)/convert_element_type" source_file="/global/homes/j/jackm/software/lorrax_B/src/psp/dft_operators.py" source_line=614 scheduling_name="convert.17.1"}
  %broadcast.73.1 = c128[9,26,2,1963]{3,2,1,0} broadcast(%convert.17.1), dimensions={0,3}, metadata={op_name="jit(apply_H_k)/jit(main)/mul" source_file="/global/homes/j/jackm/software/lorrax_B/src/psp/dft_operators.py" source_line=614 scheduling_name="broadcast.73.1"}
  %param_3.47 = c128[9,26,2,1963]{3,2,1,0} parameter(3), metadata={scheduling_name="param_3.47"}
  %multiply.54.1 = c128[9,26,2,1963]{3,2,1,0} multiply(%broadcast.73.1, %param_3.47), metadata={op_name="jit(apply_H_k)/jit(main)/mul" source_file="/global/homes/j/jackm/software/lorrax_B/src/psp/dft_operators.py" source_line=614 scheduling_name="multiply.54.1"}
  %param_1.122 = c128[9,26,2,24,24,80]{5,4,3,2,1,0} parameter(1), metadata={scheduling_name="param_1.122"}
  %constant_216_2 = c128[] constant((0.004658474953124562, 0)), metadata={op_name="jit(apply_H_k)/jit(main)/div" source_file="/global/homes/j/jackm/software/lorrax_B/src/psp/dft_operators.py" source_line=618}
  %broadcast.83.12 = c128[9,26,2,24,24,80]{5,4,3,2,1,0} broadcast(%constant_216_2), dimensions={}, metadata={op_name="jit(apply_H_k)/jit(main)/mul" source_file="/global/homes/j/jackm/software/lorrax_B/src/psp/dft_operators.py" source_line=618 scheduling_name="broadcast.83.12"}
  %multiply.58.9 = c128[9,26,2,24,24,80]{5,4,3,2,1,0} multiply(%param_1.122, %broadcast.83.12), metadata={op_name="jit(apply_H_k)/jit(main)/mul" source_file="/global/homes/j/jackm/software/lorrax_B/src/psp/dft_operators.py" source_line=618 scheduling_name="multiply.58.9"}
  %bitcast.726.9 = c128[9,24,24,80,26,2]{3,2,1,5,4,0} bitcast(%multiply.58.9), metadata={scheduling_name="bitcast.726.9"}
  %iota.5.1 = s32[1,9,1963]{2,1,0} iota(), iota_dimension=1, metadata={scheduling_name="iota.5.1"}
  %param_5.37 = s32[9,1963]{1,0} parameter(5), metadata={scheduling_name="param_5.37"}
  %constant_18_3 = s32[] constant(0)
  %broadcast.74.7 = s32[9,1963]{1,0} broadcast(%constant_18_3), dimensions={}, metadata={scheduling_name="broadcast.74.7"}
  %compare.6.5 = pred[9,1963]{1,0} compare(%param_5.37, %broadcast.74.7), direction=LT, metadata={op_name="jit(apply_H_k)/jit(main)/lt" source_file="/global/homes/j/jackm/software/lorrax_B/src/psp/dft_operators.py" source_line=611 scheduling_name="compare.6.5"}
  %constant_16_3 = s32[] constant(24)
  %broadcast.75.4 = s32[9,1963]{1,0} broadcast(%constant_16_3), dimensions={}, metadata={scheduling_name="broadcast.75.4"}
  %add.18.3 = s32[9,1963]{1,0} add(%param_5.37, %broadcast.75.4), metadata={op_name="jit(apply_H_k)/jit(main)/add" source_file="/global/homes/j/jackm/software/lorrax_B/src/psp/dft_operators.py" source_line=611 scheduling_name="add.18.3"}
  %select.6.3 = s32[9,1963]{1,0} select(%compare.6.5, %add.18.3, %param_5.37), metadata={op_name="jit(apply_H_k)/jit(main)/select_n" source_file="/global/homes/j/jackm/software/lorrax_B/src/psp/dft_operators.py" source_line=611 scheduling_name="select.6.3"}
  %bitcast.661.7 = s32[1,9,1963]{2,1,0} bitcast(%select.6.3), metadata={scheduling_name="bitcast.661.7"}
  %param_6.27 = s32[9,1963]{1,0} parameter(6), metadata={scheduling_name="param_6.27"}
  %compare.7.5 = pred[9,1963]{1,0} compare(%param_6.27, %broadcast.74.7), direction=LT, metadata={op_name="jit(apply_H_k)/jit(main)/lt" source_file="/global/homes/j/jackm/software/lorrax_B/src/psp/dft_operators.py" source_line=611 scheduling_name="compare.7.5"}
  %add.19.3 = s32[9,1963]{1,0} add(%param_6.27, %broadcast.75.4), metadata={op_name="jit(apply_H_k)/jit(main)/add" source_file="/global/homes/j/jackm/software/lorrax_B/src/psp/dft_operators.py" source_line=611 scheduling_name="add.19.3"}
  %select.7.3 = s32[9,1963]{1,0} select(%compare.7.5, %add.19.3, %param_6.27), metadata={op_name="jit(apply_H_k)/jit(main)/select_n" source_file="/global/homes/j/jackm/software/lorrax_B/src/psp/dft_operators.py" source_line=611 scheduling_name="select.7.3"}
  %bitcast.676.7 = s32[1,9,1963]{2,1,0} bitcast(%select.7.3), metadata={scheduling_name="bitcast.676.7"}
  %param_7.22 = s32[9,1963]{1,0} parameter(7), metadata={scheduling_name="param_7.22"}
  %compare.8.5 = pred[9,1963]{1,0} compare(%param_7.22, %broadcast.74.7), direction=LT, metadata={op_name="jit(apply_H_k)/jit(main)/lt" source_file="/global/homes/j/jackm/software/lorrax_B/src/psp/dft_operators.py" source_line=611 scheduling_name="compare.8.5"}
  %constant_14_2 = s32[] constant(80)
  %broadcast.79.3 = s32[9,1963]{1,0} broadcast(%constant_14_2), dimensions={}, metadata={scheduling_name="broadcast.79.3"}
  %add.20.3 = s32[9,1963]{1,0} add(%param_7.22, %broadcast.79.3), metadata={op_name="jit(apply_H_k)/jit(main)/add" source_file="/global/homes/j/jackm/software/lorrax_B/src/psp/dft_operators.py" source_line=611 scheduling_name="add.20.3"}
  %select.8.3 = s32[9,1963]{1,0} select(%compare.8.5, %add.20.3, %param_7.22), metadata={op_name="jit(apply_H_k)/jit(main)/select_n" source_file="/global/homes/j/jackm/software/lorrax_B/src/psp/dft_operators.py" source_line=611 scheduling_name="select.8.3"}
  %bitcast.690.7 = s32[1,9,1963]{2,1,0} bitcast(%select.8.3), metadata={scheduling_name="bitcast.690.7"}
  %concatenate.11.7 = s32[4,9,1963]{2,1,0} concatenate(%iota.5.1, %bitcast.661.7, %bitcast.676.7, %bitcast.690.7), dimensions={0}, metadata={op_name="jit(apply_H_k)/jit(main)/gather" source_file="/global/homes/j/jackm/software/lorrax_B/src/psp/dft_operators.py" source_line=611 scheduling_name="concatenate.11.7"}
  %bitcast.821.17 = s32[17667,4]{0,1} bitcast(%concatenate.11.7), metadata={scheduling_name="bitcast.821.17"}
  %gather.4.9 = c128[17667,1,1,1,1,26,2]{6,5,4,3,2,1,0} gather(%bitcast.726.9, %bitcast.821.17), offset_dims={1,2,3,4,5,6}, collapsed_slice_dims={}, start_index_map={0,1,2,3}, index_vector_dim=1, slice_sizes={1,1,1,1,26,2}, metadata={op_name="jit(apply_H_k)/jit(main)/gather" source_file="/global/homes/j/jackm/software/lorrax_B/src/psp/dft_operators.py" source_line=618 scheduling_name="gather.4.9"}
  %bitcast.731.7 = c128[9,1963,52]{2,1,0} bitcast(%gather.4.9), metadata={scheduling_name="bitcast.731.7"}
  %transpose.100.7 = c128[9,52,1963]{2,1,0} transpose(%bitcast.731.7), dimensions={0,2,1}, metadata={op_name="jit(apply_H_k)/jit(main)/gather" source_file="/global/homes/j/jackm/software/lorrax_B/src/psp/dft_operators.py" source_line=618 scheduling_name="transpose.100.7"}
  %bitcast.734.5 = c128[9,26,2,1963]{3,2,1,0} bitcast(%transpose.100.7), metadata={scheduling_name="bitcast.734.5"}
  %param_0.94 = pred[9,1963]{1,0} parameter(0), metadata={scheduling_name="param_0.94"}
  %convert.18.13 = c128[9,1963]{1,0} convert(%param_0.94), metadata={op_name="jit(apply_H_k)/jit(main)/convert_element_type" source_file="/global/homes/j/jackm/software/lorrax_B/src/psp/dft_operators.py" source_line=610 scheduling_name="convert.18.13"}
  %broadcast.80.7 = c128[9,26,2,1963]{3,2,1,0} broadcast(%convert.18.13), dimensions={0,3}, metadata={op_name="jit(apply_H_k)/jit(main)/mul" source_file="/global/homes/j/jackm/software/lorrax_B/src/psp/dft_operators.py" source_line=611 scheduling_name="broadcast.80.7"}
  %multiply.59.5 = c128[9,26,2,1963]{3,2,1,0} multiply(%bitcast.734.5, %broadcast.80.7), metadata={op_name="jit(apply_H_k)/jit(main)/mul" source_file="/global/homes/j/jackm/software/lorrax_B/src/psp/dft_operators.py" source_line=618 scheduling_name="multiply.59.5"}
  %add.21.3 = c128[9,26,2,1963]{3,2,1,0} add(%multiply.54.1, %multiply.59.5), metadata={op_name="jit(apply_H_k)/jit(main)/add" source_file="/global/homes/j/jackm/software/lorrax_B/src/psp/dft_operators.py" source_line=618 scheduling_name="add.21.3"}
  %param_2.83 = c128[9,52,1963]{2,1,0} parameter(2), metadata={scheduling_name="param_2.83"}
  %broadcast.84.7 = c128[9,52,1963]{2,1,0} broadcast(%convert.18.13), dimensions={0,2}, metadata={op_name="jit(apply_H_k)/jit(main)/mul" source_file="/global/homes/j/jackm/software/lorrax_B/src/psp/dft_operators.py" source_line=625 scheduling_name="broadcast.84.7"}
  %multiply.60.5 = c128[9,52,1963]{2,1,0} multiply(%param_2.83, %broadcast.84.7), metadata={op_name="jit(apply_H_k)/jit(main)/mul" source_file="/global/homes/j/jackm/software/lorrax_B/src/psp/dft_operators.py" source_line=625 scheduling_name="multiply.60.5"}
  %bitcast.784.3 = c128[9,2,26,1963]{3,2,1,0} bitcast(%multiply.60.5), metadata={scheduling_name="bitcast.784.3"}
  %transpose.105.3 = c128[9,26,2,1963]{3,2,1,0} transpose(%bitcast.784.3), dimensions={0,2,1,3}, metadata={op_name="jit(apply_H_k)/jit(main)/mul" source_file="/global/homes/j/jackm/software/lorrax_B/src/psp/dft_operators.py" source_line=625 scheduling_name="transpose.105.3"}
  ROOT %add.22.1 = c128[9,26,2,1963]{3,2,1,0} add(%add.21.3, %transpose.105.3), metadata={op_name="jit(apply_H_k)/jit(main)/add" source_file="/global/homes/j/jackm/software/lorrax_B/src/psp/dft_operators.py" source_line=625 scheduling_name="add.22.1"}
}

%fused_transpose.2 (param_0.93: pred[9,1963], param_1.118: c128[9,26,2,24,24,80], param_2.82: s32[9,1963], param_3.46: s32[9,1963], param_4.37: s32[9,1963], param_5.43: c128[9,26,2,24,24,80]) -> (c128[9,26,2,1963], c128[9,26,2,1963]) {
  %param_1.118 = c128[9,26,2,24,24,80]{5,4,3,2,1,0} parameter(1), metadata={scheduling_name="param_1.118"}
  %constant_216_1 = c128[] constant((0.004658474953124562, 0)), metadata={op_name="jit(apply_H_k)/jit(main)/div" source_file="/global/homes/j/jackm/software/lorrax_B/src/psp/dft_operators.py" source_line=618}
  %broadcast.83.14 = c128[9,26,2,24,24,80]{5,4,3,2,1,0} broadcast(%constant_216_1), dimensions={}, metadata={op_name="jit(apply_H_k)/jit(main)/mul" source_file="/global/homes/j/jackm/software/lorrax_B/src/psp/dft_operators.py" source_line=618 scheduling_name="broadcast.83.14"}
  %multiply.64.5 = c128[9,26,2,24,24,80]{5,4,3,2,1,0} multiply(%param_1.118, %broadcast.83.14), metadata={op_name="jit(apply_H_k)/jit(main)/mul" source_file="/global/homes/j/jackm/software/lorrax_B/src/psp/dft_operators.py" source_line=618 scheduling_name="multiply.64.5"}
  %bitcast.819.5 = c128[9,24,24,80,26,2]{3,2,1,5,4,0} bitcast(%multiply.64.5), metadata={scheduling_name="bitcast.819.5"}
  %iota.5.2 = s32[1,9,1963]{2,1,0} iota(), iota_dimension=1, metadata={scheduling_name="iota.5.2"}
  %param_2.82 = s32[9,1963]{1,0} parameter(2), metadata={scheduling_name="param_2.82"}
  %constant_18_2 = s32[] constant(0)
  %broadcast.74.9 = s32[9,1963]{1,0} broadcast(%constant_18_2), dimensions={}, metadata={scheduling_name="broadcast.74.9"}
  %compare.6.7 = pred[9,1963]{1,0} compare(%param_2.82, %broadcast.74.9), direction=LT, metadata={op_name="jit(apply_H_k)/jit(main)/lt" source_file="/global/homes/j/jackm/software/lorrax_B/src/psp/dft_operators.py" source_line=611 scheduling_name="compare.6.7"}
  %constant_16_1 = s32[] constant(24)
  %broadcast.75.6 = s32[9,1963]{1,0} broadcast(%constant_16_1), dimensions={}, metadata={scheduling_name="broadcast.75.6"}
  %add.18.5 = s32[9,1963]{1,0} add(%param_2.82, %broadcast.75.6), metadata={op_name="jit(apply_H_k)/jit(main)/add" source_file="/global/homes/j/jackm/software/lorrax_B/src/psp/dft_operators.py" source_line=611 scheduling_name="add.18.5"}
  %select.6.5 = s32[9,1963]{1,0} select(%compare.6.7, %add.18.5, %param_2.82), metadata={op_name="jit(apply_H_k)/jit(main)/select_n" source_file="/global/homes/j/jackm/software/lorrax_B/src/psp/dft_operators.py" source_line=611 scheduling_name="select.6.5"}
  %bitcast.661.3 = s32[1,9,1963]{2,1,0} bitcast(%select.6.5), metadata={scheduling_name="bitcast.661.3"}
  %param_3.46 = s32[9,1963]{1,0} parameter(3), metadata={scheduling_name="param_3.46"}
  %compare.7.7 = pred[9,1963]{1,0} compare(%param_3.46, %broadcast.74.9), direction=LT, metadata={op_name="jit(apply_H_k)/jit(main)/lt" source_file="/global/homes/j/jackm/software/lorrax_B/src/psp/dft_operators.py" source_line=611 scheduling_name="compare.7.7"}
  %add.19.5 = s32[9,1963]{1,0} add(%param_3.46, %broadcast.75.6), metadata={op_name="jit(apply_H_k)/jit(main)/add" source_file="/global/homes/j/jackm/software/lorrax_B/src/psp/dft_operators.py" source_line=611 scheduling_name="add.19.5"}
  %select.7.5 = s32[9,1963]{1,0} select(%compare.7.7, %add.19.5, %param_3.46), metadata={op_name="jit(apply_H_k)/jit(main)/select_n" source_file="/global/homes/j/jackm/software/lorrax_B/src/psp/dft_operators.py" source_line=611 scheduling_name="select.7.5"}
  %bitcast.676.3 = s32[1,9,1963]{2,1,0} bitcast(%select.7.5), metadata={scheduling_name="bitcast.676.3"}
  %param_4.37 = s32[9,1963]{1,0} parameter(4), metadata={scheduling_name="param_4.37"}
  %compare.8.7 = pred[9,1963]{1,0} compare(%param_4.37, %broadcast.74.9), direction=LT, metadata={op_name="jit(apply_H_k)/jit(main)/lt" source_file="/global/homes/j/jackm/software/lorrax_B/src/psp/dft_operators.py" source_line=611 scheduling_name="compare.8.7"}
  %constant_14_3 = s32[] constant(80)
  %broadcast.79.5 = s32[9,1963]{1,0} broadcast(%constant_14_3), dimensions={}, metadata={scheduling_name="broadcast.79.5"}
  %add.20.5 = s32[9,1963]{1,0} add(%param_4.37, %broadcast.79.5), metadata={op_name="jit(apply_H_k)/jit(main)/add" source_file="/global/homes/j/jackm/software/lorrax_B/src/psp/dft_operators.py" source_line=611 scheduling_name="add.20.5"}
  %select.8.5 = s32[9,1963]{1,0} select(%compare.8.7, %add.20.5, %param_4.37), metadata={op_name="jit(apply_H_k)/jit(main)/select_n" source_file="/global/homes/j/jackm/software/lorrax_B/src/psp/dft_operators.py" source_line=611 scheduling_name="select.8.5"}
  %bitcast.690.3 = s32[1,9,1963]{2,1,0} bitcast(%select.8.5), metadata={scheduling_name="bitcast.690.3"}
  %concatenate.11.3 = s32[4,9,1963]{2,1,0} concatenate(%iota.5.2, %bitcast.661.3, %bitcast.676.3, %bitcast.690.3), dimensions={0}, metadata={op_name="jit(apply_H_k)/jit(main)/gather" source_file="/global/homes/j/jackm/software/lorrax_B/src/psp/dft_operators.py" source_line=611 scheduling_name="concatenate.11.3"}
  %bitcast.821.19 = s32[17667,4]{0,1} bitcast(%concatenate.11.3), metadata={scheduling_name="bitcast.821.19"}
  %gather.5.5 = c128[17667,1,1,1,1,26,2]{6,5,4,3,2,1,0} gather(%bitcast.819.5, %bitcast.821.19), offset_dims={1,2,3,4,5,6}, collapsed_slice_dims={}, start_index_map={0,1,2,3}, index_vector_dim=1, slice_sizes={1,1,1,1,26,2}, metadata={op_name="jit(apply_H_k)/jit(main)/gather" source_file="/global/homes/j/jackm/software/lorrax_B/src/psp/dft_operators.py" source_line=618 scheduling_name="gather.5.5"}
  %bitcast.824.3 = c128[9,1963,52]{2,1,0} bitcast(%gather.5.5), metadata={scheduling_name="bitcast.824.3"}
  %transpose.107.3 = c128[9,52,1963]{2,1,0} transpose(%bitcast.824.3), dimensions={0,2,1}, metadata={op_name="jit(apply_H_k)/jit(main)/gather" source_file="/global/homes/j/jackm/software/lorrax_B/src/psp/dft_operators.py" source_line=618 scheduling_name="transpose.107.3"}
  %bitcast.827.1 = c128[9,26,2,1963]{3,2,1,0} bitcast(%transpose.107.3), metadata={scheduling_name="bitcast.827.1"}
  %param_0.93 = pred[9,1963]{1,0} parameter(0), metadata={scheduling_name="param_0.93"}
  %convert.18.2 = c128[9,1963]{1,0} convert(%param_0.93), metadata={op_name="jit(apply_H_k)/jit(main)/convert_element_type" source_file="/global/homes/j/jackm/software/lorrax_B/src/psp/dft_operators.py" source_line=610 scheduling_name="convert.18.2"}
  %broadcast.80.3 = c128[9,26,2,1963]{3,2,1,0} broadcast(%convert.18.2), dimensions={0,3}, metadata={op_name="jit(apply_H_k)/jit(main)/mul" source_file="/global/homes/j/jackm/software/lorrax_B/src/psp/dft_operators.py" source_line=611 scheduling_name="broadcast.80.3"}
  %multiply.66.1 = c128[9,26,2,1963]{3,2,1,0} multiply(%bitcast.827.1, %broadcast.80.3), metadata={op_name="jit(apply_H_k)/jit(main)/mul" source_file="/global/homes/j/jackm/software/lorrax_B/src/psp/dft_operators.py" source_line=618 scheduling_name="multiply.66.1"}
  %param_5.43 = c128[9,26,2,24,24,80]{5,4,3,2,1,0} parameter(5), metadata={scheduling_name="param_5.43"}
  %bitcast.648.5.clone.1 = c128[9,24,24,80,26,2]{3,2,1,5,4,0} bitcast(%param_5.43), metadata={scheduling_name="bitcast.648.5.clone.1"}
  %gather.3.5.clone.1 = c128[17667,1,1,1,1,26,2]{6,5,4,3,2,1,0} gather(%bitcast.648.5.clone.1, %bitcast.821.19), offset_dims={1,2,3,4,5,6}, collapsed_slice_dims={}, start_index_map={0,1,2,3}, index_vector_dim=1, slice_sizes={1,1,1,1,26,2}, metadata={op_name="jit(apply_H_k)/jit(main)/gather" source_file="/global/homes/j/jackm/software/lorrax_B/src/psp/dft_operators.py" source_line=611 scheduling_name="gather.3.5.clone.1"}
  %bitcast.697.3.clone.1 = c128[9,1963,52]{2,1,0} bitcast(%gather.3.5.clone.1), metadata={scheduling_name="bitcast.697.3.clone.1"}
  %transpose.99.3.clone.1 = c128[9,52,1963]{2,1,0} transpose(%bitcast.697.3.clone.1), dimensions={0,2,1}, metadata={op_name="jit(apply_H_k)/jit(main)/gather" source_file="/global/homes/j/jackm/software/lorrax_B/src/psp/dft_operators.py" source_line=611 scheduling_name="transpose.99.3.clone.1"}
  %bitcast.700.1.clone.1 = c128[9,26,2,1963]{3,2,1,0} bitcast(%transpose.99.3.clone.1), metadata={scheduling_name="bitcast.700.1.clone.1"}
  %multiply.53.1.clone.1 = c128[9,26,2,1963]{3,2,1,0} multiply(%bitcast.700.1.clone.1, %broadcast.80.3), metadata={op_name="jit(apply_H_k)/jit(main)/mul" source_file="/global/homes/j/jackm/software/lorrax_B/src/psp/dft_operators.py" source_line=611 scheduling_name="multiply.53.1.clone.1"}
  ROOT %tuple.2 = (c128[9,26,2,1963]{3,2,1,0}, c128[9,26,2,1963]{3,2,1,0}) tuple(%multiply.66.1, %multiply.53.1.clone.1), metadata={scheduling_name="tuple.2"}
}

%fused_complex (param_0.96: c128[9,102,1963]) -> c128[9,102,1963] {
  %param_0.96 = c128[9,102,1963]{2,1,0} parameter(0), metadata={scheduling_name="param_0.96"}
  %real.4.1 = f64[9,102,1963]{2,1,0} real(%param_0.96), metadata={op_name="jit(apply_H_k)/jit(main)/real" source_file="/global/homes/j/jackm/software/lorrax_B/src/psp/dft_operators.py" source_line=623 scheduling_name="real.4.1"}
  %imag.4.1 = f64[9,102,1963]{2,1,0} imag(%param_0.96), metadata={op_name="jit(apply_H_k)/jit(main)/imag" source_file="/global/homes/j/jackm/software/lorrax_B/src/psp/dft_operators.py" source_line=623 scheduling_name="imag.4.1"}
  %negate.4.1 = f64[9,102,1963]{2,1,0} negate(%imag.4.1), metadata={op_name="jit(apply_H_k)/jit(main)/neg" source_file="/global/homes/j/jackm/software/lorrax_B/src/psp/dft_operators.py" source_line=623 scheduling_name="negate.4.1"}
  ROOT %complex.4.1 = c128[9,102,1963]{2,1,0} complex(%real.4.1, %negate.4.1), metadata={op_name="jit(apply_H_k)/jit(main)/complex" source_file="/global/homes/j/jackm/software/lorrax_B/src/psp/dft_operators.py" source_line=623 scheduling_name="complex.4.1"}
}

%wrapped_transpose_computation.1 (param_0.138: c128[2,2,102,102]) -> c128[102,2,2,102] {
  %param_0.138 = c128[2,2,102,102]{3,2,1,0} parameter(0), metadata={scheduling_name="param_0.138"}
  ROOT %transpose.102.1 = c128[102,2,2,102]{3,2,1,0} transpose(%param_0.138), dimensions={3,1,0,2}, metadata={scheduling_name="transpose.102.1"}
}

%wrapped_transpose_computation (param_0.137: c128[2,2,102,102]) -> c128[102,2,2,102] {
  %param_0.137 = c128[2,2,102,102]{3,2,1,0} parameter(0), metadata={scheduling_name="param_0.137"}
  ROOT %transpose.103.1 = c128[102,2,2,102]{3,2,1,0} transpose(%param_0.137), dimensions={3,1,0,2}, metadata={scheduling_name="transpose.103.1"}
}

%fused_slice (param_0_0: c128[9,52,102], param_1_0: c128[102,2,2,102], param_1_1: c128[102,2,2,102]) -> (c128[47736], c128[83232]) {
  %param_0_0 = c128[9,52,102]{2,1,0} parameter(0), metadata={scheduling_name="param_0_0"}
  %bitcast.754.2 = c128[234,2,102]{2,1,0} bitcast(%param_0_0), metadata={scheduling_name="bitcast.754.2"}
  %transpose.101.2 = c128[234,102,2]{2,1,0} transpose(%bitcast.754.2), dimensions={0,2,1}, metadata={op_name="jit(apply_H_k)/jit(main)/RG,vsG->Rsv/transpose" source_file="/global/homes/j/jackm/software/lorrax_B/src/psp/dft_operators.py" source_line=623 scheduling_name="transpose.101.2"}
  %reshape.97 = c128[47736]{0} reshape(%transpose.101.2), metadata={op_name="jit(apply_H_k)/jit(main)/RG,vsG->Rsv/transpose" source_file="/global/homes/j/jackm/software/lorrax_B/src/psp/dft_operators.py" source_line=623 scheduling_name="reshape.97"}
  %param_1_1 = c128[102,2,2,102]{3,2,1,0} parameter(2), metadata={scheduling_name="param_1_1"}
  %bitcast.762.2 = c128[204,204]{1,0} bitcast(%param_1_1), metadata={scheduling_name="bitcast.762.2"}
  %param_1_0 = c128[102,2,2,102]{3,2,1,0} parameter(1), metadata={scheduling_name="param_1_0"}
  %bitcast.767.2 = c128[204,204]{1,0} bitcast(%param_1_0), metadata={scheduling_name="bitcast.767.2"}
  %concatenate.12.2 = c128[204,408]{1,0} concatenate(%bitcast.762.2, %bitcast.767.2), dimensions={1}, metadata={scheduling_name="concatenate.12.2"}
  %reshape.98 = c128[83232]{0} reshape(%concatenate.12.2), metadata={scheduling_name="reshape.98"}
  %concatenate.13 = c128[130968]{0} concatenate(%reshape.97, %reshape.98), dimensions={0}, metadata={scheduling_name="concatenate.13"}
  %slice.8 = c128[47736]{0} slice(%concatenate.13), slice={[0:47736]}, metadata={scheduling_name="slice.8"}
  %slice.9 = c128[83232]{0} slice(%concatenate.13), slice={[47736:130968]}, metadata={scheduling_name="slice.9"}
  ROOT %tuple.4 = (c128[47736]{0}, c128[83232]{0}) tuple(%slice.8, %slice.9), metadata={scheduling_name="tuple.4"}
}

%fused_transpose (param_0.3: c128[3,9,102,1963]) -> (c128[918,3,1963], c128[9,1963,3,102]) {
  %param_0.3 = c128[3,9,102,1963]{3,2,1,0} parameter(0), metadata={scheduling_name="param_0.3"}
  %bitcast.882.1 = c128[3,918,1963]{2,1,0} bitcast(%param_0.3), metadata={scheduling_name="bitcast.882.1"}
  %transpose.113.1 = c128[918,3,1963]{2,1,0} transpose(%bitcast.882.1), dimensions={1,0,2}, metadata={scheduling_name="transpose.113.1"}
  %real.5.1.clone.1 = f64[3,9,102,1963]{3,2,1,0} real(%param_0.3), metadata={op_name="jit(apply_H_k)/jit(main)/real" source_file="/global/homes/j/jackm/software/lorrax_B/src/psp/dft_operators.py" source_line=623 scheduling_name="real.5.1.clone.1"}
  %imag.5.1.clone.1 = f64[3,9,102,1963]{3,2,1,0} imag(%param_0.3), metadata={op_name="jit(apply_H_k)/jit(main)/imag" source_file="/global/homes/j/jackm/software/lorrax_B/src/psp/dft_operators.py" source_line=623 scheduling_name="imag.5.1.clone.1"}
  %negate.5.1.clone.1 = f64[3,9,102,1963]{3,2,1,0} negate(%imag.5.1.clone.1), metadata={op_name="jit(apply_H_k)/jit(main)/neg" source_file="/global/homes/j/jackm/software/lorrax_B/src/psp/dft_operators.py" source_line=623 scheduling_name="negate.5.1.clone.1"}
  %complex.5.1.clone.1 = c128[3,9,102,1963]{3,2,1,0} complex(%real.5.1.clone.1, %negate.5.1.clone.1), metadata={op_name="jit(apply_H_k)/jit(main)/complex" source_file="/global/homes/j/jackm/software/lorrax_B/src/psp/dft_operators.py" source_line=623 scheduling_name="complex.5.1.clone.1"}
  %transpose.108.1.clone.1 = c128[9,1963,3,102]{3,2,1,0} transpose(%complex.5.1.clone.1), dimensions={1,3,0,2}, metadata={op_name="jit(apply_H_k)/jit(main)/complex" source_file="/global/homes/j/jackm/software/lorrax_B/src/psp/dft_operators.py" source_line=623 scheduling_name="transpose.108.1.clone.1"}
  ROOT %tuple.1 = (c128[918,3,1963]{2,1,0}, c128[9,1963,3,102]{3,2,1,0}) tuple(%transpose.113.1, %transpose.108.1.clone.1), metadata={scheduling_name="tuple.1"}
}

%fused_transpose.1 (param_0.11: c128[9,52,306]) -> c128[3,234,102,2] {
  %param_0.11 = c128[9,52,306]{2,1,0} parameter(0), metadata={scheduling_name="param_0.11"}
  %bitcast.849.1 = c128[234,2,3,102]{3,2,1,0} bitcast(%param_0.11), metadata={scheduling_name="bitcast.849.1"}
  ROOT %transpose.109.1 = c128[3,234,102,2]{3,2,1,0} transpose(%bitcast.849.1), dimensions={2,0,3,1}, metadata={op_name="jit(apply_H_k)/jit(main)/RG,vsG->Rsv/transpose" source_file="/global/homes/j/jackm/software/lorrax_B/src/psp/dft_operators.py" source_line=623 scheduling_name="transpose.109.1"}
}

%fused_add.1 (param_0.100: c128[702,204], param_1.116: c128[234,408]) -> c128[9,3,2,26,102] {
  %param_0.100 = c128[702,204]{1,0} parameter(0), metadata={scheduling_name="param_0.100"}
  %bitcast.858.3 = c128[3,9,26,2,102]{4,3,2,1,0} bitcast(%param_0.100), metadata={scheduling_name="bitcast.858.3"}
  %transpose.110.3 = c128[9,3,2,26,102]{4,3,2,1,0} transpose(%bitcast.858.3), dimensions={1,0,3,2,4}, metadata={op_name="jit(apply_H_k)/jit(main)/stRQ,Qtv->Rsv/dot_general" source_file="/global/homes/j/jackm/software/lorrax_B/src/psp/dft_operators.py" source_line=624 scheduling_name="transpose.110.3"}
  %param_1.116 = c128[234,408]{1,0} parameter(1), metadata={scheduling_name="param_1.116"}
  %slice.7.1 = c128[234,204]{1,0} slice(%param_1.116), slice={[0:234], [204:408]}, metadata={op_name="jit(apply_H_k)/jit(main)/stRQ,Qtv->Rsv/dot_general" source_file="/global/homes/j/jackm/software/lorrax_B/src/psp/dft_operators.py" source_line=624 scheduling_name="slice.7.1"}
  %bitcast.864.3 = c128[9,26,2,102]{3,2,1,0} bitcast(%slice.7.1), metadata={scheduling_name="bitcast.864.3"}
  %transpose.111.3 = c128[9,2,26,102]{3,2,1,0} transpose(%bitcast.864.3), dimensions={0,2,1,3}, metadata={op_name="jit(apply_H_k)/jit(main)/stRQ,Qtv->Rsv/dot_general" source_file="/global/homes/j/jackm/software/lorrax_B/src/psp/dft_operators.py" source_line=624 scheduling_name="transpose.111.3"}
  %broadcast.91.1 = c128[9,3,2,26,102]{4,3,2,1,0} broadcast(%transpose.111.3), dimensions={0,2,3,4}, metadata={op_name="jit(apply_H_k)/jit(main)/stRQ,Qtv->Rsv/broadcast_in_dim" source_file="/global/homes/j/jackm/software/lorrax_B/src/psp/dft_operators.py" source_line=624 scheduling_name="broadcast.91.1"}
  ROOT %add.24.1 = c128[9,3,2,26,102]{4,3,2,1,0} add(%transpose.110.3, %broadcast.91.1), metadata={op_name="jit(apply_H_k)/jit(main)/stRQ,Qtv->Rsv/add_any" source_file="/global/homes/j/jackm/software/lorrax_B/src/psp/dft_operators.py" source_line=624 scheduling_name="add.24.1"}
}

%fused_transpose.4 (param_0.104: c128[234,408]) -> c128[9,2,26,102] {
  %param_0.104 = c128[234,408]{1,0} parameter(0), metadata={scheduling_name="param_0.104"}
  %slice.6.1 = c128[234,204]{1,0} slice(%param_0.104), slice={[0:234], [0:204]}, metadata={op_name="jit(apply_H_k)/jit(main)/stRQ,Qtv->Rsv/dot_general" source_file="/global/homes/j/jackm/software/lorrax_B/src/psp/dft_operators.py" source_line=624 scheduling_name="slice.6.1"}
  %bitcast.773.1 = c128[9,26,2,102]{3,2,1,0} bitcast(%slice.6.1), metadata={scheduling_name="bitcast.773.1"}
  ROOT %transpose.104.1 = c128[9,2,26,102]{3,2,1,0} transpose(%bitcast.773.1), dimensions={0,2,1,3}, metadata={op_name="jit(apply_H_k)/jit(main)/stRQ,Qtv->Rsv/dot_general" source_file="/global/homes/j/jackm/software/lorrax_B/src/psp/dft_operators.py" source_line=624 scheduling_name="transpose.104.1"}
}

%fused_transpose.3 (param_0.109: f64[9,1963,3]) -> c128[3,17667] {
  %param_0.109 = f64[9,1963,3]{2,1,0} parameter(0), metadata={scheduling_name="param_0.109"}
  %convert.20.1 = c128[9,1963,3]{2,1,0} convert(%param_0.109), metadata={op_name="jit(apply_H_k)/jit(main)/convert_element_type" source_file="/global/homes/j/jackm/software/lorrax_B/src/psp/dft_operators.py" source_line=614 scheduling_name="convert.20.1"}
  %bitcast.791.1 = c128[17667,3]{1,0} bitcast(%convert.20.1), metadata={scheduling_name="bitcast.791.1"}
  ROOT %transpose.106.1 = c128[3,17667]{1,0} transpose(%bitcast.791.1), dimensions={1,0}, metadata={op_name="jit(apply_H_k)/jit(main)/convert_element_type" source_file="/global/homes/j/jackm/software/lorrax_B/src/psp/dft_operators.py" source_line=614 scheduling_name="transpose.106.1"}
}

%fused_add (param_0.61: c128[3,17667], param_1.40: c128[9,156,1963], param_2.15: c128[9,52,5889], param_3.11: c128[9,26,2,1963], param_4.9: c128[9,26,2,1963], param_5.8: pred[9,1963]) -> c128[3,9,26,2,1963] {
  %param_0.61 = c128[3,17667]{1,0} parameter(0), metadata={scheduling_name="param_0.61"}
  %bitcast.794.3 = c128[3,9,1963]{2,1,0} bitcast(%param_0.61), metadata={scheduling_name="bitcast.794.3"}
  %broadcast.85.3 = c128[3,9,26,2,1963]{4,3,2,1,0} broadcast(%bitcast.794.3), dimensions={0,1,4}, metadata={op_name="jit(apply_H_k)/jit(main)/mul" source_file="/global/homes/j/jackm/software/lorrax_B/src/psp/dft_operators.py" source_line=614 scheduling_name="broadcast.85.3"}
  %param_4.9 = c128[9,26,2,1963]{3,2,1,0} parameter(4), metadata={scheduling_name="param_4.9"}
  %broadcast.86.1 = c128[3,9,26,2,1963]{4,3,2,1,0} broadcast(%param_4.9), dimensions={1,2,3,4}, metadata={op_name="jit(apply_H_k)/jit(main)/mul" source_file="/global/homes/j/jackm/software/lorrax_B/src/psp/dft_operators.py" source_line=614 scheduling_name="broadcast.86.1"}
  %multiply.61.3 = c128[3,9,26,2,1963]{4,3,2,1,0} multiply(%broadcast.85.3, %broadcast.86.1), metadata={op_name="jit(apply_H_k)/jit(main)/mul" source_file="/global/homes/j/jackm/software/lorrax_B/src/psp/dft_operators.py" source_line=614 scheduling_name="multiply.61.3"}
  %param_3.11 = c128[9,26,2,1963]{3,2,1,0} parameter(3), metadata={scheduling_name="param_3.11"}
  %broadcast.90.1 = c128[3,9,26,2,1963]{4,3,2,1,0} broadcast(%param_3.11), dimensions={1,2,3,4}, metadata={op_name="jit(apply_H_k)/jit(main)/add" source_file="/global/homes/j/jackm/software/lorrax_B/src/psp/dft_operators.py" source_line=618 scheduling_name="broadcast.90.1"}
  %add.23.3 = c128[3,9,26,2,1963]{4,3,2,1,0} add(%multiply.61.3, %broadcast.90.1), metadata={op_name="jit(apply_H_k)/jit(main)/add" source_file="/global/homes/j/jackm/software/lorrax_B/src/psp/dft_operators.py" source_line=618 scheduling_name="add.23.3"}
  %param_1.40 = c128[9,156,1963]{2,1,0} parameter(1), metadata={scheduling_name="param_1.40"}
  %bitcast.875.5 = c128[9,3,2,26,1963]{4,3,2,1,0} bitcast(%param_1.40), metadata={scheduling_name="bitcast.875.5"}
  %transpose.112.5 = c128[3,9,26,2,1963]{4,3,2,1,0} transpose(%bitcast.875.5), dimensions={1,0,3,2,4}, metadata={op_name="jit(apply_H_k)/jit(main)/RG,Rsv->vsG/dot_general" source_file="/global/homes/j/jackm/software/lorrax_B/src/psp/dft_operators.py" source_line=625 scheduling_name="transpose.112.5"}
  %param_2.15 = c128[9,52,5889]{2,1,0} parameter(2), metadata={scheduling_name="param_2.15"}
  %bitcast.889.3 = c128[9,2,26,3,1963]{4,3,2,1,0} bitcast(%param_2.15), metadata={scheduling_name="bitcast.889.3"}
  %transpose.114.3 = c128[3,9,26,2,1963]{4,3,2,1,0} transpose(%bitcast.889.3), dimensions={3,0,2,1,4}, metadata={op_name="jit(apply_H_k)/jit(main)/RG,Rsv->vsG/dot_general" source_file="/global/homes/j/jackm/software/lorrax_B/src/psp/dft_operators.py" source_line=625 scheduling_name="transpose.114.3"}
  %add.25.3 = c128[3,9,26,2,1963]{4,3,2,1,0} add(%transpose.112.5, %transpose.114.3), metadata={op_name="jit(apply_H_k)/jit(main)/RG,Rsv->vsG/add_any" source_file="/global/homes/j/jackm/software/lorrax_B/src/psp/dft_operators.py" source_line=625 scheduling_name="add.25.3"}
  %param_5.8 = pred[9,1963]{1,0} parameter(5), metadata={scheduling_name="param_5.8"}
  %convert.18.3 = c128[9,1963]{1,0} convert(%param_5.8), metadata={op_name="jit(apply_H_k)/jit(main)/convert_element_type" source_file="/global/homes/j/jackm/software/lorrax_B/src/psp/dft_operators.py" source_line=610 scheduling_name="convert.18.3"}
  %broadcast.92.1 = c128[3,9,26,2,1963]{4,3,2,1,0} broadcast(%convert.18.3), dimensions={1,4}, metadata={op_name="jit(apply_H_k)/jit(main)/mul" source_file="/global/homes/j/jackm/software/lorrax_B/src/psp/dft_operators.py" source_line=625 scheduling_name="broadcast.92.1"}
  %multiply.67.1 = c128[3,9,26,2,1963]{4,3,2,1,0} multiply(%add.25.3, %broadcast.92.1), metadata={op_name="jit(apply_H_k)/jit(main)/mul" source_file="/global/homes/j/jackm/software/lorrax_B/src/psp/dft_operators.py" source_line=625 scheduling_name="multiply.67.1"}
  ROOT %add.26.1 = c128[3,9,26,2,1963]{4,3,2,1,0} add(%add.23.3, %multiply.67.1), metadata={op_name="jit(apply_H_k)/jit(main)/add" source_file="/global/homes/j/jackm/software/lorrax_B/src/psp/dft_operators.py" source_line=625 scheduling_name="add.26.1"}
}

%command_buffer (p: pred[9,1963], p.1: c128[9,26,2,24,24,80], p.2: s32[9,1963], p.3: s32[9,1963], p.4: s32[9,1963], p.5: c128[9,26,2,24,24,80], p.6: c128[9,102,1963], p.7: c128[2,2,102,102], p.8: c128[2,2,102,102], p.9: c128[3,9,102,1963], p.10: f64[9,1963,3]) -> (c128[9,26,2,1963], c128[3,9,26,2,1963], (c128[9,52,1963], s8[4194304])) {
  %p = pred[9,1963]{1,0} parameter(0)
  %p.1 = c128[9,26,2,24,24,80]{5,4,3,2,1,0} parameter(1)
  %p.2 = s32[9,1963]{1,0} parameter(2)
  %p.3 = s32[9,1963]{1,0} parameter(3)
  %p.4 = s32[9,1963]{1,0} parameter(4)
  %p.5 = c128[9,26,2,24,24,80]{5,4,3,2,1,0} parameter(5)
  %p.6 = c128[9,102,1963]{2,1,0} parameter(6)
  %p.7 = c128[2,2,102,102]{3,2,1,0} parameter(7)
  %p.8 = c128[2,2,102,102]{3,2,1,0} parameter(8)
  %p.9 = c128[3,9,102,1963]{3,2,1,0} parameter(9)
  %p.10 = f64[9,1963,3]{2,1,0} parameter(10)
  %input_transpose_fusion.1 = (c128[9,26,2,1963]{3,2,1,0}, c128[9,26,2,1963]{3,2,1,0}) fusion(%p, %p.1, %p.2, %p.3, %p.4, /*index=5*/%p.5), kind=kInput, calls=%fused_transpose.2, metadata={op_name="jit(apply_H_k)/jit(main)/mul" source_file="/global/homes/j/jackm/software/lorrax_B/src/psp/dft_operators.py" source_line=618 scheduling_name="input_transpose_fusion.1"}
  %get-tuple-element.11 = c128[9,26,2,1963]{3,2,1,0} get-tuple-element(%input_transpose_fusion.1), index=1, metadata={op_name="jit(apply_H_k)/jit(main)/mul" source_file="/global/homes/j/jackm/software/lorrax_B/src/psp/dft_operators.py" source_line=618 scheduling_name="get-tuple-element.11"}
  %bitcast.835.0 = c128[9,52,1963]{2,1,0} bitcast(%get-tuple-element.11), metadata={scheduling_name="bitcast.835.0"}
  %loop_complex_fusion = c128[9,102,1963]{2,1,0} fusion(%p.6), kind=kLoop, calls=%fused_complex, metadata={op_name="jit(apply_H_k)/jit(main)/complex" source_file="/global/homes/j/jackm/software/lorrax_B/src/psp/dft_operators.py" source_line=623 scheduling_name="loop_complex_fusion"}
  %custom-call.7.0 = (c128[9,52,102]{2,1,0}, s8[4194304]{0}) custom-call(%bitcast.835.0, %loop_complex_fusion), custom_call_target="__cublas$gemm", metadata={op_name="jit(apply_H_k)/jit(main)/RG,vsG->Rsv/dot_general" source_file="/global/homes/j/jackm/software/lorrax_B/src/psp/dft_operators.py" source_line=623 scheduling_name="custom-call.7.0"}, backend_config={"operation_queue_id":"0","wait_on_operation_queues":[],"gemm_backend_config":{"alpha_real":1,"alpha_imag":0,"beta":0,"dot_dimension_numbers":{"lhs_contracting_dimensions":["2"],"rhs_contracting_dimensions":["2"],"lhs_batch_dimensions":["0"],"rhs_batch_dimensions":["0"]},"precision_config":{"operand_precision":["DEFAULT","DEFAULT"],"algorithm":"ALG_UNSET"},"epilogue":"DEFAULT","damax_output":false,"lhs_stride":"102076","rhs_stride":"200226","grad_x":false,"grad_y":false},"force_earliest_schedule":false}
  %get-tuple-element.7 = c128[9,52,102]{2,1,0} get-tuple-element(%custom-call.7.0), index=0, metadata={op_name="jit(apply_H_k)/jit(main)/RG,vsG->Rsv/dot_general" source_file="/global/homes/j/jackm/software/lorrax_B/src/psp/dft_operators.py" source_line=623 scheduling_name="get-tuple-element.7"}
  %wrapped_transpose.1 = c128[102,2,2,102]{3,2,1,0} fusion(%p.7), kind=kInput, calls=%wrapped_transpose_computation.1, metadata={scheduling_name="wrapped_transpose.1"}
  %wrapped_transpose = c128[102,2,2,102]{3,2,1,0} fusion(%p.8), kind=kInput, calls=%wrapped_transpose_computation, metadata={scheduling_name="wrapped_transpose"}
  %input_slice_fusion = (c128[47736]{0}, c128[83232]{0}) fusion(%get-tuple-element.7, %wrapped_transpose, %wrapped_transpose.1), kind=kInput, calls=%fused_slice, metadata={scheduling_name="input_slice_fusion"}
  %get-tuple-element.14 = c128[47736]{0} get-tuple-element(%input_slice_fusion), index=0, metadata={scheduling_name="get-tuple-element.14"}
  %bitcast.758.0 = c128[234,204]{1,0} bitcast(%get-tuple-element.14), metadata={scheduling_name="bitcast.758.0"}
  %get-tuple-element.15 = c128[83232]{0} get-tuple-element(%input_slice_fusion), index=1, metadata={scheduling_name="get-tuple-element.15"}
  %bitcast.951 = c128[204,408]{1,0} bitcast(%get-tuple-element.15), metadata={scheduling_name="bitcast.951"}
  %custom-call.8.0 = (c128[234,408]{1,0}, s8[2095488]{0}) custom-call(%bitcast.758.0, %bitcast.951), custom_call_target="__cublas$gemm", metadata={op_name="jit(apply_H_k)/jit(main)/stRQ,Qtv->Rsv/dot_general" source_file="/global/homes/j/jackm/software/lorrax_B/src/psp/dft_operators.py" source_line=624 scheduling_name="custom-call.8.0"}, backend_config={"operation_queue_id":"0","wait_on_operation_queues":[],"gemm_backend_config":{"alpha_real":1,"alpha_imag":0,"beta":0,"dot_dimension_numbers":{"lhs_contracting_dimensions":["1"],"rhs_contracting_dimensions":["0"],"lhs_batch_dimensions":[],"rhs_batch_dimensions":[]},"precision_config":{"operand_precision":["DEFAULT","DEFAULT"],"algorithm":"ALG_UNSET"},"epilogue":"DEFAULT","damax_output":false,"lhs_stride":"47736","rhs_stride":"83232","grad_x":false,"grad_y":false},"force_earliest_schedule":false}
  %get-tuple-element.1.0 = c128[234,408]{1,0} get-tuple-element(%custom-call.8.0), index=0, metadata={op_name="jit(apply_H_k)/jit(main)/stRQ,Qtv->Rsv/dot_general" source_file="/global/homes/j/jackm/software/lorrax_B/src/psp/dft_operators.py" source_line=624 scheduling_name="get-tuple-element.1.0"}
  %input_transpose_fusion = (c128[918,3,1963]{2,1,0}, c128[9,1963,3,102]{3,2,1,0}) fusion(%p.9), kind=kInput, calls=%fused_transpose, metadata={scheduling_name="input_transpose_fusion"}
  %get-tuple-element.9 = c128[9,1963,3,102]{3,2,1,0} get-tuple-element(%input_transpose_fusion), index=1, metadata={scheduling_name="get-tuple-element.9"}
  %bitcast.846.0 = c128[9,1963,306]{2,1,0} bitcast(%get-tuple-element.9), metadata={scheduling_name="bitcast.846.0"}
  %custom-call.10.0 = (c128[9,52,306]{2,1,0}, s8[4194304]{0}) custom-call(%bitcast.835.0, %bitcast.846.0), custom_call_target="__cublas$gemm", metadata={op_name="jit(apply_H_k)/jit(main)/RG,vsG->Rsv/dot_general" source_file="/global/homes/j/jackm/software/lorrax_B/src/psp/dft_operators.py" source_line=623 scheduling_name="custom-call.10.0"}, backend_config={"operation_queue_id":"0","wait_on_operation_queues":[],"gemm_backend_config":{"alpha_real":1,"alpha_imag":0,"beta":0,"dot_dimension_numbers":{"lhs_contracting_dimensions":["2"],"rhs_contracting_dimensions":["1"],"lhs_batch_dimensions":["0"],"rhs_batch_dimensions":["0"]},"precision_config":{"operand_precision":["DEFAULT","DEFAULT"],"algorithm":"ALG_UNSET"},"epilogue":"DEFAULT","damax_output":false,"lhs_stride":"102076","rhs_stride":"600678","grad_x":false,"grad_y":false},"force_earliest_schedule":false}
  %get-tuple-element.3.0 = c128[9,52,306]{2,1,0} get-tuple-element(%custom-call.10.0), index=0, metadata={op_name="jit(apply_H_k)/jit(main)/RG,vsG->Rsv/dot_general" source_file="/global/homes/j/jackm/software/lorrax_B/src/psp/dft_operators.py" source_line=623 scheduling_name="get-tuple-element.3.0"}
  %loop_transpose_fusion = c128[3,234,102,2]{3,2,1,0} fusion(%get-tuple-element.3.0), kind=kLoop, calls=%fused_transpose.1, metadata={op_name="jit(apply_H_k)/jit(main)/RG,vsG->Rsv/transpose" source_file="/global/homes/j/jackm/software/lorrax_B/src/psp/dft_operators.py" source_line=623 scheduling_name="loop_transpose_fusion"}
  %bitcast.853.0 = c128[702,204]{1,0} bitcast(%loop_transpose_fusion), metadata={scheduling_name="bitcast.853.0"}
  %bitcast.762.0 = c128[204,204]{1,0} bitcast(%wrapped_transpose.1), metadata={scheduling_name="bitcast.762.0"}
  %custom-call.11.0 = (c128[702,204]{1,0}, s8[2957184]{0}) custom-call(%bitcast.853.0, %bitcast.762.0), custom_call_target="__cublas$gemm", metadata={op_name="jit(apply_H_k)/jit(main)/stRQ,Qtv->Rsv/dot_general" source_file="/global/homes/j/jackm/software/lorrax_B/src/psp/dft_operators.py" source_line=624 scheduling_name="custom-call.11.0"}, backend_config={"operation_queue_id":"0","wait_on_operation_queues":[],"gemm_backend_config":{"alpha_real":1,"alpha_imag":0,"beta":0,"dot_dimension_numbers":{"lhs_contracting_dimensions":["1"],"rhs_contracting_dimensions":["0"],"lhs_batch_dimensions":[],"rhs_batch_dimensions":[]},"precision_config":{"operand_precision":["DEFAULT","DEFAULT"],"algorithm":"ALG_UNSET"},"epilogue":"DEFAULT","damax_output":false,"lhs_stride":"143208","rhs_stride":"41616","grad_x":false,"grad_y":false},"force_earliest_schedule":false}
  %get-tuple-element.4.0 = c128[702,204]{1,0} get-tuple-element(%custom-call.11.0), index=0, metadata={op_name="jit(apply_H_k)/jit(main)/stRQ,Qtv->Rsv/dot_general" source_file="/global/homes/j/jackm/software/lorrax_B/src/psp/dft_operators.py" source_line=624 scheduling_name="get-tuple-element.4.0"}
  %loop_add_fusion.1 = c128[9,3,2,26,102]{4,3,2,1,0} fusion(%get-tuple-element.4.0, %get-tuple-element.1.0), kind=kLoop, calls=%fused_add.1, metadata={op_name="jit(apply_H_k)/jit(main)/stRQ,Qtv->Rsv/add_any" source_file="/global/homes/j/jackm/software/lorrax_B/src/psp/dft_operators.py" source_line=624 scheduling_name="loop_add_fusion.1"}
  %bitcast.870.0 = c128[9,156,102]{2,1,0} bitcast(%loop_add_fusion.1), metadata={scheduling_name="bitcast.870.0"}
  %custom-call.12.0 = (c128[9,156,1963]{2,1,0}, s8[4194304]{0}) custom-call(%bitcast.870.0, %p.6), custom_call_target="__cublas$gemm", metadata={op_name="jit(apply_H_k)/jit(main)/RG,Rsv->vsG/dot_general" source_file="/global/homes/j/jackm/software/lorrax_B/src/psp/dft_operators.py" source_line=625 scheduling_name="custom-call.12.0"}, backend_config={"operation_queue_id":"0","wait_on_operation_queues":[],"gemm_backend_config":{"alpha_real":1,"alpha_imag":0,"beta":0,"dot_dimension_numbers":{"lhs_contracting_dimensions":["2"],"rhs_contracting_dimensions":["1"],"lhs_batch_dimensions":["0"],"rhs_batch_dimensions":["0"]},"precision_config":{"operand_precision":["DEFAULT","DEFAULT"],"algorithm":"ALG_UNSET"},"epilogue":"DEFAULT","damax_output":false,"lhs_stride":"15912","rhs_stride":"200226","grad_x":false,"grad_y":false},"force_earliest_schedule":false}
  %get-tuple-element.5.0 = c128[9,156,1963]{2,1,0} get-tuple-element(%custom-call.12.0), index=0, metadata={op_name="jit(apply_H_k)/jit(main)/RG,Rsv->vsG/dot_general" source_file="/global/homes/j/jackm/software/lorrax_B/src/psp/dft_operators.py" source_line=625 scheduling_name="get-tuple-element.5.0"}
  %loop_transpose_fusion.2 = c128[9,2,26,102]{3,2,1,0} fusion(%get-tuple-element.1.0), kind=kLoop, calls=%fused_transpose.4, metadata={op_name="jit(apply_H_k)/jit(main)/stRQ,Qtv->Rsv/dot_general" source_file="/global/homes/j/jackm/software/lorrax_B/src/psp/dft_operators.py" source_line=624 scheduling_name="loop_transpose_fusion.2"}
  %bitcast.879.0 = c128[9,52,102]{2,1,0} bitcast(%loop_transpose_fusion.2), metadata={scheduling_name="bitcast.879.0"}
  %get-tuple-element.8 = c128[918,3,1963]{2,1,0} get-tuple-element(%input_transpose_fusion), index=0, metadata={scheduling_name="get-tuple-element.8"}
  %bitcast.886.0 = c128[9,102,5889]{2,1,0} bitcast(%get-tuple-element.8), metadata={scheduling_name="bitcast.886.0"}
  %custom-call.13.0 = (c128[9,52,5889]{2,1,0}, s8[4194304]{0}) custom-call(%bitcast.879.0, %bitcast.886.0), custom_call_target="__cublas$gemm", metadata={op_name="jit(apply_H_k)/jit(main)/RG,Rsv->vsG/dot_general" source_file="/global/homes/j/jackm/software/lorrax_B/src/psp/dft_operators.py" source_line=625 scheduling_name="custom-call.13.0"}, backend_config={"operation_queue_id":"0","wait_on_operation_queues":[],"gemm_backend_config":{"alpha_real":1,"alpha_imag":0,"beta":0,"dot_dimension_numbers":{"lhs_contracting_dimensions":["2"],"rhs_contracting_dimensions":["1"],"lhs_batch_dimensions":["0"],"rhs_batch_dimensions":["0"]},"precision_config":{"operand_precision":["DEFAULT","DEFAULT"],"algorithm":"ALG_UNSET"},"epilogue":"DEFAULT","damax_output":false,"lhs_stride":"5304","rhs_stride":"600678","grad_x":false,"grad_y":false},"force_earliest_schedule":false}
  %get-tuple-element.6.0 = c128[9,52,5889]{2,1,0} get-tuple-element(%custom-call.13.0), index=0, metadata={op_name="jit(apply_H_k)/jit(main)/RG,Rsv->vsG/dot_general" source_file="/global/homes/j/jackm/software/lorrax_B/src/psp/dft_operators.py" source_line=625 scheduling_name="get-tuple-element.6.0"}
  %get-tuple-element.10 = c128[9,26,2,1963]{3,2,1,0} get-tuple-element(%input_transpose_fusion.1), index=0, metadata={op_name="jit(apply_H_k)/jit(main)/mul" source_file="/global/homes/j/jackm/software/lorrax_B/src/psp/dft_operators.py" source_line=618 scheduling_name="get-tuple-element.10"}
  %loop_transpose_fusion.1 = c128[3,17667]{1,0} fusion(%p.10), kind=kLoop, calls=%fused_transpose.3, metadata={op_name="jit(apply_H_k)/jit(main)/convert_element_type" source_file="/global/homes/j/jackm/software/lorrax_B/src/psp/dft_operators.py" source_line=614 scheduling_name="loop_transpose_fusion.1"}
  %loop_add_fusion = c128[3,9,26,2,1963]{4,3,2,1,0} fusion(%loop_transpose_fusion.1, %get-tuple-element.5.0, %get-tuple-element.6.0, %get-tuple-element.10, %get-tuple-element.11, /*index=5*/%p), kind=kLoop, calls=%fused_add, metadata={op_name="jit(apply_H_k)/jit(main)/add" source_file="/global/homes/j/jackm/software/lorrax_B/src/psp/dft_operators.py" source_line=625 scheduling_name="loop_add_fusion"}
  %custom-call.9.0 = (c128[9,52,1963]{2,1,0}, s8[4194304]{0}) custom-call(%bitcast.879.0, %p.6), custom_call_target="__cublas$gemm", metadata={op_name="jit(apply_H_k)/jit(main)/RG,Rsv->vsG/dot_general" source_file="/global/homes/j/jackm/software/lorrax_B/src/psp/dft_operators.py" source_line=625 scheduling_name="custom-call.9.0"}, backend_config={"operation_queue_id":"0","wait_on_operation_queues":[],"gemm_backend_config":{"alpha_real":1,"alpha_imag":0,"beta":0,"dot_dimension_numbers":{"lhs_contracting_dimensions":["2"],"rhs_contracting_dimensions":["1"],"lhs_batch_dimensions":["0"],"rhs_batch_dimensions":["0"]},"precision_config":{"operand_precision":["DEFAULT","DEFAULT"],"algorithm":"ALG_UNSET"},"epilogue":"DEFAULT","damax_output":false,"lhs_stride":"5304","rhs_stride":"200226","grad_x":false,"grad_y":false},"force_earliest_schedule":false}
  ROOT %tuple.5 = (c128[9,26,2,1963]{3,2,1,0}, c128[3,9,26,2,1963]{4,3,2,1,0}, (c128[9,52,1963]{2,1,0}, s8[4194304]{0})) tuple(%get-tuple-element.11, %loop_add_fusion, %custom-call.9.0)
}

ENTRY %main.370 (Arg_0.1.0: c128[9,26,2,24,24,80], Arg_1.2.0: f64[9,1963], Arg_2.3.0: f64[24,24,80], Arg_3.4.0: s32[9,1963], Arg_4.5.0: s32[9,1963], Arg_5.6.0: s32[9,1963], Arg_6.7.0: c128[9,102,1963], Arg_7.8.0: c128[2,2,102,102], Arg_8.9.0: pred[9,1963], Arg_9.10.0: f64[9,1963,3], Arg_10.11.0: f64[24,24,80], Arg_11.12.0: c128[3,9,102,1963], Arg_12.13.0: c128[2,2,102,102]) -> (c128[9,26,2,1963], c128[3,9,26,2,1963]) {
  %Arg_0.1.0 = c128[9,26,2,24,24,80]{5,4,3,2,1,0} parameter(0), metadata={scheduling_name="Arg_0.1.0"}
  %Arg_10.11.0 = f64[24,24,80]{2,1,0} parameter(10), metadata={scheduling_name="Arg_10.11.0"}
  %Arg_2.3.0 = f64[24,24,80]{2,1,0} parameter(2), metadata={scheduling_name="Arg_2.3.0"}
  %Arg_3.4.0 = s32[9,1963]{1,0} parameter(3), metadata={scheduling_name="Arg_3.4.0"}
  %Arg_4.5.0 = s32[9,1963]{1,0} parameter(4), metadata={scheduling_name="Arg_4.5.0"}
  %Arg_5.6.0 = s32[9,1963]{1,0} parameter(5), metadata={scheduling_name="Arg_5.6.0"}
  %Arg_8.9.0 = pred[9,1963]{1,0} parameter(8), metadata={op_name="jit(apply_H_k)/jit(main)/broadcast_in_dim" source_file="/global/homes/j/jackm/software/lorrax_B/src/psp/dft_operators.py" source_line=610 scheduling_name="Arg_8.9.0"}
  %Arg_6.7.0 = c128[9,102,1963]{2,1,0} parameter(6), metadata={scheduling_name="Arg_6.7.0"}
  %Arg_7.8.0 = c128[2,2,102,102]{3,2,1,0} parameter(7), metadata={scheduling_name="Arg_7.8.0"}
  %Arg_12.13.0 = c128[2,2,102,102]{3,2,1,0} parameter(12), metadata={scheduling_name="Arg_12.13.0"}
  %Arg_11.12.0 = c128[3,9,102,1963]{3,2,1,0} parameter(11), metadata={scheduling_name="Arg_11.12.0"}
  %Arg_9.10.0 = f64[9,1963,3]{2,1,0} parameter(9), metadata={op_name="jit(apply_H_k)/jit(main)/transpose" source_file="/global/homes/j/jackm/software/lorrax_B/src/psp/dft_operators.py" source_line=614 scheduling_name="Arg_9.10.0"}
  %Arg_1.2.0 = f64[9,1963]{1,0} parameter(1), metadata={op_name="jit(apply_H_k)/jit(main)/broadcast_in_dim" source_file="/global/homes/j/jackm/software/lorrax_B/src/psp/dft_operators.py" source_line=614 scheduling_name="Arg_1.2.0"}
  %fft.3.0 = c128[9,26,2,24,24,80]{5,4,3,2,1,0} fft(%Arg_0.1.0), fft_type=IFFT, fft_length={24,24,80}, metadata={op_name="jit(apply_H_k)/jit(main)/jit(fft)/jit(fft)/fft" source_file="/global/homes/j/jackm/software/lorrax_B/src/psp/scf_potential.py" source_line=153 scheduling_name="fft.3.0"}
  %loop_multiply_fusion = (c128[9,26,2,24,24,80]{5,4,3,2,1,0}, c128[9,26,2,24,24,80]{5,4,3,2,1,0}) fusion(%fft.3.0, %Arg_2.3.0, %Arg_10.11.0), kind=kLoop, calls=%fused_multiply, metadata={op_name="jit(apply_H_k)/jit(main)/mul" source_file="/global/homes/j/jackm/software/lorrax_B/src/psp/dft_operators.py" source_line=619 scheduling_name="loop_multiply_fusion"}
  %get-tuple-element.13 = c128[9,26,2,24,24,80]{5,4,3,2,1,0} get-tuple-element(%loop_multiply_fusion), index=1, metadata={op_name="jit(apply_H_k)/jit(main)/mul" source_file="/global/homes/j/jackm/software/lorrax_B/src/psp/dft_operators.py" source_line=619 scheduling_name="get-tuple-element.13"}
  %fft.5.0 = c128[9,26,2,24,24,80]{5,4,3,2,1,0} fft(%get-tuple-element.13), fft_type=FFT, fft_length={24,24,80}, metadata={op_name="jit(apply_H_k)/jit(main)/jit(fft)/jit(fft)/fft" source_file="/global/homes/j/jackm/software/lorrax_B/src/psp/run_sternheimer.py" source_line=114 scheduling_name="fft.5.0"}
  %call = (c128[9,26,2,1963]{3,2,1,0}, c128[3,9,26,2,1963]{4,3,2,1,0}, (c128[9,52,1963]{2,1,0}, s8[4194304]{0})) call(%Arg_8.9.0, %fft.5.0, %Arg_3.4.0, %Arg_4.5.0, %Arg_5.6.0, /*index=5*/%Arg_0.1.0, %Arg_6.7.0, %Arg_7.8.0, %Arg_12.13.0, %Arg_11.12.0, /*index=10*/%Arg_9.10.0), to_apply=%command_buffer
  %get-tuple-element.23 = c128[9,26,2,1963]{3,2,1,0} get-tuple-element(%call), index=0
  %get-tuple-element.24 = c128[3,9,26,2,1963]{4,3,2,1,0} get-tuple-element(%call), index=1
  %get-tuple-element.25 = (c128[9,52,1963]{2,1,0}, s8[4194304]{0}) get-tuple-element(%call), index=2
  %get-tuple-element.2.0 = c128[9,52,1963]{2,1,0} get-tuple-element(%get-tuple-element.25), index=0, metadata={op_name="jit(apply_H_k)/jit(main)/RG,Rsv->vsG/dot_general" source_file="/global/homes/j/jackm/software/lorrax_B/src/psp/dft_operators.py" source_line=625 scheduling_name="get-tuple-element.2.0"}
  %get-tuple-element.12 = c128[9,26,2,24,24,80]{5,4,3,2,1,0} get-tuple-element(%loop_multiply_fusion), index=0, metadata={op_name="jit(apply_H_k)/jit(main)/mul" source_file="/global/homes/j/jackm/software/lorrax_B/src/psp/dft_operators.py" source_line=619 scheduling_name="get-tuple-element.12"}
  %fft.4.0 = c128[9,26,2,24,24,80]{5,4,3,2,1,0} fft(%get-tuple-element.12), fft_type=FFT, fft_length={24,24,80}, metadata={op_name="jit(apply_H_k)/jit(main)/jit(fft)/jit(fft)/fft" source_file="/global/homes/j/jackm/software/lorrax_B/src/psp/run_sternheimer.py" source_line=114 scheduling_name="fft.4.0"}
  %input_transpose_fusion.2 = c128[9,26,2,1963]{3,2,1,0} fusion(%Arg_8.9.0, %fft.4.0, %get-tuple-element.2.0, %get-tuple-element.23, %Arg_1.2.0, /*index=5*/%Arg_3.4.0, %Arg_4.5.0, %Arg_5.6.0), kind=kInput, calls=%fused_transpose.5, metadata={op_name="jit(apply_H_k)/jit(main)/add" source_file="/global/homes/j/jackm/software/lorrax_B/src/psp/dft_operators.py" source_line=625 scheduling_name="input_transpose_fusion.2"}
  ROOT %tuple.369.0 = (c128[9,26,2,1963]{3,2,1,0}, c128[3,9,26,2,1963]{4,3,2,1,0}) tuple(%input_transpose_fusion.2, %get-tuple-element.24), metadata={scheduling_name="tuple.369.0"}
}

