HloModule jit_subtract, entry_computation_layout={(f64[9,3]{1,0}, f64[1,3]{1,0}, f64[3,1,3]{2,1,0})->(f64[9,3]{1,0}, f64[3,9,3]{2,1,0})}, allow_spmd_sharding_propagation_to_parameters={true,true,true}, allow_spmd_sharding_propagation_to_output={true,true}

ENTRY %main.12 (Arg_0.1: f64[9,3], Arg_1.2: f64[1,3], Arg_2.3: f64[3,1,3]) -> (f64[9,3], f64[3,9,3]) {
  %Arg_0.1 = f64[9,3]{1,0} parameter(0)
  %Arg_1.2 = f64[1,3]{1,0} parameter(1)
  %broadcast.4 = f64[1,3]{1,0} broadcast(%Arg_1.2), dimensions={0,1}, metadata={op_name="jit(subtract)/jit(main)/sub" source_file="/pscratch/sd/j/jackm/lorrax_sandbox/runs/MoS2/02_mos2_3x3_nosym/B_sternheimer_smoke/run_full.py" source_line=271}
  %reshape.5 = f64[3]{0} reshape(%broadcast.4), metadata={op_name="jit(subtract)/jit(main)/sub" source_file="/pscratch/sd/j/jackm/lorrax_sandbox/runs/MoS2/02_mos2_3x3_nosym/B_sternheimer_smoke/run_full.py" source_line=271}
  %broadcast.6 = f64[9,3]{1,0} broadcast(%reshape.5), dimensions={1}, metadata={op_name="jit(subtract)/jit(main)/sub" source_file="/pscratch/sd/j/jackm/lorrax_sandbox/runs/MoS2/02_mos2_3x3_nosym/B_sternheimer_smoke/run_full.py" source_line=271}
  %subtract.7 = f64[9,3]{1,0} subtract(%Arg_0.1, %broadcast.6), metadata={op_name="jit(subtract)/jit(main)/sub" source_file="/pscratch/sd/j/jackm/lorrax_sandbox/runs/MoS2/02_mos2_3x3_nosym/B_sternheimer_smoke/run_full.py" source_line=271}
  %Arg_2.3 = f64[3,1,3]{2,1,0} parameter(2)
  %negate.8 = f64[3,1,3]{2,1,0} negate(%Arg_2.3), metadata={op_name="jit(subtract)/jit(main)/neg" source_file="/pscratch/sd/j/jackm/lorrax_sandbox/runs/MoS2/02_mos2_3x3_nosym/B_sternheimer_smoke/run_full.py" source_line=271}
  %reshape.9 = f64[3,3]{1,0} reshape(%negate.8), metadata={op_name="jit(subtract)/jit(main)/reshape" source_file="/pscratch/sd/j/jackm/lorrax_sandbox/runs/MoS2/02_mos2_3x3_nosym/B_sternheimer_smoke/run_full.py" source_line=271}
  %broadcast.10 = f64[3,9,3]{2,1,0} broadcast(%reshape.9), dimensions={0,2}, metadata={op_name="jit(subtract)/jit(main)/broadcast_in_dim" source_file="/pscratch/sd/j/jackm/lorrax_sandbox/runs/MoS2/02_mos2_3x3_nosym/B_sternheimer_smoke/run_full.py" source_line=271}
  ROOT %tuple.11 = (f64[9,3]{1,0}, f64[3,9,3]{2,1,0}) tuple(%subtract.7, %broadcast.10)
}

