HloModule jit_exp, is_scheduled=true, entry_computation_layout={(c128[9,1963,102]{2,1,0}, c128[3,9,1963,102]{3,2,1,0})->(c128[9,1963,102]{2,1,0}, c128[3,9,1963,102]{3,2,1,0})}, allow_spmd_sharding_propagation_to_parameters={true,true}, allow_spmd_sharding_propagation_to_output={true,true}, frontend_attributes={fingerprint_before_lhs="293c83001893c0f83ff7bd8e93f8b9be"}

%fused_multiply (param_0: c128[3,9,1963,102], param_1.1: c128[9,1963,102]) -> c128[3,9,1963,102] {
  %param_0 = c128[3,9,1963,102]{3,2,1,0} parameter(0), metadata={scheduling_name="param_0"}
  %param_1.1 = c128[9,1963,102]{2,1,0} parameter(1), metadata={scheduling_name="param_1.1"}
  %broadcast.18.1 = c128[3,9,1963,102]{3,2,1,0} broadcast(%param_1.1), dimensions={1,2,3}, metadata={op_name="jit(exp)/jit(main)/mul" source_file="/global/homes/j/jackm/software/lorrax_B/src/psp/vnl_ops.py" source_line=373 scheduling_name="broadcast.18.1"}
  ROOT %multiply.30.1 = c128[3,9,1963,102]{3,2,1,0} multiply(%param_0, %broadcast.18.1), metadata={op_name="jit(exp)/jit(main)/mul" source_file="/global/homes/j/jackm/software/lorrax_B/src/psp/vnl_ops.py" source_line=373 scheduling_name="multiply.30.1"}
}

%fused_complex (param_0.20: c128[9,1963,102]) -> c128[9,1963,102] {
  %param_0.20 = c128[9,1963,102]{2,1,0} parameter(0), metadata={scheduling_name="param_0.20"}
  %real.2.1 = f64[9,1963,102]{2,1,0} real(%param_0.20), metadata={op_name="jit(exp)/jit(main)/exp" source_file="/global/homes/j/jackm/software/lorrax_B/src/psp/vnl_ops.py" source_line=373 scheduling_name="real.2.1"}
  %exponential.4.1 = f64[9,1963,102]{2,1,0} exponential(%real.2.1), metadata={op_name="jit(exp)/jit(main)/exp" source_file="/global/homes/j/jackm/software/lorrax_B/src/psp/vnl_ops.py" source_line=373 scheduling_name="exponential.4.1"}
  %constant_7_1 = f64[] constant(inf)
  %broadcast.14.1 = f64[9,1963,102]{2,1,0} broadcast(%constant_7_1), dimensions={}, metadata={scheduling_name="broadcast.14.1"}
  %compare.4.1 = pred[9,1963,102]{2,1,0} compare(%exponential.4.1, %broadcast.14.1), direction=EQ, metadata={op_name="jit(exp)/jit(main)/exp" source_file="/global/homes/j/jackm/software/lorrax_B/src/psp/vnl_ops.py" source_line=373 scheduling_name="compare.4.1"}
  %constant_5_1 = f64[] constant(0.5)
  %broadcast.15.1 = f64[9,1963,102]{2,1,0} broadcast(%constant_5_1), dimensions={}, metadata={scheduling_name="broadcast.15.1"}
  %multiply.20.3 = f64[9,1963,102]{2,1,0} multiply(%real.2.1, %broadcast.15.1), metadata={op_name="jit(exp)/jit(main)/exp" source_file="/global/homes/j/jackm/software/lorrax_B/src/psp/vnl_ops.py" source_line=373 scheduling_name="multiply.20.3"}
  %exponential.5.3 = f64[9,1963,102]{2,1,0} exponential(%multiply.20.3), metadata={op_name="jit(exp)/jit(main)/exp" source_file="/global/homes/j/jackm/software/lorrax_B/src/psp/vnl_ops.py" source_line=373 scheduling_name="exponential.5.3"}
  %imag.2.2 = f64[9,1963,102]{2,1,0} imag(%param_0.20), metadata={op_name="jit(exp)/jit(main)/exp" source_file="/global/homes/j/jackm/software/lorrax_B/src/psp/vnl_ops.py" source_line=373 scheduling_name="imag.2.2"}
  %cosine.2.1 = f64[9,1963,102]{2,1,0} cosine(%imag.2.2), metadata={op_name="jit(exp)/jit(main)/exp" source_file="/global/homes/j/jackm/software/lorrax_B/src/psp/vnl_ops.py" source_line=373 scheduling_name="cosine.2.1"}
  %multiply.21.3 = f64[9,1963,102]{2,1,0} multiply(%exponential.5.3, %cosine.2.1), metadata={op_name="jit(exp)/jit(main)/exp" source_file="/global/homes/j/jackm/software/lorrax_B/src/psp/vnl_ops.py" source_line=373 scheduling_name="multiply.21.3"}
  %multiply.25.3 = f64[9,1963,102]{2,1,0} multiply(%multiply.21.3, %exponential.5.3), metadata={op_name="jit(exp)/jit(main)/exp" source_file="/global/homes/j/jackm/software/lorrax_B/src/psp/vnl_ops.py" source_line=373 scheduling_name="multiply.25.3"}
  %multiply.26.1 = f64[9,1963,102]{2,1,0} multiply(%exponential.4.1, %cosine.2.1), metadata={op_name="jit(exp)/jit(main)/exp" source_file="/global/homes/j/jackm/software/lorrax_B/src/psp/vnl_ops.py" source_line=373 scheduling_name="multiply.26.1"}
  %select.6.1 = f64[9,1963,102]{2,1,0} select(%compare.4.1, %multiply.25.3, %multiply.26.1), metadata={op_name="jit(exp)/jit(main)/exp" source_file="/global/homes/j/jackm/software/lorrax_B/src/psp/vnl_ops.py" source_line=373 scheduling_name="select.6.1"}
  %constant_3_1 = f64[] constant(0)
  %broadcast.16.6 = f64[9,1963,102]{2,1,0} broadcast(%constant_3_1), dimensions={}, metadata={scheduling_name="broadcast.16.6"}
  %compare.5.3 = pred[9,1963,102]{2,1,0} compare(%imag.2.2, %broadcast.16.6), direction=EQ, metadata={op_name="jit(exp)/jit(main)/exp" source_file="/global/homes/j/jackm/software/lorrax_B/src/psp/vnl_ops.py" source_line=373 scheduling_name="compare.5.3"}
  %sine.2.3 = f64[9,1963,102]{2,1,0} sine(%imag.2.2), metadata={op_name="jit(exp)/jit(main)/exp" source_file="/global/homes/j/jackm/software/lorrax_B/src/psp/vnl_ops.py" source_line=373 scheduling_name="sine.2.3"}
  %multiply.27.5 = f64[9,1963,102]{2,1,0} multiply(%exponential.5.3, %sine.2.3), metadata={op_name="jit(exp)/jit(main)/exp" source_file="/global/homes/j/jackm/software/lorrax_B/src/psp/vnl_ops.py" source_line=373 scheduling_name="multiply.27.5"}
  %multiply.28.5 = f64[9,1963,102]{2,1,0} multiply(%multiply.27.5, %exponential.5.3), metadata={op_name="jit(exp)/jit(main)/exp" source_file="/global/homes/j/jackm/software/lorrax_B/src/psp/vnl_ops.py" source_line=373 scheduling_name="multiply.28.5"}
  %multiply.29.3 = f64[9,1963,102]{2,1,0} multiply(%exponential.4.1, %sine.2.3), metadata={op_name="jit(exp)/jit(main)/exp" source_file="/global/homes/j/jackm/software/lorrax_B/src/psp/vnl_ops.py" source_line=373 scheduling_name="multiply.29.3"}
  %select.7.3 = f64[9,1963,102]{2,1,0} select(%compare.4.1, %multiply.28.5, %multiply.29.3), metadata={op_name="jit(exp)/jit(main)/exp" source_file="/global/homes/j/jackm/software/lorrax_B/src/psp/vnl_ops.py" source_line=373 scheduling_name="select.7.3"}
  %select.8.3 = f64[9,1963,102]{2,1,0} select(%compare.5.3, %broadcast.16.6, %select.7.3), metadata={op_name="jit(exp)/jit(main)/exp" source_file="/global/homes/j/jackm/software/lorrax_B/src/psp/vnl_ops.py" source_line=373 scheduling_name="select.8.3"}
  ROOT %complex.2.1 = c128[9,1963,102]{2,1,0} complex(%select.6.1, %select.8.3), metadata={op_name="jit(exp)/jit(main)/exp" source_file="/global/homes/j/jackm/software/lorrax_B/src/psp/vnl_ops.py" source_line=373 scheduling_name="complex.2.1"}
}

ENTRY %main.34 (Arg_0.1.0: c128[9,1963,102], Arg_1.2.0: c128[3,9,1963,102]) -> (c128[9,1963,102], c128[3,9,1963,102]) {
  %Arg_1.2.0 = c128[3,9,1963,102]{3,2,1,0} parameter(1), metadata={scheduling_name="Arg_1.2.0"}
  %Arg_0.1.0 = c128[9,1963,102]{2,1,0} parameter(0), metadata={scheduling_name="Arg_0.1.0"}
  %loop_complex_fusion = c128[9,1963,102]{2,1,0} fusion(%Arg_0.1.0), kind=kLoop, calls=%fused_complex, metadata={op_name="jit(exp)/jit(main)/exp" source_file="/global/homes/j/jackm/software/lorrax_B/src/psp/vnl_ops.py" source_line=373 scheduling_name="loop_complex_fusion"}
  %loop_multiply_fusion = c128[3,9,1963,102]{3,2,1,0} fusion(%Arg_1.2.0, %loop_complex_fusion), kind=kLoop, calls=%fused_multiply, metadata={op_name="jit(exp)/jit(main)/mul" source_file="/global/homes/j/jackm/software/lorrax_B/src/psp/vnl_ops.py" source_line=373 scheduling_name="loop_multiply_fusion"}
  ROOT %tuple.33.0 = (c128[9,1963,102]{2,1,0}, c128[3,9,1963,102]{3,2,1,0}) tuple(%loop_complex_fusion, %loop_multiply_fusion), metadata={scheduling_name="tuple.33.0"}
}

