HloModule jit__tpa, is_scheduled=true, entry_computation_layout={(f64[26,1963]{1,0})->f64[26,1963]{1,0}}, allow_spmd_sharding_propagation_to_parameters={true}, allow_spmd_sharding_propagation_to_output={true}, frontend_attributes={fingerprint_before_lhs="305febfdb96b6ce352e4f7e8fd6003f3"}

%fused_divide (param_0.7: f64[26,1963]) -> f64[26,1963] {
  %param_0.7 = f64[26,1963]{1,0} parameter(0), metadata={scheduling_name="param_0.7"}
  %constant_10_1 = f64[] constant(8)
  %broadcast.15.1 = f64[26,1963]{1,0} broadcast(%constant_10_1), dimensions={}, metadata={op_name="jit(_tpa)/jit(main)/mul" source_file="/global/homes/j/jackm/software/lorrax_B/src/solvers/sternheimer_precond.py" source_line=51 scheduling_name="broadcast.15.1"}
  %multiply.17.1 = f64[26,1963]{1,0} multiply(%param_0.7, %broadcast.15.1), metadata={op_name="jit(_tpa)/jit(main)/mul" source_file="/global/homes/j/jackm/software/lorrax_B/src/solvers/sternheimer_precond.py" source_line=51 scheduling_name="multiply.17.1"}
  %constant_8_1 = f64[] constant(12)
  %broadcast.16.1 = f64[26,1963]{1,0} broadcast(%constant_8_1), dimensions={}, metadata={scheduling_name="broadcast.16.1"}
  %add.8.1 = f64[26,1963]{1,0} add(%multiply.17.1, %broadcast.16.1), metadata={op_name="jit(_tpa)/jit(main)/add" source_file="/global/homes/j/jackm/software/lorrax_B/src/solvers/sternheimer_precond.py" source_line=51 scheduling_name="add.8.1"}
  %multiply.18.1 = f64[26,1963]{1,0} multiply(%param_0.7, %add.8.1), metadata={op_name="jit(_tpa)/jit(main)/mul" source_file="/global/homes/j/jackm/software/lorrax_B/src/solvers/sternheimer_precond.py" source_line=51 scheduling_name="multiply.18.1"}
  %constant_6_1 = f64[] constant(18)
  %broadcast.17.1 = f64[26,1963]{1,0} broadcast(%constant_6_1), dimensions={}, metadata={scheduling_name="broadcast.17.1"}
  %add.9.1 = f64[26,1963]{1,0} add(%multiply.18.1, %broadcast.17.1), metadata={op_name="jit(_tpa)/jit(main)/add" source_file="/global/homes/j/jackm/software/lorrax_B/src/solvers/sternheimer_precond.py" source_line=51 scheduling_name="add.9.1"}
  %multiply.19.1 = f64[26,1963]{1,0} multiply(%param_0.7, %add.9.1), metadata={op_name="jit(_tpa)/jit(main)/mul" source_file="/global/homes/j/jackm/software/lorrax_B/src/solvers/sternheimer_precond.py" source_line=51 scheduling_name="multiply.19.1"}
  %constant_4_1 = f64[] constant(27)
  %broadcast.18.1 = f64[26,1963]{1,0} broadcast(%constant_4_1), dimensions={}, metadata={scheduling_name="broadcast.18.1"}
  %add.10.1 = f64[26,1963]{1,0} add(%multiply.19.1, %broadcast.18.1), metadata={op_name="jit(_tpa)/jit(main)/add" source_file="/global/homes/j/jackm/software/lorrax_B/src/solvers/sternheimer_precond.py" source_line=51 scheduling_name="add.10.1"}
  %multiply.22.3 = f64[26,1963]{1,0} multiply(%param_0.7, %param_0.7), metadata={op_name="jit(_tpa)/jit(main)/mul" source_file="/global/homes/j/jackm/software/lorrax_B/src/solvers/sternheimer_precond.py" source_line=52 scheduling_name="multiply.22.3"}
  %multiply.24.3 = f64[26,1963]{1,0} multiply(%multiply.22.3, %multiply.22.3), metadata={op_name="jit(_tpa)/jit(main)/mul" source_file="/global/homes/j/jackm/software/lorrax_B/src/solvers/sternheimer_precond.py" source_line=52 scheduling_name="multiply.24.3"}
  %constant_2_1 = f64[] constant(16)
  %broadcast.19.1 = f64[26,1963]{1,0} broadcast(%constant_2_1), dimensions={}, metadata={scheduling_name="broadcast.19.1"}
  %multiply.25.1 = f64[26,1963]{1,0} multiply(%multiply.24.3, %broadcast.19.1), metadata={op_name="jit(_tpa)/jit(main)/mul" source_file="/global/homes/j/jackm/software/lorrax_B/src/solvers/sternheimer_precond.py" source_line=52 scheduling_name="multiply.25.1"}
  %add.11.1 = f64[26,1963]{1,0} add(%add.10.1, %multiply.25.1), metadata={op_name="jit(_tpa)/jit(main)/add" source_file="/global/homes/j/jackm/software/lorrax_B/src/solvers/sternheimer_precond.py" source_line=52 scheduling_name="add.11.1"}
  ROOT %divide.2.1 = f64[26,1963]{1,0} divide(%add.10.1, %add.11.1), metadata={op_name="jit(_tpa)/jit(main)/div" source_file="/global/homes/j/jackm/software/lorrax_B/src/solvers/sternheimer_precond.py" source_line=53 scheduling_name="divide.2.1"}
}

ENTRY %main.26 (Arg_0.1.0: f64[26,1963]) -> f64[26,1963] {
  %Arg_0.1.0 = f64[26,1963]{1,0} parameter(0), metadata={op_name="x" scheduling_name="Arg_0.1.0"}
  ROOT %loop_divide_fusion = f64[26,1963]{1,0} fusion(%Arg_0.1.0), kind=kLoop, calls=%fused_divide, metadata={op_name="jit(_tpa)/jit(main)/div" source_file="/global/homes/j/jackm/software/lorrax_B/src/solvers/sternheimer_precond.py" source_line=53 scheduling_name="loop_divide_fusion"}
}

