HloModule jit_multiply, is_scheduled=true, entry_computation_layout={(f64[], f64[9,1963]{1,0}, f64[9,1963]{1,0})->(f64[9,1963]{1,0}, f64[9,1963]{1,0})}, allow_spmd_sharding_propagation_to_parameters={true,true,true}, allow_spmd_sharding_propagation_to_output={true,true}, frontend_attributes={fingerprint_before_lhs="4fd61e5c645559337c88d24a21cd87dc"}

%fused_multiply (param_0_0: f64[9,1963], param_0_1: f64[], param_1_0: f64[9,1963]) -> (f64[9,1963], f64[9,1963]) {
  %param_0_1 = f64[] parameter(1), metadata={scheduling_name="param_0_1"}
  %broadcast.2.3 = f64[9,1963]{1,0} broadcast(%param_0_1), dimensions={}, metadata={op_name="jit(multiply)/jit(main)/mul" source_file="/global/homes/j/jackm/software/lorrax_B/src/psp/radial/solid_harmonics.py" source_line=86 scheduling_name="broadcast.2.3"}
  %param_0_0 = f64[9,1963]{1,0} parameter(0), metadata={scheduling_name="param_0_0"}
  %multiply.6.2 = f64[9,1963]{1,0} multiply(%broadcast.2.3, %param_0_0), metadata={op_name="jit(multiply)/jit(main)/mul" source_file="/global/homes/j/jackm/software/lorrax_B/src/psp/radial/solid_harmonics.py" source_line=86 scheduling_name="multiply.6.2"}
  %param_1_0 = f64[9,1963]{1,0} parameter(2), metadata={scheduling_name="param_1_0"}
  %multiply.4.2 = f64[9,1963]{1,0} multiply(%broadcast.2.3, %param_1_0), metadata={op_name="jit(multiply)/jit(main)/mul" source_file="/global/homes/j/jackm/software/lorrax_B/src/psp/radial/solid_harmonics.py" source_line=86 scheduling_name="multiply.4.2"}
  ROOT %tuple = (f64[9,1963]{1,0}, f64[9,1963]{1,0}) tuple(%multiply.6.2, %multiply.4.2), metadata={scheduling_name="tuple"}
}

ENTRY %main.9 (Arg_0.1.0: f64[], Arg_1.2.0: f64[9,1963], Arg_2.3.0: f64[9,1963]) -> (f64[9,1963], f64[9,1963]) {
  %Arg_0.1.0 = f64[] parameter(0), metadata={scheduling_name="Arg_0.1.0"}
  %Arg_2.3.0 = f64[9,1963]{1,0} parameter(2), metadata={scheduling_name="Arg_2.3.0"}
  %Arg_1.2.0 = f64[9,1963]{1,0} parameter(1), metadata={scheduling_name="Arg_1.2.0"}
  %loop_multiply_fusion = (f64[9,1963]{1,0}, f64[9,1963]{1,0}) fusion(%Arg_2.3.0, %Arg_0.1.0, %Arg_1.2.0), kind=kLoop, calls=%fused_multiply, metadata={scheduling_name="loop_multiply_fusion"}
  %get-tuple-element.1 = f64[9,1963]{1,0} get-tuple-element(%loop_multiply_fusion), index=1, metadata={op_name="jit(multiply)/jit(main)/mul" source_file="/global/homes/j/jackm/software/lorrax_B/src/psp/radial/solid_harmonics.py" source_line=86 scheduling_name="get-tuple-element.1"}
  %get-tuple-element = f64[9,1963]{1,0} get-tuple-element(%loop_multiply_fusion), index=0, metadata={op_name="jit(multiply)/jit(main)/mul" source_file="/global/homes/j/jackm/software/lorrax_B/src/psp/radial/solid_harmonics.py" source_line=86 scheduling_name="get-tuple-element"}
  ROOT %tuple.8.0 = (f64[9,1963]{1,0}, f64[9,1963]{1,0}) tuple(%get-tuple-element.1, %get-tuple-element), metadata={scheduling_name="tuple.8.0"}
}

