HloModule jit__where, is_scheduled=true, entry_computation_layout={(pred[60,16]{1,0}, f64[60,16]{1,0}, f64[60,16]{1,0})->f64[60,16]{1,0}}, allow_spmd_sharding_propagation_to_parameters={true,true,true}, allow_spmd_sharding_propagation_to_output={true}, frontend_attributes={fingerprint_before_lhs="4912287904ab54c2eb65d62ebbb8a247"}

%wrapped_select_computation (param_0: pred[60,16], param_1: f64[60,16], param_2: f64[60,16]) -> f64[60,16] {
  %param_0 = pred[60,16]{1,0} parameter(0), metadata={scheduling_name="param_0"}
  %param_1 = f64[60,16]{1,0} parameter(1), metadata={scheduling_name="param_1"}
  %param_2 = f64[60,16]{1,0} parameter(2), metadata={scheduling_name="param_2"}
  ROOT %select.2.1 = f64[60,16]{1,0} select(%param_0, %param_1, %param_2), metadata={op_name="jit(_where)/jit(main)/select_n" source_file="/global/homes/j/jackm/software/lorrax_C/src/bandstructure/htransform.py" source_line=282 scheduling_name="select.2.1"}
}

ENTRY %main.5 (Arg_0.1.0: pred[60,16], Arg_1.2.0: f64[60,16], Arg_2.3.0: f64[60,16]) -> f64[60,16] {
  %Arg_2.3.0 = f64[60,16]{1,0} parameter(2), metadata={op_name="y" scheduling_name="Arg_2.3.0"}
  %Arg_1.2.0 = f64[60,16]{1,0} parameter(1), metadata={op_name="x" scheduling_name="Arg_1.2.0"}
  %Arg_0.1.0 = pred[60,16]{1,0} parameter(0), metadata={op_name="condition" scheduling_name="Arg_0.1.0"}
  ROOT %wrapped_select = f64[60,16]{1,0} fusion(%Arg_0.1.0, %Arg_1.2.0, %Arg_2.3.0), kind=kLoop, calls=%wrapped_select_computation, metadata={op_name="jit(_where)/jit(main)/select_n" source_file="/global/homes/j/jackm/software/lorrax_C/src/bandstructure/htransform.py" source_line=282 scheduling_name="wrapped_select"}
}

