HloModule jit__tau_channel_step, entry_computation_layout={(c128[9,2,640,80]{3,2,1,0}, c128[9,80,2,640]{3,2,1,0}, c128[9,80,2,640]{3,2,1,0}, c128[9,2,640,80]{3,2,1,0}, f64[9,80]{1,0}, /*index=5*/pred[9,80]{1,0}, c128[9,640,640]{2,1,0}, f64[9,640,640]{2,1,0}, pred[9,640,640]{2,1,0}, f64[], /*index=10*/f64[], c128[], c128[80,80]{1,0})->c128[2,9,80,80]{3,2,1,0}}, allow_spmd_sharding_propagation_to_parameters={false,false,false,false,false,true,false,false,false,true,true,true,true}, allow_spmd_sharding_propagation_to_output={true}, num_partitions=4

%_where.14 (Arg_0.15: pred[9,80], Arg_1.16: c128[9,80], Arg_2.17: c128[]) -> c128[9,80] {
  %Arg_0.15 = pred[9,80]{1,0} parameter(0), metadata={op_name="jit(_tau_channel_step)/jit(main)/jit(_build_tau_operands)/pjit"}
  %Arg_1.16 = c128[9,80]{1,0} parameter(1), metadata={op_name="jit(_tau_channel_step)/jit(main)/jit(_build_tau_operands)/pjit"}
  %Arg_2.17 = c128[] parameter(2), metadata={op_name="jit(_tau_channel_step)/jit(main)/jit(_build_tau_operands)/pjit"}
  %broadcast.18 = c128[9,80]{1,0} broadcast(%Arg_2.17), dimensions={}, metadata={op_name="jit(_tau_channel_step)/jit(main)/jit(_build_tau_operands)/jit(_where)/broadcast_in_dim" source_file="/global/homes/j/jackm/software/lorrax_C/src/gw/ppm_sigma.py" source_line=278}
  ROOT %select.19 = c128[9,80]{1,0} select(%Arg_0.15, %Arg_1.16, %broadcast.18), metadata={op_name="jit(_tau_channel_step)/jit(main)/jit(_build_tau_operands)/jit(_where)/select_n" source_file="/global/homes/j/jackm/software/lorrax_C/src/gw/ppm_sigma.py" source_line=278}
}

%_where_0.20 (Arg_0.21: pred[9,640,640], Arg_1.22: c128[9,640,640], Arg_2.23: c128[]) -> c128[9,640,640] {
  %Arg_0.21 = pred[9,640,640]{2,1,0} parameter(0), metadata={op_name="jit(_tau_channel_step)/jit(main)/jit(_build_tau_operands)/pjit"}
  %Arg_1.22 = c128[9,640,640]{2,1,0} parameter(1), metadata={op_name="jit(_tau_channel_step)/jit(main)/jit(_build_tau_operands)/pjit"}
  %Arg_2.23 = c128[] parameter(2), metadata={op_name="jit(_tau_channel_step)/jit(main)/jit(_build_tau_operands)/pjit"}
  %broadcast.24 = c128[9,640,640]{2,1,0} broadcast(%Arg_2.23), dimensions={}, metadata={op_name="jit(_tau_channel_step)/jit(main)/jit(_build_tau_operands)/jit(_where)/broadcast_in_dim" source_file="/global/homes/j/jackm/software/lorrax_C/src/gw/ppm_sigma.py" source_line=282}
  ROOT %select.25 = c128[9,640,640]{2,1,0} select(%Arg_0.21, %Arg_1.22, %broadcast.24), metadata={op_name="jit(_tau_channel_step)/jit(main)/jit(_build_tau_operands)/jit(_where)/select_n" source_file="/global/homes/j/jackm/software/lorrax_C/src/gw/ppm_sigma.py" source_line=282}
}

%_build_tau_operands.26 (Arg_0.27: f64[9,80], Arg_1.28: pred[9,80], Arg_2.29: c128[9,640,640], Arg_3.30: f64[9,640,640], Arg_4.31: pred[9,640,640], Arg_5.32: f64[], Arg_6.33: f64[], Arg_7.34: c128[], Arg_8.35: c128[80,80]) -> (c128[9,80,80], c128[9,640,640]) {
  %Arg_8.35 = c128[80,80]{1,0} parameter(8), metadata={op_name="jit(_tau_channel_step)/jit(main)/pjit"}
  %reshape.79 = c128[1,80,80]{2,1,0} reshape(%Arg_8.35), metadata={op_name="jit(_tau_channel_step)/jit(main)/jit(_build_tau_operands)/broadcast_in_dim" source_file="/global/homes/j/jackm/software/lorrax_C/src/gw/ppm_sigma.py" source_line=279}
  %broadcast.81 = c128[1,80,80]{2,1,0} broadcast(%reshape.79), dimensions={0,1,2}, metadata={op_name="jit(_tau_channel_step)/jit(main)/jit(_build_tau_operands)/mul" source_file="/global/homes/j/jackm/software/lorrax_C/src/gw/ppm_sigma.py" source_line=279}
  %reshape.82 = c128[80,80]{1,0} reshape(%broadcast.81), metadata={op_name="jit(_tau_channel_step)/jit(main)/jit(_build_tau_operands)/mul" source_file="/global/homes/j/jackm/software/lorrax_C/src/gw/ppm_sigma.py" source_line=279}
  %broadcast.83 = c128[9,80,80]{2,1,0} broadcast(%reshape.82), dimensions={1,2}, metadata={op_name="jit(_tau_channel_step)/jit(main)/jit(_build_tau_operands)/mul" source_file="/global/homes/j/jackm/software/lorrax_C/src/gw/ppm_sigma.py" source_line=279}
  %Arg_1.28 = pred[9,80]{1,0} parameter(1), metadata={op_name="jit(_tau_channel_step)/jit(main)/pjit"}
  %Arg_0.27 = f64[9,80]{1,0} parameter(0), metadata={op_name="jit(_tau_channel_step)/jit(main)/pjit"}
  %Arg_5.32 = f64[] parameter(5), metadata={op_name="jit(_tau_channel_step)/jit(main)/pjit"}
  %broadcast.53 = f64[9,80]{1,0} broadcast(%Arg_5.32), dimensions={}, metadata={op_name="jit(_tau_channel_step)/jit(main)/jit(_build_tau_operands)/sub" source_file="/global/homes/j/jackm/software/lorrax_C/src/gw/ppm_sigma.py" source_line=277}
  %subtract.54 = f64[9,80]{1,0} subtract(%Arg_0.27, %broadcast.53), metadata={op_name="jit(_tau_channel_step)/jit(main)/jit(_build_tau_operands)/sub" source_file="/global/homes/j/jackm/software/lorrax_C/src/gw/ppm_sigma.py" source_line=277}
  %convert.55 = c128[9,80]{1,0} convert(%subtract.54), metadata={op_name="jit(_tau_channel_step)/jit(main)/jit(_build_tau_operands)/convert_element_type" source_file="/global/homes/j/jackm/software/lorrax_C/src/gw/ppm_sigma.py" source_line=277}
  %constant.38 = c128[] constant((-0, -1))
  %broadcast.39 = c128[9,80]{1,0} broadcast(%constant.38), dimensions={}
  %multiply.56 = c128[9,80]{1,0} multiply(%convert.55, %broadcast.39), metadata={op_name="jit(_tau_channel_step)/jit(main)/jit(_build_tau_operands)/mul" source_file="/global/homes/j/jackm/software/lorrax_C/src/gw/ppm_sigma.py" source_line=277}
  %Arg_7.34 = c128[] parameter(7), metadata={op_name="jit(_tau_channel_step)/jit(main)/pjit"}
  %broadcast.57 = c128[9,80]{1,0} broadcast(%Arg_7.34), dimensions={}, metadata={op_name="jit(_tau_channel_step)/jit(main)/jit(_build_tau_operands)/mul" source_file="/global/homes/j/jackm/software/lorrax_C/src/gw/ppm_sigma.py" source_line=277}
  %multiply.58 = c128[9,80]{1,0} multiply(%multiply.56, %broadcast.57), metadata={op_name="jit(_tau_channel_step)/jit(main)/jit(_build_tau_operands)/mul" source_file="/global/homes/j/jackm/software/lorrax_C/src/gw/ppm_sigma.py" source_line=277}
  %real.59 = f64[9,80]{1,0} real(%multiply.58), metadata={op_name="jit(_tau_channel_step)/jit(main)/jit(_build_tau_operands)/exp" source_file="/global/homes/j/jackm/software/lorrax_C/src/gw/ppm_sigma.py" source_line=277}
  %exponential.60 = f64[9,80]{1,0} exponential(%real.59), metadata={op_name="jit(_tau_channel_step)/jit(main)/jit(_build_tau_operands)/exp" source_file="/global/homes/j/jackm/software/lorrax_C/src/gw/ppm_sigma.py" source_line=277}
  %constant.50 = f64[] constant(inf)
  %broadcast.51 = f64[9,80]{1,0} broadcast(%constant.50), dimensions={}
  %compare.61 = pred[9,80]{1,0} compare(%exponential.60, %broadcast.51), direction=EQ, metadata={op_name="jit(_tau_channel_step)/jit(main)/jit(_build_tau_operands)/exp" source_file="/global/homes/j/jackm/software/lorrax_C/src/gw/ppm_sigma.py" source_line=277}
  %constant.48 = f64[] constant(0.5)
  %broadcast.49 = f64[9,80]{1,0} broadcast(%constant.48), dimensions={}
  %multiply.62 = f64[9,80]{1,0} multiply(%real.59, %broadcast.49), metadata={op_name="jit(_tau_channel_step)/jit(main)/jit(_build_tau_operands)/exp" source_file="/global/homes/j/jackm/software/lorrax_C/src/gw/ppm_sigma.py" source_line=277}
  %exponential.63 = f64[9,80]{1,0} exponential(%multiply.62), metadata={op_name="jit(_tau_channel_step)/jit(main)/jit(_build_tau_operands)/exp" source_file="/global/homes/j/jackm/software/lorrax_C/src/gw/ppm_sigma.py" source_line=277}
  %imag.64 = f64[9,80]{1,0} imag(%multiply.58), metadata={op_name="jit(_tau_channel_step)/jit(main)/jit(_build_tau_operands)/exp" source_file="/global/homes/j/jackm/software/lorrax_C/src/gw/ppm_sigma.py" source_line=277}
  %cosine.65 = f64[9,80]{1,0} cosine(%imag.64), metadata={op_name="jit(_tau_channel_step)/jit(main)/jit(_build_tau_operands)/exp" source_file="/global/homes/j/jackm/software/lorrax_C/src/gw/ppm_sigma.py" source_line=277}
  %multiply.66 = f64[9,80]{1,0} multiply(%exponential.63, %cosine.65), metadata={op_name="jit(_tau_channel_step)/jit(main)/jit(_build_tau_operands)/exp" source_file="/global/homes/j/jackm/software/lorrax_C/src/gw/ppm_sigma.py" source_line=277}
  %multiply.67 = f64[9,80]{1,0} multiply(%multiply.66, %exponential.63), metadata={op_name="jit(_tau_channel_step)/jit(main)/jit(_build_tau_operands)/exp" source_file="/global/homes/j/jackm/software/lorrax_C/src/gw/ppm_sigma.py" source_line=277}
  %multiply.68 = f64[9,80]{1,0} multiply(%exponential.60, %cosine.65), metadata={op_name="jit(_tau_channel_step)/jit(main)/jit(_build_tau_operands)/exp" source_file="/global/homes/j/jackm/software/lorrax_C/src/gw/ppm_sigma.py" source_line=277}
  %select.69 = f64[9,80]{1,0} select(%compare.61, %multiply.67, %multiply.68), metadata={op_name="jit(_tau_channel_step)/jit(main)/jit(_build_tau_operands)/exp" source_file="/global/homes/j/jackm/software/lorrax_C/src/gw/ppm_sigma.py" source_line=277}
  %constant.46 = f64[] constant(0)
  %broadcast.47 = f64[9,80]{1,0} broadcast(%constant.46), dimensions={}
  %compare.70 = pred[9,80]{1,0} compare(%imag.64, %broadcast.47), direction=EQ, metadata={op_name="jit(_tau_channel_step)/jit(main)/jit(_build_tau_operands)/exp" source_file="/global/homes/j/jackm/software/lorrax_C/src/gw/ppm_sigma.py" source_line=277}
  %sine.71 = f64[9,80]{1,0} sine(%imag.64), metadata={op_name="jit(_tau_channel_step)/jit(main)/jit(_build_tau_operands)/exp" source_file="/global/homes/j/jackm/software/lorrax_C/src/gw/ppm_sigma.py" source_line=277}
  %multiply.72 = f64[9,80]{1,0} multiply(%exponential.63, %sine.71), metadata={op_name="jit(_tau_channel_step)/jit(main)/jit(_build_tau_operands)/exp" source_file="/global/homes/j/jackm/software/lorrax_C/src/gw/ppm_sigma.py" source_line=277}
  %multiply.73 = f64[9,80]{1,0} multiply(%multiply.72, %exponential.63), metadata={op_name="jit(_tau_channel_step)/jit(main)/jit(_build_tau_operands)/exp" source_file="/global/homes/j/jackm/software/lorrax_C/src/gw/ppm_sigma.py" source_line=277}
  %multiply.74 = f64[9,80]{1,0} multiply(%exponential.60, %sine.71), metadata={op_name="jit(_tau_channel_step)/jit(main)/jit(_build_tau_operands)/exp" source_file="/global/homes/j/jackm/software/lorrax_C/src/gw/ppm_sigma.py" source_line=277}
  %select.75 = f64[9,80]{1,0} select(%compare.61, %multiply.73, %multiply.74), metadata={op_name="jit(_tau_channel_step)/jit(main)/jit(_build_tau_operands)/exp" source_file="/global/homes/j/jackm/software/lorrax_C/src/gw/ppm_sigma.py" source_line=277}
  %select.76 = f64[9,80]{1,0} select(%compare.70, %broadcast.47, %select.75), metadata={op_name="jit(_tau_channel_step)/jit(main)/jit(_build_tau_operands)/exp" source_file="/global/homes/j/jackm/software/lorrax_C/src/gw/ppm_sigma.py" source_line=277}
  %complex.77 = c128[9,80]{1,0} complex(%select.69, %select.76), metadata={op_name="jit(_tau_channel_step)/jit(main)/jit(_build_tau_operands)/exp" source_file="/global/homes/j/jackm/software/lorrax_C/src/gw/ppm_sigma.py" source_line=277}
  %constant.52 = c128[] constant((0, 0))
  %call.78 = c128[9,80]{1,0} call(%Arg_1.28, %complex.77, %constant.52), to_apply=%_where.14
  %reshape.80 = c128[9,80,1]{2,1,0} reshape(%call.78), metadata={op_name="jit(_tau_channel_step)/jit(main)/jit(_build_tau_operands)/broadcast_in_dim" source_file="/global/homes/j/jackm/software/lorrax_C/src/gw/ppm_sigma.py" source_line=279}
  %broadcast.84 = c128[9,80,1]{2,1,0} broadcast(%reshape.80), dimensions={0,1,2}, metadata={op_name="jit(_tau_channel_step)/jit(main)/jit(_build_tau_operands)/mul" source_file="/global/homes/j/jackm/software/lorrax_C/src/gw/ppm_sigma.py" source_line=279}
  %reshape.85 = c128[9,80]{1,0} reshape(%broadcast.84), metadata={op_name="jit(_tau_channel_step)/jit(main)/jit(_build_tau_operands)/mul" source_file="/global/homes/j/jackm/software/lorrax_C/src/gw/ppm_sigma.py" source_line=279}
  %broadcast.86 = c128[9,80,80]{2,1,0} broadcast(%reshape.85), dimensions={0,1}, metadata={op_name="jit(_tau_channel_step)/jit(main)/jit(_build_tau_operands)/mul" source_file="/global/homes/j/jackm/software/lorrax_C/src/gw/ppm_sigma.py" source_line=279}
  %multiply.87 = c128[9,80,80]{2,1,0} multiply(%broadcast.83, %broadcast.86), metadata={op_name="jit(_tau_channel_step)/jit(main)/jit(_build_tau_operands)/mul" source_file="/global/homes/j/jackm/software/lorrax_C/src/gw/ppm_sigma.py" source_line=279}
  %Arg_4.31 = pred[9,640,640]{2,1,0} parameter(4), metadata={op_name="jit(_tau_channel_step)/jit(main)/pjit"}
  %Arg_2.29 = c128[9,640,640]{2,1,0} parameter(2), metadata={op_name="jit(_tau_channel_step)/jit(main)/pjit"}
  %Arg_3.30 = f64[9,640,640]{2,1,0} parameter(3), metadata={op_name="jit(_tau_channel_step)/jit(main)/pjit"}
  %Arg_6.33 = f64[] parameter(6), metadata={op_name="jit(_tau_channel_step)/jit(main)/pjit"}
  %broadcast.88 = f64[9,640,640]{2,1,0} broadcast(%Arg_6.33), dimensions={}, metadata={op_name="jit(_tau_channel_step)/jit(main)/jit(_build_tau_operands)/sub" source_file="/global/homes/j/jackm/software/lorrax_C/src/gw/ppm_sigma.py" source_line=281}
  %subtract.89 = f64[9,640,640]{2,1,0} subtract(%Arg_3.30, %broadcast.88), metadata={op_name="jit(_tau_channel_step)/jit(main)/jit(_build_tau_operands)/sub" source_file="/global/homes/j/jackm/software/lorrax_C/src/gw/ppm_sigma.py" source_line=281}
  %convert.90 = c128[9,640,640]{2,1,0} convert(%subtract.89), metadata={op_name="jit(_tau_channel_step)/jit(main)/jit(_build_tau_operands)/convert_element_type" source_file="/global/homes/j/jackm/software/lorrax_C/src/gw/ppm_sigma.py" source_line=281}
  %constant.36 = c128[] constant((-0, -1))
  %broadcast.37 = c128[9,640,640]{2,1,0} broadcast(%constant.36), dimensions={}
  %multiply.91 = c128[9,640,640]{2,1,0} multiply(%convert.90, %broadcast.37), metadata={op_name="jit(_tau_channel_step)/jit(main)/jit(_build_tau_operands)/mul" source_file="/global/homes/j/jackm/software/lorrax_C/src/gw/ppm_sigma.py" source_line=281}
  %broadcast.92 = c128[9,640,640]{2,1,0} broadcast(%Arg_7.34), dimensions={}, metadata={op_name="jit(_tau_channel_step)/jit(main)/jit(_build_tau_operands)/mul" source_file="/global/homes/j/jackm/software/lorrax_C/src/gw/ppm_sigma.py" source_line=281}
  %multiply.93 = c128[9,640,640]{2,1,0} multiply(%multiply.91, %broadcast.92), metadata={op_name="jit(_tau_channel_step)/jit(main)/jit(_build_tau_operands)/mul" source_file="/global/homes/j/jackm/software/lorrax_C/src/gw/ppm_sigma.py" source_line=281}
  %real.94 = f64[9,640,640]{2,1,0} real(%multiply.93), metadata={op_name="jit(_tau_channel_step)/jit(main)/jit(_build_tau_operands)/exp" source_file="/global/homes/j/jackm/software/lorrax_C/src/gw/ppm_sigma.py" source_line=281}
  %exponential.95 = f64[9,640,640]{2,1,0} exponential(%real.94), metadata={op_name="jit(_tau_channel_step)/jit(main)/jit(_build_tau_operands)/exp" source_file="/global/homes/j/jackm/software/lorrax_C/src/gw/ppm_sigma.py" source_line=281}
  %constant.44 = f64[] constant(inf)
  %broadcast.45 = f64[9,640,640]{2,1,0} broadcast(%constant.44), dimensions={}
  %compare.96 = pred[9,640,640]{2,1,0} compare(%exponential.95, %broadcast.45), direction=EQ, metadata={op_name="jit(_tau_channel_step)/jit(main)/jit(_build_tau_operands)/exp" source_file="/global/homes/j/jackm/software/lorrax_C/src/gw/ppm_sigma.py" source_line=281}
  %constant.42 = f64[] constant(0.5)
  %broadcast.43 = f64[9,640,640]{2,1,0} broadcast(%constant.42), dimensions={}
  %multiply.97 = f64[9,640,640]{2,1,0} multiply(%real.94, %broadcast.43), metadata={op_name="jit(_tau_channel_step)/jit(main)/jit(_build_tau_operands)/exp" source_file="/global/homes/j/jackm/software/lorrax_C/src/gw/ppm_sigma.py" source_line=281}
  %exponential.98 = f64[9,640,640]{2,1,0} exponential(%multiply.97), metadata={op_name="jit(_tau_channel_step)/jit(main)/jit(_build_tau_operands)/exp" source_file="/global/homes/j/jackm/software/lorrax_C/src/gw/ppm_sigma.py" source_line=281}
  %imag.99 = f64[9,640,640]{2,1,0} imag(%multiply.93), metadata={op_name="jit(_tau_channel_step)/jit(main)/jit(_build_tau_operands)/exp" source_file="/global/homes/j/jackm/software/lorrax_C/src/gw/ppm_sigma.py" source_line=281}
  %cosine.100 = f64[9,640,640]{2,1,0} cosine(%imag.99), metadata={op_name="jit(_tau_channel_step)/jit(main)/jit(_build_tau_operands)/exp" source_file="/global/homes/j/jackm/software/lorrax_C/src/gw/ppm_sigma.py" source_line=281}
  %multiply.101 = f64[9,640,640]{2,1,0} multiply(%exponential.98, %cosine.100), metadata={op_name="jit(_tau_channel_step)/jit(main)/jit(_build_tau_operands)/exp" source_file="/global/homes/j/jackm/software/lorrax_C/src/gw/ppm_sigma.py" source_line=281}
  %multiply.102 = f64[9,640,640]{2,1,0} multiply(%multiply.101, %exponential.98), metadata={op_name="jit(_tau_channel_step)/jit(main)/jit(_build_tau_operands)/exp" source_file="/global/homes/j/jackm/software/lorrax_C/src/gw/ppm_sigma.py" source_line=281}
  %multiply.103 = f64[9,640,640]{2,1,0} multiply(%exponential.95, %cosine.100), metadata={op_name="jit(_tau_channel_step)/jit(main)/jit(_build_tau_operands)/exp" source_file="/global/homes/j/jackm/software/lorrax_C/src/gw/ppm_sigma.py" source_line=281}
  %select.104 = f64[9,640,640]{2,1,0} select(%compare.96, %multiply.102, %multiply.103), metadata={op_name="jit(_tau_channel_step)/jit(main)/jit(_build_tau_operands)/exp" source_file="/global/homes/j/jackm/software/lorrax_C/src/gw/ppm_sigma.py" source_line=281}
  %constant.40 = f64[] constant(0)
  %broadcast.41 = f64[9,640,640]{2,1,0} broadcast(%constant.40), dimensions={}
  %compare.105 = pred[9,640,640]{2,1,0} compare(%imag.99, %broadcast.41), direction=EQ, metadata={op_name="jit(_tau_channel_step)/jit(main)/jit(_build_tau_operands)/exp" source_file="/global/homes/j/jackm/software/lorrax_C/src/gw/ppm_sigma.py" source_line=281}
  %sine.106 = f64[9,640,640]{2,1,0} sine(%imag.99), metadata={op_name="jit(_tau_channel_step)/jit(main)/jit(_build_tau_operands)/exp" source_file="/global/homes/j/jackm/software/lorrax_C/src/gw/ppm_sigma.py" source_line=281}
  %multiply.107 = f64[9,640,640]{2,1,0} multiply(%exponential.98, %sine.106), metadata={op_name="jit(_tau_channel_step)/jit(main)/jit(_build_tau_operands)/exp" source_file="/global/homes/j/jackm/software/lorrax_C/src/gw/ppm_sigma.py" source_line=281}
  %multiply.108 = f64[9,640,640]{2,1,0} multiply(%multiply.107, %exponential.98), metadata={op_name="jit(_tau_channel_step)/jit(main)/jit(_build_tau_operands)/exp" source_file="/global/homes/j/jackm/software/lorrax_C/src/gw/ppm_sigma.py" source_line=281}
  %multiply.109 = f64[9,640,640]{2,1,0} multiply(%exponential.95, %sine.106), metadata={op_name="jit(_tau_channel_step)/jit(main)/jit(_build_tau_operands)/exp" source_file="/global/homes/j/jackm/software/lorrax_C/src/gw/ppm_sigma.py" source_line=281}
  %select.110 = f64[9,640,640]{2,1,0} select(%compare.96, %multiply.108, %multiply.109), metadata={op_name="jit(_tau_channel_step)/jit(main)/jit(_build_tau_operands)/exp" source_file="/global/homes/j/jackm/software/lorrax_C/src/gw/ppm_sigma.py" source_line=281}
  %select.111 = f64[9,640,640]{2,1,0} select(%compare.105, %broadcast.41, %select.110), metadata={op_name="jit(_tau_channel_step)/jit(main)/jit(_build_tau_operands)/exp" source_file="/global/homes/j/jackm/software/lorrax_C/src/gw/ppm_sigma.py" source_line=281}
  %complex.112 = c128[9,640,640]{2,1,0} complex(%select.104, %select.111), metadata={op_name="jit(_tau_channel_step)/jit(main)/jit(_build_tau_operands)/exp" source_file="/global/homes/j/jackm/software/lorrax_C/src/gw/ppm_sigma.py" source_line=281}
  %multiply.113 = c128[9,640,640]{2,1,0} multiply(%Arg_2.29, %complex.112), metadata={op_name="jit(_tau_channel_step)/jit(main)/jit(_build_tau_operands)/mul" source_file="/global/homes/j/jackm/software/lorrax_C/src/gw/ppm_sigma.py" source_line=282}
  %call.114 = c128[9,640,640]{2,1,0} call(%Arg_4.31, %multiply.113, %constant.52), to_apply=%_where_0.20
  %custom-call.115 = c128[9,640,640]{2,1,0} custom-call(%call.114), custom_call_target="Sharding", sharding={devices=[1,2,2]<=[4]}, metadata={op_name="jit(_tau_channel_step)/jit(main)/jit(_build_tau_operands)/sharding_constraint" source_file="/global/homes/j/jackm/software/lorrax_C/src/gw/ppm_sigma.py" source_line=283}
  ROOT %tuple.116 = (c128[9,80,80]{2,1,0}, c128[9,640,640]{2,1,0}) tuple(%multiply.87, %custom-call.115)
}

%_sigma_channel_pipeline.120 (Arg_0.121: c128[9,2,640,80], Arg_1.122: c128[9,80,2,640], Arg_2.123: c128[9,80,2,640], Arg_3.124: c128[9,2,640,80], Arg_4.125: c128[9,80,80], Arg_5.126: c128[9,640,640]) -> c128[2,9,80,80] {
  %Arg_3.124 = c128[9,2,640,80]{3,2,1,0} parameter(3), metadata={op_name="jit(_tau_channel_step)/jit(main)/pjit"}
  %Arg_4.125 = c128[9,80,80]{2,1,0} parameter(4), metadata={op_name="jit(_tau_channel_step)/jit(main)/pjit"}
  %Arg_0.121 = c128[9,2,640,80]{3,2,1,0} parameter(0), metadata={op_name="jit(_tau_channel_step)/jit(main)/pjit"}
  %dot.132 = c128[9,80,2,640]{3,2,1,0} dot(%Arg_4.125, %Arg_0.121), lhs_batch_dims={0}, lhs_contracting_dims={1}, rhs_batch_dims={0}, rhs_contracting_dims={3}, metadata={op_name="jit(_tau_channel_step)/jit(main)/jit(_sigma_channel_pipeline)/ksxi,kij,kjty->ksxty/dot_general" source_file="/global/homes/j/jackm/software/lorrax_C/src/gw/greens_function_kernel.py" source_line=25}
  %Arg_1.122 = c128[9,80,2,640]{3,2,1,0} parameter(1), metadata={op_name="jit(_tau_channel_step)/jit(main)/pjit"}
  %real.128 = f64[9,80,2,640]{3,2,1,0} real(%Arg_1.122), metadata={op_name="jit(_tau_channel_step)/jit(main)/jit(_sigma_channel_pipeline)/real" source_file="/global/homes/j/jackm/software/lorrax_C/src/gw/greens_function_kernel.py" source_line=26}
  %imag.129 = f64[9,80,2,640]{3,2,1,0} imag(%Arg_1.122), metadata={op_name="jit(_tau_channel_step)/jit(main)/jit(_sigma_channel_pipeline)/imag" source_file="/global/homes/j/jackm/software/lorrax_C/src/gw/greens_function_kernel.py" source_line=26}
  %negate.130 = f64[9,80,2,640]{3,2,1,0} negate(%imag.129), metadata={op_name="jit(_tau_channel_step)/jit(main)/jit(_sigma_channel_pipeline)/neg" source_file="/global/homes/j/jackm/software/lorrax_C/src/gw/greens_function_kernel.py" source_line=26}
  %complex.131 = c128[9,80,2,640]{3,2,1,0} complex(%real.128, %negate.130), metadata={op_name="jit(_tau_channel_step)/jit(main)/jit(_sigma_channel_pipeline)/complex" source_file="/global/homes/j/jackm/software/lorrax_C/src/gw/greens_function_kernel.py" source_line=26}
  %dot.133 = c128[9,2,640,2,640]{4,3,2,1,0} dot(%dot.132, %complex.131), lhs_batch_dims={0}, lhs_contracting_dims={1}, rhs_batch_dims={0}, rhs_contracting_dims={1}, metadata={op_name="jit(_tau_channel_step)/jit(main)/jit(_sigma_channel_pipeline)/ksxi,kij,kjty->ksxty/dot_general" source_file="/global/homes/j/jackm/software/lorrax_C/src/gw/greens_function_kernel.py" source_line=25}
  %reshape.134 = c128[3,3,1,2,640,2,640]{6,5,4,3,2,1,0} reshape(%dot.133), metadata={op_name="jit(_tau_channel_step)/jit(main)/jit(_sigma_channel_pipeline)/reshape" source_file="/global/homes/j/jackm/software/lorrax_C/src/gw/ppm_sigma.py" source_line=221}
  %custom-call.135 = c128[3,3,1,2,640,2,640]{6,5,4,3,2,1,0} custom-call(%reshape.134), custom_call_target="Sharding", sharding={devices=[1,1,1,1,2,1,2]<=[4]}, metadata={op_name="jit(_tau_channel_step)/jit(main)/jit(_sigma_channel_pipeline)/sharding_constraint" source_file="/global/homes/j/jackm/software/lorrax_C/src/gw/ppm_sigma.py" source_line=221}
  %custom-call.136 = c128[3,3,1,2,640,2,640]{6,5,4,3,2,1,0} custom-call(%custom-call.135), custom_call_target="CustomSPMDPartitioning", api_version=API_VERSION_STATUS_RETURNING, metadata={op_name="jit(_tau_channel_step)/jit(main)/jit(_sigma_channel_pipeline)/custom_partitioning" source_file="/global/homes/j/jackm/software/lorrax_C/src/common/fft_helpers.py" source_line=157}, backend_config="140683131195312"
  %custom-call.137 = c128[3,3,1,2,640,2,640]{6,5,4,3,2,1,0} custom-call(%custom-call.136), custom_call_target="CustomSPMDPartitioning", api_version=API_VERSION_STATUS_RETURNING, metadata={op_name="jit(_tau_channel_step)/jit(main)/jit(_sigma_channel_pipeline)/custom_partitioning" source_file="/global/homes/j/jackm/software/lorrax_C/src/common/fft_helpers.py" source_line=157}, backend_config="140681524892336"
  %custom-call.138 = c128[3,3,1,2,640,2,640]{6,5,4,3,2,1,0} custom-call(%custom-call.137), custom_call_target="CustomSPMDPartitioning", api_version=API_VERSION_STATUS_RETURNING, metadata={op_name="jit(_tau_channel_step)/jit(main)/jit(_sigma_channel_pipeline)/custom_partitioning" source_file="/global/homes/j/jackm/software/lorrax_C/src/common/fft_helpers.py" source_line=157}, backend_config="140681524892576"
  %reshape.139 = c128[9,2,640,2,640]{4,3,2,1,0} reshape(%custom-call.138), metadata={op_name="jit(_tau_channel_step)/jit(main)/jit(_sigma_channel_pipeline)/reshape" source_file="/global/homes/j/jackm/software/lorrax_C/src/gw/ppm_sigma.py" source_line=222}
  %Arg_5.126 = c128[9,640,640]{2,1,0} parameter(5), metadata={op_name="jit(_tau_channel_step)/jit(main)/pjit"}
  %reshape.140 = c128[3,3,1,640,640]{4,3,2,1,0} reshape(%Arg_5.126), metadata={op_name="jit(_tau_channel_step)/jit(main)/jit(_sigma_channel_pipeline)/reshape" source_file="/global/homes/j/jackm/software/lorrax_C/src/gw/ppm_sigma.py" source_line=225}
  %custom-call.141 = c128[3,3,1,640,640]{4,3,2,1,0} custom-call(%reshape.140), custom_call_target="Sharding", sharding={devices=[1,1,1,2,2]<=[4]}, metadata={op_name="jit(_tau_channel_step)/jit(main)/jit(_sigma_channel_pipeline)/sharding_constraint" source_file="/global/homes/j/jackm/software/lorrax_C/src/gw/ppm_sigma.py" source_line=225}
  %custom-call.142 = c128[3,3,1,640,640]{4,3,2,1,0} custom-call(%custom-call.141), custom_call_target="CustomSPMDPartitioning", api_version=API_VERSION_STATUS_RETURNING, metadata={op_name="jit(_tau_channel_step)/jit(main)/jit(_sigma_channel_pipeline)/custom_partitioning" source_file="/global/homes/j/jackm/software/lorrax_C/src/common/fft_helpers.py" source_line=157}, backend_config="140681524893008"
  %custom-call.143 = c128[3,3,1,640,640]{4,3,2,1,0} custom-call(%custom-call.142), custom_call_target="CustomSPMDPartitioning", api_version=API_VERSION_STATUS_RETURNING, metadata={op_name="jit(_tau_channel_step)/jit(main)/jit(_sigma_channel_pipeline)/custom_partitioning" source_file="/global/homes/j/jackm/software/lorrax_C/src/common/fft_helpers.py" source_line=157}, backend_config="140681524893488"
  %custom-call.144 = c128[3,3,1,640,640]{4,3,2,1,0} custom-call(%custom-call.143), custom_call_target="CustomSPMDPartitioning", api_version=API_VERSION_STATUS_RETURNING, metadata={op_name="jit(_tau_channel_step)/jit(main)/jit(_sigma_channel_pipeline)/custom_partitioning" source_file="/global/homes/j/jackm/software/lorrax_C/src/common/fft_helpers.py" source_line=157}, backend_config="140681524893728"
  %reshape.145 = c128[9,1,640,1,640]{4,3,2,1,0} reshape(%custom-call.144), metadata={op_name="jit(_tau_channel_step)/jit(main)/jit(_sigma_channel_pipeline)/broadcast_in_dim" source_file="/global/homes/j/jackm/software/lorrax_C/src/gw/ppm_sigma.py" source_line=242}
  %broadcast.146 = c128[9,1,640,1,640]{4,3,2,1,0} broadcast(%reshape.145), dimensions={0,1,2,3,4}, metadata={op_name="jit(_tau_channel_step)/jit(main)/jit(_sigma_channel_pipeline)/mul" source_file="/global/homes/j/jackm/software/lorrax_C/src/gw/ppm_sigma.py" source_line=243}
  %reshape.147 = c128[9,640,640]{2,1,0} reshape(%broadcast.146), metadata={op_name="jit(_tau_channel_step)/jit(main)/jit(_sigma_channel_pipeline)/mul" source_file="/global/homes/j/jackm/software/lorrax_C/src/gw/ppm_sigma.py" source_line=243}
  %broadcast.148 = c128[9,2,640,2,640]{4,3,2,1,0} broadcast(%reshape.147), dimensions={0,2,4}, metadata={op_name="jit(_tau_channel_step)/jit(main)/jit(_sigma_channel_pipeline)/mul" source_file="/global/homes/j/jackm/software/lorrax_C/src/gw/ppm_sigma.py" source_line=243}
  %multiply.149 = c128[9,2,640,2,640]{4,3,2,1,0} multiply(%reshape.139, %broadcast.148), metadata={op_name="jit(_tau_channel_step)/jit(main)/jit(_sigma_channel_pipeline)/mul" source_file="/global/homes/j/jackm/software/lorrax_C/src/gw/ppm_sigma.py" source_line=243}
  %constant.127 = f64[] constant(-0.33333333333333331)
  %convert.150 = c128[] convert(%constant.127), metadata={op_name="jit(_tau_channel_step)/jit(main)/jit(_sigma_channel_pipeline)/convert_element_type" source_file="/global/homes/j/jackm/software/lorrax_C/src/gw/ppm_sigma.py" source_line=243}
  %broadcast.151 = c128[9,2,640,2,640]{4,3,2,1,0} broadcast(%convert.150), dimensions={}, metadata={op_name="jit(_tau_channel_step)/jit(main)/jit(_sigma_channel_pipeline)/mul" source_file="/global/homes/j/jackm/software/lorrax_C/src/gw/ppm_sigma.py" source_line=243}
  %multiply.152 = c128[9,2,640,2,640]{4,3,2,1,0} multiply(%multiply.149, %broadcast.151), metadata={op_name="jit(_tau_channel_step)/jit(main)/jit(_sigma_channel_pipeline)/mul" source_file="/global/homes/j/jackm/software/lorrax_C/src/gw/ppm_sigma.py" source_line=243}
  %reshape.153 = c128[3,3,1,2,640,2,640]{6,5,4,3,2,1,0} reshape(%multiply.152), metadata={op_name="jit(_tau_channel_step)/jit(main)/jit(_sigma_channel_pipeline)/reshape" source_file="/global/homes/j/jackm/software/lorrax_C/src/gw/ppm_sigma.py" source_line=221}
  %custom-call.154 = c128[3,3,1,2,640,2,640]{6,5,4,3,2,1,0} custom-call(%reshape.153), custom_call_target="Sharding", sharding={devices=[1,1,1,1,2,1,2]<=[4]}, metadata={op_name="jit(_tau_channel_step)/jit(main)/jit(_sigma_channel_pipeline)/sharding_constraint" source_file="/global/homes/j/jackm/software/lorrax_C/src/gw/ppm_sigma.py" source_line=221}
  %custom-call.155 = c128[3,3,1,2,640,2,640]{6,5,4,3,2,1,0} custom-call(%custom-call.154), custom_call_target="CustomSPMDPartitioning", api_version=API_VERSION_STATUS_RETURNING, metadata={op_name="jit(_tau_channel_step)/jit(main)/jit(_sigma_channel_pipeline)/custom_partitioning" source_file="/global/homes/j/jackm/software/lorrax_C/src/common/fft_helpers.py" source_line=157}, backend_config="140681524894400"
  %custom-call.156 = c128[3,3,1,2,640,2,640]{6,5,4,3,2,1,0} custom-call(%custom-call.155), custom_call_target="CustomSPMDPartitioning", api_version=API_VERSION_STATUS_RETURNING, metadata={op_name="jit(_tau_channel_step)/jit(main)/jit(_sigma_channel_pipeline)/custom_partitioning" source_file="/global/homes/j/jackm/software/lorrax_C/src/common/fft_helpers.py" source_line=157}, backend_config="140681524894832"
  %custom-call.157 = c128[3,3,1,2,640,2,640]{6,5,4,3,2,1,0} custom-call(%custom-call.156), custom_call_target="CustomSPMDPartitioning", api_version=API_VERSION_STATUS_RETURNING, metadata={op_name="jit(_tau_channel_step)/jit(main)/jit(_sigma_channel_pipeline)/custom_partitioning" source_file="/global/homes/j/jackm/software/lorrax_C/src/common/fft_helpers.py" source_line=157}, backend_config="140681524895072"
  %reshape.158 = c128[9,2,640,2,640]{4,3,2,1,0} reshape(%custom-call.157), metadata={op_name="jit(_tau_channel_step)/jit(main)/jit(_sigma_channel_pipeline)/reshape" source_file="/global/homes/j/jackm/software/lorrax_C/src/gw/ppm_sigma.py" source_line=222}
  %real.159 = f64[9,2,640,2,640]{4,3,2,1,0} real(%reshape.158), metadata={op_name="jit(_tau_channel_step)/jit(main)/jit(_sigma_channel_pipeline)/real" source_file="/global/homes/j/jackm/software/lorrax_C/src/gw/projection_kernel.py" source_line=21}
  %reshape.161 = f64[1,9,2,640,2,640]{5,4,3,2,1,0} reshape(%real.159), metadata={op_name="jit(_tau_channel_step)/jit(main)/jit(_sigma_channel_pipeline)/broadcast_in_dim" source_file="/global/homes/j/jackm/software/lorrax_C/src/gw/projection_kernel.py" source_line=21}
  %imag.160 = f64[9,2,640,2,640]{4,3,2,1,0} imag(%reshape.158), metadata={op_name="jit(_tau_channel_step)/jit(main)/jit(_sigma_channel_pipeline)/imag" source_file="/global/homes/j/jackm/software/lorrax_C/src/gw/projection_kernel.py" source_line=21}
  %reshape.162 = f64[1,9,2,640,2,640]{5,4,3,2,1,0} reshape(%imag.160), metadata={op_name="jit(_tau_channel_step)/jit(main)/jit(_sigma_channel_pipeline)/broadcast_in_dim" source_file="/global/homes/j/jackm/software/lorrax_C/src/gw/projection_kernel.py" source_line=21}
  %concatenate.163 = f64[2,9,2,640,2,640]{5,4,3,2,1,0} concatenate(%reshape.161, %reshape.162), dimensions={0}, metadata={op_name="jit(_tau_channel_step)/jit(main)/jit(_sigma_channel_pipeline)/concatenate" source_file="/global/homes/j/jackm/software/lorrax_C/src/gw/projection_kernel.py" source_line=21}
  %convert.168 = c128[2,9,2,640,2,640]{5,4,3,2,1,0} convert(%concatenate.163), metadata={op_name="jit(_tau_channel_step)/jit(main)/jit(_sigma_channel_pipeline)/kmsx,cksxty->ckmty/dot_general" source_file="/global/homes/j/jackm/software/lorrax_C/src/gw/projection_kernel.py" source_line=22}
  %Arg_2.123 = c128[9,80,2,640]{3,2,1,0} parameter(2), metadata={op_name="jit(_tau_channel_step)/jit(main)/pjit"}
  %real.164 = f64[9,80,2,640]{3,2,1,0} real(%Arg_2.123), metadata={op_name="jit(_tau_channel_step)/jit(main)/jit(_sigma_channel_pipeline)/real" source_file="/global/homes/j/jackm/software/lorrax_C/src/gw/projection_kernel.py" source_line=22}
  %imag.165 = f64[9,80,2,640]{3,2,1,0} imag(%Arg_2.123), metadata={op_name="jit(_tau_channel_step)/jit(main)/jit(_sigma_channel_pipeline)/imag" source_file="/global/homes/j/jackm/software/lorrax_C/src/gw/projection_kernel.py" source_line=22}
  %negate.166 = f64[9,80,2,640]{3,2,1,0} negate(%imag.165), metadata={op_name="jit(_tau_channel_step)/jit(main)/jit(_sigma_channel_pipeline)/neg" source_file="/global/homes/j/jackm/software/lorrax_C/src/gw/projection_kernel.py" source_line=22}
  %complex.167 = c128[9,80,2,640]{3,2,1,0} complex(%real.164, %negate.166), metadata={op_name="jit(_tau_channel_step)/jit(main)/jit(_sigma_channel_pipeline)/complex" source_file="/global/homes/j/jackm/software/lorrax_C/src/gw/projection_kernel.py" source_line=22}
  %dot.169 = c128[9,2,2,640,80]{4,3,2,1,0} dot(%convert.168, %complex.167), lhs_batch_dims={1}, lhs_contracting_dims={2,3}, rhs_batch_dims={0}, rhs_contracting_dims={2,3}, metadata={op_name="jit(_tau_channel_step)/jit(main)/jit(_sigma_channel_pipeline)/kmsx,cksxty->ckmty/dot_general" source_file="/global/homes/j/jackm/software/lorrax_C/src/gw/projection_kernel.py" source_line=22}
  %transpose.170 = c128[2,9,80,2,640]{2,4,3,0,1} transpose(%dot.169), dimensions={1,0,4,2,3}, metadata={op_name="jit(_tau_channel_step)/jit(main)/jit(_sigma_channel_pipeline)/kmsx,cksxty->ckmty/transpose" source_file="/global/homes/j/jackm/software/lorrax_C/src/gw/projection_kernel.py" source_line=22}
  %dot.171 = c128[9,80,2,80]{3,2,1,0} dot(%Arg_3.124, %transpose.170), lhs_batch_dims={0}, lhs_contracting_dims={1,2}, rhs_batch_dims={1}, rhs_contracting_dims={3,4}, metadata={op_name="jit(_tau_channel_step)/jit(main)/jit(_sigma_channel_pipeline)/ckmty,ktyn->ckmn/dot_general" source_file="/global/homes/j/jackm/software/lorrax_C/src/gw/projection_kernel.py" source_line=23}
  ROOT %transpose.172 = c128[2,9,80,80]{2,0,3,1} transpose(%dot.171), dimensions={2,0,3,1}, metadata={op_name="jit(_tau_channel_step)/jit(main)/jit(_sigma_channel_pipeline)/ckmty,ktyn->ckmn/transpose" source_file="/global/homes/j/jackm/software/lorrax_C/src/gw/projection_kernel.py" source_line=23}
}

ENTRY %main.174 (Arg_0.1: c128[9,2,640,80], Arg_1.2: c128[9,80,2,640], Arg_2.3: c128[9,80,2,640], Arg_3.4: c128[9,2,640,80], Arg_4.5: f64[9,80], Arg_5.6: pred[9,80], Arg_6.7: c128[9,640,640], Arg_7.8: f64[9,640,640], Arg_8.9: pred[9,640,640], Arg_9.10: f64[], Arg_10.11: f64[], Arg_11.12: c128[], Arg_12.13: c128[80,80]) -> c128[2,9,80,80] {
  %Arg_0.1 = c128[9,2,640,80]{3,2,1,0} parameter(0), sharding={devices=[1,1,2,1,2]<=[4] last_tile_dim_replicate}, metadata={op_name="psi_coh_rmuT_X"}
  %Arg_1.2 = c128[9,80,2,640]{3,2,1,0} parameter(1), sharding={devices=[1,1,1,2,2]<=[2,2]T(1,0) last_tile_dim_replicate}, metadata={op_name="psi_coh_rmu_Y"}
  %Arg_2.3 = c128[9,80,2,640]{3,2,1,0} parameter(2), sharding={devices=[1,1,1,2,2]<=[4] last_tile_dim_replicate}, metadata={op_name="psi_proj_rmu_X"}
  %Arg_3.4 = c128[9,2,640,80]{3,2,1,0} parameter(3), sharding={devices=[1,1,2,1,2]<=[2,2]T(1,0) last_tile_dim_replicate}, metadata={op_name="psi_proj_rmuT_Y"}
  %Arg_4.5 = f64[9,80]{1,0} parameter(4), sharding={replicated}, metadata={op_name="E_A"}
  %Arg_5.6 = pred[9,80]{1,0} parameter(5), metadata={op_name="mask_A"}
  %Arg_6.7 = c128[9,640,640]{2,1,0} parameter(6), sharding={devices=[1,2,2]<=[4]}, metadata={op_name="B_q"}
  %Arg_7.8 = f64[9,640,640]{2,1,0} parameter(7), sharding={devices=[1,2,2]<=[4]}, metadata={op_name="Omega_q"}
  %Arg_8.9 = pred[9,640,640]{2,1,0} parameter(8), sharding={devices=[1,2,2]<=[4]}, metadata={op_name="mask_B"}
  %Arg_9.10 = f64[] parameter(9), metadata={op_name="E_ref_A"}
  %Arg_10.11 = f64[] parameter(10), metadata={op_name="E_ref_B"}
  %Arg_11.12 = c128[] parameter(11), metadata={op_name="t_node"}
  %Arg_12.13 = c128[80,80]{1,0} parameter(12), metadata={op_name="eye_nb"}
  %call.117 = (c128[9,80,80]{2,1,0}, c128[9,640,640]{2,1,0}) call(%Arg_4.5, %Arg_5.6, %Arg_6.7, %Arg_7.8, %Arg_8.9, /*index=5*/%Arg_9.10, %Arg_10.11, %Arg_11.12, %Arg_12.13), to_apply=%_build_tau_operands.26
  %get-tuple-element.118 = c128[9,80,80]{2,1,0} get-tuple-element(%call.117), index=0
  %get-tuple-element.119 = c128[9,640,640]{2,1,0} get-tuple-element(%call.117), index=1
  ROOT %call.173 = c128[2,9,80,80]{2,0,3,1} call(%Arg_0.1, %Arg_1.2, %Arg_2.3, %Arg_3.4, %get-tuple-element.118, /*index=5*/%get-tuple-element.119), to_apply=%_sigma_channel_pipeline.120
}

