HloModule jit__full_run, entry_computation_layout={(c128[64,8,2,480]{3,2,1,0}, c128[64,8,2,480]{3,2,1,0}, c128[64,8,2,480]{3,2,1,0}, c128[64,8,2,480]{3,2,1,0}, f64[64,8]{1,0}, /*index=5*/f64[64,8]{1,0}, c128[480,480,4,4,4]{4,3,2,1,0}, c128[480,480]{1,0})->(f64[20]{0}, c128[20,4096]{1,0}, s32[])}, allow_spmd_sharding_propagation_to_parameters={false,false,false,false,false,false,false,false}, allow_spmd_sharding_propagation_to_output={false,false,false}, num_partitions=4

%fft.33 (Arg_0.34: c128[240,240,4,4,4]) -> c128[240,240,4,4,4] {
  %Arg_0.34 = c128[240,240,4,4,4]{4,3,2,1,0} parameter(0), metadata={op_name="jit(_full_run)/jit(main)/jit(shmap_body)/pjit"}
  ROOT %fft.35 = c128[240,240,4,4,4]{4,3,2,1,0} fft(%Arg_0.34), fft_type=IFFT, fft_length={4,4,4}, metadata={op_name="jit(_full_run)/jit(main)/jit(shmap_body)/jit(fft)/fft" source_file="/global/homes/j/jackm/software/lorrax_C/src/common/fft_helpers.py" source_line=325}
}

%region_0.36 (Arg_0.37: c128[], Arg_1.38: c128[]) -> c128[] {
  %Arg_0.37 = c128[] parameter(0), metadata={op_name="jit(_full_run)/jit(main)/jit(shmap_body)/reduce_prod"}
  %Arg_1.38 = c128[] parameter(1), metadata={op_name="jit(_full_run)/jit(main)/jit(shmap_body)/reduce_prod"}
  ROOT %multiply.39 = c128[] multiply(%Arg_0.37, %Arg_1.38), metadata={op_name="jit(_full_run)/jit(main)/jit(shmap_body)/reduce_prod" source_file="/global/homes/j/jackm/software/lorrax_C/src/common/fft_helpers.py" source_line=325}
}

%shmap_body.40 (Arg_0.41: c128[3], Arg_1.42: c128[240,240,4,4,4]) -> c128[240,240,4,4,4] {
  %Arg_1.42 = c128[240,240,4,4,4]{4,3,2,1,0} parameter(1), metadata={op_name="[(\'x\',), (\'y\',), None, None, None]"}
  %call.51 = c128[240,240,4,4,4]{4,3,2,1,0} call(%Arg_1.42), to_apply=%fft.33
  %Arg_0.41 = c128[3]{0} parameter(0), metadata={op_name="[None]"}
  %constant.50 = c128[] constant((1, 0))
  %reduce.52 = c128[] reduce(%Arg_0.41, %constant.50), dimensions={0}, to_apply=%region_0.36, metadata={op_name="jit(_full_run)/jit(main)/jit(shmap_body)/reduce_prod" source_file="/global/homes/j/jackm/software/lorrax_C/src/common/fft_helpers.py" source_line=325}
  %real.53 = f64[] real(%reduce.52), metadata={op_name="jit(_full_run)/jit(main)/jit(shmap_body)/sqrt" source_file="/global/homes/j/jackm/software/lorrax_C/src/common/fft_helpers.py" source_line=325}
  %constant.49 = f64[] constant(0)
  %compare.54 = pred[] compare(%real.53, %constant.49), direction=GE, metadata={op_name="jit(_full_run)/jit(main)/jit(shmap_body)/sqrt" source_file="/global/homes/j/jackm/software/lorrax_C/src/common/fft_helpers.py" source_line=325}
  %abs.55 = f64[] abs(%real.53), metadata={op_name="jit(_full_run)/jit(main)/jit(shmap_body)/sqrt" source_file="/global/homes/j/jackm/software/lorrax_C/src/common/fft_helpers.py" source_line=325}
  %imag.56 = f64[] imag(%reduce.52), metadata={op_name="jit(_full_run)/jit(main)/jit(shmap_body)/sqrt" source_file="/global/homes/j/jackm/software/lorrax_C/src/common/fft_helpers.py" source_line=325}
  %abs.57 = f64[] abs(%imag.56), metadata={op_name="jit(_full_run)/jit(main)/jit(shmap_body)/sqrt" source_file="/global/homes/j/jackm/software/lorrax_C/src/common/fft_helpers.py" source_line=325}
  %compare.58 = pred[] compare(%abs.55, %abs.57), direction=EQ, metadata={op_name="jit(_full_run)/jit(main)/jit(shmap_body)/sqrt" source_file="/global/homes/j/jackm/software/lorrax_C/src/common/fft_helpers.py" source_line=325}
  %sqrt.59 = f64[] sqrt(%abs.55), metadata={op_name="jit(_full_run)/jit(main)/jit(shmap_body)/sqrt" source_file="/global/homes/j/jackm/software/lorrax_C/src/common/fft_helpers.py" source_line=325}
  %constant.48 = f64[] constant(1.5537739740300374)
  %multiply.60 = f64[] multiply(%sqrt.59, %constant.48), metadata={op_name="jit(_full_run)/jit(main)/jit(shmap_body)/sqrt" source_file="/global/homes/j/jackm/software/lorrax_C/src/common/fft_helpers.py" source_line=325}
  %constant.47 = f64[] constant(1.4142135623730951)
  %divide.61 = f64[] divide(%multiply.60, %constant.47), metadata={op_name="jit(_full_run)/jit(main)/jit(shmap_body)/sqrt" source_file="/global/homes/j/jackm/software/lorrax_C/src/common/fft_helpers.py" source_line=325}
  %maximum.62 = f64[] maximum(%abs.55, %abs.57), metadata={op_name="jit(_full_run)/jit(main)/jit(shmap_body)/sqrt" source_file="/global/homes/j/jackm/software/lorrax_C/src/common/fft_helpers.py" source_line=325}
  %minimum.63 = f64[] minimum(%abs.55, %abs.57), metadata={op_name="jit(_full_run)/jit(main)/jit(shmap_body)/sqrt" source_file="/global/homes/j/jackm/software/lorrax_C/src/common/fft_helpers.py" source_line=325}
  %compare.64 = pred[] compare(%maximum.62, %minimum.63), direction=EQ, metadata={op_name="jit(_full_run)/jit(main)/jit(shmap_body)/sqrt" source_file="/global/homes/j/jackm/software/lorrax_C/src/common/fft_helpers.py" source_line=325}
  %multiply.65 = f64[] multiply(%maximum.62, %constant.47), metadata={op_name="jit(_full_run)/jit(main)/jit(shmap_body)/sqrt" source_file="/global/homes/j/jackm/software/lorrax_C/src/common/fft_helpers.py" source_line=325}
  %divide.66 = f64[] divide(%minimum.63, %maximum.62), metadata={op_name="jit(_full_run)/jit(main)/jit(shmap_body)/sqrt" source_file="/global/homes/j/jackm/software/lorrax_C/src/common/fft_helpers.py" source_line=325}
  %multiply.67 = f64[] multiply(%divide.66, %divide.66), metadata={op_name="jit(_full_run)/jit(main)/jit(shmap_body)/sqrt" source_file="/global/homes/j/jackm/software/lorrax_C/src/common/fft_helpers.py" source_line=325}
  %constant.46 = f64[] constant(1)
  %add.68 = f64[] add(%multiply.67, %constant.46), metadata={op_name="jit(_full_run)/jit(main)/jit(shmap_body)/sqrt" source_file="/global/homes/j/jackm/software/lorrax_C/src/common/fft_helpers.py" source_line=325}
  %sqrt.69 = f64[] sqrt(%add.68), metadata={op_name="jit(_full_run)/jit(main)/jit(shmap_body)/sqrt" source_file="/global/homes/j/jackm/software/lorrax_C/src/common/fft_helpers.py" source_line=325}
  %compare.70 = pred[] compare(%sqrt.69, %constant.46), direction=EQ, metadata={op_name="jit(_full_run)/jit(main)/jit(shmap_body)/sqrt" source_file="/global/homes/j/jackm/software/lorrax_C/src/common/fft_helpers.py" source_line=325}
  %compare.71 = pred[] compare(%multiply.67, %constant.49), direction=GT, metadata={op_name="jit(_full_run)/jit(main)/jit(shmap_body)/sqrt" source_file="/global/homes/j/jackm/software/lorrax_C/src/common/fft_helpers.py" source_line=325}
  %and.72 = pred[] and(%compare.70, %compare.71), metadata={op_name="jit(_full_run)/jit(main)/jit(shmap_body)/sqrt" source_file="/global/homes/j/jackm/software/lorrax_C/src/common/fft_helpers.py" source_line=325}
  %multiply.73 = f64[] multiply(%maximum.62, %multiply.67), metadata={op_name="jit(_full_run)/jit(main)/jit(shmap_body)/sqrt" source_file="/global/homes/j/jackm/software/lorrax_C/src/common/fft_helpers.py" source_line=325}
  %constant.45 = f64[] constant(2)
  %divide.74 = f64[] divide(%multiply.73, %constant.45), metadata={op_name="jit(_full_run)/jit(main)/jit(shmap_body)/sqrt" source_file="/global/homes/j/jackm/software/lorrax_C/src/common/fft_helpers.py" source_line=325}
  %add.75 = f64[] add(%maximum.62, %divide.74), metadata={op_name="jit(_full_run)/jit(main)/jit(shmap_body)/sqrt" source_file="/global/homes/j/jackm/software/lorrax_C/src/common/fft_helpers.py" source_line=325}
  %multiply.76 = f64[] multiply(%maximum.62, %sqrt.69), metadata={op_name="jit(_full_run)/jit(main)/jit(shmap_body)/sqrt" source_file="/global/homes/j/jackm/software/lorrax_C/src/common/fft_helpers.py" source_line=325}
  %select.77 = f64[] select(%and.72, %add.75, %multiply.76), metadata={op_name="jit(_full_run)/jit(main)/jit(shmap_body)/sqrt" source_file="/global/homes/j/jackm/software/lorrax_C/src/common/fft_helpers.py" source_line=325}
  %select.78 = f64[] select(%compare.64, %multiply.65, %select.77), metadata={op_name="jit(_full_run)/jit(main)/jit(shmap_body)/sqrt" source_file="/global/homes/j/jackm/software/lorrax_C/src/common/fft_helpers.py" source_line=325}
  %divide.79 = f64[] divide(%select.78, %constant.45), metadata={op_name="jit(_full_run)/jit(main)/jit(shmap_body)/sqrt" source_file="/global/homes/j/jackm/software/lorrax_C/src/common/fft_helpers.py" source_line=325}
  %divide.80 = f64[] divide(%abs.55, %constant.45), metadata={op_name="jit(_full_run)/jit(main)/jit(shmap_body)/sqrt" source_file="/global/homes/j/jackm/software/lorrax_C/src/common/fft_helpers.py" source_line=325}
  %add.81 = f64[] add(%divide.79, %divide.80), metadata={op_name="jit(_full_run)/jit(main)/jit(shmap_body)/sqrt" source_file="/global/homes/j/jackm/software/lorrax_C/src/common/fft_helpers.py" source_line=325}
  %sqrt.82 = f64[] sqrt(%add.81), metadata={op_name="jit(_full_run)/jit(main)/jit(shmap_body)/sqrt" source_file="/global/homes/j/jackm/software/lorrax_C/src/common/fft_helpers.py" source_line=325}
  %compare.83 = pred[] compare(%sqrt.82, %constant.49), direction=EQ, metadata={op_name="jit(_full_run)/jit(main)/jit(shmap_body)/sqrt" source_file="/global/homes/j/jackm/software/lorrax_C/src/common/fft_helpers.py" source_line=325}
  %constant.44 = f64[] constant(inf)
  %compare.84 = pred[] compare(%sqrt.82, %constant.44), direction=EQ, metadata={op_name="jit(_full_run)/jit(main)/jit(shmap_body)/sqrt" source_file="/global/homes/j/jackm/software/lorrax_C/src/common/fft_helpers.py" source_line=325}
  %or.85 = pred[] or(%compare.83, %compare.84), metadata={op_name="jit(_full_run)/jit(main)/jit(shmap_body)/sqrt" source_file="/global/homes/j/jackm/software/lorrax_C/src/common/fft_helpers.py" source_line=325}
  %compare.86 = pred[] compare(%abs.55, %abs.57), direction=GT, metadata={op_name="jit(_full_run)/jit(main)/jit(shmap_body)/sqrt" source_file="/global/homes/j/jackm/software/lorrax_C/src/common/fft_helpers.py" source_line=325}
  %compare.87 = pred[] compare(%abs.55, %abs.57), direction=LT, metadata={op_name="jit(_full_run)/jit(main)/jit(shmap_body)/sqrt" source_file="/global/homes/j/jackm/software/lorrax_C/src/common/fft_helpers.py" source_line=325}
  %divide.88 = f64[] divide(%abs.55, %abs.57), metadata={op_name="jit(_full_run)/jit(main)/jit(shmap_body)/sqrt" source_file="/global/homes/j/jackm/software/lorrax_C/src/common/fft_helpers.py" source_line=325}
  %divide.89 = f64[] divide(%abs.57, %abs.55), metadata={op_name="jit(_full_run)/jit(main)/jit(shmap_body)/sqrt" source_file="/global/homes/j/jackm/software/lorrax_C/src/common/fft_helpers.py" source_line=325}
  %select.90 = f64[] select(%compare.87, %divide.88, %divide.89), metadata={op_name="jit(_full_run)/jit(main)/jit(shmap_body)/sqrt" source_file="/global/homes/j/jackm/software/lorrax_C/src/common/fft_helpers.py" source_line=325}
  %select.91 = f64[] select(%compare.58, %constant.46, %select.90), metadata={op_name="jit(_full_run)/jit(main)/jit(shmap_body)/sqrt" source_file="/global/homes/j/jackm/software/lorrax_C/src/common/fft_helpers.py" source_line=325}
  %abs.92 = f64[] abs(%select.91), metadata={op_name="jit(_full_run)/jit(main)/jit(shmap_body)/sqrt" source_file="/global/homes/j/jackm/software/lorrax_C/src/common/fft_helpers.py" source_line=325}
  %maximum.93 = f64[] maximum(%abs.92, %constant.46), metadata={op_name="jit(_full_run)/jit(main)/jit(shmap_body)/sqrt" source_file="/global/homes/j/jackm/software/lorrax_C/src/common/fft_helpers.py" source_line=325}
  %minimum.94 = f64[] minimum(%abs.92, %constant.46), metadata={op_name="jit(_full_run)/jit(main)/jit(shmap_body)/sqrt" source_file="/global/homes/j/jackm/software/lorrax_C/src/common/fft_helpers.py" source_line=325}
  %compare.95 = pred[] compare(%maximum.93, %minimum.94), direction=EQ, metadata={op_name="jit(_full_run)/jit(main)/jit(shmap_body)/sqrt" source_file="/global/homes/j/jackm/software/lorrax_C/src/common/fft_helpers.py" source_line=325}
  %multiply.96 = f64[] multiply(%maximum.93, %constant.47), metadata={op_name="jit(_full_run)/jit(main)/jit(shmap_body)/sqrt" source_file="/global/homes/j/jackm/software/lorrax_C/src/common/fft_helpers.py" source_line=325}
  %divide.97 = f64[] divide(%minimum.94, %maximum.93), metadata={op_name="jit(_full_run)/jit(main)/jit(shmap_body)/sqrt" source_file="/global/homes/j/jackm/software/lorrax_C/src/common/fft_helpers.py" source_line=325}
  %multiply.98 = f64[] multiply(%divide.97, %divide.97), metadata={op_name="jit(_full_run)/jit(main)/jit(shmap_body)/sqrt" source_file="/global/homes/j/jackm/software/lorrax_C/src/common/fft_helpers.py" source_line=325}
  %add.99 = f64[] add(%multiply.98, %constant.46), metadata={op_name="jit(_full_run)/jit(main)/jit(shmap_body)/sqrt" source_file="/global/homes/j/jackm/software/lorrax_C/src/common/fft_helpers.py" source_line=325}
  %sqrt.100 = f64[] sqrt(%add.99), metadata={op_name="jit(_full_run)/jit(main)/jit(shmap_body)/sqrt" source_file="/global/homes/j/jackm/software/lorrax_C/src/common/fft_helpers.py" source_line=325}
  %compare.101 = pred[] compare(%sqrt.100, %constant.46), direction=EQ, metadata={op_name="jit(_full_run)/jit(main)/jit(shmap_body)/sqrt" source_file="/global/homes/j/jackm/software/lorrax_C/src/common/fft_helpers.py" source_line=325}
  %compare.102 = pred[] compare(%multiply.98, %constant.49), direction=GT, metadata={op_name="jit(_full_run)/jit(main)/jit(shmap_body)/sqrt" source_file="/global/homes/j/jackm/software/lorrax_C/src/common/fft_helpers.py" source_line=325}
  %and.103 = pred[] and(%compare.101, %compare.102), metadata={op_name="jit(_full_run)/jit(main)/jit(shmap_body)/sqrt" source_file="/global/homes/j/jackm/software/lorrax_C/src/common/fft_helpers.py" source_line=325}
  %multiply.104 = f64[] multiply(%maximum.93, %multiply.98), metadata={op_name="jit(_full_run)/jit(main)/jit(shmap_body)/sqrt" source_file="/global/homes/j/jackm/software/lorrax_C/src/common/fft_helpers.py" source_line=325}
  %divide.105 = f64[] divide(%multiply.104, %constant.45), metadata={op_name="jit(_full_run)/jit(main)/jit(shmap_body)/sqrt" source_file="/global/homes/j/jackm/software/lorrax_C/src/common/fft_helpers.py" source_line=325}
  %add.106 = f64[] add(%maximum.93, %divide.105), metadata={op_name="jit(_full_run)/jit(main)/jit(shmap_body)/sqrt" source_file="/global/homes/j/jackm/software/lorrax_C/src/common/fft_helpers.py" source_line=325}
  %multiply.107 = f64[] multiply(%maximum.93, %sqrt.100), metadata={op_name="jit(_full_run)/jit(main)/jit(shmap_body)/sqrt" source_file="/global/homes/j/jackm/software/lorrax_C/src/common/fft_helpers.py" source_line=325}
  %select.108 = f64[] select(%and.103, %add.106, %multiply.107), metadata={op_name="jit(_full_run)/jit(main)/jit(shmap_body)/sqrt" source_file="/global/homes/j/jackm/software/lorrax_C/src/common/fft_helpers.py" source_line=325}
  %select.109 = f64[] select(%compare.95, %multiply.96, %select.108), metadata={op_name="jit(_full_run)/jit(main)/jit(shmap_body)/sqrt" source_file="/global/homes/j/jackm/software/lorrax_C/src/common/fft_helpers.py" source_line=325}
  %add.110 = f64[] add(%select.109, %constant.46), metadata={op_name="jit(_full_run)/jit(main)/jit(shmap_body)/sqrt" source_file="/global/homes/j/jackm/software/lorrax_C/src/common/fft_helpers.py" source_line=325}
  %sqrt.111 = f64[] sqrt(%add.110), metadata={op_name="jit(_full_run)/jit(main)/jit(shmap_body)/sqrt" source_file="/global/homes/j/jackm/software/lorrax_C/src/common/fft_helpers.py" source_line=325}
  %divide.112 = f64[] divide(%sqrt.111, %constant.47), metadata={op_name="jit(_full_run)/jit(main)/jit(shmap_body)/sqrt" source_file="/global/homes/j/jackm/software/lorrax_C/src/common/fft_helpers.py" source_line=325}
  %multiply.113 = f64[] multiply(%sqrt.59, %divide.112), metadata={op_name="jit(_full_run)/jit(main)/jit(shmap_body)/sqrt" source_file="/global/homes/j/jackm/software/lorrax_C/src/common/fft_helpers.py" source_line=325}
  %sqrt.114 = f64[] sqrt(%abs.57), metadata={op_name="jit(_full_run)/jit(main)/jit(shmap_body)/sqrt" source_file="/global/homes/j/jackm/software/lorrax_C/src/common/fft_helpers.py" source_line=325}
  %add.115 = f64[] add(%select.91, %select.109), metadata={op_name="jit(_full_run)/jit(main)/jit(shmap_body)/sqrt" source_file="/global/homes/j/jackm/software/lorrax_C/src/common/fft_helpers.py" source_line=325}
  %sqrt.116 = f64[] sqrt(%add.115), metadata={op_name="jit(_full_run)/jit(main)/jit(shmap_body)/sqrt" source_file="/global/homes/j/jackm/software/lorrax_C/src/common/fft_helpers.py" source_line=325}
  %divide.117 = f64[] divide(%sqrt.116, %constant.47), metadata={op_name="jit(_full_run)/jit(main)/jit(shmap_body)/sqrt" source_file="/global/homes/j/jackm/software/lorrax_C/src/common/fft_helpers.py" source_line=325}
  %multiply.118 = f64[] multiply(%sqrt.114, %divide.117), metadata={op_name="jit(_full_run)/jit(main)/jit(shmap_body)/sqrt" source_file="/global/homes/j/jackm/software/lorrax_C/src/common/fft_helpers.py" source_line=325}
  %select.119 = f64[] select(%compare.86, %multiply.113, %multiply.118), metadata={op_name="jit(_full_run)/jit(main)/jit(shmap_body)/sqrt" source_file="/global/homes/j/jackm/software/lorrax_C/src/common/fft_helpers.py" source_line=325}
  %select.120 = f64[] select(%or.85, %select.119, %sqrt.82), metadata={op_name="jit(_full_run)/jit(main)/jit(shmap_body)/sqrt" source_file="/global/homes/j/jackm/software/lorrax_C/src/common/fft_helpers.py" source_line=325}
  %select.121 = f64[] select(%compare.58, %divide.61, %select.120), metadata={op_name="jit(_full_run)/jit(main)/jit(shmap_body)/sqrt" source_file="/global/homes/j/jackm/software/lorrax_C/src/common/fft_helpers.py" source_line=325}
  %constant.43 = f64[] constant(2.19736822693562)
  %divide.122 = f64[] divide(%sqrt.114, %constant.43), metadata={op_name="jit(_full_run)/jit(main)/jit(shmap_body)/sqrt" source_file="/global/homes/j/jackm/software/lorrax_C/src/common/fft_helpers.py" source_line=325}
  %divide.123 = f64[] divide(%sqrt.59, %sqrt.114), metadata={op_name="jit(_full_run)/jit(main)/jit(shmap_body)/sqrt" source_file="/global/homes/j/jackm/software/lorrax_C/src/common/fft_helpers.py" source_line=325}
  %divide.124 = f64[] divide(%sqrt.114, %sqrt.59), metadata={op_name="jit(_full_run)/jit(main)/jit(shmap_body)/sqrt" source_file="/global/homes/j/jackm/software/lorrax_C/src/common/fft_helpers.py" source_line=325}
  %select.125 = f64[] select(%compare.87, %divide.123, %divide.124), metadata={op_name="jit(_full_run)/jit(main)/jit(shmap_body)/sqrt" source_file="/global/homes/j/jackm/software/lorrax_C/src/common/fft_helpers.py" source_line=325}
  %select.126 = f64[] select(%compare.58, %constant.46, %select.125), metadata={op_name="jit(_full_run)/jit(main)/jit(shmap_body)/sqrt" source_file="/global/homes/j/jackm/software/lorrax_C/src/common/fft_helpers.py" source_line=325}
  %multiply.127 = f64[] multiply(%sqrt.114, %select.126), metadata={op_name="jit(_full_run)/jit(main)/jit(shmap_body)/sqrt" source_file="/global/homes/j/jackm/software/lorrax_C/src/common/fft_helpers.py" source_line=325}
  %multiply.128 = f64[] multiply(%sqrt.111, %constant.47), metadata={op_name="jit(_full_run)/jit(main)/jit(shmap_body)/sqrt" source_file="/global/homes/j/jackm/software/lorrax_C/src/common/fft_helpers.py" source_line=325}
  %divide.129 = f64[] divide(%multiply.127, %multiply.128), metadata={op_name="jit(_full_run)/jit(main)/jit(shmap_body)/sqrt" source_file="/global/homes/j/jackm/software/lorrax_C/src/common/fft_helpers.py" source_line=325}
  %multiply.130 = f64[] multiply(%sqrt.116, %constant.47), metadata={op_name="jit(_full_run)/jit(main)/jit(shmap_body)/sqrt" source_file="/global/homes/j/jackm/software/lorrax_C/src/common/fft_helpers.py" source_line=325}
  %divide.131 = f64[] divide(%sqrt.114, %multiply.130), metadata={op_name="jit(_full_run)/jit(main)/jit(shmap_body)/sqrt" source_file="/global/homes/j/jackm/software/lorrax_C/src/common/fft_helpers.py" source_line=325}
  %select.132 = f64[] select(%compare.86, %divide.129, %divide.131), metadata={op_name="jit(_full_run)/jit(main)/jit(shmap_body)/sqrt" source_file="/global/homes/j/jackm/software/lorrax_C/src/common/fft_helpers.py" source_line=325}
  %multiply.133 = f64[] multiply(%sqrt.82, %constant.45), metadata={op_name="jit(_full_run)/jit(main)/jit(shmap_body)/sqrt" source_file="/global/homes/j/jackm/software/lorrax_C/src/common/fft_helpers.py" source_line=325}
  %divide.134 = f64[] divide(%abs.57, %multiply.133), metadata={op_name="jit(_full_run)/jit(main)/jit(shmap_body)/sqrt" source_file="/global/homes/j/jackm/software/lorrax_C/src/common/fft_helpers.py" source_line=325}
  %select.135 = f64[] select(%or.85, %select.132, %divide.134), metadata={op_name="jit(_full_run)/jit(main)/jit(shmap_body)/sqrt" source_file="/global/homes/j/jackm/software/lorrax_C/src/common/fft_helpers.py" source_line=325}
  %select.136 = f64[] select(%compare.58, %divide.122, %select.135), metadata={op_name="jit(_full_run)/jit(main)/jit(shmap_body)/sqrt" source_file="/global/homes/j/jackm/software/lorrax_C/src/common/fft_helpers.py" source_line=325}
  %select.137 = f64[] select(%compare.54, %select.121, %select.136), metadata={op_name="jit(_full_run)/jit(main)/jit(shmap_body)/sqrt" source_file="/global/homes/j/jackm/software/lorrax_C/src/common/fft_helpers.py" source_line=325}
  %compare.138 = pred[] compare(%real.53, %constant.49), direction=LT, metadata={op_name="jit(_full_run)/jit(main)/jit(shmap_body)/sqrt" source_file="/global/homes/j/jackm/software/lorrax_C/src/common/fft_helpers.py" source_line=325}
  %compare.139 = pred[] compare(%imag.56, %constant.49), direction=LT, metadata={op_name="jit(_full_run)/jit(main)/jit(shmap_body)/sqrt" source_file="/global/homes/j/jackm/software/lorrax_C/src/common/fft_helpers.py" source_line=325}
  %negate.140 = f64[] negate(%select.121), metadata={op_name="jit(_full_run)/jit(main)/jit(shmap_body)/sqrt" source_file="/global/homes/j/jackm/software/lorrax_C/src/common/fft_helpers.py" source_line=325}
  %select.141 = f64[] select(%compare.139, %negate.140, %select.121), metadata={op_name="jit(_full_run)/jit(main)/jit(shmap_body)/sqrt" source_file="/global/homes/j/jackm/software/lorrax_C/src/common/fft_helpers.py" source_line=325}
  %negate.142 = f64[] negate(%select.136), metadata={op_name="jit(_full_run)/jit(main)/jit(shmap_body)/sqrt" source_file="/global/homes/j/jackm/software/lorrax_C/src/common/fft_helpers.py" source_line=325}
  %select.143 = f64[] select(%compare.139, %negate.142, %select.136), metadata={op_name="jit(_full_run)/jit(main)/jit(shmap_body)/sqrt" source_file="/global/homes/j/jackm/software/lorrax_C/src/common/fft_helpers.py" source_line=325}
  %select.144 = f64[] select(%compare.138, %select.141, %select.143), metadata={op_name="jit(_full_run)/jit(main)/jit(shmap_body)/sqrt" source_file="/global/homes/j/jackm/software/lorrax_C/src/common/fft_helpers.py" source_line=325}
  %complex.145 = c128[] complex(%select.137, %select.144), metadata={op_name="jit(_full_run)/jit(main)/jit(shmap_body)/sqrt" source_file="/global/homes/j/jackm/software/lorrax_C/src/common/fft_helpers.py" source_line=325}
  %broadcast.146 = c128[240,240,4,4,4]{4,3,2,1,0} broadcast(%complex.145), dimensions={}, metadata={op_name="jit(_full_run)/jit(main)/jit(shmap_body)/mul" source_file="/global/homes/j/jackm/software/lorrax_C/src/common/fft_helpers.py" source_line=325}
  ROOT %multiply.147 = c128[240,240,4,4,4]{4,3,2,1,0} multiply(%call.51, %broadcast.146), metadata={op_name="jit(_full_run)/jit(main)/jit(shmap_body)/mul" source_file="/global/homes/j/jackm/software/lorrax_C/src/common/fft_helpers.py" source_line=325}
}

%threefry2x32.155 (Arg_0.156: u32[], Arg_1.157: u32[], Arg_2.158: u32[2], Arg_3.159: u32[2]) -> (u32[2], u32[2]) {
  %Arg_2.158 = u32[2]{0} parameter(2), metadata={op_name="jit(_full_run)/jit(main)/jit(_threefry_split)/threefry2x32"}
  %Arg_0.156 = u32[] parameter(0), metadata={op_name="jit(_full_run)/jit(main)/jit(_threefry_split)/threefry2x32"}
  %broadcast.193 = u32[2]{0} broadcast(%Arg_0.156), dimensions={}, metadata={op_name="jit(_full_run)/jit(main)/jit(_threefry_split)/add" source_file="/global/homes/j/jackm/software/lorrax_C/src/solvers/lanczos.py" source_line=245}
  %add.194 = u32[2]{0} add(%Arg_2.158, %broadcast.193), metadata={op_name="jit(_full_run)/jit(main)/jit(_threefry_split)/add" source_file="/global/homes/j/jackm/software/lorrax_C/src/solvers/lanczos.py" source_line=245}
  %Arg_3.159 = u32[2]{0} parameter(3), metadata={op_name="jit(_full_run)/jit(main)/jit(_threefry_split)/threefry2x32"}
  %Arg_1.157 = u32[] parameter(1), metadata={op_name="jit(_full_run)/jit(main)/jit(_threefry_split)/threefry2x32"}
  %broadcast.195 = u32[2]{0} broadcast(%Arg_1.157), dimensions={}, metadata={op_name="jit(_full_run)/jit(main)/jit(_threefry_split)/add" source_file="/global/homes/j/jackm/software/lorrax_C/src/solvers/lanczos.py" source_line=245}
  %add.196 = u32[2]{0} add(%Arg_3.159, %broadcast.195), metadata={op_name="jit(_full_run)/jit(main)/jit(_threefry_split)/add" source_file="/global/homes/j/jackm/software/lorrax_C/src/solvers/lanczos.py" source_line=245}
  %add.197 = u32[2]{0} add(%add.194, %add.196), metadata={op_name="jit(_full_run)/jit(main)/jit(_threefry_split)/add" source_file="/global/homes/j/jackm/software/lorrax_C/src/solvers/lanczos.py" source_line=245}
  %constant.188 = u32[] constant(13)
  %broadcast.189 = u32[2]{0} broadcast(%constant.188), dimensions={}
  %shift-left.198 = u32[2]{0} shift-left(%add.196, %broadcast.189), metadata={op_name="jit(_full_run)/jit(main)/jit(_threefry_split)/shift_left" source_file="/global/homes/j/jackm/software/lorrax_C/src/solvers/lanczos.py" source_line=245}
  %constant.186 = u32[] constant(19)
  %broadcast.187 = u32[2]{0} broadcast(%constant.186), dimensions={}
  %shift-right-logical.199 = u32[2]{0} shift-right-logical(%add.196, %broadcast.187), metadata={op_name="jit(_full_run)/jit(main)/jit(_threefry_split)/shift_right_logical" source_file="/global/homes/j/jackm/software/lorrax_C/src/solvers/lanczos.py" source_line=245}
  %or.200 = u32[2]{0} or(%shift-left.198, %shift-right-logical.199), metadata={op_name="jit(_full_run)/jit(main)/jit(_threefry_split)/or" source_file="/global/homes/j/jackm/software/lorrax_C/src/solvers/lanczos.py" source_line=245}
  %xor.201 = u32[2]{0} xor(%add.197, %or.200), metadata={op_name="jit(_full_run)/jit(main)/jit(_threefry_split)/xor" source_file="/global/homes/j/jackm/software/lorrax_C/src/solvers/lanczos.py" source_line=245}
  %add.202 = u32[2]{0} add(%add.197, %xor.201), metadata={op_name="jit(_full_run)/jit(main)/jit(_threefry_split)/add" source_file="/global/homes/j/jackm/software/lorrax_C/src/solvers/lanczos.py" source_line=245}
  %constant.184 = u32[] constant(15)
  %broadcast.185 = u32[2]{0} broadcast(%constant.184), dimensions={}
  %shift-left.203 = u32[2]{0} shift-left(%xor.201, %broadcast.185), metadata={op_name="jit(_full_run)/jit(main)/jit(_threefry_split)/shift_left" source_file="/global/homes/j/jackm/software/lorrax_C/src/solvers/lanczos.py" source_line=245}
  %constant.182 = u32[] constant(17)
  %broadcast.183 = u32[2]{0} broadcast(%constant.182), dimensions={}
  %shift-right-logical.204 = u32[2]{0} shift-right-logical(%xor.201, %broadcast.183), metadata={op_name="jit(_full_run)/jit(main)/jit(_threefry_split)/shift_right_logical" source_file="/global/homes/j/jackm/software/lorrax_C/src/solvers/lanczos.py" source_line=245}
  %or.205 = u32[2]{0} or(%shift-left.203, %shift-right-logical.204), metadata={op_name="jit(_full_run)/jit(main)/jit(_threefry_split)/or" source_file="/global/homes/j/jackm/software/lorrax_C/src/solvers/lanczos.py" source_line=245}
  %xor.206 = u32[2]{0} xor(%add.202, %or.205), metadata={op_name="jit(_full_run)/jit(main)/jit(_threefry_split)/xor" source_file="/global/homes/j/jackm/software/lorrax_C/src/solvers/lanczos.py" source_line=245}
  %add.207 = u32[2]{0} add(%add.202, %xor.206), metadata={op_name="jit(_full_run)/jit(main)/jit(_threefry_split)/add" source_file="/global/homes/j/jackm/software/lorrax_C/src/solvers/lanczos.py" source_line=245}
  %constant.180 = u32[] constant(26)
  %broadcast.181 = u32[2]{0} broadcast(%constant.180), dimensions={}
  %shift-left.208 = u32[2]{0} shift-left(%xor.206, %broadcast.181), metadata={op_name="jit(_full_run)/jit(main)/jit(_threefry_split)/shift_left" source_file="/global/homes/j/jackm/software/lorrax_C/src/solvers/lanczos.py" source_line=245}
  %constant.178 = u32[] constant(6)
  %broadcast.179 = u32[2]{0} broadcast(%constant.178), dimensions={}
  %shift-right-logical.209 = u32[2]{0} shift-right-logical(%xor.206, %broadcast.179), metadata={op_name="jit(_full_run)/jit(main)/jit(_threefry_split)/shift_right_logical" source_file="/global/homes/j/jackm/software/lorrax_C/src/solvers/lanczos.py" source_line=245}
  %or.210 = u32[2]{0} or(%shift-left.208, %shift-right-logical.209), metadata={op_name="jit(_full_run)/jit(main)/jit(_threefry_split)/or" source_file="/global/homes/j/jackm/software/lorrax_C/src/solvers/lanczos.py" source_line=245}
  %xor.211 = u32[2]{0} xor(%add.207, %or.210), metadata={op_name="jit(_full_run)/jit(main)/jit(_threefry_split)/xor" source_file="/global/homes/j/jackm/software/lorrax_C/src/solvers/lanczos.py" source_line=245}
  %add.212 = u32[2]{0} add(%add.207, %xor.211), metadata={op_name="jit(_full_run)/jit(main)/jit(_threefry_split)/add" source_file="/global/homes/j/jackm/software/lorrax_C/src/solvers/lanczos.py" source_line=245}
  %broadcast.217 = u32[2]{0} broadcast(%Arg_1.157), dimensions={}, metadata={op_name="jit(_full_run)/jit(main)/jit(_threefry_split)/add" source_file="/global/homes/j/jackm/software/lorrax_C/src/solvers/lanczos.py" source_line=245}
  %add.218 = u32[2]{0} add(%add.212, %broadcast.217), metadata={op_name="jit(_full_run)/jit(main)/jit(_threefry_split)/add" source_file="/global/homes/j/jackm/software/lorrax_C/src/solvers/lanczos.py" source_line=245}
  %shift-left.213 = u32[2]{0} shift-left(%xor.211, %broadcast.179), metadata={op_name="jit(_full_run)/jit(main)/jit(_threefry_split)/shift_left" source_file="/global/homes/j/jackm/software/lorrax_C/src/solvers/lanczos.py" source_line=245}
  %shift-right-logical.214 = u32[2]{0} shift-right-logical(%xor.211, %broadcast.181), metadata={op_name="jit(_full_run)/jit(main)/jit(_threefry_split)/shift_right_logical" source_file="/global/homes/j/jackm/software/lorrax_C/src/solvers/lanczos.py" source_line=245}
  %or.215 = u32[2]{0} or(%shift-left.213, %shift-right-logical.214), metadata={op_name="jit(_full_run)/jit(main)/jit(_threefry_split)/or" source_file="/global/homes/j/jackm/software/lorrax_C/src/solvers/lanczos.py" source_line=245}
  %xor.216 = u32[2]{0} xor(%add.212, %or.215), metadata={op_name="jit(_full_run)/jit(main)/jit(_threefry_split)/xor" source_file="/global/homes/j/jackm/software/lorrax_C/src/solvers/lanczos.py" source_line=245}
  %xor.191 = u32[] xor(%Arg_0.156, %Arg_1.157), metadata={op_name="jit(_full_run)/jit(main)/jit(_threefry_split)/xor" source_file="/global/homes/j/jackm/software/lorrax_C/src/solvers/lanczos.py" source_line=245}
  %constant.190 = u32[] constant(466688986)
  %xor.192 = u32[] xor(%xor.191, %constant.190), metadata={op_name="jit(_full_run)/jit(main)/jit(_threefry_split)/xor" source_file="/global/homes/j/jackm/software/lorrax_C/src/solvers/lanczos.py" source_line=245}
  %broadcast.219 = u32[2]{0} broadcast(%xor.192), dimensions={}, metadata={op_name="jit(_full_run)/jit(main)/jit(_threefry_split)/add" source_file="/global/homes/j/jackm/software/lorrax_C/src/solvers/lanczos.py" source_line=245}
  %add.220 = u32[2]{0} add(%xor.216, %broadcast.219), metadata={op_name="jit(_full_run)/jit(main)/jit(_threefry_split)/add" source_file="/global/homes/j/jackm/software/lorrax_C/src/solvers/lanczos.py" source_line=245}
  %constant.176 = u32[] constant(1)
  %broadcast.177 = u32[2]{0} broadcast(%constant.176), dimensions={}
  %add.221 = u32[2]{0} add(%add.220, %broadcast.177), metadata={op_name="jit(_full_run)/jit(main)/jit(_threefry_split)/add" source_file="/global/homes/j/jackm/software/lorrax_C/src/solvers/lanczos.py" source_line=245}
  %add.222 = u32[2]{0} add(%add.218, %add.221), metadata={op_name="jit(_full_run)/jit(main)/jit(_threefry_split)/add" source_file="/global/homes/j/jackm/software/lorrax_C/src/solvers/lanczos.py" source_line=245}
  %shift-left.223 = u32[2]{0} shift-left(%add.221, %broadcast.183), metadata={op_name="jit(_full_run)/jit(main)/jit(_threefry_split)/shift_left" source_file="/global/homes/j/jackm/software/lorrax_C/src/solvers/lanczos.py" source_line=245}
  %shift-right-logical.224 = u32[2]{0} shift-right-logical(%add.221, %broadcast.185), metadata={op_name="jit(_full_run)/jit(main)/jit(_threefry_split)/shift_right_logical" source_file="/global/homes/j/jackm/software/lorrax_C/src/solvers/lanczos.py" source_line=245}
  %or.225 = u32[2]{0} or(%shift-left.223, %shift-right-logical.224), metadata={op_name="jit(_full_run)/jit(main)/jit(_threefry_split)/or" source_file="/global/homes/j/jackm/software/lorrax_C/src/solvers/lanczos.py" source_line=245}
  %xor.226 = u32[2]{0} xor(%add.222, %or.225), metadata={op_name="jit(_full_run)/jit(main)/jit(_threefry_split)/xor" source_file="/global/homes/j/jackm/software/lorrax_C/src/solvers/lanczos.py" source_line=245}
  %add.227 = u32[2]{0} add(%add.222, %xor.226), metadata={op_name="jit(_full_run)/jit(main)/jit(_threefry_split)/add" source_file="/global/homes/j/jackm/software/lorrax_C/src/solvers/lanczos.py" source_line=245}
  %constant.174 = u32[] constant(29)
  %broadcast.175 = u32[2]{0} broadcast(%constant.174), dimensions={}
  %shift-left.228 = u32[2]{0} shift-left(%xor.226, %broadcast.175), metadata={op_name="jit(_full_run)/jit(main)/jit(_threefry_split)/shift_left" source_file="/global/homes/j/jackm/software/lorrax_C/src/solvers/lanczos.py" source_line=245}
  %constant.172 = u32[] constant(3)
  %broadcast.173 = u32[2]{0} broadcast(%constant.172), dimensions={}
  %shift-right-logical.229 = u32[2]{0} shift-right-logical(%xor.226, %broadcast.173), metadata={op_name="jit(_full_run)/jit(main)/jit(_threefry_split)/shift_right_logical" source_file="/global/homes/j/jackm/software/lorrax_C/src/solvers/lanczos.py" source_line=245}
  %or.230 = u32[2]{0} or(%shift-left.228, %shift-right-logical.229), metadata={op_name="jit(_full_run)/jit(main)/jit(_threefry_split)/or" source_file="/global/homes/j/jackm/software/lorrax_C/src/solvers/lanczos.py" source_line=245}
  %xor.231 = u32[2]{0} xor(%add.227, %or.230), metadata={op_name="jit(_full_run)/jit(main)/jit(_threefry_split)/xor" source_file="/global/homes/j/jackm/software/lorrax_C/src/solvers/lanczos.py" source_line=245}
  %add.232 = u32[2]{0} add(%add.227, %xor.231), metadata={op_name="jit(_full_run)/jit(main)/jit(_threefry_split)/add" source_file="/global/homes/j/jackm/software/lorrax_C/src/solvers/lanczos.py" source_line=245}
  %constant.170 = u32[] constant(16)
  %broadcast.171 = u32[2]{0} broadcast(%constant.170), dimensions={}
  %shift-left.233 = u32[2]{0} shift-left(%xor.231, %broadcast.171), metadata={op_name="jit(_full_run)/jit(main)/jit(_threefry_split)/shift_left" source_file="/global/homes/j/jackm/software/lorrax_C/src/solvers/lanczos.py" source_line=245}
  %shift-right-logical.234 = u32[2]{0} shift-right-logical(%xor.231, %broadcast.171), metadata={op_name="jit(_full_run)/jit(main)/jit(_threefry_split)/shift_right_logical" source_file="/global/homes/j/jackm/software/lorrax_C/src/solvers/lanczos.py" source_line=245}
  %or.235 = u32[2]{0} or(%shift-left.233, %shift-right-logical.234), metadata={op_name="jit(_full_run)/jit(main)/jit(_threefry_split)/or" source_file="/global/homes/j/jackm/software/lorrax_C/src/solvers/lanczos.py" source_line=245}
  %xor.236 = u32[2]{0} xor(%add.232, %or.235), metadata={op_name="jit(_full_run)/jit(main)/jit(_threefry_split)/xor" source_file="/global/homes/j/jackm/software/lorrax_C/src/solvers/lanczos.py" source_line=245}
  %add.237 = u32[2]{0} add(%add.232, %xor.236), metadata={op_name="jit(_full_run)/jit(main)/jit(_threefry_split)/add" source_file="/global/homes/j/jackm/software/lorrax_C/src/solvers/lanczos.py" source_line=245}
  %broadcast.242 = u32[2]{0} broadcast(%xor.192), dimensions={}, metadata={op_name="jit(_full_run)/jit(main)/jit(_threefry_split)/add" source_file="/global/homes/j/jackm/software/lorrax_C/src/solvers/lanczos.py" source_line=245}
  %add.243 = u32[2]{0} add(%add.237, %broadcast.242), metadata={op_name="jit(_full_run)/jit(main)/jit(_threefry_split)/add" source_file="/global/homes/j/jackm/software/lorrax_C/src/solvers/lanczos.py" source_line=245}
  %constant.168 = u32[] constant(24)
  %broadcast.169 = u32[2]{0} broadcast(%constant.168), dimensions={}
  %shift-left.238 = u32[2]{0} shift-left(%xor.236, %broadcast.169), metadata={op_name="jit(_full_run)/jit(main)/jit(_threefry_split)/shift_left" source_file="/global/homes/j/jackm/software/lorrax_C/src/solvers/lanczos.py" source_line=245}
  %constant.166 = u32[] constant(8)
  %broadcast.167 = u32[2]{0} broadcast(%constant.166), dimensions={}
  %shift-right-logical.239 = u32[2]{0} shift-right-logical(%xor.236, %broadcast.167), metadata={op_name="jit(_full_run)/jit(main)/jit(_threefry_split)/shift_right_logical" source_file="/global/homes/j/jackm/software/lorrax_C/src/solvers/lanczos.py" source_line=245}
  %or.240 = u32[2]{0} or(%shift-left.238, %shift-right-logical.239), metadata={op_name="jit(_full_run)/jit(main)/jit(_threefry_split)/or" source_file="/global/homes/j/jackm/software/lorrax_C/src/solvers/lanczos.py" source_line=245}
  %xor.241 = u32[2]{0} xor(%add.237, %or.240), metadata={op_name="jit(_full_run)/jit(main)/jit(_threefry_split)/xor" source_file="/global/homes/j/jackm/software/lorrax_C/src/solvers/lanczos.py" source_line=245}
  %broadcast.244 = u32[2]{0} broadcast(%Arg_0.156), dimensions={}, metadata={op_name="jit(_full_run)/jit(main)/jit(_threefry_split)/add" source_file="/global/homes/j/jackm/software/lorrax_C/src/solvers/lanczos.py" source_line=245}
  %add.245 = u32[2]{0} add(%xor.241, %broadcast.244), metadata={op_name="jit(_full_run)/jit(main)/jit(_threefry_split)/add" source_file="/global/homes/j/jackm/software/lorrax_C/src/solvers/lanczos.py" source_line=245}
  %constant.164 = u32[] constant(2)
  %broadcast.165 = u32[2]{0} broadcast(%constant.164), dimensions={}
  %add.246 = u32[2]{0} add(%add.245, %broadcast.165), metadata={op_name="jit(_full_run)/jit(main)/jit(_threefry_split)/add" source_file="/global/homes/j/jackm/software/lorrax_C/src/solvers/lanczos.py" source_line=245}
  %add.247 = u32[2]{0} add(%add.243, %add.246), metadata={op_name="jit(_full_run)/jit(main)/jit(_threefry_split)/add" source_file="/global/homes/j/jackm/software/lorrax_C/src/solvers/lanczos.py" source_line=245}
  %shift-left.248 = u32[2]{0} shift-left(%add.246, %broadcast.189), metadata={op_name="jit(_full_run)/jit(main)/jit(_threefry_split)/shift_left" source_file="/global/homes/j/jackm/software/lorrax_C/src/solvers/lanczos.py" source_line=245}
  %shift-right-logical.249 = u32[2]{0} shift-right-logical(%add.246, %broadcast.187), metadata={op_name="jit(_full_run)/jit(main)/jit(_threefry_split)/shift_right_logical" source_file="/global/homes/j/jackm/software/lorrax_C/src/solvers/lanczos.py" source_line=245}
  %or.250 = u32[2]{0} or(%shift-left.248, %shift-right-logical.249), metadata={op_name="jit(_full_run)/jit(main)/jit(_threefry_split)/or" source_file="/global/homes/j/jackm/software/lorrax_C/src/solvers/lanczos.py" source_line=245}
  %xor.251 = u32[2]{0} xor(%add.247, %or.250), metadata={op_name="jit(_full_run)/jit(main)/jit(_threefry_split)/xor" source_file="/global/homes/j/jackm/software/lorrax_C/src/solvers/lanczos.py" source_line=245}
  %add.252 = u32[2]{0} add(%add.247, %xor.251), metadata={op_name="jit(_full_run)/jit(main)/jit(_threefry_split)/add" source_file="/global/homes/j/jackm/software/lorrax_C/src/solvers/lanczos.py" source_line=245}
  %shift-left.253 = u32[2]{0} shift-left(%xor.251, %broadcast.185), metadata={op_name="jit(_full_run)/jit(main)/jit(_threefry_split)/shift_left" source_file="/global/homes/j/jackm/software/lorrax_C/src/solvers/lanczos.py" source_line=245}
  %shift-right-logical.254 = u32[2]{0} shift-right-logical(%xor.251, %broadcast.183), metadata={op_name="jit(_full_run)/jit(main)/jit(_threefry_split)/shift_right_logical" source_file="/global/homes/j/jackm/software/lorrax_C/src/solvers/lanczos.py" source_line=245}
  %or.255 = u32[2]{0} or(%shift-left.253, %shift-right-logical.254), metadata={op_name="jit(_full_run)/jit(main)/jit(_threefry_split)/or" source_file="/global/homes/j/jackm/software/lorrax_C/src/solvers/lanczos.py" source_line=245}
  %xor.256 = u32[2]{0} xor(%add.252, %or.255), metadata={op_name="jit(_full_run)/jit(main)/jit(_threefry_split)/xor" source_file="/global/homes/j/jackm/software/lorrax_C/src/solvers/lanczos.py" source_line=245}
  %add.257 = u32[2]{0} add(%add.252, %xor.256), metadata={op_name="jit(_full_run)/jit(main)/jit(_threefry_split)/add" source_file="/global/homes/j/jackm/software/lorrax_C/src/solvers/lanczos.py" source_line=245}
  %shift-left.258 = u32[2]{0} shift-left(%xor.256, %broadcast.181), metadata={op_name="jit(_full_run)/jit(main)/jit(_threefry_split)/shift_left" source_file="/global/homes/j/jackm/software/lorrax_C/src/solvers/lanczos.py" source_line=245}
  %shift-right-logical.259 = u32[2]{0} shift-right-logical(%xor.256, %broadcast.179), metadata={op_name="jit(_full_run)/jit(main)/jit(_threefry_split)/shift_right_logical" source_file="/global/homes/j/jackm/software/lorrax_C/src/solvers/lanczos.py" source_line=245}
  %or.260 = u32[2]{0} or(%shift-left.258, %shift-right-logical.259), metadata={op_name="jit(_full_run)/jit(main)/jit(_threefry_split)/or" source_file="/global/homes/j/jackm/software/lorrax_C/src/solvers/lanczos.py" source_line=245}
  %xor.261 = u32[2]{0} xor(%add.257, %or.260), metadata={op_name="jit(_full_run)/jit(main)/jit(_threefry_split)/xor" source_file="/global/homes/j/jackm/software/lorrax_C/src/solvers/lanczos.py" source_line=245}
  %add.262 = u32[2]{0} add(%add.257, %xor.261), metadata={op_name="jit(_full_run)/jit(main)/jit(_threefry_split)/add" source_file="/global/homes/j/jackm/software/lorrax_C/src/solvers/lanczos.py" source_line=245}
  %broadcast.267 = u32[2]{0} broadcast(%Arg_0.156), dimensions={}, metadata={op_name="jit(_full_run)/jit(main)/jit(_threefry_split)/add" source_file="/global/homes/j/jackm/software/lorrax_C/src/solvers/lanczos.py" source_line=245}
  %add.268 = u32[2]{0} add(%add.262, %broadcast.267), metadata={op_name="jit(_full_run)/jit(main)/jit(_threefry_split)/add" source_file="/global/homes/j/jackm/software/lorrax_C/src/solvers/lanczos.py" source_line=245}
  %shift-left.263 = u32[2]{0} shift-left(%xor.261, %broadcast.179), metadata={op_name="jit(_full_run)/jit(main)/jit(_threefry_split)/shift_left" source_file="/global/homes/j/jackm/software/lorrax_C/src/solvers/lanczos.py" source_line=245}
  %shift-right-logical.264 = u32[2]{0} shift-right-logical(%xor.261, %broadcast.181), metadata={op_name="jit(_full_run)/jit(main)/jit(_threefry_split)/shift_right_logical" source_file="/global/homes/j/jackm/software/lorrax_C/src/solvers/lanczos.py" source_line=245}
  %or.265 = u32[2]{0} or(%shift-left.263, %shift-right-logical.264), metadata={op_name="jit(_full_run)/jit(main)/jit(_threefry_split)/or" source_file="/global/homes/j/jackm/software/lorrax_C/src/solvers/lanczos.py" source_line=245}
  %xor.266 = u32[2]{0} xor(%add.262, %or.265), metadata={op_name="jit(_full_run)/jit(main)/jit(_threefry_split)/xor" source_file="/global/homes/j/jackm/software/lorrax_C/src/solvers/lanczos.py" source_line=245}
  %broadcast.269 = u32[2]{0} broadcast(%Arg_1.157), dimensions={}, metadata={op_name="jit(_full_run)/jit(main)/jit(_threefry_split)/add" source_file="/global/homes/j/jackm/software/lorrax_C/src/solvers/lanczos.py" source_line=245}
  %add.270 = u32[2]{0} add(%xor.266, %broadcast.269), metadata={op_name="jit(_full_run)/jit(main)/jit(_threefry_split)/add" source_file="/global/homes/j/jackm/software/lorrax_C/src/solvers/lanczos.py" source_line=245}
  %add.271 = u32[2]{0} add(%add.270, %broadcast.173), metadata={op_name="jit(_full_run)/jit(main)/jit(_threefry_split)/add" source_file="/global/homes/j/jackm/software/lorrax_C/src/solvers/lanczos.py" source_line=245}
  %add.272 = u32[2]{0} add(%add.268, %add.271), metadata={op_name="jit(_full_run)/jit(main)/jit(_threefry_split)/add" source_file="/global/homes/j/jackm/software/lorrax_C/src/solvers/lanczos.py" source_line=245}
  %shift-left.273 = u32[2]{0} shift-left(%add.271, %broadcast.183), metadata={op_name="jit(_full_run)/jit(main)/jit(_threefry_split)/shift_left" source_file="/global/homes/j/jackm/software/lorrax_C/src/solvers/lanczos.py" source_line=245}
  %shift-right-logical.274 = u32[2]{0} shift-right-logical(%add.271, %broadcast.185), metadata={op_name="jit(_full_run)/jit(main)/jit(_threefry_split)/shift_right_logical" source_file="/global/homes/j/jackm/software/lorrax_C/src/solvers/lanczos.py" source_line=245}
  %or.275 = u32[2]{0} or(%shift-left.273, %shift-right-logical.274), metadata={op_name="jit(_full_run)/jit(main)/jit(_threefry_split)/or" source_file="/global/homes/j/jackm/software/lorrax_C/src/solvers/lanczos.py" source_line=245}
  %xor.276 = u32[2]{0} xor(%add.272, %or.275), metadata={op_name="jit(_full_run)/jit(main)/jit(_threefry_split)/xor" source_file="/global/homes/j/jackm/software/lorrax_C/src/solvers/lanczos.py" source_line=245}
  %add.277 = u32[2]{0} add(%add.272, %xor.276), metadata={op_name="jit(_full_run)/jit(main)/jit(_threefry_split)/add" source_file="/global/homes/j/jackm/software/lorrax_C/src/solvers/lanczos.py" source_line=245}
  %shift-left.278 = u32[2]{0} shift-left(%xor.276, %broadcast.175), metadata={op_name="jit(_full_run)/jit(main)/jit(_threefry_split)/shift_left" source_file="/global/homes/j/jackm/software/lorrax_C/src/solvers/lanczos.py" source_line=245}
  %shift-right-logical.279 = u32[2]{0} shift-right-logical(%xor.276, %broadcast.173), metadata={op_name="jit(_full_run)/jit(main)/jit(_threefry_split)/shift_right_logical" source_file="/global/homes/j/jackm/software/lorrax_C/src/solvers/lanczos.py" source_line=245}
  %or.280 = u32[2]{0} or(%shift-left.278, %shift-right-logical.279), metadata={op_name="jit(_full_run)/jit(main)/jit(_threefry_split)/or" source_file="/global/homes/j/jackm/software/lorrax_C/src/solvers/lanczos.py" source_line=245}
  %xor.281 = u32[2]{0} xor(%add.277, %or.280), metadata={op_name="jit(_full_run)/jit(main)/jit(_threefry_split)/xor" source_file="/global/homes/j/jackm/software/lorrax_C/src/solvers/lanczos.py" source_line=245}
  %add.282 = u32[2]{0} add(%add.277, %xor.281), metadata={op_name="jit(_full_run)/jit(main)/jit(_threefry_split)/add" source_file="/global/homes/j/jackm/software/lorrax_C/src/solvers/lanczos.py" source_line=245}
  %shift-left.283 = u32[2]{0} shift-left(%xor.281, %broadcast.171), metadata={op_name="jit(_full_run)/jit(main)/jit(_threefry_split)/shift_left" source_file="/global/homes/j/jackm/software/lorrax_C/src/solvers/lanczos.py" source_line=245}
  %shift-right-logical.284 = u32[2]{0} shift-right-logical(%xor.281, %broadcast.171), metadata={op_name="jit(_full_run)/jit(main)/jit(_threefry_split)/shift_right_logical" source_file="/global/homes/j/jackm/software/lorrax_C/src/solvers/lanczos.py" source_line=245}
  %or.285 = u32[2]{0} or(%shift-left.283, %shift-right-logical.284), metadata={op_name="jit(_full_run)/jit(main)/jit(_threefry_split)/or" source_file="/global/homes/j/jackm/software/lorrax_C/src/solvers/lanczos.py" source_line=245}
  %xor.286 = u32[2]{0} xor(%add.282, %or.285), metadata={op_name="jit(_full_run)/jit(main)/jit(_threefry_split)/xor" source_file="/global/homes/j/jackm/software/lorrax_C/src/solvers/lanczos.py" source_line=245}
  %add.287 = u32[2]{0} add(%add.282, %xor.286), metadata={op_name="jit(_full_run)/jit(main)/jit(_threefry_split)/add" source_file="/global/homes/j/jackm/software/lorrax_C/src/solvers/lanczos.py" source_line=245}
  %broadcast.292 = u32[2]{0} broadcast(%Arg_1.157), dimensions={}, metadata={op_name="jit(_full_run)/jit(main)/jit(_threefry_split)/add" source_file="/global/homes/j/jackm/software/lorrax_C/src/solvers/lanczos.py" source_line=245}
  %add.293 = u32[2]{0} add(%add.287, %broadcast.292), metadata={op_name="jit(_full_run)/jit(main)/jit(_threefry_split)/add" source_file="/global/homes/j/jackm/software/lorrax_C/src/solvers/lanczos.py" source_line=245}
  %shift-left.288 = u32[2]{0} shift-left(%xor.286, %broadcast.169), metadata={op_name="jit(_full_run)/jit(main)/jit(_threefry_split)/shift_left" source_file="/global/homes/j/jackm/software/lorrax_C/src/solvers/lanczos.py" source_line=245}
  %shift-right-logical.289 = u32[2]{0} shift-right-logical(%xor.286, %broadcast.167), metadata={op_name="jit(_full_run)/jit(main)/jit(_threefry_split)/shift_right_logical" source_file="/global/homes/j/jackm/software/lorrax_C/src/solvers/lanczos.py" source_line=245}
  %or.290 = u32[2]{0} or(%shift-left.288, %shift-right-logical.289), metadata={op_name="jit(_full_run)/jit(main)/jit(_threefry_split)/or" source_file="/global/homes/j/jackm/software/lorrax_C/src/solvers/lanczos.py" source_line=245}
  %xor.291 = u32[2]{0} xor(%add.287, %or.290), metadata={op_name="jit(_full_run)/jit(main)/jit(_threefry_split)/xor" source_file="/global/homes/j/jackm/software/lorrax_C/src/solvers/lanczos.py" source_line=245}
  %broadcast.294 = u32[2]{0} broadcast(%xor.192), dimensions={}, metadata={op_name="jit(_full_run)/jit(main)/jit(_threefry_split)/add" source_file="/global/homes/j/jackm/software/lorrax_C/src/solvers/lanczos.py" source_line=245}
  %add.295 = u32[2]{0} add(%xor.291, %broadcast.294), metadata={op_name="jit(_full_run)/jit(main)/jit(_threefry_split)/add" source_file="/global/homes/j/jackm/software/lorrax_C/src/solvers/lanczos.py" source_line=245}
  %constant.162 = u32[] constant(4)
  %broadcast.163 = u32[2]{0} broadcast(%constant.162), dimensions={}
  %add.296 = u32[2]{0} add(%add.295, %broadcast.163), metadata={op_name="jit(_full_run)/jit(main)/jit(_threefry_split)/add" source_file="/global/homes/j/jackm/software/lorrax_C/src/solvers/lanczos.py" source_line=245}
  %add.297 = u32[2]{0} add(%add.293, %add.296), metadata={op_name="jit(_full_run)/jit(main)/jit(_threefry_split)/add" source_file="/global/homes/j/jackm/software/lorrax_C/src/solvers/lanczos.py" source_line=245}
  %shift-left.298 = u32[2]{0} shift-left(%add.296, %broadcast.189), metadata={op_name="jit(_full_run)/jit(main)/jit(_threefry_split)/shift_left" source_file="/global/homes/j/jackm/software/lorrax_C/src/solvers/lanczos.py" source_line=245}
  %shift-right-logical.299 = u32[2]{0} shift-right-logical(%add.296, %broadcast.187), metadata={op_name="jit(_full_run)/jit(main)/jit(_threefry_split)/shift_right_logical" source_file="/global/homes/j/jackm/software/lorrax_C/src/solvers/lanczos.py" source_line=245}
  %or.300 = u32[2]{0} or(%shift-left.298, %shift-right-logical.299), metadata={op_name="jit(_full_run)/jit(main)/jit(_threefry_split)/or" source_file="/global/homes/j/jackm/software/lorrax_C/src/solvers/lanczos.py" source_line=245}
  %xor.301 = u32[2]{0} xor(%add.297, %or.300), metadata={op_name="jit(_full_run)/jit(main)/jit(_threefry_split)/xor" source_file="/global/homes/j/jackm/software/lorrax_C/src/solvers/lanczos.py" source_line=245}
  %add.302 = u32[2]{0} add(%add.297, %xor.301), metadata={op_name="jit(_full_run)/jit(main)/jit(_threefry_split)/add" source_file="/global/homes/j/jackm/software/lorrax_C/src/solvers/lanczos.py" source_line=245}
  %shift-left.303 = u32[2]{0} shift-left(%xor.301, %broadcast.185), metadata={op_name="jit(_full_run)/jit(main)/jit(_threefry_split)/shift_left" source_file="/global/homes/j/jackm/software/lorrax_C/src/solvers/lanczos.py" source_line=245}
  %shift-right-logical.304 = u32[2]{0} shift-right-logical(%xor.301, %broadcast.183), metadata={op_name="jit(_full_run)/jit(main)/jit(_threefry_split)/shift_right_logical" source_file="/global/homes/j/jackm/software/lorrax_C/src/solvers/lanczos.py" source_line=245}
  %or.305 = u32[2]{0} or(%shift-left.303, %shift-right-logical.304), metadata={op_name="jit(_full_run)/jit(main)/jit(_threefry_split)/or" source_file="/global/homes/j/jackm/software/lorrax_C/src/solvers/lanczos.py" source_line=245}
  %xor.306 = u32[2]{0} xor(%add.302, %or.305), metadata={op_name="jit(_full_run)/jit(main)/jit(_threefry_split)/xor" source_file="/global/homes/j/jackm/software/lorrax_C/src/solvers/lanczos.py" source_line=245}
  %add.307 = u32[2]{0} add(%add.302, %xor.306), metadata={op_name="jit(_full_run)/jit(main)/jit(_threefry_split)/add" source_file="/global/homes/j/jackm/software/lorrax_C/src/solvers/lanczos.py" source_line=245}
  %shift-left.308 = u32[2]{0} shift-left(%xor.306, %broadcast.181), metadata={op_name="jit(_full_run)/jit(main)/jit(_threefry_split)/shift_left" source_file="/global/homes/j/jackm/software/lorrax_C/src/solvers/lanczos.py" source_line=245}
  %shift-right-logical.309 = u32[2]{0} shift-right-logical(%xor.306, %broadcast.179), metadata={op_name="jit(_full_run)/jit(main)/jit(_threefry_split)/shift_right_logical" source_file="/global/homes/j/jackm/software/lorrax_C/src/solvers/lanczos.py" source_line=245}
  %or.310 = u32[2]{0} or(%shift-left.308, %shift-right-logical.309), metadata={op_name="jit(_full_run)/jit(main)/jit(_threefry_split)/or" source_file="/global/homes/j/jackm/software/lorrax_C/src/solvers/lanczos.py" source_line=245}
  %xor.311 = u32[2]{0} xor(%add.307, %or.310), metadata={op_name="jit(_full_run)/jit(main)/jit(_threefry_split)/xor" source_file="/global/homes/j/jackm/software/lorrax_C/src/solvers/lanczos.py" source_line=245}
  %add.312 = u32[2]{0} add(%add.307, %xor.311), metadata={op_name="jit(_full_run)/jit(main)/jit(_threefry_split)/add" source_file="/global/homes/j/jackm/software/lorrax_C/src/solvers/lanczos.py" source_line=245}
  %broadcast.317 = u32[2]{0} broadcast(%xor.192), dimensions={}, metadata={op_name="jit(_full_run)/jit(main)/jit(_threefry_split)/add" source_file="/global/homes/j/jackm/software/lorrax_C/src/solvers/lanczos.py" source_line=245}
  %add.318 = u32[2]{0} add(%add.312, %broadcast.317), metadata={op_name="jit(_full_run)/jit(main)/jit(_threefry_split)/add" source_file="/global/homes/j/jackm/software/lorrax_C/src/solvers/lanczos.py" source_line=245}
  %shift-left.313 = u32[2]{0} shift-left(%xor.311, %broadcast.179), metadata={op_name="jit(_full_run)/jit(main)/jit(_threefry_split)/shift_left" source_file="/global/homes/j/jackm/software/lorrax_C/src/solvers/lanczos.py" source_line=245}
  %shift-right-logical.314 = u32[2]{0} shift-right-logical(%xor.311, %broadcast.181), metadata={op_name="jit(_full_run)/jit(main)/jit(_threefry_split)/shift_right_logical" source_file="/global/homes/j/jackm/software/lorrax_C/src/solvers/lanczos.py" source_line=245}
  %or.315 = u32[2]{0} or(%shift-left.313, %shift-right-logical.314), metadata={op_name="jit(_full_run)/jit(main)/jit(_threefry_split)/or" source_file="/global/homes/j/jackm/software/lorrax_C/src/solvers/lanczos.py" source_line=245}
  %xor.316 = u32[2]{0} xor(%add.312, %or.315), metadata={op_name="jit(_full_run)/jit(main)/jit(_threefry_split)/xor" source_file="/global/homes/j/jackm/software/lorrax_C/src/solvers/lanczos.py" source_line=245}
  %broadcast.319 = u32[2]{0} broadcast(%Arg_0.156), dimensions={}, metadata={op_name="jit(_full_run)/jit(main)/jit(_threefry_split)/add" source_file="/global/homes/j/jackm/software/lorrax_C/src/solvers/lanczos.py" source_line=245}
  %add.320 = u32[2]{0} add(%xor.316, %broadcast.319), metadata={op_name="jit(_full_run)/jit(main)/jit(_threefry_split)/add" source_file="/global/homes/j/jackm/software/lorrax_C/src/solvers/lanczos.py" source_line=245}
  %constant.160 = u32[] constant(5)
  %broadcast.161 = u32[2]{0} broadcast(%constant.160), dimensions={}
  %add.321 = u32[2]{0} add(%add.320, %broadcast.161), metadata={op_name="jit(_full_run)/jit(main)/jit(_threefry_split)/add" source_file="/global/homes/j/jackm/software/lorrax_C/src/solvers/lanczos.py" source_line=245}
  ROOT %tuple.322 = (u32[2]{0}, u32[2]{0}) tuple(%add.318, %add.321)
}

%_threefry_split.323 (Arg_0.324: u32[2]) -> u32[2,2] {
  %Arg_0.324 = u32[2]{0} parameter(0), metadata={op_name="jit(_full_run)/jit(main)/pjit"}
  %slice.327 = u32[1]{0} slice(%Arg_0.324), slice={[0:1]}, metadata={op_name="jit(_full_run)/jit(main)/jit(_threefry_split)/slice" source_file="/global/homes/j/jackm/software/lorrax_C/src/solvers/lanczos.py" source_line=245}
  %reshape.328 = u32[] reshape(%slice.327), metadata={op_name="jit(_full_run)/jit(main)/jit(_threefry_split)/squeeze" source_file="/global/homes/j/jackm/software/lorrax_C/src/solvers/lanczos.py" source_line=245}
  %slice.329 = u32[1]{0} slice(%Arg_0.324), slice={[1:2]}, metadata={op_name="jit(_full_run)/jit(main)/jit(_threefry_split)/slice" source_file="/global/homes/j/jackm/software/lorrax_C/src/solvers/lanczos.py" source_line=245}
  %reshape.330 = u32[] reshape(%slice.329), metadata={op_name="jit(_full_run)/jit(main)/jit(_threefry_split)/squeeze" source_file="/global/homes/j/jackm/software/lorrax_C/src/solvers/lanczos.py" source_line=245}
  %iota.331 = u64[2]{0} iota(), iota_dimension=0, metadata={op_name="jit(_full_run)/jit(main)/jit(_threefry_split)/iota_2x32_shape" source_file="/global/homes/j/jackm/software/lorrax_C/src/solvers/lanczos.py" source_line=245}
  %constant.325 = u64[] constant(32)
  %broadcast.326 = u64[2]{0} broadcast(%constant.325), dimensions={}
  %shift-right-logical.332 = u64[2]{0} shift-right-logical(%iota.331, %broadcast.326), metadata={op_name="jit(_full_run)/jit(main)/jit(_threefry_split)/iota_2x32_shape" source_file="/global/homes/j/jackm/software/lorrax_C/src/solvers/lanczos.py" source_line=245}
  %convert.334 = u32[2]{0} convert(%shift-right-logical.332), metadata={op_name="jit(_full_run)/jit(main)/jit(_threefry_split)/iota_2x32_shape" source_file="/global/homes/j/jackm/software/lorrax_C/src/solvers/lanczos.py" source_line=245}
  %convert.333 = u32[2]{0} convert(%iota.331), metadata={op_name="jit(_full_run)/jit(main)/jit(_threefry_split)/iota_2x32_shape" source_file="/global/homes/j/jackm/software/lorrax_C/src/solvers/lanczos.py" source_line=245}
  %call.335 = (u32[2]{0}, u32[2]{0}) call(%reshape.328, %reshape.330, %convert.334, %convert.333), to_apply=%threefry2x32.155
  %get-tuple-element.336 = u32[2]{0} get-tuple-element(%call.335), index=0
  %reshape.338 = u32[2,1]{1,0} reshape(%get-tuple-element.336), metadata={op_name="jit(_full_run)/jit(main)/jit(_threefry_split)/broadcast_in_dim" source_file="/global/homes/j/jackm/software/lorrax_C/src/solvers/lanczos.py" source_line=245}
  %get-tuple-element.337 = u32[2]{0} get-tuple-element(%call.335), index=1
  %reshape.339 = u32[2,1]{1,0} reshape(%get-tuple-element.337), metadata={op_name="jit(_full_run)/jit(main)/jit(_threefry_split)/broadcast_in_dim" source_file="/global/homes/j/jackm/software/lorrax_C/src/solvers/lanczos.py" source_line=245}
  ROOT %concatenate.340 = u32[2,2]{1,0} concatenate(%reshape.338, %reshape.339), dimensions={1}, metadata={op_name="jit(_full_run)/jit(main)/jit(_threefry_split)/concatenate" source_file="/global/homes/j/jackm/software/lorrax_C/src/solvers/lanczos.py" source_line=245}
}

%threefry2x32_0.346 (Arg_0.347: u32[], Arg_1.348: u32[], Arg_2.349: u32[4096], Arg_3.350: u32[4096]) -> (u32[4096], u32[4096]) {
  %Arg_2.349 = u32[4096]{0} parameter(2), metadata={op_name="jit(_full_run)/jit(main)/jit(_normal)/jit(_normal_real)/jit(_uniform)/threefry2x32"}
  %Arg_0.347 = u32[] parameter(0), metadata={op_name="jit(_full_run)/jit(main)/jit(_normal)/jit(_normal_real)/jit(_uniform)/threefry2x32"}
  %broadcast.384 = u32[4096]{0} broadcast(%Arg_0.347), dimensions={}, metadata={op_name="jit(_full_run)/jit(main)/jit(_normal)/jit(_normal_real)/jit(_uniform)/add" source_file="/global/homes/j/jackm/software/lorrax_C/src/solvers/lanczos.py" source_line=247}
  %add.385 = u32[4096]{0} add(%Arg_2.349, %broadcast.384), metadata={op_name="jit(_full_run)/jit(main)/jit(_normal)/jit(_normal_real)/jit(_uniform)/add" source_file="/global/homes/j/jackm/software/lorrax_C/src/solvers/lanczos.py" source_line=247}
  %Arg_3.350 = u32[4096]{0} parameter(3), metadata={op_name="jit(_full_run)/jit(main)/jit(_normal)/jit(_normal_real)/jit(_uniform)/threefry2x32"}
  %Arg_1.348 = u32[] parameter(1), metadata={op_name="jit(_full_run)/jit(main)/jit(_normal)/jit(_normal_real)/jit(_uniform)/threefry2x32"}
  %broadcast.386 = u32[4096]{0} broadcast(%Arg_1.348), dimensions={}, metadata={op_name="jit(_full_run)/jit(main)/jit(_normal)/jit(_normal_real)/jit(_uniform)/add" source_file="/global/homes/j/jackm/software/lorrax_C/src/solvers/lanczos.py" source_line=247}
  %add.387 = u32[4096]{0} add(%Arg_3.350, %broadcast.386), metadata={op_name="jit(_full_run)/jit(main)/jit(_normal)/jit(_normal_real)/jit(_uniform)/add" source_file="/global/homes/j/jackm/software/lorrax_C/src/solvers/lanczos.py" source_line=247}
  %add.388 = u32[4096]{0} add(%add.385, %add.387), metadata={op_name="jit(_full_run)/jit(main)/jit(_normal)/jit(_normal_real)/jit(_uniform)/add" source_file="/global/homes/j/jackm/software/lorrax_C/src/solvers/lanczos.py" source_line=247}
  %constant.379 = u32[] constant(13)
  %broadcast.380 = u32[4096]{0} broadcast(%constant.379), dimensions={}
  %shift-left.389 = u32[4096]{0} shift-left(%add.387, %broadcast.380), metadata={op_name="jit(_full_run)/jit(main)/jit(_normal)/jit(_normal_real)/jit(_uniform)/shift_left" source_file="/global/homes/j/jackm/software/lorrax_C/src/solvers/lanczos.py" source_line=247}
  %constant.377 = u32[] constant(19)
  %broadcast.378 = u32[4096]{0} broadcast(%constant.377), dimensions={}
  %shift-right-logical.390 = u32[4096]{0} shift-right-logical(%add.387, %broadcast.378), metadata={op_name="jit(_full_run)/jit(main)/jit(_normal)/jit(_normal_real)/jit(_uniform)/shift_right_logical" source_file="/global/homes/j/jackm/software/lorrax_C/src/solvers/lanczos.py" source_line=247}
  %or.391 = u32[4096]{0} or(%shift-left.389, %shift-right-logical.390), metadata={op_name="jit(_full_run)/jit(main)/jit(_normal)/jit(_normal_real)/jit(_uniform)/or" source_file="/global/homes/j/jackm/software/lorrax_C/src/solvers/lanczos.py" source_line=247}
  %xor.392 = u32[4096]{0} xor(%add.388, %or.391), metadata={op_name="jit(_full_run)/jit(main)/jit(_normal)/jit(_normal_real)/jit(_uniform)/xor" source_file="/global/homes/j/jackm/software/lorrax_C/src/solvers/lanczos.py" source_line=247}
  %add.393 = u32[4096]{0} add(%add.388, %xor.392), metadata={op_name="jit(_full_run)/jit(main)/jit(_normal)/jit(_normal_real)/jit(_uniform)/add" source_file="/global/homes/j/jackm/software/lorrax_C/src/solvers/lanczos.py" source_line=247}
  %constant.375 = u32[] constant(15)
  %broadcast.376 = u32[4096]{0} broadcast(%constant.375), dimensions={}
  %shift-left.394 = u32[4096]{0} shift-left(%xor.392, %broadcast.376), metadata={op_name="jit(_full_run)/jit(main)/jit(_normal)/jit(_normal_real)/jit(_uniform)/shift_left" source_file="/global/homes/j/jackm/software/lorrax_C/src/solvers/lanczos.py" source_line=247}
  %constant.373 = u32[] constant(17)
  %broadcast.374 = u32[4096]{0} broadcast(%constant.373), dimensions={}
  %shift-right-logical.395 = u32[4096]{0} shift-right-logical(%xor.392, %broadcast.374), metadata={op_name="jit(_full_run)/jit(main)/jit(_normal)/jit(_normal_real)/jit(_uniform)/shift_right_logical" source_file="/global/homes/j/jackm/software/lorrax_C/src/solvers/lanczos.py" source_line=247}
  %or.396 = u32[4096]{0} or(%shift-left.394, %shift-right-logical.395), metadata={op_name="jit(_full_run)/jit(main)/jit(_normal)/jit(_normal_real)/jit(_uniform)/or" source_file="/global/homes/j/jackm/software/lorrax_C/src/solvers/lanczos.py" source_line=247}
  %xor.397 = u32[4096]{0} xor(%add.393, %or.396), metadata={op_name="jit(_full_run)/jit(main)/jit(_normal)/jit(_normal_real)/jit(_uniform)/xor" source_file="/global/homes/j/jackm/software/lorrax_C/src/solvers/lanczos.py" source_line=247}
  %add.398 = u32[4096]{0} add(%add.393, %xor.397), metadata={op_name="jit(_full_run)/jit(main)/jit(_normal)/jit(_normal_real)/jit(_uniform)/add" source_file="/global/homes/j/jackm/software/lorrax_C/src/solvers/lanczos.py" source_line=247}
  %constant.371 = u32[] constant(26)
  %broadcast.372 = u32[4096]{0} broadcast(%constant.371), dimensions={}
  %shift-left.399 = u32[4096]{0} shift-left(%xor.397, %broadcast.372), metadata={op_name="jit(_full_run)/jit(main)/jit(_normal)/jit(_normal_real)/jit(_uniform)/shift_left" source_file="/global/homes/j/jackm/software/lorrax_C/src/solvers/lanczos.py" source_line=247}
  %constant.369 = u32[] constant(6)
  %broadcast.370 = u32[4096]{0} broadcast(%constant.369), dimensions={}
  %shift-right-logical.400 = u32[4096]{0} shift-right-logical(%xor.397, %broadcast.370), metadata={op_name="jit(_full_run)/jit(main)/jit(_normal)/jit(_normal_real)/jit(_uniform)/shift_right_logical" source_file="/global/homes/j/jackm/software/lorrax_C/src/solvers/lanczos.py" source_line=247}
  %or.401 = u32[4096]{0} or(%shift-left.399, %shift-right-logical.400), metadata={op_name="jit(_full_run)/jit(main)/jit(_normal)/jit(_normal_real)/jit(_uniform)/or" source_file="/global/homes/j/jackm/software/lorrax_C/src/solvers/lanczos.py" source_line=247}
  %xor.402 = u32[4096]{0} xor(%add.398, %or.401), metadata={op_name="jit(_full_run)/jit(main)/jit(_normal)/jit(_normal_real)/jit(_uniform)/xor" source_file="/global/homes/j/jackm/software/lorrax_C/src/solvers/lanczos.py" source_line=247}
  %add.403 = u32[4096]{0} add(%add.398, %xor.402), metadata={op_name="jit(_full_run)/jit(main)/jit(_normal)/jit(_normal_real)/jit(_uniform)/add" source_file="/global/homes/j/jackm/software/lorrax_C/src/solvers/lanczos.py" source_line=247}
  %broadcast.408 = u32[4096]{0} broadcast(%Arg_1.348), dimensions={}, metadata={op_name="jit(_full_run)/jit(main)/jit(_normal)/jit(_normal_real)/jit(_uniform)/add" source_file="/global/homes/j/jackm/software/lorrax_C/src/solvers/lanczos.py" source_line=247}
  %add.409 = u32[4096]{0} add(%add.403, %broadcast.408), metadata={op_name="jit(_full_run)/jit(main)/jit(_normal)/jit(_normal_real)/jit(_uniform)/add" source_file="/global/homes/j/jackm/software/lorrax_C/src/solvers/lanczos.py" source_line=247}
  %shift-left.404 = u32[4096]{0} shift-left(%xor.402, %broadcast.370), metadata={op_name="jit(_full_run)/jit(main)/jit(_normal)/jit(_normal_real)/jit(_uniform)/shift_left" source_file="/global/homes/j/jackm/software/lorrax_C/src/solvers/lanczos.py" source_line=247}
  %shift-right-logical.405 = u32[4096]{0} shift-right-logical(%xor.402, %broadcast.372), metadata={op_name="jit(_full_run)/jit(main)/jit(_normal)/jit(_normal_real)/jit(_uniform)/shift_right_logical" source_file="/global/homes/j/jackm/software/lorrax_C/src/solvers/lanczos.py" source_line=247}
  %or.406 = u32[4096]{0} or(%shift-left.404, %shift-right-logical.405), metadata={op_name="jit(_full_run)/jit(main)/jit(_normal)/jit(_normal_real)/jit(_uniform)/or" source_file="/global/homes/j/jackm/software/lorrax_C/src/solvers/lanczos.py" source_line=247}
  %xor.407 = u32[4096]{0} xor(%add.403, %or.406), metadata={op_name="jit(_full_run)/jit(main)/jit(_normal)/jit(_normal_real)/jit(_uniform)/xor" source_file="/global/homes/j/jackm/software/lorrax_C/src/solvers/lanczos.py" source_line=247}
  %xor.382 = u32[] xor(%Arg_0.347, %Arg_1.348), metadata={op_name="jit(_full_run)/jit(main)/jit(_normal)/jit(_normal_real)/jit(_uniform)/xor" source_file="/global/homes/j/jackm/software/lorrax_C/src/solvers/lanczos.py" source_line=247}
  %constant.381 = u32[] constant(466688986)
  %xor.383 = u32[] xor(%xor.382, %constant.381), metadata={op_name="jit(_full_run)/jit(main)/jit(_normal)/jit(_normal_real)/jit(_uniform)/xor" source_file="/global/homes/j/jackm/software/lorrax_C/src/solvers/lanczos.py" source_line=247}
  %broadcast.410 = u32[4096]{0} broadcast(%xor.383), dimensions={}, metadata={op_name="jit(_full_run)/jit(main)/jit(_normal)/jit(_normal_real)/jit(_uniform)/add" source_file="/global/homes/j/jackm/software/lorrax_C/src/solvers/lanczos.py" source_line=247}
  %add.411 = u32[4096]{0} add(%xor.407, %broadcast.410), metadata={op_name="jit(_full_run)/jit(main)/jit(_normal)/jit(_normal_real)/jit(_uniform)/add" source_file="/global/homes/j/jackm/software/lorrax_C/src/solvers/lanczos.py" source_line=247}
  %constant.367 = u32[] constant(1)
  %broadcast.368 = u32[4096]{0} broadcast(%constant.367), dimensions={}
  %add.412 = u32[4096]{0} add(%add.411, %broadcast.368), metadata={op_name="jit(_full_run)/jit(main)/jit(_normal)/jit(_normal_real)/jit(_uniform)/add" source_file="/global/homes/j/jackm/software/lorrax_C/src/solvers/lanczos.py" source_line=247}
  %add.413 = u32[4096]{0} add(%add.409, %add.412), metadata={op_name="jit(_full_run)/jit(main)/jit(_normal)/jit(_normal_real)/jit(_uniform)/add" source_file="/global/homes/j/jackm/software/lorrax_C/src/solvers/lanczos.py" source_line=247}
  %shift-left.414 = u32[4096]{0} shift-left(%add.412, %broadcast.374), metadata={op_name="jit(_full_run)/jit(main)/jit(_normal)/jit(_normal_real)/jit(_uniform)/shift_left" source_file="/global/homes/j/jackm/software/lorrax_C/src/solvers/lanczos.py" source_line=247}
  %shift-right-logical.415 = u32[4096]{0} shift-right-logical(%add.412, %broadcast.376), metadata={op_name="jit(_full_run)/jit(main)/jit(_normal)/jit(_normal_real)/jit(_uniform)/shift_right_logical" source_file="/global/homes/j/jackm/software/lorrax_C/src/solvers/lanczos.py" source_line=247}
  %or.416 = u32[4096]{0} or(%shift-left.414, %shift-right-logical.415), metadata={op_name="jit(_full_run)/jit(main)/jit(_normal)/jit(_normal_real)/jit(_uniform)/or" source_file="/global/homes/j/jackm/software/lorrax_C/src/solvers/lanczos.py" source_line=247}
  %xor.417 = u32[4096]{0} xor(%add.413, %or.416), metadata={op_name="jit(_full_run)/jit(main)/jit(_normal)/jit(_normal_real)/jit(_uniform)/xor" source_file="/global/homes/j/jackm/software/lorrax_C/src/solvers/lanczos.py" source_line=247}
  %add.418 = u32[4096]{0} add(%add.413, %xor.417), metadata={op_name="jit(_full_run)/jit(main)/jit(_normal)/jit(_normal_real)/jit(_uniform)/add" source_file="/global/homes/j/jackm/software/lorrax_C/src/solvers/lanczos.py" source_line=247}
  %constant.365 = u32[] constant(29)
  %broadcast.366 = u32[4096]{0} broadcast(%constant.365), dimensions={}
  %shift-left.419 = u32[4096]{0} shift-left(%xor.417, %broadcast.366), metadata={op_name="jit(_full_run)/jit(main)/jit(_normal)/jit(_normal_real)/jit(_uniform)/shift_left" source_file="/global/homes/j/jackm/software/lorrax_C/src/solvers/lanczos.py" source_line=247}
  %constant.363 = u32[] constant(3)
  %broadcast.364 = u32[4096]{0} broadcast(%constant.363), dimensions={}
  %shift-right-logical.420 = u32[4096]{0} shift-right-logical(%xor.417, %broadcast.364), metadata={op_name="jit(_full_run)/jit(main)/jit(_normal)/jit(_normal_real)/jit(_uniform)/shift_right_logical" source_file="/global/homes/j/jackm/software/lorrax_C/src/solvers/lanczos.py" source_line=247}
  %or.421 = u32[4096]{0} or(%shift-left.419, %shift-right-logical.420), metadata={op_name="jit(_full_run)/jit(main)/jit(_normal)/jit(_normal_real)/jit(_uniform)/or" source_file="/global/homes/j/jackm/software/lorrax_C/src/solvers/lanczos.py" source_line=247}
  %xor.422 = u32[4096]{0} xor(%add.418, %or.421), metadata={op_name="jit(_full_run)/jit(main)/jit(_normal)/jit(_normal_real)/jit(_uniform)/xor" source_file="/global/homes/j/jackm/software/lorrax_C/src/solvers/lanczos.py" source_line=247}
  %add.423 = u32[4096]{0} add(%add.418, %xor.422), metadata={op_name="jit(_full_run)/jit(main)/jit(_normal)/jit(_normal_real)/jit(_uniform)/add" source_file="/global/homes/j/jackm/software/lorrax_C/src/solvers/lanczos.py" source_line=247}
  %constant.361 = u32[] constant(16)
  %broadcast.362 = u32[4096]{0} broadcast(%constant.361), dimensions={}
  %shift-left.424 = u32[4096]{0} shift-left(%xor.422, %broadcast.362), metadata={op_name="jit(_full_run)/jit(main)/jit(_normal)/jit(_normal_real)/jit(_uniform)/shift_left" source_file="/global/homes/j/jackm/software/lorrax_C/src/solvers/lanczos.py" source_line=247}
  %shift-right-logical.425 = u32[4096]{0} shift-right-logical(%xor.422, %broadcast.362), metadata={op_name="jit(_full_run)/jit(main)/jit(_normal)/jit(_normal_real)/jit(_uniform)/shift_right_logical" source_file="/global/homes/j/jackm/software/lorrax_C/src/solvers/lanczos.py" source_line=247}
  %or.426 = u32[4096]{0} or(%shift-left.424, %shift-right-logical.425), metadata={op_name="jit(_full_run)/jit(main)/jit(_normal)/jit(_normal_real)/jit(_uniform)/or" source_file="/global/homes/j/jackm/software/lorrax_C/src/solvers/lanczos.py" source_line=247}
  %xor.427 = u32[4096]{0} xor(%add.423, %or.426), metadata={op_name="jit(_full_run)/jit(main)/jit(_normal)/jit(_normal_real)/jit(_uniform)/xor" source_file="/global/homes/j/jackm/software/lorrax_C/src/solvers/lanczos.py" source_line=247}
  %add.428 = u32[4096]{0} add(%add.423, %xor.427), metadata={op_name="jit(_full_run)/jit(main)/jit(_normal)/jit(_normal_real)/jit(_uniform)/add" source_file="/global/homes/j/jackm/software/lorrax_C/src/solvers/lanczos.py" source_line=247}
  %broadcast.433 = u32[4096]{0} broadcast(%xor.383), dimensions={}, metadata={op_name="jit(_full_run)/jit(main)/jit(_normal)/jit(_normal_real)/jit(_uniform)/add" source_file="/global/homes/j/jackm/software/lorrax_C/src/solvers/lanczos.py" source_line=247}
  %add.434 = u32[4096]{0} add(%add.428, %broadcast.433), metadata={op_name="jit(_full_run)/jit(main)/jit(_normal)/jit(_normal_real)/jit(_uniform)/add" source_file="/global/homes/j/jackm/software/lorrax_C/src/solvers/lanczos.py" source_line=247}
  %constant.359 = u32[] constant(24)
  %broadcast.360 = u32[4096]{0} broadcast(%constant.359), dimensions={}
  %shift-left.429 = u32[4096]{0} shift-left(%xor.427, %broadcast.360), metadata={op_name="jit(_full_run)/jit(main)/jit(_normal)/jit(_normal_real)/jit(_uniform)/shift_left" source_file="/global/homes/j/jackm/software/lorrax_C/src/solvers/lanczos.py" source_line=247}
  %constant.357 = u32[] constant(8)
  %broadcast.358 = u32[4096]{0} broadcast(%constant.357), dimensions={}
  %shift-right-logical.430 = u32[4096]{0} shift-right-logical(%xor.427, %broadcast.358), metadata={op_name="jit(_full_run)/jit(main)/jit(_normal)/jit(_normal_real)/jit(_uniform)/shift_right_logical" source_file="/global/homes/j/jackm/software/lorrax_C/src/solvers/lanczos.py" source_line=247}
  %or.431 = u32[4096]{0} or(%shift-left.429, %shift-right-logical.430), metadata={op_name="jit(_full_run)/jit(main)/jit(_normal)/jit(_normal_real)/jit(_uniform)/or" source_file="/global/homes/j/jackm/software/lorrax_C/src/solvers/lanczos.py" source_line=247}
  %xor.432 = u32[4096]{0} xor(%add.428, %or.431), metadata={op_name="jit(_full_run)/jit(main)/jit(_normal)/jit(_normal_real)/jit(_uniform)/xor" source_file="/global/homes/j/jackm/software/lorrax_C/src/solvers/lanczos.py" source_line=247}
  %broadcast.435 = u32[4096]{0} broadcast(%Arg_0.347), dimensions={}, metadata={op_name="jit(_full_run)/jit(main)/jit(_normal)/jit(_normal_real)/jit(_uniform)/add" source_file="/global/homes/j/jackm/software/lorrax_C/src/solvers/lanczos.py" source_line=247}
  %add.436 = u32[4096]{0} add(%xor.432, %broadcast.435), metadata={op_name="jit(_full_run)/jit(main)/jit(_normal)/jit(_normal_real)/jit(_uniform)/add" source_file="/global/homes/j/jackm/software/lorrax_C/src/solvers/lanczos.py" source_line=247}
  %constant.355 = u32[] constant(2)
  %broadcast.356 = u32[4096]{0} broadcast(%constant.355), dimensions={}
  %add.437 = u32[4096]{0} add(%add.436, %broadcast.356), metadata={op_name="jit(_full_run)/jit(main)/jit(_normal)/jit(_normal_real)/jit(_uniform)/add" source_file="/global/homes/j/jackm/software/lorrax_C/src/solvers/lanczos.py" source_line=247}
  %add.438 = u32[4096]{0} add(%add.434, %add.437), metadata={op_name="jit(_full_run)/jit(main)/jit(_normal)/jit(_normal_real)/jit(_uniform)/add" source_file="/global/homes/j/jackm/software/lorrax_C/src/solvers/lanczos.py" source_line=247}
  %shift-left.439 = u32[4096]{0} shift-left(%add.437, %broadcast.380), metadata={op_name="jit(_full_run)/jit(main)/jit(_normal)/jit(_normal_real)/jit(_uniform)/shift_left" source_file="/global/homes/j/jackm/software/lorrax_C/src/solvers/lanczos.py" source_line=247}
  %shift-right-logical.440 = u32[4096]{0} shift-right-logical(%add.437, %broadcast.378), metadata={op_name="jit(_full_run)/jit(main)/jit(_normal)/jit(_normal_real)/jit(_uniform)/shift_right_logical" source_file="/global/homes/j/jackm/software/lorrax_C/src/solvers/lanczos.py" source_line=247}
  %or.441 = u32[4096]{0} or(%shift-left.439, %shift-right-logical.440), metadata={op_name="jit(_full_run)/jit(main)/jit(_normal)/jit(_normal_real)/jit(_uniform)/or" source_file="/global/homes/j/jackm/software/lorrax_C/src/solvers/lanczos.py" source_line=247}
  %xor.442 = u32[4096]{0} xor(%add.438, %or.441), metadata={op_name="jit(_full_run)/jit(main)/jit(_normal)/jit(_normal_real)/jit(_uniform)/xor" source_file="/global/homes/j/jackm/software/lorrax_C/src/solvers/lanczos.py" source_line=247}
  %add.443 = u32[4096]{0} add(%add.438, %xor.442), metadata={op_name="jit(_full_run)/jit(main)/jit(_normal)/jit(_normal_real)/jit(_uniform)/add" source_file="/global/homes/j/jackm/software/lorrax_C/src/solvers/lanczos.py" source_line=247}
  %shift-left.444 = u32[4096]{0} shift-left(%xor.442, %broadcast.376), metadata={op_name="jit(_full_run)/jit(main)/jit(_normal)/jit(_normal_real)/jit(_uniform)/shift_left" source_file="/global/homes/j/jackm/software/lorrax_C/src/solvers/lanczos.py" source_line=247}
  %shift-right-logical.445 = u32[4096]{0} shift-right-logical(%xor.442, %broadcast.374), metadata={op_name="jit(_full_run)/jit(main)/jit(_normal)/jit(_normal_real)/jit(_uniform)/shift_right_logical" source_file="/global/homes/j/jackm/software/lorrax_C/src/solvers/lanczos.py" source_line=247}
  %or.446 = u32[4096]{0} or(%shift-left.444, %shift-right-logical.445), metadata={op_name="jit(_full_run)/jit(main)/jit(_normal)/jit(_normal_real)/jit(_uniform)/or" source_file="/global/homes/j/jackm/software/lorrax_C/src/solvers/lanczos.py" source_line=247}
  %xor.447 = u32[4096]{0} xor(%add.443, %or.446), metadata={op_name="jit(_full_run)/jit(main)/jit(_normal)/jit(_normal_real)/jit(_uniform)/xor" source_file="/global/homes/j/jackm/software/lorrax_C/src/solvers/lanczos.py" source_line=247}
  %add.448 = u32[4096]{0} add(%add.443, %xor.447), metadata={op_name="jit(_full_run)/jit(main)/jit(_normal)/jit(_normal_real)/jit(_uniform)/add" source_file="/global/homes/j/jackm/software/lorrax_C/src/solvers/lanczos.py" source_line=247}
  %shift-left.449 = u32[4096]{0} shift-left(%xor.447, %broadcast.372), metadata={op_name="jit(_full_run)/jit(main)/jit(_normal)/jit(_normal_real)/jit(_uniform)/shift_left" source_file="/global/homes/j/jackm/software/lorrax_C/src/solvers/lanczos.py" source_line=247}
  %shift-right-logical.450 = u32[4096]{0} shift-right-logical(%xor.447, %broadcast.370), metadata={op_name="jit(_full_run)/jit(main)/jit(_normal)/jit(_normal_real)/jit(_uniform)/shift_right_logical" source_file="/global/homes/j/jackm/software/lorrax_C/src/solvers/lanczos.py" source_line=247}
  %or.451 = u32[4096]{0} or(%shift-left.449, %shift-right-logical.450), metadata={op_name="jit(_full_run)/jit(main)/jit(_normal)/jit(_normal_real)/jit(_uniform)/or" source_file="/global/homes/j/jackm/software/lorrax_C/src/solvers/lanczos.py" source_line=247}
  %xor.452 = u32[4096]{0} xor(%add.448, %or.451), metadata={op_name="jit(_full_run)/jit(main)/jit(_normal)/jit(_normal_real)/jit(_uniform)/xor" source_file="/global/homes/j/jackm/software/lorrax_C/src/solvers/lanczos.py" source_line=247}
  %add.453 = u32[4096]{0} add(%add.448, %xor.452), metadata={op_name="jit(_full_run)/jit(main)/jit(_normal)/jit(_normal_real)/jit(_uniform)/add" source_file="/global/homes/j/jackm/software/lorrax_C/src/solvers/lanczos.py" source_line=247}
  %broadcast.458 = u32[4096]{0} broadcast(%Arg_0.347), dimensions={}, metadata={op_name="jit(_full_run)/jit(main)/jit(_normal)/jit(_normal_real)/jit(_uniform)/add" source_file="/global/homes/j/jackm/software/lorrax_C/src/solvers/lanczos.py" source_line=247}
  %add.459 = u32[4096]{0} add(%add.453, %broadcast.458), metadata={op_name="jit(_full_run)/jit(main)/jit(_normal)/jit(_normal_real)/jit(_uniform)/add" source_file="/global/homes/j/jackm/software/lorrax_C/src/solvers/lanczos.py" source_line=247}
  %shift-left.454 = u32[4096]{0} shift-left(%xor.452, %broadcast.370), metadata={op_name="jit(_full_run)/jit(main)/jit(_normal)/jit(_normal_real)/jit(_uniform)/shift_left" source_file="/global/homes/j/jackm/software/lorrax_C/src/solvers/lanczos.py" source_line=247}
  %shift-right-logical.455 = u32[4096]{0} shift-right-logical(%xor.452, %broadcast.372), metadata={op_name="jit(_full_run)/jit(main)/jit(_normal)/jit(_normal_real)/jit(_uniform)/shift_right_logical" source_file="/global/homes/j/jackm/software/lorrax_C/src/solvers/lanczos.py" source_line=247}
  %or.456 = u32[4096]{0} or(%shift-left.454, %shift-right-logical.455), metadata={op_name="jit(_full_run)/jit(main)/jit(_normal)/jit(_normal_real)/jit(_uniform)/or" source_file="/global/homes/j/jackm/software/lorrax_C/src/solvers/lanczos.py" source_line=247}
  %xor.457 = u32[4096]{0} xor(%add.453, %or.456), metadata={op_name="jit(_full_run)/jit(main)/jit(_normal)/jit(_normal_real)/jit(_uniform)/xor" source_file="/global/homes/j/jackm/software/lorrax_C/src/solvers/lanczos.py" source_line=247}
  %broadcast.460 = u32[4096]{0} broadcast(%Arg_1.348), dimensions={}, metadata={op_name="jit(_full_run)/jit(main)/jit(_normal)/jit(_normal_real)/jit(_uniform)/add" source_file="/global/homes/j/jackm/software/lorrax_C/src/solvers/lanczos.py" source_line=247}
  %add.461 = u32[4096]{0} add(%xor.457, %broadcast.460), metadata={op_name="jit(_full_run)/jit(main)/jit(_normal)/jit(_normal_real)/jit(_uniform)/add" source_file="/global/homes/j/jackm/software/lorrax_C/src/solvers/lanczos.py" source_line=247}
  %add.462 = u32[4096]{0} add(%add.461, %broadcast.364), metadata={op_name="jit(_full_run)/jit(main)/jit(_normal)/jit(_normal_real)/jit(_uniform)/add" source_file="/global/homes/j/jackm/software/lorrax_C/src/solvers/lanczos.py" source_line=247}
  %add.463 = u32[4096]{0} add(%add.459, %add.462), metadata={op_name="jit(_full_run)/jit(main)/jit(_normal)/jit(_normal_real)/jit(_uniform)/add" source_file="/global/homes/j/jackm/software/lorrax_C/src/solvers/lanczos.py" source_line=247}
  %shift-left.464 = u32[4096]{0} shift-left(%add.462, %broadcast.374), metadata={op_name="jit(_full_run)/jit(main)/jit(_normal)/jit(_normal_real)/jit(_uniform)/shift_left" source_file="/global/homes/j/jackm/software/lorrax_C/src/solvers/lanczos.py" source_line=247}
  %shift-right-logical.465 = u32[4096]{0} shift-right-logical(%add.462, %broadcast.376), metadata={op_name="jit(_full_run)/jit(main)/jit(_normal)/jit(_normal_real)/jit(_uniform)/shift_right_logical" source_file="/global/homes/j/jackm/software/lorrax_C/src/solvers/lanczos.py" source_line=247}
  %or.466 = u32[4096]{0} or(%shift-left.464, %shift-right-logical.465), metadata={op_name="jit(_full_run)/jit(main)/jit(_normal)/jit(_normal_real)/jit(_uniform)/or" source_file="/global/homes/j/jackm/software/lorrax_C/src/solvers/lanczos.py" source_line=247}
  %xor.467 = u32[4096]{0} xor(%add.463, %or.466), metadata={op_name="jit(_full_run)/jit(main)/jit(_normal)/jit(_normal_real)/jit(_uniform)/xor" source_file="/global/homes/j/jackm/software/lorrax_C/src/solvers/lanczos.py" source_line=247}
  %add.468 = u32[4096]{0} add(%add.463, %xor.467), metadata={op_name="jit(_full_run)/jit(main)/jit(_normal)/jit(_normal_real)/jit(_uniform)/add" source_file="/global/homes/j/jackm/software/lorrax_C/src/solvers/lanczos.py" source_line=247}
  %shift-left.469 = u32[4096]{0} shift-left(%xor.467, %broadcast.366), metadata={op_name="jit(_full_run)/jit(main)/jit(_normal)/jit(_normal_real)/jit(_uniform)/shift_left" source_file="/global/homes/j/jackm/software/lorrax_C/src/solvers/lanczos.py" source_line=247}
  %shift-right-logical.470 = u32[4096]{0} shift-right-logical(%xor.467, %broadcast.364), metadata={op_name="jit(_full_run)/jit(main)/jit(_normal)/jit(_normal_real)/jit(_uniform)/shift_right_logical" source_file="/global/homes/j/jackm/software/lorrax_C/src/solvers/lanczos.py" source_line=247}
  %or.471 = u32[4096]{0} or(%shift-left.469, %shift-right-logical.470), metadata={op_name="jit(_full_run)/jit(main)/jit(_normal)/jit(_normal_real)/jit(_uniform)/or" source_file="/global/homes/j/jackm/software/lorrax_C/src/solvers/lanczos.py" source_line=247}
  %xor.472 = u32[4096]{0} xor(%add.468, %or.471), metadata={op_name="jit(_full_run)/jit(main)/jit(_normal)/jit(_normal_real)/jit(_uniform)/xor" source_file="/global/homes/j/jackm/software/lorrax_C/src/solvers/lanczos.py" source_line=247}
  %add.473 = u32[4096]{0} add(%add.468, %xor.472), metadata={op_name="jit(_full_run)/jit(main)/jit(_normal)/jit(_normal_real)/jit(_uniform)/add" source_file="/global/homes/j/jackm/software/lorrax_C/src/solvers/lanczos.py" source_line=247}
  %shift-left.474 = u32[4096]{0} shift-left(%xor.472, %broadcast.362), metadata={op_name="jit(_full_run)/jit(main)/jit(_normal)/jit(_normal_real)/jit(_uniform)/shift_left" source_file="/global/homes/j/jackm/software/lorrax_C/src/solvers/lanczos.py" source_line=247}
  %shift-right-logical.475 = u32[4096]{0} shift-right-logical(%xor.472, %broadcast.362), metadata={op_name="jit(_full_run)/jit(main)/jit(_normal)/jit(_normal_real)/jit(_uniform)/shift_right_logical" source_file="/global/homes/j/jackm/software/lorrax_C/src/solvers/lanczos.py" source_line=247}
  %or.476 = u32[4096]{0} or(%shift-left.474, %shift-right-logical.475), metadata={op_name="jit(_full_run)/jit(main)/jit(_normal)/jit(_normal_real)/jit(_uniform)/or" source_file="/global/homes/j/jackm/software/lorrax_C/src/solvers/lanczos.py" source_line=247}
  %xor.477 = u32[4096]{0} xor(%add.473, %or.476), metadata={op_name="jit(_full_run)/jit(main)/jit(_normal)/jit(_normal_real)/jit(_uniform)/xor" source_file="/global/homes/j/jackm/software/lorrax_C/src/solvers/lanczos.py" source_line=247}
  %add.478 = u32[4096]{0} add(%add.473, %xor.477), metadata={op_name="jit(_full_run)/jit(main)/jit(_normal)/jit(_normal_real)/jit(_uniform)/add" source_file="/global/homes/j/jackm/software/lorrax_C/src/solvers/lanczos.py" source_line=247}
  %broadcast.483 = u32[4096]{0} broadcast(%Arg_1.348), dimensions={}, metadata={op_name="jit(_full_run)/jit(main)/jit(_normal)/jit(_normal_real)/jit(_uniform)/add" source_file="/global/homes/j/jackm/software/lorrax_C/src/solvers/lanczos.py" source_line=247}
  %add.484 = u32[4096]{0} add(%add.478, %broadcast.483), metadata={op_name="jit(_full_run)/jit(main)/jit(_normal)/jit(_normal_real)/jit(_uniform)/add" source_file="/global/homes/j/jackm/software/lorrax_C/src/solvers/lanczos.py" source_line=247}
  %shift-left.479 = u32[4096]{0} shift-left(%xor.477, %broadcast.360), metadata={op_name="jit(_full_run)/jit(main)/jit(_normal)/jit(_normal_real)/jit(_uniform)/shift_left" source_file="/global/homes/j/jackm/software/lorrax_C/src/solvers/lanczos.py" source_line=247}
  %shift-right-logical.480 = u32[4096]{0} shift-right-logical(%xor.477, %broadcast.358), metadata={op_name="jit(_full_run)/jit(main)/jit(_normal)/jit(_normal_real)/jit(_uniform)/shift_right_logical" source_file="/global/homes/j/jackm/software/lorrax_C/src/solvers/lanczos.py" source_line=247}
  %or.481 = u32[4096]{0} or(%shift-left.479, %shift-right-logical.480), metadata={op_name="jit(_full_run)/jit(main)/jit(_normal)/jit(_normal_real)/jit(_uniform)/or" source_file="/global/homes/j/jackm/software/lorrax_C/src/solvers/lanczos.py" source_line=247}
  %xor.482 = u32[4096]{0} xor(%add.478, %or.481), metadata={op_name="jit(_full_run)/jit(main)/jit(_normal)/jit(_normal_real)/jit(_uniform)/xor" source_file="/global/homes/j/jackm/software/lorrax_C/src/solvers/lanczos.py" source_line=247}
  %broadcast.485 = u32[4096]{0} broadcast(%xor.383), dimensions={}, metadata={op_name="jit(_full_run)/jit(main)/jit(_normal)/jit(_normal_real)/jit(_uniform)/add" source_file="/global/homes/j/jackm/software/lorrax_C/src/solvers/lanczos.py" source_line=247}
  %add.486 = u32[4096]{0} add(%xor.482, %broadcast.485), metadata={op_name="jit(_full_run)/jit(main)/jit(_normal)/jit(_normal_real)/jit(_uniform)/add" source_file="/global/homes/j/jackm/software/lorrax_C/src/solvers/lanczos.py" source_line=247}
  %constant.353 = u32[] constant(4)
  %broadcast.354 = u32[4096]{0} broadcast(%constant.353), dimensions={}
  %add.487 = u32[4096]{0} add(%add.486, %broadcast.354), metadata={op_name="jit(_full_run)/jit(main)/jit(_normal)/jit(_normal_real)/jit(_uniform)/add" source_file="/global/homes/j/jackm/software/lorrax_C/src/solvers/lanczos.py" source_line=247}
  %add.488 = u32[4096]{0} add(%add.484, %add.487), metadata={op_name="jit(_full_run)/jit(main)/jit(_normal)/jit(_normal_real)/jit(_uniform)/add" source_file="/global/homes/j/jackm/software/lorrax_C/src/solvers/lanczos.py" source_line=247}
  %shift-left.489 = u32[4096]{0} shift-left(%add.487, %broadcast.380), metadata={op_name="jit(_full_run)/jit(main)/jit(_normal)/jit(_normal_real)/jit(_uniform)/shift_left" source_file="/global/homes/j/jackm/software/lorrax_C/src/solvers/lanczos.py" source_line=247}
  %shift-right-logical.490 = u32[4096]{0} shift-right-logical(%add.487, %broadcast.378), metadata={op_name="jit(_full_run)/jit(main)/jit(_normal)/jit(_normal_real)/jit(_uniform)/shift_right_logical" source_file="/global/homes/j/jackm/software/lorrax_C/src/solvers/lanczos.py" source_line=247}
  %or.491 = u32[4096]{0} or(%shift-left.489, %shift-right-logical.490), metadata={op_name="jit(_full_run)/jit(main)/jit(_normal)/jit(_normal_real)/jit(_uniform)/or" source_file="/global/homes/j/jackm/software/lorrax_C/src/solvers/lanczos.py" source_line=247}
  %xor.492 = u32[4096]{0} xor(%add.488, %or.491), metadata={op_name="jit(_full_run)/jit(main)/jit(_normal)/jit(_normal_real)/jit(_uniform)/xor" source_file="/global/homes/j/jackm/software/lorrax_C/src/solvers/lanczos.py" source_line=247}
  %add.493 = u32[4096]{0} add(%add.488, %xor.492), metadata={op_name="jit(_full_run)/jit(main)/jit(_normal)/jit(_normal_real)/jit(_uniform)/add" source_file="/global/homes/j/jackm/software/lorrax_C/src/solvers/lanczos.py" source_line=247}
  %shift-left.494 = u32[4096]{0} shift-left(%xor.492, %broadcast.376), metadata={op_name="jit(_full_run)/jit(main)/jit(_normal)/jit(_normal_real)/jit(_uniform)/shift_left" source_file="/global/homes/j/jackm/software/lorrax_C/src/solvers/lanczos.py" source_line=247}
  %shift-right-logical.495 = u32[4096]{0} shift-right-logical(%xor.492, %broadcast.374), metadata={op_name="jit(_full_run)/jit(main)/jit(_normal)/jit(_normal_real)/jit(_uniform)/shift_right_logical" source_file="/global/homes/j/jackm/software/lorrax_C/src/solvers/lanczos.py" source_line=247}
  %or.496 = u32[4096]{0} or(%shift-left.494, %shift-right-logical.495), metadata={op_name="jit(_full_run)/jit(main)/jit(_normal)/jit(_normal_real)/jit(_uniform)/or" source_file="/global/homes/j/jackm/software/lorrax_C/src/solvers/lanczos.py" source_line=247}
  %xor.497 = u32[4096]{0} xor(%add.493, %or.496), metadata={op_name="jit(_full_run)/jit(main)/jit(_normal)/jit(_normal_real)/jit(_uniform)/xor" source_file="/global/homes/j/jackm/software/lorrax_C/src/solvers/lanczos.py" source_line=247}
  %add.498 = u32[4096]{0} add(%add.493, %xor.497), metadata={op_name="jit(_full_run)/jit(main)/jit(_normal)/jit(_normal_real)/jit(_uniform)/add" source_file="/global/homes/j/jackm/software/lorrax_C/src/solvers/lanczos.py" source_line=247}
  %shift-left.499 = u32[4096]{0} shift-left(%xor.497, %broadcast.372), metadata={op_name="jit(_full_run)/jit(main)/jit(_normal)/jit(_normal_real)/jit(_uniform)/shift_left" source_file="/global/homes/j/jackm/software/lorrax_C/src/solvers/lanczos.py" source_line=247}
  %shift-right-logical.500 = u32[4096]{0} shift-right-logical(%xor.497, %broadcast.370), metadata={op_name="jit(_full_run)/jit(main)/jit(_normal)/jit(_normal_real)/jit(_uniform)/shift_right_logical" source_file="/global/homes/j/jackm/software/lorrax_C/src/solvers/lanczos.py" source_line=247}
  %or.501 = u32[4096]{0} or(%shift-left.499, %shift-right-logical.500), metadata={op_name="jit(_full_run)/jit(main)/jit(_normal)/jit(_normal_real)/jit(_uniform)/or" source_file="/global/homes/j/jackm/software/lorrax_C/src/solvers/lanczos.py" source_line=247}
  %xor.502 = u32[4096]{0} xor(%add.498, %or.501), metadata={op_name="jit(_full_run)/jit(main)/jit(_normal)/jit(_normal_real)/jit(_uniform)/xor" source_file="/global/homes/j/jackm/software/lorrax_C/src/solvers/lanczos.py" source_line=247}
  %add.503 = u32[4096]{0} add(%add.498, %xor.502), metadata={op_name="jit(_full_run)/jit(main)/jit(_normal)/jit(_normal_real)/jit(_uniform)/add" source_file="/global/homes/j/jackm/software/lorrax_C/src/solvers/lanczos.py" source_line=247}
  %broadcast.508 = u32[4096]{0} broadcast(%xor.383), dimensions={}, metadata={op_name="jit(_full_run)/jit(main)/jit(_normal)/jit(_normal_real)/jit(_uniform)/add" source_file="/global/homes/j/jackm/software/lorrax_C/src/solvers/lanczos.py" source_line=247}
  %add.509 = u32[4096]{0} add(%add.503, %broadcast.508), metadata={op_name="jit(_full_run)/jit(main)/jit(_normal)/jit(_normal_real)/jit(_uniform)/add" source_file="/global/homes/j/jackm/software/lorrax_C/src/solvers/lanczos.py" source_line=247}
  %shift-left.504 = u32[4096]{0} shift-left(%xor.502, %broadcast.370), metadata={op_name="jit(_full_run)/jit(main)/jit(_normal)/jit(_normal_real)/jit(_uniform)/shift_left" source_file="/global/homes/j/jackm/software/lorrax_C/src/solvers/lanczos.py" source_line=247}
  %shift-right-logical.505 = u32[4096]{0} shift-right-logical(%xor.502, %broadcast.372), metadata={op_name="jit(_full_run)/jit(main)/jit(_normal)/jit(_normal_real)/jit(_uniform)/shift_right_logical" source_file="/global/homes/j/jackm/software/lorrax_C/src/solvers/lanczos.py" source_line=247}
  %or.506 = u32[4096]{0} or(%shift-left.504, %shift-right-logical.505), metadata={op_name="jit(_full_run)/jit(main)/jit(_normal)/jit(_normal_real)/jit(_uniform)/or" source_file="/global/homes/j/jackm/software/lorrax_C/src/solvers/lanczos.py" source_line=247}
  %xor.507 = u32[4096]{0} xor(%add.503, %or.506), metadata={op_name="jit(_full_run)/jit(main)/jit(_normal)/jit(_normal_real)/jit(_uniform)/xor" source_file="/global/homes/j/jackm/software/lorrax_C/src/solvers/lanczos.py" source_line=247}
  %broadcast.510 = u32[4096]{0} broadcast(%Arg_0.347), dimensions={}, metadata={op_name="jit(_full_run)/jit(main)/jit(_normal)/jit(_normal_real)/jit(_uniform)/add" source_file="/global/homes/j/jackm/software/lorrax_C/src/solvers/lanczos.py" source_line=247}
  %add.511 = u32[4096]{0} add(%xor.507, %broadcast.510), metadata={op_name="jit(_full_run)/jit(main)/jit(_normal)/jit(_normal_real)/jit(_uniform)/add" source_file="/global/homes/j/jackm/software/lorrax_C/src/solvers/lanczos.py" source_line=247}
  %constant.351 = u32[] constant(5)
  %broadcast.352 = u32[4096]{0} broadcast(%constant.351), dimensions={}
  %add.512 = u32[4096]{0} add(%add.511, %broadcast.352), metadata={op_name="jit(_full_run)/jit(main)/jit(_normal)/jit(_normal_real)/jit(_uniform)/add" source_file="/global/homes/j/jackm/software/lorrax_C/src/solvers/lanczos.py" source_line=247}
  ROOT %tuple.513 = (u32[4096]{0}, u32[4096]{0}) tuple(%add.509, %add.512)
}

%_uniform.514 (Arg_0.515: u32[2], Arg_1.516: f64[], Arg_2.517: f64[]) -> f64[4096] {
  %Arg_1.516 = f64[] parameter(1), metadata={op_name="jit(_full_run)/jit(main)/jit(_normal)/jit(_normal_real)/pjit"}
  %reshape.526 = f64[1]{0} reshape(%Arg_1.516), metadata={op_name="jit(_full_run)/jit(main)/jit(_normal)/jit(_normal_real)/jit(_uniform)/broadcast_in_dim" source_file="/global/homes/j/jackm/software/lorrax_C/src/solvers/lanczos.py" source_line=247}
  %broadcast.556 = f64[1]{0} broadcast(%reshape.526), dimensions={0}, metadata={op_name="jit(_full_run)/jit(main)/jit(_normal)/jit(_normal_real)/jit(_uniform)/max" source_file="/global/homes/j/jackm/software/lorrax_C/src/solvers/lanczos.py" source_line=247}
  %reshape.557 = f64[] reshape(%broadcast.556), metadata={op_name="jit(_full_run)/jit(main)/jit(_normal)/jit(_normal_real)/jit(_uniform)/max" source_file="/global/homes/j/jackm/software/lorrax_C/src/solvers/lanczos.py" source_line=247}
  %broadcast.558 = f64[4096]{0} broadcast(%reshape.557), dimensions={}, metadata={op_name="jit(_full_run)/jit(main)/jit(_normal)/jit(_normal_real)/jit(_uniform)/max" source_file="/global/homes/j/jackm/software/lorrax_C/src/solvers/lanczos.py" source_line=247}
  %Arg_0.515 = u32[2]{0} parameter(0), metadata={op_name="jit(_full_run)/jit(main)/jit(_normal)/jit(_normal_real)/pjit"}
  %slice.528 = u32[1]{0} slice(%Arg_0.515), slice={[0:1]}, metadata={op_name="jit(_full_run)/jit(main)/jit(_normal)/jit(_normal_real)/jit(_uniform)/slice" source_file="/global/homes/j/jackm/software/lorrax_C/src/solvers/lanczos.py" source_line=247}
  %reshape.529 = u32[] reshape(%slice.528), metadata={op_name="jit(_full_run)/jit(main)/jit(_normal)/jit(_normal_real)/jit(_uniform)/squeeze" source_file="/global/homes/j/jackm/software/lorrax_C/src/solvers/lanczos.py" source_line=247}
  %slice.530 = u32[1]{0} slice(%Arg_0.515), slice={[1:2]}, metadata={op_name="jit(_full_run)/jit(main)/jit(_normal)/jit(_normal_real)/jit(_uniform)/slice" source_file="/global/homes/j/jackm/software/lorrax_C/src/solvers/lanczos.py" source_line=247}
  %reshape.531 = u32[] reshape(%slice.530), metadata={op_name="jit(_full_run)/jit(main)/jit(_normal)/jit(_normal_real)/jit(_uniform)/squeeze" source_file="/global/homes/j/jackm/software/lorrax_C/src/solvers/lanczos.py" source_line=247}
  %iota.532 = u64[4096]{0} iota(), iota_dimension=0, metadata={op_name="jit(_full_run)/jit(main)/jit(_normal)/jit(_normal_real)/jit(_uniform)/iota_2x32_shape" source_file="/global/homes/j/jackm/software/lorrax_C/src/solvers/lanczos.py" source_line=247}
  %constant.524 = u64[] constant(32)
  %broadcast.525 = u64[4096]{0} broadcast(%constant.524), dimensions={}
  %shift-right-logical.533 = u64[4096]{0} shift-right-logical(%iota.532, %broadcast.525), metadata={op_name="jit(_full_run)/jit(main)/jit(_normal)/jit(_normal_real)/jit(_uniform)/iota_2x32_shape" source_file="/global/homes/j/jackm/software/lorrax_C/src/solvers/lanczos.py" source_line=247}
  %convert.535 = u32[4096]{0} convert(%shift-right-logical.533), metadata={op_name="jit(_full_run)/jit(main)/jit(_normal)/jit(_normal_real)/jit(_uniform)/iota_2x32_shape" source_file="/global/homes/j/jackm/software/lorrax_C/src/solvers/lanczos.py" source_line=247}
  %convert.534 = u32[4096]{0} convert(%iota.532), metadata={op_name="jit(_full_run)/jit(main)/jit(_normal)/jit(_normal_real)/jit(_uniform)/iota_2x32_shape" source_file="/global/homes/j/jackm/software/lorrax_C/src/solvers/lanczos.py" source_line=247}
  %call.536 = (u32[4096]{0}, u32[4096]{0}) call(%reshape.529, %reshape.531, %convert.535, %convert.534), to_apply=%threefry2x32_0.346
  %get-tuple-element.537 = u32[4096]{0} get-tuple-element(%call.536), index=0
  %convert.539 = u64[4096]{0} convert(%get-tuple-element.537), metadata={op_name="jit(_full_run)/jit(main)/jit(_normal)/jit(_normal_real)/jit(_uniform)/convert_element_type" source_file="/global/homes/j/jackm/software/lorrax_C/src/solvers/lanczos.py" source_line=247}
  %shift-left.541 = u64[4096]{0} shift-left(%convert.539, %broadcast.525), metadata={op_name="jit(_full_run)/jit(main)/jit(_normal)/jit(_normal_real)/jit(_uniform)/shift_left" source_file="/global/homes/j/jackm/software/lorrax_C/src/solvers/lanczos.py" source_line=247}
  %get-tuple-element.538 = u32[4096]{0} get-tuple-element(%call.536), index=1
  %convert.540 = u64[4096]{0} convert(%get-tuple-element.538), metadata={op_name="jit(_full_run)/jit(main)/jit(_normal)/jit(_normal_real)/jit(_uniform)/convert_element_type" source_file="/global/homes/j/jackm/software/lorrax_C/src/solvers/lanczos.py" source_line=247}
  %or.542 = u64[4096]{0} or(%shift-left.541, %convert.540), metadata={op_name="jit(_full_run)/jit(main)/jit(_normal)/jit(_normal_real)/jit(_uniform)/or" source_file="/global/homes/j/jackm/software/lorrax_C/src/solvers/lanczos.py" source_line=247}
  %constant.522 = u64[] constant(12)
  %broadcast.523 = u64[4096]{0} broadcast(%constant.522), dimensions={}
  %shift-right-logical.543 = u64[4096]{0} shift-right-logical(%or.542, %broadcast.523), metadata={op_name="jit(_full_run)/jit(main)/jit(_normal)/jit(_normal_real)/jit(_uniform)/shift_right_logical" source_file="/global/homes/j/jackm/software/lorrax_C/src/solvers/lanczos.py" source_line=247}
  %constant.520 = u64[] constant(4607182418800017408)
  %broadcast.521 = u64[4096]{0} broadcast(%constant.520), dimensions={}
  %or.544 = u64[4096]{0} or(%shift-right-logical.543, %broadcast.521), metadata={op_name="jit(_full_run)/jit(main)/jit(_normal)/jit(_normal_real)/jit(_uniform)/or" source_file="/global/homes/j/jackm/software/lorrax_C/src/solvers/lanczos.py" source_line=247}
  %bitcast-convert.545 = f64[4096]{0} bitcast-convert(%or.544), metadata={op_name="jit(_full_run)/jit(main)/jit(_normal)/jit(_normal_real)/jit(_uniform)/bitcast_convert_type" source_file="/global/homes/j/jackm/software/lorrax_C/src/solvers/lanczos.py" source_line=247}
  %constant.518 = f64[] constant(1)
  %broadcast.519 = f64[4096]{0} broadcast(%constant.518), dimensions={}
  %subtract.546 = f64[4096]{0} subtract(%bitcast-convert.545, %broadcast.519), metadata={op_name="jit(_full_run)/jit(main)/jit(_normal)/jit(_normal_real)/jit(_uniform)/sub" source_file="/global/homes/j/jackm/software/lorrax_C/src/solvers/lanczos.py" source_line=247}
  %Arg_2.517 = f64[] parameter(2), metadata={op_name="jit(_full_run)/jit(main)/jit(_normal)/jit(_normal_real)/pjit"}
  %reshape.527 = f64[1]{0} reshape(%Arg_2.517), metadata={op_name="jit(_full_run)/jit(main)/jit(_normal)/jit(_normal_real)/jit(_uniform)/broadcast_in_dim" source_file="/global/homes/j/jackm/software/lorrax_C/src/solvers/lanczos.py" source_line=247}
  %subtract.547 = f64[1]{0} subtract(%reshape.527, %reshape.526), metadata={op_name="jit(_full_run)/jit(main)/jit(_normal)/jit(_normal_real)/jit(_uniform)/sub" source_file="/global/homes/j/jackm/software/lorrax_C/src/solvers/lanczos.py" source_line=247}
  %broadcast.548 = f64[1]{0} broadcast(%subtract.547), dimensions={0}, metadata={op_name="jit(_full_run)/jit(main)/jit(_normal)/jit(_normal_real)/jit(_uniform)/mul" source_file="/global/homes/j/jackm/software/lorrax_C/src/solvers/lanczos.py" source_line=247}
  %reshape.549 = f64[] reshape(%broadcast.548), metadata={op_name="jit(_full_run)/jit(main)/jit(_normal)/jit(_normal_real)/jit(_uniform)/mul" source_file="/global/homes/j/jackm/software/lorrax_C/src/solvers/lanczos.py" source_line=247}
  %broadcast.550 = f64[4096]{0} broadcast(%reshape.549), dimensions={}, metadata={op_name="jit(_full_run)/jit(main)/jit(_normal)/jit(_normal_real)/jit(_uniform)/mul" source_file="/global/homes/j/jackm/software/lorrax_C/src/solvers/lanczos.py" source_line=247}
  %multiply.551 = f64[4096]{0} multiply(%subtract.546, %broadcast.550), metadata={op_name="jit(_full_run)/jit(main)/jit(_normal)/jit(_normal_real)/jit(_uniform)/mul" source_file="/global/homes/j/jackm/software/lorrax_C/src/solvers/lanczos.py" source_line=247}
  %broadcast.552 = f64[1]{0} broadcast(%reshape.526), dimensions={0}, metadata={op_name="jit(_full_run)/jit(main)/jit(_normal)/jit(_normal_real)/jit(_uniform)/add" source_file="/global/homes/j/jackm/software/lorrax_C/src/solvers/lanczos.py" source_line=247}
  %reshape.553 = f64[] reshape(%broadcast.552), metadata={op_name="jit(_full_run)/jit(main)/jit(_normal)/jit(_normal_real)/jit(_uniform)/add" source_file="/global/homes/j/jackm/software/lorrax_C/src/solvers/lanczos.py" source_line=247}
  %broadcast.554 = f64[4096]{0} broadcast(%reshape.553), dimensions={}, metadata={op_name="jit(_full_run)/jit(main)/jit(_normal)/jit(_normal_real)/jit(_uniform)/add" source_file="/global/homes/j/jackm/software/lorrax_C/src/solvers/lanczos.py" source_line=247}
  %add.555 = f64[4096]{0} add(%multiply.551, %broadcast.554), metadata={op_name="jit(_full_run)/jit(main)/jit(_normal)/jit(_normal_real)/jit(_uniform)/add" source_file="/global/homes/j/jackm/software/lorrax_C/src/solvers/lanczos.py" source_line=247}
  ROOT %maximum.559 = f64[4096]{0} maximum(%broadcast.558, %add.555), metadata={op_name="jit(_full_run)/jit(main)/jit(_normal)/jit(_normal_real)/jit(_uniform)/max" source_file="/global/homes/j/jackm/software/lorrax_C/src/solvers/lanczos.py" source_line=247}
}

%_normal_real.560 (Arg_0.561: u32[2]) -> f64[4096] {
  %Arg_0.561 = u32[2]{0} parameter(0), metadata={op_name="jit(_full_run)/jit(main)/jit(_normal)/pjit"}
  %constant.696 = f64[] constant(-0.99999999999999989)
  %constant.697 = f64[] constant(1)
  %call.698 = f64[4096]{0} call(%Arg_0.561, %constant.696, %constant.697), to_apply=%_uniform.514
  %abs.797 = f64[4096]{0} abs(%call.698), metadata={op_name="jit(_full_run)/jit(main)/jit(_normal)/jit(_normal_real)/erf_inv" source_file="/global/homes/j/jackm/software/lorrax_C/src/solvers/lanczos.py" source_line=247}
  %constant.566 = f64[] constant(1)
  %broadcast.567 = f64[4096]{0} broadcast(%constant.566), dimensions={}
  %compare.798 = pred[4096]{0} compare(%abs.797, %broadcast.567), direction=EQ, metadata={op_name="jit(_full_run)/jit(main)/jit(_normal)/jit(_normal_real)/erf_inv" source_file="/global/homes/j/jackm/software/lorrax_C/src/solvers/lanczos.py" source_line=247}
  %constant.564 = f64[] constant(inf)
  %broadcast.565 = f64[4096]{0} broadcast(%constant.564), dimensions={}
  %multiply.799 = f64[4096]{0} multiply(%call.698, %broadcast.565), metadata={op_name="jit(_full_run)/jit(main)/jit(_normal)/jit(_normal_real)/erf_inv" source_file="/global/homes/j/jackm/software/lorrax_C/src/solvers/lanczos.py" source_line=247}
  %negate.699 = f64[4096]{0} negate(%call.698), metadata={op_name="jit(_full_run)/jit(main)/jit(_normal)/jit(_normal_real)/erf_inv" source_file="/global/homes/j/jackm/software/lorrax_C/src/solvers/lanczos.py" source_line=247}
  %multiply.700 = f64[4096]{0} multiply(%call.698, %negate.699), metadata={op_name="jit(_full_run)/jit(main)/jit(_normal)/jit(_normal_real)/erf_inv" source_file="/global/homes/j/jackm/software/lorrax_C/src/solvers/lanczos.py" source_line=247}
  %log-plus-one.701 = f64[4096]{0} log-plus-one(%multiply.700), metadata={op_name="jit(_full_run)/jit(main)/jit(_normal)/jit(_normal_real)/erf_inv" source_file="/global/homes/j/jackm/software/lorrax_C/src/solvers/lanczos.py" source_line=247}
  %negate.702 = f64[4096]{0} negate(%log-plus-one.701), metadata={op_name="jit(_full_run)/jit(main)/jit(_normal)/jit(_normal_real)/erf_inv" source_file="/global/homes/j/jackm/software/lorrax_C/src/solvers/lanczos.py" source_line=247}
  %constant.694 = f64[] constant(6.25)
  %broadcast.695 = f64[4096]{0} broadcast(%constant.694), dimensions={}
  %compare.703 = pred[4096]{0} compare(%negate.702, %broadcast.695), direction=LT, metadata={op_name="jit(_full_run)/jit(main)/jit(_normal)/jit(_normal_real)/erf_inv" source_file="/global/homes/j/jackm/software/lorrax_C/src/solvers/lanczos.py" source_line=247}
  %constant.692 = f64[] constant(16)
  %broadcast.693 = f64[4096]{0} broadcast(%constant.692), dimensions={}
  %compare.704 = pred[4096]{0} compare(%negate.702, %broadcast.693), direction=LT, metadata={op_name="jit(_full_run)/jit(main)/jit(_normal)/jit(_normal_real)/erf_inv" source_file="/global/homes/j/jackm/software/lorrax_C/src/solvers/lanczos.py" source_line=247}
  %constant.578 = f64[] constant(0.00018673420803405714)
  %broadcast.579 = f64[4096]{0} broadcast(%constant.578), dimensions={}
  %constant.576 = f64[] constant(3.0838856104922208)
  %broadcast.577 = f64[4096]{0} broadcast(%constant.576), dimensions={}
  %select.780 = f64[4096]{0} select(%compare.703, %broadcast.579, %broadcast.577), metadata={op_name="jit(_full_run)/jit(main)/jit(_normal)/jit(_normal_real)/erf_inv" source_file="/global/homes/j/jackm/software/lorrax_C/src/solvers/lanczos.py" source_line=247}
  %constant.582 = f64[] constant(-1.3882523362786469e-05)
  %broadcast.583 = f64[4096]{0} broadcast(%constant.582), dimensions={}
  %constant.580 = f64[] constant(1.0052589676941592)
  %broadcast.581 = f64[4096]{0} broadcast(%constant.580), dimensions={}
  %select.776 = f64[4096]{0} select(%compare.703, %broadcast.583, %broadcast.581), metadata={op_name="jit(_full_run)/jit(main)/jit(_normal)/jit(_normal_real)/erf_inv" source_file="/global/homes/j/jackm/software/lorrax_C/src/solvers/lanczos.py" source_line=247}
  %constant.588 = f64[] constant(-1.3654692000834679e-06)
  %broadcast.589 = f64[4096]{0} broadcast(%constant.588), dimensions={}
  %constant.586 = f64[] constant(0.0053709145535900636)
  %broadcast.587 = f64[4096]{0} broadcast(%constant.586), dimensions={}
  %select.772 = f64[4096]{0} select(%compare.703, %broadcast.589, %broadcast.587), metadata={op_name="jit(_full_run)/jit(main)/jit(_normal)/jit(_normal_real)/erf_inv" source_file="/global/homes/j/jackm/software/lorrax_C/src/solvers/lanczos.py" source_line=247}
  %constant.584 = f64[] constant(4.8499064014085844)
  %broadcast.585 = f64[4096]{0} broadcast(%constant.584), dimensions={}
  %select.773 = f64[4096]{0} select(%compare.704, %select.772, %broadcast.585), metadata={op_name="jit(_full_run)/jit(main)/jit(_normal)/jit(_normal_real)/erf_inv" source_file="/global/homes/j/jackm/software/lorrax_C/src/solvers/lanczos.py" source_line=247}
  %constant.594 = f64[] constant(4.2347877827932404e-07)
  %broadcast.595 = f64[4096]{0} broadcast(%constant.594), dimensions={}
  %constant.592 = f64[] constant(-0.0037512085075692412)
  %broadcast.593 = f64[4096]{0} broadcast(%constant.592), dimensions={}
  %select.768 = f64[4096]{0} select(%compare.703, %broadcast.595, %broadcast.593), metadata={op_name="jit(_full_run)/jit(main)/jit(_normal)/jit(_normal_real)/erf_inv" source_file="/global/homes/j/jackm/software/lorrax_C/src/solvers/lanczos.py" source_line=247}
  %constant.590 = f64[] constant(1.0103004648645344)
  %broadcast.591 = f64[4096]{0} broadcast(%constant.590), dimensions={}
  %select.769 = f64[4096]{0} select(%compare.704, %select.768, %broadcast.591), metadata={op_name="jit(_full_run)/jit(main)/jit(_normal)/jit(_normal_real)/erf_inv" source_file="/global/homes/j/jackm/software/lorrax_C/src/solvers/lanczos.py" source_line=247}
  %constant.600 = f64[] constant(-2.9070369957882005e-08)
  %broadcast.601 = f64[4096]{0} broadcast(%constant.600), dimensions={}
  %constant.598 = f64[] constant(0.0024914420961078508)
  %broadcast.599 = f64[4096]{0} broadcast(%constant.598), dimensions={}
  %select.764 = f64[4096]{0} select(%compare.703, %broadcast.601, %broadcast.599), metadata={op_name="jit(_full_run)/jit(main)/jit(_normal)/jit(_normal_real)/erf_inv" source_file="/global/homes/j/jackm/software/lorrax_C/src/solvers/lanczos.py" source_line=247}
  %constant.596 = f64[] constant(-0.00013871931833623122)
  %broadcast.597 = f64[4096]{0} broadcast(%constant.596), dimensions={}
  %select.765 = f64[4096]{0} select(%compare.704, %select.764, %broadcast.597), metadata={op_name="jit(_full_run)/jit(main)/jit(_normal)/jit(_normal_real)/erf_inv" source_file="/global/homes/j/jackm/software/lorrax_C/src/solvers/lanczos.py" source_line=247}
  %constant.606 = f64[] constant(-4.1126339803469837e-09)
  %broadcast.607 = f64[4096]{0} broadcast(%constant.606), dimensions={}
  %constant.604 = f64[] constant(-0.0016882755560235047)
  %broadcast.605 = f64[4096]{0} broadcast(%constant.604), dimensions={}
  %select.760 = f64[4096]{0} select(%compare.703, %broadcast.607, %broadcast.605), metadata={op_name="jit(_full_run)/jit(main)/jit(_normal)/jit(_normal_real)/erf_inv" source_file="/global/homes/j/jackm/software/lorrax_C/src/solvers/lanczos.py" source_line=247}
  %constant.602 = f64[] constant(-0.00021503011930044477)
  %broadcast.603 = f64[4096]{0} broadcast(%constant.602), dimensions={}
  %select.761 = f64[4096]{0} select(%compare.704, %select.760, %broadcast.603), metadata={op_name="jit(_full_run)/jit(main)/jit(_normal)/jit(_normal_real)/erf_inv" source_file="/global/homes/j/jackm/software/lorrax_C/src/solvers/lanczos.py" source_line=247}
  %constant.612 = f64[] constant(1.0512122733215323e-09)
  %broadcast.613 = f64[4096]{0} broadcast(%constant.612), dimensions={}
  %constant.610 = f64[] constant(0.0009532893797373805)
  %broadcast.611 = f64[4096]{0} broadcast(%constant.610), dimensions={}
  %select.756 = f64[4096]{0} select(%compare.703, %broadcast.613, %broadcast.611), metadata={op_name="jit(_full_run)/jit(main)/jit(_normal)/jit(_normal_real)/erf_inv" source_file="/global/homes/j/jackm/software/lorrax_C/src/solvers/lanczos.py" source_line=247}
  %constant.608 = f64[] constant(7.5995277030017761e-05)
  %broadcast.609 = f64[4096]{0} broadcast(%constant.608), dimensions={}
  %select.757 = f64[4096]{0} select(%compare.704, %select.756, %broadcast.609), metadata={op_name="jit(_full_run)/jit(main)/jit(_normal)/jit(_normal_real)/erf_inv" source_file="/global/homes/j/jackm/software/lorrax_C/src/solvers/lanczos.py" source_line=247}
  %constant.618 = f64[] constant(-5.4154120542946279e-11)
  %broadcast.619 = f64[4096]{0} broadcast(%constant.618), dimensions={}
  %constant.616 = f64[] constant(-0.00035503752036284748)
  %broadcast.617 = f64[4096]{0} broadcast(%constant.616), dimensions={}
  %select.752 = f64[4096]{0} select(%compare.703, %broadcast.619, %broadcast.617), metadata={op_name="jit(_full_run)/jit(main)/jit(_normal)/jit(_normal_real)/erf_inv" source_file="/global/homes/j/jackm/software/lorrax_C/src/solvers/lanczos.py" source_line=247}
  %constant.614 = f64[] constant(-1.9681778105531671e-05)
  %broadcast.615 = f64[4096]{0} broadcast(%constant.614), dimensions={}
  %select.753 = f64[4096]{0} select(%compare.704, %select.752, %broadcast.615), metadata={op_name="jit(_full_run)/jit(main)/jit(_normal)/jit(_normal_real)/erf_inv" source_file="/global/homes/j/jackm/software/lorrax_C/src/solvers/lanczos.py" source_line=247}
  %constant.624 = f64[] constant(-1.2975133253453532e-11)
  %broadcast.625 = f64[4096]{0} broadcast(%constant.624), dimensions={}
  %constant.622 = f64[] constant(2.4031110387097894e-05)
  %broadcast.623 = f64[4096]{0} broadcast(%constant.622), dimensions={}
  %select.748 = f64[4096]{0} select(%compare.703, %broadcast.625, %broadcast.623), metadata={op_name="jit(_full_run)/jit(main)/jit(_normal)/jit(_normal_real)/erf_inv" source_file="/global/homes/j/jackm/software/lorrax_C/src/solvers/lanczos.py" source_line=247}
  %constant.620 = f64[] constant(4.5260625972231537e-06)
  %broadcast.621 = f64[4096]{0} broadcast(%constant.620), dimensions={}
  %select.749 = f64[4096]{0} select(%compare.704, %select.748, %broadcast.621), metadata={op_name="jit(_full_run)/jit(main)/jit(_normal)/jit(_normal_real)/erf_inv" source_file="/global/homes/j/jackm/software/lorrax_C/src/solvers/lanczos.py" source_line=247}
  %constant.630 = f64[] constant(2.6335093153082323e-12)
  %broadcast.631 = f64[4096]{0} broadcast(%constant.630), dimensions={}
  %constant.628 = f64[] constant(6.8284851459573175e-05)
  %broadcast.629 = f64[4096]{0} broadcast(%constant.628), dimensions={}
  %select.744 = f64[4096]{0} select(%compare.703, %broadcast.631, %broadcast.629), metadata={op_name="jit(_full_run)/jit(main)/jit(_normal)/jit(_normal_real)/erf_inv" source_file="/global/homes/j/jackm/software/lorrax_C/src/solvers/lanczos.py" source_line=247}
  %constant.626 = f64[] constant(-9.9298272942317e-07)
  %broadcast.627 = f64[4096]{0} broadcast(%constant.626), dimensions={}
  %select.745 = f64[4096]{0} select(%compare.704, %select.744, %broadcast.627), metadata={op_name="jit(_full_run)/jit(main)/jit(_normal)/jit(_normal_real)/erf_inv" source_file="/global/homes/j/jackm/software/lorrax_C/src/solvers/lanczos.py" source_line=247}
  %constant.636 = f64[] constant(-8.1519341976054722e-14)
  %broadcast.637 = f64[4096]{0} broadcast(%constant.636), dimensions={}
  %constant.634 = f64[] constant(-4.7318229009055734e-05)
  %broadcast.635 = f64[4096]{0} broadcast(%constant.634), dimensions={}
  %select.740 = f64[4096]{0} select(%compare.703, %broadcast.637, %broadcast.635), metadata={op_name="jit(_full_run)/jit(main)/jit(_normal)/jit(_normal_real)/erf_inv" source_file="/global/homes/j/jackm/software/lorrax_C/src/solvers/lanczos.py" source_line=247}
  %constant.632 = f64[] constant(2.2900482228026655e-07)
  %broadcast.633 = f64[4096]{0} broadcast(%constant.632), dimensions={}
  %select.741 = f64[4096]{0} select(%compare.704, %select.740, %broadcast.633), metadata={op_name="jit(_full_run)/jit(main)/jit(_normal)/jit(_normal_real)/erf_inv" source_file="/global/homes/j/jackm/software/lorrax_C/src/solvers/lanczos.py" source_line=247}
  %constant.642 = f64[] constant(-4.0545662729752069e-14)
  %broadcast.643 = f64[4096]{0} broadcast(%constant.642), dimensions={}
  %constant.640 = f64[] constant(1.2475304481671779e-05)
  %broadcast.641 = f64[4096]{0} broadcast(%constant.640), dimensions={}
  %select.736 = f64[4096]{0} select(%compare.703, %broadcast.643, %broadcast.641), metadata={op_name="jit(_full_run)/jit(main)/jit(_normal)/jit(_normal_real)/erf_inv" source_file="/global/homes/j/jackm/software/lorrax_C/src/solvers/lanczos.py" source_line=247}
  %constant.638 = f64[] constant(-6.7711997758452339e-08)
  %broadcast.639 = f64[4096]{0} broadcast(%constant.638), dimensions={}
  %select.737 = f64[4096]{0} select(%compare.704, %select.736, %broadcast.639), metadata={op_name="jit(_full_run)/jit(main)/jit(_normal)/jit(_normal_real)/erf_inv" source_file="/global/homes/j/jackm/software/lorrax_C/src/solvers/lanczos.py" source_line=247}
  %constant.648 = f64[] constant(6.6376381343583238e-15)
  %broadcast.649 = f64[4096]{0} broadcast(%constant.648), dimensions={}
  %constant.646 = f64[] constant(2.9234449089955446e-06)
  %broadcast.647 = f64[4096]{0} broadcast(%constant.646), dimensions={}
  %select.732 = f64[4096]{0} select(%compare.703, %broadcast.649, %broadcast.647), metadata={op_name="jit(_full_run)/jit(main)/jit(_normal)/jit(_normal_real)/erf_inv" source_file="/global/homes/j/jackm/software/lorrax_C/src/solvers/lanczos.py" source_line=247}
  %constant.644 = f64[] constant(2.9147953450901081e-08)
  %broadcast.645 = f64[4096]{0} broadcast(%constant.644), dimensions={}
  %select.733 = f64[4096]{0} select(%compare.704, %select.732, %broadcast.645), metadata={op_name="jit(_full_run)/jit(main)/jit(_normal)/jit(_normal_real)/erf_inv" source_file="/global/homes/j/jackm/software/lorrax_C/src/solvers/lanczos.py" source_line=247}
  %constant.654 = f64[] constant(2.0972767875968562e-17)
  %broadcast.655 = f64[4096]{0} broadcast(%constant.654), dimensions={}
  %constant.652 = f64[] constant(-4.013867526981546e-06)
  %broadcast.653 = f64[4096]{0} broadcast(%constant.652), dimensions={}
  %select.728 = f64[4096]{0} select(%compare.703, %broadcast.655, %broadcast.653), metadata={op_name="jit(_full_run)/jit(main)/jit(_normal)/jit(_normal_real)/erf_inv" source_file="/global/homes/j/jackm/software/lorrax_C/src/solvers/lanczos.py" source_line=247}
  %constant.650 = f64[] constant(-1.496002662714924e-08)
  %broadcast.651 = f64[4096]{0} broadcast(%constant.650), dimensions={}
  %select.729 = f64[4096]{0} select(%compare.704, %select.728, %broadcast.651), metadata={op_name="jit(_full_run)/jit(main)/jit(_normal)/jit(_normal_real)/erf_inv" source_file="/global/homes/j/jackm/software/lorrax_C/src/solvers/lanczos.py" source_line=247}
  %constant.660 = f64[] constant(-1.3331716628546209e-16)
  %broadcast.661 = f64[4096]{0} broadcast(%constant.660), dimensions={}
  %constant.658 = f64[] constant(1.5027403968909828e-06)
  %broadcast.659 = f64[4096]{0} broadcast(%constant.658), dimensions={}
  %select.724 = f64[4096]{0} select(%compare.703, %broadcast.661, %broadcast.659), metadata={op_name="jit(_full_run)/jit(main)/jit(_normal)/jit(_normal_real)/erf_inv" source_file="/global/homes/j/jackm/software/lorrax_C/src/solvers/lanczos.py" source_line=247}
  %constant.656 = f64[] constant(7.61570120807834e-09)
  %broadcast.657 = f64[4096]{0} broadcast(%constant.656), dimensions={}
  %select.725 = f64[4096]{0} select(%compare.704, %select.724, %broadcast.657), metadata={op_name="jit(_full_run)/jit(main)/jit(_normal)/jit(_normal_real)/erf_inv" source_file="/global/homes/j/jackm/software/lorrax_C/src/solvers/lanczos.py" source_line=247}
  %constant.666 = f64[] constant(1.1157877678025181e-17)
  %broadcast.667 = f64[4096]{0} broadcast(%constant.666), dimensions={}
  %constant.664 = f64[] constant(1.8239629214389228e-08)
  %broadcast.665 = f64[4096]{0} broadcast(%constant.664), dimensions={}
  %select.720 = f64[4096]{0} select(%compare.703, %broadcast.667, %broadcast.665), metadata={op_name="jit(_full_run)/jit(main)/jit(_normal)/jit(_normal_real)/erf_inv" source_file="/global/homes/j/jackm/software/lorrax_C/src/solvers/lanczos.py" source_line=247}
  %constant.662 = f64[] constant(-3.789465440126737e-09)
  %broadcast.663 = f64[4096]{0} broadcast(%constant.662), dimensions={}
  %select.721 = f64[4096]{0} select(%compare.704, %select.720, %broadcast.663), metadata={op_name="jit(_full_run)/jit(main)/jit(_normal)/jit(_normal_real)/erf_inv" source_file="/global/homes/j/jackm/software/lorrax_C/src/solvers/lanczos.py" source_line=247}
  %constant.672 = f64[] constant(1.28584807152564e-18)
  %broadcast.673 = f64[4096]{0} broadcast(%constant.672), dimensions={}
  %constant.670 = f64[] constant(-2.7517406297064545e-07)
  %broadcast.671 = f64[4096]{0} broadcast(%constant.670), dimensions={}
  %select.716 = f64[4096]{0} select(%compare.703, %broadcast.673, %broadcast.671), metadata={op_name="jit(_full_run)/jit(main)/jit(_normal)/jit(_normal_real)/erf_inv" source_file="/global/homes/j/jackm/software/lorrax_C/src/solvers/lanczos.py" source_line=247}
  %constant.668 = f64[] constant(1.5076572693500548e-09)
  %broadcast.669 = f64[4096]{0} broadcast(%constant.668), dimensions={}
  %select.717 = f64[4096]{0} select(%compare.704, %select.716, %broadcast.669), metadata={op_name="jit(_full_run)/jit(main)/jit(_normal)/jit(_normal_real)/erf_inv" source_file="/global/homes/j/jackm/software/lorrax_C/src/solvers/lanczos.py" source_line=247}
  %constant.678 = f64[] constant(-1.6850591381820166e-19)
  %broadcast.679 = f64[4096]{0} broadcast(%constant.678), dimensions={}
  %constant.676 = f64[] constant(9.0756561938885391e-08)
  %broadcast.677 = f64[4096]{0} broadcast(%constant.676), dimensions={}
  %select.712 = f64[4096]{0} select(%compare.703, %broadcast.679, %broadcast.677), metadata={op_name="jit(_full_run)/jit(main)/jit(_normal)/jit(_normal_real)/erf_inv" source_file="/global/homes/j/jackm/software/lorrax_C/src/solvers/lanczos.py" source_line=247}
  %constant.674 = f64[] constant(-2.5556418169965252e-10)
  %broadcast.675 = f64[4096]{0} broadcast(%constant.674), dimensions={}
  %select.713 = f64[4096]{0} select(%compare.704, %select.712, %broadcast.675), metadata={op_name="jit(_full_run)/jit(main)/jit(_normal)/jit(_normal_real)/erf_inv" source_file="/global/homes/j/jackm/software/lorrax_C/src/solvers/lanczos.py" source_line=247}
  %constant.684 = f64[] constant(-3.64441206401782e-21)
  %broadcast.685 = f64[4096]{0} broadcast(%constant.684), dimensions={}
  %constant.682 = f64[] constant(2.2137376921775787e-09)
  %broadcast.683 = f64[4096]{0} broadcast(%constant.682), dimensions={}
  %select.710 = f64[4096]{0} select(%compare.703, %broadcast.685, %broadcast.683), metadata={op_name="jit(_full_run)/jit(main)/jit(_normal)/jit(_normal_real)/erf_inv" source_file="/global/homes/j/jackm/software/lorrax_C/src/solvers/lanczos.py" source_line=247}
  %constant.680 = f64[] constant(-2.7109920616438573e-11)
  %broadcast.681 = f64[4096]{0} broadcast(%constant.680), dimensions={}
  %select.711 = f64[4096]{0} select(%compare.704, %select.710, %broadcast.681), metadata={op_name="jit(_full_run)/jit(main)/jit(_normal)/jit(_normal_real)/erf_inv" source_file="/global/homes/j/jackm/software/lorrax_C/src/solvers/lanczos.py" source_line=247}
  %constant.690 = f64[] constant(3.125)
  %broadcast.691 = f64[4096]{0} broadcast(%constant.690), dimensions={}
  %subtract.706 = f64[4096]{0} subtract(%negate.702, %broadcast.691), metadata={op_name="jit(_full_run)/jit(main)/jit(_normal)/jit(_normal_real)/erf_inv" source_file="/global/homes/j/jackm/software/lorrax_C/src/solvers/lanczos.py" source_line=247}
  %sqrt.705 = f64[4096]{0} sqrt(%negate.702), metadata={op_name="jit(_full_run)/jit(main)/jit(_normal)/jit(_normal_real)/erf_inv" source_file="/global/homes/j/jackm/software/lorrax_C/src/solvers/lanczos.py" source_line=247}
  %constant.688 = f64[] constant(3.25)
  %broadcast.689 = f64[4096]{0} broadcast(%constant.688), dimensions={}
  %constant.686 = f64[] constant(5)
  %broadcast.687 = f64[4096]{0} broadcast(%constant.686), dimensions={}
  %select.707 = f64[4096]{0} select(%compare.704, %broadcast.689, %broadcast.687), metadata={op_name="jit(_full_run)/jit(main)/jit(_normal)/jit(_normal_real)/erf_inv" source_file="/global/homes/j/jackm/software/lorrax_C/src/solvers/lanczos.py" source_line=247}
  %subtract.708 = f64[4096]{0} subtract(%sqrt.705, %select.707), metadata={op_name="jit(_full_run)/jit(main)/jit(_normal)/jit(_normal_real)/erf_inv" source_file="/global/homes/j/jackm/software/lorrax_C/src/solvers/lanczos.py" source_line=247}
  %select.709 = f64[4096]{0} select(%compare.703, %subtract.706, %subtract.708), metadata={op_name="jit(_full_run)/jit(main)/jit(_normal)/jit(_normal_real)/erf_inv" source_file="/global/homes/j/jackm/software/lorrax_C/src/solvers/lanczos.py" source_line=247}
  %multiply.714 = f64[4096]{0} multiply(%select.711, %select.709), metadata={op_name="jit(_full_run)/jit(main)/jit(_normal)/jit(_normal_real)/erf_inv" source_file="/global/homes/j/jackm/software/lorrax_C/src/solvers/lanczos.py" source_line=247}
  %add.715 = f64[4096]{0} add(%select.713, %multiply.714), metadata={op_name="jit(_full_run)/jit(main)/jit(_normal)/jit(_normal_real)/erf_inv" source_file="/global/homes/j/jackm/software/lorrax_C/src/solvers/lanczos.py" source_line=247}
  %multiply.718 = f64[4096]{0} multiply(%add.715, %select.709), metadata={op_name="jit(_full_run)/jit(main)/jit(_normal)/jit(_normal_real)/erf_inv" source_file="/global/homes/j/jackm/software/lorrax_C/src/solvers/lanczos.py" source_line=247}
  %add.719 = f64[4096]{0} add(%select.717, %multiply.718), metadata={op_name="jit(_full_run)/jit(main)/jit(_normal)/jit(_normal_real)/erf_inv" source_file="/global/homes/j/jackm/software/lorrax_C/src/solvers/lanczos.py" source_line=247}
  %multiply.722 = f64[4096]{0} multiply(%add.719, %select.709), metadata={op_name="jit(_full_run)/jit(main)/jit(_normal)/jit(_normal_real)/erf_inv" source_file="/global/homes/j/jackm/software/lorrax_C/src/solvers/lanczos.py" source_line=247}
  %add.723 = f64[4096]{0} add(%select.721, %multiply.722), metadata={op_name="jit(_full_run)/jit(main)/jit(_normal)/jit(_normal_real)/erf_inv" source_file="/global/homes/j/jackm/software/lorrax_C/src/solvers/lanczos.py" source_line=247}
  %multiply.726 = f64[4096]{0} multiply(%add.723, %select.709), metadata={op_name="jit(_full_run)/jit(main)/jit(_normal)/jit(_normal_real)/erf_inv" source_file="/global/homes/j/jackm/software/lorrax_C/src/solvers/lanczos.py" source_line=247}
  %add.727 = f64[4096]{0} add(%select.725, %multiply.726), metadata={op_name="jit(_full_run)/jit(main)/jit(_normal)/jit(_normal_real)/erf_inv" source_file="/global/homes/j/jackm/software/lorrax_C/src/solvers/lanczos.py" source_line=247}
  %multiply.730 = f64[4096]{0} multiply(%add.727, %select.709), metadata={op_name="jit(_full_run)/jit(main)/jit(_normal)/jit(_normal_real)/erf_inv" source_file="/global/homes/j/jackm/software/lorrax_C/src/solvers/lanczos.py" source_line=247}
  %add.731 = f64[4096]{0} add(%select.729, %multiply.730), metadata={op_name="jit(_full_run)/jit(main)/jit(_normal)/jit(_normal_real)/erf_inv" source_file="/global/homes/j/jackm/software/lorrax_C/src/solvers/lanczos.py" source_line=247}
  %multiply.734 = f64[4096]{0} multiply(%add.731, %select.709), metadata={op_name="jit(_full_run)/jit(main)/jit(_normal)/jit(_normal_real)/erf_inv" source_file="/global/homes/j/jackm/software/lorrax_C/src/solvers/lanczos.py" source_line=247}
  %add.735 = f64[4096]{0} add(%select.733, %multiply.734), metadata={op_name="jit(_full_run)/jit(main)/jit(_normal)/jit(_normal_real)/erf_inv" source_file="/global/homes/j/jackm/software/lorrax_C/src/solvers/lanczos.py" source_line=247}
  %multiply.738 = f64[4096]{0} multiply(%add.735, %select.709), metadata={op_name="jit(_full_run)/jit(main)/jit(_normal)/jit(_normal_real)/erf_inv" source_file="/global/homes/j/jackm/software/lorrax_C/src/solvers/lanczos.py" source_line=247}
  %add.739 = f64[4096]{0} add(%select.737, %multiply.738), metadata={op_name="jit(_full_run)/jit(main)/jit(_normal)/jit(_normal_real)/erf_inv" source_file="/global/homes/j/jackm/software/lorrax_C/src/solvers/lanczos.py" source_line=247}
  %multiply.742 = f64[4096]{0} multiply(%add.739, %select.709), metadata={op_name="jit(_full_run)/jit(main)/jit(_normal)/jit(_normal_real)/erf_inv" source_file="/global/homes/j/jackm/software/lorrax_C/src/solvers/lanczos.py" source_line=247}
  %add.743 = f64[4096]{0} add(%select.741, %multiply.742), metadata={op_name="jit(_full_run)/jit(main)/jit(_normal)/jit(_normal_real)/erf_inv" source_file="/global/homes/j/jackm/software/lorrax_C/src/solvers/lanczos.py" source_line=247}
  %multiply.746 = f64[4096]{0} multiply(%add.743, %select.709), metadata={op_name="jit(_full_run)/jit(main)/jit(_normal)/jit(_normal_real)/erf_inv" source_file="/global/homes/j/jackm/software/lorrax_C/src/solvers/lanczos.py" source_line=247}
  %add.747 = f64[4096]{0} add(%select.745, %multiply.746), metadata={op_name="jit(_full_run)/jit(main)/jit(_normal)/jit(_normal_real)/erf_inv" source_file="/global/homes/j/jackm/software/lorrax_C/src/solvers/lanczos.py" source_line=247}
  %multiply.750 = f64[4096]{0} multiply(%add.747, %select.709), metadata={op_name="jit(_full_run)/jit(main)/jit(_normal)/jit(_normal_real)/erf_inv" source_file="/global/homes/j/jackm/software/lorrax_C/src/solvers/lanczos.py" source_line=247}
  %add.751 = f64[4096]{0} add(%select.749, %multiply.750), metadata={op_name="jit(_full_run)/jit(main)/jit(_normal)/jit(_normal_real)/erf_inv" source_file="/global/homes/j/jackm/software/lorrax_C/src/solvers/lanczos.py" source_line=247}
  %multiply.754 = f64[4096]{0} multiply(%add.751, %select.709), metadata={op_name="jit(_full_run)/jit(main)/jit(_normal)/jit(_normal_real)/erf_inv" source_file="/global/homes/j/jackm/software/lorrax_C/src/solvers/lanczos.py" source_line=247}
  %add.755 = f64[4096]{0} add(%select.753, %multiply.754), metadata={op_name="jit(_full_run)/jit(main)/jit(_normal)/jit(_normal_real)/erf_inv" source_file="/global/homes/j/jackm/software/lorrax_C/src/solvers/lanczos.py" source_line=247}
  %multiply.758 = f64[4096]{0} multiply(%add.755, %select.709), metadata={op_name="jit(_full_run)/jit(main)/jit(_normal)/jit(_normal_real)/erf_inv" source_file="/global/homes/j/jackm/software/lorrax_C/src/solvers/lanczos.py" source_line=247}
  %add.759 = f64[4096]{0} add(%select.757, %multiply.758), metadata={op_name="jit(_full_run)/jit(main)/jit(_normal)/jit(_normal_real)/erf_inv" source_file="/global/homes/j/jackm/software/lorrax_C/src/solvers/lanczos.py" source_line=247}
  %multiply.762 = f64[4096]{0} multiply(%add.759, %select.709), metadata={op_name="jit(_full_run)/jit(main)/jit(_normal)/jit(_normal_real)/erf_inv" source_file="/global/homes/j/jackm/software/lorrax_C/src/solvers/lanczos.py" source_line=247}
  %add.763 = f64[4096]{0} add(%select.761, %multiply.762), metadata={op_name="jit(_full_run)/jit(main)/jit(_normal)/jit(_normal_real)/erf_inv" source_file="/global/homes/j/jackm/software/lorrax_C/src/solvers/lanczos.py" source_line=247}
  %multiply.766 = f64[4096]{0} multiply(%add.763, %select.709), metadata={op_name="jit(_full_run)/jit(main)/jit(_normal)/jit(_normal_real)/erf_inv" source_file="/global/homes/j/jackm/software/lorrax_C/src/solvers/lanczos.py" source_line=247}
  %add.767 = f64[4096]{0} add(%select.765, %multiply.766), metadata={op_name="jit(_full_run)/jit(main)/jit(_normal)/jit(_normal_real)/erf_inv" source_file="/global/homes/j/jackm/software/lorrax_C/src/solvers/lanczos.py" source_line=247}
  %multiply.770 = f64[4096]{0} multiply(%add.767, %select.709), metadata={op_name="jit(_full_run)/jit(main)/jit(_normal)/jit(_normal_real)/erf_inv" source_file="/global/homes/j/jackm/software/lorrax_C/src/solvers/lanczos.py" source_line=247}
  %add.771 = f64[4096]{0} add(%select.769, %multiply.770), metadata={op_name="jit(_full_run)/jit(main)/jit(_normal)/jit(_normal_real)/erf_inv" source_file="/global/homes/j/jackm/software/lorrax_C/src/solvers/lanczos.py" source_line=247}
  %multiply.774 = f64[4096]{0} multiply(%add.771, %select.709), metadata={op_name="jit(_full_run)/jit(main)/jit(_normal)/jit(_normal_real)/erf_inv" source_file="/global/homes/j/jackm/software/lorrax_C/src/solvers/lanczos.py" source_line=247}
  %add.775 = f64[4096]{0} add(%select.773, %multiply.774), metadata={op_name="jit(_full_run)/jit(main)/jit(_normal)/jit(_normal_real)/erf_inv" source_file="/global/homes/j/jackm/software/lorrax_C/src/solvers/lanczos.py" source_line=247}
  %multiply.777 = f64[4096]{0} multiply(%add.775, %select.709), metadata={op_name="jit(_full_run)/jit(main)/jit(_normal)/jit(_normal_real)/erf_inv" source_file="/global/homes/j/jackm/software/lorrax_C/src/solvers/lanczos.py" source_line=247}
  %add.778 = f64[4096]{0} add(%select.776, %multiply.777), metadata={op_name="jit(_full_run)/jit(main)/jit(_normal)/jit(_normal_real)/erf_inv" source_file="/global/homes/j/jackm/software/lorrax_C/src/solvers/lanczos.py" source_line=247}
  %select.779 = f64[4096]{0} select(%compare.704, %add.778, %add.775), metadata={op_name="jit(_full_run)/jit(main)/jit(_normal)/jit(_normal_real)/erf_inv" source_file="/global/homes/j/jackm/software/lorrax_C/src/solvers/lanczos.py" source_line=247}
  %multiply.781 = f64[4096]{0} multiply(%select.779, %select.709), metadata={op_name="jit(_full_run)/jit(main)/jit(_normal)/jit(_normal_real)/erf_inv" source_file="/global/homes/j/jackm/software/lorrax_C/src/solvers/lanczos.py" source_line=247}
  %add.782 = f64[4096]{0} add(%select.780, %multiply.781), metadata={op_name="jit(_full_run)/jit(main)/jit(_normal)/jit(_normal_real)/erf_inv" source_file="/global/homes/j/jackm/software/lorrax_C/src/solvers/lanczos.py" source_line=247}
  %select.783 = f64[4096]{0} select(%compare.704, %add.782, %select.779), metadata={op_name="jit(_full_run)/jit(main)/jit(_normal)/jit(_normal_real)/erf_inv" source_file="/global/homes/j/jackm/software/lorrax_C/src/solvers/lanczos.py" source_line=247}
  %multiply.784 = f64[4096]{0} multiply(%select.783, %select.709), metadata={op_name="jit(_full_run)/jit(main)/jit(_normal)/jit(_normal_real)/erf_inv" source_file="/global/homes/j/jackm/software/lorrax_C/src/solvers/lanczos.py" source_line=247}
  %constant.574 = f64[] constant(-0.000740702534166267)
  %broadcast.575 = f64[4096]{0} broadcast(%constant.574), dimensions={}
  %add.785 = f64[4096]{0} add(%multiply.784, %broadcast.575), metadata={op_name="jit(_full_run)/jit(main)/jit(_normal)/jit(_normal_real)/erf_inv" source_file="/global/homes/j/jackm/software/lorrax_C/src/solvers/lanczos.py" source_line=247}
  %select.786 = f64[4096]{0} select(%compare.703, %add.785, %select.783), metadata={op_name="jit(_full_run)/jit(main)/jit(_normal)/jit(_normal_real)/erf_inv" source_file="/global/homes/j/jackm/software/lorrax_C/src/solvers/lanczos.py" source_line=247}
  %multiply.787 = f64[4096]{0} multiply(%select.786, %select.709), metadata={op_name="jit(_full_run)/jit(main)/jit(_normal)/jit(_normal_real)/erf_inv" source_file="/global/homes/j/jackm/software/lorrax_C/src/solvers/lanczos.py" source_line=247}
  %constant.572 = f64[] constant(-0.0060336708714301491)
  %broadcast.573 = f64[4096]{0} broadcast(%constant.572), dimensions={}
  %add.788 = f64[4096]{0} add(%multiply.787, %broadcast.573), metadata={op_name="jit(_full_run)/jit(main)/jit(_normal)/jit(_normal_real)/erf_inv" source_file="/global/homes/j/jackm/software/lorrax_C/src/solvers/lanczos.py" source_line=247}
  %select.789 = f64[4096]{0} select(%compare.703, %add.788, %select.786), metadata={op_name="jit(_full_run)/jit(main)/jit(_normal)/jit(_normal_real)/erf_inv" source_file="/global/homes/j/jackm/software/lorrax_C/src/solvers/lanczos.py" source_line=247}
  %multiply.790 = f64[4096]{0} multiply(%select.789, %select.709), metadata={op_name="jit(_full_run)/jit(main)/jit(_normal)/jit(_normal_real)/erf_inv" source_file="/global/homes/j/jackm/software/lorrax_C/src/solvers/lanczos.py" source_line=247}
  %constant.570 = f64[] constant(0.24015818242558962)
  %broadcast.571 = f64[4096]{0} broadcast(%constant.570), dimensions={}
  %add.791 = f64[4096]{0} add(%multiply.790, %broadcast.571), metadata={op_name="jit(_full_run)/jit(main)/jit(_normal)/jit(_normal_real)/erf_inv" source_file="/global/homes/j/jackm/software/lorrax_C/src/solvers/lanczos.py" source_line=247}
  %select.792 = f64[4096]{0} select(%compare.703, %add.791, %select.789), metadata={op_name="jit(_full_run)/jit(main)/jit(_normal)/jit(_normal_real)/erf_inv" source_file="/global/homes/j/jackm/software/lorrax_C/src/solvers/lanczos.py" source_line=247}
  %multiply.793 = f64[4096]{0} multiply(%select.792, %select.709), metadata={op_name="jit(_full_run)/jit(main)/jit(_normal)/jit(_normal_real)/erf_inv" source_file="/global/homes/j/jackm/software/lorrax_C/src/solvers/lanczos.py" source_line=247}
  %constant.568 = f64[] constant(1.6536545626831027)
  %broadcast.569 = f64[4096]{0} broadcast(%constant.568), dimensions={}
  %add.794 = f64[4096]{0} add(%multiply.793, %broadcast.569), metadata={op_name="jit(_full_run)/jit(main)/jit(_normal)/jit(_normal_real)/erf_inv" source_file="/global/homes/j/jackm/software/lorrax_C/src/solvers/lanczos.py" source_line=247}
  %select.795 = f64[4096]{0} select(%compare.703, %add.794, %select.792), metadata={op_name="jit(_full_run)/jit(main)/jit(_normal)/jit(_normal_real)/erf_inv" source_file="/global/homes/j/jackm/software/lorrax_C/src/solvers/lanczos.py" source_line=247}
  %multiply.796 = f64[4096]{0} multiply(%select.795, %call.698), metadata={op_name="jit(_full_run)/jit(main)/jit(_normal)/jit(_normal_real)/erf_inv" source_file="/global/homes/j/jackm/software/lorrax_C/src/solvers/lanczos.py" source_line=247}
  %select.800 = f64[4096]{0} select(%compare.798, %multiply.799, %multiply.796), metadata={op_name="jit(_full_run)/jit(main)/jit(_normal)/jit(_normal_real)/erf_inv" source_file="/global/homes/j/jackm/software/lorrax_C/src/solvers/lanczos.py" source_line=247}
  %constant.562 = f64[] constant(1.4142135623730951)
  %broadcast.563 = f64[4096]{0} broadcast(%constant.562), dimensions={}
  ROOT %multiply.801 = f64[4096]{0} multiply(%select.800, %broadcast.563), metadata={op_name="jit(_full_run)/jit(main)/jit(_normal)/jit(_normal_real)/mul" source_file="/global/homes/j/jackm/software/lorrax_C/src/solvers/lanczos.py" source_line=247}
}

%_normal.802 (Arg_0.803: u32[2]) -> f64[4096] {
  %Arg_0.803 = u32[2]{0} parameter(0), metadata={op_name="jit(_full_run)/jit(main)/pjit"}
  ROOT %call.804 = f64[4096]{0} call(%Arg_0.803), to_apply=%_normal_real.560
}

%threefry2x32_0.806 (Arg_0.807: u32[], Arg_1.808: u32[], Arg_2.809: u32[4096], Arg_3.810: u32[4096]) -> (u32[4096], u32[4096]) {
  %Arg_2.809 = u32[4096]{0} parameter(2), metadata={op_name="jit(_full_run)/jit(main)/jit(_normal)/jit(_normal_real)/jit(_uniform)/threefry2x32"}
  %Arg_0.807 = u32[] parameter(0), metadata={op_name="jit(_full_run)/jit(main)/jit(_normal)/jit(_normal_real)/jit(_uniform)/threefry2x32"}
  %broadcast.844 = u32[4096]{0} broadcast(%Arg_0.807), dimensions={}, metadata={op_name="jit(_full_run)/jit(main)/jit(_normal)/jit(_normal_real)/jit(_uniform)/add" source_file="/global/homes/j/jackm/software/lorrax_C/src/solvers/lanczos.py" source_line=247}
  %add.845 = u32[4096]{0} add(%Arg_2.809, %broadcast.844), metadata={op_name="jit(_full_run)/jit(main)/jit(_normal)/jit(_normal_real)/jit(_uniform)/add" source_file="/global/homes/j/jackm/software/lorrax_C/src/solvers/lanczos.py" source_line=247}
  %Arg_3.810 = u32[4096]{0} parameter(3), metadata={op_name="jit(_full_run)/jit(main)/jit(_normal)/jit(_normal_real)/jit(_uniform)/threefry2x32"}
  %Arg_1.808 = u32[] parameter(1), metadata={op_name="jit(_full_run)/jit(main)/jit(_normal)/jit(_normal_real)/jit(_uniform)/threefry2x32"}
  %broadcast.846 = u32[4096]{0} broadcast(%Arg_1.808), dimensions={}, metadata={op_name="jit(_full_run)/jit(main)/jit(_normal)/jit(_normal_real)/jit(_uniform)/add" source_file="/global/homes/j/jackm/software/lorrax_C/src/solvers/lanczos.py" source_line=247}
  %add.847 = u32[4096]{0} add(%Arg_3.810, %broadcast.846), metadata={op_name="jit(_full_run)/jit(main)/jit(_normal)/jit(_normal_real)/jit(_uniform)/add" source_file="/global/homes/j/jackm/software/lorrax_C/src/solvers/lanczos.py" source_line=247}
  %add.848 = u32[4096]{0} add(%add.845, %add.847), metadata={op_name="jit(_full_run)/jit(main)/jit(_normal)/jit(_normal_real)/jit(_uniform)/add" source_file="/global/homes/j/jackm/software/lorrax_C/src/solvers/lanczos.py" source_line=247}
  %constant.839 = u32[] constant(13)
  %broadcast.840 = u32[4096]{0} broadcast(%constant.839), dimensions={}
  %shift-left.849 = u32[4096]{0} shift-left(%add.847, %broadcast.840), metadata={op_name="jit(_full_run)/jit(main)/jit(_normal)/jit(_normal_real)/jit(_uniform)/shift_left" source_file="/global/homes/j/jackm/software/lorrax_C/src/solvers/lanczos.py" source_line=247}
  %constant.837 = u32[] constant(19)
  %broadcast.838 = u32[4096]{0} broadcast(%constant.837), dimensions={}
  %shift-right-logical.850 = u32[4096]{0} shift-right-logical(%add.847, %broadcast.838), metadata={op_name="jit(_full_run)/jit(main)/jit(_normal)/jit(_normal_real)/jit(_uniform)/shift_right_logical" source_file="/global/homes/j/jackm/software/lorrax_C/src/solvers/lanczos.py" source_line=247}
  %or.851 = u32[4096]{0} or(%shift-left.849, %shift-right-logical.850), metadata={op_name="jit(_full_run)/jit(main)/jit(_normal)/jit(_normal_real)/jit(_uniform)/or" source_file="/global/homes/j/jackm/software/lorrax_C/src/solvers/lanczos.py" source_line=247}
  %xor.852 = u32[4096]{0} xor(%add.848, %or.851), metadata={op_name="jit(_full_run)/jit(main)/jit(_normal)/jit(_normal_real)/jit(_uniform)/xor" source_file="/global/homes/j/jackm/software/lorrax_C/src/solvers/lanczos.py" source_line=247}
  %add.853 = u32[4096]{0} add(%add.848, %xor.852), metadata={op_name="jit(_full_run)/jit(main)/jit(_normal)/jit(_normal_real)/jit(_uniform)/add" source_file="/global/homes/j/jackm/software/lorrax_C/src/solvers/lanczos.py" source_line=247}
  %constant.835 = u32[] constant(15)
  %broadcast.836 = u32[4096]{0} broadcast(%constant.835), dimensions={}
  %shift-left.854 = u32[4096]{0} shift-left(%xor.852, %broadcast.836), metadata={op_name="jit(_full_run)/jit(main)/jit(_normal)/jit(_normal_real)/jit(_uniform)/shift_left" source_file="/global/homes/j/jackm/software/lorrax_C/src/solvers/lanczos.py" source_line=247}
  %constant.833 = u32[] constant(17)
  %broadcast.834 = u32[4096]{0} broadcast(%constant.833), dimensions={}
  %shift-right-logical.855 = u32[4096]{0} shift-right-logical(%xor.852, %broadcast.834), metadata={op_name="jit(_full_run)/jit(main)/jit(_normal)/jit(_normal_real)/jit(_uniform)/shift_right_logical" source_file="/global/homes/j/jackm/software/lorrax_C/src/solvers/lanczos.py" source_line=247}
  %or.856 = u32[4096]{0} or(%shift-left.854, %shift-right-logical.855), metadata={op_name="jit(_full_run)/jit(main)/jit(_normal)/jit(_normal_real)/jit(_uniform)/or" source_file="/global/homes/j/jackm/software/lorrax_C/src/solvers/lanczos.py" source_line=247}
  %xor.857 = u32[4096]{0} xor(%add.853, %or.856), metadata={op_name="jit(_full_run)/jit(main)/jit(_normal)/jit(_normal_real)/jit(_uniform)/xor" source_file="/global/homes/j/jackm/software/lorrax_C/src/solvers/lanczos.py" source_line=247}
  %add.858 = u32[4096]{0} add(%add.853, %xor.857), metadata={op_name="jit(_full_run)/jit(main)/jit(_normal)/jit(_normal_real)/jit(_uniform)/add" source_file="/global/homes/j/jackm/software/lorrax_C/src/solvers/lanczos.py" source_line=247}
  %constant.831 = u32[] constant(26)
  %broadcast.832 = u32[4096]{0} broadcast(%constant.831), dimensions={}
  %shift-left.859 = u32[4096]{0} shift-left(%xor.857, %broadcast.832), metadata={op_name="jit(_full_run)/jit(main)/jit(_normal)/jit(_normal_real)/jit(_uniform)/shift_left" source_file="/global/homes/j/jackm/software/lorrax_C/src/solvers/lanczos.py" source_line=247}
  %constant.829 = u32[] constant(6)
  %broadcast.830 = u32[4096]{0} broadcast(%constant.829), dimensions={}
  %shift-right-logical.860 = u32[4096]{0} shift-right-logical(%xor.857, %broadcast.830), metadata={op_name="jit(_full_run)/jit(main)/jit(_normal)/jit(_normal_real)/jit(_uniform)/shift_right_logical" source_file="/global/homes/j/jackm/software/lorrax_C/src/solvers/lanczos.py" source_line=247}
  %or.861 = u32[4096]{0} or(%shift-left.859, %shift-right-logical.860), metadata={op_name="jit(_full_run)/jit(main)/jit(_normal)/jit(_normal_real)/jit(_uniform)/or" source_file="/global/homes/j/jackm/software/lorrax_C/src/solvers/lanczos.py" source_line=247}
  %xor.862 = u32[4096]{0} xor(%add.858, %or.861), metadata={op_name="jit(_full_run)/jit(main)/jit(_normal)/jit(_normal_real)/jit(_uniform)/xor" source_file="/global/homes/j/jackm/software/lorrax_C/src/solvers/lanczos.py" source_line=247}
  %add.863 = u32[4096]{0} add(%add.858, %xor.862), metadata={op_name="jit(_full_run)/jit(main)/jit(_normal)/jit(_normal_real)/jit(_uniform)/add" source_file="/global/homes/j/jackm/software/lorrax_C/src/solvers/lanczos.py" source_line=247}
  %broadcast.868 = u32[4096]{0} broadcast(%Arg_1.808), dimensions={}, metadata={op_name="jit(_full_run)/jit(main)/jit(_normal)/jit(_normal_real)/jit(_uniform)/add" source_file="/global/homes/j/jackm/software/lorrax_C/src/solvers/lanczos.py" source_line=247}
  %add.869 = u32[4096]{0} add(%add.863, %broadcast.868), metadata={op_name="jit(_full_run)/jit(main)/jit(_normal)/jit(_normal_real)/jit(_uniform)/add" source_file="/global/homes/j/jackm/software/lorrax_C/src/solvers/lanczos.py" source_line=247}
  %shift-left.864 = u32[4096]{0} shift-left(%xor.862, %broadcast.830), metadata={op_name="jit(_full_run)/jit(main)/jit(_normal)/jit(_normal_real)/jit(_uniform)/shift_left" source_file="/global/homes/j/jackm/software/lorrax_C/src/solvers/lanczos.py" source_line=247}
  %shift-right-logical.865 = u32[4096]{0} shift-right-logical(%xor.862, %broadcast.832), metadata={op_name="jit(_full_run)/jit(main)/jit(_normal)/jit(_normal_real)/jit(_uniform)/shift_right_logical" source_file="/global/homes/j/jackm/software/lorrax_C/src/solvers/lanczos.py" source_line=247}
  %or.866 = u32[4096]{0} or(%shift-left.864, %shift-right-logical.865), metadata={op_name="jit(_full_run)/jit(main)/jit(_normal)/jit(_normal_real)/jit(_uniform)/or" source_file="/global/homes/j/jackm/software/lorrax_C/src/solvers/lanczos.py" source_line=247}
  %xor.867 = u32[4096]{0} xor(%add.863, %or.866), metadata={op_name="jit(_full_run)/jit(main)/jit(_normal)/jit(_normal_real)/jit(_uniform)/xor" source_file="/global/homes/j/jackm/software/lorrax_C/src/solvers/lanczos.py" source_line=247}
  %xor.842 = u32[] xor(%Arg_0.807, %Arg_1.808), metadata={op_name="jit(_full_run)/jit(main)/jit(_normal)/jit(_normal_real)/jit(_uniform)/xor" source_file="/global/homes/j/jackm/software/lorrax_C/src/solvers/lanczos.py" source_line=247}
  %constant.841 = u32[] constant(466688986)
  %xor.843 = u32[] xor(%xor.842, %constant.841), metadata={op_name="jit(_full_run)/jit(main)/jit(_normal)/jit(_normal_real)/jit(_uniform)/xor" source_file="/global/homes/j/jackm/software/lorrax_C/src/solvers/lanczos.py" source_line=247}
  %broadcast.870 = u32[4096]{0} broadcast(%xor.843), dimensions={}, metadata={op_name="jit(_full_run)/jit(main)/jit(_normal)/jit(_normal_real)/jit(_uniform)/add" source_file="/global/homes/j/jackm/software/lorrax_C/src/solvers/lanczos.py" source_line=247}
  %add.871 = u32[4096]{0} add(%xor.867, %broadcast.870), metadata={op_name="jit(_full_run)/jit(main)/jit(_normal)/jit(_normal_real)/jit(_uniform)/add" source_file="/global/homes/j/jackm/software/lorrax_C/src/solvers/lanczos.py" source_line=247}
  %constant.827 = u32[] constant(1)
  %broadcast.828 = u32[4096]{0} broadcast(%constant.827), dimensions={}
  %add.872 = u32[4096]{0} add(%add.871, %broadcast.828), metadata={op_name="jit(_full_run)/jit(main)/jit(_normal)/jit(_normal_real)/jit(_uniform)/add" source_file="/global/homes/j/jackm/software/lorrax_C/src/solvers/lanczos.py" source_line=247}
  %add.873 = u32[4096]{0} add(%add.869, %add.872), metadata={op_name="jit(_full_run)/jit(main)/jit(_normal)/jit(_normal_real)/jit(_uniform)/add" source_file="/global/homes/j/jackm/software/lorrax_C/src/solvers/lanczos.py" source_line=247}
  %shift-left.874 = u32[4096]{0} shift-left(%add.872, %broadcast.834), metadata={op_name="jit(_full_run)/jit(main)/jit(_normal)/jit(_normal_real)/jit(_uniform)/shift_left" source_file="/global/homes/j/jackm/software/lorrax_C/src/solvers/lanczos.py" source_line=247}
  %shift-right-logical.875 = u32[4096]{0} shift-right-logical(%add.872, %broadcast.836), metadata={op_name="jit(_full_run)/jit(main)/jit(_normal)/jit(_normal_real)/jit(_uniform)/shift_right_logical" source_file="/global/homes/j/jackm/software/lorrax_C/src/solvers/lanczos.py" source_line=247}
  %or.876 = u32[4096]{0} or(%shift-left.874, %shift-right-logical.875), metadata={op_name="jit(_full_run)/jit(main)/jit(_normal)/jit(_normal_real)/jit(_uniform)/or" source_file="/global/homes/j/jackm/software/lorrax_C/src/solvers/lanczos.py" source_line=247}
  %xor.877 = u32[4096]{0} xor(%add.873, %or.876), metadata={op_name="jit(_full_run)/jit(main)/jit(_normal)/jit(_normal_real)/jit(_uniform)/xor" source_file="/global/homes/j/jackm/software/lorrax_C/src/solvers/lanczos.py" source_line=247}
  %add.878 = u32[4096]{0} add(%add.873, %xor.877), metadata={op_name="jit(_full_run)/jit(main)/jit(_normal)/jit(_normal_real)/jit(_uniform)/add" source_file="/global/homes/j/jackm/software/lorrax_C/src/solvers/lanczos.py" source_line=247}
  %constant.825 = u32[] constant(29)
  %broadcast.826 = u32[4096]{0} broadcast(%constant.825), dimensions={}
…
  %compare.1789 = pred[] compare(%minimum.1788, %constant.1727), direction=LT, metadata={op_name="jit(_full_run)/jit(main)/while/body/lt" source_file="/global/homes/j/jackm/software/lorrax_C/src/solvers/lanczos.py" source_line=281}
  %add.1790 = s64[] add(%minimum.1788, %constant.1726), metadata={op_name="jit(_full_run)/jit(main)/while/body/add" source_file="/global/homes/j/jackm/software/lorrax_C/src/solvers/lanczos.py" source_line=281}
  %select.1791 = s64[] select(%compare.1789, %add.1790, %minimum.1788), metadata={op_name="jit(_full_run)/jit(main)/while/body/select_n" source_file="/global/homes/j/jackm/software/lorrax_C/src/solvers/lanczos.py" source_line=281}
  %convert.1792 = s32[] convert(%select.1791), metadata={op_name="jit(_full_run)/jit(main)/while/body/convert_element_type" source_file="/global/homes/j/jackm/software/lorrax_C/src/solvers/lanczos.py" source_line=281}
  %reshape.1793 = s32[1]{0} reshape(%convert.1792), metadata={op_name="jit(_full_run)/jit(main)/while/body/broadcast_in_dim" source_file="/global/homes/j/jackm/software/lorrax_C/src/solvers/lanczos.py" source_line=281}
  %get-tuple-element.1775 = c128[4096]{0} get-tuple-element(%while.1773), index=1, metadata={op_name="jit(_full_run)/jit(main)/while/body/while" source_file="/global/homes/j/jackm/software/lorrax_C/src/solvers/lanczos.py" source_line=275}
  %call.1776 = f64[] call(%get-tuple-element.1775), to_apply=%norm_6.1692
  %constant.1724 = f64[] constant(1e-15)
  %maximum.1783 = f64[] maximum(%call.1776, %constant.1724), metadata={op_name="jit(_full_run)/jit(main)/while/body/max" source_file="/global/homes/j/jackm/software/lorrax_C/src/solvers/lanczos.py" source_line=280}
  %convert.1784 = c128[] convert(%maximum.1783), metadata={op_name="jit(_full_run)/jit(main)/while/body/convert_element_type" source_file="/global/homes/j/jackm/software/lorrax_C/src/solvers/lanczos.py" source_line=280}
  %broadcast.1785 = c128[4096]{0} broadcast(%convert.1784), dimensions={}, metadata={op_name="jit(_full_run)/jit(main)/while/body/div" source_file="/global/homes/j/jackm/software/lorrax_C/src/solvers/lanczos.py" source_line=280}
  %divide.1786 = c128[4096]{0} divide(%get-tuple-element.1775, %broadcast.1785), metadata={op_name="jit(_full_run)/jit(main)/while/body/div" source_file="/global/homes/j/jackm/software/lorrax_C/src/solvers/lanczos.py" source_line=280}
  %scatter.1794 = c128[4096,60]{1,0} scatter(%Arg_9.1719, %reshape.1793, %divide.1786), update_window_dims={0}, inserted_window_dims={1}, scatter_dims_to_operand_dims={1}, index_vector_dim=0, indices_are_sorted=true, unique_indices=true, to_apply=%region_11.1706, metadata={op_name="jit(_full_run)/jit(main)/while/body/scatter" source_file="/global/homes/j/jackm/software/lorrax_C/src/solvers/lanczos.py" source_line=281}
  %Arg_10.1720 = f64[60]{0} parameter(10), metadata={op_name="jit(_full_run)/jit(main)/while/body/closed_call"}
  %compare.1740 = pred[] compare(%Arg_8.1718, %constant.1727), direction=LT, metadata={op_name="jit(_full_run)/jit(main)/while/body/lt" source_file="/global/homes/j/jackm/software/lorrax_C/src/solvers/lanczos.py" source_line=261}
  %add.1741 = s64[] add(%Arg_8.1718, %constant.1726), metadata={op_name="jit(_full_run)/jit(main)/while/body/add" source_file="/global/homes/j/jackm/software/lorrax_C/src/solvers/lanczos.py" source_line=261}
  %select.1742 = s64[] select(%compare.1740, %add.1741, %Arg_8.1718), metadata={op_name="jit(_full_run)/jit(main)/while/body/select_n" source_file="/global/homes/j/jackm/software/lorrax_C/src/solvers/lanczos.py" source_line=261}
  %convert.1743 = s32[] convert(%select.1742), metadata={op_name="jit(_full_run)/jit(main)/while/body/convert_element_type" source_file="/global/homes/j/jackm/software/lorrax_C/src/solvers/lanczos.py" source_line=261}
  %reshape.1744 = s32[1]{0} reshape(%convert.1743), metadata={op_name="jit(_full_run)/jit(main)/while/body/broadcast_in_dim" source_file="/global/homes/j/jackm/software/lorrax_C/src/solvers/lanczos.py" source_line=261}
  %scatter.1745 = f64[60]{0} scatter(%Arg_10.1720, %reshape.1744, %real.1739), update_window_dims={}, inserted_window_dims={0}, scatter_dims_to_operand_dims={0}, index_vector_dim=0, indices_are_sorted=true, unique_indices=true, to_apply=%region_6.1639, metadata={op_name="jit(_full_run)/jit(main)/while/body/scatter" source_file="/global/homes/j/jackm/software/lorrax_C/src/solvers/lanczos.py" source_line=261}
  %compare.1777 = pred[] compare(%Arg_8.1718, %constant.1727), direction=LT, metadata={op_name="jit(_full_run)/jit(main)/while/body/lt" source_file="/global/homes/j/jackm/software/lorrax_C/src/solvers/lanczos.py" source_line=278}
  %add.1778 = s64[] add(%Arg_8.1718, %constant.1726), metadata={op_name="jit(_full_run)/jit(main)/while/body/add" source_file="/global/homes/j/jackm/software/lorrax_C/src/solvers/lanczos.py" source_line=278}
  %select.1779 = s64[] select(%compare.1777, %add.1778, %Arg_8.1718), metadata={op_name="jit(_full_run)/jit(main)/while/body/select_n" source_file="/global/homes/j/jackm/software/lorrax_C/src/solvers/lanczos.py" source_line=278}
  %convert.1780 = s32[] convert(%select.1779), metadata={op_name="jit(_full_run)/jit(main)/while/body/convert_element_type" source_file="/global/homes/j/jackm/software/lorrax_C/src/solvers/lanczos.py" source_line=278}
  %reshape.1781 = s32[1]{0} reshape(%convert.1780), metadata={op_name="jit(_full_run)/jit(main)/while/body/broadcast_in_dim" source_file="/global/homes/j/jackm/software/lorrax_C/src/solvers/lanczos.py" source_line=278}
  %scatter.1782 = f64[60]{0} scatter(%Arg_11.1721, %reshape.1781, %call.1776), update_window_dims={}, inserted_window_dims={0}, scatter_dims_to_operand_dims={0}, index_vector_dim=0, indices_are_sorted=true, unique_indices=true, to_apply=%region_10.1703, metadata={op_name="jit(_full_run)/jit(main)/while/body/scatter" source_file="/global/homes/j/jackm/software/lorrax_C/src/solvers/lanczos.py" source_line=278}
  ROOT %tuple.1795 = (s64[], c128[4096,60]{1,0}, f64[60]{0}, f64[60]{0}, c128[4096]{0}) tuple(%add.1729, %scatter.1794, %scatter.1745, %scatter.1782, %divide.1786)
}

%region_3.1796 (arg_tuple.1797: (s64[], s64[], c128[4096,60], f64[60], f64[60], /*index=5*/c128[4096], c128[64,8,2,480], c128[64,8,2,480], c128[64,8,2,480], c128[64,8,2,480], /*index=10*/f64[64,8], f64[64,8], c128[480,480,4,4,4], c128[480,480])) -> (s64[], s64[], c128[4096,60], f64[60], f64[60], /*index=5*/c128[4096], c128[64,8,2,480], c128[64,8,2,480], c128[64,8,2,480], c128[64,8,2,480], /*index=10*/f64[64,8], f64[64,8], c128[480,480,4,4,4], c128[480,480]) {
  %arg_tuple.1797 = (s64[], s64[], c128[4096,60]{1,0}, f64[60]{0}, f64[60]{0}, /*index=5*/c128[4096]{0}, c128[64,8,2,480]{3,2,1,0}, c128[64,8,2,480]{3,2,1,0}, c128[64,8,2,480]{3,2,1,0}, c128[64,8,2,480]{3,2,1,0}, /*index=10*/f64[64,8]{1,0}, f64[64,8]{1,0}, c128[480,480,4,4,4]{4,3,2,1,0}, c128[480,480]{1,0}) parameter(0)
  %get-tuple-element.1798 = s64[] get-tuple-element(%arg_tuple.1797), index=0
  %constant.1812 = s64[] constant(1)
  %add.1819 = s64[] add(%get-tuple-element.1798, %constant.1812), metadata={op_name="jit(_full_run)/jit(main)/while/body/add" source_file="/global/homes/j/jackm/software/lorrax_C/src/solvers/lanczos.py" source_line=286}
  %get-tuple-element.1804 = c128[64,8,2,480]{3,2,1,0} get-tuple-element(%arg_tuple.1797), index=6
  %get-tuple-element.1805 = c128[64,8,2,480]{3,2,1,0} get-tuple-element(%arg_tuple.1797), index=7
  %get-tuple-element.1806 = c128[64,8,2,480]{3,2,1,0} get-tuple-element(%arg_tuple.1797), index=8
  %get-tuple-element.1807 = c128[64,8,2,480]{3,2,1,0} get-tuple-element(%arg_tuple.1797), index=9
  %get-tuple-element.1808 = f64[64,8]{1,0} get-tuple-element(%arg_tuple.1797), index=10
  %get-tuple-element.1809 = f64[64,8]{1,0} get-tuple-element(%arg_tuple.1797), index=11
  %get-tuple-element.1810 = c128[480,480,4,4,4]{4,3,2,1,0} get-tuple-element(%arg_tuple.1797), index=12
  %get-tuple-element.1811 = c128[480,480]{1,0} get-tuple-element(%arg_tuple.1797), index=13
  %get-tuple-element.1799 = s64[] get-tuple-element(%arg_tuple.1797), index=1
  %get-tuple-element.1800 = c128[4096,60]{1,0} get-tuple-element(%arg_tuple.1797), index=2
  %get-tuple-element.1801 = f64[60]{0} get-tuple-element(%arg_tuple.1797), index=3
  %get-tuple-element.1802 = f64[60]{0} get-tuple-element(%arg_tuple.1797), index=4
  %get-tuple-element.1803 = c128[4096]{0} get-tuple-element(%arg_tuple.1797), index=5
  %call.1813 = (s64[], c128[4096,60]{1,0}, f64[60]{0}, f64[60]{0}, c128[4096]{0}) call(%get-tuple-element.1804, %get-tuple-element.1805, %get-tuple-element.1806, %get-tuple-element.1807, %get-tuple-element.1808, /*index=5*/%get-tuple-element.1809, %get-tuple-element.1810, %get-tuple-element.1811, %get-tuple-element.1799, %get-tuple-element.1800, /*index=10*/%get-tuple-element.1801, %get-tuple-element.1802, %get-tuple-element.1803), to_apply=%None.1709
  %get-tuple-element.1814 = s64[] get-tuple-element(%call.1813), index=0
  %get-tuple-element.1815 = c128[4096,60]{1,0} get-tuple-element(%call.1813), index=1
  %get-tuple-element.1816 = f64[60]{0} get-tuple-element(%call.1813), index=2
  %get-tuple-element.1817 = f64[60]{0} get-tuple-element(%call.1813), index=3
  %get-tuple-element.1818 = c128[4096]{0} get-tuple-element(%call.1813), index=4
  ROOT %tuple.1820 = (s64[], s64[], c128[4096,60]{1,0}, f64[60]{0}, f64[60]{0}, /*index=5*/c128[4096]{0}, c128[64,8,2,480]{3,2,1,0}, c128[64,8,2,480]{3,2,1,0}, c128[64,8,2,480]{3,2,1,0}, c128[64,8,2,480]{3,2,1,0}, /*index=10*/f64[64,8]{1,0}, f64[64,8]{1,0}, c128[480,480,4,4,4]{4,3,2,1,0}, c128[480,480]{1,0}) tuple(%add.1819, %get-tuple-element.1814, %get-tuple-element.1815, %get-tuple-element.1816, %get-tuple-element.1817, /*index=5*/%get-tuple-element.1818, %get-tuple-element.1804, %get-tuple-element.1805, %get-tuple-element.1806, %get-tuple-element.1807, /*index=10*/%get-tuple-element.1808, %get-tuple-element.1809, %get-tuple-element.1810, %get-tuple-element.1811)
}

%region_12.1821 (arg_tuple.1822: (s64[], s64[], c128[4096,60], f64[60], f64[60], /*index=5*/c128[4096], c128[64,8,2,480], c128[64,8,2,480], c128[64,8,2,480], c128[64,8,2,480], /*index=10*/f64[64,8], f64[64,8], c128[480,480,4,4,4], c128[480,480])) -> pred[] {
  %arg_tuple.1822 = (s64[], s64[], c128[4096,60]{1,0}, f64[60]{0}, f64[60]{0}, /*index=5*/c128[4096]{0}, c128[64,8,2,480]{3,2,1,0}, c128[64,8,2,480]{3,2,1,0}, c128[64,8,2,480]{3,2,1,0}, c128[64,8,2,480]{3,2,1,0}, /*index=10*/f64[64,8]{1,0}, f64[64,8]{1,0}, c128[480,480,4,4,4]{4,3,2,1,0}, c128[480,480]{1,0}) parameter(0)
  %get-tuple-element.1824 = s64[] get-tuple-element(%arg_tuple.1822), index=1
  %get-tuple-element.1825 = c128[4096,60]{1,0} get-tuple-element(%arg_tuple.1822), index=2
  %get-tuple-element.1826 = f64[60]{0} get-tuple-element(%arg_tuple.1822), index=3
  %get-tuple-element.1827 = f64[60]{0} get-tuple-element(%arg_tuple.1822), index=4
  %get-tuple-element.1828 = c128[4096]{0} get-tuple-element(%arg_tuple.1822), index=5
  %get-tuple-element.1829 = c128[64,8,2,480]{3,2,1,0} get-tuple-element(%arg_tuple.1822), index=6
  %get-tuple-element.1830 = c128[64,8,2,480]{3,2,1,0} get-tuple-element(%arg_tuple.1822), index=7
  %get-tuple-element.1831 = c128[64,8,2,480]{3,2,1,0} get-tuple-element(%arg_tuple.1822), index=8
  %get-tuple-element.1832 = c128[64,8,2,480]{3,2,1,0} get-tuple-element(%arg_tuple.1822), index=9
  %get-tuple-element.1833 = f64[64,8]{1,0} get-tuple-element(%arg_tuple.1822), index=10
  %get-tuple-element.1834 = f64[64,8]{1,0} get-tuple-element(%arg_tuple.1822), index=11
  %get-tuple-element.1835 = c128[480,480,4,4,4]{4,3,2,1,0} get-tuple-element(%arg_tuple.1822), index=12
  %get-tuple-element.1836 = c128[480,480]{1,0} get-tuple-element(%arg_tuple.1822), index=13
  %get-tuple-element.1823 = s64[] get-tuple-element(%arg_tuple.1822), index=0
  %constant.1837 = s64[] constant(60)
  ROOT %compare.1838 = pred[] compare(%get-tuple-element.1823, %constant.1837), direction=LT, metadata={op_name="jit(_full_run)/jit(main)/while/cond/lt" source_file="/global/homes/j/jackm/software/lorrax_C/src/solvers/lanczos.py" source_line=286}
}

%_where_7.1846 (Arg_0.1847: pred[60,60], Arg_1.1848: f64[60], Arg_2.1849: f64[60]) -> f64[60,60] {
  %Arg_0.1847 = pred[60,60]{1,0} parameter(0), metadata={op_name="jit(_full_run)/jit(main)/jit(_diag)/pjit"}
  %Arg_1.1848 = f64[60]{0} parameter(1), metadata={op_name="jit(_full_run)/jit(main)/jit(_diag)/pjit"}
  %broadcast.1850 = f64[60,60]{1,0} broadcast(%Arg_1.1848), dimensions={1}, metadata={op_name="jit(_full_run)/jit(main)/jit(_diag)/jit(_where)/broadcast_in_dim" source_file="/global/homes/j/jackm/software/lorrax_C/src/solvers/lanczos.py" source_line=288}
  %Arg_2.1849 = f64[60]{0} parameter(2), metadata={op_name="jit(_full_run)/jit(main)/jit(_diag)/pjit"}
  %broadcast.1851 = f64[60,60]{1,0} broadcast(%Arg_2.1849), dimensions={1}, metadata={op_name="jit(_full_run)/jit(main)/jit(_diag)/jit(_where)/broadcast_in_dim" source_file="/global/homes/j/jackm/software/lorrax_C/src/solvers/lanczos.py" source_line=288}
  ROOT %select.1852 = f64[60,60]{1,0} select(%Arg_0.1847, %broadcast.1850, %broadcast.1851), metadata={op_name="jit(_full_run)/jit(main)/jit(_diag)/jit(_where)/select_n" source_file="/global/homes/j/jackm/software/lorrax_C/src/solvers/lanczos.py" source_line=288}
}

%_diag.1853 (Arg_0.1854: f64[60]) -> f64[60,60] {
  %iota.1857 = s64[60]{0} iota(), iota_dimension=0, metadata={op_name="jit(_full_run)/jit(main)/jit(_diag)/iota" source_file="/global/homes/j/jackm/software/lorrax_C/src/solvers/lanczos.py" source_line=288}
  %broadcast.1858 = s64[60,60]{1,0} broadcast(%iota.1857), dimensions={0}, metadata={op_name="jit(_full_run)/jit(main)/jit(_diag)/iota" source_file="/global/homes/j/jackm/software/lorrax_C/src/solvers/lanczos.py" source_line=288}
  %iota.1859 = s64[60]{0} iota(), iota_dimension=0, metadata={op_name="jit(_full_run)/jit(main)/jit(_diag)/iota" source_file="/global/homes/j/jackm/software/lorrax_C/src/solvers/lanczos.py" source_line=288}
  %broadcast.1860 = s64[60,60]{1,0} broadcast(%iota.1859), dimensions={1}, metadata={op_name="jit(_full_run)/jit(main)/jit(_diag)/iota" source_file="/global/homes/j/jackm/software/lorrax_C/src/solvers/lanczos.py" source_line=288}
  %compare.1861 = pred[60,60]{1,0} compare(%broadcast.1858, %broadcast.1860), direction=EQ, metadata={op_name="jit(_full_run)/jit(main)/jit(_diag)/eq" source_file="/global/homes/j/jackm/software/lorrax_C/src/solvers/lanczos.py" source_line=288}
  %Arg_0.1854 = f64[60]{0} parameter(0), metadata={op_name="jit(_full_run)/jit(main)/pjit"}
  %constant.1855 = f64[] constant(0)
  %broadcast.1856 = f64[60]{0} broadcast(%constant.1855), dimensions={}
  ROOT %call.1862 = f64[60,60]{1,0} call(%compare.1861, %Arg_0.1854, %broadcast.1856), to_apply=%_where_7.1846
}

%_where_7.1865 (Arg_0.1866: pred[60,60], Arg_1.1867: f64[60], Arg_2.1868: f64[60]) -> f64[60,60] {
  %Arg_0.1866 = pred[60,60]{1,0} parameter(0), metadata={op_name="jit(_full_run)/jit(main)/jit(_diag)/pjit"}
  %Arg_1.1867 = f64[60]{0} parameter(1), metadata={op_name="jit(_full_run)/jit(main)/jit(_diag)/pjit"}
  %broadcast.1869 = f64[60,60]{1,0} broadcast(%Arg_1.1867), dimensions={1}, metadata={op_name="jit(_full_run)/jit(main)/jit(_diag)/jit(_where)/broadcast_in_dim" source_file="/global/homes/j/jackm/software/lorrax_C/src/solvers/lanczos.py" source_line=288}
  %Arg_2.1868 = f64[60]{0} parameter(2), metadata={op_name="jit(_full_run)/jit(main)/jit(_diag)/pjit"}
  %broadcast.1870 = f64[60,60]{1,0} broadcast(%Arg_2.1868), dimensions={1}, metadata={op_name="jit(_full_run)/jit(main)/jit(_diag)/jit(_where)/broadcast_in_dim" source_file="/global/homes/j/jackm/software/lorrax_C/src/solvers/lanczos.py" source_line=288}
  ROOT %select.1871 = f64[60,60]{1,0} select(%Arg_0.1866, %broadcast.1869, %broadcast.1870), metadata={op_name="jit(_full_run)/jit(main)/jit(_diag)/jit(_where)/select_n" source_file="/global/homes/j/jackm/software/lorrax_C/src/solvers/lanczos.py" source_line=288}
}

%_diag_8.1872 (Arg_0.1873: f64[59]) -> f64[60,60] {
  %iota.1880 = s64[60]{0} iota(), iota_dimension=0, metadata={op_name="jit(_full_run)/jit(main)/jit(_diag)/iota" source_file="/global/homes/j/jackm/software/lorrax_C/src/solvers/lanczos.py" source_line=290}
  %broadcast.1881 = s64[60,60]{1,0} broadcast(%iota.1880), dimensions={0}, metadata={op_name="jit(_full_run)/jit(main)/jit(_diag)/iota" source_file="/global/homes/j/jackm/software/lorrax_C/src/solvers/lanczos.py" source_line=290}
  %constant.1876 = s64[] constant(1)
  %broadcast.1877 = s64[60,60]{1,0} broadcast(%constant.1876), dimensions={}
  %add.1884 = s64[60,60]{1,0} add(%broadcast.1881, %broadcast.1877), metadata={op_name="jit(_full_run)/jit(main)/jit(_diag)/add" source_file="/global/homes/j/jackm/software/lorrax_C/src/solvers/lanczos.py" source_line=290}
  %iota.1882 = s64[60]{0} iota(), iota_dimension=0, metadata={op_name="jit(_full_run)/jit(main)/jit(_diag)/iota" source_file="/global/homes/j/jackm/software/lorrax_C/src/solvers/lanczos.py" source_line=290}
  %broadcast.1883 = s64[60,60]{1,0} broadcast(%iota.1882), dimensions={1}, metadata={op_name="jit(_full_run)/jit(main)/jit(_diag)/iota" source_file="/global/homes/j/jackm/software/lorrax_C/src/solvers/lanczos.py" source_line=290}
  %compare.1885 = pred[60,60]{1,0} compare(%add.1884, %broadcast.1883), direction=EQ, metadata={op_name="jit(_full_run)/jit(main)/jit(_diag)/eq" source_file="/global/homes/j/jackm/software/lorrax_C/src/solvers/lanczos.py" source_line=290}
  %Arg_0.1873 = f64[59]{0} parameter(0), metadata={op_name="jit(_full_run)/jit(main)/pjit"}
  %constant.1878 = f64[] constant(0)
  %pad.1879 = f64[60]{0} pad(%Arg_0.1873, %constant.1878), padding=1_0, metadata={op_name="jit(_full_run)/jit(main)/jit(_diag)/pad" source_file="/global/homes/j/jackm/software/lorrax_C/src/solvers/lanczos.py" source_line=290}
  %constant.1874 = f64[] constant(0)
  %broadcast.1875 = f64[60]{0} broadcast(%constant.1874), dimensions={}
  ROOT %call.1886 = f64[60,60]{1,0} call(%compare.1885, %pad.1879, %broadcast.1875), to_apply=%_where_7.1865
}

%_where_7.1889 (Arg_0.1890: pred[60,60], Arg_1.1891: f64[60], Arg_2.1892: f64[60]) -> f64[60,60] {
  %Arg_0.1890 = pred[60,60]{1,0} parameter(0), metadata={op_name="jit(_full_run)/jit(main)/jit(_diag)/pjit"}
  %Arg_1.1891 = f64[60]{0} parameter(1), metadata={op_name="jit(_full_run)/jit(main)/jit(_diag)/pjit"}
  %broadcast.1893 = f64[60,60]{1,0} broadcast(%Arg_1.1891), dimensions={1}, metadata={op_name="jit(_full_run)/jit(main)/jit(_diag)/jit(_where)/broadcast_in_dim" source_file="/global/homes/j/jackm/software/lorrax_C/src/solvers/lanczos.py" source_line=288}
  %Arg_2.1892 = f64[60]{0} parameter(2), metadata={op_name="jit(_full_run)/jit(main)/jit(_diag)/pjit"}
  %broadcast.1894 = f64[60,60]{1,0} broadcast(%Arg_2.1892), dimensions={1}, metadata={op_name="jit(_full_run)/jit(main)/jit(_diag)/jit(_where)/broadcast_in_dim" source_file="/global/homes/j/jackm/software/lorrax_C/src/solvers/lanczos.py" source_line=288}
  ROOT %select.1895 = f64[60,60]{1,0} select(%Arg_0.1890, %broadcast.1893, %broadcast.1894), metadata={op_name="jit(_full_run)/jit(main)/jit(_diag)/jit(_where)/select_n" source_file="/global/homes/j/jackm/software/lorrax_C/src/solvers/lanczos.py" source_line=288}
}

%_diag_9.1896 (Arg_0.1897: f64[59]) -> f64[60,60] {
  %iota.1904 = s64[60]{0} iota(), iota_dimension=0, metadata={op_name="jit(_full_run)/jit(main)/jit(_diag)/iota" source_file="/global/homes/j/jackm/software/lorrax_C/src/solvers/lanczos.py" source_line=290}
  %broadcast.1905 = s64[60,60]{1,0} broadcast(%iota.1904), dimensions={0}, metadata={op_name="jit(_full_run)/jit(main)/jit(_diag)/iota" source_file="/global/homes/j/jackm/software/lorrax_C/src/solvers/lanczos.py" source_line=290}
  %constant.1900 = s64[] constant(-1)
  %broadcast.1901 = s64[60,60]{1,0} broadcast(%constant.1900), dimensions={}
  %add.1908 = s64[60,60]{1,0} add(%broadcast.1905, %broadcast.1901), metadata={op_name="jit(_full_run)/jit(main)/jit(_diag)/add" source_file="/global/homes/j/jackm/software/lorrax_C/src/solvers/lanczos.py" source_line=290}
  %iota.1906 = s64[60]{0} iota(), iota_dimension=0, metadata={op_name="jit(_full_run)/jit(main)/jit(_diag)/iota" source_file="/global/homes/j/jackm/software/lorrax_C/src/solvers/lanczos.py" source_line=290}
  %broadcast.1907 = s64[60,60]{1,0} broadcast(%iota.1906), dimensions={1}, metadata={op_name="jit(_full_run)/jit(main)/jit(_diag)/iota" source_file="/global/homes/j/jackm/software/lorrax_C/src/solvers/lanczos.py" source_line=290}
  %compare.1909 = pred[60,60]{1,0} compare(%add.1908, %broadcast.1907), direction=EQ, metadata={op_name="jit(_full_run)/jit(main)/jit(_diag)/eq" source_file="/global/homes/j/jackm/software/lorrax_C/src/solvers/lanczos.py" source_line=290}
  %Arg_0.1897 = f64[59]{0} parameter(0), metadata={op_name="jit(_full_run)/jit(main)/pjit"}
  %constant.1902 = f64[] constant(0)
  %pad.1903 = f64[60]{0} pad(%Arg_0.1897, %constant.1902), padding=0_1, metadata={op_name="jit(_full_run)/jit(main)/jit(_diag)/pad" source_file="/global/homes/j/jackm/software/lorrax_C/src/solvers/lanczos.py" source_line=290}
  %constant.1898 = f64[] constant(0)
  %broadcast.1899 = f64[60]{0} broadcast(%constant.1898), dimensions={}
  ROOT %call.1910 = f64[60,60]{1,0} call(%compare.1909, %pad.1903, %broadcast.1899), to_apply=%_where_7.1889
}

%eigh.1913 (Arg_0.1914: f64[60,60]) -> (f64[60], f64[60,60]) {
  %Arg_0.1914 = f64[60,60]{1,0} parameter(0), metadata={op_name="jit(_full_run)/jit(main)/pjit"}
  %transpose.1922 = f64[60,60]{0,1} transpose(%Arg_0.1914), dimensions={1,0}, metadata={op_name="jit(_full_run)/jit(main)/jit(eigh)/transpose" source_file="/global/homes/j/jackm/software/lorrax_C/src/solvers/lanczos.py" source_line=292}
  %add.1923 = f64[60,60]{1,0} add(%Arg_0.1914, %transpose.1922), metadata={op_name="jit(_full_run)/jit(main)/jit(eigh)/add" source_file="/global/homes/j/jackm/software/lorrax_C/src/solvers/lanczos.py" source_line=292}
  %constant.1919 = f64[] constant(2)
  %broadcast.1920 = f64[60,60]{1,0} broadcast(%constant.1919), dimensions={}
  %divide.1924 = f64[60,60]{1,0} divide(%add.1923, %broadcast.1920), metadata={op_name="jit(_full_run)/jit(main)/jit(eigh)/div" source_file="/global/homes/j/jackm/software/lorrax_C/src/solvers/lanczos.py" source_line=292}
  %custom-call.1925 = (f64[60,60]{0,1}, f64[60]{0}, s32[]) custom-call(%divide.1924), custom_call_target="cusolver_syevd_ffi", operand_layout_constraints={f64[60,60]{0,1}}, output_to_operand_aliasing={{0}: (0, {})}, api_version=API_VERSION_TYPED_FFI, frontend_attributes={num_batch_dims="0"}, metadata={op_name="jit(_full_run)/jit(main)/jit(eigh)/eigh" source_file="/global/homes/j/jackm/software/lorrax_C/src/solvers/lanczos.py" source_line=292}, backend_config={algorithm = 0 : ui8, lower = true}
  %get-tuple-element.1928 = s32[] get-tuple-element(%custom-call.1925), index=2, frontend_attributes={num_batch_dims="0"}, metadata={op_name="jit(_full_run)/jit(main)/jit(eigh)/eigh" source_file="/global/homes/j/jackm/software/lorrax_C/src/solvers/lanczos.py" source_line=292}
  %constant.1921 = s32[] constant(0)
  %compare.1929 = pred[] compare(%get-tuple-element.1928, %constant.1921), direction=EQ, metadata={op_name="jit(_full_run)/jit(main)/jit(eigh)/eigh" source_file="/global/homes/j/jackm/software/lorrax_C/src/solvers/lanczos.py" source_line=292}
  %reshape.1935 = pred[1]{0} reshape(%compare.1929), metadata={op_name="jit(_full_run)/jit(main)/jit(eigh)/eigh" source_file="/global/homes/j/jackm/software/lorrax_C/src/solvers/lanczos.py" source_line=292}
  %broadcast.1936 = pred[1]{0} broadcast(%reshape.1935), dimensions={0}, metadata={op_name="jit(_full_run)/jit(main)/jit(eigh)/eigh" source_file="/global/homes/j/jackm/software/lorrax_C/src/solvers/lanczos.py" source_line=292}
  %reshape.1937 = pred[] reshape(%broadcast.1936), metadata={op_name="jit(_full_run)/jit(main)/jit(eigh)/eigh" source_file="/global/homes/j/jackm/software/lorrax_C/src/solvers/lanczos.py" source_line=292}
  %broadcast.1938 = pred[60]{0} broadcast(%reshape.1937), dimensions={}, metadata={op_name="jit(_full_run)/jit(main)/jit(eigh)/eigh" source_file="/global/homes/j/jackm/software/lorrax_C/src/solvers/lanczos.py" source_line=292}
  %get-tuple-element.1927 = f64[60]{0} get-tuple-element(%custom-call.1925), index=1, frontend_attributes={num_batch_dims="0"}, metadata={op_name="jit(_full_run)/jit(main)/jit(eigh)/eigh" source_file="/global/homes/j/jackm/software/lorrax_C/src/solvers/lanczos.py" source_line=292}
  %constant.1915 = f64[] constant(nan)
  %broadcast.1916 = f64[60]{0} broadcast(%constant.1915), dimensions={}
  %select.1939 = f64[60]{0} select(%broadcast.1938, %get-tuple-element.1927, %broadcast.1916), metadata={op_name="jit(_full_run)/jit(main)/jit(eigh)/eigh" source_file="/global/homes/j/jackm/software/lorrax_C/src/solvers/lanczos.py" source_line=292}
  %reshape.1930 = pred[1,1]{1,0} reshape(%compare.1929), metadata={op_name="jit(_full_run)/jit(main)/jit(eigh)/eigh" source_file="/global/homes/j/jackm/software/lorrax_C/src/solvers/lanczos.py" source_line=292}
  %broadcast.1931 = pred[1,1]{1,0} broadcast(%reshape.1930), dimensions={0,1}, metadata={op_name="jit(_full_run)/jit(main)/jit(eigh)/eigh" source_file="/global/homes/j/jackm/software/lorrax_C/src/solvers/lanczos.py" source_line=292}
  %reshape.1932 = pred[] reshape(%broadcast.1931), metadata={op_name="jit(_full_run)/jit(main)/jit(eigh)/eigh" source_file="/global/homes/j/jackm/software/lorrax_C/src/solvers/lanczos.py" source_line=292}
  %broadcast.1933 = pred[60,60]{1,0} broadcast(%reshape.1932), dimensions={}, metadata={op_name="jit(_full_run)/jit(main)/jit(eigh)/eigh" source_file="/global/homes/j/jackm/software/lorrax_C/src/solvers/lanczos.py" source_line=292}
  %get-tuple-element.1926 = f64[60,60]{0,1} get-tuple-element(%custom-call.1925), index=0, frontend_attributes={num_batch_dims="0"}, metadata={op_name="jit(_full_run)/jit(main)/jit(eigh)/eigh" source_file="/global/homes/j/jackm/software/lorrax_C/src/solvers/lanczos.py" source_line=292}
  %constant.1917 = f64[] constant(nan)
  %broadcast.1918 = f64[60,60]{1,0} broadcast(%constant.1917), dimensions={}
  %select.1934 = f64[60,60]{1,0} select(%broadcast.1933, %get-tuple-element.1926, %broadcast.1918), metadata={op_name="jit(_full_run)/jit(main)/jit(eigh)/eigh" source_file="/global/homes/j/jackm/software/lorrax_C/src/solvers/lanczos.py" source_line=292}
  ROOT %tuple.1940 = (f64[60]{0}, f64[60,60]{1,0}) tuple(%select.1939, %select.1934)
}

%region_13.1944 (Arg_0.1945: f64[], Arg_1.1946: f64[], Arg_2.1947: s64[], Arg_3.1948: s64[]) -> pred[] {
  %Arg_2.1947 = s64[] parameter(2), metadata={op_name="jit(_full_run)/jit(main)/jit(argsort)/sort"}
  %Arg_3.1948 = s64[] parameter(3), metadata={op_name="jit(_full_run)/jit(main)/jit(argsort)/sort"}
  %Arg_0.1945 = f64[] parameter(0), metadata={op_name="jit(_full_run)/jit(main)/jit(argsort)/sort"}
  %compare.1953 = pred[] compare(%Arg_0.1945, %Arg_0.1945), direction=NE, metadata={op_name="jit(_full_run)/jit(main)/jit(argsort)/ne" source_file="/global/homes/j/jackm/software/lorrax_C/src/solvers/lanczos.py" source_line=293}
  %constant.1949 = f64[] constant(nan)
  %constant.1950 = f64[] constant(0)
  %compare.1951 = pred[] compare(%Arg_0.1945, %constant.1950), direction=EQ, metadata={op_name="jit(_full_run)/jit(main)/jit(argsort)/eq" source_file="/global/homes/j/jackm/software/lorrax_C/src/solvers/lanczos.py" source_line=293}
  %select.1952 = f64[] select(%compare.1951, %constant.1950, %Arg_0.1945), metadata={op_name="jit(_full_run)/jit(main)/jit(argsort)/select_n" source_file="/global/homes/j/jackm/software/lorrax_C/src/solvers/lanczos.py" source_line=293}
  %select.1954 = f64[] select(%compare.1953, %constant.1949, %select.1952), metadata={op_name="jit(_full_run)/jit(main)/jit(argsort)/select_n" source_file="/global/homes/j/jackm/software/lorrax_C/src/solvers/lanczos.py" source_line=293}
  %Arg_1.1946 = f64[] parameter(1), metadata={op_name="jit(_full_run)/jit(main)/jit(argsort)/sort"}
  %compare.1957 = pred[] compare(%Arg_1.1946, %Arg_1.1946), direction=NE, metadata={op_name="jit(_full_run)/jit(main)/jit(argsort)/ne" source_file="/global/homes/j/jackm/software/lorrax_C/src/solvers/lanczos.py" source_line=293}
  %compare.1955 = pred[] compare(%Arg_1.1946, %constant.1950), direction=EQ, metadata={op_name="jit(_full_run)/jit(main)/jit(argsort)/eq" source_file="/global/homes/j/jackm/software/lorrax_C/src/solvers/lanczos.py" source_line=293}
  %select.1956 = f64[] select(%compare.1955, %constant.1950, %Arg_1.1946), metadata={op_name="jit(_full_run)/jit(main)/jit(argsort)/select_n" source_file="/global/homes/j/jackm/software/lorrax_C/src/solvers/lanczos.py" source_line=293}
  %select.1958 = f64[] select(%compare.1957, %constant.1949, %select.1956), metadata={op_name="jit(_full_run)/jit(main)/jit(argsort)/select_n" source_file="/global/homes/j/jackm/software/lorrax_C/src/solvers/lanczos.py" source_line=293}
  ROOT %compare.1959 = pred[] compare(%select.1954, %select.1958), direction=LT, type=TOTALORDER, metadata={op_name="jit(_full_run)/jit(main)/jit(argsort)/lt_to" source_file="/global/homes/j/jackm/software/lorrax_C/src/solvers/lanczos.py" source_line=293}
}

%argsort.1960 (Arg_0.1961: f64[60]) -> s64[60] {
  %Arg_0.1961 = f64[60]{0} parameter(0), metadata={op_name="jit(_full_run)/jit(main)/pjit"}
  %iota.1962 = s64[60]{0} iota(), iota_dimension=0, metadata={op_name="jit(_full_run)/jit(main)/jit(argsort)/iota" source_file="/global/homes/j/jackm/software/lorrax_C/src/solvers/lanczos.py" source_line=293}
  %sort.1963 = (f64[60]{0}, s64[60]{0}) sort(%Arg_0.1961, %iota.1962), dimensions={0}, is_stable=true, to_apply=%region_13.1944, metadata={op_name="jit(_full_run)/jit(main)/jit(argsort)/sort" source_file="/global/homes/j/jackm/software/lorrax_C/src/solvers/lanczos.py" source_line=293}
  %get-tuple-element.1964 = f64[60]{0} get-tuple-element(%sort.1963), index=0, metadata={op_name="jit(_full_run)/jit(main)/jit(argsort)/sort" source_file="/global/homes/j/jackm/software/lorrax_C/src/solvers/lanczos.py" source_line=293}
  ROOT %get-tuple-element.1965 = s64[60]{0} get-tuple-element(%sort.1963), index=1, metadata={op_name="jit(_full_run)/jit(main)/jit(argsort)/sort" source_file="/global/homes/j/jackm/software/lorrax_C/src/solvers/lanczos.py" source_line=293}
}

%region_14.1983 (Arg_0.1984: f64[], Arg_1.1985: f64[]) -> f64[] {
  %Arg_0.1984 = f64[] parameter(0), metadata={op_name="jit(_full_run)/jit(main)/jit(norm)/reduce_sum"}
  %Arg_1.1985 = f64[] parameter(1), metadata={op_name="jit(_full_run)/jit(main)/jit(norm)/reduce_sum"}
  ROOT %add.1986 = f64[] add(%Arg_0.1984, %Arg_1.1985), metadata={op_name="jit(_full_run)/jit(main)/jit(norm)/reduce_sum" source_file="/global/homes/j/jackm/software/lorrax_C/src/solvers/lanczos.py" source_line=297}
}

%norm_10.1987 (Arg_0.1988: c128[20,4096]) -> f64[20,1] {
  %Arg_0.1988 = c128[20,4096]{1,0} parameter(0), metadata={op_name="jit(_full_run)/jit(main)/pjit"}
  %real.1990 = f64[20,4096]{1,0} real(%Arg_0.1988), metadata={op_name="jit(_full_run)/jit(main)/jit(norm)/real" source_file="/global/homes/j/jackm/software/lorrax_C/src/solvers/lanczos.py" source_line=297}
  %imag.1991 = f64[20,4096]{1,0} imag(%Arg_0.1988), metadata={op_name="jit(_full_run)/jit(main)/jit(norm)/imag" source_file="/global/homes/j/jackm/software/lorrax_C/src/solvers/lanczos.py" source_line=297}
  %negate.1992 = f64[20,4096]{1,0} negate(%imag.1991), metadata={op_name="jit(_full_run)/jit(main)/jit(norm)/neg" source_file="/global/homes/j/jackm/software/lorrax_C/src/solvers/lanczos.py" source_line=297}
  %complex.1993 = c128[20,4096]{1,0} complex(%real.1990, %negate.1992), metadata={op_name="jit(_full_run)/jit(main)/jit(norm)/complex" source_file="/global/homes/j/jackm/software/lorrax_C/src/solvers/lanczos.py" source_line=297}
  %multiply.1994 = c128[20,4096]{1,0} multiply(%Arg_0.1988, %complex.1993), metadata={op_name="jit(_full_run)/jit(main)/jit(norm)/mul" source_file="/global/homes/j/jackm/software/lorrax_C/src/solvers/lanczos.py" source_line=297}
  %real.1995 = f64[20,4096]{1,0} real(%multiply.1994), metadata={op_name="jit(_full_run)/jit(main)/jit(norm)/real" source_file="/global/homes/j/jackm/software/lorrax_C/src/solvers/lanczos.py" source_line=297}
  %constant.1989 = f64[] constant(0)
  %reduce.1996 = f64[20]{0} reduce(%real.1995, %constant.1989), dimensions={1}, to_apply=%region_14.1983, metadata={op_name="jit(_full_run)/jit(main)/jit(norm)/reduce_sum" source_file="/global/homes/j/jackm/software/lorrax_C/src/solvers/lanczos.py" source_line=297}
  %reshape.1997 = f64[20,1]{1,0} reshape(%reduce.1996), metadata={op_name="jit(_full_run)/jit(main)/jit(norm)/broadcast_in_dim" source_file="/global/homes/j/jackm/software/lorrax_C/src/solvers/lanczos.py" source_line=297}
  ROOT %sqrt.1998 = f64[20,1]{1,0} sqrt(%reshape.1997), metadata={op_name="jit(_full_run)/jit(main)/jit(norm)/sqrt" source_file="/global/homes/j/jackm/software/lorrax_C/src/solvers/lanczos.py" source_line=297}
}

ENTRY %main.2010 (Arg_0.1: c128[64,8,2,480], Arg_1.2: c128[64,8,2,480], Arg_2.3: c128[64,8,2,480], Arg_3.4: c128[64,8,2,480], Arg_4.5: f64[64,8], Arg_5.6: f64[64,8], Arg_6.7: c128[480,480,4,4,4], Arg_7.8: c128[480,480]) -> (f64[20], c128[20,4096], s32[]) {
  %constant.24 = s64[] constant(0)
  %constant.18 = c128[] constant((0, 0))
  %broadcast.19 = c128[4096,60]{1,0} broadcast(%constant.18), dimensions={}
  %constant.17 = s32[1]{0} constant({0})
  %constant.26 = s64[] constant(42)
  %constant.25 = s64[] constant(32)
  %shift-right-logical.151 = s64[] shift-right-logical(%constant.26, %constant.25), metadata={op_name="jit(_full_run)/jit(main)/shift_right_logical" source_file="/global/homes/j/jackm/software/lorrax_C/src/solvers/lanczos.py" source_line=244}
  %convert.152 = u32[] convert(%shift-right-logical.151), metadata={op_name="jit(_full_run)/jit(main)/convert_element_type" source_file="/global/homes/j/jackm/software/lorrax_C/src/solvers/lanczos.py" source_line=244}
  %reshape.153 = u32[1]{0} reshape(%convert.152), metadata={op_name="jit(_full_run)/jit(main)/broadcast_in_dim" source_file="/global/homes/j/jackm/software/lorrax_C/src/solvers/lanczos.py" source_line=244}
  %constant.22 = u32[1]{0} constant({42})
  %concatenate.154 = u32[2]{0} concatenate(%reshape.153, %constant.22), dimensions={0}, metadata={op_name="jit(_full_run)/jit(main)/concatenate" source_file="/global/homes/j/jackm/software/lorrax_C/src/solvers/lanczos.py" source_line=244}
  %call.341 = u32[2,2]{1,0} call(%concatenate.154), to_apply=%_threefry_split.323
  %slice.342 = u32[1,2]{1,0} slice(%call.341), slice={[0:1], [0:2]}, metadata={op_name="jit(_full_run)/jit(main)/slice" source_file="/global/homes/j/jackm/software/lorrax_C/src/solvers/lanczos.py" source_line=245}
  %reshape.343 = u32[2]{0} reshape(%slice.342), metadata={op_name="jit(_full_run)/jit(main)/squeeze" source_file="/global/homes/j/jackm/software/lorrax_C/src/solvers/lanczos.py" source_line=245}
  %call.805 = f64[4096]{0} call(%reshape.343), to_apply=%_normal.802
  %convert.1268 = c128[4096]{0} convert(%call.805), metadata={op_name="jit(_full_run)/jit(main)/convert_element_type" source_file="/global/homes/j/jackm/software/lorrax_C/src/solvers/lanczos.py" source_line=248}
  %slice.344 = u32[1,2]{1,0} slice(%call.341), slice={[1:2], [0:2]}, metadata={op_name="jit(_full_run)/jit(main)/slice" source_file="/global/homes/j/jackm/software/lorrax_C/src/solvers/lanczos.py" source_line=245}
  %reshape.345 = u32[2]{0} reshape(%slice.344), metadata={op_name="jit(_full_run)/jit(main)/squeeze" source_file="/global/homes/j/jackm/software/lorrax_C/src/solvers/lanczos.py" source_line=245}
  %call.1265 = f64[4096]{0} call(%reshape.345), to_apply=%_normal.1262
  %convert.1266 = c128[4096]{0} convert(%call.1265), metadata={op_name="jit(_full_run)/jit(main)/convert_element_type" source_file="/global/homes/j/jackm/software/lorrax_C/src/solvers/lanczos.py" source_line=248}
  %constant.20 = c128[] constant((0, 1))
  %broadcast.21 = c128[4096]{0} broadcast(%constant.20), dimensions={}
  %multiply.1267 = c128[4096]{0} multiply(%convert.1266, %broadcast.21), metadata={op_name="jit(_full_run)/jit(main)/mul" source_file="/global/homes/j/jackm/software/lorrax_C/src/solvers/lanczos.py" source_line=248}
  %add.1269 = c128[4096]{0} add(%convert.1268, %multiply.1267), metadata={op_name="jit(_full_run)/jit(main)/add" source_file="/global/homes/j/jackm/software/lorrax_C/src/solvers/lanczos.py" source_line=248}
  %call.1285 = f64[] call(%add.1269), to_apply=%norm.1274
  %convert.1286 = c128[] convert(%call.1285), metadata={op_name="jit(_full_run)/jit(main)/convert_element_type" source_file="/global/homes/j/jackm/software/lorrax_C/src/solvers/lanczos.py" source_line=249}
  %broadcast.1287 = c128[4096]{0} broadcast(%convert.1286), dimensions={}, metadata={op_name="jit(_full_run)/jit(main)/div" source_file="/global/homes/j/jackm/software/lorrax_C/src/solvers/lanczos.py" source_line=249}
  %divide.1288 = c128[4096]{0} divide(%add.1269, %broadcast.1287), metadata={op_name="jit(_full_run)/jit(main)/div" source_file="/global/homes/j/jackm/software/lorrax_C/src/solvers/lanczos.py" source_line=249}
  %scatter.1292 = c128[4096,60]{1,0} scatter(%broadcast.19, %constant.17, %divide.1288), update_window_dims={0}, inserted_window_dims={1}, scatter_dims_to_operand_dims={1}, index_vector_dim=0, indices_are_sorted=true, unique_indices=true, to_apply=%region_2.1289, metadata={op_name="jit(_full_run)/jit(main)/scatter" source_file="/global/homes/j/jackm/software/lorrax_C/src/solvers/lanczos.py" source_line=252}
  %constant.15 = f64[] constant(0)
  %broadcast.16 = f64[60]{0} broadcast(%constant.15), dimensions={}
  %Arg_0.1 = c128[64,8,2,480]{3,2,1,0} parameter(0), sharding={devices=[1,1,1,2,2]<=[4] last_tile_dim_replicate}, metadata={op_name="psi_c_X"}
  %Arg_1.2 = c128[64,8,2,480]{3,2,1,0} parameter(1), sharding={devices=[1,1,1,2,2]<=[2,2]T(1,0) last_tile_dim_replicate}, metadata={op_name="psi_c_Y"}
  %Arg_2.3 = c128[64,8,2,480]{3,2,1,0} parameter(2), sharding={devices=[1,1,1,2,2]<=[4] last_tile_dim_replicate}, metadata={op_name="psi_v_X"}
  %Arg_3.4 = c128[64,8,2,480]{3,2,1,0} parameter(3), sharding={devices=[1,1,1,2,2]<=[2,2]T(1,0) last_tile_dim_replicate}, metadata={op_name="psi_v_Y"}
  %Arg_4.5 = f64[64,8]{1,0} parameter(4), sharding={replicated}, metadata={op_name="eps_c"}
  %Arg_5.6 = f64[64,8]{1,0} parameter(5), sharding={replicated}, metadata={op_name="eps_v"}
  %constant.27 = c128[] constant((4, 0))
  %broadcast.28 = c128[3]{0} broadcast(%constant.27), dimensions={}
  %custom-call.29 = c128[3]{0} custom-call(%broadcast.28), custom_call_target="Sharding", sharding={replicated}, metadata={op_name="jit(_full_run)/jit(main)/shard_map" source_file="/global/homes/j/jackm/software/lorrax_C/src/bse/bse_lanczos.py" source_line=279}
  %custom-call.30 = c128[3]{0} custom-call(%custom-call.29), custom_call_target="SPMDFullToShardShape", sharding={manual}, metadata={op_name="jit(_full_run)/jit(main)/shard_map" source_file="/global/homes/j/jackm/software/lorrax_C/src/bse/bse_lanczos.py" source_line=279}
  %Arg_6.7 = c128[480,480,4,4,4]{4,3,2,1,0} parameter(6), sharding={devices=[2,2,1,1,1]<=[4]}, metadata={op_name="W_q"}
  %custom-call.31 = c128[480,480,4,4,4]{4,3,2,1,0} custom-call(%Arg_6.7), custom_call_target="Sharding", sharding={devices=[2,2,1,1,1]<=[4]}, metadata={op_name="jit(_full_run)/jit(main)/shard_map" source_file="/global/homes/j/jackm/software/lorrax_C/src/bse/bse_lanczos.py" source_line=279}
  %custom-call.32 = c128[240,240,4,4,4]{4,3,2,1,0} custom-call(%custom-call.31), custom_call_target="SPMDFullToShardShape", sharding={manual}, metadata={op_name="jit(_full_run)/jit(main)/shard_map" source_file="/global/homes/j/jackm/software/lorrax_C/src/bse/bse_lanczos.py" source_line=279}
  %call.148 = c128[240,240,4,4,4]{4,3,2,1,0} call(%custom-call.30, %custom-call.32), to_apply=%shmap_body.40
  %custom-call.149 = c128[240,240,4,4,4]{4,3,2,1,0} custom-call(%call.148), custom_call_target="Sharding", sharding={manual}, metadata={op_name="jit(_full_run)/jit(main)/shard_map" source_file="/global/homes/j/jackm/software/lorrax_C/src/bse/bse_lanczos.py" source_line=279}
  %custom-call.150 = c128[480,480,4,4,4]{4,3,2,1,0} custom-call(%custom-call.149), custom_call_target="SPMDShardToFullShape", sharding={devices=[2,2,1,1,1]<=[4]}, metadata={op_name="jit(_full_run)/jit(main)/shard_map" source_file="/global/homes/j/jackm/software/lorrax_C/src/bse/bse_lanczos.py" source_line=279}
  %Arg_7.8 = c128[480,480]{1,0} parameter(7), sharding={devices=[2,2]<=[4]}, metadata={op_name="V_q0"}
  %tuple.1293 = (s64[], s64[], c128[4096,60]{1,0}, f64[60]{0}, f64[60]{0}, /*index=5*/c128[4096]{0}, c128[64,8,2,480]{3,2,1,0}, c128[64,8,2,480]{3,2,1,0}, c128[64,8,2,480]{3,2,1,0}, c128[64,8,2,480]{3,2,1,0}, /*index=10*/f64[64,8]{1,0}, f64[64,8]{1,0}, c128[480,480,4,4,4]{4,3,2,1,0}, c128[480,480]{1,0}) tuple(%constant.24, %constant.24, %scatter.1292, %broadcast.16, %broadcast.16, /*index=5*/%divide.1288, %Arg_0.1, %Arg_1.2, %Arg_2.3, %Arg_3.4, /*index=10*/%Arg_4.5, %Arg_5.6, %custom-call.150, %Arg_7.8), metadata={op_name="jit(_full_run)/jit(main)/while" source_file="/global/homes/j/jackm/software/lorrax_C/src/solvers/lanczos.py" source_line=286}
  %while.1839 = (s64[], s64[], c128[4096,60]{1,0}, f64[60]{0}, f64[60]{0}, /*index=5*/c128[4096]{0}, c128[64,8,2,480]{3,2,1,0}, c128[64,8,2,480]{3,2,1,0}, c128[64,8,2,480]{3,2,1,0}, c128[64,8,2,480]{3,2,1,0}, /*index=10*/f64[64,8]{1,0}, f64[64,8]{1,0}, c128[480,480,4,4,4]{4,3,2,1,0}, c128[480,480]{1,0}) while(%tuple.1293), condition=%region_12.1821, body=%region_3.1796, metadata={op_name="jit(_full_run)/jit(main)/while" source_file="/global/homes/j/jackm/software/lorrax_C/src/solvers/lanczos.py" source_line=286}
  %get-tuple-element.1840 = s64[] get-tuple-element(%while.1839), index=0, metadata={op_name="jit(_full_run)/jit(main)/while" source_file="/global/homes/j/jackm/software/lorrax_C/src/solvers/lanczos.py" source_line=286}
  %get-tuple-element.1841 = s64[] get-tuple-element(%while.1839), index=1, metadata={op_name="jit(_full_run)/jit(main)/while" source_file="/global/homes/j/jackm/software/lorrax_C/src/solvers/lanczos.py" source_line=286}
  %get-tuple-element.1845 = c128[4096]{0} get-tuple-element(%while.1839), index=5, metadata={op_name="jit(_full_run)/jit(main)/while" source_file="/global/homes/j/jackm/software/lorrax_C/src/solvers/lanczos.py" source_line=286}
  %get-tuple-element.1843 = f64[60]{0} get-tuple-element(%while.1839), index=3, metadata={op_name="jit(_full_run)/jit(main)/while" source_file="/global/homes/j/jackm/software/lorrax_C/src/solvers/lanczos.py" source_line=286}
  %call.1863 = f64[60,60]{1,0} call(%get-tuple-element.1843), to_apply=%_diag.1853
  %get-tuple-element.1844 = f64[60]{0} get-tuple-element(%while.1839), index=4, metadata={op_name="jit(_full_run)/jit(main)/while" source_file="/global/homes/j/jackm/software/lorrax_C/src/solvers/lanczos.py" source_line=286}
  %slice.1864 = f64[59]{0} slice(%get-tuple-element.1844), slice={[0:59]}, metadata={op_name="jit(_full_run)/jit(main)/slice" source_file="/global/homes/j/jackm/software/lorrax_C/src/solvers/lanczos.py" source_line=289}
  %call.1887 = f64[60,60]{1,0} call(%slice.1864), to_apply=%_diag_8.1872
  %add.1888 = f64[60,60]{1,0} add(%call.1863, %call.1887), metadata={op_name="jit(_full_run)/jit(main)/add" source_file="/global/homes/j/jackm/software/lorrax_C/src/solvers/lanczos.py" source_line=290}
  %call.1911 = f64[60,60]{1,0} call(%slice.1864), to_apply=%_diag_9.1896
  %add.1912 = f64[60,60]{1,0} add(%add.1888, %call.1911), metadata={op_name="jit(_full_run)/jit(main)/add" source_file="/global/homes/j/jackm/software/lorrax_C/src/solvers/lanczos.py" source_line=290}
  %call.1941 = (f64[60]{0}, f64[60,60]{1,0}) call(%add.1912), to_apply=%eigh.1913
  %get-tuple-element.1942 = f64[60]{0} get-tuple-element(%call.1941), index=0
  %call.1966 = s64[60]{0} call(%get-tuple-element.1942), to_apply=%argsort.1960
  %slice.1967 = s64[20]{0} slice(%call.1966), slice={[0:20]}, metadata={op_name="jit(_full_run)/jit(main)/slice" source_file="/global/homes/j/jackm/software/lorrax_C/src/solvers/lanczos.py" source_line=293}
  %constant.13 = s64[] constant(0)
  %broadcast.14 = s64[20]{0} broadcast(%constant.13), dimensions={}
  %compare.1968 = pred[20]{0} compare(%slice.1967, %broadcast.14), direction=LT, metadata={op_name="jit(_full_run)/jit(main)/lt" source_file="/global/homes/j/jackm/software/lorrax_C/src/solvers/lanczos.py" source_line=294}
  %constant.11 = s64[] constant(60)
  %broadcast.12 = s64[20]{0} broadcast(%constant.11), dimensions={}
  %add.1969 = s64[20]{0} add(%slice.1967, %broadcast.12), metadata={op_name="jit(_full_run)/jit(main)/add" source_file="/global/homes/j/jackm/software/lorrax_C/src/solvers/lanczos.py" source_line=294}
  %select.1970 = s64[20]{0} select(%compare.1968, %add.1969, %slice.1967), metadata={op_name="jit(_full_run)/jit(main)/select_n" source_file="/global/homes/j/jackm/software/lorrax_C/src/solvers/lanczos.py" source_line=294}
  %convert.1971 = s32[20]{0} convert(%select.1970), metadata={op_name="jit(_full_run)/jit(main)/convert_element_type" source_file="/global/homes/j/jackm/software/lorrax_C/src/solvers/lanczos.py" source_line=294}
  %reshape.1972 = s32[20,1]{1,0} reshape(%convert.1971), metadata={op_name="jit(_full_run)/jit(main)/broadcast_in_dim" source_file="/global/homes/j/jackm/software/lorrax_C/src/solvers/lanczos.py" source_line=294}
  %gather.1973 = f64[20]{0} gather(%get-tuple-element.1942, %reshape.1972), offset_dims={}, collapsed_slice_dims={0}, start_index_map={0}, index_vector_dim=1, slice_sizes={1}, metadata={op_name="jit(_full_run)/jit(main)/gather" source_file="/global/homes/j/jackm/software/lorrax_C/src/solvers/lanczos.py" source_line=294}
  %reshape.2006 = f64[20]{0} reshape(%gather.1973), sharding={replicated}
  %get-tuple-element.1842 = c128[4096,60]{1,0} get-tuple-element(%while.1839), index=2, metadata={op_name="jit(_full_run)/jit(main)/while" source_file="/global/homes/j/jackm/software/lorrax_C/src/solvers/lanczos.py" source_line=286}
  %get-tuple-element.1943 = f64[60,60]{1,0} get-tuple-element(%call.1941), index=1
  %compare.1974 = pred[20]{0} compare(%slice.1967, %broadcast.14), direction=LT, metadata={op_name="jit(_full_run)/jit(main)/lt" source_file="/global/homes/j/jackm/software/lorrax_C/src/solvers/lanczos.py" source_line=296}
  %add.1975 = s64[20]{0} add(%slice.1967, %broadcast.12), metadata={op_name="jit(_full_run)/jit(main)/add" source_file="/global/homes/j/jackm/software/lorrax_C/src/solvers/lanczos.py" source_line=296}
  %select.1976 = s64[20]{0} select(%compare.1974, %add.1975, %slice.1967), metadata={op_name="jit(_full_run)/jit(main)/select_n" source_file="/global/homes/j/jackm/software/lorrax_C/src/solvers/lanczos.py" source_line=296}
  %convert.1977 = s32[20]{0} convert(%select.1976), metadata={op_name="jit(_full_run)/jit(main)/convert_element_type" source_file="/global/homes/j/jackm/software/lorrax_C/src/solvers/lanczos.py" source_line=296}
  %reshape.1978 = s32[20,1]{1,0} reshape(%convert.1977), metadata={op_name="jit(_full_run)/jit(main)/broadcast_in_dim" source_file="/global/homes/j/jackm/software/lorrax_C/src/solvers/lanczos.py" source_line=296}
  %gather.1979 = f64[60,20]{1,0} gather(%get-tuple-element.1943, %reshape.1978), offset_dims={0}, collapsed_slice_dims={1}, start_index_map={1}, index_vector_dim=1, slice_sizes={60,1}, metadata={op_name="jit(_full_run)/jit(main)/gather" source_file="/global/homes/j/jackm/software/lorrax_C/src/solvers/lanczos.py" source_line=296}
  %convert.1980 = c128[60,20]{1,0} convert(%gather.1979), metadata={op_name="jit(_full_run)/jit(main)/dot_general" source_file="/global/homes/j/jackm/software/lorrax_C/src/solvers/lanczos.py" source_line=296}
  %dot.1981 = c128[4096,20]{1,0} dot(%get-tuple-element.1842, %convert.1980), lhs_contracting_dims={1}, rhs_contracting_dims={0}, metadata={op_name="jit(_full_run)/jit(main)/dot_general" source_file="/global/homes/j/jackm/software/lorrax_C/src/solvers/lanczos.py" source_line=296}
  %transpose.1982 = c128[20,4096]{0,1} transpose(%dot.1981), dimensions={1,0}, metadata={op_name="jit(_full_run)/jit(main)/transpose" source_file="/global/homes/j/jackm/software/lorrax_C/src/solvers/lanczos.py" source_line=296}
  %call.1999 = f64[20,1]{1,0} call(%transpose.1982), to_apply=%norm_10.1987
  %constant.9 = f64[] constant(1e-15)
  %broadcast.10 = f64[20,1]{1,0} broadcast(%constant.9), dimensions={}
  %maximum.2000 = f64[20,1]{1,0} maximum(%call.1999, %broadcast.10), metadata={op_name="jit(_full_run)/jit(main)/max" source_file="/global/homes/j/jackm/software/lorrax_C/src/solvers/lanczos.py" source_line=298}
  %convert.2001 = c128[20,1]{1,0} convert(%maximum.2000), metadata={op_name="jit(_full_run)/jit(main)/convert_element_type" source_file="/global/homes/j/jackm/software/lorrax_C/src/solvers/lanczos.py" source_line=298}
  %broadcast.2002 = c128[20,1]{1,0} broadcast(%convert.2001), dimensions={0,1}, metadata={op_name="jit(_full_run)/jit(main)/div" source_file="/global/homes/j/jackm/software/lorrax_C/src/solvers/lanczos.py" source_line=298}
  %reshape.2003 = c128[20]{0} reshape(%broadcast.2002), metadata={op_name="jit(_full_run)/jit(main)/div" source_file="/global/homes/j/jackm/software/lorrax_C/src/solvers/lanczos.py" source_line=298}
  %broadcast.2004 = c128[20,4096]{1,0} broadcast(%reshape.2003), dimensions={0}, metadata={op_name="jit(_full_run)/jit(main)/div" source_file="/global/homes/j/jackm/software/lorrax_C/src/solvers/lanczos.py" source_line=298}
  %divide.2005 = c128[20,4096]{0,1} divide(%transpose.1982, %broadcast.2004), metadata={op_name="jit(_full_run)/jit(main)/div" source_file="/global/homes/j/jackm/software/lorrax_C/src/solvers/lanczos.py" source_line=298}
  %reshape.2007 = c128[20,4096]{1,0} reshape(%divide.2005), sharding={replicated}
  %constant.23 = s32[] constant(60)
  %reshape.2008 = s32[] reshape(%constant.23)
  ROOT %tuple.2009 = (f64[20]{0}, c128[20,4096]{1,0}, s32[]) tuple(%reshape.2006, %reshape.2007, %reshape.2008), sharding={{replicated}, {replicated}, {replicated}}
}

