HloModule jit__full_run, entry_computation_layout={(c128[64,4,2,480]{3,2,1,0}, c128[64,4,2,480]{3,2,1,0}, c128[64,4,2,480]{3,2,1,0}, c128[64,4,2,480]{3,2,1,0}, f64[64,4]{1,0}, /*index=5*/f64[64,4]{1,0}, c128[480,480,4,4,4]{4,3,2,1,0}, c128[480,480]{1,0})->(f64[5]{0}, c128[5,1024]{1,0}, s32[])}, allow_spmd_sharding_propagation_to_parameters={false,false,false,false,false,false,false,false}, allow_spmd_sharding_propagation_to_output={false,false,false}, num_partitions=4

%region_0.1149 (Arg_0.1150: f64[], Arg_1.1151: f64[]) -> f64[] {
  %Arg_0.1150 = f64[] parameter(0), metadata={op_name="jit(_full_run)/jit(main)/jit(norm)/reduce_sum"}
  %Arg_1.1151 = f64[] parameter(1), metadata={op_name="jit(_full_run)/jit(main)/jit(norm)/reduce_sum"}
  ROOT %add.1152 = f64[] add(%Arg_0.1150, %Arg_1.1151), metadata={op_name="jit(_full_run)/jit(main)/jit(norm)/reduce_sum" source_file="/global/homes/j/jackm/software/lorrax_C/src/solvers/lanczos.py" source_line=249}
}

%region_17.1797 (Arg_0.1798: f64[], Arg_1.1799: f64[], Arg_2.1800: s64[], Arg_3.1801: s64[]) -> pred[] {
  %Arg_2.1800 = s64[] parameter(2), metadata={op_name="jit(_full_run)/jit(main)/jit(argsort)/sort"}
  %Arg_3.1801 = s64[] parameter(3), metadata={op_name="jit(_full_run)/jit(main)/jit(argsort)/sort"}
  %constant.1802 = f64[] constant(nan)
  %constant.1803 = f64[] constant(0)
  %Arg_0.1798 = f64[] parameter(0), metadata={op_name="jit(_full_run)/jit(main)/jit(argsort)/sort"}
  %compare.1806 = pred[] compare(%Arg_0.1798, %Arg_0.1798), direction=NE, metadata={op_name="jit(_full_run)/jit(main)/jit(argsort)/ne" source_file="/global/homes/j/jackm/software/lorrax_C/src/solvers/lanczos.py" source_line=293}
  %constant.1080 = f64[] constant(nan)
  %constant.1082 = f64[] constant(0)
  %compare.1804 = pred[] compare(%Arg_0.1798, %constant.1082), direction=EQ, metadata={op_name="jit(_full_run)/jit(main)/jit(argsort)/eq" source_file="/global/homes/j/jackm/software/lorrax_C/src/solvers/lanczos.py" source_line=293}
  %constant.1083 = f64[] constant(0)
  %select.1805 = f64[] select(%compare.1804, %constant.1083, %Arg_0.1798), metadata={op_name="jit(_full_run)/jit(main)/jit(argsort)/select_n" source_file="/global/homes/j/jackm/software/lorrax_C/src/solvers/lanczos.py" source_line=293}
  %select.1807 = f64[] select(%compare.1806, %constant.1080, %select.1805), metadata={op_name="jit(_full_run)/jit(main)/jit(argsort)/select_n" source_file="/global/homes/j/jackm/software/lorrax_C/src/solvers/lanczos.py" source_line=293}
  %Arg_1.1799 = f64[] parameter(1), metadata={op_name="jit(_full_run)/jit(main)/jit(argsort)/sort"}
  %compare.1810 = pred[] compare(%Arg_1.1799, %Arg_1.1799), direction=NE, metadata={op_name="jit(_full_run)/jit(main)/jit(argsort)/ne" source_file="/global/homes/j/jackm/software/lorrax_C/src/solvers/lanczos.py" source_line=293}
  %constant.1081 = f64[] constant(nan)
  %constant.1084 = f64[] constant(0)
  %compare.1808 = pred[] compare(%Arg_1.1799, %constant.1084), direction=EQ, metadata={op_name="jit(_full_run)/jit(main)/jit(argsort)/eq" source_file="/global/homes/j/jackm/software/lorrax_C/src/solvers/lanczos.py" source_line=293}
  %constant.1085 = f64[] constant(0)
  %select.1809 = f64[] select(%compare.1808, %constant.1085, %Arg_1.1799), metadata={op_name="jit(_full_run)/jit(main)/jit(argsort)/select_n" source_file="/global/homes/j/jackm/software/lorrax_C/src/solvers/lanczos.py" source_line=293}
  %select.1811 = f64[] select(%compare.1810, %constant.1081, %select.1809), metadata={op_name="jit(_full_run)/jit(main)/jit(argsort)/select_n" source_file="/global/homes/j/jackm/software/lorrax_C/src/solvers/lanczos.py" source_line=293}
  ROOT %compare.1812 = pred[] compare(%select.1807, %select.1811), direction=LT, type=TOTALORDER, metadata={op_name="jit(_full_run)/jit(main)/jit(argsort)/lt_to" source_file="/global/homes/j/jackm/software/lorrax_C/src/solvers/lanczos.py" source_line=293}
}

%region_18.1836 (Arg_0.1837: f64[], Arg_1.1838: f64[]) -> f64[] {
  %Arg_0.1837 = f64[] parameter(0), metadata={op_name="jit(_full_run)/jit(main)/jit(norm)/reduce_sum"}
  %Arg_1.1838 = f64[] parameter(1), metadata={op_name="jit(_full_run)/jit(main)/jit(norm)/reduce_sum"}
  ROOT %add.1839 = f64[] add(%Arg_0.1837, %Arg_1.1838), metadata={op_name="jit(_full_run)/jit(main)/jit(norm)/reduce_sum" source_file="/global/homes/j/jackm/software/lorrax_C/src/solvers/lanczos.py" source_line=297}
}

%and.reduce_sub_computation.3 (lhs.3: pred[], rhs.3: pred[]) -> pred[] {
  %lhs.3 = pred[] parameter(0)
  %rhs.3 = pred[] parameter(1)
  ROOT %and.10 = pred[] and(%lhs.3, %rhs.3)
}

%region_6.1287 (Arg_0.1288: c128[], Arg_1.1289: c128[]) -> c128[] {
  %Arg_0.1288 = c128[] parameter(0), metadata={op_name="jit(_full_run)/jit(main)/while/body/jit(_matvec_impl)/jit(shmap_body)/while/body/reduce_sum"}
  %Arg_1.1289 = c128[] parameter(1), metadata={op_name="jit(_full_run)/jit(main)/while/body/jit(_matvec_impl)/jit(shmap_body)/while/body/reduce_sum"}
  ROOT %add.1290 = c128[] add(%Arg_0.1288, %Arg_1.1289), metadata={op_name="jit(_full_run)/jit(main)/while/body/jit(_matvec_impl)/jit(shmap_body)/while/body/reduce_sum" source_file="/global/homes/j/jackm/software/lorrax_C/src/bse/bse_ring_comm.py" source_line=281}
}

%region_5.1299 (arg_tuple.1300: (s64[], c128[1,2,240,64], c128[1,240,64])) -> (s64[], c128[1,2,240,64], c128[1,240,64]) {
  %arg_tuple.1300 = (s64[], c128[1,2,240,64]{3,2,1,0}, c128[1,240,64]{2,1,0}) parameter(0)
  %get-tuple-element.1301 = s64[] get-tuple-element(%arg_tuple.1300), index=0
  %constant.1304 = s64[] constant(1)
  %add.1308 = s64[] add(%get-tuple-element.1301, %constant.1304), metadata={op_name="jit(_full_run)/jit(main)/while/body/jit(_matvec_impl)/jit(shmap_body)/while/body/add" source_file="/global/homes/j/jackm/software/lorrax_C/src/bse/bse_ring_comm.py" source_line=285}
  %get-tuple-element.1302 = c128[1,2,240,64]{3,2,1,0} get-tuple-element(%arg_tuple.1300), index=1
  %collective-permute.1 = c128[1,2,240,64]{3,2,1,0} collective-permute(%get-tuple-element.1302), channel_id=2, source_target_pairs={{0,2},{2,0},{1,3},{3,1}}, metadata={op_name="jit(_full_run)/jit(main)/while/body/jit(_matvec_impl)/jit(shmap_body)/while/body/ppermute" source_file="/global/homes/j/jackm/software/lorrax_C/src/bse/bse_ring_comm.py" source_line=282}
  %get-tuple-element.1303 = c128[1,240,64]{2,1,0} get-tuple-element(%arg_tuple.1300), index=2
  %constant.322 = c128[] constant((0, 0))
  %reduce.0 = c128[1,240,64]{2,1,0} reduce(%get-tuple-element.1302, %constant.322), dimensions={1}, to_apply=%region_6.1287, metadata={op_name="jit(_full_run)/jit(main)/while/body/jit(_matvec_impl)/jit(shmap_body)/while/body/reduce_sum" source_file="/global/homes/j/jackm/software/lorrax_C/src/bse/bse_ring_comm.py" source_line=281}
  %add.386 = c128[1,240,64]{2,1,0} add(%get-tuple-element.1303, %reduce.0), metadata={op_name="jit(_full_run)/jit(main)/while/body/jit(_matvec_impl)/jit(shmap_body)/while/body/add" source_file="/global/homes/j/jackm/software/lorrax_C/src/bse/bse_ring_comm.py" source_line=281}
  ROOT %tuple.1309 = (s64[], c128[1,2,240,64]{3,2,1,0}, c128[1,240,64]{2,1,0}) tuple(%add.1308, %collective-permute.1, %add.386)
}

%region_7.1310 (arg_tuple.1311: (s64[], c128[1,2,240,64], c128[1,240,64])) -> pred[] {
  %arg_tuple.1311 = (s64[], c128[1,2,240,64]{3,2,1,0}, c128[1,240,64]{2,1,0}) parameter(0)
  %get-tuple-element.1312 = s64[] get-tuple-element(%arg_tuple.1311), index=0
  %constant.1315 = s64[] constant(2)
  ROOT %compare.1316 = pred[] compare(%get-tuple-element.1312, %constant.1315), direction=LT, metadata={op_name="jit(_full_run)/jit(main)/while/body/jit(_matvec_impl)/jit(shmap_body)/while/cond/lt" source_file="/global/homes/j/jackm/software/lorrax_C/src/bse/bse_ring_comm.py" source_line=285}
}

%region_8.1317 (Arg_0.1318: c128[], Arg_1.1319: c128[]) -> c128[] {
  %Arg_0.1318 = c128[] parameter(0), metadata={op_name="jit(_full_run)/jit(main)/while/body/jit(_matvec_impl)/jit(shmap_body)/psum2"}
  %Arg_1.1319 = c128[] parameter(1), metadata={op_name="jit(_full_run)/jit(main)/while/body/jit(_matvec_impl)/jit(shmap_body)/psum2"}
  ROOT %add.1320 = c128[] add(%Arg_0.1318, %Arg_1.1319), metadata={op_name="jit(_full_run)/jit(main)/while/body/jit(_matvec_impl)/jit(shmap_body)/add" source_file="/global/homes/j/jackm/software/lorrax_C/src/bse/bse_ring_comm.py" source_line=290}
}

%region_9.1321 (Arg_0.1322: c128[], Arg_1.1323: c128[]) -> c128[] {
  %Arg_0.1322 = c128[] parameter(0), metadata={op_name="jit(_full_run)/jit(main)/while/body/jit(_matvec_impl)/jit(shmap_body)/reduce_scatter"}
  %Arg_1.1323 = c128[] parameter(1), metadata={op_name="jit(_full_run)/jit(main)/while/body/jit(_matvec_impl)/jit(shmap_body)/reduce_scatter"}
  ROOT %add.1324 = c128[] add(%Arg_0.1322, %Arg_1.1323), metadata={op_name="jit(_full_run)/jit(main)/while/body/jit(_matvec_impl)/jit(shmap_body)/add" source_file="/global/homes/j/jackm/software/lorrax_C/src/bse/bse_ring_comm.py" source_line=298}
}

%scalar_add_computation (scalar_lhs: c128[], scalar_rhs: c128[]) -> c128[] {
  %scalar_lhs = c128[] parameter(0)
  %scalar_rhs = c128[] parameter(1)
  ROOT %add.567 = c128[] add(%scalar_lhs, %scalar_rhs)
}

%region_11.1504 (arg_tuple.1505: (s64[], c128[1024], s64[], s64[], c128[1024,200])) -> (s64[], c128[1024], s64[], s64[], c128[1024,200]) {
  %constant.1513 = s64[] constant(0)
  %arg_tuple.1505 = (s64[], c128[1024]{0}, s64[], s64[], c128[1024,200]{1,0}) parameter(0)
  %get-tuple-element.1506 = s64[] get-tuple-element(%arg_tuple.1505), index=0
  %constant.1514 = s64[] constant(1)
  %add.1515 = s64[] add(%get-tuple-element.1506, %constant.1514), metadata={op_name="jit(_full_run)/jit(main)/while/body/while/body/add" source_file="/global/homes/j/jackm/software/lorrax_C/src/solvers/lanczos.py" source_line=275}
  %get-tuple-element.1507 = c128[1024]{0} get-tuple-element(%arg_tuple.1505), index=1
  %get-tuple-element.1509 = s64[] get-tuple-element(%arg_tuple.1505), index=3
  %compare.1516 = pred[] compare(%get-tuple-element.1506, %get-tuple-element.1509), direction=LT, metadata={op_name="jit(_full_run)/jit(main)/while/body/while/body/lt" source_file="/global/homes/j/jackm/software/lorrax_C/src/solvers/lanczos.py" source_line=269}
  %get-tuple-element.1510 = c128[1024,200]{1,0} get-tuple-element(%arg_tuple.1505), index=4
  %constant.1079 = s64[] constant(0)
  %constant.1078 = s64[] constant(0)
  %compare.1517 = pred[] compare(%get-tuple-element.1506, %constant.1078), direction=LT, metadata={op_name="jit(_full_run)/jit(main)/while/body/while/body/lt" source_file="/global/homes/j/jackm/software/lorrax_C/src/solvers/lanczos.py" source_line=270}
  %constant.1512 = s64[] constant(200)
  %add.1518 = s64[] add(%get-tuple-element.1506, %constant.1512), metadata={op_name="jit(_full_run)/jit(main)/while/body/while/body/add" source_file="/global/homes/j/jackm/software/lorrax_C/src/solvers/lanczos.py" source_line=270}
  %select.1519 = s64[] select(%compare.1517, %add.1518, %get-tuple-element.1506), metadata={op_name="jit(_full_run)/jit(main)/while/body/while/body/select_n" source_file="/global/homes/j/jackm/software/lorrax_C/src/solvers/lanczos.py" source_line=270}
  %dynamic-slice.1520 = c128[1024,1]{1,0} dynamic-slice(%get-tuple-element.1510, %constant.1079, %select.1519), dynamic_slice_sizes={1024,1}, metadata={op_name="jit(_full_run)/jit(main)/while/body/while/body/dynamic_slice" source_file="/global/homes/j/jackm/software/lorrax_C/src/solvers/lanczos.py" source_line=270}
  %real.41 = f64[1024,1]{1,0} real(%dynamic-slice.1520), metadata={op_name="jit(_full_run)/jit(main)/while/body/while/body/real" source_file="/global/homes/j/jackm/software/lorrax_C/src/solvers/lanczos.py" source_line=271}
  %imag.32 = f64[1024,1]{1,0} imag(%dynamic-slice.1520), metadata={op_name="jit(_full_run)/jit(main)/while/body/while/body/imag" source_file="/global/homes/j/jackm/software/lorrax_C/src/solvers/lanczos.py" source_line=271}
  %negate.55 = f64[1024,1]{1,0} negate(%imag.32), metadata={op_name="jit(_full_run)/jit(main)/while/body/while/body/neg" source_file="/global/homes/j/jackm/software/lorrax_C/src/solvers/lanczos.py" source_line=271}
  %complex.39 = c128[1024,1]{1,0} complex(%real.41, %negate.55), metadata={op_name="jit(_full_run)/jit(main)/while/body/while/body/complex" source_file="/global/homes/j/jackm/software/lorrax_C/src/solvers/lanczos.py" source_line=271}
  %reshape.472 = c128[1024]{0} reshape(%complex.39), metadata={op_name="jit(_full_run)/jit(main)/while/body/while/body/complex" source_file="/global/homes/j/jackm/software/lorrax_C/src/solvers/lanczos.py" source_line=271}
  %multiply.130 = c128[1024]{0} multiply(%reshape.472, %get-tuple-element.1507)
  %constant.647 = c128[] constant((0, 0))
  %reduce.6 = c128[] reduce(%multiply.130, %constant.647), dimensions={0}, to_apply=%scalar_add_computation, metadata={op_name="jit(_full_run)/jit(main)/while/body/while/body/dot_general" source_file="/global/homes/j/jackm/software/lorrax_C/src/solvers/lanczos.py" source_line=271}
  %constant.1511 = c128[] constant((0, 0))
  %select.101 = c128[] select(%compare.1516, %reduce.6, %constant.1511), metadata={op_name="jit(_full_run)/jit(main)/while/body/while/body/jit(_where)/select_n" source_file="/global/homes/j/jackm/software/lorrax_C/src/solvers/lanczos.py" source_line=271}
  %broadcast.1050 = c128[1024,1]{1,0} broadcast(%select.101), dimensions={}, metadata={op_name="jit(_full_run)/jit(main)/while/body/while/body/mul" source_file="/global/homes/j/jackm/software/lorrax_C/src/solvers/lanczos.py" source_line=272}
  %multiply.163 = c128[1024,1]{1,0} multiply(%broadcast.1050, %dynamic-slice.1520), metadata={op_name="jit(_full_run)/jit(main)/while/body/while/body/mul" source_file="/global/homes/j/jackm/software/lorrax_C/src/solvers/lanczos.py" source_line=272}
  %reshape.340 = c128[1024]{0} reshape(%multiply.163), metadata={op_name="jit(_full_run)/jit(main)/while/body/while/body/mul" source_file="/global/homes/j/jackm/software/lorrax_C/src/solvers/lanczos.py" source_line=272}
  %subtract.1530 = c128[1024]{0} subtract(%get-tuple-element.1507, %reshape.340), metadata={op_name="jit(_full_run)/jit(main)/while/body/while/body/sub" source_file="/global/homes/j/jackm/software/lorrax_C/src/solvers/lanczos.py" source_line=272}
  %get-tuple-element.1508 = s64[] get-tuple-element(%arg_tuple.1505), index=2
  ROOT %tuple.1531 = (s64[], c128[1024]{0}, s64[], s64[], c128[1024,200]{1,0}) tuple(%add.1515, %subtract.1530, %get-tuple-element.1508, %get-tuple-element.1509, %get-tuple-element.1510)
}

%region_12.1532 (arg_tuple.1533: (s64[], c128[1024], s64[], s64[], c128[1024,200])) -> pred[] {
  %arg_tuple.1533 = (s64[], c128[1024]{0}, s64[], s64[], c128[1024,200]{1,0}) parameter(0)
  %get-tuple-element.1534 = s64[] get-tuple-element(%arg_tuple.1533), index=0
  %get-tuple-element.1536 = s64[] get-tuple-element(%arg_tuple.1533), index=2
  ROOT %compare.1539 = pred[] compare(%get-tuple-element.1534, %get-tuple-element.1536), direction=LT, metadata={op_name="jit(_full_run)/jit(main)/while/body/while/cond/lt" source_file="/global/homes/j/jackm/software/lorrax_C/src/solvers/lanczos.py" source_line=275}
}

%region_13.1540 (Arg_0.1541: f64[], Arg_1.1542: f64[]) -> f64[] {
  %Arg_0.1541 = f64[] parameter(0), metadata={op_name="jit(_full_run)/jit(main)/while/body/jit(norm)/reduce_sum"}
  %Arg_1.1542 = f64[] parameter(1), metadata={op_name="jit(_full_run)/jit(main)/while/body/jit(norm)/reduce_sum"}
  ROOT %add.1543 = f64[] add(%Arg_0.1541, %Arg_1.1542), metadata={op_name="jit(_full_run)/jit(main)/while/body/jit(norm)/reduce_sum" source_file="/global/homes/j/jackm/software/lorrax_C/src/solvers/lanczos.py" source_line=277}
}

%and.reduce_sub_computation (lhs: pred[], rhs: pred[]) -> pred[] {
  %lhs = pred[] parameter(0)
  %rhs = pred[] parameter(1)
  ROOT %and.4 = pred[] and(%lhs, %rhs)
}

%region_3.1259.clone.clone.clone.1 (arg_tuple.11: (s64[], c128[1,2,2,64], c128[1,2,240,64], s32[], c128[64,4,2,240], /*index=5*/c128[64,2,2,240])) -> (s64[], c128[1,2,2,64], c128[1,2,240,64], s32[], c128[64,4,2,240], /*index=5*/c128[64,2,2,240]) {
  %arg_tuple.11 = (s64[], c128[1,2,2,64]{3,2,1,0}, c128[1,2,240,64]{3,2,1,0}, s32[], c128[64,4,2,240]{3,2,1,0}, /*index=5*/c128[64,2,2,240]{3,2,1,0}) parameter(0)
  %get-tuple-element.392 = s64[] get-tuple-element(%arg_tuple.11), index=0
  %constant.1068 = s64[] constant(1)
  %add.687 = s64[] add(%get-tuple-element.392, %constant.1068), metadata={op_name="jit(_full_run)/jit(main)/while/body/jit(_matvec_impl)/jit(shmap_body)/while/body/add" source_file="/global/homes/j/jackm/software/lorrax_C/src/bse/bse_ring_comm.py" source_line=274}
  %get-tuple-element.390 = c128[1,2,2,64]{3,2,1,0} get-tuple-element(%arg_tuple.11), index=1
  %collective-permute.5 = c128[1,2,2,64]{3,2,1,0} collective-permute(%get-tuple-element.390), channel_id=1, source_target_pairs={{0,1},{1,0},{2,3},{3,2}}, metadata={op_name="jit(_full_run)/jit(main)/while/body/jit(_matvec_impl)/jit(shmap_body)/while/body/ppermute" source_file="/global/homes/j/jackm/software/lorrax_C/src/bse/bse_ring_comm.py" source_line=271}
  %get-tuple-element.389 = c128[1,2,240,64]{3,2,1,0} get-tuple-element(%arg_tuple.11), index=2
  %reshape.490 = c128[2,2,64]{2,1,0} reshape(%get-tuple-element.390)
  %get-tuple-element.387 = c128[64,4,2,240]{3,2,1,0} get-tuple-element(%arg_tuple.11), index=4
  %constant.1069 = s32[] constant(0), metadata={op_name="jit(_full_run)/jit(main)/while/body/jit(_matvec_impl)/jit(shmap_body)/while/body/select_n" source_file="/global/homes/j/jackm/software/lorrax_C/src/bse/bse_ring_comm.py" source_line=266}
  %get-tuple-element.388 = s32[] get-tuple-element(%arg_tuple.11), index=3
  %get-tuple-element.391 = s64[] get-tuple-element(%arg_tuple.11), index=0
  %convert.93 = s32[] convert(%get-tuple-element.391), metadata={op_name="jit(_full_run)/jit(main)/while/body/jit(_matvec_impl)/jit(shmap_body)/while/body/convert_element_type" source_file="/global/homes/j/jackm/software/lorrax_C/src/bse/bse_ring_comm.py" source_line=264}
  %subtract.46 = s32[] subtract(%get-tuple-element.388, %convert.93), metadata={op_name="jit(_full_run)/jit(main)/while/body/jit(_matvec_impl)/jit(shmap_body)/while/body/sub" source_file="/global/homes/j/jackm/software/lorrax_C/src/bse/bse_ring_comm.py" source_line=264}
  %constant.1076 = s32[] constant(0)
  %compare.130 = pred[] compare(%subtract.46, %constant.1076), direction=LT, metadata={op_name="jit(_full_run)/jit(main)/while/body/jit(_matvec_impl)/jit(shmap_body)/while/body/jit(remainder)/rem" source_file="/global/homes/j/jackm/software/lorrax_C/src/bse/bse_ring_comm.py" source_line=264}
  %negate.67 = s32[] negate(%subtract.46), metadata={op_name="jit(_full_run)/jit(main)/while/body/jit(_matvec_impl)/jit(shmap_body)/while/body/jit(remainder)/rem" source_file="/global/homes/j/jackm/software/lorrax_C/src/bse/bse_ring_comm.py" source_line=264}
  %select.264 = s32[] select(%compare.130, %negate.67, %subtract.46), metadata={op_name="jit(_full_run)/jit(main)/while/body/jit(_matvec_impl)/jit(shmap_body)/while/body/jit(remainder)/rem" source_file="/global/homes/j/jackm/software/lorrax_C/src/bse/bse_ring_comm.py" source_line=264}
  %constant.1077 = s32[] constant(1), metadata={op_name="jit(_full_run)/jit(main)/while/body/jit(_matvec_impl)/jit(shmap_body)/while/body/jit(remainder)/rem" source_file="/global/homes/j/jackm/software/lorrax_C/src/bse/bse_ring_comm.py" source_line=264}
  %and.39 = s32[] and(%select.264, %constant.1077), metadata={op_name="jit(_full_run)/jit(main)/while/body/jit(_matvec_impl)/jit(shmap_body)/while/body/jit(remainder)/rem" source_file="/global/homes/j/jackm/software/lorrax_C/src/bse/bse_ring_comm.py" source_line=264}
  %negate.68 = s32[] negate(%and.39), metadata={op_name="jit(_full_run)/jit(main)/while/body/jit(_matvec_impl)/jit(shmap_body)/while/body/jit(remainder)/rem" source_file="/global/homes/j/jackm/software/lorrax_C/src/bse/bse_ring_comm.py" source_line=264}
  %select.265 = s32[] select(%compare.130, %negate.68, %and.39), metadata={op_name="jit(_full_run)/jit(main)/while/body/jit(_matvec_impl)/jit(shmap_body)/while/body/jit(remainder)/rem" source_file="/global/homes/j/jackm/software/lorrax_C/src/bse/bse_ring_comm.py" source_line=264}
  %constant.1121 = s32[] constant(0)
  %compare.127 = pred[] compare(%select.265, %constant.1121), direction=LT, metadata={op_name="jit(_full_run)/jit(main)/while/body/jit(_matvec_impl)/jit(shmap_body)/while/body/jit(remainder)/lt" source_file="/global/homes/j/jackm/software/lorrax_C/src/bse/bse_ring_comm.py" source_line=264}
  %constant.1120 = s32[] constant(0)
  %compare.128 = pred[] compare(%select.265, %constant.1120), direction=NE, metadata={op_name="jit(_full_run)/jit(main)/while/body/jit(_matvec_impl)/jit(shmap_body)/while/body/jit(remainder)/ne" source_file="/global/homes/j/jackm/software/lorrax_C/src/bse/bse_ring_comm.py" source_line=264}
  %and.38 = pred[] and(%compare.127, %compare.128), metadata={op_name="jit(_full_run)/jit(main)/while/body/jit(_matvec_impl)/jit(shmap_body)/while/body/jit(remainder)/and" source_file="/global/homes/j/jackm/software/lorrax_C/src/bse/bse_ring_comm.py" source_line=264}
  %constant.1075 = s32[] constant(2), metadata={op_name="jit(_full_run)/jit(main)/while/body/jit(_matvec_impl)/jit(shmap_body)/while/body/jit(remainder)/jit(_where)/select_n" source_file="/global/homes/j/jackm/software/lorrax_C/src/bse/bse_ring_comm.py" source_line=264}
  %add.688 = s32[] add(%select.265, %constant.1075), metadata={op_name="jit(_full_run)/jit(main)/while/body/jit(_matvec_impl)/jit(shmap_body)/while/body/jit(remainder)/add" source_file="/global/homes/j/jackm/software/lorrax_C/src/bse/bse_ring_comm.py" source_line=264}
  %select.262 = s32[] select(%and.38, %add.688, %select.265), metadata={op_name="jit(_full_run)/jit(main)/while/body/jit(_matvec_impl)/jit(shmap_body)/while/body/jit(remainder)/select_n" source_file="/global/homes/j/jackm/software/lorrax_C/src/bse/bse_ring_comm.py" source_line=264}
  %constant.1072 = s32[] constant(2), metadata={op_name="jit(_full_run)/jit(main)/while/body/jit(_matvec_impl)/jit(shmap_body)/while/body/add" source_file="/global/homes/j/jackm/software/lorrax_C/src/bse/bse_ring_comm.py" source_line=266}
  %multiply.187 = s32[] multiply(%select.262, %constant.1072), metadata={op_name="jit(_full_run)/jit(main)/while/body/jit(_matvec_impl)/jit(shmap_body)/while/body/mul" source_file="/global/homes/j/jackm/software/lorrax_C/src/bse/bse_ring_comm.py" source_line=265}
  %constant.1070 = s32[] constant(0)
  %compare.129 = pred[] compare(%multiply.187, %constant.1070), direction=LT, metadata={op_name="jit(_full_run)/jit(main)/while/body/jit(_matvec_impl)/jit(shmap_body)/while/body/lt" source_file="/global/homes/j/jackm/software/lorrax_C/src/bse/bse_ring_comm.py" source_line=266}
  %constant.1073 = s32[] constant(4)
  %add.689 = s32[] add(%multiply.187, %constant.1073), metadata={op_name="jit(_full_run)/jit(main)/while/body/jit(_matvec_impl)/jit(shmap_body)/while/body/add" source_file="/global/homes/j/jackm/software/lorrax_C/src/bse/bse_ring_comm.py" source_line=266}
  %select.263 = s32[] select(%compare.129, %add.689, %multiply.187), metadata={op_name="jit(_full_run)/jit(main)/while/body/jit(_matvec_impl)/jit(shmap_body)/while/body/select_n" source_file="/global/homes/j/jackm/software/lorrax_C/src/bse/bse_ring_comm.py" source_line=266}
  %dynamic-slice.71 = c128[64,2,2,240]{3,2,1,0} dynamic-slice(%get-tuple-element.387, %constant.1069, %select.263, %constant.1069, %constant.1069), dynamic_slice_sizes={64,2,2,240}, metadata={op_name="jit(_full_run)/jit(main)/while/body/jit(_matvec_impl)/jit(shmap_body)/while/body/dynamic_slice" source_file="/global/homes/j/jackm/software/lorrax_C/src/bse/bse_ring_comm.py" source_line=266}
  %dot.55 = c128[64,2,2,240]{3,2,1,0} dot(%reshape.490, %dynamic-slice.71), lhs_batch_dims={2}, lhs_contracting_dims={1}, rhs_batch_dims={0}, rhs_contracting_dims={1}, metadata={op_name="jit(_full_run)/jit(main)/while/body/jit(_matvec_impl)/jit(shmap_body)/while/body/kvsN,bcvk->bcksN/dot_general" source_file="/global/homes/j/jackm/software/lorrax_C/src/bse/bse_ring_comm.py" source_line=269}
  %reshape.491 = c128[64,1,2,2,240]{4,3,2,1,0} reshape(%dot.55), metadata={op_name="jit(_full_run)/jit(main)/while/body/jit(_matvec_impl)/jit(shmap_body)/while/body/kvsN,bcvk->bcksN/dot_general" source_file="/global/homes/j/jackm/software/lorrax_C/src/bse/bse_ring_comm.py" source_line=269}
  %transpose.99 = c128[2,240,64,1,2]{1,4,0,3,2} transpose(%reshape.491), dimensions={2,4,0,1,3}, metadata={op_name="jit(_full_run)/jit(main)/while/body/jit(_matvec_impl)/jit(shmap_body)/while/body/kvsN,bcvk->bcksN/transpose" source_file="/global/homes/j/jackm/software/lorrax_C/src/bse/bse_ring_comm.py" source_line=269}
  %get-tuple-element.386 = c128[64,2,2,240]{3,2,1,0} get-tuple-element(%arg_tuple.11), index=5
  %real.52 = f64[64,2,2,240]{3,2,1,0} real(%get-tuple-element.386), metadata={op_name="jit(_full_run)/jit(main)/while/body/jit(_matvec_impl)/jit(shmap_body)/while/body/real" source_file="/global/homes/j/jackm/software/lorrax_C/src/bse/bse_ring_comm.py" source_line=270}
  %imag.41 = f64[64,2,2,240]{3,2,1,0} imag(%get-tuple-element.386), metadata={op_name="jit(_full_run)/jit(main)/while/body/jit(_matvec_impl)/jit(shmap_body)/while/body/imag" source_file="/global/homes/j/jackm/software/lorrax_C/src/bse/bse_ring_comm.py" source_line=270}
  %negate.66 = f64[64,2,2,240]{3,2,1,0} negate(%imag.41), metadata={op_name="jit(_full_run)/jit(main)/while/body/jit(_matvec_impl)/jit(shmap_body)/while/body/neg" source_file="/global/homes/j/jackm/software/lorrax_C/src/bse/bse_ring_comm.py" source_line=270}
  %complex.41 = c128[64,2,2,240]{3,2,1,0} complex(%real.52, %negate.66), metadata={op_name="jit(_full_run)/jit(main)/while/body/jit(_matvec_impl)/jit(shmap_body)/while/body/complex" source_file="/global/homes/j/jackm/software/lorrax_C/src/bse/bse_ring_comm.py" source_line=270}
  %transpose.98 = c128[2,240,64,2]{1,3,0,2} transpose(%complex.41), dimensions={1,3,0,2}, metadata={op_name="jit(_full_run)/jit(main)/while/body/jit(_matvec_impl)/jit(shmap_body)/while/body/complex" source_file="/global/homes/j/jackm/software/lorrax_C/src/bse/bse_ring_comm.py" source_line=270}
  %reshape.492 = c128[2,240,64,1,2]{1,4,0,3,2} reshape(%transpose.98), metadata={op_name="jit(_full_run)/jit(main)/while/body/jit(_matvec_impl)/jit(shmap_body)/while/body/kcsN,bcksN->bcNk/dot_general" source_file="/global/homes/j/jackm/software/lorrax_C/src/bse/bse_ring_comm.py" source_line=270}
  %multiply.188 = c128[2,240,64,1,2]{1,4,0,3,2} multiply(%transpose.99, %reshape.492)
  %constant.1074 = c128[] constant((0, 0))
  %reduce.34 = c128[2,240,64,1]{1,0,3,2} reduce(%multiply.188, %constant.1074), dimensions={4}, to_apply=%scalar_add_computation, metadata={op_name="jit(_full_run)/jit(main)/while/body/jit(_matvec_impl)/jit(shmap_body)/while/body/kcsN,bcksN->bcNk/dot_general" source_file="/global/homes/j/jackm/software/lorrax_C/src/bse/bse_ring_comm.py" source_line=270}
  %reshape.489 = c128[1,2,240,64]{3,2,1,0} reshape(%reduce.34), metadata={op_name="jit(_full_run)/jit(main)/while/body/jit(_matvec_impl)/jit(shmap_body)/while/body/kcsN,bcksN->bcNk/transpose" source_file="/global/homes/j/jackm/software/lorrax_C/src/bse/bse_ring_comm.py" source_line=270}
  %add.690 = c128[1,2,240,64]{3,2,1,0} add(%get-tuple-element.389, %reshape.489), metadata={op_name="jit(_full_run)/jit(main)/while/body/jit(_matvec_impl)/jit(shmap_body)/while/body/add" source_file="/global/homes/j/jackm/software/lorrax_C/src/bse/bse_ring_comm.py" source_line=270}
  ROOT %tuple.89 = (s64[], c128[1,2,2,64]{3,2,1,0}, c128[1,2,240,64]{3,2,1,0}, s32[], c128[64,4,2,240]{3,2,1,0}, /*index=5*/c128[64,2,2,240]{3,2,1,0}) tuple(%add.687, %collective-permute.5, %add.690, %get-tuple-element.388, %get-tuple-element.387, /*index=5*/%get-tuple-element.386)
  %constant.1071 = s32[] constant(0)
}

%region_4.1276.clone.clone.1 (arg_tuple.10: (s64[], c128[1,2,2,64], c128[1,2,240,64], s32[], c128[64,4,2,240], /*index=5*/c128[64,2,2,240])) -> pred[] {
  %arg_tuple.10 = (s64[], c128[1,2,2,64]{3,2,1,0}, c128[1,2,240,64]{3,2,1,0}, s32[], c128[64,4,2,240]{3,2,1,0}, /*index=5*/c128[64,2,2,240]{3,2,1,0}) parameter(0)
  %get-tuple-element.385 = s64[] get-tuple-element(%arg_tuple.10), index=0
  %constant.1067 = s64[] constant(2)
  ROOT %compare.126 = pred[] compare(%get-tuple-element.385, %constant.1067), direction=LT, metadata={op_name="jit(_full_run)/jit(main)/while/body/jit(_matvec_impl)/jit(shmap_body)/while/cond/lt" source_file="/global/homes/j/jackm/software/lorrax_C/src/bse/bse_ring_comm.py" source_line=274}
}

%scalar_add_computation.1 (scalar_lhs.1: c128[], scalar_rhs.1: c128[]) -> c128[] {
  %scalar_lhs.1 = c128[] parameter(0)
  %scalar_rhs.1 = c128[] parameter(1)
  ROOT %add.655 = c128[] add(%scalar_lhs.1, %scalar_rhs.1)
}

%region_2.1649.clone.clone.clone (arg_tuple.7: (s64[], c128[1024,200], f64[200], f64[200], c128[1024], /*index=5*/c128[64,4,2,480], c128[64,4,2,480], c128[64,4,2,480], c128[64,4,2,480], f64[64,4], /*index=10*/f64[64,4], c128[480,480,4,4,4], c128[480,480])) -> (s64[], c128[1024,200], f64[200], f64[200], c128[1024], /*index=5*/c128[64,4,2,480], c128[64,4,2,480], c128[64,4,2,480], c128[64,4,2,480], f64[64,4], /*index=10*/f64[64,4], c128[480,480,4,4,4], c128[480,480]) {
  %arg_tuple.7 = (s64[], c128[1024,200]{1,0}, f64[200]{0}, f64[200]{0}, c128[1024]{0}, /*index=5*/c128[64,4,2,480]{3,2,1,0}, c128[64,4,2,480]{3,2,1,0}, c128[64,4,2,480]{3,2,1,0}, c128[64,4,2,480]{3,2,1,0}, f64[64,4]{1,0}, /*index=10*/f64[64,4]{1,0}, c128[480,480,4,4,4]{4,3,2,1,0}, c128[480,480]{1,0}) parameter(0)
  %get-tuple-element.343 = s64[] get-tuple-element(%arg_tuple.7), index=0
  %constant.1002 = s64[] constant(1)
  %add.668 = s64[] add(%get-tuple-element.343, %constant.1002), metadata={op_name="jit(_full_run)/jit(main)/while/body/add" source_file="/global/homes/j/jackm/software/lorrax_C/src/solvers/lanczos.py" source_line=286}
  %get-tuple-element.341 = c128[1024,200]{1,0} get-tuple-element(%arg_tuple.7), index=1
  %constant.1038 = s32[] constant(0)
  %broadcast.1095 = s32[2]{0} broadcast(%constant.1038), dimensions={}
  %constant.1039 = s32[1]{0} constant({0})
  %get-tuple-element.342 = s64[] get-tuple-element(%arg_tuple.7), index=0
  %constant.1097 = s64[] constant(1)
  %add.675 = s64[] add(%get-tuple-element.342, %constant.1097), metadata={op_name="jit(_full_run)/jit(main)/while/body/add" source_file="/global/homes/j/jackm/software/lorrax_C/src/solvers/lanczos.py" source_line=281}
  %constant.1024 = s64[] constant(199)
  %minimum.3 = s64[] minimum(%add.675, %constant.1024), metadata={op_name="jit(_full_run)/jit(main)/while/body/min" source_file="/global/homes/j/jackm/software/lorrax_C/src/solvers/lanczos.py" source_line=281}
  %constant.1105 = s64[] constant(0)
  %compare.112 = pred[] compare(%minimum.3, %constant.1105), direction=LT, metadata={op_name="jit(_full_run)/jit(main)/while/body/lt" source_file="/global/homes/j/jackm/software/lorrax_C/src/solvers/lanczos.py" source_line=281}
  %constant.1109 = s64[] constant(200)
  %add.676 = s64[] add(%minimum.3, %constant.1109), metadata={op_name="jit(_full_run)/jit(main)/while/body/add" source_file="/global/homes/j/jackm/software/lorrax_C/src/solvers/lanczos.py" source_line=281}
  %select.252 = s64[] select(%compare.112, %add.676, %minimum.3), metadata={op_name="jit(_full_run)/jit(main)/while/body/select_n" source_file="/global/homes/j/jackm/software/lorrax_C/src/solvers/lanczos.py" source_line=281}
  %convert.87 = s32[] convert(%select.252), metadata={op_name="jit(_full_run)/jit(main)/while/body/convert_element_type" source_file="/global/homes/j/jackm/software/lorrax_C/src/solvers/lanczos.py" source_line=281}
  %reshape.445 = s32[1]{0} reshape(%convert.87), metadata={op_name="jit(_full_run)/jit(main)/while/body/broadcast_in_dim" source_file="/global/homes/j/jackm/software/lorrax_C/src/solvers/lanczos.py" source_line=281}
  %concatenate.15 = s32[2]{0} concatenate(%constant.1039, %reshape.445), dimensions={0}
  %compare.115 = pred[2]{0} compare(%broadcast.1095, %concatenate.15), direction=LE
  %iota.20 = s32[2]{0} iota(), iota_dimension=0
  %constant.1042 = s32[] constant(199)
  %broadcast.1102 = s32[2]{0} broadcast(%constant.1042), dimensions={}
  %multiply.181 = s32[2]{0} multiply(%iota.20, %broadcast.1102)
  %compare.116 = pred[2]{0} compare(%multiply.181, %concatenate.15), direction=GE
  %and.31 = pred[2]{0} and(%compare.115, %compare.116)
  %constant.1040 = pred[] constant(true)
  %reduce.31 = pred[] reduce(%and.31, %constant.1040), dimensions={0}, to_apply=%and.reduce_sub_computation
  %broadcast.1096 = pred[1024,1]{1,0} broadcast(%reduce.31), dimensions={}
  %constant.1045 = s64[] constant(-10)
  %add.679 = s64[] add(%get-tuple-element.342, %constant.1045), metadata={op_name="jit(_full_run)/jit(main)/while/body/sub" source_file="/global/homes/j/jackm/software/lorrax_C/src/solvers/lanczos.py" source_line=274}
  %constant.1099 = s64[] constant(0)
  %maximum.16 = s64[] maximum(%add.679, %constant.1099), metadata={op_name="jit(_full_run)/jit(main)/while/body/max" source_file="/global/homes/j/jackm/software/lorrax_C/src/solvers/lanczos.py" source_line=274}
  %get-tuple-element.333 = f64[64,4]{1,0} get-tuple-element(%arg_tuple.7), index=9
  %custom-call.210 = f64[64,4]{1,0} custom-call(%get-tuple-element.333), custom_call_target="Sharding", sharding={replicated}, metadata={op_name="jit(_full_run)/jit(main)/while/body/pjit" source_file="/global/homes/j/jackm/software/lorrax_C/src/bse/bse_lanczos.py" source_line=193}
  %custom-call.211 = f64[64,4]{1,0} custom-call(%custom-call.210), custom_call_target="Sharding", sharding={replicated}, metadata={op_name="jit(_full_run)/jit(main)/while/body/jit(_matvec_impl)/pjit" source_file="/global/homes/j/jackm/software/lorrax_C/src/bse/bse_ring_comm.py" source_line=444}
  %transpose.80 = f64[4,64]{0,1} transpose(%custom-call.211), dimensions={1,0}, metadata={op_name="jit(_full_run)/jit(main)/while/body/jit(_matvec_impl)/jit(_apply_D_term)/transpose" source_file="/global/homes/j/jackm/software/lorrax_C/src/bse/bse_ring_comm.py" source_line=434}
  %broadcast.1097 = f64[1,4,4,64]{3,2,1,0} broadcast(%transpose.80), dimensions={1,3}, metadata={op_name="jit(_full_run)/jit(main)/while/body/jit(_matvec_impl)/jit(_apply_D_term)/sub" source_file="/global/homes/j/jackm/software/lorrax_C/src/bse/bse_ring_comm.py" source_line=434}
  %get-tuple-element.332 = f64[64,4]{1,0} get-tuple-element(%arg_tuple.7), index=10
  %custom-call.212 = f64[64,4]{1,0} custom-call(%get-tuple-element.332), custom_call_target="Sharding", sharding={replicated}, metadata={op_name="jit(_full_run)/jit(main)/while/body/pjit" source_file="/global/homes/j/jackm/software/lorrax_C/src/bse/bse_lanczos.py" source_line=193}
  %custom-call.213 = f64[64,4]{1,0} custom-call(%custom-call.212), custom_call_target="Sharding", sharding={replicated}, metadata={op_name="jit(_full_run)/jit(main)/while/body/jit(_matvec_impl)/pjit" source_file="/global/homes/j/jackm/software/lorrax_C/src/bse/bse_ring_comm.py" source_line=444}
  %transpose.81 = f64[4,64]{0,1} transpose(%custom-call.213), dimensions={1,0}, metadata={op_name="jit(_full_run)/jit(main)/while/body/jit(_matvec_impl)/jit(_apply_D_term)/transpose" source_file="/global/homes/j/jackm/software/lorrax_C/src/bse/bse_ring_comm.py" source_line=434}
  %broadcast.1098 = f64[1,4,4,64]{3,2,1,0} broadcast(%transpose.81), dimensions={2,3}, metadata={op_name="jit(_full_run)/jit(main)/while/body/jit(_matvec_impl)/jit(_apply_D_term)/sub" source_file="/global/homes/j/jackm/software/lorrax_C/src/bse/bse_ring_comm.py" source_line=434}
  %subtract.41 = f64[1,4,4,64]{3,2,1,0} subtract(%broadcast.1097, %broadcast.1098), metadata={op_name="jit(_full_run)/jit(main)/while/body/jit(_matvec_impl)/jit(_apply_D_term)/sub" source_file="/global/homes/j/jackm/software/lorrax_C/src/bse/bse_ring_comm.py" source_line=434}
  %convert.82 = c128[1,4,4,64]{3,2,1,0} convert(%subtract.41), metadata={op_name="jit(_full_run)/jit(main)/while/body/jit(_matvec_impl)/jit(_apply_D_term)/convert_element_type" source_file="/global/homes/j/jackm/software/lorrax_C/src/bse/bse_ring_comm.py" source_line=435}
  %get-tuple-element.338 = c128[1024]{0} get-tuple-element(%arg_tuple.7), index=4
  %reshape.441 = c128[1,4,4,64]{3,2,1,0} reshape(%get-tuple-element.338), metadata={op_name="jit(_full_run)/jit(main)/while/body/reshape" source_file="/global/homes/j/jackm/software/lorrax_C/src/bse/bse_lanczos.py" source_line=191}
  %custom-call.214 = c128[1,4,4,64]{3,2,1,0} custom-call(%reshape.441), custom_call_target="Sharding", sharding={devices=[1,2,2,1]<=[4]}, metadata={op_name="jit(_full_run)/jit(main)/while/body/sharding_constraint" source_file="/global/homes/j/jackm/software/lorrax_C/src/bse/bse_lanczos.py" source_line=192}
  %custom-call.215 = c128[1,4,4,64]{3,2,1,0} custom-call(%custom-call.214), custom_call_target="Sharding", sharding={devices=[1,2,2,1]<=[4]}, metadata={op_name="jit(_full_run)/jit(main)/while/body/pjit" source_file="/global/homes/j/jackm/software/lorrax_C/src/bse/bse_lanczos.py" source_line=193}
  %custom-call.216 = c128[1,4,4,64]{3,2,1,0} custom-call(%custom-call.215), custom_call_target="Sharding", sharding={devices=[1,2,2,1]<=[4]}, metadata={op_name="jit(_full_run)/jit(main)/while/body/jit(_matvec_impl)/pjit" source_file="/global/homes/j/jackm/software/lorrax_C/src/bse/bse_ring_comm.py" source_line=444}
  %multiply.172 = c128[1,4,4,64]{3,2,1,0} multiply(%convert.82, %custom-call.216), metadata={op_name="jit(_full_run)/jit(main)/while/body/jit(_matvec_impl)/jit(_apply_D_term)/mul" source_file="/global/homes/j/jackm/software/lorrax_C/src/bse/bse_ring_comm.py" source_line=435}
  %custom-call.217 = c128[1,4,4,64]{3,2,1,0} custom-call(%multiply.172), custom_call_target="Sharding", sharding={devices=[1,2,2,1]<=[4]}, metadata={op_name="jit(_full_run)/jit(main)/while/body/jit(_matvec_impl)/pjit" source_file="/global/homes/j/jackm/software/lorrax_C/src/bse/bse_ring_comm.py" source_line=444}
  %constant.1111 = s64[] constant(0)
  %constant.1110 = s64[] constant(0)
  %custom-call.218 = c128[1,4,4,64]{3,2,1,0} custom-call(%custom-call.215), custom_call_target="Sharding", sharding={devices=[1,2,2,1]<=[4]}, metadata={op_name="jit(_full_run)/jit(main)/while/body/jit(_matvec_impl)/shard_map" source_file="/global/homes/j/jackm/software/lorrax_C/src/bse/bse_ring_comm.py" source_line=445}
  %custom-call.219 = c128[1,2,2,64]{3,2,1,0} custom-call(%custom-call.218), custom_call_target="SPMDFullToShardShape", sharding={manual}, metadata={op_name="jit(_full_run)/jit(main)/while/body/jit(_matvec_impl)/shard_map" source_file="/global/homes/j/jackm/software/lorrax_C/src/bse/bse_ring_comm.py" source_line=445}
  %constant.1008 = c128[] constant((0, 0))
  %broadcast.1091 = c128[1,2,240,64]{3,2,1,0} broadcast(%constant.1008), dimensions={}
  %partition-id.10 = u32[] partition-id(), metadata={op_name="jit(_full_run)/jit(main)/while/body/jit(_matvec_impl)/jit(shmap_body)/axis_index" source_file="/global/homes/j/jackm/software/lorrax_C/src/bse/bse_ring_comm.py" source_line=246}
  %constant.1030 = u32[] constant(1), metadata={op_name="jit(_full_run)/jit(main)/while/body/jit(_matvec_impl)/jit(shmap_body)/axis_index" source_file="/global/homes/j/jackm/software/lorrax_C/src/bse/bse_ring_comm.py" source_line=246}
  %and.29 = u32[] and(%partition-id.10, %constant.1030), metadata={op_name="jit(_full_run)/jit(main)/while/body/jit(_matvec_impl)/jit(shmap_body)/axis_index" source_file="/global/homes/j/jackm/software/lorrax_C/src/bse/bse_ring_comm.py" source_line=246}
  %convert.83 = s32[] convert(%and.29), metadata={op_name="jit(_full_run)/jit(main)/while/body/jit(_matvec_impl)/jit(shmap_body)/axis_index" source_file="/global/homes/j/jackm/software/lorrax_C/src/bse/bse_ring_comm.py" source_line=246}
  %get-tuple-element.334 = c128[64,4,2,480]{3,2,1,0} get-tuple-element(%arg_tuple.7), index=8
  %custom-call.220 = c128[64,4,2,480]{3,2,1,0} custom-call(%get-tuple-element.334), custom_call_target="Sharding", sharding={devices=[1,1,1,2,2]<=[2,2]T(1,0) last_tile_dim_replicate}, metadata={op_name="jit(_full_run)/jit(main)/while/body/pjit" source_file="/global/homes/j/jackm/software/lorrax_C/src/bse/bse_lanczos.py" source_line=193}
  %custom-call.221 = c128[64,4,2,480]{3,2,1,0} custom-call(%custom-call.220), custom_call_target="Sharding", sharding={devices=[1,1,1,2,2]<=[2,2]T(1,0) last_tile_dim_replicate}, metadata={op_name="jit(_full_run)/jit(main)/while/body/jit(_matvec_impl)/shard_map" source_file="/global/homes/j/jackm/software/lorrax_C/src/bse/bse_ring_comm.py" source_line=445}
  %custom-call.222 = c128[64,4,2,240]{3,2,1,0} custom-call(%custom-call.221), custom_call_target="SPMDFullToShardShape", sharding={manual}, metadata={op_name="jit(_full_run)/jit(main)/while/body/jit(_matvec_impl)/shard_map" source_file="/global/homes/j/jackm/software/lorrax_C/src/bse/bse_ring_comm.py" source_line=445}
  %get-tuple-element.336 = c128[64,4,2,480]{3,2,1,0} get-tuple-element(%arg_tuple.7), index=6
  %custom-call.223 = c128[64,4,2,480]{3,2,1,0} custom-call(%get-tuple-element.336), custom_call_target="Sharding", sharding={devices=[1,1,1,2,2]<=[2,2]T(1,0) last_tile_dim_replicate}, metadata={op_name="jit(_full_run)/jit(main)/while/body/pjit" source_file="/global/homes/j/jackm/software/lorrax_C/src/bse/bse_lanczos.py" source_line=193}
  %custom-call.224 = c128[64,4,2,480]{3,2,1,0} custom-call(%custom-call.223), custom_call_target="Sharding", sharding={devices=[1,1,1,2,2]<=[2,2]T(1,0) last_tile_dim_replicate}, metadata={op_name="jit(_full_run)/jit(main)/while/body/jit(_matvec_impl)/shard_map" source_file="/global/homes/j/jackm/software/lorrax_C/src/bse/bse_ring_comm.py" source_line=445}
  %custom-call.225 = c128[64,4,2,240]{3,2,1,0} custom-call(%custom-call.224), custom_call_target="SPMDFullToShardShape", sharding={manual}, metadata={op_name="jit(_full_run)/jit(main)/while/body/jit(_matvec_impl)/shard_map" source_file="/global/homes/j/jackm/software/lorrax_C/src/bse/bse_ring_comm.py" source_line=445}
  %constant.1113 = s32[] constant(0)
  %partition-id.11 = u32[] partition-id(), metadata={op_name="jit(_full_run)/jit(main)/while/body/jit(_matvec_impl)/jit(shmap_body)/axis_index" source_file="/global/homes/j/jackm/software/lorrax_C/src/bse/bse_ring_comm.py" source_line=245}
  %constant.1032 = u32[] constant(1), metadata={op_name="jit(_full_run)/jit(main)/while/body/jit(_matvec_impl)/jit(shmap_body)/axis_index" source_file="/global/homes/j/jackm/software/lorrax_C/src/bse/bse_ring_comm.py" source_line=245}
  %shift-right-logical.238 = u32[] shift-right-logical(%partition-id.11, %constant.1032), metadata={op_name="jit(_full_run)/jit(main)/while/body/jit(_matvec_impl)/jit(shmap_body)/axis_index" source_file="/global/homes/j/jackm/software/lorrax_C/src/bse/bse_ring_comm.py" source_line=245}
  %constant.1034 = u32[] constant(1), metadata={op_name="jit(_full_run)/jit(main)/while/body/jit(_matvec_impl)/jit(shmap_body)/axis_index" source_file="/global/homes/j/jackm/software/lorrax_C/src/bse/bse_ring_comm.py" source_line=245}
  %and.30 = u32[] and(%shift-right-logical.238, %constant.1034), metadata={op_name="jit(_full_run)/jit(main)/while/body/jit(_matvec_impl)/jit(shmap_body)/axis_index" source_file="/global/homes/j/jackm/software/lorrax_C/src/bse/bse_ring_comm.py" source_line=245}
  %convert.84 = s32[] convert(%and.30), metadata={op_name="jit(_full_run)/jit(main)/while/body/jit(_matvec_impl)/jit(shmap_body)/axis_index" source_file="/global/homes/j/jackm/software/lorrax_C/src/bse/bse_ring_comm.py" source_line=245}
  %constant.1116 = s32[] constant(2)
  %multiply.173 = s32[] multiply(%convert.84, %constant.1116), metadata={op_name="jit(_full_run)/jit(main)/while/body/jit(_matvec_impl)/jit(shmap_body)/mul" source_file="/global/homes/j/jackm/software/lorrax_C/src/bse/bse_ring_comm.py" source_line=253}
  %constant.1112 = s32[] constant(0)
  %compare.108 = pred[] compare(%multiply.173, %constant.1112), direction=LT, metadata={op_name="jit(_full_run)/jit(main)/while/body/jit(_matvec_impl)/jit(shmap_body)/lt" source_file="/global/homes/j/jackm/software/lorrax_C/src/bse/bse_ring_comm.py" source_line=255}
  %constant.1118 = s32[] constant(4)
  %add.669 = s32[] add(%multiply.173, %constant.1118), metadata={op_name="jit(_full_run)/jit(main)/while/body/jit(_matvec_impl)/jit(shmap_body)/add" source_file="/global/homes/j/jackm/software/lorrax_C/src/bse/bse_ring_comm.py" source_line=255}
  %select.248 = s32[] select(%compare.108, %add.669, %multiply.173), metadata={op_name="jit(_full_run)/jit(main)/while/body/jit(_matvec_impl)/jit(shmap_body)/select_n" source_file="/global/homes/j/jackm/software/lorrax_C/src/bse/bse_ring_comm.py" source_line=255}
  %dynamic-slice.63 = c128[64,2,2,240]{3,2,1,0} dynamic-slice(%custom-call.225, %constant.1113, %select.248, %constant.1113, %constant.1113), dynamic_slice_sizes={64,2,2,240}, metadata={op_name="jit(_full_run)/jit(main)/while/body/jit(_matvec_impl)/jit(shmap_body)/dynamic_slice" source_file="/global/homes/j/jackm/software/lorrax_C/src/bse/bse_ring_comm.py" source_line=255}
  %tuple.88 = (s64[], c128[1,2,2,64]{3,2,1,0}, c128[1,2,240,64]{3,2,1,0}, s32[], c128[64,4,2,240]{3,2,1,0}, /*index=5*/c128[64,2,2,240]{3,2,1,0}) tuple(%constant.1110, %custom-call.219, %broadcast.1091, %convert.83, %custom-call.222, /*index=5*/%dynamic-slice.63)
  %while.24 = (s64[], c128[1,2,2,64]{3,2,1,0}, c128[1,2,240,64]{3,2,1,0}, s32[], c128[64,4,2,240]{3,2,1,0}, /*index=5*/c128[64,2,2,240]{3,2,1,0}) while(%tuple.88), condition=%region_4.1276.clone.clone.1, body=%region_3.1259.clone.clone.clone.1, metadata={op_name="jit(_full_run)/jit(main)/while/body/jit(_matvec_impl)/jit(shmap_body)/while" source_file="/global/homes/j/jackm/software/lorrax_C/src/bse/bse_ring_comm.py" source_line=274}
  %get-tuple-element.329 = c128[1,2,240,64]{3,2,1,0} get-tuple-element(%while.24), index=2, metadata={op_name="jit(_full_run)/jit(main)/while/body/jit(_matvec_impl)/jit(shmap_body)/while" source_file="/global/homes/j/jackm/software/lorrax_C/src/bse/bse_ring_comm.py" source_line=274}
  %constant.1016 = c128[] constant((0, 0))
  %broadcast.1092 = c128[1,240,64]{2,1,0} broadcast(%constant.1016), dimensions={}
  %tuple.82 = (s64[], c128[1,2,240,64]{3,2,1,0}, c128[1,240,64]{2,1,0}) tuple(%constant.1111, %get-tuple-element.329, %broadcast.1092), metadata={op_name="jit(_full_run)/jit(main)/while/body/jit(_matvec_impl)/jit(shmap_body)/while" source_file="/global/homes/j/jackm/software/lorrax_C/src/bse/bse_ring_comm.py" source_line=285}
  %while.19 = (s64[], c128[1,2,240,64]{3,2,1,0}, c128[1,240,64]{2,1,0}) while(%tuple.82), condition=%region_7.1310, body=%region_5.1299, metadata={op_name="jit(_full_run)/jit(main)/while/body/jit(_matvec_impl)/jit(shmap_body)/while" source_file="/global/homes/j/jackm/software/lorrax_C/src/bse/bse_ring_comm.py" source_line=285}
  %get-tuple-element.327 = c128[1,240,64]{2,1,0} get-tuple-element(%while.19), index=2, metadata={op_name="jit(_full_run)/jit(main)/while/body/jit(_matvec_impl)/jit(shmap_body)/while" source_file="/global/homes/j/jackm/software/lorrax_C/src/bse/bse_ring_comm.py" source_line=285}
  %constant.1048 = c128[] constant((0.125, 0)), metadata={op_name="jit(_full_run)/jit(main)/while/body/jit(_matvec_impl)/jit(shmap_body)/convert_element_type" source_file="/global/homes/j/jackm/software/lorrax_C/src/bse/bse_ring_comm.py" source_line=287}
  %broadcast.1103 = c128[1,240,64]{2,1,0} broadcast(%constant.1048), dimensions={}, metadata={op_name="jit(_full_run)/jit(main)/while/body/jit(_matvec_impl)/jit(shmap_body)/div" source_file="/global/homes/j/jackm/software/lorrax_C/src/bse/bse_ring_comm.py" source_line=287}
  %multiply.182 = c128[1,240,64]{2,1,0} multiply(%get-tuple-element.327, %broadcast.1103), metadata={op_name="jit(_full_run)/jit(main)/while/body/jit(_matvec_impl)/jit(shmap_body)/div" source_file="/global/homes/j/jackm/software/lorrax_C/src/bse/bse_ring_comm.py" source_line=287}
  %reshape.446 = c128[240,64]{1,0} reshape(%multiply.182)
  %get-tuple-element.330 = c128[480,480]{1,0} get-tuple-element(%arg_tuple.7), index=12
  %custom-call.226 = c128[480,480]{1,0} custom-call(%get-tuple-element.330), custom_call_target="Sharding", sharding={devices=[2,2]<=[4]}, metadata={op_name="jit(_full_run)/jit(main)/while/body/pjit" source_file="/global/homes/j/jackm/software/lorrax_C/src/bse/bse_lanczos.py" source_line=193}
  %custom-call.227 = c128[480,480]{1,0} custom-call(%custom-call.226), custom_call_target="Sharding", sharding={devices=[2,2]<=[4]}, metadata={op_name="jit(_full_run)/jit(main)/while/body/jit(_matvec_impl)/shard_map" source_file="/global/homes/j/jackm/software/lorrax_C/src/bse/bse_ring_comm.py" source_line=445}
  %custom-call.228 = c128[240,240]{1,0} custom-call(%custom-call.227), custom_call_target="SPMDFullToShardShape", sharding={manual}, metadata={op_name="jit(_full_run)/jit(main)/while/body/jit(_matvec_impl)/shard_map" source_file="/global/homes/j/jackm/software/lorrax_C/src/bse/bse_ring_comm.py" source_line=445}
  %dot.49 = c128[64,240]{1,0} dot(%reshape.446, %custom-call.228), lhs_contracting_dims={0}, rhs_contracting_dims={1}, metadata={op_name="jit(_full_run)/jit(main)/while/body/jit(_matvec_impl)/jit(shmap_body)/MN,bNk->bMk/dot_general" source_file="/global/homes/j/jackm/software/lorrax_C/src/bse/bse_ring_comm.py" source_line=289}
  %reshape.447 = c128[1,64,240]{2,1,0} reshape(%dot.49), metadata={op_name="jit(_full_run)/jit(main)/while/body/jit(_matvec_impl)/jit(shmap_body)/MN,bNk->bMk/dot_general" source_file="/global/homes/j/jackm/software/lorrax_C/src/bse/bse_ring_comm.py" source_line=289}
  %transpose.82 = c128[1,240,64]{1,2,0} transpose(%reshape.447), dimensions={0,2,1}, metadata={op_name="jit(_full_run)/jit(main)/while/body/jit(_matvec_impl)/jit(shmap_body)/MN,bNk->bMk/transpose" source_file="/global/homes/j/jackm/software/lorrax_C/src/bse/bse_ring_comm.py" source_line=289}
  %all-reduce.5 = c128[1,240,64]{1,2,0} all-reduce(%transpose.82), channel_id=3, replica_groups={{0,1},{2,3}}, use_global_device_ids=true, to_apply=%region_8.1317, metadata={op_name="jit(_full_run)/jit(main)/while/body/jit(_matvec_impl)/jit(shmap_body)/psum2" source_file="/global/homes/j/jackm/software/lorrax_C/src/bse/bse_ring_comm.py" source_line=290}
  %reshape.448 = c128[240,64]{0,1} reshape(%all-reduce.5)
  %transpose.89 = c128[64,240]{1,0} transpose(%reshape.448), dimensions={1,0}
  %broadcast.1107 = c128[64,240,2,4]{3,2,1,0} broadcast(%transpose.89), dimensions={0,1}, metadata={op_name="jit(_full_run)/jit(main)/while/body/jit(_matvec_impl)/jit(shmap_body)/kcvM,bMk->bcvk/dot_general" source_file="/global/homes/j/jackm/software/lorrax_C/src/bse/bse_ring_comm.py" source_line=297}
  %get-tuple-element.335 = c128[64,4,2,480]{3,2,1,0} get-tuple-element(%arg_tuple.7), index=7
  %custom-call.229 = c128[64,4,2,480]{3,2,1,0} custom-call(%get-tuple-element.335), custom_call_target="Sharding", sharding={devices=[1,1,1,2,2]<=[4] last_tile_dim_replicate}, metadata={op_name="jit(_full_run)/jit(main)/while/body/pjit" source_file="/global/homes/j/jackm/software/lorrax_C/src/bse/bse_lanczos.py" source_line=193}
  %custom-call.230 = c128[64,4,2,480]{3,2,1,0} custom-call(%custom-call.229), custom_call_target="Sharding", sharding={devices=[1,1,1,2,2]<=[4] last_tile_dim_replicate}, metadata={op_name="jit(_full_run)/jit(main)/while/body/jit(_matvec_impl)/shard_map" source_file="/global/homes/j/jackm/software/lorrax_C/src/bse/bse_ring_comm.py" source_line=445}
  %custom-call.231 = c128[64,4,2,240]{3,2,1,0} custom-call(%custom-call.230), custom_call_target="SPMDFullToShardShape", sharding={manual}, metadata={op_name="jit(_full_run)/jit(main)/while/body/jit(_matvec_impl)/shard_map" source_file="/global/homes/j/jackm/software/lorrax_C/src/bse/bse_ring_comm.py" source_line=445}
  %constant.1115 = s32[] constant(0)
  %constant.1117 = s32[] constant(2)
  %multiply.174 = s32[] multiply(%convert.83, %constant.1117), metadata={op_name="jit(_full_run)/jit(main)/while/body/jit(_matvec_impl)/jit(shmap_body)/mul" source_file="/global/homes/j/jackm/software/lorrax_C/src/bse/bse_ring_comm.py" source_line=292}
  %constant.1114 = s32[] constant(0)
  %compare.109 = pred[] compare(%multiply.174, %constant.1114), direction=LT, metadata={op_name="jit(_full_run)/jit(main)/while/body/jit(_matvec_impl)/jit(shmap_body)/lt" source_file="/global/homes/j/jackm/software/lorrax_C/src/bse/bse_ring_comm.py" source_line=293}
  %constant.1119 = s32[] constant(4)
  %add.671 = s32[] add(%multiply.174, %constant.1119), metadata={op_name="jit(_full_run)/jit(main)/while/body/jit(_matvec_impl)/jit(shmap_body)/add" source_file="/global/homes/j/jackm/software/lorrax_C/src/bse/bse_ring_comm.py" source_line=293}
  %select.249 = s32[] select(%compare.109, %add.671, %multiply.174), metadata={op_name="jit(_full_run)/jit(main)/while/body/jit(_matvec_impl)/jit(shmap_body)/select_n" source_file="/global/homes/j/jackm/software/lorrax_C/src/bse/bse_ring_comm.py" source_line=293}
  %dynamic-slice.64 = c128[64,2,2,240]{3,2,1,0} dynamic-slice(%custom-call.231, %constant.1115, %select.249, %constant.1115, %constant.1115), dynamic_slice_sizes={64,2,2,240}, metadata={op_name="jit(_full_run)/jit(main)/while/body/jit(_matvec_impl)/jit(shmap_body)/dynamic_slice" source_file="/global/homes/j/jackm/software/lorrax_C/src/bse/bse_ring_comm.py" source_line=293}
  %get-tuple-element.337 = c128[64,4,2,480]{3,2,1,0} get-tuple-element(%arg_tuple.7), index=5
  %custom-call.232 = c128[64,4,2,480]{3,2,1,0} custom-call(%get-tuple-element.337), custom_call_target="Sharding", sharding={devices=[1,1,1,2,2]<=[4] last_tile_dim_replicate}, metadata={op_name="jit(_full_run)/jit(main)/while/body/pjit" source_file="/global/homes/j/jackm/software/lorrax_C/src/bse/bse_lanczos.py" source_line=193}
  %custom-call.233 = c128[64,4,2,480]{3,2,1,0} custom-call(%custom-call.232), custom_call_target="Sharding", sharding={devices=[1,1,1,2,2]<=[4] last_tile_dim_replicate}, metadata={op_name="jit(_full_run)/jit(main)/while/body/jit(_matvec_impl)/shard_map" source_file="/global/homes/j/jackm/software/lorrax_C/src/bse/bse_ring_comm.py" source_line=445}
  %custom-call.234 = c128[64,4,2,240]{3,2,1,0} custom-call(%custom-call.233), custom_call_target="SPMDFullToShardShape", sharding={manual}, metadata={op_name="jit(_full_run)/jit(main)/while/body/jit(_matvec_impl)/shard_map" source_file="/global/homes/j/jackm/software/lorrax_C/src/bse/bse_ring_comm.py" source_line=445}
  %real.43 = f64[64,4,2,240]{3,2,1,0} real(%custom-call.234), metadata={op_name="jit(_full_run)/jit(main)/while/body/jit(_matvec_impl)/jit(shmap_body)/real" source_file="/global/homes/j/jackm/software/lorrax_C/src/bse/bse_ring_comm.py" source_line=296}
  %imag.34 = f64[64,4,2,240]{3,2,1,0} imag(%custom-call.234), metadata={op_name="jit(_full_run)/jit(main)/while/body/jit(_matvec_impl)/jit(shmap_body)/imag" source_file="/global/homes/j/jackm/software/lorrax_C/src/bse/bse_ring_comm.py" source_line=296}
  %negate.57 = f64[64,4,2,240]{3,2,1,0} negate(%imag.34), metadata={op_name="jit(_full_run)/jit(main)/while/body/jit(_matvec_impl)/jit(shmap_body)/neg" source_file="/global/homes/j/jackm/software/lorrax_C/src/bse/bse_ring_comm.py" source_line=296}
  %complex.32 = c128[64,4,2,240]{3,2,1,0} complex(%real.43, %negate.57), metadata={op_name="jit(_full_run)/jit(main)/while/body/jit(_matvec_impl)/jit(shmap_body)/complex" source_file="/global/homes/j/jackm/software/lorrax_C/src/bse/bse_ring_comm.py" source_line=296}
  %dot.48 = c128[64,240,2,4]{3,2,1,0} dot(%dynamic-slice.64, %complex.32), lhs_batch_dims={0,3}, lhs_contracting_dims={2}, rhs_batch_dims={0,3}, rhs_contracting_dims={2}, metadata={op_name="jit(_full_run)/jit(main)/while/body/jit(_matvec_impl)/jit(shmap_body)/kcsm,kvsm->kcvm/dot_general" source_file="/global/homes/j/jackm/software/lorrax_C/src/bse/bse_ring_comm.py" source_line=296}
  %real.50 = f64[64,240,2,4]{3,2,1,0} real(%dot.48), metadata={op_name="jit(_full_run)/jit(main)/while/body/jit(_matvec_impl)/jit(shmap_body)/real" source_file="/global/homes/j/jackm/software/lorrax_C/src/bse/bse_ring_comm.py" source_line=297}
  %imag.39 = f64[64,240,2,4]{3,2,1,0} imag(%dot.48), metadata={op_name="jit(_full_run)/jit(main)/while/body/jit(_matvec_impl)/jit(shmap_body)/imag" source_file="/global/homes/j/jackm/software/lorrax_C/src/bse/bse_ring_comm.py" source_line=297}
  %negate.62 = f64[64,240,2,4]{3,2,1,0} negate(%imag.39), metadata={op_name="jit(_full_run)/jit(main)/while/body/jit(_matvec_impl)/jit(shmap_body)/neg" source_file="/global/homes/j/jackm/software/lorrax_C/src/bse/bse_ring_comm.py" source_line=297}
  %complex.40 = c128[64,240,2,4]{3,2,1,0} complex(%real.50, %negate.62), metadata={op_name="jit(_full_run)/jit(main)/while/body/jit(_matvec_impl)/jit(shmap_body)/complex" source_file="/global/homes/j/jackm/software/lorrax_C/src/bse/bse_ring_comm.py" source_line=297}
  %multiply.189 = c128[64,240,2,4]{3,2,1,0} multiply(%broadcast.1107, %complex.40)
  %constant.1041 = c128[] constant((0, 0))
  %reduce.35 = c128[64,2,4]{2,1,0} reduce(%multiply.189, %constant.1041), dimensions={1}, to_apply=%scalar_add_computation.1, metadata={op_name="jit(_full_run)/jit(main)/while/body/jit(_matvec_impl)/jit(shmap_body)/kcvM,bMk->bcvk/dot_general" source_file="/global/homes/j/jackm/software/lorrax_C/src/bse/bse_ring_comm.py" source_line=297}
  %transpose.104 = c128[64,4,2]{1,2,0} transpose(%reduce.35), dimensions={0,2,1}, metadata={op_name="jit(_full_run)/jit(main)/while/body/jit(_matvec_impl)/jit(shmap_body)/kcvM,bMk->bcvk/dot_general" source_file="/global/homes/j/jackm/software/lorrax_C/src/bse/bse_ring_comm.py" source_line=297}
  %reshape.449 = c128[64,1,4,2]{3,2,1,0} reshape(%transpose.104), metadata={op_name="jit(_full_run)/jit(main)/while/body/jit(_matvec_impl)/jit(shmap_body)/kcvM,bMk->bcvk/dot_general" source_file="/global/homes/j/jackm/software/lorrax_C/src/bse/bse_ring_comm.py" source_line=297}
  %transpose.83 = c128[1,4,2,64]{2,1,0,3} transpose(%reshape.449), dimensions={1,2,3,0}, metadata={op_name="jit(_full_run)/jit(main)/while/body/jit(_matvec_impl)/jit(shmap_body)/kcvM,bMk->bcvk/transpose" source_file="/global/homes/j/jackm/software/lorrax_C/src/bse/bse_ring_comm.py" source_line=297}
  %reduce-scatter.5 = c128[1,2,2,64]{2,1,0,3} reduce-scatter(%transpose.83), channel_id=4, replica_groups={{0,2},{1,3}}, use_global_device_ids=true, dimensions={1}, to_apply=%region_9.1321, metadata={op_name="jit(_full_run)/jit(main)/while/body/jit(_matvec_impl)/jit(shmap_body)/reduce_scatter" source_file="/global/homes/j/jackm/software/lorrax_C/src/bse/bse_ring_comm.py" source_line=298}
  %constant.1049 = c128[] constant((0.125, 0)), metadata={op_name="jit(_full_run)/jit(main)/while/body/jit(_matvec_impl)/jit(shmap_body)/convert_element_type" source_file="/global/homes/j/jackm/software/lorrax_C/src/bse/bse_ring_comm.py" source_line=300}
  %broadcast.1104 = c128[1,2,2,64]{3,2,1,0} broadcast(%constant.1049), dimensions={}, metadata={op_name="jit(_full_run)/jit(main)/while/body/jit(_matvec_impl)/jit(shmap_body)/div" source_file="/global/homes/j/jackm/software/lorrax_C/src/bse/bse_ring_comm.py" source_line=300}
  %multiply.183 = c128[1,2,2,64]{2,1,0,3} multiply(%reduce-scatter.5, %broadcast.1104), metadata={op_name="jit(_full_run)/jit(main)/while/body/jit(_matvec_impl)/jit(shmap_body)/div" source_file="/global/homes/j/jackm/software/lorrax_C/src/bse/bse_ring_comm.py" source_line=300}
  %custom-call.235 = c128[1,2,2,64]{3,2,1,0} custom-call(%multiply.183), custom_call_target="Sharding", sharding={manual}, metadata={op_name="jit(_full_run)/jit(main)/while/body/jit(_matvec_impl)/shard_map" source_file="/global/homes/j/jackm/software/lorrax_C/src/bse/bse_ring_comm.py" source_line=445}
  %custom-call.236 = c128[1,4,4,64]{3,2,1,0} custom-call(%custom-call.235), custom_call_target="SPMDShardToFullShape", sharding={devices=[1,2,2,1]<=[4]}, metadata={op_name="jit(_full_run)/jit(main)/while/body/jit(_matvec_impl)/shard_map" source_file="/global/homes/j/jackm/software/lorrax_C/src/bse/bse_ring_comm.py" source_line=445}
  %add.672 = c128[1,4,4,64]{3,2,1,0} add(%custom-call.217, %custom-call.236), metadata={op_name="jit(_full_run)/jit(main)/while/body/jit(_matvec_impl)/add" source_file="/global/homes/j/jackm/software/lorrax_C/src/bse/bse_ring_comm.py" source_line=450}
  %get-tuple-element.331 = c128[480,480,4,4,4]{4,3,2,1,0} get-tuple-element(%arg_tuple.7), index=11
  %custom-call.237 = c128[480,480,4,4,4]{4,3,2,1,0} custom-call(%get-tuple-element.331), custom_call_target="Sharding", sharding={devices=[2,2,1,1,1]<=[4]}, metadata={op_name="jit(_full_run)/jit(main)/while/body/pjit" source_file="/global/homes/j/jackm/software/lorrax_C/src/bse/bse_lanczos.py" source_line=193}
  %custom-call.238 = c128[480,480,4,4,4]{4,3,2,1,0} custom-call(%custom-call.237), custom_call_target="Sharding", sharding={devices=[2,2,1,1,1]<=[4]}, metadata={op_name="jit(_full_run)/jit(main)/while/body/jit(_matvec_impl)/pjit" source_file="/global/homes/j/jackm/software/lorrax_C/src/bse/bse_ring_comm.py" source_line=449}
  %broadcast.1100 = c128[1,480,480,2,2,4,4,4]{7,6,5,4,3,2,1,0} broadcast(%custom-call.238), dimensions={1,2,5,6,7}, metadata={op_name="jit(_full_run)/jit(main)/while/body/jit(_matvec_impl)/jit(_apply_W_from_T)/mul" source_file="/global/homes/j/jackm/software/lorrax_C/src/bse/bse_ring_comm.py" source_line=418}
  %custom-call.239 = c128[1,4,4,64]{3,2,1,0} custom-call(%custom-call.215), custom_call_target="Sharding", sharding={devices=[1,2,2,1]<=[4]}, metadata={op_name="jit(_full_run)/jit(main)/while/body/jit(_matvec_impl)/shard_map" source_file="/global/homes/j/jackm/software/lorrax_C/src/bse/bse_ring_comm.py" source_line=448}
  %custom-call.240 = c128[1,2,2,64]{3,2,1,0} custom-call(%custom-call.239), custom_call_target="SPMDFullToShardShape", sharding={manual}, metadata={op_name="jit(_full_run)/jit(main)/while/body/jit(_matvec_impl)/shard_map" source_file="/global/homes/j/jackm/software/lorrax_C/src/bse/bse_ring_comm.py" source_line=448}
  %all-gather.10 = c128[1,2,4,64]{3,2,1,0} all-gather(%custom-call.240), channel_id=5, replica_groups={{0,1},{2,3}}, dimensions={2}, use_global_device_ids=true, metadata={op_name="jit(_full_run)/jit(main)/while/body/jit(_matvec_impl)/jit(shmap_body)/all_gather" source_file="/global/homes/j/jackm/software/lorrax_C/src/bse/bse_ring_comm.py" source_line=370}
  %reshape.450 = c128[2,4,64]{2,1,0} reshape(%all-gather.10)
  %custom-call.241 = c128[64,4,2,480]{3,2,1,0} custom-call(%custom-call.220), custom_call_target="Sharding", sharding={devices=[1,1,1,2,2]<=[2,2]T(1,0) last_tile_dim_replicate}, metadata={op_name="jit(_full_run)/jit(main)/while/body/jit(_matvec_impl)/shard_map" source_file="/global/homes/j/jackm/software/lorrax_C/src/bse/bse_ring_comm.py" source_line=448}
  %custom-call.242 = c128[64,4,2,240]{3,2,1,0} custom-call(%custom-call.241), custom_call_target="SPMDFullToShardShape", sharding={manual}, metadata={op_name="jit(_full_run)/jit(main)/while/body/jit(_matvec_impl)/shard_map" source_file="/global/homes/j/jackm/software/lorrax_C/src/bse/bse_ring_comm.py" source_line=448}
  %real.44 = f64[64,4,2,240]{3,2,1,0} real(%custom-call.242), metadata={op_name="jit(_full_run)/jit(main)/while/body/jit(_matvec_impl)/jit(shmap_body)/real" source_file="/global/homes/j/jackm/software/lorrax_C/src/bse/bse_ring_comm.py" source_line=371}
  %imag.35 = f64[64,4,2,240]{3,2,1,0} imag(%custom-call.242), metadata={op_name="jit(_full_run)/jit(main)/while/body/jit(_matvec_impl)/jit(shmap_body)/imag" source_file="/global/homes/j/jackm/software/lorrax_C/src/bse/bse_ring_comm.py" source_line=371}
  %negate.58 = f64[64,4,2,240]{3,2,1,0} negate(%imag.35), metadata={op_name="jit(_full_run)/jit(main)/while/body/jit(_matvec_impl)/jit(shmap_body)/neg" source_file="/global/homes/j/jackm/software/lorrax_C/src/bse/bse_ring_comm.py" source_line=371}
  %complex.34 = c128[64,4,2,240]{3,2,1,0} complex(%real.44, %negate.58), metadata={op_name="jit(_full_run)/jit(main)/while/body/jit(_matvec_impl)/jit(shmap_body)/complex" source_file="/global/homes/j/jackm/software/lorrax_C/src/bse/bse_ring_comm.py" source_line=371}
  %dot.50 = c128[64,2,2,240]{3,2,1,0} dot(%reshape.450, %complex.34), lhs_batch_dims={2}, lhs_contracting_dims={1}, rhs_batch_dims={0}, rhs_contracting_dims={1}, metadata={op_name="jit(_full_run)/jit(main)/while/body/jit(_matvec_impl)/jit(shmap_body)/kvsN,bcvk->bcksN/dot_general" source_file="/global/homes/j/jackm/software/lorrax_C/src/bse/bse_ring_comm.py" source_line=371}
  %reshape.451 = c128[64,1,2,2,240]{4,3,2,1,0} reshape(%dot.50), metadata={op_name="jit(_full_run)/jit(main)/while/body/jit(_matvec_impl)/jit(shmap_body)/kvsN,bcvk->bcksN/dot_general" source_file="/global/homes/j/jackm/software/lorrax_C/src/bse/bse_ring_comm.py" source_line=371}
  %transpose.84 = c128[1,2,64,2,240]{4,3,1,0,2} transpose(%reshape.451), dimensions={1,2,0,3,4}, metadata={op_name="jit(_full_run)/jit(main)/while/body/jit(_matvec_impl)/jit(shmap_body)/kvsN,bcvk->bcksN/transpose" source_file="/global/homes/j/jackm/software/lorrax_C/src/bse/bse_ring_comm.py" source_line=371}
  %all-gather.11 = c128[1,4,64,2,240]{4,3,1,0,2} all-gather(%transpose.84), channel_id=6, replica_groups={{0,2},{1,3}}, dimensions={1}, use_global_device_ids=true, metadata={op_name="jit(_full_run)/jit(main)/while/body/jit(_matvec_impl)/jit(shmap_body)/all_gather" source_file="/global/homes/j/jackm/software/lorrax_C/src/bse/bse_ring_comm.py" source_line=372}
  %reshape.452 = c128[4,64,2,240]{3,2,0,1} reshape(%all-gather.11)
  %custom-call.243 = c128[64,4,2,480]{3,2,1,0} custom-call(%custom-call.232), custom_call_target="Sharding", sharding={devices=[1,1,1,2,2]<=[4] last_tile_dim_replicate}, metadata={op_name="jit(_full_run)/jit(main)/while/body/jit(_matvec_impl)/shard_map" source_file="/global/homes/j/jackm/software/lorrax_C/src/bse/bse_ring_comm.py" source_line=448}
  %custom-call.244 = c128[64,4,2,240]{3,2,1,0} custom-call(%custom-call.243), custom_call_target="SPMDFullToShardShape", sharding={manual}, metadata={op_name="jit(_full_run)/jit(main)/while/body/jit(_matvec_impl)/shard_map" source_file="/global/homes/j/jackm/software/lorrax_C/src/bse/bse_ring_comm.py" source_line=448}
  %dot.51 = c128[64,2,240,2,240]{4,3,2,1,0} dot(%reshape.452, %custom-call.244), lhs_batch_dims={1}, lhs_contracting_dims={0}, rhs_batch_dims={0}, rhs_contracting_dims={1}, metadata={op_name="jit(_full_run)/jit(main)/while/body/jit(_matvec_impl)/jit(shmap_body)/kctM,bcksN->bMNtsk/dot_general" source_file="/global/homes/j/jackm/software/lorrax_C/src/bse/bse_ring_comm.py" source_line=373}
  %reshape.453 = c128[64,1,2,240,2,240]{5,4,3,2,1,0} reshape(%dot.51), metadata={op_name="jit(_full_run)/jit(main)/while/body/jit(_matvec_impl)/jit(shmap_body)/kctM,bcksN->bMNtsk/dot_general" source_file="/global/homes/j/jackm/software/lorrax_C/src/bse/bse_ring_comm.py" source_line=373}
  %transpose.85 = c128[1,240,240,2,2,64]{1,3,2,4,0,5} transpose(%reshape.453), dimensions={1,5,3,4,2,0}, metadata={op_name="jit(_full_run)/jit(main)/while/body/jit(_matvec_impl)/jit(shmap_body)/kctM,bcksN->bMNtsk/transpose" source_file="/global/homes/j/jackm/software/lorrax_C/src/bse/bse_ring_comm.py" source_line=373}
  %custom-call.245 = c128[1,240,240,2,2,64]{5,4,3,2,1,0} custom-call(%transpose.85), custom_call_target="Sharding", sharding={manual}, metadata={op_name="jit(_full_run)/jit(main)/while/body/jit(_matvec_impl)/shard_map" source_file="/global/homes/j/jackm/software/lorrax_C/src/bse/bse_ring_comm.py" source_line=448}
  %custom-call.246 = c128[1,480,480,2,2,64]{5,4,3,2,1,0} custom-call(%custom-call.245), custom_call_target="SPMDShardToFullShape", sharding={devices=[1,2,2,1,1,1]<=[4]}, metadata={op_name="jit(_full_run)/jit(main)/while/body/jit(_matvec_impl)/shard_map" source_file="/global/homes/j/jackm/software/lorrax_C/src/bse/bse_ring_comm.py" source_line=448}
  %custom-call.247 = c128[1,480,480,2,2,64]{5,4,3,2,1,0} custom-call(%custom-call.246), custom_call_target="Sharding", sharding={devices=[1,2,2,1,1,1]<=[4]}, metadata={op_name="jit(_full_run)/jit(main)/while/body/jit(_matvec_impl)/pjit" source_file="/global/homes/j/jackm/software/lorrax_C/src/bse/bse_ring_comm.py" source_line=449}
  %reshape.442 = c128[1,480,480,2,2,4,4,4]{7,6,5,4,3,2,1,0} reshape(%custom-call.247), metadata={op_name="jit(_full_run)/jit(main)/while/body/jit(_matvec_impl)/jit(_apply_W_from_T)/reshape" source_file="/global/homes/j/jackm/software/lorrax_C/src/bse/bse_ring_comm.py" source_line=416}
  %custom-call.248 = c128[1,480,480,2,2,4,4,4]{7,6,5,4,3,2,1,0} custom-call(%reshape.442), custom_call_target="CustomSPMDPartitioning", api_version=API_VERSION_STATUS_RETURNING, metadata={op_name="jit(_full_run)/jit(main)/while/body/jit(_matvec_impl)/jit(_apply_W_from_T)/custom_partitioning" source_file="/global/homes/j/jackm/software/lorrax_C/src/common/fft_helpers.py" source_line=259}, backend_config="139930505171776"
  %custom-call.249 = c128[1,480,480,2,2,4,4,4]{7,6,5,4,3,2,1,0} custom-call(%custom-call.248), custom_call_target="CustomSPMDPartitioning", api_version=API_VERSION_STATUS_RETURNING, metadata={op_name="jit(_full_run)/jit(main)/while/body/jit(_matvec_impl)/jit(_apply_W_from_T)/custom_partitioning" source_file="/global/homes/j/jackm/software/lorrax_C/src/common/fft_helpers.py" source_line=259}, backend_config="139930505170000"
  %custom-call.250 = c128[1,480,480,2,2,4,4,4]{7,6,5,4,3,2,1,0} custom-call(%custom-call.249), custom_call_target="CustomSPMDPartitioning", api_version=API_VERSION_STATUS_RETURNING, metadata={op_name="jit(_full_run)/jit(main)/while/body/jit(_matvec_impl)/jit(_apply_W_from_T)/custom_partitioning" source_file="/global/homes/j/jackm/software/lorrax_C/src/common/fft_helpers.py" source_line=259}, backend_config="139930505172160"
  %multiply.175 = c128[1,480,480,2,2,4,4,4]{7,6,5,4,3,2,1,0} multiply(%broadcast.1100, %custom-call.250), metadata={op_name="jit(_full_run)/jit(main)/while/body/jit(_matvec_impl)/jit(_apply_W_from_T)/mul" source_file="/global/homes/j/jackm/software/lorrax_C/src/bse/bse_ring_comm.py" source_line=418}
  %custom-call.251 = c128[1,480,480,2,2,4,4,4]{7,6,5,4,3,2,1,0} custom-call(%multiply.175), custom_call_target="CustomSPMDPartitioning", api_version=API_VERSION_STATUS_RETURNING, metadata={op_name="jit(_full_run)/jit(main)/while/body/jit(_matvec_impl)/jit(_apply_W_from_T)/custom_partitioning" source_file="/global/homes/j/jackm/software/lorrax_C/src/common/fft_helpers.py" source_line=259}, backend_config="139930505172544"
  %custom-call.252 = c128[1,480,480,2,2,4,4,4]{7,6,5,4,3,2,1,0} custom-call(%custom-call.251), custom_call_target="CustomSPMDPartitioning", api_version=API_VERSION_STATUS_RETURNING, metadata={op_name="jit(_full_run)/jit(main)/while/body/jit(_matvec_impl)/jit(_apply_W_from_T)/custom_partitioning" source_file="/global/homes/j/jackm/software/lorrax_C/src/common/fft_helpers.py" source_line=259}, backend_config="139930505172832"
  %custom-call.253 = c128[1,480,480,2,2,4,4,4]{7,6,5,4,3,2,1,0} custom-call(%custom-call.252), custom_call_target="CustomSPMDPartitioning", api_version=API_VERSION_STATUS_RETURNING, metadata={op_name="jit(_full_run)/jit(main)/while/body/jit(_matvec_impl)/jit(_apply_W_from_T)/custom_partitioning" source_file="/global/homes/j/jackm/software/lorrax_C/src/common/fft_helpers.py" source_line=259}, backend_config="139930505173072"
  %reshape.457 = c128[480,480,2,2,64]{4,3,2,1,0} reshape(%custom-call.253)
  %custom-call.254 = c128[64,4,2,480]{3,2,1,0} custom-call(%custom-call.232), custom_call_target="Sharding", sharding={devices=[1,1,1,2,2]<=[4] last_tile_dim_replicate}, metadata={op_name="jit(_full_run)/jit(main)/while/body/jit(_matvec_impl)/pjit" source_file="/global/homes/j/jackm/software/lorrax_C/src/bse/bse_ring_comm.py" source_line=449}
  %real.45 = f64[64,4,2,480]{3,2,1,0} real(%custom-call.254), metadata={op_name="jit(_full_run)/jit(main)/while/body/jit(_matvec_impl)/jit(_apply_W_from_T)/real" source_file="/global/homes/j/jackm/software/lorrax_C/src/bse/bse_ring_comm.py" source_line=422}
  %imag.36 = f64[64,4,2,480]{3,2,1,0} imag(%custom-call.254), metadata={op_name="jit(_full_run)/jit(main)/while/body/jit(_matvec_impl)/jit(_apply_W_from_T)/imag" source_file="/global/homes/j/jackm/software/lorrax_C/src/bse/bse_ring_comm.py" source_line=422}
  %negate.59 = f64[64,4,2,480]{3,2,1,0} negate(%imag.36), metadata={op_name="jit(_full_run)/jit(main)/while/body/jit(_matvec_impl)/jit(_apply_W_from_T)/neg" source_file="/global/homes/j/jackm/software/lorrax_C/src/bse/bse_ring_comm.py" source_line=422}
  %complex.35 = c128[64,4,2,480]{3,2,1,0} complex(%real.45, %negate.59), metadata={op_name="jit(_full_run)/jit(main)/while/body/jit(_matvec_impl)/jit(_apply_W_from_T)/complex" source_file="/global/homes/j/jackm/software/lorrax_C/src/bse/bse_ring_comm.py" source_line=422}
  %dot.52 = c128[64,480,2,4]{3,2,1,0} dot(%reshape.457, %complex.35), lhs_batch_dims={4}, lhs_contracting_dims={0,2}, rhs_batch_dims={0}, rhs_contracting_dims={3,2}, metadata={op_name="jit(_full_run)/jit(main)/while/body/jit(_matvec_impl)/jit(_apply_W_from_T)/kctM,bMNtsk->bcNsk/dot_general" source_file="/global/homes/j/jackm/software/lorrax_C/src/bse/bse_ring_comm.py" source_line=422}
  %reshape.454 = c128[64,1,480,2,4]{4,3,2,1,0} reshape(%dot.52), metadata={op_name="jit(_full_run)/jit(main)/while/body/jit(_matvec_impl)/jit(_apply_W_from_T)/kctM,bMNtsk->bcNsk/dot_general" source_file="/global/homes/j/jackm/software/lorrax_C/src/bse/bse_ring_comm.py" source_line=422}
  %transpose.86 = c128[1,4,480,2,64]{1,3,2,0,4} transpose(%reshape.454), dimensions={1,4,2,3,0}, metadata={op_name="jit(_full_run)/jit(main)/while/body/jit(_matvec_impl)/jit(_apply_W_from_T)/kctM,bMNtsk->bcNsk/transpose" source_file="/global/homes/j/jackm/software/lorrax_C/src/bse/bse_ring_comm.py" source_line=422}
  %reshape.455 = c128[4,480,2,64]{0,2,1,3} reshape(%transpose.86)
  %custom-call.255 = c128[64,4,2,480]{3,2,1,0} custom-call(%custom-call.220), custom_call_target="Sharding", sharding={devices=[1,1,1,2,2]<=[2,2]T(1,0) last_tile_dim_replicate}, metadata={op_name="jit(_full_run)/jit(main)/while/body/jit(_matvec_impl)/pjit" source_file="/global/homes/j/jackm/software/lorrax_C/src/bse/bse_ring_comm.py" source_line=449}
  %dot.53 = c128[64,4,4]{2,1,0} dot(%reshape.455, %custom-call.255), lhs_batch_dims={3}, lhs_contracting_dims={1,2}, rhs_batch_dims={0}, rhs_contracting_dims={3,2}, metadata={op_name="jit(_full_run)/jit(main)/while/body/jit(_matvec_impl)/jit(_apply_W_from_T)/kvsN,bcNsk->bcvk/dot_general" source_file="/global/homes/j/jackm/software/lorrax_C/src/bse/bse_ring_comm.py" source_line=423}
  %constant.1050 = c128[] constant((0.125, 0)), metadata={op_name="jit(_full_run)/jit(main)/while/body/jit(_matvec_impl)/jit(_apply_W_from_T)/convert_element_type" source_file="/global/homes/j/jackm/software/lorrax_C/src/bse/bse_ring_comm.py" source_line=424}
  %broadcast.1105 = c128[64,4,4]{2,1,0} broadcast(%constant.1050), dimensions={}, metadata={op_name="jit(_full_run)/jit(main)/while/body/jit(_matvec_impl)/jit(_apply_W_from_T)/div" source_file="/global/homes/j/jackm/software/lorrax_C/src/bse/bse_ring_comm.py" source_line=424}
  %multiply.184 = c128[64,4,4]{2,1,0} multiply(%dot.53, %broadcast.1105), metadata={op_name="jit(_full_run)/jit(main)/while/body/jit(_matvec_impl)/jit(_apply_W_from_T)/div" source_file="/global/homes/j/jackm/software/lorrax_C/src/bse/bse_ring_comm.py" source_line=424}
  %reshape.465 = c128[64,1,4,4]{3,2,1,0} reshape(%multiply.184), metadata={op_name="jit(_full_run)/jit(main)/while/body/jit(_matvec_impl)/jit(_apply_W_from_T)/div" source_file="/global/homes/j/jackm/software/lorrax_C/src/bse/bse_ring_comm.py" source_line=424}
  %transpose.88 = c128[1,4,4,64]{2,1,0,3} transpose(%reshape.465), dimensions={1,2,3,0}, metadata={op_name="jit(_full_run)/jit(main)/while/body/jit(_matvec_impl)/jit(_apply_W_from_T)/div" source_file="/global/homes/j/jackm/software/lorrax_C/src/bse/bse_ring_comm.py" source_line=424}
  %custom-call.256 = c128[1,4,4,64]{3,2,1,0} custom-call(%transpose.88), custom_call_target="Sharding", sharding={devices=[1,2,2,1]<=[4]}, metadata={op_name="jit(_full_run)/jit(main)/while/body/jit(_matvec_impl)/pjit" source_file="/global/homes/j/jackm/software/lorrax_C/src/bse/bse_ring_comm.py" source_line=449}
  %subtract.42 = c128[1,4,4,64]{3,2,1,0} subtract(%add.672, %custom-call.256), metadata={op_name="jit(_full_run)/jit(main)/while/body/jit(_matvec_impl)/sub" source_file="/global/homes/j/jackm/software/lorrax_C/src/bse/bse_ring_comm.py" source_line=450}
  %custom-call.257 = c128[1,4,4,64]{3,2,1,0} custom-call(%subtract.42), custom_call_target="Sharding", sharding={devices=[1,2,2,1]<=[4]}, metadata={op_name="jit(_full_run)/jit(main)/while/body/pjit" source_file="/global/homes/j/jackm/software/lorrax_C/src/bse/bse_lanczos.py" source_line=193}
  %reshape.443 = c128[1024]{0} reshape(%custom-call.257), metadata={op_name="jit(_full_run)/jit(main)/while/body/reshape" source_file="/global/homes/j/jackm/software/lorrax_C/src/bse/bse_lanczos.py" source_line=197}
  %real.46 = f64[1024]{0} real(%get-tuple-element.338), metadata={op_name="jit(_full_run)/jit(main)/while/body/real" source_file="/global/homes/j/jackm/software/lorrax_C/src/solvers/lanczos.py" source_line=260}
  %imag.37 = f64[1024]{0} imag(%get-tuple-element.338), metadata={op_name="jit(_full_run)/jit(main)/while/body/imag" source_file="/global/homes/j/jackm/software/lorrax_C/src/solvers/lanczos.py" source_line=260}
  %negate.60 = f64[1024]{0} negate(%imag.37), metadata={op_name="jit(_full_run)/jit(main)/while/body/neg" source_file="/global/homes/j/jackm/software/lorrax_C/src/solvers/lanczos.py" source_line=260}
  %complex.36 = c128[1024]{0} complex(%real.46, %negate.60), metadata={op_name="jit(_full_run)/jit(main)/while/body/complex" source_file="/global/homes/j/jackm/software/lorrax_C/src/solvers/lanczos.py" source_line=260}
  %multiply.178 = c128[1024]{0} multiply(%complex.36, %reshape.443)
  %constant.1037 = c128[] constant((0, 0))
  %reduce.30 = c128[] reduce(%multiply.178, %constant.1037), dimensions={0}, to_apply=%scalar_add_computation, metadata={op_name="jit(_full_run)/jit(main)/while/body/dot_general" source_file="/global/homes/j/jackm/software/lorrax_C/src/solvers/lanczos.py" source_line=260}
  %real.47 = f64[] real(%reduce.30), metadata={op_name="jit(_full_run)/jit(main)/while/body/real" source_file="/global/homes/j/jackm/software/lorrax_C/src/solvers/lanczos.py" source_line=260}
  %convert.85 = c128[] convert(%real.47), metadata={op_name="jit(_full_run)/jit(main)/while/body/convert_element_type" source_file="/global/homes/j/jackm/software/lorrax_C/src/solvers/lanczos.py" source_line=263}
  %broadcast.1093 = c128[1024]{0} broadcast(%convert.85), dimensions={}, metadata={op_name="jit(_full_run)/jit(main)/while/body/mul" source_file="/global/homes/j/jackm/software/lorrax_C/src/solvers/lanczos.py" source_line=263}
  %multiply.176 = c128[1024]{0} multiply(%broadcast.1093, %get-tuple-element.338), metadata={op_name="jit(_full_run)/jit(main)/while/body/mul" source_file="/global/homes/j/jackm/software/lorrax_C/src/solvers/lanczos.py" source_line=263}
  %subtract.43 = c128[1024]{0} subtract(%reshape.443, %multiply.176), metadata={op_name="jit(_full_run)/jit(main)/while/body/sub" source_file="/global/homes/j/jackm/software/lorrax_C/src/solvers/lanczos.py" source_line=263}
  %constant.1100 = s64[] constant(0)
  %compare.110 = pred[] compare(%get-tuple-element.342, %constant.1100), direction=GT, metadata={op_name="jit(_full_run)/jit(main)/while/body/gt" source_file="/global/homes/j/jackm/software/lorrax_C/src/solvers/lanczos.py" source_line=265}
  %get-tuple-element.339 = f64[200]{0} get-tuple-element(%arg_tuple.7), index=3
  %constant.1046 = s64[] constant(-1)
  %add.680 = s64[] add(%get-tuple-element.342, %constant.1046), metadata={op_name="jit(_full_run)/jit(main)/while/body/sub" source_file="/global/homes/j/jackm/software/lorrax_C/src/solvers/lanczos.py" source_line=265}
  %constant.1101 = s64[] constant(0)
  %compare.111 = pred[] compare(%add.680, %constant.1101), direction=LT, metadata={op_name="jit(_full_run)/jit(main)/while/body/lt" source_file="/global/homes/j/jackm/software/lorrax_C/src/solvers/lanczos.py" source_line=265}
  %constant.1051 = s64[] constant(199)
  %add.682 = s64[] add(%get-tuple-element.342, %constant.1051), metadata={op_name="jit(_full_run)/jit(main)/while/body/add" source_file="/global/homes/j/jackm/software/lorrax_C/src/solvers/lanczos.py" source_line=265}
  %select.250 = s64[] select(%compare.111, %add.682, %add.680), metadata={op_name="jit(_full_run)/jit(main)/while/body/select_n" source_file="/global/homes/j/jackm/software/lorrax_C/src/solvers/lanczos.py" source_line=265}
  %dynamic-slice.65 = f64[1]{0} dynamic-slice(%get-tuple-element.339, %select.250), dynamic_slice_sizes={1}, metadata={op_name="jit(_full_run)/jit(main)/while/body/dynamic_slice" source_file="/global/homes/j/jackm/software/lorrax_C/src/solvers/lanczos.py" source_line=265}
  %reshape.444 = f64[] reshape(%dynamic-slice.65), metadata={op_name="jit(_full_run)/jit(main)/while/body/squeeze" source_file="/global/homes/j/jackm/software/lorrax_C/src/solvers/lanczos.py" source_line=265}
  %constant.1022 = f64[] constant(0)
  %select.251 = f64[] select(%compare.110, %reshape.444, %constant.1022), metadata={op_name="jit(_full_run)/jit(main)/while/body/jit(_where)/select_n" source_file="/global/homes/j/jackm/software/lorrax_C/src/solvers/lanczos.py" source_line=265}
  %convert.86 = c128[] convert(%select.251), metadata={op_name="jit(_full_run)/jit(main)/while/body/convert_element_type" source_file="/global/homes/j/jackm/software/lorrax_C/src/solvers/lanczos.py" source_line=266}
  %broadcast.1101 = c128[1024,1]{1,0} broadcast(%convert.86), dimensions={}, metadata={op_name="jit(_full_run)/jit(main)/while/body/mul" source_file="/global/homes/j/jackm/software/lorrax_C/src/solvers/lanczos.py" source_line=266}
  %constant.1104 = s64[] constant(0)
  %constant.1047 = s64[] constant(-1)
  %add.681 = s64[] add(%get-tuple-element.342, %constant.1047), metadata={op_name="jit(_full_run)/jit(main)/while/body/sub" source_file="/global/homes/j/jackm/software/lorrax_C/src/solvers/lanczos.py" source_line=264}
  %constant.1102 = s64[] constant(0)
  %maximum.17 = s64[] maximum(%add.681, %constant.1102), metadata={op_name="jit(_full_run)/jit(main)/while/body/max" source_file="/global/homes/j/jackm/software/lorrax_C/src/solvers/lanczos.py" source_line=264}
  %dynamic-slice.66 = c128[1024,1]{1,0} dynamic-slice(%get-tuple-element.341, %constant.1104, %maximum.17), dynamic_slice_sizes={1024,1}, metadata={op_name="jit(_full_run)/jit(main)/while/body/dynamic_slice" source_file="/global/homes/j/jackm/software/lorrax_C/src/solvers/lanczos.py" source_line=264}
  %multiply.179 = c128[1024,1]{1,0} multiply(%broadcast.1101, %dynamic-slice.66), metadata={op_name="jit(_full_run)/jit(main)/while/body/mul" source_file="/global/homes/j/jackm/software/lorrax_C/src/solvers/lanczos.py" source_line=266}
  %reshape.456 = c128[1024]{0} reshape(%multiply.179), metadata={op_name="jit(_full_run)/jit(main)/while/body/mul" source_file="/global/homes/j/jackm/software/lorrax_C/src/solvers/lanczos.py" source_line=266}
  %subtract.44 = c128[1024]{0} subtract(%subtract.43, %reshape.456), metadata={op_name="jit(_full_run)/jit(main)/while/body/sub" source_file="/global/homes/j/jackm/software/lorrax_C/src/solvers/lanczos.py" source_line=266}
  %constant.1098 = s64[] constant(1)
  %add.674 = s64[] add(%get-tuple-element.342, %constant.1098), metadata={op_name="jit(_full_run)/jit(main)/while/body/add" source_file="/global/homes/j/jackm/software/lorrax_C/src/solvers/lanczos.py" source_line=275}
  %tuple.83 = (s64[], c128[1024]{0}, s64[], s64[], c128[1024,200]{1,0}) tuple(%maximum.16, %subtract.44, %add.674, %get-tuple-element.342, %get-tuple-element.341), metadata={op_name="jit(_full_run)/jit(main)/while/body/while" source_file="/global/homes/j/jackm/software/lorrax_C/src/solvers/lanczos.py" source_line=275}
  %while.20 = (s64[], c128[1024]{0}, s64[], s64[], c128[1024,200]{1,0}) while(%tuple.83), condition=%region_12.1532, body=%region_11.1504, metadata={op_name="jit(_full_run)/jit(main)/while/body/while" source_file="/global/homes/j/jackm/software/lorrax_C/src/solvers/lanczos.py" source_line=275}
  %get-tuple-element.328 = c128[1024]{0} get-tuple-element(%while.20), index=1, metadata={op_name="jit(_full_run)/jit(main)/while/body/while" source_file="/global/homes/j/jackm/software/lorrax_C/src/solvers/lanczos.py" source_line=275}
  %real.48 = f64[1024]{0} real(%get-tuple-element.328), metadata={op_name="jit(_full_run)/jit(main)/while/body/jit(norm)/real" source_file="/global/homes/j/jackm/software/lorrax_C/src/solvers/lanczos.py" source_line=277}
  %imag.38 = f64[1024]{0} imag(%get-tuple-element.328), metadata={op_name="jit(_full_run)/jit(main)/while/body/jit(norm)/imag" source_file="/global/homes/j/jackm/software/lorrax_C/src/solvers/lanczos.py" source_line=277}
  %negate.61 = f64[1024]{0} negate(%imag.38), metadata={op_name="jit(_full_run)/jit(main)/while/body/jit(norm)/neg" source_file="/global/homes/j/jackm/software/lorrax_C/src/solvers/lanczos.py" source_line=277}
  %complex.37 = c128[1024]{0} complex(%real.48, %negate.61), metadata={op_name="jit(_full_run)/jit(main)/while/body/jit(norm)/complex" source_file="/global/homes/j/jackm/software/lorrax_C/src/solvers/lanczos.py" source_line=277}
  %multiply.177 = c128[1024]{0} multiply(%get-tuple-element.328, %complex.37), metadata={op_name="jit(_full_run)/jit(main)/while/body/jit(norm)/mul" source_file="/global/homes/j/jackm/software/lorrax_C/src/solvers/lanczos.py" source_line=277}
  %real.49 = f64[1024]{0} real(%multiply.177), metadata={op_name="jit(_full_run)/jit(main)/while/body/jit(norm)/real" source_file="/global/homes/j/jackm/software/lorrax_C/src/solvers/lanczos.py" source_line=277}
  %constant.1026 = f64[] constant(0)
  %reduce.29 = f64[] reduce(%real.49, %constant.1026), dimensions={0}, to_apply=%region_13.1540, metadata={op_name="jit(_full_run)/jit(main)/while/body/jit(norm)/reduce_sum" source_file="/global/homes/j/jackm/software/lorrax_C/src/solvers/lanczos.py" source_line=277}
  %sqrt.11 = f64[] sqrt(%reduce.29), metadata={op_name="jit(_full_run)/jit(main)/while/body/jit(norm)/sqrt" source_file="/global/homes/j/jackm/software/lorrax_C/src/solvers/lanczos.py" source_line=277}
  %constant.1028 = f64[] constant(1e-15)
  %maximum.18 = f64[] maximum(%sqrt.11, %constant.1028), metadata={op_name="jit(_full_run)/jit(main)/while/body/max" source_file="/global/homes/j/jackm/software/lorrax_C/src/solvers/lanczos.py" source_line=280}
  %convert.88 = c128[] convert(%maximum.18), metadata={op_name="jit(_full_run)/jit(main)/while/body/convert_element_type" source_file="/global/homes/j/jackm/software/lorrax_C/src/solvers/lanczos.py" source_line=280}
  %broadcast.1094 = c128[1024]{0} broadcast(%convert.88), dimensions={}, metadata={op_name="jit(_full_run)/jit(main)/while/body/div" source_file="/global/homes/j/jackm/software/lorrax_C/src/solvers/lanczos.py" source_line=280}
  %divide.26 = c128[1024]{0} divide(%get-tuple-element.328, %broadcast.1094), metadata={op_name="jit(_full_run)/jit(main)/while/body/div" source_file="/global/homes/j/jackm/software/lorrax_C/src/solvers/lanczos.py" source_line=280}
  %reshape.458 = c128[1024,1]{1,0} reshape(%divide.26)
  %constant.1043 = s32[] constant(0)
  %dynamic-slice.69 = c128[1024,1]{1,0} dynamic-slice(%get-tuple-element.341, %constant.1043, %convert.87), dynamic_slice_sizes={1024,1}
  %select.255 = c128[1024,1]{1,0} select(%broadcast.1096, %reshape.458, %dynamic-slice.69)
  %constant.1044 = s32[] constant(0)
  %dynamic-update-slice.18 = c128[1024,200]{1,0} dynamic-update-slice(%get-tuple-element.341, %select.255, %constant.1044, %convert.87), metadata={op_name="jit(_full_run)/jit(main)/while/body/scatter" source_file="/global/homes/j/jackm/software/lorrax_C/src/solvers/lanczos.py" source_line=281}
  %get-tuple-element.340 = f64[200]{0} get-tuple-element(%arg_tuple.7), index=2
  %constant.1052 = s32[] constant(0)
  %constant.1106 = s64[] constant(0)
  %compare.113 = pred[] compare(%get-tuple-element.342, %constant.1106), direction=LT, metadata={op_name="jit(_full_run)/jit(main)/while/body/lt" source_file="/global/homes/j/jackm/software/lorrax_C/src/solvers/lanczos.py" source_line=261}
  %constant.1107 = s64[] constant(200)
  %add.677 = s64[] add(%get-tuple-element.342, %constant.1107), metadata={op_name="jit(_full_run)/jit(main)/while/body/add" source_file="/global/homes/j/jackm/software/lorrax_C/src/solvers/lanczos.py" source_line=261}
  %select.253 = s64[] select(%compare.113, %add.677, %get-tuple-element.342), metadata={op_name="jit(_full_run)/jit(main)/while/body/select_n" source_file="/global/homes/j/jackm/software/lorrax_C/src/solvers/lanczos.py" source_line=261}
  %convert.89 = s32[] convert(%select.253), metadata={op_name="jit(_full_run)/jit(main)/while/body/convert_element_type" source_file="/global/homes/j/jackm/software/lorrax_C/src/solvers/lanczos.py" source_line=261}
  %compare.117 = pred[] compare(%constant.1052, %convert.89), direction=LE
  %constant.1053 = s32[] constant(199)
  %compare.118 = pred[] compare(%constant.1053, %convert.89), direction=GE
  %and.36 = pred[] and(%compare.117, %compare.118)
  %reshape.475 = pred[1]{0} reshape(%and.36)
  %reshape.459 = f64[1]{0} reshape(%real.47)
  %dynamic-slice.67 = f64[1]{0} dynamic-slice(%get-tuple-element.340, %convert.89), dynamic_slice_sizes={1}
  %select.256 = f64[1]{0} select(%reshape.475, %reshape.459, %dynamic-slice.67)
  %dynamic-update-slice.16 = f64[200]{0} dynamic-update-slice(%get-tuple-element.340, %select.256, %convert.89), metadata={op_name="jit(_full_run)/jit(main)/while/body/scatter" source_file="/global/homes/j/jackm/software/lorrax_C/src/solvers/lanczos.py" source_line=261}
  %constant.1054 = s32[] constant(0)
  %constant.1103 = s64[] constant(0)
  %compare.114 = pred[] compare(%get-tuple-element.342, %constant.1103), direction=LT, metadata={op_name="jit(_full_run)/jit(main)/while/body/lt" source_file="/global/homes/j/jackm/software/lorrax_C/src/solvers/lanczos.py" source_line=278}
  %constant.1108 = s64[] constant(200)
  %add.678 = s64[] add(%get-tuple-element.342, %constant.1108), metadata={op_name="jit(_full_run)/jit(main)/while/body/add" source_file="/global/homes/j/jackm/software/lorrax_C/src/solvers/lanczos.py" source_line=278}
  %select.254 = s64[] select(%compare.114, %add.678, %get-tuple-element.342), metadata={op_name="jit(_full_run)/jit(main)/while/body/select_n" source_file="/global/homes/j/jackm/software/lorrax_C/src/solvers/lanczos.py" source_line=278}
  %convert.90 = s32[] convert(%select.254), metadata={op_name="jit(_full_run)/jit(main)/while/body/convert_element_type" source_file="/global/homes/j/jackm/software/lorrax_C/src/solvers/lanczos.py" source_line=278}
  %compare.119 = pred[] compare(%constant.1054, %convert.90), direction=LE
  %constant.1055 = s32[] constant(199)
  %compare.120 = pred[] compare(%constant.1055, %convert.90), direction=GE
  %and.37 = pred[] and(%compare.119, %compare.120)
  %reshape.478 = pred[1]{0} reshape(%and.37)
  %reshape.460 = f64[1]{0} reshape(%sqrt.11)
  %dynamic-slice.68 = f64[1]{0} dynamic-slice(%get-tuple-element.339, %convert.90), dynamic_slice_sizes={1}
  %select.257 = f64[1]{0} select(%reshape.478, %reshape.460, %dynamic-slice.68)
  %dynamic-update-slice.17 = f64[200]{0} dynamic-update-slice(%get-tuple-element.339, %select.257, %convert.90), metadata={op_name="jit(_full_run)/jit(main)/while/body/scatter" source_file="/global/homes/j/jackm/software/lorrax_C/src/solvers/lanczos.py" source_line=278}
  ROOT %tuple.80 = (s64[], c128[1024,200]{1,0}, f64[200]{0}, f64[200]{0}, c128[1024]{0}, /*index=5*/c128[64,4,2,480]{3,2,1,0}, c128[64,4,2,480]{3,2,1,0}, c128[64,4,2,480]{3,2,1,0}, c128[64,4,2,480]{3,2,1,0}, f64[64,4]{1,0}, /*index=10*/f64[64,4]{1,0}, c128[480,480,4,4,4]{4,3,2,1,0}, c128[480,480]{1,0}) tuple(%add.668, %dynamic-update-slice.18, %dynamic-update-slice.16, %dynamic-update-slice.17, %divide.26, /*index=5*/%get-tuple-element.337, %get-tuple-element.336, %get-tuple-element.335, %get-tuple-element.334, %get-tuple-element.333, /*index=10*/%get-tuple-element.332, %get-tuple-element.331, %get-tuple-element.330)
  %constant.1004 = s64[] constant(0)
  %constant.1006 = s64[] constant(0)
  %constant.1010 = s32[] constant(0)
  %constant.1012 = s32[] constant(2)
  %constant.1014 = s32[] constant(4)
  %constant.1018 = s64[] constant(1)
  %constant.1020 = s64[] constant(200)
}

%region_16.1674.clone.clone (arg_tuple.6: (s64[], c128[1024,200], f64[200], f64[200], c128[1024], /*index=5*/c128[64,4,2,480], c128[64,4,2,480], c128[64,4,2,480], c128[64,4,2,480], f64[64,4], /*index=10*/f64[64,4], c128[480,480,4,4,4], c128[480,480])) -> pred[] {
  %arg_tuple.6 = (s64[], c128[1024,200]{1,0}, f64[200]{0}, f64[200]{0}, c128[1024]{0}, /*index=5*/c128[64,4,2,480]{3,2,1,0}, c128[64,4,2,480]{3,2,1,0}, c128[64,4,2,480]{3,2,1,0}, c128[64,4,2,480]{3,2,1,0}, f64[64,4]{1,0}, /*index=10*/f64[64,4]{1,0}, c128[480,480,4,4,4]{4,3,2,1,0}, c128[480,480]{1,0}) parameter(0)
  %get-tuple-element.326 = s64[] get-tuple-element(%arg_tuple.6), index=0
  %constant.1000 = s64[] constant(200)
  ROOT %compare.107 = pred[] compare(%get-tuple-element.326, %constant.1000), direction=LT, metadata={op_name="jit(_full_run)/jit(main)/while/cond/lt" source_file="/global/homes/j/jackm/software/lorrax_C/src/solvers/lanczos.py" source_line=286}
}

ENTRY %main.1863 (Arg_0.1: c128[64,4,2,480], Arg_1.2: c128[64,4,2,480], Arg_2.3: c128[64,4,2,480], Arg_3.4: c128[64,4,2,480], Arg_4.5: f64[64,4], Arg_5.6: f64[64,4], Arg_6.7: c128[480,480,4,4,4], Arg_7.8: c128[480,480]) -> (f64[5], c128[5,1024], s32[]) {
  %constant.18 = c128[] constant((0, 0))
  %iota.14 = s64[200,200]{1,0} iota(), iota_dimension=0, metadata={op_name="jit(_full_run)/jit(main)/jit(_diag)/iota" source_file="/global/homes/j/jackm/software/lorrax_C/src/solvers/lanczos.py" source_line=288}
  %iota.15 = s64[200,200]{1,0} iota(), iota_dimension=1, metadata={op_name="jit(_full_run)/jit(main)/jit(_diag)/iota" source_file="/global/homes/j/jackm/software/lorrax_C/src/solvers/lanczos.py" source_line=288}
  %compare.38 = pred[200,200]{1,0} compare(%iota.14, %iota.15), direction=EQ, metadata={op_name="jit(_full_run)/jit(main)/jit(_diag)/eq" source_file="/global/homes/j/jackm/software/lorrax_C/src/solvers/lanczos.py" source_line=288}
  %constant.24 = s64[] constant(0)
  %iota.19 = s32[2]{0} iota(), iota_dimension=0
  %constant.900 = s32[] constant(199)
  %broadcast.1067 = s32[2]{0} broadcast(%constant.900), dimensions={}
  %multiply.167 = s32[2]{0} multiply(%iota.19, %broadcast.1067)
  %constant.982 = s32[] constant(0)
  %broadcast.1079 = s32[2]{0} broadcast(%constant.982), dimensions={}
  %compare.101 = pred[2]{0} compare(%multiply.167, %broadcast.1079), direction=GE
  %constant.894 = pred[] constant(true)
  %reduce.27 = pred[] reduce(%compare.101, %constant.894), dimensions={0}, to_apply=%and.reduce_sub_computation.3
  %broadcast.1085 = pred[1024]{0} broadcast(%reduce.27), dimensions={}
  %constant.1087 = f64[] constant(-0.99999999999999989)
  %broadcast.569 = f64[1024]{0} broadcast(%constant.1087), dimensions={}, metadata={op_name="jit(_full_run)/jit(main)/jit(_normal)/jit(_normal_real)/jit(_uniform)/max" source_file="/global/homes/j/jackm/software/lorrax_C/src/solvers/lanczos.py" source_line=247}
  %iota.5 = u64[1024]{0} iota(), iota_dimension=0, metadata={op_name="jit(_full_run)/jit(main)/jit(_normal)/jit(_normal_real)/jit(_uniform)/iota_2x32_shape" source_file="/global/homes/j/jackm/software/lorrax_C/src/solvers/lanczos.py" source_line=247}
  %constant.380 = u64[] constant(32)
  %broadcast.571 = u64[1024]{0} broadcast(%constant.380), dimensions={}
  %shift-right-logical.189 = u64[1024]{0} shift-right-logical(%iota.5, %broadcast.571), metadata={op_name="jit(_full_run)/jit(main)/jit(_normal)/jit(_normal_real)/jit(_uniform)/iota_2x32_shape" source_file="/global/homes/j/jackm/software/lorrax_C/src/solvers/lanczos.py" source_line=247}
  %convert.46 = u32[1024]{0} convert(%shift-right-logical.189), metadata={op_name="jit(_full_run)/jit(main)/jit(_normal)/jit(_normal_real)/jit(_uniform)/iota_2x32_shape" source_file="/global/homes/j/jackm/software/lorrax_C/src/solvers/lanczos.py" source_line=247}
  %iota.4 = u64[2]{0} iota(), iota_dimension=0, metadata={op_name="jit(_full_run)/jit(main)/jit(_threefry_split)/iota_2x32_shape" source_file="/global/homes/j/jackm/software/lorrax_C/src/solvers/lanczos.py" source_line=245}
  %constant.362 = u64[] constant(32)
  %broadcast.511 = u64[2]{0} broadcast(%constant.362), dimensions={}
  %shift-right-logical.164 = u64[2]{0} shift-right-logical(%iota.4, %broadcast.511), metadata={op_name="jit(_full_run)/jit(main)/jit(_threefry_split)/iota_2x32_shape" source_file="/global/homes/j/jackm/software/lorrax_C/src/solvers/lanczos.py" source_line=245}
  %convert.44 = u32[2]{0} convert(%shift-right-logical.164), metadata={op_name="jit(_full_run)/jit(main)/jit(_threefry_split)/iota_2x32_shape" source_file="/global/homes/j/jackm/software/lorrax_C/src/solvers/lanczos.py" source_line=245}
  %convert.45 = u32[2]{0} convert(%iota.4), metadata={op_name="jit(_full_run)/jit(main)/jit(_threefry_split)/iota_2x32_shape" source_file="/global/homes/j/jackm/software/lorrax_C/src/solvers/lanczos.py" source_line=245}
  %constant.1088 = u32[] constant(42), metadata={op_name="jit(_full_run)/jit(main)/jit(_threefry_split)/squeeze" source_file="/global/homes/j/jackm/software/lorrax_C/src/solvers/lanczos.py" source_line=245}
  %broadcast.515 = u32[2]{0} broadcast(%constant.1088), dimensions={}, metadata={op_name="jit(_full_run)/jit(main)/jit(_threefry_split)/add" source_file="/global/homes/j/jackm/software/lorrax_C/src/solvers/lanczos.py" source_line=245}
  %add.407 = u32[2]{0} add(%convert.45, %broadcast.515), metadata={op_name="jit(_full_run)/jit(main)/jit(_threefry_split)/add" source_file="/global/homes/j/jackm/software/lorrax_C/src/solvers/lanczos.py" source_line=245}
  %add.408 = u32[2]{0} add(%convert.44, %add.407), metadata={op_name="jit(_full_run)/jit(main)/jit(_threefry_split)/add" source_file="/global/homes/j/jackm/software/lorrax_C/src/solvers/lanczos.py" source_line=245}
  %constant.363 = u32[] constant(13)
  %broadcast.517 = u32[2]{0} broadcast(%constant.363), dimensions={}
  %shift-left.158 = u32[2]{0} shift-left(%add.407, %broadcast.517), metadata={op_name="jit(_full_run)/jit(main)/jit(_threefry_split)/shift_left" source_file="/global/homes/j/jackm/software/lorrax_C/src/solvers/lanczos.py" source_line=245}
  %constant.364 = u32[] constant(19)
  %broadcast.519 = u32[2]{0} broadcast(%constant.364), dimensions={}
  %shift-right-logical.165 = u32[2]{0} shift-right-logical(%add.407, %broadcast.519), metadata={op_name="jit(_full_run)/jit(main)/jit(_threefry_split)/shift_right_logical" source_file="/global/homes/j/jackm/software/lorrax_C/src/solvers/lanczos.py" source_line=245}
  %or.162 = u32[2]{0} or(%shift-left.158, %shift-right-logical.165), metadata={op_name="jit(_full_run)/jit(main)/jit(_threefry_split)/or" source_file="/global/homes/j/jackm/software/lorrax_C/src/solvers/lanczos.py" source_line=245}
  %xor.172 = u32[2]{0} xor(%add.408, %or.162), metadata={op_name="jit(_full_run)/jit(main)/jit(_threefry_split)/xor" source_file="/global/homes/j/jackm/software/lorrax_C/src/solvers/lanczos.py" source_line=245}
  %add.409 = u32[2]{0} add(%add.408, %xor.172), metadata={op_name="jit(_full_run)/jit(main)/jit(_threefry_split)/add" source_file="/global/homes/j/jackm/software/lorrax_C/src/solvers/lanczos.py" source_line=245}
  %constant.365 = u32[] constant(15)
  %broadcast.521 = u32[2]{0} broadcast(%constant.365), dimensions={}
  %shift-left.159 = u32[2]{0} shift-left(%xor.172, %broadcast.521), metadata={op_name="jit(_full_run)/jit(main)/jit(_threefry_split)/shift_left" source_file="/global/homes/j/jackm/software/lorrax_C/src/solvers/lanczos.py" source_line=245}
  %constant.366 = u32[] constant(17)
  %broadcast.523 = u32[2]{0} broadcast(%constant.366), dimensions={}
  %shift-right-logical.166 = u32[2]{0} shift-right-logical(%xor.172, %broadcast.523), metadata={op_name="jit(_full_run)/jit(main)/jit(_threefry_split)/shift_right_logical" source_file="/global/homes/j/jackm/software/lorrax_C/src/solvers/lanczos.py" source_line=245}
  %or.163 = u32[2]{0} or(%shift-left.159, %shift-right-logical.166), metadata={op_name="jit(_full_run)/jit(main)/jit(_threefry_split)/or" source_file="/global/homes/j/jackm/software/lorrax_C/src/solvers/lanczos.py" source_line=245}
  %xor.173 = u32[2]{0} xor(%add.409, %or.163), metadata={op_name="jit(_full_run)/jit(main)/jit(_threefry_split)/xor" source_file="/global/homes/j/jackm/software/lorrax_C/src/solvers/lanczos.py" source_line=245}
  %add.410 = u32[2]{0} add(%add.409, %xor.173), metadata={op_name="jit(_full_run)/jit(main)/jit(_threefry_split)/add" source_file="/global/homes/j/jackm/software/lorrax_C/src/solvers/lanczos.py" source_line=245}
  %constant.367 = u32[] constant(26)
  %broadcast.525 = u32[2]{0} broadcast(%constant.367), dimensions={}
  %shift-left.160 = u32[2]{0} shift-left(%xor.173, %broadcast.525), metadata={op_name="jit(_full_run)/jit(main)/jit(_threefry_split)/shift_left" source_file="/global/homes/j/jackm/software/lorrax_C/src/solvers/lanczos.py" source_line=245}
  %constant.368 = u32[] constant(6)
  %broadcast.527 = u32[2]{0} broadcast(%constant.368), dimensions={}
  %shift-right-logical.167 = u32[2]{0} shift-right-logical(%xor.173, %broadcast.527), metadata={op_name="jit(_full_run)/jit(main)/jit(_threefry_split)/shift_right_logical" source_file="/global/homes/j/jackm/software/lorrax_C/src/solvers/lanczos.py" source_line=245}
  %or.165 = u32[2]{0} or(%shift-left.160, %shift-right-logical.167), metadata={op_name="jit(_full_run)/jit(main)/jit(_threefry_split)/or" source_file="/global/homes/j/jackm/software/lorrax_C/src/solvers/lanczos.py" source_line=245}
  %xor.174 = u32[2]{0} xor(%add.410, %or.165), metadata={op_name="jit(_full_run)/jit(main)/jit(_threefry_split)/xor" source_file="/global/homes/j/jackm/software/lorrax_C/src/solvers/lanczos.py" source_line=245}
  %add.411 = u32[2]{0} add(%add.410, %xor.174), metadata={op_name="jit(_full_run)/jit(main)/jit(_threefry_split)/add" source_file="/global/homes/j/jackm/software/lorrax_C/src/solvers/lanczos.py" source_line=245}
  %constant.1089 = u32[] constant(42), metadata={op_name="jit(_full_run)/jit(main)/jit(_threefry_split)/squeeze" source_file="/global/homes/j/jackm/software/lorrax_C/src/solvers/lanczos.py" source_line=245}
  %broadcast.529 = u32[2]{0} broadcast(%constant.1089), dimensions={}, metadata={op_name="jit(_full_run)/jit(main)/jit(_threefry_split)/add" source_file="/global/homes/j/jackm/software/lorrax_C/src/solvers/lanczos.py" source_line=245}
  %add.412 = u32[2]{0} add(%add.411, %broadcast.529), metadata={op_name="jit(_full_run)/jit(main)/jit(_threefry_split)/add" source_file="/global/homes/j/jackm/software/lorrax_C/src/solvers/lanczos.py" source_line=245}
  %shift-left.161 = u32[2]{0} shift-left(%xor.174, %broadcast.527), metadata={op_name="jit(_full_run)/jit(main)/jit(_threefry_split)/shift_left" source_file="/global/homes/j/jackm/software/lorrax_C/src/solvers/lanczos.py" source_line=245}
  %shift-right-logical.169 = u32[2]{0} shift-right-logical(%xor.174, %broadcast.525), metadata={op_name="jit(_full_run)/jit(main)/jit(_threefry_split)/shift_right_logical" source_file="/global/homes/j/jackm/software/lorrax_C/src/solvers/lanczos.py" source_line=245}
  %or.166 = u32[2]{0} or(%shift-left.161, %shift-right-logical.169), metadata={op_name="jit(_full_run)/jit(main)/jit(_threefry_split)/or" source_file="/global/homes/j/jackm/software/lorrax_C/src/solvers/lanczos.py" source_line=245}
  %xor.175 = u32[2]{0} xor(%add.411, %or.166), metadata={op_name="jit(_full_run)/jit(main)/jit(_threefry_split)/xor" source_file="/global/homes/j/jackm/software/lorrax_C/src/solvers/lanczos.py" source_line=245}
  %constant.994 = u32[] constant(466689009)
  %broadcast.1080 = u32[2]{0} broadcast(%constant.994), dimensions={}, metadata={op_name="jit(_full_run)/jit(main)/jit(_threefry_split)/add" source_file="/global/homes/j/jackm/software/lorrax_C/src/solvers/lanczos.py" source_line=245}
  %add.414 = u32[2]{0} add(%xor.175, %broadcast.1080), metadata={op_name="jit(_full_run)/jit(main)/jit(_threefry_split)/add" source_file="/global/homes/j/jackm/software/lorrax_C/src/solvers/lanczos.py" source_line=245}
  %add.415 = u32[2]{0} add(%add.412, %add.414), metadata={op_name="jit(_full_run)/jit(main)/jit(_threefry_split)/add" source_file="/global/homes/j/jackm/software/lorrax_C/src/solvers/lanczos.py" source_line=245}
  %shift-left.163 = u32[2]{0} shift-left(%add.414, %broadcast.523), metadata={op_name="jit(_full_run)/jit(main)/jit(_threefry_split)/shift_left" source_file="/global/homes/j/jackm/software/lorrax_C/src/solvers/lanczos.py" source_line=245}
  %shift-right-logical.170 = u32[2]{0} shift-right-logical(%add.414, %broadcast.521), metadata={op_name="jit(_full_run)/jit(main)/jit(_threefry_split)/shift_right_logical" source_file="/global/homes/j/jackm/software/lorrax_C/src/solvers/lanczos.py" source_line=245}
  %or.167 = u32[2]{0} or(%shift-left.163, %shift-right-logical.170), metadata={op_name="jit(_full_run)/jit(main)/jit(_threefry_split)/or" source_file="/global/homes/j/jackm/software/lorrax_C/src/solvers/lanczos.py" source_line=245}
  %xor.178 = u32[2]{0} xor(%add.415, %or.167), metadata={op_name="jit(_full_run)/jit(main)/jit(_threefry_split)/xor" source_file="/global/homes/j/jackm/software/lorrax_C/src/solvers/lanczos.py" source_line=245}
  %add.416 = u32[2]{0} add(%add.415, %xor.178), metadata={op_name="jit(_full_run)/jit(main)/jit(_threefry_split)/add" source_file="/global/homes/j/jackm/software/lorrax_C/src/solvers/lanczos.py" source_line=245}
  %constant.371 = u32[] constant(29)
  %broadcast.535 = u32[2]{0} broadcast(%constant.371), dimensions={}
  %shift-left.164 = u32[2]{0} shift-left(%xor.178, %broadcast.535), metadata={op_name="jit(_full_run)/jit(main)/jit(_threefry_split)/shift_left" source_file="/global/homes/j/jackm/software/lorrax_C/src/solvers/lanczos.py" source_line=245}
  %constant.372 = u32[] constant(3)
  %broadcast.537 = u32[2]{0} broadcast(%constant.372), dimensions={}
  %shift-right-logical.171 = u32[2]{0} shift-right-logical(%xor.178, %broadcast.537), metadata={op_name="jit(_full_run)/jit(main)/jit(_threefry_split)/shift_right_logical" source_file="/global/homes/j/jackm/software/lorrax_C/src/solvers/lanczos.py" source_line=245}
  %or.168 = u32[2]{0} or(%shift-left.164, %shift-right-logical.171), metadata={op_name="jit(_full_run)/jit(main)/jit(_threefry_split)/or" source_file="/global/homes/j/jackm/software/lorrax_C/src/solvers/lanczos.py" source_line=245}
  %xor.179 = u32[2]{0} xor(%add.416, %or.168), metadata={op_name="jit(_full_run)/jit(main)/jit(_threefry_split)/xor" source_file="/global/homes/j/jackm/software/lorrax_C/src/solvers/lanczos.py" source_line=245}
  %add.417 = u32[2]{0} add(%add.416, %xor.179), metadata={op_name="jit(_full_run)/jit(main)/jit(_threefry_split)/add" source_file="/global/homes/j/jackm/software/lorrax_C/src/solvers/lanczos.py" source_line=245}
  %constant.373 = u32[] constant(16)
  %broadcast.539 = u32[2]{0} broadcast(%constant.373), dimensions={}
  %shift-left.165 = u32[2]{0} shift-left(%xor.179, %broadcast.539), metadata={op_name="jit(_full_run)/jit(main)/jit(_threefry_split)/shift_left" source_file="/global/homes/j/jackm/software/lorrax_C/src/solvers/lanczos.py" source_line=245}
  %shift-right-logical.172 = u32[2]{0} shift-right-logical(%xor.179, %broadcast.539), metadata={op_name="jit(_full_run)/jit(main)/jit(_threefry_split)/shift_right_logical" source_file="/global/homes/j/jackm/software/lorrax_C/src/solvers/lanczos.py" source_line=245}
  %or.170 = u32[2]{0} or(%shift-left.165, %shift-right-logical.172), metadata={op_name="jit(_full_run)/jit(main)/jit(_threefry_split)/or" source_file="/global/homes/j/jackm/software/lorrax_C/src/solvers/lanczos.py" source_line=245}
  %xor.181 = u32[2]{0} xor(%add.417, %or.170), metadata={op_name="jit(_full_run)/jit(main)/jit(_threefry_split)/xor" source_file="/global/homes/j/jackm/software/lorrax_C/src/solvers/lanczos.py" source_line=245}
  %add.418 = u32[2]{0} add(%add.417, %xor.181), metadata={op_name="jit(_full_run)/jit(main)/jit(_threefry_split)/add" source_file="/global/homes/j/jackm/software/lorrax_C/src/solvers/lanczos.py" source_line=245}
  %constant.1092 = u32[] constant(466689008), metadata={op_name="jit(_full_run)/jit(main)/jit(_threefry_split)/xor" source_file="/global/homes/j/jackm/software/lorrax_C/src/solvers/lanczos.py" source_line=245}
  %broadcast.541 = u32[2]{0} broadcast(%constant.1092), dimensions={}, metadata={op_name="jit(_full_run)/jit(main)/jit(_threefry_split)/add" source_file="/global/homes/j/jackm/software/lorrax_C/src/solvers/lanczos.py" source_line=245}
  %add.419 = u32[2]{0} add(%add.418, %broadcast.541), metadata={op_name="jit(_full_run)/jit(main)/jit(_threefry_split)/add" source_file="/global/homes/j/jackm/software/lorrax_C/src/solvers/lanczos.py" source_line=245}
  %constant.374 = u32[] constant(24)
  %broadcast.543 = u32[2]{0} broadcast(%constant.374), dimensions={}
  %shift-left.166 = u32[2]{0} shift-left(%xor.181, %broadcast.543), metadata={op_name="jit(_full_run)/jit(main)/jit(_threefry_split)/shift_left" source_file="/global/homes/j/jackm/software/lorrax_C/src/solvers/lanczos.py" source_line=245}
  %constant.375 = u32[] constant(8)
  %broadcast.545 = u32[2]{0} broadcast(%constant.375), dimensions={}
  %shift-right-logical.173 = u32[2]{0} shift-right-logical(%xor.181, %broadcast.545), metadata={op_name="jit(_full_run)/jit(main)/jit(_threefry_split)/shift_right_logical" source_file="/global/homes/j/jackm/software/lorrax_C/src/solvers/lanczos.py" source_line=245}
  %or.171 = u32[2]{0} or(%shift-left.166, %shift-right-logical.173), metadata={op_name="jit(_full_run)/jit(main)/jit(_threefry_split)/or" source_file="/global/homes/j/jackm/software/lorrax_C/src/solvers/lanczos.py" source_line=245}
  %xor.182 = u32[2]{0} xor(%add.418, %or.171), metadata={op_name="jit(_full_run)/jit(main)/jit(_threefry_split)/xor" source_file="/global/homes/j/jackm/software/lorrax_C/src/solvers/lanczos.py" source_line=245}
  %constant.376 = u32[] constant(2)
  %broadcast.549 = u32[2]{0} broadcast(%constant.376), dimensions={}
  %add.421 = u32[2]{0} add(%xor.182, %broadcast.549), metadata={op_name="jit(_full_run)/jit(main)/jit(_threefry_split)/add" source_file="/global/homes/j/jackm/software/lorrax_C/src/solvers/lanczos.py" source_line=245}
  %add.422 = u32[2]{0} add(%add.419, %add.421), metadata={op_name="jit(_full_run)/jit(main)/jit(_threefry_split)/add" source_file="/global/homes/j/jackm/software/lorrax_C/src/solvers/lanczos.py" source_line=245}
  %shift-left.168 = u32[2]{0} shift-left(%add.421, %broadcast.517), metadata={op_name="jit(_full_run)/jit(main)/jit(_threefry_split)/shift_left" source_file="/global/homes/j/jackm/software/lorrax_C/src/solvers/lanczos.py" source_line=245}
  %shift-right-logical.174 = u32[2]{0} shift-right-logical(%add.421, %broadcast.519), metadata={op_name="jit(_full_run)/jit(main)/jit(_threefry_split)/shift_right_logical" source_file="/global/homes/j/jackm/software/lorrax_C/src/solvers/lanczos.py" source_line=245}
  %or.172 = u32[2]{0} or(%shift-left.168, %shift-right-logical.174), metadata={op_name="jit(_full_run)/jit(main)/jit(_threefry_split)/or" source_file="/global/homes/j/jackm/software/lorrax_C/src/solvers/lanczos.py" source_line=245}
  %xor.183 = u32[2]{0} xor(%add.422, %or.172), metadata={op_name="jit(_full_run)/jit(main)/jit(_threefry_split)/xor" source_file="/global/homes/j/jackm/software/lorrax_C/src/solvers/lanczos.py" source_line=245}
  %add.423 = u32[2]{0} add(%add.422, %xor.183), metadata={op_name="jit(_full_run)/jit(main)/jit(_threefry_split)/add" source_file="/global/homes/j/jackm/software/lorrax_C/src/solvers/lanczos.py" source_line=245}
  %shift-left.169 = u32[2]{0} shift-left(%xor.183, %broadcast.521), metadata={op_name="jit(_full_run)/jit(main)/jit(_threefry_split)/shift_left" source_file="/global/homes/j/jackm/software/lorrax_C/src/solvers/lanczos.py" source_line=245}
  %shift-right-logical.175 = u32[2]{0} shift-right-logical(%xor.183, %broadcast.523), metadata={op_name="jit(_full_run)/jit(main)/jit(_threefry_split)/shift_right_logical" source_file="/global/homes/j/jackm/software/lorrax_C/src/solvers/lanczos.py" source_line=245}
  %or.173 = u32[2]{0} or(%shift-left.169, %shift-right-logical.175), metadata={op_name="jit(_full_run)/jit(main)/jit(_threefry_split)/or" source_file="/global/homes/j/jackm/software/lorrax_C/src/solvers/lanczos.py" source_line=245}
  %xor.184 = u32[2]{0} xor(%add.423, %or.173), metadata={op_name="jit(_full_run)/jit(main)/jit(_threefry_split)/xor" source_file="/global/homes/j/jackm/software/lorrax_C/src/solvers/lanczos.py" source_line=245}
  %add.424 = u32[2]{0} add(%add.423, %xor.184), metadata={op_name="jit(_full_run)/jit(main)/jit(_threefry_split)/add" source_file="/global/homes/j/jackm/software/lorrax_C/src/solvers/lanczos.py" source_line=245}
  %shift-left.170 = u32[2]{0} shift-left(%xor.184, %broadcast.525), metadata={op_name="jit(_full_run)/jit(main)/jit(_threefry_split)/shift_left" source_file="/global/homes/j/jackm/software/lorrax_C/src/solvers/lanczos.py" source_line=245}
  %shift-right-logical.176 = u32[2]{0} shift-right-logical(%xor.184, %broadcast.527), metadata={op_name="jit(_full_run)/jit(main)/jit(_threefry_split)/shift_right_logical" source_file="/global/homes/j/jackm/software/lorrax_C/src/solvers/lanczos.py" source_line=245}
  %or.174 = u32[2]{0} or(%shift-left.170, %shift-right-logical.176), metadata={op_name="jit(_full_run)/jit(main)/jit(_threefry_split)/or" source_file="/global/homes/j/jackm/software/lorrax_C/src/solvers/lanczos.py" source_line=245}
  %xor.186 = u32[2]{0} xor(%add.424, %or.174), metadata={op_name="jit(_full_run)/jit(main)/jit(_threefry_split)/xor" source_file="/global/homes/j/jackm/software/lorrax_C/src/solvers/lanczos.py" source_line=245}
  %add.426 = u32[2]{0} add(%add.424, %xor.186), metadata={op_name="jit(_full_run)/jit(main)/jit(_threefry_split)/add" source_file="/global/homes/j/jackm/software/lorrax_C/src/solvers/lanczos.py" source_line=245}
  %shift-left.171 = u32[2]{0} shift-left(%xor.186, %broadcast.527), metadata={op_name="jit(_full_run)/jit(main)/jit(_threefry_split)/shift_left" source_file="/global/homes/j/jackm/software/lorrax_C/src/solvers/lanczos.py" source_line=245}
  %shift-right-logical.177 = u32[2]{0} shift-right-logical(%xor.186, %broadcast.525), metadata={op_name="jit(_full_run)/jit(main)/jit(_threefry_split)/shift_right_logical" source_file="/global/homes/j/jackm/software/lorrax_C/src/solvers/lanczos.py" source_line=245}
  %or.175 = u32[2]{0} or(%shift-left.171, %shift-right-logical.177), metadata={op_name="jit(_full_run)/jit(main)/jit(_threefry_split)/or" source_file="/global/homes/j/jackm/software/lorrax_C/src/solvers/lanczos.py" source_line=245}
  %xor.187 = u32[2]{0} xor(%add.426, %or.175), metadata={op_name="jit(_full_run)/jit(main)/jit(_threefry_split)/xor" source_file="/global/homes/j/jackm/software/lorrax_C/src/solvers/lanczos.py" source_line=245}
  %constant.996 = u32[] constant(45)
  %broadcast.1081 = u32[2]{0} broadcast(%constant.996), dimensions={}, metadata={op_name="jit(_full_run)/jit(main)/jit(_threefry_split)/add" source_file="/global/homes/j/jackm/software/lorrax_C/src/solvers/lanczos.py" source_line=245}
  %add.428 = u32[2]{0} add(%xor.187, %broadcast.1081), metadata={op_name="jit(_full_run)/jit(main)/jit(_threefry_split)/add" source_file="/global/homes/j/jackm/software/lorrax_C/src/solvers/lanczos.py" source_line=245}
  %add.429 = u32[2]{0} add(%add.426, %add.428), metadata={op_name="jit(_full_run)/jit(main)/jit(_threefry_split)/add" source_file="/global/homes/j/jackm/software/lorrax_C/src/solvers/lanczos.py" source_line=245}
  %shift-left.172 = u32[2]{0} shift-left(%add.428, %broadcast.523), metadata={op_name="jit(_full_run)/jit(main)/jit(_threefry_split)/shift_left" source_file="/global/homes/j/jackm/software/lorrax_C/src/solvers/lanczos.py" source_line=245}
  %shift-right-logical.179 = u32[2]{0} shift-right-logical(%add.428, %broadcast.521), metadata={op_name="jit(_full_run)/jit(main)/jit(_threefry_split)/shift_right_logical" source_file="/global/homes/j/jackm/software/lorrax_C/src/solvers/lanczos.py" source_line=245}
  %or.176 = u32[2]{0} or(%shift-left.172, %shift-right-logical.179), metadata={op_name="jit(_full_run)/jit(main)/jit(_threefry_split)/or" source_file="/global/homes/j/jackm/software/lorrax_C/src/solvers/lanczos.py" source_line=245}
  %xor.188 = u32[2]{0} xor(%add.429, %or.176), metadata={op_name="jit(_full_run)/jit(main)/jit(_threefry_split)/xor" source_file="/global/homes/j/jackm/software/lorrax_C/src/solvers/lanczos.py" source_line=245}
  %add.430 = u32[2]{0} add(%add.429, %xor.188), metadata={op_name="jit(_full_run)/jit(main)/jit(_threefry_split)/add" source_file="/global/homes/j/jackm/software/lorrax_C/src/solvers/lanczos.py" source_line=245}
  %shift-left.173 = u32[2]{0} shift-left(%xor.188, %broadcast.535), metadata={op_name="jit(_full_run)/jit(main)/jit(_threefry_split)/shift_left" source_file="/global/homes/j/jackm/software/lorrax_C/src/solvers/lanczos.py" source_line=245}
  %shift-right-logical.180 = u32[2]{0} shift-right-logical(%xor.188, %broadcast.537), metadata={op_name="jit(_full_run)/jit(main)/jit(_threefry_split)/shift_right_logical" source_file="/global/homes/j/jackm/software/lorrax_C/src/solvers/lanczos.py" source_line=245}
  %or.177 = u32[2]{0} or(%shift-left.173, %shift-right-logical.180), metadata={op_name="jit(_full_run)/jit(main)/jit(_threefry_split)/or" source_file="/global/homes/j/jackm/software/lorrax_C/src/solvers/lanczos.py" source_line=245}
  %xor.189 = u32[2]{0} xor(%add.430, %or.177), metadata={op_name="jit(_full_run)/jit(main)/jit(_threefry_split)/xor" source_file="/global/homes/j/jackm/software/lorrax_C/src/solvers/lanczos.py" source_line=245}
  %add.431 = u32[2]{0} add(%add.430, %xor.189), metadata={op_name="jit(_full_run)/jit(main)/jit(_threefry_split)/add" source_file="/global/homes/j/jackm/software/lorrax_C/src/solvers/lanczos.py" source_line=245}
  %shift-left.174 = u32[2]{0} shift-left(%xor.189, %broadcast.539), metadata={op_name="jit(_full_run)/jit(main)/jit(_threefry_split)/shift_left" source_file="/global/homes/j/jackm/software/lorrax_C/src/solvers/lanczos.py" source_line=245}
  %shift-right-logical.181 = u32[2]{0} shift-right-logical(%xor.189, %broadcast.539), metadata={op_name="jit(_full_run)/jit(main)/jit(_threefry_split)/shift_right_logical" source_file="/global/homes/j/jackm/software/lorrax_C/src/solvers/lanczos.py" source_line=245}
  %or.178 = u32[2]{0} or(%shift-left.174, %shift-right-logical.181), metadata={op_name="jit(_full_run)/jit(main)/jit(_threefry_split)/or" source_file="/global/homes/j/jackm/software/lorrax_C/src/solvers/lanczos.py" source_line=245}
  %xor.191 = u32[2]{0} xor(%add.431, %or.178), metadata={op_name="jit(_full_run)/jit(main)/jit(_threefry_split)/xor" source_file="/global/homes/j/jackm/software/lorrax_C/src/solvers/lanczos.py" source_line=245}
  %add.432 = u32[2]{0} add(%add.431, %xor.191), metadata={op_name="jit(_full_run)/jit(main)/jit(_threefry_split)/add" source_file="/global/homes/j/jackm/software/lorrax_C/src/solvers/lanczos.py" source_line=245}
  %constant.1090 = u32[] constant(42), metadata={op_name="jit(_full_run)/jit(main)/jit(_threefry_split)/squeeze" source_file="/global/homes/j/jackm/software/lorrax_C/src/solvers/lanczos.py" source_line=245}
  %broadcast.555 = u32[2]{0} broadcast(%constant.1090), dimensions={}, metadata={op_name="jit(_full_run)/jit(main)/jit(_threefry_split)/add" source_file="/global/homes/j/jackm/software/lorrax_C/src/solvers/lanczos.py" source_line=245}
  %add.433 = u32[2]{0} add(%add.432, %broadcast.555), metadata={op_name="jit(_full_run)/jit(main)/jit(_threefry_split)/add" source_file="/global/homes/j/jackm/software/lorrax_C/src/solvers/lanczos.py" source_line=245}
  %shift-left.175 = u32[2]{0} shift-left(%xor.191, %broadcast.543), metadata={op_name="jit(_full_run)/jit(main)/jit(_threefry_split)/shift_left" source_file="/global/homes/j/jackm/software/lorrax_C/src/solvers/lanczos.py" source_line=245}
  %shift-right-logical.182 = u32[2]{0} shift-right-logical(%xor.191, %broadcast.545), metadata={op_name="jit(_full_run)/jit(main)/jit(_threefry_split)/shift_right_logical" source_file="/global/homes/j/jackm/software/lorrax_C/src/solvers/lanczos.py" source_line=245}
  %or.180 = u32[2]{0} or(%shift-left.175, %shift-right-logical.182), metadata={op_name="jit(_full_run)/jit(main)/jit(_threefry_split)/or" source_file="/global/homes/j/jackm/software/lorrax_C/src/solvers/lanczos.py" source_line=245}
  %xor.192 = u32[2]{0} xor(%add.432, %or.180), metadata={op_name="jit(_full_run)/jit(main)/jit(_threefry_split)/xor" source_file="/global/homes/j/jackm/software/lorrax_C/src/solvers/lanczos.py" source_line=245}
  %constant.998 = u32[] constant(466689012)
  %broadcast.1082 = u32[2]{0} broadcast(%constant.998), dimensions={}, metadata={op_name="jit(_full_run)/jit(main)/jit(_threefry_split)/add" source_file="/global/homes/j/jackm/software/lorrax_C/src/solvers/lanczos.py" source_line=245}
  %add.436 = u32[2]{0} add(%xor.192, %broadcast.1082), metadata={op_name="jit(_full_run)/jit(main)/jit(_threefry_split)/add" source_file="/global/homes/j/jackm/software/lorrax_C/src/solvers/lanczos.py" source_line=245}
  %add.437 = u32[2]{0} add(%add.433, %add.436), metadata={op_name="jit(_full_run)/jit(main)/jit(_threefry_split)/add" source_file="/global/homes/j/jackm/software/lorrax_C/src/solvers/lanczos.py" source_line=245}
  %shift-left.176 = u32[2]{0} shift-left(%add.436, %broadcast.517), metadata={op_name="jit(_full_run)/jit(main)/jit(_threefry_split)/shift_left" source_file="/global/homes/j/jackm/software/lorrax_C/src/solvers/lanczos.py" source_line=245}
  %shift-right-logical.184 = u32[2]{0} shift-right-logical(%add.436, %broadcast.519), metadata={op_name="jit(_full_run)/jit(main)/jit(_threefry_split)/shift_right_logical" source_file="/global/homes/j/jackm/software/lorrax_C/src/solvers/lanczos.py" source_line=245}
  %or.181 = u32[2]{0} or(%shift-left.176, %shift-right-logical.184), metadata={op_name="jit(_full_run)/jit(main)/jit(_threefry_split)/or" source_file="/global/homes/j/jackm/software/lorrax_C/src/solvers/lanczos.py" source_line=245}
  %xor.193 = u32[2]{0} xor(%add.437, %or.181), metadata={op_name="jit(_full_run)/jit(main)/jit(_threefry_split)/xor" source_file="/global/homes/j/jackm/software/lorrax_C/src/solvers/lanczos.py" source_line=245}
  %add.438 = u32[2]{0} add(%add.437, %xor.193), metadata={op_name="jit(_full_run)/jit(main)/jit(_threefry_split)/add" source_file="/global/homes/j/jackm/software/lorrax_C/src/solvers/lanczos.py" source_line=245}
  %shift-left.178 = u32[2]{0} shift-left(%xor.193, %broadcast.521), metadata={op_name="jit(_full_run)/jit(main)/jit(_threefry_split)/shift_left" source_file="/global/homes/j/jackm/software/lorrax_C/src/solvers/lanczos.py" source_line=245}
  %shift-right-logical.185 = u32[2]{0} shift-right-logical(%xor.193, %broadcast.523), metadata={op_name="jit(_full_run)/jit(main)/jit(_threefry_split)/shift_right_logical" source_file="/global/homes/j/jackm/software/lorrax_C/src/solvers/lanczos.py" source_line=245}
  %or.182 = u32[2]{0} or(%shift-left.178, %shift-right-logical.185), metadata={op_name="jit(_full_run)/jit(main)/jit(_threefry_split)/or" source_file="/global/homes/j/jackm/software/lorrax_C/src/solvers/lanczos.py" source_line=245}
  %xor.194 = u32[2]{0} xor(%add.438, %or.182), metadata={op_name="jit(_full_run)/jit(main)/jit(_threefry_split)/xor" source_file="/global/homes/j/jackm/software/lorrax_C/src/solvers/lanczos.py" source_line=245}
  %add.439 = u32[2]{0} add(%add.438, %xor.194), metadata={op_name="jit(_full_run)/jit(main)/jit(_threefry_split)/add" source_file="/global/homes/j/jackm/software/lorrax_C/src/solvers/lanczos.py" source_line=245}
  %shift-left.179 = u32[2]{0} shift-left(%xor.194, %broadcast.525), metadata={op_name="jit(_full_run)/jit(main)/jit(_threefry_split)/shift_left" source_file="/global/homes/j/jackm/software/lorrax_C/src/solvers/lanczos.py" source_line=245}
  %shift-right-logical.186 = u32[2]{0} shift-right-logical(%xor.194, %broadcast.527), metadata={op_name="jit(_full_run)/jit(main)/jit(_threefry_split)/shift_right_logical" source_file="/global/homes/j/jackm/software/lorrax_C/src/solvers/lanczos.py" source_line=245}
  %or.183 = u32[2]{0} or(%shift-left.179, %shift-right-logical.186), metadata={op_name="jit(_full_run)/jit(main)/jit(_threefry_split)/or" source_file="/global/homes/j/jackm/software/lorrax_C/src/solvers/lanczos.py" source_line=245}
  %xor.196 = u32[2]{0} xor(%add.439, %or.183), metadata={op_name="jit(_full_run)/jit(main)/jit(_threefry_split)/xor" source_file="/global/homes/j/jackm/software/lorrax_C/src/solvers/lanczos.py" source_line=245}
  %add.440 = u32[2]{0} add(%add.439, %xor.196), metadata={op_name="jit(_full_run)/jit(main)/jit(_threefry_split)/add" source_file="/global/homes/j/jackm/software/lorrax_C/src/solvers/lanczos.py" source_line=245}
  %constant.1091 = u32[] constant(466689008), metadata={op_name="jit(_full_run)/jit(main)/jit(_threefry_split)/xor" source_file="/global/homes/j/jackm/software/lorrax_C/src/solvers/lanczos.py" source_line=245}
  %broadcast.561 = u32[2]{0} broadcast(%constant.1091), dimensions={}, metadata={op_name="jit(_full_run)/jit(main)/jit(_threefry_split)/add" source_file="/global/homes/j/jackm/software/lorrax_C/src/solvers/lanczos.py" source_line=245}
  %add.441 = u32[2]{0} add(%add.440, %broadcast.561), metadata={op_name="jit(_full_run)/jit(main)/jit(_threefry_split)/add" source_file="/global/homes/j/jackm/software/lorrax_C/src/solvers/lanczos.py" source_line=245}
  %slice.108 = u32[1]{0} slice(%add.441), slice={[0:1]}, metadata={op_name="jit(_full_run)/jit(main)/jit(_normal)/jit(_normal_real)/jit(_uniform)/slice" source_file="/global/homes/j/jackm/software/lorrax_C/src/solvers/lanczos.py" source_line=247}
  %reshape.67 = u32[] reshape(%slice.108), metadata={op_name="jit(_full_run)/jit(main)/jit(_normal)/jit(_normal_real)/jit(_uniform)/squeeze" source_file="/global/homes/j/jackm/software/lorrax_C/src/solvers/lanczos.py" source_line=247}
  %broadcast.573 = u32[1024]{0} broadcast(%reshape.67), dimensions={}, metadata={op_name="jit(_full_run)/jit(main)/jit(_normal)/jit(_normal_real)/jit(_uniform)/add" source_file="/global/homes/j/jackm/software/lorrax_C/src/solvers/lanczos.py" source_line=247}
  %add.444 = u32[1024]{0} add(%convert.46, %broadcast.573), metadata={op_name="jit(_full_run)/jit(main)/jit(_normal)/jit(_normal_real)/jit(_uniform)/add" source_file="/global/homes/j/jackm/software/lorrax_C/src/solvers/lanczos.py" source_line=247}
  %convert.47 = u32[1024]{0} convert(%iota.5), metadata={op_name="jit(_full_run)/jit(main)/jit(_normal)/jit(_normal_real)/jit(_uniform)/iota_2x32_shape" source_file="/global/homes/j/jackm/software/lorrax_C/src/solvers/lanczos.py" source_line=247}
  %reshape.63 = u32[2,1]{1,0} reshape(%add.441), metadata={op_name="jit(_full_run)/jit(main)/jit(_threefry_split)/broadcast_in_dim" source_file="/global/homes/j/jackm/software/lorrax_C/src/solvers/lanczos.py" source_line=245}
  %shift-left.180 = u32[2]{0} shift-left(%xor.196, %broadcast.527), metadata={op_name="jit(_full_run)/jit(main)/jit(_threefry_split)/shift_left" source_file="/global/homes/j/jackm/software/lorrax_C/src/solvers/lanczos.py" source_line=245}
  %shift-right-logical.187 = u32[2]{0} shift-right-logical(%xor.196, %broadcast.525), metadata={op_name="jit(_full_run)/jit(main)/jit(_threefry_split)/shift_right_logical" source_file="/global/homes/j/jackm/software/lorrax_C/src/solvers/lanczos.py" source_line=245}
  %or.185 = u32[2]{0} or(%shift-left.180, %shift-right-logical.187), metadata={op_name="jit(_full_run)/jit(main)/jit(_threefry_split)/or" source_file="/global/homes/j/jackm/software/lorrax_C/src/solvers/lanczos.py" source_line=245}
  %xor.197 = u32[2]{0} xor(%add.440, %or.185), metadata={op_name="jit(_full_run)/jit(main)/jit(_threefry_split)/xor" source_file="/global/homes/j/jackm/software/lorrax_C/src/solvers/lanczos.py" source_line=245}
  %constant.378 = u32[] constant(5)
  %broadcast.565 = u32[2]{0} broadcast(%constant.378), dimensions={}
  %add.443 = u32[2]{0} add(%xor.197, %broadcast.565), metadata={op_name="jit(_full_run)/jit(main)/jit(_threefry_split)/add" source_file="/global/homes/j/jackm/software/lorrax_C/src/solvers/lanczos.py" source_line=245}
  %reshape.64 = u32[2,1]{1,0} reshape(%add.443), metadata={op_name="jit(_full_run)/jit(main)/jit(_threefry_split)/broadcast_in_dim" source_file="/global/homes/j/jackm/software/lorrax_C/src/solvers/lanczos.py" source_line=245}
  %concatenate.0 = u32[2,2]{1,0} concatenate(%reshape.63, %reshape.64), dimensions={1}, metadata={op_name="jit(_full_run)/jit(main)/jit(_threefry_split)/concatenate" source_file="/global/homes/j/jackm/software/lorrax_C/src/solvers/lanczos.py" source_line=245}
  %slice.221 = u32[1,2]{1,0} slice(%concatenate.0), slice={[0:1], [0:2]}, metadata={op_name="jit(_full_run)/jit(main)/slice" source_file="/global/homes/j/jackm/software/lorrax_C/src/solvers/lanczos.py" source_line=245}
  %reshape.222 = u32[2]{0} reshape(%slice.221), metadata={op_name="jit(_full_run)/jit(main)/squeeze" source_file="/global/homes/j/jackm/software/lorrax_C/src/solvers/lanczos.py" source_line=245}
  %slice.11 = u32[1]{0} slice(%reshape.222), slice={[1:2]}, metadata={op_name="jit(_full_run)/jit(main)/jit(_normal)/jit(_normal_real)/jit(_uniform)/slice" source_file="/global/homes/j/jackm/software/lorrax_C/src/solvers/lanczos.py" source_line=247}
  %reshape.68 = u32[] reshape(%slice.11), metadata={op_name="jit(_full_run)/jit(main)/jit(_normal)/jit(_normal_real)/jit(_uniform)/squeeze" source_file="/global/homes/j/jackm/software/lorrax_C/src/solvers/lanczos.py" source_line=247}
  %broadcast.575 = u32[1024]{0} broadcast(%reshape.68), dimensions={}, metadata={op_name="jit(_full_run)/jit(main)/jit(_normal)/jit(_normal_real)/jit(_uniform)/add" source_file="/global/homes/j/jackm/software/lorrax_C/src/solvers/lanczos.py" source_line=247}
  %add.445 = u32[1024]{0} add(%convert.47, %broadcast.575), metadata={op_name="jit(_full_run)/jit(main)/jit(_normal)/jit(_normal_real)/jit(_uniform)/add" source_file="/global/homes/j/jackm/software/lorrax_C/src/solvers/lanczos.py" source_line=247}
  %add.446 = u32[1024]{0} add(%add.444, %add.445), metadata={op_name="jit(_full_run)/jit(main)/jit(_normal)/jit(_normal_real)/jit(_uniform)/add" source_file="/global/homes/j/jackm/software/lorrax_C/src/solvers/lanczos.py" source_line=247}
  %constant.381 = u32[] constant(13)
  %broadcast.576 = u32[1024]{0} broadcast(%constant.381), dimensions={}
  %shift-left.181 = u32[1024]{0} shift-left(%add.445, %broadcast.576), metadata={op_name="jit(_full_run)/jit(main)/jit(_normal)/jit(_normal_real)/jit(_uniform)/shift_left" source_file="/global/homes/j/jackm/software/lorrax_C/src/solvers/lanczos.py" source_line=247}
  %constant.382 = u32[] constant(19)
  %broadcast.577 = u32[1024]{0} broadcast(%constant.382), dimensions={}
  %shift-right-logical.190 = u32[1024]{0} shift-right-logical(%add.445, %broadcast.577), metadata={op_name="jit(_full_run)/jit(main)/jit(_normal)/jit(_normal_real)/jit(_uniform)/shift_right_logical" source_file="/global/homes/j/jackm/software/lorrax_C/src/solvers/lanczos.py" source_line=247}
  %or.186 = u32[1024]{0} or(%shift-left.181, %shift-right-logical.190), metadata={op_name="jit(_full_run)/jit(main)/jit(_normal)/jit(_normal_real)/jit(_uniform)/or" source_file="/global/homes/j/jackm/software/lorrax_C/src/solvers/lanczos.py" source_line=247}
  %xor.198 = u32[1024]{0} xor(%add.446, %or.186), metadata={op_name="jit(_full_run)/jit(main)/jit(_normal)/jit(_normal_real)/jit(_uniform)/xor" source_file="/global/homes/j/jackm/software/lorrax_C/src/solvers/lanczos.py" source_line=247}
  %add.447 = u32[1024]{0} add(%add.446, %xor.198), metadata={op_name="jit(_full_run)/jit(main)/jit(_normal)/jit(_normal_real)/jit(_uniform)/add" source_file="/global/homes/j/jackm/software/lorrax_C/src/solvers/lanczos.py" source_line=247}
  %constant.383 = u32[] constant(15)
  %broadcast.578 = u32[1024]{0} broadcast(%constant.383), dimensions={}
  %shift-left.183 = u32[1024]{0} shift-left(%xor.198, %broadcast.578), metadata={op_name="jit(_full_run)/jit(main)/jit(_normal)/jit(_normal_real)/jit(_uniform)/shift_left" source_file="/global/homes/j/jackm/software/lorrax_C/src/solvers/lanczos.py" source_line=247}
  %constant.384 = u32[] constant(17)
  %broadcast.579 = u32[1024]{0} broadcast(%constant.384), dimensions={}
  %shift-right-logical.191 = u32[1024]{0} shift-right-logical(%xor.198, %broadcast.579), metadata={op_name="jit(_full_run)/jit(main)/jit(_normal)/jit(_normal_real)/jit(_uniform)/shift_right_logical" source_file="/global/homes/j/jackm/software/lorrax_C/src/solvers/lanczos.py" source_line=247}
  %or.187 = u32[1024]{0} or(%shift-left.183, %shift-right-logical.191), metadata={op_name="jit(_full_run)/jit(main)/jit(_normal)/jit(_normal_real)/jit(_uniform)/or" source_file="/global/homes/j/jackm/software/lorrax_C/src/solvers/lanczos.py" source_line=247}
  %xor.199 = u32[1024]{0} xor(%add.447, %or.187), metadata={op_name="jit(_full_run)/jit(main)/jit(_normal)/jit(_normal_real)/jit(_uniform)/xor" source_file="/global/homes/j/jackm/software/lorrax_C/src/solvers/lanczos.py" source_line=247}
  %add.448 = u32[1024]{0} add(%add.447, %xor.199), metadata={op_name="jit(_full_run)/jit(main)/jit(_normal)/jit(_normal_real)/jit(_uniform)/add" source_file="/global/homes/j/jackm/software/lorrax_C/src/solvers/lanczos.py" source_line=247}
  %constant.385 = u32[] constant(26)
  %broadcast.580 = u32[1024]{0} broadcast(%constant.385), dimensions={}
  %shift-left.184 = u32[1024]{0} shift-left(%xor.199, %broadcast.580), metadata={op_name="jit(_full_run)/jit(main)/jit(_normal)/jit(_normal_real)/jit(_uniform)/shift_left" source_file="/global/homes/j/jackm/software/lorrax_C/src/solvers/lanczos.py" source_line=247}
  %constant.386 = u32[] constant(6)
  %broadcast.581 = u32[1024]{0} broadcast(%constant.386), dimensions={}
  %shift-right-logical.192 = u32[1024]{0} shift-right-logical(%xor.199, %broadcast.581), metadata={op_name="jit(_full_run)/jit(main)/jit(_normal)/jit(_normal_real)/jit(_uniform)/shift_right_logical" source_file="/global/homes/j/jackm/software/lorrax_C/src/solvers/lanczos.py" source_line=247}
  %or.188 = u32[1024]{0} or(%shift-left.184, %shift-right-logical.192), metadata={op_name="jit(_full_run)/jit(main)/jit(_normal)/jit(_normal_real)/jit(_uniform)/or" source_file="/global/homes/j/jackm/software/lorrax_C/src/solvers/lanczos.py" source_line=247}
  %xor.200 = u32[1024]{0} xor(%add.448, %or.188), metadata={op_name="jit(_full_run)/jit(main)/jit(_normal)/jit(_normal_real)/jit(_uniform)/xor" source_file="/global/homes/j/jackm/software/lorrax_C/src/solvers/lanczos.py" source_line=247}
  %add.449 = u32[1024]{0} add(%add.448, %xor.200), metadata={op_name="jit(_full_run)/jit(main)/jit(_normal)/jit(_normal_real)/jit(_uniform)/add" source_file="/global/homes/j/jackm/software/lorrax_C/src/solvers/lanczos.py" source_line=247}
  %broadcast.582 = u32[1024]{0} broadcast(%reshape.68), dimensions={}, metadata={op_name="jit(_full_run)/jit(main)/jit(_normal)/jit(_normal_real)/jit(_uniform)/add" source_file="/global/homes/j/jackm/software/lorrax_C/src/solvers/lanczos.py" source_line=247}
  %add.450 = u32[1024]{0} add(%add.449, %broadcast.582), metadata={op_name="jit(_full_run)/jit(main)/jit(_normal)/jit(_normal_real)/jit(_uniform)/add" source_file="/global/homes/j/jackm/software/lorrax_C/src/solvers/lanczos.py" source_line=247}
  %shift-left.185 = u32[1024]{0} shift-left(%xor.200, %broadcast.581), metadata={op_name="jit(_full_run)/jit(main)/jit(_normal)/jit(_normal_real)/jit(_uniform)/shift_left" source_file="/global/homes/j/jackm/software/lorrax_C/src/solvers/lanczos.py" source_line=247}
  %shift-right-logical.194 = u32[1024]{0} shift-right-logical(%xor.200, %broadcast.580), metadata={op_name="jit(_full_run)/jit(main)/jit(_normal)/jit(_normal_real)/jit(_uniform)/shift_right_logical" source_file="/global/homes/j/jackm/software/lorrax_C/src/solvers/lanczos.py" source_line=247}
  %or.190 = u32[1024]{0} or(%shift-left.185, %shift-right-logical.194), metadata={op_name="jit(_full_run)/jit(main)/jit(_normal)/jit(_normal_real)/jit(_uniform)/or" source_file="/global/homes/j/jackm/software/lorrax_C/src/solvers/lanczos.py" source_line=247}
  %xor.201 = u32[1024]{0} xor(%add.449, %or.190), metadata={op_name="jit(_full_run)/jit(main)/jit(_normal)/jit(_normal_real)/jit(_uniform)/xor" source_file="/global/homes/j/jackm/software/lorrax_C/src/solvers/lanczos.py" source_line=247}
  %xor.202 = u32[] xor(%reshape.67, %reshape.68), metadata={op_name="jit(_full_run)/jit(main)/jit(_normal)/jit(_normal_real)/jit(_uniform)/xor" source_file="/global/homes/j/jackm/software/lorrax_C/src/solvers/lanczos.py" source_line=247}
  %constant.387 = u32[] constant(466688986)
  %xor.203 = u32[] xor(%xor.202, %constant.387), metadata={op_name="jit(_full_run)/jit(main)/jit(_normal)/jit(_normal_real)/jit(_uniform)/xor" source_file="/global/homes/j/jackm/software/lorrax_C/src/solvers/lanczos.py" source_line=247}
  %broadcast.583 = u32[1024]{0} broadcast(%xor.203), dimensions={}, metadata={op_name="jit(_full_run)/jit(main)/jit(_normal)/jit(_normal_real)/jit(_uniform)/add" source_file="/global/homes/j/jackm/software/lorrax_C/src/solvers/lanczos.py" source_line=247}
  %add.451 = u32[1024]{0} add(%xor.201, %broadcast.583), metadata={op_name="jit(_full_run)/jit(main)/jit(_normal)/jit(_normal_real)/jit(_uniform)/add" source_file="/global/homes/j/jackm/software/lorrax_C/src/solvers/lanczos.py" source_line=247}
  %constant.388 = u32[] constant(1)
  %broadcast.584 = u32[1024]{0} broadcast(%constant.388), dimensions={}
  %add.452 = u32[1024]{0} add(%add.451, %broadcast.584), metadata={op_name="jit(_full_run)/jit(main)/jit(_normal)/jit(_normal_real)/jit(_uniform)/add" source_file="/global/homes/j/jackm/software/lorrax_C/src/solvers/lanczos.py" source_line=247}
  %add.453 = u32[1024]{0} add(%add.450, %add.452), metadata={op_name="jit(_full_run)/jit(main)/jit(_normal)/jit(_normal_real)/jit(_uniform)/add" source_file="/global/homes/j/jackm/software/lorrax_C/src/solvers/lanczos.py" source_line=247}
  %shift-left.186 = u32[1024]{0} shift-left(%add.452, %broadcast.579), metadata={op_name="jit(_full_run)/jit(main)/jit(_normal)/jit(_normal_real)/jit(_uniform)/shift_left" source_file="/global/homes/j/jackm/software/lorrax_C/src/solvers/lanczos.py" source_line=247}
  %shift-right-logical.195 = u32[1024]{0} shift-right-logical(%add.452, %broadcast.578), metadata={op_name="jit(_full_run)/jit(main)/jit(_normal)/jit(_normal_real)/jit(_uniform)/shift_right_logical" source_file="/global/homes/j/jackm/software/lorrax_C/src/solvers/lanczos.py" source_line=247}
  %or.191 = u32[1024]{0} or(%shift-left.186, %shift-right-logical.195), metadata={op_name="jit(_full_run)/jit(main)/jit(_normal)/jit(_normal_real)/jit(_uniform)/or" source_file="/global/homes/j/jackm/software/lorrax_C/src/solvers/lanczos.py" source_line=247}
  %xor.204 = u32[1024]{0} xor(%add.453, %or.191), metadata={op_name="jit(_full_run)/jit(main)/jit(_normal)/jit(_normal_real)/jit(_uniform)/xor" source_file="/global/homes/j/jackm/software/lorrax_C/src/solvers/lanczos.py" source_line=247}
  %add.454 = u32[1024]{0} add(%add.453, %xor.204), metadata={op_name="jit(_full_run)/jit(main)/jit(_normal)/jit(_normal_real)/jit(_uniform)/add" source_file="/global/homes/j/jackm/software/lorrax_C/src/solvers/lanczos.py" source_line=247}
  %constant.389 = u32[] constant(29)
  %broadcast.585 = u32[1024]{0} broadcast(%constant.389), dimensions={}
  %shift-left.188 = u32[1024]{0} shift-left(%xor.204, %broadcast.585), metadata={op_name="jit(_full_run)/jit(main)/jit(_normal)/jit(_normal_real)/jit(_uniform)/shift_left" source_file="/global/homes/j/jackm/software/lorrax_C/src/solvers/lanczos.py" source_line=247}
  %constant.390 = u32[] constant(3)
  %broadcast.586 = u32[1024]{0} broadcast(%constant.390), dimensions={}
  %shift-right-logical.196 = u32[1024]{0} shift-right-logical(%xor.204, %broadcast.586), metadata={op_name="jit(_full_run)/jit(main)/jit(_normal)/jit(_normal_real)/jit(_uniform)/shift_right_logical" source_file="/global/homes/j/jackm/software/lorrax_C/src/solvers/lanczos.py" source_line=247}
  %or.192 = u32[1024]{0} or(%shift-left.188, %shift-right-logical.196), metadata={op_name="jit(_full_run)/jit(main)/jit(_normal)/jit(_normal_real)/jit(_uniform)/or" source_file="/global/homes/j/jackm/software/lorrax_C/src/solvers/lanczos.py" source_line=247}
  %xor.205 = u32[1024]{0} xor(%add.454, %or.192), metadata={op_name="jit(_full_run)/jit(main)/jit(_normal)/jit(_normal_real)/jit(_uniform)/xor" source_file="/global/homes/j/jackm/software/lorrax_C/src/solvers/lanczos.py" source_line=247}
  %add.455 = u32[1024]{0} add(%add.454, %xor.205), metadata={op_name="jit(_full_run)/jit(main)/jit(_normal)/jit(_normal_real)/jit(_uniform)/add" source_file="/global/homes/j/jackm/software/lorrax_C/src/solvers/lanczos.py" source_line=247}
  %constant.391 = u32[] constant(16)
  %broadcast.587 = u32[1024]{0} broadcast(%constant.391), dimensions={}
  %shift-left.189 = u32[1024]{0} shift-left(%xor.205, %broadcast.587), metadata={op_name="jit(_full_run)/jit(main)/jit(_normal)/jit(_normal_real)/jit(_uniform)/shift_left" source_file="/global/homes/j/jackm/software/lorrax_C/src/solvers/lanczos.py" source_line=247}
  %shift-right-logical.197 = u32[1024]{0} shift-right-logical(%xor.205, %broadcast.587), metadata={op_name="jit(_full_run)/jit(main)/jit(_normal)/jit(_normal_real)/jit(_uniform)/shift_right_logical" source_file="/global/homes/j/jackm/software/lorrax_C/src/solvers/lanczos.py" source_line=247}
  %or.193 = u32[1024]{0} or(%shift-left.189, %shift-right-logical.197), metadata={op_name="jit(_full_run)/jit(main)/jit(_normal)/jit(_normal_real)/jit(_uniform)/or" source_file="/global/homes/j/jackm/software/lorrax_C/src/solvers/lanczos.py" source_line=247}
  %xor.206 = u32[1024]{0} xor(%add.455, %or.193), metadata={op_name="jit(_full_run)/jit(main)/jit(_normal)/jit(_normal_real)/jit(_uniform)/xor" source_file="/global/homes/j/jackm/software/lorrax_C/src/solvers/lanczos.py" source_line=247}
  %add.456 = u32[1024]{0} add(%add.455, %xor.206), metadata={op_name="jit(_full_run)/jit(main)/jit(_normal)/jit(_normal_real)/jit(_uniform)/add" source_file="/global/homes/j/jackm/software/lorrax_C/src/solvers/lanczos.py" source_line=247}
  %broadcast.588 = u32[1024]{0} broadcast(%xor.203), dimensions={}, metadata={op_name="jit(_full_run)/jit(main)/jit(_normal)/jit(_normal_real)/jit(_uniform)/add" source_file="/global/homes/j/jackm/software/lorrax_C/src/solvers/lanczos.py" source_line=247}
  %add.457 = u32[1024]{0} add(%add.456, %broadcast.588), metadata={op_name="jit(_full_run)/jit(main)/jit(_normal)/jit(_normal_real)/jit(_uniform)/add" source_file="/global/homes/j/jackm/software/lorrax_C/src/solvers/lanczos.py" source_line=247}
  %constant.392 = u32[] constant(24)
  %broadcast.589 = u32[1024]{0} broadcast(%constant.392), dimensions={}
  %shift-left.190 = u32[1024]{0} shift-left(%xor.206, %broadcast.589), metadata={op_name="jit(_full_run)/jit(main)/jit(_normal)/jit(_normal_real)/jit(_uniform)/shift_left" source_file="/global/homes/j/jackm/software/lorrax_C/src/solvers/lanczos.py" source_line=247}
  %constant.393 = u32[] constant(8)
  %broadcast.590 = u32[1024]{0} broadcast(%constant.393), dimensions={}
  %shift-right-logical.198 = u32[1024]{0} shift-right-logical(%xor.206, %broadcast.590), metadata={op_name="jit(_full_run)/jit(main)/jit(_normal)/jit(_normal_real)/jit(_uniform)/shift_right_logical" source_file="/global/homes/j/jackm/software/lorrax_C/src/solvers/lanczos.py" source_line=247}
  %or.195 = u32[1024]{0} or(%shift-left.190, %shift-right-logical.198), metadata={op_name="jit(_full_run)/jit(main)/jit(_normal)/jit(_normal_real)/jit(_uniform)/or" source_file="/global/homes/j/jackm/software/lorrax_C/src/solvers/lanczos.py" source_line=247}
  %xor.207 = u32[1024]{0} xor(%add.456, %or.195), metadata={op_name="jit(_full_run)/jit(main)/jit(_normal)/jit(_normal_real)/jit(_uniform)/xor" source_file="/global/homes/j/jackm/software/lorrax_C/src/solvers/lanczos.py" source_line=247}
  %broadcast.591 = u32[1024]{0} broadcast(%reshape.67), dimensions={}, metadata={op_name="jit(_full_run)/jit(main)/jit(_normal)/jit(_normal_real)/jit(_uniform)/add" source_file="/global/homes/j/jackm/software/lorrax_C/src/solvers/lanczos.py" source_line=247}
  %add.458 = u32[1024]{0} add(%xor.207, %broadcast.591), metadata={op_name="jit(_full_run)/jit(main)/jit(_normal)/jit(_normal_real)/jit(_uniform)/add" source_file="/global/homes/j/jackm/software/lorrax_C/src/solvers/lanczos.py" source_line=247}
  %constant.394 = u32[] constant(2)
  %broadcast.592 = u32[1024]{0} broadcast(%constant.394), dimensions={}
  %add.459 = u32[1024]{0} add(%add.458, %broadcast.592), metadata={op_name="jit(_full_run)/jit(main)/jit(_normal)/jit(_normal_real)/jit(_uniform)/add" source_file="/global/homes/j/jackm/software/lorrax_C/src/solvers/lanczos.py" source_line=247}
  %add.460 = u32[1024]{0} add(%add.457, %add.459), metadata={op_name="jit(_full_run)/jit(main)/jit(_normal)/jit(_normal_real)/jit(_uniform)/add" source_file="/global/homes/j/jackm/software/lorrax_C/src/solvers/lanczos.py" source_line=247}
  %shift-left.191 = u32[1024]{0} shift-left(%add.459, %broadcast.576), metadata={op_name="jit(_full_run)/jit(main)/jit(_normal)/jit(_normal_real)/jit(_uniform)/shift_left" source_file="/global/homes/j/jackm/software/lorrax_C/src/solvers/lanczos.py" source_line=247}
  %shift-right-logical.199 = u32[1024]{0} shift-right-logical(%add.459, %broadcast.577), metadata={op_name="jit(_full_run)/jit(main)/jit(_normal)/jit(_normal_real)/jit(_uniform)/shift_right_logical" source_file="/global/homes/j/jackm/software/lorrax_C/src/solvers/lanczos.py" source_line=247}
  %or.196 = u32[1024]{0} or(%shift-left.191, %shift-right-logical.199), metadata={op_name="jit(_full_run)/jit(main)/jit(_normal)/jit(_normal_real)/jit(_uniform)/or" source_file="/global/homes/j/jackm/software/lorrax_C/src/solvers/lanczos.py" source_line=247}
  %xor.208 = u32[1024]{0} xor(%add.460, %or.196), metadata={op_name="jit(_full_run)/jit(main)/jit(_normal)/jit(_normal_real)/jit(_uniform)/xor" source_file="/global/homes/j/jackm/software/lorrax_C/src/solvers/lanczos.py" source_line=247}
  %add.461 = u32[1024]{0} add(%add.460, %xor.208), metadata={op_name="jit(_full_run)/jit(main)/jit(_normal)/jit(_normal_real)/jit(_uniform)/add" source_file="/global/homes/j/jackm/software/lorrax_C/src/solvers/lanczos.py" source_line=247}
  %shift-left.193 = u32[1024]{0} shift-left(%xor.208, %broadcast.578), metadata={op_name="jit(_full_run)/jit(main)/jit(_normal)/jit(_normal_real)/jit(_uniform)/shift_left" source_file="/global/homes/j/jackm/software/lorrax_C/src/solvers/lanczos.py" source_line=247}
  %shift-right-logical.200 = u32[1024]{0} shift-right-logical(%xor.208, %broadcast.579), metadata={op_name="jit(_full_run)/jit(main)/jit(_normal)/jit(_normal_real)/jit(_uniform)/shift_right_logical" source_file="/global/homes/j/jackm/software/lorrax_C/src/solvers/lanczos.py" source_line=247}
  %or.197 = u32[1024]{0} or(%shift-left.193, %shift-right-logical.200), metadata={op_name="jit(_full_run)/jit(main)/jit(_normal)/jit(_normal_real)/jit(_uniform)/or" source_file="/global/homes/j/jackm/software/lorrax_C/src/solvers/lanczos.py" source_line=247}
  %xor.209 = u32[1024]{0} xor(%add.461, %or.197), metadata={op_name="jit(_full_run)/jit(main)/jit(_normal)/jit(_normal_real)/jit(_uniform)/xor" source_file="/global/homes/j/jackm/software/lorrax_C/src/solvers/lanczos.py" source_line=247}
  %add.462 = u32[1024]{0} add(%add.461, %xor.209), metadata={op_name="jit(_full_run)/jit(main)/jit(_normal)/jit(_normal_real)/jit(_uniform)/add" source_file="/global/homes/j/jackm/software/lorrax_C/src/solvers/lanczos.py" source_line=247}
  %shift-left.194 = u32[1024]{0} shift-left(%xor.209, %broadcast.580), metadata={op_name="jit(_full_run)/jit(main)/jit(_normal)/jit(_normal_real)/jit(_uniform)/shift_left" source_file="/global/homes/j/jackm/software/lorrax_C/src/solvers/lanczos.py" source_line=247}
  %shift-right-logical.201 = u32[1024]{0} shift-right-logical(%xor.209, %broadcast.581), metadata={op_name="jit(_full_run)/jit(main)/jit(_normal)/jit(_normal_real)/jit(_uniform)/shift_right_logical" source_file="/global/homes/j/jackm/software/lorrax_C/src/solvers/lanczos.py" source_line=247}
  %or.198 = u32[1024]{0} or(%shift-left.194, %shift-right-logical.201), metadata={op_name="jit(_full_run)/jit(main)/jit(_normal)/jit(_normal_real)/jit(_uniform)/or" source_file="/global/homes/j/jackm/software/lorrax_C/src/solvers/lanczos.py" source_line=247}
  %xor.210 = u32[1024]{0} xor(%add.462, %or.198), metadata={op_name="jit(_full_run)/jit(main)/jit(_normal)/jit(_normal_real)/jit(_uniform)/xor" source_file="/global/homes/j/jackm/software/lorrax_C/src/solvers/lanczos.py" source_line=247}
  %add.463 = u32[1024]{0} add(%add.462, %xor.210), metadata={op_name="jit(_full_run)/jit(main)/jit(_normal)/jit(_normal_real)/jit(_uniform)/add" source_file="/global/homes/j/jackm/software/lorrax_C/src/solvers/lanczos.py" source_line=247}
  %broadcast.593 = u32[1024]{0} broadcast(%reshape.67), dimensions={}, metadata={op_name="jit(_full_run)/jit(main)/jit(_normal)/jit(_normal_real)/jit(_uniform)/add" source_file="/global/homes/j/jackm/software/lorrax_C/src/solvers/lanczos.py" source_line=247}
  %add.464 = u32[1024]{0} add(%add.463, %broadcast.593), metadata={op_name="jit(_full_run)/jit(main)/jit(_normal)/jit(_normal_real)/jit(_uniform)/add" source_file="/global/homes/j/jackm/software/lorrax_C/src/solvers/lanczos.py" source_line=247}
…
  %select.174 = f64[1024]{0} select(%compare.37, %select.173, %broadcast.756), metadata={op_name="jit(_full_run)/jit(main)/jit(_normal)/jit(_normal_real)/erf_inv" source_file="/global/homes/j/jackm/software/lorrax_C/src/solvers/lanczos.py" source_line=247}
  %constant.589 = f64[] constant(-1.2975133253453532e-11)
  %broadcast.757 = f64[1024]{0} broadcast(%constant.589), dimensions={}
  %constant.590 = f64[] constant(2.4031110387097894e-05)
  %broadcast.758 = f64[1024]{0} broadcast(%constant.590), dimensions={}
  %select.175 = f64[1024]{0} select(%compare.36, %broadcast.757, %broadcast.758), metadata={op_name="jit(_full_run)/jit(main)/jit(_normal)/jit(_normal_real)/erf_inv" source_file="/global/homes/j/jackm/software/lorrax_C/src/solvers/lanczos.py" source_line=247}
  %constant.591 = f64[] constant(4.5260625972231537e-06)
  %broadcast.759 = f64[1024]{0} broadcast(%constant.591), dimensions={}
  %select.176 = f64[1024]{0} select(%compare.37, %select.175, %broadcast.759), metadata={op_name="jit(_full_run)/jit(main)/jit(_normal)/jit(_normal_real)/erf_inv" source_file="/global/homes/j/jackm/software/lorrax_C/src/solvers/lanczos.py" source_line=247}
  %constant.592 = f64[] constant(2.6335093153082323e-12)
  %broadcast.760 = f64[1024]{0} broadcast(%constant.592), dimensions={}
  %constant.593 = f64[] constant(6.8284851459573175e-05)
  %broadcast.761 = f64[1024]{0} broadcast(%constant.593), dimensions={}
  %select.177 = f64[1024]{0} select(%compare.36, %broadcast.760, %broadcast.761), metadata={op_name="jit(_full_run)/jit(main)/jit(_normal)/jit(_normal_real)/erf_inv" source_file="/global/homes/j/jackm/software/lorrax_C/src/solvers/lanczos.py" source_line=247}
  %constant.594 = f64[] constant(-9.9298272942317e-07)
  %broadcast.762 = f64[1024]{0} broadcast(%constant.594), dimensions={}
  %select.178 = f64[1024]{0} select(%compare.37, %select.177, %broadcast.762), metadata={op_name="jit(_full_run)/jit(main)/jit(_normal)/jit(_normal_real)/erf_inv" source_file="/global/homes/j/jackm/software/lorrax_C/src/solvers/lanczos.py" source_line=247}
  %constant.595 = f64[] constant(-8.1519341976054722e-14)
  %broadcast.763 = f64[1024]{0} broadcast(%constant.595), dimensions={}
  %constant.596 = f64[] constant(-4.7318229009055734e-05)
  %broadcast.764 = f64[1024]{0} broadcast(%constant.596), dimensions={}
  %select.179 = f64[1024]{0} select(%compare.36, %broadcast.763, %broadcast.764), metadata={op_name="jit(_full_run)/jit(main)/jit(_normal)/jit(_normal_real)/erf_inv" source_file="/global/homes/j/jackm/software/lorrax_C/src/solvers/lanczos.py" source_line=247}
  %constant.597 = f64[] constant(2.2900482228026655e-07)
  %broadcast.765 = f64[1024]{0} broadcast(%constant.597), dimensions={}
  %select.180 = f64[1024]{0} select(%compare.37, %select.179, %broadcast.765), metadata={op_name="jit(_full_run)/jit(main)/jit(_normal)/jit(_normal_real)/erf_inv" source_file="/global/homes/j/jackm/software/lorrax_C/src/solvers/lanczos.py" source_line=247}
  %constant.598 = f64[] constant(-4.0545662729752069e-14)
  %broadcast.766 = f64[1024]{0} broadcast(%constant.598), dimensions={}
  %constant.599 = f64[] constant(1.2475304481671779e-05)
  %broadcast.767 = f64[1024]{0} broadcast(%constant.599), dimensions={}
  %select.181 = f64[1024]{0} select(%compare.36, %broadcast.766, %broadcast.767), metadata={op_name="jit(_full_run)/jit(main)/jit(_normal)/jit(_normal_real)/erf_inv" source_file="/global/homes/j/jackm/software/lorrax_C/src/solvers/lanczos.py" source_line=247}
  %constant.600 = f64[] constant(-6.7711997758452339e-08)
  %broadcast.768 = f64[1024]{0} broadcast(%constant.600), dimensions={}
  %select.182 = f64[1024]{0} select(%compare.37, %select.181, %broadcast.768), metadata={op_name="jit(_full_run)/jit(main)/jit(_normal)/jit(_normal_real)/erf_inv" source_file="/global/homes/j/jackm/software/lorrax_C/src/solvers/lanczos.py" source_line=247}
  %constant.601 = f64[] constant(6.6376381343583238e-15)
  %broadcast.769 = f64[1024]{0} broadcast(%constant.601), dimensions={}
  %constant.602 = f64[] constant(2.9234449089955446e-06)
  %broadcast.770 = f64[1024]{0} broadcast(%constant.602), dimensions={}
  %select.183 = f64[1024]{0} select(%compare.36, %broadcast.769, %broadcast.770), metadata={op_name="jit(_full_run)/jit(main)/jit(_normal)/jit(_normal_real)/erf_inv" source_file="/global/homes/j/jackm/software/lorrax_C/src/solvers/lanczos.py" source_line=247}
  %constant.603 = f64[] constant(2.9147953450901081e-08)
  %broadcast.771 = f64[1024]{0} broadcast(%constant.603), dimensions={}
  %select.184 = f64[1024]{0} select(%compare.37, %select.183, %broadcast.771), metadata={op_name="jit(_full_run)/jit(main)/jit(_normal)/jit(_normal_real)/erf_inv" source_file="/global/homes/j/jackm/software/lorrax_C/src/solvers/lanczos.py" source_line=247}
  %constant.604 = f64[] constant(2.0972767875968562e-17)
  %broadcast.773 = f64[1024]{0} broadcast(%constant.604), dimensions={}
  %constant.605 = f64[] constant(-4.013867526981546e-06)
  %broadcast.775 = f64[1024]{0} broadcast(%constant.605), dimensions={}
  %select.185 = f64[1024]{0} select(%compare.36, %broadcast.773, %broadcast.775), metadata={op_name="jit(_full_run)/jit(main)/jit(_normal)/jit(_normal_real)/erf_inv" source_file="/global/homes/j/jackm/software/lorrax_C/src/solvers/lanczos.py" source_line=247}
  %constant.606 = f64[] constant(-1.496002662714924e-08)
  %broadcast.776 = f64[1024]{0} broadcast(%constant.606), dimensions={}
  %select.186 = f64[1024]{0} select(%compare.37, %select.185, %broadcast.776), metadata={op_name="jit(_full_run)/jit(main)/jit(_normal)/jit(_normal_real)/erf_inv" source_file="/global/homes/j/jackm/software/lorrax_C/src/solvers/lanczos.py" source_line=247}
  %constant.607 = f64[] constant(-1.3331716628546209e-16)
  %broadcast.777 = f64[1024]{0} broadcast(%constant.607), dimensions={}
  %constant.608 = f64[] constant(1.5027403968909828e-06)
  %broadcast.778 = f64[1024]{0} broadcast(%constant.608), dimensions={}
  %select.187 = f64[1024]{0} select(%compare.36, %broadcast.777, %broadcast.778), metadata={op_name="jit(_full_run)/jit(main)/jit(_normal)/jit(_normal_real)/erf_inv" source_file="/global/homes/j/jackm/software/lorrax_C/src/solvers/lanczos.py" source_line=247}
  %constant.609 = f64[] constant(7.61570120807834e-09)
  %broadcast.779 = f64[1024]{0} broadcast(%constant.609), dimensions={}
  %select.188 = f64[1024]{0} select(%compare.37, %select.187, %broadcast.779), metadata={op_name="jit(_full_run)/jit(main)/jit(_normal)/jit(_normal_real)/erf_inv" source_file="/global/homes/j/jackm/software/lorrax_C/src/solvers/lanczos.py" source_line=247}
  %constant.610 = f64[] constant(1.1157877678025181e-17)
  %broadcast.780 = f64[1024]{0} broadcast(%constant.610), dimensions={}
  %constant.611 = f64[] constant(1.8239629214389228e-08)
  %broadcast.781 = f64[1024]{0} broadcast(%constant.611), dimensions={}
  %select.189 = f64[1024]{0} select(%compare.36, %broadcast.780, %broadcast.781), metadata={op_name="jit(_full_run)/jit(main)/jit(_normal)/jit(_normal_real)/erf_inv" source_file="/global/homes/j/jackm/software/lorrax_C/src/solvers/lanczos.py" source_line=247}
  %constant.612 = f64[] constant(-3.789465440126737e-09)
  %broadcast.782 = f64[1024]{0} broadcast(%constant.612), dimensions={}
  %select.190 = f64[1024]{0} select(%compare.37, %select.189, %broadcast.782), metadata={op_name="jit(_full_run)/jit(main)/jit(_normal)/jit(_normal_real)/erf_inv" source_file="/global/homes/j/jackm/software/lorrax_C/src/solvers/lanczos.py" source_line=247}
  %constant.613 = f64[] constant(1.28584807152564e-18)
  %broadcast.783 = f64[1024]{0} broadcast(%constant.613), dimensions={}
  %constant.614 = f64[] constant(-2.7517406297064545e-07)
  %broadcast.784 = f64[1024]{0} broadcast(%constant.614), dimensions={}
  %select.191 = f64[1024]{0} select(%compare.36, %broadcast.783, %broadcast.784), metadata={op_name="jit(_full_run)/jit(main)/jit(_normal)/jit(_normal_real)/erf_inv" source_file="/global/homes/j/jackm/software/lorrax_C/src/solvers/lanczos.py" source_line=247}
  %constant.615 = f64[] constant(1.5076572693500548e-09)
  %broadcast.785 = f64[1024]{0} broadcast(%constant.615), dimensions={}
  %select.192 = f64[1024]{0} select(%compare.37, %select.191, %broadcast.785), metadata={op_name="jit(_full_run)/jit(main)/jit(_normal)/jit(_normal_real)/erf_inv" source_file="/global/homes/j/jackm/software/lorrax_C/src/solvers/lanczos.py" source_line=247}
  %constant.616 = f64[] constant(-1.6850591381820166e-19)
  %broadcast.786 = f64[1024]{0} broadcast(%constant.616), dimensions={}
  %constant.617 = f64[] constant(9.0756561938885391e-08)
  %broadcast.787 = f64[1024]{0} broadcast(%constant.617), dimensions={}
  %select.193 = f64[1024]{0} select(%compare.36, %broadcast.786, %broadcast.787), metadata={op_name="jit(_full_run)/jit(main)/jit(_normal)/jit(_normal_real)/erf_inv" source_file="/global/homes/j/jackm/software/lorrax_C/src/solvers/lanczos.py" source_line=247}
  %constant.618 = f64[] constant(-2.5556418169965252e-10)
  %broadcast.788 = f64[1024]{0} broadcast(%constant.618), dimensions={}
  %select.194 = f64[1024]{0} select(%compare.37, %select.193, %broadcast.788), metadata={op_name="jit(_full_run)/jit(main)/jit(_normal)/jit(_normal_real)/erf_inv" source_file="/global/homes/j/jackm/software/lorrax_C/src/solvers/lanczos.py" source_line=247}
  %constant.619 = f64[] constant(-3.64441206401782e-21)
  %broadcast.789 = f64[1024]{0} broadcast(%constant.619), dimensions={}
  %constant.620 = f64[] constant(2.2137376921775787e-09)
  %broadcast.790 = f64[1024]{0} broadcast(%constant.620), dimensions={}
  %select.195 = f64[1024]{0} select(%compare.36, %broadcast.789, %broadcast.790), metadata={op_name="jit(_full_run)/jit(main)/jit(_normal)/jit(_normal_real)/erf_inv" source_file="/global/homes/j/jackm/software/lorrax_C/src/solvers/lanczos.py" source_line=247}
  %constant.621 = f64[] constant(-2.7109920616438573e-11)
  %broadcast.791 = f64[1024]{0} broadcast(%constant.621), dimensions={}
  %select.196 = f64[1024]{0} select(%compare.37, %select.195, %broadcast.791), metadata={op_name="jit(_full_run)/jit(main)/jit(_normal)/jit(_normal_real)/erf_inv" source_file="/global/homes/j/jackm/software/lorrax_C/src/solvers/lanczos.py" source_line=247}
  %constant.966 = f64[] constant(-3.125)
  %broadcast.836 = f64[1024]{0} broadcast(%constant.966), dimensions={}
  %add.574 = f64[1024]{0} add(%negate.23, %broadcast.836), metadata={op_name="jit(_full_run)/jit(main)/jit(_normal)/jit(_normal_real)/erf_inv" source_file="/global/homes/j/jackm/software/lorrax_C/src/solvers/lanczos.py" source_line=247}
  %sqrt.5 = f64[1024]{0} sqrt(%negate.23), metadata={op_name="jit(_full_run)/jit(main)/jit(_normal)/jit(_normal_real)/erf_inv" source_file="/global/homes/j/jackm/software/lorrax_C/src/solvers/lanczos.py" source_line=247}
  %constant.623 = f64[] constant(3.25)
  %broadcast.793 = f64[1024]{0} broadcast(%constant.623), dimensions={}
  %constant.624 = f64[] constant(5)
  %broadcast.794 = f64[1024]{0} broadcast(%constant.624), dimensions={}
  %select.197 = f64[1024]{0} select(%compare.37, %broadcast.793, %broadcast.794), metadata={op_name="jit(_full_run)/jit(main)/jit(_normal)/jit(_normal_real)/erf_inv" source_file="/global/homes/j/jackm/software/lorrax_C/src/solvers/lanczos.py" source_line=247}
  %subtract.30 = f64[1024]{0} subtract(%sqrt.5, %select.197), metadata={op_name="jit(_full_run)/jit(main)/jit(_normal)/jit(_normal_real)/erf_inv" source_file="/global/homes/j/jackm/software/lorrax_C/src/solvers/lanczos.py" source_line=247}
  %select.198 = f64[1024]{0} select(%compare.36, %add.574, %subtract.30), metadata={op_name="jit(_full_run)/jit(main)/jit(_normal)/jit(_normal_real)/erf_inv" source_file="/global/homes/j/jackm/software/lorrax_C/src/solvers/lanczos.py" source_line=247}
  %multiply.103 = f64[1024]{0} multiply(%select.196, %select.198), metadata={op_name="jit(_full_run)/jit(main)/jit(_normal)/jit(_normal_real)/erf_inv" source_file="/global/homes/j/jackm/software/lorrax_C/src/solvers/lanczos.py" source_line=247}
  %add.542 = f64[1024]{0} add(%select.194, %multiply.103), metadata={op_name="jit(_full_run)/jit(main)/jit(_normal)/jit(_normal_real)/erf_inv" source_file="/global/homes/j/jackm/software/lorrax_C/src/solvers/lanczos.py" source_line=247}
  %multiply.104 = f64[1024]{0} multiply(%add.542, %select.198), metadata={op_name="jit(_full_run)/jit(main)/jit(_normal)/jit(_normal_real)/erf_inv" source_file="/global/homes/j/jackm/software/lorrax_C/src/solvers/lanczos.py" source_line=247}
  %add.543 = f64[1024]{0} add(%select.192, %multiply.104), metadata={op_name="jit(_full_run)/jit(main)/jit(_normal)/jit(_normal_real)/erf_inv" source_file="/global/homes/j/jackm/software/lorrax_C/src/solvers/lanczos.py" source_line=247}
  %multiply.105 = f64[1024]{0} multiply(%add.543, %select.198), metadata={op_name="jit(_full_run)/jit(main)/jit(_normal)/jit(_normal_real)/erf_inv" source_file="/global/homes/j/jackm/software/lorrax_C/src/solvers/lanczos.py" source_line=247}
  %add.544 = f64[1024]{0} add(%select.190, %multiply.105), metadata={op_name="jit(_full_run)/jit(main)/jit(_normal)/jit(_normal_real)/erf_inv" source_file="/global/homes/j/jackm/software/lorrax_C/src/solvers/lanczos.py" source_line=247}
  %multiply.106 = f64[1024]{0} multiply(%add.544, %select.198), metadata={op_name="jit(_full_run)/jit(main)/jit(_normal)/jit(_normal_real)/erf_inv" source_file="/global/homes/j/jackm/software/lorrax_C/src/solvers/lanczos.py" source_line=247}
  %add.545 = f64[1024]{0} add(%select.188, %multiply.106), metadata={op_name="jit(_full_run)/jit(main)/jit(_normal)/jit(_normal_real)/erf_inv" source_file="/global/homes/j/jackm/software/lorrax_C/src/solvers/lanczos.py" source_line=247}
  %multiply.107 = f64[1024]{0} multiply(%add.545, %select.198), metadata={op_name="jit(_full_run)/jit(main)/jit(_normal)/jit(_normal_real)/erf_inv" source_file="/global/homes/j/jackm/software/lorrax_C/src/solvers/lanczos.py" source_line=247}
  %add.546 = f64[1024]{0} add(%select.186, %multiply.107), metadata={op_name="jit(_full_run)/jit(main)/jit(_normal)/jit(_normal_real)/erf_inv" source_file="/global/homes/j/jackm/software/lorrax_C/src/solvers/lanczos.py" source_line=247}
  %multiply.108 = f64[1024]{0} multiply(%add.546, %select.198), metadata={op_name="jit(_full_run)/jit(main)/jit(_normal)/jit(_normal_real)/erf_inv" source_file="/global/homes/j/jackm/software/lorrax_C/src/solvers/lanczos.py" source_line=247}
  %add.547 = f64[1024]{0} add(%select.184, %multiply.108), metadata={op_name="jit(_full_run)/jit(main)/jit(_normal)/jit(_normal_real)/erf_inv" source_file="/global/homes/j/jackm/software/lorrax_C/src/solvers/lanczos.py" source_line=247}
  %multiply.109 = f64[1024]{0} multiply(%add.547, %select.198), metadata={op_name="jit(_full_run)/jit(main)/jit(_normal)/jit(_normal_real)/erf_inv" source_file="/global/homes/j/jackm/software/lorrax_C/src/solvers/lanczos.py" source_line=247}
  %add.548 = f64[1024]{0} add(%select.182, %multiply.109), metadata={op_name="jit(_full_run)/jit(main)/jit(_normal)/jit(_normal_real)/erf_inv" source_file="/global/homes/j/jackm/software/lorrax_C/src/solvers/lanczos.py" source_line=247}
  %multiply.110 = f64[1024]{0} multiply(%add.548, %select.198), metadata={op_name="jit(_full_run)/jit(main)/jit(_normal)/jit(_normal_real)/erf_inv" source_file="/global/homes/j/jackm/software/lorrax_C/src/solvers/lanczos.py" source_line=247}
  %add.549 = f64[1024]{0} add(%select.180, %multiply.110), metadata={op_name="jit(_full_run)/jit(main)/jit(_normal)/jit(_normal_real)/erf_inv" source_file="/global/homes/j/jackm/software/lorrax_C/src/solvers/lanczos.py" source_line=247}
  %multiply.111 = f64[1024]{0} multiply(%add.549, %select.198), metadata={op_name="jit(_full_run)/jit(main)/jit(_normal)/jit(_normal_real)/erf_inv" source_file="/global/homes/j/jackm/software/lorrax_C/src/solvers/lanczos.py" source_line=247}
  %add.550 = f64[1024]{0} add(%select.178, %multiply.111), metadata={op_name="jit(_full_run)/jit(main)/jit(_normal)/jit(_normal_real)/erf_inv" source_file="/global/homes/j/jackm/software/lorrax_C/src/solvers/lanczos.py" source_line=247}
  %multiply.112 = f64[1024]{0} multiply(%add.550, %select.198), metadata={op_name="jit(_full_run)/jit(main)/jit(_normal)/jit(_normal_real)/erf_inv" source_file="/global/homes/j/jackm/software/lorrax_C/src/solvers/lanczos.py" source_line=247}
  %add.551 = f64[1024]{0} add(%select.176, %multiply.112), metadata={op_name="jit(_full_run)/jit(main)/jit(_normal)/jit(_normal_real)/erf_inv" source_file="/global/homes/j/jackm/software/lorrax_C/src/solvers/lanczos.py" source_line=247}
  %multiply.113 = f64[1024]{0} multiply(%add.551, %select.198), metadata={op_name="jit(_full_run)/jit(main)/jit(_normal)/jit(_normal_real)/erf_inv" source_file="/global/homes/j/jackm/software/lorrax_C/src/solvers/lanczos.py" source_line=247}
  %add.552 = f64[1024]{0} add(%select.174, %multiply.113), metadata={op_name="jit(_full_run)/jit(main)/jit(_normal)/jit(_normal_real)/erf_inv" source_file="/global/homes/j/jackm/software/lorrax_C/src/solvers/lanczos.py" source_line=247}
  %multiply.114 = f64[1024]{0} multiply(%add.552, %select.198), metadata={op_name="jit(_full_run)/jit(main)/jit(_normal)/jit(_normal_real)/erf_inv" source_file="/global/homes/j/jackm/software/lorrax_C/src/solvers/lanczos.py" source_line=247}
  %add.553 = f64[1024]{0} add(%select.172, %multiply.114), metadata={op_name="jit(_full_run)/jit(main)/jit(_normal)/jit(_normal_real)/erf_inv" source_file="/global/homes/j/jackm/software/lorrax_C/src/solvers/lanczos.py" source_line=247}
  %multiply.115 = f64[1024]{0} multiply(%add.553, %select.198), metadata={op_name="jit(_full_run)/jit(main)/jit(_normal)/jit(_normal_real)/erf_inv" source_file="/global/homes/j/jackm/software/lorrax_C/src/solvers/lanczos.py" source_line=247}
  %add.554 = f64[1024]{0} add(%select.170, %multiply.115), metadata={op_name="jit(_full_run)/jit(main)/jit(_normal)/jit(_normal_real)/erf_inv" source_file="/global/homes/j/jackm/software/lorrax_C/src/solvers/lanczos.py" source_line=247}
  %multiply.116 = f64[1024]{0} multiply(%add.554, %select.198), metadata={op_name="jit(_full_run)/jit(main)/jit(_normal)/jit(_normal_real)/erf_inv" source_file="/global/homes/j/jackm/software/lorrax_C/src/solvers/lanczos.py" source_line=247}
  %add.555 = f64[1024]{0} add(%select.168, %multiply.116), metadata={op_name="jit(_full_run)/jit(main)/jit(_normal)/jit(_normal_real)/erf_inv" source_file="/global/homes/j/jackm/software/lorrax_C/src/solvers/lanczos.py" source_line=247}
  %multiply.117 = f64[1024]{0} multiply(%add.555, %select.198), metadata={op_name="jit(_full_run)/jit(main)/jit(_normal)/jit(_normal_real)/erf_inv" source_file="/global/homes/j/jackm/software/lorrax_C/src/solvers/lanczos.py" source_line=247}
  %add.556 = f64[1024]{0} add(%select.166, %multiply.117), metadata={op_name="jit(_full_run)/jit(main)/jit(_normal)/jit(_normal_real)/erf_inv" source_file="/global/homes/j/jackm/software/lorrax_C/src/solvers/lanczos.py" source_line=247}
  %multiply.118 = f64[1024]{0} multiply(%add.556, %select.198), metadata={op_name="jit(_full_run)/jit(main)/jit(_normal)/jit(_normal_real)/erf_inv" source_file="/global/homes/j/jackm/software/lorrax_C/src/solvers/lanczos.py" source_line=247}
  %add.557 = f64[1024]{0} add(%select.164, %multiply.118), metadata={op_name="jit(_full_run)/jit(main)/jit(_normal)/jit(_normal_real)/erf_inv" source_file="/global/homes/j/jackm/software/lorrax_C/src/solvers/lanczos.py" source_line=247}
  %multiply.119 = f64[1024]{0} multiply(%add.557, %select.198), metadata={op_name="jit(_full_run)/jit(main)/jit(_normal)/jit(_normal_real)/erf_inv" source_file="/global/homes/j/jackm/software/lorrax_C/src/solvers/lanczos.py" source_line=247}
  %add.558 = f64[1024]{0} add(%select.162, %multiply.119), metadata={op_name="jit(_full_run)/jit(main)/jit(_normal)/jit(_normal_real)/erf_inv" source_file="/global/homes/j/jackm/software/lorrax_C/src/solvers/lanczos.py" source_line=247}
  %select.199 = f64[1024]{0} select(%compare.37, %add.558, %add.557), metadata={op_name="jit(_full_run)/jit(main)/jit(_normal)/jit(_normal_real)/erf_inv" source_file="/global/homes/j/jackm/software/lorrax_C/src/solvers/lanczos.py" source_line=247}
  %multiply.120 = f64[1024]{0} multiply(%select.199, %select.198), metadata={op_name="jit(_full_run)/jit(main)/jit(_normal)/jit(_normal_real)/erf_inv" source_file="/global/homes/j/jackm/software/lorrax_C/src/solvers/lanczos.py" source_line=247}
  %add.559 = f64[1024]{0} add(%select.161, %multiply.120), metadata={op_name="jit(_full_run)/jit(main)/jit(_normal)/jit(_normal_real)/erf_inv" source_file="/global/homes/j/jackm/software/lorrax_C/src/solvers/lanczos.py" source_line=247}
  %select.200 = f64[1024]{0} select(%compare.37, %add.559, %select.199), metadata={op_name="jit(_full_run)/jit(main)/jit(_normal)/jit(_normal_real)/erf_inv" source_file="/global/homes/j/jackm/software/lorrax_C/src/solvers/lanczos.py" source_line=247}
  %multiply.121 = f64[1024]{0} multiply(%select.200, %select.198), metadata={op_name="jit(_full_run)/jit(main)/jit(_normal)/jit(_normal_real)/erf_inv" source_file="/global/homes/j/jackm/software/lorrax_C/src/solvers/lanczos.py" source_line=247}
  %constant.625 = f64[] constant(-0.000740702534166267)
  %broadcast.795 = f64[1024]{0} broadcast(%constant.625), dimensions={}
  %add.560 = f64[1024]{0} add(%multiply.121, %broadcast.795), metadata={op_name="jit(_full_run)/jit(main)/jit(_normal)/jit(_normal_real)/erf_inv" source_file="/global/homes/j/jackm/software/lorrax_C/src/solvers/lanczos.py" source_line=247}
  %select.201 = f64[1024]{0} select(%compare.36, %add.560, %select.200), metadata={op_name="jit(_full_run)/jit(main)/jit(_normal)/jit(_normal_real)/erf_inv" source_file="/global/homes/j/jackm/software/lorrax_C/src/solvers/lanczos.py" source_line=247}
  %multiply.122 = f64[1024]{0} multiply(%select.201, %select.198), metadata={op_name="jit(_full_run)/jit(main)/jit(_normal)/jit(_normal_real)/erf_inv" source_file="/global/homes/j/jackm/software/lorrax_C/src/solvers/lanczos.py" source_line=247}
  %constant.626 = f64[] constant(-0.0060336708714301491)
  %broadcast.796 = f64[1024]{0} broadcast(%constant.626), dimensions={}
  %add.561 = f64[1024]{0} add(%multiply.122, %broadcast.796), metadata={op_name="jit(_full_run)/jit(main)/jit(_normal)/jit(_normal_real)/erf_inv" source_file="/global/homes/j/jackm/software/lorrax_C/src/solvers/lanczos.py" source_line=247}
  %select.202 = f64[1024]{0} select(%compare.36, %add.561, %select.201), metadata={op_name="jit(_full_run)/jit(main)/jit(_normal)/jit(_normal_real)/erf_inv" source_file="/global/homes/j/jackm/software/lorrax_C/src/solvers/lanczos.py" source_line=247}
  %multiply.123 = f64[1024]{0} multiply(%select.202, %select.198), metadata={op_name="jit(_full_run)/jit(main)/jit(_normal)/jit(_normal_real)/erf_inv" source_file="/global/homes/j/jackm/software/lorrax_C/src/solvers/lanczos.py" source_line=247}
  %constant.627 = f64[] constant(0.24015818242558962)
  %broadcast.798 = f64[1024]{0} broadcast(%constant.627), dimensions={}
  %add.562 = f64[1024]{0} add(%multiply.123, %broadcast.798), metadata={op_name="jit(_full_run)/jit(main)/jit(_normal)/jit(_normal_real)/erf_inv" source_file="/global/homes/j/jackm/software/lorrax_C/src/solvers/lanczos.py" source_line=247}
  %select.203 = f64[1024]{0} select(%compare.36, %add.562, %select.202), metadata={op_name="jit(_full_run)/jit(main)/jit(_normal)/jit(_normal_real)/erf_inv" source_file="/global/homes/j/jackm/software/lorrax_C/src/solvers/lanczos.py" source_line=247}
  %multiply.124 = f64[1024]{0} multiply(%select.203, %select.198), metadata={op_name="jit(_full_run)/jit(main)/jit(_normal)/jit(_normal_real)/erf_inv" source_file="/global/homes/j/jackm/software/lorrax_C/src/solvers/lanczos.py" source_line=247}
  %constant.628 = f64[] constant(1.6536545626831027)
  %broadcast.800 = f64[1024]{0} broadcast(%constant.628), dimensions={}
  %add.563 = f64[1024]{0} add(%multiply.124, %broadcast.800), metadata={op_name="jit(_full_run)/jit(main)/jit(_normal)/jit(_normal_real)/erf_inv" source_file="/global/homes/j/jackm/software/lorrax_C/src/solvers/lanczos.py" source_line=247}
  %select.204 = f64[1024]{0} select(%compare.36, %add.563, %select.203), metadata={op_name="jit(_full_run)/jit(main)/jit(_normal)/jit(_normal_real)/erf_inv" source_file="/global/homes/j/jackm/software/lorrax_C/src/solvers/lanczos.py" source_line=247}
  %multiply.125 = f64[1024]{0} multiply(%select.204, %maximum.8), metadata={op_name="jit(_full_run)/jit(main)/jit(_normal)/jit(_normal_real)/erf_inv" source_file="/global/homes/j/jackm/software/lorrax_C/src/solvers/lanczos.py" source_line=247}
  %select.205 = f64[1024]{0} select(%compare.35, %multiply.101, %multiply.125), metadata={op_name="jit(_full_run)/jit(main)/jit(_normal)/jit(_normal_real)/erf_inv" source_file="/global/homes/j/jackm/software/lorrax_C/src/solvers/lanczos.py" source_line=247}
  %constant.629 = f64[] constant(1.4142135623730951)
  %broadcast.801 = f64[1024]{0} broadcast(%constant.629), dimensions={}
  %multiply.126 = f64[1024]{0} multiply(%select.205, %broadcast.801), metadata={op_name="jit(_full_run)/jit(main)/jit(_normal)/jit(_normal_real)/mul" source_file="/global/homes/j/jackm/software/lorrax_C/src/solvers/lanczos.py" source_line=247}
  %convert.1145 = c128[1024]{0} convert(%multiply.126), metadata={op_name="jit(_full_run)/jit(main)/convert_element_type" source_file="/global/homes/j/jackm/software/lorrax_C/src/solvers/lanczos.py" source_line=248}
  %constant.20 = c128[] constant((0, 1))
  %broadcast.21 = c128[1024]{0} broadcast(%constant.20), dimensions={}
  %multiply.1146 = c128[1024]{0} multiply(%convert.1145, %broadcast.21), metadata={op_name="jit(_full_run)/jit(main)/mul" source_file="/global/homes/j/jackm/software/lorrax_C/src/solvers/lanczos.py" source_line=248}
  %add.1148 = c128[1024]{0} add(%convert.1147, %multiply.1146), metadata={op_name="jit(_full_run)/jit(main)/add" source_file="/global/homes/j/jackm/software/lorrax_C/src/solvers/lanczos.py" source_line=248}
  %real.19 = f64[1024]{0} real(%add.1148), metadata={op_name="jit(_full_run)/jit(main)/jit(norm)/real" source_file="/global/homes/j/jackm/software/lorrax_C/src/solvers/lanczos.py" source_line=249}
  %imag.16 = f64[1024]{0} imag(%add.1148), metadata={op_name="jit(_full_run)/jit(main)/jit(norm)/imag" source_file="/global/homes/j/jackm/software/lorrax_C/src/solvers/lanczos.py" source_line=249}
  %negate.24 = f64[1024]{0} negate(%imag.16), metadata={op_name="jit(_full_run)/jit(main)/jit(norm)/neg" source_file="/global/homes/j/jackm/software/lorrax_C/src/solvers/lanczos.py" source_line=249}
  %complex.16 = c128[1024]{0} complex(%real.19, %negate.24), metadata={op_name="jit(_full_run)/jit(main)/jit(norm)/complex" source_file="/global/homes/j/jackm/software/lorrax_C/src/solvers/lanczos.py" source_line=249}
  %multiply.127 = c128[1024]{0} multiply(%add.1148, %complex.16), metadata={op_name="jit(_full_run)/jit(main)/jit(norm)/mul" source_file="/global/homes/j/jackm/software/lorrax_C/src/solvers/lanczos.py" source_line=249}
  %real.20 = f64[1024]{0} real(%multiply.127), metadata={op_name="jit(_full_run)/jit(main)/jit(norm)/real" source_file="/global/homes/j/jackm/software/lorrax_C/src/solvers/lanczos.py" source_line=249}
  %constant.630 = f64[] constant(0)
  %reduce.3 = f64[] reduce(%real.20, %constant.630), dimensions={0}, to_apply=%region_0.1149, metadata={op_name="jit(_full_run)/jit(main)/jit(norm)/reduce_sum" source_file="/global/homes/j/jackm/software/lorrax_C/src/solvers/lanczos.py" source_line=249}
  %sqrt.6 = f64[] sqrt(%reduce.3), metadata={op_name="jit(_full_run)/jit(main)/jit(norm)/sqrt" source_file="/global/homes/j/jackm/software/lorrax_C/src/solvers/lanczos.py" source_line=249}
  %convert.1165 = c128[] convert(%sqrt.6), metadata={op_name="jit(_full_run)/jit(main)/convert_element_type" source_file="/global/homes/j/jackm/software/lorrax_C/src/solvers/lanczos.py" source_line=249}
  %broadcast.1166 = c128[1024]{0} broadcast(%convert.1165), dimensions={}, metadata={op_name="jit(_full_run)/jit(main)/div" source_file="/global/homes/j/jackm/software/lorrax_C/src/solvers/lanczos.py" source_line=249}
  %divide.1167 = c128[1024]{0} divide(%add.1148, %broadcast.1166), metadata={op_name="jit(_full_run)/jit(main)/div" source_file="/global/homes/j/jackm/software/lorrax_C/src/solvers/lanczos.py" source_line=249}
  %constant.1096 = c128[] constant((0, 0))
  %broadcast.1087 = c128[1024]{0} broadcast(%constant.1096), dimensions={}
  %select.247 = c128[1024]{0} select(%broadcast.1085, %divide.1167, %broadcast.1087)
  %reshape.430 = c128[1024,1]{1,0} reshape(%select.247)
  %constant.1095 = c128[] constant((0, 0))
  %pad.16 = c128[1024,200]{1,0} pad(%reshape.430, %constant.1095), padding=0_0x0_199, metadata={op_name="jit(_full_run)/jit(main)/scatter" source_file="/global/homes/j/jackm/software/lorrax_C/src/solvers/lanczos.py" source_line=252}
  %constant.15 = f64[] constant(0)
  %broadcast.16 = f64[200]{0} broadcast(%constant.15), dimensions={}
  %Arg_0.1 = c128[64,4,2,480]{3,2,1,0} parameter(0), sharding={devices=[1,1,1,2,2]<=[4] last_tile_dim_replicate}, metadata={op_name="psi_c_X"}
  %Arg_1.2 = c128[64,4,2,480]{3,2,1,0} parameter(1), sharding={devices=[1,1,1,2,2]<=[2,2]T(1,0) last_tile_dim_replicate}, metadata={op_name="psi_c_Y"}
  %Arg_2.3 = c128[64,4,2,480]{3,2,1,0} parameter(2), sharding={devices=[1,1,1,2,2]<=[4] last_tile_dim_replicate}, metadata={op_name="psi_v_X"}
  %Arg_3.4 = c128[64,4,2,480]{3,2,1,0} parameter(3), sharding={devices=[1,1,1,2,2]<=[2,2]T(1,0) last_tile_dim_replicate}, metadata={op_name="psi_v_Y"}
  %Arg_4.5 = f64[64,4]{1,0} parameter(4), sharding={replicated}, metadata={op_name="eps_c"}
  %Arg_5.6 = f64[64,4]{1,0} parameter(5), sharding={replicated}, metadata={op_name="eps_v"}
  %Arg_6.7 = c128[480,480,4,4,4]{4,3,2,1,0} parameter(6), sharding={devices=[2,2,1,1,1]<=[4]}, metadata={op_name="W_q"}
  %custom-call.27 = c128[480,480,4,4,4]{4,3,2,1,0} custom-call(%Arg_6.7), custom_call_target="CustomSPMDPartitioning", api_version=API_VERSION_STATUS_RETURNING, metadata={op_name="jit(_full_run)/jit(main)/custom_partitioning" source_file="/global/homes/j/jackm/software/lorrax_C/src/common/fft_helpers.py" source_line=259}, backend_config="139931109030608"
  %custom-call.28 = c128[480,480,4,4,4]{4,3,2,1,0} custom-call(%custom-call.27), custom_call_target="CustomSPMDPartitioning", api_version=API_VERSION_STATUS_RETURNING, metadata={op_name="jit(_full_run)/jit(main)/custom_partitioning" source_file="/global/homes/j/jackm/software/lorrax_C/src/common/fft_helpers.py" source_line=259}, backend_config="139931108722784"
  %custom-call.29 = c128[480,480,4,4,4]{4,3,2,1,0} custom-call(%custom-call.28), custom_call_target="CustomSPMDPartitioning", api_version=API_VERSION_STATUS_RETURNING, metadata={op_name="jit(_full_run)/jit(main)/custom_partitioning" source_file="/global/homes/j/jackm/software/lorrax_C/src/common/fft_helpers.py" source_line=259}, backend_config="139931108723072"
  %Arg_7.8 = c128[480,480]{1,0} parameter(7), sharding={devices=[2,2]<=[4]}, metadata={op_name="V_q0"}
  %tuple.79 = (s64[], c128[1024,200]{1,0}, f64[200]{0}, f64[200]{0}, c128[1024]{0}, /*index=5*/c128[64,4,2,480]{3,2,1,0}, c128[64,4,2,480]{3,2,1,0}, c128[64,4,2,480]{3,2,1,0}, c128[64,4,2,480]{3,2,1,0}, f64[64,4]{1,0}, /*index=10*/f64[64,4]{1,0}, c128[480,480,4,4,4]{4,3,2,1,0}, c128[480,480]{1,0}) tuple(%constant.24, %pad.16, %broadcast.16, %broadcast.16, %divide.1167, /*index=5*/%Arg_0.1, %Arg_1.2, %Arg_2.3, %Arg_3.4, %Arg_4.5, /*index=10*/%Arg_5.6, %custom-call.29, %Arg_7.8)
  %while.22 = (s64[], c128[1024,200]{1,0}, f64[200]{0}, f64[200]{0}, c128[1024]{0}, /*index=5*/c128[64,4,2,480]{3,2,1,0}, c128[64,4,2,480]{3,2,1,0}, c128[64,4,2,480]{3,2,1,0}, c128[64,4,2,480]{3,2,1,0}, f64[64,4]{1,0}, /*index=10*/f64[64,4]{1,0}, c128[480,480,4,4,4]{4,3,2,1,0}, c128[480,480]{1,0}) while(%tuple.79), condition=%region_16.1674.clone.clone, body=%region_2.1649.clone.clone.clone, metadata={op_name="jit(_full_run)/jit(main)/while" source_file="/global/homes/j/jackm/software/lorrax_C/src/solvers/lanczos.py" source_line=286}
  %get-tuple-element.1696 = f64[200]{0} get-tuple-element(%while.22), index=2, metadata={op_name="jit(_full_run)/jit(main)/while" source_file="/global/homes/j/jackm/software/lorrax_C/src/solvers/lanczos.py" source_line=286}
  %broadcast.804 = f64[200,200]{1,0} broadcast(%get-tuple-element.1696), dimensions={1}, metadata={op_name="jit(_full_run)/jit(main)/jit(_diag)/jit(_where)/broadcast_in_dim" source_file="/global/homes/j/jackm/software/lorrax_C/src/solvers/lanczos.py" source_line=288}
  %constant.631 = f64[] constant(0)
  %broadcast.806 = f64[200,200]{1,0} broadcast(%constant.631), dimensions={}, metadata={op_name="jit(_full_run)/jit(main)/jit(_diag)/jit(_where)/broadcast_in_dim" source_file="/global/homes/j/jackm/software/lorrax_C/src/solvers/lanczos.py" source_line=288}
  %select.206 = f64[200,200]{1,0} select(%compare.38, %broadcast.804, %broadcast.806), metadata={op_name="jit(_full_run)/jit(main)/jit(_diag)/jit(_where)/select_n" source_file="/global/homes/j/jackm/software/lorrax_C/src/solvers/lanczos.py" source_line=288}
  %iota.9 = s64[200]{0} iota(), iota_dimension=0, metadata={op_name="jit(_full_run)/jit(main)/jit(_diag)/iota" source_file="/global/homes/j/jackm/software/lorrax_C/src/solvers/lanczos.py" source_line=290}
  %constant.632 = s64[] constant(1)
  %broadcast.838 = s64[200]{0} broadcast(%constant.632), dimensions={}
  %add.575 = s64[200]{0} add(%iota.9, %broadcast.838), metadata={op_name="jit(_full_run)/jit(main)/jit(_diag)/add" source_file="/global/homes/j/jackm/software/lorrax_C/src/solvers/lanczos.py" source_line=290}
  %broadcast.839 = s64[200,200]{1,0} broadcast(%add.575), dimensions={0}, metadata={op_name="jit(_full_run)/jit(main)/jit(_diag)/iota" source_file="/global/homes/j/jackm/software/lorrax_C/src/solvers/lanczos.py" source_line=290}
  %iota.16 = s64[200,200]{1,0} iota(), iota_dimension=1, metadata={op_name="jit(_full_run)/jit(main)/jit(_diag)/iota" source_file="/global/homes/j/jackm/software/lorrax_C/src/solvers/lanczos.py" source_line=290}
  %compare.39 = pred[200,200]{1,0} compare(%broadcast.839, %iota.16), direction=EQ, metadata={op_name="jit(_full_run)/jit(main)/jit(_diag)/eq" source_file="/global/homes/j/jackm/software/lorrax_C/src/solvers/lanczos.py" source_line=290}
  %get-tuple-element.1697 = f64[200]{0} get-tuple-element(%while.22), index=3, metadata={op_name="jit(_full_run)/jit(main)/while" source_file="/global/homes/j/jackm/software/lorrax_C/src/solvers/lanczos.py" source_line=286}
  %slice.1717 = f64[199]{0} slice(%get-tuple-element.1697), slice={[0:199]}, metadata={op_name="jit(_full_run)/jit(main)/slice" source_file="/global/homes/j/jackm/software/lorrax_C/src/solvers/lanczos.py" source_line=289}
  %constant.633 = f64[] constant(0)
  %pad.0 = f64[200]{0} pad(%slice.1717, %constant.633), padding=1_0, metadata={op_name="jit(_full_run)/jit(main)/jit(_diag)/pad" source_file="/global/homes/j/jackm/software/lorrax_C/src/solvers/lanczos.py" source_line=290}
  %broadcast.810 = f64[200,200]{1,0} broadcast(%pad.0), dimensions={1}, metadata={op_name="jit(_full_run)/jit(main)/jit(_diag)/jit(_where)/broadcast_in_dim" source_file="/global/homes/j/jackm/software/lorrax_C/src/solvers/lanczos.py" source_line=288}
  %constant.634 = f64[] constant(0)
  %broadcast.812 = f64[200,200]{1,0} broadcast(%constant.634), dimensions={}, metadata={op_name="jit(_full_run)/jit(main)/jit(_diag)/jit(_where)/broadcast_in_dim" source_file="/global/homes/j/jackm/software/lorrax_C/src/solvers/lanczos.py" source_line=288}
  %select.207 = f64[200,200]{1,0} select(%compare.39, %broadcast.810, %broadcast.812), metadata={op_name="jit(_full_run)/jit(main)/jit(_diag)/jit(_where)/select_n" source_file="/global/homes/j/jackm/software/lorrax_C/src/solvers/lanczos.py" source_line=288}
  %add.1741 = f64[200,200]{1,0} add(%select.206, %select.207), metadata={op_name="jit(_full_run)/jit(main)/add" source_file="/global/homes/j/jackm/software/lorrax_C/src/solvers/lanczos.py" source_line=290}
  %iota.11 = s64[200]{0} iota(), iota_dimension=0, metadata={op_name="jit(_full_run)/jit(main)/jit(_diag)/iota" source_file="/global/homes/j/jackm/software/lorrax_C/src/solvers/lanczos.py" source_line=290}
  %constant.635 = s64[] constant(-1)
  %broadcast.841 = s64[200]{0} broadcast(%constant.635), dimensions={}
  %add.576 = s64[200]{0} add(%iota.11, %broadcast.841), metadata={op_name="jit(_full_run)/jit(main)/jit(_diag)/add" source_file="/global/homes/j/jackm/software/lorrax_C/src/solvers/lanczos.py" source_line=290}
  %broadcast.842 = s64[200,200]{1,0} broadcast(%add.576), dimensions={0}, metadata={op_name="jit(_full_run)/jit(main)/jit(_diag)/iota" source_file="/global/homes/j/jackm/software/lorrax_C/src/solvers/lanczos.py" source_line=290}
  %iota.17 = s64[200,200]{1,0} iota(), iota_dimension=1, metadata={op_name="jit(_full_run)/jit(main)/jit(_diag)/iota" source_file="/global/homes/j/jackm/software/lorrax_C/src/solvers/lanczos.py" source_line=290}
  %compare.40 = pred[200,200]{1,0} compare(%broadcast.842, %iota.17), direction=EQ, metadata={op_name="jit(_full_run)/jit(main)/jit(_diag)/eq" source_file="/global/homes/j/jackm/software/lorrax_C/src/solvers/lanczos.py" source_line=290}
  %constant.636 = f64[] constant(0)
  %pad.1 = f64[200]{0} pad(%slice.1717, %constant.636), padding=0_1, metadata={op_name="jit(_full_run)/jit(main)/jit(_diag)/pad" source_file="/global/homes/j/jackm/software/lorrax_C/src/solvers/lanczos.py" source_line=290}
  %broadcast.816 = f64[200,200]{1,0} broadcast(%pad.1), dimensions={1}, metadata={op_name="jit(_full_run)/jit(main)/jit(_diag)/jit(_where)/broadcast_in_dim" source_file="/global/homes/j/jackm/software/lorrax_C/src/solvers/lanczos.py" source_line=288}
  %constant.637 = f64[] constant(0)
  %broadcast.818 = f64[200,200]{1,0} broadcast(%constant.637), dimensions={}, metadata={op_name="jit(_full_run)/jit(main)/jit(_diag)/jit(_where)/broadcast_in_dim" source_file="/global/homes/j/jackm/software/lorrax_C/src/solvers/lanczos.py" source_line=288}
  %select.208 = f64[200,200]{1,0} select(%compare.40, %broadcast.816, %broadcast.818), metadata={op_name="jit(_full_run)/jit(main)/jit(_diag)/jit(_where)/select_n" source_file="/global/homes/j/jackm/software/lorrax_C/src/solvers/lanczos.py" source_line=288}
  %add.1765 = f64[200,200]{1,0} add(%add.1741, %select.208), metadata={op_name="jit(_full_run)/jit(main)/add" source_file="/global/homes/j/jackm/software/lorrax_C/src/solvers/lanczos.py" source_line=290}
  %transpose.28 = f64[200,200]{0,1} transpose(%add.1765), dimensions={1,0}, metadata={op_name="jit(_full_run)/jit(main)/jit(eigh)/transpose" source_file="/global/homes/j/jackm/software/lorrax_C/src/solvers/lanczos.py" source_line=292}
  %add.566 = f64[200,200]{1,0} add(%add.1765, %transpose.28), metadata={op_name="jit(_full_run)/jit(main)/jit(eigh)/add" source_file="/global/homes/j/jackm/software/lorrax_C/src/solvers/lanczos.py" source_line=292}
  %constant.653 = f64[] constant(0.5)
  %broadcast.844 = f64[200,200]{1,0} broadcast(%constant.653), dimensions={}
  %multiply.132 = f64[200,200]{1,0} multiply(%add.566, %broadcast.844), metadata={op_name="jit(_full_run)/jit(main)/jit(eigh)/div" source_file="/global/homes/j/jackm/software/lorrax_C/src/solvers/lanczos.py" source_line=292}
  %custom-call.113 = (f64[200,200]{0,1}, f64[200]{0}, s32[]) custom-call(%multiply.132), custom_call_target="cusolver_syevd_ffi", operand_layout_constraints={f64[200,200]{0,1}}, output_to_operand_aliasing={{0}: (0, {})}, api_version=API_VERSION_TYPED_FFI, frontend_attributes={num_batch_dims="0"}, metadata={op_name="jit(_full_run)/jit(main)/jit(eigh)/eigh" source_file="/global/homes/j/jackm/software/lorrax_C/src/solvers/lanczos.py" source_line=292}, backend_config={algorithm = 0 : ui8, lower = true}
  %get-tuple-element.37 = s32[] get-tuple-element(%custom-call.113), index=2, frontend_attributes={num_batch_dims="0"}, metadata={op_name="jit(_full_run)/jit(main)/jit(eigh)/eigh" source_file="/global/homes/j/jackm/software/lorrax_C/src/solvers/lanczos.py" source_line=292}
  %constant.639 = s32[] constant(0)
  %compare.41 = pred[] compare(%get-tuple-element.37, %constant.639), direction=EQ, metadata={op_name="jit(_full_run)/jit(main)/jit(eigh)/eigh" source_file="/global/homes/j/jackm/software/lorrax_C/src/solvers/lanczos.py" source_line=292}
  %broadcast.821 = pred[200]{0} broadcast(%compare.41), dimensions={}, metadata={op_name="jit(_full_run)/jit(main)/jit(eigh)/eigh" source_file="/global/homes/j/jackm/software/lorrax_C/src/solvers/lanczos.py" source_line=292}
  %get-tuple-element.38 = f64[200]{0} get-tuple-element(%custom-call.113), index=1, frontend_attributes={num_batch_dims="0"}, metadata={op_name="jit(_full_run)/jit(main)/jit(eigh)/eigh" source_file="/global/homes/j/jackm/software/lorrax_C/src/solvers/lanczos.py" source_line=292}
  %constant.640 = f64[] constant(nan)
  %broadcast.823 = f64[200]{0} broadcast(%constant.640), dimensions={}
  %select.209 = f64[200]{0} select(%broadcast.821, %get-tuple-element.38, %broadcast.823), metadata={op_name="jit(_full_run)/jit(main)/jit(eigh)/eigh" source_file="/global/homes/j/jackm/software/lorrax_C/src/solvers/lanczos.py" source_line=292}
  %iota.13 = s64[200]{0} iota(), iota_dimension=0, metadata={op_name="jit(_full_run)/jit(main)/jit(argsort)/iota" source_file="/global/homes/j/jackm/software/lorrax_C/src/solvers/lanczos.py" source_line=293}
  %sort.0 = (f64[200]{0}, s64[200]{0}) sort(%select.209, %iota.13), dimensions={0}, is_stable=true, to_apply=%region_17.1797, metadata={op_name="jit(_full_run)/jit(main)/jit(argsort)/sort" source_file="/global/homes/j/jackm/software/lorrax_C/src/solvers/lanczos.py" source_line=293}
  %get-tuple-element.41 = s64[200]{0} get-tuple-element(%sort.0), index=1, metadata={op_name="jit(_full_run)/jit(main)/jit(argsort)/sort" source_file="/global/homes/j/jackm/software/lorrax_C/src/solvers/lanczos.py" source_line=293}
  %slice.1820 = s64[5]{0} slice(%get-tuple-element.41), slice={[0:5]}, metadata={op_name="jit(_full_run)/jit(main)/slice" source_file="/global/homes/j/jackm/software/lorrax_C/src/solvers/lanczos.py" source_line=293}
  %constant.13 = s64[] constant(0)
  %broadcast.14 = s64[5]{0} broadcast(%constant.13), dimensions={}
  %compare.1821 = pred[5]{0} compare(%slice.1820, %broadcast.14), direction=LT, metadata={op_name="jit(_full_run)/jit(main)/lt" source_file="/global/homes/j/jackm/software/lorrax_C/src/solvers/lanczos.py" source_line=294}
  %constant.11 = s64[] constant(200)
  %broadcast.12 = s64[5]{0} broadcast(%constant.11), dimensions={}
  %add.1822 = s64[5]{0} add(%slice.1820, %broadcast.12), metadata={op_name="jit(_full_run)/jit(main)/add" source_file="/global/homes/j/jackm/software/lorrax_C/src/solvers/lanczos.py" source_line=294}
  %select.1823 = s64[5]{0} select(%compare.1821, %add.1822, %slice.1820), metadata={op_name="jit(_full_run)/jit(main)/select_n" source_file="/global/homes/j/jackm/software/lorrax_C/src/solvers/lanczos.py" source_line=294}
  %convert.1824 = s32[5]{0} convert(%select.1823), metadata={op_name="jit(_full_run)/jit(main)/convert_element_type" source_file="/global/homes/j/jackm/software/lorrax_C/src/solvers/lanczos.py" source_line=294}
  %reshape.1825 = s32[5,1]{1,0} reshape(%convert.1824), metadata={op_name="jit(_full_run)/jit(main)/broadcast_in_dim" source_file="/global/homes/j/jackm/software/lorrax_C/src/solvers/lanczos.py" source_line=294}
  %gather.1826 = f64[5]{0} gather(%select.209, %reshape.1825), offset_dims={}, collapsed_slice_dims={0}, start_index_map={0}, index_vector_dim=1, slice_sizes={1}, sharding={replicated}, metadata={op_name="jit(_full_run)/jit(main)/gather" source_file="/global/homes/j/jackm/software/lorrax_C/src/solvers/lanczos.py" source_line=294}
  %broadcast.826 = pred[200,200]{1,0} broadcast(%compare.41), dimensions={}, metadata={op_name="jit(_full_run)/jit(main)/jit(eigh)/eigh" source_file="/global/homes/j/jackm/software/lorrax_C/src/solvers/lanczos.py" source_line=292}
  %get-tuple-element.39 = f64[200,200]{0,1} get-tuple-element(%custom-call.113), index=0, frontend_attributes={num_batch_dims="0"}, metadata={op_name="jit(_full_run)/jit(main)/jit(eigh)/eigh" source_file="/global/homes/j/jackm/software/lorrax_C/src/solvers/lanczos.py" source_line=292}
  %constant.641 = f64[] constant(nan)
  %broadcast.827 = f64[200,200]{1,0} broadcast(%constant.641), dimensions={}
  %select.210 = f64[200,200]{1,0} select(%broadcast.826, %get-tuple-element.39, %broadcast.827), metadata={op_name="jit(_full_run)/jit(main)/jit(eigh)/eigh" source_file="/global/homes/j/jackm/software/lorrax_C/src/solvers/lanczos.py" source_line=292}
  %compare.1827 = pred[5]{0} compare(%slice.1820, %broadcast.14), direction=LT, metadata={op_name="jit(_full_run)/jit(main)/lt" source_file="/global/homes/j/jackm/software/lorrax_C/src/solvers/lanczos.py" source_line=296}
  %add.1828 = s64[5]{0} add(%slice.1820, %broadcast.12), metadata={op_name="jit(_full_run)/jit(main)/add" source_file="/global/homes/j/jackm/software/lorrax_C/src/solvers/lanczos.py" source_line=296}
  %select.1829 = s64[5]{0} select(%compare.1827, %add.1828, %slice.1820), metadata={op_name="jit(_full_run)/jit(main)/select_n" source_file="/global/homes/j/jackm/software/lorrax_C/src/solvers/lanczos.py" source_line=296}
  %convert.1830 = s32[5]{0} convert(%select.1829), metadata={op_name="jit(_full_run)/jit(main)/convert_element_type" source_file="/global/homes/j/jackm/software/lorrax_C/src/solvers/lanczos.py" source_line=296}
  %reshape.1831 = s32[5,1]{1,0} reshape(%convert.1830), metadata={op_name="jit(_full_run)/jit(main)/broadcast_in_dim" source_file="/global/homes/j/jackm/software/lorrax_C/src/solvers/lanczos.py" source_line=296}
  %gather.1832 = f64[200,5]{1,0} gather(%select.210, %reshape.1831), offset_dims={0}, collapsed_slice_dims={1}, start_index_map={1}, index_vector_dim=1, slice_sizes={200,1}, metadata={op_name="jit(_full_run)/jit(main)/gather" source_file="/global/homes/j/jackm/software/lorrax_C/src/solvers/lanczos.py" source_line=296}
  %convert.1833 = c128[200,5]{1,0} convert(%gather.1832), metadata={op_name="jit(_full_run)/jit(main)/dot_general" source_file="/global/homes/j/jackm/software/lorrax_C/src/solvers/lanczos.py" source_line=296}
  %get-tuple-element.1695 = c128[1024,200]{1,0} get-tuple-element(%while.22), index=1, metadata={op_name="jit(_full_run)/jit(main)/while" source_file="/global/homes/j/jackm/software/lorrax_C/src/solvers/lanczos.py" source_line=286}
  %dot.31 = c128[5,1024]{0,1} dot(%convert.1833, %get-tuple-element.1695), lhs_contracting_dims={0}, rhs_contracting_dims={1}, metadata={op_name="jit(_full_run)/jit(main)/transpose" source_file="/global/homes/j/jackm/software/lorrax_C/src/solvers/lanczos.py" source_line=296}
  %real.21 = f64[5,1024]{1,0} real(%dot.31), metadata={op_name="jit(_full_run)/jit(main)/jit(norm)/real" source_file="/global/homes/j/jackm/software/lorrax_C/src/solvers/lanczos.py" source_line=297}
  %imag.17 = f64[5,1024]{1,0} imag(%dot.31), metadata={op_name="jit(_full_run)/jit(main)/jit(norm)/imag" source_file="/global/homes/j/jackm/software/lorrax_C/src/solvers/lanczos.py" source_line=297}
  %negate.25 = f64[5,1024]{1,0} negate(%imag.17), metadata={op_name="jit(_full_run)/jit(main)/jit(norm)/neg" source_file="/global/homes/j/jackm/software/lorrax_C/src/solvers/lanczos.py" source_line=297}
  %complex.17 = c128[5,1024]{1,0} complex(%real.21, %negate.25), metadata={op_name="jit(_full_run)/jit(main)/jit(norm)/complex" source_file="/global/homes/j/jackm/software/lorrax_C/src/solvers/lanczos.py" source_line=297}
  %multiply.128 = c128[5,1024]{1,0} multiply(%dot.31, %complex.17), metadata={op_name="jit(_full_run)/jit(main)/jit(norm)/mul" source_file="/global/homes/j/jackm/software/lorrax_C/src/solvers/lanczos.py" source_line=297}
  %real.22 = f64[5,1024]{1,0} real(%multiply.128), metadata={op_name="jit(_full_run)/jit(main)/jit(norm)/real" source_file="/global/homes/j/jackm/software/lorrax_C/src/solvers/lanczos.py" source_line=297}
  %constant.642 = f64[] constant(0)
  %reduce.4 = f64[5]{0} reduce(%real.22, %constant.642), dimensions={1}, to_apply=%region_18.1836, metadata={op_name="jit(_full_run)/jit(main)/jit(norm)/reduce_sum" source_file="/global/homes/j/jackm/software/lorrax_C/src/solvers/lanczos.py" source_line=297}
  %sqrt.10 = f64[5]{0} sqrt(%reduce.4), metadata={op_name="jit(_full_run)/jit(main)/jit(norm)/sqrt" source_file="/global/homes/j/jackm/software/lorrax_C/src/solvers/lanczos.py" source_line=297}
  %constant.9 = f64[] constant(1e-15)
  %broadcast.1089 = f64[5]{0} broadcast(%constant.9), dimensions={}
  %maximum.15 = f64[5]{0} maximum(%sqrt.10, %broadcast.1089), metadata={op_name="jit(_full_run)/jit(main)/max" source_file="/global/homes/j/jackm/software/lorrax_C/src/solvers/lanczos.py" source_line=298}
  %convert.92 = c128[5]{0} convert(%maximum.15), metadata={op_name="jit(_full_run)/jit(main)/convert_element_type" source_file="/global/homes/j/jackm/software/lorrax_C/src/solvers/lanczos.py" source_line=298}
  %broadcast.1857 = c128[5,1024]{1,0} broadcast(%convert.92), dimensions={0}, metadata={op_name="jit(_full_run)/jit(main)/div" source_file="/global/homes/j/jackm/software/lorrax_C/src/solvers/lanczos.py" source_line=298}
  %divide.1858 = c128[5,1024]{0,1} divide(%dot.31, %broadcast.1857), sharding={replicated}, metadata={op_name="jit(_full_run)/jit(main)/div" source_file="/global/homes/j/jackm/software/lorrax_C/src/solvers/lanczos.py" source_line=298}
  %constant.23 = s32[] constant(200)
  ROOT %tuple.1862 = (f64[5]{0}, c128[5,1024]{1,0}, s32[]) tuple(%gather.1826, %divide.1858, %constant.23), sharding={{replicated}, {replicated}, {replicated}}
  %constant.379 = f64[] constant(-0.99999999999999989)
  %constant.504 = f64[] constant(-0.99999999999999989)
  %constant.938 = u32[] constant(42), metadata={op_name="jit(_full_run)/jit(main)/jit(_threefry_split)/squeeze" source_file="/global/homes/j/jackm/software/lorrax_C/src/solvers/lanczos.py" source_line=245}
  %constant.942 = u32[] constant(466689008), metadata={op_name="jit(_full_run)/jit(main)/jit(_threefry_split)/xor" source_file="/global/homes/j/jackm/software/lorrax_C/src/solvers/lanczos.py" source_line=245}
}

