HloModule jit__full_run, is_scheduled=true, entry_computation_layout={(c128[64,4,2,240]{3,2,1,0}, c128[64,4,2,240]{3,2,1,0}, c128[64,4,2,240]{3,2,1,0}, c128[64,4,2,240]{3,2,1,0}, f64[64,4]{1,0}, /*index=5*/f64[64,4]{1,0}, c128[240,240,4,4,4]{4,3,2,1,0}, c128[240,240]{1,0})->(f64[5]{0}, c128[5,1024]{1,0}, s32[])}, allow_spmd_sharding_propagation_to_parameters={false,false,false,false,false,false,false,false}, allow_spmd_sharding_propagation_to_output={false,false,false}, num_partitions=4, frontend_attributes={fingerprint_before_lhs="51e85ec6e89dd189e3ef6db998be3698"}

%region_6.1287 (Arg_0.1288: c128[], Arg_1.1289: c128[]) -> c128[] {
  %Arg_1.1289 = c128[] parameter(1), metadata={op_name="jit(_full_run)/jit(main)/while/body/jit(_matvec_impl)/jit(shmap_body)/while/body/reduce_sum" scheduling_name="Arg_1.1289"}
  %Arg_0.1288 = c128[] parameter(0), metadata={op_name="jit(_full_run)/jit(main)/while/body/jit(_matvec_impl)/jit(shmap_body)/while/body/reduce_sum" scheduling_name="Arg_0.1288"}
  ROOT %add.1341 = c128[] add(%Arg_0.1288, %Arg_1.1289), metadata={op_name="jit(_full_run)/jit(main)/while/body/jit(_matvec_impl)/jit(shmap_body)/while/body/reduce_sum" source_file="/global/homes/j/jackm/software/lorrax_C/src/bse/bse_ring_comm.py" source_line=281 scheduling_name="add.1341"}
}

%fused_transpose (param_0.2: c128[1,2,240,64], param_1.23: c128[64,2,2,240], param_2.20: c128[64,2,480]) -> c128[1,2,240,64] {
  %param_0.2 = c128[1,2,240,64]{3,2,1,0} parameter(0), metadata={scheduling_name="param_0.2"}
  %param_2.20 = c128[64,2,480]{2,1,0} parameter(2), metadata={scheduling_name="param_2.20"}
  %bitcast.6718.5 = c128[1,64,2,2,240]{4,3,2,1,0} bitcast(%param_2.20), metadata={scheduling_name="bitcast.6718.5"}
  %param_1.23 = c128[64,2,2,240]{3,2,1,0} parameter(1), metadata={scheduling_name="param_1.23"}
  %real.141.3 = f64[64,2,2,240]{3,2,1,0} real(%param_1.23), metadata={op_name="jit(_full_run)/jit(main)/while/body/jit(_matvec_impl)/jit(shmap_body)/while/body/real" source_file="/global/homes/j/jackm/software/lorrax_C/src/bse/bse_ring_comm.py" source_line=270 scheduling_name="real.141.3"}
  %imag.118.3 = f64[64,2,2,240]{3,2,1,0} imag(%param_1.23), metadata={op_name="jit(_full_run)/jit(main)/while/body/jit(_matvec_impl)/jit(shmap_body)/while/body/imag" source_file="/global/homes/j/jackm/software/lorrax_C/src/bse/bse_ring_comm.py" source_line=270 scheduling_name="imag.118.3"}
  %negate.165.3 = f64[64,2,2,240]{3,2,1,0} negate(%imag.118.3), metadata={op_name="jit(_full_run)/jit(main)/while/body/jit(_matvec_impl)/jit(shmap_body)/while/body/neg" source_file="/global/homes/j/jackm/software/lorrax_C/src/bse/bse_ring_comm.py" source_line=270 scheduling_name="negate.165.3"}
  %complex.118.5 = c128[64,2,2,240]{3,2,1,0} complex(%real.141.3, %negate.165.3), metadata={op_name="jit(_full_run)/jit(main)/while/body/jit(_matvec_impl)/jit(shmap_body)/while/body/complex" source_file="/global/homes/j/jackm/software/lorrax_C/src/bse/bse_ring_comm.py" source_line=270 scheduling_name="complex.118.5"}
  %bitcast.6728.5 = c128[1,64,2,2,240]{4,3,2,1,0} bitcast(%complex.118.5), metadata={scheduling_name="bitcast.6728.5"}
  %multiply.468.5 = c128[1,64,2,2,240]{4,3,2,1,0} multiply(%bitcast.6718.5, %bitcast.6728.5), metadata={scheduling_name="multiply.468.5"}
  %bitcast.6732.3 = c128[64,2,2,240]{3,2,1,0} bitcast(%multiply.468.5), metadata={scheduling_name="bitcast.6732.3"}
  %constant_1135_1 = c128[] constant((0, 0))
  %reduce.51.3 = c128[64,2,240]{2,1,0} reduce(%bitcast.6732.3, %constant_1135_1), dimensions={2}, to_apply=%region_6.1287, metadata={scheduling_name="reduce.51.3"}
  %bitcast.6736.3 = c128[64,480]{1,0} bitcast(%reduce.51.3), metadata={scheduling_name="bitcast.6736.3"}
  %transpose.371.3 = c128[480,64]{1,0} transpose(%bitcast.6736.3), dimensions={1,0}, metadata={op_name="jit(_full_run)/jit(main)/while/body/jit(_matvec_impl)/jit(shmap_body)/while/body/kcsN,bcksN->bcNk/dot_general" source_file="/global/homes/j/jackm/software/lorrax_C/src/bse/bse_ring_comm.py" source_line=270 scheduling_name="transpose.371.3"}
  %bitcast.6739.1 = c128[1,2,240,64]{3,2,1,0} bitcast(%transpose.371.3), metadata={scheduling_name="bitcast.6739.1"}
  ROOT %add.1348.1 = c128[1,2,240,64]{3,2,1,0} add(%param_0.2, %bitcast.6739.1), metadata={op_name="jit(_full_run)/jit(main)/while/body/jit(_matvec_impl)/jit(shmap_body)/while/body/add" source_file="/global/homes/j/jackm/software/lorrax_C/src/bse/bse_ring_comm.py" source_line=270 scheduling_name="add.1348.1"}
}

%fused_dynamic_slice (param_0.13: c128[64,4,2,240], param_1.22: s32[], param_2.19: s64[]) -> c128[64,2,2,240] {
  %param_0.13 = c128[64,4,2,240]{3,2,1,0} parameter(0), metadata={scheduling_name="param_0.13"}
  %constant_1126_1 = s32[] constant(0), metadata={op_name="jit(_full_run)/jit(main)/while/body/jit(_matvec_impl)/jit(shmap_body)/while/body/select_n" source_file="/global/homes/j/jackm/software/lorrax_C/src/bse/bse_ring_comm.py" source_line=266}
  %param_1.22 = s32[] parameter(1), metadata={scheduling_name="param_1.22"}
  %param_2.19 = s64[] parameter(2), metadata={scheduling_name="param_2.19"}
  %convert.197.1 = s32[] convert(%param_2.19), metadata={op_name="jit(_full_run)/jit(main)/while/body/jit(_matvec_impl)/jit(shmap_body)/while/body/convert_element_type" source_file="/global/homes/j/jackm/software/lorrax_C/src/bse/bse_ring_comm.py" source_line=264 scheduling_name="convert.197.1"}
  %subtract.75.1 = s32[] subtract(%param_1.22, %convert.197.1), metadata={op_name="jit(_full_run)/jit(main)/while/body/jit(_matvec_impl)/jit(shmap_body)/while/body/sub" source_file="/global/homes/j/jackm/software/lorrax_C/src/bse/bse_ring_comm.py" source_line=264 scheduling_name="subtract.75.1"}
  %compare.272.1 = pred[] compare(%subtract.75.1, %constant_1126_1), direction=LT, metadata={op_name="jit(_full_run)/jit(main)/while/body/jit(_matvec_impl)/jit(shmap_body)/while/body/jit(remainder)/rem" source_file="/global/homes/j/jackm/software/lorrax_C/src/bse/bse_ring_comm.py" source_line=264 scheduling_name="compare.272.1"}
  %negate.163.1 = s32[] negate(%subtract.75.1), metadata={op_name="jit(_full_run)/jit(main)/while/body/jit(_matvec_impl)/jit(shmap_body)/while/body/jit(remainder)/rem" source_file="/global/homes/j/jackm/software/lorrax_C/src/bse/bse_ring_comm.py" source_line=264 scheduling_name="negate.163.1"}
  %select.677.1 = s32[] select(%compare.272.1, %negate.163.1, %subtract.75.1), metadata={op_name="jit(_full_run)/jit(main)/while/body/jit(_matvec_impl)/jit(shmap_body)/while/body/jit(remainder)/rem" source_file="/global/homes/j/jackm/software/lorrax_C/src/bse/bse_ring_comm.py" source_line=264 scheduling_name="select.677.1"}
  %constant_1128_1 = s32[] constant(1), metadata={op_name="jit(_full_run)/jit(main)/while/body/jit(_matvec_impl)/jit(shmap_body)/while/body/jit(remainder)/rem" source_file="/global/homes/j/jackm/software/lorrax_C/src/bse/bse_ring_comm.py" source_line=264}
  %and.62.1 = s32[] and(%select.677.1, %constant_1128_1), metadata={op_name="jit(_full_run)/jit(main)/while/body/jit(_matvec_impl)/jit(shmap_body)/while/body/jit(remainder)/rem" source_file="/global/homes/j/jackm/software/lorrax_C/src/bse/bse_ring_comm.py" source_line=264 scheduling_name="and.62.1"}
  %negate.164.1 = s32[] negate(%and.62.1), metadata={op_name="jit(_full_run)/jit(main)/while/body/jit(_matvec_impl)/jit(shmap_body)/while/body/jit(remainder)/rem" source_file="/global/homes/j/jackm/software/lorrax_C/src/bse/bse_ring_comm.py" source_line=264 scheduling_name="negate.164.1"}
  %select.678.1 = s32[] select(%compare.272.1, %negate.164.1, %and.62.1), metadata={op_name="jit(_full_run)/jit(main)/while/body/jit(_matvec_impl)/jit(shmap_body)/while/body/jit(remainder)/rem" source_file="/global/homes/j/jackm/software/lorrax_C/src/bse/bse_ring_comm.py" source_line=264 scheduling_name="select.678.1"}
  %compare.273.1 = pred[] compare(%select.678.1, %constant_1126_1), direction=LT, metadata={op_name="jit(_full_run)/jit(main)/while/body/jit(_matvec_impl)/jit(shmap_body)/while/body/jit(remainder)/lt" source_file="/global/homes/j/jackm/software/lorrax_C/src/bse/bse_ring_comm.py" source_line=264 scheduling_name="compare.273.1"}
  %compare.274.1 = pred[] compare(%select.678.1, %constant_1126_1), direction=NE, metadata={op_name="jit(_full_run)/jit(main)/while/body/jit(_matvec_impl)/jit(shmap_body)/while/body/jit(remainder)/ne" source_file="/global/homes/j/jackm/software/lorrax_C/src/bse/bse_ring_comm.py" source_line=264 scheduling_name="compare.274.1"}
  %and.63.1 = pred[] and(%compare.273.1, %compare.274.1), metadata={op_name="jit(_full_run)/jit(main)/while/body/jit(_matvec_impl)/jit(shmap_body)/while/body/jit(remainder)/and" source_file="/global/homes/j/jackm/software/lorrax_C/src/bse/bse_ring_comm.py" source_line=264 scheduling_name="and.63.1"}
  %constant_1131_1 = s32[] constant(2), metadata={op_name="jit(_full_run)/jit(main)/while/body/jit(_matvec_impl)/jit(shmap_body)/while/body/jit(remainder)/jit(_where)/select_n" source_file="/global/homes/j/jackm/software/lorrax_C/src/bse/bse_ring_comm.py" source_line=264}
  %add.1346.1 = s32[] add(%select.678.1, %constant_1131_1), metadata={op_name="jit(_full_run)/jit(main)/while/body/jit(_matvec_impl)/jit(shmap_body)/while/body/jit(remainder)/add" source_file="/global/homes/j/jackm/software/lorrax_C/src/bse/bse_ring_comm.py" source_line=264 scheduling_name="add.1346.1"}
  %select.680.1 = s32[] select(%and.63.1, %add.1346.1, %select.678.1), metadata={op_name="jit(_full_run)/jit(main)/while/body/jit(_matvec_impl)/jit(shmap_body)/while/body/jit(remainder)/select_n" source_file="/global/homes/j/jackm/software/lorrax_C/src/bse/bse_ring_comm.py" source_line=264 scheduling_name="select.680.1"}
  %multiply.467.1 = s32[] multiply(%select.680.1, %constant_1131_1), metadata={op_name="jit(_full_run)/jit(main)/while/body/jit(_matvec_impl)/jit(shmap_body)/while/body/mul" source_file="/global/homes/j/jackm/software/lorrax_C/src/bse/bse_ring_comm.py" source_line=265 scheduling_name="multiply.467.1"}
  %compare.275.1 = pred[] compare(%multiply.467.1, %constant_1126_1), direction=LT, metadata={op_name="jit(_full_run)/jit(main)/while/body/jit(_matvec_impl)/jit(shmap_body)/while/body/lt" source_file="/global/homes/j/jackm/software/lorrax_C/src/bse/bse_ring_comm.py" source_line=266 scheduling_name="compare.275.1"}
  %constant_1134_1 = s32[] constant(4)
  %add.1347.1 = s32[] add(%multiply.467.1, %constant_1134_1), metadata={op_name="jit(_full_run)/jit(main)/while/body/jit(_matvec_impl)/jit(shmap_body)/while/body/add" source_file="/global/homes/j/jackm/software/lorrax_C/src/bse/bse_ring_comm.py" source_line=266 scheduling_name="add.1347.1"}
  %select.681.1 = s32[] select(%compare.275.1, %add.1347.1, %multiply.467.1), metadata={op_name="jit(_full_run)/jit(main)/while/body/jit(_matvec_impl)/jit(shmap_body)/while/body/select_n" source_file="/global/homes/j/jackm/software/lorrax_C/src/bse/bse_ring_comm.py" source_line=266 scheduling_name="select.681.1"}
  ROOT %dynamic-slice.138.1 = c128[64,2,2,240]{3,2,1,0} dynamic-slice(%param_0.13, %constant_1126_1, %select.681.1, %constant_1126_1, %constant_1126_1), dynamic_slice_sizes={64,2,2,240}, metadata={op_name="jit(_full_run)/jit(main)/while/body/jit(_matvec_impl)/jit(shmap_body)/while/body/dynamic_slice" source_file="/global/homes/j/jackm/software/lorrax_C/src/bse/bse_ring_comm.py" source_line=266 scheduling_name="dynamic-slice.138.1"}
}

%fused_add (param_0.14: s64[]) -> s64[] {
  %param_0.14 = s64[] parameter(0), metadata={scheduling_name="param_0.14"}
  %constant_1125_1 = s64[] constant(1)
  ROOT %add.1345.1 = s64[] add(%param_0.14, %constant_1125_1), metadata={op_name="jit(_full_run)/jit(main)/while/body/jit(_matvec_impl)/jit(shmap_body)/while/body/add" source_file="/global/homes/j/jackm/software/lorrax_C/src/bse/bse_ring_comm.py" source_line=274 scheduling_name="add.1345.1"}
}

%region_3.1259.clone.clone.clone.1_spmd (param.10.0: (s64[], c128[1,2,2,64], c128[1,2,240,64], s32[], c128[64,4,2,240], /*index=5*/c128[64,2,2,240])) -> (s64[], c128[1,2,2,64], c128[1,2,240,64], s32[], c128[64,4,2,240], /*index=5*/c128[64,2,2,240]) {
  %param.10.0 = (s64[], c128[1,2,2,64]{2,1,3,0}, c128[1,2,240,64]{3,2,1,0}, s32[], c128[64,4,2,240]{3,2,1,0}, /*index=5*/c128[64,2,2,240]{3,2,1,0}) parameter(0), metadata={scheduling_name="param.10.0"}
  %get-tuple-element.504 = c128[1,2,2,64]{2,1,3,0} get-tuple-element(%param.10.0), index=1, metadata={scheduling_name="get-tuple-element.504"}
  %copy.117 = c128[1,2,2,64]{2,1,3,0} copy(%get-tuple-element.504), metadata={scheduling_name="copy.117"}
  %collective-permute-start = (c128[1,2,2,64]{2,1,3,0}, c128[1,2,2,64]{2,1,3,0}) collective-permute-start(%copy.117), channel_id=1, source_target_pairs={{0,1},{1,0},{2,3},{3,2}}, metadata={op_name="jit(_full_run)/jit(main)/while/body/jit(_matvec_impl)/jit(shmap_body)/while/body/ppermute" source_file="/global/homes/j/jackm/software/lorrax_C/src/bse/bse_ring_comm.py" source_line=271 scheduling_name="collective-permute-start"}, backend_config={"operation_queue_id":"0","wait_on_operation_queues":[],"collective_backend_config":{"is_sync":false,"no_parallel_custom_call":false,"is_pipelined":false,"reification_cost":[]},"force_earliest_schedule":false}
  %get-tuple-element.503 = s64[] get-tuple-element(%param.10.0), index=0, metadata={scheduling_name="get-tuple-element.503"}
  %get-tuple-element.512 = s32[] get-tuple-element(%param.10.0), index=3, metadata={scheduling_name="get-tuple-element.512"}
  %get-tuple-element.513 = c128[64,4,2,240]{3,2,1,0} get-tuple-element(%param.10.0), index=4, metadata={scheduling_name="get-tuple-element.513"}
  %loop_dynamic_slice_fusion = c128[64,2,2,240]{3,2,1,0} fusion(%get-tuple-element.513, %get-tuple-element.512, %get-tuple-element.503), kind=kLoop, calls=%fused_dynamic_slice, metadata={op_name="jit(_full_run)/jit(main)/while/body/jit(_matvec_impl)/jit(shmap_body)/while/body/dynamic_slice" source_file="/global/homes/j/jackm/software/lorrax_C/src/bse/bse_ring_comm.py" source_line=266 scheduling_name="loop_dynamic_slice_fusion"}
  %bitcast.6671.0 = c128[64,2,2]{2,1,0} bitcast(%copy.117), metadata={scheduling_name="bitcast.6671.0"}
  %bitcast.6715.0 = c128[64,2,480]{2,1,0} bitcast(%loop_dynamic_slice_fusion), metadata={scheduling_name="bitcast.6715.0"}
  %custom-call.260.0 = (c128[64,2,480]{2,1,0}, s8[987136]{0}) custom-call(%bitcast.6671.0, %bitcast.6715.0), custom_call_target="__cublas$gemm", metadata={op_name="jit(_full_run)/jit(main)/while/body/jit(_matvec_impl)/jit(shmap_body)/while/body/kvsN,bcvk->bcksN/dot_general" source_file="/global/homes/j/jackm/software/lorrax_C/src/bse/bse_ring_comm.py" source_line=269 scheduling_name="custom-call.260.0"}, backend_config={"operation_queue_id":"0","wait_on_operation_queues":[],"gemm_backend_config":{"alpha_real":1,"alpha_imag":0,"beta":0,"dot_dimension_numbers":{"lhs_contracting_dimensions":["2"],"rhs_contracting_dimensions":["1"],"lhs_batch_dimensions":["0"],"rhs_batch_dimensions":["0"]},"precision_config":{"operand_precision":["DEFAULT","DEFAULT"],"algorithm":"ALG_UNSET"},"epilogue":"DEFAULT","damax_output":false,"lhs_stride":"4","rhs_stride":"960","grad_x":false,"grad_y":false},"force_earliest_schedule":false}
  %get-tuple-element.514 = c128[64,2,2,240]{3,2,1,0} get-tuple-element(%param.10.0), index=5, metadata={scheduling_name="get-tuple-element.514"}
  %get-tuple-element.505 = c128[1,2,240,64]{3,2,1,0} get-tuple-element(%param.10.0), index=2, metadata={scheduling_name="get-tuple-element.505"}
  %get-tuple-element.470.0 = c128[64,2,480]{2,1,0} get-tuple-element(%custom-call.260.0), index=0, metadata={op_name="jit(_full_run)/jit(main)/while/body/jit(_matvec_impl)/jit(shmap_body)/while/body/kvsN,bcvk->bcksN/dot_general" source_file="/global/homes/j/jackm/software/lorrax_C/src/bse/bse_ring_comm.py" source_line=269 scheduling_name="get-tuple-element.470.0"}
  %input_transpose_fusion = c128[1,2,240,64]{3,2,1,0} fusion(%get-tuple-element.505, %get-tuple-element.514, %get-tuple-element.470.0), kind=kInput, calls=%fused_transpose, metadata={op_name="jit(_full_run)/jit(main)/while/body/jit(_matvec_impl)/jit(shmap_body)/while/body/add" source_file="/global/homes/j/jackm/software/lorrax_C/src/bse/bse_ring_comm.py" source_line=270 scheduling_name="input_transpose_fusion"}
  %loop_add_fusion = s64[] fusion(%get-tuple-element.503), kind=kLoop, calls=%fused_add, metadata={op_name="jit(_full_run)/jit(main)/while/body/jit(_matvec_impl)/jit(shmap_body)/while/body/add" source_file="/global/homes/j/jackm/software/lorrax_C/src/bse/bse_ring_comm.py" source_line=274 deduplicated_name="loop_add_fusion" scheduling_name="loop_add_fusion"}
  %collective-permute-done = c128[1,2,2,64]{2,1,3,0} collective-permute-done(%collective-permute-start), metadata={op_name="jit(_full_run)/jit(main)/while/body/jit(_matvec_impl)/jit(shmap_body)/while/body/ppermute" source_file="/global/homes/j/jackm/software/lorrax_C/src/bse/bse_ring_comm.py" source_line=271 scheduling_name="collective-permute-done"}
  ROOT %tuple.115 = (s64[], c128[1,2,2,64]{2,1,3,0}, c128[1,2,240,64]{3,2,1,0}, s32[], c128[64,4,2,240]{3,2,1,0}, /*index=5*/c128[64,2,2,240]{3,2,1,0}) tuple(%loop_add_fusion, %collective-permute-done, %input_transpose_fusion, %get-tuple-element.512, %get-tuple-element.513, /*index=5*/%get-tuple-element.514), metadata={scheduling_name="tuple.115"}
}

%fused_compare.1 (param_0.1: s64[]) -> pred[] {
  %param_0.1 = s64[] parameter(0), metadata={scheduling_name="param_0.1"}
  %constant_1123_1 = s64[] constant(2)
  ROOT %compare.271.1 = pred[] compare(%param_0.1, %constant_1123_1), direction=LT, metadata={op_name="jit(_full_run)/jit(main)/while/body/jit(_matvec_impl)/jit(shmap_body)/while/cond/lt" source_file="/global/homes/j/jackm/software/lorrax_C/src/bse/bse_ring_comm.py" source_line=274 scheduling_name="compare.271.1"}
}

%region_4.1276.clone.clone.1_spmd (param.9.0: (s64[], c128[1,2,2,64], c128[1,2,240,64], s32[], c128[64,4,2,240], /*index=5*/c128[64,2,2,240])) -> pred[] {
  %param.9.0 = (s64[], c128[1,2,2,64]{2,1,3,0}, c128[1,2,240,64]{3,2,1,0}, s32[], c128[64,4,2,240]{3,2,1,0}, /*index=5*/c128[64,2,2,240]{3,2,1,0}) parameter(0), metadata={scheduling_name="param.9.0"}
  %get-tuple-element.401.0 = s64[] get-tuple-element(%param.9.0), index=0, metadata={scheduling_name="get-tuple-element.401.0"}
  ROOT %loop_compare_fusion.1 = pred[] fusion(%get-tuple-element.401.0), kind=kLoop, calls=%fused_compare.1, metadata={op_name="jit(_full_run)/jit(main)/while/body/jit(_matvec_impl)/jit(shmap_body)/while/cond/lt" source_file="/global/homes/j/jackm/software/lorrax_C/src/bse/bse_ring_comm.py" source_line=274 deduplicated_name="loop_compare_fusion.1" scheduling_name="loop_compare_fusion.1"}
}

%fused_add.1 (param_0.16: c128[1,240,64], param_1.33: c128[1,2,240,64]) -> c128[1,240,64] {
  %param_0.16 = c128[1,240,64]{2,1,0} parameter(0), metadata={scheduling_name="param_0.16"}
  %param_1.33 = c128[1,2,240,64]{3,2,1,0} parameter(1), metadata={scheduling_name="param_1.33"}
  %bitcast.6759.3 = c128[2,240,64]{2,1,0} bitcast(%param_1.33), metadata={scheduling_name="bitcast.6759.3"}
  %constant_1138_1 = c128[] constant((0, 0))
  %reduce.50.3 = c128[240,64]{1,0} reduce(%bitcast.6759.3, %constant_1138_1), dimensions={0}, to_apply=%region_6.1287, metadata={op_name="jit(_full_run)/jit(main)/while/body/jit(_matvec_impl)/jit(shmap_body)/while/body/reduce_sum" source_file="/global/homes/j/jackm/software/lorrax_C/src/bse/bse_ring_comm.py" source_line=281 scheduling_name="reduce.50.3"}
  %bitcast.6763.1 = c128[1,240,64]{2,1,0} bitcast(%reduce.50.3), metadata={scheduling_name="bitcast.6763.1"}
  ROOT %add.1350.1 = c128[1,240,64]{2,1,0} add(%param_0.16, %bitcast.6763.1), metadata={op_name="jit(_full_run)/jit(main)/while/body/jit(_matvec_impl)/jit(shmap_body)/while/body/add" source_file="/global/homes/j/jackm/software/lorrax_C/src/bse/bse_ring_comm.py" source_line=281 scheduling_name="add.1350.1"}
}

%fused_add.2 (param_0.20: s64[]) -> s64[] {
  %param_0.20 = s64[] parameter(0), metadata={scheduling_name="param_0.20"}
  %constant_1137_1 = s64[] constant(1)
  ROOT %add.1349.1 = s64[] add(%param_0.20, %constant_1137_1), metadata={op_name="jit(_full_run)/jit(main)/while/body/jit(_matvec_impl)/jit(shmap_body)/while/body/add" source_file="/global/homes/j/jackm/software/lorrax_C/src/bse/bse_ring_comm.py" source_line=285 scheduling_name="add.1349.1"}
}

%region_5.1299_spmd (param.12.0: (s64[], c128[1,2,240,64], c128[1,240,64])) -> (s64[], c128[1,2,240,64], c128[1,240,64]) {
  %param.12.0 = (s64[], c128[1,2,240,64]{3,2,1,0}, c128[1,240,64]{2,1,0}) parameter(0), metadata={scheduling_name="param.12.0"}
  %get-tuple-element.519 = c128[1,2,240,64]{3,2,1,0} get-tuple-element(%param.12.0), index=1, metadata={scheduling_name="get-tuple-element.519"}
  %copy.126 = c128[1,2,240,64]{3,2,1,0} copy(%get-tuple-element.519), metadata={scheduling_name="copy.126"}
  %collective-permute-start.1 = (c128[1,2,240,64]{3,2,1,0}, c128[1,2,240,64]{3,2,1,0}) collective-permute-start(%copy.126), channel_id=2, source_target_pairs={{0,2},{2,0},{1,3},{3,1}}, metadata={op_name="jit(_full_run)/jit(main)/while/body/jit(_matvec_impl)/jit(shmap_body)/while/body/ppermute" source_file="/global/homes/j/jackm/software/lorrax_C/src/bse/bse_ring_comm.py" source_line=282 scheduling_name="collective-permute-start.1"}, backend_config={"operation_queue_id":"0","wait_on_operation_queues":[],"collective_backend_config":{"is_sync":false,"no_parallel_custom_call":true,"is_pipelined":false,"reification_cost":[]},"force_earliest_schedule":false}
  %get-tuple-element.518 = s64[] get-tuple-element(%param.12.0), index=0, metadata={scheduling_name="get-tuple-element.518"}
  %loop_add_fusion.2 = s64[] fusion(%get-tuple-element.518), kind=kLoop, calls=%fused_add.2, metadata={op_name="jit(_full_run)/jit(main)/while/body/jit(_matvec_impl)/jit(shmap_body)/while/body/add" source_file="/global/homes/j/jackm/software/lorrax_C/src/bse/bse_ring_comm.py" source_line=285 deduplicated_name="loop_add_fusion" scheduling_name="loop_add_fusion.2"}
  %get-tuple-element.520 = c128[1,240,64]{2,1,0} get-tuple-element(%param.12.0), index=2, metadata={scheduling_name="get-tuple-element.520"}
  %loop_add_fusion.1 = c128[1,240,64]{2,1,0} fusion(%get-tuple-element.520, %copy.126), kind=kLoop, calls=%fused_add.1, metadata={op_name="jit(_full_run)/jit(main)/while/body/jit(_matvec_impl)/jit(shmap_body)/while/body/add" source_file="/global/homes/j/jackm/software/lorrax_C/src/bse/bse_ring_comm.py" source_line=281 scheduling_name="loop_add_fusion.1"}
  %collective-permute-done.1 = c128[1,2,240,64]{3,2,1,0} collective-permute-done(%collective-permute-start.1), metadata={op_name="jit(_full_run)/jit(main)/while/body/jit(_matvec_impl)/jit(shmap_body)/while/body/ppermute" source_file="/global/homes/j/jackm/software/lorrax_C/src/bse/bse_ring_comm.py" source_line=282 scheduling_name="collective-permute-done.1"}
  ROOT %tuple.118 = (s64[], c128[1,2,240,64]{3,2,1,0}, c128[1,240,64]{2,1,0}) tuple(%loop_add_fusion.2, %collective-permute-done.1, %loop_add_fusion.1), metadata={scheduling_name="tuple.118"}
}

%fused_compare.2 (param_0.15: s64[]) -> pred[] {
  %param_0.15 = s64[] parameter(0), metadata={scheduling_name="param_0.15"}
  %constant_1136_1 = s64[] constant(2)
  ROOT %compare.276.1 = pred[] compare(%param_0.15, %constant_1136_1), direction=LT, metadata={op_name="jit(_full_run)/jit(main)/while/body/jit(_matvec_impl)/jit(shmap_body)/while/cond/lt" source_file="/global/homes/j/jackm/software/lorrax_C/src/bse/bse_ring_comm.py" source_line=285 scheduling_name="compare.276.1"}
}

%region_7.1310_spmd (param.11.0: (s64[], c128[1,2,240,64], c128[1,240,64])) -> pred[] {
  %param.11.0 = (s64[], c128[1,2,240,64]{3,2,1,0}, c128[1,240,64]{2,1,0}) parameter(0), metadata={scheduling_name="param.11.0"}
  %get-tuple-element.409.0 = s64[] get-tuple-element(%param.11.0), index=0, metadata={scheduling_name="get-tuple-element.409.0"}
  ROOT %loop_compare_fusion.2 = pred[] fusion(%get-tuple-element.409.0), kind=kLoop, calls=%fused_compare.2, metadata={op_name="jit(_full_run)/jit(main)/while/body/jit(_matvec_impl)/jit(shmap_body)/while/cond/lt" source_file="/global/homes/j/jackm/software/lorrax_C/src/bse/bse_ring_comm.py" source_line=285 deduplicated_name="loop_compare_fusion.1" scheduling_name="loop_compare_fusion.2"}
}

%fused_subtract (param_0.21: c128[512], param_1.52: c128[512,200], param_2.46: s64[], param_3.33: c128[], param_4.29: s64[]) -> c128[512] {
  %param_0.21 = c128[512]{0} parameter(0), metadata={scheduling_name="param_0.21"}
  %param_2.46 = s64[] parameter(2), metadata={scheduling_name="param_2.46"}
  %param_4.29 = s64[] parameter(4), metadata={scheduling_name="param_4.29"}
  %compare.278.3 = pred[] compare(%param_2.46, %param_4.29), direction=LT, metadata={op_name="jit(_full_run)/jit(main)/while/body/while/body/lt" source_file="/global/homes/j/jackm/software/lorrax_C/src/solvers/lanczos.py" source_line=269 scheduling_name="compare.278.3"}
  %param_3.33 = c128[] parameter(3), metadata={scheduling_name="param_3.33"}
  %constant_1145_2 = c128[] constant((0, 0))
  %select.683.3 = c128[] select(%compare.278.3, %param_3.33, %constant_1145_2), metadata={op_name="jit(_full_run)/jit(main)/while/body/while/body/jit(_where)/select_n" source_file="/global/homes/j/jackm/software/lorrax_C/src/solvers/lanczos.py" source_line=271 scheduling_name="select.683.3"}
  %broadcast.2153.1 = c128[512,1]{1,0} broadcast(%select.683.3), dimensions={}, metadata={op_name="jit(_full_run)/jit(main)/while/body/while/body/mul" source_file="/global/homes/j/jackm/software/lorrax_C/src/solvers/lanczos.py" source_line=272 scheduling_name="broadcast.2153.1"}
  %param_1.52 = c128[512,200]{1,0} parameter(1), metadata={scheduling_name="param_1.52"}
  %constant_1142_2 = s64[] constant(0)
  %compare.279.2 = pred[] compare(%param_2.46, %constant_1142_2), direction=LT, metadata={op_name="jit(_full_run)/jit(main)/while/body/while/body/lt" source_file="/global/homes/j/jackm/software/lorrax_C/src/solvers/lanczos.py" source_line=270 scheduling_name="compare.279.2"}
  %constant_1143_1 = s64[] constant(200)
  %add.1357.2 = s64[] add(%param_2.46, %constant_1143_1), metadata={op_name="jit(_full_run)/jit(main)/while/body/while/body/add" source_file="/global/homes/j/jackm/software/lorrax_C/src/solvers/lanczos.py" source_line=270 scheduling_name="add.1357.2"}
  %select.682.1 = s64[] select(%compare.279.2, %add.1357.2, %param_2.46), metadata={op_name="jit(_full_run)/jit(main)/while/body/while/body/select_n" source_file="/global/homes/j/jackm/software/lorrax_C/src/solvers/lanczos.py" source_line=270 scheduling_name="select.682.1"}
  %dynamic-slice.139.3 = c128[512,1]{1,0} dynamic-slice(%param_1.52, %constant_1142_2, %select.682.1), dynamic_slice_sizes={512,1}, metadata={op_name="jit(_full_run)/jit(main)/while/body/while/body/dynamic_slice" source_file="/global/homes/j/jackm/software/lorrax_C/src/solvers/lanczos.py" source_line=270 scheduling_name="dynamic-slice.139.3"}
  %multiply.470.1 = c128[512,1]{1,0} multiply(%broadcast.2153.1, %dynamic-slice.139.3), metadata={op_name="jit(_full_run)/jit(main)/while/body/while/body/mul" source_file="/global/homes/j/jackm/software/lorrax_C/src/solvers/lanczos.py" source_line=272 scheduling_name="multiply.470.1"}
  %bitcast.6835.1 = c128[512]{0} bitcast(%multiply.470.1), metadata={scheduling_name="bitcast.6835.1"}
  ROOT %subtract.76.1 = c128[512]{0} subtract(%param_0.21, %bitcast.6835.1), metadata={op_name="jit(_full_run)/jit(main)/while/body/while/body/sub" source_file="/global/homes/j/jackm/software/lorrax_C/src/solvers/lanczos.py" source_line=272 scheduling_name="subtract.76.1"}
}

%fused_reduce (param_0.41: c128[512], param_1.58: c128[512,200], param_2.47: s64[]) -> c128[] {
  %param_1.58 = c128[512,200]{1,0} parameter(1), metadata={scheduling_name="param_1.58"}
  %constant_1142_1 = s64[] constant(0)
  %param_2.47 = s64[] parameter(2), metadata={scheduling_name="param_2.47"}
  %compare.279.4 = pred[] compare(%param_2.47, %constant_1142_1), direction=LT, metadata={op_name="jit(_full_run)/jit(main)/while/body/while/body/lt" source_file="/global/homes/j/jackm/software/lorrax_C/src/solvers/lanczos.py" source_line=270 scheduling_name="compare.279.4"}
  %constant_1143_2 = s64[] constant(200)
  %add.1357.4 = s64[] add(%param_2.47, %constant_1143_2), metadata={op_name="jit(_full_run)/jit(main)/while/body/while/body/add" source_file="/global/homes/j/jackm/software/lorrax_C/src/solvers/lanczos.py" source_line=270 scheduling_name="add.1357.4"}
  %select.682.4 = s64[] select(%compare.279.4, %add.1357.4, %param_2.47), metadata={op_name="jit(_full_run)/jit(main)/while/body/while/body/select_n" source_file="/global/homes/j/jackm/software/lorrax_C/src/solvers/lanczos.py" source_line=270 scheduling_name="select.682.4"}
  %dynamic-slice.139.13 = c128[512,1]{1,0} dynamic-slice(%param_1.58, %constant_1142_1, %select.682.4), dynamic_slice_sizes={512,1}, metadata={op_name="jit(_full_run)/jit(main)/while/body/while/body/dynamic_slice" source_file="/global/homes/j/jackm/software/lorrax_C/src/solvers/lanczos.py" source_line=270 scheduling_name="dynamic-slice.139.13"}
  %real.142.5 = f64[512,1]{1,0} real(%dynamic-slice.139.13), metadata={op_name="jit(_full_run)/jit(main)/while/body/while/body/real" source_file="/global/homes/j/jackm/software/lorrax_C/src/solvers/lanczos.py" source_line=271 scheduling_name="real.142.5"}
  %imag.119.7 = f64[512,1]{1,0} imag(%dynamic-slice.139.13), metadata={op_name="jit(_full_run)/jit(main)/while/body/while/body/imag" source_file="/global/homes/j/jackm/software/lorrax_C/src/solvers/lanczos.py" source_line=271 scheduling_name="imag.119.7"}
  %negate.166.5 = f64[512,1]{1,0} negate(%imag.119.7), metadata={op_name="jit(_full_run)/jit(main)/while/body/while/body/neg" source_file="/global/homes/j/jackm/software/lorrax_C/src/solvers/lanczos.py" source_line=271 scheduling_name="negate.166.5"}
  %complex.119.3 = c128[512,1]{1,0} complex(%real.142.5, %negate.166.5), metadata={op_name="jit(_full_run)/jit(main)/while/body/while/body/complex" source_file="/global/homes/j/jackm/software/lorrax_C/src/solvers/lanczos.py" source_line=271 scheduling_name="complex.119.3"}
  %bitcast.6822.3 = c128[512]{0} bitcast(%complex.119.3), metadata={scheduling_name="bitcast.6822.3"}
  %param_0.41 = c128[512]{0} parameter(0), metadata={scheduling_name="param_0.41"}
  %multiply.469.3 = c128[512]{0} multiply(%bitcast.6822.3, %param_0.41), metadata={scheduling_name="multiply.469.3"}
  %constant_1145_1 = c128[] constant((0, 0))
  ROOT %reduce.38.1 = c128[] reduce(%multiply.469.3, %constant_1145_1), dimensions={0}, to_apply=%region_6.1287, metadata={op_name="jit(_full_run)/jit(main)/while/body/while/body/dot_general" source_file="/global/homes/j/jackm/software/lorrax_C/src/solvers/lanczos.py" source_line=271 scheduling_name="reduce.38.1"}
}

%fused_add.3 (param_0.40: s64[]) -> s64[] {
  %param_0.40 = s64[] parameter(0), metadata={scheduling_name="param_0.40"}
  %constant_1140_1 = s64[] constant(1)
  ROOT %add.1356.1 = s64[] add(%param_0.40, %constant_1140_1), metadata={op_name="jit(_full_run)/jit(main)/while/body/while/body/add" source_file="/global/homes/j/jackm/software/lorrax_C/src/solvers/lanczos.py" source_line=275 scheduling_name="add.1356.1"}
}

%scalar_add_computation.clone.1 (scalar_lhs.3: c128[], scalar_rhs.3: c128[]) -> c128[] {
  %scalar_rhs.3 = c128[] parameter(1), metadata={scheduling_name="scalar_rhs.3"}
  %scalar_lhs.3 = c128[] parameter(0), metadata={scheduling_name="scalar_lhs.3"}
  ROOT %add.1355 = c128[] add(%scalar_lhs.3, %scalar_rhs.3), metadata={scheduling_name="add.1355"}
}

%region_11.1504_spmd (param.14.0: (s64[], c128[512], s64[], s64[], c128[512,200])) -> (s64[], c128[512], s64[], s64[], c128[512,200]) {
  %param.14.0 = (s64[], c128[512]{0}, s64[], s64[], c128[512,200]{1,0}) parameter(0), metadata={scheduling_name="param.14.0"}
  %get-tuple-element.529 = s64[] get-tuple-element(%param.14.0), index=0, metadata={scheduling_name="get-tuple-element.529"}
  %copy.135 = s64[] copy(%get-tuple-element.529), metadata={scheduling_name="copy.135"}
  %get-tuple-element.538 = c128[512,200]{1,0} get-tuple-element(%param.14.0), index=4, metadata={scheduling_name="get-tuple-element.538"}
  %get-tuple-element.530 = c128[512]{0} get-tuple-element(%param.14.0), index=1, metadata={scheduling_name="get-tuple-element.530"}
  %input_reduce_fusion = c128[] fusion(%get-tuple-element.530, %get-tuple-element.538, %copy.135), kind=kInput, calls=%fused_reduce, metadata={op_name="jit(_full_run)/jit(main)/while/body/while/body/dot_general" source_file="/global/homes/j/jackm/software/lorrax_C/src/solvers/lanczos.py" source_line=271 scheduling_name="input_reduce_fusion"}
  %all-reduce-start = c128[] all-reduce-start(%input_reduce_fusion), channel_id=12, replica_groups=[2,2]<=[2,2]T(1,0), use_global_device_ids=true, to_apply=%scalar_add_computation.clone.1, metadata={op_name="jit(_full_run)/jit(main)/while/body/while/body/dot_general" source_file="/global/homes/j/jackm/software/lorrax_C/src/solvers/lanczos.py" source_line=271 scheduling_name="all-reduce-start"}, backend_config={"operation_queue_id":"0","wait_on_operation_queues":[],"collective_backend_config":{"is_sync":false,"no_parallel_custom_call":true,"is_pipelined":false,"reification_cost":[]},"force_earliest_schedule":false}
  %loop_add_fusion.3 = s64[] fusion(%copy.135), kind=kLoop, calls=%fused_add.3, metadata={op_name="jit(_full_run)/jit(main)/while/body/while/body/add" source_file="/global/homes/j/jackm/software/lorrax_C/src/solvers/lanczos.py" source_line=275 deduplicated_name="loop_add_fusion" scheduling_name="loop_add_fusion.3"}
  %all-reduce-done = c128[] all-reduce-done(%all-reduce-start), metadata={op_name="jit(_full_run)/jit(main)/while/body/while/body/dot_general" source_file="/global/homes/j/jackm/software/lorrax_C/src/solvers/lanczos.py" source_line=271 scheduling_name="all-reduce-done"}
  %get-tuple-element.537 = s64[] get-tuple-element(%param.14.0), index=3, metadata={scheduling_name="get-tuple-element.537"}
  %loop_subtract_fusion = c128[512]{0} fusion(%get-tuple-element.530, %get-tuple-element.538, %copy.135, %all-reduce-done, %get-tuple-element.537), kind=kLoop, calls=%fused_subtract, metadata={op_name="jit(_full_run)/jit(main)/while/body/while/body/sub" source_file="/global/homes/j/jackm/software/lorrax_C/src/solvers/lanczos.py" source_line=272 scheduling_name="loop_subtract_fusion"}
  %get-tuple-element.536 = s64[] get-tuple-element(%param.14.0), index=2, metadata={scheduling_name="get-tuple-element.536"}
  ROOT %tuple.121 = (s64[], c128[512]{0}, s64[], s64[], c128[512,200]{1,0}) tuple(%loop_add_fusion.3, %loop_subtract_fusion, %get-tuple-element.536, %get-tuple-element.537, %get-tuple-element.538), metadata={scheduling_name="tuple.121"}
}

%wrapped_compare_computation (param_0.824: s64[], param_1.1025: s64[]) -> pred[] {
  %param_0.824 = s64[] parameter(0), metadata={scheduling_name="param_0.824"}
  %param_1.1025 = s64[] parameter(1), metadata={scheduling_name="param_1.1025"}
  ROOT %compare.277.1 = pred[] compare(%param_0.824, %param_1.1025), direction=LT, metadata={op_name="jit(_full_run)/jit(main)/while/body/while/cond/lt" source_file="/global/homes/j/jackm/software/lorrax_C/src/solvers/lanczos.py" source_line=275 scheduling_name="compare.277.1"}
}

%region_12.1532_spmd (param.13.0: (s64[], c128[512], s64[], s64[], c128[512,200])) -> pred[] {
  %param.13.0 = (s64[], c128[512]{0}, s64[], s64[], c128[512,200]{1,0}) parameter(0), metadata={scheduling_name="param.13.0"}
  %get-tuple-element.414.0 = s64[] get-tuple-element(%param.13.0), index=2, metadata={scheduling_name="get-tuple-element.414.0"}
  %get-tuple-element.413.0 = s64[] get-tuple-element(%param.13.0), index=0, metadata={scheduling_name="get-tuple-element.413.0"}
  ROOT %wrapped_compare = pred[] fusion(%get-tuple-element.413.0, %get-tuple-element.414.0), kind=kLoop, calls=%wrapped_compare_computation, metadata={op_name="jit(_full_run)/jit(main)/while/body/while/cond/lt" source_file="/global/homes/j/jackm/software/lorrax_C/src/solvers/lanczos.py" source_line=275 scheduling_name="wrapped_compare"}
}

%fused_subtract.1 (param_0.203: c128[1,2,4,64], param_1.217: c128[512], param_2.135: c128[512,200], param_3.121: s64[], param_4.118: c128[], param_5.81: f64[200]) -> c128[512] {
  %param_0.203 = c128[1,2,4,64]{3,1,0,2} parameter(0), metadata={scheduling_name="param_0.203"}
  %bitcast.7263.5 = c128[4,2,64]{2,1,0} bitcast(%param_0.203), metadata={scheduling_name="bitcast.7263.5"}
  %transpose.390.5 = c128[2,4,64]{2,1,0} transpose(%bitcast.7263.5), dimensions={1,0,2}, metadata={op_name="jit(_full_run)/jit(main)/while/body/reshape" source_file="/global/homes/j/jackm/software/lorrax_C/src/bse/bse_lanczos.py" source_line=197 scheduling_name="transpose.390.5"}
  %bitcast.7276.4 = c128[512]{0} bitcast(%transpose.390.5), metadata={scheduling_name="bitcast.7276.4"}
  %param_4.118 = c128[] parameter(4), metadata={scheduling_name="param_4.118"}
  %real.153.2 = f64[] real(%param_4.118), metadata={op_name="jit(_full_run)/jit(main)/while/body/real" source_file="/global/homes/j/jackm/software/lorrax_C/src/solvers/lanczos.py" source_line=260 scheduling_name="real.153.2"}
  %convert.204.1 = c128[] convert(%real.153.2), metadata={op_name="jit(_full_run)/jit(main)/while/body/convert_element_type" source_file="/global/homes/j/jackm/software/lorrax_C/src/solvers/lanczos.py" source_line=263 scheduling_name="convert.204.1"}
  %broadcast.2172.1 = c128[512]{0} broadcast(%convert.204.1), dimensions={}, metadata={op_name="jit(_full_run)/jit(main)/while/body/mul" source_file="/global/homes/j/jackm/software/lorrax_C/src/solvers/lanczos.py" source_line=263 scheduling_name="broadcast.2172.1"}
  %param_1.217 = c128[512]{0} parameter(1), metadata={scheduling_name="param_1.217"}
  %multiply.489.1 = c128[512]{0} multiply(%broadcast.2172.1, %param_1.217), metadata={op_name="jit(_full_run)/jit(main)/while/body/mul" source_file="/global/homes/j/jackm/software/lorrax_C/src/solvers/lanczos.py" source_line=263 scheduling_name="multiply.489.1"}
  %subtract.79.3 = c128[512]{0} subtract(%bitcast.7276.4, %multiply.489.1), metadata={op_name="jit(_full_run)/jit(main)/while/body/sub" source_file="/global/homes/j/jackm/software/lorrax_C/src/solvers/lanczos.py" source_line=263 scheduling_name="subtract.79.3"}
  %param_3.121 = s64[] parameter(3), metadata={scheduling_name="param_3.121"}
  %constant_1160_4 = s64[] constant(0)
  %compare.285.3 = pred[] compare(%param_3.121, %constant_1160_4), direction=GT, metadata={op_name="jit(_full_run)/jit(main)/while/body/gt" source_file="/global/homes/j/jackm/software/lorrax_C/src/solvers/lanczos.py" source_line=265 scheduling_name="compare.285.3"}
  %param_5.81 = f64[200]{0} parameter(5), metadata={scheduling_name="param_5.81"}
  %constant_1239_1 = s64[] constant(-1)
  %add.1365.4 = s64[] add(%param_3.121, %constant_1239_1), metadata={op_name="jit(_full_run)/jit(main)/while/body/sub" source_file="/global/homes/j/jackm/software/lorrax_C/src/solvers/lanczos.py" source_line=265 scheduling_name="add.1365.4"}
  %compare.286.3 = pred[] compare(%add.1365.4, %constant_1160_4), direction=LT, metadata={op_name="jit(_full_run)/jit(main)/while/body/lt" source_file="/global/homes/j/jackm/software/lorrax_C/src/solvers/lanczos.py" source_line=265 scheduling_name="compare.286.3"}
  %constant_1159_1 = s64[] constant(199)
  %add.1366.3 = s64[] add(%param_3.121, %constant_1159_1), metadata={op_name="jit(_full_run)/jit(main)/while/body/add" source_file="/global/homes/j/jackm/software/lorrax_C/src/solvers/lanczos.py" source_line=265 scheduling_name="add.1366.3"}
  %select.687.3 = s64[] select(%compare.286.3, %add.1366.3, %add.1365.4), metadata={op_name="jit(_full_run)/jit(main)/while/body/select_n" source_file="/global/homes/j/jackm/software/lorrax_C/src/solvers/lanczos.py" source_line=265 scheduling_name="select.687.3"}
  %dynamic-slice.148.3 = f64[1]{0} dynamic-slice(%param_5.81, %select.687.3), dynamic_slice_sizes={1}, metadata={op_name="jit(_full_run)/jit(main)/while/body/dynamic_slice" source_file="/global/homes/j/jackm/software/lorrax_C/src/solvers/lanczos.py" source_line=265 scheduling_name="dynamic-slice.148.3"}
  %bitcast.7311.3 = f64[] bitcast(%dynamic-slice.148.3), metadata={scheduling_name="bitcast.7311.3"}
  %constant_1242_2 = f64[] constant(0)
  %select.688.3 = f64[] select(%compare.285.3, %bitcast.7311.3, %constant_1242_2), metadata={op_name="jit(_full_run)/jit(main)/while/body/jit(_where)/select_n" source_file="/global/homes/j/jackm/software/lorrax_C/src/solvers/lanczos.py" source_line=265 scheduling_name="select.688.3"}
  %convert.205.1 = c128[] convert(%select.688.3), metadata={op_name="jit(_full_run)/jit(main)/while/body/convert_element_type" source_file="/global/homes/j/jackm/software/lorrax_C/src/solvers/lanczos.py" source_line=266 scheduling_name="convert.205.1"}
  %broadcast.2173.1 = c128[512,1]{1,0} broadcast(%convert.205.1), dimensions={}, metadata={op_name="jit(_full_run)/jit(main)/while/body/mul" source_file="/global/homes/j/jackm/software/lorrax_C/src/solvers/lanczos.py" source_line=266 scheduling_name="broadcast.2173.1"}
  %param_2.135 = c128[512,200]{1,0} parameter(2), metadata={scheduling_name="param_2.135"}
  %maximum.38.1 = s64[] maximum(%add.1365.4, %constant_1160_4), metadata={op_name="jit(_full_run)/jit(main)/while/body/max" source_file="/global/homes/j/jackm/software/lorrax_C/src/solvers/lanczos.py" source_line=264 scheduling_name="maximum.38.1"}
  %dynamic-slice.149.1 = c128[512,1]{1,0} dynamic-slice(%param_2.135, %constant_1160_4, %maximum.38.1), dynamic_slice_sizes={512,1}, metadata={op_name="jit(_full_run)/jit(main)/while/body/dynamic_slice" source_file="/global/homes/j/jackm/software/lorrax_C/src/solvers/lanczos.py" source_line=264 scheduling_name="dynamic-slice.149.1"}
  %multiply.490.1 = c128[512,1]{1,0} multiply(%broadcast.2173.1, %dynamic-slice.149.1), metadata={op_name="jit(_full_run)/jit(main)/while/body/mul" source_file="/global/homes/j/jackm/software/lorrax_C/src/solvers/lanczos.py" source_line=266 scheduling_name="multiply.490.1"}
  %bitcast.7328.1 = c128[512]{0} bitcast(%multiply.490.1), metadata={scheduling_name="bitcast.7328.1"}
  ROOT %subtract.80.1 = c128[512]{0} subtract(%subtract.79.3, %bitcast.7328.1), metadata={op_name="jit(_full_run)/jit(main)/while/body/sub" source_file="/global/homes/j/jackm/software/lorrax_C/src/solvers/lanczos.py" source_line=266 scheduling_name="subtract.80.1"}
}

%fused_transpose.1 (param_0.226: c128[64,2,2], param_1.245: c128[1,2,2,64], param_2.228: c128[512], param_3.126: f64[64,4], param_4.117: f64[64,4], param_5.82: s32[4], param_6.67: u32[], param_7.32: u32[4], param_8.13: u32[4]) -> c128[2,128] {
  %param_3.126 = f64[64,4]{0,1} parameter(3), metadata={scheduling_name="param_3.126"}
  %bitcast.6891.3 = f64[4,64]{1,0} bitcast(%param_3.126), metadata={scheduling_name="bitcast.6891.3"}
  %constant_1540_1 = u32[1]{0} constant({0}), metadata={op_name="jit(_full_run)/jit(main)/while/body/jit(_matvec_impl)/jit(_apply_D_term)/transpose" source_file="/global/homes/j/jackm/software/lorrax_C/src/bse/bse_ring_comm.py" source_line=434}
  %param_8.13 = u32[4]{0} parameter(8), metadata={scheduling_name="param_8.13"}
  %param_6.67 = u32[] parameter(6), metadata={scheduling_name="param_6.67"}
  %dynamic-slice.140.1 = u32[1]{0} dynamic-slice(%param_8.13, %param_6.67), dynamic_slice_sizes={1}, metadata={op_name="jit(_full_run)/jit(main)/while/body/jit(_matvec_impl)/jit(_apply_D_term)/transpose" source_file="/global/homes/j/jackm/software/lorrax_C/src/bse/bse_ring_comm.py" source_line=434 scheduling_name="dynamic-slice.140.1"}
  %constant_1541_1 = u32[1]{0} constant({1}), metadata={op_name="jit(_full_run)/jit(main)/while/body/jit(_matvec_impl)/jit(_apply_D_term)/transpose" source_file="/global/homes/j/jackm/software/lorrax_C/src/bse/bse_ring_comm.py" source_line=434}
  %clamp.8.1 = u32[1]{0} clamp(%constant_1540_1, %dynamic-slice.140.1, %constant_1541_1), metadata={op_name="jit(_full_run)/jit(main)/while/body/jit(_matvec_impl)/jit(_apply_D_term)/transpose" source_file="/global/homes/j/jackm/software/lorrax_C/src/bse/bse_ring_comm.py" source_line=434 scheduling_name="clamp.8.1"}
  %convert.199.1 = s32[1]{0} convert(%clamp.8.1), metadata={op_name="jit(_full_run)/jit(main)/while/body/jit(_matvec_impl)/jit(_apply_D_term)/transpose" source_file="/global/homes/j/jackm/software/lorrax_C/src/bse/bse_ring_comm.py" source_line=434 scheduling_name="convert.199.1"}
  %constant_1557_1 = s32[1]{0} constant({2})
  %multiply.472.1 = s32[1]{0} multiply(%convert.199.1, %constant_1557_1), metadata={op_name="jit(_full_run)/jit(main)/while/body/jit(_matvec_impl)/jit(_apply_D_term)/transpose" source_file="/global/homes/j/jackm/software/lorrax_C/src/bse/bse_ring_comm.py" source_line=434 scheduling_name="multiply.472.1"}
  %bitcast.6904.3 = s32[] bitcast(%multiply.472.1), metadata={scheduling_name="bitcast.6904.3"}
  %constant_1156_7 = s32[] constant(0)
  %dynamic-slice.141.3 = f64[2,64]{1,0} dynamic-slice(%bitcast.6891.3, %bitcast.6904.3, %constant_1156_7), dynamic_slice_sizes={2,64}, metadata={op_name="jit(_full_run)/jit(main)/while/body/jit(_matvec_impl)/jit(_apply_D_term)/transpose" source_file="/global/homes/j/jackm/software/lorrax_C/src/bse/bse_ring_comm.py" source_line=434 scheduling_name="dynamic-slice.141.3"}
  %broadcast.2157.1 = f64[2,64,1,2]{3,2,1,0} broadcast(%dynamic-slice.141.3), dimensions={0,1}, metadata={op_name="jit(_full_run)/jit(main)/while/body/jit(_matvec_impl)/jit(_apply_D_term)/sub" source_file="/global/homes/j/jackm/software/lorrax_C/src/bse/bse_ring_comm.py" source_line=434 scheduling_name="broadcast.2157.1"}
  %param_4.117 = f64[64,4]{1,0} parameter(4), metadata={scheduling_name="param_4.117"}
  %param_7.32 = u32[4]{0} parameter(7), metadata={scheduling_name="param_7.32"}
  %dynamic-slice.142.1 = u32[1]{0} dynamic-slice(%param_7.32, %param_6.67), dynamic_slice_sizes={1}, metadata={op_name="jit(_full_run)/jit(main)/while/body/jit(_matvec_impl)/jit(_apply_D_term)/transpose" source_file="/global/homes/j/jackm/software/lorrax_C/src/bse/bse_ring_comm.py" source_line=434 scheduling_name="dynamic-slice.142.1"}
  %clamp.9.1 = u32[1]{0} clamp(%constant_1540_1, %dynamic-slice.142.1, %constant_1541_1), metadata={op_name="jit(_full_run)/jit(main)/while/body/jit(_matvec_impl)/jit(_apply_D_term)/transpose" source_file="/global/homes/j/jackm/software/lorrax_C/src/bse/bse_ring_comm.py" source_line=434 scheduling_name="clamp.9.1"}
  %convert.200.1 = s32[1]{0} convert(%clamp.9.1), metadata={op_name="jit(_full_run)/jit(main)/while/body/jit(_matvec_impl)/jit(_apply_D_term)/transpose" source_file="/global/homes/j/jackm/software/lorrax_C/src/bse/bse_ring_comm.py" source_line=434 scheduling_name="convert.200.1"}
  %multiply.473.1 = s32[1]{0} multiply(%convert.200.1, %constant_1557_1), metadata={op_name="jit(_full_run)/jit(main)/while/body/jit(_matvec_impl)/jit(_apply_D_term)/transpose" source_file="/global/homes/j/jackm/software/lorrax_C/src/bse/bse_ring_comm.py" source_line=434 scheduling_name="multiply.473.1"}
  %bitcast.6927.3 = s32[] bitcast(%multiply.473.1), metadata={scheduling_name="bitcast.6927.3"}
  %dynamic-slice.143.3 = f64[64,2]{1,0} dynamic-slice(%param_4.117, %constant_1156_7, %bitcast.6927.3), dynamic_slice_sizes={64,2}, metadata={op_name="jit(_full_run)/jit(main)/while/body/jit(_matvec_impl)/jit(_apply_D_term)/transpose" source_file="/global/homes/j/jackm/software/lorrax_C/src/bse/bse_ring_comm.py" source_line=434 scheduling_name="dynamic-slice.143.3"}
  %broadcast.2158.1 = f64[2,64,1,2]{3,2,1,0} broadcast(%dynamic-slice.143.3), dimensions={1,3}, metadata={op_name="jit(_full_run)/jit(main)/while/body/jit(_matvec_impl)/jit(_apply_D_term)/sub" source_file="/global/homes/j/jackm/software/lorrax_C/src/bse/bse_ring_comm.py" source_line=434 scheduling_name="broadcast.2158.1"}
  %subtract.77.1 = f64[2,64,1,2]{3,2,1,0} subtract(%broadcast.2157.1, %broadcast.2158.1), metadata={op_name="jit(_full_run)/jit(main)/while/body/jit(_matvec_impl)/jit(_apply_D_term)/sub" source_file="/global/homes/j/jackm/software/lorrax_C/src/bse/bse_ring_comm.py" source_line=434 scheduling_name="subtract.77.1"}
  %convert.201.1 = c128[2,64,1,2]{3,2,1,0} convert(%subtract.77.1), metadata={op_name="jit(_full_run)/jit(main)/while/body/jit(_matvec_impl)/jit(_apply_D_term)/convert_element_type" source_file="/global/homes/j/jackm/software/lorrax_C/src/bse/bse_ring_comm.py" source_line=435 scheduling_name="convert.201.1"}
  %param_2.228 = c128[512]{0} parameter(2), metadata={scheduling_name="param_2.228"}
  %bitcast.6934.11 = c128[1,2,4,64]{3,2,1,0} bitcast(%param_2.228), metadata={scheduling_name="bitcast.6934.11"}
  %param_5.82 = s32[4]{0} parameter(5), metadata={scheduling_name="param_5.82"}
  %dynamic-slice.144.1 = s32[1]{0} dynamic-slice(%param_5.82, %param_6.67), dynamic_slice_sizes={1}, metadata={op_name="jit(_full_run)/jit(main)/while/body/reshape" source_file="/global/homes/j/jackm/software/lorrax_C/src/bse/bse_lanczos.py" source_line=191 scheduling_name="dynamic-slice.144.1"}
  %bitcast.6943.11 = s32[] bitcast(%dynamic-slice.144.1), metadata={scheduling_name="bitcast.6943.11"}
  %dynamic-slice.145.11 = c128[1,2,2,64]{3,2,1,0} dynamic-slice(%bitcast.6934.11, %constant_1156_7, %constant_1156_7, %bitcast.6943.11, %constant_1156_7), dynamic_slice_sizes={1,2,2,64}, metadata={op_name="jit(_full_run)/jit(main)/while/body/reshape" source_file="/global/homes/j/jackm/software/lorrax_C/src/bse/bse_lanczos.py" source_line=191 scheduling_name="dynamic-slice.145.11"}
  %bitcast.6945.6 = c128[2,2,64]{2,1,0} bitcast(%dynamic-slice.145.11), metadata={scheduling_name="bitcast.6945.6"}
  %transpose.372.5 = c128[2,64,2]{2,1,0} transpose(%bitcast.6945.6), dimensions={0,2,1}, metadata={op_name="jit(_full_run)/jit(main)/while/body/reshape" source_file="/global/homes/j/jackm/software/lorrax_C/src/bse/bse_lanczos.py" source_line=191 scheduling_name="transpose.372.5"}
  %bitcast.6948.7 = c128[2,64,1,2]{3,2,1,0} bitcast(%transpose.372.5), metadata={scheduling_name="bitcast.6948.7"}
  %multiply.474.7 = c128[2,64,1,2]{3,2,1,0} multiply(%convert.201.1, %bitcast.6948.7), metadata={op_name="jit(_full_run)/jit(main)/while/body/jit(_matvec_impl)/jit(_apply_D_term)/mul" source_file="/global/homes/j/jackm/software/lorrax_C/src/bse/bse_ring_comm.py" source_line=435 scheduling_name="multiply.474.7"}
  %param_1.245 = c128[1,2,2,64]{2,0,3,1} parameter(1), metadata={scheduling_name="param_1.245"}
  %bitcast.7068.5 = c128[2,64,1,2]{3,2,1,0} bitcast(%param_1.245), metadata={scheduling_name="bitcast.7068.5"}
  %constant_1196_1 = c128[] constant((0.125, 0)), metadata={op_name="jit(_full_run)/jit(main)/while/body/jit(_matvec_impl)/jit(shmap_body)/convert_element_type" source_file="/global/homes/j/jackm/software/lorrax_C/src/bse/bse_ring_comm.py" source_line=287}
  %broadcast.2163.1 = c128[2,64,1,2]{3,2,1,0} broadcast(%constant_1196_1), dimensions={}, metadata={op_name="jit(_full_run)/jit(main)/while/body/jit(_matvec_impl)/jit(shmap_body)/div" source_file="/global/homes/j/jackm/software/lorrax_C/src/bse/bse_ring_comm.py" source_line=300 scheduling_name="broadcast.2163.1"}
  %multiply.479.5 = c128[2,64,1,2]{3,2,1,0} multiply(%bitcast.7068.5, %broadcast.2163.1), metadata={op_name="jit(_full_run)/jit(main)/while/body/jit(_matvec_impl)/jit(shmap_body)/div" source_file="/global/homes/j/jackm/software/lorrax_C/src/bse/bse_ring_comm.py" source_line=300 scheduling_name="multiply.479.5"}
  %add.1364.5 = c128[2,64,1,2]{3,2,1,0} add(%multiply.474.7, %multiply.479.5), metadata={op_name="jit(_full_run)/jit(main)/while/body/jit(_matvec_impl)/add" source_file="/global/homes/j/jackm/software/lorrax_C/src/bse/bse_ring_comm.py" source_line=450 scheduling_name="add.1364.5"}
  %param_0.226 = c128[64,2,2]{1,0,2} parameter(0), metadata={scheduling_name="param_0.226"}
  %bitcast.7246.5 = c128[2,64,2]{2,1,0} bitcast(%param_0.226), metadata={scheduling_name="bitcast.7246.5"}
  %transpose.388.5 = c128[2,64,2]{2,1,0} transpose(%bitcast.7246.5), dimensions={2,1,0}, metadata={scheduling_name="transpose.388.5"}
  %broadcast.2171.1 = c128[2,64,2]{2,1,0} broadcast(%constant_1196_1), dimensions={}, metadata={op_name="jit(_full_run)/jit(main)/while/body/jit(_matvec_impl)/jit(_apply_W_from_T)/div" source_file="/global/homes/j/jackm/software/lorrax_C/src/bse/bse_ring_comm.py" source_line=424 scheduling_name="broadcast.2171.1"}
  %multiply.487.3 = c128[2,64,2]{2,1,0} multiply(%transpose.388.5, %broadcast.2171.1), metadata={op_name="jit(_full_run)/jit(main)/while/body/jit(_matvec_impl)/jit(_apply_W_from_T)/div" source_file="/global/homes/j/jackm/software/lorrax_C/src/bse/bse_ring_comm.py" source_line=424 scheduling_name="multiply.487.3"}
  %bitcast.7253.3 = c128[2,64,1,2]{3,2,1,0} bitcast(%multiply.487.3), metadata={scheduling_name="bitcast.7253.3"}
  %subtract.78.3 = c128[2,64,1,2]{3,2,1,0} subtract(%add.1364.5, %bitcast.7253.3), metadata={op_name="jit(_full_run)/jit(main)/while/body/jit(_matvec_impl)/sub" source_file="/global/homes/j/jackm/software/lorrax_C/src/bse/bse_ring_comm.py" source_line=450 scheduling_name="subtract.78.3"}
  %bitcast.7256.1 = c128[128,2]{1,0} bitcast(%subtract.78.3), metadata={scheduling_name="bitcast.7256.1"}
  ROOT %transpose.389.1 = c128[2,128]{1,0} transpose(%bitcast.7256.1), dimensions={1,0}, metadata={op_name="jit(_full_run)/jit(main)/while/body/jit(_matvec_impl)/sub" source_file="/global/homes/j/jackm/software/lorrax_C/src/bse/bse_ring_comm.py" source_line=450 scheduling_name="transpose.389.1"}
}

%fused_transpose.2 (param_0.60: c128[64,480,4]) -> c128[4,30720] {
  %param_0.60 = c128[64,480,4]{2,1,0} parameter(0), metadata={scheduling_name="param_0.60"}
  %bitcast.7228.1 = c128[30720,4]{1,0} bitcast(%param_0.60), metadata={scheduling_name="bitcast.7228.1"}
  ROOT %transpose.386.1 = c128[4,30720]{1,0} transpose(%bitcast.7228.1), dimensions={1,0}, metadata={op_name="jit(_full_run)/jit(main)/while/body/jit(_matvec_impl)/jit(_apply_W_from_T)/kctM,bMNtsk->bcNsk/dot_general" source_file="/global/homes/j/jackm/software/lorrax_C/src/bse/bse_ring_comm.py" source_line=422 scheduling_name="transpose.386.1"}
}

%fused_transpose.3 (param_0.112: c128[1,240,240,2,2,4,4,4]) -> c128[64,240,2,2,240] {
  %param_0.112 = c128[1,240,240,2,2,4,4,4]{7,6,5,4,3,2,1,0} parameter(0), metadata={scheduling_name="param_0.112"}
  %constant_1548_2 = c128[] constant((0.5, 0)), metadata={op_name="jit(_full_run)/jit(main)/while/body/jit(_matvec_impl)/jit(_apply_W_from_T)/custom_partitioning" source_file="/global/homes/j/jackm/software/lorrax_C/src/common/fft_helpers.py" source_line=259}
  %broadcast.2164.7 = c128[1,240,240,2,2,4,4,4]{7,6,5,4,3,2,1,0} broadcast(%constant_1548_2), dimensions={}, metadata={op_name="jit(_full_run)/jit(main)/while/body/jit(_matvec_impl)/jit(_apply_W_from_T)/custom_partitioning" source_file="/global/homes/j/jackm/software/lorrax_C/src/common/fft_helpers.py" source_line=259 scheduling_name="broadcast.2164.7"}
  %multiply.486.3 = c128[1,240,240,2,2,4,4,4]{7,6,5,4,3,2,1,0} multiply(%param_0.112, %broadcast.2164.7), metadata={op_name="jit(_full_run)/jit(main)/while/body/jit(_matvec_impl)/jit(_apply_W_from_T)/custom_partitioning" source_file="/global/homes/j/jackm/software/lorrax_C/src/common/fft_helpers.py" source_line=259 scheduling_name="multiply.486.3"}
  %bitcast.7216.1 = c128[240,240,2,2,64]{4,3,2,1,0} bitcast(%multiply.486.3), metadata={scheduling_name="bitcast.7216.1"}
  ROOT %transpose.384.1 = c128[64,240,2,2,240]{4,3,2,1,0} transpose(%bitcast.7216.1), dimensions={4,1,3,2,0}, metadata={scheduling_name="transpose.384.1"}
}

%fused_transpose.4 (param_0.114: c128[1,240,240,2,2,4,4,4]) -> c128[921600,4,4] {
  %param_0.114 = c128[1,240,240,2,2,4,4,4]{7,6,5,4,3,2,1,0} parameter(0), metadata={scheduling_name="param_0.114"}
  %constant_1548_6 = c128[] constant((0.5, 0)), metadata={op_name="jit(_full_run)/jit(main)/while/body/jit(_matvec_impl)/jit(_apply_W_from_T)/custom_partitioning" source_file="/global/homes/j/jackm/software/lorrax_C/src/common/fft_helpers.py" source_line=259}
  %broadcast.2164.9 = c128[1,240,240,2,2,4,4,4]{7,6,5,4,3,2,1,0} broadcast(%constant_1548_6), dimensions={}, metadata={op_name="jit(_full_run)/jit(main)/while/body/jit(_matvec_impl)/jit(_apply_W_from_T)/custom_partitioning" source_file="/global/homes/j/jackm/software/lorrax_C/src/common/fft_helpers.py" source_line=259 scheduling_name="broadcast.2164.9"}
  %multiply.485.3 = c128[1,240,240,2,2,4,4,4]{7,6,5,4,3,2,1,0} multiply(%param_0.114, %broadcast.2164.9), metadata={op_name="jit(_full_run)/jit(main)/while/body/jit(_matvec_impl)/jit(_apply_W_from_T)/custom_partitioning" source_file="/global/homes/j/jackm/software/lorrax_C/src/common/fft_helpers.py" source_line=259 scheduling_name="multiply.485.3"}
  %bitcast.7205.1 = c128[921600,4,4]{2,1,0} bitcast(%multiply.485.3), metadata={scheduling_name="bitcast.7205.1"}
  ROOT %transpose.383.1 = c128[921600,4,4]{2,1,0} transpose(%bitcast.7205.1), dimensions={0,2,1}, metadata={op_name="jit(_full_run)/jit(main)/while/body/jit(_matvec_impl)/jit(_apply_W_from_T)/custom_partitioning" source_file="/global/homes/j/jackm/software/lorrax_C/src/common/fft_helpers.py" source_line=259 scheduling_name="transpose.383.1"}
}

%fused_transpose.5 (param_0.116: c128[1,240,240,2,2,4,4,4]) -> c128[230400,4,4,4] {
  %param_0.116 = c128[1,240,240,2,2,4,4,4]{7,6,5,4,3,2,1,0} parameter(0), metadata={scheduling_name="param_0.116"}
  %constant_1548_5 = c128[] constant((0.5, 0)), metadata={op_name="jit(_full_run)/jit(main)/while/body/jit(_matvec_impl)/jit(_apply_W_from_T)/custom_partitioning" source_file="/global/homes/j/jackm/software/lorrax_C/src/common/fft_helpers.py" source_line=259}
  %broadcast.2164.11 = c128[1,240,240,2,2,4,4,4]{7,6,5,4,3,2,1,0} broadcast(%constant_1548_5), dimensions={}, metadata={op_name="jit(_full_run)/jit(main)/while/body/jit(_matvec_impl)/jit(_apply_W_from_T)/custom_partitioning" source_file="/global/homes/j/jackm/software/lorrax_C/src/common/fft_helpers.py" source_line=259 scheduling_name="broadcast.2164.11"}
  %multiply.484.3 = c128[1,240,240,2,2,4,4,4]{7,6,5,4,3,2,1,0} multiply(%param_0.116, %broadcast.2164.11), metadata={op_name="jit(_full_run)/jit(main)/while/body/jit(_matvec_impl)/jit(_apply_W_from_T)/custom_partitioning" source_file="/global/homes/j/jackm/software/lorrax_C/src/common/fft_helpers.py" source_line=259 scheduling_name="multiply.484.3"}
  %bitcast.7194.1 = c128[230400,4,4,4]{3,2,1,0} bitcast(%multiply.484.3), metadata={scheduling_name="bitcast.7194.1"}
  ROOT %transpose.382.1 = c128[230400,4,4,4]{3,2,1,0} transpose(%bitcast.7194.1), dimensions={0,3,2,1}, metadata={op_name="jit(_full_run)/jit(main)/while/body/jit(_matvec_impl)/jit(_apply_W_from_T)/custom_partitioning" source_file="/global/homes/j/jackm/software/lorrax_C/src/common/fft_helpers.py" source_line=259 scheduling_name="transpose.382.1"}
}

%fused_transpose.6 (param_0.68: c128[1,240,240,2,2,4,4,4]) -> c128[230400,16,4] {
  %param_0.68 = c128[1,240,240,2,2,4,4,4]{7,6,5,4,3,2,1,0} parameter(0), metadata={scheduling_name="param_0.68"}
  %bitcast.7183.1 = c128[230400,4,16]{2,1,0} bitcast(%param_0.68), metadata={scheduling_name="bitcast.7183.1"}
  ROOT %transpose.381.1 = c128[230400,16,4]{2,1,0} transpose(%bitcast.7183.1), dimensions={0,2,1}, metadata={op_name="jit(_full_run)/jit(main)/while/body/jit(_matvec_impl)/jit(_apply_W_from_T)/custom_partitioning" source_file="/global/homes/j/jackm/software/lorrax_C/src/common/fft_helpers.py" source_line=259 scheduling_name="transpose.381.1"}
}

%fused_transpose.7 (param_0.280: c128[1,240,240,2,2,4,4,4]) -> c128[921600,4,4] {
  %param_0.280 = c128[1,240,240,2,2,4,4,4]{7,6,5,4,3,2,1,0} parameter(0), metadata={scheduling_name="param_0.280"}
  %real.149.3 = f64[1,240,240,2,2,4,4,4]{7,6,5,4,3,2,1,0} real(%param_0.280), metadata={op_name="jit(_full_run)/jit(main)/while/body/jit(_matvec_impl)/jit(_apply_W_from_T)/custom_partitioning" source_file="/global/homes/j/jackm/software/lorrax_C/src/common/fft_helpers.py" source_line=259 scheduling_name="real.149.3"}
  %imag.126.3 = f64[1,240,240,2,2,4,4,4]{7,6,5,4,3,2,1,0} imag(%param_0.280), metadata={op_name="jit(_full_run)/jit(main)/while/body/jit(_matvec_impl)/jit(_apply_W_from_T)/custom_partitioning" source_file="/global/homes/j/jackm/software/lorrax_C/src/common/fft_helpers.py" source_line=259 scheduling_name="imag.126.3"}
  %negate.173.3 = f64[1,240,240,2,2,4,4,4]{7,6,5,4,3,2,1,0} negate(%imag.126.3), metadata={op_name="jit(_full_run)/jit(main)/while/body/jit(_matvec_impl)/jit(_apply_W_from_T)/custom_partitioning" source_file="/global/homes/j/jackm/software/lorrax_C/src/common/fft_helpers.py" source_line=259 scheduling_name="negate.173.3"}
  %complex.126.15 = c128[1,240,240,2,2,4,4,4]{7,6,5,4,3,2,1,0} complex(%real.149.3, %negate.173.3), metadata={op_name="jit(_full_run)/jit(main)/while/body/jit(_matvec_impl)/jit(_apply_W_from_T)/custom_partitioning" source_file="/global/homes/j/jackm/software/lorrax_C/src/common/fft_helpers.py" source_line=259 scheduling_name="complex.126.15"}
  %constant_1548_4 = c128[] constant((0.5, 0)), metadata={op_name="jit(_full_run)/jit(main)/while/body/jit(_matvec_impl)/jit(_apply_W_from_T)/custom_partitioning" source_file="/global/homes/j/jackm/software/lorrax_C/src/common/fft_helpers.py" source_line=259}
  %broadcast.2164.35 = c128[1,240,240,2,2,4,4,4]{7,6,5,4,3,2,1,0} broadcast(%constant_1548_4), dimensions={}, metadata={op_name="jit(_full_run)/jit(main)/while/body/jit(_matvec_impl)/jit(_apply_W_from_T)/custom_partitioning" source_file="/global/homes/j/jackm/software/lorrax_C/src/common/fft_helpers.py" source_line=259 scheduling_name="broadcast.2164.35"}
  %multiply.481.15 = c128[1,240,240,2,2,4,4,4]{7,6,5,4,3,2,1,0} multiply(%complex.126.15, %broadcast.2164.35), metadata={op_name="jit(_full_run)/jit(main)/while/body/jit(_matvec_impl)/jit(_apply_W_from_T)/custom_partitioning" source_file="/global/homes/j/jackm/software/lorrax_C/src/common/fft_helpers.py" source_line=259 scheduling_name="multiply.481.15"}
  %real.150.5 = f64[1,240,240,2,2,4,4,4]{7,6,5,4,3,2,1,0} real(%multiply.481.15), metadata={op_name="jit(_full_run)/jit(main)/while/body/jit(_matvec_impl)/jit(_apply_W_from_T)/custom_partitioning" source_file="/global/homes/j/jackm/software/lorrax_C/src/common/fft_helpers.py" source_line=259 scheduling_name="real.150.5"}
  %imag.127.7 = f64[1,240,240,2,2,4,4,4]{7,6,5,4,3,2,1,0} imag(%multiply.481.15), metadata={op_name="jit(_full_run)/jit(main)/while/body/jit(_matvec_impl)/jit(_apply_W_from_T)/custom_partitioning" source_file="/global/homes/j/jackm/software/lorrax_C/src/common/fft_helpers.py" source_line=259 scheduling_name="imag.127.7"}
  %negate.174.5 = f64[1,240,240,2,2,4,4,4]{7,6,5,4,3,2,1,0} negate(%imag.127.7), metadata={op_name="jit(_full_run)/jit(main)/while/body/jit(_matvec_impl)/jit(_apply_W_from_T)/custom_partitioning" source_file="/global/homes/j/jackm/software/lorrax_C/src/common/fft_helpers.py" source_line=259 scheduling_name="negate.174.5"}
  %complex.127.3 = c128[1,240,240,2,2,4,4,4]{7,6,5,4,3,2,1,0} complex(%real.150.5, %negate.174.5), metadata={op_name="jit(_full_run)/jit(main)/while/body/jit(_matvec_impl)/jit(_apply_W_from_T)/custom_partitioning" source_file="/global/homes/j/jackm/software/lorrax_C/src/common/fft_helpers.py" source_line=259 scheduling_name="complex.127.3"}
  %bitcast.7162.1 = c128[921600,4,4]{2,1,0} bitcast(%complex.127.3), metadata={scheduling_name="bitcast.7162.1"}
  ROOT %transpose.380.1 = c128[921600,4,4]{2,1,0} transpose(%bitcast.7162.1), dimensions={0,2,1}, metadata={op_name="jit(_full_run)/jit(main)/while/body/jit(_matvec_impl)/jit(_apply_W_from_T)/custom_partitioning" source_file="/global/homes/j/jackm/software/lorrax_C/src/common/fft_helpers.py" source_line=259 scheduling_name="transpose.380.1"}
}

%fused_transpose.8 (param_0.279: c128[1,240,240,2,2,4,4,4]) -> c128[230400,4,4,4] {
  %param_0.279 = c128[1,240,240,2,2,4,4,4]{7,6,5,4,3,2,1,0} parameter(0), metadata={scheduling_name="param_0.279"}
  %real.147.3 = f64[1,240,240,2,2,4,4,4]{7,6,5,4,3,2,1,0} real(%param_0.279), metadata={op_name="jit(_full_run)/jit(main)/while/body/jit(_matvec_impl)/jit(_apply_W_from_T)/custom_partitioning" source_file="/global/homes/j/jackm/software/lorrax_C/src/common/fft_helpers.py" source_line=259 scheduling_name="real.147.3"}
  %imag.124.3 = f64[1,240,240,2,2,4,4,4]{7,6,5,4,3,2,1,0} imag(%param_0.279), metadata={op_name="jit(_full_run)/jit(main)/while/body/jit(_matvec_impl)/jit(_apply_W_from_T)/custom_partitioning" source_file="/global/homes/j/jackm/software/lorrax_C/src/common/fft_helpers.py" source_line=259 scheduling_name="imag.124.3"}
  %negate.171.3 = f64[1,240,240,2,2,4,4,4]{7,6,5,4,3,2,1,0} negate(%imag.124.3), metadata={op_name="jit(_full_run)/jit(main)/while/body/jit(_matvec_impl)/jit(_apply_W_from_T)/custom_partitioning" source_file="/global/homes/j/jackm/software/lorrax_C/src/common/fft_helpers.py" source_line=259 scheduling_name="negate.171.3"}
  %complex.124.15 = c128[1,240,240,2,2,4,4,4]{7,6,5,4,3,2,1,0} complex(%real.147.3, %negate.171.3), metadata={op_name="jit(_full_run)/jit(main)/while/body/jit(_matvec_impl)/jit(_apply_W_from_T)/custom_partitioning" source_file="/global/homes/j/jackm/software/lorrax_C/src/common/fft_helpers.py" source_line=259 scheduling_name="complex.124.15"}
  %constant_1548_3 = c128[] constant((0.5, 0)), metadata={op_name="jit(_full_run)/jit(main)/while/body/jit(_matvec_impl)/jit(_apply_W_from_T)/custom_partitioning" source_file="/global/homes/j/jackm/software/lorrax_C/src/common/fft_helpers.py" source_line=259}
  %broadcast.2164.39 = c128[1,240,240,2,2,4,4,4]{7,6,5,4,3,2,1,0} broadcast(%constant_1548_3), dimensions={}, metadata={op_name="jit(_full_run)/jit(main)/while/body/jit(_matvec_impl)/jit(_apply_W_from_T)/custom_partitioning" source_file="/global/homes/j/jackm/software/lorrax_C/src/common/fft_helpers.py" source_line=259 scheduling_name="broadcast.2164.39"}
  %multiply.480.15 = c128[1,240,240,2,2,4,4,4]{7,6,5,4,3,2,1,0} multiply(%complex.124.15, %broadcast.2164.39), metadata={op_name="jit(_full_run)/jit(main)/while/body/jit(_matvec_impl)/jit(_apply_W_from_T)/custom_partitioning" source_file="/global/homes/j/jackm/software/lorrax_C/src/common/fft_helpers.py" source_line=259 scheduling_name="multiply.480.15"}
  %real.148.5 = f64[1,240,240,2,2,4,4,4]{7,6,5,4,3,2,1,0} real(%multiply.480.15), metadata={op_name="jit(_full_run)/jit(main)/while/body/jit(_matvec_impl)/jit(_apply_W_from_T)/custom_partitioning" source_file="/global/homes/j/jackm/software/lorrax_C/src/common/fft_helpers.py" source_line=259 scheduling_name="real.148.5"}
  %imag.125.7 = f64[1,240,240,2,2,4,4,4]{7,6,5,4,3,2,1,0} imag(%multiply.480.15), metadata={op_name="jit(_full_run)/jit(main)/while/body/jit(_matvec_impl)/jit(_apply_W_from_T)/custom_partitioning" source_file="/global/homes/j/jackm/software/lorrax_C/src/common/fft_helpers.py" source_line=259 scheduling_name="imag.125.7"}
  %negate.172.5 = f64[1,240,240,2,2,4,4,4]{7,6,5,4,3,2,1,0} negate(%imag.125.7), metadata={op_name="jit(_full_run)/jit(main)/while/body/jit(_matvec_impl)/jit(_apply_W_from_T)/custom_partitioning" source_file="/global/homes/j/jackm/software/lorrax_C/src/common/fft_helpers.py" source_line=259 scheduling_name="negate.172.5"}
  %complex.125.3 = c128[1,240,240,2,2,4,4,4]{7,6,5,4,3,2,1,0} complex(%real.148.5, %negate.172.5), metadata={op_name="jit(_full_run)/jit(main)/while/body/jit(_matvec_impl)/jit(_apply_W_from_T)/custom_partitioning" source_file="/global/homes/j/jackm/software/lorrax_C/src/common/fft_helpers.py" source_line=259 scheduling_name="complex.125.3"}
  %bitcast.7139.1 = c128[230400,4,4,4]{3,2,1,0} bitcast(%complex.125.3), metadata={scheduling_name="bitcast.7139.1"}
  ROOT %transpose.379.1 = c128[230400,4,4,4]{3,2,1,0} transpose(%bitcast.7139.1), dimensions={0,3,2,1}, metadata={op_name="jit(_full_run)/jit(main)/while/body/jit(_matvec_impl)/jit(_apply_W_from_T)/custom_partitioning" source_file="/global/homes/j/jackm/software/lorrax_C/src/common/fft_helpers.py" source_line=259 scheduling_name="transpose.379.1"}
}

%fused_transpose.9 (param_0.167: c128[64,480,480]) -> c128[240,480,2,16,4] {
  %param_0.167 = c128[64,480,480]{2,1,0} parameter(0), metadata={scheduling_name="param_0.167"}
  %real.146.3 = f64[64,480,480]{2,1,0} real(%param_0.167), metadata={op_name="jit(_full_run)/jit(main)/while/body/jit(_matvec_impl)/jit(_apply_W_from_T)/custom_partitioning" source_file="/global/homes/j/jackm/software/lorrax_C/src/common/fft_helpers.py" source_line=259 scheduling_name="real.146.3"}
  %imag.123.3 = f64[64,480,480]{2,1,0} imag(%param_0.167), metadata={op_name="jit(_full_run)/jit(main)/while/body/jit(_matvec_impl)/jit(_apply_W_from_T)/custom_partitioning" source_file="/global/homes/j/jackm/software/lorrax_C/src/common/fft_helpers.py" source_line=259 scheduling_name="imag.123.3"}
  %negate.170.3 = f64[64,480,480]{2,1,0} negate(%imag.123.3), metadata={op_name="jit(_full_run)/jit(main)/while/body/jit(_matvec_impl)/jit(_apply_W_from_T)/custom_partitioning" source_file="/global/homes/j/jackm/software/lorrax_C/src/common/fft_helpers.py" source_line=259 scheduling_name="negate.170.3"}
  %complex.123.3 = c128[64,480,480]{2,1,0} complex(%real.146.3, %negate.170.3), metadata={op_name="jit(_full_run)/jit(main)/while/body/jit(_matvec_impl)/jit(_apply_W_from_T)/custom_partitioning" source_file="/global/homes/j/jackm/software/lorrax_C/src/common/fft_helpers.py" source_line=259 scheduling_name="complex.123.3"}
  %bitcast.7117.1 = c128[4,16,2,480,240]{4,3,2,1,0} bitcast(%complex.123.3), metadata={scheduling_name="bitcast.7117.1"}
  ROOT %transpose.378.1 = c128[240,480,2,16,4]{4,3,2,1,0} transpose(%bitcast.7117.1), dimensions={4,3,2,1,0}, metadata={op_name="jit(_full_run)/jit(main)/while/body/jit(_matvec_impl)/jit(_apply_W_from_T)/custom_partitioning" source_file="/global/homes/j/jackm/software/lorrax_C/src/common/fft_helpers.py" source_line=259 scheduling_name="transpose.378.1"}
}

%fused_complex_transpose (param_0.88: c128[64,4,2,240]) -> (c128[64,4,2,240], c128[64,240,2,4], c128[64,2,240,4]) {
  %param_0.88 = c128[64,4,2,240]{1,2,3,0} parameter(0), metadata={scheduling_name="param_0.88"}
  %bitcast.7041.3 = c128[64,240,2,4]{3,2,1,0} bitcast(%param_0.88), metadata={scheduling_name="bitcast.7041.3"}
  %transpose.377.1 = c128[64,4,2,240]{3,2,1,0} transpose(%bitcast.7041.3), dimensions={0,3,2,1}, metadata={op_name="jit(_full_run)/jit(main)/while/body/pjit" source_file="/global/homes/j/jackm/software/lorrax_C/src/bse/bse_lanczos.py" source_line=193 scheduling_name="transpose.377.1"}
  %real.143.3.clone.1 = f64[64,240,2,4]{3,2,1,0} real(%bitcast.7041.3), metadata={op_name="jit(_full_run)/jit(main)/while/body/jit(_matvec_impl)/jit(shmap_body)/real" source_file="/global/homes/j/jackm/software/lorrax_C/src/bse/bse_ring_comm.py" source_line=296 scheduling_name="real.143.3.clone.1"}
  %imag.120.5.clone.1 = f64[64,240,2,4]{3,2,1,0} imag(%bitcast.7041.3), metadata={op_name="jit(_full_run)/jit(main)/while/body/jit(_matvec_impl)/jit(shmap_body)/imag" source_file="/global/homes/j/jackm/software/lorrax_C/src/bse/bse_ring_comm.py" source_line=296 scheduling_name="imag.120.5.clone.1"}
  %negate.167.3.clone.1 = f64[64,240,2,4]{3,2,1,0} negate(%imag.120.5.clone.1), metadata={op_name="jit(_full_run)/jit(main)/while/body/jit(_matvec_impl)/jit(shmap_body)/neg" source_file="/global/homes/j/jackm/software/lorrax_C/src/bse/bse_ring_comm.py" source_line=296 scheduling_name="negate.167.3.clone.1"}
  %complex.120.1.clone.1 = c128[64,240,2,4]{3,2,1,0} complex(%real.143.3.clone.1, %negate.167.3.clone.1), metadata={op_name="jit(_full_run)/jit(main)/while/body/jit(_matvec_impl)/jit(shmap_body)/complex" source_file="/global/homes/j/jackm/software/lorrax_C/src/bse/bse_ring_comm.py" source_line=296 scheduling_name="complex.120.1.clone.1"}
  %transpose.385.1.clone.1 = c128[64,2,240,4]{3,2,1,0} transpose(%complex.120.1.clone.1), dimensions={0,2,1,3}, metadata={op_name="jit(_full_run)/jit(main)/while/body/jit(_matvec_impl)/jit(_apply_W_from_T)/complex" source_file="/global/homes/j/jackm/software/lorrax_C/src/bse/bse_ring_comm.py" source_line=422 scheduling_name="transpose.385.1.clone.1"}
  ROOT %tuple.105 = (c128[64,4,2,240]{3,2,1,0}, c128[64,240,2,4]{3,2,1,0}, c128[64,2,240,4]{3,2,1,0}) tuple(%transpose.377.1, %complex.120.1.clone.1, %transpose.385.1.clone.1), metadata={scheduling_name="tuple.105"}
}

%fused_dynamic_slice.1 (param_0.270: c128[64,4,2,240], param_1.308: s32[]) -> c128[64,240,2,2] {
  %param_0.270 = c128[64,4,2,240]{2,1,3,0} parameter(0), metadata={scheduling_name="param_0.270"}
  %bitcast.7018.1 = c128[64,240,4,2]{3,2,1,0} bitcast(%param_0.270), metadata={scheduling_name="bitcast.7018.1"}
  %constant_1156_5 = s32[] constant(0)
  %param_1.308 = s32[] parameter(1), metadata={scheduling_name="param_1.308"}
  %constant_1192_1 = s32[] constant(2)
  %multiply.477.1 = s32[] multiply(%param_1.308, %constant_1192_1), metadata={op_name="jit(_full_run)/jit(main)/while/body/jit(_matvec_impl)/jit(shmap_body)/mul" source_file="/global/homes/j/jackm/software/lorrax_C/src/bse/bse_ring_comm.py" source_line=292 scheduling_name="multiply.477.1"}
  %compare.284.1 = pred[] compare(%multiply.477.1, %constant_1156_5), direction=LT, metadata={op_name="jit(_full_run)/jit(main)/while/body/jit(_matvec_impl)/jit(shmap_body)/lt" source_file="/global/homes/j/jackm/software/lorrax_C/src/bse/bse_ring_comm.py" source_line=293 scheduling_name="compare.284.1"}
  %constant_1194_1 = s32[] constant(4)
  %add.1363.1 = s32[] add(%multiply.477.1, %constant_1194_1), metadata={op_name="jit(_full_run)/jit(main)/while/body/jit(_matvec_impl)/jit(shmap_body)/add" source_file="/global/homes/j/jackm/software/lorrax_C/src/bse/bse_ring_comm.py" source_line=293 scheduling_name="add.1363.1"}
  %select.686.1 = s32[] select(%compare.284.1, %add.1363.1, %multiply.477.1), metadata={op_name="jit(_full_run)/jit(main)/while/body/jit(_matvec_impl)/jit(shmap_body)/select_n" source_file="/global/homes/j/jackm/software/lorrax_C/src/bse/bse_ring_comm.py" source_line=293 scheduling_name="select.686.1"}
  ROOT %dynamic-slice.147.1 = c128[64,240,2,2]{3,2,1,0} dynamic-slice(%bitcast.7018.1, %constant_1156_5, %constant_1156_5, %select.686.1, %constant_1156_5), dynamic_slice_sizes={64,240,2,2}, metadata={op_name="jit(_full_run)/jit(main)/while/body/jit(_matvec_impl)/jit(shmap_body)/dynamic_slice" source_file="/global/homes/j/jackm/software/lorrax_C/src/bse/bse_ring_comm.py" source_line=293 scheduling_name="dynamic-slice.147.1"}
}

%fused_transpose.10 (param_0.269: c128[512], param_1.298: s32[4], param_2.224: u32[]) -> (c128[64,4], c128[2,2,64]) {
  %param_0.269 = c128[512]{0} parameter(0), metadata={scheduling_name="param_0.269"}
  %bitcast.6934.5 = c128[1,2,4,64]{3,2,1,0} bitcast(%param_0.269), metadata={scheduling_name="bitcast.6934.5"}
  %constant_1156_3 = s32[] constant(0)
  %param_1.298 = s32[4]{0} parameter(1), metadata={scheduling_name="param_1.298"}
  %param_2.224 = u32[] parameter(2), metadata={scheduling_name="param_2.224"}
  %dynamic-slice.144.3 = s32[1]{0} dynamic-slice(%param_1.298, %param_2.224), dynamic_slice_sizes={1}, metadata={op_name="jit(_full_run)/jit(main)/while/body/reshape" source_file="/global/homes/j/jackm/software/lorrax_C/src/bse/bse_lanczos.py" source_line=191 scheduling_name="dynamic-slice.144.3"}
  %bitcast.6943.5 = s32[] bitcast(%dynamic-slice.144.3), metadata={scheduling_name="bitcast.6943.5"}
  %dynamic-slice.145.5 = c128[1,2,2,64]{3,2,1,0} dynamic-slice(%bitcast.6934.5, %constant_1156_3, %constant_1156_3, %bitcast.6943.5, %constant_1156_3), dynamic_slice_sizes={1,2,2,64}, metadata={op_name="jit(_full_run)/jit(main)/while/body/reshape" source_file="/global/homes/j/jackm/software/lorrax_C/src/bse/bse_lanczos.py" source_line=191 scheduling_name="dynamic-slice.145.5"}
  %bitcast.6957.1 = c128[4,64]{1,0} bitcast(%dynamic-slice.145.5), metadata={scheduling_name="bitcast.6957.1"}
  %transpose.373.1 = c128[64,4]{1,0} transpose(%bitcast.6957.1), dimensions={1,0}, metadata={scheduling_name="transpose.373.1"}
  %bitcast.6945.2.clone.1 = c128[2,2,64]{2,1,0} bitcast(%dynamic-slice.145.5), metadata={scheduling_name="bitcast.6945.2.clone.1"}
  %transpose.374.1.clone.1 = c128[2,2,64]{2,1,0} transpose(%bitcast.6945.2.clone.1), dimensions={1,0,2}, metadata={op_name="jit(_full_run)/jit(main)/while/body/reshape" source_file="/global/homes/j/jackm/software/lorrax_C/src/bse/bse_lanczos.py" source_line=191 scheduling_name="transpose.374.1.clone.1"}
  ROOT %tuple.106 = (c128[64,4]{1,0}, c128[2,2,64]{2,1,0}) tuple(%transpose.373.1, %transpose.374.1.clone.1), metadata={scheduling_name="tuple.106"}
}

%fused_multiply (param_0.170: c128[1,240,240,2,2,4,4,4], param_1.181: c128[240,240,4,4,4]) -> c128[1,240,240,2,2,4,4,4] {
  %param_0.170 = c128[1,240,240,2,2,4,4,4]{7,6,5,4,3,2,1,0} parameter(0), metadata={scheduling_name="param_0.170"}
  %real.151.1 = f64[1,240,240,2,2,4,4,4]{7,6,5,4,3,2,1,0} real(%param_0.170), metadata={op_name="jit(_full_run)/jit(main)/while/body/jit(_matvec_impl)/jit(_apply_W_from_T)/custom_partitioning" source_file="/global/homes/j/jackm/software/lorrax_C/src/common/fft_helpers.py" source_line=259 scheduling_name="real.151.1"}
  %imag.128.1 = f64[1,240,240,2,2,4,4,4]{7,6,5,4,3,2,1,0} imag(%param_0.170), metadata={op_name="jit(_full_run)/jit(main)/while/body/jit(_matvec_impl)/jit(_apply_W_from_T)/custom_partitioning" source_file="/global/homes/j/jackm/software/lorrax_C/src/common/fft_helpers.py" source_line=259 scheduling_name="imag.128.1"}
  %negate.175.1 = f64[1,240,240,2,2,4,4,4]{7,6,5,4,3,2,1,0} negate(%imag.128.1), metadata={op_name="jit(_full_run)/jit(main)/while/body/jit(_matvec_impl)/jit(_apply_W_from_T)/custom_partitioning" source_file="/global/homes/j/jackm/software/lorrax_C/src/common/fft_helpers.py" source_line=259 scheduling_name="negate.175.1"}
  %complex.128.1 = c128[1,240,240,2,2,4,4,4]{7,6,5,4,3,2,1,0} complex(%real.151.1, %negate.175.1), metadata={op_name="jit(_full_run)/jit(main)/while/body/jit(_matvec_impl)/jit(_apply_W_from_T)/custom_partitioning" source_file="/global/homes/j/jackm/software/lorrax_C/src/common/fft_helpers.py" source_line=259 scheduling_name="complex.128.1"}
  %param_1.181 = c128[240,240,4,4,4]{4,3,2,1,0} parameter(1), metadata={scheduling_name="param_1.181"}
  %constant_1548_1 = c128[] constant((0.5, 0)), metadata={op_name="jit(_full_run)/jit(main)/while/body/jit(_matvec_impl)/jit(_apply_W_from_T)/custom_partitioning" source_file="/global/homes/j/jackm/software/lorrax_C/src/common/fft_helpers.py" source_line=259}
  %broadcast.2166.3 = c128[240,240,4,4,4]{4,3,2,1,0} broadcast(%constant_1548_1), dimensions={}, metadata={op_name="jit(_full_run)/jit(main)/while/body/jit(_matvec_impl)/jit(_apply_W_from_T)/mul" source_file="/global/homes/j/jackm/software/lorrax_C/src/bse/bse_ring_comm.py" source_line=418 scheduling_name="broadcast.2166.3"}
  %multiply.482.3 = c128[240,240,4,4,4]{4,3,2,1,0} multiply(%param_1.181, %broadcast.2166.3), metadata={op_name="jit(_full_run)/jit(main)/while/body/jit(_matvec_impl)/jit(_apply_W_from_T)/mul" source_file="/global/homes/j/jackm/software/lorrax_C/src/bse/bse_ring_comm.py" source_line=418 scheduling_name="multiply.482.3"}
  %broadcast.2167.1 = c128[1,240,240,2,2,4,4,4]{7,6,5,4,3,2,1,0} broadcast(%multiply.482.3), dimensions={1,2,5,6,7}, metadata={op_name="jit(_full_run)/jit(main)/while/body/jit(_matvec_impl)/jit(_apply_W_from_T)/mul" source_file="/global/homes/j/jackm/software/lorrax_C/src/bse/bse_ring_comm.py" source_line=418 scheduling_name="broadcast.2167.1"}
  ROOT %multiply.483.1 = c128[1,240,240,2,2,4,4,4]{7,6,5,4,3,2,1,0} multiply(%complex.128.1, %broadcast.2167.1), metadata={op_name="jit(_full_run)/jit(main)/while/body/jit(_matvec_impl)/jit(_apply_W_from_T)/mul" source_file="/global/homes/j/jackm/software/lorrax_C/src/bse/bse_ring_comm.py" source_line=418 scheduling_name="multiply.483.1"}
}

%fused_multiply.1 (param_0.174: c128[1,240,64], param_1.187: c128[15360,2,4]) -> c128[64,240,2,4] {
  %param_0.174 = c128[1,240,64]{1,2,0} parameter(0), metadata={scheduling_name="param_0.174"}
  %bitcast.7013.3 = c128[64,240]{1,0} bitcast(%param_0.174), metadata={scheduling_name="bitcast.7013.3"}
  %broadcast.2162.3 = c128[64,240,2,4]{3,2,1,0} broadcast(%bitcast.7013.3), dimensions={0,1}, metadata={op_name="jit(_full_run)/jit(main)/while/body/jit(_matvec_impl)/jit(shmap_body)/kcvM,bMk->bcvk/dot_general" source_file="/global/homes/j/jackm/software/lorrax_C/src/bse/bse_ring_comm.py" source_line=297 scheduling_name="broadcast.2162.3"}
  %param_1.187 = c128[15360,2,4]{2,1,0} parameter(1), metadata={scheduling_name="param_1.187"}
  %bitcast.7053.4 = c128[64,240,2,4]{3,2,1,0} bitcast(%param_1.187), metadata={scheduling_name="bitcast.7053.4"}
  %real.144.3 = f64[64,240,2,4]{3,2,1,0} real(%bitcast.7053.4), metadata={op_name="jit(_full_run)/jit(main)/while/body/jit(_matvec_impl)/jit(shmap_body)/real" source_file="/global/homes/j/jackm/software/lorrax_C/src/bse/bse_ring_comm.py" source_line=297 scheduling_name="real.144.3"}
  %imag.121.3 = f64[64,240,2,4]{3,2,1,0} imag(%bitcast.7053.4), metadata={op_name="jit(_full_run)/jit(main)/while/body/jit(_matvec_impl)/jit(shmap_body)/imag" source_file="/global/homes/j/jackm/software/lorrax_C/src/bse/bse_ring_comm.py" source_line=297 scheduling_name="imag.121.3"}
  %negate.168.1 = f64[64,240,2,4]{3,2,1,0} negate(%imag.121.3), metadata={op_name="jit(_full_run)/jit(main)/while/body/jit(_matvec_impl)/jit(shmap_body)/neg" source_file="/global/homes/j/jackm/software/lorrax_C/src/bse/bse_ring_comm.py" source_line=297 scheduling_name="negate.168.1"}
  %complex.121.1 = c128[64,240,2,4]{3,2,1,0} complex(%real.144.3, %negate.168.1), metadata={op_name="jit(_full_run)/jit(main)/while/body/jit(_matvec_impl)/jit(shmap_body)/complex" source_file="/global/homes/j/jackm/software/lorrax_C/src/bse/bse_ring_comm.py" source_line=297 scheduling_name="complex.121.1"}
  ROOT %multiply.478.1 = c128[64,240,2,4]{3,2,1,0} multiply(%broadcast.2162.3, %complex.121.1), metadata={scheduling_name="multiply.478.1"}
}

%fused_multiply.2 (param_0.191: c128[1,240,64]) -> c128[1,240,64] {
  %param_0.191 = c128[1,240,64]{2,1,0} parameter(0), metadata={scheduling_name="param_0.191"}
  %constant_1196_2 = c128[] constant((0.125, 0)), metadata={op_name="jit(_full_run)/jit(main)/while/body/jit(_matvec_impl)/jit(shmap_body)/convert_element_type" source_file="/global/homes/j/jackm/software/lorrax_C/src/bse/bse_ring_comm.py" source_line=287}
  %broadcast.2161.1 = c128[1,240,64]{2,1,0} broadcast(%constant_1196_2), dimensions={}, metadata={op_name="jit(_full_run)/jit(main)/while/body/jit(_matvec_impl)/jit(shmap_body)/div" source_file="/global/homes/j/jackm/software/lorrax_C/src/bse/bse_ring_comm.py" source_line=287 scheduling_name="broadcast.2161.1"}
  ROOT %multiply.476.1 = c128[1,240,64]{2,1,0} multiply(%param_0.191, %broadcast.2161.1), metadata={op_name="jit(_full_run)/jit(main)/while/body/jit(_matvec_impl)/jit(shmap_body)/div" source_file="/global/homes/j/jackm/software/lorrax_C/src/bse/bse_ring_comm.py" source_line=287 scheduling_name="multiply.476.1"}
}

%fused_dynamic_update_slice (param_0.200: c128[512,200], param_1.297: c128[512], param_2.223: pred[], param_3.123: s64[]) -> c128[512,200] {
  %param_0.200 = c128[512,200]{1,0} parameter(0), metadata={scheduling_name="param_0.200"}
  %param_2.223 = pred[] parameter(2), metadata={scheduling_name="param_2.223"}
  %broadcast.2156.1 = pred[512,1]{1,0} broadcast(%param_2.223), dimensions={}, metadata={scheduling_name="broadcast.2156.1"}
  %param_1.297 = c128[512]{0} parameter(1), metadata={scheduling_name="param_1.297"}
  %bitcast.7359.3 = c128[512,1]{1,0} bitcast(%param_1.297), metadata={scheduling_name="bitcast.7359.3"}
  %constant_1156_1 = s32[] constant(0)
  %param_3.123 = s64[] parameter(3), metadata={scheduling_name="param_3.123"}
  %constant_1159_3 = s64[] constant(199)
  %minimum.7.1 = s64[] minimum(%param_3.123, %constant_1159_3), metadata={op_name="jit(_full_run)/jit(main)/while/body/min" source_file="/global/homes/j/jackm/software/lorrax_C/src/solvers/lanczos.py" source_line=281 scheduling_name="minimum.7.1"}
  %constant_1160_2 = s64[] constant(0)
  %compare.280.2 = pred[] compare(%minimum.7.1, %constant_1160_2), direction=LT, metadata={op_name="jit(_full_run)/jit(main)/while/body/lt" source_file="/global/homes/j/jackm/software/lorrax_C/src/solvers/lanczos.py" source_line=281 scheduling_name="compare.280.2"}
  %constant_1161_2 = s64[] constant(200)
  %add.1360.2 = s64[] add(%minimum.7.1, %constant_1161_2), metadata={op_name="jit(_full_run)/jit(main)/while/body/add" source_file="/global/homes/j/jackm/software/lorrax_C/src/solvers/lanczos.py" source_line=281 scheduling_name="add.1360.2"}
  %select.684.1 = s64[] select(%compare.280.2, %add.1360.2, %minimum.7.1), metadata={op_name="jit(_full_run)/jit(main)/while/body/select_n" source_file="/global/homes/j/jackm/software/lorrax_C/src/solvers/lanczos.py" source_line=281 scheduling_name="select.684.1"}
  %convert.198.2 = s32[] convert(%select.684.1), metadata={op_name="jit(_full_run)/jit(main)/while/body/convert_element_type" source_file="/global/homes/j/jackm/software/lorrax_C/src/solvers/lanczos.py" source_line=281 scheduling_name="convert.198.2"}
  %dynamic-slice.150.1 = c128[512,1]{1,0} dynamic-slice(%param_0.200, %constant_1156_1, %convert.198.2), dynamic_slice_sizes={512,1}, metadata={scheduling_name="dynamic-slice.150.1"}
  %select.689.3 = c128[512,1]{1,0} select(%broadcast.2156.1, %bitcast.7359.3, %dynamic-slice.150.1), metadata={scheduling_name="select.689.3"}
  ROOT %dynamic-update-slice.28.1 = c128[512,200]{1,0} dynamic-update-slice(%param_0.200, %select.689.3, %constant_1156_1, %convert.198.2), metadata={op_name="jit(_full_run)/jit(main)/while/body/scatter" source_file="/global/homes/j/jackm/software/lorrax_C/src/solvers/lanczos.py" source_line=281 scheduling_name="dynamic-update-slice.28.1"}
}

%fused_divide (param_0.204: c128[512], param_1.310: f64[]) -> c128[512] {
  %param_0.204 = c128[512]{0} parameter(0), metadata={scheduling_name="param_0.204"}
  %param_1.310 = f64[] parameter(1), metadata={scheduling_name="param_1.310"}
  %sqrt.27.2 = f64[] sqrt(%param_1.310), metadata={op_name="jit(_full_run)/jit(main)/while/body/jit(norm)/sqrt" source_file="/global/homes/j/jackm/software/lorrax_C/src/solvers/lanczos.py" source_line=277 scheduling_name="sqrt.27.2"}
  %constant_1249_1 = f64[] constant(1e-15)
  %maximum.39.3 = f64[] maximum(%sqrt.27.2, %constant_1249_1), metadata={op_name="jit(_full_run)/jit(main)/while/body/max" source_file="/global/homes/j/jackm/software/lorrax_C/src/solvers/lanczos.py" source_line=280 scheduling_name="maximum.39.3"}
  %convert.206.3 = c128[] convert(%maximum.39.3), metadata={op_name="jit(_full_run)/jit(main)/while/body/convert_element_type" source_file="/global/homes/j/jackm/software/lorrax_C/src/solvers/lanczos.py" source_line=280 scheduling_name="convert.206.3"}
  %broadcast.2174.1 = c128[512]{0} broadcast(%convert.206.3), dimensions={}, metadata={op_name="jit(_full_run)/jit(main)/while/body/div" source_file="/global/homes/j/jackm/software/lorrax_C/src/solvers/lanczos.py" source_line=280 scheduling_name="broadcast.2174.1"}
  ROOT %divide.47.1 = c128[512]{0} divide(%param_0.204, %broadcast.2174.1), metadata={op_name="jit(_full_run)/jit(main)/while/body/div" source_file="/global/homes/j/jackm/software/lorrax_C/src/solvers/lanczos.py" source_line=280 scheduling_name="divide.47.1"}
}

%fused_dynamic_update_slice.1 (param_0.237: f64[200], param_1.303: c128[], param_2.233: s64[]) -> f64[200] {
  %param_0.237 = f64[200]{0} parameter(0), metadata={scheduling_name="param_0.237"}
  %constant_1156_4 = s32[] constant(0)
  %param_2.233 = s64[] parameter(2), metadata={scheduling_name="param_2.233"}
  %constant_1160_5 = s64[] constant(0)
  %compare.287.5 = pred[] compare(%param_2.233, %constant_1160_5), direction=LT, metadata={op_name="jit(_full_run)/jit(main)/while/body/lt" source_file="/global/homes/j/jackm/software/lorrax_C/src/solvers/lanczos.py" source_line=261 scheduling_name="compare.287.5"}
  %constant_1161_1 = s64[] constant(200)
  %add.1367.5 = s64[] add(%param_2.233, %constant_1161_1), metadata={op_name="jit(_full_run)/jit(main)/while/body/add" source_file="/global/homes/j/jackm/software/lorrax_C/src/solvers/lanczos.py" source_line=261 scheduling_name="add.1367.5"}
  %select.690.5 = s64[] select(%compare.287.5, %add.1367.5, %param_2.233), metadata={op_name="jit(_full_run)/jit(main)/while/body/select_n" source_file="/global/homes/j/jackm/software/lorrax_C/src/solvers/lanczos.py" source_line=261 scheduling_name="select.690.5"}
  %convert.207.5 = s32[] convert(%select.690.5), metadata={op_name="jit(_full_run)/jit(main)/while/body/convert_element_type" source_file="/global/homes/j/jackm/software/lorrax_C/src/solvers/lanczos.py" source_line=261 scheduling_name="convert.207.5"}
  %compare.288.5 = pred[] compare(%constant_1156_4, %convert.207.5), direction=LE, metadata={scheduling_name="compare.288.5"}
  %constant_1162_1 = s32[] constant(199)
  %compare.289.5 = pred[] compare(%constant_1162_1, %convert.207.5), direction=GE, metadata={scheduling_name="compare.289.5"}
  %and.67.5 = pred[] and(%compare.288.5, %compare.289.5), metadata={scheduling_name="and.67.5"}
  %bitcast.7393.4 = pred[1]{0} bitcast(%and.67.5), metadata={scheduling_name="bitcast.7393.4"}
  %param_1.303 = c128[] parameter(1), metadata={scheduling_name="param_1.303"}
  %real.153.1 = f64[] real(%param_1.303), metadata={op_name="jit(_full_run)/jit(main)/while/body/real" source_file="/global/homes/j/jackm/software/lorrax_C/src/solvers/lanczos.py" source_line=260 scheduling_name="real.153.1"}
  %bitcast.7397.3 = f64[1]{0} bitcast(%real.153.1), metadata={scheduling_name="bitcast.7397.3"}
  %dynamic-slice.151.1 = f64[1]{0} dynamic-slice(%param_0.237, %convert.207.5), dynamic_slice_sizes={1}, metadata={scheduling_name="dynamic-slice.151.1"}
  %select.691.3 = f64[1]{0} select(%bitcast.7393.4, %bitcast.7397.3, %dynamic-slice.151.1), metadata={scheduling_name="select.691.3"}
  ROOT %dynamic-update-slice.29.1 = f64[200]{0} dynamic-update-slice(%param_0.237, %select.691.3, %convert.207.5), metadata={op_name="jit(_full_run)/jit(main)/while/body/scatter" source_file="/global/homes/j/jackm/software/lorrax_C/src/solvers/lanczos.py" source_line=261 scheduling_name="dynamic-update-slice.29.1"}
}

%fused_dynamic_update_slice.2 (param_0.239: f64[200], param_1.305: s64[], param_2.234: f64[]) -> f64[200] {
  %param_0.239 = f64[200]{0} parameter(0), metadata={scheduling_name="param_0.239"}
  %constant_1156_9 = s32[] constant(0)
  %param_1.305 = s64[] parameter(1), metadata={scheduling_name="param_1.305"}
  %constant_1160_3 = s64[] constant(0)
  %compare.287.3 = pred[] compare(%param_1.305, %constant_1160_3), direction=LT, metadata={op_name="jit(_full_run)/jit(main)/while/body/lt" source_file="/global/homes/j/jackm/software/lorrax_C/src/solvers/lanczos.py" source_line=261 scheduling_name="compare.287.3"}
  %constant_1161_4 = s64[] constant(200)
  %add.1367.3 = s64[] add(%param_1.305, %constant_1161_4), metadata={op_name="jit(_full_run)/jit(main)/while/body/add" source_file="/global/homes/j/jackm/software/lorrax_C/src/solvers/lanczos.py" source_line=261 scheduling_name="add.1367.3"}
  %select.690.3 = s64[] select(%compare.287.3, %add.1367.3, %param_1.305), metadata={op_name="jit(_full_run)/jit(main)/while/body/select_n" source_file="/global/homes/j/jackm/software/lorrax_C/src/solvers/lanczos.py" source_line=261 scheduling_name="select.690.3"}
  %convert.207.3 = s32[] convert(%select.690.3), metadata={op_name="jit(_full_run)/jit(main)/while/body/convert_element_type" source_file="/global/homes/j/jackm/software/lorrax_C/src/solvers/lanczos.py" source_line=261 scheduling_name="convert.207.3"}
  %compare.288.3 = pred[] compare(%constant_1156_9, %convert.207.3), direction=LE, metadata={scheduling_name="compare.288.3"}
  %constant_1162_3 = s32[] constant(199)
  %compare.289.3 = pred[] compare(%constant_1162_3, %convert.207.3), direction=GE, metadata={scheduling_name="compare.289.3"}
  %and.67.3 = pred[] and(%compare.288.3, %compare.289.3), metadata={scheduling_name="and.67.3"}
  %bitcast.7393.6 = pred[1]{0} bitcast(%and.67.3), metadata={scheduling_name="bitcast.7393.6"}
  %param_2.234 = f64[] parameter(2), metadata={scheduling_name="param_2.234"}
  %sqrt.27.1 = f64[] sqrt(%param_2.234), metadata={op_name="jit(_full_run)/jit(main)/while/body/jit(norm)/sqrt" source_file="/global/homes/j/jackm/software/lorrax_C/src/solvers/lanczos.py" source_line=277 scheduling_name="sqrt.27.1"}
  %bitcast.7412.3 = f64[1]{0} bitcast(%sqrt.27.1), metadata={scheduling_name="bitcast.7412.3"}
  %dynamic-slice.152.1 = f64[1]{0} dynamic-slice(%param_0.239, %convert.207.3), dynamic_slice_sizes={1}, metadata={scheduling_name="dynamic-slice.152.1"}
  %select.692.3 = f64[1]{0} select(%bitcast.7393.6, %bitcast.7412.3, %dynamic-slice.152.1), metadata={scheduling_name="select.692.3"}
  ROOT %dynamic-update-slice.30.1 = f64[200]{0} dynamic-update-slice(%param_0.239, %select.692.3, %convert.207.3), metadata={op_name="jit(_full_run)/jit(main)/while/body/scatter" source_file="/global/homes/j/jackm/software/lorrax_C/src/solvers/lanczos.py" source_line=278 scheduling_name="dynamic-update-slice.30.1"}
}

%fused_convert (param_0.250: u32[]) -> s32[] {
  %param_0.250 = u32[] parameter(0), metadata={scheduling_name="param_0.250"}
  %constant_1188_2 = u32[] constant(1), metadata={op_name="jit(_full_run)/jit(main)/while/body/jit(_matvec_impl)/jit(shmap_body)/axis_index" source_file="/global/homes/j/jackm/software/lorrax_C/src/bse/bse_ring_comm.py" source_line=246}
  %and.65.1 = u32[] and(%param_0.250, %constant_1188_2), metadata={op_name="jit(_full_run)/jit(main)/while/body/jit(_matvec_impl)/jit(shmap_body)/axis_index" source_file="/global/homes/j/jackm/software/lorrax_C/src/bse/bse_ring_comm.py" source_line=246 scheduling_name="and.65.1"}
  ROOT %convert.202.1 = s32[] convert(%and.65.1), metadata={op_name="jit(_full_run)/jit(main)/while/body/jit(_matvec_impl)/jit(shmap_body)/axis_index" source_file="/global/homes/j/jackm/software/lorrax_C/src/bse/bse_ring_comm.py" source_line=246 scheduling_name="convert.202.1"}
}

%fused_maximum (param_0.272: s64[]) -> s64[] {
  %param_0.272 = s64[] parameter(0), metadata={scheduling_name="param_0.272"}
  %constant_1164_1 = s64[] constant(-10)
  %add.1361.1 = s64[] add(%param_0.272, %constant_1164_1), metadata={op_name="jit(_full_run)/jit(main)/while/body/sub" source_file="/global/homes/j/jackm/software/lorrax_C/src/solvers/lanczos.py" source_line=274 scheduling_name="add.1361.1"}
  %constant_1160_1 = s64[] constant(0)
  ROOT %maximum.37.1 = s64[] maximum(%add.1361.1, %constant_1160_1), metadata={op_name="jit(_full_run)/jit(main)/while/body/max" source_file="/global/homes/j/jackm/software/lorrax_C/src/solvers/lanczos.py" source_line=274 scheduling_name="maximum.37.1"}
}

%and.reduce_sub_computation (lhs: pred[], rhs: pred[]) -> pred[] {
  %rhs = pred[] parameter(1), metadata={scheduling_name="rhs"}
  %lhs = pred[] parameter(0), metadata={scheduling_name="lhs"}
  ROOT %and.61 = pred[] and(%lhs, %rhs), metadata={scheduling_name="and.61"}
}

%fused_reduce.1 (param_0.273: s64[]) -> pred[] {
  %constant_1156_2 = s32[] constant(0)
  %broadcast.2154.1 = s32[2]{0} broadcast(%constant_1156_2), dimensions={}, metadata={scheduling_name="broadcast.2154.1"}
  %constant_1157_1 = s32[1]{0} constant({0})
  %param_0.273 = s64[] parameter(0), metadata={scheduling_name="param_0.273"}
  %constant_1159_2 = s64[] constant(199)
  %minimum.7.2 = s64[] minimum(%param_0.273, %constant_1159_2), metadata={op_name="jit(_full_run)/jit(main)/while/body/min" source_file="/global/homes/j/jackm/software/lorrax_C/src/solvers/lanczos.py" source_line=281 scheduling_name="minimum.7.2"}
  %constant_1160_6 = s64[] constant(0)
  %compare.280.1 = pred[] compare(%minimum.7.2, %constant_1160_6), direction=LT, metadata={op_name="jit(_full_run)/jit(main)/while/body/lt" source_file="/global/homes/j/jackm/software/lorrax_C/src/solvers/lanczos.py" source_line=281 scheduling_name="compare.280.1"}
  %constant_1161_3 = s64[] constant(200)
  %add.1360.1 = s64[] add(%minimum.7.2, %constant_1161_3), metadata={op_name="jit(_full_run)/jit(main)/while/body/add" source_file="/global/homes/j/jackm/software/lorrax_C/src/solvers/lanczos.py" source_line=281 scheduling_name="add.1360.1"}
  %select.684.2 = s64[] select(%compare.280.1, %add.1360.1, %minimum.7.2), metadata={op_name="jit(_full_run)/jit(main)/while/body/select_n" source_file="/global/homes/j/jackm/software/lorrax_C/src/solvers/lanczos.py" source_line=281 scheduling_name="select.684.2"}
  %convert.198.1 = s32[] convert(%select.684.2), metadata={op_name="jit(_full_run)/jit(main)/while/body/convert_element_type" source_file="/global/homes/j/jackm/software/lorrax_C/src/solvers/lanczos.py" source_line=281 scheduling_name="convert.198.1"}
  %bitcast.6866.3 = s32[1]{0} bitcast(%convert.198.1), metadata={scheduling_name="bitcast.6866.3"}
  %concatenate.22.3 = s32[2]{0} concatenate(%constant_1157_1, %bitcast.6866.3), dimensions={0}, metadata={scheduling_name="concatenate.22.3"}
  %compare.281.1 = pred[2]{0} compare(%broadcast.2154.1, %concatenate.22.3), direction=LE, metadata={scheduling_name="compare.281.1"}
  %iota.59.1 = s32[2]{0} iota(), iota_dimension=0, metadata={scheduling_name="iota.59.1"}
  %constant_1162_2 = s32[] constant(199)
  %broadcast.2155.1 = s32[2]{0} broadcast(%constant_1162_2), dimensions={}, metadata={scheduling_name="broadcast.2155.1"}
  %multiply.471.1 = s32[2]{0} multiply(%iota.59.1, %broadcast.2155.1), metadata={scheduling_name="multiply.471.1"}
  %compare.282.1 = pred[2]{0} compare(%multiply.471.1, %concatenate.22.3), direction=GE, metadata={scheduling_name="compare.282.1"}
  %and.64.1 = pred[2]{0} and(%compare.281.1, %compare.282.1), metadata={scheduling_name="and.64.1"}
  %constant_1163_1 = pred[] constant(true)
  ROOT %reduce.39.1 = pred[] reduce(%and.64.1, %constant_1163_1), dimensions={0}, to_apply=%and.reduce_sub_computation, metadata={scheduling_name="reduce.39.1"}
}

%region_0.1149 (Arg_0.1150: f64[], Arg_1.1151: f64[]) -> f64[] {
  %Arg_1.1151 = f64[] parameter(1), metadata={op_name="jit(_full_run)/jit(main)/jit(norm)/reduce_sum" scheduling_name="Arg_1.1151"}
  %Arg_0.1150 = f64[] parameter(0), metadata={op_name="jit(_full_run)/jit(main)/jit(norm)/reduce_sum" scheduling_name="Arg_0.1150"}
  ROOT %add.1340 = f64[] add(%Arg_0.1150, %Arg_1.1151), metadata={op_name="jit(_full_run)/jit(main)/jit(norm)/reduce_sum" source_file="/global/homes/j/jackm/software/lorrax_C/src/solvers/lanczos.py" source_line=249 scheduling_name="add.1340"}
}

%fused_reduce.2 (param_0.278: c128[512]) -> f64[] {
  %param_0.278 = c128[512]{0} parameter(0), metadata={scheduling_name="param_0.278"}
  %real.154.3 = f64[512]{0} real(%param_0.278), metadata={op_name="jit(_full_run)/jit(main)/while/body/jit(norm)/real" source_file="/global/homes/j/jackm/software/lorrax_C/src/solvers/lanczos.py" source_line=277 scheduling_name="real.154.3"}
  %imag.130.5 = f64[512]{0} imag(%param_0.278), metadata={op_name="jit(_full_run)/jit(main)/while/body/jit(norm)/imag" source_file="/global/homes/j/jackm/software/lorrax_C/src/solvers/lanczos.py" source_line=277 scheduling_name="imag.130.5"}
  %negate.177.5 = f64[512]{0} negate(%imag.130.5), metadata={op_name="jit(_full_run)/jit(main)/while/body/jit(norm)/neg" source_file="/global/homes/j/jackm/software/lorrax_C/src/solvers/lanczos.py" source_line=277 scheduling_name="negate.177.5"}
  %complex.130.3 = c128[512]{0} complex(%real.154.3, %negate.177.5), metadata={op_name="jit(_full_run)/jit(main)/while/body/jit(norm)/complex" source_file="/global/homes/j/jackm/software/lorrax_C/src/solvers/lanczos.py" source_line=277 scheduling_name="complex.130.3"}
  %multiply.491.3 = c128[512]{0} multiply(%param_0.278, %complex.130.3), metadata={op_name="jit(_full_run)/jit(main)/while/body/jit(norm)/mul" source_file="/global/homes/j/jackm/software/lorrax_C/src/solvers/lanczos.py" source_line=277 scheduling_name="multiply.491.3"}
  %real.155.3 = f64[512]{0} real(%multiply.491.3), metadata={op_name="jit(_full_run)/jit(main)/while/body/jit(norm)/real" source_file="/global/homes/j/jackm/software/lorrax_C/src/solvers/lanczos.py" source_line=277 scheduling_name="real.155.3"}
  %constant_1242_1 = f64[] constant(0)
  ROOT %reduce.42.1 = f64[] reduce(%real.155.3, %constant_1242_1), dimensions={0}, to_apply=%region_0.1149, metadata={op_name="jit(_full_run)/jit(main)/while/body/jit(norm)/reduce_sum" source_file="/global/homes/j/jackm/software/lorrax_C/src/solvers/lanczos.py" source_line=277 scheduling_name="reduce.42.1"}
}

%fused_reduce.3 (param_0.277: c128[1,2,4,64], param_1.307: c128[512]) -> c128[] {
  %param_1.307 = c128[512]{0} parameter(1), metadata={scheduling_name="param_1.307"}
  %real.152.3 = f64[512]{0} real(%param_1.307), metadata={op_name="jit(_full_run)/jit(main)/while/body/real" source_file="/global/homes/j/jackm/software/lorrax_C/src/solvers/lanczos.py" source_line=260 scheduling_name="real.152.3"}
  %imag.129.5 = f64[512]{0} imag(%param_1.307), metadata={op_name="jit(_full_run)/jit(main)/while/body/imag" source_file="/global/homes/j/jackm/software/lorrax_C/src/solvers/lanczos.py" source_line=260 scheduling_name="imag.129.5"}
  %negate.176.5 = f64[512]{0} negate(%imag.129.5), metadata={op_name="jit(_full_run)/jit(main)/while/body/neg" source_file="/global/homes/j/jackm/software/lorrax_C/src/solvers/lanczos.py" source_line=260 scheduling_name="negate.176.5"}
  %complex.129.3 = c128[512]{0} complex(%real.152.3, %negate.176.5), metadata={op_name="jit(_full_run)/jit(main)/while/body/complex" source_file="/global/homes/j/jackm/software/lorrax_C/src/solvers/lanczos.py" source_line=260 scheduling_name="complex.129.3"}
  %param_0.277 = c128[1,2,4,64]{3,1,0,2} parameter(0), metadata={scheduling_name="param_0.277"}
  %bitcast.7263.7 = c128[4,2,64]{2,1,0} bitcast(%param_0.277), metadata={scheduling_name="bitcast.7263.7"}
  %transpose.390.7 = c128[2,4,64]{2,1,0} transpose(%bitcast.7263.7), dimensions={1,0,2}, metadata={op_name="jit(_full_run)/jit(main)/while/body/reshape" source_file="/global/homes/j/jackm/software/lorrax_C/src/bse/bse_lanczos.py" source_line=197 scheduling_name="transpose.390.7"}
  %bitcast.7276.6 = c128[512]{0} bitcast(%transpose.390.7), metadata={scheduling_name="bitcast.7276.6"}
  %multiply.488.3 = c128[512]{0} multiply(%complex.129.3, %bitcast.7276.6), metadata={scheduling_name="multiply.488.3"}
  %constant_1187_4 = c128[] constant((0, 0))
  ROOT %reduce.41.1 = c128[] reduce(%multiply.488.3, %constant_1187_4), dimensions={0}, to_apply=%region_6.1287, metadata={op_name="jit(_full_run)/jit(main)/while/body/dot_general" source_file="/global/homes/j/jackm/software/lorrax_C/src/solvers/lanczos.py" source_line=260 scheduling_name="reduce.41.1"}
}

%fused_add.4 (param_0.268: s64[]) -> s64[] {
  %param_0.268 = s64[] parameter(0), metadata={scheduling_name="param_0.268"}
  %constant_1154_1 = s64[] constant(1)
  ROOT %add.1359.1 = s64[] add(%param_0.268, %constant_1154_1), metadata={op_name="jit(_full_run)/jit(main)/while/body/add" source_file="/global/homes/j/jackm/software/lorrax_C/src/solvers/lanczos.py" source_line=286 scheduling_name="add.1359.1"}
}

%fused_broadcast () -> c128[1,240,64] {
  %constant_1187_1 = c128[] constant((0, 0))
  ROOT %broadcast.2160.1 = c128[1,240,64]{2,1,0} broadcast(%constant_1187_1), dimensions={}, metadata={scheduling_name="broadcast.2160.1"}
}

%fused_reduce.4 (param_0.276: c128[64,240,2,4]) -> c128[64,2,4] {
  %param_0.276 = c128[64,240,2,4]{3,2,1,0} parameter(0), metadata={scheduling_name="param_0.276"}
  %constant_1187_3 = c128[] constant((0, 0))
  ROOT %reduce.40.1 = c128[64,2,4]{1,0,2} reduce(%param_0.276, %constant_1187_3), dimensions={1}, to_apply=%region_6.1287, metadata={op_name="jit(_full_run)/jit(main)/while/body/jit(_matvec_impl)/jit(shmap_body)/kcvM,bMk->bcvk/dot_general" source_file="/global/homes/j/jackm/software/lorrax_C/src/bse/bse_ring_comm.py" source_line=297 scheduling_name="reduce.40.1"}
}

%fused_slice (param_1_0: c128[64,4,2,240], param_1_1: u32[]) -> (c128[30720], c128[61440]) {
  %constant_1187_5 = c128[] constant((0, 0))
  %broadcast.2159.2 = c128[1,2,240,64]{3,2,1,0} broadcast(%constant_1187_5), dimensions={}, metadata={scheduling_name="broadcast.2159.2"}
  %reshape.660 = c128[30720]{0} reshape(%broadcast.2159.2), metadata={scheduling_name="reshape.660"}
  %param_1_0 = c128[64,4,2,240]{3,2,1,0} parameter(0), metadata={scheduling_name="param_1_0"}
  %constant_1156_10 = s32[] constant(0)
  %param_1_1 = u32[] parameter(1), metadata={scheduling_name="param_1_1"}
  %constant_1188_3 = u32[] constant(1), metadata={op_name="jit(_full_run)/jit(main)/while/body/jit(_matvec_impl)/jit(shmap_body)/axis_index" source_file="/global/homes/j/jackm/software/lorrax_C/src/bse/bse_ring_comm.py" source_line=246}
  %shift-right-logical.457.2 = u32[] shift-right-logical(%param_1_1, %constant_1188_3), metadata={op_name="jit(_full_run)/jit(main)/while/body/jit(_matvec_impl)/jit(shmap_body)/axis_index" source_file="/global/homes/j/jackm/software/lorrax_C/src/bse/bse_ring_comm.py" source_line=245 scheduling_name="shift-right-logical.457.2"}
  %and.66.2 = u32[] and(%shift-right-logical.457.2, %constant_1188_3), metadata={op_name="jit(_full_run)/jit(main)/while/body/jit(_matvec_impl)/jit(shmap_body)/axis_index" source_file="/global/homes/j/jackm/software/lorrax_C/src/bse/bse_ring_comm.py" source_line=245 scheduling_name="and.66.2"}
  %convert.203.2 = s32[] convert(%and.66.2), metadata={op_name="jit(_full_run)/jit(main)/while/body/jit(_matvec_impl)/jit(shmap_body)/axis_index" source_file="/global/homes/j/jackm/software/lorrax_C/src/bse/bse_ring_comm.py" source_line=245 scheduling_name="convert.203.2"}
  %constant_1192_3 = s32[] constant(2)
  %multiply.475.2 = s32[] multiply(%convert.203.2, %constant_1192_3), metadata={op_name="jit(_full_run)/jit(main)/while/body/jit(_matvec_impl)/jit(shmap_body)/mul" source_file="/global/homes/j/jackm/software/lorrax_C/src/bse/bse_ring_comm.py" source_line=253 scheduling_name="multiply.475.2"}
  %compare.283.2 = pred[] compare(%multiply.475.2, %constant_1156_10), direction=LT, metadata={op_name="jit(_full_run)/jit(main)/while/body/jit(_matvec_impl)/jit(shmap_body)/lt" source_file="/global/homes/j/jackm/software/lorrax_C/src/bse/bse_ring_comm.py" source_line=255 scheduling_name="compare.283.2"}
  %constant_1194_3 = s32[] constant(4)
  %add.1362.2 = s32[] add(%multiply.475.2, %constant_1194_3), metadata={op_name="jit(_full_run)/jit(main)/while/body/jit(_matvec_impl)/jit(shmap_body)/add" source_file="/global/homes/j/jackm/software/lorrax_C/src/bse/bse_ring_comm.py" source_line=255 scheduling_name="add.1362.2"}
  %select.685.2 = s32[] select(%compare.283.2, %add.1362.2, %multiply.475.2), metadata={op_name="jit(_full_run)/jit(main)/while/body/jit(_matvec_impl)/jit(shmap_body)/select_n" source_file="/global/homes/j/jackm/software/lorrax_C/src/bse/bse_ring_comm.py" source_line=255 scheduling_name="select.685.2"}
  %dynamic-slice.146.2 = c128[64,2,2,240]{3,2,1,0} dynamic-slice(%param_1_0, %constant_1156_10, %select.685.2, %constant_1156_10, %constant_1156_10), dynamic_slice_sizes={64,2,2,240}, metadata={op_name="jit(_full_run)/jit(main)/while/body/jit(_matvec_impl)/jit(shmap_body)/dynamic_slice" source_file="/global/homes/j/jackm/software/lorrax_C/src/bse/bse_ring_comm.py" source_line=255 scheduling_name="dynamic-slice.146.2"}
  %reshape.661 = c128[61440]{0} reshape(%dynamic-slice.146.2), metadata={op_name="jit(_full_run)/jit(main)/while/body/jit(_matvec_impl)/jit(shmap_body)/dynamic_slice" source_file="/global/homes/j/jackm/software/lorrax_C/src/bse/bse_ring_comm.py" source_line=255 scheduling_name="reshape.661"}
  %concatenate.24 = c128[92160]{0} concatenate(%reshape.660, %reshape.661), dimensions={0}, metadata={scheduling_name="concatenate.24"}
  %slice.141 = c128[30720]{0} slice(%concatenate.24), slice={[0:30720]}, metadata={scheduling_name="slice.141"}
  %slice.142 = c128[61440]{0} slice(%concatenate.24), slice={[30720:92160]}, metadata={scheduling_name="slice.142"}
  ROOT %tuple.110 = (c128[30720]{0}, c128[61440]{0}) tuple(%slice.141, %slice.142), metadata={op_name="jit(_full_run)/jit(main)/while/body/jit(_matvec_impl)/jit(shmap_body)/dynamic_slice" source_file="/global/homes/j/jackm/software/lorrax_C/src/bse/bse_ring_comm.py" source_line=255 scheduling_name="tuple.110"}
}

%region_8.1317 (Arg_0.1318: c128[], Arg_1.1319: c128[]) -> c128[] {
  %Arg_1.1319 = c128[] parameter(1), metadata={op_name="jit(_full_run)/jit(main)/while/body/jit(_matvec_impl)/jit(shmap_body)/psum2" scheduling_name="Arg_1.1319"}
  %Arg_0.1318 = c128[] parameter(0), metadata={op_name="jit(_full_run)/jit(main)/while/body/jit(_matvec_impl)/jit(shmap_body)/psum2" scheduling_name="Arg_0.1318"}
  ROOT %add.1342 = c128[] add(%Arg_0.1318, %Arg_1.1319), metadata={op_name="jit(_full_run)/jit(main)/while/body/jit(_matvec_impl)/jit(shmap_body)/add" source_file="/global/homes/j/jackm/software/lorrax_C/src/bse/bse_ring_comm.py" source_line=290 scheduling_name="add.1342"}
}

%scalar_add_computation.clone (scalar_lhs.2: c128[], scalar_rhs.2: c128[]) -> c128[] {
  %scalar_rhs.2 = c128[] parameter(1), metadata={scheduling_name="scalar_rhs.2"}
  %scalar_lhs.2 = c128[] parameter(0), metadata={scheduling_name="scalar_lhs.2"}
  ROOT %add.1354 = c128[] add(%scalar_lhs.2, %scalar_rhs.2), metadata={scheduling_name="add.1354"}
}

%region_13.1540.clone (Arg_0.2: f64[], Arg_1.1: f64[]) -> f64[] {
  %Arg_1.1 = f64[] parameter(1), metadata={op_name="jit(_full_run)/jit(main)/while/body/jit(norm)/reduce_sum" scheduling_name="Arg_1.1"}
  %Arg_0.2 = f64[] parameter(0), metadata={op_name="jit(_full_run)/jit(main)/while/body/jit(norm)/reduce_sum" scheduling_name="Arg_0.2"}
  ROOT %add.1358 = f64[] add(%Arg_0.2, %Arg_1.1), metadata={op_name="jit(_full_run)/jit(main)/while/body/jit(norm)/reduce_sum" source_file="/global/homes/j/jackm/software/lorrax_C/src/solvers/lanczos.py" source_line=277 scheduling_name="add.1358"}
}

%add.1.clone (x.3: c128[], y.3: c128[]) -> c128[] {
  %y.3 = c128[] parameter(1), metadata={scheduling_name="y.3"}
  %x.3 = c128[] parameter(0), metadata={scheduling_name="x.3"}
  ROOT %add.1352 = c128[] add(%x.3, %y.3), metadata={scheduling_name="add.1352"}
}

%async_computation (param_0.818: c128[64,2,4]) -> c128[64,2,2] {
  %param_0.818 = c128[64,2,4]{1,0,2} parameter(0), metadata={scheduling_name="param_0.818"}
  ROOT %reduce-scatter.8.1 = c128[64,2,2]{1,0,2} reduce-scatter(%param_0.818), channel_id=17, replica_groups={{0,1},{2,3}}, use_global_device_ids=true, dimensions={2}, to_apply=%add.1.clone, metadata={scheduling_name="reduce-scatter.8.1"}
}

%add.clone (x.1: c128[], y.1: c128[]) -> c128[] {
  %y.1 = c128[] parameter(1), metadata={scheduling_name="y.1"}
  %x.1 = c128[] parameter(0), metadata={scheduling_name="x.1"}
  ROOT %add.1351 = c128[] add(%x.1, %y.1), metadata={scheduling_name="add.1351"}
}

%async_computation.1 (param_0.819: c128[64,4,2,240], param_1.1024: c128[1,4,2,64]) -> (c128[64,2,2,240], c128[1,2,2,64]) {
  %param_1.1024 = c128[1,4,2,64]{2,0,3,1} parameter(1), metadata={scheduling_name="param_1.1024"}
  %param_0.819 = c128[64,4,2,240]{2,3,0,1} parameter(0), metadata={scheduling_name="param_0.819"}
  ROOT %reduce-scatter.10 = (c128[64,2,2,240]{2,3,0,1}, c128[1,2,2,64]{2,0,3,1}) reduce-scatter(%param_0.819, %param_1.1024), channel_id=16, replica_groups={{0,2},{1,3}}, use_global_device_ids=true, dimensions={1}, to_apply=%add.clone, metadata={scheduling_name="reduce-scatter.10"}
}

%wrapped_transpose_computation.3 (param_0.823: c128[64,4,2,240]) -> c128[64,240,2,4] {
  %param_0.823 = c128[64,4,2,240]{3,2,1,0} parameter(0), metadata={scheduling_name="param_0.823"}
  ROOT %transpose.387.1 = c128[64,240,2,4]{3,2,1,0} transpose(%param_0.823), dimensions={0,3,2,1}, metadata={op_name="jit(_full_run)/jit(main)/while/body/jit(_matvec_impl)/shard_map" source_file="/global/homes/j/jackm/software/lorrax_C/src/bse/bse_ring_comm.py" source_line=445 scheduling_name="transpose.387.1"}
}

%fused_slice.1 (param_0_0: c128[1,2,4,64], param_1_0.1: c128[64,4,2,240]) -> (c128[512], c128[122880]) {
  %param_0_0 = c128[1,2,4,64]{3,1,0,2} parameter(0), metadata={scheduling_name="param_0_0"}
  %bitcast.7082.2 = c128[4,2,64]{2,1,0} bitcast(%param_0_0), metadata={scheduling_name="bitcast.7082.2"}
  %transpose.375.2 = c128[64,2,4]{2,1,0} transpose(%bitcast.7082.2), dimensions={2,1,0}, metadata={scheduling_name="transpose.375.2"}
  %reshape.662 = c128[512]{0} reshape(%transpose.375.2), metadata={scheduling_name="reshape.662"}
  %param_1_0.1 = c128[64,4,2,240]{3,2,1,0} parameter(1), metadata={scheduling_name="param_1_0.1"}
  %real.145.2 = f64[64,4,2,240]{3,2,1,0} real(%param_1_0.1), metadata={op_name="jit(_full_run)/jit(main)/while/body/jit(_matvec_impl)/jit(shmap_body)/real" source_file="/global/homes/j/jackm/software/lorrax_C/src/bse/bse_ring_comm.py" source_line=371 scheduling_name="real.145.2"}
  %imag.122.2 = f64[64,4,2,240]{3,2,1,0} imag(%param_1_0.1), metadata={op_name="jit(_full_run)/jit(main)/while/body/jit(_matvec_impl)/jit(shmap_body)/imag" source_file="/global/homes/j/jackm/software/lorrax_C/src/bse/bse_ring_comm.py" source_line=371 scheduling_name="imag.122.2"}
  %negate.169.2 = f64[64,4,2,240]{3,2,1,0} negate(%imag.122.2), metadata={op_name="jit(_full_run)/jit(main)/while/body/jit(_matvec_impl)/jit(shmap_body)/neg" source_file="/global/homes/j/jackm/software/lorrax_C/src/bse/bse_ring_comm.py" source_line=371 scheduling_name="negate.169.2"}
  %complex.122.2 = c128[64,4,2,240]{3,2,1,0} complex(%real.145.2, %negate.169.2), metadata={op_name="jit(_full_run)/jit(main)/while/body/jit(_matvec_impl)/jit(shmap_body)/complex" source_file="/global/homes/j/jackm/software/lorrax_C/src/bse/bse_ring_comm.py" source_line=371 scheduling_name="complex.122.2"}
  %reshape.663 = c128[122880]{0} reshape(%complex.122.2), metadata={op_name="jit(_full_run)/jit(main)/while/body/jit(_matvec_impl)/jit(shmap_body)/complex" source_file="/global/homes/j/jackm/software/lorrax_C/src/bse/bse_ring_comm.py" source_line=371 scheduling_name="reshape.663"}
  %concatenate.25 = c128[123392]{0} concatenate(%reshape.662, %reshape.663), dimensions={0}, metadata={scheduling_name="concatenate.25"}
  %slice.143 = c128[512]{0} slice(%concatenate.25), slice={[0:512]}, metadata={scheduling_name="slice.143"}
  %slice.144 = c128[122880]{0} slice(%concatenate.25), slice={[512:123392]}, metadata={scheduling_name="slice.144"}
  ROOT %tuple.111 = (c128[512]{0}, c128[122880]{0}) tuple(%slice.143, %slice.144), metadata={op_name="jit(_full_run)/jit(main)/while/body/jit(_matvec_impl)/jit(shmap_body)/complex" source_file="/global/homes/j/jackm/software/lorrax_C/src/bse/bse_ring_comm.py" source_line=371 scheduling_name="tuple.111"}
}

%wrapped_transpose_computation.2 (param_0.822: c128[64,2,480]) -> c128[2,64,480] {
  %param_0.822 = c128[64,2,480]{2,1,0} parameter(0), metadata={scheduling_name="param_0.822"}
  ROOT %transpose.376.1 = c128[2,64,480]{2,1,0} transpose(%param_0.822), dimensions={1,0,2}, metadata={op_name="jit(_full_run)/jit(main)/while/body/jit(_matvec_impl)/jit(shmap_body)/kvsN,bcvk->bcksN/dot_general" source_file="/global/homes/j/jackm/software/lorrax_C/src/bse/bse_ring_comm.py" source_line=371 scheduling_name="transpose.376.1"}
}

%command_buffer.2 (p.6: c128[1,2,4,64], p.7: c128[64,4,2,240], p.8: s64[]) -> (s64[], s64[], c128[2,64,480]) {
  %p.6 = c128[1,2,4,64]{3,1,0,2} parameter(0)
  %p.7 = c128[64,4,2,240]{3,2,1,0} parameter(1)
  %p.8 = s64[] parameter(2)
  %input_slice_fusion.1 = (c128[512]{0}, c128[122880]{0}) fusion(%p.6, %p.7), kind=kInput, calls=%fused_slice.1, metadata={op_name="jit(_full_run)/jit(main)/while/body/jit(_matvec_impl)/jit(shmap_body)/complex" source_file="/global/homes/j/jackm/software/lorrax_C/src/bse/bse_ring_comm.py" source_line=371 scheduling_name="input_slice_fusion.1"}
  %copy.165 = s64[] copy(%p.8)
  %get-tuple-element.492 = c128[122880]{0} get-tuple-element(%input_slice_fusion.1), index=1, metadata={scheduling_name="get-tuple-element.492"}
  %bitcast.7094.0 = c128[64,4,480]{2,1,0} bitcast(%get-tuple-element.492), metadata={scheduling_name="bitcast.7094.0"}
  %get-tuple-element.491 = c128[512]{0} get-tuple-element(%input_slice_fusion.1), index=0, metadata={scheduling_name="get-tuple-element.491"}
  %bitcast.9944 = c128[64,2,4]{2,1,0} bitcast(%get-tuple-element.491), metadata={scheduling_name="bitcast.9944"}
  %custom-call.269.0 = (c128[64,2,480]{2,1,0}, s8[1974272]{0}) custom-call(%bitcast.9944, %bitcast.7094.0), custom_call_target="__cublas$gemm", metadata={op_name="jit(_full_run)/jit(main)/while/body/jit(_matvec_impl)/jit(shmap_body)/kvsN,bcvk->bcksN/dot_general" source_file="/global/homes/j/jackm/software/lorrax_C/src/bse/bse_ring_comm.py" source_line=371 scheduling_name="custom-call.269.0"}, backend_config={"operation_queue_id":"0","wait_on_operation_queues":[],"gemm_backend_config":{"alpha_real":1,"alpha_imag":0,"beta":0,"dot_dimension_numbers":{"lhs_contracting_dimensions":["2"],"rhs_contracting_dimensions":["1"],"lhs_batch_dimensions":["0"],"rhs_batch_dimensions":["0"]},"precision_config":{"operand_precision":["DEFAULT","DEFAULT"],"algorithm":"ALG_UNSET"},"epilogue":"DEFAULT","damax_output":false,"lhs_stride":"8","rhs_stride":"1920","grad_x":false,"grad_y":false},"force_earliest_schedule":false}
  %copy.113 = s64[] copy(%copy.165), metadata={scheduling_name="copy.113"}
  %get-tuple-element.473.0 = c128[64,2,480]{2,1,0} get-tuple-element(%custom-call.269.0), index=0, metadata={op_name="jit(_full_run)/jit(main)/while/body/jit(_matvec_impl)/jit(shmap_body)/kvsN,bcvk->bcksN/dot_general" source_file="/global/homes/j/jackm/software/lorrax_C/src/bse/bse_ring_comm.py" source_line=371 scheduling_name="get-tuple-element.473.0"}
  %wrapped_transpose.2 = c128[2,64,480]{2,1,0} fusion(%get-tuple-element.473.0), kind=kLoop, calls=%wrapped_transpose_computation.2, metadata={op_name="jit(_full_run)/jit(main)/while/body/jit(_matvec_impl)/jit(shmap_body)/kvsN,bcvk->bcksN/dot_general" source_file="/global/homes/j/jackm/software/lorrax_C/src/bse/bse_ring_comm.py" source_line=371 scheduling_name="wrapped_transpose.2"}
  ROOT %tuple.130 = (s64[], s64[], c128[2,64,480]{2,1,0}) tuple(%copy.165, %copy.113, %wrapped_transpose.2)
}

%region_2.1649.clone.clone.clone_spmd (param.15.0: (s64[], c128[512,200], f64[200], f64[200], c128[512], /*index=5*/c128[64,4,2,240], c128[64,4,2,240], c128[64,4,2,240], c128[64,4,2,240], f64[64,4], /*index=10*/f64[64,4], c128[240,240,4,4,4], c128[240,240])) -> (s64[], c128[512,200], f64[200], f64[200], c128[512], /*index=5*/c128[64,4,2,240], c128[64,4,2,240], c128[64,4,2,240], c128[64,4,2,240], f64[64,4], /*index=10*/f64[64,4], c128[240,240,4,4,4], c128[240,240]) {
  %param.15.0 = (s64[], c128[512,200]{1,0}, f64[200]{0}, f64[200]{0}, c128[512]{0}, /*index=5*/c128[64,4,2,240]{1,2,3,0}, c128[64,4,2,240]{3,2,1,0}, c128[64,4,2,240]{2,1,3,0}, c128[64,4,2,240]{3,2,1,0}, f64[64,4]{0,1}, /*index=10*/f64[64,4]{1,0}, c128[240,240,4,4,4]{4,3,2,1,0}, c128[240,240]{1,0}) parameter(0), metadata={scheduling_name="param.15.0"}
  %constant_1179_0 = s32[4]{0} constant({0, 2, 0, 2}), metadata={op_name="jit(_full_run)/jit(main)/while/body/reshape" source_file="/global/homes/j/jackm/software/lorrax_C/src/bse/bse_lanczos.py" source_line=191}
  %constant_1160_0 = s64[] constant(0)
  %constant_1166_0 = u32[4]{0} constant({0, 0, 1, 1}), metadata={op_name="jit(_full_run)/jit(main)/while/body/jit(_matvec_impl)/jit(_apply_D_term)/transpose" source_file="/global/homes/j/jackm/software/lorrax_C/src/bse/bse_ring_comm.py" source_line=434}
  %constant_1169_0 = u32[4]{0} constant({0, 1, 0, 1}), metadata={op_name="jit(_full_run)/jit(main)/while/body/jit(_matvec_impl)/jit(_apply_D_term)/transpose" source_file="/global/homes/j/jackm/software/lorrax_C/src/bse/bse_ring_comm.py" source_line=434}
  %partition-id.19.0 = u32[] partition-id(), metadata={scheduling_name="partition-id.19.0"}
  %get-tuple-element.556 = c128[512]{0} get-tuple-element(%param.15.0), index=4, metadata={scheduling_name="get-tuple-element.556"}
  %loop_transpose_fusion.8 = (c128[64,4]{1,0}, c128[2,2,64]{2,1,0}) fusion(%get-tuple-element.556, %constant_1179_0, %partition-id.19.0), kind=kLoop, calls=%fused_transpose.10, metadata={scheduling_name="loop_transpose_fusion.8"}
  %get-tuple-element.482 = c128[2,2,64]{2,1,0} get-tuple-element(%loop_transpose_fusion.8), index=1, metadata={scheduling_name="get-tuple-element.482"}
  %bitcast.7079.0 = c128[1,2,2,64]{3,1,0,2} bitcast(%get-tuple-element.482), metadata={scheduling_name="bitcast.7079.0"}
  %all-gather-start = (c128[1,2,2,64]{3,1,0,2}, c128[1,2,4,64]{3,1,0,2}) all-gather-start(%bitcast.7079.0), channel_id=5, replica_groups={{0,1},{2,3}}, dimensions={2}, use_global_device_ids=true, metadata={op_name="jit(_full_run)/jit(main)/while/body/jit(_matvec_impl)/jit(shmap_body)/all_gather" source_file="/global/homes/j/jackm/software/lorrax_C/src/bse/bse_ring_comm.py" source_line=370 scheduling_name="all-gather-start"}, backend_config={"operation_queue_id":"0","wait_on_operation_queues":[],"collective_backend_config":{"is_sync":false,"no_parallel_custom_call":true,"is_pipelined":false,"reification_cost":[]},"force_earliest_schedule":false}
  %get-tuple-element.571 = c128[64,4,2,240]{3,2,1,0} get-tuple-element(%param.15.0), index=6, metadata={op_name="jit(_full_run)/jit(main)/while/body/pjit" source_file="/global/homes/j/jackm/software/lorrax_C/src/bse/bse_lanczos.py" source_line=193 scheduling_name="get-tuple-element.571"}
  %input_slice_fusion = (c128[30720]{0}, c128[61440]{0}) fusion(%get-tuple-element.571, %partition-id.19.0), kind=kInput, calls=%fused_slice, metadata={op_name="jit(_full_run)/jit(main)/while/body/jit(_matvec_impl)/jit(shmap_body)/dynamic_slice" source_file="/global/homes/j/jackm/software/lorrax_C/src/bse/bse_ring_comm.py" source_line=255 scheduling_name="input_slice_fusion"}
  %loop_convert_fusion = s32[] fusion(%partition-id.19.0), kind=kLoop, calls=%fused_convert, metadata={op_name="jit(_full_run)/jit(main)/while/body/jit(_matvec_impl)/jit(shmap_body)/axis_index" source_file="/global/homes/j/jackm/software/lorrax_C/src/bse/bse_ring_comm.py" source_line=246 scheduling_name="loop_convert_fusion"}
  %all-gather-done = c128[1,2,4,64]{3,1,0,2} all-gather-done(%all-gather-start), metadata={op_name="jit(_full_run)/jit(main)/while/body/jit(_matvec_impl)/jit(shmap_body)/all_gather" source_file="/global/homes/j/jackm/software/lorrax_C/src/bse/bse_ring_comm.py" source_line=370 scheduling_name="all-gather-done"}
  %get-tuple-element.573 = c128[64,4,2,240]{3,2,1,0} get-tuple-element(%param.15.0), index=8, metadata={op_name="jit(_full_run)/jit(main)/while/body/pjit" source_file="/global/homes/j/jackm/software/lorrax_C/src/bse/bse_lanczos.py" source_line=193 scheduling_name="get-tuple-element.573"}
  %call.5 = (s64[], s64[], c128[2,64,480]{2,1,0}) call(%all-gather-done, %get-tuple-element.573, %constant_1160_0), to_apply=%command_buffer.2
  %get-tuple-element.591 = s64[] get-tuple-element(%call.5), index=0
  %get-tuple-element.592 = s64[] get-tuple-element(%call.5), index=1
  %get-tuple-element.593 = c128[2,64,480]{2,1,0} get-tuple-element(%call.5), index=2
  %get-tuple-element.481 = c128[64,4]{1,0} get-tuple-element(%loop_transpose_fusion.8), index=0, metadata={scheduling_name="get-tuple-element.481"}
  %bitcast.6961.0 = c128[1,2,2,64]{2,1,3,0} bitcast(%get-tuple-element.481), metadata={scheduling_name="bitcast.6961.0"}
  %get-tuple-element.489 = c128[30720]{0} get-tuple-element(%input_slice_fusion), index=0, metadata={scheduling_name="get-tuple-element.489"}
  %bitcast.9942 = c128[1,2,240,64]{3,2,1,0} bitcast(%get-tuple-element.489), metadata={scheduling_name="bitcast.9942"}
  %get-tuple-element.490 = c128[61440]{0} get-tuple-element(%input_slice_fusion), index=1, metadata={scheduling_name="get-tuple-element.490"}
  %bitcast.9943 = c128[64,2,2,240]{3,2,1,0} bitcast(%get-tuple-element.490), metadata={op_name="jit(_full_run)/jit(main)/while/body/jit(_matvec_impl)/jit(shmap_body)/dynamic_slice" source_file="/global/homes/j/jackm/software/lorrax_C/src/bse/bse_ring_comm.py" source_line=255 scheduling_name="bitcast.9943"}
  %tuple.113 = (s64[], c128[1,2,2,64]{2,1,3,0}, c128[1,2,240,64]{3,2,1,0}, s32[], c128[64,4,2,240]{3,2,1,0}, /*index=5*/c128[64,2,2,240]{3,2,1,0}) tuple(%get-tuple-element.592, %bitcast.6961.0, %bitcast.9942, %loop_convert_fusion, %get-tuple-element.573, /*index=5*/%bitcast.9943), metadata={scheduling_name="tuple.113"}
  %while.25.0 = (s64[], c128[1,2,2,64]{2,1,3,0}, c128[1,2,240,64]{3,2,1,0}, s32[], c128[64,4,2,240]{3,2,1,0}, /*index=5*/c128[64,2,2,240]{3,2,1,0}) while(%tuple.113), condition=%region_4.1276.clone.clone.1_spmd, body=%region_3.1259.clone.clone.clone.1_spmd, metadata={op_name="jit(_full_run)/jit(main)/while/body/jit(_matvec_impl)/jit(shmap_body)/while" source_file="/global/homes/j/jackm/software/lorrax_C/src/bse/bse_ring_comm.py" source_line=274 scheduling_name="while.25.0"}, backend_config={"known_trip_count":{"n":"2"},"known_init_step":{"init":"0","step":"1"},"known_induction_variable":{"tuple_index":"0"}}
  %bitcast.7099.0 = c128[1,2,64,2,240]{4,3,0,2,1} bitcast(%get-tuple-element.593), metadata={scheduling_name="bitcast.7099.0"}
  %all-gather-start.1 = (c128[1,2,64,2,240]{4,3,0,2,1}, c128[1,4,64,2,240]{4,3,0,2,1}) all-gather-start(%bitcast.7099.0), channel_id=6, replica_groups={{0,2},{1,3}}, dimensions={1}, use_global_device_ids=true, metadata={op_name="jit(_full_run)/jit(main)/while/body/jit(_matvec_impl)/jit(shmap_body)/all_gather" source_file="/global/homes/j/jackm/software/lorrax_C/src/bse/bse_ring_comm.py" source_line=372 scheduling_name="all-gather-start.1"}, backend_config={"operation_queue_id":"0","wait_on_operation_queues":[],"collective_backend_config":{"is_sync":false,"no_parallel_custom_call":true,"is_pipelined":false,"reification_cost":[]},"force_earliest_schedule":false}
  %loop_broadcast_fusion = c128[1,240,64]{2,1,0} fusion(), kind=kLoop, calls=%fused_broadcast, metadata={scheduling_name="loop_broadcast_fusion"}
  %get-tuple-element.570 = c128[64,4,2,240]{1,2,3,0} get-tuple-element(%param.15.0), index=5, metadata={op_name="jit(_full_run)/jit(main)/while/body/pjit" source_file="/global/homes/j/jackm/software/lorrax_C/src/bse/bse_lanczos.py" source_line=193 scheduling_name="get-tuple-element.570"}
  %loop_complex_transpose_fusion = (c128[64,4,2,240]{3,2,1,0}, c128[64,240,2,4]{3,2,1,0}, c128[64,2,240,4]{3,2,1,0}) fusion(%get-tuple-element.570), kind=kLoop, calls=%fused_complex_transpose, metadata={op_name="jit(_full_run)/jit(main)/while/body/pjit" source_file="/global/homes/j/jackm/software/lorrax_C/src/bse/bse_lanczos.py" source_line=193 scheduling_name="loop_complex_transpose_fusion"}
  %all-gather-done.1 = c128[1,4,64,2,240]{4,3,0,2,1} all-gather-done(%all-gather-start.1), metadata={op_name="jit(_full_run)/jit(main)/while/body/jit(_matvec_impl)/jit(shmap_body)/all_gather" source_file="/global/homes/j/jackm/software/lorrax_C/src/bse/bse_ring_comm.py" source_line=372 scheduling_name="all-gather-done.1"}
  %bitcast.7103.0 = c128[4,64,480]{2,1,0} bitcast(%all-gather-done.1), metadata={scheduling_name="bitcast.7103.0"}
  %get-tuple-element.478 = c128[64,4,2,240]{3,2,1,0} get-tuple-element(%loop_complex_transpose_fusion), index=0, metadata={op_name="jit(_full_run)/jit(main)/while/body/pjit" source_file="/global/homes/j/jackm/software/lorrax_C/src/bse/bse_lanczos.py" source_line=193 scheduling_name="get-tuple-element.478"}
  %bitcast.7108.0 = c128[64,4,480]{2,1,0} bitcast(%get-tuple-element.478), metadata={scheduling_name="bitcast.7108.0"}
  %custom-call.270.0 = (c128[64,480,480]{2,1,0}, s8[3932160]{0}) custom-call(%bitcast.7103.0, %bitcast.7108.0), custom_call_target="__cublas$gemm", metadata={op_name="jit(_full_run)/jit(main)/while/body/jit(_matvec_impl)/jit(shmap_body)/kctM,bcksN->bMNtsk/dot_general" source_file="/global/homes/j/jackm/software/lorrax_C/src/bse/bse_ring_comm.py" source_line=373 scheduling_name="custom-call.270.0"}, backend_config={"operation_queue_id":"0","wait_on_operation_queues":[],"gemm_backend_config":{"alpha_real":1,"alpha_imag":0,"beta":0,"dot_dimension_numbers":{"lhs_contracting_dimensions":["0"],"rhs_contracting_dimensions":["1"],"lhs_batch_dimensions":["1"],"rhs_batch_dimensions":["0"]},"precision_config":{"operand_precision":["DEFAULT","DEFAULT"],"algorithm":"ALG_UNSET"},"epilogue":"DEFAULT","damax_output":false,"lhs_stride":"30720","rhs_stride":"1920","grad_x":false,"grad_y":false},"force_earliest_schedule":false}
  %get-tuple-element.516 = c128[1,2,240,64]{3,2,1,0} get-tuple-element(%while.25.0), index=2, metadata={op_name="jit(_full_run)/jit(main)/while/body/jit(_matvec_impl)/jit(shmap_body)/while" source_file="/global/homes/j/jackm/software/lorrax_C/src/bse/bse_ring_comm.py" source_line=274 scheduling_name="get-tuple-element.516"}
  %tuple.116 = (s64[], c128[1,2,240,64]{3,2,1,0}, c128[1,240,64]{2,1,0}) tuple(%get-tuple-element.591, %get-tuple-element.516, %loop_broadcast_fusion), metadata={scheduling_name="tuple.116"}
  %while.26.0 = (s64[], c128[1,2,240,64]{3,2,1,0}, c128[1,240,64]{2,1,0}) while(%tuple.116), condition=%region_7.1310_spmd, body=%region_5.1299_spmd, metadata={op_name="jit(_full_run)/jit(main)/while/body/jit(_matvec_impl)/jit(shmap_body)/while" source_file="/global/homes/j/jackm/software/lorrax_C/src/bse/bse_ring_comm.py" source_line=285 scheduling_name="while.26.0"}, backend_config={"known_trip_count":{"n":"2"},"known_init_step":{"init":"0","step":"1"},"known_induction_variable":{"tuple_index":"0"}}
  %get-tuple-element.474.0 = c128[64,480,480]{2,1,0} get-tuple-element(%custom-call.270.0), index=0, metadata={op_name="jit(_full_run)/jit(main)/while/body/jit(_matvec_impl)/jit(shmap_body)/kctM,bcksN->bMNtsk/dot_general" source_file="/global/homes/j/jackm/software/lorrax_C/src/bse/bse_ring_comm.py" source_line=373 scheduling_name="get-tuple-element.474.0"}
  %loop_transpose_fusion.7 = c128[240,480,2,16,4]{4,3,2,1,0} fusion(%get-tuple-element.474.0), kind=kLoop, calls=%fused_transpose.9, metadata={op_name="jit(_full_run)/jit(main)/while/body/jit(_matvec_impl)/jit(_apply_W_from_T)/custom_partitioning" source_file="/global/homes/j/jackm/software/lorrax_C/src/common/fft_helpers.py" source_line=259 scheduling_name="loop_transpose_fusion.7"}
  %get-tuple-element.431.0 = c128[1,240,64]{2,1,0} get-tuple-element(%while.26.0), index=2, metadata={op_name="jit(_full_run)/jit(main)/while/body/jit(_matvec_impl)/jit(shmap_body)/while" source_file="/global/homes/j/jackm/software/lorrax_C/src/bse/bse_ring_comm.py" source_line=285 scheduling_name="get-tuple-element.431.0"}
  %loop_multiply_fusion.2 = c128[1,240,64]{2,1,0} fusion(%get-tuple-element.431.0), kind=kLoop, calls=%fused_multiply.2, metadata={op_name="jit(_full_run)/jit(main)/while/body/jit(_matvec_impl)/jit(shmap_body)/div" source_file="/global/homes/j/jackm/software/lorrax_C/src/bse/bse_ring_comm.py" source_line=287 scheduling_name="loop_multiply_fusion.2"}
  %bitcast.7121.0 = c128[1,240,240,2,2,4,4,4]{7,6,5,4,3,2,1,0} bitcast(%loop_transpose_fusion.7), metadata={scheduling_name="bitcast.7121.0"}
  %fft.0.0 = c128[1,240,240,2,2,4,4,4]{7,6,5,4,3,2,1,0} fft(%bitcast.7121.0), fft_type=FFT, fft_length={4}, metadata={op_name="jit(_full_run)/jit(main)/while/body/jit(_matvec_impl)/jit(_apply_W_from_T)/custom_partitioning" source_file="/global/homes/j/jackm/software/lorrax_C/src/common/fft_helpers.py" source_line=259 scheduling_name="fft.0.0"}
  %loop_transpose_fusion.6 = c128[230400,4,4,4]{3,2,1,0} fusion(%fft.0.0), kind=kLoop, calls=%fused_transpose.8, metadata={op_name="jit(_full_run)/jit(main)/while/body/jit(_matvec_impl)/jit(_apply_W_from_T)/custom_partitioning" source_file="/global/homes/j/jackm/software/lorrax_C/src/common/fft_helpers.py" source_line=259 scheduling_name="loop_transpose_fusion.6"}
  %bitcast.7004.0 = c128[240,64]{1,0} bitcast(%loop_multiply_fusion.2), metadata={scheduling_name="bitcast.7004.0"}
  %get-tuple-element.577 = c128[240,240]{1,0} get-tuple-element(%param.15.0), index=12, metadata={op_name="jit(_full_run)/jit(main)/while/body/pjit" source_file="/global/homes/j/jackm/software/lorrax_C/src/bse/bse_lanczos.py" source_line=193 scheduling_name="get-tuple-element.577"}
  %custom-call.267.0 = (c128[64,240]{1,0}, s8[1167360]{0}) custom-call(%bitcast.7004.0, %get-tuple-element.577), custom_call_target="__cublas$gemm", metadata={op_name="jit(_full_run)/jit(main)/while/body/jit(_matvec_impl)/jit(shmap_body)/MN,bNk->bMk/dot_general" source_file="/global/homes/j/jackm/software/lorrax_C/src/bse/bse_ring_comm.py" source_line=289 scheduling_name="custom-call.267.0"}, backend_config={"operation_queue_id":"0","wait_on_operation_queues":[],"gemm_backend_config":{"alpha_real":1,"alpha_imag":0,"beta":0,"dot_dimension_numbers":{"lhs_contracting_dimensions":["0"],"rhs_contracting_dimensions":["1"],"lhs_batch_dimensions":[],"rhs_batch_dimensions":[]},"precision_config":{"operand_precision":["DEFAULT","DEFAULT"],"algorithm":"ALG_UNSET"},"epilogue":"DEFAULT","damax_output":false,"lhs_stride":"15360","rhs_stride":"57600","grad_x":false,"grad_y":false},"force_earliest_schedule":false}
  %bitcast.7143.0 = c128[1,240,240,2,2,4,4,4]{7,6,5,4,3,2,1,0} bitcast(%loop_transpose_fusion.6), metadata={scheduling_name="bitcast.7143.0"}
  %fft.1.0 = c128[1,240,240,2,2,4,4,4]{7,6,5,4,3,2,1,0} fft(%bitcast.7143.0), fft_type=FFT, fft_length={4}, metadata={op_name="jit(_full_run)/jit(main)/while/body/jit(_matvec_impl)/jit(_apply_W_from_T)/custom_partitioning" source_file="/global/homes/j/jackm/software/lorrax_C/src/common/fft_helpers.py" source_line=259 scheduling_name="fft.1.0"}
  %loop_transpose_fusion.5 = c128[921600,4,4]{2,1,0} fusion(%fft.1.0), kind=kLoop, calls=%fused_transpose.7, metadata={op_name="jit(_full_run)/jit(main)/while/body/jit(_matvec_impl)/jit(_apply_W_from_T)/custom_partitioning" source_file="/global/homes/j/jackm/software/lorrax_C/src/common/fft_helpers.py" source_line=259 scheduling_name="loop_transpose_fusion.5"}
  %get-tuple-element.471.0 = c128[64,240]{1,0} get-tuple-element(%custom-call.267.0), index=0, metadata={op_name="jit(_full_run)/jit(main)/while/body/jit(_matvec_impl)/jit(shmap_body)/MN,bNk->bMk/dot_general" source_file="/global/homes/j/jackm/software/lorrax_C/src/bse/bse_ring_comm.py" source_line=289 scheduling_name="get-tuple-element.471.0"}
  %bitcast.7010.0 = c128[1,240,64]{1,2,0} bitcast(%get-tuple-element.471.0), metadata={scheduling_name="bitcast.7010.0"}
  %all-reduce-start.1 = c128[1,240,64]{1,2,0} all-reduce-start(%bitcast.7010.0), channel_id=3, replica_groups={{0,1},{2,3}}, use_global_device_ids=true, to_apply=%region_8.1317, metadata={op_name="jit(_full_run)/jit(main)/while/body/jit(_matvec_impl)/jit(shmap_body)/psum2" source_file="/global/homes/j/jackm/software/lorrax_C/src/bse/bse_ring_comm.py" source_line=290 scheduling_name="all-reduce-start.1"}, backend_config={"operation_queue_id":"0","wait_on_operation_queues":[],"collective_backend_config":{"is_sync":false,"no_parallel_custom_call":false,"is_pipelined":false,"reification_cost":[]},"force_earliest_schedule":false}
  %bitcast.7166.0 = c128[1,240,240,2,2,4,4,4]{7,6,5,4,3,2,1,0} bitcast(%loop_transpose_fusion.5), metadata={scheduling_name="bitcast.7166.0"}
  %fft.2.0 = c128[1,240,240,2,2,4,4,4]{7,6,5,4,3,2,1,0} fft(%bitcast.7166.0), fft_type=FFT, fft_length={4}, metadata={op_name="jit(_full_run)/jit(main)/while/body/jit(_matvec_impl)/jit(_apply_W_from_T)/custom_partitioning" source_file="/global/homes/j/jackm/software/lorrax_C/src/common/fft_helpers.py" source_line=259 scheduling_name="fft.2.0"}
  %get-tuple-element.576 = c128[240,240,4,4,4]{4,3,2,1,0} get-tuple-element(%param.15.0), index=11, metadata={op_name="jit(_full_run)/jit(main)/while/body/pjit" source_file="/global/homes/j/jackm/software/lorrax_C/src/bse/bse_lanczos.py" source_line=193 scheduling_name="get-tuple-element.576"}
  %loop_multiply_fusion = c128[1,240,240,2,2,4,4,4]{7,6,5,4,3,2,1,0} fusion(%fft.2.0, %get-tuple-element.576), kind=kLoop, calls=%fused_multiply, metadata={op_name="jit(_full_run)/jit(main)/while/body/jit(_matvec_impl)/jit(_apply_W_from_T)/mul" source_file="/global/homes/j/jackm/software/lorrax_C/src/bse/bse_ring_comm.py" source_line=418 scheduling_name="loop_multiply_fusion"}
  %loop_transpose_fusion.4 = c128[230400,16,4]{2,1,0} fusion(%loop_multiply_fusion), kind=kLoop, calls=%fused_transpose.6, metadata={op_name="jit(_full_run)/jit(main)/while/body/jit(_matvec_impl)/jit(_apply_W_from_T)/custom_partitioning" source_file="/global/homes/j/jackm/software/lorrax_C/src/common/fft_helpers.py" source_line=259 scheduling_name="loop_transpose_fusion.4"}
  %bitcast.7187.0 = c128[1,240,240,2,2,4,4,4]{7,6,5,4,3,2,1,0} bitcast(%loop_transpose_fusion.4), metadata={scheduling_name="bitcast.7187.0"}
  %fft.3.0 = c128[1,240,240,2,2,4,4,4]{7,6,5,4,3,2,1,0} fft(%bitcast.7187.0), fft_type=FFT, fft_length={4}, metadata={op_name="jit(_full_run)/jit(main)/while/body/jit(_matvec_impl)/jit(_apply_W_from_T)/custom_partitioning" source_file="/global/homes/j/jackm/software/lorrax_C/src/common/fft_helpers.py" source_line=259 scheduling_name="fft.3.0"}
  %loop_transpose_fusion.3 = c128[230400,4,4,4]{3,2,1,0} fusion(%fft.3.0), kind=kLoop, calls=%fused_transpose.5, metadata={op_name="jit(_full_run)/jit(main)/while/body/jit(_matvec_impl)/jit(_apply_W_from_T)/custom_partitioning" source_file="/global/homes/j/jackm/software/lorrax_C/src/common/fft_helpers.py" source_line=259 scheduling_name="loop_transpose_fusion.3"}
  %get-tuple-element.572 = c128[64,4,2,240]{2,1,3,0} get-tuple-element(%param.15.0), index=7, metadata={op_name="jit(_full_run)/jit(main)/while/body/pjit" source_file="/global/homes/j/jackm/software/lorrax_C/src/bse/bse_lanczos.py" source_line=193 scheduling_name="get-tuple-element.572"}
  %loop_dynamic_slice_fusion.1 = c128[64,240,2,2]{3,2,1,0} fusion(%get-tuple-element.572, %loop_convert_fusion), kind=kLoop, calls=%fused_dynamic_slice.1, metadata={op_name="jit(_full_run)/jit(main)/while/body/jit(_matvec_impl)/jit(shmap_body)/dynamic_slice" source_file="/global/homes/j/jackm/software/lorrax_C/src/bse/bse_ring_comm.py" source_line=293 scheduling_name="loop_dynamic_slice_fusion.1"}
  %bitcast.7198.0 = c128[1,240,240,2,2,4,4,4]{7,6,5,4,3,2,1,0} bitcast(%loop_transpose_fusion.3), metadata={scheduling_name="bitcast.7198.0"}
  %fft.4.0 = c128[1,240,240,2,2,4,4,4]{7,6,5,4,3,2,1,0} fft(%bitcast.7198.0), fft_type=FFT, fft_length={4}, metadata={op_name="jit(_full_run)/jit(main)/while/body/jit(_matvec_impl)/jit(_apply_W_from_T)/custom_partitioning" source_file="/global/homes/j/jackm/software/lorrax_C/src/common/fft_helpers.py" source_line=259 scheduling_name="fft.4.0"}
  %loop_transpose_fusion.2 = c128[921600,4,4]{2,1,0} fusion(%fft.4.0), kind=kLoop, calls=%fused_transpose.4, metadata={op_name="jit(_full_run)/jit(main)/while/body/jit(_matvec_impl)/jit(_apply_W_from_T)/custom_partitioning" source_file="/global/homes/j/jackm/software/lorrax_C/src/common/fft_helpers.py" source_line=259 scheduling_name="loop_transpose_fusion.2"}
  %bitcast.7038.0 = c128[15360,2,2]{2,1,0} bitcast(%loop_dynamic_slice_fusion.1), metadata={scheduling_name="bitcast.7038.0"}
  %get-tuple-element.479 = c128[64,240,2,4]{3,2,1,0} get-tuple-element(%loop_complex_transpose_fusion), index=1, metadata={op_name="jit(_full_run)/jit(main)/while/body/pjit" source_file="/global/homes/j/jackm/software/lorrax_C/src/bse/bse_lanczos.py" source_line=193 scheduling_name="get-tuple-element.479"}
  %bitcast.7050.0 = c128[15360,2,4]{2,1,0} bitcast(%get-tuple-element.479), metadata={scheduling_name="bitcast.7050.0"}
  %custom-call.268.0 = (c128[15360,2,4]{2,1,0}, s8[2949120]{0}) custom-call(%bitcast.7038.0, %bitcast.7050.0), custom_call_target="__cublas$gemm", metadata={op_name="jit(_full_run)/jit(main)/while/body/jit(_matvec_impl)/jit(shmap_body)/kcsm,kvsm->kcvm/dot_general" source_file="/global/homes/j/jackm/software/lorrax_C/src/bse/bse_ring_comm.py" source_line=296 scheduling_name="custom-call.268.0"}, backend_config={"operation_queue_id":"0","wait_on_operation_queues":[],"gemm_backend_config":{"alpha_real":1,"alpha_imag":0,"beta":0,"dot_dimension_numbers":{"lhs_contracting_dimensions":["2"],"rhs_contracting_dimensions":["1"],"lhs_batch_dimensions":["0"],"rhs_batch_dimensions":["0"]},"precision_config":{"operand_precision":["DEFAULT","DEFAULT"],"algorithm":"ALG_UNSET"},"epilogue":"DEFAULT","damax_output":false,"lhs_stride":"4","rhs_stride":"8","grad_x":false,"grad_y":false},"force_earliest_schedule":false}
  %bitcast.7209.0 = c128[1,240,240,2,2,4,4,4]{7,6,5,4,3,2,1,0} bitcast(%loop_transpose_fusion.2), metadata={scheduling_name="bitcast.7209.0"}
  %fft.5.0 = c128[1,240,240,2,2,4,4,4]{7,6,5,4,3,2,1,0} fft(%bitcast.7209.0), fft_type=FFT, fft_length={4}, metadata={op_name="jit(_full_run)/jit(main)/while/body/jit(_matvec_impl)/jit(_apply_W_from_T)/custom_partitioning" source_file="/global/homes/j/jackm/software/lorrax_C/src/common/fft_helpers.py" source_line=259 scheduling_name="fft.5.0"}
  %input_transpose_fusion.1 = c128[64,240,2,2,240]{4,3,2,1,0} fusion(%fft.5.0), kind=kInput, calls=%fused_transpose.3, metadata={scheduling_name="input_transpose_fusion.1"}
  %all-reduce-done.1 = c128[1,240,64]{1,2,0} all-reduce-done(%all-reduce-start.1), metadata={op_name="jit(_full_run)/jit(main)/while/body/jit(_matvec_impl)/jit(shmap_body)/psum2" source_file="/global/homes/j/jackm/software/lorrax_C/src/bse/bse_ring_comm.py" source_line=290 scheduling_name="all-reduce-done.1"}
  %get-tuple-element.472.0 = c128[15360,2,4]{2,1,0} get-tuple-element(%custom-call.268.0), index=0, metadata={op_name="jit(_full_run)/jit(main)/while/body/jit(_matvec_impl)/jit(shmap_body)/kcsm,kvsm->kcvm/dot_general" source_file="/global/homes/j/jackm/software/lorrax_C/src/bse/bse_ring_comm.py" source_line=296 scheduling_name="get-tuple-element.472.0"}
  %loop_multiply_fusion.1 = c128[64,240,2,4]{3,2,1,0} fusion(%all-reduce-done.1, %get-tuple-element.472.0), kind=kLoop, calls=%fused_multiply.1, metadata={scheduling_name="loop_multiply_fusion.1"}
  %bitcast.7220.0 = c128[64,480,480]{2,1,0} bitcast(%input_transpose_fusion.1), metadata={scheduling_name="bitcast.7220.0"}
  %get-tuple-element.480 = c128[64,2,240,4]{3,2,1,0} get-tuple-element(%loop_complex_transpose_fusion), index=2, metadata={op_name="jit(_full_run)/jit(main)/while/body/pjit" source_file="/global/homes/j/jackm/software/lorrax_C/src/bse/bse_lanczos.py" source_line=193 scheduling_name="get-tuple-element.480"}
  %bitcast.7225.0 = c128[64,480,4]{2,1,0} bitcast(%get-tuple-element.480), metadata={scheduling_name="bitcast.7225.0"}
  %custom-call.271.0 = (c128[64,480,4]{2,1,0}, s8[4194304]{0}) custom-call(%bitcast.7220.0, %bitcast.7225.0), custom_call_target="__cublas$gemm", metadata={op_name="jit(_full_run)/jit(main)/while/body/jit(_matvec_impl)/jit(_apply_W_from_T)/kctM,bMNtsk->bcNsk/dot_general" source_file="/global/homes/j/jackm/software/lorrax_C/src/bse/bse_ring_comm.py" source_line=422 scheduling_name="custom-call.271.0"}, backend_config={"operation_queue_id":"0","wait_on_operation_queues":[],"gemm_backend_config":{"alpha_real":1,"alpha_imag":0,"beta":0,"dot_dimension_numbers":{"lhs_contracting_dimensions":["2"],"rhs_contracting_dimensions":["1"],"lhs_batch_dimensions":["0"],"rhs_batch_dimensions":["0"]},"precision_config":{"operand_precision":["DEFAULT","DEFAULT"],"algorithm":"ALG_UNSET"},"epilogue":"DEFAULT","damax_output":false,"lhs_stride":"230400","rhs_stride":"1920","grad_x":false,"grad_y":false},"force_earliest_schedule":false}
  %input_reduce_fusion.4 = c128[64,2,4]{1,0,2} fusion(%loop_multiply_fusion.1), kind=kInput, calls=%fused_reduce.4, metadata={op_name="jit(_full_run)/jit(main)/while/body/jit(_matvec_impl)/jit(shmap_body)/kcvM,bMk->bcvk/dot_general" source_file="/global/homes/j/jackm/software/lorrax_C/src/bse/bse_ring_comm.py" source_line=297 scheduling_name="input_reduce_fusion.4"}
  %get-tuple-element.475.0 = c128[64,480,4]{2,1,0} get-tuple-element(%custom-call.271.0), index=0, metadata={op_name="jit(_full_run)/jit(main)/while/body/jit(_matvec_impl)/jit(_apply_W_from_T)/kctM,bMNtsk->bcNsk/dot_general" source_file="/global/homes/j/jackm/software/lorrax_C/src/bse/bse_ring_comm.py" source_line=422 scheduling_name="get-tuple-element.475.0"}
  %loop_transpose_fusion.1 = c128[4,30720]{1,0} fusion(%get-tuple-element.475.0), kind=kLoop, calls=%fused_transpose.2, metadata={op_name="jit(_full_run)/jit(main)/while/body/jit(_matvec_impl)/jit(_apply_W_from_T)/kctM,bMNtsk->bcNsk/dot_general" source_file="/global/homes/j/jackm/software/lorrax_C/src/bse/bse_ring_comm.py" source_line=422 scheduling_name="loop_transpose_fusion.1"}
  %bitcast.7065.0 = c128[1,4,2,64]{2,0,3,1} bitcast(%input_reduce_fusion.4), metadata={scheduling_name="bitcast.7065.0"}
  %bitcast.9948 = c128[64,4,2,240]{2,3,0,1} bitcast(%loop_transpose_fusion.1), metadata={scheduling_name="bitcast.9948"}
  %reduce-scatter-start.1 = ((c128[64,4,2,240]{2,3,0,1}, c128[1,4,2,64]{2,0,3,1}), (c128[64,2,2,240]{2,3,0,1}, c128[1,2,2,64]{2,0,3,1})) async-start(%bitcast.9948, %bitcast.7065.0), calls=%async_computation.1, metadata={scheduling_name="reduce-scatter-start.1"}, backend_config={"operation_queue_id":"0","wait_on_operation_queues":[],"collective_backend_config":{"is_sync":false,"no_parallel_custom_call":true,"is_pipelined":false,"reification_cost":[]},"force_earliest_schedule":false}
  %wrapped_transpose.3 = c128[64,240,2,4]{3,2,1,0} fusion(%get-tuple-element.573), kind=kLoop, calls=%wrapped_transpose_computation.3, metadata={op_name="jit(_full_run)/jit(main)/while/body/jit(_matvec_impl)/shard_map" source_file="/global/homes/j/jackm/software/lorrax_C/src/bse/bse_ring_comm.py" source_line=445 scheduling_name="wrapped_transpose.3"}
  %reduce-scatter-done.1 = (c128[64,2,2,240]{2,3,0,1}, c128[1,2,2,64]{2,0,3,1}) async-done(%reduce-scatter-start.1), metadata={scheduling_name="reduce-scatter-done.1"}
  %get-tuple-element.495 = c128[64,2,2,240]{2,3,0,1} get-tuple-element(%reduce-scatter-done.1), index=0, metadata={scheduling_name="get-tuple-element.495"}
  %bitcast.7236.0 = c128[2,64,480]{2,1,0} bitcast(%get-tuple-element.495), metadata={scheduling_name="bitcast.7236.0"}
  %bitcast.7241.0 = c128[64,480,4]{2,1,0} bitcast(%wrapped_transpose.3), metadata={scheduling_name="bitcast.7241.0"}
  %custom-call.272.0 = (c128[64,2,4]{1,0,2}, s8[2949120]{0}) custom-call(%bitcast.7236.0, %bitcast.7241.0), custom_call_target="__cublas$gemm", metadata={op_name="jit(_full_run)/jit(main)/while/body/jit(_matvec_impl)/jit(_apply_W_from_T)/kvsN,bcNsk->bcvk/dot_general" source_file="/global/homes/j/jackm/software/lorrax_C/src/bse/bse_ring_comm.py" source_line=423 scheduling_name="custom-call.272.0"}, backend_config={"operation_queue_id":"0","wait_on_operation_queues":[],"gemm_backend_config":{"alpha_real":1,"alpha_imag":0,"beta":0,"dot_dimension_numbers":{"lhs_contracting_dimensions":["2"],"rhs_contracting_dimensions":["1"],"lhs_batch_dimensions":["1"],"rhs_batch_dimensions":["0"]},"precision_config":{"operand_precision":["DEFAULT","DEFAULT"],"algorithm":"ALG_UNSET"},"epilogue":"DEFAULT","damax_output":false,"lhs_stride":"30720","rhs_stride":"1920","grad_x":false,"grad_y":false},"force_earliest_schedule":false}
  %get-tuple-element.476.0 = c128[64,2,4]{1,0,2} get-tuple-element(%custom-call.272.0), index=0, metadata={op_name="jit(_full_run)/jit(main)/while/body/jit(_matvec_impl)/jit(_apply_W_from_T)/kvsN,bcNsk->bcvk/dot_general" source_file="/global/homes/j/jackm/software/lorrax_C/src/bse/bse_ring_comm.py" source_line=423 scheduling_name="get-tuple-element.476.0"}
  %reduce-scatter-start = ((c128[64,2,4]{1,0,2}), c128[64,2,2]{1,0,2}) async-start(%get-tuple-element.476.0), calls=%async_computation, metadata={scheduling_name="reduce-scatter-start"}, backend_config={"operation_queue_id":"0","wait_on_operation_queues":[],"collective_backend_config":{"is_sync":true,"no_parallel_custom_call":false,"is_pipelined":false,"reification_cost":[]},"force_earliest_schedule":false}
  %reduce-scatter-done = c128[64,2,2]{1,0,2} async-done(%reduce-scatter-start), metadata={scheduling_name="reduce-scatter-done"}
  %get-tuple-element.496 = c128[1,2,2,64]{2,0,3,1} get-tuple-element(%reduce-scatter-done.1), index=1, metadata={op_name="jit(_full_run)/jit(main)/while/body/jit(_matvec_impl)/jit(shmap_body)/reduce_scatter" source_file="/global/homes/j/jackm/software/lorrax_C/src/bse/bse_ring_comm.py" source_line=298 scheduling_name="get-tuple-element.496"}
  %get-tuple-element.574 = f64[64,4]{0,1} get-tuple-element(%param.15.0), index=9, metadata={op_name="jit(_full_run)/jit(main)/while/body/pjit" source_file="/global/homes/j/jackm/software/lorrax_C/src/bse/bse_lanczos.py" source_line=193 scheduling_name="get-tuple-element.574"}
  %get-tuple-element.575 = f64[64,4]{1,0} get-tuple-element(%param.15.0), index=10, metadata={op_name="jit(_full_run)/jit(main)/while/body/pjit" source_file="/global/homes/j/jackm/software/lorrax_C/src/bse/bse_lanczos.py" source_line=193 scheduling_name="get-tuple-element.575"}
  %loop_transpose_fusion = c128[2,128]{1,0} fusion(%reduce-scatter-done, %get-tuple-element.496, %get-tuple-element.556, %get-tuple-element.574, %get-tuple-element.575, /*index=5*/%constant_1179_0, %partition-id.19.0, %constant_1169_0, %constant_1166_0), kind=kLoop, calls=%fused_transpose.1, metadata={op_name="jit(_full_run)/jit(main)/while/body/jit(_matvec_impl)/sub" source_file="/global/homes/j/jackm/software/lorrax_C/src/bse/bse_ring_comm.py" source_line=450 scheduling_name="loop_transpose_fusion"}
  %bitcast.7260.0 = c128[1,2,2,64]{3,1,0,2} bitcast(%loop_transpose_fusion), metadata={scheduling_name="bitcast.7260.0"}
  %all-gather-start.2 = (c128[1,2,2,64]{3,1,0,2}, c128[1,2,4,64]{3,1,0,2}) all-gather-start(%bitcast.7260.0), channel_id=10, replica_groups=[2,2]<=[4], dimensions={2}, use_global_device_ids=true, metadata={op_name="jit(_full_run)/jit(main)/while/body/reshape" source_file="/global/homes/j/jackm/software/lorrax_C/src/bse/bse_lanczos.py" source_line=197 scheduling_name="all-gather-start.2"}, backend_config={"operation_queue_id":"0","wait_on_operation_queues":[],"collective_backend_config":{"is_sync":true,"no_parallel…
  %or.460.11 = u32[2]{0} or(%shift-left.447.11, %shift-right-logical.474.11), metadata={op_name="jit(_full_run)/jit(main)/jit(_threefry_split)/or" source_file="/global/homes/j/jackm/software/lorrax_C/src/solvers/lanczos.py" source_line=245 scheduling_name="or.460.11"}
  %xor.482.11 = u32[2]{0} xor(%add.1391.33, %or.460.11), metadata={op_name="jit(_full_run)/jit(main)/jit(_threefry_split)/xor" source_file="/global/homes/j/jackm/software/lorrax_C/src/solvers/lanczos.py" source_line=245 scheduling_name="xor.482.11"}
  %add.1392.18 = u32[2]{0} add(%add.1391.33, %xor.482.11), metadata={op_name="jit(_full_run)/jit(main)/jit(_threefry_split)/add" source_file="/global/homes/j/jackm/software/lorrax_C/src/solvers/lanczos.py" source_line=245 scheduling_name="add.1392.18"}
  %add.1393.7 = u32[2]{0} add(%add.1392.18, %broadcast.2182.95), metadata={op_name="jit(_full_run)/jit(main)/jit(_threefry_split)/add" source_file="/global/homes/j/jackm/software/lorrax_C/src/solvers/lanczos.py" source_line=245 scheduling_name="add.1393.7"}
  %shift-left.448.11 = u32[2]{0} shift-left(%xor.482.11, %broadcast.2200.62), metadata={op_name="jit(_full_run)/jit(main)/jit(_threefry_split)/shift_left" source_file="/global/homes/j/jackm/software/lorrax_C/src/solvers/lanczos.py" source_line=245 scheduling_name="shift-left.448.11"}
  %shift-right-logical.475.11 = u32[2]{0} shift-right-logical(%xor.482.11, %broadcast.2201.62), metadata={op_name="jit(_full_run)/jit(main)/jit(_threefry_split)/shift_right_logical" source_file="/global/homes/j/jackm/software/lorrax_C/src/solvers/lanczos.py" source_line=245 scheduling_name="shift-right-logical.475.11"}
  %or.461.11 = u32[2]{0} or(%shift-left.448.11, %shift-right-logical.475.11), metadata={op_name="jit(_full_run)/jit(main)/jit(_threefry_split)/or" source_file="/global/homes/j/jackm/software/lorrax_C/src/solvers/lanczos.py" source_line=245 scheduling_name="or.461.11"}
  %xor.483.11 = u32[2]{0} xor(%add.1392.18, %or.461.11), metadata={op_name="jit(_full_run)/jit(main)/jit(_threefry_split)/xor" source_file="/global/homes/j/jackm/software/lorrax_C/src/solvers/lanczos.py" source_line=245 scheduling_name="xor.483.11"}
  %constant_1298_4 = u32[] constant(466689012)
  %broadcast.2221.11 = u32[2]{0} broadcast(%constant_1298_4), dimensions={}, metadata={op_name="jit(_full_run)/jit(main)/jit(_threefry_split)/add" source_file="/global/homes/j/jackm/software/lorrax_C/src/solvers/lanczos.py" source_line=245 scheduling_name="broadcast.2221.11"}
  %add.1394.11 = u32[2]{0} add(%xor.483.11, %broadcast.2221.11), metadata={op_name="jit(_full_run)/jit(main)/jit(_threefry_split)/add" source_file="/global/homes/j/jackm/software/lorrax_C/src/solvers/lanczos.py" source_line=245 scheduling_name="add.1394.11"}
  %add.1395.7 = u32[2]{0} add(%add.1393.7, %add.1394.11), metadata={op_name="jit(_full_run)/jit(main)/jit(_threefry_split)/add" source_file="/global/homes/j/jackm/software/lorrax_C/src/solvers/lanczos.py" source_line=245 scheduling_name="add.1395.7"}
  %shift-left.449.1.clone.1 = u32[2]{0} shift-left(%add.1394.11, %broadcast.2183.75), metadata={op_name="jit(_full_run)/jit(main)/jit(_threefry_split)/shift_left" source_file="/global/homes/j/jackm/software/lorrax_C/src/solvers/lanczos.py" source_line=245 scheduling_name="shift-left.449.1.clone.1"}
  %shift-right-logical.476.1.clone.1 = u32[2]{0} shift-right-logical(%add.1394.11, %broadcast.2184.75), metadata={op_name="jit(_full_run)/jit(main)/jit(_threefry_split)/shift_right_logical" source_file="/global/homes/j/jackm/software/lorrax_C/src/solvers/lanczos.py" source_line=245 scheduling_name="shift-right-logical.476.1.clone.1"}
  %or.462.1.clone.1 = u32[2]{0} or(%shift-left.449.1.clone.1, %shift-right-logical.476.1.clone.1), metadata={op_name="jit(_full_run)/jit(main)/jit(_threefry_split)/or" source_file="/global/homes/j/jackm/software/lorrax_C/src/solvers/lanczos.py" source_line=245 scheduling_name="or.462.1.clone.1"}
  %xor.484.1.clone.1 = u32[2]{0} xor(%add.1395.7, %or.462.1.clone.1), metadata={op_name="jit(_full_run)/jit(main)/jit(_threefry_split)/xor" source_file="/global/homes/j/jackm/software/lorrax_C/src/solvers/lanczos.py" source_line=245 scheduling_name="xor.484.1.clone.1"}
  %add.1396.6 = u32[2]{0} add(%add.1395.7, %xor.484.1.clone.1), metadata={op_name="jit(_full_run)/jit(main)/jit(_threefry_split)/add" source_file="/global/homes/j/jackm/software/lorrax_C/src/solvers/lanczos.py" source_line=245 scheduling_name="add.1396.6"}
  %shift-left.450.7 = u32[2]{0} shift-left(%xor.484.1.clone.1, %broadcast.2185.115), metadata={op_name="jit(_full_run)/jit(main)/jit(_threefry_split)/shift_left" source_file="/global/homes/j/jackm/software/lorrax_C/src/solvers/lanczos.py" source_line=245 scheduling_name="shift-left.450.7"}
  %shift-right-logical.477.7 = u32[2]{0} shift-right-logical(%xor.484.1.clone.1, %broadcast.2186.115), metadata={op_name="jit(_full_run)/jit(main)/jit(_threefry_split)/shift_right_logical" source_file="/global/homes/j/jackm/software/lorrax_C/src/solvers/lanczos.py" source_line=245 scheduling_name="shift-right-logical.477.7"}
  %or.463.7 = u32[2]{0} or(%shift-left.450.7, %shift-right-logical.477.7), metadata={op_name="jit(_full_run)/jit(main)/jit(_threefry_split)/or" source_file="/global/homes/j/jackm/software/lorrax_C/src/solvers/lanczos.py" source_line=245 scheduling_name="or.463.7"}
  %xor.485.7 = u32[2]{0} xor(%add.1396.6, %or.463.7), metadata={op_name="jit(_full_run)/jit(main)/jit(_threefry_split)/xor" source_file="/global/homes/j/jackm/software/lorrax_C/src/solvers/lanczos.py" source_line=245 scheduling_name="xor.485.7"}
  %add.1397.5 = u32[2]{0} add(%add.1396.6, %xor.485.7), metadata={op_name="jit(_full_run)/jit(main)/jit(_threefry_split)/add" source_file="/global/homes/j/jackm/software/lorrax_C/src/solvers/lanczos.py" source_line=245 scheduling_name="add.1397.5"}
  %shift-left.451.5 = u32[2]{0} shift-left(%xor.485.7, %broadcast.2187.160), metadata={op_name="jit(_full_run)/jit(main)/jit(_threefry_split)/shift_left" source_file="/global/homes/j/jackm/software/lorrax_C/src/solvers/lanczos.py" source_line=245 scheduling_name="shift-left.451.5"}
  %shift-right-logical.478.5 = u32[2]{0} shift-right-logical(%xor.485.7, %broadcast.2188.160), metadata={op_name="jit(_full_run)/jit(main)/jit(_threefry_split)/shift_right_logical" source_file="/global/homes/j/jackm/software/lorrax_C/src/solvers/lanczos.py" source_line=245 scheduling_name="shift-right-logical.478.5"}
  %or.464.5 = u32[2]{0} or(%shift-left.451.5, %shift-right-logical.478.5), metadata={op_name="jit(_full_run)/jit(main)/jit(_threefry_split)/or" source_file="/global/homes/j/jackm/software/lorrax_C/src/solvers/lanczos.py" source_line=245 scheduling_name="or.464.5"}
  %xor.486.5 = u32[2]{0} xor(%add.1397.5, %or.464.5), metadata={op_name="jit(_full_run)/jit(main)/jit(_threefry_split)/xor" source_file="/global/homes/j/jackm/software/lorrax_C/src/solvers/lanczos.py" source_line=245 scheduling_name="xor.486.5"}
  %add.1398.2 = u32[2]{0} add(%add.1397.5, %xor.486.5), metadata={op_name="jit(_full_run)/jit(main)/jit(_threefry_split)/add" source_file="/global/homes/j/jackm/software/lorrax_C/src/solvers/lanczos.py" source_line=245 scheduling_name="add.1398.2"}
  %add.1399.1 = u32[2]{0} add(%add.1398.2, %broadcast.2199.12), metadata={op_name="jit(_full_run)/jit(main)/jit(_threefry_split)/add" source_file="/global/homes/j/jackm/software/lorrax_C/src/solvers/lanczos.py" source_line=245 scheduling_name="add.1399.1"}
  ROOT %tuple.109 = (u32[2]{0}, u32[2]{0}) tuple(%add.1399.1, %xor.484.1.clone.1), metadata={scheduling_name="tuple.109"}
}

%fused_reduce.5 () -> pred[] {
  %iota.62.1 = s32[2]{0} iota(), iota_dimension=0, metadata={scheduling_name="iota.62.1"}
  %constant_1270_1 = s32[] constant(199)
  %broadcast.2175.1 = s32[2]{0} broadcast(%constant_1270_1), dimensions={}, metadata={scheduling_name="broadcast.2175.1"}
  %multiply.492.1 = s32[2]{0} multiply(%iota.62.1, %broadcast.2175.1), metadata={scheduling_name="multiply.492.1"}
  %constant_1271_2 = s32[] constant(0)
  %broadcast.2176.1 = s32[2]{0} broadcast(%constant_1271_2), dimensions={}, metadata={scheduling_name="broadcast.2176.1"}
  %compare.301.1 = pred[2]{0} compare(%multiply.492.1, %broadcast.2176.1), direction=GE, metadata={scheduling_name="compare.301.1"}
  %constant_1272_1 = pred[] constant(true)
  ROOT %reduce.43.1 = pred[] reduce(%compare.301.1, %constant_1272_1), dimensions={0}, to_apply=%and.reduce_sub_computation, metadata={scheduling_name="reduce.43.1"}
}

%fused_reduce.6 (param_0.803: f64[512], param_1.998: f64[512]) -> f64[] {
  %param_1.998 = f64[512]{0} parameter(1), metadata={scheduling_name="param_1.998"}
  %convert.217.7 = c128[512]{0} convert(%param_1.998), metadata={op_name="jit(_full_run)/jit(main)/convert_element_type" source_file="/global/homes/j/jackm/software/lorrax_C/src/solvers/lanczos.py" source_line=248 scheduling_name="convert.217.7"}
  %param_0.803 = f64[512]{0} parameter(0), metadata={scheduling_name="param_0.803"}
  %convert.220.7 = c128[512]{0} convert(%param_0.803), metadata={op_name="jit(_full_run)/jit(main)/convert_element_type" source_file="/global/homes/j/jackm/software/lorrax_C/src/solvers/lanczos.py" source_line=248 scheduling_name="convert.220.7"}
  %constant_1493_1 = c128[] constant((0, 1))
  %broadcast.2475.7 = c128[512]{0} broadcast(%constant_1493_1), dimensions={}, metadata={scheduling_name="broadcast.2475.7"}
  %multiply.548.7 = c128[512]{0} multiply(%convert.220.7, %broadcast.2475.7), metadata={op_name="jit(_full_run)/jit(main)/mul" source_file="/global/homes/j/jackm/software/lorrax_C/src/solvers/lanczos.py" source_line=248 scheduling_name="multiply.548.7"}
  %add.1528.7 = c128[512]{0} add(%convert.217.7, %multiply.548.7), metadata={op_name="jit(_full_run)/jit(main)/add" source_file="/global/homes/j/jackm/software/lorrax_C/src/solvers/lanczos.py" source_line=248 scheduling_name="add.1528.7"}
  %real.156.3 = f64[512]{0} real(%add.1528.7), metadata={op_name="jit(_full_run)/jit(main)/jit(norm)/real" source_file="/global/homes/j/jackm/software/lorrax_C/src/solvers/lanczos.py" source_line=249 scheduling_name="real.156.3"}
  %imag.131.5 = f64[512]{0} imag(%add.1528.7), metadata={op_name="jit(_full_run)/jit(main)/jit(norm)/imag" source_file="/global/homes/j/jackm/software/lorrax_C/src/solvers/lanczos.py" source_line=249 scheduling_name="imag.131.5"}
  %negate.182.5 = f64[512]{0} negate(%imag.131.5), metadata={op_name="jit(_full_run)/jit(main)/jit(norm)/neg" source_file="/global/homes/j/jackm/software/lorrax_C/src/solvers/lanczos.py" source_line=249 scheduling_name="negate.182.5"}
  %complex.131.3 = c128[512]{0} complex(%real.156.3, %negate.182.5), metadata={op_name="jit(_full_run)/jit(main)/jit(norm)/complex" source_file="/global/homes/j/jackm/software/lorrax_C/src/solvers/lanczos.py" source_line=249 scheduling_name="complex.131.3"}
  %multiply.549.3 = c128[512]{0} multiply(%add.1528.7, %complex.131.3), metadata={op_name="jit(_full_run)/jit(main)/jit(norm)/mul" source_file="/global/homes/j/jackm/software/lorrax_C/src/solvers/lanczos.py" source_line=249 scheduling_name="multiply.549.3"}
  %real.157.3 = f64[512]{0} real(%multiply.549.3), metadata={op_name="jit(_full_run)/jit(main)/jit(norm)/real" source_file="/global/homes/j/jackm/software/lorrax_C/src/solvers/lanczos.py" source_line=249 scheduling_name="real.157.3"}
  %constant_1494_4 = f64[] constant(0)
  ROOT %reduce.44.1 = f64[] reduce(%real.157.3, %constant_1494_4), dimensions={0}, to_apply=%region_0.1149, metadata={op_name="jit(_full_run)/jit(main)/jit(norm)/reduce_sum" source_file="/global/homes/j/jackm/software/lorrax_C/src/solvers/lanczos.py" source_line=249 scheduling_name="reduce.44.1"}
}

%fused_broadcast.1 () -> (f64[200], f64[200]) {
  %constant_1494_1 = f64[] constant(0)
  %broadcast.2478.1 = f64[200]{0} broadcast(%constant_1494_1), dimensions={}, metadata={scheduling_name="broadcast.2478.1"}
  %copy.164 = f64[200]{0} copy(%broadcast.2478.1), metadata={scheduling_name="copy.164"}
  ROOT %tuple.126 = (f64[200]{0}, f64[200]{0}) tuple(%broadcast.2478.1, %copy.164), metadata={scheduling_name="tuple.126"}
}

%fused_reduce.7 (param_0.801: f64[512,5]) -> f64[5] {
  %param_0.801 = f64[512,5]{1,0} parameter(0), metadata={scheduling_name="param_0.801"}
  %constant_1494_2 = f64[] constant(0)
  ROOT %reduce.45.1 = f64[5]{0} reduce(%param_0.801, %constant_1494_2), dimensions={0}, to_apply=%region_0.1149, metadata={op_name="jit(_full_run)/jit(main)/jit(norm)/reduce_sum" source_file="/global/homes/j/jackm/software/lorrax_C/src/solvers/lanczos.py" source_line=297 scheduling_name="reduce.45.1"}
}

%fused_slice.3 (param_0_0.1: c128[64,4,2,240], param_1_0.2: c128[512], param_1_1.1: pred[]) -> (c128[122880], c128[102400]) {
  %param_0_0.1 = c128[64,4,2,240]{3,2,1,0} parameter(0), metadata={scheduling_name="param_0_0.1"}
  %bitcast.9536.2 = c128[64,8,240]{2,1,0} bitcast(%param_0_0.1), metadata={scheduling_name="bitcast.9536.2"}
  %transpose.392.2 = c128[64,240,8]{2,1,0} transpose(%bitcast.9536.2), dimensions={0,2,1}, metadata={scheduling_name="transpose.392.2"}
  %reshape.664 = c128[122880]{0} reshape(%transpose.392.2), metadata={scheduling_name="reshape.664"}
  %param_1_1.1 = pred[] parameter(2), metadata={scheduling_name="param_1_1.1"}
  %broadcast.2177.2 = pred[512]{0} broadcast(%param_1_1.1), dimensions={}, metadata={scheduling_name="broadcast.2177.2"}
  %param_1_0.2 = c128[512]{0} parameter(1), metadata={scheduling_name="param_1_0.2"}
  %constant_1495_2 = c128[] constant((0, 0))
  %broadcast.2477.2 = c128[512]{0} broadcast(%constant_1495_2), dimensions={}, metadata={scheduling_name="broadcast.2477.2"}
  %select.790.2 = c128[512]{0} select(%broadcast.2177.2, %param_1_0.2, %broadcast.2477.2), metadata={scheduling_name="select.790.2"}
  %bitcast.9518.2 = c128[512,1]{1,0} bitcast(%select.790.2), metadata={scheduling_name="bitcast.9518.2"}
  %pad.26.2 = c128[512,200]{1,0} pad(%bitcast.9518.2, %constant_1495_2), padding=0_0x0_199, metadata={op_name="jit(_full_run)/jit(main)/scatter" source_file="/global/homes/j/jackm/software/lorrax_C/src/solvers/lanczos.py" source_line=252 scheduling_name="pad.26.2"}
  %reshape.665 = c128[102400]{0} reshape(%pad.26.2), metadata={op_name="jit(_full_run)/jit(main)/scatter" source_file="/global/homes/j/jackm/software/lorrax_C/src/solvers/lanczos.py" source_line=252 scheduling_name="reshape.665"}
  %concatenate.26 = c128[225280]{0} concatenate(%reshape.664, %reshape.665), dimensions={0}, metadata={scheduling_name="concatenate.26"}
  %slice.145 = c128[122880]{0} slice(%concatenate.26), slice={[0:122880]}, metadata={scheduling_name="slice.145"}
  %slice.146 = c128[102400]{0} slice(%concatenate.26), slice={[122880:225280]}, metadata={scheduling_name="slice.146"}
  ROOT %tuple.112 = (c128[122880]{0}, c128[102400]{0}) tuple(%slice.145, %slice.146), metadata={op_name="jit(_full_run)/jit(main)/scatter" source_file="/global/homes/j/jackm/software/lorrax_C/src/solvers/lanczos.py" source_line=252 scheduling_name="tuple.112"}
}

%region_0.1149.clone (Arg_0.0: f64[], Arg_1.0: f64[]) -> f64[] {
  %Arg_1.0 = f64[] parameter(1), metadata={op_name="jit(_full_run)/jit(main)/jit(norm)/reduce_sum" scheduling_name="Arg_1.0"}
  %Arg_0.0 = f64[] parameter(0), metadata={op_name="jit(_full_run)/jit(main)/jit(norm)/reduce_sum" scheduling_name="Arg_0.0"}
  ROOT %add.1344 = f64[] add(%Arg_0.0, %Arg_1.0), metadata={op_name="jit(_full_run)/jit(main)/jit(norm)/reduce_sum" source_file="/global/homes/j/jackm/software/lorrax_C/src/solvers/lanczos.py" source_line=249 scheduling_name="add.1344"}
}

%region_18.1836.clone (Arg_0.3: f64[], Arg_1.3: f64[]) -> f64[] {
  %Arg_1.3 = f64[] parameter(1), metadata={op_name="jit(_full_run)/jit(main)/jit(norm)/reduce_sum" scheduling_name="Arg_1.3"}
  %Arg_0.3 = f64[] parameter(0), metadata={op_name="jit(_full_run)/jit(main)/jit(norm)/reduce_sum" scheduling_name="Arg_0.3"}
  ROOT %add.1368 = f64[] add(%Arg_0.3, %Arg_1.3), metadata={op_name="jit(_full_run)/jit(main)/jit(norm)/reduce_sum" source_file="/global/homes/j/jackm/software/lorrax_C/src/solvers/lanczos.py" source_line=297 scheduling_name="add.1368"}
}

%wrapped_transpose_computation (param_0.820: c128[64,4,2,240]) -> c128[64,240,2,4] {
  %param_0.820 = c128[64,4,2,240]{3,2,1,0} parameter(0), metadata={scheduling_name="param_0.820"}
  ROOT %transpose.391.1 = c128[64,240,2,4]{3,2,1,0} transpose(%param_0.820), dimensions={0,3,2,1}, metadata={scheduling_name="transpose.391.1"}
}

%wrapped_transpose_computation.1 (param_0.821: f64[64,4]) -> f64[4,64] {
  %param_0.821 = f64[64,4]{1,0} parameter(0), metadata={scheduling_name="param_0.821"}
  ROOT %transpose.393.1 = f64[4,64]{1,0} transpose(%param_0.821), dimensions={1,0}, metadata={scheduling_name="transpose.393.1"}
}

%wrapped_iota_computation () -> s64[200] {
  ROOT %iota.69.1 = s64[200]{0} iota(), iota_dimension=0, metadata={op_name="jit(_full_run)/jit(main)/jit(argsort)/iota" source_file="/global/homes/j/jackm/software/lorrax_C/src/solvers/lanczos.py" source_line=293 scheduling_name="iota.69.1"}
}

%wrapped_iota_computation.1 () -> s32[200] {
  ROOT %iota.70.1 = s32[200]{0} iota(), iota_dimension=0, metadata={scheduling_name="iota.70.1"}
}

%fused_select (param_0.593: f64[200], param_1.1002: s32[]) -> f64[200] {
  %param_1.1002 = s32[] parameter(1), metadata={scheduling_name="param_1.1002"}
  %constant_1271_1 = s32[] constant(0)
  %compare.310.2 = pred[] compare(%param_1.1002, %constant_1271_1), direction=EQ, metadata={op_name="jit(_full_run)/jit(main)/jit(eigh)/eigh" source_file="/global/homes/j/jackm/software/lorrax_C/src/solvers/lanczos.py" source_line=292 scheduling_name="compare.310.2"}
  %broadcast.2494.1 = pred[200]{0} broadcast(%compare.310.2), dimensions={}, metadata={op_name="jit(_full_run)/jit(main)/jit(eigh)/eigh" source_file="/global/homes/j/jackm/software/lorrax_C/src/solvers/lanczos.py" source_line=292 scheduling_name="broadcast.2494.1"}
  %param_0.593 = f64[200]{0} parameter(0), metadata={scheduling_name="param_0.593"}
  %constant_1518_2 = f64[] constant(nan)
  %broadcast.2495.1 = f64[200]{0} broadcast(%constant_1518_2), dimensions={}, metadata={scheduling_name="broadcast.2495.1"}
  ROOT %select.794.1 = f64[200]{0} select(%broadcast.2494.1, %param_0.593, %broadcast.2495.1), metadata={op_name="jit(_full_run)/jit(main)/jit(eigh)/eigh" source_file="/global/homes/j/jackm/software/lorrax_C/src/solvers/lanczos.py" source_line=292 scheduling_name="select.794.1"}
}

%region_17.1797.clone (Arg_0.4: f64[], Arg_1.4: f64[], Arg_2.0: s64[], Arg_3.0: s64[], p.2.lhs.clone: s32[], p.2.rhs.clone: s32[]) -> pred[] {
  %Arg_2.0 = s64[] parameter(2), metadata={op_name="jit(_full_run)/jit(main)/jit(argsort)/sort" scheduling_name="Arg_2.0"}
  %Arg_3.0 = s64[] parameter(3), metadata={op_name="jit(_full_run)/jit(main)/jit(argsort)/sort" scheduling_name="Arg_3.0"}
  %Arg_1.4 = f64[] parameter(1), metadata={op_name="jit(_full_run)/jit(main)/jit(argsort)/sort" scheduling_name="Arg_1.4"}
  %constant_1530 = f64[] constant(0)
  %compare.294 = pred[] compare(%Arg_1.4, %constant_1530), direction=EQ, metadata={op_name="jit(_full_run)/jit(main)/jit(argsort)/eq" source_file="/global/homes/j/jackm/software/lorrax_C/src/solvers/lanczos.py" source_line=293 scheduling_name="compare.294"}
  %select.696 = f64[] select(%compare.294, %constant_1530, %Arg_1.4), metadata={op_name="jit(_full_run)/jit(main)/jit(argsort)/select_n" source_file="/global/homes/j/jackm/software/lorrax_C/src/solvers/lanczos.py" source_line=293 scheduling_name="select.696"}
  %compare.293 = pred[] compare(%Arg_1.4, %Arg_1.4), direction=NE, metadata={op_name="jit(_full_run)/jit(main)/jit(argsort)/ne" source_file="/global/homes/j/jackm/software/lorrax_C/src/solvers/lanczos.py" source_line=293 scheduling_name="compare.293"}
  %constant_1529 = f64[] constant(nan)
  %select.697 = f64[] select(%compare.293, %constant_1529, %select.696), metadata={op_name="jit(_full_run)/jit(main)/jit(argsort)/select_n" source_file="/global/homes/j/jackm/software/lorrax_C/src/solvers/lanczos.py" source_line=293 scheduling_name="select.697"}
  %bitcast-convert.23 = s64[] bitcast-convert(%select.697), metadata={scheduling_name="bitcast-convert.23"}
  %constant_1532 = s64[] constant(9223372036854775807)
  %xor.467 = s64[] xor(%constant_1532, %bitcast-convert.23), metadata={scheduling_name="xor.467"}
  %constant_1531 = s64[] constant(0)
  %compare.295 = pred[] compare(%bitcast-convert.23, %constant_1531), direction=LT, metadata={scheduling_name="compare.295"}
  %select.698 = s64[] select(%compare.295, %xor.467, %bitcast-convert.23), metadata={scheduling_name="select.698"}
  %Arg_0.4 = f64[] parameter(0), metadata={op_name="jit(_full_run)/jit(main)/jit(argsort)/sort" scheduling_name="Arg_0.4"}
  %compare.291 = pred[] compare(%Arg_0.4, %constant_1530), direction=EQ, metadata={op_name="jit(_full_run)/jit(main)/jit(argsort)/eq" source_file="/global/homes/j/jackm/software/lorrax_C/src/solvers/lanczos.py" source_line=293 scheduling_name="compare.291"}
  %select.693 = f64[] select(%compare.291, %constant_1530, %Arg_0.4), metadata={op_name="jit(_full_run)/jit(main)/jit(argsort)/select_n" source_file="/global/homes/j/jackm/software/lorrax_C/src/solvers/lanczos.py" source_line=293 scheduling_name="select.693"}
  %compare.290 = pred[] compare(%Arg_0.4, %Arg_0.4), direction=NE, metadata={op_name="jit(_full_run)/jit(main)/jit(argsort)/ne" source_file="/global/homes/j/jackm/software/lorrax_C/src/solvers/lanczos.py" source_line=293 scheduling_name="compare.290"}
  %select.694 = f64[] select(%compare.290, %constant_1529, %select.693), metadata={op_name="jit(_full_run)/jit(main)/jit(argsort)/select_n" source_file="/global/homes/j/jackm/software/lorrax_C/src/solvers/lanczos.py" source_line=293 scheduling_name="select.694"}
  %bitcast-convert.22 = s64[] bitcast-convert(%select.694), metadata={scheduling_name="bitcast-convert.22"}
  %xor.466 = s64[] xor(%constant_1532, %bitcast-convert.22), metadata={scheduling_name="xor.466"}
  %compare.292 = pred[] compare(%bitcast-convert.22, %constant_1531), direction=LT, metadata={scheduling_name="compare.292"}
  %select.695 = s64[] select(%compare.292, %xor.466, %bitcast-convert.22), metadata={scheduling_name="select.695"}
  %compare.296 = pred[] compare(%select.695, %select.698), direction=LT, metadata={op_name="jit(_full_run)/jit(main)/jit(argsort)/lt_to" source_file="/global/homes/j/jackm/software/lorrax_C/src/solvers/lanczos.py" source_line=293 scheduling_name="compare.296"}
  %compare.297 = pred[] compare(%select.698, %select.695), direction=LT, metadata={op_name="jit(_full_run)/jit(main)/jit(argsort)/lt_to" source_file="/global/homes/j/jackm/software/lorrax_C/src/solvers/lanczos.py" source_line=293 scheduling_name="compare.297"}
  %compare.298 = pred[] compare(%compare.296, %compare.297), direction=EQ, metadata={scheduling_name="compare.298"}
  %p.2.lhs.clone = s32[] parameter(4), metadata={scheduling_name="p.2.lhs.clone"}
  %p.2.rhs.clone = s32[] parameter(5), metadata={scheduling_name="p.2.rhs.clone"}
  %compare.299 = pred[] compare(%p.2.lhs.clone, %p.2.rhs.clone), direction=LT, metadata={scheduling_name="compare.299"}
  ROOT %select.699 = pred[] select(%compare.298, %compare.299, %compare.296), metadata={scheduling_name="select.699"}
}

%fused_convert.1 (param_0.806: f64[200,200], param_1.1003: s64[200], param_2.864: s32[]) -> c128[5,200] {
  %param_2.864 = s32[] parameter(2), metadata={scheduling_name="param_2.864"}
  %constant_1271_3 = s32[] constant(0)
  %compare.310.1 = pred[] compare(%param_2.864, %constant_1271_3), direction=EQ, metadata={op_name="jit(_full_run)/jit(main)/jit(eigh)/eigh" source_file="/global/homes/j/jackm/software/lorrax_C/src/solvers/lanczos.py" source_line=292 scheduling_name="compare.310.1"}
  %broadcast.2498.3 = pred[200,200]{1,0} broadcast(%compare.310.1), dimensions={}, metadata={op_name="jit(_full_run)/jit(main)/jit(eigh)/eigh" source_file="/global/homes/j/jackm/software/lorrax_C/src/solvers/lanczos.py" source_line=292 scheduling_name="broadcast.2498.3"}
  %param_0.806 = f64[200,200]{0,1} parameter(0), metadata={scheduling_name="param_0.806"}
  %bitcast.9714.5 = f64[200,200]{1,0} bitcast(%param_0.806), metadata={scheduling_name="bitcast.9714.5"}
  %constant_1518_1 = f64[] constant(nan)
  %broadcast.2499.3 = f64[200,200]{1,0} broadcast(%constant_1518_1), dimensions={}, metadata={scheduling_name="broadcast.2499.3"}
  %select.796.5 = f64[200,200]{1,0} select(%broadcast.2498.3, %bitcast.9714.5, %broadcast.2499.3), metadata={op_name="jit(_full_run)/jit(main)/jit(eigh)/eigh" source_file="/global/homes/j/jackm/software/lorrax_C/src/solvers/lanczos.py" source_line=292 scheduling_name="select.796.5"}
  %param_1.1003 = s64[200]{0} parameter(1), metadata={scheduling_name="param_1.1003"}
  %slice.140.12 = s64[5]{0} slice(%param_1.1003), slice={[0:5]}, metadata={op_name="jit(_full_run)/jit(main)/slice" source_file="/global/homes/j/jackm/software/lorrax_C/src/solvers/lanczos.py" source_line=293 scheduling_name="slice.140.12"}
  %constant_1267_1 = s64[] constant(0)
  %broadcast.2496.7 = s64[5]{0} broadcast(%constant_1267_1), dimensions={}, metadata={scheduling_name="broadcast.2496.7"}
  %compare.311.7 = pred[5]{0} compare(%slice.140.12, %broadcast.2496.7), direction=LT, metadata={op_name="jit(_full_run)/jit(main)/lt" source_file="/global/homes/j/jackm/software/lorrax_C/src/solvers/lanczos.py" source_line=294 scheduling_name="compare.311.7"}
  %constant_1520_1 = s64[] constant(200)
  %broadcast.2497.5 = s64[5]{0} broadcast(%constant_1520_1), dimensions={}, metadata={scheduling_name="broadcast.2497.5"}
  %add.1534.5 = s64[5]{0} add(%slice.140.12, %broadcast.2497.5), metadata={op_name="jit(_full_run)/jit(main)/add" source_file="/global/homes/j/jackm/software/lorrax_C/src/solvers/lanczos.py" source_line=294 scheduling_name="add.1534.5"}
  %select.795.5 = s64[5]{0} select(%compare.311.7, %add.1534.5, %slice.140.12), metadata={op_name="jit(_full_run)/jit(main)/select_n" source_file="/global/homes/j/jackm/software/lorrax_C/src/solvers/lanczos.py" source_line=294 scheduling_name="select.795.5"}
  %convert.222.1 = s32[5]{0} convert(%select.795.5), metadata={op_name="jit(_full_run)/jit(main)/convert_element_type" source_file="/global/homes/j/jackm/software/lorrax_C/src/solvers/lanczos.py" source_line=294 scheduling_name="convert.222.1"}
  %bitcast.9721.4 = s32[5,1]{1,0} bitcast(%convert.222.1), metadata={scheduling_name="bitcast.9721.4"}
  %gather.3.3 = f64[5,1,200]{2,1,0} gather(%select.796.5, %bitcast.9721.4), offset_dims={1,2}, collapsed_slice_dims={}, start_index_map={0}, index_vector_dim=1, slice_sizes={1,200}, metadata={op_name="jit(_full_run)/jit(main)/gather" source_file="/global/homes/j/jackm/software/lorrax_C/src/solvers/lanczos.py" source_line=296 scheduling_name="gather.3.3"}
  %bitcast.9724.1 = f64[5,200]{1,0} bitcast(%gather.3.3), metadata={scheduling_name="bitcast.9724.1"}
  ROOT %convert.223.1 = c128[5,200]{1,0} convert(%bitcast.9724.1), metadata={op_name="jit(_full_run)/jit(main)/dot_general" source_file="/global/homes/j/jackm/software/lorrax_C/src/solvers/lanczos.py" source_line=296 scheduling_name="convert.223.1"}
}

%command_buffer (p: (f64[200,200], f64[200], s32[]), p.1: s64[200], p.2: (s64[], c128[512,200], f64[200], f64[200], c128[512], /*index=5*/c128[64,4,2,240], c128[64,4,2,240], c128[64,4,2,240], c128[64,4,2,240], f64[64,4], /*index=10*/f64[64,4], c128[240,240,4,4,4], c128[240,240])) -> (f64[200], s64[200], (c128[5,512], s8[1654400])) {
  %p = (f64[200,200]{0,1}, f64[200]{0}, s32[]) parameter(0)
  %p.1 = s64[200]{0} parameter(1)
  %p.2 = (s64[], c128[512,200]{1,0}, f64[200]{0}, f64[200]{0}, c128[512]{0}, /*index=5*/c128[64,4,2,240]{1,2,3,0}, c128[64,4,2,240]{3,2,1,0}, c128[64,4,2,240]{2,1,3,0}, c128[64,4,2,240]{3,2,1,0}, f64[64,4]{0,1}, /*index=10*/f64[64,4]{1,0}, c128[240,240,4,4,4]{4,3,2,1,0}, c128[240,240]{1,0}) parameter(2)
  %wrapped_iota.1 = s32[200]{0} fusion(), kind=kLoop, calls=%wrapped_iota_computation.1, metadata={scheduling_name="wrapped_iota.1"}
  %get-tuple-element.441.0 = s32[] get-tuple-element(%p), index=2, frontend_attributes={num_batch_dims="0"}, metadata={op_name="jit(_full_run)/jit(main)/jit(eigh)/eigh" source_file="/global/homes/j/jackm/software/lorrax_C/src/solvers/lanczos.py" source_line=292 scheduling_name="get-tuple-element.441.0"}
  %get-tuple-element.442.0 = f64[200]{0} get-tuple-element(%p), index=1, frontend_attributes={num_batch_dims="0"}, metadata={op_name="jit(_full_run)/jit(main)/jit(eigh)/eigh" source_file="/global/homes/j/jackm/software/lorrax_C/src/solvers/lanczos.py" source_line=292 scheduling_name="get-tuple-element.442.0"}
  %loop_select_fusion = f64[200]{0} fusion(%get-tuple-element.442.0, %get-tuple-element.441.0), kind=kLoop, calls=%fused_select, metadata={op_name="jit(_full_run)/jit(main)/jit(eigh)/eigh" source_file="/global/homes/j/jackm/software/lorrax_C/src/solvers/lanczos.py" source_line=292 scheduling_name="loop_select_fusion"}
  %sort.2.0 = (f64[200]{0}, s64[200]{0}, s32[200]{0}) sort(%loop_select_fusion, %p.1, %wrapped_iota.1), dimensions={0}, is_stable=true, to_apply=%region_17.1797.clone, metadata={op_name="jit(_full_run)/jit(main)/jit(argsort)/sort" source_file="/global/homes/j/jackm/software/lorrax_C/src/solvers/lanczos.py" source_line=293 scheduling_name="sort.2.0"}
  %get-tuple-element.443.0 = s64[200]{0} get-tuple-element(%sort.2.0), index=1, metadata={op_name="jit(_full_run)/jit(main)/jit(argsort)/sort" source_file="/global/homes/j/jackm/software/lorrax_C/src/solvers/lanczos.py" source_line=293 scheduling_name="get-tuple-element.443.0"}
  %get-tuple-element.444.0 = f64[200,200]{0,1} get-tuple-element(%p), index=0, frontend_attributes={num_batch_dims="0"}, metadata={op_name="jit(_full_run)/jit(main)/jit(eigh)/eigh" source_file="/global/homes/j/jackm/software/lorrax_C/src/solvers/lanczos.py" source_line=292 scheduling_name="get-tuple-element.444.0"}
  %loop_convert_fusion.1 = c128[5,200]{1,0} fusion(%get-tuple-element.444.0, %get-tuple-element.443.0, %get-tuple-element.441.0), kind=kLoop, calls=%fused_convert.1, metadata={op_name="jit(_full_run)/jit(main)/dot_general" source_file="/global/homes/j/jackm/software/lorrax_C/src/solvers/lanczos.py" source_line=296 scheduling_name="loop_convert_fusion.1"}
  %get-tuple-element.445.0 = c128[512,200]{1,0} get-tuple-element(%p.2), index=1, metadata={op_name="jit(_full_run)/jit(main)/while" source_file="/global/homes/j/jackm/software/lorrax_C/src/solvers/lanczos.py" source_line=286 scheduling_name="get-tuple-element.445.0"}
  %custom-call.274.0 = (c128[5,512]{0,1}, s8[1654400]{0}) custom-call(%loop_convert_fusion.1, %get-tuple-element.445.0), custom_call_target="__cublas$gemm", metadata={op_name="jit(_full_run)/jit(main)/transpose" source_file="/global/homes/j/jackm/software/lorrax_C/src/solvers/lanczos.py" source_line=296 scheduling_name="custom-call.274.0"}, backend_config={"operation_queue_id":"0","wait_on_operation_queues":[],"gemm_backend_config":{"alpha_real":1,"alpha_imag":0,"beta":0,"dot_dimension_numbers":{"lhs_contracting_dimensions":["1"],"rhs_contracting_dimensions":["1"],"lhs_batch_dimensions":[],"rhs_batch_dimensions":[]},"precision_config":{"operand_precision":["DEFAULT","DEFAULT"],"algorithm":"ALG_UNSET"},"epilogue":"DEFAULT","damax_output":false,"lhs_stride":"1000","rhs_stride":"102400","grad_x":false,"grad_y":false},"force_earliest_schedule":false}
  ROOT %tuple.128 = (f64[200]{0}, s64[200]{0}, (c128[5,512]{0,1}, s8[1654400]{0})) tuple(%loop_select_fusion, %get-tuple-element.443.0, %custom-call.274.0)
}

ENTRY %main.1863_spmd (param.16.0: c128[64,4,2,240], param.17.0: c128[64,4,2,240], param.18.0: c128[64,4,2,240], param.19.0: c128[64,4,2,240], param.20.0: f64[64,4], param.21.0: f64[64,4], param.22.0: c128[240,240,4,4,4], param.23.0: c128[240,240]) -> (f64[5], c128[5,1024], s32[]) {
  %param.22.0 = c128[240,240,4,4,4]{4,3,2,1,0} parameter(6), sharding={devices=[2,2,1,1,1]<=[4]}, metadata={op_name="W_q" scheduling_name="param.22.0"}
  %constant_1274_0 = s32[4]{0} constant({0, 0, 1, 1}), metadata={op_name="jit(_full_run)/jit(main)/jit(_normal)/jit(_normal_real)/jit(_uniform)/iota_2x32_shape" source_file="/global/homes/j/jackm/software/lorrax_C/src/solvers/lanczos.py" source_line=247}
  %param.16.0 = c128[64,4,2,240]{3,2,1,0} parameter(0), sharding={devices=[1,1,1,2,2]<=[4] last_tile_dim_replicate}, metadata={op_name="psi_c_X" scheduling_name="param.16.0"}
  %param.20.0 = f64[64,4]{1,0} parameter(4), sharding={replicated}, metadata={op_name="eps_c" scheduling_name="param.20.0"}
  %param.18.0 = c128[64,4,2,240]{3,2,1,0} parameter(2), sharding={devices=[1,1,1,2,2]<=[4] last_tile_dim_replicate}, metadata={op_name="psi_v_X" scheduling_name="param.18.0"}
  %constant_1267_0 = s64[] constant(0)
  %param.17.0 = c128[64,4,2,240]{3,2,1,0} parameter(1), sharding={devices=[1,1,1,2,2]<=[2,2]T(1,0) last_tile_dim_replicate}, metadata={op_name="psi_c_Y" scheduling_name="param.17.0"}
  %param.19.0 = c128[64,4,2,240]{3,2,1,0} parameter(3), sharding={devices=[1,1,1,2,2]<=[2,2]T(1,0) last_tile_dim_replicate}, metadata={op_name="psi_v_Y" scheduling_name="param.19.0"}
  %param.21.0 = f64[64,4]{1,0} parameter(5), sharding={replicated}, metadata={op_name="eps_v" scheduling_name="param.21.0"}
  %param.23.0 = c128[240,240]{1,0} parameter(7), sharding={devices=[2,2]<=[4]}, metadata={op_name="V_q0" scheduling_name="param.23.0"}
  %constant_1525_0 = s32[] constant(200)
  %loop_add_xor_fusion = (u32[2]{0}, u32[2]{0}) fusion(), kind=kLoop, calls=%fused_add_xor, metadata={op_name="jit(_full_run)/jit(main)/jit(_threefry_split)/add" source_file="/global/homes/j/jackm/software/lorrax_C/src/solvers/lanczos.py" source_line=245 scheduling_name="loop_add_xor_fusion"}
  %loop_transpose_fusion.11 = c128[57600,16,4]{2,1,0} fusion(%param.22.0), kind=kLoop, calls=%fused_transpose.13, metadata={op_name="jit(_full_run)/jit(main)/custom_partitioning" source_file="/global/homes/j/jackm/software/lorrax_C/src/common/fft_helpers.py" source_line=259 scheduling_name="loop_transpose_fusion.11"}
  %get-tuple-element.487 = u32[2]{0} get-tuple-element(%loop_add_xor_fusion), index=0, metadata={op_name="jit(_full_run)/jit(main)/jit(_threefry_split)/add" source_file="/global/homes/j/jackm/software/lorrax_C/src/solvers/lanczos.py" source_line=245 scheduling_name="get-tuple-element.487"}
  %get-tuple-element.488 = u32[2]{0} get-tuple-element(%loop_add_xor_fusion), index=1, metadata={op_name="jit(_full_run)/jit(main)/jit(_threefry_split)/add" source_file="/global/homes/j/jackm/software/lorrax_C/src/solvers/lanczos.py" source_line=245 scheduling_name="get-tuple-element.488"}
  %loop_slice_fusion = (u32[1]{0}, u32[1]{0}) fusion(%get-tuple-element.487, %get-tuple-element.488), kind=kLoop, calls=%fused_slice.2, metadata={op_name="jit(_full_run)/jit(main)/jit(_normal)/jit(_normal_real)/jit(_uniform)/slice" source_file="/global/homes/j/jackm/software/lorrax_C/src/solvers/lanczos.py" source_line=247 scheduling_name="loop_slice_fusion"}
  %partition-id.22.0 = u32[] partition-id(), metadata={scheduling_name="partition-id.22.0"}
  %bitcast.9562.0 = c128[240,240,4,4,4]{4,3,2,1,0} bitcast(%loop_transpose_fusion.11), metadata={scheduling_name="bitcast.9562.0"}
  %fft.6.0 = c128[240,240,4,4,4]{4,3,2,1,0} fft(%bitcast.9562.0), fft_type=FFT, fft_length={4}, metadata={op_name="jit(_full_run)/jit(main)/custom_partitioning" source_file="/global/homes/j/jackm/software/lorrax_C/src/common/fft_helpers.py" source_line=259 scheduling_name="fft.6.0"}
  %get-tuple-element.485 = u32[1]{0} get-tuple-element(%loop_slice_fusion), index=0, metadata={op_name="jit(_full_run)/jit(main)/jit(_normal)/jit(_normal_real)/jit(_uniform)/slice" source_file="/global/homes/j/jackm/software/lorrax_C/src/solvers/lanczos.py" source_line=247 scheduling_name="get-tuple-element.485"}
  %get-tuple-element.486 = u32[1]{0} get-tuple-element(%loop_slice_fusion), index=1, metadata={op_name="jit(_full_run)/jit(main)/jit(_normal)/jit(_normal_real)/jit(_uniform)/slice" source_file="/global/homes/j/jackm/software/lorrax_C/src/solvers/lanczos.py" source_line=247 scheduling_name="get-tuple-element.486"}
  %loop_multiply_fusion.4 = (f64[512]{0}, f64[512]{0}) fusion(%get-tuple-element.486, %get-tuple-element.487, %constant_1274_0, %partition-id.22.0, %get-tuple-element.485), kind=kLoop, calls=%fused_multiply.4, metadata={op_name="jit(_full_run)/jit(main)/jit(_normal)/jit(_normal_real)/mul" source_file="/global/homes/j/jackm/software/lorrax_C/src/solvers/lanczos.py" source_line=247 scheduling_name="loop_multiply_fusion.4"}
  %loop_transpose_fusion.10 = c128[57600,4,4,4]{3,2,1,0} fusion(%fft.6.0), kind=kLoop, calls=%fused_transpose.12, metadata={op_name="jit(_full_run)/jit(main)/custom_partitioning" source_file="/global/homes/j/jackm/software/lorrax_C/src/common/fft_helpers.py" source_line=259 scheduling_name="loop_transpose_fusion.10"}
  %get-tuple-element.483 = f64[512]{0} get-tuple-element(%loop_multiply_fusion.4), index=0, metadata={op_name="jit(_full_run)/jit(main)/jit(_normal)/jit(_normal_real)/mul" source_file="/global/homes/j/jackm/software/lorrax_C/src/solvers/lanczos.py" source_line=247 scheduling_name="get-tuple-element.483"}
  %get-tuple-element.484 = f64[512]{0} get-tuple-element(%loop_multiply_fusion.4), index=1, metadata={op_name="jit(_full_run)/jit(main)/jit(_normal)/jit(_normal_real)/mul" source_file="/global/homes/j/jackm/software/lorrax_C/src/solvers/lanczos.py" source_line=247 scheduling_name="get-tuple-element.484"}
  %input_reduce_fusion.6 = f64[] fusion(%get-tuple-element.483, %get-tuple-element.484), kind=kInput, calls=%fused_reduce.6, metadata={op_name="jit(_full_run)/jit(main)/jit(norm)/reduce_sum" source_file="/global/homes/j/jackm/software/lorrax_C/src/solvers/lanczos.py" source_line=249 scheduling_name="input_reduce_fusion.6"}
  %all-reduce-start.4 = f64[] all-reduce-start(%input_reduce_fusion.6), channel_id=7, replica_groups=[2,2]<=[2,2]T(1,0), use_global_device_ids=true, to_apply=%region_0.1149.clone, metadata={op_name="jit(_full_run)/jit(main)/jit(norm)/reduce_sum" source_file="/global/homes/j/jackm/software/lorrax_C/src/solvers/lanczos.py" source_line=249 scheduling_name="all-reduce-start.4"}, backend_config={"operation_queue_id":"0","wait_on_operation_queues":[],"collective_backend_config":{"is_sync":false,"no_parallel_custom_call":true,"is_pipelined":false,"reification_cost":[]},"force_earliest_schedule":false}
  %bitcast.9584.0 = c128[240,240,4,4,4]{4,3,2,1,0} bitcast(%loop_transpose_fusion.10), metadata={scheduling_name="bitcast.9584.0"}
  %fft.7.0 = c128[240,240,4,4,4]{4,3,2,1,0} fft(%bitcast.9584.0), fft_type=FFT, fft_length={4}, metadata={op_name="jit(_full_run)/jit(main)/custom_partitioning" source_file="/global/homes/j/jackm/software/lorrax_C/src/common/fft_helpers.py" source_line=259 scheduling_name="fft.7.0"}
  %loop_transpose_fusion.9 = c128[230400,4,4]{2,1,0} fusion(%fft.7.0), kind=kLoop, calls=%fused_transpose.11, metadata={op_name="jit(_full_run)/jit(main)/custom_partitioning" source_file="/global/homes/j/jackm/software/lorrax_C/src/common/fft_helpers.py" source_line=259 scheduling_name="loop_transpose_fusion.9"}
  %input_reduce_fusion.5 = pred[] fusion(), kind=kInput, calls=%fused_reduce.5, metadata={scheduling_name="input_reduce_fusion.5"}
  %bitcast.9607.0 = c128[240,240,4,4,4]{4,3,2,1,0} bitcast(%loop_transpose_fusion.9), metadata={scheduling_name="bitcast.9607.0"}
  %fft.8.0 = c128[240,240,4,4,4]{4,3,2,1,0} fft(%bitcast.9607.0), fft_type=FFT, fft_length={4}, metadata={op_name="jit(_full_run)/jit(main)/custom_partitioning" source_file="/global/homes/j/jackm/software/lorrax_C/src/common/fft_helpers.py" source_line=259 scheduling_name="fft.8.0"}
  %loop_broadcast_fusion.1 = (f64[200]{0}, f64[200]{0}) fusion(), kind=kLoop, calls=%fused_broadcast.1, metadata={scheduling_name="loop_broadcast_fusion.1"}
  %loop_multiply_fusion.3 = c128[240,240,4,4,4]{4,3,2,1,0} fusion(%fft.8.0), kind=kLoop, calls=%fused_multiply.3, metadata={op_name="jit(_full_run)/jit(main)/custom_partitioning" source_file="/global/homes/j/jackm/software/lorrax_C/src/common/fft_helpers.py" source_line=259 scheduling_name="loop_multiply_fusion.3"}
  %wrapped_transpose = c128[64,240,2,4]{3,2,1,0} fusion(%param.16.0), kind=kLoop, calls=%wrapped_transpose_computation, metadata={scheduling_name="wrapped_transpose"}
  %wrapped_transpose.1 = f64[4,64]{1,0} fusion(%param.20.0), kind=kLoop, calls=%wrapped_transpose_computation.1, metadata={scheduling_name="wrapped_transpose.1"}
  %all-reduce-done.4 = f64[] all-reduce-done(%all-reduce-start.4), metadata={op_name="jit(_full_run)/jit(main)/jit(norm)/reduce_sum" source_file="/global/homes/j/jackm/software/lorrax_C/src/solvers/lanczos.py" source_line=249 scheduling_name="all-reduce-done.4"}
  %loop_divide_fusion.1 = c128[512]{0} fusion(%get-tuple-element.483, %get-tuple-element.484, %all-reduce-done.4), kind=kLoop, calls=%fused_divide.1, metadata={op_name="jit(_full_run)/jit(main)/div" source_file="/global/homes/j/jackm/software/lorrax_C/src/solvers/lanczos.py" source_line=249 scheduling_name="loop_divide_fusion.1"}
  %input_slice_fusion.2 = (c128[122880]{0}, c128[102400]{0}) fusion(%param.18.0, %loop_divide_fusion.1, %input_reduce_fusion.5), kind=kInput, calls=%fused_slice.3, metadata={op_name="jit(_full_run)/jit(main)/scatter" source_file="/global/homes/j/jackm/software/lorrax_C/src/solvers/lanczos.py" source_line=252 scheduling_name="input_slice_fusion.2"}
  %copy.166 = s64[] copy(%constant_1267_0)
  %get-tuple-element.493 = c128[122880]{0} get-tuple-element(%input_slice_fusion.2), index=0, metadata={scheduling_name="get-tuple-element.493"}
  %bitcast.9540.0 = c128[64,4,2,240]{2,1,3,0} bitcast(%get-tuple-element.493), metadata={scheduling_name="bitcast.9540.0"}
  %get-tuple-element.494 = c128[102400]{0} get-tuple-element(%input_slice_fusion.2), index=1, metadata={scheduling_name="get-tuple-element.494"}
  %bitcast.9947 = c128[512,200]{1,0} bitcast(%get-tuple-element.494), metadata={op_name="jit(_full_run)/jit(main)/scatter" source_file="/global/homes/j/jackm/software/lorrax_C/src/solvers/lanczos.py" source_line=252 scheduling_name="bitcast.9947"}
  %get-tuple-element.581 = f64[200]{0} get-tuple-element(%loop_broadcast_fusion.1), index=0, metadata={scheduling_name="get-tuple-element.581"}
  %get-tuple-element.582 = f64[200]{0} get-tuple-element(%loop_broadcast_fusion.1), index=1, metadata={scheduling_name="get-tuple-element.582"}
  %bitcast.9531.0 = c128[64,4,2,240]{1,2,3,0} bitcast(%wrapped_transpose), metadata={scheduling_name="bitcast.9531.0"}
  %bitcast.9547.0 = f64[64,4]{0,1} bitcast(%wrapped_transpose.1), metadata={scheduling_name="bitcast.9547.0"}
  %tuple.122 = (s64[], c128[512,200]{1,0}, f64[200]{0}, f64[200]{0}, c128[512]{0}, /*index=5*/c128[64,4,2,240]{1,2,3,0}, c128[64,4,2,240]{3,2,1,0}, c128[64,4,2,240]{2,1,3,0}, c128[64,4,2,240]{3,2,1,0}, f64[64,4]{0,1}, /*index=10*/f64[64,4]{1,0}, c128[240,240,4,4,4]{4,3,2,1,0}, c128[240,240]{1,0}) tuple(%copy.166, %bitcast.9947, %get-tuple-element.581, %get-tuple-element.582, %loop_divide_fusion.1, /*index=5*/%bitcast.9531.0, %param.17.0, %bitcast.9540.0, %param.19.0, %bitcast.9547.0, /*index=10*/%param.21.0, %loop_multiply_fusion.3, %param.23.0), metadata={scheduling_name="tuple.122"}
  %while.28.0 = (s64[], c128[512,200]{1,0}, f64[200]{0}, f64[200]{0}, c128[512]{0}, /*index=5*/c128[64,4,2,240]{1,2,3,0}, c128[64,4,2,240]{3,2,1,0}, c128[64,4,2,240]{2,1,3,0}, c128[64,4,2,240]{3,2,1,0}, f64[64,4]{0,1}, /*index=10*/f64[64,4]{1,0}, c128[240,240,4,4,4]{4,3,2,1,0}, c128[240,240]{1,0}) while(%tuple.122), condition=%region_16.1674.clone.clone_spmd, body=%region_2.1649.clone.clone.clone_spmd, metadata={op_name="jit(_full_run)/jit(main)/while" source_file="/global/homes/j/jackm/software/lorrax_C/src/solvers/lanczos.py" source_line=286 scheduling_name="while.28.0"}, backend_config={"known_trip_count":{"n":"200"},"known_init_step":{"init":"0","step":"1"},"known_induction_variable":{"tuple_index":"0"}}
  %get-tuple-element.439.0 = f64[200]{0} get-tuple-element(%while.28.0), index=2, metadata={op_name="jit(_full_run)/jit(main)/while" source_file="/global/homes/j/jackm/software/lorrax_C/src/solvers/lanczos.py" source_line=286 scheduling_name="get-tuple-element.439.0"}
  %get-tuple-element.440.0 = f64[200]{0} get-tuple-element(%while.28.0), index=3, metadata={op_name="jit(_full_run)/jit(main)/while" source_file="/global/homes/j/jackm/software/lorrax_C/src/solvers/lanczos.py" source_line=286 scheduling_name="get-tuple-element.440.0"}
  %loop_add_fusion.5 = f64[200,200]{1,0} fusion(%get-tuple-element.439.0, %get-tuple-element.440.0), kind=kLoop, calls=%fused_add.5, metadata={op_name="jit(_full_run)/jit(main)/add" source_file="/global/homes/j/jackm/software/lorrax_C/src/solvers/lanczos.py" source_line=290 scheduling_name="loop_add_fusion.5"}
  %input_transpose_fusion.2 = f64[200,200]{1,0} fusion(%loop_add_fusion.5), kind=kInput, calls=%fused_transpose.14, metadata={op_name="jit(_full_run)/jit(main)/jit(eigh)/div" source_file="/global/homes/j/jackm/software/lorrax_C/src/solvers/lanczos.py" source_line=292 scheduling_name="input_transpose_fusion.2"}
  %wrapped_iota = s64[200]{0} fusion(), kind=kLoop, calls=%wrapped_iota_computation, metadata={op_name="jit(_full_run)/jit(main)/jit(argsort)/iota" source_file="/global/homes/j/jackm/software/lorrax_C/src/solvers/lanczos.py" source_line=293 scheduling_name="wrapped_iota"}
  %bitcast.9675.0 = f64[200,200]{0,1} bitcast(%input_transpose_fusion.2), metadata={scheduling_name="bitcast.9675.0"}
  %custom-call.258.0 = (f64[200,200]{0,1}, f64[200]{0}, s32[]) custom-call(%bitcast.9675.0), custom_call_target="cusolver_syevd_ffi", operand_layout_constraints={f64[200,200]{0,1}}, output_to_operand_aliasing={{0}: (0, {})}, api_version=API_VERSION_TYPED_FFI, frontend_attributes={num_batch_dims="0"}, metadata={op_name="jit(_full_run)/jit(main)/jit(eigh)/eigh" source_file="/global/homes/j/jackm/software/lorrax_C/src/solvers/lanczos.py" source_line=292 scheduling_name="custom-call.258.0"}, backend_config={algorithm = 0 : ui8, lower = true}
  %call.4 = (f64[200]{0}, s64[200]{0}, (c128[5,512]{0,1}, s8[1654400]{0})) call(%custom-call.258.0, %wrapped_iota, %while.28.0), to_apply=%command_buffer
  %get-tuple-element.586 = f64[200]{0} get-tuple-element(%call.4), index=0
  %get-tuple-element.587 = s64[200]{0} get-tuple-element(%call.4), index=1
  %get-tuple-element.588 = (c128[5,512]{0,1}, s8[1654400]{0}) get-tuple-element(%call.4), index=2
  %get-tuple-element.477.0 = c128[5,512]{0,1} get-tuple-element(%get-tuple-element.588), index=0, metadata={op_name="jit(_full_run)/jit(main)/transpose" source_file="/global/homes/j/jackm/software/lorrax_C/src/solvers/lanczos.py" source_line=296 scheduling_name="get-tuple-element.477.0"}
  %all-gather-start.3 = (c128[5,512]{0,1}, c128[5,1024]{0,1}) all-gather-start(%get-tuple-element.477.0), channel_id=15, replica_groups=[2,2]<=[2,2]T(1,0), dimensions={1}, use_global_device_ids=true, metadata={op_name="jit(_full_run)/jit(main)/div" source_file="/global/homes/j/jackm/software/lorrax_C/src/solvers/lanczos.py" source_line=298 scheduling_name="all-gather-start.3"}, backend_config={"operation_queue_id":"0","wait_on_operation_queues":[],"collective_backend_config":{"is_sync":false,"no_parallel_custom_call":true,"is_pipelined":false,"reification_cost":[]},"force_earliest_schedule":false}
  %loop_real_fusion = f64[512,5]{1,0} fusion(%get-tuple-element.477.0), kind=kLoop, calls=%fused_real, metadata={op_name="jit(_full_run)/jit(main)/jit(norm)/real" source_file="/global/homes/j/jackm/software/lorrax_C/src/solvers/lanczos.py" source_line=297 scheduling_name="loop_real_fusion"}
  %input_reduce_fusion.7 = f64[5]{0} fusion(%loop_real_fusion), kind=kInput, calls=%fused_reduce.7, metadata={op_name="jit(_full_run)/jit(main)/jit(norm)/reduce_sum" source_file="/global/homes/j/jackm/software/lorrax_C/src/solvers/lanczos.py" source_line=297 scheduling_name="input_reduce_fusion.7"}
  %all-gather-done.3 = c128[5,1024]{0,1} all-gather-done(%all-gather-start.3), metadata={op_name="jit(_full_run)/jit(main)/div" source_file="/global/homes/j/jackm/software/lorrax_C/src/solvers/lanczos.py" source_line=298 scheduling_name="all-gather-done.3"}
  %all-reduce-start.5 = f64[5]{0} all-reduce-start(%input_reduce_fusion.7), channel_id=14, replica_groups=[2,2]<=[2,2]T(1,0), use_global_device_ids=true, to_apply=%region_18.1836.clone, metadata={op_name="jit(_full_run)/jit(main)/jit(norm)/reduce_sum" source_file="/global/homes/j/jackm/software/lorrax_C/src/solvers/lanczos.py" source_line=297 scheduling_name="all-reduce-start.5"}, backend_config={"operation_queue_id":"0","wait_on_operation_queues":[],"collective_backend_config":{"is_sync":false,"no_parallel_custom_call":true,"is_pipelined":false,"reification_cost":[]},"force_earliest_schedule":false}
  %loop_gather_fusion = f64[5,1]{1,0} fusion(%get-tuple-element.586, %get-tuple-element.587), kind=kLoop, calls=%fused_gather, metadata={op_name="jit(_full_run)/jit(main)/gather" source_file="/global/homes/j/jackm/software/lorrax_C/src/solvers/lanczos.py" source_line=294 scheduling_name="loop_gather_fusion"}
  %all-reduce-done.5 = f64[5]{0} all-reduce-done(%all-reduce-start.5), metadata={op_name="jit(_full_run)/jit(main)/jit(norm)/reduce_sum" source_file="/global/homes/j/jackm/software/lorrax_C/src/solvers/lanczos.py" source_line=297 scheduling_name="all-reduce-done.5"}
  %loop_transpose_fusion.12 = c128[5,1024]{1,0} fusion(%all-gather-done.3, %all-reduce-done.5), kind=kLoop, calls=%fused_transpose.15, metadata={scheduling_name="loop_transpose_fusion.12"}
  %bitcast.9708.0 = f64[5]{0} bitcast(%loop_gather_fusion), metadata={scheduling_name="bitcast.9708.0"}
  %tuple.125 = (f64[5]{0}, c128[5,1024]{1,0}, s32[]) tuple(%bitcast.9708.0, %loop_transpose_fusion.12, %constant_1525_0), metadata={scheduling_name="tuple.125"}
  %get-tuple-element.583 = f64[5]{0} get-tuple-element(%tuple.125), index=0
  %get-tuple-element.584 = c128[5,1024]{1,0} get-tuple-element(%tuple.125), index=1
  %get-tuple-element.585 = s32[] get-tuple-element(%tuple.125), index=2
  %copy.167 = s32[] copy(%get-tuple-element.585)
  ROOT %tuple.127 = (f64[5]{0}, c128[5,1024]{1,0}, s32[]) tuple(%get-tuple-element.583, %get-tuple-element.584, %copy.167)
}

