HloModule jit__fun_jit, is_scheduled=true, entry_computation_layout={(f64[60,16]{1,0})->f64[60,16]{1,0}}, allow_spmd_sharding_propagation_to_parameters={true}, allow_spmd_sharding_propagation_to_output={true}, frontend_attributes={fingerprint_before_lhs="1efeba9a91e81d3e4f4fbd45b79f3d21"}

%fused_select (param_0.43: f64[60,16]) -> f64[60,16] {
  %param_0.43 = f64[60,16]{1,0} parameter(0), metadata={scheduling_name="param_0.43"}
  %constant_7_1 = f64[] constant(-0.98024169093943125)
  %broadcast.63.5 = f64[60,16]{1,0} broadcast(%constant_7_1), dimensions={}, metadata={scheduling_name="broadcast.63.5"}
  %add.13.5 = f64[60,16]{1,0} add(%param_0.43, %broadcast.63.5), metadata={op_name="jit(_fun_jit)/jit(main)/sub" source_file="/global/homes/j/jackm/software/lorrax_C/src/bandstructure/htransform.py" source_line=276 scheduling_name="add.13.5"}
  %constant_22_1 = f64[] constant(0)
  %broadcast.64.2 = f64[60,16]{1,0} broadcast(%constant_22_1), dimensions={}, metadata={scheduling_name="broadcast.64.2"}
  %compare.8.1 = pred[60,16]{1,0} compare(%add.13.5, %broadcast.64.2), direction=GE, metadata={op_name="jit(_fun_jit)/jit(main)/ge" source_file="/global/homes/j/jackm/software/lorrax_C/src/bandstructure/htransform.py" source_line=286 scheduling_name="compare.8.1"}
  %compare.9.3 = pred[60,16]{1,0} compare(%add.13.5, %broadcast.64.2), direction=LT, metadata={op_name="jit(_fun_jit)/jit(main)/lt" source_file="/global/homes/j/jackm/software/lorrax_C/src/bandstructure/htransform.py" source_line=278 scheduling_name="compare.9.3"}
  %constant_24_1 = f64[] constant(-0.65647605190884883)
  %broadcast.67.3 = f64[60,16]{1,0} broadcast(%constant_24_1), dimensions={}, metadata={scheduling_name="broadcast.67.3"}
  %compare.10.3 = pred[60,16]{1,0} compare(%add.13.5, %broadcast.67.3), direction=LE, metadata={op_name="jit(_fun_jit)/jit(main)/le" source_file="/global/homes/j/jackm/software/lorrax_C/src/bandstructure/htransform.py" source_line=277 scheduling_name="compare.10.3"}
  %not.2.3 = pred[60,16]{1,0} not(%compare.10.3), metadata={op_name="jit(_fun_jit)/jit(main)/not" source_file="/global/homes/j/jackm/software/lorrax_C/src/bandstructure/htransform.py" source_line=278 scheduling_name="not.2.3"}
  %and.2.3 = pred[60,16]{1,0} and(%compare.9.3, %not.2.3), metadata={op_name="jit(_fun_jit)/jit(main)/and" source_file="/global/homes/j/jackm/software/lorrax_C/src/bandstructure/htransform.py" source_line=278 scheduling_name="and.2.3"}
  %constant_8_1 = f64[] constant(0.10539922456186433)
  %broadcast.68.1 = f64[60,16]{1,0} broadcast(%constant_8_1), dimensions={}, metadata={scheduling_name="broadcast.68.1"}
  %constant_12_1 = f64[] constant(2)
  %broadcast.69.1 = f64[60,16]{1,0} broadcast(%constant_12_1), dimensions={}, metadata={scheduling_name="broadcast.69.1"}
  %multiply.24.5 = f64[60,16]{1,0} multiply(%add.13.5, %broadcast.69.1), metadata={op_name="jit(_fun_jit)/jit(main)/mul" source_file="/global/homes/j/jackm/software/lorrax_C/src/bandstructure/htransform.py" source_line=281 scheduling_name="multiply.24.5"}
  %constant_18_1 = f64[] constant(0.65647605190884883)
  %broadcast.70.1 = f64[60,16]{1,0} broadcast(%constant_18_1), dimensions={}, metadata={scheduling_name="broadcast.70.1"}
  %add.14.5 = f64[60,16]{1,0} add(%multiply.24.5, %broadcast.70.1), metadata={op_name="jit(_fun_jit)/jit(main)/add" source_file="/global/homes/j/jackm/software/lorrax_C/src/bandstructure/htransform.py" source_line=281 scheduling_name="add.14.5"}
  %constant_9_1 = f64[] constant(2.2849272195663795)
  %broadcast.71.1 = f64[60,16]{1,0} broadcast(%constant_9_1), dimensions={}, metadata={op_name="jit(_fun_jit)/jit(main)/div" source_file="/global/homes/j/jackm/software/lorrax_C/src/bandstructure/htransform.py" source_line=281 scheduling_name="broadcast.71.1"}
  %multiply.25.5 = f64[60,16]{1,0} multiply(%add.14.5, %broadcast.71.1), metadata={op_name="jit(_fun_jit)/jit(main)/div" source_file="/global/homes/j/jackm/software/lorrax_C/src/bandstructure/htransform.py" source_line=281 scheduling_name="multiply.25.5"}
  %multiply.26.7 = f64[60,16]{1,0} multiply(%multiply.25.5, %multiply.25.5), metadata={op_name="jit(_fun_jit)/jit(main)/integer_pow" source_file="/global/homes/j/jackm/software/lorrax_C/src/bandstructure/htransform.py" source_line=281 scheduling_name="multiply.26.7"}
  %negate.3.7 = f64[60,16]{1,0} negate(%multiply.26.7), metadata={op_name="jit(_fun_jit)/jit(main)/neg" source_file="/global/homes/j/jackm/software/lorrax_C/src/bandstructure/htransform.py" source_line=281 scheduling_name="negate.3.7"}
  %exponential.2.5 = f64[60,16]{1,0} exponential(%negate.3.7), metadata={op_name="jit(_fun_jit)/jit(main)/exp" source_file="/global/homes/j/jackm/software/lorrax_C/src/bandstructure/htransform.py" source_line=281 scheduling_name="exponential.2.5"}
  %subtract.4.5 = f64[60,16]{1,0} subtract(%broadcast.68.1, %exponential.2.5), metadata={op_name="jit(_fun_jit)/jit(main)/sub" source_file="/global/homes/j/jackm/software/lorrax_C/src/bandstructure/htransform.py" source_line=281 scheduling_name="subtract.4.5"}
  %constant_11_1 = f64[] constant(0.063895210524236287)
  %broadcast.72.1 = f64[60,16]{1,0} broadcast(%constant_11_1), dimensions={}, metadata={op_name="jit(_fun_jit)/jit(main)/div" source_file="/global/homes/j/jackm/software/lorrax_C/src/bandstructure/htransform.py" source_line=281 scheduling_name="broadcast.72.1"}
  %multiply.27.5 = f64[60,16]{1,0} multiply(%subtract.4.5, %broadcast.72.1), metadata={op_name="jit(_fun_jit)/jit(main)/div" source_file="/global/homes/j/jackm/software/lorrax_C/src/bandstructure/htransform.py" source_line=281 scheduling_name="multiply.27.5"}
  %constant_4_1 = f64[] constant(0.96610514647531076)
  %broadcast.74.1 = f64[60,16]{1,0} broadcast(%constant_4_1), dimensions={}, metadata={scheduling_name="broadcast.74.1"}
  %constant_3_1 = f64[] constant(1.5232848130442529)
  %broadcast.75.1 = f64[60,16]{1,0} broadcast(%constant_3_1), dimensions={}, metadata={scheduling_name="broadcast.75.1"}
  %multiply.28.9 = f64[60,16]{1,0} multiply(%add.13.5, %broadcast.75.1), metadata={op_name="jit(_fun_jit)/jit(main)/div" source_file="/global/homes/j/jackm/software/lorrax_C/src/bandstructure/htransform.py" source_line=280 scheduling_name="multiply.28.9"}
  %constant_16_1 = f64[] constant(0.5)
  %broadcast.76.1 = f64[60,16]{1,0} broadcast(%constant_16_1), dimensions={}, metadata={scheduling_name="broadcast.76.1"}
  %add.15.9 = f64[60,16]{1,0} add(%multiply.28.9, %broadcast.76.1), metadata={op_name="jit(_fun_jit)/jit(main)/add" source_file="/global/homes/j/jackm/software/lorrax_C/src/bandstructure/htransform.py" source_line=280 scheduling_name="add.15.9"}
  %constant_14_1 = f64[] constant(3)
  %broadcast.77.1 = f64[60,16]{1,0} broadcast(%constant_14_1), dimensions={}, metadata={scheduling_name="broadcast.77.1"}
  %multiply.29.7 = f64[60,16]{1,0} multiply(%add.15.9, %broadcast.77.1), metadata={op_name="jit(_fun_jit)/jit(main)/mul" source_file="/global/homes/j/jackm/software/lorrax_C/src/bandstructure/htransform.py" source_line=280 scheduling_name="multiply.29.7"}
  %erf.2.7 = f64[60,16]{1,0} erf(%multiply.29.7), metadata={op_name="jit(_fun_jit)/jit(main)/erf" source_file="/global/homes/j/jackm/software/lorrax_C/src/bandstructure/htransform.py" source_line=282 scheduling_name="erf.2.7"}
  %subtract.5.5 = f64[60,16]{1,0} subtract(%broadcast.74.1, %erf.2.7), metadata={op_name="jit(_fun_jit)/jit(main)/sub" source_file="/global/homes/j/jackm/software/lorrax_C/src/bandstructure/htransform.py" source_line=282 scheduling_name="subtract.5.5"}
  %multiply.30.5 = f64[60,16]{1,0} multiply(%add.14.5, %subtract.5.5), metadata={op_name="jit(_fun_jit)/jit(main)/mul" source_file="/global/homes/j/jackm/software/lorrax_C/src/bandstructure/htransform.py" source_line=282 scheduling_name="multiply.30.5"}
  %constant_5_1 = f64[] constant(0.25877100532181968)
  %broadcast.78.1 = f64[60,16]{1,0} broadcast(%constant_5_1), dimensions={}, metadata={scheduling_name="broadcast.78.1"}
  %multiply.31.3 = f64[60,16]{1,0} multiply(%multiply.30.5, %broadcast.78.1), metadata={op_name="jit(_fun_jit)/jit(main)/div" source_file="/global/homes/j/jackm/software/lorrax_C/src/bandstructure/htransform.py" source_line=282 scheduling_name="multiply.31.3"}
  %add.16.3 = f64[60,16]{1,0} add(%multiply.27.5, %multiply.31.3), metadata={op_name="jit(_fun_jit)/jit(main)/add" source_file="/global/homes/j/jackm/software/lorrax_C/src/bandstructure/htransform.py" source_line=283 scheduling_name="add.16.3"}
  %constant_13_1 = f64[] constant(-0.65200366498500684)
  %broadcast.79.1 = f64[60,16]{1,0} broadcast(%constant_13_1), dimensions={}, metadata={op_name="jit(_fun_jit)/jit(main)/add" source_file="/global/homes/j/jackm/software/lorrax_C/src/bandstructure/htransform.py" source_line=279 scheduling_name="broadcast.79.1"}
  %add.17.1 = f64[60,16]{1,0} add(%param_0.43, %broadcast.79.1), metadata={op_name="jit(_fun_jit)/jit(main)/add" source_file="/global/homes/j/jackm/software/lorrax_C/src/bandstructure/htransform.py" source_line=279 scheduling_name="add.17.1"}
  %select.12.1 = f64[60,16]{1,0} select(%compare.10.3, %add.17.1, %broadcast.64.2), metadata={op_name="jit(_fun_jit)/jit(main)/jit(_where)/select_n" source_file="/global/homes/j/jackm/software/lorrax_C/src/bandstructure/htransform.py" source_line=284 scheduling_name="select.12.1"}
  %select.13.1 = f64[60,16]{1,0} select(%and.2.3, %add.16.3, %select.12.1), metadata={op_name="jit(_fun_jit)/jit(main)/jit(_where)/select_n" source_file="/global/homes/j/jackm/software/lorrax_C/src/bandstructure/htransform.py" source_line=285 scheduling_name="select.13.1"}
  %select.14.1 = f64[60,16]{1,0} select(%compare.8.1, %broadcast.64.2, %select.13.1), metadata={op_name="jit(_fun_jit)/jit(main)/jit(_where)/select_n" source_file="/global/homes/j/jackm/software/lorrax_C/src/bandstructure/htransform.py" source_line=286 scheduling_name="select.14.1"}
  %compare.11.1 = pred[60,16]{1,0} compare(%select.14.1, %broadcast.64.2), direction=GT, metadata={op_name="jit(_fun_jit)/jit(main)/gt" source_file="/global/homes/j/jackm/software/lorrax_C/src/bandstructure/htransform.py" source_line=287 scheduling_name="compare.11.1"}
  ROOT %select.15.1 = f64[60,16]{1,0} select(%compare.11.1, %broadcast.64.2, %select.14.1), metadata={op_name="jit(_fun_jit)/jit(main)/jit(_where)/select_n" source_file="/global/homes/j/jackm/software/lorrax_C/src/bandstructure/htransform.py" source_line=286 scheduling_name="select.15.1"}
}

ENTRY %main.84 (Arg_0.1.0: f64[60,16]) -> f64[60,16] {
  %Arg_0.1.0 = f64[60,16]{1,0} parameter(0), metadata={op_name="x" scheduling_name="Arg_0.1.0"}
  ROOT %loop_select_fusion = f64[60,16]{1,0} fusion(%Arg_0.1.0), kind=kLoop, calls=%fused_select, metadata={op_name="jit(_fun_jit)/jit(main)/jit(_where)/select_n" source_file="/global/homes/j/jackm/software/lorrax_C/src/bandstructure/htransform.py" source_line=286 scheduling_name="loop_select_fusion"}
}

