HloModule jit__full_run, entry_computation_layout={(c128[64,4,2,480]{3,2,1,0}, c128[64,4,2,480]{3,2,1,0}, c128[64,4,2,480]{3,2,1,0}, c128[64,4,2,480]{3,2,1,0}, f64[64,4]{1,0}, /*index=5*/f64[64,4]{1,0}, c128[480,480,4,4,4]{4,3,2,1,0}, c128[480,480]{1,0})->(f64[20]{0}, c128[20,1024]{1,0})}, allow_spmd_sharding_propagation_to_parameters={false,false,false,false,false,false,false,false}, allow_spmd_sharding_propagation_to_output={false,false}, num_partitions=4

%region_0.1148 (Arg_0.1149: f64[], Arg_1.1150: f64[]) -> f64[] {
  %Arg_0.1149 = f64[] parameter(0), metadata={op_name="jit(_full_run)/jit(main)/jit(norm)/reduce_sum"}
  %Arg_1.1150 = f64[] parameter(1), metadata={op_name="jit(_full_run)/jit(main)/jit(norm)/reduce_sum"}
  ROOT %add.1151 = f64[] add(%Arg_0.1149, %Arg_1.1150), metadata={op_name="jit(_full_run)/jit(main)/jit(norm)/reduce_sum" source_file="/global/homes/j/jackm/software/lorrax_C/src/solvers/lanczos.py" source_line=249}
}

%region_21.1959 (Arg_0.1960: f64[], Arg_1.1961: f64[], Arg_2.1962: s64[], Arg_3.1963: s64[]) -> pred[] {
  %Arg_2.1962 = s64[] parameter(2), metadata={op_name="jit(_full_run)/jit(main)/jit(argsort)/sort"}
  %Arg_3.1963 = s64[] parameter(3), metadata={op_name="jit(_full_run)/jit(main)/jit(argsort)/sort"}
  %constant.1964 = f64[] constant(nan)
  %constant.1965 = f64[] constant(0)
  %Arg_0.1960 = f64[] parameter(0), metadata={op_name="jit(_full_run)/jit(main)/jit(argsort)/sort"}
  %compare.1968 = pred[] compare(%Arg_0.1960, %Arg_0.1960), direction=NE, metadata={op_name="jit(_full_run)/jit(main)/jit(argsort)/ne" source_file="/global/homes/j/jackm/software/lorrax_C/src/solvers/lanczos.py" source_line=293}
  %constant.1218 = f64[] constant(nan)
  %constant.1220 = f64[] constant(0)
  %compare.1966 = pred[] compare(%Arg_0.1960, %constant.1220), direction=EQ, metadata={op_name="jit(_full_run)/jit(main)/jit(argsort)/eq" source_file="/global/homes/j/jackm/software/lorrax_C/src/solvers/lanczos.py" source_line=293}
  %constant.1221 = f64[] constant(0)
  %select.1967 = f64[] select(%compare.1966, %constant.1221, %Arg_0.1960), metadata={op_name="jit(_full_run)/jit(main)/jit(argsort)/select_n" source_file="/global/homes/j/jackm/software/lorrax_C/src/solvers/lanczos.py" source_line=293}
  %select.1969 = f64[] select(%compare.1968, %constant.1218, %select.1967), metadata={op_name="jit(_full_run)/jit(main)/jit(argsort)/select_n" source_file="/global/homes/j/jackm/software/lorrax_C/src/solvers/lanczos.py" source_line=293}
  %Arg_1.1961 = f64[] parameter(1), metadata={op_name="jit(_full_run)/jit(main)/jit(argsort)/sort"}
  %compare.1972 = pred[] compare(%Arg_1.1961, %Arg_1.1961), direction=NE, metadata={op_name="jit(_full_run)/jit(main)/jit(argsort)/ne" source_file="/global/homes/j/jackm/software/lorrax_C/src/solvers/lanczos.py" source_line=293}
  %constant.1219 = f64[] constant(nan)
  %constant.1229 = f64[] constant(0)
  %compare.1970 = pred[] compare(%Arg_1.1961, %constant.1229), direction=EQ, metadata={op_name="jit(_full_run)/jit(main)/jit(argsort)/eq" source_file="/global/homes/j/jackm/software/lorrax_C/src/solvers/lanczos.py" source_line=293}
  %constant.1230 = f64[] constant(0)
  %select.1971 = f64[] select(%compare.1970, %constant.1230, %Arg_1.1961), metadata={op_name="jit(_full_run)/jit(main)/jit(argsort)/select_n" source_file="/global/homes/j/jackm/software/lorrax_C/src/solvers/lanczos.py" source_line=293}
  %select.1973 = f64[] select(%compare.1972, %constant.1219, %select.1971), metadata={op_name="jit(_full_run)/jit(main)/jit(argsort)/select_n" source_file="/global/homes/j/jackm/software/lorrax_C/src/solvers/lanczos.py" source_line=293}
  ROOT %compare.1974 = pred[] compare(%select.1969, %select.1973), direction=LT, type=TOTALORDER, metadata={op_name="jit(_full_run)/jit(main)/jit(argsort)/lt_to" source_file="/global/homes/j/jackm/software/lorrax_C/src/solvers/lanczos.py" source_line=293}
}

%region_22.1998 (Arg_0.1999: f64[], Arg_1.2000: f64[]) -> f64[] {
  %Arg_0.1999 = f64[] parameter(0), metadata={op_name="jit(_full_run)/jit(main)/jit(norm)/reduce_sum"}
  %Arg_1.2000 = f64[] parameter(1), metadata={op_name="jit(_full_run)/jit(main)/jit(norm)/reduce_sum"}
  ROOT %add.2001 = f64[] add(%Arg_0.1999, %Arg_1.2000), metadata={op_name="jit(_full_run)/jit(main)/jit(norm)/reduce_sum" source_file="/global/homes/j/jackm/software/lorrax_C/src/solvers/lanczos.py" source_line=297}
}

%and.reduce_sub_computation.3 (lhs.3: pred[], rhs.3: pred[]) -> pred[] {
  %lhs.3 = pred[] parameter(0)
  %rhs.3 = pred[] parameter(1)
  ROOT %and.16 = pred[] and(%lhs.3, %rhs.3)
}

%region_6.1286 (Arg_0.1287: c128[], Arg_1.1288: c128[]) -> c128[] {
  %Arg_0.1287 = c128[] parameter(0), metadata={op_name="jit(_full_run)/jit(main)/while/body/jit(_matvec_impl)/jit(shmap_body)/while/body/reduce_sum"}
  %Arg_1.1288 = c128[] parameter(1), metadata={op_name="jit(_full_run)/jit(main)/while/body/jit(_matvec_impl)/jit(shmap_body)/while/body/reduce_sum"}
  ROOT %add.1289 = c128[] add(%Arg_0.1287, %Arg_1.1288), metadata={op_name="jit(_full_run)/jit(main)/while/body/jit(_matvec_impl)/jit(shmap_body)/while/body/reduce_sum" source_file="/global/homes/j/jackm/software/lorrax_C/src/bse/bse_ring_comm.py" source_line=281}
}

%region_5.1298 (arg_tuple.1299: (s64[], c128[1,2,240,64], c128[1,240,64])) -> (s64[], c128[1,2,240,64], c128[1,240,64]) {
  %arg_tuple.1299 = (s64[], c128[1,2,240,64]{3,2,1,0}, c128[1,240,64]{2,1,0}) parameter(0), sharding={{replicated}, {manual}, {manual}}
  %get-tuple-element.1300 = s64[] get-tuple-element(%arg_tuple.1299), index=0, sharding={replicated}
  %constant.1303 = s64[] constant(1), sharding={replicated}
  %add.1307 = s64[] add(%get-tuple-element.1300, %constant.1303), sharding={replicated}, metadata={op_name="jit(_full_run)/jit(main)/while/body/jit(_matvec_impl)/jit(shmap_body)/while/body/add" source_file="/global/homes/j/jackm/software/lorrax_C/src/bse/bse_ring_comm.py" source_line=285}
  %get-tuple-element.1301 = c128[1,2,240,64]{3,2,1,0} get-tuple-element(%arg_tuple.1299), index=1, sharding={manual}
  %collective-permute.1 = c128[1,2,240,64]{3,2,1,0} collective-permute(%get-tuple-element.1301), channel_id=2, source_target_pairs={{0,2},{2,0},{1,3},{3,1}}, sharding={manual}, metadata={op_name="jit(_full_run)/jit(main)/while/body/jit(_matvec_impl)/jit(shmap_body)/while/body/ppermute" source_file="/global/homes/j/jackm/software/lorrax_C/src/bse/bse_ring_comm.py" source_line=282}
  %get-tuple-element.1302 = c128[1,240,64]{2,1,0} get-tuple-element(%arg_tuple.1299), index=2, sharding={manual}
  %constant.321 = c128[] constant((0, 0)), sharding={manual}
  %reduce.0 = c128[1,240,64]{2,1,0} reduce(%get-tuple-element.1301, %constant.321), dimensions={1}, to_apply=%region_6.1286, sharding={manual}, metadata={op_name="jit(_full_run)/jit(main)/while/body/jit(_matvec_impl)/jit(shmap_body)/while/body/reduce_sum" source_file="/global/homes/j/jackm/software/lorrax_C/src/bse/bse_ring_comm.py" source_line=281}
  %add.386 = c128[1,240,64]{2,1,0} add(%get-tuple-element.1302, %reduce.0), sharding={manual}, metadata={op_name="jit(_full_run)/jit(main)/while/body/jit(_matvec_impl)/jit(shmap_body)/while/body/add" source_file="/global/homes/j/jackm/software/lorrax_C/src/bse/bse_ring_comm.py" source_line=281}
  ROOT %tuple.1308 = (s64[], c128[1,2,240,64]{3,2,1,0}, c128[1,240,64]{2,1,0}) tuple(%add.1307, %collective-permute.1, %add.386), sharding={{replicated}, {manual}, {manual}}
}

%region_7.1309 (arg_tuple.1310: (s64[], c128[1,2,240,64], c128[1,240,64])) -> pred[] {
  %arg_tuple.1310 = (s64[], c128[1,2,240,64]{3,2,1,0}, c128[1,240,64]{2,1,0}) parameter(0), sharding={{replicated}, {manual}, {manual}}
  %get-tuple-element.1311 = s64[] get-tuple-element(%arg_tuple.1310), index=0, sharding={replicated}
  %constant.1314 = s64[] constant(2), sharding={replicated}
  ROOT %compare.1315 = pred[] compare(%get-tuple-element.1311, %constant.1314), direction=LT, sharding={replicated}, metadata={op_name="jit(_full_run)/jit(main)/while/body/jit(_matvec_impl)/jit(shmap_body)/while/cond/lt" source_file="/global/homes/j/jackm/software/lorrax_C/src/bse/bse_ring_comm.py" source_line=285}
}

%region_8.1316 (Arg_0.1317: c128[], Arg_1.1318: c128[]) -> c128[] {
  %Arg_0.1317 = c128[] parameter(0), metadata={op_name="jit(_full_run)/jit(main)/while/body/jit(_matvec_impl)/jit(shmap_body)/psum2"}
  %Arg_1.1318 = c128[] parameter(1), metadata={op_name="jit(_full_run)/jit(main)/while/body/jit(_matvec_impl)/jit(shmap_body)/psum2"}
  ROOT %add.1319 = c128[] add(%Arg_0.1317, %Arg_1.1318), metadata={op_name="jit(_full_run)/jit(main)/while/body/jit(_matvec_impl)/jit(shmap_body)/add" source_file="/global/homes/j/jackm/software/lorrax_C/src/bse/bse_ring_comm.py" source_line=290}
}

%region_9.1320 (Arg_0.1321: c128[], Arg_1.1322: c128[]) -> c128[] {
  %Arg_0.1321 = c128[] parameter(0), metadata={op_name="jit(_full_run)/jit(main)/while/body/jit(_matvec_impl)/jit(shmap_body)/reduce_scatter"}
  %Arg_1.1322 = c128[] parameter(1), metadata={op_name="jit(_full_run)/jit(main)/while/body/jit(_matvec_impl)/jit(shmap_body)/reduce_scatter"}
  ROOT %add.1323 = c128[] add(%Arg_0.1321, %Arg_1.1322), metadata={op_name="jit(_full_run)/jit(main)/while/body/jit(_matvec_impl)/jit(shmap_body)/add" source_file="/global/homes/j/jackm/software/lorrax_C/src/bse/bse_ring_comm.py" source_line=298}
}

%scalar_add_computation (scalar_lhs: c128[], scalar_rhs: c128[]) -> c128[] {
  %scalar_lhs = c128[] parameter(0)
  %scalar_rhs = c128[] parameter(1)
  ROOT %add.577 = c128[] add(%scalar_lhs, %scalar_rhs)
}

%region_15.1666 (arg_tuple.1667: (s64[], c128[1024], s64[], s64[], c128[1024,200])) -> (s64[], c128[1024], s64[], s64[], c128[1024,200]) {
  %constant.1675 = s64[] constant(0)
  %arg_tuple.1667 = (s64[], c128[1024]{0}, s64[], s64[], c128[1024,200]{1,0}) parameter(0), sharding={{replicated}, {devices=[2,2]<=[4] last_tile_dim_replicate}, {replicated}, {replicated}, {devices=[2,1,2]<=[4] last_tile_dim_replicate}}
  %get-tuple-element.1668 = s64[] get-tuple-element(%arg_tuple.1667), index=0, sharding={replicated}
  %constant.1676 = s64[] constant(1), sharding={replicated}
  %add.1677 = s64[] add(%get-tuple-element.1668, %constant.1676), sharding={replicated}, metadata={op_name="jit(_full_run)/jit(main)/while/body/while/body/add" source_file="/global/homes/j/jackm/software/lorrax_C/src/solvers/lanczos.py" source_line=275}
  %get-tuple-element.1669 = c128[1024]{0} get-tuple-element(%arg_tuple.1667), index=1, sharding={devices=[2,2]<=[4] last_tile_dim_replicate}
  %get-tuple-element.1671 = s64[] get-tuple-element(%arg_tuple.1667), index=3, sharding={replicated}
  %compare.1678 = pred[] compare(%get-tuple-element.1668, %get-tuple-element.1671), direction=LT, sharding={replicated}, metadata={op_name="jit(_full_run)/jit(main)/while/body/while/body/lt" source_file="/global/homes/j/jackm/software/lorrax_C/src/solvers/lanczos.py" source_line=269}
  %get-tuple-element.1672 = c128[1024,200]{1,0} get-tuple-element(%arg_tuple.1667), index=4, sharding={devices=[2,1,2]<=[4] last_tile_dim_replicate}
  %constant.1217 = s64[] constant(0)
  %constant.1216 = s64[] constant(0), sharding={replicated}
  %compare.1679 = pred[] compare(%get-tuple-element.1668, %constant.1216), direction=LT, sharding={replicated}, metadata={op_name="jit(_full_run)/jit(main)/while/body/while/body/lt" source_file="/global/homes/j/jackm/software/lorrax_C/src/solvers/lanczos.py" source_line=270}
  %constant.1674 = s64[] constant(200), sharding={replicated}
  %add.1680 = s64[] add(%get-tuple-element.1668, %constant.1674), sharding={replicated}, metadata={op_name="jit(_full_run)/jit(main)/while/body/while/body/add" source_file="/global/homes/j/jackm/software/lorrax_C/src/solvers/lanczos.py" source_line=270}
  %select.1681 = s64[] select(%compare.1679, %add.1680, %get-tuple-element.1668), sharding={replicated}, metadata={op_name="jit(_full_run)/jit(main)/while/body/while/body/select_n" source_file="/global/homes/j/jackm/software/lorrax_C/src/solvers/lanczos.py" source_line=270}
  %dynamic-slice.1682 = c128[1024,1]{1,0} dynamic-slice(%get-tuple-element.1672, %constant.1217, %select.1681), dynamic_slice_sizes={1024,1}, sharding={devices=[2,1,2]<=[4] last_tile_dim_replicate}, metadata={op_name="jit(_full_run)/jit(main)/while/body/while/body/dynamic_slice" source_file="/global/homes/j/jackm/software/lorrax_C/src/solvers/lanczos.py" source_line=270}
  %real.39 = f64[1024,1]{1,0} real(%dynamic-slice.1682), sharding={devices=[2,1,2]<=[4] last_tile_dim_replicate}, metadata={op_name="jit(_full_run)/jit(main)/while/body/while/body/real" source_file="/global/homes/j/jackm/software/lorrax_C/src/solvers/lanczos.py" source_line=271}
  %imag.30 = f64[1024,1]{1,0} imag(%dynamic-slice.1682), sharding={devices=[2,1,2]<=[4] last_tile_dim_replicate}, metadata={op_name="jit(_full_run)/jit(main)/while/body/while/body/imag" source_file="/global/homes/j/jackm/software/lorrax_C/src/solvers/lanczos.py" source_line=271}
  %negate.57 = f64[1024,1]{1,0} negate(%imag.30), sharding={devices=[2,1,2]<=[4] last_tile_dim_replicate}, metadata={op_name="jit(_full_run)/jit(main)/while/body/while/body/neg" source_file="/global/homes/j/jackm/software/lorrax_C/src/solvers/lanczos.py" source_line=271}
  %complex.37 = c128[1024,1]{1,0} complex(%real.39, %negate.57), sharding={devices=[2,1,2]<=[4] last_tile_dim_replicate}, metadata={op_name="jit(_full_run)/jit(main)/while/body/while/body/complex" source_file="/global/homes/j/jackm/software/lorrax_C/src/solvers/lanczos.py" source_line=271}
  %reshape.474 = c128[1024]{0} reshape(%complex.37), sharding={devices=[2,2]<=[4] last_tile_dim_replicate}, metadata={op_name="jit(_full_run)/jit(main)/while/body/while/body/complex" source_file="/global/homes/j/jackm/software/lorrax_C/src/solvers/lanczos.py" source_line=271}
  %multiply.132 = c128[1024]{0} multiply(%reshape.474, %get-tuple-element.1669), sharding={devices=[2,2]<=[4] last_tile_dim_replicate}
  %constant.679 = c128[] constant((0, 0))
  %reduce.6 = c128[] reduce(%multiply.132, %constant.679), dimensions={0}, to_apply=%scalar_add_computation, sharding={replicated}, metadata={op_name="jit(_full_run)/jit(main)/while/body/while/body/dot_general" source_file="/global/homes/j/jackm/software/lorrax_C/src/solvers/lanczos.py" source_line=271}
  %constant.1673 = c128[] constant((0, 0)), sharding={replicated}
  %select.113 = c128[] select(%compare.1678, %reduce.6, %constant.1673), sharding={replicated}, metadata={op_name="jit(_full_run)/jit(main)/while/body/while/body/jit(_where)/select_n" source_file="/global/homes/j/jackm/software/lorrax_C/src/solvers/lanczos.py" source_line=271}
  %broadcast.1060 = c128[1024,1]{1,0} broadcast(%select.113), dimensions={}, sharding={devices=[2,1,2]<=[4] last_tile_dim_replicate}, metadata={op_name="jit(_full_run)/jit(main)/while/body/while/body/mul" source_file="/global/homes/j/jackm/software/lorrax_C/src/solvers/lanczos.py" source_line=272}
  %multiply.181 = c128[1024,1]{1,0} multiply(%broadcast.1060, %dynamic-slice.1682), sharding={devices=[2,1,2]<=[4] last_tile_dim_replicate}, metadata={op_name="jit(_full_run)/jit(main)/while/body/while/body/mul" source_file="/global/homes/j/jackm/software/lorrax_C/src/solvers/lanczos.py" source_line=272}
  %reshape.340 = c128[1024]{0} reshape(%multiply.181), sharding={devices=[2,2]<=[4] last_tile_dim_replicate}, metadata={op_name="jit(_full_run)/jit(main)/while/body/while/body/mul" source_file="/global/homes/j/jackm/software/lorrax_C/src/solvers/lanczos.py" source_line=272}
  %subtract.1692 = c128[1024]{0} subtract(%get-tuple-element.1669, %reshape.340), sharding={devices=[2,2]<=[4] last_tile_dim_replicate}, metadata={op_name="jit(_full_run)/jit(main)/while/body/while/body/sub" source_file="/global/homes/j/jackm/software/lorrax_C/src/solvers/lanczos.py" source_line=272}
  %get-tuple-element.1670 = s64[] get-tuple-element(%arg_tuple.1667), index=2, sharding={replicated}
  ROOT %tuple.1693 = (s64[], c128[1024]{0}, s64[], s64[], c128[1024,200]{1,0}) tuple(%add.1677, %subtract.1692, %get-tuple-element.1670, %get-tuple-element.1671, %get-tuple-element.1672), sharding={{replicated}, {devices=[2,2]<=[4] last_tile_dim_replicate}, {replicated}, {replicated}, {devices=[2,1,2]<=[4] last_tile_dim_replicate}}
}

%region_16.1694 (arg_tuple.1695: (s64[], c128[1024], s64[], s64[], c128[1024,200])) -> pred[] {
  %arg_tuple.1695 = (s64[], c128[1024]{0}, s64[], s64[], c128[1024,200]{1,0}) parameter(0), sharding={{replicated}, {devices=[2,2]<=[4] last_tile_dim_replicate}, {replicated}, {replicated}, {devices=[2,1,2]<=[4] last_tile_dim_replicate}}
  %get-tuple-element.1696 = s64[] get-tuple-element(%arg_tuple.1695), index=0, sharding={replicated}
  %get-tuple-element.1698 = s64[] get-tuple-element(%arg_tuple.1695), index=2, sharding={replicated}
  ROOT %compare.1701 = pred[] compare(%get-tuple-element.1696, %get-tuple-element.1698), direction=LT, sharding={replicated}, metadata={op_name="jit(_full_run)/jit(main)/while/body/while/cond/lt" source_file="/global/homes/j/jackm/software/lorrax_C/src/solvers/lanczos.py" source_line=275}
}

%region_17.1702 (Arg_0.1703: f64[], Arg_1.1704: f64[]) -> f64[] {
  %Arg_0.1703 = f64[] parameter(0), metadata={op_name="jit(_full_run)/jit(main)/while/body/jit(norm)/reduce_sum"}
  %Arg_1.1704 = f64[] parameter(1), metadata={op_name="jit(_full_run)/jit(main)/while/body/jit(norm)/reduce_sum"}
  ROOT %add.1705 = f64[] add(%Arg_0.1703, %Arg_1.1704), metadata={op_name="jit(_full_run)/jit(main)/while/body/jit(norm)/reduce_sum" source_file="/global/homes/j/jackm/software/lorrax_C/src/solvers/lanczos.py" source_line=277}
}

%and.reduce_sub_computation (lhs: pred[], rhs: pred[]) -> pred[] {
  %lhs = pred[] parameter(0)
  %rhs = pred[] parameter(1)
  ROOT %and.10 = pred[] and(%lhs, %rhs)
}

%region_3.1258.clone.clone.clone.1 (arg_tuple.21: (s64[], c128[1,2,2,64], c128[1,2,240,64], s32[], c128[64,4,2,240], /*index=5*/c128[64,2,2,240])) -> (s64[], c128[1,2,2,64], c128[1,2,240,64], s32[], c128[64,4,2,240], /*index=5*/c128[64,2,2,240]) {
  %arg_tuple.21 = (s64[], c128[1,2,2,64]{3,2,1,0}, c128[1,2,240,64]{3,2,1,0}, s32[], c128[64,4,2,240]{3,2,1,0}, /*index=5*/c128[64,2,2,240]{3,2,1,0}) parameter(0), sharding={{manual}, {manual}, {manual}, {manual}, {manual}, /*index=5*/{manual}}
  %get-tuple-element.582 = s64[] get-tuple-element(%arg_tuple.21), index=0, sharding={manual}
  %constant.1186 = s64[] constant(1), sharding={manual}
  %add.743 = s64[] add(%get-tuple-element.582, %constant.1186), sharding={manual}, metadata={op_name="jit(_full_run)/jit(main)/while/body/jit(_matvec_impl)/jit(shmap_body)/while/body/add" source_file="/global/homes/j/jackm/software/lorrax_C/src/bse/bse_ring_comm.py" source_line=274}
  %get-tuple-element.580 = c128[1,2,2,64]{3,2,1,0} get-tuple-element(%arg_tuple.21), index=1, sharding={manual}
  %collective-permute.13 = c128[1,2,2,64]{3,2,1,0} collective-permute(%get-tuple-element.580), channel_id=1, source_target_pairs={{0,1},{1,0},{2,3},{3,2}}, sharding={manual}, metadata={op_name="jit(_full_run)/jit(main)/while/body/jit(_matvec_impl)/jit(shmap_body)/while/body/ppermute" source_file="/global/homes/j/jackm/software/lorrax_C/src/bse/bse_ring_comm.py" source_line=271}
  %get-tuple-element.579 = c128[1,2,240,64]{3,2,1,0} get-tuple-element(%arg_tuple.21), index=2, sharding={manual}
  %reshape.492 = c128[2,2,64]{2,1,0} reshape(%get-tuple-element.580), sharding={manual}
  %get-tuple-element.577 = c128[64,4,2,240]{3,2,1,0} get-tuple-element(%arg_tuple.21), index=4, sharding={manual}
  %constant.1187 = s32[] constant(0), sharding={manual}, metadata={op_name="jit(_full_run)/jit(main)/while/body/jit(_matvec_impl)/jit(shmap_body)/while/body/select_n" source_file="/global/homes/j/jackm/software/lorrax_C/src/bse/bse_ring_comm.py" source_line=266}
  %get-tuple-element.578 = s32[] get-tuple-element(%arg_tuple.21), index=3, sharding={manual}
  %get-tuple-element.581 = s64[] get-tuple-element(%arg_tuple.21), index=0, sharding={manual}
  %convert.121 = s32[] convert(%get-tuple-element.581), sharding={manual}, metadata={op_name="jit(_full_run)/jit(main)/while/body/jit(_matvec_impl)/jit(shmap_body)/while/body/convert_element_type" source_file="/global/homes/j/jackm/software/lorrax_C/src/bse/bse_ring_comm.py" source_line=264}
  %subtract.54 = s32[] subtract(%get-tuple-element.578, %convert.121), sharding={manual}, metadata={op_name="jit(_full_run)/jit(main)/while/body/jit(_matvec_impl)/jit(shmap_body)/while/body/sub" source_file="/global/homes/j/jackm/software/lorrax_C/src/bse/bse_ring_comm.py" source_line=264}
  %constant.1194 = s32[] constant(0), sharding={manual}
  %compare.190 = pred[] compare(%subtract.54, %constant.1194), direction=LT, sharding={manual}, metadata={op_name="jit(_full_run)/jit(main)/while/body/jit(_matvec_impl)/jit(shmap_body)/while/body/jit(remainder)/rem" source_file="/global/homes/j/jackm/software/lorrax_C/src/bse/bse_ring_comm.py" source_line=264}
  %negate.73 = s32[] negate(%subtract.54), sharding={manual}, metadata={op_name="jit(_full_run)/jit(main)/while/body/jit(_matvec_impl)/jit(shmap_body)/while/body/jit(remainder)/rem" source_file="/global/homes/j/jackm/software/lorrax_C/src/bse/bse_ring_comm.py" source_line=264}
  %select.300 = s32[] select(%compare.190, %negate.73, %subtract.54), sharding={manual}, metadata={op_name="jit(_full_run)/jit(main)/while/body/jit(_matvec_impl)/jit(shmap_body)/while/body/jit(remainder)/rem" source_file="/global/homes/j/jackm/software/lorrax_C/src/bse/bse_ring_comm.py" source_line=264}
  %constant.1195 = s32[] constant(1), sharding={manual}, metadata={op_name="jit(_full_run)/jit(main)/while/body/jit(_matvec_impl)/jit(shmap_body)/while/body/jit(remainder)/rem" source_file="/global/homes/j/jackm/software/lorrax_C/src/bse/bse_ring_comm.py" source_line=264}
  %and.61 = s32[] and(%select.300, %constant.1195), sharding={manual}, metadata={op_name="jit(_full_run)/jit(main)/while/body/jit(_matvec_impl)/jit(shmap_body)/while/body/jit(remainder)/rem" source_file="/global/homes/j/jackm/software/lorrax_C/src/bse/bse_ring_comm.py" source_line=264}
  %negate.74 = s32[] negate(%and.61), sharding={manual}, metadata={op_name="jit(_full_run)/jit(main)/while/body/jit(_matvec_impl)/jit(shmap_body)/while/body/jit(remainder)/rem" source_file="/global/homes/j/jackm/software/lorrax_C/src/bse/bse_ring_comm.py" source_line=264}
  %select.301 = s32[] select(%compare.190, %negate.74, %and.61), sharding={manual}, metadata={op_name="jit(_full_run)/jit(main)/while/body/jit(_matvec_impl)/jit(shmap_body)/while/body/jit(remainder)/rem" source_file="/global/homes/j/jackm/software/lorrax_C/src/bse/bse_ring_comm.py" source_line=264}
  %constant.1270 = s32[] constant(0), sharding={manual}
  %compare.187 = pred[] compare(%select.301, %constant.1270), direction=LT, sharding={manual}, metadata={op_name="jit(_full_run)/jit(main)/while/body/jit(_matvec_impl)/jit(shmap_body)/while/body/jit(remainder)/lt" source_file="/global/homes/j/jackm/software/lorrax_C/src/bse/bse_ring_comm.py" source_line=264}
  %constant.1269 = s32[] constant(0), sharding={manual}
  %compare.188 = pred[] compare(%select.301, %constant.1269), direction=NE, sharding={manual}, metadata={op_name="jit(_full_run)/jit(main)/while/body/jit(_matvec_impl)/jit(shmap_body)/while/body/jit(remainder)/ne" source_file="/global/homes/j/jackm/software/lorrax_C/src/bse/bse_ring_comm.py" source_line=264}
  %and.60 = pred[] and(%compare.187, %compare.188), sharding={manual}, metadata={op_name="jit(_full_run)/jit(main)/while/body/jit(_matvec_impl)/jit(shmap_body)/while/body/jit(remainder)/and" source_file="/global/homes/j/jackm/software/lorrax_C/src/bse/bse_ring_comm.py" source_line=264}
  %constant.1193 = s32[] constant(2), sharding={manual}, metadata={op_name="jit(_full_run)/jit(main)/while/body/jit(_matvec_impl)/jit(shmap_body)/while/body/jit(remainder)/jit(_where)/select_n" source_file="/global/homes/j/jackm/software/lorrax_C/src/bse/bse_ring_comm.py" source_line=264}
  %add.744 = s32[] add(%select.301, %constant.1193), sharding={manual}, metadata={op_name="jit(_full_run)/jit(main)/while/body/jit(_matvec_impl)/jit(shmap_body)/while/body/jit(remainder)/add" source_file="/global/homes/j/jackm/software/lorrax_C/src/bse/bse_ring_comm.py" source_line=264}
  %select.298 = s32[] select(%and.60, %add.744, %select.301), sharding={manual}, metadata={op_name="jit(_full_run)/jit(main)/while/body/jit(_matvec_impl)/jit(shmap_body)/while/body/jit(remainder)/select_n" source_file="/global/homes/j/jackm/software/lorrax_C/src/bse/bse_ring_comm.py" source_line=264}
  %constant.1190 = s32[] constant(2), sharding={manual}, metadata={op_name="jit(_full_run)/jit(main)/while/body/jit(_matvec_impl)/jit(shmap_body)/while/body/add" source_file="/global/homes/j/jackm/software/lorrax_C/src/bse/bse_ring_comm.py" source_line=266}
  %multiply.207 = s32[] multiply(%select.298, %constant.1190), sharding={manual}, metadata={op_name="jit(_full_run)/jit(main)/while/body/jit(_matvec_impl)/jit(shmap_body)/while/body/mul" source_file="/global/homes/j/jackm/software/lorrax_C/src/bse/bse_ring_comm.py" source_line=265}
  %constant.1188 = s32[] constant(0), sharding={manual}
  %compare.189 = pred[] compare(%multiply.207, %constant.1188), direction=LT, sharding={manual}, metadata={op_name="jit(_full_run)/jit(main)/while/body/jit(_matvec_impl)/jit(shmap_body)/while/body/lt" source_file="/global/homes/j/jackm/software/lorrax_C/src/bse/bse_ring_comm.py" source_line=266}
  %constant.1191 = s32[] constant(4), sharding={manual}
  %add.745 = s32[] add(%multiply.207, %constant.1191), sharding={manual}, metadata={op_name="jit(_full_run)/jit(main)/while/body/jit(_matvec_impl)/jit(shmap_body)/while/body/add" source_file="/global/homes/j/jackm/software/lorrax_C/src/bse/bse_ring_comm.py" source_line=266}
  %select.299 = s32[] select(%compare.189, %add.745, %multiply.207), sharding={manual}, metadata={op_name="jit(_full_run)/jit(main)/while/body/jit(_matvec_impl)/jit(shmap_body)/while/body/select_n" source_file="/global/homes/j/jackm/software/lorrax_C/src/bse/bse_ring_comm.py" source_line=266}
  %dynamic-slice.79 = c128[64,2,2,240]{3,2,1,0} dynamic-slice(%get-tuple-element.577, %constant.1187, %select.299, %constant.1187, %constant.1187), dynamic_slice_sizes={64,2,2,240}, sharding={manual}, metadata={op_name="jit(_full_run)/jit(main)/while/body/jit(_matvec_impl)/jit(shmap_body)/while/body/dynamic_slice" source_file="/global/homes/j/jackm/software/lorrax_C/src/bse/bse_ring_comm.py" source_line=266}
  %dot.51 = c128[64,2,2,240]{3,2,1,0} dot(%reshape.492, %dynamic-slice.79), lhs_batch_dims={2}, lhs_contracting_dims={1}, rhs_batch_dims={0}, rhs_contracting_dims={1}, sharding={manual}, metadata={op_name="jit(_full_run)/jit(main)/while/body/jit(_matvec_impl)/jit(shmap_body)/while/body/kvsN,bcvk->bcksN/dot_general" source_file="/global/homes/j/jackm/software/lorrax_C/src/bse/bse_ring_comm.py" source_line=269}
  %reshape.493 = c128[64,1,2,2,240]{4,3,2,1,0} reshape(%dot.51), sharding={manual}, metadata={op_name="jit(_full_run)/jit(main)/while/body/jit(_matvec_impl)/jit(shmap_body)/while/body/kvsN,bcvk->bcksN/dot_general" source_file="/global/homes/j/jackm/software/lorrax_C/src/bse/bse_ring_comm.py" source_line=269}
  %transpose.95 = c128[2,240,64,1,2]{1,4,0,3,2} transpose(%reshape.493), dimensions={2,4,0,1,3}, sharding={manual}, metadata={op_name="jit(_full_run)/jit(main)/while/body/jit(_matvec_impl)/jit(shmap_body)/while/body/kvsN,bcvk->bcksN/transpose" source_file="/global/homes/j/jackm/software/lorrax_C/src/bse/bse_ring_comm.py" source_line=269}
  %get-tuple-element.576 = c128[64,2,2,240]{3,2,1,0} get-tuple-element(%arg_tuple.21), index=5, sharding={manual}
  %real.50 = f64[64,2,2,240]{3,2,1,0} real(%get-tuple-element.576), sharding={manual}, metadata={op_name="jit(_full_run)/jit(main)/while/body/jit(_matvec_impl)/jit(shmap_body)/while/body/real" source_file="/global/homes/j/jackm/software/lorrax_C/src/bse/bse_ring_comm.py" source_line=270}
  %imag.39 = f64[64,2,2,240]{3,2,1,0} imag(%get-tuple-element.576), sharding={manual}, metadata={op_name="jit(_full_run)/jit(main)/while/body/jit(_matvec_impl)/jit(shmap_body)/while/body/imag" source_file="/global/homes/j/jackm/software/lorrax_C/src/bse/bse_ring_comm.py" source_line=270}
  %negate.72 = f64[64,2,2,240]{3,2,1,0} negate(%imag.39), sharding={manual}, metadata={op_name="jit(_full_run)/jit(main)/while/body/jit(_matvec_impl)/jit(shmap_body)/while/body/neg" source_file="/global/homes/j/jackm/software/lorrax_C/src/bse/bse_ring_comm.py" source_line=270}
  %complex.39 = c128[64,2,2,240]{3,2,1,0} complex(%real.50, %negate.72), sharding={manual}, metadata={op_name="jit(_full_run)/jit(main)/while/body/jit(_matvec_impl)/jit(shmap_body)/while/body/complex" source_file="/global/homes/j/jackm/software/lorrax_C/src/bse/bse_ring_comm.py" source_line=270}
  %transpose.94 = c128[2,240,64,2]{1,3,0,2} transpose(%complex.39), dimensions={1,3,0,2}, sharding={manual}, metadata={op_name="jit(_full_run)/jit(main)/while/body/jit(_matvec_impl)/jit(shmap_body)/while/body/complex" source_file="/global/homes/j/jackm/software/lorrax_C/src/bse/bse_ring_comm.py" source_line=270}
  %reshape.494 = c128[2,240,64,1,2]{1,4,0,3,2} reshape(%transpose.94), sharding={manual}, metadata={op_name="jit(_full_run)/jit(main)/while/body/jit(_matvec_impl)/jit(shmap_body)/while/body/kcsN,bcksN->bcNk/dot_general" source_file="/global/homes/j/jackm/software/lorrax_C/src/bse/bse_ring_comm.py" source_line=270}
  %multiply.208 = c128[2,240,64,1,2]{1,4,0,3,2} multiply(%transpose.95, %reshape.494), sharding={manual}
  %constant.1192 = c128[] constant((0, 0)), sharding={manual}
  %reduce.34 = c128[2,240,64,1]{1,0,3,2} reduce(%multiply.208, %constant.1192), dimensions={4}, to_apply=%scalar_add_computation, sharding={manual}, metadata={op_name="jit(_full_run)/jit(main)/while/body/jit(_matvec_impl)/jit(shmap_body)/while/body/kcsN,bcksN->bcNk/dot_general" source_file="/global/homes/j/jackm/software/lorrax_C/src/bse/bse_ring_comm.py" source_line=270}
  %reshape.491 = c128[1,2,240,64]{3,2,1,0} reshape(%reduce.34), sharding={manual}, metadata={op_name="jit(_full_run)/jit(main)/while/body/jit(_matvec_impl)/jit(shmap_body)/while/body/kcsN,bcksN->bcNk/transpose" source_file="/global/homes/j/jackm/software/lorrax_C/src/bse/bse_ring_comm.py" source_line=270}
  %add.746 = c128[1,2,240,64]{3,2,1,0} add(%get-tuple-element.579, %reshape.491), sharding={manual}, metadata={op_name="jit(_full_run)/jit(main)/while/body/jit(_matvec_impl)/jit(shmap_body)/while/body/add" source_file="/global/homes/j/jackm/software/lorrax_C/src/bse/bse_ring_comm.py" source_line=270}
  ROOT %tuple.125 = (s64[], c128[1,2,2,64]{3,2,1,0}, c128[1,2,240,64]{3,2,1,0}, s32[], c128[64,4,2,240]{3,2,1,0}, /*index=5*/c128[64,2,2,240]{3,2,1,0}) tuple(%add.743, %collective-permute.13, %add.746, %get-tuple-element.578, %get-tuple-element.577, /*index=5*/%get-tuple-element.576), sharding={{manual}, {manual}, {manual}, {manual}, {manual}, /*index=5*/{manual}}
  %constant.1189 = s32[] constant(0)
}

%region_4.1275.clone.clone.1 (arg_tuple.20: (s64[], c128[1,2,2,64], c128[1,2,240,64], s32[], c128[64,4,2,240], /*index=5*/c128[64,2,2,240])) -> pred[] {
  %arg_tuple.20 = (s64[], c128[1,2,2,64]{3,2,1,0}, c128[1,2,240,64]{3,2,1,0}, s32[], c128[64,4,2,240]{3,2,1,0}, /*index=5*/c128[64,2,2,240]{3,2,1,0}) parameter(0), sharding={{manual}, {manual}, {manual}, {manual}, {manual}, /*index=5*/{manual}}
  %get-tuple-element.575 = s64[] get-tuple-element(%arg_tuple.20), index=0, sharding={manual}
  %constant.1185 = s64[] constant(2), sharding={manual}
  ROOT %compare.186 = pred[] compare(%get-tuple-element.575, %constant.1185), direction=LT, sharding={manual}, metadata={op_name="jit(_full_run)/jit(main)/while/body/jit(_matvec_impl)/jit(shmap_body)/while/cond/lt" source_file="/global/homes/j/jackm/software/lorrax_C/src/bse/bse_ring_comm.py" source_line=274}
}

%region_10.1443.clone.clone.clone.1 (arg_tuple.23: (s64[], c128[1,2,2,64], c128[1,2,64,2,240], s32[], c128[64,4,2,240])) -> (s64[], c128[1,2,2,64], c128[1,2,64,2,240], s32[], c128[64,4,2,240]) {
  %arg_tuple.23 = (s64[], c128[1,2,2,64]{3,2,1,0}, c128[1,2,64,2,240]{4,3,2,1,0}, s32[], c128[64,4,2,240]{3,2,1,0}) parameter(0), sharding={{manual}, {manual}, {manual}, {manual}, {manual}}
  %get-tuple-element.601 = s64[] get-tuple-element(%arg_tuple.23), index=0, sharding={manual}
  %constant.1197 = s64[] constant(1), sharding={manual}
  %add.748 = s64[] add(%get-tuple-element.601, %constant.1197), sharding={manual}, metadata={op_name="jit(_full_run)/jit(main)/while/body/jit(_matvec_impl)/jit(shmap_body)/while/body/add" source_file="/global/homes/j/jackm/software/lorrax_C/src/bse/bse_ring_comm.py" source_line=95}
  %get-tuple-element.599 = c128[1,2,2,64]{3,2,1,0} get-tuple-element(%arg_tuple.23), index=1, sharding={manual}
  %collective-permute.14 = c128[1,2,2,64]{3,2,1,0} collective-permute(%get-tuple-element.599), channel_id=5, source_target_pairs={{0,1},{1,0},{2,3},{3,2}}, sharding={manual}, metadata={op_name="jit(_full_run)/jit(main)/while/body/jit(_matvec_impl)/jit(shmap_body)/while/body/ppermute" source_file="/global/homes/j/jackm/software/lorrax_C/src/bse/bse_ring_comm.py" source_line=92}
  %get-tuple-element.598 = c128[1,2,64,2,240]{4,3,2,1,0} get-tuple-element(%arg_tuple.23), index=2, sharding={manual}
  %reshape.495 = c128[2,2,64]{2,1,0} reshape(%get-tuple-element.599), sharding={manual}
  %get-tuple-element.596 = c128[64,4,2,240]{3,2,1,0} get-tuple-element(%arg_tuple.23), index=4, sharding={manual}
  %constant.1272 = s32[] constant(0), sharding={manual}
  %get-tuple-element.597 = s32[] get-tuple-element(%arg_tuple.23), index=3, sharding={manual}
  %get-tuple-element.600 = s64[] get-tuple-element(%arg_tuple.23), index=0, sharding={manual}
  %convert.122 = s32[] convert(%get-tuple-element.600), sharding={manual}, metadata={op_name="jit(_full_run)/jit(main)/while/body/jit(_matvec_impl)/jit(shmap_body)/while/body/convert_element_type" source_file="/global/homes/j/jackm/software/lorrax_C/src/bse/bse_ring_comm.py" source_line=85}
  %subtract.55 = s32[] subtract(%get-tuple-element.597, %convert.122), sharding={manual}, metadata={op_name="jit(_full_run)/jit(main)/while/body/jit(_matvec_impl)/jit(shmap_body)/while/body/sub" source_file="/global/homes/j/jackm/software/lorrax_C/src/bse/bse_ring_comm.py" source_line=85}
  %constant.1205 = s32[] constant(0), sharding={manual}
  %compare.195 = pred[] compare(%subtract.55, %constant.1205), direction=LT, sharding={manual}, metadata={op_name="jit(_full_run)/jit(main)/while/body/jit(_matvec_impl)/jit(shmap_body)/while/body/jit(remainder)/rem" source_file="/global/homes/j/jackm/software/lorrax_C/src/bse/bse_ring_comm.py" source_line=264}
  %negate.76 = s32[] negate(%subtract.55), sharding={manual}, metadata={op_name="jit(_full_run)/jit(main)/while/body/jit(_matvec_impl)/jit(shmap_body)/while/body/jit(remainder)/rem" source_file="/global/homes/j/jackm/software/lorrax_C/src/bse/bse_ring_comm.py" source_line=264}
  %select.304 = s32[] select(%compare.195, %negate.76, %subtract.55), sharding={manual}, metadata={op_name="jit(_full_run)/jit(main)/while/body/jit(_matvec_impl)/jit(shmap_body)/while/body/jit(remainder)/rem" source_file="/global/homes/j/jackm/software/lorrax_C/src/bse/bse_ring_comm.py" source_line=264}
  %constant.1206 = s32[] constant(1), sharding={manual}, metadata={op_name="jit(_full_run)/jit(main)/while/body/jit(_matvec_impl)/jit(shmap_body)/while/body/jit(remainder)/rem" source_file="/global/homes/j/jackm/software/lorrax_C/src/bse/bse_ring_comm.py" source_line=264}
  %and.63 = s32[] and(%select.304, %constant.1206), sharding={manual}, metadata={op_name="jit(_full_run)/jit(main)/while/body/jit(_matvec_impl)/jit(shmap_body)/while/body/jit(remainder)/rem" source_file="/global/homes/j/jackm/software/lorrax_C/src/bse/bse_ring_comm.py" source_line=264}
  %negate.77 = s32[] negate(%and.63), sharding={manual}, metadata={op_name="jit(_full_run)/jit(main)/while/body/jit(_matvec_impl)/jit(shmap_body)/while/body/jit(remainder)/rem" source_file="/global/homes/j/jackm/software/lorrax_C/src/bse/bse_ring_comm.py" source_line=264}
  %select.305 = s32[] select(%compare.195, %negate.77, %and.63), sharding={manual}, metadata={op_name="jit(_full_run)/jit(main)/while/body/jit(_matvec_impl)/jit(shmap_body)/while/body/jit(remainder)/rem" source_file="/global/homes/j/jackm/software/lorrax_C/src/bse/bse_ring_comm.py" source_line=264}
  %constant.1274 = s32[] constant(0), sharding={manual}
  %compare.192 = pred[] compare(%select.305, %constant.1274), direction=LT, sharding={manual}, metadata={op_name="jit(_full_run)/jit(main)/while/body/jit(_matvec_impl)/jit(shmap_body)/while/body/jit(remainder)/lt" source_file="/global/homes/j/jackm/software/lorrax_C/src/bse/bse_ring_comm.py" source_line=264}
  %constant.1273 = s32[] constant(0), sharding={manual}
  %compare.193 = pred[] compare(%select.305, %constant.1273), direction=NE, sharding={manual}, metadata={op_name="jit(_full_run)/jit(main)/while/body/jit(_matvec_impl)/jit(shmap_body)/while/body/jit(remainder)/ne" source_file="/global/homes/j/jackm/software/lorrax_C/src/bse/bse_ring_comm.py" source_line=264}
  %and.62 = pred[] and(%compare.192, %compare.193), sharding={manual}, metadata={op_name="jit(_full_run)/jit(main)/while/body/jit(_matvec_impl)/jit(shmap_body)/while/body/jit(remainder)/and" source_file="/global/homes/j/jackm/software/lorrax_C/src/bse/bse_ring_comm.py" source_line=264}
  %constant.1204 = s32[] constant(2), sharding={manual}, metadata={op_name="jit(_full_run)/jit(main)/while/body/jit(_matvec_impl)/jit(shmap_body)/while/body/jit(remainder)/jit(_where)/select_n" source_file="/global/homes/j/jackm/software/lorrax_C/src/bse/bse_ring_comm.py" source_line=264}
  %add.752 = s32[] add(%select.305, %constant.1204), sharding={manual}, metadata={op_name="jit(_full_run)/jit(main)/while/body/jit(_matvec_impl)/jit(shmap_body)/while/body/jit(remainder)/add" source_file="/global/homes/j/jackm/software/lorrax_C/src/bse/bse_ring_comm.py" source_line=264}
  %select.302 = s32[] select(%and.62, %add.752, %select.305), sharding={manual}, metadata={op_name="jit(_full_run)/jit(main)/while/body/jit(_matvec_impl)/jit(shmap_body)/while/body/jit(remainder)/select_n" source_file="/global/homes/j/jackm/software/lorrax_C/src/bse/bse_ring_comm.py" source_line=264}
  %constant.1200 = s32[] constant(2), sharding={manual}
  %multiply.209 = s32[] multiply(%select.302, %constant.1200), sharding={manual}, metadata={op_name="jit(_full_run)/jit(main)/while/body/jit(_matvec_impl)/jit(shmap_body)/while/body/mul" source_file="/global/homes/j/jackm/software/lorrax_C/src/bse/bse_ring_comm.py" source_line=86}
  %constant.1271 = s32[] constant(0), sharding={manual}
  %compare.194 = pred[] compare(%multiply.209, %constant.1271), direction=LT, sharding={manual}, metadata={op_name="jit(_full_run)/jit(main)/while/body/jit(_matvec_impl)/jit(shmap_body)/while/body/lt" source_file="/global/homes/j/jackm/software/lorrax_C/src/bse/bse_ring_comm.py" source_line=88}
  %constant.1203 = s32[] constant(4), sharding={manual}
  %add.753 = s32[] add(%multiply.209, %constant.1203), sharding={manual}, metadata={op_name="jit(_full_run)/jit(main)/while/body/jit(_matvec_impl)/jit(shmap_body)/while/body/add" source_file="/global/homes/j/jackm/software/lorrax_C/src/bse/bse_ring_comm.py" source_line=88}
  %select.303 = s32[] select(%compare.194, %add.753, %multiply.209), sharding={manual}, metadata={op_name="jit(_full_run)/jit(main)/while/body/jit(_matvec_impl)/jit(shmap_body)/while/body/select_n" source_file="/global/homes/j/jackm/software/lorrax_C/src/bse/bse_ring_comm.py" source_line=88}
  %dynamic-slice.80 = c128[64,2,2,240]{3,2,1,0} dynamic-slice(%get-tuple-element.596, %constant.1272, %select.303, %constant.1272, %constant.1272), dynamic_slice_sizes={64,2,2,240}, sharding={manual}, metadata={op_name="jit(_full_run)/jit(main)/while/body/jit(_matvec_impl)/jit(shmap_body)/while/body/dynamic_slice" source_file="/global/homes/j/jackm/software/lorrax_C/src/bse/bse_ring_comm.py" source_line=88}
  %real.51 = f64[64,2,2,240]{3,2,1,0} real(%dynamic-slice.80), sharding={manual}, metadata={op_name="jit(_full_run)/jit(main)/while/body/jit(_matvec_impl)/jit(shmap_body)/while/body/real" source_file="/global/homes/j/jackm/software/lorrax_C/src/bse/bse_ring_comm.py" source_line=91}
  %imag.40 = f64[64,2,2,240]{3,2,1,0} imag(%dynamic-slice.80), sharding={manual}, metadata={op_name="jit(_full_run)/jit(main)/while/body/jit(_matvec_impl)/jit(shmap_body)/while/body/imag" source_file="/global/homes/j/jackm/software/lorrax_C/src/bse/bse_ring_comm.py" source_line=91}
  %negate.75 = f64[64,2,2,240]{3,2,1,0} negate(%imag.40), sharding={manual}, metadata={op_name="jit(_full_run)/jit(main)/while/body/jit(_matvec_impl)/jit(shmap_body)/while/body/neg" source_file="/global/homes/j/jackm/software/lorrax_C/src/bse/bse_ring_comm.py" source_line=91}
  %complex.40 = c128[64,2,2,240]{3,2,1,0} complex(%real.51, %negate.75), sharding={manual}, metadata={op_name="jit(_full_run)/jit(main)/while/body/jit(_matvec_impl)/jit(shmap_body)/while/body/complex" source_file="/global/homes/j/jackm/software/lorrax_C/src/bse/bse_ring_comm.py" source_line=91}
  %dot.52 = c128[64,2,2,240]{3,2,1,0} dot(%reshape.495, %complex.40), lhs_batch_dims={2}, lhs_contracting_dims={1}, rhs_batch_dims={0}, rhs_contracting_dims={1}, sharding={manual}, metadata={op_name="jit(_full_run)/jit(main)/while/body/jit(_matvec_impl)/jit(shmap_body)/while/body/kv sN,bcvk->bcksN/dot_general" source_file="/global/homes/j/jackm/software/lorrax_C/src/bse/bse_ring_comm.py" source_line=91}
  %reshape.496 = c128[64,1,2,2,240]{4,3,2,1,0} reshape(%dot.52), sharding={manual}, metadata={op_name="jit(_full_run)/jit(main)/while/body/jit(_matvec_impl)/jit(shmap_body)/while/body/kv sN,bcvk->bcksN/dot_general" source_file="/global/homes/j/jackm/software/lorrax_C/src/bse/bse_ring_comm.py" source_line=91}
  %transpose.96 = c128[1,2,64,2,240]{4,3,1,0,2} transpose(%reshape.496), dimensions={1,2,0,3,4}, sharding={manual}, metadata={op_name="jit(_full_run)/jit(main)/while/body/jit(_matvec_impl)/jit(shmap_body)/while/body/kv sN,bcvk->bcksN/transpose" source_file="/global/homes/j/jackm/software/lorrax_C/src/bse/bse_ring_comm.py" source_line=91}
  %add.754 = c128[1,2,64,2,240]{4,3,2,1,0} add(%get-tuple-element.598, %transpose.96), sharding={manual}, metadata={op_name="jit(_full_run)/jit(main)/while/body/jit(_matvec_impl)/jit(shmap_body)/while/body/add" source_file="/global/homes/j/jackm/software/lorrax_C/src/bse/bse_ring_comm.py" source_line=91}
  ROOT %tuple.128 = (s64[], c128[1,2,2,64]{3,2,1,0}, c128[1,2,64,2,240]{4,3,2,1,0}, s32[], c128[64,4,2,240]{3,2,1,0}) tuple(%add.748, %collective-permute.14, %add.754, %get-tuple-element.597, %get-tuple-element.596), sharding={{manual}, {manual}, {manual}, {manual}, {manual}}
  %constant.1198 = s32[] constant(0)
  %constant.1199 = s32[] constant(0)
}

%region_11.1458.clone.clone.1 (arg_tuple.22: (s64[], c128[1,2,2,64], c128[1,2,64,2,240], s32[], c128[64,4,2,240])) -> pred[] {
  %arg_tuple.22 = (s64[], c128[1,2,2,64]{3,2,1,0}, c128[1,2,64,2,240]{4,3,2,1,0}, s32[], c128[64,4,2,240]{3,2,1,0}) parameter(0), sharding={{manual}, {manual}, {manual}, {manual}, {manual}}
  %get-tuple-element.595 = s64[] get-tuple-element(%arg_tuple.22), index=0, sharding={manual}
  %constant.1196 = s64[] constant(2), sharding={manual}
  ROOT %compare.191 = pred[] compare(%get-tuple-element.595, %constant.1196), direction=LT, sharding={manual}, metadata={op_name="jit(_full_run)/jit(main)/while/body/jit(_matvec_impl)/jit(shmap_body)/while/cond/lt" source_file="/global/homes/j/jackm/software/lorrax_C/src/bse/bse_ring_comm.py" source_line=95}
}

%region_12.1514.clone.clone.clone.1 (arg_tuple.25: (s64[], c128[1,2,64,2,240], c128[1,240,240,2,2,64], s32[], c128[64,4,2,240])) -> (s64[], c128[1,2,64,2,240], c128[1,240,240,2,2,64], s32[], c128[64,4,2,240]) {
  %arg_tuple.25 = (s64[], c128[1,2,64,2,240]{4,3,2,1,0}, c128[1,240,240,2,2,64]{5,4,3,2,1,0}, s32[], c128[64,4,2,240]{3,2,1,0}) parameter(0), sharding={{manual}, {manual}, {manual}, {manual}, {manual}}
  %get-tuple-element.619 = s64[] get-tuple-element(%arg_tuple.25), index=0, sharding={manual}
  %constant.1208 = s64[] constant(1), sharding={manual}
  %add.755 = s64[] add(%get-tuple-element.619, %constant.1208), sharding={manual}, metadata={op_name="jit(_full_run)/jit(main)/while/body/jit(_matvec_impl)/jit(shmap_body)/while/body/add" source_file="/global/homes/j/jackm/software/lorrax_C/src/bse/bse_ring_comm.py" source_line=125}
  %get-tuple-element.617 = c128[1,2,64,2,240]{4,3,2,1,0} get-tuple-element(%arg_tuple.25), index=1, sharding={manual}
  %collective-permute.15 = c128[1,2,64,2,240]{4,3,2,1,0} collective-permute(%get-tuple-element.617), channel_id=6, source_target_pairs={{0,2},{2,0},{1,3},{3,1}}, sharding={manual}, metadata={op_name="jit(_full_run)/jit(main)/while/body/jit(_matvec_impl)/jit(shmap_body)/while/body/ppermute" source_file="/global/homes/j/jackm/software/lorrax_C/src/bse/bse_ring_comm.py" source_line=122}
  %get-tuple-element.616 = c128[1,240,240,2,2,64]{5,4,3,2,1,0} get-tuple-element(%arg_tuple.25), index=2, sharding={manual}
  %reshape.497 = c128[2,64,2,240]{3,2,1,0} reshape(%get-tuple-element.617), sharding={manual}
  %get-tuple-element.614 = c128[64,4,2,240]{3,2,1,0} get-tuple-element(%arg_tuple.25), index=4, sharding={manual}
  %constant.1276 = s32[] constant(0), sharding={manual}
  %get-tuple-element.615 = s32[] get-tuple-element(%arg_tuple.25), index=3, sharding={manual}
  %get-tuple-element.618 = s64[] get-tuple-element(%arg_tuple.25), index=0, sharding={manual}
  %convert.123 = s32[] convert(%get-tuple-element.618), sharding={manual}, metadata={op_name="jit(_full_run)/jit(main)/while/body/jit(_matvec_impl)/jit(shmap_body)/while/body/convert_element_type" source_file="/global/homes/j/jackm/software/lorrax_C/src/bse/bse_ring_comm.py" source_line=115}
  %subtract.56 = s32[] subtract(%get-tuple-element.615, %convert.123), sharding={manual}, metadata={op_name="jit(_full_run)/jit(main)/while/body/jit(_matvec_impl)/jit(shmap_body)/while/body/sub" source_file="/global/homes/j/jackm/software/lorrax_C/src/bse/bse_ring_comm.py" source_line=115}
  %constant.1214 = s32[] constant(0), sharding={manual}
  %compare.200 = pred[] compare(%subtract.56, %constant.1214), direction=LT, sharding={manual}, metadata={op_name="jit(_full_run)/jit(main)/while/body/jit(_matvec_impl)/jit(shmap_body)/while/body/jit(remainder)/rem" source_file="/global/homes/j/jackm/software/lorrax_C/src/bse/bse_ring_comm.py" source_line=264}
  %negate.78 = s32[] negate(%subtract.56), sharding={manual}, metadata={op_name="jit(_full_run)/jit(main)/while/body/jit(_matvec_impl)/jit(shmap_body)/while/body/jit(remainder)/rem" source_file="/global/homes/j/jackm/software/lorrax_C/src/bse/bse_ring_comm.py" source_line=264}
  %select.308 = s32[] select(%compare.200, %negate.78, %subtract.56), sharding={manual}, metadata={op_name="jit(_full_run)/jit(main)/while/body/jit(_matvec_impl)/jit(shmap_body)/while/body/jit(remainder)/rem" source_file="/global/homes/j/jackm/software/lorrax_C/src/bse/bse_ring_comm.py" source_line=264}
  %constant.1215 = s32[] constant(1), sharding={manual}, metadata={op_name="jit(_full_run)/jit(main)/while/body/jit(_matvec_impl)/jit(shmap_body)/while/body/jit(remainder)/rem" source_file="/global/homes/j/jackm/software/lorrax_C/src/bse/bse_ring_comm.py" source_line=264}
  %and.65 = s32[] and(%select.308, %constant.1215), sharding={manual}, metadata={op_name="jit(_full_run)/jit(main)/while/body/jit(_matvec_impl)/jit(shmap_body)/while/body/jit(remainder)/rem" source_file="/global/homes/j/jackm/software/lorrax_C/src/bse/bse_ring_comm.py" source_line=264}
  %negate.79 = s32[] negate(%and.65), sharding={manual}, metadata={op_name="jit(_full_run)/jit(main)/while/body/jit(_matvec_impl)/jit(shmap_body)/while/body/jit(remainder)/rem" source_file="/global/homes/j/jackm/software/lorrax_C/src/bse/bse_ring_comm.py" source_line=264}
  %select.309 = s32[] select(%compare.200, %negate.79, %and.65), sharding={manual}, metadata={op_name="jit(_full_run)/jit(main)/while/body/jit(_matvec_impl)/jit(shmap_body)/while/body/jit(remainder)/rem" source_file="/global/homes/j/jackm/software/lorrax_C/src/bse/bse_ring_comm.py" source_line=264}
  %constant.1278 = s32[] constant(0), sharding={manual}
  %compare.197 = pred[] compare(%select.309, %constant.1278), direction=LT, sharding={manual}, metadata={op_name="jit(_full_run)/jit(main)/while/body/jit(_matvec_impl)/jit(shmap_body)/while/body/jit(remainder)/lt" source_file="/global/homes/j/jackm/software/lorrax_C/src/bse/bse_ring_comm.py" source_line=264}
  %constant.1277 = s32[] constant(0), sharding={manual}
  %compare.198 = pred[] compare(%select.309, %constant.1277), direction=NE, sharding={manual}, metadata={op_name="jit(_full_run)/jit(main)/while/body/jit(_matvec_impl)/jit(shmap_body)/while/body/jit(remainder)/ne" source_file="/global/homes/j/jackm/software/lorrax_C/src/bse/bse_ring_comm.py" source_line=264}
  %and.64 = pred[] and(%compare.197, %compare.198), sharding={manual}, metadata={op_name="jit(_full_run)/jit(main)/while/body/jit(_matvec_impl)/jit(shmap_body)/while/body/jit(remainder)/and" source_file="/global/homes/j/jackm/software/lorrax_C/src/bse/bse_ring_comm.py" source_line=264}
  %constant.1213 = s32[] constant(2), sharding={manual}, metadata={op_name="jit(_full_run)/jit(main)/while/body/jit(_matvec_impl)/jit(shmap_body)/while/body/jit(remainder)/jit(_where)/select_n" source_file="/global/homes/j/jackm/software/lorrax_C/src/bse/bse_ring_comm.py" source_line=264}
  %add.757 = s32[] add(%select.309, %constant.1213), sharding={manual}, metadata={op_name="jit(_full_run)/jit(main)/while/body/jit(_matvec_impl)/jit(shmap_body)/while/body/jit(remainder)/add" source_file="/global/homes/j/jackm/software/lorrax_C/src/bse/bse_ring_comm.py" source_line=264}
  %select.306 = s32[] select(%and.64, %add.757, %select.309), sharding={manual}, metadata={op_name="jit(_full_run)/jit(main)/while/body/jit(_matvec_impl)/jit(shmap_body)/while/body/jit(remainder)/select_n" source_file="/global/homes/j/jackm/software/lorrax_C/src/bse/bse_ring_comm.py" source_line=264}
  %constant.1211 = s32[] constant(2), sharding={manual}
  %multiply.210 = s32[] multiply(%select.306, %constant.1211), sharding={manual}, metadata={op_name="jit(_full_run)/jit(main)/while/body/jit(_matvec_impl)/jit(shmap_body)/while/body/mul" source_file="/global/homes/j/jackm/software/lorrax_C/src/bse/bse_ring_comm.py" source_line=116}
  %constant.1275 = s32[] constant(0), sharding={manual}
  %compare.199 = pred[] compare(%multiply.210, %constant.1275), direction=LT, sharding={manual}, metadata={op_name="jit(_full_run)/jit(main)/while/body/jit(_matvec_impl)/jit(shmap_body)/while/body/lt" source_file="/global/homes/j/jackm/software/lorrax_C/src/bse/bse_ring_comm.py" source_line=118}
  %constant.1212 = s32[] constant(4), sharding={manual}
  %add.758 = s32[] add(%multiply.210, %constant.1212), sharding={manual}, metadata={op_name="jit(_full_run)/jit(main)/while/body/jit(_matvec_impl)/jit(shmap_body)/while/body/add" source_file="/global/homes/j/jackm/software/lorrax_C/src/bse/bse_ring_comm.py" source_line=118}
  %select.307 = s32[] select(%compare.199, %add.758, %multiply.210), sharding={manual}, metadata={op_name="jit(_full_run)/jit(main)/while/body/jit(_matvec_impl)/jit(shmap_body)/while/body/select_n" source_file="/global/homes/j/jackm/software/lorrax_C/src/bse/bse_ring_comm.py" source_line=118}
  %dynamic-slice.81 = c128[64,2,2,240]{3,2,1,0} dynamic-slice(%get-tuple-element.614, %constant.1276, %select.307, %constant.1276, %constant.1276), dynamic_slice_sizes={64,2,2,240}, sharding={manual}, metadata={op_name="jit(_full_run)/jit(main)/while/body/jit(_matvec_impl)/jit(shmap_body)/while/body/dynamic_slice" source_file="/global/homes/j/jackm/software/lorrax_C/src/bse/bse_ring_comm.py" source_line=118}
  %dot.53 = c128[64,2,240,2,240]{4,3,2,1,0} dot(%reshape.497, %dynamic-slice.81), lhs_batch_dims={1}, lhs_contracting_dims={0}, rhs_batch_dims={0}, rhs_contracting_dims={1}, sharding={manual}, metadata={op_name="jit(_full_run)/jit(main)/while/body/jit(_matvec_impl)/jit(shmap_body)/while/body/kctM,bcksN->bMNtsk/dot_general" source_file="/global/homes/j/jackm/software/lorrax_C/src/bse/bse_ring_comm.py" source_line=121}
  %reshape.498 = c128[64,1,2,240,2,240]{5,4,3,2,1,0} reshape(%dot.53), sharding={manual}, metadata={op_name="jit(_full_run)/jit(main)/while/body/jit(_matvec_impl)/jit(shmap_body)/while/body/kctM,bcksN->bMNtsk/dot_general" source_file="/global/homes/j/jackm/software/lorrax_C/src/bse/bse_ring_comm.py" source_line=121}
  %transpose.97 = c128[1,240,240,2,2,64]{1,3,2,4,0,5} transpose(%reshape.498), dimensions={1,5,3,4,2,0}, sharding={manual}, metadata={op_name="jit(_full_run)/jit(main)/while/body/jit(_matvec_impl)/jit(shmap_body)/while/body/kctM,bcksN->bMNtsk/transpose" source_file="/global/homes/j/jackm/software/lorrax_C/src/bse/bse_ring_comm.py" source_line=121}
  %add.759 = c128[1,240,240,2,2,64]{5,4,3,2,1,0} add(%get-tuple-element.616, %transpose.97), sharding={manual}, metadata={op_name="jit(_full_run)/jit(main)/while/body/jit(_matvec_impl)/jit(shmap_body)/while/body/add" source_file="/global/homes/j/jackm/software/lorrax_C/src/bse/bse_ring_comm.py" source_line=121}
  ROOT %tuple.131 = (s64[], c128[1,2,64,2,240]{4,3,2,1,0}, c128[1,240,240,2,2,64]{5,4,3,2,1,0}, s32[], c128[64,4,2,240]{3,2,1,0}) tuple(%add.755, %collective-permute.15, %add.759, %get-tuple-element.615, %get-tuple-element.614), sharding={{manual}, {manual}, {manual}, {manual}, {manual}}
  %constant.1209 = s32[] constant(0)
  %constant.1210 = s32[] constant(0)
}

%region_13.1529.clone.clone.1 (arg_tuple.24: (s64[], c128[1,2,64,2,240], c128[1,240,240,2,2,64], s32[], c128[64,4,2,240])) -> pred[] {
  %arg_tuple.24 = (s64[], c128[1,2,64,2,240]{4,3,2,1,0}, c128[1,240,240,2,2,64]{5,4,3,2,1,0}, s32[], c128[64,4,2,240]{3,2,1,0}) parameter(0), sharding={{manual}, {manual}, {manual}, {manual}, {manual}}
  %get-tuple-element.613 = s64[] get-tuple-element(%arg_tuple.24), index=0, sharding={manual}
  %constant.1207 = s64[] constant(2), sharding={manual}
  ROOT %compare.196 = pred[] compare(%get-tuple-element.613, %constant.1207), direction=LT, sharding={manual}, metadata={op_name="jit(_full_run)/jit(main)/while/body/jit(_matvec_impl)/jit(shmap_body)/while/cond/lt" source_file="/global/homes/j/jackm/software/lorrax_C/src/bse/bse_ring_comm.py" source_line=125}
}

%scalar_add_computation.1 (scalar_lhs.1: c128[], scalar_rhs.1: c128[]) -> c128[] {
  %scalar_lhs.1 = c128[] parameter(0)
  %scalar_rhs.1 = c128[] parameter(1)
  ROOT %add.703 = c128[] add(%scalar_lhs.1, %scalar_rhs.1)
}

%region_2.1811.clone.clone.clone (arg_tuple.13: (s64[], c128[1024,200], f64[200], f64[200], c128[1024], /*index=5*/c128[64,4,2,480], c128[64,4,2,480], c128[64,4,2,480], c128[64,4,2,480], f64[64,4], /*index=10*/f64[64,4], c128[480,480,4,4,4], c128[480,480])) -> (s64[], c128[1024,200], f64[200], f64[200], c128[1024], /*index=5*/c128[64,4,2,480], c128[64,4,2,480], c128[64,4,2,480], c128[64,4,2,480], f64[64,4], /*index=10*/f64[64,4], c128[480,480,4,4,4], c128[480,480]) {
  %arg_tuple.13 = (s64[], c128[1024,200]{1,0}, f64[200]{0}, f64[200]{0}, c128[1024]{0}, /*index=5*/c128[64,4,2,480]{3,2,1,0}, c128[64,4,2,480]{3,2,1,0}, c128[64,4,2,480]{3,2,1,0}, c128[64,4,2,480]{3,2,1,0}, f64[64,4]{1,0}, /*index=10*/f64[64,4]{1,0}, c128[480,480,4,4,4]{4,3,2,1,0}, c128[480,480]{1,0}) parameter(0), sharding={{replicated}, {devices=[2,1,2]<=[4] last_tile_dim_replicate}, {replicated}, {replicated}, {devices=[2,2]<=[4] last_tile_dim_replicate}, /*index=5*/{devices=[1,1,1,2,2]<=[4] last_tile_dim_replicate}, {devices=[1,1,1,2,2]<=[2,2]T(1,0) last_tile_dim_replicate}, {devices=[1,1,1,2,2]<=[4] last_tile_dim_replicate}, {devices=[1,1,1,2,2]<=[2,2]T(1,0) last_tile_dim_replicate}, {replicated}, /*index=10*/{replicated}, {devices=[2,2,1,1,1]<=[4]}, {devices=[2,2]<=[4]}}
  %get-tuple-element.497 = s64[] get-tuple-element(%arg_tuple.13), index=0, sharding={replicated}
  %constant.1113 = s64[] constant(1), sharding={replicated}
  %add.712 = s64[] add(%get-tuple-element.497, %constant.1113), sharding={replicated}, metadata={op_name="jit(_full_run)/jit(main)/while/body/add" source_file="/global/homes/j/jackm/software/lorrax_C/src/solvers/lanczos.py" source_line=286}
  %get-tuple-element.495 = c128[1024,200]{1,0} get-tuple-element(%arg_tuple.13), index=1, sharding={devices=[2,1,2]<=[4] last_tile_dim_replicate}
  %constant.1137 = s32[] constant(0), sharding={replicated}
  %broadcast.1109 = s32[2]{0} broadcast(%constant.1137), dimensions={}, sharding={replicated}
  %constant.1138 = s32[1]{0} constant({0}), sharding={replicated}
  %get-tuple-element.496 = s64[] get-tuple-element(%arg_tuple.13), index=0, sharding={replicated}
  %constant.1242 = s64[] constant(1), sharding={replicated}
  %add.717 = s64[] add(%get-tuple-element.496, %constant.1242), sharding={replicated}, metadata={op_name="jit(_full_run)/jit(main)/while/body/add" source_file="/global/homes/j/jackm/software/lorrax_C/src/solvers/lanczos.py" source_line=281}
  %constant.1127 = s64[] constant(199), sharding={replicated}
  %minimum.3 = s64[] minimum(%add.717, %constant.1127), sharding={replicated}, metadata={op_name="jit(_full_run)/jit(main)/while/body/min" source_file="/global/homes/j/jackm/software/lorrax_C/src/solvers/lanczos.py" source_line=281}
  %constant.1250 = s64[] constant(0), sharding={replicated}
  %compare.162 = pred[] compare(%minimum.3, %constant.1250), direction=LT, sharding={replicated}, metadata={op_name="jit(_full_run)/jit(main)/while/body/lt" source_file="/global/homes/j/jackm/software/lorrax_C/src/solvers/lanczos.py" source_line=281}
  %constant.1254 = s64[] constant(200), sharding={replicated}
  %add.718 = s64[] add(%minimum.3, %constant.1254), sharding={replicated}, metadata={op_name="jit(_full_run)/jit(main)/while/body/add" source_file="/global/homes/j/jackm/software/lorrax_C/src/solvers/lanczos.py" source_line=281}
  %select.280 = s64[] select(%compare.162, %add.718, %minimum.3), sharding={replicated}, metadata={op_name="jit(_full_run)/jit(main)/while/body/select_n" source_file="/global/homes/j/jackm/software/lorrax_C/src/solvers/lanczos.py" source_line=281}
  %convert.113 = s32[] convert(%select.280), sharding={replicated}, metadata={op_name="jit(_full_run)/jit(main)/while/body/convert_element_type" source_file="/global/homes/j/jackm/software/lorrax_C/src/solvers/lanczos.py" source_line=281}
  %reshape.447 = s32[1]{0} reshape(%convert.113), sharding={replicated}, metadata={op_name="jit(_full_run)/jit(main)/while/body/broadcast_in_dim" source_file="/global/homes/j/jackm/software/lorrax_C/src/solvers/lanczos.py" source_line=281}
  %concatenate.15 = s32[2]{0} concatenate(%constant.1138, %reshape.447), dimensions={0}, sharding={replicated}
  %compare.165 = pred[2]{0} compare(%broadcast.1109, %concatenate.15), direction=LE, sharding={replicated}
  %iota.20 = s32[2]{0} iota(), iota_dimension=0, sharding={replicated}
  %constant.1141 = s32[] constant(199), sharding={replicated}
  %broadcast.1116 = s32[2]{0} broadcast(%constant.1141), dimensions={}, sharding={replicated}
  %multiply.199 = s32[2]{0} multiply(%iota.20, %broadcast.1116), sharding={replicated}
  %compare.166 = pred[2]{0} compare(%multiply.199, %concatenate.15), direction=GE, sharding={replicated}
  %and.49 = pred[2]{0} and(%compare.165, %compare.166), sharding={replicated}
  %constant.1139 = pred[] constant(true)
  %reduce.31 = pred[] reduce(%and.49, %constant.1139), dimensions={0}, to_apply=%and.reduce_sub_computation, sharding={replicated}
  %broadcast.1110 = pred[1024,1]{1,0} broadcast(%reduce.31), dimensions={}, sharding={devices=[2,1,2]<=[4] last_tile_dim_replicate}
  %constant.1144 = s64[] constant(-10), sharding={replicated}
  %add.721 = s64[] add(%get-tuple-element.496, %constant.1144), sharding={replicated}, metadata={op_name="jit(_full_run)/jit(main)/while/body/sub" source_file="/global/homes/j/jackm/software/lorrax_C/src/solvers/lanczos.py" source_line=274}
  %constant.1244 = s64[] constant(0), sharding={replicated}
  %maximum.16 = s64[] maximum(%add.721, %constant.1244), sharding={replicated}, metadata={op_name="jit(_full_run)/jit(main)/while/body/max" source_file="/global/homes/j/jackm/software/lorrax_C/src/solvers/lanczos.py" source_line=274}
  %get-tuple-element.487 = f64[64,4]{1,0} get-tuple-element(%arg_tuple.13), index=9, sharding={replicated}
  %copy.30 = f64[64,4]{1,0} copy(%get-tuple-element.487), sharding={replicated}, metadata={op_name="jit(_full_run)/jit(main)/while/body/pjit" source_file="/global/homes/j/jackm/software/lorrax_C/src/bse/bse_lanczos.py" source_line=177}
  %copy.29 = f64[64,4]{1,0} copy(%copy.30), sharding={replicated}, metadata={op_name="jit(_full_run)/jit(main)/while/body/jit(_matvec_impl)/pjit" source_file="/global/homes/j/jackm/software/lorrax_C/src/bse/bse_ring_comm.py" source_line=444}
  %transpose.76 = f64[4,64]{0,1} transpose(%copy.29), dimensions={1,0}, sharding={devices=[2,1,2]<=[4] last_tile_dim_replicate}, metadata={op_name="jit(_full_run)/jit(main)/while/body/jit(_matvec_impl)/jit(_apply_D_term)/transpose" source_file="/global/homes/j/jackm/software/lorrax_C/src/bse/bse_ring_comm.py" source_line=434}
  %broadcast.1111 = f64[1,4,4,64]{3,2,1,0} broadcast(%transpose.76), dimensions={1,3}, sharding={devices=[1,2,2,1]<=[4]}, metadata={op_name="jit(_full_run)/jit(main)/while/body/jit(_matvec_impl)/jit(_apply_D_term)/sub" source_file="/global/homes/j/jackm/software/lorrax_C/src/bse/bse_ring_comm.py" source_line=434}
  %get-tuple-element.486 = f64[64,4]{1,0} get-tuple-element(%arg_tuple.13), index=10, sharding={replicated}
  %copy.28 = f64[64,4]{1,0} copy(%get-tuple-element.486), sharding={replicated}, metadata={op_name="jit(_full_run)/jit(main)/while/body/pjit" source_file="/global/homes/j/jackm/software/lorrax_C/src/bse/bse_lanczos.py" source_line=177}
  %copy.27 = f64[64,4]{1,0} copy(%copy.28), sharding={replicated}, metadata={op_name="jit(_full_run)/jit(main)/while/body/jit(_matvec_impl)/pjit" source_file="/global/homes/j/jackm/software/lorrax_C/src/bse/bse_ring_comm.py" source_line=444}
  %transpose.77 = f64[4,64]{0,1} transpose(%copy.27), dimensions={1,0}, sharding={devices=[2,1,2]<=[2,2]T(1,0) last_tile_dim_replicate}, metadata={op_name="jit(_full_run)/jit(main)/while/body/jit(_matvec_impl)/jit(_apply_D_term)/transpose" source_file="/global/homes/j/jackm/software/lorrax_C/src/bse/bse_ring_comm.py" source_line=434}
  %broadcast.1112 = f64[1,4,4,64]{3,2,1,0} broadcast(%transpose.77), dimensions={2,3}, sharding={devices=[1,2,2,1]<=[4]}, metadata={op_name="jit(_full_run)/jit(main)/while/body/jit(_matvec_impl)/jit(_apply_D_term)/sub" source_file="/global/homes/j/jackm/software/lorrax_C/src/bse/bse_ring_comm.py" source_line=434}
  %subtract.47 = f64[1,4,4,64]{3,2,1,0} subtract(%broadcast.1111, %broadcast.1112), sharding={devices=[1,2,2,1]<=[4]}, metadata={op_name="jit(_full_run)/jit(main)/while/body/jit(_matvec_impl)/jit(_apply_D_term)/sub" source_file="/global/homes/j/jackm/software/lorrax_C/src/bse/bse_ring_comm.py" source_line=434}
  %convert.106 = c128[1,4,4,64]{3,2,1,0} convert(%subtract.47), sharding={devices=[1,2,2,1]<=[4]}, metadata={op_name="jit(_full_run)/jit(main)/while/body/jit(_matvec_impl)/jit(_apply_D_term)/convert_element_type" source_file="/global/homes/j/jackm/software/lorrax_C/src/bse/bse_ring_comm.py" source_line=435}
  %get-tuple-element.492 = c128[1024]{0} get-tuple-element(%arg_tuple.13), index=4, sharding={devices=[2,2]<=[4] last_tile_dim_replicate}
  %reshape.443 = c128[1,4,4,64]{3,2,1,0} reshape(%get-tuple-element.492), sharding={devices=[1,2,2,1]<=[4]}, metadata={op_name="jit(_full_run)/jit(main)/while/body/reshape" source_file="/global/homes/j/jackm/software/lorrax_C/src/bse/bse_lanczos.py" source_line=175}
  %copy.26 = c128[1,4,4,64]{3,2,1,0} copy(%reshape.443), sharding={devices=[1,2,2,1]<=[4]}, metadata={op_name="jit(_full_run)/jit(main)/while/body/sharding_constraint" source_file="/global/homes/j/jackm/software/lorrax_C/src/bse/bse_lanczos.py" source_line=176}
  %copy.25 = c128[1,4,4,64]{3,2,1,0} copy(%copy.26), sharding={devices=[1,2,2,1]<=[4]}, metadata={op_name="jit(_full_run)/jit(main)/while/body/pjit" source_file="/global/homes/j/jackm/software/lorrax_C/src/bse/bse_lanczos.py" source_line=177}
  %copy.24 = c128[1,4,4,64]{3,2,1,0} copy(%copy.25), sharding={devices=[1,2,2,1]<=[4]}, metadata={op_name="jit(_full_run)/jit(main)/while/body/jit(_matvec_impl)/pjit" source_file="/global/homes/j/jackm/software/lorrax_C/src/bse/bse_ring_comm.py" source_line=444}
  %multiply.190 = c128[1,4,4,64]{3,2,1,0} multiply(%convert.106, %copy.24), sharding={devices=[1,2,2,1]<=[4]}, metadata={op_name="jit(_full_run)/jit(main)/while/body/jit(_matvec_impl)/jit(_apply_D_term)/mul" source_file="/global/homes/j/jackm/software/lorrax_C/src/bse/bse_ring_comm.py" source_line=435}
  %copy.23 = c128[1,4,4,64]{3,2,1,0} copy(%multiply.190), sharding={devices=[1,2,2,1]<=[4]}, metadata={op_name="jit(_full_run)/jit(main)/while/body/jit(_matvec_impl)/pjit" source_file="/global/homes/j/jackm/software/lorrax_C/src/bse/bse_ring_comm.py" source_line=444}
  %constant.1256 = s64[] constant(0), sharding={replicated}
  %constant.1255 = s64[] constant(0), sharding={manual}
  %copy.22 = c128[1,4,4,64]{3,2,1,0} copy(%copy.25), sharding={devices=[1,2,2,1]<=[4]}, metadata={op_name="jit(_full_run)/jit(main)/while/body/jit(_matvec_impl)/shard_map" source_file="/global/homes/j/jackm/software/lorrax_C/src/bse/bse_ring_comm.py" source_line=445}
  %custom-call.219 = c128[1,2,2,64]{3,2,1,0} custom-call(%copy.22), custom_call_target="SPMDFullToShardShape", sharding={manual}, metadata={op_name="jit(_full_run)/jit(main)/while/body/jit(_matvec_impl)/shard_map" source_file="/global/homes/j/jackm/software/lorrax_C/src/bse/bse_ring_comm.py" source_line=445}
  %constant.1116 = c128[] constant((0, 0)), sharding={manual}
  %broadcast.1103 = c128[1,2,240,64]{3,2,1,0} broadcast(%constant.1116), dimensions={}, sharding={manual}
  %partition-id.20 = u32[] partition-id(), sharding={manual}, metadata={op_name="jit(_full_run)/jit(main)/while/body/jit(_matvec_impl)/jit(shmap_body)/axis_index" source_file="/global/homes/j/jackm/software/lorrax_C/src/bse/bse_ring_comm.py" source_line=246}
  %constant.1130 = u32[] constant(1), sharding={manual}, metadata={op_name="jit(_full_run)/jit(main)/while/body/jit(_matvec_impl)/jit(shmap_body)/axis_index" source_file="/global/homes/j/jackm/software/lorrax_C/src/bse/bse_ring_comm.py" source_line=246}
  %and.45 = u32[] and(%partition-id.20, %constant.1130), sharding={manual}, metadata={op_name="jit(_full_run)/jit(main)/while/body/jit(_matvec_impl)/jit(shmap_body)/axis_index" source_file="/global/homes/j/jackm/software/lorrax_C/src/bse/bse_ring_comm.py" source_line=246}
  %convert.107 = s32[] convert(%and.45), sharding={manual}, metadata={op_name="jit(_full_run)/jit(main)/while/body/jit(_matvec_impl)/jit(shmap_body)/axis_index" source_file="/global/homes/j/jackm/software/lorrax_C/src/bse/bse_ring_comm.py" source_line=246}
  %get-tuple-element.488 = c128[64,4,2,480]{3,2,1,0} get-tuple-element(%arg_tuple.13), index=8, sharding={devices=[1,1,1,2,2]<=[2,2]T(1,0) last_tile_dim_replicate}
  %copy.21 = c128[64,4,2,480]{3,2,1,0} copy(%get-tuple-element.488), sharding={devices=[1,1,1,2,2]<=[2,2]T(1,0) last_tile_dim_replicate}, metadata={op_name="jit(_full_run)/jit(main)/while/body/pjit" source_file="/global/homes/j/jackm/software/lorrax_C/src/bse/bse_lanczos.py" source_line=177}
  %copy.20 = c128[64,4,2,480]{3,2,1,0} copy(%copy.21), sharding={devices=[1,1,1,2,2]<=[2,2]T(1,0) last_tile_dim_replicate}, metadata={op_name="jit(_full_run)/jit(main)/while/body/jit(_matvec_impl)/shard_map" source_file="/global/homes/j/jackm/software/lorrax_C/src/bse/bse_ring_comm.py" source_line=445}
  %custom-call.222 = c128[64,4,2,240]{3,2,1,0} custom-call(%copy.20), custom_call_target="SPMDFullToShardShape", sharding={manual}, metadata={op_name="jit(_full_run)/jit(main)/while/body/jit(_matvec_impl)/shard_map" source_file="/global/homes/j/jackm/software/lorrax_C/src/bse/bse_ring_comm.py" source_line=445}
  %get-tuple-element.490 = c128[64,4,2,480]{3,2,1,0} get-tuple-element(%arg_tuple.13), index=6, sharding={devices=[1,1,1,2,2]<=[2,2]T(1,0) last_tile_dim_replicate}
  %copy.19 = c128[64,4,2,480]{3,2,1,0} copy(%get-tuple-element.490), sharding={devices=[1,1,1,2,2]<=[2,2]T(1,0) last_tile_dim_replicate}, metadata={op_name="jit(_full_run)/jit(main)/while/body/pjit" source_file="/global/homes/j/jackm/software/lorrax_C/src/bse/bse_lanczos.py" source_line=177}
  %copy.18 = c128[64,4,2,480]{3,2,1,0} copy(%copy.19), sharding={devices=[1,1,1,2,2]<=[2,2]T(1,0) last_tile_dim_replicate}, metadata={op_name="jit(_full_run)/jit(main)/while/body/jit(_matvec_impl)/shard_map" source_file="/global/homes/j/jackm/software/lorrax_C/src/bse/bse_ring_comm.py" source_line=445}
  %custom-call.225 = c128[64,4,2,240]{3,2,1,0} custom-call(%copy.18), custom_call_target="SPMDFullToShardShape", sharding={manual}, metadata={op_name="jit(_full_run)/jit(main)/while/body/jit(_matvec_impl)/shard_map" source_file="/global/homes/j/jackm/software/lorrax_C/src/bse/bse_ring_comm.py" source_line=445}
  %constant.1258 = s32[] constant(0), sharding={manual}
  %partition-id.21 = u32[] partition-id(), sharding={manual}, metadata={op_name="jit(_full_run)/jit(main)/while/body/jit(_matvec_impl)/jit(shmap_body)/axis_index" source_file="/global/homes/j/jackm/software/lorrax_C/src/bse/bse_ring_comm.py" source_line=245}
  %constant.1131 = u32[] constant(1), sharding={manual}, metadata={op_name="jit(_full_run)/jit(main)/while/body/jit(_matvec_impl)/jit(shmap_body)/axis_index" source_file="/global/homes/j/jackm/software/lorrax_C/src/bse/bse_ring_comm.py" source_line=245}
  %shift-right-logical.241 = u32[] shift-right-logical(%partition-id.21, %constant.1131), sharding={manual}, metadata={op_name="jit(_full_run)/jit(main)/while/body/jit(_matvec_impl)/jit(shmap_body)/axis_index" source_file="/global/homes/j/jackm/software/lorrax_C/src/bse/bse_ring_comm.py" source_line=245}
  %constant.1132 = u32[] constant(1), sharding={manual}, metadata={op_name="jit(_full_run)/jit(main)/while/body/jit(_matvec_impl)/jit(shmap_body)/axis_index" source_file="/global/homes/j/jackm/software/lorrax_C/src/bse/bse_ring_comm.py" source_line=245}
  %and.46 = u32[] and(%shift-right-logical.241, %constant.1132), sharding={manual}, metadata={op_name="jit(_full_run)/jit(main)/while/body/jit(_matvec_impl)/jit(shmap_body)/axis_index" source_file="/global/homes/j/jackm/software/lorrax_C/src/bse/bse_ring_comm.py" source_line=245}
  %convert.108 = s32[] convert(%and.46), sharding={manual}, metadata={op_name="jit(_full_run)/jit(main)/while/body/jit(_matvec_impl)/jit(shmap_body)/axis_index" source_file="/global/homes/j/jackm/software/lorrax_C/src/bse/bse_ring_comm.py" source_line=245}
  %constant.1261 = s32[] constant(2), sharding={manual}
  %multiply.191 = s32[] multiply(%convert.108, %constant.1261), sharding={manual}, metadata={op_name="jit(_full_run)/jit(main)/while/body/jit(_matvec_impl)/jit(shmap_body)/mul" source_file="/global/homes/j/jackm/software/lorrax_C/src/bse/bse_ring_comm.py" source_line=253}
  %constant.1257 = s32[] constant(0), sharding={manual}
  %compare.158 = pred[] compare(%multiply.191, %constant.1257), direction=LT, sharding={manual}, metadata={op_name="jit(_full_run)/jit(main)/while/body/jit(_matvec_impl)/jit(shmap_body)/lt" source_file="/global/homes/j/jackm/software/lorrax_C/src/bse/bse_ring_comm.py" source_line=255}
  %constant.1263 = s32[] constant(4), sharding={manual}
  %add.713 = s32[] add(%multiply.191, %constant.1263), sharding={manual}, metadata={op_name="jit(_full_run)/jit(main)/while/body/jit(_matvec_impl)/jit(shmap_body)/add" source_file="/global/homes/j/jackm/software/lorrax_C/src/bse/bse_ring_comm.py" source_line=255}
  %select.276 = s32[] select(%compare.158, %add.713, %multiply.191), sharding={manual}, metadata={op_name="jit(_full_run)/jit(main)/while/body/jit(_matvec_impl)/jit(shmap_body)/select_n" source_file="/global/homes/j/jackm/software/lorrax_C/src/bse/bse_ring_comm.py" source_line=255}
  %dynamic-slice.69 = c128[64,2,2,240]{3,2,1,0} dynamic-slice(%custom-call.225, %constant.1258, %select.276, %constant.1258, %constant.1258), dynamic_slice_sizes={64,2,2,240}, sharding={manual}, metadata={op_name="jit(_full_run)/jit(main)/while/body/jit(_matvec_impl)/jit(shmap_body)/dynamic_slice" source_file="/global/homes/j/jackm/software/lorrax_C/src/bse/bse_ring_comm.py" source_line=255}
  %tuple.124 = (s64[], c128[1,2,2,64]{3,2,1,0}, c128[1,2,240,64]{3,2,1,0}, s32[], c128[64,4,2,240]{3,2,1,0}, /*index=5*/c128[64,2,2,240]{3,2,1,0}) tuple(%constant.1255, %custom-call.219, %broadcast.1103, %convert.107, %custom-call.222, /*index=5*/%dynamic-slice.69), sharding={{manual}, {manual}, {manual}, {manual}, {manual}, /*index=5*/{manual}}
  %while.40 = (s64[], c128[1,2,2,64]{3,2,1,0}, c128[1,2,240,64]{3,2,1,0}, s32[], c128[64,4,2,240]{3,2,1,0}, /*index=5*/c128[64,2,2,240]{3,2,1,0}) while(%tuple.124), condition=%region_4.1275.clone.clone.1, body=%region_3.1258.clone.clone.clone.1, sharding={{manual}, {manual}, {manual}, {manual}, {manual}, /*index=5*/{manual}}, metadata={op_name="jit(_full_run)/jit(main)/while/body/jit(_matvec_impl)/jit(shmap_body)/while" source_file="/global/homes/j/jackm/software/lorrax_C/src/bse/bse_ring_comm.py" source_line=274}
  %get-tuple-element.481 = c128[1,2,240,64]{3,2,1,0} get-tuple-element(%while.40), index=2, sharding={manual}, metadata={op_name="jit(_full_run)/jit(main)/while/body/jit(_matvec_impl)/jit(shmap_body)/while" source_file="/global/homes/j/jackm/software/lorrax_C/src/bse/bse_ring_comm.py" source_line=274}
  %constant.1120 = c128[] constant((0, 0)), sharding={manual}
  %broadcast.1104 = c128[1,240,64]{2,1,0} broadcast(%constant.1120), dimensions={}, sharding={manual}
  %tuple.110 = (s64[], c128[1,2,240,64]{3,2,1,0}, c128[1,240,64]{2,1,0}) tuple(%constant.1256, %get-tuple-element.481, %broadcast.1104), sharding={{replicated}, {manual}, {manual}}, metadata={op_name="jit(_full_run)/jit(main)/while/body/jit(_matvec_impl)/jit(shmap_body)/while" source_file="/global/homes/j/jackm/software/lorrax_C/src/bse/bse_ring_comm.py" source_line=285}
  %while.31 = (s64[], c128[1,2,240,64]{3,2,1,0}, c128[1,240,64]{2,1,0}) while(%tuple.110), condition=%region_7.1309, body=%region_5.1298, sharding={{replicated}, {manual}, {manual}}, metadata={op_name="jit(_full_run)/jit(main)/while/body/jit(_matvec_impl)/jit(shmap_body)/while" source_file="/global/homes/j/jackm/software/lorrax_C/src/bse/bse_ring_comm.py" source_line=285}
  %get-tuple-element.479 = c128[1,240,64]{2,1,0} get-tuple-element(%while.31), index=2, sharding={manual}, metadata={op_name="jit(_full_run)/jit(main)/while/body/jit(_matvec_impl)/jit(shmap_body)/while" source_file="/global/homes/j/jackm/software/lorrax_C/src/bse/bse_ring_comm.py" source_line=285}
  %constant.1147 = c128[] constant((0.125, 0)), sharding={manual}, metadata={op_name="jit(_full_run)/jit(main)/while/body/jit(_matvec_impl)/jit(shmap_body)/convert_element_type" source_file="/global/homes/j/jackm/software/lorrax_C/src/bse/bse_ring_comm.py" source_line=287}
  %broadcast.1117 = c128[1,240,64]{2,1,0} broadcast(%constant.1147), dimensions={}, sharding={manual}, metadata={op_name="jit(_full_run)/jit(main)/while/body/jit(_matvec_impl)/jit(shmap_body)/div" source_file="/global/homes/j/jackm/software/lorrax_C/src/bse/bse_ring_comm.py" source_line=287}
  %multiply.200 = c128[1,240,64]{2,1,0} multiply(%get-tuple-element.479, %broadcast.1117), sharding={manual}, metadata={op_name="jit(_full_run)/jit(main)/while/body/jit(_matvec_impl)/jit(shmap_body)/div" source_file="/global/homes/j/jackm/software/lorrax_C/src/bse/bse_ring_comm.py" source_line=287}
  %reshape.448 = c128[240,64]{1,0} reshape(%multiply.200), sharding={manual}
  %get-tuple-element.484 = c128[480,480]{1,0} get-tuple-element(%arg_tuple.13), index=12, sharding={devices=[2,2]<=[4]}
  %copy.17 = c128[480,480]{1,0} copy(%get-tuple-element.484), sharding={devices=[2,2]<=[4]}, metadata={op_name="jit(_full_run)/jit(main)/while/body/pjit" source_file="/global/homes/j/jackm/software/lorrax_C/src/bse/bse_lanczos.py" source_line=177}
  %copy.16 = c128[480,480]{1,0} copy(%copy.17), sharding={devices=[2,2]<=[4]}, metadata={op_name="jit(_full_run)/jit(main)/while/body/jit(_matvec_impl)/shard_map" source_file="/global/homes/j/jackm/software/lorrax_C/src/bse/bse_ring_comm.py" source_line=445}
  %custom-call.228 = c128[240,240]{1,0} custom-call(%copy.16), custom_call_target="SPMDFullToShardShape", sharding={manual}, metadata={op_name="jit(_full_run)/jit(main)/while/body/jit(_matvec_impl)/shard_map" source_file="/global/homes/j/jackm/software/lorrax_C/src/bse/bse_ring_comm.py" source_line=445}
  %dot.45 = c128[64,240]{1,0} dot(%reshape.448, %custom-call.228), lhs_contracting_dims={0}, rhs_contracting_dims={1}, sharding={manual}, metadata={op_name="jit(_full_run)/jit(main)/while/body/jit(_matvec_impl)/jit(shmap_body)/MN,bNk->bMk/dot_general" source_file="/global/homes/j/jackm/software/lorrax_C/src/bse/bse_ring_comm.py" source_line=289}
  %reshape.449 = c128[1,64,240]{2,1,0} reshape(%dot.45), sharding={manual}, metadata={op_name="jit(_full_run)/jit(main)/while/body/jit(_matvec_impl)/jit(shmap_body)/MN,bNk->bMk/dot_general" source_file="/global/homes/j/jackm/software/lorrax_C/src/bse/bse_ring_comm.py" source_line=289}
  %transpose.78 = c128[1,240,64]{1,2,0} transpose(%reshape.449), dimensions={0,2,1}, sharding={manual}, metadata={op_name="jit(_full_run)/jit(main)/while/body/jit(_matvec_impl)/jit(shmap_body)/MN,bNk->bMk/transpose" source_file="/global/homes/j/jackm/software/lorrax_C/src/bse/bse_ring_comm.py" source_line=289}
  %all-reduce.5 = c128[1,240,64]{1,2,0} all-reduce(%transpose.78), channel_id=3, replica_groups={{0,1},{2,3}}, use_global_device_ids=true, to_apply=%region_8.1316, sharding={manual}, metadata={op_name="jit(_full_run)/jit(main)/while/body/jit(_matvec_impl)/jit(shmap_body)/psum2" source_file="/global/homes/j/jackm/software/lorrax_C/src/bse/bse_ring_comm.py" source_line=290}
  %reshape.450 = c128[240,64]{0,1} reshape(%all-reduce.5), sharding={manual}
  %transpose.83 = c128[64,240]{1,0} transpose(%reshape.450), dimensions={1,0}, sharding={manual}
  %broadcast.1121 = c128[64,240,2,4]{3,2,1,0} broadcast(%transpose.83), dimensions={0,1}, sharding={manual}, metadata={op_name="jit(_full_run)/jit(main)/while/body/jit(_matvec_impl)/jit(shmap_body)/kcvM,bMk->bcvk/dot_general" source_file="/global/homes/j/jackm/software/lorrax_C/src/bse/bse_ring_comm.py" source_line=297}
  %get-tuple-element.489 = c128[64,4,2,480]{3,2,1,0} get-tuple-element(%arg_tuple.13), index=7, sharding={devices=[1,1,1,2,2]<=[4] last_tile_dim_replicate}
  %copy.15 = c128[64,4,2,480]{3,2,1,0} copy(%get-tuple-element.489), sharding={devices=[1,1,1,2,2]<=[4] last_tile_dim_replicate}, metadata={op_name="jit(_full_run)/jit(main)/while/body/pjit" source_file="/global/homes/j/jackm/software/lorrax_C/src/bse/bse_lanczos.py" source_line=177}
  %copy.14 = c128[64,4,2,480]{3,2,1,0} copy(%copy.15), sharding={devices=[1,1,1,2,2]<=[4] last_tile_dim_replicate}, metadata={op_name="jit(_full_run)/jit(main)/while/body/jit(_matvec_impl)/shard_map" source_file="/global/homes/j/jackm/software/lorrax_C/src/bse/bse_ring_comm.py" source_line=445}
  %custom-call.231 = c128[64,4,2,240]{3,2,1,0} custom-call(%copy.14), custom_call_target="SPMDFullToShardShape", sharding={manual}, metadata={op_name="jit(_full_run)/jit(main)/while/body/jit(_matvec_impl)/shard_map" source_file="/global/homes/j/jackm/software/lorrax_C/src/bse/bse_ring_comm.py" source_line=445}
  %constant.1260 = s32[] constant(0), sharding={manual}
  %constant.1262 = s32[] constant(2), sharding={manual}
  %multiply.192 = s32[] multiply(%convert.107, %constant.1262), sharding={manual}, metadata={op_name="jit(_full_run)/jit(main)/while/body/jit(_matvec_impl)/jit(shmap_body)/mul" source_file="/global/homes/j/jackm/software/lorrax_C/src/bse/bse_ring_comm.py" source_line=292}
  %constant.1259 = s32[] constant(0), sharding={manual}
  %compare.159 = pred[] compare(%multiply.192, %constant.1259), direction=LT, sharding={manual}, metadata={op_name="jit(_full_run)/jit(main)/while/body/jit(_matvec_impl)/jit(shmap_body)/lt" source_file="/global/homes/j/jackm/software/lorrax_C/src/bse/bse_ring_comm.py" source_line=293}
  %constant.1264 = s32[] constant(4), sharding={manual}
  %add.714 = s32[] add(%multiply.192, %constant.1264), sharding={manual}, metadata={op_name="jit(_full_run)/jit(main)/while/body/jit(_matvec_impl)/jit(shmap_body)/add" source_file="/global/homes/j/jackm/software/lorrax_C/src/bse/bse_ring_comm.py" source_line=293}
  %select.277 = s32[] select(%compare.159, %add.714, %multiply.192), sharding={manual}, metadata={op_name="jit(_full_run)/jit(main)/while/body/jit(_matvec_impl)/jit(shmap_body)/select_n" source_file="/global/homes/j/jackm/software/lorrax_C/src/bse/bse_ring_comm.py" source_line=293}
  %dynamic-slice.70 = c128[64,2,2,240]{3,2,1,0} dynamic-slice(%custom-call.231, %constant.1260, %select.277, %constant.1260, %constant.1260), dynamic_slice_sizes={64,2,2,240}, sharding={manual}, metadata={op_name="jit(_full_run)/jit(main)/while/body/jit(_matvec_impl)/jit(shmap_body)/dynamic_slice" source_file="/global/homes/j/jackm/software/lorrax_C/src/bse/bse_ring_comm.py" source_line=293}
  %get-tuple-element.491 = c128[64,4,2,480]{3,2,1,0} get-tuple-element(%arg_tuple.13), index=5, sharding={devices=[1,1,1,2,2]<=[4] last_tile_dim_replicate}
  %copy.13 = c128[64,4,2,480]{3,2,1,0} copy(%get-tuple-element.491), sharding={devices=[1,1,1,2,2]<=[4] last_tile_dim_replicate}, metadata={op_name="jit(_full_run)/jit(main)/while/body/pjit" source_file="/global/homes/j/jackm/software/lorrax_C/src/bse/bse_lanczos.py" source_line=177}
  %copy.12 = c128[64,4,2,480]{3,2,1,0} copy(%copy.13), sharding={devices=[1,1,1,2,2]<=[4] last_tile_dim_replicate}, metadata={op_name="jit(_full_run)/jit(main)/while/body/jit(_matvec_impl)/shard_map" source_file="/global/homes/j/jackm/software/lorrax_C/src/bse/bse_ring_comm.py" source_line=445}
  %custom-call.234 = c128[64,4,2,240]{3,2,1,0} custom-call(%copy.12), custom_call_target="SPMDFullToShardShape", sharding={manual}, metadata={op_name="jit(_full_run)/jit(main)/while/body/jit(_matvec_impl)/shard_map" source_file="/global/homes/j/jackm/software/lorrax_C/src/bse/bse_ring_comm.py" source_line=445}
  %real.41 = f64[64,4,2,240]{3,2,1,0} real(%custom-call.234), sharding={manual}, metadata={op_name="jit(_full_run)/jit(main)/while/body/jit(_matvec_impl)/jit(shmap_body)/real" source_file="/global/homes/j/jackm/software/lorrax_C/src/bse/bse_ring_comm.py" source_line=296}
  %imag.32 = f64[64,4,2,240]{3,2,1,0} imag(%custom-call.234), sharding={manual}, metadata={op_name="jit(_full_run)/jit(main)/while/body/jit(_matvec_impl)/jit(shmap_body)/imag" source_file="/global/homes/j/jackm/software/lorrax_C/src/bse/bse_ring_comm.py" source_line=296}
  %negate.59 = f64[64,4,2,240]{3,2,1,0} negate(%imag.32), sharding={manual}, metadata={op_name="jit(_full_run)/jit(main)/while/body/jit(_matvec_impl)/jit(shmap_body)/neg" source_file="/global/homes/j/jackm/software/lorrax_C/src/bse/bse_ring_comm.py" source_line=296}
  %complex.30 = c128[64,4,2,240]{3,2,1,0} complex(%real.41, %negate.59), sharding={manual}, metadata={op_name="jit(_full_run)/jit(main)/while/body/jit(_matvec_impl)/jit(shmap_body)/complex" source_file="/global/homes/j/jackm/software/lorrax_C/src/bse/bse_ring_comm.py" source_line=296}
  %dot.44 = c128[64,240,2,4]{3,2,1,0} dot(%dynamic-slice.70, %complex.30), lhs_batch_dims={0,3}, lhs_contracting_dims={2}, rhs_batch_dims={0,3}, rhs_contracting_dims={2}, sharding={manual}, metadata={op_name="jit(_full_run)/jit(main)/while/body/jit(_matvec_impl)/jit(shmap_body)/kcsm,kvsm->kcvm/dot_general" source_file="/global/homes/j/jackm/software/lorrax_C/src/bse/bse_ring_comm.py" source_line=296}
  %real.47 = f64[64,240,2,4]{3,2,1,0} real(%dot.44), sharding={manual}, metadata={op_name="jit(_full_run)/jit(main)/while/body/jit(_matvec_impl)/jit(shmap_body)/real" source_file="/global/homes/j/jackm/software/lorrax_C/src/bse/bse_ring_comm.py" source_line=297}
  %imag.36 = f64[64,240,2,4]{3,2,1,0} imag(%dot.44), sharding={manual}, metadata={op_name="jit(_full_run)/jit(main)/while/body/jit(_matvec_impl)/jit(shmap_body)/imag" source_file="/global/homes/j/jackm/software/lorrax_C/src/bse/bse_ring_comm.py" source_line=297}
  %negate.63 = f64[64,240,2,4]{3,2,1,0} negate(%imag.36), sharding={manual}, metadata={op_name="jit(_full_run)/jit(main)/while/body/jit(_matvec_impl)/jit(shmap_body)/neg" source_file="/global/homes/j/jackm/software/lorrax_C/src/bse/bse_ring_comm.py" source_line=297}
  %complex.38 = c128[64,240,2,4]{3,2,1,0} complex(%real.47, %negate.63), sharding={manual}, metadata={op_name="jit(_full_run)/jit(main)/while/body/jit(_matvec_impl)/jit(shmap_body)/complex" source_file="/global/homes/j/jackm/software/lorrax_C/src/bse/bse_ring_comm.py" source_line=297}
  %multiply.211 = c128[64,240,2,4]{3,2,1,0} multiply(%broadcast.1121, %complex.38), sharding={manual}
  %constant.1140 = c128[] constant((0, 0)), sharding={manual}
  %reduce.35 = c128[64,2,4]{2,1,0} reduce(%multiply.211, %constant.1140), dimensions={1}, to_apply=%scalar_add_computation.1, sharding={manual}, metadata={op_name="jit(_full_run)/jit(main)/while/body/jit(_matvec_impl)/jit(shmap_body)/kcvM,bMk->bcvk/dot_general" source_file="/global/homes/j/jackm/software/lorrax_C/src/bse/bse_ring_comm.py" source_line=297}
  %transpose.102 = c128[64,4,2]{1,2,0} transpose(%reduce.35), dimensions={0,2,1}, sharding={manual}, metadata={op_name="jit(_full_run)/jit(main)/while/body/jit(_matvec_impl)/jit(shmap_body)/kcvM,bMk->bcvk/dot_general" source_file="/global/homes/j/jackm/software/lorrax_C/src/bse/bse_ring_comm.py" source_line=297}
  %reshape.451 = c128[64,1,4,2]{3,2,1,0} reshape(%transpose.102), sharding={manual}, metadata={op_name="jit(_full_run)/jit(main)/while/body/jit(_matvec_impl)/jit(shmap_body)/kcvM,bMk->bcvk/dot_general" source_file="/global/homes/j/jackm/software/lorrax_C/src/bse/bse_ring_comm.py" source_line=297}
  %transpose.79 = c128[1,4,2,64]{2,1,0,3} transpose(%reshape.451), dimensions={1,2,3,0}, sharding={manual}, metadata={op_name="jit(_full_run)/jit(main)/while/body/jit(_matvec_impl)/jit(shmap_body)/kcvM,bMk->bcvk/transpose" source_file="/global/homes/j/jackm/software/lorrax_C/src/bse/bse_ring_comm.py" source_line=297}
  %reduce-scatter.5 = c128[1,2,2,64]{2,1,0,3} reduce-scatter(%transpose.79), channel_id=4, replica_groups={{0,2},{1,3}}, use_global_device_ids=true, dimensions={1}, to_apply=%region_9.1320, sharding={manual}, metadata={op_name="jit(_full_run)/jit(main)/while/body/jit(_matvec_impl)/jit(shmap_body)/reduce_scatter" source_file="/global/homes/j/jackm/software/lorrax_C/src/bse/bse_ring_comm.py" source_line=298}
  %constant.1148 = c128[] constant((0.125, 0)), sharding={manual}, metadata={op_name="jit(_full_run)/jit(main)/while/body/jit(_matvec_impl)/jit(shmap_body)/convert_element_type" source_file="/global/homes/j/jackm/software/lorrax_C/src/bse/bse_ring_comm.py" source_line=300}
  %broadcast.1118 = c128[1,2,2,64]{3,2,1,0} broadcast(%constant.1148), dimensions={}, sharding={manual}, metadata={op_name="jit(_full_run)/jit(main)/while/body/jit(_matvec_impl)/jit(shmap_body)/div" source_file="/global/homes/j/jackm/software/lorrax_C/src/bse/bse_ring_comm.py" source_line=300}
  %multiply.201 = c128[1,2,2,64]{2,1,0,3} multiply(%reduce-scatter.5, %broadcast.1118), sharding={manual}, metadata={op_name="jit(_full_run)/jit(main)/while/body/jit(_matvec_impl)/jit(shmap_body)/div" source_file="/global/homes/j/jackm/software/lorrax_C/src/bse/bse_ring_comm.py" source_line=300}
  %copy.11 = c128[1,2,2,64]{3,2,1,0} copy(%multiply.201), sharding={manual}, metadata={op_name="jit(_full_run)/jit(main)/while/body/jit(_matvec_impl)/shard_map" source_file="/global/homes/j/jackm/software/lorrax_C/src/bse/bse_ring_comm.py" source_line=445}
  %custom-call.236 = c128[1,4,4,64]{3,2,1,0} custom-call(%copy.11), custom_call_target="SPMDShardToFullShape", sharding={devices=[1,2,2,1]<=[4]}, metadata={op_name="jit(_full_run)/jit(main)/while/body/jit(_matvec_impl)/shard_map" source_file="/global/homes/j/jackm/software/lorrax_C/src/bse/bse_ring_comm.py" source_line=445}
  %add.715 = c128[1,4,4,64]{3,2,1,0} add(%copy.23, %custom-call.236), sharding={devices=[1,2,2,1]<=[4]}, metadata={op_name="jit(_full_run)/jit(main)/while/body/jit(_matvec_impl)/add" source_file="/global/homes/j/jackm/software/lorrax_C/src/bse/bse_ring_comm.py" source_line=450}
  %get-tuple-element.485 = c128[480,480,4,4,4]{4,3,2,1,0} get-tuple-element(%arg_tuple.13), index=11, sharding={devices=[2,2,1,1,1]<=[4]}
  %copy.10 = c128[480,480,4,4,4]{4,3,2,1,0} copy(%get-tuple-element.485), sharding={devices=[2,2,1,1,1]<=[4]}, metadata={op_name="jit(_full_run)/jit(main)/while/body/pjit" source_file="/global/homes/j/jackm/software/lorrax_C/src/bse/bse_lanczos.py" source_line=177}
  %copy.9 = c128[480,480,4,4,4]{4,3,2,1,0} copy(%copy.10), sharding={devices=[2,2,1,1,1]<=[4]}, metadata={op_name="jit(_full_run)/jit(main)/while/body/jit(_matvec_impl)/pjit" source_file="/global/homes/j/jackm/software/lorrax_C/src/bse/bse_ring_comm.py" source_line=449}
  %broadcast.1114 = c128[1,480,480,2,2,4,4,4]{7,6,5,4,3,2,1,0} broadcast(%copy.9), dimensions={1,2,5,6,7}, sharding={devices=[1,2,2,1,1,1,1,1]<=[4]}, metadata={op_name="jit(_full_run)/jit(main)/while/body/jit(_matvec_impl)/jit(_apply_W_from_T)/mul" source_file="/global/homes/j/jackm/software/lorrax_C/src/bse/bse_ring_comm.py" source_line=418}
  %constant.1266 = s64[] constant(0), sharding={manual}
  %constant.1265 = s64[] constant(0), sharding={manual}
  %copy.8 = c128[1,4,4,64]{3,2,1,0} copy(%copy.25), sharding={devices=[1,2,2,1]<=[4]}, metadata={op_name="jit(_full_run)/jit(main)/while/body/jit(_matvec_impl)/shard_map" source_file="/global/homes/j/jackm/software/lorrax_C/src/bse/bse_ring_comm.py" source_line=448}
  %custom-call.240 = c128[1,2,2,64]{3,2,1,0} custom-call(%copy.8), custom_call_target="SPMDFullToShardShape", sharding={manual}, metadata={op_name="jit(_full_run)/jit(main)/while/body/jit(_matvec_impl)/shard_map" source_file="/global/homes/j/jackm/software/lorrax_C/src/bse/bse_ring_comm.py" source_line=448}
  %constant.1122 = c128[] constant((0, 0)), sharding={manual}
  %broadcast.1105 = c128[1,2,64,2,240]{4,3,2,1,0} broadcast(%constant.1122), dimensions={}, sharding={manual}
  %partition-id.22 = u32[] partition-id(), sharding={manual}, metadata={op_name="jit(_full_run)/jit(main)/while/body/jit(_matvec_impl)/jit(shmap_body)/axis_index" source_file="/global/homes/j/jackm/software/lorrax_C/src/bse/bse_ring_comm.py" source_line=77}
  %constant.1133 = u32[] constant(1), sharding={manual}, metadata={op_name="jit(_full_run)/jit(main)/while/body/jit(_matvec_impl)/jit(shmap_body)/axis_index" source_file="/global/homes/j/jackm/software/lorrax_C/src/bse/bse_ring_comm.py" source_line=77}
  %and.47 = u32[] and(%partition-id.22, %constant.1133), sharding={manual}, metadata={op_name="jit(_full_run)/jit(main)/while/body/jit(_matvec_impl)/jit(shmap_body)/axis_index" source_file="/global/homes/j/jackm/software/lorrax_C/src/bse/bse_ring_comm.py" source_line=77}
  %convert.109 = s32[] convert(%and.47), sharding={manual}, metadata={op_name="jit(_full_run)/jit(main)/while/body/jit(_matvec_impl)/jit(shmap_body)/axis_index" source_file="/global/homes/j/jackm/software/lorrax_C/src/bse/bse_ring_comm.py" source_line=77}
  %copy.7 = c128[64,4,2,480]{3,2,1,0} copy(%copy.21), sharding={devices=[1,1,1,2,2]<=[2,2]T(1,0) last_tile_dim_replicate}, metadata={op_name="jit(_full_run)/jit(main)/while/body/jit(_matvec_impl)/shard_map" source_file="/global/homes/j/jackm/software/lorrax_C/src/bse/bse_ring_comm.py" source_line=448}
  %custom-call.242 = c128[64,4,2,240]{3,2,1,0} custom-call(%copy.7), custom_call_target="SPMDFullToShardShape", sharding={manual}, metadata={op_name="jit(_full_run)/jit(main)/while/body/jit(_matvec_impl)/shard_map" source_file="/global/homes/j/jackm/software/lorrax_C/src/bse/bse_ring_comm.py" source_line=448}
  %tuple.127 = (s64[], c128[1,2,2,64]{3,2,1,0}, c128[1,2,64,2,240]{4,3,2,1,0}, s32[], c128[64,4,2,240]{3,2,1,0}) tuple(%constant.1265, %custom-call.240, %broadcast.1105, %convert.109, %custom-call.242), sharding={{manual}, {manual}, {manual}, {manual}, {manual}}
  %while.41 = (s64[], c128[1,2,2,64]{3,2,1,0}, c128[1,2,64,2,240]{4,3,2,1,0}, s32[], c128[64,4,2,240]{3,2,1,0}) while(%tuple.127), condition=%region_11.1458.clone.clone.1, body=%region_10.1443.clone.clone.clone.1, sharding={{manual}, {manual}, {manual}, {manual}, {manual}}, metadata={op_name="jit(_full_run)/jit(main)/while/body/jit(_matvec_impl)/jit(shmap_body)/while" source_file="/global/homes/j/jackm/software/lorrax_C/src/bse/bse_ring_comm.py" source_line=95}
  %get-tuple-element.609 = c128[1,2,64,2,240]{4,3,2,1,0} get-tuple-element(%while.41), index=2, sharding={manual}, metadata={op_name="jit(_full_run)/jit(main)/while/body/jit(_matvec_impl)/jit(shmap_body)/while" source_file="/global/homes/j/jackm/software/lorrax_C/src/bse/bse_ring_comm.py" source_line=95}
  %constant.1123 = c128[] constant((0, 0)), sharding={manual}
  %broadcast.1106 = c128[1,240,240,2,2,64]{5,4,3,2,1,0} broadcast(%constant.1123), dimensions={}, sharding={manual}
  %partition-id.23 = u32[] partition-id(), sharding={manual}, metadata={op_name="jit(_full_run)/jit(main)/while/body/jit(_matvec_impl)/jit(shmap_body)/axis_index" source_file="/global/homes/j/jackm/software/lorrax_C/src/bse/bse_ring_comm.py" source_line=106}
  %constant.1134 = u32[] constant(1), sharding={manual}, metadata={op_name="jit(_full_run)/jit(main)/while/body/jit(_matvec_impl)/jit(shmap_body)/axis_index" source_file="/global/homes/j/jackm/software/lorrax_C/src/bse/bse_ring_comm.py" source_line=106}
  %shift-right-logical.242 = u32[] shift-right-logical(%partition-id.23, %constant.1134), sharding={manual}, metadata={op_name="jit(_full_run)/jit(main)/while/body/jit(_matvec_impl)/jit(shmap_body)/axis_index" source_file="/global/homes/j/jackm/software/lorrax_C/src/bse/bse_ring_comm.py" source_line=106}
  %constant.1135 = u32[] constant(1), sharding={manual}, metadata={op_name="jit(_full_run)/jit(main)/while/body/jit(_matvec_impl)/jit(shmap_body)/axis_index" source_file="/global/homes/j/jackm/software/lorrax_C/src/bse/bse_ring_comm.py" source_line=106}
  %and.48 = u32[] and(%shift-right-logical.242, %constant.1135), sharding={manual}, metadata={op_name="jit(_full_run)/jit(main)/while/body/jit(_matvec_impl)/jit(shmap_body)/axis_index" source_file="/global/homes/j/jackm/software/lorrax_C/src/bse/bse_ring_comm.py" source_line=106}
  %convert.110 = s32[] convert(%and.48), sharding={manual}, metadata={op_name="jit(_full_run)/jit(main)/while/body/jit(_matvec_impl)/jit(shmap_body)/axis_index" source_file="/global/homes/j/jackm/software/lorrax_C/src/bse/bse_ring_comm.py" source_line=106}
  %copy.6 = c128[64,4,2,480]{3,2,1,0} copy(%copy.13), sharding={devices=[1,1,1,2,2]<=[4] last_tile_dim_replicate}, metadata={op_name="jit(_full_run)/jit(main)/while/body/jit(_matvec_impl)/shard_map" source_file="/global/homes/j/jackm/software/lorrax_C/src/bse/bse_ring_comm.py" source_line=448}
  %custom-call.244 = c128[64,4,2,240]{3,2,1,0} custom-call(%copy.6), custom_call_target="SPMDFullToShardShape", sharding={manual}, metadata={op_name="jit(_full_run)/jit(main)/while/body/jit(_matvec_impl)/shard_map" source_file="/global/homes/j/jackm/software/lorrax_C/src/bse/bse_ring_comm.py" source_line=448}
  %tuple.130 = (s64[], c128[1,2,64,2,240]{4,3,2,1,0}, c128[1,240,240,2,2,64]{5,4,3,2,1,0}, s32[], c128[64,4,2,240]{3,2,1,0}) tuple(%constant.1266, %get-tuple-element.609, %broadcast.1106, %convert.110, %custom-call.244), sharding={{manual}, {manual}, {manual}, {manual}, {manual}}
  %while.42 = (s64[], c128[1,2,64,2,240]{4,3,2,1,0}, c128[1,240,240,2,2,64]{5,4,3,2,1,0}, s32[], c128[64,4,2,240]{3,2,1,0}) while(%tuple.130), condition=%region_13.1529.clone.clone.1, body=%region_12.1514.clone.clone.clone.1, sharding={{manual}, {manual}, {manual}, {manual}, {manual}}, metadata={op_name="jit(_full_run)/jit(main)/while/body/jit(_matvec_impl)/jit(shmap_body)/while" source_file="/global/homes/j/jackm/software/lorrax_C/src/bse/bse_ring_comm.py" source_line=125}
  %get-tuple-element.483 = c128[1,240,240,2,2,64]{5,4,3,2,1,0} get-tuple-element(%while.42), index=2, sharding={manual}, metadata={op_name="jit(_full_run)/jit(main)/while/body/jit(_matvec_impl)/jit(shmap_body)/while" source_file="/global/homes/j/jackm/software/lorrax_C/src/bse/bse_ring_comm.py" source_line=125}
  %copy.5 = c128[1,240,240,2,2,64]{5,4,3,2,1,0} copy(%get-tuple-element.483), sharding={manual}, metadata={op_name="jit(_full_run)/jit(main)/while/body/jit(_matvec_impl)/shard_map" source_file="/global/homes/j/jackm/software/lorrax_C/src/bse/bse_ring_comm.py" source_line=448}
  %custom-call.246 = c128[1,480,480,2,2,64]{5,4,3,2,1,0} custom-call(%copy.5), custom_call_target="SPMDShardToFullShape", sharding={devices=[1,2,2,1,1,1]<=[4]}, metadata={op_name="jit(_full_run)/jit(main)/while/body/jit(_matvec_impl)/shard_map" source_file="/global/homes/j/jackm/software/lorrax_C/src/bse/bse_ring_comm.py" source_line=448}
  %copy.4 = c128[1,480,480,2,2,64]{5,4,3,2,1,0} copy(%custom-call.246), sharding={devices=[1,2,2,1,1,1]<=[4]}, metadata={op_name="jit(_full_run)/jit(main)/while/body/jit(_matvec_impl)/pjit" source_file="/global/homes/j/jackm/software/lorrax_C/src/bse/bse_ring_comm.py" source_line=449}
  %reshape.444 = c128[1,480,480,2,2,4,4,4]{7,6,5,4,3,2,1,0} reshape(%copy.4), sharding={devices=[1,2,2,1,1,1,1,1]<=[4]}, metadata={op_name="jit(_full_run)/jit(main)/while/body/jit(_matvec_impl)/jit(_apply_W_from_T)/reshape" source_file="/global/homes/j/jackm/software/lorrax_C/src/bse/bse_ring_comm.py" source_line=416}
  %custom-call.248 = c128[1,480,480,2,2,4,4,4]{7,6,5,4,3,2,1,0} custom-call(%reshape.444), custom_call_target="CustomSPMDPartitioning", api_version=API_VERSION_STATUS_RETURNING, sharding={devices=[1,2,2,1,1,1,1,1]<=[4]}, metadata={op_name="jit(_full_run)/jit(main)/while/body/jit(_matvec_impl)/jit(_apply_W_from_T)/custom_partitioning" source_file="/global/homes/j/jackm/software/lorrax_C/src/common/fft_helpers.py" source_line=259}, backend_config="140658708775040"
  %custom-call.249 = c128[1,480,480,2,2,4,4,4]{7,6,5,4,3,2,1,0} custom-call(%custom-call.248), custom_call_target="CustomSPMDPartitioning", api_version=API_VERSION_STATUS_RETURNING, sharding={devices=[1,2,2,1,1,1,1,1]<=[4]}, metadata={op_name="jit(_full_run)/jit(main)/while/body/jit(_matvec_impl)/jit(_apply_W_from_T)/custom_partitioning" source_file="/global/homes/j/jackm/software/lorrax_C/src/common/fft_helpers.py" source_line=259}, backend_config="140658708617200"
  %custom-call.250 = c128[1,480,480,2,2,4,4,4]{7,6,5,4,3,2,1,0} custom-call(%custom-call.249), custom_call_target="CustomSPMDPartitioning", api_version=API_VERSION_STATUS_RETURNING, sharding={devices=[1,2,2,1,1,1,1,1]<=[4]}, metadata={op_name="jit(_full_run)/jit(main)/while/body/jit(_matvec_impl)/jit(_apply_W_from_T)/custom_partitioning" source_file="/global/homes/j/jackm/software/lorrax_C/src/common/fft_helpers.py" source_line=259}, backend_config="140658708618496"
  %multiply.193 = c128[1,480,480,2,2,4,4,4]{7,6,5,4,3,2,1,0} multiply(%broadcast.1114, %custom-call.250), sharding={devices=[1,2,2,1,1,1,1,1]<=[4]}, metadata={op_name="jit(_full_run)/jit(main)/while/body/jit(_matvec_impl)/jit(_apply_W_from_T)/mul" source_file="/global/homes/j/jackm/software/lorrax_C/src/bse/bse_ring_comm.py" source_line=418}
  %custom-call.251 = c128[1,480,480,2,2,4,4,4]{7,6,5,4,3,2,1,0} custom-call(%multiply.193), custom_call_target="CustomSPMDPartitioning", api_version=API_VERSION_STATUS_RETURNING, sharding={devices=[1,2,2,1,1,1,1,1]<=[4]}, metadata={op_name="jit(_full_run)/jit(main)/while/body/jit(_matvec_impl)/jit(_apply_W_from_T)/custom_partitioning" source_file="/global/homes/j/jackm/software/lorrax_C/src/common/fft_helpers.py" source_line=259}, backend_config="140658708620896"
  %custom-call.252 = c128[1,480,480,2,2,4,4,4]{7,6,5,4,3,2,1,0} custom-call(%custom-call.251), custom_call_target="CustomSPMDPartitioning", api_version=API_VERSION_STATUS_RETURNING, sharding={devices=[1,2,2,1,1,1,1,1]<=[4]}, metadata={op_name="jit(_full_run)/jit(main)/while/body/jit(_matvec_impl)/jit(_apply_W_from_T)/custom_partitioning" source_file="/global/homes/j/jackm/software/lorrax_C/src/common/fft_helpers.py" source_line=259}, backend_config="140658708613504"
  %custom-call.253 = c128[1,480,480,2,2,4,4,4]{7,6,5,4,3,2,1,0} custom-call(%custom-call.252), custom_call_target="CustomSPMDPartitioning", api_version=API_VERSION_STATUS_RETURNING, sharding={devices=[1,2,2,1,1,1,1,1]<=[4]}, metadata={op_name="jit(_full_run)/jit(main)/while/body/jit(_matvec_impl)/jit(_apply_W_from_T)/custom_partitioning" source_file="/global/homes/j/jackm/software/lorrax_C/src/common/fft_helpers.py" source_line=259}, backend_config="140658708618640"
  %reshape.455 = c128[480,480,2,2,64]{4,3,2,1,0} reshape(%custom-call.253), sharding={devices=[2,2,1,1,1]<=[4]}
  %copy.3 = c128[64,4,2,480]{3,2,1,0} copy(%copy.13), sharding={devices=[1,1,1,2,2]<=[4] last_tile_dim_replicate}, metadata={op_name="jit(_full_run)/jit(main)/while/body/jit(_matvec_impl)/pjit" source_file="/global/homes/j/jackm/software/lorrax_C/src/bse/bse_ring_comm.py" source_line=449}
  %real.42 = f64[64,4,2,480]{3,2,1,0} real(%copy.3), sharding={devices=[1,1,1,2,2]<=[4] last_tile_dim_replicate}, metadata={op_name="jit(_full_run)/jit(main)/while/body/jit(_matvec_impl)/jit(_apply_W_from_T)/real" source_file="/global/homes/j/jackm/software/lorrax_C/src/bse/bse_ring_comm.py" source_line=422}
  %imag.33 = f64[64,4,2,480]{3,2,1,0} imag(%copy.3), sharding={devices=[1,1,1,2,2]<=[4] last_tile_dim_replicate}, metadata={op_name="jit(_full_run)/jit(main)/while/body/jit(_matvec_impl)/jit(_apply_W_from_T)/imag" source_file="/global/homes/j/jackm/software/lorrax_C/src/bse/bse_ring_comm.py" source_line=422}
  %negate.60 = f64[64,4,2,480]{3,2,1,0} negate(%imag.33), sharding={devices=[1,1,1,2,2]<=[4] last_tile_dim_replicate}, metadata={op_name="jit(_full_run)/jit(main)/while/body/jit(_matvec_impl)/jit(_apply_W_from_T)/neg" source_file="/global/homes/j/jackm/software/lorrax_C/src/bse/bse_ring_comm.py" source_line=422}
  %complex.32 = c128[64,4,2,480]{3,2,1,0} complex(%real.42, %negate.60), sharding={devices=[1,1,1,2,2]<=[4] last_tile_dim_replicate}, metadata={op_name="jit(_full_run)/jit(main)/while/body/jit(_matvec_impl)/jit(_apply_W_from_T)/complex" source_file="/global/homes/j/jackm/software/lorrax_C/src/bse/bse_ring_comm.py" source_line=422}
  %dot.46 = c128[64,480,2,4]{3,2,1,0} dot(%reshape.455, %complex.32), lhs_batch_dims={4}, lhs_contracting_dims={0,2}, rhs_batch_dims={0}, rhs_contracting_dims={3,2}, sharding={devices=[1,2,1,2]<=[2,2]T(1,0)}, metadata={op_name="jit(_full_run)/jit(main)/while/body/jit(_matvec_impl)/jit(_apply_W_from_T)/kctM,bMNtsk->bcNsk/dot_general" source_file="/global/homes/j/jackm/software/lorrax_C/src/bse/bse_ring_comm.py" source_line=422}
  %reshape.452 = c128[64,1,480,2,4]{4,3,2,1,0} reshape(%dot.46), sharding={devices=[1,1,2,1,2]<=[2,2]T(1,0)}, metadata={op_name="jit(_full_run)/jit(main)/while/body/jit(_matvec_impl)/jit(_apply_W_from_T)/kctM,bMNtsk->bcNsk/dot_general" source_file="/global/homes/j/jackm/software/lorrax_C/src/bse/bse_ring_comm.py" source_line=422}
  %transpose.80 = c128[1,4,480,2,64]{1,3,2,0,4} transpose(%reshape.452), dimensions={1,4,2,3,0}, sharding={devices=[1,2,2,1,1]<=[4]}, metadata={op_name="jit(_full_run)/jit(main)/while/body/jit(_matvec_impl)/jit(_apply_W_from_T)/kctM,bMNtsk->bcNsk/transpose" source_file="/global/homes/j/jackm/software/lorrax_C/src/bse/bse_ring_comm.py" source_line=422}
  %reshape.453 = c128[4,480,2,64]{0,2,1,3} reshape(%transpose.80), sharding={devices=[2,2,1,1]<=[4]}
  %copy.2 = c128[64,4,2,480]{3,2,1,0} copy(%copy.21), sharding={devices=[1,1,1,2,2]<=[2,2]T(1,0) last_tile_dim_replicate}, metadata={op_name="jit(_full_run)/jit(main)/while/body/jit(_matvec_impl)/pjit" source_file="/global/homes/j/jackm/software/lorrax_C/src/bse/bse_ring_comm.py" source_line=449}
  %dot.47 = c128[64,4,4]{2,1,0} dot(%reshape.453, %copy.2), lhs_batch_dims={3}, lhs_contracting_dims={1,2}, rhs_batch_dims={0}, rhs_contracting_dims={3,2}, sharding={devices=[1,2,2]<=[4]}, metadata={op_name="jit(_full_run)/jit(main)/while/body/jit(_matvec_impl)/jit(_apply_W_from_T)/kvsN,bcNsk->bcvk/dot_general" source_file="/global/homes/j/jackm/software/lorrax_C/src/bse/bse_ring_comm.py" source_line=423}
  %constant.1149 = c128[] constant((0.125, 0)), sharding={replicated}, metadata={op_name="jit(_full_run)/jit(main)/while/body/jit(_matvec_impl)/jit(_apply_W_from_T)/convert_element_type" source_file="/global/homes/j/jackm/software/lorrax_C/src/bse/bse_ring_comm.py" source_line=424}
  %broadcast.1119 = c128[64,4,4]{2,1,0} broadcast(%constant.1149), dimensions={}, sharding={devices=[1,2,2]<=[4]}, metadata={op_name="jit(_full_run)/jit(main)/while/body/jit(_matvec_impl)/jit(_apply_W_from_T)/div" source_file="/global/homes/j/jackm/software/lorrax_C/src/bse/bse_ring_comm.py" source_line=424}
  %multiply.202 = c128[64,4,4]{2,1,0} multiply(%dot.47, %broadcast.1119), sharding={devices=[1,2,2]<=[4]}, metadata={op_name="jit(_full_run)/jit(main)/while/body/jit(_matvec_impl)/jit(_apply_W_from_T)/div" source_file="/global/homes/j/jackm/software/lorrax_C/src/bse/bse_ring_comm.py" source_line=424}
  %reshape.463 = c128[64,1,4,4]{3,2,1,0} reshape(%multiply.202), sharding={devices=[1,1,2,2]<=[4]}, metadata={op_name="jit(_full_run)/jit(main)/while/body/jit(_matvec_impl)/jit(_apply_W_from_T)/div" source_file="/global/homes/j/jackm/software/lorrax_C/src/bse/bse_ring_comm.py" source_line=424}
  %transpose.82 = c128[1,4,4,64]{2,1,0,3} transpose(%reshape.463), dimensions={1,2,3,0}, sharding={devices=[1,2,2,1]<=[4]}, metadata={op_name="jit(_full_run)/jit(main)/while/body/jit(_matvec_impl)/jit(_apply_W_from_T)/div" source_file="/global/homes/j/jackm/software/lorrax_C/src/bse/bse_ring_comm.py" source_line=424}
  %copy.1 = c128[1,4,4,64]{3,2,1,0} copy(%transpose.82), sharding={devices=[1,2,2,1]<=[4]}, metadata={op_name="jit(_full_run)/jit(main)/while/body/jit(_matvec_impl)/pjit" source_file="/global/homes/j/jackm/software/lorrax_C/src/bse/bse_ring_comm.py" source_line=449}
  %subtract.48 = c128[1,4,4,64]{3,2,1,0} subtract(%add.715, %copy.1), sharding={devices=[1,2,2,1]<=[4]}, metadata={op_name="jit(_full_run)/jit(main)/while/body/jit(_matvec_impl)/sub" source_file="/global/homes/j/jackm/software/lorrax_C/src/bse/bse_ring_comm.py" source_line=450}
  %copy = c128[1,4,4,64]{3,2,1,0} copy(%subtract.48), sharding={devices=[1,2,2,1]<=[4]}, metadata={op_name="jit(_full_run)/jit(main)/while/body/pjit" source_file="/global/homes/j/jackm/software/lorrax_C/src/bse/bse_lanczos.py" source_line=177}
  %reshape.445 = c128[1024]{0} reshape(%copy), sharding={devices=[2,2]<=[4] last_tile_dim_replicate}, metadata={op_name="jit(_full_run)/jit(main)/while/body/reshape" source_file="/global/homes/j/jackm/software/lorrax_C/src/bse/bse_lanczos.py" source_line=181}
  %real.43 = f64[1024]{0} real(%get-tuple-element.492), sharding={devices=[2,2]<=[4] last_tile_dim_replicate}, metadata={op_name="jit(_full_run)/jit(main)/while/body/real" source_file="/global/homes/j/jackm/software/lorrax_C/src/solvers/lanczos.py" source_line=260}
  %imag.34 = f64[1024]{0} imag(%get-tuple-element.492), sharding={devices=[2,2]<=[4] last_tile_dim_replicate}, metadata={op_name="jit(_full_run)/jit(main)/while/body/imag" source_file="/global/homes/j/jackm/software/lorrax_C/src/solvers/lanczos.py" source_line=260}
  %negate.61 = f64[1024]{0} negate(%imag.34), sharding={devices=[2,2]<=[4] last_tile_dim_replicate}, metadata={op_name="jit(_full_run)/jit(main)/while/body/neg" source_file="/global/homes/j/jackm/software/lorrax_C/src/solvers/lanczos.py" source_line=260}
  %complex.33 = c128[1024]{0} complex(%real.43, %negate.61), sharding={devices=[2,2]<=[4] last_tile_dim_replicate}, metadata={op_name="jit(_full_run)/jit(main)/while/body/complex" source_file="/global/homes/j/jackm/software/lorrax_C/src/solvers/lanczos.py" source_line=260}
  %multiply.196 = c128[1024]{0} multiply(%complex.33, %reshape.445), sharding={devices=[2,2]<=[4] last_tile_dim_replicate}
  %constant.1136 = c128[] constant((0, 0))
  %reduce.30 = c128[] reduce(%multiply.196, %constant.1136), dimensions={0}, to_apply=%scalar_add_computation, sharding={replicated}, metadata={op_name="jit(_full_run)/jit(main)/while/body/dot_general" source_file="/global/homes/j/jackm/software/lorrax_C/src/solvers/lanczos.py" source_line=260}
  %real.44 = f64[] real(%reduce.30), sharding={replicated}, metadata={op_name="jit(_full_run)/jit(main)/while/body/real" source_file="/global/homes/j/jackm/software/lorrax_C/src/solvers/lanczos.py" source_line=260}
  %convert.111 = c128[] convert(%real.44), sharding={replicated}, metadata={op_name="jit(_full_run)/jit(main)/while/body/convert_element_type" source_file="/global/homes/j/jackm/software/lorrax_C/src/solvers/lanczos.py" source_line=263}
  %broadcast.1107 = c128[1024]{0} broadcast(%convert.111), dimensions={}, sharding={devices=[2,2]<=[4] last_tile_dim_replicate}, metadata={op_name="jit(_full_run)/jit(main)/while/body/mul" source_file="/global/homes/j/jackm/software/lorrax_C/src/solvers/lanczos.py" source_line=263}
  %multiply.194 = c128[1024]{0} multiply(%broadcast.1107, %get-tuple-element.492), sharding={devices=[2,2]<=[4] last_tile_dim_replicate}, metadata={op_name="jit(_full_run)/jit(main)/while/body/mul" source_file="/global/homes/j/jackm/software/lorrax_C/src/solvers/lanczos.py" source_line=263}
  %subtract.49 = c128[1024]{0} subtract(%reshape.445, %multiply.194), sharding={devices=[2,2]<=[4] last_tile_dim_replicate}, metadata={op_name="jit(_full_run)/jit(main)/while/body/sub" source_file="/global/homes/j/jackm/software/lorrax_C/src/solvers/lanczos.py" source_line=263}
  %constant.1245 = s64[] constant(0), sharding={replicated}
  %compare.160 = pred[] compare(%get-tuple-element.496, %constant.1245), direction=GT, sharding={replicated}, metadata={op_name="jit(_full_run)/jit(main)/while/body/gt" source_file="/global/homes/j/jackm/software/lorrax_C/src/solvers/lanczos.py" source_line=265}
  %get-tuple-element.493 = f64[200]{0} get-tuple-element(%arg_tuple.13), index=3, sharding={replicated}
  %constant.1145 = s64[] constant(-1), sharding={replicated}
  %add.722 = s64[] add(%get-tuple-element.496, %constant.1145), sharding={replicated}, metadata={op_name="jit(_full_run)/jit(main)/while/body/sub" source_file="/global/homes/j/jackm/software/lorrax_C/src/solvers/lanczos.py" source_line=265}
  %constant.1246 = s64[] constant(0), sharding={replicated}
  %compare.161 = pred[] compare(%add.722, %constant.1246), direction=LT, sharding={replicated}, metadata={op_name="jit(_full_run)/jit(main)/while/body/lt" source_file="/global/homes/j/jackm/software/lorrax_C/src/solvers/lanczos.py" source_line=265}
  %constant.1150 = s64[] constant(199), sharding={replicated}
  %add.727 = s64[] add(%get-tuple-element.496, %constant.1150), sharding={replicated}, metadata={op_name="jit(_full_run)/jit(main)/while/body/add" source_file="/global/homes/j/jackm/software/lorrax_C/src/solvers/lanczos.py" source_line=265}
  %select.278 = s64[] select(%compare.161, %add.727, %add.722), sharding={replicated}, metadata={op_name="jit(_full_run)/jit(main)/while/body/select_n" source_file="/global/homes/j/jackm/software/lorrax_C/src/solvers/lanczos.py" source_line=265}
  %dynamic-slice.71 = f64[1]{0} dynamic-slice(%get-tuple-element.493, %select.278), dynamic_slice_sizes={1}, sharding={replicated}, metadata={op_name="jit(_full_run)/jit(main)/while/body/dynamic_slice" source_file="/global/homes/j/jackm/software/lorrax_C/src/solvers/lanczos.py" source_line=265}
  %reshape.446 = f64[] reshape(%dynamic-slice.71), sharding={replicated}, metadata={op_name="jit(_full_run)/jit(main)/while/body/squeeze" source_file="/global/homes/j/jackm/software/lorrax_C/src/solvers/lanczos.py" source_line=265}
  %constant.1126 = f64[] constant(0), sharding={replicated}
  %select.279 = f64[] select(%compare.160, %reshape.446, %constant.1126), sharding={replicated}, metadata={op_name="jit(_full_run)/jit(main)/while/body/jit(_where)/select_n" source_file="/global/homes/j/jackm/software/lorrax_C/src/solvers/lanczos.py" source_line=265}
  %convert.112 = c128[] convert(%select.279), sharding={replicated}, metadata={op_name="jit(_full_run)/jit(main)/while/body/convert_element_type" source_file="/global/homes/j/jackm/software/lorrax_C/src/solvers/lanczos.py" source_line=266}
  %broadcast.1115 = c128[1024,1]{1,0} broadcast(%convert.112), dimensions={}, sharding={devices=[2,1,2]<=[4] last_tile_dim_replicate}, metadata={op_name="jit(_full_run)/jit(main)/while/body/mul" source_file="/global/homes/j/jackm/software/lorrax_C/src/solvers/lanczos.py" source_line=266}
  %constant.1249 = s64[] constant(0)
  %constant.1146 = s64[] constant(-1), sharding={replicated}
  %add.724 = s64[] add(%get-tuple-element.496, %constant.1146), sharding={replicated}, metadata={op_name="jit(_full_run)/jit(main)/while/body/sub" source_file="/global/homes/j/jackm/software/lorrax_C/src/solvers/lanczos.py" source_line=264}
  %constant.1247 = s64[] constant(0), sharding={replicated}
  %maximum.17 = s64[] maximum(%add.724, %constant.1247), sharding={replicated}, metadata={op_name="jit(_full_run)/jit(main)/while/body/max" source_file="/global/homes/j/jackm/software/lorrax_C/src/solvers/lanczos.py" source_line=264}
  %dynamic-slice.72 = c128[1024,1]{1,0} dynamic-slice(%get-tuple-element.495, %constant.1249, %maximum.17), dynamic_slice_sizes={1024,1}, sharding={devices=[2,1,2]<=[4] last_tile_dim_replicate}, metadata={op_name="jit(_full_run)/jit(main)/while/body/dynamic_slice" source_file="/global/homes/j/jackm/software/lorrax_C/src/solvers/lanczos.py" source_line=264}
  %multiply.197 = c128[1024,1]{1,0} multiply(%broadcast.1115, %dynamic-slice.72), sharding={devices=[2,1,2]<=[4] last_tile_dim_replicate}, metadata={op_name="jit(_full_run)/jit(main)/while/body/mul" source_file="/global/homes/j/jackm/software/lorrax_C/src/solvers/lanczos.py" source_line=266}
  %reshape.454 = c128[1024]{0} reshape(%multiply.197), sharding={devices=[2,2]<=[4] last_tile_dim_replicate}, metadata={op_name="jit(_full_run)/jit(main)/while/body/mul" source_file="/global/homes/j/jackm/software/lorrax_C/src/solvers/lanczos.py" source_line=266}
  %subtract.50 = c128[1024]{0} subtract(%subtract.49, %reshape.454), sharding={devices=[2,2]<=[4] last_tile_dim_replicate}, metadata={op_name="jit(_full_run)/jit(main)/while/body/sub" source_file="/global/homes/j/jackm/software/lorrax_C/src/solvers/lanczos.py" source_line=266}
  %constant.1243 = s64[] constant(1), sharding={replicated}
  %add.716 = s64[] add(%get-tuple-element.496, %constant.1243), sharding={replicated}, metadata={op_name="jit(_full_run)/jit(main)/while/body/add" source_file="/global/homes/j/jackm/software/lorrax_C/src/solvers/lanczos.py" source_line=275}
  %tuple.113 = (s64[], c128[1024]{0}, s64[], s64[], c128[1024,200]{1,0}) tuple(%maximum.16, %subtract.50, %add.716, %get-tuple-element.496, %get-tuple-element.495), sharding={{replicated}, {devices=[2,2]<=[4] last_tile_dim_replicate}, {replicated}, {replicated}, {devices=[2,1,2]<=[4] last_tile_dim_replicate}}, metadata={op_name="jit(_full_run)/jit(main)/while/body/while" source_file="/global/homes/j/jackm/software/lorrax_C/src/solvers/lanczos.py" source_line=275}
  %while.32 = (s64[], c128[1024]{0}, s64[], s64[], c128[1024,200]{1,0}) while(%tuple.113), condition=%region_16.1694, body=%region_15.1666, sharding={{replicated}, {devices=[2,2]<=[4] last_tile_dim_replicate}, {replicated}, {replicated}, {devices=[2,1,2]<=[4] last_tile_dim_replicate}}, metadata={op_name="jit(_full_run)/jit(main)/while/body/while" source_file="/global/homes/j/jackm/software/lorrax_C/src/solvers/lanczos.py" source_line=275}
  %get-tuple-element.480 = c128[1024]{0} get-tuple-element(%while.32), index=1, sharding={devices=[2,2]<=[4] last_tile_dim_replicate}, metadata={op_name="jit(_full_run)/jit(main)/while/body/while" source_file="/global/homes/j/jackm/software/lorrax_C/src/solvers/lanczos.py" source_line=275}
  %real.45 = f64[1024]{0} real(%get-tuple-element.480), sharding={devices=[2,2]<=[4] last_tile_dim_replicate}, metadata={op_name="jit(_full_run)/jit(main)/while/body/jit(norm)/real" source_file="/global/homes/j/jackm/software/lorrax_C/src/solvers/lanczos.py" source_line=277}
  %imag.35 = f64[1024]{0} imag(%get-tuple-element.480), sharding={devices=[2,2]<=[4] last_tile_dim_replicate}, metadata={op_name="jit(_full_run)/jit(main)/while/body/jit(norm)/imag" source_file="/global/homes/j/jackm/software/lorrax_C/src/solvers/lanczos.py" source_line=277}
  %negate.62 = f64[1024]{0} negate(%imag.35), sharding={devices=[2,2]<=[4] last_tile_dim_replicate}, metadata={op_name="jit(_full_run)/jit(main)/while/body/jit(norm)/neg" source_file="/global/homes/j/jackm/software/lorrax_C/src/solvers/lanczos.py" source_line=277}
  %complex.34 = c128[1024]{0} complex(%real.45, %negate.62), sharding={devices=[2,2]<=[4] last_tile_dim_replicate}, metadata={op_name="jit(_full_run)/jit(main)/while/body/jit(norm)/complex" source_file="/global/homes/j/jackm/software/lorrax_C/src/solvers/lanczos.py" source_line=277}
  %multiply.195 = c128[1024]{0} multiply(%get-tuple-element.480, %complex.34), sharding={devices=[2,2]<=[4] last_tile_dim_replicate}, metadata={op_name="jit(_full_run)/jit(main)/while/body/jit(norm)/mul" source_file="/global/homes/j/jackm/software/lorrax_C/src/solvers/lanczos.py" source_line=277}
  %real.46 = f64[1024]{0} real(%multiply.195), sharding={devices=[2,2]<=[4] last_tile_dim_replicate}, metadata={op_name="jit(_full_run)/jit(main)/while/body/jit(norm)/real" source_file="/global/homes/j/jackm/software/lorrax_C/src/solvers/lanczos.py" source_line=277}
  %constant.1128 = f64[] constant(0)
  %reduce.29 = f64[] reduce(%real.46, %constant.1128), dimensions={0}, to_apply=%region_17.1702, sharding={replicated}, metadata={op_name="jit(_full_run)/jit(main)/while/body/jit(norm)/reduce_sum" source_file="/global/homes/j/jackm/software/lorrax_C/src/solvers/lanczos.py" source_line=277}
  %sqrt.11 = f64[] sqrt(%reduce.29), sharding={replicated}, metadata={op_name="jit(_full_run)/jit(main)/while/body/jit(norm)/sqrt" source_file="/global/homes/j/jackm/software/lorrax_C/src/solvers/lanczos.py" source_line=277}
  %constant.1129 = f64[] constant(1e-15), sharding={replicated}
  %maximum.18 = f64[] maximum(%sqrt.11, %constant.1129), sharding={replicated}, metadata={op_name="jit(_full_run)/jit(main)/while/body/max" source_file="/global/homes/j/jackm/software/lorrax_C/src/solvers/lanczos.py" source_line=280}
  %convert.114 = c128[] convert(%maximum.18), sharding={replicated}, metadata={op_name="jit(_full_run)/jit(main)/while/body/convert_element_type" source_file="/global/homes/j/jackm/software/lorrax_C/src/solvers/lanczos.py" source_line=280}
  %broadcast.1108 = c128[1024]{0} broadcast(%convert.114), dimensions={}, sharding={devices=[2,2]<=[4] last_tile_dim_replicate}, metadata={op_name="jit(_full_run)/jit(main)/while/body/div" source_file="/global/homes/j/jackm/software/lorrax_C/src/solvers/lanczos.py" source_line=280}
  %divide.32 = c128[1024]{0} divide(%get-tuple-element.480, %broadcast.1108), sharding={devices=[2,2]<=[4] last_tile_dim_replicate}, metadata={op_name="jit(_full_run)/jit(main)/while/body/div" source_file="/global/homes/j/jackm/software/lorrax_C/src/solvers/lanczos.py" source_line=280}
  %reshape.456 = c128[1024,1]{1,0} reshape(%divide.32), sharding={devices=[2,1,2]<=[4] last_tile_dim_replicate}
  %constant.1142 = s32[] constant(0)
  %dynamic-slice.75 = c128[1024,1]{1,0} dynamic-slice(%get-tuple-element.495, %constant.1142, %convert.113), dynamic_slice_sizes={1024,1}, sharding={devices=[2,1,2]<=[4] last_tile_dim_replicate}
  %select.283 = c128[1024,1]{1,0} select(%broadcast.1110, %reshape.456, %dynamic-slice.75), sharding={devices=[2,1,2]<=[4] last_tile_dim_replicate}
  %constant.1143 = s32[] constant(0)
  %dynamic-update-slice.18 = c128[1024,200]{1,0} dynamic-update-slice(%get-tuple-element.495, %select.283, %constant.1143, %convert.113), sharding={devices=[2,1,2]<=[4] last_tile_dim_replicate}, metadata={op_name="jit(_full_run)/jit(main)/while/body/scatter" source_file="/global/homes/j/jackm/software/lorrax_C/src/solvers/lanczos.py" source_line=281}
  %get-tuple-element.494 = f64[200]{0} get-tuple-element(%arg_tuple.13), index=2, sharding={replicated}
  %constant.1151 = s32[] constant(0), sharding={replicated}
  %constant.1251 = s64[] constant(0), sharding={replicated}
  %compare.163 = pred[] compare(%get-tuple-element.496, %constant.1251), direction=LT, sharding={replicated}, metadata={op_name="jit(_full_run)/jit(main)/while/body/lt" source_file="/global/homes/j/jackm/software/lorrax_C/src/solvers/lanczos.py" source_line=261}
  %constant.1252 = s64[] constant(200), sharding={replicated}
  %add.719 = s64[] add(%get-tuple-element.496, %constant.1252), sharding={replicated}, metadata={op_name="jit(_full_run)/jit(main)/while/body/add" source_file="/global/homes/j/jackm/software/lorrax_C/src/solvers/lanczos.py" source_line=261}
  %select.281 = s64[] select(%compare.163, %add.719, %get-tuple-element.496), sharding={replicated}, metadata={op_name="jit(_full_run)/jit(main)/while/body/select_n" source_file="/global/homes/j/jackm/software/lorrax_C/src/solvers/lanczos.py" source_line=261}
  %convert.115 = s32[] convert(%select.281), sharding={replicated}, metadata={op_name="jit(_full_run)/jit(main)/while/body/convert_element_type" source_file="/global/homes/j/jackm/software/lorrax_C/src/solvers/lanczos.py" source_line=261}
  %compare.167 = pred[] compare(%constant.1151, %convert.115), direction=LE, sharding={replicated}
  %constant.1152 = s32[] constant(199), sharding={replicated}
  %compare.168 = pred[] compare(%constant.1152, %convert.115), direction=GE, sharding={replicated}
  %and.58 = pred[] and(%compare.167, %compare.168), sharding={replicated}
  %reshape.477 = pred[1]{0} reshape(%and.58), sharding={replicated}
  %reshape.457 = f64[1]{0} reshape(%real.44), sharding={replicated}
  %dynamic-slice.73 = f64[1]{0} dynamic-slice(%get-tuple-element.494, %convert.115), dynamic_slice_sizes={1}, sharding={replicated}
  %select.284 = f64[1]{0} select(%reshape.477, %reshape.457, %dynamic-slice.73), sharding={replicated}
  %dynamic-update-slice.16 = f64[200]{0} dynamic-update-slice(%get-tuple-element.494, %select.284, %convert.115), sharding={replicated}, metadata={op_name="jit(_full_run)/jit(main)/while/body/scatter" source_file="/global/homes/j/jackm/software/lorrax_C/src/solvers/lanczos.py" source_line=261}
  %constant.1153 = s32[] constant(0), sharding={replicated}
  %constant.1248 = s64[] constant(0), sharding={replicated}
  %compare.164 = pred[] compare(%get-tuple-element.496, %constant.1248), direction=LT, sharding={replicated}, metadata={op_name="jit(_full_run)/jit(main)/while/body/lt" source_file="/global/homes/j/jackm/software/lorrax_C/src/solvers/lanczos.py" source_line=278}
  %constant.1253 = s64[] constant(200), sharding={replicated}
  %add.720 = s64[] add(%get-tuple-element.496, %constant.1253), sharding={replicated}, metadata={op_name="jit(_full_run)/jit(main)/while/body/add" source_file="/global/homes/j/jackm/software/lorrax_C/src/solvers/lanczos.py" source_line=278}
  %select.282 = s64[] select(%compare.164, %add.720, %get-tuple-element.496), sharding={replicated}, metadata={op_name="jit(_full_run)/jit(main)/while/body/select_n" source_file="/global/homes/j/jackm/software/lorrax_C/src/solvers/lanczos.py" source_line=278}
  %convert.116 = s32[] convert(%select.282), sharding={replicated}, metadata={op_name="jit(_full_run)/jit(main)/while/body/convert_element_type" source_file="/global/homes/j/jackm/software/lorrax_C/src/solvers/lanczos.py" source_line=278}
  %compare.169 = pred[] compare(%constant.1153, %convert.116), direction=LE, sharding={replicated}
  %constant.1155 = s32[] constant(199), sharding={replicated}
  %compare.170 = pred[] compare(%constant.1155, %convert.116), direction=GE, sharding={replicated}
  %and.59 = pred[] and(%compare.169, %compare.170), sharding={replicated}
  %reshape.480 = pred[1]{0} reshape(%and.59), sharding={replicated}
  %reshape.458 = f64[1]{0} reshape(%sqrt.11), sharding={replicated}
  %dynamic-slice.74 = f64[1]{0} dynamic-slice(%get-tuple-element.493, %convert.116), dynamic_slice_sizes={1}, sharding={replicated}
  %select.285 = f64[1]{0} select(%reshape.480, %reshape.458, %dynamic-slice.74), sharding={replicated}
  %dynamic-update-slice.17 = f64[200]{0} dynamic-update-slice(%get-tuple-element.493, %select.285, %convert.116), sharding={replicated}, metadata={op_name="jit(_full_run)/jit(main)/while/body/scatter" source_file="/global/homes/j/jackm/software/lorrax_C/src/solvers/lanczos.py" source_line=278}
  ROOT %tuple.108 = (s64[], c128[1024,200]{1,0}, f64[200]{0}, f64[200]{0}, c128[1024]{0}, /*index=5*/c128[64,4,2,480]{3,2,1,0}, c128[64,4,2,480]{3,2,1,0}, c128[64,4,2,480]{3,2,1,0}, c128[64,4,2,480]{3,2,1,0}, f64[64,4]{1,0}, /*index=10*/f64[64,4]{1,0}, c128[480,480,4,4,4]{4,3,2,1,0}, c128[480,480]{1,0}) tuple(%add.712, %dynamic-update-slice.18, %dynamic-update-slice.16, %dynamic-update-slice.17, %divide.32, /*index=5*/%get-tuple-element.491, %get-tuple-element.490, %get-tuple-element.489, %get-tuple-element.488, %get-tuple-element.487, /*index=10*/%get-tuple-element.486, %get-tuple-element.485, %get-tuple-element.484), sharding={{replicated}, {devices=[2,1,2]<=[4] last_tile_dim_replicate}, {replicated}, {replicated}, {devices=[2,2]<=[4] last_tile_dim_replicate}, /*index=5*/{devices=[1,1,1,2,2]<=[4] last_tile_dim_replicate}, {devices=[1,1,1,2,2]<=[2,2]T(1,0) last_tile_dim_replicate}, {devices=[1,1,1,2,2]<=[4] last_tile_dim_replicate}, {devices=[1,1,1,2,2]<=[2,2]T(1,0) last_tile_dim_replicate}, {replicated}, /*index=10*/{replicated}, {devices=[2,2,1,1,1]<=[4]}, {devices=[2,2]<=[4]}}
  %constant.1114 = s64[] constant(0)
  %constant.1115 = s64[] constant(0)
  %constant.1117 = s32[] constant(0)
  %constant.1118 = s32[] constant(2)
  %constant.1119 = s32[] constant(4)
  %constant.1121 = s64[] constant(0)
  %constant.1124 = s64[] constant(1)
  %constant.1125 = s64[] constant(200)
}

%region_20.1836.clone.clone (arg_tuple.12: (s64[], c128[1024,200], f64[200], f64[200], c128[1024], /*index=5*/c128[64,4,2,480], c128[64,4,2,480], c128[64,4,2,480], c128[64,4,2,480], f64[64,4], /*index=10*/f64[64,4], c128[480,480,4,4,4], c128[480,480])) -> pred[] {
  %arg_tuple.12 = (s64[], c128[1024,200]{1,0}, f64[200]{0}, f64[200]{0}, c128[1024]{0}, /*index=5*/c128[64,4,2,480]{3,2,1,0}, c128[64,4,2,480]{3,2,1,0}, c128[64,4,2,480]{3,2,1,0}, c128[64,4,2,480]{3,2,1,0}, f64[64,4]{1,0}, /*index=10*/f64[64,4]{1,0}, c128[480,480,4,4,4]{4,3,2,1,0}, c128[480,480]{1,0}) parameter(0), sharding={{replicated}, {devices=[2,1,2]<=[4] last_tile_dim_replicate}, {replicated}, {replicated}, {devices=[2,2]<=[4] last_tile_dim_replicate}, /*index=5*/{devices=[1,1,1,2,2]<=[4] last_tile_dim_replicate}, {devices=[1,1,1,2,2]<=[2,2]T(1,0) last_tile_dim_replicate}, {devices=[1,1,1,2,2]<=[4] last_tile_dim_replicate}, {devices=[1,1,1,2,2]<=[2,2]T(1,0) last_tile_dim_replicate}, {replicated}, /*index=10*/{replicated}, {devices=[2,2,1,1,1]<=[4]}, {devices=[2,2]<=[4]}}
  %get-tuple-element.478 = s64[] get-tuple-element(%arg_tuple.12), index=0, sharding={replicated}
  %constant.1112 = s64[] constant(200), sharding={replicated}
  ROOT %compare.157 = pred[] compare(%get-tuple-element.478, %constant.1112), direction=LT, sharding={replicated}, metadata={op_name="jit(_full_run)/jit(main)/while/cond/lt" source_file="/global/homes/j/jackm/software/lorrax_C/src/solvers/lanczos.py" source_line=286}
}

ENTRY %main.2024 (Arg_0.1: c128[64,4,2,480], Arg_1.2: c128[64,4,2,480], Arg_2.3: c128[64,4,2,480], Arg_3.4: c128[64,4,2,480], Arg_4.5: f64[64,4], Arg_5.6: f64[64,4], Arg_6.7: c128[480,480,4,4,4], Arg_7.8: c128[480,480]) -> (f64[20], c128[20,1024]) {
  %constant.18 = c128[] constant((0, 0))
  %iota.14 = s64[200,200]{1,0} iota(), iota_dimension=0, metadata={op_name="jit(_full_run)/jit(main)/jit(_diag)/iota" source_file="/global/homes/j/jackm/software/lorrax_C/src/solvers/lanczos.py" source_line=288}
  %iota.15 = s64[200,200]{1,0} iota(), iota_dimension=1, metadata={op_name="jit(_full_run)/jit(main)/jit(_diag)/iota" source_file="/global/homes/j/jackm/software/lorrax_C/src/solvers/lanczos.py" source_line=288}
  %compare.60 = pred[200,200]{1,0} compare(%iota.14, %iota.15), direction=EQ, metadata={op_name="jit(_full_run)/jit(main)/jit(_diag)/eq" source_file="/global/homes/j/jackm/software/lorrax_C/src/solvers/lanczos.py" source_line=288}
  %constant.23 = s64[] constant(0), sharding={replicated}
  %iota.19 = s32[2]{0} iota(), iota_dimension=0, sharding={replicated}
  %constant.1050 = s32[] constant(199), sharding={replicated}
  %broadcast.1077 = s32[2]{0} broadcast(%constant.1050), dimensions={}, sharding={replicated}
  %multiply.185 = s32[2]{0} multiply(%iota.19, %broadcast.1077), sharding={replicated}
  %constant.1103 = s32[] constant(0), sharding={replicated}
  %broadcast.1091 = s32[2]{0} broadcast(%constant.1103), dimensions={}, sharding={replicated}
  %compare.149 = pred[2]{0} compare(%multiply.185, %broadcast.1091), direction=GE, sharding={replicated}
  %constant.1044 = pred[] constant(true)
  %reduce.27 = pred[] reduce(%compare.149, %constant.1044), dimensions={0}, to_apply=%and.reduce_sub_computation.3, sharding={replicated}
  %broadcast.1097 = pred[1024]{0} broadcast(%reduce.27), dimensions={}, sharding={devices=[2,2]<=[4] last_tile_dim_replicate}
  %constant.1232 = f64[] constant(-0.99999999999999989), sharding={replicated}
  %broadcast.578 = f64[1024]{0} broadcast(%constant.1232), dimensions={}, sharding={devices=[2,2]<=[4] last_tile_dim_replicate}, metadata={op_name="jit(_full_run)/jit(main)/jit(_normal)/jit(_normal_real)/jit(_uniform)/max" source_file="/global/homes/j/jackm/software/lorrax_C/src/solvers/lanczos.py" source_line=247}
  %iota.5 = u64[1024]{0} iota(), iota_dimension=0, sharding={devices=[2,2]<=[4] last_tile_dim_replicate}, metadata={op_name="jit(_full_run)/jit(main)/jit(_normal)/jit(_normal_real)/jit(_uniform)/iota_2x32_shape" source_file="/global/homes/j/jackm/software/lorrax_C/src/solvers/lanczos.py" source_line=247}
  %constant.416 = u64[] constant(32), sharding={replicated}
  %broadcast.579 = u64[1024]{0} broadcast(%constant.416), dimensions={}, sharding={devices=[2,2]<=[4] last_tile_dim_replicate}
  %shift-right-logical.189 = u64[1024]{0} shift-right-logical(%iota.5, %broadcast.579), sharding={devices=[2,2]<=[4] last_tile_dim_replicate}, metadata={op_name="jit(_full_run)/jit(main)/jit(_normal)/jit(_normal_real)/jit(_uniform)/iota_2x32_shape" source_file="/global/homes/j/jackm/software/lorrax_C/src/solvers/lanczos.py" source_line=247}
  %convert.58 = u32[1024]{0} convert(%shift-right-logical.189), sharding={devices=[2,2]<=[4] last_tile_dim_replicate}, metadata={op_name="jit(_full_run)/jit(main)/jit(_normal)/jit(_normal_real)/jit(_uniform)/iota_2x32_shape" source_file="/global/homes/j/jackm/software/lorrax_C/src/solvers/lanczos.py" source_line=247}
  %iota.4 = u64[2]{0} iota(), iota_dimension=0, sharding={replicated}, metadata={op_name="jit(_full_run)/jit(main)/jit(_threefry_split)/iota_2x32_shape" source_file="/global/homes/j/jackm/software/lorrax_C/src/solvers/lanczos.py" source_line=245}
  %constant.394 = u64[] constant(32), sharding={replicated}
  %broadcast.524 = u64[2]{0} broadcast(%constant.394), dimensions={}, sharding={replicated}
  %shift-right-logical.164 = u64[2]{0} shift-right-logical(%iota.4, %broadcast.524), sharding={replicated}, metadata={op_name="jit(_full_run)/jit(main)/jit(_threefry_split)/iota_2x32_shape" source_file="/global/homes/j/jackm/software/lorrax_C/src/solvers/lanczos.py" source_line=245}
  %convert.56 = u32[2]{0} convert(%shift-right-logical.164), sharding={replicated}, metadata={op_name="jit(_full_run)/jit(main)/jit(_threefry_split)/iota_2x32_shape" source_file="/global/homes/j/jackm/software/lorrax_C/src/solvers/lanczos.py" source_line=245}
  %convert.57 = u32[2]{0} convert(%iota.4), sharding={replicated}, metadata={op_name="jit(_full_run)/jit(main)/jit(_threefry_split)/iota_2x32_shape" source_file="/global/homes/j/jackm/software/lorrax_C/src/solvers/lanczos.py" source_line=245}
  %constant.1233 = u32[] constant(42), sharding={replicated}, metadata={op_name="jit(_full_run)/jit(main)/jit(_threefry_split)/squeeze" source_file="/global/homes/j/jackm/software/lorrax_C/src/solvers/lanczos.py" source_line=245}
  %broadcast.528 = u32[2]{0} broadcast(%constant.1233), dimensions={}, sharding={replicated}, metadata={op_name="jit(_full_run)/jit(main)/jit(_threefry_split)/add" source_file="/global/homes/j/jackm/software/lorrax_C/src/solvers/lanczos.py" source_line=245}
  %add.417 = u32[2]{0} add(%convert.57, %broadcast.528), sharding={replicated}, metadata={op_name="jit(_full_run)/jit(main)/jit(_threefry_split)/add" source_file="/global/homes/j/jackm/software/lorrax_C/src/solvers/lanczos.py" source_line=245}
  %add.418 = u32[2]{0} add(%convert.56, %add.417), sharding={replicated}, metadata={op_name="jit(_full_run)/jit(main)/jit(_threefry_split)/add" source_file="/global/homes/j/jackm/software/lorrax_C/src/solvers/lanczos.py" source_line=245}
  %constant.395 = u32[] constant(13), sharding={replicated}
  %broadcast.530 = u32[2]{0} broadcast(%constant.395), dimensions={}, sharding={replicated}
  %shift-left.158 = u32[2]{0} shift-left(%add.417, %broadcast.530), sharding={replicated}, metadata={op_name="jit(_full_run)/jit(main)/jit(_threefry_split)/shift_left" source_file="/global/homes/j/jackm/software/lorrax_C/src/solvers/lanczos.py" source_line=245}
  %constant.397 = u32[] constant(19), sharding={replicated}
  %broadcast.532 = u32[2]{0} broadcast(%constant.397), dimensions={}, sharding={replicated}
  %shift-right-logical.165 = u32[2]{0} shift-right-logical(%add.417, %broadcast.532), sharding={replicated}, metadata={op_name="jit(_full_run)/jit(main)/jit(_threefry_split)/shift_right_logical" source_file="/global/homes/j/jackm/software/lorrax_C/src/solvers/lanczos.py" source_line=245}
  %or.162 = u32[2]{0} or(%shift-left.158, %shift-right-logical.165), sharding={replicated}, metadata={op_name="jit(_full_run)/jit(main)/jit(_threefry_split)/or" source_file="/global/homes/j/jackm/software/lorrax_C/src/solvers/lanczos.py" source_line=245}
  %xor.172 = u32[2]{0} xor(%add.418, %or.162), sharding={replicated}, metadata={op_name="jit(_full_run)/jit(main)/jit(_threefry_split)/xor" source_file="/global/homes/j/jackm/software/lorrax_C/src/solvers/lanczos.py" source_line=245}
  %add.419 = u32[2]{0} add(%add.418, %xor.172), sharding={replicated}, metadata={op_name="jit(_full_run)/jit(main)/jit(_threefry_split)/add" source_file="/global/homes/j/jackm/software/lorrax_C/src/solvers/lanczos.py" source_line=245}
  %constant.399 = u32[] constant(15), sharding={replicated}
  %broadcast.534 = u32[2]{0} broadcast(%constant.399), dimensions={}, sharding={replicated}
  %shift-left.159 = u32[2]{0} shift-left(%xor.172, %broadcast.534), sharding={replicated}, metadata={op_name="jit(_full_run)/jit(main)/jit(_threefry_split)/shift_left" source_file="/global/homes/j/jackm/software/lorrax_C/src/solvers/lanczos.py" source_line=245}
  %constant.401 = u32[] constant(17), sharding={replicated}
  %broadcast.536 = u32[2]{0} broadcast(%constant.401), dimensions={}, sharding={replicated}
  %shift-right-logical.166 = u32[2]{0} shift-right-logical(%xor.172, %broadcast.536), sharding={replicated}, metadata={op_name="jit(_full_run)/jit(main)/jit(_threefry_split)/shift_right_logical" source_file="/global/homes/j/jackm/software/lorrax_C/src/solvers/lanczos.py" source_line=245}
  %or.164 = u32[2]{0} or(%shift-left.159, %shift-right-logical.166), sharding={replicated}, metadata={op_name="jit(_full_run)/jit(main)/jit(_threefry_split)/or" source_file="/global/homes/j/jackm/software/lorrax_C/src/solvers/lanczos.py" source_line=245}
  %xor.173 = u32[2]{0} xor(%add.419, %or.164), sharding={replicated}, metadata={op_name="jit(_full_run)/jit(main)/jit(_threefry_split)/xor" source_file="/global/homes/j/jackm/software/lorrax_C/src/solvers/lanczos.py" source_line=245}
  %add.420 = u32[2]{0} add(%add.419, %xor.173), sharding={replicated}, metadata={op_name="jit(_full_run)/jit(main)/jit(_threefry_split)/add" source_file="/global/homes/j/jackm/software/lorrax_C/src/solvers/lanczos.py" source_line=245}
  %constant.403 = u32[] constant(26), sharding={replicated}
  %broadcast.538 = u32[2]{0} broadcast(%constant.403), dimensions={}, sharding={replicated}
  %shift-left.160 = u32[2]{0} shift-left(%xor.173, %broadcast.538), sharding={replicated}, metadata={op_name="jit(_full_run)/jit(main)/jit(_threefry_split)/shift_left" source_file="/global/homes/j/jackm/software/lorrax_C/src/solvers/lanczos.py" source_line=245}
  %constant.404 = u32[] constant(6), sharding={replicated}
  %broadcast.540 = u32[2]{0} broadcast(%constant.404), dimensions={}, sharding={replicated}
  %shift-right-logical.168 = u32[2]{0} shift-right-logical(%xor.173, %broadcast.540), sharding={replicated}, metadata={op_name="jit(_full_run)/jit(main)/jit(_threefry_split)/shift_right_logical" source_file="/global/homes/j/jackm/software/lorrax_C/src/solvers/lanczos.py" source_line=245}
  %or.165 = u32[2]{0} or(%shift-left.160, %shift-right-logical.168), sharding={replicated}, metadata={op_name="jit(_full_run)/jit(main)/jit(_threefry_split)/or" source_file="/global/homes/j/jackm/software/lorrax_C/src/solvers/lanczos.py" source_line=245}
  %xor.174 = u32[2]{0} xor(%add.420, %or.165), sharding={replicated}, metadata={op_name="jit(_full_run)/jit(main)/jit(_threefry_split)/xor" source_file="/global/homes/j/jackm/software/lorrax_C/src/solvers/lanczos.py" source_line=245}
  %add.421 = u32[2]{0} add(%add.420, %xor.174), sharding={replicated}, metadata={op_name="jit(_full_run)/jit(main)/jit(_threefry_split)/add" source_file="/global/homes/j/jackm/software/lorrax_C/src/solvers/lanczos.py" source_line=245}
  %constant.1234 = u32[] constant(42), sharding={replicated}, metadata={op_name="jit(_full_run)/jit(main)/jit(_threefry_split)/squeeze" source_file="/global/homes/j/jackm/software/lorrax_C/src/solvers/lanczos.py" source_line=245}
  %broadcast.542 = u32[2]{0} broadcast(%constant.1234), dimensions={}, sharding={replicated}, metadata={op_name="jit(_full_run)/jit(main)/jit(_threefry_split)/add" source_file="/global/homes/j/jackm/software/lorrax_C/src/solvers/lanczos.py" source_line=245}
  %add.422 = u32[2]{0} add(%add.421, %broadcast.542), sharding={replicated}, metadata={op_name="jit(_full_run)/jit(main)/jit(_threefry_split)/add" source_file="/global/homes/j/jackm/software/lorrax_C/src/solvers/lanczos.py" source_line=245}
  %shift-left.162 = u32[2]{0} shift-left(%xor.174, %broadcast.540), sharding={replicated}, metadata={op_name="jit(_full_run)/jit(main)/jit(_threefry_split)/shift_left" source_file="/global/homes/j/jackm/software/lorrax_C/src/solvers/lanczos.py" source_line=245}
  %shift-right-logical.169 = u32[2]{0} shift-right-logical(%xor.174, %broadcast.538), sharding={replicated}, metadata={op_name="jit(_full_run)/jit(main)/jit(_threefry_split)/shift_right_logical" source_file="/global/homes/j/jackm/software/lorrax_C/src/solvers/lanczos.py" source_line=245}
  %or.166 = u32[2]{0} or(%shift-left.162, %shift-right-logical.169), sharding={replicated}, metadata={op_name="jit(_full_run)/jit(main)/jit(_threefry_split)/or" source_file="/global/homes/j/jackm/software/lorrax_C/src/solvers/lanczos.py" source_line=245}
  %xor.175 = u32[2]{0} xor(%add.421, %or.166), sharding={replicated}, metadata={op_name="jit(_full_run)/jit(main)/jit(_threefry_split)/xor" source_file="/global/homes/j/jackm/software/lorrax_C/src/solvers/lanczos.py" source_line=245}
  %constant.1109 = u32[] constant(466689009), sharding={replicated}
  %broadcast.1092 = u32[2]{0} broadcast(%constant.1109), dimensions={}, sharding={replicated}, metadata={op_name="jit(_full_run)/jit(main)/jit(_threefry_split)/add" source_file="/global/homes/j/jackm/software/lorrax_C/src/solvers/lanczos.py" source_line=245}
  %add.424 = u32[2]{0} add(%xor.175, %broadcast.1092), sharding={replicated}, metadata={op_name="jit(_full_run)/jit(main)/jit(_threefry_split)/add" source_file="/global/homes/j/jackm/software/lorrax_C/src/solvers/lanczos.py" source_line=245}
  %add.425 = u32[2]{0} add(%add.422, %add.424), sharding={replicated}, metadata={op_name="jit(_full_run)/jit(main)/jit(_threefry_split)/add" source_file="/global/homes/j/jackm/software/lorrax_C/src/solvers/lanczos.py" source_line=245}
  %shift-left.163 = u32[2]{0} shift-left(%add.424, %broadcast.536), sharding={replicated}, metadata={op_name="jit(_full_run)/jit(main)/jit(_threefry_split)/shift_left" source_file="/global/homes/j/jackm/software/lorrax_C/src/solvers/lanczos.py" source_line=245}
  %shift-right-logical.170 = u32[2]{0} shift-right-logical(%add.424, %broadcast.534), sharding={replicated}, metadata={op_name="jit(_full_run)/jit(main)/jit(_threefry_split)/shift_right_logical" source_file="/global/homes/j/jackm/software/lorrax_C/src/solvers/lanczos.py" source_line=245}
  %or.167 = u32[2]{0} or(%shift-left.163, %shift-right-logical.170), sharding={replicated}, metadata={op_name="jit(_full_run)/jit(main)/jit(_threefry_split)/or" source_file="/global/homes/j/jackm/software/lorrax_C/src/solvers/lanczos.py" source_line=245}
  %xor.178 = u32[2]{0} xor(%add.425, %or.167), sharding={replicated}, metadata={op_name="jit(_full_run)/jit(main)/jit(_threefry_split)/xor" source_file="/global/homes/j/jackm/software/lorrax_C/src/solvers/lanczos.py" source_line=245}
  %add.426 = u32[2]{0} add(%add.425, %xor.178), sharding={replicated}, metadata={op_name="jit(_full_run)/jit(main)/jit(_threefry_split)/add" source_file="/global/homes/j/jackm/software/lorrax_C/src/solvers/lanczos.py" source_line=245}
  %constant.407 = u32[] constant(29), sharding={replicated}
  %broadcast.548 = u32[2]{0} broadcast(%constant.407), dimensions={}, sharding={replicated}
  %shift-left.164 = u32[2]{0} shift-left(%xor.178, %broadcast.548), sharding={replicated}, metadata={op_name="jit(_full_run)/jit(main)/jit(_threefry_split)/shift_left" source_file="/global/homes/j/jackm/software/lorrax_C/src/solvers/lanczos.py" source_line=245}
  %constant.408 = u32[] constant(3), sharding={replicated}
  %broadcast.550 = u32[2]{0} broadcast(%constant.408), dimensions={}, sharding={replicated}
  %shift-right-logical.171 = u32[2]{0} shift-right-logical(%xor.178, %broadcast.550), sharding={replicated}, metadata={op_name="jit(_full_run)/jit(main)/jit(_threefry_split)/shift_right_logical" source_file="/global/homes/j/jackm/software/lorrax_C/src/solvers/lanczos.py" source_line=245}
  %or.169 = u32[2]{0} or(%shift-left.164, %shift-right-logical.171), sharding={replicated}, metadata={op_name="jit(_full_run)/jit(main)/jit(_threefry_split)/or" source_file="/global/homes/j/jackm/software/lorrax_C/src/solvers/lanczos.py" source_line=245}
  %xor.180 = u32[2]{0} xor(%add.426, %or.169), sharding={replicated}, metadata={op_name="jit(_full_run)/jit(main)/jit(_threefry_split)/xor" source_file="/global/homes/j/jackm/software/lorrax_C/src/solvers/lanczos.py" source_line=245}
  %add.427 = u32[2]{0} add(%add.426, %xor.180), sharding={replicated}, metadata={op_name="jit(_full_run)/jit(main)/jit(_threefry_split)/add" source_file="/global/homes/j/jackm/software/lorrax_C/src/solvers/lanczos.py" source_line=245}
  %constant.409 = u32[] constant(16), sharding={replicated}
  %broadcast.552 = u32[2]{0} broadcast(%constant.409), dimensions={}, sharding={replicated}
  %shift-left.165 = u32[2]{0} shift-left(%xor.180, %broadcast.552), sharding={replicated}, metadata={op_name="jit(_full_run)/jit(main)/jit(_threefry_split)/shift_left" source_file="/global/homes/j/jackm/software/lorrax_C/src/solvers/lanczos.py" source_line=245}
  %shift-right-logical.172 = u32[2]{0} shift-right-logical(%xor.180, %broadcast.552), sharding={replicated}, metadata={op_name="jit(_full_run)/jit(main)/jit(_threefry_split)/shift_right_logical" source_file="/global/homes/j/jackm/software/lorrax_C/src/solvers/lanczos.py" source_line=245}
  %or.170 = u32[2]{0} or(%shift-left.165, %shift-right-logical.172), sharding={replicated}, metadata={op_name="jit(_full_run)/jit(main)/jit(_threefry_split)/or" source_file="/global/homes/j/jackm/software/lorrax_C/src/solvers/lanczos.py" source_line=245}
  %xor.181 = u32[2]{0} xor(%add.427, %or.170), sharding={replicated}, metadata={op_name="jit(_full_run)/jit(main)/jit(_threefry_split)/xor" source_file="/global/homes/j/jackm/software/lorrax_C/src/solvers/lanczos.py" source_line=245}
  %add.428 = u32[2]{0} add(%add.427, %xor.181), sharding={replicated}, metadata={op_name="jit(_full_run)/jit(main)/jit(_threefry_split)/add" source_file="/global/homes/j/jackm/software/lorrax_C/src/solvers/lanczos.py" source_line=245}
  %constant.1237 = u32[] constant(466689008), sharding={replicated}, metadata={op_name="jit(_full_run)/jit(main)/jit(_threefry_split)/xor" source_file="/global/homes/j/jackm/software/lorrax_C/src/solvers/lanczos.py" source_line=245}
  %broadcast.554 = u32[2]{0} broadcast(%constant.1237), dimensions={}, sharding={replicated}, metadata={op_name="jit(_full_run)/jit(main)/jit(_threefry_split)/add" source_file="/global/homes/j/jackm/software/lorrax_C/src/solvers/lanczos.py" source_line=245}
  %add.429 = u32[2]{0} add(%add.428, %broadcast.554), sharding={replicated}, metadata={op_name="jit(_full_run)/jit(main)/jit(_threefry_split)/add" source_file="/global/homes/j/jackm/software/lorrax_C/src/solvers/lanczos.py" source_line=245}
  %constant.410 = u32[] constant(24), sharding={replicated}
  %broadcast.556 = u32[2]{0} broadcast(%constant.410), dimensions={}, sharding={replicated}
  %shift-left.167 = u32[2]{0} shift-left(%xor.181, %broadcast.556), sharding={replicated}, metadata={op_name="jit(_full_run)/jit(main)/jit(_threefry_split)/shift_left" source_file="/global/homes/j/jackm/software/lorrax_C/src/solvers/lanczos.py" source_line=245}
  %constant.411 = u32[] constant(8), sharding={replicated}
  %broadcast.558 = u32[2]{0} broadcast(%constant.411), dimensions={}, sharding={replicated}
  %shift-right-logical.173 = u32[2]{0} shift-right-logical(%xor.181, %broadcast.558), sharding={replicated}, metadata={op_name="jit(_full_run)/jit(main)/jit(_threefry_split)/shift_right_logical" source_file="/global/homes/j/jackm/software/lorrax_C/src/solvers/lanczos.py" source_line=245}
  %or.171 = u32[2]{0} or(%shift-left.167, %shift-right-logical.173), sharding={replicated}, metadata={op_name="jit(_full_run)/jit(main)/jit(_threefry_split)/or" source_file="/global/homes/j/jackm/software/lorrax_C/src/solvers/lanczos.py" source_line=245}
  %xor.182 = u32[2]{0} xor(%add.428, %or.171), sharding={replicated}, metadata={op_name="jit(_full_run)/jit(main)/jit(_threefry_split)/xor" source_file="/global/homes/j/jackm/software/lorrax_C/src/solvers/lanczos.py" source_line=245}
  %constant.412 = u32[] constant(2), sharding={replicated}
  %broadcast.562 = u32[2]{0} broadcast(%constant.412), dimensions={}, sharding={replicated}
  %add.431 = u32[2]{0} add(%xor.182, %broadcast.562), sharding={replicated}, metadata={op_name="jit(_full_run)/jit(main)/jit(_threefry_split)/add" source_file="/global/homes/j/jackm/software/lorrax_C/src/solvers/lanczos.py" source_line=245}
  %add.432 = u32[2]{0} add(%add.429, %add.431), sharding={replicated}, metadata={op_name="jit(_full_run)/jit(main)/jit(_threefry_split)/add" source_file="/global/homes/j/jackm/software/lorrax_C/src/solvers/lanczos.py" source_line=245}
  %shift-left.168 = u32[2]{0} shift-left(%add.431, %broadcast.530), sharding={replicated}, metadata={op_name="jit(_full_run)/jit(main)/jit(_threefry_split)/shift_left" source_file="/global/homes/j/jackm/software/lorrax_C/src/solvers/lanczos.py" source_line=245}
  %shift-right-logical.174 = u32[2]{0} shift-right-logical(%add.431, %broadcast.532), sharding={replicated}, metadata={op_name="jit(_full_run)/jit(main)/jit(_threefry_split)/shift_right_logical" source_file="/global/homes/j/jackm/software/lorrax_C/src/solvers/lanczos.py" source_line=245}
  %or.172 = u32[2]{0} or(%shift-left.168, %shift-right-logical.174), sharding={replicated}, metadata={op_name="jit(_full_run)/jit(main)/jit(_threefry_split)/or" source_file="/global/homes/j/jackm/software/lorrax_C/src/solvers/lanczos.py" source_line=245}
  %xor.183 = u32[2]{0} xor(%add.432, %or.172), sharding={replicated}, metadata={op_name="jit(_full_run)/jit(main)/jit(_threefry_split)/xor" source_file="/global/homes/j/jackm/software/lorrax_C/src/solvers/lanczos.py" source_line=245}
  %add.434 = u32[2]{0} add(%add.432, %xor.183), sharding={replicated}, metadata={op_name="jit(_full_run)/jit(main)/jit(_threefry_split)/add" source_file="/global/homes/j/jackm/software/lorrax_C/src/solvers/lanczos.py" source_line=245}
  %shift-left.169 = u32[2]{0} shift-left(%xor.183, %broadcast.534), sharding={replicated}, metadata={op_name="jit(_full_run)/jit(main)/jit(_threefry_split)/shift_left" source_file="/global/homes/j/jackm/software/lorrax_C/src/solvers/lanczos.py" source_line=245}
  %shift-right-logical.175 = u32[2]{0} shift-right-logical(%xor.183, %broadcast.536), sharding={replicated}, metadata={op_name="jit(_full_run)/jit(main)/jit(_threefry_split)/shift_right_logical" source_file="/global/homes/j/jackm/software/lorrax_C/src/solvers/lanczos.py" source_line=245}
  %or.173 = u32[2]{0} or(%shift-left.169, %shift-right-logical.175), sharding={replicated}, metadata={op_name="jit(_full_run)/jit(main)/jit(_threefry_split)/or" source_file="/global/homes/j/jackm/software/lorrax_C/src/solvers/lanczos.py" source_line=245}
…
  %select.204 = f64[1024]{0} select(%compare.59, %select.203, %broadcast.791), sharding={devices=[2,2]<=[4] last_tile_dim_replicate}, metadata={op_name="jit(_full_run)/jit(main)/jit(_normal)/jit(_normal_real)/erf_inv" source_file="/global/homes/j/jackm/software/lorrax_C/src/solvers/lanczos.py" source_line=247}
  %constant.648 = f64[] constant(-1.6850591381820166e-19), sharding={replicated}
  %broadcast.792 = f64[1024]{0} broadcast(%constant.648), dimensions={}, sharding={devices=[2,2]<=[4] last_tile_dim_replicate}
  %constant.649 = f64[] constant(9.0756561938885391e-08), sharding={replicated}
  %broadcast.793 = f64[1024]{0} broadcast(%constant.649), dimensions={}, sharding={devices=[2,2]<=[4] last_tile_dim_replicate}
  %select.205 = f64[1024]{0} select(%compare.58, %broadcast.792, %broadcast.793), sharding={devices=[2,2]<=[4] last_tile_dim_replicate}, metadata={op_name="jit(_full_run)/jit(main)/jit(_normal)/jit(_normal_real)/erf_inv" source_file="/global/homes/j/jackm/software/lorrax_C/src/solvers/lanczos.py" source_line=247}
  %constant.650 = f64[] constant(-2.5556418169965252e-10), sharding={replicated}
  %broadcast.794 = f64[1024]{0} broadcast(%constant.650), dimensions={}, sharding={devices=[2,2]<=[4] last_tile_dim_replicate}
  %select.206 = f64[1024]{0} select(%compare.59, %select.205, %broadcast.794), sharding={devices=[2,2]<=[4] last_tile_dim_replicate}, metadata={op_name="jit(_full_run)/jit(main)/jit(_normal)/jit(_normal_real)/erf_inv" source_file="/global/homes/j/jackm/software/lorrax_C/src/solvers/lanczos.py" source_line=247}
  %constant.651 = f64[] constant(-3.64441206401782e-21), sharding={replicated}
  %broadcast.795 = f64[1024]{0} broadcast(%constant.651), dimensions={}, sharding={devices=[2,2]<=[4] last_tile_dim_replicate}
  %constant.652 = f64[] constant(2.2137376921775787e-09), sharding={replicated}
  %broadcast.797 = f64[1024]{0} broadcast(%constant.652), dimensions={}, sharding={devices=[2,2]<=[4] last_tile_dim_replicate}
  %select.207 = f64[1024]{0} select(%compare.58, %broadcast.795, %broadcast.797), sharding={devices=[2,2]<=[4] last_tile_dim_replicate}, metadata={op_name="jit(_full_run)/jit(main)/jit(_normal)/jit(_normal_real)/erf_inv" source_file="/global/homes/j/jackm/software/lorrax_C/src/solvers/lanczos.py" source_line=247}
  %constant.653 = f64[] constant(-2.7109920616438573e-11), sharding={replicated}
  %broadcast.799 = f64[1024]{0} broadcast(%constant.653), dimensions={}, sharding={devices=[2,2]<=[4] last_tile_dim_replicate}
  %select.208 = f64[1024]{0} select(%compare.59, %select.207, %broadcast.799), sharding={devices=[2,2]<=[4] last_tile_dim_replicate}, metadata={op_name="jit(_full_run)/jit(main)/jit(_normal)/jit(_normal_real)/erf_inv" source_file="/global/homes/j/jackm/software/lorrax_C/src/solvers/lanczos.py" source_line=247}
  %constant.1091 = f64[] constant(-3.125), sharding={replicated}
  %broadcast.842 = f64[1024]{0} broadcast(%constant.1091), dimensions={}, sharding={devices=[2,2]<=[4] last_tile_dim_replicate}
  %add.584 = f64[1024]{0} add(%negate.21, %broadcast.842), sharding={devices=[2,2]<=[4] last_tile_dim_replicate}, metadata={op_name="jit(_full_run)/jit(main)/jit(_normal)/jit(_normal_real)/erf_inv" source_file="/global/homes/j/jackm/software/lorrax_C/src/solvers/lanczos.py" source_line=247}
  %sqrt.5 = f64[1024]{0} sqrt(%negate.21), sharding={devices=[2,2]<=[4] last_tile_dim_replicate}, metadata={op_name="jit(_full_run)/jit(main)/jit(_normal)/jit(_normal_real)/erf_inv" source_file="/global/homes/j/jackm/software/lorrax_C/src/solvers/lanczos.py" source_line=247}
  %constant.655 = f64[] constant(3.25), sharding={replicated}
  %broadcast.801 = f64[1024]{0} broadcast(%constant.655), dimensions={}, sharding={devices=[2,2]<=[4] last_tile_dim_replicate}
  %constant.656 = f64[] constant(5), sharding={replicated}
  %broadcast.802 = f64[1024]{0} broadcast(%constant.656), dimensions={}, sharding={devices=[2,2]<=[4] last_tile_dim_replicate}
  %select.209 = f64[1024]{0} select(%compare.59, %broadcast.801, %broadcast.802), sharding={devices=[2,2]<=[4] last_tile_dim_replicate}, metadata={op_name="jit(_full_run)/jit(main)/jit(_normal)/jit(_normal_real)/erf_inv" source_file="/global/homes/j/jackm/software/lorrax_C/src/solvers/lanczos.py" source_line=247}
  %subtract.32 = f64[1024]{0} subtract(%sqrt.5, %select.209), sharding={devices=[2,2]<=[4] last_tile_dim_replicate}, metadata={op_name="jit(_full_run)/jit(main)/jit(_normal)/jit(_normal_real)/erf_inv" source_file="/global/homes/j/jackm/software/lorrax_C/src/solvers/lanczos.py" source_line=247}
  %select.210 = f64[1024]{0} select(%compare.58, %add.584, %subtract.32), sharding={devices=[2,2]<=[4] last_tile_dim_replicate}, metadata={op_name="jit(_full_run)/jit(main)/jit(_normal)/jit(_normal_real)/erf_inv" source_file="/global/homes/j/jackm/software/lorrax_C/src/solvers/lanczos.py" source_line=247}
  %multiply.105 = f64[1024]{0} multiply(%select.208, %select.210), sharding={devices=[2,2]<=[4] last_tile_dim_replicate}, metadata={op_name="jit(_full_run)/jit(main)/jit(_normal)/jit(_normal_real)/erf_inv" source_file="/global/homes/j/jackm/software/lorrax_C/src/solvers/lanczos.py" source_line=247}
  %add.552 = f64[1024]{0} add(%select.206, %multiply.105), sharding={devices=[2,2]<=[4] last_tile_dim_replicate}, metadata={op_name="jit(_full_run)/jit(main)/jit(_normal)/jit(_normal_real)/erf_inv" source_file="/global/homes/j/jackm/software/lorrax_C/src/solvers/lanczos.py" source_line=247}
  %multiply.106 = f64[1024]{0} multiply(%add.552, %select.210), sharding={devices=[2,2]<=[4] last_tile_dim_replicate}, metadata={op_name="jit(_full_run)/jit(main)/jit(_normal)/jit(_normal_real)/erf_inv" source_file="/global/homes/j/jackm/software/lorrax_C/src/solvers/lanczos.py" source_line=247}
  %add.553 = f64[1024]{0} add(%select.204, %multiply.106), sharding={devices=[2,2]<=[4] last_tile_dim_replicate}, metadata={op_name="jit(_full_run)/jit(main)/jit(_normal)/jit(_normal_real)/erf_inv" source_file="/global/homes/j/jackm/software/lorrax_C/src/solvers/lanczos.py" source_line=247}
  %multiply.107 = f64[1024]{0} multiply(%add.553, %select.210), sharding={devices=[2,2]<=[4] last_tile_dim_replicate}, metadata={op_name="jit(_full_run)/jit(main)/jit(_normal)/jit(_normal_real)/erf_inv" source_file="/global/homes/j/jackm/software/lorrax_C/src/solvers/lanczos.py" source_line=247}
  %add.554 = f64[1024]{0} add(%select.202, %multiply.107), sharding={devices=[2,2]<=[4] last_tile_dim_replicate}, metadata={op_name="jit(_full_run)/jit(main)/jit(_normal)/jit(_normal_real)/erf_inv" source_file="/global/homes/j/jackm/software/lorrax_C/src/solvers/lanczos.py" source_line=247}
  %multiply.108 = f64[1024]{0} multiply(%add.554, %select.210), sharding={devices=[2,2]<=[4] last_tile_dim_replicate}, metadata={op_name="jit(_full_run)/jit(main)/jit(_normal)/jit(_normal_real)/erf_inv" source_file="/global/homes/j/jackm/software/lorrax_C/src/solvers/lanczos.py" source_line=247}
  %add.555 = f64[1024]{0} add(%select.200, %multiply.108), sharding={devices=[2,2]<=[4] last_tile_dim_replicate}, metadata={op_name="jit(_full_run)/jit(main)/jit(_normal)/jit(_normal_real)/erf_inv" source_file="/global/homes/j/jackm/software/lorrax_C/src/solvers/lanczos.py" source_line=247}
  %multiply.109 = f64[1024]{0} multiply(%add.555, %select.210), sharding={devices=[2,2]<=[4] last_tile_dim_replicate}, metadata={op_name="jit(_full_run)/jit(main)/jit(_normal)/jit(_normal_real)/erf_inv" source_file="/global/homes/j/jackm/software/lorrax_C/src/solvers/lanczos.py" source_line=247}
  %add.556 = f64[1024]{0} add(%select.198, %multiply.109), sharding={devices=[2,2]<=[4] last_tile_dim_replicate}, metadata={op_name="jit(_full_run)/jit(main)/jit(_normal)/jit(_normal_real)/erf_inv" source_file="/global/homes/j/jackm/software/lorrax_C/src/solvers/lanczos.py" source_line=247}
  %multiply.110 = f64[1024]{0} multiply(%add.556, %select.210), sharding={devices=[2,2]<=[4] last_tile_dim_replicate}, metadata={op_name="jit(_full_run)/jit(main)/jit(_normal)/jit(_normal_real)/erf_inv" source_file="/global/homes/j/jackm/software/lorrax_C/src/solvers/lanczos.py" source_line=247}
  %add.557 = f64[1024]{0} add(%select.196, %multiply.110), sharding={devices=[2,2]<=[4] last_tile_dim_replicate}, metadata={op_name="jit(_full_run)/jit(main)/jit(_normal)/jit(_normal_real)/erf_inv" source_file="/global/homes/j/jackm/software/lorrax_C/src/solvers/lanczos.py" source_line=247}
  %multiply.111 = f64[1024]{0} multiply(%add.557, %select.210), sharding={devices=[2,2]<=[4] last_tile_dim_replicate}, metadata={op_name="jit(_full_run)/jit(main)/jit(_normal)/jit(_normal_real)/erf_inv" source_file="/global/homes/j/jackm/software/lorrax_C/src/solvers/lanczos.py" source_line=247}
  %add.558 = f64[1024]{0} add(%select.194, %multiply.111), sharding={devices=[2,2]<=[4] last_tile_dim_replicate}, metadata={op_name="jit(_full_run)/jit(main)/jit(_normal)/jit(_normal_real)/erf_inv" source_file="/global/homes/j/jackm/software/lorrax_C/src/solvers/lanczos.py" source_line=247}
  %multiply.112 = f64[1024]{0} multiply(%add.558, %select.210), sharding={devices=[2,2]<=[4] last_tile_dim_replicate}, metadata={op_name="jit(_full_run)/jit(main)/jit(_normal)/jit(_normal_real)/erf_inv" source_file="/global/homes/j/jackm/software/lorrax_C/src/solvers/lanczos.py" source_line=247}
  %add.559 = f64[1024]{0} add(%select.192, %multiply.112), sharding={devices=[2,2]<=[4] last_tile_dim_replicate}, metadata={op_name="jit(_full_run)/jit(main)/jit(_normal)/jit(_normal_real)/erf_inv" source_file="/global/homes/j/jackm/software/lorrax_C/src/solvers/lanczos.py" source_line=247}
  %multiply.113 = f64[1024]{0} multiply(%add.559, %select.210), sharding={devices=[2,2]<=[4] last_tile_dim_replicate}, metadata={op_name="jit(_full_run)/jit(main)/jit(_normal)/jit(_normal_real)/erf_inv" source_file="/global/homes/j/jackm/software/lorrax_C/src/solvers/lanczos.py" source_line=247}
  %add.560 = f64[1024]{0} add(%select.190, %multiply.113), sharding={devices=[2,2]<=[4] last_tile_dim_replicate}, metadata={op_name="jit(_full_run)/jit(main)/jit(_normal)/jit(_normal_real)/erf_inv" source_file="/global/homes/j/jackm/software/lorrax_C/src/solvers/lanczos.py" source_line=247}
  %multiply.114 = f64[1024]{0} multiply(%add.560, %select.210), sharding={devices=[2,2]<=[4] last_tile_dim_replicate}, metadata={op_name="jit(_full_run)/jit(main)/jit(_normal)/jit(_normal_real)/erf_inv" source_file="/global/homes/j/jackm/software/lorrax_C/src/solvers/lanczos.py" source_line=247}
  %add.561 = f64[1024]{0} add(%select.188, %multiply.114), sharding={devices=[2,2]<=[4] last_tile_dim_replicate}, metadata={op_name="jit(_full_run)/jit(main)/jit(_normal)/jit(_normal_real)/erf_inv" source_file="/global/homes/j/jackm/software/lorrax_C/src/solvers/lanczos.py" source_line=247}
  %multiply.115 = f64[1024]{0} multiply(%add.561, %select.210), sharding={devices=[2,2]<=[4] last_tile_dim_replicate}, metadata={op_name="jit(_full_run)/jit(main)/jit(_normal)/jit(_normal_real)/erf_inv" source_file="/global/homes/j/jackm/software/lorrax_C/src/solvers/lanczos.py" source_line=247}
  %add.562 = f64[1024]{0} add(%select.186, %multiply.115), sharding={devices=[2,2]<=[4] last_tile_dim_replicate}, metadata={op_name="jit(_full_run)/jit(main)/jit(_normal)/jit(_normal_real)/erf_inv" source_file="/global/homes/j/jackm/software/lorrax_C/src/solvers/lanczos.py" source_line=247}
  %multiply.116 = f64[1024]{0} multiply(%add.562, %select.210), sharding={devices=[2,2]<=[4] last_tile_dim_replicate}, metadata={op_name="jit(_full_run)/jit(main)/jit(_normal)/jit(_normal_real)/erf_inv" source_file="/global/homes/j/jackm/software/lorrax_C/src/solvers/lanczos.py" source_line=247}
  %add.563 = f64[1024]{0} add(%select.184, %multiply.116), sharding={devices=[2,2]<=[4] last_tile_dim_replicate}, metadata={op_name="jit(_full_run)/jit(main)/jit(_normal)/jit(_normal_real)/erf_inv" source_file="/global/homes/j/jackm/software/lorrax_C/src/solvers/lanczos.py" source_line=247}
  %multiply.117 = f64[1024]{0} multiply(%add.563, %select.210), sharding={devices=[2,2]<=[4] last_tile_dim_replicate}, metadata={op_name="jit(_full_run)/jit(main)/jit(_normal)/jit(_normal_real)/erf_inv" source_file="/global/homes/j/jackm/software/lorrax_C/src/solvers/lanczos.py" source_line=247}
  %add.564 = f64[1024]{0} add(%select.182, %multiply.117), sharding={devices=[2,2]<=[4] last_tile_dim_replicate}, metadata={op_name="jit(_full_run)/jit(main)/jit(_normal)/jit(_normal_real)/erf_inv" source_file="/global/homes/j/jackm/software/lorrax_C/src/solvers/lanczos.py" source_line=247}
  %multiply.118 = f64[1024]{0} multiply(%add.564, %select.210), sharding={devices=[2,2]<=[4] last_tile_dim_replicate}, metadata={op_name="jit(_full_run)/jit(main)/jit(_normal)/jit(_normal_real)/erf_inv" source_file="/global/homes/j/jackm/software/lorrax_C/src/solvers/lanczos.py" source_line=247}
  %add.565 = f64[1024]{0} add(%select.180, %multiply.118), sharding={devices=[2,2]<=[4] last_tile_dim_replicate}, metadata={op_name="jit(_full_run)/jit(main)/jit(_normal)/jit(_normal_real)/erf_inv" source_file="/global/homes/j/jackm/software/lorrax_C/src/solvers/lanczos.py" source_line=247}
  %multiply.119 = f64[1024]{0} multiply(%add.565, %select.210), sharding={devices=[2,2]<=[4] last_tile_dim_replicate}, metadata={op_name="jit(_full_run)/jit(main)/jit(_normal)/jit(_normal_real)/erf_inv" source_file="/global/homes/j/jackm/software/lorrax_C/src/solvers/lanczos.py" source_line=247}
  %add.566 = f64[1024]{0} add(%select.178, %multiply.119), sharding={devices=[2,2]<=[4] last_tile_dim_replicate}, metadata={op_name="jit(_full_run)/jit(main)/jit(_normal)/jit(_normal_real)/erf_inv" source_file="/global/homes/j/jackm/software/lorrax_C/src/solvers/lanczos.py" source_line=247}
  %multiply.120 = f64[1024]{0} multiply(%add.566, %select.210), sharding={devices=[2,2]<=[4] last_tile_dim_replicate}, metadata={op_name="jit(_full_run)/jit(main)/jit(_normal)/jit(_normal_real)/erf_inv" source_file="/global/homes/j/jackm/software/lorrax_C/src/solvers/lanczos.py" source_line=247}
  %add.567 = f64[1024]{0} add(%select.176, %multiply.120), sharding={devices=[2,2]<=[4] last_tile_dim_replicate}, metadata={op_name="jit(_full_run)/jit(main)/jit(_normal)/jit(_normal_real)/erf_inv" source_file="/global/homes/j/jackm/software/lorrax_C/src/solvers/lanczos.py" source_line=247}
  %multiply.121 = f64[1024]{0} multiply(%add.567, %select.210), sharding={devices=[2,2]<=[4] last_tile_dim_replicate}, metadata={op_name="jit(_full_run)/jit(main)/jit(_normal)/jit(_normal_real)/erf_inv" source_file="/global/homes/j/jackm/software/lorrax_C/src/solvers/lanczos.py" source_line=247}
  %add.568 = f64[1024]{0} add(%select.174, %multiply.121), sharding={devices=[2,2]<=[4] last_tile_dim_replicate}, metadata={op_name="jit(_full_run)/jit(main)/jit(_normal)/jit(_normal_real)/erf_inv" source_file="/global/homes/j/jackm/software/lorrax_C/src/solvers/lanczos.py" source_line=247}
  %select.211 = f64[1024]{0} select(%compare.59, %add.568, %add.567), sharding={devices=[2,2]<=[4] last_tile_dim_replicate}, metadata={op_name="jit(_full_run)/jit(main)/jit(_normal)/jit(_normal_real)/erf_inv" source_file="/global/homes/j/jackm/software/lorrax_C/src/solvers/lanczos.py" source_line=247}
  %multiply.122 = f64[1024]{0} multiply(%select.211, %select.210), sharding={devices=[2,2]<=[4] last_tile_dim_replicate}, metadata={op_name="jit(_full_run)/jit(main)/jit(_normal)/jit(_normal_real)/erf_inv" source_file="/global/homes/j/jackm/software/lorrax_C/src/solvers/lanczos.py" source_line=247}
  %add.569 = f64[1024]{0} add(%select.173, %multiply.122), sharding={devices=[2,2]<=[4] last_tile_dim_replicate}, metadata={op_name="jit(_full_run)/jit(main)/jit(_normal)/jit(_normal_real)/erf_inv" source_file="/global/homes/j/jackm/software/lorrax_C/src/solvers/lanczos.py" source_line=247}
  %select.212 = f64[1024]{0} select(%compare.59, %add.569, %select.211), sharding={devices=[2,2]<=[4] last_tile_dim_replicate}, metadata={op_name="jit(_full_run)/jit(main)/jit(_normal)/jit(_normal_real)/erf_inv" source_file="/global/homes/j/jackm/software/lorrax_C/src/solvers/lanczos.py" source_line=247}
  %multiply.123 = f64[1024]{0} multiply(%select.212, %select.210), sharding={devices=[2,2]<=[4] last_tile_dim_replicate}, metadata={op_name="jit(_full_run)/jit(main)/jit(_normal)/jit(_normal_real)/erf_inv" source_file="/global/homes/j/jackm/software/lorrax_C/src/solvers/lanczos.py" source_line=247}
  %constant.657 = f64[] constant(-0.000740702534166267), sharding={replicated}
  %broadcast.803 = f64[1024]{0} broadcast(%constant.657), dimensions={}, sharding={devices=[2,2]<=[4] last_tile_dim_replicate}
  %add.570 = f64[1024]{0} add(%multiply.123, %broadcast.803), sharding={devices=[2,2]<=[4] last_tile_dim_replicate}, metadata={op_name="jit(_full_run)/jit(main)/jit(_normal)/jit(_normal_real)/erf_inv" source_file="/global/homes/j/jackm/software/lorrax_C/src/solvers/lanczos.py" source_line=247}
  %select.213 = f64[1024]{0} select(%compare.58, %add.570, %select.212), sharding={devices=[2,2]<=[4] last_tile_dim_replicate}, metadata={op_name="jit(_full_run)/jit(main)/jit(_normal)/jit(_normal_real)/erf_inv" source_file="/global/homes/j/jackm/software/lorrax_C/src/solvers/lanczos.py" source_line=247}
  %multiply.124 = f64[1024]{0} multiply(%select.213, %select.210), sharding={devices=[2,2]<=[4] last_tile_dim_replicate}, metadata={op_name="jit(_full_run)/jit(main)/jit(_normal)/jit(_normal_real)/erf_inv" source_file="/global/homes/j/jackm/software/lorrax_C/src/solvers/lanczos.py" source_line=247}
  %constant.658 = f64[] constant(-0.0060336708714301491), sharding={replicated}
  %broadcast.804 = f64[1024]{0} broadcast(%constant.658), dimensions={}, sharding={devices=[2,2]<=[4] last_tile_dim_replicate}
  %add.571 = f64[1024]{0} add(%multiply.124, %broadcast.804), sharding={devices=[2,2]<=[4] last_tile_dim_replicate}, metadata={op_name="jit(_full_run)/jit(main)/jit(_normal)/jit(_normal_real)/erf_inv" source_file="/global/homes/j/jackm/software/lorrax_C/src/solvers/lanczos.py" source_line=247}
  %select.214 = f64[1024]{0} select(%compare.58, %add.571, %select.213), sharding={devices=[2,2]<=[4] last_tile_dim_replicate}, metadata={op_name="jit(_full_run)/jit(main)/jit(_normal)/jit(_normal_real)/erf_inv" source_file="/global/homes/j/jackm/software/lorrax_C/src/solvers/lanczos.py" source_line=247}
  %multiply.125 = f64[1024]{0} multiply(%select.214, %select.210), sharding={devices=[2,2]<=[4] last_tile_dim_replicate}, metadata={op_name="jit(_full_run)/jit(main)/jit(_normal)/jit(_normal_real)/erf_inv" source_file="/global/homes/j/jackm/software/lorrax_C/src/solvers/lanczos.py" source_line=247}
  %constant.659 = f64[] constant(0.24015818242558962), sharding={replicated}
  %broadcast.805 = f64[1024]{0} broadcast(%constant.659), dimensions={}, sharding={devices=[2,2]<=[4] last_tile_dim_replicate}
  %add.572 = f64[1024]{0} add(%multiply.125, %broadcast.805), sharding={devices=[2,2]<=[4] last_tile_dim_replicate}, metadata={op_name="jit(_full_run)/jit(main)/jit(_normal)/jit(_normal_real)/erf_inv" source_file="/global/homes/j/jackm/software/lorrax_C/src/solvers/lanczos.py" source_line=247}
  %select.215 = f64[1024]{0} select(%compare.58, %add.572, %select.214), sharding={devices=[2,2]<=[4] last_tile_dim_replicate}, metadata={op_name="jit(_full_run)/jit(main)/jit(_normal)/jit(_normal_real)/erf_inv" source_file="/global/homes/j/jackm/software/lorrax_C/src/solvers/lanczos.py" source_line=247}
  %multiply.126 = f64[1024]{0} multiply(%select.215, %select.210), sharding={devices=[2,2]<=[4] last_tile_dim_replicate}, metadata={op_name="jit(_full_run)/jit(main)/jit(_normal)/jit(_normal_real)/erf_inv" source_file="/global/homes/j/jackm/software/lorrax_C/src/solvers/lanczos.py" source_line=247}
  %constant.660 = f64[] constant(1.6536545626831027), sharding={replicated}
  %broadcast.806 = f64[1024]{0} broadcast(%constant.660), dimensions={}, sharding={devices=[2,2]<=[4] last_tile_dim_replicate}
  %add.573 = f64[1024]{0} add(%multiply.126, %broadcast.806), sharding={devices=[2,2]<=[4] last_tile_dim_replicate}, metadata={op_name="jit(_full_run)/jit(main)/jit(_normal)/jit(_normal_real)/erf_inv" source_file="/global/homes/j/jackm/software/lorrax_C/src/solvers/lanczos.py" source_line=247}
  %select.216 = f64[1024]{0} select(%compare.58, %add.573, %select.215), sharding={devices=[2,2]<=[4] last_tile_dim_replicate}, metadata={op_name="jit(_full_run)/jit(main)/jit(_normal)/jit(_normal_real)/erf_inv" source_file="/global/homes/j/jackm/software/lorrax_C/src/solvers/lanczos.py" source_line=247}
  %multiply.127 = f64[1024]{0} multiply(%select.216, %maximum.8), sharding={devices=[2,2]<=[4] last_tile_dim_replicate}, metadata={op_name="jit(_full_run)/jit(main)/jit(_normal)/jit(_normal_real)/erf_inv" source_file="/global/homes/j/jackm/software/lorrax_C/src/solvers/lanczos.py" source_line=247}
  %select.217 = f64[1024]{0} select(%compare.57, %multiply.103, %multiply.127), sharding={devices=[2,2]<=[4] last_tile_dim_replicate}, metadata={op_name="jit(_full_run)/jit(main)/jit(_normal)/jit(_normal_real)/erf_inv" source_file="/global/homes/j/jackm/software/lorrax_C/src/solvers/lanczos.py" source_line=247}
  %constant.661 = f64[] constant(1.4142135623730951), sharding={replicated}
  %broadcast.807 = f64[1024]{0} broadcast(%constant.661), dimensions={}, sharding={devices=[2,2]<=[4] last_tile_dim_replicate}
  %multiply.128 = f64[1024]{0} multiply(%select.217, %broadcast.807), sharding={devices=[2,2]<=[4] last_tile_dim_replicate}, metadata={op_name="jit(_full_run)/jit(main)/jit(_normal)/jit(_normal_real)/mul" source_file="/global/homes/j/jackm/software/lorrax_C/src/solvers/lanczos.py" source_line=247}
  %convert.1144 = c128[1024]{0} convert(%multiply.128), sharding={devices=[2,2]<=[4] last_tile_dim_replicate}, metadata={op_name="jit(_full_run)/jit(main)/convert_element_type" source_file="/global/homes/j/jackm/software/lorrax_C/src/solvers/lanczos.py" source_line=248}
  %constant.20 = c128[] constant((0, 1)), sharding={replicated}
  %broadcast.21 = c128[1024]{0} broadcast(%constant.20), dimensions={}, sharding={devices=[2,2]<=[4] last_tile_dim_replicate}
  %multiply.1145 = c128[1024]{0} multiply(%convert.1144, %broadcast.21), sharding={devices=[2,2]<=[4] last_tile_dim_replicate}, metadata={op_name="jit(_full_run)/jit(main)/mul" source_file="/global/homes/j/jackm/software/lorrax_C/src/solvers/lanczos.py" source_line=248}
  %add.1147 = c128[1024]{0} add(%convert.1146, %multiply.1145), sharding={devices=[2,2]<=[4] last_tile_dim_replicate}, metadata={op_name="jit(_full_run)/jit(main)/add" source_file="/global/homes/j/jackm/software/lorrax_C/src/solvers/lanczos.py" source_line=248}
  %real.17 = f64[1024]{0} real(%add.1147), sharding={devices=[2,2]<=[4] last_tile_dim_replicate}, metadata={op_name="jit(_full_run)/jit(main)/jit(norm)/real" source_file="/global/homes/j/jackm/software/lorrax_C/src/solvers/lanczos.py" source_line=249}
  %imag.14 = f64[1024]{0} imag(%add.1147), sharding={devices=[2,2]<=[4] last_tile_dim_replicate}, metadata={op_name="jit(_full_run)/jit(main)/jit(norm)/imag" source_file="/global/homes/j/jackm/software/lorrax_C/src/solvers/lanczos.py" source_line=249}
  %negate.22 = f64[1024]{0} negate(%imag.14), sharding={devices=[2,2]<=[4] last_tile_dim_replicate}, metadata={op_name="jit(_full_run)/jit(main)/jit(norm)/neg" source_file="/global/homes/j/jackm/software/lorrax_C/src/solvers/lanczos.py" source_line=249}
  %complex.14 = c128[1024]{0} complex(%real.17, %negate.22), sharding={devices=[2,2]<=[4] last_tile_dim_replicate}, metadata={op_name="jit(_full_run)/jit(main)/jit(norm)/complex" source_file="/global/homes/j/jackm/software/lorrax_C/src/solvers/lanczos.py" source_line=249}
  %multiply.129 = c128[1024]{0} multiply(%add.1147, %complex.14), sharding={devices=[2,2]<=[4] last_tile_dim_replicate}, metadata={op_name="jit(_full_run)/jit(main)/jit(norm)/mul" source_file="/global/homes/j/jackm/software/lorrax_C/src/solvers/lanczos.py" source_line=249}
  %real.18 = f64[1024]{0} real(%multiply.129), sharding={devices=[2,2]<=[4] last_tile_dim_replicate}, metadata={op_name="jit(_full_run)/jit(main)/jit(norm)/real" source_file="/global/homes/j/jackm/software/lorrax_C/src/solvers/lanczos.py" source_line=249}
  %constant.662 = f64[] constant(0)
  %reduce.3 = f64[] reduce(%real.18, %constant.662), dimensions={0}, to_apply=%region_0.1148, sharding={replicated}, metadata={op_name="jit(_full_run)/jit(main)/jit(norm)/reduce_sum" source_file="/global/homes/j/jackm/software/lorrax_C/src/solvers/lanczos.py" source_line=249}
  %sqrt.6 = f64[] sqrt(%reduce.3), sharding={replicated}, metadata={op_name="jit(_full_run)/jit(main)/jit(norm)/sqrt" source_file="/global/homes/j/jackm/software/lorrax_C/src/solvers/lanczos.py" source_line=249}
  %convert.1164 = c128[] convert(%sqrt.6), sharding={replicated}, metadata={op_name="jit(_full_run)/jit(main)/convert_element_type" source_file="/global/homes/j/jackm/software/lorrax_C/src/solvers/lanczos.py" source_line=249}
  %broadcast.1165 = c128[1024]{0} broadcast(%convert.1164), dimensions={}, sharding={devices=[2,2]<=[4] last_tile_dim_replicate}, metadata={op_name="jit(_full_run)/jit(main)/div" source_file="/global/homes/j/jackm/software/lorrax_C/src/solvers/lanczos.py" source_line=249}
  %divide.1166 = c128[1024]{0} divide(%add.1147, %broadcast.1165), sharding={devices=[2,2]<=[4] last_tile_dim_replicate}, metadata={op_name="jit(_full_run)/jit(main)/div" source_file="/global/homes/j/jackm/software/lorrax_C/src/solvers/lanczos.py" source_line=249}
  %constant.1241 = c128[] constant((0, 0)), sharding={replicated}
  %broadcast.1099 = c128[1024]{0} broadcast(%constant.1241), dimensions={}, sharding={devices=[2,2]<=[4] last_tile_dim_replicate}
  %select.275 = c128[1024]{0} select(%broadcast.1097, %divide.1166, %broadcast.1099), sharding={devices=[2,2]<=[4] last_tile_dim_replicate}
  %reshape.433 = c128[1024,1]{1,0} reshape(%select.275), sharding={devices=[2,1,2]<=[4] last_tile_dim_replicate}
  %constant.1240 = c128[] constant((0, 0))
  %pad.16 = c128[1024,200]{1,0} pad(%reshape.433, %constant.1240), padding=0_0x0_199, sharding={devices=[2,1,2]<=[4] last_tile_dim_replicate}, metadata={op_name="jit(_full_run)/jit(main)/scatter" source_file="/global/homes/j/jackm/software/lorrax_C/src/solvers/lanczos.py" source_line=252}
  %constant.15 = f64[] constant(0), sharding={replicated}
  %broadcast.16 = f64[200]{0} broadcast(%constant.15), dimensions={}, sharding={replicated}
  %Arg_0.1 = c128[64,4,2,480]{3,2,1,0} parameter(0), sharding={devices=[1,1,1,2,2]<=[4] last_tile_dim_replicate}, metadata={op_name="psi_c_X"}
  %Arg_1.2 = c128[64,4,2,480]{3,2,1,0} parameter(1), sharding={devices=[1,1,1,2,2]<=[2,2]T(1,0) last_tile_dim_replicate}, metadata={op_name="psi_c_Y"}
  %Arg_2.3 = c128[64,4,2,480]{3,2,1,0} parameter(2), sharding={devices=[1,1,1,2,2]<=[4] last_tile_dim_replicate}, metadata={op_name="psi_v_X"}
  %Arg_3.4 = c128[64,4,2,480]{3,2,1,0} parameter(3), sharding={devices=[1,1,1,2,2]<=[2,2]T(1,0) last_tile_dim_replicate}, metadata={op_name="psi_v_Y"}
  %Arg_4.5 = f64[64,4]{1,0} parameter(4), sharding={replicated}, metadata={op_name="eps_c"}
  %Arg_5.6 = f64[64,4]{1,0} parameter(5), sharding={replicated}, metadata={op_name="eps_v"}
  %Arg_6.7 = c128[480,480,4,4,4]{4,3,2,1,0} parameter(6), sharding={devices=[2,2,1,1,1]<=[4]}, metadata={op_name="W_q"}
  %custom-call.26 = c128[480,480,4,4,4]{4,3,2,1,0} custom-call(%Arg_6.7), custom_call_target="CustomSPMDPartitioning", api_version=API_VERSION_STATUS_RETURNING, sharding={devices=[2,2,1,1,1]<=[4]}, metadata={op_name="jit(_full_run)/jit(main)/custom_partitioning" source_file="/global/homes/j/jackm/software/lorrax_C/src/common/fft_helpers.py" source_line=259}, backend_config="140658708952032"
  %custom-call.27 = c128[480,480,4,4,4]{4,3,2,1,0} custom-call(%custom-call.26), custom_call_target="CustomSPMDPartitioning", api_version=API_VERSION_STATUS_RETURNING, sharding={devices=[2,2,1,1,1]<=[4]}, metadata={op_name="jit(_full_run)/jit(main)/custom_partitioning" source_file="/global/homes/j/jackm/software/lorrax_C/src/common/fft_helpers.py" source_line=259}, backend_config="140658709590528"
  %custom-call.28 = c128[480,480,4,4,4]{4,3,2,1,0} custom-call(%custom-call.27), custom_call_target="CustomSPMDPartitioning", api_version=API_VERSION_STATUS_RETURNING, sharding={devices=[2,2,1,1,1]<=[4]}, metadata={op_name="jit(_full_run)/jit(main)/custom_partitioning" source_file="/global/homes/j/jackm/software/lorrax_C/src/common/fft_helpers.py" source_line=259}, backend_config="140658709591392"
  %Arg_7.8 = c128[480,480]{1,0} parameter(7), sharding={devices=[2,2]<=[4]}, metadata={op_name="V_q0"}
  %tuple.107 = (s64[], c128[1024,200]{1,0}, f64[200]{0}, f64[200]{0}, c128[1024]{0}, /*index=5*/c128[64,4,2,480]{3,2,1,0}, c128[64,4,2,480]{3,2,1,0}, c128[64,4,2,480]{3,2,1,0}, c128[64,4,2,480]{3,2,1,0}, f64[64,4]{1,0}, /*index=10*/f64[64,4]{1,0}, c128[480,480,4,4,4]{4,3,2,1,0}, c128[480,480]{1,0}) tuple(%constant.23, %pad.16, %broadcast.16, %broadcast.16, %divide.1166, /*index=5*/%Arg_0.1, %Arg_1.2, %Arg_2.3, %Arg_3.4, %Arg_4.5, /*index=10*/%Arg_5.6, %custom-call.28, %Arg_7.8), sharding={{replicated}, {devices=[2,1,2]<=[4] last_tile_dim_replicate}, {replicated}, {replicated}, {devices=[2,2]<=[4] last_tile_dim_replicate}, /*index=5*/{devices=[1,1,1,2,2]<=[4] last_tile_dim_replicate}, {devices=[1,1,1,2,2]<=[2,2]T(1,0) last_tile_dim_replicate}, {devices=[1,1,1,2,2]<=[4] last_tile_dim_replicate}, {devices=[1,1,1,2,2]<=[2,2]T(1,0) last_tile_dim_replicate}, {replicated}, /*index=10*/{replicated}, {devices=[2,2,1,1,1]<=[4]}, {devices=[2,2]<=[4]}}
  %while.36 = (s64[], c128[1024,200]{1,0}, f64[200]{0}, f64[200]{0}, c128[1024]{0}, /*index=5*/c128[64,4,2,480]{3,2,1,0}, c128[64,4,2,480]{3,2,1,0}, c128[64,4,2,480]{3,2,1,0}, c128[64,4,2,480]{3,2,1,0}, f64[64,4]{1,0}, /*index=10*/f64[64,4]{1,0}, c128[480,480,4,4,4]{4,3,2,1,0}, c128[480,480]{1,0}) while(%tuple.107), condition=%region_20.1836.clone.clone, body=%region_2.1811.clone.clone.clone, sharding={{replicated}, {devices=[2,1,2]<=[4] last_tile_dim_replicate}, {replicated}, {replicated}, {devices=[2,2]<=[4] last_tile_dim_replicate}, /*index=5*/{devices=[1,1,1,2,2]<=[4] last_tile_dim_replicate}, {devices=[1,1,1,2,2]<=[2,2]T(1,0) last_tile_dim_replicate}, {devices=[1,1,1,2,2]<=[4] last_tile_dim_replicate}, {devices=[1,1,1,2,2]<=[2,2]T(1,0) last_tile_dim_replicate}, {replicated}, /*index=10*/{replicated}, {devices=[2,2,1,1,1]<=[4]}, {devices=[2,2]<=[4]}}, metadata={op_name="jit(_full_run)/jit(main)/while" source_file="/global/homes/j/jackm/software/lorrax_C/src/solvers/lanczos.py" source_line=286}
  %get-tuple-element.1858 = f64[200]{0} get-tuple-element(%while.36), index=2, sharding={replicated}, metadata={op_name="jit(_full_run)/jit(main)/while" source_file="/global/homes/j/jackm/software/lorrax_C/src/solvers/lanczos.py" source_line=286}
  %broadcast.810 = f64[200,200]{1,0} broadcast(%get-tuple-element.1858), dimensions={1}, metadata={op_name="jit(_full_run)/jit(main)/jit(_diag)/jit(_where)/broadcast_in_dim" source_file="/global/homes/j/jackm/software/lorrax_C/src/solvers/lanczos.py" source_line=288}
  %constant.663 = f64[] constant(0)
  %broadcast.812 = f64[200,200]{1,0} broadcast(%constant.663), dimensions={}, metadata={op_name="jit(_full_run)/jit(main)/jit(_diag)/jit(_where)/broadcast_in_dim" source_file="/global/homes/j/jackm/software/lorrax_C/src/solvers/lanczos.py" source_line=288}
  %select.218 = f64[200,200]{1,0} select(%compare.60, %broadcast.810, %broadcast.812), metadata={op_name="jit(_full_run)/jit(main)/jit(_diag)/jit(_where)/select_n" source_file="/global/homes/j/jackm/software/lorrax_C/src/solvers/lanczos.py" source_line=288}
  %iota.9 = s64[200]{0} iota(), iota_dimension=0, metadata={op_name="jit(_full_run)/jit(main)/jit(_diag)/iota" source_file="/global/homes/j/jackm/software/lorrax_C/src/solvers/lanczos.py" source_line=290}
  %constant.664 = s64[] constant(1)
  %broadcast.844 = s64[200]{0} broadcast(%constant.664), dimensions={}
  %add.585 = s64[200]{0} add(%iota.9, %broadcast.844), metadata={op_name="jit(_full_run)/jit(main)/jit(_diag)/add" source_file="/global/homes/j/jackm/software/lorrax_C/src/solvers/lanczos.py" source_line=290}
  %broadcast.845 = s64[200,200]{1,0} broadcast(%add.585), dimensions={0}, metadata={op_name="jit(_full_run)/jit(main)/jit(_diag)/iota" source_file="/global/homes/j/jackm/software/lorrax_C/src/solvers/lanczos.py" source_line=290}
  %iota.16 = s64[200,200]{1,0} iota(), iota_dimension=1, metadata={op_name="jit(_full_run)/jit(main)/jit(_diag)/iota" source_file="/global/homes/j/jackm/software/lorrax_C/src/solvers/lanczos.py" source_line=290}
  %compare.61 = pred[200,200]{1,0} compare(%broadcast.845, %iota.16), direction=EQ, metadata={op_name="jit(_full_run)/jit(main)/jit(_diag)/eq" source_file="/global/homes/j/jackm/software/lorrax_C/src/solvers/lanczos.py" source_line=290}
  %get-tuple-element.1859 = f64[200]{0} get-tuple-element(%while.36), index=3, sharding={replicated}, metadata={op_name="jit(_full_run)/jit(main)/while" source_file="/global/homes/j/jackm/software/lorrax_C/src/solvers/lanczos.py" source_line=286}
  %slice.1879 = f64[199]{0} slice(%get-tuple-element.1859), slice={[0:199]}, sharding={replicated}, metadata={op_name="jit(_full_run)/jit(main)/slice" source_file="/global/homes/j/jackm/software/lorrax_C/src/solvers/lanczos.py" source_line=289}
  %constant.665 = f64[] constant(0)
  %pad.0 = f64[200]{0} pad(%slice.1879, %constant.665), padding=1_0, sharding={replicated}, metadata={op_name="jit(_full_run)/jit(main)/jit(_diag)/pad" source_file="/global/homes/j/jackm/software/lorrax_C/src/solvers/lanczos.py" source_line=290}
  %broadcast.816 = f64[200,200]{1,0} broadcast(%pad.0), dimensions={1}, metadata={op_name="jit(_full_run)/jit(main)/jit(_diag)/jit(_where)/broadcast_in_dim" source_file="/global/homes/j/jackm/software/lorrax_C/src/solvers/lanczos.py" source_line=288}
  %constant.666 = f64[] constant(0)
  %broadcast.818 = f64[200,200]{1,0} broadcast(%constant.666), dimensions={}, metadata={op_name="jit(_full_run)/jit(main)/jit(_diag)/jit(_where)/broadcast_in_dim" source_file="/global/homes/j/jackm/software/lorrax_C/src/solvers/lanczos.py" source_line=288}
  %select.219 = f64[200,200]{1,0} select(%compare.61, %broadcast.816, %broadcast.818), metadata={op_name="jit(_full_run)/jit(main)/jit(_diag)/jit(_where)/select_n" source_file="/global/homes/j/jackm/software/lorrax_C/src/solvers/lanczos.py" source_line=288}
  %add.1903 = f64[200,200]{1,0} add(%select.218, %select.219), metadata={op_name="jit(_full_run)/jit(main)/add" source_file="/global/homes/j/jackm/software/lorrax_C/src/solvers/lanczos.py" source_line=290}
  %iota.11 = s64[200]{0} iota(), iota_dimension=0, metadata={op_name="jit(_full_run)/jit(main)/jit(_diag)/iota" source_file="/global/homes/j/jackm/software/lorrax_C/src/solvers/lanczos.py" source_line=290}
  %constant.667 = s64[] constant(-1)
  %broadcast.849 = s64[200]{0} broadcast(%constant.667), dimensions={}
  %add.586 = s64[200]{0} add(%iota.11, %broadcast.849), metadata={op_name="jit(_full_run)/jit(main)/jit(_diag)/add" source_file="/global/homes/j/jackm/software/lorrax_C/src/solvers/lanczos.py" source_line=290}
  %broadcast.850 = s64[200,200]{1,0} broadcast(%add.586), dimensions={0}, metadata={op_name="jit(_full_run)/jit(main)/jit(_diag)/iota" source_file="/global/homes/j/jackm/software/lorrax_C/src/solvers/lanczos.py" source_line=290}
  %iota.17 = s64[200,200]{1,0} iota(), iota_dimension=1, metadata={op_name="jit(_full_run)/jit(main)/jit(_diag)/iota" source_file="/global/homes/j/jackm/software/lorrax_C/src/solvers/lanczos.py" source_line=290}
  %compare.62 = pred[200,200]{1,0} compare(%broadcast.850, %iota.17), direction=EQ, metadata={op_name="jit(_full_run)/jit(main)/jit(_diag)/eq" source_file="/global/homes/j/jackm/software/lorrax_C/src/solvers/lanczos.py" source_line=290}
  %constant.668 = f64[] constant(0)
  %pad.1 = f64[200]{0} pad(%slice.1879, %constant.668), padding=0_1, sharding={replicated}, metadata={op_name="jit(_full_run)/jit(main)/jit(_diag)/pad" source_file="/global/homes/j/jackm/software/lorrax_C/src/solvers/lanczos.py" source_line=290}
  %broadcast.824 = f64[200,200]{1,0} broadcast(%pad.1), dimensions={1}, metadata={op_name="jit(_full_run)/jit(main)/jit(_diag)/jit(_where)/broadcast_in_dim" source_file="/global/homes/j/jackm/software/lorrax_C/src/solvers/lanczos.py" source_line=288}
  %constant.669 = f64[] constant(0)
  %broadcast.826 = f64[200,200]{1,0} broadcast(%constant.669), dimensions={}, metadata={op_name="jit(_full_run)/jit(main)/jit(_diag)/jit(_where)/broadcast_in_dim" source_file="/global/homes/j/jackm/software/lorrax_C/src/solvers/lanczos.py" source_line=288}
  %select.220 = f64[200,200]{1,0} select(%compare.62, %broadcast.824, %broadcast.826), metadata={op_name="jit(_full_run)/jit(main)/jit(_diag)/jit(_where)/select_n" source_file="/global/homes/j/jackm/software/lorrax_C/src/solvers/lanczos.py" source_line=288}
  %add.1927 = f64[200,200]{1,0} add(%add.1903, %select.220), metadata={op_name="jit(_full_run)/jit(main)/add" source_file="/global/homes/j/jackm/software/lorrax_C/src/solvers/lanczos.py" source_line=290}
  %transpose.24 = f64[200,200]{0,1} transpose(%add.1927), dimensions={1,0}, metadata={op_name="jit(_full_run)/jit(main)/jit(eigh)/transpose" source_file="/global/homes/j/jackm/software/lorrax_C/src/solvers/lanczos.py" source_line=292}
  %add.576 = f64[200,200]{1,0} add(%add.1927, %transpose.24), metadata={op_name="jit(_full_run)/jit(main)/jit(eigh)/add" source_file="/global/homes/j/jackm/software/lorrax_C/src/solvers/lanczos.py" source_line=292}
  %constant.688 = f64[] constant(0.5)
  %broadcast.852 = f64[200,200]{1,0} broadcast(%constant.688), dimensions={}
  %multiply.134 = f64[200,200]{1,0} multiply(%add.576, %broadcast.852), metadata={op_name="jit(_full_run)/jit(main)/jit(eigh)/div" source_file="/global/homes/j/jackm/software/lorrax_C/src/solvers/lanczos.py" source_line=292}
  %custom-call.113 = (f64[200,200]{0,1}, f64[200]{0}, s32[]) custom-call(%multiply.134), custom_call_target="cusolver_syevd_ffi", operand_layout_constraints={f64[200,200]{0,1}}, output_to_operand_aliasing={{0}: (0, {})}, api_version=API_VERSION_TYPED_FFI, sharding={{replicated}, {replicated}, {replicated}}, frontend_attributes={num_batch_dims="0"}, metadata={op_name="jit(_full_run)/jit(main)/jit(eigh)/eigh" source_file="/global/homes/j/jackm/software/lorrax_C/src/solvers/lanczos.py" source_line=292}, backend_config={algorithm = 0 : ui8, lower = true}
  %get-tuple-element.61 = s32[] get-tuple-element(%custom-call.113), index=2, sharding={replicated}, frontend_attributes={num_batch_dims="0"}, metadata={op_name="jit(_full_run)/jit(main)/jit(eigh)/eigh" source_file="/global/homes/j/jackm/software/lorrax_C/src/solvers/lanczos.py" source_line=292}
  %constant.671 = s32[] constant(0), sharding={replicated}
  %compare.63 = pred[] compare(%get-tuple-element.61, %constant.671), direction=EQ, sharding={replicated}, metadata={op_name="jit(_full_run)/jit(main)/jit(eigh)/eigh" source_file="/global/homes/j/jackm/software/lorrax_C/src/solvers/lanczos.py" source_line=292}
  %broadcast.829 = pred[200]{0} broadcast(%compare.63), dimensions={}, sharding={replicated}, metadata={op_name="jit(_full_run)/jit(main)/jit(eigh)/eigh" source_file="/global/homes/j/jackm/software/lorrax_C/src/solvers/lanczos.py" source_line=292}
  %get-tuple-element.62 = f64[200]{0} get-tuple-element(%custom-call.113), index=1, sharding={replicated}, frontend_attributes={num_batch_dims="0"}, metadata={op_name="jit(_full_run)/jit(main)/jit(eigh)/eigh" source_file="/global/homes/j/jackm/software/lorrax_C/src/solvers/lanczos.py" source_line=292}
  %constant.672 = f64[] constant(nan), sharding={replicated}
  %broadcast.830 = f64[200]{0} broadcast(%constant.672), dimensions={}, sharding={replicated}
  %select.221 = f64[200]{0} select(%broadcast.829, %get-tuple-element.62, %broadcast.830), sharding={replicated}, metadata={op_name="jit(_full_run)/jit(main)/jit(eigh)/eigh" source_file="/global/homes/j/jackm/software/lorrax_C/src/solvers/lanczos.py" source_line=292}
  %iota.13 = s64[200]{0} iota(), iota_dimension=0, sharding={replicated}, metadata={op_name="jit(_full_run)/jit(main)/jit(argsort)/iota" source_file="/global/homes/j/jackm/software/lorrax_C/src/solvers/lanczos.py" source_line=293}
  %sort.0 = (f64[200]{0}, s64[200]{0}) sort(%select.221, %iota.13), dimensions={0}, is_stable=true, to_apply=%region_21.1959, sharding={{replicated}, {replicated}}, metadata={op_name="jit(_full_run)/jit(main)/jit(argsort)/sort" source_file="/global/homes/j/jackm/software/lorrax_C/src/solvers/lanczos.py" source_line=293}
  %get-tuple-element.65 = s64[200]{0} get-tuple-element(%sort.0), index=1, sharding={replicated}, metadata={op_name="jit(_full_run)/jit(main)/jit(argsort)/sort" source_file="/global/homes/j/jackm/software/lorrax_C/src/solvers/lanczos.py" source_line=293}
  %slice.1982 = s64[20]{0} slice(%get-tuple-element.65), slice={[0:20]}, sharding={replicated}, metadata={op_name="jit(_full_run)/jit(main)/slice" source_file="/global/homes/j/jackm/software/lorrax_C/src/solvers/lanczos.py" source_line=293}
  %constant.13 = s64[] constant(0), sharding={replicated}
  %broadcast.14 = s64[20]{0} broadcast(%constant.13), dimensions={}, sharding={replicated}
  %compare.1983 = pred[20]{0} compare(%slice.1982, %broadcast.14), direction=LT, sharding={replicated}, metadata={op_name="jit(_full_run)/jit(main)/lt" source_file="/global/homes/j/jackm/software/lorrax_C/src/solvers/lanczos.py" source_line=294}
  %constant.11 = s64[] constant(200), sharding={replicated}
  %broadcast.12 = s64[20]{0} broadcast(%constant.11), dimensions={}, sharding={replicated}
  %add.1984 = s64[20]{0} add(%slice.1982, %broadcast.12), sharding={replicated}, metadata={op_name="jit(_full_run)/jit(main)/add" source_file="/global/homes/j/jackm/software/lorrax_C/src/solvers/lanczos.py" source_line=294}
  %select.1985 = s64[20]{0} select(%compare.1983, %add.1984, %slice.1982), sharding={replicated}, metadata={op_name="jit(_full_run)/jit(main)/select_n" source_file="/global/homes/j/jackm/software/lorrax_C/src/solvers/lanczos.py" source_line=294}
  %convert.1986 = s32[20]{0} convert(%select.1985), sharding={replicated}, metadata={op_name="jit(_full_run)/jit(main)/convert_element_type" source_file="/global/homes/j/jackm/software/lorrax_C/src/solvers/lanczos.py" source_line=294}
  %reshape.1987 = s32[20,1]{1,0} reshape(%convert.1986), sharding={replicated}, metadata={op_name="jit(_full_run)/jit(main)/broadcast_in_dim" source_file="/global/homes/j/jackm/software/lorrax_C/src/solvers/lanczos.py" source_line=294}
  %gather.1988 = f64[20]{0} gather(%select.221, %reshape.1987), offset_dims={}, collapsed_slice_dims={0}, start_index_map={0}, index_vector_dim=1, slice_sizes={1}, sharding={replicated}, metadata={op_name="jit(_full_run)/jit(main)/gather" source_file="/global/homes/j/jackm/software/lorrax_C/src/solvers/lanczos.py" source_line=294}
  %broadcast.832 = pred[200,200]{1,0} broadcast(%compare.63), dimensions={}, sharding={replicated}, metadata={op_name="jit(_full_run)/jit(main)/jit(eigh)/eigh" source_file="/global/homes/j/jackm/software/lorrax_C/src/solvers/lanczos.py" source_line=292}
  %get-tuple-element.63 = f64[200,200]{0,1} get-tuple-element(%custom-call.113), index=0, sharding={replicated}, frontend_attributes={num_batch_dims="0"}, metadata={op_name="jit(_full_run)/jit(main)/jit(eigh)/eigh" source_file="/global/homes/j/jackm/software/lorrax_C/src/solvers/lanczos.py" source_line=292}
  %constant.673 = f64[] constant(nan), sharding={replicated}
  %broadcast.833 = f64[200,200]{1,0} broadcast(%constant.673), dimensions={}, sharding={replicated}
  %select.222 = f64[200,200]{1,0} select(%broadcast.832, %get-tuple-element.63, %broadcast.833), sharding={replicated}, metadata={op_name="jit(_full_run)/jit(main)/jit(eigh)/eigh" source_file="/global/homes/j/jackm/software/lorrax_C/src/solvers/lanczos.py" source_line=292}
  %compare.1989 = pred[20]{0} compare(%slice.1982, %broadcast.14), direction=LT, sharding={replicated}, metadata={op_name="jit(_full_run)/jit(main)/lt" source_file="/global/homes/j/jackm/software/lorrax_C/src/solvers/lanczos.py" source_line=296}
  %add.1990 = s64[20]{0} add(%slice.1982, %broadcast.12), sharding={replicated}, metadata={op_name="jit(_full_run)/jit(main)/add" source_file="/global/homes/j/jackm/software/lorrax_C/src/solvers/lanczos.py" source_line=296}
  %select.1991 = s64[20]{0} select(%compare.1989, %add.1990, %slice.1982), sharding={replicated}, metadata={op_name="jit(_full_run)/jit(main)/select_n" source_file="/global/homes/j/jackm/software/lorrax_C/src/solvers/lanczos.py" source_line=296}
  %convert.1992 = s32[20]{0} convert(%select.1991), sharding={replicated}, metadata={op_name="jit(_full_run)/jit(main)/convert_element_type" source_file="/global/homes/j/jackm/software/lorrax_C/src/solvers/lanczos.py" source_line=296}
  %reshape.1993 = s32[20,1]{1,0} reshape(%convert.1992), sharding={replicated}, metadata={op_name="jit(_full_run)/jit(main)/broadcast_in_dim" source_file="/global/homes/j/jackm/software/lorrax_C/src/solvers/lanczos.py" source_line=296}
  %gather.1994 = f64[200,20]{1,0} gather(%select.222, %reshape.1993), offset_dims={0}, collapsed_slice_dims={1}, start_index_map={1}, index_vector_dim=1, slice_sizes={200,1}, sharding={replicated}, metadata={op_name="jit(_full_run)/jit(main)/gather" source_file="/global/homes/j/jackm/software/lorrax_C/src/solvers/lanczos.py" source_line=296}
  %convert.1995 = c128[200,20]{1,0} convert(%gather.1994), sharding={replicated}, metadata={op_name="jit(_full_run)/jit(main)/dot_general" source_file="/global/homes/j/jackm/software/lorrax_C/src/solvers/lanczos.py" source_line=296}
  %get-tuple-element.1857 = c128[1024,200]{1,0} get-tuple-element(%while.36), index=1, sharding={devices=[2,1,2]<=[4] last_tile_dim_replicate}, metadata={op_name="jit(_full_run)/jit(main)/while" source_file="/global/homes/j/jackm/software/lorrax_C/src/solvers/lanczos.py" source_line=286}
  %dot.27 = c128[20,1024]{0,1} dot(%convert.1995, %get-tuple-element.1857), lhs_contracting_dims={0}, rhs_contracting_dims={1}, sharding={devices=[1,2,2]<=[4] last_tile_dim_replicate}, metadata={op_name="jit(_full_run)/jit(main)/transpose" source_file="/global/homes/j/jackm/software/lorrax_C/src/solvers/lanczos.py" source_line=296}
  %real.19 = f64[20,1024]{1,0} real(%dot.27), sharding={devices=[1,2,2]<=[4] last_tile_dim_replicate}, metadata={op_name="jit(_full_run)/jit(main)/jit(norm)/real" source_file="/global/homes/j/jackm/software/lorrax_C/src/solvers/lanczos.py" source_line=297}
  %imag.15 = f64[20,1024]{1,0} imag(%dot.27), sharding={devices=[1,2,2]<=[4] last_tile_dim_replicate}, metadata={op_name="jit(_full_run)/jit(main)/jit(norm)/imag" source_file="/global/homes/j/jackm/software/lorrax_C/src/solvers/lanczos.py" source_line=297}
  %negate.23 = f64[20,1024]{1,0} negate(%imag.15), sharding={devices=[1,2,2]<=[4] last_tile_dim_replicate}, metadata={op_name="jit(_full_run)/jit(main)/jit(norm)/neg" source_file="/global/homes/j/jackm/software/lorrax_C/src/solvers/lanczos.py" source_line=297}
  %complex.15 = c128[20,1024]{1,0} complex(%real.19, %negate.23), sharding={devices=[1,2,2]<=[4] last_tile_dim_replicate}, metadata={op_name="jit(_full_run)/jit(main)/jit(norm)/complex" source_file="/global/homes/j/jackm/software/lorrax_C/src/solvers/lanczos.py" source_line=297}
  %multiply.130 = c128[20,1024]{1,0} multiply(%dot.27, %complex.15), sharding={devices=[1,2,2]<=[4] last_tile_dim_replicate}, metadata={op_name="jit(_full_run)/jit(main)/jit(norm)/mul" source_file="/global/homes/j/jackm/software/lorrax_C/src/solvers/lanczos.py" source_line=297}
  %real.20 = f64[20,1024]{1,0} real(%multiply.130), sharding={devices=[1,2,2]<=[4] last_tile_dim_replicate}, metadata={op_name="jit(_full_run)/jit(main)/jit(norm)/real" source_file="/global/homes/j/jackm/software/lorrax_C/src/solvers/lanczos.py" source_line=297}
  %constant.674 = f64[] constant(0)
  %reduce.4 = f64[20]{0} reduce(%real.20, %constant.674), dimensions={1}, to_apply=%region_22.1998, sharding={replicated}, metadata={op_name="jit(_full_run)/jit(main)/jit(norm)/reduce_sum" source_file="/global/homes/j/jackm/software/lorrax_C/src/solvers/lanczos.py" source_line=297}
  %sqrt.10 = f64[20]{0} sqrt(%reduce.4), sharding={replicated}, metadata={op_name="jit(_full_run)/jit(main)/jit(norm)/sqrt" source_file="/global/homes/j/jackm/software/lorrax_C/src/solvers/lanczos.py" source_line=297}
  %constant.9 = f64[] constant(1e-15), sharding={replicated}
  %broadcast.1101 = f64[20]{0} broadcast(%constant.9), dimensions={}, sharding={replicated}
  %maximum.15 = f64[20]{0} maximum(%sqrt.10, %broadcast.1101), sharding={replicated}, metadata={op_name="jit(_full_run)/jit(main)/max" source_file="/global/homes/j/jackm/software/lorrax_C/src/solvers/lanczos.py" source_line=298}
  %convert.120 = c128[20]{0} convert(%maximum.15), sharding={replicated}, metadata={op_name="jit(_full_run)/jit(main)/convert_element_type" source_file="/global/homes/j/jackm/software/lorrax_C/src/solvers/lanczos.py" source_line=298}
  %broadcast.2019 = c128[20,1024]{1,0} broadcast(%convert.120), dimensions={0}, sharding={replicated}, metadata={op_name="jit(_full_run)/jit(main)/div" source_file="/global/homes/j/jackm/software/lorrax_C/src/solvers/lanczos.py" source_line=298}
  %divide.2020 = c128[20,1024]{0,1} divide(%dot.27, %broadcast.2019), sharding={replicated}, metadata={op_name="jit(_full_run)/jit(main)/div" source_file="/global/homes/j/jackm/software/lorrax_C/src/solvers/lanczos.py" source_line=298}
  ROOT %tuple.2023 = (f64[20]{0}, c128[20,1024]{1,0}) tuple(%gather.1988, %divide.2020), sharding={{replicated}, {replicated}}
  %constant.415 = f64[] constant(-0.99999999999999989)
  %constant.569 = f64[] constant(-0.99999999999999989)
  %constant.1077 = u32[] constant(42), metadata={op_name="jit(_full_run)/jit(main)/jit(_threefry_split)/squeeze" source_file="/global/homes/j/jackm/software/lorrax_C/src/solvers/lanczos.py" source_line=245}
  %constant.1079 = u32[] constant(466689008), metadata={op_name="jit(_full_run)/jit(main)/jit(_threefry_split)/xor" source_file="/global/homes/j/jackm/software/lorrax_C/src/solvers/lanczos.py" source_line=245}
}

