HloModule jit__full_run, entry_computation_layout={(c128[64,4,2,480]{3,2,1,0}, c128[64,4,2,480]{3,2,1,0}, c128[64,4,2,480]{3,2,1,0}, c128[64,4,2,480]{3,2,1,0}, f64[64,4]{1,0}, /*index=5*/f64[64,4]{1,0}, c128[480,480,4,4,4]{4,3,2,1,0}, c128[480,480]{1,0})->(f64[20]{0}, c128[20,1024]{1,0})}, allow_spmd_sharding_propagation_to_parameters={false,false,false,false,false,false,false,false}, allow_spmd_sharding_propagation_to_output={false,false}, num_partitions=4

%threefry2x32.33 (Arg_0.34: u32[], Arg_1.35: u32[], Arg_2.36: u32[2], Arg_3.37: u32[2]) -> (u32[2], u32[2]) {
  %Arg_2.36 = u32[2]{0} parameter(2), metadata={op_name="jit(_full_run)/jit(main)/jit(_threefry_split)/threefry2x32"}
  %Arg_0.34 = u32[] parameter(0), metadata={op_name="jit(_full_run)/jit(main)/jit(_threefry_split)/threefry2x32"}
  %broadcast.71 = u32[2]{0} broadcast(%Arg_0.34), dimensions={}, metadata={op_name="jit(_full_run)/jit(main)/jit(_threefry_split)/add" source_file="/global/homes/j/jackm/software/lorrax_C/src/solvers/lanczos.py" source_line=245}
  %add.72 = u32[2]{0} add(%Arg_2.36, %broadcast.71), metadata={op_name="jit(_full_run)/jit(main)/jit(_threefry_split)/add" source_file="/global/homes/j/jackm/software/lorrax_C/src/solvers/lanczos.py" source_line=245}
  %Arg_3.37 = u32[2]{0} parameter(3), metadata={op_name="jit(_full_run)/jit(main)/jit(_threefry_split)/threefry2x32"}
  %Arg_1.35 = u32[] parameter(1), metadata={op_name="jit(_full_run)/jit(main)/jit(_threefry_split)/threefry2x32"}
  %broadcast.73 = u32[2]{0} broadcast(%Arg_1.35), dimensions={}, metadata={op_name="jit(_full_run)/jit(main)/jit(_threefry_split)/add" source_file="/global/homes/j/jackm/software/lorrax_C/src/solvers/lanczos.py" source_line=245}
  %add.74 = u32[2]{0} add(%Arg_3.37, %broadcast.73), metadata={op_name="jit(_full_run)/jit(main)/jit(_threefry_split)/add" source_file="/global/homes/j/jackm/software/lorrax_C/src/solvers/lanczos.py" source_line=245}
  %add.75 = u32[2]{0} add(%add.72, %add.74), metadata={op_name="jit(_full_run)/jit(main)/jit(_threefry_split)/add" source_file="/global/homes/j/jackm/software/lorrax_C/src/solvers/lanczos.py" source_line=245}
  %constant.66 = u32[] constant(13)
  %broadcast.67 = u32[2]{0} broadcast(%constant.66), dimensions={}
  %shift-left.76 = u32[2]{0} shift-left(%add.74, %broadcast.67), metadata={op_name="jit(_full_run)/jit(main)/jit(_threefry_split)/shift_left" source_file="/global/homes/j/jackm/software/lorrax_C/src/solvers/lanczos.py" source_line=245}
  %constant.64 = u32[] constant(19)
  %broadcast.65 = u32[2]{0} broadcast(%constant.64), dimensions={}
  %shift-right-logical.77 = u32[2]{0} shift-right-logical(%add.74, %broadcast.65), metadata={op_name="jit(_full_run)/jit(main)/jit(_threefry_split)/shift_right_logical" source_file="/global/homes/j/jackm/software/lorrax_C/src/solvers/lanczos.py" source_line=245}
  %or.78 = u32[2]{0} or(%shift-left.76, %shift-right-logical.77), metadata={op_name="jit(_full_run)/jit(main)/jit(_threefry_split)/or" source_file="/global/homes/j/jackm/software/lorrax_C/src/solvers/lanczos.py" source_line=245}
  %xor.79 = u32[2]{0} xor(%add.75, %or.78), metadata={op_name="jit(_full_run)/jit(main)/jit(_threefry_split)/xor" source_file="/global/homes/j/jackm/software/lorrax_C/src/solvers/lanczos.py" source_line=245}
  %add.80 = u32[2]{0} add(%add.75, %xor.79), metadata={op_name="jit(_full_run)/jit(main)/jit(_threefry_split)/add" source_file="/global/homes/j/jackm/software/lorrax_C/src/solvers/lanczos.py" source_line=245}
  %constant.62 = u32[] constant(15)
  %broadcast.63 = u32[2]{0} broadcast(%constant.62), dimensions={}
  %shift-left.81 = u32[2]{0} shift-left(%xor.79, %broadcast.63), metadata={op_name="jit(_full_run)/jit(main)/jit(_threefry_split)/shift_left" source_file="/global/homes/j/jackm/software/lorrax_C/src/solvers/lanczos.py" source_line=245}
  %constant.60 = u32[] constant(17)
  %broadcast.61 = u32[2]{0} broadcast(%constant.60), dimensions={}
  %shift-right-logical.82 = u32[2]{0} shift-right-logical(%xor.79, %broadcast.61), metadata={op_name="jit(_full_run)/jit(main)/jit(_threefry_split)/shift_right_logical" source_file="/global/homes/j/jackm/software/lorrax_C/src/solvers/lanczos.py" source_line=245}
  %or.83 = u32[2]{0} or(%shift-left.81, %shift-right-logical.82), metadata={op_name="jit(_full_run)/jit(main)/jit(_threefry_split)/or" source_file="/global/homes/j/jackm/software/lorrax_C/src/solvers/lanczos.py" source_line=245}
  %xor.84 = u32[2]{0} xor(%add.80, %or.83), metadata={op_name="jit(_full_run)/jit(main)/jit(_threefry_split)/xor" source_file="/global/homes/j/jackm/software/lorrax_C/src/solvers/lanczos.py" source_line=245}
  %add.85 = u32[2]{0} add(%add.80, %xor.84), metadata={op_name="jit(_full_run)/jit(main)/jit(_threefry_split)/add" source_file="/global/homes/j/jackm/software/lorrax_C/src/solvers/lanczos.py" source_line=245}
  %constant.58 = u32[] constant(26)
  %broadcast.59 = u32[2]{0} broadcast(%constant.58), dimensions={}
  %shift-left.86 = u32[2]{0} shift-left(%xor.84, %broadcast.59), metadata={op_name="jit(_full_run)/jit(main)/jit(_threefry_split)/shift_left" source_file="/global/homes/j/jackm/software/lorrax_C/src/solvers/lanczos.py" source_line=245}
  %constant.56 = u32[] constant(6)
  %broadcast.57 = u32[2]{0} broadcast(%constant.56), dimensions={}
  %shift-right-logical.87 = u32[2]{0} shift-right-logical(%xor.84, %broadcast.57), metadata={op_name="jit(_full_run)/jit(main)/jit(_threefry_split)/shift_right_logical" source_file="/global/homes/j/jackm/software/lorrax_C/src/solvers/lanczos.py" source_line=245}
  %or.88 = u32[2]{0} or(%shift-left.86, %shift-right-logical.87), metadata={op_name="jit(_full_run)/jit(main)/jit(_threefry_split)/or" source_file="/global/homes/j/jackm/software/lorrax_C/src/solvers/lanczos.py" source_line=245}
  %xor.89 = u32[2]{0} xor(%add.85, %or.88), metadata={op_name="jit(_full_run)/jit(main)/jit(_threefry_split)/xor" source_file="/global/homes/j/jackm/software/lorrax_C/src/solvers/lanczos.py" source_line=245}
  %add.90 = u32[2]{0} add(%add.85, %xor.89), metadata={op_name="jit(_full_run)/jit(main)/jit(_threefry_split)/add" source_file="/global/homes/j/jackm/software/lorrax_C/src/solvers/lanczos.py" source_line=245}
  %broadcast.95 = u32[2]{0} broadcast(%Arg_1.35), dimensions={}, metadata={op_name="jit(_full_run)/jit(main)/jit(_threefry_split)/add" source_file="/global/homes/j/jackm/software/lorrax_C/src/solvers/lanczos.py" source_line=245}
  %add.96 = u32[2]{0} add(%add.90, %broadcast.95), metadata={op_name="jit(_full_run)/jit(main)/jit(_threefry_split)/add" source_file="/global/homes/j/jackm/software/lorrax_C/src/solvers/lanczos.py" source_line=245}
  %shift-left.91 = u32[2]{0} shift-left(%xor.89, %broadcast.57), metadata={op_name="jit(_full_run)/jit(main)/jit(_threefry_split)/shift_left" source_file="/global/homes/j/jackm/software/lorrax_C/src/solvers/lanczos.py" source_line=245}
  %shift-right-logical.92 = u32[2]{0} shift-right-logical(%xor.89, %broadcast.59), metadata={op_name="jit(_full_run)/jit(main)/jit(_threefry_split)/shift_right_logical" source_file="/global/homes/j/jackm/software/lorrax_C/src/solvers/lanczos.py" source_line=245}
  %or.93 = u32[2]{0} or(%shift-left.91, %shift-right-logical.92), metadata={op_name="jit(_full_run)/jit(main)/jit(_threefry_split)/or" source_file="/global/homes/j/jackm/software/lorrax_C/src/solvers/lanczos.py" source_line=245}
  %xor.94 = u32[2]{0} xor(%add.90, %or.93), metadata={op_name="jit(_full_run)/jit(main)/jit(_threefry_split)/xor" source_file="/global/homes/j/jackm/software/lorrax_C/src/solvers/lanczos.py" source_line=245}
  %xor.69 = u32[] xor(%Arg_0.34, %Arg_1.35), metadata={op_name="jit(_full_run)/jit(main)/jit(_threefry_split)/xor" source_file="/global/homes/j/jackm/software/lorrax_C/src/solvers/lanczos.py" source_line=245}
  %constant.68 = u32[] constant(466688986)
  %xor.70 = u32[] xor(%xor.69, %constant.68), metadata={op_name="jit(_full_run)/jit(main)/jit(_threefry_split)/xor" source_file="/global/homes/j/jackm/software/lorrax_C/src/solvers/lanczos.py" source_line=245}
  %broadcast.97 = u32[2]{0} broadcast(%xor.70), dimensions={}, metadata={op_name="jit(_full_run)/jit(main)/jit(_threefry_split)/add" source_file="/global/homes/j/jackm/software/lorrax_C/src/solvers/lanczos.py" source_line=245}
  %add.98 = u32[2]{0} add(%xor.94, %broadcast.97), metadata={op_name="jit(_full_run)/jit(main)/jit(_threefry_split)/add" source_file="/global/homes/j/jackm/software/lorrax_C/src/solvers/lanczos.py" source_line=245}
  %constant.54 = u32[] constant(1)
  %broadcast.55 = u32[2]{0} broadcast(%constant.54), dimensions={}
  %add.99 = u32[2]{0} add(%add.98, %broadcast.55), metadata={op_name="jit(_full_run)/jit(main)/jit(_threefry_split)/add" source_file="/global/homes/j/jackm/software/lorrax_C/src/solvers/lanczos.py" source_line=245}
  %add.100 = u32[2]{0} add(%add.96, %add.99), metadata={op_name="jit(_full_run)/jit(main)/jit(_threefry_split)/add" source_file="/global/homes/j/jackm/software/lorrax_C/src/solvers/lanczos.py" source_line=245}
  %shift-left.101 = u32[2]{0} shift-left(%add.99, %broadcast.61), metadata={op_name="jit(_full_run)/jit(main)/jit(_threefry_split)/shift_left" source_file="/global/homes/j/jackm/software/lorrax_C/src/solvers/lanczos.py" source_line=245}
  %shift-right-logical.102 = u32[2]{0} shift-right-logical(%add.99, %broadcast.63), metadata={op_name="jit(_full_run)/jit(main)/jit(_threefry_split)/shift_right_logical" source_file="/global/homes/j/jackm/software/lorrax_C/src/solvers/lanczos.py" source_line=245}
  %or.103 = u32[2]{0} or(%shift-left.101, %shift-right-logical.102), metadata={op_name="jit(_full_run)/jit(main)/jit(_threefry_split)/or" source_file="/global/homes/j/jackm/software/lorrax_C/src/solvers/lanczos.py" source_line=245}
  %xor.104 = u32[2]{0} xor(%add.100, %or.103), metadata={op_name="jit(_full_run)/jit(main)/jit(_threefry_split)/xor" source_file="/global/homes/j/jackm/software/lorrax_C/src/solvers/lanczos.py" source_line=245}
  %add.105 = u32[2]{0} add(%add.100, %xor.104), metadata={op_name="jit(_full_run)/jit(main)/jit(_threefry_split)/add" source_file="/global/homes/j/jackm/software/lorrax_C/src/solvers/lanczos.py" source_line=245}
  %constant.52 = u32[] constant(29)
  %broadcast.53 = u32[2]{0} broadcast(%constant.52), dimensions={}
  %shift-left.106 = u32[2]{0} shift-left(%xor.104, %broadcast.53), metadata={op_name="jit(_full_run)/jit(main)/jit(_threefry_split)/shift_left" source_file="/global/homes/j/jackm/software/lorrax_C/src/solvers/lanczos.py" source_line=245}
  %constant.50 = u32[] constant(3)
  %broadcast.51 = u32[2]{0} broadcast(%constant.50), dimensions={}
  %shift-right-logical.107 = u32[2]{0} shift-right-logical(%xor.104, %broadcast.51), metadata={op_name="jit(_full_run)/jit(main)/jit(_threefry_split)/shift_right_logical" source_file="/global/homes/j/jackm/software/lorrax_C/src/solvers/lanczos.py" source_line=245}
  %or.108 = u32[2]{0} or(%shift-left.106, %shift-right-logical.107), metadata={op_name="jit(_full_run)/jit(main)/jit(_threefry_split)/or" source_file="/global/homes/j/jackm/software/lorrax_C/src/solvers/lanczos.py" source_line=245}
  %xor.109 = u32[2]{0} xor(%add.105, %or.108), metadata={op_name="jit(_full_run)/jit(main)/jit(_threefry_split)/xor" source_file="/global/homes/j/jackm/software/lorrax_C/src/solvers/lanczos.py" source_line=245}
  %add.110 = u32[2]{0} add(%add.105, %xor.109), metadata={op_name="jit(_full_run)/jit(main)/jit(_threefry_split)/add" source_file="/global/homes/j/jackm/software/lorrax_C/src/solvers/lanczos.py" source_line=245}
  %constant.48 = u32[] constant(16)
  %broadcast.49 = u32[2]{0} broadcast(%constant.48), dimensions={}
  %shift-left.111 = u32[2]{0} shift-left(%xor.109, %broadcast.49), metadata={op_name="jit(_full_run)/jit(main)/jit(_threefry_split)/shift_left" source_file="/global/homes/j/jackm/software/lorrax_C/src/solvers/lanczos.py" source_line=245}
  %shift-right-logical.112 = u32[2]{0} shift-right-logical(%xor.109, %broadcast.49), metadata={op_name="jit(_full_run)/jit(main)/jit(_threefry_split)/shift_right_logical" source_file="/global/homes/j/jackm/software/lorrax_C/src/solvers/lanczos.py" source_line=245}
  %or.113 = u32[2]{0} or(%shift-left.111, %shift-right-logical.112), metadata={op_name="jit(_full_run)/jit(main)/jit(_threefry_split)/or" source_file="/global/homes/j/jackm/software/lorrax_C/src/solvers/lanczos.py" source_line=245}
  %xor.114 = u32[2]{0} xor(%add.110, %or.113), metadata={op_name="jit(_full_run)/jit(main)/jit(_threefry_split)/xor" source_file="/global/homes/j/jackm/software/lorrax_C/src/solvers/lanczos.py" source_line=245}
  %add.115 = u32[2]{0} add(%add.110, %xor.114), metadata={op_name="jit(_full_run)/jit(main)/jit(_threefry_split)/add" source_file="/global/homes/j/jackm/software/lorrax_C/src/solvers/lanczos.py" source_line=245}
  %broadcast.120 = u32[2]{0} broadcast(%xor.70), dimensions={}, metadata={op_name="jit(_full_run)/jit(main)/jit(_threefry_split)/add" source_file="/global/homes/j/jackm/software/lorrax_C/src/solvers/lanczos.py" source_line=245}
  %add.121 = u32[2]{0} add(%add.115, %broadcast.120), metadata={op_name="jit(_full_run)/jit(main)/jit(_threefry_split)/add" source_file="/global/homes/j/jackm/software/lorrax_C/src/solvers/lanczos.py" source_line=245}
  %constant.46 = u32[] constant(24)
  %broadcast.47 = u32[2]{0} broadcast(%constant.46), dimensions={}
  %shift-left.116 = u32[2]{0} shift-left(%xor.114, %broadcast.47), metadata={op_name="jit(_full_run)/jit(main)/jit(_threefry_split)/shift_left" source_file="/global/homes/j/jackm/software/lorrax_C/src/solvers/lanczos.py" source_line=245}
  %constant.44 = u32[] constant(8)
  %broadcast.45 = u32[2]{0} broadcast(%constant.44), dimensions={}
  %shift-right-logical.117 = u32[2]{0} shift-right-logical(%xor.114, %broadcast.45), metadata={op_name="jit(_full_run)/jit(main)/jit(_threefry_split)/shift_right_logical" source_file="/global/homes/j/jackm/software/lorrax_C/src/solvers/lanczos.py" source_line=245}
  %or.118 = u32[2]{0} or(%shift-left.116, %shift-right-logical.117), metadata={op_name="jit(_full_run)/jit(main)/jit(_threefry_split)/or" source_file="/global/homes/j/jackm/software/lorrax_C/src/solvers/lanczos.py" source_line=245}
  %xor.119 = u32[2]{0} xor(%add.115, %or.118), metadata={op_name="jit(_full_run)/jit(main)/jit(_threefry_split)/xor" source_file="/global/homes/j/jackm/software/lorrax_C/src/solvers/lanczos.py" source_line=245}
  %broadcast.122 = u32[2]{0} broadcast(%Arg_0.34), dimensions={}, metadata={op_name="jit(_full_run)/jit(main)/jit(_threefry_split)/add" source_file="/global/homes/j/jackm/software/lorrax_C/src/solvers/lanczos.py" source_line=245}
  %add.123 = u32[2]{0} add(%xor.119, %broadcast.122), metadata={op_name="jit(_full_run)/jit(main)/jit(_threefry_split)/add" source_file="/global/homes/j/jackm/software/lorrax_C/src/solvers/lanczos.py" source_line=245}
  %constant.42 = u32[] constant(2)
  %broadcast.43 = u32[2]{0} broadcast(%constant.42), dimensions={}
  %add.124 = u32[2]{0} add(%add.123, %broadcast.43), metadata={op_name="jit(_full_run)/jit(main)/jit(_threefry_split)/add" source_file="/global/homes/j/jackm/software/lorrax_C/src/solvers/lanczos.py" source_line=245}
  %add.125 = u32[2]{0} add(%add.121, %add.124), metadata={op_name="jit(_full_run)/jit(main)/jit(_threefry_split)/add" source_file="/global/homes/j/jackm/software/lorrax_C/src/solvers/lanczos.py" source_line=245}
  %shift-left.126 = u32[2]{0} shift-left(%add.124, %broadcast.67), metadata={op_name="jit(_full_run)/jit(main)/jit(_threefry_split)/shift_left" source_file="/global/homes/j/jackm/software/lorrax_C/src/solvers/lanczos.py" source_line=245}
  %shift-right-logical.127 = u32[2]{0} shift-right-logical(%add.124, %broadcast.65), metadata={op_name="jit(_full_run)/jit(main)/jit(_threefry_split)/shift_right_logical" source_file="/global/homes/j/jackm/software/lorrax_C/src/solvers/lanczos.py" source_line=245}
  %or.128 = u32[2]{0} or(%shift-left.126, %shift-right-logical.127), metadata={op_name="jit(_full_run)/jit(main)/jit(_threefry_split)/or" source_file="/global/homes/j/jackm/software/lorrax_C/src/solvers/lanczos.py" source_line=245}
  %xor.129 = u32[2]{0} xor(%add.125, %or.128), metadata={op_name="jit(_full_run)/jit(main)/jit(_threefry_split)/xor" source_file="/global/homes/j/jackm/software/lorrax_C/src/solvers/lanczos.py" source_line=245}
  %add.130 = u32[2]{0} add(%add.125, %xor.129), metadata={op_name="jit(_full_run)/jit(main)/jit(_threefry_split)/add" source_file="/global/homes/j/jackm/software/lorrax_C/src/solvers/lanczos.py" source_line=245}
  %shift-left.131 = u32[2]{0} shift-left(%xor.129, %broadcast.63), metadata={op_name="jit(_full_run)/jit(main)/jit(_threefry_split)/shift_left" source_file="/global/homes/j/jackm/software/lorrax_C/src/solvers/lanczos.py" source_line=245}
  %shift-right-logical.132 = u32[2]{0} shift-right-logical(%xor.129, %broadcast.61), metadata={op_name="jit(_full_run)/jit(main)/jit(_threefry_split)/shift_right_logical" source_file="/global/homes/j/jackm/software/lorrax_C/src/solvers/lanczos.py" source_line=245}
  %or.133 = u32[2]{0} or(%shift-left.131, %shift-right-logical.132), metadata={op_name="jit(_full_run)/jit(main)/jit(_threefry_split)/or" source_file="/global/homes/j/jackm/software/lorrax_C/src/solvers/lanczos.py" source_line=245}
  %xor.134 = u32[2]{0} xor(%add.130, %or.133), metadata={op_name="jit(_full_run)/jit(main)/jit(_threefry_split)/xor" source_file="/global/homes/j/jackm/software/lorrax_C/src/solvers/lanczos.py" source_line=245}
  %add.135 = u32[2]{0} add(%add.130, %xor.134), metadata={op_name="jit(_full_run)/jit(main)/jit(_threefry_split)/add" source_file="/global/homes/j/jackm/software/lorrax_C/src/solvers/lanczos.py" source_line=245}
  %shift-left.136 = u32[2]{0} shift-left(%xor.134, %broadcast.59), metadata={op_name="jit(_full_run)/jit(main)/jit(_threefry_split)/shift_left" source_file="/global/homes/j/jackm/software/lorrax_C/src/solvers/lanczos.py" source_line=245}
  %shift-right-logical.137 = u32[2]{0} shift-right-logical(%xor.134, %broadcast.57), metadata={op_name="jit(_full_run)/jit(main)/jit(_threefry_split)/shift_right_logical" source_file="/global/homes/j/jackm/software/lorrax_C/src/solvers/lanczos.py" source_line=245}
  %or.138 = u32[2]{0} or(%shift-left.136, %shift-right-logical.137), metadata={op_name="jit(_full_run)/jit(main)/jit(_threefry_split)/or" source_file="/global/homes/j/jackm/software/lorrax_C/src/solvers/lanczos.py" source_line=245}
  %xor.139 = u32[2]{0} xor(%add.135, %or.138), metadata={op_name="jit(_full_run)/jit(main)/jit(_threefry_split)/xor" source_file="/global/homes/j/jackm/software/lorrax_C/src/solvers/lanczos.py" source_line=245}
  %add.140 = u32[2]{0} add(%add.135, %xor.139), metadata={op_name="jit(_full_run)/jit(main)/jit(_threefry_split)/add" source_file="/global/homes/j/jackm/software/lorrax_C/src/solvers/lanczos.py" source_line=245}
  %broadcast.145 = u32[2]{0} broadcast(%Arg_0.34), dimensions={}, metadata={op_name="jit(_full_run)/jit(main)/jit(_threefry_split)/add" source_file="/global/homes/j/jackm/software/lorrax_C/src/solvers/lanczos.py" source_line=245}
  %add.146 = u32[2]{0} add(%add.140, %broadcast.145), metadata={op_name="jit(_full_run)/jit(main)/jit(_threefry_split)/add" source_file="/global/homes/j/jackm/software/lorrax_C/src/solvers/lanczos.py" source_line=245}
  %shift-left.141 = u32[2]{0} shift-left(%xor.139, %broadcast.57), metadata={op_name="jit(_full_run)/jit(main)/jit(_threefry_split)/shift_left" source_file="/global/homes/j/jackm/software/lorrax_C/src/solvers/lanczos.py" source_line=245}
  %shift-right-logical.142 = u32[2]{0} shift-right-logical(%xor.139, %broadcast.59), metadata={op_name="jit(_full_run)/jit(main)/jit(_threefry_split)/shift_right_logical" source_file="/global/homes/j/jackm/software/lorrax_C/src/solvers/lanczos.py" source_line=245}
  %or.143 = u32[2]{0} or(%shift-left.141, %shift-right-logical.142), metadata={op_name="jit(_full_run)/jit(main)/jit(_threefry_split)/or" source_file="/global/homes/j/jackm/software/lorrax_C/src/solvers/lanczos.py" source_line=245}
  %xor.144 = u32[2]{0} xor(%add.140, %or.143), metadata={op_name="jit(_full_run)/jit(main)/jit(_threefry_split)/xor" source_file="/global/homes/j/jackm/software/lorrax_C/src/solvers/lanczos.py" source_line=245}
  %broadcast.147 = u32[2]{0} broadcast(%Arg_1.35), dimensions={}, metadata={op_name="jit(_full_run)/jit(main)/jit(_threefry_split)/add" source_file="/global/homes/j/jackm/software/lorrax_C/src/solvers/lanczos.py" source_line=245}
  %add.148 = u32[2]{0} add(%xor.144, %broadcast.147), metadata={op_name="jit(_full_run)/jit(main)/jit(_threefry_split)/add" source_file="/global/homes/j/jackm/software/lorrax_C/src/solvers/lanczos.py" source_line=245}
  %add.149 = u32[2]{0} add(%add.148, %broadcast.51), metadata={op_name="jit(_full_run)/jit(main)/jit(_threefry_split)/add" source_file="/global/homes/j/jackm/software/lorrax_C/src/solvers/lanczos.py" source_line=245}
  %add.150 = u32[2]{0} add(%add.146, %add.149), metadata={op_name="jit(_full_run)/jit(main)/jit(_threefry_split)/add" source_file="/global/homes/j/jackm/software/lorrax_C/src/solvers/lanczos.py" source_line=245}
  %shift-left.151 = u32[2]{0} shift-left(%add.149, %broadcast.61), metadata={op_name="jit(_full_run)/jit(main)/jit(_threefry_split)/shift_left" source_file="/global/homes/j/jackm/software/lorrax_C/src/solvers/lanczos.py" source_line=245}
  %shift-right-logical.152 = u32[2]{0} shift-right-logical(%add.149, %broadcast.63), metadata={op_name="jit(_full_run)/jit(main)/jit(_threefry_split)/shift_right_logical" source_file="/global/homes/j/jackm/software/lorrax_C/src/solvers/lanczos.py" source_line=245}
  %or.153 = u32[2]{0} or(%shift-left.151, %shift-right-logical.152), metadata={op_name="jit(_full_run)/jit(main)/jit(_threefry_split)/or" source_file="/global/homes/j/jackm/software/lorrax_C/src/solvers/lanczos.py" source_line=245}
  %xor.154 = u32[2]{0} xor(%add.150, %or.153), metadata={op_name="jit(_full_run)/jit(main)/jit(_threefry_split)/xor" source_file="/global/homes/j/jackm/software/lorrax_C/src/solvers/lanczos.py" source_line=245}
  %add.155 = u32[2]{0} add(%add.150, %xor.154), metadata={op_name="jit(_full_run)/jit(main)/jit(_threefry_split)/add" source_file="/global/homes/j/jackm/software/lorrax_C/src/solvers/lanczos.py" source_line=245}
  %shift-left.156 = u32[2]{0} shift-left(%xor.154, %broadcast.53), metadata={op_name="jit(_full_run)/jit(main)/jit(_threefry_split)/shift_left" source_file="/global/homes/j/jackm/software/lorrax_C/src/solvers/lanczos.py" source_line=245}
  %shift-right-logical.157 = u32[2]{0} shift-right-logical(%xor.154, %broadcast.51), metadata={op_name="jit(_full_run)/jit(main)/jit(_threefry_split)/shift_right_logical" source_file="/global/homes/j/jackm/software/lorrax_C/src/solvers/lanczos.py" source_line=245}
  %or.158 = u32[2]{0} or(%shift-left.156, %shift-right-logical.157), metadata={op_name="jit(_full_run)/jit(main)/jit(_threefry_split)/or" source_file="/global/homes/j/jackm/software/lorrax_C/src/solvers/lanczos.py" source_line=245}
  %xor.159 = u32[2]{0} xor(%add.155, %or.158), metadata={op_name="jit(_full_run)/jit(main)/jit(_threefry_split)/xor" source_file="/global/homes/j/jackm/software/lorrax_C/src/solvers/lanczos.py" source_line=245}
  %add.160 = u32[2]{0} add(%add.155, %xor.159), metadata={op_name="jit(_full_run)/jit(main)/jit(_threefry_split)/add" source_file="/global/homes/j/jackm/software/lorrax_C/src/solvers/lanczos.py" source_line=245}
  %shift-left.161 = u32[2]{0} shift-left(%xor.159, %broadcast.49), metadata={op_name="jit(_full_run)/jit(main)/jit(_threefry_split)/shift_left" source_file="/global/homes/j/jackm/software/lorrax_C/src/solvers/lanczos.py" source_line=245}
  %shift-right-logical.162 = u32[2]{0} shift-right-logical(%xor.159, %broadcast.49), metadata={op_name="jit(_full_run)/jit(main)/jit(_threefry_split)/shift_right_logical" source_file="/global/homes/j/jackm/software/lorrax_C/src/solvers/lanczos.py" source_line=245}
  %or.163 = u32[2]{0} or(%shift-left.161, %shift-right-logical.162), metadata={op_name="jit(_full_run)/jit(main)/jit(_threefry_split)/or" source_file="/global/homes/j/jackm/software/lorrax_C/src/solvers/lanczos.py" source_line=245}
  %xor.164 = u32[2]{0} xor(%add.160, %or.163), metadata={op_name="jit(_full_run)/jit(main)/jit(_threefry_split)/xor" source_file="/global/homes/j/jackm/software/lorrax_C/src/solvers/lanczos.py" source_line=245}
  %add.165 = u32[2]{0} add(%add.160, %xor.164), metadata={op_name="jit(_full_run)/jit(main)/jit(_threefry_split)/add" source_file="/global/homes/j/jackm/software/lorrax_C/src/solvers/lanczos.py" source_line=245}
  %broadcast.170 = u32[2]{0} broadcast(%Arg_1.35), dimensions={}, metadata={op_name="jit(_full_run)/jit(main)/jit(_threefry_split)/add" source_file="/global/homes/j/jackm/software/lorrax_C/src/solvers/lanczos.py" source_line=245}
  %add.171 = u32[2]{0} add(%add.165, %broadcast.170), metadata={op_name="jit(_full_run)/jit(main)/jit(_threefry_split)/add" source_file="/global/homes/j/jackm/software/lorrax_C/src/solvers/lanczos.py" source_line=245}
  %shift-left.166 = u32[2]{0} shift-left(%xor.164, %broadcast.47), metadata={op_name="jit(_full_run)/jit(main)/jit(_threefry_split)/shift_left" source_file="/global/homes/j/jackm/software/lorrax_C/src/solvers/lanczos.py" source_line=245}
  %shift-right-logical.167 = u32[2]{0} shift-right-logical(%xor.164, %broadcast.45), metadata={op_name="jit(_full_run)/jit(main)/jit(_threefry_split)/shift_right_logical" source_file="/global/homes/j/jackm/software/lorrax_C/src/solvers/lanczos.py" source_line=245}
  %or.168 = u32[2]{0} or(%shift-left.166, %shift-right-logical.167), metadata={op_name="jit(_full_run)/jit(main)/jit(_threefry_split)/or" source_file="/global/homes/j/jackm/software/lorrax_C/src/solvers/lanczos.py" source_line=245}
  %xor.169 = u32[2]{0} xor(%add.165, %or.168), metadata={op_name="jit(_full_run)/jit(main)/jit(_threefry_split)/xor" source_file="/global/homes/j/jackm/software/lorrax_C/src/solvers/lanczos.py" source_line=245}
  %broadcast.172 = u32[2]{0} broadcast(%xor.70), dimensions={}, metadata={op_name="jit(_full_run)/jit(main)/jit(_threefry_split)/add" source_file="/global/homes/j/jackm/software/lorrax_C/src/solvers/lanczos.py" source_line=245}
  %add.173 = u32[2]{0} add(%xor.169, %broadcast.172), metadata={op_name="jit(_full_run)/jit(main)/jit(_threefry_split)/add" source_file="/global/homes/j/jackm/software/lorrax_C/src/solvers/lanczos.py" source_line=245}
  %constant.40 = u32[] constant(4)
  %broadcast.41 = u32[2]{0} broadcast(%constant.40), dimensions={}
  %add.174 = u32[2]{0} add(%add.173, %broadcast.41), metadata={op_name="jit(_full_run)/jit(main)/jit(_threefry_split)/add" source_file="/global/homes/j/jackm/software/lorrax_C/src/solvers/lanczos.py" source_line=245}
  %add.175 = u32[2]{0} add(%add.171, %add.174), metadata={op_name="jit(_full_run)/jit(main)/jit(_threefry_split)/add" source_file="/global/homes/j/jackm/software/lorrax_C/src/solvers/lanczos.py" source_line=245}
  %shift-left.176 = u32[2]{0} shift-left(%add.174, %broadcast.67), metadata={op_name="jit(_full_run)/jit(main)/jit(_threefry_split)/shift_left" source_file="/global/homes/j/jackm/software/lorrax_C/src/solvers/lanczos.py" source_line=245}
  %shift-right-logical.177 = u32[2]{0} shift-right-logical(%add.174, %broadcast.65), metadata={op_name="jit(_full_run)/jit(main)/jit(_threefry_split)/shift_right_logical" source_file="/global/homes/j/jackm/software/lorrax_C/src/solvers/lanczos.py" source_line=245}
  %or.178 = u32[2]{0} or(%shift-left.176, %shift-right-logical.177), metadata={op_name="jit(_full_run)/jit(main)/jit(_threefry_split)/or" source_file="/global/homes/j/jackm/software/lorrax_C/src/solvers/lanczos.py" source_line=245}
  %xor.179 = u32[2]{0} xor(%add.175, %or.178), metadata={op_name="jit(_full_run)/jit(main)/jit(_threefry_split)/xor" source_file="/global/homes/j/jackm/software/lorrax_C/src/solvers/lanczos.py" source_line=245}
  %add.180 = u32[2]{0} add(%add.175, %xor.179), metadata={op_name="jit(_full_run)/jit(main)/jit(_threefry_split)/add" source_file="/global/homes/j/jackm/software/lorrax_C/src/solvers/lanczos.py" source_line=245}
  %shift-left.181 = u32[2]{0} shift-left(%xor.179, %broadcast.63), metadata={op_name="jit(_full_run)/jit(main)/jit(_threefry_split)/shift_left" source_file="/global/homes/j/jackm/software/lorrax_C/src/solvers/lanczos.py" source_line=245}
  %shift-right-logical.182 = u32[2]{0} shift-right-logical(%xor.179, %broadcast.61), metadata={op_name="jit(_full_run)/jit(main)/jit(_threefry_split)/shift_right_logical" source_file="/global/homes/j/jackm/software/lorrax_C/src/solvers/lanczos.py" source_line=245}
  %or.183 = u32[2]{0} or(%shift-left.181, %shift-right-logical.182), metadata={op_name="jit(_full_run)/jit(main)/jit(_threefry_split)/or" source_file="/global/homes/j/jackm/software/lorrax_C/src/solvers/lanczos.py" source_line=245}
  %xor.184 = u32[2]{0} xor(%add.180, %or.183), metadata={op_name="jit(_full_run)/jit(main)/jit(_threefry_split)/xor" source_file="/global/homes/j/jackm/software/lorrax_C/src/solvers/lanczos.py" source_line=245}
  %add.185 = u32[2]{0} add(%add.180, %xor.184), metadata={op_name="jit(_full_run)/jit(main)/jit(_threefry_split)/add" source_file="/global/homes/j/jackm/software/lorrax_C/src/solvers/lanczos.py" source_line=245}
  %shift-left.186 = u32[2]{0} shift-left(%xor.184, %broadcast.59), metadata={op_name="jit(_full_run)/jit(main)/jit(_threefry_split)/shift_left" source_file="/global/homes/j/jackm/software/lorrax_C/src/solvers/lanczos.py" source_line=245}
  %shift-right-logical.187 = u32[2]{0} shift-right-logical(%xor.184, %broadcast.57), metadata={op_name="jit(_full_run)/jit(main)/jit(_threefry_split)/shift_right_logical" source_file="/global/homes/j/jackm/software/lorrax_C/src/solvers/lanczos.py" source_line=245}
  %or.188 = u32[2]{0} or(%shift-left.186, %shift-right-logical.187), metadata={op_name="jit(_full_run)/jit(main)/jit(_threefry_split)/or" source_file="/global/homes/j/jackm/software/lorrax_C/src/solvers/lanczos.py" source_line=245}
  %xor.189 = u32[2]{0} xor(%add.185, %or.188), metadata={op_name="jit(_full_run)/jit(main)/jit(_threefry_split)/xor" source_file="/global/homes/j/jackm/software/lorrax_C/src/solvers/lanczos.py" source_line=245}
  %add.190 = u32[2]{0} add(%add.185, %xor.189), metadata={op_name="jit(_full_run)/jit(main)/jit(_threefry_split)/add" source_file="/global/homes/j/jackm/software/lorrax_C/src/solvers/lanczos.py" source_line=245}
  %broadcast.195 = u32[2]{0} broadcast(%xor.70), dimensions={}, metadata={op_name="jit(_full_run)/jit(main)/jit(_threefry_split)/add" source_file="/global/homes/j/jackm/software/lorrax_C/src/solvers/lanczos.py" source_line=245}
  %add.196 = u32[2]{0} add(%add.190, %broadcast.195), metadata={op_name="jit(_full_run)/jit(main)/jit(_threefry_split)/add" source_file="/global/homes/j/jackm/software/lorrax_C/src/solvers/lanczos.py" source_line=245}
  %shift-left.191 = u32[2]{0} shift-left(%xor.189, %broadcast.57), metadata={op_name="jit(_full_run)/jit(main)/jit(_threefry_split)/shift_left" source_file="/global/homes/j/jackm/software/lorrax_C/src/solvers/lanczos.py" source_line=245}
  %shift-right-logical.192 = u32[2]{0} shift-right-logical(%xor.189, %broadcast.59), metadata={op_name="jit(_full_run)/jit(main)/jit(_threefry_split)/shift_right_logical" source_file="/global/homes/j/jackm/software/lorrax_C/src/solvers/lanczos.py" source_line=245}
  %or.193 = u32[2]{0} or(%shift-left.191, %shift-right-logical.192), metadata={op_name="jit(_full_run)/jit(main)/jit(_threefry_split)/or" source_file="/global/homes/j/jackm/software/lorrax_C/src/solvers/lanczos.py" source_line=245}
  %xor.194 = u32[2]{0} xor(%add.190, %or.193), metadata={op_name="jit(_full_run)/jit(main)/jit(_threefry_split)/xor" source_file="/global/homes/j/jackm/software/lorrax_C/src/solvers/lanczos.py" source_line=245}
  %broadcast.197 = u32[2]{0} broadcast(%Arg_0.34), dimensions={}, metadata={op_name="jit(_full_run)/jit(main)/jit(_threefry_split)/add" source_file="/global/homes/j/jackm/software/lorrax_C/src/solvers/lanczos.py" source_line=245}
  %add.198 = u32[2]{0} add(%xor.194, %broadcast.197), metadata={op_name="jit(_full_run)/jit(main)/jit(_threefry_split)/add" source_file="/global/homes/j/jackm/software/lorrax_C/src/solvers/lanczos.py" source_line=245}
  %constant.38 = u32[] constant(5)
  %broadcast.39 = u32[2]{0} broadcast(%constant.38), dimensions={}
  %add.199 = u32[2]{0} add(%add.198, %broadcast.39), metadata={op_name="jit(_full_run)/jit(main)/jit(_threefry_split)/add" source_file="/global/homes/j/jackm/software/lorrax_C/src/solvers/lanczos.py" source_line=245}
  ROOT %tuple.200 = (u32[2]{0}, u32[2]{0}) tuple(%add.196, %add.199)
}

%_threefry_split.201 (Arg_0.202: u32[2]) -> u32[2,2] {
  %Arg_0.202 = u32[2]{0} parameter(0), metadata={op_name="jit(_full_run)/jit(main)/pjit"}
  %slice.205 = u32[1]{0} slice(%Arg_0.202), slice={[0:1]}, metadata={op_name="jit(_full_run)/jit(main)/jit(_threefry_split)/slice" source_file="/global/homes/j/jackm/software/lorrax_C/src/solvers/lanczos.py" source_line=245}
  %reshape.206 = u32[] reshape(%slice.205), metadata={op_name="jit(_full_run)/jit(main)/jit(_threefry_split)/squeeze" source_file="/global/homes/j/jackm/software/lorrax_C/src/solvers/lanczos.py" source_line=245}
  %slice.207 = u32[1]{0} slice(%Arg_0.202), slice={[1:2]}, metadata={op_name="jit(_full_run)/jit(main)/jit(_threefry_split)/slice" source_file="/global/homes/j/jackm/software/lorrax_C/src/solvers/lanczos.py" source_line=245}
  %reshape.208 = u32[] reshape(%slice.207), metadata={op_name="jit(_full_run)/jit(main)/jit(_threefry_split)/squeeze" source_file="/global/homes/j/jackm/software/lorrax_C/src/solvers/lanczos.py" source_line=245}
  %iota.209 = u64[2]{0} iota(), iota_dimension=0, metadata={op_name="jit(_full_run)/jit(main)/jit(_threefry_split)/iota_2x32_shape" source_file="/global/homes/j/jackm/software/lorrax_C/src/solvers/lanczos.py" source_line=245}
  %constant.203 = u64[] constant(32)
  %broadcast.204 = u64[2]{0} broadcast(%constant.203), dimensions={}
  %shift-right-logical.210 = u64[2]{0} shift-right-logical(%iota.209, %broadcast.204), metadata={op_name="jit(_full_run)/jit(main)/jit(_threefry_split)/iota_2x32_shape" source_file="/global/homes/j/jackm/software/lorrax_C/src/solvers/lanczos.py" source_line=245}
  %convert.212 = u32[2]{0} convert(%shift-right-logical.210), metadata={op_name="jit(_full_run)/jit(main)/jit(_threefry_split)/iota_2x32_shape" source_file="/global/homes/j/jackm/software/lorrax_C/src/solvers/lanczos.py" source_line=245}
  %convert.211 = u32[2]{0} convert(%iota.209), metadata={op_name="jit(_full_run)/jit(main)/jit(_threefry_split)/iota_2x32_shape" source_file="/global/homes/j/jackm/software/lorrax_C/src/solvers/lanczos.py" source_line=245}
  %call.213 = (u32[2]{0}, u32[2]{0}) call(%reshape.206, %reshape.208, %convert.212, %convert.211), to_apply=%threefry2x32.33
  %get-tuple-element.214 = u32[2]{0} get-tuple-element(%call.213), index=0
  %reshape.216 = u32[2,1]{1,0} reshape(%get-tuple-element.214), metadata={op_name="jit(_full_run)/jit(main)/jit(_threefry_split)/broadcast_in_dim" source_file="/global/homes/j/jackm/software/lorrax_C/src/solvers/lanczos.py" source_line=245}
  %get-tuple-element.215 = u32[2]{0} get-tuple-element(%call.213), index=1
  %reshape.217 = u32[2,1]{1,0} reshape(%get-tuple-element.215), metadata={op_name="jit(_full_run)/jit(main)/jit(_threefry_split)/broadcast_in_dim" source_file="/global/homes/j/jackm/software/lorrax_C/src/solvers/lanczos.py" source_line=245}
  ROOT %concatenate.218 = u32[2,2]{1,0} concatenate(%reshape.216, %reshape.217), dimensions={1}, metadata={op_name="jit(_full_run)/jit(main)/jit(_threefry_split)/concatenate" source_file="/global/homes/j/jackm/software/lorrax_C/src/solvers/lanczos.py" source_line=245}
}

%threefry2x32_0.224 (Arg_0.225: u32[], Arg_1.226: u32[], Arg_2.227: u32[1024], Arg_3.228: u32[1024]) -> (u32[1024], u32[1024]) {
  %Arg_2.227 = u32[1024]{0} parameter(2), metadata={op_name="jit(_full_run)/jit(main)/jit(_normal)/jit(_normal_real)/jit(_uniform)/threefry2x32"}
  %Arg_0.225 = u32[] parameter(0), metadata={op_name="jit(_full_run)/jit(main)/jit(_normal)/jit(_normal_real)/jit(_uniform)/threefry2x32"}
  %broadcast.262 = u32[1024]{0} broadcast(%Arg_0.225), dimensions={}, metadata={op_name="jit(_full_run)/jit(main)/jit(_normal)/jit(_normal_real)/jit(_uniform)/add" source_file="/global/homes/j/jackm/software/lorrax_C/src/solvers/lanczos.py" source_line=247}
  %add.263 = u32[1024]{0} add(%Arg_2.227, %broadcast.262), metadata={op_name="jit(_full_run)/jit(main)/jit(_normal)/jit(_normal_real)/jit(_uniform)/add" source_file="/global/homes/j/jackm/software/lorrax_C/src/solvers/lanczos.py" source_line=247}
  %Arg_3.228 = u32[1024]{0} parameter(3), metadata={op_name="jit(_full_run)/jit(main)/jit(_normal)/jit(_normal_real)/jit(_uniform)/threefry2x32"}
  %Arg_1.226 = u32[] parameter(1), metadata={op_name="jit(_full_run)/jit(main)/jit(_normal)/jit(_normal_real)/jit(_uniform)/threefry2x32"}
  %broadcast.264 = u32[1024]{0} broadcast(%Arg_1.226), dimensions={}, metadata={op_name="jit(_full_run)/jit(main)/jit(_normal)/jit(_normal_real)/jit(_uniform)/add" source_file="/global/homes/j/jackm/software/lorrax_C/src/solvers/lanczos.py" source_line=247}
  %add.265 = u32[1024]{0} add(%Arg_3.228, %broadcast.264), metadata={op_name="jit(_full_run)/jit(main)/jit(_normal)/jit(_normal_real)/jit(_uniform)/add" source_file="/global/homes/j/jackm/software/lorrax_C/src/solvers/lanczos.py" source_line=247}
  %add.266 = u32[1024]{0} add(%add.263, %add.265), metadata={op_name="jit(_full_run)/jit(main)/jit(_normal)/jit(_normal_real)/jit(_uniform)/add" source_file="/global/homes/j/jackm/software/lorrax_C/src/solvers/lanczos.py" source_line=247}
  %constant.257 = u32[] constant(13)
  %broadcast.258 = u32[1024]{0} broadcast(%constant.257), dimensions={}
  %shift-left.267 = u32[1024]{0} shift-left(%add.265, %broadcast.258), metadata={op_name="jit(_full_run)/jit(main)/jit(_normal)/jit(_normal_real)/jit(_uniform)/shift_left" source_file="/global/homes/j/jackm/software/lorrax_C/src/solvers/lanczos.py" source_line=247}
  %constant.255 = u32[] constant(19)
  %broadcast.256 = u32[1024]{0} broadcast(%constant.255), dimensions={}
  %shift-right-logical.268 = u32[1024]{0} shift-right-logical(%add.265, %broadcast.256), metadata={op_name="jit(_full_run)/jit(main)/jit(_normal)/jit(_normal_real)/jit(_uniform)/shift_right_logical" source_file="/global/homes/j/jackm/software/lorrax_C/src/solvers/lanczos.py" source_line=247}
  %or.269 = u32[1024]{0} or(%shift-left.267, %shift-right-logical.268), metadata={op_name="jit(_full_run)/jit(main)/jit(_normal)/jit(_normal_real)/jit(_uniform)/or" source_file="/global/homes/j/jackm/software/lorrax_C/src/solvers/lanczos.py" source_line=247}
  %xor.270 = u32[1024]{0} xor(%add.266, %or.269), metadata={op_name="jit(_full_run)/jit(main)/jit(_normal)/jit(_normal_real)/jit(_uniform)/xor" source_file="/global/homes/j/jackm/software/lorrax_C/src/solvers/lanczos.py" source_line=247}
  %add.271 = u32[1024]{0} add(%add.266, %xor.270), metadata={op_name="jit(_full_run)/jit(main)/jit(_normal)/jit(_normal_real)/jit(_uniform)/add" source_file="/global/homes/j/jackm/software/lorrax_C/src/solvers/lanczos.py" source_line=247}
  %constant.253 = u32[] constant(15)
  %broadcast.254 = u32[1024]{0} broadcast(%constant.253), dimensions={}
  %shift-left.272 = u32[1024]{0} shift-left(%xor.270, %broadcast.254), metadata={op_name="jit(_full_run)/jit(main)/jit(_normal)/jit(_normal_real)/jit(_uniform)/shift_left" source_file="/global/homes/j/jackm/software/lorrax_C/src/solvers/lanczos.py" source_line=247}
  %constant.251 = u32[] constant(17)
  %broadcast.252 = u32[1024]{0} broadcast(%constant.251), dimensions={}
  %shift-right-logical.273 = u32[1024]{0} shift-right-logical(%xor.270, %broadcast.252), metadata={op_name="jit(_full_run)/jit(main)/jit(_normal)/jit(_normal_real)/jit(_uniform)/shift_right_logical" source_file="/global/homes/j/jackm/software/lorrax_C/src/solvers/lanczos.py" source_line=247}
  %or.274 = u32[1024]{0} or(%shift-left.272, %shift-right-logical.273), metadata={op_name="jit(_full_run)/jit(main)/jit(_normal)/jit(_normal_real)/jit(_uniform)/or" source_file="/global/homes/j/jackm/software/lorrax_C/src/solvers/lanczos.py" source_line=247}
  %xor.275 = u32[1024]{0} xor(%add.271, %or.274), metadata={op_name="jit(_full_run)/jit(main)/jit(_normal)/jit(_normal_real)/jit(_uniform)/xor" source_file="/global/homes/j/jackm/software/lorrax_C/src/solvers/lanczos.py" source_line=247}
  %add.276 = u32[1024]{0} add(%add.271, %xor.275), metadata={op_name="jit(_full_run)/jit(main)/jit(_normal)/jit(_normal_real)/jit(_uniform)/add" source_file="/global/homes/j/jackm/software/lorrax_C/src/solvers/lanczos.py" source_line=247}
  %constant.249 = u32[] constant(26)
  %broadcast.250 = u32[1024]{0} broadcast(%constant.249), dimensions={}
  %shift-left.277 = u32[1024]{0} shift-left(%xor.275, %broadcast.250), metadata={op_name="jit(_full_run)/jit(main)/jit(_normal)/jit(_normal_real)/jit(_uniform)/shift_left" source_file="/global/homes/j/jackm/software/lorrax_C/src/solvers/lanczos.py" source_line=247}
  %constant.247 = u32[] constant(6)
  %broadcast.248 = u32[1024]{0} broadcast(%constant.247), dimensions={}
  %shift-right-logical.278 = u32[1024]{0} shift-right-logical(%xor.275, %broadcast.248), metadata={op_name="jit(_full_run)/jit(main)/jit(_normal)/jit(_normal_real)/jit(_uniform)/shift_right_logical" source_file="/global/homes/j/jackm/software/lorrax_C/src/solvers/lanczos.py" source_line=247}
  %or.279 = u32[1024]{0} or(%shift-left.277, %shift-right-logical.278), metadata={op_name="jit(_full_run)/jit(main)/jit(_normal)/jit(_normal_real)/jit(_uniform)/or" source_file="/global/homes/j/jackm/software/lorrax_C/src/solvers/lanczos.py" source_line=247}
  %xor.280 = u32[1024]{0} xor(%add.276, %or.279), metadata={op_name="jit(_full_run)/jit(main)/jit(_normal)/jit(_normal_real)/jit(_uniform)/xor" source_file="/global/homes/j/jackm/software/lorrax_C/src/solvers/lanczos.py" source_line=247}
  %add.281 = u32[1024]{0} add(%add.276, %xor.280), metadata={op_name="jit(_full_run)/jit(main)/jit(_normal)/jit(_normal_real)/jit(_uniform)/add" source_file="/global/homes/j/jackm/software/lorrax_C/src/solvers/lanczos.py" source_line=247}
  %broadcast.286 = u32[1024]{0} broadcast(%Arg_1.226), dimensions={}, metadata={op_name="jit(_full_run)/jit(main)/jit(_normal)/jit(_normal_real)/jit(_uniform)/add" source_file="/global/homes/j/jackm/software/lorrax_C/src/solvers/lanczos.py" source_line=247}
  %add.287 = u32[1024]{0} add(%add.281, %broadcast.286), metadata={op_name="jit(_full_run)/jit(main)/jit(_normal)/jit(_normal_real)/jit(_uniform)/add" source_file="/global/homes/j/jackm/software/lorrax_C/src/solvers/lanczos.py" source_line=247}
  %shift-left.282 = u32[1024]{0} shift-left(%xor.280, %broadcast.248), metadata={op_name="jit(_full_run)/jit(main)/jit(_normal)/jit(_normal_real)/jit(_uniform)/shift_left" source_file="/global/homes/j/jackm/software/lorrax_C/src/solvers/lanczos.py" source_line=247}
  %shift-right-logical.283 = u32[1024]{0} shift-right-logical(%xor.280, %broadcast.250), metadata={op_name="jit(_full_run)/jit(main)/jit(_normal)/jit(_normal_real)/jit(_uniform)/shift_right_logical" source_file="/global/homes/j/jackm/software/lorrax_C/src/solvers/lanczos.py" source_line=247}
  %or.284 = u32[1024]{0} or(%shift-left.282, %shift-right-logical.283), metadata={op_name="jit(_full_run)/jit(main)/jit(_normal)/jit(_normal_real)/jit(_uniform)/or" source_file="/global/homes/j/jackm/software/lorrax_C/src/solvers/lanczos.py" source_line=247}
  %xor.285 = u32[1024]{0} xor(%add.281, %or.284), metadata={op_name="jit(_full_run)/jit(main)/jit(_normal)/jit(_normal_real)/jit(_uniform)/xor" source_file="/global/homes/j/jackm/software/lorrax_C/src/solvers/lanczos.py" source_line=247}
  %xor.260 = u32[] xor(%Arg_0.225, %Arg_1.226), metadata={op_name="jit(_full_run)/jit(main)/jit(_normal)/jit(_normal_real)/jit(_uniform)/xor" source_file="/global/homes/j/jackm/software/lorrax_C/src/solvers/lanczos.py" source_line=247}
  %constant.259 = u32[] constant(466688986)
  %xor.261 = u32[] xor(%xor.260, %constant.259), metadata={op_name="jit(_full_run)/jit(main)/jit(_normal)/jit(_normal_real)/jit(_uniform)/xor" source_file="/global/homes/j/jackm/software/lorrax_C/src/solvers/lanczos.py" source_line=247}
  %broadcast.288 = u32[1024]{0} broadcast(%xor.261), dimensions={}, metadata={op_name="jit(_full_run)/jit(main)/jit(_normal)/jit(_normal_real)/jit(_uniform)/add" source_file="/global/homes/j/jackm/software/lorrax_C/src/solvers/lanczos.py" source_line=247}
  %add.289 = u32[1024]{0} add(%xor.285, %broadcast.288), metadata={op_name="jit(_full_run)/jit(main)/jit(_normal)/jit(_normal_real)/jit(_uniform)/add" source_file="/global/homes/j/jackm/software/lorrax_C/src/solvers/lanczos.py" source_line=247}
  %constant.245 = u32[] constant(1)
  %broadcast.246 = u32[1024]{0} broadcast(%constant.245), dimensions={}
  %add.290 = u32[1024]{0} add(%add.289, %broadcast.246), metadata={op_name="jit(_full_run)/jit(main)/jit(_normal)/jit(_normal_real)/jit(_uniform)/add" source_file="/global/homes/j/jackm/software/lorrax_C/src/solvers/lanczos.py" source_line=247}
  %add.291 = u32[1024]{0} add(%add.287, %add.290), metadata={op_name="jit(_full_run)/jit(main)/jit(_normal)/jit(_normal_real)/jit(_uniform)/add" source_file="/global/homes/j/jackm/software/lorrax_C/src/solvers/lanczos.py" source_line=247}
  %shift-left.292 = u32[1024]{0} shift-left(%add.290, %broadcast.252), metadata={op_name="jit(_full_run)/jit(main)/jit(_normal)/jit(_normal_real)/jit(_uniform)/shift_left" source_file="/global/homes/j/jackm/software/lorrax_C/src/solvers/lanczos.py" source_line=247}
  %shift-right-logical.293 = u32[1024]{0} shift-right-logical(%add.290, %broadcast.254), metadata={op_name="jit(_full_run)/jit(main)/jit(_normal)/jit(_normal_real)/jit(_uniform)/shift_right_logical" source_file="/global/homes/j/jackm/software/lorrax_C/src/solvers/lanczos.py" source_line=247}
  %or.294 = u32[1024]{0} or(%shift-left.292, %shift-right-logical.293), metadata={op_name="jit(_full_run)/jit(main)/jit(_normal)/jit(_normal_real)/jit(_uniform)/or" source_file="/global/homes/j/jackm/software/lorrax_C/src/solvers/lanczos.py" source_line=247}
  %xor.295 = u32[1024]{0} xor(%add.291, %or.294), metadata={op_name="jit(_full_run)/jit(main)/jit(_normal)/jit(_normal_real)/jit(_uniform)/xor" source_file="/global/homes/j/jackm/software/lorrax_C/src/solvers/lanczos.py" source_line=247}
  %add.296 = u32[1024]{0} add(%add.291, %xor.295), metadata={op_name="jit(_full_run)/jit(main)/jit(_normal)/jit(_normal_real)/jit(_uniform)/add" source_file="/global/homes/j/jackm/software/lorrax_C/src/solvers/lanczos.py" source_line=247}
  %constant.243 = u32[] constant(29)
  %broadcast.244 = u32[1024]{0} broadcast(%constant.243), dimensions={}
  %shift-left.297 = u32[1024]{0} shift-left(%xor.295, %broadcast.244), metadata={op_name="jit(_full_run)/jit(main)/jit(_normal)/jit(_normal_real)/jit(_uniform)/shift_left" source_file="/global/homes/j/jackm/software/lorrax_C/src/solvers/lanczos.py" source_line=247}
  %constant.241 = u32[] constant(3)
  %broadcast.242 = u32[1024]{0} broadcast(%constant.241), dimensions={}
  %shift-right-logical.298 = u32[1024]{0} shift-right-logical(%xor.295, %broadcast.242), metadata={op_name="jit(_full_run)/jit(main)/jit(_normal)/jit(_normal_real)/jit(_uniform)/shift_right_logical" source_file="/global/homes/j/jackm/software/lorrax_C/src/solvers/lanczos.py" source_line=247}
  %or.299 = u32[1024]{0} or(%shift-left.297, %shift-right-logical.298), metadata={op_name="jit(_full_run)/jit(main)/jit(_normal)/jit(_normal_real)/jit(_uniform)/or" source_file="/global/homes/j/jackm/software/lorrax_C/src/solvers/lanczos.py" source_line=247}
  %xor.300 = u32[1024]{0} xor(%add.296, %or.299), metadata={op_name="jit(_full_run)/jit(main)/jit(_normal)/jit(_normal_real)/jit(_uniform)/xor" source_file="/global/homes/j/jackm/software/lorrax_C/src/solvers/lanczos.py" source_line=247}
  %add.301 = u32[1024]{0} add(%add.296, %xor.300), metadata={op_name="jit(_full_run)/jit(main)/jit(_normal)/jit(_normal_real)/jit(_uniform)/add" source_file="/global/homes/j/jackm/software/lorrax_C/src/solvers/lanczos.py" source_line=247}
  %constant.239 = u32[] constant(16)
  %broadcast.240 = u32[1024]{0} broadcast(%constant.239), dimensions={}
  %shift-left.302 = u32[1024]{0} shift-left(%xor.300, %broadcast.240), metadata={op_name="jit(_full_run)/jit(main)/jit(_normal)/jit(_normal_real)/jit(_uniform)/shift_left" source_file="/global/homes/j/jackm/software/lorrax_C/src/solvers/lanczos.py" source_line=247}
  %shift-right-logical.303 = u32[1024]{0} shift-right-logical(%xor.300, %broadcast.240), metadata={op_name="jit(_full_run)/jit(main)/jit(_normal)/jit(_normal_real)/jit(_uniform)/shift_right_logical" source_file="/global/homes/j/jackm/software/lorrax_C/src/solvers/lanczos.py" source_line=247}
  %or.304 = u32[1024]{0} or(%shift-left.302, %shift-right-logical.303), metadata={op_name="jit(_full_run)/jit(main)/jit(_normal)/jit(_normal_real)/jit(_uniform)/or" source_file="/global/homes/j/jackm/software/lorrax_C/src/solvers/lanczos.py" source_line=247}
  %xor.305 = u32[1024]{0} xor(%add.301, %or.304), metadata={op_name="jit(_full_run)/jit(main)/jit(_normal)/jit(_normal_real)/jit(_uniform)/xor" source_file="/global/homes/j/jackm/software/lorrax_C/src/solvers/lanczos.py" source_line=247}
  %add.306 = u32[1024]{0} add(%add.301, %xor.305), metadata={op_name="jit(_full_run)/jit(main)/jit(_normal)/jit(_normal_real)/jit(_uniform)/add" source_file="/global/homes/j/jackm/software/lorrax_C/src/solvers/lanczos.py" source_line=247}
  %broadcast.311 = u32[1024]{0} broadcast(%xor.261), dimensions={}, metadata={op_name="jit(_full_run)/jit(main)/jit(_normal)/jit(_normal_real)/jit(_uniform)/add" source_file="/global/homes/j/jackm/software/lorrax_C/src/solvers/lanczos.py" source_line=247}
  %add.312 = u32[1024]{0} add(%add.306, %broadcast.311), metadata={op_name="jit(_full_run)/jit(main)/jit(_normal)/jit(_normal_real)/jit(_uniform)/add" source_file="/global/homes/j/jackm/software/lorrax_C/src/solvers/lanczos.py" source_line=247}
  %constant.237 = u32[] constant(24)
  %broadcast.238 = u32[1024]{0} broadcast(%constant.237), dimensions={}
  %shift-left.307 = u32[1024]{0} shift-left(%xor.305, %broadcast.238), metadata={op_name="jit(_full_run)/jit(main)/jit(_normal)/jit(_normal_real)/jit(_uniform)/shift_left" source_file="/global/homes/j/jackm/software/lorrax_C/src/solvers/lanczos.py" source_line=247}
  %constant.235 = u32[] constant(8)
  %broadcast.236 = u32[1024]{0} broadcast(%constant.235), dimensions={}
  %shift-right-logical.308 = u32[1024]{0} shift-right-logical(%xor.305, %broadcast.236), metadata={op_name="jit(_full_run)/jit(main)/jit(_normal)/jit(_normal_real)/jit(_uniform)/shift_right_logical" source_file="/global/homes/j/jackm/software/lorrax_C/src/solvers/lanczos.py" source_line=247}
  %or.309 = u32[1024]{0} or(%shift-left.307, %shift-right-logical.308), metadata={op_name="jit(_full_run)/jit(main)/jit(_normal)/jit(_normal_real)/jit(_uniform)/or" source_file="/global/homes/j/jackm/software/lorrax_C/src/solvers/lanczos.py" source_line=247}
  %xor.310 = u32[1024]{0} xor(%add.306, %or.309), metadata={op_name="jit(_full_run)/jit(main)/jit(_normal)/jit(_normal_real)/jit(_uniform)/xor" source_file="/global/homes/j/jackm/software/lorrax_C/src/solvers/lanczos.py" source_line=247}
  %broadcast.313 = u32[1024]{0} broadcast(%Arg_0.225), dimensions={}, metadata={op_name="jit(_full_run)/jit(main)/jit(_normal)/jit(_normal_real)/jit(_uniform)/add" source_file="/global/homes/j/jackm/software/lorrax_C/src/solvers/lanczos.py" source_line=247}
  %add.314 = u32[1024]{0} add(%xor.310, %broadcast.313), metadata={op_name="jit(_full_run)/jit(main)/jit(_normal)/jit(_normal_real)/jit(_uniform)/add" source_file="/global/homes/j/jackm/software/lorrax_C/src/solvers/lanczos.py" source_line=247}
  %constant.233 = u32[] constant(2)
  %broadcast.234 = u32[1024]{0} broadcast(%constant.233), dimensions={}
  %add.315 = u32[1024]{0} add(%add.314, %broadcast.234), metadata={op_name="jit(_full_run)/jit(main)/jit(_normal)/jit(_normal_real)/jit(_uniform)/add" source_file="/global/homes/j/jackm/software/lorrax_C/src/solvers/lanczos.py" source_line=247}
  %add.316 = u32[1024]{0} add(%add.312, %add.315), metadata={op_name="jit(_full_run)/jit(main)/jit(_normal)/jit(_normal_real)/jit(_uniform)/add" source_file="/global/homes/j/jackm/software/lorrax_C/src/solvers/lanczos.py" source_line=247}
  %shift-left.317 = u32[1024]{0} shift-left(%add.315, %broadcast.258), metadata={op_name="jit(_full_run)/jit(main)/jit(_normal)/jit(_normal_real)/jit(_uniform)/shift_left" source_file="/global/homes/j/jackm/software/lorrax_C/src/solvers/lanczos.py" source_line=247}
  %shift-right-logical.318 = u32[1024]{0} shift-right-logical(%add.315, %broadcast.256), metadata={op_name="jit(_full_run)/jit(main)/jit(_normal)/jit(_normal_real)/jit(_uniform)/shift_right_logical" source_file="/global/homes/j/jackm/software/lorrax_C/src/solvers/lanczos.py" source_line=247}
  %or.319 = u32[1024]{0} or(%shift-left.317, %shift-right-logical.318), metadata={op_name="jit(_full_run)/jit(main)/jit(_normal)/jit(_normal_real)/jit(_uniform)/or" source_file="/global/homes/j/jackm/software/lorrax_C/src/solvers/lanczos.py" source_line=247}
  %xor.320 = u32[1024]{0} xor(%add.316, %or.319), metadata={op_name="jit(_full_run)/jit(main)/jit(_normal)/jit(_normal_real)/jit(_uniform)/xor" source_file="/global/homes/j/jackm/software/lorrax_C/src/solvers/lanczos.py" source_line=247}
  %add.321 = u32[1024]{0} add(%add.316, %xor.320), metadata={op_name="jit(_full_run)/jit(main)/jit(_normal)/jit(_normal_real)/jit(_uniform)/add" source_file="/global/homes/j/jackm/software/lorrax_C/src/solvers/lanczos.py" source_line=247}
  %shift-left.322 = u32[1024]{0} shift-left(%xor.320, %broadcast.254), metadata={op_name="jit(_full_run)/jit(main)/jit(_normal)/jit(_normal_real)/jit(_uniform)/shift_left" source_file="/global/homes/j/jackm/software/lorrax_C/src/solvers/lanczos.py" source_line=247}
  %shift-right-logical.323 = u32[1024]{0} shift-right-logical(%xor.320, %broadcast.252), metadata={op_name="jit(_full_run)/jit(main)/jit(_normal)/jit(_normal_real)/jit(_uniform)/shift_right_logical" source_file="/global/homes/j/jackm/software/lorrax_C/src/solvers/lanczos.py" source_line=247}
  %or.324 = u32[1024]{0} or(%shift-left.322, %shift-right-logical.323), metadata={op_name="jit(_full_run)/jit(main)/jit(_normal)/jit(_normal_real)/jit(_uniform)/or" source_file="/global/homes/j/jackm/software/lorrax_C/src/solvers/lanczos.py" source_line=247}
  %xor.325 = u32[1024]{0} xor(%add.321, %or.324), metadata={op_name="jit(_full_run)/jit(main)/jit(_normal)/jit(_normal_real)/jit(_uniform)/xor" source_file="/global/homes/j/jackm/software/lorrax_C/src/solvers/lanczos.py" source_line=247}
  %add.326 = u32[1024]{0} add(%add.321, %xor.325), metadata={op_name="jit(_full_run)/jit(main)/jit(_normal)/jit(_normal_real)/jit(_uniform)/add" source_file="/global/homes/j/jackm/software/lorrax_C/src/solvers/lanczos.py" source_line=247}
  %shift-left.327 = u32[1024]{0} shift-left(%xor.325, %broadcast.250), metadata={op_name="jit(_full_run)/jit(main)/jit(_normal)/jit(_normal_real)/jit(_uniform)/shift_left" source_file="/global/homes/j/jackm/software/lorrax_C/src/solvers/lanczos.py" source_line=247}
  %shift-right-logical.328 = u32[1024]{0} shift-right-logical(%xor.325, %broadcast.248), metadata={op_name="jit(_full_run)/jit(main)/jit(_normal)/jit(_normal_real)/jit(_uniform)/shift_right_logical" source_file="/global/homes/j/jackm/software/lorrax_C/src/solvers/lanczos.py" source_line=247}
  %or.329 = u32[1024]{0} or(%shift-left.327, %shift-right-logical.328), metadata={op_name="jit(_full_run)/jit(main)/jit(_normal)/jit(_normal_real)/jit(_uniform)/or" source_file="/global/homes/j/jackm/software/lorrax_C/src/solvers/lanczos.py" source_line=247}
  %xor.330 = u32[1024]{0} xor(%add.326, %or.329), metadata={op_name="jit(_full_run)/jit(main)/jit(_normal)/jit(_normal_real)/jit(_uniform)/xor" source_file="/global/homes/j/jackm/software/lorrax_C/src/solvers/lanczos.py" source_line=247}
  %add.331 = u32[1024]{0} add(%add.326, %xor.330), metadata={op_name="jit(_full_run)/jit(main)/jit(_normal)/jit(_normal_real)/jit(_uniform)/add" source_file="/global/homes/j/jackm/software/lorrax_C/src/solvers/lanczos.py" source_line=247}
  %broadcast.336 = u32[1024]{0} broadcast(%Arg_0.225), dimensions={}, metadata={op_name="jit(_full_run)/jit(main)/jit(_normal)/jit(_normal_real)/jit(_uniform)/add" source_file="/global/homes/j/jackm/software/lorrax_C/src/solvers/lanczos.py" source_line=247}
  %add.337 = u32[1024]{0} add(%add.331, %broadcast.336), metadata={op_name="jit(_full_run)/jit(main)/jit(_normal)/jit(_normal_real)/jit(_uniform)/add" source_file="/global/homes/j/jackm/software/lorrax_C/src/solvers/lanczos.py" source_line=247}
  %shift-left.332 = u32[1024]{0} shift-left(%xor.330, %broadcast.248), metadata={op_name="jit(_full_run)/jit(main)/jit(_normal)/jit(_normal_real)/jit(_uniform)/shift_left" source_file="/global/homes/j/jackm/software/lorrax_C/src/solvers/lanczos.py" source_line=247}
  %shift-right-logical.333 = u32[1024]{0} shift-right-logical(%xor.330, %broadcast.250), metadata={op_name="jit(_full_run)/jit(main)/jit(_normal)/jit(_normal_real)/jit(_uniform)/shift_right_logical" source_file="/global/homes/j/jackm/software/lorrax_C/src/solvers/lanczos.py" source_line=247}
  %or.334 = u32[1024]{0} or(%shift-left.332, %shift-right-logical.333), metadata={op_name="jit(_full_run)/jit(main)/jit(_normal)/jit(_normal_real)/jit(_uniform)/or" source_file="/global/homes/j/jackm/software/lorrax_C/src/solvers/lanczos.py" source_line=247}
  %xor.335 = u32[1024]{0} xor(%add.331, %or.334), metadata={op_name="jit(_full_run)/jit(main)/jit(_normal)/jit(_normal_real)/jit(_uniform)/xor" source_file="/global/homes/j/jackm/software/lorrax_C/src/solvers/lanczos.py" source_line=247}
  %broadcast.338 = u32[1024]{0} broadcast(%Arg_1.226), dimensions={}, metadata={op_name="jit(_full_run)/jit(main)/jit(_normal)/jit(_normal_real)/jit(_uniform)/add" source_file="/global/homes/j/jackm/software/lorrax_C/src/solvers/lanczos.py" source_line=247}
  %add.339 = u32[1024]{0} add(%xor.335, %broadcast.338), metadata={op_name="jit(_full_run)/jit(main)/jit(_normal)/jit(_normal_real)/jit(_uniform)/add" source_file="/global/homes/j/jackm/software/lorrax_C/src/solvers/lanczos.py" source_line=247}
  %add.340 = u32[1024]{0} add(%add.339, %broadcast.242), metadata={op_name="jit(_full_run)/jit(main)/jit(_normal)/jit(_normal_real)/jit(_uniform)/add" source_file="/global/homes/j/jackm/software/lorrax_C/src/solvers/lanczos.py" source_line=247}
  %add.341 = u32[1024]{0} add(%add.337, %add.340), metadata={op_name="jit(_full_run)/jit(main)/jit(_normal)/jit(_normal_real)/jit(_uniform)/add" source_file="/global/homes/j/jackm/software/lorrax_C/src/solvers/lanczos.py" source_line=247}
  %shift-left.342 = u32[1024]{0} shift-left(%add.340, %broadcast.252), metadata={op_name="jit(_full_run)/jit(main)/jit(_normal)/jit(_normal_real)/jit(_uniform)/shift_left" source_file="/global/homes/j/jackm/software/lorrax_C/src/solvers/lanczos.py" source_line=247}
  %shift-right-logical.343 = u32[1024]{0} shift-right-logical(%add.340, %broadcast.254), metadata={op_name="jit(_full_run)/jit(main)/jit(_normal)/jit(_normal_real)/jit(_uniform)/shift_right_logical" source_file="/global/homes/j/jackm/software/lorrax_C/src/solvers/lanczos.py" source_line=247}
  %or.344 = u32[1024]{0} or(%shift-left.342, %shift-right-logical.343), metadata={op_name="jit(_full_run)/jit(main)/jit(_normal)/jit(_normal_real)/jit(_uniform)/or" source_file="/global/homes/j/jackm/software/lorrax_C/src/solvers/lanczos.py" source_line=247}
  %xor.345 = u32[1024]{0} xor(%add.341, %or.344), metadata={op_name="jit(_full_run)/jit(main)/jit(_normal)/jit(_normal_real)/jit(_uniform)/xor" source_file="/global/homes/j/jackm/software/lorrax_C/src/solvers/lanczos.py" source_line=247}
  %add.346 = u32[1024]{0} add(%add.341, %xor.345), metadata={op_name="jit(_full_run)/jit(main)/jit(_normal)/jit(_normal_real)/jit(_uniform)/add" source_file="/global/homes/j/jackm/software/lorrax_C/src/solvers/lanczos.py" source_line=247}
  %shift-left.347 = u32[1024]{0} shift-left(%xor.345, %broadcast.244), metadata={op_name="jit(_full_run)/jit(main)/jit(_normal)/jit(_normal_real)/jit(_uniform)/shift_left" source_file="/global/homes/j/jackm/software/lorrax_C/src/solvers/lanczos.py" source_line=247}
  %shift-right-logical.348 = u32[1024]{0} shift-right-logical(%xor.345, %broadcast.242), metadata={op_name="jit(_full_run)/jit(main)/jit(_normal)/jit(_normal_real)/jit(_uniform)/shift_right_logical" source_file="/global/homes/j/jackm/software/lorrax_C/src/solvers/lanczos.py" source_line=247}
  %or.349 = u32[1024]{0} or(%shift-left.347, %shift-right-logical.348), metadata={op_name="jit(_full_run)/jit(main)/jit(_normal)/jit(_normal_real)/jit(_uniform)/or" source_file="/global/homes/j/jackm/software/lorrax_C/src/solvers/lanczos.py" source_line=247}
  %xor.350 = u32[1024]{0} xor(%add.346, %or.349), metadata={op_name="jit(_full_run)/jit(main)/jit(_normal)/jit(_normal_real)/jit(_uniform)/xor" source_file="/global/homes/j/jackm/software/lorrax_C/src/solvers/lanczos.py" source_line=247}
  %add.351 = u32[1024]{0} add(%add.346, %xor.350), metadata={op_name="jit(_full_run)/jit(main)/jit(_normal)/jit(_normal_real)/jit(_uniform)/add" source_file="/global/homes/j/jackm/software/lorrax_C/src/solvers/lanczos.py" source_line=247}
  %shift-left.352 = u32[1024]{0} shift-left(%xor.350, %broadcast.240), metadata={op_name="jit(_full_run)/jit(main)/jit(_normal)/jit(_normal_real)/jit(_uniform)/shift_left" source_file="/global/homes/j/jackm/software/lorrax_C/src/solvers/lanczos.py" source_line=247}
  %shift-right-logical.353 = u32[1024]{0} shift-right-logical(%xor.350, %broadcast.240), metadata={op_name="jit(_full_run)/jit(main)/jit(_normal)/jit(_normal_real)/jit(_uniform)/shift_right_logical" source_file="/global/homes/j/jackm/software/lorrax_C/src/solvers/lanczos.py" source_line=247}
  %or.354 = u32[1024]{0} or(%shift-left.352, %shift-right-logical.353), metadata={op_name="jit(_full_run)/jit(main)/jit(_normal)/jit(_normal_real)/jit(_uniform)/or" source_file="/global/homes/j/jackm/software/lorrax_C/src/solvers/lanczos.py" source_line=247}
  %xor.355 = u32[1024]{0} xor(%add.351, %or.354), metadata={op_name="jit(_full_run)/jit(main)/jit(_normal)/jit(_normal_real)/jit(_uniform)/xor" source_file="/global/homes/j/jackm/software/lorrax_C/src/solvers/lanczos.py" source_line=247}
  %add.356 = u32[1024]{0} add(%add.351, %xor.355), metadata={op_name="jit(_full_run)/jit(main)/jit(_normal)/jit(_normal_real)/jit(_uniform)/add" source_file="/global/homes/j/jackm/software/lorrax_C/src/solvers/lanczos.py" source_line=247}
  %broadcast.361 = u32[1024]{0} broadcast(%Arg_1.226), dimensions={}, metadata={op_name="jit(_full_run)/jit(main)/jit(_normal)/jit(_normal_real)/jit(_uniform)/add" source_file="/global/homes/j/jackm/software/lorrax_C/src/solvers/lanczos.py" source_line=247}
  %add.362 = u32[1024]{0} add(%add.356, %broadcast.361), metadata={op_name="jit(_full_run)/jit(main)/jit(_normal)/jit(_normal_real)/jit(_uniform)/add" source_file="/global/homes/j/jackm/software/lorrax_C/src/solvers/lanczos.py" source_line=247}
  %shift-left.357 = u32[1024]{0} shift-left(%xor.355, %broadcast.238), metadata={op_name="jit(_full_run)/jit(main)/jit(_normal)/jit(_normal_real)/jit(_uniform)/shift_left" source_file="/global/homes/j/jackm/software/lorrax_C/src/solvers/lanczos.py" source_line=247}
  %shift-right-logical.358 = u32[1024]{0} shift-right-logical(%xor.355, %broadcast.236), metadata={op_name="jit(_full_run)/jit(main)/jit(_normal)/jit(_normal_real)/jit(_uniform)/shift_right_logical" source_file="/global/homes/j/jackm/software/lorrax_C/src/solvers/lanczos.py" source_line=247}
  %or.359 = u32[1024]{0} or(%shift-left.357, %shift-right-logical.358), metadata={op_name="jit(_full_run)/jit(main)/jit(_normal)/jit(_normal_real)/jit(_uniform)/or" source_file="/global/homes/j/jackm/software/lorrax_C/src/solvers/lanczos.py" source_line=247}
  %xor.360 = u32[1024]{0} xor(%add.356, %or.359), metadata={op_name="jit(_full_run)/jit(main)/jit(_normal)/jit(_normal_real)/jit(_uniform)/xor" source_file="/global/homes/j/jackm/software/lorrax_C/src/solvers/lanczos.py" source_line=247}
  %broadcast.363 = u32[1024]{0} broadcast(%xor.261), dimensions={}, metadata={op_name="jit(_full_run)/jit(main)/jit(_normal)/jit(_normal_real)/jit(_uniform)/add" source_file="/global/homes/j/jackm/software/lorrax_C/src/solvers/lanczos.py" source_line=247}
  %add.364 = u32[1024]{0} add(%xor.360, %broadcast.363), metadata={op_name="jit(_full_run)/jit(main)/jit(_normal)/jit(_normal_real)/jit(_uniform)/add" source_file="/global/homes/j/jackm/software/lorrax_C/src/solvers/lanczos.py" source_line=247}
  %constant.231 = u32[] constant(4)
  %broadcast.232 = u32[1024]{0} broadcast(%constant.231), dimensions={}
  %add.365 = u32[1024]{0} add(%add.364, %broadcast.232), metadata={op_name="jit(_full_run)/jit(main)/jit(_normal)/jit(_normal_real)/jit(_uniform)/add" source_file="/global/homes/j/jackm/software/lorrax_C/src/solvers/lanczos.py" source_line=247}
  %add.366 = u32[1024]{0} add(%add.362, %add.365), metadata={op_name="jit(_full_run)/jit(main)/jit(_normal)/jit(_normal_real)/jit(_uniform)/add" source_file="/global/homes/j/jackm/software/lorrax_C/src/solvers/lanczos.py" source_line=247}
  %shift-left.367 = u32[1024]{0} shift-left(%add.365, %broadcast.258), metadata={op_name="jit(_full_run)/jit(main)/jit(_normal)/jit(_normal_real)/jit(_uniform)/shift_left" source_file="/global/homes/j/jackm/software/lorrax_C/src/solvers/lanczos.py" source_line=247}
  %shift-right-logical.368 = u32[1024]{0} shift-right-logical(%add.365, %broadcast.256), metadata={op_name="jit(_full_run)/jit(main)/jit(_normal)/jit(_normal_real)/jit(_uniform)/shift_right_logical" source_file="/global/homes/j/jackm/software/lorrax_C/src/solvers/lanczos.py" source_line=247}
  %or.369 = u32[1024]{0} or(%shift-left.367, %shift-right-logical.368), metadata={op_name="jit(_full_run)/jit(main)/jit(_normal)/jit(_normal_real)/jit(_uniform)/or" source_file="/global/homes/j/jackm/software/lorrax_C/src/solvers/lanczos.py" source_line=247}
  %xor.370 = u32[1024]{0} xor(%add.366, %or.369), metadata={op_name="jit(_full_run)/jit(main)/jit(_normal)/jit(_normal_real)/jit(_uniform)/xor" source_file="/global/homes/j/jackm/software/lorrax_C/src/solvers/lanczos.py" source_line=247}
  %add.371 = u32[1024]{0} add(%add.366, %xor.370), metadata={op_name="jit(_full_run)/jit(main)/jit(_normal)/jit(_normal_real)/jit(_uniform)/add" source_file="/global/homes/j/jackm/software/lorrax_C/src/solvers/lanczos.py" source_line=247}
  %shift-left.372 = u32[1024]{0} shift-left(%xor.370, %broadcast.254), metadata={op_name="jit(_full_run)/jit(main)/jit(_normal)/jit(_normal_real)/jit(_uniform)/shift_left" source_file="/global/homes/j/jackm/software/lorrax_C/src/solvers/lanczos.py" source_line=247}
  %shift-right-logical.373 = u32[1024]{0} shift-right-logical(%xor.370, %broadcast.252), metadata={op_name="jit(_full_run)/jit(main)/jit(_normal)/jit(_normal_real)/jit(_uniform)/shift_right_logical" source_file="/global/homes/j/jackm/software/lorrax_C/src/solvers/lanczos.py" source_line=247}
  %or.374 = u32[1024]{0} or(%shift-left.372, %shift-right-logical.373), metadata={op_name="jit(_full_run)/jit(main)/jit(_normal)/jit(_normal_real)/jit(_uniform)/or" source_file="/global/homes/j/jackm/software/lorrax_C/src/solvers/lanczos.py" source_line=247}
  %xor.375 = u32[1024]{0} xor(%add.371, %or.374), metadata={op_name="jit(_full_run)/jit(main)/jit(_normal)/jit(_normal_real)/jit(_uniform)/xor" source_file="/global/homes/j/jackm/software/lorrax_C/src/solvers/lanczos.py" source_line=247}
  %add.376 = u32[1024]{0} add(%add.371, %xor.375), metadata={op_name="jit(_full_run)/jit(main)/jit(_normal)/jit(_normal_real)/jit(_uniform)/add" source_file="/global/homes/j/jackm/software/lorrax_C/src/solvers/lanczos.py" source_line=247}
  %shift-left.377 = u32[1024]{0} shift-left(%xor.375, %broadcast.250), metadata={op_name="jit(_full_run)/jit(main)/jit(_normal)/jit(_normal_real)/jit(_uniform)/shift_left" source_file="/global/homes/j/jackm/software/lorrax_C/src/solvers/lanczos.py" source_line=247}
  %shift-right-logical.378 = u32[1024]{0} shift-right-logical(%xor.375, %broadcast.248), metadata={op_name="jit(_full_run)/jit(main)/jit(_normal)/jit(_normal_real)/jit(_uniform)/shift_right_logical" source_file="/global/homes/j/jackm/software/lorrax_C/src/solvers/lanczos.py" source_line=247}
  %or.379 = u32[1024]{0} or(%shift-left.377, %shift-right-logical.378), metadata={op_name="jit(_full_run)/jit(main)/jit(_normal)/jit(_normal_real)/jit(_uniform)/or" source_file="/global/homes/j/jackm/software/lorrax_C/src/solvers/lanczos.py" source_line=247}
  %xor.380 = u32[1024]{0} xor(%add.376, %or.379), metadata={op_name="jit(_full_run)/jit(main)/jit(_normal)/jit(_normal_real)/jit(_uniform)/xor" source_file="/global/homes/j/jackm/software/lorrax_C/src/solvers/lanczos.py" source_line=247}
  %add.381 = u32[1024]{0} add(%add.376, %xor.380), metadata={op_name="jit(_full_run)/jit(main)/jit(_normal)/jit(_normal_real)/jit(_uniform)/add" source_file="/global/homes/j/jackm/software/lorrax_C/src/solvers/lanczos.py" source_line=247}
  %broadcast.386 = u32[1024]{0} broadcast(%xor.261), dimensions={}, metadata={op_name="jit(_full_run)/jit(main)/jit(_normal)/jit(_normal_real)/jit(_uniform)/add" source_file="/global/homes/j/jackm/software/lorrax_C/src/solvers/lanczos.py" source_line=247}
  %add.387 = u32[1024]{0} add(%add.381, %broadcast.386), metadata={op_name="jit(_full_run)/jit(main)/jit(_normal)/jit(_normal_real)/jit(_uniform)/add" source_file="/global/homes/j/jackm/software/lorrax_C/src/solvers/lanczos.py" source_line=247}
  %shift-left.382 = u32[1024]{0} shift-left(%xor.380, %broadcast.248), metadata={op_name="jit(_full_run)/jit(main)/jit(_normal)/jit(_normal_real)/jit(_uniform)/shift_left" source_file="/global/homes/j/jackm/software/lorrax_C/src/solvers/lanczos.py" source_line=247}
  %shift-right-logical.383 = u32[1024]{0} shift-right-logical(%xor.380, %broadcast.250), metadata={op_name="jit(_full_run)/jit(main)/jit(_normal)/jit(_normal_real)/jit(_uniform)/shift_right_logical" source_file="/global/homes/j/jackm/software/lorrax_C/src/solvers/lanczos.py" source_line=247}
  %or.384 = u32[1024]{0} or(%shift-left.382, %shift-right-logical.383), metadata={op_name="jit(_full_run)/jit(main)/jit(_normal)/jit(_normal_real)/jit(_uniform)/or" source_file="/global/homes/j/jackm/software/lorrax_C/src/solvers/lanczos.py" source_line=247}
  %xor.385 = u32[1024]{0} xor(%add.381, %or.384), metadata={op_name="jit(_full_run)/jit(main)/jit(_normal)/jit(_normal_real)/jit(_uniform)/xor" source_file="/global/homes/j/jackm/software/lorrax_C/src/solvers/lanczos.py" source_line=247}
  %broadcast.388 = u32[1024]{0} broadcast(%Arg_0.225), dimensions={}, metadata={op_name="jit(_full_run)/jit(main)/jit(_normal)/jit(_normal_real)/jit(_uniform)/add" source_file="/global/homes/j/jackm/software/lorrax_C/src/solvers/lanczos.py" source_line=247}
  %add.389 = u32[1024]{0} add(%xor.385, %broadcast.388), metadata={op_name="jit(_full_run)/jit(main)/jit(_normal)/jit(_normal_real)/jit(_uniform)/add" source_file="/global/homes/j/jackm/software/lorrax_C/src/solvers/lanczos.py" source_line=247}
  %constant.229 = u32[] constant(5)
  %broadcast.230 = u32[1024]{0} broadcast(%constant.229), dimensions={}
  %add.390 = u32[1024]{0} add(%add.389, %broadcast.230), metadata={op_name="jit(_full_run)/jit(main)/jit(_normal)/jit(_normal_real)/jit(_uniform)/add" source_file="/global/homes/j/jackm/software/lorrax_C/src/solvers/lanczos.py" source_line=247}
  ROOT %tuple.391 = (u32[1024]{0}, u32[1024]{0}) tuple(%add.387, %add.390)
}

%_uniform.392 (Arg_0.393: u32[2], Arg_1.394: f64[], Arg_2.395: f64[]) -> f64[1024] {
  %Arg_1.394 = f64[] parameter(1), metadata={op_name="jit(_full_run)/jit(main)/jit(_normal)/jit(_normal_real)/pjit"}
  %reshape.404 = f64[1]{0} reshape(%Arg_1.394), metadata={op_name="jit(_full_run)/jit(main)/jit(_normal)/jit(_normal_real)/jit(_uniform)/broadcast_in_dim" source_file="/global/homes/j/jackm/software/lorrax_C/src/solvers/lanczos.py" source_line=247}
  %broadcast.434 = f64[1]{0} broadcast(%reshape.404), dimensions={0}, metadata={op_name="jit(_full_run)/jit(main)/jit(_normal)/jit(_normal_real)/jit(_uniform)/max" source_file="/global/homes/j/jackm/software/lorrax_C/src/solvers/lanczos.py" source_line=247}
  %reshape.435 = f64[] reshape(%broadcast.434), metadata={op_name="jit(_full_run)/jit(main)/jit(_normal)/jit(_normal_real)/jit(_uniform)/max" source_file="/global/homes/j/jackm/software/lorrax_C/src/solvers/lanczos.py" source_line=247}
  %broadcast.436 = f64[1024]{0} broadcast(%reshape.435), dimensions={}, metadata={op_name="jit(_full_run)/jit(main)/jit(_normal)/jit(_normal_real)/jit(_uniform)/max" source_file="/global/homes/j/jackm/software/lorrax_C/src/solvers/lanczos.py" source_line=247}
  %Arg_0.393 = u32[2]{0} parameter(0), metadata={op_name="jit(_full_run)/jit(main)/jit(_normal)/jit(_normal_real)/pjit"}
  %slice.406 = u32[1]{0} slice(%Arg_0.393), slice={[0:1]}, metadata={op_name="jit(_full_run)/jit(main)/jit(_normal)/jit(_normal_real)/jit(_uniform)/slice" source_file="/global/homes/j/jackm/software/lorrax_C/src/solvers/lanczos.py" source_line=247}
  %reshape.407 = u32[] reshape(%slice.406), metadata={op_name="jit(_full_run)/jit(main)/jit(_normal)/jit(_normal_real)/jit(_uniform)/squeeze" source_file="/global/homes/j/jackm/software/lorrax_C/src/solvers/lanczos.py" source_line=247}
  %slice.408 = u32[1]{0} slice(%Arg_0.393), slice={[1:2]}, metadata={op_name="jit(_full_run)/jit(main)/jit(_normal)/jit(_normal_real)/jit(_uniform)/slice" source_file="/global/homes/j/jackm/software/lorrax_C/src/solvers/lanczos.py" source_line=247}
  %reshape.409 = u32[] reshape(%slice.408), metadata={op_name="jit(_full_run)/jit(main)/jit(_normal)/jit(_normal_real)/jit(_uniform)/squeeze" source_file="/global/homes/j/jackm/software/lorrax_C/src/solvers/lanczos.py" source_line=247}
  %iota.410 = u64[1024]{0} iota(), iota_dimension=0, metadata={op_name="jit(_full_run)/jit(main)/jit(_normal)/jit(_normal_real)/jit(_uniform)/iota_2x32_shape" source_file="/global/homes/j/jackm/software/lorrax_C/src/solvers/lanczos.py" source_line=247}
  %constant.402 = u64[] constant(32)
  %broadcast.403 = u64[1024]{0} broadcast(%constant.402), dimensions={}
  %shift-right-logical.411 = u64[1024]{0} shift-right-logical(%iota.410, %broadcast.403), metadata={op_name="jit(_full_run)/jit(main)/jit(_normal)/jit(_normal_real)/jit(_uniform)/iota_2x32_shape" source_file="/global/homes/j/jackm/software/lorrax_C/src/solvers/lanczos.py" source_line=247}
  %convert.413 = u32[1024]{0} convert(%shift-right-logical.411), metadata={op_name="jit(_full_run)/jit(main)/jit(_normal)/jit(_normal_real)/jit(_uniform)/iota_2x32_shape" source_file="/global/homes/j/jackm/software/lorrax_C/src/solvers/lanczos.py" source_line=247}
  %convert.412 = u32[1024]{0} convert(%iota.410), metadata={op_name="jit(_full_run)/jit(main)/jit(_normal)/jit(_normal_real)/jit(_uniform)/iota_2x32_shape" source_file="/global/homes/j/jackm/software/lorrax_C/src/solvers/lanczos.py" source_line=247}
  %call.414 = (u32[1024]{0}, u32[1024]{0}) call(%reshape.407, %reshape.409, %convert.413, %convert.412), to_apply=%threefry2x32_0.224
  %get-tuple-element.415 = u32[1024]{0} get-tuple-element(%call.414), index=0
  %convert.417 = u64[1024]{0} convert(%get-tuple-element.415), metadata={op_name="jit(_full_run)/jit(main)/jit(_normal)/jit(_normal_real)/jit(_uniform)/convert_element_type" source_file="/global/homes/j/jackm/software/lorrax_C/src/solvers/lanczos.py" source_line=247}
  %shift-left.419 = u64[1024]{0} shift-left(%convert.417, %broadcast.403), metadata={op_name="jit(_full_run)/jit(main)/jit(_normal)/jit(_normal_real)/jit(_uniform)/shift_left" source_file="/global/homes/j/jackm/software/lorrax_C/src/solvers/lanczos.py" source_line=247}
  %get-tuple-element.416 = u32[1024]{0} get-tuple-element(%call.414), index=1
  %convert.418 = u64[1024]{0} convert(%get-tuple-element.416), metadata={op_name="jit(_full_run)/jit(main)/jit(_normal)/jit(_normal_real)/jit(_uniform)/convert_element_type" source_file="/global/homes/j/jackm/software/lorrax_C/src/solvers/lanczos.py" source_line=247}
  %or.420 = u64[1024]{0} or(%shift-left.419, %convert.418), metadata={op_name="jit(_full_run)/jit(main)/jit(_normal)/jit(_normal_real)/jit(_uniform)/or" source_file="/global/homes/j/jackm/software/lorrax_C/src/solvers/lanczos.py" source_line=247}
  %constant.400 = u64[] constant(12)
  %broadcast.401 = u64[1024]{0} broadcast(%constant.400), dimensions={}
  %shift-right-logical.421 = u64[1024]{0} shift-right-logical(%or.420, %broadcast.401), metadata={op_name="jit(_full_run)/jit(main)/jit(_normal)/jit(_normal_real)/jit(_uniform)/shift_right_logical" source_file="/global/homes/j/jackm/software/lorrax_C/src/solvers/lanczos.py" source_line=247}
  %constant.398 = u64[] constant(4607182418800017408)
  %broadcast.399 = u64[1024]{0} broadcast(%constant.398), dimensions={}
  %or.422 = u64[1024]{0} or(%shift-right-logical.421, %broadcast.399), metadata={op_name="jit(_full_run)/jit(main)/jit(_normal)/jit(_normal_real)/jit(_uniform)/or" source_file="/global/homes/j/jackm/software/lorrax_C/src/solvers/lanczos.py" source_line=247}
  %bitcast-convert.423 = f64[1024]{0} bitcast-convert(%or.422), metadata={op_name="jit(_full_run)/jit(main)/jit(_normal)/jit(_normal_real)/jit(_uniform)/bitcast_convert_type" source_file="/global/homes/j/jackm/software/lorrax_C/src/solvers/lanczos.py" source_line=247}
  %constant.396 = f64[] constant(1)
  %broadcast.397 = f64[1024]{0} broadcast(%constant.396), dimensions={}
  %subtract.424 = f64[1024]{0} subtract(%bitcast-convert.423, %broadcast.397), metadata={op_name="jit(_full_run)/jit(main)/jit(_normal)/jit(_normal_real)/jit(_uniform)/sub" source_file="/global/homes/j/jackm/software/lorrax_C/src/solvers/lanczos.py" source_line=247}
  %Arg_2.395 = f64[] parameter(2), metadata={op_name="jit(_full_run)/jit(main)/jit(_normal)/jit(_normal_real)/pjit"}
  %reshape.405 = f64[1]{0} reshape(%Arg_2.395), metadata={op_name="jit(_full_run)/jit(main)/jit(_normal)/jit(_normal_real)/jit(_uniform)/broadcast_in_dim" source_file="/global/homes/j/jackm/software/lorrax_C/src/solvers/lanczos.py" source_line=247}
  %subtract.425 = f64[1]{0} subtract(%reshape.405, %reshape.404), metadata={op_name="jit(_full_run)/jit(main)/jit(_normal)/jit(_normal_real)/jit(_uniform)/sub" source_file="/global/homes/j/jackm/software/lorrax_C/src/solvers/lanczos.py" source_line=247}
  %broadcast.426 = f64[1]{0} broadcast(%subtract.425), dimensions={0}, metadata={op_name="jit(_full_run)/jit(main)/jit(_normal)/jit(_normal_real)/jit(_uniform)/mul" source_file="/global/homes/j/jackm/software/lorrax_C/src/solvers/lanczos.py" source_line=247}
  %reshape.427 = f64[] reshape(%broadcast.426), metadata={op_name="jit(_full_run)/jit(main)/jit(_normal)/jit(_normal_real)/jit(_uniform)/mul" source_file="/global/homes/j/jackm/software/lorrax_C/src/solvers/lanczos.py" source_line=247}
  %broadcast.428 = f64[1024]{0} broadcast(%reshape.427), dimensions={}, metadata={op_name="jit(_full_run)/jit(main)/jit(_normal)/jit(_normal_real)/jit(_uniform)/mul" source_file="/global/homes/j/jackm/software/lorrax_C/src/solvers/lanczos.py" source_line=247}
  %multiply.429 = f64[1024]{0} multiply(%subtract.424, %broadcast.428), metadata={op_name="jit(_full_run)/jit(main)/jit(_normal)/jit(_normal_real)/jit(_uniform)/mul" source_file="/global/homes/j/jackm/software/lorrax_C/src/solvers/lanczos.py" source_line=247}
  %broadcast.430 = f64[1]{0} broadcast(%reshape.404), dimensions={0}, metadata={op_name="jit(_full_run)/jit(main)/jit(_normal)/jit(_normal_real)/jit(_uniform)/add" source_file="/global/homes/j/jackm/software/lorrax_C/src/solvers/lanczos.py" source_line=247}
  %reshape.431 = f64[] reshape(%broadcast.430), metadata={op_name="jit(_full_run)/jit(main)/jit(_normal)/jit(_normal_real)/jit(_uniform)/add" source_file="/global/homes/j/jackm/software/lorrax_C/src/solvers/lanczos.py" source_line=247}
  %broadcast.432 = f64[1024]{0} broadcast(%reshape.431), dimensions={}, metadata={op_name="jit(_full_run)/jit(main)/jit(_normal)/jit(_normal_real)/jit(_uniform)/add" source_file="/global/homes/j/jackm/software/lorrax_C/src/solvers/lanczos.py" source_line=247}
  %add.433 = f64[1024]{0} add(%multiply.429, %broadcast.432), metadata={op_name="jit(_full_run)/jit(main)/jit(_normal)/jit(_normal_real)/jit(_uniform)/add" source_file="/global/homes/j/jackm/software/lorrax_C/src/solvers/lanczos.py" source_line=247}
  ROOT %maximum.437 = f64[1024]{0} maximum(%broadcast.436, %add.433), metadata={op_name="jit(_full_run)/jit(main)/jit(_normal)/jit(_normal_real)/jit(_uniform)/max" source_file="/global/homes/j/jackm/software/lorrax_C/src/solvers/lanczos.py" source_line=247}
}

%_normal_real.438 (Arg_0.439: u32[2]) -> f64[1024] {
  %Arg_0.439 = u32[2]{0} parameter(0), metadata={op_name="jit(_full_run)/jit(main)/jit(_normal)/pjit"}
  %constant.574 = f64[] constant(-0.99999999999999989)
  %constant.575 = f64[] constant(1)
  %call.576 = f64[1024]{0} call(%Arg_0.439, %constant.574, %constant.575), to_apply=%_uniform.392
  %abs.675 = f64[1024]{0} abs(%call.576), metadata={op_name="jit(_full_run)/jit(main)/jit(_normal)/jit(_normal_real)/erf_inv" source_file="/global/homes/j/jackm/software/lorrax_C/src/solvers/lanczos.py" source_line=247}
  %constant.444 = f64[] constant(1)
  %broadcast.445 = f64[1024]{0} broadcast(%constant.444), dimensions={}
  %compare.676 = pred[1024]{0} compare(%abs.675, %broadcast.445), direction=EQ, metadata={op_name="jit(_full_run)/jit(main)/jit(_normal)/jit(_normal_real)/erf_inv" source_file="/global/homes/j/jackm/software/lorrax_C/src/solvers/lanczos.py" source_line=247}
  %constant.442 = f64[] constant(inf)
  %broadcast.443 = f64[1024]{0} broadcast(%constant.442), dimensions={}
  %multiply.677 = f64[1024]{0} multiply(%call.576, %broadcast.443), metadata={op_name="jit(_full_run)/jit(main)/jit(_normal)/jit(_normal_real)/erf_inv" source_file="/global/homes/j/jackm/software/lorrax_C/src/solvers/lanczos.py" source_line=247}
  %negate.577 = f64[1024]{0} negate(%call.576), metadata={op_name="jit(_full_run)/jit(main)/jit(_normal)/jit(_normal_real)/erf_inv" source_file="/global/homes/j/jackm/software/lorrax_C/src/solvers/lanczos.py" source_line=247}
  %multiply.578 = f64[1024]{0} multiply(%call.576, %negate.577), metadata={op_name="jit(_full_run)/jit(main)/jit(_normal)/jit(_normal_real)/erf_inv" source_file="/global/homes/j/jackm/software/lorrax_C/src/solvers/lanczos.py" source_line=247}
  %log-plus-one.579 = f64[1024]{0} log-plus-one(%multiply.578), metadata={op_name="jit(_full_run)/jit(main)/jit(_normal)/jit(_normal_real)/erf_inv" source_file="/global/homes/j/jackm/software/lorrax_C/src/solvers/lanczos.py" source_line=247}
  %negate.580 = f64[1024]{0} negate(%log-plus-one.579), metadata={op_name="jit(_full_run)/jit(main)/jit(_normal)/jit(_normal_real)/erf_inv" source_file="/global/homes/j/jackm/software/lorrax_C/src/solvers/lanczos.py" source_line=247}
  %constant.572 = f64[] constant(6.25)
  %broadcast.573 = f64[1024]{0} broadcast(%constant.572), dimensions={}
  %compare.581 = pred[1024]{0} compare(%negate.580, %broadcast.573), direction=LT, metadata={op_name="jit(_full_run)/jit(main)/jit(_normal)/jit(_normal_real)/erf_inv" source_file="/global/homes/j/jackm/software/lorrax_C/src/solvers/lanczos.py" source_line=247}
  %constant.570 = f64[] constant(16)
  %broadcast.571 = f64[1024]{0} broadcast(%constant.570), dimensions={}
  %compare.582 = pred[1024]{0} compare(%negate.580, %broadcast.571), direction=LT, metadata={op_name="jit(_full_run)/jit(main)/jit(_normal)/jit(_normal_real)/erf_inv" source_file="/global/homes/j/jackm/software/lorrax_C/src/solvers/lanczos.py" source_line=247}
  %constant.456 = f64[] constant(0.00018673420803405714)
  %broadcast.457 = f64[1024]{0} broadcast(%constant.456), dimensions={}
  %constant.454 = f64[] constant(3.0838856104922208)
  %broadcast.455 = f64[1024]{0} broadcast(%constant.454), dimensions={}
  %select.658 = f64[1024]{0} select(%compare.581, %broadcast.457, %broadcast.455), metadata={op_name="jit(_full_run)/jit(main)/jit(_normal)/jit(_normal_real)/erf_inv" source_file="/global/homes/j/jackm/software/lorrax_C/src/solvers/lanczos.py" source_line=247}
  %constant.460 = f64[] constant(-1.3882523362786469e-05)
  %broadcast.461 = f64[1024]{0} broadcast(%constant.460), dimensions={}
  %constant.458 = f64[] constant(1.0052589676941592)
  %broadcast.459 = f64[1024]{0} broadcast(%constant.458), dimensions={}
  %select.654 = f64[1024]{0} select(%compare.581, %broadcast.461, %broadcast.459), metadata={op_name="jit(_full_run)/jit(main)/jit(_normal)/jit(_normal_real)/erf_inv" source_file="/global/homes/j/jackm/software/lorrax_C/src/solvers/lanczos.py" source_line=247}
  %constant.466 = f64[] constant(-1.3654692000834679e-06)
  %broadcast.467 = f64[1024]{0} broadcast(%constant.466), dimensions={}
  %constant.464 = f64[] constant(0.0053709145535900636)
  %broadcast.465 = f64[1024]{0} broadcast(%constant.464), dimensions={}
  %select.650 = f64[1024]{0} select(%compare.581, %broadcast.467, %broadcast.465), metadata={op_name="jit(_full_run)/jit(main)/jit(_normal)/jit(_normal_real)/erf_inv" source_file="/global/homes/j/jackm/software/lorrax_C/src/solvers/lanczos.py" source_line=247}
  %constant.462 = f64[] constant(4.8499064014085844)
  %broadcast.463 = f64[1024]{0} broadcast(%constant.462), dimensions={}
  %select.651 = f64[1024]{0} select(%compare.582, %select.650, %broadcast.463), metadata={op_name="jit(_full_run)/jit(main)/jit(_normal)/jit(_normal_real)/erf_inv" source_file="/global/homes/j/jackm/software/lorrax_C/src/solvers/lanczos.py" source_line=247}
  %constant.472 = f64[] constant(4.2347877827932404e-07)
  %broadcast.473 = f64[1024]{0} broadcast(%constant.472), dimensions={}
  %constant.470 = f64[] constant(-0.0037512085075692412)
  %broadcast.471 = f64[1024]{0} broadcast(%constant.470), dimensions={}
  %select.646 = f64[1024]{0} select(%compare.581, %broadcast.473, %broadcast.471), metadata={op_name="jit(_full_run)/jit(main)/jit(_normal)/jit(_normal_real)/erf_inv" source_file="/global/homes/j/jackm/software/lorrax_C/src/solvers/lanczos.py" source_line=247}
  %constant.468 = f64[] constant(1.0103004648645344)
  %broadcast.469 = f64[1024]{0} broadcast(%constant.468), dimensions={}
  %select.647 = f64[1024]{0} select(%compare.582, %select.646, %broadcast.469), metadata={op_name="jit(_full_run)/jit(main)/jit(_normal)/jit(_normal_real)/erf_inv" source_file="/global/homes/j/jackm/software/lorrax_C/src/solvers/lanczos.py" source_line=247}
  %constant.478 = f64[] constant(-2.9070369957882005e-08)
  %broadcast.479 = f64[1024]{0} broadcast(%constant.478), dimensions={}
  %constant.476 = f64[] constant(0.0024914420961078508)
  %broadcast.477 = f64[1024]{0} broadcast(%constant.476), dimensions={}
  %select.642 = f64[1024]{0} select(%compare.581, %broadcast.479, %broadcast.477), metadata={op_name="jit(_full_run)/jit(main)/jit(_normal)/jit(_normal_real)/erf_inv" source_file="/global/homes/j/jackm/software/lorrax_C/src/solvers/lanczos.py" source_line=247}
  %constant.474 = f64[] constant(-0.00013871931833623122)
  %broadcast.475 = f64[1024]{0} broadcast(%constant.474), dimensions={}
  %select.643 = f64[1024]{0} select(%compare.582, %select.642, %broadcast.475), metadata={op_name="jit(_full_run)/jit(main)/jit(_normal)/jit(_normal_real)/erf_inv" source_file="/global/homes/j/jackm/software/lorrax_C/src/solvers/lanczos.py" source_line=247}
  %constant.484 = f64[] constant(-4.1126339803469837e-09)
  %broadcast.485 = f64[1024]{0} broadcast(%constant.484), dimensions={}
  %constant.482 = f64[] constant(-0.0016882755560235047)
  %broadcast.483 = f64[1024]{0} broadcast(%constant.482), dimensions={}
  %select.638 = f64[1024]{0} select(%compare.581, %broadcast.485, %broadcast.483), metadata={op_name="jit(_full_run)/jit(main)/jit(_normal)/jit(_normal_real)/erf_inv" source_file="/global/homes/j/jackm/software/lorrax_C/src/solvers/lanczos.py" source_line=247}
  %constant.480 = f64[] constant(-0.00021503011930044477)
  %broadcast.481 = f64[1024]{0} broadcast(%constant.480), dimensions={}
  %select.639 = f64[1024]{0} select(%compare.582, %select.638, %broadcast.481), metadata={op_name="jit(_full_run)/jit(main)/jit(_normal)/jit(_normal_real)/erf_inv" source_file="/global/homes/j/jackm/software/lorrax_C/src/solvers/lanczos.py" source_line=247}
  %constant.490 = f64[] constant(1.0512122733215323e-09)
  %broadcast.491 = f64[1024]{0} broadcast(%constant.490), dimensions={}
  %constant.488 = f64[] constant(0.0009532893797373805)
  %broadcast.489 = f64[1024]{0} broadcast(%constant.488), dimensions={}
  %select.634 = f64[1024]{0} select(%compare.581, %broadcast.491, %broadcast.489), metadata={op_name="jit(_full_run)/jit(main)/jit(_normal)/jit(_normal_real)/erf_inv" source_file="/global/homes/j/jackm/software/lorrax_C/src/solvers/lanczos.py" source_line=247}
  %constant.486 = f64[] constant(7.5995277030017761e-05)
  %broadcast.487 = f64[1024]{0} broadcast(%constant.486), dimensions={}
  %select.635 = f64[1024]{0} select(%compare.582, %select.634, %broadcast.487), metadata={op_name="jit(_full_run)/jit(main)/jit(_normal)/jit(_normal_real)/erf_inv" source_file="/global/homes/j/jackm/software/lorrax_C/src/solvers/lanczos.py" source_line=247}
  %constant.496 = f64[] constant(-5.4154120542946279e-11)
  %broadcast.497 = f64[1024]{0} broadcast(%constant.496), dimensions={}
  %constant.494 = f64[] constant(-0.00035503752036284748)
  %broadcast.495 = f64[1024]{0} broadcast(%constant.494), dimensions={}
  %select.630 = f64[1024]{0} select(%compare.581, %broadcast.497, %broadcast.495), metadata={op_name="jit(_full_run)/jit(main)/jit(_normal)/jit(_normal_real)/erf_inv" source_file="/global/homes/j/jackm/software/lorrax_C/src/solvers/lanczos.py" source_line=247}
  %constant.492 = f64[] constant(-1.9681778105531671e-05)
  %broadcast.493 = f64[1024]{0} broadcast(%constant.492), dimensions={}
  %select.631 = f64[1024]{0} select(%compare.582, %select.630, %broadcast.493), metadata={op_name="jit(_full_run)/jit(main)/jit(_normal)/jit(_normal_real)/erf_inv" source_file="/global/homes/j/jackm/software/lorrax_C/src/solvers/lanczos.py" source_line=247}
  %constant.502 = f64[] constant(-1.2975133253453532e-11)
  %broadcast.503 = f64[1024]{0} broadcast(%constant.502), dimensions={}
  %constant.500 = f64[] constant(2.4031110387097894e-05)
  %broadcast.501 = f64[1024]{0} broadcast(%constant.500), dimensions={}
  %select.626 = f64[1024]{0} select(%compare.581, %broadcast.503, %broadcast.501), metadata={op_name="jit(_full_run)/jit(main)/jit(_normal)/jit(_normal_real)/erf_inv" source_file="/global/homes/j/jackm/software/lorrax_C/src/solvers/lanczos.py" source_line=247}
  %constant.498 = f64[] constant(4.5260625972231537e-06)
  %broadcast.499 = f64[1024]{0} broadcast(%constant.498), dimensions={}
  %select.627 = f64[1024]{0} select(%compare.582, %select.626, %broadcast.499), metadata={op_name="jit(_full_run)/jit(main)/jit(_normal)/jit(_normal_real)/erf_inv" source_file="/global/homes/j/jackm/software/lorrax_C/src/solvers/lanczos.py" source_line=247}
  %constant.508 = f64[] constant(2.6335093153082323e-12)
  %broadcast.509 = f64[1024]{0} broadcast(%constant.508), dimensions={}
  %constant.506 = f64[] constant(6.8284851459573175e-05)
  %broadcast.507 = f64[1024]{0} broadcast(%constant.506), dimensions={}
  %select.622 = f64[1024]{0} select(%compare.581, %broadcast.509, %broadcast.507), metadata={op_name="jit(_full_run)/jit(main)/jit(_normal)/jit(_normal_real)/erf_inv" source_file="/global/homes/j/jackm/software/lorrax_C/src/solvers/lanczos.py" source_line=247}
  %constant.504 = f64[] constant(-9.9298272942317e-07)
  %broadcast.505 = f64[1024]{0} broadcast(%constant.504), dimensions={}
  %select.623 = f64[1024]{0} select(%compare.582, %select.622, %broadcast.505), metadata={op_name="jit(_full_run)/jit(main)/jit(_normal)/jit(_normal_real)/erf_inv" source_file="/global/homes/j/jackm/software/lorrax_C/src/solvers/lanczos.py" source_line=247}
  %constant.514 = f64[] constant(-8.1519341976054722e-14)
  %broadcast.515 = f64[1024]{0} broadcast(%constant.514), dimensions={}
  %constant.512 = f64[] constant(-4.7318229009055734e-05)
  %broadcast.513 = f64[1024]{0} broadcast(%constant.512), dimensions={}
  %select.618 = f64[1024]{0} select(%compare.581, %broadcast.515, %broadcast.513), metadata={op_name="jit(_full_run)/jit(main)/jit(_normal)/jit(_normal_real)/erf_inv" source_file="/global/homes/j/jackm/software/lorrax_C/src/solvers/lanczos.py" source_line=247}
  %constant.510 = f64[] constant(2.2900482228026655e-07)
  %broadcast.511 = f64[1024]{0} broadcast(%constant.510), dimensions={}
  %select.619 = f64[1024]{0} select(%compare.582, %select.618, %broadcast.511), metadata={op_name="jit(_full_run)/jit(main)/jit(_normal)/jit(_normal_real)/erf_inv" source_file="/global/homes/j/jackm/software/lorrax_C/src/solvers/lanczos.py" source_line=247}
  %constant.520 = f64[] constant(-4.0545662729752069e-14)
  %broadcast.521 = f64[1024]{0} broadcast(%constant.520), dimensions={}
  %constant.518 = f64[] constant(1.2475304481671779e-05)
  %broadcast.519 = f64[1024]{0} broadcast(%constant.518), dimensions={}
  %select.614 = f64[1024]{0} select(%compare.581, %broadcast.521, %broadcast.519), metadata={op_name="jit(_full_run)/jit(main)/jit(_normal)/jit(_normal_real)/erf_inv" source_file="/global/homes/j/jackm/software/lorrax_C/src/solvers/lanczos.py" source_line=247}
  %constant.516 = f64[] constant(-6.7711997758452339e-08)
  %broadcast.517 = f64[1024]{0} broadcast(%constant.516), dimensions={}
  %select.615 = f64[1024]{0} select(%compare.582, %select.614, %broadcast.517), metadata={op_name="jit(_full_run)/jit(main)/jit(_normal)/jit(_normal_real)/erf_inv" source_file="/global/homes/j/jackm/software/lorrax_C/src/solvers/lanczos.py" source_line=247}
  %constant.526 = f64[] constant(6.6376381343583238e-15)
  %broadcast.527 = f64[1024]{0} broadcast(%constant.526), dimensions={}
  %constant.524 = f64[] constant(2.9234449089955446e-06)
  %broadcast.525 = f64[1024]{0} broadcast(%constant.524), dimensions={}
  %select.610 = f64[1024]{0} select(%compare.581, %broadcast.527, %broadcast.525), metadata={op_name="jit(_full_run)/jit(main)/jit(_normal)/jit(_normal_real)/erf_inv" source_file="/global/homes/j/jackm/software/lorrax_C/src/solvers/lanczos.py" source_line=247}
  %constant.522 = f64[] constant(2.9147953450901081e-08)
  %broadcast.523 = f64[1024]{0} broadcast(%constant.522), dimensions={}
  %select.611 = f64[1024]{0} select(%compare.582, %select.610, %broadcast.523), metadata={op_name="jit(_full_run)/jit(main)/jit(_normal)/jit(_normal_real)/erf_inv" source_file="/global/homes/j/jackm/software/lorrax_C/src/solvers/lanczos.py" source_line=247}
  %constant.532 = f64[] constant(2.0972767875968562e-17)
  %broadcast.533 = f64[1024]{0} broadcast(%constant.532), dimensions={}
  %constant.530 = f64[] constant(-4.013867526981546e-06)
  %broadcast.531 = f64[1024]{0} broadcast(%constant.530), dimensions={}
  %select.606 = f64[1024]{0} select(%compare.581, %broadcast.533, %broadcast.531), metadata={op_name="jit(_full_run)/jit(main)/jit(_normal)/jit(_normal_real)/erf_inv" source_file="/global/homes/j/jackm/software/lorrax_C/src/solvers/lanczos.py" source_line=247}
  %constant.528 = f64[] constant(-1.496002662714924e-08)
  %broadcast.529 = f64[1024]{0} broadcast(%constant.528), dimensions={}
  %select.607 = f64[1024]{0} select(%compare.582, %select.606, %broadcast.529), metadata={op_name="jit(_full_run)/jit(main)/jit(_normal)/jit(_normal_real)/erf_inv" source_file="/global/homes/j/jackm/software/lorrax_C/src/solvers/lanczos.py" source_line=247}
  %constant.538 = f64[] constant(-1.3331716628546209e-16)
  %broadcast.539 = f64[1024]{0} broadcast(%constant.538), dimensions={}
  %constant.536 = f64[] constant(1.5027403968909828e-06)
  %broadcast.537 = f64[1024]{0} broadcast(%constant.536), dimensions={}
  %select.602 = f64[1024]{0} select(%compare.581, %broadcast.539, %broadcast.537), metadata={op_name="jit(_full_run)/jit(main)/jit(_normal)/jit(_normal_real)/erf_inv" source_file="/global/homes/j/jackm/software/lorrax_C/src/solvers/lanczos.py" source_line=247}
  %constant.534 = f64[] constant(7.61570120807834e-09)
  %broadcast.535 = f64[1024]{0} broadcast(%constant.534), dimensions={}
  %select.603 = f64[1024]{0} select(%compare.582, %select.602, %broadcast.535), metadata={op_name="jit(_full_run)/jit(main)/jit(_normal)/jit(_normal_real)/erf_inv" source_file="/global/homes/j/jackm/software/lorrax_C/src/solvers/lanczos.py" source_line=247}
  %constant.544 = f64[] constant(1.1157877678025181e-17)
  %broadcast.545 = f64[1024]{0} broadcast(%constant.544), dimensions={}
  %constant.542 = f64[] constant(1.8239629214389228e-08)
  %broadcast.543 = f64[1024]{0} broadcast(%constant.542), dimensions={}
  %select.598 = f64[1024]{0} select(%compare.581, %broadcast.545, %broadcast.543), metadata={op_name="jit(_full_run)/jit(main)/jit(_normal)/jit(_normal_real)/erf_inv" source_file="/global/homes/j/jackm/software/lorrax_C/src/solvers/lanczos.py" source_line=247}
  %constant.540 = f64[] constant(-3.789465440126737e-09)
  %broadcast.541 = f64[1024]{0} broadcast(%constant.540), dimensions={}
  %select.599 = f64[1024]{0} select(%compare.582, %select.598, %broadcast.541), metadata={op_name="jit(_full_run)/jit(main)/jit(_normal)/jit(_normal_real)/erf_inv" source_file="/global/homes/j/jackm/software/lorrax_C/src/solvers/lanczos.py" source_line=247}
  %constant.550 = f64[] constant(1.28584807152564e-18)
  %broadcast.551 = f64[1024]{0} broadcast(%constant.550), dimensions={}
  %constant.548 = f64[] constant(-2.7517406297064545e-07)
  %broadcast.549 = f64[1024]{0} broadcast(%constant.548), dimensions={}
  %select.594 = f64[1024]{0} select(%compare.581, %broadcast.551, %broadcast.549), metadata={op_name="jit(_full_run)/jit(main)/jit(_normal)/jit(_normal_real)/erf_inv" source_file="/global/homes/j/jackm/software/lorrax_C/src/solvers/lanczos.py" source_line=247}
  %constant.546 = f64[] constant(1.5076572693500548e-09)
  %broadcast.547 = f64[1024]{0} broadcast(%constant.546), dimensions={}
  %select.595 = f64[1024]{0} select(%compare.582, %select.594, %broadcast.547), metadata={op_name="jit(_full_run)/jit(main)/jit(_normal)/jit(_normal_real)/erf_inv" source_file="/global/homes/j/jackm/software/lorrax_C/src/solvers/lanczos.py" source_line=247}
  %constant.556 = f64[] constant(-1.6850591381820166e-19)
  %broadcast.557 = f64[1024]{0} broadcast(%constant.556), dimensions={}
  %constant.554 = f64[] constant(9.0756561938885391e-08)
  %broadcast.555 = f64[1024]{0} broadcast(%constant.554), dimensions={}
  %select.590 = f64[1024]{0} select(%compare.581, %broadcast.557, %broadcast.555), metadata={op_name="jit(_full_run)/jit(main)/jit(_normal)/jit(_normal_real)/erf_inv" source_file="/global/homes/j/jackm/software/lorrax_C/src/solvers/lanczos.py" source_line=247}
  %constant.552 = f64[] constant(-2.5556418169965252e-10)
  %broadcast.553 = f64[1024]{0} broadcast(%constant.552), dimensions={}
  %select.591 = f64[1024]{0} select(%compare.582, %select.590, %broadcast.553), metadata={op_name="jit(_full_run)/jit(main)/jit(_normal)/jit(_normal_real)/erf_inv" source_file="/global/homes/j/jackm/software/lorrax_C/src/solvers/lanczos.py" source_line=247}
  %constant.562 = f64[] constant(-3.64441206401782e-21)
  %broadcast.563 = f64[1024]{0} broadcast(%constant.562), dimensions={}
  %constant.560 = f64[] constant(2.2137376921775787e-09)
  %broadcast.561 = f64[1024]{0} broadcast(%constant.560), dimensions={}
  %select.588 = f64[1024]{0} select(%compare.581, %broadcast.563, %broadcast.561), metadata={op_name="jit(_full_run)/jit(main)/jit(_normal)/jit(_normal_real)/erf_inv" source_file="/global/homes/j/jackm/software/lorrax_C/src/solvers/lanczos.py" source_line=247}
  %constant.558 = f64[] constant(-2.7109920616438573e-11)
  %broadcast.559 = f64[1024]{0} broadcast(%constant.558), dimensions={}
  %select.589 = f64[1024]{0} select(%compare.582, %select.588, %broadcast.559), metadata={op_name="jit(_full_run)/jit(main)/jit(_normal)/jit(_normal_real)/erf_inv" source_file="/global/homes/j/jackm/software/lorrax_C/src/solvers/lanczos.py" source_line=247}
  %constant.568 = f64[] constant(3.125)
  %broadcast.569 = f64[1024]{0} broadcast(%constant.568), dimensions={}
  %subtract.584 = f64[1024]{0} subtract(%negate.580, %broadcast.569), metadata={op_name="jit(_full_run)/jit(main)/jit(_normal)/jit(_normal_real)/erf_inv" source_file="/global/homes/j/jackm/software/lorrax_C/src/solvers/lanczos.py" source_line=247}
  %sqrt.583 = f64[1024]{0} sqrt(%negate.580), metadata={op_name="jit(_full_run)/jit(main)/jit(_normal)/jit(_normal_real)/erf_inv" source_file="/global/homes/j/jackm/software/lorrax_C/src/solvers/lanczos.py" source_line=247}
  %constant.566 = f64[] constant(3.25)
  %broadcast.567 = f64[1024]{0} broadcast(%constant.566), dimensions={}
  %constant.564 = f64[] constant(5)
  %broadcast.565 = f64[1024]{0} broadcast(%constant.564), dimensions={}
  %select.585 = f64[1024]{0} select(%compare.582, %broadcast.567, %broadcast.565), metadata={op_name="jit(_full_run)/jit(main)/jit(_normal)/jit(_normal_real)/erf_inv" source_file="/global/homes/j/jackm/software/lorrax_C/src/solvers/lanczos.py" source_line=247}
  %subtract.586 = f64[1024]{0} subtract(%sqrt.583, %select.585), metadata={op_name="jit(_full_run)/jit(main)/jit(_normal)/jit(_normal_real)/erf_inv" source_file="/global/homes/j/jackm/software/lorrax_C/src/solvers/lanczos.py" source_line=247}
  %select.587 = f64[1024]{0} select(%compare.581, %subtract.584, %subtract.586), metadata={op_name="jit(_full_run)/jit(main)/jit(_normal)/jit(_normal_real)/erf_inv" source_file="/global/homes/j/jackm/software/lorrax_C/src/solvers/lanczos.py" source_line=247}
  %multiply.592 = f64[1024]{0} multiply(%select.589, %select.587), metadata={op_name="jit(_full_run)/jit(main)/jit(_normal)/jit(_normal_real)/erf_inv" source_file="/global/homes/j/jackm/software/lorrax_C/src/solvers/lanczos.py" source_line=247}
  %add.593 = f64[1024]{0} add(%select.591, %multiply.592), metadata={op_name="jit(_full_run)/jit(main)/jit(_normal)/jit(_normal_real)/erf_inv" source_file="/global/homes/j/jackm/software/lorrax_C/src/solvers/lanczos.py" source_line=247}
  %multiply.596 = f64[1024]{0} multiply(%add.593, %select.587), metadata={op_name="jit(_full_run)/jit(main)/jit(_normal)/jit(_normal_real)/erf_inv" source_file="/global/homes/j/jackm/software/lorrax_C/src/solvers/lanczos.py" source_line=247}
  %add.597 = f64[1024]{0} add(%select.595, %multiply.596), metadata={op_name="jit(_full_run)/jit(main)/jit(_normal)/jit(_normal_real)/erf_inv" source_file="/global/homes/j/jackm/software/lorrax_C/src/solvers/lanczos.py" source_line=247}
  %multiply.600 = f64[1024]{0} multiply(%add.597, %select.587), metadata={op_name="jit(_full_run)/jit(main)/jit(_normal)/jit(_normal_real)/erf_inv" source_file="/global/homes/j/jackm/software/lorrax_C/src/solvers/lanczos.py" source_line=247}
  %add.601 = f64[1024]{0} add(%select.599, %multiply.600), metadata={op_name="jit(_full_run)/jit(main)/jit(_normal)/jit(_normal_real)/erf_inv" source_file="/global/homes/j/jackm/software/lorrax_C/src/solvers/lanczos.py" source_line=247}
  %multiply.604 = f64[1024]{0} multiply(%add.601, %select.587), metadata={op_name="jit(_full_run)/jit(main)/jit(_normal)/jit(_normal_real)/erf_inv" source_file="/global/homes/j/jackm/software/lorrax_C/src/solvers/lanczos.py" source_line=247}
  %add.605 = f64[1024]{0} add(%select.603, %multiply.604), metadata={op_name="jit(_full_run)/jit(main)/jit(_normal)/jit(_normal_real)/erf_inv" source_file="/global/homes/j/jackm/software/lorrax_C/src/solvers/lanczos.py" source_line=247}
  %multiply.608 = f64[1024]{0} multiply(%add.605, %select.587), metadata={op_name="jit(_full_run)/jit(main)/jit(_normal)/jit(_normal_real)/erf_inv" source_file="/global/homes/j/jackm/software/lorrax_C/src/solvers/lanczos.py" source_line=247}
  %add.609 = f64[1024]{0} add(%select.607, %multiply.608), metadata={op_name="jit(_full_run)/jit(main)/jit(_normal)/jit(_normal_real)/erf_inv" source_file="/global/homes/j/jackm/software/lorrax_C/src/solvers/lanczos.py" source_line=247}
  %multiply.612 = f64[1024]{0} multiply(%add.609, %select.587), metadata={op_name="jit(_full_run)/jit(main)/jit(_normal)/jit(_normal_real)/erf_inv" source_file="/global/homes/j/jackm/software/lorrax_C/src/solvers/lanczos.py" source_line=247}
  %add.613 = f64[1024]{0} add(%select.611, %multiply.612), metadata={op_name="jit(_full_run)/jit(main)/jit(_normal)/jit(_normal_real)/erf_inv" source_file="/global/homes/j/jackm/software/lorrax_C/src/solvers/lanczos.py" source_line=247}
  %multiply.616 = f64[1024]{0} multiply(%add.613, %select.587), metadata={op_name="jit(_full_run)/jit(main)/jit(_normal)/jit(_normal_real)/erf_inv" source_file="/global/homes/j/jackm/software/lorrax_C/src/solvers/lanczos.py" source_line=247}
  %add.617 = f64[1024]{0} add(%select.615, %multiply.616), metadata={op_name="jit(_full_run)/jit(main)/jit(_normal)/jit(_normal_real)/erf_inv" source_file="/global/homes/j/jackm/software/lorrax_C/src/solvers/lanczos.py" source_line=247}
  %multiply.620 = f64[1024]{0} multiply(%add.617, %select.587), metadata={op_name="jit(_full_run)/jit(main)/jit(_normal)/jit(_normal_real)/erf_inv" source_file="/global/homes/j/jackm/software/lorrax_C/src/solvers/lanczos.py" source_line=247}
  %add.621 = f64[1024]{0} add(%select.619, %multiply.620), metadata={op_name="jit(_full_run)/jit(main)/jit(_normal)/jit(_normal_real)/erf_inv" source_file="/global/homes/j/jackm/software/lorrax_C/src/solvers/lanczos.py" source_line=247}
  %multiply.624 = f64[1024]{0} multiply(%add.621, %select.587), metadata={op_name="jit(_full_run)/jit(main)/jit(_normal)/jit(_normal_real)/erf_inv" source_file="/global/homes/j/jackm/software/lorrax_C/src/solvers/lanczos.py" source_line=247}
  %add.625 = f64[1024]{0} add(%select.623, %multiply.624), metadata={op_name="jit(_full_run)/jit(main)/jit(_normal)/jit(_normal_real)/erf_inv" source_file="/global/homes/j/jackm/software/lorrax_C/src/solvers/lanczos.py" source_line=247}
  %multiply.628 = f64[1024]{0} multiply(%add.625, %select.587), metadata={op_name="jit(_full_run)/jit(main)/jit(_normal)/jit(_normal_real)/erf_inv" source_file="/global/homes/j/jackm/software/lorrax_C/src/solvers/lanczos.py" source_line=247}
  %add.629 = f64[1024]{0} add(%select.627, %multiply.628), metadata={op_name="jit(_full_run)/jit(main)/jit(_normal)/jit(_normal_real)/erf_inv" source_file="/global/homes/j/jackm/software/lorrax_C/src/solvers/lanczos.py" source_line=247}
  %multiply.632 = f64[1024]{0} multiply(%add.629, %select.587), metadata={op_name="jit(_full_run)/jit(main)/jit(_normal)/jit(_normal_real)/erf_inv" source_file="/global/homes/j/jackm/software/lorrax_C/src/solvers/lanczos.py" source_line=247}
  %add.633 = f64[1024]{0} add(%select.631, %multiply.632), metadata={op_name="jit(_full_run)/jit(main)/jit(_normal)/jit(_normal_real)/erf_inv" source_file="/global/homes/j/jackm/software/lorrax_C/src/solvers/lanczos.py" source_line=247}
  %multiply.636 = f64[1024]{0} multiply(%add.633, %select.587), metadata={op_name="jit(_full_run)/jit(main)/jit(_normal)/jit(_normal_real)/erf_inv" source_file="/global/homes/j/jackm/software/lorrax_C/src/solvers/lanczos.py" source_line=247}
  %add.637 = f64[1024]{0} add(%select.635, %multiply.636), metadata={op_name="jit(_full_run)/jit(main)/jit(_normal)/jit(_normal_real)/erf_inv" source_file="/global/homes/j/jackm/software/lorrax_C/src/solvers/lanczos.py" source_line=247}
  %multiply.640 = f64[1024]{0} multiply(%add.637, %select.587), metadata={op_name="jit(_full_run)/jit(main)/jit(_normal)/jit(_normal_real)/erf_inv" source_file="/global/homes/j/jackm/software/lorrax_C/src/solvers/lanczos.py" source_line=247}
  %add.641 = f64[1024]{0} add(%select.639, %multiply.640), metadata={op_name="jit(_full_run)/jit(main)/jit(_normal)/jit(_normal_real)/erf_inv" source_file="/global/homes/j/jackm/software/lorrax_C/src/solvers/lanczos.py" source_line=247}
  %multiply.644 = f64[1024]{0} multiply(%add.641, %select.587), metadata={op_name="jit(_full_run)/jit(main)/jit(_normal)/jit(_normal_real)/erf_inv" source_file="/global/homes/j/jackm/software/lorrax_C/src/solvers/lanczos.py" source_line=247}
  %add.645 = f64[1024]{0} add(%select.643, %multiply.644), metadata={op_name="jit(_full_run)/jit(main)/jit(_normal)/jit(_normal_real)/erf_inv" source_file="/global/homes/j/jackm/software/lorrax_C/src/solvers/lanczos.py" source_line=247}
  %multiply.648 = f64[1024]{0} multiply(%add.645, %select.587), metadata={op_name="jit(_full_run)/jit(main)/jit(_normal)/jit(_normal_real)/erf_inv" source_file="/global/homes/j/jackm/software/lorrax_C/src/solvers/lanczos.py" source_line=247}
  %add.649 = f64[1024]{0} add(%select.647, %multiply.648), metadata={op_name="jit(_full_run)/jit(main)/jit(_normal)/jit(_normal_real)/erf_inv" source_file="/global/homes/j/jackm/software/lorrax_C/src/solvers/lanczos.py" source_line=247}
  %multiply.652 = f64[1024]{0} multiply(%add.649, %select.587), metadata={op_name="jit(_full_run)/jit(main)/jit(_normal)/jit(_normal_real)/erf_inv" source_file="/global/homes/j/jackm/software/lorrax_C/src/solvers/lanczos.py" source_line=247}
  %add.653 = f64[1024]{0} add(%select.651, %multiply.652), metadata={op_name="jit(_full_run)/jit(main)/jit(_normal)/jit(_normal_real)/erf_inv" source_file="/global/homes/j/jackm/software/lorrax_C/src/solvers/lanczos.py" source_line=247}
  %multiply.655 = f64[1024]{0} multiply(%add.653, %select.587), metadata={op_name="jit(_full_run)/jit(main)/jit(_normal)/jit(_normal_real)/erf_inv" source_file="/global/homes/j/jackm/software/lorrax_C/src/solvers/lanczos.py" source_line=247}
  %add.656 = f64[1024]{0} add(%select.654, %multiply.655), metadata={op_name="jit(_full_run)/jit(main)/jit(_normal)/jit(_normal_real)/erf_inv" source_file="/global/homes/j/jackm/software/lorrax_C/src/solvers/lanczos.py" source_line=247}
  %select.657 = f64[1024]{0} select(%compare.582, %add.656, %add.653), metadata={op_name="jit(_full_run)/jit(main)/jit(_normal)/jit(_normal_real)/erf_inv" source_file="/global/homes/j/jackm/software/lorrax_C/src/solvers/lanczos.py" source_line=247}
  %multiply.659 = f64[1024]{0} multiply(%select.657, %select.587), metadata={op_name="jit(_full_run)/jit(main)/jit(_normal)/jit(_normal_real)/erf_inv" source_file="/global/homes/j/jackm/software/lorrax_C/src/solvers/lanczos.py" source_line=247}
  %add.660 = f64[1024]{0} add(%select.658, %multiply.659), metadata={op_name="jit(_full_run)/jit(main)/jit(_normal)/jit(_normal_real)/erf_inv" source_file="/global/homes/j/jackm/software/lorrax_C/src/solvers/lanczos.py" source_line=247}
  %select.661 = f64[1024]{0} select(%compare.582, %add.660, %select.657), metadata={op_name="jit(_full_run)/jit(main)/jit(_normal)/jit(_normal_real)/erf_inv" source_file="/global/homes/j/jackm/software/lorrax_C/src/solvers/lanczos.py" source_line=247}
  %multiply.662 = f64[1024]{0} multiply(%select.661, %select.587), metadata={op_name="jit(_full_run)/jit(main)/jit(_normal)/jit(_normal_real)/erf_inv" source_file="/global/homes/j/jackm/software/lorrax_C/src/solvers/lanczos.py" source_line=247}
  %constant.452 = f64[] constant(-0.000740702534166267)
  %broadcast.453 = f64[1024]{0} broadcast(%constant.452), dimensions={}
  %add.663 = f64[1024]{0} add(%multiply.662, %broadcast.453), metadata={op_name="jit(_full_run)/jit(main)/jit(_normal)/jit(_normal_real)/erf_inv" source_file="/global/homes/j/jackm/software/lorrax_C/src/solvers/lanczos.py" source_line=247}
  %select.664 = f64[1024]{0} select(%compare.581, %add.663, %select.661), metadata={op_name="jit(_full_run)/jit(main)/jit(_normal)/jit(_normal_real)/erf_inv" source_file="/global/homes/j/jackm/software/lorrax_C/src/solvers/lanczos.py" source_line=247}
  %multiply.665 = f64[1024]{0} multiply(%select.664, %select.587), metadata={op_name="jit(_full_run)/jit(main)/jit(_normal)/jit(_normal_real)/erf_inv" source_file="/global/homes/j/jackm/software/lorrax_C/src/solvers/lanczos.py" source_line=247}
  %constant.450 = f64[] constant(-0.0060336708714301491)
  %broadcast.451 = f64[1024]{0} broadcast(%constant.450), dimensions={}
  %add.666 = f64[1024]{0} add(%multiply.665, %broadcast.451), metadata={op_name="jit(_full_run)/jit(main)/jit(_normal)/jit(_normal_real)/erf_inv" source_file="/global/homes/j/jackm/software/lorrax_C/src/solvers/lanczos.py" source_line=247}
  %select.667 = f64[1024]{0} select(%compare.581, %add.666, %select.664), metadata={op_name="jit(_full_run)/jit(main)/jit(_normal)/jit(_normal_real)/erf_inv" source_file="/global/homes/j/jackm/software/lorrax_C/src/solvers/lanczos.py" source_line=247}
  %multiply.668 = f64[1024]{0} multiply(%select.667, %select.587), metadata={op_name="jit(_full_run)/jit(main)/jit(_normal)/jit(_normal_real)/erf_inv" source_file="/global/homes/j/jackm/software/lorrax_C/src/solvers/lanczos.py" source_line=247}
  %constant.448 = f64[] constant(0.24015818242558962)
  %broadcast.449 = f64[1024]{0} broadcast(%constant.448), dimensions={}
  %add.669 = f64[1024]{0} add(%multiply.668, %broadcast.449), metadata={op_name="jit(_full_run)/jit(main)/jit(_normal)/jit(_normal_real)/erf_inv" source_file="/global/homes/j/jackm/software/lorrax_C/src/solvers/lanczos.py" source_line=247}
  %select.670 = f64[1024]{0} select(%compare.581, %add.669, %select.667), metadata={op_name="jit(_full_run)/jit(main)/jit(_normal)/jit(_normal_real)/erf_inv" source_file="/global/homes/j/jackm/software/lorrax_C/src/solvers/lanczos.py" source_line=247}
  %multiply.671 = f64[1024]{0} multiply(%select.670, %select.587), metadata={op_name="jit(_full_run)/jit(main)/jit(_normal)/jit(_normal_real)/erf_inv" source_file="/global/homes/j/jackm/software/lorrax_C/src/solvers/lanczos.py" source_line=247}
  %constant.446 = f64[] constant(1.6536545626831027)
  %broadcast.447 = f64[1024]{0} broadcast(%constant.446), dimensions={}
  %add.672 = f64[1024]{0} add(%multiply.671, %broadcast.447), metadata={op_name="jit(_full_run)/jit(main)/jit(_normal)/jit(_normal_real)/erf_inv" source_file="/global/homes/j/jackm/software/lorrax_C/src/solvers/lanczos.py" source_line=247}
  %select.673 = f64[1024]{0} select(%compare.581, %add.672, %select.670), metadata={op_name="jit(_full_run)/jit(main)/jit(_normal)/jit(_normal_real)/erf_inv" source_file="/global/homes/j/jackm/software/lorrax_C/src/solvers/lanczos.py" source_line=247}
  %multiply.674 = f64[1024]{0} multiply(%select.673, %call.576), metadata={op_name="jit(_full_run)/jit(main)/jit(_normal)/jit(_normal_real)/erf_inv" source_file="/global/homes/j/jackm/software/lorrax_C/src/solvers/lanczos.py" source_line=247}
  %select.678 = f64[1024]{0} select(%compare.676, %multiply.677, %multiply.674), metadata={op_name="jit(_full_run)/jit(main)/jit(_normal)/jit(_normal_real)/erf_inv" source_file="/global/homes/j/jackm/software/lorrax_C/src/solvers/lanczos.py" source_line=247}
  %constant.440 = f64[] constant(1.4142135623730951)
  %broadcast.441 = f64[1024]{0} broadcast(%constant.440), dimensions={}
  ROOT %multiply.679 = f64[1024]{0} multiply(%select.678, %broadcast.441), metadata={op_name="jit(_full_run)/jit(main)/jit(_normal)/jit(_normal_real)/mul" source_file="/global/homes/j/jackm/software/lorrax_C/src/solvers/lanczos.py" source_line=247}
}

%_normal.680 (Arg_0.681: u32[2]) -> f64[1024] {
  %Arg_0.681 = u32[2]{0} parameter(0), metadata={op_name="jit(_full_run)/jit(main)/pjit"}
  ROOT %call.682 = f64[1024]{0} call(%Arg_0.681), to_apply=%_normal_real.438
}

%threefry2x32_0.684 (Arg_0.685: u32[], Arg_1.686: u32[], Arg_2.687: u32[1024], Arg_3.688: u32[1024]) -> (u32[1024], u32[1024]) {
  %Arg_2.687 = u32[1024]{0} parameter(2), metadata={op_name="jit(_full_run)/jit(main)/jit(_normal)/jit(_normal_real)/jit(_uniform)/threefry2x32"}
  %Arg_0.685 = u32[] parameter(0), metadata={op_name="jit(_full_run)/jit(main)/jit(_normal)/jit(_normal_real)/jit(_uniform)/threefry2x32"}
  %broadcast.722 = u32[1024]{0} broadcast(%Arg_0.685), dimensions={}, metadata={op_name="jit(_full_run)/jit(main)/jit(_normal)/jit(_normal_real)/jit(_uniform)/add" source_file="/global/homes/j/jackm/software/lorrax_C/src/solvers/lanczos.py" source_line=247}
  %add.723 = u32[1024]{0} add(%Arg_2.687, %broadcast.722), metadata={op_name="jit(_full_run)/jit(main)/jit(_normal)/jit(_normal_real)/jit(_uniform)/add" source_file="/global/homes/j/jackm/software/lorrax_C/src/solvers/lanczos.py" source_line=247}
  %Arg_3.688 = u32[1024]{0} parameter(3), metadata={op_name="jit(_full_run)/jit(main)/jit(_normal)/jit(_normal_real)/jit(_uniform)/threefry2x32"}
  %Arg_1.686 = u32[] parameter(1), metadata={op_name="jit(_full_run)/jit(main)/jit(_normal)/jit(_normal_real)/jit(_uniform)/threefry2x32"}
  %broadcast.724 = u32[1024]{0} broadcast(%Arg_1.686), dimensions={}, metadata={op_name="jit(_full_run)/jit(main)/jit(_normal)/jit(_normal_real)/jit(_uniform)/add" source_file="/global/homes/j/jackm/software/lorrax_C/src/solvers/lanczos.py" source_line=247}
  %add.725 = u32[1024]{0} add(%Arg_3.688, %broadcast.724), metadata={op_name="jit(_full_run)/jit(main)/jit(_normal)/jit(_normal_real)/jit(_uniform)/add" source_file="/global/homes/j/jackm/software/lorrax_C/src/solvers/lanczos.py" source_line=247}
  %add.726 = u32[1024]{0} add(%add.723, %add.725), metadata={op_name="jit(_full_run)/jit(main)/jit(_normal)/jit(_normal_real)/jit(_uniform)/add" source_file="/global/homes/j/jackm/software/lorrax_C/src/solvers/lanczos.py" source_line=247}
  %constant.717 = u32[] constant(13)
  %broadcast.718 = u32[1024]{0} broadcast(%constant.717), dimensions={}
  %shift-left.727 = u32[1024]{0} shift-left(%add.725, %broadcast.718), metadata={op_name="jit(_full_run)/jit(main)/jit(_normal)/jit(_normal_real)/jit(_uniform)/shift_left" source_file="/global/homes/j/jackm/software/lorrax_C/src/solvers/lanczos.py" source_line=247}
  %constant.715 = u32[] constant(19)
  %broadcast.716 = u32[1024]{0} broadcast(%constant.715), dimensions={}
  %shift-right-logical.728 = u32[1024]{0} shift-right-logical(%add.725, %broadcast.716), metadata={op_name="jit(_full_run)/jit(main)/jit(_normal)/jit(_normal_real)/jit(_uniform)/shift_right_logical" source_file="/global/homes/j/jackm/software/lorrax_C/src/solvers/lanczos.py" source_line=247}
  %or.729 = u32[1024]{0} or(%shift-left.727, %shift-right-logical.728), metadata={op_name="jit(_full_run)/jit(main)/jit(_normal)/jit(_normal_real)/jit(_uniform)/or" source_file="/global/homes/j/jackm/software/lorrax_C/src/solvers/lanczos.py" source_line=247}
  %xor.730 = u32[1024]{0} xor(%add.726, %or.729), metadata={op_name="jit(_full_run)/jit(main)/jit(_normal)/jit(_normal_real)/jit(_uniform)/xor" source_file="/global/homes/j/jackm/software/lorrax_C/src/solvers/lanczos.py" source_line=247}
  %add.731 = u32[1024]{0} add(%add.726, %xor.730), metadata={op_name="jit(_full_run)/jit(main)/jit(_normal)/jit(_normal_real)/jit(_uniform)/add" source_file="/global/homes/j/jackm/software/lorrax_C/src/solvers/lanczos.py" source_line=247}
  %constant.713 = u32[] constant(15)
  %broadcast.714 = u32[1024]{0} broadcast(%constant.713), dimensions={}
  %shift-left.732 = u32[1024]{0} shift-left(%xor.730, %broadcast.714), metadata={op_name="jit(_full_run)/jit(main)/jit(_normal)/jit(_normal_real)/jit(_uniform)/shift_left" source_file="/global/homes/j/jackm/software/lorrax_C/src/solvers/lanczos.py" source_line=247}
  %constant.711 = u32[] constant(17)
  %broadcast.712 = u32[1024]{0} broadcast(%constant.711), dimensions={}
  %shift-right-logical.733 = u32[1024]{0} shift-right-logical(%xor.730, %broadcast.712), metadata={op_name="jit(_full_run)/jit(main)/jit(_normal)/jit(_normal_real)/jit(_uniform)/shift_right_logical" source_file="/global/homes/j/jackm/software/lorrax_C/src/solvers/lanczos.py" source_line=247}
  %or.734 = u32[1024]{0} or(%shift-left.732, %shift-right-logical.733), metadata={op_name="jit(_full_run)/jit(main)/jit(_normal)/jit(_normal_real)/jit(_uniform)/or" source_file="/global/homes/j/jackm/software/lorrax_C/src/solvers/lanczos.py" source_line=247}
  %xor.735 = u32[1024]{0} xor(%add.731, %or.734), metadata={op_name="jit(_full_run)/jit(main)/jit(_normal)/jit(_normal_real)/jit(_uniform)/xor" source_file="/global/homes/j/jackm/software/lorrax_C/src/solvers/lanczos.py" source_line=247}
  %add.736 = u32[1024]{0} add(%add.731, %xor.735), metadata={op_name="jit(_full_run)/jit(main)/jit(_normal)/jit(_normal_real)/jit(_uniform)/add" source_file="/global/homes/j/jackm/software/lorrax_C/src/solvers/lanczos.py" source_line=247}
  %constant.709 = u32[] constant(26)
  %broadcast.710 = u32[1024]{0} broadcast(%constant.709), dimensions={}
  %shift-left.737 = u32[1024]{0} shift-left(%xor.735, %broadcast.710), metadata={op_name="jit(_full_run)/jit(main)/jit(_normal)/jit(_normal_real)/jit(_uniform)/shift_left" source_file="/global/homes/j/jackm/software/lorrax_C/src/solvers/lanczos.py" source_line=247}
  %constant.707 = u32[] constant(6)
  %broadcast.708 = u32[1024]{0} broadcast(%constant.707), dimensions={}
  %shift-right-logical.738 = u32[1024]{0} shift-right-logical(%xor.735, %broadcast.708), metadata={op_name="jit(_full_run)/jit(main)/jit(_normal)/jit(_normal_real)/jit(_uniform)/shift_right_logical" source_file="/global/homes/j/jackm/software/lorrax_C/src/solvers/lanczos.py" source_line=247}
  %or.739 = u32[1024]{0} or(%shift-left.737, %shift-right-logical.738), metadata={op_name="jit(_full_run)/jit(main)/jit(_normal)/jit(_normal_real)/jit(_uniform)/or" source_file="/global/homes/j/jackm/software/lorrax_C/src/solvers/lanczos.py" source_line=247}
  %xor.740 = u32[1024]{0} xor(%add.736, %or.739), metadata={op_name="jit(_full_run)/jit(main)/jit(_normal)/jit(_normal_real)/jit(_uniform)/xor" source_file="/global/homes/j/jackm/software/lorrax_C/src/solvers/lanczos.py" source_line=247}
  %add.741 = u32[1024]{0} add(%add.736, %xor.740), metadata={op_name="jit(_full_run)/jit(main)/jit(_normal)/jit(_normal_real)/jit(_uniform)/add" source_file="/global/homes/j/jackm/software/lorrax_C/src/solvers/lanczos.py" source_line=247}
  %broadcast.746 = u32[1024]{0} broadcast(%Arg_1.686), dimensions={}, metadata={op_name="jit(_full_run)/jit(main)/jit(_normal)/jit(_normal_real)/jit(_uniform)/add" source_file="/global/homes/j/jackm/software/lorrax_C/src/solvers/lanczos.py" source_line=247}
  %add.747 = u32[1024]{0} add(%add.741, %broadcast.746), metadata={op_name="jit(_full_run)/jit(main)/jit(_normal)/jit(_normal_real)/jit(_uniform)/add" source_file="/global/homes/j/jackm/software/lorrax_C/src/solvers/lanczos.py" source_line=247}
  %shift-left.742 = u32[1024]{0} shift-left(%xor.740, %broadcast.708), metadata={op_name="jit(_full_run)/jit(main)/jit(_normal)/jit(_normal_real)/jit(_uniform)/shift_left" source_file="/global/homes/j/jackm/software/lorrax_C/src/solvers/lanczos.py" source_line=247}
  %shift-right-logical.743 = u32[1024]{0} shift-right-logical(%xor.740, %broadcast.710), metadata={op_name="jit(_full_run)/jit(main)/jit(_normal)/jit(_normal_real)/jit(_uniform)/shift_right_logical" source_file="/global/homes/j/jackm/software/lorrax_C/src/solvers/lanczos.py" source_line=247}
  %or.744 = u32[1024]{0} or(%shift-left.742, %shift-right-logical.743), metadata={op_name="jit(_full_run)/jit(main)/jit(_normal)/jit(_normal_real)/jit(_uniform)/or" source_file="/global/homes/j/jackm/software/lorrax_C/src/solvers/lanczos.py" source_line=247}
  %xor.745 = u32[1024]{0} xor(%add.741, %or.744), metadata={op_name="jit(_full_run)/jit(main)/jit(_normal)/jit(_normal_real)/jit(_uniform)/xor" source_file="/global/homes/j/jackm/software/lorrax_C/src/solvers/lanczos.py" source_line=247}
  %xor.720 = u32[] xor(%Arg_0.685, %Arg_1.686), metadata={op_name="jit(_full_run)/jit(main)/jit(_normal)/jit(_normal_real)/jit(_uniform)/xor" source_file="/global/homes/j/jackm/software/lorrax_C/src/solvers/lanczos.py" source_line=247}
  %constant.719 = u32[] constant(466688986)
  %xor.721 = u32[] xor(%xor.720, %constant.719), metadata={op_name="jit(_full_run)/jit(main)/jit(_normal)/jit(_normal_real)/jit(_uniform)/xor" source_file="/global/homes/j/jackm/software/lorrax_C/src/solvers/lanczos.py" source_line=247}
  %broadcast.748 = u32[1024]{0} broadcast(%xor.721), dimensions={}, metadata={op_name="jit(_full_run)/jit(main)/jit(_normal)/jit(_normal_real)/jit(_uniform)/add" source_file="/global/homes/j/jackm/software/lorrax_C/src/solvers/lanczos.py" source_line=247}
  %add.749 = u32[1024]{0} add(%xor.745, %broadcast.748), metadata={op_name="jit(_full_run)/jit(main)/jit(_normal)/jit(_normal_real)/jit(_uniform)/add" source_file="/global/homes/j/jackm/software/lorrax_C/src/solvers/lanczos.py" source_line=247}
  %constant.705 = u32[] constant(1)
  %broadcast.706 = u32[1024]{0} broadcast(%constant.705), dimensions={}
  %add.750 = u32[1024]{0} add(%add.749, %broadcast.706), metadata={op_name="jit(_full_run)/jit(main)/jit(_normal)/jit(_normal_real)/jit(_uniform)/add" source_file="/global/homes/j/jackm/software/lorrax_C/src/solvers/lanczos.py" source_line=247}
  %add.751 = u32[1024]{0} add(%add.747, %add.750), metadata={op_name="jit(_full_run)/jit(main)/jit(_normal)/jit(_normal_real)/jit(_uniform)/add" source_file="/global/homes/j/jackm/software/lorrax_C/src/solvers/lanczos.py" source_line=247}
  %shift-left.752 = u32[1024]{0} shift-left(%add.750, %broadcast.712), metadata={op_name="jit(_full_run)/jit(main)/jit(_normal)/jit(_normal_real)/jit(_uniform)/shift_left" source_file="/global/homes/j/jackm/software/lorrax_C/src/solvers/lanczos.py" source_line=247}
  %shift-right-logical.753 = u32[1024]{0} shift-right-logical(%add.750, %broadcast.714), metadata={op_name="jit(_full_run)/jit(main)/jit(_normal)/jit(_normal_real)/jit(_uniform)/shift_right_logical" source_file="/global/homes/j/jackm/software/lorrax_C/src/solvers/lanczos.py" source_line=247}
  %or.754 = u32[1024]{0} or(%shift-left.752, %shift-right-logical.753), metadata={op_name="jit(_full_run)/jit(main)/jit(_normal)/jit(_normal_real)/jit(_uniform)/or" source_file="/global/homes/j/jackm/software/lorrax_C/src/solvers/lanczos.py" source_line=247}
  %xor.755 = u32[1024]{0} xor(%add.751, %or.754), metadata={op_name="jit(_full_run)/jit(main)/jit(_normal)/jit(_normal_real)/jit(_uniform)/xor" source_file="/global/homes/j/jackm/software/lorrax_C/src/solvers/lanczos.py" source_line=247}
  %add.756 = u32[1024]{0} add(%add.751, %xor.755), metadata={op_name="jit(_full_run)/jit(main)/jit(_normal)/jit(_normal_real)/jit(_uniform)/add" source_file="/global/homes/j/jackm/software/lorrax_C/src/solvers/lanczos.py" source_line=247}
  %constant.703 = u32[] constant(29)
  %broadcast.704 = u32[1024]{0} broadcast(%constant.703), dimensions={}
  %shift-left.757 = u32[1024]{0} shift-left(%xor.755, %broadcast.704), metadata={op_name="jit(_full_run)/jit(main)/jit(_normal)/jit(_normal_real)/jit(_uniform)/shift_left" source_file="/global/homes/j/jackm/software/lorrax_C/src/solvers/lanczos.py" source_line=247}
  %constant.701 = u32[] constant(3)
  %broadcast.702 = u32[1024]{0} broadcast(%constant.701), dimensions={}
  %shift-right-logical.758 = u32[1024]{0} shift-right-logical(%xor.755, %broadcast.702), metadata={op_name="jit(_full_run)/jit(main)/jit(_normal)/jit(_normal_real)/jit(_uniform)/shift_right_logical" source_file="/global/homes/j/jackm/software/lorrax_C/src/solvers/lanczos.py" source_line=247}
  %or.759 = u32[1024]{0} or(%shift-left.757, %shift-right-logical.758), metadata={op_name="jit(_full_run)/jit(main)/jit(_normal)/jit(_normal_real)/jit(_uniform)/or" source_file="/global/homes/j/jackm/software/lorrax_C/src/solvers/lanczos.py" source_line=247}
  %xor.760 = u32[1024]{0} xor(%add.756, %or.759), metadata={op_name="jit(_full_run)/jit(main)/jit(_normal)/jit(_normal_real)/jit(_uniform)/xor" source_file="/global/homes/j/jackm/software/lorrax_C/src/solvers/lanczos.py" source_line=247}
  %add.761 = u32[1024]{0} add(%add.756, %xor.760), metadata={op_name="jit(_full_run)/jit(main)/jit(_normal)/jit(_normal_real)/jit(_uniform)/add" source_file="/global/homes/j/jackm/software/lorrax_C/src/solvers/lanczos.py" source_line=247}
  %constant.699 = u32[] constant(16)
  %broadcast.700 = u32[1024]{0} broadcast(%constant.699), dimensions={}
  %shift-left.762 = u32[1024]{0} shift-left(%xor.760, %broadcast.700), metadata={op_name="jit(_full_run)/jit(main)/jit(_normal)/jit(_normal_real)/jit(_uniform)/shift_left" source_file="/global/homes/j/jackm/software/lorrax_C/src/solvers/lanczos.py" source_line=247}
  %shift-right-logical.763 = u32[1024]{0} shift-right-logical(%xor.760, %broadcast.700), metadata={op_name="jit(_full_run)/jit(main)/jit(_normal)/jit(_normal_real)/jit(_uniform)/shift_right_logical" source_file="/global/homes/j/jackm/software/lorrax_C/src/solvers/lanczos.py" source_line=247}
  %or.764 = u32[1024]{0} or(%shift-left.762, %shift-right-logical.763), metadata={op_name="jit(_full_run)/jit(main)/jit(_normal)/jit(_normal_real)/jit(_uniform)/or" source_file="/global/homes/j/jackm/software/lorrax_C/src/solvers/lanczos.py" source_line=247}
  %xor.765 = u32[1024]{0} xor(%add.761, %or.764), metadata={op_name="jit(_full_run)/jit(main)/jit(_normal)/jit(_normal_real)/jit(_uniform)/xor" source_file="/global/homes/j/jackm/software/lorrax_C/src/solvers/lanczos.py" source_line=247}
  %add.766 = u32[1024]{0} add(%add.761, %xor.765), metadata={op_name="jit(_full_run)/jit(main)/jit(_normal)/jit(_normal_real)/jit(_uniform)/add" source_file="/global/homes/j/jackm/software/lorrax_C/src/solvers/lanczos.py" source_line=247}
  %broadcast.771 = u32[1024]{0} broadcast(%xor.721), dimensions={}, metadata={op_name="jit(_full_run)/jit(main)/jit(_normal)/jit(_normal_real)/jit(_uniform)/add" source_file="/global/homes/j/jackm/software/lorrax_C/src/solvers/lanczos.py" source_line=247}
  %add.772 = u32[1024]{0} add(%add.766, %broadcast.771), metadata={op_name="jit(_full_run)/jit(main)/jit(_normal)/jit(_normal_real)/jit(_uniform)/add" source_file="/global/homes/j/jackm/software/lorrax_C/src/solvers/lanczos.py" source_line=247}
  %constant.697 = u32[] constant(24)
  %broadcast.698 = u32[1024]{0} broadcast(%constant.697), dimensions={}
  %shift-left.767 = u32[1024]{0} shift-left(%xor.765, %broadcast.698), metadata={op_name="jit(_full_run)/jit(main)/jit(_normal)/jit(_normal_real)/jit(_uniform)/shift_left" source_file="/global/homes/j/jackm/software/lorrax_C/src/solvers/lanczos.py" source_line=247}
  %constant.695 = u32[] constant(8)
  %broadcast.696 = u32[1024]{0} broadcast(%constant.695), dimensions={}
  %shift-right-logical.768 = u32[1024]{0} shift-right-logical(%xor.765, %broadcast.696), metadata={op_name="jit(_full_run)/jit(main)/jit(_normal)/jit(_normal_real)/jit(_uniform)/shift_right_logical" source_file="/global/homes/j/jackm/software/lorrax_C/src/solvers/lanczos.py" source_line=247}
  %or.769 = u32[1024]{0} or(%shift-left.767, %shift-right-logical.768), metadata={op_name="jit(_full_run)/jit(main)/jit(_normal)/jit(_normal_real)/jit(_uniform)/or" source_file="/global/homes/j/jackm/software/lorrax_C/src/solvers/lanczos.py" source_line=247}
  %xor.770 = u32[1024]{0} xor(%add.766, %or.769), metadata={op_name="jit(_full_run)/jit(main)/jit(_normal)/jit(_normal_real)/jit(_uniform)/xor" source_file="/global/homes/j/jackm/software/lorrax_C/src/solvers/lanczos.py" source_line=247}
  %broadcast.773 = u32[1024]{0} broadcast(%Arg_0.685), dimensions={}, metadata={op_name="jit(_full_run)/jit(main)/jit(_normal)/jit(_normal_real)/jit(_uniform)/add" source_file="/global/homes/j/jackm/software/lorrax_C/src/solvers/lanczos.py" source_line=247}
  %add.774 = u32[1024]{0} add(%xor.770, %broadcast.773), metadata={op_name="jit(_full_run)/jit(main)/jit(_normal)/jit(_normal_real)/jit(_uniform)/add" source_file="/global/homes/j/jackm/software/lorrax_C/src/solvers/lanczos.py" source_line=247}
  %constant.693 = u32[] constant(2)
  %broadcast.694 = u32[1024]{0} broadcast(%constant.693), dimensions={}
  %add.775 = u32[1024]{0} add(%add.774, %broadcast.694), metadata={op_name="jit(_full_run)/jit(main)/jit(_normal)/jit(_normal_real)/jit(_uniform)/add" source_file="/global/homes/j/jackm/software/lorrax_C/src/solvers/lanczos.py" source_line=247}
  %add.776 = u32[1024]{0} add(%add.772, %add.775), metadata={op_name="jit(_full_run)/jit(main)/jit(_normal)/jit(_normal_real)/jit(_uniform)/add" source_file="/global/homes/j/jackm/software/lorrax_C/src/solvers/lanczos.py" source_line=247}
  %shift-left.777 = u32[1024]{0} shift-left(%add.775, %broadcast.718), metadata={op_name="jit(_full_run)/jit(main)/jit(_normal)/jit(_normal_real)/jit(_uniform)/shift_left" source_file="/global/homes/j/jackm/software/lorrax_C/src/solvers/lanczos.py" source_line=247}
  %shift-right-logical.778 = u32[1024]{0} shift-right-logical(%add.775, %broadcast.716), metadata={op_name="jit(_full_run)/jit(main)/jit(_normal)/jit(_normal_real)/jit(_uniform)/shift_right_logical" source_file="/global/homes/j/jackm/software/lorrax_C/src/solvers/lanczos.py" source_line=247}
  %or.779 = u32[1024]{0} or(%shift-left.777, %shift-right-logical.778), metadata={op_name="jit(_full_run)/jit(main)/jit(_normal)/jit(_normal_real)/jit(_uniform)/or" source_file="/global/homes/j/jackm/software/lorrax_C/src/solvers/lanczos.py" source_line=247}
  %xor.780 = u32[1024]{0} xor(%add.776, %or.779), metadata={op_name="jit(_full_run)/jit(main)/jit(_normal)/jit(_normal_real)/jit(_uniform)/xor" source_file="/global/homes/j/jackm/software/lorrax_C/src/solvers/lanczos.py" source_line=247}
  %add.781 = u32[1024]{0} add(%add.776, %xor.780), metadata={op_name="jit(_full_run)/jit(main)/jit(_normal)/jit(_normal_real)/jit(_uniform)/add" source_file="/global/homes/j/jackm/software/lorrax_C/src/solvers/lanczos.py" source_line=247}
  %shift-left.782 = u32[1024]{0} shift-left(%xor.780, %broadcast.714), metadata={op_name="jit(_full_run)/jit(main)/jit(_normal)/jit(_normal_real)/jit(_uniform)/shift_left" source_file="/global/homes/j/jackm/software/lorrax_C/src/solvers/lanczos.py" source_line=247}
  %shift-right-logical.783 = u32[1024]{0} shift-right-logical(%xor.780, %broadcast.712), metadata={op_name="jit(_full_run)/jit(main)/jit(_normal)/jit(_normal_real)/jit(_uniform)/shift_right_logical" source_file="/global/homes/j/jackm/software/lorrax_C/src/solvers/lanczos.py" source_line=247}
  %or.784 = u32[1024]{0} or(%shift-left.782, %shift-right-logical.783), metadata={op_name="jit(_full_run)/jit(main)/jit(_normal)/jit(_normal_real)/jit(_uniform)/or" source_file="/global/homes/j/jackm/software/lorrax_C/src/solvers/lanczos.py" source_line=247}
  %xor.785 = u32[1024]{0} xor(%add.781, %or.784), metadata={op_name="jit(_full_run)/jit(main)/jit(_normal)/jit(_normal_real)/jit(_uniform)/xor" source_file="/global/homes/j/jackm/software/lorrax_C/src/solvers/lanczos.py" source_line=247}
  %add.786 = u32[1024]{0} add(%add.781, %xor.785), metadata={op_name="jit(_full_run)/jit(main)/jit(_normal)/jit(_normal_real)/jit(_uniform)/add" source_file="/global/homes/j/jackm/software/lorrax_C/src/solvers/lanczos.py" source_line=247}
  %shift-left.787 = u32[1024]{0} shift-left(%xor.785, %broadcast.710), metadata={op_name="jit(_full_run)/jit(main)/jit(_normal)/jit(_normal_real)/jit(_uniform)/shift_left" source_file="/global/homes/j/jackm/software/lorrax_C/src/solvers/lanczos.py" source_line=247}
  %shift-right-logical.788 = u32[1024]{0} shift-right-logical(%xor.785, %broadcast.708), metadata={op_name="jit(_full_run)/jit(main)/jit(_normal)/jit(_normal_real)/jit(_uniform)/shift_right_logical" source_file="/global/homes/j/jackm/software/lorrax_C/src/solvers/lanczos.py" source_line=247}
  %or.789 = u32[1024]{0} or(%shift-left.787, %shift-right-logical.788), metadata={op_name="jit(_full_run)/jit(main)/jit(_normal)/jit(_normal_real)/jit(_uniform)/or" source_file="/global/homes/j/jackm/software/lorrax_C/src/solvers/lanczos.py" source_line=247}
  %xor.790 = u32[1024]{0} xor(%add.786, %or.789), metadata={op_name="jit(_full_run)/jit(main)/jit(_normal)/jit(_normal_real)/jit(_uniform)/xor" source_file="/global/homes/j/jackm/software/lorrax_C/src/solvers/lanczos.py" source_line=247}
  %add.791 = u32[1024]{0} add(%add.786, %xor.790), metadata={op_name="jit(_full_run)/jit(main)/jit(_normal)/jit(_normal_real)/jit(_uniform)/add" source_file="/global/homes/j/jackm/software/lorrax_C/src/solvers/lanczos.py" source_line=247}
  %broadcast.796 = u32[1024]{0} broadcast(%Arg_0.685), dimensions={}, metadata={op_name="jit(_full_run)/jit(main)/jit(_normal)/jit(_normal_real)/jit(_uniform)/add" source_file="/global/homes/j/jackm/software/lorrax_C/src/solvers/lanczos.py" source_line=247}
  %add.797 = u32[1024]{0} add(%add.791, %broadcast.796), metadata={op_name="jit(_full_run)/jit(main)/jit(_normal)/jit(_normal_real)/jit(_uniform)/add" source_file="/global/homes/j/jackm/software/lorrax_C/src/solvers/lanczos.py" source_line=247}
  %shift-left.792 = u32[1024]{0} shift-left(%xor.790, %broadcast.708), metadata={op_name="jit(_full_run)/jit(main)/jit(_normal)/jit(_normal_real)/jit(_uniform)/shift_left" source_file="/global/homes/j/jackm/software/lorrax_C/src/solvers/lanczos.py" source_line=247}
  %shift-right-logical.793 = u32[1024]{0} shift-right-logical(%xor.790, %broadcast.710), metadata={op_name="jit(_full_run)/jit(main)/jit(_normal)/jit(_normal_real)/jit(_uniform)/shift_right_logical" source_file="/global/homes/j/jackm/software/lorrax_C/src/solvers/lanczos.py" source_line=247}
  %or.794 = u32[1024]{0} or(%shift-left.792, %shift-right-logical.793), metadata={op_name="jit(_full_run)/jit(main)/jit(_normal)/jit(_normal_real)/jit(_uniform)/or" source_file="/global/homes/j/jackm/software/lorrax_C/src/solvers/lanczos.py" source_line=247}
  %xor.795 = u32[1024]{0} xor(%add.791, %or.794), metadata={op_name="jit(_full_run)/jit(main)/jit(_normal)/jit(_normal_real)/jit(_uniform)/xor" source_file="/global/homes/j/jackm/software/lorrax_C/src/solvers/lanczos.py" source_line=247}
  %broadcast.798 = u32[1024]{0} broadcast(%Arg_1.686), dimensions={}, metadata={op_name="jit(_full_run)/jit(main)/jit(_normal)/jit(_normal_real)/jit(_uniform)/add" source_file="/global/homes/j/jackm/software/lorrax_C/src/solvers/lanczos.py" source_line=247}
  %add.799 = u32[1024]{0} add(%xor.795, %broadcast.798), metadata={op_name="jit(_full_run)/jit(main)/jit(_normal)/jit(_normal_real)/jit(_uniform)/add" source_file="/global/homes/j/jackm/software/lorrax_C/src/solvers/lanczos.py" source_line=247}
  %add.800 = u32[1024]{0} add(%add.799, %broadcast.702), metadata={op_name="jit(_full_run)/jit(main)/jit(_normal)/jit(_normal_real)/jit(_uniform)/add" source_file="/global/homes/j/jackm/software/lorrax_C/src/solvers/lanczos.py" source_line=247}
  %add.801 = u32[1024]{0} add(%add.797, %add.800), metadata={op_name="jit(_full_run)/jit(main)/jit(_normal)/jit(_normal_real)/jit(_uniform)/add" source_file="/global/homes/j/jackm/software/lorrax_C/src/solvers/lanczos.py" source_line=247}
  %shift-left.802 = u32[1024]{0} shift-left(%add.800, %broadcast.712), metadata={op_name="jit(_full_run)/jit(main)/jit(_normal)/jit(_normal_real)/jit(_uniform)/shift_left" source_file="/global/homes/j/jackm/software/lorrax_C/src/solvers/lanczos.py" source_line=247}
  %shift-right-logical.803 = u32[1024]{0} shift-right-logical(%add.800, %broadcast.714), metadata={op_name="jit(_full_run)/jit(main)/jit(_normal)/jit(_normal_real)/jit(_uniform)/shift_right_logical" source_file="/global/homes/j/jackm/software/lorrax_C/src/solvers/lanczos.py" source_line=247}
  %or.804 = u32[1024]{0} or(%shift-left.802, %shift-right-logical.803), metadata={op_name="jit(_full_run)/jit(main)/jit(_normal)/jit(_normal_real)/jit(_uniform)/or" source_file="/global/homes/j/jackm/software/lorrax_C/src/solvers/lanczos.py" source_line=247}
  %xor.805 = u32[1024]{0} xor(%add.801, %or.804), metadata={op_name="jit(_full_run)/jit(main)/jit(_normal)/jit(_normal_real)/jit(_uniform)/xor" source_file="/global/homes/j/jackm/software/lorrax_C/src/solvers/lanczos.py" source_line=247}
  %add.806 = u32[1024]{0} add(%add.801, %xor.805), metadata={op_name="jit(_full_run)/jit(main)/jit(_normal)/jit(_normal_real)/jit(_uniform)/add" source_file="/global/homes/j/jackm/software/lorrax_C/src/solvers/lanczos.py" source_line=247}
  %shift-left.807 = u32[1024]{0} shift-left(%xor.805, %broadcast.704), metadata={op_name="jit(_full_run)/jit(main)/jit(_normal)/jit(_normal_real)/jit(_uniform)/shift_left" source_file="/global/homes/j/jackm/software/lorrax_C/src/solvers/lanczos.py" source_line=247}
  %shift-right-logical.808 = u32[1024]{0} shift-right-logical(%xor.805, %broadcast.702), metadata={op_name="jit(_full_run)/jit(main)/jit(_normal)/jit(_normal_real)/jit(_uniform)/shift_right_logical" source_file="/global/homes/j/jackm/software/lorrax_C/src/solvers/lanczos.py" source_line=247}
  %or.809 = u32[1024]{0} or(%shift-left.807, %shift-right-logical.808), metadata={op_name="jit(_full_run)/jit(main)/jit(_normal)/jit(_normal_real)/jit(_uniform)/or" source_file="/global/homes/j/jackm/software/lorrax_C/src/solvers/lanczos.py" source_line=247}
  %xor.810 = u32[1024]{0} xor(%add.806, %or.809), metadata={op_name="jit(_full_run)/jit(main)/jit(_normal)/jit(_normal_real)/jit(_uniform)/xor" source_file="/global/homes/j/jackm/software/lorrax_C/src/solvers/lanczos.py" source_line=247}
  %add.811 = u32[1024]{0} add(%add.806, %xor.810), metadata={op_name="jit(_full_run)/jit(main)/jit(_normal)/jit(_normal_real)/jit(_uniform)/add" source_file="/global/homes/j/jackm/software/lorrax_C/src/solvers/lanczos.py" source_line=247}
  %shift-left.812 = u32[1024]{0} shift-left(%xor.810, %broadcast.700), metadata={op_name="jit(_full_run)/jit(main)/jit(_normal)/jit(_normal_real)/jit(_uniform)/shift_left" source_file="/global/homes/j/jackm/software/lorrax_C/src/solvers/lanczos.py" source_line=247}
  %shift-right-logical.813 = u32[1024]{0} shift-right-logical(%xor.810, %broadcast.700), metadata={op_name="jit(_full_run)/jit(main)/jit(_normal)/jit(_normal_real)/jit(_uniform)/shift_right_logical" source_file="/global/homes/j/jackm/software/lorrax_C/src/solvers/lanczos.py" source_line=247}
  %or.814 = u32[1024]{0} or(%shift-left.812, %shift-right-logical.813), metadata={op_name="jit(_full_run)/jit(main)/jit(_normal)/jit(_normal_real)/jit(_uniform)/or" source_file="/global/homes/j/jackm/software/lorrax_C/src/solvers/lanczos.py" source_line=247}
  %xor.815 = u32[1024]{0} xor(%add.811, %or.814), metadata={op_name="jit(_full_run)/jit(main)/jit(_normal)/jit(_normal_real)/jit(_uniform)/xor" source_file="/global/homes/j/jackm/software/lorrax_C/src/solvers/lanczos.py" source_line=247}
  %add.816 = u32[1024]{0} add(%add.811, %xor.815), metadata={op_name="jit(_full_run)/jit(main)/jit(_normal)/jit(_normal_real)/jit(_uniform)/add" source_file="/global/homes/j/jackm/software/lorrax_C/src/solvers/lanczos.py" source_line=247}
  %broadcast.821 = u32[1024]{0} broadcast(%Arg_1.686), dimensions={}, metadata={op_name="jit(_full_run)/jit(main)/jit(_normal)/jit(_normal_real)/jit(_uniform)/add" source_file="/global/homes/j/jackm/software/lorrax_C/src/solvers/lanczos.py" source_line=247}
  %add.822 = u32[1024]{0} add(%add.816, %broadcast.821), metadata={op_name="jit(_full_run)/jit(main)/jit(_normal)/jit(_normal_real)/jit(_uniform)/add" source_file="/global/homes/j/jackm/software/lorrax_C/src/solvers/lanczos.py" source_line=247}
  %shift-left.817 = u32[1024]{0} shift-left(%xor.815, %broadcast.698), metadata={op_name="jit(_full_run)/jit(main)/jit(_normal)/jit(_normal_real)/jit(_uniform)/shift_left" source_file="/global/homes/j/jackm/software/lorrax_C/src/solvers/lanczos.py" source_line=247}
  %shift-right-logical.818 = u32[1024]{0} shift-right-logical(%xor.815, %broadcast.696), metadata={op_name="jit(_full_run)/jit(main)/jit(_normal)/jit(_normal_real)/jit(_uniform)/shift_right_logical" source_file="/global/homes/j/jackm/software/lorrax_C/src/solvers/lanczos.py" source_line=247}
  %or.819 = u32[1024]{0} or(%shift-left.817, %shift-right-logical.818), metadata={op_name="jit(_full_run)/jit(main)/jit(_normal)/jit(_normal_real)/jit(_uniform)/or" source_file="/global/homes/j/jackm/software/lorrax_C/src/solvers/lanczos.py" source_line=247}
  %xor.820 = u32[1024]{0} xor(%add.816, %or.819), metadata={op_name="jit(_full_run)/jit(main)/jit(_normal)/jit(_normal_real)/jit(_uniform)/xor" source_file="/global/homes/j/jackm/software/lorrax_C/src/solvers/lanczos.py" source_line=247}
  %broadcast.823 = u32[1024]{0} broadcast(%xor.721), dimensions={}, metadata={op_name="jit(_full_run)/jit(main)/jit(_normal)/jit(_normal_real)/jit(_uniform)/add" source_file="/global/homes/j/jackm/software/lorrax_C/src/solvers/lanczos.py" source_line=247}
  %add.824 = u32[1024]{0} add(%xor.820, %broadcast.823), metadata={op_name="jit(_full_run)/jit(main)/jit(_normal)/jit(_normal_real)/jit(_uniform)/add" source_file="/global/homes/j/jackm/software/lorrax_C/src/solvers/lanczos.py" source_line=247}
  %constant.691 = u32[] constant(4)
  %broadcast.692 = u32[1024]{0} broadcast(%constant.691), dimensions={}
  %add.825 = u32[1024]{0} add(%add.824, %broadcast.692), metadata={op_name="jit(_full_run)/jit(main)/jit(_normal)/jit(_normal_real)/jit(_uniform)/add" source_file="/global/homes/j/jackm/software/lorrax_C/src/solvers/lanczos.py" source_line=247}
  %add.826 = u32[1024]{0} add(%add.822, %add.825), metadata={op_name="jit(_full_run)/jit(main)/jit(_normal)/jit(_normal_real)/jit(_uniform)/add" source_file="/global/homes/j/jackm/software/lorrax_C/src/solvers/lanczos.py" source_line=247}
  %shift-left.827 = u32[1024]{0} shift-left(%add.825, %broadcast.718), metadata={op_name="jit(_full_run)/jit(main)/jit(_normal)/jit(_normal_real)/jit(_uniform)/shift_left" source_file="/global/homes/j/jackm/software/lorrax_C/src/solvers/lanczos.py" source_line=247}
  %shift-right-logical.828 = u32[1024]{0} shift-right-logical(%add.825, %broadcast.716), metadata={op_name="jit(_full_run)/jit(main)/jit(_normal)/jit(_normal_real)/jit(_uniform)/shift_right_logical" source_file="/global/homes/j/jackm/software/lorrax_C/src/solvers/lanczos.py" source_line=247}
  %or.829 = u32[1024]{0} or(%shift-left.827, %shift-right-logical.828), metadata={op_name="jit(_full_run)/jit(main)/jit(_normal)/jit(_normal_real)/jit(_uniform)/or" source_file="/global/homes/j/jackm/software/lorrax_C/src/solvers/lanczos.py" source_line=247}
  %xor.830 = u32[1024]{0} xor(%add.826, %or.829), metadata={op_name="jit(_full_run)/jit(main)/jit(_normal)/jit(_normal_real)/jit(_uniform)/xor" source_file="/global/homes/j/jackm/software/lorrax_C/src/solvers/lanczos.py" source_line=247}
  %add.831 = u32[1024]{0} add(%add.826, %xor.830), metadata={op_name="jit(_full_run)/jit(main)/jit(_normal)/jit(_normal_real)/jit(_uniform)/add" source_file="/global/homes/j/jackm/software/lorrax_C/src/solvers/lanczos.py" source_line=247}
  %shift-left.832 = u32[1024]{0} shift-left(%xor.830, %broadcast.714), metadata={op_name="jit(_full_run)/jit(main)/jit(_normal)/jit(_normal_real)/jit(_uniform)/shift_left" source_file="/global/homes/j/jackm/software/lorrax_C/src/solvers/lanczos.py" source_line=247}
  %shift-right-logical.833 = u32[1024]{0} shift-right-logical(%xor.830, %broadcast.712), metadata={op_name="jit(_full_run)/jit(main)/jit(_normal)/jit(_normal_real)/jit(_uniform)/shift_right_logical" source_file="/global/homes/j/jackm/software/lorrax_C/src/solvers/lanczos.py" source_line=247}
  %or.834 = u32[1024]{0} or(%shift-left.832, %shift-right-logical.833), metadata={op_name="jit(_full_run)/jit(main)/jit(_normal)/jit(_normal_real)/jit(_uniform)/or" source_file="/global/homes/j/jackm/software/lorrax_C/src/solvers/lanczos.py" source_line=247}
  %xor.835 = u32[1024]{0} xor(%add.831, %or.834), metadata={op_name="jit(_full_run)/jit(main)/jit(_normal)/jit(_normal_real)/jit(_uniform)/xor" source_file="/global/homes/j/jackm/software/lorrax_C/src/solvers/lanczos.py" source_line=247}
  %add.836 = u32[1024]{0} add(%add.831, %xor.835), metadata={op_name="jit(_full_run)/jit(main)/jit(_normal)/jit(_normal_real)/jit(_uniform)/add" source_file="/global/homes/j/jackm/software/lorrax_C/src/solvers/lanczos.py" source_line=247}
  %shift-left.837 = u32[1024]{0} shift-left(%xor.835, %broadcast.710), metadata={op_name="jit(_full_run)/jit(main)/jit(_normal)/jit(_normal_real)/jit(_uniform)/shift_left" source_file="/global/homes/j/jackm/software/lorrax_C/src/solvers/lanczos.py" source_line=247}
  %shift-right-logical.838 = u32[1024]{0} shift-right-logical(%xor.835, %broadcast.708), metadata={op_name="jit(_full_run)/jit(main)/jit(_normal)/jit(_normal_real)/jit(_uniform)/shift_right_logical" source_file="/global/homes/j/jackm/software/lorrax_C/src/solvers/lanczos.py" source_line=247}
  %or.839 = u32[1024]{0} or(%shift-left.837, %shift-right-logical.838), metadata={op_name="jit(_full_run)/jit(main)/jit(_normal)/jit(_normal_real)/jit(_uniform)/or" source_file="/global/homes/j/jackm/software/lorrax_C/src/solvers/lanczos.py" source_line=247}
  %xor.840 = u32[1024]{0} xor(%add.836, %or.839), metadata={op_name="jit(_full_run)/jit(main)/jit(_normal)/jit(_normal_real)/jit(_uniform)/xor" source_file="/global/homes/j/jackm/software/lorrax_C/src/solvers/lanczos.py" source_line=247}
  %add.841 = u32[1024]{0} add(%add.836, %xor.840), metadata={op_name="jit(_full_run)/jit(main)/jit(_normal)/jit(_normal_real)/jit(_uniform)/add" source_file="/global/homes/j/jackm/software/lorrax_C/src/solvers/lanczos.py" source_line=247}
  %broadcast.846 = u32[1024]{0} broadcast(%xor.721), dimensions={}, metadata={op_name="jit(_full_run)/jit(main)/jit(_normal)/jit(_normal_real)/jit(_uniform)/add" source_file="/global/homes/j/jackm/software/lorrax_C/src/solvers/lanczos.py" source_line=247}
  %add.847 = u32[1024]{0} add(%add.841, %broadcast.846), metadata={op_name="jit(_full_run)/jit(main)/jit(_normal)/jit(_normal_real)/jit(_uniform)/add" source_file="/global/homes/j/jackm/software/lorrax_C/src/solvers/lanczos.py" source_line=247}
  %shift-left.842 = u32[1024]{0} shift-left(%xor.840, %broadcast.708), metadata={op_name="jit(_full_run)/jit(main)/jit(_normal)/jit(_normal_real)/jit(_uniform)/shift_left" source_file="/global/homes/j/jackm/software/lorrax_C/src/solvers/lanczos.py" source_line=247}
…
  %get-tuple-element.1789 = s64[] get-tuple-element(%while.1788), index=0, metadata={op_name="jit(_full_run)/jit(main)/while/body/while" source_file="/global/homes/j/jackm/software/lorrax_C/src/solvers/lanczos.py" source_line=275}
  %add.1744 = s64[] add(%Arg_8.1732, %constant.1743), metadata={op_name="jit(_full_run)/jit(main)/while/body/add" source_file="/global/homes/j/jackm/software/lorrax_C/src/solvers/lanczos.py" source_line=286}
  %add.1802 = s64[] add(%Arg_8.1732, %constant.1743), metadata={op_name="jit(_full_run)/jit(main)/while/body/add" source_file="/global/homes/j/jackm/software/lorrax_C/src/solvers/lanczos.py" source_line=281}
  %constant.1737 = s64[] constant(199)
  %minimum.1803 = s64[] minimum(%add.1802, %constant.1737), metadata={op_name="jit(_full_run)/jit(main)/while/body/min" source_file="/global/homes/j/jackm/software/lorrax_C/src/solvers/lanczos.py" source_line=281}
  %compare.1804 = pred[] compare(%minimum.1803, %constant.1742), direction=LT, metadata={op_name="jit(_full_run)/jit(main)/while/body/lt" source_file="/global/homes/j/jackm/software/lorrax_C/src/solvers/lanczos.py" source_line=281}
  %add.1805 = s64[] add(%minimum.1803, %constant.1741), metadata={op_name="jit(_full_run)/jit(main)/while/body/add" source_file="/global/homes/j/jackm/software/lorrax_C/src/solvers/lanczos.py" source_line=281}
  %select.1806 = s64[] select(%compare.1804, %add.1805, %minimum.1803), metadata={op_name="jit(_full_run)/jit(main)/while/body/select_n" source_file="/global/homes/j/jackm/software/lorrax_C/src/solvers/lanczos.py" source_line=281}
  %convert.1807 = s32[] convert(%select.1806), metadata={op_name="jit(_full_run)/jit(main)/while/body/convert_element_type" source_file="/global/homes/j/jackm/software/lorrax_C/src/solvers/lanczos.py" source_line=281}
  %reshape.1808 = s32[1]{0} reshape(%convert.1807), metadata={op_name="jit(_full_run)/jit(main)/while/body/broadcast_in_dim" source_file="/global/homes/j/jackm/software/lorrax_C/src/solvers/lanczos.py" source_line=281}
  %get-tuple-element.1790 = c128[1024]{0} get-tuple-element(%while.1788), index=1, metadata={op_name="jit(_full_run)/jit(main)/while/body/while" source_file="/global/homes/j/jackm/software/lorrax_C/src/solvers/lanczos.py" source_line=275}
  %call.1791 = f64[] call(%get-tuple-element.1790), to_apply=%norm_12.1706
  %constant.1738 = f64[] constant(1e-15)
  %maximum.1798 = f64[] maximum(%call.1791, %constant.1738), metadata={op_name="jit(_full_run)/jit(main)/while/body/max" source_file="/global/homes/j/jackm/software/lorrax_C/src/solvers/lanczos.py" source_line=280}
  %convert.1799 = c128[] convert(%maximum.1798), metadata={op_name="jit(_full_run)/jit(main)/while/body/convert_element_type" source_file="/global/homes/j/jackm/software/lorrax_C/src/solvers/lanczos.py" source_line=280}
  %broadcast.1800 = c128[1024]{0} broadcast(%convert.1799), dimensions={}, metadata={op_name="jit(_full_run)/jit(main)/while/body/div" source_file="/global/homes/j/jackm/software/lorrax_C/src/solvers/lanczos.py" source_line=280}
  %divide.1801 = c128[1024]{0} divide(%get-tuple-element.1790, %broadcast.1800), metadata={op_name="jit(_full_run)/jit(main)/while/body/div" source_file="/global/homes/j/jackm/software/lorrax_C/src/solvers/lanczos.py" source_line=280}
  %scatter.1809 = c128[1024,200]{1,0} scatter(%Arg_9.1733, %reshape.1808, %divide.1801), update_window_dims={0}, inserted_window_dims={1}, scatter_dims_to_operand_dims={1}, index_vector_dim=0, indices_are_sorted=true, unique_indices=true, to_apply=%region_19.1720, metadata={op_name="jit(_full_run)/jit(main)/while/body/scatter" source_file="/global/homes/j/jackm/software/lorrax_C/src/solvers/lanczos.py" source_line=281}
  %Arg_10.1734 = f64[200]{0} parameter(10), metadata={op_name="jit(_full_run)/jit(main)/while/body/closed_call"}
  %compare.1755 = pred[] compare(%Arg_8.1732, %constant.1742), direction=LT, metadata={op_name="jit(_full_run)/jit(main)/while/body/lt" source_file="/global/homes/j/jackm/software/lorrax_C/src/solvers/lanczos.py" source_line=261}
  %add.1756 = s64[] add(%Arg_8.1732, %constant.1741), metadata={op_name="jit(_full_run)/jit(main)/while/body/add" source_file="/global/homes/j/jackm/software/lorrax_C/src/solvers/lanczos.py" source_line=261}
  %select.1757 = s64[] select(%compare.1755, %add.1756, %Arg_8.1732), metadata={op_name="jit(_full_run)/jit(main)/while/body/select_n" source_file="/global/homes/j/jackm/software/lorrax_C/src/solvers/lanczos.py" source_line=261}
  %convert.1758 = s32[] convert(%select.1757), metadata={op_name="jit(_full_run)/jit(main)/while/body/convert_element_type" source_file="/global/homes/j/jackm/software/lorrax_C/src/solvers/lanczos.py" source_line=261}
  %reshape.1759 = s32[1]{0} reshape(%convert.1758), metadata={op_name="jit(_full_run)/jit(main)/while/body/broadcast_in_dim" source_file="/global/homes/j/jackm/software/lorrax_C/src/solvers/lanczos.py" source_line=261}
  %scatter.1760 = f64[200]{0} scatter(%Arg_10.1734, %reshape.1759, %real.1754), update_window_dims={}, inserted_window_dims={0}, scatter_dims_to_operand_dims={0}, index_vector_dim=0, indices_are_sorted=true, unique_indices=true, to_apply=%region_14.1653, metadata={op_name="jit(_full_run)/jit(main)/while/body/scatter" source_file="/global/homes/j/jackm/software/lorrax_C/src/solvers/lanczos.py" source_line=261}
  %compare.1792 = pred[] compare(%Arg_8.1732, %constant.1742), direction=LT, metadata={op_name="jit(_full_run)/jit(main)/while/body/lt" source_file="/global/homes/j/jackm/software/lorrax_C/src/solvers/lanczos.py" source_line=278}
  %add.1793 = s64[] add(%Arg_8.1732, %constant.1741), metadata={op_name="jit(_full_run)/jit(main)/while/body/add" source_file="/global/homes/j/jackm/software/lorrax_C/src/solvers/lanczos.py" source_line=278}
  %select.1794 = s64[] select(%compare.1792, %add.1793, %Arg_8.1732), metadata={op_name="jit(_full_run)/jit(main)/while/body/select_n" source_file="/global/homes/j/jackm/software/lorrax_C/src/solvers/lanczos.py" source_line=278}
  %convert.1795 = s32[] convert(%select.1794), metadata={op_name="jit(_full_run)/jit(main)/while/body/convert_element_type" source_file="/global/homes/j/jackm/software/lorrax_C/src/solvers/lanczos.py" source_line=278}
  %reshape.1796 = s32[1]{0} reshape(%convert.1795), metadata={op_name="jit(_full_run)/jit(main)/while/body/broadcast_in_dim" source_file="/global/homes/j/jackm/software/lorrax_C/src/solvers/lanczos.py" source_line=278}
  %scatter.1797 = f64[200]{0} scatter(%Arg_11.1735, %reshape.1796, %call.1791), update_window_dims={}, inserted_window_dims={0}, scatter_dims_to_operand_dims={0}, index_vector_dim=0, indices_are_sorted=true, unique_indices=true, to_apply=%region_18.1717, metadata={op_name="jit(_full_run)/jit(main)/while/body/scatter" source_file="/global/homes/j/jackm/software/lorrax_C/src/solvers/lanczos.py" source_line=278}
  ROOT %tuple.1810 = (s64[], c128[1024,200]{1,0}, f64[200]{0}, f64[200]{0}, c128[1024]{0}) tuple(%add.1744, %scatter.1809, %scatter.1760, %scatter.1797, %divide.1801)
}

%region_2.1811 (arg_tuple.1812: (s64[], s64[], c128[1024,200], f64[200], f64[200], /*index=5*/c128[1024], c128[64,4,2,480], c128[64,4,2,480], c128[64,4,2,480], c128[64,4,2,480], /*index=10*/f64[64,4], f64[64,4], c128[480,480,4,4,4], c128[480,480])) -> (s64[], s64[], c128[1024,200], f64[200], f64[200], /*index=5*/c128[1024], c128[64,4,2,480], c128[64,4,2,480], c128[64,4,2,480], c128[64,4,2,480], /*index=10*/f64[64,4], f64[64,4], c128[480,480,4,4,4], c128[480,480]) {
  %arg_tuple.1812 = (s64[], s64[], c128[1024,200]{1,0}, f64[200]{0}, f64[200]{0}, /*index=5*/c128[1024]{0}, c128[64,4,2,480]{3,2,1,0}, c128[64,4,2,480]{3,2,1,0}, c128[64,4,2,480]{3,2,1,0}, c128[64,4,2,480]{3,2,1,0}, /*index=10*/f64[64,4]{1,0}, f64[64,4]{1,0}, c128[480,480,4,4,4]{4,3,2,1,0}, c128[480,480]{1,0}) parameter(0)
  %get-tuple-element.1813 = s64[] get-tuple-element(%arg_tuple.1812), index=0
  %constant.1827 = s64[] constant(1)
  %add.1834 = s64[] add(%get-tuple-element.1813, %constant.1827), metadata={op_name="jit(_full_run)/jit(main)/while/body/add" source_file="/global/homes/j/jackm/software/lorrax_C/src/solvers/lanczos.py" source_line=286}
  %get-tuple-element.1819 = c128[64,4,2,480]{3,2,1,0} get-tuple-element(%arg_tuple.1812), index=6
  %get-tuple-element.1820 = c128[64,4,2,480]{3,2,1,0} get-tuple-element(%arg_tuple.1812), index=7
  %get-tuple-element.1821 = c128[64,4,2,480]{3,2,1,0} get-tuple-element(%arg_tuple.1812), index=8
  %get-tuple-element.1822 = c128[64,4,2,480]{3,2,1,0} get-tuple-element(%arg_tuple.1812), index=9
  %get-tuple-element.1823 = f64[64,4]{1,0} get-tuple-element(%arg_tuple.1812), index=10
  %get-tuple-element.1824 = f64[64,4]{1,0} get-tuple-element(%arg_tuple.1812), index=11
  %get-tuple-element.1825 = c128[480,480,4,4,4]{4,3,2,1,0} get-tuple-element(%arg_tuple.1812), index=12
  %get-tuple-element.1826 = c128[480,480]{1,0} get-tuple-element(%arg_tuple.1812), index=13
  %get-tuple-element.1814 = s64[] get-tuple-element(%arg_tuple.1812), index=1
  %get-tuple-element.1815 = c128[1024,200]{1,0} get-tuple-element(%arg_tuple.1812), index=2
  %get-tuple-element.1816 = f64[200]{0} get-tuple-element(%arg_tuple.1812), index=3
  %get-tuple-element.1817 = f64[200]{0} get-tuple-element(%arg_tuple.1812), index=4
  %get-tuple-element.1818 = c128[1024]{0} get-tuple-element(%arg_tuple.1812), index=5
  %call.1828 = (s64[], c128[1024,200]{1,0}, f64[200]{0}, f64[200]{0}, c128[1024]{0}) call(%get-tuple-element.1819, %get-tuple-element.1820, %get-tuple-element.1821, %get-tuple-element.1822, %get-tuple-element.1823, /*index=5*/%get-tuple-element.1824, %get-tuple-element.1825, %get-tuple-element.1826, %get-tuple-element.1814, %get-tuple-element.1815, /*index=10*/%get-tuple-element.1816, %get-tuple-element.1817, %get-tuple-element.1818), to_apply=%None.1723
  %get-tuple-element.1829 = s64[] get-tuple-element(%call.1828), index=0
  %get-tuple-element.1830 = c128[1024,200]{1,0} get-tuple-element(%call.1828), index=1
  %get-tuple-element.1831 = f64[200]{0} get-tuple-element(%call.1828), index=2
  %get-tuple-element.1832 = f64[200]{0} get-tuple-element(%call.1828), index=3
  %get-tuple-element.1833 = c128[1024]{0} get-tuple-element(%call.1828), index=4
  ROOT %tuple.1835 = (s64[], s64[], c128[1024,200]{1,0}, f64[200]{0}, f64[200]{0}, /*index=5*/c128[1024]{0}, c128[64,4,2,480]{3,2,1,0}, c128[64,4,2,480]{3,2,1,0}, c128[64,4,2,480]{3,2,1,0}, c128[64,4,2,480]{3,2,1,0}, /*index=10*/f64[64,4]{1,0}, f64[64,4]{1,0}, c128[480,480,4,4,4]{4,3,2,1,0}, c128[480,480]{1,0}) tuple(%add.1834, %get-tuple-element.1829, %get-tuple-element.1830, %get-tuple-element.1831, %get-tuple-element.1832, /*index=5*/%get-tuple-element.1833, %get-tuple-element.1819, %get-tuple-element.1820, %get-tuple-element.1821, %get-tuple-element.1822, /*index=10*/%get-tuple-element.1823, %get-tuple-element.1824, %get-tuple-element.1825, %get-tuple-element.1826)
}

%region_20.1836 (arg_tuple.1837: (s64[], s64[], c128[1024,200], f64[200], f64[200], /*index=5*/c128[1024], c128[64,4,2,480], c128[64,4,2,480], c128[64,4,2,480], c128[64,4,2,480], /*index=10*/f64[64,4], f64[64,4], c128[480,480,4,4,4], c128[480,480])) -> pred[] {
  %arg_tuple.1837 = (s64[], s64[], c128[1024,200]{1,0}, f64[200]{0}, f64[200]{0}, /*index=5*/c128[1024]{0}, c128[64,4,2,480]{3,2,1,0}, c128[64,4,2,480]{3,2,1,0}, c128[64,4,2,480]{3,2,1,0}, c128[64,4,2,480]{3,2,1,0}, /*index=10*/f64[64,4]{1,0}, f64[64,4]{1,0}, c128[480,480,4,4,4]{4,3,2,1,0}, c128[480,480]{1,0}) parameter(0)
  %get-tuple-element.1839 = s64[] get-tuple-element(%arg_tuple.1837), index=1
  %get-tuple-element.1840 = c128[1024,200]{1,0} get-tuple-element(%arg_tuple.1837), index=2
  %get-tuple-element.1841 = f64[200]{0} get-tuple-element(%arg_tuple.1837), index=3
  %get-tuple-element.1842 = f64[200]{0} get-tuple-element(%arg_tuple.1837), index=4
  %get-tuple-element.1843 = c128[1024]{0} get-tuple-element(%arg_tuple.1837), index=5
  %get-tuple-element.1844 = c128[64,4,2,480]{3,2,1,0} get-tuple-element(%arg_tuple.1837), index=6
  %get-tuple-element.1845 = c128[64,4,2,480]{3,2,1,0} get-tuple-element(%arg_tuple.1837), index=7
  %get-tuple-element.1846 = c128[64,4,2,480]{3,2,1,0} get-tuple-element(%arg_tuple.1837), index=8
  %get-tuple-element.1847 = c128[64,4,2,480]{3,2,1,0} get-tuple-element(%arg_tuple.1837), index=9
  %get-tuple-element.1848 = f64[64,4]{1,0} get-tuple-element(%arg_tuple.1837), index=10
  %get-tuple-element.1849 = f64[64,4]{1,0} get-tuple-element(%arg_tuple.1837), index=11
  %get-tuple-element.1850 = c128[480,480,4,4,4]{4,3,2,1,0} get-tuple-element(%arg_tuple.1837), index=12
  %get-tuple-element.1851 = c128[480,480]{1,0} get-tuple-element(%arg_tuple.1837), index=13
  %get-tuple-element.1838 = s64[] get-tuple-element(%arg_tuple.1837), index=0
  %constant.1852 = s64[] constant(200)
  ROOT %compare.1853 = pred[] compare(%get-tuple-element.1838, %constant.1852), direction=LT, metadata={op_name="jit(_full_run)/jit(main)/while/cond/lt" source_file="/global/homes/j/jackm/software/lorrax_C/src/solvers/lanczos.py" source_line=286}
}

%_where_13.1861 (Arg_0.1862: pred[200,200], Arg_1.1863: f64[200], Arg_2.1864: f64[200]) -> f64[200,200] {
  %Arg_0.1862 = pred[200,200]{1,0} parameter(0), metadata={op_name="jit(_full_run)/jit(main)/jit(_diag)/pjit"}
  %Arg_1.1863 = f64[200]{0} parameter(1), metadata={op_name="jit(_full_run)/jit(main)/jit(_diag)/pjit"}
  %broadcast.1865 = f64[200,200]{1,0} broadcast(%Arg_1.1863), dimensions={1}, metadata={op_name="jit(_full_run)/jit(main)/jit(_diag)/jit(_where)/broadcast_in_dim" source_file="/global/homes/j/jackm/software/lorrax_C/src/solvers/lanczos.py" source_line=288}
  %Arg_2.1864 = f64[200]{0} parameter(2), metadata={op_name="jit(_full_run)/jit(main)/jit(_diag)/pjit"}
  %broadcast.1866 = f64[200,200]{1,0} broadcast(%Arg_2.1864), dimensions={1}, metadata={op_name="jit(_full_run)/jit(main)/jit(_diag)/jit(_where)/broadcast_in_dim" source_file="/global/homes/j/jackm/software/lorrax_C/src/solvers/lanczos.py" source_line=288}
  ROOT %select.1867 = f64[200,200]{1,0} select(%Arg_0.1862, %broadcast.1865, %broadcast.1866), metadata={op_name="jit(_full_run)/jit(main)/jit(_diag)/jit(_where)/select_n" source_file="/global/homes/j/jackm/software/lorrax_C/src/solvers/lanczos.py" source_line=288}
}

%_diag.1868 (Arg_0.1869: f64[200]) -> f64[200,200] {
  %iota.1872 = s64[200]{0} iota(), iota_dimension=0, metadata={op_name="jit(_full_run)/jit(main)/jit(_diag)/iota" source_file="/global/homes/j/jackm/software/lorrax_C/src/solvers/lanczos.py" source_line=288}
  %broadcast.1873 = s64[200,200]{1,0} broadcast(%iota.1872), dimensions={0}, metadata={op_name="jit(_full_run)/jit(main)/jit(_diag)/iota" source_file="/global/homes/j/jackm/software/lorrax_C/src/solvers/lanczos.py" source_line=288}
  %iota.1874 = s64[200]{0} iota(), iota_dimension=0, metadata={op_name="jit(_full_run)/jit(main)/jit(_diag)/iota" source_file="/global/homes/j/jackm/software/lorrax_C/src/solvers/lanczos.py" source_line=288}
  %broadcast.1875 = s64[200,200]{1,0} broadcast(%iota.1874), dimensions={1}, metadata={op_name="jit(_full_run)/jit(main)/jit(_diag)/iota" source_file="/global/homes/j/jackm/software/lorrax_C/src/solvers/lanczos.py" source_line=288}
  %compare.1876 = pred[200,200]{1,0} compare(%broadcast.1873, %broadcast.1875), direction=EQ, metadata={op_name="jit(_full_run)/jit(main)/jit(_diag)/eq" source_file="/global/homes/j/jackm/software/lorrax_C/src/solvers/lanczos.py" source_line=288}
  %Arg_0.1869 = f64[200]{0} parameter(0), metadata={op_name="jit(_full_run)/jit(main)/pjit"}
  %constant.1870 = f64[] constant(0)
  %broadcast.1871 = f64[200]{0} broadcast(%constant.1870), dimensions={}
  ROOT %call.1877 = f64[200,200]{1,0} call(%compare.1876, %Arg_0.1869, %broadcast.1871), to_apply=%_where_13.1861
}

%_where_13.1880 (Arg_0.1881: pred[200,200], Arg_1.1882: f64[200], Arg_2.1883: f64[200]) -> f64[200,200] {
  %Arg_0.1881 = pred[200,200]{1,0} parameter(0), metadata={op_name="jit(_full_run)/jit(main)/jit(_diag)/pjit"}
  %Arg_1.1882 = f64[200]{0} parameter(1), metadata={op_name="jit(_full_run)/jit(main)/jit(_diag)/pjit"}
  %broadcast.1884 = f64[200,200]{1,0} broadcast(%Arg_1.1882), dimensions={1}, metadata={op_name="jit(_full_run)/jit(main)/jit(_diag)/jit(_where)/broadcast_in_dim" source_file="/global/homes/j/jackm/software/lorrax_C/src/solvers/lanczos.py" source_line=288}
  %Arg_2.1883 = f64[200]{0} parameter(2), metadata={op_name="jit(_full_run)/jit(main)/jit(_diag)/pjit"}
  %broadcast.1885 = f64[200,200]{1,0} broadcast(%Arg_2.1883), dimensions={1}, metadata={op_name="jit(_full_run)/jit(main)/jit(_diag)/jit(_where)/broadcast_in_dim" source_file="/global/homes/j/jackm/software/lorrax_C/src/solvers/lanczos.py" source_line=288}
  ROOT %select.1886 = f64[200,200]{1,0} select(%Arg_0.1881, %broadcast.1884, %broadcast.1885), metadata={op_name="jit(_full_run)/jit(main)/jit(_diag)/jit(_where)/select_n" source_file="/global/homes/j/jackm/software/lorrax_C/src/solvers/lanczos.py" source_line=288}
}

%_diag_14.1887 (Arg_0.1888: f64[199]) -> f64[200,200] {
  %iota.1895 = s64[200]{0} iota(), iota_dimension=0, metadata={op_name="jit(_full_run)/jit(main)/jit(_diag)/iota" source_file="/global/homes/j/jackm/software/lorrax_C/src/solvers/lanczos.py" source_line=290}
  %broadcast.1896 = s64[200,200]{1,0} broadcast(%iota.1895), dimensions={0}, metadata={op_name="jit(_full_run)/jit(main)/jit(_diag)/iota" source_file="/global/homes/j/jackm/software/lorrax_C/src/solvers/lanczos.py" source_line=290}
  %constant.1891 = s64[] constant(1)
  %broadcast.1892 = s64[200,200]{1,0} broadcast(%constant.1891), dimensions={}
  %add.1899 = s64[200,200]{1,0} add(%broadcast.1896, %broadcast.1892), metadata={op_name="jit(_full_run)/jit(main)/jit(_diag)/add" source_file="/global/homes/j/jackm/software/lorrax_C/src/solvers/lanczos.py" source_line=290}
  %iota.1897 = s64[200]{0} iota(), iota_dimension=0, metadata={op_name="jit(_full_run)/jit(main)/jit(_diag)/iota" source_file="/global/homes/j/jackm/software/lorrax_C/src/solvers/lanczos.py" source_line=290}
  %broadcast.1898 = s64[200,200]{1,0} broadcast(%iota.1897), dimensions={1}, metadata={op_name="jit(_full_run)/jit(main)/jit(_diag)/iota" source_file="/global/homes/j/jackm/software/lorrax_C/src/solvers/lanczos.py" source_line=290}
  %compare.1900 = pred[200,200]{1,0} compare(%add.1899, %broadcast.1898), direction=EQ, metadata={op_name="jit(_full_run)/jit(main)/jit(_diag)/eq" source_file="/global/homes/j/jackm/software/lorrax_C/src/solvers/lanczos.py" source_line=290}
  %Arg_0.1888 = f64[199]{0} parameter(0), metadata={op_name="jit(_full_run)/jit(main)/pjit"}
  %constant.1893 = f64[] constant(0)
  %pad.1894 = f64[200]{0} pad(%Arg_0.1888, %constant.1893), padding=1_0, metadata={op_name="jit(_full_run)/jit(main)/jit(_diag)/pad" source_file="/global/homes/j/jackm/software/lorrax_C/src/solvers/lanczos.py" source_line=290}
  %constant.1889 = f64[] constant(0)
  %broadcast.1890 = f64[200]{0} broadcast(%constant.1889), dimensions={}
  ROOT %call.1901 = f64[200,200]{1,0} call(%compare.1900, %pad.1894, %broadcast.1890), to_apply=%_where_13.1880
}

%_where_13.1904 (Arg_0.1905: pred[200,200], Arg_1.1906: f64[200], Arg_2.1907: f64[200]) -> f64[200,200] {
  %Arg_0.1905 = pred[200,200]{1,0} parameter(0), metadata={op_name="jit(_full_run)/jit(main)/jit(_diag)/pjit"}
  %Arg_1.1906 = f64[200]{0} parameter(1), metadata={op_name="jit(_full_run)/jit(main)/jit(_diag)/pjit"}
  %broadcast.1908 = f64[200,200]{1,0} broadcast(%Arg_1.1906), dimensions={1}, metadata={op_name="jit(_full_run)/jit(main)/jit(_diag)/jit(_where)/broadcast_in_dim" source_file="/global/homes/j/jackm/software/lorrax_C/src/solvers/lanczos.py" source_line=288}
  %Arg_2.1907 = f64[200]{0} parameter(2), metadata={op_name="jit(_full_run)/jit(main)/jit(_diag)/pjit"}
  %broadcast.1909 = f64[200,200]{1,0} broadcast(%Arg_2.1907), dimensions={1}, metadata={op_name="jit(_full_run)/jit(main)/jit(_diag)/jit(_where)/broadcast_in_dim" source_file="/global/homes/j/jackm/software/lorrax_C/src/solvers/lanczos.py" source_line=288}
  ROOT %select.1910 = f64[200,200]{1,0} select(%Arg_0.1905, %broadcast.1908, %broadcast.1909), metadata={op_name="jit(_full_run)/jit(main)/jit(_diag)/jit(_where)/select_n" source_file="/global/homes/j/jackm/software/lorrax_C/src/solvers/lanczos.py" source_line=288}
}

%_diag_15.1911 (Arg_0.1912: f64[199]) -> f64[200,200] {
  %iota.1919 = s64[200]{0} iota(), iota_dimension=0, metadata={op_name="jit(_full_run)/jit(main)/jit(_diag)/iota" source_file="/global/homes/j/jackm/software/lorrax_C/src/solvers/lanczos.py" source_line=290}
  %broadcast.1920 = s64[200,200]{1,0} broadcast(%iota.1919), dimensions={0}, metadata={op_name="jit(_full_run)/jit(main)/jit(_diag)/iota" source_file="/global/homes/j/jackm/software/lorrax_C/src/solvers/lanczos.py" source_line=290}
  %constant.1915 = s64[] constant(-1)
  %broadcast.1916 = s64[200,200]{1,0} broadcast(%constant.1915), dimensions={}
  %add.1923 = s64[200,200]{1,0} add(%broadcast.1920, %broadcast.1916), metadata={op_name="jit(_full_run)/jit(main)/jit(_diag)/add" source_file="/global/homes/j/jackm/software/lorrax_C/src/solvers/lanczos.py" source_line=290}
  %iota.1921 = s64[200]{0} iota(), iota_dimension=0, metadata={op_name="jit(_full_run)/jit(main)/jit(_diag)/iota" source_file="/global/homes/j/jackm/software/lorrax_C/src/solvers/lanczos.py" source_line=290}
  %broadcast.1922 = s64[200,200]{1,0} broadcast(%iota.1921), dimensions={1}, metadata={op_name="jit(_full_run)/jit(main)/jit(_diag)/iota" source_file="/global/homes/j/jackm/software/lorrax_C/src/solvers/lanczos.py" source_line=290}
  %compare.1924 = pred[200,200]{1,0} compare(%add.1923, %broadcast.1922), direction=EQ, metadata={op_name="jit(_full_run)/jit(main)/jit(_diag)/eq" source_file="/global/homes/j/jackm/software/lorrax_C/src/solvers/lanczos.py" source_line=290}
  %Arg_0.1912 = f64[199]{0} parameter(0), metadata={op_name="jit(_full_run)/jit(main)/pjit"}
  %constant.1917 = f64[] constant(0)
  %pad.1918 = f64[200]{0} pad(%Arg_0.1912, %constant.1917), padding=0_1, metadata={op_name="jit(_full_run)/jit(main)/jit(_diag)/pad" source_file="/global/homes/j/jackm/software/lorrax_C/src/solvers/lanczos.py" source_line=290}
  %constant.1913 = f64[] constant(0)
  %broadcast.1914 = f64[200]{0} broadcast(%constant.1913), dimensions={}
  ROOT %call.1925 = f64[200,200]{1,0} call(%compare.1924, %pad.1918, %broadcast.1914), to_apply=%_where_13.1904
}

%eigh.1928 (Arg_0.1929: f64[200,200]) -> (f64[200], f64[200,200]) {
  %Arg_0.1929 = f64[200,200]{1,0} parameter(0), metadata={op_name="jit(_full_run)/jit(main)/pjit"}
  %transpose.1937 = f64[200,200]{0,1} transpose(%Arg_0.1929), dimensions={1,0}, metadata={op_name="jit(_full_run)/jit(main)/jit(eigh)/transpose" source_file="/global/homes/j/jackm/software/lorrax_C/src/solvers/lanczos.py" source_line=292}
  %add.1938 = f64[200,200]{1,0} add(%Arg_0.1929, %transpose.1937), metadata={op_name="jit(_full_run)/jit(main)/jit(eigh)/add" source_file="/global/homes/j/jackm/software/lorrax_C/src/solvers/lanczos.py" source_line=292}
  %constant.1934 = f64[] constant(2)
  %broadcast.1935 = f64[200,200]{1,0} broadcast(%constant.1934), dimensions={}
  %divide.1939 = f64[200,200]{1,0} divide(%add.1938, %broadcast.1935), metadata={op_name="jit(_full_run)/jit(main)/jit(eigh)/div" source_file="/global/homes/j/jackm/software/lorrax_C/src/solvers/lanczos.py" source_line=292}
  %custom-call.1940 = (f64[200,200]{0,1}, f64[200]{0}, s32[]) custom-call(%divide.1939), custom_call_target="cusolver_syevd_ffi", operand_layout_constraints={f64[200,200]{0,1}}, output_to_operand_aliasing={{0}: (0, {})}, api_version=API_VERSION_TYPED_FFI, frontend_attributes={num_batch_dims="0"}, metadata={op_name="jit(_full_run)/jit(main)/jit(eigh)/eigh" source_file="/global/homes/j/jackm/software/lorrax_C/src/solvers/lanczos.py" source_line=292}, backend_config={algorithm = 0 : ui8, lower = true}
  %get-tuple-element.1943 = s32[] get-tuple-element(%custom-call.1940), index=2, frontend_attributes={num_batch_dims="0"}, metadata={op_name="jit(_full_run)/jit(main)/jit(eigh)/eigh" source_file="/global/homes/j/jackm/software/lorrax_C/src/solvers/lanczos.py" source_line=292}
  %constant.1936 = s32[] constant(0)
  %compare.1944 = pred[] compare(%get-tuple-element.1943, %constant.1936), direction=EQ, metadata={op_name="jit(_full_run)/jit(main)/jit(eigh)/eigh" source_file="/global/homes/j/jackm/software/lorrax_C/src/solvers/lanczos.py" source_line=292}
  %reshape.1950 = pred[1]{0} reshape(%compare.1944), metadata={op_name="jit(_full_run)/jit(main)/jit(eigh)/eigh" source_file="/global/homes/j/jackm/software/lorrax_C/src/solvers/lanczos.py" source_line=292}
  %broadcast.1951 = pred[1]{0} broadcast(%reshape.1950), dimensions={0}, metadata={op_name="jit(_full_run)/jit(main)/jit(eigh)/eigh" source_file="/global/homes/j/jackm/software/lorrax_C/src/solvers/lanczos.py" source_line=292}
  %reshape.1952 = pred[] reshape(%broadcast.1951), metadata={op_name="jit(_full_run)/jit(main)/jit(eigh)/eigh" source_file="/global/homes/j/jackm/software/lorrax_C/src/solvers/lanczos.py" source_line=292}
  %broadcast.1953 = pred[200]{0} broadcast(%reshape.1952), dimensions={}, metadata={op_name="jit(_full_run)/jit(main)/jit(eigh)/eigh" source_file="/global/homes/j/jackm/software/lorrax_C/src/solvers/lanczos.py" source_line=292}
  %get-tuple-element.1942 = f64[200]{0} get-tuple-element(%custom-call.1940), index=1, frontend_attributes={num_batch_dims="0"}, metadata={op_name="jit(_full_run)/jit(main)/jit(eigh)/eigh" source_file="/global/homes/j/jackm/software/lorrax_C/src/solvers/lanczos.py" source_line=292}
  %constant.1930 = f64[] constant(nan)
  %broadcast.1931 = f64[200]{0} broadcast(%constant.1930), dimensions={}
  %select.1954 = f64[200]{0} select(%broadcast.1953, %get-tuple-element.1942, %broadcast.1931), metadata={op_name="jit(_full_run)/jit(main)/jit(eigh)/eigh" source_file="/global/homes/j/jackm/software/lorrax_C/src/solvers/lanczos.py" source_line=292}
  %reshape.1945 = pred[1,1]{1,0} reshape(%compare.1944), metadata={op_name="jit(_full_run)/jit(main)/jit(eigh)/eigh" source_file="/global/homes/j/jackm/software/lorrax_C/src/solvers/lanczos.py" source_line=292}
  %broadcast.1946 = pred[1,1]{1,0} broadcast(%reshape.1945), dimensions={0,1}, metadata={op_name="jit(_full_run)/jit(main)/jit(eigh)/eigh" source_file="/global/homes/j/jackm/software/lorrax_C/src/solvers/lanczos.py" source_line=292}
  %reshape.1947 = pred[] reshape(%broadcast.1946), metadata={op_name="jit(_full_run)/jit(main)/jit(eigh)/eigh" source_file="/global/homes/j/jackm/software/lorrax_C/src/solvers/lanczos.py" source_line=292}
  %broadcast.1948 = pred[200,200]{1,0} broadcast(%reshape.1947), dimensions={}, metadata={op_name="jit(_full_run)/jit(main)/jit(eigh)/eigh" source_file="/global/homes/j/jackm/software/lorrax_C/src/solvers/lanczos.py" source_line=292}
  %get-tuple-element.1941 = f64[200,200]{0,1} get-tuple-element(%custom-call.1940), index=0, frontend_attributes={num_batch_dims="0"}, metadata={op_name="jit(_full_run)/jit(main)/jit(eigh)/eigh" source_file="/global/homes/j/jackm/software/lorrax_C/src/solvers/lanczos.py" source_line=292}
  %constant.1932 = f64[] constant(nan)
  %broadcast.1933 = f64[200,200]{1,0} broadcast(%constant.1932), dimensions={}
  %select.1949 = f64[200,200]{1,0} select(%broadcast.1948, %get-tuple-element.1941, %broadcast.1933), metadata={op_name="jit(_full_run)/jit(main)/jit(eigh)/eigh" source_file="/global/homes/j/jackm/software/lorrax_C/src/solvers/lanczos.py" source_line=292}
  ROOT %tuple.1955 = (f64[200]{0}, f64[200,200]{1,0}) tuple(%select.1954, %select.1949)
}

%region_21.1959 (Arg_0.1960: f64[], Arg_1.1961: f64[], Arg_2.1962: s64[], Arg_3.1963: s64[]) -> pred[] {
  %Arg_2.1962 = s64[] parameter(2), metadata={op_name="jit(_full_run)/jit(main)/jit(argsort)/sort"}
  %Arg_3.1963 = s64[] parameter(3), metadata={op_name="jit(_full_run)/jit(main)/jit(argsort)/sort"}
  %Arg_0.1960 = f64[] parameter(0), metadata={op_name="jit(_full_run)/jit(main)/jit(argsort)/sort"}
  %compare.1968 = pred[] compare(%Arg_0.1960, %Arg_0.1960), direction=NE, metadata={op_name="jit(_full_run)/jit(main)/jit(argsort)/ne" source_file="/global/homes/j/jackm/software/lorrax_C/src/solvers/lanczos.py" source_line=293}
  %constant.1964 = f64[] constant(nan)
  %constant.1965 = f64[] constant(0)
  %compare.1966 = pred[] compare(%Arg_0.1960, %constant.1965), direction=EQ, metadata={op_name="jit(_full_run)/jit(main)/jit(argsort)/eq" source_file="/global/homes/j/jackm/software/lorrax_C/src/solvers/lanczos.py" source_line=293}
  %select.1967 = f64[] select(%compare.1966, %constant.1965, %Arg_0.1960), metadata={op_name="jit(_full_run)/jit(main)/jit(argsort)/select_n" source_file="/global/homes/j/jackm/software/lorrax_C/src/solvers/lanczos.py" source_line=293}
  %select.1969 = f64[] select(%compare.1968, %constant.1964, %select.1967), metadata={op_name="jit(_full_run)/jit(main)/jit(argsort)/select_n" source_file="/global/homes/j/jackm/software/lorrax_C/src/solvers/lanczos.py" source_line=293}
  %Arg_1.1961 = f64[] parameter(1), metadata={op_name="jit(_full_run)/jit(main)/jit(argsort)/sort"}
  %compare.1972 = pred[] compare(%Arg_1.1961, %Arg_1.1961), direction=NE, metadata={op_name="jit(_full_run)/jit(main)/jit(argsort)/ne" source_file="/global/homes/j/jackm/software/lorrax_C/src/solvers/lanczos.py" source_line=293}
  %compare.1970 = pred[] compare(%Arg_1.1961, %constant.1965), direction=EQ, metadata={op_name="jit(_full_run)/jit(main)/jit(argsort)/eq" source_file="/global/homes/j/jackm/software/lorrax_C/src/solvers/lanczos.py" source_line=293}
  %select.1971 = f64[] select(%compare.1970, %constant.1965, %Arg_1.1961), metadata={op_name="jit(_full_run)/jit(main)/jit(argsort)/select_n" source_file="/global/homes/j/jackm/software/lorrax_C/src/solvers/lanczos.py" source_line=293}
  %select.1973 = f64[] select(%compare.1972, %constant.1964, %select.1971), metadata={op_name="jit(_full_run)/jit(main)/jit(argsort)/select_n" source_file="/global/homes/j/jackm/software/lorrax_C/src/solvers/lanczos.py" source_line=293}
  ROOT %compare.1974 = pred[] compare(%select.1969, %select.1973), direction=LT, type=TOTALORDER, metadata={op_name="jit(_full_run)/jit(main)/jit(argsort)/lt_to" source_file="/global/homes/j/jackm/software/lorrax_C/src/solvers/lanczos.py" source_line=293}
}

%argsort.1975 (Arg_0.1976: f64[200]) -> s64[200] {
  %Arg_0.1976 = f64[200]{0} parameter(0), metadata={op_name="jit(_full_run)/jit(main)/pjit"}
  %iota.1977 = s64[200]{0} iota(), iota_dimension=0, metadata={op_name="jit(_full_run)/jit(main)/jit(argsort)/iota" source_file="/global/homes/j/jackm/software/lorrax_C/src/solvers/lanczos.py" source_line=293}
  %sort.1978 = (f64[200]{0}, s64[200]{0}) sort(%Arg_0.1976, %iota.1977), dimensions={0}, is_stable=true, to_apply=%region_21.1959, metadata={op_name="jit(_full_run)/jit(main)/jit(argsort)/sort" source_file="/global/homes/j/jackm/software/lorrax_C/src/solvers/lanczos.py" source_line=293}
  %get-tuple-element.1979 = f64[200]{0} get-tuple-element(%sort.1978), index=0, metadata={op_name="jit(_full_run)/jit(main)/jit(argsort)/sort" source_file="/global/homes/j/jackm/software/lorrax_C/src/solvers/lanczos.py" source_line=293}
  ROOT %get-tuple-element.1980 = s64[200]{0} get-tuple-element(%sort.1978), index=1, metadata={op_name="jit(_full_run)/jit(main)/jit(argsort)/sort" source_file="/global/homes/j/jackm/software/lorrax_C/src/solvers/lanczos.py" source_line=293}
}

%region_22.1998 (Arg_0.1999: f64[], Arg_1.2000: f64[]) -> f64[] {
  %Arg_0.1999 = f64[] parameter(0), metadata={op_name="jit(_full_run)/jit(main)/jit(norm)/reduce_sum"}
  %Arg_1.2000 = f64[] parameter(1), metadata={op_name="jit(_full_run)/jit(main)/jit(norm)/reduce_sum"}
  ROOT %add.2001 = f64[] add(%Arg_0.1999, %Arg_1.2000), metadata={op_name="jit(_full_run)/jit(main)/jit(norm)/reduce_sum" source_file="/global/homes/j/jackm/software/lorrax_C/src/solvers/lanczos.py" source_line=297}
}

%norm_16.2002 (Arg_0.2003: c128[20,1024]) -> f64[20,1] {
  %Arg_0.2003 = c128[20,1024]{1,0} parameter(0), metadata={op_name="jit(_full_run)/jit(main)/pjit"}
  %real.2005 = f64[20,1024]{1,0} real(%Arg_0.2003), metadata={op_name="jit(_full_run)/jit(main)/jit(norm)/real" source_file="/global/homes/j/jackm/software/lorrax_C/src/solvers/lanczos.py" source_line=297}
  %imag.2006 = f64[20,1024]{1,0} imag(%Arg_0.2003), metadata={op_name="jit(_full_run)/jit(main)/jit(norm)/imag" source_file="/global/homes/j/jackm/software/lorrax_C/src/solvers/lanczos.py" source_line=297}
  %negate.2007 = f64[20,1024]{1,0} negate(%imag.2006), metadata={op_name="jit(_full_run)/jit(main)/jit(norm)/neg" source_file="/global/homes/j/jackm/software/lorrax_C/src/solvers/lanczos.py" source_line=297}
  %complex.2008 = c128[20,1024]{1,0} complex(%real.2005, %negate.2007), metadata={op_name="jit(_full_run)/jit(main)/jit(norm)/complex" source_file="/global/homes/j/jackm/software/lorrax_C/src/solvers/lanczos.py" source_line=297}
  %multiply.2009 = c128[20,1024]{1,0} multiply(%Arg_0.2003, %complex.2008), metadata={op_name="jit(_full_run)/jit(main)/jit(norm)/mul" source_file="/global/homes/j/jackm/software/lorrax_C/src/solvers/lanczos.py" source_line=297}
  %real.2010 = f64[20,1024]{1,0} real(%multiply.2009), metadata={op_name="jit(_full_run)/jit(main)/jit(norm)/real" source_file="/global/homes/j/jackm/software/lorrax_C/src/solvers/lanczos.py" source_line=297}
  %constant.2004 = f64[] constant(0)
  %reduce.2011 = f64[20]{0} reduce(%real.2010, %constant.2004), dimensions={1}, to_apply=%region_22.1998, metadata={op_name="jit(_full_run)/jit(main)/jit(norm)/reduce_sum" source_file="/global/homes/j/jackm/software/lorrax_C/src/solvers/lanczos.py" source_line=297}
  %reshape.2012 = f64[20,1]{1,0} reshape(%reduce.2011), metadata={op_name="jit(_full_run)/jit(main)/jit(norm)/broadcast_in_dim" source_file="/global/homes/j/jackm/software/lorrax_C/src/solvers/lanczos.py" source_line=297}
  ROOT %sqrt.2013 = f64[20,1]{1,0} sqrt(%reshape.2012), metadata={op_name="jit(_full_run)/jit(main)/jit(norm)/sqrt" source_file="/global/homes/j/jackm/software/lorrax_C/src/solvers/lanczos.py" source_line=297}
}

ENTRY %main.2024 (Arg_0.1: c128[64,4,2,480], Arg_1.2: c128[64,4,2,480], Arg_2.3: c128[64,4,2,480], Arg_3.4: c128[64,4,2,480], Arg_4.5: f64[64,4], Arg_5.6: f64[64,4], Arg_6.7: c128[480,480,4,4,4], Arg_7.8: c128[480,480]) -> (f64[20], c128[20,1024]) {
  %constant.23 = s64[] constant(0)
  %constant.18 = c128[] constant((0, 0))
  %broadcast.19 = c128[1024,200]{1,0} broadcast(%constant.18), dimensions={}
  %constant.17 = s32[1]{0} constant({0})
  %constant.25 = s64[] constant(42)
  %constant.24 = s64[] constant(32)
  %shift-right-logical.29 = s64[] shift-right-logical(%constant.25, %constant.24), metadata={op_name="jit(_full_run)/jit(main)/shift_right_logical" source_file="/global/homes/j/jackm/software/lorrax_C/src/solvers/lanczos.py" source_line=244}
  %convert.30 = u32[] convert(%shift-right-logical.29), metadata={op_name="jit(_full_run)/jit(main)/convert_element_type" source_file="/global/homes/j/jackm/software/lorrax_C/src/solvers/lanczos.py" source_line=244}
  %reshape.31 = u32[1]{0} reshape(%convert.30), metadata={op_name="jit(_full_run)/jit(main)/broadcast_in_dim" source_file="/global/homes/j/jackm/software/lorrax_C/src/solvers/lanczos.py" source_line=244}
  %constant.22 = u32[1]{0} constant({42})
  %concatenate.32 = u32[2]{0} concatenate(%reshape.31, %constant.22), dimensions={0}, metadata={op_name="jit(_full_run)/jit(main)/concatenate" source_file="/global/homes/j/jackm/software/lorrax_C/src/solvers/lanczos.py" source_line=244}
  %call.219 = u32[2,2]{1,0} call(%concatenate.32), to_apply=%_threefry_split.201
  %slice.220 = u32[1,2]{1,0} slice(%call.219), slice={[0:1], [0:2]}, metadata={op_name="jit(_full_run)/jit(main)/slice" source_file="/global/homes/j/jackm/software/lorrax_C/src/solvers/lanczos.py" source_line=245}
  %reshape.221 = u32[2]{0} reshape(%slice.220), metadata={op_name="jit(_full_run)/jit(main)/squeeze" source_file="/global/homes/j/jackm/software/lorrax_C/src/solvers/lanczos.py" source_line=245}
  %call.683 = f64[1024]{0} call(%reshape.221), to_apply=%_normal.680
  %convert.1146 = c128[1024]{0} convert(%call.683), metadata={op_name="jit(_full_run)/jit(main)/convert_element_type" source_file="/global/homes/j/jackm/software/lorrax_C/src/solvers/lanczos.py" source_line=248}
  %slice.222 = u32[1,2]{1,0} slice(%call.219), slice={[1:2], [0:2]}, metadata={op_name="jit(_full_run)/jit(main)/slice" source_file="/global/homes/j/jackm/software/lorrax_C/src/solvers/lanczos.py" source_line=245}
  %reshape.223 = u32[2]{0} reshape(%slice.222), metadata={op_name="jit(_full_run)/jit(main)/squeeze" source_file="/global/homes/j/jackm/software/lorrax_C/src/solvers/lanczos.py" source_line=245}
  %call.1143 = f64[1024]{0} call(%reshape.223), to_apply=%_normal.1140
  %convert.1144 = c128[1024]{0} convert(%call.1143), metadata={op_name="jit(_full_run)/jit(main)/convert_element_type" source_file="/global/homes/j/jackm/software/lorrax_C/src/solvers/lanczos.py" source_line=248}
  %constant.20 = c128[] constant((0, 1))
  %broadcast.21 = c128[1024]{0} broadcast(%constant.20), dimensions={}
  %multiply.1145 = c128[1024]{0} multiply(%convert.1144, %broadcast.21), metadata={op_name="jit(_full_run)/jit(main)/mul" source_file="/global/homes/j/jackm/software/lorrax_C/src/solvers/lanczos.py" source_line=248}
  %add.1147 = c128[1024]{0} add(%convert.1146, %multiply.1145), metadata={op_name="jit(_full_run)/jit(main)/add" source_file="/global/homes/j/jackm/software/lorrax_C/src/solvers/lanczos.py" source_line=248}
  %call.1163 = f64[] call(%add.1147), to_apply=%norm.1152
  %convert.1164 = c128[] convert(%call.1163), metadata={op_name="jit(_full_run)/jit(main)/convert_element_type" source_file="/global/homes/j/jackm/software/lorrax_C/src/solvers/lanczos.py" source_line=249}
  %broadcast.1165 = c128[1024]{0} broadcast(%convert.1164), dimensions={}, metadata={op_name="jit(_full_run)/jit(main)/div" source_file="/global/homes/j/jackm/software/lorrax_C/src/solvers/lanczos.py" source_line=249}
  %divide.1166 = c128[1024]{0} divide(%add.1147, %broadcast.1165), metadata={op_name="jit(_full_run)/jit(main)/div" source_file="/global/homes/j/jackm/software/lorrax_C/src/solvers/lanczos.py" source_line=249}
  %scatter.1170 = c128[1024,200]{1,0} scatter(%broadcast.19, %constant.17, %divide.1166), update_window_dims={0}, inserted_window_dims={1}, scatter_dims_to_operand_dims={1}, index_vector_dim=0, indices_are_sorted=true, unique_indices=true, to_apply=%region_1.1167, metadata={op_name="jit(_full_run)/jit(main)/scatter" source_file="/global/homes/j/jackm/software/lorrax_C/src/solvers/lanczos.py" source_line=252}
  %constant.15 = f64[] constant(0)
  %broadcast.16 = f64[200]{0} broadcast(%constant.15), dimensions={}
  %Arg_0.1 = c128[64,4,2,480]{3,2,1,0} parameter(0), sharding={devices=[1,1,1,2,2]<=[4] last_tile_dim_replicate}, metadata={op_name="psi_c_X"}
  %Arg_1.2 = c128[64,4,2,480]{3,2,1,0} parameter(1), sharding={devices=[1,1,1,2,2]<=[2,2]T(1,0) last_tile_dim_replicate}, metadata={op_name="psi_c_Y"}
  %Arg_2.3 = c128[64,4,2,480]{3,2,1,0} parameter(2), sharding={devices=[1,1,1,2,2]<=[4] last_tile_dim_replicate}, metadata={op_name="psi_v_X"}
  %Arg_3.4 = c128[64,4,2,480]{3,2,1,0} parameter(3), sharding={devices=[1,1,1,2,2]<=[2,2]T(1,0) last_tile_dim_replicate}, metadata={op_name="psi_v_Y"}
  %Arg_4.5 = f64[64,4]{1,0} parameter(4), sharding={replicated}, metadata={op_name="eps_c"}
  %Arg_5.6 = f64[64,4]{1,0} parameter(5), sharding={replicated}, metadata={op_name="eps_v"}
  %Arg_6.7 = c128[480,480,4,4,4]{4,3,2,1,0} parameter(6), sharding={devices=[2,2,1,1,1]<=[4]}, metadata={op_name="W_q"}
  %custom-call.26 = c128[480,480,4,4,4]{4,3,2,1,0} custom-call(%Arg_6.7), custom_call_target="CustomSPMDPartitioning", api_version=API_VERSION_STATUS_RETURNING, metadata={op_name="jit(_full_run)/jit(main)/custom_partitioning" source_file="/global/homes/j/jackm/software/lorrax_C/src/common/fft_helpers.py" source_line=259}, backend_config="140658708952032"
  %custom-call.27 = c128[480,480,4,4,4]{4,3,2,1,0} custom-call(%custom-call.26), custom_call_target="CustomSPMDPartitioning", api_version=API_VERSION_STATUS_RETURNING, metadata={op_name="jit(_full_run)/jit(main)/custom_partitioning" source_file="/global/homes/j/jackm/software/lorrax_C/src/common/fft_helpers.py" source_line=259}, backend_config="140658709590528"
  %custom-call.28 = c128[480,480,4,4,4]{4,3,2,1,0} custom-call(%custom-call.27), custom_call_target="CustomSPMDPartitioning", api_version=API_VERSION_STATUS_RETURNING, metadata={op_name="jit(_full_run)/jit(main)/custom_partitioning" source_file="/global/homes/j/jackm/software/lorrax_C/src/common/fft_helpers.py" source_line=259}, backend_config="140658709591392"
  %Arg_7.8 = c128[480,480]{1,0} parameter(7), sharding={devices=[2,2]<=[4]}, metadata={op_name="V_q0"}
  %tuple.1171 = (s64[], s64[], c128[1024,200]{1,0}, f64[200]{0}, f64[200]{0}, /*index=5*/c128[1024]{0}, c128[64,4,2,480]{3,2,1,0}, c128[64,4,2,480]{3,2,1,0}, c128[64,4,2,480]{3,2,1,0}, c128[64,4,2,480]{3,2,1,0}, /*index=10*/f64[64,4]{1,0}, f64[64,4]{1,0}, c128[480,480,4,4,4]{4,3,2,1,0}, c128[480,480]{1,0}) tuple(%constant.23, %constant.23, %scatter.1170, %broadcast.16, %broadcast.16, /*index=5*/%divide.1166, %Arg_0.1, %Arg_1.2, %Arg_2.3, %Arg_3.4, /*index=10*/%Arg_4.5, %Arg_5.6, %custom-call.28, %Arg_7.8), metadata={op_name="jit(_full_run)/jit(main)/while" source_file="/global/homes/j/jackm/software/lorrax_C/src/solvers/lanczos.py" source_line=286}
  %while.1854 = (s64[], s64[], c128[1024,200]{1,0}, f64[200]{0}, f64[200]{0}, /*index=5*/c128[1024]{0}, c128[64,4,2,480]{3,2,1,0}, c128[64,4,2,480]{3,2,1,0}, c128[64,4,2,480]{3,2,1,0}, c128[64,4,2,480]{3,2,1,0}, /*index=10*/f64[64,4]{1,0}, f64[64,4]{1,0}, c128[480,480,4,4,4]{4,3,2,1,0}, c128[480,480]{1,0}) while(%tuple.1171), condition=%region_20.1836, body=%region_2.1811, metadata={op_name="jit(_full_run)/jit(main)/while" source_file="/global/homes/j/jackm/software/lorrax_C/src/solvers/lanczos.py" source_line=286}
  %get-tuple-element.1855 = s64[] get-tuple-element(%while.1854), index=0, metadata={op_name="jit(_full_run)/jit(main)/while" source_file="/global/homes/j/jackm/software/lorrax_C/src/solvers/lanczos.py" source_line=286}
  %get-tuple-element.1856 = s64[] get-tuple-element(%while.1854), index=1, metadata={op_name="jit(_full_run)/jit(main)/while" source_file="/global/homes/j/jackm/software/lorrax_C/src/solvers/lanczos.py" source_line=286}
  %get-tuple-element.1860 = c128[1024]{0} get-tuple-element(%while.1854), index=5, metadata={op_name="jit(_full_run)/jit(main)/while" source_file="/global/homes/j/jackm/software/lorrax_C/src/solvers/lanczos.py" source_line=286}
  %get-tuple-element.1858 = f64[200]{0} get-tuple-element(%while.1854), index=3, metadata={op_name="jit(_full_run)/jit(main)/while" source_file="/global/homes/j/jackm/software/lorrax_C/src/solvers/lanczos.py" source_line=286}
  %call.1878 = f64[200,200]{1,0} call(%get-tuple-element.1858), to_apply=%_diag.1868
  %get-tuple-element.1859 = f64[200]{0} get-tuple-element(%while.1854), index=4, metadata={op_name="jit(_full_run)/jit(main)/while" source_file="/global/homes/j/jackm/software/lorrax_C/src/solvers/lanczos.py" source_line=286}
  %slice.1879 = f64[199]{0} slice(%get-tuple-element.1859), slice={[0:199]}, metadata={op_name="jit(_full_run)/jit(main)/slice" source_file="/global/homes/j/jackm/software/lorrax_C/src/solvers/lanczos.py" source_line=289}
  %call.1902 = f64[200,200]{1,0} call(%slice.1879), to_apply=%_diag_14.1887
  %add.1903 = f64[200,200]{1,0} add(%call.1878, %call.1902), metadata={op_name="jit(_full_run)/jit(main)/add" source_file="/global/homes/j/jackm/software/lorrax_C/src/solvers/lanczos.py" source_line=290}
  %call.1926 = f64[200,200]{1,0} call(%slice.1879), to_apply=%_diag_15.1911
  %add.1927 = f64[200,200]{1,0} add(%add.1903, %call.1926), metadata={op_name="jit(_full_run)/jit(main)/add" source_file="/global/homes/j/jackm/software/lorrax_C/src/solvers/lanczos.py" source_line=290}
  %call.1956 = (f64[200]{0}, f64[200,200]{1,0}) call(%add.1927), to_apply=%eigh.1928
  %get-tuple-element.1957 = f64[200]{0} get-tuple-element(%call.1956), index=0
  %call.1981 = s64[200]{0} call(%get-tuple-element.1957), to_apply=%argsort.1975
  %slice.1982 = s64[20]{0} slice(%call.1981), slice={[0:20]}, metadata={op_name="jit(_full_run)/jit(main)/slice" source_file="/global/homes/j/jackm/software/lorrax_C/src/solvers/lanczos.py" source_line=293}
  %constant.13 = s64[] constant(0)
  %broadcast.14 = s64[20]{0} broadcast(%constant.13), dimensions={}
  %compare.1983 = pred[20]{0} compare(%slice.1982, %broadcast.14), direction=LT, metadata={op_name="jit(_full_run)/jit(main)/lt" source_file="/global/homes/j/jackm/software/lorrax_C/src/solvers/lanczos.py" source_line=294}
  %constant.11 = s64[] constant(200)
  %broadcast.12 = s64[20]{0} broadcast(%constant.11), dimensions={}
  %add.1984 = s64[20]{0} add(%slice.1982, %broadcast.12), metadata={op_name="jit(_full_run)/jit(main)/add" source_file="/global/homes/j/jackm/software/lorrax_C/src/solvers/lanczos.py" source_line=294}
  %select.1985 = s64[20]{0} select(%compare.1983, %add.1984, %slice.1982), metadata={op_name="jit(_full_run)/jit(main)/select_n" source_file="/global/homes/j/jackm/software/lorrax_C/src/solvers/lanczos.py" source_line=294}
  %convert.1986 = s32[20]{0} convert(%select.1985), metadata={op_name="jit(_full_run)/jit(main)/convert_element_type" source_file="/global/homes/j/jackm/software/lorrax_C/src/solvers/lanczos.py" source_line=294}
  %reshape.1987 = s32[20,1]{1,0} reshape(%convert.1986), metadata={op_name="jit(_full_run)/jit(main)/broadcast_in_dim" source_file="/global/homes/j/jackm/software/lorrax_C/src/solvers/lanczos.py" source_line=294}
  %gather.1988 = f64[20]{0} gather(%get-tuple-element.1957, %reshape.1987), offset_dims={}, collapsed_slice_dims={0}, start_index_map={0}, index_vector_dim=1, slice_sizes={1}, metadata={op_name="jit(_full_run)/jit(main)/gather" source_file="/global/homes/j/jackm/software/lorrax_C/src/solvers/lanczos.py" source_line=294}
  %reshape.2021 = f64[20]{0} reshape(%gather.1988), sharding={replicated}
  %get-tuple-element.1857 = c128[1024,200]{1,0} get-tuple-element(%while.1854), index=2, metadata={op_name="jit(_full_run)/jit(main)/while" source_file="/global/homes/j/jackm/software/lorrax_C/src/solvers/lanczos.py" source_line=286}
  %get-tuple-element.1958 = f64[200,200]{1,0} get-tuple-element(%call.1956), index=1
  %compare.1989 = pred[20]{0} compare(%slice.1982, %broadcast.14), direction=LT, metadata={op_name="jit(_full_run)/jit(main)/lt" source_file="/global/homes/j/jackm/software/lorrax_C/src/solvers/lanczos.py" source_line=296}
  %add.1990 = s64[20]{0} add(%slice.1982, %broadcast.12), metadata={op_name="jit(_full_run)/jit(main)/add" source_file="/global/homes/j/jackm/software/lorrax_C/src/solvers/lanczos.py" source_line=296}
  %select.1991 = s64[20]{0} select(%compare.1989, %add.1990, %slice.1982), metadata={op_name="jit(_full_run)/jit(main)/select_n" source_file="/global/homes/j/jackm/software/lorrax_C/src/solvers/lanczos.py" source_line=296}
  %convert.1992 = s32[20]{0} convert(%select.1991), metadata={op_name="jit(_full_run)/jit(main)/convert_element_type" source_file="/global/homes/j/jackm/software/lorrax_C/src/solvers/lanczos.py" source_line=296}
  %reshape.1993 = s32[20,1]{1,0} reshape(%convert.1992), metadata={op_name="jit(_full_run)/jit(main)/broadcast_in_dim" source_file="/global/homes/j/jackm/software/lorrax_C/src/solvers/lanczos.py" source_line=296}
  %gather.1994 = f64[200,20]{1,0} gather(%get-tuple-element.1958, %reshape.1993), offset_dims={0}, collapsed_slice_dims={1}, start_index_map={1}, index_vector_dim=1, slice_sizes={200,1}, metadata={op_name="jit(_full_run)/jit(main)/gather" source_file="/global/homes/j/jackm/software/lorrax_C/src/solvers/lanczos.py" source_line=296}
  %convert.1995 = c128[200,20]{1,0} convert(%gather.1994), metadata={op_name="jit(_full_run)/jit(main)/dot_general" source_file="/global/homes/j/jackm/software/lorrax_C/src/solvers/lanczos.py" source_line=296}
  %dot.1996 = c128[1024,20]{1,0} dot(%get-tuple-element.1857, %convert.1995), lhs_contracting_dims={1}, rhs_contracting_dims={0}, metadata={op_name="jit(_full_run)/jit(main)/dot_general" source_file="/global/homes/j/jackm/software/lorrax_C/src/solvers/lanczos.py" source_line=296}
  %transpose.1997 = c128[20,1024]{0,1} transpose(%dot.1996), dimensions={1,0}, metadata={op_name="jit(_full_run)/jit(main)/transpose" source_file="/global/homes/j/jackm/software/lorrax_C/src/solvers/lanczos.py" source_line=296}
  %call.2014 = f64[20,1]{1,0} call(%transpose.1997), to_apply=%norm_16.2002
  %constant.9 = f64[] constant(1e-15)
  %broadcast.10 = f64[20,1]{1,0} broadcast(%constant.9), dimensions={}
  %maximum.2015 = f64[20,1]{1,0} maximum(%call.2014, %broadcast.10), metadata={op_name="jit(_full_run)/jit(main)/max" source_file="/global/homes/j/jackm/software/lorrax_C/src/solvers/lanczos.py" source_line=298}
  %convert.2016 = c128[20,1]{1,0} convert(%maximum.2015), metadata={op_name="jit(_full_run)/jit(main)/convert_element_type" source_file="/global/homes/j/jackm/software/lorrax_C/src/solvers/lanczos.py" source_line=298}
  %broadcast.2017 = c128[20,1]{1,0} broadcast(%convert.2016), dimensions={0,1}, metadata={op_name="jit(_full_run)/jit(main)/div" source_file="/global/homes/j/jackm/software/lorrax_C/src/solvers/lanczos.py" source_line=298}
  %reshape.2018 = c128[20]{0} reshape(%broadcast.2017), metadata={op_name="jit(_full_run)/jit(main)/div" source_file="/global/homes/j/jackm/software/lorrax_C/src/solvers/lanczos.py" source_line=298}
  %broadcast.2019 = c128[20,1024]{1,0} broadcast(%reshape.2018), dimensions={0}, metadata={op_name="jit(_full_run)/jit(main)/div" source_file="/global/homes/j/jackm/software/lorrax_C/src/solvers/lanczos.py" source_line=298}
  %divide.2020 = c128[20,1024]{0,1} divide(%transpose.1997, %broadcast.2019), metadata={op_name="jit(_full_run)/jit(main)/div" source_file="/global/homes/j/jackm/software/lorrax_C/src/solvers/lanczos.py" source_line=298}
  %reshape.2022 = c128[20,1024]{1,0} reshape(%divide.2020), sharding={replicated}
  ROOT %tuple.2023 = (f64[20]{0}, c128[20,1024]{1,0}) tuple(%reshape.2021, %reshape.2022), sharding={{replicated}, {replicated}}
}

