HloModule jit_scan, entry_computation_layout={(f64[181,960]{1,0}, s64[], f64[181,960]{1,0})->(s64[], f64[181,960]{1,0})}, allow_spmd_sharding_propagation_to_parameters={false,true,false}, allow_spmd_sharding_propagation_to_output={true,true}, num_partitions=4

%region_0.159.clone.clone.clone (arg_tuple.4: (s64[], f64[181,960], f64[181,960])) -> (s64[], f64[181,960], f64[181,960]) {
  %arg_tuple.4 = (s64[], f64[181,960]{1,0}, f64[181,960]{1,0}) parameter(0)
  %get-tuple-element.39 = s64[] get-tuple-element(%arg_tuple.4), index=0
  %constant.103 = s64[] constant(1)
  %add.38 = s64[] add(%get-tuple-element.39, %constant.103), metadata={op_name="jit(scan)/jit(main)/while/body/add" source_file="/global/homes/j/jackm/software/lorrax_C/src/bandstructure/htransform.py" source_line=342}
  %get-tuple-element.38 = f64[181,960]{1,0} get-tuple-element(%arg_tuple.4), index=1
  %constant.105 = f64[] constant(-0.32823802595442442)
  %broadcast.126 = f64[181,960]{1,0} broadcast(%constant.105), dimensions={}, metadata={op_name="jit(scan)/jit(main)/while/body/jit(clip)/max" source_file="/global/homes/j/jackm/software/lorrax_C/src/bandstructure/htransform.py" source_line=339}
  %constant.123 = f64[] constant(-0.98024169093943125)
  %broadcast.142 = f64[181,960]{1,0} broadcast(%constant.123), dimensions={}
  %add.45 = f64[181,960]{1,0} add(%get-tuple-element.38, %broadcast.142), metadata={op_name="jit(scan)/jit(main)/while/body/sub" source_file="/global/homes/j/jackm/software/lorrax_C/src/bandstructure/htransform.py" source_line=309}
  %constant.106 = f64[] constant(0)
  %broadcast.127 = f64[181,960]{1,0} broadcast(%constant.106), dimensions={}
  %compare.26 = pred[181,960]{1,0} compare(%add.45, %broadcast.127), direction=GE, metadata={op_name="jit(scan)/jit(main)/while/body/ge" source_file="/global/homes/j/jackm/software/lorrax_C/src/bandstructure/htransform.py" source_line=316}
  %constant.128 = f64[] constant(0)
  %broadcast.128 = f64[181,960]{1,0} broadcast(%constant.128), dimensions={}, metadata={op_name="jit(scan)/jit(main)/while/body/jit(_where)/broadcast_in_dim" source_file="/global/homes/j/jackm/software/lorrax_C/src/bandstructure/htransform.py" source_line=301}
  %compare.27 = pred[181,960]{1,0} compare(%add.45, %broadcast.127), direction=LT, metadata={op_name="jit(scan)/jit(main)/while/body/lt" source_file="/global/homes/j/jackm/software/lorrax_C/src/bandstructure/htransform.py" source_line=311}
  %constant.108 = f64[] constant(-0.65647605190884883)
  %broadcast.129 = f64[181,960]{1,0} broadcast(%constant.108), dimensions={}
  %compare.28 = pred[181,960]{1,0} compare(%add.45, %broadcast.129), direction=LE, metadata={op_name="jit(scan)/jit(main)/while/body/le" source_file="/global/homes/j/jackm/software/lorrax_C/src/bandstructure/htransform.py" source_line=310}
  %not.6 = pred[181,960]{1,0} not(%compare.28), metadata={op_name="jit(scan)/jit(main)/while/body/not" source_file="/global/homes/j/jackm/software/lorrax_C/src/bandstructure/htransform.py" source_line=311}
  %and.6 = pred[181,960]{1,0} and(%compare.27, %not.6), metadata={op_name="jit(scan)/jit(main)/while/body/and" source_file="/global/homes/j/jackm/software/lorrax_C/src/bandstructure/htransform.py" source_line=311}
  %constant.109 = f64[] constant(0.5)
  %broadcast.130 = f64[181,960]{1,0} broadcast(%constant.109), dimensions={}
  %constant.119 = f64[] constant(1.5232848130442529)
  %broadcast.143 = f64[181,960]{1,0} broadcast(%constant.119), dimensions={}
  %multiply.56 = f64[181,960]{1,0} multiply(%add.45, %broadcast.143), metadata={op_name="jit(scan)/jit(main)/while/body/div" source_file="/global/homes/j/jackm/software/lorrax_C/src/bandstructure/htransform.py" source_line=314}
  %add.39 = f64[181,960]{1,0} add(%multiply.56, %broadcast.130), metadata={op_name="jit(scan)/jit(main)/while/body/add" source_file="/global/homes/j/jackm/software/lorrax_C/src/bandstructure/htransform.py" source_line=314}
  %constant.111 = f64[] constant(3)
  %broadcast.132 = f64[181,960]{1,0} broadcast(%constant.111), dimensions={}
  %multiply.50 = f64[181,960]{1,0} multiply(%add.39, %broadcast.132), metadata={op_name="jit(scan)/jit(main)/while/body/mul" source_file="/global/homes/j/jackm/software/lorrax_C/src/bandstructure/htransform.py" source_line=314}
  %erf.6 = f64[181,960]{1,0} erf(%multiply.50), metadata={op_name="jit(scan)/jit(main)/while/body/erf" source_file="/global/homes/j/jackm/software/lorrax_C/src/bandstructure/htransform.py" source_line=315}
  %constant.120 = f64[] constant(0.51754201064363936)
  %broadcast.144 = f64[181,960]{1,0} broadcast(%constant.120), dimensions={}
  %multiply.57 = f64[181,960]{1,0} multiply(%erf.6, %broadcast.144), metadata={op_name="jit(scan)/jit(main)/while/body/div" source_file="/global/homes/j/jackm/software/lorrax_C/src/bandstructure/htransform.py" source_line=315}
  %subtract.14 = f64[181,960]{1,0} subtract(%broadcast.130, %multiply.57), metadata={op_name="jit(scan)/jit(main)/while/body/sub" source_file="/global/homes/j/jackm/software/lorrax_C/src/bandstructure/htransform.py" source_line=315}
  %constant.112 = f64[] constant(1)
  %broadcast.133 = f64[181,960]{1,0} broadcast(%constant.112), dimensions={}, metadata={op_name="jit(scan)/jit(main)/while/body/jit(_where)/broadcast_in_dim" source_file="/global/homes/j/jackm/software/lorrax_C/src/bandstructure/htransform.py" source_line=301}
  %constant.113 = f64[] constant(0)
  %broadcast.145 = f64[181,960]{1,0} broadcast(%constant.113), dimensions={}, metadata={op_name="jit(scan)/jit(main)/while/body/jit(_where)/broadcast_in_dim" source_file="/global/homes/j/jackm/software/lorrax_C/src/bandstructure/htransform.py" source_line=301}
  %select.37 = f64[181,960]{1,0} select(%compare.28, %broadcast.133, %broadcast.145), metadata={op_name="jit(scan)/jit(main)/while/body/jit(_where)/select_n" source_file="/global/homes/j/jackm/software/lorrax_C/src/bandstructure/htransform.py" source_line=301}
  %select.38 = f64[181,960]{1,0} select(%and.6, %subtract.14, %select.37), metadata={op_name="jit(scan)/jit(main)/while/body/jit(_where)/select_n" source_file="/global/homes/j/jackm/software/lorrax_C/src/bandstructure/htransform.py" source_line=300}
  %select.39 = f64[181,960]{1,0} select(%compare.26, %broadcast.128, %select.38), metadata={op_name="jit(scan)/jit(main)/while/body/jit(_where)/select_n" source_file="/global/homes/j/jackm/software/lorrax_C/src/bandstructure/htransform.py" source_line=301}
  %abs.3 = f64[181,960]{1,0} abs(%select.39), metadata={op_name="jit(scan)/jit(main)/while/body/abs" source_file="/global/homes/j/jackm/software/lorrax_C/src/bandstructure/htransform.py" source_line=338}
  %constant.114 = f64[] constant(1e-14)
  %broadcast.134 = f64[181,960]{1,0} broadcast(%constant.114), dimensions={}
  %compare.29 = pred[181,960]{1,0} compare(%abs.3, %broadcast.134), direction=GT, metadata={op_name="jit(scan)/jit(main)/while/body/gt" source_file="/global/homes/j/jackm/software/lorrax_C/src/bandstructure/htransform.py" source_line=338}
  %constant.124 = f64[] constant(-0.98024169093943125)
  %broadcast.146 = f64[181,960]{1,0} broadcast(%constant.124), dimensions={}
  %add.46 = f64[181,960]{1,0} add(%get-tuple-element.38, %broadcast.146), metadata={op_name="jit(scan)/jit(main)/while/body/sub" source_file="/global/homes/j/jackm/software/lorrax_C/src/bandstructure/htransform.py" source_line=291}
  %compare.30 = pred[181,960]{1,0} compare(%add.46, %broadcast.127), direction=GE, metadata={op_name="jit(scan)/jit(main)/while/body/ge" source_file="/global/homes/j/jackm/software/lorrax_C/src/bandstructure/htransform.py" source_line=301}
  %constant.129 = f64[] constant(0)
  %broadcast.135 = f64[181,960]{1,0} broadcast(%constant.129), dimensions={}, metadata={op_name="jit(scan)/jit(main)/while/body/jit(_where)/broadcast_in_dim" source_file="/global/homes/j/jackm/software/lorrax_C/src/bandstructure/htransform.py" source_line=301}
  %compare.31 = pred[181,960]{1,0} compare(%add.46, %broadcast.127), direction=LT, metadata={op_name="jit(scan)/jit(main)/while/body/lt" source_file="/global/homes/j/jackm/software/lorrax_C/src/bandstructure/htransform.py" source_line=293}
  %compare.32 = pred[181,960]{1,0} compare(%add.46, %broadcast.129), direction=LE, metadata={op_name="jit(scan)/jit(main)/while/body/le" source_file="/global/homes/j/jackm/software/lorrax_C/src/bandstructure/htransform.py" source_line=292}
  %not.7 = pred[181,960]{1,0} not(%compare.32), metadata={op_name="jit(scan)/jit(main)/while/body/not" source_file="/global/homes/j/jackm/software/lorrax_C/src/bandstructure/htransform.py" source_line=293}
  %and.7 = pred[181,960]{1,0} and(%compare.31, %not.7), metadata={op_name="jit(scan)/jit(main)/while/body/and" source_file="/global/homes/j/jackm/software/lorrax_C/src/bandstructure/htransform.py" source_line=293}
  %constant.115 = f64[] constant(0.10539922456186433)
  %broadcast.136 = f64[181,960]{1,0} broadcast(%constant.115), dimensions={}
  %constant.116 = f64[] constant(2)
  %broadcast.137 = f64[181,960]{1,0} broadcast(%constant.116), dimensions={}
  %multiply.51 = f64[181,960]{1,0} multiply(%add.46, %broadcast.137), metadata={op_name="jit(scan)/jit(main)/while/body/mul" source_file="/global/homes/j/jackm/software/lorrax_C/src/bandstructure/htransform.py" source_line=296}
  %constant.110 = f64[] constant(0.65647605190884883)
  %broadcast.131 = f64[181,960]{1,0} broadcast(%constant.110), dimensions={}
  %add.40 = f64[181,960]{1,0} add(%multiply.51, %broadcast.131), metadata={op_name="jit(scan)/jit(main)/while/body/add" source_file="/global/homes/j/jackm/software/lorrax_C/src/bandstructure/htransform.py" source_line=296}
  %constant.125 = f64[] constant(2.2849272195663795)
  %broadcast.149 = f64[181,960]{1,0} broadcast(%constant.125), dimensions={}, metadata={op_name="jit(scan)/jit(main)/while/body/div" source_file="/global/homes/j/jackm/software/lorrax_C/src/bandstructure/htransform.py" source_line=296}
  %multiply.60 = f64[181,960]{1,0} multiply(%add.40, %broadcast.149), metadata={op_name="jit(scan)/jit(main)/while/body/div" source_file="/global/homes/j/jackm/software/lorrax_C/src/bandstructure/htransform.py" source_line=296}
  %multiply.52 = f64[181,960]{1,0} multiply(%multiply.60, %multiply.60), metadata={op_name="jit(scan)/jit(main)/while/body/integer_pow" source_file="/global/homes/j/jackm/software/lorrax_C/src/bandstructure/htransform.py" source_line=296}
  %negate.12 = f64[181,960]{1,0} negate(%multiply.52), metadata={op_name="jit(scan)/jit(main)/while/body/neg" source_file="/global/homes/j/jackm/software/lorrax_C/src/bandstructure/htransform.py" source_line=296}
  %exponential.3 = f64[181,960]{1,0} exponential(%negate.12), metadata={op_name="jit(scan)/jit(main)/while/body/exp" source_file="/global/homes/j/jackm/software/lorrax_C/src/bandstructure/htransform.py" source_line=296}
  %subtract.15 = f64[181,960]{1,0} subtract(%broadcast.136, %exponential.3), metadata={op_name="jit(scan)/jit(main)/while/body/sub" source_file="/global/homes/j/jackm/software/lorrax_C/src/bandstructure/htransform.py" source_line=296}
  %constant.126 = f64[] constant(0.063895210524236287)
  %broadcast.150 = f64[181,960]{1,0} broadcast(%constant.126), dimensions={}, metadata={op_name="jit(scan)/jit(main)/while/body/div" source_file="/global/homes/j/jackm/software/lorrax_C/src/bandstructure/htransform.py" source_line=296}
  %multiply.61 = f64[181,960]{1,0} multiply(%subtract.15, %broadcast.150), metadata={op_name="jit(scan)/jit(main)/while/body/div" source_file="/global/homes/j/jackm/software/lorrax_C/src/bandstructure/htransform.py" source_line=296}
  %multiply.53 = f64[181,960]{1,0} multiply(%add.46, %broadcast.137), metadata={op_name="jit(scan)/jit(main)/while/body/mul" source_file="/global/homes/j/jackm/software/lorrax_C/src/bandstructure/htransform.py" source_line=297}
  %add.41 = f64[181,960]{1,0} add(%multiply.53, %broadcast.131), metadata={op_name="jit(scan)/jit(main)/while/body/add" source_file="/global/homes/j/jackm/software/lorrax_C/src/bandstructure/htransform.py" source_line=297}
  %constant.117 = f64[] constant(0.96610514647531076)
  %broadcast.138 = f64[181,960]{1,0} broadcast(%constant.117), dimensions={}
  %constant.121 = f64[] constant(1.5232848130442529)
  %broadcast.147 = f64[181,960]{1,0} broadcast(%constant.121), dimensions={}
  %multiply.58 = f64[181,960]{1,0} multiply(%add.46, %broadcast.147), metadata={op_name="jit(scan)/jit(main)/while/body/div" source_file="/global/homes/j/jackm/software/lorrax_C/src/bandstructure/htransform.py" source_line=295}
  %add.42 = f64[181,960]{1,0} add(%multiply.58, %broadcast.130), metadata={op_name="jit(scan)/jit(main)/while/body/add" source_file="/global/homes/j/jackm/software/lorrax_C/src/bandstructure/htransform.py" source_line=295}
  %multiply.54 = f64[181,960]{1,0} multiply(%add.42, %broadcast.132), metadata={op_name="jit(scan)/jit(main)/while/body/mul" source_file="/global/homes/j/jackm/software/lorrax_C/src/bandstructure/htransform.py" source_line=295}
  %erf.7 = f64[181,960]{1,0} erf(%multiply.54), metadata={op_name="jit(scan)/jit(main)/while/body/erf" source_file="/global/homes/j/jackm/software/lorrax_C/src/bandstructure/htransform.py" source_line=297}
  %subtract.16 = f64[181,960]{1,0} subtract(%broadcast.138, %erf.7), metadata={op_name="jit(scan)/jit(main)/while/body/sub" source_file="/global/homes/j/jackm/software/lorrax_C/src/bandstructure/htransform.py" source_line=297}
  %multiply.55 = f64[181,960]{1,0} multiply(%add.41, %subtract.16), metadata={op_name="jit(scan)/jit(main)/while/body/mul" source_file="/global/homes/j/jackm/software/lorrax_C/src/bandstructure/htransform.py" source_line=297}
  %constant.122 = f64[] constant(0.25877100532181968)
  %broadcast.148 = f64[181,960]{1,0} broadcast(%constant.122), dimensions={}
  %multiply.59 = f64[181,960]{1,0} multiply(%multiply.55, %broadcast.148), metadata={op_name="jit(scan)/jit(main)/while/body/div" source_file="/global/homes/j/jackm/software/lorrax_C/src/bandstructure/htransform.py" source_line=297}
  %add.43 = f64[181,960]{1,0} add(%multiply.61, %multiply.59), metadata={op_name="jit(scan)/jit(main)/while/body/add" source_file="/global/homes/j/jackm/software/lorrax_C/src/bandstructure/htransform.py" source_line=298}
  %constant.127 = f64[] constant(-0.65200366498500684)
  %broadcast.151 = f64[181,960]{1,0} broadcast(%constant.127), dimensions={}, metadata={op_name="jit(scan)/jit(main)/while/body/add" source_file="/global/homes/j/jackm/software/lorrax_C/src/bandstructure/htransform.py" source_line=294}
  %add.48 = f64[181,960]{1,0} add(%get-tuple-element.38, %broadcast.151), metadata={op_name="jit(scan)/jit(main)/while/body/add" source_file="/global/homes/j/jackm/software/lorrax_C/src/bandstructure/htransform.py" source_line=294}
  %constant.130 = f64[] constant(0)
  %broadcast.139 = f64[181,960]{1,0} broadcast(%constant.130), dimensions={}, metadata={op_name="jit(scan)/jit(main)/while/body/jit(_where)/broadcast_in_dim" source_file="/global/homes/j/jackm/software/lorrax_C/src/bandstructure/htransform.py" source_line=299}
  %select.41 = f64[181,960]{1,0} select(%compare.32, %add.48, %broadcast.139), metadata={op_name="jit(scan)/jit(main)/while/body/jit(_where)/select_n" source_file="/global/homes/j/jackm/software/lorrax_C/src/bandstructure/htransform.py" source_line=299}
  %select.42 = f64[181,960]{1,0} select(%and.7, %add.43, %select.41), metadata={op_name="jit(scan)/jit(main)/while/body/jit(_where)/select_n" source_file="/global/homes/j/jackm/software/lorrax_C/src/bandstructure/htransform.py" source_line=300}
  %select.43 = f64[181,960]{1,0} select(%compare.30, %broadcast.135, %select.42), metadata={op_name="jit(scan)/jit(main)/while/body/jit(_where)/select_n" source_file="/global/homes/j/jackm/software/lorrax_C/src/bandstructure/htransform.py" source_line=301}
  %compare.33 = pred[181,960]{1,0} compare(%select.43, %broadcast.127), direction=GT, metadata={op_name="jit(scan)/jit(main)/while/body/gt" source_file="/global/homes/j/jackm/software/lorrax_C/src/bandstructure/htransform.py" source_line=302}
  %constant.131 = f64[] constant(0)
  %broadcast.140 = f64[181,960]{1,0} broadcast(%constant.131), dimensions={}, metadata={op_name="jit(scan)/jit(main)/while/body/jit(_where)/broadcast_in_dim" source_file="/global/homes/j/jackm/software/lorrax_C/src/bandstructure/htransform.py" source_line=301}
  %select.44 = f64[181,960]{1,0} select(%compare.33, %broadcast.140, %select.43), metadata={op_name="jit(scan)/jit(main)/while/body/jit(_where)/select_n" source_file="/global/homes/j/jackm/software/lorrax_C/src/bandstructure/htransform.py" source_line=301}
  %get-tuple-element.37 = f64[181,960]{1,0} get-tuple-element(%arg_tuple.4), index=2
  %subtract.17 = f64[181,960]{1,0} subtract(%select.44, %get-tuple-element.37), metadata={op_name="jit(scan)/jit(main)/while/body/sub" source_file="/global/homes/j/jackm/software/lorrax_C/src/bandstructure/htransform.py" source_line=336}
  %negate.13 = f64[181,960]{1,0} negate(%subtract.17), metadata={op_name="jit(scan)/jit(main)/while/body/neg" source_file="/global/homes/j/jackm/software/lorrax_C/src/bandstructure/htransform.py" source_line=338}
  %divide.9 = f64[181,960]{1,0} divide(%negate.13, %select.39), metadata={op_name="jit(scan)/jit(main)/while/body/div" source_file="/global/homes/j/jackm/software/lorrax_C/src/bandstructure/htransform.py" source_line=338}
  %constant.132 = f64[] constant(0)
  %broadcast.141 = f64[181,960]{1,0} broadcast(%constant.132), dimensions={}, metadata={op_name="jit(scan)/jit(main)/while/body/jit(_where)/broadcast_in_dim" source_file="/global/homes/j/jackm/software/lorrax_C/src/bandstructure/htransform.py" source_line=299}
  %select.45 = f64[181,960]{1,0} select(%compare.29, %divide.9, %broadcast.141), metadata={op_name="jit(scan)/jit(main)/while/body/jit(_where)/select_n" source_file="/global/homes/j/jackm/software/lorrax_C/src/bandstructure/htransform.py" source_line=299}
  %constant.104 = f64[] constant(0.32823802595442442)
  %broadcast.125 = f64[181,960]{1,0} broadcast(%constant.104), dimensions={}, metadata={op_name="jit(scan)/jit(main)/while/body/jit(clip)/min" source_file="/global/homes/j/jackm/software/lorrax_C/src/bandstructure/htransform.py" source_line=339}
  %clamp.3 = f64[181,960]{1,0} clamp(%broadcast.126, %select.45, %broadcast.125), metadata={op_name="jit(scan)/jit(main)/while/body/jit(clip)/min" source_file="/global/homes/j/jackm/software/lorrax_C/src/bandstructure/htransform.py" source_line=339}
  %add.44 = f64[181,960]{1,0} add(%get-tuple-element.38, %clamp.3), metadata={op_name="jit(scan)/jit(main)/while/body/add" source_file="/global/homes/j/jackm/software/lorrax_C/src/bandstructure/htransform.py" source_line=340}
  ROOT %tuple.9 = (s64[], f64[181,960]{1,0}, f64[181,960]{1,0}) tuple(%add.38, %add.44, %get-tuple-element.37)
  %constant.107 = f64[] constant(0)
}

%region_1.171.clone.clone (arg_tuple.3: (s64[], f64[181,960], f64[181,960])) -> pred[] {
  %arg_tuple.3 = (s64[], f64[181,960]{1,0}, f64[181,960]{1,0}) parameter(0)
  %get-tuple-element.36 = s64[] get-tuple-element(%arg_tuple.3), index=0
  %constant.102 = s64[] constant(50)
  ROOT %compare.25 = pred[] compare(%get-tuple-element.36, %constant.102), direction=LT, metadata={op_name="jit(scan)/jit(main)/while/cond/lt" source_file="/global/homes/j/jackm/software/lorrax_C/src/bandstructure/htransform.py" source_line=342}
}

ENTRY %main.184 (Arg_0.1: f64[181,960], Arg_1.2: s64[], Arg_2.3: f64[181,960]) -> (s64[], f64[181,960]) {
  %Arg_1.2 = s64[] parameter(1), metadata={op_name="args[1]"}
  %constant.4 = s64[] constant(0)
  %Arg_2.3 = f64[181,960]{1,0} parameter(2), sharding={replicated}, metadata={op_name="args[2]"}
  %Arg_0.1 = f64[181,960]{1,0} parameter(0), sharding={replicated}, metadata={op_name="args[0]"}
  %tuple.8 = (s64[], f64[181,960]{1,0}, f64[181,960]{1,0}) tuple(%constant.4, %Arg_2.3, %Arg_0.1)
  %while.1 = (s64[], f64[181,960]{1,0}, f64[181,960]{1,0}) while(%tuple.8), condition=%region_1.171.clone.clone, body=%region_0.159.clone.clone.clone, metadata={op_name="jit(scan)/jit(main)/while" source_file="/global/homes/j/jackm/software/lorrax_C/src/bandstructure/htransform.py" source_line=342}
  %get-tuple-element.30 = s64[] get-tuple-element(%while.1), index=0
  %add.35 = s64[] add(%Arg_1.2, %get-tuple-element.30), metadata={op_name="jit(scan)/jit(main)/while" source_file="/global/homes/j/jackm/software/lorrax_C/src/bandstructure/htransform.py" source_line=342}
  %get-tuple-element.182 = f64[181,960]{1,0} get-tuple-element(%while.1), index=1, metadata={op_name="jit(scan)/jit(main)/while" source_file="/global/homes/j/jackm/software/lorrax_C/src/bandstructure/htransform.py" source_line=342}
  ROOT %tuple.183 = (s64[], f64[181,960]{1,0}) tuple(%add.35, %get-tuple-element.182)
}

