HloModule jit__accumulate_window_channels_jit, is_scheduled=true, entry_computation_layout={(c128[20,9,80,80]{3,2,1,0}, c128[9,80,80]{2,1,0}, c128[9,80,80]{2,1,0}, f64[20]{0}, c128[], /*index=5*/c128[], f64[], f64[], s32[])->c128[20,9,80,80]{3,2,1,0}}, allow_spmd_sharding_propagation_to_parameters={true,false,false,true,true,true,true,true,true}, allow_spmd_sharding_propagation_to_output={true}, num_partitions=4, frontend_attributes={fingerprint_before_lhs="327374d67e7ca0bfeade0e80cd7f3b9c"}

%fused_multiply (param_0.14: c128[9,80,80], param_1.19: f64[20,1,1,1], param_2.11: f64[20,1,1,1]) -> c128[20,9,80,80] {
  %param_2.11 = f64[20,1,1,1]{3,2,1,0} parameter(2), metadata={scheduling_name="param_2.11"}
  %convert.41.3 = c128[20,1,1,1]{3,2,1,0} convert(%param_2.11), metadata={op_name="jit(_accumulate_window_channels_jit)/jit(main)/cond/branch_0_fun/convert_element_type" source_file="/global/homes/j/jackm/software/lorrax_C/src/gw/ppm_sigma.py" source_line=135 scheduling_name="convert.41.3"}
  %param_1.19 = f64[20,1,1,1]{3,2,1,0} parameter(1), metadata={scheduling_name="param_1.19"}
  %convert.42.3 = c128[20,1,1,1]{3,2,1,0} convert(%param_1.19), metadata={op_name="jit(_accumulate_window_channels_jit)/jit(main)/cond/branch_0_fun/convert_element_type" source_file="/global/homes/j/jackm/software/lorrax_C/src/gw/ppm_sigma.py" source_line=135 scheduling_name="convert.42.3"}
  %constant_20 = c128[] constant((0, 1))
  %broadcast.77.5 = c128[20,1,1,1]{3,2,1,0} broadcast(%constant_20), dimensions={}, metadata={scheduling_name="broadcast.77.5"}
  %multiply.71.5 = c128[20,1,1,1]{3,2,1,0} multiply(%convert.42.3, %broadcast.77.5), metadata={op_name="jit(_accumulate_window_channels_jit)/jit(main)/cond/branch_0_fun/mul" source_file="/global/homes/j/jackm/software/lorrax_C/src/gw/ppm_sigma.py" source_line=135 scheduling_name="multiply.71.5"}
  %add.13.3 = c128[20,1,1,1]{3,2,1,0} add(%convert.41.3, %multiply.71.5), metadata={op_name="jit(_accumulate_window_channels_jit)/jit(main)/cond/branch_0_fun/add" source_file="/global/homes/j/jackm/software/lorrax_C/src/gw/ppm_sigma.py" source_line=135 scheduling_name="add.13.3"}
  %bitcast.401.3 = c128[20]{0} bitcast(%add.13.3), metadata={scheduling_name="bitcast.401.3"}
  %broadcast.79.3 = c128[20,9,80,80]{3,2,1,0} broadcast(%bitcast.401.3), dimensions={0}, metadata={op_name="jit(_accumulate_window_channels_jit)/jit(main)/cond/branch_0_fun/mul" source_file="/global/homes/j/jackm/software/lorrax_C/src/gw/ppm_sigma.py" source_line=135 scheduling_name="broadcast.79.3"}
  %param_0.14 = c128[9,80,80]{2,1,0} parameter(0), metadata={scheduling_name="param_0.14"}
  %broadcast.81.1 = c128[20,9,80,80]{3,2,1,0} broadcast(%param_0.14), dimensions={1,2,3}, metadata={op_name="jit(_accumulate_window_channels_jit)/jit(main)/cond/branch_0_fun/mul" source_file="/global/homes/j/jackm/software/lorrax_C/src/gw/ppm_sigma.py" source_line=135 scheduling_name="broadcast.81.1"}
  ROOT %multiply.73.1 = c128[20,9,80,80]{3,2,1,0} multiply(%broadcast.79.3, %broadcast.81.1), metadata={op_name="jit(_accumulate_window_channels_jit)/jit(main)/cond/branch_0_fun/mul" source_file="/global/homes/j/jackm/software/lorrax_C/src/gw/ppm_sigma.py" source_line=135 scheduling_name="multiply.73.1"}
}

%fused_add (param_0.7: c128[9,80,80], param_1.8: c128[9,80,80]) -> c128[9,80,80] {
  %param_0.7 = c128[9,80,80]{2,1,0} parameter(0), metadata={scheduling_name="param_0.7"}
  %param_1.8 = c128[9,80,80]{2,1,0} parameter(1), metadata={scheduling_name="param_1.8"}
  %constant_19 = c128[] constant((0, 1))
  %broadcast.80.3 = c128[9,80,80]{2,1,0} broadcast(%constant_19), dimensions={}, metadata={scheduling_name="broadcast.80.3"}
  %multiply.72.3 = c128[9,80,80]{2,1,0} multiply(%param_1.8, %broadcast.80.3), metadata={op_name="jit(_accumulate_window_channels_jit)/jit(main)/cond/branch_0_fun/mul" source_file="/global/homes/j/jackm/software/lorrax_C/src/gw/ppm_sigma.py" source_line=134 scheduling_name="multiply.72.3"}
  ROOT %add.14.1 = c128[9,80,80]{2,1,0} add(%param_0.7, %multiply.72.3), metadata={op_name="jit(_accumulate_window_channels_jit)/jit(main)/cond/branch_0_fun/add" source_file="/global/homes/j/jackm/software/lorrax_C/src/gw/ppm_sigma.py" source_line=134 scheduling_name="add.14.1"}
}

%region_0.55_spmd (param.12: (c128[9,80,80], c128[9,80,80], f64[20,1,1,1], f64[20,1,1,1])) -> (c128[20,9,80,80]) {
  %param.12 = (c128[9,80,80]{2,1,0}, c128[9,80,80]{2,1,0}, f64[20,1,1,1]{3,2,1,0}, f64[20,1,1,1]{3,2,1,0}) parameter(0), metadata={scheduling_name="param.12"}
  %get-tuple-element.4.0 = c128[9,80,80]{2,1,0} get-tuple-element(%param.12), index=1, metadata={op_name="jit(_accumulate_window_channels_jit)/jit(main)/cond/branch_0_fun/broadcast_in_dim" source_file="/global/homes/j/jackm/software/lorrax_C/src/gw/ppm_sigma.py" source_line=134 scheduling_name="get-tuple-element.4.0"}
  %get-tuple-element.3.0 = c128[9,80,80]{2,1,0} get-tuple-element(%param.12), index=0, metadata={op_name="jit(_accumulate_window_channels_jit)/jit(main)/cond/branch_0_fun/broadcast_in_dim" source_file="/global/homes/j/jackm/software/lorrax_C/src/gw/ppm_sigma.py" source_line=134 scheduling_name="get-tuple-element.3.0"}
  %get-tuple-element.2.0 = f64[20,1,1,1]{3,2,1,0} get-tuple-element(%param.12), index=2, metadata={scheduling_name="get-tuple-element.2.0"}
  %get-tuple-element.1.0 = f64[20,1,1,1]{3,2,1,0} get-tuple-element(%param.12), index=3, metadata={scheduling_name="get-tuple-element.1.0"}
  %loop_add_fusion = c128[9,80,80]{2,1,0} fusion(%get-tuple-element.3.0, %get-tuple-element.4.0), kind=kLoop, calls=%fused_add, metadata={op_name="jit(_accumulate_window_channels_jit)/jit(main)/cond/branch_0_fun/add" source_file="/global/homes/j/jackm/software/lorrax_C/src/gw/ppm_sigma.py" source_line=134 scheduling_name="loop_add_fusion"}
  %loop_multiply_fusion = c128[20,9,80,80]{3,2,1,0} fusion(%loop_add_fusion, %get-tuple-element.2.0, %get-tuple-element.1.0), kind=kLoop, calls=%fused_multiply, metadata={op_name="jit(_accumulate_window_channels_jit)/jit(main)/cond/branch_0_fun/mul" source_file="/global/homes/j/jackm/software/lorrax_C/src/gw/ppm_sigma.py" source_line=135 scheduling_name="loop_multiply_fusion"}
  ROOT %tuple.10 = (c128[20,9,80,80]{3,2,1,0}) tuple(%loop_multiply_fusion), metadata={scheduling_name="tuple.10"}
}

%fused_add.1 (param_0.20: c128[9,80,80], param_1.24: c128[9,80,80], param_2.17: f64[20,1,1,1], param_3.10: f64[20,1,1,1]) -> c128[20,9,80,80] {
  %param_2.17 = f64[20,1,1,1]{3,2,1,0} parameter(2), metadata={scheduling_name="param_2.17"}
  %bitcast.417.3 = f64[20]{0} bitcast(%param_2.17), metadata={scheduling_name="bitcast.417.3"}
  %convert.43.3 = c128[20]{0} convert(%bitcast.417.3), metadata={op_name="jit(_accumulate_window_channels_jit)/jit(main)/cond/branch_1_fun/mul" source_file="/global/homes/j/jackm/software/lorrax_C/src/gw/ppm_sigma.py" source_line=138 scheduling_name="convert.43.3"}
  %broadcast.82.1 = c128[20,9,80,80]{3,2,1,0} broadcast(%convert.43.3), dimensions={0}, metadata={op_name="jit(_accumulate_window_channels_jit)/jit(main)/cond/branch_1_fun/mul" source_file="/global/homes/j/jackm/software/lorrax_C/src/gw/ppm_sigma.py" source_line=138 scheduling_name="broadcast.82.1"}
  %param_1.24 = c128[9,80,80]{2,1,0} parameter(1), metadata={scheduling_name="param_1.24"}
  %broadcast.83.1 = c128[20,9,80,80]{3,2,1,0} broadcast(%param_1.24), dimensions={1,2,3}, metadata={op_name="jit(_accumulate_window_channels_jit)/jit(main)/cond/branch_1_fun/mul" source_file="/global/homes/j/jackm/software/lorrax_C/src/gw/ppm_sigma.py" source_line=138 scheduling_name="broadcast.83.1"}
  %multiply.74.1 = c128[20,9,80,80]{3,2,1,0} multiply(%broadcast.82.1, %broadcast.83.1), metadata={op_name="jit(_accumulate_window_channels_jit)/jit(main)/cond/branch_1_fun/mul" source_file="/global/homes/j/jackm/software/lorrax_C/src/gw/ppm_sigma.py" source_line=138 scheduling_name="multiply.74.1"}
  %param_3.10 = f64[20,1,1,1]{3,2,1,0} parameter(3), metadata={scheduling_name="param_3.10"}
  %bitcast.427.3 = f64[20]{0} bitcast(%param_3.10), metadata={scheduling_name="bitcast.427.3"}
  %convert.44.3 = c128[20]{0} convert(%bitcast.427.3), metadata={op_name="jit(_accumulate_window_channels_jit)/jit(main)/cond/branch_1_fun/mul" source_file="/global/homes/j/jackm/software/lorrax_C/src/gw/ppm_sigma.py" source_line=138 scheduling_name="convert.44.3"}
  %broadcast.84.1 = c128[20,9,80,80]{3,2,1,0} broadcast(%convert.44.3), dimensions={0}, metadata={op_name="jit(_accumulate_window_channels_jit)/jit(main)/cond/branch_1_fun/mul" source_file="/global/homes/j/jackm/software/lorrax_C/src/gw/ppm_sigma.py" source_line=138 scheduling_name="broadcast.84.1"}
  %param_0.20 = c128[9,80,80]{2,1,0} parameter(0), metadata={scheduling_name="param_0.20"}
  %broadcast.85.1 = c128[20,9,80,80]{3,2,1,0} broadcast(%param_0.20), dimensions={1,2,3}, metadata={op_name="jit(_accumulate_window_channels_jit)/jit(main)/cond/branch_1_fun/mul" source_file="/global/homes/j/jackm/software/lorrax_C/src/gw/ppm_sigma.py" source_line=138 scheduling_name="broadcast.85.1"}
  %multiply.75.1 = c128[20,9,80,80]{3,2,1,0} multiply(%broadcast.84.1, %broadcast.85.1), metadata={op_name="jit(_accumulate_window_channels_jit)/jit(main)/cond/branch_1_fun/mul" source_file="/global/homes/j/jackm/software/lorrax_C/src/gw/ppm_sigma.py" source_line=138 scheduling_name="multiply.75.1"}
  ROOT %add.15.1 = c128[20,9,80,80]{3,2,1,0} add(%multiply.74.1, %multiply.75.1), metadata={op_name="jit(_accumulate_window_channels_jit)/jit(main)/cond/branch_1_fun/add" source_file="/global/homes/j/jackm/software/lorrax_C/src/gw/ppm_sigma.py" source_line=138 scheduling_name="add.15.1"}
}

%region_1.80_spmd (param.1.0: (c128[9,80,80], f64[20,1,1,1], c128[9,80,80], f64[20,1,1,1])) -> (c128[20,9,80,80]) {
  %param.1.0 = (c128[9,80,80]{2,1,0}, f64[20,1,1,1]{3,2,1,0}, c128[9,80,80]{2,1,0}, f64[20,1,1,1]{3,2,1,0}) parameter(0), metadata={scheduling_name="param.1.0"}
  %get-tuple-element.8.0 = c128[9,80,80]{2,1,0} get-tuple-element(%param.1.0), index=2, metadata={scheduling_name="get-tuple-element.8.0"}
  %get-tuple-element.7.0 = f64[20,1,1,1]{3,2,1,0} get-tuple-element(%param.1.0), index=3, metadata={op_name="jit(_accumulate_window_channels_jit)/jit(main)/cond/branch_1_fun/mul" source_file="/global/homes/j/jackm/software/lorrax_C/src/gw/ppm_sigma.py" source_line=138 scheduling_name="get-tuple-element.7.0"}
  %get-tuple-element.6.0 = c128[9,80,80]{2,1,0} get-tuple-element(%param.1.0), index=0, metadata={scheduling_name="get-tuple-element.6.0"}
  %get-tuple-element.5.0 = f64[20,1,1,1]{3,2,1,0} get-tuple-element(%param.1.0), index=1, metadata={op_name="jit(_accumulate_window_channels_jit)/jit(main)/cond/branch_1_fun/mul" source_file="/global/homes/j/jackm/software/lorrax_C/src/gw/ppm_sigma.py" source_line=138 scheduling_name="get-tuple-element.5.0"}
  %loop_add_fusion.1 = c128[20,9,80,80]{3,2,1,0} fusion(%get-tuple-element.8.0, %get-tuple-element.6.0, %get-tuple-element.5.0, %get-tuple-element.7.0), kind=kLoop, calls=%fused_add.1, metadata={op_name="jit(_accumulate_window_channels_jit)/jit(main)/cond/branch_1_fun/add" source_file="/global/homes/j/jackm/software/lorrax_C/src/gw/ppm_sigma.py" source_line=138 scheduling_name="loop_add_fusion.1"}
  ROOT %tuple.11 = (c128[20,9,80,80]{3,2,1,0}) tuple(%loop_add_fusion.1), metadata={scheduling_name="tuple.11"}
}

%fused_subtract (param_0.28: c128[9,80,80], param_1.29: c128[9,80,80], param_2.23: f64[20,1,1,1], param_3.17: f64[20,1,1,1]) -> c128[20,9,80,80] {
  %param_2.23 = f64[20,1,1,1]{3,2,1,0} parameter(2), metadata={scheduling_name="param_2.23"}
  %bitcast.438.3 = f64[20]{0} bitcast(%param_2.23), metadata={scheduling_name="bitcast.438.3"}
  %convert.45.3 = c128[20]{0} convert(%bitcast.438.3), metadata={op_name="jit(_accumulate_window_channels_jit)/jit(main)/cond/branch_2_fun/mul" source_file="/global/homes/j/jackm/software/lorrax_C/src/gw/ppm_sigma.py" source_line=141 scheduling_name="convert.45.3"}
  %broadcast.86.1 = c128[20,9,80,80]{3,2,1,0} broadcast(%convert.45.3), dimensions={0}, metadata={op_name="jit(_accumulate_window_channels_jit)/jit(main)/cond/branch_2_fun/mul" source_file="/global/homes/j/jackm/software/lorrax_C/src/gw/ppm_sigma.py" source_line=141 scheduling_name="broadcast.86.1"}
  %param_1.29 = c128[9,80,80]{2,1,0} parameter(1), metadata={scheduling_name="param_1.29"}
  %broadcast.87.1 = c128[20,9,80,80]{3,2,1,0} broadcast(%param_1.29), dimensions={1,2,3}, metadata={op_name="jit(_accumulate_window_channels_jit)/jit(main)/cond/branch_2_fun/mul" source_file="/global/homes/j/jackm/software/lorrax_C/src/gw/ppm_sigma.py" source_line=141 scheduling_name="broadcast.87.1"}
  %multiply.76.1 = c128[20,9,80,80]{3,2,1,0} multiply(%broadcast.86.1, %broadcast.87.1), metadata={op_name="jit(_accumulate_window_channels_jit)/jit(main)/cond/branch_2_fun/mul" source_file="/global/homes/j/jackm/software/lorrax_C/src/gw/ppm_sigma.py" source_line=141 scheduling_name="multiply.76.1"}
  %param_3.17 = f64[20,1,1,1]{3,2,1,0} parameter(3), metadata={scheduling_name="param_3.17"}
  %bitcast.448.3 = f64[20]{0} bitcast(%param_3.17), metadata={scheduling_name="bitcast.448.3"}
  %convert.46.3 = c128[20]{0} convert(%bitcast.448.3), metadata={op_name="jit(_accumulate_window_channels_jit)/jit(main)/cond/branch_2_fun/mul" source_file="/global/homes/j/jackm/software/lorrax_C/src/gw/ppm_sigma.py" source_line=141 scheduling_name="convert.46.3"}
  %broadcast.89.1 = c128[20,9,80,80]{3,2,1,0} broadcast(%convert.46.3), dimensions={0}, metadata={op_name="jit(_accumulate_window_channels_jit)/jit(main)/cond/branch_2_fun/mul" source_file="/global/homes/j/jackm/software/lorrax_C/src/gw/ppm_sigma.py" source_line=141 scheduling_name="broadcast.89.1"}
  %param_0.28 = c128[9,80,80]{2,1,0} parameter(0), metadata={scheduling_name="param_0.28"}
  %broadcast.92.1 = c128[20,9,80,80]{3,2,1,0} broadcast(%param_0.28), dimensions={1,2,3}, metadata={op_name="jit(_accumulate_window_channels_jit)/jit(main)/cond/branch_2_fun/mul" source_file="/global/homes/j/jackm/software/lorrax_C/src/gw/ppm_sigma.py" source_line=141 scheduling_name="broadcast.92.1"}
  %multiply.77.1 = c128[20,9,80,80]{3,2,1,0} multiply(%broadcast.89.1, %broadcast.92.1), metadata={op_name="jit(_accumulate_window_channels_jit)/jit(main)/cond/branch_2_fun/mul" source_file="/global/homes/j/jackm/software/lorrax_C/src/gw/ppm_sigma.py" source_line=141 scheduling_name="multiply.77.1"}
  ROOT %subtract.3.1 = c128[20,9,80,80]{3,2,1,0} subtract(%multiply.76.1, %multiply.77.1), metadata={op_name="jit(_accumulate_window_channels_jit)/jit(main)/cond/branch_2_fun/sub" source_file="/global/homes/j/jackm/software/lorrax_C/src/gw/ppm_sigma.py" source_line=141 scheduling_name="subtract.3.1"}
}

%region_2.105_spmd (param.2.0: (c128[9,80,80], f64[20,1,1,1], c128[9,80,80], f64[20,1,1,1])) -> (c128[20,9,80,80]) {
  %param.2.0 = (c128[9,80,80]{2,1,0}, f64[20,1,1,1]{3,2,1,0}, c128[9,80,80]{2,1,0}, f64[20,1,1,1]{3,2,1,0}) parameter(0), metadata={scheduling_name="param.2.0"}
  %get-tuple-element.12.0 = c128[9,80,80]{2,1,0} get-tuple-element(%param.2.0), index=2, metadata={scheduling_name="get-tuple-element.12.0"}
  %get-tuple-element.11.0 = f64[20,1,1,1]{3,2,1,0} get-tuple-element(%param.2.0), index=3, metadata={op_name="jit(_accumulate_window_channels_jit)/jit(main)/cond/branch_2_fun/mul" source_file="/global/homes/j/jackm/software/lorrax_C/src/gw/ppm_sigma.py" source_line=141 scheduling_name="get-tuple-element.11.0"}
  %get-tuple-element.10.0 = c128[9,80,80]{2,1,0} get-tuple-element(%param.2.0), index=0, metadata={scheduling_name="get-tuple-element.10.0"}
  %get-tuple-element.9.0 = f64[20,1,1,1]{3,2,1,0} get-tuple-element(%param.2.0), index=1, metadata={op_name="jit(_accumulate_window_channels_jit)/jit(main)/cond/branch_2_fun/mul" source_file="/global/homes/j/jackm/software/lorrax_C/src/gw/ppm_sigma.py" source_line=141 scheduling_name="get-tuple-element.9.0"}
  %loop_subtract_fusion = c128[20,9,80,80]{3,2,1,0} fusion(%get-tuple-element.12.0, %get-tuple-element.10.0, %get-tuple-element.9.0, %get-tuple-element.11.0), kind=kLoop, calls=%fused_subtract, metadata={op_name="jit(_accumulate_window_channels_jit)/jit(main)/cond/branch_2_fun/sub" source_file="/global/homes/j/jackm/software/lorrax_C/src/gw/ppm_sigma.py" source_line=141 scheduling_name="loop_subtract_fusion"}
  ROOT %tuple.12 = (c128[20,9,80,80]{3,2,1,0}) tuple(%loop_subtract_fusion), metadata={scheduling_name="tuple.12"}
}

%fused_add.2 (param_0.31: c128[20,9,80,80], param_1.32: c128[20,9,80,80], param_2.26: f64[]) -> c128[20,9,80,80] {
  %param_0.31 = c128[20,9,80,80]{3,2,1,0} parameter(0), metadata={scheduling_name="param_0.31"}
  %param_2.26 = f64[] parameter(2), metadata={scheduling_name="param_2.26"}
  %convert.47.1 = c128[] convert(%param_2.26), metadata={op_name="jit(_accumulate_window_channels_jit)/jit(main)/convert_element_type" source_file="/global/homes/j/jackm/software/lorrax_C/src/gw/ppm_sigma.py" source_line=165 scheduling_name="convert.47.1"}
  %broadcast.94.1 = c128[20,9,80,80]{3,2,1,0} broadcast(%convert.47.1), dimensions={}, metadata={op_name="jit(_accumulate_window_channels_jit)/jit(main)/mul" source_file="/global/homes/j/jackm/software/lorrax_C/src/gw/ppm_sigma.py" source_line=165 scheduling_name="broadcast.94.1"}
  %param_1.32 = c128[20,9,80,80]{3,2,1,0} parameter(1), metadata={scheduling_name="param_1.32"}
  %multiply.90.1 = c128[20,9,80,80]{3,2,1,0} multiply(%broadcast.94.1, %param_1.32), metadata={op_name="jit(_accumulate_window_channels_jit)/jit(main)/mul" source_file="/global/homes/j/jackm/software/lorrax_C/src/gw/ppm_sigma.py" source_line=165 scheduling_name="multiply.90.1"}
  ROOT %add.16.1 = c128[20,9,80,80]{3,2,1,0} add(%param_0.31, %multiply.90.1), metadata={op_name="jit(_accumulate_window_channels_jit)/jit(main)/add" source_file="/global/homes/j/jackm/software/lorrax_C/src/gw/ppm_sigma.py" source_line=165 scheduling_name="add.16.1"}
}

%fused_imag_real (param_0.75: c128[], param_1.92: f64[20], param_2.74: f64[], param_3.53: c128[]) -> (f64[20], f64[20]) {
  %param_3.53 = c128[] parameter(3), metadata={scheduling_name="param_3.53"}
  %broadcast.95.5 = c128[20]{0} broadcast(%param_3.53), dimensions={}, metadata={op_name="jit(_accumulate_window_channels_jit)/jit(main)/mul" source_file="/global/homes/j/jackm/software/lorrax_C/src/gw/ppm_sigma.py" source_line=159 scheduling_name="broadcast.95.5"}
  %param_2.74 = f64[] parameter(2), metadata={scheduling_name="param_2.74"}
  %convert.48.7 = c128[] convert(%param_2.74), metadata={op_name="jit(_accumulate_window_channels_jit)/jit(main)/convert_element_type" source_file="/global/homes/j/jackm/software/lorrax_C/src/gw/ppm_sigma.py" source_line=158 scheduling_name="convert.48.7"}
  %constant_4_1 = c128[] constant((0, 1))
  %multiply.78.7 = c128[] multiply(%convert.48.7, %constant_4_1), metadata={op_name="jit(_accumulate_window_channels_jit)/jit(main)/mul" source_file="/global/homes/j/jackm/software/lorrax_C/src/gw/ppm_sigma.py" source_line=158 scheduling_name="multiply.78.7"}
  %broadcast.96.17 = c128[20]{0} broadcast(%multiply.78.7), dimensions={}, metadata={op_name="jit(_accumulate_window_channels_jit)/jit(main)/mul" source_file="/global/homes/j/jackm/software/lorrax_C/src/gw/ppm_sigma.py" source_line=158 scheduling_name="broadcast.96.17"}
  %param_1.92 = f64[20]{0} parameter(1), metadata={scheduling_name="param_1.92"}
  %convert.49.15 = c128[20]{0} convert(%param_1.92), metadata={op_name="jit(_accumulate_window_channels_jit)/jit(main)/convert_element_type" source_file="/global/homes/j/jackm/software/lorrax_C/src/gw/ppm_sigma.py" source_line=158 scheduling_name="convert.49.15"}
  %multiply.80.17 = c128[20]{0} multiply(%broadcast.96.17, %convert.49.15), metadata={op_name="jit(_accumulate_window_channels_jit)/jit(main)/mul" source_file="/global/homes/j/jackm/software/lorrax_C/src/gw/ppm_sigma.py" source_line=158 scheduling_name="multiply.80.17"}
  %param_0.75 = c128[] parameter(0), metadata={scheduling_name="param_0.75"}
  %broadcast.98.15 = c128[20]{0} broadcast(%param_0.75), dimensions={}, metadata={op_name="jit(_accumulate_window_channels_jit)/jit(main)/mul" source_file="/global/homes/j/jackm/software/lorrax_C/src/gw/ppm_sigma.py" source_line=158 scheduling_name="broadcast.98.15"}
  %multiply.81.15 = c128[20]{0} multiply(%multiply.80.17, %broadcast.98.15), metadata={op_name="jit(_accumulate_window_channels_jit)/jit(main)/mul" source_file="/global/homes/j/jackm/software/lorrax_C/src/gw/ppm_sigma.py" source_line=158 scheduling_name="multiply.81.15"}
  %real.6.7 = f64[20]{0} real(%multiply.81.15), metadata={op_name="jit(_accumulate_window_channels_jit)/jit(main)/exp" source_file="/global/homes/j/jackm/software/lorrax_C/src/gw/ppm_sigma.py" source_line=158 scheduling_name="real.6.7"}
  %exponential.6.5 = f64[20]{0} exponential(%real.6.7), metadata={op_name="jit(_accumulate_window_channels_jit)/jit(main)/exp" source_file="/global/homes/j/jackm/software/lorrax_C/src/gw/ppm_sigma.py" source_line=158 scheduling_name="exponential.6.5"}
  %constant_5_1 = f64[] constant(inf)
  %broadcast.101.5 = f64[20]{0} broadcast(%constant_5_1), dimensions={}, metadata={scheduling_name="broadcast.101.5"}
  %compare.6.5 = pred[20]{0} compare(%exponential.6.5, %broadcast.101.5), direction=EQ, metadata={op_name="jit(_accumulate_window_channels_jit)/jit(main)/exp" source_file="/global/homes/j/jackm/software/lorrax_C/src/gw/ppm_sigma.py" source_line=158 scheduling_name="compare.6.5"}
  %constant_6_1 = f64[] constant(0.5)
  %broadcast.103.9 = f64[20]{0} broadcast(%constant_6_1), dimensions={}, metadata={scheduling_name="broadcast.103.9"}
  %multiply.82.9 = f64[20]{0} multiply(%real.6.7, %broadcast.103.9), metadata={op_name="jit(_accumulate_window_channels_jit)/jit(main)/exp" source_file="/global/homes/j/jackm/software/lorrax_C/src/gw/ppm_sigma.py" source_line=158 scheduling_name="multiply.82.9"}
  %exponential.7.7 = f64[20]{0} exponential(%multiply.82.9), metadata={op_name="jit(_accumulate_window_channels_jit)/jit(main)/exp" source_file="/global/homes/j/jackm/software/lorrax_C/src/gw/ppm_sigma.py" source_line=158 scheduling_name="exponential.7.7"}
  %imag.6.5 = f64[20]{0} imag(%multiply.81.15), metadata={op_name="jit(_accumulate_window_channels_jit)/jit(main)/exp" source_file="/global/homes/j/jackm/software/lorrax_C/src/gw/ppm_sigma.py" source_line=158 scheduling_name="imag.6.5"}
  %cosine.3.5 = f64[20]{0} cosine(%imag.6.5), metadata={op_name="jit(_accumulate_window_channels_jit)/jit(main)/exp" source_file="/global/homes/j/jackm/software/lorrax_C/src/gw/ppm_sigma.py" source_line=158 scheduling_name="cosine.3.5"}
  %multiply.83.9 = f64[20]{0} multiply(%exponential.7.7, %cosine.3.5), metadata={op_name="jit(_accumulate_window_channels_jit)/jit(main)/exp" source_file="/global/homes/j/jackm/software/lorrax_C/src/gw/ppm_sigma.py" source_line=158 scheduling_name="multiply.83.9"}
  %multiply.84.9 = f64[20]{0} multiply(%multiply.83.9, %exponential.7.7), metadata={op_name="jit(_accumulate_window_channels_jit)/jit(main)/exp" source_file="/global/homes/j/jackm/software/lorrax_C/src/gw/ppm_sigma.py" source_line=158 scheduling_name="multiply.84.9"}
  %multiply.85.7 = f64[20]{0} multiply(%exponential.6.5, %cosine.3.5), metadata={op_name="jit(_accumulate_window_channels_jit)/jit(main)/exp" source_file="/global/homes/j/jackm/software/lorrax_C/src/gw/ppm_sigma.py" source_line=158 scheduling_name="multiply.85.7"}
  %select.9.7 = f64[20]{0} select(%compare.6.5, %multiply.84.9, %multiply.85.7), metadata={op_name="jit(_accumulate_window_channels_jit)/jit(main)/exp" source_file="/global/homes/j/jackm/software/lorrax_C/src/gw/ppm_sigma.py" source_line=158 scheduling_name="select.9.7"}
  %constant_7_1 = f64[] constant(0)
  %broadcast.104.5 = f64[20]{0} broadcast(%constant_7_1), dimensions={}, metadata={scheduling_name="broadcast.104.5"}
  %compare.7.7 = pred[20]{0} compare(%imag.6.5, %broadcast.104.5), direction=EQ, metadata={op_name="jit(_accumulate_window_channels_jit)/jit(main)/exp" source_file="/global/homes/j/jackm/software/lorrax_C/src/gw/ppm_sigma.py" source_line=158 scheduling_name="compare.7.7"}
  %sine.3.5 = f64[20]{0} sine(%imag.6.5), metadata={op_name="jit(_accumulate_window_channels_jit)/jit(main)/exp" source_file="/global/homes/j/jackm/software/lorrax_C/src/gw/ppm_sigma.py" source_line=158 scheduling_name="sine.3.5"}
  %multiply.86.7 = f64[20]{0} multiply(%exponential.7.7, %sine.3.5), metadata={op_name="jit(_accumulate_window_channels_jit)/jit(main)/exp" source_file="/global/homes/j/jackm/software/lorrax_C/src/gw/ppm_sigma.py" source_line=158 scheduling_name="multiply.86.7"}
  %multiply.87.7 = f64[20]{0} multiply(%multiply.86.7, %exponential.7.7), metadata={op_name="jit(_accumulate_window_channels_jit)/jit(main)/exp" source_file="/global/homes/j/jackm/software/lorrax_C/src/gw/ppm_sigma.py" source_line=158 scheduling_name="multiply.87.7"}
  %multiply.88.5 = f64[20]{0} multiply(%exponential.6.5, %sine.3.5), metadata={op_name="jit(_accumulate_window_channels_jit)/jit(main)/exp" source_file="/global/homes/j/jackm/software/lorrax_C/src/gw/ppm_sigma.py" source_line=158 scheduling_name="multiply.88.5"}
  %select.10.5 = f64[20]{0} select(%compare.6.5, %multiply.87.7, %multiply.88.5), metadata={op_name="jit(_accumulate_window_channels_jit)/jit(main)/exp" source_file="/global/homes/j/jackm/software/lorrax_C/src/gw/ppm_sigma.py" source_line=158 scheduling_name="select.10.5"}
  %select.11.7 = f64[20]{0} select(%compare.7.7, %broadcast.104.5, %select.10.5), metadata={op_name="jit(_accumulate_window_channels_jit)/jit(main)/exp" source_file="/global/homes/j/jackm/software/lorrax_C/src/gw/ppm_sigma.py" source_line=158 scheduling_name="select.11.7"}
  %complex.3.5 = c128[20]{0} complex(%select.9.7, %select.11.7), metadata={op_name="jit(_accumulate_window_channels_jit)/jit(main)/exp" source_file="/global/homes/j/jackm/software/lorrax_C/src/gw/ppm_sigma.py" source_line=158 scheduling_name="complex.3.5"}
  %multiply.89.5 = c128[20]{0} multiply(%broadcast.95.5, %complex.3.5), metadata={op_name="jit(_accumulate_window_channels_jit)/jit(main)/mul" source_file="/global/homes/j/jackm/software/lorrax_C/src/gw/ppm_sigma.py" source_line=159 scheduling_name="multiply.89.5"}
  %imag.7.1 = f64[20]{0} imag(%multiply.89.5), metadata={op_name="jit(_accumulate_window_channels_jit)/jit(main)/imag" source_file="/global/homes/j/jackm/software/lorrax_C/src/gw/ppm_sigma.py" source_line=161 scheduling_name="imag.7.1"}
  %real.7.1.clone.1 = f64[20]{0} real(%multiply.89.5), metadata={op_name="jit(_accumulate_window_channels_jit)/jit(main)/real" source_file="/global/homes/j/jackm/software/lorrax_C/src/gw/ppm_sigma.py" source_line=160 scheduling_name="real.7.1.clone.1"}
  ROOT %tuple.9 = (f64[20]{0}, f64[20]{0}) tuple(%imag.7.1, %real.7.1.clone.1), metadata={scheduling_name="tuple.9"}
}

%fused_clamp (param_0.74: s32[]) -> s32[] {
  %constant_2_1 = s32[] constant(0)
  %param_0.74 = s32[] parameter(0), metadata={scheduling_name="param_0.74"}
  %constant_3_1 = s32[] constant(2)
  ROOT %clamp.3.1 = s32[] clamp(%constant_2_1, %param_0.74, %constant_3_1), metadata={op_name="jit(_accumulate_window_channels_jit)/jit(main)/clamp" source_file="/global/homes/j/jackm/software/lorrax_C/src/gw/ppm_sigma.py" source_line=143 scheduling_name="clamp.3.1"}
}

ENTRY %main.135_spmd (param.3.0: c128[20,9,80,80], param.6.0: c128[9,80,80], param.7.0: c128[9,80,80], param.10.0: f64[20], param.11.0: c128[], param.8.0: c128[], param.9.0: f64[], param.4.0: f64[], param.5.0: s32[]) -> c128[20,9,80,80] {
  %param.11.0 = c128[] parameter(4), sharding={replicated}, metadata={op_name="t_node" scheduling_name="param.11.0"}
  %param.9.0 = f64[] parameter(6), sharding={replicated}, metadata={op_name="omega_sign" scheduling_name="param.9.0"}
  %param.8.0 = c128[] parameter(5), sharding={replicated}, metadata={op_name="alpha_eff" scheduling_name="param.8.0"}
  %param.5.0 = s32[] parameter(8), sharding={replicated}, metadata={op_name="project_code" scheduling_name="param.5.0"}
  %param.4.0 = f64[] parameter(7), sharding={replicated}, metadata={op_name="pref" scheduling_name="param.4.0"}
  %param.7.0 = c128[9,80,80]{2,1,0} parameter(2), sharding={replicated}, metadata={op_name="sigma_tau_kij_im" scheduling_name="param.7.0"}
  %param.6.0 = c128[9,80,80]{2,1,0} parameter(1), sharding={replicated}, metadata={op_name="sigma_tau_kij_re" scheduling_name="param.6.0"}
  %param.10.0 = f64[20]{0} parameter(3), sharding={replicated}, metadata={op_name="omega_vec" scheduling_name="param.10.0"}
  %param.3.0 = c128[20,9,80,80]{3,2,1,0} parameter(0), sharding={replicated}, metadata={op_name="acc_win" scheduling_name="param.3.0"}
  %loop_clamp_fusion = s32[] fusion(%param.5.0), kind=kLoop, calls=%fused_clamp, metadata={op_name="jit(_accumulate_window_channels_jit)/jit(main)/clamp" source_file="/global/homes/j/jackm/software/lorrax_C/src/gw/ppm_sigma.py" source_line=143 scheduling_name="loop_clamp_fusion"}
  %loop_imag_real_fusion = (f64[20]{0}, f64[20]{0}) fusion(%param.11.0, %param.10.0, %param.9.0, %param.8.0), kind=kLoop, calls=%fused_imag_real, metadata={op_name="jit(_accumulate_window_channels_jit)/jit(main)/imag" source_file="/global/homes/j/jackm/software/lorrax_C/src/gw/ppm_sigma.py" source_line=161 scheduling_name="loop_imag_real_fusion"}
  %get-tuple-element.15 = f64[20]{0} get-tuple-element(%loop_imag_real_fusion), index=1, metadata={op_name="jit(_accumulate_window_channels_jit)/jit(main)/imag" source_file="/global/homes/j/jackm/software/lorrax_C/src/gw/ppm_sigma.py" source_line=161 scheduling_name="get-tuple-element.15"}
  %get-tuple-element.14 = f64[20]{0} get-tuple-element(%loop_imag_real_fusion), index=0, metadata={op_name="jit(_accumulate_window_channels_jit)/jit(main)/imag" source_file="/global/homes/j/jackm/software/lorrax_C/src/gw/ppm_sigma.py" source_line=161 scheduling_name="get-tuple-element.14"}
  %bitcast.561.0 = f64[20,1,1,1]{3,2,1,0} bitcast(%get-tuple-element.14), metadata={scheduling_name="bitcast.561.0"}
  %bitcast.557.0 = f64[20,1,1,1]{3,2,1,0} bitcast(%get-tuple-element.15), metadata={scheduling_name="bitcast.557.0"}
  %tuple.8.0 = (c128[9,80,80]{2,1,0}, f64[20,1,1,1]{3,2,1,0}, c128[9,80,80]{2,1,0}, f64[20,1,1,1]{3,2,1,0}) tuple(%param.6.0, %bitcast.557.0, %param.7.0, %bitcast.561.0), metadata={op_name="jit(_accumulate_window_channels_jit)/jit(main)/cond" source_file="/global/homes/j/jackm/software/lorrax_C/src/gw/ppm_sigma.py" source_line=143 scheduling_name="tuple.8.0"}
  %tuple.7.0 = (c128[9,80,80]{2,1,0}, f64[20,1,1,1]{3,2,1,0}, c128[9,80,80]{2,1,0}, f64[20,1,1,1]{3,2,1,0}) tuple(%param.7.0, %bitcast.557.0, %param.6.0, %bitcast.561.0), metadata={op_name="jit(_accumulate_window_channels_jit)/jit(main)/cond" source_file="/global/homes/j/jackm/software/lorrax_C/src/gw/ppm_sigma.py" source_line=143 scheduling_name="tuple.7.0"}
  %tuple.6.0 = (c128[9,80,80]{2,1,0}, c128[9,80,80]{2,1,0}, f64[20,1,1,1]{3,2,1,0}, f64[20,1,1,1]{3,2,1,0}) tuple(%param.6.0, %param.7.0, %bitcast.561.0, %bitcast.557.0), metadata={op_name="jit(_accumulate_window_channels_jit)/jit(main)/cond" source_file="/global/homes/j/jackm/software/lorrax_C/src/gw/ppm_sigma.py" source_line=143 scheduling_name="tuple.6.0"}
  %conditional.1 = (c128[20,9,80,80]{3,2,1,0}) conditional(%loop_clamp_fusion, %tuple.6.0, %tuple.7.0, %tuple.8.0), branch_computations={%region_0.55_spmd, %region_1.80_spmd, %region_2.105_spmd}, metadata={op_name="jit(_accumulate_window_channels_jit)/jit(main)/cond" source_file="/global/homes/j/jackm/software/lorrax_C/src/gw/ppm_sigma.py" source_line=143 scheduling_name="conditional.1"}
  %get-tuple-element.13.0 = c128[20,9,80,80]{3,2,1,0} get-tuple-element(%conditional.1), index=0, metadata={op_name="jit(_accumulate_window_channels_jit)/jit(main)/cond" source_file="/global/homes/j/jackm/software/lorrax_C/src/gw/ppm_sigma.py" source_line=143 scheduling_name="get-tuple-element.13.0"}
  ROOT %loop_add_fusion.2 = c128[20,9,80,80]{3,2,1,0} fusion(%param.3.0, %get-tuple-element.13.0, %param.4.0), kind=kLoop, calls=%fused_add.2, metadata={op_name="jit(_accumulate_window_channels_jit)/jit(main)/add" source_file="/global/homes/j/jackm/software/lorrax_C/src/gw/ppm_sigma.py" source_line=165 scheduling_name="loop_add_fusion.2"}
}

