HloModule jit_fn, is_scheduled=true, entry_computation_layout={(c128[9,8,2,1963]{3,2,1,0}, s32[9,24,24,80]{3,2,1,0}, s32[640,3]{1,0}, f64[9,3]{1,0})->c128[9,8,2,640]{3,2,1,0}}, allow_spmd_sharding_propagation_to_parameters={false,true,true,true}, allow_spmd_sharding_propagation_to_output={true}, num_partitions=4, frontend_attributes={fingerprint_before_lhs="db2308c13c4819850f40e51a8464d92b"}

%fused_transpose (param_0.24: c128[9,32,2,24,24,80]) -> c128[9,64,46080] {
  %param_0.24 = c128[9,32,2,24,24,80]{5,4,3,0,2,1} parameter(0), metadata={scheduling_name="param_0.24"}
  %bitcast.706.1 = c128[64,9,46080]{2,1,0} bitcast(%param_0.24), metadata={scheduling_name="bitcast.706.1"}
  ROOT %transpose.16.1 = c128[9,64,46080]{2,1,0} transpose(%bitcast.706.1), dimensions={1,0,2}, metadata={op_name="jit(fn)/jit(main)/jit(fft)/fft" source_file="/pscratch/sd/j/jackm/lorrax_sandbox/sources/lorrax_D/src/common/wfn_transforms.py" source_line=287 scheduling_name="transpose.16.1"}
}

%fused_gather (param_0.38: c128[9,8,2,1963], param_1.235: s32[9,24,24,80]) -> c128[414720,1,8,2] {
  %param_0.38 = c128[9,8,2,1963]{3,2,1,0} parameter(0), metadata={scheduling_name="param_0.38"}
  %constant_128_1 = c128[] constant((0, 0))
  %pad.4.1 = c128[9,8,2,1964]{3,2,1,0} pad(%param_0.38, %constant_128_1), padding=0_0x0_0x0_0x0_1, metadata={op_name="jit(fn)/jit(main)/concatenate" source_file="/pscratch/sd/j/jackm/lorrax_sandbox/sources/lorrax_D/src/common/wfn_transforms.py" source_line=91 scheduling_name="pad.4.1"}
  %bitcast.683.3 = c128[9,16,1964]{2,1,0} bitcast(%pad.4.1), metadata={scheduling_name="bitcast.683.3"}
  %transpose.15.3 = c128[16,9,1964]{2,1,0} transpose(%bitcast.683.3), dimensions={1,0,2}, metadata={op_name="jit(fn)/jit(main)/transpose" source_file="/pscratch/sd/j/jackm/lorrax_sandbox/sources/lorrax_D/src/common/wfn_transforms.py" source_line=93 scheduling_name="transpose.15.3"}
  %bitcast.687.1 = c128[17676,8,2]{0,2,1} bitcast(%transpose.15.3), metadata={scheduling_name="bitcast.687.1"}
  %iota.12.3 = s32[9,1,1,1]{3,2,1,0} iota(), iota_dimension=0, metadata={op_name="jit(fn)/jit(main)/iota" source_file="/pscratch/sd/j/jackm/lorrax_sandbox/sources/lorrax_D/src/common/wfn_transforms.py" source_line=97 scheduling_name="iota.12.3"}
  %constant_137_1 = s32[] constant(1964)
  %broadcast.121.3 = s32[9,1,1,1]{3,2,1,0} broadcast(%constant_137_1), dimensions={}, metadata={scheduling_name="broadcast.121.3"}
  %multiply.136.3 = s32[9,1,1,1]{3,2,1,0} multiply(%iota.12.3, %broadcast.121.3), metadata={op_name="jit(fn)/jit(main)/mul" source_file="/pscratch/sd/j/jackm/lorrax_sandbox/sources/lorrax_D/src/common/wfn_transforms.py" source_line=97 scheduling_name="multiply.136.3"}
  %bitcast.692.5 = s32[9]{0} bitcast(%multiply.136.3), metadata={scheduling_name="bitcast.692.5"}
  %broadcast.122.5 = s32[9,24,24,80]{3,2,1,0} broadcast(%bitcast.692.5), dimensions={0}, metadata={op_name="jit(fn)/jit(main)/add" source_file="/pscratch/sd/j/jackm/lorrax_sandbox/sources/lorrax_D/src/common/wfn_transforms.py" source_line=97 scheduling_name="broadcast.122.5"}
  %param_1.235 = s32[9,24,24,80]{3,2,1,0} parameter(1), metadata={scheduling_name="param_1.235"}
  %add.12.3 = s32[9,24,24,80]{3,2,1,0} add(%broadcast.122.5, %param_1.235), metadata={op_name="jit(fn)/jit(main)/add" source_file="/pscratch/sd/j/jackm/lorrax_sandbox/sources/lorrax_D/src/common/wfn_transforms.py" source_line=97 scheduling_name="add.12.3"}
  %bitcast.699.1 = s32[414720,1]{0,1} bitcast(%add.12.3), metadata={scheduling_name="bitcast.699.1"}
  ROOT %gather.3.1 = c128[414720,1,8,2]{0,3,2,1} gather(%bitcast.687.1, %bitcast.699.1), offset_dims={1,2,3}, collapsed_slice_dims={}, start_index_map={0}, index_vector_dim=1, slice_sizes={1,8,2}, metadata={op_name="jit(fn)/jit(main)/jit(_take)/gather" source_file="/pscratch/sd/j/jackm/lorrax_sandbox/sources/lorrax_D/src/common/wfn_transforms.py" source_line=104 scheduling_name="gather.3.1"}
}

%fused_gather.1 (param_0.40: c128[9,32,2,24,24,80], param_1.242: f64[9,80], param_2.105: f64[9,24], param_3.113: f64[9,24], param_4.111: s32[640,3], param_5.79: u32[], param_6.28: f64[9,3]) -> c128[640,1,1,1,9,8,2] {
  %param_0.40 = c128[9,32,2,24,24,80]{5,4,3,2,1,0} parameter(0), metadata={scheduling_name="param_0.40"}
  %constant_146_1 = s32[] constant(0), metadata={op_name="jit(fn)/jit(main)/mul" source_file="/pscratch/sd/j/jackm/lorrax_sandbox/sources/lorrax_D/src/common/wfn_transforms.py" source_line=416}
  %param_5.79 = u32[] parameter(5), metadata={scheduling_name="param_5.79"}
  %convert.19.1 = s32[] convert(%param_5.79), metadata={op_name="jit(fn)/jit(main)/mul" source_file="/pscratch/sd/j/jackm/lorrax_sandbox/sources/lorrax_D/src/common/wfn_transforms.py" source_line=416 scheduling_name="convert.19.1"}
  %constant_162_1 = s32[] constant(8), metadata={op_name="jit(fn)/jit(main)/mul" source_file="/pscratch/sd/j/jackm/lorrax_sandbox/sources/lorrax_D/src/common/wfn_transforms.py" source_line=416}
  %multiply.137.1 = s32[] multiply(%convert.19.1, %constant_162_1), metadata={op_name="jit(fn)/jit(main)/mul" source_file="/pscratch/sd/j/jackm/lorrax_sandbox/sources/lorrax_D/src/common/wfn_transforms.py" source_line=416 scheduling_name="multiply.137.1"}
  %dynamic-slice.9.1 = c128[9,8,2,24,24,80]{5,4,3,2,1,0} dynamic-slice(%param_0.40, %constant_146_1, %multiply.137.1, %constant_146_1, %constant_146_1, /*index=5*/%constant_146_1, %constant_146_1), dynamic_slice_sizes={9,8,2,24,24,80}, metadata={op_name="jit(fn)/jit(main)/mul" source_file="/pscratch/sd/j/jackm/lorrax_sandbox/sources/lorrax_D/src/common/wfn_transforms.py" source_line=416 scheduling_name="dynamic-slice.9.1"}
  %param_6.28 = f64[9,3]{1,0} parameter(6), metadata={scheduling_name="param_6.28"}
  %convert.20.17 = c128[9,3]{1,0} convert(%param_6.28), metadata={op_name="jit(fn)/jit(main)/convert_element_type" source_file="/pscratch/sd/j/jackm/lorrax_sandbox/sources/lorrax_D/src/common/wfn_transforms.py" source_line=404 scheduling_name="convert.20.17"}
  %slice.21.7 = c128[9,1]{1,0} slice(%convert.20.17), slice={[0:9], [0:1]}, metadata={op_name="jit(fn)/jit(main)/slice" source_file="/pscratch/sd/j/jackm/lorrax_sandbox/sources/lorrax_D/src/common/wfn_transforms.py" source_line=404 scheduling_name="slice.21.7"}
  %constant_140_3 = c128[] constant((0, 6.2831853071795862))
  %broadcast.123.11 = c128[9,1]{1,0} broadcast(%constant_140_3), dimensions={}, metadata={scheduling_name="broadcast.123.11"}
  %multiply.138.5 = c128[9,1]{1,0} multiply(%slice.21.7, %broadcast.123.11), metadata={op_name="jit(fn)/jit(main)/mul" source_file="/pscratch/sd/j/jackm/lorrax_sandbox/sources/lorrax_D/src/common/wfn_transforms.py" source_line=404 scheduling_name="multiply.138.5"}
  %bitcast.727.19 = c128[9]{0} bitcast(%multiply.138.5), metadata={scheduling_name="bitcast.727.19"}
  %broadcast.124.19 = c128[9,24]{1,0} broadcast(%bitcast.727.19), dimensions={0}, metadata={op_name="jit(fn)/jit(main)/mul" source_file="/pscratch/sd/j/jackm/lorrax_sandbox/sources/lorrax_D/src/common/wfn_transforms.py" source_line=404 scheduling_name="broadcast.124.19"}
  %iota.13.13 = f64[24]{0} iota(), iota_dimension=0, metadata={op_name="jit(fn)/jit(main)/iota" source_file="/pscratch/sd/j/jackm/lorrax_sandbox/sources/lorrax_D/src/common/wfn_transforms.py" source_line=398 scheduling_name="iota.13.13"}
  %constant_141_1 = f64[] constant(0.041666666666666664)
  %broadcast.125.13 = f64[24]{0} broadcast(%constant_141_1), dimensions={}, metadata={scheduling_name="broadcast.125.13"}
  %multiply.139.13 = f64[24]{0} multiply(%iota.13.13, %broadcast.125.13), metadata={op_name="jit(fn)/jit(main)/div" source_file="/pscratch/sd/j/jackm/lorrax_sandbox/sources/lorrax_D/src/common/wfn_transforms.py" source_line=398 scheduling_name="multiply.139.13"}
  %convert.21.34 = c128[24]{0} convert(%multiply.139.13), metadata={op_name="jit(fn)/jit(main)/convert_element_type" source_file="/pscratch/sd/j/jackm/lorrax_sandbox/sources/lorrax_D/src/common/wfn_transforms.py" source_line=404 scheduling_name="convert.21.34"}
  %broadcast.126.34 = c128[9,24]{1,0} broadcast(%convert.21.34), dimensions={1}, metadata={op_name="jit(fn)/jit(main)/mul" source_file="/pscratch/sd/j/jackm/lorrax_sandbox/sources/lorrax_D/src/common/wfn_transforms.py" source_line=404 scheduling_name="broadcast.126.34"}
  %multiply.140.17 = c128[9,24]{1,0} multiply(%broadcast.124.19, %broadcast.126.34), metadata={op_name="jit(fn)/jit(main)/mul" source_file="/pscratch/sd/j/jackm/lorrax_sandbox/sources/lorrax_D/src/common/wfn_transforms.py" source_line=404 scheduling_name="multiply.140.17"}
  %real.9.7 = f64[9,24]{1,0} real(%multiply.140.17), metadata={op_name="jit(fn)/jit(main)/exp" source_file="/pscratch/sd/j/jackm/lorrax_sandbox/sources/lorrax_D/src/common/wfn_transforms.py" source_line=404 scheduling_name="real.9.7"}
  %exponential.18.4 = f64[9,24]{1,0} exponential(%real.9.7), metadata={op_name="jit(fn)/jit(main)/exp" source_file="/pscratch/sd/j/jackm/lorrax_sandbox/sources/lorrax_D/src/common/wfn_transforms.py" source_line=404 scheduling_name="exponential.18.4"}
  %constant_142_1 = f64[] constant(inf)
  %broadcast.127.14 = f64[9,24]{1,0} broadcast(%constant_142_1), dimensions={}, metadata={scheduling_name="broadcast.127.14"}
  %compare.27.7 = pred[9,24]{1,0} compare(%exponential.18.4, %broadcast.127.14), direction=EQ, metadata={op_name="jit(fn)/jit(main)/exp" source_file="/pscratch/sd/j/jackm/lorrax_sandbox/sources/lorrax_D/src/common/wfn_transforms.py" source_line=404 scheduling_name="compare.27.7"}
  %constant_143_1 = f64[] constant(0.5)
  %broadcast.128.18 = f64[9,24]{1,0} broadcast(%constant_143_1), dimensions={}, metadata={scheduling_name="broadcast.128.18"}
  %multiply.141.9 = f64[9,24]{1,0} multiply(%real.9.7, %broadcast.128.18), metadata={op_name="jit(fn)/jit(main)/exp" source_file="/pscratch/sd/j/jackm/lorrax_sandbox/sources/lorrax_D/src/common/wfn_transforms.py" source_line=404 scheduling_name="multiply.141.9"}
  %exponential.19.7 = f64[9,24]{1,0} exponential(%multiply.141.9), metadata={op_name="jit(fn)/jit(main)/exp" source_file="/pscratch/sd/j/jackm/lorrax_sandbox/sources/lorrax_D/src/common/wfn_transforms.py" source_line=404 scheduling_name="exponential.19.7"}
  %imag.9.7 = f64[9,24]{1,0} imag(%multiply.140.17), metadata={op_name="jit(fn)/jit(main)/exp" source_file="/pscratch/sd/j/jackm/lorrax_sandbox/sources/lorrax_D/src/common/wfn_transforms.py" source_line=404 scheduling_name="imag.9.7"}
  %cosine.9.3 = f64[9,24]{1,0} cosine(%imag.9.7), metadata={op_name="jit(fn)/jit(main)/exp" source_file="/pscratch/sd/j/jackm/lorrax_sandbox/sources/lorrax_D/src/common/wfn_transforms.py" source_line=404 scheduling_name="cosine.9.3"}
  %multiply.144.5 = f64[9,24]{1,0} multiply(%exponential.19.7, %cosine.9.3), metadata={op_name="jit(fn)/jit(main)/exp" source_file="/pscratch/sd/j/jackm/lorrax_sandbox/sources/lorrax_D/src/common/wfn_transforms.py" source_line=404 scheduling_name="multiply.144.5"}
  %multiply.146.5 = f64[9,24]{1,0} multiply(%multiply.144.5, %exponential.19.7), metadata={op_name="jit(fn)/jit(main)/exp" source_file="/pscratch/sd/j/jackm/lorrax_sandbox/sources/lorrax_D/src/common/wfn_transforms.py" source_line=404 scheduling_name="multiply.146.5"}
  %multiply.147.3 = f64[9,24]{1,0} multiply(%exponential.18.4, %cosine.9.3), metadata={op_name="jit(fn)/jit(main)/exp" source_file="/pscratch/sd/j/jackm/lorrax_sandbox/sources/lorrax_D/src/common/wfn_transforms.py" source_line=404 scheduling_name="multiply.147.3"}
  %select.36.3 = f64[9,24]{1,0} select(%compare.27.7, %multiply.146.5, %multiply.147.3), metadata={op_name="jit(fn)/jit(main)/exp" source_file="/pscratch/sd/j/jackm/lorrax_sandbox/sources/lorrax_D/src/common/wfn_transforms.py" source_line=404 scheduling_name="select.36.3"}
  %param_3.113 = f64[9,24]{1,0} parameter(3), metadata={scheduling_name="param_3.113"}
  %complex.9.3 = c128[9,24]{1,0} complex(%select.36.3, %param_3.113), metadata={op_name="jit(fn)/jit(main)/exp" source_file="/pscratch/sd/j/jackm/lorrax_sandbox/sources/lorrax_D/src/common/wfn_transforms.py" source_line=404 scheduling_name="complex.9.3"}
  %constant_145_1 = c128[] constant((214.66252583997982, 0)), metadata={op_name="jit(fn)/jit(main)/sqrt" source_file="/pscratch/sd/j/jackm/lorrax_sandbox/sources/lorrax_D/src/common/wfn_transforms.py" source_line=287}
  %broadcast.131.3 = c128[9,24]{1,0} broadcast(%constant_145_1), dimensions={}, metadata={op_name="jit(fn)/jit(main)/mul" source_file="/pscratch/sd/j/jackm/lorrax_sandbox/sources/lorrax_D/src/common/wfn_transforms.py" source_line=416 scheduling_name="broadcast.131.3"}
  %multiply.152.3 = c128[9,24]{1,0} multiply(%complex.9.3, %broadcast.131.3), metadata={op_name="jit(fn)/jit(main)/mul" source_file="/pscratch/sd/j/jackm/lorrax_sandbox/sources/lorrax_D/src/common/wfn_transforms.py" source_line=416 scheduling_name="multiply.152.3"}
  %broadcast.132.1 = c128[9,8,2,24,24,80]{5,4,3,2,1,0} broadcast(%multiply.152.3), dimensions={0,3}, metadata={op_name="jit(fn)/jit(main)/mul" source_file="/pscratch/sd/j/jackm/lorrax_sandbox/sources/lorrax_D/src/common/wfn_transforms.py" source_line=416 scheduling_name="broadcast.132.1"}
  %multiply.153.1 = c128[9,8,2,24,24,80]{5,4,3,2,1,0} multiply(%dynamic-slice.9.1, %broadcast.132.1), metadata={op_name="jit(fn)/jit(main)/mul" source_file="/pscratch/sd/j/jackm/lorrax_sandbox/sources/lorrax_D/src/common/wfn_transforms.py" source_line=416 scheduling_name="multiply.153.1"}
  %slice.22.7 = c128[9,1]{1,0} slice(%convert.20.17), slice={[0:9], [1:2]}, metadata={op_name="jit(fn)/jit(main)/slice" source_file="/pscratch/sd/j/jackm/lorrax_sandbox/sources/lorrax_D/src/common/wfn_transforms.py" source_line=405 scheduling_name="slice.22.7"}
  %multiply.154.5 = c128[9,1]{1,0} multiply(%slice.22.7, %broadcast.123.11), metadata={op_name="jit(fn)/jit(main)/mul" source_file="/pscratch/sd/j/jackm/lorrax_sandbox/sources/lorrax_D/src/common/wfn_transforms.py" source_line=405 scheduling_name="multiply.154.5"}
  %bitcast.797.19 = c128[9]{0} bitcast(%multiply.154.5), metadata={scheduling_name="bitcast.797.19"}
  %broadcast.134.19 = c128[9,24]{1,0} broadcast(%bitcast.797.19), dimensions={0}, metadata={op_name="jit(fn)/jit(main)/mul" source_file="/pscratch/sd/j/jackm/lorrax_sandbox/sources/lorrax_D/src/common/wfn_transforms.py" source_line=405 scheduling_name="broadcast.134.19"}
  %multiply.155.17 = c128[9,24]{1,0} multiply(%broadcast.134.19, %broadcast.126.34), metadata={op_name="jit(fn)/jit(main)/mul" source_file="/pscratch/sd/j/jackm/lorrax_sandbox/sources/lorrax_D/src/common/wfn_transforms.py" source_line=405 scheduling_name="multiply.155.17"}
  %real.10.7 = f64[9,24]{1,0} real(%multiply.155.17), metadata={op_name="jit(fn)/jit(main)/exp" source_file="/pscratch/sd/j/jackm/lorrax_sandbox/sources/lorrax_D/src/common/wfn_transforms.py" source_line=405 scheduling_name="real.10.7"}
  %exponential.20.4 = f64[9,24]{1,0} exponential(%real.10.7), metadata={op_name="jit(fn)/jit(main)/exp" source_file="/pscratch/sd/j/jackm/lorrax_sandbox/sources/lorrax_D/src/common/wfn_transforms.py" source_line=405 scheduling_name="exponential.20.4"}
  %compare.29.7 = pred[9,24]{1,0} compare(%exponential.20.4, %broadcast.127.14), direction=EQ, metadata={op_name="jit(fn)/jit(main)/exp" source_file="/pscratch/sd/j/jackm/lorrax_sandbox/sources/lorrax_D/src/common/wfn_transforms.py" source_line=405 scheduling_name="compare.29.7"}
  %multiply.156.9 = f64[9,24]{1,0} multiply(%real.10.7, %broadcast.128.18), metadata={op_name="jit(fn)/jit(main)/exp" source_file="/pscratch/sd/j/jackm/lorrax_sandbox/sources/lorrax_D/src/common/wfn_transforms.py" source_line=405 scheduling_name="multiply.156.9"}
  %exponential.21.7 = f64[9,24]{1,0} exponential(%multiply.156.9), metadata={op_name="jit(fn)/jit(main)/exp" source_file="/pscratch/sd/j/jackm/lorrax_sandbox/sources/lorrax_D/src/common/wfn_transforms.py" source_line=405 scheduling_name="exponential.21.7"}
  %imag.10.7 = f64[9,24]{1,0} imag(%multiply.155.17), metadata={op_name="jit(fn)/jit(main)/exp" source_file="/pscratch/sd/j/jackm/lorrax_sandbox/sources/lorrax_D/src/common/wfn_transforms.py" source_line=405 scheduling_name="imag.10.7"}
  %cosine.10.3 = f64[9,24]{1,0} cosine(%imag.10.7), metadata={op_name="jit(fn)/jit(main)/exp" source_file="/pscratch/sd/j/jackm/lorrax_sandbox/sources/lorrax_D/src/common/wfn_transforms.py" source_line=405 scheduling_name="cosine.10.3"}
  %multiply.157.5 = f64[9,24]{1,0} multiply(%exponential.21.7, %cosine.10.3), metadata={op_name="jit(fn)/jit(main)/exp" source_file="/pscratch/sd/j/jackm/lorrax_sandbox/sources/lorrax_D/src/common/wfn_transforms.py" source_line=405 scheduling_name="multiply.157.5"}
  %multiply.158.5 = f64[9,24]{1,0} multiply(%multiply.157.5, %exponential.21.7), metadata={op_name="jit(fn)/jit(main)/exp" source_file="/pscratch/sd/j/jackm/lorrax_sandbox/sources/lorrax_D/src/common/wfn_transforms.py" source_line=405 scheduling_name="multiply.158.5"}
  %multiply.159.3 = f64[9,24]{1,0} multiply(%exponential.20.4, %cosine.10.3), metadata={op_name="jit(fn)/jit(main)/exp" source_file="/pscratch/sd/j/jackm/lorrax_sandbox/sources/lorrax_D/src/common/wfn_transforms.py" source_line=405 scheduling_name="multiply.159.3"}
  %select.39.3 = f64[9,24]{1,0} select(%compare.29.7, %multiply.158.5, %multiply.159.3), metadata={op_name="jit(fn)/jit(main)/exp" source_file="/pscratch/sd/j/jackm/lorrax_sandbox/sources/lorrax_D/src/common/wfn_transforms.py" source_line=405 scheduling_name="select.39.3"}
  %param_2.105 = f64[9,24]{1,0} parameter(2), metadata={scheduling_name="param_2.105"}
  %complex.10.1 = c128[9,24]{1,0} complex(%select.39.3, %param_2.105), metadata={op_name="jit(fn)/jit(main)/exp" source_file="/pscratch/sd/j/jackm/lorrax_sandbox/sources/lorrax_D/src/common/wfn_transforms.py" source_line=405 scheduling_name="complex.10.1"}
  %broadcast.139.1 = c128[9,8,2,24,24,80]{5,4,3,2,1,0} broadcast(%complex.10.1), dimensions={0,4}, metadata={op_name="jit(fn)/jit(main)/mul" source_file="/pscratch/sd/j/jackm/lorrax_sandbox/sources/lorrax_D/src/common/wfn_transforms.py" source_line=416 scheduling_name="broadcast.139.1"}
  %multiply.164.1 = c128[9,8,2,24,24,80]{5,4,3,2,1,0} multiply(%multiply.153.1, %broadcast.139.1), metadata={op_name="jit(fn)/jit(main)/mul" source_file="/pscratch/sd/j/jackm/lorrax_sandbox/sources/lorrax_D/src/common/wfn_transforms.py" source_line=416 scheduling_name="multiply.164.1"}
  %slice.23.7 = c128[9,1]{1,0} slice(%convert.20.17), slice={[0:9], [2:3]}, metadata={op_name="jit(fn)/jit(main)/slice" source_file="/pscratch/sd/j/jackm/lorrax_sandbox/sources/lorrax_D/src/common/wfn_transforms.py" source_line=406 scheduling_name="slice.23.7"}
  %multiply.165.5 = c128[9,1]{1,0} multiply(%slice.23.7, %broadcast.123.11), metadata={op_name="jit(fn)/jit(main)/mul" source_file="/pscratch/sd/j/jackm/lorrax_sandbox/sources/lorrax_D/src/common/wfn_transforms.py" source_line=406 scheduling_name="multiply.165.5"}
  %bitcast.863.19 = c128[9]{0} bitcast(%multiply.165.5), metadata={scheduling_name="bitcast.863.19"}
  %broadcast.141.19 = c128[9,80]{1,0} broadcast(%bitcast.863.19), dimensions={0}, metadata={op_name="jit(fn)/jit(main)/mul" source_file="/pscratch/sd/j/jackm/lorrax_sandbox/sources/lorrax_D/src/common/wfn_transforms.py" source_line=406 scheduling_name="broadcast.141.19"}
  %iota.14.7 = f64[80]{0} iota(), iota_dimension=0, metadata={op_name="jit(fn)/jit(main)/iota" source_file="/pscratch/sd/j/jackm/lorrax_sandbox/sources/lorrax_D/src/common/wfn_transforms.py" source_line=400 scheduling_name="iota.14.7"}
  %constant_153_1 = f64[] constant(0.0125)
  %broadcast.142.7 = f64[80]{0} broadcast(%constant_153_1), dimensions={}, metadata={scheduling_name="broadcast.142.7"}
  %multiply.166.7 = f64[80]{0} multiply(%iota.14.7, %broadcast.142.7), metadata={op_name="jit(fn)/jit(main)/div" source_file="/pscratch/sd/j/jackm/lorrax_sandbox/sources/lorrax_D/src/common/wfn_transforms.py" source_line=400 scheduling_name="multiply.166.7"}
  %convert.22.17 = c128[80]{0} convert(%multiply.166.7), metadata={op_name="jit(fn)/jit(main)/convert_element_type" source_file="/pscratch/sd/j/jackm/lorrax_sandbox/sources/lorrax_D/src/common/wfn_transforms.py" source_line=406 scheduling_name="convert.22.17"}
  %broadcast.143.17 = c128[9,80]{1,0} broadcast(%convert.22.17), dimensions={1}, metadata={op_name="jit(fn)/jit(main)/mul" source_file="/pscratch/sd/j/jackm/lorrax_sandbox/sources/lorrax_D/src/common/wfn_transforms.py" source_line=406 scheduling_name="broadcast.143.17"}
  %multiply.167.17 = c128[9,80]{1,0} multiply(%broadcast.141.19, %broadcast.143.17), metadata={op_name="jit(fn)/jit(main)/mul" source_file="/pscratch/sd/j/jackm/lorrax_sandbox/sources/lorrax_D/src/common/wfn_transforms.py" source_line=406 scheduling_name="multiply.167.17"}
  %real.11.7 = f64[9,80]{1,0} real(%multiply.167.17), metadata={op_name="jit(fn)/jit(main)/exp" source_file="/pscratch/sd/j/jackm/lorrax_sandbox/sources/lorrax_D/src/common/wfn_transforms.py" source_line=406 scheduling_name="real.11.7"}
  %exponential.22.11 = f64[9,80]{1,0} exponential(%real.11.7), metadata={op_name="jit(fn)/jit(main)/exp" source_file="/pscratch/sd/j/jackm/lorrax_sandbox/sources/lorrax_D/src/common/wfn_transforms.py" source_line=406 scheduling_name="exponential.22.11"}
  %broadcast.144.7 = f64[9,80]{1,0} broadcast(%constant_142_1), dimensions={}, metadata={scheduling_name="broadcast.144.7"}
  %compare.31.7 = pred[9,80]{1,0} compare(%exponential.22.11, %broadcast.144.7), direction=EQ, metadata={op_name="jit(fn)/jit(main)/exp" source_file="/pscratch/sd/j/jackm/lorrax_sandbox/sources/lorrax_D/src/common/wfn_transforms.py" source_line=406 scheduling_name="compare.31.7"}
  %broadcast.145.7 = f64[9,80]{1,0} broadcast(%constant_143_1), dimensions={}, metadata={scheduling_name="broadcast.145.7"}
  %multiply.168.7 = f64[9,80]{1,0} multiply(%real.11.7, %broadcast.145.7), metadata={op_name="jit(fn)/jit(main)/exp" source_file="/pscratch/sd/j/jackm/lorrax_sandbox/sources/lorrax_D/src/common/wfn_transforms.py" source_line=406 scheduling_name="multiply.168.7"}
  %exponential.23.7 = f64[9,80]{1,0} exponential(%multiply.168.7), metadata={op_name="jit(fn)/jit(main)/exp" source_file="/pscratch/sd/j/jackm/lorrax_sandbox/sources/lorrax_D/src/common/wfn_transforms.py" source_line=406 scheduling_name="exponential.23.7"}
  %imag.11.7 = f64[9,80]{1,0} imag(%multiply.167.17), metadata={op_name="jit(fn)/jit(main)/exp" source_file="/pscratch/sd/j/jackm/lorrax_sandbox/sources/lorrax_D/src/common/wfn_transforms.py" source_line=406 scheduling_name="imag.11.7"}
  %cosine.11.3 = f64[9,80]{1,0} cosine(%imag.11.7), metadata={op_name="jit(fn)/jit(main)/exp" source_file="/pscratch/sd/j/jackm/lorrax_sandbox/sources/lorrax_D/src/common/wfn_transforms.py" source_line=406 scheduling_name="cosine.11.3"}
  %multiply.169.5 = f64[9,80]{1,0} multiply(%exponential.23.7, %cosine.11.3), metadata={op_name="jit(fn)/jit(main)/exp" source_file="/pscratch/sd/j/jackm/lorrax_sandbox/sources/lorrax_D/src/common/wfn_transforms.py" source_line=406 scheduling_name="multiply.169.5"}
  %multiply.170.5 = f64[9,80]{1,0} multiply(%multiply.169.5, %exponential.23.7), metadata={op_name="jit(fn)/jit(main)/exp" source_file="/pscratch/sd/j/jackm/lorrax_sandbox/sources/lorrax_D/src/common/wfn_transforms.py" source_line=406 scheduling_name="multiply.170.5"}
  %multiply.172.3 = f64[9,80]{1,0} multiply(%exponential.22.11, %cosine.11.3), metadata={op_name="jit(fn)/jit(main)/exp" source_file="/pscratch/sd/j/jackm/lorrax_sandbox/sources/lorrax_D/src/common/wfn_transforms.py" source_line=406 scheduling_name="multiply.172.3"}
  %select.42.3 = f64[9,80]{1,0} select(%compare.31.7, %multiply.170.5, %multiply.172.3), metadata={op_name="jit(fn)/jit(main)/exp" source_file="/pscratch/sd/j/jackm/lorrax_sandbox/sources/lorrax_D/src/common/wfn_transforms.py" source_line=406 scheduling_name="select.42.3"}
  %param_1.242 = f64[9,80]{1,0} parameter(1), metadata={scheduling_name="param_1.242"}
  %complex.11.1 = c128[9,80]{1,0} complex(%select.42.3, %param_1.242), metadata={op_name="jit(fn)/jit(main)/exp" source_file="/pscratch/sd/j/jackm/lorrax_sandbox/sources/lorrax_D/src/common/wfn_transforms.py" source_line=406 scheduling_name="complex.11.1"}
  %broadcast.148.1 = c128[9,8,2,24,24,80]{5,4,3,2,1,0} broadcast(%complex.11.1), dimensions={0,5}, metadata={op_name="jit(fn)/jit(main)/mul" source_file="/pscratch/sd/j/jackm/lorrax_sandbox/sources/lorrax_D/src/common/wfn_transforms.py" source_line=416 scheduling_name="broadcast.148.1"}
  %multiply.176.1 = c128[9,8,2,24,24,80]{5,4,3,2,1,0} multiply(%multiply.164.1, %broadcast.148.1), metadata={op_name="jit(fn)/jit(main)/mul" source_file="/pscratch/sd/j/jackm/lorrax_sandbox/sources/lorrax_D/src/common/wfn_transforms.py" source_line=416 scheduling_name="multiply.176.1"}
  %bitcast.927.1 = c128[24,24,80,9,8,2]{2,1,0,5,4,3} bitcast(%multiply.176.1), metadata={scheduling_name="bitcast.927.1"}
  %param_4.111 = s32[640,3]{1,0} parameter(4), metadata={scheduling_name="param_4.111"}
  %slice.24.1 = s32[640,1]{1,0} slice(%param_4.111), slice={[0:640], [0:1]}, metadata={op_name="jit(fn)/jit(main)/slice" source_file="/pscratch/sd/j/jackm/lorrax_sandbox/sources/lorrax_D/src/common/wfn_transforms.py" source_line=289 scheduling_name="slice.24.1"}
  %bitcast.931.9 = s32[640]{0} bitcast(%slice.24.1), metadata={scheduling_name="bitcast.931.9"}
  %broadcast.149.1 = s32[640]{0} broadcast(%constant_146_1), dimensions={}, metadata={scheduling_name="broadcast.149.1"}
  %compare.33.3 = pred[640]{0} compare(%bitcast.931.9, %broadcast.149.1), direction=LT, metadata={op_name="jit(fn)/jit(main)/lt" source_file="/pscratch/sd/j/jackm/lorrax_sandbox/sources/lorrax_D/src/common/wfn_transforms.py" source_line=289 scheduling_name="compare.33.3"}
  %constant_158_1 = s32[] constant(24)
  %broadcast.150.1 = s32[640]{0} broadcast(%constant_158_1), dimensions={}, metadata={scheduling_name="broadcast.150.1"}
  %add.13.3 = s32[640]{0} add(%bitcast.931.9, %broadcast.150.1), metadata={op_name="jit(fn)/jit(main)/add" source_file="/pscratch/sd/j/jackm/lorrax_sandbox/sources/lorrax_D/src/common/wfn_transforms.py" source_line=289 scheduling_name="add.13.3"}
  %select.45.3 = s32[640]{0} select(%compare.33.3, %add.13.3, %bitcast.931.9), metadata={op_name="jit(fn)/jit(main)/select_n" source_file="/pscratch/sd/j/jackm/lorrax_sandbox/sources/lorrax_D/src/common/wfn_transforms.py" source_line=289 scheduling_name="select.45.3"}
  %bitcast.943.3 = s32[640,1]{1,0} bitcast(%select.45.3), metadata={scheduling_name="bitcast.943.3"}
  %slice.25.1 = s32[640,1]{1,0} slice(%param_4.111), slice={[0:640], [1:2]}, metadata={op_name="jit(fn)/jit(main)/slice" source_file="/pscratch/sd/j/jackm/lorrax_sandbox/sources/lorrax_D/src/common/wfn_transforms.py" source_line=289 scheduling_name="slice.25.1"}
  %bitcast.948.9 = s32[640]{0} bitcast(%slice.25.1), metadata={scheduling_name="bitcast.948.9"}
  %compare.34.3 = pred[640]{0} compare(%bitcast.948.9, %broadcast.149.1), direction=LT, metadata={op_name="jit(fn)/jit(main)/lt" source_file="/pscratch/sd/j/jackm/lorrax_sandbox/sources/lorrax_D/src/common/wfn_transforms.py" source_line=289 scheduling_name="compare.34.3"}
  %add.14.3 = s32[640]{0} add(%bitcast.948.9, %broadcast.150.1), metadata={op_name="jit(fn)/jit(main)/add" source_file="/pscratch/sd/j/jackm/lorrax_sandbox/sources/lorrax_D/src/common/wfn_transforms.py" source_line=289 scheduling_name="add.14.3"}
  %select.46.3 = s32[640]{0} select(%compare.34.3, %add.14.3, %bitcast.948.9), metadata={op_name="jit(fn)/jit(main)/select_n" source_file="/pscratch/sd/j/jackm/lorrax_sandbox/sources/lorrax_D/src/common/wfn_transforms.py" source_line=289 scheduling_name="select.46.3"}
  %bitcast.961.3 = s32[640,1]{1,0} bitcast(%select.46.3), metadata={scheduling_name="bitcast.961.3"}
  %slice.26.1 = s32[640,1]{1,0} slice(%param_4.111), slice={[0:640], [2:3]}, metadata={op_name="jit(fn)/jit(main)/slice" source_file="/pscratch/sd/j/jackm/lorrax_sandbox/sources/lorrax_D/src/common/wfn_transforms.py" source_line=289 scheduling_name="slice.26.1"}
  %bitcast.966.9 = s32[640]{0} bitcast(%slice.26.1), metadata={scheduling_name="bitcast.966.9"}
  %compare.35.3 = pred[640]{0} compare(%bitcast.966.9, %broadcast.149.1), direction=LT, metadata={op_name="jit(fn)/jit(main)/lt" source_file="/pscratch/sd/j/jackm/lorrax_sandbox/sources/lorrax_D/src/common/wfn_transforms.py" source_line=289 scheduling_name="compare.35.3"}
  %constant_159_1 = s32[] constant(80)
  %broadcast.154.1 = s32[640]{0} broadcast(%constant_159_1), dimensions={}, metadata={scheduling_name="broadcast.154.1"}
  %add.15.3 = s32[640]{0} add(%bitcast.966.9, %broadcast.154.1), metadata={op_name="jit(fn)/jit(main)/add" source_file="/pscratch/sd/j/jackm/lorrax_sandbox/sources/lorrax_D/src/common/wfn_transforms.py" source_line=289 scheduling_name="add.15.3"}
  %select.47.3 = s32[640]{0} select(%compare.35.3, %add.15.3, %bitcast.966.9), metadata={op_name="jit(fn)/jit(main)/select_n" source_file="/pscratch/sd/j/jackm/lorrax_sandbox/sources/lorrax_D/src/common/wfn_transforms.py" source_line=289 scheduling_name="select.47.3"}
  %bitcast.978.3 = s32[640,1]{1,0} bitcast(%select.47.3), metadata={scheduling_name="bitcast.978.3"}
  %concatenate.3.3 = s32[640,3]{1,0} concatenate(%bitcast.943.3, %bitcast.961.3, %bitcast.978.3), dimensions={1}, metadata={op_name="jit(fn)/jit(main)/concatenate" source_file="/pscratch/sd/j/jackm/lorrax_sandbox/sources/lorrax_D/src/common/wfn_transforms.py" source_line=289 scheduling_name="concatenate.3.3"}
  ROOT %gather.4.1 = c128[640,1,1,1,9,8,2]{0,6,5,4,3,2,1} gather(%bitcast.927.1, %concatenate.3.3), offset_dims={1,2,3,4,5,6}, collapsed_slice_dims={}, start_index_map={0,1,2}, index_vector_dim=1, slice_sizes={1,1,1,9,8,2}, metadata={op_name="jit(fn)/jit(main)/gather" source_file="/pscratch/sd/j/jackm/lorrax_sandbox/sources/lorrax_D/src/common/wfn_transforms.py" source_line=289 scheduling_name="gather.4.1"}
}

%fused_select (param_0.215: f64[9,3]) -> f64[9,80] {
  %param_0.215 = f64[9,3]{1,0} parameter(0), metadata={scheduling_name="param_0.215"}
  %convert.20.19 = c128[9,3]{1,0} convert(%param_0.215), metadata={op_name="jit(fn)/jit(main)/convert_element_type" source_file="/pscratch/sd/j/jackm/lorrax_sandbox/sources/lorrax_D/src/common/wfn_transforms.py" source_line=404 scheduling_name="convert.20.19"}
  %slice.23.5 = c128[9,1]{1,0} slice(%convert.20.19), slice={[0:9], [2:3]}, metadata={op_name="jit(fn)/jit(main)/slice" source_file="/pscratch/sd/j/jackm/lorrax_sandbox/sources/lorrax_D/src/common/wfn_transforms.py" source_line=406 scheduling_name="slice.23.5"}
  %constant_140_1 = c128[] constant((0, 6.2831853071795862))
  %broadcast.123.13 = c128[9,1]{1,0} broadcast(%constant_140_1), dimensions={}, metadata={scheduling_name="broadcast.123.13"}
  %multiply.165.3 = c128[9,1]{1,0} multiply(%slice.23.5, %broadcast.123.13), metadata={op_name="jit(fn)/jit(main)/mul" source_file="/pscratch/sd/j/jackm/lorrax_sandbox/sources/lorrax_D/src/common/wfn_transforms.py" source_line=406 scheduling_name="multiply.165.3"}
  %bitcast.863.13 = c128[9]{0} bitcast(%multiply.165.3), metadata={scheduling_name="bitcast.863.13"}
  %broadcast.141.13 = c128[9,80]{1,0} broadcast(%bitcast.863.13), dimensions={0}, metadata={op_name="jit(fn)/jit(main)/mul" source_file="/pscratch/sd/j/jackm/lorrax_sandbox/sources/lorrax_D/src/common/wfn_transforms.py" source_line=406 scheduling_name="broadcast.141.13"}
  %iota.14.3 = f64[80]{0} iota(), iota_dimension=0, metadata={op_name="jit(fn)/jit(main)/iota" source_file="/pscratch/sd/j/jackm/lorrax_sandbox/sources/lorrax_D/src/common/wfn_transforms.py" source_line=400 scheduling_name="iota.14.3"}
  %constant_153_2 = f64[] constant(0.0125)
  %broadcast.142.3 = f64[80]{0} broadcast(%constant_153_2), dimensions={}, metadata={scheduling_name="broadcast.142.3"}
  %multiply.166.3 = f64[80]{0} multiply(%iota.14.3, %broadcast.142.3), metadata={op_name="jit(fn)/jit(main)/div" source_file="/pscratch/sd/j/jackm/lorrax_sandbox/sources/lorrax_D/src/common/wfn_transforms.py" source_line=400 scheduling_name="multiply.166.3"}
  %convert.22.11 = c128[80]{0} convert(%multiply.166.3), metadata={op_name="jit(fn)/jit(main)/convert_element_type" source_file="/pscratch/sd/j/jackm/lorrax_sandbox/sources/lorrax_D/src/common/wfn_transforms.py" source_line=406 scheduling_name="convert.22.11"}
  %broadcast.143.11 = c128[9,80]{1,0} broadcast(%convert.22.11), dimensions={1}, metadata={op_name="jit(fn)/jit(main)/mul" source_file="/pscratch/sd/j/jackm/lorrax_sandbox/sources/lorrax_D/src/common/wfn_transforms.py" source_line=406 scheduling_name="broadcast.143.11"}
  %multiply.167.11 = c128[9,80]{1,0} multiply(%broadcast.141.13, %broadcast.143.11), metadata={op_name="jit(fn)/jit(main)/mul" source_file="/pscratch/sd/j/jackm/lorrax_sandbox/sources/lorrax_D/src/common/wfn_transforms.py" source_line=406 scheduling_name="multiply.167.11"}
  %imag.11.3 = f64[9,80]{1,0} imag(%multiply.167.11), metadata={op_name="jit(fn)/jit(main)/exp" source_file="/pscratch/sd/j/jackm/lorrax_sandbox/sources/lorrax_D/src/common/wfn_transforms.py" source_line=406 scheduling_name="imag.11.3"}
  %constant_144_1 = f64[] constant(0)
  %broadcast.146.1 = f64[9,80]{1,0} broadcast(%constant_144_1), dimensions={}, metadata={scheduling_name="broadcast.146.1"}
  %compare.32.1 = pred[9,80]{1,0} compare(%imag.11.3, %broadcast.146.1), direction=EQ, metadata={op_name="jit(fn)/jit(main)/exp" source_file="/pscratch/sd/j/jackm/lorrax_sandbox/sources/lorrax_D/src/common/wfn_transforms.py" source_line=406 scheduling_name="compare.32.1"}
  %real.11.5 = f64[9,80]{1,0} real(%multiply.167.11), metadata={op_name="jit(fn)/jit(main)/exp" source_file="/pscratch/sd/j/jackm/lorrax_sandbox/sources/lorrax_D/src/common/wfn_transforms.py" source_line=406 scheduling_name="real.11.5"}
  %exponential.22.5 = f64[9,80]{1,0} exponential(%real.11.5), metadata={op_name="jit(fn)/jit(main)/exp" source_file="/pscratch/sd/j/jackm/lorrax_sandbox/sources/lorrax_D/src/common/wfn_transforms.py" source_line=406 scheduling_name="exponential.22.5"}
  %constant_142_2 = f64[] constant(inf)
  %broadcast.144.3 = f64[9,80]{1,0} broadcast(%constant_142_2), dimensions={}, metadata={scheduling_name="broadcast.144.3"}
  %compare.31.3 = pred[9,80]{1,0} compare(%exponential.22.5, %broadcast.144.3), direction=EQ, metadata={op_name="jit(fn)/jit(main)/exp" source_file="/pscratch/sd/j/jackm/lorrax_sandbox/sources/lorrax_D/src/common/wfn_transforms.py" source_line=406 scheduling_name="compare.31.3"}
  %constant_143_3 = f64[] constant(0.5)
  %broadcast.145.3 = f64[9,80]{1,0} broadcast(%constant_143_3), dimensions={}, metadata={scheduling_name="broadcast.145.3"}
  %multiply.168.3 = f64[9,80]{1,0} multiply(%real.11.5, %broadcast.145.3), metadata={op_name="jit(fn)/jit(main)/exp" source_file="/pscratch/sd/j/jackm/lorrax_sandbox/sources/lorrax_D/src/common/wfn_transforms.py" source_line=406 scheduling_name="multiply.168.3"}
  %exponential.23.3 = f64[9,80]{1,0} exponential(%multiply.168.3), metadata={op_name="jit(fn)/jit(main)/exp" source_file="/pscratch/sd/j/jackm/lorrax_sandbox/sources/lorrax_D/src/common/wfn_transforms.py" source_line=406 scheduling_name="exponential.23.3"}
  %sine.11.1 = f64[9,80]{1,0} sine(%imag.11.3), metadata={op_name="jit(fn)/jit(main)/exp" source_file="/pscratch/sd/j/jackm/lorrax_sandbox/sources/lorrax_D/src/common/wfn_transforms.py" source_line=406 scheduling_name="sine.11.1"}
  %multiply.173.3 = f64[9,80]{1,0} multiply(%exponential.23.3, %sine.11.1), metadata={op_name="jit(fn)/jit(main)/exp" source_file="/pscratch/sd/j/jackm/lorrax_sandbox/sources/lorrax_D/src/common/wfn_transforms.py" source_line=406 scheduling_name="multiply.173.3"}
  %multiply.174.3 = f64[9,80]{1,0} multiply(%multiply.173.3, %exponential.23.3), metadata={op_name="jit(fn)/jit(main)/exp" source_file="/pscratch/sd/j/jackm/lorrax_sandbox/sources/lorrax_D/src/common/wfn_transforms.py" source_line=406 scheduling_name="multiply.174.3"}
  %multiply.175.1 = f64[9,80]{1,0} multiply(%exponential.22.5, %sine.11.1), metadata={op_name="jit(fn)/jit(main)/exp" source_file="/pscratch/sd/j/jackm/lorrax_sandbox/sources/lorrax_D/src/common/wfn_transforms.py" source_line=406 scheduling_name="multiply.175.1"}
  %select.43.1 = f64[9,80]{1,0} select(%compare.31.3, %multiply.174.3, %multiply.175.1), metadata={op_name="jit(fn)/jit(main)/exp" source_file="/pscratch/sd/j/jackm/lorrax_sandbox/sources/lorrax_D/src/common/wfn_transforms.py" source_line=406 scheduling_name="select.43.1"}
  ROOT %select.44.1 = f64[9,80]{1,0} select(%compare.32.1, %broadcast.146.1, %select.43.1), metadata={op_name="jit(fn)/jit(main)/exp" source_file="/pscratch/sd/j/jackm/lorrax_sandbox/sources/lorrax_D/src/common/wfn_transforms.py" source_line=406 scheduling_name="select.44.1"}
}

%fused_select.1 (param_0.213: f64[9,3]) -> (f64[9,24], f64[9,24]) {
  %param_0.213 = f64[9,3]{1,0} parameter(0), metadata={scheduling_name="param_0.213"}
  %convert.20.15 = c128[9,3]{1,0} convert(%param_0.213), metadata={op_name="jit(fn)/jit(main)/convert_element_type" source_file="/pscratch/sd/j/jackm/lorrax_sandbox/sources/lorrax_D/src/common/wfn_transforms.py" source_line=404 scheduling_name="convert.20.15"}
  %slice.21.5 = c128[9,1]{1,0} slice(%convert.20.15), slice={[0:9], [0:1]}, metadata={op_name="jit(fn)/jit(main)/slice" source_file="/pscratch/sd/j/jackm/lorrax_sandbox/sources/lorrax_D/src/common/wfn_transforms.py" source_line=404 scheduling_name="slice.21.5"}
  %constant_140_2 = c128[] constant((0, 6.2831853071795862))
  %broadcast.123.9 = c128[9,1]{1,0} broadcast(%constant_140_2), dimensions={}, metadata={scheduling_name="broadcast.123.9"}
  %multiply.138.3 = c128[9,1]{1,0} multiply(%slice.21.5, %broadcast.123.9), metadata={op_name="jit(fn)/jit(main)/mul" source_file="/pscratch/sd/j/jackm/lorrax_sandbox/sources/lorrax_D/src/common/wfn_transforms.py" source_line=404 scheduling_name="multiply.138.3"}
  %bitcast.727.13 = c128[9]{0} bitcast(%multiply.138.3), metadata={scheduling_name="bitcast.727.13"}
  %broadcast.124.13 = c128[9,24]{1,0} broadcast(%bitcast.727.13), dimensions={0}, metadata={op_name="jit(fn)/jit(main)/mul" source_file="/pscratch/sd/j/jackm/lorrax_sandbox/sources/lorrax_D/src/common/wfn_transforms.py" source_line=404 scheduling_name="broadcast.124.13"}
  %iota.13.5 = f64[24]{0} iota(), iota_dimension=0, metadata={op_name="jit(fn)/jit(main)/iota" source_file="/pscratch/sd/j/jackm/lorrax_sandbox/sources/lorrax_D/src/common/wfn_transforms.py" source_line=398 scheduling_name="iota.13.5"}
  %constant_141_3 = f64[] constant(0.041666666666666664)
  %broadcast.125.5 = f64[24]{0} broadcast(%constant_141_3), dimensions={}, metadata={scheduling_name="broadcast.125.5"}
  %multiply.139.5 = f64[24]{0} multiply(%iota.13.5, %broadcast.125.5), metadata={op_name="jit(fn)/jit(main)/div" source_file="/pscratch/sd/j/jackm/lorrax_sandbox/sources/lorrax_D/src/common/wfn_transforms.py" source_line=398 scheduling_name="multiply.139.5"}
  %convert.21.16 = c128[24]{0} convert(%multiply.139.5), metadata={op_name="jit(fn)/jit(main)/convert_element_type" source_file="/pscratch/sd/j/jackm/lorrax_sandbox/sources/lorrax_D/src/common/wfn_transforms.py" source_line=404 scheduling_name="convert.21.16"}
  %broadcast.126.16 = c128[9,24]{1,0} broadcast(%convert.21.16), dimensions={1}, metadata={op_name="jit(fn)/jit(main)/mul" source_file="/pscratch/sd/j/jackm/lorrax_sandbox/sources/lorrax_D/src/common/wfn_transforms.py" source_line=404 scheduling_name="broadcast.126.16"}
  %multiply.140.11 = c128[9,24]{1,0} multiply(%broadcast.124.13, %broadcast.126.16), metadata={op_name="jit(fn)/jit(main)/mul" source_file="/pscratch/sd/j/jackm/lorrax_sandbox/sources/lorrax_D/src/common/wfn_transforms.py" source_line=404 scheduling_name="multiply.140.11"}
  %imag.9.3 = f64[9,24]{1,0} imag(%multiply.140.11), metadata={op_name="jit(fn)/jit(main)/exp" source_file="/pscratch/sd/j/jackm/lorrax_sandbox/sources/lorrax_D/src/common/wfn_transforms.py" source_line=404 scheduling_name="imag.9.3"}
  %constant_144_2 = f64[] constant(0)
  %broadcast.129.2 = f64[9,24]{1,0} broadcast(%constant_144_2), dimensions={}, metadata={scheduling_name="broadcast.129.2"}
  %compare.28.1 = pred[9,24]{1,0} compare(%imag.9.3, %broadcast.129.2), direction=EQ, metadata={op_name="jit(fn)/jit(main)/exp" source_file="/pscratch/sd/j/jackm/lorrax_sandbox/sources/lorrax_D/src/common/wfn_transforms.py" source_line=404 scheduling_name="compare.28.1"}
  %real.9.5 = f64[9,24]{1,0} real(%multiply.140.11), metadata={op_name="jit(fn)/jit(main)/exp" source_file="/pscratch/sd/j/jackm/lorrax_sandbox/sources/lorrax_D/src/common/wfn_transforms.py" source_line=404 scheduling_name="real.9.5"}
  %exponential.18.2 = f64[9,24]{1,0} exponential(%real.9.5), metadata={op_name="jit(fn)/jit(main)/exp" source_file="/pscratch/sd/j/jackm/lorrax_sandbox/sources/lorrax_D/src/common/wfn_transforms.py" source_line=404 scheduling_name="exponential.18.2"}
  %constant_142_3 = f64[] constant(inf)
  %broadcast.127.8 = f64[9,24]{1,0} broadcast(%constant_142_3), dimensions={}, metadata={scheduling_name="broadcast.127.8"}
  %compare.27.3 = pred[9,24]{1,0} compare(%exponential.18.2, %broadcast.127.8), direction=EQ, metadata={op_name="jit(fn)/jit(main)/exp" source_file="/pscratch/sd/j/jackm/lorrax_sandbox/sources/lorrax_D/src/common/wfn_transforms.py" source_line=404 scheduling_name="compare.27.3"}
  %constant_143_2 = f64[] constant(0.5)
  %broadcast.128.12 = f64[9,24]{1,0} broadcast(%constant_143_2), dimensions={}, metadata={scheduling_name="broadcast.128.12"}
  %multiply.141.5 = f64[9,24]{1,0} multiply(%real.9.5, %broadcast.128.12), metadata={op_name="jit(fn)/jit(main)/exp" source_file="/pscratch/sd/j/jackm/lorrax_sandbox/sources/lorrax_D/src/common/wfn_transforms.py" source_line=404 scheduling_name="multiply.141.5"}
  %exponential.19.3 = f64[9,24]{1,0} exponential(%multiply.141.5), metadata={op_name="jit(fn)/jit(main)/exp" source_file="/pscratch/sd/j/jackm/lorrax_sandbox/sources/lorrax_D/src/common/wfn_transforms.py" source_line=404 scheduling_name="exponential.19.3"}
  %sine.9.3 = f64[9,24]{1,0} sine(%imag.9.3), metadata={op_name="jit(fn)/jit(main)/exp" source_file="/pscratch/sd/j/jackm/lorrax_sandbox/sources/lorrax_D/src/common/wfn_transforms.py" source_line=404 scheduling_name="sine.9.3"}
  %multiply.149.5 = f64[9,24]{1,0} multiply(%exponential.19.3, %sine.9.3), metadata={op_name="jit(fn)/jit(main)/exp" source_file="/pscratch/sd/j/jackm/lorrax_sandbox/sources/lorrax_D/src/common/wfn_transforms.py" source_line=404 scheduling_name="multiply.149.5"}
  %multiply.150.5 = f64[9,24]{1,0} multiply(%multiply.149.5, %exponential.19.3), metadata={op_name="jit(fn)/jit(main)/exp" source_file="/pscratch/sd/j/jackm/lorrax_sandbox/sources/lorrax_D/src/common/wfn_transforms.py" source_line=404 scheduling_name="multiply.150.5"}
  %multiply.151.3 = f64[9,24]{1,0} multiply(%exponential.18.2, %sine.9.3), metadata={op_name="jit(fn)/jit(main)/exp" source_file="/pscratch/sd/j/jackm/lorrax_sandbox/sources/lorrax_D/src/common/wfn_transforms.py" source_line=404 scheduling_name="multiply.151.3"}
  %select.37.3 = f64[9,24]{1,0} select(%compare.27.3, %multiply.150.5, %multiply.151.3), metadata={op_name="jit(fn)/jit(main)/exp" source_file="/pscratch/sd/j/jackm/lorrax_sandbox/sources/lorrax_D/src/common/wfn_transforms.py" source_line=404 scheduling_name="select.37.3"}
  %select.38.1 = f64[9,24]{1,0} select(%compare.28.1, %broadcast.129.2, %select.37.3), metadata={op_name="jit(fn)/jit(main)/exp" source_file="/pscratch/sd/j/jackm/lorrax_sandbox/sources/lorrax_D/src/common/wfn_transforms.py" source_line=404 scheduling_name="select.38.1"}
  %slice.22.5.clone.1 = c128[9,1]{1,0} slice(%convert.20.15), slice={[0:9], [1:2]}, metadata={op_name="jit(fn)/jit(main)/slice" source_file="/pscratch/sd/j/jackm/lorrax_sandbox/sources/lorrax_D/src/common/wfn_transforms.py" source_line=405 scheduling_name="slice.22.5.clone.1"}
  %multiply.154.3.clone.1 = c128[9,1]{1,0} multiply(%slice.22.5.clone.1, %broadcast.123.9), metadata={op_name="jit(fn)/jit(main)/mul" source_file="/pscratch/sd/j/jackm/lorrax_sandbox/sources/lorrax_D/src/common/wfn_transforms.py" source_line=405 scheduling_name="multiply.154.3.clone.1"}
  %bitcast.797.13.clone.1 = c128[9]{0} bitcast(%multiply.154.3.clone.1), metadata={scheduling_name="bitcast.797.13.clone.1"}
  %broadcast.134.13.clone.1 = c128[9,24]{1,0} broadcast(%bitcast.797.13.clone.1), dimensions={0}, metadata={op_name="jit(fn)/jit(main)/mul" source_file="/pscratch/sd/j/jackm/lorrax_sandbox/sources/lorrax_D/src/common/wfn_transforms.py" source_line=405 scheduling_name="broadcast.134.13.clone.1"}
  %multiply.155.11.clone.1 = c128[9,24]{1,0} multiply(%broadcast.134.13.clone.1, %broadcast.126.16), metadata={op_name="jit(fn)/jit(main)/mul" source_file="/pscratch/sd/j/jackm/lorrax_sandbox/sources/lorrax_D/src/common/wfn_transforms.py" source_line=405 scheduling_name="multiply.155.11.clone.1"}
  %imag.10.3.clone.1 = f64[9,24]{1,0} imag(%multiply.155.11.clone.1), metadata={op_name="jit(fn)/jit(main)/exp" source_file="/pscratch/sd/j/jackm/lorrax_sandbox/sources/lorrax_D/src/common/wfn_transforms.py" source_line=405 scheduling_name="imag.10.3.clone.1"}
  %compare.30.1.clone.1 = pred[9,24]{1,0} compare(%imag.10.3.clone.1, %broadcast.129.2), direction=EQ, metadata={op_name="jit(fn)/jit(main)/exp" source_file="/pscratch/sd/j/jackm/lorrax_sandbox/sources/lorrax_D/src/common/wfn_transforms.py" source_line=405 scheduling_name="compare.30.1.clone.1"}
  %real.10.5.clone.1 = f64[9,24]{1,0} real(%multiply.155.11.clone.1), metadata={op_name="jit(fn)/jit(main)/exp" source_file="/pscratch/sd/j/jackm/lorrax_sandbox/sources/lorrax_D/src/common/wfn_transforms.py" source_line=405 scheduling_name="real.10.5.clone.1"}
  %exponential.20.2.clone.1 = f64[9,24]{1,0} exponential(%real.10.5.clone.1), metadata={op_name="jit(fn)/jit(main)/exp" source_file="/pscratch/sd/j/jackm/lorrax_sandbox/sources/lorrax_D/src/common/wfn_transforms.py" source_line=405 scheduling_name="exponential.20.2.clone.1"}
  %compare.29.3.clone.1 = pred[9,24]{1,0} compare(%exponential.20.2.clone.1, %broadcast.127.8), direction=EQ, metadata={op_name="jit(fn)/jit(main)/exp" source_file="/pscratch/sd/j/jackm/lorrax_sandbox/sources/lorrax_D/src/common/wfn_transforms.py" source_line=405 scheduling_name="compare.29.3.clone.1"}
  %multiply.156.5.clone.1 = f64[9,24]{1,0} multiply(%real.10.5.clone.1, %broadcast.128.12), metadata={op_name="jit(fn)/jit(main)/exp" source_file="/pscratch/sd/j/jackm/lorrax_sandbox/sources/lorrax_D/src/common/wfn_transforms.py" source_line=405 scheduling_name="multiply.156.5.clone.1"}
  %exponential.21.3.clone.1 = f64[9,24]{1,0} exponential(%multiply.156.5.clone.1), metadata={op_name="jit(fn)/jit(main)/exp" source_file="/pscratch/sd/j/jackm/lorrax_sandbox/sources/lorrax_D/src/common/wfn_transforms.py" source_line=405 scheduling_name="exponential.21.3.clone.1"}
  %sine.10.3.clone.1 = f64[9,24]{1,0} sine(%imag.10.3.clone.1), metadata={op_name="jit(fn)/jit(main)/exp" source_file="/pscratch/sd/j/jackm/lorrax_sandbox/sources/lorrax_D/src/common/wfn_transforms.py" source_line=405 scheduling_name="sine.10.3.clone.1"}
  %multiply.160.5.clone.1 = f64[9,24]{1,0} multiply(%exponential.21.3.clone.1, %sine.10.3.clone.1), metadata={op_name="jit(fn)/jit(main)/exp" source_file="/pscratch/sd/j/jackm/lorrax_sandbox/sources/lorrax_D/src/common/wfn_transforms.py" source_line=405 scheduling_name="multiply.160.5.clone.1"}
  %multiply.161.5.clone.1 = f64[9,24]{1,0} multiply(%multiply.160.5.clone.1, %exponential.21.3.clone.1), metadata={op_name="jit(fn)/jit(main)/exp" source_file="/pscratch/sd/j/jackm/lorrax_sandbox/sources/lorrax_D/src/common/wfn_transforms.py" source_line=405 scheduling_name="multiply.161.5.clone.1"}
  %multiply.163.3.clone.1 = f64[9,24]{1,0} multiply(%exponential.20.2.clone.1, %sine.10.3.clone.1), metadata={op_name="jit(fn)/jit(main)/exp" source_file="/pscratch/sd/j/jackm/lorrax_sandbox/sources/lorrax_D/src/common/wfn_transforms.py" source_line=405 scheduling_name="multiply.163.3.clone.1"}
  %select.40.3.clone.1 = f64[9,24]{1,0} select(%compare.29.3.clone.1, %multiply.161.5.clone.1, %multiply.163.3.clone.1), metadata={op_name="jit(fn)/jit(main)/exp" source_file="/pscratch/sd/j/jackm/lorrax_sandbox/sources/lorrax_D/src/common/wfn_transforms.py" source_line=405 scheduling_name="select.40.3.clone.1"}
  %select.41.1.clone.1 = f64[9,24]{1,0} select(%compare.30.1.clone.1, %broadcast.129.2, %select.40.3.clone.1), metadata={op_name="jit(fn)/jit(main)/exp" source_file="/pscratch/sd/j/jackm/lorrax_sandbox/sources/lorrax_D/src/common/wfn_transforms.py" source_line=405 scheduling_name="select.41.1.clone.1"}
  ROOT %tuple = (f64[9,24]{1,0}, f64[9,24]{1,0}) tuple(%select.38.1, %select.41.1.clone.1), metadata={scheduling_name="tuple"}
}

ENTRY %main.298_spmd (param.4: c128[9,8,2,1963], param.1.0: s32[9,24,24,80], param.3.0: s32[640,3], param.2.0: f64[9,3]) -> c128[9,8,2,640] {
  %param.4 = c128[9,8,2,1963]{3,2,1,0} parameter(0), sharding={devices=[1,4,1,1]<=[4]}, metadata={op_name="psi_" scheduling_name="param.4"}
  %param.1.0 = s32[9,24,24,80]{3,2,1,0} parameter(1), sharding={replicated}, metadata={op_name="g_index_" scheduling_name="param.1.0"}
  %param.2.0 = f64[9,3]{1,0} parameter(3), sharding={replicated}, metadata={op_name="kvecs_" scheduling_name="param.2.0"}
  %param.3.0 = s32[640,3]{1,0} parameter(2), sharding={replicated}, metadata={op_name="r_mu_" scheduling_name="param.3.0"}
  %loop_gather_fusion = c128[414720,1,8,2]{0,3,2,1} fusion(%param.4, %param.1.0), kind=kLoop, calls=%fused_gather, metadata={op_name="jit(fn)/jit(main)/jit(_take)/gather" source_file="/pscratch/sd/j/jackm/lorrax_sandbox/sources/lorrax_D/src/common/wfn_transforms.py" source_line=104 scheduling_name="loop_gather_fusion"}
  %bitcast.703.0 = c128[9,8,2,24,24,80]{5,4,3,0,2,1} bitcast(%loop_gather_fusion), metadata={scheduling_name="bitcast.703.0"}
  %all-gather-start = (c128[9,8,2,24,24,80]{5,4,3,0,2,1}, c128[9,32,2,24,24,80]{5,4,3,0,2,1}) all-gather-start(%bitcast.703.0), channel_id=1, replica_groups=[1,4]<=[4], dimensions={1}, use_global_device_ids=true, metadata={op_name="jit(fn)/jit(main)/jit(fft)/fft" source_file="/pscratch/sd/j/jackm/lorrax_sandbox/sources/lorrax_D/src/common/wfn_transforms.py" source_line=287 scheduling_name="all-gather-start"}, backend_config={"operation_queue_id":"0","wait_on_operation_queues":[],"collective_backend_config":{"is_sync":false,"no_parallel_custom_call":true,"is_pipelined":false,"reification_cost":[]},"force_earliest_schedule":false}
  %loop_select_fusion = f64[9,80]{1,0} fusion(%param.2.0), kind=kLoop, calls=%fused_select, metadata={op_name="jit(fn)/jit(main)/exp" source_file="/pscratch/sd/j/jackm/lorrax_sandbox/sources/lorrax_D/src/common/wfn_transforms.py" source_line=406 scheduling_name="loop_select_fusion"}
  %all-gather-done = c128[9,32,2,24,24,80]{5,4,3,0,2,1} all-gather-done(%all-gather-start), metadata={op_name="jit(fn)/jit(main)/jit(fft)/fft" source_file="/pscratch/sd/j/jackm/lorrax_sandbox/sources/lorrax_D/src/common/wfn_transforms.py" source_line=287 scheduling_name="all-gather-done"}
  %loop_transpose_fusion = c128[9,64,46080]{2,1,0} fusion(%all-gather-done), kind=kLoop, calls=%fused_transpose, metadata={op_name="jit(fn)/jit(main)/jit(fft)/fft" source_file="/pscratch/sd/j/jackm/lorrax_sandbox/sources/lorrax_D/src/common/wfn_transforms.py" source_line=287 scheduling_name="loop_transpose_fusion"}
  %loop_select_fusion.1 = (f64[9,24]{1,0}, f64[9,24]{1,0}) fusion(%param.2.0), kind=kLoop, calls=%fused_select.1, metadata={op_name="jit(fn)/jit(main)/exp" source_file="/pscratch/sd/j/jackm/lorrax_sandbox/sources/lorrax_D/src/common/wfn_transforms.py" source_line=404 scheduling_name="loop_select_fusion.1"}
  %partition-id.1 = u32[] partition-id(), metadata={op_name="jit(fn)/jit(main)/mul" source_file="/pscratch/sd/j/jackm/lorrax_sandbox/sources/lorrax_D/src/common/wfn_transforms.py" source_line=416 scheduling_name="partition-id.1"}
  %bitcast.710.0 = c128[9,32,2,24,24,80]{5,4,3,2,1,0} bitcast(%loop_transpose_fusion), metadata={scheduling_name="bitcast.710.0"}
  %fft.1.0 = c128[9,32,2,24,24,80]{5,4,3,2,1,0} fft(%bitcast.710.0), fft_type=IFFT, fft_length={24,24,80}, metadata={op_name="jit(fn)/jit(main)/jit(fft)/fft" source_file="/pscratch/sd/j/jackm/lorrax_sandbox/sources/lorrax_D/src/common/wfn_transforms.py" source_line=287 scheduling_name="fft.1.0"}
  %get-tuple-element.1 = f64[9,24]{1,0} get-tuple-element(%loop_select_fusion.1), index=1, metadata={op_name="jit(fn)/jit(main)/exp" source_file="/pscratch/sd/j/jackm/lorrax_sandbox/sources/lorrax_D/src/common/wfn_transforms.py" source_line=404 scheduling_name="get-tuple-element.1"}
  %get-tuple-element = f64[9,24]{1,0} get-tuple-element(%loop_select_fusion.1), index=0, metadata={op_name="jit(fn)/jit(main)/exp" source_file="/pscratch/sd/j/jackm/lorrax_sandbox/sources/lorrax_D/src/common/wfn_transforms.py" source_line=404 scheduling_name="get-tuple-element"}
  %loop_gather_fusion.1 = c128[640,1,1,1,9,8,2]{0,6,5,4,3,2,1} fusion(%fft.1.0, %loop_select_fusion, %get-tuple-element.1, %get-tuple-element, %param.3.0, /*index=5*/%partition-id.1, %param.2.0), kind=kLoop, calls=%fused_gather.1, metadata={op_name="jit(fn)/jit(main)/gather" source_file="/pscratch/sd/j/jackm/lorrax_sandbox/sources/lorrax_D/src/common/wfn_transforms.py" source_line=289 scheduling_name="loop_gather_fusion.1"}
  ROOT %bitcast.316.0 = c128[9,8,2,640]{3,2,1,0} bitcast(%loop_gather_fusion.1), metadata={op_name="jit(fn)/jit(main)/gather" source_file="/pscratch/sd/j/jackm/lorrax_sandbox/sources/lorrax_D/src/common/wfn_transforms.py" source_line=289 scheduling_name="bitcast.316.0"}
}

