HloModule jit__kernel, entry_computation_layout={(c128[64,60,2,588]{3,2,1,0}, f64[64,588,3]{2,1,0}, f64[64,3]{1,0}, f64[3,3]{1,0})->c128[64,60,4,588]{3,2,1,0}}, allow_spmd_sharding_propagation_to_parameters={true,true,true,true}, allow_spmd_sharding_propagation_to_output={true}

FileNames
1 "<frozen runpy>"
2 "/pscratch/sd/j/jackm/lorrax_sandbox/sources/lorrax_B/src/gw/gw_jax.py"
3 "/pscratch/sd/j/jackm/lorrax_sandbox/sources/lorrax_B/src/gw/gw_init.py"
4 "/pscratch/sd/j/jackm/lorrax_sandbox/sources/lorrax_B/src/common/load_wfns.py"
5 "/pscratch/sd/j/jackm/lorrax_sandbox/sources/lorrax_B/src/file_io/wfn_loader.py"

FunctionNames
1 "_run_module_as_main"
2 "_run_code"
3 "<module>"
4 "main"
5 "prepare_isdf_and_wavefunctions"
6 "load_centroids_band_chunked"
7 "WfnLoader.load"
8 "WfnLoader._apply_bispinor_lift"
9 "_bispinor_lift_kernel"
10 "_get_bispinor_lift_jit.<locals>._kernel"

FileLocations
1 {file_name_id=1 function_name_id=1 line=198 end_line=199 column=11 end_column=42}
2 {file_name_id=1 function_name_id=2 line=88 end_line=88 column=4 end_column=27}
3 {file_name_id=2 function_name_id=3 line=956 end_line=956 column=18 end_column=24}
4 {file_name_id=2 function_name_id=4 line=169 end_line=181 column=8 end_column=2}
5 {file_name_id=3 function_name_id=5 line=1222 end_line=1226 column=28 end_column=5}
6 {file_name_id=4 function_name_id=6 line=462 end_line=464 column=21 end_column=54}
7 {file_name_id=5 function_name_id=7 line=876 end_line=877 column=20 end_column=72}
8 {file_name_id=5 function_name_id=8 line=947 end_line=953 column=15 end_column=9}
9 {file_name_id=5 function_name_id=9 line=1091 end_line=1091 column=11 end_column=70}
10 {file_name_id=5 function_name_id=10 line=1067 end_line=1068 column=16 end_column=56}
11 {file_name_id=5 function_name_id=10 line=1053 end_line=1053 column=22 end_column=39}
12 {file_name_id=5 function_name_id=10 line=1053 end_line=1053 column=14 end_column=39}
13 {file_name_id=5 function_name_id=10 line=1054 end_line=1054 column=17 end_column=27}
14 {file_name_id=5 function_name_id=10 line=1055 end_line=1055 column=13 end_column=27}
15 {file_name_id=5 function_name_id=10 line=1056 end_line=1056 column=13 end_column=27}
16 {file_name_id=5 function_name_id=10 line=1057 end_line=1057 column=13 end_column=27}
17 {file_name_id=5 function_name_id=10 line=1062 end_line=1062 column=34 end_column=41}
18 {file_name_id=5 function_name_id=10 line=1062 end_line=1062 column=29 end_column=41}
19 {file_name_id=5 function_name_id=10 line=1062 end_line=1062 column=13 end_column=52}
20 {file_name_id=5 function_name_id=10 line=1063 end_line=1063 column=29 end_column=36}
21 {file_name_id=5 function_name_id=10 line=1063 end_line=1063 column=24 end_column=36}
22 {file_name_id=5 function_name_id=10 line=1063 end_line=1063 column=38 end_column=41}
23 {file_name_id=5 function_name_id=10 line=1063 end_line=1063 column=13 end_column=52}
24 {file_name_id=5 function_name_id=10 line=1061 end_line=1065 column=14 end_column=9}
25 {file_name_id=5 function_name_id=10 line=1067 end_line=1068 column=28 end_column=56}
26 {file_name_id=5 function_name_id=10 line=1069 end_line=1069 column=14 end_column=53}

StackFrames
1 {file_location_id=1 parent_frame_id=1}
2 {file_location_id=2 parent_frame_id=2}
3 {file_location_id=3 parent_frame_id=3}
4 {file_location_id=4 parent_frame_id=4}
5 {file_location_id=5 parent_frame_id=5}
6 {file_location_id=6 parent_frame_id=6}
7 {file_location_id=7 parent_frame_id=7}
8 {file_location_id=8 parent_frame_id=8}
9 {file_location_id=9 parent_frame_id=9}
10 {file_location_id=10 parent_frame_id=10}
11 {file_location_id=11 parent_frame_id=10}
12 {file_location_id=12 parent_frame_id=10}
13 {file_location_id=13 parent_frame_id=10}
14 {file_location_id=14 parent_frame_id=10}
15 {file_location_id=15 parent_frame_id=10}
16 {file_location_id=16 parent_frame_id=10}
17 {file_location_id=17 parent_frame_id=10}
18 {file_location_id=18 parent_frame_id=10}
19 {file_location_id=19 parent_frame_id=10}
20 {file_location_id=20 parent_frame_id=10}
21 {file_location_id=21 parent_frame_id=10}
22 {file_location_id=22 parent_frame_id=10}
23 {file_location_id=23 parent_frame_id=10}
24 {file_location_id=24 parent_frame_id=10}
25 {file_location_id=25 parent_frame_id=10}
26 {file_location_id=26 parent_frame_id=10}


ENTRY %main.1 (psi_2.1: c128[64,60,2,588], gvecs.1: f64[64,588,3], kvecs.1: f64[64,3], bvec.1: f64[3,3]) -> c128[64,60,4,588] {
  %psi_2.1 = c128[64,60,2,588]{3,2,1,0} parameter(0), metadata={op_name="psi_2"}
  %gvecs.1 = f64[64,588,3]{2,1,0} parameter(1), metadata={op_name="gvecs"}
  %kvecs.1 = f64[64,3]{1,0} parameter(2), metadata={op_name="kvecs"}
  %broadcast_in_dim.7 = f64[64,1,3]{2,1,0} reshape(%kvecs.1), metadata={op_name="jit(_kernel)/broadcast_in_dim" stack_frame_id=11}
  %add.5 = f64[64,1,3]{2,1,0} broadcast(%broadcast_in_dim.7), dimensions={0,1,2}, metadata={op_name="jit(_kernel)/add" stack_frame_id=12}
  %add.6 = f64[64,3]{1,0} reshape(%add.5), metadata={op_name="jit(_kernel)/add" stack_frame_id=12}
  %add.7 = f64[64,588,3]{2,1,0} broadcast(%add.6), dimensions={0,2}, metadata={op_name="jit(_kernel)/add" stack_frame_id=12}
  %add.8 = f64[64,588,3]{2,1,0} add(%gvecs.1, %add.7), metadata={op_name="jit(_kernel)/add" stack_frame_id=12}
  %bvec.1 = f64[3,3]{1,0} parameter(3), metadata={op_name="bvec"}
  %dot_general.2 = f64[64,588,3]{2,1,0} dot(%add.8, %bvec.1), lhs_contracting_dims={2}, rhs_contracting_dims={0}, metadata={op_name="jit(_kernel)/dot_general" stack_frame_id=13}
  %slice.5 = f64[64,588,1]{2,1,0} slice(%dot_general.2), slice={[0:64], [0:588], [2:3]}, metadata={op_name="jit(_kernel)/slice" stack_frame_id=16}
  %squeeze.5 = f64[64,588]{1,0} reshape(%slice.5), metadata={op_name="jit(_kernel)/squeeze" stack_frame_id=16}
  %convert_element_type.5 = c128[64,588]{1,0} convert(%squeeze.5), metadata={op_name="jit(_kernel)/convert_element_type" stack_frame_id=16}
  %broadcast_in_dim.8 = c128[64,588,1]{2,1,0} reshape(%convert_element_type.5), metadata={op_name="jit(_kernel)/broadcast_in_dim" stack_frame_id=19}
  %slice.3 = f64[64,588,1]{2,1,0} slice(%dot_general.2), slice={[0:64], [0:588], [0:1]}, metadata={op_name="jit(_kernel)/slice" stack_frame_id=14}
  %squeeze.3 = f64[64,588]{1,0} reshape(%slice.3), metadata={op_name="jit(_kernel)/squeeze" stack_frame_id=14}
  %convert_element_type.3 = c128[64,588]{1,0} convert(%squeeze.3), metadata={op_name="jit(_kernel)/convert_element_type" stack_frame_id=14}
  %slice.4 = f64[64,588,1]{2,1,0} slice(%dot_general.2), slice={[0:64], [0:588], [1:2]}, metadata={op_name="jit(_kernel)/slice" stack_frame_id=15}
  %squeeze.4 = f64[64,588]{1,0} reshape(%slice.4), metadata={op_name="jit(_kernel)/squeeze" stack_frame_id=15}
  %convert_element_type.4 = c128[64,588]{1,0} convert(%squeeze.4), metadata={op_name="jit(_kernel)/convert_element_type" stack_frame_id=15}
  %constant.3 = c128[] constant((0, 1))
  %broadcast.1 = c128[64,588]{1,0} broadcast(%constant.3), dimensions={}
  %mul.5 = c128[64,588]{1,0} multiply(%convert_element_type.4, %broadcast.1), metadata={op_name="jit(_kernel)/mul" stack_frame_id=17}
  %sub.1 = c128[64,588]{1,0} subtract(%convert_element_type.3, %mul.5), metadata={op_name="jit(_kernel)/sub" stack_frame_id=18}
  %broadcast_in_dim.9 = c128[64,588,1]{2,1,0} reshape(%sub.1), metadata={op_name="jit(_kernel)/broadcast_in_dim" stack_frame_id=19}
  %concatenate.4 = c128[64,588,2]{2,1,0} concatenate(%broadcast_in_dim.8, %broadcast_in_dim.9), dimensions={2}, metadata={op_name="jit(_kernel)/concatenate" stack_frame_id=19}
  %broadcast_in_dim.12 = c128[64,588,1,2]{3,2,1,0} reshape(%concatenate.4), metadata={op_name="jit(_kernel)/broadcast_in_dim" stack_frame_id=24}
  %mul.6 = c128[64,588]{1,0} multiply(%convert_element_type.4, %broadcast.1), metadata={op_name="jit(_kernel)/mul" stack_frame_id=20}
  %add.9 = c128[64,588]{1,0} add(%convert_element_type.3, %mul.6), metadata={op_name="jit(_kernel)/add" stack_frame_id=21}
  %broadcast_in_dim.10 = c128[64,588,1]{2,1,0} reshape(%add.9), metadata={op_name="jit(_kernel)/broadcast_in_dim" stack_frame_id=23}
  %neg.1 = c128[64,588]{1,0} negate(%convert_element_type.5), metadata={op_name="jit(_kernel)/neg" stack_frame_id=22}
  %broadcast_in_dim.11 = c128[64,588,1]{2,1,0} reshape(%neg.1), metadata={op_name="jit(_kernel)/broadcast_in_dim" stack_frame_id=23}
  %concatenate.5 = c128[64,588,2]{2,1,0} concatenate(%broadcast_in_dim.10, %broadcast_in_dim.11), dimensions={2}, metadata={op_name="jit(_kernel)/concatenate" stack_frame_id=23}
  %broadcast_in_dim.13 = c128[64,588,1,2]{3,2,1,0} reshape(%concatenate.5), metadata={op_name="jit(_kernel)/broadcast_in_dim" stack_frame_id=24}
  %concatenate.6 = c128[64,588,2,2]{3,2,1,0} concatenate(%broadcast_in_dim.12, %broadcast_in_dim.13), dimensions={2}, metadata={op_name="jit(_kernel)/concatenate" stack_frame_id=24}
  %dot_general.3 = c128[64,588,60,2]{3,2,1,0} dot(%psi_2.1, %concatenate.6), lhs_batch_dims={0,3}, lhs_contracting_dims={2}, rhs_batch_dims={0,1}, rhs_contracting_dims={3}, metadata={op_name="jit(_kernel)/kgij,kbjg->kbig/dot_general" stack_frame_id=25}
  %transpose.1 = c128[64,60,2,588]{2,1,3,0} transpose(%dot_general.3), dimensions={0,2,3,1}, metadata={op_name="jit(_kernel)/kgij,kbjg->kbig/transpose" stack_frame_id=25}
  %constant.2 = c128[] constant((0.00364867628215, 0))
  %mul.4 = c128[64,60,2,588]{3,2,1,0} broadcast(%constant.2), dimensions={}, metadata={op_name="jit(_kernel)/mul" stack_frame_id=10}
  %mul.7 = c128[64,60,2,588]{2,1,3,0} multiply(%transpose.1, %mul.4), metadata={op_name="jit(_kernel)/mul" stack_frame_id=10}
  ROOT %concatenate.7 = c128[64,60,4,588]{3,2,1,0} concatenate(%psi_2.1, %mul.7), dimensions={2}, metadata={op_name="jit(_kernel)/concatenate" stack_frame_id=26}
}

