HloModule jit__kernel, is_scheduled=true, entry_computation_layout={(c128[64,60,2,588]{3,2,1,0}, f64[64,588,3]{2,1,0}, f64[64,3]{1,0}, f64[3,3]{1,0})->c128[64,60,4,588]{3,2,1,0}}, allow_spmd_sharding_propagation_to_parameters={true,true,true,true}, allow_spmd_sharding_propagation_to_output={true}

FileNames
1 "<frozen runpy>"
2 "/pscratch/sd/j/jackm/lorrax_sandbox/sources/lorrax_B/src/gw/gw_jax.py"
3 "/pscratch/sd/j/jackm/lorrax_sandbox/sources/lorrax_B/src/gw/gw_init.py"
4 "/pscratch/sd/j/jackm/lorrax_sandbox/sources/lorrax_B/src/common/load_wfns.py"
5 "/pscratch/sd/j/jackm/lorrax_sandbox/sources/lorrax_B/src/file_io/wfn_loader.py"

FunctionNames
1 "_run_module_as_main"
2 "_run_code"
3 "<module>"
4 "main"
5 "prepare_isdf_and_wavefunctions"
6 "load_centroids_band_chunked"
7 "WfnLoader.load"
8 "WfnLoader._apply_bispinor_lift"
9 "_bispinor_lift_kernel"
10 "_get_bispinor_lift_jit.<locals>._kernel"

FileLocations
1 {file_name_id=1 function_name_id=1 line=198 end_line=199 column=11 end_column=42}
2 {file_name_id=1 function_name_id=2 line=88 end_line=88 column=4 end_column=27}
3 {file_name_id=2 function_name_id=3 line=956 end_line=956 column=18 end_column=24}
4 {file_name_id=2 function_name_id=4 line=169 end_line=181 column=8 end_column=2}
5 {file_name_id=3 function_name_id=5 line=1222 end_line=1226 column=28 end_column=5}
6 {file_name_id=4 function_name_id=6 line=462 end_line=464 column=21 end_column=54}
7 {file_name_id=5 function_name_id=7 line=876 end_line=877 column=20 end_column=72}
8 {file_name_id=5 function_name_id=8 line=947 end_line=953 column=15 end_column=9}
9 {file_name_id=5 function_name_id=9 line=1091 end_line=1091 column=11 end_column=70}
10 {file_name_id=5 function_name_id=10 line=1054 end_line=1054 column=17 end_column=27}
11 {file_name_id=5 function_name_id=10 line=1067 end_line=1068 column=28 end_column=56}
12 {file_name_id=5 function_name_id=10 line=1069 end_line=1069 column=14 end_column=53}
13 {file_name_id=5 function_name_id=10 line=1061 end_line=1065 column=14 end_column=9}
14 {file_name_id=5 function_name_id=10 line=1053 end_line=1053 column=14 end_column=39}
15 {file_name_id=5 function_name_id=10 line=1067 end_line=1068 column=16 end_column=56}
16 {file_name_id=5 function_name_id=10 line=1063 end_line=1063 column=13 end_column=52}
17 {file_name_id=5 function_name_id=10 line=1063 end_line=1063 column=38 end_column=41}
18 {file_name_id=5 function_name_id=10 line=1063 end_line=1063 column=24 end_column=36}
19 {file_name_id=5 function_name_id=10 line=1062 end_line=1062 column=13 end_column=52}
20 {file_name_id=5 function_name_id=10 line=1062 end_line=1062 column=29 end_column=41}
21 {file_name_id=5 function_name_id=10 line=1062 end_line=1062 column=34 end_column=41}
22 {file_name_id=5 function_name_id=10 line=1056 end_line=1056 column=13 end_column=27}
23 {file_name_id=5 function_name_id=10 line=1055 end_line=1055 column=13 end_column=27}
24 {file_name_id=5 function_name_id=10 line=1057 end_line=1057 column=13 end_column=27}

StackFrames
1 {file_location_id=1 parent_frame_id=1}
2 {file_location_id=2 parent_frame_id=2}
3 {file_location_id=3 parent_frame_id=3}
4 {file_location_id=4 parent_frame_id=4}
5 {file_location_id=5 parent_frame_id=5}
6 {file_location_id=6 parent_frame_id=6}
7 {file_location_id=7 parent_frame_id=7}
8 {file_location_id=8 parent_frame_id=8}
9 {file_location_id=9 parent_frame_id=9}
10 {file_location_id=10 parent_frame_id=10}
11 {file_location_id=11 parent_frame_id=10}
12 {file_location_id=12 parent_frame_id=10}
13 {file_location_id=13 parent_frame_id=10}
14 {file_location_id=14 parent_frame_id=10}
15 {file_location_id=15 parent_frame_id=10}
16 {file_location_id=16 parent_frame_id=10}
17 {file_location_id=17 parent_frame_id=10}
18 {file_location_id=18 parent_frame_id=10}
19 {file_location_id=19 parent_frame_id=10}
20 {file_location_id=20 parent_frame_id=10}
21 {file_location_id=21 parent_frame_id=10}
22 {file_location_id=22 parent_frame_id=10}
23 {file_location_id=23 parent_frame_id=10}
24 {file_location_id=24 parent_frame_id=10}


%fused_computation (param_0: c128[64,60,2,588], param_1.3: c128[64,588,60,2]) -> c128[64,60,4,588] {
  %param_0 = c128[64,60,2,588]{3,2,1,0} parameter(0)
  %param_1.3 = c128[64,588,60,2]{3,2,1,0} parameter(1)
  %constant.0 = c128[] constant((0.00364867628215, 0))
  %broadcast.7 = c128[64,588,60,2]{3,2,1,0} broadcast(%constant.0), dimensions={}, metadata={op_name="jit(_kernel)/mul" stack_frame_id=15}
  %mul.3 = c128[64,588,60,2]{3,2,1,0} multiply(%param_1.3, %broadcast.7), metadata={op_name="jit(_kernel)/mul" stack_frame_id=15}
  %transpose.9 = c128[64,60,2,588]{2,1,3,0} transpose(%mul.3), dimensions={0,2,3,1}, metadata={op_name="jit(_kernel)/mul" stack_frame_id=15}
  %copy.2 = c128[64,60,2,588]{3,2,1,0} copy(%transpose.9), metadata={op_name="jit(_kernel)/mul" stack_frame_id=15}
  ROOT %concatenate.0 = c128[64,60,4,588]{3,2,1,0} concatenate(%param_0, %copy.2), dimensions={2}, metadata={op_name="jit(_kernel)/concatenate" stack_frame_id=12}
}

%fused_computation.1 (param_0.4: f64[37632,3]) -> c128[64,588,2,2] {
  %param_0.4 = f64[37632,3]{1,0} parameter(0)
  %bitcast.6 = f64[64,588,3]{2,1,0} bitcast(%param_0.4), metadata={op_name="jit(_kernel)/dot_general" stack_frame_id=10}
  %slice.2 = f64[64,588,1]{2,1,0} slice(%bitcast.6), slice={[0:64], [0:588], [2:3]}, metadata={op_name="jit(_kernel)/slice" stack_frame_id=24}
  %convert_element_type.8 = c128[64,588,1]{2,1,0} convert(%slice.2), metadata={op_name="jit(_kernel)/convert_element_type" stack_frame_id=24}
  %slice.1 = f64[64,588,1]{2,1,0} slice(%bitcast.6), slice={[0:64], [0:588], [0:1]}, metadata={op_name="jit(_kernel)/slice" stack_frame_id=23}
  %convert_element_type.7 = c128[64,588,1]{2,1,0} convert(%slice.1), metadata={op_name="jit(_kernel)/convert_element_type" stack_frame_id=23}
  %slice.0 = f64[64,588,1]{2,1,0} slice(%bitcast.6), slice={[0:64], [0:588], [1:2]}, metadata={op_name="jit(_kernel)/slice" stack_frame_id=22}
  %convert_element_type.6 = c128[64,588,1]{2,1,0} convert(%slice.0), metadata={op_name="jit(_kernel)/convert_element_type" stack_frame_id=22}
  %constant.1 = c128[] constant((0, 1))
  %broadcast.8 = c128[64,588,1]{2,1,0} broadcast(%constant.1), dimensions={}
  %mul.8 = c128[64,588,1]{2,1,0} multiply(%convert_element_type.6, %broadcast.8), metadata={op_name="jit(_kernel)/mul" stack_frame_id=21}
  %sub.2 = c128[64,588,1]{2,1,0} subtract(%convert_element_type.7, %mul.8), metadata={op_name="jit(_kernel)/sub" stack_frame_id=20}
  %concatenate.3 = c128[64,588,2]{2,1,0} concatenate(%convert_element_type.8, %sub.2), dimensions={2}, metadata={op_name="jit(_kernel)/concatenate" stack_frame_id=19}
  %bitcast.5 = c128[64,588,1,2]{3,2,1,0} bitcast(%concatenate.3), metadata={op_name="jit(_kernel)/concatenate" stack_frame_id=19}
  %add.1 = c128[64,588,1]{2,1,0} add(%convert_element_type.7, %mul.8), metadata={op_name="jit(_kernel)/add" stack_frame_id=18}
  %neg.2 = c128[64,588,1]{2,1,0} negate(%convert_element_type.8), metadata={op_name="jit(_kernel)/neg" stack_frame_id=17}
  %concatenate.2 = c128[64,588,2]{2,1,0} concatenate(%add.1, %neg.2), dimensions={2}, metadata={op_name="jit(_kernel)/concatenate" stack_frame_id=16}
  %bitcast.4 = c128[64,588,1,2]{3,2,1,0} bitcast(%concatenate.2), metadata={op_name="jit(_kernel)/concatenate" stack_frame_id=16}
  ROOT %concatenate.1 = c128[64,588,2,2]{3,2,1,0} concatenate(%bitcast.5, %bitcast.4), dimensions={2}, metadata={op_name="jit(_kernel)/concatenate" stack_frame_id=13}
}

%fused_computation.2 (param_0.6: f64[64,588,3], param_1.12: f64[64,3]) -> f64[37632,3] {
  %param_0.6 = f64[64,588,3]{2,1,0} parameter(0)
  %param_1.12 = f64[64,3]{1,0} parameter(1)
  %add.3 = f64[64,588,3]{2,1,0} broadcast(%param_1.12), dimensions={0,2}, metadata={op_name="jit(_kernel)/add" stack_frame_id=14}
  %add.2 = f64[64,588,3]{2,1,0} add(%param_0.6, %add.3), metadata={op_name="jit(_kernel)/add" stack_frame_id=14}
  ROOT %bitcast.7 = f64[37632,3]{1,0} bitcast(%add.2), metadata={op_name="jit(_kernel)/add" stack_frame_id=14}
}

%fused_computation.3 (param_0.8: c128[64,60,2,588]) -> c128[64,588,60,2] {
  %param_0.8 = c128[64,60,2,588]{3,2,1,0} parameter(0)
  %transpose.10 = c128[64,588,60,2]{1,3,2,0} transpose(%param_0.8), dimensions={0,3,1,2}, metadata={op_name="psi_2"}
  ROOT %copy.3 = c128[64,588,60,2]{3,2,1,0} copy(%transpose.10), metadata={op_name="psi_2"}
}

ENTRY %main.1 (psi_2.1: c128[64,60,2,588], gvecs.1: f64[64,588,3], kvecs.1: f64[64,3], bvec.1: f64[3,3]) -> c128[64,60,4,588] {
  %psi_2.1 = c128[64,60,2,588]{3,2,1,0} parameter(0), metadata={op_name="psi_2"}
  %gvecs.1 = f64[64,588,3]{2,1,0} parameter(1), metadata={op_name="gvecs"}
  %kvecs.1 = f64[64,3]{1,0} parameter(2), metadata={op_name="kvecs"}
  %bvec.1 = f64[3,3]{1,0} parameter(3), metadata={op_name="bvec"}
  %transpose_copy_fusion = c128[64,588,60,2]{3,2,1,0} fusion(%psi_2.1), kind=kLoop, calls=%fused_computation.3, metadata={op_name="psi_2"}, backend_config={"outer_dimension_partitions":["3"]}
  %add_bitcast_fusion = f64[37632,3]{1,0} fusion(%gvecs.1, %kvecs.1), kind=kLoop, calls=%fused_computation.2, metadata={op_name="jit(_kernel)/add" stack_frame_id=14}, backend_config={"outer_dimension_partitions":["3"]}
  %dot = f64[37632,3]{1,0} dot(%add_bitcast_fusion, %bvec.1), lhs_contracting_dims={1}, rhs_contracting_dims={0}, metadata={op_name="jit(_kernel)/dot_general" stack_frame_id=10}
  %bitcast_concatenate_fusion = c128[64,588,2,2]{3,2,1,0} fusion(%dot), kind=kLoop, calls=%fused_computation.1, metadata={op_name="jit(_kernel)/concatenate" stack_frame_id=13}, backend_config={"outer_dimension_partitions":["3"]}
  %dot.1 = c128[64,588,60,2]{3,2,1,0} dot(%transpose_copy_fusion, %bitcast_concatenate_fusion), lhs_batch_dims={0,1}, lhs_contracting_dims={3}, rhs_batch_dims={0,1}, rhs_contracting_dims={3}, metadata={op_name="jit(_kernel)/kgij,kbjg->kbig/dot_general" stack_frame_id=11}
  ROOT %copy_concatenate_fusion = c128[64,60,4,588]{3,2,1,0} fusion(%psi_2.1, %dot.1), kind=kLoop, calls=%fused_computation, metadata={op_name="jit(_kernel)/concatenate" stack_frame_id=12}, backend_config={"outer_dimension_partitions":["3"]}
}

