HloModule jit_species_structure_factors, entry_computation_layout={(f64[2,2,3]{2,1,0}, s32[2]{0}, f64[46080,3]{1,0})->c128[2,46080]{1,0}}, allow_spmd_sharding_propagation_to_parameters={true,true,true}, allow_spmd_sharding_propagation_to_output={true}

%None_0.8 (Arg_0.9: f64[2,3], Arg_1.10: f64[46080,3], Arg_2.11: s32[], Arg_3.12: c128[46080], Arg_4.13: s64[]) -> c128[46080] {
  %Arg_3.12 = c128[46080]{0} parameter(3), metadata={op_name="jit(species_structure_factors)/jit(main)/while/body/while/body/closed_call"}
  %Arg_1.10 = f64[46080,3]{1,0} parameter(1), metadata={op_name="jit(species_structure_factors)/jit(main)/while/body/while/body/closed_call"}
  %Arg_0.9 = f64[2,3]{1,0} parameter(0), metadata={op_name="jit(species_structure_factors)/jit(main)/while/body/while/body/closed_call"}
  %Arg_4.13 = s64[] parameter(4), metadata={op_name="jit(species_structure_factors)/jit(main)/while/body/while/body/closed_call"}
  %constant.23 = s64[] constant(0)
  %compare.24 = pred[] compare(%Arg_4.13, %constant.23), direction=LT, metadata={op_name="jit(species_structure_factors)/jit(main)/while/body/while/body/lt" source_file="/global/homes/j/jackm/software/lorrax_B/src/psp/ionic_gspace.py" source_line=60}
  %constant.22 = s64[] constant(2)
  %add.25 = s64[] add(%Arg_4.13, %constant.22), metadata={op_name="jit(species_structure_factors)/jit(main)/while/body/while/body/add" source_file="/global/homes/j/jackm/software/lorrax_B/src/psp/ionic_gspace.py" source_line=60}
  %select.26 = s64[] select(%compare.24, %add.25, %Arg_4.13), metadata={op_name="jit(species_structure_factors)/jit(main)/while/body/while/body/select_n" source_file="/global/homes/j/jackm/software/lorrax_B/src/psp/ionic_gspace.py" source_line=60}
  %dynamic-slice.27 = f64[1,3]{1,0} dynamic-slice(%Arg_0.9, %select.26, %constant.23), dynamic_slice_sizes={1,3}, metadata={op_name="jit(species_structure_factors)/jit(main)/while/body/while/body/dynamic_slice" source_file="/global/homes/j/jackm/software/lorrax_B/src/psp/ionic_gspace.py" source_line=60}
  %reshape.28 = f64[3]{0} reshape(%dynamic-slice.27), metadata={op_name="jit(species_structure_factors)/jit(main)/while/body/while/body/squeeze" source_file="/global/homes/j/jackm/software/lorrax_B/src/psp/ionic_gspace.py" source_line=60}
  %dot.29 = f64[46080]{0} dot(%Arg_1.10, %reshape.28), lhs_contracting_dims={1}, rhs_contracting_dims={0}, metadata={op_name="jit(species_structure_factors)/jit(main)/while/body/while/body/dot_general" source_file="/global/homes/j/jackm/software/lorrax_B/src/psp/ionic_gspace.py" source_line=60}
  %convert.30 = c128[46080]{0} convert(%dot.29), metadata={op_name="jit(species_structure_factors)/jit(main)/while/body/while/body/convert_element_type" source_file="/global/homes/j/jackm/software/lorrax_B/src/psp/ionic_gspace.py" source_line=60}
  %constant.14 = c128[] constant((0, -6.2831853071795862))
  %broadcast.15 = c128[46080]{0} broadcast(%constant.14), dimensions={}
  %multiply.31 = c128[46080]{0} multiply(%convert.30, %broadcast.15), metadata={op_name="jit(species_structure_factors)/jit(main)/while/body/while/body/mul" source_file="/global/homes/j/jackm/software/lorrax_B/src/psp/ionic_gspace.py" source_line=60}
  %real.32 = f64[46080]{0} real(%multiply.31), metadata={op_name="jit(species_structure_factors)/jit(main)/while/body/while/body/exp" source_file="/global/homes/j/jackm/software/lorrax_B/src/psp/ionic_gspace.py" source_line=60}
  %exponential.33 = f64[46080]{0} exponential(%real.32), metadata={op_name="jit(species_structure_factors)/jit(main)/while/body/while/body/exp" source_file="/global/homes/j/jackm/software/lorrax_B/src/psp/ionic_gspace.py" source_line=60}
  %constant.20 = f64[] constant(inf)
  %broadcast.21 = f64[46080]{0} broadcast(%constant.20), dimensions={}
  %compare.34 = pred[46080]{0} compare(%exponential.33, %broadcast.21), direction=EQ, metadata={op_name="jit(species_structure_factors)/jit(main)/while/body/while/body/exp" source_file="/global/homes/j/jackm/software/lorrax_B/src/psp/ionic_gspace.py" source_line=60}
  %constant.18 = f64[] constant(0.5)
  %broadcast.19 = f64[46080]{0} broadcast(%constant.18), dimensions={}
  %multiply.35 = f64[46080]{0} multiply(%real.32, %broadcast.19), metadata={op_name="jit(species_structure_factors)/jit(main)/while/body/while/body/exp" source_file="/global/homes/j/jackm/software/lorrax_B/src/psp/ionic_gspace.py" source_line=60}
  %exponential.36 = f64[46080]{0} exponential(%multiply.35), metadata={op_name="jit(species_structure_factors)/jit(main)/while/body/while/body/exp" source_file="/global/homes/j/jackm/software/lorrax_B/src/psp/ionic_gspace.py" source_line=60}
  %imag.37 = f64[46080]{0} imag(%multiply.31), metadata={op_name="jit(species_structure_factors)/jit(main)/while/body/while/body/exp" source_file="/global/homes/j/jackm/software/lorrax_B/src/psp/ionic_gspace.py" source_line=60}
  %cosine.38 = f64[46080]{0} cosine(%imag.37), metadata={op_name="jit(species_structure_factors)/jit(main)/while/body/while/body/exp" source_file="/global/homes/j/jackm/software/lorrax_B/src/psp/ionic_gspace.py" source_line=60}
  %multiply.39 = f64[46080]{0} multiply(%exponential.36, %cosine.38), metadata={op_name="jit(species_structure_factors)/jit(main)/while/body/while/body/exp" source_file="/global/homes/j/jackm/software/lorrax_B/src/psp/ionic_gspace.py" source_line=60}
  %multiply.40 = f64[46080]{0} multiply(%multiply.39, %exponential.36), metadata={op_name="jit(species_structure_factors)/jit(main)/while/body/while/body/exp" source_file="/global/homes/j/jackm/software/lorrax_B/src/psp/ionic_gspace.py" source_line=60}
  %multiply.41 = f64[46080]{0} multiply(%exponential.33, %cosine.38), metadata={op_name="jit(species_structure_factors)/jit(main)/while/body/while/body/exp" source_file="/global/homes/j/jackm/software/lorrax_B/src/psp/ionic_gspace.py" source_line=60}
  %select.42 = f64[46080]{0} select(%compare.34, %multiply.40, %multiply.41), metadata={op_name="jit(species_structure_factors)/jit(main)/while/body/while/body/exp" source_file="/global/homes/j/jackm/software/lorrax_B/src/psp/ionic_gspace.py" source_line=60}
  %constant.16 = f64[] constant(0)
  %broadcast.17 = f64[46080]{0} broadcast(%constant.16), dimensions={}
  %compare.43 = pred[46080]{0} compare(%imag.37, %broadcast.17), direction=EQ, metadata={op_name="jit(species_structure_factors)/jit(main)/while/body/while/body/exp" source_file="/global/homes/j/jackm/software/lorrax_B/src/psp/ionic_gspace.py" source_line=60}
  %sine.44 = f64[46080]{0} sine(%imag.37), metadata={op_name="jit(species_structure_factors)/jit(main)/while/body/while/body/exp" source_file="/global/homes/j/jackm/software/lorrax_B/src/psp/ionic_gspace.py" source_line=60}
  %multiply.45 = f64[46080]{0} multiply(%exponential.36, %sine.44), metadata={op_name="jit(species_structure_factors)/jit(main)/while/body/while/body/exp" source_file="/global/homes/j/jackm/software/lorrax_B/src/psp/ionic_gspace.py" source_line=60}
  %multiply.46 = f64[46080]{0} multiply(%multiply.45, %exponential.36), metadata={op_name="jit(species_structure_factors)/jit(main)/while/body/while/body/exp" source_file="/global/homes/j/jackm/software/lorrax_B/src/psp/ionic_gspace.py" source_line=60}
  %multiply.47 = f64[46080]{0} multiply(%exponential.33, %sine.44), metadata={op_name="jit(species_structure_factors)/jit(main)/while/body/while/body/exp" source_file="/global/homes/j/jackm/software/lorrax_B/src/psp/ionic_gspace.py" source_line=60}
  %select.48 = f64[46080]{0} select(%compare.34, %multiply.46, %multiply.47), metadata={op_name="jit(species_structure_factors)/jit(main)/while/body/while/body/exp" source_file="/global/homes/j/jackm/software/lorrax_B/src/psp/ionic_gspace.py" source_line=60}
  %select.49 = f64[46080]{0} select(%compare.43, %broadcast.17, %select.48), metadata={op_name="jit(species_structure_factors)/jit(main)/while/body/while/body/exp" source_file="/global/homes/j/jackm/software/lorrax_B/src/psp/ionic_gspace.py" source_line=60}
  %complex.50 = c128[46080]{0} complex(%select.42, %select.49), metadata={op_name="jit(species_structure_factors)/jit(main)/while/body/while/body/exp" source_file="/global/homes/j/jackm/software/lorrax_B/src/psp/ionic_gspace.py" source_line=60}
  %Arg_2.11 = s32[] parameter(2), metadata={op_name="jit(species_structure_factors)/jit(main)/while/body/while/body/closed_call"}
  %convert.51 = s64[] convert(%Arg_2.11), metadata={op_name="jit(species_structure_factors)/jit(main)/while/body/while/body/convert_element_type" source_file="/global/homes/j/jackm/software/lorrax_B/src/psp/ionic_gspace.py" source_line=61}
  %compare.52 = pred[] compare(%Arg_4.13, %convert.51), direction=LT, metadata={op_name="jit(species_structure_factors)/jit(main)/while/body/while/body/lt" source_file="/global/homes/j/jackm/software/lorrax_B/src/psp/ionic_gspace.py" source_line=61}
  %convert.53 = c128[] convert(%compare.52), metadata={op_name="jit(species_structure_factors)/jit(main)/while/body/while/body/convert_element_type" source_file="/global/homes/j/jackm/software/lorrax_B/src/psp/ionic_gspace.py" source_line=61}
  %broadcast.54 = c128[46080]{0} broadcast(%convert.53), dimensions={}, metadata={op_name="jit(species_structure_factors)/jit(main)/while/body/while/body/mul" source_file="/global/homes/j/jackm/software/lorrax_B/src/psp/ionic_gspace.py" source_line=61}
  %multiply.55 = c128[46080]{0} multiply(%complex.50, %broadcast.54), metadata={op_name="jit(species_structure_factors)/jit(main)/while/body/while/body/mul" source_file="/global/homes/j/jackm/software/lorrax_B/src/psp/ionic_gspace.py" source_line=61}
  ROOT %add.56 = c128[46080]{0} add(%Arg_3.12, %multiply.55), metadata={op_name="jit(species_structure_factors)/jit(main)/while/body/while/body/add" source_file="/global/homes/j/jackm/software/lorrax_B/src/psp/ionic_gspace.py" source_line=61}
}

%region_1.57 (arg_tuple.58: (s64[], c128[46080], s64[2], f64[2,3], f64[46080,3], /*index=5*/s32[])) -> (s64[], c128[46080], s64[2], f64[2,3], f64[46080,3], /*index=5*/s32[]) {
  %arg_tuple.58 = (s64[], c128[46080]{0}, s64[2]{0}, f64[2,3]{1,0}, f64[46080,3]{1,0}, /*index=5*/s32[]) parameter(0)
  %get-tuple-element.59 = s64[] get-tuple-element(%arg_tuple.58), index=0
  %constant.65 = s64[] constant(1)
  %add.69 = s64[] add(%get-tuple-element.59, %constant.65), metadata={op_name="jit(species_structure_factors)/jit(main)/while/body/while/body/add" source_file="/global/homes/j/jackm/software/lorrax_B/src/psp/ionic_gspace.py" source_line=63}
  %get-tuple-element.62 = f64[2,3]{1,0} get-tuple-element(%arg_tuple.58), index=3
  %get-tuple-element.63 = f64[46080,3]{1,0} get-tuple-element(%arg_tuple.58), index=4
  %get-tuple-element.64 = s32[] get-tuple-element(%arg_tuple.58), index=5
  %get-tuple-element.60 = c128[46080]{0} get-tuple-element(%arg_tuple.58), index=1
  %get-tuple-element.61 = s64[2]{0} get-tuple-element(%arg_tuple.58), index=2
  %dynamic-slice.66 = s64[1]{0} dynamic-slice(%get-tuple-element.61, %get-tuple-element.59), dynamic_slice_sizes={1}, metadata={op_name="jit(species_structure_factors)/jit(main)/while/body/while/body/dynamic_slice" source_file="/global/homes/j/jackm/software/lorrax_B/src/psp/ionic_gspace.py" source_line=63}
  %reshape.67 = s64[] reshape(%dynamic-slice.66), metadata={op_name="jit(species_structure_factors)/jit(main)/while/body/while/body/squeeze" source_file="/global/homes/j/jackm/software/lorrax_B/src/psp/ionic_gspace.py" source_line=63}
  %call.68 = c128[46080]{0} call(%get-tuple-element.62, %get-tuple-element.63, %get-tuple-element.64, %get-tuple-element.60, %reshape.67), to_apply=%None_0.8
  ROOT %tuple.70 = (s64[], c128[46080]{0}, s64[2]{0}, f64[2,3]{1,0}, f64[46080,3]{1,0}, /*index=5*/s32[]) tuple(%add.69, %call.68, %get-tuple-element.61, %get-tuple-element.62, %get-tuple-element.63, /*index=5*/%get-tuple-element.64)
}

%region_2.71 (arg_tuple.72: (s64[], c128[46080], s64[2], f64[2,3], f64[46080,3], /*index=5*/s32[])) -> pred[] {
  %arg_tuple.72 = (s64[], c128[46080]{0}, s64[2]{0}, f64[2,3]{1,0}, f64[46080,3]{1,0}, /*index=5*/s32[]) parameter(0)
  %get-tuple-element.74 = c128[46080]{0} get-tuple-element(%arg_tuple.72), index=1
  %get-tuple-element.75 = s64[2]{0} get-tuple-element(%arg_tuple.72), index=2
  %get-tuple-element.76 = f64[2,3]{1,0} get-tuple-element(%arg_tuple.72), index=3
  %get-tuple-element.77 = f64[46080,3]{1,0} get-tuple-element(%arg_tuple.72), index=4
  %get-tuple-element.78 = s32[] get-tuple-element(%arg_tuple.72), index=5
  %get-tuple-element.73 = s64[] get-tuple-element(%arg_tuple.72), index=0
  %constant.79 = s64[] constant(2)
  ROOT %compare.80 = pred[] compare(%get-tuple-element.73, %constant.79), direction=LT, metadata={op_name="jit(species_structure_factors)/jit(main)/while/body/while/cond/lt" source_file="/global/homes/j/jackm/software/lorrax_B/src/psp/ionic_gspace.py" source_line=63}
}

%None.81 (Arg_0.82: f64[46080,3], Arg_1.83: f64[2,3], Arg_2.84: s32[]) -> c128[46080] {
  %constant.85 = s64[] constant(0)
  %constant.86 = c128[] constant((0, 0))
  %broadcast.87 = c128[46080]{0} broadcast(%constant.86), dimensions={}, metadata={op_name="jit(species_structure_factors)/jit(main)/while/body/broadcast_in_dim" source_file="/global/homes/j/jackm/software/lorrax_B/src/psp/ionic_gspace.py" source_line=63}
  %iota.88 = s64[2]{0} iota(), iota_dimension=0, metadata={op_name="jit(species_structure_factors)/jit(main)/while/body/iota" source_file="/global/homes/j/jackm/software/lorrax_B/src/psp/ionic_gspace.py" source_line=64}
  %Arg_1.83 = f64[2,3]{1,0} parameter(1), metadata={op_name="jit(species_structure_factors)/jit(main)/while/body/closed_call"}
  %Arg_0.82 = f64[46080,3]{1,0} parameter(0), metadata={op_name="jit(species_structure_factors)/jit(main)/while/body/closed_call"}
  %Arg_2.84 = s32[] parameter(2), metadata={op_name="jit(species_structure_factors)/jit(main)/while/body/closed_call"}
  %tuple.89 = (s64[], c128[46080]{0}, s64[2]{0}, f64[2,3]{1,0}, f64[46080,3]{1,0}, /*index=5*/s32[]) tuple(%constant.85, %broadcast.87, %iota.88, %Arg_1.83, %Arg_0.82, /*index=5*/%Arg_2.84), metadata={op_name="jit(species_structure_factors)/jit(main)/while/body/while" source_file="/global/homes/j/jackm/software/lorrax_B/src/psp/ionic_gspace.py" source_line=63}
  %while.90 = (s64[], c128[46080]{0}, s64[2]{0}, f64[2,3]{1,0}, f64[46080,3]{1,0}, /*index=5*/s32[]) while(%tuple.89), condition=%region_2.71, body=%region_1.57, metadata={op_name="jit(species_structure_factors)/jit(main)/while/body/while" source_file="/global/homes/j/jackm/software/lorrax_B/src/psp/ionic_gspace.py" source_line=63}
  %get-tuple-element.91 = s64[] get-tuple-element(%while.90), index=0, metadata={op_name="jit(species_structure_factors)/jit(main)/while/body/while" source_file="/global/homes/j/jackm/software/lorrax_B/src/psp/ionic_gspace.py" source_line=63}
  ROOT %get-tuple-element.92 = c128[46080]{0} get-tuple-element(%while.90), index=1, metadata={op_name="jit(species_structure_factors)/jit(main)/while/body/while" source_file="/global/homes/j/jackm/software/lorrax_B/src/psp/ionic_gspace.py" source_line=63}
}

%region_0.93 (arg_tuple.94: (s64[], c128[2,46080], f64[2,2,3], s32[2], f64[46080,3])) -> (s64[], c128[2,46080], f64[2,2,3], s32[2], f64[46080,3]) {
  %arg_tuple.94 = (s64[], c128[2,46080]{1,0}, f64[2,2,3]{2,1,0}, s32[2]{0}, f64[46080,3]{1,0}) parameter(0)
  %get-tuple-element.95 = s64[] get-tuple-element(%arg_tuple.94), index=0
  %constant.100 = s64[] constant(1)
  %add.109 = s64[] add(%get-tuple-element.95, %constant.100), metadata={op_name="jit(species_structure_factors)/jit(main)/while/body/add" source_file="/global/homes/j/jackm/software/lorrax_B/src/psp/ionic_gspace.py" source_line=67}
  %get-tuple-element.96 = c128[2,46080]{1,0} get-tuple-element(%arg_tuple.94), index=1
  %get-tuple-element.99 = f64[46080,3]{1,0} get-tuple-element(%arg_tuple.94), index=4
  %get-tuple-element.97 = f64[2,2,3]{2,1,0} get-tuple-element(%arg_tuple.94), index=2
  %constant.101 = s64[] constant(0)
  %dynamic-slice.102 = f64[1,2,3]{2,1,0} dynamic-slice(%get-tuple-element.97, %get-tuple-element.95, %constant.101, %constant.101), dynamic_slice_sizes={1,2,3}, metadata={op_name="jit(species_structure_factors)/jit(main)/while/body/dynamic_slice" source_file="/global/homes/j/jackm/software/lorrax_B/src/psp/ionic_gspace.py" source_line=67}
  %reshape.103 = f64[2,3]{1,0} reshape(%dynamic-slice.102), metadata={op_name="jit(species_structure_factors)/jit(main)/while/body/squeeze" source_file="/global/homes/j/jackm/software/lorrax_B/src/psp/ionic_gspace.py" source_line=67}
  %get-tuple-element.98 = s32[2]{0} get-tuple-element(%arg_tuple.94), index=3
  %dynamic-slice.104 = s32[1]{0} dynamic-slice(%get-tuple-element.98, %get-tuple-element.95), dynamic_slice_sizes={1}, metadata={op_name="jit(species_structure_factors)/jit(main)/while/body/dynamic_slice" source_file="/global/homes/j/jackm/software/lorrax_B/src/psp/ionic_gspace.py" source_line=67}
  %reshape.105 = s32[] reshape(%dynamic-slice.104), metadata={op_name="jit(species_structure_factors)/jit(main)/while/body/squeeze" source_file="/global/homes/j/jackm/software/lorrax_B/src/psp/ionic_gspace.py" source_line=67}
  %call.106 = c128[46080]{0} call(%get-tuple-element.99, %reshape.103, %reshape.105), to_apply=%None.81
  %reshape.107 = c128[1,46080]{1,0} reshape(%call.106), metadata={op_name="jit(species_structure_factors)/jit(main)/while/body/broadcast_in_dim" source_file="/global/homes/j/jackm/software/lorrax_B/src/psp/ionic_gspace.py" source_line=67}
  %dynamic-update-slice.108 = c128[2,46080]{1,0} dynamic-update-slice(%get-tuple-element.96, %reshape.107, %get-tuple-element.95, %constant.101), metadata={op_name="jit(species_structure_factors)/jit(main)/while/body/dynamic_update_slice" source_file="/global/homes/j/jackm/software/lorrax_B/src/psp/ionic_gspace.py" source_line=67}
  ROOT %tuple.110 = (s64[], c128[2,46080]{1,0}, f64[2,2,3]{2,1,0}, s32[2]{0}, f64[46080,3]{1,0}) tuple(%add.109, %dynamic-update-slice.108, %get-tuple-element.97, %get-tuple-element.98, %get-tuple-element.99)
}

%region_3.111 (arg_tuple.112: (s64[], c128[2,46080], f64[2,2,3], s32[2], f64[46080,3])) -> pred[] {
  %arg_tuple.112 = (s64[], c128[2,46080]{1,0}, f64[2,2,3]{2,1,0}, s32[2]{0}, f64[46080,3]{1,0}) parameter(0)
  %get-tuple-element.114 = c128[2,46080]{1,0} get-tuple-element(%arg_tuple.112), index=1
  %get-tuple-element.115 = f64[2,2,3]{2,1,0} get-tuple-element(%arg_tuple.112), index=2
  %get-tuple-element.116 = s32[2]{0} get-tuple-element(%arg_tuple.112), index=3
  %get-tuple-element.117 = f64[46080,3]{1,0} get-tuple-element(%arg_tuple.112), index=4
  %get-tuple-element.113 = s64[] get-tuple-element(%arg_tuple.112), index=0
  %constant.118 = s64[] constant(2)
  ROOT %compare.119 = pred[] compare(%get-tuple-element.113, %constant.118), direction=LT, metadata={op_name="jit(species_structure_factors)/jit(main)/while/cond/lt" source_file="/global/homes/j/jackm/software/lorrax_B/src/psp/ionic_gspace.py" source_line=67}
}

ENTRY %main.123 (Arg_0.1: f64[2,2,3], Arg_1.2: s32[2], Arg_2.3: f64[46080,3]) -> c128[2,46080] {
  %constant.4 = s64[] constant(0)
  %constant.5 = c128[] constant((0, 0))
  %broadcast.6 = c128[2,46080]{1,0} broadcast(%constant.5), dimensions={}, metadata={op_name="jit(species_structure_factors)/jit(main)/broadcast_in_dim" source_file="/global/homes/j/jackm/software/lorrax_B/src/psp/ionic_gspace.py" source_line=67}
  %Arg_0.1 = f64[2,2,3]{2,1,0} parameter(0), metadata={op_name="species_tau"}
  %Arg_1.2 = s32[2]{0} parameter(1), metadata={op_name="species_natoms"}
  %Arg_2.3 = f64[46080,3]{1,0} parameter(2), metadata={op_name="G_crys_flat"}
  %tuple.7 = (s64[], c128[2,46080]{1,0}, f64[2,2,3]{2,1,0}, s32[2]{0}, f64[46080,3]{1,0}) tuple(%constant.4, %broadcast.6, %Arg_0.1, %Arg_1.2, %Arg_2.3), metadata={op_name="jit(species_structure_factors)/jit(main)/while" source_file="/global/homes/j/jackm/software/lorrax_B/src/psp/ionic_gspace.py" source_line=67}
  %while.120 = (s64[], c128[2,46080]{1,0}, f64[2,2,3]{2,1,0}, s32[2]{0}, f64[46080,3]{1,0}) while(%tuple.7), condition=%region_3.111, body=%region_0.93, metadata={op_name="jit(species_structure_factors)/jit(main)/while" source_file="/global/homes/j/jackm/software/lorrax_B/src/psp/ionic_gspace.py" source_line=67}
  %get-tuple-element.121 = s64[] get-tuple-element(%while.120), index=0, metadata={op_name="jit(species_structure_factors)/jit(main)/while" source_file="/global/homes/j/jackm/software/lorrax_B/src/psp/ionic_gspace.py" source_line=67}
  ROOT %get-tuple-element.122 = c128[2,46080]{1,0} get-tuple-element(%while.120), index=1, metadata={op_name="jit(species_structure_factors)/jit(main)/while" source_file="/global/homes/j/jackm/software/lorrax_B/src/psp/ionic_gspace.py" source_line=67}
}

