HloModule jit_species_structure_factors, is_scheduled=true, entry_computation_layout={(f64[2,2,3]{2,1,0}, s32[2]{0}, f64[46080,3]{1,0})->c128[2,46080]{1,0}}, allow_spmd_sharding_propagation_to_parameters={true,true,true}, allow_spmd_sharding_propagation_to_output={true}, frontend_attributes={fingerprint_before_lhs="5b2992b7889306f87290ff9baba9bedc"}

%scalar_add_computation (scalar_lhs: f64[], scalar_rhs: f64[]) -> f64[] {
  %scalar_rhs = f64[] parameter(1), metadata={scheduling_name="scalar_rhs"}
  %scalar_lhs = f64[] parameter(0), metadata={scheduling_name="scalar_lhs"}
  ROOT %add.13 = f64[] add(%scalar_lhs, %scalar_rhs), metadata={scheduling_name="add.13"}
}

%fused_add (param_0.16: c128[46080], param_1.68: f64[46080,3], param_2.33: s32[], param_3.18: s64[2], param_4.22: s64[], param_5.17: f64[2,3]) -> c128[46080] {
  %param_0.16 = c128[46080]{0} parameter(0), metadata={scheduling_name="param_0.16"}
  %param_1.68 = f64[46080,3]{1,0} parameter(1), metadata={scheduling_name="param_1.68"}
  %param_5.17 = f64[2,3]{1,0} parameter(5), metadata={scheduling_name="param_5.17"}
  %param_3.18 = s64[2]{0} parameter(3), metadata={scheduling_name="param_3.18"}
  %param_4.22 = s64[] parameter(4), metadata={scheduling_name="param_4.22"}
  %dynamic-slice.9.6 = s64[1]{0} dynamic-slice(%param_3.18, %param_4.22), dynamic_slice_sizes={1}, metadata={op_name="jit(species_structure_factors)/jit(main)/while/body/while/body/dynamic_slice" source_file="/global/homes/j/jackm/software/lorrax_B/src/psp/ionic_gspace.py" source_line=63 scheduling_name="dynamic-slice.9.6"}
  %bitcast.357.20 = s64[] bitcast(%dynamic-slice.9.6), metadata={scheduling_name="bitcast.357.20"}
  %constant_0_1 = s64[] constant(0)
  %compare.18.5 = pred[] compare(%bitcast.357.20, %constant_0_1), direction=LT, metadata={op_name="jit(species_structure_factors)/jit(main)/while/body/while/body/lt" source_file="/global/homes/j/jackm/software/lorrax_B/src/psp/ionic_gspace.py" source_line=60 scheduling_name="compare.18.5"}
  %constant_1_1 = s64[] constant(2)
  %add.15.5 = s64[] add(%bitcast.357.20, %constant_1_1), metadata={op_name="jit(species_structure_factors)/jit(main)/while/body/while/body/add" source_file="/global/homes/j/jackm/software/lorrax_B/src/psp/ionic_gspace.py" source_line=60 scheduling_name="add.15.5"}
  %select.12.5 = s64[] select(%compare.18.5, %add.15.5, %bitcast.357.20), metadata={op_name="jit(species_structure_factors)/jit(main)/while/body/while/body/select_n" source_file="/global/homes/j/jackm/software/lorrax_B/src/psp/ionic_gspace.py" source_line=60 scheduling_name="select.12.5"}
  %dynamic-slice.10.3 = f64[1,3]{1,0} dynamic-slice(%param_5.17, %select.12.5, %constant_0_1), dynamic_slice_sizes={1,3}, metadata={op_name="jit(species_structure_factors)/jit(main)/while/body/while/body/dynamic_slice" source_file="/global/homes/j/jackm/software/lorrax_B/src/psp/ionic_gspace.py" source_line=60 scheduling_name="dynamic-slice.10.3"}
  %bitcast.367.7 = f64[3]{0} bitcast(%dynamic-slice.10.3), metadata={scheduling_name="bitcast.367.7"}
  %broadcast.30.7 = f64[46080,3]{1,0} broadcast(%bitcast.367.7), dimensions={1}, metadata={op_name="jit(species_structure_factors)/jit(main)/while/body/while/body/dot_general" source_file="/global/homes/j/jackm/software/lorrax_B/src/psp/ionic_gspace.py" source_line=60 scheduling_name="broadcast.30.7"}
  %multiply.30.5 = f64[46080,3]{1,0} multiply(%param_1.68, %broadcast.30.7), metadata={scheduling_name="multiply.30.5"}
  %constant_7_1 = f64[] constant(0)
  %reduce.4 = f64[46080]{0} reduce(%multiply.30.5, %constant_7_1), dimensions={1}, to_apply=%scalar_add_computation, metadata={op_name="jit(species_structure_factors)/jit(main)/while/body/while/body/dot_general" source_file="/global/homes/j/jackm/software/lorrax_B/src/psp/ionic_gspace.py" source_line=60 scheduling_name="reduce.4"}
  %convert.9.7 = c128[46080]{0} convert(%reduce.4), metadata={op_name="jit(species_structure_factors)/jit(main)/while/body/while/body/convert_element_type" source_file="/global/homes/j/jackm/software/lorrax_B/src/psp/ionic_gspace.py" source_line=60 scheduling_name="convert.9.7"}
  %constant_2_1 = c128[] constant((0, -6.2831853071795862))
  %broadcast.31.7 = c128[46080]{0} broadcast(%constant_2_1), dimensions={}, metadata={scheduling_name="broadcast.31.7"}
  %multiply.32.7 = c128[46080]{0} multiply(%convert.9.7, %broadcast.31.7), metadata={op_name="jit(species_structure_factors)/jit(main)/while/body/while/body/mul" source_file="/global/homes/j/jackm/software/lorrax_B/src/psp/ionic_gspace.py" source_line=60 scheduling_name="multiply.32.7"}
  %real.3.3 = f64[46080]{0} real(%multiply.32.7), metadata={op_name="jit(species_structure_factors)/jit(main)/while/body/while/body/exp" source_file="/global/homes/j/jackm/software/lorrax_B/src/psp/ionic_gspace.py" source_line=60 scheduling_name="real.3.3"}
  %exponential.6.1 = f64[46080]{0} exponential(%real.3.3), metadata={op_name="jit(species_structure_factors)/jit(main)/while/body/while/body/exp" source_file="/global/homes/j/jackm/software/lorrax_B/src/psp/ionic_gspace.py" source_line=60 scheduling_name="exponential.6.1"}
  %constant_3_1 = f64[] constant(inf)
  %broadcast.32.1 = f64[46080]{0} broadcast(%constant_3_1), dimensions={}, metadata={scheduling_name="broadcast.32.1"}
  %compare.19.1 = pred[46080]{0} compare(%exponential.6.1, %broadcast.32.1), direction=EQ, metadata={op_name="jit(species_structure_factors)/jit(main)/while/body/while/body/exp" source_file="/global/homes/j/jackm/software/lorrax_B/src/psp/ionic_gspace.py" source_line=60 scheduling_name="compare.19.1"}
  %constant_6_1 = f64[] constant(0.5)
  %broadcast.33.1 = f64[46080]{0} broadcast(%constant_6_1), dimensions={}, metadata={scheduling_name="broadcast.33.1"}
  %multiply.33.3 = f64[46080]{0} multiply(%real.3.3, %broadcast.33.1), metadata={op_name="jit(species_structure_factors)/jit(main)/while/body/while/body/exp" source_file="/global/homes/j/jackm/software/lorrax_B/src/psp/ionic_gspace.py" source_line=60 scheduling_name="multiply.33.3"}
  %exponential.7.3 = f64[46080]{0} exponential(%multiply.33.3), metadata={op_name="jit(species_structure_factors)/jit(main)/while/body/while/body/exp" source_file="/global/homes/j/jackm/software/lorrax_B/src/psp/ionic_gspace.py" source_line=60 scheduling_name="exponential.7.3"}
  %imag.3.5 = f64[46080]{0} imag(%multiply.32.7), metadata={op_name="jit(species_structure_factors)/jit(main)/while/body/while/body/exp" source_file="/global/homes/j/jackm/software/lorrax_B/src/psp/ionic_gspace.py" source_line=60 scheduling_name="imag.3.5"}
  %cosine.3.1 = f64[46080]{0} cosine(%imag.3.5), metadata={op_name="jit(species_structure_factors)/jit(main)/while/body/while/body/exp" source_file="/global/homes/j/jackm/software/lorrax_B/src/psp/ionic_gspace.py" source_line=60 scheduling_name="cosine.3.1"}
  %multiply.34.5 = f64[46080]{0} multiply(%exponential.7.3, %cosine.3.1), metadata={op_name="jit(species_structure_factors)/jit(main)/while/body/while/body/exp" source_file="/global/homes/j/jackm/software/lorrax_B/src/psp/ionic_gspace.py" source_line=60 scheduling_name="multiply.34.5"}
  %multiply.36.5 = f64[46080]{0} multiply(%multiply.34.5, %exponential.7.3), metadata={op_name="jit(species_structure_factors)/jit(main)/while/body/while/body/exp" source_file="/global/homes/j/jackm/software/lorrax_B/src/psp/ionic_gspace.py" source_line=60 scheduling_name="multiply.36.5"}
  %multiply.37.3 = f64[46080]{0} multiply(%exponential.6.1, %cosine.3.1), metadata={op_name="jit(species_structure_factors)/jit(main)/while/body/while/body/exp" source_file="/global/homes/j/jackm/software/lorrax_B/src/psp/ionic_gspace.py" source_line=60 scheduling_name="multiply.37.3"}
  %select.13.3 = f64[46080]{0} select(%compare.19.1, %multiply.36.5, %multiply.37.3), metadata={op_name="jit(species_structure_factors)/jit(main)/while/body/while/body/exp" source_file="/global/homes/j/jackm/software/lorrax_B/src/psp/ionic_gspace.py" source_line=60 scheduling_name="select.13.3"}
  %broadcast.34.6 = f64[46080]{0} broadcast(%constant_7_1), dimensions={}, metadata={scheduling_name="broadcast.34.6"}
  %compare.20.3 = pred[46080]{0} compare(%imag.3.5, %broadcast.34.6), direction=EQ, metadata={op_name="jit(species_structure_factors)/jit(main)/while/body/while/body/exp" source_file="/global/homes/j/jackm/software/lorrax_B/src/psp/ionic_gspace.py" source_line=60 scheduling_name="compare.20.3"}
  %sine.3.1 = f64[46080]{0} sine(%imag.3.5), metadata={op_name="jit(species_structure_factors)/jit(main)/while/body/while/body/exp" source_file="/global/homes/j/jackm/software/lorrax_B/src/psp/ionic_gspace.py" source_line=60 scheduling_name="sine.3.1"}
  %multiply.38.3 = f64[46080]{0} multiply(%exponential.7.3, %sine.3.1), metadata={op_name="jit(species_structure_factors)/jit(main)/while/body/while/body/exp" source_file="/global/homes/j/jackm/software/lorrax_B/src/psp/ionic_gspace.py" source_line=60 scheduling_name="multiply.38.3"}
  %multiply.42.3 = f64[46080]{0} multiply(%multiply.38.3, %exponential.7.3), metadata={op_name="jit(species_structure_factors)/jit(main)/while/body/while/body/exp" source_file="/global/homes/j/jackm/software/lorrax_B/src/psp/ionic_gspace.py" source_line=60 scheduling_name="multiply.42.3"}
  %multiply.43.1 = f64[46080]{0} multiply(%exponential.6.1, %sine.3.1), metadata={op_name="jit(species_structure_factors)/jit(main)/while/body/while/body/exp" source_file="/global/homes/j/jackm/software/lorrax_B/src/psp/ionic_gspace.py" source_line=60 scheduling_name="multiply.43.1"}
  %select.14.1 = f64[46080]{0} select(%compare.19.1, %multiply.42.3, %multiply.43.1), metadata={op_name="jit(species_structure_factors)/jit(main)/while/body/while/body/exp" source_file="/global/homes/j/jackm/software/lorrax_B/src/psp/ionic_gspace.py" source_line=60 scheduling_name="select.14.1"}
  %select.15.3 = f64[46080]{0} select(%compare.20.3, %broadcast.34.6, %select.14.1), metadata={op_name="jit(species_structure_factors)/jit(main)/while/body/while/body/exp" source_file="/global/homes/j/jackm/software/lorrax_B/src/psp/ionic_gspace.py" source_line=60 scheduling_name="select.15.3"}
  %complex.3.1 = c128[46080]{0} complex(%select.13.3, %select.15.3), metadata={op_name="jit(species_structure_factors)/jit(main)/while/body/while/body/exp" source_file="/global/homes/j/jackm/software/lorrax_B/src/psp/ionic_gspace.py" source_line=60 scheduling_name="complex.3.1"}
  %param_2.33 = s32[] parameter(2), metadata={scheduling_name="param_2.33"}
  %convert.10.3 = s64[] convert(%param_2.33), metadata={op_name="jit(species_structure_factors)/jit(main)/while/body/while/body/convert_element_type" source_file="/global/homes/j/jackm/software/lorrax_B/src/psp/ionic_gspace.py" source_line=61 scheduling_name="convert.10.3"}
  %compare.21.5 = pred[] compare(%bitcast.357.20, %convert.10.3), direction=LT, metadata={op_name="jit(species_structure_factors)/jit(main)/while/body/while/body/lt" source_file="/global/homes/j/jackm/software/lorrax_B/src/psp/ionic_gspace.py" source_line=61 scheduling_name="compare.21.5"}
  %convert.11.3 = c128[] convert(%compare.21.5), metadata={op_name="jit(species_structure_factors)/jit(main)/while/body/while/body/convert_element_type" source_file="/global/homes/j/jackm/software/lorrax_B/src/psp/ionic_gspace.py" source_line=61 scheduling_name="convert.11.3"}
  %broadcast.36.1 = c128[46080]{0} broadcast(%convert.11.3), dimensions={}, metadata={op_name="jit(species_structure_factors)/jit(main)/while/body/while/body/mul" source_file="/global/homes/j/jackm/software/lorrax_B/src/psp/ionic_gspace.py" source_line=61 scheduling_name="broadcast.36.1"}
  %multiply.44.1 = c128[46080]{0} multiply(%complex.3.1, %broadcast.36.1), metadata={op_name="jit(species_structure_factors)/jit(main)/while/body/while/body/mul" source_file="/global/homes/j/jackm/software/lorrax_B/src/psp/ionic_gspace.py" source_line=61 scheduling_name="multiply.44.1"}
  ROOT %add.16.1 = c128[46080]{0} add(%param_0.16, %multiply.44.1), metadata={op_name="jit(species_structure_factors)/jit(main)/while/body/while/body/add" source_file="/global/homes/j/jackm/software/lorrax_B/src/psp/ionic_gspace.py" source_line=61 scheduling_name="add.16.1"}
}

%fused_add.1 (param_0.59: s64[]) -> s64[] {
  %param_0.59 = s64[] parameter(0), metadata={scheduling_name="param_0.59"}
  %constant_65_1 = s64[] constant(1)
  ROOT %add.14.1 = s64[] add(%param_0.59, %constant_65_1), metadata={op_name="jit(species_structure_factors)/jit(main)/while/body/while/body/add" source_file="/global/homes/j/jackm/software/lorrax_B/src/psp/ionic_gspace.py" source_line=63 scheduling_name="add.14.1"}
}

%region_1.57 (arg_tuple.58.0: (s64[], c128[46080], s64[2], f64[2,3], f64[46080,3], /*index=5*/s32[])) -> (s64[], c128[46080], s64[2], f64[2,3], f64[46080,3], /*index=5*/s32[]) {
  %arg_tuple.58.0 = (s64[], c128[46080]{0}, s64[2]{0}, f64[2,3]{1,0}, f64[46080,3]{1,0}, /*index=5*/s32[]) parameter(0), metadata={scheduling_name="arg_tuple.58.0"}
  %get-tuple-element.8 = s64[] get-tuple-element(%arg_tuple.58.0), index=0, metadata={scheduling_name="get-tuple-element.8"}
  %get-tuple-element.19 = s32[] get-tuple-element(%arg_tuple.58.0), index=5, metadata={scheduling_name="get-tuple-element.19"}
  %get-tuple-element.16 = s64[2]{0} get-tuple-element(%arg_tuple.58.0), index=2, metadata={scheduling_name="get-tuple-element.16"}
  %get-tuple-element.17 = f64[2,3]{1,0} get-tuple-element(%arg_tuple.58.0), index=3, metadata={scheduling_name="get-tuple-element.17"}
  %get-tuple-element.18 = f64[46080,3]{1,0} get-tuple-element(%arg_tuple.58.0), index=4, metadata={scheduling_name="get-tuple-element.18"}
  %get-tuple-element.9 = c128[46080]{0} get-tuple-element(%arg_tuple.58.0), index=1, metadata={scheduling_name="get-tuple-element.9"}
  %loop_add_fusion = c128[46080]{0} fusion(%get-tuple-element.9, %get-tuple-element.18, %get-tuple-element.19, %get-tuple-element.16, %get-tuple-element.8, /*index=5*/%get-tuple-element.17), kind=kLoop, calls=%fused_add, metadata={op_name="jit(species_structure_factors)/jit(main)/while/body/while/body/add" source_file="/global/homes/j/jackm/software/lorrax_B/src/psp/ionic_gspace.py" source_line=61 scheduling_name="loop_add_fusion"}
  %loop_add_fusion.1 = s64[] fusion(%get-tuple-element.8), kind=kLoop, calls=%fused_add.1, control-predecessors={%loop_add_fusion}, metadata={op_name="jit(species_structure_factors)/jit(main)/while/body/while/body/add" source_file="/global/homes/j/jackm/software/lorrax_B/src/psp/ionic_gspace.py" source_line=63 deduplicated_name="loop_add_fusion.1" scheduling_name="loop_add_fusion.1"}
  ROOT %tuple.3 = (s64[], c128[46080]{0}, s64[2]{0}, f64[2,3]{1,0}, f64[46080,3]{1,0}, /*index=5*/s32[]) tuple(%loop_add_fusion.1, %loop_add_fusion, %get-tuple-element.16, %get-tuple-element.17, %get-tuple-element.18, /*index=5*/%get-tuple-element.19), metadata={scheduling_name="tuple.3"}
}

%fused_compare (param_0: s64[]) -> pred[] {
  %param_0 = s64[] parameter(0), metadata={scheduling_name="param_0"}
  %constant_79_1 = s64[] constant(2)
  ROOT %compare.16.1 = pred[] compare(%param_0, %constant_79_1), direction=LT, metadata={op_name="jit(species_structure_factors)/jit(main)/while/body/while/cond/lt" source_file="/global/homes/j/jackm/software/lorrax_B/src/psp/ionic_gspace.py" source_line=63 scheduling_name="compare.16.1"}
}

%region_2.71 (arg_tuple.72.0: (s64[], c128[46080], s64[2], f64[2,3], f64[46080,3], /*index=5*/s32[])) -> pred[] {
  %arg_tuple.72.0 = (s64[], c128[46080]{0}, s64[2]{0}, f64[2,3]{1,0}, f64[46080,3]{1,0}, /*index=5*/s32[]) parameter(0), metadata={scheduling_name="arg_tuple.72.0"}
  %get-tuple-element.73.0 = s64[] get-tuple-element(%arg_tuple.72.0), index=0, metadata={scheduling_name="get-tuple-element.73.0"}
  ROOT %loop_compare_fusion = pred[] fusion(%get-tuple-element.73.0), kind=kLoop, calls=%fused_compare, metadata={op_name="jit(species_structure_factors)/jit(main)/while/body/while/cond/lt" source_file="/global/homes/j/jackm/software/lorrax_B/src/psp/ionic_gspace.py" source_line=63 deduplicated_name="loop_compare_fusion" scheduling_name="loop_compare_fusion"}
}

%fused_dynamic_update_slice (param_0.60: c128[2,46080], param_1.70: s64[], param_2.37: c128[46080]) -> c128[2,46080] {
  %param_0.60 = c128[2,46080]{1,0} parameter(0), metadata={scheduling_name="param_0.60"}
  %param_2.37 = c128[46080]{0} parameter(2), metadata={scheduling_name="param_2.37"}
  %bitcast.467.1 = c128[1,46080]{1,0} bitcast(%param_2.37), metadata={scheduling_name="bitcast.467.1"}
  %param_1.70 = s64[] parameter(1), metadata={scheduling_name="param_1.70"}
  %constant_101_2 = s64[] constant(0)
  ROOT %dynamic-update-slice.2.1 = c128[2,46080]{1,0} dynamic-update-slice(%param_0.60, %bitcast.467.1, %param_1.70, %constant_101_2), metadata={op_name="jit(species_structure_factors)/jit(main)/while/body/dynamic_update_slice" source_file="/global/homes/j/jackm/software/lorrax_B/src/psp/ionic_gspace.py" source_line=67 scheduling_name="dynamic-update-slice.2.1"}
}

%fused_add.2 (param_0.61: s64[]) -> s64[] {
  %param_0.61 = s64[] parameter(0), metadata={scheduling_name="param_0.61"}
  %constant_100_1 = s64[] constant(1)
  ROOT %add.17.1 = s64[] add(%param_0.61, %constant_100_1), metadata={op_name="jit(species_structure_factors)/jit(main)/while/body/add" source_file="/global/homes/j/jackm/software/lorrax_B/src/psp/ionic_gspace.py" source_line=67 scheduling_name="add.17.1"}
}

%wrapped_dynamic-slice_computation (param_0.65: s32[2], param_1.73: s64[]) -> s32[1] {
  %param_0.65 = s32[2]{0} parameter(0), metadata={scheduling_name="param_0.65"}
  %param_1.73 = s64[] parameter(1), metadata={scheduling_name="param_1.73"}
  ROOT %dynamic-slice.12.1 = s32[1]{0} dynamic-slice(%param_0.65, %param_1.73), dynamic_slice_sizes={1}, metadata={op_name="jit(species_structure_factors)/jit(main)/while/body/dynamic_slice" source_file="/global/homes/j/jackm/software/lorrax_B/src/psp/ionic_gspace.py" source_line=67 scheduling_name="dynamic-slice.12.1"}
}

%wrapped_iota_computation () -> s64[2] {
  ROOT %iota.3.1 = s64[2]{0} iota(), iota_dimension=0, metadata={op_name="jit(species_structure_factors)/jit(main)/while/body/iota" source_file="/global/homes/j/jackm/software/lorrax_B/src/psp/ionic_gspace.py" source_line=64 scheduling_name="iota.3.1"}
}

%fused_dynamic_slice (param_0.62: f64[2,2,3], param_1.72: s64[]) -> f64[1,2,3] {
  %param_0.62 = f64[2,2,3]{2,1,0} parameter(0), metadata={scheduling_name="param_0.62"}
  %param_1.72 = s64[] parameter(1), metadata={scheduling_name="param_1.72"}
  %constant_101_1 = s64[] constant(0)
  ROOT %dynamic-slice.11.1 = f64[1,2,3]{2,1,0} dynamic-slice(%param_0.62, %param_1.72, %constant_101_1, %constant_101_1), dynamic_slice_sizes={1,2,3}, metadata={op_name="jit(species_structure_factors)/jit(main)/while/body/dynamic_slice" source_file="/global/homes/j/jackm/software/lorrax_B/src/psp/ionic_gspace.py" source_line=67 scheduling_name="dynamic-slice.11.1"}
}

%fused_broadcast () -> c128[46080] {
  %constant_9_1 = c128[] constant((0, 0))
  ROOT %broadcast.37.1 = c128[46080]{0} broadcast(%constant_9_1), dimensions={}, metadata={op_name="jit(species_structure_factors)/jit(main)/while/body/broadcast_in_dim" source_file="/global/homes/j/jackm/software/lorrax_B/src/psp/ionic_gspace.py" source_line=63 scheduling_name="broadcast.37.1"}
}

%command_buffer (p: s64[], p.1: (s64[], c128[2,46080], f64[2,2,3], s32[2], f64[46080,3])) -> (s64[], s64[], f64[2,2,3], s32[2], s32[], /*index=5*/f64[46080,3], c128[2,46080], s64[2], f64[2,3], c128[46080]) {
  %p = s64[] parameter(0)
  %p.1 = (s64[], c128[2,46080]{1,0}, f64[2,2,3]{2,1,0}, s32[2]{0}, f64[46080,3]{1,0}) parameter(1)
  %copy.16 = s64[] copy(%p)
  %get-tuple-element.25 = s64[] get-tuple-element(%p.1), index=0, metadata={scheduling_name="get-tuple-element.25"}
  %get-tuple-element.32 = f64[2,2,3]{2,1,0} get-tuple-element(%p.1), index=2, metadata={scheduling_name="get-tuple-element.32"}
  %get-tuple-element.33 = s32[2]{0} get-tuple-element(%p.1), index=3, metadata={scheduling_name="get-tuple-element.33"}
  %wrapped_dynamic-slice = s32[1]{0} fusion(%get-tuple-element.33, %get-tuple-element.25), kind=kLoop, calls=%wrapped_dynamic-slice_computation, metadata={op_name="jit(species_structure_factors)/jit(main)/while/body/dynamic_slice" source_file="/global/homes/j/jackm/software/lorrax_B/src/psp/ionic_gspace.py" source_line=67 scheduling_name="wrapped_dynamic-slice"}
  %bitcast.464.0 = s32[] bitcast(%wrapped_dynamic-slice), metadata={scheduling_name="bitcast.464.0"}
  %get-tuple-element.34 = f64[46080,3]{1,0} get-tuple-element(%p.1), index=4, metadata={scheduling_name="get-tuple-element.34"}
  %get-tuple-element.26 = c128[2,46080]{1,0} get-tuple-element(%p.1), index=1, metadata={scheduling_name="get-tuple-element.26"}
  %wrapped_iota = s64[2]{0} fusion(), kind=kLoop, calls=%wrapped_iota_computation, metadata={op_name="jit(species_structure_factors)/jit(main)/while/body/iota" source_file="/global/homes/j/jackm/software/lorrax_B/src/psp/ionic_gspace.py" source_line=64 scheduling_name="wrapped_iota"}
  %loop_dynamic_slice_fusion = f64[1,2,3]{2,1,0} fusion(%get-tuple-element.32, %get-tuple-element.25), kind=kLoop, calls=%fused_dynamic_slice, metadata={op_name="jit(species_structure_factors)/jit(main)/while/body/dynamic_slice" source_file="/global/homes/j/jackm/software/lorrax_B/src/psp/ionic_gspace.py" source_line=67 scheduling_name="loop_dynamic_slice_fusion"}
  %bitcast.455.0 = f64[2,3]{1,0} bitcast(%loop_dynamic_slice_fusion), metadata={scheduling_name="bitcast.455.0"}
  %loop_broadcast_fusion = c128[46080]{0} fusion(), kind=kLoop, calls=%fused_broadcast, metadata={op_name="jit(species_structure_factors)/jit(main)/while/body/broadcast_in_dim" source_file="/global/homes/j/jackm/software/lorrax_B/src/psp/ionic_gspace.py" source_line=63 scheduling_name="loop_broadcast_fusion"}
  ROOT %tuple.8 = (s64[], s64[], f64[2,2,3]{2,1,0}, s32[2]{0}, s32[], /*index=5*/f64[46080,3]{1,0}, c128[2,46080]{1,0}, s64[2]{0}, f64[2,3]{1,0}, c128[46080]{0}) tuple(%copy.16, %get-tuple-element.25, %get-tuple-element.32, %get-tuple-element.33, %bitcast.464.0, /*index=5*/%get-tuple-element.34, %get-tuple-element.26, %wrapped_iota, %bitcast.455.0, %loop_broadcast_fusion)
}

%region_0.93 (arg_tuple.94.0: (s64[], c128[2,46080], f64[2,2,3], s32[2], f64[46080,3])) -> (s64[], c128[2,46080], f64[2,2,3], s32[2], f64[46080,3]) {
  %constant_101_0 = s64[] constant(0)
  %arg_tuple.94.0 = (s64[], c128[2,46080]{1,0}, f64[2,2,3]{2,1,0}, s32[2]{0}, f64[46080,3]{1,0}) parameter(0), metadata={scheduling_name="arg_tuple.94.0"}
  %call = (s64[], s64[], f64[2,2,3]{2,1,0}, s32[2]{0}, s32[], /*index=5*/f64[46080,3]{1,0}, c128[2,46080]{1,0}, s64[2]{0}, f64[2,3]{1,0}, c128[46080]{0}) call(%constant_101_0, %arg_tuple.94.0), to_apply=%command_buffer
  %get-tuple-element.40 = s64[] get-tuple-element(%call), index=0
  %get-tuple-element.41 = s64[] get-tuple-element(%call), index=1
  %get-tuple-element.42 = f64[2,2,3]{2,1,0} get-tuple-element(%call), index=2
  %get-tuple-element.43 = s32[2]{0} get-tuple-element(%call), index=3
  %get-tuple-element.44 = s32[] get-tuple-element(%call), index=4
  %get-tuple-element.45 = f64[46080,3]{1,0} get-tuple-element(%call), index=5
  %get-tuple-element.46 = c128[2,46080]{1,0} get-tuple-element(%call), index=6
  %get-tuple-element.47 = s64[2]{0} get-tuple-element(%call), index=7
  %get-tuple-element.48 = f64[2,3]{1,0} get-tuple-element(%call), index=8
  %get-tuple-element.49 = c128[46080]{0} get-tuple-element(%call), index=9
  %tuple.1 = (s64[], c128[46080]{0}, s64[2]{0}, f64[2,3]{1,0}, f64[46080,3]{1,0}, /*index=5*/s32[]) tuple(%get-tuple-element.40, %get-tuple-element.49, %get-tuple-element.47, %get-tuple-element.48, %get-tuple-element.45, /*index=5*/%get-tuple-element.44), metadata={scheduling_name="tuple.1"}
  %while.0.0 = (s64[], c128[46080]{0}, s64[2]{0}, f64[2,3]{1,0}, f64[46080,3]{1,0}, /*index=5*/s32[]) while(%tuple.1), condition=%region_2.71, body=%region_1.57, metadata={op_name="jit(species_structure_factors)/jit(main)/while/body/while" source_file="/global/homes/j/jackm/software/lorrax_B/src/psp/ionic_gspace.py" source_line=63 scheduling_name="while.0.0"}, backend_config={"known_trip_count":{"n":"2"},"known_init_step":{"init":"0","step":"1"},"known_induction_variable":{"tuple_index":"0"}}
  %get-tuple-element.1.0 = c128[46080]{0} get-tuple-element(%while.0.0), index=1, metadata={op_name="jit(species_structure_factors)/jit(main)/while/body/while" source_file="/global/homes/j/jackm/software/lorrax_B/src/psp/ionic_gspace.py" source_line=63 scheduling_name="get-tuple-element.1.0"}
  %loop_dynamic_update_slice_fusion = c128[2,46080]{1,0} fusion(%get-tuple-element.46, %get-tuple-element.41, %get-tuple-element.1.0), kind=kLoop, calls=%fused_dynamic_update_slice, metadata={op_name="jit(species_structure_factors)/jit(main)/while/body/dynamic_update_slice" source_file="/global/homes/j/jackm/software/lorrax_B/src/psp/ionic_gspace.py" source_line=67 scheduling_name="loop_dynamic_update_slice_fusion"}
  %loop_add_fusion.2 = s64[] fusion(%get-tuple-element.41), kind=kLoop, calls=%fused_add.2, control-predecessors={%loop_dynamic_update_slice_fusion, %call}, metadata={op_name="jit(species_structure_factors)/jit(main)/while/body/add" source_file="/global/homes/j/jackm/software/lorrax_B/src/psp/ionic_gspace.py" source_line=67 deduplicated_name="loop_add_fusion.1" scheduling_name="loop_add_fusion.2"}
  ROOT %tuple.6 = (s64[], c128[2,46080]{1,0}, f64[2,2,3]{2,1,0}, s32[2]{0}, f64[46080,3]{1,0}) tuple(%loop_add_fusion.2, %loop_dynamic_update_slice_fusion, %get-tuple-element.42, %get-tuple-element.43, %get-tuple-element.45), metadata={scheduling_name="tuple.6"}
}

%fused_compare.1 (param_0.1: s64[]) -> pred[] {
  %param_0.1 = s64[] parameter(0), metadata={scheduling_name="param_0.1"}
  %constant_118_1 = s64[] constant(2)
  ROOT %compare.17.1 = pred[] compare(%param_0.1, %constant_118_1), direction=LT, metadata={op_name="jit(species_structure_factors)/jit(main)/while/cond/lt" source_file="/global/homes/j/jackm/software/lorrax_B/src/psp/ionic_gspace.py" source_line=67 scheduling_name="compare.17.1"}
}

%region_3.111 (arg_tuple.112.0: (s64[], c128[2,46080], f64[2,2,3], s32[2], f64[46080,3])) -> pred[] {
  %arg_tuple.112.0 = (s64[], c128[2,46080]{1,0}, f64[2,2,3]{2,1,0}, s32[2]{0}, f64[46080,3]{1,0}) parameter(0), metadata={scheduling_name="arg_tuple.112.0"}
  %get-tuple-element.113.0 = s64[] get-tuple-element(%arg_tuple.112.0), index=0, metadata={scheduling_name="get-tuple-element.113.0"}
  ROOT %loop_compare_fusion.1 = pred[] fusion(%get-tuple-element.113.0), kind=kLoop, calls=%fused_compare.1, metadata={op_name="jit(species_structure_factors)/jit(main)/while/cond/lt" source_file="/global/homes/j/jackm/software/lorrax_B/src/psp/ionic_gspace.py" source_line=67 deduplicated_name="loop_compare_fusion" scheduling_name="loop_compare_fusion.1"}
}

%fused_broadcast.1 () -> c128[2,46080] {
  %constant_5_1 = c128[] constant((0, 0))
  ROOT %broadcast.38.1 = c128[2,46080]{1,0} broadcast(%constant_5_1), dimensions={}, metadata={op_name="jit(species_structure_factors)/jit(main)/broadcast_in_dim" source_file="/global/homes/j/jackm/software/lorrax_B/src/psp/ionic_gspace.py" source_line=67 scheduling_name="broadcast.38.1"}
}

ENTRY %main.123 (Arg_0.1.0: f64[2,2,3], Arg_1.2.0: s32[2], Arg_2.3.0: f64[46080,3]) -> c128[2,46080] {
  %constant_4_0 = s64[] constant(0)
  %Arg_2.3.0 = f64[46080,3]{1,0} parameter(2), metadata={op_name="G_crys_flat" scheduling_name="Arg_2.3.0"}
  %Arg_1.2.0 = s32[2]{0} parameter(1), metadata={op_name="species_natoms" scheduling_name="Arg_1.2.0"}
  %Arg_0.1.0 = f64[2,2,3]{2,1,0} parameter(0), metadata={op_name="species_tau" scheduling_name="Arg_0.1.0"}
  %copy.15 = s64[] copy(%constant_4_0)
  %loop_broadcast_fusion.1 = c128[2,46080]{1,0} fusion(), kind=kLoop, calls=%fused_broadcast.1, metadata={op_name="jit(species_structure_factors)/jit(main)/broadcast_in_dim" source_file="/global/homes/j/jackm/software/lorrax_B/src/psp/ionic_gspace.py" source_line=67 scheduling_name="loop_broadcast_fusion.1"}
  %tuple.4 = (s64[], c128[2,46080]{1,0}, f64[2,2,3]{2,1,0}, s32[2]{0}, f64[46080,3]{1,0}) tuple(%copy.15, %loop_broadcast_fusion.1, %Arg_0.1.0, %Arg_1.2.0, %Arg_2.3.0), metadata={scheduling_name="tuple.4"}
  %while.120.0 = (s64[], c128[2,46080]{1,0}, f64[2,2,3]{2,1,0}, s32[2]{0}, f64[46080,3]{1,0}) while(%tuple.4), condition=%region_3.111, body=%region_0.93, metadata={op_name="jit(species_structure_factors)/jit(main)/while" source_file="/global/homes/j/jackm/software/lorrax_B/src/psp/ionic_gspace.py" source_line=67 scheduling_name="while.120.0"}, backend_config={"known_trip_count":{"n":"2"},"known_init_step":{"init":"0","step":"1"},"known_induction_variable":{"tuple_index":"0"}}
  ROOT %get-tuple-element.122.0 = c128[2,46080]{1,0} get-tuple-element(%while.120.0), index=1, metadata={op_name="jit(species_structure_factors)/jit(main)/while" source_file="/global/homes/j/jackm/software/lorrax_B/src/psp/ionic_gspace.py" source_line=67 scheduling_name="get-tuple-element.122.0"}
}

