HloModule jit_concatenate, is_scheduled=true, entry_computation_layout={(f64[24,24,80,1]{3,2,1,0}, f64[24,24,80,1]{3,2,1,0}, f64[24,24,80,1]{3,2,1,0})->f64[24,24,80,3]{3,2,1,0}}, allow_spmd_sharding_propagation_to_parameters={true,true,true}, allow_spmd_sharding_propagation_to_output={true}, frontend_attributes={fingerprint_before_lhs="72c22905cf0417ff0ba99381083e2666"}

%wrapped_concatenate_computation (param_0: f64[24,24,80,1], param_1: f64[24,24,80,1], param_2: f64[24,24,80,1]) -> f64[24,24,80,3] {
  %param_0 = f64[24,24,80,1]{3,2,1,0} parameter(0), metadata={scheduling_name="param_0"}
  %param_1 = f64[24,24,80,1]{3,2,1,0} parameter(1), metadata={scheduling_name="param_1"}
  %param_2 = f64[24,24,80,1]{3,2,1,0} parameter(2), metadata={scheduling_name="param_2"}
  ROOT %concatenate.2.1 = f64[24,24,80,3]{3,2,1,0} concatenate(%param_0, %param_1, %param_2), dimensions={3}, metadata={op_name="jit(concatenate)/jit(main)/concatenate" source_file="/global/u2/j/jackm/software/lorrax_A/src/gw/v_q_bispinor.py" source_line=109 scheduling_name="concatenate.2.1"}
}

ENTRY %main.5 (Arg_0.1.0: f64[24,24,80,1], Arg_1.2.0: f64[24,24,80,1], Arg_2.3.0: f64[24,24,80,1]) -> f64[24,24,80,3] {
  %Arg_2.3.0 = f64[24,24,80,1]{3,2,1,0} parameter(2), metadata={op_name="args[2]" scheduling_name="Arg_2.3.0"}
  %Arg_1.2.0 = f64[24,24,80,1]{3,2,1,0} parameter(1), metadata={op_name="args[1]" scheduling_name="Arg_1.2.0"}
  %Arg_0.1.0 = f64[24,24,80,1]{3,2,1,0} parameter(0), metadata={op_name="args[0]" scheduling_name="Arg_0.1.0"}
  ROOT %wrapped_concatenate = f64[24,24,80,3]{3,2,1,0} fusion(%Arg_0.1.0, %Arg_1.2.0, %Arg_2.3.0), kind=kLoop, calls=%wrapped_concatenate_computation, metadata={op_name="jit(concatenate)/jit(main)/concatenate" source_file="/global/u2/j/jackm/software/lorrax_A/src/gw/v_q_bispinor.py" source_line=109 scheduling_name="wrapped_concatenate"}
}

