HloModule jit_exp, entry_computation_layout={(c128[1947,102]{1,0}, c128[1947,102]{1,0})->(c128[1947,102]{1,0}, c128[1947,102]{1,0})}, allow_spmd_sharding_propagation_to_parameters={true,true}, allow_spmd_sharding_propagation_to_output={true,true}

ENTRY %main.30 (Arg_0.1: c128[1947,102], Arg_1.2: c128[1947,102]) -> (c128[1947,102], c128[1947,102]) {
  %Arg_0.1 = c128[1947,102]{1,0} parameter(0)
  %real.9 = f64[1947,102]{1,0} real(%Arg_0.1), metadata={op_name="jit(exp)/jit(main)/exp" source_file="/global/homes/j/jackm/software/lorrax_B/src/psp/vnl_ops.py" source_line=373}
  %exponential.10 = f64[1947,102]{1,0} exponential(%real.9), metadata={op_name="jit(exp)/jit(main)/exp" source_file="/global/homes/j/jackm/software/lorrax_B/src/psp/vnl_ops.py" source_line=373}
  %constant.7 = f64[] constant(inf)
  %broadcast.8 = f64[1947,102]{1,0} broadcast(%constant.7), dimensions={}
  %compare.11 = pred[1947,102]{1,0} compare(%exponential.10, %broadcast.8), direction=EQ, metadata={op_name="jit(exp)/jit(main)/exp" source_file="/global/homes/j/jackm/software/lorrax_B/src/psp/vnl_ops.py" source_line=373}
  %constant.5 = f64[] constant(0.5)
  %broadcast.6 = f64[1947,102]{1,0} broadcast(%constant.5), dimensions={}
  %multiply.12 = f64[1947,102]{1,0} multiply(%real.9, %broadcast.6), metadata={op_name="jit(exp)/jit(main)/exp" source_file="/global/homes/j/jackm/software/lorrax_B/src/psp/vnl_ops.py" source_line=373}
  %exponential.13 = f64[1947,102]{1,0} exponential(%multiply.12), metadata={op_name="jit(exp)/jit(main)/exp" source_file="/global/homes/j/jackm/software/lorrax_B/src/psp/vnl_ops.py" source_line=373}
  %imag.14 = f64[1947,102]{1,0} imag(%Arg_0.1), metadata={op_name="jit(exp)/jit(main)/exp" source_file="/global/homes/j/jackm/software/lorrax_B/src/psp/vnl_ops.py" source_line=373}
  %cosine.15 = f64[1947,102]{1,0} cosine(%imag.14), metadata={op_name="jit(exp)/jit(main)/exp" source_file="/global/homes/j/jackm/software/lorrax_B/src/psp/vnl_ops.py" source_line=373}
  %multiply.16 = f64[1947,102]{1,0} multiply(%exponential.13, %cosine.15), metadata={op_name="jit(exp)/jit(main)/exp" source_file="/global/homes/j/jackm/software/lorrax_B/src/psp/vnl_ops.py" source_line=373}
  %multiply.17 = f64[1947,102]{1,0} multiply(%multiply.16, %exponential.13), metadata={op_name="jit(exp)/jit(main)/exp" source_file="/global/homes/j/jackm/software/lorrax_B/src/psp/vnl_ops.py" source_line=373}
  %multiply.18 = f64[1947,102]{1,0} multiply(%exponential.10, %cosine.15), metadata={op_name="jit(exp)/jit(main)/exp" source_file="/global/homes/j/jackm/software/lorrax_B/src/psp/vnl_ops.py" source_line=373}
  %select.19 = f64[1947,102]{1,0} select(%compare.11, %multiply.17, %multiply.18), metadata={op_name="jit(exp)/jit(main)/exp" source_file="/global/homes/j/jackm/software/lorrax_B/src/psp/vnl_ops.py" source_line=373}
  %constant.3 = f64[] constant(0)
  %broadcast.4 = f64[1947,102]{1,0} broadcast(%constant.3), dimensions={}
  %compare.20 = pred[1947,102]{1,0} compare(%imag.14, %broadcast.4), direction=EQ, metadata={op_name="jit(exp)/jit(main)/exp" source_file="/global/homes/j/jackm/software/lorrax_B/src/psp/vnl_ops.py" source_line=373}
  %sine.21 = f64[1947,102]{1,0} sine(%imag.14), metadata={op_name="jit(exp)/jit(main)/exp" source_file="/global/homes/j/jackm/software/lorrax_B/src/psp/vnl_ops.py" source_line=373}
  %multiply.22 = f64[1947,102]{1,0} multiply(%exponential.13, %sine.21), metadata={op_name="jit(exp)/jit(main)/exp" source_file="/global/homes/j/jackm/software/lorrax_B/src/psp/vnl_ops.py" source_line=373}
  %multiply.23 = f64[1947,102]{1,0} multiply(%multiply.22, %exponential.13), metadata={op_name="jit(exp)/jit(main)/exp" source_file="/global/homes/j/jackm/software/lorrax_B/src/psp/vnl_ops.py" source_line=373}
  %multiply.24 = f64[1947,102]{1,0} multiply(%exponential.10, %sine.21), metadata={op_name="jit(exp)/jit(main)/exp" source_file="/global/homes/j/jackm/software/lorrax_B/src/psp/vnl_ops.py" source_line=373}
  %select.25 = f64[1947,102]{1,0} select(%compare.11, %multiply.23, %multiply.24), metadata={op_name="jit(exp)/jit(main)/exp" source_file="/global/homes/j/jackm/software/lorrax_B/src/psp/vnl_ops.py" source_line=373}
  %select.26 = f64[1947,102]{1,0} select(%compare.20, %broadcast.4, %select.25), metadata={op_name="jit(exp)/jit(main)/exp" source_file="/global/homes/j/jackm/software/lorrax_B/src/psp/vnl_ops.py" source_line=373}
  %complex.27 = c128[1947,102]{1,0} complex(%select.19, %select.26), metadata={op_name="jit(exp)/jit(main)/exp" source_file="/global/homes/j/jackm/software/lorrax_B/src/psp/vnl_ops.py" source_line=373}
  %Arg_1.2 = c128[1947,102]{1,0} parameter(1)
  %multiply.28 = c128[1947,102]{1,0} multiply(%Arg_1.2, %complex.27), metadata={op_name="jit(exp)/jit(main)/mul" source_file="/global/homes/j/jackm/software/lorrax_B/src/psp/vnl_ops.py" source_line=373}
  ROOT %tuple.29 = (c128[1947,102]{1,0}, c128[1947,102]{1,0}) tuple(%complex.27, %multiply.28)
}

