HloModule jit__broadcast_arrays, is_scheduled=true, entry_computation_layout={(s32[102]{0}, s32[102]{0})->(s32[102]{0}, s32[102]{0})}, allow_spmd_sharding_propagation_to_parameters={true,true}, allow_spmd_sharding_propagation_to_output={true,true}, frontend_attributes={fingerprint_before_lhs="4805a7ef1923cad1906adcb36cdf69d6"}

%copy_horizontally_fused_computation (param_0_0: s32[102], param_1_0: s32[102]) -> (s32[102], s32[102]) {
  %param_0_0 = s32[102]{0} parameter(0), metadata={scheduling_name="param_0_0"}
  %copy.4 = s32[102]{0} copy(%param_0_0), metadata={scheduling_name="copy.4"}
  %param_1_0 = s32[102]{0} parameter(1), metadata={scheduling_name="param_1_0"}
  %copy.5 = s32[102]{0} copy(%param_1_0), metadata={scheduling_name="copy.5"}
  ROOT %tuple.1 = (s32[102]{0}, s32[102]{0}) tuple(%copy.4, %copy.5), metadata={scheduling_name="tuple.1"}
}

ENTRY %main.4 (Arg_0.1.0: s32[102], Arg_1.2.0: s32[102]) -> (s32[102], s32[102]) {
  %Arg_1.2.0 = s32[102]{0} parameter(1), metadata={op_name="args[1]" scheduling_name="Arg_1.2.0"}
  %Arg_0.1.0 = s32[102]{0} parameter(0), metadata={op_name="args[0]" scheduling_name="Arg_0.1.0"}
  %copy_fusion = (s32[102]{0}, s32[102]{0}) fusion(%Arg_0.1.0, %Arg_1.2.0), kind=kLoop, calls=%copy_horizontally_fused_computation, metadata={scheduling_name="copy_fusion"}
  %get-tuple-element.3 = s32[102]{0} get-tuple-element(%copy_fusion), index=1, metadata={scheduling_name="get-tuple-element.3"}
  %get-tuple-element.2 = s32[102]{0} get-tuple-element(%copy_fusion), index=0, metadata={scheduling_name="get-tuple-element.2"}
  ROOT %tuple = (s32[102]{0}, s32[102]{0}) tuple(%get-tuple-element.2, %get-tuple-element.3), metadata={scheduling_name="tuple"}
}

