HloModule jit_select_n, is_scheduled=true, entry_computation_layout={(pred[1947]{0}, s32[1947]{0}, s32[1947]{0})->s32[1947]{0}}, allow_spmd_sharding_propagation_to_parameters={true,true,true}, allow_spmd_sharding_propagation_to_output={true}, frontend_attributes={fingerprint_before_lhs="8094a39d1ff435ad823c351fe9b63464"}

%wrapped_select_computation (param_0: pred[1947], param_1: s32[1947], param_2: s32[1947]) -> s32[1947] {
  %param_0 = pred[1947]{0} parameter(0), metadata={scheduling_name="param_0"}
  %param_1 = s32[1947]{0} parameter(1), metadata={scheduling_name="param_1"}
  %param_2 = s32[1947]{0} parameter(2), metadata={scheduling_name="param_2"}
  ROOT %select.2.1 = s32[1947]{0} select(%param_0, %param_1, %param_2), metadata={op_name="jit(select_n)/jit(main)/select_n" source_file="/global/homes/j/jackm/software/lorrax_B/src/psp/run_sternheimer.py" source_line=807 scheduling_name="select.2.1"}
}

ENTRY %main.5 (Arg_0.1.0: pred[1947], Arg_1.2.0: s32[1947], Arg_2.3.0: s32[1947]) -> s32[1947] {
  %Arg_2.3.0 = s32[1947]{0} parameter(2), metadata={op_name="args[2]" scheduling_name="Arg_2.3.0"}
  %Arg_1.2.0 = s32[1947]{0} parameter(1), metadata={op_name="args[1]" scheduling_name="Arg_1.2.0"}
  %Arg_0.1.0 = pred[1947]{0} parameter(0), metadata={op_name="args[0]" scheduling_name="Arg_0.1.0"}
  ROOT %wrapped_select = s32[1947]{0} fusion(%Arg_0.1.0, %Arg_2.3.0, %Arg_1.2.0), kind=kLoop, calls=%wrapped_select_computation, metadata={op_name="jit(select_n)/jit(main)/select_n" source_file="/global/homes/j/jackm/software/lorrax_B/src/psp/run_sternheimer.py" source_line=807 scheduling_name="wrapped_select"}
}

