HloModule jit__broadcast_arrays, is_scheduled=true, entry_computation_layout={(s32[1963]{0}, s32[1963]{0}, s32[1963]{0})->(s32[1963]{0}, s32[1963]{0}, s32[1963]{0})}, allow_spmd_sharding_propagation_to_parameters={true,true,true}, allow_spmd_sharding_propagation_to_output={true,true,true}, frontend_attributes={fingerprint_before_lhs="34ff016fec0d7ebf747ce574c1f08955"}

%copy_horizontally_fused_computation (param_0_0: s32[1963], param_1_0: s32[1963], param_2_0: s32[1963]) -> (s32[1963], s32[1963], s32[1963]) {
  %param_0_0 = s32[1963]{0} parameter(0), metadata={scheduling_name="param_0_0"}
  %copy.6 = s32[1963]{0} copy(%param_0_0), metadata={scheduling_name="copy.6"}
  %param_1_0 = s32[1963]{0} parameter(1), metadata={scheduling_name="param_1_0"}
  %copy.7 = s32[1963]{0} copy(%param_1_0), metadata={scheduling_name="copy.7"}
  %param_2_0 = s32[1963]{0} parameter(2), metadata={scheduling_name="param_2_0"}
  %copy.8 = s32[1963]{0} copy(%param_2_0), metadata={scheduling_name="copy.8"}
  ROOT %tuple.1 = (s32[1963]{0}, s32[1963]{0}, s32[1963]{0}) tuple(%copy.6, %copy.7, %copy.8), metadata={scheduling_name="tuple.1"}
}

ENTRY %main.5 (Arg_0.1.0: s32[1963], Arg_1.2.0: s32[1963], Arg_2.3.0: s32[1963]) -> (s32[1963], s32[1963], s32[1963]) {
  %Arg_2.3.0 = s32[1963]{0} parameter(2), metadata={op_name="args[2]" scheduling_name="Arg_2.3.0"}
  %Arg_1.2.0 = s32[1963]{0} parameter(1), metadata={op_name="args[1]" scheduling_name="Arg_1.2.0"}
  %Arg_0.1.0 = s32[1963]{0} parameter(0), metadata={op_name="args[0]" scheduling_name="Arg_0.1.0"}
  %copy_fusion = (s32[1963]{0}, s32[1963]{0}, s32[1963]{0}) fusion(%Arg_0.1.0, %Arg_1.2.0, %Arg_2.3.0), kind=kLoop, calls=%copy_horizontally_fused_computation, metadata={scheduling_name="copy_fusion"}
  %get-tuple-element.5 = s32[1963]{0} get-tuple-element(%copy_fusion), index=2, metadata={scheduling_name="get-tuple-element.5"}
  %get-tuple-element.4 = s32[1963]{0} get-tuple-element(%copy_fusion), index=1, metadata={scheduling_name="get-tuple-element.4"}
  %get-tuple-element.3 = s32[1963]{0} get-tuple-element(%copy_fusion), index=0, metadata={scheduling_name="get-tuple-element.3"}
  ROOT %tuple = (s32[1963]{0}, s32[1963]{0}, s32[1963]{0}) tuple(%get-tuple-element.3, %get-tuple-element.4, %get-tuple-element.5), metadata={scheduling_name="tuple"}
}

