HloModule jit_get_sqrt_v_and_phase, entry_computation_layout={(f64[3]{0})->(c128[17252]{0}, c128[1,24,24,80]{3,2,1,0})}, allow_spmd_sharding_propagation_to_parameters={true}, allow_spmd_sharding_propagation_to_output={true,true}

%region_0.105 (Arg_0.106: f64[], Arg_1.107: f64[]) -> f64[] {
  %Arg_0.106 = f64[] parameter(0), metadata={op_name="jit(get_sqrt_v_and_phase)/jit(main)/reduce_sum"}
  %Arg_1.107 = f64[] parameter(1), metadata={op_name="jit(get_sqrt_v_and_phase)/jit(main)/reduce_sum"}
  ROOT %add.108 = f64[] add(%Arg_0.106, %Arg_1.107), metadata={op_name="jit(get_sqrt_v_and_phase)/jit(main)/reduce_sum" source_file="/global/homes/j/jackm/software/lorrax_C/src/gw/compute_vcoul.py" source_line=398}
}

%_where.111 (Arg_0.112: pred[24,24,80], Arg_1.113: f64[], Arg_2.114: f64[24,24,80]) -> f64[24,24,80] {
  %Arg_0.112 = pred[24,24,80]{2,1,0} parameter(0), metadata={op_name="jit(get_sqrt_v_and_phase)/jit(main)/pjit"}
  %Arg_1.113 = f64[] parameter(1), metadata={op_name="jit(get_sqrt_v_and_phase)/jit(main)/pjit"}
  %broadcast.115 = f64[24,24,80]{2,1,0} broadcast(%Arg_1.113), dimensions={}, metadata={op_name="jit(get_sqrt_v_and_phase)/jit(main)/jit(_where)/broadcast_in_dim" source_file="/global/homes/j/jackm/software/lorrax_C/src/gw/compute_vcoul.py" source_line=400}
  %Arg_2.114 = f64[24,24,80]{2,1,0} parameter(2), metadata={op_name="jit(get_sqrt_v_and_phase)/jit(main)/pjit"}
  ROOT %select.116 = f64[24,24,80]{2,1,0} select(%Arg_0.112, %broadcast.115, %Arg_2.114), metadata={op_name="jit(get_sqrt_v_and_phase)/jit(main)/jit(_where)/select_n" source_file="/global/homes/j/jackm/software/lorrax_C/src/gw/compute_vcoul.py" source_line=400}
}

%_where.137 (Arg_0.138: pred[24,24,80], Arg_1.139: f64[], Arg_2.140: f64[24,24,80]) -> f64[24,24,80] {
  %Arg_0.138 = pred[24,24,80]{2,1,0} parameter(0), metadata={op_name="jit(get_sqrt_v_and_phase)/jit(main)/pjit"}
  %Arg_1.139 = f64[] parameter(1), metadata={op_name="jit(get_sqrt_v_and_phase)/jit(main)/pjit"}
  %broadcast.141 = f64[24,24,80]{2,1,0} broadcast(%Arg_1.139), dimensions={}, metadata={op_name="jit(get_sqrt_v_and_phase)/jit(main)/jit(_where)/broadcast_in_dim" source_file="/global/homes/j/jackm/software/lorrax_C/src/gw/compute_vcoul.py" source_line=400}
  %Arg_2.140 = f64[24,24,80]{2,1,0} parameter(2), metadata={op_name="jit(get_sqrt_v_and_phase)/jit(main)/pjit"}
  ROOT %select.142 = f64[24,24,80]{2,1,0} select(%Arg_0.138, %broadcast.141, %Arg_2.140), metadata={op_name="jit(get_sqrt_v_and_phase)/jit(main)/jit(_where)/select_n" source_file="/global/homes/j/jackm/software/lorrax_C/src/gw/compute_vcoul.py" source_line=400}
}

%_where.145 (Arg_0.146: pred[24,24,80], Arg_1.147: f64[], Arg_2.148: f64[24,24,80]) -> f64[24,24,80] {
  %Arg_0.146 = pred[24,24,80]{2,1,0} parameter(0), metadata={op_name="jit(get_sqrt_v_and_phase)/jit(main)/pjit"}
  %Arg_1.147 = f64[] parameter(1), metadata={op_name="jit(get_sqrt_v_and_phase)/jit(main)/pjit"}
  %broadcast.149 = f64[24,24,80]{2,1,0} broadcast(%Arg_1.147), dimensions={}, metadata={op_name="jit(get_sqrt_v_and_phase)/jit(main)/jit(_where)/broadcast_in_dim" source_file="/global/homes/j/jackm/software/lorrax_C/src/gw/compute_vcoul.py" source_line=400}
  %Arg_2.148 = f64[24,24,80]{2,1,0} parameter(2), metadata={op_name="jit(get_sqrt_v_and_phase)/jit(main)/pjit"}
  ROOT %select.150 = f64[24,24,80]{2,1,0} select(%Arg_0.146, %broadcast.149, %Arg_2.148), metadata={op_name="jit(get_sqrt_v_and_phase)/jit(main)/jit(_where)/select_n" source_file="/global/homes/j/jackm/software/lorrax_C/src/gw/compute_vcoul.py" source_line=400}
}

%_where_0.154 (Arg_0.155: pred[24,24,80], Arg_1.156: f64[24,24,80], Arg_2.157: f64[]) -> f64[24,24,80] {
  %Arg_0.155 = pred[24,24,80]{2,1,0} parameter(0), metadata={op_name="jit(get_sqrt_v_and_phase)/jit(main)/pjit"}
  %Arg_1.156 = f64[24,24,80]{2,1,0} parameter(1), metadata={op_name="jit(get_sqrt_v_and_phase)/jit(main)/pjit"}
  %Arg_2.157 = f64[] parameter(2), metadata={op_name="jit(get_sqrt_v_and_phase)/jit(main)/pjit"}
  %broadcast.158 = f64[24,24,80]{2,1,0} broadcast(%Arg_2.157), dimensions={}, metadata={op_name="jit(get_sqrt_v_and_phase)/jit(main)/jit(_where)/broadcast_in_dim" source_file="/global/homes/j/jackm/software/lorrax_C/src/gw/compute_vcoul.py" source_line=411}
  ROOT %select.159 = f64[24,24,80]{2,1,0} select(%Arg_0.155, %Arg_1.156, %broadcast.158), metadata={op_name="jit(get_sqrt_v_and_phase)/jit(main)/jit(_where)/select_n" source_file="/global/homes/j/jackm/software/lorrax_C/src/gw/compute_vcoul.py" source_line=411}
}

ENTRY %main.165 (Arg_0.1: f64[3]) -> (c128[17252], c128[1,24,24,80]) {
  %Arg_0.1 = f64[3]{0} parameter(0), metadata={op_name="qvec_wrapped"}
  %slice.85 = f64[1]{0} slice(%Arg_0.1), slice={[0:1]}, metadata={op_name="jit(get_sqrt_v_and_phase)/jit(main)/slice" source_file="/global/homes/j/jackm/software/lorrax_C/src/gw/compute_vcoul.py" source_line=391}
  %reshape.86 = f64[] reshape(%slice.85), metadata={op_name="jit(get_sqrt_v_and_phase)/jit(main)/squeeze" source_file="/global/homes/j/jackm/software/lorrax_C/src/gw/compute_vcoul.py" source_line=391}
  %constant.28 = f64[] constant(3)
  %divide.87 = f64[] divide(%reshape.86, %constant.28), metadata={op_name="jit(get_sqrt_v_and_phase)/jit(main)/div" source_file="/global/homes/j/jackm/software/lorrax_C/src/gw/compute_vcoul.py" source_line=391}
  %reshape.94 = f64[1]{0} reshape(%divide.87), metadata={op_name="jit(get_sqrt_v_and_phase)/jit(main)/broadcast_in_dim" source_file="/global/homes/j/jackm/software/lorrax_C/src/gw/compute_vcoul.py" source_line=390}
  %slice.88 = f64[1]{0} slice(%Arg_0.1), slice={[1:2]}, metadata={op_name="jit(get_sqrt_v_and_phase)/jit(main)/slice" source_file="/global/homes/j/jackm/software/lorrax_C/src/gw/compute_vcoul.py" source_line=392}
  %reshape.89 = f64[] reshape(%slice.88), metadata={op_name="jit(get_sqrt_v_and_phase)/jit(main)/squeeze" source_file="/global/homes/j/jackm/software/lorrax_C/src/gw/compute_vcoul.py" source_line=392}
  %divide.90 = f64[] divide(%reshape.89, %constant.28), metadata={op_name="jit(get_sqrt_v_and_phase)/jit(main)/div" source_file="/global/homes/j/jackm/software/lorrax_C/src/gw/compute_vcoul.py" source_line=392}
  %reshape.95 = f64[1]{0} reshape(%divide.90), metadata={op_name="jit(get_sqrt_v_and_phase)/jit(main)/broadcast_in_dim" source_file="/global/homes/j/jackm/software/lorrax_C/src/gw/compute_vcoul.py" source_line=390}
  %slice.91 = f64[1]{0} slice(%Arg_0.1), slice={[2:3]}, metadata={op_name="jit(get_sqrt_v_and_phase)/jit(main)/slice" source_file="/global/homes/j/jackm/software/lorrax_C/src/gw/compute_vcoul.py" source_line=393}
  %reshape.92 = f64[] reshape(%slice.91), metadata={op_name="jit(get_sqrt_v_and_phase)/jit(main)/squeeze" source_file="/global/homes/j/jackm/software/lorrax_C/src/gw/compute_vcoul.py" source_line=393}
  %constant.31 = f64[] constant(1)
  %divide.93 = f64[] divide(%reshape.92, %constant.31), metadata={op_name="jit(get_sqrt_v_and_phase)/jit(main)/div" source_file="/global/homes/j/jackm/software/lorrax_C/src/gw/compute_vcoul.py" source_line=393}
  %reshape.96 = f64[1]{0} reshape(%divide.93), metadata={op_name="jit(get_sqrt_v_and_phase)/jit(main)/broadcast_in_dim" source_file="/global/homes/j/jackm/software/lorrax_C/src/gw/compute_vcoul.py" source_line=390}
  %concatenate.97 = f64[3]{0} concatenate(%reshape.94, %reshape.95, %reshape.96), dimensions={0}, metadata={op_name="jit(get_sqrt_v_and_phase)/jit(main)/concatenate" source_file="/global/homes/j/jackm/software/lorrax_C/src/gw/compute_vcoul.py" source_line=390}
  %constant.33 = f64[3,3]{1,0} constant({ { 1.0507622167739268, 0.60665637184174681, -0 }, { 0, 1.2133158112027018, 0 }, { 0, -0, 0.27707653970333357 } })
  %dot.98 = f64[3]{0} dot(%concatenate.97, %constant.33), lhs_contracting_dims={0}, rhs_contracting_dims={0}, metadata={op_name="jit(get_sqrt_v_and_phase)/jit(main)/a,ab->b/dot_general" source_file="/global/homes/j/jackm/software/lorrax_C/src/gw/compute_vcoul.py" source_line=395}
  %reshape.99 = f64[1,1,1,3]{3,2,1,0} reshape(%dot.98), metadata={op_name="jit(get_sqrt_v_and_phase)/jit(main)/reshape" source_file="/global/homes/j/jackm/software/lorrax_C/src/gw/compute_vcoul.py" source_line=395}
  %broadcast.100 = f64[1,1,1,3]{3,2,1,0} broadcast(%reshape.99), dimensions={0,1,2,3}, metadata={op_name="jit(get_sqrt_v_and_phase)/jit(main)/add" source_file="/global/homes/j/jackm/software/lorrax_C/src/gw/compute_vcoul.py" source_line=396}
  %reshape.101 = f64[3]{0} reshape(%broadcast.100), metadata={op_name="jit(get_sqrt_v_and_phase)/jit(main)/add" source_file="/global/homes/j/jackm/software/lorrax_C/src/gw/compute_vcoul.py" source_line=396}
  %broadcast.102 = f64[24,24,80,3]{3,2,1,0} broadcast(%reshape.101), dimensions={3}, metadata={op_name="jit(get_sqrt_v_and_phase)/jit(main)/add" source_file="/global/homes/j/jackm/software/lorrax_C/src/gw/compute_vcoul.py" source_line=396}
  %constant.34 = f64[24,24,80,3]{3,2,1,0} constant({...})
  %add.103 = f64[24,24,80,3]{3,2,1,0} add(%broadcast.102, %constant.34), metadata={op_name="jit(get_sqrt_v_and_phase)/jit(main)/add" source_file="/global/homes/j/jackm/software/lorrax_C/src/gw/compute_vcoul.py" source_line=396}
  %multiply.104 = f64[24,24,80,3]{3,2,1,0} multiply(%add.103, %add.103), metadata={op_name="jit(get_sqrt_v_and_phase)/jit(main)/mul" source_file="/global/homes/j/jackm/software/lorrax_C/src/gw/compute_vcoul.py" source_line=398}
  %constant.27 = f64[] constant(0)
  %reduce.109 = f64[24,24,80]{2,1,0} reduce(%multiply.104, %constant.27), dimensions={3}, to_apply=%region_0.105, metadata={op_name="jit(get_sqrt_v_and_phase)/jit(main)/reduce_sum" source_file="/global/homes/j/jackm/software/lorrax_C/src/gw/compute_vcoul.py" source_line=398}
  %constant.5 = f64[] constant(120)
  %broadcast.6 = f64[24,24,80]{2,1,0} broadcast(%constant.5), dimensions={}
  %compare.144 = pred[24,24,80]{2,1,0} compare(%reduce.109, %broadcast.6), direction=GT, metadata={op_name="jit(get_sqrt_v_and_phase)/jit(main)/gt" source_file="/global/homes/j/jackm/software/lorrax_C/src/gw/compute_vcoul.py" source_line=410}
  %constant.17 = f64[] constant(1e-12)
  %broadcast.18 = f64[24,24,80]{2,1,0} broadcast(%constant.17), dimensions={}
  %compare.110 = pred[24,24,80]{2,1,0} compare(%reduce.109, %broadcast.18), direction=LT, metadata={op_name="jit(get_sqrt_v_and_phase)/jit(main)/lt" source_file="/global/homes/j/jackm/software/lorrax_C/src/gw/compute_vcoul.py" source_line=399}
  %constant.9 = f64[] constant(25.132741228718345)
  %broadcast.10 = f64[24,24,80]{2,1,0} broadcast(%constant.9), dimensions={}
  %call.117 = f64[24,24,80]{2,1,0} call(%compare.110, %constant.31, %reduce.109), to_apply=%_where.111
  %divide.134 = f64[24,24,80]{2,1,0} divide(%broadcast.10, %call.117), metadata={op_name="jit(get_sqrt_v_and_phase)/jit(main)/div" source_file="/global/homes/j/jackm/software/lorrax_C/src/gw/compute_vcoul.py" source_line=406}
  %constant.11 = f64[] constant(1)
  %broadcast.12 = f64[24,24,80]{2,1,0} broadcast(%constant.11), dimensions={}
  %slice.118 = f64[24,24,80,1]{3,2,1,0} slice(%add.103), slice={[0:24], [0:24], [0:80], [0:1]}, metadata={op_name="jit(get_sqrt_v_and_phase)/jit(main)/slice" source_file="/global/homes/j/jackm/software/lorrax_C/src/gw/compute_vcoul.py" source_line=402}
  %reshape.119 = f64[24,24,80]{2,1,0} reshape(%slice.118), metadata={op_name="jit(get_sqrt_v_and_phase)/jit(main)/squeeze" source_file="/global/homes/j/jackm/software/lorrax_C/src/gw/compute_vcoul.py" source_line=402}
  %multiply.120 = f64[24,24,80]{2,1,0} multiply(%reshape.119, %reshape.119), metadata={op_name="jit(get_sqrt_v_and_phase)/jit(main)/integer_pow" source_file="/global/homes/j/jackm/software/lorrax_C/src/gw/compute_vcoul.py" source_line=402}
  %slice.121 = f64[24,24,80,1]{3,2,1,0} slice(%add.103), slice={[0:24], [0:24], [0:80], [1:2]}, metadata={op_name="jit(get_sqrt_v_and_phase)/jit(main)/slice" source_file="/global/homes/j/jackm/software/lorrax_C/src/gw/compute_vcoul.py" source_line=402}
  %reshape.122 = f64[24,24,80]{2,1,0} reshape(%slice.121), metadata={op_name="jit(get_sqrt_v_and_phase)/jit(main)/squeeze" source_file="/global/homes/j/jackm/software/lorrax_C/src/gw/compute_vcoul.py" source_line=402}
  %multiply.123 = f64[24,24,80]{2,1,0} multiply(%reshape.122, %reshape.122), metadata={op_name="jit(get_sqrt_v_and_phase)/jit(main)/integer_pow" source_file="/global/homes/j/jackm/software/lorrax_C/src/gw/compute_vcoul.py" source_line=402}
  %add.124 = f64[24,24,80]{2,1,0} add(%multiply.120, %multiply.123), metadata={op_name="jit(get_sqrt_v_and_phase)/jit(main)/add" source_file="/global/homes/j/jackm/software/lorrax_C/src/gw/compute_vcoul.py" source_line=402}
  %sqrt.125 = f64[24,24,80]{2,1,0} sqrt(%add.124), metadata={op_name="jit(get_sqrt_v_and_phase)/jit(main)/sqrt" source_file="/global/homes/j/jackm/software/lorrax_C/src/gw/compute_vcoul.py" source_line=402}
  %constant.15 = f64[] constant(-11.33835674775462)
  %broadcast.16 = f64[24,24,80]{2,1,0} broadcast(%constant.15), dimensions={}
  %multiply.128 = f64[24,24,80]{2,1,0} multiply(%sqrt.125, %broadcast.16), metadata={op_name="jit(get_sqrt_v_and_phase)/jit(main)/mul" source_file="/global/homes/j/jackm/software/lorrax_C/src/gw/compute_vcoul.py" source_line=404}
  %exponential.129 = f64[24,24,80]{2,1,0} exponential(%multiply.128), metadata={op_name="jit(get_sqrt_v_and_phase)/jit(main)/exp" source_file="/global/homes/j/jackm/software/lorrax_C/src/gw/compute_vcoul.py" source_line=404}
  %slice.126 = f64[24,24,80,1]{3,2,1,0} slice(%add.103), slice={[0:24], [0:24], [0:80], [2:3]}, metadata={op_name="jit(get_sqrt_v_and_phase)/jit(main)/slice" source_file="/global/homes/j/jackm/software/lorrax_C/src/gw/compute_vcoul.py" source_line=403}
  %reshape.127 = f64[24,24,80]{2,1,0} reshape(%slice.126), metadata={op_name="jit(get_sqrt_v_and_phase)/jit(main)/squeeze" source_file="/global/homes/j/jackm/software/lorrax_C/src/gw/compute_vcoul.py" source_line=403}
  %constant.13 = f64[] constant(11.33835674775462)
  %broadcast.14 = f64[24,24,80]{2,1,0} broadcast(%constant.13), dimensions={}
  %multiply.130 = f64[24,24,80]{2,1,0} multiply(%reshape.127, %broadcast.14), metadata={op_name="jit(get_sqrt_v_and_phase)/jit(main)/mul" source_file="/global/homes/j/jackm/software/lorrax_C/src/gw/compute_vcoul.py" source_line=404}
  %cosine.131 = f64[24,24,80]{2,1,0} cosine(%multiply.130), metadata={op_name="jit(get_sqrt_v_and_phase)/jit(main)/cos" source_file="/global/homes/j/jackm/software/lorrax_C/src/gw/compute_vcoul.py" source_line=404}
  %multiply.132 = f64[24,24,80]{2,1,0} multiply(%exponential.129, %cosine.131), metadata={op_name="jit(get_sqrt_v_and_phase)/jit(main)/mul" source_file="/global/homes/j/jackm/software/lorrax_C/src/gw/compute_vcoul.py" source_line=404}
  %subtract.133 = f64[24,24,80]{2,1,0} subtract(%broadcast.12, %multiply.132), metadata={op_name="jit(get_sqrt_v_and_phase)/jit(main)/sub" source_file="/global/homes/j/jackm/software/lorrax_C/src/gw/compute_vcoul.py" source_line=404}
  %multiply.135 = f64[24,24,80]{2,1,0} multiply(%divide.134, %subtract.133), metadata={op_name="jit(get_sqrt_v_and_phase)/jit(main)/mul" source_file="/global/homes/j/jackm/software/lorrax_C/src/gw/compute_vcoul.py" source_line=406}
  %constant.7 = f64[] constant(0.0014240933398978817)
  %broadcast.8 = f64[24,24,80]{2,1,0} broadcast(%constant.7), dimensions={}
  %multiply.136 = f64[24,24,80]{2,1,0} multiply(%multiply.135, %broadcast.8), metadata={op_name="jit(get_sqrt_v_and_phase)/jit(main)/mul" source_file="/global/homes/j/jackm/software/lorrax_C/src/gw/compute_vcoul.py" source_line=407}
  %call.143 = f64[24,24,80]{2,1,0} call(%compare.110, %constant.27, %multiply.136), to_apply=%_where.137
  %call.151 = f64[24,24,80]{2,1,0} call(%compare.144, %constant.27, %call.143), to_apply=%_where.145
  %constant.3 = f64[] constant(0)
  %broadcast.4 = f64[24,24,80]{2,1,0} broadcast(%constant.3), dimensions={}
  %compare.152 = pred[24,24,80]{2,1,0} compare(%call.151, %broadcast.4), direction=GT, metadata={op_name="jit(get_sqrt_v_and_phase)/jit(main)/gt" source_file="/global/homes/j/jackm/software/lorrax_C/src/gw/compute_vcoul.py" source_line=411}
  %sqrt.153 = f64[24,24,80]{2,1,0} sqrt(%call.151), metadata={op_name="jit(get_sqrt_v_and_phase)/jit(main)/sqrt" source_file="/global/homes/j/jackm/software/lorrax_C/src/gw/compute_vcoul.py" source_line=411}
  %call.160 = f64[24,24,80]{2,1,0} call(%compare.152, %sqrt.153, %constant.27), to_apply=%_where_0.154
  %convert.161 = c128[24,24,80]{2,1,0} convert(%call.160), metadata={op_name="jit(get_sqrt_v_and_phase)/jit(main)/convert_element_type" source_file="/global/homes/j/jackm/software/lorrax_C/src/gw/compute_vcoul.py" source_line=411}
  %reshape.162 = c128[46080]{0} reshape(%convert.161), metadata={op_name="jit(get_sqrt_v_and_phase)/jit(main)/reshape" source_file="/global/homes/j/jackm/software/lorrax_C/src/gw/compute_vcoul.py" source_line=413}
  %constant.2 = s32[17252,1]{1,0} constant({...})
  %gather.163 = c128[17252]{0} gather(%reshape.162, %constant.2), offset_dims={}, collapsed_slice_dims={0}, start_index_map={0}, index_vector_dim=1, slice_sizes={1}, metadata={op_name="jit(get_sqrt_v_and_phase)/jit(main)/gather" source_file="/global/homes/j/jackm/software/lorrax_C/src/gw/compute_vcoul.py" source_line=413}
  %slice.35 = f64[1]{0} slice(%Arg_0.1), slice={[0:1]}, metadata={op_name="jit(get_sqrt_v_and_phase)/jit(main)/slice" source_file="/global/homes/j/jackm/software/lorrax_C/src/gw/compute_vcoul.py" source_line=384}
  %reshape.36 = f64[] reshape(%slice.35), metadata={op_name="jit(get_sqrt_v_and_phase)/jit(main)/squeeze" source_file="/global/homes/j/jackm/software/lorrax_C/src/gw/compute_vcoul.py" source_line=384}
  %divide.37 = f64[] divide(%reshape.36, %constant.28), metadata={op_name="jit(get_sqrt_v_and_phase)/jit(main)/div" source_file="/global/homes/j/jackm/software/lorrax_C/src/gw/compute_vcoul.py" source_line=384}
  %broadcast.38 = f64[1,24,1,1]{3,2,1,0} broadcast(%divide.37), dimensions={}, metadata={op_name="jit(get_sqrt_v_and_phase)/jit(main)/mul" source_file="/global/homes/j/jackm/software/lorrax_C/src/gw/compute_vcoul.py" source_line=384}
  %constant.29 = f64[1,24,1,1]{3,2,1,0} constant({...})
  %multiply.39 = f64[1,24,1,1]{3,2,1,0} multiply(%broadcast.38, %constant.29), metadata={op_name="jit(get_sqrt_v_and_phase)/jit(main)/mul" source_file="/global/homes/j/jackm/software/lorrax_C/src/gw/compute_vcoul.py" source_line=384}
  %broadcast.45 = f64[1,24,1,1]{3,2,1,0} broadcast(%multiply.39), dimensions={0,1,2,3}, metadata={op_name="jit(get_sqrt_v_and_phase)/jit(main)/add" source_file="/global/homes/j/jackm/software/lorrax_C/src/gw/compute_vcoul.py" source_line=384}
  %reshape.46 = f64[1,24,1]{2,1,0} reshape(%broadcast.45), metadata={op_name="jit(get_sqrt_v_and_phase)/jit(main)/add" source_file="/global/homes/j/jackm/software/lorrax_C/src/gw/compute_vcoul.py" source_line=384}
  %broadcast.47 = f64[1,24,24,1]{3,2,1,0} broadcast(%reshape.46), dimensions={0,1,3}, metadata={op_name="jit(get_sqrt_v_and_phase)/jit(main)/add" source_file="/global/homes/j/jackm/software/lorrax_C/src/gw/compute_vcoul.py" source_line=384}
  %slice.40 = f64[1]{0} slice(%Arg_0.1), slice={[1:2]}, metadata={op_name="jit(get_sqrt_v_and_phase)/jit(main)/slice" source_file="/global/homes/j/jackm/software/lorrax_C/src/gw/compute_vcoul.py" source_line=385}
  %reshape.41 = f64[] reshape(%slice.40), metadata={op_name="jit(get_sqrt_v_and_phase)/jit(main)/squeeze" source_file="/global/homes/j/jackm/software/lorrax_C/src/gw/compute_vcoul.py" source_line=385}
  %divide.42 = f64[] divide(%reshape.41, %constant.28), metadata={op_name="jit(get_sqrt_v_and_phase)/jit(main)/div" source_file="/global/homes/j/jackm/software/lorrax_C/src/gw/compute_vcoul.py" source_line=385}
  %broadcast.43 = f64[1,1,24,1]{3,2,1,0} broadcast(%divide.42), dimensions={}, metadata={op_name="jit(get_sqrt_v_and_phase)/jit(main)/mul" source_file="/global/homes/j/jackm/software/lorrax_C/src/gw/compute_vcoul.py" source_line=385}
  %constant.30 = f64[1,1,24,1]{3,2,1,0} constant({...})
  %multiply.44 = f64[1,1,24,1]{3,2,1,0} multiply(%broadcast.43, %constant.30), metadata={op_name="jit(get_sqrt_v_and_phase)/jit(main)/mul" source_file="/global/homes/j/jackm/software/lorrax_C/src/gw/compute_vcoul.py" source_line=385}
  %broadcast.48 = f64[1,1,24,1]{3,2,1,0} broadcast(%multiply.44), dimensions={0,1,2,3}, metadata={op_name="jit(get_sqrt_v_and_phase)/jit(main)/add" source_file="/global/homes/j/jackm/software/lorrax_C/src/gw/compute_vcoul.py" source_line=384}
  %reshape.49 = f64[1,24,1]{2,1,0} reshape(%broadcast.48), metadata={op_name="jit(get_sqrt_v_and_phase)/jit(main)/add" source_file="/global/homes/j/jackm/software/lorrax_C/src/gw/compute_vcoul.py" source_line=384}
  %broadcast.50 = f64[1,24,24,1]{3,2,1,0} broadcast(%reshape.49), dimensions={0,2,3}, metadata={op_name="jit(get_sqrt_v_and_phase)/jit(main)/add" source_file="/global/homes/j/jackm/software/lorrax_C/src/gw/compute_vcoul.py" source_line=384}
  %add.51 = f64[1,24,24,1]{3,2,1,0} add(%broadcast.47, %broadcast.50), metadata={op_name="jit(get_sqrt_v_and_phase)/jit(main)/add" source_file="/global/homes/j/jackm/software/lorrax_C/src/gw/compute_vcoul.py" source_line=384}
  %broadcast.57 = f64[1,24,24,1]{3,2,1,0} broadcast(%add.51), dimensions={0,1,2,3}, metadata={op_name="jit(get_sqrt_v_and_phase)/jit(main)/add" source_file="/global/homes/j/jackm/software/lorrax_C/src/gw/compute_vcoul.py" source_line=384}
  %reshape.58 = f64[1,24,24]{2,1,0} reshape(%broadcast.57), metadata={op_name="jit(get_sqrt_v_and_phase)/jit(main)/add" source_file="/global/homes/j/jackm/software/lorrax_C/src/gw/compute_vcoul.py" source_line=384}
  %broadcast.59 = f64[1,24,24,80]{3,2,1,0} broadcast(%reshape.58), dimensions={0,1,2}, metadata={op_name="jit(get_sqrt_v_and_phase)/jit(main)/add" source_file="/global/homes/j/jackm/software/lorrax_C/src/gw/compute_vcoul.py" source_line=384}
  %slice.52 = f64[1]{0} slice(%Arg_0.1), slice={[2:3]}, metadata={op_name="jit(get_sqrt_v_and_phase)/jit(main)/slice" source_file="/global/homes/j/jackm/software/lorrax_C/src/gw/compute_vcoul.py" source_line=386}
  %reshape.53 = f64[] reshape(%slice.52), metadata={op_name="jit(get_sqrt_v_and_phase)/jit(main)/squeeze" source_file="/global/homes/j/jackm/software/lorrax_C/src/gw/compute_vcoul.py" source_line=386}
  %divide.54 = f64[] divide(%reshape.53, %constant.31), metadata={op_name="jit(get_sqrt_v_and_phase)/jit(main)/div" source_file="/global/homes/j/jackm/software/lorrax_C/src/gw/compute_vcoul.py" source_line=386}
  %broadcast.55 = f64[1,1,1,80]{3,2,1,0} broadcast(%divide.54), dimensions={}, metadata={op_name="jit(get_sqrt_v_and_phase)/jit(main)/mul" source_file="/global/homes/j/jackm/software/lorrax_C/src/gw/compute_vcoul.py" source_line=386}
  %constant.32 = f64[1,1,1,80]{3,2,1,0} constant({...})
  %multiply.56 = f64[1,1,1,80]{3,2,1,0} multiply(%broadcast.55, %constant.32), metadata={op_name="jit(get_sqrt_v_and_phase)/jit(main)/mul" source_file="/global/homes/j/jackm/software/lorrax_C/src/gw/compute_vcoul.py" source_line=386}
  %broadcast.60 = f64[1,1,1,80]{3,2,1,0} broadcast(%multiply.56), dimensions={0,1,2,3}, metadata={op_name="jit(get_sqrt_v_and_phase)/jit(main)/add" source_file="/global/homes/j/jackm/software/lorrax_C/src/gw/compute_vcoul.py" source_line=384}
  %reshape.61 = f64[1,80]{1,0} reshape(%broadcast.60), metadata={op_name="jit(get_sqrt_v_and_phase)/jit(main)/add" source_file="/global/homes/j/jackm/software/lorrax_C/src/gw/compute_vcoul.py" source_line=384}
  %broadcast.62 = f64[1,24,24,80]{3,2,1,0} broadcast(%reshape.61), dimensions={0,3}, metadata={op_name="jit(get_sqrt_v_and_phase)/jit(main)/add" source_file="/global/homes/j/jackm/software/lorrax_C/src/gw/compute_vcoul.py" source_line=384}
  %add.63 = f64[1,24,24,80]{3,2,1,0} add(%broadcast.59, %broadcast.62), metadata={op_name="jit(get_sqrt_v_and_phase)/jit(main)/add" source_file="/global/homes/j/jackm/software/lorrax_C/src/gw/compute_vcoul.py" source_line=384}
  %convert.64 = c128[1,24,24,80]{3,2,1,0} convert(%add.63), metadata={op_name="jit(get_sqrt_v_and_phase)/jit(main)/convert_element_type" source_file="/global/homes/j/jackm/software/lorrax_C/src/gw/compute_vcoul.py" source_line=383}
  %constant.19 = c128[] constant((0, -6.2831853071795862))
  %broadcast.20 = c128[1,24,24,80]{3,2,1,0} broadcast(%constant.19), dimensions={}
  %multiply.65 = c128[1,24,24,80]{3,2,1,0} multiply(%convert.64, %broadcast.20), metadata={op_name="jit(get_sqrt_v_and_phase)/jit(main)/mul" source_file="/global/homes/j/jackm/software/lorrax_C/src/gw/compute_vcoul.py" source_line=383}
  %real.66 = f64[1,24,24,80]{3,2,1,0} real(%multiply.65), metadata={op_name="jit(get_sqrt_v_and_phase)/jit(main)/exp" source_file="/global/homes/j/jackm/software/lorrax_C/src/gw/compute_vcoul.py" source_line=383}
  %exponential.67 = f64[1,24,24,80]{3,2,1,0} exponential(%real.66), metadata={op_name="jit(get_sqrt_v_and_phase)/jit(main)/exp" source_file="/global/homes/j/jackm/software/lorrax_C/src/gw/compute_vcoul.py" source_line=383}
  %constant.25 = f64[] constant(inf)
  %broadcast.26 = f64[1,24,24,80]{3,2,1,0} broadcast(%constant.25), dimensions={}
  %compare.68 = pred[1,24,24,80]{3,2,1,0} compare(%exponential.67, %broadcast.26), direction=EQ, metadata={op_name="jit(get_sqrt_v_and_phase)/jit(main)/exp" source_file="/global/homes/j/jackm/software/lorrax_C/src/gw/compute_vcoul.py" source_line=383}
  %constant.23 = f64[] constant(0.5)
  %broadcast.24 = f64[1,24,24,80]{3,2,1,0} broadcast(%constant.23), dimensions={}
  %multiply.69 = f64[1,24,24,80]{3,2,1,0} multiply(%real.66, %broadcast.24), metadata={op_name="jit(get_sqrt_v_and_phase)/jit(main)/exp" source_file="/global/homes/j/jackm/software/lorrax_C/src/gw/compute_vcoul.py" source_line=383}
  %exponential.70 = f64[1,24,24,80]{3,2,1,0} exponential(%multiply.69), metadata={op_name="jit(get_sqrt_v_and_phase)/jit(main)/exp" source_file="/global/homes/j/jackm/software/lorrax_C/src/gw/compute_vcoul.py" source_line=383}
  %imag.71 = f64[1,24,24,80]{3,2,1,0} imag(%multiply.65), metadata={op_name="jit(get_sqrt_v_and_phase)/jit(main)/exp" source_file="/global/homes/j/jackm/software/lorrax_C/src/gw/compute_vcoul.py" source_line=383}
  %cosine.72 = f64[1,24,24,80]{3,2,1,0} cosine(%imag.71), metadata={op_name="jit(get_sqrt_v_and_phase)/jit(main)/exp" source_file="/global/homes/j/jackm/software/lorrax_C/src/gw/compute_vcoul.py" source_line=383}
  %multiply.73 = f64[1,24,24,80]{3,2,1,0} multiply(%exponential.70, %cosine.72), metadata={op_name="jit(get_sqrt_v_and_phase)/jit(main)/exp" source_file="/global/homes/j/jackm/software/lorrax_C/src/gw/compute_vcoul.py" source_line=383}
  %multiply.74 = f64[1,24,24,80]{3,2,1,0} multiply(%multiply.73, %exponential.70), metadata={op_name="jit(get_sqrt_v_and_phase)/jit(main)/exp" source_file="/global/homes/j/jackm/software/lorrax_C/src/gw/compute_vcoul.py" source_line=383}
  %multiply.75 = f64[1,24,24,80]{3,2,1,0} multiply(%exponential.67, %cosine.72), metadata={op_name="jit(get_sqrt_v_and_phase)/jit(main)/exp" source_file="/global/homes/j/jackm/software/lorrax_C/src/gw/compute_vcoul.py" source_line=383}
  %select.76 = f64[1,24,24,80]{3,2,1,0} select(%compare.68, %multiply.74, %multiply.75), metadata={op_name="jit(get_sqrt_v_and_phase)/jit(main)/exp" source_file="/global/homes/j/jackm/software/lorrax_C/src/gw/compute_vcoul.py" source_line=383}
  %constant.21 = f64[] constant(0)
  %broadcast.22 = f64[1,24,24,80]{3,2,1,0} broadcast(%constant.21), dimensions={}
  %compare.77 = pred[1,24,24,80]{3,2,1,0} compare(%imag.71, %broadcast.22), direction=EQ, metadata={op_name="jit(get_sqrt_v_and_phase)/jit(main)/exp" source_file="/global/homes/j/jackm/software/lorrax_C/src/gw/compute_vcoul.py" source_line=383}
  %sine.78 = f64[1,24,24,80]{3,2,1,0} sine(%imag.71), metadata={op_name="jit(get_sqrt_v_and_phase)/jit(main)/exp" source_file="/global/homes/j/jackm/software/lorrax_C/src/gw/compute_vcoul.py" source_line=383}
  %multiply.79 = f64[1,24,24,80]{3,2,1,0} multiply(%exponential.70, %sine.78), metadata={op_name="jit(get_sqrt_v_and_phase)/jit(main)/exp" source_file="/global/homes/j/jackm/software/lorrax_C/src/gw/compute_vcoul.py" source_line=383}
  %multiply.80 = f64[1,24,24,80]{3,2,1,0} multiply(%multiply.79, %exponential.70), metadata={op_name="jit(get_sqrt_v_and_phase)/jit(main)/exp" source_file="/global/homes/j/jackm/software/lorrax_C/src/gw/compute_vcoul.py" source_line=383}
  %multiply.81 = f64[1,24,24,80]{3,2,1,0} multiply(%exponential.67, %sine.78), metadata={op_name="jit(get_sqrt_v_and_phase)/jit(main)/exp" source_file="/global/homes/j/jackm/software/lorrax_C/src/gw/compute_vcoul.py" source_line=383}
  %select.82 = f64[1,24,24,80]{3,2,1,0} select(%compare.68, %multiply.80, %multiply.81), metadata={op_name="jit(get_sqrt_v_and_phase)/jit(main)/exp" source_file="/global/homes/j/jackm/software/lorrax_C/src/gw/compute_vcoul.py" source_line=383}
  %select.83 = f64[1,24,24,80]{3,2,1,0} select(%compare.77, %broadcast.22, %select.82), metadata={op_name="jit(get_sqrt_v_and_phase)/jit(main)/exp" source_file="/global/homes/j/jackm/software/lorrax_C/src/gw/compute_vcoul.py" source_line=383}
  %complex.84 = c128[1,24,24,80]{3,2,1,0} complex(%select.76, %select.83), metadata={op_name="jit(get_sqrt_v_and_phase)/jit(main)/exp" source_file="/global/homes/j/jackm/software/lorrax_C/src/gw/compute_vcoul.py" source_line=383}
  ROOT %tuple.164 = (c128[17252]{0}, c128[1,24,24,80]{3,2,1,0}) tuple(%gather.163, %complex.84)
}

