HloModule jit__take, is_scheduled=true, entry_computation_layout={(s32[64,24,24,24]{3,2,1,0}, s32[64]{0})->s32[64,24,24,24]{3,2,1,0}}, allow_spmd_sharding_propagation_to_parameters={false,false}, allow_spmd_sharding_propagation_to_output={true}, num_partitions=4, frontend_attributes={fingerprint_before_lhs="d92466210c2a35d9cba2e218e3641e3a"}

%fused_select (param_0.27: s32[64,24,24,24], param_1.28: pred[64,1], param_2.21: s32[64]) -> s32[1,64,24,24,24] {
  %param_1.28 = pred[64,1]{1,0} parameter(1), metadata={scheduling_name="param_1.28"}
  %bitcast.105.3 = pred[64]{0} bitcast(%param_1.28), metadata={scheduling_name="bitcast.105.3"}
  %broadcast.30.3 = pred[1,64,24,24,24]{4,3,2,1,0} broadcast(%bitcast.105.3), dimensions={1}, metadata={op_name="jit(_take)/jit(main)/broadcast_in_dim" source_file="/global/homes/j/jackm/software/lorrax_B/src/common/phdf5_wfn_reader.py" source_line=154 scheduling_name="broadcast.30.3"}
  %param_0.27 = s32[64,24,24,24]{3,2,1,0} parameter(0), metadata={scheduling_name="param_0.27"}
  %param_2.21 = s32[64]{0} parameter(2), metadata={scheduling_name="param_2.21"}
  %constant_21 = s32[] constant(0)
  %broadcast.26.3 = s32[64]{0} broadcast(%constant_21), dimensions={}, metadata={op_name="jit(_take)/jit(main)/lt" source_file="/global/homes/j/jackm/software/lorrax_B/src/common/phdf5_wfn_reader.py" source_line=154 scheduling_name="broadcast.26.3"}
  %compare.9.3 = pred[64]{0} compare(%param_2.21, %broadcast.26.3), direction=LT, metadata={op_name="jit(_take)/jit(main)/lt" source_file="/global/homes/j/jackm/software/lorrax_B/src/common/phdf5_wfn_reader.py" source_line=154 scheduling_name="compare.9.3"}
  %constant_1_2 = s32[] constant(64)
  %broadcast.27.3 = s32[64]{0} broadcast(%constant_1_2), dimensions={}, metadata={scheduling_name="broadcast.27.3"}
  %add.3.3 = s32[64]{0} add(%param_2.21, %broadcast.27.3), metadata={op_name="jit(_take)/jit(main)/add" source_file="/global/homes/j/jackm/software/lorrax_B/src/common/phdf5_wfn_reader.py" source_line=154 scheduling_name="add.3.3"}
  %select.8.3 = s32[64]{0} select(%compare.9.3, %add.3.3, %param_2.21), metadata={op_name="jit(_take)/jit(main)/jit(_where)/select_n" source_file="/global/homes/j/jackm/software/lorrax_B/src/common/phdf5_wfn_reader.py" source_line=154 scheduling_name="select.8.3"}
  %bitcast.93.7 = s32[64,1]{1,0} bitcast(%select.8.3), metadata={scheduling_name="bitcast.93.7"}
  %convert.7.7 = s64[64,1]{1,0} convert(%bitcast.93.7), metadata={op_name="jit(_take)/jit(main)/convert_element_type" source_file="/global/homes/j/jackm/software/lorrax_B/src/common/phdf5_wfn_reader.py" source_line=154 scheduling_name="convert.7.7"}
  %gather.1.1 = s32[64,1,24,24,24]{4,3,2,0,1} gather(%param_0.27, %convert.7.7), offset_dims={1,2,3,4}, collapsed_slice_dims={}, start_index_map={0}, index_vector_dim=1, slice_sizes={1,24,24,24}, metadata={op_name="jit(_take)/jit(main)/gather" source_file="/global/homes/j/jackm/software/lorrax_B/src/common/phdf5_wfn_reader.py" source_line=154 scheduling_name="gather.1.1"}
  %bitcast.114.1 = s32[1,64,24,24,24]{4,3,2,1,0} bitcast(%gather.1.1), metadata={scheduling_name="bitcast.114.1"}
  %constant_6_1 = s32[] constant(-2147483648)
  %broadcast.31.1 = s32[1,64,24,24,24]{4,3,2,1,0} broadcast(%constant_6_1), dimensions={}, metadata={scheduling_name="broadcast.31.1"}
  ROOT %select.9.1 = s32[1,64,24,24,24]{4,3,2,1,0} select(%broadcast.30.3, %bitcast.114.1, %broadcast.31.1), metadata={op_name="jit(_take)/jit(main)/select_n" source_file="/global/homes/j/jackm/software/lorrax_B/src/common/phdf5_wfn_reader.py" source_line=154 scheduling_name="select.9.1"}
}

%fused_and (param_0.26: s32[64]) -> pred[64,1] {
  %param_0.26 = s32[64]{0} parameter(0), metadata={scheduling_name="param_0.26"}
  %constant_20 = s32[] constant(0)
  %broadcast.26.5 = s32[64]{0} broadcast(%constant_20), dimensions={}, metadata={op_name="jit(_take)/jit(main)/lt" source_file="/global/homes/j/jackm/software/lorrax_B/src/common/phdf5_wfn_reader.py" source_line=154 scheduling_name="broadcast.26.5"}
  %compare.9.5 = pred[64]{0} compare(%param_0.26, %broadcast.26.5), direction=LT, metadata={op_name="jit(_take)/jit(main)/lt" source_file="/global/homes/j/jackm/software/lorrax_B/src/common/phdf5_wfn_reader.py" source_line=154 scheduling_name="compare.9.5"}
  %constant_1_1 = s32[] constant(64)
  %broadcast.27.5 = s32[64]{0} broadcast(%constant_1_1), dimensions={}, metadata={scheduling_name="broadcast.27.5"}
  %add.3.5 = s32[64]{0} add(%param_0.26, %broadcast.27.5), metadata={op_name="jit(_take)/jit(main)/add" source_file="/global/homes/j/jackm/software/lorrax_B/src/common/phdf5_wfn_reader.py" source_line=154 scheduling_name="add.3.5"}
  %select.8.5 = s32[64]{0} select(%compare.9.5, %add.3.5, %param_0.26), metadata={op_name="jit(_take)/jit(main)/jit(_where)/select_n" source_file="/global/homes/j/jackm/software/lorrax_B/src/common/phdf5_wfn_reader.py" source_line=154 scheduling_name="select.8.5"}
  %bitcast.93.9 = s32[64,1]{1,0} bitcast(%select.8.5), metadata={scheduling_name="bitcast.93.9"}
  %convert.7.9 = s64[64,1]{1,0} convert(%bitcast.93.9), metadata={op_name="jit(_take)/jit(main)/convert_element_type" source_file="/global/homes/j/jackm/software/lorrax_B/src/common/phdf5_wfn_reader.py" source_line=154 scheduling_name="convert.7.9"}
  %constant_2_1 = s64[] constant(0)
  %broadcast.28.3 = s64[64,1]{1,0} broadcast(%constant_2_1), dimensions={}, metadata={scheduling_name="broadcast.28.3"}
  %compare.10.3 = pred[64,1]{1,0} compare(%convert.7.9, %broadcast.28.3), direction=GE, metadata={op_name="jit(_take)/jit(main)/ge" source_file="/global/homes/j/jackm/software/lorrax_B/src/common/phdf5_wfn_reader.py" source_line=154 scheduling_name="compare.10.3"}
  %constant_4_1 = s64[] constant(63)
  %broadcast.29.3 = s64[64,1]{1,0} broadcast(%constant_4_1), dimensions={}, metadata={scheduling_name="broadcast.29.3"}
  %compare.11.3 = pred[64,1]{1,0} compare(%convert.7.9, %broadcast.29.3), direction=LE, metadata={op_name="jit(_take)/jit(main)/le" source_file="/global/homes/j/jackm/software/lorrax_B/src/common/phdf5_wfn_reader.py" source_line=154 scheduling_name="compare.11.3"}
  ROOT %and.3.1 = pred[64,1]{1,0} and(%compare.10.3, %compare.11.3), metadata={op_name="jit(_take)/jit(main)/and" source_file="/global/homes/j/jackm/software/lorrax_B/src/common/phdf5_wfn_reader.py" source_line=154 scheduling_name="and.3.1"}
}

ENTRY %main.35_spmd (param.1.0: s32[64,24,24,24], param.2: s32[64]) -> s32[64,24,24,24] {
  %param.2 = s32[64]{0} parameter(1), sharding={replicated}, metadata={op_name="indices" scheduling_name="param.2"}
  %param.1.0 = s32[64,24,24,24]{3,2,1,0} parameter(0), sharding={replicated}, metadata={op_name="a" scheduling_name="param.1.0"}
  %loop_and_fusion = pred[64,1]{1,0} fusion(%param.2), kind=kLoop, calls=%fused_and, metadata={op_name="jit(_take)/jit(main)/and" source_file="/global/homes/j/jackm/software/lorrax_B/src/common/phdf5_wfn_reader.py" source_line=154 scheduling_name="loop_and_fusion"}
  %loop_select_fusion = s32[1,64,24,24,24]{4,3,2,1,0} fusion(%param.1.0, %loop_and_fusion, %param.2), kind=kLoop, calls=%fused_select, metadata={op_name="jit(_take)/jit(main)/select_n" source_file="/global/homes/j/jackm/software/lorrax_B/src/common/phdf5_wfn_reader.py" source_line=154 scheduling_name="loop_select_fusion"}
  ROOT %bitcast.2.0 = s32[64,24,24,24]{3,2,1,0} bitcast(%loop_select_fusion), metadata={op_name="jit(_take)/jit(main)/select_n" source_file="/global/homes/j/jackm/software/lorrax_B/src/common/phdf5_wfn_reader.py" source_line=154 scheduling_name="bitcast.2.0"}
}

