HloModule jit__full_run, is_scheduled=true, entry_computation_layout={(c128[64,4,2,240]{3,2,1,0}, c128[64,4,2,240]{3,2,1,0}, c128[64,4,2,240]{3,2,1,0}, c128[64,4,2,240]{3,2,1,0}, f64[64,4]{1,0}, /*index=5*/f64[64,4]{1,0}, c128[240,240,4,4,4]{4,3,2,1,0}, c128[240,240]{1,0})->(f64[20]{0}, c128[20,1024]{1,0}, s32[])}, allow_spmd_sharding_propagation_to_parameters={false,false,false,false,false,false,false,false}, allow_spmd_sharding_propagation_to_output={false,false,false}, num_partitions=4, frontend_attributes={fingerprint_before_lhs="45b71da2d6cd9078eea821cb63853388"}

%fused_subtract (param_0.1: c128[512], param_1.19: c128[512,200], param_2.23: s64[], param_3.16: c128[], param_4.17: s64[]) -> c128[512] {
  %param_0.1 = c128[512]{0} parameter(0), metadata={scheduling_name="param_0.1"}
  %param_2.23 = s64[] parameter(2), metadata={scheduling_name="param_2.23"}
  %param_4.17 = s64[] parameter(4), metadata={scheduling_name="param_4.17"}
  %compare.436.3 = pred[] compare(%param_2.23, %param_4.17), direction=LT, metadata={op_name="jit(_full_run)/jit(main)/while/body/while/body/lt" source_file="/global/homes/j/jackm/software/lorrax_C/src/solvers/lanczos.py" source_line=269 scheduling_name="compare.436.3"}
  %param_3.16 = c128[] parameter(3), metadata={scheduling_name="param_3.16"}
  %constant_1238_2 = c128[] constant((0, 0))
  %select.930.3 = c128[] select(%compare.436.3, %param_3.16, %constant_1238_2), metadata={op_name="jit(_full_run)/jit(main)/while/body/while/body/jit(_where)/select_n" source_file="/global/homes/j/jackm/software/lorrax_C/src/solvers/lanczos.py" source_line=271 scheduling_name="select.930.3"}
  %broadcast.2129.1 = c128[512,1]{1,0} broadcast(%select.930.3), dimensions={}, metadata={op_name="jit(_full_run)/jit(main)/while/body/while/body/mul" source_file="/global/homes/j/jackm/software/lorrax_C/src/solvers/lanczos.py" source_line=272 scheduling_name="broadcast.2129.1"}
  %param_1.19 = c128[512,200]{1,0} parameter(1), metadata={scheduling_name="param_1.19"}
  %constant_1235_2 = s64[] constant(0)
  %compare.437.2 = pred[] compare(%param_2.23, %constant_1235_2), direction=LT, metadata={op_name="jit(_full_run)/jit(main)/while/body/while/body/lt" source_file="/global/homes/j/jackm/software/lorrax_C/src/solvers/lanczos.py" source_line=270 scheduling_name="compare.437.2"}
  %constant_1236_1 = s64[] constant(200)
  %add.1399.2 = s64[] add(%param_2.23, %constant_1236_1), metadata={op_name="jit(_full_run)/jit(main)/while/body/while/body/add" source_file="/global/homes/j/jackm/software/lorrax_C/src/solvers/lanczos.py" source_line=270 scheduling_name="add.1399.2"}
  %select.929.1 = s64[] select(%compare.437.2, %add.1399.2, %param_2.23), metadata={op_name="jit(_full_run)/jit(main)/while/body/while/body/select_n" source_file="/global/homes/j/jackm/software/lorrax_C/src/solvers/lanczos.py" source_line=270 scheduling_name="select.929.1"}
  %dynamic-slice.135.3 = c128[512,1]{1,0} dynamic-slice(%param_1.19, %constant_1235_2, %select.929.1), dynamic_slice_sizes={512,1}, metadata={op_name="jit(_full_run)/jit(main)/while/body/while/body/dynamic_slice" source_file="/global/homes/j/jackm/software/lorrax_C/src/solvers/lanczos.py" source_line=270 scheduling_name="dynamic-slice.135.3"}
  %multiply.813.1 = c128[512,1]{1,0} multiply(%broadcast.2129.1, %dynamic-slice.135.3), metadata={op_name="jit(_full_run)/jit(main)/while/body/while/body/mul" source_file="/global/homes/j/jackm/software/lorrax_C/src/solvers/lanczos.py" source_line=272 scheduling_name="multiply.813.1"}
  %bitcast.6241.1 = c128[512]{0} bitcast(%multiply.813.1), metadata={scheduling_name="bitcast.6241.1"}
  ROOT %subtract.66.1 = c128[512]{0} subtract(%param_0.1, %bitcast.6241.1), metadata={op_name="jit(_full_run)/jit(main)/while/body/while/body/sub" source_file="/global/homes/j/jackm/software/lorrax_C/src/solvers/lanczos.py" source_line=272 scheduling_name="subtract.66.1"}
}

%scalar_add_computation (scalar_lhs: c128[], scalar_rhs: c128[]) -> c128[] {
  %scalar_rhs = c128[] parameter(1), metadata={scheduling_name="scalar_rhs"}
  %scalar_lhs = c128[] parameter(0), metadata={scheduling_name="scalar_lhs"}
  ROOT %add.1390 = c128[] add(%scalar_lhs, %scalar_rhs), metadata={scheduling_name="add.1390"}
}

%fused_reduce (param_0.21: c128[512], param_1.25: c128[512,200], param_2.24: s64[]) -> c128[] {
  %param_1.25 = c128[512,200]{1,0} parameter(1), metadata={scheduling_name="param_1.25"}
  %constant_1235_1 = s64[] constant(0)
  %param_2.24 = s64[] parameter(2), metadata={scheduling_name="param_2.24"}
  %compare.437.4 = pred[] compare(%param_2.24, %constant_1235_1), direction=LT, metadata={op_name="jit(_full_run)/jit(main)/while/body/while/body/lt" source_file="/global/homes/j/jackm/software/lorrax_C/src/solvers/lanczos.py" source_line=270 scheduling_name="compare.437.4"}
  %constant_1236_2 = s64[] constant(200)
  %add.1399.4 = s64[] add(%param_2.24, %constant_1236_2), metadata={op_name="jit(_full_run)/jit(main)/while/body/while/body/add" source_file="/global/homes/j/jackm/software/lorrax_C/src/solvers/lanczos.py" source_line=270 scheduling_name="add.1399.4"}
  %select.929.4 = s64[] select(%compare.437.4, %add.1399.4, %param_2.24), metadata={op_name="jit(_full_run)/jit(main)/while/body/while/body/select_n" source_file="/global/homes/j/jackm/software/lorrax_C/src/solvers/lanczos.py" source_line=270 scheduling_name="select.929.4"}
  %dynamic-slice.135.13 = c128[512,1]{1,0} dynamic-slice(%param_1.25, %constant_1235_1, %select.929.4), dynamic_slice_sizes={512,1}, metadata={op_name="jit(_full_run)/jit(main)/while/body/while/body/dynamic_slice" source_file="/global/homes/j/jackm/software/lorrax_C/src/solvers/lanczos.py" source_line=270 scheduling_name="dynamic-slice.135.13"}
  %real.106.5 = f64[512,1]{1,0} real(%dynamic-slice.135.13), metadata={op_name="jit(_full_run)/jit(main)/while/body/while/body/real" source_file="/global/homes/j/jackm/software/lorrax_C/src/solvers/lanczos.py" source_line=271 scheduling_name="real.106.5"}
  %imag.83.7 = f64[512,1]{1,0} imag(%dynamic-slice.135.13), metadata={op_name="jit(_full_run)/jit(main)/while/body/while/body/imag" source_file="/global/homes/j/jackm/software/lorrax_C/src/solvers/lanczos.py" source_line=271 scheduling_name="imag.83.7"}
  %negate.131.5 = f64[512,1]{1,0} negate(%imag.83.7), metadata={op_name="jit(_full_run)/jit(main)/while/body/while/body/neg" source_file="/global/homes/j/jackm/software/lorrax_C/src/solvers/lanczos.py" source_line=271 scheduling_name="negate.131.5"}
  %complex.82.3 = c128[512,1]{1,0} complex(%real.106.5, %negate.131.5), metadata={op_name="jit(_full_run)/jit(main)/while/body/while/body/complex" source_file="/global/homes/j/jackm/software/lorrax_C/src/solvers/lanczos.py" source_line=271 scheduling_name="complex.82.3"}
  %bitcast.6228.3 = c128[512]{0} bitcast(%complex.82.3), metadata={scheduling_name="bitcast.6228.3"}
  %param_0.21 = c128[512]{0} parameter(0), metadata={scheduling_name="param_0.21"}
  %multiply.812.3 = c128[512]{0} multiply(%bitcast.6228.3, %param_0.21), metadata={scheduling_name="multiply.812.3"}
  %constant_1238_1 = c128[] constant((0, 0))
  ROOT %reduce.45.1 = c128[] reduce(%multiply.812.3, %constant_1238_1), dimensions={0}, to_apply=%scalar_add_computation, metadata={op_name="jit(_full_run)/jit(main)/while/body/while/body/dot_general" source_file="/global/homes/j/jackm/software/lorrax_C/src/solvers/lanczos.py" source_line=271 scheduling_name="reduce.45.1"}
}

%fused_add (param_0.20: s64[]) -> s64[] {
  %param_0.20 = s64[] parameter(0), metadata={scheduling_name="param_0.20"}
  %constant_1233_1 = s64[] constant(1)
  ROOT %add.1398.1 = s64[] add(%param_0.20, %constant_1233_1), metadata={op_name="jit(_full_run)/jit(main)/while/body/while/body/add" source_file="/global/homes/j/jackm/software/lorrax_C/src/solvers/lanczos.py" source_line=275 scheduling_name="add.1398.1"}
}

%scalar_add_computation.clone.1 (scalar_lhs.4: c128[], scalar_rhs.4: c128[]) -> c128[] {
  %scalar_rhs.4 = c128[] parameter(1), metadata={scheduling_name="scalar_rhs.4"}
  %scalar_lhs.4 = c128[] parameter(0), metadata={scheduling_name="scalar_lhs.4"}
  ROOT %add.1397 = c128[] add(%scalar_lhs.4, %scalar_rhs.4), metadata={scheduling_name="add.1397"}
}

%region_7.1655_spmd (param.10.0: (s64[], c128[512], s64[], s64[], c128[512,200])) -> (s64[], c128[512], s64[], s64[], c128[512,200]) {
  %param.10.0 = (s64[], c128[512]{0}, s64[], s64[], c128[512,200]{1,0}) parameter(0), metadata={scheduling_name="param.10.0"}
  %get-tuple-element.335 = s64[] get-tuple-element(%param.10.0), index=0, metadata={scheduling_name="get-tuple-element.335"}
  %copy.101 = s64[] copy(%get-tuple-element.335), metadata={scheduling_name="copy.101"}
  %get-tuple-element.346 = c128[512,200]{1,0} get-tuple-element(%param.10.0), index=4, metadata={scheduling_name="get-tuple-element.346"}
  %get-tuple-element.338 = c128[512]{0} get-tuple-element(%param.10.0), index=1, metadata={scheduling_name="get-tuple-element.338"}
  %input_reduce_fusion = c128[] fusion(%get-tuple-element.338, %get-tuple-element.346, %copy.101), kind=kInput, calls=%fused_reduce, metadata={op_name="jit(_full_run)/jit(main)/while/body/while/body/dot_general" source_file="/global/homes/j/jackm/software/lorrax_C/src/solvers/lanczos.py" source_line=271 scheduling_name="input_reduce_fusion"}
  %all-reduce-start = c128[] all-reduce-start(%input_reduce_fusion), channel_id=12, replica_groups=[2,2]<=[2,2]T(1,0), use_global_device_ids=true, to_apply=%scalar_add_computation.clone.1, metadata={op_name="jit(_full_run)/jit(main)/while/body/while/body/dot_general" source_file="/global/homes/j/jackm/software/lorrax_C/src/solvers/lanczos.py" source_line=271 scheduling_name="all-reduce-start"}, backend_config={"operation_queue_id":"0","wait_on_operation_queues":[],"collective_backend_config":{"is_sync":false,"no_parallel_custom_call":true,"is_pipelined":false,"reification_cost":[]},"force_earliest_schedule":false}
  %loop_add_fusion = s64[] fusion(%copy.101), kind=kLoop, calls=%fused_add, metadata={op_name="jit(_full_run)/jit(main)/while/body/while/body/add" source_file="/global/homes/j/jackm/software/lorrax_C/src/solvers/lanczos.py" source_line=275 deduplicated_name="loop_add_fusion" scheduling_name="loop_add_fusion"}
  %all-reduce-done = c128[] all-reduce-done(%all-reduce-start), metadata={op_name="jit(_full_run)/jit(main)/while/body/while/body/dot_general" source_file="/global/homes/j/jackm/software/lorrax_C/src/solvers/lanczos.py" source_line=271 scheduling_name="all-reduce-done"}
  %get-tuple-element.345 = s64[] get-tuple-element(%param.10.0), index=3, metadata={scheduling_name="get-tuple-element.345"}
  %loop_subtract_fusion = c128[512]{0} fusion(%get-tuple-element.338, %get-tuple-element.346, %copy.101, %all-reduce-done, %get-tuple-element.345), kind=kLoop, calls=%fused_subtract, metadata={op_name="jit(_full_run)/jit(main)/while/body/while/body/sub" source_file="/global/homes/j/jackm/software/lorrax_C/src/solvers/lanczos.py" source_line=272 scheduling_name="loop_subtract_fusion"}
  %get-tuple-element.344 = s64[] get-tuple-element(%param.10.0), index=2, metadata={scheduling_name="get-tuple-element.344"}
  ROOT %tuple.80 = (s64[], c128[512]{0}, s64[], s64[], c128[512,200]{1,0}) tuple(%loop_add_fusion, %loop_subtract_fusion, %get-tuple-element.344, %get-tuple-element.345, %get-tuple-element.346), metadata={scheduling_name="tuple.80"}
}

%wrapped_compare_computation (param_0.701: s64[], param_1.852: s64[]) -> pred[] {
  %param_0.701 = s64[] parameter(0), metadata={scheduling_name="param_0.701"}
  %param_1.852 = s64[] parameter(1), metadata={scheduling_name="param_1.852"}
  ROOT %compare.435.1 = pred[] compare(%param_0.701, %param_1.852), direction=LT, metadata={op_name="jit(_full_run)/jit(main)/while/body/while/cond/lt" source_file="/global/homes/j/jackm/software/lorrax_C/src/solvers/lanczos.py" source_line=275 scheduling_name="compare.435.1"}
}

%region_8.1683_spmd (param.9.0: (s64[], c128[512], s64[], s64[], c128[512,200])) -> pred[] {
  %param.9.0 = (s64[], c128[512]{0}, s64[], s64[], c128[512,200]{1,0}) parameter(0), metadata={scheduling_name="param.9.0"}
  %get-tuple-element.261.0 = s64[] get-tuple-element(%param.9.0), index=2, metadata={scheduling_name="get-tuple-element.261.0"}
  %get-tuple-element.260.0 = s64[] get-tuple-element(%param.9.0), index=0, metadata={scheduling_name="get-tuple-element.260.0"}
  ROOT %wrapped_compare = pred[] fusion(%get-tuple-element.260.0, %get-tuple-element.261.0), kind=kLoop, calls=%wrapped_compare_computation, metadata={op_name="jit(_full_run)/jit(main)/while/body/while/cond/lt" source_file="/global/homes/j/jackm/software/lorrax_C/src/solvers/lanczos.py" source_line=275 scheduling_name="wrapped_compare"}
}

%fused_subtract.1 (param_0.149: c128[1,2,4,64], param_1.125: c128[512], param_2.74: c128[512,200], param_3.89: s64[], param_4.95: c128[], param_5.66: f64[200]) -> c128[512] {
  %param_0.149 = c128[1,2,4,64]{3,1,0,2} parameter(0), metadata={scheduling_name="param_0.149"}
  %bitcast.6569.5 = c128[4,2,64]{2,1,0} bitcast(%param_0.149), metadata={scheduling_name="bitcast.6569.5"}
  %transpose.215.5 = c128[2,4,64]{2,1,0} transpose(%bitcast.6569.5), dimensions={1,0,2}, metadata={op_name="jit(_full_run)/jit(main)/while/body/reshape" source_file="/global/homes/j/jackm/software/lorrax_C/src/bse/bse_lanczos.py" source_line=208 scheduling_name="transpose.215.5"}
  %bitcast.6582.4 = c128[512]{0} bitcast(%transpose.215.5), metadata={scheduling_name="bitcast.6582.4"}
  %param_4.95 = c128[] parameter(4), metadata={scheduling_name="param_4.95"}
  %real.112.2 = f64[] real(%param_4.95), metadata={op_name="jit(_full_run)/jit(main)/while/body/real" source_file="/global/homes/j/jackm/software/lorrax_C/src/solvers/lanczos.py" source_line=260 scheduling_name="real.112.2"}
  %convert.158.1 = c128[] convert(%real.112.2), metadata={op_name="jit(_full_run)/jit(main)/while/body/convert_element_type" source_file="/global/homes/j/jackm/software/lorrax_C/src/solvers/lanczos.py" source_line=263 scheduling_name="convert.158.1"}
  %broadcast.2143.1 = c128[512]{0} broadcast(%convert.158.1), dimensions={}, metadata={op_name="jit(_full_run)/jit(main)/while/body/mul" source_file="/global/homes/j/jackm/software/lorrax_C/src/solvers/lanczos.py" source_line=263 scheduling_name="broadcast.2143.1"}
  %param_1.125 = c128[512]{0} parameter(1), metadata={scheduling_name="param_1.125"}
  %multiply.827.1 = c128[512]{0} multiply(%broadcast.2143.1, %param_1.125), metadata={op_name="jit(_full_run)/jit(main)/while/body/mul" source_file="/global/homes/j/jackm/software/lorrax_C/src/solvers/lanczos.py" source_line=263 scheduling_name="multiply.827.1"}
  %subtract.69.3 = c128[512]{0} subtract(%bitcast.6582.4, %multiply.827.1), metadata={op_name="jit(_full_run)/jit(main)/while/body/sub" source_file="/global/homes/j/jackm/software/lorrax_C/src/solvers/lanczos.py" source_line=263 scheduling_name="subtract.69.3"}
  %param_3.89 = s64[] parameter(3), metadata={scheduling_name="param_3.89"}
  %constant_1255_5 = s64[] constant(0)
  %compare.441.3 = pred[] compare(%param_3.89, %constant_1255_5), direction=GT, metadata={op_name="jit(_full_run)/jit(main)/while/body/gt" source_file="/global/homes/j/jackm/software/lorrax_C/src/solvers/lanczos.py" source_line=265 scheduling_name="compare.441.3"}
  %param_5.66 = f64[200]{0} parameter(5), metadata={scheduling_name="param_5.66"}
  %constant_1418_1 = s64[] constant(-1)
  %add.1405.4 = s64[] add(%param_3.89, %constant_1418_1), metadata={op_name="jit(_full_run)/jit(main)/while/body/sub" source_file="/global/homes/j/jackm/software/lorrax_C/src/solvers/lanczos.py" source_line=265 scheduling_name="add.1405.4"}
  %compare.442.3 = pred[] compare(%add.1405.4, %constant_1255_5), direction=LT, metadata={op_name="jit(_full_run)/jit(main)/while/body/lt" source_file="/global/homes/j/jackm/software/lorrax_C/src/solvers/lanczos.py" source_line=265 scheduling_name="compare.442.3"}
  %constant_1254_1 = s64[] constant(199)
  %add.1406.3 = s64[] add(%param_3.89, %constant_1254_1), metadata={op_name="jit(_full_run)/jit(main)/while/body/add" source_file="/global/homes/j/jackm/software/lorrax_C/src/solvers/lanczos.py" source_line=265 scheduling_name="add.1406.3"}
  %select.932.3 = s64[] select(%compare.442.3, %add.1406.3, %add.1405.4), metadata={op_name="jit(_full_run)/jit(main)/while/body/select_n" source_file="/global/homes/j/jackm/software/lorrax_C/src/solvers/lanczos.py" source_line=265 scheduling_name="select.932.3"}
  %dynamic-slice.144.3 = f64[1]{0} dynamic-slice(%param_5.66, %select.932.3), dynamic_slice_sizes={1}, metadata={op_name="jit(_full_run)/jit(main)/while/body/dynamic_slice" source_file="/global/homes/j/jackm/software/lorrax_C/src/solvers/lanczos.py" source_line=265 scheduling_name="dynamic-slice.144.3"}
  %bitcast.6617.3 = f64[] bitcast(%dynamic-slice.144.3), metadata={scheduling_name="bitcast.6617.3"}
  %constant_1337_2 = f64[] constant(0)
  %select.933.3 = f64[] select(%compare.441.3, %bitcast.6617.3, %constant_1337_2), metadata={op_name="jit(_full_run)/jit(main)/while/body/jit(_where)/select_n" source_file="/global/homes/j/jackm/software/lorrax_C/src/solvers/lanczos.py" source_line=265 scheduling_name="select.933.3"}
  %convert.159.1 = c128[] convert(%select.933.3), metadata={op_name="jit(_full_run)/jit(main)/while/body/convert_element_type" source_file="/global/homes/j/jackm/software/lorrax_C/src/solvers/lanczos.py" source_line=266 scheduling_name="convert.159.1"}
  %broadcast.2144.1 = c128[512,1]{1,0} broadcast(%convert.159.1), dimensions={}, metadata={op_name="jit(_full_run)/jit(main)/while/body/mul" source_file="/global/homes/j/jackm/software/lorrax_C/src/solvers/lanczos.py" source_line=266 scheduling_name="broadcast.2144.1"}
  %param_2.74 = c128[512,200]{1,0} parameter(2), metadata={scheduling_name="param_2.74"}
  %maximum.71.1 = s64[] maximum(%add.1405.4, %constant_1255_5), metadata={op_name="jit(_full_run)/jit(main)/while/body/max" source_file="/global/homes/j/jackm/software/lorrax_C/src/solvers/lanczos.py" source_line=264 scheduling_name="maximum.71.1"}
  %dynamic-slice.145.1 = c128[512,1]{1,0} dynamic-slice(%param_2.74, %constant_1255_5, %maximum.71.1), dynamic_slice_sizes={512,1}, metadata={op_name="jit(_full_run)/jit(main)/while/body/dynamic_slice" source_file="/global/homes/j/jackm/software/lorrax_C/src/solvers/lanczos.py" source_line=264 scheduling_name="dynamic-slice.145.1"}
  %multiply.828.1 = c128[512,1]{1,0} multiply(%broadcast.2144.1, %dynamic-slice.145.1), metadata={op_name="jit(_full_run)/jit(main)/while/body/mul" source_file="/global/homes/j/jackm/software/lorrax_C/src/solvers/lanczos.py" source_line=266 scheduling_name="multiply.828.1"}
  %bitcast.6634.1 = c128[512]{0} bitcast(%multiply.828.1), metadata={scheduling_name="bitcast.6634.1"}
  ROOT %subtract.70.1 = c128[512]{0} subtract(%subtract.69.3, %bitcast.6634.1), metadata={op_name="jit(_full_run)/jit(main)/while/body/sub" source_file="/global/homes/j/jackm/software/lorrax_C/src/solvers/lanczos.py" source_line=266 scheduling_name="subtract.70.1"}
}

%fused_transpose (param_0.164: c128[64,2,2], param_1.206: c128[64,4,4], param_2.156: f64[64,4], param_3.93: f64[64,4], param_4.96: s32[4], param_5.69: u32[], param_6.58: s32[4], param_7.25: u32[4], param_8.16: u32[4], param_9.18: c128[512]) -> c128[2,2,64] {
  %param_2.156 = f64[64,4]{1,0} parameter(2), metadata={scheduling_name="param_2.156"}
  %constant_1251_3 = s32[] constant(0)
  %constant_1752_1 = u32[1]{0} constant({0}), metadata={op_name="jit(_full_run)/jit(main)/while/body/jit(_matvec)/transpose" source_file="/global/homes/j/jackm/software/lorrax_C/src/bse/bse_simple.py" source_line=139}
  %param_8.16 = u32[4]{0} parameter(8), metadata={scheduling_name="param_8.16"}
  %param_5.69 = u32[] parameter(5), metadata={scheduling_name="param_5.69"}
  %dynamic-slice.136.1 = u32[1]{0} dynamic-slice(%param_8.16, %param_5.69), dynamic_slice_sizes={1}, metadata={op_name="jit(_full_run)/jit(main)/while/body/jit(_matvec)/transpose" source_file="/global/homes/j/jackm/software/lorrax_C/src/bse/bse_simple.py" source_line=139 scheduling_name="dynamic-slice.136.1"}
  %constant_1753_1 = u32[1]{0} constant({1}), metadata={op_name="jit(_full_run)/jit(main)/while/body/jit(_matvec)/transpose" source_file="/global/homes/j/jackm/software/lorrax_C/src/bse/bse_simple.py" source_line=139}
  %clamp.8.1 = u32[1]{0} clamp(%constant_1752_1, %dynamic-slice.136.1, %constant_1753_1), metadata={op_name="jit(_full_run)/jit(main)/while/body/jit(_matvec)/transpose" source_file="/global/homes/j/jackm/software/lorrax_C/src/bse/bse_simple.py" source_line=139 scheduling_name="clamp.8.1"}
  %convert.155.1 = s32[1]{0} convert(%clamp.8.1), metadata={op_name="jit(_full_run)/jit(main)/while/body/jit(_matvec)/transpose" source_file="/global/homes/j/jackm/software/lorrax_C/src/bse/bse_simple.py" source_line=139 scheduling_name="convert.155.1"}
  %constant_1957_1 = s32[1]{0} constant({2}), metadata={op_name="jit(_full_run)/jit(main)/while/body/jit(_matvec)/transpose" source_file="/global/homes/j/jackm/software/lorrax_C/src/bse/bse_simple.py" source_line=139}
  %multiply.815.1 = s32[1]{0} multiply(%convert.155.1, %constant_1957_1), metadata={op_name="jit(_full_run)/jit(main)/while/body/jit(_matvec)/transpose" source_file="/global/homes/j/jackm/software/lorrax_C/src/bse/bse_simple.py" source_line=139 scheduling_name="multiply.815.1"}
  %bitcast.6310.3 = s32[] bitcast(%multiply.815.1), metadata={scheduling_name="bitcast.6310.3"}
  %dynamic-slice.137.3 = f64[64,2]{1,0} dynamic-slice(%param_2.156, %constant_1251_3, %bitcast.6310.3), dynamic_slice_sizes={64,2}, metadata={op_name="jit(_full_run)/jit(main)/while/body/jit(_matvec)/transpose" source_file="/global/homes/j/jackm/software/lorrax_C/src/bse/bse_simple.py" source_line=139 scheduling_name="dynamic-slice.137.3"}
  %broadcast.2133.1 = f64[1,2,64,2]{3,2,1,0} broadcast(%dynamic-slice.137.3), dimensions={2,3}, metadata={op_name="jit(_full_run)/jit(main)/while/body/jit(_matvec)/sub" source_file="/global/homes/j/jackm/software/lorrax_C/src/bse/bse_simple.py" source_line=139 scheduling_name="broadcast.2133.1"}
  %param_3.93 = f64[64,4]{0,1} parameter(3), metadata={scheduling_name="param_3.93"}
  %bitcast.6315.3 = f64[4,64]{1,0} bitcast(%param_3.93), metadata={scheduling_name="bitcast.6315.3"}
  %param_7.25 = u32[4]{0} parameter(7), metadata={scheduling_name="param_7.25"}
  %dynamic-slice.138.1 = u32[1]{0} dynamic-slice(%param_7.25, %param_5.69), dynamic_slice_sizes={1}, metadata={op_name="jit(_full_run)/jit(main)/while/body/jit(_matvec)/transpose" source_file="/global/homes/j/jackm/software/lorrax_C/src/bse/bse_simple.py" source_line=139 scheduling_name="dynamic-slice.138.1"}
  %clamp.9.1 = u32[1]{0} clamp(%constant_1752_1, %dynamic-slice.138.1, %constant_1753_1), metadata={op_name="jit(_full_run)/jit(main)/while/body/jit(_matvec)/transpose" source_file="/global/homes/j/jackm/software/lorrax_C/src/bse/bse_simple.py" source_line=139 scheduling_name="clamp.9.1"}
  %convert.156.1 = s32[1]{0} convert(%clamp.9.1), metadata={op_name="jit(_full_run)/jit(main)/while/body/jit(_matvec)/transpose" source_file="/global/homes/j/jackm/software/lorrax_C/src/bse/bse_simple.py" source_line=139 scheduling_name="convert.156.1"}
  %multiply.816.1 = s32[1]{0} multiply(%convert.156.1, %constant_1957_1), metadata={op_name="jit(_full_run)/jit(main)/while/body/jit(_matvec)/transpose" source_file="/global/homes/j/jackm/software/lorrax_C/src/bse/bse_simple.py" source_line=139 scheduling_name="multiply.816.1"}
  %bitcast.6331.3 = s32[] bitcast(%multiply.816.1), metadata={scheduling_name="bitcast.6331.3"}
  %dynamic-slice.139.3 = f64[2,64]{1,0} dynamic-slice(%bitcast.6315.3, %bitcast.6331.3, %constant_1251_3), dynamic_slice_sizes={2,64}, metadata={op_name="jit(_full_run)/jit(main)/while/body/jit(_matvec)/transpose" source_file="/global/homes/j/jackm/software/lorrax_C/src/bse/bse_simple.py" source_line=139 scheduling_name="dynamic-slice.139.3"}
  %broadcast.2134.1 = f64[1,2,64,2]{3,2,1,0} broadcast(%dynamic-slice.139.3), dimensions={1,2}, metadata={op_name="jit(_full_run)/jit(main)/while/body/jit(_matvec)/sub" source_file="/global/homes/j/jackm/software/lorrax_C/src/bse/bse_simple.py" source_line=139 scheduling_name="broadcast.2134.1"}
  %subtract.67.1 = f64[1,2,64,2]{3,2,1,0} subtract(%broadcast.2133.1, %broadcast.2134.1), metadata={op_name="jit(_full_run)/jit(main)/while/body/jit(_matvec)/sub" source_file="/global/homes/j/jackm/software/lorrax_C/src/bse/bse_simple.py" source_line=139 scheduling_name="subtract.67.1"}
  %convert.157.3 = c128[1,2,64,2]{3,2,1,0} convert(%subtract.67.1), metadata={op_name="jit(_full_run)/jit(main)/while/body/jit(_matvec)/convert_element_type" source_file="/global/homes/j/jackm/software/lorrax_C/src/bse/bse_simple.py" source_line=140 scheduling_name="convert.157.3"}
  %param_9.18 = c128[512]{0} parameter(9), metadata={scheduling_name="param_9.18"}
  %bitcast.6340.3 = c128[1,2,4,64]{3,2,1,0} bitcast(%param_9.18), metadata={scheduling_name="bitcast.6340.3"}
  %param_6.58 = s32[4]{0} parameter(6), metadata={scheduling_name="param_6.58"}
  %dynamic-slice.140.4 = s32[1]{0} dynamic-slice(%param_6.58, %param_5.69), dynamic_slice_sizes={1}, metadata={op_name="jit(_full_run)/jit(main)/while/body/reshape" source_file="/global/homes/j/jackm/software/lorrax_C/src/bse/bse_lanczos.py" source_line=202 scheduling_name="dynamic-slice.140.4"}
  %bitcast.6448.10 = s32[] bitcast(%dynamic-slice.140.4), metadata={scheduling_name="bitcast.6448.10"}
  %dynamic-slice.141.3 = c128[1,2,2,64]{3,2,1,0} dynamic-slice(%bitcast.6340.3, %constant_1251_3, %constant_1251_3, %bitcast.6448.10, %constant_1251_3), dynamic_slice_sizes={1,2,2,64}, metadata={op_name="jit(_full_run)/jit(main)/while/body/reshape" source_file="/global/homes/j/jackm/software/lorrax_C/src/bse/bse_lanczos.py" source_line=202 scheduling_name="dynamic-slice.141.3"}
  %bitcast.6351.5 = c128[2,128]{1,0} bitcast(%dynamic-slice.141.3), metadata={scheduling_name="bitcast.6351.5"}
  %transpose.202.5 = c128[128,2]{1,0} transpose(%bitcast.6351.5), dimensions={1,0}, metadata={op_name="jit(_full_run)/jit(main)/while/body/reshape" source_file="/global/homes/j/jackm/software/lorrax_C/src/bse/bse_lanczos.py" source_line=202 scheduling_name="transpose.202.5"}
  %bitcast.6354.5 = c128[1,2,64,2]{3,2,1,0} bitcast(%transpose.202.5), metadata={scheduling_name="bitcast.6354.5"}
  %multiply.817.5 = c128[1,2,64,2]{3,2,1,0} multiply(%convert.157.3, %bitcast.6354.5), metadata={op_name="jit(_full_run)/jit(main)/while/body/jit(_matvec)/mul" source_file="/global/homes/j/jackm/software/lorrax_C/src/bse/bse_simple.py" source_line=140 scheduling_name="multiply.817.5"}
  %param_1.206 = c128[64,4,4]{2,0,1} parameter(1), metadata={scheduling_name="param_1.206"}
  %bitcast.6445.7 = c128[4,64,4]{2,1,0} bitcast(%param_1.206), metadata={scheduling_name="bitcast.6445.7"}
  %param_4.96 = s32[4]{0} parameter(4), metadata={scheduling_name="param_4.96"}
  %dynamic-slice.142.1 = s32[1]{0} dynamic-slice(%param_4.96, %param_5.69), dynamic_slice_sizes={1}, metadata={op_name="jit(_full_run)/jit(main)/while/body/reshape" source_file="/global/homes/j/jackm/software/lorrax_C/src/bse/bse_lanczos.py" source_line=202 scheduling_name="dynamic-slice.142.1"}
  %bitcast.6456.7 = s32[] bitcast(%dynamic-slice.142.1), metadata={scheduling_name="bitcast.6456.7"}
  %dynamic-slice.143.7 = c128[2,64,2]{2,1,0} dynamic-slice(%bitcast.6445.7, %bitcast.6448.10, %constant_1251_3, %bitcast.6456.7), dynamic_slice_sizes={2,64,2}, metadata={op_name="jit(_full_run)/jit(main)/while/body/jit(_matvec)/kcvM,bMk->bcvk/dot_general" source_file="/global/homes/j/jackm/software/lorrax_C/src/bse/bse_simple.py" source_line=183 scheduling_name="dynamic-slice.143.7"}
  %constant_1314_1 = c128[] constant((0.125, 0)), metadata={op_name="jit(_full_run)/jit(main)/while/body/jit(_matvec)/convert_element_type" source_file="/global/homes/j/jackm/software/lorrax_C/src/bse/bse_simple.py" source_line=163}
  %broadcast.2138.4 = c128[2,64,2]{2,1,0} broadcast(%constant_1314_1), dimensions={}, metadata={op_name="jit(_full_run)/jit(main)/while/body/jit(_matvec)/div" source_file="/global/homes/j/jackm/software/lorrax_C/src/bse/bse_simple.py" source_line=188 scheduling_name="broadcast.2138.4"}
  %multiply.821.5 = c128[2,64,2]{2,1,0} multiply(%dynamic-slice.143.7, %broadcast.2138.4), metadata={op_name="jit(_full_run)/jit(main)/while/body/jit(_matvec)/div" source_file="/global/homes/j/jackm/software/lorrax_C/src/bse/bse_simple.py" source_line=188 scheduling_name="multiply.821.5"}
  %bitcast.6462.3 = c128[1,2,64,2]{3,2,1,0} bitcast(%multiply.821.5), metadata={scheduling_name="bitcast.6462.3"}
  %add.1404.3 = c128[1,2,64,2]{3,2,1,0} add(%multiply.817.5, %bitcast.6462.3), metadata={op_name="jit(_full_run)/jit(main)/while/body/jit(_matvec)/add" source_file="/global/homes/j/jackm/software/lorrax_C/src/bse/bse_simple.py" source_line=238 scheduling_name="add.1404.3"}
  %param_0.164 = c128[64,2,2]{1,0,2} parameter(0), metadata={scheduling_name="param_0.164"}
  %bitcast.6553.5 = c128[2,64,2]{2,1,0} bitcast(%param_0.164), metadata={scheduling_name="bitcast.6553.5"}
  %multiply.825.5 = c128[2,64,2]{2,1,0} multiply(%bitcast.6553.5, %broadcast.2138.4), metadata={op_name="jit(_full_run)/jit(main)/while/body/jit(_matvec)/div" source_file="/global/homes/j/jackm/software/lorrax_C/src/bse/bse_simple.py" source_line=236 scheduling_name="multiply.825.5"}
  %bitcast.6559.3 = c128[1,2,64,2]{3,2,1,0} bitcast(%multiply.825.5), metadata={scheduling_name="bitcast.6559.3"}
  %subtract.68.3 = c128[1,2,64,2]{3,2,1,0} subtract(%add.1404.3, %bitcast.6559.3), metadata={op_name="jit(_full_run)/jit(main)/while/body/jit(_matvec)/sub" source_file="/global/homes/j/jackm/software/lorrax_C/src/bse/bse_simple.py" source_line=238 scheduling_name="subtract.68.3"}
  %bitcast.6562.1 = c128[2,64,2]{2,1,0} bitcast(%subtract.68.3), metadata={scheduling_name="bitcast.6562.1"}
  ROOT %transpose.214.1 = c128[2,2,64]{2,1,0} transpose(%bitcast.6562.1), dimensions={0,2,1}, metadata={op_name="jit(_full_run)/jit(main)/while/body/jit(_matvec)/sub" source_file="/global/homes/j/jackm/software/lorrax_C/src/bse/bse_simple.py" source_line=238 scheduling_name="transpose.214.1"}
}

%fused_transpose.1 (param_0.40: c128[64,480,4]) -> c128[4,30720] {
  %param_0.40 = c128[64,480,4]{2,1,0} parameter(0), metadata={scheduling_name="param_0.40"}
  %bitcast.6535.1 = c128[30720,4]{1,0} bitcast(%param_0.40), metadata={scheduling_name="bitcast.6535.1"}
  ROOT %transpose.212.1 = c128[4,30720]{1,0} transpose(%bitcast.6535.1), dimensions={1,0}, metadata={op_name="jit(_full_run)/jit(main)/while/body/jit(_matvec)/kctM,bMNtsk->bcNsk/dot_general" source_file="/global/homes/j/jackm/software/lorrax_C/src/bse/bse_simple.py" source_line=224 scheduling_name="transpose.212.1"}
}

%fused_transpose.2 (param_0.90: c128[1,240,240,2,2,4,4,4]) -> c128[64,240,2,2,240] {
  %param_0.90 = c128[1,240,240,2,2,4,4,4]{7,6,5,4,3,2,1,0} parameter(0), metadata={scheduling_name="param_0.90"}
  %constant_1314_3 = c128[] constant((0.125, 0)), metadata={op_name="jit(_full_run)/jit(main)/while/body/jit(_matvec)/convert_element_type" source_file="/global/homes/j/jackm/software/lorrax_C/src/bse/bse_simple.py" source_line=163}
  %broadcast.2141.1 = c128[1,240,240,2,2,4,4,4]{7,6,5,4,3,2,1,0} broadcast(%constant_1314_3), dimensions={}, metadata={op_name="jit(_full_run)/jit(main)/while/body/jit(_matvec)/jit(shmap_body)/mul" source_file="/global/homes/j/jackm/software/lorrax_C/src/common/fft_helpers.py" source_line=430 scheduling_name="broadcast.2141.1"}
  %multiply.824.1 = c128[1,240,240,2,2,4,4,4]{7,6,5,4,3,2,1,0} multiply(%param_0.90, %broadcast.2141.1), metadata={op_name="jit(_full_run)/jit(main)/while/body/jit(_matvec)/jit(shmap_body)/mul" source_file="/global/homes/j/jackm/software/lorrax_C/src/common/fft_helpers.py" source_line=430 scheduling_name="multiply.824.1"}
  %bitcast.6523.1 = c128[240,240,2,2,64]{4,3,2,1,0} bitcast(%multiply.824.1), metadata={scheduling_name="bitcast.6523.1"}
  ROOT %transpose.210.1 = c128[64,240,2,2,240]{4,3,2,1,0} transpose(%bitcast.6523.1), dimensions={4,1,3,2,0}, metadata={scheduling_name="transpose.210.1"}
}

%fused_transpose.3 (param_0.44: c128[64,480,480]) -> c128[240,240,2,2,64] {
  %param_0.44 = c128[64,480,480]{2,1,0} parameter(0), metadata={scheduling_name="param_0.44"}
  %bitcast.6503.1 = c128[64,2,240,2,240]{4,3,2,1,0} bitcast(%param_0.44), metadata={scheduling_name="bitcast.6503.1"}
  ROOT %transpose.209.1 = c128[240,240,2,2,64]{4,3,2,1,0} transpose(%bitcast.6503.1), dimensions={2,4,1,3,0}, metadata={op_name="jit(_full_run)/jit(main)/while/body/jit(_matvec)/kctM,kvsN,bcvk->bMNtsk/transpose" source_file="/global/homes/j/jackm/software/lorrax_C/src/bse/bse_simple.py" source_line=198 scheduling_name="transpose.209.1"}
}

%fused_transpose.4 (param_0.132: c128[64,4,2,240]) -> (c128[64,8,240], c128[15360,2,4]) {
  %param_0.132 = c128[64,4,2,240]{2,1,3,0} parameter(0), metadata={scheduling_name="param_0.132"}
  %bitcast.6488.12 = c128[64,240,4,2]{3,2,1,0} bitcast(%param_0.132), metadata={scheduling_name="bitcast.6488.12"}
  %real.110.5 = f64[64,240,4,2]{3,2,1,0} real(%bitcast.6488.12), metadata={op_name="jit(_full_run)/jit(main)/while/body/jit(_matvec)/real" source_file="/global/homes/j/jackm/software/lorrax_C/src/bse/bse_simple.py" source_line=200 scheduling_name="real.110.5"}
  %imag.87.7 = f64[64,240,4,2]{3,2,1,0} imag(%bitcast.6488.12), metadata={op_name="jit(_full_run)/jit(main)/while/body/jit(_matvec)/imag" source_file="/global/homes/j/jackm/software/lorrax_C/src/bse/bse_simple.py" source_line=200 scheduling_name="imag.87.7"}
  %negate.135.5 = f64[64,240,4,2]{3,2,1,0} negate(%imag.87.7), metadata={op_name="jit(_full_run)/jit(main)/while/body/jit(_matvec)/neg" source_file="/global/homes/j/jackm/software/lorrax_C/src/bse/bse_simple.py" source_line=200 scheduling_name="negate.135.5"}
  %complex.86.3 = c128[64,240,4,2]{3,2,1,0} complex(%real.110.5, %negate.135.5), metadata={op_name="jit(_full_run)/jit(main)/while/body/jit(_matvec)/complex" source_file="/global/homes/j/jackm/software/lorrax_C/src/bse/bse_simple.py" source_line=200 scheduling_name="complex.86.3"}
  %bitcast.6496.1 = c128[64,240,8]{2,1,0} bitcast(%complex.86.3), metadata={scheduling_name="bitcast.6496.1"}
  %transpose.208.1 = c128[64,8,240]{2,1,0} transpose(%bitcast.6496.1), dimensions={0,2,1}, metadata={op_name="jit(_full_run)/jit(main)/while/body/jit(_matvec)/complex" source_file="/global/homes/j/jackm/software/lorrax_C/src/bse/bse_simple.py" source_line=200 scheduling_name="transpose.208.1"}
  %bitcast.6545.1.clone.1 = c128[15360,4,2]{2,1,0} bitcast(%param_0.132), metadata={scheduling_name="bitcast.6545.1.clone.1"}
  %transpose.213.1.clone.1 = c128[15360,2,4]{2,1,0} transpose(%bitcast.6545.1.clone.1), dimensions={0,2,1}, metadata={op_name="jit(_full_run)/jit(main)/while/body/pjit" source_file="/global/homes/j/jackm/software/lorrax_C/src/bse/bse_lanczos.py" source_line=204 scheduling_name="transpose.213.1.clone.1"}
  ROOT %tuple.71 = (c128[64,8,240]{2,1,0}, c128[15360,2,4]{2,1,0}) tuple(%transpose.208.1, %transpose.213.1.clone.1), metadata={scheduling_name="tuple.71"}
}

%fused_complex_transpose (param_0.63: c128[64,4,2,240]) -> (c128[64,4,2,240], c128[64,240,2,4], c128[64,2,240,4]) {
  %param_0.63 = c128[64,4,2,240]{1,2,3,0} parameter(0), metadata={scheduling_name="param_0.63"}
  %bitcast.6420.3 = c128[64,240,2,4]{3,2,1,0} bitcast(%param_0.63), metadata={scheduling_name="bitcast.6420.3"}
  %transpose.206.1 = c128[64,4,2,240]{3,2,1,0} transpose(%bitcast.6420.3), dimensions={0,3,2,1}, metadata={op_name="jit(_full_run)/jit(main)/while/body/pjit" source_file="/global/homes/j/jackm/software/lorrax_C/src/bse/bse_lanczos.py" source_line=204 scheduling_name="transpose.206.1"}
  %real.108.3.clone.1 = f64[64,240,2,4]{3,2,1,0} real(%bitcast.6420.3), metadata={op_name="jit(_full_run)/jit(main)/while/body/jit(_matvec)/real" source_file="/global/homes/j/jackm/software/lorrax_C/src/bse/bse_simple.py" source_line=177 scheduling_name="real.108.3.clone.1"}
  %imag.85.5.clone.1 = f64[64,240,2,4]{3,2,1,0} imag(%bitcast.6420.3), metadata={op_name="jit(_full_run)/jit(main)/while/body/jit(_matvec)/imag" source_file="/global/homes/j/jackm/software/lorrax_C/src/bse/bse_simple.py" source_line=177 scheduling_name="imag.85.5.clone.1"}
  %negate.133.3.clone.1 = f64[64,240,2,4]{3,2,1,0} negate(%imag.85.5.clone.1), metadata={op_name="jit(_full_run)/jit(main)/while/body/jit(_matvec)/neg" source_file="/global/homes/j/jackm/software/lorrax_C/src/bse/bse_simple.py" source_line=177 scheduling_name="negate.133.3.clone.1"}
  %complex.84.1.clone.1 = c128[64,240,2,4]{3,2,1,0} complex(%real.108.3.clone.1, %negate.133.3.clone.1), metadata={op_name="jit(_full_run)/jit(main)/while/body/jit(_matvec)/complex" source_file="/global/homes/j/jackm/software/lorrax_C/src/bse/bse_simple.py" source_line=177 scheduling_name="complex.84.1.clone.1"}
  %transpose.211.1.clone.1 = c128[64,2,240,4]{3,2,1,0} transpose(%complex.84.1.clone.1), dimensions={0,2,1,3}, metadata={op_name="jit(_full_run)/jit(main)/while/body/jit(_matvec)/complex" source_file="/global/homes/j/jackm/software/lorrax_C/src/bse/bse_simple.py" source_line=177 scheduling_name="transpose.211.1.clone.1"}
  ROOT %tuple.73 = (c128[64,4,2,240]{3,2,1,0}, c128[64,240,2,4]{3,2,1,0}, c128[64,2,240,4]{3,2,1,0}) tuple(%transpose.206.1, %complex.84.1.clone.1, %transpose.211.1.clone.1), metadata={scheduling_name="tuple.73"}
}

%fused_broadcast (param_0.167: c128[64,4,2]) -> c128[64,2,240,4,2] {
  %param_0.167 = c128[64,4,2]{0,2,1} parameter(0), metadata={scheduling_name="param_0.167"}
  %bitcast.6363.3 = c128[8,64]{1,0} bitcast(%param_0.167), metadata={scheduling_name="bitcast.6363.3"}
  %transpose.203.3 = c128[64,8]{1,0} transpose(%bitcast.6363.3), dimensions={1,0}, metadata={scheduling_name="transpose.203.3"}
  %bitcast.6366.1 = c128[64,4,2]{2,1,0} bitcast(%transpose.203.3), metadata={scheduling_name="bitcast.6366.1"}
  ROOT %broadcast.2471.1 = c128[64,2,240,4,2]{4,3,2,0,1} broadcast(%bitcast.6366.1), dimensions={0,3,4}, metadata={scheduling_name="broadcast.2471.1"}
}

%fused_dynamic_slice (param_0.208: c128[512], param_1.197: s32[4], param_2.149: u32[]) -> c128[1,2,2,64] {
  %param_0.208 = c128[512]{0} parameter(0), metadata={scheduling_name="param_0.208"}
  %bitcast.6340.1 = c128[1,2,4,64]{3,2,1,0} bitcast(%param_0.208), metadata={scheduling_name="bitcast.6340.1"}
  %constant_1251_4 = s32[] constant(0)
  %param_1.197 = s32[4]{0} parameter(1), metadata={scheduling_name="param_1.197"}
  %param_2.149 = u32[] parameter(2), metadata={scheduling_name="param_2.149"}
  %dynamic-slice.140.2 = s32[1]{0} dynamic-slice(%param_1.197, %param_2.149), dynamic_slice_sizes={1}, metadata={op_name="jit(_full_run)/jit(main)/while/body/reshape" source_file="/global/homes/j/jackm/software/lorrax_C/src/bse/bse_lanczos.py" source_line=202 scheduling_name="dynamic-slice.140.2"}
  %bitcast.6448.1 = s32[] bitcast(%dynamic-slice.140.2), metadata={scheduling_name="bitcast.6448.1"}
  ROOT %dynamic-slice.141.1 = c128[1,2,2,64]{3,2,1,0} dynamic-slice(%bitcast.6340.1, %constant_1251_4, %constant_1251_4, %bitcast.6448.1, %constant_1251_4), dynamic_slice_sizes={1,2,2,64}, metadata={op_name="jit(_full_run)/jit(main)/while/body/reshape" source_file="/global/homes/j/jackm/software/lorrax_C/src/bse/bse_lanczos.py" source_line=202 scheduling_name="dynamic-slice.141.1"}
}

%fused_multiply (param_0.91: c128[1,240,240,2,2,4,4,4], param_1.73: c128[240,240,4,4,4]) -> c128[1,240,240,2,2,4,4,4] {
  %param_0.91 = c128[1,240,240,2,2,4,4,4]{7,6,5,4,3,2,1,0} parameter(0), metadata={scheduling_name="param_0.91"}
  %param_1.73 = c128[240,240,4,4,4]{4,3,2,1,0} parameter(1), metadata={scheduling_name="param_1.73"}
  %constant_1849_1 = c128[] constant((8, 0)), metadata={op_name="jit(_full_run)/jit(main)/while/body/jit(_matvec)/jit(shmap_body)/sqrt" source_file="/global/homes/j/jackm/software/lorrax_C/src/bse/bse_simple.py" source_line=101}
  %broadcast.2139.3 = c128[240,240,4,4,4]{4,3,2,1,0} broadcast(%constant_1849_1), dimensions={}, metadata={op_name="jit(_full_run)/jit(main)/while/body/jit(_matvec)/jit(shmap_body)/mul" source_file="/global/homes/j/jackm/software/lorrax_C/src/bse/bse_simple.py" source_line=102 scheduling_name="broadcast.2139.3"}
  %multiply.822.3 = c128[240,240,4,4,4]{4,3,2,1,0} multiply(%param_1.73, %broadcast.2139.3), metadata={op_name="jit(_full_run)/jit(main)/while/body/jit(_matvec)/jit(shmap_body)/mul" source_file="/global/homes/j/jackm/software/lorrax_C/src/bse/bse_simple.py" source_line=102 scheduling_name="multiply.822.3"}
  %broadcast.2140.1 = c128[1,240,240,2,2,4,4,4]{7,6,5,4,3,2,1,0} broadcast(%multiply.822.3), dimensions={1,2,5,6,7}, metadata={op_name="jit(_full_run)/jit(main)/while/body/jit(_matvec)/jit(shmap_body)/mul" source_file="/global/homes/j/jackm/software/lorrax_C/src/bse/bse_simple.py" source_line=102 scheduling_name="broadcast.2140.1"}
  ROOT %multiply.823.1 = c128[1,240,240,2,2,4,4,4]{7,6,5,4,3,2,1,0} multiply(%param_0.91, %broadcast.2140.1), metadata={op_name="jit(_full_run)/jit(main)/while/body/jit(_matvec)/jit(shmap_body)/mul" source_file="/global/homes/j/jackm/software/lorrax_C/src/bse/bse_simple.py" source_line=102 scheduling_name="multiply.823.1"}
}

%fused_multiply.1 (param_0.105: c128[64,240], param_1.83: c128[15360,4,4]) -> c128[64,240,4,4] {
  %param_0.105 = c128[64,240]{1,0} parameter(0), metadata={scheduling_name="param_0.105"}
  %broadcast.2137.1 = c128[64,240,4,4]{3,2,1,0} broadcast(%param_0.105), dimensions={0,1}, metadata={op_name="jit(_full_run)/jit(main)/while/body/jit(_matvec)/kcvM,bMk->bcvk/dot_general" source_file="/global/homes/j/jackm/software/lorrax_C/src/bse/bse_simple.py" source_line=183 scheduling_name="broadcast.2137.1"}
  %param_1.83 = c128[15360,4,4]{2,1,0} parameter(1), metadata={scheduling_name="param_1.83"}
  %bitcast.6432.6 = c128[64,240,4,4]{3,2,1,0} bitcast(%param_1.83), metadata={scheduling_name="bitcast.6432.6"}
  %real.109.3 = f64[64,240,4,4]{3,2,1,0} real(%bitcast.6432.6), metadata={op_name="jit(_full_run)/jit(main)/while/body/jit(_matvec)/real" source_file="/global/homes/j/jackm/software/lorrax_C/src/bse/bse_simple.py" source_line=185 scheduling_name="real.109.3"}
  %imag.86.5 = f64[64,240,4,4]{3,2,1,0} imag(%bitcast.6432.6), metadata={op_name="jit(_full_run)/jit(main)/while/body/jit(_matvec)/imag" source_file="/global/homes/j/jackm/software/lorrax_C/src/bse/bse_simple.py" source_line=185 scheduling_name="imag.86.5"}
  %negate.134.3 = f64[64,240,4,4]{3,2,1,0} negate(%imag.86.5), metadata={op_name="jit(_full_run)/jit(main)/while/body/jit(_matvec)/neg" source_file="/global/homes/j/jackm/software/lorrax_C/src/bse/bse_simple.py" source_line=185 scheduling_name="negate.134.3"}
  %complex.85.1 = c128[64,240,4,4]{3,2,1,0} complex(%real.109.3, %negate.134.3), metadata={op_name="jit(_full_run)/jit(main)/while/body/jit(_matvec)/complex" source_file="/global/homes/j/jackm/software/lorrax_C/src/bse/bse_simple.py" source_line=185 scheduling_name="complex.85.1"}
  ROOT %multiply.820.1 = c128[64,240,4,4]{3,2,1,0} multiply(%broadcast.2137.1, %complex.85.1), metadata={scheduling_name="multiply.820.1"}
}

%fused_dynamic_update_slice (param_0.146: c128[512,200], param_1.198: c128[512], param_2.150: pred[], param_3.91: s64[]) -> c128[512,200] {
  %param_0.146 = c128[512,200]{1,0} parameter(0), metadata={scheduling_name="param_0.146"}
  %param_2.150 = pred[] parameter(2), metadata={scheduling_name="param_2.150"}
  %broadcast.2132.1 = pred[512,1]{1,0} broadcast(%param_2.150), dimensions={}, metadata={scheduling_name="broadcast.2132.1"}
  %param_1.198 = c128[512]{0} parameter(1), metadata={scheduling_name="param_1.198"}
  %bitcast.6665.3 = c128[512,1]{1,0} bitcast(%param_1.198), metadata={scheduling_name="bitcast.6665.3"}
  %constant_1251_5 = s32[] constant(0)
  %param_3.91 = s64[] parameter(3), metadata={scheduling_name="param_3.91"}
  %constant_1254_3 = s64[] constant(199)
  %minimum.39.1 = s64[] minimum(%param_3.91, %constant_1254_3), metadata={op_name="jit(_full_run)/jit(main)/while/body/min" source_file="/global/homes/j/jackm/software/lorrax_C/src/solvers/lanczos.py" source_line=281 scheduling_name="minimum.39.1"}
  %constant_1255_2 = s64[] constant(0)
  %compare.438.2 = pred[] compare(%minimum.39.1, %constant_1255_2), direction=LT, metadata={op_name="jit(_full_run)/jit(main)/while/body/lt" source_file="/global/homes/j/jackm/software/lorrax_C/src/solvers/lanczos.py" source_line=281 scheduling_name="compare.438.2"}
  %constant_1256_2 = s64[] constant(200)
  %add.1402.2 = s64[] add(%minimum.39.1, %constant_1256_2), metadata={op_name="jit(_full_run)/jit(main)/while/body/add" source_file="/global/homes/j/jackm/software/lorrax_C/src/solvers/lanczos.py" source_line=281 scheduling_name="add.1402.2"}
  %select.931.1 = s64[] select(%compare.438.2, %add.1402.2, %minimum.39.1), metadata={op_name="jit(_full_run)/jit(main)/while/body/select_n" source_file="/global/homes/j/jackm/software/lorrax_C/src/solvers/lanczos.py" source_line=281 scheduling_name="select.931.1"}
  %convert.154.2 = s32[] convert(%select.931.1), metadata={op_name="jit(_full_run)/jit(main)/while/body/convert_element_type" source_file="/global/homes/j/jackm/software/lorrax_C/src/solvers/lanczos.py" source_line=281 scheduling_name="convert.154.2"}
  %dynamic-slice.146.1 = c128[512,1]{1,0} dynamic-slice(%param_0.146, %constant_1251_5, %convert.154.2), dynamic_slice_sizes={512,1}, metadata={scheduling_name="dynamic-slice.146.1"}
  %select.934.3 = c128[512,1]{1,0} select(%broadcast.2132.1, %bitcast.6665.3, %dynamic-slice.146.1), metadata={scheduling_name="select.934.3"}
  ROOT %dynamic-update-slice.28.1 = c128[512,200]{1,0} dynamic-update-slice(%param_0.146, %select.934.3, %constant_1251_5, %convert.154.2), metadata={op_name="jit(_full_run)/jit(main)/while/body/scatter" source_file="/global/homes/j/jackm/software/lorrax_C/src/solvers/lanczos.py" source_line=281 scheduling_name="dynamic-update-slice.28.1"}
}

%fused_divide (param_0.150: c128[512], param_1.207: f64[]) -> c128[512] {
  %param_0.150 = c128[512]{0} parameter(0), metadata={scheduling_name="param_0.150"}
  %param_1.207 = f64[] parameter(1), metadata={scheduling_name="param_1.207"}
  %sqrt.146.2 = f64[] sqrt(%param_1.207), metadata={op_name="jit(_full_run)/jit(main)/while/body/jit(norm)/sqrt" source_file="/global/homes/j/jackm/software/lorrax_C/src/solvers/lanczos.py" source_line=277 scheduling_name="sqrt.146.2"}
  %constant_1436_1 = f64[] constant(1e-15)
  %maximum.72.3 = f64[] maximum(%sqrt.146.2, %constant_1436_1), metadata={op_name="jit(_full_run)/jit(main)/while/body/max" source_file="/global/homes/j/jackm/software/lorrax_C/src/solvers/lanczos.py" source_line=280 scheduling_name="maximum.72.3"}
  %convert.160.3 = c128[] convert(%maximum.72.3), metadata={op_name="jit(_full_run)/jit(main)/while/body/convert_element_type" source_file="/global/homes/j/jackm/software/lorrax_C/src/solvers/lanczos.py" source_line=280 scheduling_name="convert.160.3"}
  %broadcast.2145.1 = c128[512]{0} broadcast(%convert.160.3), dimensions={}, metadata={op_name="jit(_full_run)/jit(main)/while/body/div" source_file="/global/homes/j/jackm/software/lorrax_C/src/solvers/lanczos.py" source_line=280 scheduling_name="broadcast.2145.1"}
  ROOT %divide.250.1 = c128[512]{0} divide(%param_0.150, %broadcast.2145.1), metadata={op_name="jit(_full_run)/jit(main)/while/body/div" source_file="/global/homes/j/jackm/software/lorrax_C/src/solvers/lanczos.py" source_line=280 scheduling_name="divide.250.1"}
}

%fused_dynamic_update_slice.1 (param_0.177: f64[200], param_1.200: c128[], param_2.154: s64[]) -> f64[200] {
  %param_0.177 = f64[200]{0} parameter(0), metadata={scheduling_name="param_0.177"}
  %constant_1251_1 = s32[] constant(0)
  %param_2.154 = s64[] parameter(2), metadata={scheduling_name="param_2.154"}
  %constant_1255_3 = s64[] constant(0)
  %compare.443.5 = pred[] compare(%param_2.154, %constant_1255_3), direction=LT, metadata={op_name="jit(_full_run)/jit(main)/while/body/lt" source_file="/global/homes/j/jackm/software/lorrax_C/src/solvers/lanczos.py" source_line=261 scheduling_name="compare.443.5"}
  %constant_1256_1 = s64[] constant(200)
  %add.1407.5 = s64[] add(%param_2.154, %constant_1256_1), metadata={op_name="jit(_full_run)/jit(main)/while/body/add" source_file="/global/homes/j/jackm/software/lorrax_C/src/solvers/lanczos.py" source_line=261 scheduling_name="add.1407.5"}
  %select.935.5 = s64[] select(%compare.443.5, %add.1407.5, %param_2.154), metadata={op_name="jit(_full_run)/jit(main)/while/body/select_n" source_file="/global/homes/j/jackm/software/lorrax_C/src/solvers/lanczos.py" source_line=261 scheduling_name="select.935.5"}
  %convert.161.5 = s32[] convert(%select.935.5), metadata={op_name="jit(_full_run)/jit(main)/while/body/convert_element_type" source_file="/global/homes/j/jackm/software/lorrax_C/src/solvers/lanczos.py" source_line=261 scheduling_name="convert.161.5"}
  %compare.444.5 = pred[] compare(%constant_1251_1, %convert.161.5), direction=LE, metadata={scheduling_name="compare.444.5"}
  %constant_1257_1 = s32[] constant(199)
  %compare.445.5 = pred[] compare(%constant_1257_1, %convert.161.5), direction=GE, metadata={scheduling_name="compare.445.5"}
  %and.66.5 = pred[] and(%compare.444.5, %compare.445.5), metadata={scheduling_name="and.66.5"}
  %bitcast.6699.4 = pred[1]{0} bitcast(%and.66.5), metadata={scheduling_name="bitcast.6699.4"}
  %param_1.200 = c128[] parameter(1), metadata={scheduling_name="param_1.200"}
  %real.112.1 = f64[] real(%param_1.200), metadata={op_name="jit(_full_run)/jit(main)/while/body/real" source_file="/global/homes/j/jackm/software/lorrax_C/src/solvers/lanczos.py" source_line=260 scheduling_name="real.112.1"}
  %bitcast.6703.3 = f64[1]{0} bitcast(%real.112.1), metadata={scheduling_name="bitcast.6703.3"}
  %dynamic-slice.147.1 = f64[1]{0} dynamic-slice(%param_0.177, %convert.161.5), dynamic_slice_sizes={1}, metadata={scheduling_name="dynamic-slice.147.1"}
  %select.936.3 = f64[1]{0} select(%bitcast.6699.4, %bitcast.6703.3, %dynamic-slice.147.1), metadata={scheduling_name="select.936.3"}
  ROOT %dynamic-update-slice.29.1 = f64[200]{0} dynamic-update-slice(%param_0.177, %select.936.3, %convert.161.5), metadata={op_name="jit(_full_run)/jit(main)/while/body/scatter" source_file="/global/homes/j/jackm/software/lorrax_C/src/solvers/lanczos.py" source_line=261 scheduling_name="dynamic-update-slice.29.1"}
}

%fused_dynamic_update_slice.2 (param_0.179: f64[200], param_1.202: s64[], param_2.155: f64[]) -> f64[200] {
  %param_0.179 = f64[200]{0} parameter(0), metadata={scheduling_name="param_0.179"}
  %constant_1251_6 = s32[] constant(0)
  %param_1.202 = s64[] parameter(1), metadata={scheduling_name="param_1.202"}
  %constant_1255_4 = s64[] constant(0)
  %compare.443.3 = pred[] compare(%param_1.202, %constant_1255_4), direction=LT, metadata={op_name="jit(_full_run)/jit(main)/while/body/lt" source_file="/global/homes/j/jackm/software/lorrax_C/src/solvers/lanczos.py" source_line=261 scheduling_name="compare.443.3"}
  %constant_1256_4 = s64[] constant(200)
  %add.1407.3 = s64[] add(%param_1.202, %constant_1256_4), metadata={op_name="jit(_full_run)/jit(main)/while/body/add" source_file="/global/homes/j/jackm/software/lorrax_C/src/solvers/lanczos.py" source_line=261 scheduling_name="add.1407.3"}
  %select.935.3 = s64[] select(%compare.443.3, %add.1407.3, %param_1.202), metadata={op_name="jit(_full_run)/jit(main)/while/body/select_n" source_file="/global/homes/j/jackm/software/lorrax_C/src/solvers/lanczos.py" source_line=261 scheduling_name="select.935.3"}
  %convert.161.3 = s32[] convert(%select.935.3), metadata={op_name="jit(_full_run)/jit(main)/while/body/convert_element_type" source_file="/global/homes/j/jackm/software/lorrax_C/src/solvers/lanczos.py" source_line=261 scheduling_name="convert.161.3"}
  %compare.444.3 = pred[] compare(%constant_1251_6, %convert.161.3), direction=LE, metadata={scheduling_name="compare.444.3"}
  %constant_1257_3 = s32[] constant(199)
  %compare.445.3 = pred[] compare(%constant_1257_3, %convert.161.3), direction=GE, metadata={scheduling_name="compare.445.3"}
  %and.66.3 = pred[] and(%compare.444.3, %compare.445.3), metadata={scheduling_name="and.66.3"}
  %bitcast.6699.6 = pred[1]{0} bitcast(%and.66.3), metadata={scheduling_name="bitcast.6699.6"}
  %param_2.155 = f64[] parameter(2), metadata={scheduling_name="param_2.155"}
  %sqrt.146.1 = f64[] sqrt(%param_2.155), metadata={op_name="jit(_full_run)/jit(main)/while/body/jit(norm)/sqrt" source_file="/global/homes/j/jackm/software/lorrax_C/src/solvers/lanczos.py" source_line=277 scheduling_name="sqrt.146.1"}
  %bitcast.6718.3 = f64[1]{0} bitcast(%sqrt.146.1), metadata={scheduling_name="bitcast.6718.3"}
  %dynamic-slice.148.1 = f64[1]{0} dynamic-slice(%param_0.179, %convert.161.3), dynamic_slice_sizes={1}, metadata={scheduling_name="dynamic-slice.148.1"}
  %select.937.3 = f64[1]{0} select(%bitcast.6699.6, %bitcast.6718.3, %dynamic-slice.148.1), metadata={scheduling_name="select.937.3"}
  ROOT %dynamic-update-slice.30.1 = f64[200]{0} dynamic-update-slice(%param_0.179, %select.937.3, %convert.161.3), metadata={op_name="jit(_full_run)/jit(main)/while/body/scatter" source_file="/global/homes/j/jackm/software/lorrax_C/src/solvers/lanczos.py" source_line=278 scheduling_name="dynamic-update-slice.30.1"}
}

%fused_maximum (param_0.209: s64[]) -> s64[] {
  %param_0.209 = s64[] parameter(0), metadata={scheduling_name="param_0.209"}
  %constant_1259_1 = s64[] constant(-10)
  %add.1403.1 = s64[] add(%param_0.209, %constant_1259_1), metadata={op_name="jit(_full_run)/jit(main)/while/body/sub" source_file="/global/homes/j/jackm/software/lorrax_C/src/solvers/lanczos.py" source_line=274 scheduling_name="add.1403.1"}
  %constant_1255_1 = s64[] constant(0)
  ROOT %maximum.70.1 = s64[] maximum(%add.1403.1, %constant_1255_1), metadata={op_name="jit(_full_run)/jit(main)/while/body/max" source_file="/global/homes/j/jackm/software/lorrax_C/src/solvers/lanczos.py" source_line=274 scheduling_name="maximum.70.1"}
}

%and.reduce_sub_computation (lhs: pred[], rhs: pred[]) -> pred[] {
  %rhs = pred[] parameter(1), metadata={scheduling_name="rhs"}
  %lhs = pred[] parameter(0), metadata={scheduling_name="lhs"}
  ROOT %and.64 = pred[] and(%lhs, %rhs), metadata={scheduling_name="and.64"}
}

%fused_reduce.2 (param_0.210: s64[]) -> pred[] {
  %constant_1251_2 = s32[] constant(0)
  %broadcast.2130.1 = s32[2]{0} broadcast(%constant_1251_2), dimensions={}, metadata={scheduling_name="broadcast.2130.1"}
  %constant_1252_1 = s32[1]{0} constant({0})
  %param_0.210 = s64[] parameter(0), metadata={scheduling_name="param_0.210"}
  %constant_1254_2 = s64[] constant(199)
  %minimum.39.2 = s64[] minimum(%param_0.210, %constant_1254_2), metadata={op_name="jit(_full_run)/jit(main)/while/body/min" source_file="/global/homes/j/jackm/software/lorrax_C/src/solvers/lanczos.py" source_line=281 scheduling_name="minimum.39.2"}
  %constant_1255_6 = s64[] constant(0)
  %compare.438.1 = pred[] compare(%minimum.39.2, %constant_1255_6), direction=LT, metadata={op_name="jit(_full_run)/jit(main)/while/body/lt" source_file="/global/homes/j/jackm/software/lorrax_C/src/solvers/lanczos.py" source_line=281 scheduling_name="compare.438.1"}
  %constant_1256_3 = s64[] constant(200)
  %add.1402.1 = s64[] add(%minimum.39.2, %constant_1256_3), metadata={op_name="jit(_full_run)/jit(main)/while/body/add" source_file="/global/homes/j/jackm/software/lorrax_C/src/solvers/lanczos.py" source_line=281 scheduling_name="add.1402.1"}
  %select.931.2 = s64[] select(%compare.438.1, %add.1402.1, %minimum.39.2), metadata={op_name="jit(_full_run)/jit(main)/while/body/select_n" source_file="/global/homes/j/jackm/software/lorrax_C/src/solvers/lanczos.py" source_line=281 scheduling_name="select.931.2"}
  %convert.154.1 = s32[] convert(%select.931.2), metadata={op_name="jit(_full_run)/jit(main)/while/body/convert_element_type" source_file="/global/homes/j/jackm/software/lorrax_C/src/solvers/lanczos.py" source_line=281 scheduling_name="convert.154.1"}
  %bitcast.6272.3 = s32[1]{0} bitcast(%convert.154.1), metadata={scheduling_name="bitcast.6272.3"}
  %concatenate.22.3 = s32[2]{0} concatenate(%constant_1252_1, %bitcast.6272.3), dimensions={0}, metadata={scheduling_name="concatenate.22.3"}
  %compare.439.1 = pred[2]{0} compare(%broadcast.2130.1, %concatenate.22.3), direction=LE, metadata={scheduling_name="compare.439.1"}
  %iota.59.1 = s32[2]{0} iota(), iota_dimension=0, metadata={scheduling_name="iota.59.1"}
  %constant_1257_2 = s32[] constant(199)
  %broadcast.2131.1 = s32[2]{0} broadcast(%constant_1257_2), dimensions={}, metadata={scheduling_name="broadcast.2131.1"}
  %multiply.814.1 = s32[2]{0} multiply(%iota.59.1, %broadcast.2131.1), metadata={scheduling_name="multiply.814.1"}
  %compare.440.1 = pred[2]{0} compare(%multiply.814.1, %concatenate.22.3), direction=GE, metadata={scheduling_name="compare.440.1"}
  %and.65.1 = pred[2]{0} and(%compare.439.1, %compare.440.1), metadata={scheduling_name="and.65.1"}
  %constant_1258_1 = pred[] constant(true)
  ROOT %reduce.46.1 = pred[] reduce(%and.65.1, %constant_1258_1), dimensions={0}, to_apply=%and.reduce_sub_computation, metadata={scheduling_name="reduce.46.1"}
}

%region_1.1270 (Arg_0.1271: f64[], Arg_1.1272: f64[]) -> f64[] {
  %Arg_1.1272 = f64[] parameter(1), metadata={op_name="jit(_full_run)/jit(main)/jit(norm)/reduce_sum" scheduling_name="Arg_1.1272"}
  %Arg_0.1271 = f64[] parameter(0), metadata={op_name="jit(_full_run)/jit(main)/jit(norm)/reduce_sum" scheduling_name="Arg_0.1271"}
  ROOT %add.1389 = f64[] add(%Arg_0.1271, %Arg_1.1272), metadata={op_name="jit(_full_run)/jit(main)/jit(norm)/reduce_sum" source_file="/global/homes/j/jackm/software/lorrax_C/src/solvers/lanczos.py" source_line=249 scheduling_name="add.1389"}
}

%fused_reduce.3 (param_0.214: c128[512]) -> f64[] {
  %param_0.214 = c128[512]{0} parameter(0), metadata={scheduling_name="param_0.214"}
  %real.113.3 = f64[512]{0} real(%param_0.214), metadata={op_name="jit(_full_run)/jit(main)/while/body/jit(norm)/real" source_file="/global/homes/j/jackm/software/lorrax_C/src/solvers/lanczos.py" source_line=277 scheduling_name="real.113.3"}
  %imag.89.5 = f64[512]{0} imag(%param_0.214), metadata={op_name="jit(_full_run)/jit(main)/while/body/jit(norm)/imag" source_file="/global/homes/j/jackm/software/lorrax_C/src/solvers/lanczos.py" source_line=277 scheduling_name="imag.89.5"}
  %negate.137.5 = f64[512]{0} negate(%imag.89.5), metadata={op_name="jit(_full_run)/jit(main)/while/body/jit(norm)/neg" source_file="/global/homes/j/jackm/software/lorrax_C/src/solvers/lanczos.py" source_line=277 scheduling_name="negate.137.5"}
  %complex.88.3 = c128[512]{0} complex(%real.113.3, %negate.137.5), metadata={op_name="jit(_full_run)/jit(main)/while/body/jit(norm)/complex" source_file="/global/homes/j/jackm/software/lorrax_C/src/solvers/lanczos.py" source_line=277 scheduling_name="complex.88.3"}
  %multiply.829.3 = c128[512]{0} multiply(%param_0.214, %complex.88.3), metadata={op_name="jit(_full_run)/jit(main)/while/body/jit(norm)/mul" source_file="/global/homes/j/jackm/software/lorrax_C/src/solvers/lanczos.py" source_line=277 scheduling_name="multiply.829.3"}
  %real.114.3 = f64[512]{0} real(%multiply.829.3), metadata={op_name="jit(_full_run)/jit(main)/while/body/jit(norm)/real" source_file="/global/homes/j/jackm/software/lorrax_C/src/solvers/lanczos.py" source_line=277 scheduling_name="real.114.3"}
  %constant_1337_1 = f64[] constant(0)
  ROOT %reduce.53.1 = f64[] reduce(%real.114.3, %constant_1337_1), dimensions={0}, to_apply=%region_1.1270, metadata={op_name="jit(_full_run)/jit(main)/while/body/jit(norm)/reduce_sum" source_file="/global/homes/j/jackm/software/lorrax_C/src/solvers/lanczos.py" source_line=277 scheduling_name="reduce.53.1"}
}

%fused_reduce.4 (param_0.213: c128[1,2,4,64], param_1.205: c128[512]) -> c128[] {
  %param_1.205 = c128[512]{0} parameter(1), metadata={scheduling_name="param_1.205"}
  %real.111.3 = f64[512]{0} real(%param_1.205), metadata={op_name="jit(_full_run)/jit(main)/while/body/real" source_file="/global/homes/j/jackm/software/lorrax_C/src/solvers/lanczos.py" source_line=260 scheduling_name="real.111.3"}
  %imag.88.5 = f64[512]{0} imag(%param_1.205), metadata={op_name="jit(_full_run)/jit(main)/while/body/imag" source_file="/global/homes/j/jackm/software/lorrax_C/src/solvers/lanczos.py" source_line=260 scheduling_name="imag.88.5"}
  %negate.136.5 = f64[512]{0} negate(%imag.88.5), metadata={op_name="jit(_full_run)/jit(main)/while/body/neg" source_file="/global/homes/j/jackm/software/lorrax_C/src/solvers/lanczos.py" source_line=260 scheduling_name="negate.136.5"}
  %complex.87.3 = c128[512]{0} complex(%real.111.3, %negate.136.5), metadata={op_name="jit(_full_run)/jit(main)/while/body/complex" source_file="/global/homes/j/jackm/software/lorrax_C/src/solvers/lanczos.py" source_line=260 scheduling_name="complex.87.3"}
  %param_0.213 = c128[1,2,4,64]{3,1,0,2} parameter(0), metadata={scheduling_name="param_0.213"}
  %bitcast.6569.7 = c128[4,2,64]{2,1,0} bitcast(%param_0.213), metadata={scheduling_name="bitcast.6569.7"}
  %transpose.215.7 = c128[2,4,64]{2,1,0} transpose(%bitcast.6569.7), dimensions={1,0,2}, metadata={op_name="jit(_full_run)/jit(main)/while/body/reshape" source_file="/global/homes/j/jackm/software/lorrax_C/src/bse/bse_lanczos.py" source_line=208 scheduling_name="transpose.215.7"}
  %bitcast.6582.6 = c128[512]{0} bitcast(%transpose.215.7), metadata={scheduling_name="bitcast.6582.6"}
  %multiply.826.3 = c128[512]{0} multiply(%complex.87.3, %bitcast.6582.6), metadata={scheduling_name="multiply.826.3"}
  %constant_1313_3 = c128[] constant((0, 0))
  ROOT %reduce.51.1 = c128[] reduce(%multiply.826.3, %constant_1313_3), dimensions={0}, to_apply=%scalar_add_computation, metadata={op_name="jit(_full_run)/jit(main)/while/body/dot_general" source_file="/global/homes/j/jackm/software/lorrax_C/src/solvers/lanczos.py" source_line=260 scheduling_name="reduce.51.1"}
}

%fused_add.1 (param_0.207: s64[]) -> s64[] {
  %param_0.207 = s64[] parameter(0), metadata={scheduling_name="param_0.207"}
  %constant_1250_1 = s64[] constant(1)
  ROOT %add.1401.1 = s64[] add(%param_0.207, %constant_1250_1), metadata={op_name="jit(_full_run)/jit(main)/while/body/add" source_file="/global/homes/j/jackm/software/lorrax_C/src/solvers/lanczos.py" source_line=286 scheduling_name="add.1401.1"}
}

%fused_reduce.5 (param_0.212: c128[64,240,4,4]) -> c128[64,4,4] {
  %param_0.212 = c128[64,240,4,4]{3,2,1,0} parameter(0), metadata={scheduling_name="param_0.212"}
  %constant_1313_2 = c128[] constant((0, 0))
  ROOT %reduce.48.1 = c128[64,4,4]{2,0,1} reduce(%param_0.212, %constant_1313_2), dimensions={1}, to_apply=%scalar_add_computation, metadata={op_name="jit(_full_run)/jit(main)/while/body/jit(_matvec)/kcvM,bMk->bcvk/dot_general" source_file="/global/homes/j/jackm/software/lorrax_C/src/bse/bse_simple.py" source_line=183 scheduling_name="reduce.48.1"}
}

%async_computation (param_0.693: c128[64,2,240,4,2]) -> c128[64,2,240,4,2] {
  %param_0.693 = c128[64,2,240,4,2]{4,3,2,0,1} parameter(0), metadata={scheduling_name="param_0.693"}
  ROOT %all-to-all.2 = c128[64,2,240,4,2]{4,3,2,0,1} all-to-all(%param_0.693), channel_id=3, replica_groups={{0,1},{2,3}}, dimensions={1}, metadata={scheduling_name="all-to-all.2"}
}

%add.clone (x.1: c128[], y.1: c128[]) -> c128[] {
  %y.1 = c128[] parameter(1), metadata={scheduling_name="y.1"}
  %x.1 = c128[] parameter(0), metadata={scheduling_name="x.1"}
  ROOT %add.1392 = c128[] add(%x.1, %y.1), metadata={scheduling_name="add.1392"}
}

%scalar_add_computation.1.clone (scalar_lhs.2: c128[], scalar_rhs.2: c128[]) -> c128[] {
  %scalar_rhs.2 = c128[] parameter(1), metadata={scheduling_name="scalar_rhs.2"}
  %scalar_lhs.2 = c128[] parameter(0), metadata={scheduling_name="scalar_lhs.2"}
  ROOT %add.1393 = c128[] add(%scalar_lhs.2, %scalar_rhs.2), metadata={scheduling_name="add.1393"}
}

%scalar_add_computation.clone (scalar_lhs.3: c128[], scalar_rhs.3: c128[]) -> c128[] {
  %scalar_rhs.3 = c128[] parameter(1), metadata={scheduling_name="scalar_rhs.3"}
  %scalar_lhs.3 = c128[] parameter(0), metadata={scheduling_name="scalar_lhs.3"}
  ROOT %add.1396 = c128[] add(%scalar_lhs.3, %scalar_rhs.3), metadata={scheduling_name="add.1396"}
}

%region_9.1691.clone (Arg_0.2: f64[], Arg_1.1: f64[]) -> f64[] {
  %Arg_1.1 = f64[] parameter(1), metadata={op_name="jit(_full_run)/jit(main)/while/body/jit(norm)/reduce_sum" scheduling_name="Arg_1.1"}
  %Arg_0.2 = f64[] parameter(0), metadata={op_name="jit(_full_run)/jit(main)/while/body/jit(norm)/reduce_sum" scheduling_name="Arg_0.2"}
  ROOT %add.1400 = f64[] add(%Arg_0.2, %Arg_1.1), metadata={op_name="jit(_full_run)/jit(main)/while/body/jit(norm)/reduce_sum" source_file="/global/homes/j/jackm/software/lorrax_C/src/solvers/lanczos.py" source_line=277 scheduling_name="add.1400"}
}

%add.1.clone (x.3: c128[], y.3: c128[]) -> c128[] {
  %y.3 = c128[] parameter(1), metadata={scheduling_name="y.3"}
  %x.3 = c128[] parameter(0), metadata={scheduling_name="x.3"}
  ROOT %add.1394 = c128[] add(%x.3, %y.3), metadata={scheduling_name="add.1394"}
}

%async_computation.1 (param_0.694: c128[64,240,2,4]) -> c128[64,240,2,2] {
  %param_0.694 = c128[64,240,2,4]{2,1,0,3} parameter(0), metadata={scheduling_name="param_0.694"}
  ROOT %reduce-scatter.3 = c128[64,240,2,2]{2,1,0,3} reduce-scatter(%param_0.694), channel_id=16, replica_groups={{0,2},{1,3}}, use_global_device_ids=true, dimensions={3}, to_apply=%add.1.clone, metadata={scheduling_name="reduce-scatter.3"}
}

%add.2.clone (x.5: c128[], y.5: c128[]) -> c128[] {
  %y.5 = c128[] parameter(1), metadata={scheduling_name="y.5"}
  %x.5 = c128[] parameter(0), metadata={scheduling_name="x.5"}
  ROOT %add.1395 = c128[] add(%x.5, %y.5), metadata={scheduling_name="add.1395"}
}

%async_computation.2 (param_0.695: c128[64,2,4]) -> c128[64,2,2] {
  %param_0.695 = c128[64,2,4]{1,0,2} parameter(0), metadata={scheduling_name="param_0.695"}
  ROOT %reduce-scatter.1.1 = c128[64,2,2]{1,0,2} reduce-scatter(%param_0.695), channel_id=17, replica_groups={{0,1},{2,3}}, use_global_device_ids=true, dimensions={2}, to_apply=%add.2.clone, metadata={scheduling_name="reduce-scatter.1.1"}
}

%wrapped_transpose_computation.3 (param_0.699: c128[4,2,64]) -> c128[64,2,4] {
  %param_0.699 = c128[4,2,64]{2,1,0} parameter(0), metadata={scheduling_name="param_0.699"}
  ROOT %transpose.205.1 = c128[64,2,4]{2,1,0} transpose(%param_0.699), dimensions={2,1,0}, metadata={op_name="jit(_full_run)/jit(main)/while/body/jit(_matvec)/kctM,kvsN,bcvk->bMNtsk/dot_general" source_file="/global/homes/j/jackm/software/lorrax_C/src/bse/bse_simple.py" source_line=198 scheduling_name="transpose.205.1"}
}

%wrapped_transpose_computation.4 (param_0.700: c128[64,2,480]) -> c128[2,64,480] {
  %param_0.700 = c128[64,2,480]{2,1,0} parameter(0), metadata={scheduling_name="param_0.700"}
  ROOT %transpose.207.1 = c128[2,64,480]{2,1,0} transpose(%param_0.700), dimensions={1,0,2}, metadata={op_name="jit(_full_run)/jit(main)/while/body/jit(_matvec)/kctM,kvsN,bcvk->bMNtsk/dot_general" source_file="/global/homes/j/jackm/software/lorrax_C/src/bse/bse_simple.py" source_line=198 scheduling_name="transpose.207.1"}
}

%fused_complex (param_0.113: c128[64,4,2,240]) -> c128[64,240,2,4] {
  %param_0.113 = c128[64,4,2,240]{1,2,3,0} parameter(0), metadata={scheduling_name="param_0.113"}
  %bitcast.6378.8 = c128[64,240,2,4]{3,2,1,0} bitcast(%param_0.113), metadata={scheduling_name="bitcast.6378.8"}
  %real.107.3 = f64[64,240,2,4]{3,2,1,0} real(%bitcast.6378.8), metadata={op_name="jit(_full_run)/jit(main)/while/body/jit(_matvec)/real" source_file="/global/homes/j/jackm/software/lorrax_C/src/bse/bse_simple.py" source_line=148 scheduling_name="real.107.3"}
  %imag.84.5 = f64[64,240,2,4]{3,2,1,0} imag(%bitcast.6378.8), metadata={op_name="jit(_full_run)/jit(main)/while/body/jit(_matvec)/imag" source_file="/global/homes/j/jackm/software/lorrax_C/src/bse/bse_simple.py" source_line=148 scheduling_name="imag.84.5"}
  %negate.132.3 = f64[64,240,2,4]{3,2,1,0} negate(%imag.84.5), metadata={op_name="jit(_full_run)/jit(main)/while/body/jit(_matvec)/neg" source_file="/global/homes/j/jackm/software/lorrax_C/src/bse/bse_simple.py" source_line=148 scheduling_name="negate.132.3"}
  ROOT %complex.83.1 = c128[64,240,2,4]{3,2,1,0} complex(%real.107.3, %negate.132.3), metadata={op_name="jit(_full_run)/jit(main)/while/body/jit(_matvec)/complex" source_file="/global/homes/j/jackm/software/lorrax_C/src/bse/bse_simple.py" source_line=148 scheduling_name="complex.83.1"}
}

%fused_reduce.1 (param_0.211: c128[15360,4,4], param_1.203: c128[64,2,240,4,2]) -> c128[64,240] {
  %param_1.203 = c128[64,2,240,4,2]{4,3,2,0,1} parameter(1), metadata={scheduling_name="param_1.203"}
  %bitcast.6371.5 = c128[2,61440,2]{2,1,0} bitcast(%param_1.203), metadata={scheduling_name="bitcast.6371.5"}
  %transpose.204.5 = c128[61440,2,2]{2,1,0} transpose(%bitcast.6371.5), dimensions={1,0,2}, metadata={scheduling_name="transpose.204.5"}
  %bitcast.6374.3 = c128[64,240,4,4]{3,2,1,0} bitcast(%transpose.204.5), metadata={scheduling_name="bitcast.6374.3"}
  %param_0.211 = c128[15360,4,4]{2,1,0} parameter(0), metadata={scheduling_name="param_0.211"}
  %bitcast.6394.3 = c128[64,240,4,4]{3,2,1,0} bitcast(%param_0.211), metadata={scheduling_name="bitcast.6394.3"}
  %multiply.818.3 = c128[64,240,4,4]{3,2,1,0} multiply(%bitcast.6374.3, %bitcast.6394.3), metadata={scheduling_name="multiply.818.3"}
  %bitcast.6398.1 = c128[64,240,16]{2,1,0} bitcast(%multiply.818.3), metadata={scheduling_name="bitcast.6398.1"}
  %constant_1313_1 = c128[] constant((0, 0))
  ROOT %reduce.47.1 = c128[64,240]{1,0} reduce(%bitcast.6398.1, %constant_1313_1), dimensions={2}, to_apply=%scalar_add_computation, metadata={op_name="jit(_full_run)/jit(main)/while/body/jit(_matvec)/kcvN,bcvk->bNk/dot_general" source_file="/global/homes/j/jackm/software/lorrax_C/src/bse/bse_simple.py" source_line=158 scheduling_name="reduce.47.1"}
}

%fused_multiply.2 (param_0.137: c128[64,240]) -> c128[64,240] {
  %param_0.137 = c128[64,240]{1,0} parameter(0), metadata={scheduling_name="param_0.137"}
  %constant_1314_2 = c128[] constant((0.125, 0)), metadata={op_name="jit(_full_run)/jit(main)/while/body/jit(_matvec)/convert_element_type" source_file="/global/homes/j/jackm/software/lorrax_C/src/bse/bse_simple.py" source_line=163}
  %broadcast.2136.1 = c128[64,240]{1,0} broadcast(%constant_1314_2), dimensions={}, metadata={op_name="jit(_full_run)/jit(main)/while/body/jit(_matvec)/div" source_file="/global/homes/j/jackm/software/lorrax_C/src/bse/bse_simple.py" source_line=163 scheduling_name="broadcast.2136.1"}
  ROOT %multiply.819.1 = c128[64,240]{1,0} multiply(%param_0.137, %broadcast.2136.1), metadata={op_name="jit(_full_run)/jit(main)/while/body/jit(_matvec)/div" source_file="/global/homes/j/jackm/software/lorrax_C/src/bse/bse_simple.py" source_line=163 scheduling_name="multiply.819.1"}
}

%command_buffer.6 (p.22: c128[64,4,2,240], p.23: (s64[], c128[512,200], f64[200], f64[200], c128[512], /*index=5*/c128[64,4,2,240], c128[64,4,2,240], c128[64,4,2,240], c128[64,4,2,240], f64[64,4], /*index=10*/f64[64,4], c128[240,240,4,4,4], c128[240,240]), p.24: c128[64,2,240,4,2]) -> (c128[64,4,2,240], c128[240,240], (c128[64,240], s8[1167360])) {
  %p.22 = c128[64,4,2,240]{1,2,3,0} parameter(0)
  %p.23 = (s64[], c128[512,200]{1,0}, f64[200]{0}, f64[200]{0}, c128[512]{0}, /*index=5*/c128[64,4,2,240]{1,2,3,0}, c128[64,4,2,240]{1,2,3,0}, c128[64,4,2,240]{2,1,3,0}, c128[64,4,2,240]{2,1,3,0}, f64[64,4]{1,0}, /*index=10*/f64[64,4]{0,1}, c128[240,240,4,4,4]{4,3,2,1,0}, c128[240,240]{1,0}) parameter(1)
  %p.24 = c128[64,2,240,4,2]{4,3,2,0,1} parameter(2)
  %loop_complex_fusion = c128[64,240,2,4]{3,2,1,0} fusion(%p.22), kind=kLoop, calls=%fused_complex, metadata={op_name="jit(_full_run)/jit(main)/while/body/jit(_matvec)/complex" source_file="/global/homes/j/jackm/software/lorrax_C/src/bse/bse_simple.py" source_line=148 scheduling_name="loop_complex_fusion"}
  %get-tuple-element.381 = c128[64,4,2,240]{2,1,3,0} get-tuple-element(%p.23), index=8, metadata={op_name="jit(_full_run)/jit(main)/while/body/pjit" source_file="/global/homes/j/jackm/software/lorrax_C/src/bse/bse_lanczos.py" source_line=204 scheduling_name="get-tuple-element.381"}
  %bitcast.6545.0 = c128[15360,4,2]{2,1,0} bitcast(%get-tuple-element.381), metadata={scheduling_name="bitcast.6545.0"}
  %bitcast.6387.0 = c128[15360,2,4]{2,1,0} bitcast(%loop_complex_fusion), metadata={scheduling_name="bitcast.6387.0"}
  %custom-call.179.0 = (c128[15360,4,4]{2,1,0}, s8[3932160]{0}) custom-call(%bitcast.6387.0, %bitcast.6545.0), custom_call_target="__cublas$gemm", metadata={op_name="jit(_full_run)/jit(main)/while/body/jit(_matvec)/kcsN,kvsN->kcvN/transpose" source_file="/global/homes/j/jackm/software/lorrax_C/src/bse/bse_simple.py" source_line=146 scheduling_name="custom-call.179.0"}, backend_config={"operation_queue_id":"0","wait_on_operation_queues":[],"gemm_backend_config":{"alpha_real":1,"alpha_imag":0,"beta":0,"dot_dimension_numbers":{"lhs_contracting_dimensions":["1"],"rhs_contracting_dimensions":["2"],"lhs_batch_dimensions":["0"],"rhs_batch_dimensions":["0"]},"precision_config":{"operand_precision":["DEFAULT","DEFAULT"],"algorithm":"ALG_UNSET"},"epilogue":"DEFAULT","damax_output":false,"lhs_stride":"8","rhs_stride":"8","grad_x":false,"grad_y":false},"force_earliest_schedule":false}
  %get-tuple-element.307.0 = c128[15360,4,4]{2,1,0} get-tuple-element(%custom-call.179.0), index=0, metadata={op_name="jit(_full_run)/jit(main)/while/body/jit(_matvec)/kcsN,kvsN->kcvN/transpose" source_file="/global/homes/j/jackm/software/lorrax_C/src/bse/bse_simple.py" source_line=146 scheduling_name="get-tuple-element.307.0"}
  %input_reduce_fusion.1 = c128[64,240]{1,0} fusion(%get-tuple-element.307.0, %p.24), kind=kInput, calls=%fused_reduce.1, metadata={op_name="jit(_full_run)/jit(main)/while/body/jit(_matvec)/kcvN,bcvk->bNk/dot_general" source_file="/global/homes/j/jackm/software/lorrax_C/src/bse/bse_simple.py" source_line=158 scheduling_name="input_reduce_fusion.1"}
  %loop_multiply_fusion.2 = c128[64,240]{1,0} fusion(%input_reduce_fusion.1), kind=kLoop, calls=%fused_multiply.2, metadata={op_name="jit(_full_run)/jit(main)/while/body/jit(_matvec)/div" source_file="/global/homes/j/jackm/software/lorrax_C/src/bse/bse_simple.py" source_line=163 scheduling_name="loop_multiply_fusion.2"}
  %get-tuple-element.385 = c128[240,240]{1,0} get-tuple-element(%p.23), index=12, metadata={op_name="jit(_full_run)/jit(main)/while/body/pjit" source_file="/global/homes/j/jackm/software/lorrax_C/src/bse/bse_lanczos.py" source_line=204 scheduling_name="get-tuple-element.385"}
  %bitcast.6406.0 = c128[240,64]{0,1} bitcast(%loop_multiply_fusion.2), metadata={scheduling_name="bitcast.6406.0"}
  %custom-call.180.0 = (c128[64,240]{1,0}, s8[1167360]{0}) custom-call(%bitcast.6406.0, %get-tuple-element.385), custom_call_target="__cublas$gemm", metadata={op_name="jit(_full_run)/jit(main)/while/body/jit(_matvec)/MN,bNk->bMk/dot_general" source_file="/global/homes/j/jackm/software/lorrax_C/src/bse/bse_simple.py" source_line=168 scheduling_name="custom-call.180.0"}, backend_config={"operation_queue_id":"0","wait_on_operation_queues":[],"gemm_backend_config":{"alpha_real":1,"alpha_imag":0,"beta":0,"dot_dimension_numbers":{"lhs_contracting_dimensions":["0"],"rhs_contracting_dimensions":["1"],"lhs_batch_dimensions":[],"rhs_batch_dimensions":[]},"precision_config":{"operand_precision":["DEFAULT","DEFAULT"],"algorithm":"ALG_UNSET"},"epilogue":"DEFAULT","damax_output":false,"lhs_stride":"15360","rhs_stride":"57600","grad_x":false,"grad_y":false},"force_earliest_schedule":false}
  ROOT %tuple.93 = (c128[64,4,2,240]{2,1,3,0}, c128[240,240]{1,0}, (c128[64,240]{1,0}, s8[1167360]{0})) tuple(%get-tuple-element.381, %get-tuple-element.385, %custom-call.180.0)
}

%region_3.1800.clone.clone.clone_spmd (param.11.0: (s64[], c128[512,200], f64[200], f64[200], c128[512], /*index=5*/c128[64,4,2,240], c128[64,4,2,240], c128[64,4,2,240], c128[64,4,2,240], f64[64,4], /*index=10*/f64[64,4], c128[240,240,4,4,4], c128[240,240])) -> (s64[], c128[512,200], f64[200], f64[200], c128[512], /*index=5*/c128[64,4,2,240], c128[64,4,2,240], c128[64,4,2,240], c128[64,4,2,240], f64[64,4], /*index=10*/f64[64,4], c128[240,240,4,4,4], c128[240,240]) {
  %param.11.0 = (s64[], c128[512,200]{1,0}, f64[200]{0}, f64[200]{0}, c128[512]{0}, /*index=5*/c128[64,4,2,240]{1,2,3,0}, c128[64,4,2,240]{1,2,3,0}, c128[64,4,2,240]{2,1,3,0}, c128[64,4,2,240]{2,1,3,0}, f64[64,4]{1,0}, /*index=10*/f64[64,4]{0,1}, c128[240,240,4,4,4]{4,3,2,1,0}, c128[240,240]{1,0}) parameter(0), metadata={scheduling_name="param.11.0"}
  %constant_1274_0 = s32[4]{0} constant({0, 2, 0, 2}), metadata={op_name="jit(_full_run)/jit(main)/while/body/reshape" source_file="/global/homes/j/jackm/software/lorrax_C/src/bse/bse_lanczos.py" source_line=202}
  %constant_1273_0 = s32[4]{0} constant({0, 0, 2, 2}), metadata={op_name="jit(_full_run)/jit(main)/while/body/reshape" source_file="/global/homes/j/jackm/software/lorrax_C/src/bse/bse_lanczos.py" source_line=202}
  %constant_1264_0 = u32[4]{0} constant({0, 1, 0, 1}), metadata={op_name="jit(_full_run)/jit(main)/while/body/jit(_matvec)/transpose" source_file="/global/homes/j/jackm/software/lorrax_C/src/bse/bse_simple.py" source_line=139}
  %constant_1261_0 = u32[4]{0} constant({0, 0, 1, 1}), metadata={op_name="jit(_full_run)/jit(main)/while/body/jit(_matvec)/transpose" source_file="/global/homes/j/jackm/software/lorrax_C/src/bse/bse_simple.py" source_line=139}
  %partition-id.3.0 = u32[] partition-id(), metadata={scheduling_name="partition-id.3.0"}
  %get-tuple-element.364 = c128[512]{0} get-tuple-element(%param.11.0), index=4, metadata={scheduling_name="get-tuple-element.364"}
  %loop_dynamic_slice_fusion = c128[1,2,2,64]{3,2,1,0} fusion(%get-tuple-element.364, %constant_1274_0, %partition-id.3.0), kind=kLoop, calls=%fused_dynamic_slice, metadata={op_name="jit(_full_run)/jit(main)/while/body/reshape" source_file="/global/homes/j/jackm/software/lorrax_C/src/bse/bse_lanczos.py" source_line=202 scheduling_name="loop_dynamic_slice_fusion"}
  %bitcast.9175 = c128[2,64,2]{1,2,0} bitcast(%loop_dynamic_slice_fusion), metadata={scheduling_name="bitcast.9175"}
  %bitcast.6468.0 = c128[2,2,64]{2,1,0} bitcast(%loop_dynamic_slice_fusion), metadata={scheduling_name="bitcast.6468.0"}
  %all-gather-start.2 = ((c128[2,2,64]{2,1,0}, c128[2,64,2]{1,2,0}), (c128[4,2,64]{2,1,0}, c128[4,64,2]{1,2,0})) all-gather-start(%bitcast.6468.0, %bitcast.9175), channel_id=6, replica_groups=[2,2]<=[2,2]T(1,0), dimensions={0}, use_global_device_ids=true, metadata={op_name="jit(_full_run)/jit(main)/while/body/jit(_matvec)/kctM,kvsN,bcvk->bMNtsk/dot_general" source_file="/global/homes/j/jackm/software/lorrax_C/src/bse/bse_simple.py" source_line=198 scheduling_name="all-gather-start.2"}, backend_config={"operation_queue_id":"0","wait_on_operation_queues":[],"collective_backend_config":{"is_sync":true,"no_parallel_custom_call":false,"is_pipelined":false,"reification_cost":[]},"force_earliest_schedule":false}
  %all-gather-done.2 = (c128[4,2,64]{2,1,0}, c128[4,64,2]{1,2,0}) all-gather-done(%all-gather-start.2), metadata={op_name="jit(_full_run)/jit(main)/while/body/jit(_matvec)/kctM,kvsN,bcvk->bMNtsk/dot_general" source_file="/global/homes/j/jackm/software/lorrax_C/src/bse/bse_simple.py" source_line=198 scheduling_name="all-gather-done.2"}
  %get-tuple-element.329 = c128[4,64,2]{1,2,0} get-tuple-element(%all-gather-done.2), index=1, metadata={scheduling_name="get-tuple-element.329"}
  %bitcast.9176 = c128[64,4,2]{0,2,1} bitcast(%get-tuple-element.329), metadata={scheduling_name="bitcast.9176"}
  %loop_broadcast_fusion = c128[64,2,240,4,2]{4,3,2,0,1} fusion(%bitcast.9176), kind=kLoop, calls=%fused_broadcast, metadata={scheduling_name="loop_broadcast_fusion"}
  %all-to-all-start = ((c128[64,2,240,4,2]{4,3,2,0,1}), c128[64,2,240,4,2]{4,3,2,0,1}) async-start(%loop_broadcast_fusion), calls=%async_computation, metadata={scheduling_name="all-to-all-start"}, backend_config={"operation_queue_id":"0","wait_on_operation_queues":[],"collective_backend_config":{"is_sync":false,"no_parallel_custom_call":false,"is_pipelined":false,"reification_cost":[]},"force_earliest_schedule":false}
  %get-tuple-element.378 = c128[64,4,2,240]{1,2,3,0} get-tuple-element(%param.11.0), index=5, metadata={op_name="jit(_full_run)/jit(main)/while/body/pjit" source_file="/global/homes/j/jackm/software/lorrax_C/src/bse/bse_lanczos.py" source_line=204 scheduling_name="get-tuple-element.378"}
  %loop_complex_transpose_fusion = (c128[64,4,2,240]{3,2,1,0}, c128[64,240,2,4]{3,2,1,0}, c128[64,2,240,4]{3,2,1,0}) fusion(%get-tuple-element.378), kind=kLoop, calls=%fused_complex_transpose, metadata={op_name="jit(_full_run)/jit(main)/while/body/pjit" source_file="/global/homes/j/jackm/software/lorrax_C/src/bse/bse_lanczos.py" source_line=204 scheduling_name="loop_complex_transpose_fusion"}
  %get-tuple-element.328 = c128[4,2,64]{2,1,0} get-tuple-element(%all-gather-done.2), index=0, metadata={op_name="jit(_full_run)/jit(main)/while/body/jit(_matvec)/kctM,kvsN,bcvk->bMNtsk/dot_general" source_file="/global/homes/j/jackm/software/lorrax_C/src/bse/bse_simple.py" source_line=198 scheduling_name="get-tuple-element.328"}
  %wrapped_transpose.3 = c128[64,2,4]{2,1,0} fusion(%get-tuple-element.328), kind=kLoop, calls=%wrapped_transpose_computation.3, metadata={op_name="jit(_full_run)/jit(main)/while/body/jit(_matvec)/kctM,kvsN,bcvk->bMNtsk/dot_general" source_file="/global/homes/j/jackm/software/lorrax_C/src/bse/bse_simple.py" source_line=198 scheduling_name="wrapped_transpose.3"}
  %get-tuple-element.317 = c128[64,4,2,240]{3,2,1,0} get-tuple-element(%loop_complex_transpose_fusion), index=0, metadata={op_name="jit(_full_run)/jit(main)/while/body/pjit" source_file="/global/homes/j/jackm/software/lorrax_C/src/bse/bse_lanczos.py" source_line=204 scheduling_name="get-tuple-element.317"}
  %bitcast.6476.0 = c128[64,4,480]{2,1,0} bitcast(%get-tuple-element.317), metadata={scheduling_name="bitcast.6476.0"}
  %custom-call.182.0 = (c128[64,2,480]{2,1,0}, s8[1974272]{0}) custom-call(%wrapped_transpose.3, %bitcast.6476.0), custom_call_target="__cublas$gemm", metadata={op_name="jit(_full_run)/jit(main)/while/body/jit(_matvec)/kctM,kvsN,bcvk->bMNtsk/dot_general" source_file="/global/homes/j/jackm/software/lorrax_C/src/bse/bse_simple.py" source_line=198 scheduling_name="custom-call.182.0"}, backend_config={"operation_queue_id":"0","wait_on_operation_queues":[],"gemm_backend_config":{"alpha_real":1,"alpha_imag":0,"beta":0,"dot_dimension_numbers":{"lhs_contracting_dimensions":["2"],"rhs_contracting_dimensions":["1"],"lhs_batch_dimensions":["0"],"rhs_batch_dimensions":["0"]},"precision_config":{"operand_precision":["DEFAULT","DEFAULT"],"algorithm":"ALG_UNSET"},"epilogue":"DEFAULT","damax_output":false,"lhs_stride":"8","rhs_stride":"1920","grad_x":false,"grad_y":false},"force_earliest_schedule":false}
  %get-tuple-element.310.0 = c128[64,2,480]{2,1,0} get-tuple-element(%custom-call.182.0), index=0, metadata={op_name="jit(_full_run)/jit(main)/while/body/jit(_matvec)/kctM,kvsN,bcvk->bMNtsk/dot_general" source_file="/global/homes/j/jackm/software/lorrax_C/src/bse/bse_simple.py" source_line=198 scheduling_name="get-tuple-element.310.0"}
  %wrapped_transpose.4 = c128[2,64,480]{2,1,0} fusion(%get-tuple-element.310.0), kind=kLoop, calls=%wrapped_transpose_computation.4, metadata={op_name="jit(_full_run)/jit(main)/while/body/jit(_matvec)/kctM,kvsN,bcvk->bMNtsk/dot_general" source_file="/global/homes/j/jackm/software/lorrax_C/src/bse/bse_simple.py" source_line=198 scheduling_name="wrapped_transpose.4"}
  %all-to-all-done = c128[64,2,240,4,2]{4,3,2,0,1} async-done(%all-to-all-start), metadata={scheduling_name="all-to-all-done"}
  %bitcast.6481.0 = c128[2,64,2,240]{3,2,1,0} bitcast(%wrapped_transpose.4), metadata={scheduling_name="bitcast.6481.0"}
  %all-gather-start = (c128[2,64,2,240]{3,2,1,0}, c128[4,64,2,240]{3,2,1,0}) all-gather-start(%bitcast.6481.0), channel_id=7, replica_groups={{0,1},{2,3}}, dimensions={0}, use_global_device_ids=true, metadata={op_name="jit(_full_run)/jit(main)/while/body/jit(_matvec)/kctM,kvsN,bcvk->bMNtsk/dot_general" source_file="/global/homes/j/jackm/software/lorrax_C/src/bse/bse_simple.py" source_line=198 scheduling_name="all-gather-start"}, backend_config={"operation_queue_id":"0","wait_on_operation_queues":[],"collective_backend_config":{"is_sync":false,"no_parallel_custom_call":false,"is_pipelined":false,"reification_cost":[]},"force_earliest_schedule":false}
  %get-tuple-element.379 = c128[64,4,2,240]{1,2,3,0} get-tuple-element(%param.11.0), index=6, metadata={op_name="jit(_full_run)/jit(main)/while/body/pjit" source_file="/global/homes/j/jackm/software/lorrax_C/src/bse/bse_lanczos.py" source_line=204 scheduling_name="get-tuple-element.379"}
  %call.7 = (c128[64,4,2,240]{2,1,3,0}, c128[240,240]{1,0}, (c128[64,240]{1,0}, s8[1167360]{0})) call(%get-tuple-element.379, %param.11.0, %all-to-all-done), to_apply=%command_buffer.6
  %get-tuple-element.414 = c128[64,4,2,240]{2,1,3,0} get-tuple-element(%call.7), index=0
  %get-tuple-element.415 = c128[240,240]{1,0} get-tuple-element(%call.7), index=1
  %get-tuple-element.416 = (c128[64,240]{1,0}, s8[1167360]{0}) get-tuple-element(%call.7), index=2
  %all-gather-done = c128[4,64,2,240]{3,2,1,0} all-gather-done(%all-gather-start), metadata={op_name="jit(_full_run)/jit(main)/while/body/jit(_matvec)/kctM,kvsN,bcvk->bMNtsk/dot_general" source_file="/global/homes/j/jackm/software/lorrax_C/src/bse/bse_simple.py" source_line=198 scheduling_name="all-gather-done"}
  %get-tuple-element.308.0 = c128[64,240]{1,0} get-tuple-element(%get-tuple-element.416), index=0, metadata={op_name="jit(_full_run)/jit(main)/while/body/jit(_matvec)/MN,bNk->bMk/dot_general" source_file="/global/homes/j/jackm/software/lorrax_C/src/bse/bse_simple.py" source_line=168 scheduling_name="get-tuple-element.308.0"}
  %all-reduce-start.1 = c128[64,240]{1,0} all-reduce-start(%get-tuple-element.308.0), channel_id=4, replica_groups={{0,1},{2,3}}, use_global_device_ids=true, to_apply=%add.clone, metadata={op_name="jit(_full_run)/jit(main)/while/body/jit(_matvec)/MN,bNk->bMk/dot_general" source_file="/global/homes/j/jackm/software/lorrax_C/src/bse/bse_simple.py" source_line=168 scheduling_name="all-reduce-start.1"}, backend_config={"operation_queue_id":"0","wait_on_operation_queues":[],"collective_backend_config":{"is_sync":false,"no_parallel_custom_call":false,"is_pipelined":false,"reification_cost":[]},"force_earliest_schedule":false}
  %loop_transpose_fusion.2 = (c128[64,8,240]{2,1,0}, c128[15360,2,4]{2,1,0}) fusion(%get-tuple-element.414), kind=kLoop, calls=%fused_transpose.4, metadata={op_name="jit(_full_run)/jit(main)/while/body/jit(_matvec)/complex" source_file="/global/homes/j/jackm/software/lorrax_C/src/bse/bse_simple.py" source_line=200 scheduling_name="loop_transpose_fusion.2"}
  %get-tuple-element.315 = c128[64,8,240]{2,1,0} get-tuple-element(%loop_transpose_fusion.2), index=0, metadata={op_name="jit(_full_run)/jit(main)/while/body/jit(_matvec)/complex" source_file="/global/homes/j/jackm/software/lorrax_C/src/bse/bse_simple.py" source_line=200 scheduling_name="get-tuple-element.315"}
  %bitcast.6500.0 = c128[64,4,480]{2,1,0} bitcast(%get-tuple-element.315), metadata={scheduling_name="bitcast.6500.0"}
  %bitcast.6485.0 = c128[4,64,480]{2,1,0} bitcast(%all-gather-done), metadata={scheduling_name="bitcast.6485.0"}
  %custom-call.183.0 = (c128[64,480,480]{2,1,0}, s8[3932160]{0}) custom-call(%bitcast.6485.0, %bitcast.6500.0), custom_call_target="__cublas$gemm", metadata={op_name="jit(_full_run)/jit(main)/while/body/jit(_matvec)/kctM,kvsN,bcvk->bMNtsk/dot_general" source_file="/global/homes/j/jackm/software/lorrax_C/src/bse/bse_simple.py" source_line=198 scheduling_name="custom-call.183.0"}, backend_config={"operation_queue_id":"0","wait_on_operation_queues":[],"gemm_backend_config":{"alpha_real":1,"alpha_imag":0,"beta":0,"dot_dimension_numbers":{"lhs_contracting_dimensions":["0"],"rhs_contracting_dimensions":["1"],"lhs_batch_dimensions":["1"],"rhs_batch_dimensions":["0"]},"precision_config":{"operand_precision":["DEFAULT","DEFAULT"],"algorithm":"ALG_UNSET"},"epilogue":"DEFAULT","damax_output":false,"lhs_stride":"30720","rhs_stride":"1920","grad_x":false,"grad_y":false},"force_earliest_schedule":false}
  %get-tuple-element.311.0 = c128[64,480,480]{2,1,0} get-tuple-element(%custom-call.183.0), index=0, metadata={op_name="jit(_full_run)/jit(main)/while/body/jit(_matvec)/kctM,kvsN,bcvk->bMNtsk/dot_general" source_file="/global/homes/j/jackm/software/lorrax_C/src/bse/bse_simple.py" source_line=198 scheduling_name="get-tuple-element.311.0"}
  %input_transpose_fusion.1 = c128[240,240,2,2,64]{4,3,2,1,0} fusion(%get-tuple-element.311.0), kind=kInput, calls=%fused_transpose.3, metadata={op_name="jit(_full_run)/jit(main)/while/body/jit(_matvec)/kctM,kvsN,bcvk->bMNtsk/transpose" source_file="/global/homes/j/jackm/software/lorrax_C/src/bse/bse_simple.py" source_line=198 scheduling_name="input_transpose_fusion.1"}
  %bitcast.6507.0 = c128[1,240,240,2,2,4,4,4]{7,6,5,4,3,2,1,0} bitcast(%input_transpose_fusion.1), metadata={scheduling_name="bitcast.6507.0"}
  %fft.16.0 = c128[1,240,240,2,2,4,4,4]{7,6,5,4,3,2,1,0} fft(%bitcast.6507.0), fft_type=IFFT, fft_length={4,4,4}, metadata={op_name="jit(_full_run)/jit(main)/while/body/jit(_matvec)/jit(shmap_body)/jit(fft)/fft" source_file="/global/homes/j/jackm/software/lorrax_C/src/bse/bse_simple.py" source_line=101 scheduling_name="fft.16.0"}
  %get-tuple-element.384 = c128[240,240,4,4,4]{4,3,2,1,0} get-tuple-element(%param.11.0), index=11, metadata={op_name="jit(_full_run)/jit(main)/while/body/pjit" source_file="/global/homes/j/jackm/software/lorrax_C/src/bse/bse_lanczos.py" source_line=204 scheduling_name="get-tuple-element.384"}
  %loop_multiply_fusion = c128[1,240,240,2,2,4,4,4]{7,6,5,4,3,2,1,0} fusion(%fft.16.0, %get-tuple-element.384), kind=kLoop, calls=%fused_multiply, metadata={op_name="jit(_full_run)/jit(main)/while/body/jit(_matvec)/jit(shmap_body)/mul" source_file="/global/homes/j/jackm/software/lorrax_C/src/bse/bse_simple.py" source_line=102 scheduling_name="loop_multiply_fusion"}
  %fft.17.0 = c128[1,240,240,2,2,4,4,4]{7,6,5,4,3,2,1,0} fft(%loop_multiply_fusion), fft_type=FFT, fft_length={4,4,4}, metadata={op_name="jit(_full_run)/jit(main)/while/body/jit(_matvec)/jit(shmap_body)/jit(fft)/fft" source_file="/global/homes/j/jackm/software/lorrax_C/src/common/fft_helpers.py" source_line=430 scheduling_name="fft.17.0"}
  %input_transpose_fusion = c128[64,240,2,2,240]{4,3,2,1,0} fusion(%fft.17.0), kind=kInput, calls=%fused_transpose.2, metadata={scheduling_name="input_transpose_fusion"}
  %get-tuple-element.319 = c128[64,2,240,4]{3,2,1,0} get-tuple-element(%loop_complex_transpose_fusion), index=2, metadata={op_name="jit(_full_run)/jit(main)/while/body/pjit" source_file="/global/homes/j/jackm/software/lorrax_C/src/bse/bse_lanczos.py" source_line=204 scheduling_name="get-tuple-element.319"}
  %bitcast.6532.0 = c128[64,480,4]{2,1,0} bitcast(%get-tuple-element.319), metadata={scheduling_name="bitcast.6532.0"}
  %bitcast.6527.0 = c128[64,480,480]{2,1,0} bitcast(%input_transpose_fusion), metadata={scheduling_name="bitcast.6527.0"}
  %custom-call.184.0 = (c128[64,480,4]{2,1,0}, s8[4194304]{0}) custom-call(%bitcast.6527.0, %bitcast.6532.0), custom_call_target="__cublas$gemm", metadata={op_name="jit(_full_run)/jit(main)/while/body/jit(_matvec)/kctM,bMNtsk->bcNsk/dot_general" source_file="/global/homes/j/jackm/software/lorrax_C/src/bse/bse_simple.py" source_line=224 scheduling_name="custom-call.184.0"}, backend_config={"operation_queue_id":"0","wait_on_operation_queues":[],"gemm_backend_config":{"alpha_real":1,"alpha_imag":0,"beta":0,"dot_dimension_numbers":{"lhs_contracting_dimensions":["2"],"rhs_contracting_dimensions":["1"],"lhs_batch_dimensions":["0"],"rhs_batch_dimensions":["0"]},"precision_config":{"operand_precision":["DEFAULT","DEFAULT"],"algorithm":"ALG_UNSET"},"epilogue":"DEFAULT","damax_output":false,"lhs_stride":"230400","rhs_stride":"1920","grad_x":false,"grad_y":false},"force_earliest_schedule":false}
  %get-tuple-element.312.0 = c128[64,480,4]{2,1,0} get-tuple-element(%custom-call.184.0), index=0, metadata={op_name="jit(_full_run)/jit(main)/while/body/jit(_matvec)/kctM,bMNtsk->bcNsk/dot_general" source_file="/global/homes/j/jackm/software/lorrax_C/src/bse/bse_simple.py" source_line=224 scheduling_name="get-tuple-element.312.0"}
  %loop_transpose_fusion.1 = c128[4,30720]{1,0} fusion(%get-tuple-element.312.0), kind=kLoop, calls=%fused_transpose.1, metadata={op_name="jit(_full_run)/jit(main)/while/body/jit(_matvec)/kctM,bMNtsk->bcNsk/dot_general" source_file="/global/homes/j/jackm/software/lorrax_C/src/bse/bse_simple.py" source_line=224 scheduling_name="loop_transpose_fusion.1"}
  %all-reduce-done.1 = c128[64,240]{1,0} all-reduce-done(%all-reduce-start.1), metadata={op_name="jit(_full_run)/jit(main)/while/body/jit(_matvec)/MN,bNk->bMk/dot_general" source_file="/global/homes/j/jackm/software/lorrax_C/src/bse/bse_simple.py" source_line=168 scheduling_name="all-reduce-done.1"}
  %bitcast.6539.0 = c128[64,240,2,4]{2,1,0,3} bitcast(%loop_transpose_fusion.1), metadata={scheduling_name="bitcast.6539.0"}
  %reduce-scatter-start = ((c128[64,240,2,4]{2,1,0,3}), c128[64,240,2,2]{2,1,0,3}) async-start(%bitcast.6539.0), calls=%async_computation.1, metadata={scheduling_name="reduce-scatter-start"}, backend_config={"operation_queue_id":"0","wait_on_operation_queues":[],"collective_backend_config":{"is_sync":false,"no_parallel_custom_call":false,"is_pipelined":false,"reification_cost":[]},"force_earliest_schedule":false}
  %get-tuple-element.380 = c128[64,4,2,240]{2,1,3,0} get-tuple-element(%param.11.0), index=7, metadata={op_name="jit(_full_run)/jit(main)/while/body/pjit" source_file="/global/homes/j/jackm/software/lorrax_C/src/bse/bse_lanczos.py" source_line=204 scheduling_name="get-tuple-element.380"}
  %bitcast.6417.0 = c128[15360,4,2]{2,1,0} bitcast(%get-tuple-element.380), metadata={scheduling_name="bitcast.6417.0"}
  %get-tuple-element.318 = c128[64,240,2,4]{3,2,1,0} get-tuple-element(%loop_complex_transpose_fusion), index=1, metadata={op_name="jit(_full_run)/jit(main)/while/body/pjit" source_file="/global/homes/j/jackm/software/lorrax_C/src/bse/bse_lanczos.py" source_line=204 scheduling_name="get-tuple-element.318"}
  %bitcast.6429.0 = c128[15360,2,4]{2,1,0} bitcast(%get-tuple-element.318), metadata={scheduling_name="bitcast.6429.0"}
  %custom-call.181.0 = (c128[15360,4,4]{2,1,0}, s8[3932160]{0}) custom-call(%bitcast.6417.0, %bitcast.6429.0), custom_call_target="__cublas$gemm", metadata={op_name="jit(_full_run)/jit(main)/while/body/jit(_matvec)/kcsM,kvsM->kcvM/dot_general" source_file="/global/homes/j/jackm/software/lorrax_C/src/bse/bse_simple.py" source_line=175 scheduling_name="custom-call.181.0"}, backend_config={"operation_queue_id":"0","wait_on_operation_queues":[],"gemm_backend_config":{"alpha_real":1,"alpha_imag":0,"beta":0,"dot_dimension_numbers":{"lhs_contracting_dimensions":["2"],"rhs_contracting_dimensions":["1"],"lhs_batch_dimensions":["0"],"rhs_batch_dimensions":["0"]},"precision_config":{"operand_precision":["DEFAULT","DEFAULT"],"algorithm":"ALG_UNSET"},"epilogue":"DEFAULT","damax_output":false,"lhs_stride":"8","rhs_stride":"8","grad_x":false,"grad_y":false},"force_earliest_schedule":false}
  %get-tuple-element.309.0 = c128[15360,4,4]{2,1,0} get-tuple-element(%custom-call.181.0), index=0, metadata={op_name="jit(_full_run)/jit(main)/while/body/jit(_matvec)/kcsM,kvsM->kcvM/dot_general" source_file="/global/homes/j/jackm/software/lorrax_C/src/bse/bse_simple.py" source_line=175 scheduling_name="get-tuple-element.309.0"}
  %loop_multiply_fusion.1 = c128[64,240,4,4]{3,2,1,0} fusion(%all-reduce-done.1, %get-tuple-element.309.0), kind=kLoop, calls=%fused_multiply.1, metadata={scheduling_name="loop_multiply_fusion.1"}
  %input_reduce_fusion.5 = c128[64,4,4]{2,0,1} fusion(%loop_multiply_fusion.1), kind=kInput, calls=%fused_reduce.5, metadata={op_name="jit(_full_run)/jit(main)/while/body/jit(_matvec)/kcvM,bMk->bcvk/dot_general" source_file="/global/homes/j/jackm/software/lorrax_C/src/bse/bse_simple.py" source_line=183 scheduling_name="input_reduce_fusion.5"}
  %reduce-scatter-done = c128[64,240,2,2]{2,1,0,3} async-done(%reduce-scatter-start), metadata={scheduling_name="reduce-scatter-done"}
  %all-reduce-start.2 = c128[64,4,4]{2,0,1} all-reduce-start(%input_reduce_fusion.5), channel_id=5, replica_groups=[2,2]<=[2,2]T(1,0), use_global_device_ids=true, to_apply=%scalar_add_computation.1.clone, metadata={op_name="jit(_full_run)/jit(main)/while/body/jit(_matvec)/kcvM,bMk->bcvk/dot_general" source_file="/global/homes/j/jackm/software/lorrax_C/src/bse/bse_simple.py" source_line=183 scheduling_name="all-reduce-start.2"}, backend_config={"operation_queue_id":"0","wait_on_operation_queues":[],"collective_backend_config":{"is_sync":false,"no_parallel_custom_call":false,"is_pipelined":false,"reification_cost":[]},"force_earliest_schedule":false}
  %get-tuple-element.316 = c128[15360,2,4]{2,1,0} get-tuple-element(%loop_transpose_fusion.2), index=1, metadata={op_name="jit(_full_run)/jit(main)/while/body/jit(_matvec)/complex" source_file="/global/homes/j/jackm/software/lorrax_C/src/bse/bse_simple.py" source_line=200 scheduling_name="get-tuple-element.316"}
  %bitcast.6548.0 = c128[64,480,4]{2,1,0} bitcast(%get-tuple-element.316), metadata={scheduling_name="bitcast.6548.0"}
  %bitcast.6543.0 = c128[2,64,480]{2,1,0} bitcast(%reduce-scatter-done), metadata={scheduling_name="bitcast.6543.0"}
  %custom-call.185.0 = (c128[64,2,4]{1,0,2}, s8[2949120]{0}) custom-call(%bitcast.6543.0, %bitcast.6548.0), custom_call_target="__cublas$gemm", metadata={op_name="jit(_full_run)/jit(main)/while/body/jit(_matvec)/kvsN,bcNsk->bcvk/dot_general" source_file="/global/homes/j/jackm/software/lorrax_C/src/bse/bse_simple.py" source_line=231 scheduling_name="custom-call.185.0"}, backend_config={"operation_queue_id":"0","wait_on_operation_queues":[],"gemm_backend_config":{"alpha_real":1,"alpha_imag":0,"beta":0,"dot_dimension_numbers":{"lhs_contracting_dimensions":["2"],"rhs_contracting_dimensions":["1"],"lhs_batch_dimensions":["1"],"rhs_batch_dimensions":["0"]},"precision_config":{"operand_precision":["DEFAULT","DEFAULT"],"algorithm":"ALG_UNSET"},"epilogue":"DEFAULT","damax_output":false,"lhs_stride":"30720","rhs_stride":"1920","grad_x":false,"grad_y":false},"force_earliest_schedule":false}
  %all-reduce-done.2 = c128[64,4,4]{2,0,1} all-reduce-done(%all-reduce-start.2), metadata={op_name="jit(_full_run)/jit(main)/while/body/jit(_matvec)/kcvM,bMk->bcvk/dot_general" source_file="/global/homes/j/jackm/software/lorrax_C/src/bse/bse_simple.py" source_line=183 scheduling_name="all-reduce-done.2"}
  %get-tuple-element.313.0 = c128[64,2,4]{1,0,2} get-tuple-element(%custom-call.185.0), index=0, metadata={op_name="jit(_full_run)/jit(main)/while/body/jit(_matvec)/kvsN,bcNsk->bcvk/dot_general" source_file="/global/homes/j/jackm/software/lorrax_C/src/bse/bse_simple.py" source_line=231 scheduling_name="get-tuple-element.313.0"}
  %reduce-scatter-start.1 = ((c128[64,2,4]{1,0,2}), c128[64,2,2]{1,0,2}) async-start(%get-tuple-element.313.0), calls=%async_computation.2, metadata={scheduling_name="reduce-scatter-start.1"}, backend_config={"operation_queue_id":"0","wait_on_operation_queues":[],"collective_backend_config":{"is_sync":true,"no_parallel_custom_call":false,"is_pipelined":false,"reification_cost":[]},"force_earliest_schedule":false}
  %reduce-scatter-done.1 = c128[64,2,2]{1,0,2} async-done(%reduce-scatter-start.1), metadata={scheduling_name="reduce-scatter-done.1"}
  %get-tuple-element.382 = f64[64,4]{1,0} get-tuple-element(%param.11.0), index=9, metadata={op_name="jit(_full_run)/jit(main)/while/body/pjit" source_file="/global/homes/j/jackm/software/lorrax_C/src/bse/bse_lanczos.py" source_line=204 scheduling_name="get-tuple-element.382"}
  %get-tuple-element.383 = f64[64,4]{0,1} get-tuple-element(%param.11.0), index=10, metadata={op_name="jit(_full_run)/jit(main)/while/body/pjit" source_file="/global/homes/j/jackm/software/lorrax_C/src/bse/bse_lanczos.py" source_line=204 scheduling_name="get-tuple-element.383"}
  %loop_transpose_fusion = c128[2,2,64]{2,1,0} fusion(%reduce-scatter-done.1, %all-reduce-done.2, %get-tuple-element.382, %get-tuple-element.383, %constant_1273_0, /*index=5*/%partition-id.3.0, %constant_1274_0, %constant_1264_0, %constant_1261_0, %get-tuple-element.364), kind=kLoop, calls=%fused_transpose, metadata={op_name="jit(_full_run)/jit(main)/while/body/jit(_matvec)/sub" source_file="/global/homes/j/jackm/software/lorrax_C/src/bse/bse_simple.py" source_line=238 scheduling_name="loop_transpose_fusion"}
  %bitcast.6566.0 = c128[1,2,2,64]{3,1,0,2} bitcast(%loop_transpose_fusion), metadata={scheduling_name="bitcast.6566.0"}
  %all-gather-start.1 = (c128[1,2,2,64]{3,1,0,2}, c128[1,2,4,64]{3,1,0,2}) all-gather-start(%bitcast.6566.0), channel_id=10, replica_groups=[2,2]<=[4], dimensions={2}, use_global_device_ids=true, metadata={op_name="jit(_full_run)/jit(main)/while/body/reshape" source_file="/global/homes/j/jackm/software/lorrax_C/src/bse/bse_lanczos.py" source_line=208 scheduling_name="all-gather-start.1"}, backend_config={"operation_queue_id":"0","wait_on_operation_queues":[],"collective_backend_config":{"is_sync":true,"no_parallel_custom_call":false,"is_pipelined":false,"reification_cost":[]},"force_earliest_schedule":false}
  %all-gather-done.1 = c128[1,2,4,64]{3,1,0,2} all-gather-done(%all-gather-start.1), metadata={op_name="jit(_full_run)/jit(main)/while/body/reshape" source_file="/global/homes/j/jackm/software/lorrax_C/src/bse/bse_lanczos.py" source_line=208 scheduling_name="all-gather-done.1"}
  %input_reduce_fusion.4 = c128[] fusion(%all-gather-done.1, %get-tuple-element.364), kind=kInput, calls=%fused_reduce.4, metadata={op_name="jit(_full_run)/jit(main)/while/body/dot_general" source_file="/global/homes/j/jackm/software/lorrax_C/src/solvers/lanczos.py" source_line=260 scheduling_name="input_reduce_fusion.4"}
  %all-reduce-start.3 = c128[] all-reduce-start(%input_reduce_fusion.4), channel_id=11, replica_groups=[2,2]<=[2,2]T(1,0), use_global_device_ids=true, to_apply=%scalar_add_computation.clone, metadata={op_name="jit(_full_run)/jit(main)/while/body/dot_general" source_file="/global/homes/j/jackm/software/lorrax_C/src/solvers/lanczos.py" source_line=260 scheduling_name="all-reduce-start.3"}, backend_config={"operation_queue_id":"0","wait_on_operation_queues":[],"collective_backend_config":{"is_sync":false,"no_parallel_custom_call":true,"is_pipelined":false,"reification_cost":[]},"force_earliest_schedule":false}
  %get-tuple-element.360 = s64[] get-tuple-element(%param.11.0), index=0, metadata={scheduling_name="get-tuple-element.360"}
  %copy.115 = s64[] copy(%get-tuple-element.360), metadata={scheduling_name="copy.115"}
  %loop_maximum_fusion = s64[] fusion(%copy.115), kind=kLoop, calls=%fused_maximum, metadata={op_name="jit(_full_run)/jit(main)/while/body/max" source_file="/global/homes/j/jackm/software/lorrax_C/src/solvers/lanczos.py" source_line=274 scheduling_name="loop_maximum_fusion"}
  %loop_add_fusion.1 = s64[] fusion(%copy.115), kind=kLoop, calls=%fused_add.1, metadata={op_name="jit(_full_run)/jit(main)/while/body/add" source_file="/global/homes/j/jackm/software/lorrax_C/src/solvers/lanczos.py" source_line=286 deduplicated_name="loop_add_fusion" scheduling_name="loop_add_fusion.1"}
  %all-reduce-done.3 = c128[] all-reduce-done(%all-reduce-start.3), metadata={op_name="jit(_full_run)/jit(main)/while/body/dot_general" source_file="/global/homes/j/jackm/software/lorrax_C/src/solvers/lanczos.py" source_line=260 scheduling_name="all-reduce-done.3"}
  %get-tuple-element.361 = c128[512,200]{1,0} get-tuple-element(%param.11.0), index=1, metadata={scheduling_name="get-tuple-element.361"}
  %get-tuple-element.363 = f64[200]{0} get-tuple-element(%param.11.0), index=3, metadata={scheduling_name="get-tuple-element.363"}
  %loop_subtract_fusion.1 = c128[512]{0} fusion(%all-gather-done.1, %get-tuple-element.364, %get-tuple-element.361, %copy.115, %all-reduce-done.3, /*index=5*/%get-tuple-element.363), kind=kLoop, calls=%fused_subtract.1, metadata={op_name="jit(_full_run)/jit(main)/while/body/sub" source_file="/global/homes/j/jackm/software/lorrax_C/src/solvers/lanczos.py" source_line=266 scheduling_name="loop_subtract_fusion.1"}
  %tuple.78 = (s64[], c128[512]{0}, s64[], s64[], c128[512,200]{1,0}) tuple(%loop_maximum_fusion, %loop_subtract_fusion.1, %loop_add_fusion.1, %copy.115, %get-tuple-element.361), metadata={scheduling_name="tuple.78"}
  %while.10.0 = (s64[], c128[512]{0}, s64[], s64[], c128[512,200]{1,0}) while(%tuple.78), condition=%region_8.1683_spmd, body=%region_7.1655_spmd, metadata={op_name="jit(_full_run)/jit(main)/while/body/while" source_file="/global/homes/j/jackm/software/lorrax_C/src/solvers/lanczos.py" source_line=275 scheduling_name="while.10.0"}
  %get-tuple-element.280.0 = c128[512]{0} get-tuple-element(%while.10.0), index=1, metadata={op_name="jit(_full_run)/jit(main)/while/body/while" source_file="/global/homes/j/jackm/software/lorrax_C/src/solvers/lanczos.py" source_line=275 scheduling_name="get-tuple-element.280.0"}
  %input_reduce_fusion.3 = f64[] fusion(%get-tuple-element.280.0), kind=kInput, calls=%fused_reduce.3, metadata={op_name="jit(_full_run)/jit(main)/while/body/jit(norm)/reduce_sum" source_file="/global/homes/j/jackm/software/lorrax_C/src/solvers/lanczos.py" source_line=277 scheduling_name="input_reduce_fusion.3"}
  %all-reduce-start.4 = f64[] all-reduce-start(%input_reduce_fusion.3), channel_id=13, replica_groups=[2,2]<=[2,2]T(1,0), use_global_device_ids=true, to_apply=%region_9.1691.clone, metadata={op_name="jit(_full_run)/jit(main)/while/body/jit(norm)/reduce_sum" source_file="/global/homes/j/jackm/software/lorrax_C/src/solvers/lanczos.py" source_line=277 scheduling_name="all-reduce-start.4"}, backend_config={"operation_queue_id":"0","wait_on_operation_queues":[],"collective_backend_config":{"is_sync":false,"no_parallel_custom_call":true,"is_pipelined":false,"reification_cost":[]},"force_earliest_schedule":false}
  %input_reduce_fusion.2 = pred[] fusion(%loop_add_fusion.1), kind=kInput, calls=%fused_reduce.2, metadata={scheduling_name="input_reduce_fusion.2"}
  %get-tuple-element.362 = f64[200]{0} get-tuple-element(%param.11.0), index=2, metadata={scheduling_name="get-tuple-element.362"}
  %loop_dynamic_update_slice_fusion.1 = f64[200]{0} fusion(%get-tuple-element.362, %all-reduce-done.3, %copy.115), kind=kLoop, calls=%fused_dynamic_update_slice.1, metadata={op_name="jit(_full_run)/jit(main)/while/body/scatter" source_file="/global/homes/j/jackm/software/lorrax_C/src/solvers/lanczos.py" source_line=261 scheduling_name="loop_dynamic_update_slice_fusion.1"}
  %all-reduce-done.4 = f64[] all-reduce-done(%all-reduce-start.4), metadata={op_name="jit(_full_run)/jit(main)/while/body/jit(norm)/reduce_sum" source_file="/global/homes/j/jackm/software/lorrax_C/src/solvers/lanczos.py" source_line=277 scheduling_name="all-reduce-done.4"}
  %loop_divide_fusion = c128[512]{0} fusion(%get-tuple-element.280.0, %all-reduce-done.4), kind=kLoop, calls=%fused_divide, metadata={op_name="jit(_full_run)/jit(main)/while/body/div" source_file="/global/homes/j/jackm/software/lorrax_C/src/solvers/lanczos.py" source_line=280 scheduling_name="loop_divide_fusion"}
  %loop_dynamic_update_slice_fusion = c128[512,200]{1,0} fusion(%get-tuple-element.361, %loop_divide_fusion, %input_reduce_fusion.2, %loop_add_fusion.1), kind=kLoop, calls=%fused_dynamic_update_slice, metadata={op_name="jit(_full_run)/jit(main)/while/body/scatter" source_file="/global/homes/j/jackm/software/lorrax_C/src/solvers/lanczos.py" source_line=281 scheduling_name="loop_dynamic_update_slice_fusion"}
  %loop_dynamic_update_slice_fusion.2 = f64[200]{0} fusion(%get-tuple-element.363, %copy.115, %all-reduce-done.4), kind=kLoop, calls=%fused_dynamic_update_slice.2, metadata={op_name="jit(_full_run)/jit(main)/while/body/scatter" source_file="/global/homes/j/jackm/software/lorrax_C/src/solvers/lanczos.py" source_line=278 scheduling_name="loop_dynamic_update_slice_fusion.2"}
  ROOT %tuple.83 = (s64[], c128[512,200]{1,0}, f64[200]{0}, f64[200]{0}, c128[512]{0}, /*index=5*/c128[64,4,2,240]{1,2,3,0}, c128[64,4,2,240]{1,2,3,0}, c128[64,4,2,240]{2,1,3,0}, c128[64,4,2,240]{2,1,3,0}, f64[64,4]{1,0}, /*index=10*/f64[64,4]{0,1}, c128[240,240,4,4,4]{4,3,2,1,0}, c128[240,240]{1,0}) tuple(%loop_add_fusion.1, %loop_dynamic_update_slice_fusion, %loop_dynamic_update_slice_fusion.1, %loop_dynamic_update_slice_fusion.2, %loop_divide_fusion, /*index=5*/%get-tuple-element.378, %get-tuple-element.379, %get-tuple-element.380, %get-tuple-element.414, %get-tuple-element.382, /*index=10*/%get-tuple-element.383, %get-tuple-element.384, %get-tuple-element.415), metadata={scheduling_name="tuple.83"}
}

%fused_compare (param_0: s64[]) -> pred[] {
  %param_0 = s64[] parameter(0), metadata={scheduling_name="param_0"}
  %constant_1231_1 = s64[] constant(200)
  ROOT %compare.434.1 = pred[] compare(%param_0, %constant_1231_1), direction=LT, metadata={op_name="jit(_full_run)/jit(main)/while/cond/lt" source_file="/global/homes/j/jackm/software/lorrax_C/src/solvers/lanczos.py" source_line=286 scheduling_name="compare.434.1"}
}

%region_12.1825.clone.clone_spmd (param.8.0: (s64[], c128[512,200], f64[200], f64[200], c128[512], /*index=5*/c128[64,4,2,240], c128[64,4,2,240], c128[64,4,2,240], c128[64,4,2,240], f64[64,4], /*index=10*/f64[64,4], c128[240,240,4,4,4], c128[240,240])) -> pred[] {
  %param.8.0 = (s64[], c128[512,200]{1,0}, f64[200]{0}, f64[200]{0}, c128[512]{0}, /*index=5*/c128[64,4,2,240]{1,2,3,0}, c128[64,4,2,240]{1,2,3,0}, c128[64,4,2,240]{2,1,3,0}, c128[64,4,2,240]{2,1,3,0}, f64[64,4]{1,0}, /*index=10*/f64[64,4]{0,1}, c128[240,240,4,4,4]{4,3,2,1,0}, c128[240,240]{1,0}) parameter(0), metadata={scheduling_name="param.8.0"}
  %get-tuple-element.259.0 = s64[] get-tuple-element(%param.8.0), index=0, metadata={scheduling_name="get-tuple-element.259.0"}
  ROOT %loop_compare_fusion = pred[] fusion(%get-tuple-element.259.0), kind=kLoop, calls=%fused_compare, metadata={op_name="jit(_full_run)/jit(main)/while/cond/lt" source_file="/global/homes/j/jackm/software/lorrax_C/src/solvers/lanczos.py" source_line=286 scheduling_name="loop_compare_fusion"}
}

%fused_divide.1 (param_0.282: c128[20,1024], param_1.832: f64[20]) -> c128[1024,20] {
  %param_0.282 = c128[20,1024]{0,1} parameter(0), metadata={scheduling_name="param_0.282"}
  %bitcast.8984.1 = c128[1024,20]{1,0} bitcast(%param_0.282), metadata={scheduling_name="bitcast.8984.1"}
  %param_1.832 = f64[20]{0} parameter(1), metadata={scheduling_name="param_1.832"}
  %sqrt.150.5 = f64[20]{0} sqrt(%param_1.832), metadata={op_name="jit(_full_run)/jit(main)/jit(norm)/sqrt" source_file="/global/homes/j/jackm/software/lorrax_C/src/solvers/lanczos.py" source_line=297 scheduling_name="sqrt.150.5"}
  %constant_1736_1 = f64[] constant(1e-15)
  %broadcast.2469.5 = f64[20]{0} broadcast(%constant_1736_1), dimensions={}, metadata={scheduling_name="broadcast.2469.5"}
  %maximum.75.5 = f64[20]{0} maximum(%sqrt.150.5, %broadcast.2469.5), metadata={op_name="jit(_full_run)/jit(main)/max" source_file="/global/homes/j/jackm/software/lorrax_C/src/solvers/lanczos.py" source_line=298 scheduling_name="maximum.75.5"}
  %convert.176.3 = c128[20]{0} convert(%maximum.75.5), metadata={op_name="jit(_full_run)/jit(main)/convert_element_type" source_file="/global/homes/j/jackm/software/lorrax_C/src/solvers/lanczos.py" source_line=298 scheduling_name="convert.176.3"}
  %broadcast.2470.1 = c128[1024,20]{1,0} broadcast(%convert.176.3), dimensions={1}, metadata={op_name="jit(_full_run)/jit(main)/div" source_file="/global/homes/j/jackm/software/lorrax_C/src/solvers/lanczos.py" source_line=298 scheduling_name="broadcast.2470.1"}
  ROOT %divide.252.1 = c128[1024,20]{1,0} divide(%bitcast.8984.1, %broadcast.2470.1), metadata={op_name="jit(_full_run)/jit(main)/div" source_file="/global/homes/j/jackm/software/lorrax_C/src/solvers/lanczos.py" source_line=298 scheduling_name="divide.252.1"}
}

%fused_gather (param_0.226: f64[200], param_1.830: s64[200]) -> f64[20,1] {
  %param_0.226 = f64[200]{0} parameter(0), metadata={scheduling_name="param_0.226"}
  %param_1.830 = s64[200]{0} parameter(1), metadata={scheduling_name="param_1.830"}
  %slice.140.5 = s64[20]{0} slice(%param_1.830), slice={[0:20]}, metadata={op_name="jit(_full_run)/jit(main)/slice" source_file="/global/homes/j/jackm/software/lorrax_C/src/solvers/lanczos.py" source_line=293 scheduling_name="slice.140.5"}
  %constant_1457_1 = s64[] constant(0)
  %broadcast.2465.5 = s64[20]{0} broadcast(%constant_1457_1), dimensions={}, metadata={scheduling_name="broadcast.2465.5"}
  %compare.467.7 = pred[20]{0} compare(%slice.140.5, %broadcast.2465.5), direction=LT, metadata={op_name="jit(_full_run)/jit(main)/lt" source_file="/global/homes/j/jackm/software/lorrax_C/src/solvers/lanczos.py" source_line=294 scheduling_name="compare.467.7"}
  %constant_1725_1 = s64[] constant(200)
  %broadcast.2466.5 = s64[20]{0} broadcast(%constant_1725_1), dimensions={}, metadata={scheduling_name="broadcast.2466.5"}
  %add.1577.7 = s64[20]{0} add(%slice.140.5, %broadcast.2466.5), metadata={op_name="jit(_full_run)/jit(main)/add" source_file="/global/homes/j/jackm/software/lorrax_C/src/solvers/lanczos.py" source_line=294 scheduling_name="add.1577.7"}
  %select.1040.7 = s64[20]{0} select(%compare.467.7, %add.1577.7, %slice.140.5), metadata={op_name="jit(_full_run)/jit(main)/select_n" source_file="/global/homes/j/jackm/software/lorrax_C/src/solvers/lanczos.py" source_line=294 scheduling_name="select.1040.7"}
  %convert.174.5 = s32[20]{0} convert(%select.1040.7), metadata={op_name="jit(_full_run)/jit(main)/convert_element_type" source_file="/global/homes/j/jackm/software/lorrax_C/src/solvers/lanczos.py" source_line=294 scheduling_name="convert.174.5"}
  %bitcast.8972.1 = s32[20,1]{1,0} bitcast(%convert.174.5), metadata={scheduling_name="bitcast.8972.1"}
  ROOT %gather.2.1 = f64[20,1]{1,0} gather(%param_0.226, %bitcast.8972.1), offset_dims={1}, collapsed_slice_dims={}, start_index_map={0}, index_vector_dim=1, slice_sizes={1}, metadata={op_name="jit(_full_run)/jit(main)/gather" source_file="/global/homes/j/jackm/software/lorrax_C/src/solvers/lanczos.py" source_line=294 scheduling_name="gather.2.1"}
}

%fused_pad (param_0.682: c128[512], param_1.826: pred[]) -> c128[512,200] {
  %param_1.826 = pred[] parameter(1), metadata={scheduling_name="param_1.826"}
  %broadcast.2148.1 = pred[512]{0} broadcast(%param_1.826), dimensions={}, metadata={scheduling_name="broadcast.2148.1"}
  %param_0.682 = c128[512]{0} parameter(0), metadata={scheduling_name="param_0.682"}
  %constant_1675_1 = c128[] constant((0, 0))
  %broadcast.2448.1 = c128[512]{0} broadcast(%constant_1675_1), dimensions={}, metadata={scheduling_name="broadcast.2448.1"}
  %select.1035.1 = c128[512]{0} select(%broadcast.2148.1, %param_0.682, %broadcast.2448.1), metadata={scheduling_name="select.1035.1"}
  %bitcast.8824.1 = c128[512,1]{1,0} bitcast(%select.1035.1), metadata={scheduling_name="bitcast.8824.1"}
  ROOT %pad.26.1 = c128[512,200]{1,0} pad(%bitcast.8824.1, %constant_1675_1), padding=0_0x0_199, metadata={op_name="jit(_full_run)/jit(main)/scatter" source_file="/global/homes/j/jackm/software/lorrax_C/src/solvers/lanczos.py" source_line=252 scheduling_name="pad.26.1"}
}

%fused_add.2 (param_0.680: f64[200], param_1.827: f64[200]) -> f64[200,200] {
  %iota.60.3 = s64[200,200]{1,0} iota(), iota_dimension=0, metadata={op_name="jit(_full_run)/jit(main)/jit(_diag)/iota" source_file="/global/homes/j/jackm/software/lorrax_C/src/solvers/lanczos.py" source_line=288 scheduling_name="iota.60.3"}
  %iota.61.3 = s64[200,200]{1,0} iota(), iota_dimension=1, metadata={op_name="jit(_full_run)/jit(main)/jit(_diag)/iota" source_file="/global/homes/j/jackm/software/lorrax_C/src/solvers/lanczos.py" source_line=288 scheduling_name="iota.61.3"}
  %compare.456.3 = pred[200,200]{1,0} compare(%iota.60.3, %iota.61.3), direction=EQ, metadata={op_name="jit(_full_run)/jit(main)/jit(_diag)/eq" source_file="/global/homes/j/jackm/software/lorrax_C/src/solvers/lanczos.py" source_line=288 scheduling_name="compare.456.3"}
  %param_0.680 = f64[200]{0} parameter(0), metadata={scheduling_name="param_0.680"}
  %broadcast.2452.3 = f64[200,200]{1,0} broadcast(%param_0.680), dimensions={1}, metadata={op_name="jit(_full_run)/jit(main)/jit(_diag)/jit(_where)/broadcast_in_dim" source_file="/global/homes/j/jackm/software/lorrax_C/src/solvers/lanczos.py" source_line=288 scheduling_name="broadcast.2452.3"}
  %constant_1674_3 = f64[] constant(0)
  %broadcast.2453.13 = f64[200,200]{1,0} broadcast(%constant_1674_3), dimensions={}, metadata={op_name="jit(_full_run)/jit(main)/jit(_diag)/jit(_where)/broadcast_in_dim" source_file="/global/homes/j/jackm/software/lorrax_C/src/solvers/lanczos.py" source_line=288 scheduling_name="broadcast.2453.13"}
  %select.1036.5 = f64[200,200]{1,0} select(%compare.456.3, %broadcast.2452.3, %broadcast.2453.13), metadata={op_name="jit(_full_run)/jit(main)/jit(_diag)/jit(_where)/select_n" source_file="/global/homes/j/jackm/software/lorrax_C/src/solvers/lanczos.py" source_line=288 scheduling_name="select.1036.5"}
  %iota.65.3 = s64[200]{0} iota(), iota_dimension=0, metadata={op_name="jit(_full_run)/jit(main)/jit(_diag)/iota" source_file="/global/homes/j/jackm/software/lorrax_C/src/solvers/lanczos.py" source_line=290 scheduling_name="iota.65.3"}
  %constant_1715_1 = s64[] constant(1)
  %broadcast.2454.3 = s64[200]{0} broadcast(%constant_1715_1), dimensions={}, metadata={scheduling_name="broadcast.2454.3"}
  %add.1572.3 = s64[200]{0} add(%iota.65.3, %broadcast.2454.3), metadata={op_name="jit(_full_run)/jit(main)/jit(_diag)/add" source_file="/global/homes/j/jackm/software/lorrax_C/src/solvers/lanczos.py" source_line=290 scheduling_name="add.1572.3"}
  %broadcast.2455.3 = s64[200,200]{1,0} broadcast(%add.1572.3), dimensions={0}, metadata={op_name="jit(_full_run)/jit(main)/jit(_diag)/iota" source_file="/global/homes/j/jackm/software/lorrax_C/src/solvers/lanczos.py" source_line=290 scheduling_name="broadcast.2455.3"}
  %iota.66.3 = s64[200,200]{1,0} iota(), iota_dimension=1, metadata={op_name="jit(_full_run)/jit(main)/jit(_diag)/iota" source_file="/global/homes/j/jackm/software/lorrax_C/src/solvers/lanczos.py" source_line=290 scheduling_name="iota.66.3"}
  %compare.464.3 = pred[200,200]{1,0} compare(%broadcast.2455.3, %iota.66.3), direction=EQ, metadata={op_name="jit(_full_run)/jit(main)/jit(_diag)/eq" source_file="/global/homes/j/jackm/software/lorrax_C/src/solvers/lanczos.py" source_line=290 scheduling_name="compare.464.3"}
  %param_1.827 = f64[200]{0} parameter(1), metadata={scheduling_name="param_1.827"}
  %slice.139.1 = f64[199]{0} slice(%param_1.827), slice={[0:199]}, metadata={op_name="jit(_full_run)/jit(main)/slice" source_file="/global/homes/j/jackm/software/lorrax_C/src/solvers/lanczos.py" source_line=289 scheduling_name="slice.139.1"}
  %pad.27.1 = f64[200]{0} pad(%slice.139.1, %constant_1674_3), padding=1_0, metadata={op_name="jit(_full_run)/jit(main)/jit(_diag)/pad" source_file="/global/homes/j/jackm/software/lorrax_C/src/solvers/lanczos.py" source_line=290 scheduling_name="pad.27.1"}
  %broadcast.2456.3 = f64[200,200]{1,0} broadcast(%pad.27.1), dimensions={1}, metadata={op_name="jit(_full_run)/jit(main)/jit(_diag)/jit(_where)/broadcast_in_dim" source_file="/global/homes/j/jackm/software/lorrax_C/src/solvers/lanczos.py" source_line=288 scheduling_name="broadcast.2456.3"}
  %select.1037.5 = f64[200,200]{1,0} select(%compare.464.3, %broadcast.2456.3, %broadcast.2453.13), metadata={op_name="jit(_full_run)/jit(main)/jit(_diag)/jit(_where)/select_n" source_file="/global/homes/j/jackm/software/lorrax_C/src/solvers/lanczos.py" source_line=288 scheduling_name="select.1037.5"}
  %add.1573.3 = f64[200,200]{1,0} add(%select.1036.5, %select.1037.5), metadata={op_name="jit(_full_run)/jit(main)/add" source_file="/global/homes/j/jackm/software/lorrax_C/src/solvers/lanczos.py" source_line=290 scheduling_name="add.1573.3"}
  %iota.67.3 = s64[200]{0} iota(), iota_dimension=0, metadata={op_name="jit(_full_run)/jit(main)/jit(_diag)/iota" source_file="/global/homes/j/jackm/software/lorrax_C/src/solvers/lanczos.py" source_line=290 scheduling_name="iota.67.3"}
  %constant_1718_1 = s64[] constant(-1)
  %broadcast.2458.3 = s64[200]{0} broadcast(%constant_1718_1), dimensions={}, metadata={scheduling_name="broadcast.2458.3"}
  %add.1574.3 = s64[200]{0} add(%iota.67.3, %broadcast.2458.3), metadata={op_name="jit(_full_run)/jit(main)/jit(_diag)/add" source_file="/global/homes/j/jackm/software/lorrax_C/src/solvers/lanczos.py" source_line=290 scheduling_name="add.1574.3"}
  %broadcast.2459.3 = s64[200,200]{1,0} broadcast(%add.1574.3), dimensions={0}, metadata={op_name="jit(_full_run)/jit(main)/jit(_diag)/iota" source_file="/global/homes/j/jackm/software/lorrax_C/src/solvers/lanczos.py" source_line=290 scheduling_name="broadcast.2459.3"}
  %iota.68.3 = s64[200,200]{1,0} iota(), iota_dimension=1, metadata={op_name="jit(_full_run)/jit(main)/jit(_diag)/iota" source_file="/global/homes/j/jackm/software/lorrax_C/src/solvers/lanczos.py" source_line=290 scheduling_name="iota.68.3"}
  %compare.465.3 = pred[200,200]{1,0} compare(%broadcast.2459.3, %iota.68.3), direction=EQ, metadata={op_name="jit(_full_run)/jit(main)/jit(_diag)/eq" source_file="/global/homes/j/jackm/software/lorrax_C/src/solvers/lanczos.py" source_line=290 scheduling_name="compare.465.3"}
  %pad.28.1 = f64[200]{0} pad(%slice.139.1, %constant_1674_3), padding=0_1, metadata={op_name="jit(_full_run)/jit(main)/jit(_diag)/pad" source_file="/global/homes/j/jackm/software/lorrax_C/src/solvers/lanczos.py" source_line=290 scheduling_name="pad.28.1"}
  %broadcast.2460.1 = f64[200,200]{1,0} broadcast(%pad.28.1), dimensions={1}, metadata={op_name="jit(_full_run)/jit(main)/jit(_diag)/jit(_where)/broadcast_in_dim" source_file="/global/homes/j/jackm/software/lorrax_C/src/solvers/lanczos.py" source_line=288 scheduling_name="broadcast.2460.1"}
  %select.1038.3 = f64[200,200]{1,0} select(%compare.465.3, %broadcast.2460.1, %broadcast.2453.13), metadata={op_name="jit(_full_run)/jit(main)/jit(_diag)/jit(_where)/select_n" source_file="/global/homes/j/jackm/software/lorrax_C/src/solvers/lanczos.py" source_line=288 scheduling_name="select.1038.3"}
  ROOT %add.1575.1 = f64[200,200]{1,0} add(%add.1573.3, %select.1038.3), metadata={op_name="jit(_full_run)/jit(main)/add" source_file="/global/homes/j/jackm/software/lorrax_C/src/solvers/lanczos.py" source_line=290 scheduling_name="add.1575.1"}
}

%fused_transpose.5 (param_0.683: f64[200,200]) -> f64[200,200] {
  %param_0.683 = f64[200,200]{1,0} parameter(0), metadata={scheduling_name="param_0.683"}
  %transpose.221.3 = f64[200,200]{1,0} transpose(%param_0.683), dimensions={1,0}, metadata={op_name="jit(_full_run)/jit(main)/jit(eigh)/transpose" source_file="/global/homes/j/jackm/software/lorrax_C/src/solvers/lanczos.py" source_line=292 scheduling_name="transpose.221.3"}
  %add.1576.3 = f64[200,200]{1,0} add(%param_0.683, %transpose.221.3), metadata={op_name="jit(_full_run)/jit(main)/jit(eigh)/add" source_file="/global/homes/j/jackm/software/lorrax_C/src/solvers/lanczos.py" source_line=292 scheduling_name="add.1576.3"}
  %constant_1690_1 = f64[] constant(0.5)
  %broadcast.2462.3 = f64[200,200]{1,0} broadcast(%constant_1690_1), dimensions={}, metadata={scheduling_name="broadcast.2462.3"}
  %multiply.889.3 = f64[200,200]{1,0} multiply(%add.1576.3, %broadcast.2462.3), metadata={op_name="jit(_full_run)/jit(main)/jit(eigh)/div" source_file="/global/homes/j/jackm/software/lorrax_C/src/solvers/lanczos.py" source_line=292 scheduling_name="multiply.889.3"}
  ROOT %transpose.222.1 = f64[200,200]{1,0} transpose(%multiply.889.3), dimensions={1,0}, metadata={op_name="jit(_full_run)/jit(main)/jit(eigh)/div" source_file="/global/homes/j/jackm/software/lorrax_C/src/solvers/lanczos.py" source_line=292 scheduling_name="transpose.222.1"}
}

%fused_real (param_0.287: c128[20,512]) -> f64[512,20] {
  %param_0.287 = c128[20,512]{0,1} parameter(0), metadata={scheduling_name="param_0.287"}
  %bitcast.8993.5 = c128[512,20]{1,0} bitcast(%param_0.287), metadata={scheduling_name="bitcast.8993.5"}
  %real.117.3 = f64[512,20]{1,0} real(%bitcast.8993.5), metadata={op_name="jit(_full_run)/jit(main)/jit(norm)/real" source_file="/global/homes/j/jackm/software/lorrax_C/src/solvers/lanczos.py" source_line=297 scheduling_name="real.117.3"}
  %imag.91.5 = f64[512,20]{1,0} imag(%bitcast.8993.5), metadata={op_name="jit(_full_run)/jit(main)/jit(norm)/imag" source_file="/global/homes/j/jackm/software/lorrax_C/src/solvers/lanczos.py" source_line=297 scheduling_name="imag.91.5"}
  %negate.145.3 = f64[512,20]{1,0} negate(%imag.91.5), metadata={op_name="jit(_full_run)/jit(main)/jit(norm)/neg" source_file="/global/homes/j/jackm/software/lorrax_C/src/solvers/lanczos.py" source_line=297 scheduling_name="negate.145.3"}
  %complex.90.1 = c128[512,20]{1,0} complex(%real.117.3, %negate.145.3), metadata={op_name="jit(_full_run)/jit(main)/jit(norm)/complex" source_file="/global/homes/j/jackm/software/lorrax_C/src/solvers/lanczos.py" source_line=297 scheduling_name="complex.90.1"}
  %multiply.890.3 = c128[512,20]{1,0} multiply(%bitcast.8993.5, %complex.90.1), metadata={op_name="jit(_full_run)/jit(main)/jit(norm)/mul" source_file="/global/homes/j/jackm/software/lorrax_C/src/solvers/lanczos.py" source_line=297 scheduling_name="multiply.890.3"}
  ROOT %real.118.1 = f64[512,20]{1,0} real(%multiply.890.3), metadata={op_name="jit(_full_run)/jit(main)/jit(norm)/real" source_file="/global/homes/j/jackm/software/lorrax_C/src/solvers/lanczos.py" source_line=297 scheduling_name="real.118.1"}
}

%fused_divide.2 (param_0.677: f64[512], param_1.822: f64[512], param_2.741: f64[]) -> c128[512] {
  %param_1.822 = f64[512]{0} parameter(1), metadata={scheduling_name="param_1.822"}
  %convert.169.3 = c128[512]{0} convert(%param_1.822), metadata={op_name="jit(_full_run)/jit(main)/convert_element_type" source_file="/global/homes/j/jackm/software/lorrax_C/src/solvers/lanczos.py" source_line=248 scheduling_name="convert.169.3"}
  %param_0.677 = f64[512]{0} parameter(0), metadata={scheduling_name="param_0.677"}
  %convert.172.3 = c128[512]{0} convert(%param_0.677), metadata={op_name="jit(_full_run)/jit(main)/convert_element_type" source_file="/global/homes/j/jackm/software/lorrax_C/src/solvers/lanczos.py" source_line=248 scheduling_name="convert.172.3"}
  %constant_1673_2 = c128[] constant((0, 1))
  %broadcast.2446.3 = c128[512]{0} broadcast(%constant_1673_2), dimensions={}, metadata={scheduling_name="broadcast.2446.3"}
  %multiply.886.3 = c128[512]{0} multiply(%convert.172.3, %broadcast.2446.3), metadata={op_name="jit(_full_run)/jit(main)/mul" source_file="/global/homes/j/jackm/software/lorrax_C/src/solvers/lanczos.py" source_line=248 scheduling_name="multiply.886.3"}
  %add.1571.3 = c128[512]{0} add(%convert.169.3, %multiply.886.3), metadata={op_name="jit(_full_run)/jit(main)/add" source_file="/global/homes/j/jackm/software/lorrax_C/src/solvers/lanczos.py" source_line=248 scheduling_name="add.1571.3"}
  %param_2.741 = f64[] parameter(2), metadata={scheduling_name="param_2.741"}
  %sqrt.149.3 = f64[] sqrt(%param_2.741), metadata={op_name="jit(_full_run)/jit(main)/jit(norm)/sqrt" source_file="/global/homes/j/jackm/software/lorrax_C/src/solvers/lanczos.py" source_line=249 scheduling_name="sqrt.149.3"}
  %convert.173.3 = c128[] convert(%sqrt.149.3), metadata={op_name="jit(_full_run)/jit(main)/convert_element_type" source_file="/global/homes/j/jackm/software/lorrax_C/src/solvers/lanczos.py" source_line=249 scheduling_name="convert.173.3"}
  %broadcast.2447.1 = c128[512]{0} broadcast(%convert.173.3), dimensions={}, metadata={op_name="jit(_full_run)/jit(main)/div" source_file="/global/homes/j/jackm/software/lorrax_C/src/solvers/lanczos.py" source_line=249 scheduling_name="broadcast.2447.1"}
  ROOT %divide.251.1 = c128[512]{0} divide(%add.1571.3, %broadcast.2447.1), metadata={op_name="jit(_full_run)/jit(main)/div" source_file="/global/homes/j/jackm/software/lorrax_C/src/solvers/lanczos.py" source_line=249 scheduling_name="divide.251.1"}
}

%fused_reduce.6 () -> pred[] {
  %iota.62.1 = s32[2]{0} iota(), iota_dimension=0, metadata={scheduling_name="iota.62.1"}
  %constant_1458_1 = s32[] constant(199)
  %broadcast.2146.1 = s32[2]{0} broadcast(%constant_1458_1), dimensions={}, metadata={scheduling_name="broadcast.2146.1"}
  %multiply.830.1 = s32[2]{0} multiply(%iota.62.1, %broadcast.2146.1), metadata={scheduling_name="multiply.830.1"}
  %constant_1459_2 = s32[] constant(0)
  %broadcast.2147.1 = s32[2]{0} broadcast(%constant_1459_2), dimensions={}, metadata={scheduling_name="broadcast.2147.1"}
  %compare.457.1 = pred[2]{0} compare(%multiply.830.1, %broadcast.2147.1), direction=GE, metadata={scheduling_name="compare.457.1"}
  %constant_1460_1 = pred[] constant(true)
  ROOT %reduce.54.1 = pred[] reduce(%compare.457.1, %constant_1460_1), dimensions={0}, to_apply=%and.reduce_sub_computation, metadata={scheduling_name="reduce.54.1"}
}

%fused_broadcast.1 () -> (f64[200], f64[200]) {
  %constant_1674_1 = f64[] constant(0)
  %broadcast.2449.1 = f64[200]{0} broadcast(%constant_1674_1), dimensions={}, metadata={scheduling_name="broadcast.2449.1"}
  %copy.129 = f64[200]{0} copy(%broadcast.2449.1), metadata={scheduling_name="copy.129"}
  ROOT %tuple.85 = (f64[200]{0}, f64[200]{0}) tuple(%broadcast.2449.1, %copy.129), metadata={scheduling_name="tuple.85"}
}

%fused_reduce.8 (param_0.679: f64[512,20]) -> f64[20] {
  %param_0.679 = f64[512,20]{1,0} parameter(0), metadata={scheduling_name="param_0.679"}
  %constant_1674_2 = f64[] constant(0)
  ROOT %reduce.57.1 = f64[20]{0} reduce(%param_0.679, %constant_1674_2), dimensions={0}, to_apply=%region_1.1270, metadata={op_name="jit(_full_run)/jit(main)/jit(norm)/reduce_sum" source_file="/global/homes/j/jackm/software/lorrax_C/src/solvers/lanczos.py" source_line=297 scheduling_name="reduce.57.1"}
}

%region_1.1270.clone (Arg_0.0: f64[], Arg_1.0: f64[]) -> f64[] {
  %Arg_1.0 = f64[] parameter(1), metadata={op_name="jit(_full_run)/jit(main)/jit(norm)/reduce_sum" scheduling_name="Arg_1.0"}
  %Arg_0.0 = f64[] parameter(0), metadata={op_name="jit(_full_run)/jit(main)/jit(norm)/reduce_sum" scheduling_name="Arg_0.0"}
  ROOT %add.1391 = f64[] add(%Arg_0.0, %Arg_1.0), metadata={op_name="jit(_full_run)/jit(main)/jit(norm)/reduce_sum" source_file="/global/homes/j/jackm/software/lorrax_C/src/solvers/lanczos.py" source_line=249 scheduling_name="add.1391"}
}

%region_14.1987.clone (Arg_0.3: f64[], Arg_1.3: f64[]) -> f64[] {
  %Arg_1.3 = f64[] parameter(1), metadata={op_name="jit(_full_run)/jit(main)/jit(norm)/reduce_sum" scheduling_name="Arg_1.3"}
  %Arg_0.3 = f64[] parameter(0), metadata={op_name="jit(_full_run)/jit(main)/jit(norm)/reduce_sum" scheduling_name="Arg_0.3"}
  ROOT %add.1408 = f64[] add(%Arg_0.3, %Arg_1.3), metadata={op_name="jit(_full_run)/jit(main)/jit(norm)/reduce_sum" source_file="/global/homes/j/jackm/software/lorrax_C/src/solvers/lanczos.py" source_line=297 scheduling_name="add.1408"}
}

%wrapped_iota_computation () -> s64[200] {
  ROOT %iota.69.1 = s64[200]{0} iota(), iota_dimension=0, metadata={op_name="jit(_full_run)/jit(main)/jit(argsort)/iota" source_file="/global/homes/j/jackm/software/lorrax_C/src/solvers/lanczos.py" source_line=293 scheduling_name="iota.69.1"}
}

%wrapped_transpose_computation.5 (param_0.702: c128[1024,20]) -> c128[20,1024] {
  %param_0.702 = c128[1024,20]{1,0} parameter(0), metadata={scheduling_name="param_0.702"}
  ROOT %transpose.223.1 = c128[20,1024]{1,0} transpose(%param_0.702), dimensions={1,0}, metadata={scheduling_name="transpose.223.1"}
}

%fused_add_xor () -> (u32[2], u32[2]) {
  %iota.64.114 = u64[2]{0} iota(), iota_dimension=0, metadata={op_name="jit(_full_run)/jit(main)/jit(_threefry_split)/iota_2x32_shape" source_file="/global/homes/j/jackm/software/lorrax_C/src/solvers/lanczos.py" source_line=245 scheduling_name="iota.64.114"}
  %constant_1464_6 = u64[] constant(32)
  %broadcast.2152.41 = u64[2]{0} broadcast(%constant_1464_6), dimensions={}, metadata={scheduling_name="broadcast.2152.41"}
  %shift-right-logical.437.41 = u64[2]{0} shift-right-logical(%iota.64.114, %broadcast.2152.41), metadata={op_name="jit(_full_run)/jit(main)/jit(_threefry_split)/iota_2x32_shape" source_file="/global/homes/j/jackm/software/lorrax_C/src/solvers/lanczos.py" source_line=245 scheduling_name="shift-right-logical.437.41"}
  %convert.164.39 = u32[2]{0} convert(%shift-right-logical.437.41), metadata={op_name="jit(_full_run)/jit(main)/jit(_threefry_split)/iota_2x32_shape" source_file="/global/homes/j/jackm/software/lorrax_C/src/solvers/lanczos.py" source_line=245 scheduling_name="convert.164.39"}
  %iota.64.113 = u64[2]{0} iota(), iota_dimension=0, metadata={op_name="jit(_full_run)/jit(main)/jit(_threefry_split)/iota_2x32_shape" source_file="/global/homes/j/jackm/software/lorrax_C/src/solvers/lanczos.py" source_line=245 scheduling_name="iota.64.113"}
  %convert.165.77 = u32[2]{0} convert(%iota.64.113), metadata={op_name="jit(_full_run)/jit(main)/jit(_threefry_split)/iota_2x32_shape" source_file="/global/homes/j/jackm/software/lorrax_C/src/solvers/lanczos.py" source_line=245 scheduling_name="convert.165.77"}
  %constant_1466_4 = u32[] constant(42), metadata={op_name="jit(_full_run)/jit(main)/jit(_threefry_split)/squeeze" source_file="/global/homes/j/jackm/software/lorrax_C/src/solvers/lanczos.py" source_line=245}
  %broadcast.2153.95 = u32[2]{0} broadcast(%constant_1466_4), dimensions={}, metadata={op_name="jit(_full_run)/jit(main)/jit(_threefry_split)/add" source_file="/global/homes/j/jackm/software/lorrax_C/src/solvers/lanczos.py" source_line=245 scheduling_name="broadcast.2153.95"}
  %add.1410.77 = u32[2]{0} add(%convert.165.77, %broadcast.2153.95), metadata={op_name="jit(_full_run)/jit(main)/jit(_threefry_split)/add" source_file="/global/homes/j/jackm/software/lorrax_C/src/solvers/lanczos.py" source_line=245 scheduling_name="add.1410.77"}
  %add.1411.37 = u32[2]{0} add(%convert.164.39, %add.1410.77), metadata={op_name="jit(_full_run)/jit(main)/jit(_threefry_split)/add" source_file="/global/homes/j/jackm/software/lorrax_C/src/solvers/lanczos.py" source_line=245 scheduling_name="add.1411.37"}
  %constant_1467_6 = u32[] constant(13)
  %broadcast.2154.75 = u32[2]{0} broadcast(%constant_1467_6), dimensions={}, metadata={scheduling_name="broadcast.2154.75"}
  %shift-left.417.37 = u32[2]{0} shift-left(%add.1410.77, %broadcast.2154.75), metadata={op_name="jit(_full_run)/jit(main)/jit(_threefry_split)/shift_left" source_file="/global/homes/j/jackm/software/lorrax_C/src/solvers/lanczos.py" source_line=245 scheduling_name="shift-left.417.37"}
  %constant_1468_6 = u32[] constant(19)
  %broadcast.2155.75 = u32[2]{0} broadcast(%constant_1468_6), dimensions={}, metadata={scheduling_name="broadcast.2155.75"}
  %shift-right-logical.438.37 = u32[2]{0} shift-right-logical(%add.1410.77, %broadcast.2155.75), metadata={op_name="jit(_full_run)/jit(main)/jit(_threefry_split)/shift_right_logical" source_file="/global/homes/j/jackm/software/lorrax_C/src/solvers/lanczos.py" source_line=245 scheduling_name="shift-right-logical.438.37"}
  %or.452.37 = u32[2]{0} or(%shift-left.417.37, %shift-right-logical.438.37), metadata={op_name="jit(_full_run)/jit(main)/jit(_threefry_split)/or" source_file="/global/homes/j/jackm/software/lorrax_C/src/solvers/lanczos.py" source_line=245 scheduling_name="or.452.37"}
  %xor.460.37 = u32[2]{0} xor(%add.1411.37, %or.452.37), metadata={op_name="jit(_full_run)/jit(main)/jit(_threefry_split)/xor" source_file="/global/homes/j/jackm/software/lorrax_C/src/solvers/lanczos.py" source_line=245 scheduling_name="xor.460.37"}
  %add.1412.126 = u32[2]{0} add(%add.1411.37, %xor.460.37), metadata={op_name="jit(_full_run)/jit(main)/jit(_threefry_split)/add" source_file="/global/homes/j/jackm/software/lorrax_C/src/solvers/lanczos.py" source_line=245 scheduling_name="add.1412.126"}
  %constant_1469_2 = u32[] constant(15)
  %broadcast.2156.115 = u32[2]{0} broadcast(%constant_1469_2), dimensions={}, metadata={scheduling_name="broadcast.2156.115"}
  %shift-left.418.37 = u32[2]{0} shift-left(%xor.460.37, %broadcast.2156.115), metadata={op_name="jit(_full_run)/jit(main)/jit(_threefry_split)/shift_left" source_file="/global/homes/j/jackm/software/lorrax_C/src/solvers/lanczos.py" source_line=245 scheduling_name="shift-left.418.37"}
  %constant_1470_2 = u32[] constant(17)
  %broadcast.2157.115 = u32[2]{0} broadcast(%constant_1470_2), dimensions={}, metadata={scheduling_name="broadcast.2157.115"}
  %shift-right-logical.439.37 = u32[2]{0} shift-right-logical(%xor.460.37, %broadcast.2157.115), metadata={op_name="jit(_full_run)/jit(main)/jit(_threefry_split)/shift_right_logical" source_file="/global/homes/j/jackm/software/lorrax_C/src/solvers/lanczos.py" source_line=245 scheduling_name="shift-right-logical.439.37"}
  %or.453.37 = u32[2]{0} or(%shift-left.418.37, %shift-right-logical.439.37), metadata={op_name="jit(_full_run)/jit(main)/jit(_threefry_split)/or" source_file="/global/homes/j/jackm/software/lorrax_C/src/solvers/lanczos.py" source_line=245 scheduling_name="or.453.37"}
  %xor.461.37 = u32[2]{0} xor(%add.1412.126, %or.453.37), metadata={op_name="jit(_full_run)/jit(main)/jit(_threefry_split)/xor" source_file="/global/homes/j/jackm/software/lorrax_C/src/solvers/lanczos.py" source_line=245 scheduling_name="xor.461.37"}
  %add.1413.89 = u32[2]{0} add(%add.1412.126, %xor.461.37), metadata={op_name="jit(_full_run)/jit(main)/jit(_threefry_split)/add" source_file="/global/homes/j/jackm/software/lorrax_C/src/solvers/lanczos.py" source_line=245 scheduling_name="add.1413.89"}
  %constant_1471_5 = u32[] constant(26)
  %broadcast.2158.160 = u32[2]{0} broadcast(%constant_1471_5), dimensions={}, metadata={scheduling_name="broadcast.2158.160"}
  %shift-left.420.37 = u32[2]{0} shift-left(%xor.461.37, %broadcast.2158.160), metadata={op_name="jit(_full_run)/jit(main)/jit(_threefry_split)/shift_left" source_file="/global/homes/j/jackm/software/lorrax_C/src/solvers/lanczos.py" source_line=245 scheduling_name="shift-left.420.37"}
  %constant_1472_5 = u32[] constant(6)
  %broadcast.2159.160 = u32[2]{0} broadcast(%constant_1472_5), dimensions={}, metadata={scheduling_name="broadcast.2159.160"}
  %shift-right-logical.441.37 = u32[2]{0} shift-right-logical(%xor.461.37, %broadcast.2159.160), metadata={op_name="jit(_full_run)/jit(main)/jit(_threefry_split)/shift_right_logical" source_file="/global/homes/j/jackm/software/lorrax_C/src/solvers/lanczos.py" source_line=245 scheduling_name="shift-right-logical.441.37"}
  %or.454.37 = u32[2]{0} or(%shift-left.420.37, %shift-right-logical.441.37), metadata={op_name="jit(_full_run)/jit(main)/jit(_threefry_split)/or" source_file="/global/homes/j/jackm/software/lorrax_C/src/solvers/lanczos.py" source_line=245 scheduling_name="or.454.37"}
  %xor.462.37 = u32[2]{0} xor(%add.1413.89, %or.454.37), metadata={op_name="jit(_full_run)/jit(main)/jit(_threefry_split)/xor" source_file="/global/homes/j/jackm/software/lorrax_C/src/solvers/lanczos.py" source_line=245 scheduling_name="xor.462.37"}
  %add.1414.48 = u32[2]{0} add(%add.1413.89, %xor.462.37), metadata={op_name="jit(_full_run)/jit(main)/jit(_threefry_split)/add" source_file="/global/homes/j/jackm/software/lorrax_C/src/solvers/lanczos.py" source_line=245 scheduling_name="add.1414.48"}
  %add.1415.11 = u32[2]{0} add(%add.1414.48, %broadcast.2153.95), metadata={op_name="jit(_full_run)/jit(main)/jit(_threefry_split)/add" source_file="/global/homes/j/jackm/software/lorrax_C/src/solvers/lanczos.py" source_line=245 scheduling_name="add.1415.11"}
  %shift-left.421.37 = u32[2]{0} shift-left(%xor.462.37, %broadcast.2159.160), metadata={op_name="jit(_full_run)/jit(main)/jit(_threefry_split)/shift_left" source_file="/global/homes/j/jackm/software/lorrax_C/src/solvers/lanczos.py" source_line=245 scheduling_name="shift-left.421.37"}
  %shift-right-logical.442.37 = u32[2]{0} shift-right-logical(%xor.462.37, %broadcast.2158.160), metadata={op_name="jit(_full_run)/jit(main)/jit(_threefry_split)/shift_right_logical" source_file="/global/homes/j/jackm/software/lorrax_C/src/solvers/lanczos.py" source_line=245 scheduling_name="shift-right-logical.442.37"}
  %or.455.37 = u32[2]{0} or(%shift-left.421.37, %shift-right-logical.442.37), metadata={op_name="jit(_full_run)/jit(main)/jit(_threefry_split)/or" source_file="/global/homes/j/jackm/software/lorrax_C/src/solvers/lanczos.py" source_line=245 scheduling_name="or.455.37"}
  %xor.463.37 = u32[2]{0} xor(%add.1414.48, %or.455.37), metadata={op_name="jit(_full_run)/jit(main)/jit(_threefry_split)/xor" source_file="/global/homes/j/jackm/software/lorrax_C/src/solvers/lanczos.py" source_line=245 scheduling_name="xor.463.37"}
  %constant_1474_4 = u32[] constant(466689009)
  %broadcast.2163.37 = u32[2]{0} broadcast(%constant_1474_4), dimensions={}, metadata={op_name="jit(_full_run)/jit(main)/jit(_threefry_split)/add" source_file="/global/homes/j/jackm/software/lorrax_C/src/solvers/lanczos.py" source_line=245 scheduling_name="broadcast.2163.37"}
  %add.1416.37 = u32[2]{0} add(%xor.463.37, %broadcast.2163.37), metadata={op_name="jit(_full_run)/jit(main)/jit(_threefry_split)/add" source_file="/global/homes/j/jackm/software/lorrax_C/src/solvers/lanczos.py" source_line=245 scheduling_name="add.1416.37"}
  %add.1417.11 = u32[2]{0} add(%add.1415.11, %add.1416.37), metadata={op_name="jit(_full_run)/jit(main)/jit(_threefry_split)/add" source_file="/global/homes/j/jackm/software/lorrax_C/src/solvers/lanczos.py" source_line=245 scheduling_name="add.1417.11"}
  %shift-left.422.23 = u32[2]{0} shift-left(%add.1416.37, %broadcast.2157.115), metadata={op_name="jit(_full_run)/jit(main)/jit(_threefry_split)/shift_left" source_file="/global/homes/j/jackm/software/lorrax_C/src/solvers/lanczos.py" source_line=245 scheduling_name="shift-left.422.23"}
  %shift-right-logical.443.23 = u32[2]{0} shift-right-logical(%add.1416.37, %broadcast.2156.115), metadata={op_name="jit(_full_run)/jit(main)/jit(_threefry_split)/shift_right_logical" source_file="/global/homes/j/jackm/software/lorrax_C/src/solvers/lanczos.py" source_line=245 scheduling_name="shift-right-logical.443.23"}
  %or.457.23 = u32[2]{0} or(%shift-left.422.23, %shift-right-logical.443.23), metadata={op_name="jit(_full_run)/jit(main)/jit(_threefry_split)/or" source_file="/global/homes/j/jackm/software/lorrax_C/src/solvers/lanczos.py" source_line=245 scheduling_name="or.457.23"}
  %xor.464.23 = u32[2]{0} xor(%add.1417.11, %or.457.23), metadata={op_name="jit(_full_run)/jit(main)/jit(_threefry_split)/xor" source_file="/global/homes/j/jackm/software/lorrax_C/src/solvers/lanczos.py" source_line=245 scheduling_name="xor.464.23"}
  %add.1418.168 = u32[2]{0} add(%add.1417.11, %xor.464.23), metadata={op_name="jit(_full_run)/jit(main)/jit(_threefry_split)/add" source_file="/global/homes/j/jackm/software/lorrax_C/src/solvers/lanczos.py" source_line=245 scheduling_name="add.1418.168"}
  %constant_1475_6 = u32[] constant(29)
  %broadcast.2166.62 = u32[2]{0} broadcast(%constant_1475_6), dimensions={}, metadata={scheduling_name="broadcast.2166.62"}
  %shift-left.423.51 = u32[2]{0} shift-left(%xor.464.23, %broadcast.2166.62), metadata={op_name="jit(_full_run)/jit(main)/jit(_threefry_split)/shift_left" source_file="/global/homes/j/jackm/software/lorrax_C/src/solvers/lanczos.py" source_line=245 scheduling_name="shift-left.423.51"}
  %constant_1476_6 = u32[] constant(3)
  %broadcast.2167.62 = u32[2]{0} broadcast(%constant_1476_6), dimensions={}, metadata={scheduling_name="broadcast.2167.62"}
  %shift-right-logical.444.51 = u32[2]{0} shift-right-logical(%xor.464.23, %broadcast.2167.62), metadata={op_name="jit(_full_run)/jit(main)/jit(_threefry_split)/shift_right_logical" source_file="/global/homes/j/jackm/software/lorrax_C/src/solvers/lanczos.py" source_line=245 scheduling_name="shift-right-logical.444.51"}
  %or.458.51 = u32[2]{0} or(%shift-left.423.51, %shift-right-logical.444.51), metadata={op_name="jit(_full_run)/jit(main)/jit(_threefry_split)/or" source_file="/global/homes/j/jackm/software/lorrax_C/src/solvers/lanczos.py" source_line=245 scheduling_name="or.458.51"}
  %xor.465.51 = u32[2]{0} xor(%add.1418.168, %or.458.51), metadata={op_name="jit(_full_run)/jit(main)/jit(_threefry_split)/xor" source_file="/global/homes/j/jackm/software/lorrax_C/src/solvers/lanczos.py" source_line=245 scheduling_name="xor.465.51"}
  %add.1419.117 = u32[2]{0} add(%add.1418.168, %xor.465.51), metadata={op_name="jit(_full_run)/jit(main)/jit(_threefry_split)/add" source_file="/global/homes/j/jackm/software/lorrax_C/src/solvers/lanczos.py" source_line=245 scheduling_name="add.1419.117"}
  %constant_1477_6 = u32[] constant(16)
  %broadcast.2168.62 = u32[2]{0} broadcast(%constant_1477_6), dimensions={}, metadata={scheduling_name="broadcast.2168.62"}
  %shift-left.425.51 = u32[2]{0} shift-left(%xor.465.51, %broadcast.2168.62), metadata={op_name="jit(_full_run)/jit(main)/jit(_threefry_split)/shift_left" source_file="/global/homes/j/jackm/software/lorrax_C/src/solvers/lanczos.py" source_line=245 scheduling_name="shift-left.425.51"}
  %shift-right-logical.446.51 = u32[2]{0} shift-right-logical(%xor.465.51, %broadcast.2168.62), metadata={op_name="jit(_full_run)/jit(main)/jit(_threefry_split)/shift_right_logical" source_file="/global/homes/j/jackm/software/lorrax_C/src/solvers/lanczos.py" source_line=245 scheduling_name="shift-right-logical.446.51"}
  %or.459.51 = u32[2]{0} or(%shift-left.425.51, %shift-right-logical.446.51), metadata={op_name="jit(_full_run)/jit(main)/jit(_threefry_split)/or" source_file="/global/homes/j/jackm/software/lorrax_C/src/solvers/lanczos.py" source_line=245 scheduling_name="or.459.51"}
  %xor.466.51 = u32[2]{0} xor(%add.1419.117, %or.459.51), metadata={op_name="jit(_full_run)/jit(main)/jit(_threefry_split)/xor" source_file="/global/homes/j/jackm/software/lorrax_C/src/solvers/lanczos.py" source_line=245 scheduling_name="xor.466.51"}
  %add.1420.62 = u32[2]{0} add(%add.1419.117, %xor.466.51), metadata={op_name="jit(_full_run)/jit(main)/jit(_threefry_split)/add" source_file="/global/homes/j/jackm/software/lorrax_C/src/solvers/lanczos.py" source_line=245 scheduling_name="add.1420.62"}
  %constant_1478_1 = u32[] constant(466689008), metadata={op_name="jit(_full_run)/jit(main)/jit(_threefry_split)/xor" source_file="/global/homes/j/jackm/software/lorrax_C/src/solvers/lanczos.py" source_line=245}
  %broadcast.2170.12 = u32[2]{0} broadcast(%constant_1478_1), dimensions={}, metadata={op_name="jit(_full_run)/jit(main)/jit(_threefry_split)/add" source_file="/global/homes/j/jackm/software/lorrax_C/src/solvers/lanczos.py" source_line=245 scheduling_name="broadcast.2170.12"}
  %add.1421.11 = u32[2]{0} add(%add.1420.62, %broadcast.2170.12), metadata={op_name="jit(_full_run)/jit(main)/jit(_threefry_split)/add" source_file="/global/homes/j/jackm/software/lorrax_C/src/solvers/lanczos.py" source_line=245 scheduling_name="add.1421.11"}
  %constant_1479_6 = u32[] constant(24)
  %broadcast.2171.62 = u32[2]{0} broadcast(%constant_1479_6), dimensions={}, metadata={scheduling_name="broadcast.2171.62"}
  %shift-left.426.51 = u32[2]{0} shift-left(%xor.466.51, %broadcast.2171.62), metadata={op_name="jit(_full_run)/jit(main)/jit(_threefry_split)/shift_left" source_file="/global/homes/j/jackm/software/lorrax_C/src/solvers/lanczos.py" source_line=245 scheduling_name="shift-left.426.51"}
  %constant_1480_6 = u32[] constant(8)
  %broadcast.2172.62 = u32[2]{0} broadcast(%constant_1480_6), dimensions={}, metadata={scheduling_name="broadcast.2172.62"}
  %shift-right-logical.447.51 = u32[2]{0} shift-right-logical(%xor.466.51, %broadcast.2172.62), metadata={op_name="jit(_full_run)/jit(main)/jit(_threefry_split)/shift_right_logical" source_file="/global/homes/j/jackm/software/lorrax_C/src/solvers/lanczos.py" source_line=245 scheduling_name="shift-right-logical.447.51"}
  %or.460.51 = u32[2]{0} or(%shift-left.426.51, %shift-right-logical.447.51), metadata={op_name="jit(_full_run)/jit(main)/jit(_threefry_split)/or" source_file="/global/homes/j/jackm/software/lorrax_C/src/solvers/lanczos.py" source_line=245 scheduling_name="or.460.51"}
  %xor.468.51 = u32[2]{0} xor(%add.1420.62, %or.460.51), metadata={op_name="jit(_full_run)/jit(main)/jit(_threefry_split)/xor" source_file="/global/homes/j/jackm/software/lorrax_C/src/solvers/lanczos.py" source_line=245 scheduling_name="xor.468.51"}
  %constant_1481_6 = u32[] constant(2)
  %broadcast.2173.51 = u32[2]{0} broadcast(%constant_1481_6), dimensions={}, metadata={scheduling_name="broadcast.2173.51"}
  %add.1422.51 = u32[2]{0} add(%xor.468.51, %broadcast.2173.51), metadata={op_name="jit(_full_run)/jit(main)/jit(_threefry_split)/add" source_file="/global/homes/j/jackm/software/lorrax_C/src/solvers/lanczos.py" source_line=245 scheduling_name="add.1422.51"}
  %add.1423.11 = u32[2]{0} add(%add.1421.11, %add.1422.51), metadata={op_name="jit(_full_run)/jit(main)/jit(_threefry_split)/add" source_file="/global/homes/j/jackm/software/lorrax_C/src/solvers/lanczos.py" source_line=245 scheduling_name="add.1423.11"}
  %shift-left.427.37 = u32[2]{0} shift-left(%add.1422.51, %broadcast.2154.75), metadata={op_name="jit(_full_run)/jit(main)/jit(_threefry_split)/shift_left" source_file="/global/homes/j/jackm/software/lorrax_C/src/solvers/lanczos.py" source_line=245 scheduling_name="shift-left.427.37"}
…
  %multiply.846.5.clone.1 = f64[512]{0} multiply(%add.1496.3.clone.1, %select.982.5.clone.1), metadata={op_name="jit(_full_run)/jit(main)/jit(_normal)/jit(_normal_real)/erf_inv" source_file="/global/homes/j/jackm/software/lorrax_C/src/solvers/lanczos.py" source_line=247 scheduling_name="multiply.846.5.clone.1"}
  %add.1498.5.clone.1 = f64[512]{0} add(%select.956.3.clone.1, %multiply.846.5.clone.1), metadata={op_name="jit(_full_run)/jit(main)/jit(_normal)/jit(_normal_real)/erf_inv" source_file="/global/homes/j/jackm/software/lorrax_C/src/solvers/lanczos.py" source_line=247 scheduling_name="add.1498.5.clone.1"}
  %multiply.847.3.clone.1 = f64[512]{0} multiply(%add.1498.5.clone.1, %select.982.5.clone.1), metadata={op_name="jit(_full_run)/jit(main)/jit(_normal)/jit(_normal_real)/erf_inv" source_file="/global/homes/j/jackm/software/lorrax_C/src/solvers/lanczos.py" source_line=247 scheduling_name="multiply.847.3.clone.1"}
  %add.1499.3.clone.1 = f64[512]{0} add(%select.954.3.clone.1, %multiply.847.3.clone.1), metadata={op_name="jit(_full_run)/jit(main)/jit(_normal)/jit(_normal_real)/erf_inv" source_file="/global/homes/j/jackm/software/lorrax_C/src/solvers/lanczos.py" source_line=247 scheduling_name="add.1499.3.clone.1"}
  %multiply.848.5.clone.1 = f64[512]{0} multiply(%add.1499.3.clone.1, %select.982.5.clone.1), metadata={op_name="jit(_full_run)/jit(main)/jit(_normal)/jit(_normal_real)/erf_inv" source_file="/global/homes/j/jackm/software/lorrax_C/src/solvers/lanczos.py" source_line=247 scheduling_name="multiply.848.5.clone.1"}
  %add.1500.5.clone.1 = f64[512]{0} add(%select.952.3.clone.1, %multiply.848.5.clone.1), metadata={op_name="jit(_full_run)/jit(main)/jit(_normal)/jit(_normal_real)/erf_inv" source_file="/global/homes/j/jackm/software/lorrax_C/src/solvers/lanczos.py" source_line=247 scheduling_name="add.1500.5.clone.1"}
  %multiply.849.5.clone.1 = f64[512]{0} multiply(%add.1500.5.clone.1, %select.982.5.clone.1), metadata={op_name="jit(_full_run)/jit(main)/jit(_normal)/jit(_normal_real)/erf_inv" source_file="/global/homes/j/jackm/software/lorrax_C/src/solvers/lanczos.py" source_line=247 scheduling_name="multiply.849.5.clone.1"}
  %add.1501.5.clone.1 = f64[512]{0} add(%select.950.3.clone.1, %multiply.849.5.clone.1), metadata={op_name="jit(_full_run)/jit(main)/jit(_normal)/jit(_normal_real)/erf_inv" source_file="/global/homes/j/jackm/software/lorrax_C/src/solvers/lanczos.py" source_line=247 scheduling_name="add.1501.5.clone.1"}
  %multiply.850.3.clone.1 = f64[512]{0} multiply(%add.1501.5.clone.1, %select.982.5.clone.1), metadata={op_name="jit(_full_run)/jit(main)/jit(_normal)/jit(_normal_real)/erf_inv" source_file="/global/homes/j/jackm/software/lorrax_C/src/solvers/lanczos.py" source_line=247 scheduling_name="multiply.850.3.clone.1"}
  %add.1502.3.clone.1 = f64[512]{0} add(%select.948.3.clone.1, %multiply.850.3.clone.1), metadata={op_name="jit(_full_run)/jit(main)/jit(_normal)/jit(_normal_real)/erf_inv" source_file="/global/homes/j/jackm/software/lorrax_C/src/solvers/lanczos.py" source_line=247 scheduling_name="add.1502.3.clone.1"}
  %multiply.851.3.clone.1 = f64[512]{0} multiply(%add.1502.3.clone.1, %select.982.5.clone.1), metadata={op_name="jit(_full_run)/jit(main)/jit(_normal)/jit(_normal_real)/erf_inv" source_file="/global/homes/j/jackm/software/lorrax_C/src/solvers/lanczos.py" source_line=247 scheduling_name="multiply.851.3.clone.1"}
  %add.1503.3.clone.1 = f64[512]{0} add(%select.946.3.clone.1, %multiply.851.3.clone.1), metadata={op_name="jit(_full_run)/jit(main)/jit(_normal)/jit(_normal_real)/erf_inv" source_file="/global/homes/j/jackm/software/lorrax_C/src/solvers/lanczos.py" source_line=247 scheduling_name="add.1503.3.clone.1"}
  %select.983.3.clone.1 = f64[512]{0} select(%compare.460.3.clone.1, %add.1503.3.clone.1, %add.1502.3.clone.1), metadata={op_name="jit(_full_run)/jit(main)/jit(_normal)/jit(_normal_real)/erf_inv" source_file="/global/homes/j/jackm/software/lorrax_C/src/solvers/lanczos.py" source_line=247 scheduling_name="select.983.3.clone.1"}
  %multiply.852.5.clone.1 = f64[512]{0} multiply(%select.983.3.clone.1, %select.982.5.clone.1), metadata={op_name="jit(_full_run)/jit(main)/jit(_normal)/jit(_normal_real)/erf_inv" source_file="/global/homes/j/jackm/software/lorrax_C/src/solvers/lanczos.py" source_line=247 scheduling_name="multiply.852.5.clone.1"}
  %add.1504.5.clone.1 = f64[512]{0} add(%select.945.3.clone.1, %multiply.852.5.clone.1), metadata={op_name="jit(_full_run)/jit(main)/jit(_normal)/jit(_normal_real)/erf_inv" source_file="/global/homes/j/jackm/software/lorrax_C/src/solvers/lanczos.py" source_line=247 scheduling_name="add.1504.5.clone.1"}
  %select.984.3.clone.1 = f64[512]{0} select(%compare.460.3.clone.1, %add.1504.5.clone.1, %select.983.3.clone.1), metadata={op_name="jit(_full_run)/jit(main)/jit(_normal)/jit(_normal_real)/erf_inv" source_file="/global/homes/j/jackm/software/lorrax_C/src/solvers/lanczos.py" source_line=247 scheduling_name="select.984.3.clone.1"}
  %multiply.853.3.clone.1 = f64[512]{0} multiply(%select.984.3.clone.1, %select.982.5.clone.1), metadata={op_name="jit(_full_run)/jit(main)/jit(_normal)/jit(_normal_real)/erf_inv" source_file="/global/homes/j/jackm/software/lorrax_C/src/solvers/lanczos.py" source_line=247 scheduling_name="multiply.853.3.clone.1"}
  %add.1505.3.clone.1 = f64[512]{0} add(%multiply.853.3.clone.1, %broadcast.2319.2), metadata={op_name="jit(_full_run)/jit(main)/jit(_normal)/jit(_normal_real)/erf_inv" source_file="/global/homes/j/jackm/software/lorrax_C/src/solvers/lanczos.py" source_line=247 scheduling_name="add.1505.3.clone.1"}
  %select.985.3.clone.1 = f64[512]{0} select(%compare.459.3.clone.1, %add.1505.3.clone.1, %select.984.3.clone.1), metadata={op_name="jit(_full_run)/jit(main)/jit(_normal)/jit(_normal_real)/erf_inv" source_file="/global/homes/j/jackm/software/lorrax_C/src/solvers/lanczos.py" source_line=247 scheduling_name="select.985.3.clone.1"}
  %multiply.854.3.clone.1 = f64[512]{0} multiply(%select.985.3.clone.1, %select.982.5.clone.1), metadata={op_name="jit(_full_run)/jit(main)/jit(_normal)/jit(_normal_real)/erf_inv" source_file="/global/homes/j/jackm/software/lorrax_C/src/solvers/lanczos.py" source_line=247 scheduling_name="multiply.854.3.clone.1"}
  %add.1506.3.clone.1 = f64[512]{0} add(%multiply.854.3.clone.1, %broadcast.2320.2), metadata={op_name="jit(_full_run)/jit(main)/jit(_normal)/jit(_normal_real)/erf_inv" source_file="/global/homes/j/jackm/software/lorrax_C/src/solvers/lanczos.py" source_line=247 scheduling_name="add.1506.3.clone.1"}
  %select.986.3.clone.1 = f64[512]{0} select(%compare.459.3.clone.1, %add.1506.3.clone.1, %select.985.3.clone.1), metadata={op_name="jit(_full_run)/jit(main)/jit(_normal)/jit(_normal_real)/erf_inv" source_file="/global/homes/j/jackm/software/lorrax_C/src/solvers/lanczos.py" source_line=247 scheduling_name="select.986.3.clone.1"}
  %multiply.855.5.clone.1 = f64[512]{0} multiply(%select.986.3.clone.1, %select.982.5.clone.1), metadata={op_name="jit(_full_run)/jit(main)/jit(_normal)/jit(_normal_real)/erf_inv" source_file="/global/homes/j/jackm/software/lorrax_C/src/solvers/lanczos.py" source_line=247 scheduling_name="multiply.855.5.clone.1"}
  %add.1507.5.clone.1 = f64[512]{0} add(%multiply.855.5.clone.1, %broadcast.2321.2), metadata={op_name="jit(_full_run)/jit(main)/jit(_normal)/jit(_normal_real)/erf_inv" source_file="/global/homes/j/jackm/software/lorrax_C/src/solvers/lanczos.py" source_line=247 scheduling_name="add.1507.5.clone.1"}
  %select.987.3.clone.1 = f64[512]{0} select(%compare.459.3.clone.1, %add.1507.5.clone.1, %select.986.3.clone.1), metadata={op_name="jit(_full_run)/jit(main)/jit(_normal)/jit(_normal_real)/erf_inv" source_file="/global/homes/j/jackm/software/lorrax_C/src/solvers/lanczos.py" source_line=247 scheduling_name="select.987.3.clone.1"}
  %multiply.856.5.clone.1 = f64[512]{0} multiply(%select.987.3.clone.1, %select.982.5.clone.1), metadata={op_name="jit(_full_run)/jit(main)/jit(_normal)/jit(_normal_real)/erf_inv" source_file="/global/homes/j/jackm/software/lorrax_C/src/solvers/lanczos.py" source_line=247 scheduling_name="multiply.856.5.clone.1"}
  %add.1508.5.clone.1 = f64[512]{0} add(%multiply.856.5.clone.1, %broadcast.2322.2), metadata={op_name="jit(_full_run)/jit(main)/jit(_normal)/jit(_normal_real)/erf_inv" source_file="/global/homes/j/jackm/software/lorrax_C/src/solvers/lanczos.py" source_line=247 scheduling_name="add.1508.5.clone.1"}
  %select.988.3.clone.1 = f64[512]{0} select(%compare.459.3.clone.1, %add.1508.5.clone.1, %select.987.3.clone.1), metadata={op_name="jit(_full_run)/jit(main)/jit(_normal)/jit(_normal_real)/erf_inv" source_file="/global/homes/j/jackm/software/lorrax_C/src/solvers/lanczos.py" source_line=247 scheduling_name="select.988.3.clone.1"}
  %multiply.857.3.clone.1 = f64[512]{0} multiply(%select.988.3.clone.1, %maximum.73.3.clone.1), metadata={op_name="jit(_full_run)/jit(main)/jit(_normal)/jit(_normal_real)/erf_inv" source_file="/global/homes/j/jackm/software/lorrax_C/src/solvers/lanczos.py" source_line=247 scheduling_name="multiply.857.3.clone.1"}
  %select.989.1.clone.1 = f64[512]{0} select(%compare.458.3.clone.1, %multiply.833.1.clone.1, %multiply.857.3.clone.1), metadata={op_name="jit(_full_run)/jit(main)/jit(_normal)/jit(_normal_real)/erf_inv" source_file="/global/homes/j/jackm/software/lorrax_C/src/solvers/lanczos.py" source_line=247 scheduling_name="select.989.1.clone.1"}
  %multiply.858.1.clone.1 = f64[512]{0} multiply(%select.989.1.clone.1, %broadcast.2323.2), metadata={op_name="jit(_full_run)/jit(main)/jit(_normal)/jit(_normal_real)/mul" source_file="/global/homes/j/jackm/software/lorrax_C/src/solvers/lanczos.py" source_line=247 scheduling_name="multiply.858.1.clone.1"}
  ROOT %tuple.74 = (f64[512]{0}, f64[512]{0}) tuple(%multiply.885.1, %multiply.858.1.clone.1), metadata={scheduling_name="tuple.74"}
}

%fused_reduce.7 (param_0.681: f64[512], param_1.825: f64[512]) -> f64[] {
  %param_1.825 = f64[512]{0} parameter(1), metadata={scheduling_name="param_1.825"}
  %convert.169.7 = c128[512]{0} convert(%param_1.825), metadata={op_name="jit(_full_run)/jit(main)/convert_element_type" source_file="/global/homes/j/jackm/software/lorrax_C/src/solvers/lanczos.py" source_line=248 scheduling_name="convert.169.7"}
  %param_0.681 = f64[512]{0} parameter(0), metadata={scheduling_name="param_0.681"}
  %convert.172.7 = c128[512]{0} convert(%param_0.681), metadata={op_name="jit(_full_run)/jit(main)/convert_element_type" source_file="/global/homes/j/jackm/software/lorrax_C/src/solvers/lanczos.py" source_line=248 scheduling_name="convert.172.7"}
  %constant_1673_1 = c128[] constant((0, 1))
  %broadcast.2446.7 = c128[512]{0} broadcast(%constant_1673_1), dimensions={}, metadata={scheduling_name="broadcast.2446.7"}
  %multiply.886.7 = c128[512]{0} multiply(%convert.172.7, %broadcast.2446.7), metadata={op_name="jit(_full_run)/jit(main)/mul" source_file="/global/homes/j/jackm/software/lorrax_C/src/solvers/lanczos.py" source_line=248 scheduling_name="multiply.886.7"}
  %add.1571.7 = c128[512]{0} add(%convert.169.7, %multiply.886.7), metadata={op_name="jit(_full_run)/jit(main)/add" source_file="/global/homes/j/jackm/software/lorrax_C/src/solvers/lanczos.py" source_line=248 scheduling_name="add.1571.7"}
  %real.115.3 = f64[512]{0} real(%add.1571.7), metadata={op_name="jit(_full_run)/jit(main)/jit(norm)/real" source_file="/global/homes/j/jackm/software/lorrax_C/src/solvers/lanczos.py" source_line=249 scheduling_name="real.115.3"}
  %imag.90.5 = f64[512]{0} imag(%add.1571.7), metadata={op_name="jit(_full_run)/jit(main)/jit(norm)/imag" source_file="/global/homes/j/jackm/software/lorrax_C/src/solvers/lanczos.py" source_line=249 scheduling_name="imag.90.5"}
  %negate.144.5 = f64[512]{0} negate(%imag.90.5), metadata={op_name="jit(_full_run)/jit(main)/jit(norm)/neg" source_file="/global/homes/j/jackm/software/lorrax_C/src/solvers/lanczos.py" source_line=249 scheduling_name="negate.144.5"}
  %complex.89.3 = c128[512]{0} complex(%real.115.3, %negate.144.5), metadata={op_name="jit(_full_run)/jit(main)/jit(norm)/complex" source_file="/global/homes/j/jackm/software/lorrax_C/src/solvers/lanczos.py" source_line=249 scheduling_name="complex.89.3"}
  %multiply.887.3 = c128[512]{0} multiply(%add.1571.7, %complex.89.3), metadata={op_name="jit(_full_run)/jit(main)/jit(norm)/mul" source_file="/global/homes/j/jackm/software/lorrax_C/src/solvers/lanczos.py" source_line=249 scheduling_name="multiply.887.3"}
  %real.116.3 = f64[512]{0} real(%multiply.887.3), metadata={op_name="jit(_full_run)/jit(main)/jit(norm)/real" source_file="/global/homes/j/jackm/software/lorrax_C/src/solvers/lanczos.py" source_line=249 scheduling_name="real.116.3"}
  %constant_1674_4 = f64[] constant(0)
  ROOT %reduce.55.1 = f64[] reduce(%real.116.3, %constant_1674_4), dimensions={0}, to_apply=%region_1.1270, metadata={op_name="jit(_full_run)/jit(main)/jit(norm)/reduce_sum" source_file="/global/homes/j/jackm/software/lorrax_C/src/solvers/lanczos.py" source_line=249 scheduling_name="reduce.55.1"}
}

%command_buffer (p: s32[4]) -> (f64[512], f64[512], f64[]) {
  %p = s32[4]{0} parameter(0)
  %loop_add_xor_fusion = (u32[2]{0}, u32[2]{0}) fusion(), kind=kLoop, calls=%fused_add_xor, metadata={op_name="jit(_full_run)/jit(main)/jit(_threefry_split)/add" source_file="/global/homes/j/jackm/software/lorrax_C/src/solvers/lanczos.py" source_line=245 scheduling_name="loop_add_xor_fusion"}
  %get-tuple-element.324 = u32[2]{0} get-tuple-element(%loop_add_xor_fusion), index=0, metadata={op_name="jit(_full_run)/jit(main)/jit(_threefry_split)/add" source_file="/global/homes/j/jackm/software/lorrax_C/src/solvers/lanczos.py" source_line=245 scheduling_name="get-tuple-element.324"}
  %get-tuple-element.325 = u32[2]{0} get-tuple-element(%loop_add_xor_fusion), index=1, metadata={op_name="jit(_full_run)/jit(main)/jit(_threefry_split)/add" source_file="/global/homes/j/jackm/software/lorrax_C/src/solvers/lanczos.py" source_line=245 scheduling_name="get-tuple-element.325"}
  %loop_slice_fusion = (u32[1]{0}, u32[1]{0}) fusion(%get-tuple-element.324, %get-tuple-element.325), kind=kLoop, calls=%fused_slice, metadata={op_name="jit(_full_run)/jit(main)/jit(_normal)/jit(_normal_real)/jit(_uniform)/slice" source_file="/global/homes/j/jackm/software/lorrax_C/src/solvers/lanczos.py" source_line=247 scheduling_name="loop_slice_fusion"}
  %partition-id.4.0 = u32[] partition-id(), metadata={scheduling_name="partition-id.4.0"}
  %get-tuple-element.322 = u32[1]{0} get-tuple-element(%loop_slice_fusion), index=0, metadata={op_name="jit(_full_run)/jit(main)/jit(_normal)/jit(_normal_real)/jit(_uniform)/slice" source_file="/global/homes/j/jackm/software/lorrax_C/src/solvers/lanczos.py" source_line=247 scheduling_name="get-tuple-element.322"}
  %get-tuple-element.323 = u32[1]{0} get-tuple-element(%loop_slice_fusion), index=1, metadata={op_name="jit(_full_run)/jit(main)/jit(_normal)/jit(_normal_real)/jit(_uniform)/slice" source_file="/global/homes/j/jackm/software/lorrax_C/src/solvers/lanczos.py" source_line=247 scheduling_name="get-tuple-element.323"}
  %loop_multiply_fusion.4 = (f64[512]{0}, f64[512]{0}) fusion(%get-tuple-element.323, %get-tuple-element.324, %p, %partition-id.4.0, %get-tuple-element.322), kind=kLoop, calls=%fused_multiply.4, metadata={op_name="jit(_full_run)/jit(main)/jit(_normal)/jit(_normal_real)/mul" source_file="/global/homes/j/jackm/software/lorrax_C/src/solvers/lanczos.py" source_line=247 scheduling_name="loop_multiply_fusion.4"}
  %get-tuple-element.320 = f64[512]{0} get-tuple-element(%loop_multiply_fusion.4), index=0, metadata={op_name="jit(_full_run)/jit(main)/jit(_normal)/jit(_normal_real)/mul" source_file="/global/homes/j/jackm/software/lorrax_C/src/solvers/lanczos.py" source_line=247 scheduling_name="get-tuple-element.320"}
  %get-tuple-element.321 = f64[512]{0} get-tuple-element(%loop_multiply_fusion.4), index=1, metadata={op_name="jit(_full_run)/jit(main)/jit(_normal)/jit(_normal_real)/mul" source_file="/global/homes/j/jackm/software/lorrax_C/src/solvers/lanczos.py" source_line=247 scheduling_name="get-tuple-element.321"}
  %input_reduce_fusion.7 = f64[] fusion(%get-tuple-element.320, %get-tuple-element.321), kind=kInput, calls=%fused_reduce.7, metadata={op_name="jit(_full_run)/jit(main)/jit(norm)/reduce_sum" source_file="/global/homes/j/jackm/software/lorrax_C/src/solvers/lanczos.py" source_line=249 scheduling_name="input_reduce_fusion.7"}
  ROOT %tuple.87 = (f64[512]{0}, f64[512]{0}, f64[]) tuple(%get-tuple-element.320, %get-tuple-element.321, %input_reduce_fusion.7)
}

%fused_multiply.3 (param_0.256: c128[240,240,4,4,4]) -> c128[240,240,4,4,4] {
  %param_0.256 = c128[240,240,4,4,4]{4,3,2,1,0} parameter(0), metadata={scheduling_name="param_0.256"}
  %constant_1956_1 = c128[] constant((8, 0)), metadata={op_name="jit(_full_run)/jit(main)/jit(shmap_body)/sqrt" source_file="/global/homes/j/jackm/software/lorrax_C/src/common/fft_helpers.py" source_line=412}
  %broadcast.2451.1 = c128[240,240,4,4,4]{4,3,2,1,0} broadcast(%constant_1956_1), dimensions={}, metadata={op_name="jit(_full_run)/jit(main)/jit(shmap_body)/mul" source_file="/global/homes/j/jackm/software/lorrax_C/src/common/fft_helpers.py" source_line=412 scheduling_name="broadcast.2451.1"}
  ROOT %multiply.888.1 = c128[240,240,4,4,4]{4,3,2,1,0} multiply(%param_0.256, %broadcast.2451.1), metadata={op_name="jit(_full_run)/jit(main)/jit(shmap_body)/mul" source_file="/global/homes/j/jackm/software/lorrax_C/src/common/fft_helpers.py" source_line=412 scheduling_name="multiply.888.1"}
}

%wrapped_transpose_computation (param_0.696: c128[64,4,2,240]) -> c128[64,240,2,4] {
  %param_0.696 = c128[64,4,2,240]{3,2,1,0} parameter(0), metadata={scheduling_name="param_0.696"}
  ROOT %transpose.216.1 = c128[64,240,2,4]{3,2,1,0} transpose(%param_0.696), dimensions={0,3,2,1}, metadata={scheduling_name="transpose.216.1"}
}

%wrapped_transpose_computation.1 (param_0.697: c128[64,4,2,240]) -> c128[64,240,2,4] {
  %param_0.697 = c128[64,4,2,240]{3,2,1,0} parameter(0), metadata={scheduling_name="param_0.697"}
  ROOT %transpose.217.1 = c128[64,240,2,4]{3,2,1,0} transpose(%param_0.697), dimensions={0,3,2,1}, metadata={scheduling_name="transpose.217.1"}
}

%wrapped_transpose_computation.2 (param_0.698: f64[64,4]) -> f64[4,64] {
  %param_0.698 = f64[64,4]{1,0} parameter(0), metadata={scheduling_name="param_0.698"}
  ROOT %transpose.220.1 = f64[4,64]{1,0} transpose(%param_0.698), dimensions={1,0}, metadata={scheduling_name="transpose.220.1"}
}

%fused_transpose.6 (param_0_0: c128[64,4,2,240], param_1_0: c128[64,4,2,240]) -> (c128[64,240,8], c128[64,240,8]) {
  %param_0_0 = c128[64,4,2,240]{3,2,1,0} parameter(0), metadata={scheduling_name="param_0_0"}
  %bitcast.8852.2 = c128[64,8,240]{2,1,0} bitcast(%param_0_0), metadata={scheduling_name="bitcast.8852.2"}
  %transpose.219.2 = c128[64,240,8]{2,1,0} transpose(%bitcast.8852.2), dimensions={0,2,1}, metadata={scheduling_name="transpose.219.2"}
  %param_1_0 = c128[64,4,2,240]{3,2,1,0} parameter(1), metadata={scheduling_name="param_1_0"}
  %bitcast.8845.2 = c128[64,8,240]{2,1,0} bitcast(%param_1_0), metadata={scheduling_name="bitcast.8845.2"}
  %transpose.218.2 = c128[64,240,8]{2,1,0} transpose(%bitcast.8845.2), dimensions={0,2,1}, metadata={scheduling_name="transpose.218.2"}
  ROOT %tuple.77 = (c128[64,240,8]{2,1,0}, c128[64,240,8]{2,1,0}) tuple(%transpose.219.2, %transpose.218.2), metadata={scheduling_name="tuple.77"}
}

%command_buffer.2 (p.2: s64[], p.3: c128[240,240,4,4,4], p.4: c128[64,4,2,240], p.5: c128[64,4,2,240], p.6: f64[64,4], p.7: c128[64,4,2,240], p.8: c128[64,4,2,240]) -> (s64[], c128[240,240,4,4,4], c128[64,240,2,4], c128[64,240,2,4], f64[4,64], /*index=5*/(c128[64,240,8], c128[64,240,8])) {
  %p.2 = s64[] parameter(0)
  %p.3 = c128[240,240,4,4,4]{4,3,2,1,0} parameter(1)
  %p.4 = c128[64,4,2,240]{3,2,1,0} parameter(2)
  %p.5 = c128[64,4,2,240]{3,2,1,0} parameter(3)
  %p.6 = f64[64,4]{1,0} parameter(4)
  %p.7 = c128[64,4,2,240]{3,2,1,0} parameter(5)
  %p.8 = c128[64,4,2,240]{3,2,1,0} parameter(6)
  %copy.130 = s64[] copy(%p.2)
  %loop_multiply_fusion.3 = c128[240,240,4,4,4]{4,3,2,1,0} fusion(%p.3), kind=kLoop, calls=%fused_multiply.3, metadata={op_name="jit(_full_run)/jit(main)/jit(shmap_body)/mul" source_file="/global/homes/j/jackm/software/lorrax_C/src/common/fft_helpers.py" source_line=412 scheduling_name="loop_multiply_fusion.3"}
  %wrapped_transpose = c128[64,240,2,4]{3,2,1,0} fusion(%p.4), kind=kLoop, calls=%wrapped_transpose_computation, metadata={scheduling_name="wrapped_transpose"}
  %wrapped_transpose.1 = c128[64,240,2,4]{3,2,1,0} fusion(%p.5), kind=kLoop, calls=%wrapped_transpose_computation.1, metadata={scheduling_name="wrapped_transpose.1"}
  %wrapped_transpose.2 = f64[4,64]{1,0} fusion(%p.6), kind=kLoop, calls=%wrapped_transpose_computation.2, metadata={scheduling_name="wrapped_transpose.2"}
  %loop_transpose_fusion.3 = (c128[64,240,8]{2,1,0}, c128[64,240,8]{2,1,0}) fusion(%p.7, %p.8), kind=kLoop, calls=%fused_transpose.6, metadata={scheduling_name="loop_transpose_fusion.3"}
  ROOT %tuple.89 = (s64[], c128[240,240,4,4,4]{4,3,2,1,0}, c128[64,240,2,4]{3,2,1,0}, c128[64,240,2,4]{3,2,1,0}, f64[4,64]{1,0}, /*index=5*/(c128[64,240,8]{2,1,0}, c128[64,240,8]{2,1,0})) tuple(%copy.130, %loop_multiply_fusion.3, %wrapped_transpose, %wrapped_transpose.1, %wrapped_transpose.2, /*index=5*/%loop_transpose_fusion.3)
}

%wrapped_iota_computation.1 () -> s32[200] {
  ROOT %iota.70.1 = s32[200]{0} iota(), iota_dimension=0, metadata={scheduling_name="iota.70.1"}
}

%fused_select (param_0.477: f64[200], param_1.829: s32[]) -> f64[200] {
  %param_1.829 = s32[] parameter(1), metadata={scheduling_name="param_1.829"}
  %constant_1459_1 = s32[] constant(0)
  %compare.466.2 = pred[] compare(%param_1.829, %constant_1459_1), direction=EQ, metadata={op_name="jit(_full_run)/jit(main)/jit(eigh)/eigh" source_file="/global/homes/j/jackm/software/lorrax_C/src/solvers/lanczos.py" source_line=292 scheduling_name="compare.466.2"}
  %broadcast.2463.1 = pred[200]{0} broadcast(%compare.466.2), dimensions={}, metadata={op_name="jit(_full_run)/jit(main)/jit(eigh)/eigh" source_file="/global/homes/j/jackm/software/lorrax_C/src/solvers/lanczos.py" source_line=292 scheduling_name="broadcast.2463.1"}
  %param_0.477 = f64[200]{0} parameter(0), metadata={scheduling_name="param_0.477"}
  %constant_1723_2 = f64[] constant(nan)
  %broadcast.2464.1 = f64[200]{0} broadcast(%constant_1723_2), dimensions={}, metadata={scheduling_name="broadcast.2464.1"}
  ROOT %select.1039.1 = f64[200]{0} select(%broadcast.2463.1, %param_0.477, %broadcast.2464.1), metadata={op_name="jit(_full_run)/jit(main)/jit(eigh)/eigh" source_file="/global/homes/j/jackm/software/lorrax_C/src/solvers/lanczos.py" source_line=292 scheduling_name="select.1039.1"}
}

%region_13.1948.clone (Arg_0.4: f64[], Arg_1.4: f64[], Arg_2.0: s64[], Arg_3.0: s64[], p.2.lhs.clone: s32[], p.2.rhs.clone: s32[]) -> pred[] {
  %Arg_2.0 = s64[] parameter(2), metadata={op_name="jit(_full_run)/jit(main)/jit(argsort)/sort" scheduling_name="Arg_2.0"}
  %Arg_3.0 = s64[] parameter(3), metadata={op_name="jit(_full_run)/jit(main)/jit(argsort)/sort" scheduling_name="Arg_3.0"}
  %Arg_1.4 = f64[] parameter(1), metadata={op_name="jit(_full_run)/jit(main)/jit(argsort)/sort" scheduling_name="Arg_1.4"}
  %constant_1742 = f64[] constant(0)
  %compare.450 = pred[] compare(%Arg_1.4, %constant_1742), direction=EQ, metadata={op_name="jit(_full_run)/jit(main)/jit(argsort)/eq" source_file="/global/homes/j/jackm/software/lorrax_C/src/solvers/lanczos.py" source_line=293 scheduling_name="compare.450"}
  %select.941 = f64[] select(%compare.450, %constant_1742, %Arg_1.4), metadata={op_name="jit(_full_run)/jit(main)/jit(argsort)/select_n" source_file="/global/homes/j/jackm/software/lorrax_C/src/solvers/lanczos.py" source_line=293 scheduling_name="select.941"}
  %compare.449 = pred[] compare(%Arg_1.4, %Arg_1.4), direction=NE, metadata={op_name="jit(_full_run)/jit(main)/jit(argsort)/ne" source_file="/global/homes/j/jackm/software/lorrax_C/src/solvers/lanczos.py" source_line=293 scheduling_name="compare.449"}
  %constant_1741 = f64[] constant(nan)
  %select.942 = f64[] select(%compare.449, %constant_1741, %select.941), metadata={op_name="jit(_full_run)/jit(main)/jit(argsort)/select_n" source_file="/global/homes/j/jackm/software/lorrax_C/src/solvers/lanczos.py" source_line=293 scheduling_name="select.942"}
  %bitcast-convert.23 = s64[] bitcast-convert(%select.942), metadata={scheduling_name="bitcast-convert.23"}
  %constant_1744 = s64[] constant(9223372036854775807)
  %xor.459 = s64[] xor(%constant_1744, %bitcast-convert.23), metadata={scheduling_name="xor.459"}
  %constant_1743 = s64[] constant(0)
  %compare.451 = pred[] compare(%bitcast-convert.23, %constant_1743), direction=LT, metadata={scheduling_name="compare.451"}
  %select.943 = s64[] select(%compare.451, %xor.459, %bitcast-convert.23), metadata={scheduling_name="select.943"}
  %Arg_0.4 = f64[] parameter(0), metadata={op_name="jit(_full_run)/jit(main)/jit(argsort)/sort" scheduling_name="Arg_0.4"}
  %compare.447 = pred[] compare(%Arg_0.4, %constant_1742), direction=EQ, metadata={op_name="jit(_full_run)/jit(main)/jit(argsort)/eq" source_file="/global/homes/j/jackm/software/lorrax_C/src/solvers/lanczos.py" source_line=293 scheduling_name="compare.447"}
  %select.938 = f64[] select(%compare.447, %constant_1742, %Arg_0.4), metadata={op_name="jit(_full_run)/jit(main)/jit(argsort)/select_n" source_file="/global/homes/j/jackm/software/lorrax_C/src/solvers/lanczos.py" source_line=293 scheduling_name="select.938"}
  %compare.446 = pred[] compare(%Arg_0.4, %Arg_0.4), direction=NE, metadata={op_name="jit(_full_run)/jit(main)/jit(argsort)/ne" source_file="/global/homes/j/jackm/software/lorrax_C/src/solvers/lanczos.py" source_line=293 scheduling_name="compare.446"}
  %select.939 = f64[] select(%compare.446, %constant_1741, %select.938), metadata={op_name="jit(_full_run)/jit(main)/jit(argsort)/select_n" source_file="/global/homes/j/jackm/software/lorrax_C/src/solvers/lanczos.py" source_line=293 scheduling_name="select.939"}
  %bitcast-convert.22 = s64[] bitcast-convert(%select.939), metadata={scheduling_name="bitcast-convert.22"}
  %xor.458 = s64[] xor(%constant_1744, %bitcast-convert.22), metadata={scheduling_name="xor.458"}
  %compare.448 = pred[] compare(%bitcast-convert.22, %constant_1743), direction=LT, metadata={scheduling_name="compare.448"}
  %select.940 = s64[] select(%compare.448, %xor.458, %bitcast-convert.22), metadata={scheduling_name="select.940"}
  %compare.452 = pred[] compare(%select.940, %select.943), direction=LT, metadata={op_name="jit(_full_run)/jit(main)/jit(argsort)/lt_to" source_file="/global/homes/j/jackm/software/lorrax_C/src/solvers/lanczos.py" source_line=293 scheduling_name="compare.452"}
  %compare.453 = pred[] compare(%select.943, %select.940), direction=LT, metadata={op_name="jit(_full_run)/jit(main)/jit(argsort)/lt_to" source_file="/global/homes/j/jackm/software/lorrax_C/src/solvers/lanczos.py" source_line=293 scheduling_name="compare.453"}
  %compare.454 = pred[] compare(%compare.452, %compare.453), direction=EQ, metadata={scheduling_name="compare.454"}
  %p.2.lhs.clone = s32[] parameter(4), metadata={scheduling_name="p.2.lhs.clone"}
  %p.2.rhs.clone = s32[] parameter(5), metadata={scheduling_name="p.2.rhs.clone"}
  %compare.455 = pred[] compare(%p.2.lhs.clone, %p.2.rhs.clone), direction=LT, metadata={scheduling_name="compare.455"}
  ROOT %select.944 = pred[] select(%compare.454, %compare.455, %compare.452), metadata={scheduling_name="select.944"}
}

%fused_convert (param_0.684: f64[200,200], param_1.831: s64[200], param_2.744: s32[]) -> c128[20,200] {
  %param_2.744 = s32[] parameter(2), metadata={scheduling_name="param_2.744"}
  %constant_1459_3 = s32[] constant(0)
  %compare.466.1 = pred[] compare(%param_2.744, %constant_1459_3), direction=EQ, metadata={op_name="jit(_full_run)/jit(main)/jit(eigh)/eigh" source_file="/global/homes/j/jackm/software/lorrax_C/src/solvers/lanczos.py" source_line=292 scheduling_name="compare.466.1"}
  %broadcast.2467.1 = pred[200,200]{1,0} broadcast(%compare.466.1), dimensions={}, metadata={op_name="jit(_full_run)/jit(main)/jit(eigh)/eigh" source_file="/global/homes/j/jackm/software/lorrax_C/src/solvers/lanczos.py" source_line=292 scheduling_name="broadcast.2467.1"}
  %param_0.684 = f64[200,200]{0,1} parameter(0), metadata={scheduling_name="param_0.684"}
  %bitcast.8965.5 = f64[200,200]{1,0} bitcast(%param_0.684), metadata={scheduling_name="bitcast.8965.5"}
  %constant_1723_1 = f64[] constant(nan)
  %broadcast.2468.3 = f64[200,200]{1,0} broadcast(%constant_1723_1), dimensions={}, metadata={scheduling_name="broadcast.2468.3"}
  %select.1041.5 = f64[200,200]{1,0} select(%broadcast.2467.1, %bitcast.8965.5, %broadcast.2468.3), metadata={op_name="jit(_full_run)/jit(main)/jit(eigh)/eigh" source_file="/global/homes/j/jackm/software/lorrax_C/src/solvers/lanczos.py" source_line=292 scheduling_name="select.1041.5"}
  %param_1.831 = s64[200]{0} parameter(1), metadata={scheduling_name="param_1.831"}
  %slice.140.3 = s64[20]{0} slice(%param_1.831), slice={[0:20]}, metadata={op_name="jit(_full_run)/jit(main)/slice" source_file="/global/homes/j/jackm/software/lorrax_C/src/solvers/lanczos.py" source_line=293 scheduling_name="slice.140.3"}
  %constant_1457_2 = s64[] constant(0)
  %broadcast.2465.3 = s64[20]{0} broadcast(%constant_1457_2), dimensions={}, metadata={scheduling_name="broadcast.2465.3"}
  %compare.467.5 = pred[20]{0} compare(%slice.140.3, %broadcast.2465.3), direction=LT, metadata={op_name="jit(_full_run)/jit(main)/lt" source_file="/global/homes/j/jackm/software/lorrax_C/src/solvers/lanczos.py" source_line=294 scheduling_name="compare.467.5"}
  %constant_1725_2 = s64[] constant(200)
  %broadcast.2466.3 = s64[20]{0} broadcast(%constant_1725_2), dimensions={}, metadata={scheduling_name="broadcast.2466.3"}
  %add.1577.5 = s64[20]{0} add(%slice.140.3, %broadcast.2466.3), metadata={op_name="jit(_full_run)/jit(main)/add" source_file="/global/homes/j/jackm/software/lorrax_C/src/solvers/lanczos.py" source_line=294 scheduling_name="add.1577.5"}
  %select.1040.5 = s64[20]{0} select(%compare.467.5, %add.1577.5, %slice.140.3), metadata={op_name="jit(_full_run)/jit(main)/select_n" source_file="/global/homes/j/jackm/software/lorrax_C/src/solvers/lanczos.py" source_line=294 scheduling_name="select.1040.5"}
  %convert.174.3 = s32[20]{0} convert(%select.1040.5), metadata={op_name="jit(_full_run)/jit(main)/convert_element_type" source_file="/global/homes/j/jackm/software/lorrax_C/src/solvers/lanczos.py" source_line=294 scheduling_name="convert.174.3"}
  %bitcast.8972.4 = s32[20,1]{1,0} bitcast(%convert.174.3), metadata={scheduling_name="bitcast.8972.4"}
  %gather.3.3 = f64[20,1,200]{2,1,0} gather(%select.1041.5, %bitcast.8972.4), offset_dims={1,2}, collapsed_slice_dims={}, start_index_map={0}, index_vector_dim=1, slice_sizes={1,200}, metadata={op_name="jit(_full_run)/jit(main)/gather" source_file="/global/homes/j/jackm/software/lorrax_C/src/solvers/lanczos.py" source_line=296 scheduling_name="gather.3.3"}
  %bitcast.8975.1 = f64[20,200]{1,0} bitcast(%gather.3.3), metadata={scheduling_name="bitcast.8975.1"}
  ROOT %convert.175.1 = c128[20,200]{1,0} convert(%bitcast.8975.1), metadata={op_name="jit(_full_run)/jit(main)/dot_general" source_file="/global/homes/j/jackm/software/lorrax_C/src/solvers/lanczos.py" source_line=296 scheduling_name="convert.175.1"}
}

%command_buffer.4 (p.16: (f64[200,200], f64[200], s32[]), p.17: s64[200], p.18: (s64[], c128[512,200], f64[200], f64[200], c128[512], /*index=5*/c128[64,4,2,240], c128[64,4,2,240], c128[64,4,2,240], c128[64,4,2,240], f64[64,4], /*index=10*/f64[64,4], c128[240,240,4,4,4], c128[240,240])) -> (f64[200], s64[200], (c128[20,512], s8[1702400])) {
  %p.16 = (f64[200,200]{0,1}, f64[200]{0}, s32[]) parameter(0)
  %p.17 = s64[200]{0} parameter(1)
  %p.18 = (s64[], c128[512,200]{1,0}, f64[200]{0}, f64[200]{0}, c128[512]{0}, /*index=5*/c128[64,4,2,240]{1,2,3,0}, c128[64,4,2,240]{1,2,3,0}, c128[64,4,2,240]{2,1,3,0}, c128[64,4,2,240]{2,1,3,0}, f64[64,4]{1,0}, /*index=10*/f64[64,4]{0,1}, c128[240,240,4,4,4]{4,3,2,1,0}, c128[240,240]{1,0}) parameter(2)
  %wrapped_iota.1 = s32[200]{0} fusion(), kind=kLoop, calls=%wrapped_iota_computation.1, metadata={scheduling_name="wrapped_iota.1"}
  %get-tuple-element.284.0 = s32[] get-tuple-element(%p.16), index=2, frontend_attributes={num_batch_dims="0"}, metadata={op_name="jit(_full_run)/jit(main)/jit(eigh)/eigh" source_file="/global/homes/j/jackm/software/lorrax_C/src/solvers/lanczos.py" source_line=292 scheduling_name="get-tuple-element.284.0"}
  %get-tuple-element.285.0 = f64[200]{0} get-tuple-element(%p.16), index=1, frontend_attributes={num_batch_dims="0"}, metadata={op_name="jit(_full_run)/jit(main)/jit(eigh)/eigh" source_file="/global/homes/j/jackm/software/lorrax_C/src/solvers/lanczos.py" source_line=292 scheduling_name="get-tuple-element.285.0"}
  %loop_select_fusion = f64[200]{0} fusion(%get-tuple-element.285.0, %get-tuple-element.284.0), kind=kLoop, calls=%fused_select, metadata={op_name="jit(_full_run)/jit(main)/jit(eigh)/eigh" source_file="/global/homes/j/jackm/software/lorrax_C/src/solvers/lanczos.py" source_line=292 scheduling_name="loop_select_fusion"}
  %sort.2.0 = (f64[200]{0}, s64[200]{0}, s32[200]{0}) sort(%loop_select_fusion, %p.17, %wrapped_iota.1), dimensions={0}, is_stable=true, to_apply=%region_13.1948.clone, metadata={op_name="jit(_full_run)/jit(main)/jit(argsort)/sort" source_file="/global/homes/j/jackm/software/lorrax_C/src/solvers/lanczos.py" source_line=293 scheduling_name="sort.2.0"}
  %get-tuple-element.286.0 = s64[200]{0} get-tuple-element(%sort.2.0), index=1, metadata={op_name="jit(_full_run)/jit(main)/jit(argsort)/sort" source_file="/global/homes/j/jackm/software/lorrax_C/src/solvers/lanczos.py" source_line=293 scheduling_name="get-tuple-element.286.0"}
  %get-tuple-element.287.0 = f64[200,200]{0,1} get-tuple-element(%p.16), index=0, frontend_attributes={num_batch_dims="0"}, metadata={op_name="jit(_full_run)/jit(main)/jit(eigh)/eigh" source_file="/global/homes/j/jackm/software/lorrax_C/src/solvers/lanczos.py" source_line=292 scheduling_name="get-tuple-element.287.0"}
  %loop_convert_fusion = c128[20,200]{1,0} fusion(%get-tuple-element.287.0, %get-tuple-element.286.0, %get-tuple-element.284.0), kind=kLoop, calls=%fused_convert, metadata={op_name="jit(_full_run)/jit(main)/dot_general" source_file="/global/homes/j/jackm/software/lorrax_C/src/solvers/lanczos.py" source_line=296 scheduling_name="loop_convert_fusion"}
  %get-tuple-element.288.0 = c128[512,200]{1,0} get-tuple-element(%p.18), index=1, metadata={op_name="jit(_full_run)/jit(main)/while" source_file="/global/homes/j/jackm/software/lorrax_C/src/solvers/lanczos.py" source_line=286 scheduling_name="get-tuple-element.288.0"}
  %custom-call.187.0 = (c128[20,512]{0,1}, s8[1702400]{0}) custom-call(%loop_convert_fusion, %get-tuple-element.288.0), custom_call_target="__cublas$gemm", metadata={op_name="jit(_full_run)/jit(main)/transpose" source_file="/global/homes/j/jackm/software/lorrax_C/src/solvers/lanczos.py" source_line=296 scheduling_name="custom-call.187.0"}, backend_config={"operation_queue_id":"0","wait_on_operation_queues":[],"gemm_backend_config":{"alpha_real":1,"alpha_imag":0,"beta":0,"dot_dimension_numbers":{"lhs_contracting_dimensions":["1"],"rhs_contracting_dimensions":["1"],"lhs_batch_dimensions":[],"rhs_batch_dimensions":[]},"precision_config":{"operand_precision":["DEFAULT","DEFAULT"],"algorithm":"ALG_UNSET"},"epilogue":"DEFAULT","damax_output":false,"lhs_stride":"4000","rhs_stride":"102400","grad_x":false,"grad_y":false},"force_earliest_schedule":false}
  ROOT %tuple.91 = (f64[200]{0}, s64[200]{0}, (c128[20,512]{0,1}, s8[1702400]{0})) tuple(%loop_select_fusion, %get-tuple-element.286.0, %custom-call.187.0)
}

ENTRY %main.2014_spmd (param.12.0: c128[64,4,2,240], param.13.0: c128[64,4,2,240], param.14.0: c128[64,4,2,240], param.15.0: c128[64,4,2,240], param.16.0: f64[64,4], param.17.0: f64[64,4], param.18.0: c128[240,240,4,4,4], param.19.0: c128[240,240]) -> (f64[20], c128[20,1024], s32[]) {
  %constant_1462_0 = s32[4]{0} constant({0, 0, 1, 1}), metadata={op_name="jit(_full_run)/jit(main)/jit(_normal)/jit(_normal_real)/jit(_uniform)/iota_2x32_shape" source_file="/global/homes/j/jackm/software/lorrax_C/src/solvers/lanczos.py" source_line=247}
  %param.18.0 = c128[240,240,4,4,4]{4,3,2,1,0} parameter(6), sharding={devices=[2,2,1,1,1]<=[4]}, metadata={op_name="W_q" scheduling_name="param.18.0"}
  %constant_1457_0 = s64[] constant(0)
  %param.12.0 = c128[64,4,2,240]{3,2,1,0} parameter(0), sharding={devices=[1,1,1,2,2]<=[4] last_tile_dim_replicate}, metadata={op_name="psi_c_X" scheduling_name="param.12.0"}
  %param.13.0 = c128[64,4,2,240]{3,2,1,0} parameter(1), sharding={devices=[1,1,1,2,2]<=[2,2]T(1,0) last_tile_dim_replicate}, metadata={op_name="psi_c_Y" scheduling_name="param.13.0"}
  %param.17.0 = f64[64,4]{1,0} parameter(5), sharding={replicated}, metadata={op_name="eps_v" scheduling_name="param.17.0"}
  %param.14.0 = c128[64,4,2,240]{3,2,1,0} parameter(2), sharding={devices=[1,1,1,2,2]<=[4] last_tile_dim_replicate}, metadata={op_name="psi_v_X" scheduling_name="param.14.0"}
  %param.15.0 = c128[64,4,2,240]{3,2,1,0} parameter(3), sharding={devices=[1,1,1,2,2]<=[2,2]T(1,0) last_tile_dim_replicate}, metadata={op_name="psi_v_Y" scheduling_name="param.15.0"}
  %param.16.0 = f64[64,4]{1,0} parameter(4), sharding={replicated}, metadata={op_name="eps_c" scheduling_name="param.16.0"}
  %param.19.0 = c128[240,240]{1,0} parameter(7), sharding={devices=[2,2]<=[4]}, metadata={op_name="V_q0" scheduling_name="param.19.0"}
  %constant_1737_0 = s32[] constant(200)
  %call.4 = (f64[512]{0}, f64[512]{0}, f64[]) call(%constant_1462_0), to_apply=%command_buffer
  %get-tuple-element.400 = f64[512]{0} get-tuple-element(%call.4), index=0
  %get-tuple-element.401 = f64[512]{0} get-tuple-element(%call.4), index=1
  %get-tuple-element.402 = f64[] get-tuple-element(%call.4), index=2
  %all-reduce-start.5 = f64[] all-reduce-start(%get-tuple-element.402), channel_id=1, replica_groups=[2,2]<=[2,2]T(1,0), use_global_device_ids=true, to_apply=%region_1.1270.clone, metadata={op_name="jit(_full_run)/jit(main)/jit(norm)/reduce_sum" source_file="/global/homes/j/jackm/software/lorrax_C/src/solvers/lanczos.py" source_line=249 scheduling_name="all-reduce-start.5"}, backend_config={"operation_queue_id":"0","wait_on_operation_queues":[],"collective_backend_config":{"is_sync":false,"no_parallel_custom_call":true,"is_pipelined":false,"reification_cost":[]},"force_earliest_schedule":false}
  %input_reduce_fusion.6 = pred[] fusion(), kind=kInput, calls=%fused_reduce.6, metadata={scheduling_name="input_reduce_fusion.6"}
  %loop_broadcast_fusion.1 = (f64[200]{0}, f64[200]{0}) fusion(), kind=kLoop, calls=%fused_broadcast.1, metadata={scheduling_name="loop_broadcast_fusion.1"}
  %fft.18.0 = c128[240,240,4,4,4]{4,3,2,1,0} fft(%param.18.0), fft_type=IFFT, fft_length={4,4,4}, metadata={op_name="jit(_full_run)/jit(main)/jit(shmap_body)/jit(fft)/fft" source_file="/global/homes/j/jackm/software/lorrax_C/src/common/fft_helpers.py" source_line=412 scheduling_name="fft.18.0"}
  %call.5 = (s64[], c128[240,240,4,4,4]{4,3,2,1,0}, c128[64,240,2,4]{3,2,1,0}, c128[64,240,2,4]{3,2,1,0}, f64[4,64]{1,0}, /*index=5*/(c128[64,240,8]{2,1,0}, c128[64,240,8]{2,1,0})) call(%constant_1457_0, %fft.18.0, %param.12.0, %param.13.0, %param.17.0, /*index=5*/%param.15.0, %param.14.0), to_apply=%command_buffer.2
  %get-tuple-element.403 = s64[] get-tuple-element(%call.5), index=0
  %get-tuple-element.404 = c128[240,240,4,4,4]{4,3,2,1,0} get-tuple-element(%call.5), index=1
  %get-tuple-element.405 = c128[64,240,2,4]{3,2,1,0} get-tuple-element(%call.5), index=2
  %get-tuple-element.406 = c128[64,240,2,4]{3,2,1,0} get-tuple-element(%call.5), index=3
  %get-tuple-element.407 = f64[4,64]{1,0} get-tuple-element(%call.5), index=4
  %get-tuple-element.408 = (c128[64,240,8]{2,1,0}, c128[64,240,8]{2,1,0}) get-tuple-element(%call.5), index=5
  %all-reduce-done.5 = f64[] all-reduce-done(%all-reduce-start.5), metadata={op_name="jit(_full_run)/jit(main)/jit(norm)/reduce_sum" source_file="/global/homes/j/jackm/software/lorrax_C/src/solvers/lanczos.py" source_line=249 scheduling_name="all-reduce-done.5"}
  %loop_divide_fusion.2 = c128[512]{0} fusion(%get-tuple-element.400, %get-tuple-element.401, %all-reduce-done.5), kind=kLoop, calls=%fused_divide.2, metadata={op_name="jit(_full_run)/jit(main)/div" source_file="/global/homes/j/jackm/software/lorrax_C/src/solvers/lanczos.py" source_line=249 scheduling_name="loop_divide_fusion.2"}
  %loop_pad_fusion = c128[512,200]{1,0} fusion(%loop_divide_fusion.2, %input_reduce_fusion.6), kind=kLoop, calls=%fused_pad, metadata={op_name="jit(_full_run)/jit(main)/scatter" source_file="/global/homes/j/jackm/software/lorrax_C/src/solvers/lanczos.py" source_line=252 scheduling_name="loop_pad_fusion"}
  %get-tuple-element.327 = c128[64,240,8]{2,1,0} get-tuple-element(%get-tuple-element.408), index=1, metadata={scheduling_name="get-tuple-element.327"}
  %bitcast.8849.0 = c128[64,4,2,240]{2,1,3,0} bitcast(%get-tuple-element.327), metadata={scheduling_name="bitcast.8849.0"}
  %get-tuple-element.326 = c128[64,240,8]{2,1,0} get-tuple-element(%get-tuple-element.408), index=0, metadata={scheduling_name="get-tuple-element.326"}
  %bitcast.8856.0 = c128[64,4,2,240]{2,1,3,0} bitcast(%get-tuple-element.326), metadata={scheduling_name="bitcast.8856.0"}
  %get-tuple-element.389 = f64[200]{0} get-tuple-element(%loop_broadcast_fusion.1), index=0, metadata={scheduling_name="get-tuple-element.389"}
  %get-tuple-element.390 = f64[200]{0} get-tuple-element(%loop_broadcast_fusion.1), index=1, metadata={scheduling_name="get-tuple-element.390"}
  %bitcast.8837.0 = c128[64,4,2,240]{1,2,3,0} bitcast(%get-tuple-element.405), metadata={scheduling_name="bitcast.8837.0"}
  %bitcast.8842.0 = c128[64,4,2,240]{1,2,3,0} bitcast(%get-tuple-element.406), metadata={scheduling_name="bitcast.8842.0"}
  %bitcast.8863.0 = f64[64,4]{0,1} bitcast(%get-tuple-element.407), metadata={scheduling_name="bitcast.8863.0"}
  %tuple.81 = (s64[], c128[512,200]{1,0}, f64[200]{0}, f64[200]{0}, c128[512]{0}, /*index=5*/c128[64,4,2,240]{1,2,3,0}, c128[64,4,2,240]{1,2,3,0}, c128[64,4,2,240]{2,1,3,0}, c128[64,4,2,240]{2,1,3,0}, f64[64,4]{1,0}, /*index=10*/f64[64,4]{0,1}, c128[240,240,4,4,4]{4,3,2,1,0}, c128[240,240]{1,0}) tuple(%get-tuple-element.403, %loop_pad_fusion, %get-tuple-element.389, %get-tuple-element.390, %loop_divide_fusion.2, /*index=5*/%bitcast.8837.0, %bitcast.8842.0, %bitcast.8849.0, %bitcast.8856.0, %param.16.0, /*index=10*/%bitcast.8863.0, %get-tuple-element.404, %param.19.0), metadata={scheduling_name="tuple.81"}
  %while.11.0 = (s64[], c128[512,200]{1,0}, f64[200]{0}, f64[200]{0}, c128[512]{0}, /*index=5*/c128[64,4,2,240]{1,2,3,0}, c128[64,4,2,240]{1,2,3,0}, c128[64,4,2,240]{2,1,3,0}, c128[64,4,2,240]{2,1,3,0}, f64[64,4]{1,0}, /*index=10*/f64[64,4]{0,1}, c128[240,240,4,4,4]{4,3,2,1,0}, c128[240,240]{1,0}) while(%tuple.81), condition=%region_12.1825.clone.clone_spmd, body=%region_3.1800.clone.clone.clone_spmd, metadata={op_name="jit(_full_run)/jit(main)/while" source_file="/global/homes/j/jackm/software/lorrax_C/src/solvers/lanczos.py" source_line=286 scheduling_name="while.11.0"}, backend_config={"known_trip_count":{"n":"200"},"known_init_step":{"init":"0","step":"1"},"known_induction_variable":{"tuple_index":"0"}}
  %get-tuple-element.282.0 = f64[200]{0} get-tuple-element(%while.11.0), index=2, metadata={op_name="jit(_full_run)/jit(main)/while" source_file="/global/homes/j/jackm/software/lorrax_C/src/solvers/lanczos.py" source_line=286 scheduling_name="get-tuple-element.282.0"}
  %get-tuple-element.283.0 = f64[200]{0} get-tuple-element(%while.11.0), index=3, metadata={op_name="jit(_full_run)/jit(main)/while" source_file="/global/homes/j/jackm/software/lorrax_C/src/solvers/lanczos.py" source_line=286 scheduling_name="get-tuple-element.283.0"}
  %loop_add_fusion.2 = f64[200,200]{1,0} fusion(%get-tuple-element.282.0, %get-tuple-element.283.0), kind=kLoop, calls=%fused_add.2, metadata={op_name="jit(_full_run)/jit(main)/add" source_file="/global/homes/j/jackm/software/lorrax_C/src/solvers/lanczos.py" source_line=290 scheduling_name="loop_add_fusion.2"}
  %input_transpose_fusion.2 = f64[200,200]{1,0} fusion(%loop_add_fusion.2), kind=kInput, calls=%fused_transpose.5, metadata={op_name="jit(_full_run)/jit(main)/jit(eigh)/div" source_file="/global/homes/j/jackm/software/lorrax_C/src/solvers/lanczos.py" source_line=292 scheduling_name="input_transpose_fusion.2"}
  %wrapped_iota = s64[200]{0} fusion(), kind=kLoop, calls=%wrapped_iota_computation, metadata={op_name="jit(_full_run)/jit(main)/jit(argsort)/iota" source_file="/global/homes/j/jackm/software/lorrax_C/src/solvers/lanczos.py" source_line=293 scheduling_name="wrapped_iota"}
  %bitcast.8926.0 = f64[200,200]{0,1} bitcast(%input_transpose_fusion.2), metadata={scheduling_name="bitcast.8926.0"}
  %custom-call.171.0 = (f64[200,200]{0,1}, f64[200]{0}, s32[]) custom-call(%bitcast.8926.0), custom_call_target="cusolver_syevd_ffi", operand_layout_constraints={f64[200,200]{0,1}}, output_to_operand_aliasing={{0}: (0, {})}, api_version=API_VERSION_TYPED_FFI, frontend_attributes={num_batch_dims="0"}, metadata={op_name="jit(_full_run)/jit(main)/jit(eigh)/eigh" source_file="/global/homes/j/jackm/software/lorrax_C/src/solvers/lanczos.py" source_line=292 scheduling_name="custom-call.171.0"}, backend_config={algorithm = 0 : ui8, lower = true}
  %call.6 = (f64[200]{0}, s64[200]{0}, (c128[20,512]{0,1}, s8[1702400]{0})) call(%custom-call.171.0, %wrapped_iota, %while.11.0), to_apply=%command_buffer.4
  %get-tuple-element.409 = f64[200]{0} get-tuple-element(%call.6), index=0
  %get-tuple-element.410 = s64[200]{0} get-tuple-element(%call.6), index=1
  %get-tuple-element.411 = (c128[20,512]{0,1}, s8[1702400]{0}) get-tuple-element(%call.6), index=2
  %get-tuple-element.314.0 = c128[20,512]{0,1} get-tuple-element(%get-tuple-element.411), index=0, metadata={op_name="jit(_full_run)/jit(main)/transpose" source_file="/global/homes/j/jackm/software/lorrax_C/src/solvers/lanczos.py" source_line=296 scheduling_name="get-tuple-element.314.0"}
  %all-gather-start.3 = (c128[20,512]{0,1}, c128[20,1024]{0,1}) all-gather-start(%get-tuple-element.314.0), channel_id=15, replica_groups=[2,2]<=[2,2]T(1,0), dimensions={1}, use_global_device_ids=true, metadata={op_name="jit(_full_run)/jit(main)/div" source_file="/global/homes/j/jackm/software/lorrax_C/src/solvers/lanczos.py" source_line=298 scheduling_name="all-gather-start.3"}, backend_config={"operation_queue_id":"0","wait_on_operation_queues":[],"collective_backend_config":{"is_sync":false,"no_parallel_custom_call":true,"is_pipelined":false,"reification_cost":[]},"force_earliest_schedule":false}
  %loop_real_fusion = f64[512,20]{1,0} fusion(%get-tuple-element.314.0), kind=kLoop, calls=%fused_real, metadata={op_name="jit(_full_run)/jit(main)/jit(norm)/real" source_file="/global/homes/j/jackm/software/lorrax_C/src/solvers/lanczos.py" source_line=297 scheduling_name="loop_real_fusion"}
  %input_reduce_fusion.8 = f64[20]{0} fusion(%loop_real_fusion), kind=kInput, calls=%fused_reduce.8, metadata={op_name="jit(_full_run)/jit(main)/jit(norm)/reduce_sum" source_file="/global/homes/j/jackm/software/lorrax_C/src/solvers/lanczos.py" source_line=297 scheduling_name="input_reduce_fusion.8"}
  %all-gather-done.3 = c128[20,1024]{0,1} all-gather-done(%all-gather-start.3), metadata={op_name="jit(_full_run)/jit(main)/div" source_file="/global/homes/j/jackm/software/lorrax_C/src/solvers/lanczos.py" source_line=298 scheduling_name="all-gather-done.3"}
  %all-reduce-start.6 = f64[20]{0} all-reduce-start(%input_reduce_fusion.8), channel_id=14, replica_groups=[2,2]<=[2,2]T(1,0), use_global_device_ids=true, to_apply=%region_14.1987.clone, metadata={op_name="jit(_full_run)/jit(main)/jit(norm)/reduce_sum" source_file="/global/homes/j/jackm/software/lorrax_C/src/solvers/lanczos.py" source_line=297 scheduling_name="all-reduce-start.6"}, backend_config={"operation_queue_id":"0","wait_on_operation_queues":[],"collective_backend_config":{"is_sync":false,"no_parallel_custom_call":true,"is_pipelined":false,"reification_cost":[]},"force_earliest_schedule":false}
  %loop_gather_fusion = f64[20,1]{1,0} fusion(%get-tuple-element.409, %get-tuple-element.410), kind=kLoop, calls=%fused_gather, metadata={op_name="jit(_full_run)/jit(main)/gather" source_file="/global/homes/j/jackm/software/lorrax_C/src/solvers/lanczos.py" source_line=294 scheduling_name="loop_gather_fusion"}
  %all-reduce-done.6 = f64[20]{0} all-reduce-done(%all-reduce-start.6), metadata={op_name="jit(_full_run)/jit(main)/jit(norm)/reduce_sum" source_file="/global/homes/j/jackm/software/lorrax_C/src/solvers/lanczos.py" source_line=297 scheduling_name="all-reduce-done.6"}
  %loop_divide_fusion.1 = c128[1024,20]{1,0} fusion(%all-gather-done.3, %all-reduce-done.6), kind=kLoop, calls=%fused_divide.1, metadata={op_name="jit(_full_run)/jit(main)/div" source_file="/global/homes/j/jackm/software/lorrax_C/src/solvers/lanczos.py" source_line=298 scheduling_name="loop_divide_fusion.1"}
  %wrapped_transpose.5 = c128[20,1024]{1,0} fusion(%loop_divide_fusion.1), kind=kInput, calls=%wrapped_transpose_computation.5, metadata={scheduling_name="wrapped_transpose.5"}
  %bitcast.8959.0 = f64[20]{0} bitcast(%loop_gather_fusion), metadata={scheduling_name="bitcast.8959.0"}
  %tuple.84 = (f64[20]{0}, c128[20,1024]{1,0}, s32[]) tuple(%bitcast.8959.0, %wrapped_transpose.5, %constant_1737_0), metadata={scheduling_name="tuple.84"}
  %get-tuple-element.391 = f64[20]{0} get-tuple-element(%tuple.84), index=0
  %get-tuple-element.392 = c128[20,1024]{1,0} get-tuple-element(%tuple.84), index=1
  %get-tuple-element.393 = s32[] get-tuple-element(%tuple.84), index=2
  %copy.131 = s32[] copy(%get-tuple-element.393)
  ROOT %tuple.86 = (f64[20]{0}, c128[20,1024]{1,0}, s32[]) tuple(%get-tuple-element.391, %get-tuple-element.392, %copy.131)
}

