HloModule jit__normal, entry_computation_layout={(u32[2]{0})->f64[1024]{0}}, allow_spmd_sharding_propagation_to_parameters={true}, allow_spmd_sharding_propagation_to_output={true}

%threefry2x32.3 (Arg_0.4: u32[], Arg_1.5: u32[], Arg_2.6: u32[1024], Arg_3.7: u32[1024]) -> (u32[1024], u32[1024]) {
  %Arg_2.6 = u32[1024]{0} parameter(2), metadata={op_name="jit(_normal)/jit(main)/jit(_normal_real)/jit(_uniform)/threefry2x32"}
  %Arg_0.4 = u32[] parameter(0), metadata={op_name="jit(_normal)/jit(main)/jit(_normal_real)/jit(_uniform)/threefry2x32"}
  %broadcast.41 = u32[1024]{0} broadcast(%Arg_0.4), dimensions={}, metadata={op_name="jit(_normal)/jit(main)/jit(_normal_real)/jit(_uniform)/add" source_file="/global/homes/j/jackm/software/lorrax_C/src/solvers/lanczos.py" source_line=247}
  %add.42 = u32[1024]{0} add(%Arg_2.6, %broadcast.41), metadata={op_name="jit(_normal)/jit(main)/jit(_normal_real)/jit(_uniform)/add" source_file="/global/homes/j/jackm/software/lorrax_C/src/solvers/lanczos.py" source_line=247}
  %Arg_3.7 = u32[1024]{0} parameter(3), metadata={op_name="jit(_normal)/jit(main)/jit(_normal_real)/jit(_uniform)/threefry2x32"}
  %Arg_1.5 = u32[] parameter(1), metadata={op_name="jit(_normal)/jit(main)/jit(_normal_real)/jit(_uniform)/threefry2x32"}
  %broadcast.43 = u32[1024]{0} broadcast(%Arg_1.5), dimensions={}, metadata={op_name="jit(_normal)/jit(main)/jit(_normal_real)/jit(_uniform)/add" source_file="/global/homes/j/jackm/software/lorrax_C/src/solvers/lanczos.py" source_line=247}
  %add.44 = u32[1024]{0} add(%Arg_3.7, %broadcast.43), metadata={op_name="jit(_normal)/jit(main)/jit(_normal_real)/jit(_uniform)/add" source_file="/global/homes/j/jackm/software/lorrax_C/src/solvers/lanczos.py" source_line=247}
  %add.45 = u32[1024]{0} add(%add.42, %add.44), metadata={op_name="jit(_normal)/jit(main)/jit(_normal_real)/jit(_uniform)/add" source_file="/global/homes/j/jackm/software/lorrax_C/src/solvers/lanczos.py" source_line=247}
  %constant.36 = u32[] constant(13)
  %broadcast.37 = u32[1024]{0} broadcast(%constant.36), dimensions={}
  %shift-left.46 = u32[1024]{0} shift-left(%add.44, %broadcast.37), metadata={op_name="jit(_normal)/jit(main)/jit(_normal_real)/jit(_uniform)/shift_left" source_file="/global/homes/j/jackm/software/lorrax_C/src/solvers/lanczos.py" source_line=247}
  %constant.34 = u32[] constant(19)
  %broadcast.35 = u32[1024]{0} broadcast(%constant.34), dimensions={}
  %shift-right-logical.47 = u32[1024]{0} shift-right-logical(%add.44, %broadcast.35), metadata={op_name="jit(_normal)/jit(main)/jit(_normal_real)/jit(_uniform)/shift_right_logical" source_file="/global/homes/j/jackm/software/lorrax_C/src/solvers/lanczos.py" source_line=247}
  %or.48 = u32[1024]{0} or(%shift-left.46, %shift-right-logical.47), metadata={op_name="jit(_normal)/jit(main)/jit(_normal_real)/jit(_uniform)/or" source_file="/global/homes/j/jackm/software/lorrax_C/src/solvers/lanczos.py" source_line=247}
  %xor.49 = u32[1024]{0} xor(%add.45, %or.48), metadata={op_name="jit(_normal)/jit(main)/jit(_normal_real)/jit(_uniform)/xor" source_file="/global/homes/j/jackm/software/lorrax_C/src/solvers/lanczos.py" source_line=247}
  %add.50 = u32[1024]{0} add(%add.45, %xor.49), metadata={op_name="jit(_normal)/jit(main)/jit(_normal_real)/jit(_uniform)/add" source_file="/global/homes/j/jackm/software/lorrax_C/src/solvers/lanczos.py" source_line=247}
  %constant.32 = u32[] constant(15)
  %broadcast.33 = u32[1024]{0} broadcast(%constant.32), dimensions={}
  %shift-left.51 = u32[1024]{0} shift-left(%xor.49, %broadcast.33), metadata={op_name="jit(_normal)/jit(main)/jit(_normal_real)/jit(_uniform)/shift_left" source_file="/global/homes/j/jackm/software/lorrax_C/src/solvers/lanczos.py" source_line=247}
  %constant.30 = u32[] constant(17)
  %broadcast.31 = u32[1024]{0} broadcast(%constant.30), dimensions={}
  %shift-right-logical.52 = u32[1024]{0} shift-right-logical(%xor.49, %broadcast.31), metadata={op_name="jit(_normal)/jit(main)/jit(_normal_real)/jit(_uniform)/shift_right_logical" source_file="/global/homes/j/jackm/software/lorrax_C/src/solvers/lanczos.py" source_line=247}
  %or.53 = u32[1024]{0} or(%shift-left.51, %shift-right-logical.52), metadata={op_name="jit(_normal)/jit(main)/jit(_normal_real)/jit(_uniform)/or" source_file="/global/homes/j/jackm/software/lorrax_C/src/solvers/lanczos.py" source_line=247}
  %xor.54 = u32[1024]{0} xor(%add.50, %or.53), metadata={op_name="jit(_normal)/jit(main)/jit(_normal_real)/jit(_uniform)/xor" source_file="/global/homes/j/jackm/software/lorrax_C/src/solvers/lanczos.py" source_line=247}
  %add.55 = u32[1024]{0} add(%add.50, %xor.54), metadata={op_name="jit(_normal)/jit(main)/jit(_normal_real)/jit(_uniform)/add" source_file="/global/homes/j/jackm/software/lorrax_C/src/solvers/lanczos.py" source_line=247}
  %constant.28 = u32[] constant(26)
  %broadcast.29 = u32[1024]{0} broadcast(%constant.28), dimensions={}
  %shift-left.56 = u32[1024]{0} shift-left(%xor.54, %broadcast.29), metadata={op_name="jit(_normal)/jit(main)/jit(_normal_real)/jit(_uniform)/shift_left" source_file="/global/homes/j/jackm/software/lorrax_C/src/solvers/lanczos.py" source_line=247}
  %constant.26 = u32[] constant(6)
  %broadcast.27 = u32[1024]{0} broadcast(%constant.26), dimensions={}
  %shift-right-logical.57 = u32[1024]{0} shift-right-logical(%xor.54, %broadcast.27), metadata={op_name="jit(_normal)/jit(main)/jit(_normal_real)/jit(_uniform)/shift_right_logical" source_file="/global/homes/j/jackm/software/lorrax_C/src/solvers/lanczos.py" source_line=247}
  %or.58 = u32[1024]{0} or(%shift-left.56, %shift-right-logical.57), metadata={op_name="jit(_normal)/jit(main)/jit(_normal_real)/jit(_uniform)/or" source_file="/global/homes/j/jackm/software/lorrax_C/src/solvers/lanczos.py" source_line=247}
  %xor.59 = u32[1024]{0} xor(%add.55, %or.58), metadata={op_name="jit(_normal)/jit(main)/jit(_normal_real)/jit(_uniform)/xor" source_file="/global/homes/j/jackm/software/lorrax_C/src/solvers/lanczos.py" source_line=247}
  %add.60 = u32[1024]{0} add(%add.55, %xor.59), metadata={op_name="jit(_normal)/jit(main)/jit(_normal_real)/jit(_uniform)/add" source_file="/global/homes/j/jackm/software/lorrax_C/src/solvers/lanczos.py" source_line=247}
  %broadcast.65 = u32[1024]{0} broadcast(%Arg_1.5), dimensions={}, metadata={op_name="jit(_normal)/jit(main)/jit(_normal_real)/jit(_uniform)/add" source_file="/global/homes/j/jackm/software/lorrax_C/src/solvers/lanczos.py" source_line=247}
  %add.66 = u32[1024]{0} add(%add.60, %broadcast.65), metadata={op_name="jit(_normal)/jit(main)/jit(_normal_real)/jit(_uniform)/add" source_file="/global/homes/j/jackm/software/lorrax_C/src/solvers/lanczos.py" source_line=247}
  %shift-left.61 = u32[1024]{0} shift-left(%xor.59, %broadcast.27), metadata={op_name="jit(_normal)/jit(main)/jit(_normal_real)/jit(_uniform)/shift_left" source_file="/global/homes/j/jackm/software/lorrax_C/src/solvers/lanczos.py" source_line=247}
  %shift-right-logical.62 = u32[1024]{0} shift-right-logical(%xor.59, %broadcast.29), metadata={op_name="jit(_normal)/jit(main)/jit(_normal_real)/jit(_uniform)/shift_right_logical" source_file="/global/homes/j/jackm/software/lorrax_C/src/solvers/lanczos.py" source_line=247}
  %or.63 = u32[1024]{0} or(%shift-left.61, %shift-right-logical.62), metadata={op_name="jit(_normal)/jit(main)/jit(_normal_real)/jit(_uniform)/or" source_file="/global/homes/j/jackm/software/lorrax_C/src/solvers/lanczos.py" source_line=247}
  %xor.64 = u32[1024]{0} xor(%add.60, %or.63), metadata={op_name="jit(_normal)/jit(main)/jit(_normal_real)/jit(_uniform)/xor" source_file="/global/homes/j/jackm/software/lorrax_C/src/solvers/lanczos.py" source_line=247}
  %xor.39 = u32[] xor(%Arg_0.4, %Arg_1.5), metadata={op_name="jit(_normal)/jit(main)/jit(_normal_real)/jit(_uniform)/xor" source_file="/global/homes/j/jackm/software/lorrax_C/src/solvers/lanczos.py" source_line=247}
  %constant.38 = u32[] constant(466688986)
  %xor.40 = u32[] xor(%xor.39, %constant.38), metadata={op_name="jit(_normal)/jit(main)/jit(_normal_real)/jit(_uniform)/xor" source_file="/global/homes/j/jackm/software/lorrax_C/src/solvers/lanczos.py" source_line=247}
  %broadcast.67 = u32[1024]{0} broadcast(%xor.40), dimensions={}, metadata={op_name="jit(_normal)/jit(main)/jit(_normal_real)/jit(_uniform)/add" source_file="/global/homes/j/jackm/software/lorrax_C/src/solvers/lanczos.py" source_line=247}
  %add.68 = u32[1024]{0} add(%xor.64, %broadcast.67), metadata={op_name="jit(_normal)/jit(main)/jit(_normal_real)/jit(_uniform)/add" source_file="/global/homes/j/jackm/software/lorrax_C/src/solvers/lanczos.py" source_line=247}
  %constant.24 = u32[] constant(1)
  %broadcast.25 = u32[1024]{0} broadcast(%constant.24), dimensions={}
  %add.69 = u32[1024]{0} add(%add.68, %broadcast.25), metadata={op_name="jit(_normal)/jit(main)/jit(_normal_real)/jit(_uniform)/add" source_file="/global/homes/j/jackm/software/lorrax_C/src/solvers/lanczos.py" source_line=247}
  %add.70 = u32[1024]{0} add(%add.66, %add.69), metadata={op_name="jit(_normal)/jit(main)/jit(_normal_real)/jit(_uniform)/add" source_file="/global/homes/j/jackm/software/lorrax_C/src/solvers/lanczos.py" source_line=247}
  %shift-left.71 = u32[1024]{0} shift-left(%add.69, %broadcast.31), metadata={op_name="jit(_normal)/jit(main)/jit(_normal_real)/jit(_uniform)/shift_left" source_file="/global/homes/j/jackm/software/lorrax_C/src/solvers/lanczos.py" source_line=247}
  %shift-right-logical.72 = u32[1024]{0} shift-right-logical(%add.69, %broadcast.33), metadata={op_name="jit(_normal)/jit(main)/jit(_normal_real)/jit(_uniform)/shift_right_logical" source_file="/global/homes/j/jackm/software/lorrax_C/src/solvers/lanczos.py" source_line=247}
  %or.73 = u32[1024]{0} or(%shift-left.71, %shift-right-logical.72), metadata={op_name="jit(_normal)/jit(main)/jit(_normal_real)/jit(_uniform)/or" source_file="/global/homes/j/jackm/software/lorrax_C/src/solvers/lanczos.py" source_line=247}
  %xor.74 = u32[1024]{0} xor(%add.70, %or.73), metadata={op_name="jit(_normal)/jit(main)/jit(_normal_real)/jit(_uniform)/xor" source_file="/global/homes/j/jackm/software/lorrax_C/src/solvers/lanczos.py" source_line=247}
  %add.75 = u32[1024]{0} add(%add.70, %xor.74), metadata={op_name="jit(_normal)/jit(main)/jit(_normal_real)/jit(_uniform)/add" source_file="/global/homes/j/jackm/software/lorrax_C/src/solvers/lanczos.py" source_line=247}
  %constant.22 = u32[] constant(29)
  %broadcast.23 = u32[1024]{0} broadcast(%constant.22), dimensions={}
  %shift-left.76 = u32[1024]{0} shift-left(%xor.74, %broadcast.23), metadata={op_name="jit(_normal)/jit(main)/jit(_normal_real)/jit(_uniform)/shift_left" source_file="/global/homes/j/jackm/software/lorrax_C/src/solvers/lanczos.py" source_line=247}
  %constant.20 = u32[] constant(3)
  %broadcast.21 = u32[1024]{0} broadcast(%constant.20), dimensions={}
  %shift-right-logical.77 = u32[1024]{0} shift-right-logical(%xor.74, %broadcast.21), metadata={op_name="jit(_normal)/jit(main)/jit(_normal_real)/jit(_uniform)/shift_right_logical" source_file="/global/homes/j/jackm/software/lorrax_C/src/solvers/lanczos.py" source_line=247}
  %or.78 = u32[1024]{0} or(%shift-left.76, %shift-right-logical.77), metadata={op_name="jit(_normal)/jit(main)/jit(_normal_real)/jit(_uniform)/or" source_file="/global/homes/j/jackm/software/lorrax_C/src/solvers/lanczos.py" source_line=247}
  %xor.79 = u32[1024]{0} xor(%add.75, %or.78), metadata={op_name="jit(_normal)/jit(main)/jit(_normal_real)/jit(_uniform)/xor" source_file="/global/homes/j/jackm/software/lorrax_C/src/solvers/lanczos.py" source_line=247}
  %add.80 = u32[1024]{0} add(%add.75, %xor.79), metadata={op_name="jit(_normal)/jit(main)/jit(_normal_real)/jit(_uniform)/add" source_file="/global/homes/j/jackm/software/lorrax_C/src/solvers/lanczos.py" source_line=247}
  %constant.18 = u32[] constant(16)
  %broadcast.19 = u32[1024]{0} broadcast(%constant.18), dimensions={}
  %shift-left.81 = u32[1024]{0} shift-left(%xor.79, %broadcast.19), metadata={op_name="jit(_normal)/jit(main)/jit(_normal_real)/jit(_uniform)/shift_left" source_file="/global/homes/j/jackm/software/lorrax_C/src/solvers/lanczos.py" source_line=247}
  %shift-right-logical.82 = u32[1024]{0} shift-right-logical(%xor.79, %broadcast.19), metadata={op_name="jit(_normal)/jit(main)/jit(_normal_real)/jit(_uniform)/shift_right_logical" source_file="/global/homes/j/jackm/software/lorrax_C/src/solvers/lanczos.py" source_line=247}
  %or.83 = u32[1024]{0} or(%shift-left.81, %shift-right-logical.82), metadata={op_name="jit(_normal)/jit(main)/jit(_normal_real)/jit(_uniform)/or" source_file="/global/homes/j/jackm/software/lorrax_C/src/solvers/lanczos.py" source_line=247}
  %xor.84 = u32[1024]{0} xor(%add.80, %or.83), metadata={op_name="jit(_normal)/jit(main)/jit(_normal_real)/jit(_uniform)/xor" source_file="/global/homes/j/jackm/software/lorrax_C/src/solvers/lanczos.py" source_line=247}
  %add.85 = u32[1024]{0} add(%add.80, %xor.84), metadata={op_name="jit(_normal)/jit(main)/jit(_normal_real)/jit(_uniform)/add" source_file="/global/homes/j/jackm/software/lorrax_C/src/solvers/lanczos.py" source_line=247}
  %broadcast.90 = u32[1024]{0} broadcast(%xor.40), dimensions={}, metadata={op_name="jit(_normal)/jit(main)/jit(_normal_real)/jit(_uniform)/add" source_file="/global/homes/j/jackm/software/lorrax_C/src/solvers/lanczos.py" source_line=247}
  %add.91 = u32[1024]{0} add(%add.85, %broadcast.90), metadata={op_name="jit(_normal)/jit(main)/jit(_normal_real)/jit(_uniform)/add" source_file="/global/homes/j/jackm/software/lorrax_C/src/solvers/lanczos.py" source_line=247}
  %constant.16 = u32[] constant(24)
  %broadcast.17 = u32[1024]{0} broadcast(%constant.16), dimensions={}
  %shift-left.86 = u32[1024]{0} shift-left(%xor.84, %broadcast.17), metadata={op_name="jit(_normal)/jit(main)/jit(_normal_real)/jit(_uniform)/shift_left" source_file="/global/homes/j/jackm/software/lorrax_C/src/solvers/lanczos.py" source_line=247}
  %constant.14 = u32[] constant(8)
  %broadcast.15 = u32[1024]{0} broadcast(%constant.14), dimensions={}
  %shift-right-logical.87 = u32[1024]{0} shift-right-logical(%xor.84, %broadcast.15), metadata={op_name="jit(_normal)/jit(main)/jit(_normal_real)/jit(_uniform)/shift_right_logical" source_file="/global/homes/j/jackm/software/lorrax_C/src/solvers/lanczos.py" source_line=247}
  %or.88 = u32[1024]{0} or(%shift-left.86, %shift-right-logical.87), metadata={op_name="jit(_normal)/jit(main)/jit(_normal_real)/jit(_uniform)/or" source_file="/global/homes/j/jackm/software/lorrax_C/src/solvers/lanczos.py" source_line=247}
  %xor.89 = u32[1024]{0} xor(%add.85, %or.88), metadata={op_name="jit(_normal)/jit(main)/jit(_normal_real)/jit(_uniform)/xor" source_file="/global/homes/j/jackm/software/lorrax_C/src/solvers/lanczos.py" source_line=247}
  %broadcast.92 = u32[1024]{0} broadcast(%Arg_0.4), dimensions={}, metadata={op_name="jit(_normal)/jit(main)/jit(_normal_real)/jit(_uniform)/add" source_file="/global/homes/j/jackm/software/lorrax_C/src/solvers/lanczos.py" source_line=247}
  %add.93 = u32[1024]{0} add(%xor.89, %broadcast.92), metadata={op_name="jit(_normal)/jit(main)/jit(_normal_real)/jit(_uniform)/add" source_file="/global/homes/j/jackm/software/lorrax_C/src/solvers/lanczos.py" source_line=247}
  %constant.12 = u32[] constant(2)
  %broadcast.13 = u32[1024]{0} broadcast(%constant.12), dimensions={}
  %add.94 = u32[1024]{0} add(%add.93, %broadcast.13), metadata={op_name="jit(_normal)/jit(main)/jit(_normal_real)/jit(_uniform)/add" source_file="/global/homes/j/jackm/software/lorrax_C/src/solvers/lanczos.py" source_line=247}
  %add.95 = u32[1024]{0} add(%add.91, %add.94), metadata={op_name="jit(_normal)/jit(main)/jit(_normal_real)/jit(_uniform)/add" source_file="/global/homes/j/jackm/software/lorrax_C/src/solvers/lanczos.py" source_line=247}
  %shift-left.96 = u32[1024]{0} shift-left(%add.94, %broadcast.37), metadata={op_name="jit(_normal)/jit(main)/jit(_normal_real)/jit(_uniform)/shift_left" source_file="/global/homes/j/jackm/software/lorrax_C/src/solvers/lanczos.py" source_line=247}
  %shift-right-logical.97 = u32[1024]{0} shift-right-logical(%add.94, %broadcast.35), metadata={op_name="jit(_normal)/jit(main)/jit(_normal_real)/jit(_uniform)/shift_right_logical" source_file="/global/homes/j/jackm/software/lorrax_C/src/solvers/lanczos.py" source_line=247}
  %or.98 = u32[1024]{0} or(%shift-left.96, %shift-right-logical.97), metadata={op_name="jit(_normal)/jit(main)/jit(_normal_real)/jit(_uniform)/or" source_file="/global/homes/j/jackm/software/lorrax_C/src/solvers/lanczos.py" source_line=247}
  %xor.99 = u32[1024]{0} xor(%add.95, %or.98), metadata={op_name="jit(_normal)/jit(main)/jit(_normal_real)/jit(_uniform)/xor" source_file="/global/homes/j/jackm/software/lorrax_C/src/solvers/lanczos.py" source_line=247}
  %add.100 = u32[1024]{0} add(%add.95, %xor.99), metadata={op_name="jit(_normal)/jit(main)/jit(_normal_real)/jit(_uniform)/add" source_file="/global/homes/j/jackm/software/lorrax_C/src/solvers/lanczos.py" source_line=247}
  %shift-left.101 = u32[1024]{0} shift-left(%xor.99, %broadcast.33), metadata={op_name="jit(_normal)/jit(main)/jit(_normal_real)/jit(_uniform)/shift_left" source_file="/global/homes/j/jackm/software/lorrax_C/src/solvers/lanczos.py" source_line=247}
  %shift-right-logical.102 = u32[1024]{0} shift-right-logical(%xor.99, %broadcast.31), metadata={op_name="jit(_normal)/jit(main)/jit(_normal_real)/jit(_uniform)/shift_right_logical" source_file="/global/homes/j/jackm/software/lorrax_C/src/solvers/lanczos.py" source_line=247}
  %or.103 = u32[1024]{0} or(%shift-left.101, %shift-right-logical.102), metadata={op_name="jit(_normal)/jit(main)/jit(_normal_real)/jit(_uniform)/or" source_file="/global/homes/j/jackm/software/lorrax_C/src/solvers/lanczos.py" source_line=247}
  %xor.104 = u32[1024]{0} xor(%add.100, %or.103), metadata={op_name="jit(_normal)/jit(main)/jit(_normal_real)/jit(_uniform)/xor" source_file="/global/homes/j/jackm/software/lorrax_C/src/solvers/lanczos.py" source_line=247}
  %add.105 = u32[1024]{0} add(%add.100, %xor.104), metadata={op_name="jit(_normal)/jit(main)/jit(_normal_real)/jit(_uniform)/add" source_file="/global/homes/j/jackm/software/lorrax_C/src/solvers/lanczos.py" source_line=247}
  %shift-left.106 = u32[1024]{0} shift-left(%xor.104, %broadcast.29), metadata={op_name="jit(_normal)/jit(main)/jit(_normal_real)/jit(_uniform)/shift_left" source_file="/global/homes/j/jackm/software/lorrax_C/src/solvers/lanczos.py" source_line=247}
  %shift-right-logical.107 = u32[1024]{0} shift-right-logical(%xor.104, %broadcast.27), metadata={op_name="jit(_normal)/jit(main)/jit(_normal_real)/jit(_uniform)/shift_right_logical" source_file="/global/homes/j/jackm/software/lorrax_C/src/solvers/lanczos.py" source_line=247}
  %or.108 = u32[1024]{0} or(%shift-left.106, %shift-right-logical.107), metadata={op_name="jit(_normal)/jit(main)/jit(_normal_real)/jit(_uniform)/or" source_file="/global/homes/j/jackm/software/lorrax_C/src/solvers/lanczos.py" source_line=247}
  %xor.109 = u32[1024]{0} xor(%add.105, %or.108), metadata={op_name="jit(_normal)/jit(main)/jit(_normal_real)/jit(_uniform)/xor" source_file="/global/homes/j/jackm/software/lorrax_C/src/solvers/lanczos.py" source_line=247}
  %add.110 = u32[1024]{0} add(%add.105, %xor.109), metadata={op_name="jit(_normal)/jit(main)/jit(_normal_real)/jit(_uniform)/add" source_file="/global/homes/j/jackm/software/lorrax_C/src/solvers/lanczos.py" source_line=247}
  %broadcast.115 = u32[1024]{0} broadcast(%Arg_0.4), dimensions={}, metadata={op_name="jit(_normal)/jit(main)/jit(_normal_real)/jit(_uniform)/add" source_file="/global/homes/j/jackm/software/lorrax_C/src/solvers/lanczos.py" source_line=247}
  %add.116 = u32[1024]{0} add(%add.110, %broadcast.115), metadata={op_name="jit(_normal)/jit(main)/jit(_normal_real)/jit(_uniform)/add" source_file="/global/homes/j/jackm/software/lorrax_C/src/solvers/lanczos.py" source_line=247}
  %shift-left.111 = u32[1024]{0} shift-left(%xor.109, %broadcast.27), metadata={op_name="jit(_normal)/jit(main)/jit(_normal_real)/jit(_uniform)/shift_left" source_file="/global/homes/j/jackm/software/lorrax_C/src/solvers/lanczos.py" source_line=247}
  %shift-right-logical.112 = u32[1024]{0} shift-right-logical(%xor.109, %broadcast.29), metadata={op_name="jit(_normal)/jit(main)/jit(_normal_real)/jit(_uniform)/shift_right_logical" source_file="/global/homes/j/jackm/software/lorrax_C/src/solvers/lanczos.py" source_line=247}
  %or.113 = u32[1024]{0} or(%shift-left.111, %shift-right-logical.112), metadata={op_name="jit(_normal)/jit(main)/jit(_normal_real)/jit(_uniform)/or" source_file="/global/homes/j/jackm/software/lorrax_C/src/solvers/lanczos.py" source_line=247}
  %xor.114 = u32[1024]{0} xor(%add.110, %or.113), metadata={op_name="jit(_normal)/jit(main)/jit(_normal_real)/jit(_uniform)/xor" source_file="/global/homes/j/jackm/software/lorrax_C/src/solvers/lanczos.py" source_line=247}
  %broadcast.117 = u32[1024]{0} broadcast(%Arg_1.5), dimensions={}, metadata={op_name="jit(_normal)/jit(main)/jit(_normal_real)/jit(_uniform)/add" source_file="/global/homes/j/jackm/software/lorrax_C/src/solvers/lanczos.py" source_line=247}
  %add.118 = u32[1024]{0} add(%xor.114, %broadcast.117), metadata={op_name="jit(_normal)/jit(main)/jit(_normal_real)/jit(_uniform)/add" source_file="/global/homes/j/jackm/software/lorrax_C/src/solvers/lanczos.py" source_line=247}
  %add.119 = u32[1024]{0} add(%add.118, %broadcast.21), metadata={op_name="jit(_normal)/jit(main)/jit(_normal_real)/jit(_uniform)/add" source_file="/global/homes/j/jackm/software/lorrax_C/src/solvers/lanczos.py" source_line=247}
  %add.120 = u32[1024]{0} add(%add.116, %add.119), metadata={op_name="jit(_normal)/jit(main)/jit(_normal_real)/jit(_uniform)/add" source_file="/global/homes/j/jackm/software/lorrax_C/src/solvers/lanczos.py" source_line=247}
  %shift-left.121 = u32[1024]{0} shift-left(%add.119, %broadcast.31), metadata={op_name="jit(_normal)/jit(main)/jit(_normal_real)/jit(_uniform)/shift_left" source_file="/global/homes/j/jackm/software/lorrax_C/src/solvers/lanczos.py" source_line=247}
  %shift-right-logical.122 = u32[1024]{0} shift-right-logical(%add.119, %broadcast.33), metadata={op_name="jit(_normal)/jit(main)/jit(_normal_real)/jit(_uniform)/shift_right_logical" source_file="/global/homes/j/jackm/software/lorrax_C/src/solvers/lanczos.py" source_line=247}
  %or.123 = u32[1024]{0} or(%shift-left.121, %shift-right-logical.122), metadata={op_name="jit(_normal)/jit(main)/jit(_normal_real)/jit(_uniform)/or" source_file="/global/homes/j/jackm/software/lorrax_C/src/solvers/lanczos.py" source_line=247}
  %xor.124 = u32[1024]{0} xor(%add.120, %or.123), metadata={op_name="jit(_normal)/jit(main)/jit(_normal_real)/jit(_uniform)/xor" source_file="/global/homes/j/jackm/software/lorrax_C/src/solvers/lanczos.py" source_line=247}
  %add.125 = u32[1024]{0} add(%add.120, %xor.124), metadata={op_name="jit(_normal)/jit(main)/jit(_normal_real)/jit(_uniform)/add" source_file="/global/homes/j/jackm/software/lorrax_C/src/solvers/lanczos.py" source_line=247}
  %shift-left.126 = u32[1024]{0} shift-left(%xor.124, %broadcast.23), metadata={op_name="jit(_normal)/jit(main)/jit(_normal_real)/jit(_uniform)/shift_left" source_file="/global/homes/j/jackm/software/lorrax_C/src/solvers/lanczos.py" source_line=247}
  %shift-right-logical.127 = u32[1024]{0} shift-right-logical(%xor.124, %broadcast.21), metadata={op_name="jit(_normal)/jit(main)/jit(_normal_real)/jit(_uniform)/shift_right_logical" source_file="/global/homes/j/jackm/software/lorrax_C/src/solvers/lanczos.py" source_line=247}
  %or.128 = u32[1024]{0} or(%shift-left.126, %shift-right-logical.127), metadata={op_name="jit(_normal)/jit(main)/jit(_normal_real)/jit(_uniform)/or" source_file="/global/homes/j/jackm/software/lorrax_C/src/solvers/lanczos.py" source_line=247}
  %xor.129 = u32[1024]{0} xor(%add.125, %or.128), metadata={op_name="jit(_normal)/jit(main)/jit(_normal_real)/jit(_uniform)/xor" source_file="/global/homes/j/jackm/software/lorrax_C/src/solvers/lanczos.py" source_line=247}
  %add.130 = u32[1024]{0} add(%add.125, %xor.129), metadata={op_name="jit(_normal)/jit(main)/jit(_normal_real)/jit(_uniform)/add" source_file="/global/homes/j/jackm/software/lorrax_C/src/solvers/lanczos.py" source_line=247}
  %shift-left.131 = u32[1024]{0} shift-left(%xor.129, %broadcast.19), metadata={op_name="jit(_normal)/jit(main)/jit(_normal_real)/jit(_uniform)/shift_left" source_file="/global/homes/j/jackm/software/lorrax_C/src/solvers/lanczos.py" source_line=247}
  %shift-right-logical.132 = u32[1024]{0} shift-right-logical(%xor.129, %broadcast.19), metadata={op_name="jit(_normal)/jit(main)/jit(_normal_real)/jit(_uniform)/shift_right_logical" source_file="/global/homes/j/jackm/software/lorrax_C/src/solvers/lanczos.py" source_line=247}
  %or.133 = u32[1024]{0} or(%shift-left.131, %shift-right-logical.132), metadata={op_name="jit(_normal)/jit(main)/jit(_normal_real)/jit(_uniform)/or" source_file="/global/homes/j/jackm/software/lorrax_C/src/solvers/lanczos.py" source_line=247}
  %xor.134 = u32[1024]{0} xor(%add.130, %or.133), metadata={op_name="jit(_normal)/jit(main)/jit(_normal_real)/jit(_uniform)/xor" source_file="/global/homes/j/jackm/software/lorrax_C/src/solvers/lanczos.py" source_line=247}
  %add.135 = u32[1024]{0} add(%add.130, %xor.134), metadata={op_name="jit(_normal)/jit(main)/jit(_normal_real)/jit(_uniform)/add" source_file="/global/homes/j/jackm/software/lorrax_C/src/solvers/lanczos.py" source_line=247}
  %broadcast.140 = u32[1024]{0} broadcast(%Arg_1.5), dimensions={}, metadata={op_name="jit(_normal)/jit(main)/jit(_normal_real)/jit(_uniform)/add" source_file="/global/homes/j/jackm/software/lorrax_C/src/solvers/lanczos.py" source_line=247}
  %add.141 = u32[1024]{0} add(%add.135, %broadcast.140), metadata={op_name="jit(_normal)/jit(main)/jit(_normal_real)/jit(_uniform)/add" source_file="/global/homes/j/jackm/software/lorrax_C/src/solvers/lanczos.py" source_line=247}
  %shift-left.136 = u32[1024]{0} shift-left(%xor.134, %broadcast.17), metadata={op_name="jit(_normal)/jit(main)/jit(_normal_real)/jit(_uniform)/shift_left" source_file="/global/homes/j/jackm/software/lorrax_C/src/solvers/lanczos.py" source_line=247}
  %shift-right-logical.137 = u32[1024]{0} shift-right-logical(%xor.134, %broadcast.15), metadata={op_name="jit(_normal)/jit(main)/jit(_normal_real)/jit(_uniform)/shift_right_logical" source_file="/global/homes/j/jackm/software/lorrax_C/src/solvers/lanczos.py" source_line=247}
  %or.138 = u32[1024]{0} or(%shift-left.136, %shift-right-logical.137), metadata={op_name="jit(_normal)/jit(main)/jit(_normal_real)/jit(_uniform)/or" source_file="/global/homes/j/jackm/software/lorrax_C/src/solvers/lanczos.py" source_line=247}
  %xor.139 = u32[1024]{0} xor(%add.135, %or.138), metadata={op_name="jit(_normal)/jit(main)/jit(_normal_real)/jit(_uniform)/xor" source_file="/global/homes/j/jackm/software/lorrax_C/src/solvers/lanczos.py" source_line=247}
  %broadcast.142 = u32[1024]{0} broadcast(%xor.40), dimensions={}, metadata={op_name="jit(_normal)/jit(main)/jit(_normal_real)/jit(_uniform)/add" source_file="/global/homes/j/jackm/software/lorrax_C/src/solvers/lanczos.py" source_line=247}
  %add.143 = u32[1024]{0} add(%xor.139, %broadcast.142), metadata={op_name="jit(_normal)/jit(main)/jit(_normal_real)/jit(_uniform)/add" source_file="/global/homes/j/jackm/software/lorrax_C/src/solvers/lanczos.py" source_line=247}
  %constant.10 = u32[] constant(4)
  %broadcast.11 = u32[1024]{0} broadcast(%constant.10), dimensions={}
  %add.144 = u32[1024]{0} add(%add.143, %broadcast.11), metadata={op_name="jit(_normal)/jit(main)/jit(_normal_real)/jit(_uniform)/add" source_file="/global/homes/j/jackm/software/lorrax_C/src/solvers/lanczos.py" source_line=247}
  %add.145 = u32[1024]{0} add(%add.141, %add.144), metadata={op_name="jit(_normal)/jit(main)/jit(_normal_real)/jit(_uniform)/add" source_file="/global/homes/j/jackm/software/lorrax_C/src/solvers/lanczos.py" source_line=247}
  %shift-left.146 = u32[1024]{0} shift-left(%add.144, %broadcast.37), metadata={op_name="jit(_normal)/jit(main)/jit(_normal_real)/jit(_uniform)/shift_left" source_file="/global/homes/j/jackm/software/lorrax_C/src/solvers/lanczos.py" source_line=247}
  %shift-right-logical.147 = u32[1024]{0} shift-right-logical(%add.144, %broadcast.35), metadata={op_name="jit(_normal)/jit(main)/jit(_normal_real)/jit(_uniform)/shift_right_logical" source_file="/global/homes/j/jackm/software/lorrax_C/src/solvers/lanczos.py" source_line=247}
  %or.148 = u32[1024]{0} or(%shift-left.146, %shift-right-logical.147), metadata={op_name="jit(_normal)/jit(main)/jit(_normal_real)/jit(_uniform)/or" source_file="/global/homes/j/jackm/software/lorrax_C/src/solvers/lanczos.py" source_line=247}
  %xor.149 = u32[1024]{0} xor(%add.145, %or.148), metadata={op_name="jit(_normal)/jit(main)/jit(_normal_real)/jit(_uniform)/xor" source_file="/global/homes/j/jackm/software/lorrax_C/src/solvers/lanczos.py" source_line=247}
  %add.150 = u32[1024]{0} add(%add.145, %xor.149), metadata={op_name="jit(_normal)/jit(main)/jit(_normal_real)/jit(_uniform)/add" source_file="/global/homes/j/jackm/software/lorrax_C/src/solvers/lanczos.py" source_line=247}
  %shift-left.151 = u32[1024]{0} shift-left(%xor.149, %broadcast.33), metadata={op_name="jit(_normal)/jit(main)/jit(_normal_real)/jit(_uniform)/shift_left" source_file="/global/homes/j/jackm/software/lorrax_C/src/solvers/lanczos.py" source_line=247}
  %shift-right-logical.152 = u32[1024]{0} shift-right-logical(%xor.149, %broadcast.31), metadata={op_name="jit(_normal)/jit(main)/jit(_normal_real)/jit(_uniform)/shift_right_logical" source_file="/global/homes/j/jackm/software/lorrax_C/src/solvers/lanczos.py" source_line=247}
  %or.153 = u32[1024]{0} or(%shift-left.151, %shift-right-logical.152), metadata={op_name="jit(_normal)/jit(main)/jit(_normal_real)/jit(_uniform)/or" source_file="/global/homes/j/jackm/software/lorrax_C/src/solvers/lanczos.py" source_line=247}
  %xor.154 = u32[1024]{0} xor(%add.150, %or.153), metadata={op_name="jit(_normal)/jit(main)/jit(_normal_real)/jit(_uniform)/xor" source_file="/global/homes/j/jackm/software/lorrax_C/src/solvers/lanczos.py" source_line=247}
  %add.155 = u32[1024]{0} add(%add.150, %xor.154), metadata={op_name="jit(_normal)/jit(main)/jit(_normal_real)/jit(_uniform)/add" source_file="/global/homes/j/jackm/software/lorrax_C/src/solvers/lanczos.py" source_line=247}
  %shift-left.156 = u32[1024]{0} shift-left(%xor.154, %broadcast.29), metadata={op_name="jit(_normal)/jit(main)/jit(_normal_real)/jit(_uniform)/shift_left" source_file="/global/homes/j/jackm/software/lorrax_C/src/solvers/lanczos.py" source_line=247}
  %shift-right-logical.157 = u32[1024]{0} shift-right-logical(%xor.154, %broadcast.27), metadata={op_name="jit(_normal)/jit(main)/jit(_normal_real)/jit(_uniform)/shift_right_logical" source_file="/global/homes/j/jackm/software/lorrax_C/src/solvers/lanczos.py" source_line=247}
  %or.158 = u32[1024]{0} or(%shift-left.156, %shift-right-logical.157), metadata={op_name="jit(_normal)/jit(main)/jit(_normal_real)/jit(_uniform)/or" source_file="/global/homes/j/jackm/software/lorrax_C/src/solvers/lanczos.py" source_line=247}
  %xor.159 = u32[1024]{0} xor(%add.155, %or.158), metadata={op_name="jit(_normal)/jit(main)/jit(_normal_real)/jit(_uniform)/xor" source_file="/global/homes/j/jackm/software/lorrax_C/src/solvers/lanczos.py" source_line=247}
  %add.160 = u32[1024]{0} add(%add.155, %xor.159), metadata={op_name="jit(_normal)/jit(main)/jit(_normal_real)/jit(_uniform)/add" source_file="/global/homes/j/jackm/software/lorrax_C/src/solvers/lanczos.py" source_line=247}
  %broadcast.165 = u32[1024]{0} broadcast(%xor.40), dimensions={}, metadata={op_name="jit(_normal)/jit(main)/jit(_normal_real)/jit(_uniform)/add" source_file="/global/homes/j/jackm/software/lorrax_C/src/solvers/lanczos.py" source_line=247}
  %add.166 = u32[1024]{0} add(%add.160, %broadcast.165), metadata={op_name="jit(_normal)/jit(main)/jit(_normal_real)/jit(_uniform)/add" source_file="/global/homes/j/jackm/software/lorrax_C/src/solvers/lanczos.py" source_line=247}
  %shift-left.161 = u32[1024]{0} shift-left(%xor.159, %broadcast.27), metadata={op_name="jit(_normal)/jit(main)/jit(_normal_real)/jit(_uniform)/shift_left" source_file="/global/homes/j/jackm/software/lorrax_C/src/solvers/lanczos.py" source_line=247}
  %shift-right-logical.162 = u32[1024]{0} shift-right-logical(%xor.159, %broadcast.29), metadata={op_name="jit(_normal)/jit(main)/jit(_normal_real)/jit(_uniform)/shift_right_logical" source_file="/global/homes/j/jackm/software/lorrax_C/src/solvers/lanczos.py" source_line=247}
  %or.163 = u32[1024]{0} or(%shift-left.161, %shift-right-logical.162), metadata={op_name="jit(_normal)/jit(main)/jit(_normal_real)/jit(_uniform)/or" source_file="/global/homes/j/jackm/software/lorrax_C/src/solvers/lanczos.py" source_line=247}
  %xor.164 = u32[1024]{0} xor(%add.160, %or.163), metadata={op_name="jit(_normal)/jit(main)/jit(_normal_real)/jit(_uniform)/xor" source_file="/global/homes/j/jackm/software/lorrax_C/src/solvers/lanczos.py" source_line=247}
  %broadcast.167 = u32[1024]{0} broadcast(%Arg_0.4), dimensions={}, metadata={op_name="jit(_normal)/jit(main)/jit(_normal_real)/jit(_uniform)/add" source_file="/global/homes/j/jackm/software/lorrax_C/src/solvers/lanczos.py" source_line=247}
  %add.168 = u32[1024]{0} add(%xor.164, %broadcast.167), metadata={op_name="jit(_normal)/jit(main)/jit(_normal_real)/jit(_uniform)/add" source_file="/global/homes/j/jackm/software/lorrax_C/src/solvers/lanczos.py" source_line=247}
  %constant.8 = u32[] constant(5)
  %broadcast.9 = u32[1024]{0} broadcast(%constant.8), dimensions={}
  %add.169 = u32[1024]{0} add(%add.168, %broadcast.9), metadata={op_name="jit(_normal)/jit(main)/jit(_normal_real)/jit(_uniform)/add" source_file="/global/homes/j/jackm/software/lorrax_C/src/solvers/lanczos.py" source_line=247}
  ROOT %tuple.170 = (u32[1024]{0}, u32[1024]{0}) tuple(%add.166, %add.169)
}

%_uniform.171 (Arg_0.172: u32[2], Arg_1.173: f64[], Arg_2.174: f64[]) -> f64[1024] {
  %Arg_1.173 = f64[] parameter(1), metadata={op_name="jit(_normal)/jit(main)/jit(_normal_real)/pjit"}
  %reshape.183 = f64[1]{0} reshape(%Arg_1.173), metadata={op_name="jit(_normal)/jit(main)/jit(_normal_real)/jit(_uniform)/broadcast_in_dim" source_file="/global/homes/j/jackm/software/lorrax_C/src/solvers/lanczos.py" source_line=247}
  %broadcast.213 = f64[1]{0} broadcast(%reshape.183), dimensions={0}, metadata={op_name="jit(_normal)/jit(main)/jit(_normal_real)/jit(_uniform)/max" source_file="/global/homes/j/jackm/software/lorrax_C/src/solvers/lanczos.py" source_line=247}
  %reshape.214 = f64[] reshape(%broadcast.213), metadata={op_name="jit(_normal)/jit(main)/jit(_normal_real)/jit(_uniform)/max" source_file="/global/homes/j/jackm/software/lorrax_C/src/solvers/lanczos.py" source_line=247}
  %broadcast.215 = f64[1024]{0} broadcast(%reshape.214), dimensions={}, metadata={op_name="jit(_normal)/jit(main)/jit(_normal_real)/jit(_uniform)/max" source_file="/global/homes/j/jackm/software/lorrax_C/src/solvers/lanczos.py" source_line=247}
  %Arg_0.172 = u32[2]{0} parameter(0), metadata={op_name="jit(_normal)/jit(main)/jit(_normal_real)/pjit"}
  %slice.185 = u32[1]{0} slice(%Arg_0.172), slice={[0:1]}, metadata={op_name="jit(_normal)/jit(main)/jit(_normal_real)/jit(_uniform)/slice" source_file="/global/homes/j/jackm/software/lorrax_C/src/solvers/lanczos.py" source_line=247}
  %reshape.186 = u32[] reshape(%slice.185), metadata={op_name="jit(_normal)/jit(main)/jit(_normal_real)/jit(_uniform)/squeeze" source_file="/global/homes/j/jackm/software/lorrax_C/src/solvers/lanczos.py" source_line=247}
  %slice.187 = u32[1]{0} slice(%Arg_0.172), slice={[1:2]}, metadata={op_name="jit(_normal)/jit(main)/jit(_normal_real)/jit(_uniform)/slice" source_file="/global/homes/j/jackm/software/lorrax_C/src/solvers/lanczos.py" source_line=247}
  %reshape.188 = u32[] reshape(%slice.187), metadata={op_name="jit(_normal)/jit(main)/jit(_normal_real)/jit(_uniform)/squeeze" source_file="/global/homes/j/jackm/software/lorrax_C/src/solvers/lanczos.py" source_line=247}
  %iota.189 = u64[1024]{0} iota(), iota_dimension=0, metadata={op_name="jit(_normal)/jit(main)/jit(_normal_real)/jit(_uniform)/iota_2x32_shape" source_file="/global/homes/j/jackm/software/lorrax_C/src/solvers/lanczos.py" source_line=247}
  %constant.181 = u64[] constant(32)
  %broadcast.182 = u64[1024]{0} broadcast(%constant.181), dimensions={}
  %shift-right-logical.190 = u64[1024]{0} shift-right-logical(%iota.189, %broadcast.182), metadata={op_name="jit(_normal)/jit(main)/jit(_normal_real)/jit(_uniform)/iota_2x32_shape" source_file="/global/homes/j/jackm/software/lorrax_C/src/solvers/lanczos.py" source_line=247}
  %convert.192 = u32[1024]{0} convert(%shift-right-logical.190), metadata={op_name="jit(_normal)/jit(main)/jit(_normal_real)/jit(_uniform)/iota_2x32_shape" source_file="/global/homes/j/jackm/software/lorrax_C/src/solvers/lanczos.py" source_line=247}
  %convert.191 = u32[1024]{0} convert(%iota.189), metadata={op_name="jit(_normal)/jit(main)/jit(_normal_real)/jit(_uniform)/iota_2x32_shape" source_file="/global/homes/j/jackm/software/lorrax_C/src/solvers/lanczos.py" source_line=247}
  %call.193 = (u32[1024]{0}, u32[1024]{0}) call(%reshape.186, %reshape.188, %convert.192, %convert.191), to_apply=%threefry2x32.3
  %get-tuple-element.194 = u32[1024]{0} get-tuple-element(%call.193), index=0
  %convert.196 = u64[1024]{0} convert(%get-tuple-element.194), metadata={op_name="jit(_normal)/jit(main)/jit(_normal_real)/jit(_uniform)/convert_element_type" source_file="/global/homes/j/jackm/software/lorrax_C/src/solvers/lanczos.py" source_line=247}
  %shift-left.198 = u64[1024]{0} shift-left(%convert.196, %broadcast.182), metadata={op_name="jit(_normal)/jit(main)/jit(_normal_real)/jit(_uniform)/shift_left" source_file="/global/homes/j/jackm/software/lorrax_C/src/solvers/lanczos.py" source_line=247}
  %get-tuple-element.195 = u32[1024]{0} get-tuple-element(%call.193), index=1
  %convert.197 = u64[1024]{0} convert(%get-tuple-element.195), metadata={op_name="jit(_normal)/jit(main)/jit(_normal_real)/jit(_uniform)/convert_element_type" source_file="/global/homes/j/jackm/software/lorrax_C/src/solvers/lanczos.py" source_line=247}
  %or.199 = u64[1024]{0} or(%shift-left.198, %convert.197), metadata={op_name="jit(_normal)/jit(main)/jit(_normal_real)/jit(_uniform)/or" source_file="/global/homes/j/jackm/software/lorrax_C/src/solvers/lanczos.py" source_line=247}
  %constant.179 = u64[] constant(12)
  %broadcast.180 = u64[1024]{0} broadcast(%constant.179), dimensions={}
  %shift-right-logical.200 = u64[1024]{0} shift-right-logical(%or.199, %broadcast.180), metadata={op_name="jit(_normal)/jit(main)/jit(_normal_real)/jit(_uniform)/shift_right_logical" source_file="/global/homes/j/jackm/software/lorrax_C/src/solvers/lanczos.py" source_line=247}
  %constant.177 = u64[] constant(4607182418800017408)
  %broadcast.178 = u64[1024]{0} broadcast(%constant.177), dimensions={}
  %or.201 = u64[1024]{0} or(%shift-right-logical.200, %broadcast.178), metadata={op_name="jit(_normal)/jit(main)/jit(_normal_real)/jit(_uniform)/or" source_file="/global/homes/j/jackm/software/lorrax_C/src/solvers/lanczos.py" source_line=247}
  %bitcast-convert.202 = f64[1024]{0} bitcast-convert(%or.201), metadata={op_name="jit(_normal)/jit(main)/jit(_normal_real)/jit(_uniform)/bitcast_convert_type" source_file="/global/homes/j/jackm/software/lorrax_C/src/solvers/lanczos.py" source_line=247}
  %constant.175 = f64[] constant(1)
  %broadcast.176 = f64[1024]{0} broadcast(%constant.175), dimensions={}
  %subtract.203 = f64[1024]{0} subtract(%bitcast-convert.202, %broadcast.176), metadata={op_name="jit(_normal)/jit(main)/jit(_normal_real)/jit(_uniform)/sub" source_file="/global/homes/j/jackm/software/lorrax_C/src/solvers/lanczos.py" source_line=247}
  %Arg_2.174 = f64[] parameter(2), metadata={op_name="jit(_normal)/jit(main)/jit(_normal_real)/pjit"}
  %reshape.184 = f64[1]{0} reshape(%Arg_2.174), metadata={op_name="jit(_normal)/jit(main)/jit(_normal_real)/jit(_uniform)/broadcast_in_dim" source_file="/global/homes/j/jackm/software/lorrax_C/src/solvers/lanczos.py" source_line=247}
  %subtract.204 = f64[1]{0} subtract(%reshape.184, %reshape.183), metadata={op_name="jit(_normal)/jit(main)/jit(_normal_real)/jit(_uniform)/sub" source_file="/global/homes/j/jackm/software/lorrax_C/src/solvers/lanczos.py" source_line=247}
  %broadcast.205 = f64[1]{0} broadcast(%subtract.204), dimensions={0}, metadata={op_name="jit(_normal)/jit(main)/jit(_normal_real)/jit(_uniform)/mul" source_file="/global/homes/j/jackm/software/lorrax_C/src/solvers/lanczos.py" source_line=247}
  %reshape.206 = f64[] reshape(%broadcast.205), metadata={op_name="jit(_normal)/jit(main)/jit(_normal_real)/jit(_uniform)/mul" source_file="/global/homes/j/jackm/software/lorrax_C/src/solvers/lanczos.py" source_line=247}
  %broadcast.207 = f64[1024]{0} broadcast(%reshape.206), dimensions={}, metadata={op_name="jit(_normal)/jit(main)/jit(_normal_real)/jit(_uniform)/mul" source_file="/global/homes/j/jackm/software/lorrax_C/src/solvers/lanczos.py" source_line=247}
  %multiply.208 = f64[1024]{0} multiply(%subtract.203, %broadcast.207), metadata={op_name="jit(_normal)/jit(main)/jit(_normal_real)/jit(_uniform)/mul" source_file="/global/homes/j/jackm/software/lorrax_C/src/solvers/lanczos.py" source_line=247}
  %broadcast.209 = f64[1]{0} broadcast(%reshape.183), dimensions={0}, metadata={op_name="jit(_normal)/jit(main)/jit(_normal_real)/jit(_uniform)/add" source_file="/global/homes/j/jackm/software/lorrax_C/src/solvers/lanczos.py" source_line=247}
  %reshape.210 = f64[] reshape(%broadcast.209), metadata={op_name="jit(_normal)/jit(main)/jit(_normal_real)/jit(_uniform)/add" source_file="/global/homes/j/jackm/software/lorrax_C/src/solvers/lanczos.py" source_line=247}
  %broadcast.211 = f64[1024]{0} broadcast(%reshape.210), dimensions={}, metadata={op_name="jit(_normal)/jit(main)/jit(_normal_real)/jit(_uniform)/add" source_file="/global/homes/j/jackm/software/lorrax_C/src/solvers/lanczos.py" source_line=247}
  %add.212 = f64[1024]{0} add(%multiply.208, %broadcast.211), metadata={op_name="jit(_normal)/jit(main)/jit(_normal_real)/jit(_uniform)/add" source_file="/global/homes/j/jackm/software/lorrax_C/src/solvers/lanczos.py" source_line=247}
  ROOT %maximum.216 = f64[1024]{0} maximum(%broadcast.215, %add.212), metadata={op_name="jit(_normal)/jit(main)/jit(_normal_real)/jit(_uniform)/max" source_file="/global/homes/j/jackm/software/lorrax_C/src/solvers/lanczos.py" source_line=247}
}

%_normal_real.217 (Arg_0.218: u32[2]) -> f64[1024] {
  %Arg_0.218 = u32[2]{0} parameter(0), metadata={op_name="jit(_normal)/jit(main)/pjit"}
  %constant.353 = f64[] constant(-0.99999999999999989)
  %constant.354 = f64[] constant(1)
  %call.355 = f64[1024]{0} call(%Arg_0.218, %constant.353, %constant.354), to_apply=%_uniform.171
  %abs.454 = f64[1024]{0} abs(%call.355), metadata={op_name="jit(_normal)/jit(main)/jit(_normal_real)/erf_inv" source_file="/global/homes/j/jackm/software/lorrax_C/src/solvers/lanczos.py" source_line=247}
  %constant.223 = f64[] constant(1)
  %broadcast.224 = f64[1024]{0} broadcast(%constant.223), dimensions={}
  %compare.455 = pred[1024]{0} compare(%abs.454, %broadcast.224), direction=EQ, metadata={op_name="jit(_normal)/jit(main)/jit(_normal_real)/erf_inv" source_file="/global/homes/j/jackm/software/lorrax_C/src/solvers/lanczos.py" source_line=247}
  %constant.221 = f64[] constant(inf)
  %broadcast.222 = f64[1024]{0} broadcast(%constant.221), dimensions={}
  %multiply.456 = f64[1024]{0} multiply(%call.355, %broadcast.222), metadata={op_name="jit(_normal)/jit(main)/jit(_normal_real)/erf_inv" source_file="/global/homes/j/jackm/software/lorrax_C/src/solvers/lanczos.py" source_line=247}
  %negate.356 = f64[1024]{0} negate(%call.355), metadata={op_name="jit(_normal)/jit(main)/jit(_normal_real)/erf_inv" source_file="/global/homes/j/jackm/software/lorrax_C/src/solvers/lanczos.py" source_line=247}
  %multiply.357 = f64[1024]{0} multiply(%call.355, %negate.356), metadata={op_name="jit(_normal)/jit(main)/jit(_normal_real)/erf_inv" source_file="/global/homes/j/jackm/software/lorrax_C/src/solvers/lanczos.py" source_line=247}
  %log-plus-one.358 = f64[1024]{0} log-plus-one(%multiply.357), metadata={op_name="jit(_normal)/jit(main)/jit(_normal_real)/erf_inv" source_file="/global/homes/j/jackm/software/lorrax_C/src/solvers/lanczos.py" source_line=247}
  %negate.359 = f64[1024]{0} negate(%log-plus-one.358), metadata={op_name="jit(_normal)/jit(main)/jit(_normal_real)/erf_inv" source_file="/global/homes/j/jackm/software/lorrax_C/src/solvers/lanczos.py" source_line=247}
  %constant.351 = f64[] constant(6.25)
  %broadcast.352 = f64[1024]{0} broadcast(%constant.351), dimensions={}
  %compare.360 = pred[1024]{0} compare(%negate.359, %broadcast.352), direction=LT, metadata={op_name="jit(_normal)/jit(main)/jit(_normal_real)/erf_inv" source_file="/global/homes/j/jackm/software/lorrax_C/src/solvers/lanczos.py" source_line=247}
  %constant.349 = f64[] constant(16)
  %broadcast.350 = f64[1024]{0} broadcast(%constant.349), dimensions={}
  %compare.361 = pred[1024]{0} compare(%negate.359, %broadcast.350), direction=LT, metadata={op_name="jit(_normal)/jit(main)/jit(_normal_real)/erf_inv" source_file="/global/homes/j/jackm/software/lorrax_C/src/solvers/lanczos.py" source_line=247}
  %constant.235 = f64[] constant(0.00018673420803405714)
  %broadcast.236 = f64[1024]{0} broadcast(%constant.235), dimensions={}
  %constant.233 = f64[] constant(3.0838856104922208)
  %broadcast.234 = f64[1024]{0} broadcast(%constant.233), dimensions={}
  %select.437 = f64[1024]{0} select(%compare.360, %broadcast.236, %broadcast.234), metadata={op_name="jit(_normal)/jit(main)/jit(_normal_real)/erf_inv" source_file="/global/homes/j/jackm/software/lorrax_C/src/solvers/lanczos.py" source_line=247}
  %constant.239 = f64[] constant(-1.3882523362786469e-05)
  %broadcast.240 = f64[1024]{0} broadcast(%constant.239), dimensions={}
  %constant.237 = f64[] constant(1.0052589676941592)
  %broadcast.238 = f64[1024]{0} broadcast(%constant.237), dimensions={}
  %select.433 = f64[1024]{0} select(%compare.360, %broadcast.240, %broadcast.238), metadata={op_name="jit(_normal)/jit(main)/jit(_normal_real)/erf_inv" source_file="/global/homes/j/jackm/software/lorrax_C/src/solvers/lanczos.py" source_line=247}
  %constant.245 = f64[] constant(-1.3654692000834679e-06)
  %broadcast.246 = f64[1024]{0} broadcast(%constant.245), dimensions={}
  %constant.243 = f64[] constant(0.0053709145535900636)
  %broadcast.244 = f64[1024]{0} broadcast(%constant.243), dimensions={}
  %select.429 = f64[1024]{0} select(%compare.360, %broadcast.246, %broadcast.244), metadata={op_name="jit(_normal)/jit(main)/jit(_normal_real)/erf_inv" source_file="/global/homes/j/jackm/software/lorrax_C/src/solvers/lanczos.py" source_line=247}
  %constant.241 = f64[] constant(4.8499064014085844)
  %broadcast.242 = f64[1024]{0} broadcast(%constant.241), dimensions={}
  %select.430 = f64[1024]{0} select(%compare.361, %select.429, %broadcast.242), metadata={op_name="jit(_normal)/jit(main)/jit(_normal_real)/erf_inv" source_file="/global/homes/j/jackm/software/lorrax_C/src/solvers/lanczos.py" source_line=247}
  %constant.251 = f64[] constant(4.2347877827932404e-07)
  %broadcast.252 = f64[1024]{0} broadcast(%constant.251), dimensions={}
  %constant.249 = f64[] constant(-0.0037512085075692412)
  %broadcast.250 = f64[1024]{0} broadcast(%constant.249), dimensions={}
  %select.425 = f64[1024]{0} select(%compare.360, %broadcast.252, %broadcast.250), metadata={op_name="jit(_normal)/jit(main)/jit(_normal_real)/erf_inv" source_file="/global/homes/j/jackm/software/lorrax_C/src/solvers/lanczos.py" source_line=247}
  %constant.247 = f64[] constant(1.0103004648645344)
  %broadcast.248 = f64[1024]{0} broadcast(%constant.247), dimensions={}
  %select.426 = f64[1024]{0} select(%compare.361, %select.425, %broadcast.248), metadata={op_name="jit(_normal)/jit(main)/jit(_normal_real)/erf_inv" source_file="/global/homes/j/jackm/software/lorrax_C/src/solvers/lanczos.py" source_line=247}
  %constant.257 = f64[] constant(-2.9070369957882005e-08)
  %broadcast.258 = f64[1024]{0} broadcast(%constant.257), dimensions={}
  %constant.255 = f64[] constant(0.0024914420961078508)
  %broadcast.256 = f64[1024]{0} broadcast(%constant.255), dimensions={}
  %select.421 = f64[1024]{0} select(%compare.360, %broadcast.258, %broadcast.256), metadata={op_name="jit(_normal)/jit(main)/jit(_normal_real)/erf_inv" source_file="/global/homes/j/jackm/software/lorrax_C/src/solvers/lanczos.py" source_line=247}
  %constant.253 = f64[] constant(-0.00013871931833623122)
  %broadcast.254 = f64[1024]{0} broadcast(%constant.253), dimensions={}
  %select.422 = f64[1024]{0} select(%compare.361, %select.421, %broadcast.254), metadata={op_name="jit(_normal)/jit(main)/jit(_normal_real)/erf_inv" source_file="/global/homes/j/jackm/software/lorrax_C/src/solvers/lanczos.py" source_line=247}
  %constant.263 = f64[] constant(-4.1126339803469837e-09)
  %broadcast.264 = f64[1024]{0} broadcast(%constant.263), dimensions={}
  %constant.261 = f64[] constant(-0.0016882755560235047)
  %broadcast.262 = f64[1024]{0} broadcast(%constant.261), dimensions={}
  %select.417 = f64[1024]{0} select(%compare.360, %broadcast.264, %broadcast.262), metadata={op_name="jit(_normal)/jit(main)/jit(_normal_real)/erf_inv" source_file="/global/homes/j/jackm/software/lorrax_C/src/solvers/lanczos.py" source_line=247}
  %constant.259 = f64[] constant(-0.00021503011930044477)
  %broadcast.260 = f64[1024]{0} broadcast(%constant.259), dimensions={}
  %select.418 = f64[1024]{0} select(%compare.361, %select.417, %broadcast.260), metadata={op_name="jit(_normal)/jit(main)/jit(_normal_real)/erf_inv" source_file="/global/homes/j/jackm/software/lorrax_C/src/solvers/lanczos.py" source_line=247}
  %constant.269 = f64[] constant(1.0512122733215323e-09)
  %broadcast.270 = f64[1024]{0} broadcast(%constant.269), dimensions={}
  %constant.267 = f64[] constant(0.0009532893797373805)
  %broadcast.268 = f64[1024]{0} broadcast(%constant.267), dimensions={}
  %select.413 = f64[1024]{0} select(%compare.360, %broadcast.270, %broadcast.268), metadata={op_name="jit(_normal)/jit(main)/jit(_normal_real)/erf_inv" source_file="/global/homes/j/jackm/software/lorrax_C/src/solvers/lanczos.py" source_line=247}
  %constant.265 = f64[] constant(7.5995277030017761e-05)
  %broadcast.266 = f64[1024]{0} broadcast(%constant.265), dimensions={}
  %select.414 = f64[1024]{0} select(%compare.361, %select.413, %broadcast.266), metadata={op_name="jit(_normal)/jit(main)/jit(_normal_real)/erf_inv" source_file="/global/homes/j/jackm/software/lorrax_C/src/solvers/lanczos.py" source_line=247}
  %constant.275 = f64[] constant(-5.4154120542946279e-11)
  %broadcast.276 = f64[1024]{0} broadcast(%constant.275), dimensions={}
  %constant.273 = f64[] constant(-0.00035503752036284748)
  %broadcast.274 = f64[1024]{0} broadcast(%constant.273), dimensions={}
  %select.409 = f64[1024]{0} select(%compare.360, %broadcast.276, %broadcast.274), metadata={op_name="jit(_normal)/jit(main)/jit(_normal_real)/erf_inv" source_file="/global/homes/j/jackm/software/lorrax_C/src/solvers/lanczos.py" source_line=247}
  %constant.271 = f64[] constant(-1.9681778105531671e-05)
  %broadcast.272 = f64[1024]{0} broadcast(%constant.271), dimensions={}
  %select.410 = f64[1024]{0} select(%compare.361, %select.409, %broadcast.272), metadata={op_name="jit(_normal)/jit(main)/jit(_normal_real)/erf_inv" source_file="/global/homes/j/jackm/software/lorrax_C/src/solvers/lanczos.py" source_line=247}
  %constant.281 = f64[] constant(-1.2975133253453532e-11)
  %broadcast.282 = f64[1024]{0} broadcast(%constant.281), dimensions={}
  %constant.279 = f64[] constant(2.4031110387097894e-05)
  %broadcast.280 = f64[1024]{0} broadcast(%constant.279), dimensions={}
  %select.405 = f64[1024]{0} select(%compare.360, %broadcast.282, %broadcast.280), metadata={op_name="jit(_normal)/jit(main)/jit(_normal_real)/erf_inv" source_file="/global/homes/j/jackm/software/lorrax_C/src/solvers/lanczos.py" source_line=247}
  %constant.277 = f64[] constant(4.5260625972231537e-06)
  %broadcast.278 = f64[1024]{0} broadcast(%constant.277), dimensions={}
  %select.406 = f64[1024]{0} select(%compare.361, %select.405, %broadcast.278), metadata={op_name="jit(_normal)/jit(main)/jit(_normal_real)/erf_inv" source_file="/global/homes/j/jackm/software/lorrax_C/src/solvers/lanczos.py" source_line=247}
  %constant.287 = f64[] constant(2.6335093153082323e-12)
  %broadcast.288 = f64[1024]{0} broadcast(%constant.287), dimensions={}
  %constant.285 = f64[] constant(6.8284851459573175e-05)
  %broadcast.286 = f64[1024]{0} broadcast(%constant.285), dimensions={}
  %select.401 = f64[1024]{0} select(%compare.360, %broadcast.288, %broadcast.286), metadata={op_name="jit(_normal)/jit(main)/jit(_normal_real)/erf_inv" source_file="/global/homes/j/jackm/software/lorrax_C/src/solvers/lanczos.py" source_line=247}
  %constant.283 = f64[] constant(-9.9298272942317e-07)
  %broadcast.284 = f64[1024]{0} broadcast(%constant.283), dimensions={}
  %select.402 = f64[1024]{0} select(%compare.361, %select.401, %broadcast.284), metadata={op_name="jit(_normal)/jit(main)/jit(_normal_real)/erf_inv" source_file="/global/homes/j/jackm/software/lorrax_C/src/solvers/lanczos.py" source_line=247}
  %constant.293 = f64[] constant(-8.1519341976054722e-14)
  %broadcast.294 = f64[1024]{0} broadcast(%constant.293), dimensions={}
  %constant.291 = f64[] constant(-4.7318229009055734e-05)
  %broadcast.292 = f64[1024]{0} broadcast(%constant.291), dimensions={}
  %select.397 = f64[1024]{0} select(%compare.360, %broadcast.294, %broadcast.292), metadata={op_name="jit(_normal)/jit(main)/jit(_normal_real)/erf_inv" source_file="/global/homes/j/jackm/software/lorrax_C/src/solvers/lanczos.py" source_line=247}
  %constant.289 = f64[] constant(2.2900482228026655e-07)
  %broadcast.290 = f64[1024]{0} broadcast(%constant.289), dimensions={}
  %select.398 = f64[1024]{0} select(%compare.361, %select.397, %broadcast.290), metadata={op_name="jit(_normal)/jit(main)/jit(_normal_real)/erf_inv" source_file="/global/homes/j/jackm/software/lorrax_C/src/solvers/lanczos.py" source_line=247}
  %constant.299 = f64[] constant(-4.0545662729752069e-14)
  %broadcast.300 = f64[1024]{0} broadcast(%constant.299), dimensions={}
  %constant.297 = f64[] constant(1.2475304481671779e-05)
  %broadcast.298 = f64[1024]{0} broadcast(%constant.297), dimensions={}
  %select.393 = f64[1024]{0} select(%compare.360, %broadcast.300, %broadcast.298), metadata={op_name="jit(_normal)/jit(main)/jit(_normal_real)/erf_inv" source_file="/global/homes/j/jackm/software/lorrax_C/src/solvers/lanczos.py" source_line=247}
  %constant.295 = f64[] constant(-6.7711997758452339e-08)
  %broadcast.296 = f64[1024]{0} broadcast(%constant.295), dimensions={}
  %select.394 = f64[1024]{0} select(%compare.361, %select.393, %broadcast.296), metadata={op_name="jit(_normal)/jit(main)/jit(_normal_real)/erf_inv" source_file="/global/homes/j/jackm/software/lorrax_C/src/solvers/lanczos.py" source_line=247}
  %constant.305 = f64[] constant(6.6376381343583238e-15)
  %broadcast.306 = f64[1024]{0} broadcast(%constant.305), dimensions={}
  %constant.303 = f64[] constant(2.9234449089955446e-06)
  %broadcast.304 = f64[1024]{0} broadcast(%constant.303), dimensions={}
  %select.389 = f64[1024]{0} select(%compare.360, %broadcast.306, %broadcast.304), metadata={op_name="jit(_normal)/jit(main)/jit(_normal_real)/erf_inv" source_file="/global/homes/j/jackm/software/lorrax_C/src/solvers/lanczos.py" source_line=247}
  %constant.301 = f64[] constant(2.9147953450901081e-08)
  %broadcast.302 = f64[1024]{0} broadcast(%constant.301), dimensions={}
  %select.390 = f64[1024]{0} select(%compare.361, %select.389, %broadcast.302), metadata={op_name="jit(_normal)/jit(main)/jit(_normal_real)/erf_inv" source_file="/global/homes/j/jackm/software/lorrax_C/src/solvers/lanczos.py" source_line=247}
  %constant.311 = f64[] constant(2.0972767875968562e-17)
  %broadcast.312 = f64[1024]{0} broadcast(%constant.311), dimensions={}
  %constant.309 = f64[] constant(-4.013867526981546e-06)
  %broadcast.310 = f64[1024]{0} broadcast(%constant.309), dimensions={}
  %select.385 = f64[1024]{0} select(%compare.360, %broadcast.312, %broadcast.310), metadata={op_name="jit(_normal)/jit(main)/jit(_normal_real)/erf_inv" source_file="/global/homes/j/jackm/software/lorrax_C/src/solvers/lanczos.py" source_line=247}
  %constant.307 = f64[] constant(-1.496002662714924e-08)
  %broadcast.308 = f64[1024]{0} broadcast(%constant.307), dimensions={}
  %select.386 = f64[1024]{0} select(%compare.361, %select.385, %broadcast.308), metadata={op_name="jit(_normal)/jit(main)/jit(_normal_real)/erf_inv" source_file="/global/homes/j/jackm/software/lorrax_C/src/solvers/lanczos.py" source_line=247}
  %constant.317 = f64[] constant(-1.3331716628546209e-16)
  %broadcast.318 = f64[1024]{0} broadcast(%constant.317), dimensions={}
  %constant.315 = f64[] constant(1.5027403968909828e-06)
  %broadcast.316 = f64[1024]{0} broadcast(%constant.315), dimensions={}
  %select.381 = f64[1024]{0} select(%compare.360, %broadcast.318, %broadcast.316), metadata={op_name="jit(_normal)/jit(main)/jit(_normal_real)/erf_inv" source_file="/global/homes/j/jackm/software/lorrax_C/src/solvers/lanczos.py" source_line=247}
  %constant.313 = f64[] constant(7.61570120807834e-09)
  %broadcast.314 = f64[1024]{0} broadcast(%constant.313), dimensions={}
  %select.382 = f64[1024]{0} select(%compare.361, %select.381, %broadcast.314), metadata={op_name="jit(_normal)/jit(main)/jit(_normal_real)/erf_inv" source_file="/global/homes/j/jackm/software/lorrax_C/src/solvers/lanczos.py" source_line=247}
  %constant.323 = f64[] constant(1.1157877678025181e-17)
  %broadcast.324 = f64[1024]{0} broadcast(%constant.323), dimensions={}
  %constant.321 = f64[] constant(1.8239629214389228e-08)
  %broadcast.322 = f64[1024]{0} broadcast(%constant.321), dimensions={}
  %select.377 = f64[1024]{0} select(%compare.360, %broadcast.324, %broadcast.322), metadata={op_name="jit(_normal)/jit(main)/jit(_normal_real)/erf_inv" source_file="/global/homes/j/jackm/software/lorrax_C/src/solvers/lanczos.py" source_line=247}
  %constant.319 = f64[] constant(-3.789465440126737e-09)
  %broadcast.320 = f64[1024]{0} broadcast(%constant.319), dimensions={}
  %select.378 = f64[1024]{0} select(%compare.361, %select.377, %broadcast.320), metadata={op_name="jit(_normal)/jit(main)/jit(_normal_real)/erf_inv" source_file="/global/homes/j/jackm/software/lorrax_C/src/solvers/lanczos.py" source_line=247}
  %constant.329 = f64[] constant(1.28584807152564e-18)
  %broadcast.330 = f64[1024]{0} broadcast(%constant.329), dimensions={}
  %constant.327 = f64[] constant(-2.7517406297064545e-07)
  %broadcast.328 = f64[1024]{0} broadcast(%constant.327), dimensions={}
  %select.373 = f64[1024]{0} select(%compare.360, %broadcast.330, %broadcast.328), metadata={op_name="jit(_normal)/jit(main)/jit(_normal_real)/erf_inv" source_file="/global/homes/j/jackm/software/lorrax_C/src/solvers/lanczos.py" source_line=247}
  %constant.325 = f64[] constant(1.5076572693500548e-09)
  %broadcast.326 = f64[1024]{0} broadcast(%constant.325), dimensions={}
  %select.374 = f64[1024]{0} select(%compare.361, %select.373, %broadcast.326), metadata={op_name="jit(_normal)/jit(main)/jit(_normal_real)/erf_inv" source_file="/global/homes/j/jackm/software/lorrax_C/src/solvers/lanczos.py" source_line=247}
  %constant.335 = f64[] constant(-1.6850591381820166e-19)
  %broadcast.336 = f64[1024]{0} broadcast(%constant.335), dimensions={}
  %constant.333 = f64[] constant(9.0756561938885391e-08)
  %broadcast.334 = f64[1024]{0} broadcast(%constant.333), dimensions={}
  %select.369 = f64[1024]{0} select(%compare.360, %broadcast.336, %broadcast.334), metadata={op_name="jit(_normal)/jit(main)/jit(_normal_real)/erf_inv" source_file="/global/homes/j/jackm/software/lorrax_C/src/solvers/lanczos.py" source_line=247}
  %constant.331 = f64[] constant(-2.5556418169965252e-10)
  %broadcast.332 = f64[1024]{0} broadcast(%constant.331), dimensions={}
  %select.370 = f64[1024]{0} select(%compare.361, %select.369, %broadcast.332), metadata={op_name="jit(_normal)/jit(main)/jit(_normal_real)/erf_inv" source_file="/global/homes/j/jackm/software/lorrax_C/src/solvers/lanczos.py" source_line=247}
  %constant.341 = f64[] constant(-3.64441206401782e-21)
  %broadcast.342 = f64[1024]{0} broadcast(%constant.341), dimensions={}
  %constant.339 = f64[] constant(2.2137376921775787e-09)
  %broadcast.340 = f64[1024]{0} broadcast(%constant.339), dimensions={}
  %select.367 = f64[1024]{0} select(%compare.360, %broadcast.342, %broadcast.340), metadata={op_name="jit(_normal)/jit(main)/jit(_normal_real)/erf_inv" source_file="/global/homes/j/jackm/software/lorrax_C/src/solvers/lanczos.py" source_line=247}
  %constant.337 = f64[] constant(-2.7109920616438573e-11)
  %broadcast.338 = f64[1024]{0} broadcast(%constant.337), dimensions={}
  %select.368 = f64[1024]{0} select(%compare.361, %select.367, %broadcast.338), metadata={op_name="jit(_normal)/jit(main)/jit(_normal_real)/erf_inv" source_file="/global/homes/j/jackm/software/lorrax_C/src/solvers/lanczos.py" source_line=247}
  %constant.347 = f64[] constant(3.125)
  %broadcast.348 = f64[1024]{0} broadcast(%constant.347), dimensions={}
  %subtract.363 = f64[1024]{0} subtract(%negate.359, %broadcast.348), metadata={op_name="jit(_normal)/jit(main)/jit(_normal_real)/erf_inv" source_file="/global/homes/j/jackm/software/lorrax_C/src/solvers/lanczos.py" source_line=247}
  %sqrt.362 = f64[1024]{0} sqrt(%negate.359), metadata={op_name="jit(_normal)/jit(main)/jit(_normal_real)/erf_inv" source_file="/global/homes/j/jackm/software/lorrax_C/src/solvers/lanczos.py" source_line=247}
  %constant.345 = f64[] constant(3.25)
  %broadcast.346 = f64[1024]{0} broadcast(%constant.345), dimensions={}
  %constant.343 = f64[] constant(5)
  %broadcast.344 = f64[1024]{0} broadcast(%constant.343), dimensions={}
  %select.364 = f64[1024]{0} select(%compare.361, %broadcast.346, %broadcast.344), metadata={op_name="jit(_normal)/jit(main)/jit(_normal_real)/erf_inv" source_file="/global/homes/j/jackm/software/lorrax_C/src/solvers/lanczos.py" source_line=247}
  %subtract.365 = f64[1024]{0} subtract(%sqrt.362, %select.364), metadata={op_name="jit(_normal)/jit(main)/jit(_normal_real)/erf_inv" source_file="/global/homes/j/jackm/software/lorrax_C/src/solvers/lanczos.py" source_line=247}
  %select.366 = f64[1024]{0} select(%compare.360, %subtract.363, %subtract.365), metadata={op_name="jit(_normal)/jit(main)/jit(_normal_real)/erf_inv" source_file="/global/homes/j/jackm/software/lorrax_C/src/solvers/lanczos.py" source_line=247}
  %multiply.371 = f64[1024]{0} multiply(%select.368, %select.366), metadata={op_name="jit(_normal)/jit(main)/jit(_normal_real)/erf_inv" source_file="/global/homes/j/jackm/software/lorrax_C/src/solvers/lanczos.py" source_line=247}
  %add.372 = f64[1024]{0} add(%select.370, %multiply.371), metadata={op_name="jit(_normal)/jit(main)/jit(_normal_real)/erf_inv" source_file="/global/homes/j/jackm/software/lorrax_C/src/solvers/lanczos.py" source_line=247}
  %multiply.375 = f64[1024]{0} multiply(%add.372, %select.366), metadata={op_name="jit(_normal)/jit(main)/jit(_normal_real)/erf_inv" source_file="/global/homes/j/jackm/software/lorrax_C/src/solvers/lanczos.py" source_line=247}
  %add.376 = f64[1024]{0} add(%select.374, %multiply.375), metadata={op_name="jit(_normal)/jit(main)/jit(_normal_real)/erf_inv" source_file="/global/homes/j/jackm/software/lorrax_C/src/solvers/lanczos.py" source_line=247}
  %multiply.379 = f64[1024]{0} multiply(%add.376, %select.366), metadata={op_name="jit(_normal)/jit(main)/jit(_normal_real)/erf_inv" source_file="/global/homes/j/jackm/software/lorrax_C/src/solvers/lanczos.py" source_line=247}
  %add.380 = f64[1024]{0} add(%select.378, %multiply.379), metadata={op_name="jit(_normal)/jit(main)/jit(_normal_real)/erf_inv" source_file="/global/homes/j/jackm/software/lorrax_C/src/solvers/lanczos.py" source_line=247}
  %multiply.383 = f64[1024]{0} multiply(%add.380, %select.366), metadata={op_name="jit(_normal)/jit(main)/jit(_normal_real)/erf_inv" source_file="/global/homes/j/jackm/software/lorrax_C/src/solvers/lanczos.py" source_line=247}
  %add.384 = f64[1024]{0} add(%select.382, %multiply.383), metadata={op_name="jit(_normal)/jit(main)/jit(_normal_real)/erf_inv" source_file="/global/homes/j/jackm/software/lorrax_C/src/solvers/lanczos.py" source_line=247}
  %multiply.387 = f64[1024]{0} multiply(%add.384, %select.366), metadata={op_name="jit(_normal)/jit(main)/jit(_normal_real)/erf_inv" source_file="/global/homes/j/jackm/software/lorrax_C/src/solvers/lanczos.py" source_line=247}
  %add.388 = f64[1024]{0} add(%select.386, %multiply.387), metadata={op_name="jit(_normal)/jit(main)/jit(_normal_real)/erf_inv" source_file="/global/homes/j/jackm/software/lorrax_C/src/solvers/lanczos.py" source_line=247}
  %multiply.391 = f64[1024]{0} multiply(%add.388, %select.366), metadata={op_name="jit(_normal)/jit(main)/jit(_normal_real)/erf_inv" source_file="/global/homes/j/jackm/software/lorrax_C/src/solvers/lanczos.py" source_line=247}
  %add.392 = f64[1024]{0} add(%select.390, %multiply.391), metadata={op_name="jit(_normal)/jit(main)/jit(_normal_real)/erf_inv" source_file="/global/homes/j/jackm/software/lorrax_C/src/solvers/lanczos.py" source_line=247}
  %multiply.395 = f64[1024]{0} multiply(%add.392, %select.366), metadata={op_name="jit(_normal)/jit(main)/jit(_normal_real)/erf_inv" source_file="/global/homes/j/jackm/software/lorrax_C/src/solvers/lanczos.py" source_line=247}
  %add.396 = f64[1024]{0} add(%select.394, %multiply.395), metadata={op_name="jit(_normal)/jit(main)/jit(_normal_real)/erf_inv" source_file="/global/homes/j/jackm/software/lorrax_C/src/solvers/lanczos.py" source_line=247}
  %multiply.399 = f64[1024]{0} multiply(%add.396, %select.366), metadata={op_name="jit(_normal)/jit(main)/jit(_normal_real)/erf_inv" source_file="/global/homes/j/jackm/software/lorrax_C/src/solvers/lanczos.py" source_line=247}
  %add.400 = f64[1024]{0} add(%select.398, %multiply.399), metadata={op_name="jit(_normal)/jit(main)/jit(_normal_real)/erf_inv" source_file="/global/homes/j/jackm/software/lorrax_C/src/solvers/lanczos.py" source_line=247}
  %multiply.403 = f64[1024]{0} multiply(%add.400, %select.366), metadata={op_name="jit(_normal)/jit(main)/jit(_normal_real)/erf_inv" source_file="/global/homes/j/jackm/software/lorrax_C/src/solvers/lanczos.py" source_line=247}
  %add.404 = f64[1024]{0} add(%select.402, %multiply.403), metadata={op_name="jit(_normal)/jit(main)/jit(_normal_real)/erf_inv" source_file="/global/homes/j/jackm/software/lorrax_C/src/solvers/lanczos.py" source_line=247}
  %multiply.407 = f64[1024]{0} multiply(%add.404, %select.366), metadata={op_name="jit(_normal)/jit(main)/jit(_normal_real)/erf_inv" source_file="/global/homes/j/jackm/software/lorrax_C/src/solvers/lanczos.py" source_line=247}
  %add.408 = f64[1024]{0} add(%select.406, %multiply.407), metadata={op_name="jit(_normal)/jit(main)/jit(_normal_real)/erf_inv" source_file="/global/homes/j/jackm/software/lorrax_C/src/solvers/lanczos.py" source_line=247}
  %multiply.411 = f64[1024]{0} multiply(%add.408, %select.366), metadata={op_name="jit(_normal)/jit(main)/jit(_normal_real)/erf_inv" source_file="/global/homes/j/jackm/software/lorrax_C/src/solvers/lanczos.py" source_line=247}
  %add.412 = f64[1024]{0} add(%select.410, %multiply.411), metadata={op_name="jit(_normal)/jit(main)/jit(_normal_real)/erf_inv" source_file="/global/homes/j/jackm/software/lorrax_C/src/solvers/lanczos.py" source_line=247}
  %multiply.415 = f64[1024]{0} multiply(%add.412, %select.366), metadata={op_name="jit(_normal)/jit(main)/jit(_normal_real)/erf_inv" source_file="/global/homes/j/jackm/software/lorrax_C/src/solvers/lanczos.py" source_line=247}
  %add.416 = f64[1024]{0} add(%select.414, %multiply.415), metadata={op_name="jit(_normal)/jit(main)/jit(_normal_real)/erf_inv" source_file="/global/homes/j/jackm/software/lorrax_C/src/solvers/lanczos.py" source_line=247}
  %multiply.419 = f64[1024]{0} multiply(%add.416, %select.366), metadata={op_name="jit(_normal)/jit(main)/jit(_normal_real)/erf_inv" source_file="/global/homes/j/jackm/software/lorrax_C/src/solvers/lanczos.py" source_line=247}
  %add.420 = f64[1024]{0} add(%select.418, %multiply.419), metadata={op_name="jit(_normal)/jit(main)/jit(_normal_real)/erf_inv" source_file="/global/homes/j/jackm/software/lorrax_C/src/solvers/lanczos.py" source_line=247}
  %multiply.423 = f64[1024]{0} multiply(%add.420, %select.366), metadata={op_name="jit(_normal)/jit(main)/jit(_normal_real)/erf_inv" source_file="/global/homes/j/jackm/software/lorrax_C/src/solvers/lanczos.py" source_line=247}
  %add.424 = f64[1024]{0} add(%select.422, %multiply.423), metadata={op_name="jit(_normal)/jit(main)/jit(_normal_real)/erf_inv" source_file="/global/homes/j/jackm/software/lorrax_C/src/solvers/lanczos.py" source_line=247}
  %multiply.427 = f64[1024]{0} multiply(%add.424, %select.366), metadata={op_name="jit(_normal)/jit(main)/jit(_normal_real)/erf_inv" source_file="/global/homes/j/jackm/software/lorrax_C/src/solvers/lanczos.py" source_line=247}
  %add.428 = f64[1024]{0} add(%select.426, %multiply.427), metadata={op_name="jit(_normal)/jit(main)/jit(_normal_real)/erf_inv" source_file="/global/homes/j/jackm/software/lorrax_C/src/solvers/lanczos.py" source_line=247}
  %multiply.431 = f64[1024]{0} multiply(%add.428, %select.366), metadata={op_name="jit(_normal)/jit(main)/jit(_normal_real)/erf_inv" source_file="/global/homes/j/jackm/software/lorrax_C/src/solvers/lanczos.py" source_line=247}
  %add.432 = f64[1024]{0} add(%select.430, %multiply.431), metadata={op_name="jit(_normal)/jit(main)/jit(_normal_real)/erf_inv" source_file="/global/homes/j/jackm/software/lorrax_C/src/solvers/lanczos.py" source_line=247}
  %multiply.434 = f64[1024]{0} multiply(%add.432, %select.366), metadata={op_name="jit(_normal)/jit(main)/jit(_normal_real)/erf_inv" source_file="/global/homes/j/jackm/software/lorrax_C/src/solvers/lanczos.py" source_line=247}
  %add.435 = f64[1024]{0} add(%select.433, %multiply.434), metadata={op_name="jit(_normal)/jit(main)/jit(_normal_real)/erf_inv" source_file="/global/homes/j/jackm/software/lorrax_C/src/solvers/lanczos.py" source_line=247}
  %select.436 = f64[1024]{0} select(%compare.361, %add.435, %add.432), metadata={op_name="jit(_normal)/jit(main)/jit(_normal_real)/erf_inv" source_file="/global/homes/j/jackm/software/lorrax_C/src/solvers/lanczos.py" source_line=247}
  %multiply.438 = f64[1024]{0} multiply(%select.436, %select.366), metadata={op_name="jit(_normal)/jit(main)/jit(_normal_real)/erf_inv" source_file="/global/homes/j/jackm/software/lorrax_C/src/solvers/lanczos.py" source_line=247}
  %add.439 = f64[1024]{0} add(%select.437, %multiply.438), metadata={op_name="jit(_normal)/jit(main)/jit(_normal_real)/erf_inv" source_file="/global/homes/j/jackm/software/lorrax_C/src/solvers/lanczos.py" source_line=247}
  %select.440 = f64[1024]{0} select(%compare.361, %add.439, %select.436), metadata={op_name="jit(_normal)/jit(main)/jit(_normal_real)/erf_inv" source_file="/global/homes/j/jackm/software/lorrax_C/src/solvers/lanczos.py" source_line=247}
  %multiply.441 = f64[1024]{0} multiply(%select.440, %select.366), metadata={op_name="jit(_normal)/jit(main)/jit(_normal_real)/erf_inv" source_file="/global/homes/j/jackm/software/lorrax_C/src/solvers/lanczos.py" source_line=247}
  %constant.231 = f64[] constant(-0.000740702534166267)
  %broadcast.232 = f64[1024]{0} broadcast(%constant.231), dimensions={}
  %add.442 = f64[1024]{0} add(%multiply.441, %broadcast.232), metadata={op_name="jit(_normal)/jit(main)/jit(_normal_real)/erf_inv" source_file="/global/homes/j/jackm/software/lorrax_C/src/solvers/lanczos.py" source_line=247}
  %select.443 = f64[1024]{0} select(%compare.360, %add.442, %select.440), metadata={op_name="jit(_normal)/jit(main)/jit(_normal_real)/erf_inv" source_file="/global/homes/j/jackm/software/lorrax_C/src/solvers/lanczos.py" source_line=247}
  %multiply.444 = f64[1024]{0} multiply(%select.443, %select.366), metadata={op_name="jit(_normal)/jit(main)/jit(_normal_real)/erf_inv" source_file="/global/homes/j/jackm/software/lorrax_C/src/solvers/lanczos.py" source_line=247}
  %constant.229 = f64[] constant(-0.0060336708714301491)
  %broadcast.230 = f64[1024]{0} broadcast(%constant.229), dimensions={}
  %add.445 = f64[1024]{0} add(%multiply.444, %broadcast.230), metadata={op_name="jit(_normal)/jit(main)/jit(_normal_real)/erf_inv" source_file="/global/homes/j/jackm/software/lorrax_C/src/solvers/lanczos.py" source_line=247}
  %select.446 = f64[1024]{0} select(%compare.360, %add.445, %select.443), metadata={op_name="jit(_normal)/jit(main)/jit(_normal_real)/erf_inv" source_file="/global/homes/j/jackm/software/lorrax_C/src/solvers/lanczos.py" source_line=247}
  %multiply.447 = f64[1024]{0} multiply(%select.446, %select.366), metadata={op_name="jit(_normal)/jit(main)/jit(_normal_real)/erf_inv" source_file="/global/homes/j/jackm/software/lorrax_C/src/solvers/lanczos.py" source_line=247}
  %constant.227 = f64[] constant(0.24015818242558962)
  %broadcast.228 = f64[1024]{0} broadcast(%constant.227), dimensions={}
  %add.448 = f64[1024]{0} add(%multiply.447, %broadcast.228), metadata={op_name="jit(_normal)/jit(main)/jit(_normal_real)/erf_inv" source_file="/global/homes/j/jackm/software/lorrax_C/src/solvers/lanczos.py" source_line=247}
  %select.449 = f64[1024]{0} select(%compare.360, %add.448, %select.446), metadata={op_name="jit(_normal)/jit(main)/jit(_normal_real)/erf_inv" source_file="/global/homes/j/jackm/software/lorrax_C/src/solvers/lanczos.py" source_line=247}
  %multiply.450 = f64[1024]{0} multiply(%select.449, %select.366), metadata={op_name="jit(_normal)/jit(main)/jit(_normal_real)/erf_inv" source_file="/global/homes/j/jackm/software/lorrax_C/src/solvers/lanczos.py" source_line=247}
  %constant.225 = f64[] constant(1.6536545626831027)
  %broadcast.226 = f64[1024]{0} broadcast(%constant.225), dimensions={}
  %add.451 = f64[1024]{0} add(%multiply.450, %broadcast.226), metadata={op_name="jit(_normal)/jit(main)/jit(_normal_real)/erf_inv" source_file="/global/homes/j/jackm/software/lorrax_C/src/solvers/lanczos.py" source_line=247}
  %select.452 = f64[1024]{0} select(%compare.360, %add.451, %select.449), metadata={op_name="jit(_normal)/jit(main)/jit(_normal_real)/erf_inv" source_file="/global/homes/j/jackm/software/lorrax_C/src/solvers/lanczos.py" source_line=247}
  %multiply.453 = f64[1024]{0} multiply(%select.452, %call.355), metadata={op_name="jit(_normal)/jit(main)/jit(_normal_real)/erf_inv" source_file="/global/homes/j/jackm/software/lorrax_C/src/solvers/lanczos.py" source_line=247}
  %select.457 = f64[1024]{0} select(%compare.455, %multiply.456, %multiply.453), metadata={op_name="jit(_normal)/jit(main)/jit(_normal_real)/erf_inv" source_file="/global/homes/j/jackm/software/lorrax_C/src/solvers/lanczos.py" source_line=247}
  %constant.219 = f64[] constant(1.4142135623730951)
  %broadcast.220 = f64[1024]{0} broadcast(%constant.219), dimensions={}
  ROOT %multiply.458 = f64[1024]{0} multiply(%select.457, %broadcast.220), metadata={op_name="jit(_normal)/jit(main)/jit(_normal_real)/mul" source_file="/global/homes/j/jackm/software/lorrax_C/src/solvers/lanczos.py" source_line=247}
}

ENTRY %main.460 (Arg_0.1: u32[2]) -> f64[1024] {
  %Arg_0.1 = u32[2]{0} parameter(0), metadata={op_name="key"}
  %custom-call.2 = u32[2]{0} custom-call(%Arg_0.1), custom_call_target="Sharding", sharding={replicated}
  ROOT %call.459 = f64[1024]{0} call(%custom-call.2), to_apply=%_normal_real.217
}

