HloModule jit_concatenate, is_scheduled=true, entry_computation_layout={(f64[1]{0}, f64[1]{0}, f64[1]{0}, f64[1]{0}, f64[1]{0}, /*index=5*/f64[1]{0}, f64[1]{0}, f64[1]{0}, f64[1]{0}, f64[1]{0})->f64[10]{0}}, allow_spmd_sharding_propagation_to_parameters={true,true,true,true,true,true,true,true,true,true}, allow_spmd_sharding_propagation_to_output={true}, frontend_attributes={fingerprint_before_lhs="5ae257d944f3003eb06767bda3cecf02"}

%wrapped_concatenate_computation (param_0: f64[1], param_1: f64[1], param_2: f64[1], param_3: f64[1], param_4: f64[1], param_5: f64[1], param_6: f64[1], param_7: f64[1], param_8: f64[1], param_9: f64[1]) -> f64[10] {
  %param_0 = f64[1]{0} parameter(0), metadata={scheduling_name="param_0"}
  %param_1 = f64[1]{0} parameter(1), metadata={scheduling_name="param_1"}
  %param_2 = f64[1]{0} parameter(2), metadata={scheduling_name="param_2"}
  %param_3 = f64[1]{0} parameter(3), metadata={scheduling_name="param_3"}
  %param_4 = f64[1]{0} parameter(4), metadata={scheduling_name="param_4"}
  %param_5 = f64[1]{0} parameter(5), metadata={scheduling_name="param_5"}
  %param_6 = f64[1]{0} parameter(6), metadata={scheduling_name="param_6"}
  %param_7 = f64[1]{0} parameter(7), metadata={scheduling_name="param_7"}
  %param_8 = f64[1]{0} parameter(8), metadata={scheduling_name="param_8"}
  %param_9 = f64[1]{0} parameter(9), metadata={scheduling_name="param_9"}
  ROOT %concatenate.2.1 = f64[10]{0} concatenate(%param_0, %param_1, %param_2, %param_3, %param_4, /*index=5*/%param_5, %param_6, %param_7, %param_8, %param_9), dimensions={0}, metadata={op_name="jit(concatenate)/jit(main)/concatenate" source_file="/global/u2/j/jackm/software/lorrax_A/src/gw/coulomb/slab_2d.py" source_line=80 scheduling_name="concatenate.2.1"}
}

ENTRY %main.12 (Arg_0.1.0: f64[1], Arg_1.2.0: f64[1], Arg_2.3.0: f64[1], Arg_3.4.0: f64[1], Arg_4.5.0: f64[1], Arg_5.6.0: f64[1], Arg_6.7.0: f64[1], Arg_7.8.0: f64[1], Arg_8.9.0: f64[1], Arg_9.10.0: f64[1]) -> f64[10] {
  %Arg_9.10.0 = f64[1]{0} parameter(9), metadata={op_name="args[9]" scheduling_name="Arg_9.10.0"}
  %Arg_8.9.0 = f64[1]{0} parameter(8), metadata={op_name="args[8]" scheduling_name="Arg_8.9.0"}
  %Arg_7.8.0 = f64[1]{0} parameter(7), metadata={op_name="args[7]" scheduling_name="Arg_7.8.0"}
  %Arg_6.7.0 = f64[1]{0} parameter(6), metadata={op_name="args[6]" scheduling_name="Arg_6.7.0"}
  %Arg_5.6.0 = f64[1]{0} parameter(5), metadata={op_name="args[5]" scheduling_name="Arg_5.6.0"}
  %Arg_4.5.0 = f64[1]{0} parameter(4), metadata={op_name="args[4]" scheduling_name="Arg_4.5.0"}
  %Arg_3.4.0 = f64[1]{0} parameter(3), metadata={op_name="args[3]" scheduling_name="Arg_3.4.0"}
  %Arg_2.3.0 = f64[1]{0} parameter(2), metadata={op_name="args[2]" scheduling_name="Arg_2.3.0"}
  %Arg_1.2.0 = f64[1]{0} parameter(1), metadata={op_name="args[1]" scheduling_name="Arg_1.2.0"}
  %Arg_0.1.0 = f64[1]{0} parameter(0), metadata={op_name="args[0]" scheduling_name="Arg_0.1.0"}
  ROOT %wrapped_concatenate = f64[10]{0} fusion(%Arg_0.1.0, %Arg_1.2.0, %Arg_2.3.0, %Arg_3.4.0, %Arg_4.5.0, /*index=5*/%Arg_5.6.0, %Arg_6.7.0, %Arg_7.8.0, %Arg_8.9.0, %Arg_9.10.0), kind=kLoop, calls=%wrapped_concatenate_computation, metadata={op_name="jit(concatenate)/jit(main)/concatenate" source_file="/global/u2/j/jackm/software/lorrax_A/src/gw/coulomb/slab_2d.py" source_line=80 scheduling_name="wrapped_concatenate"}
}

