HloModule jit__fft_gather_reshard, is_scheduled=true, entry_computation_layout={(c128[9,20,2,24,24,80]{5,4,3,2,1,0})->(c128[9,80,2,320]{3,2,1,0}, c128[9,320,80,2]{3,2,1,0})}, allow_spmd_sharding_propagation_to_output={true,true}, num_partitions=4, frontend_attributes={fingerprint_before_lhs="d4bfc475994d869e116ffbd6b458ab67"}

%fused_transpose (param_0.7: c128[9,40,2,2,320]) -> (c128[9,2,25600], c128[9,320,160]) {
  %param_0.7 = c128[9,40,2,2,320]{4,2,1,0,3} parameter(0), metadata={scheduling_name="param_0.7"}
  %bitcast.483.1 = c128[2,9,25600]{2,1,0} bitcast(%param_0.7), metadata={scheduling_name="bitcast.483.1"}
  %transpose.28.1 = c128[9,2,25600]{2,1,0} transpose(%bitcast.483.1), dimensions={1,0,2}, metadata={op_name="jit(_fft_gather_reshard)/jit(main)/sharding_constraint" source_file="/global/u2/j/jackm/software/lorrax_A/src/common/load_wfns.py" source_line=752 scheduling_name="transpose.28.1"}
  %bitcast.492.8.clone.1 = c128[9,80,2,320]{3,2,1,0} bitcast(%transpose.28.1), metadata={scheduling_name="bitcast.492.8.clone.1"}
  %real.11.3.clone.1 = f64[9,80,2,320]{3,2,1,0} real(%bitcast.492.8.clone.1), metadata={op_name="jit(_fft_gather_reshard)/jit(main)/real" source_file="/global/u2/j/jackm/software/lorrax_A/src/common/load_wfns.py" source_line=755 scheduling_name="real.11.3.clone.1"}
  %imag.11.5.clone.1 = f64[9,80,2,320]{3,2,1,0} imag(%bitcast.492.8.clone.1), metadata={op_name="jit(_fft_gather_reshard)/jit(main)/imag" source_file="/global/u2/j/jackm/software/lorrax_A/src/common/load_wfns.py" source_line=755 scheduling_name="imag.11.5.clone.1"}
  %negate.5.3.clone.1 = f64[9,80,2,320]{3,2,1,0} negate(%imag.11.5.clone.1), metadata={op_name="jit(_fft_gather_reshard)/jit(main)/neg" source_file="/global/u2/j/jackm/software/lorrax_A/src/common/load_wfns.py" source_line=755 scheduling_name="negate.5.3.clone.1"}
  %complex.9.1.clone.1 = c128[9,80,2,320]{3,2,1,0} complex(%real.11.3.clone.1, %negate.5.3.clone.1), metadata={op_name="jit(_fft_gather_reshard)/jit(main)/complex" source_file="/global/u2/j/jackm/software/lorrax_A/src/common/load_wfns.py" source_line=755 scheduling_name="complex.9.1.clone.1"}
  %bitcast.496.1.clone.1 = c128[9,160,320]{2,1,0} bitcast(%complex.9.1.clone.1), metadata={scheduling_name="bitcast.496.1.clone.1"}
  %transpose.29.1.clone.1 = c128[9,320,160]{2,1,0} transpose(%bitcast.496.1.clone.1), dimensions={0,2,1}, metadata={op_name="jit(_fft_gather_reshard)/jit(main)/complex" source_file="/global/u2/j/jackm/software/lorrax_A/src/common/load_wfns.py" source_line=755 scheduling_name="transpose.29.1.clone.1"}
  ROOT %tuple.2 = (c128[9,2,25600]{2,1,0}, c128[9,320,160]{2,1,0}) tuple(%transpose.28.1, %transpose.29.1.clone.1), metadata={scheduling_name="tuple.2"}
}

%fused_transpose.1 (param_0.9: c128[9,40,2,640]) -> c128[2,9,40,2,320] {
  %param_0.9 = c128[9,40,2,640]{3,2,0,1} parameter(0), metadata={scheduling_name="param_0.9"}
  %bitcast.476.1 = c128[40,9,2,2,320]{4,3,2,1,0} bitcast(%param_0.9), metadata={scheduling_name="bitcast.476.1"}
  ROOT %transpose.27.1 = c128[2,9,40,2,320]{4,3,2,1,0} transpose(%bitcast.476.1), dimensions={3,1,0,2,4}, metadata={op_name="jit(_fft_gather_reshard)/jit(main)/sharding_constraint" source_file="/global/u2/j/jackm/software/lorrax_A/src/common/load_wfns.py" source_line=752 scheduling_name="transpose.27.1"}
}

%fused_gather (param_0.11: s64[640,1], param_1.22: c128[9,20,2,24,24,80], param_2.32: f64[1,9,24,24], param_3.21: f64[1,9,24,24], param_4.13: f64[1,9,24,24]) -> c128[640,1,9,20,2] {
  %param_1.22 = c128[9,20,2,24,24,80]{5,4,3,2,1,0} parameter(1), metadata={scheduling_name="param_1.22"}
  %param_3.21 = f64[1,9,24,24]{3,2,1,0} parameter(3), metadata={scheduling_name="param_3.21"}
  %exponential.10.9 = f64[1,9,24,24]{3,2,1,0} exponential(%param_3.21), metadata={op_name="jit(_fft_gather_reshard)/jit(main)/exp" source_file="/global/u2/j/jackm/software/lorrax_A/src/common/load_wfns.py" source_line=731 scheduling_name="exponential.10.9"}
  %bitcast.398.9 = f64[9,24,24]{2,1,0} bitcast(%exponential.10.9), metadata={scheduling_name="bitcast.398.9"}
  %constant_44_1 = f64[] constant(inf)
  %broadcast.145.3 = f64[9,24,24]{2,1,0} broadcast(%constant_44_1), dimensions={}, metadata={scheduling_name="broadcast.145.3"}
  %compare.12.3 = pred[9,24,24]{2,1,0} compare(%bitcast.398.9, %broadcast.145.3), direction=EQ, metadata={op_name="jit(_fft_gather_reshard)/jit(main)/exp" source_file="/global/u2/j/jackm/software/lorrax_A/src/common/load_wfns.py" source_line=731 scheduling_name="compare.12.3"}
  %broadcast.146.1 = pred[9,24,24,80]{3,2,1,0} broadcast(%compare.12.3), dimensions={0,1,2}, metadata={op_name="jit(_fft_gather_reshard)/jit(main)/add" source_file="/global/u2/j/jackm/software/lorrax_A/src/common/load_wfns.py" source_line=733 scheduling_name="broadcast.146.1"}
  %constant_45_1 = f64[] constant(0.5)
  %broadcast.147.9 = f64[1,9,24,24]{3,2,1,0} broadcast(%constant_45_1), dimensions={}, metadata={scheduling_name="broadcast.147.9"}
  %multiply.55.9 = f64[1,9,24,24]{3,2,1,0} multiply(%param_3.21, %broadcast.147.9), metadata={op_name="jit(_fft_gather_reshard)/jit(main)/exp" source_file="/global/u2/j/jackm/software/lorrax_A/src/common/load_wfns.py" source_line=731 scheduling_name="multiply.55.9"}
  %exponential.11.9 = f64[1,9,24,24]{3,2,1,0} exponential(%multiply.55.9), metadata={op_name="jit(_fft_gather_reshard)/jit(main)/exp" source_file="/global/u2/j/jackm/software/lorrax_A/src/common/load_wfns.py" source_line=731 scheduling_name="exponential.11.9"}
  %bitcast.410.16 = f64[9,24,24]{2,1,0} bitcast(%exponential.11.9), metadata={scheduling_name="bitcast.410.16"}
  %param_4.13 = f64[1,9,24,24]{3,2,1,0} parameter(4), metadata={scheduling_name="param_4.13"}
  %cosine.5.6 = f64[1,9,24,24]{3,2,1,0} cosine(%param_4.13), metadata={op_name="jit(_fft_gather_reshard)/jit(main)/exp" source_file="/global/u2/j/jackm/software/lorrax_A/src/common/load_wfns.py" source_line=731 scheduling_name="cosine.5.6"}
  %bitcast.416.8 = f64[9,24,24]{2,1,0} bitcast(%cosine.5.6), metadata={scheduling_name="bitcast.416.8"}
  %multiply.56.5 = f64[9,24,24]{2,1,0} multiply(%bitcast.410.16, %bitcast.416.8), metadata={op_name="jit(_fft_gather_reshard)/jit(main)/exp" source_file="/global/u2/j/jackm/software/lorrax_A/src/common/load_wfns.py" source_line=731 scheduling_name="multiply.56.5"}
  %multiply.57.3 = f64[9,24,24]{2,1,0} multiply(%multiply.56.5, %bitcast.410.16), metadata={op_name="jit(_fft_gather_reshard)/jit(main)/exp" source_file="/global/u2/j/jackm/software/lorrax_A/src/common/load_wfns.py" source_line=731 scheduling_name="multiply.57.3"}
  %broadcast.148.1 = f64[9,24,24,80]{3,2,1,0} broadcast(%multiply.57.3), dimensions={0,1,2}, metadata={op_name="jit(_fft_gather_reshard)/jit(main)/add" source_file="/global/u2/j/jackm/software/lorrax_A/src/common/load_wfns.py" source_line=733 scheduling_name="broadcast.148.1"}
  %multiply.58.3 = f64[9,24,24]{2,1,0} multiply(%bitcast.398.9, %bitcast.416.8), metadata={op_name="jit(_fft_gather_reshard)/jit(main)/exp" source_file="/global/u2/j/jackm/software/lorrax_A/src/common/load_wfns.py" source_line=731 scheduling_name="multiply.58.3"}
  %broadcast.149.1 = f64[9,24,24,80]{3,2,1,0} broadcast(%multiply.58.3), dimensions={0,1,2}, metadata={op_name="jit(_fft_gather_reshard)/jit(main)/add" source_file="/global/u2/j/jackm/software/lorrax_A/src/common/load_wfns.py" source_line=733 scheduling_name="broadcast.149.1"}
  %select.12.1 = f64[9,24,24,80]{3,2,1,0} select(%broadcast.146.1, %broadcast.148.1, %broadcast.149.1), metadata={op_name="jit(_fft_gather_reshard)/jit(main)/exp" source_file="/global/u2/j/jackm/software/lorrax_A/src/common/load_wfns.py" source_line=731 scheduling_name="select.12.1"}
  %constant_46_1 = f64[] constant(0)
  %broadcast.150.3 = f64[1,9,24,24]{3,2,1,0} broadcast(%constant_46_1), dimensions={}, metadata={scheduling_name="broadcast.150.3"}
  %compare.13.3 = pred[1,9,24,24]{3,2,1,0} compare(%param_4.13, %broadcast.150.3), direction=EQ, metadata={op_name="jit(_fft_gather_reshard)/jit(main)/exp" source_file="/global/u2/j/jackm/software/lorrax_A/src/common/load_wfns.py" source_line=731 scheduling_name="compare.13.3"}
  %bitcast.433.3 = pred[9,24,24]{2,1,0} bitcast(%compare.13.3), metadata={scheduling_name="bitcast.433.3"}
  %broadcast.151.3 = pred[9,24,24,80]{3,2,1,0} broadcast(%bitcast.433.3), dimensions={0,1,2}, metadata={op_name="jit(_fft_gather_reshard)/jit(main)/add" source_file="/global/u2/j/jackm/software/lorrax_A/src/common/load_wfns.py" source_line=733 scheduling_name="broadcast.151.3"}
  %broadcast.152.1 = f64[9,24,24,80]{3,2,1,0} broadcast(%constant_46_1), dimensions={}, metadata={scheduling_name="broadcast.152.1"}
  %param_2.32 = f64[1,9,24,24]{3,2,1,0} parameter(2), metadata={scheduling_name="param_2.32"}
  %bitcast.446.8 = f64[9,24,24]{2,1,0} bitcast(%param_2.32), metadata={scheduling_name="bitcast.446.8"}
  %multiply.59.5 = f64[9,24,24]{2,1,0} multiply(%bitcast.410.16, %bitcast.446.8), metadata={op_name="jit(_fft_gather_reshard)/jit(main)/exp" source_file="/global/u2/j/jackm/software/lorrax_A/src/common/load_wfns.py" source_line=731 scheduling_name="multiply.59.5"}
  %multiply.60.3 = f64[9,24,24]{2,1,0} multiply(%multiply.59.5, %bitcast.410.16), metadata={op_name="jit(_fft_gather_reshard)/jit(main)/exp" source_file="/global/u2/j/jackm/software/lorrax_A/src/common/load_wfns.py" source_line=731 scheduling_name="multiply.60.3"}
  %broadcast.153.1 = f64[9,24,24,80]{3,2,1,0} broadcast(%multiply.60.3), dimensions={0,1,2}, metadata={op_name="jit(_fft_gather_reshard)/jit(main)/add" source_file="/global/u2/j/jackm/software/lorrax_A/src/common/load_wfns.py" source_line=733 scheduling_name="broadcast.153.1"}
  %multiply.61.3 = f64[9,24,24]{2,1,0} multiply(%bitcast.398.9, %bitcast.446.8), metadata={op_name="jit(_fft_gather_reshard)/jit(main)/exp" source_file="/global/u2/j/jackm/software/lorrax_A/src/common/load_wfns.py" source_line=731 scheduling_name="multiply.61.3"}
  %broadcast.154.1 = f64[9,24,24,80]{3,2,1,0} broadcast(%multiply.61.3), dimensions={0,1,2}, metadata={op_name="jit(_fft_gather_reshard)/jit(main)/add" source_file="/global/u2/j/jackm/software/lorrax_A/src/common/load_wfns.py" source_line=733 scheduling_name="broadcast.154.1"}
  %select.13.1 = f64[9,24,24,80]{3,2,1,0} select(%broadcast.146.1, %broadcast.153.1, %broadcast.154.1), metadata={op_name="jit(_fft_gather_reshard)/jit(main)/exp" source_file="/global/u2/j/jackm/software/lorrax_A/src/common/load_wfns.py" source_line=731 scheduling_name="select.13.1"}
  %select.14.1 = f64[9,24,24,80]{3,2,1,0} select(%broadcast.151.3, %broadcast.152.1, %select.13.1), metadata={op_name="jit(_fft_gather_reshard)/jit(main)/exp" source_file="/global/u2/j/jackm/software/lorrax_A/src/common/load_wfns.py" source_line=731 scheduling_name="select.14.1"}
  %complex.8.1 = c128[9,24,24,80]{3,2,1,0} complex(%select.12.1, %select.14.1), metadata={op_name="jit(_fft_gather_reshard)/jit(main)/exp" source_file="/global/u2/j/jackm/software/lorrax_A/src/common/load_wfns.py" source_line=731 scheduling_name="complex.8.1"}
  %broadcast.155.1 = c128[9,20,2,24,24,80]{5,4,3,2,1,0} broadcast(%complex.8.1), dimensions={0,3,4,5}, metadata={op_name="jit(_fft_gather_reshard)/jit(main)/mul" source_file="/global/u2/j/jackm/software/lorrax_A/src/common/load_wfns.py" source_line=738 scheduling_name="broadcast.155.1"}
  %multiply.62.1 = c128[9,20,2,24,24,80]{5,4,3,2,1,0} multiply(%param_1.22, %broadcast.155.1), metadata={op_name="jit(_fft_gather_reshard)/jit(main)/mul" source_file="/global/u2/j/jackm/software/lorrax_A/src/common/load_wfns.py" source_line=738 scheduling_name="multiply.62.1"}
  %constant_48_1 = c128[] constant((214.66252583997982, 0)), metadata={op_name="jit(_fft_gather_reshard)/jit(main)/convert_element_type" source_file="/global/u2/j/jackm/software/lorrax_A/src/common/load_wfns.py" source_line=739}
  %broadcast.156.1 = c128[9,20,2,24,24,80]{5,4,3,2,1,0} broadcast(%constant_48_1), dimensions={}, metadata={op_name="jit(_fft_gather_reshard)/jit(main)/mul" source_file="/global/u2/j/jackm/software/lorrax_A/src/common/load_wfns.py" source_line=739 scheduling_name="broadcast.156.1"}
  %multiply.64.1 = c128[9,20,2,24,24,80]{5,4,3,2,1,0} multiply(%multiply.62.1, %broadcast.156.1), metadata={op_name="jit(_fft_gather_reshard)/jit(main)/mul" source_file="/global/u2/j/jackm/software/lorrax_A/src/common/load_wfns.py" source_line=739 scheduling_name="multiply.64.1"}
  %bitcast.466.1 = c128[46080,9,20,2]{0,3,2,1} bitcast(%multiply.64.1), metadata={scheduling_name="bitcast.466.1"}
  %param_0.11 = s64[640,1]{1,0} parameter(0), metadata={scheduling_name="param_0.11"}
  ROOT %gather.2.1 = c128[640,1,9,20,2]{0,4,2,3,1} gather(%bitcast.466.1, %param_0.11), offset_dims={1,2,3,4}, collapsed_slice_dims={}, start_index_map={0}, index_vector_dim=1, slice_sizes={1,9,20,2}, metadata={op_name="jit(_fft_gather_reshard)/jit(main)/jit(_take)/gather" source_file="/global/u2/j/jackm/software/lorrax_A/src/common/load_wfns.py" source_line=745 scheduling_name="gather.2.1"}
}

%fused_real (param_0.88: f64[24], param_1.90: f64[9], param_2.30: f64[9]) -> f64[1,9,24,24] {
  %param_1.90 = f64[9]{0} parameter(1), metadata={scheduling_name="param_1.90"}
  %broadcast.138.5 = f64[1,1,9,24]{3,2,1,0} broadcast(%param_1.90), dimensions={2}, metadata={op_name="jit(_fft_gather_reshard)/jit(main)/mul" source_file="/global/u2/j/jackm/software/lorrax_A/src/common/load_wfns.py" source_line=733 scheduling_name="broadcast.138.5"}
  %param_0.88 = f64[24]{0} parameter(0), metadata={scheduling_name="param_0.88"}
  %broadcast.139.6 = f64[1,1,9,24]{3,2,1,0} broadcast(%param_0.88), dimensions={3}, metadata={op_name="jit(_fft_gather_reshard)/jit(main)/mul" source_file="/global/u2/j/jackm/software/lorrax_A/src/common/load_wfns.py" source_line=733 scheduling_name="broadcast.139.6"}
  %multiply.51.5 = f64[1,1,9,24]{3,2,1,0} multiply(%broadcast.138.5, %broadcast.139.6), metadata={op_name="jit(_fft_gather_reshard)/jit(main)/mul" source_file="/global/u2/j/jackm/software/lorrax_A/src/common/load_wfns.py" source_line=733 scheduling_name="multiply.51.5"}
  %bitcast.379.5 = f64[9,24]{1,0} bitcast(%multiply.51.5), metadata={scheduling_name="bitcast.379.5"}
  %broadcast.140.5 = f64[1,9,24,24]{3,2,1,0} broadcast(%bitcast.379.5), dimensions={1,2}, metadata={op_name="jit(_fft_gather_reshard)/jit(main)/add" source_file="/global/u2/j/jackm/software/lorrax_A/src/common/load_wfns.py" source_line=733 scheduling_name="broadcast.140.5"}
  %param_2.30 = f64[9]{0} parameter(2), metadata={scheduling_name="param_2.30"}
  %broadcast.141.5 = f64[1,1,9,24]{3,2,1,0} broadcast(%param_2.30), dimensions={2}, metadata={op_name="jit(_fft_gather_reshard)/jit(main)/mul" source_file="/global/u2/j/jackm/software/lorrax_A/src/common/load_wfns.py" source_line=734 scheduling_name="broadcast.141.5"}
  %multiply.52.5 = f64[1,1,9,24]{3,2,1,0} multiply(%broadcast.141.5, %broadcast.139.6), metadata={op_name="jit(_fft_gather_reshard)/jit(main)/mul" source_file="/global/u2/j/jackm/software/lorrax_A/src/common/load_wfns.py" source_line=734 scheduling_name="multiply.52.5"}
  %bitcast.388.5 = f64[9,24]{1,0} bitcast(%multiply.52.5), metadata={scheduling_name="bitcast.388.5"}
  %broadcast.143.5 = f64[1,9,24,24]{3,2,1,0} broadcast(%bitcast.388.5), dimensions={1,3}, metadata={op_name="jit(_fft_gather_reshard)/jit(main)/add" source_file="/global/u2/j/jackm/software/lorrax_A/src/common/load_wfns.py" source_line=733 scheduling_name="broadcast.143.5"}
  %add.5.3 = f64[1,9,24,24]{3,2,1,0} add(%broadcast.140.5, %broadcast.143.5), metadata={op_name="jit(_fft_gather_reshard)/jit(main)/add" source_file="/global/u2/j/jackm/software/lorrax_A/src/common/load_wfns.py" source_line=733 scheduling_name="add.5.3"}
  %convert.5.5 = c128[1,9,24,24]{3,2,1,0} convert(%add.5.3), metadata={op_name="jit(_fft_gather_reshard)/jit(main)/convert_element_type" source_file="/global/u2/j/jackm/software/lorrax_A/src/common/load_wfns.py" source_line=732 scheduling_name="convert.5.5"}
  %constant_43_1 = c128[] constant((0, 6.2831853071795862))
  %broadcast.144.5 = c128[1,9,24,24]{3,2,1,0} broadcast(%constant_43_1), dimensions={}, metadata={scheduling_name="broadcast.144.5"}
  %multiply.53.5 = c128[1,9,24,24]{3,2,1,0} multiply(%convert.5.5, %broadcast.144.5), metadata={op_name="jit(_fft_gather_reshard)/jit(main)/mul" source_file="/global/u2/j/jackm/software/lorrax_A/src/common/load_wfns.py" source_line=732 scheduling_name="multiply.53.5"}
  ROOT %real.10.1 = f64[1,9,24,24]{3,2,1,0} real(%multiply.53.5), metadata={op_name="jit(_fft_gather_reshard)/jit(main)/exp" source_file="/global/u2/j/jackm/software/lorrax_A/src/common/load_wfns.py" source_line=731 scheduling_name="real.10.1"}
}

%fused_imag_sine (param_0.96: f64[9], param_1.107: f64[24], param_2.42: f64[9]) -> (f64[1,9,24,24], f64[1,9,24,24]) {
  %param_2.42 = f64[9]{0} parameter(2), metadata={scheduling_name="param_2.42"}
  %broadcast.138.3.clone.1 = f64[1,1,9,24]{3,2,1,0} broadcast(%param_2.42), dimensions={2}, metadata={op_name="jit(_fft_gather_reshard)/jit(main)/mul" source_file="/global/u2/j/jackm/software/lorrax_A/src/common/load_wfns.py" source_line=733 scheduling_name="broadcast.138.3.clone.1"}
  %param_1.107 = f64[24]{0} parameter(1), metadata={scheduling_name="param_1.107"}
  %broadcast.139.4.clone.1 = f64[1,1,9,24]{3,2,1,0} broadcast(%param_1.107), dimensions={3}, metadata={op_name="jit(_fft_gather_reshard)/jit(main)/mul" source_file="/global/u2/j/jackm/software/lorrax_A/src/common/load_wfns.py" source_line=733 scheduling_name="broadcast.139.4.clone.1"}
  %multiply.51.3.clone.1 = f64[1,1,9,24]{3,2,1,0} multiply(%broadcast.138.3.clone.1, %broadcast.139.4.clone.1), metadata={op_name="jit(_fft_gather_reshard)/jit(main)/mul" source_file="/global/u2/j/jackm/software/lorrax_A/src/common/load_wfns.py" source_line=733 scheduling_name="multiply.51.3.clone.1"}
  %bitcast.379.7.clone.1 = f64[9,24]{1,0} bitcast(%multiply.51.3.clone.1), metadata={scheduling_name="bitcast.379.7.clone.1"}
  %broadcast.140.7.clone.1 = f64[1,9,24,24]{3,2,1,0} broadcast(%bitcast.379.7.clone.1), dimensions={1,2}, metadata={op_name="jit(_fft_gather_reshard)/jit(main)/add" source_file="/global/u2/j/jackm/software/lorrax_A/src/common/load_wfns.py" source_line=733 scheduling_name="broadcast.140.7.clone.1"}
  %param_0.96 = f64[9]{0} parameter(0), metadata={scheduling_name="param_0.96"}
  %broadcast.141.3.clone.1 = f64[1,1,9,24]{3,2,1,0} broadcast(%param_0.96), dimensions={2}, metadata={op_name="jit(_fft_gather_reshard)/jit(main)/mul" source_file="/global/u2/j/jackm/software/lorrax_A/src/common/load_wfns.py" source_line=734 scheduling_name="broadcast.141.3.clone.1"}
  %multiply.52.3.clone.1 = f64[1,1,9,24]{3,2,1,0} multiply(%broadcast.141.3.clone.1, %broadcast.139.4.clone.1), metadata={op_name="jit(_fft_gather_reshard)/jit(main)/mul" source_file="/global/u2/j/jackm/software/lorrax_A/src/common/load_wfns.py" source_line=734 scheduling_name="multiply.52.3.clone.1"}
  %bitcast.388.7.clone.1 = f64[9,24]{1,0} bitcast(%multiply.52.3.clone.1), metadata={scheduling_name="bitcast.388.7.clone.1"}
  %broadcast.143.7.clone.1 = f64[1,9,24,24]{3,2,1,0} broadcast(%bitcast.388.7.clone.1), dimensions={1,3}, metadata={op_name="jit(_fft_gather_reshard)/jit(main)/add" source_file="/global/u2/j/jackm/software/lorrax_A/src/common/load_wfns.py" source_line=733 scheduling_name="broadcast.143.7.clone.1"}
  %add.5.5.clone.1 = f64[1,9,24,24]{3,2,1,0} add(%broadcast.140.7.clone.1, %broadcast.143.7.clone.1), metadata={op_name="jit(_fft_gather_reshard)/jit(main)/add" source_file="/global/u2/j/jackm/software/lorrax_A/src/common/load_wfns.py" source_line=733 scheduling_name="add.5.5.clone.1"}
  %convert.5.3.clone.1 = c128[1,9,24,24]{3,2,1,0} convert(%add.5.5.clone.1), metadata={op_name="jit(_fft_gather_reshard)/jit(main)/convert_element_type" source_file="/global/u2/j/jackm/software/lorrax_A/src/common/load_wfns.py" source_line=732 scheduling_name="convert.5.3.clone.1"}
  %constant_43_2_clone_1 = c128[] constant((0, 6.2831853071795862))
  %broadcast.144.3.clone.1 = c128[1,9,24,24]{3,2,1,0} broadcast(%constant_43_2_clone_1), dimensions={}, metadata={scheduling_name="broadcast.144.3.clone.1"}
  %multiply.53.3.clone.1 = c128[1,9,24,24]{3,2,1,0} multiply(%convert.5.3.clone.1, %broadcast.144.3.clone.1), metadata={op_name="jit(_fft_gather_reshard)/jit(main)/mul" source_file="/global/u2/j/jackm/software/lorrax_A/src/common/load_wfns.py" source_line=732 scheduling_name="multiply.53.3.clone.1"}
  %imag.10.1.clone.1 = f64[1,9,24,24]{3,2,1,0} imag(%multiply.53.3.clone.1), metadata={op_name="jit(_fft_gather_reshard)/jit(main)/exp" source_file="/global/u2/j/jackm/software/lorrax_A/src/common/load_wfns.py" source_line=731 scheduling_name="imag.10.1.clone.1"}
  %sine.5.1 = f64[1,9,24,24]{3,2,1,0} sine(%imag.10.1.clone.1), metadata={op_name="jit(_fft_gather_reshard)/jit(main)/exp" source_file="/global/u2/j/jackm/software/lorrax_A/src/common/load_wfns.py" source_line=731 scheduling_name="sine.5.1"}
  ROOT %tuple.3 = (f64[1,9,24,24]{3,2,1,0}, f64[1,9,24,24]{3,2,1,0}) tuple(%sine.5.1, %imag.10.1.clone.1), metadata={scheduling_name="tuple.3"}
}

%async_computation (param_0.97: c128[9,40,2,2,320]) -> c128[9,40,2,2,320] {
  %param_0.97 = c128[9,40,2,2,320]{4,2,1,0,3} parameter(0), metadata={scheduling_name="param_0.97"}
  ROOT %all-to-all.2 = c128[9,40,2,2,320]{4,2,1,0,3} all-to-all(%param_0.97), channel_id=5, replica_groups={{0,1},{2,3}}, dimensions={3}, metadata={op_name="jit(_fft_gather_reshard)/jit(main)/sharding_constraint" source_file="/global/u2/j/jackm/software/lorrax_A/src/common/load_wfns.py" source_line=752 scheduling_name="all-to-all.2"}
}

ENTRY %main.136_spmd (param.1: c128[9,20,2,24,24,80]) -> (c128[9,80,2,320], c128[9,320,80,2]) {
  %constant_41_0 = f64[9]{0} constant({0, 0.33333333333333331, 0.66666666666666663, 0, 0.33333333333333331, 0.66666666666666663, 0, 0.33333333333333331, 0.66666666666666663}), metadata={op_name="jit(_fft_gather_reshard)/jit(main)/mul" source_file="/global/u2/j/jackm/software/lorrax_A/src/common/load_wfns.py" source_line=734}
  %constant_40_0 = f64[24]{0} constant({...}), metadata={op_name="jit(_fft_gather_reshard)/jit(main)/mul" source_file="/global/u2/j/jackm/software/lorrax_A/src/common/load_wfns.py" source_line=733}
  %constant_39_0 = f64[9]{0} constant({0, 0, 0, 0.33333333333333331, 0.33333333333333331, 0.33333333333333331, 0.66666666666666663, 0.66666666666666663, 0.66666666666666663}), metadata={op_name="jit(_fft_gather_reshard)/jit(main)/mul" source_file="/global/u2/j/jackm/software/lorrax_A/src/common/load_wfns.py" source_line=733}
  %param.1 = c128[9,20,2,24,24,80]{5,4,3,2,1,0} parameter(0), sharding={devices=[1,4,1,1,1,1]<=[4]}, metadata={op_name="psi_G" scheduling_name="param.1"}
  %constant_49_0 = s64[640,1]{1,0} constant({...}), metadata={op_name="jit(_fft_gather_reshard)/jit(main)/jit(_take)/broadcast_in_dim" source_file="/global/u2/j/jackm/software/lorrax_A/src/common/load_wfns.py" source_line=745}
  %loop_real_fusion = f64[1,9,24,24]{3,2,1,0} fusion(%constant_40_0, %constant_39_0, %constant_41_0), kind=kLoop, calls=%fused_real, metadata={op_name="jit(_fft_gather_reshard)/jit(main)/exp" source_file="/global/u2/j/jackm/software/lorrax_A/src/common/load_wfns.py" source_line=731 scheduling_name="loop_real_fusion"}
  %loop_imag_sine_fusion = (f64[1,9,24,24]{3,2,1,0}, f64[1,9,24,24]{3,2,1,0}) fusion(%constant_41_0, %constant_40_0, %constant_39_0), kind=kLoop, calls=%fused_imag_sine, metadata={op_name="jit(_fft_gather_reshard)/jit(main)/exp" source_file="/global/u2/j/jackm/software/lorrax_A/src/common/load_wfns.py" source_line=731 scheduling_name="loop_imag_sine_fusion"}
  %fft.2.0 = c128[9,20,2,24,24,80]{5,4,3,2,1,0} fft(%param.1), fft_type=IFFT, fft_length={24,24,80}, metadata={op_name="jit(_fft_gather_reshard)/jit(main)/jit(shmap_body)/jit(fft)/fft" source_file="/global/u2/j/jackm/software/lorrax_A/src/common/fft_helpers.py" source_line=325 scheduling_name="fft.2.0"}
  %get-tuple-element.3 = f64[1,9,24,24]{3,2,1,0} get-tuple-element(%loop_imag_sine_fusion), index=1, metadata={op_name="jit(_fft_gather_reshard)/jit(main)/exp" source_file="/global/u2/j/jackm/software/lorrax_A/src/common/load_wfns.py" source_line=731 scheduling_name="get-tuple-element.3"}
  %get-tuple-element.2 = f64[1,9,24,24]{3,2,1,0} get-tuple-element(%loop_imag_sine_fusion), index=0, metadata={op_name="jit(_fft_gather_reshard)/jit(main)/exp" source_file="/global/u2/j/jackm/software/lorrax_A/src/common/load_wfns.py" source_line=731 scheduling_name="get-tuple-element.2"}
  %loop_gather_fusion = c128[640,1,9,20,2]{0,4,2,3,1} fusion(%constant_49_0, %fft.2.0, %get-tuple-element.2, %loop_real_fusion, %get-tuple-element.3), kind=kLoop, calls=%fused_gather, metadata={op_name="jit(_fft_gather_reshard)/jit(main)/jit(_take)/gather" source_file="/global/u2/j/jackm/software/lorrax_A/src/common/load_wfns.py" source_line=745 scheduling_name="loop_gather_fusion"}
  %bitcast.471.0 = c128[9,20,2,640]{3,2,0,1} bitcast(%loop_gather_fusion), metadata={scheduling_name="bitcast.471.0"}
  %collective-permute-start = (c128[9,20,2,640]{3,2,0,1}, c128[9,20,2,640]{3,2,0,1}) collective-permute-start(%bitcast.471.0), channel_id=3, source_target_pairs={{0,0},{1,2},{2,1},{3,3}}, metadata={op_name="jit(_fft_gather_reshard)/jit(main)/jit(_take)/gather" source_file="/global/u2/j/jackm/software/lorrax_A/src/common/load_wfns.py" source_line=745 scheduling_name="collective-permute-start"}, backend_config={"operation_queue_id":"0","wait_on_operation_queues":[],"collective_backend_config":{"is_sync":true,"no_parallel_custom_call":false,"is_pipelined":false,"reification_cost":[]},"force_earliest_schedule":false}
  %collective-permute-done = c128[9,20,2,640]{3,2,0,1} collective-permute-done(%collective-permute-start), metadata={op_name="jit(_fft_gather_reshard)/jit(main)/jit(_take)/gather" source_file="/global/u2/j/jackm/software/lorrax_A/src/common/load_wfns.py" source_line=745 scheduling_name="collective-permute-done"}
  %all-gather-start = (c128[9,20,2,640]{3,2,0,1}, c128[9,40,2,640]{3,2,0,1}) all-gather-start(%collective-permute-done), channel_id=4, replica_groups={{0,2},{1,3}}, dimensions={1}, use_global_device_ids=true, metadata={op_name="jit(_fft_gather_reshard)/jit(main)/jit(_take)/gather" source_file="/global/u2/j/jackm/software/lorrax_A/src/common/load_wfns.py" source_line=745 scheduling_name="all-gather-start"}, backend_config={"operation_queue_id":"0","wait_on_operation_queues":[],"collective_backend_config":{"is_sync":true,"no_parallel_custom_call":false,"is_pipelined":false,"reification_cost":[]},"force_earliest_schedule":false}
  %all-gather-done = c128[9,40,2,640]{3,2,0,1} all-gather-done(%all-gather-start), metadata={op_name="jit(_fft_gather_reshard)/jit(main)/jit(_take)/gather" source_file="/global/u2/j/jackm/software/lorrax_A/src/common/load_wfns.py" source_line=745 scheduling_name="all-gather-done"}
  %loop_transpose_fusion = c128[2,9,40,2,320]{4,3,2,1,0} fusion(%all-gather-done), kind=kLoop, calls=%fused_transpose.1, metadata={op_name="jit(_fft_gather_reshard)/jit(main)/sharding_constraint" source_file="/global/u2/j/jackm/software/lorrax_A/src/common/load_wfns.py" source_line=752 scheduling_name="loop_transpose_fusion"}
  %bitcast.480.0 = c128[9,40,2,2,320]{4,2,1,0,3} bitcast(%loop_transpose_fusion), metadata={scheduling_name="bitcast.480.0"}
  %all-to-all-start = ((c128[9,40,2,2,320]{4,2,1,0,3}), c128[9,40,2,2,320]{4,2,1,0,3}) async-start(%bitcast.480.0), calls=%async_computation, metadata={op_name="jit(_fft_gather_reshard)/jit(main)/sharding_constraint" source_file="/global/u2/j/jackm/software/lorrax_A/src/common/load_wfns.py" source_line=752 scheduling_name="all-to-all-start"}, backend_config={"operation_queue_id":"0","wait_on_operation_queues":[],"collective_backend_config":{"is_sync":true,"no_parallel_custom_call":false,"is_pipelined":false,"reification_cost":[]},"force_earliest_schedule":false}
  %all-to-all-done = c128[9,40,2,2,320]{4,2,1,0,3} async-done(%all-to-all-start), metadata={op_name="jit(_fft_gather_reshard)/jit(main)/sharding_constraint" source_file="/global/u2/j/jackm/software/lorrax_A/src/common/load_wfns.py" source_line=752 scheduling_name="all-to-all-done"}
  %input_transpose_fusion = (c128[9,2,25600]{2,1,0}, c128[9,320,160]{2,1,0}) fusion(%all-to-all-done), kind=kInput, calls=%fused_transpose, metadata={op_name="jit(_fft_gather_reshard)/jit(main)/sharding_constraint" source_file="/global/u2/j/jackm/software/lorrax_A/src/common/load_wfns.py" source_line=752 scheduling_name="input_transpose_fusion"}
  %get-tuple-element.1 = c128[9,320,160]{2,1,0} get-tuple-element(%input_transpose_fusion), index=1, metadata={op_name="jit(_fft_gather_reshard)/jit(main)/sharding_constraint" source_file="/global/u2/j/jackm/software/lorrax_A/src/common/load_wfns.py" source_line=752 scheduling_name="get-tuple-element.1"}
  %bitcast.500.0 = c128[9,80,2,320]{2,1,3,0} bitcast(%get-tuple-element.1), metadata={scheduling_name="bitcast.500.0"}
  %collective-permute-start.1 = (c128[9,80,2,320]{2,1,3,0}, c128[9,80,2,320]{2,1,3,0}) collective-permute-start(%bitcast.500.0), channel_id=6, source_target_pairs={{0,0},{2,1},{1,2},{3,3}}, metadata={op_name="jit(_fft_gather_reshard)/jit(main)/complex" source_file="/global/u2/j/jackm/software/lorrax_A/src/common/load_wfns.py" source_line=755 scheduling_name="collective-permute-start.1"}, backend_config={"operation_queue_id":"0","wait_on_operation_queues":[],"collective_backend_config":{"is_sync":true,"no_parallel_custom_call":false,"is_pipelined":false,"reification_cost":[]},"force_earliest_schedule":false}
  %collective-permute-done.1 = c128[9,80,2,320]{2,1,3,0} collective-permute-done(%collective-permute-start.1), metadata={op_name="jit(_fft_gather_reshard)/jit(main)/complex" source_file="/global/u2/j/jackm/software/lorrax_A/src/common/load_wfns.py" source_line=755 scheduling_name="collective-permute-done.1"}
  %get-tuple-element = c128[9,2,25600]{2,1,0} get-tuple-element(%input_transpose_fusion), index=0, metadata={op_name="jit(_fft_gather_reshard)/jit(main)/sharding_constraint" source_file="/global/u2/j/jackm/software/lorrax_A/src/common/load_wfns.py" source_line=752 scheduling_name="get-tuple-element"}
  %bitcast.492.0 = c128[9,80,2,320]{3,2,1,0} bitcast(%get-tuple-element), metadata={scheduling_name="bitcast.492.0"}
  %bitcast.504.0 = c128[9,320,80,2]{3,2,1,0} bitcast(%collective-permute-done.1), metadata={scheduling_name="bitcast.504.0"}
  ROOT %tuple.1 = (c128[9,80,2,320]{3,2,1,0}, c128[9,320,80,2]{3,2,1,0}) tuple(%bitcast.492.0, %bitcast.504.0), metadata={scheduling_name="tuple.1"}
}

