HloModule jit__scan_window, entry_computation_layout={(c128[21,9,80,80]{3,2,1,0}, c128[9]{0}, c128[9]{0}, c128[9,640,640]{2,1,0}, f64[9,80]{1,0}, /*index=5*/f64[], f64[], f64[9,640,640]{2,1,0}, c128[80,80]{1,0}, pred[9,80]{1,0}, /*index=10*/pred[9,640,640]{2,1,0}, f64[], f64[21]{0}, f64[], s32[], /*index=15*/c128[9,2,640,80]{3,2,1,0}, c128[9,80,2,640]{3,2,1,0}, c128[9,2,640,80]{3,2,1,0}, c128[9,80,2,640]{3,2,1,0})->c128[21,9,80,80]{3,2,1,0}}, allow_spmd_sharding_propagation_to_parameters={false,true,true,false,false,true,true,false,true,true,false,true,true,true,true,false,false,false,false}, allow_spmd_sharding_propagation_to_output={true}, num_partitions=4

%_where.23 (Arg_0.24: pred[9,80], Arg_1.25: c128[9,80], Arg_2.26: c128[]) -> c128[9,80] {
  %Arg_0.24 = pred[9,80]{1,0} parameter(0), metadata={op_name="jit(_scan_window)/jit(main)/while/body/jit(_tau_channel_step)/jit(_build_tau_operands)/pjit"}
  %Arg_1.25 = c128[9,80]{1,0} parameter(1), metadata={op_name="jit(_scan_window)/jit(main)/while/body/jit(_tau_channel_step)/jit(_build_tau_operands)/pjit"}
  %Arg_2.26 = c128[] parameter(2), metadata={op_name="jit(_scan_window)/jit(main)/while/body/jit(_tau_channel_step)/jit(_build_tau_operands)/pjit"}
  %broadcast.27 = c128[9,80]{1,0} broadcast(%Arg_2.26), dimensions={}, metadata={op_name="jit(_scan_window)/jit(main)/while/body/jit(_tau_channel_step)/jit(_build_tau_operands)/jit(_where)/broadcast_in_dim" source_file="/global/homes/j/jackm/software/lorrax_C/src/gw/ppm_sigma.py" source_line=554}
  ROOT %select.28 = c128[9,80]{1,0} select(%Arg_0.24, %Arg_1.25, %broadcast.27), metadata={op_name="jit(_scan_window)/jit(main)/while/body/jit(_tau_channel_step)/jit(_build_tau_operands)/jit(_where)/select_n" source_file="/global/homes/j/jackm/software/lorrax_C/src/gw/ppm_sigma.py" source_line=554}
}

%_where_0.29 (Arg_0.30: pred[9,640,640], Arg_1.31: c128[9,640,640], Arg_2.32: c128[]) -> c128[9,640,640] {
  %Arg_0.30 = pred[9,640,640]{2,1,0} parameter(0), metadata={op_name="jit(_scan_window)/jit(main)/while/body/jit(_tau_channel_step)/jit(_build_tau_operands)/pjit"}
  %Arg_1.31 = c128[9,640,640]{2,1,0} parameter(1), metadata={op_name="jit(_scan_window)/jit(main)/while/body/jit(_tau_channel_step)/jit(_build_tau_operands)/pjit"}
  %Arg_2.32 = c128[] parameter(2), metadata={op_name="jit(_scan_window)/jit(main)/while/body/jit(_tau_channel_step)/jit(_build_tau_operands)/pjit"}
  %broadcast.33 = c128[9,640,640]{2,1,0} broadcast(%Arg_2.32), dimensions={}, metadata={op_name="jit(_scan_window)/jit(main)/while/body/jit(_tau_channel_step)/jit(_build_tau_operands)/jit(_where)/broadcast_in_dim" source_file="/global/homes/j/jackm/software/lorrax_C/src/gw/ppm_sigma.py" source_line=558}
  ROOT %select.34 = c128[9,640,640]{2,1,0} select(%Arg_0.30, %Arg_1.31, %broadcast.33), metadata={op_name="jit(_scan_window)/jit(main)/while/body/jit(_tau_channel_step)/jit(_build_tau_operands)/jit(_where)/select_n" source_file="/global/homes/j/jackm/software/lorrax_C/src/gw/ppm_sigma.py" source_line=558}
}

%_build_tau_operands.35 (Arg_0.36: f64[9,80], Arg_1.37: pred[9,80], Arg_2.38: c128[9,640,640], Arg_3.39: f64[9,640,640], Arg_4.40: pred[9,640,640], Arg_5.41: f64[], Arg_6.42: f64[], Arg_7.43: c128[], Arg_8.44: c128[80,80]) -> (c128[9,80,80], c128[9,640,640]) {
  %Arg_8.44 = c128[80,80]{1,0} parameter(8), metadata={op_name="jit(_scan_window)/jit(main)/while/body/jit(_tau_channel_step)/pjit"}
  %reshape.88 = c128[1,80,80]{2,1,0} reshape(%Arg_8.44), metadata={op_name="jit(_scan_window)/jit(main)/while/body/jit(_tau_channel_step)/jit(_build_tau_operands)/broadcast_in_dim" source_file="/global/homes/j/jackm/software/lorrax_C/src/gw/ppm_sigma.py" source_line=555}
  %broadcast.90 = c128[1,80,80]{2,1,0} broadcast(%reshape.88), dimensions={0,1,2}, metadata={op_name="jit(_scan_window)/jit(main)/while/body/jit(_tau_channel_step)/jit(_build_tau_operands)/mul" source_file="/global/homes/j/jackm/software/lorrax_C/src/gw/ppm_sigma.py" source_line=555}
  %reshape.91 = c128[80,80]{1,0} reshape(%broadcast.90), metadata={op_name="jit(_scan_window)/jit(main)/while/body/jit(_tau_channel_step)/jit(_build_tau_operands)/mul" source_file="/global/homes/j/jackm/software/lorrax_C/src/gw/ppm_sigma.py" source_line=555}
  %broadcast.92 = c128[9,80,80]{2,1,0} broadcast(%reshape.91), dimensions={1,2}, metadata={op_name="jit(_scan_window)/jit(main)/while/body/jit(_tau_channel_step)/jit(_build_tau_operands)/mul" source_file="/global/homes/j/jackm/software/lorrax_C/src/gw/ppm_sigma.py" source_line=555}
  %Arg_1.37 = pred[9,80]{1,0} parameter(1), metadata={op_name="jit(_scan_window)/jit(main)/while/body/jit(_tau_channel_step)/pjit"}
  %Arg_0.36 = f64[9,80]{1,0} parameter(0), metadata={op_name="jit(_scan_window)/jit(main)/while/body/jit(_tau_channel_step)/pjit"}
  %Arg_5.41 = f64[] parameter(5), metadata={op_name="jit(_scan_window)/jit(main)/while/body/jit(_tau_channel_step)/pjit"}
  %broadcast.62 = f64[9,80]{1,0} broadcast(%Arg_5.41), dimensions={}, metadata={op_name="jit(_scan_window)/jit(main)/while/body/jit(_tau_channel_step)/jit(_build_tau_operands)/sub" source_file="/global/homes/j/jackm/software/lorrax_C/src/gw/ppm_sigma.py" source_line=553}
  %subtract.63 = f64[9,80]{1,0} subtract(%Arg_0.36, %broadcast.62), metadata={op_name="jit(_scan_window)/jit(main)/while/body/jit(_tau_channel_step)/jit(_build_tau_operands)/sub" source_file="/global/homes/j/jackm/software/lorrax_C/src/gw/ppm_sigma.py" source_line=553}
  %convert.64 = c128[9,80]{1,0} convert(%subtract.63), metadata={op_name="jit(_scan_window)/jit(main)/while/body/jit(_tau_channel_step)/jit(_build_tau_operands)/convert_element_type" source_file="/global/homes/j/jackm/software/lorrax_C/src/gw/ppm_sigma.py" source_line=553}
  %constant.47 = c128[] constant((-0, -1))
  %broadcast.48 = c128[9,80]{1,0} broadcast(%constant.47), dimensions={}
  %multiply.65 = c128[9,80]{1,0} multiply(%convert.64, %broadcast.48), metadata={op_name="jit(_scan_window)/jit(main)/while/body/jit(_tau_channel_step)/jit(_build_tau_operands)/mul" source_file="/global/homes/j/jackm/software/lorrax_C/src/gw/ppm_sigma.py" source_line=553}
  %Arg_7.43 = c128[] parameter(7), metadata={op_name="jit(_scan_window)/jit(main)/while/body/jit(_tau_channel_step)/pjit"}
  %broadcast.66 = c128[9,80]{1,0} broadcast(%Arg_7.43), dimensions={}, metadata={op_name="jit(_scan_window)/jit(main)/while/body/jit(_tau_channel_step)/jit(_build_tau_operands)/mul" source_file="/global/homes/j/jackm/software/lorrax_C/src/gw/ppm_sigma.py" source_line=553}
  %multiply.67 = c128[9,80]{1,0} multiply(%multiply.65, %broadcast.66), metadata={op_name="jit(_scan_window)/jit(main)/while/body/jit(_tau_channel_step)/jit(_build_tau_operands)/mul" source_file="/global/homes/j/jackm/software/lorrax_C/src/gw/ppm_sigma.py" source_line=553}
  %real.68 = f64[9,80]{1,0} real(%multiply.67), metadata={op_name="jit(_scan_window)/jit(main)/while/body/jit(_tau_channel_step)/jit(_build_tau_operands)/exp" source_file="/global/homes/j/jackm/software/lorrax_C/src/gw/ppm_sigma.py" source_line=553}
  %exponential.69 = f64[9,80]{1,0} exponential(%real.68), metadata={op_name="jit(_scan_window)/jit(main)/while/body/jit(_tau_channel_step)/jit(_build_tau_operands)/exp" source_file="/global/homes/j/jackm/software/lorrax_C/src/gw/ppm_sigma.py" source_line=553}
  %constant.59 = f64[] constant(inf)
  %broadcast.60 = f64[9,80]{1,0} broadcast(%constant.59), dimensions={}
  %compare.70 = pred[9,80]{1,0} compare(%exponential.69, %broadcast.60), direction=EQ, metadata={op_name="jit(_scan_window)/jit(main)/while/body/jit(_tau_channel_step)/jit(_build_tau_operands)/exp" source_file="/global/homes/j/jackm/software/lorrax_C/src/gw/ppm_sigma.py" source_line=553}
  %constant.57 = f64[] constant(0.5)
  %broadcast.58 = f64[9,80]{1,0} broadcast(%constant.57), dimensions={}
  %multiply.71 = f64[9,80]{1,0} multiply(%real.68, %broadcast.58), metadata={op_name="jit(_scan_window)/jit(main)/while/body/jit(_tau_channel_step)/jit(_build_tau_operands)/exp" source_file="/global/homes/j/jackm/software/lorrax_C/src/gw/ppm_sigma.py" source_line=553}
  %exponential.72 = f64[9,80]{1,0} exponential(%multiply.71), metadata={op_name="jit(_scan_window)/jit(main)/while/body/jit(_tau_channel_step)/jit(_build_tau_operands)/exp" source_file="/global/homes/j/jackm/software/lorrax_C/src/gw/ppm_sigma.py" source_line=553}
  %imag.73 = f64[9,80]{1,0} imag(%multiply.67), metadata={op_name="jit(_scan_window)/jit(main)/while/body/jit(_tau_channel_step)/jit(_build_tau_operands)/exp" source_file="/global/homes/j/jackm/software/lorrax_C/src/gw/ppm_sigma.py" source_line=553}
  %cosine.74 = f64[9,80]{1,0} cosine(%imag.73), metadata={op_name="jit(_scan_window)/jit(main)/while/body/jit(_tau_channel_step)/jit(_build_tau_operands)/exp" source_file="/global/homes/j/jackm/software/lorrax_C/src/gw/ppm_sigma.py" source_line=553}
  %multiply.75 = f64[9,80]{1,0} multiply(%exponential.72, %cosine.74), metadata={op_name="jit(_scan_window)/jit(main)/while/body/jit(_tau_channel_step)/jit(_build_tau_operands)/exp" source_file="/global/homes/j/jackm/software/lorrax_C/src/gw/ppm_sigma.py" source_line=553}
  %multiply.76 = f64[9,80]{1,0} multiply(%multiply.75, %exponential.72), metadata={op_name="jit(_scan_window)/jit(main)/while/body/jit(_tau_channel_step)/jit(_build_tau_operands)/exp" source_file="/global/homes/j/jackm/software/lorrax_C/src/gw/ppm_sigma.py" source_line=553}
  %multiply.77 = f64[9,80]{1,0} multiply(%exponential.69, %cosine.74), metadata={op_name="jit(_scan_window)/jit(main)/while/body/jit(_tau_channel_step)/jit(_build_tau_operands)/exp" source_file="/global/homes/j/jackm/software/lorrax_C/src/gw/ppm_sigma.py" source_line=553}
  %select.78 = f64[9,80]{1,0} select(%compare.70, %multiply.76, %multiply.77), metadata={op_name="jit(_scan_window)/jit(main)/while/body/jit(_tau_channel_step)/jit(_build_tau_operands)/exp" source_file="/global/homes/j/jackm/software/lorrax_C/src/gw/ppm_sigma.py" source_line=553}
  %constant.55 = f64[] constant(0)
  %broadcast.56 = f64[9,80]{1,0} broadcast(%constant.55), dimensions={}
  %compare.79 = pred[9,80]{1,0} compare(%imag.73, %broadcast.56), direction=EQ, metadata={op_name="jit(_scan_window)/jit(main)/while/body/jit(_tau_channel_step)/jit(_build_tau_operands)/exp" source_file="/global/homes/j/jackm/software/lorrax_C/src/gw/ppm_sigma.py" source_line=553}
  %sine.80 = f64[9,80]{1,0} sine(%imag.73), metadata={op_name="jit(_scan_window)/jit(main)/while/body/jit(_tau_channel_step)/jit(_build_tau_operands)/exp" source_file="/global/homes/j/jackm/software/lorrax_C/src/gw/ppm_sigma.py" source_line=553}
  %multiply.81 = f64[9,80]{1,0} multiply(%exponential.72, %sine.80), metadata={op_name="jit(_scan_window)/jit(main)/while/body/jit(_tau_channel_step)/jit(_build_tau_operands)/exp" source_file="/global/homes/j/jackm/software/lorrax_C/src/gw/ppm_sigma.py" source_line=553}
  %multiply.82 = f64[9,80]{1,0} multiply(%multiply.81, %exponential.72), metadata={op_name="jit(_scan_window)/jit(main)/while/body/jit(_tau_channel_step)/jit(_build_tau_operands)/exp" source_file="/global/homes/j/jackm/software/lorrax_C/src/gw/ppm_sigma.py" source_line=553}
  %multiply.83 = f64[9,80]{1,0} multiply(%exponential.69, %sine.80), metadata={op_name="jit(_scan_window)/jit(main)/while/body/jit(_tau_channel_step)/jit(_build_tau_operands)/exp" source_file="/global/homes/j/jackm/software/lorrax_C/src/gw/ppm_sigma.py" source_line=553}
  %select.84 = f64[9,80]{1,0} select(%compare.70, %multiply.82, %multiply.83), metadata={op_name="jit(_scan_window)/jit(main)/while/body/jit(_tau_channel_step)/jit(_build_tau_operands)/exp" source_file="/global/homes/j/jackm/software/lorrax_C/src/gw/ppm_sigma.py" source_line=553}
  %select.85 = f64[9,80]{1,0} select(%compare.79, %broadcast.56, %select.84), metadata={op_name="jit(_scan_window)/jit(main)/while/body/jit(_tau_channel_step)/jit(_build_tau_operands)/exp" source_file="/global/homes/j/jackm/software/lorrax_C/src/gw/ppm_sigma.py" source_line=553}
  %complex.86 = c128[9,80]{1,0} complex(%select.78, %select.85), metadata={op_name="jit(_scan_window)/jit(main)/while/body/jit(_tau_channel_step)/jit(_build_tau_operands)/exp" source_file="/global/homes/j/jackm/software/lorrax_C/src/gw/ppm_sigma.py" source_line=553}
  %constant.61 = c128[] constant((0, 0))
  %call.87 = c128[9,80]{1,0} call(%Arg_1.37, %complex.86, %constant.61), to_apply=%_where.23
  %reshape.89 = c128[9,80,1]{2,1,0} reshape(%call.87), metadata={op_name="jit(_scan_window)/jit(main)/while/body/jit(_tau_channel_step)/jit(_build_tau_operands)/broadcast_in_dim" source_file="/global/homes/j/jackm/software/lorrax_C/src/gw/ppm_sigma.py" source_line=555}
  %broadcast.93 = c128[9,80,1]{2,1,0} broadcast(%reshape.89), dimensions={0,1,2}, metadata={op_name="jit(_scan_window)/jit(main)/while/body/jit(_tau_channel_step)/jit(_build_tau_operands)/mul" source_file="/global/homes/j/jackm/software/lorrax_C/src/gw/ppm_sigma.py" source_line=555}
  %reshape.94 = c128[9,80]{1,0} reshape(%broadcast.93), metadata={op_name="jit(_scan_window)/jit(main)/while/body/jit(_tau_channel_step)/jit(_build_tau_operands)/mul" source_file="/global/homes/j/jackm/software/lorrax_C/src/gw/ppm_sigma.py" source_line=555}
  %broadcast.95 = c128[9,80,80]{2,1,0} broadcast(%reshape.94), dimensions={0,1}, metadata={op_name="jit(_scan_window)/jit(main)/while/body/jit(_tau_channel_step)/jit(_build_tau_operands)/mul" source_file="/global/homes/j/jackm/software/lorrax_C/src/gw/ppm_sigma.py" source_line=555}
  %multiply.96 = c128[9,80,80]{2,1,0} multiply(%broadcast.92, %broadcast.95), metadata={op_name="jit(_scan_window)/jit(main)/while/body/jit(_tau_channel_step)/jit(_build_tau_operands)/mul" source_file="/global/homes/j/jackm/software/lorrax_C/src/gw/ppm_sigma.py" source_line=555}
  %Arg_4.40 = pred[9,640,640]{2,1,0} parameter(4), metadata={op_name="jit(_scan_window)/jit(main)/while/body/jit(_tau_channel_step)/pjit"}
  %Arg_2.38 = c128[9,640,640]{2,1,0} parameter(2), metadata={op_name="jit(_scan_window)/jit(main)/while/body/jit(_tau_channel_step)/pjit"}
  %Arg_3.39 = f64[9,640,640]{2,1,0} parameter(3), metadata={op_name="jit(_scan_window)/jit(main)/while/body/jit(_tau_channel_step)/pjit"}
  %Arg_6.42 = f64[] parameter(6), metadata={op_name="jit(_scan_window)/jit(main)/while/body/jit(_tau_channel_step)/pjit"}
  %broadcast.97 = f64[9,640,640]{2,1,0} broadcast(%Arg_6.42), dimensions={}, metadata={op_name="jit(_scan_window)/jit(main)/while/body/jit(_tau_channel_step)/jit(_build_tau_operands)/sub" source_file="/global/homes/j/jackm/software/lorrax_C/src/gw/ppm_sigma.py" source_line=557}
  %subtract.98 = f64[9,640,640]{2,1,0} subtract(%Arg_3.39, %broadcast.97), metadata={op_name="jit(_scan_window)/jit(main)/while/body/jit(_tau_channel_step)/jit(_build_tau_operands)/sub" source_file="/global/homes/j/jackm/software/lorrax_C/src/gw/ppm_sigma.py" source_line=557}
  %convert.99 = c128[9,640,640]{2,1,0} convert(%subtract.98), metadata={op_name="jit(_scan_window)/jit(main)/while/body/jit(_tau_channel_step)/jit(_build_tau_operands)/convert_element_type" source_file="/global/homes/j/jackm/software/lorrax_C/src/gw/ppm_sigma.py" source_line=557}
  %constant.45 = c128[] constant((-0, -1))
  %broadcast.46 = c128[9,640,640]{2,1,0} broadcast(%constant.45), dimensions={}
  %multiply.100 = c128[9,640,640]{2,1,0} multiply(%convert.99, %broadcast.46), metadata={op_name="jit(_scan_window)/jit(main)/while/body/jit(_tau_channel_step)/jit(_build_tau_operands)/mul" source_file="/global/homes/j/jackm/software/lorrax_C/src/gw/ppm_sigma.py" source_line=557}
  %broadcast.101 = c128[9,640,640]{2,1,0} broadcast(%Arg_7.43), dimensions={}, metadata={op_name="jit(_scan_window)/jit(main)/while/body/jit(_tau_channel_step)/jit(_build_tau_operands)/mul" source_file="/global/homes/j/jackm/software/lorrax_C/src/gw/ppm_sigma.py" source_line=557}
  %multiply.102 = c128[9,640,640]{2,1,0} multiply(%multiply.100, %broadcast.101), metadata={op_name="jit(_scan_window)/jit(main)/while/body/jit(_tau_channel_step)/jit(_build_tau_operands)/mul" source_file="/global/homes/j/jackm/software/lorrax_C/src/gw/ppm_sigma.py" source_line=557}
  %real.103 = f64[9,640,640]{2,1,0} real(%multiply.102), metadata={op_name="jit(_scan_window)/jit(main)/while/body/jit(_tau_channel_step)/jit(_build_tau_operands)/exp" source_file="/global/homes/j/jackm/software/lorrax_C/src/gw/ppm_sigma.py" source_line=557}
  %exponential.104 = f64[9,640,640]{2,1,0} exponential(%real.103), metadata={op_name="jit(_scan_window)/jit(main)/while/body/jit(_tau_channel_step)/jit(_build_tau_operands)/exp" source_file="/global/homes/j/jackm/software/lorrax_C/src/gw/ppm_sigma.py" source_line=557}
  %constant.53 = f64[] constant(inf)
  %broadcast.54 = f64[9,640,640]{2,1,0} broadcast(%constant.53), dimensions={}
  %compare.105 = pred[9,640,640]{2,1,0} compare(%exponential.104, %broadcast.54), direction=EQ, metadata={op_name="jit(_scan_window)/jit(main)/while/body/jit(_tau_channel_step)/jit(_build_tau_operands)/exp" source_file="/global/homes/j/jackm/software/lorrax_C/src/gw/ppm_sigma.py" source_line=557}
  %constant.51 = f64[] constant(0.5)
  %broadcast.52 = f64[9,640,640]{2,1,0} broadcast(%constant.51), dimensions={}
  %multiply.106 = f64[9,640,640]{2,1,0} multiply(%real.103, %broadcast.52), metadata={op_name="jit(_scan_window)/jit(main)/while/body/jit(_tau_channel_step)/jit(_build_tau_operands)/exp" source_file="/global/homes/j/jackm/software/lorrax_C/src/gw/ppm_sigma.py" source_line=557}
  %exponential.107 = f64[9,640,640]{2,1,0} exponential(%multiply.106), metadata={op_name="jit(_scan_window)/jit(main)/while/body/jit(_tau_channel_step)/jit(_build_tau_operands)/exp" source_file="/global/homes/j/jackm/software/lorrax_C/src/gw/ppm_sigma.py" source_line=557}
  %imag.108 = f64[9,640,640]{2,1,0} imag(%multiply.102), metadata={op_name="jit(_scan_window)/jit(main)/while/body/jit(_tau_channel_step)/jit(_build_tau_operands)/exp" source_file="/global/homes/j/jackm/software/lorrax_C/src/gw/ppm_sigma.py" source_line=557}
  %cosine.109 = f64[9,640,640]{2,1,0} cosine(%imag.108), metadata={op_name="jit(_scan_window)/jit(main)/while/body/jit(_tau_channel_step)/jit(_build_tau_operands)/exp" source_file="/global/homes/j/jackm/software/lorrax_C/src/gw/ppm_sigma.py" source_line=557}
  %multiply.110 = f64[9,640,640]{2,1,0} multiply(%exponential.107, %cosine.109), metadata={op_name="jit(_scan_window)/jit(main)/while/body/jit(_tau_channel_step)/jit(_build_tau_operands)/exp" source_file="/global/homes/j/jackm/software/lorrax_C/src/gw/ppm_sigma.py" source_line=557}
  %multiply.111 = f64[9,640,640]{2,1,0} multiply(%multiply.110, %exponential.107), metadata={op_name="jit(_scan_window)/jit(main)/while/body/jit(_tau_channel_step)/jit(_build_tau_operands)/exp" source_file="/global/homes/j/jackm/software/lorrax_C/src/gw/ppm_sigma.py" source_line=557}
  %multiply.112 = f64[9,640,640]{2,1,0} multiply(%exponential.104, %cosine.109), metadata={op_name="jit(_scan_window)/jit(main)/while/body/jit(_tau_channel_step)/jit(_build_tau_operands)/exp" source_file="/global/homes/j/jackm/software/lorrax_C/src/gw/ppm_sigma.py" source_line=557}
  %select.113 = f64[9,640,640]{2,1,0} select(%compare.105, %multiply.111, %multiply.112), metadata={op_name="jit(_scan_window)/jit(main)/while/body/jit(_tau_channel_step)/jit(_build_tau_operands)/exp" source_file="/global/homes/j/jackm/software/lorrax_C/src/gw/ppm_sigma.py" source_line=557}
  %constant.49 = f64[] constant(0)
  %broadcast.50 = f64[9,640,640]{2,1,0} broadcast(%constant.49), dimensions={}
  %compare.114 = pred[9,640,640]{2,1,0} compare(%imag.108, %broadcast.50), direction=EQ, metadata={op_name="jit(_scan_window)/jit(main)/while/body/jit(_tau_channel_step)/jit(_build_tau_operands)/exp" source_file="/global/homes/j/jackm/software/lorrax_C/src/gw/ppm_sigma.py" source_line=557}
  %sine.115 = f64[9,640,640]{2,1,0} sine(%imag.108), metadata={op_name="jit(_scan_window)/jit(main)/while/body/jit(_tau_channel_step)/jit(_build_tau_operands)/exp" source_file="/global/homes/j/jackm/software/lorrax_C/src/gw/ppm_sigma.py" source_line=557}
  %multiply.116 = f64[9,640,640]{2,1,0} multiply(%exponential.107, %sine.115), metadata={op_name="jit(_scan_window)/jit(main)/while/body/jit(_tau_channel_step)/jit(_build_tau_operands)/exp" source_file="/global/homes/j/jackm/software/lorrax_C/src/gw/ppm_sigma.py" source_line=557}
  %multiply.117 = f64[9,640,640]{2,1,0} multiply(%multiply.116, %exponential.107), metadata={op_name="jit(_scan_window)/jit(main)/while/body/jit(_tau_channel_step)/jit(_build_tau_operands)/exp" source_file="/global/homes/j/jackm/software/lorrax_C/src/gw/ppm_sigma.py" source_line=557}
  %multiply.118 = f64[9,640,640]{2,1,0} multiply(%exponential.104, %sine.115), metadata={op_name="jit(_scan_window)/jit(main)/while/body/jit(_tau_channel_step)/jit(_build_tau_operands)/exp" source_file="/global/homes/j/jackm/software/lorrax_C/src/gw/ppm_sigma.py" source_line=557}
  %select.119 = f64[9,640,640]{2,1,0} select(%compare.105, %multiply.117, %multiply.118), metadata={op_name="jit(_scan_window)/jit(main)/while/body/jit(_tau_channel_step)/jit(_build_tau_operands)/exp" source_file="/global/homes/j/jackm/software/lorrax_C/src/gw/ppm_sigma.py" source_line=557}
  %select.120 = f64[9,640,640]{2,1,0} select(%compare.114, %broadcast.50, %select.119), metadata={op_name="jit(_scan_window)/jit(main)/while/body/jit(_tau_channel_step)/jit(_build_tau_operands)/exp" source_file="/global/homes/j/jackm/software/lorrax_C/src/gw/ppm_sigma.py" source_line=557}
  %complex.121 = c128[9,640,640]{2,1,0} complex(%select.113, %select.120), metadata={op_name="jit(_scan_window)/jit(main)/while/body/jit(_tau_channel_step)/jit(_build_tau_operands)/exp" source_file="/global/homes/j/jackm/software/lorrax_C/src/gw/ppm_sigma.py" source_line=557}
  %multiply.122 = c128[9,640,640]{2,1,0} multiply(%Arg_2.38, %complex.121), metadata={op_name="jit(_scan_window)/jit(main)/while/body/jit(_tau_channel_step)/jit(_build_tau_operands)/mul" source_file="/global/homes/j/jackm/software/lorrax_C/src/gw/ppm_sigma.py" source_line=558}
  %call.123 = c128[9,640,640]{2,1,0} call(%Arg_4.40, %multiply.122, %constant.61), to_apply=%_where_0.29
  %custom-call.124 = c128[9,640,640]{2,1,0} custom-call(%call.123), custom_call_target="Sharding", sharding={devices=[1,2,2]<=[4]}, metadata={op_name="jit(_scan_window)/jit(main)/while/body/jit(_tau_channel_step)/jit(_build_tau_operands)/sharding_constraint" source_file="/global/homes/j/jackm/software/lorrax_C/src/gw/ppm_sigma.py" source_line=559}
  ROOT %tuple.125 = (c128[9,80,80]{2,1,0}, c128[9,640,640]{2,1,0}) tuple(%multiply.96, %custom-call.124)
}

%region_1.126 (Arg_0.127: c128[], Arg_1.128: c128[]) -> c128[] {
  %Arg_0.127 = c128[] parameter(0), metadata={op_name="jit(_scan_window)/jit(main)/while/body/jit(_tau_channel_step)/jit(_sigma_channel_pipeline)/jit(shmap_body)/reduce_scatter"}
  %Arg_1.128 = c128[] parameter(1), metadata={op_name="jit(_scan_window)/jit(main)/while/body/jit(_tau_channel_step)/jit(_sigma_channel_pipeline)/jit(shmap_body)/reduce_scatter"}
  ROOT %add.129 = c128[] add(%Arg_0.127, %Arg_1.128), metadata={op_name="jit(_scan_window)/jit(main)/while/body/jit(_tau_channel_step)/jit(_sigma_channel_pipeline)/jit(shmap_body)/add" source_file="/global/homes/j/jackm/software/lorrax_C/src/gw/ppm_sigma.py" source_line=434}
}

%region_2.130 (Arg_0.131: c128[], Arg_1.132: c128[]) -> c128[] {
  %Arg_0.131 = c128[] parameter(0), metadata={op_name="jit(_scan_window)/jit(main)/while/body/jit(_tau_channel_step)/jit(_sigma_channel_pipeline)/jit(shmap_body)/reduce_scatter"}
  %Arg_1.132 = c128[] parameter(1), metadata={op_name="jit(_scan_window)/jit(main)/while/body/jit(_tau_channel_step)/jit(_sigma_channel_pipeline)/jit(shmap_body)/reduce_scatter"}
  ROOT %add.133 = c128[] add(%Arg_0.131, %Arg_1.132), metadata={op_name="jit(_scan_window)/jit(main)/while/body/jit(_tau_channel_step)/jit(_sigma_channel_pipeline)/jit(shmap_body)/add" source_file="/global/homes/j/jackm/software/lorrax_C/src/gw/ppm_sigma.py" source_line=449}
}

%shmap_body.134 (Arg_0.135: c128[9,80,2,320], Arg_1.136: c128[9,2,320,2,320], Arg_2.137: c128[9,2,320,80]) -> c128[2,9,40,40] {
  %Arg_2.137 = c128[9,2,320,80]{3,2,1,0} parameter(2), metadata={op_name="[None, None, (\'y\',), None]"}
  %Arg_1.136 = c128[9,2,320,2,320]{4,3,2,1,0} parameter(1), metadata={op_name="[None, None, (\'x\',), None, (\'y\',)]"}
  %real.138 = f64[9,2,320,2,320]{4,3,2,1,0} real(%Arg_1.136), metadata={op_name="jit(_scan_window)/jit(main)/while/body/jit(_tau_channel_step)/jit(_sigma_channel_pipeline)/jit(shmap_body)/real" source_file="/global/homes/j/jackm/software/lorrax_C/src/gw/ppm_sigma.py" source_line=419}
  %reshape.140 = f64[1,9,2,320,2,320]{5,4,3,2,1,0} reshape(%real.138), metadata={op_name="jit(_scan_window)/jit(main)/while/body/jit(_tau_channel_step)/jit(_sigma_channel_pipeline)/jit(shmap_body)/broadcast_in_dim" source_file="/global/homes/j/jackm/software/lorrax_C/src/gw/ppm_sigma.py" source_line=418}
  %imag.139 = f64[9,2,320,2,320]{4,3,2,1,0} imag(%Arg_1.136), metadata={op_name="jit(_scan_window)/jit(main)/while/body/jit(_tau_channel_step)/jit(_sigma_channel_pipeline)/jit(shmap_body)/imag" source_file="/global/homes/j/jackm/software/lorrax_C/src/gw/ppm_sigma.py" source_line=419}
  %reshape.141 = f64[1,9,2,320,2,320]{5,4,3,2,1,0} reshape(%imag.139), metadata={op_name="jit(_scan_window)/jit(main)/while/body/jit(_tau_channel_step)/jit(_sigma_channel_pipeline)/jit(shmap_body)/broadcast_in_dim" source_file="/global/homes/j/jackm/software/lorrax_C/src/gw/ppm_sigma.py" source_line=418}
  %concatenate.142 = f64[2,9,2,320,2,320]{5,4,3,2,1,0} concatenate(%reshape.140, %reshape.141), dimensions={0}, metadata={op_name="jit(_scan_window)/jit(main)/while/body/jit(_tau_channel_step)/jit(_sigma_channel_pipeline)/jit(shmap_body)/concatenate" source_file="/global/homes/j/jackm/software/lorrax_C/src/gw/ppm_sigma.py" source_line=418}
  %convert.147 = c128[2,9,2,320,2,320]{5,4,3,2,1,0} convert(%concatenate.142), metadata={op_name="jit(_scan_window)/jit(main)/while/body/jit(_tau_channel_step)/jit(_sigma_channel_pipeline)/jit(shmap_body)/kmsx,cksxty->ckmty/dot_general" source_file="/global/homes/j/jackm/software/lorrax_C/src/gw/ppm_sigma.py" source_line=428}
  %Arg_0.135 = c128[9,80,2,320]{3,2,1,0} parameter(0), metadata={op_name="[None, None, None, (\'x\',)]"}
  %real.143 = f64[9,80,2,320]{3,2,1,0} real(%Arg_0.135), metadata={op_name="jit(_scan_window)/jit(main)/while/body/jit(_tau_channel_step)/jit(_sigma_channel_pipeline)/jit(shmap_body)/real" source_file="/global/homes/j/jackm/software/lorrax_C/src/gw/ppm_sigma.py" source_line=429}
  %imag.144 = f64[9,80,2,320]{3,2,1,0} imag(%Arg_0.135), metadata={op_name="jit(_scan_window)/jit(main)/while/body/jit(_tau_channel_step)/jit(_sigma_channel_pipeline)/jit(shmap_body)/imag" source_file="/global/homes/j/jackm/software/lorrax_C/src/gw/ppm_sigma.py" source_line=429}
  %negate.145 = f64[9,80,2,320]{3,2,1,0} negate(%imag.144), metadata={op_name="jit(_scan_window)/jit(main)/while/body/jit(_tau_channel_step)/jit(_sigma_channel_pipeline)/jit(shmap_body)/neg" source_file="/global/homes/j/jackm/software/lorrax_C/src/gw/ppm_sigma.py" source_line=429}
  %complex.146 = c128[9,80,2,320]{3,2,1,0} complex(%real.143, %negate.145), metadata={op_name="jit(_scan_window)/jit(main)/while/body/jit(_tau_channel_step)/jit(_sigma_channel_pipeline)/jit(shmap_body)/complex" source_file="/global/homes/j/jackm/software/lorrax_C/src/gw/ppm_sigma.py" source_line=429}
  %dot.148 = c128[9,2,2,320,80]{4,3,2,1,0} dot(%convert.147, %complex.146), lhs_batch_dims={1}, lhs_contracting_dims={2,3}, rhs_batch_dims={0}, rhs_contracting_dims={2,3}, metadata={op_name="jit(_scan_window)/jit(main)/while/body/jit(_tau_channel_step)/jit(_sigma_channel_pipeline)/jit(shmap_body)/kmsx,cksxty->ckmty/dot_general" source_file="/global/homes/j/jackm/software/lorrax_C/src/gw/ppm_sigma.py" source_line=428}
  %transpose.149 = c128[2,9,80,2,320]{2,4,3,0,1} transpose(%dot.148), dimensions={1,0,4,2,3}, metadata={op_name="jit(_scan_window)/jit(main)/while/body/jit(_tau_channel_step)/jit(_sigma_channel_pipeline)/jit(shmap_body)/kmsx,cksxty->ckmty/transpose" source_file="/global/homes/j/jackm/software/lorrax_C/src/gw/ppm_sigma.py" source_line=428}
  %reduce-scatter.150 = c128[2,9,40,2,320]{2,4,3,0,1} reduce-scatter(%transpose.149), channel_id=1, replica_groups={{0,2},{1,3}}, use_global_device_ids=true, dimensions={2}, to_apply=%region_1.126, metadata={op_name="jit(_scan_window)/jit(main)/while/body/jit(_tau_channel_step)/jit(_sigma_channel_pipeline)/jit(shmap_body)/reduce_scatter" source_file="/global/homes/j/jackm/software/lorrax_C/src/gw/ppm_sigma.py" source_line=434}
  %dot.151 = c128[9,80,2,40]{3,2,1,0} dot(%Arg_2.137, %reduce-scatter.150), lhs_batch_dims={0}, lhs_contracting_dims={1,2}, rhs_batch_dims={1}, rhs_contracting_dims={3,4}, metadata={op_name="jit(_scan_window)/jit(main)/while/body/jit(_tau_channel_step)/jit(_sigma_channel_pipeline)/jit(shmap_body)/ckmty,ktyn->ckmn/dot_general" source_file="/global/homes/j/jackm/software/lorrax_C/src/gw/ppm_sigma.py" source_line=442}
  %transpose.152 = c128[2,9,40,80]{2,0,3,1} transpose(%dot.151), dimensions={2,0,3,1}, metadata={op_name="jit(_scan_window)/jit(main)/while/body/jit(_tau_channel_step)/jit(_sigma_channel_pipeline)/jit(shmap_body)/ckmty,ktyn->ckmn/transpose" source_file="/global/homes/j/jackm/software/lorrax_C/src/gw/ppm_sigma.py" source_line=442}
  ROOT %reduce-scatter.153 = c128[2,9,40,40]{2,0,3,1} reduce-scatter(%transpose.152), channel_id=2, replica_groups={{0,1},{2,3}}, use_global_device_ids=true, dimensions={3}, to_apply=%region_2.130, metadata={op_name="jit(_scan_window)/jit(main)/while/body/jit(_tau_channel_step)/jit(_sigma_channel_pipeline)/jit(shmap_body)/reduce_scatter" source_file="/global/homes/j/jackm/software/lorrax_C/src/gw/ppm_sigma.py" source_line=449}
}

%_sigma_channel_pipeline.154 (Arg_0.155: c128[9,2,640,80], Arg_1.156: c128[9,80,2,640], Arg_2.157: c128[9,80,2,640], Arg_3.158: c128[9,2,640,80], Arg_4.159: c128[9,80,80], Arg_5.160: c128[9,640,640]) -> c128[2,9,80,80] {
  %Arg_2.157 = c128[9,80,2,640]{3,2,1,0} parameter(2), metadata={op_name="jit(_scan_window)/jit(main)/while/body/jit(_tau_channel_step)/pjit"}
  %custom-call.193 = c128[9,80,2,640]{3,2,1,0} custom-call(%Arg_2.157), custom_call_target="Sharding", sharding={devices=[1,1,1,2,2]<=[4] last_tile_dim_replicate}, metadata={op_name="jit(_scan_window)/jit(main)/while/body/jit(_tau_channel_step)/jit(_sigma_channel_pipeline)/shard_map" source_file="/global/homes/j/jackm/software/lorrax_C/src/gw/ppm_sigma.py" source_line=520}
  %custom-call.194 = c128[9,80,2,320]{3,2,1,0} custom-call(%custom-call.193), custom_call_target="SPMDFullToShardShape", sharding={manual}, metadata={op_name="jit(_scan_window)/jit(main)/while/body/jit(_tau_channel_step)/jit(_sigma_channel_pipeline)/shard_map" source_file="/global/homes/j/jackm/software/lorrax_C/src/gw/ppm_sigma.py" source_line=520}
  %Arg_4.159 = c128[9,80,80]{2,1,0} parameter(4), metadata={op_name="jit(_scan_window)/jit(main)/while/body/jit(_tau_channel_step)/pjit"}
  %Arg_0.155 = c128[9,2,640,80]{3,2,1,0} parameter(0), metadata={op_name="jit(_scan_window)/jit(main)/while/body/jit(_tau_channel_step)/pjit"}
  %dot.166 = c128[9,80,2,640]{3,2,1,0} dot(%Arg_4.159, %Arg_0.155), lhs_batch_dims={0}, lhs_contracting_dims={1}, rhs_batch_dims={0}, rhs_contracting_dims={3}, metadata={op_name="jit(_scan_window)/jit(main)/while/body/jit(_tau_channel_step)/jit(_sigma_channel_pipeline)/ksxi,kij,kjty->ksxty/dot_general" source_file="/global/homes/j/jackm/software/lorrax_C/src/gw/greens_function_kernel.py" source_line=25}
  %Arg_1.156 = c128[9,80,2,640]{3,2,1,0} parameter(1), metadata={op_name="jit(_scan_window)/jit(main)/while/body/jit(_tau_channel_step)/pjit"}
  %real.162 = f64[9,80,2,640]{3,2,1,0} real(%Arg_1.156), metadata={op_name="jit(_scan_window)/jit(main)/while/body/jit(_tau_channel_step)/jit(_sigma_channel_pipeline)/real" source_file="/global/homes/j/jackm/software/lorrax_C/src/gw/greens_function_kernel.py" source_line=26}
  %imag.163 = f64[9,80,2,640]{3,2,1,0} imag(%Arg_1.156), metadata={op_name="jit(_scan_window)/jit(main)/while/body/jit(_tau_channel_step)/jit(_sigma_channel_pipeline)/imag" source_file="/global/homes/j/jackm/software/lorrax_C/src/gw/greens_function_kernel.py" source_line=26}
  %negate.164 = f64[9,80,2,640]{3,2,1,0} negate(%imag.163), metadata={op_name="jit(_scan_window)/jit(main)/while/body/jit(_tau_channel_step)/jit(_sigma_channel_pipeline)/neg" source_file="/global/homes/j/jackm/software/lorrax_C/src/gw/greens_function_kernel.py" source_line=26}
  %complex.165 = c128[9,80,2,640]{3,2,1,0} complex(%real.162, %negate.164), metadata={op_name="jit(_scan_window)/jit(main)/while/body/jit(_tau_channel_step)/jit(_sigma_channel_pipeline)/complex" source_file="/global/homes/j/jackm/software/lorrax_C/src/gw/greens_function_kernel.py" source_line=26}
  %dot.167 = c128[9,2,640,2,640]{4,3,2,1,0} dot(%dot.166, %complex.165), lhs_batch_dims={0}, lhs_contracting_dims={1}, rhs_batch_dims={0}, rhs_contracting_dims={1}, metadata={op_name="jit(_scan_window)/jit(main)/while/body/jit(_tau_channel_step)/jit(_sigma_channel_pipeline)/ksxi,kij,kjty->ksxty/dot_general" source_file="/global/homes/j/jackm/software/lorrax_C/src/gw/greens_function_kernel.py" source_line=25}
  %reshape.168 = c128[3,3,1,2,640,2,640]{6,5,4,3,2,1,0} reshape(%dot.167), metadata={op_name="jit(_scan_window)/jit(main)/while/body/jit(_tau_channel_step)/jit(_sigma_channel_pipeline)/reshape" source_file="/global/homes/j/jackm/software/lorrax_C/src/gw/ppm_sigma.py" source_line=495}
  %custom-call.169 = c128[3,3,1,2,640,2,640]{6,5,4,3,2,1,0} custom-call(%reshape.168), custom_call_target="Sharding", sharding={devices=[1,1,1,1,2,1,2]<=[4]}, metadata={op_name="jit(_scan_window)/jit(main)/while/body/jit(_tau_channel_step)/jit(_sigma_channel_pipeline)/sharding_constraint" source_file="/global/homes/j/jackm/software/lorrax_C/src/gw/ppm_sigma.py" source_line=495}
  %custom-call.170 = c128[3,3,1,2,640,2,640]{6,5,4,3,2,1,0} custom-call(%custom-call.169), custom_call_target="CustomSPMDPartitioning", api_version=API_VERSION_STATUS_RETURNING, metadata={op_name="jit(_scan_window)/jit(main)/while/body/jit(_tau_channel_step)/jit(_sigma_channel_pipeline)/custom_partitioning" source_file="/global/homes/j/jackm/software/lorrax_C/src/common/fft_helpers.py" source_line=157}, backend_config="140384766735328"
  %custom-call.171 = c128[3,3,1,2,640,2,640]{6,5,4,3,2,1,0} custom-call(%custom-call.170), custom_call_target="CustomSPMDPartitioning", api_version=API_VERSION_STATUS_RETURNING, metadata={op_name="jit(_scan_window)/jit(main)/while/body/jit(_tau_channel_step)/jit(_sigma_channel_pipeline)/custom_partitioning" source_file="/global/homes/j/jackm/software/lorrax_C/src/common/fft_helpers.py" source_line=157}, backend_config="140384764944576"
  %custom-call.172 = c128[3,3,1,2,640,2,640]{6,5,4,3,2,1,0} custom-call(%custom-call.171), custom_call_target="CustomSPMDPartitioning", api_version=API_VERSION_STATUS_RETURNING, metadata={op_name="jit(_scan_window)/jit(main)/while/body/jit(_tau_channel_step)/jit(_sigma_channel_pipeline)/custom_partitioning" source_file="/global/homes/j/jackm/software/lorrax_C/src/common/fft_helpers.py" source_line=157}, backend_config="140384764944720"
  %reshape.173 = c128[9,2,640,2,640]{4,3,2,1,0} reshape(%custom-call.172), metadata={op_name="jit(_scan_window)/jit(main)/while/body/jit(_tau_channel_step)/jit(_sigma_channel_pipeline)/reshape" source_file="/global/homes/j/jackm/software/lorrax_C/src/gw/ppm_sigma.py" source_line=496}
  %Arg_5.160 = c128[9,640,640]{2,1,0} parameter(5), metadata={op_name="jit(_scan_window)/jit(main)/while/body/jit(_tau_channel_step)/pjit"}
  %reshape.174 = c128[3,3,1,640,640]{4,3,2,1,0} reshape(%Arg_5.160), metadata={op_name="jit(_scan_window)/jit(main)/while/body/jit(_tau_channel_step)/jit(_sigma_channel_pipeline)/reshape" source_file="/global/homes/j/jackm/software/lorrax_C/src/gw/ppm_sigma.py" source_line=499}
  %custom-call.175 = c128[3,3,1,640,640]{4,3,2,1,0} custom-call(%reshape.174), custom_call_target="Sharding", sharding={devices=[1,1,1,2,2]<=[4]}, metadata={op_name="jit(_scan_window)/jit(main)/while/body/jit(_tau_channel_step)/jit(_sigma_channel_pipeline)/sharding_constraint" source_file="/global/homes/j/jackm/software/lorrax_C/src/gw/ppm_sigma.py" source_line=499}
  %custom-call.176 = c128[3,3,1,640,640]{4,3,2,1,0} custom-call(%custom-call.175), custom_call_target="CustomSPMDPartitioning", api_version=API_VERSION_STATUS_RETURNING, metadata={op_name="jit(_scan_window)/jit(main)/while/body/jit(_tau_channel_step)/jit(_sigma_channel_pipeline)/custom_partitioning" source_file="/global/homes/j/jackm/software/lorrax_C/src/common/fft_helpers.py" source_line=157}, backend_config="140384764945056"
  %custom-call.177 = c128[3,3,1,640,640]{4,3,2,1,0} custom-call(%custom-call.176), custom_call_target="CustomSPMDPartitioning", api_version=API_VERSION_STATUS_RETURNING, metadata={op_name="jit(_scan_window)/jit(main)/while/body/jit(_tau_channel_step)/jit(_sigma_channel_pipeline)/custom_partitioning" source_file="/global/homes/j/jackm/software/lorrax_C/src/common/fft_helpers.py" source_line=157}, backend_config="140384764945392"
  %custom-call.178 = c128[3,3,1,640,640]{4,3,2,1,0} custom-call(%custom-call.177), custom_call_target="CustomSPMDPartitioning", api_version=API_VERSION_STATUS_RETURNING, metadata={op_name="jit(_scan_window)/jit(main)/while/body/jit(_tau_channel_step)/jit(_sigma_channel_pipeline)/custom_partitioning" source_file="/global/homes/j/jackm/software/lorrax_C/src/common/fft_helpers.py" source_line=157}, backend_config="140384764945632"
  %reshape.179 = c128[9,1,640,1,640]{4,3,2,1,0} reshape(%custom-call.178), metadata={op_name="jit(_scan_window)/jit(main)/while/body/jit(_tau_channel_step)/jit(_sigma_channel_pipeline)/broadcast_in_dim" source_file="/global/homes/j/jackm/software/lorrax_C/src/gw/ppm_sigma.py" source_line=518}
  %broadcast.180 = c128[9,1,640,1,640]{4,3,2,1,0} broadcast(%reshape.179), dimensions={0,1,2,3,4}, metadata={op_name="jit(_scan_window)/jit(main)/while/body/jit(_tau_channel_step)/jit(_sigma_channel_pipeline)/mul" source_file="/global/homes/j/jackm/software/lorrax_C/src/gw/ppm_sigma.py" source_line=519}
  %reshape.181 = c128[9,640,640]{2,1,0} reshape(%broadcast.180), metadata={op_name="jit(_scan_window)/jit(main)/while/body/jit(_tau_channel_step)/jit(_sigma_channel_pipeline)/mul" source_file="/global/homes/j/jackm/software/lorrax_C/src/gw/ppm_sigma.py" source_line=519}
  %broadcast.182 = c128[9,2,640,2,640]{4,3,2,1,0} broadcast(%reshape.181), dimensions={0,2,4}, metadata={op_name="jit(_scan_window)/jit(main)/while/body/jit(_tau_channel_step)/jit(_sigma_channel_pipeline)/mul" source_file="/global/homes/j/jackm/software/lorrax_C/src/gw/ppm_sigma.py" source_line=519}
  %multiply.183 = c128[9,2,640,2,640]{4,3,2,1,0} multiply(%reshape.173, %broadcast.182), metadata={op_name="jit(_scan_window)/jit(main)/while/body/jit(_tau_channel_step)/jit(_sigma_channel_pipeline)/mul" source_file="/global/homes/j/jackm/software/lorrax_C/src/gw/ppm_sigma.py" source_line=519}
  %constant.161 = f64[] constant(-0.33333333333333331)
  %convert.184 = c128[] convert(%constant.161), metadata={op_name="jit(_scan_window)/jit(main)/while/body/jit(_tau_channel_step)/jit(_sigma_channel_pipeline)/convert_element_type" source_file="/global/homes/j/jackm/software/lorrax_C/src/gw/ppm_sigma.py" source_line=519}
  %broadcast.185 = c128[9,2,640,2,640]{4,3,2,1,0} broadcast(%convert.184), dimensions={}, metadata={op_name="jit(_scan_window)/jit(main)/while/body/jit(_tau_channel_step)/jit(_sigma_channel_pipeline)/mul" source_file="/global/homes/j/jackm/software/lorrax_C/src/gw/ppm_sigma.py" source_line=519}
  %multiply.186 = c128[9,2,640,2,640]{4,3,2,1,0} multiply(%multiply.183, %broadcast.185), metadata={op_name="jit(_scan_window)/jit(main)/while/body/jit(_tau_channel_step)/jit(_sigma_channel_pipeline)/mul" source_file="/global/homes/j/jackm/software/lorrax_C/src/gw/ppm_sigma.py" source_line=519}
  %reshape.187 = c128[3,3,1,2,640,2,640]{6,5,4,3,2,1,0} reshape(%multiply.186), metadata={op_name="jit(_scan_window)/jit(main)/while/body/jit(_tau_channel_step)/jit(_sigma_channel_pipeline)/reshape" source_file="/global/homes/j/jackm/software/lorrax_C/src/gw/ppm_sigma.py" source_line=495}
  %custom-call.188 = c128[3,3,1,2,640,2,640]{6,5,4,3,2,1,0} custom-call(%reshape.187), custom_call_target="Sharding", sharding={devices=[1,1,1,1,2,1,2]<=[4]}, metadata={op_name="jit(_scan_window)/jit(main)/while/body/jit(_tau_channel_step)/jit(_sigma_channel_pipeline)/sharding_constraint" source_file="/global/homes/j/jackm/software/lorrax_C/src/gw/ppm_sigma.py" source_line=495}
  %custom-call.189 = c128[3,3,1,2,640,2,640]{6,5,4,3,2,1,0} custom-call(%custom-call.188), custom_call_target="CustomSPMDPartitioning", api_version=API_VERSION_STATUS_RETURNING, metadata={op_name="jit(_scan_window)/jit(main)/while/body/jit(_tau_channel_step)/jit(_sigma_channel_pipeline)/custom_partitioning" source_file="/global/homes/j/jackm/software/lorrax_C/src/common/fft_helpers.py" source_line=157}, backend_config="140384764946496"
  %custom-call.190 = c128[3,3,1,2,640,2,640]{6,5,4,3,2,1,0} custom-call(%custom-call.189), custom_call_target="CustomSPMDPartitioning", api_version=API_VERSION_STATUS_RETURNING, metadata={op_name="jit(_scan_window)/jit(main)/while/body/jit(_tau_channel_step)/jit(_sigma_channel_pipeline)/custom_partitioning" source_file="/global/homes/j/jackm/software/lorrax_C/src/common/fft_helpers.py" source_line=157}, backend_config="140384764946832"
  %custom-call.191 = c128[3,3,1,2,640,2,640]{6,5,4,3,2,1,0} custom-call(%custom-call.190), custom_call_target="CustomSPMDPartitioning", api_version=API_VERSION_STATUS_RETURNING, metadata={op_name="jit(_scan_window)/jit(main)/while/body/jit(_tau_channel_step)/jit(_sigma_channel_pipeline)/custom_partitioning" source_file="/global/homes/j/jackm/software/lorrax_C/src/common/fft_helpers.py" source_line=157}, backend_config="140384764947072"
  %reshape.192 = c128[9,2,640,2,640]{4,3,2,1,0} reshape(%custom-call.191), metadata={op_name="jit(_scan_window)/jit(main)/while/body/jit(_tau_channel_step)/jit(_sigma_channel_pipeline)/reshape" source_file="/global/homes/j/jackm/software/lorrax_C/src/gw/ppm_sigma.py" source_line=496}
  %custom-call.195 = c128[9,2,640,2,640]{4,3,2,1,0} custom-call(%reshape.192), custom_call_target="Sharding", sharding={devices=[1,1,2,1,2]<=[4]}, metadata={op_name="jit(_scan_window)/jit(main)/while/body/jit(_tau_channel_step)/jit(_sigma_channel_pipeline)/shard_map" source_file="/global/homes/j/jackm/software/lorrax_C/src/gw/ppm_sigma.py" source_line=520}
  %custom-call.196 = c128[9,2,320,2,320]{4,3,2,1,0} custom-call(%custom-call.195), custom_call_target="SPMDFullToShardShape", sharding={manual}, metadata={op_name="jit(_scan_window)/jit(main)/while/body/jit(_tau_channel_step)/jit(_sigma_channel_pipeline)/shard_map" source_file="/global/homes/j/jackm/software/lorrax_C/src/gw/ppm_sigma.py" source_line=520}
  %Arg_3.158 = c128[9,2,640,80]{3,2,1,0} parameter(3), metadata={op_name="jit(_scan_window)/jit(main)/while/body/jit(_tau_channel_step)/pjit"}
  %custom-call.197 = c128[9,2,640,80]{3,2,1,0} custom-call(%Arg_3.158), custom_call_target="Sharding", sharding={devices=[1,1,2,1,2]<=[2,2]T(1,0) last_tile_dim_replicate}, metadata={op_name="jit(_scan_window)/jit(main)/while/body/jit(_tau_channel_step)/jit(_sigma_channel_pipeline)/shard_map" source_file="/global/homes/j/jackm/software/lorrax_C/src/gw/ppm_sigma.py" source_line=520}
  %custom-call.198 = c128[9,2,320,80]{3,2,1,0} custom-call(%custom-call.197), custom_call_target="SPMDFullToShardShape", sharding={manual}, metadata={op_name="jit(_scan_window)/jit(main)/while/body/jit(_tau_channel_step)/jit(_sigma_channel_pipeline)/shard_map" source_file="/global/homes/j/jackm/software/lorrax_C/src/gw/ppm_sigma.py" source_line=520}
  %call.199 = c128[2,9,40,40]{2,0,3,1} call(%custom-call.194, %custom-call.196, %custom-call.198), to_apply=%shmap_body.134
  %custom-call.200 = c128[2,9,40,40]{3,2,1,0} custom-call(%call.199), custom_call_target="Sharding", sharding={manual}, metadata={op_name="jit(_scan_window)/jit(main)/while/body/jit(_tau_channel_step)/jit(_sigma_channel_pipeline)/shard_map" source_file="/global/homes/j/jackm/software/lorrax_C/src/gw/ppm_sigma.py" source_line=520}
  ROOT %custom-call.201 = c128[2,9,80,80]{3,2,1,0} custom-call(%custom-call.200), custom_call_target="SPMDShardToFullShape", sharding={devices=[1,1,2,2]<=[4]}, metadata={op_name="jit(_scan_window)/jit(main)/while/body/jit(_tau_channel_step)/jit(_sigma_channel_pipeline)/shard_map" source_file="/global/homes/j/jackm/software/lorrax_C/src/gw/ppm_sigma.py" source_line=520}
}

%_tau_channel_step.202 (Arg_0.203: c128[9,2,640,80], Arg_1.204: c128[9,80,2,640], Arg_2.205: c128[9,80,2,640], Arg_3.206: c128[9,2,640,80], Arg_4.207: f64[9,80], Arg_5.208: pred[9,80], Arg_6.209: c128[9,640,640], Arg_7.210: f64[9,640,640], Arg_8.211: pred[9,640,640], Arg_9.212: f64[], Arg_10.213: f64[], Arg_11.214: c128[], Arg_12.215: c128[80,80]) -> c128[2,9,80,80] {
  %Arg_0.203 = c128[9,2,640,80]{3,2,1,0} parameter(0), metadata={op_name="jit(_scan_window)/jit(main)/while/body/pjit"}
  %Arg_1.204 = c128[9,80,2,640]{3,2,1,0} parameter(1), metadata={op_name="jit(_scan_window)/jit(main)/while/body/pjit"}
  %Arg_2.205 = c128[9,80,2,640]{3,2,1,0} parameter(2), metadata={op_name="jit(_scan_window)/jit(main)/while/body/pjit"}
  %Arg_3.206 = c128[9,2,640,80]{3,2,1,0} parameter(3), metadata={op_name="jit(_scan_window)/jit(main)/while/body/pjit"}
  %Arg_4.207 = f64[9,80]{1,0} parameter(4), metadata={op_name="jit(_scan_window)/jit(main)/while/body/pjit"}
  %Arg_5.208 = pred[9,80]{1,0} parameter(5), metadata={op_name="jit(_scan_window)/jit(main)/while/body/pjit"}
  %Arg_6.209 = c128[9,640,640]{2,1,0} parameter(6), metadata={op_name="jit(_scan_window)/jit(main)/while/body/pjit"}
  %Arg_7.210 = f64[9,640,640]{2,1,0} parameter(7), metadata={op_name="jit(_scan_window)/jit(main)/while/body/pjit"}
  %Arg_8.211 = pred[9,640,640]{2,1,0} parameter(8), metadata={op_name="jit(_scan_window)/jit(main)/while/body/pjit"}
  %Arg_9.212 = f64[] parameter(9), metadata={op_name="jit(_scan_window)/jit(main)/while/body/pjit"}
  %Arg_10.213 = f64[] parameter(10), metadata={op_name="jit(_scan_window)/jit(main)/while/body/pjit"}
  %Arg_11.214 = c128[] parameter(11), metadata={op_name="jit(_scan_window)/jit(main)/while/body/pjit"}
  %Arg_12.215 = c128[80,80]{1,0} parameter(12), metadata={op_name="jit(_scan_window)/jit(main)/while/body/pjit"}
  %call.216 = (c128[9,80,80]{2,1,0}, c128[9,640,640]{2,1,0}) call(%Arg_4.207, %Arg_5.208, %Arg_6.209, %Arg_7.210, %Arg_8.211, /*index=5*/%Arg_9.212, %Arg_10.213, %Arg_11.214, %Arg_12.215), to_apply=%_build_tau_operands.35
  %get-tuple-element.217 = c128[9,80,80]{2,1,0} get-tuple-element(%call.216), index=0
  %get-tuple-element.218 = c128[9,640,640]{2,1,0} get-tuple-element(%call.216), index=1
  ROOT %call.219 = c128[2,9,80,80]{3,2,1,0} call(%Arg_0.203, %Arg_1.204, %Arg_2.205, %Arg_3.206, %get-tuple-element.217, /*index=5*/%get-tuple-element.218), to_apply=%_sigma_channel_pipeline.154
}

%region_3.220 (arg_tuple.221: (c128[9,80,80], c128[9,80,80], f64[21,1,1,1], f64[21,1,1,1])) -> c128[21,9,80,80] {
  %arg_tuple.221 = (c128[9,80,80]{2,1,0}, c128[9,80,80]{2,1,0}, f64[21,1,1,1]{3,2,1,0}, f64[21,1,1,1]{3,2,1,0}) parameter(0)
  %get-tuple-element.225 = f64[21,1,1,1]{3,2,1,0} get-tuple-element(%arg_tuple.221), index=3
  %convert.236 = c128[21,1,1,1]{3,2,1,0} convert(%get-tuple-element.225), metadata={op_name="jit(_scan_window)/jit(main)/while/body/jit(_accumulate_tau_into_window)/jit(_project_tau_onto_omega)/cond/branch_0_fun/convert_element_type" source_file="/global/homes/j/jackm/software/lorrax_C/src/gw/ppm_sigma.py" source_line=317}
  %get-tuple-element.224 = f64[21,1,1,1]{3,2,1,0} get-tuple-element(%arg_tuple.221), index=2
  %convert.234 = c128[21,1,1,1]{3,2,1,0} convert(%get-tuple-element.224), metadata={op_name="jit(_scan_window)/jit(main)/while/body/jit(_accumulate_tau_into_window)/jit(_project_tau_onto_omega)/cond/branch_0_fun/convert_element_type" source_file="/global/homes/j/jackm/software/lorrax_C/src/gw/ppm_sigma.py" source_line=317}
  %constant.226 = c128[] constant((0, 1))
  %broadcast.227 = c128[21,1,1,1]{3,2,1,0} broadcast(%constant.226), dimensions={}
  %multiply.235 = c128[21,1,1,1]{3,2,1,0} multiply(%convert.234, %broadcast.227), metadata={op_name="jit(_scan_window)/jit(main)/while/body/jit(_accumulate_tau_into_window)/jit(_project_tau_onto_omega)/cond/branch_0_fun/mul" source_file="/global/homes/j/jackm/software/lorrax_C/src/gw/ppm_sigma.py" source_line=317}
  %add.237 = c128[21,1,1,1]{3,2,1,0} add(%convert.236, %multiply.235), metadata={op_name="jit(_scan_window)/jit(main)/while/body/jit(_accumulate_tau_into_window)/jit(_project_tau_onto_omega)/cond/branch_0_fun/add" source_file="/global/homes/j/jackm/software/lorrax_C/src/gw/ppm_sigma.py" source_line=317}
  %broadcast.238 = c128[21,1,1,1]{3,2,1,0} broadcast(%add.237), dimensions={0,1,2,3}, metadata={op_name="jit(_scan_window)/jit(main)/while/body/jit(_accumulate_tau_into_window)/jit(_project_tau_onto_omega)/cond/branch_0_fun/mul" source_file="/global/homes/j/jackm/software/lorrax_C/src/gw/ppm_sigma.py" source_line=317}
  %reshape.239 = c128[21]{0} reshape(%broadcast.238), metadata={op_name="jit(_scan_window)/jit(main)/while/body/jit(_accumulate_tau_into_window)/jit(_project_tau_onto_omega)/cond/branch_0_fun/mul" source_file="/global/homes/j/jackm/software/lorrax_C/src/gw/ppm_sigma.py" source_line=317}
  %broadcast.240 = c128[21,9,80,80]{3,2,1,0} broadcast(%reshape.239), dimensions={0}, metadata={op_name="jit(_scan_window)/jit(main)/while/body/jit(_accumulate_tau_into_window)/jit(_project_tau_onto_omega)/cond/branch_0_fun/mul" source_file="/global/homes/j/jackm/software/lorrax_C/src/gw/ppm_sigma.py" source_line=317}
  %get-tuple-element.222 = c128[9,80,80]{2,1,0} get-tuple-element(%arg_tuple.221), index=0
  %reshape.230 = c128[1,9,80,80]{3,2,1,0} reshape(%get-tuple-element.222), metadata={op_name="jit(_scan_window)/jit(main)/while/body/jit(_accumulate_tau_into_window)/jit(_project_tau_onto_omega)/cond/branch_0_fun/broadcast_in_dim" source_file="/global/homes/j/jackm/software/lorrax_C/src/gw/ppm_sigma.py" source_line=316}
  %get-tuple-element.223 = c128[9,80,80]{2,1,0} get-tuple-element(%arg_tuple.221), index=1
  %reshape.231 = c128[1,9,80,80]{3,2,1,0} reshape(%get-tuple-element.223), metadata={op_name="jit(_scan_window)/jit(main)/while/body/jit(_accumulate_tau_into_window)/jit(_project_tau_onto_omega)/cond/branch_0_fun/broadcast_in_dim" source_file="/global/homes/j/jackm/software/lorrax_C/src/gw/ppm_sigma.py" source_line=316}
  %constant.228 = c128[] constant((0, 1))
  %broadcast.229 = c128[1,9,80,80]{3,2,1,0} broadcast(%constant.228), dimensions={}
  %multiply.232 = c128[1,9,80,80]{3,2,1,0} multiply(%reshape.231, %broadcast.229), metadata={op_name="jit(_scan_window)/jit(main)/while/body/jit(_accumulate_tau_into_window)/jit(_project_tau_onto_omega)/cond/branch_0_fun/mul" source_file="/global/homes/j/jackm/software/lorrax_C/src/gw/ppm_sigma.py" source_line=316}
  %add.233 = c128[1,9,80,80]{3,2,1,0} add(%reshape.230, %multiply.232), metadata={op_name="jit(_scan_window)/jit(main)/while/body/jit(_accumulate_tau_into_window)/jit(_project_tau_onto_omega)/cond/branch_0_fun/add" source_file="/global/homes/j/jackm/software/lorrax_C/src/gw/ppm_sigma.py" source_line=316}
  %broadcast.241 = c128[1,9,80,80]{3,2,1,0} broadcast(%add.233), dimensions={0,1,2,3}, metadata={op_name="jit(_scan_window)/jit(main)/while/body/jit(_accumulate_tau_into_window)/jit(_project_tau_onto_omega)/cond/branch_0_fun/mul" source_file="/global/homes/j/jackm/software/lorrax_C/src/gw/ppm_sigma.py" source_line=317}
  %reshape.242 = c128[9,80,80]{2,1,0} reshape(%broadcast.241), metadata={op_name="jit(_scan_window)/jit(main)/while/body/jit(_accumulate_tau_into_window)/jit(_project_tau_onto_omega)/cond/branch_0_fun/mul" source_file="/global/homes/j/jackm/software/lorrax_C/src/gw/ppm_sigma.py" source_line=317}
  %broadcast.243 = c128[21,9,80,80]{3,2,1,0} broadcast(%reshape.242), dimensions={1,2,3}, metadata={op_name="jit(_scan_window)/jit(main)/while/body/jit(_accumulate_tau_into_window)/jit(_project_tau_onto_omega)/cond/branch_0_fun/mul" source_file="/global/homes/j/jackm/software/lorrax_C/src/gw/ppm_sigma.py" source_line=317}
  ROOT %multiply.244 = c128[21,9,80,80]{3,2,1,0} multiply(%broadcast.240, %broadcast.243), metadata={op_name="jit(_scan_window)/jit(main)/while/body/jit(_accumulate_tau_into_window)/jit(_project_tau_onto_omega)/cond/branch_0_fun/mul" source_file="/global/homes/j/jackm/software/lorrax_C/src/gw/ppm_sigma.py" source_line=317}
}

%region_4.245 (arg_tuple.246: (c128[9,80,80], f64[21,1,1,1], c128[9,80,80], f64[21,1,1,1])) -> c128[21,9,80,80] {
  %arg_tuple.246 = (c128[9,80,80]{2,1,0}, f64[21,1,1,1]{3,2,1,0}, c128[9,80,80]{2,1,0}, f64[21,1,1,1]{3,2,1,0}) parameter(0)
  %get-tuple-element.248 = f64[21,1,1,1]{3,2,1,0} get-tuple-element(%arg_tuple.246), index=1
  %convert.252 = c128[21,1,1,1]{3,2,1,0} convert(%get-tuple-element.248), metadata={op_name="jit(_scan_window)/jit(main)/while/body/jit(_accumulate_tau_into_window)/jit(_project_tau_onto_omega)/cond/branch_1_fun/convert_element_type" source_file="/global/homes/j/jackm/software/lorrax_C/src/gw/ppm_sigma.py" source_line=320}
  %broadcast.253 = c128[21,1,1,1]{3,2,1,0} broadcast(%convert.252), dimensions={0,1,2,3}, metadata={op_name="jit(_scan_window)/jit(main)/while/body/jit(_accumulate_tau_into_window)/jit(_project_tau_onto_omega)/cond/branch_1_fun/mul" source_file="/global/homes/j/jackm/software/lorrax_C/src/gw/ppm_sigma.py" source_line=320}
  %reshape.254 = c128[21]{0} reshape(%broadcast.253), metadata={op_name="jit(_scan_window)/jit(main)/while/body/jit(_accumulate_tau_into_window)/jit(_project_tau_onto_omega)/cond/branch_1_fun/mul" source_file="/global/homes/j/jackm/software/lorrax_C/src/gw/ppm_sigma.py" source_line=320}
  %broadcast.255 = c128[21,9,80,80]{3,2,1,0} broadcast(%reshape.254), dimensions={0}, metadata={op_name="jit(_scan_window)/jit(main)/while/body/jit(_accumulate_tau_into_window)/jit(_project_tau_onto_omega)/cond/branch_1_fun/mul" source_file="/global/homes/j/jackm/software/lorrax_C/src/gw/ppm_sigma.py" source_line=320}
  %get-tuple-element.247 = c128[9,80,80]{2,1,0} get-tuple-element(%arg_tuple.246), index=0
  %reshape.251 = c128[1,9,80,80]{3,2,1,0} reshape(%get-tuple-element.247), metadata={op_name="jit(_scan_window)/jit(main)/while/body/jit(_accumulate_tau_into_window)/jit(_project_tau_onto_omega)/cond/branch_1_fun/broadcast_in_dim" source_file="/global/homes/j/jackm/software/lorrax_C/src/gw/ppm_sigma.py" source_line=320}
  %broadcast.256 = c128[1,9,80,80]{3,2,1,0} broadcast(%reshape.251), dimensions={0,1,2,3}, metadata={op_name="jit(_scan_window)/jit(main)/while/body/jit(_accumulate_tau_into_window)/jit(_project_tau_onto_omega)/cond/branch_1_fun/mul" source_file="/global/homes/j/jackm/software/lorrax_C/src/gw/ppm_sigma.py" source_line=320}
  %reshape.257 = c128[9,80,80]{2,1,0} reshape(%broadcast.256), metadata={op_name="jit(_scan_window)/jit(main)/while/body/jit(_accumulate_tau_into_window)/jit(_project_tau_onto_omega)/cond/branch_1_fun/mul" source_file="/global/homes/j/jackm/software/lorrax_C/src/gw/ppm_sigma.py" source_line=320}
  %broadcast.258 = c128[21,9,80,80]{3,2,1,0} broadcast(%reshape.257), dimensions={1,2,3}, metadata={op_name="jit(_scan_window)/jit(main)/while/body/jit(_accumulate_tau_into_window)/jit(_project_tau_onto_omega)/cond/branch_1_fun/mul" source_file="/global/homes/j/jackm/software/lorrax_C/src/gw/ppm_sigma.py" source_line=320}
  %multiply.259 = c128[21,9,80,80]{3,2,1,0} multiply(%broadcast.255, %broadcast.258), metadata={op_name="jit(_scan_window)/jit(main)/while/body/jit(_accumulate_tau_into_window)/jit(_project_tau_onto_omega)/cond/branch_1_fun/mul" source_file="/global/homes/j/jackm/software/lorrax_C/src/gw/ppm_sigma.py" source_line=320}
  %get-tuple-element.250 = f64[21,1,1,1]{3,2,1,0} get-tuple-element(%arg_tuple.246), index=3
  %convert.261 = c128[21,1,1,1]{3,2,1,0} convert(%get-tuple-element.250), metadata={op_name="jit(_scan_window)/jit(main)/while/body/jit(_accumulate_tau_into_window)/jit(_project_tau_onto_omega)/cond/branch_1_fun/convert_element_type" source_file="/global/homes/j/jackm/software/lorrax_C/src/gw/ppm_sigma.py" source_line=320}
  %broadcast.262 = c128[21,1,1,1]{3,2,1,0} broadcast(%convert.261), dimensions={0,1,2,3}, metadata={op_name="jit(_scan_window)/jit(main)/while/body/jit(_accumulate_tau_into_window)/jit(_project_tau_onto_omega)/cond/branch_1_fun/mul" source_file="/global/homes/j/jackm/software/lorrax_C/src/gw/ppm_sigma.py" source_line=320}
  %reshape.263 = c128[21]{0} reshape(%broadcast.262), metadata={op_name="jit(_scan_window)/jit(main)/while/body/jit(_accumulate_tau_into_window)/jit(_project_tau_onto_omega)/cond/branch_1_fun/mul" source_file="/global/homes/j/jackm/software/lorrax_C/src/gw/ppm_sigma.py" source_line=320}
  %broadcast.264 = c128[21,9,80,80]{3,2,1,0} broadcast(%reshape.263), dimensions={0}, metadata={op_name="jit(_scan_window)/jit(main)/while/body/jit(_accumulate_tau_into_window)/jit(_project_tau_onto_omega)/cond/branch_1_fun/mul" source_file="/global/homes/j/jackm/software/lorrax_C/src/gw/ppm_sigma.py" source_line=320}
  %get-tuple-element.249 = c128[9,80,80]{2,1,0} get-tuple-element(%arg_tuple.246), index=2
  %reshape.260 = c128[1,9,80,80]{3,2,1,0} reshape(%get-tuple-element.249), metadata={op_name="jit(_scan_window)/jit(main)/while/body/jit(_accumulate_tau_into_window)/jit(_project_tau_onto_omega)/cond/branch_1_fun/broadcast_in_dim" source_file="/global/homes/j/jackm/software/lorrax_C/src/gw/ppm_sigma.py" source_line=320}
  %broadcast.265 = c128[1,9,80,80]{3,2,1,0} broadcast(%reshape.260), dimensions={0,1,2,3}, metadata={op_name="jit(_scan_window)/jit(main)/while/body/jit(_accumulate_tau_into_window)/jit(_project_tau_onto_omega)/cond/branch_1_fun/mul" source_file="/global/homes/j/jackm/software/lorrax_C/src/gw/ppm_sigma.py" source_line=320}
  %reshape.266 = c128[9,80,80]{2,1,0} reshape(%broadcast.265), metadata={op_name="jit(_scan_window)/jit(main)/while/body/jit(_accumulate_tau_into_window)/jit(_project_tau_onto_omega)/cond/branch_1_fun/mul" source_file="/global/homes/j/jackm/software/lorrax_C/src/gw/ppm_sigma.py" source_line=320}
  %broadcast.267 = c128[21,9,80,80]{3,2,1,0} broadcast(%reshape.266), dimensions={1,2,3}, metadata={op_name="jit(_scan_window)/jit(main)/while/body/jit(_accumulate_tau_into_window)/jit(_project_tau_onto_omega)/cond/branch_1_fun/mul" source_file="/global/homes/j/jackm/software/lorrax_C/src/gw/ppm_sigma.py" source_line=320}
  %multiply.268 = c128[21,9,80,80]{3,2,1,0} multiply(%broadcast.264, %broadcast.267), metadata={op_name="jit(_scan_window)/jit(main)/while/body/jit(_accumulate_tau_into_window)/jit(_project_tau_onto_omega)/cond/branch_1_fun/mul" source_file="/global/homes/j/jackm/software/lorrax_C/src/gw/ppm_sigma.py" source_line=320}
  ROOT %add.269 = c128[21,9,80,80]{3,2,1,0} add(%multiply.259, %multiply.268), metadata={op_name="jit(_scan_window)/jit(main)/while/body/jit(_accumulate_tau_into_window)/jit(_project_tau_onto_omega)/cond/branch_1_fun/add" source_file="/global/homes/j/jackm/software/lorrax_C/src/gw/ppm_sigma.py" source_line=320}
}

%_project_tau_onto_omega.270 (Arg_0.271: c128[9,80,80], Arg_1.272: c128[9,80,80], Arg_2.273: f64[21], Arg_3.274: c128[], Arg_4.275: c128[], Arg_5.276: f64[], Arg_6.277: f64[], Arg_7.278: s32[]) -> c128[21,9,80,80] {
  %Arg_6.277 = f64[] parameter(6), metadata={op_name="jit(_scan_window)/jit(main)/while/body/jit(_accumulate_tau_into_window)/pjit"}
  %convert.324 = c128[] convert(%Arg_6.277), metadata={op_name="jit(_scan_window)/jit(main)/while/body/jit(_accumulate_tau_into_window)/jit(_project_tau_onto_omega)/convert_element_type" source_file="/global/homes/j/jackm/software/lorrax_C/src/gw/ppm_sigma.py" source_line=353}
  %broadcast.325 = c128[21,9,80,80]{3,2,1,0} broadcast(%convert.324), dimensions={}, metadata={op_name="jit(_scan_window)/jit(main)/while/body/jit(_accumulate_tau_into_window)/jit(_project_tau_onto_omega)/mul" source_file="/global/homes/j/jackm/software/lorrax_C/src/gw/ppm_sigma.py" source_line=353}
  %constant.286 = s32[] constant(0)
  %Arg_7.278 = s32[] parameter(7), metadata={op_name="jit(_scan_window)/jit(main)/while/body/jit(_accumulate_tau_into_window)/pjit"}
  %constant.285 = s32[] constant(1)
  %clamp.320 = s32[] clamp(%constant.286, %Arg_7.278, %constant.285), metadata={op_name="jit(_scan_window)/jit(main)/while/body/jit(_accumulate_tau_into_window)/jit(_project_tau_onto_omega)/clamp" source_file="/global/homes/j/jackm/software/lorrax_C/src/gw/ppm_sigma.py" source_line=322}
  %Arg_0.271 = c128[9,80,80]{2,1,0} parameter(0), metadata={op_name="jit(_scan_window)/jit(main)/while/body/jit(_accumulate_tau_into_window)/pjit"}
  %Arg_1.272 = c128[9,80,80]{2,1,0} parameter(1), metadata={op_name="jit(_scan_window)/jit(main)/while/body/jit(_accumulate_tau_into_window)/pjit"}
  %Arg_4.275 = c128[] parameter(4), metadata={op_name="jit(_scan_window)/jit(main)/while/body/jit(_accumulate_tau_into_window)/pjit"}
  %broadcast.314 = c128[21]{0} broadcast(%Arg_4.275), dimensions={}, metadata={op_name="jit(_scan_window)/jit(main)/while/body/jit(_accumulate_tau_into_window)/jit(_project_tau_onto_omega)/mul" source_file="/global/homes/j/jackm/software/lorrax_C/src/gw/ppm_sigma.py" source_line=347}
  %Arg_5.276 = f64[] parameter(5), metadata={op_name="jit(_scan_window)/jit(main)/while/body/jit(_accumulate_tau_into_window)/pjit"}
  %convert.288 = c128[] convert(%Arg_5.276), metadata={op_name="jit(_scan_window)/jit(main)/while/body/jit(_accumulate_tau_into_window)/jit(_project_tau_onto_omega)/convert_element_type" source_file="/global/homes/j/jackm/software/lorrax_C/src/gw/ppm_sigma.py" source_line=346}
  %constant.287 = c128[] constant((0, 1))
  %multiply.289 = c128[] multiply(%convert.288, %constant.287), metadata={op_name="jit(_scan_window)/jit(main)/while/body/jit(_accumulate_tau_into_window)/jit(_project_tau_onto_omega)/mul" source_file="/global/homes/j/jackm/software/lorrax_C/src/gw/ppm_sigma.py" source_line=346}
  %broadcast.291 = c128[21]{0} broadcast(%multiply.289), dimensions={}, metadata={op_name="jit(_scan_window)/jit(main)/while/body/jit(_accumulate_tau_into_window)/jit(_project_tau_onto_omega)/mul" source_file="/global/homes/j/jackm/software/lorrax_C/src/gw/ppm_sigma.py" source_line=346}
  %Arg_2.273 = f64[21]{0} parameter(2), metadata={op_name="jit(_scan_window)/jit(main)/while/body/jit(_accumulate_tau_into_window)/pjit"}
  %convert.290 = c128[21]{0} convert(%Arg_2.273), metadata={op_name="jit(_scan_window)/jit(main)/while/body/jit(_accumulate_tau_into_window)/jit(_project_tau_onto_omega)/convert_element_type" source_file="/global/homes/j/jackm/software/lorrax_C/src/gw/ppm_sigma.py" source_line=346}
  %multiply.292 = c128[21]{0} multiply(%broadcast.291, %convert.290), metadata={op_name="jit(_scan_window)/jit(main)/while/body/jit(_accumulate_tau_into_window)/jit(_project_tau_onto_omega)/mul" source_file="/global/homes/j/jackm/software/lorrax_C/src/gw/ppm_sigma.py" source_line=346}
  %Arg_3.274 = c128[] parameter(3), metadata={op_name="jit(_scan_window)/jit(main)/while/body/jit(_accumulate_tau_into_window)/pjit"}
  %broadcast.293 = c128[21]{0} broadcast(%Arg_3.274), dimensions={}, metadata={op_name="jit(_scan_window)/jit(main)/while/body/jit(_accumulate_tau_into_window)/jit(_project_tau_onto_omega)/mul" source_file="/global/homes/j/jackm/software/lorrax_C/src/gw/ppm_sigma.py" source_line=346}
  %multiply.294 = c128[21]{0} multiply(%multiply.292, %broadcast.293), metadata={op_name="jit(_scan_window)/jit(main)/while/body/jit(_accumulate_tau_into_window)/jit(_project_tau_onto_omega)/mul" source_file="/global/homes/j/jackm/software/lorrax_C/src/gw/ppm_sigma.py" source_line=346}
  %real.295 = f64[21]{0} real(%multiply.294), metadata={op_name="jit(_scan_window)/jit(main)/while/body/jit(_accumulate_tau_into_window)/jit(_project_tau_onto_omega)/exp" source_file="/global/homes/j/jackm/software/lorrax_C/src/gw/ppm_sigma.py" source_line=346}
  %exponential.296 = f64[21]{0} exponential(%real.295), metadata={op_name="jit(_scan_window)/jit(main)/while/body/jit(_accumulate_tau_into_window)/jit(_project_tau_onto_omega)/exp" source_file="/global/homes/j/jackm/software/lorrax_C/src/gw/ppm_sigma.py" source_line=346}
  %constant.283 = f64[] constant(inf)
  %broadcast.284 = f64[21]{0} broadcast(%constant.283), dimensions={}
  %compare.297 = pred[21]{0} compare(%exponential.296, %broadcast.284), direction=EQ, metadata={op_name="jit(_scan_window)/jit(main)/while/body/jit(_accumulate_tau_into_window)/jit(_project_tau_onto_omega)/exp" source_file="/global/homes/j/jackm/software/lorrax_C/src/gw/ppm_sigma.py" source_line=346}
  %constant.281 = f64[] constant(0.5)
  %broadcast.282 = f64[21]{0} broadcast(%constant.281), dimensions={}
  %multiply.298 = f64[21]{0} multiply(%real.295, %broadcast.282), metadata={op_name="jit(_scan_window)/jit(main)/while/body/jit(_accumulate_tau_into_window)/jit(_project_tau_onto_omega)/exp" source_file="/global/homes/j/jackm/software/lorrax_C/src/gw/ppm_sigma.py" source_line=346}
  %exponential.299 = f64[21]{0} exponential(%multiply.298), metadata={op_name="jit(_scan_window)/jit(main)/while/body/jit(_accumulate_tau_into_window)/jit(_project_tau_onto_omega)/exp" source_file="/global/homes/j/jackm/software/lorrax_C/src/gw/ppm_sigma.py" source_line=346}
  %imag.300 = f64[21]{0} imag(%multiply.294), metadata={op_name="jit(_scan_window)/jit(main)/while/body/jit(_accumulate_tau_into_window)/jit(_project_tau_onto_omega)/exp" source_file="/global/homes/j/jackm/software/lorrax_C/src/gw/ppm_sigma.py" source_line=346}
  %cosine.301 = f64[21]{0} cosine(%imag.300), metadata={op_name="jit(_scan_window)/jit(main)/while/body/jit(_accumulate_tau_into_window)/jit(_project_tau_onto_omega)/exp" source_file="/global/homes/j/jackm/software/lorrax_C/src/gw/ppm_sigma.py" source_line=346}
  %multiply.302 = f64[21]{0} multiply(%exponential.299, %cosine.301), metadata={op_name="jit(_scan_window)/jit(main)/while/body/jit(_accumulate_tau_into_window)/jit(_project_tau_onto_omega)/exp" source_file="/global/homes/j/jackm/software/lorrax_C/src/gw/ppm_sigma.py" source_line=346}
  %multiply.303 = f64[21]{0} multiply(%multiply.302, %exponential.299), metadata={op_name="jit(_scan_window)/jit(main)/while/body/jit(_accumulate_tau_into_window)/jit(_project_tau_onto_omega)/exp" source_file="/global/homes/j/jackm/software/lorrax_C/src/gw/ppm_sigma.py" source_line=346}
  %multiply.304 = f64[21]{0} multiply(%exponential.296, %cosine.301), metadata={op_name="jit(_scan_window)/jit(main)/while/body/jit(_accumulate_tau_into_window)/jit(_project_tau_onto_omega)/exp" source_file="/global/homes/j/jackm/software/lorrax_C/src/gw/ppm_sigma.py" source_line=346}
  %select.305 = f64[21]{0} select(%compare.297, %multiply.303, %multiply.304), metadata={op_name="jit(_scan_window)/jit(main)/while/body/jit(_accumulate_tau_into_window)/jit(_project_tau_onto_omega)/exp" source_file="/global/homes/j/jackm/software/lorrax_C/src/gw/ppm_sigma.py" source_line=346}
  %constant.279 = f64[] constant(0)
  %broadcast.280 = f64[21]{0} broadcast(%constant.279), dimensions={}
  %compare.306 = pred[21]{0} compare(%imag.300, %broadcast.280), direction=EQ, metadata={op_name="jit(_scan_window)/jit(main)/while/body/jit(_accumulate_tau_into_window)/jit(_project_tau_onto_omega)/exp" source_file="/global/homes/j/jackm/software/lorrax_C/src/gw/ppm_sigma.py" source_line=346}
  %sine.307 = f64[21]{0} sine(%imag.300), metadata={op_name="jit(_scan_window)/jit(main)/while/body/jit(_accumulate_tau_into_window)/jit(_project_tau_onto_omega)/exp" source_file="/global/homes/j/jackm/software/lorrax_C/src/gw/ppm_sigma.py" source_line=346}
  %multiply.308 = f64[21]{0} multiply(%exponential.299, %sine.307), metadata={op_name="jit(_scan_window)/jit(main)/while/body/jit(_accumulate_tau_into_window)/jit(_project_tau_onto_omega)/exp" source_file="/global/homes/j/jackm/software/lorrax_C/src/gw/ppm_sigma.py" source_line=346}
  %multiply.309 = f64[21]{0} multiply(%multiply.308, %exponential.299), metadata={op_name="jit(_scan_window)/jit(main)/while/body/jit(_accumulate_tau_into_window)/jit(_project_tau_onto_omega)/exp" source_file="/global/homes/j/jackm/software/lorrax_C/src/gw/ppm_sigma.py" source_line=346}
  %multiply.310 = f64[21]{0} multiply(%exponential.296, %sine.307), metadata={op_name="jit(_scan_window)/jit(main)/while/body/jit(_accumulate_tau_into_window)/jit(_project_tau_onto_omega)/exp" source_file="/global/homes/j/jackm/software/lorrax_C/src/gw/ppm_sigma.py" source_line=346}
  %select.311 = f64[21]{0} select(%compare.297, %multiply.309, %multiply.310), metadata={op_name="jit(_scan_window)/jit(main)/while/body/jit(_accumulate_tau_into_window)/jit(_project_tau_onto_omega)/exp" source_file="/global/homes/j/jackm/software/lorrax_C/src/gw/ppm_sigma.py" source_line=346}
  %select.312 = f64[21]{0} select(%compare.306, %broadcast.280, %select.311), metadata={op_name="jit(_scan_window)/jit(main)/while/body/jit(_accumulate_tau_into_window)/jit(_project_tau_onto_omega)/exp" source_file="/global/homes/j/jackm/software/lorrax_C/src/gw/ppm_sigma.py" source_line=346}
  %complex.313 = c128[21]{0} complex(%select.305, %select.312), metadata={op_name="jit(_scan_window)/jit(main)/while/body/jit(_accumulate_tau_into_window)/jit(_project_tau_onto_omega)/exp" source_file="/global/homes/j/jackm/software/lorrax_C/src/gw/ppm_sigma.py" source_line=346}
  %multiply.315 = c128[21]{0} multiply(%broadcast.314, %complex.313), metadata={op_name="jit(_scan_window)/jit(main)/while/body/jit(_accumulate_tau_into_window)/jit(_project_tau_onto_omega)/mul" source_file="/global/homes/j/jackm/software/lorrax_C/src/gw/ppm_sigma.py" source_line=347}
  %imag.318 = f64[21]{0} imag(%multiply.315), metadata={op_name="jit(_scan_window)/jit(main)/while/body/jit(_accumulate_tau_into_window)/jit(_project_tau_onto_omega)/imag" source_file="/global/homes/j/jackm/software/lorrax_C/src/gw/ppm_sigma.py" source_line=349}
  %reshape.319 = f64[21,1,1,1]{3,2,1,0} reshape(%imag.318), metadata={op_name="jit(_scan_window)/jit(main)/while/body/jit(_accumulate_tau_into_window)/jit(_project_tau_onto_omega)/broadcast_in_dim" source_file="/global/homes/j/jackm/software/lorrax_C/src/gw/ppm_sigma.py" source_line=349}
  %real.316 = f64[21]{0} real(%multiply.315), metadata={op_name="jit(_scan_window)/jit(main)/while/body/jit(_accumulate_tau_into_window)/jit(_project_tau_onto_omega)/real" source_file="/global/homes/j/jackm/software/lorrax_C/src/gw/ppm_sigma.py" source_line=348}
  %reshape.317 = f64[21,1,1,1]{3,2,1,0} reshape(%real.316), metadata={op_name="jit(_scan_window)/jit(main)/while/body/jit(_accumulate_tau_into_window)/jit(_project_tau_onto_omega)/broadcast_in_dim" source_file="/global/homes/j/jackm/software/lorrax_C/src/gw/ppm_sigma.py" source_line=348}
  %tuple.321 = (c128[9,80,80]{2,1,0}, c128[9,80,80]{2,1,0}, f64[21,1,1,1]{3,2,1,0}, f64[21,1,1,1]{3,2,1,0}) tuple(%Arg_0.271, %Arg_1.272, %reshape.319, %reshape.317), metadata={op_name="jit(_scan_window)/jit(main)/while/body/jit(_accumulate_tau_into_window)/jit(_project_tau_onto_omega)/cond" source_file="/global/homes/j/jackm/software/lorrax_C/src/gw/ppm_sigma.py" source_line=322}
  %tuple.322 = (c128[9,80,80]{2,1,0}, f64[21,1,1,1]{3,2,1,0}, c128[9,80,80]{2,1,0}, f64[21,1,1,1]{3,2,1,0}) tuple(%Arg_1.272, %reshape.317, %Arg_0.271, %reshape.319), metadata={op_name="jit(_scan_window)/jit(main)/while/body/jit(_accumulate_tau_into_window)/jit(_project_tau_onto_omega)/cond" source_file="/global/homes/j/jackm/software/lorrax_C/src/gw/ppm_sigma.py" source_line=322}
  %conditional.323 = c128[21,9,80,80]{3,2,1,0} conditional(%clamp.320, %tuple.321, %tuple.322), branch_computations={%region_3.220, %region_4.245}, metadata={op_name="jit(_scan_window)/jit(main)/while/body/jit(_accumulate_tau_into_window)/jit(_project_tau_onto_omega)/cond" source_file="/global/homes/j/jackm/software/lorrax_C/src/gw/ppm_sigma.py" source_line=322}
  ROOT %multiply.326 = c128[21,9,80,80]{3,2,1,0} multiply(%broadcast.325, %conditional.323), metadata={op_name="jit(_scan_window)/jit(main)/while/body/jit(_accumulate_tau_into_window)/jit(_project_tau_onto_omega)/mul" source_file="/global/homes/j/jackm/software/lorrax_C/src/gw/ppm_sigma.py" source_line=353}
}

%_accumulate_tau_into_window.327 (Arg_0.328: c128[21,9,80,80], Arg_1.329: c128[9,80,80], Arg_2.330: c128[9,80,80], Arg_3.331: f64[21], Arg_4.332: c128[], Arg_5.333: c128[], Arg_6.334: f64[], Arg_7.335: f64[], Arg_8.336: s32[]) -> c128[21,9,80,80] {
  %Arg_0.328 = c128[21,9,80,80]{3,2,1,0} parameter(0), metadata={op_name="jit(_scan_window)/jit(main)/while/body/pjit"}
  %Arg_1.329 = c128[9,80,80]{2,1,0} parameter(1), metadata={op_name="jit(_scan_window)/jit(main)/while/body/pjit"}
  %Arg_2.330 = c128[9,80,80]{2,1,0} parameter(2), metadata={op_name="jit(_scan_window)/jit(main)/while/body/pjit"}
  %Arg_3.331 = f64[21]{0} parameter(3), metadata={op_name="jit(_scan_window)/jit(main)/while/body/pjit"}
  %Arg_4.332 = c128[] parameter(4), metadata={op_name="jit(_scan_window)/jit(main)/while/body/pjit"}
  %Arg_5.333 = c128[] parameter(5), metadata={op_name="jit(_scan_window)/jit(main)/while/body/pjit"}
  %Arg_6.334 = f64[] parameter(6), metadata={op_name="jit(_scan_window)/jit(main)/while/body/pjit"}
  %Arg_7.335 = f64[] parameter(7), metadata={op_name="jit(_scan_window)/jit(main)/while/body/pjit"}
  %Arg_8.336 = s32[] parameter(8), metadata={op_name="jit(_scan_window)/jit(main)/while/body/pjit"}
  %call.337 = c128[21,9,80,80]{3,2,1,0} call(%Arg_1.329, %Arg_2.330, %Arg_3.331, %Arg_4.332, %Arg_5.333, /*index=5*/%Arg_6.334, %Arg_7.335, %Arg_8.336), to_apply=%_project_tau_onto_omega.270
  ROOT %add.338 = c128[21,9,80,80]{3,2,1,0} add(%Arg_0.328, %call.337), metadata={op_name="jit(_scan_window)/jit(main)/while/body/jit(_accumulate_tau_into_window)/add" source_file="/global/homes/j/jackm/software/lorrax_C/src/gw/ppm_sigma.py" source_line=369}
}

%None.339 (Arg_0.340: c128[9,2,640,80], Arg_1.341: c128[9,80,2,640], Arg_2.342: c128[9,80,2,640], Arg_3.343: c128[9,2,640,80], Arg_4.344: f64[9,80], Arg_5.345: pred[9,80], Arg_6.346: c128[9,640,640], Arg_7.347: f64[9,640,640], Arg_8.348: pred[9,640,640], Arg_9.349: f64[], Arg_10.350: f64[], Arg_11.351: c128[80,80], Arg_12.352: f64[], Arg_13.353: f64[21], Arg_14.354: f64[], Arg_15.355: f64[], Arg_16.356: s32[], Arg_17.357: c128[21,9,80,80], Arg_18.358: c128[], Arg_19.359: c128[]) -> c128[21,9,80,80] {
  %Arg_17.357 = c128[21,9,80,80]{3,2,1,0} parameter(17), metadata={op_name="jit(_scan_window)/jit(main)/while/body/closed_call"}
  %Arg_0.340 = c128[9,2,640,80]{3,2,1,0} parameter(0), metadata={op_name="jit(_scan_window)/jit(main)/while/body/closed_call"}
  %Arg_1.341 = c128[9,80,2,640]{3,2,1,0} parameter(1), metadata={op_name="jit(_scan_window)/jit(main)/while/body/closed_call"}
  %Arg_2.342 = c128[9,80,2,640]{3,2,1,0} parameter(2), metadata={op_name="jit(_scan_window)/jit(main)/while/body/closed_call"}
  %Arg_3.343 = c128[9,2,640,80]{3,2,1,0} parameter(3), metadata={op_name="jit(_scan_window)/jit(main)/while/body/closed_call"}
  %Arg_4.344 = f64[9,80]{1,0} parameter(4), metadata={op_name="jit(_scan_window)/jit(main)/while/body/closed_call"}
  %Arg_5.345 = pred[9,80]{1,0} parameter(5), metadata={op_name="jit(_scan_window)/jit(main)/while/body/closed_call"}
  %Arg_6.346 = c128[9,640,640]{2,1,0} parameter(6), metadata={op_name="jit(_scan_window)/jit(main)/while/body/closed_call"}
  %Arg_7.347 = f64[9,640,640]{2,1,0} parameter(7), metadata={op_name="jit(_scan_window)/jit(main)/while/body/closed_call"}
  %Arg_8.348 = pred[9,640,640]{2,1,0} parameter(8), metadata={op_name="jit(_scan_window)/jit(main)/while/body/closed_call"}
  %Arg_9.349 = f64[] parameter(9), metadata={op_name="jit(_scan_window)/jit(main)/while/body/closed_call"}
  %Arg_10.350 = f64[] parameter(10), metadata={op_name="jit(_scan_window)/jit(main)/while/body/closed_call"}
  %Arg_18.358 = c128[] parameter(18), metadata={op_name="jit(_scan_window)/jit(main)/while/body/closed_call"}
  %Arg_11.351 = c128[80,80]{1,0} parameter(11), metadata={op_name="jit(_scan_window)/jit(main)/while/body/closed_call"}
  %call.364 = c128[2,9,80,80]{3,2,1,0} call(%Arg_0.340, %Arg_1.341, %Arg_2.342, %Arg_3.343, %Arg_4.344, /*index=5*/%Arg_5.345, %Arg_6.346, %Arg_7.347, %Arg_8.348, %Arg_9.349, /*index=10*/%Arg_10.350, %Arg_18.358, %Arg_11.351), to_apply=%_tau_channel_step.202
  %slice.365 = c128[1,9,80,80]{3,2,1,0} slice(%call.364), slice={[0:1], [0:9], [0:80], [0:80]}, metadata={op_name="jit(_scan_window)/jit(main)/while/body/slice" source_file="/global/homes/j/jackm/software/lorrax_C/src/gw/ppm_sigma.py" source_line=634}
  %reshape.366 = c128[9,80,80]{2,1,0} reshape(%slice.365), metadata={op_name="jit(_scan_window)/jit(main)/while/body/squeeze" source_file="/global/homes/j/jackm/software/lorrax_C/src/gw/ppm_sigma.py" source_line=634}
  %slice.367 = c128[1,9,80,80]{3,2,1,0} slice(%call.364), slice={[1:2], [0:9], [0:80], [0:80]}, metadata={op_name="jit(_scan_window)/jit(main)/while/body/slice" source_file="/global/homes/j/jackm/software/lorrax_C/src/gw/ppm_sigma.py" source_line=635}
  %reshape.368 = c128[9,80,80]{2,1,0} reshape(%slice.367), metadata={op_name="jit(_scan_window)/jit(main)/while/body/squeeze" source_file="/global/homes/j/jackm/software/lorrax_C/src/gw/ppm_sigma.py" source_line=635}
  %Arg_13.353 = f64[21]{0} parameter(13), metadata={op_name="jit(_scan_window)/jit(main)/while/body/closed_call"}
  %Arg_19.359 = c128[] parameter(19), metadata={op_name="jit(_scan_window)/jit(main)/while/body/closed_call"}
  %Arg_12.352 = f64[] parameter(12), metadata={op_name="jit(_scan_window)/jit(main)/while/body/closed_call"}
  %convert.369 = c128[] convert(%Arg_12.352), metadata={op_name="jit(_scan_window)/jit(main)/while/body/convert_element_type" source_file="/global/homes/j/jackm/software/lorrax_C/src/gw/ppm_sigma.py" source_line=638}
  %constant.363 = c128[] constant((-0, -1))
  %multiply.370 = c128[] multiply(%convert.369, %constant.363), metadata={op_name="jit(_scan_window)/jit(main)/while/body/mul" source_file="/global/homes/j/jackm/software/lorrax_C/src/gw/ppm_sigma.py" source_line=638}
  %multiply.371 = c128[] multiply(%multiply.370, %Arg_18.358), metadata={op_name="jit(_scan_window)/jit(main)/while/body/mul" source_file="/global/homes/j/jackm/software/lorrax_C/src/gw/ppm_sigma.py" source_line=638}
  %real.372 = f64[] real(%multiply.371), metadata={op_name="jit(_scan_window)/jit(main)/while/body/exp" source_file="/global/homes/j/jackm/software/lorrax_C/src/gw/ppm_sigma.py" source_line=638}
  %exponential.373 = f64[] exponential(%real.372), metadata={op_name="jit(_scan_window)/jit(main)/while/body/exp" source_file="/global/homes/j/jackm/software/lorrax_C/src/gw/ppm_sigma.py" source_line=638}
  %constant.362 = f64[] constant(inf)
  %compare.374 = pred[] compare(%exponential.373, %constant.362), direction=EQ, metadata={op_name="jit(_scan_window)/jit(main)/while/body/exp" source_file="/global/homes/j/jackm/software/lorrax_C/src/gw/ppm_sigma.py" source_line=638}
  %constant.361 = f64[] constant(0.5)
  %multiply.375 = f64[] multiply(%real.372, %constant.361), metadata={op_name="jit(_scan_window)/jit(main)/while/body/exp" source_file="/global/homes/j/jackm/software/lorrax_C/src/gw/ppm_sigma.py" source_line=638}
  %exponential.376 = f64[] exponential(%multiply.375), metadata={op_name="jit(_scan_window)/jit(main)/while/body/exp" source_file="/global/homes/j/jackm/software/lorrax_C/src/gw/ppm_sigma.py" source_line=638}
  %imag.377 = f64[] imag(%multiply.371), metadata={op_name="jit(_scan_window)/jit(main)/while/body/exp" source_file="/global/homes/j/jackm/software/lorrax_C/src/gw/ppm_sigma.py" source_line=638}
  %cosine.378 = f64[] cosine(%imag.377), metadata={op_name="jit(_scan_window)/jit(main)/while/body/exp" source_file="/global/homes/j/jackm/software/lorrax_C/src/gw/ppm_sigma.py" source_line=638}
  %multiply.379 = f64[] multiply(%exponential.376, %cosine.378), metadata={op_name="jit(_scan_window)/jit(main)/while/body/exp" source_file="/global/homes/j/jackm/software/lorrax_C/src/gw/ppm_sigma.py" source_line=638}
  %multiply.380 = f64[] multiply(%multiply.379, %exponential.376), metadata={op_name="jit(_scan_window)/jit(main)/while/body/exp" source_file="/global/homes/j/jackm/software/lorrax_C/src/gw/ppm_sigma.py" source_line=638}
  %multiply.381 = f64[] multiply(%exponential.373, %cosine.378), metadata={op_name="jit(_scan_window)/jit(main)/while/body/exp" source_file="/global/homes/j/jackm/software/lorrax_C/src/gw/ppm_sigma.py" source_line=638}
  %select.382 = f64[] select(%compare.374, %multiply.380, %multiply.381), metadata={op_name="jit(_scan_window)/jit(main)/while/body/exp" source_file="/global/homes/j/jackm/software/lorrax_C/src/gw/ppm_sigma.py" source_line=638}
  %constant.360 = f64[] constant(0)
  %compare.383 = pred[] compare(%imag.377, %constant.360), direction=EQ, metadata={op_name="jit(_scan_window)/jit(main)/while/body/exp" source_file="/global/homes/j/jackm/software/lorrax_C/src/gw/ppm_sigma.py" source_line=638}
  %sine.384 = f64[] sine(%imag.377), metadata={op_name="jit(_scan_window)/jit(main)/while/body/exp" source_file="/global/homes/j/jackm/software/lorrax_C/src/gw/ppm_sigma.py" source_line=638}
  %multiply.385 = f64[] multiply(%exponential.376, %sine.384), metadata={op_name="jit(_scan_window)/jit(main)/while/body/exp" source_file="/global/homes/j/jackm/software/lorrax_C/src/gw/ppm_sigma.py" source_line=638}
  %multiply.386 = f64[] multiply(%multiply.385, %exponential.376), metadata={op_name="jit(_scan_window)/jit(main)/while/body/exp" source_file="/global/homes/j/jackm/software/lorrax_C/src/gw/ppm_sigma.py" source_line=638}
  %multiply.387 = f64[] multiply(%exponential.373, %sine.384), metadata={op_name="jit(_scan_window)/jit(main)/while/body/exp" source_file="/global/homes/j/jackm/software/lorrax_C/src/gw/ppm_sigma.py" source_line=638}
  %select.388 = f64[] select(%compare.374, %multiply.386, %multiply.387), metadata={op_name="jit(_scan_window)/jit(main)/while/body/exp" source_file="/global/homes/j/jackm/software/lorrax_C/src/gw/ppm_sigma.py" source_line=638}
  %select.389 = f64[] select(%compare.383, %constant.360, %select.388), metadata={op_name="jit(_scan_window)/jit(main)/while/body/exp" source_file="/global/homes/j/jackm/software/lorrax_C/src/gw/ppm_sigma.py" source_line=638}
  %complex.390 = c128[] complex(%select.382, %select.389), metadata={op_name="jit(_scan_window)/jit(main)/while/body/exp" source_file="/global/homes/j/jackm/software/lorrax_C/src/gw/ppm_sigma.py" source_line=638}
  %multiply.391 = c128[] multiply(%Arg_19.359, %complex.390), metadata={op_name="jit(_scan_window)/jit(main)/while/body/mul" source_file="/global/homes/j/jackm/software/lorrax_C/src/gw/ppm_sigma.py" source_line=638}
  %Arg_14.354 = f64[] parameter(14), metadata={op_name="jit(_scan_window)/jit(main)/while/body/closed_call"}
  %Arg_15.355 = f64[] parameter(15), metadata={op_name="jit(_scan_window)/jit(main)/while/body/closed_call"}
  %Arg_16.356 = s32[] parameter(16), metadata={op_name="jit(_scan_window)/jit(main)/while/body/closed_call"}
  ROOT %call.392 = c128[21,9,80,80]{3,2,1,0} call(%Arg_17.357, %reshape.366, %reshape.368, %Arg_13.353, %Arg_18.358, /*index=5*/%multiply.391, %Arg_14.354, %Arg_15.355, %Arg_16.356), to_apply=%_accumulate_tau_into_window.327
}

%region_0.393 (arg_tuple.394: (s64[], c128[21,9,80,80], c128[9], c128[9], c128[9,2,640,80], /*index=5*/c128[9,80,2,640], c128[9,80,2,640], c128[9,2,640,80], f64[9,80], pred[9,80], /*index=10*/c128[9,640,640], f64[9,640,640], pred[9,640,640], f64[], f64[], /*index=15*/c128[80,80], f64[], f64[21], f64[], f64[], /*index=20*/s32[])) -> (s64[], c128[21,9,80,80], c128[9], c128[9], c128[9,2,640,80], /*index=5*/c128[9,80,2,640], c128[9,80,2,640], c128[9,2,640,80], f64[9,80], pred[9,80], /*index=10*/c128[9,640,640], f64[9,640,640], pred[9,640,640], f64[], f64[], /*index=15*/c128[80,80], f64[], f64[21], f64[], f64[], /*index=20*/s32[]) {
  %arg_tuple.394 = (s64[], c128[21,9,80,80]{3,2,1,0}, c128[9]{0}, c128[9]{0}, c128[9,2,640,80]{3,2,1,0}, /*index=5*/c128[9,80,2,640]{3,2,1,0}, c128[9,80,2,640]{3,2,1,0}, c128[9,2,640,80]{3,2,1,0}, f64[9,80]{1,0}, pred[9,80]{1,0}, /*index=10*/c128[9,640,640]{2,1,0}, f64[9,640,640]{2,1,0}, pred[9,640,640]{2,1,0}, f64[], f64[], /*index=15*/c128[80,80]{1,0}, f64[], f64[21]{0}, f64[], f64[], /*index=20*/s32[]) parameter(0)
  %get-tuple-element.395 = s64[] get-tuple-element(%arg_tuple.394), index=0
  %constant.416 = s64[] constant(1)
  %add.422 = s64[] add(%get-tuple-element.395, %constant.416), metadata={op_name="jit(_scan_window)/jit(main)/while/body/add" source_file="/global/homes/j/jackm/software/lorrax_C/src/gw/ppm_sigma.py" source_line=645}
  %get-tuple-element.399 = c128[9,2,640,80]{3,2,1,0} get-tuple-element(%arg_tuple.394), index=4
  %get-tuple-element.400 = c128[9,80,2,640]{3,2,1,0} get-tuple-element(%arg_tuple.394), index=5
  %get-tuple-element.401 = c128[9,80,2,640]{3,2,1,0} get-tuple-element(%arg_tuple.394), index=6
  %get-tuple-element.402 = c128[9,2,640,80]{3,2,1,0} get-tuple-element(%arg_tuple.394), index=7
  %get-tuple-element.403 = f64[9,80]{1,0} get-tuple-element(%arg_tuple.394), index=8
  %get-tuple-element.404 = pred[9,80]{1,0} get-tuple-element(%arg_tuple.394), index=9
  %get-tuple-element.405 = c128[9,640,640]{2,1,0} get-tuple-element(%arg_tuple.394), index=10
  %get-tuple-element.406 = f64[9,640,640]{2,1,0} get-tuple-element(%arg_tuple.394), index=11
  %get-tuple-element.407 = pred[9,640,640]{2,1,0} get-tuple-element(%arg_tuple.394), index=12
  %get-tuple-element.408 = f64[] get-tuple-element(%arg_tuple.394), index=13
  %get-tuple-element.409 = f64[] get-tuple-element(%arg_tuple.394), index=14
  %get-tuple-element.410 = c128[80,80]{1,0} get-tuple-element(%arg_tuple.394), index=15
  %get-tuple-element.411 = f64[] get-tuple-element(%arg_tuple.394), index=16
  %get-tuple-element.412 = f64[21]{0} get-tuple-element(%arg_tuple.394), index=17
  %get-tuple-element.413 = f64[] get-tuple-element(%arg_tuple.394), index=18
  %get-tuple-element.414 = f64[] get-tuple-element(%arg_tuple.394), index=19
  %get-tuple-element.415 = s32[] get-tuple-element(%arg_tuple.394), index=20
  %get-tuple-element.396 = c128[21,9,80,80]{3,2,1,0} get-tuple-element(%arg_tuple.394), index=1
  %get-tuple-element.397 = c128[9]{0} get-tuple-element(%arg_tuple.394), index=2
  %dynamic-slice.417 = c128[1]{0} dynamic-slice(%get-tuple-element.397, %get-tuple-element.395), dynamic_slice_sizes={1}, metadata={op_name="jit(_scan_window)/jit(main)/while/body/dynamic_slice" source_file="/global/homes/j/jackm/software/lorrax_C/src/gw/ppm_sigma.py" source_line=645}
  %reshape.418 = c128[] reshape(%dynamic-slice.417), metadata={op_name="jit(_scan_window)/jit(main)/while/body/squeeze" source_file="/global/homes/j/jackm/software/lorrax_C/src/gw/ppm_sigma.py" source_line=645}
  %get-tuple-element.398 = c128[9]{0} get-tuple-element(%arg_tuple.394), index=3
  %dynamic-slice.419 = c128[1]{0} dynamic-slice(%get-tuple-element.398, %get-tuple-element.395), dynamic_slice_sizes={1}, metadata={op_name="jit(_scan_window)/jit(main)/while/body/dynamic_slice" source_file="/global/homes/j/jackm/software/lorrax_C/src/gw/ppm_sigma.py" source_line=645}
  %reshape.420 = c128[] reshape(%dynamic-slice.419), metadata={op_name="jit(_scan_window)/jit(main)/while/body/squeeze" source_file="/global/homes/j/jackm/software/lorrax_C/src/gw/ppm_sigma.py" source_line=645}
  %call.421 = c128[21,9,80,80]{3,2,1,0} call(%get-tuple-element.399, %get-tuple-element.400, %get-tuple-element.401, %get-tuple-element.402, %get-tuple-element.403, /*index=5*/%get-tuple-element.404, %get-tuple-element.405, %get-tuple-element.406, %get-tuple-element.407, %get-tuple-element.408, /*index=10*/%get-tuple-element.409, %get-tuple-element.410, %get-tuple-element.411, %get-tuple-element.412, %get-tuple-element.413, /*index=15*/%get-tuple-element.414, %get-tuple-element.415, %get-tuple-element.396, %reshape.418, %reshape.420), to_apply=%None.339
  ROOT %tuple.423 = (s64[], c128[21,9,80,80]{3,2,1,0}, c128[9]{0}, c128[9]{0}, c128[9,2,640,80]{3,2,1,0}, /*index=5*/c128[9,80,2,640]{3,2,1,0}, c128[9,80,2,640]{3,2,1,0}, c128[9,2,640,80]{3,2,1,0}, f64[9,80]{1,0}, pred[9,80]{1,0}, /*index=10*/c128[9,640,640]{2,1,0}, f64[9,640,640]{2,1,0}, pred[9,640,640]{2,1,0}, f64[], f64[], /*index=15*/c128[80,80]{1,0}, f64[], f64[21]{0}, f64[], f64[], /*index=20*/s32[]) tuple(%add.422, %call.421, %get-tuple-element.397, %get-tuple-element.398, %get-tuple-element.399, /*index=5*/%get-tuple-element.400, %get-tuple-element.401, %get-tuple-element.402, %get-tuple-element.403, %get-tuple-element.404, /*index=10*/%get-tuple-element.405, %get-tuple-element.406, %get-tuple-element.407, %get-tuple-element.408, %get-tuple-element.409, /*index=15*/%get-tuple-element.410, %get-tuple-element.411, %get-tuple-element.412, %get-tuple-element.413, %get-tuple-element.414, /*index=20*/%get-tuple-element.415)
}

%region_5.424 (arg_tuple.425: (s64[], c128[21,9,80,80], c128[9], c128[9], c128[9,2,640,80], /*index=5*/c128[9,80,2,640], c128[9,80,2,640], c128[9,2,640,80], f64[9,80], pred[9,80], /*index=10*/c128[9,640,640], f64[9,640,640], pred[9,640,640], f64[], f64[], /*index=15*/c128[80,80], f64[], f64[21], f64[], f64[], /*index=20*/s32[])) -> pred[] {
  %arg_tuple.425 = (s64[], c128[21,9,80,80]{3,2,1,0}, c128[9]{0}, c128[9]{0}, c128[9,2,640,80]{3,2,1,0}, /*index=5*/c128[9,80,2,640]{3,2,1,0}, c128[9,80,2,640]{3,2,1,0}, c128[9,2,640,80]{3,2,1,0}, f64[9,80]{1,0}, pred[9,80]{1,0}, /*index=10*/c128[9,640,640]{2,1,0}, f64[9,640,640]{2,1,0}, pred[9,640,640]{2,1,0}, f64[], f64[], /*index=15*/c128[80,80]{1,0}, f64[], f64[21]{0}, f64[], f64[], /*index=20*/s32[]) parameter(0)
  %get-tuple-element.427 = c128[21,9,80,80]{3,2,1,0} get-tuple-element(%arg_tuple.425), index=1
  %get-tuple-element.428 = c128[9]{0} get-tuple-element(%arg_tuple.425), index=2
  %get-tuple-element.429 = c128[9]{0} get-tuple-element(%arg_tuple.425), index=3
  %get-tuple-element.430 = c128[9,2,640,80]{3,2,1,0} get-tuple-element(%arg_tuple.425), index=4
  %get-tuple-element.431 = c128[9,80,2,640]{3,2,1,0} get-tuple-element(%arg_tuple.425), index=5
  %get-tuple-element.432 = c128[9,80,2,640]{3,2,1,0} get-tuple-element(%arg_tuple.425), index=6
  %get-tuple-element.433 = c128[9,2,640,80]{3,2,1,0} get-tuple-element(%arg_tuple.425), index=7
  %get-tuple-element.434 = f64[9,80]{1,0} get-tuple-element(%arg_tuple.425), index=8
  %get-tuple-element.435 = pred[9,80]{1,0} get-tuple-element(%arg_tuple.425), index=9
  %get-tuple-element.436 = c128[9,640,640]{2,1,0} get-tuple-element(%arg_tuple.425), index=10
  %get-tuple-element.437 = f64[9,640,640]{2,1,0} get-tuple-element(%arg_tuple.425), index=11
  %get-tuple-element.438 = pred[9,640,640]{2,1,0} get-tuple-element(%arg_tuple.425), index=12
  %get-tuple-element.439 = f64[] get-tuple-element(%arg_tuple.425), index=13
  %get-tuple-element.440 = f64[] get-tuple-element(%arg_tuple.425), index=14
  %get-tuple-element.441 = c128[80,80]{1,0} get-tuple-element(%arg_tuple.425), index=15
  %get-tuple-element.442 = f64[] get-tuple-element(%arg_tuple.425), index=16
  %get-tuple-element.443 = f64[21]{0} get-tuple-element(%arg_tuple.425), index=17
  %get-tuple-element.444 = f64[] get-tuple-element(%arg_tuple.425), index=18
  %get-tuple-element.445 = f64[] get-tuple-element(%arg_tuple.425), index=19
  %get-tuple-element.446 = s32[] get-tuple-element(%arg_tuple.425), index=20
  %get-tuple-element.426 = s64[] get-tuple-element(%arg_tuple.425), index=0
  %constant.447 = s64[] constant(9)
  ROOT %compare.448 = pred[] compare(%get-tuple-element.426, %constant.447), direction=LT, metadata={op_name="jit(_scan_window)/jit(main)/while/cond/lt" source_file="/global/homes/j/jackm/software/lorrax_C/src/gw/ppm_sigma.py" source_line=645}
}

ENTRY %main.452 (Arg_0.1: c128[21,9,80,80], Arg_1.2: c128[9], Arg_2.3: c128[9], Arg_3.4: c128[9,640,640], Arg_4.5: f64[9,80], Arg_5.6: f64[], Arg_6.7: f64[], Arg_7.8: f64[9,640,640], Arg_8.9: c128[80,80], Arg_9.10: pred[9,80], Arg_10.11: pred[9,640,640], Arg_11.12: f64[], Arg_12.13: f64[21], Arg_13.14: f64[], Arg_14.15: s32[], Arg_15.16: c128[9,2,640,80], Arg_16.17: c128[9,80,2,640], Arg_17.18: c128[9,2,640,80], Arg_18.19: c128[9,80,2,640]) -> c128[21,9,80,80] {
  %constant.20 = s64[] constant(0)
  %Arg_0.1 = c128[21,9,80,80]{3,2,1,0} parameter(0), sharding={devices=[1,1,2,2]<=[4]}, metadata={op_name="acc_win"}
  %Arg_1.2 = c128[9]{0} parameter(1), metadata={op_name="t_nodes"}
  %Arg_2.3 = c128[9]{0} parameter(2), metadata={op_name="alpha_nodes"}
  %Arg_15.16 = c128[9,2,640,80]{3,2,1,0} parameter(15), sharding={devices=[1,1,2,1,2]<=[4] last_tile_dim_replicate}, metadata={op_name="omega_vec"}
  %Arg_16.17 = c128[9,80,2,640]{3,2,1,0} parameter(16), sharding={devices=[1,1,1,2,2]<=[2,2]T(1,0) last_tile_dim_replicate}, metadata={op_name="pref"}
  %Arg_18.19 = c128[9,80,2,640]{3,2,1,0} parameter(18), sharding={devices=[1,1,1,2,2]<=[4] last_tile_dim_replicate}, metadata={op_name="project_code"}
  %Arg_17.18 = c128[9,2,640,80]{3,2,1,0} parameter(17), sharding={devices=[1,1,2,1,2]<=[2,2]T(1,0) last_tile_dim_replicate}, metadata={op_name="omega_sign"}
  %Arg_4.5 = f64[9,80]{1,0} parameter(4), sharding={replicated}, metadata={op_name="psi_coh_rmu_Y"}
  %Arg_9.10 = pred[9,80]{1,0} parameter(9), metadata={op_name="B_q"}
  %Arg_3.4 = c128[9,640,640]{2,1,0} parameter(3), sharding={devices=[1,2,2]<=[4]}, metadata={op_name="psi_coh_rmuT_X"}
  %Arg_7.8 = f64[9,640,640]{2,1,0} parameter(7), sharding={devices=[1,2,2]<=[4]}, metadata={op_name="E_A"}
  %Arg_10.11 = pred[9,640,640]{2,1,0} parameter(10), sharding={devices=[1,2,2]<=[4]}, metadata={op_name="Omega_q"}
  %Arg_5.6 = f64[] parameter(5), metadata={op_name="psi_proj_rmu_X"}
  %Arg_6.7 = f64[] parameter(6), metadata={op_name="psi_proj_rmuT_Y"}
  %Arg_8.9 = c128[80,80]{1,0} parameter(8), metadata={op_name="mask_A"}
  %add.21 = f64[] add(%Arg_5.6, %Arg_6.7), metadata={op_name="jit(_scan_window)/jit(main)/add" source_file="/global/homes/j/jackm/software/lorrax_C/src/gw/ppm_sigma.py" source_line=624}
  %Arg_12.13 = f64[21]{0} parameter(12), metadata={op_name="E_ref_A"}
  %Arg_11.12 = f64[] parameter(11), metadata={op_name="mask_B"}
  %Arg_13.14 = f64[] parameter(13), metadata={op_name="E_ref_B"}
  %Arg_14.15 = s32[] parameter(14), metadata={op_name="eye_nb"}
  %tuple.22 = (s64[], c128[21,9,80,80]{3,2,1,0}, c128[9]{0}, c128[9]{0}, c128[9,2,640,80]{3,2,1,0}, /*index=5*/c128[9,80,2,640]{3,2,1,0}, c128[9,80,2,640]{3,2,1,0}, c128[9,2,640,80]{3,2,1,0}, f64[9,80]{1,0}, pred[9,80]{1,0}, /*index=10*/c128[9,640,640]{2,1,0}, f64[9,640,640]{2,1,0}, pred[9,640,640]{2,1,0}, f64[], f64[], /*index=15*/c128[80,80]{1,0}, f64[], f64[21]{0}, f64[], f64[], /*index=20*/s32[]) tuple(%constant.20, %Arg_0.1, %Arg_1.2, %Arg_2.3, %Arg_15.16, /*index=5*/%Arg_16.17, %Arg_18.19, %Arg_17.18, %Arg_4.5, %Arg_9.10, /*index=10*/%Arg_3.4, %Arg_7.8, %Arg_10.11, %Arg_5.6, %Arg_6.7, /*index=15*/%Arg_8.9, %add.21, %Arg_12.13, %Arg_11.12, %Arg_13.14, /*index=20*/%Arg_14.15), metadata={op_name="jit(_scan_window)/jit(main)/while" source_file="/global/homes/j/jackm/software/lorrax_C/src/gw/ppm_sigma.py" source_line=645}
  %while.449 = (s64[], c128[21,9,80,80]{3,2,1,0}, c128[9]{0}, c128[9]{0}, c128[9,2,640,80]{3,2,1,0}, /*index=5*/c128[9,80,2,640]{3,2,1,0}, c128[9,80,2,640]{3,2,1,0}, c128[9,2,640,80]{3,2,1,0}, f64[9,80]{1,0}, pred[9,80]{1,0}, /*index=10*/c128[9,640,640]{2,1,0}, f64[9,640,640]{2,1,0}, pred[9,640,640]{2,1,0}, f64[], f64[], /*index=15*/c128[80,80]{1,0}, f64[], f64[21]{0}, f64[], f64[], /*index=20*/s32[]) while(%tuple.22), condition=%region_5.424, body=%region_0.393, metadata={op_name="jit(_scan_window)/jit(main)/while" source_file="/global/homes/j/jackm/software/lorrax_C/src/gw/ppm_sigma.py" source_line=645}
  %get-tuple-element.450 = s64[] get-tuple-element(%while.449), index=0, metadata={op_name="jit(_scan_window)/jit(main)/while" source_file="/global/homes/j/jackm/software/lorrax_C/src/gw/ppm_sigma.py" source_line=645}
  ROOT %get-tuple-element.451 = c128[21,9,80,80]{3,2,1,0} get-tuple-element(%while.449), index=1, metadata={op_name="jit(_scan_window)/jit(main)/while" source_file="/global/homes/j/jackm/software/lorrax_C/src/gw/ppm_sigma.py" source_line=645}
}

