HloModule jit__post_kpath, entry_computation_layout={(f64[32,960]{1,0}, f64[32,960]{1,0}, f64[32,960]{1,0}, f64[32,960]{1,0}, f64[32,960]{1,0}, /*index=5*/f64[32,960]{1,0})->(f64[181,960]{1,0}, f64[181,60]{1,0})}, allow_spmd_sharding_propagation_to_parameters={false,false,false,false,false,false}, allow_spmd_sharding_propagation_to_output={true,true}, num_partitions=4

%_where.14 (Arg_0.15: pred[181,960], Arg_1.16: f64[181,960], Arg_2.17: f64[]) -> f64[181,960] {
  %Arg_0.15 = pred[181,960]{1,0} parameter(0), metadata={op_name="jit(_post_kpath)/jit(main)/vmap(while)/body/jit(_fun_jit)/pjit"}
  %Arg_1.16 = f64[181,960]{1,0} parameter(1), metadata={op_name="jit(_post_kpath)/jit(main)/vmap(while)/body/jit(_fun_jit)/pjit"}
  %Arg_2.17 = f64[] parameter(2), metadata={op_name="jit(_post_kpath)/jit(main)/vmap(while)/body/jit(_fun_jit)/pjit"}
  %broadcast.18 = f64[181,960]{1,0} broadcast(%Arg_2.17), dimensions={}, metadata={op_name="jit(_post_kpath)/jit(main)/vmap(while)/body/jit(_fun_jit)/jit(_where)/broadcast_in_dim" source_file="/global/homes/j/jackm/software/lorrax_C/src/bandstructure/htransform.py" source_line=284}
  ROOT %select.19 = f64[181,960]{1,0} select(%Arg_0.15, %Arg_1.16, %broadcast.18), metadata={op_name="jit(_post_kpath)/jit(main)/vmap(while)/body/jit(_fun_jit)/jit(_where)/select_n" source_file="/global/homes/j/jackm/software/lorrax_C/src/bandstructure/htransform.py" source_line=284}
}

%_where_0.20 (Arg_0.21: pred[181,960], Arg_1.22: f64[181,960], Arg_2.23: f64[181,960]) -> f64[181,960] {
  %Arg_0.21 = pred[181,960]{1,0} parameter(0), metadata={op_name="jit(_post_kpath)/jit(main)/vmap(while)/body/jit(_fun_jit)/pjit"}
  %Arg_1.22 = f64[181,960]{1,0} parameter(1), metadata={op_name="jit(_post_kpath)/jit(main)/vmap(while)/body/jit(_fun_jit)/pjit"}
  %Arg_2.23 = f64[181,960]{1,0} parameter(2), metadata={op_name="jit(_post_kpath)/jit(main)/vmap(while)/body/jit(_fun_jit)/pjit"}
  ROOT %select.24 = f64[181,960]{1,0} select(%Arg_0.21, %Arg_1.22, %Arg_2.23), metadata={op_name="jit(_post_kpath)/jit(main)/vmap(while)/body/jit(_fun_jit)/jit(_where)/select_n" source_file="/global/homes/j/jackm/software/lorrax_C/src/bandstructure/htransform.py" source_line=285}
}

%_where_1.25 (Arg_0.26: pred[181,960], Arg_1.27: f64[], Arg_2.28: f64[181,960]) -> f64[181,960] {
  %Arg_0.26 = pred[181,960]{1,0} parameter(0), metadata={op_name="jit(_post_kpath)/jit(main)/vmap(while)/body/jit(_fun_jit)/pjit"}
  %Arg_1.27 = f64[] parameter(1), metadata={op_name="jit(_post_kpath)/jit(main)/vmap(while)/body/jit(_fun_jit)/pjit"}
  %broadcast.29 = f64[181,960]{1,0} broadcast(%Arg_1.27), dimensions={}, metadata={op_name="jit(_post_kpath)/jit(main)/vmap(while)/body/jit(_fun_jit)/jit(_where)/broadcast_in_dim" source_file="/global/homes/j/jackm/software/lorrax_C/src/bandstructure/htransform.py" source_line=286}
  %Arg_2.28 = f64[181,960]{1,0} parameter(2), metadata={op_name="jit(_post_kpath)/jit(main)/vmap(while)/body/jit(_fun_jit)/pjit"}
  ROOT %select.30 = f64[181,960]{1,0} select(%Arg_0.26, %broadcast.29, %Arg_2.28), metadata={op_name="jit(_post_kpath)/jit(main)/vmap(while)/body/jit(_fun_jit)/jit(_where)/select_n" source_file="/global/homes/j/jackm/software/lorrax_C/src/bandstructure/htransform.py" source_line=286}
}

%_where_1.31 (Arg_0.32: pred[181,960], Arg_1.33: f64[], Arg_2.34: f64[181,960]) -> f64[181,960] {
  %Arg_0.32 = pred[181,960]{1,0} parameter(0), metadata={op_name="jit(_post_kpath)/jit(main)/vmap(while)/body/jit(_fun_jit)/pjit"}
  %Arg_1.33 = f64[] parameter(1), metadata={op_name="jit(_post_kpath)/jit(main)/vmap(while)/body/jit(_fun_jit)/pjit"}
  %broadcast.35 = f64[181,960]{1,0} broadcast(%Arg_1.33), dimensions={}, metadata={op_name="jit(_post_kpath)/jit(main)/vmap(while)/body/jit(_fun_jit)/jit(_where)/broadcast_in_dim" source_file="/global/homes/j/jackm/software/lorrax_C/src/bandstructure/htransform.py" source_line=286}
  %Arg_2.34 = f64[181,960]{1,0} parameter(2), metadata={op_name="jit(_post_kpath)/jit(main)/vmap(while)/body/jit(_fun_jit)/pjit"}
  ROOT %select.36 = f64[181,960]{1,0} select(%Arg_0.32, %broadcast.35, %Arg_2.34), metadata={op_name="jit(_post_kpath)/jit(main)/vmap(while)/body/jit(_fun_jit)/jit(_where)/select_n" source_file="/global/homes/j/jackm/software/lorrax_C/src/bandstructure/htransform.py" source_line=286}
}

%_fun_jit.37 (Arg_0.38: f64[181,960]) -> f64[181,960] {
  %Arg_0.38 = f64[181,960]{1,0} parameter(0), metadata={op_name="jit(_post_kpath)/jit(main)/vmap(while)/body/pjit"}
  %constant.64 = f64[] constant(0.98024169093943125)
  %broadcast.65 = f64[181,960]{1,0} broadcast(%constant.64), dimensions={}, metadata={op_name="jit(_post_kpath)/jit(main)/vmap(while)/body/jit(_fun_jit)/sub" source_file="/global/homes/j/jackm/software/lorrax_C/src/bandstructure/htransform.py" source_line=276}
  %subtract.66 = f64[181,960]{1,0} subtract(%Arg_0.38, %broadcast.65), metadata={op_name="jit(_post_kpath)/jit(main)/vmap(while)/body/jit(_fun_jit)/sub" source_file="/global/homes/j/jackm/software/lorrax_C/src/bandstructure/htransform.py" source_line=276}
  %constant.59 = f64[] constant(0)
  %broadcast.60 = f64[181,960]{1,0} broadcast(%constant.59), dimensions={}
  %compare.94 = pred[181,960]{1,0} compare(%subtract.66, %broadcast.60), direction=GE, metadata={op_name="jit(_post_kpath)/jit(main)/vmap(while)/body/jit(_fun_jit)/ge" source_file="/global/homes/j/jackm/software/lorrax_C/src/bandstructure/htransform.py" source_line=286}
  %constant.63 = f64[] constant(0)
  %compare.68 = pred[181,960]{1,0} compare(%subtract.66, %broadcast.60), direction=LT, metadata={op_name="jit(_post_kpath)/jit(main)/vmap(while)/body/jit(_fun_jit)/lt" source_file="/global/homes/j/jackm/software/lorrax_C/src/bandstructure/htransform.py" source_line=278}
  %constant.61 = f64[] constant(-0.65647605190884883)
  %broadcast.62 = f64[181,960]{1,0} broadcast(%constant.61), dimensions={}
  %compare.67 = pred[181,960]{1,0} compare(%subtract.66, %broadcast.62), direction=LE, metadata={op_name="jit(_post_kpath)/jit(main)/vmap(while)/body/jit(_fun_jit)/le" source_file="/global/homes/j/jackm/software/lorrax_C/src/bandstructure/htransform.py" source_line=277}
  %not.69 = pred[181,960]{1,0} not(%compare.67), metadata={op_name="jit(_post_kpath)/jit(main)/vmap(while)/body/jit(_fun_jit)/not" source_file="/global/homes/j/jackm/software/lorrax_C/src/bandstructure/htransform.py" source_line=278}
  %and.70 = pred[181,960]{1,0} and(%compare.68, %not.69), metadata={op_name="jit(_post_kpath)/jit(main)/vmap(while)/body/jit(_fun_jit)/and" source_file="/global/homes/j/jackm/software/lorrax_C/src/bandstructure/htransform.py" source_line=278}
  %constant.45 = f64[] constant(0.10539922456186433)
  %broadcast.46 = f64[181,960]{1,0} broadcast(%constant.45), dimensions={}
  %constant.49 = f64[] constant(2)
  %broadcast.50 = f64[181,960]{1,0} broadcast(%constant.49), dimensions={}
  %multiply.75 = f64[181,960]{1,0} multiply(%subtract.66, %broadcast.50), metadata={op_name="jit(_post_kpath)/jit(main)/vmap(while)/body/jit(_fun_jit)/mul" source_file="/global/homes/j/jackm/software/lorrax_C/src/bandstructure/htransform.py" source_line=281}
  %constant.55 = f64[] constant(0.65647605190884883)
  %broadcast.56 = f64[181,960]{1,0} broadcast(%constant.55), dimensions={}
  %add.76 = f64[181,960]{1,0} add(%multiply.75, %broadcast.56), metadata={op_name="jit(_post_kpath)/jit(main)/vmap(while)/body/jit(_fun_jit)/add" source_file="/global/homes/j/jackm/software/lorrax_C/src/bandstructure/htransform.py" source_line=281}
  %constant.51 = f64[] constant(3)
  %broadcast.52 = f64[181,960]{1,0} broadcast(%constant.51), dimensions={}
  %multiply.77 = f64[181,960]{1,0} multiply(%add.76, %broadcast.52), metadata={op_name="jit(_post_kpath)/jit(main)/vmap(while)/body/jit(_fun_jit)/mul" source_file="/global/homes/j/jackm/software/lorrax_C/src/bandstructure/htransform.py" source_line=281}
  %constant.47 = f64[] constant(1.3129521038176977)
  %broadcast.48 = f64[181,960]{1,0} broadcast(%constant.47), dimensions={}
  %divide.78 = f64[181,960]{1,0} divide(%multiply.77, %broadcast.48), metadata={op_name="jit(_post_kpath)/jit(main)/vmap(while)/body/jit(_fun_jit)/div" source_file="/global/homes/j/jackm/software/lorrax_C/src/bandstructure/htransform.py" source_line=281}
  %multiply.79 = f64[181,960]{1,0} multiply(%divide.78, %divide.78), metadata={op_name="jit(_post_kpath)/jit(main)/vmap(while)/body/jit(_fun_jit)/integer_pow" source_file="/global/homes/j/jackm/software/lorrax_C/src/bandstructure/htransform.py" source_line=281}
  %negate.80 = f64[181,960]{1,0} negate(%multiply.79), metadata={op_name="jit(_post_kpath)/jit(main)/vmap(while)/body/jit(_fun_jit)/neg" source_file="/global/homes/j/jackm/software/lorrax_C/src/bandstructure/htransform.py" source_line=281}
  %exponential.81 = f64[181,960]{1,0} exponential(%negate.80), metadata={op_name="jit(_post_kpath)/jit(main)/vmap(while)/body/jit(_fun_jit)/exp" source_file="/global/homes/j/jackm/software/lorrax_C/src/bandstructure/htransform.py" source_line=281}
  %subtract.82 = f64[181,960]{1,0} subtract(%broadcast.46, %exponential.81), metadata={op_name="jit(_post_kpath)/jit(main)/vmap(while)/body/jit(_fun_jit)/sub" source_file="/global/homes/j/jackm/software/lorrax_C/src/bandstructure/htransform.py" source_line=281}
  %multiply.83 = f64[181,960]{1,0} multiply(%subtract.82, %broadcast.56), metadata={op_name="jit(_post_kpath)/jit(main)/vmap(while)/body/jit(_fun_jit)/mul" source_file="/global/homes/j/jackm/software/lorrax_C/src/bandstructure/htransform.py" source_line=281}
  %constant.43 = f64[] constant(10.274260723498813)
  %broadcast.44 = f64[181,960]{1,0} broadcast(%constant.43), dimensions={}
  %divide.84 = f64[181,960]{1,0} divide(%multiply.83, %broadcast.44), metadata={op_name="jit(_post_kpath)/jit(main)/vmap(while)/body/jit(_fun_jit)/div" source_file="/global/homes/j/jackm/software/lorrax_C/src/bandstructure/htransform.py" source_line=281}
  %multiply.85 = f64[181,960]{1,0} multiply(%subtract.66, %broadcast.50), metadata={op_name="jit(_post_kpath)/jit(main)/vmap(while)/body/jit(_fun_jit)/mul" source_file="/global/homes/j/jackm/software/lorrax_C/src/bandstructure/htransform.py" source_line=282}
  %add.86 = f64[181,960]{1,0} add(%multiply.85, %broadcast.56), metadata={op_name="jit(_post_kpath)/jit(main)/vmap(while)/body/jit(_fun_jit)/add" source_file="/global/homes/j/jackm/software/lorrax_C/src/bandstructure/htransform.py" source_line=282}
  %constant.41 = f64[] constant(0.96610514647531076)
  %broadcast.42 = f64[181,960]{1,0} broadcast(%constant.41), dimensions={}
  %divide.72 = f64[181,960]{1,0} divide(%subtract.66, %broadcast.56), metadata={op_name="jit(_post_kpath)/jit(main)/vmap(while)/body/jit(_fun_jit)/div" source_file="/global/homes/j/jackm/software/lorrax_C/src/bandstructure/htransform.py" source_line=280}
  %constant.53 = f64[] constant(0.5)
  %broadcast.54 = f64[181,960]{1,0} broadcast(%constant.53), dimensions={}
  %add.73 = f64[181,960]{1,0} add(%divide.72, %broadcast.54), metadata={op_name="jit(_post_kpath)/jit(main)/vmap(while)/body/jit(_fun_jit)/add" source_file="/global/homes/j/jackm/software/lorrax_C/src/bandstructure/htransform.py" source_line=280}
  %multiply.74 = f64[181,960]{1,0} multiply(%add.73, %broadcast.52), metadata={op_name="jit(_post_kpath)/jit(main)/vmap(while)/body/jit(_fun_jit)/mul" source_file="/global/homes/j/jackm/software/lorrax_C/src/bandstructure/htransform.py" source_line=280}
  %erf.87 = f64[181,960]{1,0} erf(%multiply.74), metadata={op_name="jit(_post_kpath)/jit(main)/vmap(while)/body/jit(_fun_jit)/erf" source_file="/global/homes/j/jackm/software/lorrax_C/src/bandstructure/htransform.py" source_line=282}
  %subtract.88 = f64[181,960]{1,0} subtract(%broadcast.42, %erf.87), metadata={op_name="jit(_post_kpath)/jit(main)/vmap(while)/body/jit(_fun_jit)/sub" source_file="/global/homes/j/jackm/software/lorrax_C/src/bandstructure/htransform.py" source_line=282}
  %multiply.89 = f64[181,960]{1,0} multiply(%add.86, %subtract.88), metadata={op_name="jit(_post_kpath)/jit(main)/vmap(while)/body/jit(_fun_jit)/mul" source_file="/global/homes/j/jackm/software/lorrax_C/src/bandstructure/htransform.py" source_line=282}
  %constant.39 = f64[] constant(3.864420585901243)
  %broadcast.40 = f64[181,960]{1,0} broadcast(%constant.39), dimensions={}
  %divide.90 = f64[181,960]{1,0} divide(%multiply.89, %broadcast.40), metadata={op_name="jit(_post_kpath)/jit(main)/vmap(while)/body/jit(_fun_jit)/div" source_file="/global/homes/j/jackm/software/lorrax_C/src/bandstructure/htransform.py" source_line=282}
  %add.91 = f64[181,960]{1,0} add(%divide.84, %divide.90), metadata={op_name="jit(_post_kpath)/jit(main)/vmap(while)/body/jit(_fun_jit)/add" source_file="/global/homes/j/jackm/software/lorrax_C/src/bandstructure/htransform.py" source_line=283}
  %constant.57 = f64[] constant(0.32823802595442442)
  %broadcast.58 = f64[181,960]{1,0} broadcast(%constant.57), dimensions={}
  %add.71 = f64[181,960]{1,0} add(%subtract.66, %broadcast.58), metadata={op_name="jit(_post_kpath)/jit(main)/vmap(while)/body/jit(_fun_jit)/add" source_file="/global/homes/j/jackm/software/lorrax_C/src/bandstructure/htransform.py" source_line=279}
  %call.92 = f64[181,960]{1,0} call(%compare.67, %add.71, %constant.63), to_apply=%_where.14
  %call.93 = f64[181,960]{1,0} call(%and.70, %add.91, %call.92), to_apply=%_where_0.20
  %call.95 = f64[181,960]{1,0} call(%compare.94, %constant.63, %call.93), to_apply=%_where_1.25
  %compare.96 = pred[181,960]{1,0} compare(%call.95, %broadcast.60), direction=GT, metadata={op_name="jit(_post_kpath)/jit(main)/vmap(while)/body/jit(_fun_jit)/gt" source_file="/global/homes/j/jackm/software/lorrax_C/src/bandstructure/htransform.py" source_line=287}
  ROOT %call.97 = f64[181,960]{1,0} call(%compare.96, %constant.63, %call.95), to_apply=%_where_1.31
}

%_where_2.98 (Arg_0.99: pred[181,960], Arg_1.100: f64[], Arg_2.101: f64[960]) -> f64[181,960] {
  %Arg_0.99 = pred[181,960]{1,0} parameter(0), metadata={op_name="jit(_post_kpath)/jit(main)/vmap(while)/body/jit(_dfun_jit)/pjit"}
  %Arg_1.100 = f64[] parameter(1), metadata={op_name="jit(_post_kpath)/jit(main)/vmap(while)/body/jit(_dfun_jit)/pjit"}
  %broadcast.103 = f64[181,960]{1,0} broadcast(%Arg_1.100), dimensions={}, metadata={op_name="jit(_post_kpath)/jit(main)/vmap(while)/body/jit(_dfun_jit)/jit(_where)/broadcast_in_dim" source_file="/global/homes/j/jackm/software/lorrax_C/src/bandstructure/htransform.py" source_line=286}
  %Arg_2.101 = f64[960]{0} parameter(2), metadata={op_name="jit(_post_kpath)/jit(main)/vmap(while)/body/jit(_dfun_jit)/pjit"}
  %broadcast.102 = f64[181,960]{1,0} broadcast(%Arg_2.101), dimensions={1}, metadata={op_name="jit(_post_kpath)/jit(main)/vmap(while)/body/jit(_dfun_jit)/jit(_where)/broadcast_in_dim" source_file="/global/homes/j/jackm/software/lorrax_C/src/bandstructure/htransform.py" source_line=286}
  ROOT %select.104 = f64[181,960]{1,0} select(%Arg_0.99, %broadcast.103, %broadcast.102), metadata={op_name="jit(_post_kpath)/jit(main)/vmap(while)/body/jit(_dfun_jit)/jit(_where)/select_n" source_file="/global/homes/j/jackm/software/lorrax_C/src/bandstructure/htransform.py" source_line=286}
}

%_where_0.105 (Arg_0.106: pred[181,960], Arg_1.107: f64[181,960], Arg_2.108: f64[181,960]) -> f64[181,960] {
  %Arg_0.106 = pred[181,960]{1,0} parameter(0), metadata={op_name="jit(_post_kpath)/jit(main)/vmap(while)/body/jit(_fun_jit)/pjit"}
  %Arg_1.107 = f64[181,960]{1,0} parameter(1), metadata={op_name="jit(_post_kpath)/jit(main)/vmap(while)/body/jit(_fun_jit)/pjit"}
  %Arg_2.108 = f64[181,960]{1,0} parameter(2), metadata={op_name="jit(_post_kpath)/jit(main)/vmap(while)/body/jit(_fun_jit)/pjit"}
  ROOT %select.109 = f64[181,960]{1,0} select(%Arg_0.106, %Arg_1.107, %Arg_2.108), metadata={op_name="jit(_post_kpath)/jit(main)/vmap(while)/body/jit(_fun_jit)/jit(_where)/select_n" source_file="/global/homes/j/jackm/software/lorrax_C/src/bandstructure/htransform.py" source_line=285}
}

%_where_1.110 (Arg_0.111: pred[181,960], Arg_1.112: f64[], Arg_2.113: f64[181,960]) -> f64[181,960] {
  %Arg_0.111 = pred[181,960]{1,0} parameter(0), metadata={op_name="jit(_post_kpath)/jit(main)/vmap(while)/body/jit(_fun_jit)/pjit"}
  %Arg_1.112 = f64[] parameter(1), metadata={op_name="jit(_post_kpath)/jit(main)/vmap(while)/body/jit(_fun_jit)/pjit"}
  %broadcast.114 = f64[181,960]{1,0} broadcast(%Arg_1.112), dimensions={}, metadata={op_name="jit(_post_kpath)/jit(main)/vmap(while)/body/jit(_fun_jit)/jit(_where)/broadcast_in_dim" source_file="/global/homes/j/jackm/software/lorrax_C/src/bandstructure/htransform.py" source_line=286}
  %Arg_2.113 = f64[181,960]{1,0} parameter(2), metadata={op_name="jit(_post_kpath)/jit(main)/vmap(while)/body/jit(_fun_jit)/pjit"}
  ROOT %select.115 = f64[181,960]{1,0} select(%Arg_0.111, %broadcast.114, %Arg_2.113), metadata={op_name="jit(_post_kpath)/jit(main)/vmap(while)/body/jit(_fun_jit)/jit(_where)/select_n" source_file="/global/homes/j/jackm/software/lorrax_C/src/bandstructure/htransform.py" source_line=286}
}

%_dfun_jit.116 (Arg_0.117: f64[181,960]) -> f64[181,960] {
  %Arg_0.117 = f64[181,960]{1,0} parameter(0), metadata={op_name="jit(_post_kpath)/jit(main)/vmap(while)/body/pjit"}
  %constant.134 = f64[] constant(0.98024169093943125)
  %broadcast.135 = f64[181,960]{1,0} broadcast(%constant.134), dimensions={}, metadata={op_name="jit(_post_kpath)/jit(main)/vmap(while)/body/jit(_dfun_jit)/sub" source_file="/global/homes/j/jackm/software/lorrax_C/src/bandstructure/htransform.py" source_line=298}
  %subtract.136 = f64[181,960]{1,0} subtract(%Arg_0.117, %broadcast.135), metadata={op_name="jit(_post_kpath)/jit(main)/vmap(while)/body/jit(_dfun_jit)/sub" source_file="/global/homes/j/jackm/software/lorrax_C/src/bandstructure/htransform.py" source_line=298}
  %constant.128 = f64[] constant(0)
  %broadcast.129 = f64[181,960]{1,0} broadcast(%constant.128), dimensions={}
  %compare.149 = pred[181,960]{1,0} compare(%subtract.136, %broadcast.129), direction=GE, metadata={op_name="jit(_post_kpath)/jit(main)/vmap(while)/body/jit(_dfun_jit)/ge" source_file="/global/homes/j/jackm/software/lorrax_C/src/bandstructure/htransform.py" source_line=305}
  %constant.133 = f64[] constant(0)
  %compare.138 = pred[181,960]{1,0} compare(%subtract.136, %broadcast.129), direction=LT, metadata={op_name="jit(_post_kpath)/jit(main)/vmap(while)/body/jit(_dfun_jit)/lt" source_file="/global/homes/j/jackm/software/lorrax_C/src/bandstructure/htransform.py" source_line=300}
  %constant.130 = f64[] constant(-0.65647605190884883)
  %broadcast.131 = f64[181,960]{1,0} broadcast(%constant.130), dimensions={}
  %compare.137 = pred[181,960]{1,0} compare(%subtract.136, %broadcast.131), direction=LE, metadata={op_name="jit(_post_kpath)/jit(main)/vmap(while)/body/jit(_dfun_jit)/le" source_file="/global/homes/j/jackm/software/lorrax_C/src/bandstructure/htransform.py" source_line=299}
  %not.139 = pred[181,960]{1,0} not(%compare.137), metadata={op_name="jit(_post_kpath)/jit(main)/vmap(while)/body/jit(_dfun_jit)/not" source_file="/global/homes/j/jackm/software/lorrax_C/src/bandstructure/htransform.py" source_line=300}
  %and.140 = pred[181,960]{1,0} and(%compare.138, %not.139), metadata={op_name="jit(_post_kpath)/jit(main)/vmap(while)/body/jit(_dfun_jit)/and" source_file="/global/homes/j/jackm/software/lorrax_C/src/bandstructure/htransform.py" source_line=300}
  %constant.122 = f64[] constant(0.5)
  %broadcast.123 = f64[181,960]{1,0} broadcast(%constant.122), dimensions={}
  %constant.124 = f64[] constant(0.65647605190884883)
  %broadcast.125 = f64[181,960]{1,0} broadcast(%constant.124), dimensions={}
  %divide.142 = f64[181,960]{1,0} divide(%subtract.136, %broadcast.125), metadata={op_name="jit(_post_kpath)/jit(main)/vmap(while)/body/jit(_dfun_jit)/div" source_file="/global/homes/j/jackm/software/lorrax_C/src/bandstructure/htransform.py" source_line=303}
  %add.143 = f64[181,960]{1,0} add(%divide.142, %broadcast.123), metadata={op_name="jit(_post_kpath)/jit(main)/vmap(while)/body/jit(_dfun_jit)/add" source_file="/global/homes/j/jackm/software/lorrax_C/src/bandstructure/htransform.py" source_line=303}
  %constant.120 = f64[] constant(3)
  %broadcast.121 = f64[181,960]{1,0} broadcast(%constant.120), dimensions={}
  %multiply.144 = f64[181,960]{1,0} multiply(%add.143, %broadcast.121), metadata={op_name="jit(_post_kpath)/jit(main)/vmap(while)/body/jit(_dfun_jit)/mul" source_file="/global/homes/j/jackm/software/lorrax_C/src/bandstructure/htransform.py" source_line=303}
  %erf.145 = f64[181,960]{1,0} erf(%multiply.144), metadata={op_name="jit(_post_kpath)/jit(main)/vmap(while)/body/jit(_dfun_jit)/erf" source_file="/global/homes/j/jackm/software/lorrax_C/src/bandstructure/htransform.py" source_line=304}
  %constant.118 = f64[] constant(1.9322102929506215)
  %broadcast.119 = f64[181,960]{1,0} broadcast(%constant.118), dimensions={}
  %divide.146 = f64[181,960]{1,0} divide(%erf.145, %broadcast.119), metadata={op_name="jit(_post_kpath)/jit(main)/vmap(while)/body/jit(_dfun_jit)/div" source_file="/global/homes/j/jackm/software/lorrax_C/src/bandstructure/htransform.py" source_line=304}
  %subtract.147 = f64[181,960]{1,0} subtract(%broadcast.123, %divide.146), metadata={op_name="jit(_post_kpath)/jit(main)/vmap(while)/body/jit(_dfun_jit)/sub" source_file="/global/homes/j/jackm/software/lorrax_C/src/bandstructure/htransform.py" source_line=304}
  %constant.132 = f64[] constant(1)
  %constant.126 = f64[] constant(0)
  %broadcast.127 = f64[960]{0} broadcast(%constant.126), dimensions={}
  %call.141 = f64[181,960]{1,0} call(%compare.137, %constant.132, %broadcast.127), to_apply=%_where_2.98
  %call.148 = f64[181,960]{1,0} call(%and.140, %subtract.147, %call.141), to_apply=%_where_0.105
  ROOT %call.150 = f64[181,960]{1,0} call(%compare.149, %constant.133, %call.148), to_apply=%_where_1.110
}

%_where.151 (Arg_0.152: pred[181,960], Arg_1.153: f64[181,960], Arg_2.154: f64[]) -> f64[181,960] {
  %Arg_0.152 = pred[181,960]{1,0} parameter(0), metadata={op_name="jit(_post_kpath)/jit(main)/vmap(while)/body/jit(_fun_jit)/pjit"}
  %Arg_1.153 = f64[181,960]{1,0} parameter(1), metadata={op_name="jit(_post_kpath)/jit(main)/vmap(while)/body/jit(_fun_jit)/pjit"}
  %Arg_2.154 = f64[] parameter(2), metadata={op_name="jit(_post_kpath)/jit(main)/vmap(while)/body/jit(_fun_jit)/pjit"}
  %broadcast.155 = f64[181,960]{1,0} broadcast(%Arg_2.154), dimensions={}, metadata={op_name="jit(_post_kpath)/jit(main)/vmap(while)/body/jit(_fun_jit)/jit(_where)/broadcast_in_dim" source_file="/global/homes/j/jackm/software/lorrax_C/src/bandstructure/htransform.py" source_line=284}
  ROOT %select.156 = f64[181,960]{1,0} select(%Arg_0.152, %Arg_1.153, %broadcast.155), metadata={op_name="jit(_post_kpath)/jit(main)/vmap(while)/body/jit(_fun_jit)/jit(_where)/select_n" source_file="/global/homes/j/jackm/software/lorrax_C/src/bandstructure/htransform.py" source_line=284}
}

%clip.157 (Arg_0.158: f64[181,960], Arg_1.159: f64[], Arg_2.160: f64[]) -> f64[181,960] {
  %Arg_2.160 = f64[] parameter(2), metadata={op_name="jit(_post_kpath)/jit(main)/vmap(while)/body/pjit"}
  %broadcast.163 = f64[181,960]{1,0} broadcast(%Arg_2.160), dimensions={}, metadata={op_name="jit(_post_kpath)/jit(main)/vmap(while)/body/jit(clip)/min" source_file="/global/homes/j/jackm/software/lorrax_C/src/bandstructure/htransform.py" source_line=333}
  %Arg_1.159 = f64[] parameter(1), metadata={op_name="jit(_post_kpath)/jit(main)/vmap(while)/body/pjit"}
  %broadcast.161 = f64[181,960]{1,0} broadcast(%Arg_1.159), dimensions={}, metadata={op_name="jit(_post_kpath)/jit(main)/vmap(while)/body/jit(clip)/max" source_file="/global/homes/j/jackm/software/lorrax_C/src/bandstructure/htransform.py" source_line=333}
  %Arg_0.158 = f64[181,960]{1,0} parameter(0), metadata={op_name="jit(_post_kpath)/jit(main)/vmap(while)/body/pjit"}
  %maximum.162 = f64[181,960]{1,0} maximum(%broadcast.161, %Arg_0.158), metadata={op_name="jit(_post_kpath)/jit(main)/vmap(while)/body/jit(clip)/max" source_file="/global/homes/j/jackm/software/lorrax_C/src/bandstructure/htransform.py" source_line=333}
  ROOT %minimum.164 = f64[181,960]{1,0} minimum(%broadcast.163, %maximum.162), metadata={op_name="jit(_post_kpath)/jit(main)/vmap(while)/body/jit(clip)/min" source_file="/global/homes/j/jackm/software/lorrax_C/src/bandstructure/htransform.py" source_line=333}
}

%None.165 (Arg_0.166: f64[181,960], Arg_1.167: f64[181,960]) -> f64[181,960] {
  %Arg_1.167 = f64[181,960]{1,0} parameter(1), metadata={op_name="jit(_post_kpath)/jit(main)/vmap(while)/body/closed_call"}
  %call.175 = f64[181,960]{1,0} call(%Arg_1.167), to_apply=%_dfun_jit.116
  %abs.176 = f64[181,960]{1,0} abs(%call.175), metadata={op_name="jit(_post_kpath)/jit(main)/vmap(while)/body/abs" source_file="/global/homes/j/jackm/software/lorrax_C/src/bandstructure/htransform.py" source_line=332}
  %constant.168 = f64[] constant(1e-14)
  %broadcast.169 = f64[181,960]{1,0} broadcast(%constant.168), dimensions={}
  %compare.177 = pred[181,960]{1,0} compare(%abs.176, %broadcast.169), direction=GT, metadata={op_name="jit(_post_kpath)/jit(main)/vmap(while)/body/gt" source_file="/global/homes/j/jackm/software/lorrax_C/src/bandstructure/htransform.py" source_line=332}
  %call.173 = f64[181,960]{1,0} call(%Arg_1.167), to_apply=%_fun_jit.37
  %Arg_0.166 = f64[181,960]{1,0} parameter(0), metadata={op_name="jit(_post_kpath)/jit(main)/vmap(while)/body/closed_call"}
  %subtract.174 = f64[181,960]{1,0} subtract(%call.173, %Arg_0.166), metadata={op_name="jit(_post_kpath)/jit(main)/vmap(while)/body/sub" source_file="/global/homes/j/jackm/software/lorrax_C/src/bandstructure/htransform.py" source_line=330}
  %negate.178 = f64[181,960]{1,0} negate(%subtract.174), metadata={op_name="jit(_post_kpath)/jit(main)/vmap(while)/body/neg" source_file="/global/homes/j/jackm/software/lorrax_C/src/bandstructure/htransform.py" source_line=332}
  %divide.179 = f64[181,960]{1,0} divide(%negate.178, %call.175), metadata={op_name="jit(_post_kpath)/jit(main)/vmap(while)/body/div" source_file="/global/homes/j/jackm/software/lorrax_C/src/bandstructure/htransform.py" source_line=332}
  %constant.172 = f64[] constant(0)
  %call.180 = f64[181,960]{1,0} call(%compare.177, %divide.179, %constant.172), to_apply=%_where.151
  %constant.171 = f64[] constant(-0.32823802595442442)
  %constant.170 = f64[] constant(0.32823802595442442)
  %call.181 = f64[181,960]{1,0} call(%call.180, %constant.171, %constant.170), to_apply=%clip.157
  ROOT %add.182 = f64[181,960]{1,0} add(%Arg_1.167, %call.181), metadata={op_name="jit(_post_kpath)/jit(main)/vmap(while)/body/add" source_file="/global/homes/j/jackm/software/lorrax_C/src/bandstructure/htransform.py" source_line=334}
}

%region_0.183 (arg_tuple.184: (s64[], f64[181,960], f64[181,960])) -> (s64[], f64[181,960], f64[181,960]) {
  %arg_tuple.184 = (s64[], f64[181,960]{1,0}, f64[181,960]{1,0}) parameter(0)
  %get-tuple-element.185 = s64[] get-tuple-element(%arg_tuple.184), index=0
  %constant.188 = s64[] constant(1)
  %add.190 = s64[] add(%get-tuple-element.185, %constant.188), metadata={op_name="jit(_post_kpath)/jit(main)/vmap(while)/body/add" source_file="/global/homes/j/jackm/software/lorrax_C/src/bandstructure/htransform.py" source_line=336}
  %get-tuple-element.187 = f64[181,960]{1,0} get-tuple-element(%arg_tuple.184), index=2
  %get-tuple-element.186 = f64[181,960]{1,0} get-tuple-element(%arg_tuple.184), index=1
  %call.189 = f64[181,960]{1,0} call(%get-tuple-element.187, %get-tuple-element.186), to_apply=%None.165
  ROOT %tuple.191 = (s64[], f64[181,960]{1,0}, f64[181,960]{1,0}) tuple(%add.190, %call.189, %get-tuple-element.187)
}

%region_1.192 (arg_tuple.193: (s64[], f64[181,960], f64[181,960])) -> pred[] {
  %arg_tuple.193 = (s64[], f64[181,960]{1,0}, f64[181,960]{1,0}) parameter(0)
  %get-tuple-element.195 = f64[181,960]{1,0} get-tuple-element(%arg_tuple.193), index=1
  %get-tuple-element.196 = f64[181,960]{1,0} get-tuple-element(%arg_tuple.193), index=2
  %get-tuple-element.194 = s64[] get-tuple-element(%arg_tuple.193), index=0
  %constant.197 = s64[] constant(50)
  ROOT %compare.198 = pred[] compare(%get-tuple-element.194, %constant.197), direction=LT, metadata={op_name="jit(_post_kpath)/jit(main)/vmap(while)/cond/lt" source_file="/global/homes/j/jackm/software/lorrax_C/src/bandstructure/htransform.py" source_line=336}
}

%region_2.202 (Arg_0.203: f64[], Arg_1.204: f64[]) -> pred[] {
  %Arg_0.203 = f64[] parameter(0), metadata={op_name="jit(_post_kpath)/jit(main)/jit(sort)/sort"}
  %compare.209 = pred[] compare(%Arg_0.203, %Arg_0.203), direction=NE, metadata={op_name="jit(_post_kpath)/jit(main)/jit(sort)/ne" source_file="/global/homes/j/jackm/software/lorrax_C/src/bandstructure/htransform.py" source_line=689}
  %constant.205 = f64[] constant(nan)
  %constant.206 = f64[] constant(0)
  %compare.207 = pred[] compare(%Arg_0.203, %constant.206), direction=EQ, metadata={op_name="jit(_post_kpath)/jit(main)/jit(sort)/eq" source_file="/global/homes/j/jackm/software/lorrax_C/src/bandstructure/htransform.py" source_line=689}
  %select.208 = f64[] select(%compare.207, %constant.206, %Arg_0.203), metadata={op_name="jit(_post_kpath)/jit(main)/jit(sort)/select_n" source_file="/global/homes/j/jackm/software/lorrax_C/src/bandstructure/htransform.py" source_line=689}
  %select.210 = f64[] select(%compare.209, %constant.205, %select.208), metadata={op_name="jit(_post_kpath)/jit(main)/jit(sort)/select_n" source_file="/global/homes/j/jackm/software/lorrax_C/src/bandstructure/htransform.py" source_line=689}
  %Arg_1.204 = f64[] parameter(1), metadata={op_name="jit(_post_kpath)/jit(main)/jit(sort)/sort"}
  %compare.213 = pred[] compare(%Arg_1.204, %Arg_1.204), direction=NE, metadata={op_name="jit(_post_kpath)/jit(main)/jit(sort)/ne" source_file="/global/homes/j/jackm/software/lorrax_C/src/bandstructure/htransform.py" source_line=689}
  %compare.211 = pred[] compare(%Arg_1.204, %constant.206), direction=EQ, metadata={op_name="jit(_post_kpath)/jit(main)/jit(sort)/eq" source_file="/global/homes/j/jackm/software/lorrax_C/src/bandstructure/htransform.py" source_line=689}
  %select.212 = f64[] select(%compare.211, %constant.206, %Arg_1.204), metadata={op_name="jit(_post_kpath)/jit(main)/jit(sort)/select_n" source_file="/global/homes/j/jackm/software/lorrax_C/src/bandstructure/htransform.py" source_line=689}
  %select.214 = f64[] select(%compare.213, %constant.205, %select.212), metadata={op_name="jit(_post_kpath)/jit(main)/jit(sort)/select_n" source_file="/global/homes/j/jackm/software/lorrax_C/src/bandstructure/htransform.py" source_line=689}
  ROOT %compare.215 = pred[] compare(%select.210, %select.214), direction=LT, type=TOTALORDER, metadata={op_name="jit(_post_kpath)/jit(main)/jit(sort)/lt_to" source_file="/global/homes/j/jackm/software/lorrax_C/src/bandstructure/htransform.py" source_line=689}
}

%sort.216 (Arg_0.217: f64[181,960]) -> f64[181,960] {
  %Arg_0.217 = f64[181,960]{1,0} parameter(0), metadata={op_name="jit(_post_kpath)/jit(main)/pjit"}
  ROOT %sort.218 = f64[181,960]{1,0} sort(%Arg_0.217), dimensions={1}, is_stable=true, to_apply=%region_2.202, metadata={op_name="jit(_post_kpath)/jit(main)/jit(sort)/sort" source_file="/global/homes/j/jackm/software/lorrax_C/src/bandstructure/htransform.py" source_line=689}
}

ENTRY %main.222 (Arg_0.1: f64[32,960], Arg_1.2: f64[32,960], Arg_2.3: f64[32,960], Arg_3.4: f64[32,960], Arg_4.5: f64[32,960], Arg_5.6: f64[32,960]) -> (f64[181,960], f64[181,60]) {
  %constant.9 = s64[] constant(0)
  %Arg_0.1 = f64[32,960]{1,0} parameter(0), sharding={replicated}, metadata={op_name="batches[0]"}
  %Arg_1.2 = f64[32,960]{1,0} parameter(1), sharding={replicated}, metadata={op_name="batches[1]"}
  %Arg_2.3 = f64[32,960]{1,0} parameter(2), sharding={replicated}, metadata={op_name="batches[2]"}
  %Arg_3.4 = f64[32,960]{1,0} parameter(3), sharding={replicated}, metadata={op_name="batches[3]"}
  %Arg_4.5 = f64[32,960]{1,0} parameter(4), sharding={replicated}, metadata={op_name="batches[4]"}
  %Arg_5.6 = f64[32,960]{1,0} parameter(5), sharding={replicated}, metadata={op_name="batches[5]"}
  %concatenate.10 = f64[192,960]{1,0} concatenate(%Arg_0.1, %Arg_1.2, %Arg_2.3, %Arg_3.4, %Arg_4.5, /*index=5*/%Arg_5.6), dimensions={0}, metadata={op_name="jit(_post_kpath)/jit(main)/concatenate" source_file="/global/homes/j/jackm/software/lorrax_C/src/bandstructure/htransform.py" source_line=687}
  %slice.11 = f64[181,960]{1,0} slice(%concatenate.10), slice={[0:181], [0:960]}, metadata={op_name="jit(_post_kpath)/jit(main)/slice" source_file="/global/homes/j/jackm/software/lorrax_C/src/bandstructure/htransform.py" source_line=687}
  %constant.7 = f64[] constant(0.98024169093943125)
  %broadcast.8 = f64[181,960]{1,0} broadcast(%constant.7), dimensions={}
  %add.12 = f64[181,960]{1,0} add(%slice.11, %broadcast.8), metadata={op_name="jit(_post_kpath)/jit(main)/add" source_file="/global/homes/j/jackm/software/lorrax_C/src/bandstructure/htransform.py" source_line=327}
  %tuple.13 = (s64[], f64[181,960]{1,0}, f64[181,960]{1,0}) tuple(%constant.9, %add.12, %slice.11), metadata={op_name="jit(_post_kpath)/jit(main)/while" source_file="/global/homes/j/jackm/software/lorrax_C/src/bandstructure/htransform.py" source_line=336}
  %while.199 = (s64[], f64[181,960]{1,0}, f64[181,960]{1,0}) while(%tuple.13), condition=%region_1.192, body=%region_0.183, metadata={op_name="jit(_post_kpath)/jit(main)/while" source_file="/global/homes/j/jackm/software/lorrax_C/src/bandstructure/htransform.py" source_line=336}
  %get-tuple-element.200 = s64[] get-tuple-element(%while.199), index=0, metadata={op_name="jit(_post_kpath)/jit(main)/while" source_file="/global/homes/j/jackm/software/lorrax_C/src/bandstructure/htransform.py" source_line=336}
  %get-tuple-element.201 = f64[181,960]{1,0} get-tuple-element(%while.199), index=1, metadata={op_name="jit(_post_kpath)/jit(main)/while" source_file="/global/homes/j/jackm/software/lorrax_C/src/bandstructure/htransform.py" source_line=336}
  %call.219 = f64[181,960]{1,0} call(%get-tuple-element.201), to_apply=%sort.216
  %slice.220 = f64[181,60]{1,0} slice(%call.219), slice={[0:181], [0:60]}, metadata={op_name="jit(_post_kpath)/jit(main)/slice" source_file="/global/homes/j/jackm/software/lorrax_C/src/bandstructure/htransform.py" source_line=689}
  ROOT %tuple.221 = (f64[181,960]{1,0}, f64[181,60]{1,0}) tuple(%get-tuple-element.201, %slice.220)
}

