HloModule jit__full_run, entry_computation_layout={(c128[64,4,2,480]{3,2,1,0}, c128[64,4,2,480]{3,2,1,0}, c128[64,4,2,480]{3,2,1,0}, c128[64,4,2,480]{3,2,1,0}, f64[64,4]{1,0}, /*index=5*/f64[64,4]{1,0}, c128[480,480,4,4,4]{4,3,2,1,0}, c128[480,480]{1,0})->(f64[20]{0}, c128[20,1024]{1,0})}, allow_spmd_sharding_propagation_to_parameters={false,false,false,false,true,true,false,false}, allow_spmd_sharding_propagation_to_output={true,true}, num_partitions=4

%fft.36 (Arg_0.37: c128[480,480,4,4,4]) -> c128[480,480,4,4,4] {
  %Arg_0.37 = c128[480,480,4,4,4]{4,3,2,1,0} parameter(0), metadata={op_name="jit(_full_run)/jit(main)/pjit"}
  ROOT %fft.38 = c128[480,480,4,4,4]{4,3,2,1,0} fft(%Arg_0.37), fft_type=IFFT, fft_length={4,4,4}, metadata={op_name="jit(_full_run)/jit(main)/jit(fft)/fft" source_file="/global/homes/j/jackm/software/lorrax_C/src/bse/bse_lanczos.py" source_line=156}
}

%region_0.40 (Arg_0.41: c128[], Arg_1.42: c128[]) -> c128[] {
  %Arg_0.41 = c128[] parameter(0), metadata={op_name="jit(_full_run)/jit(main)/reduce_prod"}
  %Arg_1.42 = c128[] parameter(1), metadata={op_name="jit(_full_run)/jit(main)/reduce_prod"}
  ROOT %multiply.43 = c128[] multiply(%Arg_0.41, %Arg_1.42), metadata={op_name="jit(_full_run)/jit(main)/reduce_prod" source_file="/global/homes/j/jackm/software/lorrax_C/src/bse/bse_lanczos.py" source_line=156}
}

%threefry2x32.145 (Arg_0.146: u32[], Arg_1.147: u32[], Arg_2.148: u32[2], Arg_3.149: u32[2]) -> (u32[2], u32[2]) {
  %Arg_2.148 = u32[2]{0} parameter(2), metadata={op_name="jit(_full_run)/jit(main)/jit(_threefry_split)/threefry2x32"}
  %Arg_0.146 = u32[] parameter(0), metadata={op_name="jit(_full_run)/jit(main)/jit(_threefry_split)/threefry2x32"}
  %broadcast.183 = u32[2]{0} broadcast(%Arg_0.146), dimensions={}, metadata={op_name="jit(_full_run)/jit(main)/jit(_threefry_split)/add" source_file="/global/homes/j/jackm/software/lorrax_C/src/solvers/lanczos.py" source_line=245}
  %add.184 = u32[2]{0} add(%Arg_2.148, %broadcast.183), metadata={op_name="jit(_full_run)/jit(main)/jit(_threefry_split)/add" source_file="/global/homes/j/jackm/software/lorrax_C/src/solvers/lanczos.py" source_line=245}
  %Arg_3.149 = u32[2]{0} parameter(3), metadata={op_name="jit(_full_run)/jit(main)/jit(_threefry_split)/threefry2x32"}
  %Arg_1.147 = u32[] parameter(1), metadata={op_name="jit(_full_run)/jit(main)/jit(_threefry_split)/threefry2x32"}
  %broadcast.185 = u32[2]{0} broadcast(%Arg_1.147), dimensions={}, metadata={op_name="jit(_full_run)/jit(main)/jit(_threefry_split)/add" source_file="/global/homes/j/jackm/software/lorrax_C/src/solvers/lanczos.py" source_line=245}
  %add.186 = u32[2]{0} add(%Arg_3.149, %broadcast.185), metadata={op_name="jit(_full_run)/jit(main)/jit(_threefry_split)/add" source_file="/global/homes/j/jackm/software/lorrax_C/src/solvers/lanczos.py" source_line=245}
  %add.187 = u32[2]{0} add(%add.184, %add.186), metadata={op_name="jit(_full_run)/jit(main)/jit(_threefry_split)/add" source_file="/global/homes/j/jackm/software/lorrax_C/src/solvers/lanczos.py" source_line=245}
  %constant.178 = u32[] constant(13)
  %broadcast.179 = u32[2]{0} broadcast(%constant.178), dimensions={}
  %shift-left.188 = u32[2]{0} shift-left(%add.186, %broadcast.179), metadata={op_name="jit(_full_run)/jit(main)/jit(_threefry_split)/shift_left" source_file="/global/homes/j/jackm/software/lorrax_C/src/solvers/lanczos.py" source_line=245}
  %constant.176 = u32[] constant(19)
  %broadcast.177 = u32[2]{0} broadcast(%constant.176), dimensions={}
  %shift-right-logical.189 = u32[2]{0} shift-right-logical(%add.186, %broadcast.177), metadata={op_name="jit(_full_run)/jit(main)/jit(_threefry_split)/shift_right_logical" source_file="/global/homes/j/jackm/software/lorrax_C/src/solvers/lanczos.py" source_line=245}
  %or.190 = u32[2]{0} or(%shift-left.188, %shift-right-logical.189), metadata={op_name="jit(_full_run)/jit(main)/jit(_threefry_split)/or" source_file="/global/homes/j/jackm/software/lorrax_C/src/solvers/lanczos.py" source_line=245}
  %xor.191 = u32[2]{0} xor(%add.187, %or.190), metadata={op_name="jit(_full_run)/jit(main)/jit(_threefry_split)/xor" source_file="/global/homes/j/jackm/software/lorrax_C/src/solvers/lanczos.py" source_line=245}
  %add.192 = u32[2]{0} add(%add.187, %xor.191), metadata={op_name="jit(_full_run)/jit(main)/jit(_threefry_split)/add" source_file="/global/homes/j/jackm/software/lorrax_C/src/solvers/lanczos.py" source_line=245}
  %constant.174 = u32[] constant(15)
  %broadcast.175 = u32[2]{0} broadcast(%constant.174), dimensions={}
  %shift-left.193 = u32[2]{0} shift-left(%xor.191, %broadcast.175), metadata={op_name="jit(_full_run)/jit(main)/jit(_threefry_split)/shift_left" source_file="/global/homes/j/jackm/software/lorrax_C/src/solvers/lanczos.py" source_line=245}
  %constant.172 = u32[] constant(17)
  %broadcast.173 = u32[2]{0} broadcast(%constant.172), dimensions={}
  %shift-right-logical.194 = u32[2]{0} shift-right-logical(%xor.191, %broadcast.173), metadata={op_name="jit(_full_run)/jit(main)/jit(_threefry_split)/shift_right_logical" source_file="/global/homes/j/jackm/software/lorrax_C/src/solvers/lanczos.py" source_line=245}
  %or.195 = u32[2]{0} or(%shift-left.193, %shift-right-logical.194), metadata={op_name="jit(_full_run)/jit(main)/jit(_threefry_split)/or" source_file="/global/homes/j/jackm/software/lorrax_C/src/solvers/lanczos.py" source_line=245}
  %xor.196 = u32[2]{0} xor(%add.192, %or.195), metadata={op_name="jit(_full_run)/jit(main)/jit(_threefry_split)/xor" source_file="/global/homes/j/jackm/software/lorrax_C/src/solvers/lanczos.py" source_line=245}
  %add.197 = u32[2]{0} add(%add.192, %xor.196), metadata={op_name="jit(_full_run)/jit(main)/jit(_threefry_split)/add" source_file="/global/homes/j/jackm/software/lorrax_C/src/solvers/lanczos.py" source_line=245}
  %constant.170 = u32[] constant(26)
  %broadcast.171 = u32[2]{0} broadcast(%constant.170), dimensions={}
  %shift-left.198 = u32[2]{0} shift-left(%xor.196, %broadcast.171), metadata={op_name="jit(_full_run)/jit(main)/jit(_threefry_split)/shift_left" source_file="/global/homes/j/jackm/software/lorrax_C/src/solvers/lanczos.py" source_line=245}
  %constant.168 = u32[] constant(6)
  %broadcast.169 = u32[2]{0} broadcast(%constant.168), dimensions={}
  %shift-right-logical.199 = u32[2]{0} shift-right-logical(%xor.196, %broadcast.169), metadata={op_name="jit(_full_run)/jit(main)/jit(_threefry_split)/shift_right_logical" source_file="/global/homes/j/jackm/software/lorrax_C/src/solvers/lanczos.py" source_line=245}
  %or.200 = u32[2]{0} or(%shift-left.198, %shift-right-logical.199), metadata={op_name="jit(_full_run)/jit(main)/jit(_threefry_split)/or" source_file="/global/homes/j/jackm/software/lorrax_C/src/solvers/lanczos.py" source_line=245}
  %xor.201 = u32[2]{0} xor(%add.197, %or.200), metadata={op_name="jit(_full_run)/jit(main)/jit(_threefry_split)/xor" source_file="/global/homes/j/jackm/software/lorrax_C/src/solvers/lanczos.py" source_line=245}
  %add.202 = u32[2]{0} add(%add.197, %xor.201), metadata={op_name="jit(_full_run)/jit(main)/jit(_threefry_split)/add" source_file="/global/homes/j/jackm/software/lorrax_C/src/solvers/lanczos.py" source_line=245}
  %broadcast.207 = u32[2]{0} broadcast(%Arg_1.147), dimensions={}, metadata={op_name="jit(_full_run)/jit(main)/jit(_threefry_split)/add" source_file="/global/homes/j/jackm/software/lorrax_C/src/solvers/lanczos.py" source_line=245}
  %add.208 = u32[2]{0} add(%add.202, %broadcast.207), metadata={op_name="jit(_full_run)/jit(main)/jit(_threefry_split)/add" source_file="/global/homes/j/jackm/software/lorrax_C/src/solvers/lanczos.py" source_line=245}
  %shift-left.203 = u32[2]{0} shift-left(%xor.201, %broadcast.169), metadata={op_name="jit(_full_run)/jit(main)/jit(_threefry_split)/shift_left" source_file="/global/homes/j/jackm/software/lorrax_C/src/solvers/lanczos.py" source_line=245}
  %shift-right-logical.204 = u32[2]{0} shift-right-logical(%xor.201, %broadcast.171), metadata={op_name="jit(_full_run)/jit(main)/jit(_threefry_split)/shift_right_logical" source_file="/global/homes/j/jackm/software/lorrax_C/src/solvers/lanczos.py" source_line=245}
  %or.205 = u32[2]{0} or(%shift-left.203, %shift-right-logical.204), metadata={op_name="jit(_full_run)/jit(main)/jit(_threefry_split)/or" source_file="/global/homes/j/jackm/software/lorrax_C/src/solvers/lanczos.py" source_line=245}
  %xor.206 = u32[2]{0} xor(%add.202, %or.205), metadata={op_name="jit(_full_run)/jit(main)/jit(_threefry_split)/xor" source_file="/global/homes/j/jackm/software/lorrax_C/src/solvers/lanczos.py" source_line=245}
  %xor.181 = u32[] xor(%Arg_0.146, %Arg_1.147), metadata={op_name="jit(_full_run)/jit(main)/jit(_threefry_split)/xor" source_file="/global/homes/j/jackm/software/lorrax_C/src/solvers/lanczos.py" source_line=245}
  %constant.180 = u32[] constant(466688986)
  %xor.182 = u32[] xor(%xor.181, %constant.180), metadata={op_name="jit(_full_run)/jit(main)/jit(_threefry_split)/xor" source_file="/global/homes/j/jackm/software/lorrax_C/src/solvers/lanczos.py" source_line=245}
  %broadcast.209 = u32[2]{0} broadcast(%xor.182), dimensions={}, metadata={op_name="jit(_full_run)/jit(main)/jit(_threefry_split)/add" source_file="/global/homes/j/jackm/software/lorrax_C/src/solvers/lanczos.py" source_line=245}
  %add.210 = u32[2]{0} add(%xor.206, %broadcast.209), metadata={op_name="jit(_full_run)/jit(main)/jit(_threefry_split)/add" source_file="/global/homes/j/jackm/software/lorrax_C/src/solvers/lanczos.py" source_line=245}
  %constant.166 = u32[] constant(1)
  %broadcast.167 = u32[2]{0} broadcast(%constant.166), dimensions={}
  %add.211 = u32[2]{0} add(%add.210, %broadcast.167), metadata={op_name="jit(_full_run)/jit(main)/jit(_threefry_split)/add" source_file="/global/homes/j/jackm/software/lorrax_C/src/solvers/lanczos.py" source_line=245}
  %add.212 = u32[2]{0} add(%add.208, %add.211), metadata={op_name="jit(_full_run)/jit(main)/jit(_threefry_split)/add" source_file="/global/homes/j/jackm/software/lorrax_C/src/solvers/lanczos.py" source_line=245}
  %shift-left.213 = u32[2]{0} shift-left(%add.211, %broadcast.173), metadata={op_name="jit(_full_run)/jit(main)/jit(_threefry_split)/shift_left" source_file="/global/homes/j/jackm/software/lorrax_C/src/solvers/lanczos.py" source_line=245}
  %shift-right-logical.214 = u32[2]{0} shift-right-logical(%add.211, %broadcast.175), metadata={op_name="jit(_full_run)/jit(main)/jit(_threefry_split)/shift_right_logical" source_file="/global/homes/j/jackm/software/lorrax_C/src/solvers/lanczos.py" source_line=245}
  %or.215 = u32[2]{0} or(%shift-left.213, %shift-right-logical.214), metadata={op_name="jit(_full_run)/jit(main)/jit(_threefry_split)/or" source_file="/global/homes/j/jackm/software/lorrax_C/src/solvers/lanczos.py" source_line=245}
  %xor.216 = u32[2]{0} xor(%add.212, %or.215), metadata={op_name="jit(_full_run)/jit(main)/jit(_threefry_split)/xor" source_file="/global/homes/j/jackm/software/lorrax_C/src/solvers/lanczos.py" source_line=245}
  %add.217 = u32[2]{0} add(%add.212, %xor.216), metadata={op_name="jit(_full_run)/jit(main)/jit(_threefry_split)/add" source_file="/global/homes/j/jackm/software/lorrax_C/src/solvers/lanczos.py" source_line=245}
  %constant.164 = u32[] constant(29)
  %broadcast.165 = u32[2]{0} broadcast(%constant.164), dimensions={}
  %shift-left.218 = u32[2]{0} shift-left(%xor.216, %broadcast.165), metadata={op_name="jit(_full_run)/jit(main)/jit(_threefry_split)/shift_left" source_file="/global/homes/j/jackm/software/lorrax_C/src/solvers/lanczos.py" source_line=245}
  %constant.162 = u32[] constant(3)
  %broadcast.163 = u32[2]{0} broadcast(%constant.162), dimensions={}
  %shift-right-logical.219 = u32[2]{0} shift-right-logical(%xor.216, %broadcast.163), metadata={op_name="jit(_full_run)/jit(main)/jit(_threefry_split)/shift_right_logical" source_file="/global/homes/j/jackm/software/lorrax_C/src/solvers/lanczos.py" source_line=245}
  %or.220 = u32[2]{0} or(%shift-left.218, %shift-right-logical.219), metadata={op_name="jit(_full_run)/jit(main)/jit(_threefry_split)/or" source_file="/global/homes/j/jackm/software/lorrax_C/src/solvers/lanczos.py" source_line=245}
  %xor.221 = u32[2]{0} xor(%add.217, %or.220), metadata={op_name="jit(_full_run)/jit(main)/jit(_threefry_split)/xor" source_file="/global/homes/j/jackm/software/lorrax_C/src/solvers/lanczos.py" source_line=245}
  %add.222 = u32[2]{0} add(%add.217, %xor.221), metadata={op_name="jit(_full_run)/jit(main)/jit(_threefry_split)/add" source_file="/global/homes/j/jackm/software/lorrax_C/src/solvers/lanczos.py" source_line=245}
  %constant.160 = u32[] constant(16)
  %broadcast.161 = u32[2]{0} broadcast(%constant.160), dimensions={}
  %shift-left.223 = u32[2]{0} shift-left(%xor.221, %broadcast.161), metadata={op_name="jit(_full_run)/jit(main)/jit(_threefry_split)/shift_left" source_file="/global/homes/j/jackm/software/lorrax_C/src/solvers/lanczos.py" source_line=245}
  %shift-right-logical.224 = u32[2]{0} shift-right-logical(%xor.221, %broadcast.161), metadata={op_name="jit(_full_run)/jit(main)/jit(_threefry_split)/shift_right_logical" source_file="/global/homes/j/jackm/software/lorrax_C/src/solvers/lanczos.py" source_line=245}
  %or.225 = u32[2]{0} or(%shift-left.223, %shift-right-logical.224), metadata={op_name="jit(_full_run)/jit(main)/jit(_threefry_split)/or" source_file="/global/homes/j/jackm/software/lorrax_C/src/solvers/lanczos.py" source_line=245}
  %xor.226 = u32[2]{0} xor(%add.222, %or.225), metadata={op_name="jit(_full_run)/jit(main)/jit(_threefry_split)/xor" source_file="/global/homes/j/jackm/software/lorrax_C/src/solvers/lanczos.py" source_line=245}
  %add.227 = u32[2]{0} add(%add.222, %xor.226), metadata={op_name="jit(_full_run)/jit(main)/jit(_threefry_split)/add" source_file="/global/homes/j/jackm/software/lorrax_C/src/solvers/lanczos.py" source_line=245}
  %broadcast.232 = u32[2]{0} broadcast(%xor.182), dimensions={}, metadata={op_name="jit(_full_run)/jit(main)/jit(_threefry_split)/add" source_file="/global/homes/j/jackm/software/lorrax_C/src/solvers/lanczos.py" source_line=245}
  %add.233 = u32[2]{0} add(%add.227, %broadcast.232), metadata={op_name="jit(_full_run)/jit(main)/jit(_threefry_split)/add" source_file="/global/homes/j/jackm/software/lorrax_C/src/solvers/lanczos.py" source_line=245}
  %constant.158 = u32[] constant(24)
  %broadcast.159 = u32[2]{0} broadcast(%constant.158), dimensions={}
  %shift-left.228 = u32[2]{0} shift-left(%xor.226, %broadcast.159), metadata={op_name="jit(_full_run)/jit(main)/jit(_threefry_split)/shift_left" source_file="/global/homes/j/jackm/software/lorrax_C/src/solvers/lanczos.py" source_line=245}
  %constant.156 = u32[] constant(8)
  %broadcast.157 = u32[2]{0} broadcast(%constant.156), dimensions={}
  %shift-right-logical.229 = u32[2]{0} shift-right-logical(%xor.226, %broadcast.157), metadata={op_name="jit(_full_run)/jit(main)/jit(_threefry_split)/shift_right_logical" source_file="/global/homes/j/jackm/software/lorrax_C/src/solvers/lanczos.py" source_line=245}
  %or.230 = u32[2]{0} or(%shift-left.228, %shift-right-logical.229), metadata={op_name="jit(_full_run)/jit(main)/jit(_threefry_split)/or" source_file="/global/homes/j/jackm/software/lorrax_C/src/solvers/lanczos.py" source_line=245}
  %xor.231 = u32[2]{0} xor(%add.227, %or.230), metadata={op_name="jit(_full_run)/jit(main)/jit(_threefry_split)/xor" source_file="/global/homes/j/jackm/software/lorrax_C/src/solvers/lanczos.py" source_line=245}
  %broadcast.234 = u32[2]{0} broadcast(%Arg_0.146), dimensions={}, metadata={op_name="jit(_full_run)/jit(main)/jit(_threefry_split)/add" source_file="/global/homes/j/jackm/software/lorrax_C/src/solvers/lanczos.py" source_line=245}
  %add.235 = u32[2]{0} add(%xor.231, %broadcast.234), metadata={op_name="jit(_full_run)/jit(main)/jit(_threefry_split)/add" source_file="/global/homes/j/jackm/software/lorrax_C/src/solvers/lanczos.py" source_line=245}
  %constant.154 = u32[] constant(2)
  %broadcast.155 = u32[2]{0} broadcast(%constant.154), dimensions={}
  %add.236 = u32[2]{0} add(%add.235, %broadcast.155), metadata={op_name="jit(_full_run)/jit(main)/jit(_threefry_split)/add" source_file="/global/homes/j/jackm/software/lorrax_C/src/solvers/lanczos.py" source_line=245}
  %add.237 = u32[2]{0} add(%add.233, %add.236), metadata={op_name="jit(_full_run)/jit(main)/jit(_threefry_split)/add" source_file="/global/homes/j/jackm/software/lorrax_C/src/solvers/lanczos.py" source_line=245}
  %shift-left.238 = u32[2]{0} shift-left(%add.236, %broadcast.179), metadata={op_name="jit(_full_run)/jit(main)/jit(_threefry_split)/shift_left" source_file="/global/homes/j/jackm/software/lorrax_C/src/solvers/lanczos.py" source_line=245}
  %shift-right-logical.239 = u32[2]{0} shift-right-logical(%add.236, %broadcast.177), metadata={op_name="jit(_full_run)/jit(main)/jit(_threefry_split)/shift_right_logical" source_file="/global/homes/j/jackm/software/lorrax_C/src/solvers/lanczos.py" source_line=245}
  %or.240 = u32[2]{0} or(%shift-left.238, %shift-right-logical.239), metadata={op_name="jit(_full_run)/jit(main)/jit(_threefry_split)/or" source_file="/global/homes/j/jackm/software/lorrax_C/src/solvers/lanczos.py" source_line=245}
  %xor.241 = u32[2]{0} xor(%add.237, %or.240), metadata={op_name="jit(_full_run)/jit(main)/jit(_threefry_split)/xor" source_file="/global/homes/j/jackm/software/lorrax_C/src/solvers/lanczos.py" source_line=245}
  %add.242 = u32[2]{0} add(%add.237, %xor.241), metadata={op_name="jit(_full_run)/jit(main)/jit(_threefry_split)/add" source_file="/global/homes/j/jackm/software/lorrax_C/src/solvers/lanczos.py" source_line=245}
  %shift-left.243 = u32[2]{0} shift-left(%xor.241, %broadcast.175), metadata={op_name="jit(_full_run)/jit(main)/jit(_threefry_split)/shift_left" source_file="/global/homes/j/jackm/software/lorrax_C/src/solvers/lanczos.py" source_line=245}
  %shift-right-logical.244 = u32[2]{0} shift-right-logical(%xor.241, %broadcast.173), metadata={op_name="jit(_full_run)/jit(main)/jit(_threefry_split)/shift_right_logical" source_file="/global/homes/j/jackm/software/lorrax_C/src/solvers/lanczos.py" source_line=245}
  %or.245 = u32[2]{0} or(%shift-left.243, %shift-right-logical.244), metadata={op_name="jit(_full_run)/jit(main)/jit(_threefry_split)/or" source_file="/global/homes/j/jackm/software/lorrax_C/src/solvers/lanczos.py" source_line=245}
  %xor.246 = u32[2]{0} xor(%add.242, %or.245), metadata={op_name="jit(_full_run)/jit(main)/jit(_threefry_split)/xor" source_file="/global/homes/j/jackm/software/lorrax_C/src/solvers/lanczos.py" source_line=245}
  %add.247 = u32[2]{0} add(%add.242, %xor.246), metadata={op_name="jit(_full_run)/jit(main)/jit(_threefry_split)/add" source_file="/global/homes/j/jackm/software/lorrax_C/src/solvers/lanczos.py" source_line=245}
  %shift-left.248 = u32[2]{0} shift-left(%xor.246, %broadcast.171), metadata={op_name="jit(_full_run)/jit(main)/jit(_threefry_split)/shift_left" source_file="/global/homes/j/jackm/software/lorrax_C/src/solvers/lanczos.py" source_line=245}
  %shift-right-logical.249 = u32[2]{0} shift-right-logical(%xor.246, %broadcast.169), metadata={op_name="jit(_full_run)/jit(main)/jit(_threefry_split)/shift_right_logical" source_file="/global/homes/j/jackm/software/lorrax_C/src/solvers/lanczos.py" source_line=245}
  %or.250 = u32[2]{0} or(%shift-left.248, %shift-right-logical.249), metadata={op_name="jit(_full_run)/jit(main)/jit(_threefry_split)/or" source_file="/global/homes/j/jackm/software/lorrax_C/src/solvers/lanczos.py" source_line=245}
  %xor.251 = u32[2]{0} xor(%add.247, %or.250), metadata={op_name="jit(_full_run)/jit(main)/jit(_threefry_split)/xor" source_file="/global/homes/j/jackm/software/lorrax_C/src/solvers/lanczos.py" source_line=245}
  %add.252 = u32[2]{0} add(%add.247, %xor.251), metadata={op_name="jit(_full_run)/jit(main)/jit(_threefry_split)/add" source_file="/global/homes/j/jackm/software/lorrax_C/src/solvers/lanczos.py" source_line=245}
  %broadcast.257 = u32[2]{0} broadcast(%Arg_0.146), dimensions={}, metadata={op_name="jit(_full_run)/jit(main)/jit(_threefry_split)/add" source_file="/global/homes/j/jackm/software/lorrax_C/src/solvers/lanczos.py" source_line=245}
  %add.258 = u32[2]{0} add(%add.252, %broadcast.257), metadata={op_name="jit(_full_run)/jit(main)/jit(_threefry_split)/add" source_file="/global/homes/j/jackm/software/lorrax_C/src/solvers/lanczos.py" source_line=245}
  %shift-left.253 = u32[2]{0} shift-left(%xor.251, %broadcast.169), metadata={op_name="jit(_full_run)/jit(main)/jit(_threefry_split)/shift_left" source_file="/global/homes/j/jackm/software/lorrax_C/src/solvers/lanczos.py" source_line=245}
  %shift-right-logical.254 = u32[2]{0} shift-right-logical(%xor.251, %broadcast.171), metadata={op_name="jit(_full_run)/jit(main)/jit(_threefry_split)/shift_right_logical" source_file="/global/homes/j/jackm/software/lorrax_C/src/solvers/lanczos.py" source_line=245}
  %or.255 = u32[2]{0} or(%shift-left.253, %shift-right-logical.254), metadata={op_name="jit(_full_run)/jit(main)/jit(_threefry_split)/or" source_file="/global/homes/j/jackm/software/lorrax_C/src/solvers/lanczos.py" source_line=245}
  %xor.256 = u32[2]{0} xor(%add.252, %or.255), metadata={op_name="jit(_full_run)/jit(main)/jit(_threefry_split)/xor" source_file="/global/homes/j/jackm/software/lorrax_C/src/solvers/lanczos.py" source_line=245}
  %broadcast.259 = u32[2]{0} broadcast(%Arg_1.147), dimensions={}, metadata={op_name="jit(_full_run)/jit(main)/jit(_threefry_split)/add" source_file="/global/homes/j/jackm/software/lorrax_C/src/solvers/lanczos.py" source_line=245}
  %add.260 = u32[2]{0} add(%xor.256, %broadcast.259), metadata={op_name="jit(_full_run)/jit(main)/jit(_threefry_split)/add" source_file="/global/homes/j/jackm/software/lorrax_C/src/solvers/lanczos.py" source_line=245}
  %add.261 = u32[2]{0} add(%add.260, %broadcast.163), metadata={op_name="jit(_full_run)/jit(main)/jit(_threefry_split)/add" source_file="/global/homes/j/jackm/software/lorrax_C/src/solvers/lanczos.py" source_line=245}
  %add.262 = u32[2]{0} add(%add.258, %add.261), metadata={op_name="jit(_full_run)/jit(main)/jit(_threefry_split)/add" source_file="/global/homes/j/jackm/software/lorrax_C/src/solvers/lanczos.py" source_line=245}
  %shift-left.263 = u32[2]{0} shift-left(%add.261, %broadcast.173), metadata={op_name="jit(_full_run)/jit(main)/jit(_threefry_split)/shift_left" source_file="/global/homes/j/jackm/software/lorrax_C/src/solvers/lanczos.py" source_line=245}
  %shift-right-logical.264 = u32[2]{0} shift-right-logical(%add.261, %broadcast.175), metadata={op_name="jit(_full_run)/jit(main)/jit(_threefry_split)/shift_right_logical" source_file="/global/homes/j/jackm/software/lorrax_C/src/solvers/lanczos.py" source_line=245}
  %or.265 = u32[2]{0} or(%shift-left.263, %shift-right-logical.264), metadata={op_name="jit(_full_run)/jit(main)/jit(_threefry_split)/or" source_file="/global/homes/j/jackm/software/lorrax_C/src/solvers/lanczos.py" source_line=245}
  %xor.266 = u32[2]{0} xor(%add.262, %or.265), metadata={op_name="jit(_full_run)/jit(main)/jit(_threefry_split)/xor" source_file="/global/homes/j/jackm/software/lorrax_C/src/solvers/lanczos.py" source_line=245}
  %add.267 = u32[2]{0} add(%add.262, %xor.266), metadata={op_name="jit(_full_run)/jit(main)/jit(_threefry_split)/add" source_file="/global/homes/j/jackm/software/lorrax_C/src/solvers/lanczos.py" source_line=245}
  %shift-left.268 = u32[2]{0} shift-left(%xor.266, %broadcast.165), metadata={op_name="jit(_full_run)/jit(main)/jit(_threefry_split)/shift_left" source_file="/global/homes/j/jackm/software/lorrax_C/src/solvers/lanczos.py" source_line=245}
  %shift-right-logical.269 = u32[2]{0} shift-right-logical(%xor.266, %broadcast.163), metadata={op_name="jit(_full_run)/jit(main)/jit(_threefry_split)/shift_right_logical" source_file="/global/homes/j/jackm/software/lorrax_C/src/solvers/lanczos.py" source_line=245}
  %or.270 = u32[2]{0} or(%shift-left.268, %shift-right-logical.269), metadata={op_name="jit(_full_run)/jit(main)/jit(_threefry_split)/or" source_file="/global/homes/j/jackm/software/lorrax_C/src/solvers/lanczos.py" source_line=245}
  %xor.271 = u32[2]{0} xor(%add.267, %or.270), metadata={op_name="jit(_full_run)/jit(main)/jit(_threefry_split)/xor" source_file="/global/homes/j/jackm/software/lorrax_C/src/solvers/lanczos.py" source_line=245}
  %add.272 = u32[2]{0} add(%add.267, %xor.271), metadata={op_name="jit(_full_run)/jit(main)/jit(_threefry_split)/add" source_file="/global/homes/j/jackm/software/lorrax_C/src/solvers/lanczos.py" source_line=245}
  %shift-left.273 = u32[2]{0} shift-left(%xor.271, %broadcast.161), metadata={op_name="jit(_full_run)/jit(main)/jit(_threefry_split)/shift_left" source_file="/global/homes/j/jackm/software/lorrax_C/src/solvers/lanczos.py" source_line=245}
  %shift-right-logical.274 = u32[2]{0} shift-right-logical(%xor.271, %broadcast.161), metadata={op_name="jit(_full_run)/jit(main)/jit(_threefry_split)/shift_right_logical" source_file="/global/homes/j/jackm/software/lorrax_C/src/solvers/lanczos.py" source_line=245}
  %or.275 = u32[2]{0} or(%shift-left.273, %shift-right-logical.274), metadata={op_name="jit(_full_run)/jit(main)/jit(_threefry_split)/or" source_file="/global/homes/j/jackm/software/lorrax_C/src/solvers/lanczos.py" source_line=245}
  %xor.276 = u32[2]{0} xor(%add.272, %or.275), metadata={op_name="jit(_full_run)/jit(main)/jit(_threefry_split)/xor" source_file="/global/homes/j/jackm/software/lorrax_C/src/solvers/lanczos.py" source_line=245}
  %add.277 = u32[2]{0} add(%add.272, %xor.276), metadata={op_name="jit(_full_run)/jit(main)/jit(_threefry_split)/add" source_file="/global/homes/j/jackm/software/lorrax_C/src/solvers/lanczos.py" source_line=245}
  %broadcast.282 = u32[2]{0} broadcast(%Arg_1.147), dimensions={}, metadata={op_name="jit(_full_run)/jit(main)/jit(_threefry_split)/add" source_file="/global/homes/j/jackm/software/lorrax_C/src/solvers/lanczos.py" source_line=245}
  %add.283 = u32[2]{0} add(%add.277, %broadcast.282), metadata={op_name="jit(_full_run)/jit(main)/jit(_threefry_split)/add" source_file="/global/homes/j/jackm/software/lorrax_C/src/solvers/lanczos.py" source_line=245}
  %shift-left.278 = u32[2]{0} shift-left(%xor.276, %broadcast.159), metadata={op_name="jit(_full_run)/jit(main)/jit(_threefry_split)/shift_left" source_file="/global/homes/j/jackm/software/lorrax_C/src/solvers/lanczos.py" source_line=245}
  %shift-right-logical.279 = u32[2]{0} shift-right-logical(%xor.276, %broadcast.157), metadata={op_name="jit(_full_run)/jit(main)/jit(_threefry_split)/shift_right_logical" source_file="/global/homes/j/jackm/software/lorrax_C/src/solvers/lanczos.py" source_line=245}
  %or.280 = u32[2]{0} or(%shift-left.278, %shift-right-logical.279), metadata={op_name="jit(_full_run)/jit(main)/jit(_threefry_split)/or" source_file="/global/homes/j/jackm/software/lorrax_C/src/solvers/lanczos.py" source_line=245}
  %xor.281 = u32[2]{0} xor(%add.277, %or.280), metadata={op_name="jit(_full_run)/jit(main)/jit(_threefry_split)/xor" source_file="/global/homes/j/jackm/software/lorrax_C/src/solvers/lanczos.py" source_line=245}
  %broadcast.284 = u32[2]{0} broadcast(%xor.182), dimensions={}, metadata={op_name="jit(_full_run)/jit(main)/jit(_threefry_split)/add" source_file="/global/homes/j/jackm/software/lorrax_C/src/solvers/lanczos.py" source_line=245}
  %add.285 = u32[2]{0} add(%xor.281, %broadcast.284), metadata={op_name="jit(_full_run)/jit(main)/jit(_threefry_split)/add" source_file="/global/homes/j/jackm/software/lorrax_C/src/solvers/lanczos.py" source_line=245}
  %constant.152 = u32[] constant(4)
  %broadcast.153 = u32[2]{0} broadcast(%constant.152), dimensions={}
  %add.286 = u32[2]{0} add(%add.285, %broadcast.153), metadata={op_name="jit(_full_run)/jit(main)/jit(_threefry_split)/add" source_file="/global/homes/j/jackm/software/lorrax_C/src/solvers/lanczos.py" source_line=245}
  %add.287 = u32[2]{0} add(%add.283, %add.286), metadata={op_name="jit(_full_run)/jit(main)/jit(_threefry_split)/add" source_file="/global/homes/j/jackm/software/lorrax_C/src/solvers/lanczos.py" source_line=245}
  %shift-left.288 = u32[2]{0} shift-left(%add.286, %broadcast.179), metadata={op_name="jit(_full_run)/jit(main)/jit(_threefry_split)/shift_left" source_file="/global/homes/j/jackm/software/lorrax_C/src/solvers/lanczos.py" source_line=245}
  %shift-right-logical.289 = u32[2]{0} shift-right-logical(%add.286, %broadcast.177), metadata={op_name="jit(_full_run)/jit(main)/jit(_threefry_split)/shift_right_logical" source_file="/global/homes/j/jackm/software/lorrax_C/src/solvers/lanczos.py" source_line=245}
  %or.290 = u32[2]{0} or(%shift-left.288, %shift-right-logical.289), metadata={op_name="jit(_full_run)/jit(main)/jit(_threefry_split)/or" source_file="/global/homes/j/jackm/software/lorrax_C/src/solvers/lanczos.py" source_line=245}
  %xor.291 = u32[2]{0} xor(%add.287, %or.290), metadata={op_name="jit(_full_run)/jit(main)/jit(_threefry_split)/xor" source_file="/global/homes/j/jackm/software/lorrax_C/src/solvers/lanczos.py" source_line=245}
  %add.292 = u32[2]{0} add(%add.287, %xor.291), metadata={op_name="jit(_full_run)/jit(main)/jit(_threefry_split)/add" source_file="/global/homes/j/jackm/software/lorrax_C/src/solvers/lanczos.py" source_line=245}
  %shift-left.293 = u32[2]{0} shift-left(%xor.291, %broadcast.175), metadata={op_name="jit(_full_run)/jit(main)/jit(_threefry_split)/shift_left" source_file="/global/homes/j/jackm/software/lorrax_C/src/solvers/lanczos.py" source_line=245}
  %shift-right-logical.294 = u32[2]{0} shift-right-logical(%xor.291, %broadcast.173), metadata={op_name="jit(_full_run)/jit(main)/jit(_threefry_split)/shift_right_logical" source_file="/global/homes/j/jackm/software/lorrax_C/src/solvers/lanczos.py" source_line=245}
  %or.295 = u32[2]{0} or(%shift-left.293, %shift-right-logical.294), metadata={op_name="jit(_full_run)/jit(main)/jit(_threefry_split)/or" source_file="/global/homes/j/jackm/software/lorrax_C/src/solvers/lanczos.py" source_line=245}
  %xor.296 = u32[2]{0} xor(%add.292, %or.295), metadata={op_name="jit(_full_run)/jit(main)/jit(_threefry_split)/xor" source_file="/global/homes/j/jackm/software/lorrax_C/src/solvers/lanczos.py" source_line=245}
  %add.297 = u32[2]{0} add(%add.292, %xor.296), metadata={op_name="jit(_full_run)/jit(main)/jit(_threefry_split)/add" source_file="/global/homes/j/jackm/software/lorrax_C/src/solvers/lanczos.py" source_line=245}
  %shift-left.298 = u32[2]{0} shift-left(%xor.296, %broadcast.171), metadata={op_name="jit(_full_run)/jit(main)/jit(_threefry_split)/shift_left" source_file="/global/homes/j/jackm/software/lorrax_C/src/solvers/lanczos.py" source_line=245}
  %shift-right-logical.299 = u32[2]{0} shift-right-logical(%xor.296, %broadcast.169), metadata={op_name="jit(_full_run)/jit(main)/jit(_threefry_split)/shift_right_logical" source_file="/global/homes/j/jackm/software/lorrax_C/src/solvers/lanczos.py" source_line=245}
  %or.300 = u32[2]{0} or(%shift-left.298, %shift-right-logical.299), metadata={op_name="jit(_full_run)/jit(main)/jit(_threefry_split)/or" source_file="/global/homes/j/jackm/software/lorrax_C/src/solvers/lanczos.py" source_line=245}
  %xor.301 = u32[2]{0} xor(%add.297, %or.300), metadata={op_name="jit(_full_run)/jit(main)/jit(_threefry_split)/xor" source_file="/global/homes/j/jackm/software/lorrax_C/src/solvers/lanczos.py" source_line=245}
  %add.302 = u32[2]{0} add(%add.297, %xor.301), metadata={op_name="jit(_full_run)/jit(main)/jit(_threefry_split)/add" source_file="/global/homes/j/jackm/software/lorrax_C/src/solvers/lanczos.py" source_line=245}
  %broadcast.307 = u32[2]{0} broadcast(%xor.182), dimensions={}, metadata={op_name="jit(_full_run)/jit(main)/jit(_threefry_split)/add" source_file="/global/homes/j/jackm/software/lorrax_C/src/solvers/lanczos.py" source_line=245}
  %add.308 = u32[2]{0} add(%add.302, %broadcast.307), metadata={op_name="jit(_full_run)/jit(main)/jit(_threefry_split)/add" source_file="/global/homes/j/jackm/software/lorrax_C/src/solvers/lanczos.py" source_line=245}
  %shift-left.303 = u32[2]{0} shift-left(%xor.301, %broadcast.169), metadata={op_name="jit(_full_run)/jit(main)/jit(_threefry_split)/shift_left" source_file="/global/homes/j/jackm/software/lorrax_C/src/solvers/lanczos.py" source_line=245}
  %shift-right-logical.304 = u32[2]{0} shift-right-logical(%xor.301, %broadcast.171), metadata={op_name="jit(_full_run)/jit(main)/jit(_threefry_split)/shift_right_logical" source_file="/global/homes/j/jackm/software/lorrax_C/src/solvers/lanczos.py" source_line=245}
  %or.305 = u32[2]{0} or(%shift-left.303, %shift-right-logical.304), metadata={op_name="jit(_full_run)/jit(main)/jit(_threefry_split)/or" source_file="/global/homes/j/jackm/software/lorrax_C/src/solvers/lanczos.py" source_line=245}
  %xor.306 = u32[2]{0} xor(%add.302, %or.305), metadata={op_name="jit(_full_run)/jit(main)/jit(_threefry_split)/xor" source_file="/global/homes/j/jackm/software/lorrax_C/src/solvers/lanczos.py" source_line=245}
  %broadcast.309 = u32[2]{0} broadcast(%Arg_0.146), dimensions={}, metadata={op_name="jit(_full_run)/jit(main)/jit(_threefry_split)/add" source_file="/global/homes/j/jackm/software/lorrax_C/src/solvers/lanczos.py" source_line=245}
  %add.310 = u32[2]{0} add(%xor.306, %broadcast.309), metadata={op_name="jit(_full_run)/jit(main)/jit(_threefry_split)/add" source_file="/global/homes/j/jackm/software/lorrax_C/src/solvers/lanczos.py" source_line=245}
  %constant.150 = u32[] constant(5)
  %broadcast.151 = u32[2]{0} broadcast(%constant.150), dimensions={}
  %add.311 = u32[2]{0} add(%add.310, %broadcast.151), metadata={op_name="jit(_full_run)/jit(main)/jit(_threefry_split)/add" source_file="/global/homes/j/jackm/software/lorrax_C/src/solvers/lanczos.py" source_line=245}
  ROOT %tuple.312 = (u32[2]{0}, u32[2]{0}) tuple(%add.308, %add.311)
}

%_threefry_split.313 (Arg_0.314: u32[2]) -> u32[2,2] {
  %Arg_0.314 = u32[2]{0} parameter(0), metadata={op_name="jit(_full_run)/jit(main)/pjit"}
  %slice.317 = u32[1]{0} slice(%Arg_0.314), slice={[0:1]}, metadata={op_name="jit(_full_run)/jit(main)/jit(_threefry_split)/slice" source_file="/global/homes/j/jackm/software/lorrax_C/src/solvers/lanczos.py" source_line=245}
  %reshape.318 = u32[] reshape(%slice.317), metadata={op_name="jit(_full_run)/jit(main)/jit(_threefry_split)/squeeze" source_file="/global/homes/j/jackm/software/lorrax_C/src/solvers/lanczos.py" source_line=245}
  %slice.319 = u32[1]{0} slice(%Arg_0.314), slice={[1:2]}, metadata={op_name="jit(_full_run)/jit(main)/jit(_threefry_split)/slice" source_file="/global/homes/j/jackm/software/lorrax_C/src/solvers/lanczos.py" source_line=245}
  %reshape.320 = u32[] reshape(%slice.319), metadata={op_name="jit(_full_run)/jit(main)/jit(_threefry_split)/squeeze" source_file="/global/homes/j/jackm/software/lorrax_C/src/solvers/lanczos.py" source_line=245}
  %iota.321 = u64[2]{0} iota(), iota_dimension=0, metadata={op_name="jit(_full_run)/jit(main)/jit(_threefry_split)/iota_2x32_shape" source_file="/global/homes/j/jackm/software/lorrax_C/src/solvers/lanczos.py" source_line=245}
  %constant.315 = u64[] constant(32)
  %broadcast.316 = u64[2]{0} broadcast(%constant.315), dimensions={}
  %shift-right-logical.322 = u64[2]{0} shift-right-logical(%iota.321, %broadcast.316), metadata={op_name="jit(_full_run)/jit(main)/jit(_threefry_split)/iota_2x32_shape" source_file="/global/homes/j/jackm/software/lorrax_C/src/solvers/lanczos.py" source_line=245}
  %convert.324 = u32[2]{0} convert(%shift-right-logical.322), metadata={op_name="jit(_full_run)/jit(main)/jit(_threefry_split)/iota_2x32_shape" source_file="/global/homes/j/jackm/software/lorrax_C/src/solvers/lanczos.py" source_line=245}
  %convert.323 = u32[2]{0} convert(%iota.321), metadata={op_name="jit(_full_run)/jit(main)/jit(_threefry_split)/iota_2x32_shape" source_file="/global/homes/j/jackm/software/lorrax_C/src/solvers/lanczos.py" source_line=245}
  %call.325 = (u32[2]{0}, u32[2]{0}) call(%reshape.318, %reshape.320, %convert.324, %convert.323), to_apply=%threefry2x32.145
  %get-tuple-element.326 = u32[2]{0} get-tuple-element(%call.325), index=0
  %reshape.328 = u32[2,1]{1,0} reshape(%get-tuple-element.326), metadata={op_name="jit(_full_run)/jit(main)/jit(_threefry_split)/broadcast_in_dim" source_file="/global/homes/j/jackm/software/lorrax_C/src/solvers/lanczos.py" source_line=245}
  %get-tuple-element.327 = u32[2]{0} get-tuple-element(%call.325), index=1
  %reshape.329 = u32[2,1]{1,0} reshape(%get-tuple-element.327), metadata={op_name="jit(_full_run)/jit(main)/jit(_threefry_split)/broadcast_in_dim" source_file="/global/homes/j/jackm/software/lorrax_C/src/solvers/lanczos.py" source_line=245}
  ROOT %concatenate.330 = u32[2,2]{1,0} concatenate(%reshape.328, %reshape.329), dimensions={1}, metadata={op_name="jit(_full_run)/jit(main)/jit(_threefry_split)/concatenate" source_file="/global/homes/j/jackm/software/lorrax_C/src/solvers/lanczos.py" source_line=245}
}

%threefry2x32_0.336 (Arg_0.337: u32[], Arg_1.338: u32[], Arg_2.339: u32[1024], Arg_3.340: u32[1024]) -> (u32[1024], u32[1024]) {
  %Arg_2.339 = u32[1024]{0} parameter(2), metadata={op_name="jit(_full_run)/jit(main)/jit(_normal)/jit(_normal_real)/jit(_uniform)/threefry2x32"}
  %Arg_0.337 = u32[] parameter(0), metadata={op_name="jit(_full_run)/jit(main)/jit(_normal)/jit(_normal_real)/jit(_uniform)/threefry2x32"}
  %broadcast.374 = u32[1024]{0} broadcast(%Arg_0.337), dimensions={}, metadata={op_name="jit(_full_run)/jit(main)/jit(_normal)/jit(_normal_real)/jit(_uniform)/add" source_file="/global/homes/j/jackm/software/lorrax_C/src/solvers/lanczos.py" source_line=247}
  %add.375 = u32[1024]{0} add(%Arg_2.339, %broadcast.374), metadata={op_name="jit(_full_run)/jit(main)/jit(_normal)/jit(_normal_real)/jit(_uniform)/add" source_file="/global/homes/j/jackm/software/lorrax_C/src/solvers/lanczos.py" source_line=247}
  %Arg_3.340 = u32[1024]{0} parameter(3), metadata={op_name="jit(_full_run)/jit(main)/jit(_normal)/jit(_normal_real)/jit(_uniform)/threefry2x32"}
  %Arg_1.338 = u32[] parameter(1), metadata={op_name="jit(_full_run)/jit(main)/jit(_normal)/jit(_normal_real)/jit(_uniform)/threefry2x32"}
  %broadcast.376 = u32[1024]{0} broadcast(%Arg_1.338), dimensions={}, metadata={op_name="jit(_full_run)/jit(main)/jit(_normal)/jit(_normal_real)/jit(_uniform)/add" source_file="/global/homes/j/jackm/software/lorrax_C/src/solvers/lanczos.py" source_line=247}
  %add.377 = u32[1024]{0} add(%Arg_3.340, %broadcast.376), metadata={op_name="jit(_full_run)/jit(main)/jit(_normal)/jit(_normal_real)/jit(_uniform)/add" source_file="/global/homes/j/jackm/software/lorrax_C/src/solvers/lanczos.py" source_line=247}
  %add.378 = u32[1024]{0} add(%add.375, %add.377), metadata={op_name="jit(_full_run)/jit(main)/jit(_normal)/jit(_normal_real)/jit(_uniform)/add" source_file="/global/homes/j/jackm/software/lorrax_C/src/solvers/lanczos.py" source_line=247}
  %constant.369 = u32[] constant(13)
  %broadcast.370 = u32[1024]{0} broadcast(%constant.369), dimensions={}
  %shift-left.379 = u32[1024]{0} shift-left(%add.377, %broadcast.370), metadata={op_name="jit(_full_run)/jit(main)/jit(_normal)/jit(_normal_real)/jit(_uniform)/shift_left" source_file="/global/homes/j/jackm/software/lorrax_C/src/solvers/lanczos.py" source_line=247}
  %constant.367 = u32[] constant(19)
  %broadcast.368 = u32[1024]{0} broadcast(%constant.367), dimensions={}
  %shift-right-logical.380 = u32[1024]{0} shift-right-logical(%add.377, %broadcast.368), metadata={op_name="jit(_full_run)/jit(main)/jit(_normal)/jit(_normal_real)/jit(_uniform)/shift_right_logical" source_file="/global/homes/j/jackm/software/lorrax_C/src/solvers/lanczos.py" source_line=247}
  %or.381 = u32[1024]{0} or(%shift-left.379, %shift-right-logical.380), metadata={op_name="jit(_full_run)/jit(main)/jit(_normal)/jit(_normal_real)/jit(_uniform)/or" source_file="/global/homes/j/jackm/software/lorrax_C/src/solvers/lanczos.py" source_line=247}
  %xor.382 = u32[1024]{0} xor(%add.378, %or.381), metadata={op_name="jit(_full_run)/jit(main)/jit(_normal)/jit(_normal_real)/jit(_uniform)/xor" source_file="/global/homes/j/jackm/software/lorrax_C/src/solvers/lanczos.py" source_line=247}
  %add.383 = u32[1024]{0} add(%add.378, %xor.382), metadata={op_name="jit(_full_run)/jit(main)/jit(_normal)/jit(_normal_real)/jit(_uniform)/add" source_file="/global/homes/j/jackm/software/lorrax_C/src/solvers/lanczos.py" source_line=247}
  %constant.365 = u32[] constant(15)
  %broadcast.366 = u32[1024]{0} broadcast(%constant.365), dimensions={}
  %shift-left.384 = u32[1024]{0} shift-left(%xor.382, %broadcast.366), metadata={op_name="jit(_full_run)/jit(main)/jit(_normal)/jit(_normal_real)/jit(_uniform)/shift_left" source_file="/global/homes/j/jackm/software/lorrax_C/src/solvers/lanczos.py" source_line=247}
  %constant.363 = u32[] constant(17)
  %broadcast.364 = u32[1024]{0} broadcast(%constant.363), dimensions={}
  %shift-right-logical.385 = u32[1024]{0} shift-right-logical(%xor.382, %broadcast.364), metadata={op_name="jit(_full_run)/jit(main)/jit(_normal)/jit(_normal_real)/jit(_uniform)/shift_right_logical" source_file="/global/homes/j/jackm/software/lorrax_C/src/solvers/lanczos.py" source_line=247}
  %or.386 = u32[1024]{0} or(%shift-left.384, %shift-right-logical.385), metadata={op_name="jit(_full_run)/jit(main)/jit(_normal)/jit(_normal_real)/jit(_uniform)/or" source_file="/global/homes/j/jackm/software/lorrax_C/src/solvers/lanczos.py" source_line=247}
  %xor.387 = u32[1024]{0} xor(%add.383, %or.386), metadata={op_name="jit(_full_run)/jit(main)/jit(_normal)/jit(_normal_real)/jit(_uniform)/xor" source_file="/global/homes/j/jackm/software/lorrax_C/src/solvers/lanczos.py" source_line=247}
  %add.388 = u32[1024]{0} add(%add.383, %xor.387), metadata={op_name="jit(_full_run)/jit(main)/jit(_normal)/jit(_normal_real)/jit(_uniform)/add" source_file="/global/homes/j/jackm/software/lorrax_C/src/solvers/lanczos.py" source_line=247}
  %constant.361 = u32[] constant(26)
  %broadcast.362 = u32[1024]{0} broadcast(%constant.361), dimensions={}
  %shift-left.389 = u32[1024]{0} shift-left(%xor.387, %broadcast.362), metadata={op_name="jit(_full_run)/jit(main)/jit(_normal)/jit(_normal_real)/jit(_uniform)/shift_left" source_file="/global/homes/j/jackm/software/lorrax_C/src/solvers/lanczos.py" source_line=247}
  %constant.359 = u32[] constant(6)
  %broadcast.360 = u32[1024]{0} broadcast(%constant.359), dimensions={}
  %shift-right-logical.390 = u32[1024]{0} shift-right-logical(%xor.387, %broadcast.360), metadata={op_name="jit(_full_run)/jit(main)/jit(_normal)/jit(_normal_real)/jit(_uniform)/shift_right_logical" source_file="/global/homes/j/jackm/software/lorrax_C/src/solvers/lanczos.py" source_line=247}
  %or.391 = u32[1024]{0} or(%shift-left.389, %shift-right-logical.390), metadata={op_name="jit(_full_run)/jit(main)/jit(_normal)/jit(_normal_real)/jit(_uniform)/or" source_file="/global/homes/j/jackm/software/lorrax_C/src/solvers/lanczos.py" source_line=247}
  %xor.392 = u32[1024]{0} xor(%add.388, %or.391), metadata={op_name="jit(_full_run)/jit(main)/jit(_normal)/jit(_normal_real)/jit(_uniform)/xor" source_file="/global/homes/j/jackm/software/lorrax_C/src/solvers/lanczos.py" source_line=247}
  %add.393 = u32[1024]{0} add(%add.388, %xor.392), metadata={op_name="jit(_full_run)/jit(main)/jit(_normal)/jit(_normal_real)/jit(_uniform)/add" source_file="/global/homes/j/jackm/software/lorrax_C/src/solvers/lanczos.py" source_line=247}
  %broadcast.398 = u32[1024]{0} broadcast(%Arg_1.338), dimensions={}, metadata={op_name="jit(_full_run)/jit(main)/jit(_normal)/jit(_normal_real)/jit(_uniform)/add" source_file="/global/homes/j/jackm/software/lorrax_C/src/solvers/lanczos.py" source_line=247}
  %add.399 = u32[1024]{0} add(%add.393, %broadcast.398), metadata={op_name="jit(_full_run)/jit(main)/jit(_normal)/jit(_normal_real)/jit(_uniform)/add" source_file="/global/homes/j/jackm/software/lorrax_C/src/solvers/lanczos.py" source_line=247}
  %shift-left.394 = u32[1024]{0} shift-left(%xor.392, %broadcast.360), metadata={op_name="jit(_full_run)/jit(main)/jit(_normal)/jit(_normal_real)/jit(_uniform)/shift_left" source_file="/global/homes/j/jackm/software/lorrax_C/src/solvers/lanczos.py" source_line=247}
  %shift-right-logical.395 = u32[1024]{0} shift-right-logical(%xor.392, %broadcast.362), metadata={op_name="jit(_full_run)/jit(main)/jit(_normal)/jit(_normal_real)/jit(_uniform)/shift_right_logical" source_file="/global/homes/j/jackm/software/lorrax_C/src/solvers/lanczos.py" source_line=247}
  %or.396 = u32[1024]{0} or(%shift-left.394, %shift-right-logical.395), metadata={op_name="jit(_full_run)/jit(main)/jit(_normal)/jit(_normal_real)/jit(_uniform)/or" source_file="/global/homes/j/jackm/software/lorrax_C/src/solvers/lanczos.py" source_line=247}
  %xor.397 = u32[1024]{0} xor(%add.393, %or.396), metadata={op_name="jit(_full_run)/jit(main)/jit(_normal)/jit(_normal_real)/jit(_uniform)/xor" source_file="/global/homes/j/jackm/software/lorrax_C/src/solvers/lanczos.py" source_line=247}
  %xor.372 = u32[] xor(%Arg_0.337, %Arg_1.338), metadata={op_name="jit(_full_run)/jit(main)/jit(_normal)/jit(_normal_real)/jit(_uniform)/xor" source_file="/global/homes/j/jackm/software/lorrax_C/src/solvers/lanczos.py" source_line=247}
  %constant.371 = u32[] constant(466688986)
  %xor.373 = u32[] xor(%xor.372, %constant.371), metadata={op_name="jit(_full_run)/jit(main)/jit(_normal)/jit(_normal_real)/jit(_uniform)/xor" source_file="/global/homes/j/jackm/software/lorrax_C/src/solvers/lanczos.py" source_line=247}
  %broadcast.400 = u32[1024]{0} broadcast(%xor.373), dimensions={}, metadata={op_name="jit(_full_run)/jit(main)/jit(_normal)/jit(_normal_real)/jit(_uniform)/add" source_file="/global/homes/j/jackm/software/lorrax_C/src/solvers/lanczos.py" source_line=247}
  %add.401 = u32[1024]{0} add(%xor.397, %broadcast.400), metadata={op_name="jit(_full_run)/jit(main)/jit(_normal)/jit(_normal_real)/jit(_uniform)/add" source_file="/global/homes/j/jackm/software/lorrax_C/src/solvers/lanczos.py" source_line=247}
  %constant.357 = u32[] constant(1)
  %broadcast.358 = u32[1024]{0} broadcast(%constant.357), dimensions={}
  %add.402 = u32[1024]{0} add(%add.401, %broadcast.358), metadata={op_name="jit(_full_run)/jit(main)/jit(_normal)/jit(_normal_real)/jit(_uniform)/add" source_file="/global/homes/j/jackm/software/lorrax_C/src/solvers/lanczos.py" source_line=247}
  %add.403 = u32[1024]{0} add(%add.399, %add.402), metadata={op_name="jit(_full_run)/jit(main)/jit(_normal)/jit(_normal_real)/jit(_uniform)/add" source_file="/global/homes/j/jackm/software/lorrax_C/src/solvers/lanczos.py" source_line=247}
  %shift-left.404 = u32[1024]{0} shift-left(%add.402, %broadcast.364), metadata={op_name="jit(_full_run)/jit(main)/jit(_normal)/jit(_normal_real)/jit(_uniform)/shift_left" source_file="/global/homes/j/jackm/software/lorrax_C/src/solvers/lanczos.py" source_line=247}
  %shift-right-logical.405 = u32[1024]{0} shift-right-logical(%add.402, %broadcast.366), metadata={op_name="jit(_full_run)/jit(main)/jit(_normal)/jit(_normal_real)/jit(_uniform)/shift_right_logical" source_file="/global/homes/j/jackm/software/lorrax_C/src/solvers/lanczos.py" source_line=247}
  %or.406 = u32[1024]{0} or(%shift-left.404, %shift-right-logical.405), metadata={op_name="jit(_full_run)/jit(main)/jit(_normal)/jit(_normal_real)/jit(_uniform)/or" source_file="/global/homes/j/jackm/software/lorrax_C/src/solvers/lanczos.py" source_line=247}
  %xor.407 = u32[1024]{0} xor(%add.403, %or.406), metadata={op_name="jit(_full_run)/jit(main)/jit(_normal)/jit(_normal_real)/jit(_uniform)/xor" source_file="/global/homes/j/jackm/software/lorrax_C/src/solvers/lanczos.py" source_line=247}
  %add.408 = u32[1024]{0} add(%add.403, %xor.407), metadata={op_name="jit(_full_run)/jit(main)/jit(_normal)/jit(_normal_real)/jit(_uniform)/add" source_file="/global/homes/j/jackm/software/lorrax_C/src/solvers/lanczos.py" source_line=247}
  %constant.355 = u32[] constant(29)
  %broadcast.356 = u32[1024]{0} broadcast(%constant.355), dimensions={}
  %shift-left.409 = u32[1024]{0} shift-left(%xor.407, %broadcast.356), metadata={op_name="jit(_full_run)/jit(main)/jit(_normal)/jit(_normal_real)/jit(_uniform)/shift_left" source_file="/global/homes/j/jackm/software/lorrax_C/src/solvers/lanczos.py" source_line=247}
  %constant.353 = u32[] constant(3)
  %broadcast.354 = u32[1024]{0} broadcast(%constant.353), dimensions={}
  %shift-right-logical.410 = u32[1024]{0} shift-right-logical(%xor.407, %broadcast.354), metadata={op_name="jit(_full_run)/jit(main)/jit(_normal)/jit(_normal_real)/jit(_uniform)/shift_right_logical" source_file="/global/homes/j/jackm/software/lorrax_C/src/solvers/lanczos.py" source_line=247}
  %or.411 = u32[1024]{0} or(%shift-left.409, %shift-right-logical.410), metadata={op_name="jit(_full_run)/jit(main)/jit(_normal)/jit(_normal_real)/jit(_uniform)/or" source_file="/global/homes/j/jackm/software/lorrax_C/src/solvers/lanczos.py" source_line=247}
  %xor.412 = u32[1024]{0} xor(%add.408, %or.411), metadata={op_name="jit(_full_run)/jit(main)/jit(_normal)/jit(_normal_real)/jit(_uniform)/xor" source_file="/global/homes/j/jackm/software/lorrax_C/src/solvers/lanczos.py" source_line=247}
  %add.413 = u32[1024]{0} add(%add.408, %xor.412), metadata={op_name="jit(_full_run)/jit(main)/jit(_normal)/jit(_normal_real)/jit(_uniform)/add" source_file="/global/homes/j/jackm/software/lorrax_C/src/solvers/lanczos.py" source_line=247}
  %constant.351 = u32[] constant(16)
  %broadcast.352 = u32[1024]{0} broadcast(%constant.351), dimensions={}
  %shift-left.414 = u32[1024]{0} shift-left(%xor.412, %broadcast.352), metadata={op_name="jit(_full_run)/jit(main)/jit(_normal)/jit(_normal_real)/jit(_uniform)/shift_left" source_file="/global/homes/j/jackm/software/lorrax_C/src/solvers/lanczos.py" source_line=247}
  %shift-right-logical.415 = u32[1024]{0} shift-right-logical(%xor.412, %broadcast.352), metadata={op_name="jit(_full_run)/jit(main)/jit(_normal)/jit(_normal_real)/jit(_uniform)/shift_right_logical" source_file="/global/homes/j/jackm/software/lorrax_C/src/solvers/lanczos.py" source_line=247}
  %or.416 = u32[1024]{0} or(%shift-left.414, %shift-right-logical.415), metadata={op_name="jit(_full_run)/jit(main)/jit(_normal)/jit(_normal_real)/jit(_uniform)/or" source_file="/global/homes/j/jackm/software/lorrax_C/src/solvers/lanczos.py" source_line=247}
  %xor.417 = u32[1024]{0} xor(%add.413, %or.416), metadata={op_name="jit(_full_run)/jit(main)/jit(_normal)/jit(_normal_real)/jit(_uniform)/xor" source_file="/global/homes/j/jackm/software/lorrax_C/src/solvers/lanczos.py" source_line=247}
  %add.418 = u32[1024]{0} add(%add.413, %xor.417), metadata={op_name="jit(_full_run)/jit(main)/jit(_normal)/jit(_normal_real)/jit(_uniform)/add" source_file="/global/homes/j/jackm/software/lorrax_C/src/solvers/lanczos.py" source_line=247}
  %broadcast.423 = u32[1024]{0} broadcast(%xor.373), dimensions={}, metadata={op_name="jit(_full_run)/jit(main)/jit(_normal)/jit(_normal_real)/jit(_uniform)/add" source_file="/global/homes/j/jackm/software/lorrax_C/src/solvers/lanczos.py" source_line=247}
  %add.424 = u32[1024]{0} add(%add.418, %broadcast.423), metadata={op_name="jit(_full_run)/jit(main)/jit(_normal)/jit(_normal_real)/jit(_uniform)/add" source_file="/global/homes/j/jackm/software/lorrax_C/src/solvers/lanczos.py" source_line=247}
  %constant.349 = u32[] constant(24)
  %broadcast.350 = u32[1024]{0} broadcast(%constant.349), dimensions={}
  %shift-left.419 = u32[1024]{0} shift-left(%xor.417, %broadcast.350), metadata={op_name="jit(_full_run)/jit(main)/jit(_normal)/jit(_normal_real)/jit(_uniform)/shift_left" source_file="/global/homes/j/jackm/software/lorrax_C/src/solvers/lanczos.py" source_line=247}
  %constant.347 = u32[] constant(8)
  %broadcast.348 = u32[1024]{0} broadcast(%constant.347), dimensions={}
  %shift-right-logical.420 = u32[1024]{0} shift-right-logical(%xor.417, %broadcast.348), metadata={op_name="jit(_full_run)/jit(main)/jit(_normal)/jit(_normal_real)/jit(_uniform)/shift_right_logical" source_file="/global/homes/j/jackm/software/lorrax_C/src/solvers/lanczos.py" source_line=247}
  %or.421 = u32[1024]{0} or(%shift-left.419, %shift-right-logical.420), metadata={op_name="jit(_full_run)/jit(main)/jit(_normal)/jit(_normal_real)/jit(_uniform)/or" source_file="/global/homes/j/jackm/software/lorrax_C/src/solvers/lanczos.py" source_line=247}
  %xor.422 = u32[1024]{0} xor(%add.418, %or.421), metadata={op_name="jit(_full_run)/jit(main)/jit(_normal)/jit(_normal_real)/jit(_uniform)/xor" source_file="/global/homes/j/jackm/software/lorrax_C/src/solvers/lanczos.py" source_line=247}
  %broadcast.425 = u32[1024]{0} broadcast(%Arg_0.337), dimensions={}, metadata={op_name="jit(_full_run)/jit(main)/jit(_normal)/jit(_normal_real)/jit(_uniform)/add" source_file="/global/homes/j/jackm/software/lorrax_C/src/solvers/lanczos.py" source_line=247}
  %add.426 = u32[1024]{0} add(%xor.422, %broadcast.425), metadata={op_name="jit(_full_run)/jit(main)/jit(_normal)/jit(_normal_real)/jit(_uniform)/add" source_file="/global/homes/j/jackm/software/lorrax_C/src/solvers/lanczos.py" source_line=247}
  %constant.345 = u32[] constant(2)
  %broadcast.346 = u32[1024]{0} broadcast(%constant.345), dimensions={}
  %add.427 = u32[1024]{0} add(%add.426, %broadcast.346), metadata={op_name="jit(_full_run)/jit(main)/jit(_normal)/jit(_normal_real)/jit(_uniform)/add" source_file="/global/homes/j/jackm/software/lorrax_C/src/solvers/lanczos.py" source_line=247}
  %add.428 = u32[1024]{0} add(%add.424, %add.427), metadata={op_name="jit(_full_run)/jit(main)/jit(_normal)/jit(_normal_real)/jit(_uniform)/add" source_file="/global/homes/j/jackm/software/lorrax_C/src/solvers/lanczos.py" source_line=247}
  %shift-left.429 = u32[1024]{0} shift-left(%add.427, %broadcast.370), metadata={op_name="jit(_full_run)/jit(main)/jit(_normal)/jit(_normal_real)/jit(_uniform)/shift_left" source_file="/global/homes/j/jackm/software/lorrax_C/src/solvers/lanczos.py" source_line=247}
  %shift-right-logical.430 = u32[1024]{0} shift-right-logical(%add.427, %broadcast.368), metadata={op_name="jit(_full_run)/jit(main)/jit(_normal)/jit(_normal_real)/jit(_uniform)/shift_right_logical" source_file="/global/homes/j/jackm/software/lorrax_C/src/solvers/lanczos.py" source_line=247}
  %or.431 = u32[1024]{0} or(%shift-left.429, %shift-right-logical.430), metadata={op_name="jit(_full_run)/jit(main)/jit(_normal)/jit(_normal_real)/jit(_uniform)/or" source_file="/global/homes/j/jackm/software/lorrax_C/src/solvers/lanczos.py" source_line=247}
  %xor.432 = u32[1024]{0} xor(%add.428, %or.431), metadata={op_name="jit(_full_run)/jit(main)/jit(_normal)/jit(_normal_real)/jit(_uniform)/xor" source_file="/global/homes/j/jackm/software/lorrax_C/src/solvers/lanczos.py" source_line=247}
  %add.433 = u32[1024]{0} add(%add.428, %xor.432), metadata={op_name="jit(_full_run)/jit(main)/jit(_normal)/jit(_normal_real)/jit(_uniform)/add" source_file="/global/homes/j/jackm/software/lorrax_C/src/solvers/lanczos.py" source_line=247}
  %shift-left.434 = u32[1024]{0} shift-left(%xor.432, %broadcast.366), metadata={op_name="jit(_full_run)/jit(main)/jit(_normal)/jit(_normal_real)/jit(_uniform)/shift_left" source_file="/global/homes/j/jackm/software/lorrax_C/src/solvers/lanczos.py" source_line=247}
  %shift-right-logical.435 = u32[1024]{0} shift-right-logical(%xor.432, %broadcast.364), metadata={op_name="jit(_full_run)/jit(main)/jit(_normal)/jit(_normal_real)/jit(_uniform)/shift_right_logical" source_file="/global/homes/j/jackm/software/lorrax_C/src/solvers/lanczos.py" source_line=247}
  %or.436 = u32[1024]{0} or(%shift-left.434, %shift-right-logical.435), metadata={op_name="jit(_full_run)/jit(main)/jit(_normal)/jit(_normal_real)/jit(_uniform)/or" source_file="/global/homes/j/jackm/software/lorrax_C/src/solvers/lanczos.py" source_line=247}
  %xor.437 = u32[1024]{0} xor(%add.433, %or.436), metadata={op_name="jit(_full_run)/jit(main)/jit(_normal)/jit(_normal_real)/jit(_uniform)/xor" source_file="/global/homes/j/jackm/software/lorrax_C/src/solvers/lanczos.py" source_line=247}
  %add.438 = u32[1024]{0} add(%add.433, %xor.437), metadata={op_name="jit(_full_run)/jit(main)/jit(_normal)/jit(_normal_real)/jit(_uniform)/add" source_file="/global/homes/j/jackm/software/lorrax_C/src/solvers/lanczos.py" source_line=247}
  %shift-left.439 = u32[1024]{0} shift-left(%xor.437, %broadcast.362), metadata={op_name="jit(_full_run)/jit(main)/jit(_normal)/jit(_normal_real)/jit(_uniform)/shift_left" source_file="/global/homes/j/jackm/software/lorrax_C/src/solvers/lanczos.py" source_line=247}
  %shift-right-logical.440 = u32[1024]{0} shift-right-logical(%xor.437, %broadcast.360), metadata={op_name="jit(_full_run)/jit(main)/jit(_normal)/jit(_normal_real)/jit(_uniform)/shift_right_logical" source_file="/global/homes/j/jackm/software/lorrax_C/src/solvers/lanczos.py" source_line=247}
  %or.441 = u32[1024]{0} or(%shift-left.439, %shift-right-logical.440), metadata={op_name="jit(_full_run)/jit(main)/jit(_normal)/jit(_normal_real)/jit(_uniform)/or" source_file="/global/homes/j/jackm/software/lorrax_C/src/solvers/lanczos.py" source_line=247}
  %xor.442 = u32[1024]{0} xor(%add.438, %or.441), metadata={op_name="jit(_full_run)/jit(main)/jit(_normal)/jit(_normal_real)/jit(_uniform)/xor" source_file="/global/homes/j/jackm/software/lorrax_C/src/solvers/lanczos.py" source_line=247}
  %add.443 = u32[1024]{0} add(%add.438, %xor.442), metadata={op_name="jit(_full_run)/jit(main)/jit(_normal)/jit(_normal_real)/jit(_uniform)/add" source_file="/global/homes/j/jackm/software/lorrax_C/src/solvers/lanczos.py" source_line=247}
  %broadcast.448 = u32[1024]{0} broadcast(%Arg_0.337), dimensions={}, metadata={op_name="jit(_full_run)/jit(main)/jit(_normal)/jit(_normal_real)/jit(_uniform)/add" source_file="/global/homes/j/jackm/software/lorrax_C/src/solvers/lanczos.py" source_line=247}
  %add.449 = u32[1024]{0} add(%add.443, %broadcast.448), metadata={op_name="jit(_full_run)/jit(main)/jit(_normal)/jit(_normal_real)/jit(_uniform)/add" source_file="/global/homes/j/jackm/software/lorrax_C/src/solvers/lanczos.py" source_line=247}
  %shift-left.444 = u32[1024]{0} shift-left(%xor.442, %broadcast.360), metadata={op_name="jit(_full_run)/jit(main)/jit(_normal)/jit(_normal_real)/jit(_uniform)/shift_left" source_file="/global/homes/j/jackm/software/lorrax_C/src/solvers/lanczos.py" source_line=247}
  %shift-right-logical.445 = u32[1024]{0} shift-right-logical(%xor.442, %broadcast.362), metadata={op_name="jit(_full_run)/jit(main)/jit(_normal)/jit(_normal_real)/jit(_uniform)/shift_right_logical" source_file="/global/homes/j/jackm/software/lorrax_C/src/solvers/lanczos.py" source_line=247}
  %or.446 = u32[1024]{0} or(%shift-left.444, %shift-right-logical.445), metadata={op_name="jit(_full_run)/jit(main)/jit(_normal)/jit(_normal_real)/jit(_uniform)/or" source_file="/global/homes/j/jackm/software/lorrax_C/src/solvers/lanczos.py" source_line=247}
  %xor.447 = u32[1024]{0} xor(%add.443, %or.446), metadata={op_name="jit(_full_run)/jit(main)/jit(_normal)/jit(_normal_real)/jit(_uniform)/xor" source_file="/global/homes/j/jackm/software/lorrax_C/src/solvers/lanczos.py" source_line=247}
  %broadcast.450 = u32[1024]{0} broadcast(%Arg_1.338), dimensions={}, metadata={op_name="jit(_full_run)/jit(main)/jit(_normal)/jit(_normal_real)/jit(_uniform)/add" source_file="/global/homes/j/jackm/software/lorrax_C/src/solvers/lanczos.py" source_line=247}
  %add.451 = u32[1024]{0} add(%xor.447, %broadcast.450), metadata={op_name="jit(_full_run)/jit(main)/jit(_normal)/jit(_normal_real)/jit(_uniform)/add" source_file="/global/homes/j/jackm/software/lorrax_C/src/solvers/lanczos.py" source_line=247}
  %add.452 = u32[1024]{0} add(%add.451, %broadcast.354), metadata={op_name="jit(_full_run)/jit(main)/jit(_normal)/jit(_normal_real)/jit(_uniform)/add" source_file="/global/homes/j/jackm/software/lorrax_C/src/solvers/lanczos.py" source_line=247}
  %add.453 = u32[1024]{0} add(%add.449, %add.452), metadata={op_name="jit(_full_run)/jit(main)/jit(_normal)/jit(_normal_real)/jit(_uniform)/add" source_file="/global/homes/j/jackm/software/lorrax_C/src/solvers/lanczos.py" source_line=247}
  %shift-left.454 = u32[1024]{0} shift-left(%add.452, %broadcast.364), metadata={op_name="jit(_full_run)/jit(main)/jit(_normal)/jit(_normal_real)/jit(_uniform)/shift_left" source_file="/global/homes/j/jackm/software/lorrax_C/src/solvers/lanczos.py" source_line=247}
  %shift-right-logical.455 = u32[1024]{0} shift-right-logical(%add.452, %broadcast.366), metadata={op_name="jit(_full_run)/jit(main)/jit(_normal)/jit(_normal_real)/jit(_uniform)/shift_right_logical" source_file="/global/homes/j/jackm/software/lorrax_C/src/solvers/lanczos.py" source_line=247}
  %or.456 = u32[1024]{0} or(%shift-left.454, %shift-right-logical.455), metadata={op_name="jit(_full_run)/jit(main)/jit(_normal)/jit(_normal_real)/jit(_uniform)/or" source_file="/global/homes/j/jackm/software/lorrax_C/src/solvers/lanczos.py" source_line=247}
  %xor.457 = u32[1024]{0} xor(%add.453, %or.456), metadata={op_name="jit(_full_run)/jit(main)/jit(_normal)/jit(_normal_real)/jit(_uniform)/xor" source_file="/global/homes/j/jackm/software/lorrax_C/src/solvers/lanczos.py" source_line=247}
  %add.458 = u32[1024]{0} add(%add.453, %xor.457), metadata={op_name="jit(_full_run)/jit(main)/jit(_normal)/jit(_normal_real)/jit(_uniform)/add" source_file="/global/homes/j/jackm/software/lorrax_C/src/solvers/lanczos.py" source_line=247}
  %shift-left.459 = u32[1024]{0} shift-left(%xor.457, %broadcast.356), metadata={op_name="jit(_full_run)/jit(main)/jit(_normal)/jit(_normal_real)/jit(_uniform)/shift_left" source_file="/global/homes/j/jackm/software/lorrax_C/src/solvers/lanczos.py" source_line=247}
  %shift-right-logical.460 = u32[1024]{0} shift-right-logical(%xor.457, %broadcast.354), metadata={op_name="jit(_full_run)/jit(main)/jit(_normal)/jit(_normal_real)/jit(_uniform)/shift_right_logical" source_file="/global/homes/j/jackm/software/lorrax_C/src/solvers/lanczos.py" source_line=247}
  %or.461 = u32[1024]{0} or(%shift-left.459, %shift-right-logical.460), metadata={op_name="jit(_full_run)/jit(main)/jit(_normal)/jit(_normal_real)/jit(_uniform)/or" source_file="/global/homes/j/jackm/software/lorrax_C/src/solvers/lanczos.py" source_line=247}
  %xor.462 = u32[1024]{0} xor(%add.458, %or.461), metadata={op_name="jit(_full_run)/jit(main)/jit(_normal)/jit(_normal_real)/jit(_uniform)/xor" source_file="/global/homes/j/jackm/software/lorrax_C/src/solvers/lanczos.py" source_line=247}
  %add.463 = u32[1024]{0} add(%add.458, %xor.462), metadata={op_name="jit(_full_run)/jit(main)/jit(_normal)/jit(_normal_real)/jit(_uniform)/add" source_file="/global/homes/j/jackm/software/lorrax_C/src/solvers/lanczos.py" source_line=247}
  %shift-left.464 = u32[1024]{0} shift-left(%xor.462, %broadcast.352), metadata={op_name="jit(_full_run)/jit(main)/jit(_normal)/jit(_normal_real)/jit(_uniform)/shift_left" source_file="/global/homes/j/jackm/software/lorrax_C/src/solvers/lanczos.py" source_line=247}
  %shift-right-logical.465 = u32[1024]{0} shift-right-logical(%xor.462, %broadcast.352), metadata={op_name="jit(_full_run)/jit(main)/jit(_normal)/jit(_normal_real)/jit(_uniform)/shift_right_logical" source_file="/global/homes/j/jackm/software/lorrax_C/src/solvers/lanczos.py" source_line=247}
  %or.466 = u32[1024]{0} or(%shift-left.464, %shift-right-logical.465), metadata={op_name="jit(_full_run)/jit(main)/jit(_normal)/jit(_normal_real)/jit(_uniform)/or" source_file="/global/homes/j/jackm/software/lorrax_C/src/solvers/lanczos.py" source_line=247}
  %xor.467 = u32[1024]{0} xor(%add.463, %or.466), metadata={op_name="jit(_full_run)/jit(main)/jit(_normal)/jit(_normal_real)/jit(_uniform)/xor" source_file="/global/homes/j/jackm/software/lorrax_C/src/solvers/lanczos.py" source_line=247}
  %add.468 = u32[1024]{0} add(%add.463, %xor.467), metadata={op_name="jit(_full_run)/jit(main)/jit(_normal)/jit(_normal_real)/jit(_uniform)/add" source_file="/global/homes/j/jackm/software/lorrax_C/src/solvers/lanczos.py" source_line=247}
  %broadcast.473 = u32[1024]{0} broadcast(%Arg_1.338), dimensions={}, metadata={op_name="jit(_full_run)/jit(main)/jit(_normal)/jit(_normal_real)/jit(_uniform)/add" source_file="/global/homes/j/jackm/software/lorrax_C/src/solvers/lanczos.py" source_line=247}
  %add.474 = u32[1024]{0} add(%add.468, %broadcast.473), metadata={op_name="jit(_full_run)/jit(main)/jit(_normal)/jit(_normal_real)/jit(_uniform)/add" source_file="/global/homes/j/jackm/software/lorrax_C/src/solvers/lanczos.py" source_line=247}
  %shift-left.469 = u32[1024]{0} shift-left(%xor.467, %broadcast.350), metadata={op_name="jit(_full_run)/jit(main)/jit(_normal)/jit(_normal_real)/jit(_uniform)/shift_left" source_file="/global/homes/j/jackm/software/lorrax_C/src/solvers/lanczos.py" source_line=247}
  %shift-right-logical.470 = u32[1024]{0} shift-right-logical(%xor.467, %broadcast.348), metadata={op_name="jit(_full_run)/jit(main)/jit(_normal)/jit(_normal_real)/jit(_uniform)/shift_right_logical" source_file="/global/homes/j/jackm/software/lorrax_C/src/solvers/lanczos.py" source_line=247}
  %or.471 = u32[1024]{0} or(%shift-left.469, %shift-right-logical.470), metadata={op_name="jit(_full_run)/jit(main)/jit(_normal)/jit(_normal_real)/jit(_uniform)/or" source_file="/global/homes/j/jackm/software/lorrax_C/src/solvers/lanczos.py" source_line=247}
  %xor.472 = u32[1024]{0} xor(%add.468, %or.471), metadata={op_name="jit(_full_run)/jit(main)/jit(_normal)/jit(_normal_real)/jit(_uniform)/xor" source_file="/global/homes/j/jackm/software/lorrax_C/src/solvers/lanczos.py" source_line=247}
  %broadcast.475 = u32[1024]{0} broadcast(%xor.373), dimensions={}, metadata={op_name="jit(_full_run)/jit(main)/jit(_normal)/jit(_normal_real)/jit(_uniform)/add" source_file="/global/homes/j/jackm/software/lorrax_C/src/solvers/lanczos.py" source_line=247}
  %add.476 = u32[1024]{0} add(%xor.472, %broadcast.475), metadata={op_name="jit(_full_run)/jit(main)/jit(_normal)/jit(_normal_real)/jit(_uniform)/add" source_file="/global/homes/j/jackm/software/lorrax_C/src/solvers/lanczos.py" source_line=247}
  %constant.343 = u32[] constant(4)
  %broadcast.344 = u32[1024]{0} broadcast(%constant.343), dimensions={}
  %add.477 = u32[1024]{0} add(%add.476, %broadcast.344), metadata={op_name="jit(_full_run)/jit(main)/jit(_normal)/jit(_normal_real)/jit(_uniform)/add" source_file="/global/homes/j/jackm/software/lorrax_C/src/solvers/lanczos.py" source_line=247}
  %add.478 = u32[1024]{0} add(%add.474, %add.477), metadata={op_name="jit(_full_run)/jit(main)/jit(_normal)/jit(_normal_real)/jit(_uniform)/add" source_file="/global/homes/j/jackm/software/lorrax_C/src/solvers/lanczos.py" source_line=247}
  %shift-left.479 = u32[1024]{0} shift-left(%add.477, %broadcast.370), metadata={op_name="jit(_full_run)/jit(main)/jit(_normal)/jit(_normal_real)/jit(_uniform)/shift_left" source_file="/global/homes/j/jackm/software/lorrax_C/src/solvers/lanczos.py" source_line=247}
  %shift-right-logical.480 = u32[1024]{0} shift-right-logical(%add.477, %broadcast.368), metadata={op_name="jit(_full_run)/jit(main)/jit(_normal)/jit(_normal_real)/jit(_uniform)/shift_right_logical" source_file="/global/homes/j/jackm/software/lorrax_C/src/solvers/lanczos.py" source_line=247}
  %or.481 = u32[1024]{0} or(%shift-left.479, %shift-right-logical.480), metadata={op_name="jit(_full_run)/jit(main)/jit(_normal)/jit(_normal_real)/jit(_uniform)/or" source_file="/global/homes/j/jackm/software/lorrax_C/src/solvers/lanczos.py" source_line=247}
  %xor.482 = u32[1024]{0} xor(%add.478, %or.481), metadata={op_name="jit(_full_run)/jit(main)/jit(_normal)/jit(_normal_real)/jit(_uniform)/xor" source_file="/global/homes/j/jackm/software/lorrax_C/src/solvers/lanczos.py" source_line=247}
  %add.483 = u32[1024]{0} add(%add.478, %xor.482), metadata={op_name="jit(_full_run)/jit(main)/jit(_normal)/jit(_normal_real)/jit(_uniform)/add" source_file="/global/homes/j/jackm/software/lorrax_C/src/solvers/lanczos.py" source_line=247}
  %shift-left.484 = u32[1024]{0} shift-left(%xor.482, %broadcast.366), metadata={op_name="jit(_full_run)/jit(main)/jit(_normal)/jit(_normal_real)/jit(_uniform)/shift_left" source_file="/global/homes/j/jackm/software/lorrax_C/src/solvers/lanczos.py" source_line=247}
  %shift-right-logical.485 = u32[1024]{0} shift-right-logical(%xor.482, %broadcast.364), metadata={op_name="jit(_full_run)/jit(main)/jit(_normal)/jit(_normal_real)/jit(_uniform)/shift_right_logical" source_file="/global/homes/j/jackm/software/lorrax_C/src/solvers/lanczos.py" source_line=247}
  %or.486 = u32[1024]{0} or(%shift-left.484, %shift-right-logical.485), metadata={op_name="jit(_full_run)/jit(main)/jit(_normal)/jit(_normal_real)/jit(_uniform)/or" source_file="/global/homes/j/jackm/software/lorrax_C/src/solvers/lanczos.py" source_line=247}
  %xor.487 = u32[1024]{0} xor(%add.483, %or.486), metadata={op_name="jit(_full_run)/jit(main)/jit(_normal)/jit(_normal_real)/jit(_uniform)/xor" source_file="/global/homes/j/jackm/software/lorrax_C/src/solvers/lanczos.py" source_line=247}
  %add.488 = u32[1024]{0} add(%add.483, %xor.487), metadata={op_name="jit(_full_run)/jit(main)/jit(_normal)/jit(_normal_real)/jit(_uniform)/add" source_file="/global/homes/j/jackm/software/lorrax_C/src/solvers/lanczos.py" source_line=247}
  %shift-left.489 = u32[1024]{0} shift-left(%xor.487, %broadcast.362), metadata={op_name="jit(_full_run)/jit(main)/jit(_normal)/jit(_normal_real)/jit(_uniform)/shift_left" source_file="/global/homes/j/jackm/software/lorrax_C/src/solvers/lanczos.py" source_line=247}
  %shift-right-logical.490 = u32[1024]{0} shift-right-logical(%xor.487, %broadcast.360), metadata={op_name="jit(_full_run)/jit(main)/jit(_normal)/jit(_normal_real)/jit(_uniform)/shift_right_logical" source_file="/global/homes/j/jackm/software/lorrax_C/src/solvers/lanczos.py" source_line=247}
  %or.491 = u32[1024]{0} or(%shift-left.489, %shift-right-logical.490), metadata={op_name="jit(_full_run)/jit(main)/jit(_normal)/jit(_normal_real)/jit(_uniform)/or" source_file="/global/homes/j/jackm/software/lorrax_C/src/solvers/lanczos.py" source_line=247}
  %xor.492 = u32[1024]{0} xor(%add.488, %or.491), metadata={op_name="jit(_full_run)/jit(main)/jit(_normal)/jit(_normal_real)/jit(_uniform)/xor" source_file="/global/homes/j/jackm/software/lorrax_C/src/solvers/lanczos.py" source_line=247}
  %add.493 = u32[1024]{0} add(%add.488, %xor.492), metadata={op_name="jit(_full_run)/jit(main)/jit(_normal)/jit(_normal_real)/jit(_uniform)/add" source_file="/global/homes/j/jackm/software/lorrax_C/src/solvers/lanczos.py" source_line=247}
  %broadcast.498 = u32[1024]{0} broadcast(%xor.373), dimensions={}, metadata={op_name="jit(_full_run)/jit(main)/jit(_normal)/jit(_normal_real)/jit(_uniform)/add" source_file="/global/homes/j/jackm/software/lorrax_C/src/solvers/lanczos.py" source_line=247}
  %add.499 = u32[1024]{0} add(%add.493, %broadcast.498), metadata={op_name="jit(_full_run)/jit(main)/jit(_normal)/jit(_normal_real)/jit(_uniform)/add" source_file="/global/homes/j/jackm/software/lorrax_C/src/solvers/lanczos.py" source_line=247}
  %shift-left.494 = u32[1024]{0} shift-left(%xor.492, %broadcast.360), metadata={op_name="jit(_full_run)/jit(main)/jit(_normal)/jit(_normal_real)/jit(_uniform)/shift_left" source_file="/global/homes/j/jackm/software/lorrax_C/src/solvers/lanczos.py" source_line=247}
  %shift-right-logical.495 = u32[1024]{0} shift-right-logical(%xor.492, %broadcast.362), metadata={op_name="jit(_full_run)/jit(main)/jit(_normal)/jit(_normal_real)/jit(_uniform)/shift_right_logical" source_file="/global/homes/j/jackm/software/lorrax_C/src/solvers/lanczos.py" source_line=247}
  %or.496 = u32[1024]{0} or(%shift-left.494, %shift-right-logical.495), metadata={op_name="jit(_full_run)/jit(main)/jit(_normal)/jit(_normal_real)/jit(_uniform)/or" source_file="/global/homes/j/jackm/software/lorrax_C/src/solvers/lanczos.py" source_line=247}
  %xor.497 = u32[1024]{0} xor(%add.493, %or.496), metadata={op_name="jit(_full_run)/jit(main)/jit(_normal)/jit(_normal_real)/jit(_uniform)/xor" source_file="/global/homes/j/jackm/software/lorrax_C/src/solvers/lanczos.py" source_line=247}
  %broadcast.500 = u32[1024]{0} broadcast(%Arg_0.337), dimensions={}, metadata={op_name="jit(_full_run)/jit(main)/jit(_normal)/jit(_normal_real)/jit(_uniform)/add" source_file="/global/homes/j/jackm/software/lorrax_C/src/solvers/lanczos.py" source_line=247}
  %add.501 = u32[1024]{0} add(%xor.497, %broadcast.500), metadata={op_name="jit(_full_run)/jit(main)/jit(_normal)/jit(_normal_real)/jit(_uniform)/add" source_file="/global/homes/j/jackm/software/lorrax_C/src/solvers/lanczos.py" source_line=247}
  %constant.341 = u32[] constant(5)
  %broadcast.342 = u32[1024]{0} broadcast(%constant.341), dimensions={}
  %add.502 = u32[1024]{0} add(%add.501, %broadcast.342), metadata={op_name="jit(_full_run)/jit(main)/jit(_normal)/jit(_normal_real)/jit(_uniform)/add" source_file="/global/homes/j/jackm/software/lorrax_C/src/solvers/lanczos.py" source_line=247}
  ROOT %tuple.503 = (u32[1024]{0}, u32[1024]{0}) tuple(%add.499, %add.502)
}

%_uniform.504 (Arg_0.505: u32[2], Arg_1.506: f64[], Arg_2.507: f64[]) -> f64[1024] {
  %Arg_1.506 = f64[] parameter(1), metadata={op_name="jit(_full_run)/jit(main)/jit(_normal)/jit(_normal_real)/pjit"}
  %reshape.516 = f64[1]{0} reshape(%Arg_1.506), metadata={op_name="jit(_full_run)/jit(main)/jit(_normal)/jit(_normal_real)/jit(_uniform)/broadcast_in_dim" source_file="/global/homes/j/jackm/software/lorrax_C/src/solvers/lanczos.py" source_line=247}
  %broadcast.546 = f64[1]{0} broadcast(%reshape.516), dimensions={0}, metadata={op_name="jit(_full_run)/jit(main)/jit(_normal)/jit(_normal_real)/jit(_uniform)/max" source_file="/global/homes/j/jackm/software/lorrax_C/src/solvers/lanczos.py" source_line=247}
  %reshape.547 = f64[] reshape(%broadcast.546), metadata={op_name="jit(_full_run)/jit(main)/jit(_normal)/jit(_normal_real)/jit(_uniform)/max" source_file="/global/homes/j/jackm/software/lorrax_C/src/solvers/lanczos.py" source_line=247}
  %broadcast.548 = f64[1024]{0} broadcast(%reshape.547), dimensions={}, metadata={op_name="jit(_full_run)/jit(main)/jit(_normal)/jit(_normal_real)/jit(_uniform)/max" source_file="/global/homes/j/jackm/software/lorrax_C/src/solvers/lanczos.py" source_line=247}
  %Arg_0.505 = u32[2]{0} parameter(0), metadata={op_name="jit(_full_run)/jit(main)/jit(_normal)/jit(_normal_real)/pjit"}
  %slice.518 = u32[1]{0} slice(%Arg_0.505), slice={[0:1]}, metadata={op_name="jit(_full_run)/jit(main)/jit(_normal)/jit(_normal_real)/jit(_uniform)/slice" source_file="/global/homes/j/jackm/software/lorrax_C/src/solvers/lanczos.py" source_line=247}
  %reshape.519 = u32[] reshape(%slice.518), metadata={op_name="jit(_full_run)/jit(main)/jit(_normal)/jit(_normal_real)/jit(_uniform)/squeeze" source_file="/global/homes/j/jackm/software/lorrax_C/src/solvers/lanczos.py" source_line=247}
  %slice.520 = u32[1]{0} slice(%Arg_0.505), slice={[1:2]}, metadata={op_name="jit(_full_run)/jit(main)/jit(_normal)/jit(_normal_real)/jit(_uniform)/slice" source_file="/global/homes/j/jackm/software/lorrax_C/src/solvers/lanczos.py" source_line=247}
  %reshape.521 = u32[] reshape(%slice.520), metadata={op_name="jit(_full_run)/jit(main)/jit(_normal)/jit(_normal_real)/jit(_uniform)/squeeze" source_file="/global/homes/j/jackm/software/lorrax_C/src/solvers/lanczos.py" source_line=247}
  %iota.522 = u64[1024]{0} iota(), iota_dimension=0, metadata={op_name="jit(_full_run)/jit(main)/jit(_normal)/jit(_normal_real)/jit(_uniform)/iota_2x32_shape" source_file="/global/homes/j/jackm/software/lorrax_C/src/solvers/lanczos.py" source_line=247}
  %constant.514 = u64[] constant(32)
  %broadcast.515 = u64[1024]{0} broadcast(%constant.514), dimensions={}
  %shift-right-logical.523 = u64[1024]{0} shift-right-logical(%iota.522, %broadcast.515), metadata={op_name="jit(_full_run)/jit(main)/jit(_normal)/jit(_normal_real)/jit(_uniform)/iota_2x32_shape" source_file="/global/homes/j/jackm/software/lorrax_C/src/solvers/lanczos.py" source_line=247}
  %convert.525 = u32[1024]{0} convert(%shift-right-logical.523), metadata={op_name="jit(_full_run)/jit(main)/jit(_normal)/jit(_normal_real)/jit(_uniform)/iota_2x32_shape" source_file="/global/homes/j/jackm/software/lorrax_C/src/solvers/lanczos.py" source_line=247}
  %convert.524 = u32[1024]{0} convert(%iota.522), metadata={op_name="jit(_full_run)/jit(main)/jit(_normal)/jit(_normal_real)/jit(_uniform)/iota_2x32_shape" source_file="/global/homes/j/jackm/software/lorrax_C/src/solvers/lanczos.py" source_line=247}
  %call.526 = (u32[1024]{0}, u32[1024]{0}) call(%reshape.519, %reshape.521, %convert.525, %convert.524), to_apply=%threefry2x32_0.336
  %get-tuple-element.527 = u32[1024]{0} get-tuple-element(%call.526), index=0
  %convert.529 = u64[1024]{0} convert(%get-tuple-element.527), metadata={op_name="jit(_full_run)/jit(main)/jit(_normal)/jit(_normal_real)/jit(_uniform)/convert_element_type" source_file="/global/homes/j/jackm/software/lorrax_C/src/solvers/lanczos.py" source_line=247}
  %shift-left.531 = u64[1024]{0} shift-left(%convert.529, %broadcast.515), metadata={op_name="jit(_full_run)/jit(main)/jit(_normal)/jit(_normal_real)/jit(_uniform)/shift_left" source_file="/global/homes/j/jackm/software/lorrax_C/src/solvers/lanczos.py" source_line=247}
  %get-tuple-element.528 = u32[1024]{0} get-tuple-element(%call.526), index=1
  %convert.530 = u64[1024]{0} convert(%get-tuple-element.528), metadata={op_name="jit(_full_run)/jit(main)/jit(_normal)/jit(_normal_real)/jit(_uniform)/convert_element_type" source_file="/global/homes/j/jackm/software/lorrax_C/src/solvers/lanczos.py" source_line=247}
  %or.532 = u64[1024]{0} or(%shift-left.531, %convert.530), metadata={op_name="jit(_full_run)/jit(main)/jit(_normal)/jit(_normal_real)/jit(_uniform)/or" source_file="/global/homes/j/jackm/software/lorrax_C/src/solvers/lanczos.py" source_line=247}
  %constant.512 = u64[] constant(12)
  %broadcast.513 = u64[1024]{0} broadcast(%constant.512), dimensions={}
  %shift-right-logical.533 = u64[1024]{0} shift-right-logical(%or.532, %broadcast.513), metadata={op_name="jit(_full_run)/jit(main)/jit(_normal)/jit(_normal_real)/jit(_uniform)/shift_right_logical" source_file="/global/homes/j/jackm/software/lorrax_C/src/solvers/lanczos.py" source_line=247}
  %constant.510 = u64[] constant(4607182418800017408)
  %broadcast.511 = u64[1024]{0} broadcast(%constant.510), dimensions={}
  %or.534 = u64[1024]{0} or(%shift-right-logical.533, %broadcast.511), metadata={op_name="jit(_full_run)/jit(main)/jit(_normal)/jit(_normal_real)/jit(_uniform)/or" source_file="/global/homes/j/jackm/software/lorrax_C/src/solvers/lanczos.py" source_line=247}
  %bitcast-convert.535 = f64[1024]{0} bitcast-convert(%or.534), metadata={op_name="jit(_full_run)/jit(main)/jit(_normal)/jit(_normal_real)/jit(_uniform)/bitcast_convert_type" source_file="/global/homes/j/jackm/software/lorrax_C/src/solvers/lanczos.py" source_line=247}
  %constant.508 = f64[] constant(1)
  %broadcast.509 = f64[1024]{0} broadcast(%constant.508), dimensions={}
  %subtract.536 = f64[1024]{0} subtract(%bitcast-convert.535, %broadcast.509), metadata={op_name="jit(_full_run)/jit(main)/jit(_normal)/jit(_normal_real)/jit(_uniform)/sub" source_file="/global/homes/j/jackm/software/lorrax_C/src/solvers/lanczos.py" source_line=247}
  %Arg_2.507 = f64[] parameter(2), metadata={op_name="jit(_full_run)/jit(main)/jit(_normal)/jit(_normal_real)/pjit"}
  %reshape.517 = f64[1]{0} reshape(%Arg_2.507), metadata={op_name="jit(_full_run)/jit(main)/jit(_normal)/jit(_normal_real)/jit(_uniform)/broadcast_in_dim" source_file="/global/homes/j/jackm/software/lorrax_C/src/solvers/lanczos.py" source_line=247}
  %subtract.537 = f64[1]{0} subtract(%reshape.517, %reshape.516), metadata={op_name="jit(_full_run)/jit(main)/jit(_normal)/jit(_normal_real)/jit(_uniform)/sub" source_file="/global/homes/j/jackm/software/lorrax_C/src/solvers/lanczos.py" source_line=247}
  %broadcast.538 = f64[1]{0} broadcast(%subtract.537), dimensions={0}, metadata={op_name="jit(_full_run)/jit(main)/jit(_normal)/jit(_normal_real)/jit(_uniform)/mul" source_file="/global/homes/j/jackm/software/lorrax_C/src/solvers/lanczos.py" source_line=247}
  %reshape.539 = f64[] reshape(%broadcast.538), metadata={op_name="jit(_full_run)/jit(main)/jit(_normal)/jit(_normal_real)/jit(_uniform)/mul" source_file="/global/homes/j/jackm/software/lorrax_C/src/solvers/lanczos.py" source_line=247}
  %broadcast.540 = f64[1024]{0} broadcast(%reshape.539), dimensions={}, metadata={op_name="jit(_full_run)/jit(main)/jit(_normal)/jit(_normal_real)/jit(_uniform)/mul" source_file="/global/homes/j/jackm/software/lorrax_C/src/solvers/lanczos.py" source_line=247}
  %multiply.541 = f64[1024]{0} multiply(%subtract.536, %broadcast.540), metadata={op_name="jit(_full_run)/jit(main)/jit(_normal)/jit(_normal_real)/jit(_uniform)/mul" source_file="/global/homes/j/jackm/software/lorrax_C/src/solvers/lanczos.py" source_line=247}
  %broadcast.542 = f64[1]{0} broadcast(%reshape.516), dimensions={0}, metadata={op_name="jit(_full_run)/jit(main)/jit(_normal)/jit(_normal_real)/jit(_uniform)/add" source_file="/global/homes/j/jackm/software/lorrax_C/src/solvers/lanczos.py" source_line=247}
  %reshape.543 = f64[] reshape(%broadcast.542), metadata={op_name="jit(_full_run)/jit(main)/jit(_normal)/jit(_normal_real)/jit(_uniform)/add" source_file="/global/homes/j/jackm/software/lorrax_C/src/solvers/lanczos.py" source_line=247}
  %broadcast.544 = f64[1024]{0} broadcast(%reshape.543), dimensions={}, metadata={op_name="jit(_full_run)/jit(main)/jit(_normal)/jit(_normal_real)/jit(_uniform)/add" source_file="/global/homes/j/jackm/software/lorrax_C/src/solvers/lanczos.py" source_line=247}
  %add.545 = f64[1024]{0} add(%multiply.541, %broadcast.544), metadata={op_name="jit(_full_run)/jit(main)/jit(_normal)/jit(_normal_real)/jit(_uniform)/add" source_file="/global/homes/j/jackm/software/lorrax_C/src/solvers/lanczos.py" source_line=247}
  ROOT %maximum.549 = f64[1024]{0} maximum(%broadcast.548, %add.545), metadata={op_name="jit(_full_run)/jit(main)/jit(_normal)/jit(_normal_real)/jit(_uniform)/max" source_file="/global/homes/j/jackm/software/lorrax_C/src/solvers/lanczos.py" source_line=247}
}

%_normal_real.550 (Arg_0.551: u32[2]) -> f64[1024] {
  %Arg_0.551 = u32[2]{0} parameter(0), metadata={op_name="jit(_full_run)/jit(main)/jit(_normal)/pjit"}
  %constant.686 = f64[] constant(-0.99999999999999989)
  %constant.687 = f64[] constant(1)
  %call.688 = f64[1024]{0} call(%Arg_0.551, %constant.686, %constant.687), to_apply=%_uniform.504
  %abs.787 = f64[1024]{0} abs(%call.688), metadata={op_name="jit(_full_run)/jit(main)/jit(_normal)/jit(_normal_real)/erf_inv" source_file="/global/homes/j/jackm/software/lorrax_C/src/solvers/lanczos.py" source_line=247}
  %constant.556 = f64[] constant(1)
  %broadcast.557 = f64[1024]{0} broadcast(%constant.556), dimensions={}
  %compare.788 = pred[1024]{0} compare(%abs.787, %broadcast.557), direction=EQ, metadata={op_name="jit(_full_run)/jit(main)/jit(_normal)/jit(_normal_real)/erf_inv" source_file="/global/homes/j/jackm/software/lorrax_C/src/solvers/lanczos.py" source_line=247}
  %constant.554 = f64[] constant(inf)
  %broadcast.555 = f64[1024]{0} broadcast(%constant.554), dimensions={}
  %multiply.789 = f64[1024]{0} multiply(%call.688, %broadcast.555), metadata={op_name="jit(_full_run)/jit(main)/jit(_normal)/jit(_normal_real)/erf_inv" source_file="/global/homes/j/jackm/software/lorrax_C/src/solvers/lanczos.py" source_line=247}
  %negate.689 = f64[1024]{0} negate(%call.688), metadata={op_name="jit(_full_run)/jit(main)/jit(_normal)/jit(_normal_real)/erf_inv" source_file="/global/homes/j/jackm/software/lorrax_C/src/solvers/lanczos.py" source_line=247}
  %multiply.690 = f64[1024]{0} multiply(%call.688, %negate.689), metadata={op_name="jit(_full_run)/jit(main)/jit(_normal)/jit(_normal_real)/erf_inv" source_file="/global/homes/j/jackm/software/lorrax_C/src/solvers/lanczos.py" source_line=247}
  %log-plus-one.691 = f64[1024]{0} log-plus-one(%multiply.690), metadata={op_name="jit(_full_run)/jit(main)/jit(_normal)/jit(_normal_real)/erf_inv" source_file="/global/homes/j/jackm/software/lorrax_C/src/solvers/lanczos.py" source_line=247}
  %negate.692 = f64[1024]{0} negate(%log-plus-one.691), metadata={op_name="jit(_full_run)/jit(main)/jit(_normal)/jit(_normal_real)/erf_inv" source_file="/global/homes/j/jackm/software/lorrax_C/src/solvers/lanczos.py" source_line=247}
  %constant.684 = f64[] constant(6.25)
  %broadcast.685 = f64[1024]{0} broadcast(%constant.684), dimensions={}
  %compare.693 = pred[1024]{0} compare(%negate.692, %broadcast.685), direction=LT, metadata={op_name="jit(_full_run)/jit(main)/jit(_normal)/jit(_normal_real)/erf_inv" source_file="/global/homes/j/jackm/software/lorrax_C/src/solvers/lanczos.py" source_line=247}
  %constant.682 = f64[] constant(16)
  %broadcast.683 = f64[1024]{0} broadcast(%constant.682), dimensions={}
  %compare.694 = pred[1024]{0} compare(%negate.692, %broadcast.683), direction=LT, metadata={op_name="jit(_full_run)/jit(main)/jit(_normal)/jit(_normal_real)/erf_inv" source_file="/global/homes/j/jackm/software/lorrax_C/src/solvers/lanczos.py" source_line=247}
  %constant.568 = f64[] constant(0.00018673420803405714)
  %broadcast.569 = f64[1024]{0} broadcast(%constant.568), dimensions={}
  %constant.566 = f64[] constant(3.0838856104922208)
  %broadcast.567 = f64[1024]{0} broadcast(%constant.566), dimensions={}
  %select.770 = f64[1024]{0} select(%compare.693, %broadcast.569, %broadcast.567), metadata={op_name="jit(_full_run)/jit(main)/jit(_normal)/jit(_normal_real)/erf_inv" source_file="/global/homes/j/jackm/software/lorrax_C/src/solvers/lanczos.py" source_line=247}
  %constant.572 = f64[] constant(-1.3882523362786469e-05)
  %broadcast.573 = f64[1024]{0} broadcast(%constant.572), dimensions={}
  %constant.570 = f64[] constant(1.0052589676941592)
  %broadcast.571 = f64[1024]{0} broadcast(%constant.570), dimensions={}
  %select.766 = f64[1024]{0} select(%compare.693, %broadcast.573, %broadcast.571), metadata={op_name="jit(_full_run)/jit(main)/jit(_normal)/jit(_normal_real)/erf_inv" source_file="/global/homes/j/jackm/software/lorrax_C/src/solvers/lanczos.py" source_line=247}
  %constant.578 = f64[] constant(-1.3654692000834679e-06)
  %broadcast.579 = f64[1024]{0} broadcast(%constant.578), dimensions={}
  %constant.576 = f64[] constant(0.0053709145535900636)
  %broadcast.577 = f64[1024]{0} broadcast(%constant.576), dimensions={}
  %select.762 = f64[1024]{0} select(%compare.693, %broadcast.579, %broadcast.577), metadata={op_name="jit(_full_run)/jit(main)/jit(_normal)/jit(_normal_real)/erf_inv" source_file="/global/homes/j/jackm/software/lorrax_C/src/solvers/lanczos.py" source_line=247}
  %constant.574 = f64[] constant(4.8499064014085844)
  %broadcast.575 = f64[1024]{0} broadcast(%constant.574), dimensions={}
  %select.763 = f64[1024]{0} select(%compare.694, %select.762, %broadcast.575), metadata={op_name="jit(_full_run)/jit(main)/jit(_normal)/jit(_normal_real)/erf_inv" source_file="/global/homes/j/jackm/software/lorrax_C/src/solvers/lanczos.py" source_line=247}
  %constant.584 = f64[] constant(4.2347877827932404e-07)
  %broadcast.585 = f64[1024]{0} broadcast(%constant.584), dimensions={}
  %constant.582 = f64[] constant(-0.0037512085075692412)
  %broadcast.583 = f64[1024]{0} broadcast(%constant.582), dimensions={}
  %select.758 = f64[1024]{0} select(%compare.693, %broadcast.585, %broadcast.583), metadata={op_name="jit(_full_run)/jit(main)/jit(_normal)/jit(_normal_real)/erf_inv" source_file="/global/homes/j/jackm/software/lorrax_C/src/solvers/lanczos.py" source_line=247}
  %constant.580 = f64[] constant(1.0103004648645344)
  %broadcast.581 = f64[1024]{0} broadcast(%constant.580), dimensions={}
  %select.759 = f64[1024]{0} select(%compare.694, %select.758, %broadcast.581), metadata={op_name="jit(_full_run)/jit(main)/jit(_normal)/jit(_normal_real)/erf_inv" source_file="/global/homes/j/jackm/software/lorrax_C/src/solvers/lanczos.py" source_line=247}
  %constant.590 = f64[] constant(-2.9070369957882005e-08)
  %broadcast.591 = f64[1024]{0} broadcast(%constant.590), dimensions={}
  %constant.588 = f64[] constant(0.0024914420961078508)
  %broadcast.589 = f64[1024]{0} broadcast(%constant.588), dimensions={}
  %select.754 = f64[1024]{0} select(%compare.693, %broadcast.591, %broadcast.589), metadata={op_name="jit(_full_run)/jit(main)/jit(_normal)/jit(_normal_real)/erf_inv" source_file="/global/homes/j/jackm/software/lorrax_C/src/solvers/lanczos.py" source_line=247}
  %constant.586 = f64[] constant(-0.00013871931833623122)
  %broadcast.587 = f64[1024]{0} broadcast(%constant.586), dimensions={}
  %select.755 = f64[1024]{0} select(%compare.694, %select.754, %broadcast.587), metadata={op_name="jit(_full_run)/jit(main)/jit(_normal)/jit(_normal_real)/erf_inv" source_file="/global/homes/j/jackm/software/lorrax_C/src/solvers/lanczos.py" source_line=247}
  %constant.596 = f64[] constant(-4.1126339803469837e-09)
  %broadcast.597 = f64[1024]{0} broadcast(%constant.596), dimensions={}
  %constant.594 = f64[] constant(-0.0016882755560235047)
  %broadcast.595 = f64[1024]{0} broadcast(%constant.594), dimensions={}
  %select.750 = f64[1024]{0} select(%compare.693, %broadcast.597, %broadcast.595), metadata={op_name="jit(_full_run)/jit(main)/jit(_normal)/jit(_normal_real)/erf_inv" source_file="/global/homes/j/jackm/software/lorrax_C/src/solvers/lanczos.py" source_line=247}
  %constant.592 = f64[] constant(-0.00021503011930044477)
  %broadcast.593 = f64[1024]{0} broadcast(%constant.592), dimensions={}
  %select.751 = f64[1024]{0} select(%compare.694, %select.750, %broadcast.593), metadata={op_name="jit(_full_run)/jit(main)/jit(_normal)/jit(_normal_real)/erf_inv" source_file="/global/homes/j/jackm/software/lorrax_C/src/solvers/lanczos.py" source_line=247}
  %constant.602 = f64[] constant(1.0512122733215323e-09)
  %broadcast.603 = f64[1024]{0} broadcast(%constant.602), dimensions={}
  %constant.600 = f64[] constant(0.0009532893797373805)
  %broadcast.601 = f64[1024]{0} broadcast(%constant.600), dimensions={}
  %select.746 = f64[1024]{0} select(%compare.693, %broadcast.603, %broadcast.601), metadata={op_name="jit(_full_run)/jit(main)/jit(_normal)/jit(_normal_real)/erf_inv" source_file="/global/homes/j/jackm/software/lorrax_C/src/solvers/lanczos.py" source_line=247}
  %constant.598 = f64[] constant(7.5995277030017761e-05)
  %broadcast.599 = f64[1024]{0} broadcast(%constant.598), dimensions={}
  %select.747 = f64[1024]{0} select(%compare.694, %select.746, %broadcast.599), metadata={op_name="jit(_full_run)/jit(main)/jit(_normal)/jit(_normal_real)/erf_inv" source_file="/global/homes/j/jackm/software/lorrax_C/src/solvers/lanczos.py" source_line=247}
  %constant.608 = f64[] constant(-5.4154120542946279e-11)
  %broadcast.609 = f64[1024]{0} broadcast(%constant.608), dimensions={}
  %constant.606 = f64[] constant(-0.00035503752036284748)
  %broadcast.607 = f64[1024]{0} broadcast(%constant.606), dimensions={}
  %select.742 = f64[1024]{0} select(%compare.693, %broadcast.609, %broadcast.607), metadata={op_name="jit(_full_run)/jit(main)/jit(_normal)/jit(_normal_real)/erf_inv" source_file="/global/homes/j/jackm/software/lorrax_C/src/solvers/lanczos.py" source_line=247}
  %constant.604 = f64[] constant(-1.9681778105531671e-05)
  %broadcast.605 = f64[1024]{0} broadcast(%constant.604), dimensions={}
  %select.743 = f64[1024]{0} select(%compare.694, %select.742, %broadcast.605), metadata={op_name="jit(_full_run)/jit(main)/jit(_normal)/jit(_normal_real)/erf_inv" source_file="/global/homes/j/jackm/software/lorrax_C/src/solvers/lanczos.py" source_line=247}
  %constant.614 = f64[] constant(-1.2975133253453532e-11)
  %broadcast.615 = f64[1024]{0} broadcast(%constant.614), dimensions={}
  %constant.612 = f64[] constant(2.4031110387097894e-05)
  %broadcast.613 = f64[1024]{0} broadcast(%constant.612), dimensions={}
  %select.738 = f64[1024]{0} select(%compare.693, %broadcast.615, %broadcast.613), metadata={op_name="jit(_full_run)/jit(main)/jit(_normal)/jit(_normal_real)/erf_inv" source_file="/global/homes/j/jackm/software/lorrax_C/src/solvers/lanczos.py" source_line=247}
  %constant.610 = f64[] constant(4.5260625972231537e-06)
  %broadcast.611 = f64[1024]{0} broadcast(%constant.610), dimensions={}
  %select.739 = f64[1024]{0} select(%compare.694, %select.738, %broadcast.611), metadata={op_name="jit(_full_run)/jit(main)/jit(_normal)/jit(_normal_real)/erf_inv" source_file="/global/homes/j/jackm/software/lorrax_C/src/solvers/lanczos.py" source_line=247}
  %constant.620 = f64[] constant(2.6335093153082323e-12)
  %broadcast.621 = f64[1024]{0} broadcast(%constant.620), dimensions={}
  %constant.618 = f64[] constant(6.8284851459573175e-05)
  %broadcast.619 = f64[1024]{0} broadcast(%constant.618), dimensions={}
  %select.734 = f64[1024]{0} select(%compare.693, %broadcast.621, %broadcast.619), metadata={op_name="jit(_full_run)/jit(main)/jit(_normal)/jit(_normal_real)/erf_inv" source_file="/global/homes/j/jackm/software/lorrax_C/src/solvers/lanczos.py" source_line=247}
  %constant.616 = f64[] constant(-9.9298272942317e-07)
  %broadcast.617 = f64[1024]{0} broadcast(%constant.616), dimensions={}
  %select.735 = f64[1024]{0} select(%compare.694, %select.734, %broadcast.617), metadata={op_name="jit(_full_run)/jit(main)/jit(_normal)/jit(_normal_real)/erf_inv" source_file="/global/homes/j/jackm/software/lorrax_C/src/solvers/lanczos.py" source_line=247}
  %constant.626 = f64[] constant(-8.1519341976054722e-14)
  %broadcast.627 = f64[1024]{0} broadcast(%constant.626), dimensions={}
  %constant.624 = f64[] constant(-4.7318229009055734e-05)
  %broadcast.625 = f64[1024]{0} broadcast(%constant.624), dimensions={}
  %select.730 = f64[1024]{0} select(%compare.693, %broadcast.627, %broadcast.625), metadata={op_name="jit(_full_run)/jit(main)/jit(_normal)/jit(_normal_real)/erf_inv" source_file="/global/homes/j/jackm/software/lorrax_C/src/solvers/lanczos.py" source_line=247}
  %constant.622 = f64[] constant(2.2900482228026655e-07)
  %broadcast.623 = f64[1024]{0} broadcast(%constant.622), dimensions={}
  %select.731 = f64[1024]{0} select(%compare.694, %select.730, %broadcast.623), metadata={op_name="jit(_full_run)/jit(main)/jit(_normal)/jit(_normal_real)/erf_inv" source_file="/global/homes/j/jackm/software/lorrax_C/src/solvers/lanczos.py" source_line=247}
  %constant.632 = f64[] constant(-4.0545662729752069e-14)
  %broadcast.633 = f64[1024]{0} broadcast(%constant.632), dimensions={}
  %constant.630 = f64[] constant(1.2475304481671779e-05)
  %broadcast.631 = f64[1024]{0} broadcast(%constant.630), dimensions={}
  %select.726 = f64[1024]{0} select(%compare.693, %broadcast.633, %broadcast.631), metadata={op_name="jit(_full_run)/jit(main)/jit(_normal)/jit(_normal_real)/erf_inv" source_file="/global/homes/j/jackm/software/lorrax_C/src/solvers/lanczos.py" source_line=247}
  %constant.628 = f64[] constant(-6.7711997758452339e-08)
  %broadcast.629 = f64[1024]{0} broadcast(%constant.628), dimensions={}
  %select.727 = f64[1024]{0} select(%compare.694, %select.726, %broadcast.629), metadata={op_name="jit(_full_run)/jit(main)/jit(_normal)/jit(_normal_real)/erf_inv" source_file="/global/homes/j/jackm/software/lorrax_C/src/solvers/lanczos.py" source_line=247}
  %constant.638 = f64[] constant(6.6376381343583238e-15)
  %broadcast.639 = f64[1024]{0} broadcast(%constant.638), dimensions={}
  %constant.636 = f64[] constant(2.9234449089955446e-06)
  %broadcast.637 = f64[1024]{0} broadcast(%constant.636), dimensions={}
  %select.722 = f64[1024]{0} select(%compare.693, %broadcast.639, %broadcast.637), metadata={op_name="jit(_full_run)/jit(main)/jit(_normal)/jit(_normal_real)/erf_inv" source_file="/global/homes/j/jackm/software/lorrax_C/src/solvers/lanczos.py" source_line=247}
  %constant.634 = f64[] constant(2.9147953450901081e-08)
  %broadcast.635 = f64[1024]{0} broadcast(%constant.634), dimensions={}
  %select.723 = f64[1024]{0} select(%compare.694, %select.722, %broadcast.635), metadata={op_name="jit(_full_run)/jit(main)/jit(_normal)/jit(_normal_real)/erf_inv" source_file="/global/homes/j/jackm/software/lorrax_C/src/solvers/lanczos.py" source_line=247}
  %constant.644 = f64[] constant(2.0972767875968562e-17)
  %broadcast.645 = f64[1024]{0} broadcast(%constant.644), dimensions={}
  %constant.642 = f64[] constant(-4.013867526981546e-06)
  %broadcast.643 = f64[1024]{0} broadcast(%constant.642), dimensions={}
  %select.718 = f64[1024]{0} select(%compare.693, %broadcast.645, %broadcast.643), metadata={op_name="jit(_full_run)/jit(main)/jit(_normal)/jit(_normal_real)/erf_inv" source_file="/global/homes/j/jackm/software/lorrax_C/src/solvers/lanczos.py" source_line=247}
  %constant.640 = f64[] constant(-1.496002662714924e-08)
  %broadcast.641 = f64[1024]{0} broadcast(%constant.640), dimensions={}
  %select.719 = f64[1024]{0} select(%compare.694, %select.718, %broadcast.641), metadata={op_name="jit(_full_run)/jit(main)/jit(_normal)/jit(_normal_real)/erf_inv" source_file="/global/homes/j/jackm/software/lorrax_C/src/solvers/lanczos.py" source_line=247}
  %constant.650 = f64[] constant(-1.3331716628546209e-16)
  %broadcast.651 = f64[1024]{0} broadcast(%constant.650), dimensions={}
  %constant.648 = f64[] constant(1.5027403968909828e-06)
  %broadcast.649 = f64[1024]{0} broadcast(%constant.648), dimensions={}
  %select.714 = f64[1024]{0} select(%compare.693, %broadcast.651, %broadcast.649), metadata={op_name="jit(_full_run)/jit(main)/jit(_normal)/jit(_normal_real)/erf_inv" source_file="/global/homes/j/jackm/software/lorrax_C/src/solvers/lanczos.py" source_line=247}
  %constant.646 = f64[] constant(7.61570120807834e-09)
  %broadcast.647 = f64[1024]{0} broadcast(%constant.646), dimensions={}
  %select.715 = f64[1024]{0} select(%compare.694, %select.714, %broadcast.647), metadata={op_name="jit(_full_run)/jit(main)/jit(_normal)/jit(_normal_real)/erf_inv" source_file="/global/homes/j/jackm/software/lorrax_C/src/solvers/lanczos.py" source_line=247}
  %constant.656 = f64[] constant(1.1157877678025181e-17)
  %broadcast.657 = f64[1024]{0} broadcast(%constant.656), dimensions={}
  %constant.654 = f64[] constant(1.8239629214389228e-08)
  %broadcast.655 = f64[1024]{0} broadcast(%constant.654), dimensions={}
  %select.710 = f64[1024]{0} select(%compare.693, %broadcast.657, %broadcast.655), metadata={op_name="jit(_full_run)/jit(main)/jit(_normal)/jit(_normal_real)/erf_inv" source_file="/global/homes/j/jackm/software/lorrax_C/src/solvers/lanczos.py" source_line=247}
  %constant.652 = f64[] constant(-3.789465440126737e-09)
  %broadcast.653 = f64[1024]{0} broadcast(%constant.652), dimensions={}
  %select.711 = f64[1024]{0} select(%compare.694, %select.710, %broadcast.653), metadata={op_name="jit(_full_run)/jit(main)/jit(_normal)/jit(_normal_real)/erf_inv" source_file="/global/homes/j/jackm/software/lorrax_C/src/solvers/lanczos.py" source_line=247}
  %constant.662 = f64[] constant(1.28584807152564e-18)
  %broadcast.663 = f64[1024]{0} broadcast(%constant.662), dimensions={}
  %constant.660 = f64[] constant(-2.7517406297064545e-07)
  %broadcast.661 = f64[1024]{0} broadcast(%constant.660), dimensions={}
  %select.706 = f64[1024]{0} select(%compare.693, %broadcast.663, %broadcast.661), metadata={op_name="jit(_full_run)/jit(main)/jit(_normal)/jit(_normal_real)/erf_inv" source_file="/global/homes/j/jackm/software/lorrax_C/src/solvers/lanczos.py" source_line=247}
  %constant.658 = f64[] constant(1.5076572693500548e-09)
  %broadcast.659 = f64[1024]{0} broadcast(%constant.658), dimensions={}
  %select.707 = f64[1024]{0} select(%compare.694, %select.706, %broadcast.659), metadata={op_name="jit(_full_run)/jit(main)/jit(_normal)/jit(_normal_real)/erf_inv" source_file="/global/homes/j/jackm/software/lorrax_C/src/solvers/lanczos.py" source_line=247}
  %constant.668 = f64[] constant(-1.6850591381820166e-19)
  %broadcast.669 = f64[1024]{0} broadcast(%constant.668), dimensions={}
  %constant.666 = f64[] constant(9.0756561938885391e-08)
  %broadcast.667 = f64[1024]{0} broadcast(%constant.666), dimensions={}
  %select.702 = f64[1024]{0} select(%compare.693, %broadcast.669, %broadcast.667), metadata={op_name="jit(_full_run)/jit(main)/jit(_normal)/jit(_normal_real)/erf_inv" source_file="/global/homes/j/jackm/software/lorrax_C/src/solvers/lanczos.py" source_line=247}
  %constant.664 = f64[] constant(-2.5556418169965252e-10)
  %broadcast.665 = f64[1024]{0} broadcast(%constant.664), dimensions={}
  %select.703 = f64[1024]{0} select(%compare.694, %select.702, %broadcast.665), metadata={op_name="jit(_full_run)/jit(main)/jit(_normal)/jit(_normal_real)/erf_inv" source_file="/global/homes/j/jackm/software/lorrax_C/src/solvers/lanczos.py" source_line=247}
  %constant.674 = f64[] constant(-3.64441206401782e-21)
  %broadcast.675 = f64[1024]{0} broadcast(%constant.674), dimensions={}
  %constant.672 = f64[] constant(2.2137376921775787e-09)
  %broadcast.673 = f64[1024]{0} broadcast(%constant.672), dimensions={}
  %select.700 = f64[1024]{0} select(%compare.693, %broadcast.675, %broadcast.673), metadata={op_name="jit(_full_run)/jit(main)/jit(_normal)/jit(_normal_real)/erf_inv" source_file="/global/homes/j/jackm/software/lorrax_C/src/solvers/lanczos.py" source_line=247}
  %constant.670 = f64[] constant(-2.7109920616438573e-11)
  %broadcast.671 = f64[1024]{0} broadcast(%constant.670), dimensions={}
  %select.701 = f64[1024]{0} select(%compare.694, %select.700, %broadcast.671), metadata={op_name="jit(_full_run)/jit(main)/jit(_normal)/jit(_normal_real)/erf_inv" source_file="/global/homes/j/jackm/software/lorrax_C/src/solvers/lanczos.py" source_line=247}
  %constant.680 = f64[] constant(3.125)
  %broadcast.681 = f64[1024]{0} broadcast(%constant.680), dimensions={}
  %subtract.696 = f64[1024]{0} subtract(%negate.692, %broadcast.681), metadata={op_name="jit(_full_run)/jit(main)/jit(_normal)/jit(_normal_real)/erf_inv" source_file="/global/homes/j/jackm/software/lorrax_C/src/solvers/lanczos.py" source_line=247}
  %sqrt.695 = f64[1024]{0} sqrt(%negate.692), metadata={op_name="jit(_full_run)/jit(main)/jit(_normal)/jit(_normal_real)/erf_inv" source_file="/global/homes/j/jackm/software/lorrax_C/src/solvers/lanczos.py" source_line=247}
  %constant.678 = f64[] constant(3.25)
  %broadcast.679 = f64[1024]{0} broadcast(%constant.678), dimensions={}
  %constant.676 = f64[] constant(5)
  %broadcast.677 = f64[1024]{0} broadcast(%constant.676), dimensions={}
  %select.697 = f64[1024]{0} select(%compare.694, %broadcast.679, %broadcast.677), metadata={op_name="jit(_full_run)/jit(main)/jit(_normal)/jit(_normal_real)/erf_inv" source_file="/global/homes/j/jackm/software/lorrax_C/src/solvers/lanczos.py" source_line=247}
  %subtract.698 = f64[1024]{0} subtract(%sqrt.695, %select.697), metadata={op_name="jit(_full_run)/jit(main)/jit(_normal)/jit(_normal_real)/erf_inv" source_file="/global/homes/j/jackm/software/lorrax_C/src/solvers/lanczos.py" source_line=247}
  %select.699 = f64[1024]{0} select(%compare.693, %subtract.696, %subtract.698), metadata={op_name="jit(_full_run)/jit(main)/jit(_normal)/jit(_normal_real)/erf_inv" source_file="/global/homes/j/jackm/software/lorrax_C/src/solvers/lanczos.py" source_line=247}
  %multiply.704 = f64[1024]{0} multiply(%select.701, %select.699), metadata={op_name="jit(_full_run)/jit(main)/jit(_normal)/jit(_normal_real)/erf_inv" source_file="/global/homes/j/jackm/software/lorrax_C/src/solvers/lanczos.py" source_line=247}
  %add.705 = f64[1024]{0} add(%select.703, %multiply.704), metadata={op_name="jit(_full_run)/jit(main)/jit(_normal)/jit(_normal_real)/erf_inv" source_file="/global/homes/j/jackm/software/lorrax_C/src/solvers/lanczos.py" source_line=247}
  %multiply.708 = f64[1024]{0} multiply(%add.705, %select.699), metadata={op_name="jit(_full_run)/jit(main)/jit(_normal)/jit(_normal_real)/erf_inv" source_file="/global/homes/j/jackm/software/lorrax_C/src/solvers/lanczos.py" source_line=247}
  %add.709 = f64[1024]{0} add(%select.707, %multiply.708), metadata={op_name="jit(_full_run)/jit(main)/jit(_normal)/jit(_normal_real)/erf_inv" source_file="/global/homes/j/jackm/software/lorrax_C/src/solvers/lanczos.py" source_line=247}
  %multiply.712 = f64[1024]{0} multiply(%add.709, %select.699), metadata={op_name="jit(_full_run)/jit(main)/jit(_normal)/jit(_normal_real)/erf_inv" source_file="/global/homes/j/jackm/software/lorrax_C/src/solvers/lanczos.py" source_line=247}
  %add.713 = f64[1024]{0} add(%select.711, %multiply.712), metadata={op_name="jit(_full_run)/jit(main)/jit(_normal)/jit(_normal_real)/erf_inv" source_file="/global/homes/j/jackm/software/lorrax_C/src/solvers/lanczos.py" source_line=247}
  %multiply.716 = f64[1024]{0} multiply(%add.713, %select.699), metadata={op_name="jit(_full_run)/jit(main)/jit(_normal)/jit(_normal_real)/erf_inv" source_file="/global/homes/j/jackm/software/lorrax_C/src/solvers/lanczos.py" source_line=247}
  %add.717 = f64[1024]{0} add(%select.715, %multiply.716), metadata={op_name="jit(_full_run)/jit(main)/jit(_normal)/jit(_normal_real)/erf_inv" source_file="/global/homes/j/jackm/software/lorrax_C/src/solvers/lanczos.py" source_line=247}
  %multiply.720 = f64[1024]{0} multiply(%add.717, %select.699), metadata={op_name="jit(_full_run)/jit(main)/jit(_normal)/jit(_normal_real)/erf_inv" source_file="/global/homes/j/jackm/software/lorrax_C/src/solvers/lanczos.py" source_line=247}
  %add.721 = f64[1024]{0} add(%select.719, %multiply.720), metadata={op_name="jit(_full_run)/jit(main)/jit(_normal)/jit(_normal_real)/erf_inv" source_file="/global/homes/j/jackm/software/lorrax_C/src/solvers/lanczos.py" source_line=247}
  %multiply.724 = f64[1024]{0} multiply(%add.721, %select.699), metadata={op_name="jit(_full_run)/jit(main)/jit(_normal)/jit(_normal_real)/erf_inv" source_file="/global/homes/j/jackm/software/lorrax_C/src/solvers/lanczos.py" source_line=247}
  %add.725 = f64[1024]{0} add(%select.723, %multiply.724), metadata={op_name="jit(_full_run)/jit(main)/jit(_normal)/jit(_normal_real)/erf_inv" source_file="/global/homes/j/jackm/software/lorrax_C/src/solvers/lanczos.py" source_line=247}
  %multiply.728 = f64[1024]{0} multiply(%add.725, %select.699), metadata={op_name="jit(_full_run)/jit(main)/jit(_normal)/jit(_normal_real)/erf_inv" source_file="/global/homes/j/jackm/software/lorrax_C/src/solvers/lanczos.py" source_line=247}
  %add.729 = f64[1024]{0} add(%select.727, %multiply.728), metadata={op_name="jit(_full_run)/jit(main)/jit(_normal)/jit(_normal_real)/erf_inv" source_file="/global/homes/j/jackm/software/lorrax_C/src/solvers/lanczos.py" source_line=247}
  %multiply.732 = f64[1024]{0} multiply(%add.729, %select.699), metadata={op_name="jit(_full_run)/jit(main)/jit(_normal)/jit(_normal_real)/erf_inv" source_file="/global/homes/j/jackm/software/lorrax_C/src/solvers/lanczos.py" source_line=247}
  %add.733 = f64[1024]{0} add(%select.731, %multiply.732), metadata={op_name="jit(_full_run)/jit(main)/jit(_normal)/jit(_normal_real)/erf_inv" source_file="/global/homes/j/jackm/software/lorrax_C/src/solvers/lanczos.py" source_line=247}
  %multiply.736 = f64[1024]{0} multiply(%add.733, %select.699), metadata={op_name="jit(_full_run)/jit(main)/jit(_normal)/jit(_normal_real)/erf_inv" source_file="/global/homes/j/jackm/software/lorrax_C/src/solvers/lanczos.py" source_line=247}
  %add.737 = f64[1024]{0} add(%select.735, %multiply.736), metadata={op_name="jit(_full_run)/jit(main)/jit(_normal)/jit(_normal_real)/erf_inv" source_file="/global/homes/j/jackm/software/lorrax_C/src/solvers/lanczos.py" source_line=247}
  %multiply.740 = f64[1024]{0} multiply(%add.737, %select.699), metadata={op_name="jit(_full_run)/jit(main)/jit(_normal)/jit(_normal_real)/erf_inv" source_file="/global/homes/j/jackm/software/lorrax_C/src/solvers/lanczos.py" source_line=247}
  %add.741 = f64[1024]{0} add(%select.739, %multiply.740), metadata={op_name="jit(_full_run)/jit(main)/jit(_normal)/jit(_normal_real)/erf_inv" source_file="/global/homes/j/jackm/software/lorrax_C/src/solvers/lanczos.py" source_line=247}
  %multiply.744 = f64[1024]{0} multiply(%add.741, %select.699), metadata={op_name="jit(_full_run)/jit(main)/jit(_normal)/jit(_normal_real)/erf_inv" source_file="/global/homes/j/jackm/software/lorrax_C/src/solvers/lanczos.py" source_line=247}
  %add.745 = f64[1024]{0} add(%select.743, %multiply.744), metadata={op_name="jit(_full_run)/jit(main)/jit(_normal)/jit(_normal_real)/erf_inv" source_file="/global/homes/j/jackm/software/lorrax_C/src/solvers/lanczos.py" source_line=247}
  %multiply.748 = f64[1024]{0} multiply(%add.745, %select.699), metadata={op_name="jit(_full_run)/jit(main)/jit(_normal)/jit(_normal_real)/erf_inv" source_file="/global/homes/j/jackm/software/lorrax_C/src/solvers/lanczos.py" source_line=247}
  %add.749 = f64[1024]{0} add(%select.747, %multiply.748), metadata={op_name="jit(_full_run)/jit(main)/jit(_normal)/jit(_normal_real)/erf_inv" source_file="/global/homes/j/jackm/software/lorrax_C/src/solvers/lanczos.py" source_line=247}
  %multiply.752 = f64[1024]{0} multiply(%add.749, %select.699), metadata={op_name="jit(_full_run)/jit(main)/jit(_normal)/jit(_normal_real)/erf_inv" source_file="/global/homes/j/jackm/software/lorrax_C/src/solvers/lanczos.py" source_line=247}
  %add.753 = f64[1024]{0} add(%select.751, %multiply.752), metadata={op_name="jit(_full_run)/jit(main)/jit(_normal)/jit(_normal_real)/erf_inv" source_file="/global/homes/j/jackm/software/lorrax_C/src/solvers/lanczos.py" source_line=247}
  %multiply.756 = f64[1024]{0} multiply(%add.753, %select.699), metadata={op_name="jit(_full_run)/jit(main)/jit(_normal)/jit(_normal_real)/erf_inv" source_file="/global/homes/j/jackm/software/lorrax_C/src/solvers/lanczos.py" source_line=247}
  %add.757 = f64[1024]{0} add(%select.755, %multiply.756), metadata={op_name="jit(_full_run)/jit(main)/jit(_normal)/jit(_normal_real)/erf_inv" source_file="/global/homes/j/jackm/software/lorrax_C/src/solvers/lanczos.py" source_line=247}
  %multiply.760 = f64[1024]{0} multiply(%add.757, %select.699), metadata={op_name="jit(_full_run)/jit(main)/jit(_normal)/jit(_normal_real)/erf_inv" source_file="/global/homes/j/jackm/software/lorrax_C/src/solvers/lanczos.py" source_line=247}
  %add.761 = f64[1024]{0} add(%select.759, %multiply.760), metadata={op_name="jit(_full_run)/jit(main)/jit(_normal)/jit(_normal_real)/erf_inv" source_file="/global/homes/j/jackm/software/lorrax_C/src/solvers/lanczos.py" source_line=247}
  %multiply.764 = f64[1024]{0} multiply(%add.761, %select.699), metadata={op_name="jit(_full_run)/jit(main)/jit(_normal)/jit(_normal_real)/erf_inv" source_file="/global/homes/j/jackm/software/lorrax_C/src/solvers/lanczos.py" source_line=247}
  %add.765 = f64[1024]{0} add(%select.763, %multiply.764), metadata={op_name="jit(_full_run)/jit(main)/jit(_normal)/jit(_normal_real)/erf_inv" source_file="/global/homes/j/jackm/software/lorrax_C/src/solvers/lanczos.py" source_line=247}
  %multiply.767 = f64[1024]{0} multiply(%add.765, %select.699), metadata={op_name="jit(_full_run)/jit(main)/jit(_normal)/jit(_normal_real)/erf_inv" source_file="/global/homes/j/jackm/software/lorrax_C/src/solvers/lanczos.py" source_line=247}
  %add.768 = f64[1024]{0} add(%select.766, %multiply.767), metadata={op_name="jit(_full_run)/jit(main)/jit(_normal)/jit(_normal_real)/erf_inv" source_file="/global/homes/j/jackm/software/lorrax_C/src/solvers/lanczos.py" source_line=247}
  %select.769 = f64[1024]{0} select(%compare.694, %add.768, %add.765), metadata={op_name="jit(_full_run)/jit(main)/jit(_normal)/jit(_normal_real)/erf_inv" source_file="/global/homes/j/jackm/software/lorrax_C/src/solvers/lanczos.py" source_line=247}
  %multiply.771 = f64[1024]{0} multiply(%select.769, %select.699), metadata={op_name="jit(_full_run)/jit(main)/jit(_normal)/jit(_normal_real)/erf_inv" source_file="/global/homes/j/jackm/software/lorrax_C/src/solvers/lanczos.py" source_line=247}
  %add.772 = f64[1024]{0} add(%select.770, %multiply.771), metadata={op_name="jit(_full_run)/jit(main)/jit(_normal)/jit(_normal_real)/erf_inv" source_file="/global/homes/j/jackm/software/lorrax_C/src/solvers/lanczos.py" source_line=247}
  %select.773 = f64[1024]{0} select(%compare.694, %add.772, %select.769), metadata={op_name="jit(_full_run)/jit(main)/jit(_normal)/jit(_normal_real)/erf_inv" source_file="/global/homes/j/jackm/software/lorrax_C/src/solvers/lanczos.py" source_line=247}
  %multiply.774 = f64[1024]{0} multiply(%select.773, %select.699), metadata={op_name="jit(_full_run)/jit(main)/jit(_normal)/jit(_normal_real)/erf_inv" source_file="/global/homes/j/jackm/software/lorrax_C/src/solvers/lanczos.py" source_line=247}
  %constant.564 = f64[] constant(-0.000740702534166267)
  %broadcast.565 = f64[1024]{0} broadcast(%constant.564), dimensions={}
  %add.775 = f64[1024]{0} add(%multiply.774, %broadcast.565), metadata={op_name="jit(_full_run)/jit(main)/jit(_normal)/jit(_normal_real)/erf_inv" source_file="/global/homes/j/jackm/software/lorrax_C/src/solvers/lanczos.py" source_line=247}
  %select.776 = f64[1024]{0} select(%compare.693, %add.775, %select.773), metadata={op_name="jit(_full_run)/jit(main)/jit(_normal)/jit(_normal_real)/erf_inv" source_file="/global/homes/j/jackm/software/lorrax_C/src/solvers/lanczos.py" source_line=247}
  %multiply.777 = f64[1024]{0} multiply(%select.776, %select.699), metadata={op_name="jit(_full_run)/jit(main)/jit(_normal)/jit(_normal_real)/erf_inv" source_file="/global/homes/j/jackm/software/lorrax_C/src/solvers/lanczos.py" source_line=247}
  %constant.562 = f64[] constant(-0.0060336708714301491)
  %broadcast.563 = f64[1024]{0} broadcast(%constant.562), dimensions={}
  %add.778 = f64[1024]{0} add(%multiply.777, %broadcast.563), metadata={op_name="jit(_full_run)/jit(main)/jit(_normal)/jit(_normal_real)/erf_inv" source_file="/global/homes/j/jackm/software/lorrax_C/src/solvers/lanczos.py" source_line=247}
  %select.779 = f64[1024]{0} select(%compare.693, %add.778, %select.776), metadata={op_name="jit(_full_run)/jit(main)/jit(_normal)/jit(_normal_real)/erf_inv" source_file="/global/homes/j/jackm/software/lorrax_C/src/solvers/lanczos.py" source_line=247}
  %multiply.780 = f64[1024]{0} multiply(%select.779, %select.699), metadata={op_name="jit(_full_run)/jit(main)/jit(_normal)/jit(_normal_real)/erf_inv" source_file="/global/homes/j/jackm/software/lorrax_C/src/solvers/lanczos.py" source_line=247}
  %constant.560 = f64[] constant(0.24015818242558962)
  %broadcast.561 = f64[1024]{0} broadcast(%constant.560), dimensions={}
  %add.781 = f64[1024]{0} add(%multiply.780, %broadcast.561), metadata={op_name="jit(_full_run)/jit(main)/jit(_normal)/jit(_normal_real)/erf_inv" source_file="/global/homes/j/jackm/software/lorrax_C/src/solvers/lanczos.py" source_line=247}
  %select.782 = f64[1024]{0} select(%compare.693, %add.781, %select.779), metadata={op_name="jit(_full_run)/jit(main)/jit(_normal)/jit(_normal_real)/erf_inv" source_file="/global/homes/j/jackm/software/lorrax_C/src/solvers/lanczos.py" source_line=247}
  %multiply.783 = f64[1024]{0} multiply(%select.782, %select.699), metadata={op_name="jit(_full_run)/jit(main)/jit(_normal)/jit(_normal_real)/erf_inv" source_file="/global/homes/j/jackm/software/lorrax_C/src/solvers/lanczos.py" source_line=247}
  %constant.558 = f64[] constant(1.6536545626831027)
  %broadcast.559 = f64[1024]{0} broadcast(%constant.558), dimensions={}
  %add.784 = f64[1024]{0} add(%multiply.783, %broadcast.559), metadata={op_name="jit(_full_run)/jit(main)/jit(_normal)/jit(_normal_real)/erf_inv" source_file="/global/homes/j/jackm/software/lorrax_C/src/solvers/lanczos.py" source_line=247}
  %select.785 = f64[1024]{0} select(%compare.693, %add.784, %select.782), metadata={op_name="jit(_full_run)/jit(main)/jit(_normal)/jit(_normal_real)/erf_inv" source_file="/global/homes/j/jackm/software/lorrax_C/src/solvers/lanczos.py" source_line=247}
  %multiply.786 = f64[1024]{0} multiply(%select.785, %call.688), metadata={op_name="jit(_full_run)/jit(main)/jit(_normal)/jit(_normal_real)/erf_inv" source_file="/global/homes/j/jackm/software/lorrax_C/src/solvers/lanczos.py" source_line=247}
  %select.790 = f64[1024]{0} select(%compare.788, %multiply.789, %multiply.786), metadata={op_name="jit(_full_run)/jit(main)/jit(_normal)/jit(_normal_real)/erf_inv" source_file="/global/homes/j/jackm/software/lorrax_C/src/solvers/lanczos.py" source_line=247}
  %constant.552 = f64[] constant(1.4142135623730951)
  %broadcast.553 = f64[1024]{0} broadcast(%constant.552), dimensions={}
  ROOT %multiply.791 = f64[1024]{0} multiply(%select.790, %broadcast.553), metadata={op_name="jit(_full_run)/jit(main)/jit(_normal)/jit(_normal_real)/mul" source_file="/global/homes/j/jackm/software/lorrax_C/src/solvers/lanczos.py" source_line=247}
}

%_normal.792 (Arg_0.793: u32[2]) -> f64[1024] {
  %Arg_0.793 = u32[2]{0} parameter(0), metadata={op_name="jit(_full_run)/jit(main)/pjit"}
  ROOT %call.794 = f64[1024]{0} call(%Arg_0.793), to_apply=%_normal_real.550
}

%threefry2x32_0.796 (Arg_0.797: u32[], Arg_1.798: u32[], Arg_2.799: u32[1024], Arg_3.800: u32[1024]) -> (u32[1024], u32[1024]) {
  %Arg_2.799 = u32[1024]{0} parameter(2), metadata={op_name="jit(_full_run)/jit(main)/jit(_normal)/jit(_normal_real)/jit(_uniform)/threefry2x32"}
  %Arg_0.797 = u32[] parameter(0), metadata={op_name="jit(_full_run)/jit(main)/jit(_normal)/jit(_normal_real)/jit(_uniform)/threefry2x32"}
  %broadcast.834 = u32[1024]{0} broadcast(%Arg_0.797), dimensions={}, metadata={op_name="jit(_full_run)/jit(main)/jit(_normal)/jit(_normal_real)/jit(_uniform)/add" source_file="/global/homes/j/jackm/software/lorrax_C/src/solvers/lanczos.py" source_line=247}
  %add.835 = u32[1024]{0} add(%Arg_2.799, %broadcast.834), metadata={op_name="jit(_full_run)/jit(main)/jit(_normal)/jit(_normal_real)/jit(_uniform)/add" source_file="/global/homes/j/jackm/software/lorrax_C/src/solvers/lanczos.py" source_line=247}
  %Arg_3.800 = u32[1024]{0} parameter(3), metadata={op_name="jit(_full_run)/jit(main)/jit(_normal)/jit(_normal_real)/jit(_uniform)/threefry2x32"}
  %Arg_1.798 = u32[] parameter(1), metadata={op_name="jit(_full_run)/jit(main)/jit(_normal)/jit(_normal_real)/jit(_uniform)/threefry2x32"}
  %broadcast.836 = u32[1024]{0} broadcast(%Arg_1.798), dimensions={}, metadata={op_name="jit(_full_run)/jit(main)/jit(_normal)/jit(_normal_real)/jit(_uniform)/add" source_file="/global/homes/j/jackm/software/lorrax_C/src/solvers/lanczos.py" source_line=247}
  %add.837 = u32[1024]{0} add(%Arg_3.800, %broadcast.836), metadata={op_name="jit(_full_run)/jit(main)/jit(_normal)/jit(_normal_real)/jit(_uniform)/add" source_file="/global/homes/j/jackm/software/lorrax_C/src/solvers/lanczos.py" source_line=247}
  %add.838 = u32[1024]{0} add(%add.835, %add.837), metadata={op_name="jit(_full_run)/jit(main)/jit(_normal)/jit(_normal_real)/jit(_uniform)/add" source_file="/global/homes/j/jackm/software/lorrax_C/src/solvers/lanczos.py" source_line=247}
  %constant.829 = u32[] constant(13)
  %broadcast.830 = u32[1024]{0} broadcast(%constant.829), dimensions={}
  %shift-left.839 = u32[1024]{0} shift-left(%add.837, %broadcast.830), metadata={op_name="jit(_full_run)/jit(main)/jit(_normal)/jit(_normal_real)/jit(_uniform)/shift_left" source_file="/global/homes/j/jackm/software/lorrax_C/src/solvers/lanczos.py" source_line=247}
  %constant.827 = u32[] constant(19)
  %broadcast.828 = u32[1024]{0} broadcast(%constant.827), dimensions={}
  %shift-right-logical.840 = u32[1024]{0} shift-right-logical(%add.837, %broadcast.828), metadata={op_name="jit(_full_run)/jit(main)/jit(_normal)/jit(_normal_real)/jit(_uniform)/shift_right_logical" source_file="/global/homes/j/jackm/software/lorrax_C/src/solvers/lanczos.py" source_line=247}
  %or.841 = u32[1024]{0} or(%shift-left.839, %shift-right-logical.840), metadata={op_name="jit(_full_run)/jit(main)/jit(_normal)/jit(_normal_real)/jit(_uniform)/or" source_file="/global/homes/j/jackm/software/lorrax_C/src/solvers/lanczos.py" source_line=247}
  %xor.842 = u32[1024]{0} xor(%add.838, %or.841), metadata={op_name="jit(_full_run)/jit(main)/jit(_normal)/jit(_normal_real)/jit(_uniform)/xor" source_file="/global/homes/j/jackm/software/lorrax_C/src/solvers/lanczos.py" source_line=247}
  %add.843 = u32[1024]{0} add(%add.838, %xor.842), metadata={op_name="jit(_full_run)/jit(main)/jit(_normal)/jit(_normal_real)/jit(_uniform)/add" source_file="/global/homes/j/jackm/software/lorrax_C/src/solvers/lanczos.py" source_line=247}
  %constant.825 = u32[] constant(15)
  %broadcast.826 = u32[1024]{0} broadcast(%constant.825), dimensions={}
  %shift-left.844 = u32[1024]{0} shift-left(%xor.842, %broadcast.826), metadata={op_name="jit(_full_run)/jit(main)/jit(_normal)/jit(_normal_real)/jit(_uniform)/shift_left" source_file="/global/homes/j/jackm/software/lorrax_C/src/solvers/lanczos.py" source_line=247}
  %constant.823 = u32[] constant(17)
  %broadcast.824 = u32[1024]{0} broadcast(%constant.823), dimensions={}
  %shift-right-logical.845 = u32[1024]{0} shift-right-logical(%xor.842, %broadcast.824), metadata={op_name="jit(_full_run)/jit(main)/jit(_normal)/jit(_normal_real)/jit(_uniform)/shift_right_logical" source_file="/global/homes/j/jackm/software/lorrax_C/src/solvers/lanczos.py" source_line=247}
  %or.846 = u32[1024]{0} or(%shift-left.844, %shift-right-logical.845), metadata={op_name="jit(_full_run)/jit(main)/jit(_normal)/jit(_normal_real)/jit(_uniform)/or" source_file="/global/homes/j/jackm/software/lorrax_C/src/solvers/lanczos.py" source_line=247}
  %xor.847 = u32[1024]{0} xor(%add.843, %or.846), metadata={op_name="jit(_full_run)/jit(main)/jit(_normal)/jit(_normal_real)/jit(_uniform)/xor" source_file="/global/homes/j/jackm/software/lorrax_C/src/solvers/lanczos.py" source_line=247}
  %add.848 = u32[1024]{0} add(%add.843, %xor.847), metadata={op_name="jit(_full_run)/jit(main)/jit(_normal)/jit(_normal_real)/jit(_uniform)/add" source_file="/global/homes/j/jackm/software/lorrax_C/src/solvers/lanczos.py" source_line=247}
  %constant.821 = u32[] constant(26)
  %broadcast.822 = u32[1024]{0} broadcast(%constant.821), dimensions={}
  %shift-left.849 = u32[1024]{0} shift-left(%xor.847, %broadcast.822), metadata={op_name="jit(_full_run)/jit(main)/jit(_normal)/jit(_normal_real)/jit(_uniform)/shift_left" source_file="/global/homes/j/jackm/software/lorrax_C/src/solvers/lanczos.py" source_line=247}
  %constant.819 = u32[] constant(6)
  %broadcast.820 = u32[1024]{0} broadcast(%constant.819), dimensions={}
  %shift-right-logical.850 = u32[1024]{0} shift-right-logical(%xor.847, %broadcast.820), metadata={op_name="jit(_full_run)/jit(main)/jit(_normal)/jit(_normal_real)/jit(_uniform)/shift_right_logical" source_file="/global/homes/j/jackm/software/lorrax_C/src/solvers/lanczos.py" source_line=247}
  %or.851 = u32[1024]{0} or(%shift-left.849, %shift-right-logical.850), metadata={op_name="jit(_full_run)/jit(main)/jit(_normal)/jit(_normal_real)/jit(_uniform)/or" source_file="/global/homes/j/jackm/software/lorrax_C/src/solvers/lanczos.py" source_line=247}
  %xor.852 = u32[1024]{0} xor(%add.848, %or.851), metadata={op_name="jit(_full_run)/jit(main)/jit(_normal)/jit(_normal_real)/jit(_uniform)/xor" source_file="/global/homes/j/jackm/software/lorrax_C/src/solvers/lanczos.py" source_line=247}
  %add.853 = u32[1024]{0} add(%add.848, %xor.852), metadata={op_name="jit(_full_run)/jit(main)/jit(_normal)/jit(_normal_real)/jit(_uniform)/add" source_file="/global/homes/j/jackm/software/lorrax_C/src/solvers/lanczos.py" source_line=247}
  %broadcast.858 = u32[1024]{0} broadcast(%Arg_1.798), dimensions={}, metadata={op_name="jit(_full_run)/jit(main)/jit(_normal)/jit(_normal_real)/jit(_uniform)/add" source_file="/global/homes/j/jackm/software/lorrax_C/src/solvers/lanczos.py" source_line=247}
  %add.859 = u32[1024]{0} add(%add.853, %broadcast.858), metadata={op_name="jit(_full_run)/jit(main)/jit(_normal)/jit(_normal_real)/jit(_uniform)/add" source_file="/global/homes/j/jackm/software/lorrax_C/src/solvers/lanczos.py" source_line=247}
  %shift-left.854 = u32[1024]{0} shift-left(%xor.852, %broadcast.820), metadata={op_name="jit(_full_run)/jit(main)/jit(_normal)/jit(_normal_real)/jit(_uniform)/shift_left" source_file="/global/homes/j/jackm/software/lorrax_C/src/solvers/lanczos.py" source_line=247}
  %shift-right-logical.855 = u32[1024]{0} shift-right-logical(%xor.852, %broadcast.822), metadata={op_name="jit(_full_run)/jit(main)/jit(_normal)/jit(_normal_real)/jit(_uniform)/shift_right_logical" source_file="/global/homes/j/jackm/software/lorrax_C/src/solvers/lanczos.py" source_line=247}
  %or.856 = u32[1024]{0} or(%shift-left.854, %shift-right-logical.855), metadata={op_name="jit(_full_run)/jit(main)/jit(_normal)/jit(_normal_real)/jit(_uniform)/or" source_file="/global/homes/j/jackm/software/lorrax_C/src/solvers/lanczos.py" source_line=247}
  %xor.857 = u32[1024]{0} xor(%add.853, %or.856), metadata={op_name="jit(_full_run)/jit(main)/jit(_normal)/jit(_normal_real)/jit(_uniform)/xor" source_file="/global/homes/j/jackm/software/lorrax_C/src/solvers/lanczos.py" source_line=247}
  %xor.832 = u32[] xor(%Arg_0.797, %Arg_1.798), metadata={op_name="jit(_full_run)/jit(main)/jit(_normal)/jit(_normal_real)/jit(_uniform)/xor" source_file="/global/homes/j/jackm/software/lorrax_C/src/solvers/lanczos.py" source_line=247}
  %constant.831 = u32[] constant(466688986)
  %xor.833 = u32[] xor(%xor.832, %constant.831), metadata={op_name="jit(_full_run)/jit(main)/jit(_normal)/jit(_normal_real)/jit(_uniform)/xor" source_file="/global/homes/j/jackm/software/lorrax_C/src/solvers/lanczos.py" source_line=247}
  %broadcast.860 = u32[1024]{0} broadcast(%xor.833), dimensions={}, metadata={op_name="jit(_full_run)/jit(main)/jit(_normal)/jit(_normal_real)/jit(_uniform)/add" source_file="/global/homes/j/jackm/software/lorrax_C/src/solvers/lanczos.py" source_line=247}
  %add.861 = u32[1024]{0} add(%xor.857, %broadcast.860), metadata={op_name="jit(_full_run)/jit(main)/jit(_normal)/jit(_normal_real)/jit(_uniform)/add" source_file="/global/homes/j/jackm/software/lorrax_C/src/solvers/lanczos.py" source_line=247}
  %constant.817 = u32[] constant(1)
  %broadcast.818 = u32[1024]{0} broadcast(%constant.817), dimensions={}
  %add.862 = u32[1024]{0} add(%add.861, %broadcast.818), metadata={op_name="jit(_full_run)/jit(main)/jit(_normal)/jit(_normal_real)/jit(_uniform)/add" source_file="/global/homes/j/jackm/software/lorrax_C/src/solvers/lanczos.py" source_line=247}
  %add.863 = u32[1024]{0} add(%add.859, %add.862), metadata={op_name="jit(_full_run)/jit(main)/jit(_normal)/jit(_normal_real)/jit(_uniform)/add" source_file="/global/homes/j/jackm/software/lorrax_C/src/solvers/lanczos.py" source_line=247}
  %shift-left.864 = u32[1024]{0} shift-left(%add.862, %broadcast.824), metadata={op_name="jit(_full_run)/jit(main)/jit(_normal)/jit(_normal_real)/jit(_uniform)/shift_left" source_file="/global/homes/j/jackm/software/lorrax_C/src/solvers/lanczos.py" source_line=247}
  %shift-right-logical.865 = u32[1024]{0} shift-right-logical(%add.862, %broadcast.826), metadata={op_name="jit(_full_run)/jit(main)/jit(_normal)/jit(_normal_real)/jit(_uniform)/shift_right_logical" source_file="/global/homes/j/jackm/software/lorrax_C/src/solvers/lanczos.py" source_line=247}
  %or.866 = u32[1024]{0} or(%shift-left.864, %shift-right-logical.865), metadata={op_name="jit(_full_run)/jit(main)/jit(_normal)/jit(_normal_real)/jit(_uniform)/or" source_file="/global/homes/j/jackm/software/lorrax_C/src/solvers/lanczos.py" source_line=247}
  %xor.867 = u32[1024]{0} xor(%add.863, %or.866), metadata={op_name="jit(_full_run)/jit(main)/jit(_normal)/jit(_normal_real)/jit(_uniform)/xor" source_file="/global/homes/j/jackm/software/lorrax_C/src/solvers/lanczos.py" source_line=247}
  %add.868 = u32[1024]{0} add(%add.863, %xor.867), metadata={op_name="jit(_full_run)/jit(main)/jit(_normal)/jit(_normal_real)/jit(_uniform)/add" source_file="/global/homes/j/jackm/software/lorrax_C/src/solvers/lanczos.py" source_line=247}
  %constant.815 = u32[] constant(29)
  %broadcast.816 = u32[1024]{0} broadcast(%constant.815), dimensions={}
  %shift-left.869 = u32[1024]{0} shift-left(%xor.867, %broadcast.816), metadata={op_name="jit(_full_run)/jit(main)/jit(_normal)/jit(_normal_real)/jit(_uniform)/shift_left" source_file="/global/homes/j/jackm/software/lorrax_C/src/solvers/lanczos.py" source_line=247}
  %constant.813 = u32[] constant(3)
  %broadcast.814 = u32[1024]{0} broadcast(%constant.813), dimensions={}
  %shift-right-logical.870 = u32[1024]{0} shift-right-logical(%xor.867, %broadcast.814), metadata={op_name="jit(_full_run)/jit(main)/jit(_normal)/jit(_normal_real)/jit(_uniform)/shift_right_logical" source_file="/global/homes/j/jackm/software/lorrax_C/src/solvers/lanczos.py" source_line=247}
  %or.871 = u32[1024]{0} or(%shift-left.869, %shift-right-logical.870), metadata={op_name="jit(_full_run)/jit(main)/jit(_normal)/jit(_normal_real)/jit(_uniform)/or" source_file="/global/homes/j/jackm/software/lorrax_C/src/solvers/lanczos.py" source_line=247}
  %xor.872 = u32[1024]{0} xor(%add.868, %or.871), metadata={op_name="jit(_full_run)/jit(main)/jit(_normal)/jit(_normal_real)/jit(_uniform)/xor" source_file="/global/homes/j/jackm/software/lorrax_C/src/solvers/lanczos.py" source_line=247}
  %add.873 = u32[1024]{0} add(%add.868, %xor.872), metadata={op_name="jit(_full_run)/jit(main)/jit(_normal)/jit(_normal_real)/jit(_uniform)/add" source_file="/global/homes/j/jackm/software/lorrax_C/src/solvers/lanczos.py" source_line=247}
  %constant.811 = u32[] constant(16)
  %broadcast.812 = u32[1024]{0} broadcast(%constant.811), dimensions={}
  %shift-left.874 = u32[1024]{0} shift-left(%xor.872, %broadcast.812), metadata={op_name="jit(_full_run)/jit(main)/jit(_normal)/jit(_normal_real)/jit(_uniform)/shift_left" source_file="/global/homes/j/jackm/software/lorrax_C/src/solvers/lanczos.py" source_line=247}
  %shift-right-logical.875 = u32[1024]{0} shift-right-logical(%xor.872, %broadcast.812), metadata={op_name="jit(_full_run)/jit(main)/jit(_normal)/jit(_normal_real)/jit(_uniform)/shift_right_logical" source_file="/global/homes/j/jackm/software/lorrax_C/src/solvers/lanczos.py" source_line=247}
  %or.876 = u32[1024]{0} or(%shift-left.874, %shift-right-logical.875), metadata={op_name="jit(_full_run)/jit(main)/jit(_normal)/jit(_normal_real)/jit(_uniform)/or" source_file="/global/homes/j/jackm/software/lorrax_C/src/solvers/lanczos.py" source_line=247}
  %xor.877 = u32[1024]{0} xor(%add.873, %or.876), metadata={op_name="jit(_full_run)/jit(main)/jit(_normal)/jit(_normal_real)/jit(_uniform)/xor" source_file="/global/homes/j/jackm/software/lorrax_C/src/solvers/lanczos.py" source_line=247}
  %add.878 = u32[1024]{0} add(%add.873, %xor.877), metadata={op_name="jit(_full_run)/jit(main)/jit(_normal)/jit(_normal_real)/jit(_uniform)/add" source_file="/global/homes/j/jackm/software/lorrax_C/src/solvers/lanczos.py" source_line=247}
  %broadcast.883 = u32[1024]{0} broadcast(%xor.833), dimensions={}, metadata={op_name="jit(_full_run)/jit(main)/jit(_normal)/jit(_normal_real)/jit(_uniform)/add" source_file="/global/homes/j/jackm/software/lorrax_C/src/solvers/lanczos.py" source_line=247}
  %add.884 = u32[1024]{0} add(%add.878, %broadcast.883), metadata={op_name="jit(_full_run)/jit(main)/jit(_normal)/jit(_normal_real)/jit(_uniform)/add" source_file="/global/homes/j/jackm/software/lorrax_C/src/solvers/lanczos.py" source_line=247}
  %constant.809 = u32[] constant(24)
  %broadcast.810 = u32[1024]{0} broadcast(%constant.809), dimensions={}
  %shift-left.879 = u32[1024]{0} shift-left(%xor.877, %broadcast.810), metadata={op_name="jit(_full_run)/jit(main)/jit(_normal)/jit(_normal_real)/jit(_uniform)/shift_left" source_file="/global/homes/j/jackm/software/lorrax_C/src/solvers/lanczos.py" source_line=247}
  %constant.807 = u32[] constant(8)
  %broadcast.808 = u32[1024]{0} broadcast(%constant.807), dimensions={}
  %shift-right-logical.880 = u32[1024]{0} shift-right-logical(%xor.877, %broadcast.808), metadata={op_name="jit(_full_run)/jit(main)/jit(_normal)/jit(_normal_real)/jit(_uniform)/shift_right_logical" source_file="/global/homes/j/jackm/software/lorrax_C/src/solvers/lanczos.py" source_line=247}
  %or.881 = u32[1024]{0} or(%shift-left.879, %shift-right-logical.880), metadata={op_name="jit(_full_run)/jit(main)/jit(_normal)/jit(_normal_real)/jit(_uniform)/or" source_file="/global/homes/j/jackm/software/lorrax_C/src/solvers/lanczos.py" source_line=247}
  %xor.882 = u32[1024]{0} xor(%add.878, %or.881), metadata={op_name="jit(_full_run)/jit(main)/jit(_normal)/jit(_normal_real)/jit(_uniform)/xor" source_file="/global/homes/j/jackm/software/lorrax_C/src/solvers/lanczos.py" source_line=247}
  %broadcast.885 = u32[1024]{0} broadcast(%Arg_0.797), dimensions={}, metadata={op_name="jit(_full_run)/jit(main)/jit(_normal)/jit(_normal_real)/jit(_uniform)/add" source_file="/global/homes/j/jackm/software/lorrax_C/src/solvers/lanczos.py" source_line=247}
  %add.886 = u32[1024]{0} add(%xor.882, %broadcast.885), metadata={op_name="jit(_full_run)/jit(main)/jit(_normal)/jit(_normal_real)/jit(_uniform)/add" source_file="/global/homes/j/jackm/software/lorrax_C/src/solvers/lanczos.py" source_line=247}
  %constant.805 = u32[] constant(2)
  %broadcast.806 = u32[1024]{0} broadcast(%constant.805), dimensions={}
  %add.887 = u32[1024]{0} add(%add.886, %broadcast.806), metadata={op_name="jit(_full_run)/jit(main)/jit(_normal)/jit(_normal_real)/jit(_uniform)/add" source_file="/global/homes/j/jackm/software/lorrax_C/src/solvers/lanczos.py" source_line=247}
  %add.888 = u32[1024]{0} add(%add.884, %add.887), metadata={op_name="jit(_full_run)/jit(main)/jit(_normal)/jit(_normal_real)/jit(_uniform)/add" source_file="/global/homes/j/jackm/software/lorrax_C/src/solvers/lanczos.py" source_line=247}
  %shift-left.889 = u32[1024]{0} shift-left(%add.887, %broadcast.830), metadata={op_name="jit(_full_run)/jit(main)/jit(_normal)/jit(_normal_real)/jit(_uniform)/shift_left" source_file="/global/homes/j/jackm/software/lorrax_C/src/solvers/lanczos.py" source_line=247}
  %shift-right-logical.890 = u32[1024]{0} shift-right-logical(%add.887, %broadcast.828), metadata={op_name="jit(_full_run)/jit(main)/jit(_normal)/jit(_normal_real)/jit(_uniform)/shift_right_logical" source_file="/global/homes/j/jackm/software/lorrax_C/src/solvers/lanczos.py" source_line=247}
  %or.891 = u32[1024]{0} or(%shift-left.889, %shift-right-logical.890), metadata={op_name="jit(_full_run)/jit(main)/jit(_normal)/jit(_normal_real)/jit(_uniform)/or" source_file="/global/homes/j/jackm/software/lorrax_C/src/solvers/lanczos.py" source_line=247}
  %xor.892 = u32[1024]{0} xor(%add.888, %or.891), metadata={op_name="jit(_full_run)/jit(main)/jit(_normal)/jit(_normal_real)/jit(_uniform)/xor" source_file="/global/homes/j/jackm/software/lorrax_C/src/solvers/lanczos.py" source_line=247}
  %add.893 = u32[1024]{0} add(%add.888, %xor.892), metadata={op_name="jit(_full_run)/jit(main)/jit(_normal)/jit(_normal_real)/jit(_uniform)/add" source_file="/global/homes/j/jackm/software/lorrax_C/src/solvers/lanczos.py" source_line=247}
  %shift-left.894 = u32[1024]{0} shift-left(%xor.892, %broadcast.826), metadata={op_name="jit(_full_run)/jit(main)/jit(_normal)/jit(_normal_real)/jit(_uniform)/shift_left" source_file="/global/homes/j/jackm/software/lorrax_C/src/solvers/lanczos.py" source_line=247}
  %shift-right-logical.895 = u32[1024]{0} shift-right-logical(%xor.892, %broadcast.824), metadata={op_name="jit(_full_run)/jit(main)/jit(_normal)/jit(_normal_real)/jit(_uniform)/shift_right_logical" source_file="/global/homes/j/jackm/software/lorrax_C/src/solvers/lanczos.py" source_line=247}
  %or.896 = u32[1024]{0} or(%shift-left.894, %shift-right-logical.895), metadata={op_name="jit(_full_run)/jit(main)/jit(_normal)/jit(_normal_real)/jit(_uniform)/or" source_file="/global/homes/j/jackm/software/lorrax_C/src/solvers/lanczos.py" source_line=247}
  %xor.897 = u32[1024]{0} xor(%add.893, %or.896), metadata={op_name="jit(_full_run)/jit(main)/jit(_normal)/jit(_normal_real)/jit(_uniform)/xor" source_file="/global/homes/j/jackm/software/lorrax_C/src/solvers/lanczos.py" source_line=247}
  %add.898 = u32[1024]{0} add(%add.893, %xor.897), metadata={op_name="jit(_full_run)/jit(main)/jit(_normal)/jit(_normal_real)/jit(_uniform)/add" source_file="/global/homes/j/jackm/software/lorrax_C/src/solvers/lanczos.py" source_line=247}
  %shift-left.899 = u32[1024]{0} shift-left(%xor.897, %broadcast.822), metadata={op_name="jit(_full_run)/jit(main)/jit(_normal)/jit(_normal_real)/jit(_uniform)/shift_left" source_file="/global/homes/j/jackm/software/lorrax_C/src/solvers/lanczos.py" source_line=247}
  %shift-right-logical.900 = u32[1024]{0} shift-right-logical(%xor.897, %broadcast.820), metadata={op_name="jit(_full_run)/jit(main)/jit(_normal)/jit(_normal_real)/jit(_uniform)/shift_right_logical" source_file="/global/homes/j/jackm/software/lorrax_C/src/solvers/lanczos.py" source_line=247}
  %or.901 = u32[1024]{0} or(%shift-left.899, %shift-right-logical.900), metadata={op_name="jit(_full_run)/jit(main)/jit(_normal)/jit(_normal_real)/jit(_uniform)/or" source_file="/global/homes/j/jackm/software/lorrax_C/src/solvers/lanczos.py" source_line=247}
  %xor.902 = u32[1024]{0} xor(%add.898, %or.901), metadata={op_name="jit(_full_run)/jit(main)/jit(_normal)/jit(_normal_real)/jit(_uniform)/xor" source_file="/global/homes/j/jackm/software/lorrax_C/src/solvers/lanczos.py" source_line=247}
  %add.903 = u32[1024]{0} add(%add.898, %xor.902), metadata={op_name="jit(_full_run)/jit(main)/jit(_normal)/jit(_normal_real)/jit(_uniform)/add" source_file="/global/homes/j/jackm/software/lorrax_C/src/solvers/lanczos.py" source_line=247}
  %broadcast.908 = u32[1024]{0} broadcast(%Arg_0.797), dimensions={}, metadata={op_name="jit(_full_run)/jit(main)/jit(_normal)/jit(_normal_real)/jit(_uniform)/add" source_file="/global/homes/j/jackm/software/lorrax_C/src/solvers/lanczos.py" source_line=247}
  %add.909 = u32[1024]{0} add(%add.903, %broadcast.908), metadata={op_name="jit(_full_run)/jit(main)/jit(_normal)/jit(_normal_real)/jit(_uniform)/add" source_file="/global/homes/j/jackm/software/lorrax_C/src/solvers/lanczos.py" source_line=247}
  %shift-left.904 = u32[1024]{0} shift-left(%xor.902, %broadcast.820), metadata={op_name="jit(_full_run)/jit(main)/jit(_normal)/jit(_normal_real)/jit(_uniform)/shift_left" source_file="/global/homes/j/jackm/software/lorrax_C/src/solvers/lanczos.py" source_line=247}
  %shift-right-logical.905 = u32[1024]{0} shift-right-logical(%xor.902, %broadcast.822), metadata={op_name="jit(_full_run)/jit(main)/jit(_normal)/jit(_normal_real)/jit(_uniform)/shift_right_logical" source_file="/global/homes/j/jackm/software/lorrax_C/src/solvers/lanczos.py" source_line=247}
  %or.906 = u32[1024]{0} or(%shift-left.904, %shift-right-logical.905), metadata={op_name="jit(_full_run)/jit(main)/jit(_normal)/jit(_normal_real)/jit(_uniform)/or" source_file="/global/homes/j/jackm/software/lorrax_C/src/solvers/lanczos.py" source_line=247}
  %xor.907 = u32[1024]{0} xor(%add.903, %or.906), metadata={op_name="jit(_full_run)/jit(main)/jit(_normal)/jit(_normal_real)/jit(_uniform)/xor" source_file="/global/homes/j/jackm/software/lorrax_C/src/solvers/lanczos.py" source_line=247}
  %broadcast.910 = u32[1024]{0} broadcast(%Arg_1.798), dimensions={}, metadata={op_name="jit(_full_run)/jit(main)/jit(_normal)/jit(_normal_real)/jit(_uniform)/add" source_file="/global/homes/j/jackm/software/lorrax_C/src/solvers/lanczos.py" source_line=247}
  %add.911 = u32[1024]{0} add(%xor.907, %broadcast.910), metadata={op_name="jit(_full_run)/jit(main)/jit(_normal)/jit(_normal_real)/jit(_uniform)/add" source_file="/global/homes/j/jackm/software/lorrax_C/src/solvers/lanczos.py" source_line=247}
  %add.912 = u32[1024]{0} add(%add.911, %broadcast.814), metadata={op_name="jit(_full_run)/jit(main)/jit(_normal)/jit(_normal_real)/jit(_uniform)/add" source_file="/global/homes/j/jackm/software/lorrax_C/src/solvers/lanczos.py" source_line=247}
  %add.913 = u32[1024]{0} add(%add.909, %add.912), metadata={op_name="jit(_full_run)/jit(main)/jit(_normal)/jit(_normal_real)/jit(_uniform)/add" source_file="/global/homes/j/jackm/software/lorrax_C/src/solvers/lanczos.py" source_line=247}
  %shift-left.914 = u32[1024]{0} shift-left(%add.912, %broadcast.824), metadata={op_name="jit(_full_run)/jit(main)/jit(_normal)/jit(_normal_real)/jit(_uniform)/shift_left" source_file="/global/homes/j/jackm/software/lorrax_C/src/solvers/lanczos.py" source_line=247}
  %shift-right-logical.915 = u32[1024]{0} shift-right-logical(%add.912, %broadcast.826), metadata={op_name="jit(_full_run)/jit(main)/jit(_normal)/jit(_normal_real)/jit(_uniform)/shift_right_logical" source_file="/global/homes/j/jackm/software/lorrax_C/src/solvers/lanczos.py" source_line=247}
  %or.916 = u32[1024]{0} or(%shift-left.914, %shift-right-logical.915), metadata={op_name="jit(_full_run)/jit(main)/jit(_normal)/jit(_normal_real)/jit(_uniform)/or" source_file="/global/homes/j/jackm/software/lorrax_C/src/solvers/lanczos.py" source_line=247}
  %xor.917 = u32[1024]{0} xor(%add.913, %or.916), metadata={op_name="jit(_full_run)/jit(main)/jit(_normal)/jit(_normal_real)/jit(_uniform)/xor" source_file="/global/homes/j/jackm/software/lorrax_C/src/solvers/lanczos.py" source_line=247}
  %add.918 = u32[1024]{0} add(%add.913, %xor.917), metadata={op_name="jit(_full_run)/jit(main)/jit(_normal)/jit(_normal_real)/jit(_uniform)/add" source_file="/global/homes/j/jackm/software/lorrax_C/src/solvers/lanczos.py" source_line=247}
  %shift-left.919 = u32[1024]{0} shift-left(%xor.917, %broadcast.816), metadata={op_name="jit(_full_run)/jit(main)/jit(_normal)/jit(_normal_real)/jit(_uniform)/shift_left" source_file="/global/homes/j/jackm/software/lorrax_C/src/solvers/lanczos.py" source_line=247}
  %shift-right-logical.920 = u32[1024]{0} shift-right-logical(%xor.917, %broadcast.814), metadata={op_name="jit(_full_run)/jit(main)/jit(_normal)/jit(_normal_real)/jit(_uniform)/shift_right_logical" source_file="/global/homes/j/jackm/software/lorrax_C/src/solvers/lanczos.py" source_line=247}
  %or.921 = u32[1024]{0} or(%shift-left.919, %shift-right-logical.920), metadata={op_name="jit(_full_run)/jit(main)/jit(_normal)/jit(_normal_real)/jit(_uniform)/or" source_file="/global/homes/j/jackm/software/lorrax_C/src/solvers/lanczos.py" source_line=247}
  %xor.922 = u32[1024]{0} xor(%add.918, %or.921), metadata={op_name="jit(_full_run)/jit(main)/jit(_normal)/jit(_normal_real)/jit(_uniform)/xor" source_file="/global/homes/j/jackm/software/lorrax_C/src/solvers/lanczos.py" source_line=247}
  %add.923 = u32[1024]{0} add(%add.918, %xor.922), metadata={op_name="jit(_full_run)/jit(main)/jit(_normal)/jit(_normal_real)/jit(_uniform)/add" source_file="/global/homes/j/jackm/software/lorrax_C/src/solvers/lanczos.py" source_line=247}
  %shift-left.924 = u32[1024]{0} shift-left(%xor.922, %broadcast.812), metadata={op_name="jit(_full_run)/jit(main)/jit(_normal)/jit(_normal_real)/jit(_uniform)/shift_left" source_file="/global/homes/j/jackm/software/lorrax_C/src/solvers/lanczos.py" source_line=247}
  %shift-right-logical.925 = u32[1024]{0} shift-right-logical(%xor.922, %broadcast.812), metadata={op_name="jit(_full_run)/jit(main)/jit(_normal)/jit(_normal_real)/jit(_uniform)/shift_right_logical" source_file="/global/homes/j/jackm/software/lorrax_C/src/solvers/lanczos.py" source_line=247}
  %or.926 = u32[1024]{0} or(%shift-left.924, %shift-right-logical.925), metadata={op_name="jit(_full_run)/jit(main)/jit(_normal)/jit(_normal_real)/jit(_uniform)/or" source_file="/global/homes/j/jackm/software/lorrax_C/src/solvers/lanczos.py" source_line=247}
  %xor.927 = u32[1024]{0} xor(%add.923, %or.926), metadata={op_name="jit(_full_run)/jit(main)/jit(_normal)/jit(_normal_real)/jit(_uniform)/xor" source_file="/global/homes/j/jackm/software/lorrax_C/src/solvers/lanczos.py" source_line=247}
  %add.928 = u32[1024]{0} add(%add.923, %xor.927), metadata={op_name="jit(_full_run)/jit(main)/jit(_normal)/jit(_normal_real)/jit(_uniform)/add" source_file="/global/homes/j/jackm/software/lorrax_C/src/solvers/lanczos.py" source_line=247}
  %broadcast.933 = u32[1024]{0} broadcast(%Arg_1.798), dimensions={}, metadata={op_name="jit(_full_run)/jit(main)/jit(_normal)/jit(_normal_real)/jit(_uniform)/add" source_file="/global/homes/j/jackm/software/lorrax_C/src/solvers/lanczos.py" source_line=247}
  %add.934 = u32[1024]{0} add(%add.928, %broadcast.933), metadata={op_name="jit(_full_run)/jit(main)/jit(_normal)/jit(_normal_real)/jit(_uniform)/add" source_file="/global/homes/j/jackm/software/lorrax_C/src/solvers/lanczos.py" source_line=247}
  %shift-left.929 = u32[1024]{0} shift-left(%xor.927, %broadcast.810), metadata={op_name="jit(_full_run)/jit(main)/jit(_normal)/jit(_normal_real)/jit(_uniform)/shift_left" source_file="/global/homes/j/jackm/software/lorrax_C/src/solvers/lanczos.py" source_line=247}
  %shift-right-logical.930 = u32[1024]{0} shift-right-logical(%xor.927, %broadcast.808), metadata={op_name="jit(_full_run)/jit(main)/jit(_normal)/jit(_normal_real)/jit(_uniform)/shift_right_logical" source_file="/global/homes/j/jackm/software/lorrax_C/src/solvers/lanczos.py" source_line=247}
  %or.931 = u32[1024]{0} or(%shift-left.929, %shift-right-logical.930), metadata={op_name="jit(_full_run)/jit(main)/jit(_normal)/jit(_normal_real)/jit(_uniform)/or" source_file="/global/homes/j/jackm/software/lorrax_C/src/solvers/lanczos.py" source_line=247}
  %xor.932 = u32[1024]{0} xor(%add.928, %or.931), metadata={op_name="jit(_full_run)/jit(main)/jit(_normal)/jit(_normal_real)/jit(_uniform)/xor" source_file="/global/homes/j/jackm/software/lorrax_C/src/solvers/lanczos.py" source_line=247}
  %broadcast.935 = u32[1024]{0} broadcast(%xor.833), dimensions={}, metadata={op_name="jit(_full_run)/jit(main)/jit(_normal)/jit(_normal_real)/jit(_uniform)/add" source_file="/global/homes/j/jackm/software/lorrax_C/src/solvers/lanczos.py" source_line=247}
  %add.936 = u32[1024]{0} add(%xor.932, %broadcast.935), metadata={op_name="jit(_full_run)/jit(main)/jit(_normal)/jit(_normal_real)/jit(_uniform)/add" source_file="/global/homes/j/jackm/software/lorrax_C/src/solvers/lanczos.py" source_line=247}
  %constant.803 = u32[] constant(4)
  %broadcast.804 = u32[1024]{0} broadcast(%constant.803), dimensions={}
  %add.937 = u32[1024]{0} add(%add.936, %broadcast.804), metadata={op_name="jit(_full_run)/jit(main)/jit(_normal)/jit(_normal_real)/jit(_uniform)/add" source_file="/global/homes/j/jackm/software/lorrax_C/src/solvers/lanczos.py" source_line=247}
  %add.938 = u32[1024]{0} add(%add.934, %add.937), metadata={op_name="jit(_full_run)/jit(main)/jit(_normal)/jit(_normal_real)/jit(_uniform)/add" source_file="/global/homes/j/jackm/software/lorrax_C/src/solvers/lanczos.py" source_line=247}
  %shift-left.939 = u32[1024]{0} shift-left(%add.937, %broadcast.830), metadata={op_name="jit(_full_run)/jit(main)/jit(_normal)/jit(_normal_real)/jit(_uniform)/shift_left" source_file="/global/homes/j/jackm/software/lorrax_C/src/solvers/lanczos.py" source_line=247}
  %shift-right-logical.940 = u32[1024]{0} shift-right-logical(%add.937, %broadcast.828), metadata={op_name="jit(_full_run)/jit(main)/jit(_normal)/jit(_normal_real)/jit(_uniform)/shift_right_logical" source_file="/global/homes/j/jackm/software/lorrax_C/src/solvers/lanczos.py" source_line=247}
  %or.941 = u32[1024]{0} or(%shift-left.939, %shift-right-logical.940), metadata={op_name="jit(_full_run)/jit(main)/jit(_normal)/jit(_normal_real)/jit(_uniform)/or" source_file="/global/homes/j/jackm/software/lorrax_C/src/solvers/lanczos.py" source_line=247}
  %xor.942 = u32[1024]{0} xor(%add.938, %or.941), metadata={op_name="jit(_full_run)/jit(main)/jit(_normal)/jit(_normal_real)/jit(_uniform)/xor" source_file="/global/homes/j/jackm/software/lorrax_C/src/solvers/lanczos.py" source_line=247}
  %add.943 = u32[1024]{0} add(%add.938, %xor.942), metadata={op_name="jit(_full_run)/jit(main)/jit(_normal)/jit(_normal_real)/jit(_uniform)/add" source_file="/global/homes/j/jackm/software/lorrax_C/src/solvers/lanczos.py" source_line=247}
  %shift-left.944 = u32[1024]{0} shift-left(%xor.942, %broadcast.826), metadata={op_name="jit(_full_run)/jit(main)/jit(_normal)/jit(_normal_real)/jit(_uniform)/shift_left" source_file="/global/homes/j/jackm/software/lorrax_C/src/solvers/lanczos.py" source_line=247}
  %shift-right-logical.945 = u32[1024]{0} shift-right-logical(%xor.942, %broadcast.824), metadata={op_name="jit(_full_run)/jit(main)/jit(_normal)/jit(_normal_real)/jit(_uniform)/shift_right_logical" source_file="/global/homes/j/jackm/software/lorrax_C/src/solvers/lanczos.py" source_line=247}
  %or.946 = u32[1024]{0} or(%shift-left.944, %shift-right-logical.945), metadata={op_name="jit(_full_run)/jit(main)/jit(_normal)/jit(_normal_real)/jit(_uniform)/or" source_file="/global/homes/j/jackm/software/lorrax_C/src/solvers/lanczos.py" source_line=247}
  %xor.947 = u32[1024]{0} xor(%add.943, %or.946), metadata={op_name="jit(_full_run)/jit(main)/jit(_normal)/jit(_normal_real)/jit(_uniform)/xor" source_file="/global/homes/j/jackm/software/lorrax_C/src/solvers/lanczos.py" source_line=247}
  %add.948 = u32[1024]{0} add(%add.943, %xor.947), metadata={op_name="jit(_full_run)/jit(main)/jit(_normal)/jit(_normal_real)/jit(_uniform)/add" source_file="/global/homes/j/jackm/software/lorrax_C/src/solvers/lanczos.py" source_line=247}
  %shift-left.949 = u32[1024]{0} shift-left(%xor.947, %broadcast.822), metadata={op_name="jit(_full_run)/jit(main)/jit(_normal)/jit(_normal_real)/jit(_uniform)/shift_left" source_file="/global/homes/j/jackm/software/lorrax_C/src/solvers/lanczos.py" source_line=247}
  %shift-right-logical.950 = u32[1024]{0} shift-right-logical(%xor.947, %broadcast.820), metadata={op_name="jit(_full_run)/jit(main)/jit(_normal)/jit(_normal_real)/jit(_uniform)/shift_right_logical" source_file="/global/homes/j/jackm/software/lorrax_C/src/solvers/lanczos.py" source_line=247}
  %or.951 = u32[1024]{0} or(%shift-left.949, %shift-right-logical.950), metadata={op_name="jit(_full_run)/jit(main)/jit(_normal)/jit(_normal_real)/jit(_uniform)/or" source_file="/global/homes/j/jackm/software/lorrax_C/src/solvers/lanczos.py" source_line=247}
…
%_where_15.2229 (Arg_0.2230: pred[200,200], Arg_1.2231: f64[200], Arg_2.2232: f64[200]) -> f64[200,200] {
  %Arg_0.2230 = pred[200,200]{1,0} parameter(0), metadata={op_name="jit(_full_run)/jit(main)/jit(_diag)/pjit"}
  %Arg_1.2231 = f64[200]{0} parameter(1), metadata={op_name="jit(_full_run)/jit(main)/jit(_diag)/pjit"}
  %broadcast.2233 = f64[200,200]{1,0} broadcast(%Arg_1.2231), dimensions={1}, metadata={op_name="jit(_full_run)/jit(main)/jit(_diag)/jit(_where)/broadcast_in_dim" source_file="/global/homes/j/jackm/software/lorrax_C/src/solvers/lanczos.py" source_line=288}
  %Arg_2.2232 = f64[200]{0} parameter(2), metadata={op_name="jit(_full_run)/jit(main)/jit(_diag)/pjit"}
  %broadcast.2234 = f64[200,200]{1,0} broadcast(%Arg_2.2232), dimensions={1}, metadata={op_name="jit(_full_run)/jit(main)/jit(_diag)/jit(_where)/broadcast_in_dim" source_file="/global/homes/j/jackm/software/lorrax_C/src/solvers/lanczos.py" source_line=288}
  ROOT %select.2235 = f64[200,200]{1,0} select(%Arg_0.2230, %broadcast.2233, %broadcast.2234), metadata={op_name="jit(_full_run)/jit(main)/jit(_diag)/jit(_where)/select_n" source_file="/global/homes/j/jackm/software/lorrax_C/src/solvers/lanczos.py" source_line=288}
}

%_diag_17.2236 (Arg_0.2237: f64[199]) -> f64[200,200] {
  %iota.2244 = s64[200]{0} iota(), iota_dimension=0, metadata={op_name="jit(_full_run)/jit(main)/jit(_diag)/iota" source_file="/global/homes/j/jackm/software/lorrax_C/src/solvers/lanczos.py" source_line=290}
  %broadcast.2245 = s64[200,200]{1,0} broadcast(%iota.2244), dimensions={0}, metadata={op_name="jit(_full_run)/jit(main)/jit(_diag)/iota" source_file="/global/homes/j/jackm/software/lorrax_C/src/solvers/lanczos.py" source_line=290}
  %constant.2240 = s64[] constant(-1)
  %broadcast.2241 = s64[200,200]{1,0} broadcast(%constant.2240), dimensions={}
  %add.2248 = s64[200,200]{1,0} add(%broadcast.2245, %broadcast.2241), metadata={op_name="jit(_full_run)/jit(main)/jit(_diag)/add" source_file="/global/homes/j/jackm/software/lorrax_C/src/solvers/lanczos.py" source_line=290}
  %iota.2246 = s64[200]{0} iota(), iota_dimension=0, metadata={op_name="jit(_full_run)/jit(main)/jit(_diag)/iota" source_file="/global/homes/j/jackm/software/lorrax_C/src/solvers/lanczos.py" source_line=290}
  %broadcast.2247 = s64[200,200]{1,0} broadcast(%iota.2246), dimensions={1}, metadata={op_name="jit(_full_run)/jit(main)/jit(_diag)/iota" source_file="/global/homes/j/jackm/software/lorrax_C/src/solvers/lanczos.py" source_line=290}
  %compare.2249 = pred[200,200]{1,0} compare(%add.2248, %broadcast.2247), direction=EQ, metadata={op_name="jit(_full_run)/jit(main)/jit(_diag)/eq" source_file="/global/homes/j/jackm/software/lorrax_C/src/solvers/lanczos.py" source_line=290}
  %Arg_0.2237 = f64[199]{0} parameter(0), metadata={op_name="jit(_full_run)/jit(main)/pjit"}
  %constant.2242 = f64[] constant(0)
  %pad.2243 = f64[200]{0} pad(%Arg_0.2237, %constant.2242), padding=0_1, metadata={op_name="jit(_full_run)/jit(main)/jit(_diag)/pad" source_file="/global/homes/j/jackm/software/lorrax_C/src/solvers/lanczos.py" source_line=290}
  %constant.2238 = f64[] constant(0)
  %broadcast.2239 = f64[200]{0} broadcast(%constant.2238), dimensions={}
  ROOT %call.2250 = f64[200,200]{1,0} call(%compare.2249, %pad.2243, %broadcast.2239), to_apply=%_where_15.2229
}

%eigh.2253 (Arg_0.2254: f64[200,200]) -> (f64[200], f64[200,200]) {
  %Arg_0.2254 = f64[200,200]{1,0} parameter(0), metadata={op_name="jit(_full_run)/jit(main)/pjit"}
  %transpose.2262 = f64[200,200]{0,1} transpose(%Arg_0.2254), dimensions={1,0}, metadata={op_name="jit(_full_run)/jit(main)/jit(eigh)/transpose" source_file="/global/homes/j/jackm/software/lorrax_C/src/solvers/lanczos.py" source_line=292}
  %add.2263 = f64[200,200]{1,0} add(%Arg_0.2254, %transpose.2262), metadata={op_name="jit(_full_run)/jit(main)/jit(eigh)/add" source_file="/global/homes/j/jackm/software/lorrax_C/src/solvers/lanczos.py" source_line=292}
  %constant.2259 = f64[] constant(2)
  %broadcast.2260 = f64[200,200]{1,0} broadcast(%constant.2259), dimensions={}
  %divide.2264 = f64[200,200]{1,0} divide(%add.2263, %broadcast.2260), metadata={op_name="jit(_full_run)/jit(main)/jit(eigh)/div" source_file="/global/homes/j/jackm/software/lorrax_C/src/solvers/lanczos.py" source_line=292}
  %custom-call.2265 = (f64[200,200]{0,1}, f64[200]{0}, s32[]) custom-call(%divide.2264), custom_call_target="cusolver_syevd_ffi", operand_layout_constraints={f64[200,200]{0,1}}, output_to_operand_aliasing={{0}: (0, {})}, api_version=API_VERSION_TYPED_FFI, frontend_attributes={num_batch_dims="0"}, metadata={op_name="jit(_full_run)/jit(main)/jit(eigh)/eigh" source_file="/global/homes/j/jackm/software/lorrax_C/src/solvers/lanczos.py" source_line=292}, backend_config={algorithm = 0 : ui8, lower = true}
  %get-tuple-element.2268 = s32[] get-tuple-element(%custom-call.2265), index=2, frontend_attributes={num_batch_dims="0"}, metadata={op_name="jit(_full_run)/jit(main)/jit(eigh)/eigh" source_file="/global/homes/j/jackm/software/lorrax_C/src/solvers/lanczos.py" source_line=292}
  %constant.2261 = s32[] constant(0)
  %compare.2269 = pred[] compare(%get-tuple-element.2268, %constant.2261), direction=EQ, metadata={op_name="jit(_full_run)/jit(main)/jit(eigh)/eigh" source_file="/global/homes/j/jackm/software/lorrax_C/src/solvers/lanczos.py" source_line=292}
  %reshape.2275 = pred[1]{0} reshape(%compare.2269), metadata={op_name="jit(_full_run)/jit(main)/jit(eigh)/eigh" source_file="/global/homes/j/jackm/software/lorrax_C/src/solvers/lanczos.py" source_line=292}
  %broadcast.2276 = pred[1]{0} broadcast(%reshape.2275), dimensions={0}, metadata={op_name="jit(_full_run)/jit(main)/jit(eigh)/eigh" source_file="/global/homes/j/jackm/software/lorrax_C/src/solvers/lanczos.py" source_line=292}
  %reshape.2277 = pred[] reshape(%broadcast.2276), metadata={op_name="jit(_full_run)/jit(main)/jit(eigh)/eigh" source_file="/global/homes/j/jackm/software/lorrax_C/src/solvers/lanczos.py" source_line=292}
  %broadcast.2278 = pred[200]{0} broadcast(%reshape.2277), dimensions={}, metadata={op_name="jit(_full_run)/jit(main)/jit(eigh)/eigh" source_file="/global/homes/j/jackm/software/lorrax_C/src/solvers/lanczos.py" source_line=292}
  %get-tuple-element.2267 = f64[200]{0} get-tuple-element(%custom-call.2265), index=1, frontend_attributes={num_batch_dims="0"}, metadata={op_name="jit(_full_run)/jit(main)/jit(eigh)/eigh" source_file="/global/homes/j/jackm/software/lorrax_C/src/solvers/lanczos.py" source_line=292}
  %constant.2255 = f64[] constant(nan)
  %broadcast.2256 = f64[200]{0} broadcast(%constant.2255), dimensions={}
  %select.2279 = f64[200]{0} select(%broadcast.2278, %get-tuple-element.2267, %broadcast.2256), metadata={op_name="jit(_full_run)/jit(main)/jit(eigh)/eigh" source_file="/global/homes/j/jackm/software/lorrax_C/src/solvers/lanczos.py" source_line=292}
  %reshape.2270 = pred[1,1]{1,0} reshape(%compare.2269), metadata={op_name="jit(_full_run)/jit(main)/jit(eigh)/eigh" source_file="/global/homes/j/jackm/software/lorrax_C/src/solvers/lanczos.py" source_line=292}
  %broadcast.2271 = pred[1,1]{1,0} broadcast(%reshape.2270), dimensions={0,1}, metadata={op_name="jit(_full_run)/jit(main)/jit(eigh)/eigh" source_file="/global/homes/j/jackm/software/lorrax_C/src/solvers/lanczos.py" source_line=292}
  %reshape.2272 = pred[] reshape(%broadcast.2271), metadata={op_name="jit(_full_run)/jit(main)/jit(eigh)/eigh" source_file="/global/homes/j/jackm/software/lorrax_C/src/solvers/lanczos.py" source_line=292}
  %broadcast.2273 = pred[200,200]{1,0} broadcast(%reshape.2272), dimensions={}, metadata={op_name="jit(_full_run)/jit(main)/jit(eigh)/eigh" source_file="/global/homes/j/jackm/software/lorrax_C/src/solvers/lanczos.py" source_line=292}
  %get-tuple-element.2266 = f64[200,200]{0,1} get-tuple-element(%custom-call.2265), index=0, frontend_attributes={num_batch_dims="0"}, metadata={op_name="jit(_full_run)/jit(main)/jit(eigh)/eigh" source_file="/global/homes/j/jackm/software/lorrax_C/src/solvers/lanczos.py" source_line=292}
  %constant.2257 = f64[] constant(nan)
  %broadcast.2258 = f64[200,200]{1,0} broadcast(%constant.2257), dimensions={}
  %select.2274 = f64[200,200]{1,0} select(%broadcast.2273, %get-tuple-element.2266, %broadcast.2258), metadata={op_name="jit(_full_run)/jit(main)/jit(eigh)/eigh" source_file="/global/homes/j/jackm/software/lorrax_C/src/solvers/lanczos.py" source_line=292}
  ROOT %tuple.2280 = (f64[200]{0}, f64[200,200]{1,0}) tuple(%select.2279, %select.2274)
}

%region_24.2284 (Arg_0.2285: f64[], Arg_1.2286: f64[], Arg_2.2287: s64[], Arg_3.2288: s64[]) -> pred[] {
  %Arg_2.2287 = s64[] parameter(2), metadata={op_name="jit(_full_run)/jit(main)/jit(argsort)/sort"}
  %Arg_3.2288 = s64[] parameter(3), metadata={op_name="jit(_full_run)/jit(main)/jit(argsort)/sort"}
  %Arg_0.2285 = f64[] parameter(0), metadata={op_name="jit(_full_run)/jit(main)/jit(argsort)/sort"}
  %compare.2293 = pred[] compare(%Arg_0.2285, %Arg_0.2285), direction=NE, metadata={op_name="jit(_full_run)/jit(main)/jit(argsort)/ne" source_file="/global/homes/j/jackm/software/lorrax_C/src/solvers/lanczos.py" source_line=293}
  %constant.2289 = f64[] constant(nan)
  %constant.2290 = f64[] constant(0)
  %compare.2291 = pred[] compare(%Arg_0.2285, %constant.2290), direction=EQ, metadata={op_name="jit(_full_run)/jit(main)/jit(argsort)/eq" source_file="/global/homes/j/jackm/software/lorrax_C/src/solvers/lanczos.py" source_line=293}
  %select.2292 = f64[] select(%compare.2291, %constant.2290, %Arg_0.2285), metadata={op_name="jit(_full_run)/jit(main)/jit(argsort)/select_n" source_file="/global/homes/j/jackm/software/lorrax_C/src/solvers/lanczos.py" source_line=293}
  %select.2294 = f64[] select(%compare.2293, %constant.2289, %select.2292), metadata={op_name="jit(_full_run)/jit(main)/jit(argsort)/select_n" source_file="/global/homes/j/jackm/software/lorrax_C/src/solvers/lanczos.py" source_line=293}
  %Arg_1.2286 = f64[] parameter(1), metadata={op_name="jit(_full_run)/jit(main)/jit(argsort)/sort"}
  %compare.2297 = pred[] compare(%Arg_1.2286, %Arg_1.2286), direction=NE, metadata={op_name="jit(_full_run)/jit(main)/jit(argsort)/ne" source_file="/global/homes/j/jackm/software/lorrax_C/src/solvers/lanczos.py" source_line=293}
  %compare.2295 = pred[] compare(%Arg_1.2286, %constant.2290), direction=EQ, metadata={op_name="jit(_full_run)/jit(main)/jit(argsort)/eq" source_file="/global/homes/j/jackm/software/lorrax_C/src/solvers/lanczos.py" source_line=293}
  %select.2296 = f64[] select(%compare.2295, %constant.2290, %Arg_1.2286), metadata={op_name="jit(_full_run)/jit(main)/jit(argsort)/select_n" source_file="/global/homes/j/jackm/software/lorrax_C/src/solvers/lanczos.py" source_line=293}
  %select.2298 = f64[] select(%compare.2297, %constant.2289, %select.2296), metadata={op_name="jit(_full_run)/jit(main)/jit(argsort)/select_n" source_file="/global/homes/j/jackm/software/lorrax_C/src/solvers/lanczos.py" source_line=293}
  ROOT %compare.2299 = pred[] compare(%select.2294, %select.2298), direction=LT, type=TOTALORDER, metadata={op_name="jit(_full_run)/jit(main)/jit(argsort)/lt_to" source_file="/global/homes/j/jackm/software/lorrax_C/src/solvers/lanczos.py" source_line=293}
}

%argsort.2300 (Arg_0.2301: f64[200]) -> s64[200] {
  %Arg_0.2301 = f64[200]{0} parameter(0), metadata={op_name="jit(_full_run)/jit(main)/pjit"}
  %iota.2302 = s64[200]{0} iota(), iota_dimension=0, metadata={op_name="jit(_full_run)/jit(main)/jit(argsort)/iota" source_file="/global/homes/j/jackm/software/lorrax_C/src/solvers/lanczos.py" source_line=293}
  %sort.2303 = (f64[200]{0}, s64[200]{0}) sort(%Arg_0.2301, %iota.2302), dimensions={0}, is_stable=true, to_apply=%region_24.2284, metadata={op_name="jit(_full_run)/jit(main)/jit(argsort)/sort" source_file="/global/homes/j/jackm/software/lorrax_C/src/solvers/lanczos.py" source_line=293}
  %get-tuple-element.2304 = f64[200]{0} get-tuple-element(%sort.2303), index=0, metadata={op_name="jit(_full_run)/jit(main)/jit(argsort)/sort" source_file="/global/homes/j/jackm/software/lorrax_C/src/solvers/lanczos.py" source_line=293}
  ROOT %get-tuple-element.2305 = s64[200]{0} get-tuple-element(%sort.2303), index=1, metadata={op_name="jit(_full_run)/jit(main)/jit(argsort)/sort" source_file="/global/homes/j/jackm/software/lorrax_C/src/solvers/lanczos.py" source_line=293}
}

%region_25.2323 (Arg_0.2324: f64[], Arg_1.2325: f64[]) -> f64[] {
  %Arg_0.2324 = f64[] parameter(0), metadata={op_name="jit(_full_run)/jit(main)/jit(norm)/reduce_sum"}
  %Arg_1.2325 = f64[] parameter(1), metadata={op_name="jit(_full_run)/jit(main)/jit(norm)/reduce_sum"}
  ROOT %add.2326 = f64[] add(%Arg_0.2324, %Arg_1.2325), metadata={op_name="jit(_full_run)/jit(main)/jit(norm)/reduce_sum" source_file="/global/homes/j/jackm/software/lorrax_C/src/solvers/lanczos.py" source_line=297}
}

%norm_18.2327 (Arg_0.2328: c128[20,1024]) -> f64[20,1] {
  %Arg_0.2328 = c128[20,1024]{1,0} parameter(0), metadata={op_name="jit(_full_run)/jit(main)/pjit"}
  %real.2330 = f64[20,1024]{1,0} real(%Arg_0.2328), metadata={op_name="jit(_full_run)/jit(main)/jit(norm)/real" source_file="/global/homes/j/jackm/software/lorrax_C/src/solvers/lanczos.py" source_line=297}
  %imag.2331 = f64[20,1024]{1,0} imag(%Arg_0.2328), metadata={op_name="jit(_full_run)/jit(main)/jit(norm)/imag" source_file="/global/homes/j/jackm/software/lorrax_C/src/solvers/lanczos.py" source_line=297}
  %negate.2332 = f64[20,1024]{1,0} negate(%imag.2331), metadata={op_name="jit(_full_run)/jit(main)/jit(norm)/neg" source_file="/global/homes/j/jackm/software/lorrax_C/src/solvers/lanczos.py" source_line=297}
  %complex.2333 = c128[20,1024]{1,0} complex(%real.2330, %negate.2332), metadata={op_name="jit(_full_run)/jit(main)/jit(norm)/complex" source_file="/global/homes/j/jackm/software/lorrax_C/src/solvers/lanczos.py" source_line=297}
  %multiply.2334 = c128[20,1024]{1,0} multiply(%Arg_0.2328, %complex.2333), metadata={op_name="jit(_full_run)/jit(main)/jit(norm)/mul" source_file="/global/homes/j/jackm/software/lorrax_C/src/solvers/lanczos.py" source_line=297}
  %real.2335 = f64[20,1024]{1,0} real(%multiply.2334), metadata={op_name="jit(_full_run)/jit(main)/jit(norm)/real" source_file="/global/homes/j/jackm/software/lorrax_C/src/solvers/lanczos.py" source_line=297}
  %constant.2329 = f64[] constant(0)
  %reduce.2336 = f64[20]{0} reduce(%real.2335, %constant.2329), dimensions={1}, to_apply=%region_25.2323, metadata={op_name="jit(_full_run)/jit(main)/jit(norm)/reduce_sum" source_file="/global/homes/j/jackm/software/lorrax_C/src/solvers/lanczos.py" source_line=297}
  %reshape.2337 = f64[20,1]{1,0} reshape(%reduce.2336), metadata={op_name="jit(_full_run)/jit(main)/jit(norm)/broadcast_in_dim" source_file="/global/homes/j/jackm/software/lorrax_C/src/solvers/lanczos.py" source_line=297}
  ROOT %sqrt.2338 = f64[20,1]{1,0} sqrt(%reshape.2337), metadata={op_name="jit(_full_run)/jit(main)/jit(norm)/sqrt" source_file="/global/homes/j/jackm/software/lorrax_C/src/solvers/lanczos.py" source_line=297}
}

ENTRY %main.2347 (Arg_0.1: c128[64,4,2,480], Arg_1.2: c128[64,4,2,480], Arg_2.3: c128[64,4,2,480], Arg_3.4: c128[64,4,2,480], Arg_4.5: f64[64,4], Arg_5.6: f64[64,4], Arg_6.7: c128[480,480,4,4,4], Arg_7.8: c128[480,480]) -> (f64[20], c128[20,1024]) {
  %constant.29 = s64[] constant(0)
  %constant.18 = c128[] constant((0, 0))
  %broadcast.19 = c128[1024,200]{1,0} broadcast(%constant.18), dimensions={}
  %constant.17 = s32[1]{0} constant({0})
  %constant.32 = s64[] constant(42)
  %constant.31 = s64[] constant(32)
  %shift-right-logical.141 = s64[] shift-right-logical(%constant.32, %constant.31), metadata={op_name="jit(_full_run)/jit(main)/shift_right_logical" source_file="/global/homes/j/jackm/software/lorrax_C/src/solvers/lanczos.py" source_line=244}
  %convert.142 = u32[] convert(%shift-right-logical.141), metadata={op_name="jit(_full_run)/jit(main)/convert_element_type" source_file="/global/homes/j/jackm/software/lorrax_C/src/solvers/lanczos.py" source_line=244}
  %reshape.143 = u32[1]{0} reshape(%convert.142), metadata={op_name="jit(_full_run)/jit(main)/broadcast_in_dim" source_file="/global/homes/j/jackm/software/lorrax_C/src/solvers/lanczos.py" source_line=244}
  %constant.22 = u32[1]{0} constant({42})
  %concatenate.144 = u32[2]{0} concatenate(%reshape.143, %constant.22), dimensions={0}, metadata={op_name="jit(_full_run)/jit(main)/concatenate" source_file="/global/homes/j/jackm/software/lorrax_C/src/solvers/lanczos.py" source_line=244}
  %call.331 = u32[2,2]{1,0} call(%concatenate.144), to_apply=%_threefry_split.313
  %slice.332 = u32[1,2]{1,0} slice(%call.331), slice={[0:1], [0:2]}, metadata={op_name="jit(_full_run)/jit(main)/slice" source_file="/global/homes/j/jackm/software/lorrax_C/src/solvers/lanczos.py" source_line=245}
  %reshape.333 = u32[2]{0} reshape(%slice.332), metadata={op_name="jit(_full_run)/jit(main)/squeeze" source_file="/global/homes/j/jackm/software/lorrax_C/src/solvers/lanczos.py" source_line=245}
  %call.795 = f64[1024]{0} call(%reshape.333), to_apply=%_normal.792
  %convert.1258 = c128[1024]{0} convert(%call.795), metadata={op_name="jit(_full_run)/jit(main)/convert_element_type" source_file="/global/homes/j/jackm/software/lorrax_C/src/solvers/lanczos.py" source_line=248}
  %slice.334 = u32[1,2]{1,0} slice(%call.331), slice={[1:2], [0:2]}, metadata={op_name="jit(_full_run)/jit(main)/slice" source_file="/global/homes/j/jackm/software/lorrax_C/src/solvers/lanczos.py" source_line=245}
  %reshape.335 = u32[2]{0} reshape(%slice.334), metadata={op_name="jit(_full_run)/jit(main)/squeeze" source_file="/global/homes/j/jackm/software/lorrax_C/src/solvers/lanczos.py" source_line=245}
  %call.1255 = f64[1024]{0} call(%reshape.335), to_apply=%_normal.1252
  %convert.1256 = c128[1024]{0} convert(%call.1255), metadata={op_name="jit(_full_run)/jit(main)/convert_element_type" source_file="/global/homes/j/jackm/software/lorrax_C/src/solvers/lanczos.py" source_line=248}
  %constant.20 = c128[] constant((0, 1))
  %broadcast.21 = c128[1024]{0} broadcast(%constant.20), dimensions={}
  %multiply.1257 = c128[1024]{0} multiply(%convert.1256, %broadcast.21), metadata={op_name="jit(_full_run)/jit(main)/mul" source_file="/global/homes/j/jackm/software/lorrax_C/src/solvers/lanczos.py" source_line=248}
  %add.1259 = c128[1024]{0} add(%convert.1258, %multiply.1257), metadata={op_name="jit(_full_run)/jit(main)/add" source_file="/global/homes/j/jackm/software/lorrax_C/src/solvers/lanczos.py" source_line=248}
  %call.1275 = f64[] call(%add.1259), to_apply=%norm.1264
  %convert.1276 = c128[] convert(%call.1275), metadata={op_name="jit(_full_run)/jit(main)/convert_element_type" source_file="/global/homes/j/jackm/software/lorrax_C/src/solvers/lanczos.py" source_line=249}
  %broadcast.1277 = c128[1024]{0} broadcast(%convert.1276), dimensions={}, metadata={op_name="jit(_full_run)/jit(main)/div" source_file="/global/homes/j/jackm/software/lorrax_C/src/solvers/lanczos.py" source_line=249}
  %divide.1278 = c128[1024]{0} divide(%add.1259, %broadcast.1277), metadata={op_name="jit(_full_run)/jit(main)/div" source_file="/global/homes/j/jackm/software/lorrax_C/src/solvers/lanczos.py" source_line=249}
  %scatter.1282 = c128[1024,200]{1,0} scatter(%broadcast.19, %constant.17, %divide.1278), update_window_dims={0}, inserted_window_dims={1}, scatter_dims_to_operand_dims={1}, index_vector_dim=0, indices_are_sorted=true, unique_indices=true, to_apply=%region_2.1279, metadata={op_name="jit(_full_run)/jit(main)/scatter" source_file="/global/homes/j/jackm/software/lorrax_C/src/solvers/lanczos.py" source_line=252}
  %constant.15 = f64[] constant(0)
  %broadcast.16 = f64[200]{0} broadcast(%constant.15), dimensions={}
  %Arg_0.1 = c128[64,4,2,480]{3,2,1,0} parameter(0), sharding={devices=[1,1,1,2,2]<=[4] last_tile_dim_replicate}, metadata={op_name="psi_c_X"}
  %Arg_1.2 = c128[64,4,2,480]{3,2,1,0} parameter(1), sharding={devices=[1,1,1,2,2]<=[2,2]T(1,0) last_tile_dim_replicate}, metadata={op_name="psi_c_Y"}
  %Arg_2.3 = c128[64,4,2,480]{3,2,1,0} parameter(2), sharding={devices=[1,1,1,2,2]<=[4] last_tile_dim_replicate}, metadata={op_name="psi_v_X"}
  %Arg_3.4 = c128[64,4,2,480]{3,2,1,0} parameter(3), sharding={devices=[1,1,1,2,2]<=[2,2]T(1,0) last_tile_dim_replicate}, metadata={op_name="psi_v_Y"}
  %Arg_4.5 = f64[64,4]{1,0} parameter(4), metadata={op_name="eps_c"}
  %Arg_5.6 = f64[64,4]{1,0} parameter(5), metadata={op_name="eps_v"}
  %Arg_6.7 = c128[480,480,4,4,4]{4,3,2,1,0} parameter(6), sharding={devices=[2,2,1,1,1]<=[4]}, metadata={op_name="W_q"}
  %call.39 = c128[480,480,4,4,4]{4,3,2,1,0} call(%Arg_6.7), to_apply=%fft.36
  %constant.34 = c128[] constant((4, 0))
  %broadcast.35 = c128[3]{0} broadcast(%constant.34), dimensions={}
  %constant.33 = c128[] constant((1, 0))
  %reduce.44 = c128[] reduce(%broadcast.35, %constant.33), dimensions={0}, to_apply=%region_0.40, metadata={op_name="jit(_full_run)/jit(main)/reduce_prod" source_file="/global/homes/j/jackm/software/lorrax_C/src/bse/bse_lanczos.py" source_line=156}
  %real.45 = f64[] real(%reduce.44), metadata={op_name="jit(_full_run)/jit(main)/sqrt" source_file="/global/homes/j/jackm/software/lorrax_C/src/bse/bse_lanczos.py" source_line=156}
  %constant.30 = f64[] constant(0)
  %compare.46 = pred[] compare(%real.45, %constant.30), direction=GE, metadata={op_name="jit(_full_run)/jit(main)/sqrt" source_file="/global/homes/j/jackm/software/lorrax_C/src/bse/bse_lanczos.py" source_line=156}
  %abs.47 = f64[] abs(%real.45), metadata={op_name="jit(_full_run)/jit(main)/sqrt" source_file="/global/homes/j/jackm/software/lorrax_C/src/bse/bse_lanczos.py" source_line=156}
  %imag.48 = f64[] imag(%reduce.44), metadata={op_name="jit(_full_run)/jit(main)/sqrt" source_file="/global/homes/j/jackm/software/lorrax_C/src/bse/bse_lanczos.py" source_line=156}
  %abs.49 = f64[] abs(%imag.48), metadata={op_name="jit(_full_run)/jit(main)/sqrt" source_file="/global/homes/j/jackm/software/lorrax_C/src/bse/bse_lanczos.py" source_line=156}
  %compare.50 = pred[] compare(%abs.47, %abs.49), direction=EQ, metadata={op_name="jit(_full_run)/jit(main)/sqrt" source_file="/global/homes/j/jackm/software/lorrax_C/src/bse/bse_lanczos.py" source_line=156}
  %sqrt.51 = f64[] sqrt(%abs.47), metadata={op_name="jit(_full_run)/jit(main)/sqrt" source_file="/global/homes/j/jackm/software/lorrax_C/src/bse/bse_lanczos.py" source_line=156}
  %constant.28 = f64[] constant(1.5537739740300374)
  %multiply.52 = f64[] multiply(%sqrt.51, %constant.28), metadata={op_name="jit(_full_run)/jit(main)/sqrt" source_file="/global/homes/j/jackm/software/lorrax_C/src/bse/bse_lanczos.py" source_line=156}
  %constant.27 = f64[] constant(1.4142135623730951)
  %divide.53 = f64[] divide(%multiply.52, %constant.27), metadata={op_name="jit(_full_run)/jit(main)/sqrt" source_file="/global/homes/j/jackm/software/lorrax_C/src/bse/bse_lanczos.py" source_line=156}
  %maximum.54 = f64[] maximum(%abs.47, %abs.49), metadata={op_name="jit(_full_run)/jit(main)/sqrt" source_file="/global/homes/j/jackm/software/lorrax_C/src/bse/bse_lanczos.py" source_line=156}
  %minimum.55 = f64[] minimum(%abs.47, %abs.49), metadata={op_name="jit(_full_run)/jit(main)/sqrt" source_file="/global/homes/j/jackm/software/lorrax_C/src/bse/bse_lanczos.py" source_line=156}
  %compare.56 = pred[] compare(%maximum.54, %minimum.55), direction=EQ, metadata={op_name="jit(_full_run)/jit(main)/sqrt" source_file="/global/homes/j/jackm/software/lorrax_C/src/bse/bse_lanczos.py" source_line=156}
  %multiply.57 = f64[] multiply(%maximum.54, %constant.27), metadata={op_name="jit(_full_run)/jit(main)/sqrt" source_file="/global/homes/j/jackm/software/lorrax_C/src/bse/bse_lanczos.py" source_line=156}
  %divide.58 = f64[] divide(%minimum.55, %maximum.54), metadata={op_name="jit(_full_run)/jit(main)/sqrt" source_file="/global/homes/j/jackm/software/lorrax_C/src/bse/bse_lanczos.py" source_line=156}
  %multiply.59 = f64[] multiply(%divide.58, %divide.58), metadata={op_name="jit(_full_run)/jit(main)/sqrt" source_file="/global/homes/j/jackm/software/lorrax_C/src/bse/bse_lanczos.py" source_line=156}
  %constant.26 = f64[] constant(1)
  %add.60 = f64[] add(%multiply.59, %constant.26), metadata={op_name="jit(_full_run)/jit(main)/sqrt" source_file="/global/homes/j/jackm/software/lorrax_C/src/bse/bse_lanczos.py" source_line=156}
  %sqrt.61 = f64[] sqrt(%add.60), metadata={op_name="jit(_full_run)/jit(main)/sqrt" source_file="/global/homes/j/jackm/software/lorrax_C/src/bse/bse_lanczos.py" source_line=156}
  %compare.62 = pred[] compare(%sqrt.61, %constant.26), direction=EQ, metadata={op_name="jit(_full_run)/jit(main)/sqrt" source_file="/global/homes/j/jackm/software/lorrax_C/src/bse/bse_lanczos.py" source_line=156}
  %compare.63 = pred[] compare(%multiply.59, %constant.30), direction=GT, metadata={op_name="jit(_full_run)/jit(main)/sqrt" source_file="/global/homes/j/jackm/software/lorrax_C/src/bse/bse_lanczos.py" source_line=156}
  %and.64 = pred[] and(%compare.62, %compare.63), metadata={op_name="jit(_full_run)/jit(main)/sqrt" source_file="/global/homes/j/jackm/software/lorrax_C/src/bse/bse_lanczos.py" source_line=156}
  %multiply.65 = f64[] multiply(%maximum.54, %multiply.59), metadata={op_name="jit(_full_run)/jit(main)/sqrt" source_file="/global/homes/j/jackm/software/lorrax_C/src/bse/bse_lanczos.py" source_line=156}
  %constant.25 = f64[] constant(2)
  %divide.66 = f64[] divide(%multiply.65, %constant.25), metadata={op_name="jit(_full_run)/jit(main)/sqrt" source_file="/global/homes/j/jackm/software/lorrax_C/src/bse/bse_lanczos.py" source_line=156}
  %add.67 = f64[] add(%maximum.54, %divide.66), metadata={op_name="jit(_full_run)/jit(main)/sqrt" source_file="/global/homes/j/jackm/software/lorrax_C/src/bse/bse_lanczos.py" source_line=156}
  %multiply.68 = f64[] multiply(%maximum.54, %sqrt.61), metadata={op_name="jit(_full_run)/jit(main)/sqrt" source_file="/global/homes/j/jackm/software/lorrax_C/src/bse/bse_lanczos.py" source_line=156}
  %select.69 = f64[] select(%and.64, %add.67, %multiply.68), metadata={op_name="jit(_full_run)/jit(main)/sqrt" source_file="/global/homes/j/jackm/software/lorrax_C/src/bse/bse_lanczos.py" source_line=156}
  %select.70 = f64[] select(%compare.56, %multiply.57, %select.69), metadata={op_name="jit(_full_run)/jit(main)/sqrt" source_file="/global/homes/j/jackm/software/lorrax_C/src/bse/bse_lanczos.py" source_line=156}
  %divide.71 = f64[] divide(%select.70, %constant.25), metadata={op_name="jit(_full_run)/jit(main)/sqrt" source_file="/global/homes/j/jackm/software/lorrax_C/src/bse/bse_lanczos.py" source_line=156}
  %divide.72 = f64[] divide(%abs.47, %constant.25), metadata={op_name="jit(_full_run)/jit(main)/sqrt" source_file="/global/homes/j/jackm/software/lorrax_C/src/bse/bse_lanczos.py" source_line=156}
  %add.73 = f64[] add(%divide.71, %divide.72), metadata={op_name="jit(_full_run)/jit(main)/sqrt" source_file="/global/homes/j/jackm/software/lorrax_C/src/bse/bse_lanczos.py" source_line=156}
  %sqrt.74 = f64[] sqrt(%add.73), metadata={op_name="jit(_full_run)/jit(main)/sqrt" source_file="/global/homes/j/jackm/software/lorrax_C/src/bse/bse_lanczos.py" source_line=156}
  %compare.75 = pred[] compare(%sqrt.74, %constant.30), direction=EQ, metadata={op_name="jit(_full_run)/jit(main)/sqrt" source_file="/global/homes/j/jackm/software/lorrax_C/src/bse/bse_lanczos.py" source_line=156}
  %constant.24 = f64[] constant(inf)
  %compare.76 = pred[] compare(%sqrt.74, %constant.24), direction=EQ, metadata={op_name="jit(_full_run)/jit(main)/sqrt" source_file="/global/homes/j/jackm/software/lorrax_C/src/bse/bse_lanczos.py" source_line=156}
  %or.77 = pred[] or(%compare.75, %compare.76), metadata={op_name="jit(_full_run)/jit(main)/sqrt" source_file="/global/homes/j/jackm/software/lorrax_C/src/bse/bse_lanczos.py" source_line=156}
  %compare.78 = pred[] compare(%abs.47, %abs.49), direction=GT, metadata={op_name="jit(_full_run)/jit(main)/sqrt" source_file="/global/homes/j/jackm/software/lorrax_C/src/bse/bse_lanczos.py" source_line=156}
  %compare.79 = pred[] compare(%abs.47, %abs.49), direction=LT, metadata={op_name="jit(_full_run)/jit(main)/sqrt" source_file="/global/homes/j/jackm/software/lorrax_C/src/bse/bse_lanczos.py" source_line=156}
  %divide.80 = f64[] divide(%abs.47, %abs.49), metadata={op_name="jit(_full_run)/jit(main)/sqrt" source_file="/global/homes/j/jackm/software/lorrax_C/src/bse/bse_lanczos.py" source_line=156}
  %divide.81 = f64[] divide(%abs.49, %abs.47), metadata={op_name="jit(_full_run)/jit(main)/sqrt" source_file="/global/homes/j/jackm/software/lorrax_C/src/bse/bse_lanczos.py" source_line=156}
  %select.82 = f64[] select(%compare.79, %divide.80, %divide.81), metadata={op_name="jit(_full_run)/jit(main)/sqrt" source_file="/global/homes/j/jackm/software/lorrax_C/src/bse/bse_lanczos.py" source_line=156}
  %select.83 = f64[] select(%compare.50, %constant.26, %select.82), metadata={op_name="jit(_full_run)/jit(main)/sqrt" source_file="/global/homes/j/jackm/software/lorrax_C/src/bse/bse_lanczos.py" source_line=156}
  %abs.84 = f64[] abs(%select.83), metadata={op_name="jit(_full_run)/jit(main)/sqrt" source_file="/global/homes/j/jackm/software/lorrax_C/src/bse/bse_lanczos.py" source_line=156}
  %maximum.85 = f64[] maximum(%abs.84, %constant.26), metadata={op_name="jit(_full_run)/jit(main)/sqrt" source_file="/global/homes/j/jackm/software/lorrax_C/src/bse/bse_lanczos.py" source_line=156}
  %minimum.86 = f64[] minimum(%abs.84, %constant.26), metadata={op_name="jit(_full_run)/jit(main)/sqrt" source_file="/global/homes/j/jackm/software/lorrax_C/src/bse/bse_lanczos.py" source_line=156}
  %compare.87 = pred[] compare(%maximum.85, %minimum.86), direction=EQ, metadata={op_name="jit(_full_run)/jit(main)/sqrt" source_file="/global/homes/j/jackm/software/lorrax_C/src/bse/bse_lanczos.py" source_line=156}
  %multiply.88 = f64[] multiply(%maximum.85, %constant.27), metadata={op_name="jit(_full_run)/jit(main)/sqrt" source_file="/global/homes/j/jackm/software/lorrax_C/src/bse/bse_lanczos.py" source_line=156}
  %divide.89 = f64[] divide(%minimum.86, %maximum.85), metadata={op_name="jit(_full_run)/jit(main)/sqrt" source_file="/global/homes/j/jackm/software/lorrax_C/src/bse/bse_lanczos.py" source_line=156}
  %multiply.90 = f64[] multiply(%divide.89, %divide.89), metadata={op_name="jit(_full_run)/jit(main)/sqrt" source_file="/global/homes/j/jackm/software/lorrax_C/src/bse/bse_lanczos.py" source_line=156}
  %add.91 = f64[] add(%multiply.90, %constant.26), metadata={op_name="jit(_full_run)/jit(main)/sqrt" source_file="/global/homes/j/jackm/software/lorrax_C/src/bse/bse_lanczos.py" source_line=156}
  %sqrt.92 = f64[] sqrt(%add.91), metadata={op_name="jit(_full_run)/jit(main)/sqrt" source_file="/global/homes/j/jackm/software/lorrax_C/src/bse/bse_lanczos.py" source_line=156}
  %compare.93 = pred[] compare(%sqrt.92, %constant.26), direction=EQ, metadata={op_name="jit(_full_run)/jit(main)/sqrt" source_file="/global/homes/j/jackm/software/lorrax_C/src/bse/bse_lanczos.py" source_line=156}
  %compare.94 = pred[] compare(%multiply.90, %constant.30), direction=GT, metadata={op_name="jit(_full_run)/jit(main)/sqrt" source_file="/global/homes/j/jackm/software/lorrax_C/src/bse/bse_lanczos.py" source_line=156}
  %and.95 = pred[] and(%compare.93, %compare.94), metadata={op_name="jit(_full_run)/jit(main)/sqrt" source_file="/global/homes/j/jackm/software/lorrax_C/src/bse/bse_lanczos.py" source_line=156}
  %multiply.96 = f64[] multiply(%maximum.85, %multiply.90), metadata={op_name="jit(_full_run)/jit(main)/sqrt" source_file="/global/homes/j/jackm/software/lorrax_C/src/bse/bse_lanczos.py" source_line=156}
  %divide.97 = f64[] divide(%multiply.96, %constant.25), metadata={op_name="jit(_full_run)/jit(main)/sqrt" source_file="/global/homes/j/jackm/software/lorrax_C/src/bse/bse_lanczos.py" source_line=156}
  %add.98 = f64[] add(%maximum.85, %divide.97), metadata={op_name="jit(_full_run)/jit(main)/sqrt" source_file="/global/homes/j/jackm/software/lorrax_C/src/bse/bse_lanczos.py" source_line=156}
  %multiply.99 = f64[] multiply(%maximum.85, %sqrt.92), metadata={op_name="jit(_full_run)/jit(main)/sqrt" source_file="/global/homes/j/jackm/software/lorrax_C/src/bse/bse_lanczos.py" source_line=156}
  %select.100 = f64[] select(%and.95, %add.98, %multiply.99), metadata={op_name="jit(_full_run)/jit(main)/sqrt" source_file="/global/homes/j/jackm/software/lorrax_C/src/bse/bse_lanczos.py" source_line=156}
  %select.101 = f64[] select(%compare.87, %multiply.88, %select.100), metadata={op_name="jit(_full_run)/jit(main)/sqrt" source_file="/global/homes/j/jackm/software/lorrax_C/src/bse/bse_lanczos.py" source_line=156}
  %add.102 = f64[] add(%select.101, %constant.26), metadata={op_name="jit(_full_run)/jit(main)/sqrt" source_file="/global/homes/j/jackm/software/lorrax_C/src/bse/bse_lanczos.py" source_line=156}
  %sqrt.103 = f64[] sqrt(%add.102), metadata={op_name="jit(_full_run)/jit(main)/sqrt" source_file="/global/homes/j/jackm/software/lorrax_C/src/bse/bse_lanczos.py" source_line=156}
  %divide.104 = f64[] divide(%sqrt.103, %constant.27), metadata={op_name="jit(_full_run)/jit(main)/sqrt" source_file="/global/homes/j/jackm/software/lorrax_C/src/bse/bse_lanczos.py" source_line=156}
  %multiply.105 = f64[] multiply(%sqrt.51, %divide.104), metadata={op_name="jit(_full_run)/jit(main)/sqrt" source_file="/global/homes/j/jackm/software/lorrax_C/src/bse/bse_lanczos.py" source_line=156}
  %sqrt.106 = f64[] sqrt(%abs.49), metadata={op_name="jit(_full_run)/jit(main)/sqrt" source_file="/global/homes/j/jackm/software/lorrax_C/src/bse/bse_lanczos.py" source_line=156}
  %add.107 = f64[] add(%select.83, %select.101), metadata={op_name="jit(_full_run)/jit(main)/sqrt" source_file="/global/homes/j/jackm/software/lorrax_C/src/bse/bse_lanczos.py" source_line=156}
  %sqrt.108 = f64[] sqrt(%add.107), metadata={op_name="jit(_full_run)/jit(main)/sqrt" source_file="/global/homes/j/jackm/software/lorrax_C/src/bse/bse_lanczos.py" source_line=156}
  %divide.109 = f64[] divide(%sqrt.108, %constant.27), metadata={op_name="jit(_full_run)/jit(main)/sqrt" source_file="/global/homes/j/jackm/software/lorrax_C/src/bse/bse_lanczos.py" source_line=156}
  %multiply.110 = f64[] multiply(%sqrt.106, %divide.109), metadata={op_name="jit(_full_run)/jit(main)/sqrt" source_file="/global/homes/j/jackm/software/lorrax_C/src/bse/bse_lanczos.py" source_line=156}
  %select.111 = f64[] select(%compare.78, %multiply.105, %multiply.110), metadata={op_name="jit(_full_run)/jit(main)/sqrt" source_file="/global/homes/j/jackm/software/lorrax_C/src/bse/bse_lanczos.py" source_line=156}
  %select.112 = f64[] select(%or.77, %select.111, %sqrt.74), metadata={op_name="jit(_full_run)/jit(main)/sqrt" source_file="/global/homes/j/jackm/software/lorrax_C/src/bse/bse_lanczos.py" source_line=156}
  %select.113 = f64[] select(%compare.50, %divide.53, %select.112), metadata={op_name="jit(_full_run)/jit(main)/sqrt" source_file="/global/homes/j/jackm/software/lorrax_C/src/bse/bse_lanczos.py" source_line=156}
  %constant.23 = f64[] constant(2.19736822693562)
  %divide.114 = f64[] divide(%sqrt.106, %constant.23), metadata={op_name="jit(_full_run)/jit(main)/sqrt" source_file="/global/homes/j/jackm/software/lorrax_C/src/bse/bse_lanczos.py" source_line=156}
  %divide.115 = f64[] divide(%sqrt.51, %sqrt.106), metadata={op_name="jit(_full_run)/jit(main)/sqrt" source_file="/global/homes/j/jackm/software/lorrax_C/src/bse/bse_lanczos.py" source_line=156}
  %divide.116 = f64[] divide(%sqrt.106, %sqrt.51), metadata={op_name="jit(_full_run)/jit(main)/sqrt" source_file="/global/homes/j/jackm/software/lorrax_C/src/bse/bse_lanczos.py" source_line=156}
  %select.117 = f64[] select(%compare.79, %divide.115, %divide.116), metadata={op_name="jit(_full_run)/jit(main)/sqrt" source_file="/global/homes/j/jackm/software/lorrax_C/src/bse/bse_lanczos.py" source_line=156}
  %select.118 = f64[] select(%compare.50, %constant.26, %select.117), metadata={op_name="jit(_full_run)/jit(main)/sqrt" source_file="/global/homes/j/jackm/software/lorrax_C/src/bse/bse_lanczos.py" source_line=156}
  %multiply.119 = f64[] multiply(%sqrt.106, %select.118), metadata={op_name="jit(_full_run)/jit(main)/sqrt" source_file="/global/homes/j/jackm/software/lorrax_C/src/bse/bse_lanczos.py" source_line=156}
  %multiply.120 = f64[] multiply(%sqrt.103, %constant.27), metadata={op_name="jit(_full_run)/jit(main)/sqrt" source_file="/global/homes/j/jackm/software/lorrax_C/src/bse/bse_lanczos.py" source_line=156}
  %divide.121 = f64[] divide(%multiply.119, %multiply.120), metadata={op_name="jit(_full_run)/jit(main)/sqrt" source_file="/global/homes/j/jackm/software/lorrax_C/src/bse/bse_lanczos.py" source_line=156}
  %multiply.122 = f64[] multiply(%sqrt.108, %constant.27), metadata={op_name="jit(_full_run)/jit(main)/sqrt" source_file="/global/homes/j/jackm/software/lorrax_C/src/bse/bse_lanczos.py" source_line=156}
  %divide.123 = f64[] divide(%sqrt.106, %multiply.122), metadata={op_name="jit(_full_run)/jit(main)/sqrt" source_file="/global/homes/j/jackm/software/lorrax_C/src/bse/bse_lanczos.py" source_line=156}
  %select.124 = f64[] select(%compare.78, %divide.121, %divide.123), metadata={op_name="jit(_full_run)/jit(main)/sqrt" source_file="/global/homes/j/jackm/software/lorrax_C/src/bse/bse_lanczos.py" source_line=156}
  %multiply.125 = f64[] multiply(%sqrt.74, %constant.25), metadata={op_name="jit(_full_run)/jit(main)/sqrt" source_file="/global/homes/j/jackm/software/lorrax_C/src/bse/bse_lanczos.py" source_line=156}
  %divide.126 = f64[] divide(%abs.49, %multiply.125), metadata={op_name="jit(_full_run)/jit(main)/sqrt" source_file="/global/homes/j/jackm/software/lorrax_C/src/bse/bse_lanczos.py" source_line=156}
  %select.127 = f64[] select(%or.77, %select.124, %divide.126), metadata={op_name="jit(_full_run)/jit(main)/sqrt" source_file="/global/homes/j/jackm/software/lorrax_C/src/bse/bse_lanczos.py" source_line=156}
  %select.128 = f64[] select(%compare.50, %divide.114, %select.127), metadata={op_name="jit(_full_run)/jit(main)/sqrt" source_file="/global/homes/j/jackm/software/lorrax_C/src/bse/bse_lanczos.py" source_line=156}
  %select.129 = f64[] select(%compare.46, %select.113, %select.128), metadata={op_name="jit(_full_run)/jit(main)/sqrt" source_file="/global/homes/j/jackm/software/lorrax_C/src/bse/bse_lanczos.py" source_line=156}
  %compare.130 = pred[] compare(%real.45, %constant.30), direction=LT, metadata={op_name="jit(_full_run)/jit(main)/sqrt" source_file="/global/homes/j/jackm/software/lorrax_C/src/bse/bse_lanczos.py" source_line=156}
  %compare.131 = pred[] compare(%imag.48, %constant.30), direction=LT, metadata={op_name="jit(_full_run)/jit(main)/sqrt" source_file="/global/homes/j/jackm/software/lorrax_C/src/bse/bse_lanczos.py" source_line=156}
  %negate.132 = f64[] negate(%select.113), metadata={op_name="jit(_full_run)/jit(main)/sqrt" source_file="/global/homes/j/jackm/software/lorrax_C/src/bse/bse_lanczos.py" source_line=156}
  %select.133 = f64[] select(%compare.131, %negate.132, %select.113), metadata={op_name="jit(_full_run)/jit(main)/sqrt" source_file="/global/homes/j/jackm/software/lorrax_C/src/bse/bse_lanczos.py" source_line=156}
  %negate.134 = f64[] negate(%select.128), metadata={op_name="jit(_full_run)/jit(main)/sqrt" source_file="/global/homes/j/jackm/software/lorrax_C/src/bse/bse_lanczos.py" source_line=156}
  %select.135 = f64[] select(%compare.131, %negate.134, %select.128), metadata={op_name="jit(_full_run)/jit(main)/sqrt" source_file="/global/homes/j/jackm/software/lorrax_C/src/bse/bse_lanczos.py" source_line=156}
  %select.136 = f64[] select(%compare.130, %select.133, %select.135), metadata={op_name="jit(_full_run)/jit(main)/sqrt" source_file="/global/homes/j/jackm/software/lorrax_C/src/bse/bse_lanczos.py" source_line=156}
  %complex.137 = c128[] complex(%select.129, %select.136), metadata={op_name="jit(_full_run)/jit(main)/sqrt" source_file="/global/homes/j/jackm/software/lorrax_C/src/bse/bse_lanczos.py" source_line=156}
  %broadcast.138 = c128[480,480,4,4,4]{4,3,2,1,0} broadcast(%complex.137), dimensions={}, metadata={op_name="jit(_full_run)/jit(main)/mul" source_file="/global/homes/j/jackm/software/lorrax_C/src/bse/bse_lanczos.py" source_line=156}
  %multiply.139 = c128[480,480,4,4,4]{4,3,2,1,0} multiply(%call.39, %broadcast.138), metadata={op_name="jit(_full_run)/jit(main)/mul" source_file="/global/homes/j/jackm/software/lorrax_C/src/bse/bse_lanczos.py" source_line=156}
  %custom-call.140 = c128[480,480,4,4,4]{4,3,2,1,0} custom-call(%multiply.139), custom_call_target="Sharding", sharding={devices=[2,2,1,1,1]<=[4]}, metadata={op_name="jit(_full_run)/jit(main)/sharding_constraint" source_file="/global/homes/j/jackm/software/lorrax_C/src/bse/bse_lanczos.py" source_line=157}
  %Arg_7.8 = c128[480,480]{1,0} parameter(7), sharding={devices=[2,2]<=[4]}, metadata={op_name="V_q0"}
  %tuple.1283 = (s64[], s64[], c128[1024,200]{1,0}, f64[200]{0}, f64[200]{0}, /*index=5*/c128[1024]{0}, c128[64,4,2,480]{3,2,1,0}, c128[64,4,2,480]{3,2,1,0}, c128[64,4,2,480]{3,2,1,0}, c128[64,4,2,480]{3,2,1,0}, /*index=10*/f64[64,4]{1,0}, f64[64,4]{1,0}, c128[480,480,4,4,4]{4,3,2,1,0}, c128[480,480]{1,0}) tuple(%constant.29, %constant.29, %scatter.1282, %broadcast.16, %broadcast.16, /*index=5*/%divide.1278, %Arg_0.1, %Arg_1.2, %Arg_2.3, %Arg_3.4, /*index=10*/%Arg_4.5, %Arg_5.6, %custom-call.140, %Arg_7.8), metadata={op_name="jit(_full_run)/jit(main)/while" source_file="/global/homes/j/jackm/software/lorrax_C/src/solvers/lanczos.py" source_line=286}
  %while.2179 = (s64[], s64[], c128[1024,200]{1,0}, f64[200]{0}, f64[200]{0}, /*index=5*/c128[1024]{0}, c128[64,4,2,480]{3,2,1,0}, c128[64,4,2,480]{3,2,1,0}, c128[64,4,2,480]{3,2,1,0}, c128[64,4,2,480]{3,2,1,0}, /*index=10*/f64[64,4]{1,0}, f64[64,4]{1,0}, c128[480,480,4,4,4]{4,3,2,1,0}, c128[480,480]{1,0}) while(%tuple.1283), condition=%region_23.2161, body=%region_3.2136, metadata={op_name="jit(_full_run)/jit(main)/while" source_file="/global/homes/j/jackm/software/lorrax_C/src/solvers/lanczos.py" source_line=286}
  %get-tuple-element.2180 = s64[] get-tuple-element(%while.2179), index=0, metadata={op_name="jit(_full_run)/jit(main)/while" source_file="/global/homes/j/jackm/software/lorrax_C/src/solvers/lanczos.py" source_line=286}
  %get-tuple-element.2181 = s64[] get-tuple-element(%while.2179), index=1, metadata={op_name="jit(_full_run)/jit(main)/while" source_file="/global/homes/j/jackm/software/lorrax_C/src/solvers/lanczos.py" source_line=286}
  %get-tuple-element.2185 = c128[1024]{0} get-tuple-element(%while.2179), index=5, metadata={op_name="jit(_full_run)/jit(main)/while" source_file="/global/homes/j/jackm/software/lorrax_C/src/solvers/lanczos.py" source_line=286}
  %get-tuple-element.2183 = f64[200]{0} get-tuple-element(%while.2179), index=3, metadata={op_name="jit(_full_run)/jit(main)/while" source_file="/global/homes/j/jackm/software/lorrax_C/src/solvers/lanczos.py" source_line=286}
  %call.2203 = f64[200,200]{1,0} call(%get-tuple-element.2183), to_apply=%_diag.2193
  %get-tuple-element.2184 = f64[200]{0} get-tuple-element(%while.2179), index=4, metadata={op_name="jit(_full_run)/jit(main)/while" source_file="/global/homes/j/jackm/software/lorrax_C/src/solvers/lanczos.py" source_line=286}
  %slice.2204 = f64[199]{0} slice(%get-tuple-element.2184), slice={[0:199]}, metadata={op_name="jit(_full_run)/jit(main)/slice" source_file="/global/homes/j/jackm/software/lorrax_C/src/solvers/lanczos.py" source_line=289}
  %call.2227 = f64[200,200]{1,0} call(%slice.2204), to_apply=%_diag_16.2212
  %add.2228 = f64[200,200]{1,0} add(%call.2203, %call.2227), metadata={op_name="jit(_full_run)/jit(main)/add" source_file="/global/homes/j/jackm/software/lorrax_C/src/solvers/lanczos.py" source_line=290}
  %call.2251 = f64[200,200]{1,0} call(%slice.2204), to_apply=%_diag_17.2236
  %add.2252 = f64[200,200]{1,0} add(%add.2228, %call.2251), metadata={op_name="jit(_full_run)/jit(main)/add" source_file="/global/homes/j/jackm/software/lorrax_C/src/solvers/lanczos.py" source_line=290}
  %call.2281 = (f64[200]{0}, f64[200,200]{1,0}) call(%add.2252), to_apply=%eigh.2253
  %get-tuple-element.2282 = f64[200]{0} get-tuple-element(%call.2281), index=0
  %call.2306 = s64[200]{0} call(%get-tuple-element.2282), to_apply=%argsort.2300
  %slice.2307 = s64[20]{0} slice(%call.2306), slice={[0:20]}, metadata={op_name="jit(_full_run)/jit(main)/slice" source_file="/global/homes/j/jackm/software/lorrax_C/src/solvers/lanczos.py" source_line=293}
  %constant.13 = s64[] constant(0)
  %broadcast.14 = s64[20]{0} broadcast(%constant.13), dimensions={}
  %compare.2308 = pred[20]{0} compare(%slice.2307, %broadcast.14), direction=LT, metadata={op_name="jit(_full_run)/jit(main)/lt" source_file="/global/homes/j/jackm/software/lorrax_C/src/solvers/lanczos.py" source_line=294}
  %constant.11 = s64[] constant(200)
  %broadcast.12 = s64[20]{0} broadcast(%constant.11), dimensions={}
  %add.2309 = s64[20]{0} add(%slice.2307, %broadcast.12), metadata={op_name="jit(_full_run)/jit(main)/add" source_file="/global/homes/j/jackm/software/lorrax_C/src/solvers/lanczos.py" source_line=294}
  %select.2310 = s64[20]{0} select(%compare.2308, %add.2309, %slice.2307), metadata={op_name="jit(_full_run)/jit(main)/select_n" source_file="/global/homes/j/jackm/software/lorrax_C/src/solvers/lanczos.py" source_line=294}
  %convert.2311 = s32[20]{0} convert(%select.2310), metadata={op_name="jit(_full_run)/jit(main)/convert_element_type" source_file="/global/homes/j/jackm/software/lorrax_C/src/solvers/lanczos.py" source_line=294}
  %reshape.2312 = s32[20,1]{1,0} reshape(%convert.2311), metadata={op_name="jit(_full_run)/jit(main)/broadcast_in_dim" source_file="/global/homes/j/jackm/software/lorrax_C/src/solvers/lanczos.py" source_line=294}
  %gather.2313 = f64[20]{0} gather(%get-tuple-element.2282, %reshape.2312), offset_dims={}, collapsed_slice_dims={0}, start_index_map={0}, index_vector_dim=1, slice_sizes={1}, metadata={op_name="jit(_full_run)/jit(main)/gather" source_file="/global/homes/j/jackm/software/lorrax_C/src/solvers/lanczos.py" source_line=294}
  %get-tuple-element.2182 = c128[1024,200]{1,0} get-tuple-element(%while.2179), index=2, metadata={op_name="jit(_full_run)/jit(main)/while" source_file="/global/homes/j/jackm/software/lorrax_C/src/solvers/lanczos.py" source_line=286}
  %get-tuple-element.2283 = f64[200,200]{1,0} get-tuple-element(%call.2281), index=1
  %compare.2314 = pred[20]{0} compare(%slice.2307, %broadcast.14), direction=LT, metadata={op_name="jit(_full_run)/jit(main)/lt" source_file="/global/homes/j/jackm/software/lorrax_C/src/solvers/lanczos.py" source_line=296}
  %add.2315 = s64[20]{0} add(%slice.2307, %broadcast.12), metadata={op_name="jit(_full_run)/jit(main)/add" source_file="/global/homes/j/jackm/software/lorrax_C/src/solvers/lanczos.py" source_line=296}
  %select.2316 = s64[20]{0} select(%compare.2314, %add.2315, %slice.2307), metadata={op_name="jit(_full_run)/jit(main)/select_n" source_file="/global/homes/j/jackm/software/lorrax_C/src/solvers/lanczos.py" source_line=296}
  %convert.2317 = s32[20]{0} convert(%select.2316), metadata={op_name="jit(_full_run)/jit(main)/convert_element_type" source_file="/global/homes/j/jackm/software/lorrax_C/src/solvers/lanczos.py" source_line=296}
  %reshape.2318 = s32[20,1]{1,0} reshape(%convert.2317), metadata={op_name="jit(_full_run)/jit(main)/broadcast_in_dim" source_file="/global/homes/j/jackm/software/lorrax_C/src/solvers/lanczos.py" source_line=296}
  %gather.2319 = f64[200,20]{1,0} gather(%get-tuple-element.2283, %reshape.2318), offset_dims={0}, collapsed_slice_dims={1}, start_index_map={1}, index_vector_dim=1, slice_sizes={200,1}, metadata={op_name="jit(_full_run)/jit(main)/gather" source_file="/global/homes/j/jackm/software/lorrax_C/src/solvers/lanczos.py" source_line=296}
  %convert.2320 = c128[200,20]{1,0} convert(%gather.2319), metadata={op_name="jit(_full_run)/jit(main)/dot_general" source_file="/global/homes/j/jackm/software/lorrax_C/src/solvers/lanczos.py" source_line=296}
  %dot.2321 = c128[1024,20]{1,0} dot(%get-tuple-element.2182, %convert.2320), lhs_contracting_dims={1}, rhs_contracting_dims={0}, metadata={op_name="jit(_full_run)/jit(main)/dot_general" source_file="/global/homes/j/jackm/software/lorrax_C/src/solvers/lanczos.py" source_line=296}
  %transpose.2322 = c128[20,1024]{0,1} transpose(%dot.2321), dimensions={1,0}, metadata={op_name="jit(_full_run)/jit(main)/transpose" source_file="/global/homes/j/jackm/software/lorrax_C/src/solvers/lanczos.py" source_line=296}
  %call.2339 = f64[20,1]{1,0} call(%transpose.2322), to_apply=%norm_18.2327
  %constant.9 = f64[] constant(1e-15)
  %broadcast.10 = f64[20,1]{1,0} broadcast(%constant.9), dimensions={}
  %maximum.2340 = f64[20,1]{1,0} maximum(%call.2339, %broadcast.10), metadata={op_name="jit(_full_run)/jit(main)/max" source_file="/global/homes/j/jackm/software/lorrax_C/src/solvers/lanczos.py" source_line=298}
  %convert.2341 = c128[20,1]{1,0} convert(%maximum.2340), metadata={op_name="jit(_full_run)/jit(main)/convert_element_type" source_file="/global/homes/j/jackm/software/lorrax_C/src/solvers/lanczos.py" source_line=298}
  %broadcast.2342 = c128[20,1]{1,0} broadcast(%convert.2341), dimensions={0,1}, metadata={op_name="jit(_full_run)/jit(main)/div" source_file="/global/homes/j/jackm/software/lorrax_C/src/solvers/lanczos.py" source_line=298}
  %reshape.2343 = c128[20]{0} reshape(%broadcast.2342), metadata={op_name="jit(_full_run)/jit(main)/div" source_file="/global/homes/j/jackm/software/lorrax_C/src/solvers/lanczos.py" source_line=298}
  %broadcast.2344 = c128[20,1024]{1,0} broadcast(%reshape.2343), dimensions={0}, metadata={op_name="jit(_full_run)/jit(main)/div" source_file="/global/homes/j/jackm/software/lorrax_C/src/solvers/lanczos.py" source_line=298}
  %divide.2345 = c128[20,1024]{0,1} divide(%transpose.2322, %broadcast.2344), metadata={op_name="jit(_full_run)/jit(main)/div" source_file="/global/homes/j/jackm/software/lorrax_C/src/solvers/lanczos.py" source_line=298}
  ROOT %tuple.2346 = (f64[20]{0}, c128[20,1024]{0,1}) tuple(%gather.2313, %divide.2345)
}

