HloModule jit__full_run, is_scheduled=true, entry_computation_layout={(c128[64,4,2,240]{3,2,1,0}, c128[64,4,2,240]{3,2,1,0}, c128[64,4,2,240]{3,2,1,0}, c128[64,4,2,240]{3,2,1,0}, f64[64,4]{1,0}, /*index=5*/f64[64,4]{1,0}, c128[240,240,4,4,4]{4,3,2,1,0}, c128[240,240]{1,0})->(f64[20]{0}, c128[20,512]{1,0})}, allow_spmd_sharding_propagation_to_parameters={false,false,false,false,true,true,false,false}, allow_spmd_sharding_propagation_to_output={true,true}, num_partitions=4, frontend_attributes={fingerprint_before_lhs="4a624dcc4ee8e87e069aa21edc8fa745"}

%region_7.1398 (Arg_0.1399: c128[], Arg_1.1400: c128[]) -> c128[] {
  %Arg_1.1400 = c128[] parameter(1), metadata={op_name="jit(_full_run)/jit(main)/while/body/jit(_matvec_impl)/jit(shmap_body)/while/body/reduce_sum" scheduling_name="Arg_1.1400"}
  %Arg_0.1399 = c128[] parameter(0), metadata={op_name="jit(_full_run)/jit(main)/while/body/jit(_matvec_impl)/jit(shmap_body)/while/body/reduce_sum" scheduling_name="Arg_0.1399"}
  ROOT %add.1502 = c128[] add(%Arg_0.1399, %Arg_1.1400), metadata={op_name="jit(_full_run)/jit(main)/while/body/jit(_matvec_impl)/jit(shmap_body)/while/body/reduce_sum" source_file="/global/homes/j/jackm/software/lorrax_C/src/bse/bse_ring_comm.py" source_line=277 scheduling_name="add.1502"}
}

%fused_transpose (param_0.2: c128[1,2,240,64], param_1.23: c128[64,2,2,240], param_2.20: c128[64,2,480]) -> c128[1,2,240,64] {
  %param_0.2 = c128[1,2,240,64]{3,2,1,0} parameter(0), metadata={scheduling_name="param_0.2"}
  %param_2.20 = c128[64,2,480]{2,1,0} parameter(2), metadata={scheduling_name="param_2.20"}
  %bitcast.6934.5 = c128[1,64,2,2,240]{4,3,2,1,0} bitcast(%param_2.20), metadata={scheduling_name="bitcast.6934.5"}
  %param_1.23 = c128[64,2,2,240]{3,2,1,0} parameter(1), metadata={scheduling_name="param_1.23"}
  %real.103.3 = f64[64,2,2,240]{3,2,1,0} real(%param_1.23), metadata={op_name="jit(_full_run)/jit(main)/while/body/jit(_matvec_impl)/jit(shmap_body)/while/body/real" source_file="/global/homes/j/jackm/software/lorrax_C/src/bse/bse_ring_comm.py" source_line=266 scheduling_name="real.103.3"}
  %imag.80.3 = f64[64,2,2,240]{3,2,1,0} imag(%param_1.23), metadata={op_name="jit(_full_run)/jit(main)/while/body/jit(_matvec_impl)/jit(shmap_body)/while/body/imag" source_file="/global/homes/j/jackm/software/lorrax_C/src/bse/bse_ring_comm.py" source_line=266 scheduling_name="imag.80.3"}
  %negate.162.3 = f64[64,2,2,240]{3,2,1,0} negate(%imag.80.3), metadata={op_name="jit(_full_run)/jit(main)/while/body/jit(_matvec_impl)/jit(shmap_body)/while/body/neg" source_file="/global/homes/j/jackm/software/lorrax_C/src/bse/bse_ring_comm.py" source_line=266 scheduling_name="negate.162.3"}
  %complex.79.5 = c128[64,2,2,240]{3,2,1,0} complex(%real.103.3, %negate.162.3), metadata={op_name="jit(_full_run)/jit(main)/while/body/jit(_matvec_impl)/jit(shmap_body)/while/body/complex" source_file="/global/homes/j/jackm/software/lorrax_C/src/bse/bse_ring_comm.py" source_line=266 scheduling_name="complex.79.5"}
  %bitcast.6944.5 = c128[1,64,2,2,240]{4,3,2,1,0} bitcast(%complex.79.5), metadata={scheduling_name="bitcast.6944.5"}
  %multiply.721.5 = c128[1,64,2,2,240]{4,3,2,1,0} multiply(%bitcast.6934.5, %bitcast.6944.5), metadata={scheduling_name="multiply.721.5"}
  %bitcast.6948.3 = c128[64,2,2,240]{3,2,1,0} bitcast(%multiply.721.5), metadata={scheduling_name="bitcast.6948.3"}
  %constant_1731_1 = c128[] constant((0, 0))
  %reduce.62.3 = c128[64,2,240]{2,1,0} reduce(%bitcast.6948.3, %constant_1731_1), dimensions={2}, to_apply=%region_7.1398, metadata={scheduling_name="reduce.62.3"}
  %bitcast.6952.3 = c128[64,480]{1,0} bitcast(%reduce.62.3), metadata={scheduling_name="bitcast.6952.3"}
  %transpose.201.3 = c128[480,64]{1,0} transpose(%bitcast.6952.3), dimensions={1,0}, metadata={op_name="jit(_full_run)/jit(main)/while/body/jit(_matvec_impl)/jit(shmap_body)/while/body/kcsN,bcksN->bcNk/dot_general" source_file="/global/homes/j/jackm/software/lorrax_C/src/bse/bse_ring_comm.py" source_line=266 scheduling_name="transpose.201.3"}
  %bitcast.6955.1 = c128[1,2,240,64]{3,2,1,0} bitcast(%transpose.201.3), metadata={scheduling_name="bitcast.6955.1"}
  ROOT %add.1509.1 = c128[1,2,240,64]{3,2,1,0} add(%param_0.2, %bitcast.6955.1), metadata={op_name="jit(_full_run)/jit(main)/while/body/jit(_matvec_impl)/jit(shmap_body)/while/body/add" source_file="/global/homes/j/jackm/software/lorrax_C/src/bse/bse_ring_comm.py" source_line=266 scheduling_name="add.1509.1"}
}

%fused_dynamic_slice (param_0.13: c128[64,4,2,240], param_1.22: s32[], param_2.19: s64[]) -> c128[64,2,2,240] {
  %param_0.13 = c128[64,4,2,240]{3,2,1,0} parameter(0), metadata={scheduling_name="param_0.13"}
  %constant_1722_1 = s32[] constant(0), metadata={op_name="jit(_full_run)/jit(main)/while/body/jit(_matvec_impl)/jit(shmap_body)/while/body/select_n" source_file="/global/homes/j/jackm/software/lorrax_C/src/bse/bse_ring_comm.py" source_line=262}
  %param_1.22 = s32[] parameter(1), metadata={scheduling_name="param_1.22"}
  %param_2.19 = s64[] parameter(2), metadata={scheduling_name="param_2.19"}
  %convert.226.1 = s32[] convert(%param_2.19), metadata={op_name="jit(_full_run)/jit(main)/while/body/jit(_matvec_impl)/jit(shmap_body)/while/body/convert_element_type" source_file="/global/homes/j/jackm/software/lorrax_C/src/bse/bse_ring_comm.py" source_line=260 scheduling_name="convert.226.1"}
  %subtract.91.1 = s32[] subtract(%param_1.22, %convert.226.1), metadata={op_name="jit(_full_run)/jit(main)/while/body/jit(_matvec_impl)/jit(shmap_body)/while/body/sub" source_file="/global/homes/j/jackm/software/lorrax_C/src/bse/bse_ring_comm.py" source_line=260 scheduling_name="subtract.91.1"}
  %compare.526.1 = pred[] compare(%subtract.91.1, %constant_1722_1), direction=LT, metadata={op_name="jit(_full_run)/jit(main)/while/body/jit(_matvec_impl)/jit(shmap_body)/while/body/jit(remainder)/rem" source_file="/global/homes/j/jackm/software/lorrax_C/src/bse/bse_ring_comm.py" source_line=260 scheduling_name="compare.526.1"}
  %negate.160.1 = s32[] negate(%subtract.91.1), metadata={op_name="jit(_full_run)/jit(main)/while/body/jit(_matvec_impl)/jit(shmap_body)/while/body/jit(remainder)/rem" source_file="/global/homes/j/jackm/software/lorrax_C/src/bse/bse_ring_comm.py" source_line=260 scheduling_name="negate.160.1"}
  %select.944.1 = s32[] select(%compare.526.1, %negate.160.1, %subtract.91.1), metadata={op_name="jit(_full_run)/jit(main)/while/body/jit(_matvec_impl)/jit(shmap_body)/while/body/jit(remainder)/rem" source_file="/global/homes/j/jackm/software/lorrax_C/src/bse/bse_ring_comm.py" source_line=260 scheduling_name="select.944.1"}
  %constant_1724_1 = s32[] constant(1), metadata={op_name="jit(_full_run)/jit(main)/while/body/jit(_matvec_impl)/jit(shmap_body)/while/body/jit(remainder)/rem" source_file="/global/homes/j/jackm/software/lorrax_C/src/bse/bse_ring_comm.py" source_line=260}
  %and.124.1 = s32[] and(%select.944.1, %constant_1724_1), metadata={op_name="jit(_full_run)/jit(main)/while/body/jit(_matvec_impl)/jit(shmap_body)/while/body/jit(remainder)/rem" source_file="/global/homes/j/jackm/software/lorrax_C/src/bse/bse_ring_comm.py" source_line=260 scheduling_name="and.124.1"}
  %negate.161.1 = s32[] negate(%and.124.1), metadata={op_name="jit(_full_run)/jit(main)/while/body/jit(_matvec_impl)/jit(shmap_body)/while/body/jit(remainder)/rem" source_file="/global/homes/j/jackm/software/lorrax_C/src/bse/bse_ring_comm.py" source_line=260 scheduling_name="negate.161.1"}
  %select.945.1 = s32[] select(%compare.526.1, %negate.161.1, %and.124.1), metadata={op_name="jit(_full_run)/jit(main)/while/body/jit(_matvec_impl)/jit(shmap_body)/while/body/jit(remainder)/rem" source_file="/global/homes/j/jackm/software/lorrax_C/src/bse/bse_ring_comm.py" source_line=260 scheduling_name="select.945.1"}
  %compare.527.1 = pred[] compare(%select.945.1, %constant_1722_1), direction=LT, metadata={op_name="jit(_full_run)/jit(main)/while/body/jit(_matvec_impl)/jit(shmap_body)/while/body/jit(remainder)/lt" source_file="/global/homes/j/jackm/software/lorrax_C/src/bse/bse_ring_comm.py" source_line=260 scheduling_name="compare.527.1"}
  %compare.528.1 = pred[] compare(%select.945.1, %constant_1722_1), direction=NE, metadata={op_name="jit(_full_run)/jit(main)/while/body/jit(_matvec_impl)/jit(shmap_body)/while/body/jit(remainder)/ne" source_file="/global/homes/j/jackm/software/lorrax_C/src/bse/bse_ring_comm.py" source_line=260 scheduling_name="compare.528.1"}
  %and.125.1 = pred[] and(%compare.527.1, %compare.528.1), metadata={op_name="jit(_full_run)/jit(main)/while/body/jit(_matvec_impl)/jit(shmap_body)/while/body/jit(remainder)/and" source_file="/global/homes/j/jackm/software/lorrax_C/src/bse/bse_ring_comm.py" source_line=260 scheduling_name="and.125.1"}
  %constant_1727_1 = s32[] constant(2), metadata={op_name="jit(_full_run)/jit(main)/while/body/jit(_matvec_impl)/jit(shmap_body)/while/body/jit(remainder)/jit(_where)/select_n" source_file="/global/homes/j/jackm/software/lorrax_C/src/bse/bse_ring_comm.py" source_line=260}
  %add.1507.1 = s32[] add(%select.945.1, %constant_1727_1), metadata={op_name="jit(_full_run)/jit(main)/while/body/jit(_matvec_impl)/jit(shmap_body)/while/body/jit(remainder)/add" source_file="/global/homes/j/jackm/software/lorrax_C/src/bse/bse_ring_comm.py" source_line=260 scheduling_name="add.1507.1"}
  %select.946.1 = s32[] select(%and.125.1, %add.1507.1, %select.945.1), metadata={op_name="jit(_full_run)/jit(main)/while/body/jit(_matvec_impl)/jit(shmap_body)/while/body/jit(remainder)/select_n" source_file="/global/homes/j/jackm/software/lorrax_C/src/bse/bse_ring_comm.py" source_line=260 scheduling_name="select.946.1"}
  %multiply.719.1 = s32[] multiply(%select.946.1, %constant_1727_1), metadata={op_name="jit(_full_run)/jit(main)/while/body/jit(_matvec_impl)/jit(shmap_body)/while/body/mul" source_file="/global/homes/j/jackm/software/lorrax_C/src/bse/bse_ring_comm.py" source_line=261 scheduling_name="multiply.719.1"}
  %compare.529.1 = pred[] compare(%multiply.719.1, %constant_1722_1), direction=LT, metadata={op_name="jit(_full_run)/jit(main)/while/body/jit(_matvec_impl)/jit(shmap_body)/while/body/lt" source_file="/global/homes/j/jackm/software/lorrax_C/src/bse/bse_ring_comm.py" source_line=262 scheduling_name="compare.529.1"}
  %constant_1730_1 = s32[] constant(4)
  %add.1508.1 = s32[] add(%multiply.719.1, %constant_1730_1), metadata={op_name="jit(_full_run)/jit(main)/while/body/jit(_matvec_impl)/jit(shmap_body)/while/body/add" source_file="/global/homes/j/jackm/software/lorrax_C/src/bse/bse_ring_comm.py" source_line=262 scheduling_name="add.1508.1"}
  %select.947.1 = s32[] select(%compare.529.1, %add.1508.1, %multiply.719.1), metadata={op_name="jit(_full_run)/jit(main)/while/body/jit(_matvec_impl)/jit(shmap_body)/while/body/select_n" source_file="/global/homes/j/jackm/software/lorrax_C/src/bse/bse_ring_comm.py" source_line=262 scheduling_name="select.947.1"}
  ROOT %dynamic-slice.177.1 = c128[64,2,2,240]{3,2,1,0} dynamic-slice(%param_0.13, %constant_1722_1, %select.947.1, %constant_1722_1, %constant_1722_1), dynamic_slice_sizes={64,2,2,240}, metadata={op_name="jit(_full_run)/jit(main)/while/body/jit(_matvec_impl)/jit(shmap_body)/while/body/dynamic_slice" source_file="/global/homes/j/jackm/software/lorrax_C/src/bse/bse_ring_comm.py" source_line=262 scheduling_name="dynamic-slice.177.1"}
}

%fused_add (param_0.14: s64[]) -> s64[] {
  %param_0.14 = s64[] parameter(0), metadata={scheduling_name="param_0.14"}
  %constant_1721_1 = s64[] constant(1)
  ROOT %add.1506.1 = s64[] add(%param_0.14, %constant_1721_1), metadata={op_name="jit(_full_run)/jit(main)/while/body/jit(_matvec_impl)/jit(shmap_body)/while/body/add" source_file="/global/homes/j/jackm/software/lorrax_C/src/bse/bse_ring_comm.py" source_line=270 scheduling_name="add.1506.1"}
}

%region_4.1370.clone.clone.clone.1_spmd (param.10.0: (s64[], c128[1,2,2,64], c128[1,2,240,64], s32[], c128[64,4,2,240], /*index=5*/c128[64,2,2,240])) -> (s64[], c128[1,2,2,64], c128[1,2,240,64], s32[], c128[64,4,2,240], /*index=5*/c128[64,2,2,240]) {
  %param.10.0 = (s64[], c128[1,2,2,64]{2,1,3,0}, c128[1,2,240,64]{3,2,1,0}, s32[], c128[64,4,2,240]{3,2,1,0}, /*index=5*/c128[64,2,2,240]{3,2,1,0}) parameter(0), metadata={scheduling_name="param.10.0"}
  %get-tuple-element.777 = c128[1,2,2,64]{2,1,3,0} get-tuple-element(%param.10.0), index=1, metadata={scheduling_name="get-tuple-element.777"}
  %copy.130 = c128[1,2,2,64]{2,1,3,0} copy(%get-tuple-element.777), metadata={scheduling_name="copy.130"}
  %collective-permute-start = (c128[1,2,2,64]{2,1,3,0}, c128[1,2,2,64]{2,1,3,0}) collective-permute-start(%copy.130), channel_id=1, source_target_pairs={{0,1},{1,0},{2,3},{3,2}}, metadata={op_name="jit(_full_run)/jit(main)/while/body/jit(_matvec_impl)/jit(shmap_body)/while/body/ppermute" source_file="/global/homes/j/jackm/software/lorrax_C/src/bse/bse_ring_comm.py" source_line=267 scheduling_name="collective-permute-start"}, backend_config={"operation_queue_id":"0","wait_on_operation_queues":[],"collective_backend_config":{"is_sync":false,"no_parallel_custom_call":false,"is_pipelined":false,"reification_cost":[]},"force_earliest_schedule":false}
  %get-tuple-element.776 = s64[] get-tuple-element(%param.10.0), index=0, metadata={scheduling_name="get-tuple-element.776"}
  %get-tuple-element.785 = s32[] get-tuple-element(%param.10.0), index=3, metadata={scheduling_name="get-tuple-element.785"}
  %get-tuple-element.786 = c128[64,4,2,240]{3,2,1,0} get-tuple-element(%param.10.0), index=4, metadata={scheduling_name="get-tuple-element.786"}
  %loop_dynamic_slice_fusion = c128[64,2,2,240]{3,2,1,0} fusion(%get-tuple-element.786, %get-tuple-element.785, %get-tuple-element.776), kind=kLoop, calls=%fused_dynamic_slice, metadata={op_name="jit(_full_run)/jit(main)/while/body/jit(_matvec_impl)/jit(shmap_body)/while/body/dynamic_slice" source_file="/global/homes/j/jackm/software/lorrax_C/src/bse/bse_ring_comm.py" source_line=262 deduplicated_name="loop_dynamic_slice_fusion" scheduling_name="loop_dynamic_slice_fusion"}
  %bitcast.6887.0 = c128[64,2,2]{2,1,0} bitcast(%copy.130), metadata={scheduling_name="bitcast.6887.0"}
  %bitcast.6931.0 = c128[64,2,480]{2,1,0} bitcast(%loop_dynamic_slice_fusion), metadata={scheduling_name="bitcast.6931.0"}
  %custom-call.222.0 = (c128[64,2,480]{2,1,0}, s8[987136]{0}) custom-call(%bitcast.6887.0, %bitcast.6931.0), custom_call_target="__cublas$gemm", metadata={op_name="jit(_full_run)/jit(main)/while/body/jit(_matvec_impl)/jit(shmap_body)/while/body/kvsN,bcvk->bcksN/dot_general" source_file="/global/homes/j/jackm/software/lorrax_C/src/bse/bse_ring_comm.py" source_line=265 scheduling_name="custom-call.222.0"}, backend_config={"operation_queue_id":"0","wait_on_operation_queues":[],"gemm_backend_config":{"alpha_real":1,"alpha_imag":0,"beta":0,"dot_dimension_numbers":{"lhs_contracting_dimensions":["2"],"rhs_contracting_dimensions":["1"],"lhs_batch_dimensions":["0"],"rhs_batch_dimensions":["0"]},"precision_config":{"operand_precision":["DEFAULT","DEFAULT"],"algorithm":"ALG_UNSET"},"epilogue":"DEFAULT","damax_output":false,"lhs_stride":"4","rhs_stride":"960","grad_x":false,"grad_y":false},"force_earliest_schedule":false}
  %get-tuple-element.787 = c128[64,2,2,240]{3,2,1,0} get-tuple-element(%param.10.0), index=5, metadata={scheduling_name="get-tuple-element.787"}
  %get-tuple-element.778 = c128[1,2,240,64]{3,2,1,0} get-tuple-element(%param.10.0), index=2, metadata={scheduling_name="get-tuple-element.778"}
  %get-tuple-element.717.0 = c128[64,2,480]{2,1,0} get-tuple-element(%custom-call.222.0), index=0, metadata={op_name="jit(_full_run)/jit(main)/while/body/jit(_matvec_impl)/jit(shmap_body)/while/body/kvsN,bcvk->bcksN/dot_general" source_file="/global/homes/j/jackm/software/lorrax_C/src/bse/bse_ring_comm.py" source_line=265 scheduling_name="get-tuple-element.717.0"}
  %input_transpose_fusion = c128[1,2,240,64]{3,2,1,0} fusion(%get-tuple-element.778, %get-tuple-element.787, %get-tuple-element.717.0), kind=kInput, calls=%fused_transpose, metadata={op_name="jit(_full_run)/jit(main)/while/body/jit(_matvec_impl)/jit(shmap_body)/while/body/add" source_file="/global/homes/j/jackm/software/lorrax_C/src/bse/bse_ring_comm.py" source_line=266 scheduling_name="input_transpose_fusion"}
  %loop_add_fusion = s64[] fusion(%get-tuple-element.776), kind=kLoop, calls=%fused_add, metadata={op_name="jit(_full_run)/jit(main)/while/body/jit(_matvec_impl)/jit(shmap_body)/while/body/add" source_file="/global/homes/j/jackm/software/lorrax_C/src/bse/bse_ring_comm.py" source_line=270 deduplicated_name="loop_add_fusion" scheduling_name="loop_add_fusion"}
  %collective-permute-done = c128[1,2,2,64]{2,1,3,0} collective-permute-done(%collective-permute-start), metadata={op_name="jit(_full_run)/jit(main)/while/body/jit(_matvec_impl)/jit(shmap_body)/while/body/ppermute" source_file="/global/homes/j/jackm/software/lorrax_C/src/bse/bse_ring_comm.py" source_line=267 scheduling_name="collective-permute-done"}
  ROOT %tuple.166 = (s64[], c128[1,2,2,64]{2,1,3,0}, c128[1,2,240,64]{3,2,1,0}, s32[], c128[64,4,2,240]{3,2,1,0}, /*index=5*/c128[64,2,2,240]{3,2,1,0}) tuple(%loop_add_fusion, %collective-permute-done, %input_transpose_fusion, %get-tuple-element.785, %get-tuple-element.786, /*index=5*/%get-tuple-element.787), metadata={scheduling_name="tuple.166"}
}

%fused_compare.1 (param_0.1: s64[]) -> pred[] {
  %param_0.1 = s64[] parameter(0), metadata={scheduling_name="param_0.1"}
  %constant_1719_1 = s64[] constant(2)
  ROOT %compare.525.1 = pred[] compare(%param_0.1, %constant_1719_1), direction=LT, metadata={op_name="jit(_full_run)/jit(main)/while/body/jit(_matvec_impl)/jit(shmap_body)/while/cond/lt" source_file="/global/homes/j/jackm/software/lorrax_C/src/bse/bse_ring_comm.py" source_line=270 scheduling_name="compare.525.1"}
}

%region_5.1387.clone.clone.1_spmd (param.9.0: (s64[], c128[1,2,2,64], c128[1,2,240,64], s32[], c128[64,4,2,240], /*index=5*/c128[64,2,2,240])) -> pred[] {
  %param.9.0 = (s64[], c128[1,2,2,64]{2,1,3,0}, c128[1,2,240,64]{3,2,1,0}, s32[], c128[64,4,2,240]{3,2,1,0}, /*index=5*/c128[64,2,2,240]{3,2,1,0}) parameter(0), metadata={scheduling_name="param.9.0"}
  %get-tuple-element.627.0 = s64[] get-tuple-element(%param.9.0), index=0, metadata={scheduling_name="get-tuple-element.627.0"}
  ROOT %loop_compare_fusion.1 = pred[] fusion(%get-tuple-element.627.0), kind=kLoop, calls=%fused_compare.1, metadata={op_name="jit(_full_run)/jit(main)/while/body/jit(_matvec_impl)/jit(shmap_body)/while/cond/lt" source_file="/global/homes/j/jackm/software/lorrax_C/src/bse/bse_ring_comm.py" source_line=270 deduplicated_name="loop_compare_fusion.1" scheduling_name="loop_compare_fusion.1"}
}

%fused_add.1 (param_0.16: c128[1,240,64], param_1.33: c128[1,2,240,64]) -> c128[1,240,64] {
  %param_0.16 = c128[1,240,64]{2,1,0} parameter(0), metadata={scheduling_name="param_0.16"}
  %param_1.33 = c128[1,2,240,64]{3,2,1,0} parameter(1), metadata={scheduling_name="param_1.33"}
  %bitcast.6975.3 = c128[2,240,64]{2,1,0} bitcast(%param_1.33), metadata={scheduling_name="bitcast.6975.3"}
  %constant_1734_1 = c128[] constant((0, 0))
  %reduce.61.3 = c128[240,64]{1,0} reduce(%bitcast.6975.3, %constant_1734_1), dimensions={0}, to_apply=%region_7.1398, metadata={op_name="jit(_full_run)/jit(main)/while/body/jit(_matvec_impl)/jit(shmap_body)/while/body/reduce_sum" source_file="/global/homes/j/jackm/software/lorrax_C/src/bse/bse_ring_comm.py" source_line=277 scheduling_name="reduce.61.3"}
  %bitcast.6979.1 = c128[1,240,64]{2,1,0} bitcast(%reduce.61.3), metadata={scheduling_name="bitcast.6979.1"}
  ROOT %add.1511.1 = c128[1,240,64]{2,1,0} add(%param_0.16, %bitcast.6979.1), metadata={op_name="jit(_full_run)/jit(main)/while/body/jit(_matvec_impl)/jit(shmap_body)/while/body/add" source_file="/global/homes/j/jackm/software/lorrax_C/src/bse/bse_ring_comm.py" source_line=277 scheduling_name="add.1511.1"}
}

%fused_add.2 (param_0.20: s64[]) -> s64[] {
  %param_0.20 = s64[] parameter(0), metadata={scheduling_name="param_0.20"}
  %constant_1733_1 = s64[] constant(1)
  ROOT %add.1510.1 = s64[] add(%param_0.20, %constant_1733_1), metadata={op_name="jit(_full_run)/jit(main)/while/body/jit(_matvec_impl)/jit(shmap_body)/while/body/add" source_file="/global/homes/j/jackm/software/lorrax_C/src/bse/bse_ring_comm.py" source_line=281 scheduling_name="add.1510.1"}
}

%region_6.1410_spmd (param.12.0: (s64[], c128[1,2,240,64], c128[1,240,64])) -> (s64[], c128[1,2,240,64], c128[1,240,64]) {
  %param.12.0 = (s64[], c128[1,2,240,64]{3,2,1,0}, c128[1,240,64]{2,1,0}) parameter(0), metadata={scheduling_name="param.12.0"}
  %get-tuple-element.792 = c128[1,2,240,64]{3,2,1,0} get-tuple-element(%param.12.0), index=1, metadata={scheduling_name="get-tuple-element.792"}
  %copy.139 = c128[1,2,240,64]{3,2,1,0} copy(%get-tuple-element.792), metadata={scheduling_name="copy.139"}
  %collective-permute-start.1 = (c128[1,2,240,64]{3,2,1,0}, c128[1,2,240,64]{3,2,1,0}) collective-permute-start(%copy.139), channel_id=2, source_target_pairs={{0,2},{2,0},{1,3},{3,1}}, metadata={op_name="jit(_full_run)/jit(main)/while/body/jit(_matvec_impl)/jit(shmap_body)/while/body/ppermute" source_file="/global/homes/j/jackm/software/lorrax_C/src/bse/bse_ring_comm.py" source_line=278 scheduling_name="collective-permute-start.1"}, backend_config={"operation_queue_id":"0","wait_on_operation_queues":[],"collective_backend_config":{"is_sync":false,"no_parallel_custom_call":true,"is_pipelined":false,"reification_cost":[]},"force_earliest_schedule":false}
  %get-tuple-element.791 = s64[] get-tuple-element(%param.12.0), index=0, metadata={scheduling_name="get-tuple-element.791"}
  %loop_add_fusion.2 = s64[] fusion(%get-tuple-element.791), kind=kLoop, calls=%fused_add.2, metadata={op_name="jit(_full_run)/jit(main)/while/body/jit(_matvec_impl)/jit(shmap_body)/while/body/add" source_file="/global/homes/j/jackm/software/lorrax_C/src/bse/bse_ring_comm.py" source_line=281 deduplicated_name="loop_add_fusion" scheduling_name="loop_add_fusion.2"}
  %get-tuple-element.793 = c128[1,240,64]{2,1,0} get-tuple-element(%param.12.0), index=2, metadata={scheduling_name="get-tuple-element.793"}
  %loop_add_fusion.1 = c128[1,240,64]{2,1,0} fusion(%get-tuple-element.793, %copy.139), kind=kLoop, calls=%fused_add.1, metadata={op_name="jit(_full_run)/jit(main)/while/body/jit(_matvec_impl)/jit(shmap_body)/while/body/add" source_file="/global/homes/j/jackm/software/lorrax_C/src/bse/bse_ring_comm.py" source_line=277 scheduling_name="loop_add_fusion.1"}
  %collective-permute-done.1 = c128[1,2,240,64]{3,2,1,0} collective-permute-done(%collective-permute-start.1), metadata={op_name="jit(_full_run)/jit(main)/while/body/jit(_matvec_impl)/jit(shmap_body)/while/body/ppermute" source_file="/global/homes/j/jackm/software/lorrax_C/src/bse/bse_ring_comm.py" source_line=278 scheduling_name="collective-permute-done.1"}
  ROOT %tuple.169 = (s64[], c128[1,2,240,64]{3,2,1,0}, c128[1,240,64]{2,1,0}) tuple(%loop_add_fusion.2, %collective-permute-done.1, %loop_add_fusion.1), metadata={scheduling_name="tuple.169"}
}

%fused_compare.2 (param_0.15: s64[]) -> pred[] {
  %param_0.15 = s64[] parameter(0), metadata={scheduling_name="param_0.15"}
  %constant_1732_1 = s64[] constant(2)
  ROOT %compare.530.1 = pred[] compare(%param_0.15, %constant_1732_1), direction=LT, metadata={op_name="jit(_full_run)/jit(main)/while/body/jit(_matvec_impl)/jit(shmap_body)/while/cond/lt" source_file="/global/homes/j/jackm/software/lorrax_C/src/bse/bse_ring_comm.py" source_line=281 scheduling_name="compare.530.1"}
}

%region_8.1421_spmd (param.11.0: (s64[], c128[1,2,240,64], c128[1,240,64])) -> pred[] {
  %param.11.0 = (s64[], c128[1,2,240,64]{3,2,1,0}, c128[1,240,64]{2,1,0}) parameter(0), metadata={scheduling_name="param.11.0"}
  %get-tuple-element.635.0 = s64[] get-tuple-element(%param.11.0), index=0, metadata={scheduling_name="get-tuple-element.635.0"}
  ROOT %loop_compare_fusion.2 = pred[] fusion(%get-tuple-element.635.0), kind=kLoop, calls=%fused_compare.2, metadata={op_name="jit(_full_run)/jit(main)/while/body/jit(_matvec_impl)/jit(shmap_body)/while/cond/lt" source_file="/global/homes/j/jackm/software/lorrax_C/src/bse/bse_ring_comm.py" source_line=281 deduplicated_name="loop_compare_fusion.1" scheduling_name="loop_compare_fusion.2"}
}

%fused_complex (param_0.34: c128[64,4,2,240], param_1.47: s32[], param_2.36: s64[]) -> c128[64,2,2,240] {
  %param_0.34 = c128[64,4,2,240]{3,2,1,0} parameter(0), metadata={scheduling_name="param_0.34"}
  %constant_1739_1 = s32[] constant(0)
  %param_1.47 = s32[] parameter(1), metadata={scheduling_name="param_1.47"}
  %param_2.36 = s64[] parameter(2), metadata={scheduling_name="param_2.36"}
  %convert.227.1 = s32[] convert(%param_2.36), metadata={op_name="jit(_full_run)/jit(main)/while/body/jit(_matvec_impl)/jit(shmap_body)/while/body/convert_element_type" source_file="/global/homes/j/jackm/software/lorrax_C/src/bse/bse_ring_comm.py" source_line=81 scheduling_name="convert.227.1"}
  %subtract.92.1 = s32[] subtract(%param_1.47, %convert.227.1), metadata={op_name="jit(_full_run)/jit(main)/while/body/jit(_matvec_impl)/jit(shmap_body)/while/body/sub" source_file="/global/homes/j/jackm/software/lorrax_C/src/bse/bse_ring_comm.py" source_line=81 scheduling_name="subtract.92.1"}
  %compare.532.1 = pred[] compare(%subtract.92.1, %constant_1739_1), direction=LT, metadata={op_name="jit(_full_run)/jit(main)/while/body/jit(_matvec_impl)/jit(shmap_body)/while/body/jit(remainder)/rem" source_file="/global/homes/j/jackm/software/lorrax_C/src/bse/bse_ring_comm.py" source_line=260 scheduling_name="compare.532.1"}
  %negate.163.1 = s32[] negate(%subtract.92.1), metadata={op_name="jit(_full_run)/jit(main)/while/body/jit(_matvec_impl)/jit(shmap_body)/while/body/jit(remainder)/rem" source_file="/global/homes/j/jackm/software/lorrax_C/src/bse/bse_ring_comm.py" source_line=260 scheduling_name="negate.163.1"}
  %select.948.1 = s32[] select(%compare.532.1, %negate.163.1, %subtract.92.1), metadata={op_name="jit(_full_run)/jit(main)/while/body/jit(_matvec_impl)/jit(shmap_body)/while/body/jit(remainder)/rem" source_file="/global/homes/j/jackm/software/lorrax_C/src/bse/bse_ring_comm.py" source_line=260 scheduling_name="select.948.1"}
  %constant_1741_1 = s32[] constant(1), metadata={op_name="jit(_full_run)/jit(main)/while/body/jit(_matvec_impl)/jit(shmap_body)/while/body/jit(remainder)/rem" source_file="/global/homes/j/jackm/software/lorrax_C/src/bse/bse_ring_comm.py" source_line=260}
  %and.126.1 = s32[] and(%select.948.1, %constant_1741_1), metadata={op_name="jit(_full_run)/jit(main)/while/body/jit(_matvec_impl)/jit(shmap_body)/while/body/jit(remainder)/rem" source_file="/global/homes/j/jackm/software/lorrax_C/src/bse/bse_ring_comm.py" source_line=260 scheduling_name="and.126.1"}
  %negate.164.1 = s32[] negate(%and.126.1), metadata={op_name="jit(_full_run)/jit(main)/while/body/jit(_matvec_impl)/jit(shmap_body)/while/body/jit(remainder)/rem" source_file="/global/homes/j/jackm/software/lorrax_C/src/bse/bse_ring_comm.py" source_line=260 scheduling_name="negate.164.1"}
  %select.949.1 = s32[] select(%compare.532.1, %negate.164.1, %and.126.1), metadata={op_name="jit(_full_run)/jit(main)/while/body/jit(_matvec_impl)/jit(shmap_body)/while/body/jit(remainder)/rem" source_file="/global/homes/j/jackm/software/lorrax_C/src/bse/bse_ring_comm.py" source_line=260 scheduling_name="select.949.1"}
  %compare.533.1 = pred[] compare(%select.949.1, %constant_1739_1), direction=LT, metadata={op_name="jit(_full_run)/jit(main)/while/body/jit(_matvec_impl)/jit(shmap_body)/while/body/jit(remainder)/lt" source_file="/global/homes/j/jackm/software/lorrax_C/src/bse/bse_ring_comm.py" source_line=260 scheduling_name="compare.533.1"}
  %compare.534.1 = pred[] compare(%select.949.1, %constant_1739_1), direction=NE, metadata={op_name="jit(_full_run)/jit(main)/while/body/jit(_matvec_impl)/jit(shmap_body)/while/body/jit(remainder)/ne" source_file="/global/homes/j/jackm/software/lorrax_C/src/bse/bse_ring_comm.py" source_line=260 scheduling_name="compare.534.1"}
  %and.127.1 = pred[] and(%compare.533.1, %compare.534.1), metadata={op_name="jit(_full_run)/jit(main)/while/body/jit(_matvec_impl)/jit(shmap_body)/while/body/jit(remainder)/and" source_file="/global/homes/j/jackm/software/lorrax_C/src/bse/bse_ring_comm.py" source_line=260 scheduling_name="and.127.1"}
  %constant_1744_1 = s32[] constant(2), metadata={op_name="jit(_full_run)/jit(main)/while/body/jit(_matvec_impl)/jit(shmap_body)/while/body/jit(remainder)/jit(_where)/select_n" source_file="/global/homes/j/jackm/software/lorrax_C/src/bse/bse_ring_comm.py" source_line=260}
  %add.1513.1 = s32[] add(%select.949.1, %constant_1744_1), metadata={op_name="jit(_full_run)/jit(main)/while/body/jit(_matvec_impl)/jit(shmap_body)/while/body/jit(remainder)/add" source_file="/global/homes/j/jackm/software/lorrax_C/src/bse/bse_ring_comm.py" source_line=260 scheduling_name="add.1513.1"}
  %select.950.1 = s32[] select(%and.127.1, %add.1513.1, %select.949.1), metadata={op_name="jit(_full_run)/jit(main)/while/body/jit(_matvec_impl)/jit(shmap_body)/while/body/jit(remainder)/select_n" source_file="/global/homes/j/jackm/software/lorrax_C/src/bse/bse_ring_comm.py" source_line=260 scheduling_name="select.950.1"}
  %multiply.722.1 = s32[] multiply(%select.950.1, %constant_1744_1), metadata={op_name="jit(_full_run)/jit(main)/while/body/jit(_matvec_impl)/jit(shmap_body)/while/body/mul" source_file="/global/homes/j/jackm/software/lorrax_C/src/bse/bse_ring_comm.py" source_line=82 scheduling_name="multiply.722.1"}
  %compare.535.1 = pred[] compare(%multiply.722.1, %constant_1739_1), direction=LT, metadata={op_name="jit(_full_run)/jit(main)/while/body/jit(_matvec_impl)/jit(shmap_body)/while/body/lt" source_file="/global/homes/j/jackm/software/lorrax_C/src/bse/bse_ring_comm.py" source_line=84 scheduling_name="compare.535.1"}
  %constant_1747_1 = s32[] constant(4)
  %add.1514.1 = s32[] add(%multiply.722.1, %constant_1747_1), metadata={op_name="jit(_full_run)/jit(main)/while/body/jit(_matvec_impl)/jit(shmap_body)/while/body/add" source_file="/global/homes/j/jackm/software/lorrax_C/src/bse/bse_ring_comm.py" source_line=84 scheduling_name="add.1514.1"}
  %select.951.1 = s32[] select(%compare.535.1, %add.1514.1, %multiply.722.1), metadata={op_name="jit(_full_run)/jit(main)/while/body/jit(_matvec_impl)/jit(shmap_body)/while/body/select_n" source_file="/global/homes/j/jackm/software/lorrax_C/src/bse/bse_ring_comm.py" source_line=84 scheduling_name="select.951.1"}
  %dynamic-slice.178.4 = c128[64,2,2,240]{3,2,1,0} dynamic-slice(%param_0.34, %constant_1739_1, %select.951.1, %constant_1739_1, %constant_1739_1), dynamic_slice_sizes={64,2,2,240}, metadata={op_name="jit(_full_run)/jit(main)/while/body/jit(_matvec_impl)/jit(shmap_body)/while/body/dynamic_slice" source_file="/global/homes/j/jackm/software/lorrax_C/src/bse/bse_ring_comm.py" source_line=84 scheduling_name="dynamic-slice.178.4"}
  %real.104.3 = f64[64,2,2,240]{3,2,1,0} real(%dynamic-slice.178.4), metadata={op_name="jit(_full_run)/jit(main)/while/body/jit(_matvec_impl)/jit(shmap_body)/while/body/real" source_file="/global/homes/j/jackm/software/lorrax_C/src/bse/bse_ring_comm.py" source_line=87 scheduling_name="real.104.3"}
  %imag.81.5 = f64[64,2,2,240]{3,2,1,0} imag(%dynamic-slice.178.4), metadata={op_name="jit(_full_run)/jit(main)/while/body/jit(_matvec_impl)/jit(shmap_body)/while/body/imag" source_file="/global/homes/j/jackm/software/lorrax_C/src/bse/bse_ring_comm.py" source_line=87 scheduling_name="imag.81.5"}
  %negate.165.3 = f64[64,2,2,240]{3,2,1,0} negate(%imag.81.5), metadata={op_name="jit(_full_run)/jit(main)/while/body/jit(_matvec_impl)/jit(shmap_body)/while/body/neg" source_file="/global/homes/j/jackm/software/lorrax_C/src/bse/bse_ring_comm.py" source_line=87 scheduling_name="negate.165.3"}
  ROOT %complex.80.1 = c128[64,2,2,240]{3,2,1,0} complex(%real.104.3, %negate.165.3), metadata={op_name="jit(_full_run)/jit(main)/while/body/jit(_matvec_impl)/jit(shmap_body)/while/body/complex" source_file="/global/homes/j/jackm/software/lorrax_C/src/bse/bse_ring_comm.py" source_line=87 scheduling_name="complex.80.1"}
}

%fused_add.3 (param_0.35: s64[]) -> s64[] {
  %param_0.35 = s64[] parameter(0), metadata={scheduling_name="param_0.35"}
  %constant_1738_1 = s64[] constant(1)
  ROOT %add.1512.1 = s64[] add(%param_0.35, %constant_1738_1), metadata={op_name="jit(_full_run)/jit(main)/while/body/jit(_matvec_impl)/jit(shmap_body)/while/body/add" source_file="/global/homes/j/jackm/software/lorrax_C/src/bse/bse_ring_comm.py" source_line=91 scheduling_name="add.1512.1"}
}

%region_11.1555.clone.clone.clone.1_spmd (param.14.0: (s64[], c128[1,2,2,64], c128[1,2,64,2,240], s32[], c128[64,4,2,240])) -> (s64[], c128[1,2,2,64], c128[1,2,64,2,240], s32[], c128[64,4,2,240]) {
  %param.14.0 = (s64[], c128[1,2,2,64]{2,1,3,0}, c128[1,2,64,2,240]{4,3,1,2,0}, s32[], c128[64,4,2,240]{3,2,1,0}) parameter(0), metadata={scheduling_name="param.14.0"}
  %get-tuple-element.746 = c128[1,2,2,64]{2,1,3,0} get-tuple-element(%param.14.0), index=1, metadata={scheduling_name="get-tuple-element.746"}
  %copy.112 = c128[1,2,2,64]{2,1,3,0} copy(%get-tuple-element.746), metadata={scheduling_name="copy.112"}
  %collective-permute-start.2 = (c128[1,2,2,64]{2,1,3,0}, c128[1,2,2,64]{2,1,3,0}) collective-permute-start(%copy.112), channel_id=5, source_target_pairs={{0,1},{1,0},{2,3},{3,2}}, metadata={op_name="jit(_full_run)/jit(main)/while/body/jit(_matvec_impl)/jit(shmap_body)/while/body/ppermute" source_file="/global/homes/j/jackm/software/lorrax_C/src/bse/bse_ring_comm.py" source_line=88 scheduling_name="collective-permute-start.2"}, backend_config={"operation_queue_id":"0","wait_on_operation_queues":[],"collective_backend_config":{"is_sync":false,"no_parallel_custom_call":false,"is_pipelined":false,"reification_cost":[]},"force_earliest_schedule":false}
  %get-tuple-element.745 = s64[] get-tuple-element(%param.14.0), index=0, metadata={scheduling_name="get-tuple-element.745"}
  %copy.111 = s64[] copy(%get-tuple-element.745), metadata={scheduling_name="copy.111"}
  %loop_add_fusion.3 = s64[] fusion(%copy.111), kind=kLoop, calls=%fused_add.3, metadata={op_name="jit(_full_run)/jit(main)/while/body/jit(_matvec_impl)/jit(shmap_body)/while/body/add" source_file="/global/homes/j/jackm/software/lorrax_C/src/bse/bse_ring_comm.py" source_line=91 deduplicated_name="loop_add_fusion" scheduling_name="loop_add_fusion.3"}
  %get-tuple-element.753 = s32[] get-tuple-element(%param.14.0), index=3, metadata={scheduling_name="get-tuple-element.753"}
  %get-tuple-element.754 = c128[64,4,2,240]{3,2,1,0} get-tuple-element(%param.14.0), index=4, metadata={scheduling_name="get-tuple-element.754"}
  %loop_complex_fusion = c128[64,2,2,240]{3,2,1,0} fusion(%get-tuple-element.754, %get-tuple-element.753, %copy.111), kind=kLoop, calls=%fused_complex, metadata={op_name="jit(_full_run)/jit(main)/while/body/jit(_matvec_impl)/jit(shmap_body)/while/body/complex" source_file="/global/homes/j/jackm/software/lorrax_C/src/bse/bse_ring_comm.py" source_line=87 scheduling_name="loop_complex_fusion"}
  %get-tuple-element.747 = c128[1,2,64,2,240]{4,3,1,2,0} get-tuple-element(%param.14.0), index=2, metadata={scheduling_name="get-tuple-element.747"}
  %bitcast.7051.0 = c128[64,2,480]{2,1,0} bitcast(%get-tuple-element.747), metadata={scheduling_name="bitcast.7051.0"}
  %bitcast.6997.0 = c128[64,2,2]{2,1,0} bitcast(%copy.112), metadata={scheduling_name="bitcast.6997.0"}
  %bitcast.7047.0 = c128[64,2,480]{2,1,0} bitcast(%loop_complex_fusion), metadata={scheduling_name="bitcast.7047.0"}
  %cublas-batch-gemm.2.0 = (c128[64,2,480]{2,1,0}, s8[1970176]{0}) custom-call(%bitcast.6997.0, %bitcast.7047.0, %bitcast.7051.0), custom_call_target="__cublas$gemm", output_to_operand_aliasing={{0}: (2, {})}, metadata={op_name="jit(_full_run)/jit(main)/while/body/jit(_matvec_impl)/jit(shmap_body)/while/body/kv sN,bcvk->bcksN/dot_general" source_file="/global/homes/j/jackm/software/lorrax_C/src/bse/bse_ring_comm.py" source_line=87 scheduling_name="cublas-batch-gemm.2.0"}, backend_config={"operation_queue_id":"0","wait_on_operation_queues":[],"gemm_backend_config":{"alpha_real":1,"alpha_imag":0,"beta":1,"dot_dimension_numbers":{"lhs_contracting_dimensions":["2"],"rhs_contracting_dimensions":["1"],"lhs_batch_dimensions":["0"],"rhs_batch_dimensions":["0"]},"precision_config":{"operand_precision":["DEFAULT","DEFAULT"],"algorithm":"ALG_UNSET"},"epilogue":"DEFAULT","damax_output":false,"lhs_stride":"4","rhs_stride":"960","grad_x":false,"grad_y":false},"force_earliest_schedule":false}
  %collective-permute-done.2 = c128[1,2,2,64]{2,1,3,0} collective-permute-done(%collective-permute-start.2), metadata={op_name="jit(_full_run)/jit(main)/while/body/jit(_matvec_impl)/jit(shmap_body)/while/body/ppermute" source_file="/global/homes/j/jackm/software/lorrax_C/src/bse/bse_ring_comm.py" source_line=88 scheduling_name="collective-permute-done.2"}
  %get-tuple-element.718.0 = c128[64,2,480]{2,1,0} get-tuple-element(%cublas-batch-gemm.2.0), index=0, metadata={op_name="jit(_full_run)/jit(main)/while/body/jit(_matvec_impl)/jit(shmap_body)/while/body/kv sN,bcvk->bcksN/dot_general" source_file="/global/homes/j/jackm/software/lorrax_C/src/bse/bse_ring_comm.py" source_line=87 scheduling_name="get-tuple-element.718.0"}
  %bitcast.7055.0 = c128[1,2,64,2,240]{4,3,1,2,0} bitcast(%get-tuple-element.718.0), metadata={scheduling_name="bitcast.7055.0"}
  ROOT %tuple.160 = (s64[], c128[1,2,2,64]{2,1,3,0}, c128[1,2,64,2,240]{4,3,1,2,0}, s32[], c128[64,4,2,240]{3,2,1,0}) tuple(%loop_add_fusion.3, %collective-permute-done.2, %bitcast.7055.0, %get-tuple-element.753, %get-tuple-element.754), metadata={scheduling_name="tuple.160"}
}

%fused_compare.3 (param_0.21: s64[]) -> pred[] {
  %param_0.21 = s64[] parameter(0), metadata={scheduling_name="param_0.21"}
  %constant_1735_1 = s64[] constant(2)
  ROOT %compare.531.1 = pred[] compare(%param_0.21, %constant_1735_1), direction=LT, metadata={op_name="jit(_full_run)/jit(main)/while/body/jit(_matvec_impl)/jit(shmap_body)/while/cond/lt" source_file="/global/homes/j/jackm/software/lorrax_C/src/bse/bse_ring_comm.py" source_line=91 scheduling_name="compare.531.1"}
}

%region_12.1570.clone.clone.1_spmd (param.13.0: (s64[], c128[1,2,2,64], c128[1,2,64,2,240], s32[], c128[64,4,2,240])) -> pred[] {
  %param.13.0 = (s64[], c128[1,2,2,64]{2,1,3,0}, c128[1,2,64,2,240]{4,3,1,2,0}, s32[], c128[64,4,2,240]{3,2,1,0}) parameter(0), metadata={scheduling_name="param.13.0"}
  %get-tuple-element.639.0 = s64[] get-tuple-element(%param.13.0), index=0, metadata={scheduling_name="get-tuple-element.639.0"}
  ROOT %loop_compare_fusion.3 = pred[] fusion(%get-tuple-element.639.0), kind=kLoop, calls=%fused_compare.3, metadata={op_name="jit(_full_run)/jit(main)/while/body/jit(_matvec_impl)/jit(shmap_body)/while/cond/lt" source_file="/global/homes/j/jackm/software/lorrax_C/src/bse/bse_ring_comm.py" source_line=91 deduplicated_name="loop_compare_fusion.1" scheduling_name="loop_compare_fusion.3"}
}

%fused_dynamic_slice.1 (param_0.37: c128[64,4,2,240], param_1.52: s32[], param_2.43: s64[]) -> c128[64,2,2,240] {
  %param_0.37 = c128[64,4,2,240]{3,2,1,0} parameter(0), metadata={scheduling_name="param_0.37"}
  %constant_1752_1 = s32[] constant(0)
  %param_1.52 = s32[] parameter(1), metadata={scheduling_name="param_1.52"}
  %param_2.43 = s64[] parameter(2), metadata={scheduling_name="param_2.43"}
  %convert.228.1 = s32[] convert(%param_2.43), metadata={op_name="jit(_full_run)/jit(main)/while/body/jit(_matvec_impl)/jit(shmap_body)/while/body/convert_element_type" source_file="/global/homes/j/jackm/software/lorrax_C/src/bse/bse_ring_comm.py" source_line=111 scheduling_name="convert.228.1"}
  %subtract.93.1 = s32[] subtract(%param_1.52, %convert.228.1), metadata={op_name="jit(_full_run)/jit(main)/while/body/jit(_matvec_impl)/jit(shmap_body)/while/body/sub" source_file="/global/homes/j/jackm/software/lorrax_C/src/bse/bse_ring_comm.py" source_line=111 scheduling_name="subtract.93.1"}
  %compare.537.1 = pred[] compare(%subtract.93.1, %constant_1752_1), direction=LT, metadata={op_name="jit(_full_run)/jit(main)/while/body/jit(_matvec_impl)/jit(shmap_body)/while/body/jit(remainder)/rem" source_file="/global/homes/j/jackm/software/lorrax_C/src/bse/bse_ring_comm.py" source_line=260 scheduling_name="compare.537.1"}
  %negate.166.1 = s32[] negate(%subtract.93.1), metadata={op_name="jit(_full_run)/jit(main)/while/body/jit(_matvec_impl)/jit(shmap_body)/while/body/jit(remainder)/rem" source_file="/global/homes/j/jackm/software/lorrax_C/src/bse/bse_ring_comm.py" source_line=260 scheduling_name="negate.166.1"}
  %select.952.1 = s32[] select(%compare.537.1, %negate.166.1, %subtract.93.1), metadata={op_name="jit(_full_run)/jit(main)/while/body/jit(_matvec_impl)/jit(shmap_body)/while/body/jit(remainder)/rem" source_file="/global/homes/j/jackm/software/lorrax_C/src/bse/bse_ring_comm.py" source_line=260 scheduling_name="select.952.1"}
  %constant_1754_1 = s32[] constant(1), metadata={op_name="jit(_full_run)/jit(main)/while/body/jit(_matvec_impl)/jit(shmap_body)/while/body/jit(remainder)/rem" source_file="/global/homes/j/jackm/software/lorrax_C/src/bse/bse_ring_comm.py" source_line=260}
  %and.128.1 = s32[] and(%select.952.1, %constant_1754_1), metadata={op_name="jit(_full_run)/jit(main)/while/body/jit(_matvec_impl)/jit(shmap_body)/while/body/jit(remainder)/rem" source_file="/global/homes/j/jackm/software/lorrax_C/src/bse/bse_ring_comm.py" source_line=260 scheduling_name="and.128.1"}
  %negate.167.1 = s32[] negate(%and.128.1), metadata={op_name="jit(_full_run)/jit(main)/while/body/jit(_matvec_impl)/jit(shmap_body)/while/body/jit(remainder)/rem" source_file="/global/homes/j/jackm/software/lorrax_C/src/bse/bse_ring_comm.py" source_line=260 scheduling_name="negate.167.1"}
  %select.953.1 = s32[] select(%compare.537.1, %negate.167.1, %and.128.1), metadata={op_name="jit(_full_run)/jit(main)/while/body/jit(_matvec_impl)/jit(shmap_body)/while/body/jit(remainder)/rem" source_file="/global/homes/j/jackm/software/lorrax_C/src/bse/bse_ring_comm.py" source_line=260 scheduling_name="select.953.1"}
  %compare.538.1 = pred[] compare(%select.953.1, %constant_1752_1), direction=LT, metadata={op_name="jit(_full_run)/jit(main)/while/body/jit(_matvec_impl)/jit(shmap_body)/while/body/jit(remainder)/lt" source_file="/global/homes/j/jackm/software/lorrax_C/src/bse/bse_ring_comm.py" source_line=260 scheduling_name="compare.538.1"}
  %compare.539.1 = pred[] compare(%select.953.1, %constant_1752_1), direction=NE, metadata={op_name="jit(_full_run)/jit(main)/while/body/jit(_matvec_impl)/jit(shmap_body)/while/body/jit(remainder)/ne" source_file="/global/homes/j/jackm/software/lorrax_C/src/bse/bse_ring_comm.py" source_line=260 scheduling_name="compare.539.1"}
  %and.129.1 = pred[] and(%compare.538.1, %compare.539.1), metadata={op_name="jit(_full_run)/jit(main)/while/body/jit(_matvec_impl)/jit(shmap_body)/while/body/jit(remainder)/and" source_file="/global/homes/j/jackm/software/lorrax_C/src/bse/bse_ring_comm.py" source_line=260 scheduling_name="and.129.1"}
  %constant_1757_1 = s32[] constant(2), metadata={op_name="jit(_full_run)/jit(main)/while/body/jit(_matvec_impl)/jit(shmap_body)/while/body/jit(remainder)/jit(_where)/select_n" source_file="/global/homes/j/jackm/software/lorrax_C/src/bse/bse_ring_comm.py" source_line=260}
  %add.1516.1 = s32[] add(%select.953.1, %constant_1757_1), metadata={op_name="jit(_full_run)/jit(main)/while/body/jit(_matvec_impl)/jit(shmap_body)/while/body/jit(remainder)/add" source_file="/global/homes/j/jackm/software/lorrax_C/src/bse/bse_ring_comm.py" source_line=260 scheduling_name="add.1516.1"}
  %select.954.1 = s32[] select(%and.129.1, %add.1516.1, %select.953.1), metadata={op_name="jit(_full_run)/jit(main)/while/body/jit(_matvec_impl)/jit(shmap_body)/while/body/jit(remainder)/select_n" source_file="/global/homes/j/jackm/software/lorrax_C/src/bse/bse_ring_comm.py" source_line=260 scheduling_name="select.954.1"}
  %multiply.723.1 = s32[] multiply(%select.954.1, %constant_1757_1), metadata={op_name="jit(_full_run)/jit(main)/while/body/jit(_matvec_impl)/jit(shmap_body)/while/body/mul" source_file="/global/homes/j/jackm/software/lorrax_C/src/bse/bse_ring_comm.py" source_line=112 scheduling_name="multiply.723.1"}
  %compare.540.1 = pred[] compare(%multiply.723.1, %constant_1752_1), direction=LT, metadata={op_name="jit(_full_run)/jit(main)/while/body/jit(_matvec_impl)/jit(shmap_body)/while/body/lt" source_file="/global/homes/j/jackm/software/lorrax_C/src/bse/bse_ring_comm.py" source_line=114 scheduling_name="compare.540.1"}
  %constant_1760_1 = s32[] constant(4)
  %add.1517.1 = s32[] add(%multiply.723.1, %constant_1760_1), metadata={op_name="jit(_full_run)/jit(main)/while/body/jit(_matvec_impl)/jit(shmap_body)/while/body/add" source_file="/global/homes/j/jackm/software/lorrax_C/src/bse/bse_ring_comm.py" source_line=114 scheduling_name="add.1517.1"}
  %select.955.1 = s32[] select(%compare.540.1, %add.1517.1, %multiply.723.1), metadata={op_name="jit(_full_run)/jit(main)/while/body/jit(_matvec_impl)/jit(shmap_body)/while/body/select_n" source_file="/global/homes/j/jackm/software/lorrax_C/src/bse/bse_ring_comm.py" source_line=114 scheduling_name="select.955.1"}
  ROOT %dynamic-slice.179.1 = c128[64,2,2,240]{3,2,1,0} dynamic-slice(%param_0.37, %constant_1752_1, %select.955.1, %constant_1752_1, %constant_1752_1), dynamic_slice_sizes={64,2,2,240}, metadata={op_name="jit(_full_run)/jit(main)/while/body/jit(_matvec_impl)/jit(shmap_body)/while/body/dynamic_slice" source_file="/global/homes/j/jackm/software/lorrax_C/src/bse/bse_ring_comm.py" source_line=114 scheduling_name="dynamic-slice.179.1"}
}

%fused_add.4 (param_0.38: s64[]) -> s64[] {
  %param_0.38 = s64[] parameter(0), metadata={scheduling_name="param_0.38"}
  %constant_1751_1 = s64[] constant(1)
  ROOT %add.1515.1 = s64[] add(%param_0.38, %constant_1751_1), metadata={op_name="jit(_full_run)/jit(main)/while/body/jit(_matvec_impl)/jit(shmap_body)/while/body/add" source_file="/global/homes/j/jackm/software/lorrax_C/src/bse/bse_ring_comm.py" source_line=121 scheduling_name="add.1515.1"}
}

%region_13.1626.clone.clone.clone.1_spmd (param.16.0: (s64[], c128[1,2,64,2,240], c128[1,240,240,2,2,64], s32[], c128[64,4,2,240])) -> (s64[], c128[1,2,64,2,240], c128[1,240,240,2,2,64], s32[], c128[64,4,2,240]) {
  %param.16.0 = (s64[], c128[1,2,64,2,240]{1,4,3,2,0}, c128[1,240,240,2,2,64]{1,3,2,4,5,0}, s32[], c128[64,4,2,240]{3,2,1,0}) parameter(0), metadata={scheduling_name="param.16.0"}
  %get-tuple-element.761 = c128[1,2,64,2,240]{1,4,3,2,0} get-tuple-element(%param.16.0), index=1, metadata={scheduling_name="get-tuple-element.761"}
  %copy.121 = c128[1,2,64,2,240]{1,4,3,2,0} copy(%get-tuple-element.761), metadata={scheduling_name="copy.121"}
  %collective-permute-start.3 = (c128[1,2,64,2,240]{1,4,3,2,0}, c128[1,2,64,2,240]{1,4,3,2,0}) collective-permute-start(%copy.121), channel_id=6, source_target_pairs={{0,2},{2,0},{1,3},{3,1}}, metadata={op_name="jit(_full_run)/jit(main)/while/body/jit(_matvec_impl)/jit(shmap_body)/while/body/ppermute" source_file="/global/homes/j/jackm/software/lorrax_C/src/bse/bse_ring_comm.py" source_line=118 scheduling_name="collective-permute-start.3"}, backend_config={"operation_queue_id":"0","wait_on_operation_queues":[],"collective_backend_config":{"is_sync":false,"no_parallel_custom_call":false,"is_pipelined":false,"reification_cost":[]},"force_earliest_schedule":false}
  %get-tuple-element.760 = s64[] get-tuple-element(%param.16.0), index=0, metadata={scheduling_name="get-tuple-element.760"}
  %copy.120 = s64[] copy(%get-tuple-element.760), metadata={scheduling_name="copy.120"}
  %loop_add_fusion.4 = s64[] fusion(%copy.120), kind=kLoop, calls=%fused_add.4, metadata={op_name="jit(_full_run)/jit(main)/while/body/jit(_matvec_impl)/jit(shmap_body)/while/body/add" source_file="/global/homes/j/jackm/software/lorrax_C/src/bse/bse_ring_comm.py" source_line=121 deduplicated_name="loop_add_fusion" scheduling_name="loop_add_fusion.4"}
  %get-tuple-element.768 = s32[] get-tuple-element(%param.16.0), index=3, metadata={scheduling_name="get-tuple-element.768"}
  %get-tuple-element.769 = c128[64,4,2,240]{3,2,1,0} get-tuple-element(%param.16.0), index=4, metadata={scheduling_name="get-tuple-element.769"}
  %loop_dynamic_slice_fusion.1 = c128[64,2,2,240]{3,2,1,0} fusion(%get-tuple-element.769, %get-tuple-element.768, %copy.120), kind=kLoop, calls=%fused_dynamic_slice.1, metadata={op_name="jit(_full_run)/jit(main)/while/body/jit(_matvec_impl)/jit(shmap_body)/while/body/dynamic_slice" source_file="/global/homes/j/jackm/software/lorrax_C/src/bse/bse_ring_comm.py" source_line=114 deduplicated_name="loop_dynamic_slice_fusion" scheduling_name="loop_dynamic_slice_fusion.1"}
  %get-tuple-element.762 = c128[1,240,240,2,2,64]{1,3,2,4,5,0} get-tuple-element(%param.16.0), index=2, metadata={scheduling_name="get-tuple-element.762"}
  %bitcast.7119.0 = c128[64,480,480]{2,1,0} bitcast(%get-tuple-element.762), metadata={scheduling_name="bitcast.7119.0"}
  %bitcast.7115.0 = c128[64,2,480]{2,1,0} bitcast(%loop_dynamic_slice_fusion.1), metadata={scheduling_name="bitcast.7115.0"}
  %bitcast.7071.0 = c128[64,480,2]{2,1,0} bitcast(%copy.121), metadata={scheduling_name="bitcast.7071.0"}
  %cublas-batch-gemm.5.0 = (c128[64,480,480]{2,1,0}, s8[4194304]{0}) custom-call(%bitcast.7071.0, %bitcast.7115.0, %bitcast.7119.0), custom_call_target="__cublas$gemm", output_to_operand_aliasing={{0}: (2, {})}, metadata={op_name="jit(_full_run)/jit(main)/while/body/jit(_matvec_impl)/jit(shmap_body)/while/body/kctM,bcksN->bMNtsk/dot_general" source_file="/global/homes/j/jackm/software/lorrax_C/src/bse/bse_ring_comm.py" source_line=117 scheduling_name="cublas-batch-gemm.5.0"}, backend_config={"operation_queue_id":"0","wait_on_operation_queues":[],"gemm_backend_config":{"alpha_real":1,"alpha_imag":0,"beta":1,"dot_dimension_numbers":{"lhs_contracting_dimensions":["2"],"rhs_contracting_dimensions":["1"],"lhs_batch_dimensions":["0"],"rhs_batch_dimensions":["0"]},"precision_config":{"operand_precision":["DEFAULT","DEFAULT"],"algorithm":"ALG_UNSET"},"epilogue":"DEFAULT","damax_output":false,"lhs_stride":"960","rhs_stride":"960","grad_x":false,"grad_y":false},"force_earliest_schedule":false}
  %collective-permute-done.3 = c128[1,2,64,2,240]{1,4,3,2,0} collective-permute-done(%collective-permute-start.3), metadata={op_name="jit(_full_run)/jit(main)/while/body/jit(_matvec_impl)/jit(shmap_body)/while/body/ppermute" source_file="/global/homes/j/jackm/software/lorrax_C/src/bse/bse_ring_comm.py" source_line=118 scheduling_name="collective-permute-done.3"}
  %get-tuple-element.719.0 = c128[64,480,480]{2,1,0} get-tuple-element(%cublas-batch-gemm.5.0), index=0, metadata={op_name="jit(_full_run)/jit(main)/while/body/jit(_matvec_impl)/jit(shmap_body)/while/body/kctM,bcksN->bMNtsk/dot_general" source_file="/global/homes/j/jackm/software/lorrax_C/src/bse/bse_ring_comm.py" source_line=117 scheduling_name="get-tuple-element.719.0"}
  %bitcast.7123.0 = c128[1,240,240,2,2,64]{1,3,2,4,5,0} bitcast(%get-tuple-element.719.0), metadata={scheduling_name="bitcast.7123.0"}
  ROOT %tuple.163 = (s64[], c128[1,2,64,2,240]{1,4,3,2,0}, c128[1,240,240,2,2,64]{1,3,2,4,5,0}, s32[], c128[64,4,2,240]{3,2,1,0}) tuple(%loop_add_fusion.4, %collective-permute-done.3, %bitcast.7123.0, %get-tuple-element.768, %get-tuple-element.769), metadata={scheduling_name="tuple.163"}
}

%fused_compare.4 (param_0.36: s64[]) -> pred[] {
  %param_0.36 = s64[] parameter(0), metadata={scheduling_name="param_0.36"}
  %constant_1748_1 = s64[] constant(2)
  ROOT %compare.536.1 = pred[] compare(%param_0.36, %constant_1748_1), direction=LT, metadata={op_name="jit(_full_run)/jit(main)/while/body/jit(_matvec_impl)/jit(shmap_body)/while/cond/lt" source_file="/global/homes/j/jackm/software/lorrax_C/src/bse/bse_ring_comm.py" source_line=121 scheduling_name="compare.536.1"}
}

%region_14.1641.clone.clone.1_spmd (param.15.0: (s64[], c128[1,2,64,2,240], c128[1,240,240,2,2,64], s32[], c128[64,4,2,240])) -> pred[] {
  %param.15.0 = (s64[], c128[1,2,64,2,240]{1,4,3,2,0}, c128[1,240,240,2,2,64]{1,3,2,4,5,0}, s32[], c128[64,4,2,240]{3,2,1,0}) parameter(0), metadata={scheduling_name="param.15.0"}
  %get-tuple-element.646.0 = s64[] get-tuple-element(%param.15.0), index=0, metadata={scheduling_name="get-tuple-element.646.0"}
  ROOT %loop_compare_fusion.4 = pred[] fusion(%get-tuple-element.646.0), kind=kLoop, calls=%fused_compare.4, metadata={op_name="jit(_full_run)/jit(main)/while/body/jit(_matvec_impl)/jit(shmap_body)/while/cond/lt" source_file="/global/homes/j/jackm/software/lorrax_C/src/bse/bse_ring_comm.py" source_line=121 deduplicated_name="loop_compare_fusion.1" scheduling_name="loop_compare_fusion.4"}
}

%fused_subtract (param_0.39: c128[512], param_1.71: c128[512,200], param_2.67: s64[], param_3.52: c128[], param_4.47: s64[]) -> c128[512] {
  %param_0.39 = c128[512]{0} parameter(0), metadata={scheduling_name="param_0.39"}
  %param_2.67 = s64[] parameter(2), metadata={scheduling_name="param_2.67"}
  %param_4.47 = s64[] parameter(4), metadata={scheduling_name="param_4.47"}
  %compare.542.3 = pred[] compare(%param_2.67, %param_4.47), direction=LT, metadata={op_name="jit(_full_run)/jit(main)/while/body/while/body/lt" source_file="/global/homes/j/jackm/software/lorrax_C/src/solvers/lanczos.py" source_line=269 scheduling_name="compare.542.3"}
  %param_3.52 = c128[] parameter(3), metadata={scheduling_name="param_3.52"}
  %constant_1767_2 = c128[] constant((0, 0))
  %select.957.3 = c128[] select(%compare.542.3, %param_3.52, %constant_1767_2), metadata={op_name="jit(_full_run)/jit(main)/while/body/while/body/jit(_where)/select_n" source_file="/global/homes/j/jackm/software/lorrax_C/src/solvers/lanczos.py" source_line=271 scheduling_name="select.957.3"}
  %broadcast.2143.1 = c128[512,1]{1,0} broadcast(%select.957.3), dimensions={}, metadata={op_name="jit(_full_run)/jit(main)/while/body/while/body/mul" source_file="/global/homes/j/jackm/software/lorrax_C/src/solvers/lanczos.py" source_line=272 scheduling_name="broadcast.2143.1"}
  %param_1.71 = c128[512,200]{1,0} parameter(1), metadata={scheduling_name="param_1.71"}
  %constant_1764_2 = s64[] constant(0)
  %compare.543.2 = pred[] compare(%param_2.67, %constant_1764_2), direction=LT, metadata={op_name="jit(_full_run)/jit(main)/while/body/while/body/lt" source_file="/global/homes/j/jackm/software/lorrax_C/src/solvers/lanczos.py" source_line=270 scheduling_name="compare.543.2"}
  %constant_1765_1 = s64[] constant(200)
  %add.1523.2 = s64[] add(%param_2.67, %constant_1765_1), metadata={op_name="jit(_full_run)/jit(main)/while/body/while/body/add" source_file="/global/homes/j/jackm/software/lorrax_C/src/solvers/lanczos.py" source_line=270 scheduling_name="add.1523.2"}
  %select.956.1 = s64[] select(%compare.543.2, %add.1523.2, %param_2.67), metadata={op_name="jit(_full_run)/jit(main)/while/body/while/body/select_n" source_file="/global/homes/j/jackm/software/lorrax_C/src/solvers/lanczos.py" source_line=270 scheduling_name="select.956.1"}
  %dynamic-slice.180.3 = c128[512,1]{1,0} dynamic-slice(%param_1.71, %constant_1764_2, %select.956.1), dynamic_slice_sizes={512,1}, metadata={op_name="jit(_full_run)/jit(main)/while/body/while/body/dynamic_slice" source_file="/global/homes/j/jackm/software/lorrax_C/src/solvers/lanczos.py" source_line=270 scheduling_name="dynamic-slice.180.3"}
  %multiply.726.1 = c128[512,1]{1,0} multiply(%broadcast.2143.1, %dynamic-slice.180.3), metadata={op_name="jit(_full_run)/jit(main)/while/body/while/body/mul" source_file="/global/homes/j/jackm/software/lorrax_C/src/solvers/lanczos.py" source_line=272 scheduling_name="multiply.726.1"}
  %bitcast.7193.1 = c128[512]{0} bitcast(%multiply.726.1), metadata={scheduling_name="bitcast.7193.1"}
  ROOT %subtract.94.1 = c128[512]{0} subtract(%param_0.39, %bitcast.7193.1), metadata={op_name="jit(_full_run)/jit(main)/while/body/while/body/sub" source_file="/global/homes/j/jackm/software/lorrax_C/src/solvers/lanczos.py" source_line=272 scheduling_name="subtract.94.1"}
}

%fused_reduce (param_0.59: c128[512], param_1.77: c128[512,200], param_2.68: s64[]) -> c128[] {
  %param_1.77 = c128[512,200]{1,0} parameter(1), metadata={scheduling_name="param_1.77"}
  %constant_1764_1 = s64[] constant(0)
  %param_2.68 = s64[] parameter(2), metadata={scheduling_name="param_2.68"}
  %compare.543.4 = pred[] compare(%param_2.68, %constant_1764_1), direction=LT, metadata={op_name="jit(_full_run)/jit(main)/while/body/while/body/lt" source_file="/global/homes/j/jackm/software/lorrax_C/src/solvers/lanczos.py" source_line=270 scheduling_name="compare.543.4"}
  %constant_1765_2 = s64[] constant(200)
  %add.1523.4 = s64[] add(%param_2.68, %constant_1765_2), metadata={op_name="jit(_full_run)/jit(main)/while/body/while/body/add" source_file="/global/homes/j/jackm/software/lorrax_C/src/solvers/lanczos.py" source_line=270 scheduling_name="add.1523.4"}
  %select.956.4 = s64[] select(%compare.543.4, %add.1523.4, %param_2.68), metadata={op_name="jit(_full_run)/jit(main)/while/body/while/body/select_n" source_file="/global/homes/j/jackm/software/lorrax_C/src/solvers/lanczos.py" source_line=270 scheduling_name="select.956.4"}
  %dynamic-slice.180.13 = c128[512,1]{1,0} dynamic-slice(%param_1.77, %constant_1764_1, %select.956.4), dynamic_slice_sizes={512,1}, metadata={op_name="jit(_full_run)/jit(main)/while/body/while/body/dynamic_slice" source_file="/global/homes/j/jackm/software/lorrax_C/src/solvers/lanczos.py" source_line=270 scheduling_name="dynamic-slice.180.13"}
  %real.105.5 = f64[512,1]{1,0} real(%dynamic-slice.180.13), metadata={op_name="jit(_full_run)/jit(main)/while/body/while/body/real" source_file="/global/homes/j/jackm/software/lorrax_C/src/solvers/lanczos.py" source_line=271 scheduling_name="real.105.5"}
  %imag.82.7 = f64[512,1]{1,0} imag(%dynamic-slice.180.13), metadata={op_name="jit(_full_run)/jit(main)/while/body/while/body/imag" source_file="/global/homes/j/jackm/software/lorrax_C/src/solvers/lanczos.py" source_line=271 scheduling_name="imag.82.7"}
  %negate.168.5 = f64[512,1]{1,0} negate(%imag.82.7), metadata={op_name="jit(_full_run)/jit(main)/while/body/while/body/neg" source_file="/global/homes/j/jackm/software/lorrax_C/src/solvers/lanczos.py" source_line=271 scheduling_name="negate.168.5"}
  %complex.81.3 = c128[512,1]{1,0} complex(%real.105.5, %negate.168.5), metadata={op_name="jit(_full_run)/jit(main)/while/body/while/body/complex" source_file="/global/homes/j/jackm/software/lorrax_C/src/solvers/lanczos.py" source_line=271 scheduling_name="complex.81.3"}
  %bitcast.7180.3 = c128[512]{0} bitcast(%complex.81.3), metadata={scheduling_name="bitcast.7180.3"}
  %param_0.59 = c128[512]{0} parameter(0), metadata={scheduling_name="param_0.59"}
  %multiply.725.3 = c128[512]{0} multiply(%bitcast.7180.3, %param_0.59), metadata={scheduling_name="multiply.725.3"}
  %constant_1767_1 = c128[] constant((0, 0))
  ROOT %reduce.49.1 = c128[] reduce(%multiply.725.3, %constant_1767_1), dimensions={0}, to_apply=%region_7.1398, metadata={op_name="jit(_full_run)/jit(main)/while/body/while/body/dot_general" source_file="/global/homes/j/jackm/software/lorrax_C/src/solvers/lanczos.py" source_line=271 scheduling_name="reduce.49.1"}
}

%fused_add.5 (param_0.58: s64[]) -> s64[] {
  %param_0.58 = s64[] parameter(0), metadata={scheduling_name="param_0.58"}
  %constant_1762_1 = s64[] constant(1)
  ROOT %add.1522.1 = s64[] add(%param_0.58, %constant_1762_1), metadata={op_name="jit(_full_run)/jit(main)/while/body/while/body/add" source_file="/global/homes/j/jackm/software/lorrax_C/src/solvers/lanczos.py" source_line=275 scheduling_name="add.1522.1"}
}

%scalar_add_computation.clone.1 (scalar_lhs.3: c128[], scalar_rhs.3: c128[]) -> c128[] {
  %scalar_rhs.3 = c128[] parameter(1), metadata={scheduling_name="scalar_rhs.3"}
  %scalar_lhs.3 = c128[] parameter(0), metadata={scheduling_name="scalar_lhs.3"}
  ROOT %add.1521 = c128[] add(%scalar_lhs.3, %scalar_rhs.3), metadata={scheduling_name="add.1521"}
}

%region_18.1991_spmd (param.18.0: (s64[], c128[512], s64[], s64[], c128[512,200])) -> (s64[], c128[512], s64[], s64[], c128[512,200]) {
  %param.18.0 = (s64[], c128[512]{0}, s64[], s64[], c128[512,200]{1,0}) parameter(0), metadata={scheduling_name="param.18.0"}
  %get-tuple-element.802 = s64[] get-tuple-element(%param.18.0), index=0, metadata={scheduling_name="get-tuple-element.802"}
  %copy.148 = s64[] copy(%get-tuple-element.802), metadata={scheduling_name="copy.148"}
  %get-tuple-element.811 = c128[512,200]{1,0} get-tuple-element(%param.18.0), index=4, metadata={scheduling_name="get-tuple-element.811"}
  %get-tuple-element.803 = c128[512]{0} get-tuple-element(%param.18.0), index=1, metadata={scheduling_name="get-tuple-element.803"}
  %input_reduce_fusion = c128[] fusion(%get-tuple-element.803, %get-tuple-element.811, %copy.148), kind=kInput, calls=%fused_reduce, metadata={op_name="jit(_full_run)/jit(main)/while/body/while/body/dot_general" source_file="/global/homes/j/jackm/software/lorrax_C/src/solvers/lanczos.py" source_line=271 scheduling_name="input_reduce_fusion"}
  %all-reduce-start = c128[] all-reduce-start(%input_reduce_fusion), channel_id=18, replica_groups=[2,2]<=[2,2]T(1,0), use_global_device_ids=true, to_apply=%scalar_add_computation.clone.1, metadata={op_name="jit(_full_run)/jit(main)/while/body/while/body/dot_general" source_file="/global/homes/j/jackm/software/lorrax_C/src/solvers/lanczos.py" source_line=271 scheduling_name="all-reduce-start"}, backend_config={"operation_queue_id":"0","wait_on_operation_queues":[],"collective_backend_config":{"is_sync":false,"no_parallel_custom_call":true,"is_pipelined":false,"reification_cost":[]},"force_earliest_schedule":false}
  %loop_add_fusion.5 = s64[] fusion(%copy.148), kind=kLoop, calls=%fused_add.5, metadata={op_name="jit(_full_run)/jit(main)/while/body/while/body/add" source_file="/global/homes/j/jackm/software/lorrax_C/src/solvers/lanczos.py" source_line=275 deduplicated_name="loop_add_fusion" scheduling_name="loop_add_fusion.5"}
  %all-reduce-done = c128[] all-reduce-done(%all-reduce-start), metadata={op_name="jit(_full_run)/jit(main)/while/body/while/body/dot_general" source_file="/global/homes/j/jackm/software/lorrax_C/src/solvers/lanczos.py" source_line=271 scheduling_name="all-reduce-done"}
  %get-tuple-element.810 = s64[] get-tuple-element(%param.18.0), index=3, metadata={scheduling_name="get-tuple-element.810"}
  %loop_subtract_fusion = c128[512]{0} fusion(%get-tuple-element.803, %get-tuple-element.811, %copy.148, %all-reduce-done, %get-tuple-element.810), kind=kLoop, calls=%fused_subtract, metadata={op_name="jit(_full_run)/jit(main)/while/body/while/body/sub" source_file="/global/homes/j/jackm/software/lorrax_C/src/solvers/lanczos.py" source_line=272 scheduling_name="loop_subtract_fusion"}
  %get-tuple-element.809 = s64[] get-tuple-element(%param.18.0), index=2, metadata={scheduling_name="get-tuple-element.809"}
  ROOT %tuple.172 = (s64[], c128[512]{0}, s64[], s64[], c128[512,200]{1,0}) tuple(%loop_add_fusion.5, %loop_subtract_fusion, %get-tuple-element.809, %get-tuple-element.810, %get-tuple-element.811), metadata={scheduling_name="tuple.172"}
}

%wrapped_compare_computation (param_0.722: s64[], param_1.901: s64[]) -> pred[] {
  %param_0.722 = s64[] parameter(0), metadata={scheduling_name="param_0.722"}
  %param_1.901 = s64[] parameter(1), metadata={scheduling_name="param_1.901"}
  ROOT %compare.541.1 = pred[] compare(%param_0.722, %param_1.901), direction=LT, metadata={op_name="jit(_full_run)/jit(main)/while/body/while/cond/lt" source_file="/global/homes/j/jackm/software/lorrax_C/src/solvers/lanczos.py" source_line=275 scheduling_name="compare.541.1"}
}

%region_19.2019_spmd (param.17.0: (s64[], c128[512], s64[], s64[], c128[512,200])) -> pred[] {
  %param.17.0 = (s64[], c128[512]{0}, s64[], s64[], c128[512,200]{1,0}) parameter(0), metadata={scheduling_name="param.17.0"}
  %get-tuple-element.654.0 = s64[] get-tuple-element(%param.17.0), index=2, metadata={scheduling_name="get-tuple-element.654.0"}
  %get-tuple-element.653.0 = s64[] get-tuple-element(%param.17.0), index=0, metadata={scheduling_name="get-tuple-element.653.0"}
  ROOT %wrapped_compare = pred[] fusion(%get-tuple-element.653.0, %get-tuple-element.654.0), kind=kLoop, calls=%wrapped_compare_computation, metadata={op_name="jit(_full_run)/jit(main)/while/body/while/cond/lt" source_file="/global/homes/j/jackm/software/lorrax_C/src/solvers/lanczos.py" source_line=275 scheduling_name="wrapped_compare"}
}

%fused_subtract.1 (param_0.166: c128[1,2,4,64], param_1.161: c128[512], param_2.123: c128[512,200], param_3.150: s64[], param_4.152: c128[], param_5.106: f64[200]) -> c128[512] {
  %param_0.166 = c128[1,2,4,64]{3,1,0,2} parameter(0), metadata={scheduling_name="param_0.166"}
  %bitcast.7573.5 = c128[4,2,64]{2,1,0} bitcast(%param_0.166), metadata={scheduling_name="bitcast.7573.5"}
  %transpose.216.5 = c128[2,4,64]{2,1,0} transpose(%bitcast.7573.5), dimensions={1,0,2}, metadata={op_name="jit(_full_run)/jit(main)/while/body/reshape" source_file="/global/homes/j/jackm/software/lorrax_C/src/bse/bse_lanczos.py" source_line=167 scheduling_name="transpose.216.5"}
  %bitcast.7586.4 = c128[512]{0} bitcast(%transpose.216.5), metadata={scheduling_name="bitcast.7586.4"}
  %param_4.152 = c128[] parameter(4), metadata={scheduling_name="param_4.152"}
  %real.109.2 = f64[] real(%param_4.152), metadata={op_name="jit(_full_run)/jit(main)/while/body/real" source_file="/global/homes/j/jackm/software/lorrax_C/src/solvers/lanczos.py" source_line=260 scheduling_name="real.109.2"}
  %convert.235.1 = c128[] convert(%real.109.2), metadata={op_name="jit(_full_run)/jit(main)/while/body/convert_element_type" source_file="/global/homes/j/jackm/software/lorrax_C/src/solvers/lanczos.py" source_line=263 scheduling_name="convert.235.1"}
  %broadcast.2160.1 = c128[512]{0} broadcast(%convert.235.1), dimensions={}, metadata={op_name="jit(_full_run)/jit(main)/while/body/mul" source_file="/global/homes/j/jackm/software/lorrax_C/src/solvers/lanczos.py" source_line=263 scheduling_name="broadcast.2160.1"}
  %param_1.161 = c128[512]{0} parameter(1), metadata={scheduling_name="param_1.161"}
  %multiply.746.1 = c128[512]{0} multiply(%broadcast.2160.1, %param_1.161), metadata={op_name="jit(_full_run)/jit(main)/while/body/mul" source_file="/global/homes/j/jackm/software/lorrax_C/src/solvers/lanczos.py" source_line=263 scheduling_name="multiply.746.1"}
  %subtract.97.3 = c128[512]{0} subtract(%bitcast.7586.4, %multiply.746.1), metadata={op_name="jit(_full_run)/jit(main)/while/body/sub" source_file="/global/homes/j/jackm/software/lorrax_C/src/solvers/lanczos.py" source_line=263 scheduling_name="subtract.97.3"}
  %param_3.150 = s64[] parameter(3), metadata={scheduling_name="param_3.150"}
  %constant_1782_5 = s64[] constant(0)
  %compare.549.3 = pred[] compare(%param_3.150, %constant_1782_5), direction=GT, metadata={op_name="jit(_full_run)/jit(main)/while/body/gt" source_file="/global/homes/j/jackm/software/lorrax_C/src/solvers/lanczos.py" source_line=265 scheduling_name="compare.549.3"}
  %param_5.106 = f64[200]{0} parameter(5), metadata={scheduling_name="param_5.106"}
  %constant_1871_1 = s64[] constant(-1)
  %add.1532.4 = s64[] add(%param_3.150, %constant_1871_1), metadata={op_name="jit(_full_run)/jit(main)/while/body/sub" source_file="/global/homes/j/jackm/software/lorrax_C/src/solvers/lanczos.py" source_line=265 scheduling_name="add.1532.4"}
  %compare.550.3 = pred[] compare(%add.1532.4, %constant_1782_5), direction=LT, metadata={op_name="jit(_full_run)/jit(main)/while/body/lt" source_file="/global/homes/j/jackm/software/lorrax_C/src/solvers/lanczos.py" source_line=265 scheduling_name="compare.550.3"}
  %constant_1781_1 = s64[] constant(199)
  %add.1533.3 = s64[] add(%param_3.150, %constant_1781_1), metadata={op_name="jit(_full_run)/jit(main)/while/body/add" source_file="/global/homes/j/jackm/software/lorrax_C/src/solvers/lanczos.py" source_line=265 scheduling_name="add.1533.3"}
  %select.961.3 = s64[] select(%compare.550.3, %add.1533.3, %add.1532.4), metadata={op_name="jit(_full_run)/jit(main)/while/body/select_n" source_file="/global/homes/j/jackm/software/lorrax_C/src/solvers/lanczos.py" source_line=265 scheduling_name="select.961.3"}
  %dynamic-slice.193.3 = f64[1]{0} dynamic-slice(%param_5.106, %select.961.3), dynamic_slice_sizes={1}, metadata={op_name="jit(_full_run)/jit(main)/while/body/dynamic_slice" source_file="/global/homes/j/jackm/software/lorrax_C/src/solvers/lanczos.py" source_line=265 scheduling_name="dynamic-slice.193.3"}
  %bitcast.7621.3 = f64[] bitcast(%dynamic-slice.193.3), metadata={scheduling_name="bitcast.7621.3"}
  %constant_1874_2 = f64[] constant(0)
  %select.962.3 = f64[] select(%compare.549.3, %bitcast.7621.3, %constant_1874_2), metadata={op_name="jit(_full_run)/jit(main)/while/body/jit(_where)/select_n" source_file="/global/homes/j/jackm/software/lorrax_C/src/solvers/lanczos.py" source_line=265 scheduling_name="select.962.3"}
  %convert.236.1 = c128[] convert(%select.962.3), metadata={op_name="jit(_full_run)/jit(main)/while/body/convert_element_type" source_file="/global/homes/j/jackm/software/lorrax_C/src/solvers/lanczos.py" source_line=266 scheduling_name="convert.236.1"}
  %broadcast.2161.1 = c128[512,1]{1,0} broadcast(%convert.236.1), dimensions={}, metadata={op_name="jit(_full_run)/jit(main)/while/body/mul" source_file="/global/homes/j/jackm/software/lorrax_C/src/solvers/lanczos.py" source_line=266 scheduling_name="broadcast.2161.1"}
  %param_2.123 = c128[512,200]{1,0} parameter(2), metadata={scheduling_name="param_2.123"}
  %maximum.59.1 = s64[] maximum(%add.1532.4, %constant_1782_5), metadata={op_name="jit(_full_run)/jit(main)/while/body/max" source_file="/global/homes/j/jackm/software/lorrax_C/src/solvers/lanczos.py" source_line=264 scheduling_name="maximum.59.1"}
  %dynamic-slice.194.1 = c128[512,1]{1,0} dynamic-slice(%param_2.123, %constant_1782_5, %maximum.59.1), dynamic_slice_sizes={512,1}, metadata={op_name="jit(_full_run)/jit(main)/while/body/dynamic_slice" source_file="/global/homes/j/jackm/software/lorrax_C/src/solvers/lanczos.py" source_line=264 scheduling_name="dynamic-slice.194.1"}
  %multiply.747.1 = c128[512,1]{1,0} multiply(%broadcast.2161.1, %dynamic-slice.194.1), metadata={op_name="jit(_full_run)/jit(main)/while/body/mul" source_file="/global/homes/j/jackm/software/lorrax_C/src/solvers/lanczos.py" source_line=266 scheduling_name="multiply.747.1"}
  %bitcast.7638.1 = c128[512]{0} bitcast(%multiply.747.1), metadata={scheduling_name="bitcast.7638.1"}
  ROOT %subtract.98.1 = c128[512]{0} subtract(%subtract.97.3, %bitcast.7638.1), metadata={op_name="jit(_full_run)/jit(main)/while/body/sub" source_file="/global/homes/j/jackm/software/lorrax_C/src/solvers/lanczos.py" source_line=266 scheduling_name="subtract.98.1"}
}

%fused_transpose.1 (param_0.186: c128[64,2,2], param_1.186: c128[1,2,2,64], param_2.214: c128[512], param_3.154: f64[64,4], param_4.150: f64[64,4], param_5.107: s32[4], param_6.85: u32[], param_7.34: u32[4], param_8.13: u32[4]) -> c128[2,128] {
  %param_3.154 = f64[64,4]{0,1} parameter(3), metadata={scheduling_name="param_3.154"}
  %bitcast.7249.3 = f64[4,64]{1,0} bitcast(%param_3.154), metadata={scheduling_name="bitcast.7249.3"}
  %constant_2167_1 = u32[1]{0} constant({0}), metadata={op_name="jit(_full_run)/jit(main)/while/body/jit(_matvec_impl)/jit(_apply_D_term)/transpose" source_file="/global/homes/j/jackm/software/lorrax_C/src/bse/bse_ring_comm.py" source_line=414}
  %param_8.13 = u32[4]{0} parameter(8), metadata={scheduling_name="param_8.13"}
  %param_6.85 = u32[] parameter(6), metadata={scheduling_name="param_6.85"}
  %dynamic-slice.181.1 = u32[1]{0} dynamic-slice(%param_8.13, %param_6.85), dynamic_slice_sizes={1}, metadata={op_name="jit(_full_run)/jit(main)/while/body/jit(_matvec_impl)/jit(_apply_D_term)/transpose" source_file="/global/homes/j/jackm/software/lorrax_C/src/bse/bse_ring_comm.py" source_line=414 scheduling_name="dynamic-slice.181.1"}
  %constant_2168_1 = u32[1]{0} constant({1}), metadata={op_name="jit(_full_run)/jit(main)/while/body/jit(_matvec_impl)/jit(_apply_D_term)/transpose" source_file="/global/homes/j/jackm/software/lorrax_C/src/bse/bse_ring_comm.py" source_line=414}
  %clamp.8.1 = u32[1]{0} clamp(%constant_2167_1, %dynamic-slice.181.1, %constant_2168_1), metadata={op_name="jit(_full_run)/jit(main)/while/body/jit(_matvec_impl)/jit(_apply_D_term)/transpose" source_file="/global/homes/j/jackm/software/lorrax_C/src/bse/bse_ring_comm.py" source_line=414 scheduling_name="clamp.8.1"}
  %convert.230.1 = s32[1]{0} convert(%clamp.8.1), metadata={op_name="jit(_full_run)/jit(main)/while/body/jit(_matvec_impl)/jit(_apply_D_term)/transpose" source_file="/global/homes/j/jackm/software/lorrax_C/src/bse/bse_ring_comm.py" source_line=414 scheduling_name="convert.230.1"}
  %constant_2172_1 = s32[1]{0} constant({2})
  %multiply.729.1 = s32[1]{0} multiply(%convert.230.1, %constant_2172_1), metadata={op_name="jit(_full_run)/jit(main)/while/body/jit(_matvec_impl)/jit(_apply_D_term)/transpose" source_file="/global/homes/j/jackm/software/lorrax_C/src/bse/bse_ring_comm.py" source_line=414 scheduling_name="multiply.729.1"}
  %bitcast.7262.3 = s32[] bitcast(%multiply.729.1), metadata={scheduling_name="bitcast.7262.3"}
  %constant_1778_6 = s32[] constant(0)
  %dynamic-slice.182.3 = f64[2,64]{1,0} dynamic-slice(%bitcast.7249.3, %bitcast.7262.3, %constant_1778_6), dynamic_slice_sizes={2,64}, metadata={op_name="jit(_full_run)/jit(main)/while/body/jit(_matvec_impl)/jit(_apply_D_term)/transpose" source_file="/global/homes/j/jackm/software/lorrax_C/src/bse/bse_ring_comm.py" source_line=414 scheduling_name="dynamic-slice.182.3"}
  %broadcast.2147.1 = f64[2,64,1,2]{3,2,1,0} broadcast(%dynamic-slice.182.3), dimensions={0,1}, metadata={op_name="jit(_full_run)/jit(main)/while/body/jit(_matvec_impl)/jit(_apply_D_term)/sub" source_file="/global/homes/j/jackm/software/lorrax_C/src/bse/bse_ring_comm.py" source_line=414 scheduling_name="broadcast.2147.1"}
  %param_4.150 = f64[64,4]{1,0} parameter(4), metadata={scheduling_name="param_4.150"}
  %param_7.34 = u32[4]{0} parameter(7), metadata={scheduling_name="param_7.34"}
  %dynamic-slice.183.1 = u32[1]{0} dynamic-slice(%param_7.34, %param_6.85), dynamic_slice_sizes={1}, metadata={op_name="jit(_full_run)/jit(main)/while/body/jit(_matvec_impl)/jit(_apply_D_term)/transpose" source_file="/global/homes/j/jackm/software/lorrax_C/src/bse/bse_ring_comm.py" source_line=414 scheduling_name="dynamic-slice.183.1"}
  %clamp.9.1 = u32[1]{0} clamp(%constant_2167_1, %dynamic-slice.183.1, %constant_2168_1), metadata={op_name="jit(_full_run)/jit(main)/while/body/jit(_matvec_impl)/jit(_apply_D_term)/transpose" source_file="/global/homes/j/jackm/software/lorrax_C/src/bse/bse_ring_comm.py" source_line=414 scheduling_name="clamp.9.1"}
  %convert.231.1 = s32[1]{0} convert(%clamp.9.1), metadata={op_name="jit(_full_run)/jit(main)/while/body/jit(_matvec_impl)/jit(_apply_D_term)/transpose" source_file="/global/homes/j/jackm/software/lorrax_C/src/bse/bse_ring_comm.py" source_line=414 scheduling_name="convert.231.1"}
  %multiply.730.1 = s32[1]{0} multiply(%convert.231.1, %constant_2172_1), metadata={op_name="jit(_full_run)/jit(main)/while/body/jit(_matvec_impl)/jit(_apply_D_term)/transpose" source_file="/global/homes/j/jackm/software/lorrax_C/src/bse/bse_ring_comm.py" source_line=414 scheduling_name="multiply.730.1"}
  %bitcast.7285.3 = s32[] bitcast(%multiply.730.1), metadata={scheduling_name="bitcast.7285.3"}
  %dynamic-slice.184.3 = f64[64,2]{1,0} dynamic-slice(%param_4.150, %constant_1778_6, %bitcast.7285.3), dynamic_slice_sizes={64,2}, metadata={op_name="jit(_full_run)/jit(main)/while/body/jit(_matvec_impl)/jit(_apply_D_term)/transpose" source_file="/global/homes/j/jackm/software/lorrax_C/src/bse/bse_ring_comm.py" source_line=414 scheduling_name="dynamic-slice.184.3"}
  %broadcast.2148.1 = f64[2,64,1,2]{3,2,1,0} broadcast(%dynamic-slice.184.3), dimensions={1,3}, metadata={op_name="jit(_full_run)/jit(main)/while/body/jit(_matvec_impl)/jit(_apply_D_term)/sub" source_file="/global/homes/j/jackm/software/lorrax_C/src/bse/bse_ring_comm.py" source_line=414 scheduling_name="broadcast.2148.1"}
  %subtract.95.1 = f64[2,64,1,2]{3,2,1,0} subtract(%broadcast.2147.1, %broadcast.2148.1), metadata={op_name="jit(_full_run)/jit(main)/while/body/jit(_matvec_impl)/jit(_apply_D_term)/sub" source_file="/global/homes/j/jackm/software/lorrax_C/src/bse/bse_ring_comm.py" source_line=414 scheduling_name="subtract.95.1"}
  %convert.232.1 = c128[2,64,1,2]{3,2,1,0} convert(%subtract.95.1), metadata={op_name="jit(_full_run)/jit(main)/while/body/jit(_matvec_impl)/jit(_apply_D_term)/convert_element_type" source_file="/global/homes/j/jackm/software/lorrax_C/src/bse/bse_ring_comm.py" source_line=415 scheduling_name="convert.232.1"}
  %param_2.214 = c128[512]{0} parameter(2), metadata={scheduling_name="param_2.214"}
  %bitcast.7292.9 = c128[1,2,4,64]{3,2,1,0} bitcast(%param_2.214), metadata={scheduling_name="bitcast.7292.9"}
  %param_5.107 = s32[4]{0} parameter(5), metadata={scheduling_name="param_5.107"}
  %dynamic-slice.185.2 = s32[1]{0} dynamic-slice(%param_5.107, %param_6.85), dynamic_slice_sizes={1}, metadata={op_name="jit(_full_run)/jit(main)/while/body/reshape" source_file="/global/homes/j/jackm/software/lorrax_C/src/bse/bse_lanczos.py" source_line=161 scheduling_name="dynamic-slice.185.2"}
  %bitcast.7301.9 = s32[] bitcast(%dynamic-slice.185.2), metadata={scheduling_name="bitcast.7301.9"}
  %dynamic-slice.186.9 = c128[1,2,2,64]{3,2,1,0} dynamic-slice(%bitcast.7292.9, %constant_1778_6, %constant_1778_6, %bitcast.7301.9, %constant_1778_6), dynamic_slice_sizes={1,2,2,64}, metadata={op_name="jit(_full_run)/jit(main)/while/body/reshape" source_file="/global/homes/j/jackm/software/lorrax_C/src/bse/bse_lanczos.py" source_line=161 scheduling_name="dynamic-slice.186.9"}
  %bitcast.7303.5 = c128[2,2,64]{2,1,0} bitcast(%dynamic-slice.186.9), metadata={scheduling_name="bitcast.7303.5"}
  %transpose.202.5 = c128[2,64,2]{2,1,0} transpose(%bitcast.7303.5), dimensions={0,2,1}, metadata={op_name="jit(_full_run)/jit(main)/while/body/reshape" source_file="/global/homes/j/jackm/software/lorrax_C/src/bse/bse_lanczos.py" source_line=161 scheduling_name="transpose.202.5"}
  %bitcast.7306.7 = c128[2,64,1,2]{3,2,1,0} bitcast(%transpose.202.5), metadata={scheduling_name="bitcast.7306.7"}
  %multiply.731.7 = c128[2,64,1,2]{3,2,1,0} multiply(%convert.232.1, %bitcast.7306.7), metadata={op_name="jit(_full_run)/jit(main)/while/body/jit(_matvec_impl)/jit(_apply_D_term)/mul" source_file="/global/homes/j/jackm/software/lorrax_C/src/bse/bse_ring_comm.py" source_line=415 scheduling_name="multiply.731.7"}
  %param_1.186 = c128[1,2,2,64]{2,0,3,1} parameter(1), metadata={scheduling_name="param_1.186"}
  %bitcast.7426.5 = c128[2,64,1,2]{3,2,1,0} bitcast(%param_1.186), metadata={scheduling_name="bitcast.7426.5"}
  %constant_1818_1 = c128[] constant((0.125, 0)), metadata={op_name="jit(_full_run)/jit(main)/while/body/jit(_matvec_impl)/jit(shmap_body)/convert_element_type" source_file="/global/homes/j/jackm/software/lorrax_C/src/bse/bse_ring_comm.py" source_line=283}
  %broadcast.2153.1 = c128[2,64,1,2]{3,2,1,0} broadcast(%constant_1818_1), dimensions={}, metadata={op_name="jit(_full_run)/jit(main)/while/body/jit(_matvec_impl)/jit(shmap_body)/div" source_file="/global/homes/j/jackm/software/lorrax_C/src/bse/bse_ring_comm.py" source_line=296 scheduling_name="broadcast.2153.1"}
  %multiply.738.5 = c128[2,64,1,2]{3,2,1,0} multiply(%bitcast.7426.5, %broadcast.2153.1), metadata={op_name="jit(_full_run)/jit(main)/while/body/jit(_matvec_impl)/jit(shmap_body)/div" source_file="/global/homes/j/jackm/software/lorrax_C/src/bse/bse_ring_comm.py" source_line=296 scheduling_name="multiply.738.5"}
  %add.1531.5 = c128[2,64,1,2]{3,2,1,0} add(%multiply.731.7, %multiply.738.5), metadata={op_name="jit(_full_run)/jit(main)/while/body/jit(_matvec_impl)/add" source_file="/global/homes/j/jackm/software/lorrax_C/src/bse/bse_ring_comm.py" source_line=430 scheduling_name="add.1531.5"}
  %param_0.186 = c128[64,2,2]{1,0,2} parameter(0), metadata={scheduling_name="param_0.186"}
  %bitcast.7556.5 = c128[2,64,2]{2,1,0} bitcast(%param_0.186), metadata={scheduling_name="bitcast.7556.5"}
  %transpose.214.5 = c128[2,64,2]{2,1,0} transpose(%bitcast.7556.5), dimensions={2,1,0}, metadata={scheduling_name="transpose.214.5"}
  %broadcast.2159.1 = c128[2,64,2]{2,1,0} broadcast(%constant_1818_1), dimensions={}, metadata={op_name="jit(_full_run)/jit(main)/while/body/jit(_matvec_impl)/jit(_apply_W_from_T)/div" source_file="/global/homes/j/jackm/software/lorrax_C/src/bse/bse_ring_comm.py" source_line=405 scheduling_name="broadcast.2159.1"}
  %multiply.743.3 = c128[2,64,2]{2,1,0} multiply(%transpose.214.5, %broadcast.2159.1), metadata={op_name="jit(_full_run)/jit(main)/while/body/jit(_matvec_impl)/jit(_apply_W_from_T)/div" source_file="/global/homes/j/jackm/software/lorrax_C/src/bse/bse_ring_comm.py" source_line=405 scheduling_name="multiply.743.3"}
  %bitcast.7563.3 = c128[2,64,1,2]{3,2,1,0} bitcast(%multiply.743.3), metadata={scheduling_name="bitcast.7563.3"}
  %subtract.96.3 = c128[2,64,1,2]{3,2,1,0} subtract(%add.1531.5, %bitcast.7563.3), metadata={op_name="jit(_full_run)/jit(main)/while/body/jit(_matvec_impl)/sub" source_file="/global/homes/j/jackm/software/lorrax_C/src/bse/bse_ring_comm.py" source_line=430 scheduling_name="subtract.96.3"}
  %bitcast.7566.1 = c128[128,2]{1,0} bitcast(%subtract.96.3), metadata={scheduling_name="bitcast.7566.1"}
  ROOT %transpose.215.1 = c128[2,128]{1,0} transpose(%bitcast.7566.1), dimensions={1,0}, metadata={op_name="jit(_full_run)/jit(main)/while/body/jit(_matvec_impl)/sub" source_file="/global/homes/j/jackm/software/lorrax_C/src/bse/bse_ring_comm.py" source_line=430 scheduling_name="transpose.215.1"}
}

%fused_transpose.2 (param_0.78: c128[64,480,4]) -> c128[4,30720] {
  %param_0.78 = c128[64,480,4]{2,1,0} parameter(0), metadata={scheduling_name="param_0.78"}
  %bitcast.7538.1 = c128[30720,4]{1,0} bitcast(%param_0.78), metadata={scheduling_name="bitcast.7538.1"}
  ROOT %transpose.212.1 = c128[4,30720]{1,0} transpose(%bitcast.7538.1), dimensions={1,0}, metadata={op_name="jit(_full_run)/jit(main)/while/body/jit(_matvec_impl)/jit(_apply_W_from_T)/kctM,bMNtsk->bcNsk/dot_general" source_file="/global/homes/j/jackm/software/lorrax_C/src/bse/bse_ring_comm.py" source_line=403 scheduling_name="transpose.212.1"}
}

%fused_transpose.3 (param_0.132: c128[1,480,480,2,2,4,4,4], param_1.253: s32[4], param_2.223: u32[], param_3.155: s32[4]) -> c128[64,240,2,2,240] {
  %param_0.132 = c128[1,480,480,2,2,4,4,4]{7,6,5,4,3,2,1,0} parameter(0), metadata={scheduling_name="param_0.132"}
  %constant_1778_7 = s32[] constant(0)
  %param_3.155 = s32[4]{0} parameter(3), metadata={scheduling_name="param_3.155"}
  %param_2.223 = u32[] parameter(2), metadata={scheduling_name="param_2.223"}
  %dynamic-slice.189.1 = s32[1]{0} dynamic-slice(%param_3.155, %param_2.223), dynamic_slice_sizes={1}, metadata={op_name="jit(_full_run)/jit(main)/while/body/jit(_matvec_impl)/jit(_apply_W_from_T)/mul" source_file="/global/homes/j/jackm/software/lorrax_C/src/bse/bse_ring_comm.py" source_line=399 scheduling_name="dynamic-slice.189.1"}
  %bitcast.7488.6 = s32[] bitcast(%dynamic-slice.189.1), metadata={scheduling_name="bitcast.7488.6"}
  %param_1.253 = s32[4]{0} parameter(1), metadata={scheduling_name="param_1.253"}
  %dynamic-slice.190.1 = s32[1]{0} dynamic-slice(%param_1.253, %param_2.223), dynamic_slice_sizes={1}, metadata={op_name="jit(_full_run)/jit(main)/while/body/jit(_matvec_impl)/jit(_apply_W_from_T)/mul" source_file="/global/homes/j/jackm/software/lorrax_C/src/bse/bse_ring_comm.py" source_line=399 scheduling_name="dynamic-slice.190.1"}
  %bitcast.7494.6 = s32[] bitcast(%dynamic-slice.190.1), metadata={scheduling_name="bitcast.7494.6"}
  %dynamic-slice.192.5 = c128[1,240,240,2,2,4,4,4]{7,6,5,4,3,2,1,0} dynamic-slice(%param_0.132, %constant_1778_7, %bitcast.7488.6, %bitcast.7494.6, %constant_1778_7, /*index=5*/%constant_1778_7, %constant_1778_7, %constant_1778_7, %constant_1778_7), dynamic_slice_sizes={1,240,240,2,2,4,4,4}, metadata={op_name="jit(_full_run)/jit(main)/while/body/jit(_matvec_impl)/jit(_apply_W_from_T)/mul" source_file="/global/homes/j/jackm/software/lorrax_C/src/bse/bse_ring_comm.py" source_line=400 scheduling_name="dynamic-slice.192.5"}
  %constant_1818_3 = c128[] constant((0.125, 0)), metadata={op_name="jit(_full_run)/jit(main)/while/body/jit(_matvec_impl)/jit(shmap_body)/convert_element_type" source_file="/global/homes/j/jackm/software/lorrax_C/src/bse/bse_ring_comm.py" source_line=283}
  %broadcast.2158.1 = c128[1,240,240,2,2,4,4,4]{7,6,5,4,3,2,1,0} broadcast(%constant_1818_3), dimensions={}, metadata={op_name="jit(_full_run)/jit(main)/while/body/jit(_matvec_impl)/jit(_apply_W_from_T)/mul" source_file="/global/homes/j/jackm/software/lorrax_C/src/bse/bse_ring_comm.py" source_line=400 scheduling_name="broadcast.2158.1"}
  %multiply.742.3 = c128[1,240,240,2,2,4,4,4]{7,6,5,4,3,2,1,0} multiply(%dynamic-slice.192.5, %broadcast.2158.1), metadata={op_name="jit(_full_run)/jit(main)/while/body/jit(_matvec_impl)/jit(_apply_W_from_T)/mul" source_file="/global/homes/j/jackm/software/lorrax_C/src/bse/bse_ring_comm.py" source_line=400 scheduling_name="multiply.742.3"}
  %bitcast.7526.1 = c128[240,240,2,2,64]{4,3,2,1,0} bitcast(%multiply.742.3), metadata={scheduling_name="bitcast.7526.1"}
  ROOT %transpose.210.1 = c128[64,240,2,2,240]{4,3,2,1,0} transpose(%bitcast.7526.1), dimensions={4,1,3,2,0}, metadata={scheduling_name="transpose.210.1"}
}

%fused_transpose.4 (param_0.82: c128[1,240,480,2,2,4,4,4]) -> c128[240,480,256] {
  %param_0.82 = c128[1,240,480,2,2,4,4,4]{7,6,5,4,3,1,0,2} parameter(0), metadata={scheduling_name="param_0.82"}
  %bitcast.7510.1 = c128[480,240,256]{2,1,0} bitcast(%param_0.82), metadata={scheduling_name="bitcast.7510.1"}
  ROOT %transpose.209.1 = c128[240,480,256]{2,1,0} transpose(%bitcast.7510.1), dimensions={1,0,2}, metadata={op_name="jit(_full_run)/jit(main)/while/body/jit(_matvec_impl)/jit(_apply_W_from_T)/jit(fft)/fft" source_file="/global/homes/j/jackm/software/lorrax_C/src/bse/bse_ring_comm.py" source_line=400 scheduling_name="transpose.209.1"}
}

%fused_transpose.5 (param_0.133: c128[1,480,480,2,2,4,4,4], param_1.241: c128[240,240,4,4,4], param_2.224: s32[4], param_3.156: u32[], param_4.151: s32[4]) -> c128[240,240,256] {
  %param_0.133 = c128[1,480,480,2,2,4,4,4]{7,6,5,4,3,2,1,0} parameter(0), metadata={scheduling_name="param_0.133"}
  %constant_1778_5 = s32[] constant(0)
  %param_4.151 = s32[4]{0} parameter(4), metadata={scheduling_name="param_4.151"}
  %param_3.156 = u32[] parameter(3), metadata={scheduling_name="param_3.156"}
  %dynamic-slice.189.2 = s32[1]{0} dynamic-slice(%param_4.151, %param_3.156), dynamic_slice_sizes={1}, metadata={op_name="jit(_full_run)/jit(main)/while/body/jit(_matvec_impl)/jit(_apply_W_from_T)/mul" source_file="/global/homes/j/jackm/software/lorrax_C/src/bse/bse_ring_comm.py" source_line=399 scheduling_name="dynamic-slice.189.2"}
  %bitcast.7488.10 = s32[] bitcast(%dynamic-slice.189.2), metadata={scheduling_name="bitcast.7488.10"}
  %param_2.224 = s32[4]{0} parameter(2), metadata={scheduling_name="param_2.224"}
  %dynamic-slice.190.2 = s32[1]{0} dynamic-slice(%param_2.224, %param_3.156), dynamic_slice_sizes={1}, metadata={op_name="jit(_full_run)/jit(main)/while/body/jit(_matvec_impl)/jit(_apply_W_from_T)/mul" source_file="/global/homes/j/jackm/software/lorrax_C/src/bse/bse_ring_comm.py" source_line=399 scheduling_name="dynamic-slice.190.2"}
  %bitcast.7494.10 = s32[] bitcast(%dynamic-slice.190.2), metadata={scheduling_name="bitcast.7494.10"}
  %dynamic-slice.191.5 = c128[1,240,240,2,2,4,4,4]{7,6,5,4,3,2,1,0} dynamic-slice(%param_0.133, %constant_1778_5, %bitcast.7488.10, %bitcast.7494.10, %constant_1778_5, /*index=5*/%constant_1778_5, %constant_1778_5, %constant_1778_5, %constant_1778_5), dynamic_slice_sizes={1,240,240,2,2,4,4,4}, metadata={op_name="jit(_full_run)/jit(main)/while/body/jit(_matvec_impl)/jit(_apply_W_from_T)/mul" source_file="/global/homes/j/jackm/software/lorrax_C/src/bse/bse_ring_comm.py" source_line=399 scheduling_name="dynamic-slice.191.5"}
  %param_1.241 = c128[240,240,4,4,4]{4,3,2,1,0} parameter(1), metadata={scheduling_name="param_1.241"}
  %constant_1832_1 = c128[] constant((8, 0)), metadata={op_name="jit(_full_run)/jit(main)/while/body/jit(_matvec_impl)/jit(_apply_W_from_T)/sqrt" source_file="/global/homes/j/jackm/software/lorrax_C/src/bse/bse_ring_comm.py" source_line=398}
  %broadcast.2156.3 = c128[240,240,4,4,4]{4,3,2,1,0} broadcast(%constant_1832_1), dimensions={}, metadata={op_name="jit(_full_run)/jit(main)/while/body/jit(_matvec_impl)/jit(_apply_W_from_T)/mul" source_file="/global/homes/j/jackm/software/lorrax_C/src/bse/bse_ring_comm.py" source_line=399 scheduling_name="broadcast.2156.3"}
  %multiply.739.3 = c128[240,240,4,4,4]{4,3,2,1,0} multiply(%param_1.241, %broadcast.2156.3), metadata={op_name="jit(_full_run)/jit(main)/while/body/jit(_matvec_impl)/jit(_apply_W_from_T)/mul" source_file="/global/homes/j/jackm/software/lorrax_C/src/bse/bse_ring_comm.py" source_line=399 scheduling_name="multiply.739.3"}
  %broadcast.2157.1 = c128[1,240,240,2,2,4,4,4]{7,6,5,4,3,2,1,0} broadcast(%multiply.739.3), dimensions={1,2,5,6,7}, metadata={op_name="jit(_full_run)/jit(main)/while/body/jit(_matvec_impl)/jit(_apply_W_from_T)/mul" source_file="/global/homes/j/jackm/software/lorrax_C/src/bse/bse_ring_comm.py" source_line=399 scheduling_name="broadcast.2157.1"}
  %multiply.741.3 = c128[1,240,240,2,2,4,4,4]{7,6,5,4,3,2,1,0} multiply(%dynamic-slice.191.5, %broadcast.2157.1), metadata={op_name="jit(_full_run)/jit(main)/while/body/jit(_matvec_impl)/jit(_apply_W_from_T)/mul" source_file="/global/homes/j/jackm/software/lorrax_C/src/bse/bse_ring_comm.py" source_line=399 scheduling_name="multiply.741.3"}
  %bitcast.7503.1 = c128[240,240,256]{2,1,0} bitcast(%multiply.741.3), metadata={scheduling_name="bitcast.7503.1"}
  ROOT %transpose.208.1 = c128[240,240,256]{2,1,0} transpose(%bitcast.7503.1), dimensions={1,0,2}, metadata={op_name="jit(_full_run)/jit(main)/while/body/jit(_matvec_impl)/jit(_apply_W_from_T)/mul" source_file="/global/homes/j/jackm/software/lorrax_C/src/bse/bse_ring_comm.py" source_line=399 scheduling_name="transpose.208.1"}
}

%fused_transpose.6 (param_0.88: c128[1,240,480,2,2,4,4,4]) -> c128[240,480,256] {
  %param_0.88 = c128[1,240,480,2,2,4,4,4]{7,6,5,4,3,1,0,2} parameter(0), metadata={scheduling_name="param_0.88"}
  %bitcast.7470.1 = c128[480,240,256]{2,1,0} bitcast(%param_0.88), metadata={scheduling_name="bitcast.7470.1"}
  ROOT %transpose.207.1 = c128[240,480,256]{2,1,0} transpose(%bitcast.7470.1), dimensions={1,0,2}, metadata={op_name="jit(_full_run)/jit(main)/while/body/jit(_matvec_impl)/jit(_apply_W_from_T)/jit(fft)/fft" source_file="/global/homes/j/jackm/software/lorrax_C/src/bse/bse_ring_comm.py" source_line=398 scheduling_name="transpose.207.1"}
}

%fused_transpose.7 (param_0.90: c128[1,240,240,2,2,64]) -> c128[240,240,2,2,64] {
  %param_0.90 = c128[1,240,240,2,2,64]{1,3,2,4,5,0} parameter(0), metadata={scheduling_name="param_0.90"}
  %bitcast.7463.1 = c128[64,2,240,2,240]{4,3,2,1,0} bitcast(%param_0.90), metadata={scheduling_name="bitcast.7463.1"}
  ROOT %transpose.206.1 = c128[240,240,2,2,64]{4,3,2,1,0} transpose(%bitcast.7463.1), dimensions={2,4,3,1,0}, metadata={op_name="jit(_full_run)/jit(main)/while/body/jit(_matvec_impl)/jit(shmap_body)/while" source_file="/global/homes/j/jackm/software/lorrax_C/src/bse/bse_ring_comm.py" source_line=121 scheduling_name="transpose.206.1"}
}

%fused_transpose.8 (param_0.92: c128[1,2,64,2,240]) -> c128[64,480,2] {
  %param_0.92 = c128[1,2,64,2,240]{4,3,1,2,0} parameter(0), metadata={scheduling_name="param_0.92"}
  %bitcast.7448.1 = c128[64,2,480]{2,1,0} bitcast(%param_0.92), metadata={scheduling_name="bitcast.7448.1"}
  ROOT %transpose.204.1 = c128[64,480,2]{2,1,0} transpose(%bitcast.7448.1), dimensions={0,2,1}, metadata={scheduling_name="transpose.204.1"}
}

%fused_complex_transpose (param_0.104: c128[64,4,2,240]) -> (c128[64,4,2,240], c128[64,240,2,4], c128[64,2,240,4]) {
  %param_0.104 = c128[64,4,2,240]{1,2,3,0} parameter(0), metadata={scheduling_name="param_0.104"}
  %bitcast.7399.3 = c128[64,240,2,4]{3,2,1,0} bitcast(%param_0.104), metadata={scheduling_name="bitcast.7399.3"}
  %transpose.205.1 = c128[64,4,2,240]{3,2,1,0} transpose(%bitcast.7399.3), dimensions={0,3,2,1}, metadata={scheduling_name="transpose.205.1"}
  %real.106.3.clone.1 = f64[64,240,2,4]{3,2,1,0} real(%bitcast.7399.3), metadata={op_name="jit(_full_run)/jit(main)/while/body/jit(_matvec_impl)/jit(shmap_body)/real" source_file="/global/homes/j/jackm/software/lorrax_C/src/bse/bse_ring_comm.py" source_line=292 scheduling_name="real.106.3.clone.1"}
  %imag.83.5.clone.1 = f64[64,240,2,4]{3,2,1,0} imag(%bitcast.7399.3), metadata={op_name="jit(_full_run)/jit(main)/while/body/jit(_matvec_impl)/jit(shmap_body)/imag" source_file="/global/homes/j/jackm/software/lorrax_C/src/bse/bse_ring_comm.py" source_line=292 scheduling_name="imag.83.5.clone.1"}
  %negate.169.3.clone.1 = f64[64,240,2,4]{3,2,1,0} negate(%imag.83.5.clone.1), metadata={op_name="jit(_full_run)/jit(main)/while/body/jit(_matvec_impl)/jit(shmap_body)/neg" source_file="/global/homes/j/jackm/software/lorrax_C/src/bse/bse_ring_comm.py" source_line=292 scheduling_name="negate.169.3.clone.1"}
  %complex.82.1.clone.1 = c128[64,240,2,4]{3,2,1,0} complex(%real.106.3.clone.1, %negate.169.3.clone.1), metadata={op_name="jit(_full_run)/jit(main)/while/body/jit(_matvec_impl)/jit(shmap_body)/complex" source_file="/global/homes/j/jackm/software/lorrax_C/src/bse/bse_ring_comm.py" source_line=292 scheduling_name="complex.82.1.clone.1"}
  %transpose.211.1.clone.1 = c128[64,2,240,4]{3,2,1,0} transpose(%complex.82.1.clone.1), dimensions={0,2,1,3}, metadata={op_name="jit(_full_run)/jit(main)/while/body/jit(_matvec_impl)/jit(_apply_W_from_T)/complex" source_file="/global/homes/j/jackm/software/lorrax_C/src/bse/bse_ring_comm.py" source_line=403 scheduling_name="transpose.211.1.clone.1"}
  ROOT %tuple.152 = (c128[64,4,2,240]{3,2,1,0}, c128[64,240,2,4]{3,2,1,0}, c128[64,2,240,4]{3,2,1,0}) tuple(%transpose.205.1, %complex.82.1.clone.1, %transpose.211.1.clone.1), metadata={scheduling_name="tuple.152"}
}

%fused_dynamic_slice.2 (param_0.233: c128[64,4,2,240], param_1.251: s32[]) -> c128[64,240,2,2] {
  %param_0.233 = c128[64,4,2,240]{2,1,3,0} parameter(0), metadata={scheduling_name="param_0.233"}
  %bitcast.7376.1 = c128[64,240,4,2]{3,2,1,0} bitcast(%param_0.233), metadata={scheduling_name="bitcast.7376.1"}
  %constant_1778_9 = s32[] constant(0)
  %param_1.251 = s32[] parameter(1), metadata={scheduling_name="param_1.251"}
  %constant_1814_1 = s32[] constant(2)
  %multiply.735.1 = s32[] multiply(%param_1.251, %constant_1814_1), metadata={op_name="jit(_full_run)/jit(main)/while/body/jit(_matvec_impl)/jit(shmap_body)/mul" source_file="/global/homes/j/jackm/software/lorrax_C/src/bse/bse_ring_comm.py" source_line=288 scheduling_name="multiply.735.1"}
  %compare.548.1 = pred[] compare(%multiply.735.1, %constant_1778_9), direction=LT, metadata={op_name="jit(_full_run)/jit(main)/while/body/jit(_matvec_impl)/jit(shmap_body)/lt" source_file="/global/homes/j/jackm/software/lorrax_C/src/bse/bse_ring_comm.py" source_line=289 scheduling_name="compare.548.1"}
  %constant_1816_1 = s32[] constant(4)
  %add.1530.1 = s32[] add(%multiply.735.1, %constant_1816_1), metadata={op_name="jit(_full_run)/jit(main)/while/body/jit(_matvec_impl)/jit(shmap_body)/add" source_file="/global/homes/j/jackm/software/lorrax_C/src/bse/bse_ring_comm.py" source_line=289 scheduling_name="add.1530.1"}
  %select.960.1 = s32[] select(%compare.548.1, %add.1530.1, %multiply.735.1), metadata={op_name="jit(_full_run)/jit(main)/while/body/jit(_matvec_impl)/jit(shmap_body)/select_n" source_file="/global/homes/j/jackm/software/lorrax_C/src/bse/bse_ring_comm.py" source_line=289 scheduling_name="select.960.1"}
  ROOT %dynamic-slice.188.1 = c128[64,240,2,2]{3,2,1,0} dynamic-slice(%bitcast.7376.1, %constant_1778_9, %constant_1778_9, %select.960.1, %constant_1778_9), dynamic_slice_sizes={64,240,2,2}, metadata={op_name="jit(_full_run)/jit(main)/while/body/jit(_matvec_impl)/jit(shmap_body)/dynamic_slice" source_file="/global/homes/j/jackm/software/lorrax_C/src/bse/bse_ring_comm.py" source_line=289 scheduling_name="dynamic-slice.188.1"}
}

%fused_multiply (param_0.139: c128[1,240,64], param_1.134: c128[15360,2,4]) -> c128[64,240,2,4] {
  %param_0.139 = c128[1,240,64]{1,2,0} parameter(0), metadata={scheduling_name="param_0.139"}
  %bitcast.7371.3 = c128[64,240]{1,0} bitcast(%param_0.139), metadata={scheduling_name="bitcast.7371.3"}
  %broadcast.2152.3 = c128[64,240,2,4]{3,2,1,0} broadcast(%bitcast.7371.3), dimensions={0,1}, metadata={op_name="jit(_full_run)/jit(main)/while/body/jit(_matvec_impl)/jit(shmap_body)/kcvM,bMk->bcvk/dot_general" source_file="/global/homes/j/jackm/software/lorrax_C/src/bse/bse_ring_comm.py" source_line=293 scheduling_name="broadcast.2152.3"}
  %param_1.134 = c128[15360,2,4]{2,1,0} parameter(1), metadata={scheduling_name="param_1.134"}
  %bitcast.7411.4 = c128[64,240,2,4]{3,2,1,0} bitcast(%param_1.134), metadata={scheduling_name="bitcast.7411.4"}
  %real.107.3 = f64[64,240,2,4]{3,2,1,0} real(%bitcast.7411.4), metadata={op_name="jit(_full_run)/jit(main)/while/body/jit(_matvec_impl)/jit(shmap_body)/real" source_file="/global/homes/j/jackm/software/lorrax_C/src/bse/bse_ring_comm.py" source_line=293 scheduling_name="real.107.3"}
  %imag.84.3 = f64[64,240,2,4]{3,2,1,0} imag(%bitcast.7411.4), metadata={op_name="jit(_full_run)/jit(main)/while/body/jit(_matvec_impl)/jit(shmap_body)/imag" source_file="/global/homes/j/jackm/software/lorrax_C/src/bse/bse_ring_comm.py" source_line=293 scheduling_name="imag.84.3"}
  %negate.170.1 = f64[64,240,2,4]{3,2,1,0} negate(%imag.84.3), metadata={op_name="jit(_full_run)/jit(main)/while/body/jit(_matvec_impl)/jit(shmap_body)/neg" source_file="/global/homes/j/jackm/software/lorrax_C/src/bse/bse_ring_comm.py" source_line=293 scheduling_name="negate.170.1"}
  %complex.83.1 = c128[64,240,2,4]{3,2,1,0} complex(%real.107.3, %negate.170.1), metadata={op_name="jit(_full_run)/jit(main)/while/body/jit(_matvec_impl)/jit(shmap_body)/complex" source_file="/global/homes/j/jackm/software/lorrax_C/src/bse/bse_ring_comm.py" source_line=293 scheduling_name="complex.83.1"}
  ROOT %multiply.737.1 = c128[64,240,2,4]{3,2,1,0} multiply(%broadcast.2152.3, %complex.83.1), metadata={scheduling_name="multiply.737.1"}
}

%fused_multiply.1 (param_0.154: c128[1,240,64]) -> c128[1,240,64] {
  %param_0.154 = c128[1,240,64]{2,1,0} parameter(0), metadata={scheduling_name="param_0.154"}
  %constant_1818_2 = c128[] constant((0.125, 0)), metadata={op_name="jit(_full_run)/jit(main)/while/body/jit(_matvec_impl)/jit(shmap_body)/convert_element_type" source_file="/global/homes/j/jackm/software/lorrax_C/src/bse/bse_ring_comm.py" source_line=283}
  %broadcast.2151.1 = c128[1,240,64]{2,1,0} broadcast(%constant_1818_2), dimensions={}, metadata={op_name="jit(_full_run)/jit(main)/while/body/jit(_matvec_impl)/jit(shmap_body)/div" source_file="/global/homes/j/jackm/software/lorrax_C/src/bse/bse_ring_comm.py" source_line=283 scheduling_name="broadcast.2151.1"}
  ROOT %multiply.734.1 = c128[1,240,64]{2,1,0} multiply(%param_0.154, %broadcast.2151.1), metadata={op_name="jit(_full_run)/jit(main)/while/body/jit(_matvec_impl)/jit(shmap_body)/div" source_file="/global/homes/j/jackm/software/lorrax_C/src/bse/bse_ring_comm.py" source_line=283 scheduling_name="multiply.734.1"}
}

%fused_dynamic_update_slice (param_0.163: c128[512,200], param_1.239: c128[512], param_2.210: pred[], param_3.152: s64[]) -> c128[512,200] {
  %param_0.163 = c128[512,200]{1,0} parameter(0), metadata={scheduling_name="param_0.163"}
  %param_2.210 = pred[] parameter(2), metadata={scheduling_name="param_2.210"}
  %broadcast.2146.1 = pred[512,1]{1,0} broadcast(%param_2.210), dimensions={}, metadata={scheduling_name="broadcast.2146.1"}
  %param_1.239 = c128[512]{0} parameter(1), metadata={scheduling_name="param_1.239"}
  %bitcast.7669.3 = c128[512,1]{1,0} bitcast(%param_1.239), metadata={scheduling_name="bitcast.7669.3"}
  %constant_1778_1 = s32[] constant(0)
  %param_3.152 = s64[] parameter(3), metadata={scheduling_name="param_3.152"}
  %constant_1781_3 = s64[] constant(199)
  %minimum.27.1 = s64[] minimum(%param_3.152, %constant_1781_3), metadata={op_name="jit(_full_run)/jit(main)/while/body/min" source_file="/global/homes/j/jackm/software/lorrax_C/src/solvers/lanczos.py" source_line=281 scheduling_name="minimum.27.1"}
  %constant_1782_2 = s64[] constant(0)
  %compare.544.2 = pred[] compare(%minimum.27.1, %constant_1782_2), direction=LT, metadata={op_name="jit(_full_run)/jit(main)/while/body/lt" source_file="/global/homes/j/jackm/software/lorrax_C/src/solvers/lanczos.py" source_line=281 scheduling_name="compare.544.2"}
  %constant_1783_2 = s64[] constant(200)
  %add.1527.2 = s64[] add(%minimum.27.1, %constant_1783_2), metadata={op_name="jit(_full_run)/jit(main)/while/body/add" source_file="/global/homes/j/jackm/software/lorrax_C/src/solvers/lanczos.py" source_line=281 scheduling_name="add.1527.2"}
  %select.958.1 = s64[] select(%compare.544.2, %add.1527.2, %minimum.27.1), metadata={op_name="jit(_full_run)/jit(main)/while/body/select_n" source_file="/global/homes/j/jackm/software/lorrax_C/src/solvers/lanczos.py" source_line=281 scheduling_name="select.958.1"}
  %convert.229.2 = s32[] convert(%select.958.1), metadata={op_name="jit(_full_run)/jit(main)/while/body/convert_element_type" source_file="/global/homes/j/jackm/software/lorrax_C/src/solvers/lanczos.py" source_line=281 scheduling_name="convert.229.2"}
  %dynamic-slice.195.1 = c128[512,1]{1,0} dynamic-slice(%param_0.163, %constant_1778_1, %convert.229.2), dynamic_slice_sizes={512,1}, metadata={scheduling_name="dynamic-slice.195.1"}
  %select.963.3 = c128[512,1]{1,0} select(%broadcast.2146.1, %bitcast.7669.3, %dynamic-slice.195.1), metadata={scheduling_name="select.963.3"}
  ROOT %dynamic-update-slice.28.1 = c128[512,200]{1,0} dynamic-update-slice(%param_0.163, %select.963.3, %constant_1778_1, %convert.229.2), metadata={op_name="jit(_full_run)/jit(main)/while/body/scatter" source_file="/global/homes/j/jackm/software/lorrax_C/src/solvers/lanczos.py" source_line=281 scheduling_name="dynamic-update-slice.28.1"}
}

%fused_divide (param_0.167: c128[512], param_1.254: f64[]) -> c128[512] {
  %param_0.167 = c128[512]{0} parameter(0), metadata={scheduling_name="param_0.167"}
  %param_1.254 = f64[] parameter(1), metadata={scheduling_name="param_1.254"}
  %sqrt.101.2 = f64[] sqrt(%param_1.254), metadata={op_name="jit(_full_run)/jit(main)/while/body/jit(norm)/sqrt" source_file="/global/homes/j/jackm/software/lorrax_C/src/solvers/lanczos.py" source_line=277 scheduling_name="sqrt.101.2"}
  %constant_1881_1 = f64[] constant(1e-15)
  %maximum.60.3 = f64[] maximum(%sqrt.101.2, %constant_1881_1), metadata={op_name="jit(_full_run)/jit(main)/while/body/max" source_file="/global/homes/j/jackm/software/lorrax_C/src/solvers/lanczos.py" source_line=280 scheduling_name="maximum.60.3"}
  %convert.237.3 = c128[] convert(%maximum.60.3), metadata={op_name="jit(_full_run)/jit(main)/while/body/convert_element_type" source_file="/global/homes/j/jackm/software/lorrax_C/src/solvers/lanczos.py" source_line=280 scheduling_name="convert.237.3"}
  %broadcast.2162.1 = c128[512]{0} broadcast(%convert.237.3), dimensions={}, metadata={op_name="jit(_full_run)/jit(main)/while/body/div" source_file="/global/homes/j/jackm/software/lorrax_C/src/solvers/lanczos.py" source_line=280 scheduling_name="broadcast.2162.1"}
  ROOT %divide.202.1 = c128[512]{0} divide(%param_0.167, %broadcast.2162.1), metadata={op_name="jit(_full_run)/jit(main)/while/body/div" source_file="/global/homes/j/jackm/software/lorrax_C/src/solvers/lanczos.py" source_line=280 scheduling_name="divide.202.1"}
}

%fused_dynamic_update_slice.1 (param_0.197: f64[200], param_1.246: c128[], param_2.221: s64[]) -> f64[200] {
  %param_0.197 = f64[200]{0} parameter(0), metadata={scheduling_name="param_0.197"}
  %constant_1778_4 = s32[] constant(0)
  %param_2.221 = s64[] parameter(2), metadata={scheduling_name="param_2.221"}
  %constant_1782_4 = s64[] constant(0)
  %compare.551.5 = pred[] compare(%param_2.221, %constant_1782_4), direction=LT, metadata={op_name="jit(_full_run)/jit(main)/while/body/lt" source_file="/global/homes/j/jackm/software/lorrax_C/src/solvers/lanczos.py" source_line=261 scheduling_name="compare.551.5"}
  %constant_1783_1 = s64[] constant(200)
  %add.1534.5 = s64[] add(%param_2.221, %constant_1783_1), metadata={op_name="jit(_full_run)/jit(main)/while/body/add" source_file="/global/homes/j/jackm/software/lorrax_C/src/solvers/lanczos.py" source_line=261 scheduling_name="add.1534.5"}
  %select.964.5 = s64[] select(%compare.551.5, %add.1534.5, %param_2.221), metadata={op_name="jit(_full_run)/jit(main)/while/body/select_n" source_file="/global/homes/j/jackm/software/lorrax_C/src/solvers/lanczos.py" source_line=261 scheduling_name="select.964.5"}
  %convert.238.5 = s32[] convert(%select.964.5), metadata={op_name="jit(_full_run)/jit(main)/while/body/convert_element_type" source_file="/global/homes/j/jackm/software/lorrax_C/src/solvers/lanczos.py" source_line=261 scheduling_name="convert.238.5"}
  %compare.552.5 = pred[] compare(%constant_1778_4, %convert.238.5), direction=LE, metadata={scheduling_name="compare.552.5"}
  %constant_1784_1 = s32[] constant(199)
  %compare.553.5 = pred[] compare(%constant_1784_1, %convert.238.5), direction=GE, metadata={scheduling_name="compare.553.5"}
  %and.133.5 = pred[] and(%compare.552.5, %compare.553.5), metadata={scheduling_name="and.133.5"}
  %bitcast.7703.4 = pred[1]{0} bitcast(%and.133.5), metadata={scheduling_name="bitcast.7703.4"}
  %param_1.246 = c128[] parameter(1), metadata={scheduling_name="param_1.246"}
  %real.109.1 = f64[] real(%param_1.246), metadata={op_name="jit(_full_run)/jit(main)/while/body/real" source_file="/global/homes/j/jackm/software/lorrax_C/src/solvers/lanczos.py" source_line=260 scheduling_name="real.109.1"}
  %bitcast.7707.3 = f64[1]{0} bitcast(%real.109.1), metadata={scheduling_name="bitcast.7707.3"}
  %dynamic-slice.196.1 = f64[1]{0} dynamic-slice(%param_0.197, %convert.238.5), dynamic_slice_sizes={1}, metadata={scheduling_name="dynamic-slice.196.1"}
  %select.965.3 = f64[1]{0} select(%bitcast.7703.4, %bitcast.7707.3, %dynamic-slice.196.1), metadata={scheduling_name="select.965.3"}
  ROOT %dynamic-update-slice.29.1 = f64[200]{0} dynamic-update-slice(%param_0.197, %select.965.3, %convert.238.5), metadata={op_name="jit(_full_run)/jit(main)/while/body/scatter" source_file="/global/homes/j/jackm/software/lorrax_C/src/solvers/lanczos.py" source_line=261 scheduling_name="dynamic-update-slice.29.1"}
}

%fused_dynamic_update_slice.2 (param_0.199: f64[200], param_1.248: s64[], param_2.222: f64[]) -> f64[200] {
  %param_0.199 = f64[200]{0} parameter(0), metadata={scheduling_name="param_0.199"}
  %constant_1778_10 = s32[] constant(0)
  %param_1.248 = s64[] parameter(1), metadata={scheduling_name="param_1.248"}
  %constant_1782_3 = s64[] constant(0)
  %compare.551.3 = pred[] compare(%param_1.248, %constant_1782_3), direction=LT, metadata={op_name="jit(_full_run)/jit(main)/while/body/lt" source_file="/global/homes/j/jackm/software/lorrax_C/src/solvers/lanczos.py" source_line=261 scheduling_name="compare.551.3"}
  %constant_1783_4 = s64[] constant(200)
  %add.1534.3 = s64[] add(%param_1.248, %constant_1783_4), metadata={op_name="jit(_full_run)/jit(main)/while/body/add" source_file="/global/homes/j/jackm/software/lorrax_C/src/solvers/lanczos.py" source_line=261 scheduling_name="add.1534.3"}
  %select.964.3 = s64[] select(%compare.551.3, %add.1534.3, %param_1.248), metadata={op_name="jit(_full_run)/jit(main)/while/body/select_n" source_file="/global/homes/j/jackm/software/lorrax_C/src/solvers/lanczos.py" source_line=261 scheduling_name="select.964.3"}
  %convert.238.3 = s32[] convert(%select.964.3), metadata={op_name="jit(_full_run)/jit(main)/while/body/convert_element_type" source_file="/global/homes/j/jackm/software/lorrax_C/src/solvers/lanczos.py" source_line=261 scheduling_name="convert.238.3"}
  %compare.552.3 = pred[] compare(%constant_1778_10, %convert.238.3), direction=LE, metadata={scheduling_name="compare.552.3"}
  %constant_1784_3 = s32[] constant(199)
  %compare.553.3 = pred[] compare(%constant_1784_3, %convert.238.3), direction=GE, metadata={scheduling_name="compare.553.3"}
  %and.133.3 = pred[] and(%compare.552.3, %compare.553.3), metadata={scheduling_name="and.133.3"}
  %bitcast.7703.6 = pred[1]{0} bitcast(%and.133.3), metadata={scheduling_name="bitcast.7703.6"}
  %param_2.222 = f64[] parameter(2), metadata={scheduling_name="param_2.222"}
  %sqrt.101.1 = f64[] sqrt(%param_2.222), metadata={op_name="jit(_full_run)/jit(main)/while/body/jit(norm)/sqrt" source_file="/global/homes/j/jackm/software/lorrax_C/src/solvers/lanczos.py" source_line=277 scheduling_name="sqrt.101.1"}
  %bitcast.7722.3 = f64[1]{0} bitcast(%sqrt.101.1), metadata={scheduling_name="bitcast.7722.3"}
  %dynamic-slice.197.1 = f64[1]{0} dynamic-slice(%param_0.199, %convert.238.3), dynamic_slice_sizes={1}, metadata={scheduling_name="dynamic-slice.197.1"}
  %select.966.3 = f64[1]{0} select(%bitcast.7703.6, %bitcast.7722.3, %dynamic-slice.197.1), metadata={scheduling_name="select.966.3"}
  ROOT %dynamic-update-slice.30.1 = f64[200]{0} dynamic-update-slice(%param_0.199, %select.966.3, %convert.238.3), metadata={op_name="jit(_full_run)/jit(main)/while/body/scatter" source_file="/global/homes/j/jackm/software/lorrax_C/src/solvers/lanczos.py" source_line=278 scheduling_name="dynamic-update-slice.30.1"}
}

%fused_maximum (param_0.234: s64[]) -> s64[] {
  %param_0.234 = s64[] parameter(0), metadata={scheduling_name="param_0.234"}
  %constant_1786_1 = s64[] constant(-10)
  %add.1528.1 = s64[] add(%param_0.234, %constant_1786_1), metadata={op_name="jit(_full_run)/jit(main)/while/body/sub" source_file="/global/homes/j/jackm/software/lorrax_C/src/solvers/lanczos.py" source_line=274 scheduling_name="add.1528.1"}
  %constant_1782_1 = s64[] constant(0)
  ROOT %maximum.58.1 = s64[] maximum(%add.1528.1, %constant_1782_1), metadata={op_name="jit(_full_run)/jit(main)/while/body/max" source_file="/global/homes/j/jackm/software/lorrax_C/src/solvers/lanczos.py" source_line=274 scheduling_name="maximum.58.1"}
}

%and.reduce_sub_computation (lhs: pred[], rhs: pred[]) -> pred[] {
  %rhs = pred[] parameter(1), metadata={scheduling_name="rhs"}
  %lhs = pred[] parameter(0), metadata={scheduling_name="lhs"}
  ROOT %and.123 = pred[] and(%lhs, %rhs), metadata={scheduling_name="and.123"}
}

%fused_reduce.1 (param_0.235: s64[]) -> pred[] {
  %constant_1778_2 = s32[] constant(0)
  %broadcast.2144.1 = s32[2]{0} broadcast(%constant_1778_2), dimensions={}, metadata={scheduling_name="broadcast.2144.1"}
  %constant_1779_1 = s32[1]{0} constant({0})
  %param_0.235 = s64[] parameter(0), metadata={scheduling_name="param_0.235"}
  %constant_1781_2 = s64[] constant(199)
  %minimum.27.2 = s64[] minimum(%param_0.235, %constant_1781_2), metadata={op_name="jit(_full_run)/jit(main)/while/body/min" source_file="/global/homes/j/jackm/software/lorrax_C/src/solvers/lanczos.py" source_line=281 scheduling_name="minimum.27.2"}
  %constant_1782_6 = s64[] constant(0)
  %compare.544.1 = pred[] compare(%minimum.27.2, %constant_1782_6), direction=LT, metadata={op_name="jit(_full_run)/jit(main)/while/body/lt" source_file="/global/homes/j/jackm/software/lorrax_C/src/solvers/lanczos.py" source_line=281 scheduling_name="compare.544.1"}
  %constant_1783_3 = s64[] constant(200)
  %add.1527.1 = s64[] add(%minimum.27.2, %constant_1783_3), metadata={op_name="jit(_full_run)/jit(main)/while/body/add" source_file="/global/homes/j/jackm/software/lorrax_C/src/solvers/lanczos.py" source_line=281 scheduling_name="add.1527.1"}
  %select.958.2 = s64[] select(%compare.544.1, %add.1527.1, %minimum.27.2), metadata={op_name="jit(_full_run)/jit(main)/while/body/select_n" source_file="/global/homes/j/jackm/software/lorrax_C/src/solvers/lanczos.py" source_line=281 scheduling_name="select.958.2"}
  %convert.229.1 = s32[] convert(%select.958.2), metadata={op_name="jit(_full_run)/jit(main)/while/body/convert_element_type" source_file="/global/homes/j/jackm/software/lorrax_C/src/solvers/lanczos.py" source_line=281 scheduling_name="convert.229.1"}
  %bitcast.7224.3 = s32[1]{0} bitcast(%convert.229.1), metadata={scheduling_name="bitcast.7224.3"}
  %concatenate.22.3 = s32[2]{0} concatenate(%constant_1779_1, %bitcast.7224.3), dimensions={0}, metadata={scheduling_name="concatenate.22.3"}
  %compare.545.1 = pred[2]{0} compare(%broadcast.2144.1, %concatenate.22.3), direction=LE, metadata={scheduling_name="compare.545.1"}
  %iota.59.1 = s32[2]{0} iota(), iota_dimension=0, metadata={scheduling_name="iota.59.1"}
  %constant_1784_2 = s32[] constant(199)
  %broadcast.2145.1 = s32[2]{0} broadcast(%constant_1784_2), dimensions={}, metadata={scheduling_name="broadcast.2145.1"}
  %multiply.727.1 = s32[2]{0} multiply(%iota.59.1, %broadcast.2145.1), metadata={scheduling_name="multiply.727.1"}
  %compare.546.1 = pred[2]{0} compare(%multiply.727.1, %concatenate.22.3), direction=GE, metadata={scheduling_name="compare.546.1"}
  %and.130.1 = pred[2]{0} and(%compare.545.1, %compare.546.1), metadata={scheduling_name="and.130.1"}
  %constant_1785_1 = pred[] constant(true)
  ROOT %reduce.50.1 = pred[] reduce(%and.130.1, %constant_1785_1), dimensions={0}, to_apply=%and.reduce_sub_computation, metadata={scheduling_name="reduce.50.1"}
}

%region_1.1260 (Arg_0.1261: f64[], Arg_1.1262: f64[]) -> f64[] {
  %Arg_1.1262 = f64[] parameter(1), metadata={op_name="jit(_full_run)/jit(main)/jit(norm)/reduce_sum" scheduling_name="Arg_1.1262"}
  %Arg_0.1261 = f64[] parameter(0), metadata={op_name="jit(_full_run)/jit(main)/jit(norm)/reduce_sum" scheduling_name="Arg_0.1261"}
  ROOT %add.1501 = f64[] add(%Arg_0.1261, %Arg_1.1262), metadata={op_name="jit(_full_run)/jit(main)/jit(norm)/reduce_sum" source_file="/global/homes/j/jackm/software/lorrax_C/src/solvers/lanczos.py" source_line=249 scheduling_name="add.1501"}
}

%fused_reduce.2 (param_0.243: c128[512]) -> f64[] {
  %param_0.243 = c128[512]{0} parameter(0), metadata={scheduling_name="param_0.243"}
  %real.110.3 = f64[512]{0} real(%param_0.243), metadata={op_name="jit(_full_run)/jit(main)/while/body/jit(norm)/real" source_file="/global/homes/j/jackm/software/lorrax_C/src/solvers/lanczos.py" source_line=277 scheduling_name="real.110.3"}
  %imag.86.5 = f64[512]{0} imag(%param_0.243), metadata={op_name="jit(_full_run)/jit(main)/while/body/jit(norm)/imag" source_file="/global/homes/j/jackm/software/lorrax_C/src/solvers/lanczos.py" source_line=277 scheduling_name="imag.86.5"}
  %negate.172.5 = f64[512]{0} negate(%imag.86.5), metadata={op_name="jit(_full_run)/jit(main)/while/body/jit(norm)/neg" source_file="/global/homes/j/jackm/software/lorrax_C/src/solvers/lanczos.py" source_line=277 scheduling_name="negate.172.5"}
  %complex.85.3 = c128[512]{0} complex(%real.110.3, %negate.172.5), metadata={op_name="jit(_full_run)/jit(main)/while/body/jit(norm)/complex" source_file="/global/homes/j/jackm/software/lorrax_C/src/solvers/lanczos.py" source_line=277 scheduling_name="complex.85.3"}
  %multiply.749.3 = c128[512]{0} multiply(%param_0.243, %complex.85.3), metadata={op_name="jit(_full_run)/jit(main)/while/body/jit(norm)/mul" source_file="/global/homes/j/jackm/software/lorrax_C/src/solvers/lanczos.py" source_line=277 scheduling_name="multiply.749.3"}
  %real.111.3 = f64[512]{0} real(%multiply.749.3), metadata={op_name="jit(_full_run)/jit(main)/while/body/jit(norm)/real" source_file="/global/homes/j/jackm/software/lorrax_C/src/solvers/lanczos.py" source_line=277 scheduling_name="real.111.3"}
  %constant_1874_1 = f64[] constant(0)
  ROOT %reduce.53.1 = f64[] reduce(%real.111.3, %constant_1874_1), dimensions={0}, to_apply=%region_1.1260, metadata={op_name="jit(_full_run)/jit(main)/while/body/jit(norm)/reduce_sum" source_file="/global/homes/j/jackm/software/lorrax_C/src/solvers/lanczos.py" source_line=277 scheduling_name="reduce.53.1"}
}

%fused_reduce.3 (param_0.241: c128[1,2,4,64], param_1.250: c128[512]) -> c128[] {
  %param_1.250 = c128[512]{0} parameter(1), metadata={scheduling_name="param_1.250"}
  %real.108.3 = f64[512]{0} real(%param_1.250), metadata={op_name="jit(_full_run)/jit(main)/while/body/real" source_file="/global/homes/j/jackm/software/lorrax_C/src/solvers/lanczos.py" source_line=260 scheduling_name="real.108.3"}
  %imag.85.5 = f64[512]{0} imag(%param_1.250), metadata={op_name="jit(_full_run)/jit(main)/while/body/imag" source_file="/global/homes/j/jackm/software/lorrax_C/src/solvers/lanczos.py" source_line=260 scheduling_name="imag.85.5"}
  %negate.171.5 = f64[512]{0} negate(%imag.85.5), metadata={op_name="jit(_full_run)/jit(main)/while/body/neg" source_file="/global/homes/j/jackm/software/lorrax_C/src/solvers/lanczos.py" source_line=260 scheduling_name="negate.171.5"}
  %complex.84.3 = c128[512]{0} complex(%real.108.3, %negate.171.5), metadata={op_name="jit(_full_run)/jit(main)/while/body/complex" source_file="/global/homes/j/jackm/software/lorrax_C/src/solvers/lanczos.py" source_line=260 scheduling_name="complex.84.3"}
  %param_0.241 = c128[1,2,4,64]{3,1,0,2} parameter(0), metadata={scheduling_name="param_0.241"}
  %bitcast.7573.7 = c128[4,2,64]{2,1,0} bitcast(%param_0.241), metadata={scheduling_name="bitcast.7573.7"}
  %transpose.216.7 = c128[2,4,64]{2,1,0} transpose(%bitcast.7573.7), dimensions={1,0,2}, metadata={op_name="jit(_full_run)/jit(main)/while/body/reshape" source_file="/global/homes/j/jackm/software/lorrax_C/src/bse/bse_lanczos.py" source_line=167 scheduling_name="transpose.216.7"}
  %bitcast.7586.6 = c128[512]{0} bitcast(%transpose.216.7), metadata={scheduling_name="bitcast.7586.6"}
  %multiply.745.3 = c128[512]{0} multiply(%complex.84.3, %bitcast.7586.6), metadata={scheduling_name="multiply.745.3"}
  %constant_1809_6 = c128[] constant((0, 0))
  ROOT %reduce.52.1 = c128[] reduce(%multiply.745.3, %constant_1809_6), dimensions={0}, to_apply=%region_7.1398, metadata={op_name="jit(_full_run)/jit(main)/while/body/dot_general" source_file="/global/homes/j/jackm/software/lorrax_C/src/solvers/lanczos.py" source_line=260 scheduling_name="reduce.52.1"}
}

%fused_add.6 (param_0.231: s64[]) -> s64[] {
  %param_0.231 = s64[] parameter(0), metadata={scheduling_name="param_0.231"}
  %constant_1777_1 = s64[] constant(1)
  ROOT %add.1526.1 = s64[] add(%param_0.231, %constant_1777_1), metadata={op_name="jit(_full_run)/jit(main)/while/body/add" source_file="/global/homes/j/jackm/software/lorrax_C/src/solvers/lanczos.py" source_line=286 scheduling_name="add.1526.1"}
}

%fused_broadcast () -> c128[1,240,64] {
  %constant_1809_1 = c128[] constant((0, 0))
  ROOT %broadcast.2150.1 = c128[1,240,64]{2,1,0} broadcast(%constant_1809_1), dimensions={}, metadata={scheduling_name="broadcast.2150.1"}
}

%fused_reduce.4 (param_0.240: c128[64,240,2,4]) -> c128[64,2,4] {
  %param_0.240 = c128[64,240,2,4]{3,2,1,0} parameter(0), metadata={scheduling_name="param_0.240"}
  %constant_1809_5 = c128[] constant((0, 0))
  ROOT %reduce.51.1 = c128[64,2,4]{1,0,2} reduce(%param_0.240, %constant_1809_5), dimensions={1}, to_apply=%region_7.1398, metadata={op_name="jit(_full_run)/jit(main)/while/body/jit(_matvec_impl)/jit(shmap_body)/kcvM,bMk->bcvk/dot_general" source_file="/global/homes/j/jackm/software/lorrax_C/src/bse/bse_ring_comm.py" source_line=293 scheduling_name="reduce.51.1"}
}

%fused_slice (param_1_0: c128[64,4,2,240], param_1_1: s32[]) -> (c128[30720], c128[61440]) {
  %constant_1809_7 = c128[] constant((0, 0))
  %broadcast.2149.2 = c128[1,2,240,64]{3,2,1,0} broadcast(%constant_1809_7), dimensions={}, metadata={scheduling_name="broadcast.2149.2"}
  %reshape.648 = c128[30720]{0} reshape(%broadcast.2149.2), metadata={scheduling_name="reshape.648"}
  %param_1_0 = c128[64,4,2,240]{3,2,1,0} parameter(0), metadata={scheduling_name="param_1_0"}
  %constant_1778_11 = s32[] constant(0)
  %param_1_1 = s32[] parameter(1), metadata={scheduling_name="param_1_1"}
  %constant_1814_3 = s32[] constant(2)
  %multiply.733.2 = s32[] multiply(%param_1_1, %constant_1814_3), metadata={op_name="jit(_full_run)/jit(main)/while/body/jit(_matvec_impl)/jit(shmap_body)/mul" source_file="/global/homes/j/jackm/software/lorrax_C/src/bse/bse_ring_comm.py" source_line=249 scheduling_name="multiply.733.2"}
  %compare.547.2 = pred[] compare(%multiply.733.2, %constant_1778_11), direction=LT, metadata={op_name="jit(_full_run)/jit(main)/while/body/jit(_matvec_impl)/jit(shmap_body)/lt" source_file="/global/homes/j/jackm/software/lorrax_C/src/bse/bse_ring_comm.py" source_line=251 scheduling_name="compare.547.2"}
  %constant_1816_3 = s32[] constant(4)
  %add.1529.2 = s32[] add(%multiply.733.2, %constant_1816_3), metadata={op_name="jit(_full_run)/jit(main)/while/body/jit(_matvec_impl)/jit(shmap_body)/add" source_file="/global/homes/j/jackm/software/lorrax_C/src/bse/bse_ring_comm.py" source_line=251 scheduling_name="add.1529.2"}
  %select.959.2 = s32[] select(%compare.547.2, %add.1529.2, %multiply.733.2), metadata={op_name="jit(_full_run)/jit(main)/while/body/jit(_matvec_impl)/jit(shmap_body)/select_n" source_file="/global/homes/j/jackm/software/lorrax_C/src/bse/bse_ring_comm.py" source_line=251 scheduling_name="select.959.2"}
  %dynamic-slice.187.2 = c128[64,2,2,240]{3,2,1,0} dynamic-slice(%param_1_0, %constant_1778_11, %select.959.2, %constant_1778_11, %constant_1778_11), dynamic_slice_sizes={64,2,2,240}, metadata={op_name="jit(_full_run)/jit(main)/while/body/jit(_matvec_impl)/jit(shmap_body)/dynamic_slice" source_file="/global/homes/j/jackm/software/lorrax_C/src/bse/bse_ring_comm.py" source_line=251 scheduling_name="dynamic-slice.187.2"}
  %reshape.649 = c128[61440]{0} reshape(%dynamic-slice.187.2), metadata={op_name="jit(_full_run)/jit(main)/while/body/jit(_matvec_impl)/jit(shmap_body)/dynamic_slice" source_file="/global/homes/j/jackm/software/lorrax_C/src/bse/bse_ring_comm.py" source_line=251 scheduling_name="reshape.649"}
  %concatenate.24 = c128[92160]{0} concatenate(%reshape.648, %reshape.649), dimensions={0}, metadata={scheduling_name="concatenate.24"}
  %slice.141 = c128[30720]{0} slice(%concatenate.24), slice={[0:30720]}, metadata={scheduling_name="slice.141"}
  %slice.142 = c128[61440]{0} slice(%concatenate.24), slice={[30720:92160]}, metadata={scheduling_name="slice.142"}
  ROOT %tuple.156 = (c128[30720]{0}, c128[61440]{0}) tuple(%slice.141, %slice.142), metadata={op_name="jit(_full_run)/jit(main)/while/body/jit(_matvec_impl)/jit(shmap_body)/dynamic_slice" source_file="/global/homes/j/jackm/software/lorrax_C/src/bse/bse_ring_comm.py" source_line=251 scheduling_name="tuple.156"}
}

%region_9.1428 (Arg_0.1429: c128[], Arg_1.1430: c128[]) -> c128[] {
  %Arg_1.1430 = c128[] parameter(1), metadata={op_name="jit(_full_run)/jit(main)/while/body/jit(_matvec_impl)/jit(shmap_body)/psum2" scheduling_name="Arg_1.1430"}
  %Arg_0.1429 = c128[] parameter(0), metadata={op_name="jit(_full_run)/jit(main)/while/body/jit(_matvec_impl)/jit(shmap_body)/psum2" scheduling_name="Arg_0.1429"}
  ROOT %add.1503 = c128[] add(%Arg_0.1429, %Arg_1.1430), metadata={op_name="jit(_full_run)/jit(main)/while/body/jit(_matvec_impl)/jit(shmap_body)/add" source_file="/global/homes/j/jackm/software/lorrax_C/src/bse/bse_ring_comm.py" source_line=286 scheduling_name="add.1503"}
}

%scalar_add_computation.clone (scalar_lhs.2: c128[], scalar_rhs.2: c128[]) -> c128[] {
  %scalar_rhs.2 = c128[] parameter(1), metadata={scheduling_name="scalar_rhs.2"}
  %scalar_lhs.2 = c128[] parameter(0), metadata={scheduling_name="scalar_lhs.2"}
  ROOT %add.1520 = c128[] add(%scalar_lhs.2, %scalar_rhs.2), metadata={scheduling_name="add.1520"}
}

%region_20.2027.clone (Arg_0.2: f64[], Arg_1.1: f64[]) -> f64[] {
  %Arg_1.1 = f64[] parameter(1), metadata={op_name="jit(_full_run)/jit(main)/while/body/jit(norm)/reduce_sum" scheduling_name="Arg_1.1"}
  %Arg_0.2 = f64[] parameter(0), metadata={op_name="jit(_full_run)/jit(main)/while/body/jit(norm)/reduce_sum" scheduling_name="Arg_0.2"}
  ROOT %add.1525 = f64[] add(%Arg_0.2, %Arg_1.1), metadata={op_name="jit(_full_run)/jit(main)/while/body/jit(norm)/reduce_sum" source_file="/global/homes/j/jackm/software/lorrax_C/src/solvers/lanczos.py" source_line=277 scheduling_name="add.1525"}
}

%add.1.clone (x.3: c128[], y.3: c128[]) -> c128[] {
  %y.3 = c128[] parameter(1), metadata={scheduling_name="y.3"}
  %x.3 = c128[] parameter(0), metadata={scheduling_name="x.3"}
  ROOT %add.1519 = c128[] add(%x.3, %y.3), metadata={scheduling_name="add.1519"}
}

%async_computation (param_0.717: c128[64,2,4]) -> c128[64,2,2] {
  %param_0.717 = c128[64,2,4]{1,0,2} parameter(0), metadata={scheduling_name="param_0.717"}
  ROOT %reduce-scatter.8.1 = c128[64,2,2]{1,0,2} reduce-scatter(%param_0.717), channel_id=22, replica_groups={{0,1},{2,3}}, use_global_device_ids=true, dimensions={2}, to_apply=%add.1.clone, metadata={scheduling_name="reduce-scatter.8.1"}
}

%add.clone (x.1: c128[], y.1: c128[]) -> c128[] {
  %y.1 = c128[] parameter(1), metadata={scheduling_name="y.1"}
  %x.1 = c128[] parameter(0), metadata={scheduling_name="x.1"}
  ROOT %add.1518 = c128[] add(%x.1, %y.1), metadata={scheduling_name="add.1518"}
}

%async_computation.1 (param_0.718: c128[64,4,2,240], param_1.900: c128[1,4,2,64]) -> (c128[64,2,2,240], c128[1,2,2,64]) {
  %param_1.900 = c128[1,4,2,64]{2,0,3,1} parameter(1), metadata={scheduling_name="param_1.900"}
  %param_0.718 = c128[64,4,2,240]{2,3,0,1} parameter(0), metadata={scheduling_name="param_0.718"}
  ROOT %reduce-scatter.10 = (c128[64,2,2,240]{2,3,0,1}, c128[1,2,2,64]{2,0,3,1}) reduce-scatter(%param_0.718, %param_1.900), channel_id=21, replica_groups={{0,2},{1,3}}, use_global_device_ids=true, dimensions={1}, to_apply=%add.clone, metadata={scheduling_name="reduce-scatter.10"}
}

%wrapped_transpose_computation.2 (param_0.721: c128[64,4,2,240]) -> c128[64,240,2,4] {
  %param_0.721 = c128[64,4,2,240]{3,2,1,0} parameter(0), metadata={scheduling_name="param_0.721"}
  ROOT %transpose.213.1 = c128[64,240,2,4]{3,2,1,0} transpose(%param_0.721), dimensions={0,3,2,1}, metadata={op_name="jit(_full_run)/jit(main)/while/body/jit(_matvec_impl)/shard_map" source_file="/global/homes/j/jackm/software/lorrax_C/src/bse/bse_ring_comm.py" source_line=425 scheduling_name="transpose.213.1"}
}

%fused_convert (param_0.242: u32[]) -> s32[] {
  %param_0.242 = u32[] parameter(0), metadata={scheduling_name="param_0.242"}
  %constant_1810_1 = u32[] constant(1), metadata={op_name="jit(_full_run)/jit(main)/while/body/jit(_matvec_impl)/jit(shmap_body)/axis_index" source_file="/global/homes/j/jackm/software/lorrax_C/src/bse/bse_ring_comm.py" source_line=242}
  %shift-right-logical.452.1 = u32[] shift-right-logical(%param_0.242, %constant_1810_1), metadata={op_name="jit(_full_run)/jit(main)/while/body/jit(_matvec_impl)/jit(shmap_body)/axis_index" source_file="/global/homes/j/jackm/software/lorrax_C/src/bse/bse_ring_comm.py" source_line=241 scheduling_name="shift-right-logical.452.1"}
  %and.132.1 = u32[] and(%shift-right-logical.452.1, %constant_1810_1), metadata={op_name="jit(_full_run)/jit(main)/while/body/jit(_matvec_impl)/jit(shmap_body)/axis_index" source_file="/global/homes/j/jackm/software/lorrax_C/src/bse/bse_ring_comm.py" source_line=241 scheduling_name="and.132.1"}
  ROOT %convert.234.1 = s32[] convert(%and.132.1), metadata={op_name="jit(_full_run)/jit(main)/while/body/jit(_matvec_impl)/jit(shmap_body)/axis_index" source_file="/global/homes/j/jackm/software/lorrax_C/src/bse/bse_ring_comm.py" source_line=241 scheduling_name="convert.234.1"}
}

%fused_convert.1 (param_0.213: u32[]) -> s32[] {
  %param_0.213 = u32[] parameter(0), metadata={scheduling_name="param_0.213"}
  %constant_1810_2 = u32[] constant(1), metadata={op_name="jit(_full_run)/jit(main)/while/body/jit(_matvec_impl)/jit(shmap_body)/axis_index" source_file="/global/homes/j/jackm/software/lorrax_C/src/bse/bse_ring_comm.py" source_line=242}
  %and.131.1 = u32[] and(%param_0.213, %constant_1810_2), metadata={op_name="jit(_full_run)/jit(main)/while/body/jit(_matvec_impl)/jit(shmap_body)/axis_index" source_file="/global/homes/j/jackm/software/lorrax_C/src/bse/bse_ring_comm.py" source_line=242 scheduling_name="and.131.1"}
  ROOT %convert.233.1 = s32[] convert(%and.131.1), metadata={op_name="jit(_full_run)/jit(main)/while/body/jit(_matvec_impl)/jit(shmap_body)/axis_index" source_file="/global/homes/j/jackm/software/lorrax_C/src/bse/bse_ring_comm.py" source_line=242 scheduling_name="convert.233.1"}
}

%fused_broadcast.1 () -> c128[1,2,64,2,240] {
  %constant_1809_3 = c128[] constant((0, 0))
  ROOT %broadcast.2514.1 = c128[1,2,64,2,240]{4,3,1,2,0} broadcast(%constant_1809_3), dimensions={}, metadata={scheduling_name="broadcast.2514.1"}
}

%fused_transpose.9 (param_0.232: c128[512], param_1.243: s32[4], param_2.216: u32[]) -> c128[64,4] {
  %param_0.232 = c128[512]{0} parameter(0), metadata={scheduling_name="param_0.232"}
  %bitcast.7292.5 = c128[1,2,4,64]{3,2,1,0} bitcast(%param_0.232), metadata={scheduling_name="bitcast.7292.5"}
  %constant_1778_8 = s32[] constant(0)
  %param_1.243 = s32[4]{0} parameter(1), metadata={scheduling_name="param_1.243"}
  %param_2.216 = u32[] parameter(2), metadata={scheduling_name="param_2.216"}
  %dynamic-slice.185.1 = s32[1]{0} dynamic-slice(%param_1.243, %param_2.216), dynamic_slice_sizes={1}, metadata={op_name="jit(_full_run)/jit(main)/while/body/reshape" source_file="/global/homes/j/jackm/software/lorrax_C/src/bse/bse_lanczos.py" source_line=161 scheduling_name="dynamic-slice.185.1"}
  %bitcast.7301.5 = s32[] bitcast(%dynamic-slice.185.1), metadata={scheduling_name="bitcast.7301.5"}
  %dynamic-slice.186.5 = c128[1,2,2,64]{3,2,1,0} dynamic-slice(%bitcast.7292.5, %constant_1778_8, %constant_1778_8, %bitcast.7301.5, %constant_1778_8), dynamic_slice_sizes={1,2,2,64}, metadata={op_name="jit(_full_run)/jit(main)/while/body/reshape" source_file="/global/homes/j/jackm/software/lorrax_C/src/bse/bse_lanczos.py" source_line=161 scheduling_name="dynamic-slice.186.5"}
  %bitcast.7315.1 = c128[4,64]{1,0} bitcast(%dynamic-slice.186.5), metadata={scheduling_name="bitcast.7315.1"}
  ROOT %transpose.203.1 = c128[64,4]{1,0} transpose(%bitcast.7315.1), dimensions={1,0}, metadata={scheduling_name="transpose.203.1"}
}

%fused_broadcast.2 () -> c128[1,240,240,2,2,64] {
  %constant_1809_4 = c128[] constant((0, 0))
  ROOT %broadcast.2515.1 = c128[1,240,240,2,2,64]{1,3,2,4,5,0} broadcast(%constant_1809_4), dimensions={}, metadata={scheduling_name="broadcast.2515.1"}
}

%command_buffer.6 (p.22: (s64[], c128[512,200], f64[200], f64[200], c128[512], /*index=5*/c128[64,4,2,240], c128[64,4,2,240], c128[64,4,2,240], c128[64,4,2,240], f64[64,4], /*index=10*/f64[64,4], c128[240,240,4,4,4], c128[240,240]), p.23: s32[4], p.24: s64[]) -> (u32[], s32[], s32[], c128[1,2,64,2,240], c128[512], /*index=5*/c128[1,240,240,2,2,64], c128[1,2,2,64], c128[1,2,2,64], s64[], s64[]) {
  %p.22 = (s64[], c128[512,200]{1,0}, f64[200]{0}, f64[200]{0}, c128[512]{0}, /*index=5*/c128[64,4,2,240]{1,2,3,0}, c128[64,4,2,240]{3,2,1,0}, c128[64,4,2,240]{2,1,3,0}, c128[64,4,2,240]{3,2,1,0}, f64[64,4]{0,1}, /*index=10*/f64[64,4]{1,0}, c128[240,240,4,4,4]{4,3,2,1,0}, c128[240,240]{1,0}) parameter(0)
  %p.23 = s32[4]{0} parameter(1)
  %p.24 = s64[] parameter(2)
  %partition-id.35.0 = u32[] partition-id(), metadata={scheduling_name="partition-id.35.0"}
  %loop_convert_fusion = s32[] fusion(%partition-id.35.0), kind=kLoop, calls=%fused_convert, metadata={op_name="jit(_full_run)/jit(main)/while/body/jit(_matvec_impl)/jit(shmap_body)/axis_index" source_file="/global/homes/j/jackm/software/lorrax_C/src/bse/bse_ring_comm.py" source_line=241 scheduling_name="loop_convert_fusion"}
  %loop_convert_fusion.1 = s32[] fusion(%partition-id.35.0), kind=kLoop, calls=%fused_convert.1, metadata={op_name="jit(_full_run)/jit(main)/while/body/jit(_matvec_impl)/jit(shmap_body)/axis_index" source_file="/global/homes/j/jackm/software/lorrax_C/src/bse/bse_ring_comm.py" source_line=242 scheduling_name="loop_convert_fusion.1"}
  %loop_broadcast_fusion.1 = c128[1,2,64,2,240]{4,3,1,2,0} fusion(), kind=kLoop, calls=%fused_broadcast.1, metadata={scheduling_name="loop_broadcast_fusion.1"}
  %get-tuple-element.829 = c128[512]{0} get-tuple-element(%p.22), index=4, metadata={scheduling_name="get-tuple-element.829"}
  %loop_transpose_fusion.6 = c128[64,4]{1,0} fusion(%get-tuple-element.829, %p.23, %partition-id.35.0), kind=kLoop, calls=%fused_transpose.9, metadata={scheduling_name="loop_transpose_fusion.6"}
  %loop_broadcast_fusion.2 = c128[1,240,240,2,2,64]{1,3,2,4,5,0} fusion(), kind=kLoop, calls=%fused_broadcast.2, metadata={scheduling_name="loop_broadcast_fusion.2"}
  %bitcast.7438.0 = c128[1,2,2,64]{2,1,3,0} bitcast(%loop_transpose_fusion.6), metadata={scheduling_name="bitcast.7438.0"}
  %copy.109 = c128[1,2,2,64]{2,1,3,0} copy(%bitcast.7438.0), metadata={scheduling_name="copy.109"}
  %copy.176 = s64[] copy(%p.24)
  %copy.108 = s64[] copy(%copy.176), metadata={scheduling_name="copy.108"}
  ROOT %tuple.183 = (u32[], s32[], s32[], c128[1,2,64,2,240]{4,3,1,2,0}, c128[512]{0}, /*index=5*/c128[1,240,240,2,2,64]{1,3,2,4,5,0}, c128[1,2,2,64]{2,1,3,0}, c128[1,2,2,64]{2,1,3,0}, s64[], s64[]) tuple(%partition-id.35.0, %loop_convert_fusion, %loop_convert_fusion.1, %loop_broadcast_fusion.1, %get-tuple-element.829, /*index=5*/%loop_broadcast_fusion.2, %bitcast.7438.0, %copy.109, %copy.176, %copy.108)
}

%region_3.2136.clone.clone.clone_spmd (param.19.0: (s64[], c128[512,200], f64[200], f64[200], c128[512], /*index=5*/c128[64,4,2,240], c128[64,4,2,240], c128[64,4,2,240], c128[64,4,2,240], f64[64,4], /*index=10*/f64[64,4], c128[240,240,4,4,4], c128[240,240])) -> (s64[], c128[512,200], f64[200], f64[200], c128[512], /*index=5*/c128[64,4,2,240], c128[64,4,2,240], c128[64,4,2,240], c128[64,4,2,240], f64[64,4], /*index=10*/f64[64,4], c128[240,240,4,4,4], c128[240,240]) {
  %param.19.0 = (s64[], c128[512,200]{1,0}, f64[200]{0}, f64[200]{0}, c128[512]{0}, /*index=5*/c128[64,4,2,240]{1,2,3,0}, c128[64,4,2,240]{3,2,1,0}, c128[64,4,2,240]{2,1,3,0}, c128[64,4,2,240]{3,2,1,0}, f64[64,4]{0,1}, /*index=10*/f64[64,4]{1,0}, c128[240,240,4,4,4]{4,3,2,1,0}, c128[240,240]{1,0}) parameter(0), metadata={scheduling_name="param.19.0"}
  %constant_1801_0 = s32[4]{0} constant({0, 2, 0, 2}), metadata={op_name="jit(_full_run)/jit(main)/while/body/reshape" source_file="/global/homes/j/jackm/software/lorrax_C/src/bse/bse_lanczos.py" source_line=161}
  %constant_1782_0 = s64[] constant(0)
  %constant_1834_0 = s32[4]{0} constant({0, 0, 240, 240}), metadata={op_name="jit(_full_run)/jit(main)/while/body/jit(_matvec_impl)/jit(_apply_W_from_T)/mul" source_file="/global/homes/j/jackm/software/lorrax_C/src/bse/bse_ring_comm.py" source_line=399}
  %constant_1835_0 = s32[4]{0} constant({0, 240, 0, 240}), metadata={op_name="jit(_full_run)/jit(main)/while/body/jit(_matvec_impl)/jit(_apply_W_from_T)/mul" source_file="/global/homes/j/jackm/software/lorrax_C/src/bse/bse_ring_comm.py" source_line=399}
  %constant_1788_0 = u32[4]{0} constant({0, 0, 1, 1}), metadata={op_name="jit(_full_run)/jit(main)/while/body/jit(_matvec_impl)/jit(_apply_D_term)/transpose" source_file="/global/homes/j/jackm/software/lorrax_C/src/bse/bse_ring_comm.py" source_line=414}
  %constant_1791_0 = u32[4]{0} constant({0, 1, 0, 1}), metadata={op_name="jit(_full_run)/jit(main)/while/body/jit(_matvec_impl)/jit(_apply_D_term)/transpose" source_file="/global/homes/j/jackm/software/lorrax_C/src/bse/bse_ring_comm.py" source_line=414}
  %call.7 = (u32[], s32[], s32[], c128[1,2,64,2,240]{4,3,1,2,0}, c128[512]{0}, /*index=5*/c128[1,240,240,2,2,64]{1,3,2,4,5,0}, c128[1,2,2,64]{2,1,3,0}, c128[1,2,2,64]{2,1,3,0}, s64[], s64[]) call(%param.19.0, %constant_1801_0, %constant_1782_0), to_apply=%command_buffer.6
  %get-tuple-element.874 = u32[] get-tuple-element(%call.7), index=0
  %get-tuple-element.875 = s32[] get-tuple-element(%call.7), index=1
  %get-tuple-element.876 = s32[] get-tuple-element(%call.7), index=2
  %get-tuple-element.877 = c128[1,2,64,2,240]{4,3,1,2,0} get-tuple-element(%call.7), index=3
  %get-tuple-element.878 = c128[512]{0} get-tuple-element(%call.7), index=4
  %get-tuple-element.879 = c128[1,240,240,2,2,64]{1,3,2,4,5,0} get-tuple-element(%call.7), index=5
  %get-tuple-element.880 = c128[1,2,2,64]{2,1,3,0} get-tuple-element(%call.7), index=6
  %get-tuple-element.881 = c128[1,2,2,64]{2,1,3,0} get-tuple-element(%call.7), index=7
  %get-tuple-element.882 = s64[] get-tuple-element(%call.7), index=8
  %get-tuple-element.883 = s64[] get-tuple-element(%call.7), index=9
  %get-tuple-element.846 = c128[64,4,2,240]{3,2,1,0} get-tuple-element(%param.19.0), index=8, metadata={op_name="jit(_full_run)/jit(main)/while/body/pjit" source_file="/global/homes/j/jackm/software/lorrax_C/src/bse/bse_lanczos.py" source_line=163 scheduling_name="get-tuple-element.846"}
  %tuple.158 = (s64[], c128[1,2,2,64]{2,1,3,0}, c128[1,2,64,2,240]{4,3,1,2,0}, s32[], c128[64,4,2,240]{3,2,1,0}) tuple(%get-tuple-element.883, %get-tuple-element.881, %get-tuple-element.877, %get-tuple-element.876, %get-tuple-element.846), metadata={scheduling_name="tuple.158"}
  %while.45.0 = (s64[], c128[1,2,2,64]{2,1,3,0}, c128[1,2,64,2,240]{4,3,1,2,0}, s32[], c128[64,4,2,240]{3,2,1,0}) while(%tuple.158), condition=%region_12.1570.clone.clone.1_spmd, body=%region_11.1555.clone.clone.clone.1_spmd, metadata={op_name="jit(_full_run)/jit(main)/while/body/jit(_matvec_impl)/jit(shmap_body)/while" source_file="/global/homes/j/jackm/software/lorrax_C/src/bse/bse_ring_comm.py" source_line=91 scheduling_name="while.45.0"}, backend_config={"known_trip_count":{"n":"2"},"known_init_step":{"init":"0","step":"1"},"known_induction_variable":{"tuple_index":"0"}}
  %get-tuple-element.843 = c128[64,4,2,240]{1,2,3,0} get-tuple-element(%param.19.0), index=5, metadata={op_name="jit(_full_run)/jit(main)/while/body/pjit" source_file="/global/homes/j/jackm/software/lorrax_C/src/bse/bse_lanczos.py" source_line=163 scheduling_name="get-tuple-element.843"}
  %loop_complex_transpose_fusion = (c128[64,4,2,240]{3,2,1,0}, c128[64,240,2,4]{3,2,1,0}, c128[64,2,240,4]{3,2,1,0}) fusion(%get-tuple-element.843), kind=kLoop, calls=%fused_complex_transpose, metadata={scheduling_name="loop_complex_transpose_fusion"}
  %get-tuple-element.700.0 = c128[1,2,64,2,240]{4,3,1,2,0} get-tuple-element(%while.45.0), index=2, metadata={op_name="jit(_full_run)/jit(main)/while/body/jit(_matvec_impl)/jit(shmap_body)/while" source_file="/global/homes/j/jackm/software/lorrax_C/src/bse/bse_ring_comm.py" source_line=91 scheduling_name="get-tuple-element.700.0"}
  %loop_transpose_fusion.5 = c128[64,480,2]{2,1,0} fusion(%get-tuple-element.700.0), kind=kLoop, calls=%fused_transpose.8, metadata={scheduling_name="loop_transpose_fusion.5"}
  %copy.117 = s64[] copy(%get-tuple-element.882), metadata={scheduling_name="copy.117"}
  %bitcast.7452.0 = c128[1,2,64,2,240]{1,4,3,2,0} bitcast(%loop_transpose_fusion.5), metadata={scheduling_name="bitcast.7452.0"}
  %get-tuple-element.759 = c128[64,4,2,240]{3,2,1,0} get-tuple-element(%loop_complex_transpose_fusion), index=0, metadata={scheduling_name="get-tuple-element.759"}
  %tuple.161 = (s64[], c128[1,2,64,2,240]{1,4,3,2,0}, c128[1,240,240,2,2,64]{1,3,2,4,5,0}, s32[], c128[64,4,2,240]{3,2,1,0}) tuple(%copy.117, %bitcast.7452.0, %get-tuple-element.879, %get-tuple-element.875, %get-tuple-element.759), metadata={scheduling_name="tuple.161"}
  %while.46.0 = (s64[], c128[1,2,64,2,240]{1,4,3,2,0}, c128[1,240,240,2,2,64]{1,3,2,4,5,0}, s32[], c128[64,4,2,240]{3,2,1,0}) while(%tuple.161), condition=%region_14.1641.clone.clone.1_spmd, body=%region_13.1626.clone.clone.clone.1_spmd, metadata={op_name="jit(_full_run)/jit(main)/while/body/jit(_matvec_impl)/jit(shmap_body)/while" source_file="/global/homes/j/jackm/software/lorrax_C/src/bse/bse_ring_comm.py" source_line=121 scheduling_name="while.46.0"}, backend_config={"known_trip_count":{"n":"2"},"known_init_step":{"init":"0","step":"1"},"known_induction_variable":{"tuple_index":"0"}}
  %get-tuple-element.674.0 = c128[1,240,240,2,2,64]{1,3,2,4,5,0} get-tuple-element(%while.46.0), index=2, metadata={op_name="jit(_full_run)/jit(main)/while/body/jit(_matvec_impl)/jit(shmap_body)/while" source_file="/global/homes/j/jackm/software/lorrax_C/src/bse/bse_ring_comm.py" source_line=121 scheduling_name="get-tuple-element.674.0"}
  %input_transpose_fusion.2 = c128[240,240,2,2,64]{4,3,2,1,0} fusion(%get-tuple-element.674.0), kind=kInput, calls=%fused_transpose.7, metadata={op_name="jit(_full_run)/jit(main)/while/body/jit(_matvec_impl)/jit(shmap_body)/while" source_file="/global/homes/j/jackm/software/lorrax_C/src/bse/bse_ring_comm.py" source_line=121 scheduling_name="input_transpose_fusion.2"}
  %bitcast.7467.0 = c128[1,240,240,2,2,4,4,4]{7,6,5,4,3,1,0,2} bitcast(%input_transpose_fusion.2), metadata={scheduling_name="bitcast.7467.0"}
  %all-gather-start = (c128[1,240,240,2,2,4,4,4]{7,6,5,4,3,1,0,2}, c128[1,240,480,2,2,4,4,4]{7,6,5,4,3,1,0,2}) all-gather-start(%bitcast.7467.0), channel_id=10, replica_groups=[2,2]<=[4], dimensions={2}, use_global_device_ids=true, metadata={op_name="jit(_full_run)/jit(main)/while/body/jit(_matvec_impl)/jit(_apply_W_from_T)/jit(fft)/fft" source_file="/global/homes/j/jackm/software/lorrax_C/src/bse/bse_ring_comm.py" source_line=398 scheduling_name="all-gather-start"}, backend_config={"operation_queue_id":"0","wait_on_operation_queues":[],"collective_backend_config":{"is_sync":true,"no_parallel_custom_call":false,"is_pipelined":false,"reification_cost":[]},"force_earliest_schedule":false}
  %all-gather-done = c128[1,240,480,2,2,4,4,4]{7,6,5,4,3,1,0,2} all-gather-done(%all-gather-start), metadata={op_name="jit(_full_run)/jit(main)/while/body/jit(_matvec_impl)/jit(_apply_W_from_T)/jit(fft)/fft" source_file="/global/homes/j/jackm/software/lorrax_C/src/bse/bse_ring_comm.py" source_line=398 scheduling_name="all-gather-done"}
  %loop_transpose_fusion.4 = c128[240,480,256]{2,1,0} fusion(%all-gather-done), kind=kLoop, calls=%fused_transpose.6, metadata={op_name="jit(_full_run)/jit(main)/while/body/jit(_matvec_impl)/jit(_apply_W_from_T)/jit(fft)/fft" source_file="/global/homes/j/jackm/software/lorrax_C/src/bse/bse_ring_comm.py" source_line=398 deduplicated_name="loop_transpose_fusion.2" scheduling_name="loop_transpose_fusion.4"}
  %bitcast.7474.0 = c128[1,240,480,2,2,4,4,4]{7,6,5,4,3,2,0,1} bitcast(%loop_transpose_fusion.4), metadata={scheduling_name="bitcast.7474.0"}
  %all-gather-start.1 = (c128[1,240,480,2,2,4,4,4]{7,6,5,4,3,2,0,1}, c128[1,480,480,2,2,4,4,4]{7,6,5,4,3,2,0,1}) all-gather-start(%bitcast.7474.0), channel_id=11, replica_groups=[2,2]<=[2,2]T(1,0), dimensions={1}, use_global_device_ids=true, metadata={op_name="jit(_full_run)/jit(main)/while/body/jit(_matvec_impl)/jit(_apply_W_from_T)/jit(fft)/fft" source_file="/global/homes/j/jackm/software/lorrax_C/src/bse/bse_ring_comm.py" source_line=398 scheduling_name="all-gather-start.1"}, backend_config={"operation_queue_id":"0","wait_on_operation_queues":[],"collective_backend_config":{"is_sync":false,"no_parallel_custom_call":true,"is_pipelined":false,"reification_cost":[]},"force_earliest_schedule":false}
  %copy.126 = s64[] copy(%get-tuple-element.882), metadata={scheduling_name="copy.126"}
  %get-tuple-element.844 = c128[64,4,2,240]{3,2,1,0} get-tuple-element(%param.19.0), index=6, metadata={op_name="jit(_full_run)/jit(main)/while/body/pjit" source_file="/global/homes/j/jackm/software/lorrax_C/src/bse/bse_lanczos.py" source_line=163 scheduling_name="get-tuple-element.844"}
  %input_slice_fusion = (c128[30720]{0}, c128[61440]{0}) fusion(%get-tuple-element.844, %get-tuple-element.875), kind=kInput, calls=%fused_slice, metadata={op_name="jit(_full_run)/jit(main)/while/body/jit(_matvec_impl)/jit(shmap_body)/dynamic_slice" source_file="/global/homes/j/jackm/software/lorrax_C/src/bse/bse_ring_comm.py" source_line=251 scheduling_name="input_slice_fusion"}
  %all-gather-done.1 = c128[1,480,480,2,2,4,4,4]{7,6,5,4,3,2,0,1} all-gather-done(%all-gather-start.1), metadata={op_name="jit(_full_run)/jit(main)/while/body/jit(_matvec_impl)/jit(_apply_W_from_T)/jit(fft)/fft" source_file="/global/homes/j/jackm/software/lorrax_C/src/bse/bse_ring_comm.py" source_line=398 scheduling_name="all-gather-done.1"}
  %bitcast.7478.0 = c128[1,480,480,2,2,4,4,4]{7,6,5,4,3,2,1,0} bitcast(%all-gather-done.1), metadata={scheduling_name="bitcast.7478.0"}
  %fft.15.0 = c128[1,480,480,2,2,4,4,4]{7,6,5,4,3,2,1,0} fft(%bitcast.7478.0), fft_type=IFFT, fft_length={4,4,4}, metadata={op_name="jit(_full_run)/jit(main)/while/body/jit(_matvec_impl)/jit(_apply_W_from_T)/jit(fft)/fft" source_file="/global/homes/j/jackm/software/lorrax_C/src/bse/bse_ring_comm.py" source_line=398 scheduling_name="fft.15.0"}
  %get-tuple-element.849 = c128[240,240,4,4,4]{4,3,2,1,0} get-tuple-element(%param.19.0), index=11, metadata={op_name="jit(_full_run)/jit(main)/while/body/pjit" source_file="/global/homes/j/jackm/software/lorrax_C/src/bse/bse_lanczos.py" source_line=163 scheduling_name="get-tuple-element.849"}
  %loop_transpose_fusion.3 = c128[240,240,256]{2,1,0} fusion(%fft.15.0, %get-tuple-element.849, %constant_1835_0, %get-tuple-element.874, %constant_1834_0), kind=kLoop, calls=%fused_transpose.5, metadata={op_name="jit(_full_run)/jit(main)/while/body/jit(_matvec_impl)/jit(_apply_W_from_T)/mul" source_file="/global/homes/j/jackm/software/lorrax_C/src/bse/bse_ring_comm.py" source_line=399 scheduling_name="loop_transpose_fusion.3"}
  %get-tuple-element.734 = c128[30720]{0} get-tuple-element(%input_slice_fusion), index=0, metadata={scheduling_name="get-tuple-element.734"}
  %bitcast.10225 = c128[1,2,240,64]{3,2,1,0} bitcast(%get-tuple-element.734), metadata={scheduling_name="bitcast.10225"}
  %get-tuple-element.735 = c128[61440]{0} get-tuple-element(%input_slice_fusion), index=1, metadata={scheduling_name="get-tuple-element.735"}
  %bitcast.10226 = c128[64,2,2,240]{3,2,1,0} bitcast(%get-tuple-element.735), metadata={op_name="jit(_full_run)/jit(main)/while/body/jit(_matvec_impl)/jit(shmap_body)/dynamic_slice" source_file="/global/homes/j/jackm/software/lorrax_C/src/bse/bse_ring_comm.py" source_line=251 scheduling_name="bitcast.10226"}
  %tuple.164 = (s64[], c128[1,2,2,64]{2,1,3,0}, c128[1,2,240,64]{3,2,1,0}, s32[], c128[64,4,2,240]{3,2,1,0}, /*index=5*/c128[64,2,2,240]{3,2,1,0}) tuple(%copy.126, %get-tuple-element.880, %bitcast.10225, %get-tuple-element.876, %get-tuple-element.846, /*index=5*/%bitcast.10226), metadata={scheduling_name="tuple.164"}
  %while.43.0 = (s64[], c128[1,2,2,64]{2,1,3,0}, c128[1,2,240,64]{3,2,1,0}, s32[], c128[64,4,2,240]{3,2,1,0}, /*index=5*/c128[64,2,2,240]{3,2,1,0}) while(%tuple.164), condition=%region_5.1387.clone.clone.1_spmd, body=%region_4.1370.clone.clone.clone.1_spmd, metadata={op_name="jit(_full_run)/jit(main)/while/body/jit(_matvec_impl)/jit(shmap_body)/while" source_file="/global/homes/j/jackm/software/lorrax_C/src/bse/bse_ring_comm.py" source_line=270 scheduling_name="while.43.0"}, backend_config={"known_trip_count":{"n":"2"},"known_init_step":{"init":"0","step":"1"},"known_induction_variable":{"tuple_index":"0"}}
  %bitcast.7507.0 = c128[1,240,240,2,2,4,4,4]{7,6,5,4,3,1,0,2} bitcast(%loop_transpose_fusion.3), metadata={scheduling_name="bitcast.7507.0"}
  %all-gather-start.2 = (c128[1,240,240,2,2,4,4,4]{7,6,5,4,3,1,0,2}, c128[1,240,480,2,2,4,4,4]{7,6,5,4,3,1,0,2}) all-gather-start(%bitcast.7507.0), channel_id=12, replica_groups=[2,2]<=[4], dimensions={2}, use_global_device_ids=true, metadata={op_name="jit(_full_run)/jit(main)/while/body/jit(_matvec_impl)/jit(_apply_W_from_T)/jit(fft)/fft" source_file="/global/homes/j/jackm/software/lorrax_C/src/bse/bse_ring_comm.py" source_line=400 scheduling_name="all-gather-start.2"}, backend_config={"operation_queue_id":"0","wait_on_operation_queues":[],"collective_backend_config":{"is_sync":false,"no_parallel_custom_call":true,"is_pipelined":false,"reification_cost":[]},"force_earliest_schedule":false}
  %loop_broadcast_fusion = c128[1,240,64]{2,1,0} fusion(), kind=kLoop, calls=%fused_broadcast, metadata={scheduling_name="loop_broadcast_fusion"}
  %all-gather-done.2 = c128[1,240,480,2,2,4,4,4]{7,6,5,4,3,1,0,2} all-gather-done(%all-gather-start.2), metadata={op_name="jit(_full_run)/jit(main)/while/body/jit(_matvec_impl)/jit(_apply_W_from_T)/jit(fft)/fft" source_file="/global/homes/j/jackm/software/lorrax_C/src/bse/bse_ring_comm.py" source_line=400 scheduling_name="all-gather-done.2"}
  %loop_transpose_fusion.2 = c128[240,480,256]{2,1,0} fusion(%all-gather-done.2), kind=kLoop, calls=%fused_transpose.4, metadata={op_name="jit(_full_run)/jit(main)/while/body/jit(_matvec_impl)/jit(_apply_W_from_T)/jit(fft)/fft" source_file="/global/homes/j/jackm/software/lorrax_C/src/bse/bse_ring_comm.py" source_line=400 deduplicated_name="loop_transpose_fusion.2" scheduling_name="loop_transpose_fusion.2"}
  %get-tuple-element.789 = c128[1,2,240,64]{3,2,1,0} get-tuple-element(%while.43.0), index=2, metadata={op_name="jit(_full_run)/jit(main)/while/body/jit(_matvec_impl)/jit(shmap_body)/while" source_file="/global/homes/j/jackm/software/lorrax_C/src/bse/bse_ring_comm.py" source_line=270 scheduling_name="get-tuple-element.789"}
  %tuple.167 = (s64[], c128[1,2,240,64]{3,2,1,0}, c128[1,240,64]{2,1,0}) tuple(%get-tuple-element.882, %get-tuple-element.789, %loop_broadcast_fusion), metadata={scheduling_name="tuple.167"}
…
  %multiply.785.5.clone.1 = f64[512]{0} multiply(%select.1015.3.clone.1, %select.1011.5.clone.1), metadata={op_name="jit(_full_run)/jit(main)/jit(_normal)/jit(_normal_real)/erf_inv" source_file="/global/homes/j/jackm/software/lorrax_C/src/solvers/lanczos.py" source_line=247 scheduling_name="multiply.785.5.clone.1"}
  %add.1635.5.clone.1 = f64[512]{0} add(%multiply.785.5.clone.1, %broadcast.2364.2), metadata={op_name="jit(_full_run)/jit(main)/jit(_normal)/jit(_normal_real)/erf_inv" source_file="/global/homes/j/jackm/software/lorrax_C/src/solvers/lanczos.py" source_line=247 scheduling_name="add.1635.5.clone.1"}
  %select.1016.3.clone.1 = f64[512]{0} select(%compare.567.3.clone.1, %add.1635.5.clone.1, %select.1015.3.clone.1), metadata={op_name="jit(_full_run)/jit(main)/jit(_normal)/jit(_normal_real)/erf_inv" source_file="/global/homes/j/jackm/software/lorrax_C/src/solvers/lanczos.py" source_line=247 scheduling_name="select.1016.3.clone.1"}
  %multiply.787.5.clone.1 = f64[512]{0} multiply(%select.1016.3.clone.1, %select.1011.5.clone.1), metadata={op_name="jit(_full_run)/jit(main)/jit(_normal)/jit(_normal_real)/erf_inv" source_file="/global/homes/j/jackm/software/lorrax_C/src/solvers/lanczos.py" source_line=247 scheduling_name="multiply.787.5.clone.1"}
  %add.1636.5.clone.1 = f64[512]{0} add(%multiply.787.5.clone.1, %broadcast.2365.2), metadata={op_name="jit(_full_run)/jit(main)/jit(_normal)/jit(_normal_real)/erf_inv" source_file="/global/homes/j/jackm/software/lorrax_C/src/solvers/lanczos.py" source_line=247 scheduling_name="add.1636.5.clone.1"}
  %select.1017.3.clone.1 = f64[512]{0} select(%compare.567.3.clone.1, %add.1636.5.clone.1, %select.1016.3.clone.1), metadata={op_name="jit(_full_run)/jit(main)/jit(_normal)/jit(_normal_real)/erf_inv" source_file="/global/homes/j/jackm/software/lorrax_C/src/solvers/lanczos.py" source_line=247 scheduling_name="select.1017.3.clone.1"}
  %multiply.788.3.clone.1 = f64[512]{0} multiply(%select.1017.3.clone.1, %maximum.61.3.clone.1), metadata={op_name="jit(_full_run)/jit(main)/jit(_normal)/jit(_normal_real)/erf_inv" source_file="/global/homes/j/jackm/software/lorrax_C/src/solvers/lanczos.py" source_line=247 scheduling_name="multiply.788.3.clone.1"}
  %select.1018.1.clone.1 = f64[512]{0} select(%compare.566.3.clone.1, %multiply.754.1.clone.1, %multiply.788.3.clone.1), metadata={op_name="jit(_full_run)/jit(main)/jit(_normal)/jit(_normal_real)/erf_inv" source_file="/global/homes/j/jackm/software/lorrax_C/src/solvers/lanczos.py" source_line=247 scheduling_name="select.1018.1.clone.1"}
  %multiply.790.1.clone.1 = f64[512]{0} multiply(%select.1018.1.clone.1, %broadcast.2366.2), metadata={op_name="jit(_full_run)/jit(main)/jit(_normal)/jit(_normal_real)/mul" source_file="/global/homes/j/jackm/software/lorrax_C/src/solvers/lanczos.py" source_line=247 scheduling_name="multiply.790.1.clone.1"}
  ROOT %tuple.153 = (f64[512]{0}, f64[512]{0}) tuple(%multiply.818.1, %multiply.790.1.clone.1), metadata={scheduling_name="tuple.153"}
}

%fused_reduce.6 (param_0.705: f64[512], param_1.873: f64[512]) -> f64[] {
  %param_1.873 = f64[512]{0} parameter(1), metadata={scheduling_name="param_1.873"}
  %convert.246.7 = c128[512]{0} convert(%param_1.873), metadata={op_name="jit(_full_run)/jit(main)/convert_element_type" source_file="/global/homes/j/jackm/software/lorrax_C/src/solvers/lanczos.py" source_line=248 scheduling_name="convert.246.7"}
  %param_0.705 = f64[512]{0} parameter(0), metadata={scheduling_name="param_0.705"}
  %convert.249.7 = c128[512]{0} convert(%param_0.705), metadata={op_name="jit(_full_run)/jit(main)/convert_element_type" source_file="/global/homes/j/jackm/software/lorrax_C/src/solvers/lanczos.py" source_line=248 scheduling_name="convert.249.7"}
  %constant_2121_1 = c128[] constant((0, 1))
  %broadcast.2489.7 = c128[512]{0} broadcast(%constant_2121_1), dimensions={}, metadata={scheduling_name="broadcast.2489.7"}
  %multiply.819.7 = c128[512]{0} multiply(%convert.249.7, %broadcast.2489.7), metadata={op_name="jit(_full_run)/jit(main)/mul" source_file="/global/homes/j/jackm/software/lorrax_C/src/solvers/lanczos.py" source_line=248 scheduling_name="multiply.819.7"}
  %add.1700.7 = c128[512]{0} add(%convert.246.7, %multiply.819.7), metadata={op_name="jit(_full_run)/jit(main)/add" source_file="/global/homes/j/jackm/software/lorrax_C/src/solvers/lanczos.py" source_line=248 scheduling_name="add.1700.7"}
  %real.112.3 = f64[512]{0} real(%add.1700.7), metadata={op_name="jit(_full_run)/jit(main)/jit(norm)/real" source_file="/global/homes/j/jackm/software/lorrax_C/src/solvers/lanczos.py" source_line=249 scheduling_name="real.112.3"}
  %imag.87.5 = f64[512]{0} imag(%add.1700.7), metadata={op_name="jit(_full_run)/jit(main)/jit(norm)/imag" source_file="/global/homes/j/jackm/software/lorrax_C/src/solvers/lanczos.py" source_line=249 scheduling_name="imag.87.5"}
  %negate.177.5 = f64[512]{0} negate(%imag.87.5), metadata={op_name="jit(_full_run)/jit(main)/jit(norm)/neg" source_file="/global/homes/j/jackm/software/lorrax_C/src/solvers/lanczos.py" source_line=249 scheduling_name="negate.177.5"}
  %complex.86.3 = c128[512]{0} complex(%real.112.3, %negate.177.5), metadata={op_name="jit(_full_run)/jit(main)/jit(norm)/complex" source_file="/global/homes/j/jackm/software/lorrax_C/src/solvers/lanczos.py" source_line=249 scheduling_name="complex.86.3"}
  %multiply.820.3 = c128[512]{0} multiply(%add.1700.7, %complex.86.3), metadata={op_name="jit(_full_run)/jit(main)/jit(norm)/mul" source_file="/global/homes/j/jackm/software/lorrax_C/src/solvers/lanczos.py" source_line=249 scheduling_name="multiply.820.3"}
  %real.113.3 = f64[512]{0} real(%multiply.820.3), metadata={op_name="jit(_full_run)/jit(main)/jit(norm)/real" source_file="/global/homes/j/jackm/software/lorrax_C/src/solvers/lanczos.py" source_line=249 scheduling_name="real.113.3"}
  %constant_2122_4 = f64[] constant(0)
  ROOT %reduce.55.1 = f64[] reduce(%real.113.3, %constant_2122_4), dimensions={0}, to_apply=%region_1.1260, metadata={op_name="jit(_full_run)/jit(main)/jit(norm)/reduce_sum" source_file="/global/homes/j/jackm/software/lorrax_C/src/solvers/lanczos.py" source_line=249 scheduling_name="reduce.55.1"}
}

%command_buffer (p: s32[4]) -> (u32[], f64[512], f64[512], f64[]) {
  %p = s32[4]{0} parameter(0)
  %loop_add_xor_fusion = (u32[2]{0}, u32[2]{0}) fusion(), kind=kLoop, calls=%fused_add_xor, metadata={op_name="jit(_full_run)/jit(main)/jit(_threefry_split)/add" source_file="/global/homes/j/jackm/software/lorrax_C/src/solvers/lanczos.py" source_line=245 scheduling_name="loop_add_xor_fusion"}
  %get-tuple-element.732 = u32[2]{0} get-tuple-element(%loop_add_xor_fusion), index=0, metadata={op_name="jit(_full_run)/jit(main)/jit(_threefry_split)/add" source_file="/global/homes/j/jackm/software/lorrax_C/src/solvers/lanczos.py" source_line=245 scheduling_name="get-tuple-element.732"}
  %get-tuple-element.733 = u32[2]{0} get-tuple-element(%loop_add_xor_fusion), index=1, metadata={op_name="jit(_full_run)/jit(main)/jit(_threefry_split)/add" source_file="/global/homes/j/jackm/software/lorrax_C/src/solvers/lanczos.py" source_line=245 scheduling_name="get-tuple-element.733"}
  %loop_slice_fusion = (u32[1]{0}, u32[1]{0}) fusion(%get-tuple-element.732, %get-tuple-element.733), kind=kLoop, calls=%fused_slice.1, metadata={op_name="jit(_full_run)/jit(main)/jit(_normal)/jit(_normal_real)/jit(_uniform)/slice" source_file="/global/homes/j/jackm/software/lorrax_C/src/solvers/lanczos.py" source_line=247 scheduling_name="loop_slice_fusion"}
  %partition-id.40.0 = u32[] partition-id(), metadata={scheduling_name="partition-id.40.0"}
  %get-tuple-element.730 = u32[1]{0} get-tuple-element(%loop_slice_fusion), index=0, metadata={op_name="jit(_full_run)/jit(main)/jit(_normal)/jit(_normal_real)/jit(_uniform)/slice" source_file="/global/homes/j/jackm/software/lorrax_C/src/solvers/lanczos.py" source_line=247 scheduling_name="get-tuple-element.730"}
  %get-tuple-element.731 = u32[1]{0} get-tuple-element(%loop_slice_fusion), index=1, metadata={op_name="jit(_full_run)/jit(main)/jit(_normal)/jit(_normal_real)/jit(_uniform)/slice" source_file="/global/homes/j/jackm/software/lorrax_C/src/solvers/lanczos.py" source_line=247 scheduling_name="get-tuple-element.731"}
  %loop_multiply_fusion.3 = (f64[512]{0}, f64[512]{0}) fusion(%get-tuple-element.731, %get-tuple-element.732, %p, %partition-id.40.0, %get-tuple-element.730), kind=kLoop, calls=%fused_multiply.3, metadata={op_name="jit(_full_run)/jit(main)/jit(_normal)/jit(_normal_real)/mul" source_file="/global/homes/j/jackm/software/lorrax_C/src/solvers/lanczos.py" source_line=247 scheduling_name="loop_multiply_fusion.3"}
  %get-tuple-element.728 = f64[512]{0} get-tuple-element(%loop_multiply_fusion.3), index=0, metadata={op_name="jit(_full_run)/jit(main)/jit(_normal)/jit(_normal_real)/mul" source_file="/global/homes/j/jackm/software/lorrax_C/src/solvers/lanczos.py" source_line=247 scheduling_name="get-tuple-element.728"}
  %get-tuple-element.729 = f64[512]{0} get-tuple-element(%loop_multiply_fusion.3), index=1, metadata={op_name="jit(_full_run)/jit(main)/jit(_normal)/jit(_normal_real)/mul" source_file="/global/homes/j/jackm/software/lorrax_C/src/solvers/lanczos.py" source_line=247 scheduling_name="get-tuple-element.729"}
  %input_reduce_fusion.6 = f64[] fusion(%get-tuple-element.728, %get-tuple-element.729), kind=kInput, calls=%fused_reduce.6, metadata={op_name="jit(_full_run)/jit(main)/jit(norm)/reduce_sum" source_file="/global/homes/j/jackm/software/lorrax_C/src/solvers/lanczos.py" source_line=249 scheduling_name="input_reduce_fusion.6"}
  ROOT %tuple.177 = (u32[], f64[512]{0}, f64[512]{0}, f64[]) tuple(%partition-id.40.0, %get-tuple-element.728, %get-tuple-element.729, %input_reduce_fusion.6)
}

%fused_reduce.5 () -> pred[] {
  %iota.62.1 = s32[2]{0} iota(), iota_dimension=0, metadata={scheduling_name="iota.62.1"}
  %constant_1900_1 = s32[] constant(199)
  %broadcast.2163.1 = s32[2]{0} broadcast(%constant_1900_1), dimensions={}, metadata={scheduling_name="broadcast.2163.1"}
  %multiply.750.1 = s32[2]{0} multiply(%iota.62.1, %broadcast.2163.1), metadata={scheduling_name="multiply.750.1"}
  %constant_1901_2 = s32[] constant(0)
  %broadcast.2164.1 = s32[2]{0} broadcast(%constant_1901_2), dimensions={}, metadata={scheduling_name="broadcast.2164.1"}
  %compare.565.1 = pred[2]{0} compare(%multiply.750.1, %broadcast.2164.1), direction=GE, metadata={scheduling_name="compare.565.1"}
  %constant_1902_1 = pred[] constant(true)
  ROOT %reduce.54.1 = pred[] reduce(%compare.565.1, %constant_1902_1), dimensions={0}, to_apply=%and.reduce_sub_computation, metadata={scheduling_name="reduce.54.1"}
}

%fused_broadcast.3 () -> (f64[200], f64[200]) {
  %constant_2122_1 = f64[] constant(0)
  %broadcast.2492.1 = f64[200]{0} broadcast(%constant_2122_1), dimensions={}, metadata={scheduling_name="broadcast.2492.1"}
  %copy.175 = f64[200]{0} copy(%broadcast.2492.1), metadata={scheduling_name="copy.175"}
  ROOT %tuple.176 = (f64[200]{0}, f64[200]{0}) tuple(%broadcast.2492.1, %copy.175), metadata={scheduling_name="tuple.176"}
}

%wrapped_transpose_computation (param_0.719: c128[64,4,2,240]) -> c128[64,240,2,4] {
  %param_0.719 = c128[64,4,2,240]{3,2,1,0} parameter(0), metadata={scheduling_name="param_0.719"}
  ROOT %transpose.217.1 = c128[64,240,2,4]{3,2,1,0} transpose(%param_0.719), dimensions={0,3,2,1}, metadata={scheduling_name="transpose.217.1"}
}

%wrapped_transpose_computation.1 (param_0.720: f64[64,4]) -> f64[4,64] {
  %param_0.720 = f64[64,4]{1,0} parameter(0), metadata={scheduling_name="param_0.720"}
  ROOT %transpose.219.1 = f64[4,64]{1,0} transpose(%param_0.720), dimensions={1,0}, metadata={scheduling_name="transpose.219.1"}
}

%fused_divide.2 (param_0.701: f64[512], param_1.871: f64[512], param_2.820: f64[]) -> c128[512] {
  %param_1.871 = f64[512]{0} parameter(1), metadata={scheduling_name="param_1.871"}
  %convert.246.3 = c128[512]{0} convert(%param_1.871), metadata={op_name="jit(_full_run)/jit(main)/convert_element_type" source_file="/global/homes/j/jackm/software/lorrax_C/src/solvers/lanczos.py" source_line=248 scheduling_name="convert.246.3"}
  %param_0.701 = f64[512]{0} parameter(0), metadata={scheduling_name="param_0.701"}
  %convert.249.3 = c128[512]{0} convert(%param_0.701), metadata={op_name="jit(_full_run)/jit(main)/convert_element_type" source_file="/global/homes/j/jackm/software/lorrax_C/src/solvers/lanczos.py" source_line=248 scheduling_name="convert.249.3"}
  %constant_2121_2 = c128[] constant((0, 1))
  %broadcast.2489.3 = c128[512]{0} broadcast(%constant_2121_2), dimensions={}, metadata={scheduling_name="broadcast.2489.3"}
  %multiply.819.3 = c128[512]{0} multiply(%convert.249.3, %broadcast.2489.3), metadata={op_name="jit(_full_run)/jit(main)/mul" source_file="/global/homes/j/jackm/software/lorrax_C/src/solvers/lanczos.py" source_line=248 scheduling_name="multiply.819.3"}
  %add.1700.3 = c128[512]{0} add(%convert.246.3, %multiply.819.3), metadata={op_name="jit(_full_run)/jit(main)/add" source_file="/global/homes/j/jackm/software/lorrax_C/src/solvers/lanczos.py" source_line=248 scheduling_name="add.1700.3"}
  %param_2.820 = f64[] parameter(2), metadata={scheduling_name="param_2.820"}
  %sqrt.105.3 = f64[] sqrt(%param_2.820), metadata={op_name="jit(_full_run)/jit(main)/jit(norm)/sqrt" source_file="/global/homes/j/jackm/software/lorrax_C/src/solvers/lanczos.py" source_line=249 scheduling_name="sqrt.105.3"}
  %convert.250.3 = c128[] convert(%sqrt.105.3), metadata={op_name="jit(_full_run)/jit(main)/convert_element_type" source_file="/global/homes/j/jackm/software/lorrax_C/src/solvers/lanczos.py" source_line=249 scheduling_name="convert.250.3"}
  %broadcast.2490.1 = c128[512]{0} broadcast(%convert.250.3), dimensions={}, metadata={op_name="jit(_full_run)/jit(main)/div" source_file="/global/homes/j/jackm/software/lorrax_C/src/solvers/lanczos.py" source_line=249 scheduling_name="broadcast.2490.1"}
  ROOT %divide.203.1 = c128[512]{0} divide(%add.1700.3, %broadcast.2490.1), metadata={op_name="jit(_full_run)/jit(main)/div" source_file="/global/homes/j/jackm/software/lorrax_C/src/solvers/lanczos.py" source_line=249 scheduling_name="divide.203.1"}
}

%fused_slice.2 (param_0_0: c128[64,4,2,240], param_1_0.1: c128[512], param_1_1.1: pred[]) -> (c128[122880], c128[102400]) {
  %param_0_0 = c128[64,4,2,240]{3,2,1,0} parameter(0), metadata={scheduling_name="param_0_0"}
  %bitcast.9846.2 = c128[64,8,240]{2,1,0} bitcast(%param_0_0), metadata={scheduling_name="bitcast.9846.2"}
  %transpose.218.2 = c128[64,240,8]{2,1,0} transpose(%bitcast.9846.2), dimensions={0,2,1}, metadata={scheduling_name="transpose.218.2"}
  %reshape.650 = c128[122880]{0} reshape(%transpose.218.2), metadata={scheduling_name="reshape.650"}
  %param_1_1.1 = pred[] parameter(2), metadata={scheduling_name="param_1_1.1"}
  %broadcast.2165.2 = pred[512]{0} broadcast(%param_1_1.1), dimensions={}, metadata={scheduling_name="broadcast.2165.2"}
  %param_1_0.1 = c128[512]{0} parameter(1), metadata={scheduling_name="param_1_0.1"}
  %constant_2123_2 = c128[] constant((0, 0))
  %broadcast.2491.2 = c128[512]{0} broadcast(%constant_2123_2), dimensions={}, metadata={scheduling_name="broadcast.2491.2"}
  %select.1064.2 = c128[512]{0} select(%broadcast.2165.2, %param_1_0.1, %broadcast.2491.2), metadata={scheduling_name="select.1064.2"}
  %bitcast.9828.2 = c128[512,1]{1,0} bitcast(%select.1064.2), metadata={scheduling_name="bitcast.9828.2"}
  %pad.26.2 = c128[512,200]{1,0} pad(%bitcast.9828.2, %constant_2123_2), padding=0_0x0_199, metadata={op_name="jit(_full_run)/jit(main)/scatter" source_file="/global/homes/j/jackm/software/lorrax_C/src/solvers/lanczos.py" source_line=252 scheduling_name="pad.26.2"}
  %reshape.651 = c128[102400]{0} reshape(%pad.26.2), metadata={op_name="jit(_full_run)/jit(main)/scatter" source_file="/global/homes/j/jackm/software/lorrax_C/src/solvers/lanczos.py" source_line=252 scheduling_name="reshape.651"}
  %concatenate.25 = c128[225280]{0} concatenate(%reshape.650, %reshape.651), dimensions={0}, metadata={scheduling_name="concatenate.25"}
  %slice.143 = c128[122880]{0} slice(%concatenate.25), slice={[0:122880]}, metadata={scheduling_name="slice.143"}
  %slice.144 = c128[102400]{0} slice(%concatenate.25), slice={[122880:225280]}, metadata={scheduling_name="slice.144"}
  ROOT %tuple.157 = (c128[122880]{0}, c128[102400]{0}) tuple(%slice.143, %slice.144), metadata={op_name="jit(_full_run)/jit(main)/scatter" source_file="/global/homes/j/jackm/software/lorrax_C/src/solvers/lanczos.py" source_line=252 scheduling_name="tuple.157"}
}

%command_buffer.2 (p.2: s64[], p.3: c128[64,4,2,240], p.4: f64[64,4], p.5: f64[512], p.6: f64[512], p.7: f64[], p.8: c128[64,4,2,240]) -> (s64[], (f64[200], f64[200]), c128[64,240,2,4], f64[4,64], c128[512], /*index=5*/(c128[122880], c128[102400])) {
  %p.2 = s64[] parameter(0)
  %p.3 = c128[64,4,2,240]{3,2,1,0} parameter(1)
  %p.4 = f64[64,4]{1,0} parameter(2)
  %p.5 = f64[512]{0} parameter(3)
  %p.6 = f64[512]{0} parameter(4)
  %p.7 = f64[] parameter(5)
  %p.8 = c128[64,4,2,240]{3,2,1,0} parameter(6)
  %input_reduce_fusion.5 = pred[] fusion(), kind=kInput, calls=%fused_reduce.5, metadata={scheduling_name="input_reduce_fusion.5"}
  %copy.177 = s64[] copy(%p.2)
  %loop_broadcast_fusion.3 = (f64[200]{0}, f64[200]{0}) fusion(), kind=kLoop, calls=%fused_broadcast.3, metadata={scheduling_name="loop_broadcast_fusion.3"}
  %wrapped_transpose = c128[64,240,2,4]{3,2,1,0} fusion(%p.3), kind=kLoop, calls=%wrapped_transpose_computation, metadata={scheduling_name="wrapped_transpose"}
  %wrapped_transpose.1 = f64[4,64]{1,0} fusion(%p.4), kind=kLoop, calls=%wrapped_transpose_computation.1, metadata={scheduling_name="wrapped_transpose.1"}
  %loop_divide_fusion.2 = c128[512]{0} fusion(%p.5, %p.6, %p.7), kind=kLoop, calls=%fused_divide.2, metadata={op_name="jit(_full_run)/jit(main)/div" source_file="/global/homes/j/jackm/software/lorrax_C/src/solvers/lanczos.py" source_line=249 scheduling_name="loop_divide_fusion.2"}
  %input_slice_fusion.1 = (c128[122880]{0}, c128[102400]{0}) fusion(%p.8, %loop_divide_fusion.2, %input_reduce_fusion.5), kind=kInput, calls=%fused_slice.2, metadata={op_name="jit(_full_run)/jit(main)/scatter" source_file="/global/homes/j/jackm/software/lorrax_C/src/solvers/lanczos.py" source_line=252 scheduling_name="input_slice_fusion.1"}
  ROOT %tuple.179 = (s64[], (f64[200]{0}, f64[200]{0}), c128[64,240,2,4]{3,2,1,0}, f64[4,64]{1,0}, c128[512]{0}, /*index=5*/(c128[122880]{0}, c128[102400]{0})) tuple(%copy.177, %loop_broadcast_fusion.3, %wrapped_transpose, %wrapped_transpose.1, %loop_divide_fusion.2, /*index=5*/%input_slice_fusion.1)
}

%wrapped_iota_computation.1 () -> s32[200] {
  ROOT %iota.70.1 = s32[200]{0} iota(), iota_dimension=0, metadata={scheduling_name="iota.70.1"}
}

%fused_select (param_0.498: f64[200], param_1.878: s32[]) -> f64[200] {
  %param_1.878 = s32[] parameter(1), metadata={scheduling_name="param_1.878"}
  %constant_1901_1 = s32[] constant(0)
  %compare.574.2 = pred[] compare(%param_1.878, %constant_1901_1), direction=EQ, metadata={op_name="jit(_full_run)/jit(main)/jit(eigh)/eigh" source_file="/global/homes/j/jackm/software/lorrax_C/src/solvers/lanczos.py" source_line=292 scheduling_name="compare.574.2"}
  %broadcast.2506.1 = pred[200]{0} broadcast(%compare.574.2), dimensions={}, metadata={op_name="jit(_full_run)/jit(main)/jit(eigh)/eigh" source_file="/global/homes/j/jackm/software/lorrax_C/src/solvers/lanczos.py" source_line=292 scheduling_name="broadcast.2506.1"}
  %param_0.498 = f64[200]{0} parameter(0), metadata={scheduling_name="param_0.498"}
  %constant_2145_2 = f64[] constant(nan)
  %broadcast.2507.1 = f64[200]{0} broadcast(%constant_2145_2), dimensions={}, metadata={scheduling_name="broadcast.2507.1"}
  ROOT %select.1068.1 = f64[200]{0} select(%broadcast.2506.1, %param_0.498, %broadcast.2507.1), metadata={op_name="jit(_full_run)/jit(main)/jit(eigh)/eigh" source_file="/global/homes/j/jackm/software/lorrax_C/src/solvers/lanczos.py" source_line=292 scheduling_name="select.1068.1"}
}

%region_24.2284.clone (Arg_0.4: f64[], Arg_1.4: f64[], Arg_2.0: s64[], Arg_3.0: s64[], p.2.lhs.clone: s32[], p.2.rhs.clone: s32[]) -> pred[] {
  %Arg_2.0 = s64[] parameter(2), metadata={op_name="jit(_full_run)/jit(main)/jit(argsort)/sort" scheduling_name="Arg_2.0"}
  %Arg_3.0 = s64[] parameter(3), metadata={op_name="jit(_full_run)/jit(main)/jit(argsort)/sort" scheduling_name="Arg_3.0"}
  %Arg_1.4 = f64[] parameter(1), metadata={op_name="jit(_full_run)/jit(main)/jit(argsort)/sort" scheduling_name="Arg_1.4"}
  %constant_2157 = f64[] constant(0)
  %compare.558 = pred[] compare(%Arg_1.4, %constant_2157), direction=EQ, metadata={op_name="jit(_full_run)/jit(main)/jit(argsort)/eq" source_file="/global/homes/j/jackm/software/lorrax_C/src/solvers/lanczos.py" source_line=293 scheduling_name="compare.558"}
  %select.970 = f64[] select(%compare.558, %constant_2157, %Arg_1.4), metadata={op_name="jit(_full_run)/jit(main)/jit(argsort)/select_n" source_file="/global/homes/j/jackm/software/lorrax_C/src/solvers/lanczos.py" source_line=293 scheduling_name="select.970"}
  %compare.557 = pred[] compare(%Arg_1.4, %Arg_1.4), direction=NE, metadata={op_name="jit(_full_run)/jit(main)/jit(argsort)/ne" source_file="/global/homes/j/jackm/software/lorrax_C/src/solvers/lanczos.py" source_line=293 scheduling_name="compare.557"}
  %constant_2156 = f64[] constant(nan)
  %select.971 = f64[] select(%compare.557, %constant_2156, %select.970), metadata={op_name="jit(_full_run)/jit(main)/jit(argsort)/select_n" source_file="/global/homes/j/jackm/software/lorrax_C/src/solvers/lanczos.py" source_line=293 scheduling_name="select.971"}
  %bitcast-convert.23 = s64[] bitcast-convert(%select.971), metadata={scheduling_name="bitcast-convert.23"}
  %constant_2159 = s64[] constant(9223372036854775807)
  %xor.460 = s64[] xor(%constant_2159, %bitcast-convert.23), metadata={scheduling_name="xor.460"}
  %constant_2158 = s64[] constant(0)
  %compare.559 = pred[] compare(%bitcast-convert.23, %constant_2158), direction=LT, metadata={scheduling_name="compare.559"}
  %select.972 = s64[] select(%compare.559, %xor.460, %bitcast-convert.23), metadata={scheduling_name="select.972"}
  %Arg_0.4 = f64[] parameter(0), metadata={op_name="jit(_full_run)/jit(main)/jit(argsort)/sort" scheduling_name="Arg_0.4"}
  %compare.555 = pred[] compare(%Arg_0.4, %constant_2157), direction=EQ, metadata={op_name="jit(_full_run)/jit(main)/jit(argsort)/eq" source_file="/global/homes/j/jackm/software/lorrax_C/src/solvers/lanczos.py" source_line=293 scheduling_name="compare.555"}
  %select.967 = f64[] select(%compare.555, %constant_2157, %Arg_0.4), metadata={op_name="jit(_full_run)/jit(main)/jit(argsort)/select_n" source_file="/global/homes/j/jackm/software/lorrax_C/src/solvers/lanczos.py" source_line=293 scheduling_name="select.967"}
  %compare.554 = pred[] compare(%Arg_0.4, %Arg_0.4), direction=NE, metadata={op_name="jit(_full_run)/jit(main)/jit(argsort)/ne" source_file="/global/homes/j/jackm/software/lorrax_C/src/solvers/lanczos.py" source_line=293 scheduling_name="compare.554"}
  %select.968 = f64[] select(%compare.554, %constant_2156, %select.967), metadata={op_name="jit(_full_run)/jit(main)/jit(argsort)/select_n" source_file="/global/homes/j/jackm/software/lorrax_C/src/solvers/lanczos.py" source_line=293 scheduling_name="select.968"}
  %bitcast-convert.22 = s64[] bitcast-convert(%select.968), metadata={scheduling_name="bitcast-convert.22"}
  %xor.459 = s64[] xor(%constant_2159, %bitcast-convert.22), metadata={scheduling_name="xor.459"}
  %compare.556 = pred[] compare(%bitcast-convert.22, %constant_2158), direction=LT, metadata={scheduling_name="compare.556"}
  %select.969 = s64[] select(%compare.556, %xor.459, %bitcast-convert.22), metadata={scheduling_name="select.969"}
  %compare.560 = pred[] compare(%select.969, %select.972), direction=LT, metadata={op_name="jit(_full_run)/jit(main)/jit(argsort)/lt_to" source_file="/global/homes/j/jackm/software/lorrax_C/src/solvers/lanczos.py" source_line=293 scheduling_name="compare.560"}
  %compare.561 = pred[] compare(%select.972, %select.969), direction=LT, metadata={op_name="jit(_full_run)/jit(main)/jit(argsort)/lt_to" source_file="/global/homes/j/jackm/software/lorrax_C/src/solvers/lanczos.py" source_line=293 scheduling_name="compare.561"}
  %compare.562 = pred[] compare(%compare.560, %compare.561), direction=EQ, metadata={scheduling_name="compare.562"}
  %p.2.lhs.clone = s32[] parameter(4), metadata={scheduling_name="p.2.lhs.clone"}
  %p.2.rhs.clone = s32[] parameter(5), metadata={scheduling_name="p.2.rhs.clone"}
  %compare.563 = pred[] compare(%p.2.lhs.clone, %p.2.rhs.clone), direction=LT, metadata={scheduling_name="compare.563"}
  ROOT %select.973 = pred[] select(%compare.562, %compare.563, %compare.560), metadata={scheduling_name="select.973"}
}

%fused_convert.2 (param_0.708: f64[200,200], param_1.880: s64[200], param_2.824: s32[]) -> c128[20,200] {
  %param_2.824 = s32[] parameter(2), metadata={scheduling_name="param_2.824"}
  %constant_1901_4 = s32[] constant(0)
  %compare.574.1 = pred[] compare(%param_2.824, %constant_1901_4), direction=EQ, metadata={op_name="jit(_full_run)/jit(main)/jit(eigh)/eigh" source_file="/global/homes/j/jackm/software/lorrax_C/src/solvers/lanczos.py" source_line=292 scheduling_name="compare.574.1"}
  %broadcast.2510.1 = pred[200,200]{1,0} broadcast(%compare.574.1), dimensions={}, metadata={op_name="jit(_full_run)/jit(main)/jit(eigh)/eigh" source_file="/global/homes/j/jackm/software/lorrax_C/src/solvers/lanczos.py" source_line=292 scheduling_name="broadcast.2510.1"}
  %param_0.708 = f64[200,200]{0,1} parameter(0), metadata={scheduling_name="param_0.708"}
  %bitcast.9990.5 = f64[200,200]{1,0} bitcast(%param_0.708), metadata={scheduling_name="bitcast.9990.5"}
  %constant_2145_1 = f64[] constant(nan)
  %broadcast.2511.3 = f64[200,200]{1,0} broadcast(%constant_2145_1), dimensions={}, metadata={scheduling_name="broadcast.2511.3"}
  %select.1070.5 = f64[200,200]{1,0} select(%broadcast.2510.1, %bitcast.9990.5, %broadcast.2511.3), metadata={op_name="jit(_full_run)/jit(main)/jit(eigh)/eigh" source_file="/global/homes/j/jackm/software/lorrax_C/src/solvers/lanczos.py" source_line=292 scheduling_name="select.1070.5"}
  %param_1.880 = s64[200]{0} parameter(1), metadata={scheduling_name="param_1.880"}
  %slice.140.3 = s64[20]{0} slice(%param_1.880), slice={[0:20]}, metadata={op_name="jit(_full_run)/jit(main)/slice" source_file="/global/homes/j/jackm/software/lorrax_C/src/solvers/lanczos.py" source_line=293 scheduling_name="slice.140.3"}
  %constant_1899_2 = s64[] constant(0)
  %broadcast.2508.3 = s64[20]{0} broadcast(%constant_1899_2), dimensions={}, metadata={scheduling_name="broadcast.2508.3"}
  %compare.575.5 = pred[20]{0} compare(%slice.140.3, %broadcast.2508.3), direction=LT, metadata={op_name="jit(_full_run)/jit(main)/lt" source_file="/global/homes/j/jackm/software/lorrax_C/src/solvers/lanczos.py" source_line=294 scheduling_name="compare.575.5"}
  %constant_2147_2 = s64[] constant(200)
  %broadcast.2509.3 = s64[20]{0} broadcast(%constant_2147_2), dimensions={}, metadata={scheduling_name="broadcast.2509.3"}
  %add.1706.5 = s64[20]{0} add(%slice.140.3, %broadcast.2509.3), metadata={op_name="jit(_full_run)/jit(main)/add" source_file="/global/homes/j/jackm/software/lorrax_C/src/solvers/lanczos.py" source_line=294 scheduling_name="add.1706.5"}
  %select.1069.5 = s64[20]{0} select(%compare.575.5, %add.1706.5, %slice.140.3), metadata={op_name="jit(_full_run)/jit(main)/select_n" source_file="/global/homes/j/jackm/software/lorrax_C/src/solvers/lanczos.py" source_line=294 scheduling_name="select.1069.5"}
  %convert.251.3 = s32[20]{0} convert(%select.1069.5), metadata={op_name="jit(_full_run)/jit(main)/convert_element_type" source_file="/global/homes/j/jackm/software/lorrax_C/src/solvers/lanczos.py" source_line=294 scheduling_name="convert.251.3"}
  %bitcast.9997.4 = s32[20,1]{1,0} bitcast(%convert.251.3), metadata={scheduling_name="bitcast.9997.4"}
  %gather.3.3 = f64[20,1,200]{2,1,0} gather(%select.1070.5, %bitcast.9997.4), offset_dims={1,2}, collapsed_slice_dims={}, start_index_map={0}, index_vector_dim=1, slice_sizes={1,200}, metadata={op_name="jit(_full_run)/jit(main)/gather" source_file="/global/homes/j/jackm/software/lorrax_C/src/solvers/lanczos.py" source_line=296 scheduling_name="gather.3.3"}
  %bitcast.10000.1 = f64[20,200]{1,0} bitcast(%gather.3.3), metadata={scheduling_name="bitcast.10000.1"}
  ROOT %convert.252.1 = c128[20,200]{1,0} convert(%bitcast.10000.1), metadata={op_name="jit(_full_run)/jit(main)/dot_general" source_file="/global/homes/j/jackm/software/lorrax_C/src/solvers/lanczos.py" source_line=296 scheduling_name="convert.252.1"}
}

%fused_reduce.7 (param_0.703: c128[20,512]) -> f64[20] {
  %param_0.703 = c128[20,512]{1,0} parameter(0), metadata={scheduling_name="param_0.703"}
  %real.114.3 = f64[20,512]{1,0} real(%param_0.703), metadata={op_name="jit(_full_run)/jit(main)/jit(norm)/real" source_file="/global/homes/j/jackm/software/lorrax_C/src/solvers/lanczos.py" source_line=297 scheduling_name="real.114.3"}
  %imag.88.5 = f64[20,512]{1,0} imag(%param_0.703), metadata={op_name="jit(_full_run)/jit(main)/jit(norm)/imag" source_file="/global/homes/j/jackm/software/lorrax_C/src/solvers/lanczos.py" source_line=297 scheduling_name="imag.88.5"}
  %negate.178.5 = f64[20,512]{1,0} negate(%imag.88.5), metadata={op_name="jit(_full_run)/jit(main)/jit(norm)/neg" source_file="/global/homes/j/jackm/software/lorrax_C/src/solvers/lanczos.py" source_line=297 scheduling_name="negate.178.5"}
  %complex.87.3 = c128[20,512]{1,0} complex(%real.114.3, %negate.178.5), metadata={op_name="jit(_full_run)/jit(main)/jit(norm)/complex" source_file="/global/homes/j/jackm/software/lorrax_C/src/solvers/lanczos.py" source_line=297 scheduling_name="complex.87.3"}
  %multiply.823.3 = c128[20,512]{1,0} multiply(%param_0.703, %complex.87.3), metadata={op_name="jit(_full_run)/jit(main)/jit(norm)/mul" source_file="/global/homes/j/jackm/software/lorrax_C/src/solvers/lanczos.py" source_line=297 scheduling_name="multiply.823.3"}
  %real.115.3 = f64[20,512]{1,0} real(%multiply.823.3), metadata={op_name="jit(_full_run)/jit(main)/jit(norm)/real" source_file="/global/homes/j/jackm/software/lorrax_C/src/solvers/lanczos.py" source_line=297 scheduling_name="real.115.3"}
  %constant_2122_2 = f64[] constant(0)
  ROOT %reduce.56.1 = f64[20]{0} reduce(%real.115.3, %constant_2122_2), dimensions={1}, to_apply=%region_1.1260, metadata={op_name="jit(_full_run)/jit(main)/jit(norm)/reduce_sum" source_file="/global/homes/j/jackm/software/lorrax_C/src/solvers/lanczos.py" source_line=297 scheduling_name="reduce.56.1"}
}

%command_buffer.4 (p.16: (f64[200,200], f64[200], s32[]), p.17: s64[200], p.18: (s64[], c128[512,200], f64[200], f64[200], c128[512], /*index=5*/c128[64,4,2,240], c128[64,4,2,240], c128[64,4,2,240], c128[64,4,2,240], f64[64,4], /*index=10*/f64[64,4], c128[240,240,4,4,4], c128[240,240])) -> (f64[200], s64[200], c128[20,512], f64[20]) {
  %p.16 = (f64[200,200]{0,1}, f64[200]{0}, s32[]) parameter(0)
  %p.17 = s64[200]{0} parameter(1)
  %p.18 = (s64[], c128[512,200]{1,0}, f64[200]{0}, f64[200]{0}, c128[512]{0}, /*index=5*/c128[64,4,2,240]{1,2,3,0}, c128[64,4,2,240]{3,2,1,0}, c128[64,4,2,240]{2,1,3,0}, c128[64,4,2,240]{3,2,1,0}, f64[64,4]{0,1}, /*index=10*/f64[64,4]{1,0}, c128[240,240,4,4,4]{4,3,2,1,0}, c128[240,240]{1,0}) parameter(2)
  %wrapped_iota.1 = s32[200]{0} fusion(), kind=kLoop, calls=%wrapped_iota_computation.1, metadata={scheduling_name="wrapped_iota.1"}
  %get-tuple-element.681.0 = s32[] get-tuple-element(%p.16), index=2, frontend_attributes={num_batch_dims="0"}, metadata={op_name="jit(_full_run)/jit(main)/jit(eigh)/eigh" source_file="/global/homes/j/jackm/software/lorrax_C/src/solvers/lanczos.py" source_line=292 scheduling_name="get-tuple-element.681.0"}
  %get-tuple-element.682.0 = f64[200]{0} get-tuple-element(%p.16), index=1, frontend_attributes={num_batch_dims="0"}, metadata={op_name="jit(_full_run)/jit(main)/jit(eigh)/eigh" source_file="/global/homes/j/jackm/software/lorrax_C/src/solvers/lanczos.py" source_line=292 scheduling_name="get-tuple-element.682.0"}
  %loop_select_fusion = f64[200]{0} fusion(%get-tuple-element.682.0, %get-tuple-element.681.0), kind=kLoop, calls=%fused_select, metadata={op_name="jit(_full_run)/jit(main)/jit(eigh)/eigh" source_file="/global/homes/j/jackm/software/lorrax_C/src/solvers/lanczos.py" source_line=292 scheduling_name="loop_select_fusion"}
  %sort.2.0 = (f64[200]{0}, s64[200]{0}, s32[200]{0}) sort(%loop_select_fusion, %p.17, %wrapped_iota.1), dimensions={0}, is_stable=true, to_apply=%region_24.2284.clone, metadata={op_name="jit(_full_run)/jit(main)/jit(argsort)/sort" source_file="/global/homes/j/jackm/software/lorrax_C/src/solvers/lanczos.py" source_line=293 scheduling_name="sort.2.0"}
  %get-tuple-element.683.0 = s64[200]{0} get-tuple-element(%sort.2.0), index=1, metadata={op_name="jit(_full_run)/jit(main)/jit(argsort)/sort" source_file="/global/homes/j/jackm/software/lorrax_C/src/solvers/lanczos.py" source_line=293 scheduling_name="get-tuple-element.683.0"}
  %get-tuple-element.684.0 = f64[200,200]{0,1} get-tuple-element(%p.16), index=0, frontend_attributes={num_batch_dims="0"}, metadata={op_name="jit(_full_run)/jit(main)/jit(eigh)/eigh" source_file="/global/homes/j/jackm/software/lorrax_C/src/solvers/lanczos.py" source_line=292 scheduling_name="get-tuple-element.684.0"}
  %loop_convert_fusion.2 = c128[20,200]{1,0} fusion(%get-tuple-element.684.0, %get-tuple-element.683.0, %get-tuple-element.681.0), kind=kLoop, calls=%fused_convert.2, metadata={op_name="jit(_full_run)/jit(main)/dot_general" source_file="/global/homes/j/jackm/software/lorrax_C/src/solvers/lanczos.py" source_line=296 scheduling_name="loop_convert_fusion.2"}
  %get-tuple-element.685.0 = c128[512,200]{1,0} get-tuple-element(%p.18), index=1, metadata={op_name="jit(_full_run)/jit(main)/while" source_file="/global/homes/j/jackm/software/lorrax_C/src/solvers/lanczos.py" source_line=286 scheduling_name="get-tuple-element.685.0"}
  %custom-call.234.0 = (c128[20,512]{1,0}, s8[1702400]{0}) custom-call(%loop_convert_fusion.2, %get-tuple-element.685.0), custom_call_target="__cublas$gemm", metadata={op_name="jit(_full_run)/jit(main)/transpose" source_file="/global/homes/j/jackm/software/lorrax_C/src/solvers/lanczos.py" source_line=296 scheduling_name="custom-call.234.0"}, backend_config={"operation_queue_id":"0","wait_on_operation_queues":[],"gemm_backend_config":{"alpha_real":1,"alpha_imag":0,"beta":0,"dot_dimension_numbers":{"lhs_contracting_dimensions":["1"],"rhs_contracting_dimensions":["1"],"lhs_batch_dimensions":[],"rhs_batch_dimensions":[]},"precision_config":{"operand_precision":["DEFAULT","DEFAULT"],"algorithm":"ALG_UNSET"},"epilogue":"DEFAULT","damax_output":false,"lhs_stride":"4000","rhs_stride":"102400","grad_x":false,"grad_y":false},"force_earliest_schedule":false}
  %get-tuple-element.724.0 = c128[20,512]{1,0} get-tuple-element(%custom-call.234.0), index=0, metadata={op_name="jit(_full_run)/jit(main)/transpose" source_file="/global/homes/j/jackm/software/lorrax_C/src/solvers/lanczos.py" source_line=296 scheduling_name="get-tuple-element.724.0"}
  %input_reduce_fusion.7 = f64[20]{0} fusion(%get-tuple-element.724.0), kind=kInput, calls=%fused_reduce.7, metadata={op_name="jit(_full_run)/jit(main)/jit(norm)/reduce_sum" source_file="/global/homes/j/jackm/software/lorrax_C/src/solvers/lanczos.py" source_line=297 scheduling_name="input_reduce_fusion.7"}
  ROOT %tuple.181 = (f64[200]{0}, s64[200]{0}, c128[20,512]{1,0}, f64[20]{0}) tuple(%loop_select_fusion, %get-tuple-element.683.0, %get-tuple-element.724.0, %input_reduce_fusion.7)
}

ENTRY %main.2347_spmd (param.20.0: c128[64,4,2,240], param.21.0: c128[64,4,2,240], param.22.0: c128[64,4,2,240], param.23.0: c128[64,4,2,240], param.24.0: f64[64,4], param.25.0: f64[64,4], param.26.0: c128[240,240,4,4,4], param.27.0: c128[240,240]) -> (f64[20], c128[20,512]) {
  %param.26.0 = c128[240,240,4,4,4]{4,3,2,1,0} parameter(6), sharding={devices=[2,2,1,1,1]<=[4]}, metadata={op_name="W_q" scheduling_name="param.26.0"}
  %constant_1904_0 = s32[4]{0} constant({0, 0, 1, 1}), metadata={op_name="jit(_full_run)/jit(main)/jit(_normal)/jit(_normal_real)/jit(_uniform)/iota_2x32_shape" source_file="/global/homes/j/jackm/software/lorrax_C/src/solvers/lanczos.py" source_line=247}
  %constant_1899_0 = s64[] constant(0)
  %param.20.0 = c128[64,4,2,240]{3,2,1,0} parameter(0), sharding={devices=[1,1,1,2,2]<=[4] last_tile_dim_replicate}, metadata={op_name="psi_c_X" scheduling_name="param.20.0"}
  %param.24.0 = f64[64,4]{1,0} parameter(4), sharding={replicated}, metadata={op_name="eps_c" scheduling_name="param.24.0"}
  %param.22.0 = c128[64,4,2,240]{3,2,1,0} parameter(2), sharding={devices=[1,1,1,2,2]<=[4] last_tile_dim_replicate}, metadata={op_name="psi_v_X" scheduling_name="param.22.0"}
  %constant_2131_0 = s32[4]{0} constant({0, 0, 240, 240}), metadata={op_name="jit(_full_run)/jit(main)/mul" source_file="/global/homes/j/jackm/software/lorrax_C/src/bse/bse_lanczos.py" source_line=156}
  %constant_2132_0 = s32[4]{0} constant({0, 240, 0, 240}), metadata={op_name="jit(_full_run)/jit(main)/mul" source_file="/global/homes/j/jackm/software/lorrax_C/src/bse/bse_lanczos.py" source_line=156}
  %param.21.0 = c128[64,4,2,240]{3,2,1,0} parameter(1), sharding={devices=[1,1,1,2,2]<=[2,2]T(1,0) last_tile_dim_replicate}, metadata={op_name="psi_c_Y" scheduling_name="param.21.0"}
  %param.23.0 = c128[64,4,2,240]{3,2,1,0} parameter(3), sharding={devices=[1,1,1,2,2]<=[2,2]T(1,0) last_tile_dim_replicate}, metadata={op_name="psi_v_Y" scheduling_name="param.23.0"}
  %param.25.0 = f64[64,4]{1,0} parameter(5), sharding={replicated}, metadata={op_name="eps_v" scheduling_name="param.25.0"}
  %param.27.0 = c128[240,240]{1,0} parameter(7), sharding={devices=[2,2]<=[4]}, metadata={op_name="V_q0" scheduling_name="param.27.0"}
  %loop_transpose_fusion.8 = c128[240,240,64]{2,1,0} fusion(%param.26.0), kind=kLoop, calls=%fused_transpose.11, metadata={op_name="W_q" scheduling_name="loop_transpose_fusion.8"}
  %bitcast.9866.0 = c128[240,240,4,4,4]{4,3,2,0,1} bitcast(%loop_transpose_fusion.8), metadata={scheduling_name="bitcast.9866.0"}
  %all-gather-start.5 = (c128[240,240,4,4,4]{4,3,2,0,1}, c128[240,480,4,4,4]{4,3,2,0,1}) all-gather-start(%bitcast.9866.0), channel_id=8, replica_groups=[2,2]<=[4], dimensions={1}, use_global_device_ids=true, metadata={op_name="jit(_full_run)/jit(main)/jit(fft)/fft" source_file="/global/homes/j/jackm/software/lorrax_C/src/bse/bse_lanczos.py" source_line=156 scheduling_name="all-gather-start.5"}, backend_config={"operation_queue_id":"0","wait_on_operation_queues":[],"collective_backend_config":{"is_sync":false,"no_parallel_custom_call":true,"is_pipelined":false,"reification_cost":[]},"force_earliest_schedule":false}
  %call.4 = (u32[], f64[512]{0}, f64[512]{0}, f64[]) call(%constant_1904_0), to_apply=%command_buffer
  %get-tuple-element.859 = u32[] get-tuple-element(%call.4), index=0
  %get-tuple-element.860 = f64[512]{0} get-tuple-element(%call.4), index=1
  %get-tuple-element.861 = f64[512]{0} get-tuple-element(%call.4), index=2
  %get-tuple-element.862 = f64[] get-tuple-element(%call.4), index=3
  %all-gather-done.5 = c128[240,480,4,4,4]{4,3,2,0,1} all-gather-done(%all-gather-start.5), metadata={op_name="jit(_full_run)/jit(main)/jit(fft)/fft" source_file="/global/homes/j/jackm/software/lorrax_C/src/bse/bse_lanczos.py" source_line=156 scheduling_name="all-gather-done.5"}
  %all-reduce-start.4 = f64[] all-reduce-start(%get-tuple-element.862), channel_id=7, replica_groups=[2,2]<=[2,2]T(1,0), use_global_device_ids=true, to_apply=%region_1.1260.clone, metadata={op_name="jit(_full_run)/jit(main)/jit(norm)/reduce_sum" source_file="/global/homes/j/jackm/software/lorrax_C/src/solvers/lanczos.py" source_line=249 scheduling_name="all-reduce-start.4"}, backend_config={"operation_queue_id":"0","wait_on_operation_queues":[],"collective_backend_config":{"is_sync":false,"no_parallel_custom_call":true,"is_pipelined":false,"reification_cost":[]},"force_earliest_schedule":false}
  %loop_transpose_fusion.7 = c128[240,480,64]{2,1,0} fusion(%all-gather-done.5), kind=kLoop, calls=%fused_transpose.10, metadata={op_name="jit(_full_run)/jit(main)/jit(fft)/fft" source_file="/global/homes/j/jackm/software/lorrax_C/src/bse/bse_lanczos.py" source_line=156 scheduling_name="loop_transpose_fusion.7"}
  %all-reduce-done.4 = f64[] all-reduce-done(%all-reduce-start.4), metadata={op_name="jit(_full_run)/jit(main)/jit(norm)/reduce_sum" source_file="/global/homes/j/jackm/software/lorrax_C/src/solvers/lanczos.py" source_line=249 scheduling_name="all-reduce-done.4"}
  %bitcast.9873.0 = c128[240,480,4,4,4]{4,3,2,1,0} bitcast(%loop_transpose_fusion.7), metadata={scheduling_name="bitcast.9873.0"}
  %all-gather-start.6 = (c128[240,480,4,4,4]{4,3,2,1,0}, c128[480,480,4,4,4]{4,3,2,1,0}) all-gather-start(%bitcast.9873.0), channel_id=9, replica_groups=[2,2]<=[2,2]T(1,0), dimensions={0}, use_global_device_ids=true, metadata={op_name="jit(_full_run)/jit(main)/jit(fft)/fft" source_file="/global/homes/j/jackm/software/lorrax_C/src/bse/bse_lanczos.py" source_line=156 scheduling_name="all-gather-start.6"}, backend_config={"operation_queue_id":"0","wait_on_operation_queues":[],"collective_backend_config":{"is_sync":false,"no_parallel_custom_call":true,"is_pipelined":false,"reification_cost":[]},"force_earliest_schedule":false}
  %call.5 = (s64[], (f64[200]{0}, f64[200]{0}), c128[64,240,2,4]{3,2,1,0}, f64[4,64]{1,0}, c128[512]{0}, /*index=5*/(c128[122880]{0}, c128[102400]{0})) call(%constant_1899_0, %param.20.0, %param.24.0, %get-tuple-element.860, %get-tuple-element.861, /*index=5*/%all-reduce-done.4, %param.22.0), to_apply=%command_buffer.2
  %get-tuple-element.863 = s64[] get-tuple-element(%call.5), index=0
  %get-tuple-element.864 = (f64[200]{0}, f64[200]{0}) get-tuple-element(%call.5), index=1
  %get-tuple-element.865 = c128[64,240,2,4]{3,2,1,0} get-tuple-element(%call.5), index=2
  %get-tuple-element.866 = f64[4,64]{1,0} get-tuple-element(%call.5), index=3
  %get-tuple-element.867 = c128[512]{0} get-tuple-element(%call.5), index=4
  %get-tuple-element.868 = (c128[122880]{0}, c128[102400]{0}) get-tuple-element(%call.5), index=5
  %all-gather-done.6 = c128[480,480,4,4,4]{4,3,2,1,0} all-gather-done(%all-gather-start.6), metadata={op_name="jit(_full_run)/jit(main)/jit(fft)/fft" source_file="/global/homes/j/jackm/software/lorrax_C/src/bse/bse_lanczos.py" source_line=156 scheduling_name="all-gather-done.6"}
  %fft.17.0 = c128[480,480,4,4,4]{4,3,2,1,0} fft(%all-gather-done.6), fft_type=IFFT, fft_length={4,4,4}, metadata={op_name="jit(_full_run)/jit(main)/jit(fft)/fft" source_file="/global/homes/j/jackm/software/lorrax_C/src/bse/bse_lanczos.py" source_line=156 scheduling_name="fft.17.0"}
  %loop_multiply_fusion.2 = c128[240,240,4,4,4]{4,3,2,1,0} fusion(%fft.17.0, %constant_2132_0, %get-tuple-element.859, %constant_2131_0), kind=kLoop, calls=%fused_multiply.2, metadata={op_name="jit(_full_run)/jit(main)/mul" source_file="/global/homes/j/jackm/software/lorrax_C/src/bse/bse_lanczos.py" source_line=156 scheduling_name="loop_multiply_fusion.2"}
  %get-tuple-element.737 = c128[102400]{0} get-tuple-element(%get-tuple-element.868), index=1, metadata={scheduling_name="get-tuple-element.737"}
  %bitcast.10228 = c128[512,200]{1,0} bitcast(%get-tuple-element.737), metadata={op_name="jit(_full_run)/jit(main)/scatter" source_file="/global/homes/j/jackm/software/lorrax_C/src/solvers/lanczos.py" source_line=252 scheduling_name="bitcast.10228"}
  %get-tuple-element.736 = c128[122880]{0} get-tuple-element(%get-tuple-element.868), index=0, metadata={scheduling_name="get-tuple-element.736"}
  %bitcast.9850.0 = c128[64,4,2,240]{2,1,3,0} bitcast(%get-tuple-element.736), metadata={scheduling_name="bitcast.9850.0"}
  %get-tuple-element.851 = f64[200]{0} get-tuple-element(%get-tuple-element.864), index=0, metadata={scheduling_name="get-tuple-element.851"}
  %get-tuple-element.852 = f64[200]{0} get-tuple-element(%get-tuple-element.864), index=1, metadata={scheduling_name="get-tuple-element.852"}
  %bitcast.9841.0 = c128[64,4,2,240]{1,2,3,0} bitcast(%get-tuple-element.865), metadata={scheduling_name="bitcast.9841.0"}
  %bitcast.9857.0 = f64[64,4]{0,1} bitcast(%get-tuple-element.866), metadata={scheduling_name="bitcast.9857.0"}
  %tuple.173 = (s64[], c128[512,200]{1,0}, f64[200]{0}, f64[200]{0}, c128[512]{0}, /*index=5*/c128[64,4,2,240]{1,2,3,0}, c128[64,4,2,240]{3,2,1,0}, c128[64,4,2,240]{2,1,3,0}, c128[64,4,2,240]{3,2,1,0}, f64[64,4]{0,1}, /*index=10*/f64[64,4]{1,0}, c128[240,240,4,4,4]{4,3,2,1,0}, c128[240,240]{1,0}) tuple(%get-tuple-element.863, %bitcast.10228, %get-tuple-element.851, %get-tuple-element.852, %get-tuple-element.867, /*index=5*/%bitcast.9841.0, %param.21.0, %bitcast.9850.0, %param.23.0, %bitcast.9857.0, /*index=10*/%param.25.0, %loop_multiply_fusion.2, %param.27.0), metadata={scheduling_name="tuple.173"}
  %while.48.0 = (s64[], c128[512,200]{1,0}, f64[200]{0}, f64[200]{0}, c128[512]{0}, /*index=5*/c128[64,4,2,240]{1,2,3,0}, c128[64,4,2,240]{3,2,1,0}, c128[64,4,2,240]{2,1,3,0}, c128[64,4,2,240]{3,2,1,0}, f64[64,4]{0,1}, /*index=10*/f64[64,4]{1,0}, c128[240,240,4,4,4]{4,3,2,1,0}, c128[240,240]{1,0}) while(%tuple.173), condition=%region_23.2161.clone.clone_spmd, body=%region_3.2136.clone.clone.clone_spmd, metadata={op_name="jit(_full_run)/jit(main)/while" source_file="/global/homes/j/jackm/software/lorrax_C/src/solvers/lanczos.py" source_line=286 scheduling_name="while.48.0"}, backend_config={"known_trip_count":{"n":"200"},"known_init_step":{"init":"0","step":"1"},"known_induction_variable":{"tuple_index":"0"}}
  %get-tuple-element.679.0 = f64[200]{0} get-tuple-element(%while.48.0), index=2, metadata={op_name="jit(_full_run)/jit(main)/while" source_file="/global/homes/j/jackm/software/lorrax_C/src/solvers/lanczos.py" source_line=286 scheduling_name="get-tuple-element.679.0"}
  %get-tuple-element.680.0 = f64[200]{0} get-tuple-element(%while.48.0), index=3, metadata={op_name="jit(_full_run)/jit(main)/while" source_file="/global/homes/j/jackm/software/lorrax_C/src/solvers/lanczos.py" source_line=286 scheduling_name="get-tuple-element.680.0"}
  %loop_add_fusion.7 = f64[200,200]{1,0} fusion(%get-tuple-element.679.0, %get-tuple-element.680.0), kind=kLoop, calls=%fused_add.7, metadata={op_name="jit(_full_run)/jit(main)/add" source_file="/global/homes/j/jackm/software/lorrax_C/src/solvers/lanczos.py" source_line=290 scheduling_name="loop_add_fusion.7"}
  %input_transpose_fusion.3 = f64[200,200]{1,0} fusion(%loop_add_fusion.7), kind=kInput, calls=%fused_transpose.12, metadata={op_name="jit(_full_run)/jit(main)/jit(eigh)/div" source_file="/global/homes/j/jackm/software/lorrax_C/src/solvers/lanczos.py" source_line=292 scheduling_name="input_transpose_fusion.3"}
  %wrapped_iota = s64[200]{0} fusion(), kind=kLoop, calls=%wrapped_iota_computation, metadata={op_name="jit(_full_run)/jit(main)/jit(argsort)/iota" source_file="/global/homes/j/jackm/software/lorrax_C/src/solvers/lanczos.py" source_line=293 scheduling_name="wrapped_iota"}
  %bitcast.9951.0 = f64[200,200]{0,1} bitcast(%input_transpose_fusion.3), metadata={scheduling_name="bitcast.9951.0"}
  %custom-call.220.0 = (f64[200,200]{0,1}, f64[200]{0}, s32[]) custom-call(%bitcast.9951.0), custom_call_target="cusolver_syevd_ffi", operand_layout_constraints={f64[200,200]{0,1}}, output_to_operand_aliasing={{0}: (0, {})}, api_version=API_VERSION_TYPED_FFI, frontend_attributes={num_batch_dims="0"}, metadata={op_name="jit(_full_run)/jit(main)/jit(eigh)/eigh" source_file="/global/homes/j/jackm/software/lorrax_C/src/solvers/lanczos.py" source_line=292 scheduling_name="custom-call.220.0"}, backend_config={algorithm = 0 : ui8, lower = true}
  %call.6 = (f64[200]{0}, s64[200]{0}, c128[20,512]{1,0}, f64[20]{0}) call(%custom-call.220.0, %wrapped_iota, %while.48.0), to_apply=%command_buffer.4
  %get-tuple-element.869 = f64[200]{0} get-tuple-element(%call.6), index=0
  %get-tuple-element.870 = s64[200]{0} get-tuple-element(%call.6), index=1
  %get-tuple-element.871 = c128[20,512]{1,0} get-tuple-element(%call.6), index=2
  %get-tuple-element.872 = f64[20]{0} get-tuple-element(%call.6), index=3
  %all-reduce-start.5 = f64[20]{0} all-reduce-start(%get-tuple-element.872), channel_id=20, replica_groups=[2,2]<=[2,2]T(1,0), use_global_device_ids=true, to_apply=%region_25.2323.clone, metadata={op_name="jit(_full_run)/jit(main)/jit(norm)/reduce_sum" source_file="/global/homes/j/jackm/software/lorrax_C/src/solvers/lanczos.py" source_line=297 scheduling_name="all-reduce-start.5"}, backend_config={"operation_queue_id":"0","wait_on_operation_queues":[],"collective_backend_config":{"is_sync":false,"no_parallel_custom_call":true,"is_pipelined":false,"reification_cost":[]},"force_earliest_schedule":false}
  %loop_gather_fusion = f64[20,1]{1,0} fusion(%get-tuple-element.869, %get-tuple-element.870), kind=kLoop, calls=%fused_gather, metadata={op_name="jit(_full_run)/jit(main)/gather" source_file="/global/homes/j/jackm/software/lorrax_C/src/solvers/lanczos.py" source_line=294 scheduling_name="loop_gather_fusion"}
  %all-reduce-done.5 = f64[20]{0} all-reduce-done(%all-reduce-start.5), metadata={op_name="jit(_full_run)/jit(main)/jit(norm)/reduce_sum" source_file="/global/homes/j/jackm/software/lorrax_C/src/solvers/lanczos.py" source_line=297 scheduling_name="all-reduce-done.5"}
  %loop_divide_fusion.1 = c128[20,512]{1,0} fusion(%get-tuple-element.871, %all-reduce-done.5), kind=kLoop, calls=%fused_divide.1, metadata={op_name="jit(_full_run)/jit(main)/div" source_file="/global/homes/j/jackm/software/lorrax_C/src/solvers/lanczos.py" source_line=298 scheduling_name="loop_divide_fusion.1"}
  %bitcast.9984.0 = f64[20]{0} bitcast(%loop_gather_fusion), metadata={scheduling_name="bitcast.9984.0"}
  ROOT %tuple.145.0 = (f64[20]{0}, c128[20,512]{1,0}) tuple(%bitcast.9984.0, %loop_divide_fusion.1), metadata={scheduling_name="tuple.145.0"}
}

