HloModule jit__full_run, entry_computation_layout={(c128[64,4,2,480]{3,2,1,0}, c128[64,4,2,480]{3,2,1,0}, c128[64,4,2,480]{3,2,1,0}, c128[64,4,2,480]{3,2,1,0}, f64[64,4]{1,0}, /*index=5*/f64[64,4]{1,0}, c128[480,480,4,4,4]{4,3,2,1,0}, c128[480,480]{1,0})->(f64[20]{0}, c128[20,1024]{1,0})}, allow_spmd_sharding_propagation_to_parameters={false,false,false,false,true,true,false,false}, allow_spmd_sharding_propagation_to_output={true,true}, num_partitions=4

%region_1.1260 (Arg_0.1261: f64[], Arg_1.1262: f64[]) -> f64[] {
  %Arg_0.1261 = f64[] parameter(0), metadata={op_name="jit(_full_run)/jit(main)/jit(norm)/reduce_sum"}
  %Arg_1.1262 = f64[] parameter(1), metadata={op_name="jit(_full_run)/jit(main)/jit(norm)/reduce_sum"}
  ROOT %add.1263 = f64[] add(%Arg_0.1261, %Arg_1.1262), metadata={op_name="jit(_full_run)/jit(main)/jit(norm)/reduce_sum" source_file="/global/homes/j/jackm/software/lorrax_C/src/solvers/lanczos.py" source_line=249}
}

%region_24.2284 (Arg_0.2285: f64[], Arg_1.2286: f64[], Arg_2.2287: s64[], Arg_3.2288: s64[]) -> pred[] {
  %Arg_2.2287 = s64[] parameter(2), metadata={op_name="jit(_full_run)/jit(main)/jit(argsort)/sort"}
  %Arg_3.2288 = s64[] parameter(3), metadata={op_name="jit(_full_run)/jit(main)/jit(argsort)/sort"}
  %constant.2289 = f64[] constant(nan)
  %constant.2290 = f64[] constant(0)
  %Arg_0.2285 = f64[] parameter(0), metadata={op_name="jit(_full_run)/jit(main)/jit(argsort)/sort"}
  %compare.2293 = pred[] compare(%Arg_0.2285, %Arg_0.2285), direction=NE, metadata={op_name="jit(_full_run)/jit(main)/jit(argsort)/ne" source_file="/global/homes/j/jackm/software/lorrax_C/src/solvers/lanczos.py" source_line=293}
  %constant.1651 = f64[] constant(nan)
  %constant.1653 = f64[] constant(0)
  %compare.2291 = pred[] compare(%Arg_0.2285, %constant.1653), direction=EQ, metadata={op_name="jit(_full_run)/jit(main)/jit(argsort)/eq" source_file="/global/homes/j/jackm/software/lorrax_C/src/solvers/lanczos.py" source_line=293}
  %constant.1654 = f64[] constant(0)
  %select.2292 = f64[] select(%compare.2291, %constant.1654, %Arg_0.2285), metadata={op_name="jit(_full_run)/jit(main)/jit(argsort)/select_n" source_file="/global/homes/j/jackm/software/lorrax_C/src/solvers/lanczos.py" source_line=293}
  %select.2294 = f64[] select(%compare.2293, %constant.1651, %select.2292), metadata={op_name="jit(_full_run)/jit(main)/jit(argsort)/select_n" source_file="/global/homes/j/jackm/software/lorrax_C/src/solvers/lanczos.py" source_line=293}
  %Arg_1.2286 = f64[] parameter(1), metadata={op_name="jit(_full_run)/jit(main)/jit(argsort)/sort"}
  %compare.2297 = pred[] compare(%Arg_1.2286, %Arg_1.2286), direction=NE, metadata={op_name="jit(_full_run)/jit(main)/jit(argsort)/ne" source_file="/global/homes/j/jackm/software/lorrax_C/src/solvers/lanczos.py" source_line=293}
  %constant.1652 = f64[] constant(nan)
  %constant.1656 = f64[] constant(0)
  %compare.2295 = pred[] compare(%Arg_1.2286, %constant.1656), direction=EQ, metadata={op_name="jit(_full_run)/jit(main)/jit(argsort)/eq" source_file="/global/homes/j/jackm/software/lorrax_C/src/solvers/lanczos.py" source_line=293}
  %constant.1658 = f64[] constant(0)
  %select.2296 = f64[] select(%compare.2295, %constant.1658, %Arg_1.2286), metadata={op_name="jit(_full_run)/jit(main)/jit(argsort)/select_n" source_file="/global/homes/j/jackm/software/lorrax_C/src/solvers/lanczos.py" source_line=293}
  %select.2298 = f64[] select(%compare.2297, %constant.1652, %select.2296), metadata={op_name="jit(_full_run)/jit(main)/jit(argsort)/select_n" source_file="/global/homes/j/jackm/software/lorrax_C/src/solvers/lanczos.py" source_line=293}
  ROOT %compare.2299 = pred[] compare(%select.2294, %select.2298), direction=LT, type=TOTALORDER, metadata={op_name="jit(_full_run)/jit(main)/jit(argsort)/lt_to" source_file="/global/homes/j/jackm/software/lorrax_C/src/solvers/lanczos.py" source_line=293}
}

%region_25.2323 (Arg_0.2324: f64[], Arg_1.2325: f64[]) -> f64[] {
  %Arg_0.2324 = f64[] parameter(0), metadata={op_name="jit(_full_run)/jit(main)/jit(norm)/reduce_sum"}
  %Arg_1.2325 = f64[] parameter(1), metadata={op_name="jit(_full_run)/jit(main)/jit(norm)/reduce_sum"}
  ROOT %add.2326 = f64[] add(%Arg_0.2324, %Arg_1.2325), metadata={op_name="jit(_full_run)/jit(main)/jit(norm)/reduce_sum" source_file="/global/homes/j/jackm/software/lorrax_C/src/solvers/lanczos.py" source_line=297}
}

%and.reduce_sub_computation.3 (lhs.3: pred[], rhs.3: pred[]) -> pred[] {
  %lhs.3 = pred[] parameter(0)
  %rhs.3 = pred[] parameter(1)
  ROOT %and.28 = pred[] and(%lhs.3, %rhs.3)
}

%region_7.1398 (Arg_0.1399: c128[], Arg_1.1400: c128[]) -> c128[] {
  %Arg_0.1399 = c128[] parameter(0), metadata={op_name="jit(_full_run)/jit(main)/while/body/jit(_matvec_impl)/jit(shmap_body)/while/body/reduce_sum"}
  %Arg_1.1400 = c128[] parameter(1), metadata={op_name="jit(_full_run)/jit(main)/while/body/jit(_matvec_impl)/jit(shmap_body)/while/body/reduce_sum"}
  ROOT %add.1401 = c128[] add(%Arg_0.1399, %Arg_1.1400), metadata={op_name="jit(_full_run)/jit(main)/while/body/jit(_matvec_impl)/jit(shmap_body)/while/body/reduce_sum" source_file="/global/homes/j/jackm/software/lorrax_C/src/bse/bse_ring_comm.py" source_line=277}
}

%region_6.1410 (arg_tuple.1411: (s64[], c128[1,2,240,64], c128[1,240,64])) -> (s64[], c128[1,2,240,64], c128[1,240,64]) {
  %arg_tuple.1411 = (s64[], c128[1,2,240,64]{3,2,1,0}, c128[1,240,64]{2,1,0}) parameter(0), sharding={{replicated}, {manual}, {manual}}
  %get-tuple-element.1412 = s64[] get-tuple-element(%arg_tuple.1411), index=0, sharding={replicated}
  %constant.1415 = s64[] constant(1), sharding={replicated}
  %add.1419 = s64[] add(%get-tuple-element.1412, %constant.1415), sharding={replicated}, metadata={op_name="jit(_full_run)/jit(main)/while/body/jit(_matvec_impl)/jit(shmap_body)/while/body/add" source_file="/global/homes/j/jackm/software/lorrax_C/src/bse/bse_ring_comm.py" source_line=281}
  %get-tuple-element.1413 = c128[1,2,240,64]{3,2,1,0} get-tuple-element(%arg_tuple.1411), index=1, sharding={manual}
  %collective-permute.1 = c128[1,2,240,64]{3,2,1,0} collective-permute(%get-tuple-element.1413), channel_id=2, source_target_pairs={{0,2},{2,0},{1,3},{3,1}}, sharding={manual}, metadata={op_name="jit(_full_run)/jit(main)/while/body/jit(_matvec_impl)/jit(shmap_body)/while/body/ppermute" source_file="/global/homes/j/jackm/software/lorrax_C/src/bse/bse_ring_comm.py" source_line=278}
  %get-tuple-element.1414 = c128[1,240,64]{2,1,0} get-tuple-element(%arg_tuple.1411), index=2, sharding={manual}
  %constant.313 = c128[] constant((0, 0)), sharding={manual}
  %reduce.0 = c128[1,240,64]{2,1,0} reduce(%get-tuple-element.1413, %constant.313), dimensions={1}, to_apply=%region_7.1398, sharding={manual}, metadata={op_name="jit(_full_run)/jit(main)/while/body/jit(_matvec_impl)/jit(shmap_body)/while/body/reduce_sum" source_file="/global/homes/j/jackm/software/lorrax_C/src/bse/bse_ring_comm.py" source_line=277}
  %add.359 = c128[1,240,64]{2,1,0} add(%get-tuple-element.1414, %reduce.0), sharding={manual}, metadata={op_name="jit(_full_run)/jit(main)/while/body/jit(_matvec_impl)/jit(shmap_body)/while/body/add" source_file="/global/homes/j/jackm/software/lorrax_C/src/bse/bse_ring_comm.py" source_line=277}
  ROOT %tuple.1420 = (s64[], c128[1,2,240,64]{3,2,1,0}, c128[1,240,64]{2,1,0}) tuple(%add.1419, %collective-permute.1, %add.359), sharding={{replicated}, {manual}, {manual}}
}

%region_8.1421 (arg_tuple.1422: (s64[], c128[1,2,240,64], c128[1,240,64])) -> pred[] {
  %arg_tuple.1422 = (s64[], c128[1,2,240,64]{3,2,1,0}, c128[1,240,64]{2,1,0}) parameter(0), sharding={{replicated}, {manual}, {manual}}
  %get-tuple-element.1423 = s64[] get-tuple-element(%arg_tuple.1422), index=0, sharding={replicated}
  %constant.1426 = s64[] constant(2), sharding={replicated}
  ROOT %compare.1427 = pred[] compare(%get-tuple-element.1423, %constant.1426), direction=LT, sharding={replicated}, metadata={op_name="jit(_full_run)/jit(main)/while/body/jit(_matvec_impl)/jit(shmap_body)/while/cond/lt" source_file="/global/homes/j/jackm/software/lorrax_C/src/bse/bse_ring_comm.py" source_line=281}
}

%region_9.1428 (Arg_0.1429: c128[], Arg_1.1430: c128[]) -> c128[] {
  %Arg_0.1429 = c128[] parameter(0), metadata={op_name="jit(_full_run)/jit(main)/while/body/jit(_matvec_impl)/jit(shmap_body)/psum2"}
  %Arg_1.1430 = c128[] parameter(1), metadata={op_name="jit(_full_run)/jit(main)/while/body/jit(_matvec_impl)/jit(shmap_body)/psum2"}
  ROOT %add.1431 = c128[] add(%Arg_0.1429, %Arg_1.1430), metadata={op_name="jit(_full_run)/jit(main)/while/body/jit(_matvec_impl)/jit(shmap_body)/add" source_file="/global/homes/j/jackm/software/lorrax_C/src/bse/bse_ring_comm.py" source_line=286}
}

%region_10.1432 (Arg_0.1433: c128[], Arg_1.1434: c128[]) -> c128[] {
  %Arg_0.1433 = c128[] parameter(0), metadata={op_name="jit(_full_run)/jit(main)/while/body/jit(_matvec_impl)/jit(shmap_body)/reduce_scatter"}
  %Arg_1.1434 = c128[] parameter(1), metadata={op_name="jit(_full_run)/jit(main)/while/body/jit(_matvec_impl)/jit(shmap_body)/reduce_scatter"}
  ROOT %add.1435 = c128[] add(%Arg_0.1433, %Arg_1.1434), metadata={op_name="jit(_full_run)/jit(main)/while/body/jit(_matvec_impl)/jit(shmap_body)/add" source_file="/global/homes/j/jackm/software/lorrax_C/src/bse/bse_ring_comm.py" source_line=294}
}

%scalar_add_computation (scalar_lhs: c128[], scalar_rhs: c128[]) -> c128[] {
  %scalar_lhs = c128[] parameter(0)
  %scalar_rhs = c128[] parameter(1)
  ROOT %add.626 = c128[] add(%scalar_lhs, %scalar_rhs)
}

%region_18.1991 (arg_tuple.1992: (s64[], c128[1024], s64[], s64[], c128[1024,200])) -> (s64[], c128[1024], s64[], s64[], c128[1024,200]) {
  %constant.2000 = s64[] constant(0)
  %arg_tuple.1992 = (s64[], c128[1024]{0}, s64[], s64[], c128[1024,200]{1,0}) parameter(0), sharding={{replicated}, {devices=[2,2]<=[4] last_tile_dim_replicate}, {replicated}, {replicated}, {devices=[2,1,2]<=[4] last_tile_dim_replicate}}
  %get-tuple-element.1993 = s64[] get-tuple-element(%arg_tuple.1992), index=0, sharding={replicated}
  %constant.2001 = s64[] constant(1), sharding={replicated}
  %add.2002 = s64[] add(%get-tuple-element.1993, %constant.2001), sharding={replicated}, metadata={op_name="jit(_full_run)/jit(main)/while/body/while/body/add" source_file="/global/homes/j/jackm/software/lorrax_C/src/solvers/lanczos.py" source_line=275}
  %get-tuple-element.1994 = c128[1024]{0} get-tuple-element(%arg_tuple.1992), index=1, sharding={devices=[2,2]<=[4] last_tile_dim_replicate}
  %get-tuple-element.1996 = s64[] get-tuple-element(%arg_tuple.1992), index=3, sharding={replicated}
  %compare.2003 = pred[] compare(%get-tuple-element.1993, %get-tuple-element.1996), direction=LT, sharding={replicated}, metadata={op_name="jit(_full_run)/jit(main)/while/body/while/body/lt" source_file="/global/homes/j/jackm/software/lorrax_C/src/solvers/lanczos.py" source_line=269}
  %get-tuple-element.1997 = c128[1024,200]{1,0} get-tuple-element(%arg_tuple.1992), index=4, sharding={devices=[2,1,2]<=[4] last_tile_dim_replicate}
  %constant.1650 = s64[] constant(0)
  %constant.1648 = s64[] constant(0), sharding={replicated}
  %compare.2004 = pred[] compare(%get-tuple-element.1993, %constant.1648), direction=LT, sharding={replicated}, metadata={op_name="jit(_full_run)/jit(main)/while/body/while/body/lt" source_file="/global/homes/j/jackm/software/lorrax_C/src/solvers/lanczos.py" source_line=270}
  %constant.1999 = s64[] constant(200), sharding={replicated}
  %add.2005 = s64[] add(%get-tuple-element.1993, %constant.1999), sharding={replicated}, metadata={op_name="jit(_full_run)/jit(main)/while/body/while/body/add" source_file="/global/homes/j/jackm/software/lorrax_C/src/solvers/lanczos.py" source_line=270}
  %select.2006 = s64[] select(%compare.2004, %add.2005, %get-tuple-element.1993), sharding={replicated}, metadata={op_name="jit(_full_run)/jit(main)/while/body/while/body/select_n" source_file="/global/homes/j/jackm/software/lorrax_C/src/solvers/lanczos.py" source_line=270}
  %dynamic-slice.2007 = c128[1024,1]{1,0} dynamic-slice(%get-tuple-element.1997, %constant.1650, %select.2006), dynamic_slice_sizes={1024,1}, sharding={devices=[2,1,2]<=[4] last_tile_dim_replicate}, metadata={op_name="jit(_full_run)/jit(main)/while/body/while/body/dynamic_slice" source_file="/global/homes/j/jackm/software/lorrax_C/src/solvers/lanczos.py" source_line=270}
  %real.50 = f64[1024,1]{1,0} real(%dynamic-slice.2007), sharding={devices=[2,1,2]<=[4] last_tile_dim_replicate}, metadata={op_name="jit(_full_run)/jit(main)/while/body/while/body/real" source_file="/global/homes/j/jackm/software/lorrax_C/src/solvers/lanczos.py" source_line=271}
  %imag.40 = f64[1024,1]{1,0} imag(%dynamic-slice.2007), sharding={devices=[2,1,2]<=[4] last_tile_dim_replicate}, metadata={op_name="jit(_full_run)/jit(main)/while/body/while/body/imag" source_file="/global/homes/j/jackm/software/lorrax_C/src/solvers/lanczos.py" source_line=271}
  %negate.77 = f64[1024,1]{1,0} negate(%imag.40), sharding={devices=[2,1,2]<=[4] last_tile_dim_replicate}, metadata={op_name="jit(_full_run)/jit(main)/while/body/while/body/neg" source_file="/global/homes/j/jackm/software/lorrax_C/src/solvers/lanczos.py" source_line=271}
  %complex.47 = c128[1024,1]{1,0} complex(%real.50, %negate.77), sharding={devices=[2,1,2]<=[4] last_tile_dim_replicate}, metadata={op_name="jit(_full_run)/jit(main)/while/body/while/body/complex" source_file="/global/homes/j/jackm/software/lorrax_C/src/solvers/lanczos.py" source_line=271}
  %reshape.467 = c128[1024]{0} reshape(%complex.47), sharding={devices=[2,2]<=[4] last_tile_dim_replicate}, metadata={op_name="jit(_full_run)/jit(main)/while/body/while/body/complex" source_file="/global/homes/j/jackm/software/lorrax_C/src/solvers/lanczos.py" source_line=271}
  %multiply.245 = c128[1024]{0} multiply(%reshape.467, %get-tuple-element.1994), sharding={devices=[2,2]<=[4] last_tile_dim_replicate}
  %constant.715 = c128[] constant((0, 0))
  %reduce.12 = c128[] reduce(%multiply.245, %constant.715), dimensions={0}, to_apply=%scalar_add_computation, sharding={replicated}, metadata={op_name="jit(_full_run)/jit(main)/while/body/while/body/dot_general" source_file="/global/homes/j/jackm/software/lorrax_C/src/solvers/lanczos.py" source_line=271}
  %constant.1998 = c128[] constant((0, 0)), sharding={replicated}
  %select.167 = c128[] select(%compare.2003, %reduce.12, %constant.1998), sharding={replicated}, metadata={op_name="jit(_full_run)/jit(main)/while/body/while/body/jit(_where)/select_n" source_file="/global/homes/j/jackm/software/lorrax_C/src/solvers/lanczos.py" source_line=271}
  %broadcast.1010 = c128[1024,1]{1,0} broadcast(%select.167), dimensions={}, sharding={devices=[2,1,2]<=[4] last_tile_dim_replicate}, metadata={op_name="jit(_full_run)/jit(main)/while/body/while/body/mul" source_file="/global/homes/j/jackm/software/lorrax_C/src/solvers/lanczos.py" source_line=272}
  %multiply.414 = c128[1024,1]{1,0} multiply(%broadcast.1010, %dynamic-slice.2007), sharding={devices=[2,1,2]<=[4] last_tile_dim_replicate}, metadata={op_name="jit(_full_run)/jit(main)/while/body/while/body/mul" source_file="/global/homes/j/jackm/software/lorrax_C/src/solvers/lanczos.py" source_line=272}
  %reshape.340 = c128[1024]{0} reshape(%multiply.414), sharding={devices=[2,2]<=[4] last_tile_dim_replicate}, metadata={op_name="jit(_full_run)/jit(main)/while/body/while/body/mul" source_file="/global/homes/j/jackm/software/lorrax_C/src/solvers/lanczos.py" source_line=272}
  %subtract.2017 = c128[1024]{0} subtract(%get-tuple-element.1994, %reshape.340), sharding={devices=[2,2]<=[4] last_tile_dim_replicate}, metadata={op_name="jit(_full_run)/jit(main)/while/body/while/body/sub" source_file="/global/homes/j/jackm/software/lorrax_C/src/solvers/lanczos.py" source_line=272}
  %get-tuple-element.1995 = s64[] get-tuple-element(%arg_tuple.1992), index=2, sharding={replicated}
  ROOT %tuple.2018 = (s64[], c128[1024]{0}, s64[], s64[], c128[1024,200]{1,0}) tuple(%add.2002, %subtract.2017, %get-tuple-element.1995, %get-tuple-element.1996, %get-tuple-element.1997), sharding={{replicated}, {devices=[2,2]<=[4] last_tile_dim_replicate}, {replicated}, {replicated}, {devices=[2,1,2]<=[4] last_tile_dim_replicate}}
}

%region_19.2019 (arg_tuple.2020: (s64[], c128[1024], s64[], s64[], c128[1024,200])) -> pred[] {
  %arg_tuple.2020 = (s64[], c128[1024]{0}, s64[], s64[], c128[1024,200]{1,0}) parameter(0), sharding={{replicated}, {devices=[2,2]<=[4] last_tile_dim_replicate}, {replicated}, {replicated}, {devices=[2,1,2]<=[4] last_tile_dim_replicate}}
  %get-tuple-element.2021 = s64[] get-tuple-element(%arg_tuple.2020), index=0, sharding={replicated}
  %get-tuple-element.2023 = s64[] get-tuple-element(%arg_tuple.2020), index=2, sharding={replicated}
  ROOT %compare.2026 = pred[] compare(%get-tuple-element.2021, %get-tuple-element.2023), direction=LT, sharding={replicated}, metadata={op_name="jit(_full_run)/jit(main)/while/body/while/cond/lt" source_file="/global/homes/j/jackm/software/lorrax_C/src/solvers/lanczos.py" source_line=275}
}

%region_20.2027 (Arg_0.2028: f64[], Arg_1.2029: f64[]) -> f64[] {
  %Arg_0.2028 = f64[] parameter(0), metadata={op_name="jit(_full_run)/jit(main)/while/body/jit(norm)/reduce_sum"}
  %Arg_1.2029 = f64[] parameter(1), metadata={op_name="jit(_full_run)/jit(main)/while/body/jit(norm)/reduce_sum"}
  ROOT %add.2030 = f64[] add(%Arg_0.2028, %Arg_1.2029), metadata={op_name="jit(_full_run)/jit(main)/while/body/jit(norm)/reduce_sum" source_file="/global/homes/j/jackm/software/lorrax_C/src/solvers/lanczos.py" source_line=277}
}

%and.reduce_sub_computation (lhs: pred[], rhs: pred[]) -> pred[] {
  %lhs = pred[] parameter(0)
  %rhs = pred[] parameter(1)
  ROOT %and.22 = pred[] and(%lhs, %rhs)
}

%region_4.1370.clone.clone.clone.1 (arg_tuple.21: (s64[], c128[1,2,2,64], c128[1,2,240,64], s32[], c128[64,4,2,240], /*index=5*/c128[64,2,2,240])) -> (s64[], c128[1,2,2,64], c128[1,2,240,64], s32[], c128[64,4,2,240], /*index=5*/c128[64,2,2,240]) {
  %arg_tuple.21 = (s64[], c128[1,2,2,64]{3,2,1,0}, c128[1,2,240,64]{3,2,1,0}, s32[], c128[64,4,2,240]{3,2,1,0}, /*index=5*/c128[64,2,2,240]{3,2,1,0}) parameter(0), sharding={{manual}, {manual}, {manual}, {manual}, {manual}, /*index=5*/{manual}}
  %get-tuple-element.582 = s64[] get-tuple-element(%arg_tuple.21), index=0, sharding={manual}
  %constant.1619 = s64[] constant(1), sharding={manual}
  %add.814 = s64[] add(%get-tuple-element.582, %constant.1619), sharding={manual}, metadata={op_name="jit(_full_run)/jit(main)/while/body/jit(_matvec_impl)/jit(shmap_body)/while/body/add" source_file="/global/homes/j/jackm/software/lorrax_C/src/bse/bse_ring_comm.py" source_line=270}
  %get-tuple-element.580 = c128[1,2,2,64]{3,2,1,0} get-tuple-element(%arg_tuple.21), index=1, sharding={manual}
  %collective-permute.13 = c128[1,2,2,64]{3,2,1,0} collective-permute(%get-tuple-element.580), channel_id=1, source_target_pairs={{0,1},{1,0},{2,3},{3,2}}, sharding={manual}, metadata={op_name="jit(_full_run)/jit(main)/while/body/jit(_matvec_impl)/jit(shmap_body)/while/body/ppermute" source_file="/global/homes/j/jackm/software/lorrax_C/src/bse/bse_ring_comm.py" source_line=267}
  %get-tuple-element.579 = c128[1,2,240,64]{3,2,1,0} get-tuple-element(%arg_tuple.21), index=2, sharding={manual}
  %reshape.485 = c128[2,2,64]{2,1,0} reshape(%get-tuple-element.580), sharding={manual}
  %get-tuple-element.577 = c128[64,4,2,240]{3,2,1,0} get-tuple-element(%arg_tuple.21), index=4, sharding={manual}
  %constant.1620 = s32[] constant(0), sharding={manual}, metadata={op_name="jit(_full_run)/jit(main)/while/body/jit(_matvec_impl)/jit(shmap_body)/while/body/select_n" source_file="/global/homes/j/jackm/software/lorrax_C/src/bse/bse_ring_comm.py" source_line=262}
  %get-tuple-element.578 = s32[] get-tuple-element(%arg_tuple.21), index=3, sharding={manual}
  %get-tuple-element.581 = s64[] get-tuple-element(%arg_tuple.21), index=0, sharding={manual}
  %convert.120 = s32[] convert(%get-tuple-element.581), sharding={manual}, metadata={op_name="jit(_full_run)/jit(main)/while/body/jit(_matvec_impl)/jit(shmap_body)/while/body/convert_element_type" source_file="/global/homes/j/jackm/software/lorrax_C/src/bse/bse_ring_comm.py" source_line=260}
  %subtract.54 = s32[] subtract(%get-tuple-element.578, %convert.120), sharding={manual}, metadata={op_name="jit(_full_run)/jit(main)/while/body/jit(_matvec_impl)/jit(shmap_body)/while/body/sub" source_file="/global/homes/j/jackm/software/lorrax_C/src/bse/bse_ring_comm.py" source_line=260}
  %constant.1627 = s32[] constant(0), sharding={manual}
  %compare.344 = pred[] compare(%subtract.54, %constant.1627), direction=LT, sharding={manual}, metadata={op_name="jit(_full_run)/jit(main)/while/body/jit(_matvec_impl)/jit(shmap_body)/while/body/jit(remainder)/rem" source_file="/global/homes/j/jackm/software/lorrax_C/src/bse/bse_ring_comm.py" source_line=260}
  %negate.93 = s32[] negate(%subtract.54), sharding={manual}, metadata={op_name="jit(_full_run)/jit(main)/while/body/jit(_matvec_impl)/jit(shmap_body)/while/body/jit(remainder)/rem" source_file="/global/homes/j/jackm/software/lorrax_C/src/bse/bse_ring_comm.py" source_line=260}
  %select.498 = s32[] select(%compare.344, %negate.93, %subtract.54), sharding={manual}, metadata={op_name="jit(_full_run)/jit(main)/while/body/jit(_matvec_impl)/jit(shmap_body)/while/body/jit(remainder)/rem" source_file="/global/homes/j/jackm/software/lorrax_C/src/bse/bse_ring_comm.py" source_line=260}
  %constant.1628 = s32[] constant(1), sharding={manual}, metadata={op_name="jit(_full_run)/jit(main)/while/body/jit(_matvec_impl)/jit(shmap_body)/while/body/jit(remainder)/rem" source_file="/global/homes/j/jackm/software/lorrax_C/src/bse/bse_ring_comm.py" source_line=260}
  %and.82 = s32[] and(%select.498, %constant.1628), sharding={manual}, metadata={op_name="jit(_full_run)/jit(main)/while/body/jit(_matvec_impl)/jit(shmap_body)/while/body/jit(remainder)/rem" source_file="/global/homes/j/jackm/software/lorrax_C/src/bse/bse_ring_comm.py" source_line=260}
  %negate.94 = s32[] negate(%and.82), sharding={manual}, metadata={op_name="jit(_full_run)/jit(main)/while/body/jit(_matvec_impl)/jit(shmap_body)/while/body/jit(remainder)/rem" source_file="/global/homes/j/jackm/software/lorrax_C/src/bse/bse_ring_comm.py" source_line=260}
  %select.499 = s32[] select(%compare.344, %negate.94, %and.82), sharding={manual}, metadata={op_name="jit(_full_run)/jit(main)/while/body/jit(_matvec_impl)/jit(shmap_body)/while/body/jit(remainder)/rem" source_file="/global/homes/j/jackm/software/lorrax_C/src/bse/bse_ring_comm.py" source_line=260}
  %constant.1699 = s32[] constant(0), sharding={manual}
  %compare.341 = pred[] compare(%select.499, %constant.1699), direction=LT, sharding={manual}, metadata={op_name="jit(_full_run)/jit(main)/while/body/jit(_matvec_impl)/jit(shmap_body)/while/body/jit(remainder)/lt" source_file="/global/homes/j/jackm/software/lorrax_C/src/bse/bse_ring_comm.py" source_line=260}
  %constant.1698 = s32[] constant(0), sharding={manual}
  %compare.342 = pred[] compare(%select.499, %constant.1698), direction=NE, sharding={manual}, metadata={op_name="jit(_full_run)/jit(main)/while/body/jit(_matvec_impl)/jit(shmap_body)/while/body/jit(remainder)/ne" source_file="/global/homes/j/jackm/software/lorrax_C/src/bse/bse_ring_comm.py" source_line=260}
  %and.81 = pred[] and(%compare.341, %compare.342), sharding={manual}, metadata={op_name="jit(_full_run)/jit(main)/while/body/jit(_matvec_impl)/jit(shmap_body)/while/body/jit(remainder)/and" source_file="/global/homes/j/jackm/software/lorrax_C/src/bse/bse_ring_comm.py" source_line=260}
  %constant.1626 = s32[] constant(2), sharding={manual}, metadata={op_name="jit(_full_run)/jit(main)/while/body/jit(_matvec_impl)/jit(shmap_body)/while/body/jit(remainder)/jit(_where)/select_n" source_file="/global/homes/j/jackm/software/lorrax_C/src/bse/bse_ring_comm.py" source_line=260}
  %add.815 = s32[] add(%select.499, %constant.1626), sharding={manual}, metadata={op_name="jit(_full_run)/jit(main)/while/body/jit(_matvec_impl)/jit(shmap_body)/while/body/jit(remainder)/add" source_file="/global/homes/j/jackm/software/lorrax_C/src/bse/bse_ring_comm.py" source_line=260}
  %select.496 = s32[] select(%and.81, %add.815, %select.499), sharding={manual}, metadata={op_name="jit(_full_run)/jit(main)/while/body/jit(_matvec_impl)/jit(shmap_body)/while/body/jit(remainder)/select_n" source_file="/global/homes/j/jackm/software/lorrax_C/src/bse/bse_ring_comm.py" source_line=260}
  %constant.1623 = s32[] constant(2), sharding={manual}, metadata={op_name="jit(_full_run)/jit(main)/while/body/jit(_matvec_impl)/jit(shmap_body)/while/body/add" source_file="/global/homes/j/jackm/software/lorrax_C/src/bse/bse_ring_comm.py" source_line=262}
  %multiply.450 = s32[] multiply(%select.496, %constant.1623), sharding={manual}, metadata={op_name="jit(_full_run)/jit(main)/while/body/jit(_matvec_impl)/jit(shmap_body)/while/body/mul" source_file="/global/homes/j/jackm/software/lorrax_C/src/bse/bse_ring_comm.py" source_line=261}
  %constant.1621 = s32[] constant(0), sharding={manual}
  %compare.343 = pred[] compare(%multiply.450, %constant.1621), direction=LT, sharding={manual}, metadata={op_name="jit(_full_run)/jit(main)/while/body/jit(_matvec_impl)/jit(shmap_body)/while/body/lt" source_file="/global/homes/j/jackm/software/lorrax_C/src/bse/bse_ring_comm.py" source_line=262}
  %constant.1624 = s32[] constant(4), sharding={manual}
  %add.816 = s32[] add(%multiply.450, %constant.1624), sharding={manual}, metadata={op_name="jit(_full_run)/jit(main)/while/body/jit(_matvec_impl)/jit(shmap_body)/while/body/add" source_file="/global/homes/j/jackm/software/lorrax_C/src/bse/bse_ring_comm.py" source_line=262}
  %select.497 = s32[] select(%compare.343, %add.816, %multiply.450), sharding={manual}, metadata={op_name="jit(_full_run)/jit(main)/while/body/jit(_matvec_impl)/jit(shmap_body)/while/body/select_n" source_file="/global/homes/j/jackm/software/lorrax_C/src/bse/bse_ring_comm.py" source_line=262}
  %dynamic-slice.79 = c128[64,2,2,240]{3,2,1,0} dynamic-slice(%get-tuple-element.577, %constant.1620, %select.497, %constant.1620, %constant.1620), dynamic_slice_sizes={64,2,2,240}, sharding={manual}, metadata={op_name="jit(_full_run)/jit(main)/while/body/jit(_matvec_impl)/jit(shmap_body)/while/body/dynamic_slice" source_file="/global/homes/j/jackm/software/lorrax_C/src/bse/bse_ring_comm.py" source_line=262}
  %dot.51 = c128[64,2,2,240]{3,2,1,0} dot(%reshape.485, %dynamic-slice.79), lhs_batch_dims={2}, lhs_contracting_dims={1}, rhs_batch_dims={0}, rhs_contracting_dims={1}, sharding={manual}, metadata={op_name="jit(_full_run)/jit(main)/while/body/jit(_matvec_impl)/jit(shmap_body)/while/body/kvsN,bcvk->bcksN/dot_general" source_file="/global/homes/j/jackm/software/lorrax_C/src/bse/bse_ring_comm.py" source_line=265}
  %reshape.486 = c128[64,1,2,2,240]{4,3,2,1,0} reshape(%dot.51), sharding={manual}, metadata={op_name="jit(_full_run)/jit(main)/while/body/jit(_matvec_impl)/jit(shmap_body)/while/body/kvsN,bcvk->bcksN/dot_general" source_file="/global/homes/j/jackm/software/lorrax_C/src/bse/bse_ring_comm.py" source_line=265}
  %transpose.95 = c128[2,240,64,1,2]{1,4,0,3,2} transpose(%reshape.486), dimensions={2,4,0,1,3}, sharding={manual}, metadata={op_name="jit(_full_run)/jit(main)/while/body/jit(_matvec_impl)/jit(shmap_body)/while/body/kvsN,bcvk->bcksN/transpose" source_file="/global/homes/j/jackm/software/lorrax_C/src/bse/bse_ring_comm.py" source_line=265}
  %get-tuple-element.576 = c128[64,2,2,240]{3,2,1,0} get-tuple-element(%arg_tuple.21), index=5, sharding={manual}
  %real.61 = f64[64,2,2,240]{3,2,1,0} real(%get-tuple-element.576), sharding={manual}, metadata={op_name="jit(_full_run)/jit(main)/while/body/jit(_matvec_impl)/jit(shmap_body)/while/body/real" source_file="/global/homes/j/jackm/software/lorrax_C/src/bse/bse_ring_comm.py" source_line=266}
  %imag.50 = f64[64,2,2,240]{3,2,1,0} imag(%get-tuple-element.576), sharding={manual}, metadata={op_name="jit(_full_run)/jit(main)/while/body/jit(_matvec_impl)/jit(shmap_body)/while/body/imag" source_file="/global/homes/j/jackm/software/lorrax_C/src/bse/bse_ring_comm.py" source_line=266}
  %negate.92 = f64[64,2,2,240]{3,2,1,0} negate(%imag.50), sharding={manual}, metadata={op_name="jit(_full_run)/jit(main)/while/body/jit(_matvec_impl)/jit(shmap_body)/while/body/neg" source_file="/global/homes/j/jackm/software/lorrax_C/src/bse/bse_ring_comm.py" source_line=266}
  %complex.49 = c128[64,2,2,240]{3,2,1,0} complex(%real.61, %negate.92), sharding={manual}, metadata={op_name="jit(_full_run)/jit(main)/while/body/jit(_matvec_impl)/jit(shmap_body)/while/body/complex" source_file="/global/homes/j/jackm/software/lorrax_C/src/bse/bse_ring_comm.py" source_line=266}
  %transpose.94 = c128[2,240,64,2]{1,3,0,2} transpose(%complex.49), dimensions={1,3,0,2}, sharding={manual}, metadata={op_name="jit(_full_run)/jit(main)/while/body/jit(_matvec_impl)/jit(shmap_body)/while/body/complex" source_file="/global/homes/j/jackm/software/lorrax_C/src/bse/bse_ring_comm.py" source_line=266}
  %reshape.487 = c128[2,240,64,1,2]{1,4,0,3,2} reshape(%transpose.94), sharding={manual}, metadata={op_name="jit(_full_run)/jit(main)/while/body/jit(_matvec_impl)/jit(shmap_body)/while/body/kcsN,bcksN->bcNk/dot_general" source_file="/global/homes/j/jackm/software/lorrax_C/src/bse/bse_ring_comm.py" source_line=266}
  %multiply.451 = c128[2,240,64,1,2]{1,4,0,3,2} multiply(%transpose.95, %reshape.487), sharding={manual}
  %constant.1625 = c128[] constant((0, 0)), sharding={manual}
  %reduce.45 = c128[2,240,64,1]{1,0,3,2} reduce(%multiply.451, %constant.1625), dimensions={4}, to_apply=%scalar_add_computation, sharding={manual}, metadata={op_name="jit(_full_run)/jit(main)/while/body/jit(_matvec_impl)/jit(shmap_body)/while/body/kcsN,bcksN->bcNk/dot_general" source_file="/global/homes/j/jackm/software/lorrax_C/src/bse/bse_ring_comm.py" source_line=266}
  %reshape.484 = c128[1,2,240,64]{3,2,1,0} reshape(%reduce.45), sharding={manual}, metadata={op_name="jit(_full_run)/jit(main)/while/body/jit(_matvec_impl)/jit(shmap_body)/while/body/kcsN,bcksN->bcNk/transpose" source_file="/global/homes/j/jackm/software/lorrax_C/src/bse/bse_ring_comm.py" source_line=266}
  %add.817 = c128[1,2,240,64]{3,2,1,0} add(%get-tuple-element.579, %reshape.484), sharding={manual}, metadata={op_name="jit(_full_run)/jit(main)/while/body/jit(_matvec_impl)/jit(shmap_body)/while/body/add" source_file="/global/homes/j/jackm/software/lorrax_C/src/bse/bse_ring_comm.py" source_line=266}
  ROOT %tuple.125 = (s64[], c128[1,2,2,64]{3,2,1,0}, c128[1,2,240,64]{3,2,1,0}, s32[], c128[64,4,2,240]{3,2,1,0}, /*index=5*/c128[64,2,2,240]{3,2,1,0}) tuple(%add.814, %collective-permute.13, %add.817, %get-tuple-element.578, %get-tuple-element.577, /*index=5*/%get-tuple-element.576), sharding={{manual}, {manual}, {manual}, {manual}, {manual}, /*index=5*/{manual}}
  %constant.1622 = s32[] constant(0)
}

%region_5.1387.clone.clone.1 (arg_tuple.20: (s64[], c128[1,2,2,64], c128[1,2,240,64], s32[], c128[64,4,2,240], /*index=5*/c128[64,2,2,240])) -> pred[] {
  %arg_tuple.20 = (s64[], c128[1,2,2,64]{3,2,1,0}, c128[1,2,240,64]{3,2,1,0}, s32[], c128[64,4,2,240]{3,2,1,0}, /*index=5*/c128[64,2,2,240]{3,2,1,0}) parameter(0), sharding={{manual}, {manual}, {manual}, {manual}, {manual}, /*index=5*/{manual}}
  %get-tuple-element.575 = s64[] get-tuple-element(%arg_tuple.20), index=0, sharding={manual}
  %constant.1618 = s64[] constant(2), sharding={manual}
  ROOT %compare.340 = pred[] compare(%get-tuple-element.575, %constant.1618), direction=LT, sharding={manual}, metadata={op_name="jit(_full_run)/jit(main)/while/body/jit(_matvec_impl)/jit(shmap_body)/while/cond/lt" source_file="/global/homes/j/jackm/software/lorrax_C/src/bse/bse_ring_comm.py" source_line=270}
}

%region_11.1555.clone.clone.clone.1 (arg_tuple.23: (s64[], c128[1,2,2,64], c128[1,2,64,2,240], s32[], c128[64,4,2,240])) -> (s64[], c128[1,2,2,64], c128[1,2,64,2,240], s32[], c128[64,4,2,240]) {
  %arg_tuple.23 = (s64[], c128[1,2,2,64]{3,2,1,0}, c128[1,2,64,2,240]{4,3,2,1,0}, s32[], c128[64,4,2,240]{3,2,1,0}) parameter(0), sharding={{manual}, {manual}, {manual}, {manual}, {manual}}
  %get-tuple-element.601 = s64[] get-tuple-element(%arg_tuple.23), index=0, sharding={manual}
  %constant.1630 = s64[] constant(1), sharding={manual}
  %add.818 = s64[] add(%get-tuple-element.601, %constant.1630), sharding={manual}, metadata={op_name="jit(_full_run)/jit(main)/while/body/jit(_matvec_impl)/jit(shmap_body)/while/body/add" source_file="/global/homes/j/jackm/software/lorrax_C/src/bse/bse_ring_comm.py" source_line=91}
  %get-tuple-element.599 = c128[1,2,2,64]{3,2,1,0} get-tuple-element(%arg_tuple.23), index=1, sharding={manual}
  %collective-permute.14 = c128[1,2,2,64]{3,2,1,0} collective-permute(%get-tuple-element.599), channel_id=5, source_target_pairs={{0,1},{1,0},{2,3},{3,2}}, sharding={manual}, metadata={op_name="jit(_full_run)/jit(main)/while/body/jit(_matvec_impl)/jit(shmap_body)/while/body/ppermute" source_file="/global/homes/j/jackm/software/lorrax_C/src/bse/bse_ring_comm.py" source_line=88}
  %get-tuple-element.598 = c128[1,2,64,2,240]{4,3,2,1,0} get-tuple-element(%arg_tuple.23), index=2, sharding={manual}
  %reshape.488 = c128[2,2,64]{2,1,0} reshape(%get-tuple-element.599), sharding={manual}
  %get-tuple-element.596 = c128[64,4,2,240]{3,2,1,0} get-tuple-element(%arg_tuple.23), index=4, sharding={manual}
  %constant.1711 = s32[] constant(0), sharding={manual}
  %get-tuple-element.597 = s32[] get-tuple-element(%arg_tuple.23), index=3, sharding={manual}
  %get-tuple-element.600 = s64[] get-tuple-element(%arg_tuple.23), index=0, sharding={manual}
  %convert.121 = s32[] convert(%get-tuple-element.600), sharding={manual}, metadata={op_name="jit(_full_run)/jit(main)/while/body/jit(_matvec_impl)/jit(shmap_body)/while/body/convert_element_type" source_file="/global/homes/j/jackm/software/lorrax_C/src/bse/bse_ring_comm.py" source_line=81}
  %subtract.55 = s32[] subtract(%get-tuple-element.597, %convert.121), sharding={manual}, metadata={op_name="jit(_full_run)/jit(main)/while/body/jit(_matvec_impl)/jit(shmap_body)/while/body/sub" source_file="/global/homes/j/jackm/software/lorrax_C/src/bse/bse_ring_comm.py" source_line=81}
  %constant.1637 = s32[] constant(0), sharding={manual}
  %compare.349 = pred[] compare(%subtract.55, %constant.1637), direction=LT, sharding={manual}, metadata={op_name="jit(_full_run)/jit(main)/while/body/jit(_matvec_impl)/jit(shmap_body)/while/body/jit(remainder)/rem" source_file="/global/homes/j/jackm/software/lorrax_C/src/bse/bse_ring_comm.py" source_line=260}
  %negate.96 = s32[] negate(%subtract.55), sharding={manual}, metadata={op_name="jit(_full_run)/jit(main)/while/body/jit(_matvec_impl)/jit(shmap_body)/while/body/jit(remainder)/rem" source_file="/global/homes/j/jackm/software/lorrax_C/src/bse/bse_ring_comm.py" source_line=260}
  %select.502 = s32[] select(%compare.349, %negate.96, %subtract.55), sharding={manual}, metadata={op_name="jit(_full_run)/jit(main)/while/body/jit(_matvec_impl)/jit(shmap_body)/while/body/jit(remainder)/rem" source_file="/global/homes/j/jackm/software/lorrax_C/src/bse/bse_ring_comm.py" source_line=260}
  %constant.1638 = s32[] constant(1), sharding={manual}, metadata={op_name="jit(_full_run)/jit(main)/while/body/jit(_matvec_impl)/jit(shmap_body)/while/body/jit(remainder)/rem" source_file="/global/homes/j/jackm/software/lorrax_C/src/bse/bse_ring_comm.py" source_line=260}
  %and.84 = s32[] and(%select.502, %constant.1638), sharding={manual}, metadata={op_name="jit(_full_run)/jit(main)/while/body/jit(_matvec_impl)/jit(shmap_body)/while/body/jit(remainder)/rem" source_file="/global/homes/j/jackm/software/lorrax_C/src/bse/bse_ring_comm.py" source_line=260}
  %negate.97 = s32[] negate(%and.84), sharding={manual}, metadata={op_name="jit(_full_run)/jit(main)/while/body/jit(_matvec_impl)/jit(shmap_body)/while/body/jit(remainder)/rem" source_file="/global/homes/j/jackm/software/lorrax_C/src/bse/bse_ring_comm.py" source_line=260}
  %select.503 = s32[] select(%compare.349, %negate.97, %and.84), sharding={manual}, metadata={op_name="jit(_full_run)/jit(main)/while/body/jit(_matvec_impl)/jit(shmap_body)/while/body/jit(remainder)/rem" source_file="/global/homes/j/jackm/software/lorrax_C/src/bse/bse_ring_comm.py" source_line=260}
  %constant.1713 = s32[] constant(0), sharding={manual}
  %compare.346 = pred[] compare(%select.503, %constant.1713), direction=LT, sharding={manual}, metadata={op_name="jit(_full_run)/jit(main)/while/body/jit(_matvec_impl)/jit(shmap_body)/while/body/jit(remainder)/lt" source_file="/global/homes/j/jackm/software/lorrax_C/src/bse/bse_ring_comm.py" source_line=260}
  %constant.1712 = s32[] constant(0), sharding={manual}
  %compare.347 = pred[] compare(%select.503, %constant.1712), direction=NE, sharding={manual}, metadata={op_name="jit(_full_run)/jit(main)/while/body/jit(_matvec_impl)/jit(shmap_body)/while/body/jit(remainder)/ne" source_file="/global/homes/j/jackm/software/lorrax_C/src/bse/bse_ring_comm.py" source_line=260}
  %and.83 = pred[] and(%compare.346, %compare.347), sharding={manual}, metadata={op_name="jit(_full_run)/jit(main)/while/body/jit(_matvec_impl)/jit(shmap_body)/while/body/jit(remainder)/and" source_file="/global/homes/j/jackm/software/lorrax_C/src/bse/bse_ring_comm.py" source_line=260}
  %constant.1636 = s32[] constant(2), sharding={manual}, metadata={op_name="jit(_full_run)/jit(main)/while/body/jit(_matvec_impl)/jit(shmap_body)/while/body/jit(remainder)/jit(_where)/select_n" source_file="/global/homes/j/jackm/software/lorrax_C/src/bse/bse_ring_comm.py" source_line=260}
  %add.819 = s32[] add(%select.503, %constant.1636), sharding={manual}, metadata={op_name="jit(_full_run)/jit(main)/while/body/jit(_matvec_impl)/jit(shmap_body)/while/body/jit(remainder)/add" source_file="/global/homes/j/jackm/software/lorrax_C/src/bse/bse_ring_comm.py" source_line=260}
  %select.500 = s32[] select(%and.83, %add.819, %select.503), sharding={manual}, metadata={op_name="jit(_full_run)/jit(main)/while/body/jit(_matvec_impl)/jit(shmap_body)/while/body/jit(remainder)/select_n" source_file="/global/homes/j/jackm/software/lorrax_C/src/bse/bse_ring_comm.py" source_line=260}
  %constant.1633 = s32[] constant(2), sharding={manual}
  %multiply.452 = s32[] multiply(%select.500, %constant.1633), sharding={manual}, metadata={op_name="jit(_full_run)/jit(main)/while/body/jit(_matvec_impl)/jit(shmap_body)/while/body/mul" source_file="/global/homes/j/jackm/software/lorrax_C/src/bse/bse_ring_comm.py" source_line=82}
  %constant.1700 = s32[] constant(0), sharding={manual}
  %compare.348 = pred[] compare(%multiply.452, %constant.1700), direction=LT, sharding={manual}, metadata={op_name="jit(_full_run)/jit(main)/while/body/jit(_matvec_impl)/jit(shmap_body)/while/body/lt" source_file="/global/homes/j/jackm/software/lorrax_C/src/bse/bse_ring_comm.py" source_line=84}
  %constant.1635 = s32[] constant(4), sharding={manual}
  %add.820 = s32[] add(%multiply.452, %constant.1635), sharding={manual}, metadata={op_name="jit(_full_run)/jit(main)/while/body/jit(_matvec_impl)/jit(shmap_body)/while/body/add" source_file="/global/homes/j/jackm/software/lorrax_C/src/bse/bse_ring_comm.py" source_line=84}
  %select.501 = s32[] select(%compare.348, %add.820, %multiply.452), sharding={manual}, metadata={op_name="jit(_full_run)/jit(main)/while/body/jit(_matvec_impl)/jit(shmap_body)/while/body/select_n" source_file="/global/homes/j/jackm/software/lorrax_C/src/bse/bse_ring_comm.py" source_line=84}
  %dynamic-slice.80 = c128[64,2,2,240]{3,2,1,0} dynamic-slice(%get-tuple-element.596, %constant.1711, %select.501, %constant.1711, %constant.1711), dynamic_slice_sizes={64,2,2,240}, sharding={manual}, metadata={op_name="jit(_full_run)/jit(main)/while/body/jit(_matvec_impl)/jit(shmap_body)/while/body/dynamic_slice" source_file="/global/homes/j/jackm/software/lorrax_C/src/bse/bse_ring_comm.py" source_line=84}
  %real.62 = f64[64,2,2,240]{3,2,1,0} real(%dynamic-slice.80), sharding={manual}, metadata={op_name="jit(_full_run)/jit(main)/while/body/jit(_matvec_impl)/jit(shmap_body)/while/body/real" source_file="/global/homes/j/jackm/software/lorrax_C/src/bse/bse_ring_comm.py" source_line=87}
  %imag.51 = f64[64,2,2,240]{3,2,1,0} imag(%dynamic-slice.80), sharding={manual}, metadata={op_name="jit(_full_run)/jit(main)/while/body/jit(_matvec_impl)/jit(shmap_body)/while/body/imag" source_file="/global/homes/j/jackm/software/lorrax_C/src/bse/bse_ring_comm.py" source_line=87}
  %negate.95 = f64[64,2,2,240]{3,2,1,0} negate(%imag.51), sharding={manual}, metadata={op_name="jit(_full_run)/jit(main)/while/body/jit(_matvec_impl)/jit(shmap_body)/while/body/neg" source_file="/global/homes/j/jackm/software/lorrax_C/src/bse/bse_ring_comm.py" source_line=87}
  %complex.50 = c128[64,2,2,240]{3,2,1,0} complex(%real.62, %negate.95), sharding={manual}, metadata={op_name="jit(_full_run)/jit(main)/while/body/jit(_matvec_impl)/jit(shmap_body)/while/body/complex" source_file="/global/homes/j/jackm/software/lorrax_C/src/bse/bse_ring_comm.py" source_line=87}
  %dot.52 = c128[64,2,2,240]{3,2,1,0} dot(%reshape.488, %complex.50), lhs_batch_dims={2}, lhs_contracting_dims={1}, rhs_batch_dims={0}, rhs_contracting_dims={1}, sharding={manual}, metadata={op_name="jit(_full_run)/jit(main)/while/body/jit(_matvec_impl)/jit(shmap_body)/while/body/kv sN,bcvk->bcksN/dot_general" source_file="/global/homes/j/jackm/software/lorrax_C/src/bse/bse_ring_comm.py" source_line=87}
  %reshape.489 = c128[64,1,2,2,240]{4,3,2,1,0} reshape(%dot.52), sharding={manual}, metadata={op_name="jit(_full_run)/jit(main)/while/body/jit(_matvec_impl)/jit(shmap_body)/while/body/kv sN,bcvk->bcksN/dot_general" source_file="/global/homes/j/jackm/software/lorrax_C/src/bse/bse_ring_comm.py" source_line=87}
  %transpose.96 = c128[1,2,64,2,240]{4,3,1,0,2} transpose(%reshape.489), dimensions={1,2,0,3,4}, sharding={manual}, metadata={op_name="jit(_full_run)/jit(main)/while/body/jit(_matvec_impl)/jit(shmap_body)/while/body/kv sN,bcvk->bcksN/transpose" source_file="/global/homes/j/jackm/software/lorrax_C/src/bse/bse_ring_comm.py" source_line=87}
  %add.821 = c128[1,2,64,2,240]{4,3,2,1,0} add(%get-tuple-element.598, %transpose.96), sharding={manual}, metadata={op_name="jit(_full_run)/jit(main)/while/body/jit(_matvec_impl)/jit(shmap_body)/while/body/add" source_file="/global/homes/j/jackm/software/lorrax_C/src/bse/bse_ring_comm.py" source_line=87}
  ROOT %tuple.128 = (s64[], c128[1,2,2,64]{3,2,1,0}, c128[1,2,64,2,240]{4,3,2,1,0}, s32[], c128[64,4,2,240]{3,2,1,0}) tuple(%add.818, %collective-permute.14, %add.821, %get-tuple-element.597, %get-tuple-element.596), sharding={{manual}, {manual}, {manual}, {manual}, {manual}}
  %constant.1631 = s32[] constant(0)
  %constant.1632 = s32[] constant(0)
}

%region_12.1570.clone.clone.1 (arg_tuple.22: (s64[], c128[1,2,2,64], c128[1,2,64,2,240], s32[], c128[64,4,2,240])) -> pred[] {
  %arg_tuple.22 = (s64[], c128[1,2,2,64]{3,2,1,0}, c128[1,2,64,2,240]{4,3,2,1,0}, s32[], c128[64,4,2,240]{3,2,1,0}) parameter(0), sharding={{manual}, {manual}, {manual}, {manual}, {manual}}
  %get-tuple-element.595 = s64[] get-tuple-element(%arg_tuple.22), index=0, sharding={manual}
  %constant.1629 = s64[] constant(2), sharding={manual}
  ROOT %compare.345 = pred[] compare(%get-tuple-element.595, %constant.1629), direction=LT, sharding={manual}, metadata={op_name="jit(_full_run)/jit(main)/while/body/jit(_matvec_impl)/jit(shmap_body)/while/cond/lt" source_file="/global/homes/j/jackm/software/lorrax_C/src/bse/bse_ring_comm.py" source_line=91}
}

%region_13.1626.clone.clone.clone.1 (arg_tuple.25: (s64[], c128[1,2,64,2,240], c128[1,240,240,2,2,64], s32[], c128[64,4,2,240])) -> (s64[], c128[1,2,64,2,240], c128[1,240,240,2,2,64], s32[], c128[64,4,2,240]) {
  %arg_tuple.25 = (s64[], c128[1,2,64,2,240]{4,3,2,1,0}, c128[1,240,240,2,2,64]{5,4,3,2,1,0}, s32[], c128[64,4,2,240]{3,2,1,0}) parameter(0), sharding={{manual}, {manual}, {manual}, {manual}, {manual}}
  %get-tuple-element.619 = s64[] get-tuple-element(%arg_tuple.25), index=0, sharding={manual}
  %constant.1640 = s64[] constant(1), sharding={manual}
  %add.822 = s64[] add(%get-tuple-element.619, %constant.1640), sharding={manual}, metadata={op_name="jit(_full_run)/jit(main)/while/body/jit(_matvec_impl)/jit(shmap_body)/while/body/add" source_file="/global/homes/j/jackm/software/lorrax_C/src/bse/bse_ring_comm.py" source_line=121}
  %get-tuple-element.617 = c128[1,2,64,2,240]{4,3,2,1,0} get-tuple-element(%arg_tuple.25), index=1, sharding={manual}
  %collective-permute.15 = c128[1,2,64,2,240]{4,3,2,1,0} collective-permute(%get-tuple-element.617), channel_id=6, source_target_pairs={{0,2},{2,0},{1,3},{3,1}}, sharding={manual}, metadata={op_name="jit(_full_run)/jit(main)/while/body/jit(_matvec_impl)/jit(shmap_body)/while/body/ppermute" source_file="/global/homes/j/jackm/software/lorrax_C/src/bse/bse_ring_comm.py" source_line=118}
  %get-tuple-element.616 = c128[1,240,240,2,2,64]{5,4,3,2,1,0} get-tuple-element(%arg_tuple.25), index=2, sharding={manual}
  %reshape.490 = c128[2,64,2,240]{3,2,1,0} reshape(%get-tuple-element.617), sharding={manual}
  %get-tuple-element.614 = c128[64,4,2,240]{3,2,1,0} get-tuple-element(%arg_tuple.25), index=4, sharding={manual}
  %constant.1715 = s32[] constant(0), sharding={manual}
  %get-tuple-element.615 = s32[] get-tuple-element(%arg_tuple.25), index=3, sharding={manual}
  %get-tuple-element.618 = s64[] get-tuple-element(%arg_tuple.25), index=0, sharding={manual}
  %convert.122 = s32[] convert(%get-tuple-element.618), sharding={manual}, metadata={op_name="jit(_full_run)/jit(main)/while/body/jit(_matvec_impl)/jit(shmap_body)/while/body/convert_element_type" source_file="/global/homes/j/jackm/software/lorrax_C/src/bse/bse_ring_comm.py" source_line=111}
  %subtract.56 = s32[] subtract(%get-tuple-element.615, %convert.122), sharding={manual}, metadata={op_name="jit(_full_run)/jit(main)/while/body/jit(_matvec_impl)/jit(shmap_body)/while/body/sub" source_file="/global/homes/j/jackm/software/lorrax_C/src/bse/bse_ring_comm.py" source_line=111}
  %constant.1646 = s32[] constant(0), sharding={manual}
  %compare.354 = pred[] compare(%subtract.56, %constant.1646), direction=LT, sharding={manual}, metadata={op_name="jit(_full_run)/jit(main)/while/body/jit(_matvec_impl)/jit(shmap_body)/while/body/jit(remainder)/rem" source_file="/global/homes/j/jackm/software/lorrax_C/src/bse/bse_ring_comm.py" source_line=260}
  %negate.98 = s32[] negate(%subtract.56), sharding={manual}, metadata={op_name="jit(_full_run)/jit(main)/while/body/jit(_matvec_impl)/jit(shmap_body)/while/body/jit(remainder)/rem" source_file="/global/homes/j/jackm/software/lorrax_C/src/bse/bse_ring_comm.py" source_line=260}
  %select.506 = s32[] select(%compare.354, %negate.98, %subtract.56), sharding={manual}, metadata={op_name="jit(_full_run)/jit(main)/while/body/jit(_matvec_impl)/jit(shmap_body)/while/body/jit(remainder)/rem" source_file="/global/homes/j/jackm/software/lorrax_C/src/bse/bse_ring_comm.py" source_line=260}
  %constant.1647 = s32[] constant(1), sharding={manual}, metadata={op_name="jit(_full_run)/jit(main)/while/body/jit(_matvec_impl)/jit(shmap_body)/while/body/jit(remainder)/rem" source_file="/global/homes/j/jackm/software/lorrax_C/src/bse/bse_ring_comm.py" source_line=260}
  %and.86 = s32[] and(%select.506, %constant.1647), sharding={manual}, metadata={op_name="jit(_full_run)/jit(main)/while/body/jit(_matvec_impl)/jit(shmap_body)/while/body/jit(remainder)/rem" source_file="/global/homes/j/jackm/software/lorrax_C/src/bse/bse_ring_comm.py" source_line=260}
  %negate.99 = s32[] negate(%and.86), sharding={manual}, metadata={op_name="jit(_full_run)/jit(main)/while/body/jit(_matvec_impl)/jit(shmap_body)/while/body/jit(remainder)/rem" source_file="/global/homes/j/jackm/software/lorrax_C/src/bse/bse_ring_comm.py" source_line=260}
  %select.507 = s32[] select(%compare.354, %negate.99, %and.86), sharding={manual}, metadata={op_name="jit(_full_run)/jit(main)/while/body/jit(_matvec_impl)/jit(shmap_body)/while/body/jit(remainder)/rem" source_file="/global/homes/j/jackm/software/lorrax_C/src/bse/bse_ring_comm.py" source_line=260}
  %constant.1717 = s32[] constant(0), sharding={manual}
  %compare.351 = pred[] compare(%select.507, %constant.1717), direction=LT, sharding={manual}, metadata={op_name="jit(_full_run)/jit(main)/while/body/jit(_matvec_impl)/jit(shmap_body)/while/body/jit(remainder)/lt" source_file="/global/homes/j/jackm/software/lorrax_C/src/bse/bse_ring_comm.py" source_line=260}
  %constant.1716 = s32[] constant(0), sharding={manual}
  %compare.352 = pred[] compare(%select.507, %constant.1716), direction=NE, sharding={manual}, metadata={op_name="jit(_full_run)/jit(main)/while/body/jit(_matvec_impl)/jit(shmap_body)/while/body/jit(remainder)/ne" source_file="/global/homes/j/jackm/software/lorrax_C/src/bse/bse_ring_comm.py" source_line=260}
  %and.85 = pred[] and(%compare.351, %compare.352), sharding={manual}, metadata={op_name="jit(_full_run)/jit(main)/while/body/jit(_matvec_impl)/jit(shmap_body)/while/body/jit(remainder)/and" source_file="/global/homes/j/jackm/software/lorrax_C/src/bse/bse_ring_comm.py" source_line=260}
  %constant.1645 = s32[] constant(2), sharding={manual}, metadata={op_name="jit(_full_run)/jit(main)/while/body/jit(_matvec_impl)/jit(shmap_body)/while/body/jit(remainder)/jit(_where)/select_n" source_file="/global/homes/j/jackm/software/lorrax_C/src/bse/bse_ring_comm.py" source_line=260}
  %add.823 = s32[] add(%select.507, %constant.1645), sharding={manual}, metadata={op_name="jit(_full_run)/jit(main)/while/body/jit(_matvec_impl)/jit(shmap_body)/while/body/jit(remainder)/add" source_file="/global/homes/j/jackm/software/lorrax_C/src/bse/bse_ring_comm.py" source_line=260}
  %select.504 = s32[] select(%and.85, %add.823, %select.507), sharding={manual}, metadata={op_name="jit(_full_run)/jit(main)/while/body/jit(_matvec_impl)/jit(shmap_body)/while/body/jit(remainder)/select_n" source_file="/global/homes/j/jackm/software/lorrax_C/src/bse/bse_ring_comm.py" source_line=260}
  %constant.1643 = s32[] constant(2), sharding={manual}
  %multiply.453 = s32[] multiply(%select.504, %constant.1643), sharding={manual}, metadata={op_name="jit(_full_run)/jit(main)/while/body/jit(_matvec_impl)/jit(shmap_body)/while/body/mul" source_file="/global/homes/j/jackm/software/lorrax_C/src/bse/bse_ring_comm.py" source_line=112}
  %constant.1714 = s32[] constant(0), sharding={manual}
  %compare.353 = pred[] compare(%multiply.453, %constant.1714), direction=LT, sharding={manual}, metadata={op_name="jit(_full_run)/jit(main)/while/body/jit(_matvec_impl)/jit(shmap_body)/while/body/lt" source_file="/global/homes/j/jackm/software/lorrax_C/src/bse/bse_ring_comm.py" source_line=114}
  %constant.1644 = s32[] constant(4), sharding={manual}
  %add.824 = s32[] add(%multiply.453, %constant.1644), sharding={manual}, metadata={op_name="jit(_full_run)/jit(main)/while/body/jit(_matvec_impl)/jit(shmap_body)/while/body/add" source_file="/global/homes/j/jackm/software/lorrax_C/src/bse/bse_ring_comm.py" source_line=114}
  %select.505 = s32[] select(%compare.353, %add.824, %multiply.453), sharding={manual}, metadata={op_name="jit(_full_run)/jit(main)/while/body/jit(_matvec_impl)/jit(shmap_body)/while/body/select_n" source_file="/global/homes/j/jackm/software/lorrax_C/src/bse/bse_ring_comm.py" source_line=114}
  %dynamic-slice.81 = c128[64,2,2,240]{3,2,1,0} dynamic-slice(%get-tuple-element.614, %constant.1715, %select.505, %constant.1715, %constant.1715), dynamic_slice_sizes={64,2,2,240}, sharding={manual}, metadata={op_name="jit(_full_run)/jit(main)/while/body/jit(_matvec_impl)/jit(shmap_body)/while/body/dynamic_slice" source_file="/global/homes/j/jackm/software/lorrax_C/src/bse/bse_ring_comm.py" source_line=114}
  %dot.53 = c128[64,2,240,2,240]{4,3,2,1,0} dot(%reshape.490, %dynamic-slice.81), lhs_batch_dims={1}, lhs_contracting_dims={0}, rhs_batch_dims={0}, rhs_contracting_dims={1}, sharding={manual}, metadata={op_name="jit(_full_run)/jit(main)/while/body/jit(_matvec_impl)/jit(shmap_body)/while/body/kctM,bcksN->bMNtsk/dot_general" source_file="/global/homes/j/jackm/software/lorrax_C/src/bse/bse_ring_comm.py" source_line=117}
  %reshape.491 = c128[64,1,2,240,2,240]{5,4,3,2,1,0} reshape(%dot.53), sharding={manual}, metadata={op_name="jit(_full_run)/jit(main)/while/body/jit(_matvec_impl)/jit(shmap_body)/while/body/kctM,bcksN->bMNtsk/dot_general" source_file="/global/homes/j/jackm/software/lorrax_C/src/bse/bse_ring_comm.py" source_line=117}
  %transpose.97 = c128[1,240,240,2,2,64]{1,3,2,4,0,5} transpose(%reshape.491), dimensions={1,5,3,4,2,0}, sharding={manual}, metadata={op_name="jit(_full_run)/jit(main)/while/body/jit(_matvec_impl)/jit(shmap_body)/while/body/kctM,bcksN->bMNtsk/transpose" source_file="/global/homes/j/jackm/software/lorrax_C/src/bse/bse_ring_comm.py" source_line=117}
  %add.825 = c128[1,240,240,2,2,64]{5,4,3,2,1,0} add(%get-tuple-element.616, %transpose.97), sharding={manual}, metadata={op_name="jit(_full_run)/jit(main)/while/body/jit(_matvec_impl)/jit(shmap_body)/while/body/add" source_file="/global/homes/j/jackm/software/lorrax_C/src/bse/bse_ring_comm.py" source_line=117}
  ROOT %tuple.131 = (s64[], c128[1,2,64,2,240]{4,3,2,1,0}, c128[1,240,240,2,2,64]{5,4,3,2,1,0}, s32[], c128[64,4,2,240]{3,2,1,0}) tuple(%add.822, %collective-permute.15, %add.825, %get-tuple-element.615, %get-tuple-element.614), sharding={{manual}, {manual}, {manual}, {manual}, {manual}}
  %constant.1641 = s32[] constant(0)
  %constant.1642 = s32[] constant(0)
}

%region_14.1641.clone.clone.1 (arg_tuple.24: (s64[], c128[1,2,64,2,240], c128[1,240,240,2,2,64], s32[], c128[64,4,2,240])) -> pred[] {
  %arg_tuple.24 = (s64[], c128[1,2,64,2,240]{4,3,2,1,0}, c128[1,240,240,2,2,64]{5,4,3,2,1,0}, s32[], c128[64,4,2,240]{3,2,1,0}) parameter(0), sharding={{manual}, {manual}, {manual}, {manual}, {manual}}
  %get-tuple-element.613 = s64[] get-tuple-element(%arg_tuple.24), index=0, sharding={manual}
  %constant.1639 = s64[] constant(2), sharding={manual}
  ROOT %compare.350 = pred[] compare(%get-tuple-element.613, %constant.1639), direction=LT, sharding={manual}, metadata={op_name="jit(_full_run)/jit(main)/while/body/jit(_matvec_impl)/jit(shmap_body)/while/cond/lt" source_file="/global/homes/j/jackm/software/lorrax_C/src/bse/bse_ring_comm.py" source_line=121}
}

%scalar_add_computation.1 (scalar_lhs.1: c128[], scalar_rhs.1: c128[]) -> c128[] {
  %scalar_lhs.1 = c128[] parameter(0)
  %scalar_rhs.1 = c128[] parameter(1)
  ROOT %add.777 = c128[] add(%scalar_lhs.1, %scalar_rhs.1)
}

%region_3.2136.clone.clone.clone (arg_tuple.13: (s64[], c128[1024,200], f64[200], f64[200], c128[1024], /*index=5*/c128[64,4,2,480], c128[64,4,2,480], c128[64,4,2,480], c128[64,4,2,480], f64[64,4], /*index=10*/f64[64,4], c128[480,480,4,4,4], c128[480,480])) -> (s64[], c128[1024,200], f64[200], f64[200], c128[1024], /*index=5*/c128[64,4,2,480], c128[64,4,2,480], c128[64,4,2,480], c128[64,4,2,480], f64[64,4], /*index=10*/f64[64,4], c128[480,480,4,4,4], c128[480,480]) {
  %arg_tuple.13 = (s64[], c128[1024,200]{1,0}, f64[200]{0}, f64[200]{0}, c128[1024]{0}, /*index=5*/c128[64,4,2,480]{3,2,1,0}, c128[64,4,2,480]{3,2,1,0}, c128[64,4,2,480]{3,2,1,0}, c128[64,4,2,480]{3,2,1,0}, f64[64,4]{1,0}, /*index=10*/f64[64,4]{1,0}, c128[480,480,4,4,4]{4,3,2,1,0}, c128[480,480]{1,0}) parameter(0), sharding={{replicated}, {devices=[2,1,2]<=[4] last_tile_dim_replicate}, {replicated}, {replicated}, {devices=[2,2]<=[4] last_tile_dim_replicate}, /*index=5*/{devices=[1,1,1,2,2]<=[4] last_tile_dim_replicate}, {devices=[1,1,1,2,2]<=[2,2]T(1,0) last_tile_dim_replicate}, {devices=[1,1,1,2,2]<=[4] last_tile_dim_replicate}, {devices=[1,1,1,2,2]<=[2,2]T(1,0) last_tile_dim_replicate}, {replicated}, /*index=10*/{replicated}, {devices=[2,2,1,1,1]<=[4]}, {devices=[2,2]<=[4]}}
  %get-tuple-element.495 = s64[] get-tuple-element(%arg_tuple.13), index=0, sharding={replicated}
  %constant.1531 = s64[] constant(1), sharding={replicated}
  %add.789 = s64[] add(%get-tuple-element.495, %constant.1531), sharding={replicated}, metadata={op_name="jit(_full_run)/jit(main)/while/body/add" source_file="/global/homes/j/jackm/software/lorrax_C/src/solvers/lanczos.py" source_line=286}
  %get-tuple-element.493 = c128[1024,200]{1,0} get-tuple-element(%arg_tuple.13), index=1, sharding={devices=[2,1,2]<=[4] last_tile_dim_replicate}
  %constant.1560 = s32[] constant(0), sharding={replicated}
  %broadcast.1112 = s32[2]{0} broadcast(%constant.1560), dimensions={}, sharding={replicated}
  %constant.1561 = s32[1]{0} constant({0}), sharding={replicated}
  %get-tuple-element.494 = s64[] get-tuple-element(%arg_tuple.13), index=0, sharding={replicated}
  %constant.1673 = s64[] constant(1), sharding={replicated}
  %add.794 = s64[] add(%get-tuple-element.494, %constant.1673), sharding={replicated}, metadata={op_name="jit(_full_run)/jit(main)/while/body/add" source_file="/global/homes/j/jackm/software/lorrax_C/src/solvers/lanczos.py" source_line=281}
  %constant.1550 = s64[] constant(199), sharding={replicated}
  %minimum.23 = s64[] minimum(%add.794, %constant.1550), sharding={replicated}, metadata={op_name="jit(_full_run)/jit(main)/while/body/min" source_file="/global/homes/j/jackm/software/lorrax_C/src/solvers/lanczos.py" source_line=281}
  %constant.1681 = s64[] constant(0), sharding={replicated}
  %compare.316 = pred[] compare(%minimum.23, %constant.1681), direction=LT, sharding={replicated}, metadata={op_name="jit(_full_run)/jit(main)/while/body/lt" source_file="/global/homes/j/jackm/software/lorrax_C/src/solvers/lanczos.py" source_line=281}
  %constant.1685 = s64[] constant(200), sharding={replicated}
  %add.795 = s64[] add(%minimum.23, %constant.1685), sharding={replicated}, metadata={op_name="jit(_full_run)/jit(main)/while/body/add" source_file="/global/homes/j/jackm/software/lorrax_C/src/solvers/lanczos.py" source_line=281}
  %select.478 = s64[] select(%compare.316, %add.795, %minimum.23), sharding={replicated}, metadata={op_name="jit(_full_run)/jit(main)/while/body/select_n" source_file="/global/homes/j/jackm/software/lorrax_C/src/solvers/lanczos.py" source_line=281}
  %convert.112 = s32[] convert(%select.478), sharding={replicated}, metadata={op_name="jit(_full_run)/jit(main)/while/body/convert_element_type" source_file="/global/homes/j/jackm/software/lorrax_C/src/solvers/lanczos.py" source_line=281}
  %reshape.440 = s32[1]{0} reshape(%convert.112), sharding={replicated}, metadata={op_name="jit(_full_run)/jit(main)/while/body/broadcast_in_dim" source_file="/global/homes/j/jackm/software/lorrax_C/src/solvers/lanczos.py" source_line=281}
  %concatenate.15 = s32[2]{0} concatenate(%constant.1561, %reshape.440), dimensions={0}, sharding={replicated}
  %compare.319 = pred[2]{0} compare(%broadcast.1112, %concatenate.15), direction=LE, sharding={replicated}
  %iota.20 = s32[2]{0} iota(), iota_dimension=0, sharding={replicated}
  %constant.1565 = s32[] constant(199), sharding={replicated}
  %broadcast.1124 = s32[2]{0} broadcast(%constant.1565), dimensions={}, sharding={replicated}
  %multiply.440 = s32[2]{0} multiply(%iota.20, %broadcast.1124), sharding={replicated}
  %compare.320 = pred[2]{0} compare(%multiply.440, %concatenate.15), direction=GE, sharding={replicated}
  %and.70 = pred[2]{0} and(%compare.319, %compare.320), sharding={replicated}
  %constant.1562 = pred[] constant(true)
  %reduce.41 = pred[] reduce(%and.70, %constant.1562), dimensions={0}, to_apply=%and.reduce_sub_computation, sharding={replicated}
  %broadcast.1114 = pred[1024,1]{1,0} broadcast(%reduce.41), dimensions={}, sharding={devices=[2,1,2]<=[4] last_tile_dim_replicate}
  %constant.1568 = s64[] constant(-10), sharding={replicated}
  %add.798 = s64[] add(%get-tuple-element.494, %constant.1568), sharding={replicated}, metadata={op_name="jit(_full_run)/jit(main)/while/body/sub" source_file="/global/homes/j/jackm/software/lorrax_C/src/solvers/lanczos.py" source_line=274}
  %constant.1675 = s64[] constant(0), sharding={replicated}
  %maximum.36 = s64[] maximum(%add.798, %constant.1675), sharding={replicated}, metadata={op_name="jit(_full_run)/jit(main)/while/body/max" source_file="/global/homes/j/jackm/software/lorrax_C/src/solvers/lanczos.py" source_line=274}
  %get-tuple-element.485 = f64[64,4]{1,0} get-tuple-element(%arg_tuple.13), index=9, sharding={replicated}
  %copy.31 = f64[64,4]{1,0} copy(%get-tuple-element.485), sharding={replicated}, metadata={op_name="jit(_full_run)/jit(main)/while/body/pjit" source_file="/global/homes/j/jackm/software/lorrax_C/src/bse/bse_lanczos.py" source_line=163}
  %copy.30 = f64[64,4]{1,0} copy(%copy.31), sharding={replicated}, metadata={op_name="jit(_full_run)/jit(main)/while/body/jit(_matvec_impl)/pjit" source_file="/global/homes/j/jackm/software/lorrax_C/src/bse/bse_ring_comm.py" source_line=424}
  %transpose.76 = f64[4,64]{0,1} transpose(%copy.30), dimensions={1,0}, sharding={devices=[2,1,2]<=[4] last_tile_dim_replicate}, metadata={op_name="jit(_full_run)/jit(main)/while/body/jit(_matvec_impl)/jit(_apply_D_term)/transpose" source_file="/global/homes/j/jackm/software/lorrax_C/src/bse/bse_ring_comm.py" source_line=414}
  %broadcast.1116 = f64[1,4,4,64]{3,2,1,0} broadcast(%transpose.76), dimensions={1,3}, sharding={devices=[1,2,2,1]<=[4]}, metadata={op_name="jit(_full_run)/jit(main)/while/body/jit(_matvec_impl)/jit(_apply_D_term)/sub" source_file="/global/homes/j/jackm/software/lorrax_C/src/bse/bse_ring_comm.py" source_line=414}
  %get-tuple-element.484 = f64[64,4]{1,0} get-tuple-element(%arg_tuple.13), index=10, sharding={replicated}
  %copy.29 = f64[64,4]{1,0} copy(%get-tuple-element.484), sharding={replicated}, metadata={op_name="jit(_full_run)/jit(main)/while/body/pjit" source_file="/global/homes/j/jackm/software/lorrax_C/src/bse/bse_lanczos.py" source_line=163}
  %copy.28 = f64[64,4]{1,0} copy(%copy.29), sharding={replicated}, metadata={op_name="jit(_full_run)/jit(main)/while/body/jit(_matvec_impl)/pjit" source_file="/global/homes/j/jackm/software/lorrax_C/src/bse/bse_ring_comm.py" source_line=424}
  %transpose.77 = f64[4,64]{0,1} transpose(%copy.28), dimensions={1,0}, sharding={devices=[2,1,2]<=[2,2]T(1,0) last_tile_dim_replicate}, metadata={op_name="jit(_full_run)/jit(main)/while/body/jit(_matvec_impl)/jit(_apply_D_term)/transpose" source_file="/global/homes/j/jackm/software/lorrax_C/src/bse/bse_ring_comm.py" source_line=414}
  %broadcast.1118 = f64[1,4,4,64]{3,2,1,0} broadcast(%transpose.77), dimensions={2,3}, sharding={devices=[1,2,2,1]<=[4]}, metadata={op_name="jit(_full_run)/jit(main)/while/body/jit(_matvec_impl)/jit(_apply_D_term)/sub" source_file="/global/homes/j/jackm/software/lorrax_C/src/bse/bse_ring_comm.py" source_line=414}
  %subtract.47 = f64[1,4,4,64]{3,2,1,0} subtract(%broadcast.1116, %broadcast.1118), sharding={devices=[1,2,2,1]<=[4]}, metadata={op_name="jit(_full_run)/jit(main)/while/body/jit(_matvec_impl)/jit(_apply_D_term)/sub" source_file="/global/homes/j/jackm/software/lorrax_C/src/bse/bse_ring_comm.py" source_line=414}
  %convert.105 = c128[1,4,4,64]{3,2,1,0} convert(%subtract.47), sharding={devices=[1,2,2,1]<=[4]}, metadata={op_name="jit(_full_run)/jit(main)/while/body/jit(_matvec_impl)/jit(_apply_D_term)/convert_element_type" source_file="/global/homes/j/jackm/software/lorrax_C/src/bse/bse_ring_comm.py" source_line=415}
  %get-tuple-element.490 = c128[1024]{0} get-tuple-element(%arg_tuple.13), index=4, sharding={devices=[2,2]<=[4] last_tile_dim_replicate}
  %reshape.436 = c128[1,4,4,64]{3,2,1,0} reshape(%get-tuple-element.490), sharding={devices=[1,2,2,1]<=[4]}, metadata={op_name="jit(_full_run)/jit(main)/while/body/reshape" source_file="/global/homes/j/jackm/software/lorrax_C/src/bse/bse_lanczos.py" source_line=161}
  %copy.27 = c128[1,4,4,64]{3,2,1,0} copy(%reshape.436), sharding={devices=[1,2,2,1]<=[4]}, metadata={op_name="jit(_full_run)/jit(main)/while/body/sharding_constraint" source_file="/global/homes/j/jackm/software/lorrax_C/src/bse/bse_lanczos.py" source_line=162}
  %copy.26 = c128[1,4,4,64]{3,2,1,0} copy(%copy.27), sharding={devices=[1,2,2,1]<=[4]}, metadata={op_name="jit(_full_run)/jit(main)/while/body/pjit" source_file="/global/homes/j/jackm/software/lorrax_C/src/bse/bse_lanczos.py" source_line=163}
  %copy.25 = c128[1,4,4,64]{3,2,1,0} copy(%copy.26), sharding={devices=[1,2,2,1]<=[4]}, metadata={op_name="jit(_full_run)/jit(main)/while/body/jit(_matvec_impl)/pjit" source_file="/global/homes/j/jackm/software/lorrax_C/src/bse/bse_ring_comm.py" source_line=424}
  %multiply.431 = c128[1,4,4,64]{3,2,1,0} multiply(%convert.105, %copy.25), sharding={devices=[1,2,2,1]<=[4]}, metadata={op_name="jit(_full_run)/jit(main)/while/body/jit(_matvec_impl)/jit(_apply_D_term)/mul" source_file="/global/homes/j/jackm/software/lorrax_C/src/bse/bse_ring_comm.py" source_line=415}
  %copy.24 = c128[1,4,4,64]{3,2,1,0} copy(%multiply.431), sharding={devices=[1,2,2,1]<=[4]}, metadata={op_name="jit(_full_run)/jit(main)/while/body/jit(_matvec_impl)/pjit" source_file="/global/homes/j/jackm/software/lorrax_C/src/bse/bse_ring_comm.py" source_line=424}
  %constant.1687 = s64[] constant(0), sharding={replicated}
  %constant.1686 = s64[] constant(0), sharding={manual}
  %copy.23 = c128[1,4,4,64]{3,2,1,0} copy(%copy.26), sharding={devices=[1,2,2,1]<=[4]}, metadata={op_name="jit(_full_run)/jit(main)/while/body/jit(_matvec_impl)/shard_map" source_file="/global/homes/j/jackm/software/lorrax_C/src/bse/bse_ring_comm.py" source_line=425}
  %custom-call.187 = c128[1,2,2,64]{3,2,1,0} custom-call(%copy.23), custom_call_target="SPMDFullToShardShape", sharding={manual}, metadata={op_name="jit(_full_run)/jit(main)/while/body/jit(_matvec_impl)/shard_map" source_file="/global/homes/j/jackm/software/lorrax_C/src/bse/bse_ring_comm.py" source_line=425}
  %constant.1539 = c128[] constant((0, 0)), sharding={manual}
  %broadcast.1098 = c128[1,2,240,64]{3,2,1,0} broadcast(%constant.1539), dimensions={}, sharding={manual}
  %partition-id.20 = u32[] partition-id(), sharding={manual}, metadata={op_name="jit(_full_run)/jit(main)/while/body/jit(_matvec_impl)/jit(shmap_body)/axis_index" source_file="/global/homes/j/jackm/software/lorrax_C/src/bse/bse_ring_comm.py" source_line=242}
  %constant.1553 = u32[] constant(1), sharding={manual}, metadata={op_name="jit(_full_run)/jit(main)/while/body/jit(_matvec_impl)/jit(shmap_body)/axis_index" source_file="/global/homes/j/jackm/software/lorrax_C/src/bse/bse_ring_comm.py" source_line=242}
  %and.66 = u32[] and(%partition-id.20, %constant.1553), sharding={manual}, metadata={op_name="jit(_full_run)/jit(main)/while/body/jit(_matvec_impl)/jit(shmap_body)/axis_index" source_file="/global/homes/j/jackm/software/lorrax_C/src/bse/bse_ring_comm.py" source_line=242}
  %convert.106 = s32[] convert(%and.66), sharding={manual}, metadata={op_name="jit(_full_run)/jit(main)/while/body/jit(_matvec_impl)/jit(shmap_body)/axis_index" source_file="/global/homes/j/jackm/software/lorrax_C/src/bse/bse_ring_comm.py" source_line=242}
  %get-tuple-element.486 = c128[64,4,2,480]{3,2,1,0} get-tuple-element(%arg_tuple.13), index=8, sharding={devices=[1,1,1,2,2]<=[2,2]T(1,0) last_tile_dim_replicate}
  %copy.22 = c128[64,4,2,480]{3,2,1,0} copy(%get-tuple-element.486), sharding={devices=[1,1,1,2,2]<=[2,2]T(1,0) last_tile_dim_replicate}, metadata={op_name="jit(_full_run)/jit(main)/while/body/pjit" source_file="/global/homes/j/jackm/software/lorrax_C/src/bse/bse_lanczos.py" source_line=163}
  %copy.21 = c128[64,4,2,480]{3,2,1,0} copy(%copy.22), sharding={devices=[1,1,1,2,2]<=[2,2]T(1,0) last_tile_dim_replicate}, metadata={op_name="jit(_full_run)/jit(main)/while/body/jit(_matvec_impl)/shard_map" source_file="/global/homes/j/jackm/software/lorrax_C/src/bse/bse_ring_comm.py" source_line=425}
  %custom-call.190 = c128[64,4,2,240]{3,2,1,0} custom-call(%copy.21), custom_call_target="SPMDFullToShardShape", sharding={manual}, metadata={op_name="jit(_full_run)/jit(main)/while/body/jit(_matvec_impl)/shard_map" source_file="/global/homes/j/jackm/software/lorrax_C/src/bse/bse_ring_comm.py" source_line=425}
  %get-tuple-element.488 = c128[64,4,2,480]{3,2,1,0} get-tuple-element(%arg_tuple.13), index=6, sharding={devices=[1,1,1,2,2]<=[2,2]T(1,0) last_tile_dim_replicate}
  %copy.20 = c128[64,4,2,480]{3,2,1,0} copy(%get-tuple-element.488), sharding={devices=[1,1,1,2,2]<=[2,2]T(1,0) last_tile_dim_replicate}, metadata={op_name="jit(_full_run)/jit(main)/while/body/pjit" source_file="/global/homes/j/jackm/software/lorrax_C/src/bse/bse_lanczos.py" source_line=163}
  %copy.19 = c128[64,4,2,480]{3,2,1,0} copy(%copy.20), sharding={devices=[1,1,1,2,2]<=[2,2]T(1,0) last_tile_dim_replicate}, metadata={op_name="jit(_full_run)/jit(main)/while/body/jit(_matvec_impl)/shard_map" source_file="/global/homes/j/jackm/software/lorrax_C/src/bse/bse_ring_comm.py" source_line=425}
  %custom-call.193 = c128[64,4,2,240]{3,2,1,0} custom-call(%copy.19), custom_call_target="SPMDFullToShardShape", sharding={manual}, metadata={op_name="jit(_full_run)/jit(main)/while/body/jit(_matvec_impl)/shard_map" source_file="/global/homes/j/jackm/software/lorrax_C/src/bse/bse_ring_comm.py" source_line=425}
  %constant.1689 = s32[] constant(0), sharding={manual}
  %partition-id.21 = u32[] partition-id(), sharding={manual}, metadata={op_name="jit(_full_run)/jit(main)/while/body/jit(_matvec_impl)/jit(shmap_body)/axis_index" source_file="/global/homes/j/jackm/software/lorrax_C/src/bse/bse_ring_comm.py" source_line=241}
  %constant.1554 = u32[] constant(1), sharding={manual}, metadata={op_name="jit(_full_run)/jit(main)/while/body/jit(_matvec_impl)/jit(shmap_body)/axis_index" source_file="/global/homes/j/jackm/software/lorrax_C/src/bse/bse_ring_comm.py" source_line=241}
  %shift-right-logical.227 = u32[] shift-right-logical(%partition-id.21, %constant.1554), sharding={manual}, metadata={op_name="jit(_full_run)/jit(main)/while/body/jit(_matvec_impl)/jit(shmap_body)/axis_index" source_file="/global/homes/j/jackm/software/lorrax_C/src/bse/bse_ring_comm.py" source_line=241}
  %constant.1555 = u32[] constant(1), sharding={manual}, metadata={op_name="jit(_full_run)/jit(main)/while/body/jit(_matvec_impl)/jit(shmap_body)/axis_index" source_file="/global/homes/j/jackm/software/lorrax_C/src/bse/bse_ring_comm.py" source_line=241}
  %and.67 = u32[] and(%shift-right-logical.227, %constant.1555), sharding={manual}, metadata={op_name="jit(_full_run)/jit(main)/while/body/jit(_matvec_impl)/jit(shmap_body)/axis_index" source_file="/global/homes/j/jackm/software/lorrax_C/src/bse/bse_ring_comm.py" source_line=241}
  %convert.107 = s32[] convert(%and.67), sharding={manual}, metadata={op_name="jit(_full_run)/jit(main)/while/body/jit(_matvec_impl)/jit(shmap_body)/axis_index" source_file="/global/homes/j/jackm/software/lorrax_C/src/bse/bse_ring_comm.py" source_line=241}
  %constant.1692 = s32[] constant(2), sharding={manual}
  %multiply.432 = s32[] multiply(%convert.107, %constant.1692), sharding={manual}, metadata={op_name="jit(_full_run)/jit(main)/while/body/jit(_matvec_impl)/jit(shmap_body)/mul" source_file="/global/homes/j/jackm/software/lorrax_C/src/bse/bse_ring_comm.py" source_line=249}
  %constant.1688 = s32[] constant(0), sharding={manual}
  %compare.312 = pred[] compare(%multiply.432, %constant.1688), direction=LT, sharding={manual}, metadata={op_name="jit(_full_run)/jit(main)/while/body/jit(_matvec_impl)/jit(shmap_body)/lt" source_file="/global/homes/j/jackm/software/lorrax_C/src/bse/bse_ring_comm.py" source_line=251}
  %constant.1694 = s32[] constant(4), sharding={manual}
  %add.790 = s32[] add(%multiply.432, %constant.1694), sharding={manual}, metadata={op_name="jit(_full_run)/jit(main)/while/body/jit(_matvec_impl)/jit(shmap_body)/add" source_file="/global/homes/j/jackm/software/lorrax_C/src/bse/bse_ring_comm.py" source_line=251}
  %select.474 = s32[] select(%compare.312, %add.790, %multiply.432), sharding={manual}, metadata={op_name="jit(_full_run)/jit(main)/while/body/jit(_matvec_impl)/jit(shmap_body)/select_n" source_file="/global/homes/j/jackm/software/lorrax_C/src/bse/bse_ring_comm.py" source_line=251}
  %dynamic-slice.69 = c128[64,2,2,240]{3,2,1,0} dynamic-slice(%custom-call.193, %constant.1689, %select.474, %constant.1689, %constant.1689), dynamic_slice_sizes={64,2,2,240}, sharding={manual}, metadata={op_name="jit(_full_run)/jit(main)/while/body/jit(_matvec_impl)/jit(shmap_body)/dynamic_slice" source_file="/global/homes/j/jackm/software/lorrax_C/src/bse/bse_ring_comm.py" source_line=251}
  %tuple.124 = (s64[], c128[1,2,2,64]{3,2,1,0}, c128[1,2,240,64]{3,2,1,0}, s32[], c128[64,4,2,240]{3,2,1,0}, /*index=5*/c128[64,2,2,240]{3,2,1,0}) tuple(%constant.1686, %custom-call.187, %broadcast.1098, %convert.106, %custom-call.190, /*index=5*/%dynamic-slice.69), sharding={{manual}, {manual}, {manual}, {manual}, {manual}, /*index=5*/{manual}}
  %while.40 = (s64[], c128[1,2,2,64]{3,2,1,0}, c128[1,2,240,64]{3,2,1,0}, s32[], c128[64,4,2,240]{3,2,1,0}, /*index=5*/c128[64,2,2,240]{3,2,1,0}) while(%tuple.124), condition=%region_5.1387.clone.clone.1, body=%region_4.1370.clone.clone.clone.1, sharding={{manual}, {manual}, {manual}, {manual}, {manual}, /*index=5*/{manual}}, metadata={op_name="jit(_full_run)/jit(main)/while/body/jit(_matvec_impl)/jit(shmap_body)/while" source_file="/global/homes/j/jackm/software/lorrax_C/src/bse/bse_ring_comm.py" source_line=270}
  %get-tuple-element.479 = c128[1,2,240,64]{3,2,1,0} get-tuple-element(%while.40), index=2, sharding={manual}, metadata={op_name="jit(_full_run)/jit(main)/while/body/jit(_matvec_impl)/jit(shmap_body)/while" source_file="/global/homes/j/jackm/software/lorrax_C/src/bse/bse_ring_comm.py" source_line=270}
  %constant.1543 = c128[] constant((0, 0)), sharding={manual}
  %broadcast.1100 = c128[1,240,64]{2,1,0} broadcast(%constant.1543), dimensions={}, sharding={manual}
  %tuple.110 = (s64[], c128[1,2,240,64]{3,2,1,0}, c128[1,240,64]{2,1,0}) tuple(%constant.1687, %get-tuple-element.479, %broadcast.1100), sharding={{replicated}, {manual}, {manual}}, metadata={op_name="jit(_full_run)/jit(main)/while/body/jit(_matvec_impl)/jit(shmap_body)/while" source_file="/global/homes/j/jackm/software/lorrax_C/src/bse/bse_ring_comm.py" source_line=281}
  %while.31 = (s64[], c128[1,2,240,64]{3,2,1,0}, c128[1,240,64]{2,1,0}) while(%tuple.110), condition=%region_8.1421, body=%region_6.1410, sharding={{replicated}, {manual}, {manual}}, metadata={op_name="jit(_full_run)/jit(main)/while/body/jit(_matvec_impl)/jit(shmap_body)/while" source_file="/global/homes/j/jackm/software/lorrax_C/src/bse/bse_ring_comm.py" source_line=281}
  %get-tuple-element.477 = c128[1,240,64]{2,1,0} get-tuple-element(%while.31), index=2, sharding={manual}, metadata={op_name="jit(_full_run)/jit(main)/while/body/jit(_matvec_impl)/jit(shmap_body)/while" source_file="/global/homes/j/jackm/software/lorrax_C/src/bse/bse_ring_comm.py" source_line=281}
  %constant.1573 = c128[] constant((0.125, 0)), sharding={manual}, metadata={op_name="jit(_full_run)/jit(main)/while/body/jit(_matvec_impl)/jit(shmap_body)/convert_element_type" source_file="/global/homes/j/jackm/software/lorrax_C/src/bse/bse_ring_comm.py" source_line=283}
  %broadcast.1126 = c128[1,240,64]{2,1,0} broadcast(%constant.1573), dimensions={}, sharding={manual}, metadata={op_name="jit(_full_run)/jit(main)/while/body/jit(_matvec_impl)/jit(shmap_body)/div" source_file="/global/homes/j/jackm/software/lorrax_C/src/bse/bse_ring_comm.py" source_line=283}
  %multiply.441 = c128[1,240,64]{2,1,0} multiply(%get-tuple-element.477, %broadcast.1126), sharding={manual}, metadata={op_name="jit(_full_run)/jit(main)/while/body/jit(_matvec_impl)/jit(shmap_body)/div" source_file="/global/homes/j/jackm/software/lorrax_C/src/bse/bse_ring_comm.py" source_line=283}
  %reshape.441 = c128[240,64]{1,0} reshape(%multiply.441), sharding={manual}
  %get-tuple-element.482 = c128[480,480]{1,0} get-tuple-element(%arg_tuple.13), index=12, sharding={devices=[2,2]<=[4]}
  %copy.18 = c128[480,480]{1,0} copy(%get-tuple-element.482), sharding={devices=[2,2]<=[4]}, metadata={op_name="jit(_full_run)/jit(main)/while/body/pjit" source_file="/global/homes/j/jackm/software/lorrax_C/src/bse/bse_lanczos.py" source_line=163}
  %copy.17 = c128[480,480]{1,0} copy(%copy.18), sharding={devices=[2,2]<=[4]}, metadata={op_name="jit(_full_run)/jit(main)/while/body/jit(_matvec_impl)/shard_map" source_file="/global/homes/j/jackm/software/lorrax_C/src/bse/bse_ring_comm.py" source_line=425}
  %custom-call.196 = c128[240,240]{1,0} custom-call(%copy.17), custom_call_target="SPMDFullToShardShape", sharding={manual}, metadata={op_name="jit(_full_run)/jit(main)/while/body/jit(_matvec_impl)/shard_map" source_file="/global/homes/j/jackm/software/lorrax_C/src/bse/bse_ring_comm.py" source_line=425}
  %dot.45 = c128[64,240]{1,0} dot(%reshape.441, %custom-call.196), lhs_contracting_dims={0}, rhs_contracting_dims={1}, sharding={manual}, metadata={op_name="jit(_full_run)/jit(main)/while/body/jit(_matvec_impl)/jit(shmap_body)/MN,bNk->bMk/dot_general" source_file="/global/homes/j/jackm/software/lorrax_C/src/bse/bse_ring_comm.py" source_line=285}
  %reshape.442 = c128[1,64,240]{2,1,0} reshape(%dot.45), sharding={manual}, metadata={op_name="jit(_full_run)/jit(main)/while/body/jit(_matvec_impl)/jit(shmap_body)/MN,bNk->bMk/dot_general" source_file="/global/homes/j/jackm/software/lorrax_C/src/bse/bse_ring_comm.py" source_line=285}
  %transpose.78 = c128[1,240,64]{1,2,0} transpose(%reshape.442), dimensions={0,2,1}, sharding={manual}, metadata={op_name="jit(_full_run)/jit(main)/while/body/jit(_matvec_impl)/jit(shmap_body)/MN,bNk->bMk/transpose" source_file="/global/homes/j/jackm/software/lorrax_C/src/bse/bse_ring_comm.py" source_line=285}
  %all-reduce.5 = c128[1,240,64]{1,2,0} all-reduce(%transpose.78), channel_id=3, replica_groups={{0,1},{2,3}}, use_global_device_ids=true, to_apply=%region_9.1428, sharding={manual}, metadata={op_name="jit(_full_run)/jit(main)/while/body/jit(_matvec_impl)/jit(shmap_body)/psum2" source_file="/global/homes/j/jackm/software/lorrax_C/src/bse/bse_ring_comm.py" source_line=286}
  %reshape.443 = c128[240,64]{0,1} reshape(%all-reduce.5), sharding={manual}
  %transpose.83 = c128[64,240]{1,0} transpose(%reshape.443), dimensions={1,0}, sharding={manual}
  %broadcast.1138 = c128[64,240,2,4]{3,2,1,0} broadcast(%transpose.83), dimensions={0,1}, sharding={manual}, metadata={op_name="jit(_full_run)/jit(main)/while/body/jit(_matvec_impl)/jit(shmap_body)/kcvM,bMk->bcvk/dot_general" source_file="/global/homes/j/jackm/software/lorrax_C/src/bse/bse_ring_comm.py" source_line=293}
  %get-tuple-element.487 = c128[64,4,2,480]{3,2,1,0} get-tuple-element(%arg_tuple.13), index=7, sharding={devices=[1,1,1,2,2]<=[4] last_tile_dim_replicate}
  %copy.16 = c128[64,4,2,480]{3,2,1,0} copy(%get-tuple-element.487), sharding={devices=[1,1,1,2,2]<=[4] last_tile_dim_replicate}, metadata={op_name="jit(_full_run)/jit(main)/while/body/pjit" source_file="/global/homes/j/jackm/software/lorrax_C/src/bse/bse_lanczos.py" source_line=163}
  %copy.15 = c128[64,4,2,480]{3,2,1,0} copy(%copy.16), sharding={devices=[1,1,1,2,2]<=[4] last_tile_dim_replicate}, metadata={op_name="jit(_full_run)/jit(main)/while/body/jit(_matvec_impl)/shard_map" source_file="/global/homes/j/jackm/software/lorrax_C/src/bse/bse_ring_comm.py" source_line=425}
  %custom-call.199 = c128[64,4,2,240]{3,2,1,0} custom-call(%copy.15), custom_call_target="SPMDFullToShardShape", sharding={manual}, metadata={op_name="jit(_full_run)/jit(main)/while/body/jit(_matvec_impl)/shard_map" source_file="/global/homes/j/jackm/software/lorrax_C/src/bse/bse_ring_comm.py" source_line=425}
  %constant.1691 = s32[] constant(0), sharding={manual}
  %constant.1693 = s32[] constant(2), sharding={manual}
  %multiply.433 = s32[] multiply(%convert.106, %constant.1693), sharding={manual}, metadata={op_name="jit(_full_run)/jit(main)/while/body/jit(_matvec_impl)/jit(shmap_body)/mul" source_file="/global/homes/j/jackm/software/lorrax_C/src/bse/bse_ring_comm.py" source_line=288}
  %constant.1690 = s32[] constant(0), sharding={manual}
  %compare.313 = pred[] compare(%multiply.433, %constant.1690), direction=LT, sharding={manual}, metadata={op_name="jit(_full_run)/jit(main)/while/body/jit(_matvec_impl)/jit(shmap_body)/lt" source_file="/global/homes/j/jackm/software/lorrax_C/src/bse/bse_ring_comm.py" source_line=289}
  %constant.1695 = s32[] constant(4), sharding={manual}
  %add.791 = s32[] add(%multiply.433, %constant.1695), sharding={manual}, metadata={op_name="jit(_full_run)/jit(main)/while/body/jit(_matvec_impl)/jit(shmap_body)/add" source_file="/global/homes/j/jackm/software/lorrax_C/src/bse/bse_ring_comm.py" source_line=289}
  %select.475 = s32[] select(%compare.313, %add.791, %multiply.433), sharding={manual}, metadata={op_name="jit(_full_run)/jit(main)/while/body/jit(_matvec_impl)/jit(shmap_body)/select_n" source_file="/global/homes/j/jackm/software/lorrax_C/src/bse/bse_ring_comm.py" source_line=289}
  %dynamic-slice.70 = c128[64,2,2,240]{3,2,1,0} dynamic-slice(%custom-call.199, %constant.1691, %select.475, %constant.1691, %constant.1691), dynamic_slice_sizes={64,2,2,240}, sharding={manual}, metadata={op_name="jit(_full_run)/jit(main)/while/body/jit(_matvec_impl)/jit(shmap_body)/dynamic_slice" source_file="/global/homes/j/jackm/software/lorrax_C/src/bse/bse_ring_comm.py" source_line=289}
  %get-tuple-element.489 = c128[64,4,2,480]{3,2,1,0} get-tuple-element(%arg_tuple.13), index=5, sharding={devices=[1,1,1,2,2]<=[4] last_tile_dim_replicate}
  %copy.14 = c128[64,4,2,480]{3,2,1,0} copy(%get-tuple-element.489), sharding={devices=[1,1,1,2,2]<=[4] last_tile_dim_replicate}, metadata={op_name="jit(_full_run)/jit(main)/while/body/pjit" source_file="/global/homes/j/jackm/software/lorrax_C/src/bse/bse_lanczos.py" source_line=163}
  %copy.13 = c128[64,4,2,480]{3,2,1,0} copy(%copy.14), sharding={devices=[1,1,1,2,2]<=[4] last_tile_dim_replicate}, metadata={op_name="jit(_full_run)/jit(main)/while/body/jit(_matvec_impl)/shard_map" source_file="/global/homes/j/jackm/software/lorrax_C/src/bse/bse_ring_comm.py" source_line=425}
  %custom-call.202 = c128[64,4,2,240]{3,2,1,0} custom-call(%copy.13), custom_call_target="SPMDFullToShardShape", sharding={manual}, metadata={op_name="jit(_full_run)/jit(main)/while/body/jit(_matvec_impl)/shard_map" source_file="/global/homes/j/jackm/software/lorrax_C/src/bse/bse_ring_comm.py" source_line=425}
  %real.52 = f64[64,4,2,240]{3,2,1,0} real(%custom-call.202), sharding={manual}, metadata={op_name="jit(_full_run)/jit(main)/while/body/jit(_matvec_impl)/jit(shmap_body)/real" source_file="/global/homes/j/jackm/software/lorrax_C/src/bse/bse_ring_comm.py" source_line=292}
  %imag.42 = f64[64,4,2,240]{3,2,1,0} imag(%custom-call.202), sharding={manual}, metadata={op_name="jit(_full_run)/jit(main)/while/body/jit(_matvec_impl)/jit(shmap_body)/imag" source_file="/global/homes/j/jackm/software/lorrax_C/src/bse/bse_ring_comm.py" source_line=292}
  %negate.79 = f64[64,4,2,240]{3,2,1,0} negate(%imag.42), sharding={manual}, metadata={op_name="jit(_full_run)/jit(main)/while/body/jit(_matvec_impl)/jit(shmap_body)/neg" source_file="/global/homes/j/jackm/software/lorrax_C/src/bse/bse_ring_comm.py" source_line=292}
  %complex.40 = c128[64,4,2,240]{3,2,1,0} complex(%real.52, %negate.79), sharding={manual}, metadata={op_name="jit(_full_run)/jit(main)/while/body/jit(_matvec_impl)/jit(shmap_body)/complex" source_file="/global/homes/j/jackm/software/lorrax_C/src/bse/bse_ring_comm.py" source_line=292}
  %dot.44 = c128[64,240,2,4]{3,2,1,0} dot(%dynamic-slice.70, %complex.40), lhs_batch_dims={0,3}, lhs_contracting_dims={2}, rhs_batch_dims={0,3}, rhs_contracting_dims={2}, sharding={manual}, metadata={op_name="jit(_full_run)/jit(main)/while/body/jit(_matvec_impl)/jit(shmap_body)/kcsm,kvsm->kcvm/dot_general" source_file="/global/homes/j/jackm/software/lorrax_C/src/bse/bse_ring_comm.py" source_line=292}
  %real.58 = f64[64,240,2,4]{3,2,1,0} real(%dot.44), sharding={manual}, metadata={op_name="jit(_full_run)/jit(main)/while/body/jit(_matvec_impl)/jit(shmap_body)/real" source_file="/global/homes/j/jackm/software/lorrax_C/src/bse/bse_ring_comm.py" source_line=293}
  %imag.46 = f64[64,240,2,4]{3,2,1,0} imag(%dot.44), sharding={manual}, metadata={op_name="jit(_full_run)/jit(main)/while/body/jit(_matvec_impl)/jit(shmap_body)/imag" source_file="/global/homes/j/jackm/software/lorrax_C/src/bse/bse_ring_comm.py" source_line=293}
  %negate.83 = f64[64,240,2,4]{3,2,1,0} negate(%imag.46), sharding={manual}, metadata={op_name="jit(_full_run)/jit(main)/while/body/jit(_matvec_impl)/jit(shmap_body)/neg" source_file="/global/homes/j/jackm/software/lorrax_C/src/bse/bse_ring_comm.py" source_line=293}
  %complex.48 = c128[64,240,2,4]{3,2,1,0} complex(%real.58, %negate.83), sharding={manual}, metadata={op_name="jit(_full_run)/jit(main)/while/body/jit(_matvec_impl)/jit(shmap_body)/complex" source_file="/global/homes/j/jackm/software/lorrax_C/src/bse/bse_ring_comm.py" source_line=293}
  %multiply.454 = c128[64,240,2,4]{3,2,1,0} multiply(%broadcast.1138, %complex.48), sharding={manual}
  %constant.1564 = c128[] constant((0, 0)), sharding={manual}
  %reduce.46 = c128[64,2,4]{2,1,0} reduce(%multiply.454, %constant.1564), dimensions={1}, to_apply=%scalar_add_computation.1, sharding={manual}, metadata={op_name="jit(_full_run)/jit(main)/while/body/jit(_matvec_impl)/jit(shmap_body)/kcvM,bMk->bcvk/dot_general" source_file="/global/homes/j/jackm/software/lorrax_C/src/bse/bse_ring_comm.py" source_line=293}
  %transpose.102 = c128[64,4,2]{1,2,0} transpose(%reduce.46), dimensions={0,2,1}, sharding={manual}, metadata={op_name="jit(_full_run)/jit(main)/while/body/jit(_matvec_impl)/jit(shmap_body)/kcvM,bMk->bcvk/dot_general" source_file="/global/homes/j/jackm/software/lorrax_C/src/bse/bse_ring_comm.py" source_line=293}
  %reshape.444 = c128[64,1,4,2]{3,2,1,0} reshape(%transpose.102), sharding={manual}, metadata={op_name="jit(_full_run)/jit(main)/while/body/jit(_matvec_impl)/jit(shmap_body)/kcvM,bMk->bcvk/dot_general" source_file="/global/homes/j/jackm/software/lorrax_C/src/bse/bse_ring_comm.py" source_line=293}
  %transpose.79 = c128[1,4,2,64]{2,1,0,3} transpose(%reshape.444), dimensions={1,2,3,0}, sharding={manual}, metadata={op_name="jit(_full_run)/jit(main)/while/body/jit(_matvec_impl)/jit(shmap_body)/kcvM,bMk->bcvk/transpose" source_file="/global/homes/j/jackm/software/lorrax_C/src/bse/bse_ring_comm.py" source_line=293}
  %reduce-scatter.5 = c128[1,2,2,64]{2,1,0,3} reduce-scatter(%transpose.79), channel_id=4, replica_groups={{0,2},{1,3}}, use_global_device_ids=true, dimensions={1}, to_apply=%region_10.1432, sharding={manual}, metadata={op_name="jit(_full_run)/jit(main)/while/body/jit(_matvec_impl)/jit(shmap_body)/reduce_scatter" source_file="/global/homes/j/jackm/software/lorrax_C/src/bse/bse_ring_comm.py" source_line=294}
  %constant.1574 = c128[] constant((0.125, 0)), sharding={manual}, metadata={op_name="jit(_full_run)/jit(main)/while/body/jit(_matvec_impl)/jit(shmap_body)/convert_element_type" source_file="/global/homes/j/jackm/software/lorrax_C/src/bse/bse_ring_comm.py" source_line=296}
  %broadcast.1128 = c128[1,2,2,64]{3,2,1,0} broadcast(%constant.1574), dimensions={}, sharding={manual}, metadata={op_name="jit(_full_run)/jit(main)/while/body/jit(_matvec_impl)/jit(shmap_body)/div" source_file="/global/homes/j/jackm/software/lorrax_C/src/bse/bse_ring_comm.py" source_line=296}
  %multiply.442 = c128[1,2,2,64]{2,1,0,3} multiply(%reduce-scatter.5, %broadcast.1128), sharding={manual}, metadata={op_name="jit(_full_run)/jit(main)/while/body/jit(_matvec_impl)/jit(shmap_body)/div" source_file="/global/homes/j/jackm/software/lorrax_C/src/bse/bse_ring_comm.py" source_line=296}
  %copy.12 = c128[1,2,2,64]{3,2,1,0} copy(%multiply.442), sharding={manual}, metadata={op_name="jit(_full_run)/jit(main)/while/body/jit(_matvec_impl)/shard_map" source_file="/global/homes/j/jackm/software/lorrax_C/src/bse/bse_ring_comm.py" source_line=425}
  %custom-call.204 = c128[1,4,4,64]{3,2,1,0} custom-call(%copy.12), custom_call_target="SPMDShardToFullShape", sharding={devices=[1,2,2,1]<=[4]}, metadata={op_name="jit(_full_run)/jit(main)/while/body/jit(_matvec_impl)/shard_map" source_file="/global/homes/j/jackm/software/lorrax_C/src/bse/bse_ring_comm.py" source_line=425}
  %add.792 = c128[1,4,4,64]{3,2,1,0} add(%copy.24, %custom-call.204), sharding={devices=[1,2,2,1]<=[4]}, metadata={op_name="jit(_full_run)/jit(main)/while/body/jit(_matvec_impl)/add" source_file="/global/homes/j/jackm/software/lorrax_C/src/bse/bse_ring_comm.py" source_line=430}
  %constant.1697 = s64[] constant(0), sharding={manual}
  %constant.1696 = s64[] constant(0), sharding={manual}
  %copy.11 = c128[1,4,4,64]{3,2,1,0} copy(%copy.26), sharding={devices=[1,2,2,1]<=[4]}, metadata={op_name="jit(_full_run)/jit(main)/while/body/jit(_matvec_impl)/shard_map" source_file="/global/homes/j/jackm/software/lorrax_C/src/bse/bse_ring_comm.py" source_line=428}
  %custom-call.208 = c128[1,2,2,64]{3,2,1,0} custom-call(%copy.11), custom_call_target="SPMDFullToShardShape", sharding={manual}, metadata={op_name="jit(_full_run)/jit(main)/while/body/jit(_matvec_impl)/shard_map" source_file="/global/homes/j/jackm/software/lorrax_C/src/bse/bse_ring_comm.py" source_line=428}
  %constant.1545 = c128[] constant((0, 0)), sharding={manual}
  %broadcast.1102 = c128[1,2,64,2,240]{4,3,2,1,0} broadcast(%constant.1545), dimensions={}, sharding={manual}
  %partition-id.22 = u32[] partition-id(), sharding={manual}, metadata={op_name="jit(_full_run)/jit(main)/while/body/jit(_matvec_impl)/jit(shmap_body)/axis_index" source_file="/global/homes/j/jackm/software/lorrax_C/src/bse/bse_ring_comm.py" source_line=73}
  %constant.1556 = u32[] constant(1), sharding={manual}, metadata={op_name="jit(_full_run)/jit(main)/while/body/jit(_matvec_impl)/jit(shmap_body)/axis_index" source_file="/global/homes/j/jackm/software/lorrax_C/src/bse/bse_ring_comm.py" source_line=73}
  %and.68 = u32[] and(%partition-id.22, %constant.1556), sharding={manual}, metadata={op_name="jit(_full_run)/jit(main)/while/body/jit(_matvec_impl)/jit(shmap_body)/axis_index" source_file="/global/homes/j/jackm/software/lorrax_C/src/bse/bse_ring_comm.py" source_line=73}
  %convert.108 = s32[] convert(%and.68), sharding={manual}, metadata={op_name="jit(_full_run)/jit(main)/while/body/jit(_matvec_impl)/jit(shmap_body)/axis_index" source_file="/global/homes/j/jackm/software/lorrax_C/src/bse/bse_ring_comm.py" source_line=73}
  %copy.10 = c128[64,4,2,480]{3,2,1,0} copy(%copy.22), sharding={devices=[1,1,1,2,2]<=[2,2]T(1,0) last_tile_dim_replicate}, metadata={op_name="jit(_full_run)/jit(main)/while/body/jit(_matvec_impl)/shard_map" source_file="/global/homes/j/jackm/software/lorrax_C/src/bse/bse_ring_comm.py" source_line=428}
  %custom-call.210 = c128[64,4,2,240]{3,2,1,0} custom-call(%copy.10), custom_call_target="SPMDFullToShardShape", sharding={manual}, metadata={op_name="jit(_full_run)/jit(main)/while/body/jit(_matvec_impl)/shard_map" source_file="/global/homes/j/jackm/software/lorrax_C/src/bse/bse_ring_comm.py" source_line=428}
  %tuple.127 = (s64[], c128[1,2,2,64]{3,2,1,0}, c128[1,2,64,2,240]{4,3,2,1,0}, s32[], c128[64,4,2,240]{3,2,1,0}) tuple(%constant.1696, %custom-call.208, %broadcast.1102, %convert.108, %custom-call.210), sharding={{manual}, {manual}, {manual}, {manual}, {manual}}
  %while.41 = (s64[], c128[1,2,2,64]{3,2,1,0}, c128[1,2,64,2,240]{4,3,2,1,0}, s32[], c128[64,4,2,240]{3,2,1,0}) while(%tuple.127), condition=%region_12.1570.clone.clone.1, body=%region_11.1555.clone.clone.clone.1, sharding={{manual}, {manual}, {manual}, {manual}, {manual}}, metadata={op_name="jit(_full_run)/jit(main)/while/body/jit(_matvec_impl)/jit(shmap_body)/while" source_file="/global/homes/j/jackm/software/lorrax_C/src/bse/bse_ring_comm.py" source_line=91}
  %get-tuple-element.609 = c128[1,2,64,2,240]{4,3,2,1,0} get-tuple-element(%while.41), index=2, sharding={manual}, metadata={op_name="jit(_full_run)/jit(main)/while/body/jit(_matvec_impl)/jit(shmap_body)/while" source_file="/global/homes/j/jackm/software/lorrax_C/src/bse/bse_ring_comm.py" source_line=91}
  %constant.1546 = c128[] constant((0, 0)), sharding={manual}
  %broadcast.1104 = c128[1,240,240,2,2,64]{5,4,3,2,1,0} broadcast(%constant.1546), dimensions={}, sharding={manual}
  %partition-id.23 = u32[] partition-id(), sharding={manual}, metadata={op_name="jit(_full_run)/jit(main)/while/body/jit(_matvec_impl)/jit(shmap_body)/axis_index" source_file="/global/homes/j/jackm/software/lorrax_C/src/bse/bse_ring_comm.py" source_line=102}
  %constant.1557 = u32[] constant(1), sharding={manual}, metadata={op_name="jit(_full_run)/jit(main)/while/body/jit(_matvec_impl)/jit(shmap_body)/axis_index" source_file="/global/homes/j/jackm/software/lorrax_C/src/bse/bse_ring_comm.py" source_line=102}
  %shift-right-logical.228 = u32[] shift-right-logical(%partition-id.23, %constant.1557), sharding={manual}, metadata={op_name="jit(_full_run)/jit(main)/while/body/jit(_matvec_impl)/jit(shmap_body)/axis_index" source_file="/global/homes/j/jackm/software/lorrax_C/src/bse/bse_ring_comm.py" source_line=102}
  %constant.1558 = u32[] constant(1), sharding={manual}, metadata={op_name="jit(_full_run)/jit(main)/while/body/jit(_matvec_impl)/jit(shmap_body)/axis_index" source_file="/global/homes/j/jackm/software/lorrax_C/src/bse/bse_ring_comm.py" source_line=102}
  %and.69 = u32[] and(%shift-right-logical.228, %constant.1558), sharding={manual}, metadata={op_name="jit(_full_run)/jit(main)/while/body/jit(_matvec_impl)/jit(shmap_body)/axis_index" source_file="/global/homes/j/jackm/software/lorrax_C/src/bse/bse_ring_comm.py" source_line=102}
  %convert.109 = s32[] convert(%and.69), sharding={manual}, metadata={op_name="jit(_full_run)/jit(main)/while/body/jit(_matvec_impl)/jit(shmap_body)/axis_index" source_file="/global/homes/j/jackm/software/lorrax_C/src/bse/bse_ring_comm.py" source_line=102}
  %copy.9 = c128[64,4,2,480]{3,2,1,0} copy(%copy.14), sharding={devices=[1,1,1,2,2]<=[4] last_tile_dim_replicate}, metadata={op_name="jit(_full_run)/jit(main)/while/body/jit(_matvec_impl)/shard_map" source_file="/global/homes/j/jackm/software/lorrax_C/src/bse/bse_ring_comm.py" source_line=428}
  %custom-call.212 = c128[64,4,2,240]{3,2,1,0} custom-call(%copy.9), custom_call_target="SPMDFullToShardShape", sharding={manual}, metadata={op_name="jit(_full_run)/jit(main)/while/body/jit(_matvec_impl)/shard_map" source_file="/global/homes/j/jackm/software/lorrax_C/src/bse/bse_ring_comm.py" source_line=428}
  %tuple.130 = (s64[], c128[1,2,64,2,240]{4,3,2,1,0}, c128[1,240,240,2,2,64]{5,4,3,2,1,0}, s32[], c128[64,4,2,240]{3,2,1,0}) tuple(%constant.1697, %get-tuple-element.609, %broadcast.1104, %convert.109, %custom-call.212), sharding={{manual}, {manual}, {manual}, {manual}, {manual}}
  %while.42 = (s64[], c128[1,2,64,2,240]{4,3,2,1,0}, c128[1,240,240,2,2,64]{5,4,3,2,1,0}, s32[], c128[64,4,2,240]{3,2,1,0}) while(%tuple.130), condition=%region_14.1641.clone.clone.1, body=%region_13.1626.clone.clone.clone.1, sharding={{manual}, {manual}, {manual}, {manual}, {manual}}, metadata={op_name="jit(_full_run)/jit(main)/while/body/jit(_matvec_impl)/jit(shmap_body)/while" source_file="/global/homes/j/jackm/software/lorrax_C/src/bse/bse_ring_comm.py" source_line=121}
  %get-tuple-element.481 = c128[1,240,240,2,2,64]{5,4,3,2,1,0} get-tuple-element(%while.42), index=2, sharding={manual}, metadata={op_name="jit(_full_run)/jit(main)/while/body/jit(_matvec_impl)/jit(shmap_body)/while" source_file="/global/homes/j/jackm/software/lorrax_C/src/bse/bse_ring_comm.py" source_line=121}
  %copy.8 = c128[1,240,240,2,2,64]{5,4,3,2,1,0} copy(%get-tuple-element.481), sharding={manual}, metadata={op_name="jit(_full_run)/jit(main)/while/body/jit(_matvec_impl)/shard_map" source_file="/global/homes/j/jackm/software/lorrax_C/src/bse/bse_ring_comm.py" source_line=428}
  %custom-call.214 = c128[1,480,480,2,2,64]{5,4,3,2,1,0} custom-call(%copy.8), custom_call_target="SPMDShardToFullShape", sharding={devices=[1,2,2,1,1,1]<=[4]}, metadata={op_name="jit(_full_run)/jit(main)/while/body/jit(_matvec_impl)/shard_map" source_file="/global/homes/j/jackm/software/lorrax_C/src/bse/bse_ring_comm.py" source_line=428}
  %copy.7 = c128[1,480,480,2,2,64]{5,4,3,2,1,0} copy(%custom-call.214), sharding={devices=[1,2,2,1,1,1]<=[4]}, metadata={op_name="jit(_full_run)/jit(main)/while/body/jit(_matvec_impl)/pjit" source_file="/global/homes/j/jackm/software/lorrax_C/src/bse/bse_ring_comm.py" source_line=429}
  %reshape.437 = c128[1,480,480,2,2,4,4,4]{7,6,5,4,3,2,1,0} reshape(%copy.7), sharding={devices=[1,2,2,1,1,1,1,1]<=[4]}, metadata={op_name="jit(_full_run)/jit(main)/while/body/jit(_matvec_impl)/jit(_apply_W_from_T)/reshape" source_file="/global/homes/j/jackm/software/lorrax_C/src/bse/bse_ring_comm.py" source_line=397}
  %fft.13 = c128[1,480,480,2,2,4,4,4]{7,6,5,4,3,2,1,0} fft(%reshape.437), fft_type=IFFT, fft_length={4,4,4}, metadata={op_name="jit(_full_run)/jit(main)/while/body/jit(_matvec_impl)/jit(_apply_W_from_T)/jit(fft)/fft" source_file="/global/homes/j/jackm/software/lorrax_C/src/bse/bse_ring_comm.py" source_line=398}
  %get-tuple-element.483 = c128[480,480,4,4,4]{4,3,2,1,0} get-tuple-element(%arg_tuple.13), index=11, sharding={devices=[2,2,1,1,1]<=[4]}
  %copy.6 = c128[480,480,4,4,4]{4,3,2,1,0} copy(%get-tuple-element.483), sharding={devices=[2,2,1,1,1]<=[4]}, metadata={op_name="jit(_full_run)/jit(main)/while/body/pjit" source_file="/global/homes/j/jackm/software/lorrax_C/src/bse/bse_lanczos.py" source_line=163}
  %copy.5 = c128[480,480,4,4,4]{4,3,2,1,0} copy(%copy.6), sharding={devices=[2,2,1,1,1]<=[4]}, metadata={op_name="jit(_full_run)/jit(main)/while/body/jit(_matvec_impl)/pjit" source_file="/global/homes/j/jackm/software/lorrax_C/src/bse/bse_ring_comm.py" source_line=429}
  %constant.1569 = c128[] constant((8, 0)), sharding={replicated}, metadata={op_name="jit(_full_run)/jit(main)/while/body/jit(_matvec_impl)/jit(_apply_W_from_T)/sqrt" source_file="/global/homes/j/jackm/software/lorrax_C/src/bse/bse_ring_comm.py" source_line=398}
  %broadcast.1130 = c128[480,480,4,4,4]{4,3,2,1,0} broadcast(%constant.1569), dimensions={}, sharding={devices=[2,2,1,1,1]<=[4]}, metadata={op_name="jit(_full_run)/jit(main)/while/body/jit(_matvec_impl)/jit(_apply_W_from_T)/mul" source_file="/global/homes/j/jackm/software/lorrax_C/src/bse/bse_ring_comm.py" source_line=399}
  %multiply.443 = c128[480,480,4,4,4]{4,3,2,1,0} multiply(%copy.5, %broadcast.1130), sharding={devices=[2,2,1,1,1]<=[4]}, metadata={op_name="jit(_full_run)/jit(main)/while/body/jit(_matvec_impl)/jit(_apply_W_from_T)/mul" source_file="/global/homes/j/jackm/software/lorrax_C/src/bse/bse_ring_comm.py" source_line=399}
  %broadcast.1132 = c128[1,480,480,2,2,4,4,4]{7,6,5,4,3,2,1,0} broadcast(%multiply.443), dimensions={1,2,5,6,7}, sharding={devices=[1,2,2,1,1,1,1,1]<=[4]}, metadata={op_name="jit(_full_run)/jit(main)/while/body/jit(_matvec_impl)/jit(_apply_W_from_T)/mul" source_file="/global/homes/j/jackm/software/lorrax_C/src/bse/bse_ring_comm.py" source_line=399}
  %multiply.444 = c128[1,480,480,2,2,4,4,4]{7,6,5,4,3,2,1,0} multiply(%fft.13, %broadcast.1132), sharding={devices=[1,2,2,1,1,1,1,1]<=[4]}, metadata={op_name="jit(_full_run)/jit(main)/while/body/jit(_matvec_impl)/jit(_apply_W_from_T)/mul" source_file="/global/homes/j/jackm/software/lorrax_C/src/bse/bse_ring_comm.py" source_line=399}
  %fft.14 = c128[1,480,480,2,2,4,4,4]{7,6,5,4,3,2,1,0} fft(%multiply.444), fft_type=FFT, fft_length={4,4,4}, metadata={op_name="jit(_full_run)/jit(main)/while/body/jit(_matvec_impl)/jit(_apply_W_from_T)/jit(fft)/fft" source_file="/global/homes/j/jackm/software/lorrax_C/src/bse/bse_ring_comm.py" source_line=400}
  %constant.1570 = c128[] constant((0.125, 0)), sharding={replicated}, metadata={op_name="jit(_full_run)/jit(main)/while/body/jit(_matvec_impl)/jit(_apply_W_from_T)/div" source_file="/global/homes/j/jackm/software/lorrax_C/src/bse/bse_ring_comm.py" source_line=400}
  %broadcast.1106 = c128[1,480,480,2,2,4,4,4]{7,6,5,4,3,2,1,0} broadcast(%constant.1570), dimensions={}, sharding={devices=[1,2,2,1,1,1,1,1]<=[4]}, metadata={op_name="jit(_full_run)/jit(main)/while/body/jit(_matvec_impl)/jit(_apply_W_from_T)/mul" source_file="/global/homes/j/jackm/software/lorrax_C/src/bse/bse_ring_comm.py" source_line=400}
  %multiply.434 = c128[1,480,480,2,2,4,4,4]{7,6,5,4,3,2,1,0} multiply(%fft.14, %broadcast.1106), sharding={devices=[1,2,2,1,1,1,1,1]<=[4]}, metadata={op_name="jit(_full_run)/jit(main)/while/body/jit(_matvec_impl)/jit(_apply_W_from_T)/mul" source_file="/global/homes/j/jackm/software/lorrax_C/src/bse/bse_ring_comm.py" source_line=400}
  %reshape.448 = c128[480,480,2,2,64]{4,3,2,1,0} reshape(%multiply.434), sharding={devices=[2,2,1,1,1]<=[4]}
  %copy.4 = c128[64,4,2,480]{3,2,1,0} copy(%copy.14), sharding={devices=[1,1,1,2,2]<=[4] last_tile_dim_replicate}, metadata={op_name="jit(_full_run)/jit(main)/while/body/jit(_matvec_impl)/pjit" source_file="/global/homes/j/jackm/software/lorrax_C/src/bse/bse_ring_comm.py" source_line=429}
  %real.53 = f64[64,4,2,480]{3,2,1,0} real(%copy.4), sharding={devices=[1,1,1,2,2]<=[4] last_tile_dim_replicate}, metadata={op_name="jit(_full_run)/jit(main)/while/body/jit(_matvec_impl)/jit(_apply_W_from_T)/real" source_file="/global/homes/j/jackm/software/lorrax_C/src/bse/bse_ring_comm.py" source_line=403}
  %imag.43 = f64[64,4,2,480]{3,2,1,0} imag(%copy.4), sharding={devices=[1,1,1,2,2]<=[4] last_tile_dim_replicate}, metadata={op_name="jit(_full_run)/jit(main)/while/body/jit(_matvec_impl)/jit(_apply_W_from_T)/imag" source_file="/global/homes/j/jackm/software/lorrax_C/src/bse/bse_ring_comm.py" source_line=403}
  %negate.80 = f64[64,4,2,480]{3,2,1,0} negate(%imag.43), sharding={devices=[1,1,1,2,2]<=[4] last_tile_dim_replicate}, metadata={op_name="jit(_full_run)/jit(main)/while/body/jit(_matvec_impl)/jit(_apply_W_from_T)/neg" source_file="/global/homes/j/jackm/software/lorrax_C/src/bse/bse_ring_comm.py" source_line=403}
  %complex.42 = c128[64,4,2,480]{3,2,1,0} complex(%real.53, %negate.80), sharding={devices=[1,1,1,2,2]<=[4] last_tile_dim_replicate}, metadata={op_name="jit(_full_run)/jit(main)/while/body/jit(_matvec_impl)/jit(_apply_W_from_T)/complex" source_file="/global/homes/j/jackm/software/lorrax_C/src/bse/bse_ring_comm.py" source_line=403}
  %dot.46 = c128[64,480,2,4]{3,2,1,0} dot(%reshape.448, %complex.42), lhs_batch_dims={4}, lhs_contracting_dims={0,2}, rhs_batch_dims={0}, rhs_contracting_dims={3,2}, sharding={devices=[1,2,1,2]<=[2,2]T(1,0)}, metadata={op_name="jit(_full_run)/jit(main)/while/body/jit(_matvec_impl)/jit(_apply_W_from_T)/kctM,bMNtsk->bcNsk/dot_general" source_file="/global/homes/j/jackm/software/lorrax_C/src/bse/bse_ring_comm.py" source_line=403}
  %reshape.445 = c128[64,1,480,2,4]{4,3,2,1,0} reshape(%dot.46), sharding={devices=[1,1,2,1,2]<=[2,2]T(1,0)}, metadata={op_name="jit(_full_run)/jit(main)/while/body/jit(_matvec_impl)/jit(_apply_W_from_T)/kctM,bMNtsk->bcNsk/dot_general" source_file="/global/homes/j/jackm/software/lorrax_C/src/bse/bse_ring_comm.py" source_line=403}
  %transpose.80 = c128[1,4,480,2,64]{1,3,2,0,4} transpose(%reshape.445), dimensions={1,4,2,3,0}, sharding={devices=[1,2,2,1,1]<=[4]}, metadata={op_name="jit(_full_run)/jit(main)/while/body/jit(_matvec_impl)/jit(_apply_W_from_T)/kctM,bMNtsk->bcNsk/transpose" source_file="/global/homes/j/jackm/software/lorrax_C/src/bse/bse_ring_comm.py" source_line=403}
  %reshape.446 = c128[4,480,2,64]{0,2,1,3} reshape(%transpose.80), sharding={devices=[2,2,1,1]<=[4]}
  %copy.3 = c128[64,4,2,480]{3,2,1,0} copy(%copy.22), sharding={devices=[1,1,1,2,2]<=[2,2]T(1,0) last_tile_dim_replicate}, metadata={op_name="jit(_full_run)/jit(main)/while/body/jit(_matvec_impl)/pjit" source_file="/global/homes/j/jackm/software/lorrax_C/src/bse/bse_ring_comm.py" source_line=429}
  %dot.47 = c128[64,4,4]{2,1,0} dot(%reshape.446, %copy.3), lhs_batch_dims={3}, lhs_contracting_dims={1,2}, rhs_batch_dims={0}, rhs_contracting_dims={3,2}, sharding={devices=[1,2,2]<=[4]}, metadata={op_name="jit(_full_run)/jit(main)/while/body/jit(_matvec_impl)/jit(_apply_W_from_T)/kvsN,bcNsk->bcvk/dot_general" source_file="/global/homes/j/jackm/software/lorrax_C/src/bse/bse_ring_comm.py" source_line=404}
  %constant.1575 = c128[] constant((0.125, 0)), sharding={replicated}, metadata={op_name="jit(_full_run)/jit(main)/while/body/jit(_matvec_impl)/jit(_apply_W_from_T)/convert_element_type" source_file="/global/homes/j/jackm/software/lorrax_C/src/bse/bse_ring_comm.py" source_line=405}
  %broadcast.1134 = c128[64,4,4]{2,1,0} broadcast(%constant.1575), dimensions={}, sharding={devices=[1,2,2]<=[4]}, metadata={op_name="jit(_full_run)/jit(main)/while/body/jit(_matvec_impl)/jit(_apply_W_from_T)/div" source_file="/global/homes/j/jackm/software/lorrax_C/src/bse/bse_ring_comm.py" source_line=405}
  %multiply.445 = c128[64,4,4]{2,1,0} multiply(%dot.47, %broadcast.1134), sharding={devices=[1,2,2]<=[4]}, metadata={op_name="jit(_full_run)/jit(main)/while/body/jit(_matvec_impl)/jit(_apply_W_from_T)/div" source_file="/global/homes/j/jackm/software/lorrax_C/src/bse/bse_ring_comm.py" source_line=405}
  %reshape.456 = c128[64,1,4,4]{3,2,1,0} reshape(%multiply.445), sharding={devices=[1,1,2,2]<=[4]}, metadata={op_name="jit(_full_run)/jit(main)/while/body/jit(_matvec_impl)/jit(_apply_W_from_T)/div" source_file="/global/homes/j/jackm/software/lorrax_C/src/bse/bse_ring_comm.py" source_line=405}
  %transpose.82 = c128[1,4,4,64]{2,1,0,3} transpose(%reshape.456), dimensions={1,2,3,0}, sharding={devices=[1,2,2,1]<=[4]}, metadata={op_name="jit(_full_run)/jit(main)/while/body/jit(_matvec_impl)/jit(_apply_W_from_T)/div" source_file="/global/homes/j/jackm/software/lorrax_C/src/bse/bse_ring_comm.py" source_line=405}
  %copy.2 = c128[1,4,4,64]{3,2,1,0} copy(%transpose.82), sharding={devices=[1,2,2,1]<=[4]}, metadata={op_name="jit(_full_run)/jit(main)/while/body/jit(_matvec_impl)/pjit" source_file="/global/homes/j/jackm/software/lorrax_C/src/bse/bse_ring_comm.py" source_line=429}
  %subtract.48 = c128[1,4,4,64]{3,2,1,0} subtract(%add.792, %copy.2), sharding={devices=[1,2,2,1]<=[4]}, metadata={op_name="jit(_full_run)/jit(main)/while/body/jit(_matvec_impl)/sub" source_file="/global/homes/j/jackm/software/lorrax_C/src/bse/bse_ring_comm.py" source_line=430}
  %copy.1 = c128[1,4,4,64]{3,2,1,0} copy(%subtract.48), sharding={devices=[1,2,2,1]<=[4]}, metadata={op_name="jit(_full_run)/jit(main)/while/body/pjit" source_file="/global/homes/j/jackm/software/lorrax_C/src/bse/bse_lanczos.py" source_line=163}
  %reshape.438 = c128[1024]{0} reshape(%copy.1), sharding={devices=[2,2]<=[4] last_tile_dim_replicate}, metadata={op_name="jit(_full_run)/jit(main)/while/body/reshape" source_file="/global/homes/j/jackm/software/lorrax_C/src/bse/bse_lanczos.py" source_line=167}
  %real.54 = f64[1024]{0} real(%get-tuple-element.490), sharding={devices=[2,2]<=[4] last_tile_dim_replicate}, metadata={op_name="jit(_full_run)/jit(main)/while/body/real" source_file="/global/homes/j/jackm/software/lorrax_C/src/solvers/lanczos.py" source_line=260}
  %imag.44 = f64[1024]{0} imag(%get-tuple-element.490), sharding={devices=[2,2]<=[4] last_tile_dim_replicate}, metadata={op_name="jit(_full_run)/jit(main)/while/body/imag" source_file="/global/homes/j/jackm/software/lorrax_C/src/solvers/lanczos.py" source_line=260}
  %negate.81 = f64[1024]{0} negate(%imag.44), sharding={devices=[2,2]<=[4] last_tile_dim_replicate}, metadata={op_name="jit(_full_run)/jit(main)/while/body/neg" source_file="/global/homes/j/jackm/software/lorrax_C/src/solvers/lanczos.py" source_line=260}
  %complex.43 = c128[1024]{0} complex(%real.54, %negate.81), sharding={devices=[2,2]<=[4] last_tile_dim_replicate}, metadata={op_name="jit(_full_run)/jit(main)/while/body/complex" source_file="/global/homes/j/jackm/software/lorrax_C/src/solvers/lanczos.py" source_line=260}
  %multiply.437 = c128[1024]{0} multiply(%complex.43, %reshape.438), sharding={devices=[2,2]<=[4] last_tile_dim_replicate}
  %constant.1559 = c128[] constant((0, 0))
  %reduce.40 = c128[] reduce(%multiply.437, %constant.1559), dimensions={0}, to_apply=%scalar_add_computation, sharding={replicated}, metadata={op_name="jit(_full_run)/jit(main)/while/body/dot_general" source_file="/global/homes/j/jackm/software/lorrax_C/src/solvers/lanczos.py" source_line=260}
  %real.55 = f64[] real(%reduce.40), sharding={replicated}, metadata={op_name="jit(_full_run)/jit(main)/while/body/real" source_file="/global/homes/j/jackm/software/lorrax_C/src/solvers/lanczos.py" source_line=260}
  %convert.110 = c128[] convert(%real.55), sharding={replicated}, metadata={op_name="jit(_full_run)/jit(main)/while/body/convert_element_type" source_file="/global/homes/j/jackm/software/lorrax_C/src/solvers/lanczos.py" source_line=263}
  %broadcast.1108 = c128[1024]{0} broadcast(%convert.110), dimensions={}, sharding={devices=[2,2]<=[4] last_tile_dim_replicate}, metadata={op_name="jit(_full_run)/jit(main)/while/body/mul" source_file="/global/homes/j/jackm/software/lorrax_C/src/solvers/lanczos.py" source_line=263}
  %multiply.435 = c128[1024]{0} multiply(%broadcast.1108, %get-tuple-element.490), sharding={devices=[2,2]<=[4] last_tile_dim_replicate}, metadata={op_name="jit(_full_run)/jit(main)/while/body/mul" source_file="/global/homes/j/jackm/software/lorrax_C/src/solvers/lanczos.py" source_line=263}
  %subtract.49 = c128[1024]{0} subtract(%reshape.438, %multiply.435), sharding={devices=[2,2]<=[4] last_tile_dim_replicate}, metadata={op_name="jit(_full_run)/jit(main)/while/body/sub" source_file="/global/homes/j/jackm/software/lorrax_C/src/solvers/lanczos.py" source_line=263}
  %constant.1676 = s64[] constant(0), sharding={replicated}
  %compare.314 = pred[] compare(%get-tuple-element.494, %constant.1676), direction=GT, sharding={replicated}, metadata={op_name="jit(_full_run)/jit(main)/while/body/gt" source_file="/global/homes/j/jackm/software/lorrax_C/src/solvers/lanczos.py" source_line=265}
  %get-tuple-element.491 = f64[200]{0} get-tuple-element(%arg_tuple.13), index=3, sharding={replicated}
  %constant.1571 = s64[] constant(-1), sharding={replicated}
  %add.799 = s64[] add(%get-tuple-element.494, %constant.1571), sharding={replicated}, metadata={op_name="jit(_full_run)/jit(main)/while/body/sub" source_file="/global/homes/j/jackm/software/lorrax_C/src/solvers/lanczos.py" source_line=265}
  %constant.1677 = s64[] constant(0), sharding={replicated}
  %compare.315 = pred[] compare(%add.799, %constant.1677), direction=LT, sharding={replicated}, metadata={op_name="jit(_full_run)/jit(main)/while/body/lt" source_file="/global/homes/j/jackm/software/lorrax_C/src/solvers/lanczos.py" source_line=265}
  %constant.1576 = s64[] constant(199), sharding={replicated}
  %add.801 = s64[] add(%get-tuple-element.494, %constant.1576), sharding={replicated}, metadata={op_name="jit(_full_run)/jit(main)/while/body/add" source_file="/global/homes/j/jackm/software/lorrax_C/src/solvers/lanczos.py" source_line=265}
  %select.476 = s64[] select(%compare.315, %add.801, %add.799), sharding={replicated}, metadata={op_name="jit(_full_run)/jit(main)/while/body/select_n" source_file="/global/homes/j/jackm/software/lorrax_C/src/solvers/lanczos.py" source_line=265}
  %dynamic-slice.71 = f64[1]{0} dynamic-slice(%get-tuple-element.491, %select.476), dynamic_slice_sizes={1}, sharding={replicated}, metadata={op_name="jit(_full_run)/jit(main)/while/body/dynamic_slice" source_file="/global/homes/j/jackm/software/lorrax_C/src/solvers/lanczos.py" source_line=265}
  %reshape.439 = f64[] reshape(%dynamic-slice.71), sharding={replicated}, metadata={op_name="jit(_full_run)/jit(main)/while/body/squeeze" source_file="/global/homes/j/jackm/software/lorrax_C/src/solvers/lanczos.py" source_line=265}
  %constant.1549 = f64[] constant(0), sharding={replicated}
  %select.477 = f64[] select(%compare.314, %reshape.439, %constant.1549), sharding={replicated}, metadata={op_name="jit(_full_run)/jit(main)/while/body/jit(_where)/select_n" source_file="/global/homes/j/jackm/software/lorrax_C/src/solvers/lanczos.py" source_line=265}
  %convert.111 = c128[] convert(%select.477), sharding={replicated}, metadata={op_name="jit(_full_run)/jit(main)/while/body/convert_element_type" source_file="/global/homes/j/jackm/software/lorrax_C/src/solvers/lanczos.py" source_line=266}
  %broadcast.1122 = c128[1024,1]{1,0} broadcast(%convert.111), dimensions={}, sharding={devices=[2,1,2]<=[4] last_tile_dim_replicate}, metadata={op_name="jit(_full_run)/jit(main)/while/body/mul" source_file="/global/homes/j/jackm/software/lorrax_C/src/solvers/lanczos.py" source_line=266}
  %constant.1680 = s64[] constant(0)
  %constant.1572 = s64[] constant(-1), sharding={replicated}
  %add.800 = s64[] add(%get-tuple-element.494, %constant.1572), sharding={replicated}, metadata={op_name="jit(_full_run)/jit(main)/while/body/sub" source_file="/global/homes/j/jackm/software/lorrax_C/src/solvers/lanczos.py" source_line=264}
  %constant.1678 = s64[] constant(0), sharding={replicated}
  %maximum.37 = s64[] maximum(%add.800, %constant.1678), sharding={replicated}, metadata={op_name="jit(_full_run)/jit(main)/while/body/max" source_file="/global/homes/j/jackm/software/lorrax_C/src/solvers/lanczos.py" source_line=264}
  %dynamic-slice.72 = c128[1024,1]{1,0} dynamic-slice(%get-tuple-element.493, %constant.1680, %maximum.37), dynamic_slice_sizes={1024,1}, sharding={devices=[2,1,2]<=[4] last_tile_dim_replicate}, metadata={op_name="jit(_full_run)/jit(main)/while/body/dynamic_slice" source_file="/global/homes/j/jackm/software/lorrax_C/src/solvers/lanczos.py" source_line=264}
  %multiply.438 = c128[1024,1]{1,0} multiply(%broadcast.1122, %dynamic-slice.72), sharding={devices=[2,1,2]<=[4] last_tile_dim_replicate}, metadata={op_name="jit(_full_run)/jit(main)/while/body/mul" source_file="/global/homes/j/jackm/software/lorrax_C/src/solvers/lanczos.py" source_line=266}
  %reshape.447 = c128[1024]{0} reshape(%multiply.438), sharding={devices=[2,2]<=[4] last_tile_dim_replicate}, metadata={op_name="jit(_full_run)/jit(main)/while/body/mul" source_file="/global/homes/j/jackm/software/lorrax_C/src/solvers/lanczos.py" source_line=266}
  %subtract.50 = c128[1024]{0} subtract(%subtract.49, %reshape.447), sharding={devices=[2,2]<=[4] last_tile_dim_replicate}, metadata={op_name="jit(_full_run)/jit(main)/while/body/sub" source_file="/global/homes/j/jackm/software/lorrax_C/src/solvers/lanczos.py" source_line=266}
  %constant.1674 = s64[] constant(1), sharding={replicated}
  %add.793 = s64[] add(%get-tuple-element.494, %constant.1674), sharding={replicated}, metadata={op_name="jit(_full_run)/jit(main)/while/body/add" source_file="/global/homes/j/jackm/software/lorrax_C/src/solvers/lanczos.py" source_line=275}
  %tuple.113 = (s64[], c128[1024]{0}, s64[], s64[], c128[1024,200]{1,0}) tuple(%maximum.36, %subtract.50, %add.793, %get-tuple-element.494, %get-tuple-element.493), sharding={{replicated}, {devices=[2,2]<=[4] last_tile_dim_replicate}, {replicated}, {replicated}, {devices=[2,1,2]<=[4] last_tile_dim_replicate}}, metadata={op_name="jit(_full_run)/jit(main)/while/body/while" source_file="/global/homes/j/jackm/software/lorrax_C/src/solvers/lanczos.py" source_line=275}
  %while.32 = (s64[], c128[1024]{0}, s64[], s64[], c128[1024,200]{1,0}) while(%tuple.113), condition=%region_19.2019, body=%region_18.1991, sharding={{replicated}, {devices=[2,2]<=[4] last_tile_dim_replicate}, {replicated}, {replicated}, {devices=[2,1,2]<=[4] last_tile_dim_replicate}}, metadata={op_name="jit(_full_run)/jit(main)/while/body/while" source_file="/global/homes/j/jackm/software/lorrax_C/src/solvers/lanczos.py" source_line=275}
  %get-tuple-element.478 = c128[1024]{0} get-tuple-element(%while.32), index=1, sharding={devices=[2,2]<=[4] last_tile_dim_replicate}, metadata={op_name="jit(_full_run)/jit(main)/while/body/while" source_file="/global/homes/j/jackm/software/lorrax_C/src/solvers/lanczos.py" source_line=275}
  %real.56 = f64[1024]{0} real(%get-tuple-element.478), sharding={devices=[2,2]<=[4] last_tile_dim_replicate}, metadata={op_name="jit(_full_run)/jit(main)/while/body/jit(norm)/real" source_file="/global/homes/j/jackm/software/lorrax_C/src/solvers/lanczos.py" source_line=277}
  %imag.45 = f64[1024]{0} imag(%get-tuple-element.478), sharding={devices=[2,2]<=[4] last_tile_dim_replicate}, metadata={op_name="jit(_full_run)/jit(main)/while/body/jit(norm)/imag" source_file="/global/homes/j/jackm/software/lorrax_C/src/solvers/lanczos.py" source_line=277}
  %negate.82 = f64[1024]{0} negate(%imag.45), sharding={devices=[2,2]<=[4] last_tile_dim_replicate}, metadata={op_name="jit(_full_run)/jit(main)/while/body/jit(norm)/neg" source_file="/global/homes/j/jackm/software/lorrax_C/src/solvers/lanczos.py" source_line=277}
  %complex.44 = c128[1024]{0} complex(%real.56, %negate.82), sharding={devices=[2,2]<=[4] last_tile_dim_replicate}, metadata={op_name="jit(_full_run)/jit(main)/while/body/jit(norm)/complex" source_file="/global/homes/j/jackm/software/lorrax_C/src/solvers/lanczos.py" source_line=277}
  %multiply.436 = c128[1024]{0} multiply(%get-tuple-element.478, %complex.44), sharding={devices=[2,2]<=[4] last_tile_dim_replicate}, metadata={op_name="jit(_full_run)/jit(main)/while/body/jit(norm)/mul" source_file="/global/homes/j/jackm/software/lorrax_C/src/solvers/lanczos.py" source_line=277}
  %real.57 = f64[1024]{0} real(%multiply.436), sharding={devices=[2,2]<=[4] last_tile_dim_replicate}, metadata={op_name="jit(_full_run)/jit(main)/while/body/jit(norm)/real" source_file="/global/homes/j/jackm/software/lorrax_C/src/solvers/lanczos.py" source_line=277}
  %constant.1551 = f64[] constant(0)
  %reduce.39 = f64[] reduce(%real.57, %constant.1551), dimensions={0}, to_apply=%region_20.2027, sharding={replicated}, metadata={op_name="jit(_full_run)/jit(main)/while/body/jit(norm)/reduce_sum" source_file="/global/homes/j/jackm/software/lorrax_C/src/solvers/lanczos.py" source_line=277}
  %sqrt.84 = f64[] sqrt(%reduce.39), sharding={replicated}, metadata={op_name="jit(_full_run)/jit(main)/while/body/jit(norm)/sqrt" source_file="/global/homes/j/jackm/software/lorrax_C/src/solvers/lanczos.py" source_line=277}
  %constant.1552 = f64[] constant(1e-15), sharding={replicated}
  %maximum.38 = f64[] maximum(%sqrt.84, %constant.1552), sharding={replicated}, metadata={op_name="jit(_full_run)/jit(main)/while/body/max" source_file="/global/homes/j/jackm/software/lorrax_C/src/solvers/lanczos.py" source_line=280}
  %convert.113 = c128[] convert(%maximum.38), sharding={replicated}, metadata={op_name="jit(_full_run)/jit(main)/while/body/convert_element_type" source_file="/global/homes/j/jackm/software/lorrax_C/src/solvers/lanczos.py" source_line=280}
  %broadcast.1110 = c128[1024]{0} broadcast(%convert.113), dimensions={}, sharding={devices=[2,2]<=[4] last_tile_dim_replicate}, metadata={op_name="jit(_full_run)/jit(main)/while/body/div" source_file="/global/homes/j/jackm/software/lorrax_C/src/solvers/lanczos.py" source_line=280}
  %divide.192 = c128[1024]{0} divide(%get-tuple-element.478, %broadcast.1110), sharding={devices=[2,2]<=[4] last_tile_dim_replicate}, metadata={op_name="jit(_full_run)/jit(main)/while/body/div" source_file="/global/homes/j/jackm/software/lorrax_C/src/solvers/lanczos.py" source_line=280}
  %reshape.449 = c128[1024,1]{1,0} reshape(%divide.192), sharding={devices=[2,1,2]<=[4] last_tile_dim_replicate}
  %constant.1566 = s32[] constant(0)
  %dynamic-slice.75 = c128[1024,1]{1,0} dynamic-slice(%get-tuple-element.493, %constant.1566, %convert.112), dynamic_slice_sizes={1024,1}, sharding={devices=[2,1,2]<=[4] last_tile_dim_replicate}
  %select.481 = c128[1024,1]{1,0} select(%broadcast.1114, %reshape.449, %dynamic-slice.75), sharding={devices=[2,1,2]<=[4] last_tile_dim_replicate}
  %constant.1567 = s32[] constant(0)
  %dynamic-update-slice.18 = c128[1024,200]{1,0} dynamic-update-slice(%get-tuple-element.493, %select.481, %constant.1567, %convert.112), sharding={devices=[2,1,2]<=[4] last_tile_dim_replicate}, metadata={op_name="jit(_full_run)/jit(main)/while/body/scatter" source_file="/global/homes/j/jackm/software/lorrax_C/src/solvers/lanczos.py" source_line=281}
  %get-tuple-element.492 = f64[200]{0} get-tuple-element(%arg_tuple.13), index=2, sharding={replicated}
  %constant.1577 = s32[] constant(0), sharding={replicated}
  %constant.1682 = s64[] constant(0), sharding={replicated}
  %compare.317 = pred[] compare(%get-tuple-element.494, %constant.1682), direction=LT, sharding={replicated}, metadata={op_name="jit(_full_run)/jit(main)/while/body/lt" source_file="/global/homes/j/jackm/software/lorrax_C/src/solvers/lanczos.py" source_line=261}
  %constant.1683 = s64[] constant(200), sharding={replicated}
  %add.796 = s64[] add(%get-tuple-element.494, %constant.1683), sharding={replicated}, metadata={op_name="jit(_full_run)/jit(main)/while/body/add" source_file="/global/homes/j/jackm/software/lorrax_C/src/solvers/lanczos.py" source_line=261}
  %select.479 = s64[] select(%compare.317, %add.796, %get-tuple-element.494), sharding={replicated}, metadata={op_name="jit(_full_run)/jit(main)/while/body/select_n" source_file="/global/homes/j/jackm/software/lorrax_C/src/solvers/lanczos.py" source_line=261}
  %convert.114 = s32[] convert(%select.479), sharding={replicated}, metadata={op_name="jit(_full_run)/jit(main)/while/body/convert_element_type" source_file="/global/homes/j/jackm/software/lorrax_C/src/solvers/lanczos.py" source_line=261}
  %compare.321 = pred[] compare(%constant.1577, %convert.114), direction=LE, sharding={replicated}
  %constant.1579 = s32[] constant(199), sharding={replicated}
  %compare.322 = pred[] compare(%constant.1579, %convert.114), direction=GE, sharding={replicated}
  %and.79 = pred[] and(%compare.321, %compare.322), sharding={replicated}
  %reshape.470 = pred[1]{0} reshape(%and.79), sharding={replicated}
  %reshape.450 = f64[1]{0} reshape(%real.55), sharding={replicated}
  %dynamic-slice.73 = f64[1]{0} dynamic-slice(%get-tuple-element.492, %convert.114), dynamic_slice_sizes={1}, sharding={replicated}
  %select.482 = f64[1]{0} select(%reshape.470, %reshape.450, %dynamic-slice.73), sharding={replicated}
  %dynamic-update-slice.16 = f64[200]{0} dynamic-update-slice(%get-tuple-element.492, %select.482, %convert.114), sharding={replicated}, metadata={op_name="jit(_full_run)/jit(main)/while/body/scatter" source_file="/global/homes/j/jackm/software/lorrax_C/src/solvers/lanczos.py" source_line=261}
  %constant.1580 = s32[] constant(0), sharding={replicated}
  %constant.1679 = s64[] constant(0), sharding={replicated}
  %compare.318 = pred[] compare(%get-tuple-element.494, %constant.1679), direction=LT, sharding={replicated}, metadata={op_name="jit(_full_run)/jit(main)/while/body/lt" source_file="/global/homes/j/jackm/software/lorrax_C/src/solvers/lanczos.py" source_line=278}
  %constant.1684 = s64[] constant(200), sharding={replicated}
  %add.797 = s64[] add(%get-tuple-element.494, %constant.1684), sharding={replicated}, metadata={op_name="jit(_full_run)/jit(main)/while/body/add" source_file="/global/homes/j/jackm/software/lorrax_C/src/solvers/lanczos.py" source_line=278}
  %select.480 = s64[] select(%compare.318, %add.797, %get-tuple-element.494), sharding={replicated}, metadata={op_name="jit(_full_run)/jit(main)/while/body/select_n" source_file="/global/homes/j/jackm/software/lorrax_C/src/solvers/lanczos.py" source_line=278}
  %convert.115 = s32[] convert(%select.480), sharding={replicated}, metadata={op_name="jit(_full_run)/jit(main)/while/body/convert_element_type" source_file="/global/homes/j/jackm/software/lorrax_C/src/solvers/lanczos.py" source_line=278}
  %compare.323 = pred[] compare(%constant.1580, %convert.115), direction=LE, sharding={replicated}
  %constant.1581 = s32[] constant(199), sharding={replicated}
  %compare.324 = pred[] compare(%constant.1581, %convert.115), direction=GE, sharding={replicated}
  %and.80 = pred[] and(%compare.323, %compare.324), sharding={replicated}
  %reshape.473 = pred[1]{0} reshape(%and.80), sharding={replicated}
  %reshape.451 = f64[1]{0} reshape(%sqrt.84), sharding={replicated}
  %dynamic-slice.74 = f64[1]{0} dynamic-slice(%get-tuple-element.491, %convert.115), dynamic_slice_sizes={1}, sharding={replicated}
  %select.483 = f64[1]{0} select(%reshape.473, %reshape.451, %dynamic-slice.74), sharding={replicated}
  %dynamic-update-slice.17 = f64[200]{0} dynamic-update-slice(%get-tuple-element.491, %select.483, %convert.115), sharding={replicated}, metadata={op_name="jit(_full_run)/jit(main)/while/body/scatter" source_file="/global/homes/j/jackm/software/lorrax_C/src/solvers/lanczos.py" source_line=278}
  ROOT %tuple.108 = (s64[], c128[1024,200]{1,0}, f64[200]{0}, f64[200]{0}, c128[1024]{0}, /*index=5*/c128[64,4,2,480]{3,2,1,0}, c128[64,4,2,480]{3,2,1,0}, c128[64,4,2,480]{3,2,1,0}, c128[64,4,2,480]{3,2,1,0}, f64[64,4]{1,0}, /*index=10*/f64[64,4]{1,0}, c128[480,480,4,4,4]{4,3,2,1,0}, c128[480,480]{1,0}) tuple(%add.789, %dynamic-update-slice.18, %dynamic-update-slice.16, %dynamic-update-slice.17, %divide.192, /*index=5*/%get-tuple-element.489, %get-tuple-element.488, %get-tuple-element.487, %get-tuple-element.486, %get-tuple-element.485, /*index=10*/%get-tuple-element.484, %get-tuple-element.483, %get-tuple-element.482), sharding={{replicated}, {devices=[2,1,2]<=[4] last_tile_dim_replicate}, {replicated}, {replicated}, {devices=[2,2]<=[4] last_tile_dim_replicate}, /*index=5*/{devices=[1,1,1,2,2]<=[4] last_tile_dim_replicate}, {devices=[1,1,1,2,2]<=[2,2]T(1,0) last_tile_dim_replicate}, {devices=[1,1,1,2,2]<=[4] last_tile_dim_replicate}, {devices=[1,1,1,2,2]<=[2,2]T(1,0) last_tile_dim_replicate}, {replicated}, /*index=10*/{replicated}, {devices=[2,2,1,1,1]<=[4]}, {devices=[2,2]<=[4]}}
  %constant.1537 = s64[] constant(0)
  %constant.1538 = s64[] constant(0)
  %constant.1540 = s32[] constant(0)
  %constant.1541 = s32[] constant(2)
  %constant.1542 = s32[] constant(4)
  %constant.1544 = s64[] constant(0)
  %constant.1547 = s64[] constant(1)
  %constant.1548 = s64[] constant(200)
}

%region_23.2161.clone.clone (arg_tuple.12: (s64[], c128[1024,200], f64[200], f64[200], c128[1024], /*index=5*/c128[64,4,2,480], c128[64,4,2,480], c128[64,4,2,480], c128[64,4,2,480], f64[64,4], /*index=10*/f64[64,4], c128[480,480,4,4,4], c128[480,480])) -> pred[] {
  %arg_tuple.12 = (s64[], c128[1024,200]{1,0}, f64[200]{0}, f64[200]{0}, c128[1024]{0}, /*index=5*/c128[64,4,2,480]{3,2,1,0}, c128[64,4,2,480]{3,2,1,0}, c128[64,4,2,480]{3,2,1,0}, c128[64,4,2,480]{3,2,1,0}, f64[64,4]{1,0}, /*index=10*/f64[64,4]{1,0}, c128[480,480,4,4,4]{4,3,2,1,0}, c128[480,480]{1,0}) parameter(0), sharding={{replicated}, {devices=[2,1,2]<=[4] last_tile_dim_replicate}, {replicated}, {replicated}, {devices=[2,2]<=[4] last_tile_dim_replicate}, /*index=5*/{devices=[1,1,1,2,2]<=[4] last_tile_dim_replicate}, {devices=[1,1,1,2,2]<=[2,2]T(1,0) last_tile_dim_replicate}, {devices=[1,1,1,2,2]<=[4] last_tile_dim_replicate}, {devices=[1,1,1,2,2]<=[2,2]T(1,0) last_tile_dim_replicate}, {replicated}, /*index=10*/{replicated}, {devices=[2,2,1,1,1]<=[4]}, {devices=[2,2]<=[4]}}
  %get-tuple-element.476 = s64[] get-tuple-element(%arg_tuple.12), index=0, sharding={replicated}
  %constant.1530 = s64[] constant(200), sharding={replicated}
  ROOT %compare.311 = pred[] compare(%get-tuple-element.476, %constant.1530), direction=LT, sharding={replicated}, metadata={op_name="jit(_full_run)/jit(main)/while/cond/lt" source_file="/global/homes/j/jackm/software/lorrax_C/src/solvers/lanczos.py" source_line=286}
}

ENTRY %main.2347 (Arg_0.1: c128[64,4,2,480], Arg_1.2: c128[64,4,2,480], Arg_2.3: c128[64,4,2,480], Arg_3.4: c128[64,4,2,480], Arg_4.5: f64[64,4], Arg_5.6: f64[64,4], Arg_6.7: c128[480,480,4,4,4], Arg_7.8: c128[480,480]) -> (f64[20], c128[20,1024]) {
  %constant.18 = c128[] constant((0, 0))
  %iota.14 = s64[200,200]{1,0} iota(), iota_dimension=0, metadata={op_name="jit(_full_run)/jit(main)/jit(_diag)/iota" source_file="/global/homes/j/jackm/software/lorrax_C/src/solvers/lanczos.py" source_line=288}
  %iota.15 = s64[200,200]{1,0} iota(), iota_dimension=1, metadata={op_name="jit(_full_run)/jit(main)/jit(_diag)/iota" source_file="/global/homes/j/jackm/software/lorrax_C/src/solvers/lanczos.py" source_line=288}
  %compare.158 = pred[200,200]{1,0} compare(%iota.14, %iota.15), direction=EQ, metadata={op_name="jit(_full_run)/jit(main)/jit(_diag)/eq" source_file="/global/homes/j/jackm/software/lorrax_C/src/solvers/lanczos.py" source_line=288}
  %constant.29 = s64[] constant(0), sharding={replicated}
  %iota.19 = s32[2]{0} iota(), iota_dimension=0, sharding={replicated}
  %constant.1158 = s32[] constant(199), sharding={replicated}
  %broadcast.1042 = s32[2]{0} broadcast(%constant.1158), dimensions={}, sharding={replicated}
  %multiply.422 = s32[2]{0} multiply(%iota.19, %broadcast.1042), sharding={replicated}
  %constant.1521 = s32[] constant(0), sharding={replicated}
  %broadcast.1074 = s32[2]{0} broadcast(%constant.1521), dimensions={}, sharding={replicated}
  %compare.303 = pred[2]{0} compare(%multiply.422, %broadcast.1074), direction=GE, sharding={replicated}
  %constant.1152 = pred[] constant(true)
  %reduce.37 = pred[] reduce(%compare.303, %constant.1152), dimensions={0}, to_apply=%and.reduce_sub_computation.3, sharding={replicated}
  %broadcast.1086 = pred[1024]{0} broadcast(%reduce.37), dimensions={}, sharding={devices=[2,2]<=[4] last_tile_dim_replicate}
  %constant.1663 = f64[] constant(-0.99999999999999989), sharding={replicated}
  %broadcast.516 = f64[1024]{0} broadcast(%constant.1663), dimensions={}, sharding={devices=[2,2]<=[4] last_tile_dim_replicate}, metadata={op_name="jit(_full_run)/jit(main)/jit(_normal)/jit(_normal_real)/jit(_uniform)/max" source_file="/global/homes/j/jackm/software/lorrax_C/src/solvers/lanczos.py" source_line=247}
  %iota.5 = u64[1024]{0} iota(), iota_dimension=0, sharding={devices=[2,2]<=[4] last_tile_dim_replicate}, metadata={op_name="jit(_full_run)/jit(main)/jit(_normal)/jit(_normal_real)/jit(_uniform)/iota_2x32_shape" source_file="/global/homes/j/jackm/software/lorrax_C/src/solvers/lanczos.py" source_line=247}
  %constant.448 = u64[] constant(32), sharding={replicated}
  %broadcast.517 = u64[1024]{0} broadcast(%constant.448), dimensions={}, sharding={devices=[2,2]<=[4] last_tile_dim_replicate}
  %shift-right-logical.170 = u64[1024]{0} shift-right-logical(%iota.5, %broadcast.517), sharding={devices=[2,2]<=[4] last_tile_dim_replicate}, metadata={op_name="jit(_full_run)/jit(main)/jit(_normal)/jit(_normal_real)/jit(_uniform)/iota_2x32_shape" source_file="/global/homes/j/jackm/software/lorrax_C/src/solvers/lanczos.py" source_line=247}
  %convert.57 = u32[1024]{0} convert(%shift-right-logical.170), sharding={devices=[2,2]<=[4] last_tile_dim_replicate}, metadata={op_name="jit(_full_run)/jit(main)/jit(_normal)/jit(_normal_real)/jit(_uniform)/iota_2x32_shape" source_file="/global/homes/j/jackm/software/lorrax_C/src/solvers/lanczos.py" source_line=247}
  %iota.4 = u64[2]{0} iota(), iota_dimension=0, sharding={replicated}, metadata={op_name="jit(_full_run)/jit(main)/jit(_threefry_split)/iota_2x32_shape" source_file="/global/homes/j/jackm/software/lorrax_C/src/solvers/lanczos.py" source_line=245}
  %constant.430 = u64[] constant(32), sharding={replicated}
  %broadcast.481 = u64[2]{0} broadcast(%constant.430), dimensions={}, sharding={replicated}
  %shift-right-logical.149 = u64[2]{0} shift-right-logical(%iota.4, %broadcast.481), sharding={replicated}, metadata={op_name="jit(_full_run)/jit(main)/jit(_threefry_split)/iota_2x32_shape" source_file="/global/homes/j/jackm/software/lorrax_C/src/solvers/lanczos.py" source_line=245}
  %convert.55 = u32[2]{0} convert(%shift-right-logical.149), sharding={replicated}, metadata={op_name="jit(_full_run)/jit(main)/jit(_threefry_split)/iota_2x32_shape" source_file="/global/homes/j/jackm/software/lorrax_C/src/solvers/lanczos.py" source_line=245}
  %convert.56 = u32[2]{0} convert(%iota.4), sharding={replicated}, metadata={op_name="jit(_full_run)/jit(main)/jit(_threefry_split)/iota_2x32_shape" source_file="/global/homes/j/jackm/software/lorrax_C/src/solvers/lanczos.py" source_line=245}
  %constant.1664 = u32[] constant(42), sharding={replicated}, metadata={op_name="jit(_full_run)/jit(main)/jit(_threefry_split)/squeeze" source_file="/global/homes/j/jackm/software/lorrax_C/src/solvers/lanczos.py" source_line=245}
  %broadcast.483 = u32[2]{0} broadcast(%constant.1664), dimensions={}, sharding={replicated}, metadata={op_name="jit(_full_run)/jit(main)/jit(_threefry_split)/add" source_file="/global/homes/j/jackm/software/lorrax_C/src/solvers/lanczos.py" source_line=245}
  %add.450 = u32[2]{0} add(%convert.56, %broadcast.483), sharding={replicated}, metadata={op_name="jit(_full_run)/jit(main)/jit(_threefry_split)/add" source_file="/global/homes/j/jackm/software/lorrax_C/src/solvers/lanczos.py" source_line=245}
  %add.454 = u32[2]{0} add(%convert.55, %add.450), sharding={replicated}, metadata={op_name="jit(_full_run)/jit(main)/jit(_threefry_split)/add" source_file="/global/homes/j/jackm/software/lorrax_C/src/solvers/lanczos.py" source_line=245}
  %constant.431 = u32[] constant(13), sharding={replicated}
  %broadcast.484 = u32[2]{0} broadcast(%constant.431), dimensions={}, sharding={replicated}
  %shift-left.144 = u32[2]{0} shift-left(%add.450, %broadcast.484), sharding={replicated}, metadata={op_name="jit(_full_run)/jit(main)/jit(_threefry_split)/shift_left" source_file="/global/homes/j/jackm/software/lorrax_C/src/solvers/lanczos.py" source_line=245}
  %constant.432 = u32[] constant(19), sharding={replicated}
  %broadcast.485 = u32[2]{0} broadcast(%constant.432), dimensions={}, sharding={replicated}
  %shift-right-logical.150 = u32[2]{0} shift-right-logical(%add.450, %broadcast.485), sharding={replicated}, metadata={op_name="jit(_full_run)/jit(main)/jit(_threefry_split)/shift_right_logical" source_file="/global/homes/j/jackm/software/lorrax_C/src/solvers/lanczos.py" source_line=245}
  %or.155 = u32[2]{0} or(%shift-left.144, %shift-right-logical.150), sharding={replicated}, metadata={op_name="jit(_full_run)/jit(main)/jit(_threefry_split)/or" source_file="/global/homes/j/jackm/software/lorrax_C/src/solvers/lanczos.py" source_line=245}
  %xor.154 = u32[2]{0} xor(%add.454, %or.155), sharding={replicated}, metadata={op_name="jit(_full_run)/jit(main)/jit(_threefry_split)/xor" source_file="/global/homes/j/jackm/software/lorrax_C/src/solvers/lanczos.py" source_line=245}
  %add.455 = u32[2]{0} add(%add.454, %xor.154), sharding={replicated}, metadata={op_name="jit(_full_run)/jit(main)/jit(_threefry_split)/add" source_file="/global/homes/j/jackm/software/lorrax_C/src/solvers/lanczos.py" source_line=245}
  %constant.433 = u32[] constant(15), sharding={replicated}
  %broadcast.486 = u32[2]{0} broadcast(%constant.433), dimensions={}, sharding={replicated}
  %shift-left.145 = u32[2]{0} shift-left(%xor.154, %broadcast.486), sharding={replicated}, metadata={op_name="jit(_full_run)/jit(main)/jit(_threefry_split)/shift_left" source_file="/global/homes/j/jackm/software/lorrax_C/src/solvers/lanczos.py" source_line=245}
  %constant.434 = u32[] constant(17), sharding={replicated}
  %broadcast.487 = u32[2]{0} broadcast(%constant.434), dimensions={}, sharding={replicated}
  %shift-right-logical.151 = u32[2]{0} shift-right-logical(%xor.154, %broadcast.487), sharding={replicated}, metadata={op_name="jit(_full_run)/jit(main)/jit(_threefry_split)/shift_right_logical" source_file="/global/homes/j/jackm/software/lorrax_C/src/solvers/lanczos.py" source_line=245}
  %or.156 = u32[2]{0} or(%shift-left.145, %shift-right-logical.151), sharding={replicated}, metadata={op_name="jit(_full_run)/jit(main)/jit(_threefry_split)/or" source_file="/global/homes/j/jackm/software/lorrax_C/src/solvers/lanczos.py" source_line=245}
  %xor.155 = u32[2]{0} xor(%add.455, %or.156), sharding={replicated}, metadata={op_name="jit(_full_run)/jit(main)/jit(_threefry_split)/xor" source_file="/global/homes/j/jackm/software/lorrax_C/src/solvers/lanczos.py" source_line=245}
  %add.456 = u32[2]{0} add(%add.455, %xor.155), sharding={replicated}, metadata={op_name="jit(_full_run)/jit(main)/jit(_threefry_split)/add" source_file="/global/homes/j/jackm/software/lorrax_C/src/solvers/lanczos.py" source_line=245}
  %constant.435 = u32[] constant(26), sharding={replicated}
  %broadcast.488 = u32[2]{0} broadcast(%constant.435), dimensions={}, sharding={replicated}
  %shift-left.146 = u32[2]{0} shift-left(%xor.155, %broadcast.488), sharding={replicated}, metadata={op_name="jit(_full_run)/jit(main)/jit(_threefry_split)/shift_left" source_file="/global/homes/j/jackm/software/lorrax_C/src/solvers/lanczos.py" source_line=245}
  %constant.436 = u32[] constant(6), sharding={replicated}
  %broadcast.489 = u32[2]{0} broadcast(%constant.436), dimensions={}, sharding={replicated}
  %shift-right-logical.152 = u32[2]{0} shift-right-logical(%xor.155, %broadcast.489), sharding={replicated}, metadata={op_name="jit(_full_run)/jit(main)/jit(_threefry_split)/shift_right_logical" source_file="/global/homes/j/jackm/software/lorrax_C/src/solvers/lanczos.py" source_line=245}
  %or.157 = u32[2]{0} or(%shift-left.146, %shift-right-logical.152), sharding={replicated}, metadata={op_name="jit(_full_run)/jit(main)/jit(_threefry_split)/or" source_file="/global/homes/j/jackm/software/lorrax_C/src/solvers/lanczos.py" source_line=245}
  %xor.156 = u32[2]{0} xor(%add.456, %or.157), sharding={replicated}, metadata={op_name="jit(_full_run)/jit(main)/jit(_threefry_split)/xor" source_file="/global/homes/j/jackm/software/lorrax_C/src/solvers/lanczos.py" source_line=245}
  %add.457 = u32[2]{0} add(%add.456, %xor.156), sharding={replicated}, metadata={op_name="jit(_full_run)/jit(main)/jit(_threefry_split)/add" source_file="/global/homes/j/jackm/software/lorrax_C/src/solvers/lanczos.py" source_line=245}
  %constant.1665 = u32[] constant(42), sharding={replicated}, metadata={op_name="jit(_full_run)/jit(main)/jit(_threefry_split)/squeeze" source_file="/global/homes/j/jackm/software/lorrax_C/src/solvers/lanczos.py" source_line=245}
  %broadcast.490 = u32[2]{0} broadcast(%constant.1665), dimensions={}, sharding={replicated}, metadata={op_name="jit(_full_run)/jit(main)/jit(_threefry_split)/add" source_file="/global/homes/j/jackm/software/lorrax_C/src/solvers/lanczos.py" source_line=245}
  %add.459 = u32[2]{0} add(%add.457, %broadcast.490), sharding={replicated}, metadata={op_name="jit(_full_run)/jit(main)/jit(_threefry_split)/add" source_file="/global/homes/j/jackm/software/lorrax_C/src/solvers/lanczos.py" source_line=245}
  %shift-left.147 = u32[2]{0} shift-left(%xor.156, %broadcast.489), sharding={replicated}, metadata={op_name="jit(_full_run)/jit(main)/jit(_threefry_split)/shift_left" source_file="/global/homes/j/jackm/software/lorrax_C/src/solvers/lanczos.py" source_line=245}
  %shift-right-logical.153 = u32[2]{0} shift-right-logical(%xor.156, %broadcast.488), sharding={replicated}, metadata={op_name="jit(_full_run)/jit(main)/jit(_threefry_split)/shift_right_logical" source_file="/global/homes/j/jackm/software/lorrax_C/src/solvers/lanczos.py" source_line=245}
  %or.158 = u32[2]{0} or(%shift-left.147, %shift-right-logical.153), sharding={replicated}, metadata={op_name="jit(_full_run)/jit(main)/jit(_threefry_split)/or" source_file="/global/homes/j/jackm/software/lorrax_C/src/solvers/lanczos.py" source_line=245}
  %xor.157 = u32[2]{0} xor(%add.457, %or.158), sharding={replicated}, metadata={op_name="jit(_full_run)/jit(main)/jit(_threefry_split)/xor" source_file="/global/homes/j/jackm/software/lorrax_C/src/solvers/lanczos.py" source_line=245}
  %constant.1527 = u32[] constant(466689009), sharding={replicated}
  %broadcast.1076 = u32[2]{0} broadcast(%constant.1527), dimensions={}, sharding={replicated}, metadata={op_name="jit(_full_run)/jit(main)/jit(_threefry_split)/add" source_file="/global/homes/j/jackm/software/lorrax_C/src/solvers/lanczos.py" source_line=245}
  %add.461 = u32[2]{0} add(%xor.157, %broadcast.1076), sharding={replicated}, metadata={op_name="jit(_full_run)/jit(main)/jit(_threefry_split)/add" source_file="/global/homes/j/jackm/software/lorrax_C/src/solvers/lanczos.py" source_line=245}
  %add.462 = u32[2]{0} add(%add.459, %add.461), sharding={replicated}, metadata={op_name="jit(_full_run)/jit(main)/jit(_threefry_split)/add" source_file="/global/homes/j/jackm/software/lorrax_C/src/solvers/lanczos.py" source_line=245}
  %shift-left.148 = u32[2]{0} shift-left(%add.461, %broadcast.487), sharding={replicated}, metadata={op_name="jit(_full_run)/jit(main)/jit(_threefry_split)/shift_left" source_file="/global/homes/j/jackm/software/lorrax_C/src/solvers/lanczos.py" source_line=245}
  %shift-right-logical.154 = u32[2]{0} shift-right-logical(%add.461, %broadcast.486), sharding={replicated}, metadata={op_name="jit(_full_run)/jit(main)/jit(_threefry_split)/shift_right_logical" source_file="/global/homes/j/jackm/software/lorrax_C/src/solvers/lanczos.py" source_line=245}
  %or.159 = u32[2]{0} or(%shift-left.148, %shift-right-logical.154), sharding={replicated}, metadata={op_name="jit(_full_run)/jit(main)/jit(_threefry_split)/or" source_file="/global/homes/j/jackm/software/lorrax_C/src/solvers/lanczos.py" source_line=245}
  %xor.160 = u32[2]{0} xor(%add.462, %or.159), sharding={replicated}, metadata={op_name="jit(_full_run)/jit(main)/jit(_threefry_split)/xor" source_file="/global/homes/j/jackm/software/lorrax_C/src/solvers/lanczos.py" source_line=245}
  %add.464 = u32[2]{0} add(%add.462, %xor.160), sharding={replicated}, metadata={op_name="jit(_full_run)/jit(main)/jit(_threefry_split)/add" source_file="/global/homes/j/jackm/software/lorrax_C/src/solvers/lanczos.py" source_line=245}
  %constant.439 = u32[] constant(29), sharding={replicated}
  %broadcast.493 = u32[2]{0} broadcast(%constant.439), dimensions={}, sharding={replicated}
  %shift-left.149 = u32[2]{0} shift-left(%xor.160, %broadcast.493), sharding={replicated}, metadata={op_name="jit(_full_run)/jit(main)/jit(_threefry_split)/shift_left" source_file="/global/homes/j/jackm/software/lorrax_C/src/solvers/lanczos.py" source_line=245}
  %constant.440 = u32[] constant(3), sharding={replicated}
  %broadcast.494 = u32[2]{0} broadcast(%constant.440), dimensions={}, sharding={replicated}
  %shift-right-logical.155 = u32[2]{0} shift-right-logical(%xor.160, %broadcast.494), sharding={replicated}, metadata={op_name="jit(_full_run)/jit(main)/jit(_threefry_split)/shift_right_logical" source_file="/global/homes/j/jackm/software/lorrax_C/src/solvers/lanczos.py" source_line=245}
  %or.160 = u32[2]{0} or(%shift-left.149, %shift-right-logical.155), sharding={replicated}, metadata={op_name="jit(_full_run)/jit(main)/jit(_threefry_split)/or" source_file="/global/homes/j/jackm/software/lorrax_C/src/solvers/lanczos.py" source_line=245}
  %xor.161 = u32[2]{0} xor(%add.464, %or.160), sharding={replicated}, metadata={op_name="jit(_full_run)/jit(main)/jit(_threefry_split)/xor" source_file="/global/homes/j/jackm/software/lorrax_C/src/solvers/lanczos.py" source_line=245}
  %add.465 = u32[2]{0} add(%add.464, %xor.161), sharding={replicated}, metadata={op_name="jit(_full_run)/jit(main)/jit(_threefry_split)/add" source_file="/global/homes/j/jackm/software/lorrax_C/src/solvers/lanczos.py" source_line=245}
  %constant.441 = u32[] constant(16), sharding={replicated}
  %broadcast.495 = u32[2]{0} broadcast(%constant.441), dimensions={}, sharding={replicated}
  %shift-left.150 = u32[2]{0} shift-left(%xor.161, %broadcast.495), sharding={replicated}, metadata={op_name="jit(_full_run)/jit(main)/jit(_threefry_split)/shift_left" source_file="/global/homes/j/jackm/software/lorrax_C/src/solvers/lanczos.py" source_line=245}
  %shift-right-logical.156 = u32[2]{0} shift-right-logical(%xor.161, %broadcast.495), sharding={replicated}, metadata={op_name="jit(_full_run)/jit(main)/jit(_threefry_split)/shift_right_logical" source_file="/global/homes/j/jackm/software/lorrax_C/src/solvers/lanczos.py" source_line=245}
  %or.161 = u32[2]{0} or(%shift-left.150, %shift-right-logical.156), sharding={replicated}, metadata={op_name="jit(_full_run)/jit(main)/jit(_threefry_split)/or" source_file="/global/homes/j/jackm/software/lorrax_C/src/solvers/lanczos.py" source_line=245}
  %xor.162 = u32[2]{0} xor(%add.465, %or.161), sharding={replicated}, metadata={op_name="jit(_full_run)/jit(main)/jit(_threefry_split)/xor" source_file="/global/homes/j/jackm/software/lorrax_C/src/solvers/lanczos.py" source_line=245}
  %add.466 = u32[2]{0} add(%add.465, %xor.162), sharding={replicated}, metadata={op_name="jit(_full_run)/jit(main)/jit(_threefry_split)/add" source_file="/global/homes/j/jackm/software/lorrax_C/src/solvers/lanczos.py" source_line=245}
  %constant.1668 = u32[] constant(466689008), sharding={replicated}, metadata={op_name="jit(_full_run)/jit(main)/jit(_threefry_split)/xor" source_file="/global/homes/j/jackm/software/lorrax_C/src/solvers/lanczos.py" source_line=245}
  %broadcast.496 = u32[2]{0} broadcast(%constant.1668), dimensions={}, sharding={replicated}, metadata={op_name="jit(_full_run)/jit(main)/jit(_threefry_split)/add" source_file="/global/homes/j/jackm/software/lorrax_C/src/solvers/lanczos.py" source_line=245}
  %add.467 = u32[2]{0} add(%add.466, %broadcast.496), sharding={replicated}, metadata={op_name="jit(_full_run)/jit(main)/jit(_threefry_split)/add" source_file="/global/homes/j/jackm/software/lorrax_C/src/solvers/lanczos.py" source_line=245}
  %constant.442 = u32[] constant(24), sharding={replicated}
  %broadcast.497 = u32[2]{0} broadcast(%constant.442), dimensions={}, sharding={replicated}
  %shift-left.151 = u32[2]{0} shift-left(%xor.162, %broadcast.497), sharding={replicated}, metadata={op_name="jit(_full_run)/jit(main)/jit(_threefry_split)/shift_left" source_file="/global/homes/j/jackm/software/lorrax_C/src/solvers/lanczos.py" source_line=245}
  %constant.443 = u32[] constant(8), sharding={replicated}
  %broadcast.499 = u32[2]{0} broadcast(%constant.443), dimensions={}, sharding={replicated}
  %shift-right-logical.157 = u32[2]{0} shift-right-logical(%xor.162, %broadcast.499), sharding={replicated}, metadata={op_name="jit(_full_run)/jit(main)/jit(_threefry_split)/shift_right_logical" source_file="/global/homes/j/jackm/software/lorrax_C/src/solvers/lanczos.py" source_line=245}
  %or.162 = u32[2]{0} or(%shift-left.151, %shift-right-logical.157), sharding={replicated}, metadata={op_name="jit(_full_run)/jit(main)/jit(_threefry_split)/or" source_file="/global/homes/j/jackm/software/lorrax_C/src/solvers/lanczos.py" source_line=245}
  %xor.163 = u32[2]{0} xor(%add.466, %or.162), sharding={replicated}, metadata={op_name="jit(_full_run)/jit(main)/jit(_threefry_split)/xor" source_file="/global/homes/j/jackm/software/lorrax_C/src/solvers/lanczos.py" source_line=245}
  %constant.444 = u32[] constant(2), sharding={replicated}
  %broadcast.502 = u32[2]{0} broadcast(%constant.444), dimensions={}, sharding={replicated}
  %add.470 = u32[2]{0} add(%xor.163, %broadcast.502), sharding={replicated}, metadata={op_name="jit(_full_run)/jit(main)/jit(_threefry_split)/add" source_file="/global/homes/j/jackm/software/lorrax_C/src/solvers/lanczos.py" source_line=245}
  %add.471 = u32[2]{0} add(%add.467, %add.470), sharding={replicated}, metadata={op_name="jit(_full_run)/jit(main)/jit(_threefry_split)/add" source_file="/global/homes/j/jackm/software/lorrax_C/src/solvers/lanczos.py" source_line=245}
  %shift-left.152 = u32[2]{0} shift-left(%add.470, %broadcast.484), sharding={replicated}, metadata={op_name="jit(_full_run)/jit(main)/jit(_threefry_split)/shift_left" source_file="/global/homes/j/jackm/software/lorrax_C/src/solvers/lanczos.py" source_line=245}
  %shift-right-logical.158 = u32[2]{0} shift-right-logical(%add.470, %broadcast.485), sharding={replicated}, metadata={op_name="jit(_full_run)/jit(main)/jit(_threefry_split)/shift_right_logical" source_file="/global/homes/j/jackm/software/lorrax_C/src/solvers/lanczos.py" source_line=245}
  %or.163 = u32[2]{0} or(%shift-left.152, %shift-right-logical.158), sharding={replicated}, metadata={op_name="jit(_full_run)/jit(main)/jit(_threefry_split)/or" source_file="/global/homes/j/jackm/software/lorrax_C/src/solvers/lanczos.py" source_line=245}
  %xor.164 = u32[2]{0} xor(%add.471, %or.163), sharding={replicated}, metadata={op_name="jit(_full_run)/jit(main)/jit(_threefry_split)/xor" source_file="/global/homes/j/jackm/software/lorrax_C/src/solvers/lanczos.py" source_line=245}
  %add.472 = u32[2]{0} add(%add.471, %xor.164), sharding={replicated}, metadata={op_name="jit(_full_run)/jit(main)/jit(_threefry_split)/add" source_file="/global/homes/j/jackm/software/lorrax_C/src/solvers/lanczos.py" source_line=245}
  %shift-left.153 = u32[2]{0} shift-left(%xor.164, %broadcast.486), sharding={replicated}, metadata={op_name="jit(_full_run)/jit(main)/jit(_threefry_split)/shift_left" source_file="/global/homes/j/jackm/software/lorrax_C/src/solvers/lanczos.py" source_line=245}
  %shift-right-logical.159 = u32[2]{0} shift-right-logical(%xor.164, %broadcast.487), sharding={replicated}, metadata={op_name="jit(_full_run)/jit(main)/jit(_threefry_split)/shift_right_logical" source_file="/global/homes/j/jackm/software/lorrax_C/src/solvers/lanczos.py" source_line=245}
  %or.164 = u32[2]{0} or(%shift-left.153, %shift-right-logical.159), sharding={replicated}, metadata={op_name="jit(_full_run)/jit(main)/jit(_threefry_split)/or" source_file="/global/homes/j/jackm/software/lorrax_C/src/solvers/lanczos.py" source_line=245}
  %xor.165 = u32[2]{0} xor(%add.472, %or.164), sharding={replicated}, metadata={op_name="jit(_full_run)/jit(main)/jit(_threefry_split)/xor" source_file="/global/homes/j/jackm/software/lorrax_C/src/solvers/lanczos.py" source_line=245}
  %add.473 = u32[2]{0} add(%add.472, %xor.165), sharding={replicated}, metadata={op_name="jit(_full_run)/jit(main)/jit(_threefry_split)/add" source_file="/global/homes/j/jackm/software/lorrax_C/src/solvers/lanczos.py" source_line=245}
…
  %select.330 = f64[1024]{0} select(%compare.157, %select.329, %broadcast.781), sharding={devices=[2,2]<=[4] last_tile_dim_replicate}, metadata={op_name="jit(_full_run)/jit(main)/jit(_normal)/jit(_normal_real)/erf_inv" source_file="/global/homes/j/jackm/software/lorrax_C/src/solvers/lanczos.py" source_line=247}
  %constant.679 = f64[] constant(-1.6850591381820166e-19), sharding={replicated}
  %broadcast.782 = f64[1024]{0} broadcast(%constant.679), dimensions={}, sharding={devices=[2,2]<=[4] last_tile_dim_replicate}
  %constant.681 = f64[] constant(9.0756561938885391e-08), sharding={replicated}
  %broadcast.783 = f64[1024]{0} broadcast(%constant.681), dimensions={}, sharding={devices=[2,2]<=[4] last_tile_dim_replicate}
  %select.331 = f64[1024]{0} select(%compare.156, %broadcast.782, %broadcast.783), sharding={devices=[2,2]<=[4] last_tile_dim_replicate}, metadata={op_name="jit(_full_run)/jit(main)/jit(_normal)/jit(_normal_real)/erf_inv" source_file="/global/homes/j/jackm/software/lorrax_C/src/solvers/lanczos.py" source_line=247}
  %constant.683 = f64[] constant(-2.5556418169965252e-10), sharding={replicated}
  %broadcast.784 = f64[1024]{0} broadcast(%constant.683), dimensions={}, sharding={devices=[2,2]<=[4] last_tile_dim_replicate}
  %select.332 = f64[1024]{0} select(%compare.157, %select.331, %broadcast.784), sharding={devices=[2,2]<=[4] last_tile_dim_replicate}, metadata={op_name="jit(_full_run)/jit(main)/jit(_normal)/jit(_normal_real)/erf_inv" source_file="/global/homes/j/jackm/software/lorrax_C/src/solvers/lanczos.py" source_line=247}
  %constant.685 = f64[] constant(-3.64441206401782e-21), sharding={replicated}
  %broadcast.785 = f64[1024]{0} broadcast(%constant.685), dimensions={}, sharding={devices=[2,2]<=[4] last_tile_dim_replicate}
  %constant.688 = f64[] constant(2.2137376921775787e-09), sharding={replicated}
  %broadcast.786 = f64[1024]{0} broadcast(%constant.688), dimensions={}, sharding={devices=[2,2]<=[4] last_tile_dim_replicate}
  %select.333 = f64[1024]{0} select(%compare.156, %broadcast.785, %broadcast.786), sharding={devices=[2,2]<=[4] last_tile_dim_replicate}, metadata={op_name="jit(_full_run)/jit(main)/jit(_normal)/jit(_normal_real)/erf_inv" source_file="/global/homes/j/jackm/software/lorrax_C/src/solvers/lanczos.py" source_line=247}
  %constant.689 = f64[] constant(-2.7109920616438573e-11), sharding={replicated}
  %broadcast.787 = f64[1024]{0} broadcast(%constant.689), dimensions={}, sharding={devices=[2,2]<=[4] last_tile_dim_replicate}
  %select.334 = f64[1024]{0} select(%compare.157, %select.333, %broadcast.787), sharding={devices=[2,2]<=[4] last_tile_dim_replicate}, metadata={op_name="jit(_full_run)/jit(main)/jit(_normal)/jit(_normal_real)/erf_inv" source_file="/global/homes/j/jackm/software/lorrax_C/src/solvers/lanczos.py" source_line=247}
  %constant.1401 = f64[] constant(-3.125), sharding={replicated}
  %broadcast.845 = f64[1024]{0} broadcast(%constant.1401), dimensions={}, sharding={devices=[2,2]<=[4] last_tile_dim_replicate}
  %add.633 = f64[1024]{0} add(%negate.33, %broadcast.845), sharding={devices=[2,2]<=[4] last_tile_dim_replicate}, metadata={op_name="jit(_full_run)/jit(main)/jit(_normal)/jit(_normal_real)/erf_inv" source_file="/global/homes/j/jackm/software/lorrax_C/src/solvers/lanczos.py" source_line=247}
  %sqrt.47 = f64[1024]{0} sqrt(%negate.33), sharding={devices=[2,2]<=[4] last_tile_dim_replicate}, metadata={op_name="jit(_full_run)/jit(main)/jit(_normal)/jit(_normal_real)/erf_inv" source_file="/global/homes/j/jackm/software/lorrax_C/src/solvers/lanczos.py" source_line=247}
  %constant.691 = f64[] constant(3.25), sharding={replicated}
  %broadcast.789 = f64[1024]{0} broadcast(%constant.691), dimensions={}, sharding={devices=[2,2]<=[4] last_tile_dim_replicate}
  %constant.692 = f64[] constant(5), sharding={replicated}
  %broadcast.790 = f64[1024]{0} broadcast(%constant.692), dimensions={}, sharding={devices=[2,2]<=[4] last_tile_dim_replicate}
  %select.335 = f64[1024]{0} select(%compare.157, %broadcast.789, %broadcast.790), sharding={devices=[2,2]<=[4] last_tile_dim_replicate}, metadata={op_name="jit(_full_run)/jit(main)/jit(_normal)/jit(_normal_real)/erf_inv" source_file="/global/homes/j/jackm/software/lorrax_C/src/solvers/lanczos.py" source_line=247}
  %subtract.32 = f64[1024]{0} subtract(%sqrt.47, %select.335), sharding={devices=[2,2]<=[4] last_tile_dim_replicate}, metadata={op_name="jit(_full_run)/jit(main)/jit(_normal)/jit(_normal_real)/erf_inv" source_file="/global/homes/j/jackm/software/lorrax_C/src/solvers/lanczos.py" source_line=247}
  %select.336 = f64[1024]{0} select(%compare.156, %add.633, %subtract.32), sharding={devices=[2,2]<=[4] last_tile_dim_replicate}, metadata={op_name="jit(_full_run)/jit(main)/jit(_normal)/jit(_normal_real)/erf_inv" source_file="/global/homes/j/jackm/software/lorrax_C/src/solvers/lanczos.py" source_line=247}
  %multiply.218 = f64[1024]{0} multiply(%select.334, %select.336), sharding={devices=[2,2]<=[4] last_tile_dim_replicate}, metadata={op_name="jit(_full_run)/jit(main)/jit(_normal)/jit(_normal_real)/erf_inv" source_file="/global/homes/j/jackm/software/lorrax_C/src/solvers/lanczos.py" source_line=247}
  %add.601 = f64[1024]{0} add(%select.332, %multiply.218), sharding={devices=[2,2]<=[4] last_tile_dim_replicate}, metadata={op_name="jit(_full_run)/jit(main)/jit(_normal)/jit(_normal_real)/erf_inv" source_file="/global/homes/j/jackm/software/lorrax_C/src/solvers/lanczos.py" source_line=247}
  %multiply.219 = f64[1024]{0} multiply(%add.601, %select.336), sharding={devices=[2,2]<=[4] last_tile_dim_replicate}, metadata={op_name="jit(_full_run)/jit(main)/jit(_normal)/jit(_normal_real)/erf_inv" source_file="/global/homes/j/jackm/software/lorrax_C/src/solvers/lanczos.py" source_line=247}
  %add.602 = f64[1024]{0} add(%select.330, %multiply.219), sharding={devices=[2,2]<=[4] last_tile_dim_replicate}, metadata={op_name="jit(_full_run)/jit(main)/jit(_normal)/jit(_normal_real)/erf_inv" source_file="/global/homes/j/jackm/software/lorrax_C/src/solvers/lanczos.py" source_line=247}
  %multiply.220 = f64[1024]{0} multiply(%add.602, %select.336), sharding={devices=[2,2]<=[4] last_tile_dim_replicate}, metadata={op_name="jit(_full_run)/jit(main)/jit(_normal)/jit(_normal_real)/erf_inv" source_file="/global/homes/j/jackm/software/lorrax_C/src/solvers/lanczos.py" source_line=247}
  %add.603 = f64[1024]{0} add(%select.328, %multiply.220), sharding={devices=[2,2]<=[4] last_tile_dim_replicate}, metadata={op_name="jit(_full_run)/jit(main)/jit(_normal)/jit(_normal_real)/erf_inv" source_file="/global/homes/j/jackm/software/lorrax_C/src/solvers/lanczos.py" source_line=247}
  %multiply.221 = f64[1024]{0} multiply(%add.603, %select.336), sharding={devices=[2,2]<=[4] last_tile_dim_replicate}, metadata={op_name="jit(_full_run)/jit(main)/jit(_normal)/jit(_normal_real)/erf_inv" source_file="/global/homes/j/jackm/software/lorrax_C/src/solvers/lanczos.py" source_line=247}
  %add.604 = f64[1024]{0} add(%select.326, %multiply.221), sharding={devices=[2,2]<=[4] last_tile_dim_replicate}, metadata={op_name="jit(_full_run)/jit(main)/jit(_normal)/jit(_normal_real)/erf_inv" source_file="/global/homes/j/jackm/software/lorrax_C/src/solvers/lanczos.py" source_line=247}
  %multiply.222 = f64[1024]{0} multiply(%add.604, %select.336), sharding={devices=[2,2]<=[4] last_tile_dim_replicate}, metadata={op_name="jit(_full_run)/jit(main)/jit(_normal)/jit(_normal_real)/erf_inv" source_file="/global/homes/j/jackm/software/lorrax_C/src/solvers/lanczos.py" source_line=247}
  %add.605 = f64[1024]{0} add(%select.324, %multiply.222), sharding={devices=[2,2]<=[4] last_tile_dim_replicate}, metadata={op_name="jit(_full_run)/jit(main)/jit(_normal)/jit(_normal_real)/erf_inv" source_file="/global/homes/j/jackm/software/lorrax_C/src/solvers/lanczos.py" source_line=247}
  %multiply.223 = f64[1024]{0} multiply(%add.605, %select.336), sharding={devices=[2,2]<=[4] last_tile_dim_replicate}, metadata={op_name="jit(_full_run)/jit(main)/jit(_normal)/jit(_normal_real)/erf_inv" source_file="/global/homes/j/jackm/software/lorrax_C/src/solvers/lanczos.py" source_line=247}
  %add.606 = f64[1024]{0} add(%select.322, %multiply.223), sharding={devices=[2,2]<=[4] last_tile_dim_replicate}, metadata={op_name="jit(_full_run)/jit(main)/jit(_normal)/jit(_normal_real)/erf_inv" source_file="/global/homes/j/jackm/software/lorrax_C/src/solvers/lanczos.py" source_line=247}
  %multiply.224 = f64[1024]{0} multiply(%add.606, %select.336), sharding={devices=[2,2]<=[4] last_tile_dim_replicate}, metadata={op_name="jit(_full_run)/jit(main)/jit(_normal)/jit(_normal_real)/erf_inv" source_file="/global/homes/j/jackm/software/lorrax_C/src/solvers/lanczos.py" source_line=247}
  %add.607 = f64[1024]{0} add(%select.320, %multiply.224), sharding={devices=[2,2]<=[4] last_tile_dim_replicate}, metadata={op_name="jit(_full_run)/jit(main)/jit(_normal)/jit(_normal_real)/erf_inv" source_file="/global/homes/j/jackm/software/lorrax_C/src/solvers/lanczos.py" source_line=247}
  %multiply.225 = f64[1024]{0} multiply(%add.607, %select.336), sharding={devices=[2,2]<=[4] last_tile_dim_replicate}, metadata={op_name="jit(_full_run)/jit(main)/jit(_normal)/jit(_normal_real)/erf_inv" source_file="/global/homes/j/jackm/software/lorrax_C/src/solvers/lanczos.py" source_line=247}
  %add.608 = f64[1024]{0} add(%select.318, %multiply.225), sharding={devices=[2,2]<=[4] last_tile_dim_replicate}, metadata={op_name="jit(_full_run)/jit(main)/jit(_normal)/jit(_normal_real)/erf_inv" source_file="/global/homes/j/jackm/software/lorrax_C/src/solvers/lanczos.py" source_line=247}
  %multiply.226 = f64[1024]{0} multiply(%add.608, %select.336), sharding={devices=[2,2]<=[4] last_tile_dim_replicate}, metadata={op_name="jit(_full_run)/jit(main)/jit(_normal)/jit(_normal_real)/erf_inv" source_file="/global/homes/j/jackm/software/lorrax_C/src/solvers/lanczos.py" source_line=247}
  %add.609 = f64[1024]{0} add(%select.316, %multiply.226), sharding={devices=[2,2]<=[4] last_tile_dim_replicate}, metadata={op_name="jit(_full_run)/jit(main)/jit(_normal)/jit(_normal_real)/erf_inv" source_file="/global/homes/j/jackm/software/lorrax_C/src/solvers/lanczos.py" source_line=247}
  %multiply.227 = f64[1024]{0} multiply(%add.609, %select.336), sharding={devices=[2,2]<=[4] last_tile_dim_replicate}, metadata={op_name="jit(_full_run)/jit(main)/jit(_normal)/jit(_normal_real)/erf_inv" source_file="/global/homes/j/jackm/software/lorrax_C/src/solvers/lanczos.py" source_line=247}
  %add.610 = f64[1024]{0} add(%select.314, %multiply.227), sharding={devices=[2,2]<=[4] last_tile_dim_replicate}, metadata={op_name="jit(_full_run)/jit(main)/jit(_normal)/jit(_normal_real)/erf_inv" source_file="/global/homes/j/jackm/software/lorrax_C/src/solvers/lanczos.py" source_line=247}
  %multiply.228 = f64[1024]{0} multiply(%add.610, %select.336), sharding={devices=[2,2]<=[4] last_tile_dim_replicate}, metadata={op_name="jit(_full_run)/jit(main)/jit(_normal)/jit(_normal_real)/erf_inv" source_file="/global/homes/j/jackm/software/lorrax_C/src/solvers/lanczos.py" source_line=247}
  %add.611 = f64[1024]{0} add(%select.312, %multiply.228), sharding={devices=[2,2]<=[4] last_tile_dim_replicate}, metadata={op_name="jit(_full_run)/jit(main)/jit(_normal)/jit(_normal_real)/erf_inv" source_file="/global/homes/j/jackm/software/lorrax_C/src/solvers/lanczos.py" source_line=247}
  %multiply.229 = f64[1024]{0} multiply(%add.611, %select.336), sharding={devices=[2,2]<=[4] last_tile_dim_replicate}, metadata={op_name="jit(_full_run)/jit(main)/jit(_normal)/jit(_normal_real)/erf_inv" source_file="/global/homes/j/jackm/software/lorrax_C/src/solvers/lanczos.py" source_line=247}
  %add.612 = f64[1024]{0} add(%select.310, %multiply.229), sharding={devices=[2,2]<=[4] last_tile_dim_replicate}, metadata={op_name="jit(_full_run)/jit(main)/jit(_normal)/jit(_normal_real)/erf_inv" source_file="/global/homes/j/jackm/software/lorrax_C/src/solvers/lanczos.py" source_line=247}
  %multiply.230 = f64[1024]{0} multiply(%add.612, %select.336), sharding={devices=[2,2]<=[4] last_tile_dim_replicate}, metadata={op_name="jit(_full_run)/jit(main)/jit(_normal)/jit(_normal_real)/erf_inv" source_file="/global/homes/j/jackm/software/lorrax_C/src/solvers/lanczos.py" source_line=247}
  %add.613 = f64[1024]{0} add(%select.308, %multiply.230), sharding={devices=[2,2]<=[4] last_tile_dim_replicate}, metadata={op_name="jit(_full_run)/jit(main)/jit(_normal)/jit(_normal_real)/erf_inv" source_file="/global/homes/j/jackm/software/lorrax_C/src/solvers/lanczos.py" source_line=247}
  %multiply.231 = f64[1024]{0} multiply(%add.613, %select.336), sharding={devices=[2,2]<=[4] last_tile_dim_replicate}, metadata={op_name="jit(_full_run)/jit(main)/jit(_normal)/jit(_normal_real)/erf_inv" source_file="/global/homes/j/jackm/software/lorrax_C/src/solvers/lanczos.py" source_line=247}
  %add.614 = f64[1024]{0} add(%select.306, %multiply.231), sharding={devices=[2,2]<=[4] last_tile_dim_replicate}, metadata={op_name="jit(_full_run)/jit(main)/jit(_normal)/jit(_normal_real)/erf_inv" source_file="/global/homes/j/jackm/software/lorrax_C/src/solvers/lanczos.py" source_line=247}
  %multiply.232 = f64[1024]{0} multiply(%add.614, %select.336), sharding={devices=[2,2]<=[4] last_tile_dim_replicate}, metadata={op_name="jit(_full_run)/jit(main)/jit(_normal)/jit(_normal_real)/erf_inv" source_file="/global/homes/j/jackm/software/lorrax_C/src/solvers/lanczos.py" source_line=247}
  %add.615 = f64[1024]{0} add(%select.304, %multiply.232), sharding={devices=[2,2]<=[4] last_tile_dim_replicate}, metadata={op_name="jit(_full_run)/jit(main)/jit(_normal)/jit(_normal_real)/erf_inv" source_file="/global/homes/j/jackm/software/lorrax_C/src/solvers/lanczos.py" source_line=247}
  %multiply.233 = f64[1024]{0} multiply(%add.615, %select.336), sharding={devices=[2,2]<=[4] last_tile_dim_replicate}, metadata={op_name="jit(_full_run)/jit(main)/jit(_normal)/jit(_normal_real)/erf_inv" source_file="/global/homes/j/jackm/software/lorrax_C/src/solvers/lanczos.py" source_line=247}
  %add.616 = f64[1024]{0} add(%select.302, %multiply.233), sharding={devices=[2,2]<=[4] last_tile_dim_replicate}, metadata={op_name="jit(_full_run)/jit(main)/jit(_normal)/jit(_normal_real)/erf_inv" source_file="/global/homes/j/jackm/software/lorrax_C/src/solvers/lanczos.py" source_line=247}
  %multiply.234 = f64[1024]{0} multiply(%add.616, %select.336), sharding={devices=[2,2]<=[4] last_tile_dim_replicate}, metadata={op_name="jit(_full_run)/jit(main)/jit(_normal)/jit(_normal_real)/erf_inv" source_file="/global/homes/j/jackm/software/lorrax_C/src/solvers/lanczos.py" source_line=247}
  %add.617 = f64[1024]{0} add(%select.300, %multiply.234), sharding={devices=[2,2]<=[4] last_tile_dim_replicate}, metadata={op_name="jit(_full_run)/jit(main)/jit(_normal)/jit(_normal_real)/erf_inv" source_file="/global/homes/j/jackm/software/lorrax_C/src/solvers/lanczos.py" source_line=247}
  %select.337 = f64[1024]{0} select(%compare.157, %add.617, %add.616), sharding={devices=[2,2]<=[4] last_tile_dim_replicate}, metadata={op_name="jit(_full_run)/jit(main)/jit(_normal)/jit(_normal_real)/erf_inv" source_file="/global/homes/j/jackm/software/lorrax_C/src/solvers/lanczos.py" source_line=247}
  %multiply.235 = f64[1024]{0} multiply(%select.337, %select.336), sharding={devices=[2,2]<=[4] last_tile_dim_replicate}, metadata={op_name="jit(_full_run)/jit(main)/jit(_normal)/jit(_normal_real)/erf_inv" source_file="/global/homes/j/jackm/software/lorrax_C/src/solvers/lanczos.py" source_line=247}
  %add.618 = f64[1024]{0} add(%select.299, %multiply.235), sharding={devices=[2,2]<=[4] last_tile_dim_replicate}, metadata={op_name="jit(_full_run)/jit(main)/jit(_normal)/jit(_normal_real)/erf_inv" source_file="/global/homes/j/jackm/software/lorrax_C/src/solvers/lanczos.py" source_line=247}
  %select.338 = f64[1024]{0} select(%compare.157, %add.618, %select.337), sharding={devices=[2,2]<=[4] last_tile_dim_replicate}, metadata={op_name="jit(_full_run)/jit(main)/jit(_normal)/jit(_normal_real)/erf_inv" source_file="/global/homes/j/jackm/software/lorrax_C/src/solvers/lanczos.py" source_line=247}
  %multiply.236 = f64[1024]{0} multiply(%select.338, %select.336), sharding={devices=[2,2]<=[4] last_tile_dim_replicate}, metadata={op_name="jit(_full_run)/jit(main)/jit(_normal)/jit(_normal_real)/erf_inv" source_file="/global/homes/j/jackm/software/lorrax_C/src/solvers/lanczos.py" source_line=247}
  %constant.693 = f64[] constant(-0.000740702534166267), sharding={replicated}
  %broadcast.791 = f64[1024]{0} broadcast(%constant.693), dimensions={}, sharding={devices=[2,2]<=[4] last_tile_dim_replicate}
  %add.619 = f64[1024]{0} add(%multiply.236, %broadcast.791), sharding={devices=[2,2]<=[4] last_tile_dim_replicate}, metadata={op_name="jit(_full_run)/jit(main)/jit(_normal)/jit(_normal_real)/erf_inv" source_file="/global/homes/j/jackm/software/lorrax_C/src/solvers/lanczos.py" source_line=247}
  %select.339 = f64[1024]{0} select(%compare.156, %add.619, %select.338), sharding={devices=[2,2]<=[4] last_tile_dim_replicate}, metadata={op_name="jit(_full_run)/jit(main)/jit(_normal)/jit(_normal_real)/erf_inv" source_file="/global/homes/j/jackm/software/lorrax_C/src/solvers/lanczos.py" source_line=247}
  %multiply.237 = f64[1024]{0} multiply(%select.339, %select.336), sharding={devices=[2,2]<=[4] last_tile_dim_replicate}, metadata={op_name="jit(_full_run)/jit(main)/jit(_normal)/jit(_normal_real)/erf_inv" source_file="/global/homes/j/jackm/software/lorrax_C/src/solvers/lanczos.py" source_line=247}
  %constant.694 = f64[] constant(-0.0060336708714301491), sharding={replicated}
  %broadcast.792 = f64[1024]{0} broadcast(%constant.694), dimensions={}, sharding={devices=[2,2]<=[4] last_tile_dim_replicate}
  %add.620 = f64[1024]{0} add(%multiply.237, %broadcast.792), sharding={devices=[2,2]<=[4] last_tile_dim_replicate}, metadata={op_name="jit(_full_run)/jit(main)/jit(_normal)/jit(_normal_real)/erf_inv" source_file="/global/homes/j/jackm/software/lorrax_C/src/solvers/lanczos.py" source_line=247}
  %select.340 = f64[1024]{0} select(%compare.156, %add.620, %select.339), sharding={devices=[2,2]<=[4] last_tile_dim_replicate}, metadata={op_name="jit(_full_run)/jit(main)/jit(_normal)/jit(_normal_real)/erf_inv" source_file="/global/homes/j/jackm/software/lorrax_C/src/solvers/lanczos.py" source_line=247}
  %multiply.238 = f64[1024]{0} multiply(%select.340, %select.336), sharding={devices=[2,2]<=[4] last_tile_dim_replicate}, metadata={op_name="jit(_full_run)/jit(main)/jit(_normal)/jit(_normal_real)/erf_inv" source_file="/global/homes/j/jackm/software/lorrax_C/src/solvers/lanczos.py" source_line=247}
  %constant.695 = f64[] constant(0.24015818242558962), sharding={replicated}
  %broadcast.793 = f64[1024]{0} broadcast(%constant.695), dimensions={}, sharding={devices=[2,2]<=[4] last_tile_dim_replicate}
  %add.621 = f64[1024]{0} add(%multiply.238, %broadcast.793), sharding={devices=[2,2]<=[4] last_tile_dim_replicate}, metadata={op_name="jit(_full_run)/jit(main)/jit(_normal)/jit(_normal_real)/erf_inv" source_file="/global/homes/j/jackm/software/lorrax_C/src/solvers/lanczos.py" source_line=247}
  %select.341 = f64[1024]{0} select(%compare.156, %add.621, %select.340), sharding={devices=[2,2]<=[4] last_tile_dim_replicate}, metadata={op_name="jit(_full_run)/jit(main)/jit(_normal)/jit(_normal_real)/erf_inv" source_file="/global/homes/j/jackm/software/lorrax_C/src/solvers/lanczos.py" source_line=247}
  %multiply.239 = f64[1024]{0} multiply(%select.341, %select.336), sharding={devices=[2,2]<=[4] last_tile_dim_replicate}, metadata={op_name="jit(_full_run)/jit(main)/jit(_normal)/jit(_normal_real)/erf_inv" source_file="/global/homes/j/jackm/software/lorrax_C/src/solvers/lanczos.py" source_line=247}
  %constant.696 = f64[] constant(1.6536545626831027), sharding={replicated}
  %broadcast.794 = f64[1024]{0} broadcast(%constant.696), dimensions={}, sharding={devices=[2,2]<=[4] last_tile_dim_replicate}
  %add.622 = f64[1024]{0} add(%multiply.239, %broadcast.794), sharding={devices=[2,2]<=[4] last_tile_dim_replicate}, metadata={op_name="jit(_full_run)/jit(main)/jit(_normal)/jit(_normal_real)/erf_inv" source_file="/global/homes/j/jackm/software/lorrax_C/src/solvers/lanczos.py" source_line=247}
  %select.342 = f64[1024]{0} select(%compare.156, %add.622, %select.341), sharding={devices=[2,2]<=[4] last_tile_dim_replicate}, metadata={op_name="jit(_full_run)/jit(main)/jit(_normal)/jit(_normal_real)/erf_inv" source_file="/global/homes/j/jackm/software/lorrax_C/src/solvers/lanczos.py" source_line=247}
  %multiply.240 = f64[1024]{0} multiply(%select.342, %maximum.20), sharding={devices=[2,2]<=[4] last_tile_dim_replicate}, metadata={op_name="jit(_full_run)/jit(main)/jit(_normal)/jit(_normal_real)/erf_inv" source_file="/global/homes/j/jackm/software/lorrax_C/src/solvers/lanczos.py" source_line=247}
  %select.343 = f64[1024]{0} select(%compare.155, %multiply.216, %multiply.240), sharding={devices=[2,2]<=[4] last_tile_dim_replicate}, metadata={op_name="jit(_full_run)/jit(main)/jit(_normal)/jit(_normal_real)/erf_inv" source_file="/global/homes/j/jackm/software/lorrax_C/src/solvers/lanczos.py" source_line=247}
  %constant.697 = f64[] constant(1.4142135623730951), sharding={replicated}
  %broadcast.795 = f64[1024]{0} broadcast(%constant.697), dimensions={}, sharding={devices=[2,2]<=[4] last_tile_dim_replicate}
  %multiply.241 = f64[1024]{0} multiply(%select.343, %broadcast.795), sharding={devices=[2,2]<=[4] last_tile_dim_replicate}, metadata={op_name="jit(_full_run)/jit(main)/jit(_normal)/jit(_normal_real)/mul" source_file="/global/homes/j/jackm/software/lorrax_C/src/solvers/lanczos.py" source_line=247}
  %convert.1256 = c128[1024]{0} convert(%multiply.241), sharding={devices=[2,2]<=[4] last_tile_dim_replicate}, metadata={op_name="jit(_full_run)/jit(main)/convert_element_type" source_file="/global/homes/j/jackm/software/lorrax_C/src/solvers/lanczos.py" source_line=248}
  %constant.20 = c128[] constant((0, 1)), sharding={replicated}
  %broadcast.21 = c128[1024]{0} broadcast(%constant.20), dimensions={}, sharding={devices=[2,2]<=[4] last_tile_dim_replicate}
  %multiply.1257 = c128[1024]{0} multiply(%convert.1256, %broadcast.21), sharding={devices=[2,2]<=[4] last_tile_dim_replicate}, metadata={op_name="jit(_full_run)/jit(main)/mul" source_file="/global/homes/j/jackm/software/lorrax_C/src/solvers/lanczos.py" source_line=248}
  %add.1259 = c128[1024]{0} add(%convert.1258, %multiply.1257), sharding={devices=[2,2]<=[4] last_tile_dim_replicate}, metadata={op_name="jit(_full_run)/jit(main)/add" source_file="/global/homes/j/jackm/software/lorrax_C/src/solvers/lanczos.py" source_line=248}
  %real.23 = f64[1024]{0} real(%add.1259), sharding={devices=[2,2]<=[4] last_tile_dim_replicate}, metadata={op_name="jit(_full_run)/jit(main)/jit(norm)/real" source_file="/global/homes/j/jackm/software/lorrax_C/src/solvers/lanczos.py" source_line=249}
  %imag.20 = f64[1024]{0} imag(%add.1259), sharding={devices=[2,2]<=[4] last_tile_dim_replicate}, metadata={op_name="jit(_full_run)/jit(main)/jit(norm)/imag" source_file="/global/homes/j/jackm/software/lorrax_C/src/solvers/lanczos.py" source_line=249}
  %negate.34 = f64[1024]{0} negate(%imag.20), sharding={devices=[2,2]<=[4] last_tile_dim_replicate}, metadata={op_name="jit(_full_run)/jit(main)/jit(norm)/neg" source_file="/global/homes/j/jackm/software/lorrax_C/src/solvers/lanczos.py" source_line=249}
  %complex.20 = c128[1024]{0} complex(%real.23, %negate.34), sharding={devices=[2,2]<=[4] last_tile_dim_replicate}, metadata={op_name="jit(_full_run)/jit(main)/jit(norm)/complex" source_file="/global/homes/j/jackm/software/lorrax_C/src/solvers/lanczos.py" source_line=249}
  %multiply.242 = c128[1024]{0} multiply(%add.1259, %complex.20), sharding={devices=[2,2]<=[4] last_tile_dim_replicate}, metadata={op_name="jit(_full_run)/jit(main)/jit(norm)/mul" source_file="/global/homes/j/jackm/software/lorrax_C/src/solvers/lanczos.py" source_line=249}
  %real.24 = f64[1024]{0} real(%multiply.242), sharding={devices=[2,2]<=[4] last_tile_dim_replicate}, metadata={op_name="jit(_full_run)/jit(main)/jit(norm)/real" source_file="/global/homes/j/jackm/software/lorrax_C/src/solvers/lanczos.py" source_line=249}
  %constant.698 = f64[] constant(0)
  %reduce.9 = f64[] reduce(%real.24, %constant.698), dimensions={0}, to_apply=%region_1.1260, sharding={replicated}, metadata={op_name="jit(_full_run)/jit(main)/jit(norm)/reduce_sum" source_file="/global/homes/j/jackm/software/lorrax_C/src/solvers/lanczos.py" source_line=249}
  %sqrt.48 = f64[] sqrt(%reduce.9), sharding={replicated}, metadata={op_name="jit(_full_run)/jit(main)/jit(norm)/sqrt" source_file="/global/homes/j/jackm/software/lorrax_C/src/solvers/lanczos.py" source_line=249}
  %convert.1276 = c128[] convert(%sqrt.48), sharding={replicated}, metadata={op_name="jit(_full_run)/jit(main)/convert_element_type" source_file="/global/homes/j/jackm/software/lorrax_C/src/solvers/lanczos.py" source_line=249}
  %broadcast.1277 = c128[1024]{0} broadcast(%convert.1276), dimensions={}, sharding={devices=[2,2]<=[4] last_tile_dim_replicate}, metadata={op_name="jit(_full_run)/jit(main)/div" source_file="/global/homes/j/jackm/software/lorrax_C/src/solvers/lanczos.py" source_line=249}
  %divide.1278 = c128[1024]{0} divide(%add.1259, %broadcast.1277), sharding={devices=[2,2]<=[4] last_tile_dim_replicate}, metadata={op_name="jit(_full_run)/jit(main)/div" source_file="/global/homes/j/jackm/software/lorrax_C/src/solvers/lanczos.py" source_line=249}
  %constant.1672 = c128[] constant((0, 0)), sharding={replicated}
  %broadcast.1090 = c128[1024]{0} broadcast(%constant.1672), dimensions={}, sharding={devices=[2,2]<=[4] last_tile_dim_replicate}
  %select.473 = c128[1024]{0} select(%broadcast.1086, %divide.1278, %broadcast.1090), sharding={devices=[2,2]<=[4] last_tile_dim_replicate}
  %reshape.427 = c128[1024,1]{1,0} reshape(%select.473), sharding={devices=[2,1,2]<=[4] last_tile_dim_replicate}
  %constant.1671 = c128[] constant((0, 0))
  %pad.16 = c128[1024,200]{1,0} pad(%reshape.427, %constant.1671), padding=0_0x0_199, sharding={devices=[2,1,2]<=[4] last_tile_dim_replicate}, metadata={op_name="jit(_full_run)/jit(main)/scatter" source_file="/global/homes/j/jackm/software/lorrax_C/src/solvers/lanczos.py" source_line=252}
  %constant.15 = f64[] constant(0), sharding={replicated}
  %broadcast.16 = f64[200]{0} broadcast(%constant.15), dimensions={}, sharding={replicated}
  %Arg_0.1 = c128[64,4,2,480]{3,2,1,0} parameter(0), sharding={devices=[1,1,1,2,2]<=[4] last_tile_dim_replicate}, metadata={op_name="psi_c_X"}
  %Arg_1.2 = c128[64,4,2,480]{3,2,1,0} parameter(1), sharding={devices=[1,1,1,2,2]<=[2,2]T(1,0) last_tile_dim_replicate}, metadata={op_name="psi_c_Y"}
  %Arg_2.3 = c128[64,4,2,480]{3,2,1,0} parameter(2), sharding={devices=[1,1,1,2,2]<=[4] last_tile_dim_replicate}, metadata={op_name="psi_v_X"}
  %Arg_3.4 = c128[64,4,2,480]{3,2,1,0} parameter(3), sharding={devices=[1,1,1,2,2]<=[2,2]T(1,0) last_tile_dim_replicate}, metadata={op_name="psi_v_Y"}
  %Arg_4.5 = f64[64,4]{1,0} parameter(4), metadata={op_name="eps_c"}
  %Arg_5.6 = f64[64,4]{1,0} parameter(5), metadata={op_name="eps_v"}
  %Arg_6.7 = c128[480,480,4,4,4]{4,3,2,1,0} parameter(6), sharding={devices=[2,2,1,1,1]<=[4]}, metadata={op_name="W_q"}
  %fft.8 = c128[480,480,4,4,4]{4,3,2,1,0} fft(%Arg_6.7), fft_type=IFFT, fft_length={4,4,4}, metadata={op_name="jit(_full_run)/jit(main)/jit(fft)/fft" source_file="/global/homes/j/jackm/software/lorrax_C/src/bse/bse_lanczos.py" source_line=156}
  %constant.1508 = c128[] constant((8, 0)), sharding={replicated}, metadata={op_name="jit(_full_run)/jit(main)/sqrt" source_file="/global/homes/j/jackm/software/lorrax_C/src/bse/bse_lanczos.py" source_line=156}
  %broadcast.138 = c128[480,480,4,4,4]{4,3,2,1,0} broadcast(%constant.1508), dimensions={}, sharding={devices=[2,2,1,1,1]<=[4]}, metadata={op_name="jit(_full_run)/jit(main)/mul" source_file="/global/homes/j/jackm/software/lorrax_C/src/bse/bse_lanczos.py" source_line=156}
  %multiply.139 = c128[480,480,4,4,4]{4,3,2,1,0} multiply(%fft.8, %broadcast.138), sharding={devices=[2,2,1,1,1]<=[4]}, metadata={op_name="jit(_full_run)/jit(main)/mul" source_file="/global/homes/j/jackm/software/lorrax_C/src/bse/bse_lanczos.py" source_line=156}
  %copy = c128[480,480,4,4,4]{4,3,2,1,0} copy(%multiply.139), sharding={devices=[2,2,1,1,1]<=[4]}, metadata={op_name="jit(_full_run)/jit(main)/sharding_constraint" source_file="/global/homes/j/jackm/software/lorrax_C/src/bse/bse_lanczos.py" source_line=157}
  %Arg_7.8 = c128[480,480]{1,0} parameter(7), sharding={devices=[2,2]<=[4]}, metadata={op_name="V_q0"}
  %tuple.107 = (s64[], c128[1024,200]{1,0}, f64[200]{0}, f64[200]{0}, c128[1024]{0}, /*index=5*/c128[64,4,2,480]{3,2,1,0}, c128[64,4,2,480]{3,2,1,0}, c128[64,4,2,480]{3,2,1,0}, c128[64,4,2,480]{3,2,1,0}, f64[64,4]{1,0}, /*index=10*/f64[64,4]{1,0}, c128[480,480,4,4,4]{4,3,2,1,0}, c128[480,480]{1,0}) tuple(%constant.29, %pad.16, %broadcast.16, %broadcast.16, %divide.1278, /*index=5*/%Arg_0.1, %Arg_1.2, %Arg_2.3, %Arg_3.4, %Arg_4.5, /*index=10*/%Arg_5.6, %copy, %Arg_7.8), sharding={{replicated}, {devices=[2,1,2]<=[4] last_tile_dim_replicate}, {replicated}, {replicated}, {devices=[2,2]<=[4] last_tile_dim_replicate}, /*index=5*/{devices=[1,1,1,2,2]<=[4] last_tile_dim_replicate}, {devices=[1,1,1,2,2]<=[2,2]T(1,0) last_tile_dim_replicate}, {devices=[1,1,1,2,2]<=[4] last_tile_dim_replicate}, {devices=[1,1,1,2,2]<=[2,2]T(1,0) last_tile_dim_replicate}, {replicated}, /*index=10*/{replicated}, {devices=[2,2,1,1,1]<=[4]}, {devices=[2,2]<=[4]}}
  %while.36 = (s64[], c128[1024,200]{1,0}, f64[200]{0}, f64[200]{0}, c128[1024]{0}, /*index=5*/c128[64,4,2,480]{3,2,1,0}, c128[64,4,2,480]{3,2,1,0}, c128[64,4,2,480]{3,2,1,0}, c128[64,4,2,480]{3,2,1,0}, f64[64,4]{1,0}, /*index=10*/f64[64,4]{1,0}, c128[480,480,4,4,4]{4,3,2,1,0}, c128[480,480]{1,0}) while(%tuple.107), condition=%region_23.2161.clone.clone, body=%region_3.2136.clone.clone.clone, sharding={{replicated}, {devices=[2,1,2]<=[4] last_tile_dim_replicate}, {replicated}, {replicated}, {devices=[2,2]<=[4] last_tile_dim_replicate}, /*index=5*/{devices=[1,1,1,2,2]<=[4] last_tile_dim_replicate}, {devices=[1,1,1,2,2]<=[2,2]T(1,0) last_tile_dim_replicate}, {devices=[1,1,1,2,2]<=[4] last_tile_dim_replicate}, {devices=[1,1,1,2,2]<=[2,2]T(1,0) last_tile_dim_replicate}, {replicated}, /*index=10*/{replicated}, {devices=[2,2,1,1,1]<=[4]}, {devices=[2,2]<=[4]}}, metadata={op_name="jit(_full_run)/jit(main)/while" source_file="/global/homes/j/jackm/software/lorrax_C/src/solvers/lanczos.py" source_line=286}
  %get-tuple-element.2183 = f64[200]{0} get-tuple-element(%while.36), index=2, sharding={replicated}, metadata={op_name="jit(_full_run)/jit(main)/while" source_file="/global/homes/j/jackm/software/lorrax_C/src/solvers/lanczos.py" source_line=286}
  %broadcast.798 = f64[200,200]{1,0} broadcast(%get-tuple-element.2183), dimensions={1}, metadata={op_name="jit(_full_run)/jit(main)/jit(_diag)/jit(_where)/broadcast_in_dim" source_file="/global/homes/j/jackm/software/lorrax_C/src/solvers/lanczos.py" source_line=288}
  %constant.699 = f64[] constant(0)
  %broadcast.800 = f64[200,200]{1,0} broadcast(%constant.699), dimensions={}, metadata={op_name="jit(_full_run)/jit(main)/jit(_diag)/jit(_where)/broadcast_in_dim" source_file="/global/homes/j/jackm/software/lorrax_C/src/solvers/lanczos.py" source_line=288}
  %select.344 = f64[200,200]{1,0} select(%compare.158, %broadcast.798, %broadcast.800), metadata={op_name="jit(_full_run)/jit(main)/jit(_diag)/jit(_where)/select_n" source_file="/global/homes/j/jackm/software/lorrax_C/src/solvers/lanczos.py" source_line=288}
  %iota.9 = s64[200]{0} iota(), iota_dimension=0, metadata={op_name="jit(_full_run)/jit(main)/jit(_diag)/iota" source_file="/global/homes/j/jackm/software/lorrax_C/src/solvers/lanczos.py" source_line=290}
  %constant.700 = s64[] constant(1)
  %broadcast.847 = s64[200]{0} broadcast(%constant.700), dimensions={}
  %add.634 = s64[200]{0} add(%iota.9, %broadcast.847), metadata={op_name="jit(_full_run)/jit(main)/jit(_diag)/add" source_file="/global/homes/j/jackm/software/lorrax_C/src/solvers/lanczos.py" source_line=290}
  %broadcast.848 = s64[200,200]{1,0} broadcast(%add.634), dimensions={0}, metadata={op_name="jit(_full_run)/jit(main)/jit(_diag)/iota" source_file="/global/homes/j/jackm/software/lorrax_C/src/solvers/lanczos.py" source_line=290}
  %iota.16 = s64[200,200]{1,0} iota(), iota_dimension=1, metadata={op_name="jit(_full_run)/jit(main)/jit(_diag)/iota" source_file="/global/homes/j/jackm/software/lorrax_C/src/solvers/lanczos.py" source_line=290}
  %compare.159 = pred[200,200]{1,0} compare(%broadcast.848, %iota.16), direction=EQ, metadata={op_name="jit(_full_run)/jit(main)/jit(_diag)/eq" source_file="/global/homes/j/jackm/software/lorrax_C/src/solvers/lanczos.py" source_line=290}
  %get-tuple-element.2184 = f64[200]{0} get-tuple-element(%while.36), index=3, sharding={replicated}, metadata={op_name="jit(_full_run)/jit(main)/while" source_file="/global/homes/j/jackm/software/lorrax_C/src/solvers/lanczos.py" source_line=286}
  %slice.2204 = f64[199]{0} slice(%get-tuple-element.2184), slice={[0:199]}, sharding={replicated}, metadata={op_name="jit(_full_run)/jit(main)/slice" source_file="/global/homes/j/jackm/software/lorrax_C/src/solvers/lanczos.py" source_line=289}
  %constant.701 = f64[] constant(0)
  %pad.0 = f64[200]{0} pad(%slice.2204, %constant.701), padding=1_0, sharding={replicated}, metadata={op_name="jit(_full_run)/jit(main)/jit(_diag)/pad" source_file="/global/homes/j/jackm/software/lorrax_C/src/solvers/lanczos.py" source_line=290}
  %broadcast.807 = f64[200,200]{1,0} broadcast(%pad.0), dimensions={1}, metadata={op_name="jit(_full_run)/jit(main)/jit(_diag)/jit(_where)/broadcast_in_dim" source_file="/global/homes/j/jackm/software/lorrax_C/src/solvers/lanczos.py" source_line=288}
  %constant.702 = f64[] constant(0)
  %broadcast.811 = f64[200,200]{1,0} broadcast(%constant.702), dimensions={}, metadata={op_name="jit(_full_run)/jit(main)/jit(_diag)/jit(_where)/broadcast_in_dim" source_file="/global/homes/j/jackm/software/lorrax_C/src/solvers/lanczos.py" source_line=288}
  %select.345 = f64[200,200]{1,0} select(%compare.159, %broadcast.807, %broadcast.811), metadata={op_name="jit(_full_run)/jit(main)/jit(_diag)/jit(_where)/select_n" source_file="/global/homes/j/jackm/software/lorrax_C/src/solvers/lanczos.py" source_line=288}
  %add.2228 = f64[200,200]{1,0} add(%select.344, %select.345), metadata={op_name="jit(_full_run)/jit(main)/add" source_file="/global/homes/j/jackm/software/lorrax_C/src/solvers/lanczos.py" source_line=290}
  %iota.11 = s64[200]{0} iota(), iota_dimension=0, metadata={op_name="jit(_full_run)/jit(main)/jit(_diag)/iota" source_file="/global/homes/j/jackm/software/lorrax_C/src/solvers/lanczos.py" source_line=290}
  %constant.703 = s64[] constant(-1)
  %broadcast.850 = s64[200]{0} broadcast(%constant.703), dimensions={}
  %add.635 = s64[200]{0} add(%iota.11, %broadcast.850), metadata={op_name="jit(_full_run)/jit(main)/jit(_diag)/add" source_file="/global/homes/j/jackm/software/lorrax_C/src/solvers/lanczos.py" source_line=290}
  %broadcast.851 = s64[200,200]{1,0} broadcast(%add.635), dimensions={0}, metadata={op_name="jit(_full_run)/jit(main)/jit(_diag)/iota" source_file="/global/homes/j/jackm/software/lorrax_C/src/solvers/lanczos.py" source_line=290}
  %iota.17 = s64[200,200]{1,0} iota(), iota_dimension=1, metadata={op_name="jit(_full_run)/jit(main)/jit(_diag)/iota" source_file="/global/homes/j/jackm/software/lorrax_C/src/solvers/lanczos.py" source_line=290}
  %compare.160 = pred[200,200]{1,0} compare(%broadcast.851, %iota.17), direction=EQ, metadata={op_name="jit(_full_run)/jit(main)/jit(_diag)/eq" source_file="/global/homes/j/jackm/software/lorrax_C/src/solvers/lanczos.py" source_line=290}
  %constant.704 = f64[] constant(0)
  %pad.1 = f64[200]{0} pad(%slice.2204, %constant.704), padding=0_1, sharding={replicated}, metadata={op_name="jit(_full_run)/jit(main)/jit(_diag)/pad" source_file="/global/homes/j/jackm/software/lorrax_C/src/solvers/lanczos.py" source_line=290}
  %broadcast.819 = f64[200,200]{1,0} broadcast(%pad.1), dimensions={1}, metadata={op_name="jit(_full_run)/jit(main)/jit(_diag)/jit(_where)/broadcast_in_dim" source_file="/global/homes/j/jackm/software/lorrax_C/src/solvers/lanczos.py" source_line=288}
  %constant.705 = f64[] constant(0)
  %broadcast.823 = f64[200,200]{1,0} broadcast(%constant.705), dimensions={}, metadata={op_name="jit(_full_run)/jit(main)/jit(_diag)/jit(_where)/broadcast_in_dim" source_file="/global/homes/j/jackm/software/lorrax_C/src/solvers/lanczos.py" source_line=288}
  %select.346 = f64[200,200]{1,0} select(%compare.160, %broadcast.819, %broadcast.823), metadata={op_name="jit(_full_run)/jit(main)/jit(_diag)/jit(_where)/select_n" source_file="/global/homes/j/jackm/software/lorrax_C/src/solvers/lanczos.py" source_line=288}
  %add.2252 = f64[200,200]{1,0} add(%add.2228, %select.346), metadata={op_name="jit(_full_run)/jit(main)/add" source_file="/global/homes/j/jackm/software/lorrax_C/src/solvers/lanczos.py" source_line=290}
  %transpose.24 = f64[200,200]{0,1} transpose(%add.2252), dimensions={1,0}, metadata={op_name="jit(_full_run)/jit(main)/jit(eigh)/transpose" source_file="/global/homes/j/jackm/software/lorrax_C/src/solvers/lanczos.py" source_line=292}
  %add.625 = f64[200,200]{1,0} add(%add.2252, %transpose.24), metadata={op_name="jit(_full_run)/jit(main)/jit(eigh)/add" source_file="/global/homes/j/jackm/software/lorrax_C/src/solvers/lanczos.py" source_line=292}
  %constant.748 = f64[] constant(0.5)
  %broadcast.853 = f64[200,200]{1,0} broadcast(%constant.748), dimensions={}
  %multiply.271 = f64[200,200]{1,0} multiply(%add.625, %broadcast.853), metadata={op_name="jit(_full_run)/jit(main)/jit(eigh)/div" source_file="/global/homes/j/jackm/software/lorrax_C/src/solvers/lanczos.py" source_line=292}
  %custom-call.92 = (f64[200,200]{0,1}, f64[200]{0}, s32[]) custom-call(%multiply.271), custom_call_target="cusolver_syevd_ffi", operand_layout_constraints={f64[200,200]{0,1}}, output_to_operand_aliasing={{0}: (0, {})}, api_version=API_VERSION_TYPED_FFI, sharding={{replicated}, {replicated}, {replicated}}, frontend_attributes={num_batch_dims="0"}, metadata={op_name="jit(_full_run)/jit(main)/jit(eigh)/eigh" source_file="/global/homes/j/jackm/software/lorrax_C/src/solvers/lanczos.py" source_line=292}, backend_config={algorithm = 0 : ui8, lower = true}
  %get-tuple-element.61 = s32[] get-tuple-element(%custom-call.92), index=2, sharding={replicated}, frontend_attributes={num_batch_dims="0"}, metadata={op_name="jit(_full_run)/jit(main)/jit(eigh)/eigh" source_file="/global/homes/j/jackm/software/lorrax_C/src/solvers/lanczos.py" source_line=292}
  %constant.707 = s32[] constant(0), sharding={replicated}
  %compare.161 = pred[] compare(%get-tuple-element.61, %constant.707), direction=EQ, sharding={replicated}, metadata={op_name="jit(_full_run)/jit(main)/jit(eigh)/eigh" source_file="/global/homes/j/jackm/software/lorrax_C/src/solvers/lanczos.py" source_line=292}
  %broadcast.829 = pred[200]{0} broadcast(%compare.161), dimensions={}, sharding={replicated}, metadata={op_name="jit(_full_run)/jit(main)/jit(eigh)/eigh" source_file="/global/homes/j/jackm/software/lorrax_C/src/solvers/lanczos.py" source_line=292}
  %get-tuple-element.62 = f64[200]{0} get-tuple-element(%custom-call.92), index=1, sharding={replicated}, frontend_attributes={num_batch_dims="0"}, metadata={op_name="jit(_full_run)/jit(main)/jit(eigh)/eigh" source_file="/global/homes/j/jackm/software/lorrax_C/src/solvers/lanczos.py" source_line=292}
  %constant.708 = f64[] constant(nan), sharding={replicated}
  %broadcast.831 = f64[200]{0} broadcast(%constant.708), dimensions={}, sharding={replicated}
  %select.347 = f64[200]{0} select(%broadcast.829, %get-tuple-element.62, %broadcast.831), sharding={replicated}, metadata={op_name="jit(_full_run)/jit(main)/jit(eigh)/eigh" source_file="/global/homes/j/jackm/software/lorrax_C/src/solvers/lanczos.py" source_line=292}
  %iota.13 = s64[200]{0} iota(), iota_dimension=0, sharding={replicated}, metadata={op_name="jit(_full_run)/jit(main)/jit(argsort)/iota" source_file="/global/homes/j/jackm/software/lorrax_C/src/solvers/lanczos.py" source_line=293}
  %sort.0 = (f64[200]{0}, s64[200]{0}) sort(%select.347, %iota.13), dimensions={0}, is_stable=true, to_apply=%region_24.2284, sharding={{replicated}, {replicated}}, metadata={op_name="jit(_full_run)/jit(main)/jit(argsort)/sort" source_file="/global/homes/j/jackm/software/lorrax_C/src/solvers/lanczos.py" source_line=293}
  %get-tuple-element.65 = s64[200]{0} get-tuple-element(%sort.0), index=1, sharding={replicated}, metadata={op_name="jit(_full_run)/jit(main)/jit(argsort)/sort" source_file="/global/homes/j/jackm/software/lorrax_C/src/solvers/lanczos.py" source_line=293}
  %slice.2307 = s64[20]{0} slice(%get-tuple-element.65), slice={[0:20]}, sharding={replicated}, metadata={op_name="jit(_full_run)/jit(main)/slice" source_file="/global/homes/j/jackm/software/lorrax_C/src/solvers/lanczos.py" source_line=293}
  %constant.13 = s64[] constant(0), sharding={replicated}
  %broadcast.14 = s64[20]{0} broadcast(%constant.13), dimensions={}, sharding={replicated}
  %compare.2308 = pred[20]{0} compare(%slice.2307, %broadcast.14), direction=LT, sharding={replicated}, metadata={op_name="jit(_full_run)/jit(main)/lt" source_file="/global/homes/j/jackm/software/lorrax_C/src/solvers/lanczos.py" source_line=294}
  %constant.11 = s64[] constant(200), sharding={replicated}
  %broadcast.12 = s64[20]{0} broadcast(%constant.11), dimensions={}, sharding={replicated}
  %add.2309 = s64[20]{0} add(%slice.2307, %broadcast.12), sharding={replicated}, metadata={op_name="jit(_full_run)/jit(main)/add" source_file="/global/homes/j/jackm/software/lorrax_C/src/solvers/lanczos.py" source_line=294}
  %select.2310 = s64[20]{0} select(%compare.2308, %add.2309, %slice.2307), sharding={replicated}, metadata={op_name="jit(_full_run)/jit(main)/select_n" source_file="/global/homes/j/jackm/software/lorrax_C/src/solvers/lanczos.py" source_line=294}
  %convert.2311 = s32[20]{0} convert(%select.2310), sharding={replicated}, metadata={op_name="jit(_full_run)/jit(main)/convert_element_type" source_file="/global/homes/j/jackm/software/lorrax_C/src/solvers/lanczos.py" source_line=294}
  %reshape.2312 = s32[20,1]{1,0} reshape(%convert.2311), sharding={replicated}, metadata={op_name="jit(_full_run)/jit(main)/broadcast_in_dim" source_file="/global/homes/j/jackm/software/lorrax_C/src/solvers/lanczos.py" source_line=294}
  %gather.2313 = f64[20]{0} gather(%select.347, %reshape.2312), offset_dims={}, collapsed_slice_dims={0}, start_index_map={0}, index_vector_dim=1, slice_sizes={1}, sharding={replicated}, metadata={op_name="jit(_full_run)/jit(main)/gather" source_file="/global/homes/j/jackm/software/lorrax_C/src/solvers/lanczos.py" source_line=294}
  %broadcast.833 = pred[200,200]{1,0} broadcast(%compare.161), dimensions={}, sharding={replicated}, metadata={op_name="jit(_full_run)/jit(main)/jit(eigh)/eigh" source_file="/global/homes/j/jackm/software/lorrax_C/src/solvers/lanczos.py" source_line=292}
  %get-tuple-element.63 = f64[200,200]{0,1} get-tuple-element(%custom-call.92), index=0, sharding={replicated}, frontend_attributes={num_batch_dims="0"}, metadata={op_name="jit(_full_run)/jit(main)/jit(eigh)/eigh" source_file="/global/homes/j/jackm/software/lorrax_C/src/solvers/lanczos.py" source_line=292}
  %constant.709 = f64[] constant(nan), sharding={replicated}
  %broadcast.835 = f64[200,200]{1,0} broadcast(%constant.709), dimensions={}, sharding={replicated}
  %select.348 = f64[200,200]{1,0} select(%broadcast.833, %get-tuple-element.63, %broadcast.835), sharding={replicated}, metadata={op_name="jit(_full_run)/jit(main)/jit(eigh)/eigh" source_file="/global/homes/j/jackm/software/lorrax_C/src/solvers/lanczos.py" source_line=292}
  %compare.2314 = pred[20]{0} compare(%slice.2307, %broadcast.14), direction=LT, sharding={replicated}, metadata={op_name="jit(_full_run)/jit(main)/lt" source_file="/global/homes/j/jackm/software/lorrax_C/src/solvers/lanczos.py" source_line=296}
  %add.2315 = s64[20]{0} add(%slice.2307, %broadcast.12), sharding={replicated}, metadata={op_name="jit(_full_run)/jit(main)/add" source_file="/global/homes/j/jackm/software/lorrax_C/src/solvers/lanczos.py" source_line=296}
  %select.2316 = s64[20]{0} select(%compare.2314, %add.2315, %slice.2307), sharding={replicated}, metadata={op_name="jit(_full_run)/jit(main)/select_n" source_file="/global/homes/j/jackm/software/lorrax_C/src/solvers/lanczos.py" source_line=296}
  %convert.2317 = s32[20]{0} convert(%select.2316), sharding={replicated}, metadata={op_name="jit(_full_run)/jit(main)/convert_element_type" source_file="/global/homes/j/jackm/software/lorrax_C/src/solvers/lanczos.py" source_line=296}
  %reshape.2318 = s32[20,1]{1,0} reshape(%convert.2317), sharding={replicated}, metadata={op_name="jit(_full_run)/jit(main)/broadcast_in_dim" source_file="/global/homes/j/jackm/software/lorrax_C/src/solvers/lanczos.py" source_line=296}
  %gather.2319 = f64[200,20]{1,0} gather(%select.348, %reshape.2318), offset_dims={0}, collapsed_slice_dims={1}, start_index_map={1}, index_vector_dim=1, slice_sizes={200,1}, sharding={replicated}, metadata={op_name="jit(_full_run)/jit(main)/gather" source_file="/global/homes/j/jackm/software/lorrax_C/src/solvers/lanczos.py" source_line=296}
  %convert.2320 = c128[200,20]{1,0} convert(%gather.2319), sharding={replicated}, metadata={op_name="jit(_full_run)/jit(main)/dot_general" source_file="/global/homes/j/jackm/software/lorrax_C/src/solvers/lanczos.py" source_line=296}
  %get-tuple-element.2182 = c128[1024,200]{1,0} get-tuple-element(%while.36), index=1, sharding={devices=[2,1,2]<=[4] last_tile_dim_replicate}, metadata={op_name="jit(_full_run)/jit(main)/while" source_file="/global/homes/j/jackm/software/lorrax_C/src/solvers/lanczos.py" source_line=286}
  %dot.27 = c128[20,1024]{0,1} dot(%convert.2320, %get-tuple-element.2182), lhs_contracting_dims={0}, rhs_contracting_dims={1}, sharding={devices=[1,2,2]<=[4] last_tile_dim_replicate}, metadata={op_name="jit(_full_run)/jit(main)/transpose" source_file="/global/homes/j/jackm/software/lorrax_C/src/solvers/lanczos.py" source_line=296}
  %real.25 = f64[20,1024]{1,0} real(%dot.27), sharding={devices=[1,2,2]<=[4] last_tile_dim_replicate}, metadata={op_name="jit(_full_run)/jit(main)/jit(norm)/real" source_file="/global/homes/j/jackm/software/lorrax_C/src/solvers/lanczos.py" source_line=297}
  %imag.21 = f64[20,1024]{1,0} imag(%dot.27), sharding={devices=[1,2,2]<=[4] last_tile_dim_replicate}, metadata={op_name="jit(_full_run)/jit(main)/jit(norm)/imag" source_file="/global/homes/j/jackm/software/lorrax_C/src/solvers/lanczos.py" source_line=297}
  %negate.35 = f64[20,1024]{1,0} negate(%imag.21), sharding={devices=[1,2,2]<=[4] last_tile_dim_replicate}, metadata={op_name="jit(_full_run)/jit(main)/jit(norm)/neg" source_file="/global/homes/j/jackm/software/lorrax_C/src/solvers/lanczos.py" source_line=297}
  %complex.21 = c128[20,1024]{1,0} complex(%real.25, %negate.35), sharding={devices=[1,2,2]<=[4] last_tile_dim_replicate}, metadata={op_name="jit(_full_run)/jit(main)/jit(norm)/complex" source_file="/global/homes/j/jackm/software/lorrax_C/src/solvers/lanczos.py" source_line=297}
  %multiply.243 = c128[20,1024]{1,0} multiply(%dot.27, %complex.21), sharding={devices=[1,2,2]<=[4] last_tile_dim_replicate}, metadata={op_name="jit(_full_run)/jit(main)/jit(norm)/mul" source_file="/global/homes/j/jackm/software/lorrax_C/src/solvers/lanczos.py" source_line=297}
  %real.26 = f64[20,1024]{1,0} real(%multiply.243), sharding={devices=[1,2,2]<=[4] last_tile_dim_replicate}, metadata={op_name="jit(_full_run)/jit(main)/jit(norm)/real" source_file="/global/homes/j/jackm/software/lorrax_C/src/solvers/lanczos.py" source_line=297}
  %constant.710 = f64[] constant(0)
  %reduce.10 = f64[20]{0} reduce(%real.26, %constant.710), dimensions={1}, to_apply=%region_25.2323, sharding={replicated}, metadata={op_name="jit(_full_run)/jit(main)/jit(norm)/reduce_sum" source_file="/global/homes/j/jackm/software/lorrax_C/src/solvers/lanczos.py" source_line=297}
  %sqrt.83 = f64[20]{0} sqrt(%reduce.10), sharding={replicated}, metadata={op_name="jit(_full_run)/jit(main)/jit(norm)/sqrt" source_file="/global/homes/j/jackm/software/lorrax_C/src/solvers/lanczos.py" source_line=297}
  %constant.9 = f64[] constant(1e-15), sharding={replicated}
  %broadcast.1094 = f64[20]{0} broadcast(%constant.9), dimensions={}, sharding={replicated}
  %maximum.35 = f64[20]{0} maximum(%sqrt.83, %broadcast.1094), sharding={replicated}, metadata={op_name="jit(_full_run)/jit(main)/max" source_file="/global/homes/j/jackm/software/lorrax_C/src/solvers/lanczos.py" source_line=298}
  %convert.119 = c128[20]{0} convert(%maximum.35), sharding={replicated}, metadata={op_name="jit(_full_run)/jit(main)/convert_element_type" source_file="/global/homes/j/jackm/software/lorrax_C/src/solvers/lanczos.py" source_line=298}
  %broadcast.2344 = c128[20,1024]{1,0} broadcast(%convert.119), dimensions={0}, sharding={devices=[1,2,2]<=[4] last_tile_dim_replicate}, metadata={op_name="jit(_full_run)/jit(main)/div" source_file="/global/homes/j/jackm/software/lorrax_C/src/solvers/lanczos.py" source_line=298}
  %divide.2345 = c128[20,1024]{0,1} divide(%dot.27, %broadcast.2344), sharding={devices=[1,2,2]<=[4] last_tile_dim_replicate}, metadata={op_name="jit(_full_run)/jit(main)/div" source_file="/global/homes/j/jackm/software/lorrax_C/src/solvers/lanczos.py" source_line=298}
  ROOT %tuple.2346 = (f64[20]{0}, c128[20,1024]{0,1}) tuple(%gather.2313, %divide.2345), sharding={{replicated}, {devices=[1,2,2]<=[4] last_tile_dim_replicate}}
  %constant.447 = f64[] constant(-0.99999999999999989)
  %constant.540 = f64[] constant(-0.99999999999999989)
  %constant.1386 = u32[] constant(42), metadata={op_name="jit(_full_run)/jit(main)/jit(_threefry_split)/squeeze" source_file="/global/homes/j/jackm/software/lorrax_C/src/solvers/lanczos.py" source_line=245}
  %constant.1388 = u32[] constant(466689008), metadata={op_name="jit(_full_run)/jit(main)/jit(_threefry_split)/xor" source_file="/global/homes/j/jackm/software/lorrax_C/src/solvers/lanczos.py" source_line=245}
}

