HloModule jit_species_structure_factors, is_scheduled=true, entry_computation_layout={(f64[1,2,3]{2,1,0}, s32[1]{0}, f64[46656,3]{1,0})->c128[1,46656]{1,0}}, allow_spmd_sharding_propagation_to_parameters={true,true,true}, allow_spmd_sharding_propagation_to_output={true}, frontend_attributes={fingerprint_before_lhs="7cf9d3ebde6f2920404739ae9a16a36f"}

%scalar_add_computation (scalar_lhs: f64[], scalar_rhs: f64[]) -> f64[] {
  %scalar_rhs = f64[] parameter(1), metadata={scheduling_name="scalar_rhs"}
  %scalar_lhs = f64[] parameter(0), metadata={scheduling_name="scalar_lhs"}
  ROOT %add.12 = f64[] add(%scalar_lhs, %scalar_rhs), metadata={scheduling_name="add.12"}
}

%fused_add (param_0.15: c128[46656], param_1.68: f64[46656,3], param_2.36: s32[], param_3.22: s64[2], param_4.22: s64[], param_5.17: f64[2,3]) -> c128[46656] {
  %param_0.15 = c128[46656]{0} parameter(0), metadata={scheduling_name="param_0.15"}
  %param_1.68 = f64[46656,3]{1,0} parameter(1), metadata={scheduling_name="param_1.68"}
  %param_5.17 = f64[2,3]{1,0} parameter(5), metadata={scheduling_name="param_5.17"}
  %param_3.22 = s64[2]{0} parameter(3), metadata={scheduling_name="param_3.22"}
  %param_4.22 = s64[] parameter(4), metadata={scheduling_name="param_4.22"}
  %dynamic-slice.5.6 = s64[1]{0} dynamic-slice(%param_3.22, %param_4.22), dynamic_slice_sizes={1}, metadata={op_name="jit(species_structure_factors)/jit(main)/while/body/while/body/dynamic_slice" source_file="/pscratch/sd/j/jackm/lorrax_sandbox/sources/lorrax/src/psp/ionic_gspace.py" source_line=63 scheduling_name="dynamic-slice.5.6"}
  %bitcast.291.20 = s64[] bitcast(%dynamic-slice.5.6), metadata={scheduling_name="bitcast.291.20"}
  %constant_0_1 = s64[] constant(0)
  %compare.15.5 = pred[] compare(%bitcast.291.20, %constant_0_1), direction=LT, metadata={op_name="jit(species_structure_factors)/jit(main)/while/body/while/body/lt" source_file="/pscratch/sd/j/jackm/lorrax_sandbox/sources/lorrax/src/psp/ionic_gspace.py" source_line=60 scheduling_name="compare.15.5"}
  %constant_1_1 = s64[] constant(2)
  %add.14.5 = s64[] add(%bitcast.291.20, %constant_1_1), metadata={op_name="jit(species_structure_factors)/jit(main)/while/body/while/body/add" source_file="/pscratch/sd/j/jackm/lorrax_sandbox/sources/lorrax/src/psp/ionic_gspace.py" source_line=60 scheduling_name="add.14.5"}
  %select.12.5 = s64[] select(%compare.15.5, %add.14.5, %bitcast.291.20), metadata={op_name="jit(species_structure_factors)/jit(main)/while/body/while/body/select_n" source_file="/pscratch/sd/j/jackm/lorrax_sandbox/sources/lorrax/src/psp/ionic_gspace.py" source_line=60 scheduling_name="select.12.5"}
  %dynamic-slice.6.3 = f64[1,3]{1,0} dynamic-slice(%param_5.17, %select.12.5, %constant_0_1), dynamic_slice_sizes={1,3}, metadata={op_name="jit(species_structure_factors)/jit(main)/while/body/while/body/dynamic_slice" source_file="/pscratch/sd/j/jackm/lorrax_sandbox/sources/lorrax/src/psp/ionic_gspace.py" source_line=60 scheduling_name="dynamic-slice.6.3"}
  %bitcast.301.7 = f64[3]{0} bitcast(%dynamic-slice.6.3), metadata={scheduling_name="bitcast.301.7"}
  %broadcast.29.7 = f64[46656,3]{1,0} broadcast(%bitcast.301.7), dimensions={1}, metadata={op_name="jit(species_structure_factors)/jit(main)/while/body/while/body/dot_general" source_file="/pscratch/sd/j/jackm/lorrax_sandbox/sources/lorrax/src/psp/ionic_gspace.py" source_line=60 scheduling_name="broadcast.29.7"}
  %multiply.30.5 = f64[46656,3]{1,0} multiply(%param_1.68, %broadcast.29.7), metadata={scheduling_name="multiply.30.5"}
  %constant_7_1 = f64[] constant(0)
  %reduce.4 = f64[46656]{0} reduce(%multiply.30.5, %constant_7_1), dimensions={1}, to_apply=%scalar_add_computation, metadata={op_name="jit(species_structure_factors)/jit(main)/while/body/while/body/dot_general" source_file="/pscratch/sd/j/jackm/lorrax_sandbox/sources/lorrax/src/psp/ionic_gspace.py" source_line=60 scheduling_name="reduce.4"}
  %convert.9.7 = c128[46656]{0} convert(%reduce.4), metadata={op_name="jit(species_structure_factors)/jit(main)/while/body/while/body/convert_element_type" source_file="/pscratch/sd/j/jackm/lorrax_sandbox/sources/lorrax/src/psp/ionic_gspace.py" source_line=60 scheduling_name="convert.9.7"}
  %constant_2_1 = c128[] constant((0, -6.2831853071795862))
  %broadcast.30.7 = c128[46656]{0} broadcast(%constant_2_1), dimensions={}, metadata={scheduling_name="broadcast.30.7"}
  %multiply.32.7 = c128[46656]{0} multiply(%convert.9.7, %broadcast.30.7), metadata={op_name="jit(species_structure_factors)/jit(main)/while/body/while/body/mul" source_file="/pscratch/sd/j/jackm/lorrax_sandbox/sources/lorrax/src/psp/ionic_gspace.py" source_line=60 scheduling_name="multiply.32.7"}
  %real.3.3 = f64[46656]{0} real(%multiply.32.7), metadata={op_name="jit(species_structure_factors)/jit(main)/while/body/while/body/exp" source_file="/pscratch/sd/j/jackm/lorrax_sandbox/sources/lorrax/src/psp/ionic_gspace.py" source_line=60 scheduling_name="real.3.3"}
  %exponential.6.1 = f64[46656]{0} exponential(%real.3.3), metadata={op_name="jit(species_structure_factors)/jit(main)/while/body/while/body/exp" source_file="/pscratch/sd/j/jackm/lorrax_sandbox/sources/lorrax/src/psp/ionic_gspace.py" source_line=60 scheduling_name="exponential.6.1"}
  %constant_3_1 = f64[] constant(inf)
  %broadcast.31.1 = f64[46656]{0} broadcast(%constant_3_1), dimensions={}, metadata={scheduling_name="broadcast.31.1"}
  %compare.16.1 = pred[46656]{0} compare(%exponential.6.1, %broadcast.31.1), direction=EQ, metadata={op_name="jit(species_structure_factors)/jit(main)/while/body/while/body/exp" source_file="/pscratch/sd/j/jackm/lorrax_sandbox/sources/lorrax/src/psp/ionic_gspace.py" source_line=60 scheduling_name="compare.16.1"}
  %constant_6_1 = f64[] constant(0.5)
  %broadcast.32.1 = f64[46656]{0} broadcast(%constant_6_1), dimensions={}, metadata={scheduling_name="broadcast.32.1"}
  %multiply.33.3 = f64[46656]{0} multiply(%real.3.3, %broadcast.32.1), metadata={op_name="jit(species_structure_factors)/jit(main)/while/body/while/body/exp" source_file="/pscratch/sd/j/jackm/lorrax_sandbox/sources/lorrax/src/psp/ionic_gspace.py" source_line=60 scheduling_name="multiply.33.3"}
  %exponential.7.3 = f64[46656]{0} exponential(%multiply.33.3), metadata={op_name="jit(species_structure_factors)/jit(main)/while/body/while/body/exp" source_file="/pscratch/sd/j/jackm/lorrax_sandbox/sources/lorrax/src/psp/ionic_gspace.py" source_line=60 scheduling_name="exponential.7.3"}
  %imag.3.5 = f64[46656]{0} imag(%multiply.32.7), metadata={op_name="jit(species_structure_factors)/jit(main)/while/body/while/body/exp" source_file="/pscratch/sd/j/jackm/lorrax_sandbox/sources/lorrax/src/psp/ionic_gspace.py" source_line=60 scheduling_name="imag.3.5"}
  %cosine.3.1 = f64[46656]{0} cosine(%imag.3.5), metadata={op_name="jit(species_structure_factors)/jit(main)/while/body/while/body/exp" source_file="/pscratch/sd/j/jackm/lorrax_sandbox/sources/lorrax/src/psp/ionic_gspace.py" source_line=60 scheduling_name="cosine.3.1"}
  %multiply.34.5 = f64[46656]{0} multiply(%exponential.7.3, %cosine.3.1), metadata={op_name="jit(species_structure_factors)/jit(main)/while/body/while/body/exp" source_file="/pscratch/sd/j/jackm/lorrax_sandbox/sources/lorrax/src/psp/ionic_gspace.py" source_line=60 scheduling_name="multiply.34.5"}
  %multiply.36.5 = f64[46656]{0} multiply(%multiply.34.5, %exponential.7.3), metadata={op_name="jit(species_structure_factors)/jit(main)/while/body/while/body/exp" source_file="/pscratch/sd/j/jackm/lorrax_sandbox/sources/lorrax/src/psp/ionic_gspace.py" source_line=60 scheduling_name="multiply.36.5"}
  %multiply.37.3 = f64[46656]{0} multiply(%exponential.6.1, %cosine.3.1), metadata={op_name="jit(species_structure_factors)/jit(main)/while/body/while/body/exp" source_file="/pscratch/sd/j/jackm/lorrax_sandbox/sources/lorrax/src/psp/ionic_gspace.py" source_line=60 scheduling_name="multiply.37.3"}
  %select.13.3 = f64[46656]{0} select(%compare.16.1, %multiply.36.5, %multiply.37.3), metadata={op_name="jit(species_structure_factors)/jit(main)/while/body/while/body/exp" source_file="/pscratch/sd/j/jackm/lorrax_sandbox/sources/lorrax/src/psp/ionic_gspace.py" source_line=60 scheduling_name="select.13.3"}
  %broadcast.33.6 = f64[46656]{0} broadcast(%constant_7_1), dimensions={}, metadata={scheduling_name="broadcast.33.6"}
  %compare.17.3 = pred[46656]{0} compare(%imag.3.5, %broadcast.33.6), direction=EQ, metadata={op_name="jit(species_structure_factors)/jit(main)/while/body/while/body/exp" source_file="/pscratch/sd/j/jackm/lorrax_sandbox/sources/lorrax/src/psp/ionic_gspace.py" source_line=60 scheduling_name="compare.17.3"}
  %sine.3.1 = f64[46656]{0} sine(%imag.3.5), metadata={op_name="jit(species_structure_factors)/jit(main)/while/body/while/body/exp" source_file="/pscratch/sd/j/jackm/lorrax_sandbox/sources/lorrax/src/psp/ionic_gspace.py" source_line=60 scheduling_name="sine.3.1"}
  %multiply.38.3 = f64[46656]{0} multiply(%exponential.7.3, %sine.3.1), metadata={op_name="jit(species_structure_factors)/jit(main)/while/body/while/body/exp" source_file="/pscratch/sd/j/jackm/lorrax_sandbox/sources/lorrax/src/psp/ionic_gspace.py" source_line=60 scheduling_name="multiply.38.3"}
  %multiply.42.3 = f64[46656]{0} multiply(%multiply.38.3, %exponential.7.3), metadata={op_name="jit(species_structure_factors)/jit(main)/while/body/while/body/exp" source_file="/pscratch/sd/j/jackm/lorrax_sandbox/sources/lorrax/src/psp/ionic_gspace.py" source_line=60 scheduling_name="multiply.42.3"}
  %multiply.43.1 = f64[46656]{0} multiply(%exponential.6.1, %sine.3.1), metadata={op_name="jit(species_structure_factors)/jit(main)/while/body/while/body/exp" source_file="/pscratch/sd/j/jackm/lorrax_sandbox/sources/lorrax/src/psp/ionic_gspace.py" source_line=60 scheduling_name="multiply.43.1"}
  %select.14.1 = f64[46656]{0} select(%compare.16.1, %multiply.42.3, %multiply.43.1), metadata={op_name="jit(species_structure_factors)/jit(main)/while/body/while/body/exp" source_file="/pscratch/sd/j/jackm/lorrax_sandbox/sources/lorrax/src/psp/ionic_gspace.py" source_line=60 scheduling_name="select.14.1"}
  %select.15.3 = f64[46656]{0} select(%compare.17.3, %broadcast.33.6, %select.14.1), metadata={op_name="jit(species_structure_factors)/jit(main)/while/body/while/body/exp" source_file="/pscratch/sd/j/jackm/lorrax_sandbox/sources/lorrax/src/psp/ionic_gspace.py" source_line=60 scheduling_name="select.15.3"}
  %complex.3.1 = c128[46656]{0} complex(%select.13.3, %select.15.3), metadata={op_name="jit(species_structure_factors)/jit(main)/while/body/while/body/exp" source_file="/pscratch/sd/j/jackm/lorrax_sandbox/sources/lorrax/src/psp/ionic_gspace.py" source_line=60 scheduling_name="complex.3.1"}
  %param_2.36 = s32[] parameter(2), metadata={scheduling_name="param_2.36"}
  %convert.10.3 = s64[] convert(%param_2.36), metadata={op_name="jit(species_structure_factors)/jit(main)/while/body/while/body/convert_element_type" source_file="/pscratch/sd/j/jackm/lorrax_sandbox/sources/lorrax/src/psp/ionic_gspace.py" source_line=61 scheduling_name="convert.10.3"}
  %compare.18.5 = pred[] compare(%bitcast.291.20, %convert.10.3), direction=LT, metadata={op_name="jit(species_structure_factors)/jit(main)/while/body/while/body/lt" source_file="/pscratch/sd/j/jackm/lorrax_sandbox/sources/lorrax/src/psp/ionic_gspace.py" source_line=61 scheduling_name="compare.18.5"}
  %convert.11.3 = c128[] convert(%compare.18.5), metadata={op_name="jit(species_structure_factors)/jit(main)/while/body/while/body/convert_element_type" source_file="/pscratch/sd/j/jackm/lorrax_sandbox/sources/lorrax/src/psp/ionic_gspace.py" source_line=61 scheduling_name="convert.11.3"}
  %broadcast.35.1 = c128[46656]{0} broadcast(%convert.11.3), dimensions={}, metadata={op_name="jit(species_structure_factors)/jit(main)/while/body/while/body/mul" source_file="/pscratch/sd/j/jackm/lorrax_sandbox/sources/lorrax/src/psp/ionic_gspace.py" source_line=61 scheduling_name="broadcast.35.1"}
  %multiply.44.1 = c128[46656]{0} multiply(%complex.3.1, %broadcast.35.1), metadata={op_name="jit(species_structure_factors)/jit(main)/while/body/while/body/mul" source_file="/pscratch/sd/j/jackm/lorrax_sandbox/sources/lorrax/src/psp/ionic_gspace.py" source_line=61 scheduling_name="multiply.44.1"}
  ROOT %add.15.1 = c128[46656]{0} add(%param_0.15, %multiply.44.1), metadata={op_name="jit(species_structure_factors)/jit(main)/while/body/while/body/add" source_file="/pscratch/sd/j/jackm/lorrax_sandbox/sources/lorrax/src/psp/ionic_gspace.py" source_line=61 scheduling_name="add.15.1"}
}

%fused_add.1 (param_0.59: s64[]) -> s64[] {
  %param_0.59 = s64[] parameter(0), metadata={scheduling_name="param_0.59"}
  %constant_65_1 = s64[] constant(1)
  ROOT %add.13.1 = s64[] add(%param_0.59, %constant_65_1), metadata={op_name="jit(species_structure_factors)/jit(main)/while/body/while/body/add" source_file="/pscratch/sd/j/jackm/lorrax_sandbox/sources/lorrax/src/psp/ionic_gspace.py" source_line=63 scheduling_name="add.13.1"}
}

%region_1.57 (arg_tuple.58.0: (s64[], c128[46656], s64[2], f64[2,3], f64[46656,3], /*index=5*/s32[])) -> (s64[], c128[46656], s64[2], f64[2,3], f64[46656,3], /*index=5*/s32[]) {
  %arg_tuple.58.0 = (s64[], c128[46656]{0}, s64[2]{0}, f64[2,3]{1,0}, f64[46656,3]{1,0}, /*index=5*/s32[]) parameter(0), metadata={scheduling_name="arg_tuple.58.0"}
  %get-tuple-element.13 = s64[] get-tuple-element(%arg_tuple.58.0), index=0, metadata={scheduling_name="get-tuple-element.13"}
  %get-tuple-element.24 = s32[] get-tuple-element(%arg_tuple.58.0), index=5, metadata={scheduling_name="get-tuple-element.24"}
  %get-tuple-element.21 = s64[2]{0} get-tuple-element(%arg_tuple.58.0), index=2, metadata={scheduling_name="get-tuple-element.21"}
  %get-tuple-element.22 = f64[2,3]{1,0} get-tuple-element(%arg_tuple.58.0), index=3, metadata={scheduling_name="get-tuple-element.22"}
  %get-tuple-element.23 = f64[46656,3]{1,0} get-tuple-element(%arg_tuple.58.0), index=4, metadata={scheduling_name="get-tuple-element.23"}
  %get-tuple-element.14 = c128[46656]{0} get-tuple-element(%arg_tuple.58.0), index=1, metadata={scheduling_name="get-tuple-element.14"}
  %loop_add_fusion = c128[46656]{0} fusion(%get-tuple-element.14, %get-tuple-element.23, %get-tuple-element.24, %get-tuple-element.21, %get-tuple-element.13, /*index=5*/%get-tuple-element.22), kind=kLoop, calls=%fused_add, metadata={op_name="jit(species_structure_factors)/jit(main)/while/body/while/body/add" source_file="/pscratch/sd/j/jackm/lorrax_sandbox/sources/lorrax/src/psp/ionic_gspace.py" source_line=61 scheduling_name="loop_add_fusion"}
  %loop_add_fusion.1 = s64[] fusion(%get-tuple-element.13), kind=kLoop, calls=%fused_add.1, control-predecessors={%loop_add_fusion}, metadata={op_name="jit(species_structure_factors)/jit(main)/while/body/while/body/add" source_file="/pscratch/sd/j/jackm/lorrax_sandbox/sources/lorrax/src/psp/ionic_gspace.py" source_line=63 scheduling_name="loop_add_fusion.1"}
  ROOT %tuple.5 = (s64[], c128[46656]{0}, s64[2]{0}, f64[2,3]{1,0}, f64[46656,3]{1,0}, /*index=5*/s32[]) tuple(%loop_add_fusion.1, %loop_add_fusion, %get-tuple-element.21, %get-tuple-element.22, %get-tuple-element.23, /*index=5*/%get-tuple-element.24), metadata={scheduling_name="tuple.5"}
}

%fused_compare (param_0: s64[]) -> pred[] {
  %param_0 = s64[] parameter(0), metadata={scheduling_name="param_0"}
  %constant_79_1 = s64[] constant(2)
  ROOT %compare.14.1 = pred[] compare(%param_0, %constant_79_1), direction=LT, metadata={op_name="jit(species_structure_factors)/jit(main)/while/body/while/cond/lt" source_file="/pscratch/sd/j/jackm/lorrax_sandbox/sources/lorrax/src/psp/ionic_gspace.py" source_line=63 scheduling_name="compare.14.1"}
}

%region_2.71 (arg_tuple.72.0: (s64[], c128[46656], s64[2], f64[2,3], f64[46656,3], /*index=5*/s32[])) -> pred[] {
  %arg_tuple.72.0 = (s64[], c128[46656]{0}, s64[2]{0}, f64[2,3]{1,0}, f64[46656,3]{1,0}, /*index=5*/s32[]) parameter(0), metadata={scheduling_name="arg_tuple.72.0"}
  %get-tuple-element.73.0 = s64[] get-tuple-element(%arg_tuple.72.0), index=0, metadata={scheduling_name="get-tuple-element.73.0"}
  ROOT %loop_compare_fusion = pred[] fusion(%get-tuple-element.73.0), kind=kLoop, calls=%fused_compare, metadata={op_name="jit(species_structure_factors)/jit(main)/while/body/while/cond/lt" source_file="/pscratch/sd/j/jackm/lorrax_sandbox/sources/lorrax/src/psp/ionic_gspace.py" source_line=63 scheduling_name="loop_compare_fusion"}
}

%fused_broadcast () -> c128[46656] {
  %constant_5_1 = c128[] constant((0, 0))
  ROOT %broadcast.36.1 = c128[46656]{0} broadcast(%constant_5_1), dimensions={}, metadata={op_name="jit(species_structure_factors)/jit(main)/while/body/broadcast_in_dim" source_file="/pscratch/sd/j/jackm/lorrax_sandbox/sources/lorrax/src/psp/ionic_gspace.py" source_line=63 scheduling_name="broadcast.36.1"}
}

%wrapped_iota_computation () -> s64[2] {
  ROOT %iota.4.1 = s64[2]{0} iota(), iota_dimension=0, metadata={op_name="jit(species_structure_factors)/jit(main)/while/body/iota" source_file="/pscratch/sd/j/jackm/lorrax_sandbox/sources/lorrax/src/psp/ionic_gspace.py" source_line=64 scheduling_name="iota.4.1"}
}

ENTRY %main.123 (Arg_0.1.0: f64[1,2,3], Arg_1.2.0: s32[1], Arg_2.3.0: f64[46656,3]) -> c128[1,46656] {
  %constant_4_0 = s64[] constant(0)
  %Arg_1.2.0 = s32[1]{0} parameter(1), metadata={op_name="species_natoms" scheduling_name="Arg_1.2.0"}
  %Arg_2.3.0 = f64[46656,3]{1,0} parameter(2), metadata={op_name="G_crys_flat" scheduling_name="Arg_2.3.0"}
  %Arg_0.1.0 = f64[1,2,3]{2,1,0} parameter(0), metadata={op_name="species_tau" scheduling_name="Arg_0.1.0"}
  %copy.7 = s64[] copy(%constant_4_0)
  %bitcast.384.0 = s32[] bitcast(%Arg_1.2.0), metadata={scheduling_name="bitcast.384.0"}
  %bitcast.378.0 = f64[2,3]{1,0} bitcast(%Arg_0.1.0), metadata={scheduling_name="bitcast.378.0"}
  %wrapped_iota = s64[2]{0} fusion(), kind=kLoop, calls=%wrapped_iota_computation, metadata={op_name="jit(species_structure_factors)/jit(main)/while/body/iota" source_file="/pscratch/sd/j/jackm/lorrax_sandbox/sources/lorrax/src/psp/ionic_gspace.py" source_line=64 scheduling_name="wrapped_iota"}
  %loop_broadcast_fusion = c128[46656]{0} fusion(), kind=kLoop, calls=%fused_broadcast, metadata={op_name="jit(species_structure_factors)/jit(main)/while/body/broadcast_in_dim" source_file="/pscratch/sd/j/jackm/lorrax_sandbox/sources/lorrax/src/psp/ionic_gspace.py" source_line=63 scheduling_name="loop_broadcast_fusion"}
  %tuple.3 = (s64[], c128[46656]{0}, s64[2]{0}, f64[2,3]{1,0}, f64[46656,3]{1,0}, /*index=5*/s32[]) tuple(%copy.7, %loop_broadcast_fusion, %wrapped_iota, %bitcast.378.0, %Arg_2.3.0, /*index=5*/%bitcast.384.0), metadata={scheduling_name="tuple.3"}
  %while.1.0 = (s64[], c128[46656]{0}, s64[2]{0}, f64[2,3]{1,0}, f64[46656,3]{1,0}, /*index=5*/s32[]) while(%tuple.3), condition=%region_2.71, body=%region_1.57, metadata={op_name="jit(species_structure_factors)/jit(main)/while/body/while" source_file="/pscratch/sd/j/jackm/lorrax_sandbox/sources/lorrax/src/psp/ionic_gspace.py" source_line=63 scheduling_name="while.1.0"}, backend_config={"known_trip_count":{"n":"2"},"known_init_step":{"init":"0","step":"1"},"known_induction_variable":{"tuple_index":"0"}}
  %get-tuple-element.6.0 = c128[46656]{0} get-tuple-element(%while.1.0), index=1, metadata={op_name="jit(species_structure_factors)/jit(main)/while/body/while" source_file="/pscratch/sd/j/jackm/lorrax_sandbox/sources/lorrax/src/psp/ionic_gspace.py" source_line=63 scheduling_name="get-tuple-element.6.0"}
  ROOT %bitcast.4.0 = c128[1,46656]{1,0} bitcast(%get-tuple-element.6.0), metadata={op_name="jit(species_structure_factors)/jit(main)/while/body/while" source_file="/pscratch/sd/j/jackm/lorrax_sandbox/sources/lorrax/src/psp/ionic_gspace.py" source_line=63 scheduling_name="bitcast.4.0"}
}

