HloModule jit_compute_V_H_and_V_xc, entry_computation_layout={(f64[36,36,36]{2,1,0}, f64[36,36,36]{2,1,0}, c128[36,36,36]{2,1,0}, f64[36,36,36,3]{3,2,1,0}, f64[3,3]{1,0})->(f64[36,36,36]{2,1,0}, f64[36,36,36]{2,1,0})}, allow_spmd_sharding_propagation_to_parameters={true,true,true,true,true}, allow_spmd_sharding_propagation_to_output={true,true}

%fft.92 (Arg_0.93: f64[36,36,36]) -> c128[36,36,36] {
  %Arg_0.93 = f64[36,36,36]{2,1,0} parameter(0), metadata={op_name="jit(compute_V_H_and_V_xc)/jit(main)/pjit"}
  %convert.94 = c128[36,36,36]{2,1,0} convert(%Arg_0.93), metadata={op_name="jit(compute_V_H_and_V_xc)/jit(main)/jit(fft)/convert_element_type" source_file="/pscratch/sd/j/jackm/lorrax_sandbox/sources/lorrax/src/psp/dft_operators.py" source_line=297}
  ROOT %fft.95 = c128[36,36,36]{2,1,0} fft(%convert.94), fft_type=FFT, fft_length={36,36,36}, metadata={op_name="jit(compute_V_H_and_V_xc)/jit(main)/jit(fft)/fft" source_file="/pscratch/sd/j/jackm/lorrax_sandbox/sources/lorrax/src/psp/dft_operators.py" source_line=297}
}

%region_0.97 (Arg_0.98: c128[], Arg_1.99: c128[]) -> c128[] {
  %Arg_0.98 = c128[] parameter(0), metadata={op_name="jit(compute_V_H_and_V_xc)/jit(main)/reduce_prod"}
  %Arg_1.99 = c128[] parameter(1), metadata={op_name="jit(compute_V_H_and_V_xc)/jit(main)/reduce_prod"}
  ROOT %multiply.100 = c128[] multiply(%Arg_0.98, %Arg_1.99), metadata={op_name="jit(compute_V_H_and_V_xc)/jit(main)/reduce_prod" source_file="/pscratch/sd/j/jackm/lorrax_sandbox/sources/lorrax/src/psp/dft_operators.py" source_line=297}
}

%region_1.199 (Arg_0.200: f64[], Arg_1.201: f64[]) -> f64[] {
  %Arg_0.200 = f64[] parameter(0), metadata={op_name="jit(compute_V_H_and_V_xc)/jit(main)/scatter"}
  ROOT %Arg_1.201 = f64[] parameter(1), metadata={op_name="jit(compute_V_H_and_V_xc)/jit(main)/scatter"}
}

%region_2.203 (Arg_0.204: f64[], Arg_1.205: f64[]) -> f64[] {
  %Arg_0.204 = f64[] parameter(0), metadata={op_name="jit(compute_V_H_and_V_xc)/jit(main)/scatter"}
  ROOT %Arg_1.205 = f64[] parameter(1), metadata={op_name="jit(compute_V_H_and_V_xc)/jit(main)/scatter"}
}

%region_3.210 (Arg_0.211: f64[], Arg_1.212: f64[]) -> f64[] {
  %Arg_0.211 = f64[] parameter(0), metadata={op_name="jit(compute_V_H_and_V_xc)/jit(main)/scatter"}
  ROOT %Arg_1.212 = f64[] parameter(1), metadata={op_name="jit(compute_V_H_and_V_xc)/jit(main)/scatter"}
}

%region_4.214 (Arg_0.215: f64[], Arg_1.216: f64[]) -> f64[] {
  %Arg_0.215 = f64[] parameter(0), metadata={op_name="jit(compute_V_H_and_V_xc)/jit(main)/scatter"}
  ROOT %Arg_1.216 = f64[] parameter(1), metadata={op_name="jit(compute_V_H_and_V_xc)/jit(main)/scatter"}
}

%region_5.221 (Arg_0.222: f64[], Arg_1.223: f64[]) -> f64[] {
  %Arg_0.222 = f64[] parameter(0), metadata={op_name="jit(compute_V_H_and_V_xc)/jit(main)/scatter"}
  ROOT %Arg_1.223 = f64[] parameter(1), metadata={op_name="jit(compute_V_H_and_V_xc)/jit(main)/scatter"}
}

%region_6.225 (Arg_0.226: f64[], Arg_1.227: f64[]) -> f64[] {
  %Arg_0.226 = f64[] parameter(0), metadata={op_name="jit(compute_V_H_and_V_xc)/jit(main)/scatter"}
  ROOT %Arg_1.227 = f64[] parameter(1), metadata={op_name="jit(compute_V_H_and_V_xc)/jit(main)/scatter"}
}

%_where.334 (Arg_0.335: pred[36,36,36], Arg_1.336: f64[], Arg_2.337: f64[36,36,36]) -> f64[36,36,36] {
  %Arg_0.335 = pred[36,36,36]{2,1,0} parameter(0), metadata={op_name="jit(compute_V_H_and_V_xc)/jit(main)/pjit"}
  %Arg_1.336 = f64[] parameter(1), metadata={op_name="jit(compute_V_H_and_V_xc)/jit(main)/pjit"}
  %broadcast.338 = f64[36,36,36]{2,1,0} broadcast(%Arg_1.336), dimensions={}, metadata={op_name="jit(compute_V_H_and_V_xc)/jit(main)/jit(_where)/broadcast_in_dim" source_file="/pscratch/sd/j/jackm/lorrax_sandbox/sources/lorrax/src/psp/dft_operators.py" source_line=118}
  %Arg_2.337 = f64[36,36,36]{2,1,0} parameter(2), metadata={op_name="jit(compute_V_H_and_V_xc)/jit(main)/pjit"}
  ROOT %select.339 = f64[36,36,36]{2,1,0} select(%Arg_0.335, %broadcast.338, %Arg_2.337), metadata={op_name="jit(compute_V_H_and_V_xc)/jit(main)/jit(_where)/select_n" source_file="/pscratch/sd/j/jackm/lorrax_sandbox/sources/lorrax/src/psp/dft_operators.py" source_line=118}
}

%region_7.344 (Arg_0.345: c128[], Arg_1.346: c128[]) -> c128[] {
  %Arg_0.345 = c128[] parameter(0), metadata={op_name="jit(compute_V_H_and_V_xc)/jit(main)/scatter"}
  ROOT %Arg_1.346 = c128[] parameter(1), metadata={op_name="jit(compute_V_H_and_V_xc)/jit(main)/scatter"}
}

%fft_0.348 (Arg_0.349: c128[36,36,36]) -> c128[36,36,36] {
  %Arg_0.349 = c128[36,36,36]{2,1,0} parameter(0), metadata={op_name="jit(compute_V_H_and_V_xc)/jit(main)/pjit"}
  ROOT %fft.350 = c128[36,36,36]{2,1,0} fft(%Arg_0.349), fft_type=IFFT, fft_length={36,36,36}, metadata={op_name="jit(compute_V_H_and_V_xc)/jit(main)/jit(fft)/fft" source_file="/pscratch/sd/j/jackm/lorrax_sandbox/sources/lorrax/src/psp/ionic_gspace.py" source_line=193}
}

%region_8.352 (Arg_0.353: c128[], Arg_1.354: c128[]) -> c128[] {
  %Arg_0.353 = c128[] parameter(0), metadata={op_name="jit(compute_V_H_and_V_xc)/jit(main)/reduce_prod"}
  %Arg_1.354 = c128[] parameter(1), metadata={op_name="jit(compute_V_H_and_V_xc)/jit(main)/reduce_prod"}
  ROOT %multiply.355 = c128[] multiply(%Arg_0.353, %Arg_1.354), metadata={op_name="jit(compute_V_H_and_V_xc)/jit(main)/reduce_prod" source_file="/pscratch/sd/j/jackm/lorrax_sandbox/sources/lorrax/src/psp/dft_operators.py" source_line=133}
}

%fft_0.454 (Arg_0.455: c128[36,36,36]) -> c128[36,36,36] {
  %Arg_0.455 = c128[36,36,36]{2,1,0} parameter(0), metadata={op_name="jit(compute_V_H_and_V_xc)/jit(main)/pjit"}
  ROOT %fft.456 = c128[36,36,36]{2,1,0} fft(%Arg_0.455), fft_type=IFFT, fft_length={36,36,36}, metadata={op_name="jit(compute_V_H_and_V_xc)/jit(main)/jit(fft)/fft" source_file="/pscratch/sd/j/jackm/lorrax_sandbox/sources/lorrax/src/psp/ionic_gspace.py" source_line=193}
}

%fft.460 (Arg_0.461: f64[36,36,36]) -> c128[36,36,36] {
  %Arg_0.461 = f64[36,36,36]{2,1,0} parameter(0), metadata={op_name="jit(compute_V_H_and_V_xc)/jit(main)/pjit"}
  %convert.462 = c128[36,36,36]{2,1,0} convert(%Arg_0.461), metadata={op_name="jit(compute_V_H_and_V_xc)/jit(main)/jit(fft)/convert_element_type" source_file="/pscratch/sd/j/jackm/lorrax_sandbox/sources/lorrax/src/psp/dft_operators.py" source_line=297}
  ROOT %fft.463 = c128[36,36,36]{2,1,0} fft(%convert.462), fft_type=FFT, fft_length={36,36,36}, metadata={op_name="jit(compute_V_H_and_V_xc)/jit(main)/jit(fft)/fft" source_file="/pscratch/sd/j/jackm/lorrax_sandbox/sources/lorrax/src/psp/dft_operators.py" source_line=297}
}

%fft_0.472 (Arg_0.473: c128[36,36,36]) -> c128[36,36,36] {
  %Arg_0.473 = c128[36,36,36]{2,1,0} parameter(0), metadata={op_name="jit(compute_V_H_and_V_xc)/jit(main)/pjit"}
  ROOT %fft.474 = c128[36,36,36]{2,1,0} fft(%Arg_0.473), fft_type=IFFT, fft_length={36,36,36}, metadata={op_name="jit(compute_V_H_and_V_xc)/jit(main)/jit(fft)/fft" source_file="/pscratch/sd/j/jackm/lorrax_sandbox/sources/lorrax/src/psp/ionic_gspace.py" source_line=193}
}

%fft_0.483 (Arg_0.484: c128[36,36,36]) -> c128[36,36,36] {
  %Arg_0.484 = c128[36,36,36]{2,1,0} parameter(0), metadata={op_name="jit(compute_V_H_and_V_xc)/jit(main)/pjit"}
  ROOT %fft.485 = c128[36,36,36]{2,1,0} fft(%Arg_0.484), fft_type=IFFT, fft_length={36,36,36}, metadata={op_name="jit(compute_V_H_and_V_xc)/jit(main)/jit(fft)/fft" source_file="/pscratch/sd/j/jackm/lorrax_sandbox/sources/lorrax/src/psp/ionic_gspace.py" source_line=193}
}

%fft_0.495 (Arg_0.496: c128[36,36,36]) -> c128[36,36,36] {
  %Arg_0.496 = c128[36,36,36]{2,1,0} parameter(0), metadata={op_name="jit(compute_V_H_and_V_xc)/jit(main)/pjit"}
  ROOT %fft.497 = c128[36,36,36]{2,1,0} fft(%Arg_0.496), fft_type=IFFT, fft_length={36,36,36}, metadata={op_name="jit(compute_V_H_and_V_xc)/jit(main)/jit(fft)/fft" source_file="/pscratch/sd/j/jackm/lorrax_sandbox/sources/lorrax/src/psp/ionic_gspace.py" source_line=193}
}

%_where_1.990 (Arg_0.991: pred[36,36,36], Arg_1.992: f64[36,36,36], Arg_2.993: f64[]) -> f64[36,36,36] {
  %Arg_0.991 = pred[36,36,36]{2,1,0} parameter(0), metadata={op_name="jit(compute_V_H_and_V_xc)/jit(main)/pjit"}
  %Arg_1.992 = f64[36,36,36]{2,1,0} parameter(1), metadata={op_name="jit(compute_V_H_and_V_xc)/jit(main)/pjit"}
  %Arg_2.993 = f64[] parameter(2), metadata={op_name="jit(compute_V_H_and_V_xc)/jit(main)/pjit"}
  %broadcast.994 = f64[36,36,36]{2,1,0} broadcast(%Arg_2.993), dimensions={}, metadata={op_name="jit(compute_V_H_and_V_xc)/jit(main)/jit(_where)/broadcast_in_dim" source_file="/pscratch/sd/j/jackm/lorrax_sandbox/sources/lorrax/src/psp/xc.py" source_line=137}
  ROOT %select.995 = f64[36,36,36]{2,1,0} select(%Arg_0.991, %Arg_1.992, %broadcast.994), metadata={op_name="jit(compute_V_H_and_V_xc)/jit(main)/jit(_where)/select_n" source_file="/pscratch/sd/j/jackm/lorrax_sandbox/sources/lorrax/src/psp/xc.py" source_line=137}
}

%_where_1.998 (Arg_0.999: pred[36,36,36], Arg_1.1000: f64[36,36,36], Arg_2.1001: f64[]) -> f64[36,36,36] {
  %Arg_0.999 = pred[36,36,36]{2,1,0} parameter(0), metadata={op_name="jit(compute_V_H_and_V_xc)/jit(main)/pjit"}
  %Arg_1.1000 = f64[36,36,36]{2,1,0} parameter(1), metadata={op_name="jit(compute_V_H_and_V_xc)/jit(main)/pjit"}
  %Arg_2.1001 = f64[] parameter(2), metadata={op_name="jit(compute_V_H_and_V_xc)/jit(main)/pjit"}
  %broadcast.1002 = f64[36,36,36]{2,1,0} broadcast(%Arg_2.1001), dimensions={}, metadata={op_name="jit(compute_V_H_and_V_xc)/jit(main)/jit(_where)/broadcast_in_dim" source_file="/pscratch/sd/j/jackm/lorrax_sandbox/sources/lorrax/src/psp/xc.py" source_line=137}
  ROOT %select.1003 = f64[36,36,36]{2,1,0} select(%Arg_0.999, %Arg_1.1000, %broadcast.1002), metadata={op_name="jit(compute_V_H_and_V_xc)/jit(main)/jit(_where)/select_n" source_file="/pscratch/sd/j/jackm/lorrax_sandbox/sources/lorrax/src/psp/xc.py" source_line=137}
}

%fft_0.1010 (Arg_0.1011: c128[36,36,36]) -> c128[36,36,36] {
  %Arg_0.1011 = c128[36,36,36]{2,1,0} parameter(0), metadata={op_name="jit(compute_V_H_and_V_xc)/jit(main)/pjit"}
  ROOT %fft.1012 = c128[36,36,36]{2,1,0} fft(%Arg_0.1011), fft_type=IFFT, fft_length={36,36,36}, metadata={op_name="jit(compute_V_H_and_V_xc)/jit(main)/jit(fft)/fft" source_file="/pscratch/sd/j/jackm/lorrax_sandbox/sources/lorrax/src/psp/ionic_gspace.py" source_line=193}
}

%fft.1016 (Arg_0.1017: f64[36,36,36]) -> c128[36,36,36] {
  %Arg_0.1017 = f64[36,36,36]{2,1,0} parameter(0), metadata={op_name="jit(compute_V_H_and_V_xc)/jit(main)/pjit"}
  %convert.1018 = c128[36,36,36]{2,1,0} convert(%Arg_0.1017), metadata={op_name="jit(compute_V_H_and_V_xc)/jit(main)/jit(fft)/convert_element_type" source_file="/pscratch/sd/j/jackm/lorrax_sandbox/sources/lorrax/src/psp/dft_operators.py" source_line=297}
  ROOT %fft.1019 = c128[36,36,36]{2,1,0} fft(%convert.1018), fft_type=FFT, fft_length={36,36,36}, metadata={op_name="jit(compute_V_H_and_V_xc)/jit(main)/jit(fft)/fft" source_file="/pscratch/sd/j/jackm/lorrax_sandbox/sources/lorrax/src/psp/dft_operators.py" source_line=297}
}

%fft_0.1026 (Arg_0.1027: c128[36,36,36]) -> c128[36,36,36] {
  %Arg_0.1027 = c128[36,36,36]{2,1,0} parameter(0), metadata={op_name="jit(compute_V_H_and_V_xc)/jit(main)/pjit"}
  ROOT %fft.1028 = c128[36,36,36]{2,1,0} fft(%Arg_0.1027), fft_type=IFFT, fft_length={36,36,36}, metadata={op_name="jit(compute_V_H_and_V_xc)/jit(main)/jit(fft)/fft" source_file="/pscratch/sd/j/jackm/lorrax_sandbox/sources/lorrax/src/psp/ionic_gspace.py" source_line=193}
}

%fft_0.1036 (Arg_0.1037: c128[36,36,36]) -> c128[36,36,36] {
  %Arg_0.1037 = c128[36,36,36]{2,1,0} parameter(0), metadata={op_name="jit(compute_V_H_and_V_xc)/jit(main)/pjit"}
  ROOT %fft.1038 = c128[36,36,36]{2,1,0} fft(%Arg_0.1037), fft_type=IFFT, fft_length={36,36,36}, metadata={op_name="jit(compute_V_H_and_V_xc)/jit(main)/jit(fft)/fft" source_file="/pscratch/sd/j/jackm/lorrax_sandbox/sources/lorrax/src/psp/ionic_gspace.py" source_line=193}
}

%fft.1042 (Arg_0.1043: f64[36,36,36]) -> c128[36,36,36] {
  %Arg_0.1043 = f64[36,36,36]{2,1,0} parameter(0), metadata={op_name="jit(compute_V_H_and_V_xc)/jit(main)/pjit"}
  %convert.1044 = c128[36,36,36]{2,1,0} convert(%Arg_0.1043), metadata={op_name="jit(compute_V_H_and_V_xc)/jit(main)/jit(fft)/convert_element_type" source_file="/pscratch/sd/j/jackm/lorrax_sandbox/sources/lorrax/src/psp/dft_operators.py" source_line=297}
  ROOT %fft.1045 = c128[36,36,36]{2,1,0} fft(%convert.1044), fft_type=FFT, fft_length={36,36,36}, metadata={op_name="jit(compute_V_H_and_V_xc)/jit(main)/jit(fft)/fft" source_file="/pscratch/sd/j/jackm/lorrax_sandbox/sources/lorrax/src/psp/dft_operators.py" source_line=297}
}

%fft_0.1052 (Arg_0.1053: c128[36,36,36]) -> c128[36,36,36] {
  %Arg_0.1053 = c128[36,36,36]{2,1,0} parameter(0), metadata={op_name="jit(compute_V_H_and_V_xc)/jit(main)/pjit"}
  ROOT %fft.1054 = c128[36,36,36]{2,1,0} fft(%Arg_0.1053), fft_type=IFFT, fft_length={36,36,36}, metadata={op_name="jit(compute_V_H_and_V_xc)/jit(main)/jit(fft)/fft" source_file="/pscratch/sd/j/jackm/lorrax_sandbox/sources/lorrax/src/psp/ionic_gspace.py" source_line=193}
}

%fft_0.1063 (Arg_0.1064: c128[36,36,36]) -> c128[36,36,36] {
  %Arg_0.1064 = c128[36,36,36]{2,1,0} parameter(0), metadata={op_name="jit(compute_V_H_and_V_xc)/jit(main)/pjit"}
  ROOT %fft.1065 = c128[36,36,36]{2,1,0} fft(%Arg_0.1064), fft_type=IFFT, fft_length={36,36,36}, metadata={op_name="jit(compute_V_H_and_V_xc)/jit(main)/jit(fft)/fft" source_file="/pscratch/sd/j/jackm/lorrax_sandbox/sources/lorrax/src/psp/ionic_gspace.py" source_line=193}
}

%fft.1069 (Arg_0.1070: f64[36,36,36]) -> c128[36,36,36] {
  %Arg_0.1070 = f64[36,36,36]{2,1,0} parameter(0), metadata={op_name="jit(compute_V_H_and_V_xc)/jit(main)/pjit"}
  %convert.1071 = c128[36,36,36]{2,1,0} convert(%Arg_0.1070), metadata={op_name="jit(compute_V_H_and_V_xc)/jit(main)/jit(fft)/convert_element_type" source_file="/pscratch/sd/j/jackm/lorrax_sandbox/sources/lorrax/src/psp/dft_operators.py" source_line=297}
  ROOT %fft.1072 = c128[36,36,36]{2,1,0} fft(%convert.1071), fft_type=FFT, fft_length={36,36,36}, metadata={op_name="jit(compute_V_H_and_V_xc)/jit(main)/jit(fft)/fft" source_file="/pscratch/sd/j/jackm/lorrax_sandbox/sources/lorrax/src/psp/dft_operators.py" source_line=297}
}

%fft_0.1079 (Arg_0.1080: c128[36,36,36]) -> c128[36,36,36] {
  %Arg_0.1080 = c128[36,36,36]{2,1,0} parameter(0), metadata={op_name="jit(compute_V_H_and_V_xc)/jit(main)/pjit"}
  ROOT %fft.1081 = c128[36,36,36]{2,1,0} fft(%Arg_0.1080), fft_type=IFFT, fft_length={36,36,36}, metadata={op_name="jit(compute_V_H_and_V_xc)/jit(main)/jit(fft)/fft" source_file="/pscratch/sd/j/jackm/lorrax_sandbox/sources/lorrax/src/psp/ionic_gspace.py" source_line=193}
}

ENTRY %main.1088 (Arg_0.1: f64[36,36,36], Arg_1.2: f64[36,36,36], Arg_2.3: c128[36,36,36], Arg_3.4: f64[36,36,36,3], Arg_4.5: f64[3,3]) -> (f64[36,36,36], f64[36,36,36]) {
  %Arg_0.1 = f64[36,36,36]{2,1,0} parameter(0), metadata={op_name="rho_val"}
  %call.96 = c128[36,36,36]{2,1,0} call(%Arg_0.1), to_apply=%fft.92
  %constant.88 = c128[] constant((1, 0))
  %constant.89 = c128[] constant((36, 0))
  %broadcast.90 = c128[3]{0} broadcast(%constant.89), dimensions={}
  %reduce.101 = c128[] reduce(%broadcast.90, %constant.88), dimensions={0}, to_apply=%region_0.97, metadata={op_name="jit(compute_V_H_and_V_xc)/jit(main)/reduce_prod" source_file="/pscratch/sd/j/jackm/lorrax_sandbox/sources/lorrax/src/psp/dft_operators.py" source_line=297}
  %real.102 = f64[] real(%reduce.101), metadata={op_name="jit(compute_V_H_and_V_xc)/jit(main)/sqrt" source_file="/pscratch/sd/j/jackm/lorrax_sandbox/sources/lorrax/src/psp/dft_operators.py" source_line=297}
  %constant.87 = f64[] constant(0)
  %compare.103 = pred[] compare(%real.102, %constant.87), direction=GE, metadata={op_name="jit(compute_V_H_and_V_xc)/jit(main)/sqrt" source_file="/pscratch/sd/j/jackm/lorrax_sandbox/sources/lorrax/src/psp/dft_operators.py" source_line=297}
  %abs.104 = f64[] abs(%real.102), metadata={op_name="jit(compute_V_H_and_V_xc)/jit(main)/sqrt" source_file="/pscratch/sd/j/jackm/lorrax_sandbox/sources/lorrax/src/psp/dft_operators.py" source_line=297}
  %imag.105 = f64[] imag(%reduce.101), metadata={op_name="jit(compute_V_H_and_V_xc)/jit(main)/sqrt" source_file="/pscratch/sd/j/jackm/lorrax_sandbox/sources/lorrax/src/psp/dft_operators.py" source_line=297}
  %abs.106 = f64[] abs(%imag.105), metadata={op_name="jit(compute_V_H_and_V_xc)/jit(main)/sqrt" source_file="/pscratch/sd/j/jackm/lorrax_sandbox/sources/lorrax/src/psp/dft_operators.py" source_line=297}
  %compare.107 = pred[] compare(%abs.104, %abs.106), direction=EQ, metadata={op_name="jit(compute_V_H_and_V_xc)/jit(main)/sqrt" source_file="/pscratch/sd/j/jackm/lorrax_sandbox/sources/lorrax/src/psp/dft_operators.py" source_line=297}
  %sqrt.108 = f64[] sqrt(%abs.104), metadata={op_name="jit(compute_V_H_and_V_xc)/jit(main)/sqrt" source_file="/pscratch/sd/j/jackm/lorrax_sandbox/sources/lorrax/src/psp/dft_operators.py" source_line=297}
  %constant.83 = f64[] constant(1.5537739740300374)
  %multiply.109 = f64[] multiply(%sqrt.108, %constant.83), metadata={op_name="jit(compute_V_H_and_V_xc)/jit(main)/sqrt" source_file="/pscratch/sd/j/jackm/lorrax_sandbox/sources/lorrax/src/psp/dft_operators.py" source_line=297}
  %constant.82 = f64[] constant(1.4142135623730951)
  %divide.110 = f64[] divide(%multiply.109, %constant.82), metadata={op_name="jit(compute_V_H_and_V_xc)/jit(main)/sqrt" source_file="/pscratch/sd/j/jackm/lorrax_sandbox/sources/lorrax/src/psp/dft_operators.py" source_line=297}
  %maximum.111 = f64[] maximum(%abs.104, %abs.106), metadata={op_name="jit(compute_V_H_and_V_xc)/jit(main)/sqrt" source_file="/pscratch/sd/j/jackm/lorrax_sandbox/sources/lorrax/src/psp/dft_operators.py" source_line=297}
  %minimum.112 = f64[] minimum(%abs.104, %abs.106), metadata={op_name="jit(compute_V_H_and_V_xc)/jit(main)/sqrt" source_file="/pscratch/sd/j/jackm/lorrax_sandbox/sources/lorrax/src/psp/dft_operators.py" source_line=297}
  %compare.113 = pred[] compare(%maximum.111, %minimum.112), direction=EQ, metadata={op_name="jit(compute_V_H_and_V_xc)/jit(main)/sqrt" source_file="/pscratch/sd/j/jackm/lorrax_sandbox/sources/lorrax/src/psp/dft_operators.py" source_line=297}
  %multiply.114 = f64[] multiply(%maximum.111, %constant.82), metadata={op_name="jit(compute_V_H_and_V_xc)/jit(main)/sqrt" source_file="/pscratch/sd/j/jackm/lorrax_sandbox/sources/lorrax/src/psp/dft_operators.py" source_line=297}
  %divide.115 = f64[] divide(%minimum.112, %maximum.111), metadata={op_name="jit(compute_V_H_and_V_xc)/jit(main)/sqrt" source_file="/pscratch/sd/j/jackm/lorrax_sandbox/sources/lorrax/src/psp/dft_operators.py" source_line=297}
  %multiply.116 = f64[] multiply(%divide.115, %divide.115), metadata={op_name="jit(compute_V_H_and_V_xc)/jit(main)/sqrt" source_file="/pscratch/sd/j/jackm/lorrax_sandbox/sources/lorrax/src/psp/dft_operators.py" source_line=297}
  %constant.85 = f64[] constant(1)
  %add.117 = f64[] add(%multiply.116, %constant.85), metadata={op_name="jit(compute_V_H_and_V_xc)/jit(main)/sqrt" source_file="/pscratch/sd/j/jackm/lorrax_sandbox/sources/lorrax/src/psp/dft_operators.py" source_line=297}
  %sqrt.118 = f64[] sqrt(%add.117), metadata={op_name="jit(compute_V_H_and_V_xc)/jit(main)/sqrt" source_file="/pscratch/sd/j/jackm/lorrax_sandbox/sources/lorrax/src/psp/dft_operators.py" source_line=297}
  %compare.119 = pred[] compare(%sqrt.118, %constant.85), direction=EQ, metadata={op_name="jit(compute_V_H_and_V_xc)/jit(main)/sqrt" source_file="/pscratch/sd/j/jackm/lorrax_sandbox/sources/lorrax/src/psp/dft_operators.py" source_line=297}
  %compare.120 = pred[] compare(%multiply.116, %constant.87), direction=GT, metadata={op_name="jit(compute_V_H_and_V_xc)/jit(main)/sqrt" source_file="/pscratch/sd/j/jackm/lorrax_sandbox/sources/lorrax/src/psp/dft_operators.py" source_line=297}
  %and.121 = pred[] and(%compare.119, %compare.120), metadata={op_name="jit(compute_V_H_and_V_xc)/jit(main)/sqrt" source_file="/pscratch/sd/j/jackm/lorrax_sandbox/sources/lorrax/src/psp/dft_operators.py" source_line=297}
  %multiply.122 = f64[] multiply(%maximum.111, %multiply.116), metadata={op_name="jit(compute_V_H_and_V_xc)/jit(main)/sqrt" source_file="/pscratch/sd/j/jackm/lorrax_sandbox/sources/lorrax/src/psp/dft_operators.py" source_line=297}
  %constant.86 = f64[] constant(2)
  %divide.123 = f64[] divide(%multiply.122, %constant.86), metadata={op_name="jit(compute_V_H_and_V_xc)/jit(main)/sqrt" source_file="/pscratch/sd/j/jackm/lorrax_sandbox/sources/lorrax/src/psp/dft_operators.py" source_line=297}
  %add.124 = f64[] add(%maximum.111, %divide.123), metadata={op_name="jit(compute_V_H_and_V_xc)/jit(main)/sqrt" source_file="/pscratch/sd/j/jackm/lorrax_sandbox/sources/lorrax/src/psp/dft_operators.py" source_line=297}
  %multiply.125 = f64[] multiply(%maximum.111, %sqrt.118), metadata={op_name="jit(compute_V_H_and_V_xc)/jit(main)/sqrt" source_file="/pscratch/sd/j/jackm/lorrax_sandbox/sources/lorrax/src/psp/dft_operators.py" source_line=297}
  %select.126 = f64[] select(%and.121, %add.124, %multiply.125), metadata={op_name="jit(compute_V_H_and_V_xc)/jit(main)/sqrt" source_file="/pscratch/sd/j/jackm/lorrax_sandbox/sources/lorrax/src/psp/dft_operators.py" source_line=297}
  %select.127 = f64[] select(%compare.113, %multiply.114, %select.126), metadata={op_name="jit(compute_V_H_and_V_xc)/jit(main)/sqrt" source_file="/pscratch/sd/j/jackm/lorrax_sandbox/sources/lorrax/src/psp/dft_operators.py" source_line=297}
  %divide.128 = f64[] divide(%select.127, %constant.86), metadata={op_name="jit(compute_V_H_and_V_xc)/jit(main)/sqrt" source_file="/pscratch/sd/j/jackm/lorrax_sandbox/sources/lorrax/src/psp/dft_operators.py" source_line=297}
  %divide.129 = f64[] divide(%abs.104, %constant.86), metadata={op_name="jit(compute_V_H_and_V_xc)/jit(main)/sqrt" source_file="/pscratch/sd/j/jackm/lorrax_sandbox/sources/lorrax/src/psp/dft_operators.py" source_line=297}
  %add.130 = f64[] add(%divide.128, %divide.129), metadata={op_name="jit(compute_V_H_and_V_xc)/jit(main)/sqrt" source_file="/pscratch/sd/j/jackm/lorrax_sandbox/sources/lorrax/src/psp/dft_operators.py" source_line=297}
  %sqrt.131 = f64[] sqrt(%add.130), metadata={op_name="jit(compute_V_H_and_V_xc)/jit(main)/sqrt" source_file="/pscratch/sd/j/jackm/lorrax_sandbox/sources/lorrax/src/psp/dft_operators.py" source_line=297}
  %compare.132 = pred[] compare(%sqrt.131, %constant.87), direction=EQ, metadata={op_name="jit(compute_V_H_and_V_xc)/jit(main)/sqrt" source_file="/pscratch/sd/j/jackm/lorrax_sandbox/sources/lorrax/src/psp/dft_operators.py" source_line=297}
  %constant.81 = f64[] constant(inf)
  %compare.133 = pred[] compare(%sqrt.131, %constant.81), direction=EQ, metadata={op_name="jit(compute_V_H_and_V_xc)/jit(main)/sqrt" source_file="/pscratch/sd/j/jackm/lorrax_sandbox/sources/lorrax/src/psp/dft_operators.py" source_line=297}
  %or.134 = pred[] or(%compare.132, %compare.133), metadata={op_name="jit(compute_V_H_and_V_xc)/jit(main)/sqrt" source_file="/pscratch/sd/j/jackm/lorrax_sandbox/sources/lorrax/src/psp/dft_operators.py" source_line=297}
  %compare.135 = pred[] compare(%abs.104, %abs.106), direction=GT, metadata={op_name="jit(compute_V_H_and_V_xc)/jit(main)/sqrt" source_file="/pscratch/sd/j/jackm/lorrax_sandbox/sources/lorrax/src/psp/dft_operators.py" source_line=297}
  %compare.136 = pred[] compare(%abs.104, %abs.106), direction=LT, metadata={op_name="jit(compute_V_H_and_V_xc)/jit(main)/sqrt" source_file="/pscratch/sd/j/jackm/lorrax_sandbox/sources/lorrax/src/psp/dft_operators.py" source_line=297}
  %divide.137 = f64[] divide(%abs.104, %abs.106), metadata={op_name="jit(compute_V_H_and_V_xc)/jit(main)/sqrt" source_file="/pscratch/sd/j/jackm/lorrax_sandbox/sources/lorrax/src/psp/dft_operators.py" source_line=297}
  %divide.138 = f64[] divide(%abs.106, %abs.104), metadata={op_name="jit(compute_V_H_and_V_xc)/jit(main)/sqrt" source_file="/pscratch/sd/j/jackm/lorrax_sandbox/sources/lorrax/src/psp/dft_operators.py" source_line=297}
  %select.139 = f64[] select(%compare.136, %divide.137, %divide.138), metadata={op_name="jit(compute_V_H_and_V_xc)/jit(main)/sqrt" source_file="/pscratch/sd/j/jackm/lorrax_sandbox/sources/lorrax/src/psp/dft_operators.py" source_line=297}
  %select.140 = f64[] select(%compare.107, %constant.85, %select.139), metadata={op_name="jit(compute_V_H_and_V_xc)/jit(main)/sqrt" source_file="/pscratch/sd/j/jackm/lorrax_sandbox/sources/lorrax/src/psp/dft_operators.py" source_line=297}
  %abs.141 = f64[] abs(%select.140), metadata={op_name="jit(compute_V_H_and_V_xc)/jit(main)/sqrt" source_file="/pscratch/sd/j/jackm/lorrax_sandbox/sources/lorrax/src/psp/dft_operators.py" source_line=297}
  %maximum.142 = f64[] maximum(%abs.141, %constant.85), metadata={op_name="jit(compute_V_H_and_V_xc)/jit(main)/sqrt" source_file="/pscratch/sd/j/jackm/lorrax_sandbox/sources/lorrax/src/psp/dft_operators.py" source_line=297}
  %minimum.143 = f64[] minimum(%abs.141, %constant.85), metadata={op_name="jit(compute_V_H_and_V_xc)/jit(main)/sqrt" source_file="/pscratch/sd/j/jackm/lorrax_sandbox/sources/lorrax/src/psp/dft_operators.py" source_line=297}
  %compare.144 = pred[] compare(%maximum.142, %minimum.143), direction=EQ, metadata={op_name="jit(compute_V_H_and_V_xc)/jit(main)/sqrt" source_file="/pscratch/sd/j/jackm/lorrax_sandbox/sources/lorrax/src/psp/dft_operators.py" source_line=297}
  %multiply.145 = f64[] multiply(%maximum.142, %constant.82), metadata={op_name="jit(compute_V_H_and_V_xc)/jit(main)/sqrt" source_file="/pscratch/sd/j/jackm/lorrax_sandbox/sources/lorrax/src/psp/dft_operators.py" source_line=297}
  %divide.146 = f64[] divide(%minimum.143, %maximum.142), metadata={op_name="jit(compute_V_H_and_V_xc)/jit(main)/sqrt" source_file="/pscratch/sd/j/jackm/lorrax_sandbox/sources/lorrax/src/psp/dft_operators.py" source_line=297}
  %multiply.147 = f64[] multiply(%divide.146, %divide.146), metadata={op_name="jit(compute_V_H_and_V_xc)/jit(main)/sqrt" source_file="/pscratch/sd/j/jackm/lorrax_sandbox/sources/lorrax/src/psp/dft_operators.py" source_line=297}
  %add.148 = f64[] add(%multiply.147, %constant.85), metadata={op_name="jit(compute_V_H_and_V_xc)/jit(main)/sqrt" source_file="/pscratch/sd/j/jackm/lorrax_sandbox/sources/lorrax/src/psp/dft_operators.py" source_line=297}
  %sqrt.149 = f64[] sqrt(%add.148), metadata={op_name="jit(compute_V_H_and_V_xc)/jit(main)/sqrt" source_file="/pscratch/sd/j/jackm/lorrax_sandbox/sources/lorrax/src/psp/dft_operators.py" source_line=297}
  %compare.150 = pred[] compare(%sqrt.149, %constant.85), direction=EQ, metadata={op_name="jit(compute_V_H_and_V_xc)/jit(main)/sqrt" source_file="/pscratch/sd/j/jackm/lorrax_sandbox/sources/lorrax/src/psp/dft_operators.py" source_line=297}
  %compare.151 = pred[] compare(%multiply.147, %constant.87), direction=GT, metadata={op_name="jit(compute_V_H_and_V_xc)/jit(main)/sqrt" source_file="/pscratch/sd/j/jackm/lorrax_sandbox/sources/lorrax/src/psp/dft_operators.py" source_line=297}
  %and.152 = pred[] and(%compare.150, %compare.151), metadata={op_name="jit(compute_V_H_and_V_xc)/jit(main)/sqrt" source_file="/pscratch/sd/j/jackm/lorrax_sandbox/sources/lorrax/src/psp/dft_operators.py" source_line=297}
  %multiply.153 = f64[] multiply(%maximum.142, %multiply.147), metadata={op_name="jit(compute_V_H_and_V_xc)/jit(main)/sqrt" source_file="/pscratch/sd/j/jackm/lorrax_sandbox/sources/lorrax/src/psp/dft_operators.py" source_line=297}
  %divide.154 = f64[] divide(%multiply.153, %constant.86), metadata={op_name="jit(compute_V_H_and_V_xc)/jit(main)/sqrt" source_file="/pscratch/sd/j/jackm/lorrax_sandbox/sources/lorrax/src/psp/dft_operators.py" source_line=297}
  %add.155 = f64[] add(%maximum.142, %divide.154), metadata={op_name="jit(compute_V_H_and_V_xc)/jit(main)/sqrt" source_file="/pscratch/sd/j/jackm/lorrax_sandbox/sources/lorrax/src/psp/dft_operators.py" source_line=297}
  %multiply.156 = f64[] multiply(%maximum.142, %sqrt.149), metadata={op_name="jit(compute_V_H_and_V_xc)/jit(main)/sqrt" source_file="/pscratch/sd/j/jackm/lorrax_sandbox/sources/lorrax/src/psp/dft_operators.py" source_line=297}
  %select.157 = f64[] select(%and.152, %add.155, %multiply.156), metadata={op_name="jit(compute_V_H_and_V_xc)/jit(main)/sqrt" source_file="/pscratch/sd/j/jackm/lorrax_sandbox/sources/lorrax/src/psp/dft_operators.py" source_line=297}
  %select.158 = f64[] select(%compare.144, %multiply.145, %select.157), metadata={op_name="jit(compute_V_H_and_V_xc)/jit(main)/sqrt" source_file="/pscratch/sd/j/jackm/lorrax_sandbox/sources/lorrax/src/psp/dft_operators.py" source_line=297}
  %add.159 = f64[] add(%select.158, %constant.85), metadata={op_name="jit(compute_V_H_and_V_xc)/jit(main)/sqrt" source_file="/pscratch/sd/j/jackm/lorrax_sandbox/sources/lorrax/src/psp/dft_operators.py" source_line=297}
  %sqrt.160 = f64[] sqrt(%add.159), metadata={op_name="jit(compute_V_H_and_V_xc)/jit(main)/sqrt" source_file="/pscratch/sd/j/jackm/lorrax_sandbox/sources/lorrax/src/psp/dft_operators.py" source_line=297}
  %divide.161 = f64[] divide(%sqrt.160, %constant.82), metadata={op_name="jit(compute_V_H_and_V_xc)/jit(main)/sqrt" source_file="/pscratch/sd/j/jackm/lorrax_sandbox/sources/lorrax/src/psp/dft_operators.py" source_line=297}
  %multiply.162 = f64[] multiply(%sqrt.108, %divide.161), metadata={op_name="jit(compute_V_H_and_V_xc)/jit(main)/sqrt" source_file="/pscratch/sd/j/jackm/lorrax_sandbox/sources/lorrax/src/psp/dft_operators.py" source_line=297}
  %sqrt.163 = f64[] sqrt(%abs.106), metadata={op_name="jit(compute_V_H_and_V_xc)/jit(main)/sqrt" source_file="/pscratch/sd/j/jackm/lorrax_sandbox/sources/lorrax/src/psp/dft_operators.py" source_line=297}
  %add.164 = f64[] add(%select.140, %select.158), metadata={op_name="jit(compute_V_H_and_V_xc)/jit(main)/sqrt" source_file="/pscratch/sd/j/jackm/lorrax_sandbox/sources/lorrax/src/psp/dft_operators.py" source_line=297}
  %sqrt.165 = f64[] sqrt(%add.164), metadata={op_name="jit(compute_V_H_and_V_xc)/jit(main)/sqrt" source_file="/pscratch/sd/j/jackm/lorrax_sandbox/sources/lorrax/src/psp/dft_operators.py" source_line=297}
  %divide.166 = f64[] divide(%sqrt.165, %constant.82), metadata={op_name="jit(compute_V_H_and_V_xc)/jit(main)/sqrt" source_file="/pscratch/sd/j/jackm/lorrax_sandbox/sources/lorrax/src/psp/dft_operators.py" source_line=297}
  %multiply.167 = f64[] multiply(%sqrt.163, %divide.166), metadata={op_name="jit(compute_V_H_and_V_xc)/jit(main)/sqrt" source_file="/pscratch/sd/j/jackm/lorrax_sandbox/sources/lorrax/src/psp/dft_operators.py" source_line=297}
  %select.168 = f64[] select(%compare.135, %multiply.162, %multiply.167), metadata={op_name="jit(compute_V_H_and_V_xc)/jit(main)/sqrt" source_file="/pscratch/sd/j/jackm/lorrax_sandbox/sources/lorrax/src/psp/dft_operators.py" source_line=297}
  %select.169 = f64[] select(%or.134, %select.168, %sqrt.131), metadata={op_name="jit(compute_V_H_and_V_xc)/jit(main)/sqrt" source_file="/pscratch/sd/j/jackm/lorrax_sandbox/sources/lorrax/src/psp/dft_operators.py" source_line=297}
  %select.170 = f64[] select(%compare.107, %divide.110, %select.169), metadata={op_name="jit(compute_V_H_and_V_xc)/jit(main)/sqrt" source_file="/pscratch/sd/j/jackm/lorrax_sandbox/sources/lorrax/src/psp/dft_operators.py" source_line=297}
  %constant.80 = f64[] constant(2.19736822693562)
  %divide.171 = f64[] divide(%sqrt.163, %constant.80), metadata={op_name="jit(compute_V_H_and_V_xc)/jit(main)/sqrt" source_file="/pscratch/sd/j/jackm/lorrax_sandbox/sources/lorrax/src/psp/dft_operators.py" source_line=297}
  %divide.172 = f64[] divide(%sqrt.108, %sqrt.163), metadata={op_name="jit(compute_V_H_and_V_xc)/jit(main)/sqrt" source_file="/pscratch/sd/j/jackm/lorrax_sandbox/sources/lorrax/src/psp/dft_operators.py" source_line=297}
  %divide.173 = f64[] divide(%sqrt.163, %sqrt.108), metadata={op_name="jit(compute_V_H_and_V_xc)/jit(main)/sqrt" source_file="/pscratch/sd/j/jackm/lorrax_sandbox/sources/lorrax/src/psp/dft_operators.py" source_line=297}
  %select.174 = f64[] select(%compare.136, %divide.172, %divide.173), metadata={op_name="jit(compute_V_H_and_V_xc)/jit(main)/sqrt" source_file="/pscratch/sd/j/jackm/lorrax_sandbox/sources/lorrax/src/psp/dft_operators.py" source_line=297}
  %select.175 = f64[] select(%compare.107, %constant.85, %select.174), metadata={op_name="jit(compute_V_H_and_V_xc)/jit(main)/sqrt" source_file="/pscratch/sd/j/jackm/lorrax_sandbox/sources/lorrax/src/psp/dft_operators.py" source_line=297}
  %multiply.176 = f64[] multiply(%sqrt.163, %select.175), metadata={op_name="jit(compute_V_H_and_V_xc)/jit(main)/sqrt" source_file="/pscratch/sd/j/jackm/lorrax_sandbox/sources/lorrax/src/psp/dft_operators.py" source_line=297}
  %multiply.177 = f64[] multiply(%sqrt.160, %constant.82), metadata={op_name="jit(compute_V_H_and_V_xc)/jit(main)/sqrt" source_file="/pscratch/sd/j/jackm/lorrax_sandbox/sources/lorrax/src/psp/dft_operators.py" source_line=297}
  %divide.178 = f64[] divide(%multiply.176, %multiply.177), metadata={op_name="jit(compute_V_H_and_V_xc)/jit(main)/sqrt" source_file="/pscratch/sd/j/jackm/lorrax_sandbox/sources/lorrax/src/psp/dft_operators.py" source_line=297}
  %multiply.179 = f64[] multiply(%sqrt.165, %constant.82), metadata={op_name="jit(compute_V_H_and_V_xc)/jit(main)/sqrt" source_file="/pscratch/sd/j/jackm/lorrax_sandbox/sources/lorrax/src/psp/dft_operators.py" source_line=297}
  %divide.180 = f64[] divide(%sqrt.163, %multiply.179), metadata={op_name="jit(compute_V_H_and_V_xc)/jit(main)/sqrt" source_file="/pscratch/sd/j/jackm/lorrax_sandbox/sources/lorrax/src/psp/dft_operators.py" source_line=297}
  %select.181 = f64[] select(%compare.135, %divide.178, %divide.180), metadata={op_name="jit(compute_V_H_and_V_xc)/jit(main)/sqrt" source_file="/pscratch/sd/j/jackm/lorrax_sandbox/sources/lorrax/src/psp/dft_operators.py" source_line=297}
  %multiply.182 = f64[] multiply(%sqrt.131, %constant.86), metadata={op_name="jit(compute_V_H_and_V_xc)/jit(main)/sqrt" source_file="/pscratch/sd/j/jackm/lorrax_sandbox/sources/lorrax/src/psp/dft_operators.py" source_line=297}
  %divide.183 = f64[] divide(%abs.106, %multiply.182), metadata={op_name="jit(compute_V_H_and_V_xc)/jit(main)/sqrt" source_file="/pscratch/sd/j/jackm/lorrax_sandbox/sources/lorrax/src/psp/dft_operators.py" source_line=297}
  %select.184 = f64[] select(%or.134, %select.181, %divide.183), metadata={op_name="jit(compute_V_H_and_V_xc)/jit(main)/sqrt" source_file="/pscratch/sd/j/jackm/lorrax_sandbox/sources/lorrax/src/psp/dft_operators.py" source_line=297}
  %select.185 = f64[] select(%compare.107, %divide.171, %select.184), metadata={op_name="jit(compute_V_H_and_V_xc)/jit(main)/sqrt" source_file="/pscratch/sd/j/jackm/lorrax_sandbox/sources/lorrax/src/psp/dft_operators.py" source_line=297}
  %select.186 = f64[] select(%compare.103, %select.170, %select.185), metadata={op_name="jit(compute_V_H_and_V_xc)/jit(main)/sqrt" source_file="/pscratch/sd/j/jackm/lorrax_sandbox/sources/lorrax/src/psp/dft_operators.py" source_line=297}
  %compare.187 = pred[] compare(%real.102, %constant.87), direction=LT, metadata={op_name="jit(compute_V_H_and_V_xc)/jit(main)/sqrt" source_file="/pscratch/sd/j/jackm/lorrax_sandbox/sources/lorrax/src/psp/dft_operators.py" source_line=297}
  %compare.188 = pred[] compare(%imag.105, %constant.87), direction=LT, metadata={op_name="jit(compute_V_H_and_V_xc)/jit(main)/sqrt" source_file="/pscratch/sd/j/jackm/lorrax_sandbox/sources/lorrax/src/psp/dft_operators.py" source_line=297}
  %negate.189 = f64[] negate(%select.170), metadata={op_name="jit(compute_V_H_and_V_xc)/jit(main)/sqrt" source_file="/pscratch/sd/j/jackm/lorrax_sandbox/sources/lorrax/src/psp/dft_operators.py" source_line=297}
  %select.190 = f64[] select(%compare.188, %negate.189, %select.170), metadata={op_name="jit(compute_V_H_and_V_xc)/jit(main)/sqrt" source_file="/pscratch/sd/j/jackm/lorrax_sandbox/sources/lorrax/src/psp/dft_operators.py" source_line=297}
  %negate.191 = f64[] negate(%select.185), metadata={op_name="jit(compute_V_H_and_V_xc)/jit(main)/sqrt" source_file="/pscratch/sd/j/jackm/lorrax_sandbox/sources/lorrax/src/psp/dft_operators.py" source_line=297}
  %select.192 = f64[] select(%compare.188, %negate.191, %select.185), metadata={op_name="jit(compute_V_H_and_V_xc)/jit(main)/sqrt" source_file="/pscratch/sd/j/jackm/lorrax_sandbox/sources/lorrax/src/psp/dft_operators.py" source_line=297}
  %select.193 = f64[] select(%compare.187, %select.190, %select.192), metadata={op_name="jit(compute_V_H_and_V_xc)/jit(main)/sqrt" source_file="/pscratch/sd/j/jackm/lorrax_sandbox/sources/lorrax/src/psp/dft_operators.py" source_line=297}
  %complex.194 = c128[] complex(%select.186, %select.193), metadata={op_name="jit(compute_V_H_and_V_xc)/jit(main)/sqrt" source_file="/pscratch/sd/j/jackm/lorrax_sandbox/sources/lorrax/src/psp/dft_operators.py" source_line=297}
  %divide.195 = c128[] divide(%constant.88, %complex.194), metadata={op_name="jit(compute_V_H_and_V_xc)/jit(main)/div" source_file="/pscratch/sd/j/jackm/lorrax_sandbox/sources/lorrax/src/psp/dft_operators.py" source_line=297}
  %broadcast.196 = c128[36,36,36]{2,1,0} broadcast(%divide.195), dimensions={}, metadata={op_name="jit(compute_V_H_and_V_xc)/jit(main)/mul" source_file="/pscratch/sd/j/jackm/lorrax_sandbox/sources/lorrax/src/psp/dft_operators.py" source_line=297}
  %multiply.197 = c128[36,36,36]{2,1,0} multiply(%call.96, %broadcast.196), metadata={op_name="jit(compute_V_H_and_V_xc)/jit(main)/mul" source_file="/pscratch/sd/j/jackm/lorrax_sandbox/sources/lorrax/src/psp/dft_operators.py" source_line=297}
  %constant.66 = c128[] constant((25.132741228718345, 0))
  %broadcast.67 = c128[36,36,36]{2,1,0} broadcast(%constant.66), dimensions={}
  %multiply.341 = c128[36,36,36]{2,1,0} multiply(%multiply.197, %broadcast.67), metadata={op_name="jit(compute_V_H_and_V_xc)/jit(main)/mul" source_file="/pscratch/sd/j/jackm/lorrax_sandbox/sources/lorrax/src/psp/dft_operators.py" source_line=120}
  %iota.311 = s64[36]{0} iota(), iota_dimension=0, metadata={op_name="jit(compute_V_H_and_V_xc)/jit(main)/iota" source_file="/pscratch/sd/j/jackm/lorrax_sandbox/sources/lorrax/src/psp/dft_operators.py" source_line=115}
  %reshape.312 = s64[36,1,1]{2,1,0} reshape(%iota.311), metadata={op_name="jit(compute_V_H_and_V_xc)/jit(main)/broadcast_in_dim" source_file="/pscratch/sd/j/jackm/lorrax_sandbox/sources/lorrax/src/psp/dft_operators.py" source_line=115}
  %constant.72 = s64[] constant(0)
  %broadcast.73 = s64[36,1,1]{2,1,0} broadcast(%constant.72), dimensions={}
  %compare.313 = pred[36,1,1]{2,1,0} compare(%reshape.312, %broadcast.73), direction=EQ, metadata={op_name="jit(compute_V_H_and_V_xc)/jit(main)/eq" source_file="/pscratch/sd/j/jackm/lorrax_sandbox/sources/lorrax/src/psp/dft_operators.py" source_line=115}
  %broadcast.317 = pred[36,1,1]{2,1,0} broadcast(%compare.313), dimensions={0,1,2}, metadata={op_name="jit(compute_V_H_and_V_xc)/jit(main)/and" source_file="/pscratch/sd/j/jackm/lorrax_sandbox/sources/lorrax/src/psp/dft_operators.py" source_line=115}
  %reshape.318 = pred[36,1]{1,0} reshape(%broadcast.317), metadata={op_name="jit(compute_V_H_and_V_xc)/jit(main)/and" source_file="/pscratch/sd/j/jackm/lorrax_sandbox/sources/lorrax/src/psp/dft_operators.py" source_line=115}
  %broadcast.319 = pred[36,36,1]{2,1,0} broadcast(%reshape.318), dimensions={0,2}, metadata={op_name="jit(compute_V_H_and_V_xc)/jit(main)/and" source_file="/pscratch/sd/j/jackm/lorrax_sandbox/sources/lorrax/src/psp/dft_operators.py" source_line=115}
  %iota.314 = s64[36]{0} iota(), iota_dimension=0, metadata={op_name="jit(compute_V_H_and_V_xc)/jit(main)/iota" source_file="/pscratch/sd/j/jackm/lorrax_sandbox/sources/lorrax/src/psp/dft_operators.py" source_line=116}
  %reshape.315 = s64[1,36,1]{2,1,0} reshape(%iota.314), metadata={op_name="jit(compute_V_H_and_V_xc)/jit(main)/broadcast_in_dim" source_file="/pscratch/sd/j/jackm/lorrax_sandbox/sources/lorrax/src/psp/dft_operators.py" source_line=116}
  %constant.70 = s64[] constant(0)
  %broadcast.71 = s64[1,36,1]{2,1,0} broadcast(%constant.70), dimensions={}
  %compare.316 = pred[1,36,1]{2,1,0} compare(%reshape.315, %broadcast.71), direction=EQ, metadata={op_name="jit(compute_V_H_and_V_xc)/jit(main)/eq" source_file="/pscratch/sd/j/jackm/lorrax_sandbox/sources/lorrax/src/psp/dft_operators.py" source_line=116}
  %broadcast.320 = pred[1,36,1]{2,1,0} broadcast(%compare.316), dimensions={0,1,2}, metadata={op_name="jit(compute_V_H_and_V_xc)/jit(main)/and" source_file="/pscratch/sd/j/jackm/lorrax_sandbox/sources/lorrax/src/psp/dft_operators.py" source_line=115}
  %reshape.321 = pred[36,1]{1,0} reshape(%broadcast.320), metadata={op_name="jit(compute_V_H_and_V_xc)/jit(main)/and" source_file="/pscratch/sd/j/jackm/lorrax_sandbox/sources/lorrax/src/psp/dft_operators.py" source_line=115}
  %broadcast.322 = pred[36,36,1]{2,1,0} broadcast(%reshape.321), dimensions={1,2}, metadata={op_name="jit(compute_V_H_and_V_xc)/jit(main)/and" source_file="/pscratch/sd/j/jackm/lorrax_sandbox/sources/lorrax/src/psp/dft_operators.py" source_line=115}
  %and.323 = pred[36,36,1]{2,1,0} and(%broadcast.319, %broadcast.322), metadata={op_name="jit(compute_V_H_and_V_xc)/jit(main)/and" source_file="/pscratch/sd/j/jackm/lorrax_sandbox/sources/lorrax/src/psp/dft_operators.py" source_line=115}
  %broadcast.327 = pred[36,36,1]{2,1,0} broadcast(%and.323), dimensions={0,1,2}, metadata={op_name="jit(compute_V_H_and_V_xc)/jit(main)/and" source_file="/pscratch/sd/j/jackm/lorrax_sandbox/sources/lorrax/src/psp/dft_operators.py" source_line=115}
  %reshape.328 = pred[36,36]{1,0} reshape(%broadcast.327), metadata={op_name="jit(compute_V_H_and_V_xc)/jit(main)/and" source_file="/pscratch/sd/j/jackm/lorrax_sandbox/sources/lorrax/src/psp/dft_operators.py" source_line=115}
  %broadcast.329 = pred[36,36,36]{2,1,0} broadcast(%reshape.328), dimensions={0,1}, metadata={op_name="jit(compute_V_H_and_V_xc)/jit(main)/and" source_file="/pscratch/sd/j/jackm/lorrax_sandbox/sources/lorrax/src/psp/dft_operators.py" source_line=115}
  %iota.324 = s64[36]{0} iota(), iota_dimension=0, metadata={op_name="jit(compute_V_H_and_V_xc)/jit(main)/iota" source_file="/pscratch/sd/j/jackm/lorrax_sandbox/sources/lorrax/src/psp/dft_operators.py" source_line=117}
  %reshape.325 = s64[1,1,36]{2,1,0} reshape(%iota.324), metadata={op_name="jit(compute_V_H_and_V_xc)/jit(main)/broadcast_in_dim" source_file="/pscratch/sd/j/jackm/lorrax_sandbox/sources/lorrax/src/psp/dft_operators.py" source_line=117}
  %constant.68 = s64[] constant(0)
  %broadcast.69 = s64[1,1,36]{2,1,0} broadcast(%constant.68), dimensions={}
  %compare.326 = pred[1,1,36]{2,1,0} compare(%reshape.325, %broadcast.69), direction=EQ, metadata={op_name="jit(compute_V_H_and_V_xc)/jit(main)/eq" source_file="/pscratch/sd/j/jackm/lorrax_sandbox/sources/lorrax/src/psp/dft_operators.py" source_line=117}
  %broadcast.330 = pred[1,1,36]{2,1,0} broadcast(%compare.326), dimensions={0,1,2}, metadata={op_name="jit(compute_V_H_and_V_xc)/jit(main)/and" source_file="/pscratch/sd/j/jackm/lorrax_sandbox/sources/lorrax/src/psp/dft_operators.py" source_line=115}
  %reshape.331 = pred[36]{0} reshape(%broadcast.330), metadata={op_name="jit(compute_V_H_and_V_xc)/jit(main)/and" source_file="/pscratch/sd/j/jackm/lorrax_sandbox/sources/lorrax/src/psp/dft_operators.py" source_line=115}
  %broadcast.332 = pred[36,36,36]{2,1,0} broadcast(%reshape.331), dimensions={2}, metadata={op_name="jit(compute_V_H_and_V_xc)/jit(main)/and" source_file="/pscratch/sd/j/jackm/lorrax_sandbox/sources/lorrax/src/psp/dft_operators.py" source_line=115}
  %and.333 = pred[36,36,36]{2,1,0} and(%broadcast.329, %broadcast.332), metadata={op_name="jit(compute_V_H_and_V_xc)/jit(main)/and" source_file="/pscratch/sd/j/jackm/lorrax_sandbox/sources/lorrax/src/psp/dft_operators.py" source_line=115}
  %Arg_4.5 = f64[3,3]{1,0} parameter(4), metadata={op_name="bdot"}
  %slice.234 = f64[1,1]{1,0} slice(%Arg_4.5), slice={[0:1], [0:1]}, metadata={op_name="jit(compute_V_H_and_V_xc)/jit(main)/slice" source_file="/pscratch/sd/j/jackm/lorrax_sandbox/sources/lorrax/src/psp/dft_operators.py" source_line=113}
  %reshape.235 = f64[] reshape(%slice.234), metadata={op_name="jit(compute_V_H_and_V_xc)/jit(main)/squeeze" source_file="/pscratch/sd/j/jackm/lorrax_sandbox/sources/lorrax/src/psp/dft_operators.py" source_line=113}
  %broadcast.236 = f64[36,1,1]{2,1,0} broadcast(%reshape.235), dimensions={}, metadata={op_name="jit(compute_V_H_and_V_xc)/jit(main)/mul" source_file="/pscratch/sd/j/jackm/lorrax_sandbox/sources/lorrax/src/psp/dft_operators.py" source_line=113}
  %constant.78 = f64[] constant(0)
  %broadcast.79 = f64[36]{0} broadcast(%constant.78), dimensions={}
  %constant.77 = s32[1]{0} constant({0})
  %iota.198 = f64[18]{0} iota(), iota_dimension=0, metadata={op_name="jit(compute_V_H_and_V_xc)/jit(main)/iota" source_file="/pscratch/sd/j/jackm/lorrax_sandbox/sources/lorrax/src/psp/dft_operators.py" source_line=107}
  %scatter.202 = f64[36]{0} scatter(%broadcast.79, %constant.77, %iota.198), update_window_dims={0}, inserted_window_dims={}, scatter_dims_to_operand_dims={0}, index_vector_dim=0, indices_are_sorted=true, unique_indices=true, to_apply=%region_1.199, metadata={op_name="jit(compute_V_H_and_V_xc)/jit(main)/scatter" source_file="/pscratch/sd/j/jackm/lorrax_sandbox/sources/lorrax/src/psp/dft_operators.py" source_line=107}
  %constant.76 = s32[1]{0} constant({18})
  %constant.91 = f64[18]{0} constant({...})
  %scatter.206 = f64[36]{0} scatter(%scatter.202, %constant.76, %constant.91), update_window_dims={0}, inserted_window_dims={}, scatter_dims_to_operand_dims={0}, index_vector_dim=0, indices_are_sorted=true, unique_indices=true, to_apply=%region_2.203, metadata={op_name="jit(compute_V_H_and_V_xc)/jit(main)/scatter" source_file="/pscratch/sd/j/jackm/lorrax_sandbox/sources/lorrax/src/psp/dft_operators.py" source_line=107}
  %constant.74 = f64[] constant(36)
  %broadcast.75 = f64[36]{0} broadcast(%constant.74), dimensions={}
  %divide.207 = f64[36]{0} divide(%scatter.206, %broadcast.75), metadata={op_name="jit(compute_V_H_and_V_xc)/jit(main)/div" source_file="/pscratch/sd/j/jackm/lorrax_sandbox/sources/lorrax/src/psp/dft_operators.py" source_line=107}
  %multiply.208 = f64[36]{0} multiply(%divide.207, %broadcast.75), metadata={op_name="jit(compute_V_H_and_V_xc)/jit(main)/mul" source_file="/pscratch/sd/j/jackm/lorrax_sandbox/sources/lorrax/src/psp/dft_operators.py" source_line=107}
  %reshape.231 = f64[36,1,1]{2,1,0} reshape(%multiply.208), metadata={op_name="jit(compute_V_H_and_V_xc)/jit(main)/broadcast_in_dim" source_file="/pscratch/sd/j/jackm/lorrax_sandbox/sources/lorrax/src/psp/dft_operators.py" source_line=112}
  %multiply.237 = f64[36,1,1]{2,1,0} multiply(%broadcast.236, %reshape.231), metadata={op_name="jit(compute_V_H_and_V_xc)/jit(main)/mul" source_file="/pscratch/sd/j/jackm/lorrax_sandbox/sources/lorrax/src/psp/dft_operators.py" source_line=113}
  %multiply.238 = f64[36,1,1]{2,1,0} multiply(%multiply.237, %reshape.231), metadata={op_name="jit(compute_V_H_and_V_xc)/jit(main)/mul" source_file="/pscratch/sd/j/jackm/lorrax_sandbox/sources/lorrax/src/psp/dft_operators.py" source_line=113}
  %broadcast.244 = f64[36,1,1]{2,1,0} broadcast(%multiply.238), dimensions={0,1,2}, metadata={op_name="jit(compute_V_H_and_V_xc)/jit(main)/add" source_file="/pscratch/sd/j/jackm/lorrax_sandbox/sources/lorrax/src/psp/dft_operators.py" source_line=113}
  %reshape.245 = f64[36,1]{1,0} reshape(%broadcast.244), metadata={op_name="jit(compute_V_H_and_V_xc)/jit(main)/add" source_file="/pscratch/sd/j/jackm/lorrax_sandbox/sources/lorrax/src/psp/dft_operators.py" source_line=113}
  %broadcast.246 = f64[36,36,1]{2,1,0} broadcast(%reshape.245), dimensions={0,2}, metadata={op_name="jit(compute_V_H_and_V_xc)/jit(main)/add" source_file="/pscratch/sd/j/jackm/lorrax_sandbox/sources/lorrax/src/psp/dft_operators.py" source_line=113}
  %slice.239 = f64[1,1]{1,0} slice(%Arg_4.5), slice={[1:2], [1:2]}, metadata={op_name="jit(compute_V_H_and_V_xc)/jit(main)/slice" source_file="/pscratch/sd/j/jackm/lorrax_sandbox/sources/lorrax/src/psp/dft_operators.py" source_line=113}
  %reshape.240 = f64[] reshape(%slice.239), metadata={op_name="jit(compute_V_H_and_V_xc)/jit(main)/squeeze" source_file="/pscratch/sd/j/jackm/lorrax_sandbox/sources/lorrax/src/psp/dft_operators.py" source_line=113}
  %broadcast.241 = f64[1,36,1]{2,1,0} broadcast(%reshape.240), dimensions={}, metadata={op_name="jit(compute_V_H_and_V_xc)/jit(main)/mul" source_file="/pscratch/sd/j/jackm/lorrax_sandbox/sources/lorrax/src/psp/dft_operators.py" source_line=113}
  %iota.209 = f64[18]{0} iota(), iota_dimension=0, metadata={op_name="jit(compute_V_H_and_V_xc)/jit(main)/iota" source_file="/pscratch/sd/j/jackm/lorrax_sandbox/sources/lorrax/src/psp/dft_operators.py" source_line=108}
  %scatter.213 = f64[36]{0} scatter(%broadcast.79, %constant.77, %iota.209), update_window_dims={0}, inserted_window_dims={}, scatter_dims_to_operand_dims={0}, index_vector_dim=0, indices_are_sorted=true, unique_indices=true, to_apply=%region_3.210, metadata={op_name="jit(compute_V_H_and_V_xc)/jit(main)/scatter" source_file="/pscratch/sd/j/jackm/lorrax_sandbox/sources/lorrax/src/psp/dft_operators.py" source_line=108}
  %scatter.217 = f64[36]{0} scatter(%scatter.213, %constant.76, %constant.91), update_window_dims={0}, inserted_window_dims={}, scatter_dims_to_operand_dims={0}, index_vector_dim=0, indices_are_sorted=true, unique_indices=true, to_apply=%region_4.214, metadata={op_name="jit(compute_V_H_and_V_xc)/jit(main)/scatter" source_file="/pscratch/sd/j/jackm/lorrax_sandbox/sources/lorrax/src/psp/dft_operators.py" source_line=108}
  %divide.218 = f64[36]{0} divide(%scatter.217, %broadcast.75), metadata={op_name="jit(compute_V_H_and_V_xc)/jit(main)/div" source_file="/pscratch/sd/j/jackm/lorrax_sandbox/sources/lorrax/src/psp/dft_operators.py" source_line=108}
  %multiply.219 = f64[36]{0} multiply(%divide.218, %broadcast.75), metadata={op_name="jit(compute_V_H_and_V_xc)/jit(main)/mul" source_file="/pscratch/sd/j/jackm/lorrax_sandbox/sources/lorrax/src/psp/dft_operators.py" source_line=108}
  %reshape.232 = f64[1,36,1]{2,1,0} reshape(%multiply.219), metadata={op_name="jit(compute_V_H_and_V_xc)/jit(main)/broadcast_in_dim" source_file="/pscratch/sd/j/jackm/lorrax_sandbox/sources/lorrax/src/psp/dft_operators.py" source_line=112}
  %multiply.242 = f64[1,36,1]{2,1,0} multiply(%broadcast.241, %reshape.232), metadata={op_name="jit(compute_V_H_and_V_xc)/jit(main)/mul" source_file="/pscratch/sd/j/jackm/lorrax_sandbox/sources/lorrax/src/psp/dft_operators.py" source_line=113}
  %multiply.243 = f64[1,36,1]{2,1,0} multiply(%multiply.242, %reshape.232), metadata={op_name="jit(compute_V_H_and_V_xc)/jit(main)/mul" source_file="/pscratch/sd/j/jackm/lorrax_sandbox/sources/lorrax/src/psp/dft_operators.py" source_line=113}
  %broadcast.247 = f64[1,36,1]{2,1,0} broadcast(%multiply.243), dimensions={0,1,2}, metadata={op_name="jit(compute_V_H_and_V_xc)/jit(main)/add" source_file="/pscratch/sd/j/jackm/lorrax_sandbox/sources/lorrax/src/psp/dft_operators.py" source_line=113}
  %reshape.248 = f64[36,1]{1,0} reshape(%broadcast.247), metadata={op_name="jit(compute_V_H_and_V_xc)/jit(main)/add" source_file="/pscratch/sd/j/jackm/lorrax_sandbox/sources/lorrax/src/psp/dft_operators.py" source_line=113}
  %broadcast.249 = f64[36,36,1]{2,1,0} broadcast(%reshape.248), dimensions={1,2}, metadata={op_name="jit(compute_V_H_and_V_xc)/jit(main)/add" source_file="/pscratch/sd/j/jackm/lorrax_sandbox/sources/lorrax/src/psp/dft_operators.py" source_line=113}
  %add.250 = f64[36,36,1]{2,1,0} add(%broadcast.246, %broadcast.249), metadata={op_name="jit(compute_V_H_and_V_xc)/jit(main)/add" source_file="/pscratch/sd/j/jackm/lorrax_sandbox/sources/lorrax/src/psp/dft_operators.py" source_line=113}
  %broadcast.256 = f64[36,36,1]{2,1,0} broadcast(%add.250), dimensions={0,1,2}, metadata={op_name="jit(compute_V_H_and_V_xc)/jit(main)/add" source_file="/pscratch/sd/j/jackm/lorrax_sandbox/sources/lorrax/src/psp/dft_operators.py" source_line=113}
  %reshape.257 = f64[36,36]{1,0} reshape(%broadcast.256), metadata={op_name="jit(compute_V_H_and_V_xc)/jit(main)/add" source_file="/pscratch/sd/j/jackm/lorrax_sandbox/sources/lorrax/src/psp/dft_operators.py" source_line=113}
  %broadcast.258 = f64[36,36,36]{2,1,0} broadcast(%reshape.257), dimensions={0,1}, metadata={op_name="jit(compute_V_H_and_V_xc)/jit(main)/add" source_file="/pscratch/sd/j/jackm/lorrax_sandbox/sources/lorrax/src/psp/dft_operators.py" source_line=113}
  %slice.251 = f64[1,1]{1,0} slice(%Arg_4.5), slice={[2:3], [2:3]}, metadata={op_name="jit(compute_V_H_and_V_xc)/jit(main)/slice" source_file="/pscratch/sd/j/jackm/lorrax_sandbox/sources/lorrax/src/psp/dft_operators.py" source_line=113}
  %reshape.252 = f64[] reshape(%slice.251), metadata={op_name="jit(compute_V_H_and_V_xc)/jit(main)/squeeze" source_file="/pscratch/sd/j/jackm/lorrax_sandbox/sources/lorrax/src/psp/dft_operators.py" source_line=113}
  %broadcast.253 = f64[1,1,36]{2,1,0} broadcast(%reshape.252), dimensions={}, metadata={op_name="jit(compute_V_H_and_V_xc)/jit(main)/mul" source_file="/pscratch/sd/j/jackm/lorrax_sandbox/sources/lorrax/src/psp/dft_operators.py" source_line=113}
  %iota.220 = f64[18]{0} iota(), iota_dimension=0, metadata={op_name="jit(compute_V_H_and_V_xc)/jit(main)/iota" source_file="/pscratch/sd/j/jackm/lorrax_sandbox/sources/lorrax/src/psp/dft_operators.py" source_line=109}
  %scatter.224 = f64[36]{0} scatter(%broadcast.79, %constant.77, %iota.220), update_window_dims={0}, inserted_window_dims={}, scatter_dims_to_operand_dims={0}, index_vector_dim=0, indices_are_sorted=true, unique_indices=true, to_apply=%region_5.221, metadata={op_name="jit(compute_V_H_and_V_xc)/jit(main)/scatter" source_file="/pscratch/sd/j/jackm/lorrax_sandbox/sources/lorrax/src/psp/dft_operators.py" source_line=109}
  %scatter.228 = f64[36]{0} scatter(%scatter.224, %constant.76, %constant.91), update_window_dims={0}, inserted_window_dims={}, scatter_dims_to_operand_dims={0}, index_vector_dim=0, indices_are_sorted=true, unique_indices=true, to_apply=%region_6.225, metadata={op_name="jit(compute_V_H_and_V_xc)/jit(main)/scatter" source_file="/pscratch/sd/j/jackm/lorrax_sandbox/sources/lorrax/src/psp/dft_operators.py" source_line=109}
  %divide.229 = f64[36]{0} divide(%scatter.228, %broadcast.75), metadata={op_name="jit(compute_V_H_and_V_xc)/jit(main)/div" source_file="/pscratch/sd/j/jackm/lorrax_sandbox/sources/lorrax/src/psp/dft_operators.py" source_line=109}
  %multiply.230 = f64[36]{0} multiply(%divide.229, %broadcast.75), metadata={op_name="jit(compute_V_H_and_V_xc)/jit(main)/mul" source_file="/pscratch/sd/j/jackm/lorrax_sandbox/sources/lorrax/src/psp/dft_operators.py" source_line=109}
  %reshape.233 = f64[1,1,36]{2,1,0} reshape(%multiply.230), metadata={op_name="jit(compute_V_H_and_V_xc)/jit(main)/broadcast_in_dim" source_file="/pscratch/sd/j/jackm/lorrax_sandbox/sources/lorrax/src/psp/dft_operators.py" source_line=112}
  %multiply.254 = f64[1,1,36]{2,1,0} multiply(%broadcast.253, %reshape.233), metadata={op_name="jit(compute_V_H_and_V_xc)/jit(main)/mul" source_file="/pscratch/sd/j/jackm/lorrax_sandbox/sources/lorrax/src/psp/dft_operators.py" source_line=113}
  %multiply.255 = f64[1,1,36]{2,1,0} multiply(%multiply.254, %reshape.233), metadata={op_name="jit(compute_V_H_and_V_xc)/jit(main)/mul" source_file="/pscratch/sd/j/jackm/lorrax_sandbox/sources/lorrax/src/psp/dft_operators.py" source_line=113}
  %broadcast.259 = f64[1,1,36]{2,1,0} broadcast(%multiply.255), dimensions={0,1,2}, metadata={op_name="jit(compute_V_H_and_V_xc)/jit(main)/add" source_file="/pscratch/sd/j/jackm/lorrax_sandbox/sources/lorrax/src/psp/dft_operators.py" source_line=113}
  %reshape.260 = f64[36]{0} reshape(%broadcast.259), metadata={op_name="jit(compute_V_H_and_V_xc)/jit(main)/add" source_file="/pscratch/sd/j/jackm/lorrax_sandbox/sources/lorrax/src/psp/dft_operators.py" source_line=113}
  %broadcast.261 = f64[36,36,36]{2,1,0} broadcast(%reshape.260), dimensions={2}, metadata={op_name="jit(compute_V_H_and_V_xc)/jit(main)/add" source_file="/pscratch/sd/j/jackm/lorrax_sandbox/sources/lorrax/src/psp/dft_operators.py" source_line=113}
  %add.262 = f64[36,36,36]{2,1,0} add(%broadcast.258, %broadcast.261), metadata={op_name="jit(compute_V_H_and_V_xc)/jit(main)/add" source_file="/pscratch/sd/j/jackm/lorrax_sandbox/sources/lorrax/src/psp/dft_operators.py" source_line=113}
  %slice.263 = f64[1,1]{1,0} slice(%Arg_4.5), slice={[0:1], [1:2]}, metadata={op_name="jit(compute_V_H_and_V_xc)/jit(main)/slice" source_file="/pscratch/sd/j/jackm/lorrax_sandbox/sources/lorrax/src/psp/dft_operators.py" source_line=114}
  %reshape.264 = f64[] reshape(%slice.263), metadata={op_name="jit(compute_V_H_and_V_xc)/jit(main)/squeeze" source_file="/pscratch/sd/j/jackm/lorrax_sandbox/sources/lorrax/src/psp/dft_operators.py" source_line=114}
  %multiply.265 = f64[] multiply(%reshape.264, %constant.86), metadata={op_name="jit(compute_V_H_and_V_xc)/jit(main)/mul" source_file="/pscratch/sd/j/jackm/lorrax_sandbox/sources/lorrax/src/psp/dft_operators.py" source_line=114}
  %broadcast.266 = f64[36,1,1]{2,1,0} broadcast(%multiply.265), dimensions={}, metadata={op_name="jit(compute_V_H_and_V_xc)/jit(main)/mul" source_file="/pscratch/sd/j/jackm/lorrax_sandbox/sources/lorrax/src/psp/dft_operators.py" source_line=114}
  %multiply.267 = f64[36,1,1]{2,1,0} multiply(%broadcast.266, %reshape.231), metadata={op_name="jit(compute_V_H_and_V_xc)/jit(main)/mul" source_file="/pscratch/sd/j/jackm/lorrax_sandbox/sources/lorrax/src/psp/dft_operators.py" source_line=114}
  %broadcast.268 = f64[36,1,1]{2,1,0} broadcast(%multiply.267), dimensions={0,1,2}, metadata={op_name="jit(compute_V_H_and_V_xc)/jit(main)/mul" source_file="/pscratch/sd/j/jackm/lorrax_sandbox/sources/lorrax/src/psp/dft_operators.py" source_line=114}
  %reshape.269 = f64[36,1]{1,0} reshape(%broadcast.268), metadata={op_name="jit(compute_V_H_and_V_xc)/jit(main)/mul" source_file="/pscratch/sd/j/jackm/lorrax_sandbox/sources/lorrax/src/psp/dft_operators.py" source_line=114}
  %broadcast.270 = f64[36,36,1]{2,1,0} broadcast(%reshape.269), dimensions={0,2}, metadata={op_name="jit(compute_V_H_and_V_xc)/jit(main)/mul" source_file="/pscratch/sd/j/jackm/lorrax_sandbox/sources/lorrax/src/psp/dft_operators.py" source_line=114}
  %broadcast.271 = f64[1,36,1]{2,1,0} broadcast(%reshape.232), dimensions={0,1,2}, metadata={op_name="jit(compute_V_H_and_V_xc)/jit(main)/mul" source_file="/pscratch/sd/j/jackm/lorrax_sandbox/sources/lorrax/src/psp/dft_operators.py" source_line=114}
  %reshape.272 = f64[36,1]{1,0} reshape(%broadcast.271), metadata={op_name="jit(compute_V_H_and_V_xc)/jit(main)/mul" source_file="/pscratch/sd/j/jackm/lorrax_sandbox/sources/lorrax/src/psp/dft_operators.py" source_line=114}
  %broadcast.273 = f64[36,36,1]{2,1,0} broadcast(%reshape.272), dimensions={1,2}, metadata={op_name="jit(compute_V_H_and_V_xc)/jit(main)/mul" source_file="/pscratch/sd/j/jackm/lorrax_sandbox/sources/lorrax/src/psp/dft_operators.py" source_line=114}
  %multiply.274 = f64[36,36,1]{2,1,0} multiply(%broadcast.270, %broadcast.273), metadata={op_name="jit(compute_V_H_and_V_xc)/jit(main)/mul" source_file="/pscratch/sd/j/jackm/lorrax_sandbox/sources/lorrax/src/psp/dft_operators.py" source_line=114}
  %broadcast.275 = f64[36,36,1]{2,1,0} broadcast(%multiply.274), dimensions={0,1,2}, metadata={op_name="jit(compute_V_H_and_V_xc)/jit(main)/add" source_file="/pscratch/sd/j/jackm/lorrax_sandbox/sources/lorrax/src/psp/dft_operators.py" source_line=113}
  %reshape.276 = f64[36,36]{1,0} reshape(%broadcast.275), metadata={op_name="jit(compute_V_H_and_V_xc)/jit(main)/add" source_file="/pscratch/sd/j/jackm/lorrax_sandbox/sources/lorrax/src/psp/dft_operators.py" source_line=113}
  %broadcast.277 = f64[36,36,36]{2,1,0} broadcast(%reshape.276), dimensions={0,1}, metadata={op_name="jit(compute_V_H_and_V_xc)/jit(main)/add" source_file="/pscratch/sd/j/jackm/lorrax_sandbox/sources/lorrax/src/psp/dft_operators.py" source_line=113}
  %add.278 = f64[36,36,36]{2,1,0} add(%add.262, %broadcast.277), metadata={op_name="jit(compute_V_H_and_V_xc)/jit(main)/add" source_file="/pscratch/sd/j/jackm/lorrax_sandbox/sources/lorrax/src/psp/dft_operators.py" source_line=113}
  %slice.279 = f64[1,1]{1,0} slice(%Arg_4.5), slice={[0:1], [2:3]}, metadata={op_name="jit(compute_V_H_and_V_xc)/jit(main)/slice" source_file="/pscratch/sd/j/jackm/lorrax_sandbox/sources/lorrax/src/psp/dft_operators.py" source_line=114}
  %reshape.280 = f64[] reshape(%slice.279), metadata={op_name="jit(compute_V_H_and_V_xc)/jit(main)/squeeze" source_file="/pscratch/sd/j/jackm/lorrax_sandbox/sources/lorrax/src/psp/dft_operators.py" source_line=114}
  %multiply.281 = f64[] multiply(%reshape.280, %constant.86), metadata={op_name="jit(compute_V_H_and_V_xc)/jit(main)/mul" source_file="/pscratch/sd/j/jackm/lorrax_sandbox/sources/lorrax/src/psp/dft_operators.py" source_line=114}
  %broadcast.282 = f64[36,1,1]{2,1,0} broadcast(%multiply.281), dimensions={}, metadata={op_name="jit(compute_V_H_and_V_xc)/jit(main)/mul" source_file="/pscratch/sd/j/jackm/lorrax_sandbox/sources/lorrax/src/psp/dft_operators.py" source_line=114}
  %multiply.283 = f64[36,1,1]{2,1,0} multiply(%broadcast.282, %reshape.231), metadata={op_name="jit(compute_V_H_and_V_xc)/jit(main)/mul" source_file="/pscratch/sd/j/jackm/lorrax_sandbox/sources/lorrax/src/psp/dft_operators.py" source_line=114}
  %broadcast.284 = f64[36,1,1]{2,1,0} broadcast(%multiply.283), dimensions={0,1,2}, metadata={op_name="jit(compute_V_H_and_V_xc)/jit(main)/mul" source_file="/pscratch/sd/j/jackm/lorrax_sandbox/sources/lorrax/src/psp/dft_operators.py" source_line=114}
  %reshape.285 = f64[36,1]{1,0} reshape(%broadcast.284), metadata={op_name="jit(compute_V_H_and_V_xc)/jit(main)/mul" source_file="/pscratch/sd/j/jackm/lorrax_sandbox/sources/lorrax/src/psp/dft_operators.py" source_line=114}
  %broadcast.286 = f64[36,1,36]{2,1,0} broadcast(%reshape.285), dimensions={0,1}, metadata={op_name="jit(compute_V_H_and_V_xc)/jit(main)/mul" source_file="/pscratch/sd/j/jackm/lorrax_sandbox/sources/lorrax/src/psp/dft_operators.py" source_line=114}
  %broadcast.287 = f64[1,1,36]{2,1,0} broadcast(%reshape.233), dimensions={0,1,2}, metadata={op_name="jit(compute_V_H_and_V_xc)/jit(main)/mul" source_file="/pscratch/sd/j/jackm/lorrax_sandbox/sources/lorrax/src/psp/dft_operators.py" source_line=114}
  %reshape.288 = f64[1,36]{1,0} reshape(%broadcast.287), metadata={op_name="jit(compute_V_H_and_V_xc)/jit(main)/mul" source_file="/pscratch/sd/j/jackm/lorrax_sandbox/sources/lorrax/src/psp/dft_operators.py" source_line=114}
  %broadcast.289 = f64[36,1,36]{2,1,0} broadcast(%reshape.288), dimensions={1,2}, metadata={op_name="jit(compute_V_H_and_V_xc)/jit(main)/mul" source_file="/pscratch/sd/j/jackm/lorrax_sandbox/sources/lorrax/src/psp/dft_operators.py" source_line=114}
  %multiply.290 = f64[36,1,36]{2,1,0} multiply(%broadcast.286, %broadcast.289), metadata={op_name="jit(compute_V_H_and_V_xc)/jit(main)/mul" source_file="/pscratch/sd/j/jackm/lorrax_sandbox/sources/lorrax/src/psp/dft_operators.py" source_line=114}
  %broadcast.291 = f64[36,1,36]{2,1,0} broadcast(%multiply.290), dimensions={0,1,2}, metadata={op_name="jit(compute_V_H_and_V_xc)/jit(main)/add" source_file="/pscratch/sd/j/jackm/lorrax_sandbox/sources/lorrax/src/psp/dft_operators.py" source_line=113}
  %reshape.292 = f64[36,36]{1,0} reshape(%broadcast.291), metadata={op_name="jit(compute_V_H_and_V_xc)/jit(main)/add" source_file="/pscratch/sd/j/jackm/lorrax_sandbox/sources/lorrax/src/psp/dft_operators.py" source_line=113}
  %broadcast.293 = f64[36,36,36]{2,1,0} broadcast(%reshape.292), dimensions={0,2}, metadata={op_name="jit(compute_V_H_and_V_xc)/jit(main)/add" source_file="/pscratch/sd/j/jackm/lorrax_sandbox/sources/lorrax/src/psp/dft_operators.py" source_line=113}
  %add.294 = f64[36,36,36]{2,1,0} add(%add.278, %broadcast.293), metadata={op_name="jit(compute_V_H_and_V_xc)/jit(main)/add" source_file="/pscratch/sd/j/jackm/lorrax_sandbox/sources/lorrax/src/psp/dft_operators.py" source_line=113}
  %slice.295 = f64[1,1]{1,0} slice(%Arg_4.5), slice={[1:2], [2:3]}, metadata={op_name="jit(compute_V_H_and_V_xc)/jit(main)/slice" source_file="/pscratch/sd/j/jackm/lorrax_sandbox/sources/lorrax/src/psp/dft_operators.py" source_line=114}
  %reshape.296 = f64[] reshape(%slice.295), metadata={op_name="jit(compute_V_H_and_V_xc)/jit(main)/squeeze" source_file="/pscratch/sd/j/jackm/lorrax_sandbox/sources/lorrax/src/psp/dft_operators.py" source_line=114}
  %multiply.297 = f64[] multiply(%reshape.296, %constant.86), metadata={op_name="jit(compute_V_H_and_V_xc)/jit(main)/mul" source_file="/pscratch/sd/j/jackm/lorrax_sandbox/sources/lorrax/src/psp/dft_operators.py" source_line=114}
  %broadcast.298 = f64[1,36,1]{2,1,0} broadcast(%multiply.297), dimensions={}, metadata={op_name="jit(compute_V_H_and_V_xc)/jit(main)/mul" source_file="/pscratch/sd/j/jackm/lorrax_sandbox/sources/lorrax/src/psp/dft_operators.py" source_line=114}
  %multiply.299 = f64[1,36,1]{2,1,0} multiply(%broadcast.298, %reshape.232), metadata={op_name="jit(compute_V_H_and_V_xc)/jit(main)/mul" source_file="/pscratch/sd/j/jackm/lorrax_sandbox/sources/lorrax/src/psp/dft_operators.py" source_line=114}
  %broadcast.300 = f64[1,36,1]{2,1,0} broadcast(%multiply.299), dimensions={0,1,2}, metadata={op_name="jit(compute_V_H_and_V_xc)/jit(main)/mul" source_file="/pscratch/sd/j/jackm/lorrax_sandbox/sources/lorrax/src/psp/dft_operators.py" source_line=114}
  %reshape.301 = f64[1,36]{1,0} reshape(%broadcast.300), metadata={op_name="jit(compute_V_H_and_V_xc)/jit(main)/mul" source_file="/pscratch/sd/j/jackm/lorrax_sandbox/sources/lorrax/src/psp/dft_operators.py" source_line=114}
  %broadcast.302 = f64[1,36,36]{2,1,0} broadcast(%reshape.301), dimensions={0,1}, metadata={op_name="jit(compute_V_H_and_V_xc)/jit(main)/mul" source_file="/pscratch/sd/j/jackm/lorrax_sandbox/sources/lorrax/src/psp/dft_operators.py" source_line=114}
  %broadcast.303 = f64[1,1,36]{2,1,0} broadcast(%reshape.233), dimensions={0,1,2}, metadata={op_name="jit(compute_V_H_and_V_xc)/jit(main)/mul" source_file="/pscratch/sd/j/jackm/lorrax_sandbox/sources/lorrax/src/psp/dft_operators.py" source_line=114}
  %reshape.304 = f64[1,36]{1,0} reshape(%broadcast.303), metadata={op_name="jit(compute_V_H_and_V_xc)/jit(main)/mul" source_file="/pscratch/sd/j/jackm/lorrax_sandbox/sources/lorrax/src/psp/dft_operators.py" source_line=114}
  %broadcast.305 = f64[1,36,36]{2,1,0} broadcast(%reshape.304), dimensions={0,2}, metadata={op_name="jit(compute_V_H_and_V_xc)/jit(main)/mul" source_file="/pscratch/sd/j/jackm/lorrax_sandbox/sources/lorrax/src/psp/dft_operators.py" source_line=114}
  %multiply.306 = f64[1,36,36]{2,1,0} multiply(%broadcast.302, %broadcast.305), metadata={op_name="jit(compute_V_H_and_V_xc)/jit(main)/mul" source_file="/pscratch/sd/j/jackm/lorrax_sandbox/sources/lorrax/src/psp/dft_operators.py" source_line=114}
  %broadcast.307 = f64[1,36,36]{2,1,0} broadcast(%multiply.306), dimensions={0,1,2}, metadata={op_name="jit(compute_V_H_and_V_xc)/jit(main)/add" source_file="/pscratch/sd/j/jackm/lorrax_sandbox/sources/lorrax/src/psp/dft_operators.py" source_line=113}
  %reshape.308 = f64[36,36]{1,0} reshape(%broadcast.307), metadata={op_name="jit(compute_V_H_and_V_xc)/jit(main)/add" source_file="/pscratch/sd/j/jackm/lorrax_sandbox/sources/lorrax/src/psp/dft_operators.py" source_line=113}
  %broadcast.309 = f64[36,36,36]{2,1,0} broadcast(%reshape.308), dimensions={1,2}, metadata={op_name="jit(compute_V_H_and_V_xc)/jit(main)/add" source_file="/pscratch/sd/j/jackm/lorrax_sandbox/sources/lorrax/src/psp/dft_operators.py" source_line=113}
  %add.310 = f64[36,36,36]{2,1,0} add(%add.294, %broadcast.309), metadata={op_name="jit(compute_V_H_and_V_xc)/jit(main)/add" source_file="/pscratch/sd/j/jackm/lorrax_sandbox/sources/lorrax/src/psp/dft_operators.py" source_line=113}
  %call.340 = f64[36,36,36]{2,1,0} call(%and.333, %constant.85, %add.310), to_apply=%_where.334
  %convert.342 = c128[36,36,36]{2,1,0} convert(%call.340), metadata={op_name="jit(compute_V_H_and_V_xc)/jit(main)/convert_element_type" source_file="/pscratch/sd/j/jackm/lorrax_sandbox/sources/lorrax/src/psp/dft_operators.py" source_line=120}
  %divide.343 = c128[36,36,36]{2,1,0} divide(%multiply.341, %convert.342), metadata={op_name="jit(compute_V_H_and_V_xc)/jit(main)/div" source_file="/pscratch/sd/j/jackm/lorrax_sandbox/sources/lorrax/src/psp/dft_operators.py" source_line=120}
  %constant.64 = s32[] constant(0)
  %broadcast.65 = s32[3]{0} broadcast(%constant.64), dimensions={}
  %constant.84 = c128[] constant((0, 0))
  %scatter.347 = c128[36,36,36]{2,1,0} scatter(%divide.343, %broadcast.65, %constant.84), update_window_dims={}, inserted_window_dims={0,1,2}, scatter_dims_to_operand_dims={0,1,2}, index_vector_dim=0, indices_are_sorted=true, unique_indices=true, to_apply=%region_7.344, metadata={op_name="jit(compute_V_H_and_V_xc)/jit(main)/scatter" source_file="/pscratch/sd/j/jackm/lorrax_sandbox/sources/lorrax/src/psp/dft_operators.py" source_line=132}
  %call.351 = c128[36,36,36]{2,1,0} call(%scatter.347), to_apply=%fft_0.348
  %reduce.356 = c128[] reduce(%broadcast.90, %constant.88), dimensions={0}, to_apply=%region_8.352, metadata={op_name="jit(compute_V_H_and_V_xc)/jit(main)/reduce_prod" source_file="/pscratch/sd/j/jackm/lorrax_sandbox/sources/lorrax/src/psp/dft_operators.py" source_line=133}
  %real.357 = f64[] real(%reduce.356), metadata={op_name="jit(compute_V_H_and_V_xc)/jit(main)/sqrt" source_file="/pscratch/sd/j/jackm/lorrax_sandbox/sources/lorrax/src/psp/dft_operators.py" source_line=133}
  %compare.358 = pred[] compare(%real.357, %constant.87), direction=GE, metadata={op_name="jit(compute_V_H_and_V_xc)/jit(main)/sqrt" source_file="/pscratch/sd/j/jackm/lorrax_sandbox/sources/lorrax/src/psp/dft_operators.py" source_line=133}
  %abs.359 = f64[] abs(%real.357), metadata={op_name="jit(compute_V_H_and_V_xc)/jit(main)/sqrt" source_file="/pscratch/sd/j/jackm/lorrax_sandbox/sources/lorrax/src/psp/dft_operators.py" source_line=133}
  %imag.360 = f64[] imag(%reduce.356), metadata={op_name="jit(compute_V_H_and_V_xc)/jit(main)/sqrt" source_file="/pscratch/sd/j/jackm/lorrax_sandbox/sources/lorrax/src/psp/dft_operators.py" source_line=133}
  %abs.361 = f64[] abs(%imag.360), metadata={op_name="jit(compute_V_H_and_V_xc)/jit(main)/sqrt" source_file="/pscratch/sd/j/jackm/lorrax_sandbox/sources/lorrax/src/psp/dft_operators.py" source_line=133}
  %compare.362 = pred[] compare(%abs.359, %abs.361), direction=EQ, metadata={op_name="jit(compute_V_H_and_V_xc)/jit(main)/sqrt" source_file="/pscratch/sd/j/jackm/lorrax_sandbox/sources/lorrax/src/psp/dft_operators.py" source_line=133}
  %sqrt.363 = f64[] sqrt(%abs.359), metadata={op_name="jit(compute_V_H_and_V_xc)/jit(main)/sqrt" source_file="/pscratch/sd/j/jackm/lorrax_sandbox/sources/lorrax/src/psp/dft_operators.py" source_line=133}
  %multiply.364 = f64[] multiply(%sqrt.363, %constant.83), metadata={op_name="jit(compute_V_H_and_V_xc)/jit(main)/sqrt" source_file="/pscratch/sd/j/jackm/lorrax_sandbox/sources/lorrax/src/psp/dft_operators.py" source_line=133}
  %divide.365 = f64[] divide(%multiply.364, %constant.82), metadata={op_name="jit(compute_V_H_and_V_xc)/jit(main)/sqrt" source_file="/pscratch/sd/j/jackm/lorrax_sandbox/sources/lorrax/src/psp/dft_operators.py" source_line=133}
  %maximum.366 = f64[] maximum(%abs.359, %abs.361), metadata={op_name="jit(compute_V_H_and_V_xc)/jit(main)/sqrt" source_file="/pscratch/sd/j/jackm/lorrax_sandbox/sources/lorrax/src/psp/dft_operators.py" source_line=133}
  %minimum.367 = f64[] minimum(%abs.359, %abs.361), metadata={op_name="jit(compute_V_H_and_V_xc)/jit(main)/sqrt" source_file="/pscratch/sd/j/jackm/lorrax_sandbox/sources/lorrax/src/psp/dft_operators.py" source_line=133}
  %compare.368 = pred[] compare(%maximum.366, %minimum.367), direction=EQ, metadata={op_name="jit(compute_V_H_and_V_xc)/jit(main)/sqrt" source_file="/pscratch/sd/j/jackm/lorrax_sandbox/sources/lorrax/src/psp/dft_operators.py" source_line=133}
  %multiply.369 = f64[] multiply(%maximum.366, %constant.82), metadata={op_name="jit(compute_V_H_and_V_xc)/jit(main)/sqrt" source_file="/pscratch/sd/j/jackm/lorrax_sandbox/sources/lorrax/src/psp/dft_operators.py" source_line=133}
  %divide.370 = f64[] divide(%minimum.367, %maximum.366), metadata={op_name="jit(compute_V_H_and_V_xc)/jit(main)/sqrt" source_file="/pscratch/sd/j/jackm/lorrax_sandbox/sources/lorrax/src/psp/dft_operators.py" source_line=133}
  %multiply.371 = f64[] multiply(%divide.370, %divide.370), metadata={op_name="jit(compute_V_H_and_V_xc)/jit(main)/sqrt" source_file="/pscratch/sd/j/jackm/lorrax_sandbox/sources/lorrax/src/psp/dft_operators.py" source_line=133}
  %add.372 = f64[] add(%multiply.371, %constant.85), metadata={op_name="jit(compute_V_H_and_V_xc)/jit(main)/sqrt" source_file="/pscratch/sd/j/jackm/lorrax_sandbox/sources/lorrax/src/psp/dft_operators.py" source_line=133}
  %sqrt.373 = f64[] sqrt(%add.372), metadata={op_name="jit(compute_V_H_and_V_xc)/jit(main)/sqrt" source_file="/pscratch/sd/j/jackm/lorrax_sandbox/sources/lorrax/src/psp/dft_operators.py" source_line=133}
  %compare.374 = pred[] compare(%sqrt.373, %constant.85), direction=EQ, metadata={op_name="jit(compute_V_H_and_V_xc)/jit(main)/sqrt" source_file="/pscratch/sd/j/jackm/lorrax_sandbox/sources/lorrax/src/psp/dft_operators.py" source_line=133}
  %compare.375 = pred[] compare(%multiply.371, %constant.87), direction=GT, metadata={op_name="jit(compute_V_H_and_V_xc)/jit(main)/sqrt" source_file="/pscratch/sd/j/jackm/lorrax_sandbox/sources/lorrax/src/psp/dft_operators.py" source_line=133}
  %and.376 = pred[] and(%compare.374, %compare.375), metadata={op_name="jit(compute_V_H_and_V_xc)/jit(main)/sqrt" source_file="/pscratch/sd/j/jackm/lorrax_sandbox/sources/lorrax/src/psp/dft_operators.py" source_line=133}
  %multiply.377 = f64[] multiply(%maximum.366, %multiply.371), metadata={op_name="jit(compute_V_H_and_V_xc)/jit(main)/sqrt" source_file="/pscratch/sd/j/jackm/lorrax_sandbox/sources/lorrax/src/psp/dft_operators.py" source_line=133}
  %divide.378 = f64[] divide(%multiply.377, %constant.86), metadata={op_name="jit(compute_V_H_and_V_xc)/jit(main)/sqrt" source_file="/pscratch/sd/j/jackm/lorrax_sandbox/sources/lorrax/src/psp/dft_operators.py" source_line=133}
  %add.379 = f64[] add(%maximum.366, %divide.378), metadata={op_name="jit(compute_V_H_and_V_xc)/jit(main)/sqrt" source_file="/pscratch/sd/j/jackm/lorrax_sandbox/sources/lorrax/src/psp/dft_operators.py" source_line=133}
  %multiply.380 = f64[] multiply(%maximum.366, %sqrt.373), metadata={op_name="jit(compute_V_H_and_V_xc)/jit(main)/sqrt" source_file="/pscratch/sd/j/jackm/lorrax_sandbox/sources/lorrax/src/psp/dft_operators.py" source_line=133}
  %select.381 = f64[] select(%and.376, %add.379, %multiply.380), metadata={op_name="jit(compute_V_H_and_V_xc)/jit(main)/sqrt" source_file="/pscratch/sd/j/jackm/lorrax_sandbox/sources/lorrax/src/psp/dft_operators.py" source_line=133}
  %select.382 = f64[] select(%compare.368, %multiply.369, %select.381), metadata={op_name="jit(compute_V_H_and_V_xc)/jit(main)/sqrt" source_file="/pscratch/sd/j/jackm/lorrax_sandbox/sources/lorrax/src/psp/dft_operators.py" source_line=133}
  %divide.383 = f64[] divide(%select.382, %constant.86), metadata={op_name="jit(compute_V_H_and_V_xc)/jit(main)/sqrt" source_file="/pscratch/sd/j/jackm/lorrax_sandbox/sources/lorrax/src/psp/dft_operators.py" source_line=133}
  %divide.384 = f64[] divide(%abs.359, %constant.86), metadata={op_name="jit(compute_V_H_and_V_xc)/jit(main)/sqrt" source_file="/pscratch/sd/j/jackm/lorrax_sandbox/sources/lorrax/src/psp/dft_operators.py" source_line=133}
  %add.385 = f64[] add(%divide.383, %divide.384), metadata={op_name="jit(compute_V_H_and_V_xc)/jit(main)/sqrt" source_file="/pscratch/sd/j/jackm/lorrax_sandbox/sources/lorrax/src/psp/dft_operators.py" source_line=133}
  %sqrt.386 = f64[] sqrt(%add.385), metadata={op_name="jit(compute_V_H_and_V_xc)/jit(main)/sqrt" source_file="/pscratch/sd/j/jackm/lorrax_sandbox/sources/lorrax/src/psp/dft_operators.py" source_line=133}
  %compare.387 = pred[] compare(%sqrt.386, %constant.87), direction=EQ, metadata={op_name="jit(compute_V_H_and_V_xc)/jit(main)/sqrt" source_file="/pscratch/sd/j/jackm/lorrax_sandbox/sources/lorrax/src/psp/dft_operators.py" source_line=133}
  %compare.388 = pred[] compare(%sqrt.386, %constant.81), direction=EQ, metadata={op_name="jit(compute_V_H_and_V_xc)/jit(main)/sqrt" source_file="/pscratch/sd/j/jackm/lorrax_sandbox/sources/lorrax/src/psp/dft_operators.py" source_line=133}
  %or.389 = pred[] or(%compare.387, %compare.388), metadata={op_name="jit(compute_V_H_and_V_xc)/jit(main)/sqrt" source_file="/pscratch/sd/j/jackm/lorrax_sandbox/sources/lorrax/src/psp/dft_operators.py" source_line=133}
  %compare.390 = pred[] compare(%abs.359, %abs.361), direction=GT, metadata={op_name="jit(compute_V_H_and_V_xc)/jit(main)/sqrt" source_file="/pscratch/sd/j/jackm/lorrax_sandbox/sources/lorrax/src/psp/dft_operators.py" source_line=133}
  %compare.391 = pred[] compare(%abs.359, %abs.361), direction=LT, metadata={op_name="jit(compute_V_H_and_V_xc)/jit(main)/sqrt" source_file="/pscratch/sd/j/jackm/lorrax_sandbox/sources/lorrax/src/psp/dft_operators.py" source_line=133}
  %divide.392 = f64[] divide(%abs.359, %abs.361), metadata={op_name="jit(compute_V_H_and_V_xc)/jit(main)/sqrt" source_file="/pscratch/sd/j/jackm/lorrax_sandbox/sources/lorrax/src/psp/dft_operators.py" source_line=133}
  %divide.393 = f64[] divide(%abs.361, %abs.359), metadata={op_name="jit(compute_V_H_and_V_xc)/jit(main)/sqrt" source_file="/pscratch/sd/j/jackm/lorrax_sandbox/sources/lorrax/src/psp/dft_operators.py" source_line=133}
  %select.394 = f64[] select(%compare.391, %divide.392, %divide.393), metadata={op_name="jit(compute_V_H_and_V_xc)/jit(main)/sqrt" source_file="/pscratch/sd/j/jackm/lorrax_sandbox/sources/lorrax/src/psp/dft_operators.py" source_line=133}
  %select.395 = f64[] select(%compare.362, %constant.85, %select.394), metadata={op_name="jit(compute_V_H_and_V_xc)/jit(main)/sqrt" source_file="/pscratch/sd/j/jackm/lorrax_sandbox/sources/lorrax/src/psp/dft_operators.py" source_line=133}
  %abs.396 = f64[] abs(%select.395), metadata={op_name="jit(compute_V_H_and_V_xc)/jit(main)/sqrt" source_file="/pscratch/sd/j/jackm/lorrax_sandbox/sources/lorrax/src/psp/dft_operators.py" source_line=133}
  %maximum.397 = f64[] maximum(%abs.396, %constant.85), metadata={op_name="jit(compute_V_H_and_V_xc)/jit(main)/sqrt" source_file="/pscratch/sd/j/jackm/lorrax_sandbox/sources/lorrax/src/psp/dft_operators.py" source_line=133}
  %minimum.398 = f64[] minimum(%abs.396, %constant.85), metadata={op_name="jit(compute_V_H_and_V_xc)/jit(main)/sqrt" source_file="/pscratch/sd/j/jackm/lorrax_sandbox/sources/lorrax/src/psp/dft_operators.py" source_line=133}
  %compare.399 = pred[] compare(%maximum.397, %minimum.398), direction=EQ, metadata={op_name="jit(compute_V_H_and_V_xc)/jit(main)/sqrt" source_file="/pscratch/sd/j/jackm/lorrax_sandbox/sources/lorrax/src/psp/dft_operators.py" source_line=133}
  %multiply.400 = f64[] multiply(%maximum.397, %constant.82), metadata={op_name="jit(compute_V_H_and_V_xc)/jit(main)/sqrt" source_file="/pscratch/sd/j/jackm/lorrax_sandbox/sources/lorrax/src/psp/dft_operators.py" source_line=133}
  %divide.401 = f64[] divide(%minimum.398, %maximum.397), metadata={op_name="jit(compute_V_H_and_V_xc)/jit(main)/sqrt" source_file="/pscratch/sd/j/jackm/lorrax_sandbox/sources/lorrax/src/psp/dft_operators.py" source_line=133}
  %multiply.402 = f64[] multiply(%divide.401, %divide.401), metadata={op_name="jit(compute_V_H_and_V_xc)/jit(main)/sqrt" source_file="/pscratch/sd/j/jackm/lorrax_sandbox/sources/lorrax/src/psp/dft_operators.py" source_line=133}
  %add.403 = f64[] add(%multiply.402, %constant.85), metadata={op_name="jit(compute_V_H_and_V_xc)/jit(main)/sqrt" source_file="/pscratch/sd/j/jackm/lorrax_sandbox/sources/lorrax/src/psp/dft_operators.py" source_line=133}
  %sqrt.404 = f64[] sqrt(%add.403), metadata={op_name="jit(compute_V_H_and_V_xc)/jit(main)/sqrt" source_file="/pscratch/sd/j/jackm/lorrax_sandbox/sources/lorrax/src/psp/dft_operators.py" source_line=133}
  %compare.405 = pred[] compare(%sqrt.404, %constant.85), direction=EQ, metadata={op_name="jit(compute_V_H_and_V_xc)/jit(main)/sqrt" source_file="/pscratch/sd/j/jackm/lorrax_sandbox/sources/lorrax/src/psp/dft_operators.py" source_line=133}
  %compare.406 = pred[] compare(%multiply.402, %constant.87), direction=GT, metadata={op_name="jit(compute_V_H_and_V_xc)/jit(main)/sqrt" source_file="/pscratch/sd/j/jackm/lorrax_sandbox/sources/lorrax/src/psp/dft_operators.py" source_line=133}
  %and.407 = pred[] and(%compare.405, %compare.406), metadata={op_name="jit(compute_V_H_and_V_xc)/jit(main)/sqrt" source_file="/pscratch/sd/j/jackm/lorrax_sandbox/sources/lorrax/src/psp/dft_operators.py" source_line=133}
  %multiply.408 = f64[] multiply(%maximum.397, %multiply.402), metadata={op_name="jit(compute_V_H_and_V_xc)/jit(main)/sqrt" source_file="/pscratch/sd/j/jackm/lorrax_sandbox/sources/lorrax/src/psp/dft_operators.py" source_line=133}
  %divide.409 = f64[] divide(%multiply.408, %constant.86), metadata={op_name="jit(compute_V_H_and_V_xc)/jit(main)/sqrt" source_file="/pscratch/sd/j/jackm/lorrax_sandbox/sources/lorrax/src/psp/dft_operators.py" source_line=133}
  %add.410 = f64[] add(%maximum.397, %divide.409), metadata={op_name="jit(compute_V_H_and_V_xc)/jit(main)/sqrt" source_file="/pscratch/sd/j/jackm/lorrax_sandbox/sources/lorrax/src/psp/dft_operators.py" source_line=133}
  %multiply.411 = f64[] multiply(%maximum.397, %sqrt.404), metadata={op_name="jit(compute_V_H_and_V_xc)/jit(main)/sqrt" source_file="/pscratch/sd/j/jackm/lorrax_sandbox/sources/lorrax/src/psp/dft_operators.py" source_line=133}
  %select.412 = f64[] select(%and.407, %add.410, %multiply.411), metadata={op_name="jit(compute_V_H_and_V_xc)/jit(main)/sqrt" source_file="/pscratch/sd/j/jackm/lorrax_sandbox/sources/lorrax/src/psp/dft_operators.py" source_line=133}
  %select.413 = f64[] select(%compare.399, %multiply.400, %select.412), metadata={op_name="jit(compute_V_H_and_V_xc)/jit(main)/sqrt" source_file="/pscratch/sd/j/jackm/lorrax_sandbox/sources/lorrax/src/psp/dft_operators.py" source_line=133}
  %add.414 = f64[] add(%select.413, %constant.85), metadata={op_name="jit(compute_V_H_and_V_xc)/jit(main)/sqrt" source_file="/pscratch/sd/j/jackm/lorrax_sandbox/sources/lorrax/src/psp/dft_operators.py" source_line=133}
  %sqrt.415 = f64[] sqrt(%add.414), metadata={op_name="jit(compute_V_H_and_V_xc)/jit(main)/sqrt" source_file="/pscratch/sd/j/jackm/lorrax_sandbox/sources/lorrax/src/psp/dft_operators.py" source_line=133}
  %divide.416 = f64[] divide(%sqrt.415, %constant.82), metadata={op_name="jit(compute_V_H_and_V_xc)/jit(main)/sqrt" source_file="/pscratch/sd/j/jackm/lorrax_sandbox/sources/lorrax/src/psp/dft_operators.py" source_line=133}
  %multiply.417 = f64[] multiply(%sqrt.363, %divide.416), metadata={op_name="jit(compute_V_H_and_V_xc)/jit(main)/sqrt" source_file="/pscratch/sd/j/jackm/lorrax_sandbox/sources/lorrax/src/psp/dft_operators.py" source_line=133}
  %sqrt.418 = f64[] sqrt(%abs.361), metadata={op_name="jit(compute_V_H_and_V_xc)/jit(main)/sqrt" source_file="/pscratch/sd/j/jackm/lorrax_sandbox/sources/lorrax/src/psp/dft_operators.py" source_line=133}
  %add.419 = f64[] add(%select.395, %select.413), metadata={op_name="jit(compute_V_H_and_V_xc)/jit(main)/sqrt" source_file="/pscratch/sd/j/jackm/lorrax_sandbox/sources/lorrax/src/psp/dft_operators.py" source_line=133}
  %sqrt.420 = f64[] sqrt(%add.419), metadata={op_name="jit(compute_V_H_and_V_xc)/jit(main)/sqrt" source_file="/pscratch/sd/j/jackm/lorrax_sandbox/sources/lorrax/src/psp/dft_operators.py" source_line=133}
  %divide.421 = f64[] divide(%sqrt.420, %constant.82), metadata={op_name="jit(compute_V_H_and_V_xc)/jit(main)/sqrt" source_file="/pscratch/sd/j/jackm/lorrax_sandbox/sources/lorrax/src/psp/dft_operators.py" source_line=133}
  %multiply.422 = f64[] multiply(%sqrt.418, %divide.421), metadata={op_name="jit(compute_V_H_and_V_xc)/jit(main)/sqrt" source_file="/pscratch/sd/j/jackm/lorrax_sandbox/sources/lorrax/src/psp/dft_operators.py" source_line=133}
  %select.423 = f64[] select(%compare.390, %multiply.417, %multiply.422), metadata={op_name="jit(compute_V_H_and_V_xc)/jit(main)/sqrt" source_file="/pscratch/sd/j/jackm/lorrax_sandbox/sources/lorrax/src/psp/dft_operators.py" source_line=133}
  %select.424 = f64[] select(%or.389, %select.423, %sqrt.386), metadata={op_name="jit(compute_V_H_and_V_xc)/jit(main)/sqrt" source_file="/pscratch/sd/j/jackm/lorrax_sandbox/sources/lorrax/src/psp/dft_operators.py" source_line=133}
  %select.425 = f64[] select(%compare.362, %divide.365, %select.424), metadata={op_name="jit(compute_V_H_and_V_xc)/jit(main)/sqrt" source_file="/pscratch/sd/j/jackm/lorrax_sandbox/sources/lorrax/src/psp/dft_operators.py" source_line=133}
  %divide.426 = f64[] divide(%sqrt.418, %constant.80), metadata={op_name="jit(compute_V_H_and_V_xc)/jit(main)/sqrt" source_file="/pscratch/sd/j/jackm/lorrax_sandbox/sources/lorrax/src/psp/dft_operators.py" source_line=133}
  %divide.427 = f64[] divide(%sqrt.363, %sqrt.418), metadata={op_name="jit(compute_V_H_and_V_xc)/jit(main)/sqrt" source_file="/pscratch/sd/j/jackm/lorrax_sandbox/sources/lorrax/src/psp/dft_operators.py" source_line=133}
  %divide.428 = f64[] divide(%sqrt.418, %sqrt.363), metadata={op_name="jit(compute_V_H_and_V_xc)/jit(main)/sqrt" source_file="/pscratch/sd/j/jackm/lorrax_sandbox/sources/lorrax/src/psp/dft_operators.py" source_line=133}
  %select.429 = f64[] select(%compare.391, %divide.427, %divide.428), metadata={op_name="jit(compute_V_H_and_V_xc)/jit(main)/sqrt" source_file="/pscratch/sd/j/jackm/lorrax_sandbox/sources/lorrax/src/psp/dft_operators.py" source_line=133}
  %select.430 = f64[] select(%compare.362, %constant.85, %select.429), metadata={op_name="jit(compute_V_H_and_V_xc)/jit(main)/sqrt" source_file="/pscratch/sd/j/jackm/lorrax_sandbox/sources/lorrax/src/psp/dft_operators.py" source_line=133}
  %multiply.431 = f64[] multiply(%sqrt.418, %select.430), metadata={op_name="jit(compute_V_H_and_V_xc)/jit(main)/sqrt" source_file="/pscratch/sd/j/jackm/lorrax_sandbox/sources/lorrax/src/psp/dft_operators.py" source_line=133}
  %multiply.432 = f64[] multiply(%sqrt.415, %constant.82), metadata={op_name="jit(compute_V_H_and_V_xc)/jit(main)/sqrt" source_file="/pscratch/sd/j/jackm/lorrax_sandbox/sources/lorrax/src/psp/dft_operators.py" source_line=133}
  %divide.433 = f64[] divide(%multiply.431, %multiply.432), metadata={op_name="jit(compute_V_H_and_V_xc)/jit(main)/sqrt" source_file="/pscratch/sd/j/jackm/lorrax_sandbox/sources/lorrax/src/psp/dft_operators.py" source_line=133}
  %multiply.434 = f64[] multiply(%sqrt.420, %constant.82), metadata={op_name="jit(compute_V_H_and_V_xc)/jit(main)/sqrt" source_file="/pscratch/sd/j/jackm/lorrax_sandbox/sources/lorrax/src/psp/dft_operators.py" source_line=133}
  %divide.435 = f64[] divide(%sqrt.418, %multiply.434), metadata={op_name="jit(compute_V_H_and_V_xc)/jit(main)/sqrt" source_file="/pscratch/sd/j/jackm/lorrax_sandbox/sources/lorrax/src/psp/dft_operators.py" source_line=133}
  %select.436 = f64[] select(%compare.390, %divide.433, %divide.435), metadata={op_name="jit(compute_V_H_and_V_xc)/jit(main)/sqrt" source_file="/pscratch/sd/j/jackm/lorrax_sandbox/sources/lorrax/src/psp/dft_operators.py" source_line=133}
  %multiply.437 = f64[] multiply(%sqrt.386, %constant.86), metadata={op_name="jit(compute_V_H_and_V_xc)/jit(main)/sqrt" source_file="/pscratch/sd/j/jackm/lorrax_sandbox/sources/lorrax/src/psp/dft_operators.py" source_line=133}
  %divide.438 = f64[] divide(%abs.361, %multiply.437), metadata={op_name="jit(compute_V_H_and_V_xc)/jit(main)/sqrt" source_file="/pscratch/sd/j/jackm/lorrax_sandbox/sources/lorrax/src/psp/dft_operators.py" source_line=133}
  %select.439 = f64[] select(%or.389, %select.436, %divide.438), metadata={op_name="jit(compute_V_H_and_V_xc)/jit(main)/sqrt" source_file="/pscratch/sd/j/jackm/lorrax_sandbox/sources/lorrax/src/psp/dft_operators.py" source_line=133}
  %select.440 = f64[] select(%compare.362, %divide.426, %select.439), metadata={op_name="jit(compute_V_H_and_V_xc)/jit(main)/sqrt" source_file="/pscratch/sd/j/jackm/lorrax_sandbox/sources/lorrax/src/psp/dft_operators.py" source_line=133}
  %select.441 = f64[] select(%compare.358, %select.425, %select.440), metadata={op_name="jit(compute_V_H_and_V_xc)/jit(main)/sqrt" source_file="/pscratch/sd/j/jackm/lorrax_sandbox/sources/lorrax/src/psp/dft_operators.py" source_line=133}
  %compare.442 = pred[] compare(%real.357, %constant.87), direction=LT, metadata={op_name="jit(compute_V_H_and_V_xc)/jit(main)/sqrt" source_file="/pscratch/sd/j/jackm/lorrax_sandbox/sources/lorrax/src/psp/dft_operators.py" source_line=133}
  %compare.443 = pred[] compare(%imag.360, %constant.87), direction=LT, metadata={op_name="jit(compute_V_H_and_V_xc)/jit(main)/sqrt" source_file="/pscratch/sd/j/jackm/lorrax_sandbox/sources/lorrax/src/psp/dft_operators.py" source_line=133}
  %negate.444 = f64[] negate(%select.425), metadata={op_name="jit(compute_V_H_and_V_xc)/jit(main)/sqrt" source_file="/pscratch/sd/j/jackm/lorrax_sandbox/sources/lorrax/src/psp/dft_operators.py" source_line=133}
  %select.445 = f64[] select(%compare.443, %negate.444, %select.425), metadata={op_name="jit(compute_V_H_and_V_xc)/jit(main)/sqrt" source_file="/pscratch/sd/j/jackm/lorrax_sandbox/sources/lorrax/src/psp/dft_operators.py" source_line=133}
  %negate.446 = f64[] negate(%select.440), metadata={op_name="jit(compute_V_H_and_V_xc)/jit(main)/sqrt" source_file="/pscratch/sd/j/jackm/lorrax_sandbox/sources/lorrax/src/psp/dft_operators.py" source_line=133}
  %select.447 = f64[] select(%compare.443, %negate.446, %select.440), metadata={op_name="jit(compute_V_H_and_V_xc)/jit(main)/sqrt" source_file="/pscratch/sd/j/jackm/lorrax_sandbox/sources/lorrax/src/psp/dft_operators.py" source_line=133}
  %select.448 = f64[] select(%compare.442, %select.445, %select.447), metadata={op_name="jit(compute_V_H_and_V_xc)/jit(main)/sqrt" source_file="/pscratch/sd/j/jackm/lorrax_sandbox/sources/lorrax/src/psp/dft_operators.py" source_line=133}
  %complex.449 = c128[] complex(%select.441, %select.448), metadata={op_name="jit(compute_V_H_and_V_xc)/jit(main)/sqrt" source_file="/pscratch/sd/j/jackm/lorrax_sandbox/sources/lorrax/src/psp/dft_operators.py" source_line=133}
  %broadcast.450 = c128[36,36,36]{2,1,0} broadcast(%complex.449), dimensions={}, metadata={op_name="jit(compute_V_H_and_V_xc)/jit(main)/mul" source_file="/pscratch/sd/j/jackm/lorrax_sandbox/sources/lorrax/src/psp/dft_operators.py" source_line=133}
  %multiply.451 = c128[36,36,36]{2,1,0} multiply(%call.351, %broadcast.450), metadata={op_name="jit(compute_V_H_and_V_xc)/jit(main)/mul" source_file="/pscratch/sd/j/jackm/lorrax_sandbox/sources/lorrax/src/psp/dft_operators.py" source_line=133}
  %real.452 = f64[36,36,36]{2,1,0} real(%multiply.451), metadata={op_name="jit(compute_V_H_and_V_xc)/jit(main)/real" source_file="/pscratch/sd/j/jackm/lorrax_sandbox/sources/lorrax/src/psp/dft_operators.py" source_line=133}
  %Arg_1.2 = f64[36,36,36]{2,1,0} parameter(1), metadata={op_name="rho_core"}
  %add.453 = f64[36,36,36]{2,1,0} add(%Arg_0.1, %Arg_1.2), metadata={op_name="jit(compute_V_H_and_V_xc)/jit(main)/add" source_file="/pscratch/sd/j/jackm/lorrax_sandbox/sources/lorrax/src/psp/dft_operators.py" source_line=302}
  %constant.62 = f64[] constant(1e-10)
  %broadcast.63 = f64[36,36,36]{2,1,0} broadcast(%constant.62), dimensions={}
  %maximum.466 = f64[36,36,36]{2,1,0} maximum(%add.453, %broadcast.63), metadata={op_name="jit(compute_V_H_and_V_xc)/jit(main)/max" source_file="/pscratch/sd/j/jackm/lorrax_sandbox/sources/lorrax/src/psp/xc.py" source_line=95}
  %constant.56 = f64[] constant(1e-30)
  %broadcast.57 = f64[36,36,36]{2,1,0} broadcast(%constant.56), dimensions={}
  %maximum.503 = f64[36,36,36]{2,1,0} maximum(%maximum.466, %broadcast.57), metadata={op_name="jit(compute_V_H_and_V_xc)/jit(main)/max" source_file="/pscratch/sd/j/jackm/lorrax_sandbox/sources/jax_xc_local/pbe.py" source_line=20}
  %constant.50 = f64[] constant(29.608813203268074)
  %broadcast.51 = f64[36,36,36]{2,1,0} broadcast(%constant.50), dimensions={}
  %multiply.509 = f64[36,36,36]{2,1,0} multiply(%maximum.503, %broadcast.51), metadata={op_name="jit(compute_V_H_and_V_xc)/jit(main)/mul" source_file="/pscratch/sd/j/jackm/lorrax_sandbox/sources/jax_xc_local/pbe.py" source_line=21}
  %constant.48 = f64[] constant(0.33333333333333331)
  %broadcast.49 = f64[36,36,36]{2,1,0} broadcast(%constant.48), dimensions={}
  %power.510 = f64[36,36,36]{2,1,0} power(%multiply.509, %broadcast.49), metadata={op_name="jit(compute_V_H_and_V_xc)/jit(main)/pow" source_file="/pscratch/sd/j/jackm/lorrax_sandbox/sources/jax_xc_local/pbe.py" source_line=21}
  %constant.44 = f64[] constant(-0.238732414637843)
  %broadcast.45 = f64[36,36,36]{2,1,0} broadcast(%constant.44), dimensions={}
  %multiply.513 = f64[36,36,36]{2,1,0} multiply(%power.510, %broadcast.45), metadata={op_name="jit(compute_V_H_and_V_xc)/jit(main)/mul" source_file="/pscratch/sd/j/jackm/lorrax_sandbox/sources/jax_xc_local/pbe.py" source_line=22}
  %constant.34 = f64[] constant(1.804)
  %broadcast.35 = f64[36,36,36]{2,1,0} broadcast(%constant.34), dimensions={}
  %constant.36 = f64[] constant(0.804)
  %broadcast.37 = f64[36,36,36]{2,1,0} broadcast(%constant.36), dimensions={}
  %constant.58 = f64[] constant(0)
  %broadcast.59 = f64[36,36,36]{2,1,0} broadcast(%constant.58), dimensions={}
  %multiply.514 = f64[36,36,36]{2,1,0} multiply(%power.510, %power.510), metadata={op_name="jit(compute_V_H_and_V_xc)/jit(main)/integer_pow" source_file="/pscratch/sd/j/jackm/lorrax_sandbox/sources/jax_xc_local/pbe.py" source_line=26}
  %constant.42 = f64[] constant(4)
  %broadcast.43 = f64[36,36,36]{2,1,0} broadcast(%constant.42), dimensions={}
  %multiply.516 = f64[36,36,36]{2,1,0} multiply(%multiply.514, %broadcast.43), metadata={op_name="jit(compute_V_H_and_V_xc)/jit(main)/mul" source_file="/pscratch/sd/j/jackm/lorrax_sandbox/sources/jax_xc_local/pbe.py" source_line=26}
  %multiply.517 = f64[36,36,36]{2,1,0} multiply(%maximum.503, %maximum.503), metadata={op_name="jit(compute_V_H_and_V_xc)/jit(main)/integer_pow" source_file="/pscratch/sd/j/jackm/lorrax_sandbox/sources/jax_xc_local/pbe.py" source_line=26}
  %multiply.519 = f64[36,36,36]{2,1,0} multiply(%multiply.516, %multiply.517), metadata={op_name="jit(compute_V_H_and_V_xc)/jit(main)/mul" source_file="/pscratch/sd/j/jackm/lorrax_sandbox/sources/jax_xc_local/pbe.py" source_line=26}
  %constant.40 = f64[] constant(1e-60)
  %broadcast.41 = f64[36,36,36]{2,1,0} broadcast(%constant.40), dimensions={}
  %add.520 = f64[36,36,36]{2,1,0} add(%multiply.519, %broadcast.41), metadata={op_name="jit(compute_V_H_and_V_xc)/jit(main)/add" source_file="/pscratch/sd/j/jackm/lorrax_sandbox/sources/jax_xc_local/pbe.py" source_line=26}
  %divide.521 = f64[36,36,36]{2,1,0} divide(%broadcast.59, %add.520), metadata={op_name="jit(compute_V_H_and_V_xc)/jit(main)/div" source_file="/pscratch/sd/j/jackm/lorrax_sandbox/sources/jax_xc_local/pbe.py" source_line=26}
  %constant.38 = f64[] constant(0.21951497276451709)
  %broadcast.39 = f64[36,36,36]{2,1,0} broadcast(%constant.38), dimensions={}
  %multiply.524 = f64[36,36,36]{2,1,0} multiply(%divide.521, %broadcast.39), metadata={op_name="jit(compute_V_H_and_V_xc)/jit(main)/mul" source_file="/pscratch/sd/j/jackm/lorrax_sandbox/sources/jax_xc_local/pbe.py" source_line=27}
  %divide.525 = f64[36,36,36]{2,1,0} divide(%multiply.524, %broadcast.37), metadata={op_name="jit(compute_V_H_and_V_xc)/jit(main)/div" source_file="/pscratch/sd/j/jackm/lorrax_sandbox/sources/jax_xc_local/pbe.py" source_line=27}
  %constant.54 = f64[] constant(1)
  %broadcast.55 = f64[36,36,36]{2,1,0} broadcast(%constant.54), dimensions={}
  %add.526 = f64[36,36,36]{2,1,0} add(%divide.525, %broadcast.55), metadata={op_name="jit(compute_V_H_and_V_xc)/jit(main)/add" source_file="/pscratch/sd/j/jackm/lorrax_sandbox/sources/jax_xc_local/pbe.py" source_line=27}
  %divide.527 = f64[36,36,36]{2,1,0} divide(%broadcast.37, %add.526), metadata={op_name="jit(compute_V_H_and_V_xc)/jit(main)/div" source_file="/pscratch/sd/j/jackm/lorrax_sandbox/sources/jax_xc_local/pbe.py" source_line=27}
  %subtract.530 = f64[36,36,36]{2,1,0} subtract(%broadcast.35, %divide.527), metadata={op_name="jit(compute_V_H_and_V_xc)/jit(main)/sub" source_file="/pscratch/sd/j/jackm/lorrax_sandbox/sources/jax_xc_local/pbe.py" source_line=27}
  %multiply.531 = f64[36,36,36]{2,1,0} multiply(%multiply.513, %subtract.530), metadata={op_name="jit(compute_V_H_and_V_xc)/jit(main)/mul" source_file="/pscratch/sd/j/jackm/lorrax_sandbox/sources/jax_xc_local/pbe.py" source_line=29}
  %constant.30 = f64[] constant(3)
  %broadcast.31 = f64[36,36,36]{2,1,0} broadcast(%constant.30), dimensions={}
  %maximum.532 = f64[36,36,36]{2,1,0} maximum(%maximum.466, %broadcast.57), metadata={op_name="jit(compute_V_H_and_V_xc)/jit(main)/max" source_file="/pscratch/sd/j/jackm/lorrax_sandbox/sources/jax_xc_local/pbe.py" source_line=37}
  %constant.32 = f64[] constant(12.566370614359172)
  %broadcast.33 = f64[36,36,36]{2,1,0} broadcast(%constant.32), dimensions={}
  %multiply.538 = f64[36,36,36]{2,1,0} multiply(%maximum.532, %broadcast.33), metadata={op_name="jit(compute_V_H_and_V_xc)/jit(main)/mul" source_file="/pscratch/sd/j/jackm/lorrax_sandbox/sources/jax_xc_local/pbe.py" source_line=38}
  %divide.539 = f64[36,36,36]{2,1,0} divide(%broadcast.31, %multiply.538), metadata={op_name="jit(compute_V_H_and_V_xc)/jit(main)/div" source_file="/pscratch/sd/j/jackm/lorrax_sandbox/sources/jax_xc_local/pbe.py" source_line=38}
  %power.542 = f64[36,36,36]{2,1,0} power(%divide.539, %broadcast.49), metadata={op_name="jit(compute_V_H_and_V_xc)/jit(main)/pow" source_file="/pscratch/sd/j/jackm/lorrax_sandbox/sources/jax_xc_local/pbe.py" source_line=38}
  %constant.26 = f64[] constant(0.2137)
  %broadcast.27 = f64[36,36,36]{2,1,0} broadcast(%constant.26), dimensions={}
  %multiply.547 = f64[36,36,36]{2,1,0} multiply(%power.542, %broadcast.27), metadata={op_name="jit(compute_V_H_and_V_xc)/jit(main)/mul" source_file="/pscratch/sd/j/jackm/lorrax_sandbox/sources/jax_xc_local/pbe.py" source_line=49}
  %add.548 = f64[36,36,36]{2,1,0} add(%multiply.547, %broadcast.55), metadata={op_name="jit(compute_V_H_and_V_xc)/jit(main)/add" source_file="/pscratch/sd/j/jackm/lorrax_sandbox/sources/jax_xc_local/pbe.py" source_line=49}
  %constant.24 = f64[] constant(-0.062182)
  %broadcast.25 = f64[36,36,36]{2,1,0} broadcast(%constant.24), dimensions={}
  %multiply.549 = f64[36,36,36]{2,1,0} multiply(%add.548, %broadcast.25), metadata={op_name="jit(compute_V_H_and_V_xc)/jit(main)/mul" source_file="/pscratch/sd/j/jackm/lorrax_sandbox/sources/jax_xc_local/pbe.py" source_line=49}
  %sqrt.545 = f64[36,36,36]{2,1,0} sqrt(%power.542), metadata={op_name="jit(compute_V_H_and_V_xc)/jit(main)/sqrt" source_file="/pscratch/sd/j/jackm/lorrax_sandbox/sources/jax_xc_local/pbe.py" source_line=48}
  %constant.22 = f64[] constant(7.5957)
  %broadcast.23 = f64[36,36,36]{2,1,0} broadcast(%constant.22), dimensions={}
  %multiply.550 = f64[36,36,36]{2,1,0} multiply(%sqrt.545, %broadcast.23), metadata={op_name="jit(compute_V_H_and_V_xc)/jit(main)/mul" source_file="/pscratch/sd/j/jackm/lorrax_sandbox/sources/jax_xc_local/pbe.py" source_line=51}
  %constant.20 = f64[] constant(3.5876)
  %broadcast.21 = f64[36,36,36]{2,1,0} broadcast(%constant.20), dimensions={}
  %multiply.551 = f64[36,36,36]{2,1,0} multiply(%power.542, %broadcast.21), metadata={op_name="jit(compute_V_H_and_V_xc)/jit(main)/mul" source_file="/pscratch/sd/j/jackm/lorrax_sandbox/sources/jax_xc_local/pbe.py" source_line=51}
  %add.552 = f64[36,36,36]{2,1,0} add(%multiply.550, %multiply.551), metadata={op_name="jit(compute_V_H_and_V_xc)/jit(main)/add" source_file="/pscratch/sd/j/jackm/lorrax_sandbox/sources/jax_xc_local/pbe.py" source_line=51}
  %constant.18 = f64[] constant(1.6382)
  %broadcast.19 = f64[36,36,36]{2,1,0} broadcast(%constant.18), dimensions={}
  %multiply.553 = f64[36,36,36]{2,1,0} multiply(%power.542, %broadcast.19), metadata={op_name="jit(compute_V_H_and_V_xc)/jit(main)/mul" source_file="/pscratch/sd/j/jackm/lorrax_sandbox/sources/jax_xc_local/pbe.py" source_line=51}
  %multiply.554 = f64[36,36,36]{2,1,0} multiply(%multiply.553, %sqrt.545), metadata={op_name="jit(compute_V_H_and_V_xc)/jit(main)/mul" source_file="/pscratch/sd/j/jackm/lorrax_sandbox/sources/jax_xc_local/pbe.py" source_line=51}
  %add.555 = f64[36,36,36]{2,1,0} add(%add.552, %multiply.554), metadata={op_name="jit(compute_V_H_and_V_xc)/jit(main)/add" source_file="/pscratch/sd/j/jackm/lorrax_sandbox/sources/jax_xc_local/pbe.py" source_line=51}
  %multiply.556 = f64[36,36,36]{2,1,0} multiply(%power.542, %power.542), metadata={op_name="jit(compute_V_H_and_V_xc)/jit(main)/integer_pow" source_file="/pscratch/sd/j/jackm/lorrax_sandbox/sources/jax_xc_local/pbe.py" source_line=51}
  %constant.16 = f64[] constant(0.49294)
  %broadcast.17 = f64[36,36,36]{2,1,0} broadcast(%constant.16), dimensions={}
  %multiply.558 = f64[36,36,36]{2,1,0} multiply(%multiply.556, %broadcast.17), metadata={op_name="jit(compute_V_H_and_V_xc)/jit(main)/mul" source_file="/pscratch/sd/j/jackm/lorrax_sandbox/sources/jax_xc_local/pbe.py" source_line=51}
  %add.559 = f64[36,36,36]{2,1,0} add(%add.555, %multiply.558), metadata={op_name="jit(compute_V_H_and_V_xc)/jit(main)/add" source_file="/pscratch/sd/j/jackm/lorrax_sandbox/sources/jax_xc_local/pbe.py" source_line=51}
  %constant.14 = f64[] constant(0.062182)
  %broadcast.15 = f64[36,36,36]{2,1,0} broadcast(%constant.14), dimensions={}
  %multiply.560 = f64[36,36,36]{2,1,0} multiply(%add.559, %broadcast.15), metadata={op_name="jit(compute_V_H_and_V_xc)/jit(main)/mul" source_file="/pscratch/sd/j/jackm/lorrax_sandbox/sources/jax_xc_local/pbe.py" source_line=50}
  %divide.561 = f64[36,36,36]{2,1,0} divide(%broadcast.55, %multiply.560), metadata={op_name="jit(compute_V_H_and_V_xc)/jit(main)/div" source_file="/pscratch/sd/j/jackm/lorrax_sandbox/sources/jax_xc_local/pbe.py" source_line=50}
  %add.564 = f64[36,36,36]{2,1,0} add(%divide.561, %broadcast.55), metadata={op_name="jit(compute_V_H_and_V_xc)/jit(main)/add" source_file="/pscratch/sd/j/jackm/lorrax_sandbox/sources/jax_xc_local/pbe.py" source_line=50}
  %log.565 = f64[36,36,36]{2,1,0} log(%add.564), metadata={op_name="jit(compute_V_H_and_V_xc)/jit(main)/log" source_file="/pscratch/sd/j/jackm/lorrax_sandbox/sources/jax_xc_local/pbe.py" source_line=49}
  %multiply.566 = f64[36,36,36]{2,1,0} multiply(%multiply.549, %log.565), metadata={op_name="jit(compute_V_H_and_V_xc)/jit(main)/mul" source_file="/pscratch/sd/j/jackm/lorrax_sandbox/sources/jax_xc_local/pbe.py" source_line=49}
  %multiply.567 = f64[36,36,36]{2,1,0} multiply(%maximum.532, %broadcast.51), metadata={op_name="jit(compute_V_H_and_V_xc)/jit(main)/mul" source_file="/pscratch/sd/j/jackm/lorrax_sandbox/sources/jax_xc_local/pbe.py" source_line=59}
  %power.568 = f64[36,36,36]{2,1,0} power(%multiply.567, %broadcast.49), metadata={op_name="jit(compute_V_H_and_V_xc)/jit(main)/pow" source_file="/pscratch/sd/j/jackm/lorrax_sandbox/sources/jax_xc_local/pbe.py" source_line=59}
  %multiply.571 = f64[36,36,36]{2,1,0} multiply(%power.568, %broadcast.43), metadata={op_name="jit(compute_V_H_and_V_xc)/jit(main)/mul" source_file="/pscratch/sd/j/jackm/lorrax_sandbox/sources/jax_xc_local/pbe.py" source_line=60}
  %constant.12 = f64[] constant(3.1415926535897931)
  %broadcast.13 = f64[36,36,36]{2,1,0} broadcast(%constant.12), dimensions={}
  %divide.572 = f64[36,36,36]{2,1,0} divide(%multiply.571, %broadcast.13), metadata={op_name="jit(compute_V_H_and_V_xc)/jit(main)/div" source_file="/pscratch/sd/j/jackm/lorrax_sandbox/sources/jax_xc_local/pbe.py" source_line=60}
  %sqrt.573 = f64[36,36,36]{2,1,0} sqrt(%divide.572), metadata={op_name="jit(compute_V_H_and_V_xc)/jit(main)/sqrt" source_file="/pscratch/sd/j/jackm/lorrax_sandbox/sources/jax_xc_local/pbe.py" source_line=60}
  %multiply.575 = f64[36,36,36]{2,1,0} multiply(%sqrt.573, %sqrt.573), metadata={op_name="jit(compute_V_H_and_V_xc)/jit(main)/integer_pow" source_file="/pscratch/sd/j/jackm/lorrax_sandbox/sources/jax_xc_local/pbe.py" source_line=61}
  %multiply.577 = f64[36,36,36]{2,1,0} multiply(%multiply.575, %broadcast.43), metadata={op_name="jit(compute_V_H_and_V_xc)/jit(main)/mul" source_file="/pscratch/sd/j/jackm/lorrax_sandbox/sources/jax_xc_local/pbe.py" source_line=61}
  %multiply.578 = f64[36,36,36]{2,1,0} multiply(%maximum.532, %maximum.532), metadata={op_name="jit(compute_V_H_and_V_xc)/jit(main)/integer_pow" source_file="/pscratch/sd/j/jackm/lorrax_sandbox/sources/jax_xc_local/pbe.py" source_line=61}
  %multiply.580 = f64[36,36,36]{2,1,0} multiply(%multiply.577, %multiply.578), metadata={op_name="jit(compute_V_H_and_V_xc)/jit(main)/mul" source_file="/pscratch/sd/j/jackm/lorrax_sandbox/sources/jax_xc_local/pbe.py" source_line=61}
  %add.581 = f64[36,36,36]{2,1,0} add(%multiply.580, %broadcast.41), metadata={op_name="jit(compute_V_H_and_V_xc)/jit(main)/add" source_file="/pscratch/sd/j/jackm/lorrax_sandbox/sources/jax_xc_local/pbe.py" source_line=61}
  %divide.582 = f64[36,36,36]{2,1,0} divide(%broadcast.59, %add.581), metadata={op_name="jit(compute_V_H_and_V_xc)/jit(main)/div" source_file="/pscratch/sd/j/jackm/lorrax_sandbox/sources/jax_xc_local/pbe.py" source_line=61}
  %constant.8 = f64[] constant(2.1461263399673647)
  %broadcast.9 = f64[36,36,36]{2,1,0} broadcast(%constant.8), dimensions={}
  %multiply.594 = f64[36,36,36]{2,1,0} multiply(%divide.582, %broadcast.9), metadata={op_name="jit(compute_V_H_and_V_xc)/jit(main)/mul" source_file="/pscratch/sd/j/jackm/lorrax_sandbox/sources/jax_xc_local/pbe.py" source_line=65}
  %negate.585 = f64[36,36,36]{2,1,0} negate(%multiply.566), metadata={op_name="jit(compute_V_H_and_V_xc)/jit(main)/neg" source_file="/pscratch/sd/j/jackm/lorrax_sandbox/sources/jax_xc_local/pbe.py" source_line=63}
  %constant.10 = f64[] constant(0.031090690869654894)
  %broadcast.11 = f64[36,36,36]{2,1,0} broadcast(%constant.10), dimensions={}
  %divide.586 = f64[36,36,36]{2,1,0} divide(%negate.585, %broadcast.11), metadata={op_name="jit(compute_V_H_and_V_xc)/jit(main)/div" source_file="/pscratch/sd/j/jackm/lorrax_sandbox/sources/jax_xc_local/pbe.py" source_line=63}
  %exponential.587 = f64[36,36,36]{2,1,0} exponential(%divide.586), metadata={op_name="jit(compute_V_H_and_V_xc)/jit(main)/exp" source_file="/pscratch/sd/j/jackm/lorrax_sandbox/sources/jax_xc_local/pbe.py" source_line=63}
  %subtract.588 = f64[36,36,36]{2,1,0} subtract(%exponential.587, %broadcast.55), metadata={op_name="jit(compute_V_H_and_V_xc)/jit(main)/sub" source_file="/pscratch/sd/j/jackm/lorrax_sandbox/sources/jax_xc_local/pbe.py" source_line=63}
  %add.589 = f64[36,36,36]{2,1,0} add(%subtract.588, %broadcast.41), metadata={op_name="jit(compute_V_H_and_V_xc)/jit(main)/add" source_file="/pscratch/sd/j/jackm/lorrax_sandbox/sources/jax_xc_local/pbe.py" source_line=63}
  %divide.590 = f64[36,36,36]{2,1,0} divide(%broadcast.9, %add.589), metadata={op_name="jit(compute_V_H_and_V_xc)/jit(main)/div" source_file="/pscratch/sd/j/jackm/lorrax_sandbox/sources/jax_xc_local/pbe.py" source_line=63}
  %multiply.593 = f64[36,36,36]{2,1,0} multiply(%divide.590, %divide.582), metadata={op_name="jit(compute_V_H_and_V_xc)/jit(main)/mul" source_file="/pscratch/sd/j/jackm/lorrax_sandbox/sources/jax_xc_local/pbe.py" source_line=64}
  %add.595 = f64[36,36,36]{2,1,0} add(%multiply.593, %broadcast.55), metadata={op_name="jit(compute_V_H_and_V_xc)/jit(main)/add" source_file="/pscratch/sd/j/jackm/lorrax_sandbox/sources/jax_xc_local/pbe.py" source_line=65}
  %multiply.596 = f64[36,36,36]{2,1,0} multiply(%multiply.594, %add.595), metadata={op_name="jit(compute_V_H_and_V_xc)/jit(main)/mul" source_file="/pscratch/sd/j/jackm/lorrax_sandbox/sources/jax_xc_local/pbe.py" source_line=65}
  %add.597 = f64[36,36,36]{2,1,0} add(%multiply.593, %broadcast.55), metadata={op_name="jit(compute_V_H_and_V_xc)/jit(main)/add" source_file="/pscratch/sd/j/jackm/lorrax_sandbox/sources/jax_xc_local/pbe.py" source_line=65}
  %multiply.598 = f64[36,36,36]{2,1,0} multiply(%multiply.593, %multiply.593), metadata={op_name="jit(compute_V_H_and_V_xc)/jit(main)/integer_pow" source_file="/pscratch/sd/j/jackm/lorrax_sandbox/sources/jax_xc_local/pbe.py" source_line=65}
  %add.600 = f64[36,36,36]{2,1,0} add(%add.597, %multiply.598), metadata={op_name="jit(compute_V_H_and_V_xc)/jit(main)/add" source_file="/pscratch/sd/j/jackm/lorrax_sandbox/sources/jax_xc_local/pbe.py" source_line=65}
  %divide.601 = f64[36,36,36]{2,1,0} divide(%multiply.596, %add.600), metadata={op_name="jit(compute_V_H_and_V_xc)/jit(main)/div" source_file="/pscratch/sd/j/jackm/lorrax_sandbox/sources/jax_xc_local/pbe.py" source_line=65}
  %add.604 = f64[36,36,36]{2,1,0} add(%divide.601, %broadcast.55), metadata={op_name="jit(compute_V_H_and_V_xc)/jit(main)/add" source_file="/pscratch/sd/j/jackm/lorrax_sandbox/sources/jax_xc_local/pbe.py" source_line=65}
  %log.605 = f64[36,36,36]{2,1,0} log(%add.604), metadata={op_name="jit(compute_V_H_and_V_xc)/jit(main)/log" source_file="/pscratch/sd/j/jackm/lorrax_sandbox/sources/jax_xc_local/pbe.py" source_line=65}
  %multiply.606 = f64[36,36,36]{2,1,0} multiply(%log.605, %broadcast.11), metadata={op_name="jit(compute_V_H_and_V_xc)/jit(main)/mul" source_file="/pscratch/sd/j/jackm/lorrax_sandbox/sources/jax_xc_local/pbe.py" source_line=65}
  %add.607 = f64[36,36,36]{2,1,0} add(%multiply.566, %multiply.606), metadata={op_name="jit(compute_V_H_and_V_xc)/jit(main)/add" source_file="/pscratch/sd/j/jackm/lorrax_sandbox/sources/jax_xc_local/pbe.py" source_line=67}
  %add.608 = f64[36,36,36]{2,1,0} add(%multiply.531, %add.607), metadata={op_name="jit(compute_V_H_and_V_xc)/jit(main)/add" source_file="/pscratch/sd/j/jackm/lorrax_sandbox/sources/jax_xc_local/pbe.py" source_line=78}
  %constant.52 = f64[] constant(2)
  %broadcast.53 = f64[36,36,36]{2,1,0} broadcast(%constant.52), dimensions={}
  %multiply.609 = f64[36,36,36]{2,1,0} multiply(%add.608, %broadcast.53), metadata={op_name="jit(compute_V_H_and_V_xc)/jit(main)/mul" source_file="/pscratch/sd/j/jackm/lorrax_sandbox/sources/jax_xc_local/pbe.py" source_line=78}
  %multiply.610 = f64[36,36,36]{2,1,0} multiply(%maximum.466, %broadcast.53), metadata={op_name="jit(compute_V_H_and_V_xc)/jit(main)/mul" source_file="/pscratch/sd/j/jackm/lorrax_sandbox/sources/jax_xc_local/pbe.py" source_line=78}
  %multiply.611 = f64[36,36,36]{2,1,0} multiply(%multiply.610, %broadcast.11), metadata={op_name="jit(compute_V_H_and_V_xc)/jit(main)/mul" source_file="/pscratch/sd/j/jackm/lorrax_sandbox/sources/jax_xc_local/pbe.py" source_line=65}
  %divide.612 = f64[36,36,36]{2,1,0} divide(%multiply.611, %add.604), metadata={op_name="jit(compute_V_H_and_V_xc)/jit(main)/div" source_file="/pscratch/sd/j/jackm/lorrax_sandbox/sources/jax_xc_local/pbe.py" source_line=65}
  %multiply.602 = f64[36,36,36]{2,1,0} multiply(%add.600, %add.600), metadata={op_name="jit(compute_V_H_and_V_xc)/jit(main)/mul" source_file="/pscratch/sd/j/jackm/lorrax_sandbox/sources/jax_xc_local/pbe.py" source_line=65}
  %divide.603 = f64[36,36,36]{2,1,0} divide(%broadcast.55, %multiply.602), metadata={op_name="jit(compute_V_H_and_V_xc)/jit(main)/div" source_file="/pscratch/sd/j/jackm/lorrax_sandbox/sources/jax_xc_local/pbe.py" source_line=65}
  %multiply.613 = f64[36,36,36]{2,1,0} multiply(%divide.612, %divide.603), metadata={op_name="jit(compute_V_H_and_V_xc)/jit(main)/mul" source_file="/pscratch/sd/j/jackm/lorrax_sandbox/sources/jax_xc_local/pbe.py" source_line=65}
  %multiply.614 = f64[36,36,36]{2,1,0} multiply(%multiply.613, %multiply.596), metadata={op_name="jit(compute_V_H_and_V_xc)/jit(main)/mul" source_file="/pscratch/sd/j/jackm/lorrax_sandbox/sources/jax_xc_local/pbe.py" source_line=65}
  %negate.615 = f64[36,36,36]{2,1,0} negate(%multiply.614), metadata={op_name="jit(compute_V_H_and_V_xc)/jit(main)/neg" source_file="/pscratch/sd/j/jackm/lorrax_sandbox/sources/jax_xc_local/pbe.py" source_line=65}
  %multiply.599 = f64[36,36,36]{2,1,0} multiply(%multiply.593, %broadcast.53), metadata={op_name="jit(compute_V_H_and_V_xc)/jit(main)/mul" source_file="/pscratch/sd/j/jackm/lorrax_sandbox/sources/jax_xc_local/pbe.py" source_line=65}
  %multiply.617 = f64[36,36,36]{2,1,0} multiply(%negate.615, %multiply.599), metadata={op_name="jit(compute_V_H_and_V_xc)/jit(main)/mul" source_file="/pscratch/sd/j/jackm/lorrax_sandbox/sources/jax_xc_local/pbe.py" source_line=65}
  %add.618 = f64[36,36,36]{2,1,0} add(%multiply.617, %negate.615), metadata={op_name="jit(compute_V_H_and_V_xc)/jit(main)/add_any" source_file="/pscratch/sd/j/jackm/lorrax_sandbox/sources/jax_xc_local/pbe.py" source_line=65}
  %divide.616 = f64[36,36,36]{2,1,0} divide(%divide.612, %add.600), metadata={op_name="jit(compute_V_H_and_V_xc)/jit(main)/div" source_file="/pscratch/sd/j/jackm/lorrax_sandbox/sources/jax_xc_local/pbe.py" source_line=65}
  %multiply.619 = f64[36,36,36]{2,1,0} multiply(%multiply.594, %divide.616), metadata={op_name="jit(compute_V_H_and_V_xc)/jit(main)/mul" source_file="/pscratch/sd/j/jackm/lorrax_sandbox/sources/jax_xc_local/pbe.py" source_line=65}
  %add.621 = f64[36,36,36]{2,1,0} add(%add.618, %multiply.619), metadata={op_name="jit(compute_V_H_and_V_xc)/jit(main)/add_any" source_file="/pscratch/sd/j/jackm/lorrax_sandbox/sources/jax_xc_local/pbe.py" source_line=65}
  %multiply.623 = f64[36,36,36]{2,1,0} multiply(%add.621, %divide.582), metadata={op_name="jit(compute_V_H_and_V_xc)/jit(main)/mul" source_file="/pscratch/sd/j/jackm/lorrax_sandbox/sources/jax_xc_local/pbe.py" source_line=64}
  %multiply.591 = f64[36,36,36]{2,1,0} multiply(%add.589, %add.589), metadata={op_name="jit(compute_V_H_and_V_xc)/jit(main)/mul" source_file="/pscratch/sd/j/jackm/lorrax_sandbox/sources/jax_xc_local/pbe.py" source_line=63}
  %divide.592 = f64[36,36,36]{2,1,0} divide(%broadcast.55, %multiply.591), metadata={op_name="jit(compute_V_H_and_V_xc)/jit(main)/div" source_file="/pscratch/sd/j/jackm/lorrax_sandbox/sources/jax_xc_local/pbe.py" source_line=63}
  %multiply.624 = f64[36,36,36]{2,1,0} multiply(%multiply.623, %divide.592), metadata={op_name="jit(compute_V_H_and_V_xc)/jit(main)/mul" source_file="/pscratch/sd/j/jackm/lorrax_sandbox/sources/jax_xc_local/pbe.py" source_line=63}
  %multiply.625 = f64[36,36,36]{2,1,0} multiply(%multiply.624, %broadcast.9), metadata={op_name="jit(compute_V_H_and_V_xc)/jit(main)/mul" source_file="/pscratch/sd/j/jackm/lorrax_sandbox/sources/jax_xc_local/pbe.py" source_line=63}
  %negate.626 = f64[36,36,36]{2,1,0} negate(%multiply.625), metadata={op_name="jit(compute_V_H_and_V_xc)/jit(main)/neg" source_file="/pscratch/sd/j/jackm/lorrax_sandbox/sources/jax_xc_local/pbe.py" source_line=63}
  %multiply.627 = f64[36,36,36]{2,1,0} multiply(%negate.626, %exponential.587), metadata={op_name="jit(compute_V_H_and_V_xc)/jit(main)/mul" source_file="/pscratch/sd/j/jackm/lorrax_sandbox/sources/jax_xc_local/pbe.py" source_line=63}
  %divide.628 = f64[36,36,36]{2,1,0} divide(%multiply.627, %broadcast.11), metadata={op_name="jit(compute_V_H_and_V_xc)/jit(main)/div" source_file="/pscratch/sd/j/jackm/lorrax_sandbox/sources/jax_xc_local/pbe.py" source_line=63}
  %negate.629 = f64[36,36,36]{2,1,0} negate(%divide.628), metadata={op_name="jit(compute_V_H_and_V_xc)/jit(main)/neg" source_file="/pscratch/sd/j/jackm/lorrax_sandbox/sources/jax_xc_local/pbe.py" source_line=63}
  %add.630 = f64[36,36,36]{2,1,0} add(%multiply.610, %negate.629), metadata={op_name="jit(compute_V_H_and_V_xc)/jit(main)/add_any" source_file="/pscratch/sd/j/jackm/lorrax_sandbox/sources/jax_xc_local/pbe.py" source_line=63}
  %multiply.631 = f64[36,36,36]{2,1,0} multiply(%multiply.549, %add.630), metadata={op_name="jit(compute_V_H_and_V_xc)/jit(main)/mul" source_file="/pscratch/sd/j/jackm/lorrax_sandbox/sources/jax_xc_local/pbe.py" source_line=49}
  %divide.633 = f64[36,36,36]{2,1,0} divide(%multiply.631, %add.564), metadata={op_name="jit(compute_V_H_and_V_xc)/jit(main)/div" source_file="/pscratch/sd/j/jackm/lorrax_sandbox/sources/jax_xc_local/pbe.py" source_line=49}
  %multiply.562 = f64[36,36,36]{2,1,0} multiply(%multiply.560, %multiply.560), metadata={op_name="jit(compute_V_H_and_V_xc)/jit(main)/mul" source_file="/pscratch/sd/j/jackm/lorrax_sandbox/sources/jax_xc_local/pbe.py" source_line=50}
  %divide.563 = f64[36,36,36]{2,1,0} divide(%broadcast.55, %multiply.562), metadata={op_name="jit(compute_V_H_and_V_xc)/jit(main)/div" source_file="/pscratch/sd/j/jackm/lorrax_sandbox/sources/jax_xc_local/pbe.py" source_line=50}
  %multiply.634 = f64[36,36,36]{2,1,0} multiply(%divide.633, %divide.563), metadata={op_name="jit(compute_V_H_and_V_xc)/jit(main)/mul" source_file="/pscratch/sd/j/jackm/lorrax_sandbox/sources/jax_xc_local/pbe.py" source_line=50}
  %negate.635 = f64[36,36,36]{2,1,0} negate(%multiply.634), metadata={op_name="jit(compute_V_H_and_V_xc)/jit(main)/neg" source_file="/pscratch/sd/j/jackm/lorrax_sandbox/sources/jax_xc_local/pbe.py" source_line=50}
  %multiply.636 = f64[36,36,36]{2,1,0} multiply(%negate.635, %broadcast.15), metadata={op_name="jit(compute_V_H_and_V_xc)/jit(main)/mul" source_file="/pscratch/sd/j/jackm/lorrax_sandbox/sources/jax_xc_local/pbe.py" source_line=50}
  %multiply.637 = f64[36,36,36]{2,1,0} multiply(%multiply.636, %broadcast.17), metadata={op_name="jit(compute_V_H_and_V_xc)/jit(main)/mul" source_file="/pscratch/sd/j/jackm/lorrax_sandbox/sources/jax_xc_local/pbe.py" source_line=51}
  %multiply.557 = f64[36,36,36]{2,1,0} multiply(%power.542, %broadcast.53), metadata={op_name="jit(compute_V_H_and_V_xc)/jit(main)/mul" source_file="/pscratch/sd/j/jackm/lorrax_sandbox/sources/jax_xc_local/pbe.py" source_line=51}
  %multiply.638 = f64[36,36,36]{2,1,0} multiply(%multiply.637, %multiply.557), metadata={op_name="jit(compute_V_H_and_V_xc)/jit(main)/mul" source_file="/pscratch/sd/j/jackm/lorrax_sandbox/sources/jax_xc_local/pbe.py" source_line=51}
  %multiply.640 = f64[36,36,36]{2,1,0} multiply(%multiply.636, %sqrt.545), metadata={op_name="jit(compute_V_H_and_V_xc)/jit(main)/mul" source_file="/pscratch/sd/j/jackm/lorrax_sandbox/sources/jax_xc_local/pbe.py" source_line=51}
  %multiply.641 = f64[36,36,36]{2,1,0} multiply(%multiply.640, %broadcast.19), metadata={op_name="jit(compute_V_H_and_V_xc)/jit(main)/mul" source_file="/pscratch/sd/j/jackm/lorrax_sandbox/sources/jax_xc_local/pbe.py" source_line=51}
  %add.642 = f64[36,36,36]{2,1,0} add(%multiply.638, %multiply.641), metadata={op_name="jit(compute_V_H_and_V_xc)/jit(main)/add_any" source_file="/pscratch/sd/j/jackm/lorrax_sandbox/sources/jax_xc_local/pbe.py" source_line=51}
  %multiply.643 = f64[36,36,36]{2,1,0} multiply(%multiply.636, %broadcast.21), metadata={op_name="jit(compute_V_H_and_V_xc)/jit(main)/mul" source_file="/pscratch/sd/j/jackm/lorrax_sandbox/sources/jax_xc_local/pbe.py" source_line=51}
  %add.644 = f64[36,36,36]{2,1,0} add(%add.642, %multiply.643), metadata={op_name="jit(compute_V_H_and_V_xc)/jit(main)/add_any" source_file="/pscratch/sd/j/jackm/lorrax_sandbox/sources/jax_xc_local/pbe.py" source_line=51}
  %multiply.639 = f64[36,36,36]{2,1,0} multiply(%multiply.553, %multiply.636), metadata={op_name="jit(compute_V_H_and_V_xc)/jit(main)/mul" source_file="/pscratch/sd/j/jackm/lorrax_sandbox/sources/jax_xc_local/pbe.py" source_line=51}
  %multiply.645 = f64[36,36,36]{2,1,0} multiply(%multiply.636, %broadcast.23), metadata={op_name="jit(compute_V_H_and_V_xc)/jit(main)/mul" source_file="/pscratch/sd/j/jackm/lorrax_sandbox/sources/jax_xc_local/pbe.py" source_line=51}
  %add.646 = f64[36,36,36]{2,1,0} add(%multiply.639, %multiply.645), metadata={op_name="jit(compute_V_H_and_V_xc)/jit(main)/add_any" source_file="/pscratch/sd/j/jackm/lorrax_sandbox/sources/jax_xc_local/pbe.py" source_line=51}
  %constant.28 = f64[] constant(0.5)
  %broadcast.29 = f64[36,36,36]{2,1,0} broadcast(%constant.28), dimensions={}
  %divide.546 = f64[36,36,36]{2,1,0} divide(%broadcast.29, %sqrt.545), metadata={op_name="jit(compute_V_H_and_V_xc)/jit(main)/div" source_file="/pscratch/sd/j/jackm/lorrax_sandbox/sources/jax_xc_local/pbe.py" source_line=48}
  %multiply.647 = f64[36,36,36]{2,1,0} multiply(%add.646, %divide.546), metadata={op_name="jit(compute_V_H_and_V_xc)/jit(main)/mul" source_file="/pscratch/sd/j/jackm/lorrax_sandbox/sources/jax_xc_local/pbe.py" source_line=48}
  %add.648 = f64[36,36,36]{2,1,0} add(%add.644, %multiply.647), metadata={op_name="jit(compute_V_H_and_V_xc)/jit(main)/add_any" source_file="/pscratch/sd/j/jackm/lorrax_sandbox/sources/jax_xc_local/pbe.py" source_line=48}
  %multiply.632 = f64[36,36,36]{2,1,0} multiply(%add.630, %log.565), metadata={op_name="jit(compute_V_H_and_V_xc)/jit(main)/mul" source_file="/pscratch/sd/j/jackm/lorrax_sandbox/sources/jax_xc_local/pbe.py" source_line=49}
  %multiply.649 = f64[36,36,36]{2,1,0} multiply(%multiply.632, %broadcast.25), metadata={op_name="jit(compute_V_H_and_V_xc)/jit(main)/mul" source_file="/pscratch/sd/j/jackm/lorrax_sandbox/sources/jax_xc_local/pbe.py" source_line=49}
  %multiply.650 = f64[36,36,36]{2,1,0} multiply(%multiply.649, %broadcast.27), metadata={op_name="jit(compute_V_H_and_V_xc)/jit(main)/mul" source_file="/pscratch/sd/j/jackm/lorrax_sandbox/sources/jax_xc_local/pbe.py" source_line=49}
  %add.651 = f64[36,36,36]{2,1,0} add(%add.648, %multiply.650), metadata={op_name="jit(compute_V_H_and_V_xc)/jit(main)/add_any" source_file="/pscratch/sd/j/jackm/lorrax_sandbox/sources/jax_xc_local/pbe.py" source_line=49}
  %constant.46 = f64[] constant(-0.66666666666666674)
  %broadcast.47 = f64[36,36,36]{2,1,0} broadcast(%constant.46), dimensions={}
  %power.543 = f64[36,36,36]{2,1,0} power(%divide.539, %broadcast.47), metadata={op_name="jit(compute_V_H_and_V_xc)/jit(main)/pow" source_file="/pscratch/sd/j/jackm/lorrax_sandbox/sources/jax_xc_local/pbe.py" source_line=38}
  %multiply.544 = f64[36,36,36]{2,1,0} multiply(%power.543, %broadcast.49), metadata={op_name="jit(compute_V_H_and_V_xc)/jit(main)/mul" source_file="/pscratch/sd/j/jackm/lorrax_sandbox/sources/jax_xc_local/pbe.py" source_line=38}
  %multiply.652 = f64[36,36,36]{2,1,0} multiply(%add.651, %multiply.544), metadata={op_name="jit(compute_V_H_and_V_xc)/jit(main)/mul" source_file="/pscratch/sd/j/jackm/lorrax_sandbox/sources/jax_xc_local/pbe.py" source_line=38}
  %multiply.540 = f64[36,36,36]{2,1,0} multiply(%multiply.538, %multiply.538), metadata={op_name="jit(compute_V_H_and_V_xc)/jit(main)/mul" source_file="/pscratch/sd/j/jackm/lorrax_sandbox/sources/jax_xc_local/pbe.py" source_line=38}
  %divide.541 = f64[36,36,36]{2,1,0} divide(%broadcast.55, %multiply.540), metadata={op_name="jit(compute_V_H_and_V_xc)/jit(main)/div" source_file="/pscratch/sd/j/jackm/lorrax_sandbox/sources/jax_xc_local/pbe.py" source_line=38}
  %multiply.653 = f64[36,36,36]{2,1,0} multiply(%multiply.652, %divide.541), metadata={op_name="jit(compute_V_H_and_V_xc)/jit(main)/mul" source_file="/pscratch/sd/j/jackm/lorrax_sandbox/sources/jax_xc_local/pbe.py" source_line=38}
  %multiply.654 = f64[36,36,36]{2,1,0} multiply(%multiply.653, %broadcast.31), metadata={op_name="jit(compute_V_H_and_V_xc)/jit(main)/mul" source_file="/pscratch/sd/j/jackm/lorrax_sandbox/sources/jax_xc_local/pbe.py" source_line=38}
  %negate.655 = f64[36,36,36]{2,1,0} negate(%multiply.654), metadata={op_name="jit(compute_V_H_and_V_xc)/jit(main)/neg" source_file="/pscratch/sd/j/jackm/lorrax_sandbox/sources/jax_xc_local/pbe.py" source_line=38}
  %multiply.656 = f64[36,36,36]{2,1,0} multiply(%negate.655, %broadcast.33), metadata={op_name="jit(compute_V_H_and_V_xc)/jit(main)/mul" source_file="/pscratch/sd/j/jackm/lorrax_sandbox/sources/jax_xc_local/pbe.py" source_line=38}
  %multiply.622 = f64[36,36,36]{2,1,0} multiply(%divide.590, %add.621), metadata={op_name="jit(compute_V_H_and_V_xc)/jit(main)/mul" source_file="/pscratch/sd/j/jackm/lorrax_sandbox/sources/jax_xc_local/pbe.py" source_line=64}
  %multiply.620 = f64[36,36,36]{2,1,0} multiply(%divide.616, %add.595), metadata={op_name="jit(compute_V_H_and_V_xc)/jit(main)/mul" source_file="/pscratch/sd/j/jackm/lorrax_sandbox/sources/jax_xc_local/pbe.py" source_line=65}
  %multiply.657 = f64[36,36,36]{2,1,0} multiply(%multiply.620, %broadcast.9), metadata={op_name="jit(compute_V_H_and_V_xc)/jit(main)/mul" source_file="/pscratch/sd/j/jackm/lorrax_sandbox/sources/jax_xc_local/pbe.py" source_line=65}
  %add.658 = f64[36,36,36]{2,1,0} add(%multiply.622, %multiply.657), metadata={op_name="jit(compute_V_H_and_V_xc)/jit(main)/add_any" source_file="/pscratch/sd/j/jackm/lorrax_sandbox/sources/jax_xc_local/pbe.py" source_line=65}
  %multiply.583 = f64[36,36,36]{2,1,0} multiply(%add.581, %add.581), metadata={op_name="jit(compute_V_H_and_V_xc)/jit(main)/mul" source_file="/pscratch/sd/j/jackm/lorrax_sandbox/sources/jax_xc_local/pbe.py" source_line=61}
  %divide.584 = f64[36,36,36]{2,1,0} divide(%broadcast.55, %multiply.583), metadata={op_name="jit(compute_V_H_and_V_xc)/jit(main)/div" source_file="/pscratch/sd/j/jackm/lorrax_sandbox/sources/jax_xc_local/pbe.py" source_line=61}
  %multiply.659 = f64[36,36,36]{2,1,0} multiply(%add.658, %divide.584), metadata={op_name="jit(compute_V_H_and_V_xc)/jit(main)/mul" source_file="/pscratch/sd/j/jackm/lorrax_sandbox/sources/jax_xc_local/pbe.py" source_line=61}
  %multiply.660 = f64[36,36,36]{2,1,0} multiply(%multiply.659, %broadcast.59), metadata={op_name="jit(compute_V_H_and_V_xc)/jit(main)/mul" source_file="/pscratch/sd/j/jackm/lorrax_sandbox/sources/jax_xc_local/pbe.py" source_line=61}
  %negate.661 = f64[36,36,36]{2,1,0} negate(%multiply.660), metadata={op_name="jit(compute_V_H_and_V_xc)/jit(main)/neg" source_file="/pscratch/sd/j/jackm/lorrax_sandbox/sources/jax_xc_local/pbe.py" source_line=61}
  %multiply.662 = f64[36,36,36]{2,1,0} multiply(%multiply.577, %negate.661), metadata={op_name="jit(compute_V_H_and_V_xc)/jit(main)/mul" source_file="/pscratch/sd/j/jackm/lorrax_sandbox/sources/jax_xc_local/pbe.py" source_line=61}
  %multiply.579 = f64[36,36,36]{2,1,0} multiply(%maximum.532, %broadcast.53), metadata={op_name="jit(compute_V_H_and_V_xc)/jit(main)/mul" source_file="/pscratch/sd/j/jackm/lorrax_sandbox/sources/jax_xc_local/pbe.py" source_line=61}
  %multiply.664 = f64[36,36,36]{2,1,0} multiply(%multiply.662, %multiply.579), metadata={op_name="jit(compute_V_H_and_V_xc)/jit(main)/mul" source_file="/pscratch/sd/j/jackm/lorrax_sandbox/sources/jax_xc_local/pbe.py" source_line=61}
  %add.665 = f64[36,36,36]{2,1,0} add(%multiply.656, %multiply.664), metadata={op_name="jit(compute_V_H_and_V_xc)/jit(main)/add_any" source_file="/pscratch/sd/j/jackm/lorrax_sandbox/sources/jax_xc_local/pbe.py" source_line=61}
  %multiply.663 = f64[36,36,36]{2,1,0} multiply(%negate.661, %multiply.578), metadata={op_name="jit(compute_V_H_and_V_xc)/jit(main)/mul" source_file="/pscratch/sd/j/jackm/lorrax_sandbox/sources/jax_xc_local/pbe.py" source_line=61}
  %multiply.666 = f64[36,36,36]{2,1,0} multiply(%multiply.663, %broadcast.43), metadata={op_name="jit(compute_V_H_and_V_xc)/jit(main)/mul" source_file="/pscratch/sd/j/jackm/lorrax_sandbox/sources/jax_xc_local/pbe.py" source_line=61}
  %multiply.576 = f64[36,36,36]{2,1,0} multiply(%sqrt.573, %broadcast.53), metadata={op_name="jit(compute_V_H_and_V_xc)/jit(main)/mul" source_file="/pscratch/sd/j/jackm/lorrax_sandbox/sources/jax_xc_local/pbe.py" source_line=61}
  %multiply.667 = f64[36,36,36]{2,1,0} multiply(%multiply.666, %multiply.576), metadata={op_name="jit(compute_V_H_and_V_xc)/jit(main)/mul" source_file="/pscratch/sd/j/jackm/lorrax_sandbox/sources/jax_xc_local/pbe.py" source_line=61}
  %divide.574 = f64[36,36,36]{2,1,0} divide(%broadcast.29, %sqrt.573), metadata={op_name="jit(compute_V_H_and_V_xc)/jit(main)/div" source_file="/pscratch/sd/j/jackm/lorrax_sandbox/sources/jax_xc_local/pbe.py" source_line=60}
  %multiply.668 = f64[36,36,36]{2,1,0} multiply(%multiply.667, %divide.574), metadata={op_name="jit(compute_V_H_and_V_xc)/jit(main)/mul" source_file="/pscratch/sd/j/jackm/lorrax_sandbox/sources/jax_xc_local/pbe.py" source_line=60}
  %divide.669 = f64[36,36,36]{2,1,0} divide(%multiply.668, %broadcast.13), metadata={op_name="jit(compute_V_H_and_V_xc)/jit(main)/div" source_file="/pscratch/sd/j/jackm/lorrax_sandbox/sources/jax_xc_local/pbe.py" source_line=60}
  %multiply.670 = f64[36,36,36]{2,1,0} multiply(%divide.669, %broadcast.43), metadata={op_name="jit(compute_V_H_and_V_xc)/jit(main)/mul" source_file="/pscratch/sd/j/jackm/lorrax_sandbox/sources/jax_xc_local/pbe.py" source_line=60}
  %power.569 = f64[36,36,36]{2,1,0} power(%multiply.567, %broadcast.47), metadata={op_name="jit(compute_V_H_and_V_xc)/jit(main)/pow" source_file="/pscratch/sd/j/jackm/lorrax_sandbox/sources/jax_xc_local/pbe.py" source_line=59}
  %multiply.570 = f64[36,36,36]{2,1,0} multiply(%power.569, %broadcast.49), metadata={op_name="jit(compute_V_H_and_V_xc)/jit(main)/mul" source_file="/pscratch/sd/j/jackm/lorrax_sandbox/sources/jax_xc_local/pbe.py" source_line=59}
  %multiply.671 = f64[36,36,36]{2,1,0} multiply(%multiply.670, %multiply.570), metadata={op_name="jit(compute_V_H_and_V_xc)/jit(main)/mul" source_file="/pscratch/sd/j/jackm/lorrax_sandbox/sources/jax_xc_local/pbe.py" source_line=59}
  %multiply.672 = f64[36,36,36]{2,1,0} multiply(%multiply.671, %broadcast.51), metadata={op_name="jit(compute_V_H_and_V_xc)/jit(main)/mul" source_file="/pscratch/sd/j/jackm/lorrax_sandbox/sources/jax_xc_local/pbe.py" source_line=59}
  %add.673 = f64[36,36,36]{2,1,0} add(%add.665, %multiply.672), metadata={op_name="jit(compute_V_H_and_V_xc)/jit(main)/add_any" source_file="/pscratch/sd/j/jackm/lorrax_sandbox/sources/jax_xc_local/pbe.py" source_line=59}
  %compare.533 = pred[36,36,36]{2,1,0} compare(%maximum.466, %maximum.532), direction=EQ, metadata={op_name="jit(compute_V_H_and_V_xc)/jit(main)/eq" source_file="/pscratch/sd/j/jackm/lorrax_sandbox/sources/jax_xc_local/pbe.py" source_line=37}
  %select.534 = f64[36,36,36]{2,1,0} select(%compare.533, %broadcast.55, %broadcast.59), metadata={op_name="jit(compute_V_H_and_V_xc)/jit(main)/select_n" source_file="/pscratch/sd/j/jackm/lorrax_sandbox/sources/jax_xc_local/pbe.py" source_line=37}
  %compare.535 = pred[36,36,36]{2,1,0} compare(%broadcast.57, %maximum.532), direction=EQ, metadata={op_name="jit(compute_V_H_and_V_xc)/jit(main)/eq" source_file="/pscratch/sd/j/jackm/lorrax_sandbox/sources/jax_xc_local/pbe.py" source_line=37}
  %select.536 = f64[36,36,36]{2,1,0} select(%compare.535, %broadcast.53, %broadcast.55), metadata={op_name="jit(compute_V_H_and_V_xc)/jit(main)/select_n" source_file="/pscratch/sd/j/jackm/lorrax_sandbox/sources/jax_xc_local/pbe.py" source_line=37}
  %divide.537 = f64[36,36,36]{2,1,0} divide(%select.534, %select.536), metadata={op_name="jit(compute_V_H_and_V_xc)/jit(main)/div" source_file="/pscratch/sd/j/jackm/lorrax_sandbox/sources/jax_xc_local/pbe.py" source_line=37}
  %multiply.674 = f64[36,36,36]{2,1,0} multiply(%add.673, %divide.537), metadata={op_name="jit(compute_V_H_and_V_xc)/jit(main)/mul" source_file="/pscratch/sd/j/jackm/lorrax_sandbox/sources/jax_xc_local/pbe.py" source_line=37}
  %add.675 = f64[36,36,36]{2,1,0} add(%multiply.609, %multiply.674), metadata={op_name="jit(compute_V_H_and_V_xc)/jit(main)/add_any" source_file="/pscratch/sd/j/jackm/lorrax_sandbox/sources/jax_xc_local/pbe.py" source_line=37}
  %multiply.676 = f64[36,36,36]{2,1,0} multiply(%multiply.513, %multiply.610), metadata={op_name="jit(compute_V_H_and_V_xc)/jit(main)/mul" source_file="/pscratch/sd/j/jackm/lorrax_sandbox/sources/jax_xc_local/pbe.py" source_line=29}
  %negate.678 = f64[36,36,36]{2,1,0} negate(%multiply.676), metadata={op_name="jit(compute_V_H_and_V_xc)/jit(main)/neg" source_file="/pscratch/sd/j/jackm/lorrax_sandbox/sources/jax_xc_local/pbe.py" source_line=27}
  %multiply.528 = f64[36,36,36]{2,1,0} multiply(%add.526, %add.526), metadata={op_name="jit(compute_V_H_and_V_xc)/jit(main)/mul" source_file="/pscratch/sd/j/jackm/lorrax_sandbox/sources/jax_xc_local/pbe.py" source_line=27}
  %divide.529 = f64[36,36,36]{2,1,0} divide(%broadcast.55, %multiply.528), metadata={op_name="jit(compute_V_H_and_V_xc)/jit(main)/div" source_file="/pscratch/sd/j/jackm/lorrax_sandbox/sources/jax_xc_local/pbe.py" source_line=27}
  %multiply.679 = f64[36,36,36]{2,1,0} multiply(%negate.678, %divide.529), metadata={op_name="jit(compute_V_H_and_V_xc)/jit(main)/mul" source_file="/pscratch/sd/j/jackm/lorrax_sandbox/sources/jax_xc_local/pbe.py" source_line=27}
  %multiply.680 = f64[36,36,36]{2,1,0} multiply(%multiply.679, %broadcast.37), metadata={op_name="jit(compute_V_H_and_V_xc)/jit(main)/mul" source_file="/pscratch/sd/j/jackm/lorrax_sandbox/sources/jax_xc_local/pbe.py" source_line=27}
  %negate.681 = f64[36,36,36]{2,1,0} negate(%multiply.680), metadata={op_name="jit(compute_V_H_and_V_xc)/jit(main)/neg" source_file="/pscratch/sd/j/jackm/lorrax_sandbox/sources/jax_xc_local/pbe.py" source_line=27}
  %divide.682 = f64[36,36,36]{2,1,0} divide(%negate.681, %broadcast.37), metadata={op_name="jit(compute_V_H_and_V_xc)/jit(main)/div" source_file="/pscratch/sd/j/jackm/lorrax_sandbox/sources/jax_xc_local/pbe.py" source_line=27}
  %multiply.683 = f64[36,36,36]{2,1,0} multiply(%divide.682, %broadcast.39), metadata={op_name="jit(compute_V_H_and_V_xc)/jit(main)/mul" source_file="/pscratch/sd/j/jackm/lorrax_sandbox/sources/jax_xc_local/pbe.py" source_line=27}
  %multiply.522 = f64[36,36,36]{2,1,0} multiply(%add.520, %add.520), metadata={op_name="jit(compute_V_H_and_V_xc)/jit(main)/mul" source_file="/pscratch/sd/j/jackm/lorrax_sandbox/sources/jax_xc_local/pbe.py" source_line=26}
  %divide.523 = f64[36,36,36]{2,1,0} divide(%broadcast.55, %multiply.522), metadata={op_name="jit(compute_V_H_and_V_xc)/jit(main)/div" source_file="/pscratch/sd/j/jackm/lorrax_sandbox/sources/jax_xc_local/pbe.py" source_line=26}
  %multiply.684 = f64[36,36,36]{2,1,0} multiply(%multiply.683, %divide.523), metadata={op_name="jit(compute_V_H_and_V_xc)/jit(main)/mul" source_file="/pscratch/sd/j/jackm/lorrax_sandbox/sources/jax_xc_local/pbe.py" source_line=26}
  %multiply.685 = f64[36,36,36]{2,1,0} multiply(%multiply.684, %broadcast.59), metadata={op_name="jit(compute_V_H_and_V_xc)/jit(main)/mul" source_file="/pscratch/sd/j/jackm/lorrax_sandbox/sources/jax_xc_local/pbe.py" source_line=26}
  %negate.686 = f64[36,36,36]{2,1,0} negate(%multiply.685), metadata={op_name="jit(compute_V_H_and_V_xc)/jit(main)/neg" source_file="/pscratch/sd/j/jackm/lorrax_sandbox/sources/jax_xc_local/pbe.py" source_line=26}
  %multiply.687 = f64[36,36,36]{2,1,0} multiply(%multiply.516, %negate.686), metadata={op_name="jit(compute_V_H_and_V_xc)/jit(main)/mul" source_file="/pscratch/sd/j/jackm/lorrax_sandbox/sources/jax_xc_local/pbe.py" source_line=26}
  %multiply.518 = f64[36,36,36]{2,1,0} multiply(%maximum.503, %broadcast.53), metadata={op_name="jit(compute_V_H_and_V_xc)/jit(main)/mul" source_file="/pscratch/sd/j/jackm/lorrax_sandbox/sources/jax_xc_local/pbe.py" source_line=26}
  %multiply.689 = f64[36,36,36]{2,1,0} multiply(%multiply.687, %multiply.518), metadata={op_name="jit(compute_V_H_and_V_xc)/jit(main)/mul" source_file="/pscratch/sd/j/jackm/lorrax_sandbox/sources/jax_xc_local/pbe.py" source_line=26}
  %multiply.688 = f64[36,36,36]{2,1,0} multiply(%negate.686, %multiply.517), metadata={op_name="jit(compute_V_H_and_V_xc)/jit(main)/mul" source_file="/pscratch/sd/j/jackm/lorrax_sandbox/sources/jax_xc_local/pbe.py" source_line=26}
  %multiply.690 = f64[36,36,36]{2,1,0} multiply(%multiply.688, %broadcast.43), metadata={op_name="jit(compute_V_H_and_V_xc)/jit(main)/mul" source_file="/pscratch/sd/j/jackm/lorrax_sandbox/sources/jax_xc_local/pbe.py" source_line=26}
  %multiply.515 = f64[36,36,36]{2,1,0} multiply(%power.510, %broadcast.53), metadata={op_name="jit(compute_V_H_and_V_xc)/jit(main)/mul" source_file="/pscratch/sd/j/jackm/lorrax_sandbox/sources/jax_xc_local/pbe.py" source_line=26}
  %multiply.691 = f64[36,36,36]{2,1,0} multiply(%multiply.690, %multiply.515), metadata={op_name="jit(compute_V_H_and_V_xc)/jit(main)/mul" source_file="/pscratch/sd/j/jackm/lorrax_sandbox/sources/jax_xc_local/pbe.py" source_line=26}
  %multiply.677 = f64[36,36,36]{2,1,0} multiply(%multiply.610, %subtract.530), metadata={op_name="jit(compute_V_H_and_V_xc)/jit(main)/mul" source_file="/pscratch/sd/j/jackm/lorrax_sandbox/sources/jax_xc_local/pbe.py" source_line=29}
  %multiply.692 = f64[36,36,36]{2,1,0} multiply(%multiply.677, %broadcast.45), metadata={op_name="jit(compute_V_H_and_V_xc)/jit(main)/mul" source_file="/pscratch/sd/j/jackm/lorrax_sandbox/sources/jax_xc_local/pbe.py" source_line=22}
  %add.693 = f64[36,36,36]{2,1,0} add(%multiply.691, %multiply.692), metadata={op_name="jit(compute_V_H_and_V_xc)/jit(main)/add_any" source_file="/pscratch/sd/j/jackm/lorrax_sandbox/sources/jax_xc_local/pbe.py" source_line=22}
  %power.511 = f64[36,36,36]{2,1,0} power(%multiply.509, %broadcast.47), metadata={op_name="jit(compute_V_H_and_V_xc)/jit(main)/pow" source_file="/pscratch/sd/j/jackm/lorrax_sandbox/sources/jax_xc_local/pbe.py" source_line=21}
  %multiply.512 = f64[36,36,36]{2,1,0} multiply(%power.511, %broadcast.49), metadata={op_name="jit(compute_V_H_and_V_xc)/jit(main)/mul" source_file="/pscratch/sd/j/jackm/lorrax_sandbox/sources/jax_xc_local/pbe.py" source_line=21}
  %multiply.694 = f64[36,36,36]{2,1,0} multiply(%add.693, %multiply.512), metadata={op_name="jit(compute_V_H_and_V_xc)/jit(main)/mul" source_file="/pscratch/sd/j/jackm/lorrax_sandbox/sources/jax_xc_local/pbe.py" source_line=21}
  %multiply.695 = f64[36,36,36]{2,1,0} multiply(%multiply.694, %broadcast.51), metadata={op_name="jit(compute_V_H_and_V_xc)/jit(main)/mul" source_file="/pscratch/sd/j/jackm/lorrax_sandbox/sources/jax_xc_local/pbe.py" source_line=21}
  %add.696 = f64[36,36,36]{2,1,0} add(%multiply.689, %multiply.695), metadata={op_name="jit(compute_V_H_and_V_xc)/jit(main)/add_any" source_file="/pscratch/sd/j/jackm/lorrax_sandbox/sources/jax_xc_local/pbe.py" source_line=21}
  %compare.504 = pred[36,36,36]{2,1,0} compare(%maximum.466, %maximum.503), direction=EQ, metadata={op_name="jit(compute_V_H_and_V_xc)/jit(main)/eq" source_file="/pscratch/sd/j/jackm/lorrax_sandbox/sources/jax_xc_local/pbe.py" source_line=20}
  %select.505 = f64[36,36,36]{2,1,0} select(%compare.504, %broadcast.55, %broadcast.59), metadata={op_name="jit(compute_V_H_and_V_xc)/jit(main)/select_n" source_file="/pscratch/sd/j/jackm/lorrax_sandbox/sources/jax_xc_local/pbe.py" source_line=20}
  %compare.506 = pred[36,36,36]{2,1,0} compare(%broadcast.57, %maximum.503), direction=EQ, metadata={op_name="jit(compute_V_H_and_V_xc)/jit(main)/eq" source_file="/pscratch/sd/j/jackm/lorrax_sandbox/sources/jax_xc_local/pbe.py" source_line=20}
  %select.507 = f64[36,36,36]{2,1,0} select(%compare.506, %broadcast.53, %broadcast.55), metadata={op_name="jit(compute_V_H_and_V_xc)/jit(main)/select_n" source_file="/pscratch/sd/j/jackm/lorrax_sandbox/sources/jax_xc_local/pbe.py" source_line=20}
  %divide.508 = f64[36,36,36]{2,1,0} divide(%select.505, %select.507), metadata={op_name="jit(compute_V_H_and_V_xc)/jit(main)/div" source_file="/pscratch/sd/j/jackm/lorrax_sandbox/sources/jax_xc_local/pbe.py" source_line=20}
  %multiply.697 = f64[36,36,36]{2,1,0} multiply(%add.696, %divide.508), metadata={op_name="jit(compute_V_H_and_V_xc)/jit(main)/mul" source_file="/pscratch/sd/j/jackm/lorrax_sandbox/sources/jax_xc_local/pbe.py" source_line=20}
  %add.698 = f64[36,36,36]{2,1,0} add(%add.675, %multiply.697), metadata={op_name="jit(compute_V_H_and_V_xc)/jit(main)/add_any" source_file="/pscratch/sd/j/jackm/lorrax_sandbox/sources/jax_xc_local/pbe.py" source_line=20}
  %constant.6 = f64[] constant(1e-06)
  %broadcast.7 = f64[36,36,36]{2,1,0} broadcast(%constant.6), dimensions={}
  %compare.986 = pred[36,36,36]{2,1,0} compare(%add.453, %broadcast.7), direction=GT, metadata={op_name="jit(compute_V_H_and_V_xc)/jit(main)/gt" source_file="/pscratch/sd/j/jackm/lorrax_sandbox/sources/lorrax/src/psp/xc.py" source_line=136}
  %Arg_3.4 = f64[36,36,36,3]{3,2,1,0} parameter(3), metadata={op_name="G_cart"}
  %slice.467 = f64[36,36,36,1]{3,2,1,0} slice(%Arg_3.4), slice={[0:36], [0:36], [0:36], [0:1]}, metadata={op_name="jit(compute_V_H_and_V_xc)/jit(main)/slice" source_file="/pscratch/sd/j/jackm/lorrax_sandbox/sources/lorrax/src/psp/xc.py" source_line=56}
  %reshape.468 = f64[36,36,36]{2,1,0} reshape(%slice.467), metadata={op_name="jit(compute_V_H_and_V_xc)/jit(main)/squeeze" source_file="/pscratch/sd/j/jackm/lorrax_sandbox/sources/lorrax/src/psp/xc.py" source_line=56}
  %convert.469 = c128[36,36,36]{2,1,0} convert(%reshape.468), metadata={op_name="jit(compute_V_H_and_V_xc)/jit(main)/convert_element_type" source_file="/pscratch/sd/j/jackm/lorrax_sandbox/sources/lorrax/src/psp/xc.py" source_line=56}
  %constant.60 = c128[] constant((0, 1))
  %broadcast.61 = c128[36,36,36]{2,1,0} broadcast(%constant.60), dimensions={}
  %multiply.470 = c128[36,36,36]{2,1,0} multiply(%convert.469, %broadcast.61), metadata={op_name="jit(compute_V_H_and_V_xc)/jit(main)/mul" source_file="/pscratch/sd/j/jackm/lorrax_sandbox/sources/lorrax/src/psp/xc.py" source_line=56}
  %Arg_2.3 = c128[36,36,36]{2,1,0} parameter(2), metadata={op_name="rhog_core"}
  %call.457 = c128[36,36,36]{2,1,0} call(%Arg_2.3), to_apply=%fft_0.454
  %real.458 = f64[36,36,36]{2,1,0} real(%call.457), metadata={op_name="jit(compute_V_H_and_V_xc)/jit(main)/real" source_file="/pscratch/sd/j/jackm/lorrax_sandbox/sources/lorrax/src/psp/dft_operators.py" source_line=304}
  %subtract.459 = f64[36,36,36]{2,1,0} subtract(%add.453, %real.458), metadata={op_name="jit(compute_V_H_and_V_xc)/jit(main)/sub" source_file="/pscratch/sd/j/jackm/lorrax_sandbox/sources/lorrax/src/psp/dft_operators.py" source_line=305}
  %call.464 = c128[36,36,36]{2,1,0} call(%subtract.459), to_apply=%fft.460
  %add.465 = c128[36,36,36]{2,1,0} add(%call.464, %Arg_2.3), metadata={op_name="jit(compute_V_H_and_V_xc)/jit(main)/add" source_file="/pscratch/sd/j/jackm/lorrax_sandbox/sources/lorrax/src/psp/dft_operators.py" source_line=305}
  %multiply.471 = c128[36,36,36]{2,1,0} multiply(%multiply.470, %add.465), metadata={op_name="jit(compute_V_H_and_V_xc)/jit(main)/mul" source_file="/pscratch/sd/j/jackm/lorrax_sandbox/sources/lorrax/src/psp/xc.py" source_line=56}
  %call.475 = c128[36,36,36]{2,1,0} call(%multiply.471), to_apply=%fft_0.472
  %real.476 = f64[36,36,36]{2,1,0} real(%call.475), metadata={op_name="jit(compute_V_H_and_V_xc)/jit(main)/real" source_file="/pscratch/sd/j/jackm/lorrax_sandbox/sources/lorrax/src/psp/xc.py" source_line=56}
  %multiply.477 = f64[36,36,36]{2,1,0} multiply(%real.476, %real.476), metadata={op_name="jit(compute_V_H_and_V_xc)/jit(main)/integer_pow" source_file="/pscratch/sd/j/jackm/lorrax_sandbox/sources/lorrax/src/psp/xc.py" source_line=57}
  %slice.478 = f64[36,36,36,1]{3,2,1,0} slice(%Arg_3.4), slice={[0:36], [0:36], [0:36], [1:2]}, metadata={op_name="jit(compute_V_H_and_V_xc)/jit(main)/slice" source_file="/pscratch/sd/j/jackm/lorrax_sandbox/sources/lorrax/src/psp/xc.py" source_line=56}
  %reshape.479 = f64[36,36,36]{2,1,0} reshape(%slice.478), metadata={op_name="jit(compute_V_H_and_V_xc)/jit(main)/squeeze" source_file="/pscratch/sd/j/jackm/lorrax_sandbox/sources/lorrax/src/psp/xc.py" source_line=56}
  %convert.480 = c128[36,36,36]{2,1,0} convert(%reshape.479), metadata={op_name="jit(compute_V_H_and_V_xc)/jit(main)/convert_element_type" source_file="/pscratch/sd/j/jackm/lorrax_sandbox/sources/lorrax/src/psp/xc.py" source_line=56}
  %multiply.481 = c128[36,36,36]{2,1,0} multiply(%convert.480, %broadcast.61), metadata={op_name="jit(compute_V_H_and_V_xc)/jit(main)/mul" source_file="/pscratch/sd/j/jackm/lorrax_sandbox/sources/lorrax/src/psp/xc.py" source_line=56}
  %multiply.482 = c128[36,36,36]{2,1,0} multiply(%multiply.481, %add.465), metadata={op_name="jit(compute_V_H_and_V_xc)/jit(main)/mul" source_file="/pscratch/sd/j/jackm/lorrax_sandbox/sources/lorrax/src/psp/xc.py" source_line=56}
  %call.486 = c128[36,36,36]{2,1,0} call(%multiply.482), to_apply=%fft_0.483
  %real.487 = f64[36,36,36]{2,1,0} real(%call.486), metadata={op_name="jit(compute_V_H_and_V_xc)/jit(main)/real" source_file="/pscratch/sd/j/jackm/lorrax_sandbox/sources/lorrax/src/psp/xc.py" source_line=56}
  %multiply.488 = f64[36,36,36]{2,1,0} multiply(%real.487, %real.487), metadata={op_name="jit(compute_V_H_and_V_xc)/jit(main)/integer_pow" source_file="/pscratch/sd/j/jackm/lorrax_sandbox/sources/lorrax/src/psp/xc.py" source_line=57}
  %add.489 = f64[36,36,36]{2,1,0} add(%multiply.477, %multiply.488), metadata={op_name="jit(compute_V_H_and_V_xc)/jit(main)/add" source_file="/pscratch/sd/j/jackm/lorrax_sandbox/sources/lorrax/src/psp/xc.py" source_line=57}
  %slice.490 = f64[36,36,36,1]{3,2,1,0} slice(%Arg_3.4), slice={[0:36], [0:36], [0:36], [2:3]}, metadata={op_name="jit(compute_V_H_and_V_xc)/jit(main)/slice" source_file="/pscratch/sd/j/jackm/lorrax_sandbox/sources/lorrax/src/psp/xc.py" source_line=56}
  %reshape.491 = f64[36,36,36]{2,1,0} reshape(%slice.490), metadata={op_name="jit(compute_V_H_and_V_xc)/jit(main)/squeeze" source_file="/pscratch/sd/j/jackm/lorrax_sandbox/sources/lorrax/src/psp/xc.py" source_line=56}
  %convert.492 = c128[36,36,36]{2,1,0} convert(%reshape.491), metadata={op_name="jit(compute_V_H_and_V_xc)/jit(main)/convert_element_type" source_file="/pscratch/sd/j/jackm/lorrax_sandbox/sources/lorrax/src/psp/xc.py" source_line=56}
  %multiply.493 = c128[36,36,36]{2,1,0} multiply(%convert.492, %broadcast.61), metadata={op_name="jit(compute_V_H_and_V_xc)/jit(main)/mul" source_file="/pscratch/sd/j/jackm/lorrax_sandbox/sources/lorrax/src/psp/xc.py" source_line=56}
  %multiply.494 = c128[36,36,36]{2,1,0} multiply(%multiply.493, %add.465), metadata={op_name="jit(compute_V_H_and_V_xc)/jit(main)/mul" source_file="/pscratch/sd/j/jackm/lorrax_sandbox/sources/lorrax/src/psp/xc.py" source_line=56}
  %call.498 = c128[36,36,36]{2,1,0} call(%multiply.494), to_apply=%fft_0.495
  %real.499 = f64[36,36,36]{2,1,0} real(%call.498), metadata={op_name="jit(compute_V_H_and_V_xc)/jit(main)/real" source_file="/pscratch/sd/j/jackm/lorrax_sandbox/sources/lorrax/src/psp/xc.py" source_line=56}
  %multiply.500 = f64[36,36,36]{2,1,0} multiply(%real.499, %real.499), metadata={op_name="jit(compute_V_H_and_V_xc)/jit(main)/integer_pow" source_file="/pscratch/sd/j/jackm/lorrax_sandbox/sources/lorrax/src/psp/xc.py" source_line=57}
  %add.501 = f64[36,36,36]{2,1,0} add(%add.489, %multiply.500), metadata={op_name="jit(compute_V_H_and_V_xc)/jit(main)/add" source_file="/pscratch/sd/j/jackm/lorrax_sandbox/sources/lorrax/src/psp/xc.py" source_line=57}
  %maximum.502 = f64[36,36,36]{2,1,0} maximum(%add.501, %broadcast.59), metadata={op_name="jit(compute_V_H_and_V_xc)/jit(main)/max" source_file="/pscratch/sd/j/jackm/lorrax_sandbox/sources/lorrax/src/psp/xc.py" source_line=58}
  %compare.987 = pred[36,36,36]{2,1,0} compare(%maximum.502, %broadcast.63), direction=GT, metadata={op_name="jit(compute_V_H_and_V_xc)/jit(main)/gt" source_file="/pscratch/sd/j/jackm/lorrax_sandbox/sources/lorrax/src/psp/xc.py" source_line=136}
  %and.988 = pred[36,36,36]{2,1,0} and(%compare.986, %compare.987), metadata={op_name="jit(compute_V_H_and_V_xc)/jit(main)/and" source_file="/pscratch/sd/j/jackm/lorrax_sandbox/sources/lorrax/src/psp/xc.py" source_line=136}
  %maximum.699 = f64[36,36,36]{2,1,0} maximum(%maximum.466, %broadcast.57), metadata={op_name="jit(compute_V_H_and_V_xc)/jit(main)/max" source_file="/pscratch/sd/j/jackm/lorrax_sandbox/sources/jax_xc_local/pbe.py" source_line=20}
  %multiply.705 = f64[36,36,36]{2,1,0} multiply(%maximum.699, %broadcast.51), metadata={op_name="jit(compute_V_H_and_V_xc)/jit(main)/mul" source_file="/pscratch/sd/j/jackm/lorrax_sandbox/sources/jax_xc_local/pbe.py" source_line=21}
  %power.706 = f64[36,36,36]{2,1,0} power(%multiply.705, %broadcast.49), metadata={op_name="jit(compute_V_H_and_V_xc)/jit(main)/pow" source_file="/pscratch/sd/j/jackm/lorrax_sandbox/sources/jax_xc_local/pbe.py" source_line=21}
  %multiply.709 = f64[36,36,36]{2,1,0} multiply(%power.706, %broadcast.45), metadata={op_name="jit(compute_V_H_and_V_xc)/jit(main)/mul" source_file="/pscratch/sd/j/jackm/lorrax_sandbox/sources/jax_xc_local/pbe.py" source_line=22}
  %multiply.710 = f64[36,36,36]{2,1,0} multiply(%power.706, %power.706), metadata={op_name="jit(compute_V_H_and_V_xc)/jit(main)/integer_pow" source_file="/pscratch/sd/j/jackm/lorrax_sandbox/sources/jax_xc_local/pbe.py" source_line=26}
  %multiply.712 = f64[36,36,36]{2,1,0} multiply(%multiply.710, %broadcast.43), metadata={op_name="jit(compute_V_H_and_V_xc)/jit(main)/mul" source_file="/pscratch/sd/j/jackm/lorrax_sandbox/sources/jax_xc_local/pbe.py" source_line=26}
  %multiply.713 = f64[36,36,36]{2,1,0} multiply(%maximum.699, %maximum.699), metadata={op_name="jit(compute_V_H_and_V_xc)/jit(main)/integer_pow" source_file="/pscratch/sd/j/jackm/lorrax_sandbox/sources/jax_xc_local/pbe.py" source_line=26}
  %multiply.715 = f64[36,36,36]{2,1,0} multiply(%multiply.712, %multiply.713), metadata={op_name="jit(compute_V_H_and_V_xc)/jit(main)/mul" source_file="/pscratch/sd/j/jackm/lorrax_sandbox/sources/jax_xc_local/pbe.py" source_line=26}
  %add.716 = f64[36,36,36]{2,1,0} add(%multiply.715, %broadcast.41), metadata={op_name="jit(compute_V_H_and_V_xc)/jit(main)/add" source_file="/pscratch/sd/j/jackm/lorrax_sandbox/sources/jax_xc_local/pbe.py" source_line=26}
  %divide.717 = f64[36,36,36]{2,1,0} divide(%maximum.502, %add.716), metadata={op_name="jit(compute_V_H_and_V_xc)/jit(main)/div" source_file="/pscratch/sd/j/jackm/lorrax_sandbox/sources/jax_xc_local/pbe.py" source_line=26}
  %multiply.720 = f64[36,36,36]{2,1,0} multiply(%divide.717, %broadcast.39), metadata={op_name="jit(compute_V_H_and_V_xc)/jit(main)/mul" source_file="/pscratch/sd/j/jackm/lorrax_sandbox/sources/jax_xc_local/pbe.py" source_line=27}
  %divide.721 = f64[36,36,36]{2,1,0} divide(%multiply.720, %broadcast.37), metadata={op_name="jit(compute_V_H_and_V_xc)/jit(main)/div" source_file="/pscratch/sd/j/jackm/lorrax_sandbox/sources/jax_xc_local/pbe.py" source_line=27}
…
  %add.847 = f64[36,36,36]{2,1,0} add(%add.844, %multiply.846), metadata={op_name="jit(compute_V_H_and_V_xc)/jit(main)/add_any" source_file="/pscratch/sd/j/jackm/lorrax_sandbox/sources/jax_xc_local/pbe.py" source_line=49}
  %power.739 = f64[36,36,36]{2,1,0} power(%divide.735, %broadcast.47), metadata={op_name="jit(compute_V_H_and_V_xc)/jit(main)/pow" source_file="/pscratch/sd/j/jackm/lorrax_sandbox/sources/jax_xc_local/pbe.py" source_line=38}
  %multiply.740 = f64[36,36,36]{2,1,0} multiply(%power.739, %broadcast.49), metadata={op_name="jit(compute_V_H_and_V_xc)/jit(main)/mul" source_file="/pscratch/sd/j/jackm/lorrax_sandbox/sources/jax_xc_local/pbe.py" source_line=38}
  %multiply.848 = f64[36,36,36]{2,1,0} multiply(%add.847, %multiply.740), metadata={op_name="jit(compute_V_H_and_V_xc)/jit(main)/mul" source_file="/pscratch/sd/j/jackm/lorrax_sandbox/sources/jax_xc_local/pbe.py" source_line=38}
  %multiply.736 = f64[36,36,36]{2,1,0} multiply(%multiply.734, %multiply.734), metadata={op_name="jit(compute_V_H_and_V_xc)/jit(main)/mul" source_file="/pscratch/sd/j/jackm/lorrax_sandbox/sources/jax_xc_local/pbe.py" source_line=38}
  %divide.737 = f64[36,36,36]{2,1,0} divide(%broadcast.55, %multiply.736), metadata={op_name="jit(compute_V_H_and_V_xc)/jit(main)/div" source_file="/pscratch/sd/j/jackm/lorrax_sandbox/sources/jax_xc_local/pbe.py" source_line=38}
  %multiply.849 = f64[36,36,36]{2,1,0} multiply(%multiply.848, %divide.737), metadata={op_name="jit(compute_V_H_and_V_xc)/jit(main)/mul" source_file="/pscratch/sd/j/jackm/lorrax_sandbox/sources/jax_xc_local/pbe.py" source_line=38}
  %multiply.850 = f64[36,36,36]{2,1,0} multiply(%multiply.849, %broadcast.31), metadata={op_name="jit(compute_V_H_and_V_xc)/jit(main)/mul" source_file="/pscratch/sd/j/jackm/lorrax_sandbox/sources/jax_xc_local/pbe.py" source_line=38}
  %negate.851 = f64[36,36,36]{2,1,0} negate(%multiply.850), metadata={op_name="jit(compute_V_H_and_V_xc)/jit(main)/neg" source_file="/pscratch/sd/j/jackm/lorrax_sandbox/sources/jax_xc_local/pbe.py" source_line=38}
  %multiply.852 = f64[36,36,36]{2,1,0} multiply(%negate.851, %broadcast.33), metadata={op_name="jit(compute_V_H_and_V_xc)/jit(main)/mul" source_file="/pscratch/sd/j/jackm/lorrax_sandbox/sources/jax_xc_local/pbe.py" source_line=38}
  %multiply.818 = f64[36,36,36]{2,1,0} multiply(%divide.786, %add.817), metadata={op_name="jit(compute_V_H_and_V_xc)/jit(main)/mul" source_file="/pscratch/sd/j/jackm/lorrax_sandbox/sources/jax_xc_local/pbe.py" source_line=64}
  %multiply.816 = f64[36,36,36]{2,1,0} multiply(%divide.812, %add.791), metadata={op_name="jit(compute_V_H_and_V_xc)/jit(main)/mul" source_file="/pscratch/sd/j/jackm/lorrax_sandbox/sources/jax_xc_local/pbe.py" source_line=65}
  %multiply.853 = f64[36,36,36]{2,1,0} multiply(%multiply.816, %broadcast.9), metadata={op_name="jit(compute_V_H_and_V_xc)/jit(main)/mul" source_file="/pscratch/sd/j/jackm/lorrax_sandbox/sources/jax_xc_local/pbe.py" source_line=65}
  %add.854 = f64[36,36,36]{2,1,0} add(%multiply.818, %multiply.853), metadata={op_name="jit(compute_V_H_and_V_xc)/jit(main)/add_any" source_file="/pscratch/sd/j/jackm/lorrax_sandbox/sources/jax_xc_local/pbe.py" source_line=65}
  %multiply.779 = f64[36,36,36]{2,1,0} multiply(%add.777, %add.777), metadata={op_name="jit(compute_V_H_and_V_xc)/jit(main)/mul" source_file="/pscratch/sd/j/jackm/lorrax_sandbox/sources/jax_xc_local/pbe.py" source_line=61}
  %divide.780 = f64[36,36,36]{2,1,0} divide(%broadcast.55, %multiply.779), metadata={op_name="jit(compute_V_H_and_V_xc)/jit(main)/div" source_file="/pscratch/sd/j/jackm/lorrax_sandbox/sources/jax_xc_local/pbe.py" source_line=61}
  %multiply.855 = f64[36,36,36]{2,1,0} multiply(%add.854, %divide.780), metadata={op_name="jit(compute_V_H_and_V_xc)/jit(main)/mul" source_file="/pscratch/sd/j/jackm/lorrax_sandbox/sources/jax_xc_local/pbe.py" source_line=61}
  %multiply.856 = f64[36,36,36]{2,1,0} multiply(%multiply.855, %maximum.502), metadata={op_name="jit(compute_V_H_and_V_xc)/jit(main)/mul" source_file="/pscratch/sd/j/jackm/lorrax_sandbox/sources/jax_xc_local/pbe.py" source_line=61}
  %negate.857 = f64[36,36,36]{2,1,0} negate(%multiply.856), metadata={op_name="jit(compute_V_H_and_V_xc)/jit(main)/neg" source_file="/pscratch/sd/j/jackm/lorrax_sandbox/sources/jax_xc_local/pbe.py" source_line=61}
  %multiply.858 = f64[36,36,36]{2,1,0} multiply(%multiply.773, %negate.857), metadata={op_name="jit(compute_V_H_and_V_xc)/jit(main)/mul" source_file="/pscratch/sd/j/jackm/lorrax_sandbox/sources/jax_xc_local/pbe.py" source_line=61}
  %multiply.775 = f64[36,36,36]{2,1,0} multiply(%maximum.728, %broadcast.53), metadata={op_name="jit(compute_V_H_and_V_xc)/jit(main)/mul" source_file="/pscratch/sd/j/jackm/lorrax_sandbox/sources/jax_xc_local/pbe.py" source_line=61}
  %multiply.860 = f64[36,36,36]{2,1,0} multiply(%multiply.858, %multiply.775), metadata={op_name="jit(compute_V_H_and_V_xc)/jit(main)/mul" source_file="/pscratch/sd/j/jackm/lorrax_sandbox/sources/jax_xc_local/pbe.py" source_line=61}
  %add.861 = f64[36,36,36]{2,1,0} add(%multiply.852, %multiply.860), metadata={op_name="jit(compute_V_H_and_V_xc)/jit(main)/add_any" source_file="/pscratch/sd/j/jackm/lorrax_sandbox/sources/jax_xc_local/pbe.py" source_line=61}
  %multiply.859 = f64[36,36,36]{2,1,0} multiply(%negate.857, %multiply.774), metadata={op_name="jit(compute_V_H_and_V_xc)/jit(main)/mul" source_file="/pscratch/sd/j/jackm/lorrax_sandbox/sources/jax_xc_local/pbe.py" source_line=61}
  %multiply.862 = f64[36,36,36]{2,1,0} multiply(%multiply.859, %broadcast.43), metadata={op_name="jit(compute_V_H_and_V_xc)/jit(main)/mul" source_file="/pscratch/sd/j/jackm/lorrax_sandbox/sources/jax_xc_local/pbe.py" source_line=61}
  %multiply.772 = f64[36,36,36]{2,1,0} multiply(%sqrt.769, %broadcast.53), metadata={op_name="jit(compute_V_H_and_V_xc)/jit(main)/mul" source_file="/pscratch/sd/j/jackm/lorrax_sandbox/sources/jax_xc_local/pbe.py" source_line=61}
  %multiply.863 = f64[36,36,36]{2,1,0} multiply(%multiply.862, %multiply.772), metadata={op_name="jit(compute_V_H_and_V_xc)/jit(main)/mul" source_file="/pscratch/sd/j/jackm/lorrax_sandbox/sources/jax_xc_local/pbe.py" source_line=61}
  %divide.770 = f64[36,36,36]{2,1,0} divide(%broadcast.29, %sqrt.769), metadata={op_name="jit(compute_V_H_and_V_xc)/jit(main)/div" source_file="/pscratch/sd/j/jackm/lorrax_sandbox/sources/jax_xc_local/pbe.py" source_line=60}
  %multiply.864 = f64[36,36,36]{2,1,0} multiply(%multiply.863, %divide.770), metadata={op_name="jit(compute_V_H_and_V_xc)/jit(main)/mul" source_file="/pscratch/sd/j/jackm/lorrax_sandbox/sources/jax_xc_local/pbe.py" source_line=60}
  %divide.865 = f64[36,36,36]{2,1,0} divide(%multiply.864, %broadcast.13), metadata={op_name="jit(compute_V_H_and_V_xc)/jit(main)/div" source_file="/pscratch/sd/j/jackm/lorrax_sandbox/sources/jax_xc_local/pbe.py" source_line=60}
  %multiply.866 = f64[36,36,36]{2,1,0} multiply(%divide.865, %broadcast.43), metadata={op_name="jit(compute_V_H_and_V_xc)/jit(main)/mul" source_file="/pscratch/sd/j/jackm/lorrax_sandbox/sources/jax_xc_local/pbe.py" source_line=60}
  %power.765 = f64[36,36,36]{2,1,0} power(%multiply.763, %broadcast.47), metadata={op_name="jit(compute_V_H_and_V_xc)/jit(main)/pow" source_file="/pscratch/sd/j/jackm/lorrax_sandbox/sources/jax_xc_local/pbe.py" source_line=59}
  %multiply.766 = f64[36,36,36]{2,1,0} multiply(%power.765, %broadcast.49), metadata={op_name="jit(compute_V_H_and_V_xc)/jit(main)/mul" source_file="/pscratch/sd/j/jackm/lorrax_sandbox/sources/jax_xc_local/pbe.py" source_line=59}
  %multiply.867 = f64[36,36,36]{2,1,0} multiply(%multiply.866, %multiply.766), metadata={op_name="jit(compute_V_H_and_V_xc)/jit(main)/mul" source_file="/pscratch/sd/j/jackm/lorrax_sandbox/sources/jax_xc_local/pbe.py" source_line=59}
  %multiply.868 = f64[36,36,36]{2,1,0} multiply(%multiply.867, %broadcast.51), metadata={op_name="jit(compute_V_H_and_V_xc)/jit(main)/mul" source_file="/pscratch/sd/j/jackm/lorrax_sandbox/sources/jax_xc_local/pbe.py" source_line=59}
  %add.869 = f64[36,36,36]{2,1,0} add(%add.861, %multiply.868), metadata={op_name="jit(compute_V_H_and_V_xc)/jit(main)/add_any" source_file="/pscratch/sd/j/jackm/lorrax_sandbox/sources/jax_xc_local/pbe.py" source_line=59}
  %compare.729 = pred[36,36,36]{2,1,0} compare(%maximum.466, %maximum.728), direction=EQ, metadata={op_name="jit(compute_V_H_and_V_xc)/jit(main)/eq" source_file="/pscratch/sd/j/jackm/lorrax_sandbox/sources/jax_xc_local/pbe.py" source_line=37}
  %select.730 = f64[36,36,36]{2,1,0} select(%compare.729, %broadcast.55, %broadcast.59), metadata={op_name="jit(compute_V_H_and_V_xc)/jit(main)/select_n" source_file="/pscratch/sd/j/jackm/lorrax_sandbox/sources/jax_xc_local/pbe.py" source_line=37}
  %compare.731 = pred[36,36,36]{2,1,0} compare(%broadcast.57, %maximum.728), direction=EQ, metadata={op_name="jit(compute_V_H_and_V_xc)/jit(main)/eq" source_file="/pscratch/sd/j/jackm/lorrax_sandbox/sources/jax_xc_local/pbe.py" source_line=37}
  %select.732 = f64[36,36,36]{2,1,0} select(%compare.731, %broadcast.53, %broadcast.55), metadata={op_name="jit(compute_V_H_and_V_xc)/jit(main)/select_n" source_file="/pscratch/sd/j/jackm/lorrax_sandbox/sources/jax_xc_local/pbe.py" source_line=37}
  %divide.733 = f64[36,36,36]{2,1,0} divide(%select.730, %select.732), metadata={op_name="jit(compute_V_H_and_V_xc)/jit(main)/div" source_file="/pscratch/sd/j/jackm/lorrax_sandbox/sources/jax_xc_local/pbe.py" source_line=37}
  %multiply.870 = f64[36,36,36]{2,1,0} multiply(%add.869, %divide.733), metadata={op_name="jit(compute_V_H_and_V_xc)/jit(main)/mul" source_file="/pscratch/sd/j/jackm/lorrax_sandbox/sources/jax_xc_local/pbe.py" source_line=37}
  %add.871 = f64[36,36,36]{2,1,0} add(%multiply.805, %multiply.870), metadata={op_name="jit(compute_V_H_and_V_xc)/jit(main)/add_any" source_file="/pscratch/sd/j/jackm/lorrax_sandbox/sources/jax_xc_local/pbe.py" source_line=37}
  %multiply.872 = f64[36,36,36]{2,1,0} multiply(%multiply.709, %multiply.806), metadata={op_name="jit(compute_V_H_and_V_xc)/jit(main)/mul" source_file="/pscratch/sd/j/jackm/lorrax_sandbox/sources/jax_xc_local/pbe.py" source_line=29}
  %negate.874 = f64[36,36,36]{2,1,0} negate(%multiply.872), metadata={op_name="jit(compute_V_H_and_V_xc)/jit(main)/neg" source_file="/pscratch/sd/j/jackm/lorrax_sandbox/sources/jax_xc_local/pbe.py" source_line=27}
  %multiply.724 = f64[36,36,36]{2,1,0} multiply(%add.722, %add.722), metadata={op_name="jit(compute_V_H_and_V_xc)/jit(main)/mul" source_file="/pscratch/sd/j/jackm/lorrax_sandbox/sources/jax_xc_local/pbe.py" source_line=27}
  %divide.725 = f64[36,36,36]{2,1,0} divide(%broadcast.55, %multiply.724), metadata={op_name="jit(compute_V_H_and_V_xc)/jit(main)/div" source_file="/pscratch/sd/j/jackm/lorrax_sandbox/sources/jax_xc_local/pbe.py" source_line=27}
  %multiply.875 = f64[36,36,36]{2,1,0} multiply(%negate.874, %divide.725), metadata={op_name="jit(compute_V_H_and_V_xc)/jit(main)/mul" source_file="/pscratch/sd/j/jackm/lorrax_sandbox/sources/jax_xc_local/pbe.py" source_line=27}
  %multiply.876 = f64[36,36,36]{2,1,0} multiply(%multiply.875, %broadcast.37), metadata={op_name="jit(compute_V_H_and_V_xc)/jit(main)/mul" source_file="/pscratch/sd/j/jackm/lorrax_sandbox/sources/jax_xc_local/pbe.py" source_line=27}
  %negate.877 = f64[36,36,36]{2,1,0} negate(%multiply.876), metadata={op_name="jit(compute_V_H_and_V_xc)/jit(main)/neg" source_file="/pscratch/sd/j/jackm/lorrax_sandbox/sources/jax_xc_local/pbe.py" source_line=27}
  %divide.878 = f64[36,36,36]{2,1,0} divide(%negate.877, %broadcast.37), metadata={op_name="jit(compute_V_H_and_V_xc)/jit(main)/div" source_file="/pscratch/sd/j/jackm/lorrax_sandbox/sources/jax_xc_local/pbe.py" source_line=27}
  %multiply.879 = f64[36,36,36]{2,1,0} multiply(%divide.878, %broadcast.39), metadata={op_name="jit(compute_V_H_and_V_xc)/jit(main)/mul" source_file="/pscratch/sd/j/jackm/lorrax_sandbox/sources/jax_xc_local/pbe.py" source_line=27}
  %multiply.718 = f64[36,36,36]{2,1,0} multiply(%add.716, %add.716), metadata={op_name="jit(compute_V_H_and_V_xc)/jit(main)/mul" source_file="/pscratch/sd/j/jackm/lorrax_sandbox/sources/jax_xc_local/pbe.py" source_line=26}
  %divide.719 = f64[36,36,36]{2,1,0} divide(%broadcast.55, %multiply.718), metadata={op_name="jit(compute_V_H_and_V_xc)/jit(main)/div" source_file="/pscratch/sd/j/jackm/lorrax_sandbox/sources/jax_xc_local/pbe.py" source_line=26}
  %multiply.880 = f64[36,36,36]{2,1,0} multiply(%multiply.879, %divide.719), metadata={op_name="jit(compute_V_H_and_V_xc)/jit(main)/mul" source_file="/pscratch/sd/j/jackm/lorrax_sandbox/sources/jax_xc_local/pbe.py" source_line=26}
  %multiply.881 = f64[36,36,36]{2,1,0} multiply(%multiply.880, %maximum.502), metadata={op_name="jit(compute_V_H_and_V_xc)/jit(main)/mul" source_file="/pscratch/sd/j/jackm/lorrax_sandbox/sources/jax_xc_local/pbe.py" source_line=26}
  %negate.882 = f64[36,36,36]{2,1,0} negate(%multiply.881), metadata={op_name="jit(compute_V_H_and_V_xc)/jit(main)/neg" source_file="/pscratch/sd/j/jackm/lorrax_sandbox/sources/jax_xc_local/pbe.py" source_line=26}
  %multiply.883 = f64[36,36,36]{2,1,0} multiply(%multiply.712, %negate.882), metadata={op_name="jit(compute_V_H_and_V_xc)/jit(main)/mul" source_file="/pscratch/sd/j/jackm/lorrax_sandbox/sources/jax_xc_local/pbe.py" source_line=26}
  %multiply.714 = f64[36,36,36]{2,1,0} multiply(%maximum.699, %broadcast.53), metadata={op_name="jit(compute_V_H_and_V_xc)/jit(main)/mul" source_file="/pscratch/sd/j/jackm/lorrax_sandbox/sources/jax_xc_local/pbe.py" source_line=26}
  %multiply.885 = f64[36,36,36]{2,1,0} multiply(%multiply.883, %multiply.714), metadata={op_name="jit(compute_V_H_and_V_xc)/jit(main)/mul" source_file="/pscratch/sd/j/jackm/lorrax_sandbox/sources/jax_xc_local/pbe.py" source_line=26}
  %multiply.884 = f64[36,36,36]{2,1,0} multiply(%negate.882, %multiply.713), metadata={op_name="jit(compute_V_H_and_V_xc)/jit(main)/mul" source_file="/pscratch/sd/j/jackm/lorrax_sandbox/sources/jax_xc_local/pbe.py" source_line=26}
  %multiply.886 = f64[36,36,36]{2,1,0} multiply(%multiply.884, %broadcast.43), metadata={op_name="jit(compute_V_H_and_V_xc)/jit(main)/mul" source_file="/pscratch/sd/j/jackm/lorrax_sandbox/sources/jax_xc_local/pbe.py" source_line=26}
  %multiply.711 = f64[36,36,36]{2,1,0} multiply(%power.706, %broadcast.53), metadata={op_name="jit(compute_V_H_and_V_xc)/jit(main)/mul" source_file="/pscratch/sd/j/jackm/lorrax_sandbox/sources/jax_xc_local/pbe.py" source_line=26}
  %multiply.887 = f64[36,36,36]{2,1,0} multiply(%multiply.886, %multiply.711), metadata={op_name="jit(compute_V_H_and_V_xc)/jit(main)/mul" source_file="/pscratch/sd/j/jackm/lorrax_sandbox/sources/jax_xc_local/pbe.py" source_line=26}
  %multiply.873 = f64[36,36,36]{2,1,0} multiply(%multiply.806, %subtract.726), metadata={op_name="jit(compute_V_H_and_V_xc)/jit(main)/mul" source_file="/pscratch/sd/j/jackm/lorrax_sandbox/sources/jax_xc_local/pbe.py" source_line=29}
  %multiply.888 = f64[36,36,36]{2,1,0} multiply(%multiply.873, %broadcast.45), metadata={op_name="jit(compute_V_H_and_V_xc)/jit(main)/mul" source_file="/pscratch/sd/j/jackm/lorrax_sandbox/sources/jax_xc_local/pbe.py" source_line=22}
  %add.889 = f64[36,36,36]{2,1,0} add(%multiply.887, %multiply.888), metadata={op_name="jit(compute_V_H_and_V_xc)/jit(main)/add_any" source_file="/pscratch/sd/j/jackm/lorrax_sandbox/sources/jax_xc_local/pbe.py" source_line=22}
  %power.707 = f64[36,36,36]{2,1,0} power(%multiply.705, %broadcast.47), metadata={op_name="jit(compute_V_H_and_V_xc)/jit(main)/pow" source_file="/pscratch/sd/j/jackm/lorrax_sandbox/sources/jax_xc_local/pbe.py" source_line=21}
  %multiply.708 = f64[36,36,36]{2,1,0} multiply(%power.707, %broadcast.49), metadata={op_name="jit(compute_V_H_and_V_xc)/jit(main)/mul" source_file="/pscratch/sd/j/jackm/lorrax_sandbox/sources/jax_xc_local/pbe.py" source_line=21}
  %multiply.890 = f64[36,36,36]{2,1,0} multiply(%add.889, %multiply.708), metadata={op_name="jit(compute_V_H_and_V_xc)/jit(main)/mul" source_file="/pscratch/sd/j/jackm/lorrax_sandbox/sources/jax_xc_local/pbe.py" source_line=21}
  %multiply.891 = f64[36,36,36]{2,1,0} multiply(%multiply.890, %broadcast.51), metadata={op_name="jit(compute_V_H_and_V_xc)/jit(main)/mul" source_file="/pscratch/sd/j/jackm/lorrax_sandbox/sources/jax_xc_local/pbe.py" source_line=21}
  %add.892 = f64[36,36,36]{2,1,0} add(%multiply.885, %multiply.891), metadata={op_name="jit(compute_V_H_and_V_xc)/jit(main)/add_any" source_file="/pscratch/sd/j/jackm/lorrax_sandbox/sources/jax_xc_local/pbe.py" source_line=21}
  %compare.700 = pred[36,36,36]{2,1,0} compare(%maximum.466, %maximum.699), direction=EQ, metadata={op_name="jit(compute_V_H_and_V_xc)/jit(main)/eq" source_file="/pscratch/sd/j/jackm/lorrax_sandbox/sources/jax_xc_local/pbe.py" source_line=20}
  %select.701 = f64[36,36,36]{2,1,0} select(%compare.700, %broadcast.55, %broadcast.59), metadata={op_name="jit(compute_V_H_and_V_xc)/jit(main)/select_n" source_file="/pscratch/sd/j/jackm/lorrax_sandbox/sources/jax_xc_local/pbe.py" source_line=20}
  %compare.702 = pred[36,36,36]{2,1,0} compare(%broadcast.57, %maximum.699), direction=EQ, metadata={op_name="jit(compute_V_H_and_V_xc)/jit(main)/eq" source_file="/pscratch/sd/j/jackm/lorrax_sandbox/sources/jax_xc_local/pbe.py" source_line=20}
  %select.703 = f64[36,36,36]{2,1,0} select(%compare.702, %broadcast.53, %broadcast.55), metadata={op_name="jit(compute_V_H_and_V_xc)/jit(main)/select_n" source_file="/pscratch/sd/j/jackm/lorrax_sandbox/sources/jax_xc_local/pbe.py" source_line=20}
  %divide.704 = f64[36,36,36]{2,1,0} divide(%select.701, %select.703), metadata={op_name="jit(compute_V_H_and_V_xc)/jit(main)/div" source_file="/pscratch/sd/j/jackm/lorrax_sandbox/sources/jax_xc_local/pbe.py" source_line=20}
  %multiply.893 = f64[36,36,36]{2,1,0} multiply(%add.892, %divide.704), metadata={op_name="jit(compute_V_H_and_V_xc)/jit(main)/mul" source_file="/pscratch/sd/j/jackm/lorrax_sandbox/sources/jax_xc_local/pbe.py" source_line=20}
  %add.894 = f64[36,36,36]{2,1,0} add(%add.871, %multiply.893), metadata={op_name="jit(compute_V_H_and_V_xc)/jit(main)/add_any" source_file="/pscratch/sd/j/jackm/lorrax_sandbox/sources/jax_xc_local/pbe.py" source_line=20}
  %subtract.989 = f64[36,36,36]{2,1,0} subtract(%add.894, %add.698), metadata={op_name="jit(compute_V_H_and_V_xc)/jit(main)/sub" source_file="/pscratch/sd/j/jackm/lorrax_sandbox/sources/lorrax/src/psp/xc.py" source_line=137}
  %call.996 = f64[36,36,36]{2,1,0} call(%and.988, %subtract.989, %constant.87), to_apply=%_where_1.990
  %add.997 = f64[36,36,36]{2,1,0} add(%add.698, %call.996), metadata={op_name="jit(compute_V_H_and_V_xc)/jit(main)/add" source_file="/pscratch/sd/j/jackm/lorrax_sandbox/sources/lorrax/src/psp/xc.py" source_line=137}
  %slice.1021 = f64[36,36,36,1]{3,2,1,0} slice(%Arg_3.4), slice={[0:36], [0:36], [0:36], [0:1]}, metadata={op_name="jit(compute_V_H_and_V_xc)/jit(main)/slice" source_file="/pscratch/sd/j/jackm/lorrax_sandbox/sources/lorrax/src/psp/xc.py" source_line=145}
  %reshape.1022 = f64[36,36,36]{2,1,0} reshape(%slice.1021), metadata={op_name="jit(compute_V_H_and_V_xc)/jit(main)/squeeze" source_file="/pscratch/sd/j/jackm/lorrax_sandbox/sources/lorrax/src/psp/xc.py" source_line=145}
  %convert.1023 = c128[36,36,36]{2,1,0} convert(%reshape.1022), metadata={op_name="jit(compute_V_H_and_V_xc)/jit(main)/convert_element_type" source_file="/pscratch/sd/j/jackm/lorrax_sandbox/sources/lorrax/src/psp/xc.py" source_line=145}
  %multiply.1024 = c128[36,36,36]{2,1,0} multiply(%convert.1023, %broadcast.61), metadata={op_name="jit(compute_V_H_and_V_xc)/jit(main)/mul" source_file="/pscratch/sd/j/jackm/lorrax_sandbox/sources/lorrax/src/psp/xc.py" source_line=145}
  %maximum.910 = f64[36,36,36]{2,1,0} maximum(%maximum.466, %broadcast.57), metadata={op_name="jit(compute_V_H_and_V_xc)/jit(main)/max" source_file="/pscratch/sd/j/jackm/lorrax_sandbox/sources/jax_xc_local/pbe.py" source_line=37}
  %multiply.911 = f64[36,36,36]{2,1,0} multiply(%maximum.910, %broadcast.33), metadata={op_name="jit(compute_V_H_and_V_xc)/jit(main)/mul" source_file="/pscratch/sd/j/jackm/lorrax_sandbox/sources/jax_xc_local/pbe.py" source_line=38}
  %divide.912 = f64[36,36,36]{2,1,0} divide(%broadcast.31, %multiply.911), metadata={op_name="jit(compute_V_H_and_V_xc)/jit(main)/div" source_file="/pscratch/sd/j/jackm/lorrax_sandbox/sources/jax_xc_local/pbe.py" source_line=38}
  %power.913 = f64[36,36,36]{2,1,0} power(%divide.912, %broadcast.49), metadata={op_name="jit(compute_V_H_and_V_xc)/jit(main)/pow" source_file="/pscratch/sd/j/jackm/lorrax_sandbox/sources/jax_xc_local/pbe.py" source_line=38}
  %multiply.915 = f64[36,36,36]{2,1,0} multiply(%power.913, %broadcast.27), metadata={op_name="jit(compute_V_H_and_V_xc)/jit(main)/mul" source_file="/pscratch/sd/j/jackm/lorrax_sandbox/sources/jax_xc_local/pbe.py" source_line=49}
  %add.916 = f64[36,36,36]{2,1,0} add(%multiply.915, %broadcast.55), metadata={op_name="jit(compute_V_H_and_V_xc)/jit(main)/add" source_file="/pscratch/sd/j/jackm/lorrax_sandbox/sources/jax_xc_local/pbe.py" source_line=49}
  %multiply.917 = f64[36,36,36]{2,1,0} multiply(%add.916, %broadcast.25), metadata={op_name="jit(compute_V_H_and_V_xc)/jit(main)/mul" source_file="/pscratch/sd/j/jackm/lorrax_sandbox/sources/jax_xc_local/pbe.py" source_line=49}
  %sqrt.914 = f64[36,36,36]{2,1,0} sqrt(%power.913), metadata={op_name="jit(compute_V_H_and_V_xc)/jit(main)/sqrt" source_file="/pscratch/sd/j/jackm/lorrax_sandbox/sources/jax_xc_local/pbe.py" source_line=48}
  %multiply.918 = f64[36,36,36]{2,1,0} multiply(%sqrt.914, %broadcast.23), metadata={op_name="jit(compute_V_H_and_V_xc)/jit(main)/mul" source_file="/pscratch/sd/j/jackm/lorrax_sandbox/sources/jax_xc_local/pbe.py" source_line=51}
  %multiply.919 = f64[36,36,36]{2,1,0} multiply(%power.913, %broadcast.21), metadata={op_name="jit(compute_V_H_and_V_xc)/jit(main)/mul" source_file="/pscratch/sd/j/jackm/lorrax_sandbox/sources/jax_xc_local/pbe.py" source_line=51}
  %add.920 = f64[36,36,36]{2,1,0} add(%multiply.918, %multiply.919), metadata={op_name="jit(compute_V_H_and_V_xc)/jit(main)/add" source_file="/pscratch/sd/j/jackm/lorrax_sandbox/sources/jax_xc_local/pbe.py" source_line=51}
  %multiply.921 = f64[36,36,36]{2,1,0} multiply(%power.913, %broadcast.19), metadata={op_name="jit(compute_V_H_and_V_xc)/jit(main)/mul" source_file="/pscratch/sd/j/jackm/lorrax_sandbox/sources/jax_xc_local/pbe.py" source_line=51}
  %multiply.922 = f64[36,36,36]{2,1,0} multiply(%multiply.921, %sqrt.914), metadata={op_name="jit(compute_V_H_and_V_xc)/jit(main)/mul" source_file="/pscratch/sd/j/jackm/lorrax_sandbox/sources/jax_xc_local/pbe.py" source_line=51}
  %add.923 = f64[36,36,36]{2,1,0} add(%add.920, %multiply.922), metadata={op_name="jit(compute_V_H_and_V_xc)/jit(main)/add" source_file="/pscratch/sd/j/jackm/lorrax_sandbox/sources/jax_xc_local/pbe.py" source_line=51}
  %multiply.924 = f64[36,36,36]{2,1,0} multiply(%power.913, %power.913), metadata={op_name="jit(compute_V_H_and_V_xc)/jit(main)/integer_pow" source_file="/pscratch/sd/j/jackm/lorrax_sandbox/sources/jax_xc_local/pbe.py" source_line=51}
  %multiply.925 = f64[36,36,36]{2,1,0} multiply(%multiply.924, %broadcast.17), metadata={op_name="jit(compute_V_H_and_V_xc)/jit(main)/mul" source_file="/pscratch/sd/j/jackm/lorrax_sandbox/sources/jax_xc_local/pbe.py" source_line=51}
  %add.926 = f64[36,36,36]{2,1,0} add(%add.923, %multiply.925), metadata={op_name="jit(compute_V_H_and_V_xc)/jit(main)/add" source_file="/pscratch/sd/j/jackm/lorrax_sandbox/sources/jax_xc_local/pbe.py" source_line=51}
  %multiply.927 = f64[36,36,36]{2,1,0} multiply(%add.926, %broadcast.15), metadata={op_name="jit(compute_V_H_and_V_xc)/jit(main)/mul" source_file="/pscratch/sd/j/jackm/lorrax_sandbox/sources/jax_xc_local/pbe.py" source_line=50}
  %divide.928 = f64[36,36,36]{2,1,0} divide(%broadcast.55, %multiply.927), metadata={op_name="jit(compute_V_H_and_V_xc)/jit(main)/div" source_file="/pscratch/sd/j/jackm/lorrax_sandbox/sources/jax_xc_local/pbe.py" source_line=50}
  %add.929 = f64[36,36,36]{2,1,0} add(%divide.928, %broadcast.55), metadata={op_name="jit(compute_V_H_and_V_xc)/jit(main)/add" source_file="/pscratch/sd/j/jackm/lorrax_sandbox/sources/jax_xc_local/pbe.py" source_line=50}
  %log.930 = f64[36,36,36]{2,1,0} log(%add.929), metadata={op_name="jit(compute_V_H_and_V_xc)/jit(main)/log" source_file="/pscratch/sd/j/jackm/lorrax_sandbox/sources/jax_xc_local/pbe.py" source_line=49}
  %multiply.931 = f64[36,36,36]{2,1,0} multiply(%multiply.917, %log.930), metadata={op_name="jit(compute_V_H_and_V_xc)/jit(main)/mul" source_file="/pscratch/sd/j/jackm/lorrax_sandbox/sources/jax_xc_local/pbe.py" source_line=49}
  %negate.943 = f64[36,36,36]{2,1,0} negate(%multiply.931), metadata={op_name="jit(compute_V_H_and_V_xc)/jit(main)/neg" source_file="/pscratch/sd/j/jackm/lorrax_sandbox/sources/jax_xc_local/pbe.py" source_line=63}
  %divide.944 = f64[36,36,36]{2,1,0} divide(%negate.943, %broadcast.11), metadata={op_name="jit(compute_V_H_and_V_xc)/jit(main)/div" source_file="/pscratch/sd/j/jackm/lorrax_sandbox/sources/jax_xc_local/pbe.py" source_line=63}
  %exponential.945 = f64[36,36,36]{2,1,0} exponential(%divide.944), metadata={op_name="jit(compute_V_H_and_V_xc)/jit(main)/exp" source_file="/pscratch/sd/j/jackm/lorrax_sandbox/sources/jax_xc_local/pbe.py" source_line=63}
  %subtract.946 = f64[36,36,36]{2,1,0} subtract(%exponential.945, %broadcast.55), metadata={op_name="jit(compute_V_H_and_V_xc)/jit(main)/sub" source_file="/pscratch/sd/j/jackm/lorrax_sandbox/sources/jax_xc_local/pbe.py" source_line=63}
  %add.947 = f64[36,36,36]{2,1,0} add(%subtract.946, %broadcast.41), metadata={op_name="jit(compute_V_H_and_V_xc)/jit(main)/add" source_file="/pscratch/sd/j/jackm/lorrax_sandbox/sources/jax_xc_local/pbe.py" source_line=63}
  %divide.948 = f64[36,36,36]{2,1,0} divide(%broadcast.9, %add.947), metadata={op_name="jit(compute_V_H_and_V_xc)/jit(main)/div" source_file="/pscratch/sd/j/jackm/lorrax_sandbox/sources/jax_xc_local/pbe.py" source_line=63}
  %multiply.961 = f64[36,36,36]{2,1,0} multiply(%maximum.466, %broadcast.53), metadata={op_name="jit(compute_V_H_and_V_xc)/jit(main)/mul" source_file="/pscratch/sd/j/jackm/lorrax_sandbox/sources/jax_xc_local/pbe.py" source_line=78}
  %multiply.962 = f64[36,36,36]{2,1,0} multiply(%multiply.961, %broadcast.11), metadata={op_name="jit(compute_V_H_and_V_xc)/jit(main)/mul" source_file="/pscratch/sd/j/jackm/lorrax_sandbox/sources/jax_xc_local/pbe.py" source_line=65}
  %multiply.932 = f64[36,36,36]{2,1,0} multiply(%maximum.910, %broadcast.51), metadata={op_name="jit(compute_V_H_and_V_xc)/jit(main)/mul" source_file="/pscratch/sd/j/jackm/lorrax_sandbox/sources/jax_xc_local/pbe.py" source_line=59}
  %power.933 = f64[36,36,36]{2,1,0} power(%multiply.932, %broadcast.49), metadata={op_name="jit(compute_V_H_and_V_xc)/jit(main)/pow" source_file="/pscratch/sd/j/jackm/lorrax_sandbox/sources/jax_xc_local/pbe.py" source_line=59}
  %multiply.934 = f64[36,36,36]{2,1,0} multiply(%power.933, %broadcast.43), metadata={op_name="jit(compute_V_H_and_V_xc)/jit(main)/mul" source_file="/pscratch/sd/j/jackm/lorrax_sandbox/sources/jax_xc_local/pbe.py" source_line=60}
  %divide.935 = f64[36,36,36]{2,1,0} divide(%multiply.934, %broadcast.13), metadata={op_name="jit(compute_V_H_and_V_xc)/jit(main)/div" source_file="/pscratch/sd/j/jackm/lorrax_sandbox/sources/jax_xc_local/pbe.py" source_line=60}
  %sqrt.936 = f64[36,36,36]{2,1,0} sqrt(%divide.935), metadata={op_name="jit(compute_V_H_and_V_xc)/jit(main)/sqrt" source_file="/pscratch/sd/j/jackm/lorrax_sandbox/sources/jax_xc_local/pbe.py" source_line=60}
  %multiply.937 = f64[36,36,36]{2,1,0} multiply(%sqrt.936, %sqrt.936), metadata={op_name="jit(compute_V_H_and_V_xc)/jit(main)/integer_pow" source_file="/pscratch/sd/j/jackm/lorrax_sandbox/sources/jax_xc_local/pbe.py" source_line=61}
  %multiply.938 = f64[36,36,36]{2,1,0} multiply(%multiply.937, %broadcast.43), metadata={op_name="jit(compute_V_H_and_V_xc)/jit(main)/mul" source_file="/pscratch/sd/j/jackm/lorrax_sandbox/sources/jax_xc_local/pbe.py" source_line=61}
  %multiply.939 = f64[36,36,36]{2,1,0} multiply(%maximum.910, %maximum.910), metadata={op_name="jit(compute_V_H_and_V_xc)/jit(main)/integer_pow" source_file="/pscratch/sd/j/jackm/lorrax_sandbox/sources/jax_xc_local/pbe.py" source_line=61}
  %multiply.940 = f64[36,36,36]{2,1,0} multiply(%multiply.938, %multiply.939), metadata={op_name="jit(compute_V_H_and_V_xc)/jit(main)/mul" source_file="/pscratch/sd/j/jackm/lorrax_sandbox/sources/jax_xc_local/pbe.py" source_line=61}
  %add.941 = f64[36,36,36]{2,1,0} add(%multiply.940, %broadcast.41), metadata={op_name="jit(compute_V_H_and_V_xc)/jit(main)/add" source_file="/pscratch/sd/j/jackm/lorrax_sandbox/sources/jax_xc_local/pbe.py" source_line=61}
  %divide.942 = f64[36,36,36]{2,1,0} divide(%maximum.502, %add.941), metadata={op_name="jit(compute_V_H_and_V_xc)/jit(main)/div" source_file="/pscratch/sd/j/jackm/lorrax_sandbox/sources/jax_xc_local/pbe.py" source_line=61}
  %multiply.950 = f64[36,36,36]{2,1,0} multiply(%divide.942, %broadcast.9), metadata={op_name="jit(compute_V_H_and_V_xc)/jit(main)/mul" source_file="/pscratch/sd/j/jackm/lorrax_sandbox/sources/jax_xc_local/pbe.py" source_line=65}
  %multiply.949 = f64[36,36,36]{2,1,0} multiply(%divide.948, %divide.942), metadata={op_name="jit(compute_V_H_and_V_xc)/jit(main)/mul" source_file="/pscratch/sd/j/jackm/lorrax_sandbox/sources/jax_xc_local/pbe.py" source_line=64}
  %add.951 = f64[36,36,36]{2,1,0} add(%multiply.949, %broadcast.55), metadata={op_name="jit(compute_V_H_and_V_xc)/jit(main)/add" source_file="/pscratch/sd/j/jackm/lorrax_sandbox/sources/jax_xc_local/pbe.py" source_line=65}
  %multiply.952 = f64[36,36,36]{2,1,0} multiply(%multiply.950, %add.951), metadata={op_name="jit(compute_V_H_and_V_xc)/jit(main)/mul" source_file="/pscratch/sd/j/jackm/lorrax_sandbox/sources/jax_xc_local/pbe.py" source_line=65}
  %add.953 = f64[36,36,36]{2,1,0} add(%multiply.949, %broadcast.55), metadata={op_name="jit(compute_V_H_and_V_xc)/jit(main)/add" source_file="/pscratch/sd/j/jackm/lorrax_sandbox/sources/jax_xc_local/pbe.py" source_line=65}
  %multiply.954 = f64[36,36,36]{2,1,0} multiply(%multiply.949, %multiply.949), metadata={op_name="jit(compute_V_H_and_V_xc)/jit(main)/integer_pow" source_file="/pscratch/sd/j/jackm/lorrax_sandbox/sources/jax_xc_local/pbe.py" source_line=65}
  %add.956 = f64[36,36,36]{2,1,0} add(%add.953, %multiply.954), metadata={op_name="jit(compute_V_H_and_V_xc)/jit(main)/add" source_file="/pscratch/sd/j/jackm/lorrax_sandbox/sources/jax_xc_local/pbe.py" source_line=65}
  %divide.957 = f64[36,36,36]{2,1,0} divide(%multiply.952, %add.956), metadata={op_name="jit(compute_V_H_and_V_xc)/jit(main)/div" source_file="/pscratch/sd/j/jackm/lorrax_sandbox/sources/jax_xc_local/pbe.py" source_line=65}
  %add.960 = f64[36,36,36]{2,1,0} add(%divide.957, %broadcast.55), metadata={op_name="jit(compute_V_H_and_V_xc)/jit(main)/add" source_file="/pscratch/sd/j/jackm/lorrax_sandbox/sources/jax_xc_local/pbe.py" source_line=65}
  %divide.963 = f64[36,36,36]{2,1,0} divide(%multiply.962, %add.960), metadata={op_name="jit(compute_V_H_and_V_xc)/jit(main)/div" source_file="/pscratch/sd/j/jackm/lorrax_sandbox/sources/jax_xc_local/pbe.py" source_line=65}
  %multiply.958 = f64[36,36,36]{2,1,0} multiply(%add.956, %add.956), metadata={op_name="jit(compute_V_H_and_V_xc)/jit(main)/mul" source_file="/pscratch/sd/j/jackm/lorrax_sandbox/sources/jax_xc_local/pbe.py" source_line=65}
  %divide.959 = f64[36,36,36]{2,1,0} divide(%broadcast.55, %multiply.958), metadata={op_name="jit(compute_V_H_and_V_xc)/jit(main)/div" source_file="/pscratch/sd/j/jackm/lorrax_sandbox/sources/jax_xc_local/pbe.py" source_line=65}
  %multiply.964 = f64[36,36,36]{2,1,0} multiply(%divide.963, %divide.959), metadata={op_name="jit(compute_V_H_and_V_xc)/jit(main)/mul" source_file="/pscratch/sd/j/jackm/lorrax_sandbox/sources/jax_xc_local/pbe.py" source_line=65}
  %multiply.965 = f64[36,36,36]{2,1,0} multiply(%multiply.964, %multiply.952), metadata={op_name="jit(compute_V_H_and_V_xc)/jit(main)/mul" source_file="/pscratch/sd/j/jackm/lorrax_sandbox/sources/jax_xc_local/pbe.py" source_line=65}
  %negate.966 = f64[36,36,36]{2,1,0} negate(%multiply.965), metadata={op_name="jit(compute_V_H_and_V_xc)/jit(main)/neg" source_file="/pscratch/sd/j/jackm/lorrax_sandbox/sources/jax_xc_local/pbe.py" source_line=65}
  %multiply.955 = f64[36,36,36]{2,1,0} multiply(%multiply.949, %broadcast.53), metadata={op_name="jit(compute_V_H_and_V_xc)/jit(main)/mul" source_file="/pscratch/sd/j/jackm/lorrax_sandbox/sources/jax_xc_local/pbe.py" source_line=65}
  %multiply.968 = f64[36,36,36]{2,1,0} multiply(%negate.966, %multiply.955), metadata={op_name="jit(compute_V_H_and_V_xc)/jit(main)/mul" source_file="/pscratch/sd/j/jackm/lorrax_sandbox/sources/jax_xc_local/pbe.py" source_line=65}
  %add.969 = f64[36,36,36]{2,1,0} add(%multiply.968, %negate.966), metadata={op_name="jit(compute_V_H_and_V_xc)/jit(main)/add_any" source_file="/pscratch/sd/j/jackm/lorrax_sandbox/sources/jax_xc_local/pbe.py" source_line=65}
  %divide.967 = f64[36,36,36]{2,1,0} divide(%divide.963, %add.956), metadata={op_name="jit(compute_V_H_and_V_xc)/jit(main)/div" source_file="/pscratch/sd/j/jackm/lorrax_sandbox/sources/jax_xc_local/pbe.py" source_line=65}
  %multiply.970 = f64[36,36,36]{2,1,0} multiply(%multiply.950, %divide.967), metadata={op_name="jit(compute_V_H_and_V_xc)/jit(main)/mul" source_file="/pscratch/sd/j/jackm/lorrax_sandbox/sources/jax_xc_local/pbe.py" source_line=65}
  %add.972 = f64[36,36,36]{2,1,0} add(%add.969, %multiply.970), metadata={op_name="jit(compute_V_H_and_V_xc)/jit(main)/add_any" source_file="/pscratch/sd/j/jackm/lorrax_sandbox/sources/jax_xc_local/pbe.py" source_line=65}
  %multiply.973 = f64[36,36,36]{2,1,0} multiply(%divide.948, %add.972), metadata={op_name="jit(compute_V_H_and_V_xc)/jit(main)/mul" source_file="/pscratch/sd/j/jackm/lorrax_sandbox/sources/jax_xc_local/pbe.py" source_line=64}
  %multiply.971 = f64[36,36,36]{2,1,0} multiply(%divide.967, %add.951), metadata={op_name="jit(compute_V_H_and_V_xc)/jit(main)/mul" source_file="/pscratch/sd/j/jackm/lorrax_sandbox/sources/jax_xc_local/pbe.py" source_line=65}
  %multiply.974 = f64[36,36,36]{2,1,0} multiply(%multiply.971, %broadcast.9), metadata={op_name="jit(compute_V_H_and_V_xc)/jit(main)/mul" source_file="/pscratch/sd/j/jackm/lorrax_sandbox/sources/jax_xc_local/pbe.py" source_line=65}
  %add.975 = f64[36,36,36]{2,1,0} add(%multiply.973, %multiply.974), metadata={op_name="jit(compute_V_H_and_V_xc)/jit(main)/add_any" source_file="/pscratch/sd/j/jackm/lorrax_sandbox/sources/jax_xc_local/pbe.py" source_line=65}
  %divide.976 = f64[36,36,36]{2,1,0} divide(%add.975, %add.941), metadata={op_name="jit(compute_V_H_and_V_xc)/jit(main)/div" source_file="/pscratch/sd/j/jackm/lorrax_sandbox/sources/jax_xc_local/pbe.py" source_line=61}
  %maximum.895 = f64[36,36,36]{2,1,0} maximum(%maximum.466, %broadcast.57), metadata={op_name="jit(compute_V_H_and_V_xc)/jit(main)/max" source_file="/pscratch/sd/j/jackm/lorrax_sandbox/sources/jax_xc_local/pbe.py" source_line=20}
  %multiply.896 = f64[36,36,36]{2,1,0} multiply(%maximum.895, %broadcast.51), metadata={op_name="jit(compute_V_H_and_V_xc)/jit(main)/mul" source_file="/pscratch/sd/j/jackm/lorrax_sandbox/sources/jax_xc_local/pbe.py" source_line=21}
  %power.897 = f64[36,36,36]{2,1,0} power(%multiply.896, %broadcast.49), metadata={op_name="jit(compute_V_H_and_V_xc)/jit(main)/pow" source_file="/pscratch/sd/j/jackm/lorrax_sandbox/sources/jax_xc_local/pbe.py" source_line=21}
  %multiply.898 = f64[36,36,36]{2,1,0} multiply(%power.897, %broadcast.45), metadata={op_name="jit(compute_V_H_and_V_xc)/jit(main)/mul" source_file="/pscratch/sd/j/jackm/lorrax_sandbox/sources/jax_xc_local/pbe.py" source_line=22}
  %multiply.977 = f64[36,36,36]{2,1,0} multiply(%multiply.898, %multiply.961), metadata={op_name="jit(compute_V_H_and_V_xc)/jit(main)/mul" source_file="/pscratch/sd/j/jackm/lorrax_sandbox/sources/jax_xc_local/pbe.py" source_line=29}
  %negate.978 = f64[36,36,36]{2,1,0} negate(%multiply.977), metadata={op_name="jit(compute_V_H_and_V_xc)/jit(main)/neg" source_file="/pscratch/sd/j/jackm/lorrax_sandbox/sources/jax_xc_local/pbe.py" source_line=27}
  %multiply.899 = f64[36,36,36]{2,1,0} multiply(%power.897, %power.897), metadata={op_name="jit(compute_V_H_and_V_xc)/jit(main)/integer_pow" source_file="/pscratch/sd/j/jackm/lorrax_sandbox/sources/jax_xc_local/pbe.py" source_line=26}
  %multiply.900 = f64[36,36,36]{2,1,0} multiply(%multiply.899, %broadcast.43), metadata={op_name="jit(compute_V_H_and_V_xc)/jit(main)/mul" source_file="/pscratch/sd/j/jackm/lorrax_sandbox/sources/jax_xc_local/pbe.py" source_line=26}
  %multiply.901 = f64[36,36,36]{2,1,0} multiply(%maximum.895, %maximum.895), metadata={op_name="jit(compute_V_H_and_V_xc)/jit(main)/integer_pow" source_file="/pscratch/sd/j/jackm/lorrax_sandbox/sources/jax_xc_local/pbe.py" source_line=26}
  %multiply.902 = f64[36,36,36]{2,1,0} multiply(%multiply.900, %multiply.901), metadata={op_name="jit(compute_V_H_and_V_xc)/jit(main)/mul" source_file="/pscratch/sd/j/jackm/lorrax_sandbox/sources/jax_xc_local/pbe.py" source_line=26}
  %add.903 = f64[36,36,36]{2,1,0} add(%multiply.902, %broadcast.41), metadata={op_name="jit(compute_V_H_and_V_xc)/jit(main)/add" source_file="/pscratch/sd/j/jackm/lorrax_sandbox/sources/jax_xc_local/pbe.py" source_line=26}
  %divide.904 = f64[36,36,36]{2,1,0} divide(%maximum.502, %add.903), metadata={op_name="jit(compute_V_H_and_V_xc)/jit(main)/div" source_file="/pscratch/sd/j/jackm/lorrax_sandbox/sources/jax_xc_local/pbe.py" source_line=26}
  %multiply.905 = f64[36,36,36]{2,1,0} multiply(%divide.904, %broadcast.39), metadata={op_name="jit(compute_V_H_and_V_xc)/jit(main)/mul" source_file="/pscratch/sd/j/jackm/lorrax_sandbox/sources/jax_xc_local/pbe.py" source_line=27}
  %divide.906 = f64[36,36,36]{2,1,0} divide(%multiply.905, %broadcast.37), metadata={op_name="jit(compute_V_H_and_V_xc)/jit(main)/div" source_file="/pscratch/sd/j/jackm/lorrax_sandbox/sources/jax_xc_local/pbe.py" source_line=27}
  %add.907 = f64[36,36,36]{2,1,0} add(%divide.906, %broadcast.55), metadata={op_name="jit(compute_V_H_and_V_xc)/jit(main)/add" source_file="/pscratch/sd/j/jackm/lorrax_sandbox/sources/jax_xc_local/pbe.py" source_line=27}
  %multiply.908 = f64[36,36,36]{2,1,0} multiply(%add.907, %add.907), metadata={op_name="jit(compute_V_H_and_V_xc)/jit(main)/mul" source_file="/pscratch/sd/j/jackm/lorrax_sandbox/sources/jax_xc_local/pbe.py" source_line=27}
  %divide.909 = f64[36,36,36]{2,1,0} divide(%broadcast.55, %multiply.908), metadata={op_name="jit(compute_V_H_and_V_xc)/jit(main)/div" source_file="/pscratch/sd/j/jackm/lorrax_sandbox/sources/jax_xc_local/pbe.py" source_line=27}
  %multiply.979 = f64[36,36,36]{2,1,0} multiply(%negate.978, %divide.909), metadata={op_name="jit(compute_V_H_and_V_xc)/jit(main)/mul" source_file="/pscratch/sd/j/jackm/lorrax_sandbox/sources/jax_xc_local/pbe.py" source_line=27}
  %multiply.980 = f64[36,36,36]{2,1,0} multiply(%multiply.979, %broadcast.37), metadata={op_name="jit(compute_V_H_and_V_xc)/jit(main)/mul" source_file="/pscratch/sd/j/jackm/lorrax_sandbox/sources/jax_xc_local/pbe.py" source_line=27}
  %negate.981 = f64[36,36,36]{2,1,0} negate(%multiply.980), metadata={op_name="jit(compute_V_H_and_V_xc)/jit(main)/neg" source_file="/pscratch/sd/j/jackm/lorrax_sandbox/sources/jax_xc_local/pbe.py" source_line=27}
  %divide.982 = f64[36,36,36]{2,1,0} divide(%negate.981, %broadcast.37), metadata={op_name="jit(compute_V_H_and_V_xc)/jit(main)/div" source_file="/pscratch/sd/j/jackm/lorrax_sandbox/sources/jax_xc_local/pbe.py" source_line=27}
  %multiply.983 = f64[36,36,36]{2,1,0} multiply(%divide.982, %broadcast.39), metadata={op_name="jit(compute_V_H_and_V_xc)/jit(main)/mul" source_file="/pscratch/sd/j/jackm/lorrax_sandbox/sources/jax_xc_local/pbe.py" source_line=27}
  %divide.984 = f64[36,36,36]{2,1,0} divide(%multiply.983, %add.903), metadata={op_name="jit(compute_V_H_and_V_xc)/jit(main)/div" source_file="/pscratch/sd/j/jackm/lorrax_sandbox/sources/jax_xc_local/pbe.py" source_line=26}
  %add.985 = f64[36,36,36]{2,1,0} add(%divide.976, %divide.984), metadata={op_name="jit(compute_V_H_and_V_xc)/jit(main)/add_any" source_file="/pscratch/sd/j/jackm/lorrax_sandbox/sources/jax_xc_local/pbe.py" source_line=26}
  %call.1004 = f64[36,36,36]{2,1,0} call(%and.988, %add.985, %constant.87), to_apply=%_where_1.998
  %slice.1005 = f64[36,36,36,1]{3,2,1,0} slice(%Arg_3.4), slice={[0:36], [0:36], [0:36], [0:1]}, metadata={op_name="jit(compute_V_H_and_V_xc)/jit(main)/slice" source_file="/pscratch/sd/j/jackm/lorrax_sandbox/sources/lorrax/src/psp/xc.py" source_line=143}
  %reshape.1006 = f64[36,36,36]{2,1,0} reshape(%slice.1005), metadata={op_name="jit(compute_V_H_and_V_xc)/jit(main)/squeeze" source_file="/pscratch/sd/j/jackm/lorrax_sandbox/sources/lorrax/src/psp/xc.py" source_line=143}
  %convert.1007 = c128[36,36,36]{2,1,0} convert(%reshape.1006), metadata={op_name="jit(compute_V_H_and_V_xc)/jit(main)/convert_element_type" source_file="/pscratch/sd/j/jackm/lorrax_sandbox/sources/lorrax/src/psp/xc.py" source_line=143}
  %multiply.1008 = c128[36,36,36]{2,1,0} multiply(%convert.1007, %broadcast.61), metadata={op_name="jit(compute_V_H_and_V_xc)/jit(main)/mul" source_file="/pscratch/sd/j/jackm/lorrax_sandbox/sources/lorrax/src/psp/xc.py" source_line=143}
  %multiply.1009 = c128[36,36,36]{2,1,0} multiply(%multiply.1008, %add.465), metadata={op_name="jit(compute_V_H_and_V_xc)/jit(main)/mul" source_file="/pscratch/sd/j/jackm/lorrax_sandbox/sources/lorrax/src/psp/xc.py" source_line=143}
  %call.1013 = c128[36,36,36]{2,1,0} call(%multiply.1009), to_apply=%fft_0.1010
  %real.1014 = f64[36,36,36]{2,1,0} real(%call.1013), metadata={op_name="jit(compute_V_H_and_V_xc)/jit(main)/real" source_file="/pscratch/sd/j/jackm/lorrax_sandbox/sources/lorrax/src/psp/xc.py" source_line=143}
  %multiply.1015 = f64[36,36,36]{2,1,0} multiply(%call.1004, %real.1014), metadata={op_name="jit(compute_V_H_and_V_xc)/jit(main)/mul" source_file="/pscratch/sd/j/jackm/lorrax_sandbox/sources/lorrax/src/psp/xc.py" source_line=144}
  %call.1020 = c128[36,36,36]{2,1,0} call(%multiply.1015), to_apply=%fft.1016
  %multiply.1025 = c128[36,36,36]{2,1,0} multiply(%multiply.1024, %call.1020), metadata={op_name="jit(compute_V_H_and_V_xc)/jit(main)/mul" source_file="/pscratch/sd/j/jackm/lorrax_sandbox/sources/lorrax/src/psp/xc.py" source_line=145}
  %call.1029 = c128[36,36,36]{2,1,0} call(%multiply.1025), to_apply=%fft_0.1026
  %real.1030 = f64[36,36,36]{2,1,0} real(%call.1029), metadata={op_name="jit(compute_V_H_and_V_xc)/jit(main)/real" source_file="/pscratch/sd/j/jackm/lorrax_sandbox/sources/lorrax/src/psp/xc.py" source_line=145}
  %slice.1047 = f64[36,36,36,1]{3,2,1,0} slice(%Arg_3.4), slice={[0:36], [0:36], [0:36], [1:2]}, metadata={op_name="jit(compute_V_H_and_V_xc)/jit(main)/slice" source_file="/pscratch/sd/j/jackm/lorrax_sandbox/sources/lorrax/src/psp/xc.py" source_line=145}
  %reshape.1048 = f64[36,36,36]{2,1,0} reshape(%slice.1047), metadata={op_name="jit(compute_V_H_and_V_xc)/jit(main)/squeeze" source_file="/pscratch/sd/j/jackm/lorrax_sandbox/sources/lorrax/src/psp/xc.py" source_line=145}
  %convert.1049 = c128[36,36,36]{2,1,0} convert(%reshape.1048), metadata={op_name="jit(compute_V_H_and_V_xc)/jit(main)/convert_element_type" source_file="/pscratch/sd/j/jackm/lorrax_sandbox/sources/lorrax/src/psp/xc.py" source_line=145}
  %multiply.1050 = c128[36,36,36]{2,1,0} multiply(%convert.1049, %broadcast.61), metadata={op_name="jit(compute_V_H_and_V_xc)/jit(main)/mul" source_file="/pscratch/sd/j/jackm/lorrax_sandbox/sources/lorrax/src/psp/xc.py" source_line=145}
  %slice.1031 = f64[36,36,36,1]{3,2,1,0} slice(%Arg_3.4), slice={[0:36], [0:36], [0:36], [1:2]}, metadata={op_name="jit(compute_V_H_and_V_xc)/jit(main)/slice" source_file="/pscratch/sd/j/jackm/lorrax_sandbox/sources/lorrax/src/psp/xc.py" source_line=143}
  %reshape.1032 = f64[36,36,36]{2,1,0} reshape(%slice.1031), metadata={op_name="jit(compute_V_H_and_V_xc)/jit(main)/squeeze" source_file="/pscratch/sd/j/jackm/lorrax_sandbox/sources/lorrax/src/psp/xc.py" source_line=143}
  %convert.1033 = c128[36,36,36]{2,1,0} convert(%reshape.1032), metadata={op_name="jit(compute_V_H_and_V_xc)/jit(main)/convert_element_type" source_file="/pscratch/sd/j/jackm/lorrax_sandbox/sources/lorrax/src/psp/xc.py" source_line=143}
  %multiply.1034 = c128[36,36,36]{2,1,0} multiply(%convert.1033, %broadcast.61), metadata={op_name="jit(compute_V_H_and_V_xc)/jit(main)/mul" source_file="/pscratch/sd/j/jackm/lorrax_sandbox/sources/lorrax/src/psp/xc.py" source_line=143}
  %multiply.1035 = c128[36,36,36]{2,1,0} multiply(%multiply.1034, %add.465), metadata={op_name="jit(compute_V_H_and_V_xc)/jit(main)/mul" source_file="/pscratch/sd/j/jackm/lorrax_sandbox/sources/lorrax/src/psp/xc.py" source_line=143}
  %call.1039 = c128[36,36,36]{2,1,0} call(%multiply.1035), to_apply=%fft_0.1036
  %real.1040 = f64[36,36,36]{2,1,0} real(%call.1039), metadata={op_name="jit(compute_V_H_and_V_xc)/jit(main)/real" source_file="/pscratch/sd/j/jackm/lorrax_sandbox/sources/lorrax/src/psp/xc.py" source_line=143}
  %multiply.1041 = f64[36,36,36]{2,1,0} multiply(%call.1004, %real.1040), metadata={op_name="jit(compute_V_H_and_V_xc)/jit(main)/mul" source_file="/pscratch/sd/j/jackm/lorrax_sandbox/sources/lorrax/src/psp/xc.py" source_line=144}
  %call.1046 = c128[36,36,36]{2,1,0} call(%multiply.1041), to_apply=%fft.1042
  %multiply.1051 = c128[36,36,36]{2,1,0} multiply(%multiply.1050, %call.1046), metadata={op_name="jit(compute_V_H_and_V_xc)/jit(main)/mul" source_file="/pscratch/sd/j/jackm/lorrax_sandbox/sources/lorrax/src/psp/xc.py" source_line=145}
  %call.1055 = c128[36,36,36]{2,1,0} call(%multiply.1051), to_apply=%fft_0.1052
  %real.1056 = f64[36,36,36]{2,1,0} real(%call.1055), metadata={op_name="jit(compute_V_H_and_V_xc)/jit(main)/real" source_file="/pscratch/sd/j/jackm/lorrax_sandbox/sources/lorrax/src/psp/xc.py" source_line=145}
  %add.1057 = f64[36,36,36]{2,1,0} add(%real.1030, %real.1056), metadata={op_name="jit(compute_V_H_and_V_xc)/jit(main)/add" source_file="/pscratch/sd/j/jackm/lorrax_sandbox/sources/lorrax/src/psp/xc.py" source_line=145}
  %slice.1074 = f64[36,36,36,1]{3,2,1,0} slice(%Arg_3.4), slice={[0:36], [0:36], [0:36], [2:3]}, metadata={op_name="jit(compute_V_H_and_V_xc)/jit(main)/slice" source_file="/pscratch/sd/j/jackm/lorrax_sandbox/sources/lorrax/src/psp/xc.py" source_line=145}
  %reshape.1075 = f64[36,36,36]{2,1,0} reshape(%slice.1074), metadata={op_name="jit(compute_V_H_and_V_xc)/jit(main)/squeeze" source_file="/pscratch/sd/j/jackm/lorrax_sandbox/sources/lorrax/src/psp/xc.py" source_line=145}
  %convert.1076 = c128[36,36,36]{2,1,0} convert(%reshape.1075), metadata={op_name="jit(compute_V_H_and_V_xc)/jit(main)/convert_element_type" source_file="/pscratch/sd/j/jackm/lorrax_sandbox/sources/lorrax/src/psp/xc.py" source_line=145}
  %multiply.1077 = c128[36,36,36]{2,1,0} multiply(%convert.1076, %broadcast.61), metadata={op_name="jit(compute_V_H_and_V_xc)/jit(main)/mul" source_file="/pscratch/sd/j/jackm/lorrax_sandbox/sources/lorrax/src/psp/xc.py" source_line=145}
  %slice.1058 = f64[36,36,36,1]{3,2,1,0} slice(%Arg_3.4), slice={[0:36], [0:36], [0:36], [2:3]}, metadata={op_name="jit(compute_V_H_and_V_xc)/jit(main)/slice" source_file="/pscratch/sd/j/jackm/lorrax_sandbox/sources/lorrax/src/psp/xc.py" source_line=143}
  %reshape.1059 = f64[36,36,36]{2,1,0} reshape(%slice.1058), metadata={op_name="jit(compute_V_H_and_V_xc)/jit(main)/squeeze" source_file="/pscratch/sd/j/jackm/lorrax_sandbox/sources/lorrax/src/psp/xc.py" source_line=143}
  %convert.1060 = c128[36,36,36]{2,1,0} convert(%reshape.1059), metadata={op_name="jit(compute_V_H_and_V_xc)/jit(main)/convert_element_type" source_file="/pscratch/sd/j/jackm/lorrax_sandbox/sources/lorrax/src/psp/xc.py" source_line=143}
  %multiply.1061 = c128[36,36,36]{2,1,0} multiply(%convert.1060, %broadcast.61), metadata={op_name="jit(compute_V_H_and_V_xc)/jit(main)/mul" source_file="/pscratch/sd/j/jackm/lorrax_sandbox/sources/lorrax/src/psp/xc.py" source_line=143}
  %multiply.1062 = c128[36,36,36]{2,1,0} multiply(%multiply.1061, %add.465), metadata={op_name="jit(compute_V_H_and_V_xc)/jit(main)/mul" source_file="/pscratch/sd/j/jackm/lorrax_sandbox/sources/lorrax/src/psp/xc.py" source_line=143}
  %call.1066 = c128[36,36,36]{2,1,0} call(%multiply.1062), to_apply=%fft_0.1063
  %real.1067 = f64[36,36,36]{2,1,0} real(%call.1066), metadata={op_name="jit(compute_V_H_and_V_xc)/jit(main)/real" source_file="/pscratch/sd/j/jackm/lorrax_sandbox/sources/lorrax/src/psp/xc.py" source_line=143}
  %multiply.1068 = f64[36,36,36]{2,1,0} multiply(%call.1004, %real.1067), metadata={op_name="jit(compute_V_H_and_V_xc)/jit(main)/mul" source_file="/pscratch/sd/j/jackm/lorrax_sandbox/sources/lorrax/src/psp/xc.py" source_line=144}
  %call.1073 = c128[36,36,36]{2,1,0} call(%multiply.1068), to_apply=%fft.1069
  %multiply.1078 = c128[36,36,36]{2,1,0} multiply(%multiply.1077, %call.1073), metadata={op_name="jit(compute_V_H_and_V_xc)/jit(main)/mul" source_file="/pscratch/sd/j/jackm/lorrax_sandbox/sources/lorrax/src/psp/xc.py" source_line=145}
  %call.1082 = c128[36,36,36]{2,1,0} call(%multiply.1078), to_apply=%fft_0.1079
  %real.1083 = f64[36,36,36]{2,1,0} real(%call.1082), metadata={op_name="jit(compute_V_H_and_V_xc)/jit(main)/real" source_file="/pscratch/sd/j/jackm/lorrax_sandbox/sources/lorrax/src/psp/xc.py" source_line=145}
  %add.1084 = f64[36,36,36]{2,1,0} add(%add.1057, %real.1083), metadata={op_name="jit(compute_V_H_and_V_xc)/jit(main)/add" source_file="/pscratch/sd/j/jackm/lorrax_sandbox/sources/lorrax/src/psp/xc.py" source_line=145}
  %multiply.1085 = f64[36,36,36]{2,1,0} multiply(%add.1084, %broadcast.53), metadata={op_name="jit(compute_V_H_and_V_xc)/jit(main)/mul" source_file="/pscratch/sd/j/jackm/lorrax_sandbox/sources/lorrax/src/psp/xc.py" source_line=147}
  %subtract.1086 = f64[36,36,36]{2,1,0} subtract(%add.997, %multiply.1085), metadata={op_name="jit(compute_V_H_and_V_xc)/jit(main)/sub" source_file="/pscratch/sd/j/jackm/lorrax_sandbox/sources/lorrax/src/psp/xc.py" source_line=147}
  ROOT %tuple.1087 = (f64[36,36,36]{2,1,0}, f64[36,36,36]{2,1,0}) tuple(%real.452, %subtract.1086)
}

