HloModule jit_compute_V_H_and_V_xc, is_scheduled=true, entry_computation_layout={(f64[36,36,36]{2,1,0}, f64[36,36,36]{2,1,0}, c128[36,36,36]{2,1,0}, f64[36,36,36,3]{3,2,1,0}, f64[3,3]{1,0})->(f64[36,36,36]{2,1,0}, f64[36,36,36]{2,1,0})}, allow_spmd_sharding_propagation_to_parameters={true,true,true,true,true}, allow_spmd_sharding_propagation_to_output={true,true}, frontend_attributes={fingerprint_before_lhs="0b69796450ef7c8a0052a2c80ee7321f"}

%fused_multiply (param_0.810: f64[36,36,36,3], param_1.1001: c128[36,36,36], param_2.587: c128[36,36,36]) -> (c128[36,36,36], c128[36,36,36], c128[36,36,36]) {
  %param_0.810 = f64[36,36,36,3]{3,2,1,0} parameter(0), metadata={scheduling_name="param_0.810"}
  %convert.32.9 = c128[36,36,36,3]{3,2,1,0} convert(%param_0.810), metadata={op_name="jit(compute_V_H_and_V_xc)/jit(main)/convert_element_type" source_file="/pscratch/sd/j/jackm/lorrax_sandbox/sources/lorrax/src/psp/xc.py" source_line=56 scheduling_name="convert.32.9"}
  %slice.90.7 = c128[36,36,36,1]{3,2,1,0} slice(%convert.32.9), slice={[0:36], [0:36], [0:36], [2:3]}, metadata={op_name="jit(compute_V_H_and_V_xc)/jit(main)/slice" source_file="/pscratch/sd/j/jackm/lorrax_sandbox/sources/lorrax/src/psp/xc.py" source_line=56 scheduling_name="slice.90.7"}
  %bitcast.3275.5 = c128[1,36,36,36]{3,2,1,0} bitcast(%slice.90.7), metadata={scheduling_name="bitcast.3275.5"}
  %constant_60_1 = c128[] constant((0, 1))
  %broadcast.667.7 = c128[1,36,36,36]{3,2,1,0} broadcast(%constant_60_1), dimensions={}, metadata={scheduling_name="broadcast.667.7"}
  %multiply.904.5 = c128[1,36,36,36]{3,2,1,0} multiply(%bitcast.3275.5, %broadcast.667.7), metadata={op_name="jit(compute_V_H_and_V_xc)/jit(main)/mul" source_file="/pscratch/sd/j/jackm/lorrax_sandbox/sources/lorrax/src/psp/xc.py" source_line=56 scheduling_name="multiply.904.5"}
  %bitcast.3281.1 = c128[36,36,36]{2,1,0} bitcast(%multiply.904.5), metadata={scheduling_name="bitcast.3281.1"}
  %param_1.1001 = c128[36,36,36]{2,1,0} parameter(1), metadata={scheduling_name="param_1.1001"}
  %param_2.587 = c128[36,36,36]{2,1,0} parameter(2), metadata={scheduling_name="param_2.587"}
  %add.187.3 = c128[36,36,36]{2,1,0} add(%param_1.1001, %param_2.587), metadata={op_name="jit(compute_V_H_and_V_xc)/jit(main)/add" source_file="/pscratch/sd/j/jackm/lorrax_sandbox/sources/lorrax/src/psp/dft_operators.py" source_line=305 scheduling_name="add.187.3"}
  %multiply.906.1 = c128[36,36,36]{2,1,0} multiply(%bitcast.3281.1, %add.187.3), metadata={op_name="jit(compute_V_H_and_V_xc)/jit(main)/mul" source_file="/pscratch/sd/j/jackm/lorrax_sandbox/sources/lorrax/src/psp/xc.py" source_line=56 scheduling_name="multiply.906.1"}
  %slice.89.7.clone.1 = c128[36,36,36,1]{3,2,1,0} slice(%convert.32.9), slice={[0:36], [0:36], [0:36], [1:2]}, metadata={op_name="jit(compute_V_H_and_V_xc)/jit(main)/slice" source_file="/pscratch/sd/j/jackm/lorrax_sandbox/sources/lorrax/src/psp/xc.py" source_line=56 scheduling_name="slice.89.7.clone.1"}
  %bitcast.3256.5.clone.1 = c128[1,36,36,36]{3,2,1,0} bitcast(%slice.89.7.clone.1), metadata={scheduling_name="bitcast.3256.5.clone.1"}
  %multiply.895.5.clone.1 = c128[1,36,36,36]{3,2,1,0} multiply(%bitcast.3256.5.clone.1, %broadcast.667.7), metadata={op_name="jit(compute_V_H_and_V_xc)/jit(main)/mul" source_file="/pscratch/sd/j/jackm/lorrax_sandbox/sources/lorrax/src/psp/xc.py" source_line=56 scheduling_name="multiply.895.5.clone.1"}
  %bitcast.3262.1.clone.1 = c128[36,36,36]{2,1,0} bitcast(%multiply.895.5.clone.1), metadata={scheduling_name="bitcast.3262.1.clone.1"}
  %multiply.897.1.clone.1 = c128[36,36,36]{2,1,0} multiply(%bitcast.3262.1.clone.1, %add.187.3), metadata={op_name="jit(compute_V_H_and_V_xc)/jit(main)/mul" source_file="/pscratch/sd/j/jackm/lorrax_sandbox/sources/lorrax/src/psp/xc.py" source_line=56 scheduling_name="multiply.897.1.clone.1"}
  %slice.88.7.clone.1 = c128[36,36,36,1]{3,2,1,0} slice(%convert.32.9), slice={[0:36], [0:36], [0:36], [0:1]}, metadata={op_name="jit(compute_V_H_and_V_xc)/jit(main)/slice" source_file="/pscratch/sd/j/jackm/lorrax_sandbox/sources/lorrax/src/psp/xc.py" source_line=56 scheduling_name="slice.88.7.clone.1"}
  %bitcast.3229.5.clone.1 = c128[1,36,36,36]{3,2,1,0} bitcast(%slice.88.7.clone.1), metadata={scheduling_name="bitcast.3229.5.clone.1"}
  %multiply.889.5.clone.1 = c128[1,36,36,36]{3,2,1,0} multiply(%bitcast.3229.5.clone.1, %broadcast.667.7), metadata={op_name="jit(compute_V_H_and_V_xc)/jit(main)/mul" source_file="/pscratch/sd/j/jackm/lorrax_sandbox/sources/lorrax/src/psp/xc.py" source_line=56 scheduling_name="multiply.889.5.clone.1"}
  %bitcast.3234.1.clone.1 = c128[36,36,36]{2,1,0} bitcast(%multiply.889.5.clone.1), metadata={scheduling_name="bitcast.3234.1.clone.1"}
  %multiply.892.1.clone.1 = c128[36,36,36]{2,1,0} multiply(%bitcast.3234.1.clone.1, %add.187.3), metadata={op_name="jit(compute_V_H_and_V_xc)/jit(main)/mul" source_file="/pscratch/sd/j/jackm/lorrax_sandbox/sources/lorrax/src/psp/xc.py" source_line=56 scheduling_name="multiply.892.1.clone.1"}
  ROOT %tuple.49 = (c128[36,36,36]{2,1,0}, c128[36,36,36]{2,1,0}, c128[36,36,36]{2,1,0}) tuple(%multiply.906.1, %multiply.897.1.clone.1, %multiply.892.1.clone.1), metadata={scheduling_name="tuple.49"}
}

%fused_multiply.1 (param_0.9: c128[36,36,36], param_1.1006: f64[36,36,36,3], param_2.605: c128[36,36,36], param_3.495: c128[36,36,36]) -> (c128[36,36,36], c128[36,36,36], c128[36,36,36]) {
  %param_1.1006 = f64[36,36,36,3]{3,2,1,0} parameter(1), metadata={scheduling_name="param_1.1006"}
  %convert.32.19 = c128[36,36,36,3]{3,2,1,0} convert(%param_1.1006), metadata={op_name="jit(compute_V_H_and_V_xc)/jit(main)/convert_element_type" source_file="/pscratch/sd/j/jackm/lorrax_sandbox/sources/lorrax/src/psp/xc.py" source_line=56 scheduling_name="convert.32.19"}
  %slice.89.5 = c128[36,36,36,1]{3,2,1,0} slice(%convert.32.19), slice={[0:36], [0:36], [0:36], [1:2]}, metadata={op_name="jit(compute_V_H_and_V_xc)/jit(main)/slice" source_file="/pscratch/sd/j/jackm/lorrax_sandbox/sources/lorrax/src/psp/xc.py" source_line=56 scheduling_name="slice.89.5"}
  %bitcast.3256.3 = c128[1,36,36,36]{3,2,1,0} bitcast(%slice.89.5), metadata={scheduling_name="bitcast.3256.3"}
  %constant_60_6 = c128[] constant((0, 1))
  %broadcast.667.13 = c128[1,36,36,36]{3,2,1,0} broadcast(%constant_60_6), dimensions={}, metadata={scheduling_name="broadcast.667.13"}
  %multiply.895.3 = c128[1,36,36,36]{3,2,1,0} multiply(%bitcast.3256.3, %broadcast.667.13), metadata={op_name="jit(compute_V_H_and_V_xc)/jit(main)/mul" source_file="/pscratch/sd/j/jackm/lorrax_sandbox/sources/lorrax/src/psp/xc.py" source_line=56 scheduling_name="multiply.895.3"}
  %bitcast.3262.2 = c128[36,36,36]{2,1,0} bitcast(%multiply.895.3), metadata={scheduling_name="bitcast.3262.2"}
  %param_0.9 = c128[36,36,36]{2,1,0} parameter(0), metadata={scheduling_name="param_0.9"}
  %multiply.1019.1 = c128[36,36,36]{2,1,0} multiply(%bitcast.3262.2, %param_0.9), metadata={op_name="jit(compute_V_H_and_V_xc)/jit(main)/mul" source_file="/pscratch/sd/j/jackm/lorrax_sandbox/sources/lorrax/src/psp/xc.py" source_line=145 scheduling_name="multiply.1019.1"}
  %slice.88.5.clone.1 = c128[36,36,36,1]{3,2,1,0} slice(%convert.32.19), slice={[0:36], [0:36], [0:36], [0:1]}, metadata={op_name="jit(compute_V_H_and_V_xc)/jit(main)/slice" source_file="/pscratch/sd/j/jackm/lorrax_sandbox/sources/lorrax/src/psp/xc.py" source_line=56 scheduling_name="slice.88.5.clone.1"}
  %bitcast.3229.3.clone.1 = c128[1,36,36,36]{3,2,1,0} bitcast(%slice.88.5.clone.1), metadata={scheduling_name="bitcast.3229.3.clone.1"}
  %multiply.889.3.clone.1 = c128[1,36,36,36]{3,2,1,0} multiply(%bitcast.3229.3.clone.1, %broadcast.667.13), metadata={op_name="jit(compute_V_H_and_V_xc)/jit(main)/mul" source_file="/pscratch/sd/j/jackm/lorrax_sandbox/sources/lorrax/src/psp/xc.py" source_line=56 scheduling_name="multiply.889.3.clone.1"}
  %bitcast.3234.2.clone.1 = c128[36,36,36]{2,1,0} bitcast(%multiply.889.3.clone.1), metadata={scheduling_name="bitcast.3234.2.clone.1"}
  %param_2.605 = c128[36,36,36]{2,1,0} parameter(2), metadata={scheduling_name="param_2.605"}
  %multiply.1017.1.clone.1 = c128[36,36,36]{2,1,0} multiply(%bitcast.3234.2.clone.1, %param_2.605), metadata={op_name="jit(compute_V_H_and_V_xc)/jit(main)/mul" source_file="/pscratch/sd/j/jackm/lorrax_sandbox/sources/lorrax/src/psp/xc.py" source_line=145 scheduling_name="multiply.1017.1.clone.1"}
  %slice.90.5.clone.1 = c128[36,36,36,1]{3,2,1,0} slice(%convert.32.19), slice={[0:36], [0:36], [0:36], [2:3]}, metadata={op_name="jit(compute_V_H_and_V_xc)/jit(main)/slice" source_file="/pscratch/sd/j/jackm/lorrax_sandbox/sources/lorrax/src/psp/xc.py" source_line=56 scheduling_name="slice.90.5.clone.1"}
  %bitcast.3275.3.clone.1 = c128[1,36,36,36]{3,2,1,0} bitcast(%slice.90.5.clone.1), metadata={scheduling_name="bitcast.3275.3.clone.1"}
  %multiply.904.3.clone.1 = c128[1,36,36,36]{3,2,1,0} multiply(%bitcast.3275.3.clone.1, %broadcast.667.13), metadata={op_name="jit(compute_V_H_and_V_xc)/jit(main)/mul" source_file="/pscratch/sd/j/jackm/lorrax_sandbox/sources/lorrax/src/psp/xc.py" source_line=56 scheduling_name="multiply.904.3.clone.1"}
  %bitcast.3281.2.clone.1 = c128[36,36,36]{2,1,0} bitcast(%multiply.904.3.clone.1), metadata={scheduling_name="bitcast.3281.2.clone.1"}
  %param_3.495 = c128[36,36,36]{2,1,0} parameter(3), metadata={scheduling_name="param_3.495"}
  %multiply.1021.1.clone.1 = c128[36,36,36]{2,1,0} multiply(%bitcast.3281.2.clone.1, %param_3.495), metadata={op_name="jit(compute_V_H_and_V_xc)/jit(main)/mul" source_file="/pscratch/sd/j/jackm/lorrax_sandbox/sources/lorrax/src/psp/xc.py" source_line=145 scheduling_name="multiply.1021.1.clone.1"}
  ROOT %tuple.51 = (c128[36,36,36]{2,1,0}, c128[36,36,36]{2,1,0}, c128[36,36,36]{2,1,0}) tuple(%multiply.1019.1, %multiply.1017.1.clone.1, %multiply.1021.1.clone.1), metadata={scheduling_name="tuple.51"}
}

%fused_divide (param_0.189: c128[36,36,36], param_1.1015: f64[36], param_2.599: f64[1,36,1], param_3.472: f64[36,1,1], param_4.410: f64[1,1,36], param_5.361: f64[1,36,1], param_6.305: f64[36,1,1], param_7.244: f64[3,3]) -> c128[36,36,36] {
  %param_0.189 = c128[36,36,36]{2,1,0} parameter(0), metadata={scheduling_name="param_0.189"}
  %constant_567_1 = c128[] constant((0.11635528346628862, 0))
  %broadcast.551.1 = c128[36,36,36]{2,1,0} broadcast(%constant_567_1), dimensions={}, metadata={op_name="jit(compute_V_H_and_V_xc)/jit(main)/mul" source_file="/pscratch/sd/j/jackm/lorrax_sandbox/sources/lorrax/src/psp/dft_operators.py" source_line=120 scheduling_name="broadcast.551.1"}
  %multiply.608.1 = c128[36,36,36]{2,1,0} multiply(%param_0.189, %broadcast.551.1), metadata={op_name="jit(compute_V_H_and_V_xc)/jit(main)/mul" source_file="/pscratch/sd/j/jackm/lorrax_sandbox/sources/lorrax/src/psp/dft_operators.py" source_line=120 scheduling_name="multiply.608.1"}
  %iota.12.3 = s64[36,1,1]{2,1,0} iota(), iota_dimension=0, metadata={op_name="jit(compute_V_H_and_V_xc)/jit(main)/iota" source_file="/pscratch/sd/j/jackm/lorrax_sandbox/sources/lorrax/src/psp/dft_operators.py" source_line=115 scheduling_name="iota.12.3"}
  %constant_68_1 = s64[] constant(0)
  %broadcast.552.3 = s64[36,1,1]{2,1,0} broadcast(%constant_68_1), dimensions={}, metadata={scheduling_name="broadcast.552.3"}
  %compare.53.3 = pred[36,1,1]{2,1,0} compare(%iota.12.3, %broadcast.552.3), direction=EQ, metadata={op_name="jit(compute_V_H_and_V_xc)/jit(main)/eq" source_file="/pscratch/sd/j/jackm/lorrax_sandbox/sources/lorrax/src/psp/dft_operators.py" source_line=115 scheduling_name="compare.53.3"}
  %bitcast.2518.5 = pred[36]{0} bitcast(%compare.53.3), metadata={scheduling_name="bitcast.2518.5"}
  %broadcast.553.5 = pred[1,36,36]{2,1,0} broadcast(%bitcast.2518.5), dimensions={1}, metadata={op_name="jit(compute_V_H_and_V_xc)/jit(main)/and" source_file="/pscratch/sd/j/jackm/lorrax_sandbox/sources/lorrax/src/psp/dft_operators.py" source_line=115 scheduling_name="broadcast.553.5"}
  %iota.13.3 = s64[1,36,1]{2,1,0} iota(), iota_dimension=1, metadata={op_name="jit(compute_V_H_and_V_xc)/jit(main)/iota" source_file="/pscratch/sd/j/jackm/lorrax_sandbox/sources/lorrax/src/psp/dft_operators.py" source_line=116 scheduling_name="iota.13.3"}
  %broadcast.554.3 = s64[1,36,1]{2,1,0} broadcast(%constant_68_1), dimensions={}, metadata={scheduling_name="broadcast.554.3"}
  %compare.54.3 = pred[1,36,1]{2,1,0} compare(%iota.13.3, %broadcast.554.3), direction=EQ, metadata={op_name="jit(compute_V_H_and_V_xc)/jit(main)/eq" source_file="/pscratch/sd/j/jackm/lorrax_sandbox/sources/lorrax/src/psp/dft_operators.py" source_line=116 scheduling_name="compare.54.3"}
  %bitcast.2526.5 = pred[36]{0} bitcast(%compare.54.3), metadata={scheduling_name="bitcast.2526.5"}
  %broadcast.555.5 = pred[1,36,36]{2,1,0} broadcast(%bitcast.2526.5), dimensions={2}, metadata={op_name="jit(compute_V_H_and_V_xc)/jit(main)/and" source_file="/pscratch/sd/j/jackm/lorrax_sandbox/sources/lorrax/src/psp/dft_operators.py" source_line=115 scheduling_name="broadcast.555.5"}
  %and.32.3 = pred[1,36,36]{2,1,0} and(%broadcast.553.5, %broadcast.555.5), metadata={op_name="jit(compute_V_H_and_V_xc)/jit(main)/and" source_file="/pscratch/sd/j/jackm/lorrax_sandbox/sources/lorrax/src/psp/dft_operators.py" source_line=115 scheduling_name="and.32.3"}
  %bitcast.2530.3 = pred[36,36]{1,0} bitcast(%and.32.3), metadata={scheduling_name="bitcast.2530.3"}
  %broadcast.556.3 = pred[36,36,36]{2,1,0} broadcast(%bitcast.2530.3), dimensions={0,1}, metadata={op_name="jit(compute_V_H_and_V_xc)/jit(main)/and" source_file="/pscratch/sd/j/jackm/lorrax_sandbox/sources/lorrax/src/psp/dft_operators.py" source_line=115 scheduling_name="broadcast.556.3"}
  %iota.14.3 = s64[1,1,36]{2,1,0} iota(), iota_dimension=2, metadata={op_name="jit(compute_V_H_and_V_xc)/jit(main)/iota" source_file="/pscratch/sd/j/jackm/lorrax_sandbox/sources/lorrax/src/psp/dft_operators.py" source_line=117 scheduling_name="iota.14.3"}
  %broadcast.557.3 = s64[1,1,36]{2,1,0} broadcast(%constant_68_1), dimensions={}, metadata={scheduling_name="broadcast.557.3"}
  %compare.55.3 = pred[1,1,36]{2,1,0} compare(%iota.14.3, %broadcast.557.3), direction=EQ, metadata={op_name="jit(compute_V_H_and_V_xc)/jit(main)/eq" source_file="/pscratch/sd/j/jackm/lorrax_sandbox/sources/lorrax/src/psp/dft_operators.py" source_line=117 scheduling_name="compare.55.3"}
  %bitcast.2538.3 = pred[36]{0} bitcast(%compare.55.3), metadata={scheduling_name="bitcast.2538.3"}
  %broadcast.558.3 = pred[36,36,36]{2,1,0} broadcast(%bitcast.2538.3), dimensions={2}, metadata={op_name="jit(compute_V_H_and_V_xc)/jit(main)/and" source_file="/pscratch/sd/j/jackm/lorrax_sandbox/sources/lorrax/src/psp/dft_operators.py" source_line=115 scheduling_name="broadcast.558.3"}
  %and.33.1 = pred[36,36,36]{2,1,0} and(%broadcast.556.3, %broadcast.558.3), metadata={op_name="jit(compute_V_H_and_V_xc)/jit(main)/and" source_file="/pscratch/sd/j/jackm/lorrax_sandbox/sources/lorrax/src/psp/dft_operators.py" source_line=115 scheduling_name="and.33.1"}
  %constant_54_2 = f64[] constant(1)
  %broadcast.559.43 = f64[36,36,36]{2,1,0} broadcast(%constant_54_2), dimensions={}, metadata={op_name="jit(compute_V_H_and_V_xc)/jit(main)/jit(_where)/broadcast_in_dim" source_file="/pscratch/sd/j/jackm/lorrax_sandbox/sources/lorrax/src/psp/dft_operators.py" source_line=118 scheduling_name="broadcast.559.43"}
  %param_7.244 = f64[3,3]{1,0} parameter(7), metadata={scheduling_name="param_7.244"}
  %slice.81.1 = f64[1,1]{1,0} slice(%param_7.244), slice={[0:1], [0:1]}, metadata={op_name="jit(compute_V_H_and_V_xc)/jit(main)/slice" source_file="/pscratch/sd/j/jackm/lorrax_sandbox/sources/lorrax/src/psp/dft_operators.py" source_line=113 scheduling_name="slice.81.1"}
  %bitcast.2547.5 = f64[] bitcast(%slice.81.1), metadata={scheduling_name="bitcast.2547.5"}
  %broadcast.560.5 = f64[36,1,1]{2,1,0} broadcast(%bitcast.2547.5), dimensions={}, metadata={op_name="jit(compute_V_H_and_V_xc)/jit(main)/mul" source_file="/pscratch/sd/j/jackm/lorrax_sandbox/sources/lorrax/src/psp/dft_operators.py" source_line=113 scheduling_name="broadcast.560.5"}
  %param_6.305 = f64[36,1,1]{2,1,0} parameter(6), metadata={scheduling_name="param_6.305"}
  %multiply.612.3 = f64[36,1,1]{2,1,0} multiply(%broadcast.560.5, %param_6.305), metadata={op_name="jit(compute_V_H_and_V_xc)/jit(main)/mul" source_file="/pscratch/sd/j/jackm/lorrax_sandbox/sources/lorrax/src/psp/dft_operators.py" source_line=113 scheduling_name="multiply.612.3"}
  %bitcast.2552.3 = f64[36]{0} bitcast(%multiply.612.3), metadata={scheduling_name="bitcast.2552.3"}
  %broadcast.561.3 = f64[1,36,36]{2,1,0} broadcast(%bitcast.2552.3), dimensions={1}, metadata={op_name="jit(compute_V_H_and_V_xc)/jit(main)/add" source_file="/pscratch/sd/j/jackm/lorrax_sandbox/sources/lorrax/src/psp/dft_operators.py" source_line=113 scheduling_name="broadcast.561.3"}
  %slice.82.1 = f64[1,1]{1,0} slice(%param_7.244), slice={[1:2], [1:2]}, metadata={op_name="jit(compute_V_H_and_V_xc)/jit(main)/slice" source_file="/pscratch/sd/j/jackm/lorrax_sandbox/sources/lorrax/src/psp/dft_operators.py" source_line=113 scheduling_name="slice.82.1"}
  %bitcast.2558.5 = f64[] bitcast(%slice.82.1), metadata={scheduling_name="bitcast.2558.5"}
  %broadcast.562.5 = f64[1,36,1]{2,1,0} broadcast(%bitcast.2558.5), dimensions={}, metadata={op_name="jit(compute_V_H_and_V_xc)/jit(main)/mul" source_file="/pscratch/sd/j/jackm/lorrax_sandbox/sources/lorrax/src/psp/dft_operators.py" source_line=113 scheduling_name="broadcast.562.5"}
  %param_5.361 = f64[1,36,1]{2,1,0} parameter(5), metadata={scheduling_name="param_5.361"}
  %multiply.615.3 = f64[1,36,1]{2,1,0} multiply(%broadcast.562.5, %param_5.361), metadata={op_name="jit(compute_V_H_and_V_xc)/jit(main)/mul" source_file="/pscratch/sd/j/jackm/lorrax_sandbox/sources/lorrax/src/psp/dft_operators.py" source_line=113 scheduling_name="multiply.615.3"}
  %bitcast.2563.3 = f64[36]{0} bitcast(%multiply.615.3), metadata={scheduling_name="bitcast.2563.3"}
  %broadcast.563.3 = f64[1,36,36]{2,1,0} broadcast(%bitcast.2563.3), dimensions={2}, metadata={op_name="jit(compute_V_H_and_V_xc)/jit(main)/add" source_file="/pscratch/sd/j/jackm/lorrax_sandbox/sources/lorrax/src/psp/dft_operators.py" source_line=113 scheduling_name="broadcast.563.3"}
  %add.149.1 = f64[1,36,36]{2,1,0} add(%broadcast.561.3, %broadcast.563.3), metadata={op_name="jit(compute_V_H_and_V_xc)/jit(main)/add" source_file="/pscratch/sd/j/jackm/lorrax_sandbox/sources/lorrax/src/psp/dft_operators.py" source_line=113 scheduling_name="add.149.1"}
  %bitcast.2567.3 = f64[36,36]{1,0} bitcast(%add.149.1), metadata={scheduling_name="bitcast.2567.3"}
  %broadcast.564.3 = f64[36,36,36]{2,1,0} broadcast(%bitcast.2567.3), dimensions={0,1}, metadata={op_name="jit(compute_V_H_and_V_xc)/jit(main)/add" source_file="/pscratch/sd/j/jackm/lorrax_sandbox/sources/lorrax/src/psp/dft_operators.py" source_line=113 scheduling_name="broadcast.564.3"}
  %slice.83.1 = f64[1,1]{1,0} slice(%param_7.244), slice={[2:3], [2:3]}, metadata={op_name="jit(compute_V_H_and_V_xc)/jit(main)/slice" source_file="/pscratch/sd/j/jackm/lorrax_sandbox/sources/lorrax/src/psp/dft_operators.py" source_line=113 scheduling_name="slice.83.1"}
  %bitcast.2573.5 = f64[] bitcast(%slice.83.1), metadata={scheduling_name="bitcast.2573.5"}
  %broadcast.565.5 = f64[1,1,36]{2,1,0} broadcast(%bitcast.2573.5), dimensions={}, metadata={op_name="jit(compute_V_H_and_V_xc)/jit(main)/mul" source_file="/pscratch/sd/j/jackm/lorrax_sandbox/sources/lorrax/src/psp/dft_operators.py" source_line=113 scheduling_name="broadcast.565.5"}
  %param_4.410 = f64[1,1,36]{2,1,0} parameter(4), metadata={scheduling_name="param_4.410"}
  %multiply.616.3 = f64[1,1,36]{2,1,0} multiply(%broadcast.565.5, %param_4.410), metadata={op_name="jit(compute_V_H_and_V_xc)/jit(main)/mul" source_file="/pscratch/sd/j/jackm/lorrax_sandbox/sources/lorrax/src/psp/dft_operators.py" source_line=113 scheduling_name="multiply.616.3"}
  %bitcast.2578.3 = f64[36]{0} bitcast(%multiply.616.3), metadata={scheduling_name="bitcast.2578.3"}
  %broadcast.566.3 = f64[36,36,36]{2,1,0} broadcast(%bitcast.2578.3), dimensions={2}, metadata={op_name="jit(compute_V_H_and_V_xc)/jit(main)/add" source_file="/pscratch/sd/j/jackm/lorrax_sandbox/sources/lorrax/src/psp/dft_operators.py" source_line=113 scheduling_name="broadcast.566.3"}
  %add.150.1 = f64[36,36,36]{2,1,0} add(%broadcast.564.3, %broadcast.566.3), metadata={op_name="jit(compute_V_H_and_V_xc)/jit(main)/add" source_file="/pscratch/sd/j/jackm/lorrax_sandbox/sources/lorrax/src/psp/dft_operators.py" source_line=113 scheduling_name="add.150.1"}
  %slice.84.3 = f64[1,1]{1,0} slice(%param_7.244), slice={[0:1], [1:2]}, metadata={op_name="jit(compute_V_H_and_V_xc)/jit(main)/slice" source_file="/pscratch/sd/j/jackm/lorrax_sandbox/sources/lorrax/src/psp/dft_operators.py" source_line=114 scheduling_name="slice.84.3"}
  %constant_444_1 = f64[1,1]{1,0} constant({ {2} })
  %multiply.618.3 = f64[1,1]{1,0} multiply(%slice.84.3, %constant_444_1), metadata={op_name="jit(compute_V_H_and_V_xc)/jit(main)/mul" source_file="/pscratch/sd/j/jackm/lorrax_sandbox/sources/lorrax/src/psp/dft_operators.py" source_line=114 scheduling_name="multiply.618.3"}
  %bitcast.2587.5 = f64[] bitcast(%multiply.618.3), metadata={scheduling_name="bitcast.2587.5"}
  %broadcast.567.5 = f64[36,1,1]{2,1,0} broadcast(%bitcast.2587.5), dimensions={}, metadata={op_name="jit(compute_V_H_and_V_xc)/jit(main)/mul" source_file="/pscratch/sd/j/jackm/lorrax_sandbox/sources/lorrax/src/psp/dft_operators.py" source_line=114 scheduling_name="broadcast.567.5"}
  %param_3.472 = f64[36,1,1]{2,1,0} parameter(3), metadata={scheduling_name="param_3.472"}
  %multiply.621.3 = f64[36,1,1]{2,1,0} multiply(%broadcast.567.5, %param_3.472), metadata={op_name="jit(compute_V_H_and_V_xc)/jit(main)/mul" source_file="/pscratch/sd/j/jackm/lorrax_sandbox/sources/lorrax/src/psp/dft_operators.py" source_line=114 scheduling_name="multiply.621.3"}
  %bitcast.2592.3 = f64[36]{0} bitcast(%multiply.621.3), metadata={scheduling_name="bitcast.2592.3"}
  %broadcast.568.3 = f64[1,36,36]{2,1,0} broadcast(%bitcast.2592.3), dimensions={1}, metadata={op_name="jit(compute_V_H_and_V_xc)/jit(main)/mul" source_file="/pscratch/sd/j/jackm/lorrax_sandbox/sources/lorrax/src/psp/dft_operators.py" source_line=114 scheduling_name="broadcast.568.3"}
  %param_1.1015 = f64[36]{0} parameter(1), metadata={scheduling_name="param_1.1015"}
  %broadcast.569.1 = f64[1,36,36]{2,1,0} broadcast(%param_1.1015), dimensions={2}, metadata={op_name="jit(compute_V_H_and_V_xc)/jit(main)/mul" source_file="/pscratch/sd/j/jackm/lorrax_sandbox/sources/lorrax/src/psp/dft_operators.py" source_line=114 scheduling_name="broadcast.569.1"}
  %multiply.626.1 = f64[1,36,36]{2,1,0} multiply(%broadcast.568.3, %broadcast.569.1), metadata={op_name="jit(compute_V_H_and_V_xc)/jit(main)/mul" source_file="/pscratch/sd/j/jackm/lorrax_sandbox/sources/lorrax/src/psp/dft_operators.py" source_line=114 scheduling_name="multiply.626.1"}
  %bitcast.2598.3 = f64[36,36]{1,0} bitcast(%multiply.626.1), metadata={scheduling_name="bitcast.2598.3"}
  %broadcast.570.3 = f64[36,36,36]{2,1,0} broadcast(%bitcast.2598.3), dimensions={0,1}, metadata={op_name="jit(compute_V_H_and_V_xc)/jit(main)/add" source_file="/pscratch/sd/j/jackm/lorrax_sandbox/sources/lorrax/src/psp/dft_operators.py" source_line=113 scheduling_name="broadcast.570.3"}
  %add.151.1 = f64[36,36,36]{2,1,0} add(%add.150.1, %broadcast.570.3), metadata={op_name="jit(compute_V_H_and_V_xc)/jit(main)/add" source_file="/pscratch/sd/j/jackm/lorrax_sandbox/sources/lorrax/src/psp/dft_operators.py" source_line=113 scheduling_name="add.151.1"}
  %slice.85.3 = f64[1,1]{1,0} slice(%param_7.244), slice={[0:1], [2:3]}, metadata={op_name="jit(compute_V_H_and_V_xc)/jit(main)/slice" source_file="/pscratch/sd/j/jackm/lorrax_sandbox/sources/lorrax/src/psp/dft_operators.py" source_line=114 scheduling_name="slice.85.3"}
  %multiply.628.3 = f64[1,1]{1,0} multiply(%slice.85.3, %constant_444_1), metadata={op_name="jit(compute_V_H_and_V_xc)/jit(main)/mul" source_file="/pscratch/sd/j/jackm/lorrax_sandbox/sources/lorrax/src/psp/dft_operators.py" source_line=114 scheduling_name="multiply.628.3"}
  %bitcast.2608.5 = f64[] bitcast(%multiply.628.3), metadata={scheduling_name="bitcast.2608.5"}
  %broadcast.571.5 = f64[36,1,1]{2,1,0} broadcast(%bitcast.2608.5), dimensions={}, metadata={op_name="jit(compute_V_H_and_V_xc)/jit(main)/mul" source_file="/pscratch/sd/j/jackm/lorrax_sandbox/sources/lorrax/src/psp/dft_operators.py" source_line=114 scheduling_name="broadcast.571.5"}
  %multiply.629.3 = f64[36,1,1]{2,1,0} multiply(%broadcast.571.5, %param_3.472), metadata={op_name="jit(compute_V_H_and_V_xc)/jit(main)/mul" source_file="/pscratch/sd/j/jackm/lorrax_sandbox/sources/lorrax/src/psp/dft_operators.py" source_line=114 scheduling_name="multiply.629.3"}
  %bitcast.2614.3 = f64[36]{0} bitcast(%multiply.629.3), metadata={scheduling_name="bitcast.2614.3"}
  %broadcast.572.3 = f64[1,36,36]{2,1,0} broadcast(%bitcast.2614.3), dimensions={1}, metadata={op_name="jit(compute_V_H_and_V_xc)/jit(main)/mul" source_file="/pscratch/sd/j/jackm/lorrax_sandbox/sources/lorrax/src/psp/dft_operators.py" source_line=114 scheduling_name="broadcast.572.3"}
  %multiply.630.1 = f64[1,36,36]{2,1,0} multiply(%broadcast.572.3, %broadcast.569.1), metadata={op_name="jit(compute_V_H_and_V_xc)/jit(main)/mul" source_file="/pscratch/sd/j/jackm/lorrax_sandbox/sources/lorrax/src/psp/dft_operators.py" source_line=114 scheduling_name="multiply.630.1"}
  %bitcast.2621.3 = f64[36,36]{1,0} bitcast(%multiply.630.1), metadata={scheduling_name="bitcast.2621.3"}
  %broadcast.574.3 = f64[36,36,36]{2,1,0} broadcast(%bitcast.2621.3), dimensions={0,2}, metadata={op_name="jit(compute_V_H_and_V_xc)/jit(main)/add" source_file="/pscratch/sd/j/jackm/lorrax_sandbox/sources/lorrax/src/psp/dft_operators.py" source_line=113 scheduling_name="broadcast.574.3"}
  %add.152.1 = f64[36,36,36]{2,1,0} add(%add.151.1, %broadcast.574.3), metadata={op_name="jit(compute_V_H_and_V_xc)/jit(main)/add" source_file="/pscratch/sd/j/jackm/lorrax_sandbox/sources/lorrax/src/psp/dft_operators.py" source_line=113 scheduling_name="add.152.1"}
  %slice.86.3 = f64[1,1]{1,0} slice(%param_7.244), slice={[1:2], [2:3]}, metadata={op_name="jit(compute_V_H_and_V_xc)/jit(main)/slice" source_file="/pscratch/sd/j/jackm/lorrax_sandbox/sources/lorrax/src/psp/dft_operators.py" source_line=114 scheduling_name="slice.86.3"}
  %multiply.633.3 = f64[1,1]{1,0} multiply(%slice.86.3, %constant_444_1), metadata={op_name="jit(compute_V_H_and_V_xc)/jit(main)/mul" source_file="/pscratch/sd/j/jackm/lorrax_sandbox/sources/lorrax/src/psp/dft_operators.py" source_line=114 scheduling_name="multiply.633.3"}
  %bitcast.2631.5 = f64[] bitcast(%multiply.633.3), metadata={scheduling_name="bitcast.2631.5"}
  %broadcast.575.5 = f64[1,36,1]{2,1,0} broadcast(%bitcast.2631.5), dimensions={}, metadata={op_name="jit(compute_V_H_and_V_xc)/jit(main)/mul" source_file="/pscratch/sd/j/jackm/lorrax_sandbox/sources/lorrax/src/psp/dft_operators.py" source_line=114 scheduling_name="broadcast.575.5"}
  %param_2.599 = f64[1,36,1]{2,1,0} parameter(2), metadata={scheduling_name="param_2.599"}
  %multiply.635.3 = f64[1,36,1]{2,1,0} multiply(%broadcast.575.5, %param_2.599), metadata={op_name="jit(compute_V_H_and_V_xc)/jit(main)/mul" source_file="/pscratch/sd/j/jackm/lorrax_sandbox/sources/lorrax/src/psp/dft_operators.py" source_line=114 scheduling_name="multiply.635.3"}
  %bitcast.2636.3 = f64[36]{0} bitcast(%multiply.635.3), metadata={scheduling_name="bitcast.2636.3"}
  %broadcast.576.3 = f64[1,36,36]{2,1,0} broadcast(%bitcast.2636.3), dimensions={1}, metadata={op_name="jit(compute_V_H_and_V_xc)/jit(main)/mul" source_file="/pscratch/sd/j/jackm/lorrax_sandbox/sources/lorrax/src/psp/dft_operators.py" source_line=114 scheduling_name="broadcast.576.3"}
  %multiply.642.1 = f64[1,36,36]{2,1,0} multiply(%broadcast.576.3, %broadcast.569.1), metadata={op_name="jit(compute_V_H_and_V_xc)/jit(main)/mul" source_file="/pscratch/sd/j/jackm/lorrax_sandbox/sources/lorrax/src/psp/dft_operators.py" source_line=114 scheduling_name="multiply.642.1"}
  %bitcast.2643.3 = f64[36,36]{1,0} bitcast(%multiply.642.1), metadata={scheduling_name="bitcast.2643.3"}
  %broadcast.578.3 = f64[36,36,36]{2,1,0} broadcast(%bitcast.2643.3), dimensions={1,2}, metadata={op_name="jit(compute_V_H_and_V_xc)/jit(main)/add" source_file="/pscratch/sd/j/jackm/lorrax_sandbox/sources/lorrax/src/psp/dft_operators.py" source_line=113 scheduling_name="broadcast.578.3"}
  %add.153.1 = f64[36,36,36]{2,1,0} add(%add.152.1, %broadcast.578.3), metadata={op_name="jit(compute_V_H_and_V_xc)/jit(main)/add" source_file="/pscratch/sd/j/jackm/lorrax_sandbox/sources/lorrax/src/psp/dft_operators.py" source_line=113 scheduling_name="add.153.1"}
  %select.29.3 = f64[36,36,36]{2,1,0} select(%and.33.1, %broadcast.559.43, %add.153.1), metadata={op_name="jit(compute_V_H_and_V_xc)/jit(main)/jit(_where)/select_n" source_file="/pscratch/sd/j/jackm/lorrax_sandbox/sources/lorrax/src/psp/dft_operators.py" source_line=118 scheduling_name="select.29.3"}
  %convert.31.1 = c128[36,36,36]{2,1,0} convert(%select.29.3), metadata={op_name="jit(compute_V_H_and_V_xc)/jit(main)/convert_element_type" source_file="/pscratch/sd/j/jackm/lorrax_sandbox/sources/lorrax/src/psp/dft_operators.py" source_line=120 scheduling_name="convert.31.1"}
  ROOT %divide.67.1 = c128[36,36,36]{2,1,0} divide(%multiply.608.1, %convert.31.1), metadata={op_name="jit(compute_V_H_and_V_xc)/jit(main)/div" source_file="/pscratch/sd/j/jackm/lorrax_sandbox/sources/lorrax/src/psp/dft_operators.py" source_line=120 scheduling_name="divide.67.1"}
}

%fused_real (param_0.157: c128[36,36,36]) -> f64[36,36,36] {
  %param_0.157 = c128[36,36,36]{2,1,0} parameter(0), metadata={scheduling_name="param_0.157"}
  %constant_547_1 = c128[] constant((216, 0)), metadata={op_name="jit(compute_V_H_and_V_xc)/jit(main)/sqrt" source_file="/pscratch/sd/j/jackm/lorrax_sandbox/sources/lorrax/src/psp/dft_operators.py" source_line=133}
  %broadcast.582.1 = c128[36,36,36]{2,1,0} broadcast(%constant_547_1), dimensions={}, metadata={op_name="jit(compute_V_H_and_V_xc)/jit(main)/mul" source_file="/pscratch/sd/j/jackm/lorrax_sandbox/sources/lorrax/src/psp/dft_operators.py" source_line=133 scheduling_name="broadcast.582.1"}
  %multiply.644.1 = c128[36,36,36]{2,1,0} multiply(%param_0.157, %broadcast.582.1), metadata={op_name="jit(compute_V_H_and_V_xc)/jit(main)/mul" source_file="/pscratch/sd/j/jackm/lorrax_sandbox/sources/lorrax/src/psp/dft_operators.py" source_line=133 scheduling_name="multiply.644.1"}
  ROOT %real.16.1 = f64[36,36,36]{2,1,0} real(%multiply.644.1), metadata={op_name="jit(compute_V_H_and_V_xc)/jit(main)/real" source_file="/pscratch/sd/j/jackm/lorrax_sandbox/sources/lorrax/src/psp/dft_operators.py" source_line=133 scheduling_name="real.16.1"}
}

%fused_subtract (param_0.809: f64[36,36,36], param_1.1012: f64[36,36,36], param_2.596: f64[36,36,36], param_3.469: f64[36,36,36], param_4.407: c128[36,36,36], param_5.358: c128[36,36,36], param_6.303: c128[36,36,36], param_7.242: f64[36,36,36], param_8.190: f64[36,36,36], param_9.168: f64[36,36,36], param_10.167: f64[36,36,36], param_11.178: f64[36,36,36], param_12.151: f64[36,36,36], param_13.117: f64[36,36,36], param_14.93: f64[36,36,36], param_15.94: f64[36,36,36], param_16.79: c128[36,36,36], param_17.60: c128[36,36,36], param_18.59: c128[36,36,36], param_19.59: f64[36,36,36], param_20.61: f64[36,36,36], param_21.61: f64[36,36,36]) -> f64[36,36,36] {
  %param_7.242 = f64[36,36,36]{2,1,0} parameter(7), metadata={scheduling_name="param_7.242"}
  %constant_44_1 = f64[] constant(-0.238732414637843)
  %broadcast.587.11 = f64[36,36,36]{2,1,0} broadcast(%constant_44_1), dimensions={}, metadata={scheduling_name="broadcast.587.11"}
  %multiply.648.5 = f64[36,36,36]{2,1,0} multiply(%param_7.242, %broadcast.587.11), metadata={op_name="jit(compute_V_H_and_V_xc)/jit(main)/mul" source_file="/pscratch/sd/j/jackm/lorrax_sandbox/sources/jax_xc_local/pbe.py" source_line=22 scheduling_name="multiply.648.5"}
  %constant_34_1 = f64[] constant(1.804)
  %broadcast.588.4 = f64[36,36,36]{2,1,0} broadcast(%constant_34_1), dimensions={}, metadata={scheduling_name="broadcast.588.4"}
  %constant_36_2 = f64[] constant(0.804)
  %broadcast.589.16 = f64[36,36,36]{2,1,0} broadcast(%constant_36_2), dimensions={}, metadata={scheduling_name="broadcast.589.16"}
  %constant_58_3 = f64[] constant(0)
  %broadcast.590.40 = f64[36,36,36]{2,1,0} broadcast(%constant_58_3), dimensions={}, metadata={scheduling_name="broadcast.590.40"}
  %multiply.651.15 = f64[36,36,36]{2,1,0} multiply(%param_7.242, %param_7.242), metadata={op_name="jit(compute_V_H_and_V_xc)/jit(main)/integer_pow" source_file="/pscratch/sd/j/jackm/lorrax_sandbox/sources/jax_xc_local/pbe.py" source_line=26 scheduling_name="multiply.651.15"}
  %constant_42_1 = f64[] constant(4)
  %broadcast.591.44 = f64[36,36,36]{2,1,0} broadcast(%constant_42_1), dimensions={}, metadata={scheduling_name="broadcast.591.44"}
  %multiply.655.15 = f64[36,36,36]{2,1,0} multiply(%multiply.651.15, %broadcast.591.44), metadata={op_name="jit(compute_V_H_and_V_xc)/jit(main)/mul" source_file="/pscratch/sd/j/jackm/lorrax_sandbox/sources/jax_xc_local/pbe.py" source_line=26 scheduling_name="multiply.655.15"}
  %param_19.59 = f64[36,36,36]{2,1,0} parameter(19), metadata={scheduling_name="param_19.59"}
  %param_20.61 = f64[36,36,36]{2,1,0} parameter(20), metadata={scheduling_name="param_20.61"}
  %add.154.34 = f64[36,36,36]{2,1,0} add(%param_19.59, %param_20.61), metadata={op_name="jit(compute_V_H_and_V_xc)/jit(main)/add" source_file="/pscratch/sd/j/jackm/lorrax_sandbox/sources/lorrax/src/psp/dft_operators.py" source_line=302 scheduling_name="add.154.34"}
  %constant_62_3 = f64[] constant(1e-10)
  %broadcast.583.76 = f64[36,36,36]{2,1,0} broadcast(%constant_62_3), dimensions={}, metadata={scheduling_name="broadcast.583.76"}
  %maximum.6.71 = f64[36,36,36]{2,1,0} maximum(%add.154.34, %broadcast.583.76), metadata={op_name="jit(compute_V_H_and_V_xc)/jit(main)/max" source_file="/pscratch/sd/j/jackm/lorrax_sandbox/sources/lorrax/src/psp/xc.py" source_line=95 scheduling_name="maximum.6.71"}
  %constant_56_3 = f64[] constant(1e-30)
  %broadcast.584.70 = f64[36,36,36]{2,1,0} broadcast(%constant_56_3), dimensions={}, metadata={scheduling_name="broadcast.584.70"}
  %maximum.7.65 = f64[36,36,36]{2,1,0} maximum(%maximum.6.71, %broadcast.584.70), metadata={op_name="jit(compute_V_H_and_V_xc)/jit(main)/max" source_file="/pscratch/sd/j/jackm/lorrax_sandbox/sources/jax_xc_local/pbe.py" source_line=20 scheduling_name="maximum.7.65"}
  %multiply.658.44 = f64[36,36,36]{2,1,0} multiply(%maximum.7.65, %maximum.7.65), metadata={op_name="jit(compute_V_H_and_V_xc)/jit(main)/integer_pow" source_file="/pscratch/sd/j/jackm/lorrax_sandbox/sources/jax_xc_local/pbe.py" source_line=26 scheduling_name="multiply.658.44"}
  %multiply.661.15 = f64[36,36,36]{2,1,0} multiply(%multiply.655.15, %multiply.658.44), metadata={op_name="jit(compute_V_H_and_V_xc)/jit(main)/mul" source_file="/pscratch/sd/j/jackm/lorrax_sandbox/sources/jax_xc_local/pbe.py" source_line=26 scheduling_name="multiply.661.15"}
  %constant_40_3 = f64[] constant(1e-60)
  %broadcast.592.28 = f64[36,36,36]{2,1,0} broadcast(%constant_40_3), dimensions={}, metadata={scheduling_name="broadcast.592.28"}
  %add.156.13 = f64[36,36,36]{2,1,0} add(%multiply.661.15, %broadcast.592.28), metadata={op_name="jit(compute_V_H_and_V_xc)/jit(main)/add" source_file="/pscratch/sd/j/jackm/lorrax_sandbox/sources/jax_xc_local/pbe.py" source_line=26 scheduling_name="add.156.13"}
  %divide.68.7 = f64[36,36,36]{2,1,0} divide(%broadcast.590.40, %add.156.13), metadata={op_name="jit(compute_V_H_and_V_xc)/jit(main)/div" source_file="/pscratch/sd/j/jackm/lorrax_sandbox/sources/jax_xc_local/pbe.py" source_line=26 scheduling_name="divide.68.7"}
  %constant_555_3 = f64[] constant(0.27302857309019535)
  %broadcast.593.22 = f64[36,36,36]{2,1,0} broadcast(%constant_555_3), dimensions={}, metadata={op_name="jit(compute_V_H_and_V_xc)/jit(main)/div" source_file="/pscratch/sd/j/jackm/lorrax_sandbox/sources/jax_xc_local/pbe.py" source_line=27 scheduling_name="broadcast.593.22"}
  %multiply.665.5 = f64[36,36,36]{2,1,0} multiply(%divide.68.7, %broadcast.593.22), metadata={op_name="jit(compute_V_H_and_V_xc)/jit(main)/div" source_file="/pscratch/sd/j/jackm/lorrax_sandbox/sources/jax_xc_local/pbe.py" source_line=27 scheduling_name="multiply.665.5"}
  %constant_54_7 = f64[] constant(1)
  %broadcast.559.151 = f64[36,36,36]{2,1,0} broadcast(%constant_54_7), dimensions={}, metadata={op_name="jit(compute_V_H_and_V_xc)/jit(main)/jit(_where)/broadcast_in_dim" source_file="/pscratch/sd/j/jackm/lorrax_sandbox/sources/lorrax/src/psp/dft_operators.py" source_line=118 scheduling_name="broadcast.559.151"}
  %add.157.3 = f64[36,36,36]{2,1,0} add(%multiply.665.5, %broadcast.559.151), metadata={op_name="jit(compute_V_H_and_V_xc)/jit(main)/add" source_file="/pscratch/sd/j/jackm/lorrax_sandbox/sources/jax_xc_local/pbe.py" source_line=27 scheduling_name="add.157.3"}
  %divide.69.5 = f64[36,36,36]{2,1,0} divide(%broadcast.589.16, %add.157.3), metadata={op_name="jit(compute_V_H_and_V_xc)/jit(main)/div" source_file="/pscratch/sd/j/jackm/lorrax_sandbox/sources/jax_xc_local/pbe.py" source_line=27 scheduling_name="divide.69.5"}
  %subtract.10.3 = f64[36,36,36]{2,1,0} subtract(%broadcast.588.4, %divide.69.5), metadata={op_name="jit(compute_V_H_and_V_xc)/jit(main)/sub" source_file="/pscratch/sd/j/jackm/lorrax_sandbox/sources/jax_xc_local/pbe.py" source_line=27 scheduling_name="subtract.10.3"}
  %multiply.669.9 = f64[36,36,36]{2,1,0} multiply(%multiply.648.5, %subtract.10.3), metadata={op_name="jit(compute_V_H_and_V_xc)/jit(main)/mul" source_file="/pscratch/sd/j/jackm/lorrax_sandbox/sources/jax_xc_local/pbe.py" source_line=29 scheduling_name="multiply.669.9"}
  %param_9.168 = f64[36,36,36]{2,1,0} parameter(9), metadata={scheduling_name="param_9.168"}
  %constant_26_2 = f64[] constant(0.2137)
  %broadcast.598.5 = f64[36,36,36]{2,1,0} broadcast(%constant_26_2), dimensions={}, metadata={scheduling_name="broadcast.598.5"}
  %multiply.675.5 = f64[36,36,36]{2,1,0} multiply(%param_9.168, %broadcast.598.5), metadata={op_name="jit(compute_V_H_and_V_xc)/jit(main)/mul" source_file="/pscratch/sd/j/jackm/lorrax_sandbox/sources/jax_xc_local/pbe.py" source_line=49 scheduling_name="multiply.675.5"}
  %add.158.7 = f64[36,36,36]{2,1,0} add(%multiply.675.5, %broadcast.559.151), metadata={op_name="jit(compute_V_H_and_V_xc)/jit(main)/add" source_file="/pscratch/sd/j/jackm/lorrax_sandbox/sources/jax_xc_local/pbe.py" source_line=49 scheduling_name="add.158.7"}
  %constant_24_2 = f64[] constant(-0.062182)
  %broadcast.600.5 = f64[36,36,36]{2,1,0} broadcast(%constant_24_2), dimensions={}, metadata={scheduling_name="broadcast.600.5"}
  %multiply.678.5 = f64[36,36,36]{2,1,0} multiply(%add.158.7, %broadcast.600.5), metadata={op_name="jit(compute_V_H_and_V_xc)/jit(main)/mul" source_file="/pscratch/sd/j/jackm/lorrax_sandbox/sources/jax_xc_local/pbe.py" source_line=49 scheduling_name="multiply.678.5"}
  %param_2.596 = f64[36,36,36]{2,1,0} parameter(2), metadata={scheduling_name="param_2.596"}
  %multiply.700.2 = f64[36,36,36]{2,1,0} multiply(%multiply.678.5, %param_2.596), metadata={op_name="jit(compute_V_H_and_V_xc)/jit(main)/mul" source_file="/pscratch/sd/j/jackm/lorrax_sandbox/sources/jax_xc_local/pbe.py" source_line=49 scheduling_name="multiply.700.2"}
  %param_8.190 = f64[36,36,36]{2,1,0} parameter(8), metadata={scheduling_name="param_8.190"}
  %multiply.702.17 = f64[36,36,36]{2,1,0} multiply(%param_8.190, %param_8.190), metadata={op_name="jit(compute_V_H_and_V_xc)/jit(main)/integer_pow" source_file="/pscratch/sd/j/jackm/lorrax_sandbox/sources/jax_xc_local/pbe.py" source_line=61 scheduling_name="multiply.702.17"}
  %multiply.703.17 = f64[36,36,36]{2,1,0} multiply(%multiply.702.17, %broadcast.591.44), metadata={op_name="jit(compute_V_H_and_V_xc)/jit(main)/mul" source_file="/pscratch/sd/j/jackm/lorrax_sandbox/sources/jax_xc_local/pbe.py" source_line=61 scheduling_name="multiply.703.17"}
  %multiply.704.17 = f64[36,36,36]{2,1,0} multiply(%multiply.703.17, %multiply.658.44), metadata={op_name="jit(compute_V_H_and_V_xc)/jit(main)/mul" source_file="/pscratch/sd/j/jackm/lorrax_sandbox/sources/jax_xc_local/pbe.py" source_line=61 scheduling_name="multiply.704.17"}
  %add.165.15 = f64[36,36,36]{2,1,0} add(%multiply.704.17, %broadcast.592.28), metadata={op_name="jit(compute_V_H_and_V_xc)/jit(main)/add" source_file="/pscratch/sd/j/jackm/lorrax_sandbox/sources/jax_xc_local/pbe.py" source_line=61 scheduling_name="add.165.15"}
  %divide.72.3 = f64[36,36,36]{2,1,0} divide(%broadcast.590.40, %add.165.15), metadata={op_name="jit(compute_V_H_and_V_xc)/jit(main)/div" source_file="/pscratch/sd/j/jackm/lorrax_sandbox/sources/jax_xc_local/pbe.py" source_line=61 scheduling_name="divide.72.3"}
  %constant_8_2 = f64[] constant(2.1461263399673647)
  %broadcast.612.89 = f64[36,36,36]{2,1,0} broadcast(%constant_8_2), dimensions={}, metadata={scheduling_name="broadcast.612.89"}
  %multiply.706.19 = f64[36,36,36]{2,1,0} multiply(%divide.72.3, %broadcast.612.89), metadata={op_name="jit(compute_V_H_and_V_xc)/jit(main)/mul" source_file="/pscratch/sd/j/jackm/lorrax_sandbox/sources/jax_xc_local/pbe.py" source_line=65 scheduling_name="multiply.706.19"}
  %param_11.178 = f64[36,36,36]{2,1,0} parameter(11), metadata={scheduling_name="param_11.178"}
  %multiply.716.27 = f64[36,36,36]{2,1,0} multiply(%param_11.178, %divide.72.3), metadata={op_name="jit(compute_V_H_and_V_xc)/jit(main)/mul" source_file="/pscratch/sd/j/jackm/lorrax_sandbox/sources/jax_xc_local/pbe.py" source_line=64 scheduling_name="multiply.716.27"}
  %add.167.41 = f64[36,36,36]{2,1,0} add(%multiply.716.27, %broadcast.559.151), metadata={op_name="jit(compute_V_H_and_V_xc)/jit(main)/add" source_file="/pscratch/sd/j/jackm/lorrax_sandbox/sources/jax_xc_local/pbe.py" source_line=65 scheduling_name="add.167.41"}
  %multiply.717.10 = f64[36,36,36]{2,1,0} multiply(%multiply.706.19, %add.167.41), metadata={op_name="jit(compute_V_H_and_V_xc)/jit(main)/mul" source_file="/pscratch/sd/j/jackm/lorrax_sandbox/sources/jax_xc_local/pbe.py" source_line=65 scheduling_name="multiply.717.10"}
  %multiply.719.13 = f64[36,36,36]{2,1,0} multiply(%multiply.716.27, %multiply.716.27), metadata={op_name="jit(compute_V_H_and_V_xc)/jit(main)/integer_pow" source_file="/pscratch/sd/j/jackm/lorrax_sandbox/sources/jax_xc_local/pbe.py" source_line=65 scheduling_name="multiply.719.13"}
  %add.168.13 = f64[36,36,36]{2,1,0} add(%add.167.41, %multiply.719.13), metadata={op_name="jit(compute_V_H_and_V_xc)/jit(main)/add" source_file="/pscratch/sd/j/jackm/lorrax_sandbox/sources/jax_xc_local/pbe.py" source_line=65 scheduling_name="add.168.13"}
  %divide.74.5 = f64[36,36,36]{2,1,0} divide(%multiply.717.10, %add.168.13), metadata={op_name="jit(compute_V_H_and_V_xc)/jit(main)/div" source_file="/pscratch/sd/j/jackm/lorrax_sandbox/sources/jax_xc_local/pbe.py" source_line=65 scheduling_name="divide.74.5"}
  %add.169.3 = f64[36,36,36]{2,1,0} add(%divide.74.5, %broadcast.559.151), metadata={op_name="jit(compute_V_H_and_V_xc)/jit(main)/add" source_file="/pscratch/sd/j/jackm/lorrax_sandbox/sources/jax_xc_local/pbe.py" source_line=65 scheduling_name="add.169.3"}
  %log.7.13 = f64[36,36,36]{2,1,0} log(%add.169.3), metadata={op_name="jit(compute_V_H_and_V_xc)/jit(main)/log" source_file="/pscratch/sd/j/jackm/lorrax_sandbox/sources/jax_xc_local/pbe.py" source_line=65 scheduling_name="log.7.13"}
  %constant_10_1 = f64[] constant(0.031090690869654894)
  %broadcast.618.10 = f64[36,36,36]{2,1,0} broadcast(%constant_10_1), dimensions={}, metadata={scheduling_name="broadcast.618.10"}
  %multiply.721.13 = f64[36,36,36]{2,1,0} multiply(%log.7.13, %broadcast.618.10), metadata={op_name="jit(compute_V_H_and_V_xc)/jit(main)/mul" source_file="/pscratch/sd/j/jackm/lorrax_sandbox/sources/jax_xc_local/pbe.py" source_line=65 scheduling_name="multiply.721.13"}
  %add.170.11 = f64[36,36,36]{2,1,0} add(%multiply.700.2, %multiply.721.13), metadata={op_name="jit(compute_V_H_and_V_xc)/jit(main)/add" source_file="/pscratch/sd/j/jackm/lorrax_sandbox/sources/jax_xc_local/pbe.py" source_line=67 scheduling_name="add.170.11"}
  %add.171.9 = f64[36,36,36]{2,1,0} add(%multiply.669.9, %add.170.11), metadata={op_name="jit(compute_V_H_and_V_xc)/jit(main)/add" source_file="/pscratch/sd/j/jackm/lorrax_sandbox/sources/jax_xc_local/pbe.py" source_line=78 scheduling_name="add.171.9"}
  %constant_52_3 = f64[] constant(2)
  %broadcast.619.29 = f64[36,36,36]{2,1,0} broadcast(%constant_52_3), dimensions={}, metadata={scheduling_name="broadcast.619.29"}
  %multiply.722.7 = f64[36,36,36]{2,1,0} multiply(%add.171.9, %broadcast.619.29), metadata={op_name="jit(compute_V_H_and_V_xc)/jit(main)/mul" source_file="/pscratch/sd/j/jackm/lorrax_sandbox/sources/jax_xc_local/pbe.py" source_line=78 scheduling_name="multiply.722.7"}
  %multiply.723.25 = f64[36,36,36]{2,1,0} multiply(%maximum.6.71, %broadcast.619.29), metadata={op_name="jit(compute_V_H_and_V_xc)/jit(main)/mul" source_file="/pscratch/sd/j/jackm/lorrax_sandbox/sources/jax_xc_local/pbe.py" source_line=78 scheduling_name="multiply.723.25"}
  %constant_549_3 = f64[] constant(0.062181381739309788)
  %broadcast.621.6 = f64[36,36,36]{2,1,0} broadcast(%constant_549_3), dimensions={}, metadata={op_name="jit(compute_V_H_and_V_xc)/jit(main)/mul" source_file="/pscratch/sd/j/jackm/lorrax_sandbox/sources/jax_xc_local/pbe.py" source_line=65 scheduling_name="broadcast.621.6"}
  %multiply.725.10 = f64[36,36,36]{2,1,0} multiply(%maximum.6.71, %broadcast.621.6), metadata={op_name="jit(compute_V_H_and_V_xc)/jit(main)/mul" source_file="/pscratch/sd/j/jackm/lorrax_sandbox/sources/jax_xc_local/pbe.py" source_line=65 scheduling_name="multiply.725.10"}
  %divide.75.7 = f64[36,36,36]{2,1,0} divide(%multiply.725.10, %add.169.3), metadata={op_name="jit(compute_V_H_and_V_xc)/jit(main)/div" source_file="/pscratch/sd/j/jackm/lorrax_sandbox/sources/jax_xc_local/pbe.py" source_line=65 scheduling_name="divide.75.7"}
  %multiply.726.3 = f64[36,36,36]{2,1,0} multiply(%add.168.13, %add.168.13), metadata={op_name="jit(compute_V_H_and_V_xc)/jit(main)/mul" source_file="/pscratch/sd/j/jackm/lorrax_sandbox/sources/jax_xc_local/pbe.py" source_line=65 scheduling_name="multiply.726.3"}
  %divide.76.3 = f64[36,36,36]{2,1,0} divide(%broadcast.559.151, %multiply.726.3), metadata={op_name="jit(compute_V_H_and_V_xc)/jit(main)/div" source_file="/pscratch/sd/j/jackm/lorrax_sandbox/sources/jax_xc_local/pbe.py" source_line=65 scheduling_name="divide.76.3"}
  %multiply.728.7 = f64[36,36,36]{2,1,0} multiply(%divide.75.7, %divide.76.3), metadata={op_name="jit(compute_V_H_and_V_xc)/jit(main)/mul" source_file="/pscratch/sd/j/jackm/lorrax_sandbox/sources/jax_xc_local/pbe.py" source_line=65 scheduling_name="multiply.728.7"}
  %multiply.729.5 = f64[36,36,36]{2,1,0} multiply(%multiply.728.7, %multiply.717.10), metadata={op_name="jit(compute_V_H_and_V_xc)/jit(main)/mul" source_file="/pscratch/sd/j/jackm/lorrax_sandbox/sources/jax_xc_local/pbe.py" source_line=65 scheduling_name="multiply.729.5"}
  %negate.40.3 = f64[36,36,36]{2,1,0} negate(%multiply.729.5), metadata={op_name="jit(compute_V_H_and_V_xc)/jit(main)/neg" source_file="/pscratch/sd/j/jackm/lorrax_sandbox/sources/jax_xc_local/pbe.py" source_line=65 scheduling_name="negate.40.3"}
  %multiply.730.11 = f64[36,36,36]{2,1,0} multiply(%multiply.716.27, %broadcast.619.29), metadata={op_name="jit(compute_V_H_and_V_xc)/jit(main)/mul" source_file="/pscratch/sd/j/jackm/lorrax_sandbox/sources/jax_xc_local/pbe.py" source_line=65 scheduling_name="multiply.730.11"}
  %multiply.731.11 = f64[36,36,36]{2,1,0} multiply(%negate.40.3, %multiply.730.11), metadata={op_name="jit(compute_V_H_and_V_xc)/jit(main)/mul" source_file="/pscratch/sd/j/jackm/lorrax_sandbox/sources/jax_xc_local/pbe.py" source_line=65 scheduling_name="multiply.731.11"}
  %add.172.11 = f64[36,36,36]{2,1,0} add(%multiply.731.11, %negate.40.3), metadata={op_name="jit(compute_V_H_and_V_xc)/jit(main)/add_any" source_file="/pscratch/sd/j/jackm/lorrax_sandbox/sources/jax_xc_local/pbe.py" source_line=65 scheduling_name="add.172.11"}
  %multiply.732.3 = f64[36,36,36]{2,1,0} multiply(%add.169.3, %add.168.13), metadata={scheduling_name="multiply.732.3"}
  %divide.77.3 = f64[36,36,36]{2,1,0} divide(%multiply.725.10, %multiply.732.3), metadata={op_name="jit(compute_V_H_and_V_xc)/jit(main)/div" source_file="/pscratch/sd/j/jackm/lorrax_sandbox/sources/jax_xc_local/pbe.py" source_line=65 scheduling_name="divide.77.3"}
  %multiply.733.6 = f64[36,36,36]{2,1,0} multiply(%multiply.706.19, %divide.77.3), metadata={op_name="jit(compute_V_H_and_V_xc)/jit(main)/mul" source_file="/pscratch/sd/j/jackm/lorrax_sandbox/sources/jax_xc_local/pbe.py" source_line=65 scheduling_name="multiply.733.6"}
  %add.173.9 = f64[36,36,36]{2,1,0} add(%add.172.11, %multiply.733.6), metadata={op_name="jit(compute_V_H_and_V_xc)/jit(main)/add_any" source_file="/pscratch/sd/j/jackm/lorrax_sandbox/sources/jax_xc_local/pbe.py" source_line=65 scheduling_name="add.173.9"}
  %multiply.735.6 = f64[36,36,36]{2,1,0} multiply(%add.173.9, %divide.72.3), metadata={op_name="jit(compute_V_H_and_V_xc)/jit(main)/mul" source_file="/pscratch/sd/j/jackm/lorrax_sandbox/sources/jax_xc_local/pbe.py" source_line=64 scheduling_name="multiply.735.6"}
  %negate.39.17 = f64[36,36,36]{2,1,0} negate(%multiply.700.2), metadata={op_name="jit(compute_V_H_and_V_xc)/jit(main)/neg" source_file="/pscratch/sd/j/jackm/lorrax_sandbox/sources/jax_xc_local/pbe.py" source_line=63 scheduling_name="negate.39.17"}
  %constant_163_1 = f64[] constant(32.163968442914822)
  %broadcast.614.41 = f64[36,36,36]{2,1,0} broadcast(%constant_163_1), dimensions={}, metadata={scheduling_name="broadcast.614.41"}
  %multiply.707.19 = f64[36,36,36]{2,1,0} multiply(%negate.39.17, %broadcast.614.41), metadata={op_name="jit(compute_V_H_and_V_xc)/jit(main)/div" source_file="/pscratch/sd/j/jackm/lorrax_sandbox/sources/jax_xc_local/pbe.py" source_line=63 scheduling_name="multiply.707.19"}
  %exponential.2.17 = f64[36,36,36]{2,1,0} exponential(%multiply.707.19), metadata={op_name="jit(compute_V_H_and_V_xc)/jit(main)/exp" source_file="/pscratch/sd/j/jackm/lorrax_sandbox/sources/jax_xc_local/pbe.py" source_line=63 scheduling_name="exponential.2.17"}
  %constant_576_1 = f64[] constant(-1)
  %broadcast.615.4 = f64[36,36,36]{2,1,0} broadcast(%constant_576_1), dimensions={}, metadata={op_name="jit(compute_V_H_and_V_xc)/jit(main)/add" source_file="/pscratch/sd/j/jackm/lorrax_sandbox/sources/jax_xc_local/pbe.py" source_line=63 scheduling_name="broadcast.615.4"}
  %add.166.4 = f64[36,36,36]{2,1,0} add(%exponential.2.17, %broadcast.615.4), metadata={op_name="jit(compute_V_H_and_V_xc)/jit(main)/add" source_file="/pscratch/sd/j/jackm/lorrax_sandbox/sources/jax_xc_local/pbe.py" source_line=63 scheduling_name="add.166.4"}
  %multiply.737.3 = f64[36,36,36]{2,1,0} multiply(%add.166.4, %add.166.4), metadata={op_name="jit(compute_V_H_and_V_xc)/jit(main)/mul" source_file="/pscratch/sd/j/jackm/lorrax_sandbox/sources/jax_xc_local/pbe.py" source_line=63 scheduling_name="multiply.737.3"}
  %divide.78.3 = f64[36,36,36]{2,1,0} divide(%broadcast.559.151, %multiply.737.3), metadata={op_name="jit(compute_V_H_and_V_xc)/jit(main)/div" source_file="/pscratch/sd/j/jackm/lorrax_sandbox/sources/jax_xc_local/pbe.py" source_line=63 scheduling_name="divide.78.3"}
  %multiply.738.6 = f64[36,36,36]{2,1,0} multiply(%multiply.735.6, %divide.78.3), metadata={op_name="jit(compute_V_H_and_V_xc)/jit(main)/mul" source_file="/pscratch/sd/j/jackm/lorrax_sandbox/sources/jax_xc_local/pbe.py" source_line=63 scheduling_name="multiply.738.6"}
  %multiply.739.15 = f64[36,36,36]{2,1,0} multiply(%multiply.738.6, %broadcast.612.89), metadata={op_name="jit(compute_V_H_and_V_xc)/jit(main)/mul" source_file="/pscratch/sd/j/jackm/lorrax_sandbox/sources/jax_xc_local/pbe.py" source_line=63 scheduling_name="multiply.739.15"}
  %negate.41.13 = f64[36,36,36]{2,1,0} negate(%multiply.739.15), metadata={op_name="jit(compute_V_H_and_V_xc)/jit(main)/neg" source_file="/pscratch/sd/j/jackm/lorrax_sandbox/sources/jax_xc_local/pbe.py" source_line=63 scheduling_name="negate.41.13"}
  %multiply.741.11 = f64[36,36,36]{2,1,0} multiply(%negate.41.13, %exponential.2.17), metadata={op_name="jit(compute_V_H_and_V_xc)/jit(main)/mul" source_file="/pscratch/sd/j/jackm/lorrax_sandbox/sources/jax_xc_local/pbe.py" source_line=63 scheduling_name="multiply.741.11"}
  %multiply.742.11 = f64[36,36,36]{2,1,0} multiply(%multiply.741.11, %broadcast.614.41), metadata={op_name="jit(compute_V_H_and_V_xc)/jit(main)/div" source_file="/pscratch/sd/j/jackm/lorrax_sandbox/sources/jax_xc_local/pbe.py" source_line=63 scheduling_name="multiply.742.11"}
  %negate.42.9 = f64[36,36,36]{2,1,0} negate(%multiply.742.11), metadata={op_name="jit(compute_V_H_and_V_xc)/jit(main)/neg" source_file="/pscratch/sd/j/jackm/lorrax_sandbox/sources/jax_xc_local/pbe.py" source_line=63 scheduling_name="negate.42.9"}
  %add.174.6 = f64[36,36,36]{2,1,0} add(%multiply.723.25, %negate.42.9), metadata={op_name="jit(compute_V_H_and_V_xc)/jit(main)/add_any" source_file="/pscratch/sd/j/jackm/lorrax_sandbox/sources/jax_xc_local/pbe.py" source_line=63 scheduling_name="add.174.6"}
  %multiply.744.5 = f64[36,36,36]{2,1,0} multiply(%multiply.678.5, %add.174.6), metadata={op_name="jit(compute_V_H_and_V_xc)/jit(main)/mul" source_file="/pscratch/sd/j/jackm/lorrax_sandbox/sources/jax_xc_local/pbe.py" source_line=49 scheduling_name="multiply.744.5"}
  %param_15.94 = f64[36,36,36]{2,1,0} parameter(15), metadata={scheduling_name="param_15.94"}
  %divide.79.5 = f64[36,36,36]{2,1,0} divide(%multiply.744.5, %param_15.94), metadata={op_name="jit(compute_V_H_and_V_xc)/jit(main)/div" source_file="/pscratch/sd/j/jackm/lorrax_sandbox/sources/jax_xc_local/pbe.py" source_line=49 scheduling_name="divide.79.5"}
  %param_3.469 = f64[36,36,36]{2,1,0} parameter(3), metadata={scheduling_name="param_3.469"}
  %constant_22_1 = f64[] constant(7.5957)
  %broadcast.602.4 = f64[36,36,36]{2,1,0} broadcast(%constant_22_1), dimensions={}, metadata={scheduling_name="broadcast.602.4"}
  %multiply.681.4 = f64[36,36,36]{2,1,0} multiply(%param_3.469, %broadcast.602.4), metadata={op_name="jit(compute_V_H_and_V_xc)/jit(main)/mul" source_file="/pscratch/sd/j/jackm/lorrax_sandbox/sources/jax_xc_local/pbe.py" source_line=51 scheduling_name="multiply.681.4"}
  %constant_20_1 = f64[] constant(3.5876)
  %broadcast.603.4 = f64[36,36,36]{2,1,0} broadcast(%constant_20_1), dimensions={}, metadata={scheduling_name="broadcast.603.4"}
  %multiply.682.4 = f64[36,36,36]{2,1,0} multiply(%param_9.168, %broadcast.603.4), metadata={op_name="jit(compute_V_H_and_V_xc)/jit(main)/mul" source_file="/pscratch/sd/j/jackm/lorrax_sandbox/sources/jax_xc_local/pbe.py" source_line=51 scheduling_name="multiply.682.4"}
  %add.160.4 = f64[36,36,36]{2,1,0} add(%multiply.681.4, %multiply.682.4), metadata={op_name="jit(compute_V_H_and_V_xc)/jit(main)/add" source_file="/pscratch/sd/j/jackm/lorrax_sandbox/sources/jax_xc_local/pbe.py" source_line=51 scheduling_name="add.160.4"}
  %constant_18_1 = f64[] constant(1.6382)
  %broadcast.604.15 = f64[36,36,36]{2,1,0} broadcast(%constant_18_1), dimensions={}, metadata={scheduling_name="broadcast.604.15"}
  %multiply.686.9 = f64[36,36,36]{2,1,0} multiply(%param_9.168, %broadcast.604.15), metadata={op_name="jit(compute_V_H_and_V_xc)/jit(main)/mul" source_file="/pscratch/sd/j/jackm/lorrax_sandbox/sources/jax_xc_local/pbe.py" source_line=51 scheduling_name="multiply.686.9"}
  %multiply.693.4 = f64[36,36,36]{2,1,0} multiply(%multiply.686.9, %param_3.469), metadata={op_name="jit(compute_V_H_and_V_xc)/jit(main)/mul" source_file="/pscratch/sd/j/jackm/lorrax_sandbox/sources/jax_xc_local/pbe.py" source_line=51 scheduling_name="multiply.693.4"}
  %add.161.4 = f64[36,36,36]{2,1,0} add(%add.160.4, %multiply.693.4), metadata={op_name="jit(compute_V_H_and_V_xc)/jit(main)/add" source_file="/pscratch/sd/j/jackm/lorrax_sandbox/sources/jax_xc_local/pbe.py" source_line=51 scheduling_name="add.161.4"}
  %multiply.696.7 = f64[36,36,36]{2,1,0} multiply(%param_9.168, %param_9.168), metadata={op_name="jit(compute_V_H_and_V_xc)/jit(main)/integer_pow" source_file="/pscratch/sd/j/jackm/lorrax_sandbox/sources/jax_xc_local/pbe.py" source_line=51 scheduling_name="multiply.696.7"}
  %constant_16_1 = f64[] constant(0.49294)
  %broadcast.605.4 = f64[36,36,36]{2,1,0} broadcast(%constant_16_1), dimensions={}, metadata={scheduling_name="broadcast.605.4"}
  %multiply.698.7 = f64[36,36,36]{2,1,0} multiply(%multiply.696.7, %broadcast.605.4), metadata={op_name="jit(compute_V_H_and_V_xc)/jit(main)/mul" source_file="/pscratch/sd/j/jackm/lorrax_sandbox/sources/jax_xc_local/pbe.py" source_line=51 scheduling_name="multiply.698.7"}
  %add.162.4 = f64[36,36,36]{2,1,0} add(%add.161.4, %multiply.698.7), metadata={op_name="jit(compute_V_H_and_V_xc)/jit(main)/add" source_file="/pscratch/sd/j/jackm/lorrax_sandbox/sources/jax_xc_local/pbe.py" source_line=51 scheduling_name="add.162.4"}
  %constant_14_1 = f64[] constant(0.062182)
  %broadcast.606.13 = f64[36,36,36]{2,1,0} broadcast(%constant_14_1), dimensions={}, metadata={scheduling_name="broadcast.606.13"}
  %multiply.699.7 = f64[36,36,36]{2,1,0} multiply(%add.162.4, %broadcast.606.13), metadata={op_name="jit(compute_V_H_and_V_xc)/jit(main)/mul" source_file="/pscratch/sd/j/jackm/lorrax_sandbox/sources/jax_xc_local/pbe.py" source_line=50 scheduling_name="multiply.699.7"}
  %multiply.748.3 = f64[36,36,36]{2,1,0} multiply(%multiply.699.7, %multiply.699.7), metadata={op_name="jit(compute_V_H_and_V_xc)/jit(main)/mul" source_file="/pscratch/sd/j/jackm/lorrax_sandbox/sources/jax_xc_local/pbe.py" source_line=50 scheduling_name="multiply.748.3"}
  %divide.80.3 = f64[36,36,36]{2,1,0} divide(%broadcast.559.151, %multiply.748.3), metadata={op_name="jit(compute_V_H_and_V_xc)/jit(main)/div" source_file="/pscratch/sd/j/jackm/lorrax_sandbox/sources/jax_xc_local/pbe.py" source_line=50 scheduling_name="divide.80.3"}
  %multiply.751.5 = f64[36,36,36]{2,1,0} multiply(%divide.79.5, %divide.80.3), metadata={op_name="jit(compute_V_H_and_V_xc)/jit(main)/mul" source_file="/pscratch/sd/j/jackm/lorrax_sandbox/sources/jax_xc_local/pbe.py" source_line=50 scheduling_name="multiply.751.5"}
  %negate.43.3 = f64[36,36,36]{2,1,0} negate(%multiply.751.5), metadata={op_name="jit(compute_V_H_and_V_xc)/jit(main)/neg" source_file="/pscratch/sd/j/jackm/lorrax_sandbox/sources/jax_xc_local/pbe.py" source_line=50 scheduling_name="negate.43.3"}
  %constant_550_1 = f64[] constant(0.03065199508)
  %broadcast.628.42 = f64[36,36,36]{2,1,0} broadcast(%constant_550_1), dimensions={}, metadata={op_name="jit(compute_V_H_and_V_xc)/jit(main)/mul" source_file="/pscratch/sd/j/jackm/lorrax_sandbox/sources/jax_xc_local/pbe.py" source_line=51 scheduling_name="broadcast.628.42"}
  %multiply.755.21 = f64[36,36,36]{2,1,0} multiply(%negate.43.3, %broadcast.628.42), metadata={op_name="jit(compute_V_H_and_V_xc)/jit(main)/mul" source_file="/pscratch/sd/j/jackm/lorrax_sandbox/sources/jax_xc_local/pbe.py" source_line=51 scheduling_name="multiply.755.21"}
  %multiply.757.3 = f64[36,36,36]{2,1,0} multiply(%param_9.168, %broadcast.619.29), metadata={op_name="jit(compute_V_H_and_V_xc)/jit(main)/mul" source_file="/pscratch/sd/j/jackm/lorrax_sandbox/sources/jax_xc_local/pbe.py" source_line=51 scheduling_name="multiply.757.3"}
  %multiply.759.19 = f64[36,36,36]{2,1,0} multiply(%multiply.755.21, %multiply.757.3), metadata={op_name="jit(compute_V_H_and_V_xc)/jit(main)/mul" source_file="/pscratch/sd/j/jackm/lorrax_sandbox/sources/jax_xc_local/pbe.py" source_line=51 scheduling_name="multiply.759.19"}
  %multiply.760.3 = f64[36,36,36]{2,1,0} multiply(%negate.43.3, %broadcast.606.13), metadata={op_name="jit(compute_V_H_and_V_xc)/jit(main)/mul" source_file="/pscratch/sd/j/jackm/lorrax_sandbox/sources/jax_xc_local/pbe.py" source_line=50 scheduling_name="multiply.760.3"}
  %multiply.761.1 = f64[36,36,36]{2,1,0} multiply(%multiply.760.3, %param_3.469), metadata={op_name="jit(compute_V_H_and_V_xc)/jit(main)/mul" source_file="/pscratch/sd/j/jackm/lorrax_sandbox/sources/jax_xc_local/pbe.py" source_line=51 scheduling_name="multiply.761.1"}
  %multiply.764.3 = f64[36,36,36]{2,1,0} multiply(%multiply.761.1, %broadcast.604.15), metadata={op_name="jit(compute_V_H_and_V_xc)/jit(main)/mul" source_file="/pscratch/sd/j/jackm/lorrax_sandbox/sources/jax_xc_local/pbe.py" source_line=51 scheduling_name="multiply.764.3"}
  %add.175.17 = f64[36,36,36]{2,1,0} add(%multiply.759.19, %multiply.764.3), metadata={op_name="jit(compute_V_H_and_V_xc)/jit(main)/add_any" source_file="/pscratch/sd/j/jackm/lorrax_sandbox/sources/jax_xc_local/pbe.py" source_line=51 scheduling_name="add.175.17"}
  %constant_551_1 = f64[] constant(0.2230841432)
  %broadcast.632.34 = f64[36,36,36]{2,1,0} broadcast(%constant_551_1), dimensions={}, metadata={op_name="jit(compute_V_H_and_V_xc)/jit(main)/mul" source_file="/pscratch/sd/j/jackm/lorrax_sandbox/sources/jax_xc_local/pbe.py" source_line=51 scheduling_name="broadcast.632.34"}
  %multiply.765.17 = f64[36,36,36]{2,1,0} multiply(%negate.43.3, %broadcast.632.34), metadata={op_name="jit(compute_V_H_and_V_xc)/jit(main)/mul" source_file="/pscratch/sd/j/jackm/lorrax_sandbox/sources/jax_xc_local/pbe.py" source_line=51 scheduling_name="multiply.765.17"}
  %add.176.15 = f64[36,36,36]{2,1,0} add(%add.175.17, %multiply.765.17), metadata={op_name="jit(compute_V_H_and_V_xc)/jit(main)/add_any" source_file="/pscratch/sd/j/jackm/lorrax_sandbox/sources/jax_xc_local/pbe.py" source_line=51 scheduling_name="add.176.15"}
  %multiply.768.1 = f64[36,36,36]{2,1,0} multiply(%multiply.686.9, %multiply.760.3), metadata={op_name="jit(compute_V_H_and_V_xc)/jit(main)/mul" source_file="/pscratch/sd/j/jackm/lorrax_sandbox/sources/jax_xc_local/pbe.py" source_line=51 scheduling_name="multiply.768.1"}
  %constant_552_1 = f64[] constant(0.4723158174)
  %broadcast.633.22 = f64[36,36,36]{2,1,0} broadcast(%constant_552_1), dimensions={}, metadata={op_name="jit(compute_V_H_and_V_xc)/jit(main)/mul" source_file="/pscratch/sd/j/jackm/lorrax_sandbox/sources/jax_xc_local/pbe.py" source_line=51 scheduling_name="broadcast.633.22"}
  %multiply.769.11 = f64[36,36,36]{2,1,0} multiply(%negate.43.3, %broadcast.633.22), metadata={op_name="jit(compute_V_H_and_V_xc)/jit(main)/mul" source_file="/pscratch/sd/j/jackm/lorrax_sandbox/sources/jax_xc_local/pbe.py" source_line=51 scheduling_name="multiply.769.11"}
  %add.177.9 = f64[36,36,36]{2,1,0} add(%multiply.768.1, %multiply.769.11), metadata={op_name="jit(compute_V_H_and_V_xc)/jit(main)/add_any" source_file="/pscratch/sd/j/jackm/lorrax_sandbox/sources/jax_xc_local/pbe.py" source_line=51 scheduling_name="add.177.9"}
  %constant_28_1 = f64[] constant(0.5)
  %broadcast.634.6 = f64[36,36,36]{2,1,0} broadcast(%constant_28_1), dimensions={}, metadata={scheduling_name="broadcast.634.6"}
  %divide.81.3 = f64[36,36,36]{2,1,0} divide(%broadcast.634.6, %param_3.469), metadata={op_name="jit(compute_V_H_and_V_xc)/jit(main)/div" source_file="/pscratch/sd/j/jackm/lorrax_sandbox/sources/jax_xc_local/pbe.py" source_line=48 scheduling_name="divide.81.3"}
  %multiply.770.7 = f64[36,36,36]{2,1,0} multiply(%add.177.9, %divide.81.3), metadata={op_name="jit(compute_V_H_and_V_xc)/jit(main)/mul" source_file="/pscratch/sd/j/jackm/lorrax_sandbox/sources/jax_xc_local/pbe.py" source_line=48 scheduling_name="multiply.770.7"}
  %add.178.13 = f64[36,36,36]{2,1,0} add(%add.176.15, %multiply.770.7), metadata={op_name="jit(compute_V_H_and_V_xc)/jit(main)/add_any" source_file="/pscratch/sd/j/jackm/lorrax_sandbox/sources/jax_xc_local/pbe.py" source_line=48 scheduling_name="add.178.13"}
  %multiply.777.1 = f64[36,36,36]{2,1,0} multiply(%add.174.6, %param_2.596), metadata={op_name="jit(compute_V_H_and_V_xc)/jit(main)/mul" source_file="/pscratch/sd/j/jackm/lorrax_sandbox/sources/jax_xc_local/pbe.py" source_line=49 scheduling_name="multiply.777.1"}
  %constant_553_1 = f64[] constant(-0.0132882934)
  %broadcast.635.14 = f64[36,36,36]{2,1,0} broadcast(%constant_553_1), dimensions={}, metadata={op_name="jit(compute_V_H_and_V_xc)/jit(main)/mul" source_file="/pscratch/sd/j/jackm/lorrax_sandbox/sources/jax_xc_local/pbe.py" source_line=49 scheduling_name="broadcast.635.14"}
  %multiply.778.7 = f64[36,36,36]{2,1,0} multiply(%multiply.777.1, %broadcast.635.14), metadata={op_name="jit(compute_V_H_and_V_xc)/jit(main)/mul" source_file="/pscratch/sd/j/jackm/lorrax_sandbox/sources/jax_xc_local/pbe.py" source_line=49 scheduling_name="multiply.778.7"}
  %add.179.11 = f64[36,36,36]{2,1,0} add(%add.178.13, %multiply.778.7), metadata={op_name="jit(compute_V_H_and_V_xc)/jit(main)/add_any" source_file="/pscratch/sd/j/jackm/lorrax_sandbox/sources/jax_xc_local/pbe.py" source_line=49 scheduling_name="add.179.11"}
  %param_21.61 = f64[36,36,36]{2,1,0} parameter(21), metadata={scheduling_name="param_21.61"}
  %constant_46_1 = f64[] constant(-0.66666666666666674)
  %broadcast.636.6 = f64[36,36,36]{2,1,0} broadcast(%constant_46_1), dimensions={}, metadata={scheduling_name="broadcast.636.6"}
  %power.10.3 = f64[36,36,36]{2,1,0} power(%param_21.61, %broadcast.636.6), metadata={op_name="jit(compute_V_H_and_V_xc)/jit(main)/pow" source_file="/pscratch/sd/j/jackm/lorrax_sandbox/sources/jax_xc_local/pbe.py" source_line=38 scheduling_name="power.10.3"}
  %constant_48_1 = f64[] constant(0.33333333333333331)
  %broadcast.586.8 = f64[36,36,36]{2,1,0} broadcast(%constant_48_1), dimensions={}, metadata={scheduling_name="broadcast.586.8"}
  %multiply.780.3 = f64[36,36,36]{2,1,0} multiply(%power.10.3, %broadcast.586.8), metadata={op_name="jit(compute_V_H_and_V_xc)/jit(main)/mul" source_file="/pscratch/sd/j/jackm/lorrax_sandbox/sources/jax_xc_local/pbe.py" source_line=38 scheduling_name="multiply.780.3"}
  %multiply.781.9 = f64[36,36,36]{2,1,0} multiply(%add.179.11, %multiply.780.3), metadata={op_name="jit(compute_V_H_and_V_xc)/jit(main)/mul" source_file="/pscratch/sd/j/jackm/lorrax_sandbox/sources/jax_xc_local/pbe.py" source_line=38 scheduling_name="multiply.781.9"}
  %constant_32_1 = f64[] constant(12.566370614359172)
  %broadcast.596.13 = f64[36,36,36]{2,1,0} broadcast(%constant_32_1), dimensions={}, metadata={scheduling_name="broadcast.596.13"}
  %multiply.673.7 = f64[36,36,36]{2,1,0} multiply(%maximum.7.65, %broadcast.596.13), metadata={op_name="jit(compute_V_H_and_V_xc)/jit(main)/mul" source_file="/pscratch/sd/j/jackm/lorrax_sandbox/sources/jax_xc_local/pbe.py" source_line=38 scheduling_name="multiply.673.7"}
  %multiply.782.3 = f64[36,36,36]{2,1,0} multiply(%multiply.673.7, %multiply.673.7), metadata={op_name="jit(compute_V_H_and_V_xc)/jit(main)/mul" source_file="/pscratch/sd/j/jackm/lorrax_sandbox/sources/jax_xc_local/pbe.py" source_line=38 scheduling_name="multiply.782.3"}
  %divide.82.3 = f64[36,36,36]{2,1,0} divide(%broadcast.559.151, %multiply.782.3), metadata={op_name="jit(compute_V_H_and_V_xc)/jit(main)/div" source_file="/pscratch/sd/j/jackm/lorrax_sandbox/sources/jax_xc_local/pbe.py" source_line=38 scheduling_name="divide.82.3"}
  %multiply.783.7 = f64[36,36,36]{2,1,0} multiply(%multiply.781.9, %divide.82.3), metadata={op_name="jit(compute_V_H_and_V_xc)/jit(main)/mul" source_file="/pscratch/sd/j/jackm/lorrax_sandbox/sources/jax_xc_local/pbe.py" source_line=38 scheduling_name="multiply.783.7"}
  %constant_30_1 = f64[] constant(3)
  %broadcast.595.11 = f64[36,36,36]{2,1,0} broadcast(%constant_30_1), dimensions={}, metadata={scheduling_name="broadcast.595.11"}
  %multiply.784.5 = f64[36,36,36]{2,1,0} multiply(%multiply.783.7, %broadcast.595.11), metadata={op_name="jit(compute_V_H_and_V_xc)/jit(main)/mul" source_file="/pscratch/sd/j/jackm/lorrax_sandbox/sources/jax_xc_local/pbe.py" source_line=38 scheduling_name="multiply.784.5"}
  %negate.44.3 = f64[36,36,36]{2,1,0} negate(%multiply.784.5), metadata={op_name="jit(compute_V_H_and_V_xc)/jit(main)/neg" source_file="/pscratch/sd/j/jackm/lorrax_sandbox/sources/jax_xc_local/pbe.py" source_line=38 scheduling_name="negate.44.3"}
  %multiply.785.3 = f64[36,36,36]{2,1,0} multiply(%negate.44.3, %broadcast.596.13), metadata={op_name="jit(compute_V_H_and_V_xc)/jit(main)/mul" source_file="/pscratch/sd/j/jackm/lorrax_sandbox/sources/jax_xc_local/pbe.py" source_line=38 scheduling_name="multiply.785.3"}
  %multiply.786.1 = f64[36,36,36]{2,1,0} multiply(%param_11.178, %add.173.9), metadata={op_name="jit(compute_V_H_and_V_xc)/jit(main)/mul" source_file="/pscratch/sd/j/jackm/lorrax_sandbox/sources/jax_xc_local/pbe.py" source_line=64 scheduling_name="multiply.786.1"}
  %multiply.788.13 = f64[36,36,36]{2,1,0} multiply(%divide.77.3, %add.167.41), metadata={op_name="jit(compute_V_H_and_V_xc)/jit(main)/mul" source_file="/pscratch/sd/j/jackm/lorrax_sandbox/sources/jax_xc_local/pbe.py" source_line=65 scheduling_name="multiply.788.13"}
  %multiply.791.11 = f64[36,36,36]{2,1,0} multiply(%multiply.788.13, %broadcast.612.89), metadata={op_name="jit(compute_V_H_and_V_xc)/jit(main)/mul" source_file="/pscratch/sd/j/jackm/lorrax_sandbox/sources/jax_xc_local/pbe.py" source_line=65 scheduling_name="multiply.791.11"}
  %add.180.9 = f64[36,36,36]{2,1,0} add(%multiply.786.1, %multiply.791.11), metadata={op_name="jit(compute_V_H_and_V_xc)/jit(main)/add_any" source_file="/pscratch/sd/j/jackm/lorrax_sandbox/sources/jax_xc_local/pbe.py" source_line=65 scheduling_name="add.180.9"}
  %multiply.793.3 = f64[36,36,36]{2,1,0} multiply(%add.165.15, %add.165.15), metadata={op_name="jit(compute_V_H_and_V_xc)/jit(main)/mul" source_file="/pscratch/sd/j/jackm/lorrax_sandbox/sources/jax_xc_local/pbe.py" source_line=61 scheduling_name="multiply.793.3"}
  %divide.83.3 = f64[36,36,36]{2,1,0} divide(%broadcast.559.151, %multiply.793.3), metadata={op_name="jit(compute_V_H_and_V_xc)/jit(main)/div" source_file="/pscratch/sd/j/jackm/lorrax_sandbox/sources/jax_xc_local/pbe.py" source_line=61 scheduling_name="divide.83.3"}
  %multiply.796.7 = f64[36,36,36]{2,1,0} multiply(%add.180.9, %divide.83.3), metadata={op_name="jit(compute_V_H_and_V_xc)/jit(main)/mul" source_file="/pscratch/sd/j/jackm/lorrax_sandbox/sources/jax_xc_local/pbe.py" source_line=61 scheduling_name="multiply.796.7"}
  %multiply.797.5 = f64[36,36,36]{2,1,0} multiply(%multiply.796.7, %broadcast.590.40), metadata={op_name="jit(compute_V_H_and_V_xc)/jit(main)/mul" source_file="/pscratch/sd/j/jackm/lorrax_sandbox/sources/jax_xc_local/pbe.py" source_line=61 scheduling_name="multiply.797.5"}
  %negate.45.3 = f64[36,36,36]{2,1,0} negate(%multiply.797.5), metadata={op_name="jit(compute_V_H_and_V_xc)/jit(main)/neg" source_file="/pscratch/sd/j/jackm/lorrax_sandbox/sources/jax_xc_local/pbe.py" source_line=61 scheduling_name="negate.45.3"}
  %multiply.799.3 = f64[36,36,36]{2,1,0} multiply(%multiply.703.17, %negate.45.3), metadata={op_name="jit(compute_V_H_and_V_xc)/jit(main)/mul" source_file="/pscratch/sd/j/jackm/lorrax_sandbox/sources/jax_xc_local/pbe.py" source_line=61 scheduling_name="multiply.799.3"}
  %multiply.800.3 = f64[36,36,36]{2,1,0} multiply(%maximum.7.65, %broadcast.619.29), metadata={op_name="jit(compute_V_H_and_V_xc)/jit(main)/mul" source_file="/pscratch/sd/j/jackm/lorrax_sandbox/sources/jax_xc_local/pbe.py" source_line=61 scheduling_name="multiply.800.3"}
  %multiply.801.3 = f64[36,36,36]{2,1,0} multiply(%multiply.799.3, %multiply.800.3), metadata={op_name="jit(compute_V_H_and_V_xc)/jit(main)/mul" source_file="/pscratch/sd/j/jackm/lorrax_sandbox/sources/jax_xc_local/pbe.py" source_line=61 scheduling_name="multiply.801.3"}
  %add.181.3 = f64[36,36,36]{2,1,0} add(%multiply.785.3, %multiply.801.3), metadata={op_name="jit(compute_V_H_and_V_xc)/jit(main)/add_any" source_file="/pscratch/sd/j/jackm/lorrax_sandbox/sources/jax_xc_local/pbe.py" source_line=61 scheduling_name="add.181.3"}
  %multiply.803.3 = f64[36,36,36]{2,1,0} multiply(%negate.45.3, %multiply.658.44), metadata={op_name="jit(compute_V_H_and_V_xc)/jit(main)/mul" source_file="/pscratch/sd/j/jackm/lorrax_sandbox/sources/jax_xc_local/pbe.py" source_line=61 scheduling_name="multiply.803.3"}
  %multiply.804.3 = f64[36,36,36]{2,1,0} multiply(%multiply.803.3, %broadcast.591.44), metadata={op_name="jit(compute_V_H_and_V_xc)/jit(main)/mul" source_file="/pscratch/sd/j/jackm/lorrax_sandbox/sources/jax_xc_local/pbe.py" source_line=61 scheduling_name="multiply.804.3"}
  %multiply.808.3 = f64[36,36,36]{2,1,0} multiply(%param_8.190, %broadcast.619.29), metadata={op_name="jit(compute_V_H_and_V_xc)/jit(main)/mul" source_file="/pscratch/sd/j/jackm/lorrax_sandbox/sources/jax_xc_local/pbe.py" source_line=61 scheduling_name="multiply.808.3"}
  %multiply.811.1 = f64[36,36,36]{2,1,0} multiply(%multiply.804.3, %multiply.808.3), metadata={op_name="jit(compute_V_H_and_V_xc)/jit(main)/mul" source_file="/pscratch/sd/j/jackm/lorrax_sandbox/sources/jax_xc_local/pbe.py" source_line=61 scheduling_name="multiply.811.1"}
  %divide.84.3 = f64[36,36,36]{2,1,0} divide(%broadcast.634.6, %param_8.190), metadata={op_name="jit(compute_V_H_and_V_xc)/jit(main)/div" source_file="/pscratch/sd/j/jackm/lorrax_sandbox/sources/jax_xc_local/pbe.py" source_line=60 scheduling_name="divide.84.3"}
  %multiply.812.1 = f64[36,36,36]{2,1,0} multiply(%multiply.811.1, %divide.84.3), metadata={op_name="jit(compute_V_H_and_V_xc)/jit(main)/mul" source_file="/pscratch/sd/j/jackm/lorrax_sandbox/sources/jax_xc_local/pbe.py" source_line=60 scheduling_name="multiply.812.1"}
  %constant_554_1 = f64[] constant(1.2732395447351628)
  %broadcast.609.9 = f64[36,36,36]{2,1,0} broadcast(%constant_554_1), dimensions={}, metadata={op_name="jit(compute_V_H_and_V_xc)/jit(main)/div" source_file="/pscratch/sd/j/jackm/lorrax_sandbox/sources/jax_xc_local/pbe.py" source_line=60 scheduling_name="broadcast.609.9"}
  %multiply.814.3 = f64[36,36,36]{2,1,0} multiply(%multiply.812.1, %broadcast.609.9), metadata={op_name="jit(compute_V_H_and_V_xc)/jit(main)/mul" source_file="/pscratch/sd/j/jackm/lorrax_sandbox/sources/jax_xc_local/pbe.py" source_line=60 scheduling_name="multiply.814.3"}
  %constant_50_1 = f64[] constant(29.608813203268074)
  %broadcast.585.19 = f64[36,36,36]{2,1,0} broadcast(%constant_50_1), dimensions={}, metadata={scheduling_name="broadcast.585.19"}
  %multiply.646.7 = f64[36,36,36]{2,1,0} multiply(%maximum.7.65, %broadcast.585.19), metadata={op_name="jit(compute_V_H_and_V_xc)/jit(main)/mul" source_file="/pscratch/sd/j/jackm/lorrax_sandbox/sources/jax_xc_local/pbe.py" source_line=21 scheduling_name="multiply.646.7"}
  %power.11.3 = f64[36,36,36]{2,1,0} power(%multiply.646.7, %broadcast.636.6), metadata={op_name="jit(compute_V_H_and_V_xc)/jit(main)/pow" source_file="/pscratch/sd/j/jackm/lorrax_sandbox/sources/jax_xc_local/pbe.py" source_line=59 scheduling_name="power.11.3"}
  %multiply.817.3 = f64[36,36,36]{2,1,0} multiply(%power.11.3, %broadcast.586.8), metadata={op_name="jit(compute_V_H_and_V_xc)/jit(main)/mul" source_file="/pscratch/sd/j/jackm/lorrax_sandbox/sources/jax_xc_local/pbe.py" source_line=59 scheduling_name="multiply.817.3"}
  %multiply.822.1 = f64[36,36,36]{2,1,0} multiply(%multiply.814.3, %multiply.817.3), metadata={op_name="jit(compute_V_H_and_V_xc)/jit(main)/mul" source_file="/pscratch/sd/j/jackm/lorrax_sandbox/sources/jax_xc_local/pbe.py" source_line=59 scheduling_name="multiply.822.1"}
  %multiply.824.3 = f64[36,36,36]{2,1,0} multiply(%multiply.822.1, %broadcast.585.19), metadata={op_name="jit(compute_V_H_and_V_xc)/jit(main)/mul" source_file="/pscratch/sd/j/jackm/lorrax_sandbox/sources/jax_xc_local/pbe.py" source_line=59 scheduling_name="multiply.824.3"}
  %add.182.3 = f64[36,36,36]{2,1,0} add(%add.181.3, %multiply.824.3), metadata={op_name="jit(compute_V_H_and_V_xc)/jit(main)/add_any" source_file="/pscratch/sd/j/jackm/lorrax_sandbox/sources/jax_xc_local/pbe.py" source_line=59 scheduling_name="add.182.3"}
  %compare.58.5 = pred[36,36,36]{2,1,0} compare(%maximum.6.71, %maximum.7.65), direction=EQ, metadata={op_name="jit(compute_V_H_and_V_xc)/jit(main)/eq" source_file="/pscratch/sd/j/jackm/lorrax_sandbox/sources/jax_xc_local/pbe.py" source_line=37 scheduling_name="compare.58.5"}
  %select.31.5 = f64[36,36,36]{2,1,0} select(%compare.58.5, %broadcast.559.151, %broadcast.590.40), metadata={op_name="jit(compute_V_H_and_V_xc)/jit(main)/select_n" source_file="/pscratch/sd/j/jackm/lorrax_sandbox/sources/jax_xc_local/pbe.py" source_line=37 scheduling_name="select.31.5"}
  %compare.59.5 = pred[36,36,36]{2,1,0} compare(%broadcast.584.70, %maximum.7.65), direction=EQ, metadata={op_name="jit(compute_V_H_and_V_xc)/jit(main)/eq" source_file="/pscratch/sd/j/jackm/lorrax_sandbox/sources/jax_xc_local/pbe.py" source_line=37 scheduling_name="compare.59.5"}
  %select.32.5 = f64[36,36,36]{2,1,0} select(%compare.59.5, %broadcast.619.29, %broadcast.559.151), metadata={op_name="jit(compute_V_H_and_V_xc)/jit(main)/select_n" source_file="/pscratch/sd/j/jackm/lorrax_sandbox/sources/jax_xc_local/pbe.py" source_line=37 scheduling_name="select.32.5"}
  %divide.85.3 = f64[36,36,36]{2,1,0} divide(%select.31.5, %select.32.5), metadata={op_name="jit(compute_V_H_and_V_xc)/jit(main)/div" source_file="/pscratch/sd/j/jackm/lorrax_sandbox/sources/jax_xc_local/pbe.py" source_line=37 scheduling_name="divide.85.3"}
  %multiply.825.3 = f64[36,36,36]{2,1,0} multiply(%add.182.3, %divide.85.3), metadata={op_name="jit(compute_V_H_and_V_xc)/jit(main)/mul" source_file="/pscratch/sd/j/jackm/lorrax_sandbox/sources/jax_xc_local/pbe.py" source_line=37 scheduling_name="multiply.825.3"}
  %add.183.5 = f64[36,36,36]{2,1,0} add(%multiply.722.7, %multiply.825.3), metadata={op_name="jit(compute_V_H_and_V_xc)/jit(main)/add_any" source_file="/pscratch/sd/j/jackm/lorrax_sandbox/sources/jax_xc_local/pbe.py" source_line=37 scheduling_name="add.183.5"}
  %multiply.826.11 = f64[36,36,36]{2,1,0} multiply(%multiply.648.5, %multiply.723.25), metadata={op_name="jit(compute_V_H_and_V_xc)/jit(main)/mul" source_file="/pscratch/sd/j/jackm/lorrax_sandbox/sources/jax_xc_local/pbe.py" source_line=29 scheduling_name="multiply.826.11"}
  %negate.46.9 = f64[36,36,36]{2,1,0} negate(%multiply.826.11), metadata={op_name="jit(compute_V_H_and_V_xc)/jit(main)/neg" source_file="/pscratch/sd/j/jackm/lorrax_sandbox/sources/jax_xc_local/pbe.py" source_line=27 scheduling_name="negate.46.9"}
  %multiply.829.7 = f64[36,36,36]{2,1,0} multiply(%add.157.3, %add.157.3), metadata={op_name="jit(compute_V_H_and_V_xc)/jit(main)/mul" source_file="/pscratch/sd/j/jackm/lorrax_sandbox/sources/jax_xc_local/pbe.py" source_line=27 scheduling_name="multiply.829.7"}
  %divide.86.7 = f64[36,36,36]{2,1,0} divide(%broadcast.559.151, %multiply.829.7), metadata={op_name="jit(compute_V_H_and_V_xc)/jit(main)/div" source_file="/pscratch/sd/j/jackm/lorrax_sandbox/sources/jax_xc_local/pbe.py" source_line=27 scheduling_name="divide.86.7"}
  %multiply.831.5 = f64[36,36,36]{2,1,0} multiply(%negate.46.9, %divide.86.7), metadata={op_name="jit(compute_V_H_and_V_xc)/jit(main)/mul" source_file="/pscratch/sd/j/jackm/lorrax_sandbox/sources/jax_xc_local/pbe.py" source_line=27 scheduling_name="multiply.831.5"}
  %multiply.838.3 = f64[36,36,36]{2,1,0} multiply(%multiply.831.5, %broadcast.589.16), metadata={op_name="jit(compute_V_H_and_V_xc)/jit(main)/mul" source_file="/pscratch/sd/j/jackm/lorrax_sandbox/sources/jax_xc_local/pbe.py" source_line=27 scheduling_name="multiply.838.3"}
  %negate.47.1 = f64[36,36,36]{2,1,0} negate(%multiply.838.3), metadata={op_name="jit(compute_V_H_and_V_xc)/jit(main)/neg" source_file="/pscratch/sd/j/jackm/lorrax_sandbox/sources/jax_xc_local/pbe.py" source_line=27 scheduling_name="negate.47.1"}
  %multiply.840.9 = f64[36,36,36]{2,1,0} multiply(%negate.47.1, %broadcast.593.22), metadata={op_name="jit(compute_V_H_and_V_xc)/jit(main)/mul" source_file="/pscratch/sd/j/jackm/lorrax_sandbox/sources/jax_xc_local/pbe.py" source_line=27 scheduling_name="multiply.840.9"}
  %multiply.842.3 = f64[36,36,36]{2,1,0} multiply(%add.156.13, %add.156.13), metadata={op_name="jit(compute_V_H_and_V_xc)/jit(main)/mul" source_file="/pscratch/sd/j/jackm/lorrax_sandbox/sources/jax_xc_local/pbe.py" source_line=26 scheduling_name="multiply.842.3"}
  %divide.87.3 = f64[36,36,36]{2,1,0} divide(%broadcast.559.151, %multiply.842.3), metadata={op_name="jit(compute_V_H_and_V_xc)/jit(main)/div" source_file="/pscratch/sd/j/jackm/lorrax_sandbox/sources/jax_xc_local/pbe.py" source_line=26 scheduling_name="divide.87.3"}
  %multiply.844.7 = f64[36,36,36]{2,1,0} multiply(%multiply.840.9, %divide.87.3), metadata={op_name="jit(compute_V_H_and_V_xc)/jit(main)/mul" source_file="/pscratch/sd/j/jackm/lorrax_sandbox/sources/jax_xc_local/pbe.py" source_line=26 scheduling_name="multiply.844.7"}
  %multiply.847.5 = f64[36,36,36]{2,1,0} multiply(%multiply.844.7, %broadcast.590.40), metadata={op_name="jit(compute_V_H_and_V_xc)/jit(main)/mul" source_file="/pscratch/sd/j/jackm/lorrax_sandbox/sources/jax_xc_local/pbe.py" source_line=26 scheduling_name="multiply.847.5"}
  %negate.48.3 = f64[36,36,36]{2,1,0} negate(%multiply.847.5), metadata={op_name="jit(compute_V_H_and_V_xc)/jit(main)/neg" source_file="/pscratch/sd/j/jackm/lorrax_sandbox/sources/jax_xc_local/pbe.py" source_line=26 scheduling_name="negate.48.3"}
  %multiply.851.3 = f64[36,36,36]{2,1,0} multiply(%multiply.655.15, %negate.48.3), metadata={op_name="jit(compute_V_H_and_V_xc)/jit(main)/mul" source_file="/pscratch/sd/j/jackm/lorrax_sandbox/sources/jax_xc_local/pbe.py" source_line=26 scheduling_name="multiply.851.3"}
  %multiply.854.3 = f64[36,36,36]{2,1,0} multiply(%multiply.851.3, %multiply.800.3), metadata={op_name="jit(compute_V_H_and_V_xc)/jit(main)/mul" source_file="/pscratch/sd/j/jackm/lorrax_sandbox/sources/jax_xc_local/pbe.py" source_line=26 scheduling_name="multiply.854.3"}
  %multiply.857.3 = f64[36,36,36]{2,1,0} multiply(%negate.48.3, %multiply.658.44), metadata={op_name="jit(compute_V_H_and_V_xc)/jit(main)/mul" source_file="/pscratch/sd/j/jackm/lorrax_sandbox/sources/jax_xc_local/pbe.py" source_line=26 scheduling_name="multiply.857.3"}
  %multiply.861.3 = f64[36,36,36]{2,1,0} multiply(%multiply.857.3, %broadcast.591.44), metadata={op_name="jit(compute_V_H_and_V_xc)/jit(main)/mul" source_file="/pscratch/sd/j/jackm/lorrax_sandbox/sources/jax_xc_local/pbe.py" source_line=26 scheduling_name="multiply.861.3"}
  %multiply.865.3 = f64[36,36,36]{2,1,0} multiply(%param_7.242, %broadcast.619.29), metadata={op_name="jit(compute_V_H_and_V_xc)/jit(main)/mul" source_file="/pscratch/sd/j/jackm/lorrax_sandbox/sources/jax_xc_local/pbe.py" source_line=26 scheduling_name="multiply.865.3"}
  %multiply.869.1 = f64[36,36,36]{2,1,0} multiply(%multiply.861.3, %multiply.865.3), metadata={op_name="jit(compute_V_H_and_V_xc)/jit(main)/mul" source_file="/pscratch/sd/j/jackm/lorrax_sandbox/sources/jax_xc_local/pbe.py" source_line=26 scheduling_name="multiply.869.1"}
  %multiply.871.1 = f64[36,36,36]{2,1,0} multiply(%multiply.723.25, %subtract.10.3), metadata={op_name="jit(compute_V_H_and_V_xc)/jit(main)/mul" source_file="/pscratch/sd/j/jackm/lorrax_sandbox/sources/jax_xc_local/pbe.py" source_line=29 scheduling_name="multiply.871.1"}
  %multiply.874.3 = f64[36,36,36]{2,1,0} multiply(%multiply.871.1, %broadcast.587.11), metadata={op_name="jit(compute_V_H_and_V_xc)/jit(main)/mul" source_file="/pscratch/sd/j/jackm/lorrax_sandbox/sources/jax_xc_local/pbe.py" source_line=22 scheduling_name="multiply.874.3"}
  %add.184.1 = f64[36,36,36]{2,1,0} add(%multiply.869.1, %multiply.874.3), metadata={op_name="jit(compute_V_H_and_V_xc)/jit(main)/add_any" source_file="/pscratch/sd/j/jackm/lorrax_sandbox/sources/jax_xc_local/pbe.py" source_line=22 scheduling_name="add.184.1"}
  %multiply.877.1 = f64[36,36,36]{2,1,0} multiply(%add.184.1, %multiply.817.3), metadata={op_name="jit(compute_V_H_and_V_xc)/jit(main)/mul" source_file="/pscratch/sd/j/jackm/lorrax_sandbox/sources/jax_xc_local/pbe.py" source_line=21 scheduling_name="multiply.877.1"}
  %multiply.878.3 = f64[36,36,36]{2,1,0} multiply(%multiply.877.1, %broadcast.585.19), metadata={op_name="jit(compute_V_H_and_V_xc)/jit(main)/mul" source_file="/pscratch/sd/j/jackm/lorrax_sandbox/sources/jax_xc_local/pbe.py" source_line=21 scheduling_name="multiply.878.3"}
  %add.185.3 = f64[36,36,36]{2,1,0} add(%multiply.854.3, %multiply.878.3), metadata={op_name="jit(compute_V_H_and_V_xc)/jit(main)/add_any" source_file="/pscratch/sd/j/jackm/lorrax_sandbox/sources/jax_xc_local/pbe.py" source_line=21 scheduling_name="add.185.3"}
  %multiply.882.3 = f64[36,36,36]{2,1,0} multiply(%add.185.3, %divide.85.3), metadata={op_name="jit(compute_V_H_and_V_xc)/jit(main)/mul" source_file="/pscratch/sd/j/jackm/lorrax_sandbox/sources/jax_xc_local/pbe.py" source_line=20 scheduling_name="multiply.882.3"}
  %add.186.3 = f64[36,36,36]{2,1,0} add(%add.183.5, %multiply.882.3), metadata={op_name="jit(compute_V_H_and_V_xc)/jit(main)/add_any" source_file="/pscratch/sd/j/jackm/lorrax_sandbox/sources/jax_xc_local/pbe.py" source_line=20 scheduling_name="add.186.3"}
  %constant_6_2 = f64[] constant(1e-06)
  %broadcast.666.3 = f64[36,36,36]{2,1,0} broadcast(%constant_6_2), dimensions={}, metadata={scheduling_name="broadcast.666.3"}
  %compare.60.3 = pred[36,36,36]{2,1,0} compare(%add.154.34, %broadcast.666.3), direction=GT, metadata={op_name="jit(compute_V_H_and_V_xc)/jit(main)/gt" source_file="/pscratch/sd/j/jackm/lorrax_sandbox/sources/lorrax/src/psp/xc.py" source_line=136 scheduling_name="compare.60.3"}
  %param_18.59 = c128[36,36,36]{2,1,0} parameter(18), metadata={scheduling_name="param_18.59"}
  %real.18.10 = f64[36,36,36]{2,1,0} real(%param_18.59), metadata={op_name="jit(compute_V_H_and_V_xc)/jit(main)/real" source_file="/pscratch/sd/j/jackm/lorrax_sandbox/sources/lorrax/src/psp/xc.py" source_line=56 scheduling_name="real.18.10"}
  %multiply.894.13 = f64[36,36,36]{2,1,0} multiply(%real.18.10, %real.18.10), metadata={op_name="jit(compute_V_H_and_V_xc)/jit(main)/integer_pow" source_file="/pscratch/sd/j/jackm/lorrax_sandbox/sources/lorrax/src/psp/xc.py" source_line=57 scheduling_name="multiply.894.13"}
  %param_17.60 = c128[36,36,36]{2,1,0} parameter(17), metadata={scheduling_name="param_17.60"}
  %real.19.10 = f64[36,36,36]{2,1,0} real(%param_17.60), metadata={op_name="jit(compute_V_H_and_V_xc)/jit(main)/real" source_file="/pscratch/sd/j/jackm/lorrax_sandbox/sources/lorrax/src/psp/xc.py" source_line=56 scheduling_name="real.19.10"}
  %multiply.903.13 = f64[36,36,36]{2,1,0} multiply(%real.19.10, %real.19.10), metadata={op_name="jit(compute_V_H_and_V_xc)/jit(main)/integer_pow" source_file="/pscratch/sd/j/jackm/lorrax_sandbox/sources/lorrax/src/psp/xc.py" source_line=57 scheduling_name="multiply.903.13"}
  %add.188.13 = f64[36,36,36]{2,1,0} add(%multiply.894.13, %multiply.903.13), metadata={op_name="jit(compute_V_H_and_V_xc)/jit(main)/add" source_file="/pscratch/sd/j/jackm/lorrax_sandbox/sources/lorrax/src/psp/xc.py" source_line=57 scheduling_name="add.188.13"}
  %param_16.79 = c128[36,36,36]{2,1,0} parameter(16), metadata={scheduling_name="param_16.79"}
  %real.20.10 = f64[36,36,36]{2,1,0} real(%param_16.79), metadata={op_name="jit(compute_V_H_and_V_xc)/jit(main)/real" source_file="/pscratch/sd/j/jackm/lorrax_sandbox/sources/lorrax/src/psp/xc.py" source_line=56 scheduling_name="real.20.10"}
  %multiply.907.11 = f64[36,36,36]{2,1,0} multiply(%real.20.10, %real.20.10), metadata={op_name="jit(compute_V_H_and_V_xc)/jit(main)/integer_pow" source_file="/pscratch/sd/j/jackm/lorrax_sandbox/sources/lorrax/src/psp/xc.py" source_line=57 scheduling_name="multiply.907.11"}
  %add.189.11 = f64[36,36,36]{2,1,0} add(%add.188.13, %multiply.907.11), metadata={op_name="jit(compute_V_H_and_V_xc)/jit(main)/add" source_file="/pscratch/sd/j/jackm/lorrax_sandbox/sources/lorrax/src/psp/xc.py" source_line=57 scheduling_name="add.189.11"}
  %maximum.8.9 = f64[36,36,36]{2,1,0} maximum(%add.189.11, %broadcast.590.40), metadata={op_name="jit(compute_V_H_and_V_xc)/jit(main)/max" source_file="/pscratch/sd/j/jackm/lorrax_sandbox/sources/lorrax/src/psp/xc.py" source_line=58 scheduling_name="maximum.8.9"}
  %compare.61.3 = pred[36,36,36]{2,1,0} compare(%maximum.8.9, %broadcast.583.76), direction=GT, metadata={op_name="jit(compute_V_H_and_V_xc)/jit(main)/gt" source_file="/pscratch/sd/j/jackm/lorrax_sandbox/sources/lorrax/src/psp/xc.py" source_line=136 scheduling_name="compare.61.3"}
  %and.35.2 = pred[36,36,36]{2,1,0} and(%compare.60.3, %compare.61.3), metadata={op_name="jit(compute_V_H_and_V_xc)/jit(main)/and" source_file="/pscratch/sd/j/jackm/lorrax_sandbox/sources/lorrax/src/psp/xc.py" source_line=136 scheduling_name="and.35.2"}
  %param_1.1012 = f64[36,36,36]{2,1,0} parameter(1), metadata={scheduling_name="param_1.1012"}
  %divide.89.5 = f64[36,36,36]{2,1,0} divide(%broadcast.589.16, %param_1.1012), metadata={op_name="jit(compute_V_H_and_V_xc)/jit(main)/div" source_file="/pscratch/sd/j/jackm/lorrax_sandbox/sources/jax_xc_local/pbe.py" source_line=27 scheduling_name="divide.89.5"}
  %subtract.12.3 = f64[36,36,36]{2,1,0} subtract(%broadcast.588.4, %divide.89.5), metadata={op_name="jit(compute_V_H_and_V_xc)/jit(main)/sub" source_file="/pscratch/sd/j/jackm/lorrax_sandbox/sources/jax_xc_local/pbe.py" source_line=27 scheduling_name="subtract.12.3"}
  %multiply.910.15 = f64[36,36,36]{2,1,0} multiply(%multiply.648.5, %subtract.12.3), metadata={op_name="jit(compute_V_H_and_V_xc)/jit(main)/mul" source_file="/pscratch/sd/j/jackm/lorrax_sandbox/sources/jax_xc_local/pbe.py" source_line=29 scheduling_name="multiply.910.15"}
  %param_0.809 = f64[36,36,36]{2,1,0} parameter(0), metadata={scheduling_name="param_0.809"}
  %log.8.19 = f64[36,36,36]{2,1,0} log(%param_0.809), metadata={op_name="jit(compute_V_H_and_V_xc)/jit(main)/log" source_file="/pscratch/sd/j/jackm/lorrax_sandbox/sources/jax_xc_local/pbe.py" source_line=65 scheduling_name="log.8.19"}
  %multiply.920.19 = f64[36,36,36]{2,1,0} multiply(%log.8.19, %broadcast.618.10), metadata={op_name="jit(compute_V_H_and_V_xc)/jit(main)/mul" source_file="/pscratch/sd/j/jackm/lorrax_sandbox/sources/jax_xc_local/pbe.py" source_line=65 scheduling_name="multiply.920.19"}
  %add.194.17 = f64[36,36,36]{2,1,0} add(%multiply.700.2, %multiply.920.19), metadata={op_name="jit(compute_V_H_and_V_xc)/jit(main)/add" source_file="/pscratch/sd/j/jackm/lorrax_sandbox/sources/jax_xc_local/pbe.py" source_line=67 scheduling_name="add.194.17"}
  %add.195.15 = f64[36,36,36]{2,1,0} add(%multiply.910.15, %add.194.17), metadata={op_name="jit(compute_V_H_and_V_xc)/jit(main)/add" source_file="/pscratch/sd/j/jackm/lorrax_sandbox/sources/jax_xc_local/pbe.py" source_line=78 scheduling_name="add.195.15"}
  %multiply.923.13 = f64[36,36,36]{2,1,0} multiply(%add.195.15, %broadcast.619.29), metadata={op_name="jit(compute_V_H_and_V_xc)/jit(main)/mul" source_file="/pscratch/sd/j/jackm/lorrax_sandbox/sources/jax_xc_local/pbe.py" source_line=78 scheduling_name="multiply.923.13"}
  %param_14.93 = f64[36,36,36]{2,1,0} parameter(14), metadata={scheduling_name="param_14.93"}
  %param_10.167 = f64[36,36,36]{2,1,0} parameter(10), metadata={scheduling_name="param_10.167"}
  %multiply.913.18 = f64[36,36,36]{2,1,0} multiply(%param_11.178, %param_10.167), metadata={op_name="jit(compute_V_H_and_V_xc)/jit(main)/mul" source_file="/pscratch/sd/j/jackm/lorrax_sandbox/sources/jax_xc_local/pbe.py" source_line=64 scheduling_name="multiply.913.18"}
  %multiply.930.13 = f64[36,36,36]{2,1,0} multiply(%multiply.913.18, %broadcast.619.29), metadata={op_name="jit(compute_V_H_and_V_xc)/jit(main)/mul" source_file="/pscratch/sd/j/jackm/lorrax_sandbox/sources/jax_xc_local/pbe.py" source_line=65 scheduling_name="multiply.930.13"}
  %multiply.933.13 = f64[36,36,36]{2,1,0} multiply(%param_14.93, %multiply.930.13), metadata={op_name="jit(compute_V_H_and_V_xc)/jit(main)/mul" source_file="/pscratch/sd/j/jackm/lorrax_sandbox/sources/jax_xc_local/pbe.py" source_line=65 scheduling_name="multiply.933.13"}
  %add.196.13 = f64[36,36,36]{2,1,0} add(%multiply.933.13, %param_14.93), metadata={op_name="jit(compute_V_H_and_V_xc)/jit(main)/add_any" source_file="/pscratch/sd/j/jackm/lorrax_sandbox/sources/jax_xc_local/pbe.py" source_line=65 scheduling_name="add.196.13"}
  %multiply.912.17 = f64[36,36,36]{2,1,0} multiply(%param_10.167, %broadcast.612.89), metadata={op_name="jit(compute_V_H_and_V_xc)/jit(main)/mul" source_file="/pscratch/sd/j/jackm/lorrax_sandbox/sources/jax_xc_local/pbe.py" source_line=65 scheduling_name="multiply.912.17"}
  %param_13.117 = f64[36,36,36]{2,1,0} parameter(13), metadata={scheduling_name="param_13.117"}
  %multiply.936.7 = f64[36,36,36]{2,1,0} multiply(%multiply.912.17, %param_13.117), metadata={op_name="jit(compute_V_H_and_V_xc)/jit(main)/mul" source_file="/pscratch/sd/j/jackm/lorrax_sandbox/sources/jax_xc_local/pbe.py" source_line=65 scheduling_name="multiply.936.7"}
  %add.197.11 = f64[36,36,36]{2,1,0} add(%add.196.13, %multiply.936.7), metadata={op_name="jit(compute_V_H_and_V_xc)/jit(main)/add_any" source_file="/pscratch/sd/j/jackm/lorrax_sandbox/sources/jax_xc_local/pbe.py" source_line=65 scheduling_name="add.197.11"}
  %multiply.941.6 = f64[36,36,36]{2,1,0} multiply(%add.197.11, %param_10.167), metadata={op_name="jit(compute_V_H_and_V_xc)/jit(main)/mul" source_file="/pscratch/sd/j/jackm/lorrax_sandbox/sources/jax_xc_local/pbe.py" source_line=64 scheduling_name="multiply.941.6"}
  %multiply.942.6 = f64[36,36,36]{2,1,0} multiply(%multiply.941.6, %divide.78.3), metadata={op_name="jit(compute_V_H_and_V_xc)/jit(main)/mul" source_file="/pscratch/sd/j/jackm/lorrax_sandbox/sources/jax_xc_local/pbe.py" source_line=63 scheduling_name="multiply.942.6"}
  %multiply.943.15 = f64[36,36,36]{2,1,0} multiply(%multiply.942.6, %broadcast.612.89), metadata={op_name="jit(compute_V_H_and_V_xc)/jit(main)/mul" source_file="/pscratch/sd/j/jackm/lorrax_sandbox/sources/jax_xc_local/pbe.py" source_line=63 scheduling_name="multiply.943.15"}
  %negate.50.13 = f64[36,36,36]{2,1,0} negate(%multiply.943.15), metadata={op_name="jit(compute_V_H_and_V_xc)/jit(main)/neg" source_file="/pscratch/sd/j/jackm/lorrax_sandbox/sources/jax_xc_local/pbe.py" source_line=63 scheduling_name="negate.50.13"}
  %multiply.944.11 = f64[36,36,36]{2,1,0} multiply(%negate.50.13, %exponential.2.17), metadata={op_name="jit(compute_V_H_and_V_xc)/jit(main)/mul" source_file="/pscratch/sd/j/jackm/lorrax_sandbox/sources/jax_xc_local/pbe.py" source_line=63 scheduling_name="multiply.944.11"}
  %multiply.945.11 = f64[36,36,36]{2,1,0} multiply(%multiply.944.11, %broadcast.614.41), metadata={op_name="jit(compute_V_H_and_V_xc)/jit(main)/div" source_file="/pscratch/sd/j/jackm/lorrax_sandbox/sources/jax_xc_local/pbe.py" source_line=63 scheduling_name="multiply.945.11"}
  %negate.51.9 = f64[36,36,36]{2,1,0} negate(%multiply.945.11), metadata={op_name="jit(compute_V_H_and_V_xc)/jit(main)/neg" source_file="/pscratch/sd/j/jackm/lorrax_sandbox/sources/jax_xc_local/pbe.py" source_line=63 scheduling_name="negate.51.9"}
  %add.198.6 = f64[36,36,36]{2,1,0} add(%multiply.723.25, %negate.51.9), metadata={op_name="jit(compute_V_H_and_V_xc)/jit(main)/add_any" source_file="/pscratch/sd/j/jackm/lorrax_sandbox/sources/jax_xc_local/pbe.py" source_line=63 scheduling_name="add.198.6"}
  %multiply.946.5 = f64[36,36,36]{2,1,0} multiply(%multiply.678.5, %add.198.6), metadata={op_name="jit(compute_V_H_and_V_xc)/jit(main)/mul" source_file="/pscratch/sd/j/jackm/lorrax_sandbox/sources/jax_xc_local/pbe.py" source_line=49 scheduling_name="multiply.946.5"}
  %divide.95.5 = f64[36,36,36]{2,1,0} divide(%multiply.946.5, %param_15.94), metadata={op_name="jit(compute_V_H_and_V_xc)/jit(main)/div" source_file="/pscratch/sd/j/jackm/lorrax_sandbox/sources/jax_xc_local/pbe.py" source_line=49 scheduling_name="divide.95.5"}
  %multiply.947.5 = f64[36,36,36]{2,1,0} multiply(%divide.95.5, %divide.80.3), metadata={op_name="jit(compute_V_H_and_V_xc)/jit(main)/mul" source_file="/pscratch/sd/j/jackm/lorrax_sandbox/sources/jax_xc_local/pbe.py" source_line=50 scheduling_name="multiply.947.5"}
  %negate.52.3 = f64[36,36,36]{2,1,0} negate(%multiply.947.5), metadata={op_name="jit(compute_V_H_and_V_xc)/jit(main)/neg" source_file="/pscratch/sd/j/jackm/lorrax_sandbox/sources/jax_xc_local/pbe.py" source_line=50 scheduling_name="negate.52.3"}
  %multiply.948.21 = f64[36,36,36]{2,1,0} multiply(%negate.52.3, %broadcast.628.42), metadata={op_name="jit(compute_V_H_and_V_xc)/jit(main)/mul" source_file="/pscratch/sd/j/jackm/lorrax_sandbox/sources/jax_xc_local/pbe.py" source_line=51 scheduling_name="multiply.948.21"}
  %multiply.951.19 = f64[36,36,36]{2,1,0} multiply(%multiply.948.21, %multiply.757.3), metadata={op_name="jit(compute_V_H_and_V_xc)/jit(main)/mul" source_file="/pscratch/sd/j/jackm/lorrax_sandbox/sources/jax_xc_local/pbe.py" source_line=51 scheduling_name="multiply.951.19"}
  %multiply.953.3 = f64[36,36,36]{2,1,0} multiply(%negate.52.3, %broadcast.606.13), metadata={op_name="jit(compute_V_H_and_V_xc)/jit(main)/mul" source_file="/pscratch/sd/j/jackm/lorrax_sandbox/sources/jax_xc_local/pbe.py" source_line=50 scheduling_name="multiply.953.3"}
  %multiply.956.1 = f64[36,36,36]{2,1,0} multiply(%multiply.953.3, %param_3.469), metadata={op_name="jit(compute_V_H_and_V_xc)/jit(main)/mul" source_file="/pscratch/sd/j/jackm/lorrax_sandbox/sources/jax_xc_local/pbe.py" source_line=51 scheduling_name="multiply.956.1"}
  %multiply.957.3 = f64[36,36,36]{2,1,0} multiply(%multiply.956.1, %broadcast.604.15), metadata={op_name="jit(compute_V_H_and_V_xc)/jit(main)/mul" source_file="/pscratch/sd/j/jackm/lorrax_sandbox/sources/jax_xc_local/pbe.py" source_line=51 scheduling_name="multiply.957.3"}
  %add.199.17 = f64[36,36,36]{2,1,0} add(%multiply.951.19, %multiply.957.3), metadata={op_name="jit(compute_V_H_and_V_xc)/jit(main)/add_any" source_file="/pscratch/sd/j/jackm/lorrax_sandbox/sources/jax_xc_local/pbe.py" source_line=51 scheduling_name="add.199.17"}
  %multiply.959.17 = f64[36,36,36]{2,1,0} multiply(%negate.52.3, %broadcast.632.34), metadata={op_name="jit(compute_V_H_and_V_xc)/jit(main)/mul" source_file="/pscratch/sd/j/jackm/lorrax_sandbox/sources/jax_xc_local/pbe.py" source_line=51 scheduling_name="multiply.959.17"}
  %add.200.15 = f64[36,36,36]{2,1,0} add(%add.199.17, %multiply.959.17), metadata={op_name="jit(compute_V_H_and_V_xc)/jit(main)/add_any" source_file="/pscratch/sd/j/jackm/lorrax_sandbox/sources/jax_xc_local/pbe.py" source_line=51 scheduling_name="add.200.15"}
  %multiply.960.1 = f64[36,36,36]{2,1,0} multiply(%multiply.686.9, %multiply.953.3), metadata={op_name="jit(compute_V_H_and_V_xc)/jit(main)/mul" source_file="/pscratch/sd/j/jackm/lorrax_sandbox/sources/jax_xc_local/pbe.py" source_line=51 scheduling_name="multiply.960.1"}
  %multiply.963.11 = f64[36,36,36]{2,1,0} multiply(%negate.52.3, %broadcast.633.22), metadata={op_name="jit(compute_V_H_and_V_xc)/jit(main)/mul" source_file="/pscratch/sd/j/jackm/lorrax_sandbox/sources/jax_xc_local/pbe.py" source_line=51 scheduling_name="multiply.963.11"}
  %add.201.9 = f64[36,36,36]{2,1,0} add(%multiply.960.1, %multiply.963.11), metadata={op_name="jit(compute_V_H_and_V_xc)/jit(main)/add_any" source_file="/pscratch/sd/j/jackm/lorrax_sandbox/sources/jax_xc_local/pbe.py" source_line=51 scheduling_name="add.201.9"}
  %multiply.966.7 = f64[36,36,36]{2,1,0} multiply(%add.201.9, %divide.81.3), metadata={op_name="jit(compute_V_H_and_V_xc)/jit(main)/mul" source_file="/pscratch/sd/j/jackm/lorrax_sandbox/sources/jax_xc_local/pbe.py" source_line=48 scheduling_name="multiply.966.7"}
  %add.202.13 = f64[36,36,36]{2,1,0} add(%add.200.15, %multiply.966.7), metadata={op_name="jit(compute_V_H_and_V_xc)/jit(main)/add_any" source_file="/pscratch/sd/j/jackm/lorrax_sandbox/sources/jax_xc_local/pbe.py" source_line=48 scheduling_name="add.202.13"}
  %multiply.967.1 = f64[36,36,36]{2,1,0} multiply(%add.198.6, %param_2.596), metadata={op_name="jit(compute_V_H_and_V_xc)/jit(main)/mul" source_file="/pscratch/sd/j/jackm/lorrax_sandbox/sources/jax_xc_local/pbe.py" source_line=49 scheduling_name="multiply.967.1"}
  %multiply.969.7 = f64[36,36,36]{2,1,0} multiply(%multiply.967.1, %broadcast.635.14), metadata={op_name="jit(compute_V_H_and_V_xc)/jit(main)/mul" source_file="/pscratch/sd/j/jackm/lorrax_sandbox/sources/jax_xc_local/pbe.py" source_line=49 scheduling_name="multiply.969.7"}
  %add.203.11 = f64[36,36,36]{2,1,0} add(%add.202.13, %multiply.969.7), metadata={op_name="jit(compute_V_H_and_V_xc)/jit(main)/add_any" source_file="/pscratch/sd/j/jackm/lorrax_sandbox/sources/jax_xc_local/pbe.py" source_line=49 scheduling_name="add.203.11"}
  %multiply.972.9 = f64[36,36,36]{2,1,0} multiply(%add.203.11, %multiply.780.3), metadata={op_name="jit(compute_V_H_and_V_xc)/jit(main)/mul" source_file="/pscratch/sd/j/jackm/lorrax_sandbox/sources/jax_xc_local/pbe.py" source_line=38 scheduling_name="multiply.972.9"}
  %multiply.975.7 = f64[36,36,36]{2,1,0} multiply(%multiply.972.9, %divide.82.3), metadata={op_name="jit(compute_V_H_and_V_xc)/jit(main)/mul" source_file="/pscratch/sd/j/jackm/lorrax_sandbox/sources/jax_xc_local/pbe.py" source_line=38 scheduling_name="multiply.975.7"}
  %multiply.976.5 = f64[36,36,36]{2,1,0} multiply(%multiply.975.7, %broadcast.595.11), metadata={op_name="jit(compute_V_H_and_V_xc)/jit(main)/mul" source_file="/pscratch/sd/j/jackm/lorrax_sandbox/sources/jax_xc_local/pbe.py" source_line=38 scheduling_name="multiply.976.5"}
  %negate.53.3 = f64[36,36,36]{2,1,0} negate(%multiply.976.5), metadata={op_name="jit(compute_V_H_and_V_xc)/jit(main)/neg" source_file="/pscratch/sd/j/jackm/lorrax_sandbox/sources/jax_xc_local/pbe.py" source_line=38 scheduling_name="negate.53.3"}
  %multiply.978.3 = f64[36,36,36]{2,1,0} multiply(%negate.53.3, %broadcast.596.13), metadata={op_name="jit(compute_V_H_and_V_xc)/jit(main)/mul" source_file="/pscratch/sd/j/jackm/lorrax_sandbox/sources/jax_xc_local/pbe.py" source_line=38 scheduling_name="multiply.978.3"}
  %multiply.981.1 = f64[36,36,36]{2,1,0} multiply(%param_11.178, %add.197.11), metadata={op_name="jit(compute_V_H_and_V_xc)/jit(main)/mul" source_file="/pscratch/sd/j/jackm/lorrax_sandbox/sources/jax_xc_local/pbe.py" source_line=64 scheduling_name="multiply.981.1"}
  %add.191.19 = f64[36,36,36]{2,1,0} add(%multiply.913.18, %broadcast.559.151), metadata={op_name="jit(compute_V_H_and_V_xc)/jit(main)/add" source_file="/pscratch/sd/j/jackm/lorrax_sandbox/sources/jax_xc_local/pbe.py" source_line=65 scheduling_name="add.191.19"}
  %multiply.982.9 = f64[36,36,36]{2,1,0} multiply(%param_13.117, %add.191.19), metadata={op_name="jit(compute_V_H_and_V_xc)/jit(main)/mul" source_file="/pscratch/sd/j/jackm/lorrax_sandbox/sources/jax_xc_local/pbe.py" source_line=65 scheduling_name="multiply.982.9"}
  %multiply.984.7 = f64[36,36,36]{2,1,0} multiply(%multiply.982.9, %broadcast.612.89), metadata={op_name="jit(compute_V_H_and_V_xc)/jit(main)/mul" source_file="/pscratch/sd/j/jackm/lorrax_sandbox/sources/jax_xc_local/pbe.py" source_line=65 scheduling_name="multiply.984.7"}
  %add.204.5 = f64[36,36,36]{2,1,0} add(%multiply.981.1, %multiply.984.7), metadata={op_name="jit(compute_V_H_and_V_xc)/jit(main)/add_any" source_file="/pscratch/sd/j/jackm/lorrax_sandbox/sources/jax_xc_local/pbe.py" source_line=65 scheduling_name="add.204.5"}
  %multiply.985.1 = f64[36,36,36]{2,1,0} multiply(%add.204.5, %divide.83.3), metadata={op_name="jit(compute_V_H_and_V_xc)/jit(main)/mul" source_file="/pscratch/sd/j/jackm/lorrax_sandbox/sources/jax_xc_local/pbe.py" source_line=61 scheduling_name="multiply.985.1"}
  %multiply.986.3 = f64[36,36,36]{2,1,0} multiply(%multiply.985.1, %maximum.8.9), metadata={op_name="jit(compute_V_H_and_V_xc)/jit(main)/mul" source_file="/pscratch/sd/j/jackm/lorrax_sandbox/sources/jax_xc_local/pbe.py" source_line=61 scheduling_name="multiply.986.3"}
  %negate.54.3 = f64[36,36,36]{2,1,0} negate(%multiply.986.3), metadata={op_name="jit(compute_V_H_and_V_xc)/jit(main)/neg" source_file="/pscratch/sd/j/jackm/lorrax_sandbox/sources/jax_xc_local/pbe.py" source_line=61 scheduling_name="negate.54.3"}
  %multiply.987.1 = f64[36,36,36]{2,1,0} multiply(%multiply.703.17, %negate.54.3), metadata={op_name="jit(compute_V_H_and_V_xc)/jit(main)/mul" source_file="/pscratch/sd/j/jackm/lorrax_sandbox/sources/jax_xc_local/pbe.py" source_line=61 scheduling_name="multiply.987.1"}
  %multiply.988.7 = f64[36,36,36]{2,1,0} multiply(%multiply.987.1, %multiply.800.3), metadata={op_name="jit(compute_V_H_and_V_xc)/jit(main)/mul" source_file="/pscratch/sd/j/jackm/lorrax_sandbox/sources/jax_xc_local/pbe.py" source_line=61 scheduling_name="multiply.988.7"}
  %add.205.7 = f64[36,36,36]{2,1,0} add(%multiply.978.3, %multiply.988.7), metadata={op_name="jit(compute_V_H_and_V_xc)/jit(main)/add_any" source_file="/pscratch/sd/j/jackm/lorrax_sandbox/sources/jax_xc_local/pbe.py" source_line=61 scheduling_name="add.205.7"}
  %multiply.989.3 = f64[36,36,36]{2,1,0} multiply(%negate.54.3, %multiply.658.44), metadata={op_name="jit(compute_V_H_and_V_xc)/jit(main)/mul" source_file="/pscratch/sd/j/jackm/lorrax_sandbox/sources/jax_xc_local/pbe.py" source_line=61 scheduling_name="multiply.989.3"}
  %multiply.990.3 = f64[36,36,36]{2,1,0} multiply(%multiply.989.3, %broadcast.591.44), metadata={op_name="jit(compute_V_H_and_V_xc)/jit(main)/mul" source_file="/pscratch/sd/j/jackm/lorrax_sandbox/sources/jax_xc_local/pbe.py" source_line=61 scheduling_name="multiply.990.3"}
  %multiply.991.1 = f64[36,36,36]{2,1,0} multiply(%multiply.990.3, %multiply.808.3), metadata={op_name="jit(compute_V_H_and_V_xc)/jit(main)/mul" source_file="/pscratch/sd/j/jackm/lorrax_sandbox/sources/jax_xc_local/pbe.py" source_line=61 scheduling_name="multiply.991.1"}
  %multiply.992.1 = f64[36,36,36]{2,1,0} multiply(%multiply.991.1, %divide.84.3), metadata={op_name="jit(compute_V_H_and_V_xc)/jit(main)/mul" source_file="/pscratch/sd/j/jackm/lorrax_sandbox/sources/jax_xc_local/pbe.py" source_line=60 scheduling_name="multiply.992.1"}
  %multiply.993.3 = f64[36,36,36]{2,1,0} multiply(%multiply.992.1, %broadcast.609.9), metadata={op_name="jit(compute_V_H_and_V_xc)/jit(main)/mul" source_file="/pscratch/sd/j/jackm/lorrax_sandbox/sources/jax_xc_local/pbe.py" source_line=60 scheduling_name="multiply.993.3"}
  %multiply.994.1 = f64[36,36,36]{2,1,0} multiply(%multiply.993.3, %multiply.817.3), metadata={op_name="jit(compute_V_H_and_V_xc)/jit(main)/mul" source_file="/pscratch/sd/j/jackm/lorrax_sandbox/sources/jax_xc_local/pbe.py" source_line=59 scheduling_name="multiply.994.1"}
  %multiply.995.3 = f64[36,36,36]{2,1,0} multiply(%multiply.994.1, %broadcast.585.19), metadata={op_name="jit(compute_V_H_and_V_xc)/jit(main)/mul" source_file="/pscratch/sd/j/jackm/lorrax_sandbox/sources/jax_xc_local/pbe.py" source_line=59 scheduling_name="multiply.995.3"}
  %add.206.7 = f64[36,36,36]{2,1,0} add(%add.205.7, %multiply.995.3), metadata={op_name="jit(compute_V_H_and_V_xc)/jit(main)/add_any" source_file="/pscratch/sd/j/jackm/lorrax_sandbox/sources/jax_xc_local/pbe.py" source_line=59 scheduling_name="add.206.7"}
  %multiply.996.7 = f64[36,36,36]{2,1,0} multiply(%add.206.7, %divide.85.3), metadata={op_name="jit(compute_V_H_and_V_xc)/jit(main)/mul" source_file="/pscratch/sd/j/jackm/lorrax_sandbox/sources/jax_xc_local/pbe.py" source_line=37 scheduling_name="multiply.996.7"}
  %add.207.11 = f64[36,36,36]{2,1,0} add(%multiply.923.13, %multiply.996.7), metadata={op_name="jit(compute_V_H_and_V_xc)/jit(main)/add_any" source_file="/pscratch/sd/j/jackm/lorrax_sandbox/sources/jax_xc_local/pbe.py" source_line=37 scheduling_name="add.207.11"}
  %param_12.151 = f64[36,36,36]{2,1,0} parameter(12), metadata={scheduling_name="param_12.151"}
  %multiply.1000.5 = f64[36,36,36]{2,1,0} multiply(%param_12.151, %broadcast.593.22), metadata={op_name="jit(compute_V_H_and_V_xc)/jit(main)/mul" source_file="/pscratch/sd/j/jackm/lorrax_sandbox/sources/jax_xc_local/pbe.py" source_line=27 scheduling_name="multiply.1000.5"}
  %multiply.1001.1 = f64[36,36,36]{2,1,0} multiply(%multiply.1000.5, %divide.87.3), metadata={op_name="jit(compute_V_H_and_V_xc)/jit(main)/mul" source_file="/pscratch/sd/j/jackm/lorrax_sandbox/sources/jax_xc_local/pbe.py" source_line=26 scheduling_name="multiply.1001.1"}
  %multiply.1002.3 = f64[36,36,36]{2,1,0} multiply(%multiply.1001.1, %maximum.8.9), metadata={op_name="jit(compute_V_H_and_V_xc)/jit(main)/mul" source_file="/pscratch/sd/j/jackm/lorrax_sandbox/sources/jax_xc_local/pbe.py" source_line=26 scheduling_name="multiply.1002.3"}
  %negate.56.3 = f64[36,36,36]{2,1,0} negate(%multiply.1002.3), metadata={op_name="jit(compute_V_H_and_V_xc)/jit(main)/neg" source_file="/pscratch/sd/j/jackm/lorrax_sandbox/sources/jax_xc_local/pbe.py" source_line=26 scheduling_name="negate.56.3"}
  %multiply.1003.7 = f64[36,36,36]{2,1,0} multiply(%multiply.655.15, %negate.56.3), metadata={op_name="jit(compute_V_H_and_V_xc)/jit(main)/mul" source_file="/pscratch/sd/j/jackm/lorrax_sandbox/sources/jax_xc_local/pbe.py" source_line=26 scheduling_name="multiply.1003.7"}
  %multiply.1004.7 = f64[36,36,36]{2,1,0} multiply(%multiply.1003.7, %multiply.800.3), metadata={op_name="jit(compute_V_H_and_V_xc)/jit(main)/mul" source_file="/pscratch/sd/j/jackm/lorrax_sandbox/sources/jax_xc_local/pbe.py" source_line=26 scheduling_name="multiply.1004.7"}
  %multiply.1005.3 = f64[36,36,36]{2,1,0} multiply(%negate.56.3, %multiply.658.44), metadata={op_name="jit(compute_V_H_and_V_xc)/jit(main)/mul" source_file="/pscratch/sd/j/jackm/lorrax_sandbox/sources/jax_xc_local/pbe.py" source_line=26 scheduling_name="multiply.1005.3"}
  %multiply.1006.3 = f64[36,36,36]{2,1,0} multiply(%multiply.1005.3, %broadcast.591.44), metadata={op_name="jit(compute_V_H_and_V_xc)/jit(main)/mul" source_file="/pscratch/sd/j/jackm/lorrax_sandbox/sources/jax_xc_local/pbe.py" source_line=26 scheduling_name="multiply.1006.3"}
  %multiply.1007.1 = f64[36,36,36]{2,1,0} multiply(%multiply.1006.3, %multiply.865.3), metadata={op_name="jit(compute_V_H_and_V_xc)/jit(main)/mul" source_file="/pscratch/sd/j/jackm/lorrax_sandbox/sources/jax_xc_local/pbe.py" source_line=26 scheduling_name="multiply.1007.1"}
  %multiply.1010.1 = f64[36,36,36]{2,1,0} multiply(%multiply.723.25, %subtract.12.3), metadata={op_name="jit(compute_V_H_and_V_xc)/jit(main)/mul" source_file="/pscratch/sd/j/jackm/lorrax_sandbox/sources/jax_xc_local/pbe.py" source_line=29 scheduling_name="multiply.1010.1"}
  %multiply.1011.3 = f64[36,36,36]{2,1,0} multiply(%multiply.1010.1, %broadcast.587.11), metadata={op_name="jit(compute_V_H_and_V_xc)/jit(main)/mul" source_file="/pscratch/sd/j/jackm/lorrax_sandbox/sources/jax_xc_local/pbe.py" source_line=22 scheduling_name="multiply.1011.3"}
  %add.208.1 = f64[36,36,36]{2,1,0} add(%multiply.1007.1, %multiply.1011.3), metadata={op_name="jit(compute_V_H_and_V_xc)/jit(main)/add_any" source_file="/pscratch/sd/j/jackm/lorrax_sandbox/sources/jax_xc_local/pbe.py" source_line=22 scheduling_name="add.208.1"}
  %multiply.1012.1 = f64[36,36,36]{2,1,0} multiply(%add.208.1, %multiply.817.3), metadata={op_name="jit(compute_V_H_and_V_xc)/jit(main)/mul" source_file="/pscratch/sd/j/jackm/lorrax_sandbox/sources/jax_xc_local/pbe.py" source_line=21 scheduling_name="multiply.1012.1"}
  %multiply.1013.3 = f64[36,36,36]{2,1,0} multiply(%multiply.1012.1, %broadcast.585.19), metadata={op_name="jit(compute_V_H_and_V_xc)/jit(main)/mul" source_file="/pscratch/sd/j/jackm/lorrax_sandbox/sources/jax_xc_local/pbe.py" source_line=21 scheduling_name="multiply.1013.3"}
  %add.209.7 = f64[36,36,36]{2,1,0} add(%multiply.1004.7, %multiply.1013.3), metadata={op_name="jit(compute_V_H_and_V_xc)/jit(main)/add_any" source_file="/pscratch/sd/j/jackm/lorrax_sandbox/sources/jax_xc_local/pbe.py" source_line=21 scheduling_name="add.209.7"}
  %multiply.1014.7 = f64[36,36,36]{2,1,0} multiply(%add.209.7, %divide.85.3), metadata={op_name="jit(compute_V_H_and_V_xc)/jit(main)/mul" source_file="/pscratch/sd/j/jackm/lorrax_sandbox/sources/jax_xc_local/pbe.py" source_line=20 scheduling_name="multiply.1014.7"}
  %add.210.9 = f64[36,36,36]{2,1,0} add(%add.207.11, %multiply.1014.7), metadata={op_name="jit(compute_V_H_and_V_xc)/jit(main)/add_any" source_file="/pscratch/sd/j/jackm/lorrax_sandbox/sources/jax_xc_local/pbe.py" source_line=20 scheduling_name="add.210.9"}
  %subtract.13.7 = f64[36,36,36]{2,1,0} subtract(%add.210.9, %add.186.3), metadata={op_name="jit(compute_V_H_and_V_xc)/jit(main)/sub" source_file="/pscratch/sd/j/jackm/lorrax_sandbox/sources/lorrax/src/psp/xc.py" source_line=137 scheduling_name="subtract.13.7"}
  %select.33.5 = f64[36,36,36]{2,1,0} select(%and.35.2, %subtract.13.7, %broadcast.590.40), metadata={op_name="jit(compute_V_H_and_V_xc)/jit(main)/jit(_where)/select_n" source_file="/pscratch/sd/j/jackm/lorrax_sandbox/sources/lorrax/src/psp/xc.py" source_line=137 scheduling_name="select.33.5"}
  %add.211.3 = f64[36,36,36]{2,1,0} add(%add.186.3, %select.33.5), metadata={op_name="jit(compute_V_H_and_V_xc)/jit(main)/add" source_file="/pscratch/sd/j/jackm/lorrax_sandbox/sources/lorrax/src/psp/xc.py" source_line=137 scheduling_name="add.211.3"}
  %param_6.303 = c128[36,36,36]{2,1,0} parameter(6), metadata={scheduling_name="param_6.303"}
  %real.21.1 = f64[36,36,36]{2,1,0} real(%param_6.303), metadata={op_name="jit(compute_V_H_and_V_xc)/jit(main)/real" source_file="/pscratch/sd/j/jackm/lorrax_sandbox/sources/lorrax/src/psp/xc.py" source_line=145 scheduling_name="real.21.1"}
  %param_5.358 = c128[36,36,36]{2,1,0} parameter(5), metadata={scheduling_name="param_5.358"}
  %real.22.1 = f64[36,36,36]{2,1,0} real(%param_5.358), metadata={op_name="jit(compute_V_H_and_V_xc)/jit(main)/real" source_file="/pscratch/sd/j/jackm/lorrax_sandbox/sources/lorrax/src/psp/xc.py" source_line=145 scheduling_name="real.22.1"}
  %add.213.1 = f64[36,36,36]{2,1,0} add(%real.21.1, %real.22.1), metadata={op_name="jit(compute_V_H_and_V_xc)/jit(main)/add" source_file="/pscratch/sd/j/jackm/lorrax_sandbox/sources/lorrax/src/psp/xc.py" source_line=145 scheduling_name="add.213.1"}
  %param_4.407 = c128[36,36,36]{2,1,0} parameter(4), metadata={scheduling_name="param_4.407"}
  %real.23.1 = f64[36,36,36]{2,1,0} real(%param_4.407), metadata={op_name="jit(compute_V_H_and_V_xc)/jit(main)/real" source_file="/pscratch/sd/j/jackm/lorrax_sandbox/sources/lorrax/src/psp/xc.py" source_line=145 scheduling_name="real.23.1"}
  %add.214.1 = f64[36,36,36]{2,1,0} add(%add.213.1, %real.23.1), metadata={op_name="jit(compute_V_H_and_V_xc)/jit(main)/add" source_file="/pscratch/sd/j/jackm/lorrax_sandbox/sources/lorrax/src/psp/xc.py" source_line=145 scheduling_name="add.214.1"}
  %multiply.1022.3 = f64[36,36,36]{2,1,0} multiply(%add.214.1, %broadcast.619.29), metadata={op_name="jit(compute_V_H_and_V_xc)/jit(main)/mul" source_file="/pscratch/sd/j/jackm/lorrax_sandbox/sources/lorrax/src/psp/xc.py" source_line=147 scheduling_name="multiply.1022.3"}
  ROOT %subtract.14.1 = f64[36,36,36]{2,1,0} subtract(%add.211.3, %multiply.1022.3), metadata={op_name="jit(compute_V_H_and_V_xc)/jit(main)/sub" source_file="/pscratch/sd/j/jackm/lorrax_sandbox/sources/lorrax/src/psp/xc.py" source_line=147 scheduling_name="subtract.14.1"}
}

%fused_add_convert_divide_log_negate_power_sqrt (param_0.817: c128[36,36,36], param_1.1016: c128[36,36,36], param_2.603: c128[36,36,36], param_3.496: f64[36,36,36], param_4.430: f64[36,36,36]) -> (c128[36,36,36], c128[36,36,36], c128[36,36,36], f64[36,36,36], f64[36,36,36], /*index=5*/f64[36,36,36], f64[36,36,36], f64[36,36,36], f64[36,36,36], f64[36,36,36], /*index=10*/f64[36,36,36], f64[36,36,36], f64[36,36,36], f64[36,36,36], f64[36,36,36], /*index=15*/f64[36,36,36], f64[36,36,36], c128[36,36,36]) {
  %param_3.496 = f64[36,36,36]{2,1,0} parameter(3), metadata={scheduling_name="param_3.496"}
  %param_4.430 = f64[36,36,36]{2,1,0} parameter(4), metadata={scheduling_name="param_4.430"}
  %add.154.17.clone.1 = f64[36,36,36]{2,1,0} add(%param_3.496, %param_4.430), metadata={op_name="jit(compute_V_H_and_V_xc)/jit(main)/add" source_file="/pscratch/sd/j/jackm/lorrax_sandbox/sources/lorrax/src/psp/dft_operators.py" source_line=302 scheduling_name="add.154.17.clone.1"}
  %constant_6_1_clone_1 = f64[] constant(1e-06)
  %broadcast.666.5.clone.1 = f64[36,36,36]{2,1,0} broadcast(%constant_6_1_clone_1), dimensions={}, metadata={scheduling_name="broadcast.666.5.clone.1"}
  %compare.60.5.clone.1 = pred[36,36,36]{2,1,0} compare(%add.154.17.clone.1, %broadcast.666.5.clone.1), direction=GT, metadata={op_name="jit(compute_V_H_and_V_xc)/jit(main)/gt" source_file="/pscratch/sd/j/jackm/lorrax_sandbox/sources/lorrax/src/psp/xc.py" source_line=136 scheduling_name="compare.60.5.clone.1"}
  %param_1.1016 = c128[36,36,36]{2,1,0} parameter(1), metadata={scheduling_name="param_1.1016"}
  %real.18.6.clone.1 = f64[36,36,36]{2,1,0} real(%param_1.1016), metadata={op_name="jit(compute_V_H_and_V_xc)/jit(main)/real" source_file="/pscratch/sd/j/jackm/lorrax_sandbox/sources/lorrax/src/psp/xc.py" source_line=56 scheduling_name="real.18.6.clone.1"}
  %multiply.894.9.clone.1 = f64[36,36,36]{2,1,0} multiply(%real.18.6.clone.1, %real.18.6.clone.1), metadata={op_name="jit(compute_V_H_and_V_xc)/jit(main)/integer_pow" source_file="/pscratch/sd/j/jackm/lorrax_sandbox/sources/lorrax/src/psp/xc.py" source_line=57 scheduling_name="multiply.894.9.clone.1"}
  %param_0.817 = c128[36,36,36]{2,1,0} parameter(0), metadata={scheduling_name="param_0.817"}
  %real.19.6.clone.1 = f64[36,36,36]{2,1,0} real(%param_0.817), metadata={op_name="jit(compute_V_H_and_V_xc)/jit(main)/real" source_file="/pscratch/sd/j/jackm/lorrax_sandbox/sources/lorrax/src/psp/xc.py" source_line=56 scheduling_name="real.19.6.clone.1"}
  %multiply.903.9.clone.1 = f64[36,36,36]{2,1,0} multiply(%real.19.6.clone.1, %real.19.6.clone.1), metadata={op_name="jit(compute_V_H_and_V_xc)/jit(main)/integer_pow" source_file="/pscratch/sd/j/jackm/lorrax_sandbox/sources/lorrax/src/psp/xc.py" source_line=57 scheduling_name="multiply.903.9.clone.1"}
  %add.188.9.clone.1 = f64[36,36,36]{2,1,0} add(%multiply.894.9.clone.1, %multiply.903.9.clone.1), metadata={op_name="jit(compute_V_H_and_V_xc)/jit(main)/add" source_file="/pscratch/sd/j/jackm/lorrax_sandbox/sources/lorrax/src/psp/xc.py" source_line=57 scheduling_name="add.188.9.clone.1"}
  %param_2.603 = c128[36,36,36]{2,1,0} parameter(2), metadata={scheduling_name="param_2.603"}
  %real.20.6.clone.1 = f64[36,36,36]{2,1,0} real(%param_2.603), metadata={op_name="jit(compute_V_H_and_V_xc)/jit(main)/real" source_file="/pscratch/sd/j/jackm/lorrax_sandbox/sources/lorrax/src/psp/xc.py" source_line=56 scheduling_name="real.20.6.clone.1"}
  %multiply.907.7.clone.1 = f64[36,36,36]{2,1,0} multiply(%real.20.6.clone.1, %real.20.6.clone.1), metadata={op_name="jit(compute_V_H_and_V_xc)/jit(main)/integer_pow" source_file="/pscratch/sd/j/jackm/lorrax_sandbox/sources/lorrax/src/psp/xc.py" source_line=57 scheduling_name="multiply.907.7.clone.1"}
  %add.189.7.clone.1 = f64[36,36,36]{2,1,0} add(%add.188.9.clone.1, %multiply.907.7.clone.1), metadata={op_name="jit(compute_V_H_and_V_xc)/jit(main)/add" source_file="/pscratch/sd/j/jackm/lorrax_sandbox/sources/lorrax/src/psp/xc.py" source_line=57 scheduling_name="add.189.7.clone.1"}
  %constant_58_1_clone_1 = f64[] constant(0)
  %broadcast.590.30.clone.1 = f64[36,36,36]{2,1,0} broadcast(%constant_58_1_clone_1), dimensions={}, metadata={scheduling_name="broadcast.590.30.clone.1"}
  %maximum.8.5.clone.1 = f64[36,36,36]{2,1,0} maximum(%add.189.7.clone.1, %broadcast.590.30.clone.1), metadata={op_name="jit(compute_V_H_and_V_xc)/jit(main)/max" source_file="/pscratch/sd/j/jackm/lorrax_sandbox/sources/lorrax/src/psp/xc.py" source_line=58 scheduling_name="maximum.8.5.clone.1"}
  %constant_62_7_clone_1 = f64[] constant(1e-10)
  %broadcast.583.58.clone.1 = f64[36,36,36]{2,1,0} broadcast(%constant_62_7_clone_1), dimensions={}, metadata={scheduling_name="broadcast.583.58.clone.1"}
  %compare.61.5.clone.1 = pred[36,36,36]{2,1,0} compare(%maximum.8.5.clone.1, %broadcast.583.58.clone.1), direction=GT, metadata={op_name="jit(compute_V_H_and_V_xc)/jit(main)/gt" source_file="/pscratch/sd/j/jackm/lorrax_sandbox/sources/lorrax/src/psp/xc.py" source_line=136 scheduling_name="compare.61.5.clone.1"}
  %and.35.1.clone.1 = pred[36,36,36]{2,1,0} and(%compare.60.5.clone.1, %compare.61.5.clone.1), metadata={op_name="jit(compute_V_H_and_V_xc)/jit(main)/and" source_file="/pscratch/sd/j/jackm/lorrax_sandbox/sources/lorrax/src/psp/xc.py" source_line=136 scheduling_name="and.35.1.clone.1"}
  %constant_8_1_clone_1 = f64[] constant(2.1461263399673647)
  %broadcast.612.2.clone.1 = f64[36,36,36]{2,1,0} broadcast(%constant_8_1_clone_1), dimensions={}, metadata={scheduling_name="broadcast.612.2.clone.1"}
  %constant_30_2_clone_1 = f64[] constant(3)
  %broadcast.595.1.clone.1 = f64[36,36,36]{2,1,0} broadcast(%constant_30_2_clone_1), dimensions={}, metadata={scheduling_name="broadcast.595.1.clone.1"}
  %maximum.6.21.clone.1 = f64[36,36,36]{2,1,0} maximum(%add.154.17.clone.1, %broadcast.583.58.clone.1), metadata={op_name="jit(compute_V_H_and_V_xc)/jit(main)/max" source_file="/pscratch/sd/j/jackm/lorrax_sandbox/sources/lorrax/src/psp/xc.py" source_line=95 scheduling_name="maximum.6.21.clone.1"}
  %constant_56_2_clone_1 = f64[] constant(1e-30)
  %broadcast.584.8.clone.1 = f64[36,36,36]{2,1,0} broadcast(%constant_56_2_clone_1), dimensions={}, metadata={scheduling_name="broadcast.584.8.clone.1"}
  %maximum.7.7.clone.1 = f64[36,36,36]{2,1,0} maximum(%maximum.6.21.clone.1, %broadcast.584.8.clone.1), metadata={op_name="jit(compute_V_H_and_V_xc)/jit(main)/max" source_file="/pscratch/sd/j/jackm/lorrax_sandbox/sources/jax_xc_local/pbe.py" source_line=20 scheduling_name="maximum.7.7.clone.1"}
  %constant_32_2_clone_1 = f64[] constant(12.566370614359172)
  %broadcast.596.7.clone.1 = f64[36,36,36]{2,1,0} broadcast(%constant_32_2_clone_1), dimensions={}, metadata={scheduling_name="broadcast.596.7.clone.1"}
  %multiply.673.5.clone.1 = f64[36,36,36]{2,1,0} multiply(%maximum.7.7.clone.1, %broadcast.596.7.clone.1), metadata={op_name="jit(compute_V_H_and_V_xc)/jit(main)/mul" source_file="/pscratch/sd/j/jackm/lorrax_sandbox/sources/jax_xc_local/pbe.py" source_line=38 scheduling_name="multiply.673.5.clone.1"}
  %divide.70.1.clone.1 = f64[36,36,36]{2,1,0} divide(%broadcast.595.1.clone.1, %multiply.673.5.clone.1), metadata={op_name="jit(compute_V_H_and_V_xc)/jit(main)/div" source_file="/pscratch/sd/j/jackm/lorrax_sandbox/sources/jax_xc_local/pbe.py" source_line=38 scheduling_name="divide.70.1.clone.1"}
  %constant_48_3_clone_1 = f64[] constant(0.33333333333333331)
  %broadcast.586.2.clone.1 = f64[36,36,36]{2,1,0} broadcast(%constant_48_3_clone_1), dimensions={}, metadata={scheduling_name="broadcast.586.2.clone.1"}
  %power.9.1.clone.1 = f64[36,36,36]{2,1,0} power(%divide.70.1.clone.1, %broadcast.586.2.clone.1), metadata={op_name="jit(compute_V_H_and_V_xc)/jit(main)/pow" source_file="/pscratch/sd/j/jackm/lorrax_sandbox/sources/jax_xc_local/pbe.py" source_line=38 scheduling_name="power.9.1.clone.1"}
  %constant_26_1_clone_1 = f64[] constant(0.2137)
  %broadcast.598.11.clone.1 = f64[36,36,36]{2,1,0} broadcast(%constant_26_1_clone_1), dimensions={}, metadata={scheduling_name="broadcast.598.11.clone.1"}
  %multiply.675.11.clone.1 = f64[36,36,36]{2,1,0} multiply(%power.9.1.clone.1, %broadcast.598.11.clone.1), metadata={op_name="jit(compute_V_H_and_V_xc)/jit(main)/mul" source_file="/pscratch/sd/j/jackm/lorrax_sandbox/sources/jax_xc_local/pbe.py" source_line=49 scheduling_name="multiply.675.11.clone.1"}
  %constant_54_3_clone_1 = f64[] constant(1)
  %broadcast.559.103.clone.1 = f64[36,36,36]{2,1,0} broadcast(%constant_54_3_clone_1), dimensions={}, metadata={op_name="jit(compute_V_H_and_V_xc)/jit(main)/jit(_where)/broadcast_in_dim" source_file="/pscratch/sd/j/jackm/lorrax_sandbox/sources/lorrax/src/psp/dft_operators.py" source_line=118 scheduling_name="broadcast.559.103.clone.1"}
  %add.158.13.clone.1 = f64[36,36,36]{2,1,0} add(%multiply.675.11.clone.1, %broadcast.559.103.clone.1), metadata={op_name="jit(compute_V_H_and_V_xc)/jit(main)/add" source_file="/pscratch/sd/j/jackm/lorrax_sandbox/sources/jax_xc_local/pbe.py" source_line=49 scheduling_name="add.158.13.clone.1"}
  %constant_24_1_clone_1 = f64[] constant(-0.062182)
  %broadcast.600.11.clone.1 = f64[36,36,36]{2,1,0} broadcast(%constant_24_1_clone_1), dimensions={}, metadata={scheduling_name="broadcast.600.11.clone.1"}
  %multiply.678.11.clone.1 = f64[36,36,36]{2,1,0} multiply(%add.158.13.clone.1, %broadcast.600.11.clone.1), metadata={op_name="jit(compute_V_H_and_V_xc)/jit(main)/mul" source_file="/pscratch/sd/j/jackm/lorrax_sandbox/sources/jax_xc_local/pbe.py" source_line=49 scheduling_name="multiply.678.11.clone.1"}
  %sqrt.4.1 = f64[36,36,36]{2,1,0} sqrt(%power.9.1.clone.1), metadata={op_name="jit(compute_V_H_and_V_xc)/jit(main)/sqrt" source_file="/pscratch/sd/j/jackm/lorrax_sandbox/sources/jax_xc_local/pbe.py" source_line=48 scheduling_name="sqrt.4.1"}
  %constant_22_2_clone_1 = f64[] constant(7.5957)
  %broadcast.602.1.clone.1 = f64[36,36,36]{2,1,0} broadcast(%constant_22_2_clone_1), dimensions={}, metadata={scheduling_name="broadcast.602.1.clone.1"}
  %multiply.681.2.clone.1 = f64[36,36,36]{2,1,0} multiply(%sqrt.4.1, %broadcast.602.1.clone.1), metadata={op_name="jit(compute_V_H_and_V_xc)/jit(main)/mul" source_file="/pscratch/sd/j/jackm/lorrax_sandbox/sources/jax_xc_local/pbe.py" source_line=51 scheduling_name="multiply.681.2.clone.1"}
  %constant_20_2_clone_1 = f64[] constant(3.5876)
  %broadcast.603.1.clone.1 = f64[36,36,36]{2,1,0} broadcast(%constant_20_2_clone_1), dimensions={}, metadata={scheduling_name="broadcast.603.1.clone.1"}
  %multiply.682.2.clone.1 = f64[36,36,36]{2,1,0} multiply(%power.9.1.clone.1, %broadcast.603.1.clone.1), metadata={op_name="jit(compute_V_H_and_V_xc)/jit(main)/mul" source_file="/pscratch/sd/j/jackm/lorrax_sandbox/sources/jax_xc_local/pbe.py" source_line=51 scheduling_name="multiply.682.2.clone.1"}
  %add.160.1.clone.1 = f64[36,36,36]{2,1,0} add(%multiply.681.2.clone.1, %multiply.682.2.clone.1), metadata={op_name="jit(compute_V_H_and_V_xc)/jit(main)/add" source_file="/pscratch/sd/j/jackm/lorrax_sandbox/sources/jax_xc_local/pbe.py" source_line=51 scheduling_name="add.160.1.clone.1"}
  %constant_18_2_clone_1 = f64[] constant(1.6382)
  %broadcast.604.9.clone.1 = f64[36,36,36]{2,1,0} broadcast(%constant_18_2_clone_1), dimensions={}, metadata={scheduling_name="broadcast.604.9.clone.1"}
  %multiply.686.3.clone.1 = f64[36,36,36]{2,1,0} multiply(%power.9.1.clone.1, %broadcast.604.9.clone.1), metadata={op_name="jit(compute_V_H_and_V_xc)/jit(main)/mul" source_file="/pscratch/sd/j/jackm/lorrax_sandbox/sources/jax_xc_local/pbe.py" source_line=51 scheduling_name="multiply.686.3.clone.1"}
  %multiply.693.1.clone.1 = f64[36,36,36]{2,1,0} multiply(%multiply.686.3.clone.1, %sqrt.4.1), metadata={op_name="jit(compute_V_H_and_V_xc)/jit(main)/mul" source_file="/pscratch/sd/j/jackm/lorrax_sandbox/sources/jax_xc_local/pbe.py" source_line=51 scheduling_name="multiply.693.1.clone.1"}
  %add.161.2.clone.1 = f64[36,36,36]{2,1,0} add(%add.160.1.clone.1, %multiply.693.1.clone.1), metadata={op_name="jit(compute_V_H_and_V_xc)/jit(main)/add" source_file="/pscratch/sd/j/jackm/lorrax_sandbox/sources/jax_xc_local/pbe.py" source_line=51 scheduling_name="add.161.2.clone.1"}
  %multiply.696.5.clone.1 = f64[36,36,36]{2,1,0} multiply(%power.9.1.clone.1, %power.9.1.clone.1), metadata={op_name="jit(compute_V_H_and_V_xc)/jit(main)/integer_pow" source_file="/pscratch/sd/j/jackm/lorrax_sandbox/sources/jax_xc_local/pbe.py" source_line=51 scheduling_name="multiply.696.5.clone.1"}
  %constant_16_2_clone_1 = f64[] constant(0.49294)
  %broadcast.605.1.clone.1 = f64[36,36,36]{2,1,0} broadcast(%constant_16_2_clone_1), dimensions={}, metadata={scheduling_name="broadcast.605.1.clone.1"}
  %multiply.698.5.clone.1 = f64[36,36,36]{2,1,0} multiply(%multiply.696.5.clone.1, %broadcast.605.1.clone.1), metadata={op_name="jit(compute_V_H_and_V_xc)/jit(main)/mul" source_file="/pscratch/sd/j/jackm/lorrax_sandbox/sources/jax_xc_local/pbe.py" source_line=51 scheduling_name="multiply.698.5.clone.1"}
  %add.162.1.clone.1 = f64[36,36,36]{2,1,0} add(%add.161.2.clone.1, %multiply.698.5.clone.1), metadata={op_name="jit(compute_V_H_and_V_xc)/jit(main)/add" source_file="/pscratch/sd/j/jackm/lorrax_sandbox/sources/jax_xc_local/pbe.py" source_line=51 scheduling_name="add.162.1.clone.1"}
  %constant_14_2_clone_1 = f64[] constant(0.062182)
  %broadcast.606.7.clone.1 = f64[36,36,36]{2,1,0} broadcast(%constant_14_2_clone_1), dimensions={}, metadata={scheduling_name="broadcast.606.7.clone.1"}
  %multiply.699.5.clone.1 = f64[36,36,36]{2,1,0} multiply(%add.162.1.clone.1, %broadcast.606.7.clone.1), metadata={op_name="jit(compute_V_H_and_V_xc)/jit(main)/mul" source_file="/pscratch/sd/j/jackm/lorrax_sandbox/sources/jax_xc_local/pbe.py" source_line=50 scheduling_name="multiply.699.5.clone.1"}
  %divide.71.3.clone.1 = f64[36,36,36]{2,1,0} divide(%broadcast.559.103.clone.1, %multiply.699.5.clone.1), metadata={op_name="jit(compute_V_H_and_V_xc)/jit(main)/div" source_file="/pscratch/sd/j/jackm/lorrax_sandbox/sources/jax_xc_local/pbe.py" source_line=50 scheduling_name="divide.71.3.clone.1"}
  %add.163.1.clone.1 = f64[36,36,36]{2,1,0} add(%divide.71.3.clone.1, %broadcast.559.103.clone.1), metadata={op_name="jit(compute_V_H_and_V_xc)/jit(main)/add" source_file="/pscratch/sd/j/jackm/lorrax_sandbox/sources/jax_xc_local/pbe.py" source_line=50 scheduling_name="add.163.1.clone.1"}
  %log.6.1 = f64[36,36,36]{2,1,0} log(%add.163.1.clone.1), metadata={op_name="jit(compute_V_H_and_V_xc)/jit(main)/log" source_file="/pscratch/sd/j/jackm/lorrax_sandbox/sources/jax_xc_local/pbe.py" source_line=49 scheduling_name="log.6.1"}
  %multiply.700.6.clone.1 = f64[36,36,36]{2,1,0} multiply(%multiply.678.11.clone.1, %log.6.1), metadata={op_name="jit(compute_V_H_and_V_xc)/jit(main)/mul" source_file="/pscratch/sd/j/jackm/lorrax_sandbox/sources/jax_xc_local/pbe.py" source_line=49 scheduling_name="multiply.700.6.clone.1"}
  %negate.39.5.clone.1 = f64[36,36,36]{2,1,0} negate(%multiply.700.6.clone.1), metadata={op_name="jit(compute_V_H_and_V_xc)/jit(main)/neg" source_file="/pscratch/sd/j/jackm/lorrax_sandbox/sources/jax_xc_local/pbe.py" source_line=63 scheduling_name="negate.39.5.clone.1"}
  %constant_163_2_clone_1 = f64[] constant(32.163968442914822)
  %broadcast.614.25.clone.1 = f64[36,36,36]{2,1,0} broadcast(%constant_163_2_clone_1), dimensions={}, metadata={scheduling_name="broadcast.614.25.clone.1"}
  %multiply.707.7.clone.1 = f64[36,36,36]{2,1,0} multiply(%negate.39.5.clone.1, %broadcast.614.25.clone.1), metadata={op_name="jit(compute_V_H_and_V_xc)/jit(main)/div" source_file="/pscratch/sd/j/jackm/lorrax_sandbox/sources/jax_xc_local/pbe.py" source_line=63 scheduling_name="multiply.707.7.clone.1"}
  %exponential.2.5.clone.1 = f64[36,36,36]{2,1,0} exponential(%multiply.707.7.clone.1), metadata={op_name="jit(compute_V_H_and_V_xc)/jit(main)/exp" source_file="/pscratch/sd/j/jackm/lorrax_sandbox/sources/jax_xc_local/pbe.py" source_line=63 scheduling_name="exponential.2.5.clone.1"}
  %constant_576_2_clone_1 = f64[] constant(-1)
  %broadcast.615.1.clone.1 = f64[36,36,36]{2,1,0} broadcast(%constant_576_2_clone_1), dimensions={}, metadata={op_name="jit(compute_V_H_and_V_xc)/jit(main)/add" source_file="/pscratch/sd/j/jackm/lorrax_sandbox/sources/jax_xc_local/pbe.py" source_line=63 scheduling_name="broadcast.615.1.clone.1"}
  %add.166.2.clone.1 = f64[36,36,36]{2,1,0} add(%exponential.2.5.clone.1, %broadcast.615.1.clone.1), metadata={op_name="jit(compute_V_H_and_V_xc)/jit(main)/add" source_file="/pscratch/sd/j/jackm/lorrax_sandbox/sources/jax_xc_local/pbe.py" source_line=63 scheduling_name="add.166.2.clone.1"}
  %divide.73.1.clone.1 = f64[36,36,36]{2,1,0} divide(%broadcast.612.2.clone.1, %add.166.2.clone.1), metadata={op_name="jit(compute_V_H_and_V_xc)/jit(main)/div" source_file="/pscratch/sd/j/jackm/lorrax_sandbox/sources/jax_xc_local/pbe.py" source_line=63 scheduling_name="divide.73.1.clone.1"}
  %constant_549_1_clone_1 = f64[] constant(0.062181381739309788)
  %broadcast.621.4.clone.1 = f64[36,36,36]{2,1,0} broadcast(%constant_549_1_clone_1), dimensions={}, metadata={op_name="jit(compute_V_H_and_V_xc)/jit(main)/mul" source_file="/pscratch/sd/j/jackm/lorrax_sandbox/sources/jax_xc_local/pbe.py" source_line=65 scheduling_name="broadcast.621.4.clone.1"}
  %multiply.725.6.clone.1 = f64[36,36,36]{2,1,0} multiply(%maximum.6.21.clone.1, %broadcast.621.4.clone.1), metadata={op_name="jit(compute_V_H_and_V_xc)/jit(main)/mul" source_file="/pscratch/sd/j/jackm/lorrax_sandbox/sources/jax_xc_local/pbe.py" source_line=65 scheduling_name="multiply.725.6.clone.1"}
  %constant_50_2_clone_1 = f64[] constant(29.608813203268074)
  %broadcast.585.9.clone.1 = f64[36,36,36]{2,1,0} broadcast(%constant_50_2_clone_1), dimensions={}, metadata={scheduling_name="broadcast.585.9.clone.1"}
  %multiply.646.5.clone.1 = f64[36,36,36]{2,1,0} multiply(%maximum.7.7.clone.1, %broadcast.585.9.clone.1), metadata={op_name="jit(compute_V_H_and_V_xc)/jit(main)/mul" source_file="/pscratch/sd/j/jackm/lorrax_sandbox/sources/jax_xc_local/pbe.py" source_line=21 scheduling_name="multiply.646.5.clone.1"}
  %power.8.1.clone.1 = f64[36,36,36]{2,1,0} power(%multiply.646.5.clone.1, %broadcast.586.2.clone.1), metadata={op_name="jit(compute_V_H_and_V_xc)/jit(main)/pow" source_file="/pscratch/sd/j/jackm/lorrax_sandbox/sources/jax_xc_local/pbe.py" source_line=21 scheduling_name="power.8.1.clone.1"}
  %constant_554_2_clone_1 = f64[] constant(1.2732395447351628)
  %broadcast.609.5.clone.1 = f64[36,36,36]{2,1,0} broadcast(%constant_554_2_clone_1), dimensions={}, metadata={op_name="jit(compute_V_H_and_V_xc)/jit(main)/div" source_file="/pscratch/sd/j/jackm/lorrax_sandbox/sources/jax_xc_local/pbe.py" source_line=60 scheduling_name="broadcast.609.5.clone.1"}
  %multiply.701.3.clone.1 = f64[36,36,36]{2,1,0} multiply(%power.8.1.clone.1, %broadcast.609.5.clone.1), metadata={op_name="jit(compute_V_H_and_V_xc)/jit(main)/div" source_file="/pscratch/sd/j/jackm/lorrax_sandbox/sources/jax_xc_local/pbe.py" source_line=60 scheduling_name="multiply.701.3.clone.1"}
  %sqrt.5.1.clone.1 = f64[36,36,36]{2,1,0} sqrt(%multiply.701.3.clone.1), metadata={op_name="jit(compute_V_H_and_V_xc)/jit(main)/sqrt" source_file="/pscratch/sd/j/jackm/lorrax_sandbox/sources/jax_xc_local/pbe.py" source_line=60 scheduling_name="sqrt.5.1.clone.1"}
  %multiply.702.11.clone.1 = f64[36,36,36]{2,1,0} multiply(%sqrt.5.1.clone.1, %sqrt.5.1.clone.1), metadata={op_name="jit(compute_V_H_and_V_xc)/jit(main)/integer_pow" source_file="/pscratch/sd/j/jackm/lorrax_sandbox/sources/jax_xc_local/pbe.py" source_line=61 scheduling_name="multiply.702.11.clone.1"}
  %constant_42_4_clone_1 = f64[] constant(4)
  %broadcast.591.34.clone.1 = f64[36,36,36]{2,1,0} broadcast(%constant_42_4_clone_1), dimensions={}, metadata={scheduling_name="broadcast.591.34.clone.1"}
  %multiply.703.11.clone.1 = f64[36,36,36]{2,1,0} multiply(%multiply.702.11.clone.1, %broadcast.591.34.clone.1), metadata={op_name="jit(compute_V_H_and_V_xc)/jit(main)/mul" source_file="/pscratch/sd/j/jackm/lorrax_sandbox/sources/jax_xc_local/pbe.py" source_line=61 scheduling_name="multiply.703.11.clone.1"}
  %multiply.658.32.clone.1 = f64[36,36,36]{2,1,0} multiply(%maximum.7.7.clone.1, %maximum.7.7.clone.1), metadata={op_name="jit(compute_V_H_and_V_xc)/jit(main)/integer_pow" source_file="/pscratch/sd/j/jackm/lorrax_sandbox/sources/jax_xc_local/pbe.py" source_line=26 scheduling_name="multiply.658.32.clone.1"}
  %multiply.704.9.clone.1 = f64[36,36,36]{2,1,0} multiply(%multiply.703.11.clone.1, %multiply.658.32.clone.1), metadata={op_name="jit(compute_V_H_and_V_xc)/jit(main)/mul" source_file="/pscratch/sd/j/jackm/lorrax_sandbox/sources/jax_xc_local/pbe.py" source_line=61 scheduling_name="multiply.704.9.clone.1"}
  %constant_40_2_clone_1 = f64[] constant(1e-60)
  %broadcast.592.16.clone.1 = f64[36,36,36]{2,1,0} broadcast(%constant_40_2_clone_1), dimensions={}, metadata={scheduling_name="broadcast.592.16.clone.1"}
  %add.165.7.clone.1 = f64[36,36,36]{2,1,0} add(%multiply.704.9.clone.1, %broadcast.592.16.clone.1), metadata={op_name="jit(compute_V_H_and_V_xc)/jit(main)/add" source_file="/pscratch/sd/j/jackm/lorrax_sandbox/sources/jax_xc_local/pbe.py" source_line=61 scheduling_name="add.165.7.clone.1"}
  %divide.90.1.clone.1 = f64[36,36,36]{2,1,0} divide(%maximum.8.5.clone.1, %add.165.7.clone.1), metadata={op_name="jit(compute_V_H_and_V_xc)/jit(main)/div" source_file="/pscratch/sd/j/jackm/lorrax_sandbox/sources/jax_xc_local/pbe.py" source_line=61 scheduling_name="divide.90.1.clone.1"}
  %multiply.912.5.clone.1 = f64[36,36,36]{2,1,0} multiply(%divide.90.1.clone.1, %broadcast.612.2.clone.1), metadata={op_name="jit(compute_V_H_and_V_xc)/jit(main)/mul" source_file="/pscratch/sd/j/jackm/lorrax_sandbox/sources/jax_xc_local/pbe.py" source_line=65 scheduling_name="multiply.912.5.clone.1"}
  %multiply.913.4.clone.1 = f64[36,36,36]{2,1,0} multiply(%divide.73.1.clone.1, %divide.90.1.clone.1), metadata={op_name="jit(compute_V_H_and_V_xc)/jit(main)/mul" source_file="/pscratch/sd/j/jackm/lorrax_sandbox/sources/jax_xc_local/pbe.py" source_line=64 scheduling_name="multiply.913.4.clone.1"}
  %add.191.11.clone.1 = f64[36,36,36]{2,1,0} add(%multiply.913.4.clone.1, %broadcast.559.103.clone.1), metadata={op_name="jit(compute_V_H_and_V_xc)/jit(main)/add" source_file="/pscratch/sd/j/jackm/lorrax_sandbox/sources/jax_xc_local/pbe.py" source_line=65 scheduling_name="add.191.11.clone.1"}
  %multiply.914.4.clone.1 = f64[36,36,36]{2,1,0} multiply(%multiply.912.5.clone.1, %add.191.11.clone.1), metadata={op_name="jit(compute_V_H_and_V_xc)/jit(main)/mul" source_file="/pscratch/sd/j/jackm/lorrax_sandbox/sources/jax_xc_local/pbe.py" source_line=65 scheduling_name="multiply.914.4.clone.1"}
  %multiply.916.5.clone.1 = f64[36,36,36]{2,1,0} multiply(%multiply.913.4.clone.1, %multiply.913.4.clone.1), metadata={op_name="jit(compute_V_H_and_V_xc)/jit(main)/integer_pow" source_file="/pscratch/sd/j/jackm/lorrax_sandbox/sources/jax_xc_local/pbe.py" source_line=65 scheduling_name="multiply.916.5.clone.1"}
  %add.192.5.clone.1 = f64[36,36,36]{2,1,0} add(%add.191.11.clone.1, %multiply.916.5.clone.1), metadata={op_name="jit(compute_V_H_and_V_xc)/jit(main)/add" source_file="/pscratch/sd/j/jackm/lorrax_sandbox/sources/jax_xc_local/pbe.py" source_line=65 scheduling_name="add.192.5.clone.1"}
  %divide.91.3.clone.1 = f64[36,36,36]{2,1,0} divide(%multiply.914.4.clone.1, %add.192.5.clone.1), metadata={op_name="jit(compute_V_H_and_V_xc)/jit(main)/div" source_file="/pscratch/sd/j/jackm/lorrax_sandbox/sources/jax_xc_local/pbe.py" source_line=65 scheduling_name="divide.91.3.clone.1"}
  %add.193.1.clone.1 = f64[36,36,36]{2,1,0} add(%divide.91.3.clone.1, %broadcast.559.103.clone.1), metadata={op_name="jit(compute_V_H_and_V_xc)/jit(main)/add" source_file="/pscratch/sd/j/jackm/lorrax_sandbox/sources/jax_xc_local/pbe.py" source_line=65 scheduling_name="add.193.1.clone.1"}
  %divide.92.5.clone.1 = f64[36,36,36]{2,1,0} divide(%multiply.725.6.clone.1, %add.193.1.clone.1), metadata={op_name="jit(compute_V_H_and_V_xc)/jit(main)/div" source_file="/pscratch/sd/j/jackm/lorrax_sandbox/sources/jax_xc_local/pbe.py" source_line=65 scheduling_name="divide.92.5.clone.1"}
  %multiply.926.3.clone.1 = f64[36,36,36]{2,1,0} multiply(%add.192.5.clone.1, %add.192.5.clone.1), metadata={op_name="jit(compute_V_H_and_V_xc)/jit(main)/mul" source_file="/pscratch/sd/j/jackm/lorrax_sandbox/sources/jax_xc_local/pbe.py" source_line=65 scheduling_name="multiply.926.3.clone.1"}
  %divide.93.3.clone.1 = f64[36,36,36]{2,1,0} divide(%broadcast.559.103.clone.1, %multiply.926.3.clone.1), metadata={op_name="jit(compute_V_H_and_V_xc)/jit(main)/div" source_file="/pscratch/sd/j/jackm/lorrax_sandbox/sources/jax_xc_local/pbe.py" source_line=65 scheduling_name="divide.93.3.clone.1"}
  %multiply.928.5.clone.1 = f64[36,36,36]{2,1,0} multiply(%divide.92.5.clone.1, %divide.93.3.clone.1), metadata={op_name="jit(compute_V_H_and_V_xc)/jit(main)/mul" source_file="/pscratch/sd/j/jackm/lorrax_sandbox/sources/jax_xc_local/pbe.py" source_line=65 scheduling_name="multiply.928.5.clone.1"}
  %multiply.929.3.clone.1 = f64[36,36,36]{2,1,0} multiply(%multiply.928.5.clone.1, %multiply.914.4.clone.1), metadata={op_name="jit(compute_V_H_and_V_xc)/jit(main)/mul" source_file="/pscratch/sd/j/jackm/lorrax_sandbox/sources/jax_xc_local/pbe.py" source_line=65 scheduling_name="multiply.929.3.clone.1"}
  %negate.49.1.clone.1 = f64[36,36,36]{2,1,0} negate(%multiply.929.3.clone.1), metadata={op_name="jit(compute_V_H_and_V_xc)/jit(main)/neg" source_file="/pscratch/sd/j/jackm/lorrax_sandbox/sources/jax_xc_local/pbe.py" source_line=65 scheduling_name="negate.49.1.clone.1"}
  %constant_52_2_clone_1 = f64[] constant(2)
  %broadcast.619.93.clone.1 = f64[36,36,36]{2,1,0} broadcast(%constant_52_2_clone_1), dimensions={}, metadata={scheduling_name="broadcast.619.93.clone.1"}
  %multiply.930.15.clone.1 = f64[36,36,36]{2,1,0} multiply(%multiply.913.4.clone.1, %broadcast.619.93.clone.1), metadata={op_name="jit(compute_V_H_and_V_xc)/jit(main)/mul" source_file="/pscratch/sd/j/jackm/lorrax_sandbox/sources/jax_xc_local/pbe.py" source_line=65 scheduling_name="multiply.930.15.clone.1"}
  %multiply.933.15.clone.1 = f64[36,36,36]{2,1,0} multiply(%negate.49.1.clone.1, %multiply.930.15.clone.1), metadata={op_name="jit(compute_V_H_and_V_xc)/jit(main)/mul" source_file="/pscratch/sd/j/jackm/lorrax_sandbox/sources/jax_xc_local/pbe.py" source_line=65 scheduling_name="multiply.933.15.clone.1"}
  %add.196.15.clone.1 = f64[36,36,36]{2,1,0} add(%multiply.933.15.clone.1, %negate.49.1.clone.1), metadata={op_name="jit(compute_V_H_and_V_xc)/jit(main)/add_any" source_file="/pscratch/sd/j/jackm/lorrax_sandbox/sources/jax_xc_local/pbe.py" source_line=65 scheduling_name="add.196.15.clone.1"}
  %multiply.935.1.clone.1 = f64[36,36,36]{2,1,0} multiply(%add.193.1.clone.1, %add.192.5.clone.1), metadata={scheduling_name="multiply.935.1.clone.1"}
  %divide.94.1.clone.1 = f64[36,36,36]{2,1,0} divide(%multiply.725.6.clone.1, %multiply.935.1.clone.1), metadata={op_name="jit(compute_V_H_and_V_xc)/jit(main)/div" source_file="/pscratch/sd/j/jackm/lorrax_sandbox/sources/jax_xc_local/pbe.py" source_line=65 scheduling_name="divide.94.1.clone.1"}
  %multiply.936.9.clone.1 = f64[36,36,36]{2,1,0} multiply(%multiply.912.5.clone.1, %divide.94.1.clone.1), metadata={op_name="jit(compute_V_H_and_V_xc)/jit(main)/mul" source_file="/pscratch/sd/j/jackm/lorrax_sandbox/sources/jax_xc_local/pbe.py" source_line=65 scheduling_name="multiply.936.9.clone.1"}
  %add.197.13.clone.1 = f64[36,36,36]{2,1,0} add(%add.196.15.clone.1, %multiply.936.9.clone.1), metadata={op_name="jit(compute_V_H_and_V_xc)/jit(main)/add_any" source_file="/pscratch/sd/j/jackm/lorrax_sandbox/sources/jax_xc_local/pbe.py" source_line=65 scheduling_name="add.197.13.clone.1"}
  %multiply.981.4.clone.1 = f64[36,36,36]{2,1,0} multiply(%divide.73.1.clone.1, %add.197.13.clone.1), metadata={op_name="jit(compute_V_H_and_V_xc)/jit(main)/mul" source_file="/pscratch/sd/j/jackm/lorrax_sandbox/sources/jax_xc_local/pbe.py" source_line=64 scheduling_name="multiply.981.4.clone.1"}
  %multiply.982.11.clone.1 = f64[36,36,36]{2,1,0} multiply(%divide.94.1.clone.1, %add.191.11.clone.1), metadata={op_name="jit(compute_V_H_and_V_xc)/jit(main)/mul" source_file="/pscratch/sd/j/jackm/lorrax_sandbox/sources/jax_xc_local/pbe.py" source_line=65 scheduling_name="multiply.982.11.clone.1"}
  %multiply.984.9.clone.1 = f64[36,36,36]{2,1,0} multiply(%multiply.982.11.clone.1, %broadcast.612.2.clone.1), metadata={op_name="jit(compute_V_H_and_V_xc)/jit(main)/mul" source_file="/pscratch/sd/j/jackm/lorrax_sandbox/sources/jax_xc_local/pbe.py" source_line=65 scheduling_name="multiply.984.9.clone.1"}
  %add.204.7.clone.1 = f64[36,36,36]{2,1,0} add(%multiply.981.4.clone.1, %multiply.984.9.clone.1), metadata={op_name="jit(compute_V_H_and_V_xc)/jit(main)/add_any" source_file="/pscratch/sd/j/jackm/lorrax_sandbox/sources/jax_xc_local/pbe.py" source_line=65 scheduling_name="add.204.7.clone.1"}
  %divide.97.3.clone.1 = f64[36,36,36]{2,1,0} divide(%add.204.7.clone.1, %add.165.7.clone.1), metadata={op_name="jit(compute_V_H_and_V_xc)/jit(main)/div" source_file="/pscratch/sd/j/jackm/lorrax_sandbox/sources/jax_xc_local/pbe.py" source_line=61 scheduling_name="divide.97.3.clone.1"}
  %constant_44_2_clone_1 = f64[] constant(-0.238732414637843)
  %broadcast.587.19.clone.1 = f64[36,36,36]{2,1,0} broadcast(%constant_44_2_clone_1), dimensions={}, metadata={scheduling_name="broadcast.587.19.clone.1"}
  %multiply.648.13.clone.1 = f64[36,36,36]{2,1,0} multiply(%power.8.1.clone.1, %broadcast.587.19.clone.1), metadata={op_name="jit(compute_V_H_and_V_xc)/jit(main)/mul" source_file="/pscratch/sd/j/jackm/lorrax_sandbox/sources/jax_xc_local/pbe.py" source_line=22 scheduling_name="multiply.648.13.clone.1"}
  %multiply.723.21.clone.1 = f64[36,36,36]{2,1,0} multiply(%maximum.6.21.clone.1, %broadcast.619.93.clone.1), metadata={op_name="jit(compute_V_H_and_V_xc)/jit(main)/mul" source_file="/pscratch/sd/j/jackm/lorrax_sandbox/sources/jax_xc_local/pbe.py" source_line=78 scheduling_name="multiply.723.21.clone.1"}
  %multiply.826.9.clone.1 = f64[36,36,36]{2,1,0} multiply(%multiply.648.13.clone.1, %multiply.723.21.clone.1), metadata={op_name="jit(compute_V_H_and_V_xc)/jit(main)/mul" source_file="/pscratch/sd/j/jackm/lorrax_sandbox/sources/jax_xc_local/pbe.py" source_line=29 scheduling_name="multiply.826.9.clone.1"}
  %negate.46.7.clone.1 = f64[36,36,36]{2,1,0} negate(%multiply.826.9.clone.1), metadata={op_name="jit(compute_V_H_and_V_xc)/jit(main)/neg" source_file="/pscratch/sd/j/jackm/lorrax_sandbox/sources/jax_xc_local/pbe.py" source_line=27 scheduling_name="negate.46.7.clone.1"}
  %multiply.651.11.clone.1 = f64[36,36,36]{2,1,0} multiply(%power.8.1.clone.1, %power.8.1.clone.1), metadata={op_name="jit(compute_V_H_and_V_xc)/jit(main)/integer_pow" source_file="/pscratch/sd/j/jackm/lorrax_sandbox/sources/jax_xc_local/pbe.py" source_line=26 scheduling_name="multiply.651.11.clone.1"}
  %multiply.655.11.clone.1 = f64[36,36,36]{2,1,0} multiply(%multiply.651.11.clone.1, %broadcast.591.34.clone.1), metadata={op_name="jit(compute_V_H_and_V_xc)/jit(main)/mul" source_file="/pscratch/sd/j/jackm/lorrax_sandbox/sources/jax_xc_local/pbe.py" source_line=26 scheduling_name="multiply.655.11.clone.1"}
  %multiply.661.9.clone.1 = f64[36,36,36]{2,1,0} multiply(%multiply.655.11.clone.1, %multiply.658.32.clone.1), metadata={op_name="jit(compute_V_H_and_V_xc)/jit(main)/mul" source_file="/pscratch/sd/j/jackm/lorrax_sandbox/sources/jax_xc_local/pbe.py" source_line=26 scheduling_name="multiply.661.9.clone.1"}
  %add.156.7.clone.1 = f64[36,36,36]{2,1,0} add(%multiply.661.9.clone.1, %broadcast.592.16.clone.1), metadata={op_name="jit(compute_V_H_and_V_xc)/jit(main)/add" source_file="/pscratch/sd/j/jackm/lorrax_sandbox/sources/jax_xc_local/pbe.py" source_line=26 scheduling_name="add.156.7.clone.1"}
  %divide.88.3.clone.1 = f64[36,36,36]{2,1,0} divide(%maximum.8.5.clone.1, %add.156.7.clone.1), metadata={op_name="jit(compute_V_H_and_V_xc)/jit(main)/div" source_file="/pscratch/sd/j/jackm/lorrax_sandbox/sources/jax_xc_local/pbe.py" source_line=26 scheduling_name="divide.88.3.clone.1"}
  %constant_555_1_clone_1 = f64[] constant(0.27302857309019535)
  %broadcast.593.6.clone.1 = f64[36,36,36]{2,1,0} broadcast(%constant_555_1_clone_1), dimensions={}, metadata={op_name="jit(compute_V_H_and_V_xc)/jit(main)/div" source_file="/pscratch/sd/j/jackm/lorrax_sandbox/sources/jax_xc_local/pbe.py" source_line=27 scheduling_name="broadcast.593.6.clone.1"}
  %multiply.909.3.clone.1 = f64[36,36,36]{2,1,0} multiply(%divide.88.3.clone.1, %broadcast.593.6.clone.1), metadata={op_name="jit(compute_V_H_and_V_xc)/jit(main)/div" source_file="/pscratch/sd/j/jackm/lorrax_sandbox/sources/jax_xc_local/pbe.py" source_line=27 scheduling_name="multiply.909.3.clone.1"}
  %add.190.1.clone.1 = f64[36,36,36]{2,1,0} add(%multiply.909.3.clone.1, %broadcast.559.103.clone.1), metadata={op_name="jit(compute_V_H_and_V_xc)/jit(main)/add" source_file="/pscratch/sd/j/jackm/lorrax_sandbox/sources/jax_xc_local/pbe.py" source_line=27 scheduling_name="add.190.1.clone.1"}
  %multiply.997.7.clone.1 = f64[36,36,36]{2,1,0} multiply(%add.190.1.clone.1, %add.190.1.clone.1), metadata={op_name="jit(compute_V_H_and_V_xc)/jit(main)/mul" source_file="/pscratch/sd/j/jackm/lorrax_sandbox/sources/jax_xc_local/pbe.py" source_line=27 scheduling_name="multiply.997.7.clone.1"}
  %divide.96.7.clone.1 = f64[36,36,36]{2,1,0} divide(%broadcast.559.103.clone.1, %multiply.997.7.clone.1), metadata={op_name="jit(compute_V_H_and_V_xc)/jit(main)/div" source_file="/pscratch/sd/j/jackm/lorrax_sandbox/sources/jax_xc_local/pbe.py" source_line=27 scheduling_name="divide.96.7.clone.1"}
  %multiply.998.5.clone.1 = f64[36,36,36]{2,1,0} multiply(%negate.46.7.clone.1, %divide.96.7.clone.1), metadata={op_name="jit(compute_V_H_and_V_xc)/jit(main)/mul" source_file="/pscratch/sd/j/jackm/lorrax_sandbox/sources/jax_xc_local/pbe.py" source_line=27 scheduling_name="multiply.998.5.clone.1"}
  %constant_36_1_clone_1 = f64[] constant(0.804)
  %broadcast.589.12.clone.1 = f64[36,36,36]{2,1,0} broadcast(%constant_36_1_clone_1), dimensions={}, metadata={scheduling_name="broadcast.589.12.clone.1"}
  %multiply.999.3.clone.1 = f64[36,36,36]{2,1,0} multiply(%multiply.998.5.clone.1, %broadcast.589.12.clone.1), metadata={op_name="jit(compute_V_H_and_V_xc)/jit(main)/mul" source_file="/pscratch/sd/j/jackm/lorrax_sandbox/sources/jax_xc_local/pbe.py" source_line=27 scheduling_name="multiply.999.3.clone.1"}
  %negate.55.1.clone.1 = f64[36,36,36]{2,1,0} negate(%multiply.999.3.clone.1), metadata={op_name="jit(compute_V_H_and_V_xc)/jit(main)/neg" source_file="/pscratch/sd/j/jackm/lorrax_sandbox/sources/jax_xc_local/pbe.py" source_line=27 scheduling_name="negate.55.1.clone.1"}
  %multiply.1000.3.clone.1 = f64[36,36,36]{2,1,0} multiply(%negate.55.1.clone.1, %broadcast.593.6.clone.1), metadata={op_name="jit(compute_V_H_and_V_xc)/jit(main)/mul" source_file="/pscratch/sd/j/jackm/lorrax_sandbox/sources/jax_xc_local/pbe.py" source_line=27 scheduling_name="multiply.1000.3.clone.1"}
  %divide.98.3.clone.1 = f64[36,36,36]{2,1,0} divide(%multiply.1000.3.clone.1, %add.156.7.clone.1), metadata={op_name="jit(compute_V_H_and_V_xc)/jit(main)/div" source_file="/pscratch/sd/j/jackm/lorrax_sandbox/sources/jax_xc_local/pbe.py" source_line=26 scheduling_name="divide.98.3.clone.1"}
  %add.212.3.clone.1 = f64[36,36,36]{2,1,0} add(%divide.97.3.clone.1, %divide.98.3.clone.1), metadata={op_name="jit(compute_V_H_and_V_xc)/jit(main)/add_any" source_file="/pscratch/sd/j/jackm/lorrax_sandbox/sources/jax_xc_local/pbe.py" source_line=26 scheduling_name="add.212.3.clone.1"}
  %select.34.1.clone.1 = f64[36,36,36]{2,1,0} select(%and.35.1.clone.1, %add.212.3.clone.1, %broadcast.590.30.clone.1), metadata={op_name="jit(compute_V_H_and_V_xc)/jit(main)/jit(_where)/select_n" source_file="/pscratch/sd/j/jackm/lorrax_sandbox/sources/lorrax/src/psp/xc.py" source_line=137 scheduling_name="select.34.1.clone.1"}
  %multiply.1018.1 = f64[36,36,36]{2,1,0} multiply(%select.34.1.clone.1, %real.19.6.clone.1), metadata={op_name="jit(compute_V_H_and_V_xc)/jit(main)/mul" source_file="/pscratch/sd/j/jackm/lorrax_sandbox/sources/lorrax/src/psp/xc.py" source_line=144 scheduling_name="multiply.1018.1"}
  %convert.35.1 = c128[36,36,36]{2,1,0} convert(%multiply.1018.1), metadata={op_name="jit(compute_V_H_and_V_xc)/jit(main)/jit(fft)/convert_element_type" source_file="/pscratch/sd/j/jackm/lorrax_sandbox/sources/lorrax/src/psp/dft_operators.py" source_line=297 scheduling_name="convert.35.1"}
  %multiply.1016.1.clone.1 = f64[36,36,36]{2,1,0} multiply(%select.34.1.clone.1, %real.18.6.clone.1), metadata={op_name="jit(compute_V_H_and_V_xc)/jit(main)/mul" source_file="/pscratch/sd/j/jackm/lorrax_sandbox/sources/lorrax/src/psp/xc.py" source_line=144 scheduling_name="multiply.1016.1.clone.1"}
  %convert.34.1.clone.1 = c128[36,36,36]{2,1,0} convert(%multiply.1016.1.clone.1), metadata={op_name="jit(compute_V_H_and_V_xc)/jit(main)/jit(fft)/convert_element_type" source_file="/pscratch/sd/j/jackm/lorrax_sandbox/sources/lorrax/src/psp/dft_operators.py" source_line=297 scheduling_name="convert.34.1.clone.1"}
  %multiply.1020.1.clone.1 = f64[36,36,36]{2,1,0} multiply(%select.34.1.clone.1, %real.20.6.clone.1), metadata={op_name="jit(compute_V_H_and_V_xc)/jit(main)/mul" source_file="/pscratch/sd/j/jackm/lorrax_sandbox/sources/lorrax/src/psp/xc.py" source_line=144 scheduling_name="multiply.1020.1.clone.1"}
  %convert.36.1.clone.1 = c128[36,36,36]{2,1,0} convert(%multiply.1020.1.clone.1), metadata={op_name="jit(compute_V_H_and_V_xc)/jit(main)/jit(fft)/convert_element_type" source_file="/pscratch/sd/j/jackm/lorrax_sandbox/sources/lorrax/src/psp/dft_operators.py" source_line=297 scheduling_name="convert.36.1.clone.1"}
  %convert.30.1 = c128[36,36,36]{2,1,0} convert(%param_3.496), metadata={op_name="jit(compute_V_H_and_V_xc)/jit(main)/jit(fft)/convert_element_type" source_file="/pscratch/sd/j/jackm/lorrax_sandbox/sources/lorrax/src/psp/dft_operators.py" source_line=297 scheduling_name="convert.30.1"}
  ROOT %tuple.54 = (c128[36,36,36]{2,1,0}, c128[36,36,36]{2,1,0}, c128[36,36,36]{2,1,0}, f64[36,36,36]{2,1,0}, f64[36,36,36]{2,1,0}, /*index=5*/f64[36,36,36]{2,1,0}, f64[36,36,36]{2,1,0}, f64[36,36,36]{2,1,0}, f64[36,36,36]{2,1,0}, f64[36,36,36]{2,1,0}, /*index=10*/f64[36,36,36]{2,1,0}, f64[36,36,36]{2,1,0}, f64[36,36,36]{2,1,0}, f64[36,36,36]{2,1,0}, f64[36,36,36]{2,1,0}, /*index=15*/f64[36,36,36]{2,1,0}, f64[36,36,36]{2,1,0}, c128[36,36,36]{2,1,0}) tuple(%convert.35.1, %convert.34.1.clone.1, %convert.36.1.clone.1, %negate.49.1.clone.1, %divide.94.1.clone.1, /*index=5*/%negate.55.1.clone.1, %add.190.1.clone.1, %add.193.1.clone.1, %divide.73.1.clone.1, %log.6.1, /*index=10*/%add.163.1.clone.1, %sqrt.4.1, %power.9.1.clone.1, %divide.70.1.clone.1, %divide.90.1.clone.1, /*index=15*/%sqrt.5.1.clone.1, %power.8.1.clone.1, %convert.30.1), metadata={scheduling_name="tuple.54"}
}

%fused_convert (param_0.716: c128[36,36,36], param_1.906: f64[36,36,36], param_2.532: f64[36,36,36]) -> c128[36,36,36] {
  %param_1.906 = f64[36,36,36]{2,1,0} parameter(1), metadata={scheduling_name="param_1.906"}
  %param_2.532 = f64[36,36,36]{2,1,0} parameter(2), metadata={scheduling_name="param_2.532"}
  %add.154.3 = f64[36,36,36]{2,1,0} add(%param_1.906, %param_2.532), metadata={op_name="jit(compute_V_H_and_V_xc)/jit(main)/add" source_file="/pscratch/sd/j/jackm/lorrax_sandbox/sources/lorrax/src/psp/dft_operators.py" source_line=302 scheduling_name="add.154.3"}
  %param_0.716 = c128[36,36,36]{2,1,0} parameter(0), metadata={scheduling_name="param_0.716"}
  %real.17.1 = f64[36,36,36]{2,1,0} real(%param_0.716), metadata={op_name="jit(compute_V_H_and_V_xc)/jit(main)/real" source_file="/pscratch/sd/j/jackm/lorrax_sandbox/sources/lorrax/src/psp/dft_operators.py" source_line=304 scheduling_name="real.17.1"}
  %subtract.11.1 = f64[36,36,36]{2,1,0} subtract(%add.154.3, %real.17.1), metadata={op_name="jit(compute_V_H_and_V_xc)/jit(main)/sub" source_file="/pscratch/sd/j/jackm/lorrax_sandbox/sources/lorrax/src/psp/dft_operators.py" source_line=305 scheduling_name="subtract.11.1"}
  ROOT %convert.33.1 = c128[36,36,36]{2,1,0} convert(%subtract.11.1), metadata={op_name="jit(compute_V_H_and_V_xc)/jit(main)/jit(fft)/convert_element_type" source_file="/pscratch/sd/j/jackm/lorrax_sandbox/sources/lorrax/src/psp/dft_operators.py" source_line=297 scheduling_name="convert.33.1"}
}

%and.reduce_sub_computation (lhs: pred[], rhs: pred[]) -> pred[] {
  %rhs = pred[] parameter(1), metadata={scheduling_name="rhs"}
  %lhs = pred[] parameter(0), metadata={scheduling_name="lhs"}
  ROOT %and.31 = pred[] and(%lhs, %rhs), metadata={scheduling_name="and.31"}
}

%fused_dynamic_update_slice (param_0.776: c128[36,36,36]) -> c128[36,36,36] {
  %param_0.776 = c128[36,36,36]{2,1,0} parameter(0), metadata={scheduling_name="param_0.776"}
  %constant_64_1 = s32[] constant(0)
  %broadcast.579.1 = s32[3]{0} broadcast(%constant_64_1), dimensions={}, metadata={scheduling_name="broadcast.579.1"}
  %broadcast.580.1 = s32[2]{0} broadcast(%constant_64_1), dimensions={}, metadata={scheduling_name="broadcast.580.1"}
  %pad.11.1 = s32[3]{0} pad(%broadcast.580.1, %constant_64_1), padding=1_0, metadata={scheduling_name="pad.11.1"}
  %compare.56.1 = pred[3]{0} compare(%broadcast.579.1, %pad.11.1), direction=LE, metadata={scheduling_name="compare.56.1"}
  %constant_179_1 = s32[] constant(35)
  %broadcast.581.1 = s32[3]{0} broadcast(%constant_179_1), dimensions={}, metadata={scheduling_name="broadcast.581.1"}
  %compare.57.1 = pred[3]{0} compare(%broadcast.581.1, %pad.11.1), direction=GE, metadata={scheduling_name="compare.57.1"}
  %and.34.1 = pred[3]{0} and(%compare.56.1, %compare.57.1), metadata={scheduling_name="and.34.1"}
  %constant_180_1 = pred[] constant(true)
  %reduce.7.1 = pred[] reduce(%and.34.1, %constant_180_1), dimensions={0}, to_apply=%and.reduce_sub_computation, metadata={scheduling_name="reduce.7.1"}
  %bitcast.2666.3 = pred[1,1,1]{2,1,0} bitcast(%reduce.7.1), metadata={scheduling_name="bitcast.2666.3"}
  %constant_571_1 = c128[1,1,1]{2,1,0} constant({ { {(0, 0)} } })
  %slice.87.1 = c128[1,1,1]{2,1,0} slice(%param_0.776), slice={[0:1], [0:1], [0:1]}, metadata={scheduling_name="slice.87.1"}
  %select.30.3 = c128[1,1,1]{2,1,0} select(%bitcast.2666.3, %constant_571_1, %slice.87.1), metadata={scheduling_name="select.30.3"}
  ROOT %dynamic-update-slice.16.1 = c128[36,36,36]{2,1,0} dynamic-update-slice(%param_0.776, %select.30.3, %constant_64_1, %constant_64_1, %constant_64_1), metadata={op_name="jit(compute_V_H_and_V_xc)/jit(main)/scatter" source_file="/pscratch/sd/j/jackm/lorrax_sandbox/sources/lorrax/src/psp/dft_operators.py" source_line=132 scheduling_name="dynamic-update-slice.16.1"}
}

ENTRY %main.1088 (Arg_0.1.0: f64[36,36,36], Arg_1.2.0: f64[36,36,36], Arg_2.3.0: c128[36,36,36], Arg_3.4.0: f64[36,36,36,3], Arg_4.5.0: f64[3,3]) -> (f64[36,36,36], f64[36,36,36]) {
  %Arg_1.2.0 = f64[36,36,36]{2,1,0} parameter(1), metadata={op_name="rho_core" scheduling_name="Arg_1.2.0"}
  %Arg_0.1.0 = f64[36,36,36]{2,1,0} parameter(0), metadata={op_name="rho_val" scheduling_name="Arg_0.1.0"}
  %Arg_3.4.0 = f64[36,36,36,3]{3,2,1,0} parameter(3), metadata={op_name="G_cart" scheduling_name="Arg_3.4.0"}
  %Arg_2.3.0 = c128[36,36,36]{2,1,0} parameter(2), metadata={op_name="rhog_core" scheduling_name="Arg_2.3.0"}
  %constant_570_0 = f64[1,1,36]{2,1,0} constant({...})
  %constant_569_0 = f64[1,36,1]{2,1,0} constant({...})
  %constant_568_0 = f64[36,1,1]{2,1,0} constant({...})
  %constant_446_0 = f64[36]{0} constant({...}), metadata={op_name="jit(compute_V_H_and_V_xc)/jit(main)/mul" source_file="/pscratch/sd/j/jackm/lorrax_sandbox/sources/lorrax/src/psp/dft_operators.py" source_line=114}
  %constant_403_0 = f64[1,36,1]{2,1,0} constant({...}), metadata={op_name="jit(compute_V_H_and_V_xc)/jit(main)/broadcast_in_dim" source_file="/pscratch/sd/j/jackm/lorrax_sandbox/sources/lorrax/src/psp/dft_operators.py" source_line=112}
  %constant_363_0 = f64[36,1,1]{2,1,0} constant({...}), metadata={op_name="jit(compute_V_H_and_V_xc)/jit(main)/broadcast_in_dim" source_file="/pscratch/sd/j/jackm/lorrax_sandbox/sources/lorrax/src/psp/dft_operators.py" source_line=112}
  %Arg_4.5.0 = f64[3,3]{1,0} parameter(4), metadata={op_name="bdot" scheduling_name="Arg_4.5.0"}
  %fft.2.0 = c128[36,36,36]{2,1,0} fft(%Arg_2.3.0), fft_type=IFFT, fft_length={36,36,36}, metadata={op_name="jit(compute_V_H_and_V_xc)/jit(main)/jit(fft)/fft" source_file="/pscratch/sd/j/jackm/lorrax_sandbox/sources/lorrax/src/psp/ionic_gspace.py" source_line=193 scheduling_name="fft.2.0"}
  %loop_convert_fusion = c128[36,36,36]{2,1,0} fusion(%fft.2.0, %Arg_0.1.0, %Arg_1.2.0), kind=kLoop, calls=%fused_convert, metadata={op_name="jit(compute_V_H_and_V_xc)/jit(main)/jit(fft)/convert_element_type" source_file="/pscratch/sd/j/jackm/lorrax_sandbox/sources/lorrax/src/psp/dft_operators.py" source_line=297 scheduling_name="loop_convert_fusion"}
  %fft.3.0 = c128[36,36,36]{2,1,0} fft(%loop_convert_fusion), fft_type=FFT, fft_length={36,36,36}, metadata={op_name="jit(compute_V_H_and_V_xc)/jit(main)/jit(fft)/fft" source_file="/pscratch/sd/j/jackm/lorrax_sandbox/sources/lorrax/src/psp/dft_operators.py" source_line=297 scheduling_name="fft.3.0"}
  %loop_multiply_fusion = (c128[36,36,36]{2,1,0}, c128[36,36,36]{2,1,0}, c128[36,36,36]{2,1,0}) fusion(%Arg_3.4.0, %fft.3.0, %Arg_2.3.0), kind=kLoop, calls=%fused_multiply, metadata={op_name="jit(compute_V_H_and_V_xc)/jit(main)/mul" source_file="/pscratch/sd/j/jackm/lorrax_sandbox/sources/lorrax/src/psp/xc.py" source_line=56 scheduling_name="loop_multiply_fusion"}
  %get-tuple-element.101 = c128[36,36,36]{2,1,0} get-tuple-element(%loop_multiply_fusion), index=2, metadata={op_name="jit(compute_V_H_and_V_xc)/jit(main)/mul" source_file="/pscratch/sd/j/jackm/lorrax_sandbox/sources/lorrax/src/psp/xc.py" source_line=56 scheduling_name="get-tuple-element.101"}
  %get-tuple-element.100 = c128[36,36,36]{2,1,0} get-tuple-element(%loop_multiply_fusion), index=1, metadata={op_name="jit(compute_V_H_and_V_xc)/jit(main)/mul" source_file="/pscratch/sd/j/jackm/lorrax_sandbox/sources/lorrax/src/psp/xc.py" source_line=56 scheduling_name="get-tuple-element.100"}
  %get-tuple-element.99 = c128[36,36,36]{2,1,0} get-tuple-element(%loop_multiply_fusion), index=0, metadata={op_name="jit(compute_V_H_and_V_xc)/jit(main)/mul" source_file="/pscratch/sd/j/jackm/lorrax_sandbox/sources/lorrax/src/psp/xc.py" source_line=56 scheduling_name="get-tuple-element.99"}
  %fft.6.0 = c128[36,36,36]{2,1,0} fft(%get-tuple-element.99), fft_type=IFFT, fft_length={36,36,36}, metadata={op_name="jit(compute_V_H_and_V_xc)/jit(main)/jit(fft)/fft" source_file="/pscratch/sd/j/jackm/lorrax_sandbox/sources/lorrax/src/psp/ionic_gspace.py" source_line=193 scheduling_name="fft.6.0"}
  %fft.5.0 = c128[36,36,36]{2,1,0} fft(%get-tuple-element.100), fft_type=IFFT, fft_length={36,36,36}, metadata={op_name="jit(compute_V_H_and_V_xc)/jit(main)/jit(fft)/fft" source_file="/pscratch/sd/j/jackm/lorrax_sandbox/sources/lorrax/src/psp/ionic_gspace.py" source_line=193 scheduling_name="fft.5.0"}
  %fft.4.0 = c128[36,36,36]{2,1,0} fft(%get-tuple-element.101), fft_type=IFFT, fft_length={36,36,36}, metadata={op_name="jit(compute_V_H_and_V_xc)/jit(main)/jit(fft)/fft" source_file="/pscratch/sd/j/jackm/lorrax_sandbox/sources/lorrax/src/psp/ionic_gspace.py" source_line=193 scheduling_name="fft.4.0"}
  %loop_add_convert_divide_log_negate_power_sqrt_fusion = (c128[36,36,36]{2,1,0}, c128[36,36,36]{2,1,0}, c128[36,36,36]{2,1,0}, f64[36,36,36]{2,1,0}, f64[36,36,36]{2,1,0}, /*index=5*/f64[36,36,36]{2,1,0}, f64[36,36,36]{2,1,0}, f64[36,36,36]{2,1,0}, f64[36,36,36]{2,1,0}, f64[36,36,36]{2,1,0}, /*index=10*/f64[36,36,36]{2,1,0}, f64[36,36,36]{2,1,0}, f64[36,36,36]{2,1,0}, f64[36,36,36]{2,1,0}, f64[36,36,36]{2,1,0}, /*index=15*/f64[36,36,36]{2,1,0}, f64[36,36,36]{2,1,0}, c128[36,36,36]{2,1,0}) fusion(%fft.5.0, %fft.4.0, %fft.6.0, %Arg_0.1.0, %Arg_1.2.0), kind=kLoop, calls=%fused_add_convert_divide_log_negate_power_sqrt, metadata={op_name="jit(compute_V_H_and_V_xc)/jit(main)/jit(fft)/convert_element_type" source_file="/pscratch/sd/j/jackm/lorrax_sandbox/sources/lorrax/src/psp/dft_operators.py" source_line=297 scheduling_name="loop_add_convert_divide_log_negate_power_sqrt_fusion"}
  %get-tuple-element.107 = c128[36,36,36]{2,1,0} get-tuple-element(%loop_add_convert_divide_log_negate_power_sqrt_fusion), index=17, metadata={op_name="jit(compute_V_H_and_V_xc)/jit(main)/jit(fft)/convert_element_type" source_file="/pscratch/sd/j/jackm/lorrax_sandbox/sources/lorrax/src/psp/dft_operators.py" source_line=297 scheduling_name="get-tuple-element.107"}
  %get-tuple-element.106 = f64[36,36,36]{2,1,0} get-tuple-element(%loop_add_convert_divide_log_negate_power_sqrt_fusion), index=16, metadata={op_name="jit(compute_V_H_and_V_xc)/jit(main)/jit(fft)/convert_element_type" source_file="/pscratch/sd/j/jackm/lorrax_sandbox/sources/lorrax/src/psp/dft_operators.py" source_line=297 scheduling_name="get-tuple-element.106"}
  %get-tuple-element.105 = f64[36,36,36]{2,1,0} get-tuple-element(%loop_add_convert_divide_log_negate_power_sqrt_fusion), index=15, metadata={op_name="jit(compute_V_H_and_V_xc)/jit(main)/jit(fft)/convert_element_type" source_file="/pscratch/sd/j/jackm/lorrax_sandbox/sources/lorrax/src/psp/dft_operators.py" source_line=297 scheduling_name="get-tuple-element.105"}
  %get-tuple-element.98 = f64[36,36,36]{2,1,0} get-tuple-element(%loop_add_convert_divide_log_negate_power_sqrt_fusion), index=14, metadata={op_name="jit(compute_V_H_and_V_xc)/jit(main)/jit(fft)/convert_element_type" source_file="/pscratch/sd/j/jackm/lorrax_sandbox/sources/lorrax/src/psp/dft_operators.py" source_line=297 scheduling_name="get-tuple-element.98"}
  %get-tuple-element.97 = f64[36,36,36]{2,1,0} get-tuple-element(%loop_add_convert_divide_log_negate_power_sqrt_fusion), index=13, metadata={op_name="jit(compute_V_H_and_V_xc)/jit(main)/jit(fft)/convert_element_type" source_file="/pscratch/sd/j/jackm/lorrax_sandbox/sources/lorrax/src/psp/dft_operators.py" source_line=297 scheduling_name="get-tuple-element.97"}
  %get-tuple-element.96 = f64[36,36,36]{2,1,0} get-tuple-element(%loop_add_convert_divide_log_negate_power_sqrt_fusion), index=12, metadata={op_name="jit(compute_V_H_and_V_xc)/jit(main)/jit(fft)/convert_element_type" source_file="/pscratch/sd/j/jackm/lorrax_sandbox/sources/lorrax/src/psp/dft_operators.py" source_line=297 scheduling_name="get-tuple-element.96"}
  %get-tuple-element.95 = f64[36,36,36]{2,1,0} get-tuple-element(%loop_add_convert_divide_log_negate_power_sqrt_fusion), index=11, metadata={op_name="jit(compute_V_H_and_V_xc)/jit(main)/jit(fft)/convert_element_type" source_file="/pscratch/sd/j/jackm/lorrax_sandbox/sources/lorrax/src/psp/dft_operators.py" source_line=297 scheduling_name="get-tuple-element.95"}
  %get-tuple-element.94 = f64[36,36,36]{2,1,0} get-tuple-element(%loop_add_convert_divide_log_negate_power_sqrt_fusion), index=10, metadata={op_name="jit(compute_V_H_and_V_xc)/jit(main)/jit(fft)/convert_element_type" source_file="/pscratch/sd/j/jackm/lorrax_sandbox/sources/lorrax/src/psp/dft_operators.py" source_line=297 scheduling_name="get-tuple-element.94"}
  %get-tuple-element.93 = f64[36,36,36]{2,1,0} get-tuple-element(%loop_add_convert_divide_log_negate_power_sqrt_fusion), index=9, metadata={op_name="jit(compute_V_H_and_V_xc)/jit(main)/jit(fft)/convert_element_type" source_file="/pscratch/sd/j/jackm/lorrax_sandbox/sources/lorrax/src/psp/dft_operators.py" source_line=297 scheduling_name="get-tuple-element.93"}
  %get-tuple-element.92 = f64[36,36,36]{2,1,0} get-tuple-element(%loop_add_convert_divide_log_negate_power_sqrt_fusion), index=8, metadata={op_name="jit(compute_V_H_and_V_xc)/jit(main)/jit(fft)/convert_element_type" source_file="/pscratch/sd/j/jackm/lorrax_sandbox/sources/lorrax/src/psp/dft_operators.py" source_line=297 scheduling_name="get-tuple-element.92"}
  %get-tuple-element.91 = f64[36,36,36]{2,1,0} get-tuple-element(%loop_add_convert_divide_log_negate_power_sqrt_fusion), index=7, metadata={op_name="jit(compute_V_H_and_V_xc)/jit(main)/jit(fft)/convert_element_type" source_file="/pscratch/sd/j/jackm/lorrax_sandbox/sources/lorrax/src/psp/dft_operators.py" source_line=297 scheduling_name="get-tuple-element.91"}
  %get-tuple-element.90 = f64[36,36,36]{2,1,0} get-tuple-element(%loop_add_convert_divide_log_negate_power_sqrt_fusion), index=6, metadata={op_name="jit(compute_V_H_and_V_xc)/jit(main)/jit(fft)/convert_element_type" source_file="/pscratch/sd/j/jackm/lorrax_sandbox/sources/lorrax/src/psp/dft_operators.py" source_line=297 scheduling_name="get-tuple-element.90"}
  %get-tuple-element.89 = f64[36,36,36]{2,1,0} get-tuple-element(%loop_add_convert_divide_log_negate_power_sqrt_fusion), index=5, metadata={op_name="jit(compute_V_H_and_V_xc)/jit(main)/jit(fft)/convert_element_type" source_file="/pscratch/sd/j/jackm/lorrax_sandbox/sources/lorrax/src/psp/dft_operators.py" source_line=297 scheduling_name="get-tuple-element.89"}
  %get-tuple-element.88 = f64[36,36,36]{2,1,0} get-tuple-element(%loop_add_convert_divide_log_negate_power_sqrt_fusion), index=4, metadata={op_name="jit(compute_V_H_and_V_xc)/jit(main)/jit(fft)/convert_element_type" source_file="/pscratch/sd/j/jackm/lorrax_sandbox/sources/lorrax/src/psp/dft_operators.py" source_line=297 scheduling_name="get-tuple-element.88"}
  %get-tuple-element.87 = f64[36,36,36]{2,1,0} get-tuple-element(%loop_add_convert_divide_log_negate_power_sqrt_fusion), index=3, metadata={op_name="jit(compute_V_H_and_V_xc)/jit(main)/jit(fft)/convert_element_type" source_file="/pscratch/sd/j/jackm/lorrax_sandbox/sources/lorrax/src/psp/dft_operators.py" source_line=297 scheduling_name="get-tuple-element.87"}
  %get-tuple-element.86 = c128[36,36,36]{2,1,0} get-tuple-element(%loop_add_convert_divide_log_negate_power_sqrt_fusion), index=2, metadata={op_name="jit(compute_V_H_and_V_xc)/jit(main)/jit(fft)/convert_element_type" source_file="/pscratch/sd/j/jackm/lorrax_sandbox/sources/lorrax/src/psp/dft_operators.py" source_line=297 scheduling_name="get-tuple-element.86"}
  %get-tuple-element.85 = c128[36,36,36]{2,1,0} get-tuple-element(%loop_add_convert_divide_log_negate_power_sqrt_fusion), index=1, metadata={op_name="jit(compute_V_H_and_V_xc)/jit(main)/jit(fft)/convert_element_type" source_file="/pscratch/sd/j/jackm/lorrax_sandbox/sources/lorrax/src/psp/dft_operators.py" source_line=297 scheduling_name="get-tuple-element.85"}
  %get-tuple-element.84 = c128[36,36,36]{2,1,0} get-tuple-element(%loop_add_convert_divide_log_negate_power_sqrt_fusion), index=0, metadata={op_name="jit(compute_V_H_and_V_xc)/jit(main)/jit(fft)/convert_element_type" source_file="/pscratch/sd/j/jackm/lorrax_sandbox/sources/lorrax/src/psp/dft_operators.py" source_line=297 scheduling_name="get-tuple-element.84"}
  %fft.11.0 = c128[36,36,36]{2,1,0} fft(%get-tuple-element.84), fft_type=FFT, fft_length={36,36,36}, metadata={op_name="jit(compute_V_H_and_V_xc)/jit(main)/jit(fft)/fft" source_file="/pscratch/sd/j/jackm/lorrax_sandbox/sources/lorrax/src/psp/dft_operators.py" source_line=297 scheduling_name="fft.11.0"}
  %fft.8.0 = c128[36,36,36]{2,1,0} fft(%get-tuple-element.85), fft_type=FFT, fft_length={36,36,36}, metadata={op_name="jit(compute_V_H_and_V_xc)/jit(main)/jit(fft)/fft" source_file="/pscratch/sd/j/jackm/lorrax_sandbox/sources/lorrax/src/psp/dft_operators.py" source_line=297 scheduling_name="fft.8.0"}
  %fft.14.0 = c128[36,36,36]{2,1,0} fft(%get-tuple-element.86), fft_type=FFT, fft_length={36,36,36}, metadata={op_name="jit(compute_V_H_and_V_xc)/jit(main)/jit(fft)/fft" source_file="/pscratch/sd/j/jackm/lorrax_sandbox/sources/lorrax/src/psp/dft_operators.py" source_line=297 scheduling_name="fft.14.0"}
  %loop_multiply_fusion.1 = (c128[36,36,36]{2,1,0}, c128[36,36,36]{2,1,0}, c128[36,36,36]{2,1,0}) fusion(%fft.11.0, %Arg_3.4.0, %fft.8.0, %fft.14.0), kind=kLoop, calls=%fused_multiply.1, metadata={op_name="jit(compute_V_H_and_V_xc)/jit(main)/mul" source_file="/pscratch/sd/j/jackm/lorrax_sandbox/sources/lorrax/src/psp/xc.py" source_line=145 scheduling_name="loop_multiply_fusion.1"}
  %get-tuple-element.104 = c128[36,36,36]{2,1,0} get-tuple-element(%loop_multiply_fusion.1), index=2, metadata={op_name="jit(compute_V_H_and_V_xc)/jit(main)/mul" source_file="/pscratch/sd/j/jackm/lorrax_sandbox/sources/lorrax/src/psp/xc.py" source_line=145 scheduling_name="get-tuple-element.104"}
  %get-tuple-element.103 = c128[36,36,36]{2,1,0} get-tuple-element(%loop_multiply_fusion.1), index=1, metadata={op_name="jit(compute_V_H_and_V_xc)/jit(main)/mul" source_file="/pscratch/sd/j/jackm/lorrax_sandbox/sources/lorrax/src/psp/xc.py" source_line=145 scheduling_name="get-tuple-element.103"}
  %get-tuple-element.102 = c128[36,36,36]{2,1,0} get-tuple-element(%loop_multiply_fusion.1), index=0, metadata={op_name="jit(compute_V_H_and_V_xc)/jit(main)/mul" source_file="/pscratch/sd/j/jackm/lorrax_sandbox/sources/lorrax/src/psp/xc.py" source_line=145 scheduling_name="get-tuple-element.102"}
  %fft.12.0 = c128[36,36,36]{2,1,0} fft(%get-tuple-element.102), fft_type=IFFT, fft_length={36,36,36}, metadata={op_name="jit(compute_V_H_and_V_xc)/jit(main)/jit(fft)/fft" source_file="/pscratch/sd/j/jackm/lorrax_sandbox/sources/lorrax/src/psp/ionic_gspace.py" source_line=193 scheduling_name="fft.12.0"}
  %fft.9.0 = c128[36,36,36]{2,1,0} fft(%get-tuple-element.103), fft_type=IFFT, fft_length={36,36,36}, metadata={op_name="jit(compute_V_H_and_V_xc)/jit(main)/jit(fft)/fft" source_file="/pscratch/sd/j/jackm/lorrax_sandbox/sources/lorrax/src/psp/ionic_gspace.py" source_line=193 scheduling_name="fft.9.0"}
  %fft.15.0 = c128[36,36,36]{2,1,0} fft(%get-tuple-element.104), fft_type=IFFT, fft_length={36,36,36}, metadata={op_name="jit(compute_V_H_and_V_xc)/jit(main)/jit(fft)/fft" source_file="/pscratch/sd/j/jackm/lorrax_sandbox/sources/lorrax/src/psp/ionic_gspace.py" source_line=193 scheduling_name="fft.15.0"}
  %loop_subtract_fusion = f64[36,36,36]{2,1,0} fusion(%get-tuple-element.91, %get-tuple-element.90, %get-tuple-element.93, %get-tuple-element.95, %fft.15.0, /*index=5*/%fft.12.0, %fft.9.0, %get-tuple-element.106, %get-tuple-element.105, %get-tuple-element.96, /*index=10*/%get-tuple-element.98, %get-tuple-element.92, %get-tuple-element.89, %get-tuple-element.88, %get-tuple-element.87, /*index=15*/%get-tuple-element.94, %fft.6.0, %fft.5.0, %fft.4.0, %Arg_0.1.0, /*index=20*/%Arg_1.2.0, %get-tuple-element.97), kind=kLoop, calls=%fused_subtract, metadata={op_name="jit(compute_V_H_and_V_xc)/jit(main)/sub" source_file="/pscratch/sd/j/jackm/lorrax_sandbox/sources/lorrax/src/psp/xc.py" source_line=147 scheduling_name="loop_subtract_fusion"}
  %fft.0.0 = c128[36,36,36]{2,1,0} fft(%get-tuple-element.107), fft_type=FFT, fft_length={36,36,36}, metadata={op_name="jit(compute_V_H_and_V_xc)/jit(main)/jit(fft)/fft" source_file="/pscratch/sd/j/jackm/lorrax_sandbox/sources/lorrax/src/psp/dft_operators.py" source_line=297 scheduling_name="fft.0.0"}
  %loop_divide_fusion = c128[36,36,36]{2,1,0} fusion(%fft.0.0, %constant_446_0, %constant_403_0, %constant_363_0, %constant_570_0, /*index=5*/%constant_569_0, %constant_568_0, %Arg_4.5.0), kind=kLoop, calls=%fused_divide, metadata={op_name="jit(compute_V_H_and_V_xc)/jit(main)/div" source_file="/pscratch/sd/j/jackm/lorrax_sandbox/sources/lorrax/src/psp/dft_operators.py" source_line=120 scheduling_name="loop_divide_fusion"}
  %loop_dynamic_update_slice_fusion = c128[36,36,36]{2,1,0} fusion(%loop_divide_fusion), kind=kLoop, calls=%fused_dynamic_update_slice, metadata={op_name="jit(compute_V_H_and_V_xc)/jit(main)/scatter" source_file="/pscratch/sd/j/jackm/lorrax_sandbox/sources/lorrax/src/psp/dft_operators.py" source_line=132 scheduling_name="loop_dynamic_update_slice_fusion"}
  %fft.1.0 = c128[36,36,36]{2,1,0} fft(%loop_dynamic_update_slice_fusion), fft_type=IFFT, fft_length={36,36,36}, metadata={op_name="jit(compute_V_H_and_V_xc)/jit(main)/jit(fft)/fft" source_file="/pscratch/sd/j/jackm/lorrax_sandbox/sources/lorrax/src/psp/ionic_gspace.py" source_line=193 scheduling_name="fft.1.0"}
  %loop_real_fusion = f64[36,36,36]{2,1,0} fusion(%fft.1.0), kind=kLoop, calls=%fused_real, metadata={op_name="jit(compute_V_H_and_V_xc)/jit(main)/real" source_file="/pscratch/sd/j/jackm/lorrax_sandbox/sources/lorrax/src/psp/dft_operators.py" source_line=133 scheduling_name="loop_real_fusion"}
  ROOT %tuple.1087.0 = (f64[36,36,36]{2,1,0}, f64[36,36,36]{2,1,0}) tuple(%loop_real_fusion, %loop_subtract_fusion), metadata={scheduling_name="tuple.1087.0"}
}

