HloModule jit__full_run, entry_computation_layout={(c128[64,4,2,480]{3,2,1,0}, c128[64,4,2,480]{3,2,1,0}, c128[64,4,2,480]{3,2,1,0}, c128[64,4,2,480]{3,2,1,0}, f64[64,4]{1,0}, /*index=5*/f64[64,4]{1,0}, c128[480,480,4,4,4]{4,3,2,1,0}, c128[480,480]{1,0})->(f64[5]{0}, c128[5,1024]{1,0}, s32[])}, allow_spmd_sharding_propagation_to_parameters={false,false,false,false,false,false,false,false}, allow_spmd_sharding_propagation_to_output={false,false,false}, num_partitions=4

%scalar_add_computation.1 (scalar_lhs.1: c128[], scalar_rhs.1: c128[]) -> c128[] {
  %scalar_lhs.1 = c128[] parameter(0)
  %scalar_rhs.1 = c128[] parameter(1)
  ROOT %add.756 = c128[] add(%scalar_lhs.1, %scalar_rhs.1)
}

%region_14.1676 (arg_tuple.1677: (s32[], c128[1024,1], s32[], s32[], c128[200,1024,1])) -> (s32[], c128[1024,1], s32[], s32[], c128[200,1024,1]) {
  %constant.1685 = s32[] constant(0)
  %arg_tuple.1677 = (s32[], c128[1024,1]{1,0}, s32[], s32[], c128[200,1024,1]{2,1,0}) parameter(0), sharding={{replicated}, {devices=[2,1,2]<=[4] last_tile_dim_replicate}, {replicated}, {replicated}, {devices=[1,2,1,2]<=[4] last_tile_dim_replicate}}
  %get-tuple-element.1678 = s32[] get-tuple-element(%arg_tuple.1677), index=0, sharding={replicated}
  %constant.1686 = s32[] constant(1), sharding={replicated}
  %add.1687 = s32[] add(%get-tuple-element.1678, %constant.1686), sharding={replicated}, metadata={op_name="jit(_full_run)/jit(main)/while/body/while/body/add" source_file="/global/homes/j/jackm/software/lorrax_C/src/solvers/lanczos.py" source_line=512}
  %get-tuple-element.1679 = c128[1024,1]{1,0} get-tuple-element(%arg_tuple.1677), index=1, sharding={devices=[2,1,2]<=[4] last_tile_dim_replicate}
  %get-tuple-element.1682 = c128[200,1024,1]{2,1,0} get-tuple-element(%arg_tuple.1677), index=4, sharding={devices=[1,2,1,2]<=[4] last_tile_dim_replicate}
  %constant.1061 = s32[] constant(0), sharding={replicated}
  %compare.1689 = pred[] compare(%get-tuple-element.1678, %constant.1061), direction=LT, sharding={replicated}, metadata={op_name="jit(_full_run)/jit(main)/while/body/while/body/lt" source_file="/global/homes/j/jackm/software/lorrax_C/src/solvers/lanczos.py" source_line=506}
  %constant.1684 = s32[] constant(200), sharding={replicated}
  %add.1690 = s32[] add(%get-tuple-element.1678, %constant.1684), sharding={replicated}, metadata={op_name="jit(_full_run)/jit(main)/while/body/while/body/add" source_file="/global/homes/j/jackm/software/lorrax_C/src/solvers/lanczos.py" source_line=506}
  %select.1691 = s32[] select(%compare.1689, %add.1690, %get-tuple-element.1678), sharding={replicated}, metadata={op_name="jit(_full_run)/jit(main)/while/body/while/body/select_n" source_file="/global/homes/j/jackm/software/lorrax_C/src/solvers/lanczos.py" source_line=506}
  %constant.1062 = s32[] constant(0)
  %dynamic-slice.1692 = c128[1,1024,1]{2,1,0} dynamic-slice(%get-tuple-element.1682, %select.1691, %constant.1062, %constant.1062), dynamic_slice_sizes={1,1024,1}, sharding={devices=[1,2,1,2]<=[4] last_tile_dim_replicate}, metadata={op_name="jit(_full_run)/jit(main)/while/body/while/body/dynamic_slice" source_file="/global/homes/j/jackm/software/lorrax_C/src/solvers/lanczos.py" source_line=506}
  %get-tuple-element.1681 = s32[] get-tuple-element(%arg_tuple.1677), index=3, sharding={replicated}
  %compare.1688 = pred[] compare(%get-tuple-element.1678, %get-tuple-element.1681), direction=LT, sharding={replicated}, metadata={op_name="jit(_full_run)/jit(main)/while/body/while/body/lt" source_file="/global/homes/j/jackm/software/lorrax_C/src/solvers/lanczos.py" source_line=505}
  %real.29 = f64[1,1024,1]{2,1,0} real(%dynamic-slice.1692), sharding={devices=[1,2,1,2]<=[4] last_tile_dim_replicate}, metadata={op_name="jit(_full_run)/jit(main)/while/body/while/body/real" source_file="/global/homes/j/jackm/software/lorrax_C/src/solvers/lanczos.py" source_line=508}
  %imag.28 = f64[1,1024,1]{2,1,0} imag(%dynamic-slice.1692), sharding={devices=[1,2,1,2]<=[4] last_tile_dim_replicate}, metadata={op_name="jit(_full_run)/jit(main)/while/body/while/body/imag" source_file="/global/homes/j/jackm/software/lorrax_C/src/solvers/lanczos.py" source_line=508}
  %negate.61 = f64[1,1024,1]{2,1,0} negate(%imag.28), sharding={devices=[1,2,1,2]<=[4] last_tile_dim_replicate}, metadata={op_name="jit(_full_run)/jit(main)/while/body/while/body/neg" source_file="/global/homes/j/jackm/software/lorrax_C/src/solvers/lanczos.py" source_line=508}
  %complex.32 = c128[1,1024,1]{2,1,0} complex(%real.29, %negate.61), sharding={devices=[1,2,1,2]<=[4] last_tile_dim_replicate}, metadata={op_name="jit(_full_run)/jit(main)/while/body/while/body/complex" source_file="/global/homes/j/jackm/software/lorrax_C/src/solvers/lanczos.py" source_line=508}
  %reshape.493 = c128[1024,1]{1,0} reshape(%complex.32), sharding={devices=[2,1,2]<=[4] last_tile_dim_replicate}, metadata={op_name="jit(_full_run)/jit(main)/while/body/while/body/complex" source_file="/global/homes/j/jackm/software/lorrax_C/src/solvers/lanczos.py" source_line=508}
  %multiply.162 = c128[1024,1]{1,0} multiply(%reshape.493, %get-tuple-element.1679), sharding={devices=[2,1,2]<=[4] last_tile_dim_replicate}
  %constant.875 = c128[] constant((0, 0))
  %reduce.15 = c128[] reduce(%multiply.162, %constant.875), dimensions={0,1}, to_apply=%scalar_add_computation.1, sharding={replicated}, metadata={op_name="jit(_full_run)/jit(main)/while/body/while/body/dot_general" source_file="/global/homes/j/jackm/software/lorrax_C/src/solvers/lanczos.py" source_line=508}
  %constant.901 = c128[] constant((0, 0)), sharding={replicated}
  %select.302 = c128[] select(%compare.1688, %reduce.15, %constant.901), sharding={replicated}, metadata={op_name="jit(_full_run)/jit(main)/while/body/while/body/jit(_where)/select_n" source_file="/global/homes/j/jackm/software/lorrax_C/src/solvers/lanczos.py" source_line=507}
  %broadcast.1023 = c128[1,1024,1]{2,1,0} broadcast(%select.302), dimensions={}, sharding={devices=[1,2,1,2]<=[4] last_tile_dim_replicate}, metadata={op_name="jit(_full_run)/jit(main)/while/body/while/body/dot_general" source_file="/global/homes/j/jackm/software/lorrax_C/src/solvers/lanczos.py" source_line=510}
  %multiply.163 = c128[1,1024,1]{2,1,0} multiply(%dynamic-slice.1692, %broadcast.1023), sharding={devices=[1,2,1,2]<=[4] last_tile_dim_replicate}, metadata={op_name="jit(_full_run)/jit(main)/while/body/while/body/dot_general" source_file="/global/homes/j/jackm/software/lorrax_C/src/solvers/lanczos.py" source_line=510}
  %reshape.101 = c128[1024,1]{1,0} reshape(%multiply.163), sharding={devices=[2,1,2]<=[4] last_tile_dim_replicate}, metadata={op_name="jit(_full_run)/jit(main)/while/body/while/body/dot_general" source_file="/global/homes/j/jackm/software/lorrax_C/src/solvers/lanczos.py" source_line=510}
  %subtract.1702 = c128[1024,1]{1,0} subtract(%get-tuple-element.1679, %reshape.101), sharding={devices=[2,1,2]<=[4] last_tile_dim_replicate}, metadata={op_name="jit(_full_run)/jit(main)/while/body/while/body/sub" source_file="/global/homes/j/jackm/software/lorrax_C/src/solvers/lanczos.py" source_line=510}
  %get-tuple-element.1680 = s32[] get-tuple-element(%arg_tuple.1677), index=2, sharding={replicated}
  ROOT %tuple.1703 = (s32[], c128[1024,1]{1,0}, s32[], s32[], c128[200,1024,1]{2,1,0}) tuple(%add.1687, %subtract.1702, %get-tuple-element.1680, %get-tuple-element.1681, %get-tuple-element.1682), sharding={{replicated}, {devices=[2,1,2]<=[4] last_tile_dim_replicate}, {replicated}, {replicated}, {devices=[1,2,1,2]<=[4] last_tile_dim_replicate}}
}

%region_15.1704 (arg_tuple.1705: (s32[], c128[1024,1], s32[], s32[], c128[200,1024,1])) -> pred[] {
  %arg_tuple.1705 = (s32[], c128[1024,1]{1,0}, s32[], s32[], c128[200,1024,1]{2,1,0}) parameter(0), sharding={{replicated}, {devices=[2,1,2]<=[4] last_tile_dim_replicate}, {replicated}, {replicated}, {devices=[1,2,1,2]<=[4] last_tile_dim_replicate}}
  %get-tuple-element.1706 = s32[] get-tuple-element(%arg_tuple.1705), index=0, sharding={replicated}
  %get-tuple-element.1708 = s32[] get-tuple-element(%arg_tuple.1705), index=2, sharding={replicated}
  ROOT %compare.1711 = pred[] compare(%get-tuple-element.1706, %get-tuple-element.1708), direction=LT, sharding={replicated}, metadata={op_name="jit(_full_run)/jit(main)/while/body/while/cond/lt" source_file="/global/homes/j/jackm/software/lorrax_C/src/solvers/lanczos.py" source_line=512}
}

%region_18.1747 (Arg_.0: (f64[5])) -> (f64[5], pred[]) {
  %Arg_.0 = (f64[5]{0}) parameter(0), sharding={{replicated}}
  %get-tuple-element.63 = f64[5]{0} get-tuple-element(%Arg_.0), index=0, sharding={replicated}
  %constant.1749 = pred[] constant(false), sharding={replicated}
  ROOT %tuple.1750 = (f64[5]{0}, pred[]) tuple(%get-tuple-element.63, %constant.1749), sharding={{replicated}, {replicated}}
}

%region_23.1896 (Arg_0.1897: f64[], Arg_1.1898: f64[]) -> f64[] {
  %Arg_0.1897 = f64[] parameter(0), metadata={op_name="jit(_full_run)/jit(main)/while/body/cond/branch_1_fun/reduce_max"}
  %Arg_1.1898 = f64[] parameter(1), metadata={op_name="jit(_full_run)/jit(main)/while/body/cond/branch_1_fun/reduce_max"}
  ROOT %maximum.1899 = f64[] maximum(%Arg_0.1897, %Arg_1.1898), metadata={op_name="jit(_full_run)/jit(main)/while/body/cond/branch_1_fun/reduce_max" source_file="/global/homes/j/jackm/software/lorrax_C/src/solvers/lanczos.py" source_line=549}
}

%region_22.1879 (Arg_0.1880: f64[], Arg_1.1881: f64[]) -> pred[] {
  %constant.1882 = f64[] constant(nan)
  %constant.1883 = f64[] constant(0)
  %Arg_0.1880 = f64[] parameter(0), metadata={op_name="jit(_full_run)/jit(main)/while/body/cond/branch_1_fun/jit(sort)/sort"}
  %compare.1886 = pred[] compare(%Arg_0.1880, %Arg_0.1880), direction=NE, metadata={op_name="jit(_full_run)/jit(main)/while/body/cond/branch_1_fun/jit(sort)/ne" source_file="/global/homes/j/jackm/software/lorrax_C/src/solvers/lanczos.py" source_line=547}
  %constant.1063 = f64[] constant(nan)
  %constant.1065 = f64[] constant(0)
  %compare.1884 = pred[] compare(%Arg_0.1880, %constant.1065), direction=EQ, metadata={op_name="jit(_full_run)/jit(main)/while/body/cond/branch_1_fun/jit(sort)/eq" source_file="/global/homes/j/jackm/software/lorrax_C/src/solvers/lanczos.py" source_line=547}
  %constant.1066 = f64[] constant(0)
  %select.1885 = f64[] select(%compare.1884, %constant.1066, %Arg_0.1880), metadata={op_name="jit(_full_run)/jit(main)/while/body/cond/branch_1_fun/jit(sort)/select_n" source_file="/global/homes/j/jackm/software/lorrax_C/src/solvers/lanczos.py" source_line=547}
  %select.1887 = f64[] select(%compare.1886, %constant.1063, %select.1885), metadata={op_name="jit(_full_run)/jit(main)/while/body/cond/branch_1_fun/jit(sort)/select_n" source_file="/global/homes/j/jackm/software/lorrax_C/src/solvers/lanczos.py" source_line=547}
  %Arg_1.1881 = f64[] parameter(1), metadata={op_name="jit(_full_run)/jit(main)/while/body/cond/branch_1_fun/jit(sort)/sort"}
  %compare.1890 = pred[] compare(%Arg_1.1881, %Arg_1.1881), direction=NE, metadata={op_name="jit(_full_run)/jit(main)/while/body/cond/branch_1_fun/jit(sort)/ne" source_file="/global/homes/j/jackm/software/lorrax_C/src/solvers/lanczos.py" source_line=547}
  %constant.1064 = f64[] constant(nan)
  %constant.1067 = f64[] constant(0)
  %compare.1888 = pred[] compare(%Arg_1.1881, %constant.1067), direction=EQ, metadata={op_name="jit(_full_run)/jit(main)/while/body/cond/branch_1_fun/jit(sort)/eq" source_file="/global/homes/j/jackm/software/lorrax_C/src/solvers/lanczos.py" source_line=547}
  %constant.1068 = f64[] constant(0)
  %select.1889 = f64[] select(%compare.1888, %constant.1068, %Arg_1.1881), metadata={op_name="jit(_full_run)/jit(main)/while/body/cond/branch_1_fun/jit(sort)/select_n" source_file="/global/homes/j/jackm/software/lorrax_C/src/solvers/lanczos.py" source_line=547}
  %select.1891 = f64[] select(%compare.1890, %constant.1064, %select.1889), metadata={op_name="jit(_full_run)/jit(main)/while/body/cond/branch_1_fun/jit(sort)/select_n" source_file="/global/homes/j/jackm/software/lorrax_C/src/solvers/lanczos.py" source_line=547}
  ROOT %compare.1892 = pred[] compare(%select.1887, %select.1891), direction=LT, type=TOTALORDER, metadata={op_name="jit(_full_run)/jit(main)/while/body/cond/branch_1_fun/jit(sort)/lt_to" source_file="/global/homes/j/jackm/software/lorrax_C/src/solvers/lanczos.py" source_line=547}
}

%region_20.1803.clone.clone.clone (arg_tuple.18: (s64[], c128[200,200], c128[200,1,1], c128[200,1,1])) -> (s64[], c128[200,200], c128[200,1,1], c128[200,1,1]) {
  %arg_tuple.18 = (s64[], c128[200,200]{1,0}, c128[200,1,1]{2,1,0}, c128[200,1,1]{2,1,0}) parameter(0), sharding={{replicated}, {replicated}, {replicated}, {replicated}}
  %get-tuple-element.362 = s64[] get-tuple-element(%arg_tuple.18), index=0, sharding={replicated}
  %constant.988 = s64[] constant(1), sharding={replicated}
  %add.767 = s64[] add(%get-tuple-element.362, %constant.988), sharding={replicated}, metadata={op_name="jit(_full_run)/jit(main)/while/body/cond/branch_1_fun/while/body/add" source_file="/global/homes/j/jackm/software/lorrax_C/src/solvers/lanczos.py" source_line=323}
  %get-tuple-element.360 = c128[200,200]{1,0} get-tuple-element(%arg_tuple.18), index=1, sharding={replicated}
  %get-tuple-element.359 = c128[200,1,1]{2,1,0} get-tuple-element(%arg_tuple.18), index=2, sharding={replicated}
  %get-tuple-element.361 = s64[] get-tuple-element(%arg_tuple.18), index=0, sharding={replicated}
  %constant.1119 = s64[] constant(0), sharding={replicated}
  %compare.183 = pred[] compare(%get-tuple-element.361, %constant.1119), direction=LT, sharding={replicated}, metadata={op_name="jit(_full_run)/jit(main)/while/body/cond/branch_1_fun/while/body/lt" source_file="/global/homes/j/jackm/software/lorrax_C/src/solvers/lanczos.py" source_line=315}
  %constant.1131 = s64[] constant(200), sharding={replicated}
  %add.769 = s64[] add(%get-tuple-element.361, %constant.1131), sharding={replicated}, metadata={op_name="jit(_full_run)/jit(main)/while/body/cond/branch_1_fun/while/body/add" source_file="/global/homes/j/jackm/software/lorrax_C/src/solvers/lanczos.py" source_line=315}
  %select.311 = s64[] select(%compare.183, %add.769, %get-tuple-element.361), sharding={replicated}, metadata={op_name="jit(_full_run)/jit(main)/while/body/cond/branch_1_fun/while/body/select_n" source_file="/global/homes/j/jackm/software/lorrax_C/src/solvers/lanczos.py" source_line=315}
  %constant.1120 = s64[] constant(0), sharding={replicated}
  %dynamic-slice.59 = c128[1,1,1]{2,1,0} dynamic-slice(%get-tuple-element.359, %select.311, %constant.1120, %constant.1120), dynamic_slice_sizes={1,1,1}, sharding={replicated}, metadata={op_name="jit(_full_run)/jit(main)/while/body/cond/branch_1_fun/while/body/dynamic_slice" source_file="/global/homes/j/jackm/software/lorrax_C/src/solvers/lanczos.py" source_line=315}
  %reshape.449 = c128[1,1]{1,0} reshape(%dynamic-slice.59), sharding={replicated}, metadata={op_name="jit(_full_run)/jit(main)/while/body/cond/branch_1_fun/while/body/squeeze" source_file="/global/homes/j/jackm/software/lorrax_C/src/solvers/lanczos.py" source_line=315}
  %constant.1121 = s64[] constant(0), sharding={replicated}
  %compare.184 = pred[] compare(%get-tuple-element.361, %constant.1121), direction=LT, sharding={replicated}, metadata={op_name="jit(_full_run)/jit(main)/while/body/cond/branch_1_fun/while/body/lt" source_file="/global/homes/j/jackm/software/lorrax_C/src/solvers/lanczos.py" source_line=315}
  %constant.1132 = s64[] constant(200), sharding={replicated}
  %add.770 = s64[] add(%get-tuple-element.361, %constant.1132), sharding={replicated}, metadata={op_name="jit(_full_run)/jit(main)/while/body/cond/branch_1_fun/while/body/add" source_file="/global/homes/j/jackm/software/lorrax_C/src/solvers/lanczos.py" source_line=315}
  %select.312 = s64[] select(%compare.184, %add.770, %get-tuple-element.361), sharding={replicated}, metadata={op_name="jit(_full_run)/jit(main)/while/body/cond/branch_1_fun/while/body/select_n" source_file="/global/homes/j/jackm/software/lorrax_C/src/solvers/lanczos.py" source_line=315}
  %constant.1122 = s64[] constant(0), sharding={replicated}
  %compare.185 = pred[] compare(%get-tuple-element.361, %constant.1122), direction=LT, sharding={replicated}, metadata={op_name="jit(_full_run)/jit(main)/while/body/cond/branch_1_fun/while/body/lt" source_file="/global/homes/j/jackm/software/lorrax_C/src/solvers/lanczos.py" source_line=315}
  %constant.1133 = s64[] constant(200), sharding={replicated}
  %add.771 = s64[] add(%get-tuple-element.361, %constant.1133), sharding={replicated}, metadata={op_name="jit(_full_run)/jit(main)/while/body/cond/branch_1_fun/while/body/add" source_file="/global/homes/j/jackm/software/lorrax_C/src/solvers/lanczos.py" source_line=315}
  %select.313 = s64[] select(%compare.185, %add.771, %get-tuple-element.361), sharding={replicated}, metadata={op_name="jit(_full_run)/jit(main)/while/body/cond/branch_1_fun/while/body/select_n" source_file="/global/homes/j/jackm/software/lorrax_C/src/solvers/lanczos.py" source_line=315}
  %dynamic-update-slice.30 = c128[200,200]{1,0} dynamic-update-slice(%get-tuple-element.360, %reshape.449, %select.312, %select.313), sharding={replicated}, metadata={op_name="jit(_full_run)/jit(main)/while/body/cond/branch_1_fun/while/body/dynamic_update_slice" source_file="/global/homes/j/jackm/software/lorrax_C/src/solvers/lanczos.py" source_line=315}
  %get-tuple-element.358 = c128[200,1,1]{2,1,0} get-tuple-element(%arg_tuple.18), index=3, sharding={replicated}
  %constant.1123 = s64[] constant(0), sharding={replicated}
  %compare.186 = pred[] compare(%get-tuple-element.361, %constant.1123), direction=LT, sharding={replicated}, metadata={op_name="jit(_full_run)/jit(main)/while/body/cond/branch_1_fun/while/body/lt" source_file="/global/homes/j/jackm/software/lorrax_C/src/solvers/lanczos.py" source_line=318}
  %constant.1134 = s64[] constant(200), sharding={replicated}
  %add.772 = s64[] add(%get-tuple-element.361, %constant.1134), sharding={replicated}, metadata={op_name="jit(_full_run)/jit(main)/while/body/cond/branch_1_fun/while/body/add" source_file="/global/homes/j/jackm/software/lorrax_C/src/solvers/lanczos.py" source_line=318}
  %select.314 = s64[] select(%compare.186, %add.772, %get-tuple-element.361), sharding={replicated}, metadata={op_name="jit(_full_run)/jit(main)/while/body/cond/branch_1_fun/while/body/select_n" source_file="/global/homes/j/jackm/software/lorrax_C/src/solvers/lanczos.py" source_line=318}
  %constant.1124 = s64[] constant(0), sharding={replicated}
  %dynamic-slice.60 = c128[1,1,1]{2,1,0} dynamic-slice(%get-tuple-element.358, %select.314, %constant.1124, %constant.1124), dynamic_slice_sizes={1,1,1}, sharding={replicated}, metadata={op_name="jit(_full_run)/jit(main)/while/body/cond/branch_1_fun/while/body/dynamic_slice" source_file="/global/homes/j/jackm/software/lorrax_C/src/solvers/lanczos.py" source_line=318}
  %reshape.450 = c128[1,1]{1,0} reshape(%dynamic-slice.60), sharding={replicated}, metadata={op_name="jit(_full_run)/jit(main)/while/body/cond/branch_1_fun/while/body/squeeze" source_file="/global/homes/j/jackm/software/lorrax_C/src/solvers/lanczos.py" source_line=318}
  %constant.1139 = s64[] constant(1), sharding={replicated}
  %add.774 = s64[] add(%get-tuple-element.361, %constant.1139), sharding={replicated}, metadata={op_name="jit(_full_run)/jit(main)/while/body/cond/branch_1_fun/while/body/add" source_file="/global/homes/j/jackm/software/lorrax_C/src/solvers/lanczos.py" source_line=318}
  %constant.1125 = s64[] constant(0), sharding={replicated}
  %compare.187 = pred[] compare(%add.774, %constant.1125), direction=LT, sharding={replicated}, metadata={op_name="jit(_full_run)/jit(main)/while/body/cond/branch_1_fun/while/body/lt" source_file="/global/homes/j/jackm/software/lorrax_C/src/solvers/lanczos.py" source_line=318}
  %constant.996 = s64[] constant(201), sharding={replicated}
  %add.780 = s64[] add(%get-tuple-element.361, %constant.996), sharding={replicated}, metadata={op_name="jit(_full_run)/jit(main)/while/body/cond/branch_1_fun/while/body/add" source_file="/global/homes/j/jackm/software/lorrax_C/src/solvers/lanczos.py" source_line=318}
  %select.315 = s64[] select(%compare.187, %add.780, %add.774), sharding={replicated}, metadata={op_name="jit(_full_run)/jit(main)/while/body/cond/branch_1_fun/while/body/select_n" source_file="/global/homes/j/jackm/software/lorrax_C/src/solvers/lanczos.py" source_line=318}
  %constant.1126 = s64[] constant(0), sharding={replicated}
  %compare.188 = pred[] compare(%get-tuple-element.361, %constant.1126), direction=LT, sharding={replicated}, metadata={op_name="jit(_full_run)/jit(main)/while/body/cond/branch_1_fun/while/body/lt" source_file="/global/homes/j/jackm/software/lorrax_C/src/solvers/lanczos.py" source_line=318}
  %constant.1136 = s64[] constant(200), sharding={replicated}
  %add.775 = s64[] add(%get-tuple-element.361, %constant.1136), sharding={replicated}, metadata={op_name="jit(_full_run)/jit(main)/while/body/cond/branch_1_fun/while/body/add" source_file="/global/homes/j/jackm/software/lorrax_C/src/solvers/lanczos.py" source_line=318}
  %select.316 = s64[] select(%compare.188, %add.775, %get-tuple-element.361), sharding={replicated}, metadata={op_name="jit(_full_run)/jit(main)/while/body/cond/branch_1_fun/while/body/select_n" source_file="/global/homes/j/jackm/software/lorrax_C/src/solvers/lanczos.py" source_line=318}
  %dynamic-update-slice.31 = c128[200,200]{1,0} dynamic-update-slice(%dynamic-update-slice.30, %reshape.450, %select.315, %select.316), sharding={replicated}, metadata={op_name="jit(_full_run)/jit(main)/while/body/cond/branch_1_fun/while/body/dynamic_update_slice" source_file="/global/homes/j/jackm/software/lorrax_C/src/solvers/lanczos.py" source_line=318}
  %constant.1127 = s64[] constant(0), sharding={replicated}
  %compare.189 = pred[] compare(%get-tuple-element.361, %constant.1127), direction=LT, sharding={replicated}, metadata={op_name="jit(_full_run)/jit(main)/while/body/cond/branch_1_fun/while/body/lt" source_file="/global/homes/j/jackm/software/lorrax_C/src/solvers/lanczos.py" source_line=320}
  %constant.1137 = s64[] constant(200), sharding={replicated}
  %add.776 = s64[] add(%get-tuple-element.361, %constant.1137), sharding={replicated}, metadata={op_name="jit(_full_run)/jit(main)/while/body/cond/branch_1_fun/while/body/add" source_file="/global/homes/j/jackm/software/lorrax_C/src/solvers/lanczos.py" source_line=320}
  %select.317 = s64[] select(%compare.189, %add.776, %get-tuple-element.361), sharding={replicated}, metadata={op_name="jit(_full_run)/jit(main)/while/body/cond/branch_1_fun/while/body/select_n" source_file="/global/homes/j/jackm/software/lorrax_C/src/solvers/lanczos.py" source_line=320}
  %constant.1128 = s64[] constant(0), sharding={replicated}
  %dynamic-slice.61 = c128[1,1,1]{2,1,0} dynamic-slice(%get-tuple-element.358, %select.317, %constant.1128, %constant.1128), dynamic_slice_sizes={1,1,1}, sharding={replicated}, metadata={op_name="jit(_full_run)/jit(main)/while/body/cond/branch_1_fun/while/body/dynamic_slice" source_file="/global/homes/j/jackm/software/lorrax_C/src/solvers/lanczos.py" source_line=320}
  %real.31 = f64[1,1,1]{2,1,0} real(%dynamic-slice.61), sharding={replicated}, metadata={op_name="jit(_full_run)/jit(main)/while/body/cond/branch_1_fun/while/body/real" source_file="/global/homes/j/jackm/software/lorrax_C/src/solvers/lanczos.py" source_line=320}
  %imag.30 = f64[1,1,1]{2,1,0} imag(%dynamic-slice.61), sharding={replicated}, metadata={op_name="jit(_full_run)/jit(main)/while/body/cond/branch_1_fun/while/body/imag" source_file="/global/homes/j/jackm/software/lorrax_C/src/solvers/lanczos.py" source_line=320}
  %negate.51 = f64[1,1,1]{2,1,0} negate(%imag.30), sharding={replicated}, metadata={op_name="jit(_full_run)/jit(main)/while/body/cond/branch_1_fun/while/body/neg" source_file="/global/homes/j/jackm/software/lorrax_C/src/solvers/lanczos.py" source_line=320}
  %complex.26 = c128[1,1,1]{2,1,0} complex(%real.31, %negate.51), sharding={replicated}, metadata={op_name="jit(_full_run)/jit(main)/while/body/cond/branch_1_fun/while/body/complex" source_file="/global/homes/j/jackm/software/lorrax_C/src/solvers/lanczos.py" source_line=320}
  %reshape.469 = c128[1,1]{1,0} reshape(%complex.26), sharding={replicated}, metadata={op_name="jit(_full_run)/jit(main)/while/body/cond/branch_1_fun/while/body/complex" source_file="/global/homes/j/jackm/software/lorrax_C/src/solvers/lanczos.py" source_line=320}
  %constant.1129 = s64[] constant(0), sharding={replicated}
  %compare.190 = pred[] compare(%get-tuple-element.361, %constant.1129), direction=LT, sharding={replicated}, metadata={op_name="jit(_full_run)/jit(main)/while/body/cond/branch_1_fun/while/body/lt" source_file="/global/homes/j/jackm/software/lorrax_C/src/solvers/lanczos.py" source_line=319}
  %constant.1135 = s64[] constant(200), sharding={replicated}
  %add.777 = s64[] add(%get-tuple-element.361, %constant.1135), sharding={replicated}, metadata={op_name="jit(_full_run)/jit(main)/while/body/cond/branch_1_fun/while/body/add" source_file="/global/homes/j/jackm/software/lorrax_C/src/solvers/lanczos.py" source_line=319}
  %select.318 = s64[] select(%compare.190, %add.777, %get-tuple-element.361), sharding={replicated}, metadata={op_name="jit(_full_run)/jit(main)/while/body/cond/branch_1_fun/while/body/select_n" source_file="/global/homes/j/jackm/software/lorrax_C/src/solvers/lanczos.py" source_line=319}
  %constant.1138 = s64[] constant(1), sharding={replicated}
  %add.779 = s64[] add(%get-tuple-element.361, %constant.1138), sharding={replicated}, metadata={op_name="jit(_full_run)/jit(main)/while/body/cond/branch_1_fun/while/body/add" source_file="/global/homes/j/jackm/software/lorrax_C/src/solvers/lanczos.py" source_line=320}
  %constant.1130 = s64[] constant(0), sharding={replicated}
  %compare.191 = pred[] compare(%add.779, %constant.1130), direction=LT, sharding={replicated}, metadata={op_name="jit(_full_run)/jit(main)/while/body/cond/branch_1_fun/while/body/lt" source_file="/global/homes/j/jackm/software/lorrax_C/src/solvers/lanczos.py" source_line=319}
  %constant.998 = s64[] constant(201), sharding={replicated}
  %add.781 = s64[] add(%get-tuple-element.361, %constant.998), sharding={replicated}, metadata={op_name="jit(_full_run)/jit(main)/while/body/cond/branch_1_fun/while/body/add" source_file="/global/homes/j/jackm/software/lorrax_C/src/solvers/lanczos.py" source_line=319}
  %select.319 = s64[] select(%compare.191, %add.781, %add.779), sharding={replicated}, metadata={op_name="jit(_full_run)/jit(main)/while/body/cond/branch_1_fun/while/body/select_n" source_file="/global/homes/j/jackm/software/lorrax_C/src/solvers/lanczos.py" source_line=319}
  %dynamic-update-slice.32 = c128[200,200]{1,0} dynamic-update-slice(%dynamic-update-slice.31, %reshape.469, %select.318, %select.319), sharding={replicated}, metadata={op_name="jit(_full_run)/jit(main)/while/body/cond/branch_1_fun/while/body/dynamic_update_slice" source_file="/global/homes/j/jackm/software/lorrax_C/src/solvers/lanczos.py" source_line=319}
  ROOT %tuple.83 = (s64[], c128[200,200]{1,0}, c128[200,1,1]{2,1,0}, c128[200,1,1]{2,1,0}) tuple(%add.767, %dynamic-update-slice.32, %get-tuple-element.359, %get-tuple-element.358), sharding={{replicated}, {replicated}, {replicated}, {replicated}}
  %constant.990 = s64[] constant(1)
  %constant.992 = s64[] constant(0)
  %constant.994 = s64[] constant(200)
}

%region_21.1816.clone.clone (arg_tuple.17: (s64[], c128[200,200], c128[200,1,1], c128[200,1,1])) -> pred[] {
  %arg_tuple.17 = (s64[], c128[200,200]{1,0}, c128[200,1,1]{2,1,0}, c128[200,1,1]{2,1,0}) parameter(0), sharding={{replicated}, {replicated}, {replicated}, {replicated}}
  %get-tuple-element.357 = s64[] get-tuple-element(%arg_tuple.17), index=0, sharding={replicated}
  %constant.986 = s64[] constant(199), sharding={replicated}
  ROOT %compare.182 = pred[] compare(%get-tuple-element.357, %constant.986), direction=LT, sharding={replicated}, metadata={op_name="jit(_full_run)/jit(main)/while/body/cond/branch_1_fun/while/cond/lt" source_file="/global/homes/j/jackm/software/lorrax_C/src/solvers/lanczos.py" source_line=323}
}

%region_19.1900 (arg_tuple.1901: (c128[200,1,1], c128[200,1,1], s32[], f64[5])) -> (f64[5], pred[]) {
  %constant.1918 = s64[] constant(0), sharding={replicated}
  %constant.1916 = c128[] constant((0, 0)), sharding={replicated}
  %broadcast.1917 = c128[200,200]{1,0} broadcast(%constant.1916), dimensions={}, sharding={replicated}
  %arg_tuple.1901 = (c128[200,1,1]{2,1,0}, c128[200,1,1]{2,1,0}, s32[], f64[5]{0}) parameter(0), sharding={{replicated}, {replicated}, {replicated}, {replicated}}
  %get-tuple-element.355 = c128[200,1,1]{2,1,0} get-tuple-element(%arg_tuple.1901), index=0, sharding={replicated}
  %get-tuple-element.356 = c128[200,1,1]{2,1,0} get-tuple-element(%arg_tuple.1901), index=1, sharding={replicated}
  %tuple.82 = (s64[], c128[200,200]{1,0}, c128[200,1,1]{2,1,0}, c128[200,1,1]{2,1,0}) tuple(%constant.1918, %broadcast.1917, %get-tuple-element.355, %get-tuple-element.356), sharding={{replicated}, {replicated}, {replicated}, {replicated}}
  %while.18 = (s64[], c128[200,200]{1,0}, c128[200,1,1]{2,1,0}, c128[200,1,1]{2,1,0}) while(%tuple.82), condition=%region_21.1816.clone.clone, body=%region_20.1803.clone.clone.clone, sharding={{replicated}, {replicated}, {replicated}, {replicated}}, metadata={op_name="jit(_full_run)/jit(main)/while/body/cond/branch_1_fun/while" source_file="/global/homes/j/jackm/software/lorrax_C/src/solvers/lanczos.py" source_line=323}
  %get-tuple-element.1923 = c128[200,200]{1,0} get-tuple-element(%while.18), index=1, sharding={replicated}, metadata={op_name="jit(_full_run)/jit(main)/while/body/cond/branch_1_fun/while" source_file="/global/homes/j/jackm/software/lorrax_C/src/solvers/lanczos.py" source_line=323}
  %slice.1924 = c128[1,1,1]{2,1,0} slice(%get-tuple-element.355), slice={[199:200], [0:1], [0:1]}, sharding={replicated}, metadata={op_name="jit(_full_run)/jit(main)/while/body/cond/branch_1_fun/slice" source_file="/global/homes/j/jackm/software/lorrax_C/src/solvers/lanczos.py" source_line=326}
  %reshape.1925 = c128[1,1]{1,0} reshape(%slice.1924), sharding={replicated}, metadata={op_name="jit(_full_run)/jit(main)/while/body/cond/branch_1_fun/squeeze" source_file="/global/homes/j/jackm/software/lorrax_C/src/solvers/lanczos.py" source_line=326}
  %constant.1915 = s64[] constant(199), sharding={replicated}
  %dynamic-update-slice.1926 = c128[200,200]{1,0} dynamic-update-slice(%get-tuple-element.1923, %reshape.1925, %constant.1915, %constant.1915), sharding={replicated}, metadata={op_name="jit(_full_run)/jit(main)/while/body/cond/branch_1_fun/dynamic_update_slice" source_file="/global/homes/j/jackm/software/lorrax_C/src/solvers/lanczos.py" source_line=326}
  %real.1927 = f64[200,200]{1,0} real(%dynamic-update-slice.1926), sharding={replicated}, metadata={op_name="jit(_full_run)/jit(main)/while/body/cond/branch_1_fun/real" source_file="/global/homes/j/jackm/software/lorrax_C/src/solvers/lanczos.py" source_line=327}
  %imag.1928 = f64[200,200]{1,0} imag(%dynamic-update-slice.1926), sharding={replicated}, metadata={op_name="jit(_full_run)/jit(main)/while/body/cond/branch_1_fun/imag" source_file="/global/homes/j/jackm/software/lorrax_C/src/solvers/lanczos.py" source_line=327}
  %negate.1929 = f64[200,200]{1,0} negate(%imag.1928), sharding={replicated}, metadata={op_name="jit(_full_run)/jit(main)/while/body/cond/branch_1_fun/neg" source_file="/global/homes/j/jackm/software/lorrax_C/src/solvers/lanczos.py" source_line=327}
  %complex.1930 = c128[200,200]{1,0} complex(%real.1927, %negate.1929), sharding={replicated}, metadata={op_name="jit(_full_run)/jit(main)/while/body/cond/branch_1_fun/complex" source_file="/global/homes/j/jackm/software/lorrax_C/src/solvers/lanczos.py" source_line=327}
  %transpose.1931 = c128[200,200]{0,1} transpose(%complex.1930), dimensions={1,0}, sharding={replicated}, metadata={op_name="jit(_full_run)/jit(main)/while/body/cond/branch_1_fun/transpose" source_file="/global/homes/j/jackm/software/lorrax_C/src/solvers/lanczos.py" source_line=327}
  %add.1932 = c128[200,200]{1,0} add(%dynamic-update-slice.1926, %transpose.1931), sharding={replicated}, metadata={op_name="jit(_full_run)/jit(main)/while/body/cond/branch_1_fun/add" source_file="/global/homes/j/jackm/software/lorrax_C/src/solvers/lanczos.py" source_line=327}
  %constant.1913 = c128[] constant((0.5, 0)), sharding={replicated}
  %broadcast.1914 = c128[200,200]{1,0} broadcast(%constant.1913), dimensions={}, sharding={replicated}
  %multiply.1933 = c128[200,200]{1,0} multiply(%add.1932, %broadcast.1914), sharding={replicated}, metadata={op_name="jit(_full_run)/jit(main)/while/body/cond/branch_1_fun/mul" source_file="/global/homes/j/jackm/software/lorrax_C/src/solvers/lanczos.py" source_line=327}
  %iota.12 = s64[200,200]{1,0} iota(), iota_dimension=0, sharding={replicated}, metadata={op_name="jit(_full_run)/jit(main)/while/body/cond/branch_1_fun/jit(_diag)/iota" source_file="/global/homes/j/jackm/software/lorrax_C/src/solvers/lanczos.py" source_line=545}
  %iota.13 = s64[200,200]{1,0} iota(), iota_dimension=1, sharding={replicated}, metadata={op_name="jit(_full_run)/jit(main)/while/body/cond/branch_1_fun/jit(_diag)/iota" source_file="/global/homes/j/jackm/software/lorrax_C/src/solvers/lanczos.py" source_line=545}
  %compare.54 = pred[200,200]{1,0} compare(%iota.12, %iota.13), direction=EQ, sharding={replicated}, metadata={op_name="jit(_full_run)/jit(main)/while/body/cond/branch_1_fun/jit(_diag)/eq" source_file="/global/homes/j/jackm/software/lorrax_C/src/solvers/lanczos.py" source_line=545}
  %iota.1934 = s64[200]{0} iota(), iota_dimension=0, sharding={replicated}, metadata={op_name="jit(_full_run)/jit(main)/while/body/cond/branch_1_fun/iota" source_file="/global/homes/j/jackm/software/lorrax_C/src/solvers/lanczos.py" source_line=542}
  %get-tuple-element.1904 = s32[] get-tuple-element(%arg_tuple.1901), index=2, sharding={replicated}
  %constant.1912 = s32[] constant(1), sharding={replicated}
  %add.1935 = s32[] add(%get-tuple-element.1904, %constant.1912), sharding={replicated}, metadata={op_name="jit(_full_run)/jit(main)/while/body/cond/branch_1_fun/add" source_file="/global/homes/j/jackm/software/lorrax_C/src/solvers/lanczos.py" source_line=543}
  %convert.1936 = s64[] convert(%add.1935), sharding={replicated}, metadata={op_name="jit(_full_run)/jit(main)/while/body/cond/branch_1_fun/convert_element_type" source_file="/global/homes/j/jackm/software/lorrax_C/src/solvers/lanczos.py" source_line=544}
  %broadcast.1937 = s64[200]{0} broadcast(%convert.1936), dimensions={}, sharding={replicated}, metadata={op_name="jit(_full_run)/jit(main)/while/body/cond/branch_1_fun/ge" source_file="/global/homes/j/jackm/software/lorrax_C/src/solvers/lanczos.py" source_line=544}
  %compare.1938 = pred[200]{0} compare(%iota.1934, %broadcast.1937), direction=GE, sharding={replicated}, metadata={op_name="jit(_full_run)/jit(main)/while/body/cond/branch_1_fun/ge" source_file="/global/homes/j/jackm/software/lorrax_C/src/solvers/lanczos.py" source_line=544}
  %constant.1910 = f64[] constant(1000000), sharding={replicated}
  %broadcast.1911 = f64[200]{0} broadcast(%constant.1910), dimensions={}, sharding={replicated}
  %constant.673 = f64[] constant(0), sharding={replicated}
  %broadcast.828 = f64[200]{0} broadcast(%constant.673), dimensions={}, sharding={replicated}
  %select.238 = f64[200]{0} select(%compare.1938, %broadcast.1911, %broadcast.828), sharding={replicated}, metadata={op_name="jit(_full_run)/jit(main)/while/body/cond/branch_1_fun/mul" source_file="/global/homes/j/jackm/software/lorrax_C/src/solvers/lanczos.py" source_line=544}
  %broadcast.474 = f64[200,200]{1,0} broadcast(%select.238), dimensions={1}, sharding={replicated}, metadata={op_name="jit(_full_run)/jit(main)/while/body/cond/branch_1_fun/jit(_diag)/jit(_where)/broadcast_in_dim" source_file="/global/homes/j/jackm/software/lorrax_C/src/solvers/lanczos.py" source_line=545}
  %constant.370 = f64[] constant(0), sharding={replicated}
  %broadcast.478 = f64[200,200]{1,0} broadcast(%constant.370), dimensions={}, sharding={replicated}, metadata={op_name="jit(_full_run)/jit(main)/while/body/cond/branch_1_fun/jit(_diag)/jit(_where)/broadcast_in_dim" source_file="/global/homes/j/jackm/software/lorrax_C/src/solvers/lanczos.py" source_line=545}
  %select.127 = f64[200,200]{1,0} select(%compare.54, %broadcast.474, %broadcast.478), sharding={replicated}, metadata={op_name="jit(_full_run)/jit(main)/while/body/cond/branch_1_fun/jit(_diag)/jit(_where)/select_n" source_file="/global/homes/j/jackm/software/lorrax_C/src/solvers/lanczos.py" source_line=545}
  %convert.1942 = c128[200,200]{1,0} convert(%select.127), sharding={replicated}, metadata={op_name="jit(_full_run)/jit(main)/while/body/cond/branch_1_fun/convert_element_type" source_file="/global/homes/j/jackm/software/lorrax_C/src/solvers/lanczos.py" source_line=545}
  %add.1943 = c128[200,200]{1,0} add(%multiply.1933, %convert.1942), sharding={replicated}, metadata={op_name="jit(_full_run)/jit(main)/while/body/cond/branch_1_fun/add" source_file="/global/homes/j/jackm/software/lorrax_C/src/solvers/lanczos.py" source_line=545}
  %real.24 = f64[200,200]{1,0} real(%add.1943), sharding={replicated}, metadata={op_name="jit(_full_run)/jit(main)/while/body/cond/branch_1_fun/jit(eigvalsh)/jit(eigh)/real" source_file="/global/homes/j/jackm/software/lorrax_C/src/solvers/lanczos.py" source_line=546}
  %imag.23 = f64[200,200]{1,0} imag(%add.1943), sharding={replicated}, metadata={op_name="jit(_full_run)/jit(main)/while/body/cond/branch_1_fun/jit(eigvalsh)/jit(eigh)/imag" source_file="/global/homes/j/jackm/software/lorrax_C/src/solvers/lanczos.py" source_line=546}
  %negate.46 = f64[200,200]{1,0} negate(%imag.23), sharding={replicated}, metadata={op_name="jit(_full_run)/jit(main)/while/body/cond/branch_1_fun/jit(eigvalsh)/jit(eigh)/neg" source_file="/global/homes/j/jackm/software/lorrax_C/src/solvers/lanczos.py" source_line=546}
  %complex.27 = c128[200,200]{1,0} complex(%real.24, %negate.46), sharding={replicated}, metadata={op_name="jit(_full_run)/jit(main)/while/body/cond/branch_1_fun/jit(eigvalsh)/jit(eigh)/complex" source_file="/global/homes/j/jackm/software/lorrax_C/src/solvers/lanczos.py" source_line=546}
  %transpose.75 = c128[200,200]{0,1} transpose(%complex.27), dimensions={1,0}, sharding={replicated}, metadata={op_name="jit(_full_run)/jit(main)/while/body/cond/branch_1_fun/jit(eigvalsh)/jit(eigh)/complex" source_file="/global/homes/j/jackm/software/lorrax_C/src/solvers/lanczos.py" source_line=546}
  %add.416 = c128[200,200]{1,0} add(%add.1943, %transpose.75), sharding={replicated}, metadata={op_name="jit(_full_run)/jit(main)/while/body/cond/branch_1_fun/jit(eigvalsh)/jit(eigh)/add" source_file="/global/homes/j/jackm/software/lorrax_C/src/solvers/lanczos.py" source_line=546}
  %constant.674 = c128[] constant((0.5, 0)), sharding={replicated}
  %broadcast.830 = c128[200,200]{1,0} broadcast(%constant.674), dimensions={}, sharding={replicated}
  %multiply.123 = c128[200,200]{1,0} multiply(%add.416, %broadcast.830), sharding={replicated}, metadata={op_name="jit(_full_run)/jit(main)/while/body/cond/branch_1_fun/jit(eigvalsh)/jit(eigh)/div" source_file="/global/homes/j/jackm/software/lorrax_C/src/solvers/lanczos.py" source_line=546}
  %custom-call.16 = (c128[200,200]{0,1}, f64[200]{0}, s32[]) custom-call(%multiply.123), custom_call_target="cusolver_syevd_ffi", operand_layout_constraints={c128[200,200]{0,1}}, output_to_operand_aliasing={{0}: (0, {})}, api_version=API_VERSION_TYPED_FFI, sharding={{replicated}, {replicated}, {replicated}}, frontend_attributes={num_batch_dims="0"}, metadata={op_name="jit(_full_run)/jit(main)/while/body/cond/branch_1_fun/jit(eigvalsh)/jit(eigh)/eigh" source_file="/global/homes/j/jackm/software/lorrax_C/src/solvers/lanczos.py" source_line=546}, backend_config={algorithm = 0 : ui8, lower = true}
  %get-tuple-element.27 = s32[] get-tuple-element(%custom-call.16), index=2, sharding={replicated}, frontend_attributes={num_batch_dims="0"}, metadata={op_name="jit(_full_run)/jit(main)/while/body/cond/branch_1_fun/jit(eigvalsh)/jit(eigh)/eigh" source_file="/global/homes/j/jackm/software/lorrax_C/src/solvers/lanczos.py" source_line=546}
  %constant.372 = s32[] constant(0), sharding={replicated}
  %compare.55 = pred[] compare(%get-tuple-element.27, %constant.372), direction=EQ, sharding={replicated}, metadata={op_name="jit(_full_run)/jit(main)/while/body/cond/branch_1_fun/jit(eigvalsh)/jit(eigh)/eigh" source_file="/global/homes/j/jackm/software/lorrax_C/src/solvers/lanczos.py" source_line=546}
  %broadcast.484 = pred[200]{0} broadcast(%compare.55), dimensions={}, sharding={replicated}, metadata={op_name="jit(_full_run)/jit(main)/while/body/cond/branch_1_fun/jit(eigvalsh)/jit(eigh)/eigh" source_file="/global/homes/j/jackm/software/lorrax_C/src/solvers/lanczos.py" source_line=546}
  %get-tuple-element.28 = f64[200]{0} get-tuple-element(%custom-call.16), index=1, sharding={replicated}, frontend_attributes={num_batch_dims="0"}, metadata={op_name="jit(_full_run)/jit(main)/while/body/cond/branch_1_fun/jit(eigvalsh)/jit(eigh)/eigh" source_file="/global/homes/j/jackm/software/lorrax_C/src/solvers/lanczos.py" source_line=546}
  %constant.373 = f64[] constant(nan), sharding={replicated}
  %broadcast.486 = f64[200]{0} broadcast(%constant.373), dimensions={}, sharding={replicated}
  %select.128 = f64[200]{0} select(%broadcast.484, %get-tuple-element.28, %broadcast.486), sharding={replicated}, metadata={op_name="jit(_full_run)/jit(main)/while/body/cond/branch_1_fun/jit(eigvalsh)/jit(eigh)/eigh" source_file="/global/homes/j/jackm/software/lorrax_C/src/solvers/lanczos.py" source_line=546}
  %sort.0 = f64[200]{0} sort(%select.128), dimensions={0}, is_stable=true, to_apply=%region_22.1879, sharding={replicated}, metadata={op_name="jit(_full_run)/jit(main)/while/body/cond/branch_1_fun/jit(sort)/sort" source_file="/global/homes/j/jackm/software/lorrax_C/src/solvers/lanczos.py" source_line=547}
  %slice.1946 = f64[5]{0} slice(%sort.0), slice={[0:5]}, sharding={replicated}, metadata={op_name="jit(_full_run)/jit(main)/while/body/cond/branch_1_fun/slice" source_file="/global/homes/j/jackm/software/lorrax_C/src/solvers/lanczos.py" source_line=547}
  %get-tuple-element.1905 = f64[5]{0} get-tuple-element(%arg_tuple.1901), index=3, sharding={replicated}
  %subtract.1949 = f64[5]{0} subtract(%slice.1946, %get-tuple-element.1905), sharding={replicated}, metadata={op_name="jit(_full_run)/jit(main)/while/body/cond/branch_1_fun/sub" source_file="/global/homes/j/jackm/software/lorrax_C/src/solvers/lanczos.py" source_line=549}
  %abs.1950 = f64[5]{0} abs(%subtract.1949), sharding={replicated}, metadata={op_name="jit(_full_run)/jit(main)/while/body/cond/branch_1_fun/abs" source_file="/global/homes/j/jackm/software/lorrax_C/src/solvers/lanczos.py" source_line=549}
  %abs.1947 = f64[5]{0} abs(%slice.1946), sharding={replicated}, metadata={op_name="jit(_full_run)/jit(main)/while/body/cond/branch_1_fun/abs" source_file="/global/homes/j/jackm/software/lorrax_C/src/solvers/lanczos.py" source_line=548}
  %constant.1908 = f64[] constant(1e-08), sharding={replicated}
  %broadcast.1909 = f64[5]{0} broadcast(%constant.1908), dimensions={}, sharding={replicated}
  %maximum.1948 = f64[5]{0} maximum(%abs.1947, %broadcast.1909), sharding={replicated}, metadata={op_name="jit(_full_run)/jit(main)/while/body/cond/branch_1_fun/max" source_file="/global/homes/j/jackm/software/lorrax_C/src/solvers/lanczos.py" source_line=548}
  %divide.1951 = f64[5]{0} divide(%abs.1950, %maximum.1948), sharding={replicated}, metadata={op_name="jit(_full_run)/jit(main)/while/body/cond/branch_1_fun/div" source_file="/global/homes/j/jackm/software/lorrax_C/src/solvers/lanczos.py" source_line=549}
  %constant.1907 = f64[] constant(-inf)
  %reduce.1952 = f64[] reduce(%divide.1951, %constant.1907), dimensions={0}, to_apply=%region_23.1896, sharding={replicated}, metadata={op_name="jit(_full_run)/jit(main)/while/body/cond/branch_1_fun/reduce_max" source_file="/global/homes/j/jackm/software/lorrax_C/src/solvers/lanczos.py" source_line=549}
  %constant.1906 = f64[] constant(0.0001), sharding={replicated}
  %compare.1953 = pred[] compare(%reduce.1952, %constant.1906), direction=LT, sharding={replicated}, metadata={op_name="jit(_full_run)/jit(main)/while/body/cond/branch_1_fun/lt" source_file="/global/homes/j/jackm/software/lorrax_C/src/solvers/lanczos.py" source_line=550}
  ROOT %tuple.1954 = (f64[5]{0}, pred[]) tuple(%slice.1946, %compare.1953), sharding={{replicated}, {replicated}}
}

%region_7.1323 (Arg_0.1324: c128[], Arg_1.1325: c128[]) -> c128[] {
  %Arg_0.1324 = c128[] parameter(0), metadata={op_name="jit(_full_run)/jit(main)/while/body/jit(_matvec_impl)/jit(shmap_body)/psum2"}
  %Arg_1.1325 = c128[] parameter(1), metadata={op_name="jit(_full_run)/jit(main)/while/body/jit(_matvec_impl)/jit(shmap_body)/psum2"}
  ROOT %add.1326 = c128[] add(%Arg_0.1324, %Arg_1.1325), metadata={op_name="jit(_full_run)/jit(main)/while/body/jit(_matvec_impl)/jit(shmap_body)/add" source_file="/global/homes/j/jackm/software/lorrax_C/src/bse/bse_ring_comm.py" source_line=290}
}

%region_8.1327 (Arg_0.1328: c128[], Arg_1.1329: c128[]) -> c128[] {
  %Arg_0.1328 = c128[] parameter(0), metadata={op_name="jit(_full_run)/jit(main)/while/body/jit(_matvec_impl)/jit(shmap_body)/reduce_scatter"}
  %Arg_1.1329 = c128[] parameter(1), metadata={op_name="jit(_full_run)/jit(main)/while/body/jit(_matvec_impl)/jit(shmap_body)/reduce_scatter"}
  ROOT %add.1330 = c128[] add(%Arg_0.1328, %Arg_1.1329), metadata={op_name="jit(_full_run)/jit(main)/while/body/jit(_matvec_impl)/jit(shmap_body)/add" source_file="/global/homes/j/jackm/software/lorrax_C/src/bse/bse_ring_comm.py" source_line=298}
}

%scalar_add_computation (scalar_lhs: c128[], scalar_rhs: c128[]) -> c128[] {
  %scalar_lhs = c128[] parameter(0)
  %scalar_rhs = c128[] parameter(1)
  ROOT %add.592 = c128[] add(%scalar_lhs, %scalar_rhs)
}

%region_5.1287 (Arg_0.1288: c128[], Arg_1.1289: c128[]) -> c128[] {
  %Arg_0.1288 = c128[] parameter(0), metadata={op_name="jit(_full_run)/jit(main)/while/body/jit(_matvec_impl)/jit(shmap_body)/while/body/reduce_sum"}
  %Arg_1.1289 = c128[] parameter(1), metadata={op_name="jit(_full_run)/jit(main)/while/body/jit(_matvec_impl)/jit(shmap_body)/while/body/reduce_sum"}
  ROOT %add.1290 = c128[] add(%Arg_0.1288, %Arg_1.1289), metadata={op_name="jit(_full_run)/jit(main)/while/body/jit(_matvec_impl)/jit(shmap_body)/while/body/reduce_sum" source_file="/global/homes/j/jackm/software/lorrax_C/src/bse/bse_ring_comm.py" source_line=281}
}

%region_4.1302.clone (arg_tuple.7: (s64[], c128[1,2,240,64], c128[1,240,64])) -> (s64[], c128[1,2,240,64], c128[1,240,64]) {
  %arg_tuple.7 = (s64[], c128[1,2,240,64]{3,2,1,0}, c128[1,240,64]{2,1,0}) parameter(0), sharding={{replicated}, {manual}, {manual}}
  %get-tuple-element.194 = s64[] get-tuple-element(%arg_tuple.7), index=0, sharding={replicated}
  %constant.785 = s64[] constant(1), sharding={replicated}
  %add.680 = s64[] add(%get-tuple-element.194, %constant.785), sharding={replicated}, metadata={op_name="jit(_full_run)/jit(main)/while/body/jit(_matvec_impl)/jit(shmap_body)/while/body/add" source_file="/global/homes/j/jackm/software/lorrax_C/src/bse/bse_ring_comm.py" source_line=285}
  %get-tuple-element.195 = c128[1,2,240,64]{3,2,1,0} get-tuple-element(%arg_tuple.7), index=1, sharding={manual}
  %collective-permute.6 = c128[1,2,240,64]{3,2,1,0} collective-permute(%get-tuple-element.195), channel_id=2, source_target_pairs={{0,2},{2,0},{1,3},{3,1}}, sharding={manual}, metadata={op_name="jit(_full_run)/jit(main)/while/body/jit(_matvec_impl)/jit(shmap_body)/while/body/ppermute" source_file="/global/homes/j/jackm/software/lorrax_C/src/bse/bse_ring_comm.py" source_line=282}
  %get-tuple-element.196 = c128[1,240,64]{2,1,0} get-tuple-element(%arg_tuple.7), index=2, sharding={manual}
  %constant.787 = c128[] constant((0, 0)), sharding={manual}
  %reduce.10 = c128[1,240,64]{2,1,0} reduce(%get-tuple-element.195, %constant.787), dimensions={1}, to_apply=%region_5.1287, sharding={manual}, metadata={op_name="jit(_full_run)/jit(main)/while/body/jit(_matvec_impl)/jit(shmap_body)/while/body/reduce_sum" source_file="/global/homes/j/jackm/software/lorrax_C/src/bse/bse_ring_comm.py" source_line=281}
  %add.682 = c128[1,240,64]{2,1,0} add(%get-tuple-element.196, %reduce.10), sharding={manual}, metadata={op_name="jit(_full_run)/jit(main)/while/body/jit(_matvec_impl)/jit(shmap_body)/while/body/add" source_file="/global/homes/j/jackm/software/lorrax_C/src/bse/bse_ring_comm.py" source_line=281}
  ROOT %tuple.54 = (s64[], c128[1,2,240,64]{3,2,1,0}, c128[1,240,64]{2,1,0}) tuple(%add.680, %collective-permute.6, %add.682), sharding={{replicated}, {manual}, {manual}}
}

%region_6.1315.clone (arg_tuple.6: (s64[], c128[1,2,240,64], c128[1,240,64])) -> pred[] {
  %arg_tuple.6 = (s64[], c128[1,2,240,64]{3,2,1,0}, c128[1,240,64]{2,1,0}) parameter(0), sharding={{replicated}, {manual}, {manual}}
  %get-tuple-element.193 = s64[] get-tuple-element(%arg_tuple.6), index=0, sharding={replicated}
  %constant.784 = s64[] constant(2), sharding={replicated}
  ROOT %compare.124 = pred[] compare(%get-tuple-element.193, %constant.784), direction=LT, sharding={replicated}, metadata={op_name="jit(_full_run)/jit(main)/while/body/jit(_matvec_impl)/jit(shmap_body)/while/cond/lt" source_file="/global/homes/j/jackm/software/lorrax_C/src/bse/bse_ring_comm.py" source_line=285}
}

%and.reduce_sub_computation (lhs: pred[], rhs: pred[]) -> pred[] {
  %lhs = pred[] parameter(0)
  %rhs = pred[] parameter(1)
  ROOT %and.11 = pred[] and(%lhs, %rhs)
}

%and.reduce_sub_computation.1 (lhs.1: pred[], rhs.1: pred[]) -> pred[] {
  %lhs.1 = pred[] parameter(0)
  %rhs.1 = pred[] parameter(1)
  ROOT %and.13 = pred[] and(%lhs.1, %rhs.1)
}

%and.reduce_sub_computation.2 (lhs.2: pred[], rhs.2: pred[]) -> pred[] {
  %lhs.2 = pred[] parameter(0)
  %rhs.2 = pred[] parameter(1)
  ROOT %and.15 = pred[] and(%lhs.2, %rhs.2)
}

%region_2.1259.clone.clone.clone (arg_tuple.20: (s64[], c128[1,2,2,64], c128[1,2,240,64], s32[], c128[64,4,2,240], /*index=5*/c128[64,2,2,240])) -> (s64[], c128[1,2,2,64], c128[1,2,240,64], s32[], c128[64,4,2,240], /*index=5*/c128[64,2,2,240]) {
  %arg_tuple.20 = (s64[], c128[1,2,2,64]{3,2,1,0}, c128[1,2,240,64]{3,2,1,0}, s32[], c128[64,4,2,240]{3,2,1,0}, /*index=5*/c128[64,2,2,240]{3,2,1,0}) parameter(0), sharding={{manual}, {manual}, {manual}, {manual}, {manual}, /*index=5*/{manual}}
  %get-tuple-element.381 = s64[] get-tuple-element(%arg_tuple.20), index=0, sharding={manual}
  %constant.1002 = s64[] constant(1), sharding={manual}
  %add.782 = s64[] add(%get-tuple-element.381, %constant.1002), sharding={manual}, metadata={op_name="jit(_full_run)/jit(main)/while/body/jit(_matvec_impl)/jit(shmap_body)/while/body/add" source_file="/global/homes/j/jackm/software/lorrax_C/src/bse/bse_ring_comm.py" source_line=274}
  %get-tuple-element.379 = c128[1,2,2,64]{3,2,1,0} get-tuple-element(%arg_tuple.20), index=1, sharding={manual}
  %collective-permute.11 = c128[1,2,2,64]{3,2,1,0} collective-permute(%get-tuple-element.379), channel_id=1, source_target_pairs={{0,1},{1,0},{2,3},{3,2}}, sharding={manual}, metadata={op_name="jit(_full_run)/jit(main)/while/body/jit(_matvec_impl)/jit(shmap_body)/while/body/ppermute" source_file="/global/homes/j/jackm/software/lorrax_C/src/bse/bse_ring_comm.py" source_line=271}
  %get-tuple-element.378 = c128[1,2,240,64]{3,2,1,0} get-tuple-element(%arg_tuple.20), index=2, sharding={manual}
  %reshape.454 = c128[2,2,64]{2,1,0} reshape(%get-tuple-element.379), sharding={manual}
  %get-tuple-element.376 = c128[64,4,2,240]{3,2,1,0} get-tuple-element(%arg_tuple.20), index=4, sharding={manual}
  %constant.1004 = s32[] constant(0), sharding={manual}, metadata={op_name="jit(_full_run)/jit(main)/while/body/jit(_matvec_impl)/jit(shmap_body)/while/body/select_n" source_file="/global/homes/j/jackm/software/lorrax_C/src/bse/bse_ring_comm.py" source_line=266}
  %get-tuple-element.377 = s32[] get-tuple-element(%arg_tuple.20), index=3, sharding={manual}
  %get-tuple-element.380 = s64[] get-tuple-element(%arg_tuple.20), index=0, sharding={manual}
  %convert.65 = s32[] convert(%get-tuple-element.380), sharding={manual}, metadata={op_name="jit(_full_run)/jit(main)/while/body/jit(_matvec_impl)/jit(shmap_body)/while/body/convert_element_type" source_file="/global/homes/j/jackm/software/lorrax_C/src/bse/bse_ring_comm.py" source_line=264}
  %subtract.32 = s32[] subtract(%get-tuple-element.377, %convert.65), sharding={manual}, metadata={op_name="jit(_full_run)/jit(main)/while/body/jit(_matvec_impl)/jit(shmap_body)/while/body/sub" source_file="/global/homes/j/jackm/software/lorrax_C/src/bse/bse_ring_comm.py" source_line=264}
  %constant.1018 = s32[] constant(0), sharding={manual}
  %compare.196 = pred[] compare(%subtract.32, %constant.1018), direction=LT, sharding={manual}, metadata={op_name="jit(_full_run)/jit(main)/while/body/jit(_matvec_impl)/jit(shmap_body)/while/body/jit(remainder)/rem" source_file="/global/homes/j/jackm/software/lorrax_C/src/bse/bse_ring_comm.py" source_line=264}
  %negate.53 = s32[] negate(%subtract.32), sharding={manual}, metadata={op_name="jit(_full_run)/jit(main)/while/body/jit(_matvec_impl)/jit(shmap_body)/while/body/jit(remainder)/rem" source_file="/global/homes/j/jackm/software/lorrax_C/src/bse/bse_ring_comm.py" source_line=264}
  %select.322 = s32[] select(%compare.196, %negate.53, %subtract.32), sharding={manual}, metadata={op_name="jit(_full_run)/jit(main)/while/body/jit(_matvec_impl)/jit(shmap_body)/while/body/jit(remainder)/rem" source_file="/global/homes/j/jackm/software/lorrax_C/src/bse/bse_ring_comm.py" source_line=264}
  %constant.1020 = s32[] constant(1), sharding={manual}, metadata={op_name="jit(_full_run)/jit(main)/while/body/jit(_matvec_impl)/jit(shmap_body)/while/body/jit(remainder)/rem" source_file="/global/homes/j/jackm/software/lorrax_C/src/bse/bse_ring_comm.py" source_line=264}
  %and.34 = s32[] and(%select.322, %constant.1020), sharding={manual}, metadata={op_name="jit(_full_run)/jit(main)/while/body/jit(_matvec_impl)/jit(shmap_body)/while/body/jit(remainder)/rem" source_file="/global/homes/j/jackm/software/lorrax_C/src/bse/bse_ring_comm.py" source_line=264}
  %negate.54 = s32[] negate(%and.34), sharding={manual}, metadata={op_name="jit(_full_run)/jit(main)/while/body/jit(_matvec_impl)/jit(shmap_body)/while/body/jit(remainder)/rem" source_file="/global/homes/j/jackm/software/lorrax_C/src/bse/bse_ring_comm.py" source_line=264}
  %select.323 = s32[] select(%compare.196, %negate.54, %and.34), sharding={manual}, metadata={op_name="jit(_full_run)/jit(main)/while/body/jit(_matvec_impl)/jit(shmap_body)/while/body/jit(remainder)/rem" source_file="/global/homes/j/jackm/software/lorrax_C/src/bse/bse_ring_comm.py" source_line=264}
  %constant.1141 = s32[] constant(0), sharding={manual}
  %compare.193 = pred[] compare(%select.323, %constant.1141), direction=LT, sharding={manual}, metadata={op_name="jit(_full_run)/jit(main)/while/body/jit(_matvec_impl)/jit(shmap_body)/while/body/jit(remainder)/lt" source_file="/global/homes/j/jackm/software/lorrax_C/src/bse/bse_ring_comm.py" source_line=264}
  %constant.1140 = s32[] constant(0), sharding={manual}
  %compare.194 = pred[] compare(%select.323, %constant.1140), direction=NE, sharding={manual}, metadata={op_name="jit(_full_run)/jit(main)/while/body/jit(_matvec_impl)/jit(shmap_body)/while/body/jit(remainder)/ne" source_file="/global/homes/j/jackm/software/lorrax_C/src/bse/bse_ring_comm.py" source_line=264}
  %and.33 = pred[] and(%compare.193, %compare.194), sharding={manual}, metadata={op_name="jit(_full_run)/jit(main)/while/body/jit(_matvec_impl)/jit(shmap_body)/while/body/jit(remainder)/and" source_file="/global/homes/j/jackm/software/lorrax_C/src/bse/bse_ring_comm.py" source_line=264}
  %constant.1016 = s32[] constant(2), sharding={manual}, metadata={op_name="jit(_full_run)/jit(main)/while/body/jit(_matvec_impl)/jit(shmap_body)/while/body/jit(remainder)/jit(_where)/select_n" source_file="/global/homes/j/jackm/software/lorrax_C/src/bse/bse_ring_comm.py" source_line=264}
  %add.783 = s32[] add(%select.323, %constant.1016), sharding={manual}, metadata={op_name="jit(_full_run)/jit(main)/while/body/jit(_matvec_impl)/jit(shmap_body)/while/body/jit(remainder)/add" source_file="/global/homes/j/jackm/software/lorrax_C/src/bse/bse_ring_comm.py" source_line=264}
  %select.320 = s32[] select(%and.33, %add.783, %select.323), sharding={manual}, metadata={op_name="jit(_full_run)/jit(main)/while/body/jit(_matvec_impl)/jit(shmap_body)/while/body/jit(remainder)/select_n" source_file="/global/homes/j/jackm/software/lorrax_C/src/bse/bse_ring_comm.py" source_line=264}
  %constant.1010 = s32[] constant(2), sharding={manual}, metadata={op_name="jit(_full_run)/jit(main)/while/body/jit(_matvec_impl)/jit(shmap_body)/while/body/add" source_file="/global/homes/j/jackm/software/lorrax_C/src/bse/bse_ring_comm.py" source_line=266}
  %multiply.167 = s32[] multiply(%select.320, %constant.1010), sharding={manual}, metadata={op_name="jit(_full_run)/jit(main)/while/body/jit(_matvec_impl)/jit(shmap_body)/while/body/mul" source_file="/global/homes/j/jackm/software/lorrax_C/src/bse/bse_ring_comm.py" source_line=265}
  %constant.1006 = s32[] constant(0), sharding={manual}
  %compare.195 = pred[] compare(%multiply.167, %constant.1006), direction=LT, sharding={manual}, metadata={op_name="jit(_full_run)/jit(main)/while/body/jit(_matvec_impl)/jit(shmap_body)/while/body/lt" source_file="/global/homes/j/jackm/software/lorrax_C/src/bse/bse_ring_comm.py" source_line=266}
  %constant.1012 = s32[] constant(4), sharding={manual}
  %add.785 = s32[] add(%multiply.167, %constant.1012), sharding={manual}, metadata={op_name="jit(_full_run)/jit(main)/while/body/jit(_matvec_impl)/jit(shmap_body)/while/body/add" source_file="/global/homes/j/jackm/software/lorrax_C/src/bse/bse_ring_comm.py" source_line=266}
  %select.321 = s32[] select(%compare.195, %add.785, %multiply.167), sharding={manual}, metadata={op_name="jit(_full_run)/jit(main)/while/body/jit(_matvec_impl)/jit(shmap_body)/while/body/select_n" source_file="/global/homes/j/jackm/software/lorrax_C/src/bse/bse_ring_comm.py" source_line=266}
  %dynamic-slice.62 = c128[64,2,2,240]{3,2,1,0} dynamic-slice(%get-tuple-element.376, %constant.1004, %select.321, %constant.1004, %constant.1004), dynamic_slice_sizes={64,2,2,240}, sharding={manual}, metadata={op_name="jit(_full_run)/jit(main)/while/body/jit(_matvec_impl)/jit(shmap_body)/while/body/dynamic_slice" source_file="/global/homes/j/jackm/software/lorrax_C/src/bse/bse_ring_comm.py" source_line=266}
  %dot.33 = c128[64,2,2,240]{3,2,1,0} dot(%reshape.454, %dynamic-slice.62), lhs_batch_dims={2}, lhs_contracting_dims={1}, rhs_batch_dims={0}, rhs_contracting_dims={1}, sharding={manual}, metadata={op_name="jit(_full_run)/jit(main)/while/body/jit(_matvec_impl)/jit(shmap_body)/while/body/kvsN,bcvk->bcksN/dot_general" source_file="/global/homes/j/jackm/software/lorrax_C/src/bse/bse_ring_comm.py" source_line=269}
  %reshape.455 = c128[64,1,2,2,240]{4,3,2,1,0} reshape(%dot.33), sharding={manual}, metadata={op_name="jit(_full_run)/jit(main)/while/body/jit(_matvec_impl)/jit(shmap_body)/while/body/kvsN,bcvk->bcksN/dot_general" source_file="/global/homes/j/jackm/software/lorrax_C/src/bse/bse_ring_comm.py" source_line=269}
  %transpose.70 = c128[2,240,64,1,2]{1,4,0,3,2} transpose(%reshape.455), dimensions={2,4,0,1,3}, sharding={manual}, metadata={op_name="jit(_full_run)/jit(main)/while/body/jit(_matvec_impl)/jit(shmap_body)/while/body/kvsN,bcvk->bcksN/transpose" source_file="/global/homes/j/jackm/software/lorrax_C/src/bse/bse_ring_comm.py" source_line=269}
  %get-tuple-element.375 = c128[64,2,2,240]{3,2,1,0} get-tuple-element(%arg_tuple.20), index=5, sharding={manual}
  %real.32 = f64[64,2,2,240]{3,2,1,0} real(%get-tuple-element.375), sharding={manual}, metadata={op_name="jit(_full_run)/jit(main)/while/body/jit(_matvec_impl)/jit(shmap_body)/while/body/real" source_file="/global/homes/j/jackm/software/lorrax_C/src/bse/bse_ring_comm.py" source_line=270}
  %imag.31 = f64[64,2,2,240]{3,2,1,0} imag(%get-tuple-element.375), sharding={manual}, metadata={op_name="jit(_full_run)/jit(main)/while/body/jit(_matvec_impl)/jit(shmap_body)/while/body/imag" source_file="/global/homes/j/jackm/software/lorrax_C/src/bse/bse_ring_comm.py" source_line=270}
  %negate.52 = f64[64,2,2,240]{3,2,1,0} negate(%imag.31), sharding={manual}, metadata={op_name="jit(_full_run)/jit(main)/while/body/jit(_matvec_impl)/jit(shmap_body)/while/body/neg" source_file="/global/homes/j/jackm/software/lorrax_C/src/bse/bse_ring_comm.py" source_line=270}
  %complex.23 = c128[64,2,2,240]{3,2,1,0} complex(%real.32, %negate.52), sharding={manual}, metadata={op_name="jit(_full_run)/jit(main)/while/body/jit(_matvec_impl)/jit(shmap_body)/while/body/complex" source_file="/global/homes/j/jackm/software/lorrax_C/src/bse/bse_ring_comm.py" source_line=270}
  %transpose.69 = c128[2,240,64,2]{1,3,0,2} transpose(%complex.23), dimensions={1,3,0,2}, sharding={manual}, metadata={op_name="jit(_full_run)/jit(main)/while/body/jit(_matvec_impl)/jit(shmap_body)/while/body/complex" source_file="/global/homes/j/jackm/software/lorrax_C/src/bse/bse_ring_comm.py" source_line=270}
  %reshape.456 = c128[2,240,64,1,2]{1,4,0,3,2} reshape(%transpose.69), sharding={manual}, metadata={op_name="jit(_full_run)/jit(main)/while/body/jit(_matvec_impl)/jit(shmap_body)/while/body/kcsN,bcksN->bcNk/dot_general" source_file="/global/homes/j/jackm/software/lorrax_C/src/bse/bse_ring_comm.py" source_line=270}
  %multiply.168 = c128[2,240,64,1,2]{1,4,0,3,2} multiply(%transpose.70, %reshape.456), sharding={manual}
  %constant.1014 = c128[] constant((0, 0)), sharding={manual}
  %reduce.18 = c128[2,240,64,1]{1,0,3,2} reduce(%multiply.168, %constant.1014), dimensions={4}, to_apply=%scalar_add_computation, sharding={manual}, metadata={op_name="jit(_full_run)/jit(main)/while/body/jit(_matvec_impl)/jit(shmap_body)/while/body/kcsN,bcksN->bcNk/dot_general" source_file="/global/homes/j/jackm/software/lorrax_C/src/bse/bse_ring_comm.py" source_line=270}
  %reshape.453 = c128[1,2,240,64]{3,2,1,0} reshape(%reduce.18), sharding={manual}, metadata={op_name="jit(_full_run)/jit(main)/while/body/jit(_matvec_impl)/jit(shmap_body)/while/body/kcsN,bcksN->bcNk/transpose" source_file="/global/homes/j/jackm/software/lorrax_C/src/bse/bse_ring_comm.py" source_line=270}
  %add.789 = c128[1,2,240,64]{3,2,1,0} add(%get-tuple-element.378, %reshape.453), sharding={manual}, metadata={op_name="jit(_full_run)/jit(main)/while/body/jit(_matvec_impl)/jit(shmap_body)/while/body/add" source_file="/global/homes/j/jackm/software/lorrax_C/src/bse/bse_ring_comm.py" source_line=270}
  ROOT %tuple.86 = (s64[], c128[1,2,2,64]{3,2,1,0}, c128[1,2,240,64]{3,2,1,0}, s32[], c128[64,4,2,240]{3,2,1,0}, /*index=5*/c128[64,2,2,240]{3,2,1,0}) tuple(%add.782, %collective-permute.11, %add.789, %get-tuple-element.377, %get-tuple-element.376, /*index=5*/%get-tuple-element.375), sharding={{manual}, {manual}, {manual}, {manual}, {manual}, /*index=5*/{manual}}
  %constant.1008 = s32[] constant(0)
}

%region_3.1276.clone.clone (arg_tuple.19: (s64[], c128[1,2,2,64], c128[1,2,240,64], s32[], c128[64,4,2,240], /*index=5*/c128[64,2,2,240])) -> pred[] {
  %arg_tuple.19 = (s64[], c128[1,2,2,64]{3,2,1,0}, c128[1,2,240,64]{3,2,1,0}, s32[], c128[64,4,2,240]{3,2,1,0}, /*index=5*/c128[64,2,2,240]{3,2,1,0}) parameter(0), sharding={{manual}, {manual}, {manual}, {manual}, {manual}, /*index=5*/{manual}}
  %get-tuple-element.374 = s64[] get-tuple-element(%arg_tuple.19), index=0, sharding={manual}
  %constant.1000 = s64[] constant(2), sharding={manual}
  ROOT %compare.192 = pred[] compare(%get-tuple-element.374, %constant.1000), direction=LT, sharding={manual}, metadata={op_name="jit(_full_run)/jit(main)/while/body/jit(_matvec_impl)/jit(shmap_body)/while/cond/lt" source_file="/global/homes/j/jackm/software/lorrax_C/src/bse/bse_ring_comm.py" source_line=274}
}

%region_9.1451.clone.clone.clone (arg_tuple.22: (s64[], c128[1,2,2,64], c128[1,2,64,2,240], s32[], c128[64,4,2,240])) -> (s64[], c128[1,2,2,64], c128[1,2,64,2,240], s32[], c128[64,4,2,240]) {
  %arg_tuple.22 = (s64[], c128[1,2,2,64]{3,2,1,0}, c128[1,2,64,2,240]{4,3,2,1,0}, s32[], c128[64,4,2,240]{3,2,1,0}) parameter(0), sharding={{manual}, {manual}, {manual}, {manual}, {manual}}
  %get-tuple-element.400 = s64[] get-tuple-element(%arg_tuple.22), index=0, sharding={manual}
  %constant.1024 = s64[] constant(1), sharding={manual}
  %add.790 = s64[] add(%get-tuple-element.400, %constant.1024), sharding={manual}, metadata={op_name="jit(_full_run)/jit(main)/while/body/jit(_matvec_impl)/jit(shmap_body)/while/body/add" source_file="/global/homes/j/jackm/software/lorrax_C/src/bse/bse_ring_comm.py" source_line=95}
  %get-tuple-element.398 = c128[1,2,2,64]{3,2,1,0} get-tuple-element(%arg_tuple.22), index=1, sharding={manual}
  %collective-permute.12 = c128[1,2,2,64]{3,2,1,0} collective-permute(%get-tuple-element.398), channel_id=5, source_target_pairs={{0,1},{1,0},{2,3},{3,2}}, sharding={manual}, metadata={op_name="jit(_full_run)/jit(main)/while/body/jit(_matvec_impl)/jit(shmap_body)/while/body/ppermute" source_file="/global/homes/j/jackm/software/lorrax_C/src/bse/bse_ring_comm.py" source_line=92}
  %get-tuple-element.397 = c128[1,2,64,2,240]{4,3,2,1,0} get-tuple-element(%arg_tuple.22), index=2, sharding={manual}
  %reshape.457 = c128[2,2,64]{2,1,0} reshape(%get-tuple-element.398), sharding={manual}
  %get-tuple-element.395 = c128[64,4,2,240]{3,2,1,0} get-tuple-element(%arg_tuple.22), index=4, sharding={manual}
  %constant.1143 = s32[] constant(0), sharding={manual}
  %get-tuple-element.396 = s32[] get-tuple-element(%arg_tuple.22), index=3, sharding={manual}
  %get-tuple-element.399 = s64[] get-tuple-element(%arg_tuple.22), index=0, sharding={manual}
  %convert.66 = s32[] convert(%get-tuple-element.399), sharding={manual}, metadata={op_name="jit(_full_run)/jit(main)/while/body/jit(_matvec_impl)/jit(shmap_body)/while/body/convert_element_type" source_file="/global/homes/j/jackm/software/lorrax_C/src/bse/bse_ring_comm.py" source_line=85}
  %subtract.33 = s32[] subtract(%get-tuple-element.396, %convert.66), sharding={manual}, metadata={op_name="jit(_full_run)/jit(main)/while/body/jit(_matvec_impl)/jit(shmap_body)/while/body/sub" source_file="/global/homes/j/jackm/software/lorrax_C/src/bse/bse_ring_comm.py" source_line=85}
  %constant.1036 = s32[] constant(0), sharding={manual}
  %compare.201 = pred[] compare(%subtract.33, %constant.1036), direction=LT, sharding={manual}, metadata={op_name="jit(_full_run)/jit(main)/while/body/jit(_matvec_impl)/jit(shmap_body)/while/body/jit(remainder)/rem" source_file="/global/homes/j/jackm/software/lorrax_C/src/bse/bse_ring_comm.py" source_line=264}
  %negate.56 = s32[] negate(%subtract.33), sharding={manual}, metadata={op_name="jit(_full_run)/jit(main)/while/body/jit(_matvec_impl)/jit(shmap_body)/while/body/jit(remainder)/rem" source_file="/global/homes/j/jackm/software/lorrax_C/src/bse/bse_ring_comm.py" source_line=264}
  %select.326 = s32[] select(%compare.201, %negate.56, %subtract.33), sharding={manual}, metadata={op_name="jit(_full_run)/jit(main)/while/body/jit(_matvec_impl)/jit(shmap_body)/while/body/jit(remainder)/rem" source_file="/global/homes/j/jackm/software/lorrax_C/src/bse/bse_ring_comm.py" source_line=264}
  %constant.1038 = s32[] constant(1), sharding={manual}, metadata={op_name="jit(_full_run)/jit(main)/while/body/jit(_matvec_impl)/jit(shmap_body)/while/body/jit(remainder)/rem" source_file="/global/homes/j/jackm/software/lorrax_C/src/bse/bse_ring_comm.py" source_line=264}
  %and.36 = s32[] and(%select.326, %constant.1038), sharding={manual}, metadata={op_name="jit(_full_run)/jit(main)/while/body/jit(_matvec_impl)/jit(shmap_body)/while/body/jit(remainder)/rem" source_file="/global/homes/j/jackm/software/lorrax_C/src/bse/bse_ring_comm.py" source_line=264}
  %negate.57 = s32[] negate(%and.36), sharding={manual}, metadata={op_name="jit(_full_run)/jit(main)/while/body/jit(_matvec_impl)/jit(shmap_body)/while/body/jit(remainder)/rem" source_file="/global/homes/j/jackm/software/lorrax_C/src/bse/bse_ring_comm.py" source_line=264}
  %select.327 = s32[] select(%compare.201, %negate.57, %and.36), sharding={manual}, metadata={op_name="jit(_full_run)/jit(main)/while/body/jit(_matvec_impl)/jit(shmap_body)/while/body/jit(remainder)/rem" source_file="/global/homes/j/jackm/software/lorrax_C/src/bse/bse_ring_comm.py" source_line=264}
  %constant.1145 = s32[] constant(0), sharding={manual}
  %compare.198 = pred[] compare(%select.327, %constant.1145), direction=LT, sharding={manual}, metadata={op_name="jit(_full_run)/jit(main)/while/body/jit(_matvec_impl)/jit(shmap_body)/while/body/jit(remainder)/lt" source_file="/global/homes/j/jackm/software/lorrax_C/src/bse/bse_ring_comm.py" source_line=264}
  %constant.1144 = s32[] constant(0), sharding={manual}
  %compare.199 = pred[] compare(%select.327, %constant.1144), direction=NE, sharding={manual}, metadata={op_name="jit(_full_run)/jit(main)/while/body/jit(_matvec_impl)/jit(shmap_body)/while/body/jit(remainder)/ne" source_file="/global/homes/j/jackm/software/lorrax_C/src/bse/bse_ring_comm.py" source_line=264}
  %and.35 = pred[] and(%compare.198, %compare.199), sharding={manual}, metadata={op_name="jit(_full_run)/jit(main)/while/body/jit(_matvec_impl)/jit(shmap_body)/while/body/jit(remainder)/and" source_file="/global/homes/j/jackm/software/lorrax_C/src/bse/bse_ring_comm.py" source_line=264}
  %constant.1034 = s32[] constant(2), sharding={manual}, metadata={op_name="jit(_full_run)/jit(main)/while/body/jit(_matvec_impl)/jit(shmap_body)/while/body/jit(remainder)/jit(_where)/select_n" source_file="/global/homes/j/jackm/software/lorrax_C/src/bse/bse_ring_comm.py" source_line=264}
  %add.791 = s32[] add(%select.327, %constant.1034), sharding={manual}, metadata={op_name="jit(_full_run)/jit(main)/while/body/jit(_matvec_impl)/jit(shmap_body)/while/body/jit(remainder)/add" source_file="/global/homes/j/jackm/software/lorrax_C/src/bse/bse_ring_comm.py" source_line=264}
  %select.324 = s32[] select(%and.35, %add.791, %select.327), sharding={manual}, metadata={op_name="jit(_full_run)/jit(main)/while/body/jit(_matvec_impl)/jit(shmap_body)/while/body/jit(remainder)/select_n" source_file="/global/homes/j/jackm/software/lorrax_C/src/bse/bse_ring_comm.py" source_line=264}
  %constant.1030 = s32[] constant(2), sharding={manual}
  %multiply.169 = s32[] multiply(%select.324, %constant.1030), sharding={manual}, metadata={op_name="jit(_full_run)/jit(main)/while/body/jit(_matvec_impl)/jit(shmap_body)/while/body/mul" source_file="/global/homes/j/jackm/software/lorrax_C/src/bse/bse_ring_comm.py" source_line=86}
  %constant.1142 = s32[] constant(0), sharding={manual}
  %compare.200 = pred[] compare(%multiply.169, %constant.1142), direction=LT, sharding={manual}, metadata={op_name="jit(_full_run)/jit(main)/while/body/jit(_matvec_impl)/jit(shmap_body)/while/body/lt" source_file="/global/homes/j/jackm/software/lorrax_C/src/bse/bse_ring_comm.py" source_line=88}
  %constant.1032 = s32[] constant(4), sharding={manual}
  %add.792 = s32[] add(%multiply.169, %constant.1032), sharding={manual}, metadata={op_name="jit(_full_run)/jit(main)/while/body/jit(_matvec_impl)/jit(shmap_body)/while/body/add" source_file="/global/homes/j/jackm/software/lorrax_C/src/bse/bse_ring_comm.py" source_line=88}
  %select.325 = s32[] select(%compare.200, %add.792, %multiply.169), sharding={manual}, metadata={op_name="jit(_full_run)/jit(main)/while/body/jit(_matvec_impl)/jit(shmap_body)/while/body/select_n" source_file="/global/homes/j/jackm/software/lorrax_C/src/bse/bse_ring_comm.py" source_line=88}
  %dynamic-slice.63 = c128[64,2,2,240]{3,2,1,0} dynamic-slice(%get-tuple-element.395, %constant.1143, %select.325, %constant.1143, %constant.1143), dynamic_slice_sizes={64,2,2,240}, sharding={manual}, metadata={op_name="jit(_full_run)/jit(main)/while/body/jit(_matvec_impl)/jit(shmap_body)/while/body/dynamic_slice" source_file="/global/homes/j/jackm/software/lorrax_C/src/bse/bse_ring_comm.py" source_line=88}
  %real.33 = f64[64,2,2,240]{3,2,1,0} real(%dynamic-slice.63), sharding={manual}, metadata={op_name="jit(_full_run)/jit(main)/while/body/jit(_matvec_impl)/jit(shmap_body)/while/body/real" source_file="/global/homes/j/jackm/software/lorrax_C/src/bse/bse_ring_comm.py" source_line=91}
  %imag.32 = f64[64,2,2,240]{3,2,1,0} imag(%dynamic-slice.63), sharding={manual}, metadata={op_name="jit(_full_run)/jit(main)/while/body/jit(_matvec_impl)/jit(shmap_body)/while/body/imag" source_file="/global/homes/j/jackm/software/lorrax_C/src/bse/bse_ring_comm.py" source_line=91}
  %negate.55 = f64[64,2,2,240]{3,2,1,0} negate(%imag.32), sharding={manual}, metadata={op_name="jit(_full_run)/jit(main)/while/body/jit(_matvec_impl)/jit(shmap_body)/while/body/neg" source_file="/global/homes/j/jackm/software/lorrax_C/src/bse/bse_ring_comm.py" source_line=91}
  %complex.24 = c128[64,2,2,240]{3,2,1,0} complex(%real.33, %negate.55), sharding={manual}, metadata={op_name="jit(_full_run)/jit(main)/while/body/jit(_matvec_impl)/jit(shmap_body)/while/body/complex" source_file="/global/homes/j/jackm/software/lorrax_C/src/bse/bse_ring_comm.py" source_line=91}
  %dot.34 = c128[64,2,2,240]{3,2,1,0} dot(%reshape.457, %complex.24), lhs_batch_dims={2}, lhs_contracting_dims={1}, rhs_batch_dims={0}, rhs_contracting_dims={1}, sharding={manual}, metadata={op_name="jit(_full_run)/jit(main)/while/body/jit(_matvec_impl)/jit(shmap_body)/while/body/kv sN,bcvk->bcksN/dot_general" source_file="/global/homes/j/jackm/software/lorrax_C/src/bse/bse_ring_comm.py" source_line=91}
  %reshape.458 = c128[64,1,2,2,240]{4,3,2,1,0} reshape(%dot.34), sharding={manual}, metadata={op_name="jit(_full_run)/jit(main)/while/body/jit(_matvec_impl)/jit(shmap_body)/while/body/kv sN,bcvk->bcksN/dot_general" source_file="/global/homes/j/jackm/software/lorrax_C/src/bse/bse_ring_comm.py" source_line=91}
  %transpose.71 = c128[1,2,64,2,240]{4,3,1,0,2} transpose(%reshape.458), dimensions={1,2,0,3,4}, sharding={manual}, metadata={op_name="jit(_full_run)/jit(main)/while/body/jit(_matvec_impl)/jit(shmap_body)/while/body/kv sN,bcvk->bcksN/transpose" source_file="/global/homes/j/jackm/software/lorrax_C/src/bse/bse_ring_comm.py" source_line=91}
  %add.794 = c128[1,2,64,2,240]{4,3,2,1,0} add(%get-tuple-element.397, %transpose.71), sharding={manual}, metadata={op_name="jit(_full_run)/jit(main)/while/body/jit(_matvec_impl)/jit(shmap_body)/while/body/add" source_file="/global/homes/j/jackm/software/lorrax_C/src/bse/bse_ring_comm.py" source_line=91}
  ROOT %tuple.89 = (s64[], c128[1,2,2,64]{3,2,1,0}, c128[1,2,64,2,240]{4,3,2,1,0}, s32[], c128[64,4,2,240]{3,2,1,0}) tuple(%add.790, %collective-permute.12, %add.794, %get-tuple-element.396, %get-tuple-element.395), sharding={{manual}, {manual}, {manual}, {manual}, {manual}}
  %constant.1026 = s32[] constant(0)
  %constant.1028 = s32[] constant(0)
}

%region_10.1466.clone.clone (arg_tuple.21: (s64[], c128[1,2,2,64], c128[1,2,64,2,240], s32[], c128[64,4,2,240])) -> pred[] {
  %arg_tuple.21 = (s64[], c128[1,2,2,64]{3,2,1,0}, c128[1,2,64,2,240]{4,3,2,1,0}, s32[], c128[64,4,2,240]{3,2,1,0}) parameter(0), sharding={{manual}, {manual}, {manual}, {manual}, {manual}}
  %get-tuple-element.394 = s64[] get-tuple-element(%arg_tuple.21), index=0, sharding={manual}
  %constant.1022 = s64[] constant(2), sharding={manual}
  ROOT %compare.197 = pred[] compare(%get-tuple-element.394, %constant.1022), direction=LT, sharding={manual}, metadata={op_name="jit(_full_run)/jit(main)/while/body/jit(_matvec_impl)/jit(shmap_body)/while/cond/lt" source_file="/global/homes/j/jackm/software/lorrax_C/src/bse/bse_ring_comm.py" source_line=95}
}

%region_11.1522.clone.clone.clone (arg_tuple.24: (s64[], c128[1,2,64,2,240], c128[1,240,240,2,2,64], s32[], c128[64,4,2,240])) -> (s64[], c128[1,2,64,2,240], c128[1,240,240,2,2,64], s32[], c128[64,4,2,240]) {
  %arg_tuple.24 = (s64[], c128[1,2,64,2,240]{4,3,2,1,0}, c128[1,240,240,2,2,64]{5,4,3,2,1,0}, s32[], c128[64,4,2,240]{3,2,1,0}) parameter(0), sharding={{manual}, {manual}, {manual}, {manual}, {manual}}
  %get-tuple-element.418 = s64[] get-tuple-element(%arg_tuple.24), index=0, sharding={manual}
  %constant.1042 = s64[] constant(1), sharding={manual}
  %add.795 = s64[] add(%get-tuple-element.418, %constant.1042), sharding={manual}, metadata={op_name="jit(_full_run)/jit(main)/while/body/jit(_matvec_impl)/jit(shmap_body)/while/body/add" source_file="/global/homes/j/jackm/software/lorrax_C/src/bse/bse_ring_comm.py" source_line=125}
  %get-tuple-element.416 = c128[1,2,64,2,240]{4,3,2,1,0} get-tuple-element(%arg_tuple.24), index=1, sharding={manual}
  %collective-permute.13 = c128[1,2,64,2,240]{4,3,2,1,0} collective-permute(%get-tuple-element.416), channel_id=6, source_target_pairs={{0,2},{2,0},{1,3},{3,1}}, sharding={manual}, metadata={op_name="jit(_full_run)/jit(main)/while/body/jit(_matvec_impl)/jit(shmap_body)/while/body/ppermute" source_file="/global/homes/j/jackm/software/lorrax_C/src/bse/bse_ring_comm.py" source_line=122}
  %get-tuple-element.415 = c128[1,240,240,2,2,64]{5,4,3,2,1,0} get-tuple-element(%arg_tuple.24), index=2, sharding={manual}
  %reshape.459 = c128[2,64,2,240]{3,2,1,0} reshape(%get-tuple-element.416), sharding={manual}
  %get-tuple-element.413 = c128[64,4,2,240]{3,2,1,0} get-tuple-element(%arg_tuple.24), index=4, sharding={manual}
  %constant.1147 = s32[] constant(0), sharding={manual}
  %get-tuple-element.414 = s32[] get-tuple-element(%arg_tuple.24), index=3, sharding={manual}
  %get-tuple-element.417 = s64[] get-tuple-element(%arg_tuple.24), index=0, sharding={manual}
  %convert.67 = s32[] convert(%get-tuple-element.417), sharding={manual}, metadata={op_name="jit(_full_run)/jit(main)/while/body/jit(_matvec_impl)/jit(shmap_body)/while/body/convert_element_type" source_file="/global/homes/j/jackm/software/lorrax_C/src/bse/bse_ring_comm.py" source_line=115}
  %subtract.34 = s32[] subtract(%get-tuple-element.414, %convert.67), sharding={manual}, metadata={op_name="jit(_full_run)/jit(main)/while/body/jit(_matvec_impl)/jit(shmap_body)/while/body/sub" source_file="/global/homes/j/jackm/software/lorrax_C/src/bse/bse_ring_comm.py" source_line=115}
  %constant.1052 = s32[] constant(0), sharding={manual}
  %compare.206 = pred[] compare(%subtract.34, %constant.1052), direction=LT, sharding={manual}, metadata={op_name="jit(_full_run)/jit(main)/while/body/jit(_matvec_impl)/jit(shmap_body)/while/body/jit(remainder)/rem" source_file="/global/homes/j/jackm/software/lorrax_C/src/bse/bse_ring_comm.py" source_line=264}
  %negate.58 = s32[] negate(%subtract.34), sharding={manual}, metadata={op_name="jit(_full_run)/jit(main)/while/body/jit(_matvec_impl)/jit(shmap_body)/while/body/jit(remainder)/rem" source_file="/global/homes/j/jackm/software/lorrax_C/src/bse/bse_ring_comm.py" source_line=264}
  %select.330 = s32[] select(%compare.206, %negate.58, %subtract.34), sharding={manual}, metadata={op_name="jit(_full_run)/jit(main)/while/body/jit(_matvec_impl)/jit(shmap_body)/while/body/jit(remainder)/rem" source_file="/global/homes/j/jackm/software/lorrax_C/src/bse/bse_ring_comm.py" source_line=264}
  %constant.1053 = s32[] constant(1), sharding={manual}, metadata={op_name="jit(_full_run)/jit(main)/while/body/jit(_matvec_impl)/jit(shmap_body)/while/body/jit(remainder)/rem" source_file="/global/homes/j/jackm/software/lorrax_C/src/bse/bse_ring_comm.py" source_line=264}
  %and.38 = s32[] and(%select.330, %constant.1053), sharding={manual}, metadata={op_name="jit(_full_run)/jit(main)/while/body/jit(_matvec_impl)/jit(shmap_body)/while/body/jit(remainder)/rem" source_file="/global/homes/j/jackm/software/lorrax_C/src/bse/bse_ring_comm.py" source_line=264}
  %negate.59 = s32[] negate(%and.38), sharding={manual}, metadata={op_name="jit(_full_run)/jit(main)/while/body/jit(_matvec_impl)/jit(shmap_body)/while/body/jit(remainder)/rem" source_file="/global/homes/j/jackm/software/lorrax_C/src/bse/bse_ring_comm.py" source_line=264}
  %select.331 = s32[] select(%compare.206, %negate.59, %and.38), sharding={manual}, metadata={op_name="jit(_full_run)/jit(main)/while/body/jit(_matvec_impl)/jit(shmap_body)/while/body/jit(remainder)/rem" source_file="/global/homes/j/jackm/software/lorrax_C/src/bse/bse_ring_comm.py" source_line=264}
  %constant.1149 = s32[] constant(0), sharding={manual}
  %compare.203 = pred[] compare(%select.331, %constant.1149), direction=LT, sharding={manual}, metadata={op_name="jit(_full_run)/jit(main)/while/body/jit(_matvec_impl)/jit(shmap_body)/while/body/jit(remainder)/lt" source_file="/global/homes/j/jackm/software/lorrax_C/src/bse/bse_ring_comm.py" source_line=264}
  %constant.1148 = s32[] constant(0), sharding={manual}
  %compare.204 = pred[] compare(%select.331, %constant.1148), direction=NE, sharding={manual}, metadata={op_name="jit(_full_run)/jit(main)/while/body/jit(_matvec_impl)/jit(shmap_body)/while/body/jit(remainder)/ne" source_file="/global/homes/j/jackm/software/lorrax_C/src/bse/bse_ring_comm.py" source_line=264}
  %and.37 = pred[] and(%compare.203, %compare.204), sharding={manual}, metadata={op_name="jit(_full_run)/jit(main)/while/body/jit(_matvec_impl)/jit(shmap_body)/while/body/jit(remainder)/and" source_file="/global/homes/j/jackm/software/lorrax_C/src/bse/bse_ring_comm.py" source_line=264}
  %constant.1051 = s32[] constant(2), sharding={manual}, metadata={op_name="jit(_full_run)/jit(main)/while/body/jit(_matvec_impl)/jit(shmap_body)/while/body/jit(remainder)/jit(_where)/select_n" source_file="/global/homes/j/jackm/software/lorrax_C/src/bse/bse_ring_comm.py" source_line=264}
  %add.796 = s32[] add(%select.331, %constant.1051), sharding={manual}, metadata={op_name="jit(_full_run)/jit(main)/while/body/jit(_matvec_impl)/jit(shmap_body)/while/body/jit(remainder)/add" source_file="/global/homes/j/jackm/software/lorrax_C/src/bse/bse_ring_comm.py" source_line=264}
  %select.328 = s32[] select(%and.37, %add.796, %select.331), sharding={manual}, metadata={op_name="jit(_full_run)/jit(main)/while/body/jit(_matvec_impl)/jit(shmap_body)/while/body/jit(remainder)/select_n" source_file="/global/homes/j/jackm/software/lorrax_C/src/bse/bse_ring_comm.py" source_line=264}
  %constant.1049 = s32[] constant(2), sharding={manual}
  %multiply.170 = s32[] multiply(%select.328, %constant.1049), sharding={manual}, metadata={op_name="jit(_full_run)/jit(main)/while/body/jit(_matvec_impl)/jit(shmap_body)/while/body/mul" source_file="/global/homes/j/jackm/software/lorrax_C/src/bse/bse_ring_comm.py" source_line=116}
  %constant.1146 = s32[] constant(0), sharding={manual}
  %compare.205 = pred[] compare(%multiply.170, %constant.1146), direction=LT, sharding={manual}, metadata={op_name="jit(_full_run)/jit(main)/while/body/jit(_matvec_impl)/jit(shmap_body)/while/body/lt" source_file="/global/homes/j/jackm/software/lorrax_C/src/bse/bse_ring_comm.py" source_line=118}
  %constant.1050 = s32[] constant(4), sharding={manual}
  %add.797 = s32[] add(%multiply.170, %constant.1050), sharding={manual}, metadata={op_name="jit(_full_run)/jit(main)/while/body/jit(_matvec_impl)/jit(shmap_body)/while/body/add" source_file="/global/homes/j/jackm/software/lorrax_C/src/bse/bse_ring_comm.py" source_line=118}
  %select.329 = s32[] select(%compare.205, %add.797, %multiply.170), sharding={manual}, metadata={op_name="jit(_full_run)/jit(main)/while/body/jit(_matvec_impl)/jit(shmap_body)/while/body/select_n" source_file="/global/homes/j/jackm/software/lorrax_C/src/bse/bse_ring_comm.py" source_line=118}
  %dynamic-slice.64 = c128[64,2,2,240]{3,2,1,0} dynamic-slice(%get-tuple-element.413, %constant.1147, %select.329, %constant.1147, %constant.1147), dynamic_slice_sizes={64,2,2,240}, sharding={manual}, metadata={op_name="jit(_full_run)/jit(main)/while/body/jit(_matvec_impl)/jit(shmap_body)/while/body/dynamic_slice" source_file="/global/homes/j/jackm/software/lorrax_C/src/bse/bse_ring_comm.py" source_line=118}
  %dot.35 = c128[64,2,240,2,240]{4,3,2,1,0} dot(%reshape.459, %dynamic-slice.64), lhs_batch_dims={1}, lhs_contracting_dims={0}, rhs_batch_dims={0}, rhs_contracting_dims={1}, sharding={manual}, metadata={op_name="jit(_full_run)/jit(main)/while/body/jit(_matvec_impl)/jit(shmap_body)/while/body/kctM,bcksN->bMNtsk/dot_general" source_file="/global/homes/j/jackm/software/lorrax_C/src/bse/bse_ring_comm.py" source_line=121}
  %reshape.460 = c128[64,1,2,240,2,240]{5,4,3,2,1,0} reshape(%dot.35), sharding={manual}, metadata={op_name="jit(_full_run)/jit(main)/while/body/jit(_matvec_impl)/jit(shmap_body)/while/body/kctM,bcksN->bMNtsk/dot_general" source_file="/global/homes/j/jackm/software/lorrax_C/src/bse/bse_ring_comm.py" source_line=121}
  %transpose.72 = c128[1,240,240,2,2,64]{1,3,2,4,0,5} transpose(%reshape.460), dimensions={1,5,3,4,2,0}, sharding={manual}, metadata={op_name="jit(_full_run)/jit(main)/while/body/jit(_matvec_impl)/jit(shmap_body)/while/body/kctM,bcksN->bMNtsk/transpose" source_file="/global/homes/j/jackm/software/lorrax_C/src/bse/bse_ring_comm.py" source_line=121}
  %add.799 = c128[1,240,240,2,2,64]{5,4,3,2,1,0} add(%get-tuple-element.415, %transpose.72), sharding={manual}, metadata={op_name="jit(_full_run)/jit(main)/while/body/jit(_matvec_impl)/jit(shmap_body)/while/body/add" source_file="/global/homes/j/jackm/software/lorrax_C/src/bse/bse_ring_comm.py" source_line=121}
  ROOT %tuple.92 = (s64[], c128[1,2,64,2,240]{4,3,2,1,0}, c128[1,240,240,2,2,64]{5,4,3,2,1,0}, s32[], c128[64,4,2,240]{3,2,1,0}) tuple(%add.795, %collective-permute.13, %add.799, %get-tuple-element.414, %get-tuple-element.413), sharding={{manual}, {manual}, {manual}, {manual}, {manual}}
  %constant.1044 = s32[] constant(0)
  %constant.1046 = s32[] constant(0)
}

%region_12.1537.clone.clone (arg_tuple.23: (s64[], c128[1,2,64,2,240], c128[1,240,240,2,2,64], s32[], c128[64,4,2,240])) -> pred[] {
  %arg_tuple.23 = (s64[], c128[1,2,64,2,240]{4,3,2,1,0}, c128[1,240,240,2,2,64]{5,4,3,2,1,0}, s32[], c128[64,4,2,240]{3,2,1,0}) parameter(0), sharding={{manual}, {manual}, {manual}, {manual}, {manual}}
  %get-tuple-element.412 = s64[] get-tuple-element(%arg_tuple.23), index=0, sharding={manual}
  %constant.1040 = s64[] constant(2), sharding={manual}
  ROOT %compare.202 = pred[] compare(%get-tuple-element.412, %constant.1040), direction=LT, sharding={manual}, metadata={op_name="jit(_full_run)/jit(main)/while/body/jit(_matvec_impl)/jit(shmap_body)/while/cond/lt" source_file="/global/homes/j/jackm/software/lorrax_C/src/bse/bse_ring_comm.py" source_line=125}
}

%region_1.1955 (arg_tuple.1956: (s32[], c128[200,1024,1], c128[200,1,1], c128[200,1,1], f64[5], /*index=5*/pred[], c128[64,4,2,480], c128[64,4,2,480], c128[64,4,2,480], c128[64,4,2,480], /*index=10*/f64[64,4], f64[64,4], c128[480,480,4,4,4], c128[480,480])) -> (s32[], c128[200,1024,1], c128[200,1,1], c128[200,1,1], f64[5], /*index=5*/pred[], c128[64,4,2,480], c128[64,4,2,480], c128[64,4,2,480], c128[64,4,2,480], /*index=10*/f64[64,4], f64[64,4], c128[480,480,4,4,4], c128[480,480]) {
  %constant.1975 = s32[] constant(1)
  %constant.1976 = s32[] constant(200)
  %constant.1977 = s32[] constant(0)
  %arg_tuple.1956 = (s32[], c128[200,1024,1]{2,1,0}, c128[200,1,1]{2,1,0}, c128[200,1,1]{2,1,0}, f64[5]{0}, /*index=5*/pred[], c128[64,4,2,480]{3,2,1,0}, c128[64,4,2,480]{3,2,1,0}, c128[64,4,2,480]{3,2,1,0}, c128[64,4,2,480]{3,2,1,0}, /*index=10*/f64[64,4]{1,0}, f64[64,4]{1,0}, c128[480,480,4,4,4]{4,3,2,1,0}, c128[480,480]{1,0}) parameter(0), sharding={{replicated}, {devices=[1,2,1,2]<=[4] last_tile_dim_replicate}, {replicated}, {replicated}, {replicated}, /*index=5*/{replicated}, {devices=[1,1,1,2,2]<=[4] last_tile_dim_replicate}, {devices=[1,1,1,2,2]<=[2,2]T(1,0) last_tile_dim_replicate}, {devices=[1,1,1,2,2]<=[4] last_tile_dim_replicate}, {devices=[1,1,1,2,2]<=[2,2]T(1,0) last_tile_dim_replicate}, /*index=10*/{replicated}, {replicated}, {devices=[2,2,1,1,1]<=[4]}, {devices=[2,2]<=[4]}}
  %get-tuple-element.1957 = s32[] get-tuple-element(%arg_tuple.1956), index=0, sharding={replicated}
  %constant.1072 = s32[] constant(1), sharding={replicated}
  %add.2055 = s32[] add(%get-tuple-element.1957, %constant.1072), sharding={replicated}, metadata={op_name="jit(_full_run)/jit(main)/while/body/add" source_file="/global/homes/j/jackm/software/lorrax_C/src/solvers/lanczos.py" source_line=561}
  %get-tuple-element.298 = c128[200,1024,1]{2,1,0} get-tuple-element(%arg_tuple.1956), index=1, sharding={devices=[1,2,1,2]<=[4] last_tile_dim_replicate}
  %constant.827 = s32[] constant(0), sharding={replicated}
  %broadcast.894 = s32[3]{0} broadcast(%constant.827), dimensions={}, sharding={replicated}
  %constant.1073 = s32[] constant(1), sharding={replicated}
  %add.2037 = s32[] add(%get-tuple-element.1957, %constant.1073), sharding={replicated}, metadata={op_name="jit(_full_run)/jit(main)/while/body/add" source_file="/global/homes/j/jackm/software/lorrax_C/src/solvers/lanczos.py" source_line=516}
  %constant.1973 = s32[] constant(199), sharding={replicated}
  %minimum.2038 = s32[] minimum(%add.2037, %constant.1973), sharding={replicated}, metadata={op_name="jit(_full_run)/jit(main)/while/body/min" source_file="/global/homes/j/jackm/software/lorrax_C/src/solvers/lanczos.py" source_line=516}
  %constant.1084 = s32[] constant(0), sharding={replicated}
  %compare.2039 = pred[] compare(%minimum.2038, %constant.1084), direction=LT, sharding={replicated}, metadata={op_name="jit(_full_run)/jit(main)/while/body/lt" source_file="/global/homes/j/jackm/software/lorrax_C/src/solvers/lanczos.py" source_line=516}
  %constant.1089 = s32[] constant(200), sharding={replicated}
  %add.2040 = s32[] add(%minimum.2038, %constant.1089), sharding={replicated}, metadata={op_name="jit(_full_run)/jit(main)/while/body/add" source_file="/global/homes/j/jackm/software/lorrax_C/src/solvers/lanczos.py" source_line=516}
  %select.2041 = s32[] select(%compare.2039, %add.2040, %minimum.2038), sharding={replicated}, metadata={op_name="jit(_full_run)/jit(main)/while/body/select_n" source_file="/global/homes/j/jackm/software/lorrax_C/src/solvers/lanczos.py" source_line=516}
  %reshape.164 = s32[1]{0} reshape(%select.2041), sharding={replicated}, metadata={op_name="jit(_full_run)/jit(main)/while/body/broadcast_in_dim" source_file="/global/homes/j/jackm/software/lorrax_C/src/solvers/lanczos.py" source_line=516}
  %constant.828 = s32[1]{0} constant({0}), sharding={replicated}
  %concatenate.5 = s32[3]{0} concatenate(%reshape.164, %constant.828, %constant.828), dimensions={0}, sharding={replicated}
  %compare.151 = pred[3]{0} compare(%broadcast.894, %concatenate.5), direction=LE, sharding={replicated}
  %constant.829 = s32[3]{0} constant({199, 0, 0}), sharding={replicated}
  %compare.152 = pred[3]{0} compare(%constant.829, %concatenate.5), direction=GE, sharding={replicated}
  %and.25 = pred[3]{0} and(%compare.151, %compare.152), sharding={replicated}
  %constant.830 = pred[] constant(true)
  %reduce.11 = pred[] reduce(%and.25, %constant.830), dimensions={0}, to_apply=%and.reduce_sub_computation, sharding={replicated}
  %broadcast.896 = pred[1,1024,1]{2,1,0} broadcast(%reduce.11), dimensions={}, sharding={devices=[1,2,1,2]<=[4] last_tile_dim_replicate}
  %constant.902 = s32[] constant(-10), sharding={replicated}
  %add.597 = s32[] add(%get-tuple-element.1957, %constant.902), sharding={replicated}, metadata={op_name="jit(_full_run)/jit(main)/while/body/sub" source_file="/global/homes/j/jackm/software/lorrax_C/src/solvers/lanczos.py" source_line=511}
  %constant.1074 = s32[] constant(0), sharding={replicated}
  %maximum.2023 = s32[] maximum(%add.597, %constant.1074), sharding={replicated}, metadata={op_name="jit(_full_run)/jit(main)/while/body/max" source_file="/global/homes/j/jackm/software/lorrax_C/src/solvers/lanczos.py" source_line=511}
  %constant.1075 = s32[] constant(0), sharding={replicated}
  %compare.2014 = pred[] compare(%get-tuple-element.1957, %constant.1075), direction=GT, sharding={replicated}, metadata={op_name="jit(_full_run)/jit(main)/while/body/gt" source_file="/global/homes/j/jackm/software/lorrax_C/src/solvers/lanczos.py" source_line=502}
  %broadcast.520 = pred[1024,1]{1,0} broadcast(%compare.2014), dimensions={}, sharding={devices=[2,1,2]<=[4] last_tile_dim_replicate}, metadata={op_name="jit(_full_run)/jit(main)/while/body/jit(_where)/select_n" source_file="/global/homes/j/jackm/software/lorrax_C/src/solvers/lanczos.py" source_line=502}
  %get-tuple-element.1967 = f64[64,4]{1,0} get-tuple-element(%arg_tuple.1956), index=10, sharding={replicated}
  %copy.30 = f64[64,4]{1,0} copy(%get-tuple-element.1967), sharding={replicated}, metadata={op_name="jit(_full_run)/jit(main)/while/body/pjit" source_file="/global/homes/j/jackm/software/lorrax_C/src/bse/bse_lanczos.py" source_line=186}
  %copy.29 = f64[64,4]{1,0} copy(%copy.30), sharding={replicated}, metadata={op_name="jit(_full_run)/jit(main)/while/body/jit(_matvec_impl)/pjit" source_file="/global/homes/j/jackm/software/lorrax_C/src/bse/bse_ring_comm.py" source_line=444}
  %transpose.12 = f64[4,64]{0,1} transpose(%copy.29), dimensions={1,0}, sharding={devices=[2,1,2]<=[4] last_tile_dim_replicate}, metadata={op_name="jit(_full_run)/jit(main)/while/body/jit(_matvec_impl)/jit(_apply_D_term)/transpose" source_file="/global/homes/j/jackm/software/lorrax_C/src/bse/bse_ring_comm.py" source_line=434}
  %broadcast.504 = f64[1,4,4,64]{3,2,1,0} broadcast(%transpose.12), dimensions={1,3}, sharding={devices=[1,2,2,1]<=[4]}, metadata={op_name="jit(_full_run)/jit(main)/while/body/jit(_matvec_impl)/jit(_apply_D_term)/sub" source_file="/global/homes/j/jackm/software/lorrax_C/src/bse/bse_ring_comm.py" source_line=434}
  %get-tuple-element.1968 = f64[64,4]{1,0} get-tuple-element(%arg_tuple.1956), index=11, sharding={replicated}
  %copy.28 = f64[64,4]{1,0} copy(%get-tuple-element.1968), sharding={replicated}, metadata={op_name="jit(_full_run)/jit(main)/while/body/pjit" source_file="/global/homes/j/jackm/software/lorrax_C/src/bse/bse_lanczos.py" source_line=186}
  %copy.27 = f64[64,4]{1,0} copy(%copy.28), sharding={replicated}, metadata={op_name="jit(_full_run)/jit(main)/while/body/jit(_matvec_impl)/pjit" source_file="/global/homes/j/jackm/software/lorrax_C/src/bse/bse_ring_comm.py" source_line=444}
  %transpose.13 = f64[4,64]{0,1} transpose(%copy.27), dimensions={1,0}, sharding={devices=[2,1,2]<=[2,2]T(1,0) last_tile_dim_replicate}, metadata={op_name="jit(_full_run)/jit(main)/while/body/jit(_matvec_impl)/jit(_apply_D_term)/transpose" source_file="/global/homes/j/jackm/software/lorrax_C/src/bse/bse_ring_comm.py" source_line=434}
  %broadcast.508 = f64[1,4,4,64]{3,2,1,0} broadcast(%transpose.13), dimensions={2,3}, sharding={devices=[1,2,2,1]<=[4]}, metadata={op_name="jit(_full_run)/jit(main)/while/body/jit(_matvec_impl)/jit(_apply_D_term)/sub" source_file="/global/homes/j/jackm/software/lorrax_C/src/bse/bse_ring_comm.py" source_line=434}
  %subtract.16 = f64[1,4,4,64]{3,2,1,0} subtract(%broadcast.504, %broadcast.508), sharding={devices=[1,2,2,1]<=[4]}, metadata={op_name="jit(_full_run)/jit(main)/while/body/jit(_matvec_impl)/jit(_apply_D_term)/sub" source_file="/global/homes/j/jackm/software/lorrax_C/src/bse/bse_ring_comm.py" source_line=434}
  %convert.37 = c128[1,4,4,64]{3,2,1,0} convert(%subtract.16), sharding={devices=[1,2,2,1]<=[4]}, metadata={op_name="jit(_full_run)/jit(main)/while/body/jit(_matvec_impl)/jit(_apply_D_term)/convert_element_type" source_file="/global/homes/j/jackm/software/lorrax_C/src/bse/bse_ring_comm.py" source_line=435}
  %constant.1076 = s32[] constant(0), sharding={replicated}
  %compare.1978 = pred[] compare(%get-tuple-element.1957, %constant.1076), direction=LT, sharding={replicated}, metadata={op_name="jit(_full_run)/jit(main)/while/body/lt" source_file="/global/homes/j/jackm/software/lorrax_C/src/solvers/lanczos.py" source_line=495}
  %constant.1086 = s32[] constant(200), sharding={replicated}
  %add.1979 = s32[] add(%get-tuple-element.1957, %constant.1086), sharding={replicated}, metadata={op_name="jit(_full_run)/jit(main)/while/body/add" source_file="/global/homes/j/jackm/software/lorrax_C/src/solvers/lanczos.py" source_line=495}
  %select.1980 = s32[] select(%compare.1978, %add.1979, %get-tuple-element.1957), sharding={replicated}, metadata={op_name="jit(_full_run)/jit(main)/while/body/select_n" source_file="/global/homes/j/jackm/software/lorrax_C/src/solvers/lanczos.py" source_line=495}
  %constant.1077 = s32[] constant(0)
  %dynamic-slice.1981 = c128[1,1024,1]{2,1,0} dynamic-slice(%get-tuple-element.298, %select.1980, %constant.1077, %constant.1077), dynamic_slice_sizes={1,1024,1}, sharding={devices=[1,2,1,2]<=[4] last_tile_dim_replicate}, metadata={op_name="jit(_full_run)/jit(main)/while/body/dynamic_slice" source_file="/global/homes/j/jackm/software/lorrax_C/src/solvers/lanczos.py" source_line=495}
  %reshape.1983 = c128[1,4,4,64]{3,2,1,0} reshape(%dynamic-slice.1981), sharding={devices=[1,2,2,1]<=[4]}, metadata={op_name="jit(_full_run)/jit(main)/while/body/reshape" source_file="/global/homes/j/jackm/software/lorrax_C/src/bse/bse_lanczos.py" source_line=184}
  %copy.26 = c128[1,4,4,64]{3,2,1,0} copy(%reshape.1983), sharding={devices=[1,2,2,1]<=[4]}, metadata={op_name="jit(_full_run)/jit(main)/while/body/sharding_constraint" source_file="/global/homes/j/jackm/software/lorrax_C/src/bse/bse_lanczos.py" source_line=185}
  %copy.25 = c128[1,4,4,64]{3,2,1,0} copy(%copy.26), sharding={devices=[1,2,2,1]<=[4]}, metadata={op_name="jit(_full_run)/jit(main)/while/body/pjit" source_file="/global/homes/j/jackm/software/lorrax_C/src/bse/bse_lanczos.py" source_line=186}
  %copy.24 = c128[1,4,4,64]{3,2,1,0} copy(%copy.25), sharding={devices=[1,2,2,1]<=[4]}, metadata={op_name="jit(_full_run)/jit(main)/while/body/jit(_matvec_impl)/pjit" source_file="/global/homes/j/jackm/software/lorrax_C/src/bse/bse_ring_comm.py" source_line=444}
  %multiply.64 = c128[1,4,4,64]{3,2,1,0} multiply(%convert.37, %copy.24), sharding={devices=[1,2,2,1]<=[4]}, metadata={op_name="jit(_full_run)/jit(main)/while/body/jit(_matvec_impl)/jit(_apply_D_term)/mul" source_file="/global/homes/j/jackm/software/lorrax_C/src/bse/bse_ring_comm.py" source_line=435}
  %copy.23 = c128[1,4,4,64]{3,2,1,0} copy(%multiply.64), sharding={devices=[1,2,2,1]<=[4]}, metadata={op_name="jit(_full_run)/jit(main)/while/body/jit(_matvec_impl)/pjit" source_file="/global/homes/j/jackm/software/lorrax_C/src/bse/bse_ring_comm.py" source_line=444}
  %constant.1091 = s64[] constant(0), sharding={replicated}
  %constant.1090 = s64[] constant(0), sharding={manual}
  %copy.22 = c128[1,4,4,64]{3,2,1,0} copy(%copy.25), sharding={devices=[1,2,2,1]<=[4]}, metadata={op_name="jit(_full_run)/jit(main)/while/body/jit(_matvec_impl)/shard_map" source_file="/global/homes/j/jackm/software/lorrax_C/src/bse/bse_ring_comm.py" source_line=445}
  %custom-call.19 = c128[1,2,2,64]{3,2,1,0} custom-call(%copy.22), custom_call_target="SPMDFullToShardShape", sharding={manual}, metadata={op_name="jit(_full_run)/jit(main)/while/body/jit(_matvec_impl)/shard_map" source_file="/global/homes/j/jackm/software/lorrax_C/src/bse/bse_ring_comm.py" source_line=445}
  %constant.376 = c128[] constant((0, 0)), sharding={manual}
  %broadcast.494 = c128[1,2,240,64]{3,2,1,0} broadcast(%constant.376), dimensions={}, sharding={manual}
  %partition-id.4 = u32[] partition-id(), sharding={manual}, metadata={op_name="jit(_full_run)/jit(main)/while/body/jit(_matvec_impl)/jit(shmap_body)/axis_index" source_file="/global/homes/j/jackm/software/lorrax_C/src/bse/bse_ring_comm.py" source_line=246}
  %constant.675 = u32[] constant(1), sharding={manual}, metadata={op_name="jit(_full_run)/jit(main)/while/body/jit(_matvec_impl)/jit(shmap_body)/axis_index" source_file="/global/homes/j/jackm/software/lorrax_C/src/bse/bse_ring_comm.py" source_line=246}
  %and.7 = u32[] and(%partition-id.4, %constant.675), sharding={manual}, metadata={op_name="jit(_full_run)/jit(main)/while/body/jit(_matvec_impl)/jit(shmap_body)/axis_index" source_file="/global/homes/j/jackm/software/lorrax_C/src/bse/bse_ring_comm.py" source_line=246}
  %convert.33 = s32[] convert(%and.7), sharding={manual}, metadata={op_name="jit(_full_run)/jit(main)/while/body/jit(_matvec_impl)/jit(shmap_body)/axis_index" source_file="/global/homes/j/jackm/software/lorrax_C/src/bse/bse_ring_comm.py" source_line=246}
  %get-tuple-element.1966 = c128[64,4,2,480]{3,2,1,0} get-tuple-element(%arg_tuple.1956), index=9, sharding={devices=[1,1,1,2,2]<=[2,2]T(1,0) last_tile_dim_replicate}
  %copy.21 = c128[64,4,2,480]{3,2,1,0} copy(%get-tuple-element.1966), sharding={devices=[1,1,1,2,2]<=[2,2]T(1,0) last_tile_dim_replicate}, metadata={op_name="jit(_full_run)/jit(main)/while/body/pjit" source_file="/global/homes/j/jackm/software/lorrax_C/src/bse/bse_lanczos.py" source_line=186}
  %copy.20 = c128[64,4,2,480]{3,2,1,0} copy(%copy.21), sharding={devices=[1,1,1,2,2]<=[2,2]T(1,0) last_tile_dim_replicate}, metadata={op_name="jit(_full_run)/jit(main)/while/body/jit(_matvec_impl)/shard_map" source_file="/global/homes/j/jackm/software/lorrax_C/src/bse/bse_ring_comm.py" source_line=445}
  %custom-call.22 = c128[64,4,2,240]{3,2,1,0} custom-call(%copy.20), custom_call_target="SPMDFullToShardShape", sharding={manual}, metadata={op_name="jit(_full_run)/jit(main)/while/body/jit(_matvec_impl)/shard_map" source_file="/global/homes/j/jackm/software/lorrax_C/src/bse/bse_ring_comm.py" source_line=445}
  %get-tuple-element.1964 = c128[64,4,2,480]{3,2,1,0} get-tuple-element(%arg_tuple.1956), index=7, sharding={devices=[1,1,1,2,2]<=[2,2]T(1,0) last_tile_dim_replicate}
  %copy.19 = c128[64,4,2,480]{3,2,1,0} copy(%get-tuple-element.1964), sharding={devices=[1,1,1,2,2]<=[2,2]T(1,0) last_tile_dim_replicate}, metadata={op_name="jit(_full_run)/jit(main)/while/body/pjit" source_file="/global/homes/j/jackm/software/lorrax_C/src/bse/bse_lanczos.py" source_line=186}
  %copy.18 = c128[64,4,2,480]{3,2,1,0} copy(%copy.19), sharding={devices=[1,1,1,2,2]<=[2,2]T(1,0) last_tile_dim_replicate}, metadata={op_name="jit(_full_run)/jit(main)/while/body/jit(_matvec_impl)/shard_map" source_file="/global/homes/j/jackm/software/lorrax_C/src/bse/bse_ring_comm.py" source_line=445}
  %custom-call.25 = c128[64,4,2,240]{3,2,1,0} custom-call(%copy.18), custom_call_target="SPMDFullToShardShape", sharding={manual}, metadata={op_name="jit(_full_run)/jit(main)/while/body/jit(_matvec_impl)/shard_map" source_file="/global/homes/j/jackm/software/lorrax_C/src/bse/bse_ring_comm.py" source_line=445}
  %constant.1093 = s32[] constant(0), sharding={manual}
  %partition-id.5 = u32[] partition-id(), sharding={manual}, metadata={op_name="jit(_full_run)/jit(main)/while/body/jit(_matvec_impl)/jit(shmap_body)/axis_index" source_file="/global/homes/j/jackm/software/lorrax_C/src/bse/bse_ring_comm.py" source_line=245}
  %constant.676 = u32[] constant(1), sharding={manual}, metadata={op_name="jit(_full_run)/jit(main)/while/body/jit(_matvec_impl)/jit(shmap_body)/axis_index" source_file="/global/homes/j/jackm/software/lorrax_C/src/bse/bse_ring_comm.py" source_line=245}
  %shift-right-logical.235 = u32[] shift-right-logical(%partition-id.5, %constant.676), sharding={manual}, metadata={op_name="jit(_full_run)/jit(main)/while/body/jit(_matvec_impl)/jit(shmap_body)/axis_index" source_file="/global/homes/j/jackm/software/lorrax_C/src/bse/bse_ring_comm.py" source_line=245}
  %constant.677 = u32[] constant(1), sharding={manual}, metadata={op_name="jit(_full_run)/jit(main)/while/body/jit(_matvec_impl)/jit(shmap_body)/axis_index" source_file="/global/homes/j/jackm/software/lorrax_C/src/bse/bse_ring_comm.py" source_line=245}
  %and.8 = u32[] and(%shift-right-logical.235, %constant.677), sharding={manual}, metadata={op_name="jit(_full_run)/jit(main)/while/body/jit(_matvec_impl)/jit(shmap_body)/axis_index" source_file="/global/homes/j/jackm/software/lorrax_C/src/bse/bse_ring_comm.py" source_line=245}
  %convert.34 = s32[] convert(%and.8), sharding={manual}, metadata={op_name="jit(_full_run)/jit(main)/while/body/jit(_matvec_impl)/jit(shmap_body)/axis_index" source_file="/global/homes/j/jackm/software/lorrax_C/src/bse/bse_ring_comm.py" source_line=245}
  %constant.1096 = s32[] constant(2), sharding={manual}
  %multiply.63 = s32[] multiply(%convert.34, %constant.1096), sharding={manual}, metadata={op_name="jit(_full_run)/jit(main)/while/body/jit(_matvec_impl)/jit(shmap_body)/mul" source_file="/global/homes/j/jackm/software/lorrax_C/src/bse/bse_ring_comm.py" source_line=253}
  %constant.1092 = s32[] constant(0), sharding={manual}
  %compare.56 = pred[] compare(%multiply.63, %constant.1092), direction=LT, sharding={manual}, metadata={op_name="jit(_full_run)/jit(main)/while/body/jit(_matvec_impl)/jit(shmap_body)/lt" source_file="/global/homes/j/jackm/software/lorrax_C/src/bse/bse_ring_comm.py" source_line=255}
  %constant.1098 = s32[] constant(4), sharding={manual}
  %add.417 = s32[] add(%multiply.63, %constant.1098), sharding={manual}, metadata={op_name="jit(_full_run)/jit(main)/while/body/jit(_matvec_impl)/jit(shmap_body)/add" source_file="/global/homes/j/jackm/software/lorrax_C/src/bse/bse_ring_comm.py" source_line=255}
  %select.130 = s32[] select(%compare.56, %add.417, %multiply.63), sharding={manual}, metadata={op_name="jit(_full_run)/jit(main)/while/body/jit(_matvec_impl)/jit(shmap_body)/select_n" source_file="/global/homes/j/jackm/software/lorrax_C/src/bse/bse_ring_comm.py" source_line=255}
  %dynamic-slice.8 = c128[64,2,2,240]{3,2,1,0} dynamic-slice(%custom-call.25, %constant.1093, %select.130, %constant.1093, %constant.1093), dynamic_slice_sizes={64,2,2,240}, sharding={manual}, metadata={op_name="jit(_full_run)/jit(main)/while/body/jit(_matvec_impl)/jit(shmap_body)/dynamic_slice" source_file="/global/homes/j/jackm/software/lorrax_C/src/bse/bse_ring_comm.py" source_line=255}
  %tuple.85 = (s64[], c128[1,2,2,64]{3,2,1,0}, c128[1,2,240,64]{3,2,1,0}, s32[], c128[64,4,2,240]{3,2,1,0}, /*index=5*/c128[64,2,2,240]{3,2,1,0}) tuple(%constant.1090, %custom-call.19, %broadcast.494, %convert.33, %custom-call.22, /*index=5*/%dynamic-slice.8), sharding={{manual}, {manual}, {manual}, {manual}, {manual}, /*index=5*/{manual}}
  %while.19 = (s64[], c128[1,2,2,64]{3,2,1,0}, c128[1,2,240,64]{3,2,1,0}, s32[], c128[64,4,2,240]{3,2,1,0}, /*index=5*/c128[64,2,2,240]{3,2,1,0}) while(%tuple.85), condition=%region_3.1276.clone.clone, body=%region_2.1259.clone.clone.clone, sharding={{manual}, {manual}, {manual}, {manual}, {manual}, /*index=5*/{manual}}, metadata={op_name="jit(_full_run)/jit(main)/while/body/jit(_matvec_impl)/jit(shmap_body)/while" source_file="/global/homes/j/jackm/software/lorrax_C/src/bse/bse_ring_comm.py" source_line=274}
  %get-tuple-element.191 = c128[1,2,240,64]{3,2,1,0} get-tuple-element(%while.19), index=2, sharding={manual}, metadata={op_name="jit(_full_run)/jit(main)/while/body/jit(_matvec_impl)/jit(shmap_body)/while" source_file="/global/homes/j/jackm/software/lorrax_C/src/bse/bse_ring_comm.py" source_line=274}
  %constant.382 = c128[] constant((0, 0)), sharding={manual}
  %broadcast.496 = c128[1,240,64]{2,1,0} broadcast(%constant.382), dimensions={}, sharding={manual}
  %tuple.53 = (s64[], c128[1,2,240,64]{3,2,1,0}, c128[1,240,64]{2,1,0}) tuple(%constant.1091, %get-tuple-element.191, %broadcast.496), sharding={{replicated}, {manual}, {manual}}
  %while.14 = (s64[], c128[1,2,240,64]{3,2,1,0}, c128[1,240,64]{2,1,0}) while(%tuple.53), condition=%region_6.1315.clone, body=%region_4.1302.clone, sharding={{replicated}, {manual}, {manual}}, metadata={op_name="jit(_full_run)/jit(main)/while/body/jit(_matvec_impl)/jit(shmap_body)/while" source_file="/global/homes/j/jackm/software/lorrax_C/src/bse/bse_ring_comm.py" source_line=285}
  %get-tuple-element.46 = c128[1,240,64]{2,1,0} get-tuple-element(%while.14), index=2, sharding={manual}, metadata={op_name="jit(_full_run)/jit(main)/while/body/jit(_matvec_impl)/jit(shmap_body)/while" source_file="/global/homes/j/jackm/software/lorrax_C/src/bse/bse_ring_comm.py" source_line=285}
  %constant.970 = c128[] constant((0.125, 0)), sharding={manual}, metadata={op_name="jit(_full_run)/jit(main)/while/body/jit(_matvec_impl)/jit(shmap_body)/convert_element_type" source_file="/global/homes/j/jackm/software/lorrax_C/src/bse/bse_ring_comm.py" source_line=287}
  %broadcast.1009 = c128[1,240,64]{2,1,0} broadcast(%constant.970), dimensions={}, sharding={manual}, metadata={op_name="jit(_full_run)/jit(main)/while/body/jit(_matvec_impl)/jit(shmap_body)/div" source_file="/global/homes/j/jackm/software/lorrax_C/src/bse/bse_ring_comm.py" source_line=287}
  %multiply.159 = c128[1,240,64]{2,1,0} multiply(%get-tuple-element.46, %broadcast.1009), sharding={manual}, metadata={op_name="jit(_full_run)/jit(main)/while/body/jit(_matvec_impl)/jit(shmap_body)/div" source_file="/global/homes/j/jackm/software/lorrax_C/src/bse/bse_ring_comm.py" source_line=287}
  %reshape.112 = c128[240,64]{1,0} reshape(%multiply.159), sharding={manual}
  %get-tuple-element.1970 = c128[480,480]{1,0} get-tuple-element(%arg_tuple.1956), index=13, sharding={devices=[2,2]<=[4]}
  %copy.17 = c128[480,480]{1,0} copy(%get-tuple-element.1970), sharding={devices=[2,2]<=[4]}, metadata={op_name="jit(_full_run)/jit(main)/while/body/pjit" source_file="/global/homes/j/jackm/software/lorrax_C/src/bse/bse_lanczos.py" source_line=186}
  %copy.16 = c128[480,480]{1,0} copy(%copy.17), sharding={devices=[2,2]<=[4]}, metadata={op_name="jit(_full_run)/jit(main)/while/body/jit(_matvec_impl)/shard_map" source_file="/global/homes/j/jackm/software/lorrax_C/src/bse/bse_ring_comm.py" source_line=445}
  %custom-call.44 = c128[240,240]{1,0} custom-call(%copy.16), custom_call_target="SPMDFullToShardShape", sharding={manual}, metadata={op_name="jit(_full_run)/jit(main)/while/body/jit(_matvec_impl)/shard_map" source_file="/global/homes/j/jackm/software/lorrax_C/src/bse/bse_ring_comm.py" source_line=445}
  %dot.19 = c128[64,240]{1,0} dot(%reshape.112, %custom-call.44), lhs_contracting_dims={0}, rhs_contracting_dims={1}, sharding={manual}, metadata={op_name="jit(_full_run)/jit(main)/while/body/jit(_matvec_impl)/jit(shmap_body)/MN,bNk->bMk/dot_general" source_file="/global/homes/j/jackm/software/lorrax_C/src/bse/bse_ring_comm.py" source_line=289}
  %reshape.113 = c128[1,64,240]{2,1,0} reshape(%dot.19), sharding={manual}, metadata={op_name="jit(_full_run)/jit(main)/while/body/jit(_matvec_impl)/jit(shmap_body)/MN,bNk->bMk/dot_general" source_file="/global/homes/j/jackm/software/lorrax_C/src/bse/bse_ring_comm.py" source_line=289}
  %transpose.14 = c128[1,240,64]{1,2,0} transpose(%reshape.113), dimensions={0,2,1}, sharding={manual}, metadata={op_name="jit(_full_run)/jit(main)/while/body/jit(_matvec_impl)/jit(shmap_body)/MN,bNk->bMk/transpose" source_file="/global/homes/j/jackm/software/lorrax_C/src/bse/bse_ring_comm.py" source_line=289}
  %all-reduce.1 = c128[1,240,64]{1,2,0} all-reduce(%transpose.14), channel_id=3, replica_groups={{0,1},{2,3}}, use_global_device_ids=true, to_apply=%region_7.1323, sharding={manual}, metadata={op_name="jit(_full_run)/jit(main)/while/body/jit(_matvec_impl)/jit(shmap_body)/psum2" source_file="/global/homes/j/jackm/software/lorrax_C/src/bse/bse_ring_comm.py" source_line=290}
  %reshape.114 = c128[240,64]{0,1} reshape(%all-reduce.1), sharding={manual}
  %transpose.56 = c128[64,240]{1,0} transpose(%reshape.114), dimensions={1,0}, sharding={manual}
  %broadcast.1045 = c128[64,240,2,4]{3,2,1,0} broadcast(%transpose.56), dimensions={0,1}, sharding={manual}, metadata={op_name="jit(_full_run)/jit(main)/while/body/jit(_matvec_impl)/jit(shmap_body)/kcvM,bMk->bcvk/dot_general" source_file="/global/homes/j/jackm/software/lorrax_C/src/bse/bse_ring_comm.py" source_line=297}
  %get-tuple-element.1965 = c128[64,4,2,480]{3,2,1,0} get-tuple-element(%arg_tuple.1956), index=8, sharding={devices=[1,1,1,2,2]<=[4] last_tile_dim_replicate}
  %copy.15 = c128[64,4,2,480]{3,2,1,0} copy(%get-tuple-element.1965), sharding={devices=[1,1,1,2,2]<=[4] last_tile_dim_replicate}, metadata={op_name="jit(_full_run)/jit(main)/while/body/pjit" source_file="/global/homes/j/jackm/software/lorrax_C/src/bse/bse_lanczos.py" source_line=186}
  %copy.14 = c128[64,4,2,480]{3,2,1,0} copy(%copy.15), sharding={devices=[1,1,1,2,2]<=[4] last_tile_dim_replicate}, metadata={op_name="jit(_full_run)/jit(main)/while/body/jit(_matvec_impl)/shard_map" source_file="/global/homes/j/jackm/software/lorrax_C/src/bse/bse_ring_comm.py" source_line=445}
  %custom-call.47 = c128[64,4,2,240]{3,2,1,0} custom-call(%copy.14), custom_call_target="SPMDFullToShardShape", sharding={manual}, metadata={op_name="jit(_full_run)/jit(main)/while/body/jit(_matvec_impl)/shard_map" source_file="/global/homes/j/jackm/software/lorrax_C/src/bse/bse_ring_comm.py" source_line=445}
  %constant.1095 = s32[] constant(0), sharding={manual}
  %constant.1097 = s32[] constant(2), sharding={manual}
  %multiply.65 = s32[] multiply(%convert.33, %constant.1097), sharding={manual}, metadata={op_name="jit(_full_run)/jit(main)/while/body/jit(_matvec_impl)/jit(shmap_body)/mul" source_file="/global/homes/j/jackm/software/lorrax_C/src/bse/bse_ring_comm.py" source_line=292}
  %constant.1094 = s32[] constant(0), sharding={manual}
  %compare.57 = pred[] compare(%multiply.65, %constant.1094), direction=LT, sharding={manual}, metadata={op_name="jit(_full_run)/jit(main)/while/body/jit(_matvec_impl)/jit(shmap_body)/lt" source_file="/global/homes/j/jackm/software/lorrax_C/src/bse/bse_ring_comm.py" source_line=293}
  %constant.1099 = s32[] constant(4), sharding={manual}
  %add.418 = s32[] add(%multiply.65, %constant.1099), sharding={manual}, metadata={op_name="jit(_full_run)/jit(main)/while/body/jit(_matvec_impl)/jit(shmap_body)/add" source_file="/global/homes/j/jackm/software/lorrax_C/src/bse/bse_ring_comm.py" source_line=293}
  %select.131 = s32[] select(%compare.57, %add.418, %multiply.65), sharding={manual}, metadata={op_name="jit(_full_run)/jit(main)/while/body/jit(_matvec_impl)/jit(shmap_body)/select_n" source_file="/global/homes/j/jackm/software/lorrax_C/src/bse/bse_ring_comm.py" source_line=293}
  %dynamic-slice.9 = c128[64,2,2,240]{3,2,1,0} dynamic-slice(%custom-call.47, %constant.1095, %select.131, %constant.1095, %constant.1095), dynamic_slice_sizes={64,2,2,240}, sharding={manual}, metadata={op_name="jit(_full_run)/jit(main)/while/body/jit(_matvec_impl)/jit(shmap_body)/dynamic_slice" source_file="/global/homes/j/jackm/software/lorrax_C/src/bse/bse_ring_comm.py" source_line=293}
  %get-tuple-element.1963 = c128[64,4,2,480]{3,2,1,0} get-tuple-element(%arg_tuple.1956), index=6, sharding={devices=[1,1,1,2,2]<=[4] last_tile_dim_replicate}
  %copy.13 = c128[64,4,2,480]{3,2,1,0} copy(%get-tuple-element.1963), sharding={devices=[1,1,1,2,2]<=[4] last_tile_dim_replicate}, metadata={op_name="jit(_full_run)/jit(main)/while/body/pjit" source_file="/global/homes/j/jackm/software/lorrax_C/src/bse/bse_lanczos.py" source_line=186}
  %copy.12 = c128[64,4,2,480]{3,2,1,0} copy(%copy.13), sharding={devices=[1,1,1,2,2]<=[4] last_tile_dim_replicate}, metadata={op_name="jit(_full_run)/jit(main)/while/body/jit(_matvec_impl)/shard_map" source_file="/global/homes/j/jackm/software/lorrax_C/src/bse/bse_ring_comm.py" source_line=445}
  %custom-call.49 = c128[64,4,2,240]{3,2,1,0} custom-call(%copy.12), custom_call_target="SPMDFullToShardShape", sharding={manual}, metadata={op_name="jit(_full_run)/jit(main)/while/body/jit(_matvec_impl)/shard_map" source_file="/global/homes/j/jackm/software/lorrax_C/src/bse/bse_ring_comm.py" source_line=445}
  %real.8 = f64[64,4,2,240]{3,2,1,0} real(%custom-call.49), sharding={manual}, metadata={op_name="jit(_full_run)/jit(main)/while/body/jit(_matvec_impl)/jit(shmap_body)/real" source_file="/global/homes/j/jackm/software/lorrax_C/src/bse/bse_ring_comm.py" source_line=296}
  %imag.8 = f64[64,4,2,240]{3,2,1,0} imag(%custom-call.49), sharding={manual}, metadata={op_name="jit(_full_run)/jit(main)/while/body/jit(_matvec_impl)/jit(shmap_body)/imag" source_file="/global/homes/j/jackm/software/lorrax_C/src/bse/bse_ring_comm.py" source_line=296}
  %negate.12 = f64[64,4,2,240]{3,2,1,0} negate(%imag.8), sharding={manual}, metadata={op_name="jit(_full_run)/jit(main)/while/body/jit(_matvec_impl)/jit(shmap_body)/neg" source_file="/global/homes/j/jackm/software/lorrax_C/src/bse/bse_ring_comm.py" source_line=296}
  %complex.8 = c128[64,4,2,240]{3,2,1,0} complex(%real.8, %negate.12), sharding={manual}, metadata={op_name="jit(_full_run)/jit(main)/while/body/jit(_matvec_impl)/jit(shmap_body)/complex" source_file="/global/homes/j/jackm/software/lorrax_C/src/bse/bse_ring_comm.py" source_line=296}
  %dot.10 = c128[64,240,2,4]{3,2,1,0} dot(%dynamic-slice.9, %complex.8), lhs_batch_dims={0,3}, lhs_contracting_dims={2}, rhs_batch_dims={0,3}, rhs_contracting_dims={2}, sharding={manual}, metadata={op_name="jit(_full_run)/jit(main)/while/body/jit(_matvec_impl)/jit(shmap_body)/kcsm,kvsm->kcvm/dot_general" source_file="/global/homes/j/jackm/software/lorrax_C/src/bse/bse_ring_comm.py" source_line=296}
  %real.26 = f64[64,240,2,4]{3,2,1,0} real(%dot.10), sharding={manual}, metadata={op_name="jit(_full_run)/jit(main)/while/body/jit(_matvec_impl)/jit(shmap_body)/real" source_file="/global/homes/j/jackm/software/lorrax_C/src/bse/bse_ring_comm.py" source_line=297}
  %imag.25 = f64[64,240,2,4]{3,2,1,0} imag(%dot.10), sharding={manual}, metadata={op_name="jit(_full_run)/jit(main)/while/body/jit(_matvec_impl)/jit(shmap_body)/imag" source_file="/global/homes/j/jackm/software/lorrax_C/src/bse/bse_ring_comm.py" source_line=297}
  %negate.49 = f64[64,240,2,4]{3,2,1,0} negate(%imag.25), sharding={manual}, metadata={op_name="jit(_full_run)/jit(main)/while/body/jit(_matvec_impl)/jit(shmap_body)/neg" source_file="/global/homes/j/jackm/software/lorrax_C/src/bse/bse_ring_comm.py" source_line=297}
  %complex.29 = c128[64,240,2,4]{3,2,1,0} complex(%real.26, %negate.49), sharding={manual}, metadata={op_name="jit(_full_run)/jit(main)/while/body/jit(_matvec_impl)/jit(shmap_body)/complex" source_file="/global/homes/j/jackm/software/lorrax_C/src/bse/bse_ring_comm.py" source_line=297}
  %multiply.171 = c128[64,240,2,4]{3,2,1,0} multiply(%broadcast.1045, %complex.29), sharding={manual}
  %constant.876 = c128[] constant((0, 0)), sharding={manual}
  %reduce.19 = c128[64,2,4]{2,1,0} reduce(%multiply.171, %constant.876), dimensions={1}, to_apply=%scalar_add_computation.1, sharding={manual}, metadata={op_name="jit(_full_run)/jit(main)/while/body/jit(_matvec_impl)/jit(shmap_body)/kcvM,bMk->bcvk/dot_general" source_file="/global/homes/j/jackm/software/lorrax_C/src/bse/bse_ring_comm.py" source_line=297}
  %transpose.92 = c128[64,4,2]{1,2,0} transpose(%reduce.19), dimensions={0,2,1}, sharding={manual}, metadata={op_name="jit(_full_run)/jit(main)/while/body/jit(_matvec_impl)/jit(shmap_body)/kcvM,bMk->bcvk/dot_general" source_file="/global/homes/j/jackm/software/lorrax_C/src/bse/bse_ring_comm.py" source_line=297}
  %reshape.115 = c128[64,1,4,2]{3,2,1,0} reshape(%transpose.92), sharding={manual}, metadata={op_name="jit(_full_run)/jit(main)/while/body/jit(_matvec_impl)/jit(shmap_body)/kcvM,bMk->bcvk/dot_general" source_file="/global/homes/j/jackm/software/lorrax_C/src/bse/bse_ring_comm.py" source_line=297}
  %transpose.16 = c128[1,4,2,64]{2,1,0,3} transpose(%reshape.115), dimensions={1,2,3,0}, sharding={manual}, metadata={op_name="jit(_full_run)/jit(main)/while/body/jit(_matvec_impl)/jit(shmap_body)/kcvM,bMk->bcvk/transpose" source_file="/global/homes/j/jackm/software/lorrax_C/src/bse/bse_ring_comm.py" source_line=297}
  %reduce-scatter.1 = c128[1,2,2,64]{2,1,0,3} reduce-scatter(%transpose.16), channel_id=4, replica_groups={{0,2},{1,3}}, use_global_device_ids=true, dimensions={1}, to_apply=%region_8.1327, sharding={manual}, metadata={op_name="jit(_full_run)/jit(main)/while/body/jit(_matvec_impl)/jit(shmap_body)/reduce_scatter" source_file="/global/homes/j/jackm/software/lorrax_C/src/bse/bse_ring_comm.py" source_line=298}
  %constant.972 = c128[] constant((0.125, 0)), sharding={manual}, metadata={op_name="jit(_full_run)/jit(main)/while/body/jit(_matvec_impl)/jit(shmap_body)/convert_element_type" source_file="/global/homes/j/jackm/software/lorrax_C/src/bse/bse_ring_comm.py" source_line=300}
  %broadcast.1011 = c128[1,2,2,64]{3,2,1,0} broadcast(%constant.972), dimensions={}, sharding={manual}, metadata={op_name="jit(_full_run)/jit(main)/while/body/jit(_matvec_impl)/jit(shmap_body)/div" source_file="/global/homes/j/jackm/software/lorrax_C/src/bse/bse_ring_comm.py" source_line=300}
  %multiply.160 = c128[1,2,2,64]{2,1,0,3} multiply(%reduce-scatter.1, %broadcast.1011), sharding={manual}, metadata={op_name="jit(_full_run)/jit(main)/while/body/jit(_matvec_impl)/jit(shmap_body)/div" source_file="/global/homes/j/jackm/software/lorrax_C/src/bse/bse_ring_comm.py" source_line=300}
  %copy.11 = c128[1,2,2,64]{3,2,1,0} copy(%multiply.160), sharding={manual}, metadata={op_name="jit(_full_run)/jit(main)/while/body/jit(_matvec_impl)/shard_map" source_file="/global/homes/j/jackm/software/lorrax_C/src/bse/bse_ring_comm.py" source_line=445}
  %custom-call.51 = c128[1,4,4,64]{3,2,1,0} custom-call(%copy.11), custom_call_target="SPMDShardToFullShape", sharding={devices=[1,2,2,1]<=[4]}, metadata={op_name="jit(_full_run)/jit(main)/while/body/jit(_matvec_impl)/shard_map" source_file="/global/homes/j/jackm/software/lorrax_C/src/bse/bse_ring_comm.py" source_line=445}
  %add.419 = c128[1,4,4,64]{3,2,1,0} add(%copy.23, %custom-call.51), sharding={devices=[1,2,2,1]<=[4]}, metadata={op_name="jit(_full_run)/jit(main)/while/body/jit(_matvec_impl)/add" source_file="/global/homes/j/jackm/software/lorrax_C/src/bse/bse_ring_comm.py" source_line=450}
  %get-tuple-element.1969 = c128[480,480,4,4,4]{4,3,2,1,0} get-tuple-element(%arg_tuple.1956), index=12, sharding={devices=[2,2,1,1,1]<=[4]}
  %copy.10 = c128[480,480,4,4,4]{4,3,2,1,0} copy(%get-tuple-element.1969), sharding={devices=[2,2,1,1,1]<=[4]}, metadata={op_name="jit(_full_run)/jit(main)/while/body/pjit" source_file="/global/homes/j/jackm/software/lorrax_C/src/bse/bse_lanczos.py" source_line=186}
  %copy.9 = c128[480,480,4,4,4]{4,3,2,1,0} copy(%copy.10), sharding={devices=[2,2,1,1,1]<=[4]}, metadata={op_name="jit(_full_run)/jit(main)/while/body/jit(_matvec_impl)/pjit" source_file="/global/homes/j/jackm/software/lorrax_C/src/bse/bse_ring_comm.py" source_line=449}
  %broadcast.516 = c128[1,480,480,2,2,4,4,4]{7,6,5,4,3,2,1,0} broadcast(%copy.9), dimensions={1,2,5,6,7}, sharding={devices=[1,2,2,1,1,1,1,1]<=[4]}, metadata={op_name="jit(_full_run)/jit(main)/while/body/jit(_matvec_impl)/jit(_apply_W_from_T)/mul" source_file="/global/homes/j/jackm/software/lorrax_C/src/bse/bse_ring_comm.py" source_line=418}
  %constant.1101 = s64[] constant(0), sharding={manual}
  %constant.1100 = s64[] constant(0), sharding={manual}
  %copy.8 = c128[1,4,4,64]{3,2,1,0} copy(%copy.25), sharding={devices=[1,2,2,1]<=[4]}, metadata={op_name="jit(_full_run)/jit(main)/while/body/jit(_matvec_impl)/shard_map" source_file="/global/homes/j/jackm/software/lorrax_C/src/bse/bse_ring_comm.py" source_line=448}
  %custom-call.27 = c128[1,2,2,64]{3,2,1,0} custom-call(%copy.8), custom_call_target="SPMDFullToShardShape", sharding={manual}, metadata={op_name="jit(_full_run)/jit(main)/while/body/jit(_matvec_impl)/shard_map" source_file="/global/homes/j/jackm/software/lorrax_C/src/bse/bse_ring_comm.py" source_line=448}
  %constant.384 = c128[] constant((0, 0)), sharding={manual}
  %broadcast.498 = c128[1,2,64,2,240]{4,3,2,1,0} broadcast(%constant.384), dimensions={}, sharding={manual}
  %partition-id.6 = u32[] partition-id(), sharding={manual}, metadata={op_name="jit(_full_run)/jit(main)/while/body/jit(_matvec_impl)/jit(shmap_body)/axis_index" source_file="/global/homes/j/jackm/software/lorrax_C/src/bse/bse_ring_comm.py" source_line=77}
  %constant.678 = u32[] constant(1), sharding={manual}, metadata={op_name="jit(_full_run)/jit(main)/while/body/jit(_matvec_impl)/jit(shmap_body)/axis_index" source_file="/global/homes/j/jackm/software/lorrax_C/src/bse/bse_ring_comm.py" source_line=77}
  %and.9 = u32[] and(%partition-id.6, %constant.678), sharding={manual}, metadata={op_name="jit(_full_run)/jit(main)/while/body/jit(_matvec_impl)/jit(shmap_body)/axis_index" source_file="/global/homes/j/jackm/software/lorrax_C/src/bse/bse_ring_comm.py" source_line=77}
  %convert.35 = s32[] convert(%and.9), sharding={manual}, metadata={op_name="jit(_full_run)/jit(main)/while/body/jit(_matvec_impl)/jit(shmap_body)/axis_index" source_file="/global/homes/j/jackm/software/lorrax_C/src/bse/bse_ring_comm.py" source_line=77}
  %copy.7 = c128[64,4,2,480]{3,2,1,0} copy(%copy.21), sharding={devices=[1,1,1,2,2]<=[2,2]T(1,0) last_tile_dim_replicate}, metadata={op_name="jit(_full_run)/jit(main)/while/body/jit(_matvec_impl)/shard_map" source_file="/global/homes/j/jackm/software/lorrax_C/src/bse/bse_ring_comm.py" source_line=448}
  %custom-call.29 = c128[64,4,2,240]{3,2,1,0} custom-call(%copy.7), custom_call_target="SPMDFullToShardShape", sharding={manual}, metadata={op_name="jit(_full_run)/jit(main)/while/body/jit(_matvec_impl)/shard_map" source_file="/global/homes/j/jackm/software/lorrax_C/src/bse/bse_ring_comm.py" source_line=448}
  %tuple.88 = (s64[], c128[1,2,2,64]{3,2,1,0}, c128[1,2,64,2,240]{4,3,2,1,0}, s32[], c128[64,4,2,240]{3,2,1,0}) tuple(%constant.1100, %custom-call.27, %broadcast.498, %convert.35, %custom-call.29), sharding={{manual}, {manual}, {manual}, {manual}, {manual}}
  %while.20 = (s64[], c128[1,2,2,64]{3,2,1,0}, c128[1,2,64,2,240]{4,3,2,1,0}, s32[], c128[64,4,2,240]{3,2,1,0}) while(%tuple.88), condition=%region_10.1466.clone.clone, body=%region_9.1451.clone.clone.clone, sharding={{manual}, {manual}, {manual}, {manual}, {manual}}, metadata={op_name="jit(_full_run)/jit(main)/while/body/jit(_matvec_impl)/jit(shmap_body)/while" source_file="/global/homes/j/jackm/software/lorrax_C/src/bse/bse_ring_comm.py" source_line=95}
  %get-tuple-element.408 = c128[1,2,64,2,240]{4,3,2,1,0} get-tuple-element(%while.20), index=2, sharding={manual}, metadata={op_name="jit(_full_run)/jit(main)/while/body/jit(_matvec_impl)/jit(shmap_body)/while" source_file="/global/homes/j/jackm/software/lorrax_C/src/bse/bse_ring_comm.py" source_line=95}
  %constant.387 = c128[] constant((0, 0)), sharding={manual}
  %broadcast.500 = c128[1,240,240,2,2,64]{5,4,3,2,1,0} broadcast(%constant.387), dimensions={}, sharding={manual}
  %partition-id.7 = u32[] partition-id(), sharding={manual}, metadata={op_name="jit(_full_run)/jit(main)/while/body/jit(_matvec_impl)/jit(shmap_body)/axis_index" source_file="/global/homes/j/jackm/software/lorrax_C/src/bse/bse_ring_comm.py" source_line=106}
  %constant.679 = u32[] constant(1), sharding={manual}, metadata={op_name="jit(_full_run)/jit(main)/while/body/jit(_matvec_impl)/jit(shmap_body)/axis_index" source_file="/global/homes/j/jackm/software/lorrax_C/src/bse/bse_ring_comm.py" source_line=106}
  %shift-right-logical.236 = u32[] shift-right-logical(%partition-id.7, %constant.679), sharding={manual}, metadata={op_name="jit(_full_run)/jit(main)/while/body/jit(_matvec_impl)/jit(shmap_body)/axis_index" source_file="/global/homes/j/jackm/software/lorrax_C/src/bse/bse_ring_comm.py" source_line=106}
  %constant.680 = u32[] constant(1), sharding={manual}, metadata={op_name="jit(_full_run)/jit(main)/while/body/jit(_matvec_impl)/jit(shmap_body)/axis_index" source_file="/global/homes/j/jackm/software/lorrax_C/src/bse/bse_ring_comm.py" source_line=106}
  %and.10 = u32[] and(%shift-right-logical.236, %constant.680), sharding={manual}, metadata={op_name="jit(_full_run)/jit(main)/while/body/jit(_matvec_impl)/jit(shmap_body)/axis_index" source_file="/global/homes/j/jackm/software/lorrax_C/src/bse/bse_ring_comm.py" source_line=106}
  %convert.36 = s32[] convert(%and.10), sharding={manual}, metadata={op_name="jit(_full_run)/jit(main)/while/body/jit(_matvec_impl)/jit(shmap_body)/axis_index" source_file="/global/homes/j/jackm/software/lorrax_C/src/bse/bse_ring_comm.py" source_line=106}
  %copy.6 = c128[64,4,2,480]{3,2,1,0} copy(%copy.13), sharding={devices=[1,1,1,2,2]<=[4] last_tile_dim_replicate}, metadata={op_name="jit(_full_run)/jit(main)/while/body/jit(_matvec_impl)/shard_map" source_file="/global/homes/j/jackm/software/lorrax_C/src/bse/bse_ring_comm.py" source_line=448}
  %custom-call.32 = c128[64,4,2,240]{3,2,1,0} custom-call(%copy.6), custom_call_target="SPMDFullToShardShape", sharding={manual}, metadata={op_name="jit(_full_run)/jit(main)/while/body/jit(_matvec_impl)/shard_map" source_file="/global/homes/j/jackm/software/lorrax_C/src/bse/bse_ring_comm.py" source_line=448}
  %tuple.91 = (s64[], c128[1,2,64,2,240]{4,3,2,1,0}, c128[1,240,240,2,2,64]{5,4,3,2,1,0}, s32[], c128[64,4,2,240]{3,2,1,0}) tuple(%constant.1101, %get-tuple-element.408, %broadcast.500, %convert.36, %custom-call.32), sharding={{manual}, {manual}, {manual}, {manual}, {manual}}
  %while.21 = (s64[], c128[1,2,64,2,240]{4,3,2,1,0}, c128[1,240,240,2,2,64]{5,4,3,2,1,0}, s32[], c128[64,4,2,240]{3,2,1,0}) while(%tuple.91), condition=%region_12.1537.clone.clone, body=%region_11.1522.clone.clone.clone, sharding={{manual}, {manual}, {manual}, {manual}, {manual}}, metadata={op_name="jit(_full_run)/jit(main)/while/body/jit(_matvec_impl)/jit(shmap_body)/while" source_file="/global/homes/j/jackm/software/lorrax_C/src/bse/bse_ring_comm.py" source_line=125}
  %get-tuple-element.47 = c128[1,240,240,2,2,64]{5,4,3,2,1,0} get-tuple-element(%while.21), index=2, sharding={manual}, metadata={op_name="jit(_full_run)/jit(main)/while/body/jit(_matvec_impl)/jit(shmap_body)/while" source_file="/global/homes/j/jackm/software/lorrax_C/src/bse/bse_ring_comm.py" source_line=125}
  %copy.5 = c128[1,240,240,2,2,64]{5,4,3,2,1,0} copy(%get-tuple-element.47), sharding={manual}, metadata={op_name="jit(_full_run)/jit(main)/while/body/jit(_matvec_impl)/shard_map" source_file="/global/homes/j/jackm/software/lorrax_C/src/bse/bse_ring_comm.py" source_line=448}
  %custom-call.55 = c128[1,480,480,2,2,64]{5,4,3,2,1,0} custom-call(%copy.5), custom_call_target="SPMDShardToFullShape", sharding={devices=[1,2,2,1,1,1]<=[4]}, metadata={op_name="jit(_full_run)/jit(main)/while/body/jit(_matvec_impl)/shard_map" source_file="/global/homes/j/jackm/software/lorrax_C/src/bse/bse_ring_comm.py" source_line=448}
  %copy.4 = c128[1,480,480,2,2,64]{5,4,3,2,1,0} copy(%custom-call.55), sharding={devices=[1,2,2,1,1,1]<=[4]}, metadata={op_name="jit(_full_run)/jit(main)/while/body/jit(_matvec_impl)/pjit" source_file="/global/homes/j/jackm/software/lorrax_C/src/bse/bse_ring_comm.py" source_line=449}
  %reshape.59 = c128[1,480,480,2,2,4,4,4]{7,6,5,4,3,2,1,0} reshape(%copy.4), sharding={devices=[1,2,2,1,1,1,1,1]<=[4]}, metadata={op_name="jit(_full_run)/jit(main)/while/body/jit(_matvec_impl)/jit(_apply_W_from_T)/reshape" source_file="/global/homes/j/jackm/software/lorrax_C/src/bse/bse_ring_comm.py" source_line=416}
  %custom-call.57 = c128[1,480,480,2,2,4,4,4]{7,6,5,4,3,2,1,0} custom-call(%reshape.59), custom_call_target="CustomSPMDPartitioning", api_version=API_VERSION_STATUS_RETURNING, sharding={devices=[1,2,2,1,1,1,1,1]<=[4]}, metadata={op_name="jit(_full_run)/jit(main)/while/body/jit(_matvec_impl)/jit(_apply_W_from_T)/custom_partitioning" source_file="/global/homes/j/jackm/software/lorrax_C/src/common/fft_helpers.py" source_line=259}, backend_config="140445371277408"
  %custom-call.58 = c128[1,480,480,2,2,4,4,4]{7,6,5,4,3,2,1,0} custom-call(%custom-call.57), custom_call_target="CustomSPMDPartitioning", api_version=API_VERSION_STATUS_RETURNING, sharding={devices=[1,2,2,1,1,1,1,1]<=[4]}, metadata={op_name="jit(_full_run)/jit(main)/while/body/jit(_matvec_impl)/jit(_apply_W_from_T)/custom_partitioning" source_file="/global/homes/j/jackm/software/lorrax_C/src/common/fft_helpers.py" source_line=259}, backend_config="140445371281392"
  %custom-call.59 = c128[1,480,480,2,2,4,4,4]{7,6,5,4,3,2,1,0} custom-call(%custom-call.58), custom_call_target="CustomSPMDPartitioning", api_version=API_VERSION_STATUS_RETURNING, sharding={devices=[1,2,2,1,1,1,1,1]<=[4]}, metadata={op_name="jit(_full_run)/jit(main)/while/body/jit(_matvec_impl)/jit(_apply_W_from_T)/custom_partitioning" source_file="/global/homes/j/jackm/software/lorrax_C/src/common/fft_helpers.py" source_line=259}, backend_config="140445371283456"
  %multiply.66 = c128[1,480,480,2,2,4,4,4]{7,6,5,4,3,2,1,0} multiply(%broadcast.516, %custom-call.59), sharding={devices=[1,2,2,1,1,1,1,1]<=[4]}, metadata={op_name="jit(_full_run)/jit(main)/while/body/jit(_matvec_impl)/jit(_apply_W_from_T)/mul" source_file="/global/homes/j/jackm/software/lorrax_C/src/bse/bse_ring_comm.py" source_line=418}
  %custom-call.60 = c128[1,480,480,2,2,4,4,4]{7,6,5,4,3,2,1,0} custom-call(%multiply.66), custom_call_target="CustomSPMDPartitioning", api_version=API_VERSION_STATUS_RETURNING, sharding={devices=[1,2,2,1,1,1,1,1]<=[4]}, metadata={op_name="jit(_full_run)/jit(main)/while/body/jit(_matvec_impl)/jit(_apply_W_from_T)/custom_partitioning" source_file="/global/homes/j/jackm/software/lorrax_C/src/common/fft_helpers.py" source_line=259}, backend_config="140445371285328"
  %custom-call.61 = c128[1,480,480,2,2,4,4,4]{7,6,5,4,3,2,1,0} custom-call(%custom-call.60), custom_call_target="CustomSPMDPartitioning", api_version=API_VERSION_STATUS_RETURNING, sharding={devices=[1,2,2,1,1,1,1,1]<=[4]}, metadata={op_name="jit(_full_run)/jit(main)/while/body/jit(_matvec_impl)/jit(_apply_W_from_T)/custom_partitioning" source_file="/global/homes/j/jackm/software/lorrax_C/src/common/fft_helpers.py" source_line=259}, backend_config="140446840481616"
  %custom-call.62 = c128[1,480,480,2,2,4,4,4]{7,6,5,4,3,2,1,0} custom-call(%custom-call.61), custom_call_target="CustomSPMDPartitioning", api_version=API_VERSION_STATUS_RETURNING, sharding={devices=[1,2,2,1,1,1,1,1]<=[4]}, metadata={op_name="jit(_full_run)/jit(main)/while/body/jit(_matvec_impl)/jit(_apply_W_from_T)/custom_partitioning" source_file="/global/homes/j/jackm/software/lorrax_C/src/common/fft_helpers.py" source_line=259}, backend_config="140445767022784"
  %reshape.119 = c128[480,480,2,2,64]{4,3,2,1,0} reshape(%custom-call.62), sharding={devices=[2,2,1,1,1]<=[4]}
  %copy.3 = c128[64,4,2,480]{3,2,1,0} copy(%copy.13), sharding={devices=[1,1,1,2,2]<=[4] last_tile_dim_replicate}, metadata={op_name="jit(_full_run)/jit(main)/while/body/jit(_matvec_impl)/pjit" source_file="/global/homes/j/jackm/software/lorrax_C/src/bse/bse_ring_comm.py" source_line=449}
  %real.10 = f64[64,4,2,480]{3,2,1,0} real(%copy.3), sharding={devices=[1,1,1,2,2]<=[4] last_tile_dim_replicate}, metadata={op_name="jit(_full_run)/jit(main)/while/body/jit(_matvec_impl)/jit(_apply_W_from_T)/real" source_file="/global/homes/j/jackm/software/lorrax_C/src/bse/bse_ring_comm.py" source_line=422}
  %imag.10 = f64[64,4,2,480]{3,2,1,0} imag(%copy.3), sharding={devices=[1,1,1,2,2]<=[4] last_tile_dim_replicate}, metadata={op_name="jit(_full_run)/jit(main)/while/body/jit(_matvec_impl)/jit(_apply_W_from_T)/imag" source_file="/global/homes/j/jackm/software/lorrax_C/src/bse/bse_ring_comm.py" source_line=422}
  %negate.14 = f64[64,4,2,480]{3,2,1,0} negate(%imag.10), sharding={devices=[1,1,1,2,2]<=[4] last_tile_dim_replicate}, metadata={op_name="jit(_full_run)/jit(main)/while/body/jit(_matvec_impl)/jit(_apply_W_from_T)/neg" source_file="/global/homes/j/jackm/software/lorrax_C/src/bse/bse_ring_comm.py" source_line=422}
  %complex.10 = c128[64,4,2,480]{3,2,1,0} complex(%real.10, %negate.14), sharding={devices=[1,1,1,2,2]<=[4] last_tile_dim_replicate}, metadata={op_name="jit(_full_run)/jit(main)/while/body/jit(_matvec_impl)/jit(_apply_W_from_T)/complex" source_file="/global/homes/j/jackm/software/lorrax_C/src/bse/bse_ring_comm.py" source_line=422}
  %dot.21 = c128[64,480,2,4]{3,2,1,0} dot(%reshape.119, %complex.10), lhs_batch_dims={4}, lhs_contracting_dims={0,2}, rhs_batch_dims={0}, rhs_contracting_dims={3,2}, sharding={devices=[1,2,1,2]<=[2,2]T(1,0)}, metadata={op_name="jit(_full_run)/jit(main)/while/body/jit(_matvec_impl)/jit(_apply_W_from_T)/kctM,bMNtsk->bcNsk/dot_general" source_file="/global/homes/j/jackm/software/lorrax_C/src/bse/bse_ring_comm.py" source_line=422}
  %reshape.120 = c128[64,1,480,2,4]{4,3,2,1,0} reshape(%dot.21), sharding={devices=[1,1,2,1,2]<=[2,2]T(1,0)}, metadata={op_name="jit(_full_run)/jit(main)/while/body/jit(_matvec_impl)/jit(_apply_W_from_T)/kctM,bMNtsk->bcNsk/dot_general" source_file="/global/homes/j/jackm/software/lorrax_C/src/bse/bse_ring_comm.py" source_line=422}
  %transpose.17 = c128[1,4,480,2,64]{1,3,2,0,4} transpose(%reshape.120), dimensions={1,4,2,3,0}, sharding={devices=[1,2,2,1,1]<=[4]}, metadata={op_name="jit(_full_run)/jit(main)/while/body/jit(_matvec_impl)/jit(_apply_W_from_T)/kctM,bMNtsk->bcNsk/transpose" source_file="/global/homes/j/jackm/software/lorrax_C/src/bse/bse_ring_comm.py" source_line=422}
  %reshape.121 = c128[4,480,2,64]{0,2,1,3} reshape(%transpose.17), sharding={devices=[2,2,1,1]<=[4]}
  %copy.2 = c128[64,4,2,480]{3,2,1,0} copy(%copy.21), sharding={devices=[1,1,1,2,2]<=[2,2]T(1,0) last_tile_dim_replicate}, metadata={op_name="jit(_full_run)/jit(main)/while/body/jit(_matvec_impl)/pjit" source_file="/global/homes/j/jackm/software/lorrax_C/src/bse/bse_ring_comm.py" source_line=449}
  %dot.22 = c128[64,4,4]{2,1,0} dot(%reshape.121, %copy.2), lhs_batch_dims={3}, lhs_contracting_dims={1,2}, rhs_batch_dims={0}, rhs_contracting_dims={3,2}, sharding={devices=[1,2,2]<=[4]}, metadata={op_name="jit(_full_run)/jit(main)/while/body/jit(_matvec_impl)/jit(_apply_W_from_T)/kvsN,bcNsk->bcvk/dot_general" source_file="/global/homes/j/jackm/software/lorrax_C/src/bse/bse_ring_comm.py" source_line=423}
  %constant.974 = c128[] constant((0.125, 0)), sharding={replicated}, metadata={op_name="jit(_full_run)/jit(main)/while/body/jit(_matvec_impl)/jit(_apply_W_from_T)/convert_element_type" source_file="/global/homes/j/jackm/software/lorrax_C/src/bse/bse_ring_comm.py" source_line=424}
  %broadcast.1027 = c128[64,4,4]{2,1,0} broadcast(%constant.974), dimensions={}, sharding={devices=[1,2,2]<=[4]}, metadata={op_name="jit(_full_run)/jit(main)/while/body/jit(_matvec_impl)/jit(_apply_W_from_T)/div" source_file="/global/homes/j/jackm/software/lorrax_C/src/bse/bse_ring_comm.py" source_line=424}
  %multiply.166 = c128[64,4,4]{2,1,0} multiply(%dot.22, %broadcast.1027), sharding={devices=[1,2,2]<=[4]}, metadata={op_name="jit(_full_run)/jit(main)/while/body/jit(_matvec_impl)/jit(_apply_W_from_T)/div" source_file="/global/homes/j/jackm/software/lorrax_C/src/bse/bse_ring_comm.py" source_line=424}
  %reshape.425 = c128[64,1,4,4]{3,2,1,0} reshape(%multiply.166), sharding={devices=[1,1,2,2]<=[4]}, metadata={op_name="jit(_full_run)/jit(main)/while/body/jit(_matvec_impl)/jit(_apply_W_from_T)/div" source_file="/global/homes/j/jackm/software/lorrax_C/src/bse/bse_ring_comm.py" source_line=424}
  %transpose.46 = c128[1,4,4,64]{2,1,0,3} transpose(%reshape.425), dimensions={1,2,3,0}, sharding={devices=[1,2,2,1]<=[4]}, metadata={op_name="jit(_full_run)/jit(main)/while/body/jit(_matvec_impl)/jit(_apply_W_from_T)/div" source_file="/global/homes/j/jackm/software/lorrax_C/src/bse/bse_ring_comm.py" source_line=424}
  %copy.1 = c128[1,4,4,64]{3,2,1,0} copy(%transpose.46), sharding={devices=[1,2,2,1]<=[4]}, metadata={op_name="jit(_full_run)/jit(main)/while/body/jit(_matvec_impl)/pjit" source_file="/global/homes/j/jackm/software/lorrax_C/src/bse/bse_ring_comm.py" source_line=449}
  %subtract.17 = c128[1,4,4,64]{3,2,1,0} subtract(%add.419, %copy.1), sharding={devices=[1,2,2,1]<=[4]}, metadata={op_name="jit(_full_run)/jit(main)/while/body/jit(_matvec_impl)/sub" source_file="/global/homes/j/jackm/software/lorrax_C/src/bse/bse_ring_comm.py" source_line=450}
  %copy = c128[1,4,4,64]{3,2,1,0} copy(%subtract.17), sharding={devices=[1,2,2,1]<=[4]}, metadata={op_name="jit(_full_run)/jit(main)/while/body/pjit" source_file="/global/homes/j/jackm/software/lorrax_C/src/bse/bse_lanczos.py" source_line=186}
  %reshape.1986 = c128[1024,1]{1,0} reshape(%copy), sharding={devices=[2,1,2]<=[4] last_tile_dim_replicate}, metadata={op_name="jit(_full_run)/jit(main)/while/body/transpose" source_file="/global/homes/j/jackm/software/lorrax_C/src/solvers/lanczos.py" source_line=496}
  %real.30 = f64[1,1024,1]{2,1,0} real(%dynamic-slice.1981), sharding={devices=[1,2,1,2]<=[4] last_tile_dim_replicate}, metadata={op_name="jit(_full_run)/jit(main)/while/body/real" source_file="/global/homes/j/jackm/software/lorrax_C/src/solvers/lanczos.py" source_line=497}
  %imag.29 = f64[1,1024,1]{2,1,0} imag(%dynamic-slice.1981), sharding={devices=[1,2,1,2]<=[4] last_tile_dim_replicate}, metadata={op_name="jit(_full_run)/jit(main)/while/body/imag" source_file="/global/homes/j/jackm/software/lorrax_C/src/solvers/lanczos.py" source_line=497}
  %negate.62 = f64[1,1024,1]{2,1,0} negate(%imag.29), sharding={devices=[1,2,1,2]<=[4] last_tile_dim_replicate}, metadata={op_name="jit(_full_run)/jit(main)/while/body/neg" source_file="/global/homes/j/jackm/software/lorrax_C/src/solvers/lanczos.py" source_line=497}
  %complex.33 = c128[1,1024,1]{2,1,0} complex(%real.30, %negate.62), sharding={devices=[1,2,1,2]<=[4] last_tile_dim_replicate}, metadata={op_name="jit(_full_run)/jit(main)/while/body/complex" source_file="/global/homes/j/jackm/software/lorrax_C/src/solvers/lanczos.py" source_line=497}
  %reshape.123 = c128[1024]{0} reshape(%complex.33), sharding={devices=[2,2]<=[4] last_tile_dim_replicate}
  %reshape.124 = c128[1024]{0} reshape(%copy), sharding={devices=[2,2]<=[4] last_tile_dim_replicate}
  %multiply.124 = c128[1024]{0} multiply(%reshape.123, %reshape.124), sharding={devices=[2,2]<=[4] last_tile_dim_replicate}
  %constant.683 = c128[] constant((0, 0))
  %reduce.3 = c128[] reduce(%multiply.124, %constant.683), dimensions={0}, to_apply=%scalar_add_computation, sharding={replicated}, metadata={op_name="jit(_full_run)/jit(main)/while/body/dot_general" source_file="/global/homes/j/jackm/software/lorrax_C/src/solvers/lanczos.py" source_line=497}
  %broadcast.1031 = c128[1,1024,1]{2,1,0} broadcast(%reduce.3), dimensions={}, sharding={devices=[1,2,1,2]<=[4] last_tile_dim_replicate}, metadata={op_name="jit(_full_run)/jit(main)/while/body/dot_general" source_file="/global/homes/j/jackm/software/lorrax_C/src/solvers/lanczos.py" source_line=499}
  %multiply.164 = c128[1,1024,1]{2,1,0} multiply(%dynamic-slice.1981, %broadcast.1031), sharding={devices=[1,2,1,2]<=[4] last_tile_dim_replicate}, metadata={op_name="jit(_full_run)/jit(main)/while/body/dot_general" source_file="/global/homes/j/jackm/software/lorrax_C/src/solvers/lanczos.py" source_line=499}
  %reshape.128 = c128[1024,1]{1,0} reshape(%multiply.164), sharding={devices=[2,1,2]<=[4] last_tile_dim_replicate}, metadata={op_name="jit(_full_run)/jit(main)/while/body/dot_general" source_file="/global/homes/j/jackm/software/lorrax_C/src/solvers/lanczos.py" source_line=499}
  %subtract.1999 = c128[1024,1]{1,0} subtract(%reshape.1986, %reshape.128), sharding={devices=[2,1,2]<=[4] last_tile_dim_replicate}, metadata={op_name="jit(_full_run)/jit(main)/while/body/sub" source_file="/global/homes/j/jackm/software/lorrax_C/src/solvers/lanczos.py" source_line=499}
  %constant.906 = s32[] constant(-1), sharding={replicated}
  %add.598 = s32[] add(%get-tuple-element.1957, %constant.906), sharding={replicated}, metadata={op_name="jit(_full_run)/jit(main)/while/body/sub" source_file="/global/homes/j/jackm/software/lorrax_C/src/solvers/lanczos.py" source_line=500}
  %constant.1078 = s32[] constant(0), sharding={replicated}
  %maximum.2001 = s32[] maximum(%add.598, %constant.1078), sharding={replicated}, metadata={op_name="jit(_full_run)/jit(main)/while/body/max" source_file="/global/homes/j/jackm/software/lorrax_C/src/solvers/lanczos.py" source_line=500}
  %constant.1080 = s32[] constant(0)
  %dynamic-slice.2005 = c128[1,1024,1]{2,1,0} dynamic-slice(%get-tuple-element.298, %maximum.2001, %constant.1080, %constant.1080), dynamic_slice_sizes={1,1024,1}, sharding={devices=[1,2,1,2]<=[4] last_tile_dim_replicate}, metadata={op_name="jit(_full_run)/jit(main)/while/body/dynamic_slice" source_file="/global/homes/j/jackm/software/lorrax_C/src/solvers/lanczos.py" source_line=500}
  %get-tuple-element.306 = c128[200,1,1]{2,1,0} get-tuple-element(%arg_tuple.1956), index=3, sharding={replicated}
  %constant.907 = s32[] constant(-1), sharding={replicated}
  %add.599 = s32[] add(%get-tuple-element.1957, %constant.907), sharding={replicated}, metadata={op_name="jit(_full_run)/jit(main)/while/body/sub" source_file="/global/homes/j/jackm/software/lorrax_C/src/solvers/lanczos.py" source_line=501}
  %constant.1081 = s32[] constant(0), sharding={replicated}
  %maximum.2008 = s32[] maximum(%add.599, %constant.1081), sharding={replicated}, metadata={op_name="jit(_full_run)/jit(main)/while/body/max" source_file="/global/homes/j/jackm/software/lorrax_C/src/solvers/lanczos.py" source_line=501}
  %constant.1083 = s32[] constant(0), sharding={replicated}
  %dynamic-slice.2012 = c128[1,1,1]{2,1,0} dynamic-slice(%get-tuple-element.306, %maximum.2008, %constant.1083, %constant.1083), dynamic_slice_sizes={1,1,1}, sharding={replicated}, metadata={op_name="jit(_full_run)/jit(main)/while/body/dynamic_slice" source_file="/global/homes/j/jackm/software/lorrax_C/src/solvers/lanczos.py" source_line=501}
  %real.25 = f64[1,1,1]{2,1,0} real(%dynamic-slice.2012), sharding={replicated}, metadata={op_name="jit(_full_run)/jit(main)/while/body/real" source_file="/global/homes/j/jackm/software/lorrax_C/src/solvers/lanczos.py" source_line=502}
  %imag.24 = f64[1,1,1]{2,1,0} imag(%dynamic-slice.2012), sharding={replicated}, metadata={op_name="jit(_full_run)/jit(main)/while/body/imag" source_file="/global/homes/j/jackm/software/lorrax_C/src/solvers/lanczos.py" source_line=502}
  %negate.48 = f64[1,1,1]{2,1,0} negate(%imag.24), sharding={replicated}, metadata={op_name="jit(_full_run)/jit(main)/while/body/neg" source_file="/global/homes/j/jackm/software/lorrax_C/src/solvers/lanczos.py" source_line=502}
  %complex.28 = c128[1,1,1]{2,1,0} complex(%real.25, %negate.48), sharding={replicated}, metadata={op_name="jit(_full_run)/jit(main)/while/body/complex" source_file="/global/homes/j/jackm/software/lorrax_C/src/solvers/lanczos.py" source_line=502}
  %reshape.130 = c128[] reshape(%complex.28), sharding={replicated}
  %broadcast.1035 = c128[1,1024,1]{2,1,0} broadcast(%reshape.130), dimensions={}, sharding={devices=[1,2,1,2]<=[4] last_tile_dim_replicate}, metadata={op_name="jit(_full_run)/jit(main)/while/body/dot_general" source_file="/global/homes/j/jackm/software/lorrax_C/src/solvers/lanczos.py" source_line=502}
  %multiply.165 = c128[1,1024,1]{2,1,0} multiply(%dynamic-slice.2005, %broadcast.1035), sharding={devices=[1,2,1,2]<=[4] last_tile_dim_replicate}, metadata={op_name="jit(_full_run)/jit(main)/while/body/dot_general" source_file="/global/homes/j/jackm/software/lorrax_C/src/solvers/lanczos.py" source_line=502}
  %reshape.131 = c128[1024,1]{1,0} reshape(%multiply.165), sharding={devices=[2,1,2]<=[4] last_tile_dim_replicate}, metadata={op_name="jit(_full_run)/jit(main)/while/body/dot_general" source_file="/global/homes/j/jackm/software/lorrax_C/src/solvers/lanczos.py" source_line=502}
  %subtract.2020 = c128[1024,1]{1,0} subtract(%subtract.1999, %reshape.131), sharding={devices=[2,1,2]<=[4] last_tile_dim_replicate}, metadata={op_name="jit(_full_run)/jit(main)/while/body/sub" source_file="/global/homes/j/jackm/software/lorrax_C/src/solvers/lanczos.py" source_line=502}
  %select.132 = c128[1024,1]{1,0} select(%broadcast.520, %subtract.2020, %subtract.1999), sharding={devices=[2,1,2]<=[4] last_tile_dim_replicate}, metadata={op_name="jit(_full_run)/jit(main)/while/body/jit(_where)/select_n" source_file="/global/homes/j/jackm/software/lorrax_C/src/solvers/lanczos.py" source_line=502}
  %constant.1071 = s32[] constant(1), sharding={replicated}
  %add.2024 = s32[] add(%get-tuple-element.1957, %constant.1071), sharding={replicated}, metadata={op_name="jit(_full_run)/jit(main)/while/body/add" source_file="/global/homes/j/jackm/software/lorrax_C/src/solvers/lanczos.py" source_line=512}
  %tuple.2025 = (s32[], c128[1024,1]{1,0}, s32[], s32[], c128[200,1024,1]{2,1,0}) tuple(%maximum.2023, %select.132, %add.2024, %get-tuple-element.1957, %get-tuple-element.298), sharding={{replicated}, {devices=[2,1,2]<=[4] last_tile_dim_replicate}, {replicated}, {replicated}, {devices=[1,2,1,2]<=[4] last_tile_dim_replicate}}, metadata={op_name="jit(_full_run)/jit(main)/while/body/while" source_file="/global/homes/j/jackm/software/lorrax_C/src/solvers/lanczos.py" source_line=512}
  %while.2026 = (s32[], c128[1024,1]{1,0}, s32[], s32[], c128[200,1024,1]{2,1,0}) while(%tuple.2025), condition=%region_15.1704, body=%region_14.1676, sharding={{replicated}, {devices=[2,1,2]<=[4] last_tile_dim_replicate}, {replicated}, {replicated}, {devices=[1,2,1,2]<=[4] last_tile_dim_replicate}}, metadata={op_name="jit(_full_run)/jit(main)/while/body/while" source_file="/global/homes/j/jackm/software/lorrax_C/src/solvers/lanczos.py" source_line=512}
  %get-tuple-element.2028 = c128[1024,1]{1,0} get-tuple-element(%while.2026), index=1, sharding={devices=[2,1,2]<=[4] last_tile_dim_replicate}, metadata={op_name="jit(_full_run)/jit(main)/while/body/while" source_file="/global/homes/j/jackm/software/lorrax_C/src/solvers/lanczos.py" source_line=512}
  %custom-call.67 = (c128[1024,1]{0,1}, c128[1]{0}) custom-call(%get-tuple-element.2028), custom_call_target="cusolver_geqrf_ffi", operand_layout_constraints={c128[1024,1]{0,1}}, output_to_operand_aliasing={{0}: (0, {})}, api_version=API_VERSION_TYPED_FFI, sharding={{devices=[2,1,2]<=[4] last_tile_dim_replicate}, {replicated}}, frontend_attributes={num_batch_dims="0"}, metadata={op_name="jit(_full_run)/…
  %select.215 = f64[1024,1]{1,0} select(%compare.77, %select.214, %broadcast.789), metadata={op_name="jit(_full_run)/jit(main)/jit(_normal)/jit(_normal_real)/erf_inv" source_file="/global/homes/j/jackm/software/lorrax_C/src/solvers/lanczos.py" source_line=484}
  %constant.640 = f64[] constant(-1.3331716628546209e-16)
  %broadcast.790 = f64[1024,1]{1,0} broadcast(%constant.640), dimensions={}
  %constant.641 = f64[] constant(1.5027403968909828e-06)
  %broadcast.791 = f64[1024,1]{1,0} broadcast(%constant.641), dimensions={}
  %select.216 = f64[1024,1]{1,0} select(%compare.76, %broadcast.790, %broadcast.791), metadata={op_name="jit(_full_run)/jit(main)/jit(_normal)/jit(_normal_real)/erf_inv" source_file="/global/homes/j/jackm/software/lorrax_C/src/solvers/lanczos.py" source_line=484}
  %constant.642 = f64[] constant(7.61570120807834e-09)
  %broadcast.792 = f64[1024,1]{1,0} broadcast(%constant.642), dimensions={}
  %select.217 = f64[1024,1]{1,0} select(%compare.77, %select.216, %broadcast.792), metadata={op_name="jit(_full_run)/jit(main)/jit(_normal)/jit(_normal_real)/erf_inv" source_file="/global/homes/j/jackm/software/lorrax_C/src/solvers/lanczos.py" source_line=484}
  %constant.643 = f64[] constant(1.1157877678025181e-17)
  %broadcast.793 = f64[1024,1]{1,0} broadcast(%constant.643), dimensions={}
  %constant.644 = f64[] constant(1.8239629214389228e-08)
  %broadcast.794 = f64[1024,1]{1,0} broadcast(%constant.644), dimensions={}
  %select.218 = f64[1024,1]{1,0} select(%compare.76, %broadcast.793, %broadcast.794), metadata={op_name="jit(_full_run)/jit(main)/jit(_normal)/jit(_normal_real)/erf_inv" source_file="/global/homes/j/jackm/software/lorrax_C/src/solvers/lanczos.py" source_line=484}
  %constant.645 = f64[] constant(-3.789465440126737e-09)
  %broadcast.795 = f64[1024,1]{1,0} broadcast(%constant.645), dimensions={}
  %select.219 = f64[1024,1]{1,0} select(%compare.77, %select.218, %broadcast.795), metadata={op_name="jit(_full_run)/jit(main)/jit(_normal)/jit(_normal_real)/erf_inv" source_file="/global/homes/j/jackm/software/lorrax_C/src/solvers/lanczos.py" source_line=484}
  %constant.646 = f64[] constant(1.28584807152564e-18)
  %broadcast.796 = f64[1024,1]{1,0} broadcast(%constant.646), dimensions={}
  %constant.647 = f64[] constant(-2.7517406297064545e-07)
  %broadcast.797 = f64[1024,1]{1,0} broadcast(%constant.647), dimensions={}
  %select.220 = f64[1024,1]{1,0} select(%compare.76, %broadcast.796, %broadcast.797), metadata={op_name="jit(_full_run)/jit(main)/jit(_normal)/jit(_normal_real)/erf_inv" source_file="/global/homes/j/jackm/software/lorrax_C/src/solvers/lanczos.py" source_line=484}
  %constant.648 = f64[] constant(1.5076572693500548e-09)
  %broadcast.798 = f64[1024,1]{1,0} broadcast(%constant.648), dimensions={}
  %select.221 = f64[1024,1]{1,0} select(%compare.77, %select.220, %broadcast.798), metadata={op_name="jit(_full_run)/jit(main)/jit(_normal)/jit(_normal_real)/erf_inv" source_file="/global/homes/j/jackm/software/lorrax_C/src/solvers/lanczos.py" source_line=484}
  %constant.649 = f64[] constant(-1.6850591381820166e-19)
  %broadcast.799 = f64[1024,1]{1,0} broadcast(%constant.649), dimensions={}
  %constant.650 = f64[] constant(9.0756561938885391e-08)
  %broadcast.800 = f64[1024,1]{1,0} broadcast(%constant.650), dimensions={}
  %select.222 = f64[1024,1]{1,0} select(%compare.76, %broadcast.799, %broadcast.800), metadata={op_name="jit(_full_run)/jit(main)/jit(_normal)/jit(_normal_real)/erf_inv" source_file="/global/homes/j/jackm/software/lorrax_C/src/solvers/lanczos.py" source_line=484}
  %constant.651 = f64[] constant(-2.5556418169965252e-10)
  %broadcast.801 = f64[1024,1]{1,0} broadcast(%constant.651), dimensions={}
  %select.223 = f64[1024,1]{1,0} select(%compare.77, %select.222, %broadcast.801), metadata={op_name="jit(_full_run)/jit(main)/jit(_normal)/jit(_normal_real)/erf_inv" source_file="/global/homes/j/jackm/software/lorrax_C/src/solvers/lanczos.py" source_line=484}
  %constant.652 = f64[] constant(-3.64441206401782e-21)
  %broadcast.802 = f64[1024,1]{1,0} broadcast(%constant.652), dimensions={}
  %constant.653 = f64[] constant(2.2137376921775787e-09)
  %broadcast.803 = f64[1024,1]{1,0} broadcast(%constant.653), dimensions={}
  %select.224 = f64[1024,1]{1,0} select(%compare.76, %broadcast.802, %broadcast.803), metadata={op_name="jit(_full_run)/jit(main)/jit(_normal)/jit(_normal_real)/erf_inv" source_file="/global/homes/j/jackm/software/lorrax_C/src/solvers/lanczos.py" source_line=484}
  %constant.654 = f64[] constant(-2.7109920616438573e-11)
  %broadcast.804 = f64[1024,1]{1,0} broadcast(%constant.654), dimensions={}
  %select.225 = f64[1024,1]{1,0} select(%compare.77, %select.224, %broadcast.804), metadata={op_name="jit(_full_run)/jit(main)/jit(_normal)/jit(_normal_real)/erf_inv" source_file="/global/homes/j/jackm/software/lorrax_C/src/solvers/lanczos.py" source_line=484}
  %constant.954 = f64[] constant(-3.125)
  %broadcast.846 = f64[1024,1]{1,0} broadcast(%constant.954), dimensions={}
  %add.608 = f64[1024,1]{1,0} add(%negate.19, %broadcast.846), metadata={op_name="jit(_full_run)/jit(main)/jit(_normal)/jit(_normal_real)/erf_inv" source_file="/global/homes/j/jackm/software/lorrax_C/src/solvers/lanczos.py" source_line=484}
  %sqrt.3 = f64[1024,1]{1,0} sqrt(%negate.19), metadata={op_name="jit(_full_run)/jit(main)/jit(_normal)/jit(_normal_real)/erf_inv" source_file="/global/homes/j/jackm/software/lorrax_C/src/solvers/lanczos.py" source_line=484}
  %constant.656 = f64[] constant(3.25)
  %broadcast.806 = f64[1024,1]{1,0} broadcast(%constant.656), dimensions={}
  %constant.657 = f64[] constant(5)
  %broadcast.807 = f64[1024,1]{1,0} broadcast(%constant.657), dimensions={}
  %select.226 = f64[1024,1]{1,0} select(%compare.77, %broadcast.806, %broadcast.807), metadata={op_name="jit(_full_run)/jit(main)/jit(_normal)/jit(_normal_real)/erf_inv" source_file="/global/homes/j/jackm/software/lorrax_C/src/solvers/lanczos.py" source_line=484}
  %subtract.25 = f64[1024,1]{1,0} subtract(%sqrt.3, %select.226), metadata={op_name="jit(_full_run)/jit(main)/jit(_normal)/jit(_normal_real)/erf_inv" source_file="/global/homes/j/jackm/software/lorrax_C/src/solvers/lanczos.py" source_line=484}
  %select.227 = f64[1024,1]{1,0} select(%compare.76, %add.608, %subtract.25), metadata={op_name="jit(_full_run)/jit(main)/jit(_normal)/jit(_normal_real)/erf_inv" source_file="/global/homes/j/jackm/software/lorrax_C/src/solvers/lanczos.py" source_line=484}
  %multiply.97 = f64[1024,1]{1,0} multiply(%select.225, %select.227), metadata={op_name="jit(_full_run)/jit(main)/jit(_normal)/jit(_normal_real)/erf_inv" source_file="/global/homes/j/jackm/software/lorrax_C/src/solvers/lanczos.py" source_line=484}
  %add.569 = f64[1024,1]{1,0} add(%select.223, %multiply.97), metadata={op_name="jit(_full_run)/jit(main)/jit(_normal)/jit(_normal_real)/erf_inv" source_file="/global/homes/j/jackm/software/lorrax_C/src/solvers/lanczos.py" source_line=484}
  %multiply.98 = f64[1024,1]{1,0} multiply(%add.569, %select.227), metadata={op_name="jit(_full_run)/jit(main)/jit(_normal)/jit(_normal_real)/erf_inv" source_file="/global/homes/j/jackm/software/lorrax_C/src/solvers/lanczos.py" source_line=484}
  %add.570 = f64[1024,1]{1,0} add(%select.221, %multiply.98), metadata={op_name="jit(_full_run)/jit(main)/jit(_normal)/jit(_normal_real)/erf_inv" source_file="/global/homes/j/jackm/software/lorrax_C/src/solvers/lanczos.py" source_line=484}
  %multiply.99 = f64[1024,1]{1,0} multiply(%add.570, %select.227), metadata={op_name="jit(_full_run)/jit(main)/jit(_normal)/jit(_normal_real)/erf_inv" source_file="/global/homes/j/jackm/software/lorrax_C/src/solvers/lanczos.py" source_line=484}
  %add.571 = f64[1024,1]{1,0} add(%select.219, %multiply.99), metadata={op_name="jit(_full_run)/jit(main)/jit(_normal)/jit(_normal_real)/erf_inv" source_file="/global/homes/j/jackm/software/lorrax_C/src/solvers/lanczos.py" source_line=484}
  %multiply.100 = f64[1024,1]{1,0} multiply(%add.571, %select.227), metadata={op_name="jit(_full_run)/jit(main)/jit(_normal)/jit(_normal_real)/erf_inv" source_file="/global/homes/j/jackm/software/lorrax_C/src/solvers/lanczos.py" source_line=484}
  %add.572 = f64[1024,1]{1,0} add(%select.217, %multiply.100), metadata={op_name="jit(_full_run)/jit(main)/jit(_normal)/jit(_normal_real)/erf_inv" source_file="/global/homes/j/jackm/software/lorrax_C/src/solvers/lanczos.py" source_line=484}
  %multiply.101 = f64[1024,1]{1,0} multiply(%add.572, %select.227), metadata={op_name="jit(_full_run)/jit(main)/jit(_normal)/jit(_normal_real)/erf_inv" source_file="/global/homes/j/jackm/software/lorrax_C/src/solvers/lanczos.py" source_line=484}
  %add.573 = f64[1024,1]{1,0} add(%select.215, %multiply.101), metadata={op_name="jit(_full_run)/jit(main)/jit(_normal)/jit(_normal_real)/erf_inv" source_file="/global/homes/j/jackm/software/lorrax_C/src/solvers/lanczos.py" source_line=484}
  %multiply.102 = f64[1024,1]{1,0} multiply(%add.573, %select.227), metadata={op_name="jit(_full_run)/jit(main)/jit(_normal)/jit(_normal_real)/erf_inv" source_file="/global/homes/j/jackm/software/lorrax_C/src/solvers/lanczos.py" source_line=484}
  %add.574 = f64[1024,1]{1,0} add(%select.213, %multiply.102), metadata={op_name="jit(_full_run)/jit(main)/jit(_normal)/jit(_normal_real)/erf_inv" source_file="/global/homes/j/jackm/software/lorrax_C/src/solvers/lanczos.py" source_line=484}
  %multiply.103 = f64[1024,1]{1,0} multiply(%add.574, %select.227), metadata={op_name="jit(_full_run)/jit(main)/jit(_normal)/jit(_normal_real)/erf_inv" source_file="/global/homes/j/jackm/software/lorrax_C/src/solvers/lanczos.py" source_line=484}
  %add.575 = f64[1024,1]{1,0} add(%select.211, %multiply.103), metadata={op_name="jit(_full_run)/jit(main)/jit(_normal)/jit(_normal_real)/erf_inv" source_file="/global/homes/j/jackm/software/lorrax_C/src/solvers/lanczos.py" source_line=484}
  %multiply.104 = f64[1024,1]{1,0} multiply(%add.575, %select.227), metadata={op_name="jit(_full_run)/jit(main)/jit(_normal)/jit(_normal_real)/erf_inv" source_file="/global/homes/j/jackm/software/lorrax_C/src/solvers/lanczos.py" source_line=484}
  %add.576 = f64[1024,1]{1,0} add(%select.209, %multiply.104), metadata={op_name="jit(_full_run)/jit(main)/jit(_normal)/jit(_normal_real)/erf_inv" source_file="/global/homes/j/jackm/software/lorrax_C/src/solvers/lanczos.py" source_line=484}
  %multiply.105 = f64[1024,1]{1,0} multiply(%add.576, %select.227), metadata={op_name="jit(_full_run)/jit(main)/jit(_normal)/jit(_normal_real)/erf_inv" source_file="/global/homes/j/jackm/software/lorrax_C/src/solvers/lanczos.py" source_line=484}
  %add.577 = f64[1024,1]{1,0} add(%select.207, %multiply.105), metadata={op_name="jit(_full_run)/jit(main)/jit(_normal)/jit(_normal_real)/erf_inv" source_file="/global/homes/j/jackm/software/lorrax_C/src/solvers/lanczos.py" source_line=484}
  %multiply.106 = f64[1024,1]{1,0} multiply(%add.577, %select.227), metadata={op_name="jit(_full_run)/jit(main)/jit(_normal)/jit(_normal_real)/erf_inv" source_file="/global/homes/j/jackm/software/lorrax_C/src/solvers/lanczos.py" source_line=484}
  %add.578 = f64[1024,1]{1,0} add(%select.205, %multiply.106), metadata={op_name="jit(_full_run)/jit(main)/jit(_normal)/jit(_normal_real)/erf_inv" source_file="/global/homes/j/jackm/software/lorrax_C/src/solvers/lanczos.py" source_line=484}
  %multiply.107 = f64[1024,1]{1,0} multiply(%add.578, %select.227), metadata={op_name="jit(_full_run)/jit(main)/jit(_normal)/jit(_normal_real)/erf_inv" source_file="/global/homes/j/jackm/software/lorrax_C/src/solvers/lanczos.py" source_line=484}
  %add.579 = f64[1024,1]{1,0} add(%select.203, %multiply.107), metadata={op_name="jit(_full_run)/jit(main)/jit(_normal)/jit(_normal_real)/erf_inv" source_file="/global/homes/j/jackm/software/lorrax_C/src/solvers/lanczos.py" source_line=484}
  %multiply.108 = f64[1024,1]{1,0} multiply(%add.579, %select.227), metadata={op_name="jit(_full_run)/jit(main)/jit(_normal)/jit(_normal_real)/erf_inv" source_file="/global/homes/j/jackm/software/lorrax_C/src/solvers/lanczos.py" source_line=484}
  %add.580 = f64[1024,1]{1,0} add(%select.201, %multiply.108), metadata={op_name="jit(_full_run)/jit(main)/jit(_normal)/jit(_normal_real)/erf_inv" source_file="/global/homes/j/jackm/software/lorrax_C/src/solvers/lanczos.py" source_line=484}
  %multiply.109 = f64[1024,1]{1,0} multiply(%add.580, %select.227), metadata={op_name="jit(_full_run)/jit(main)/jit(_normal)/jit(_normal_real)/erf_inv" source_file="/global/homes/j/jackm/software/lorrax_C/src/solvers/lanczos.py" source_line=484}
  %add.581 = f64[1024,1]{1,0} add(%select.199, %multiply.109), metadata={op_name="jit(_full_run)/jit(main)/jit(_normal)/jit(_normal_real)/erf_inv" source_file="/global/homes/j/jackm/software/lorrax_C/src/solvers/lanczos.py" source_line=484}
  %multiply.110 = f64[1024,1]{1,0} multiply(%add.581, %select.227), metadata={op_name="jit(_full_run)/jit(main)/jit(_normal)/jit(_normal_real)/erf_inv" source_file="/global/homes/j/jackm/software/lorrax_C/src/solvers/lanczos.py" source_line=484}
  %add.582 = f64[1024,1]{1,0} add(%select.197, %multiply.110), metadata={op_name="jit(_full_run)/jit(main)/jit(_normal)/jit(_normal_real)/erf_inv" source_file="/global/homes/j/jackm/software/lorrax_C/src/solvers/lanczos.py" source_line=484}
  %multiply.111 = f64[1024,1]{1,0} multiply(%add.582, %select.227), metadata={op_name="jit(_full_run)/jit(main)/jit(_normal)/jit(_normal_real)/erf_inv" source_file="/global/homes/j/jackm/software/lorrax_C/src/solvers/lanczos.py" source_line=484}
  %add.583 = f64[1024,1]{1,0} add(%select.195, %multiply.111), metadata={op_name="jit(_full_run)/jit(main)/jit(_normal)/jit(_normal_real)/erf_inv" source_file="/global/homes/j/jackm/software/lorrax_C/src/solvers/lanczos.py" source_line=484}
  %multiply.112 = f64[1024,1]{1,0} multiply(%add.583, %select.227), metadata={op_name="jit(_full_run)/jit(main)/jit(_normal)/jit(_normal_real)/erf_inv" source_file="/global/homes/j/jackm/software/lorrax_C/src/solvers/lanczos.py" source_line=484}
  %add.584 = f64[1024,1]{1,0} add(%select.193, %multiply.112), metadata={op_name="jit(_full_run)/jit(main)/jit(_normal)/jit(_normal_real)/erf_inv" source_file="/global/homes/j/jackm/software/lorrax_C/src/solvers/lanczos.py" source_line=484}
  %multiply.113 = f64[1024,1]{1,0} multiply(%add.584, %select.227), metadata={op_name="jit(_full_run)/jit(main)/jit(_normal)/jit(_normal_real)/erf_inv" source_file="/global/homes/j/jackm/software/lorrax_C/src/solvers/lanczos.py" source_line=484}
  %add.585 = f64[1024,1]{1,0} add(%select.191, %multiply.113), metadata={op_name="jit(_full_run)/jit(main)/jit(_normal)/jit(_normal_real)/erf_inv" source_file="/global/homes/j/jackm/software/lorrax_C/src/solvers/lanczos.py" source_line=484}
  %select.228 = f64[1024,1]{1,0} select(%compare.77, %add.585, %add.584), metadata={op_name="jit(_full_run)/jit(main)/jit(_normal)/jit(_normal_real)/erf_inv" source_file="/global/homes/j/jackm/software/lorrax_C/src/solvers/lanczos.py" source_line=484}
  %multiply.114 = f64[1024,1]{1,0} multiply(%select.228, %select.227), metadata={op_name="jit(_full_run)/jit(main)/jit(_normal)/jit(_normal_real)/erf_inv" source_file="/global/homes/j/jackm/software/lorrax_C/src/solvers/lanczos.py" source_line=484}
  %add.586 = f64[1024,1]{1,0} add(%select.190, %multiply.114), metadata={op_name="jit(_full_run)/jit(main)/jit(_normal)/jit(_normal_real)/erf_inv" source_file="/global/homes/j/jackm/software/lorrax_C/src/solvers/lanczos.py" source_line=484}
  %select.229 = f64[1024,1]{1,0} select(%compare.77, %add.586, %select.228), metadata={op_name="jit(_full_run)/jit(main)/jit(_normal)/jit(_normal_real)/erf_inv" source_file="/global/homes/j/jackm/software/lorrax_C/src/solvers/lanczos.py" source_line=484}
  %multiply.115 = f64[1024,1]{1,0} multiply(%select.229, %select.227), metadata={op_name="jit(_full_run)/jit(main)/jit(_normal)/jit(_normal_real)/erf_inv" source_file="/global/homes/j/jackm/software/lorrax_C/src/solvers/lanczos.py" source_line=484}
  %constant.658 = f64[] constant(-0.000740702534166267)
  %broadcast.809 = f64[1024,1]{1,0} broadcast(%constant.658), dimensions={}
  %add.587 = f64[1024,1]{1,0} add(%multiply.115, %broadcast.809), metadata={op_name="jit(_full_run)/jit(main)/jit(_normal)/jit(_normal_real)/erf_inv" source_file="/global/homes/j/jackm/software/lorrax_C/src/solvers/lanczos.py" source_line=484}
  %select.230 = f64[1024,1]{1,0} select(%compare.76, %add.587, %select.229), metadata={op_name="jit(_full_run)/jit(main)/jit(_normal)/jit(_normal_real)/erf_inv" source_file="/global/homes/j/jackm/software/lorrax_C/src/solvers/lanczos.py" source_line=484}
  %multiply.116 = f64[1024,1]{1,0} multiply(%select.230, %select.227), metadata={op_name="jit(_full_run)/jit(main)/jit(_normal)/jit(_normal_real)/erf_inv" source_file="/global/homes/j/jackm/software/lorrax_C/src/solvers/lanczos.py" source_line=484}
  %constant.659 = f64[] constant(-0.0060336708714301491)
  %broadcast.811 = f64[1024,1]{1,0} broadcast(%constant.659), dimensions={}
  %add.588 = f64[1024,1]{1,0} add(%multiply.116, %broadcast.811), metadata={op_name="jit(_full_run)/jit(main)/jit(_normal)/jit(_normal_real)/erf_inv" source_file="/global/homes/j/jackm/software/lorrax_C/src/solvers/lanczos.py" source_line=484}
  %select.231 = f64[1024,1]{1,0} select(%compare.76, %add.588, %select.230), metadata={op_name="jit(_full_run)/jit(main)/jit(_normal)/jit(_normal_real)/erf_inv" source_file="/global/homes/j/jackm/software/lorrax_C/src/solvers/lanczos.py" source_line=484}
  %multiply.117 = f64[1024,1]{1,0} multiply(%select.231, %select.227), metadata={op_name="jit(_full_run)/jit(main)/jit(_normal)/jit(_normal_real)/erf_inv" source_file="/global/homes/j/jackm/software/lorrax_C/src/solvers/lanczos.py" source_line=484}
  %constant.660 = f64[] constant(0.24015818242558962)
  %broadcast.812 = f64[1024,1]{1,0} broadcast(%constant.660), dimensions={}
  %add.589 = f64[1024,1]{1,0} add(%multiply.117, %broadcast.812), metadata={op_name="jit(_full_run)/jit(main)/jit(_normal)/jit(_normal_real)/erf_inv" source_file="/global/homes/j/jackm/software/lorrax_C/src/solvers/lanczos.py" source_line=484}
  %select.232 = f64[1024,1]{1,0} select(%compare.76, %add.589, %select.231), metadata={op_name="jit(_full_run)/jit(main)/jit(_normal)/jit(_normal_real)/erf_inv" source_file="/global/homes/j/jackm/software/lorrax_C/src/solvers/lanczos.py" source_line=484}
  %multiply.118 = f64[1024,1]{1,0} multiply(%select.232, %select.227), metadata={op_name="jit(_full_run)/jit(main)/jit(_normal)/jit(_normal_real)/erf_inv" source_file="/global/homes/j/jackm/software/lorrax_C/src/solvers/lanczos.py" source_line=484}
  %constant.661 = f64[] constant(1.6536545626831027)
  %broadcast.813 = f64[1024,1]{1,0} broadcast(%constant.661), dimensions={}
  %add.590 = f64[1024,1]{1,0} add(%multiply.118, %broadcast.813), metadata={op_name="jit(_full_run)/jit(main)/jit(_normal)/jit(_normal_real)/erf_inv" source_file="/global/homes/j/jackm/software/lorrax_C/src/solvers/lanczos.py" source_line=484}
  %select.233 = f64[1024,1]{1,0} select(%compare.76, %add.590, %select.232), metadata={op_name="jit(_full_run)/jit(main)/jit(_normal)/jit(_normal_real)/erf_inv" source_file="/global/homes/j/jackm/software/lorrax_C/src/solvers/lanczos.py" source_line=484}
  %multiply.119 = f64[1024,1]{1,0} multiply(%select.233, %maximum.5), metadata={op_name="jit(_full_run)/jit(main)/jit(_normal)/jit(_normal_real)/erf_inv" source_file="/global/homes/j/jackm/software/lorrax_C/src/solvers/lanczos.py" source_line=484}
  %select.234 = f64[1024,1]{1,0} select(%compare.75, %multiply.95, %multiply.119), metadata={op_name="jit(_full_run)/jit(main)/jit(_normal)/jit(_normal_real)/erf_inv" source_file="/global/homes/j/jackm/software/lorrax_C/src/solvers/lanczos.py" source_line=484}
  %constant.662 = f64[] constant(1.4142135623730951)
  %broadcast.814 = f64[1024,1]{1,0} broadcast(%constant.662), dimensions={}
  %multiply.120 = f64[1024,1]{1,0} multiply(%select.234, %broadcast.814), metadata={op_name="jit(_full_run)/jit(main)/jit(_normal)/jit(_normal_real)/mul" source_file="/global/homes/j/jackm/software/lorrax_C/src/solvers/lanczos.py" source_line=484}
  %convert.1157 = c128[1024,1]{1,0} convert(%multiply.120), metadata={op_name="jit(_full_run)/jit(main)/convert_element_type" source_file="/global/homes/j/jackm/software/lorrax_C/src/solvers/lanczos.py" source_line=485}
  %constant.28 = c128[] constant((0, 1))
  %broadcast.29 = c128[1024,1]{1,0} broadcast(%constant.28), dimensions={}
  %multiply.1158 = c128[1024,1]{1,0} multiply(%convert.1157, %broadcast.29), metadata={op_name="jit(_full_run)/jit(main)/mul" source_file="/global/homes/j/jackm/software/lorrax_C/src/solvers/lanczos.py" source_line=485}
  %add.1160 = c128[1024,1]{1,0} add(%convert.1159, %multiply.1158), metadata={op_name="jit(_full_run)/jit(main)/add" source_file="/global/homes/j/jackm/software/lorrax_C/src/solvers/lanczos.py" source_line=484}
  %custom-call.69 = (c128[1024,1]{0,1}, c128[1]{0}) custom-call(%add.1160), custom_call_target="cusolver_geqrf_ffi", operand_layout_constraints={c128[1024,1]{0,1}}, output_to_operand_aliasing={{0}: (0, {})}, api_version=API_VERSION_TYPED_FFI, sharding={{devices=[2,1,2]<=[4] last_tile_dim_replicate}, {replicated}}, frontend_attributes={num_batch_dims="0"}, metadata={op_name="jit(_full_run)/jit(main)/jit(qr)/geqrf" source_file="/global/homes/j/jackm/software/lorrax_C/src/solvers/lanczos.py" source_line=486}, backend_config={}
  %get-tuple-element.56 = c128[1024,1]{0,1} get-tuple-element(%custom-call.69), index=0, sharding={devices=[2,1,2]<=[4] last_tile_dim_replicate}, frontend_attributes={num_batch_dims="0"}, metadata={op_name="jit(_full_run)/jit(main)/jit(qr)/geqrf" source_file="/global/homes/j/jackm/software/lorrax_C/src/solvers/lanczos.py" source_line=486}
  %get-tuple-element.57 = c128[1]{0} get-tuple-element(%custom-call.69), index=1, sharding={replicated}, frontend_attributes={num_batch_dims="0"}, metadata={op_name="jit(_full_run)/jit(main)/jit(qr)/geqrf" source_file="/global/homes/j/jackm/software/lorrax_C/src/solvers/lanczos.py" source_line=486}
  %custom-call.70 = c128[1024,1]{0,1} custom-call(%get-tuple-element.56, %get-tuple-element.57), custom_call_target="cusolver_orgqr_ffi", operand_layout_constraints={c128[1024,1]{0,1}, c128[1]{0}}, output_to_operand_aliasing={{}: (0, {})}, api_version=API_VERSION_TYPED_FFI, sharding={devices=[2,1,2]<=[4] last_tile_dim_replicate}, frontend_attributes={num_batch_dims="0"}, metadata={op_name="jit(_full_run)/jit(main)/jit(qr)/householder_product" source_file="/global/homes/j/jackm/software/lorrax_C/src/solvers/lanczos.py" source_line=486}, backend_config={}
  %reshape.299 = c128[1,1024,1]{2,1,0} reshape(%custom-call.70), sharding={devices=[1,2,1,2]<=[4] last_tile_dim_replicate}
  %constant.26 = c128[] constant((0, 0))
  %pad.8 = c128[200,1024,1]{2,1,0} pad(%reshape.299, %constant.26), padding=0_199x0_0x0_0, sharding={devices=[1,2,1,2]<=[4] last_tile_dim_replicate}, metadata={op_name="jit(_full_run)/jit(main)/scatter" source_file="/global/homes/j/jackm/software/lorrax_C/src/solvers/lanczos.py" source_line=488}
  %constant.23 = c128[] constant((0, 0)), sharding={replicated}
  %broadcast.24 = c128[200,1,1]{2,1,0} broadcast(%constant.23), dimensions={}, sharding={replicated}
  %constant.21 = f64[] constant(inf), sharding={replicated}
  %broadcast.22 = f64[5]{0} broadcast(%constant.21), dimensions={}, sharding={replicated}
  %constant.33 = pred[] constant(false), sharding={replicated}
  %Arg_0.1 = c128[64,4,2,480]{3,2,1,0} parameter(0), sharding={devices=[1,1,1,2,2]<=[4] last_tile_dim_replicate}, metadata={op_name="psi_c_X"}
  %Arg_1.2 = c128[64,4,2,480]{3,2,1,0} parameter(1), sharding={devices=[1,1,1,2,2]<=[2,2]T(1,0) last_tile_dim_replicate}, metadata={op_name="psi_c_Y"}
  %Arg_2.3 = c128[64,4,2,480]{3,2,1,0} parameter(2), sharding={devices=[1,1,1,2,2]<=[4] last_tile_dim_replicate}, metadata={op_name="psi_v_X"}
  %Arg_3.4 = c128[64,4,2,480]{3,2,1,0} parameter(3), sharding={devices=[1,1,1,2,2]<=[2,2]T(1,0) last_tile_dim_replicate}, metadata={op_name="psi_v_Y"}
  %Arg_4.5 = f64[64,4]{1,0} parameter(4), sharding={replicated}, metadata={op_name="eps_c"}
  %Arg_5.6 = f64[64,4]{1,0} parameter(5), sharding={replicated}, metadata={op_name="eps_v"}
  %Arg_6.7 = c128[480,480,4,4,4]{4,3,2,1,0} parameter(6), sharding={devices=[2,2,1,1,1]<=[4]}, metadata={op_name="W_q"}
  %custom-call.37 = c128[480,480,4,4,4]{4,3,2,1,0} custom-call(%Arg_6.7), custom_call_target="CustomSPMDPartitioning", api_version=API_VERSION_STATUS_RETURNING, sharding={devices=[2,2,1,1,1]<=[4]}, metadata={op_name="jit(_full_run)/jit(main)/custom_partitioning" source_file="/global/homes/j/jackm/software/lorrax_C/src/common/fft_helpers.py" source_line=259}, backend_config="140448253752288"
  %custom-call.38 = c128[480,480,4,4,4]{4,3,2,1,0} custom-call(%custom-call.37), custom_call_target="CustomSPMDPartitioning", api_version=API_VERSION_STATUS_RETURNING, sharding={devices=[2,2,1,1,1]<=[4]}, metadata={op_name="jit(_full_run)/jit(main)/custom_partitioning" source_file="/global/homes/j/jackm/software/lorrax_C/src/common/fft_helpers.py" source_line=259}, backend_config="140446840485168"
  %custom-call.39 = c128[480,480,4,4,4]{4,3,2,1,0} custom-call(%custom-call.38), custom_call_target="CustomSPMDPartitioning", api_version=API_VERSION_STATUS_RETURNING, sharding={devices=[2,2,1,1,1]<=[4]}, metadata={op_name="jit(_full_run)/jit(main)/custom_partitioning" source_file="/global/homes/j/jackm/software/lorrax_C/src/common/fft_helpers.py" source_line=259}, backend_config="140446839968240"
  %Arg_7.8 = c128[480,480]{1,0} parameter(7), sharding={devices=[2,2]<=[4]}, metadata={op_name="V_q0"}
  %tuple.1172 = (s32[], c128[200,1024,1]{2,1,0}, c128[200,1,1]{2,1,0}, c128[200,1,1]{2,1,0}, f64[5]{0}, /*index=5*/pred[], c128[64,4,2,480]{3,2,1,0}, c128[64,4,2,480]{3,2,1,0}, c128[64,4,2,480]{3,2,1,0}, c128[64,4,2,480]{3,2,1,0}, /*index=10*/f64[64,4]{1,0}, f64[64,4]{1,0}, c128[480,480,4,4,4]{4,3,2,1,0}, c128[480,480]{1,0}) tuple(%constant.34, %pad.8, %broadcast.24, %broadcast.24, %broadcast.22, /*index=5*/%constant.33, %Arg_0.1, %Arg_1.2, %Arg_2.3, %Arg_3.4, /*index=10*/%Arg_4.5, %Arg_5.6, %custom-call.39, %Arg_7.8), sharding={{replicated}, {devices=[1,2,1,2]<=[4] last_tile_dim_replicate}, {replicated}, {replicated}, {replicated}, /*index=5*/{replicated}, {devices=[1,1,1,2,2]<=[4] last_tile_dim_replicate}, {devices=[1,1,1,2,2]<=[2,2]T(1,0) last_tile_dim_replicate}, {devices=[1,1,1,2,2]<=[4] last_tile_dim_replicate}, {devices=[1,1,1,2,2]<=[2,2]T(1,0) last_tile_dim_replicate}, /*index=10*/{replicated}, {replicated}, {devices=[2,2,1,1,1]<=[4]}, {devices=[2,2]<=[4]}}, metadata={op_name="jit(_full_run)/jit(main)/while" source_file="/global/homes/j/jackm/software/lorrax_C/src/solvers/lanczos.py" source_line=564}
  %while.2077 = (s32[], c128[200,1024,1]{2,1,0}, c128[200,1,1]{2,1,0}, c128[200,1,1]{2,1,0}, f64[5]{0}, /*index=5*/pred[], c128[64,4,2,480]{3,2,1,0}, c128[64,4,2,480]{3,2,1,0}, c128[64,4,2,480]{3,2,1,0}, c128[64,4,2,480]{3,2,1,0}, /*index=10*/f64[64,4]{1,0}, f64[64,4]{1,0}, c128[480,480,4,4,4]{4,3,2,1,0}, c128[480,480]{1,0}) while(%tuple.1172), condition=%region_24.2057, body=%region_1.1955, sharding={{replicated}, {devices=[1,2,1,2]<=[4] last_tile_dim_replicate}, {replicated}, {replicated}, {replicated}, /*index=5*/{replicated}, {devices=[1,1,1,2,2]<=[4] last_tile_dim_replicate}, {devices=[1,1,1,2,2]<=[2,2]T(1,0) last_tile_dim_replicate}, {devices=[1,1,1,2,2]<=[4] last_tile_dim_replicate}, {devices=[1,1,1,2,2]<=[2,2]T(1,0) last_tile_dim_replicate}, /*index=10*/{replicated}, {replicated}, {devices=[2,2,1,1,1]<=[4]}, {devices=[2,2]<=[4]}}, metadata={op_name="jit(_full_run)/jit(main)/while" source_file="/global/homes/j/jackm/software/lorrax_C/src/solvers/lanczos.py" source_line=564}
  %get-tuple-element.429 = c128[200,1,1]{2,1,0} get-tuple-element(%while.2077), index=2, sharding={replicated}, metadata={op_name="jit(_full_run)/jit(main)/while" source_file="/global/homes/j/jackm/software/lorrax_C/src/solvers/lanczos.py" source_line=564}
  %get-tuple-element.430 = c128[200,1,1]{2,1,0} get-tuple-element(%while.2077), index=3, sharding={replicated}, metadata={op_name="jit(_full_run)/jit(main)/while" source_file="/global/homes/j/jackm/software/lorrax_C/src/solvers/lanczos.py" source_line=564}
  %tuple.94 = (s64[], c128[200,200]{1,0}, c128[200,1,1]{2,1,0}, c128[200,1,1]{2,1,0}) tuple(%constant.32, %broadcast.20, %get-tuple-element.429, %get-tuple-element.430), sharding={{replicated}, {replicated}, {replicated}, {replicated}}
  %while.22 = (s64[], c128[200,200]{1,0}, c128[200,1,1]{2,1,0}, c128[200,1,1]{2,1,0}) while(%tuple.94), condition=%region_26.2150.clone.clone, body=%region_25.2137.clone.clone.clone, sharding={{replicated}, {replicated}, {replicated}, {replicated}}, metadata={op_name="jit(_full_run)/jit(main)/while" source_file="/global/homes/j/jackm/software/lorrax_C/src/solvers/lanczos.py" source_line=323}
  %get-tuple-element.2162 = c128[200,200]{1,0} get-tuple-element(%while.22), index=1, sharding={replicated}, metadata={op_name="jit(_full_run)/jit(main)/while" source_file="/global/homes/j/jackm/software/lorrax_C/src/solvers/lanczos.py" source_line=323}
  %slice.2163 = c128[1,1,1]{2,1,0} slice(%get-tuple-element.429), slice={[199:200], [0:1], [0:1]}, sharding={replicated}, metadata={op_name="jit(_full_run)/jit(main)/slice" source_file="/global/homes/j/jackm/software/lorrax_C/src/solvers/lanczos.py" source_line=326}
  %reshape.2164 = c128[1,1]{1,0} reshape(%slice.2163), sharding={replicated}, metadata={op_name="jit(_full_run)/jit(main)/squeeze" source_file="/global/homes/j/jackm/software/lorrax_C/src/solvers/lanczos.py" source_line=326}
  %constant.31 = s64[] constant(199), sharding={replicated}
  %dynamic-update-slice.2165 = c128[200,200]{1,0} dynamic-update-slice(%get-tuple-element.2162, %reshape.2164, %constant.31, %constant.31), sharding={replicated}, metadata={op_name="jit(_full_run)/jit(main)/dynamic_update_slice" source_file="/global/homes/j/jackm/software/lorrax_C/src/solvers/lanczos.py" source_line=326}
  %real.2166 = f64[200,200]{1,0} real(%dynamic-update-slice.2165), sharding={replicated}, metadata={op_name="jit(_full_run)/jit(main)/real" source_file="/global/homes/j/jackm/software/lorrax_C/src/solvers/lanczos.py" source_line=327}
  %imag.2167 = f64[200,200]{1,0} imag(%dynamic-update-slice.2165), sharding={replicated}, metadata={op_name="jit(_full_run)/jit(main)/imag" source_file="/global/homes/j/jackm/software/lorrax_C/src/solvers/lanczos.py" source_line=327}
  %negate.2168 = f64[200,200]{1,0} negate(%imag.2167), sharding={replicated}, metadata={op_name="jit(_full_run)/jit(main)/neg" source_file="/global/homes/j/jackm/software/lorrax_C/src/solvers/lanczos.py" source_line=327}
  %complex.2169 = c128[200,200]{1,0} complex(%real.2166, %negate.2168), sharding={replicated}, metadata={op_name="jit(_full_run)/jit(main)/complex" source_file="/global/homes/j/jackm/software/lorrax_C/src/solvers/lanczos.py" source_line=327}
  %transpose.2170 = c128[200,200]{0,1} transpose(%complex.2169), dimensions={1,0}, sharding={replicated}, metadata={op_name="jit(_full_run)/jit(main)/transpose" source_file="/global/homes/j/jackm/software/lorrax_C/src/solvers/lanczos.py" source_line=327}
  %add.2171 = c128[200,200]{1,0} add(%dynamic-update-slice.2165, %transpose.2170), sharding={replicated}, metadata={op_name="jit(_full_run)/jit(main)/add" source_file="/global/homes/j/jackm/software/lorrax_C/src/solvers/lanczos.py" source_line=327}
  %constant.17 = c128[] constant((0.5, 0)), sharding={replicated}
  %broadcast.18 = c128[200,200]{1,0} broadcast(%constant.17), dimensions={}, sharding={replicated}
  %multiply.2172 = c128[200,200]{1,0} multiply(%add.2171, %broadcast.18), sharding={replicated}, metadata={op_name="jit(_full_run)/jit(main)/mul" source_file="/global/homes/j/jackm/software/lorrax_C/src/solvers/lanczos.py" source_line=327}
  %iota.16 = s64[200,200]{1,0} iota(), iota_dimension=0, sharding={replicated}, metadata={op_name="jit(_full_run)/jit(main)/jit(_diag)/iota" source_file="/global/homes/j/jackm/software/lorrax_C/src/solvers/lanczos.py" source_line=545}
  %iota.17 = s64[200,200]{1,0} iota(), iota_dimension=1, sharding={replicated}, metadata={op_name="jit(_full_run)/jit(main)/jit(_diag)/iota" source_file="/global/homes/j/jackm/software/lorrax_C/src/solvers/lanczos.py" source_line=545}
  %compare.78 = pred[200,200]{1,0} compare(%iota.16, %iota.17), direction=EQ, sharding={replicated}, metadata={op_name="jit(_full_run)/jit(main)/jit(_diag)/eq" source_file="/global/homes/j/jackm/software/lorrax_C/src/solvers/lanczos.py" source_line=545}
  %iota.2173 = s64[200]{0} iota(), iota_dimension=0, sharding={replicated}, metadata={op_name="jit(_full_run)/jit(main)/iota" source_file="/global/homes/j/jackm/software/lorrax_C/src/solvers/lanczos.py" source_line=571}
  %get-tuple-element.2078 = s32[] get-tuple-element(%while.2077), index=0, sharding={replicated}, metadata={op_name="jit(_full_run)/jit(main)/while" source_file="/global/homes/j/jackm/software/lorrax_C/src/solvers/lanczos.py" source_line=564}
  %convert.2174 = s64[] convert(%get-tuple-element.2078), sharding={replicated}, metadata={op_name="jit(_full_run)/jit(main)/convert_element_type" source_file="/global/homes/j/jackm/software/lorrax_C/src/solvers/lanczos.py" source_line=573}
  %broadcast.2175 = s64[200]{0} broadcast(%convert.2174), dimensions={}, sharding={replicated}, metadata={op_name="jit(_full_run)/jit(main)/ge" source_file="/global/homes/j/jackm/software/lorrax_C/src/solvers/lanczos.py" source_line=573}
  %compare.2176 = pred[200]{0} compare(%iota.2173, %broadcast.2175), direction=GE, sharding={replicated}, metadata={op_name="jit(_full_run)/jit(main)/ge" source_file="/global/homes/j/jackm/software/lorrax_C/src/solvers/lanczos.py" source_line=573}
  %constant.15 = f64[] constant(1000000), sharding={replicated}
  %broadcast.16 = f64[200]{0} broadcast(%constant.15), dimensions={}, sharding={replicated}
  %constant.684 = f64[] constant(0), sharding={replicated}
  %broadcast.847 = f64[200]{0} broadcast(%constant.684), dimensions={}, sharding={replicated}
  %select.239 = f64[200]{0} select(%compare.2176, %broadcast.16, %broadcast.847), sharding={replicated}, metadata={op_name="jit(_full_run)/jit(main)/mul" source_file="/global/homes/j/jackm/software/lorrax_C/src/solvers/lanczos.py" source_line=573}
  %broadcast.817 = f64[200,200]{1,0} broadcast(%select.239), dimensions={1}, sharding={replicated}, metadata={op_name="jit(_full_run)/jit(main)/jit(_diag)/jit(_where)/broadcast_in_dim" source_file="/global/homes/j/jackm/software/lorrax_C/src/solvers/lanczos.py" source_line=545}
  %constant.663 = f64[] constant(0), sharding={replicated}
  %broadcast.819 = f64[200,200]{1,0} broadcast(%constant.663), dimensions={}, sharding={replicated}, metadata={op_name="jit(_full_run)/jit(main)/jit(_diag)/jit(_where)/broadcast_in_dim" source_file="/global/homes/j/jackm/software/lorrax_C/src/solvers/lanczos.py" source_line=545}
  %select.235 = f64[200,200]{1,0} select(%compare.78, %broadcast.817, %broadcast.819), sharding={replicated}, metadata={op_name="jit(_full_run)/jit(main)/jit(_diag)/jit(_where)/select_n" source_file="/global/homes/j/jackm/software/lorrax_C/src/solvers/lanczos.py" source_line=545}
  %convert.2197 = c128[200,200]{1,0} convert(%select.235), sharding={replicated}, metadata={op_name="jit(_full_run)/jit(main)/convert_element_type" source_file="/global/homes/j/jackm/software/lorrax_C/src/solvers/lanczos.py" source_line=574}
  %add.2198 = c128[200,200]{1,0} add(%multiply.2172, %convert.2197), sharding={replicated}, metadata={op_name="jit(_full_run)/jit(main)/add" source_file="/global/homes/j/jackm/software/lorrax_C/src/solvers/lanczos.py" source_line=574}
  %real.28 = f64[200,200]{1,0} real(%add.2198), sharding={replicated}, metadata={op_name="jit(_full_run)/jit(main)/jit(eigh)/real" source_file="/global/homes/j/jackm/software/lorrax_C/src/solvers/lanczos.py" source_line=575}
  %imag.27 = f64[200,200]{1,0} imag(%add.2198), sharding={replicated}, metadata={op_name="jit(_full_run)/jit(main)/jit(eigh)/imag" source_file="/global/homes/j/jackm/software/lorrax_C/src/solvers/lanczos.py" source_line=575}
  %negate.50 = f64[200,200]{1,0} negate(%imag.27), sharding={replicated}, metadata={op_name="jit(_full_run)/jit(main)/jit(eigh)/neg" source_file="/global/homes/j/jackm/software/lorrax_C/src/solvers/lanczos.py" source_line=575}
  %complex.31 = c128[200,200]{1,0} complex(%real.28, %negate.50), sharding={replicated}, metadata={op_name="jit(_full_run)/jit(main)/jit(eigh)/complex" source_file="/global/homes/j/jackm/software/lorrax_C/src/solvers/lanczos.py" source_line=575}
  %transpose.81 = c128[200,200]{0,1} transpose(%complex.31), dimensions={1,0}, sharding={replicated}, metadata={op_name="jit(_full_run)/jit(main)/jit(eigh)/complex" source_file="/global/homes/j/jackm/software/lorrax_C/src/solvers/lanczos.py" source_line=575}
  %add.591 = c128[200,200]{1,0} add(%add.2198, %transpose.81), sharding={replicated}, metadata={op_name="jit(_full_run)/jit(main)/jit(eigh)/add" source_file="/global/homes/j/jackm/software/lorrax_C/src/solvers/lanczos.py" source_line=575}
  %constant.685 = c128[] constant((0.5, 0)), sharding={replicated}
  %broadcast.849 = c128[200,200]{1,0} broadcast(%constant.685), dimensions={}, sharding={replicated}
  %multiply.125 = c128[200,200]{1,0} multiply(%add.591, %broadcast.849), sharding={replicated}, metadata={op_name="jit(_full_run)/jit(main)/jit(eigh)/div" source_file="/global/homes/j/jackm/software/lorrax_C/src/solvers/lanczos.py" source_line=575}
  %custom-call.71 = (c128[200,200]{0,1}, f64[200]{0}, s32[]) custom-call(%multiply.125), custom_call_target="cusolver_syevd_ffi", operand_layout_constraints={c128[200,200]{0,1}}, output_to_operand_aliasing={{0}: (0, {})}, api_version=API_VERSION_TYPED_FFI, sharding={{replicated}, {replicated}, {replicated}}, frontend_attributes={num_batch_dims="0"}, metadata={op_name="jit(_full_run)/jit(main)/jit(eigh)/eigh" source_file="/global/homes/j/jackm/software/lorrax_C/src/solvers/lanczos.py" source_line=575}, backend_config={algorithm = 0 : ui8, lower = true}
  %get-tuple-element.58 = s32[] get-tuple-element(%custom-call.71), index=2, sharding={replicated}, frontend_attributes={num_batch_dims="0"}, metadata={op_name="jit(_full_run)/jit(main)/jit(eigh)/eigh" source_file="/global/homes/j/jackm/software/lorrax_C/src/solvers/lanczos.py" source_line=575}
  %constant.665 = s32[] constant(0), sharding={replicated}
  %compare.79 = pred[] compare(%get-tuple-element.58, %constant.665), direction=EQ, sharding={replicated}, metadata={op_name="jit(_full_run)/jit(main)/jit(eigh)/eigh" source_file="/global/homes/j/jackm/software/lorrax_C/src/solvers/lanczos.py" source_line=575}
  %broadcast.822 = pred[200]{0} broadcast(%compare.79), dimensions={}, sharding={replicated}, metadata={op_name="jit(_full_run)/jit(main)/jit(eigh)/eigh" source_file="/global/homes/j/jackm/software/lorrax_C/src/solvers/lanczos.py" source_line=575}
  %get-tuple-element.59 = f64[200]{0} get-tuple-element(%custom-call.71), index=1, sharding={replicated}, frontend_attributes={num_batch_dims="0"}, metadata={op_name="jit(_full_run)/jit(main)/jit(eigh)/eigh" source_file="/global/homes/j/jackm/software/lorrax_C/src/solvers/lanczos.py" source_line=575}
  %constant.666 = f64[] constant(nan), sharding={replicated}
  %broadcast.823 = f64[200]{0} broadcast(%constant.666), dimensions={}, sharding={replicated}
  %select.236 = f64[200]{0} select(%broadcast.822, %get-tuple-element.59, %broadcast.823), sharding={replicated}, metadata={op_name="jit(_full_run)/jit(main)/jit(eigh)/eigh" source_file="/global/homes/j/jackm/software/lorrax_C/src/solvers/lanczos.py" source_line=575}
  %iota.11 = s64[200]{0} iota(), iota_dimension=0, sharding={replicated}, metadata={op_name="jit(_full_run)/jit(main)/jit(argsort)/iota" source_file="/global/homes/j/jackm/software/lorrax_C/src/solvers/lanczos.py" source_line=576}
  %sort.1 = (f64[200]{0}, s64[200]{0}) sort(%select.236, %iota.11), dimensions={0}, is_stable=true, to_apply=%region_27.2234, sharding={{replicated}, {replicated}}, metadata={op_name="jit(_full_run)/jit(main)/jit(argsort)/sort" source_file="/global/homes/j/jackm/software/lorrax_C/src/solvers/lanczos.py" source_line=576}
  %get-tuple-element.62 = s64[200]{0} get-tuple-element(%sort.1), index=1, sharding={replicated}, metadata={op_name="jit(_full_run)/jit(main)/jit(argsort)/sort" source_file="/global/homes/j/jackm/software/lorrax_C/src/solvers/lanczos.py" source_line=576}
  %slice.2257 = s64[5]{0} slice(%get-tuple-element.62), slice={[0:5]}, sharding={replicated}, metadata={op_name="jit(_full_run)/jit(main)/slice" source_file="/global/homes/j/jackm/software/lorrax_C/src/solvers/lanczos.py" source_line=576}
  %constant.13 = s64[] constant(0), sharding={replicated}
  %broadcast.14 = s64[5]{0} broadcast(%constant.13), dimensions={}, sharding={replicated}
  %compare.2258 = pred[5]{0} compare(%slice.2257, %broadcast.14), direction=LT, sharding={replicated}, metadata={op_name="jit(_full_run)/jit(main)/lt" source_file="/global/homes/j/jackm/software/lorrax_C/src/solvers/lanczos.py" source_line=577}
  %constant.11 = s64[] constant(200), sharding={replicated}
  %broadcast.12 = s64[5]{0} broadcast(%constant.11), dimensions={}, sharding={replicated}
  %add.2259 = s64[5]{0} add(%slice.2257, %broadcast.12), sharding={replicated}, metadata={op_name="jit(_full_run)/jit(main)/add" source_file="/global/homes/j/jackm/software/lorrax_C/src/solvers/lanczos.py" source_line=577}
  %select.2260 = s64[5]{0} select(%compare.2258, %add.2259, %slice.2257), sharding={replicated}, metadata={op_name="jit(_full_run)/jit(main)/select_n" source_file="/global/homes/j/jackm/software/lorrax_C/src/solvers/lanczos.py" source_line=577}
  %convert.2261 = s32[5]{0} convert(%select.2260), sharding={replicated}, metadata={op_name="jit(_full_run)/jit(main)/convert_element_type" source_file="/global/homes/j/jackm/software/lorrax_C/src/solvers/lanczos.py" source_line=577}
  %reshape.2262 = s32[5,1]{1,0} reshape(%convert.2261), sharding={replicated}, metadata={op_name="jit(_full_run)/jit(main)/broadcast_in_dim" source_file="/global/homes/j/jackm/software/lorrax_C/src/solvers/lanczos.py" source_line=577}
  %gather.2263 = f64[5]{0} gather(%select.236, %reshape.2262), offset_dims={}, collapsed_slice_dims={0}, start_index_map={0}, index_vector_dim=1, slice_sizes={1}, sharding={replicated}, metadata={op_name="jit(_full_run)/jit(main)/gather" source_file="/global/homes/j/jackm/software/lorrax_C/src/solvers/lanczos.py" source_line=577}
  %broadcast.825 = pred[200,200]{1,0} broadcast(%compare.79), dimensions={}, sharding={replicated}, metadata={op_name="jit(_full_run)/jit(main)/jit(eigh)/eigh" source_file="/global/homes/j/jackm/software/lorrax_C/src/solvers/lanczos.py" source_line=575}
  %get-tuple-element.60 = c128[200,200]{0,1} get-tuple-element(%custom-call.71), index=0, sharding={replicated}, frontend_attributes={num_batch_dims="0"}, metadata={op_name="jit(_full_run)/jit(main)/jit(eigh)/eigh" source_file="/global/homes/j/jackm/software/lorrax_C/src/solvers/lanczos.py" source_line=575}
  %constant.667 = c128[] constant((nan, nan)), sharding={replicated}
  %broadcast.826 = c128[200,200]{1,0} broadcast(%constant.667), dimensions={}, sharding={replicated}
  %select.237 = c128[200,200]{1,0} select(%broadcast.825, %get-tuple-element.60, %broadcast.826), sharding={replicated}, metadata={op_name="jit(_full_run)/jit(main)/jit(eigh)/eigh" source_file="/global/homes/j/jackm/software/lorrax_C/src/solvers/lanczos.py" source_line=575}
  %compare.2266 = pred[5]{0} compare(%slice.2257, %broadcast.14), direction=LT, sharding={replicated}, metadata={op_name="jit(_full_run)/jit(main)/lt" source_file="/global/homes/j/jackm/software/lorrax_C/src/solvers/lanczos.py" source_line=579}
  %add.2267 = s64[5]{0} add(%slice.2257, %broadcast.12), sharding={replicated}, metadata={op_name="jit(_full_run)/jit(main)/add" source_file="/global/homes/j/jackm/software/lorrax_C/src/solvers/lanczos.py" source_line=579}
  %select.2268 = s64[5]{0} select(%compare.2266, %add.2267, %slice.2257), sharding={replicated}, metadata={op_name="jit(_full_run)/jit(main)/select_n" source_file="/global/homes/j/jackm/software/lorrax_C/src/solvers/lanczos.py" source_line=579}
  %convert.2269 = s32[5]{0} convert(%select.2268), sharding={replicated}, metadata={op_name="jit(_full_run)/jit(main)/convert_element_type" source_file="/global/homes/j/jackm/software/lorrax_C/src/solvers/lanczos.py" source_line=579}
  %reshape.2270 = s32[5,1]{1,0} reshape(%convert.2269), sharding={replicated}, metadata={op_name="jit(_full_run)/jit(main)/broadcast_in_dim" source_file="/global/homes/j/jackm/software/lorrax_C/src/solvers/lanczos.py" source_line=579}
  %gather.2271 = c128[200,5]{1,0} gather(%select.237, %reshape.2270), offset_dims={0}, collapsed_slice_dims={1}, start_index_map={1}, index_vector_dim=1, slice_sizes={200,1}, sharding={replicated}, metadata={op_name="jit(_full_run)/jit(main)/gather" source_file="/global/homes/j/jackm/software/lorrax_C/src/solvers/lanczos.py" source_line=579}
  %get-tuple-element.2079 = c128[200,1024,1]{2,1,0} get-tuple-element(%while.2077), index=1, sharding={devices=[1,2,1,2]<=[4] last_tile_dim_replicate}, metadata={op_name="jit(_full_run)/jit(main)/while" source_file="/global/homes/j/jackm/software/lorrax_C/src/solvers/lanczos.py" source_line=564}
  %transpose.2264 = c128[1024,200,1]{2,0,1} transpose(%get-tuple-element.2079), dimensions={1,0,2}, sharding={devices=[2,1,1,2]<=[4] last_tile_dim_replicate}, metadata={op_name="jit(_full_run)/jit(main)/transpose" source_file="/global/homes/j/jackm/software/lorrax_C/src/solvers/lanczos.py" source_line=578}
  %reshape.2265 = c128[1024,200]{1,0} reshape(%transpose.2264), sharding={devices=[2,1,2]<=[4] last_tile_dim_replicate}, metadata={op_name="jit(_full_run)/jit(main)/reshape" source_file="/global/homes/j/jackm/software/lorrax_C/src/solvers/lanczos.py" source_line=578}
  %dot.26 = c128[5,1024]{0,1} dot(%gather.2271, %reshape.2265), lhs_contracting_dims={0}, rhs_contracting_dims={1}, sharding={devices=[1,2,2]<=[4] last_tile_dim_replicate}, metadata={op_name="jit(_full_run)/jit(main)/transpose" source_file="/global/homes/j/jackm/software/lorrax_C/src/solvers/lanczos.py" source_line=579}
  %real.13 = f64[5,1024]{1,0} real(%dot.26), sharding={devices=[1,2,2]<=[4] last_tile_dim_replicate}, metadata={op_name="jit(_full_run)/jit(main)/jit(norm)/real" source_file="/global/homes/j/jackm/software/lorrax_C/src/solvers/lanczos.py" source_line=580}
  %imag.13 = f64[5,1024]{1,0} imag(%dot.26), sharding={devices=[1,2,2]<=[4] last_tile_dim_replicate}, metadata={op_name="jit(_full_run)/jit(main)/jit(norm)/imag" source_file="/global/homes/j/jackm/software/lorrax_C/src/solvers/lanczos.py" source_line=580}
  %negate.21 = f64[5,1024]{1,0} negate(%imag.13), sharding={devices=[1,2,2]<=[4] last_tile_dim_replicate}, metadata={op_name="jit(_full_run)/jit(main)/jit(norm)/neg" source_file="/global/homes/j/jackm/software/lorrax_C/src/solvers/lanczos.py" source_line=580}
  %complex.13 = c128[5,1024]{1,0} complex(%real.13, %negate.21), sharding={devices=[1,2,2]<=[4] last_tile_dim_replicate}, metadata={op_name="jit(_full_run)/jit(main)/jit(norm)/complex" source_file="/global/homes/j/jackm/software/lorrax_C/src/solvers/lanczos.py" source_line=580}
  %multiply.121 = c128[5,1024]{1,0} multiply(%dot.26, %complex.13), sharding={devices=[1,2,2]<=[4] last_tile_dim_replicate}, metadata={op_name="jit(_full_run)/jit(main)/jit(norm)/mul" source_file="/global/homes/j/jackm/software/lorrax_C/src/solvers/lanczos.py" source_line=580}
  %real.14 = f64[5,1024]{1,0} real(%multiply.121), sharding={devices=[1,2,2]<=[4] last_tile_dim_replicate}, metadata={op_name="jit(_full_run)/jit(main)/jit(norm)/real" source_file="/global/homes/j/jackm/software/lorrax_C/src/solvers/lanczos.py" source_line=580}
  %constant.668 = f64[] constant(0)
  %reduce.1 = f64[5]{0} reduce(%real.14, %constant.668), dimensions={1}, to_apply=%region_28.2274, sharding={replicated}, metadata={op_name="jit(_full_run)/jit(main)/jit(norm)/reduce_sum" source_file="/global/homes/j/jackm/software/lorrax_C/src/solvers/lanczos.py" source_line=580}
  %sqrt.5 = f64[5]{0} sqrt(%reduce.1), sharding={replicated}, metadata={op_name="jit(_full_run)/jit(main)/jit(norm)/sqrt" source_file="/global/homes/j/jackm/software/lorrax_C/src/solvers/lanczos.py" source_line=580}
  %constant.9 = f64[] constant(1e-15), sharding={replicated}
  %broadcast.1039 = f64[5]{0} broadcast(%constant.9), dimensions={}, sharding={replicated}
  %maximum.6 = f64[5]{0} maximum(%sqrt.5, %broadcast.1039), sharding={replicated}, metadata={op_name="jit(_full_run)/jit(main)/max" source_file="/global/homes/j/jackm/software/lorrax_C/src/solvers/lanczos.py" source_line=581}
  %convert.68 = c128[5]{0} convert(%maximum.6), sharding={replicated}, metadata={op_name="jit(_full_run)/jit(main)/convert_element_type" source_file="/global/homes/j/jackm/software/lorrax_C/src/solvers/lanczos.py" source_line=581}
  %broadcast.2295 = c128[5,1024]{1,0} broadcast(%convert.68), dimensions={0}, sharding={replicated}, metadata={op_name="jit(_full_run)/jit(main)/div" source_file="/global/homes/j/jackm/software/lorrax_C/src/solvers/lanczos.py" source_line=581}
  %divide.2296 = c128[5,1024]{0,1} divide(%dot.26, %broadcast.2295), sharding={replicated}, metadata={op_name="jit(_full_run)/jit(main)/div" source_file="/global/homes/j/jackm/software/lorrax_C/src/solvers/lanczos.py" source_line=581}
  ROOT %tuple.2300 = (f64[5]{0}, c128[5,1024]{1,0}, s32[]) tuple(%gather.2263, %divide.2296, %get-tuple-element.2078), sharding={{replicated}, {replicated}, {replicated}}
  %constant.416 = f64[] constant(-0.99999999999999989)
  %constant.559 = f64[] constant(-0.99999999999999989)
  %constant.926 = u32[] constant(42), metadata={op_name="jit(_full_run)/jit(main)/jit(_threefry_split)/squeeze" source_file="/global/homes/j/jackm/software/lorrax_C/src/solvers/lanczos.py" source_line=483}
  %constant.930 = u32[] constant(466689008), metadata={op_name="jit(_full_run)/jit(main)/jit(_threefry_split)/xor" source_file="/global/homes/j/jackm/software/lorrax_C/src/solvers/lanczos.py" source_line=483}
}

